…
I0403 15:45:23.199373 11215 net.cpp:313] The NetState phase (1) differed from the phase (0) specified by a rule in layer data
I0403 15:45:23.200521 11215 net.cpp:49] Initializing net from parameters: 
state {
  phase: TEST
}
layer {
  name: "data"
  type: "Data"
  top: "data"
  top: "label"
  include {
    phase: TEST
  }
  transform_param {
    mirror: false
    crop_size: 224
    mean_file: "/home/mohanty/data/final_dataset/lmdb/segmented-80-20/mean.binaryproto"
  }
  data_param {
    source: "/home/mohanty/data/final_dataset/lmdb/segmented-80-20/test_db"
    batch_size: 24
    backend: LMDB
  }
}
layer {
  name: "conv1/7x7_s2"
  type: "Convolution"
  bottom: "data"
  top: "conv1/7x7_s2"
  param {
    lr_mult: 1
    decay_mult: 1
  }
  param {
    lr_mult: 2
    decay_mult: 0
  }
  convolution_param {
    num_output: 64
    pad: 3
    kernel_size: 7
    stride: 2
    weight_filler {
      type: "xavier"
      std: 0.1
    }
    bias_filler {
      type: "constant"
      value: 0.2
    }
  }
}
layer {
  name: "conv1/relu_7x7"
  type: "ReLU"
  bottom: "conv1/7x7_s2"
  top: "conv1/7x7_s2"
}
layer {
  name: "pool1/3x3_s2"
  type: "Pooling"
  bottom: "conv1/7x7_s2"
  top: "pool1/3x3_s2"
  pooling_param {
    pool: MAX
    kernel_size: 3
    stride: 2
  }
}
layer {
  name: "pool1/norm1"
  type: "LRN"
  bottom: "pool1/3x3_s2"
  top: "pool1/norm1"
  lrn_param {
    local_size: 5
    alpha: 0.0001
    beta: 0.75
  }
}
layer {
  name: "conv2/3x3_reduce"
  type: "Convolution"
  bottom: "pool1/norm1"
  top: "conv2/3x3_reduce"
  param {
    lr_mult: 1
    decay_mult: 1
  }
  param {
    lr_mult: 2
    decay_mult: 0
  }
  convolution_param {
    num_output: 64
    kernel_size: 1
    weight_filler {
      type: "xavier"
      std: 0.1
    }
    bias_filler {
      type: "constant"
      value: 0.2
    }
  }
}
layer {
  name: "conv2/relu_3x3_reduce"
  type: "ReLU"
  bottom: "conv2/3x3_reduce"
  top: "conv2/3x3_reduce"
}
layer {
  name: "conv2/3x3"
  type: "Convolution"
  bottom: "conv2/3x3_reduce"
  top: "conv2/3x3"
  param {
    lr_mult: 1
    decay_mult: 1
  }
  param {
    lr_mult: 2
    decay_mult: 0
  }
  convolution_param {
    num_output: 192
    pad: 1
    kernel_size: 3
    weight_filler {
      type: "xavier"
      std: 0.03
    }
    bias_filler {
      type: "constant"
      value: 0.2
    }
  }
}
layer {
  name: "conv2/relu_3x3"
  type: "ReLU"
  bottom: "conv2/3x3"
  top: "conv2/3x3"
}
layer {
  name: "conv2/norm2"
  type: "LRN"
  bottom: "conv2/3x3"
  top: "conv2/norm2"
  lrn_param {
    local_size: 5
    alpha: 0.0001
    beta: 0.75
  }
}
layer {
  name: "pool2/3x3_s2"
  type: "Pooling"
  bottom: "conv2/norm2"
  top: "pool2/3x3_s2"
  pooling_param {
    pool: MAX
    kernel_size: 3
    stride: 2
  }
}
layer {
  name: "inception_3a/1x1"
  type: "Convolution"
  bottom: "pool2/3x3_s2"
  top: "inception_3a/1x1"
  param {
    lr_mult: 1
    decay_mult: 1
  }
  param {
    lr_mult: 2
    decay_mult: 0
  }
  convolution_param {
    num_output: 64
    kernel_size: 1
    weight_filler {
      type: "xavier"
      std: 0.03
    }
    bias_filler {
      type: "constant"
      value: 0.2
    }
  }
}
layer {
  name: "inception_3a/relu_1x1"
  type: "ReLU"
  bottom: "inception_3a/1x1"
  top: "inception_3a/1x1"
}
layer {
  name: "inception_3a/3x3_reduce"
  type: "Convolution"
  bottom: "pool2/3x3_s2"
  top: "inception_3a/3x3_reduce"
  param {
    lr_mult: 1
    decay_mult: 1
  }
  param {
    lr_mult: 2
    decay_mult: 0
  }
  convolution_param {
    num_output: 96
    kernel_size: 1
    weight_filler {
      type: "xavier"
      std: 0.09
    }
    bias_filler {
      type: "constant"
      value: 0.2
    }
  }
}
layer {
  name: "inception_3a/relu_3x3_reduce"
  type: "ReLU"
  bottom: "inception_3a/3x3_reduce"
  top: "inception_3a/3x3_reduce"
}
layer {
  name: "inception_3a/3x3"
  type: "Convolution"
  bottom: "inception_3a/3x3_reduce"
  top: "inception_3a/3x3"
  param {
    lr_mult: 1
    decay_mult: 1
  }
  param {
    lr_mult: 2
    decay_mult: 0
  }
  convolution_param {
    num_output: 128
    pad: 1
    kernel_size: 3
    weight_filler {
      type: "xavier"
      std: 0.03
    }
    bias_filler {
      type: "constant"
      value: 0.2
    }
  }
}
layer {
  name: "inception_3a/relu_3x3"
  type: "ReLU"
  bottom: "inception_3a/3x3"
  top: "inception_3a/3x3"
}
layer {
  name: "inception_3a/5x5_reduce"
  type: "Convolution"
  bottom: "pool2/3x3_s2"
  top: "inception_3a/5x5_reduce"
  param {
    lr_mult: 1
    decay_mult: 1
  }
  param {
    lr_mult: 2
    decay_mult: 0
  }
  convolution_param {
    num_output: 16
    kernel_size: 1
    weight_filler {
      type: "xavier"
      std: 0.2
    }
    bias_filler {
      type: "constant"
      value: 0.2
    }
  }
}
layer {
  name: "inception_3a/relu_5x5_reduce"
  type: "ReLU"
  bottom: "inception_3a/5x5_reduce"
  top: "inception_3a/5x5_reduce"
}
layer {
  name: "inception_3a/5x5"
  type: "Convolution"
  bottom: "inception_3a/5x5_reduce"
  top: "inception_3a/5x5"
  param {
    lr_mult: 1
    decay_mult: 1
  }
  param {
    lr_mult: 2
    decay_mult: 0
  }
  convolution_param {
    num_output: 32
    pad: 2
    kernel_size: 5
    weight_filler {
      type: "xavier"
      std: 0.03
    }
    bias_filler {
      type: "constant"
      value: 0.2
    }
  }
}
layer {
  name: "inception_3a/relu_5x5"
  type: "ReLU"
  bottom: "inception_3a/5x5"
  top: "inception_3a/5x5"
}
layer {
  name: "inception_3a/pool"
  type: "Pooling"
  bottom: "pool2/3x3_s2"
  top: "inception_3a/pool"
  pooling_param {
    pool: MAX
    kernel_size: 3
    stride: 1
    pad: 1
  }
}
layer {
  name: "inception_3a/pool_proj"
  type: "Convolution"
  bottom: "inception_3a/pool"
  top: "inception_3a/pool_proj"
  param {
    lr_mult: 1
    decay_mult: 1
  }
  param {
    lr_mult: 2
    decay_mult: 0
  }
  convolution_param {
    num_output: 32
    kernel_size: 1
    weight_filler {
      type: "xavier"
      std: 0.1
    }
    bias_filler {
      type: "constant"
      value: 0.2
    }
  }
}
layer {
  name: "inception_3a/relu_pool_proj"
  type: "ReLU"
  bottom: "inception_3a/pool_proj"
  top: "inception_3a/pool_proj"
}
layer {
  name: "inception_3a/output"
  type: "Concat"
  bottom: "inception_3a/1x1"
  bottom: "inception_3a/3x3"
  bottom: "inception_3a/5x5"
  bottom: "inception_3a/pool_proj"
  top: "inception_3a/output"
}
layer {
  name: "inception_3b/1x1"
  type: "Convolution"
  bottom: "inception_3a/output"
  top: "inception_3b/1x1"
  param {
    lr_mult: 1
    decay_mult: 1
  }
  param {
    lr_mult: 2
    decay_mult: 0
  }
  convolution_param {
    num_output: 128
    kernel_size: 1
    weight_filler {
      type: "xavier"
      std: 0.03
    }
    bias_filler {
      type: "constant"
      value: 0.2
    }
  }
}
layer {
  name: "inception_3b/relu_1x1"
  type: "ReLU"
  bottom: "inception_3b/1x1"
  top: "inception_3b/1x1"
}
layer {
  name: "inception_3b/3x3_reduce"
  type: "Convolution"
  bottom: "inception_3a/output"
  top: "inception_3b/3x3_reduce"
  param {
    lr_mult: 1
    decay_mult: 1
  }
  param {
    lr_mult: 2
    decay_mult: 0
  }
  convolution_param {
    num_output: 128
    kernel_size: 1
    weight_filler {
      type: "xavier"
      std: 0.09
    }
    bias_filler {
      type: "constant"
      value: 0.2
    }
  }
}
layer {
  name: "inception_3b/relu_3x3_reduce"
  type: "ReLU"
  bottom: "inception_3b/3x3_reduce"
  top: "inception_3b/3x3_reduce"
}
layer {
  name: "inception_3b/3x3"
  type: "Convolution"
  bottom: "inception_3b/3x3_reduce"
  top: "inception_3b/3x3"
  param {
    lr_mult: 1
    decay_mult: 1
  }
  param {
    lr_mult: 2
    decay_mult: 0
  }
  convolution_param {
    num_output: 192
    pad: 1
    kernel_size: 3
    weight_filler {
      type: "xavier"
      std: 0.03
    }
    bias_filler {
      type: "constant"
      value: 0.2
    }
  }
}
layer {
  name: "inception_3b/relu_3x3"
  type: "ReLU"
  bottom: "inception_3b/3x3"
  top: "inception_3b/3x3"
}
layer {
  name: "inception_3b/5x5_reduce"
  type: "Convolution"
  bottom: "inception_3a/output"
  top: "inception_3b/5x5_reduce"
  param {
    lr_mult: 1
    decay_mult: 1
  }
  param {
    lr_mult: 2
    decay_mult: 0
  }
  convolution_param {
    num_output: 32
    kernel_size: 1
    weight_filler {
      type: "xavier"
      std: 0.2
    }
    bias_filler {
      type: "constant"
      value: 0.2
    }
  }
}
layer {
  name: "inception_3b/relu_5x5_reduce"
  type: "ReLU"
  bottom: "inception_3b/5x5_reduce"
  top: "inception_3b/5x5_reduce"
}
layer {
  name: "inception_3b/5x5"
  type: "Convolution"
  bottom: "inception_3b/5x5_reduce"
  top: "inception_3b/5x5"
  param {
    lr_mult: 1
    decay_mult: 1
  }
  param {
    lr_mult: 2
    decay_mult: 0
  }
  convolution_param {
    num_output: 96
    pad: 2
    kernel_size: 5
    weight_filler {
      type: "xavier"
      std: 0.03
    }
    bias_filler {
      type: "constant"
      value: 0.2
    }
  }
}
layer {
  name: "inception_3b/relu_5x5"
  type: "ReLU"
  bottom: "inception_3b/5x5"
  top: "inception_3b/5x5"
}
layer {
  name: "inception_3b/pool"
  type: "Pooling"
  bottom: "inception_3a/output"
  top: "inception_3b/pool"
  pooling_param {
    pool: MAX
    kernel_size: 3
    stride: 1
    pad: 1
  }
}
layer {
  name: "inception_3b/pool_proj"
  type: "Convolution"
  bottom: "inception_3b/pool"
  top: "inception_3b/pool_proj"
  param {
    lr_mult: 1
    decay_mult: 1
  }
  param {
    lr_mult: 2
    decay_mult: 0
  }
  convolution_param {
    num_output: 64
    kernel_size: 1
    weight_filler {
      type: "xavier"
      std: 0.1
    }
    bias_filler {
      type: "constant"
      value: 0.2
    }
  }
}
layer {
  name: "inception_3b/relu_pool_proj"
  type: "ReLU"
  bottom: "inception_3b/pool_proj"
  top: "inception_3b/pool_proj"
}
layer {
  name: "inception_3b/output"
  type: "Concat"
  bottom: "inception_3b/1x1"
  bottom: "inception_3b/3x3"
  bottom: "inception_3b/5x5"
  bottom: "inception_3b/pool_proj"
  top: "inception_3b/output"
}
layer {
  name: "pool3/3x3_s2"
  type: "Pooling"
  bottom: "inception_3b/output"
  top: "pool3/3x3_s2"
  pooling_param {
    pool: MAX
    kernel_size: 3
    stride: 2
  }
}
layer {
  name: "inception_4a/1x1"
  type: "Convolution"
  bottom: "pool3/3x3_s2"
  top: "inception_4a/1x1"
  param {
    lr_mult: 1
    decay_mult: 1
  }
  param {
    lr_mult: 2
    decay_mult: 0
  }
  convolution_param {
    num_output: 192
    kernel_size: 1
    weight_filler {
      type: "xavier"
      std: 0.03
    }
    bias_filler {
      type: "constant"
      value: 0.2
    }
  }
}
layer {
  name: "inception_4a/relu_1x1"
  type: "ReLU"
  bottom: "inception_4a/1x1"
  top: "inception_4a/1x1"
}
layer {
  name: "inception_4a/3x3_reduce"
  type: "Convolution"
  bottom: "pool3/3x3_s2"
  top: "inception_4a/3x3_reduce"
  param {
    lr_mult: 1
    decay_mult: 1
  }
  param {
    lr_mult: 2
    decay_mult: 0
  }
  convolution_param {
    num_output: 96
    kernel_size: 1
    weight_filler {
      type: "xavier"
      std: 0.09
    }
    bias_filler {
      type: "constant"
      value: 0.2
    }
  }
}
layer {
  name: "inception_4a/relu_3x3_reduce"
  type: "ReLU"
  bottom: "inception_4a/3x3_reduce"
  top: "inception_4a/3x3_reduce"
}
layer {
  name: "inception_4a/3x3"
  type: "Convolution"
  bottom: "inception_4a/3x3_reduce"
  top: "inception_4a/3x3"
  param {
    lr_mult: 1
    decay_mult: 1
  }
  param {
    lr_mult: 2
    decay_mult: 0
  }
  convolution_param {
    num_output: 208
    pad: 1
    kernel_size: 3
    weight_filler {
      type: "xavier"
      std: 0.03
    }
    bias_filler {
      type: "constant"
      value: 0.2
    }
  }
}
layer {
  name: "inception_4a/relu_3x3"
  type: "ReLU"
  bottom: "inception_4a/3x3"
  top: "inception_4a/3x3"
}
layer {
  name: "inception_4a/5x5_reduce"
  type: "Convolution"
  bottom: "pool3/3x3_s2"
  top: "inception_4a/5x5_reduce"
  param {
    lr_mult: 1
    decay_mult: 1
  }
  param {
    lr_mult: 2
    decay_mult: 0
  }
  convolution_param {
    num_output: 16
    kernel_size: 1
    weight_filler {
      type: "xavier"
      std: 0.2
    }
    bias_filler {
      type: "constant"
      value: 0.2
    }
  }
}
layer {
  name: "inception_4a/relu_5x5_reduce"
  type: "ReLU"
  bottom: "inception_4a/5x5_reduce"
  top: "inception_4a/5x5_reduce"
}
layer {
  name: "inception_4a/5x5"
  type: "Convolution"
  bottom: "inception_4a/5x5_reduce"
  top: "inception_4a/5x5"
  param {
    lr_mult: 1
    decay_mult: 1
  }
  param {
    lr_mult: 2
    decay_mult: 0
  }
  convolution_param {
    num_output: 48
    pad: 2
    kernel_size: 5
    weight_filler {
      type: "xavier"
      std: 0.03
    }
    bias_filler {
      type: "constant"
      value: 0.2
    }
  }
}
layer {
  name: "inception_4a/relu_5x5"
  type: "ReLU"
  bottom: "inception_4a/5x5"
  top: "inception_4a/5x5"
}
layer {
  name: "inception_4a/pool"
  type: "Pooling"
  bottom: "pool3/3x3_s2"
  top: "inception_4a/pool"
  pooling_param {
    pool: MAX
    kernel_size: 3
    stride: 1
    pad: 1
  }
}
layer {
  name: "inception_4a/pool_proj"
  type: "Convolution"
  bottom: "inception_4a/pool"
  top: "inception_4a/pool_proj"
  param {
    lr_mult: 1
    decay_mult: 1
  }
  param {
    lr_mult: 2
    decay_mult: 0
  }
  convolution_param {
    num_output: 64
    kernel_size: 1
    weight_filler {
      type: "xavier"
      std: 0.1
    }
    bias_filler {
      type: "constant"
      value: 0.2
    }
  }
}
layer {
  name: "inception_4a/relu_pool_proj"
  type: "ReLU"
  bottom: "inception_4a/pool_proj"
  top: "inception_4a/pool_proj"
}
layer {
  name: "inception_4a/output"
  type: "Concat"
  bottom: "inception_4a/1x1"
  bottom: "inception_4a/3x3"
  bottom: "inception_4a/5x5"
  bottom: "inception_4a/pool_proj"
  top: "inception_4a/output"
}
layer {
  name: "loss1/ave_pool"
  type: "Pooling"
  bottom: "inception_4a/output"
  top: "loss1/ave_pool"
  pooling_param {
    pool: AVE
    kernel_size: 5
    stride: 3
  }
}
layer {
  name: "loss1/conv"
  type: "Convolution"
  bottom: "loss1/ave_pool"
  top: "loss1/conv"
  param {
    lr_mult: 1
    decay_mult: 1
  }
  param {
    lr_mult: 2
    decay_mult: 0
  }
  convolution_param {
    num_output: 128
    kernel_size: 1
    weight_filler {
      type: "xavier"
      std: 0.08
    }
    bias_filler {
      type: "constant"
      value: 0.2
    }
  }
}
layer {
  name: "loss1/relu_conv"
  type: "ReLU"
  bottom: "loss1/conv"
  top: "loss1/conv"
}
layer {
  name: "loss1/fc"
  type: "InnerProduct"
  bottom: "loss1/conv"
  top: "loss1/fc"
  param {
    lr_mult: 1
    decay_mult: 1
  }
  param {
    lr_mult: 2
    decay_mult: 0
  }
  inner_product_param {
    num_output: 1024
    weight_filler {
      type: "xavier"
      std: 0.02
    }
    bias_filler {
      type: "constant"
      value: 0.2
    }
  }
}
layer {
  name: "loss1/relu_fc"
  type: "ReLU"
  bottom: "loss1/fc"
  top: "loss1/fc"
}
layer {
  name: "loss1/drop_fc"
  type: "Dropout"
  bottom: "loss1/fc"
  top: "loss1/fc"
  dropout_param {
    dropout_ratio: 0.7
  }
}
layer {
  name: "loss1/classifier_plantvillage"
  type: "InnerProduct"
  bottom: "loss1/fc"
  top: "loss1/classifier_plantvillage"
  param {
    lr_mult: 1
    decay_mult: 1
  }
  param {
    lr_mult: 2
    decay_mult: 0
  }
  inner_product_param {
    num_output: 38
    weight_filler {
      type: "xavier"
      std: 0.0009765625
    }
    bias_filler {
      type: "constant"
      value: 0
    }
  }
}
layer {
  name: "inception_4b/1x1"
  type: "Convolution"
  bottom: "inception_4a/output"
  top: "inception_4b/1x1"
  param {
    lr_mult: 1
    decay_mult: 1
  }
  param {
    lr_mult: 2
    decay_mult: 0
  }
  convolution_param {
    num_output: 160
    kernel_size: 1
    weight_filler {
      type: "xavier"
      std: 0.03
    }
    bias_filler {
      type: "constant"
      value: 0.2
    }
  }
}
layer {
  name: "inception_4b/relu_1x1"
  type: "ReLU"
  bottom: "inception_4b/1x1"
  top: "inception_4b/1x1"
}
layer {
  name: "inception_4b/3x3_reduce"
  type: "Convolution"
  bottom: "inception_4a/output"
  top: "inception_4b/3x3_reduce"
  param {
    lr_mult: 1
    decay_mult: 1
  }
  param {
    lr_mult: 2
    decay_mult: 0
  }
  convolution_param {
    num_output: 112
    kernel_size: 1
    weight_filler {
      type: "xavier"
      std: 0.09
    }
    bias_filler {
      type: "constant"
      value: 0.2
    }
  }
}
layer {
  name: "inception_4b/relu_3x3_reduce"
  type: "ReLU"
  bottom: "inception_4b/3x3_reduce"
  top: "inception_4b/3x3_reduce"
}
layer {
  name: "inception_4b/3x3"
  type: "Convolution"
  bottom: "inception_4b/3x3_reduce"
  top: "inception_4b/3x3"
  param {
    lr_mult: 1
    decay_mult: 1
  }
  param {
    lr_mult: 2
    decay_mult: 0
  }
  convolution_param {
    num_output: 224
    pad: 1
    kernel_size: 3
    weight_filler {
      type: "xavier"
      std: 0.03
    }
    bias_filler {
      type: "constant"
      value: 0.2
    }
  }
}
layer {
  name: "inception_4b/relu_3x3"
  type: "ReLU"
  bottom: "inception_4b/3x3"
  top: "inception_4b/3x3"
}
layer {
  name: "inception_4b/5x5_reduce"
  type: "Convolution"
  bottom: "inception_4a/output"
  top: "inception_4b/5x5_reduce"
  param {
    lr_mult: 1
    decay_mult: 1
  }
  param {
    lr_mult: 2
    decay_mult: 0
  }
  convolution_param {
    num_output: 24
    kernel_size: 1
    weight_filler {
      type: "xavier"
      std: 0.2
    }
    bias_filler {
      type: "constant"
      value: 0.2
    }
  }
}
layer {
  name: "inception_4b/relu_5x5_reduce"
  type: "ReLU"
  bottom: "inception_4b/5x5_reduce"
  top: "inception_4b/5x5_reduce"
}
layer {
  name: "inception_4b/5x5"
  type: "Convolution"
  bottom: "inception_4b/5x5_reduce"
  top: "inception_4b/5x5"
  param {
    lr_mult: 1
    decay_mult: 1
  }
  param {
    lr_mult: 2
    decay_mult: 0
  }
  convolution_param {
    num_output: 64
    pad: 2
    kernel_size: 5
    weight_filler {
      type: "xavier"
      std: 0.03
    }
    bias_filler {
      type: "constant"
      value: 0.2
    }
  }
}
layer {
  name: "inception_4b/relu_5x5"
  type: "ReLU"
  bottom: "inception_4b/5x5"
  top: "inception_4b/5x5"
}
layer {
  name: "inception_4b/pool"
  type: "Pooling"
  bottom: "inception_4a/output"
  top: "inception_4b/pool"
  pooling_param {
    pool: MAX
    kernel_size: 3
    stride: 1
    pad: 1
  }
}
layer {
  name: "inception_4b/pool_proj"
  type: "Convolution"
  bottom: "inception_4b/pool"
  top: "inception_4b/pool_proj"
  param {
    lr_mult: 1
    decay_mult: 1
  }
  param {
    lr_mult: 2
    decay_mult: 0
  }
  convolution_param {
    num_output: 64
    kernel_size: 1
    weight_filler {
      type: "xavier"
      std: 0.1
    }
    bias_filler {
      type: "constant"
      value: 0.2
    }
  }
}
layer {
  name: "inception_4b/relu_pool_proj"
  type: "ReLU"
  bottom: "inception_4b/pool_proj"
  top: "inception_4b/pool_proj"
}
layer {
  name: "inception_4b/output"
  type: "Concat"
  bottom: "inception_4b/1x1"
  bottom: "inception_4b/3x3"
  bottom: "inception_4b/5x5"
  bottom: "inception_4b/pool_proj"
  top: "inception_4b/output"
}
layer {
  name: "inception_4c/1x1"
  type: "Convolution"
  bottom: "inception_4b/output"
  top: "inception_4c/1x1"
  param {
    lr_mult: 1
    decay_mult: 1
  }
  param {
    lr_mult: 2
    decay_mult: 0
  }
  convolution_param {
    num_output: 128
    kernel_size: 1
    weight_filler {
      type: "xavier"
      std: 0.03
    }
    bias_filler {
      type: "constant"
      value: 0.2
    }
  }
}
layer {
  name: "inception_4c/relu_1x1"
  type: "ReLU"
  bottom: "inception_4c/1x1"
  top: "inception_4c/1x1"
}
layer {
  name: "inception_4c/3x3_reduce"
  type: "Convolution"
  bottom: "inception_4b/output"
  top: "inception_4c/3x3_reduce"
  param {
    lr_mult: 1
    decay_mult: 1
  }
  param {
    lr_mult: 2
    decay_mult: 0
  }
  convolution_param {
    num_output: 128
    kernel_size: 1
    weight_filler {
      type: "xavier"
      std: 0.09
    }
    bias_filler {
      type: "constant"
      value: 0.2
    }
  }
}
layer {
  name: "inception_4c/relu_3x3_reduce"
  type: "ReLU"
  bottom: "inception_4c/3x3_reduce"
  top: "inception_4c/3x3_reduce"
}
layer {
  name: "inception_4c/3x3"
  type: "Convolution"
  bottom: "inception_4c/3x3_reduce"
  top: "inception_4c/3x3"
  param {
    lr_mult: 1
    decay_mult: 1
  }
  param {
    lr_mult: 2
    decay_mult: 0
  }
  convolution_param {
    num_output: 256
    pad: 1
    kernel_size: 3
    weight_filler {
      type: "xavier"
      std: 0.03
    }
    bias_filler {
      type: "constant"
      value: 0.2
    }
  }
}
layer {
  name: "inception_4c/relu_3x3"
  type: "ReLU"
  bottom: "inception_4c/3x3"
  top: "inception_4c/3x3"
}
layer {
  name: "inception_4c/5x5_reduce"
  type: "Convolution"
  bottom: "inception_4b/output"
  top: "inception_4c/5x5_reduce"
  param {
    lr_mult: 1
    decay_mult: 1
  }
  param {
    lr_mult: 2
    decay_mult: 0
  }
  convolution_param {
    num_output: 24
    kernel_size: 1
    weight_filler {
      type: "xavier"
      std: 0.2
    }
    bias_filler {
      type: "constant"
      value: 0.2
    }
  }
}
layer {
  name: "inception_4c/relu_5x5_reduce"
  type: "ReLU"
  bottom: "inception_4c/5x5_reduce"
  top: "inception_4c/5x5_reduce"
}
layer {
  name: "inception_4c/5x5"
  type: "Convolution"
  bottom: "inception_4c/5x5_reduce"
  top: "inception_4c/5x5"
  param {
    lr_mult: 1
    decay_mult: 1
  }
  param {
    lr_mult: 2
    decay_mult: 0
  }
  convolution_param {
    num_output: 64
    pad: 2
    kernel_size: 5
    weight_filler {
      type: "xavier"
      std: 0.03
    }
    bias_filler {
      type: "constant"
      value: 0.2
    }
  }
}
layer {
  name: "inception_4c/relu_5x5"
  type: "ReLU"
  bottom: "inception_4c/5x5"
  top: "inception_4c/5x5"
}
layer {
  name: "inception_4c/pool"
  type: "Pooling"
  bottom: "inception_4b/output"
  top: "inception_4c/pool"
  pooling_param {
    pool: MAX
    kernel_size: 3
    stride: 1
    pad: 1
  }
}
layer {
  name: "inception_4c/pool_proj"
  type: "Convolution"
  bottom: "inception_4c/pool"
  top: "inception_4c/pool_proj"
  param {
    lr_mult: 1
    decay_mult: 1
  }
  param {
    lr_mult: 2
    decay_mult: 0
  }
  convolution_param {
    num_output: 64
    kernel_size: 1
    weight_filler {
      type: "xavier"
      std: 0.1
    }
    bias_filler {
      type: "constant"
      value: 0.2
    }
  }
}
layer {
  name: "inception_4c/relu_pool_proj"
  type: "ReLU"
  bottom: "inception_4c/pool_proj"
  top: "inception_4c/pool_proj"
}
layer {
  name: "inception_4c/output"
  type: "Concat"
  bottom: "inception_4c/1x1"
  bottom: "inception_4c/3x3"
  bottom: "inception_4c/5x5"
  bottom: "inception_4c/pool_proj"
  top: "inception_4c/output"
}
layer {
  name: "inception_4d/1x1"
  type: "Convolution"
  bottom: "inception_4c/output"
  top: "inception_4d/1x1"
  param {
    lr_mult: 1
    decay_mult: 1
  }
  param {
    lr_mult: 2
    decay_mult: 0
  }
  convolution_param {
    num_output: 112
    kernel_size: 1
    weight_filler {
      type: "xavier"
      std: 0.03
    }
    bias_filler {
      type: "constant"
      value: 0.2
    }
  }
}
layer {
  name: "inception_4d/relu_1x1"
  type: "ReLU"
  bottom: "inception_4d/1x1"
  top: "inception_4d/1x1"
}
layer {
  name: "inception_4d/3x3_reduce"
  type: "Convolution"
  bottom: "inception_4c/output"
  top: "inception_4d/3x3_reduce"
  param {
    lr_mult: 1
    decay_mult: 1
  }
  param {
    lr_mult: 2
    decay_mult: 0
  }
  convolution_param {
    num_output: 144
    kernel_size: 1
    weight_filler {
      type: "xavier"
      std: 0.09
    }
    bias_filler {
      type: "constant"
      value: 0.2
    }
  }
}
layer {
  name: "inception_4d/relu_3x3_reduce"
  type: "ReLU"
  bottom: "inception_4d/3x3_reduce"
  top: "inception_4d/3x3_reduce"
}
layer {
  name: "inception_4d/3x3"
  type: "Convolution"
  bottom: "inception_4d/3x3_reduce"
  top: "inception_4d/3x3"
  param {
    lr_mult: 1
    decay_mult: 1
  }
  param {
    lr_mult: 2
    decay_mult: 0
  }
  convolution_param {
    num_output: 288
    pad: 1
    kernel_size: 3
    weight_filler {
      type: "xavier"
      std: 0.03
    }
    bias_filler {
      type: "constant"
      value: 0.2
    }
  }
}
layer {
  name: "inception_4d/relu_3x3"
  type: "ReLU"
  bottom: "inception_4d/3x3"
  top: "inception_4d/3x3"
}
layer {
  name: "inception_4d/5x5_reduce"
  type: "Convolution"
  bottom: "inception_4c/output"
  top: "inception_4d/5x5_reduce"
  param {
    lr_mult: 1
    decay_mult: 1
  }
  param {
    lr_mult: 2
    decay_mult: 0
  }
  convolution_param {
    num_output: 32
    kernel_size: 1
    weight_filler {
      type: "xavier"
      std: 0.2
    }
    bias_filler {
      type: "constant"
      value: 0.2
    }
  }
}
layer {
  name: "inception_4d/relu_5x5_reduce"
  type: "ReLU"
  bottom: "inception_4d/5x5_reduce"
  top: "inception_4d/5x5_reduce"
}
layer {
  name: "inception_4d/5x5"
  type: "Convolution"
  bottom: "inception_4d/5x5_reduce"
  top: "inception_4d/5x5"
  param {
    lr_mult: 1
    decay_mult: 1
  }
  param {
    lr_mult: 2
    decay_mult: 0
  }
  convolution_param {
    num_output: 64
    pad: 2
    kernel_size: 5
    weight_filler {
      type: "xavier"
      std: 0.03
    }
    bias_filler {
      type: "constant"
      value: 0.2
    }
  }
}
layer {
  name: "inception_4d/relu_5x5"
  type: "ReLU"
  bottom: "inception_4d/5x5"
  top: "inception_4d/5x5"
}
layer {
  name: "inception_4d/pool"
  type: "Pooling"
  bottom: "inception_4c/output"
  top: "inception_4d/pool"
  pooling_param {
    pool: MAX
    kernel_size: 3
    stride: 1
    pad: 1
  }
}
layer {
  name: "inception_4d/pool_proj"
  type: "Convolution"
  bottom: "inception_4d/pool"
  top: "inception_4d/pool_proj"
  param {
    lr_mult: 1
    decay_mult: 1
  }
  param {
    lr_mult: 2
    decay_mult: 0
  }
  convolution_param {
    num_output: 64
    kernel_size: 1
    weight_filler {
      type: "xavier"
      std: 0.1
    }
    bias_filler {
      type: "constant"
      value: 0.2
    }
  }
}
layer {
  name: "inception_4d/relu_pool_proj"
  type: "ReLU"
  bottom: "inception_4d/pool_proj"
  top: "inception_4d/pool_proj"
}
layer {
  name: "inception_4d/output"
  type: "Concat"
  bottom: "inception_4d/1x1"
  bottom: "inception_4d/3x3"
  bottom: "inception_4d/5x5"
  bottom: "inception_4d/pool_proj"
  top: "inception_4d/output"
}
layer {
  name: "loss2/ave_pool"
  type: "Pooling"
  bottom: "inception_4d/output"
  top: "loss2/ave_pool"
  pooling_param {
    pool: AVE
    kernel_size: 5
    stride: 3
  }
}
layer {
  name: "loss2/conv"
  type: "Convolution"
  bottom: "loss2/ave_pool"
  top: "loss2/conv"
  param {
    lr_mult: 1
    decay_mult: 1
  }
  param {
    lr_mult: 2
    decay_mult: 0
  }
  convolution_param {
    num_output: 128
    kernel_size: 1
    weight_filler {
      type: "xavier"
      std: 0.08
    }
    bias_filler {
      type: "constant"
      value: 0.2
    }
  }
}
layer {
  name: "loss2/relu_conv"
  type: "ReLU"
  bottom: "loss2/conv"
  top: "loss2/conv"
}
layer {
  name: "loss2/fc"
  type: "InnerProduct"
  bottom: "loss2/conv"
  top: "loss2/fc"
  param {
    lr_mult: 1
    decay_mult: 1
  }
  param {
    lr_mult: 2
    decay_mult: 0
  }
  inner_product_param {
    num_output: 1024
    weight_filler {
      type: "xavier"
      std: 0.02
    }
    bias_filler {
      type: "constant"
      value: 0.2
    }
  }
}
layer {
  name: "loss2/relu_fc"
  type: "ReLU"
  bottom: "loss2/fc"
  top: "loss2/fc"
}
layer {
  name: "loss2/drop_fc"
  type: "Dropout"
  bottom: "loss2/fc"
  top: "loss2/fc"
  dropout_param {
    dropout_ratio: 0.7
  }
}
layer {
  name: "loss2/classifier_plantvillage"
  type: "InnerProduct"
  bottom: "loss2/fc"
  top: "loss2/classifier_plantvillage"
  param {
    lr_mult: 1
    decay_mult: 1
  }
  param {
    lr_mult: 2
    decay_mult: 0
  }
  inner_product_param {
    num_output: 38
    weight_filler {
      type: "xavier"
      std: 0.0009765625
    }
    bias_filler {
      type: "constant"
      value: 0
    }
  }
}
layer {
  name: "inception_4e/1x1"
  type: "Convolution"
  bottom: "inception_4d/output"
  top: "inception_4e/1x1"
  param {
    lr_mult: 1
    decay_mult: 1
  }
  param {
    lr_mult: 2
    decay_mult: 0
  }
  convolution_param {
    num_output: 256
    kernel_size: 1
    weight_filler {
      type: "xavier"
      std: 0.03
    }
    bias_filler {
      type: "constant"
      value: 0.2
    }
  }
}
layer {
  name: "inception_4e/relu_1x1"
  type: "ReLU"
  bottom: "inception_4e/1x1"
  top: "inception_4e/1x1"
}
layer {
  name: "inception_4e/3x3_reduce"
  type: "Convolution"
  bottom: "inception_4d/output"
  top: "inception_4e/3x3_reduce"
  param {
    lr_mult: 1
    decay_mult: 1
  }
  param {
    lr_mult: 2
    decay_mult: 0
  }
  convolution_param {
    num_output: 160
    kernel_size: 1
    weight_filler {
      type: "xavier"
      std: 0.09
    }
    bias_filler {
      type: "constant"
      value: 0.2
    }
  }
}
layer {
  name: "inception_4e/relu_3x3_reduce"
  type: "ReLU"
  bottom: "inception_4e/3x3_reduce"
  top: "inception_4e/3x3_reduce"
}
layer {
  name: "inception_4e/3x3"
  type: "Convolution"
  bottom: "inception_4e/3x3_reduce"
  top: "inception_4e/3x3"
  param {
    lr_mult: 1
    decay_mult: 1
  }
  param {
    lr_mult: 2
    decay_mult: 0
  }
  convolution_param {
    num_output: 320
    pad: 1
    kernel_size: 3
    weight_filler {
      type: "xavier"
      std: 0.03
    }
    bias_filler {
      type: "constant"
      value: 0.2
    }
  }
}
layer {
  name: "inception_4e/relu_3x3"
  type: "ReLU"
  bottom: "inception_4e/3x3"
  top: "inception_4e/3x3"
}
layer {
  name: "inception_4e/5x5_reduce"
  type: "Convolution"
  bottom: "inception_4d/output"
  top: "inception_4e/5x5_reduce"
  param {
    lr_mult: 1
    decay_mult: 1
  }
  param {
    lr_mult: 2
    decay_mult: 0
  }
  convolution_param {
    num_output: 32
    kernel_size: 1
    weight_filler {
      type: "xavier"
      std: 0.2
    }
    bias_filler {
      type: "constant"
      value: 0.2
    }
  }
}
layer {
  name: "inception_4e/relu_5x5_reduce"
  type: "ReLU"
  bottom: "inception_4e/5x5_reduce"
  top: "inception_4e/5x5_reduce"
}
layer {
  name: "inception_4e/5x5"
  type: "Convolution"
  bottom: "inception_4e/5x5_reduce"
  top: "inception_4e/
I0403 15:45:23.201747 11215 layer_factory.hpp:77] Creating layer data
I0403 15:45:23.202329 11215 net.cpp:91] Creating Layer data
I0403 15:45:23.202363 11215 net.cpp:399] data -> data
I0403 15:45:23.202414 11215 net.cpp:399] data -> label
I0403 15:45:23.202450 11215 data_transformer.cpp:25] Loading mean file from: /home/mohanty/data/final_dataset/lmdb/segmented-80-20/mean.binaryproto
I0403 15:45:23.205054 11218 db_lmdb.cpp:38] Opened lmdb /home/mohanty/data/final_dataset/lmdb/segmented-80-20/test_db
I0403 15:45:23.215617 11215 data_layer.cpp:41] output data size: 24,3,224,224
I0403 15:45:23.243304 11215 net.cpp:141] Setting up data
I0403 15:45:23.243393 11215 net.cpp:148] Top shape: 24 3 224 224 (3612672)
I0403 15:45:23.243415 11215 net.cpp:148] Top shape: 24 (24)
I0403 15:45:23.243432 11215 net.cpp:156] Memory required for data: 14450784
I0403 15:45:23.243458 11215 layer_factory.hpp:77] Creating layer label_data_1_split
I0403 15:45:23.243484 11215 net.cpp:91] Creating Layer label_data_1_split
I0403 15:45:23.243504 11215 net.cpp:425] label_data_1_split <- label
I0403 15:45:23.243535 11215 net.cpp:399] label_data_1_split -> label_data_1_split_0
I0403 15:45:23.243562 11215 net.cpp:399] label_data_1_split -> label_data_1_split_1
I0403 15:45:23.243584 11215 net.cpp:399] label_data_1_split -> label_data_1_split_2
I0403 15:45:23.243607 11215 net.cpp:399] label_data_1_split -> label_data_1_split_3
I0403 15:45:23.243628 11215 net.cpp:399] label_data_1_split -> label_data_1_split_4
I0403 15:45:23.243648 11215 net.cpp:399] label_data_1_split -> label_data_1_split_5
I0403 15:45:23.243667 11215 net.cpp:399] label_data_1_split -> label_data_1_split_6
I0403 15:45:23.243688 11215 net.cpp:399] label_data_1_split -> label_data_1_split_7
I0403 15:45:23.243710 11215 net.cpp:399] label_data_1_split -> label_data_1_split_8
I0403 15:45:23.243729 11215 net.cpp:399] label_data_1_split -> label_data_1_split_9
I0403 15:45:23.243850 11215 net.cpp:141] Setting up label_data_1_split
I0403 15:45:23.243875 11215 net.cpp:148] Top shape: 24 (24)
I0403 15:45:23.243892 11215 net.cpp:148] Top shape: 24 (24)
I0403 15:45:23.243908 11215 net.cpp:148] Top shape: 24 (24)
I0403 15:45:23.243926 11215 net.cpp:148] Top shape: 24 (24)
I0403 15:45:23.243942 11215 net.cpp:148] Top shape: 24 (24)
I0403 15:45:23.243957 11215 net.cpp:148] Top shape: 24 (24)
I0403 15:45:23.243973 11215 net.cpp:148] Top shape: 24 (24)
I0403 15:45:23.243993 11215 net.cpp:148] Top shape: 24 (24)
I0403 15:45:23.244010 11215 net.cpp:148] Top shape: 24 (24)
I0403 15:45:23.244027 11215 net.cpp:148] Top shape: 24 (24)
I0403 15:45:23.244071 11215 net.cpp:156] Memory required for data: 14451744
I0403 15:45:23.244088 11215 layer_factory.hpp:77] Creating layer conv1/7x7_s2
I0403 15:45:23.244122 11215 net.cpp:91] Creating Layer conv1/7x7_s2
I0403 15:45:23.244140 11215 net.cpp:425] conv1/7x7_s2 <- data
I0403 15:45:23.244160 11215 net.cpp:399] conv1/7x7_s2 -> conv1/7x7_s2
I0403 15:45:23.389022 11215 net.cpp:141] Setting up conv1/7x7_s2
I0403 15:45:23.389109 11215 net.cpp:148] Top shape: 24 64 112 112 (19267584)
I0403 15:45:23.389127 11215 net.cpp:156] Memory required for data: 91522080
I0403 15:45:23.389156 11215 layer_factory.hpp:77] Creating layer conv1/relu_7x7
I0403 15:45:23.389183 11215 net.cpp:91] Creating Layer conv1/relu_7x7
I0403 15:45:23.389202 11215 net.cpp:425] conv1/relu_7x7 <- conv1/7x7_s2
I0403 15:45:23.389221 11215 net.cpp:386] conv1/relu_7x7 -> conv1/7x7_s2 (in-place)
I0403 15:45:23.389483 11215 net.cpp:141] Setting up conv1/relu_7x7
I0403 15:45:23.389510 11215 net.cpp:148] Top shape: 24 64 112 112 (19267584)
I0403 15:45:23.389525 11215 net.cpp:156] Memory required for data: 168592416
I0403 15:45:23.389540 11215 layer_factory.hpp:77] Creating layer pool1/3x3_s2
I0403 15:45:23.389566 11215 net.cpp:91] Creating Layer pool1/3x3_s2
I0403 15:45:23.389585 11215 net.cpp:425] pool1/3x3_s2 <- conv1/7x7_s2
I0403 15:45:23.389603 11215 net.cpp:399] pool1/3x3_s2 -> pool1/3x3_s2
I0403 15:45:23.389678 11215 net.cpp:141] Setting up pool1/3x3_s2
I0403 15:45:23.389703 11215 net.cpp:148] Top shape: 24 64 56 56 (4816896)
I0403 15:45:23.389719 11215 net.cpp:156] Memory required for data: 187860000
I0403 15:45:23.389732 11215 layer_factory.hpp:77] Creating layer pool1/norm1
I0403 15:45:23.389756 11215 net.cpp:91] Creating Layer pool1/norm1
I0403 15:45:23.389773 11215 net.cpp:425] pool1/norm1 <- pool1/3x3_s2
I0403 15:45:23.389794 11215 net.cpp:399] pool1/norm1 -> pool1/norm1
I0403 15:45:23.390110 11215 net.cpp:141] Setting up pool1/norm1
I0403 15:45:23.390136 11215 net.cpp:148] Top shape: 24 64 56 56 (4816896)
I0403 15:45:23.390152 11215 net.cpp:156] Memory required for data: 207127584
I0403 15:45:23.390167 11215 layer_factory.hpp:77] Creating layer conv2/3x3_reduce
I0403 15:45:23.390194 11215 net.cpp:91] Creating Layer conv2/3x3_reduce
I0403 15:45:23.390211 11215 net.cpp:425] conv2/3x3_reduce <- pool1/norm1
I0403 15:45:23.390233 11215 net.cpp:399] conv2/3x3_reduce -> conv2/3x3_reduce
I0403 15:45:23.391616 11215 net.cpp:141] Setting up conv2/3x3_reduce
I0403 15:45:23.391644 11215 net.cpp:148] Top shape: 24 64 56 56 (4816896)
I0403 15:45:23.391660 11215 net.cpp:156] Memory required for data: 226395168
I0403 15:45:23.391681 11215 layer_factory.hpp:77] Creating layer conv2/relu_3x3_reduce
I0403 15:45:23.391702 11215 net.cpp:91] Creating Layer conv2/relu_3x3_reduce
I0403 15:45:23.391718 11215 net.cpp:425] conv2/relu_3x3_reduce <- conv2/3x3_reduce
I0403 15:45:23.391736 11215 net.cpp:386] conv2/relu_3x3_reduce -> conv2/3x3_reduce (in-place)
I0403 15:45:23.392004 11215 net.cpp:141] Setting up conv2/relu_3x3_reduce
I0403 15:45:23.392030 11215 net.cpp:148] Top shape: 24 64 56 56 (4816896)
I0403 15:45:23.392045 11215 net.cpp:156] Memory required for data: 245662752
I0403 15:45:23.392058 11215 layer_factory.hpp:77] Creating layer conv2/3x3
I0403 15:45:23.392083 11215 net.cpp:91] Creating Layer conv2/3x3
I0403 15:45:23.392101 11215 net.cpp:425] conv2/3x3 <- conv2/3x3_reduce
I0403 15:45:23.392120 11215 net.cpp:399] conv2/3x3 -> conv2/3x3
I0403 15:45:23.394402 11215 net.cpp:141] Setting up conv2/3x3
I0403 15:45:23.394434 11215 net.cpp:148] Top shape: 24 192 56 56 (14450688)
I0403 15:45:23.394451 11215 net.cpp:156] Memory required for data: 303465504
I0403 15:45:23.394472 11215 layer_factory.hpp:77] Creating layer conv2/relu_3x3
I0403 15:45:23.394491 11215 net.cpp:91] Creating Layer conv2/relu_3x3
I0403 15:45:23.394506 11215 net.cpp:425] conv2/relu_3x3 <- conv2/3x3
I0403 15:45:23.394526 11215 net.cpp:386] conv2/relu_3x3 -> conv2/3x3 (in-place)
I0403 15:45:23.394701 11215 net.cpp:141] Setting up conv2/relu_3x3
I0403 15:45:23.394726 11215 net.cpp:148] Top shape: 24 192 56 56 (14450688)
I0403 15:45:23.394769 11215 net.cpp:156] Memory required for data: 361268256
I0403 15:45:23.394785 11215 layer_factory.hpp:77] Creating layer conv2/norm2
I0403 15:45:23.394805 11215 net.cpp:91] Creating Layer conv2/norm2
I0403 15:45:23.394822 11215 net.cpp:425] conv2/norm2 <- conv2/3x3
I0403 15:45:23.394840 11215 net.cpp:399] conv2/norm2 -> conv2/norm2
I0403 15:45:23.395143 11215 net.cpp:141] Setting up conv2/norm2
I0403 15:45:23.395169 11215 net.cpp:148] Top shape: 24 192 56 56 (14450688)
I0403 15:45:23.395184 11215 net.cpp:156] Memory required for data: 419071008
I0403 15:45:23.395201 11215 layer_factory.hpp:77] Creating layer pool2/3x3_s2
I0403 15:45:23.395221 11215 net.cpp:91] Creating Layer pool2/3x3_s2
I0403 15:45:23.395238 11215 net.cpp:425] pool2/3x3_s2 <- conv2/norm2
I0403 15:45:23.395256 11215 net.cpp:399] pool2/3x3_s2 -> pool2/3x3_s2
I0403 15:45:23.395308 11215 net.cpp:141] Setting up pool2/3x3_s2
I0403 15:45:23.395330 11215 net.cpp:148] Top shape: 24 192 28 28 (3612672)
I0403 15:45:23.395344 11215 net.cpp:156] Memory required for data: 433521696
I0403 15:45:23.395359 11215 layer_factory.hpp:77] Creating layer pool2/3x3_s2_pool2/3x3_s2_0_split
I0403 15:45:23.395376 11215 net.cpp:91] Creating Layer pool2/3x3_s2_pool2/3x3_s2_0_split
I0403 15:45:23.395391 11215 net.cpp:425] pool2/3x3_s2_pool2/3x3_s2_0_split <- pool2/3x3_s2
I0403 15:45:23.395414 11215 net.cpp:399] pool2/3x3_s2_pool2/3x3_s2_0_split -> pool2/3x3_s2_pool2/3x3_s2_0_split_0
I0403 15:45:23.395436 11215 net.cpp:399] pool2/3x3_s2_pool2/3x3_s2_0_split -> pool2/3x3_s2_pool2/3x3_s2_0_split_1
I0403 15:45:23.395455 11215 net.cpp:399] pool2/3x3_s2_pool2/3x3_s2_0_split -> pool2/3x3_s2_pool2/3x3_s2_0_split_2
I0403 15:45:23.395474 11215 net.cpp:399] pool2/3x3_s2_pool2/3x3_s2_0_split -> pool2/3x3_s2_pool2/3x3_s2_0_split_3
I0403 15:45:23.395545 11215 net.cpp:141] Setting up pool2/3x3_s2_pool2/3x3_s2_0_split
I0403 15:45:23.395566 11215 net.cpp:148] Top shape: 24 192 28 28 (3612672)
I0403 15:45:23.395582 11215 net.cpp:148] Top shape: 24 192 28 28 (3612672)
I0403 15:45:23.395597 11215 net.cpp:148] Top shape: 24 192 28 28 (3612672)
I0403 15:45:23.395613 11215 net.cpp:148] Top shape: 24 192 28 28 (3612672)
I0403 15:45:23.395627 11215 net.cpp:156] Memory required for data: 491324448
I0403 15:45:23.395642 11215 layer_factory.hpp:77] Creating layer inception_3a/1x1
I0403 15:45:23.395663 11215 net.cpp:91] Creating Layer inception_3a/1x1
I0403 15:45:23.395680 11215 net.cpp:425] inception_3a/1x1 <- pool2/3x3_s2_pool2/3x3_s2_0_split_0
I0403 15:45:23.395700 11215 net.cpp:399] inception_3a/1x1 -> inception_3a/1x1
I0403 15:45:23.397222 11215 net.cpp:141] Setting up inception_3a/1x1
I0403 15:45:23.397254 11215 net.cpp:148] Top shape: 24 64 28 28 (1204224)
I0403 15:45:23.397271 11215 net.cpp:156] Memory required for data: 496141344
I0403 15:45:23.397290 11215 layer_factory.hpp:77] Creating layer inception_3a/relu_1x1
I0403 15:45:23.397310 11215 net.cpp:91] Creating Layer inception_3a/relu_1x1
I0403 15:45:23.397325 11215 net.cpp:425] inception_3a/relu_1x1 <- inception_3a/1x1
I0403 15:45:23.397342 11215 net.cpp:386] inception_3a/relu_1x1 -> inception_3a/1x1 (in-place)
I0403 15:45:23.397516 11215 net.cpp:141] Setting up inception_3a/relu_1x1
I0403 15:45:23.397541 11215 net.cpp:148] Top shape: 24 64 28 28 (1204224)
I0403 15:45:23.397557 11215 net.cpp:156] Memory required for data: 500958240
I0403 15:45:23.397572 11215 layer_factory.hpp:77] Creating layer inception_3a/3x3_reduce
I0403 15:45:23.397593 11215 net.cpp:91] Creating Layer inception_3a/3x3_reduce
I0403 15:45:23.397610 11215 net.cpp:425] inception_3a/3x3_reduce <- pool2/3x3_s2_pool2/3x3_s2_0_split_1
I0403 15:45:23.397631 11215 net.cpp:399] inception_3a/3x3_reduce -> inception_3a/3x3_reduce
I0403 15:45:23.399327 11215 net.cpp:141] Setting up inception_3a/3x3_reduce
I0403 15:45:23.399356 11215 net.cpp:148] Top shape: 24 96 28 28 (1806336)
I0403 15:45:23.399372 11215 net.cpp:156] Memory required for data: 508183584
I0403 15:45:23.399396 11215 layer_factory.hpp:77] Creating layer inception_3a/relu_3x3_reduce
I0403 15:45:23.399430 11215 net.cpp:91] Creating Layer inception_3a/relu_3x3_reduce
I0403 15:45:23.399447 11215 net.cpp:425] inception_3a/relu_3x3_reduce <- inception_3a/3x3_reduce
I0403 15:45:23.399468 11215 net.cpp:386] inception_3a/relu_3x3_reduce -> inception_3a/3x3_reduce (in-place)
I0403 15:45:23.399648 11215 net.cpp:141] Setting up inception_3a/relu_3x3_reduce
I0403 15:45:23.399672 11215 net.cpp:148] Top shape: 24 96 28 28 (1806336)
I0403 15:45:23.399687 11215 net.cpp:156] Memory required for data: 515408928
I0403 15:45:23.399701 11215 layer_factory.hpp:77] Creating layer inception_3a/3x3
I0403 15:45:23.399724 11215 net.cpp:91] Creating Layer inception_3a/3x3
I0403 15:45:23.399742 11215 net.cpp:425] inception_3a/3x3 <- inception_3a/3x3_reduce
I0403 15:45:23.399760 11215 net.cpp:399] inception_3a/3x3 -> inception_3a/3x3
I0403 15:45:23.401491 11215 net.cpp:141] Setting up inception_3a/3x3
I0403 15:45:23.401521 11215 net.cpp:148] Top shape: 24 128 28 28 (2408448)
I0403 15:45:23.401538 11215 net.cpp:156] Memory required for data: 525042720
I0403 15:45:23.401556 11215 layer_factory.hpp:77] Creating layer inception_3a/relu_3x3
I0403 15:45:23.401574 11215 net.cpp:91] Creating Layer inception_3a/relu_3x3
I0403 15:45:23.401589 11215 net.cpp:425] inception_3a/relu_3x3 <- inception_3a/3x3
I0403 15:45:23.401608 11215 net.cpp:386] inception_3a/relu_3x3 -> inception_3a/3x3 (in-place)
I0403 15:45:23.401885 11215 net.cpp:141] Setting up inception_3a/relu_3x3
I0403 15:45:23.401916 11215 net.cpp:148] Top shape: 24 128 28 28 (2408448)
I0403 15:45:23.401931 11215 net.cpp:156] Memory required for data: 534676512
I0403 15:45:23.401945 11215 layer_factory.hpp:77] Creating layer inception_3a/5x5_reduce
I0403 15:45:23.401968 11215 net.cpp:91] Creating Layer inception_3a/5x5_reduce
I0403 15:45:23.401988 11215 net.cpp:425] inception_3a/5x5_reduce <- pool2/3x3_s2_pool2/3x3_s2_0_split_2
I0403 15:45:23.402010 11215 net.cpp:399] inception_3a/5x5_reduce -> inception_3a/5x5_reduce
I0403 15:45:23.402964 11215 net.cpp:141] Setting up inception_3a/5x5_reduce
I0403 15:45:23.402995 11215 net.cpp:148] Top shape: 24 16 28 28 (301056)
I0403 15:45:23.403012 11215 net.cpp:156] Memory required for data: 535880736
I0403 15:45:23.403030 11215 layer_factory.hpp:77] Creating layer inception_3a/relu_5x5_reduce
I0403 15:45:23.403048 11215 net.cpp:91] Creating Layer inception_3a/relu_5x5_reduce
I0403 15:45:23.403064 11215 net.cpp:425] inception_3a/relu_5x5_reduce <- inception_3a/5x5_reduce
I0403 15:45:23.403084 11215 net.cpp:386] inception_3a/relu_5x5_reduce -> inception_3a/5x5_reduce (in-place)
I0403 15:45:23.403384 11215 net.cpp:141] Setting up inception_3a/relu_5x5_reduce
I0403 15:45:23.403410 11215 net.cpp:148] Top shape: 24 16 28 28 (301056)
I0403 15:45:23.403425 11215 net.cpp:156] Memory required for data: 537084960
I0403 15:45:23.403439 11215 layer_factory.hpp:77] Creating layer inception_3a/5x5
I0403 15:45:23.403461 11215 net.cpp:91] Creating Layer inception_3a/5x5
I0403 15:45:23.403478 11215 net.cpp:425] inception_3a/5x5 <- inception_3a/5x5_reduce
I0403 15:45:23.403499 11215 net.cpp:399] inception_3a/5x5 -> inception_3a/5x5
I0403 15:45:23.404495 11215 net.cpp:141] Setting up inception_3a/5x5
I0403 15:45:23.404525 11215 net.cpp:148] Top shape: 24 32 28 28 (602112)
I0403 15:45:23.404542 11215 net.cpp:156] Memory required for data: 539493408
I0403 15:45:23.404561 11215 layer_factory.hpp:77] Creating layer inception_3a/relu_5x5
I0403 15:45:23.404578 11215 net.cpp:91] Creating Layer inception_3a/relu_5x5
I0403 15:45:23.404593 11215 net.cpp:425] inception_3a/relu_5x5 <- inception_3a/5x5
I0403 15:45:23.404610 11215 net.cpp:386] inception_3a/relu_5x5 -> inception_3a/5x5 (in-place)
I0403 15:45:23.404783 11215 net.cpp:141] Setting up inception_3a/relu_5x5
I0403 15:45:23.404808 11215 net.cpp:148] Top shape: 24 32 28 28 (602112)
I0403 15:45:23.404822 11215 net.cpp:156] Memory required for data: 541901856
I0403 15:45:23.404837 11215 layer_factory.hpp:77] Creating layer inception_3a/pool
I0403 15:45:23.404855 11215 net.cpp:91] Creating Layer inception_3a/pool
I0403 15:45:23.404887 11215 net.cpp:425] inception_3a/pool <- pool2/3x3_s2_pool2/3x3_s2_0_split_3
I0403 15:45:23.404908 11215 net.cpp:399] inception_3a/pool -> inception_3a/pool
I0403 15:45:23.404964 11215 net.cpp:141] Setting up inception_3a/pool
I0403 15:45:23.404994 11215 net.cpp:148] Top shape: 24 192 28 28 (3612672)
I0403 15:45:23.405009 11215 net.cpp:156] Memory required for data: 556352544
I0403 15:45:23.405025 11215 layer_factory.hpp:77] Creating layer inception_3a/pool_proj
I0403 15:45:23.405045 11215 net.cpp:91] Creating Layer inception_3a/pool_proj
I0403 15:45:23.405063 11215 net.cpp:425] inception_3a/pool_proj <- inception_3a/pool
I0403 15:45:23.405082 11215 net.cpp:399] inception_3a/pool_proj -> inception_3a/pool_proj
I0403 15:45:23.406034 11215 net.cpp:141] Setting up inception_3a/pool_proj
I0403 15:45:23.406064 11215 net.cpp:148] Top shape: 24 32 28 28 (602112)
I0403 15:45:23.406078 11215 net.cpp:156] Memory required for data: 558760992
I0403 15:45:23.406102 11215 layer_factory.hpp:77] Creating layer inception_3a/relu_pool_proj
I0403 15:45:23.406122 11215 net.cpp:91] Creating Layer inception_3a/relu_pool_proj
I0403 15:45:23.406138 11215 net.cpp:425] inception_3a/relu_pool_proj <- inception_3a/pool_proj
I0403 15:45:23.406157 11215 net.cpp:386] inception_3a/relu_pool_proj -> inception_3a/pool_proj (in-place)
I0403 15:45:23.406429 11215 net.cpp:141] Setting up inception_3a/relu_pool_proj
I0403 15:45:23.406457 11215 net.cpp:148] Top shape: 24 32 28 28 (602112)
I0403 15:45:23.406471 11215 net.cpp:156] Memory required for data: 561169440
I0403 15:45:23.406486 11215 layer_factory.hpp:77] Creating layer inception_3a/output
I0403 15:45:23.406503 11215 net.cpp:91] Creating Layer inception_3a/output
I0403 15:45:23.406519 11215 net.cpp:425] inception_3a/output <- inception_3a/1x1
I0403 15:45:23.406535 11215 net.cpp:425] inception_3a/output <- inception_3a/3x3
I0403 15:45:23.406551 11215 net.cpp:425] inception_3a/output <- inception_3a/5x5
I0403 15:45:23.406569 11215 net.cpp:425] inception_3a/output <- inception_3a/pool_proj
I0403 15:45:23.406585 11215 net.cpp:399] inception_3a/output -> inception_3a/output
I0403 15:45:23.406633 11215 net.cpp:141] Setting up inception_3a/output
I0403 15:45:23.406656 11215 net.cpp:148] Top shape: 24 256 28 28 (4816896)
I0403 15:45:23.406671 11215 net.cpp:156] Memory required for data: 580437024
I0403 15:45:23.406684 11215 layer_factory.hpp:77] Creating layer inception_3a/output_inception_3a/output_0_split
I0403 15:45:23.406703 11215 net.cpp:91] Creating Layer inception_3a/output_inception_3a/output_0_split
I0403 15:45:23.406719 11215 net.cpp:425] inception_3a/output_inception_3a/output_0_split <- inception_3a/output
I0403 15:45:23.406738 11215 net.cpp:399] inception_3a/output_inception_3a/output_0_split -> inception_3a/output_inception_3a/output_0_split_0
I0403 15:45:23.406756 11215 net.cpp:399] inception_3a/output_inception_3a/output_0_split -> inception_3a/output_inception_3a/output_0_split_1
I0403 15:45:23.406782 11215 net.cpp:399] inception_3a/output_inception_3a/output_0_split -> inception_3a/output_inception_3a/output_0_split_2
I0403 15:45:23.406803 11215 net.cpp:399] inception_3a/output_inception_3a/output_0_split -> inception_3a/output_inception_3a/output_0_split_3
I0403 15:45:23.406878 11215 net.cpp:141] Setting up inception_3a/output_inception_3a/output_0_split
I0403 15:45:23.406901 11215 net.cpp:148] Top shape: 24 256 28 28 (4816896)
I0403 15:45:23.406918 11215 net.cpp:148] Top shape: 24 256 28 28 (4816896)
I0403 15:45:23.406932 11215 net.cpp:148] Top shape: 24 256 28 28 (4816896)
I0403 15:45:23.406949 11215 net.cpp:148] Top shape: 24 256 28 28 (4816896)
I0403 15:45:23.406961 11215 net.cpp:156] Memory required for data: 657507360
I0403 15:45:23.406976 11215 layer_factory.hpp:77] Creating layer inception_3b/1x1
I0403 15:45:23.407006 11215 net.cpp:91] Creating Layer inception_3b/1x1
I0403 15:45:23.407022 11215 net.cpp:425] inception_3b/1x1 <- inception_3a/output_inception_3a/output_0_split_0
I0403 15:45:23.407042 11215 net.cpp:399] inception_3b/1x1 -> inception_3b/1x1
I0403 15:45:23.408165 11215 net.cpp:141] Setting up inception_3b/1x1
I0403 15:45:23.408205 11215 net.cpp:148] Top shape: 24 128 28 28 (2408448)
I0403 15:45:23.408221 11215 net.cpp:156] Memory required for data: 667141152
I0403 15:45:23.408238 11215 layer_factory.hpp:77] Creating layer inception_3b/relu_1x1
I0403 15:45:23.408259 11215 net.cpp:91] Creating Layer inception_3b/relu_1x1
I0403 15:45:23.408277 11215 net.cpp:425] inception_3b/relu_1x1 <- inception_3b/1x1
I0403 15:45:23.408293 11215 net.cpp:386] inception_3b/relu_1x1 -> inception_3b/1x1 (in-place)
I0403 15:45:23.408470 11215 net.cpp:141] Setting up inception_3b/relu_1x1
I0403 15:45:23.408496 11215 net.cpp:148] Top shape: 24 128 28 28 (2408448)
I0403 15:45:23.408511 11215 net.cpp:156] Memory required for data: 676774944
I0403 15:45:23.408525 11215 layer_factory.hpp:77] Creating layer inception_3b/3x3_reduce
I0403 15:45:23.408548 11215 net.cpp:91] Creating Layer inception_3b/3x3_reduce
I0403 15:45:23.408565 11215 net.cpp:425] inception_3b/3x3_reduce <- inception_3a/output_inception_3a/output_0_split_1
I0403 15:45:23.408586 11215 net.cpp:399] inception_3b/3x3_reduce -> inception_3b/3x3_reduce
I0403 15:45:23.409713 11215 net.cpp:141] Setting up inception_3b/3x3_reduce
I0403 15:45:23.409740 11215 net.cpp:148] Top shape: 24 128 28 28 (2408448)
I0403 15:45:23.409756 11215 net.cpp:156] Memory required for data: 686408736
I0403 15:45:23.409775 11215 layer_factory.hpp:77] Creating layer inception_3b/relu_3x3_reduce
I0403 15:45:23.409796 11215 net.cpp:91] Creating Layer inception_3b/relu_3x3_reduce
I0403 15:45:23.409813 11215 net.cpp:425] inception_3b/relu_3x3_reduce <- inception_3b/3x3_reduce
I0403 15:45:23.409831 11215 net.cpp:386] inception_3b/relu_3x3_reduce -> inception_3b/3x3_reduce (in-place)
I0403 15:45:23.410006 11215 net.cpp:141] Setting up inception_3b/relu_3x3_reduce
I0403 15:45:23.410032 11215 net.cpp:148] Top shape: 24 128 28 28 (2408448)
I0403 15:45:23.410048 11215 net.cpp:156] Memory required for data: 696042528
I0403 15:45:23.410063 11215 layer_factory.hpp:77] Creating layer inception_3b/3x3
I0403 15:45:23.410085 11215 net.cpp:91] Creating Layer inception_3b/3x3
I0403 15:45:23.410104 11215 net.cpp:425] inception_3b/3x3 <- inception_3b/3x3_reduce
I0403 15:45:23.410125 11215 net.cpp:399] inception_3b/3x3 -> inception_3b/3x3
I0403 15:45:23.413012 11215 net.cpp:141] Setting up inception_3b/3x3
I0403 15:45:23.413048 11215 net.cpp:148] Top shape: 24 192 28 28 (3612672)
I0403 15:45:23.413064 11215 net.cpp:156] Memory required for data: 710493216
I0403 15:45:23.413082 11215 layer_factory.hpp:77] Creating layer inception_3b/relu_3x3
I0403 15:45:23.413100 11215 net.cpp:91] Creating Layer inception_3b/relu_3x3
I0403 15:45:23.413116 11215 net.cpp:425] inception_3b/relu_3x3 <- inception_3b/3x3
I0403 15:45:23.413136 11215 net.cpp:386] inception_3b/relu_3x3 -> inception_3b/3x3 (in-place)
I0403 15:45:23.413405 11215 net.cpp:141] Setting up inception_3b/relu_3x3
I0403 15:45:23.413434 11215 net.cpp:148] Top shape: 24 192 28 28 (3612672)
I0403 15:45:23.413450 11215 net.cpp:156] Memory required for data: 724943904
I0403 15:45:23.413465 11215 layer_factory.hpp:77] Creating layer inception_3b/5x5_reduce
I0403 15:45:23.413487 11215 net.cpp:91] Creating Layer inception_3b/5x5_reduce
I0403 15:45:23.413504 11215 net.cpp:425] inception_3b/5x5_reduce <- inception_3a/output_inception_3a/output_0_split_2
I0403 15:45:23.413527 11215 net.cpp:399] inception_3b/5x5_reduce -> inception_3b/5x5_reduce
I0403 15:45:23.414505 11215 net.cpp:141] Setting up inception_3b/5x5_reduce
I0403 15:45:23.414535 11215 net.cpp:148] Top shape: 24 32 28 28 (602112)
I0403 15:45:23.414552 11215 net.cpp:156] Memory required for data: 727352352
I0403 15:45:23.414571 11215 layer_factory.hpp:77] Creating layer inception_3b/relu_5x5_reduce
I0403 15:45:23.414588 11215 net.cpp:91] Creating Layer inception_3b/relu_5x5_reduce
I0403 15:45:23.414604 11215 net.cpp:425] inception_3b/relu_5x5_reduce <- inception_3b/5x5_reduce
I0403 15:45:23.414621 11215 net.cpp:386] inception_3b/relu_5x5_reduce -> inception_3b/5x5_reduce (in-place)
I0403 15:45:23.414813 11215 net.cpp:141] Setting up inception_3b/relu_5x5_reduce
I0403 15:45:23.414836 11215 net.cpp:148] Top shape: 24 32 28 28 (602112)
I0403 15:45:23.414850 11215 net.cpp:156] Memory required for data: 729760800
I0403 15:45:23.414865 11215 layer_factory.hpp:77] Creating layer inception_3b/5x5
I0403 15:45:23.414888 11215 net.cpp:91] Creating Layer inception_3b/5x5
I0403 15:45:23.414906 11215 net.cpp:425] inception_3b/5x5 <- inception_3b/5x5_reduce
I0403 15:45:23.414927 11215 net.cpp:399] inception_3b/5x5 -> inception_3b/5x5
I0403 15:45:23.416924 11215 net.cpp:141] Setting up inception_3b/5x5
I0403 15:45:23.416954 11215 net.cpp:148] Top shape: 24 96 28 28 (1806336)
I0403 15:45:23.416970 11215 net.cpp:156] Memory required for data: 736986144
I0403 15:45:23.416992 11215 layer_factory.hpp:77] Creating layer inception_3b/relu_5x5
I0403 15:45:23.417014 11215 net.cpp:91] Creating Layer inception_3b/relu_5x5
I0403 15:45:23.417032 11215 net.cpp:425] inception_3b/relu_5x5 <- inception_3b/5x5
I0403 15:45:23.417049 11215 net.cpp:386] inception_3b/relu_5x5 -> inception_3b/5x5 (in-place)
I0403 15:45:23.417237 11215 net.cpp:141] Setting up inception_3b/relu_5x5
I0403 15:45:23.417260 11215 net.cpp:148] Top shape: 24 96 28 28 (1806336)
I0403 15:45:23.417275 11215 net.cpp:156] Memory required for data: 744211488
I0403 15:45:23.417289 11215 layer_factory.hpp:77] Creating layer inception_3b/pool
I0403 15:45:23.417307 11215 net.cpp:91] Creating Layer inception_3b/pool
I0403 15:45:23.417323 11215 net.cpp:425] inception_3b/pool <- inception_3a/output_inception_3a/output_0_split_3
I0403 15:45:23.417341 11215 net.cpp:399] inception_3b/pool -> inception_3b/pool
I0403 15:45:23.417395 11215 net.cpp:141] Setting up inception_3b/pool
I0403 15:45:23.417418 11215 net.cpp:148] Top shape: 24 256 28 28 (4816896)
I0403 15:45:23.417433 11215 net.cpp:156] Memory required for data: 763479072
I0403 15:45:23.417448 11215 layer_factory.hpp:77] Creating layer inception_3b/pool_proj
I0403 15:45:23.417470 11215 net.cpp:91] Creating Layer inception_3b/pool_proj
I0403 15:45:23.417489 11215 net.cpp:425] inception_3b/pool_proj <- inception_3b/pool
I0403 15:45:23.417508 11215 net.cpp:399] inception_3b/pool_proj -> inception_3b/pool_proj
I0403 15:45:23.418560 11215 net.cpp:141] Setting up inception_3b/pool_proj
I0403 15:45:23.418587 11215 net.cpp:148] Top shape: 24 64 28 28 (1204224)
I0403 15:45:23.418603 11215 net.cpp:156] Memory required for data: 768295968
I0403 15:45:23.418622 11215 layer_factory.hpp:77] Creating layer inception_3b/relu_pool_proj
I0403 15:45:23.418642 11215 net.cpp:91] Creating Layer inception_3b/relu_pool_proj
I0403 15:45:23.418658 11215 net.cpp:425] inception_3b/relu_pool_proj <- inception_3b/pool_proj
I0403 15:45:23.418676 11215 net.cpp:386] inception_3b/relu_pool_proj -> inception_3b/pool_proj (in-place)
I0403 15:45:23.419114 11215 net.cpp:141] Setting up inception_3b/relu_pool_proj
I0403 15:45:23.419142 11215 net.cpp:148] Top shape: 24 64 28 28 (1204224)
I0403 15:45:23.419157 11215 net.cpp:156] Memory required for data: 773112864
I0403 15:45:23.419184 11215 layer_factory.hpp:77] Creating layer inception_3b/output
I0403 15:45:23.419203 11215 net.cpp:91] Creating Layer inception_3b/output
I0403 15:45:23.419219 11215 net.cpp:425] inception_3b/output <- inception_3b/1x1
I0403 15:45:23.419236 11215 net.cpp:425] inception_3b/output <- inception_3b/3x3
I0403 15:45:23.419255 11215 net.cpp:425] inception_3b/output <- inception_3b/5x5
I0403 15:45:23.419271 11215 net.cpp:425] inception_3b/output <- inception_3b/pool_proj
I0403 15:45:23.419292 11215 net.cpp:399] inception_3b/output -> inception_3b/output
I0403 15:45:23.419338 11215 net.cpp:141] Setting up inception_3b/output
I0403 15:45:23.419365 11215 net.cpp:148] Top shape: 24 480 28 28 (9031680)
I0403 15:45:23.419381 11215 net.cpp:156] Memory required for data: 809239584
I0403 15:45:23.419396 11215 layer_factory.hpp:77] Creating layer pool3/3x3_s2
I0403 15:45:23.419414 11215 net.cpp:91] Creating Layer pool3/3x3_s2
I0403 15:45:23.419431 11215 net.cpp:425] pool3/3x3_s2 <- inception_3b/output
I0403 15:45:23.419466 11215 net.cpp:399] pool3/3x3_s2 -> pool3/3x3_s2
I0403 15:45:23.419538 11215 net.cpp:141] Setting up pool3/3x3_s2
I0403 15:45:23.419561 11215 net.cpp:148] Top shape: 24 480 14 14 (2257920)
I0403 15:45:23.419576 11215 net.cpp:156] Memory required for data: 818271264
I0403 15:45:23.419591 11215 layer_factory.hpp:77] Creating layer pool3/3x3_s2_pool3/3x3_s2_0_split
I0403 15:45:23.419608 11215 net.cpp:91] Creating Layer pool3/3x3_s2_pool3/3x3_s2_0_split
I0403 15:45:23.419625 11215 net.cpp:425] pool3/3x3_s2_pool3/3x3_s2_0_split <- pool3/3x3_s2
I0403 15:45:23.419643 11215 net.cpp:399] pool3/3x3_s2_pool3/3x3_s2_0_split -> pool3/3x3_s2_pool3/3x3_s2_0_split_0
I0403 15:45:23.419666 11215 net.cpp:399] pool3/3x3_s2_pool3/3x3_s2_0_split -> pool3/3x3_s2_pool3/3x3_s2_0_split_1
I0403 15:45:23.419687 11215 net.cpp:399] pool3/3x3_s2_pool3/3x3_s2_0_split -> pool3/3x3_s2_pool3/3x3_s2_0_split_2
I0403 15:45:23.419708 11215 net.cpp:399] pool3/3x3_s2_pool3/3x3_s2_0_split -> pool3/3x3_s2_pool3/3x3_s2_0_split_3
I0403 15:45:23.419786 11215 net.cpp:141] Setting up pool3/3x3_s2_pool3/3x3_s2_0_split
I0403 15:45:23.419809 11215 net.cpp:148] Top shape: 24 480 14 14 (2257920)
I0403 15:45:23.419826 11215 net.cpp:148] Top shape: 24 480 14 14 (2257920)
I0403 15:45:23.419842 11215 net.cpp:148] Top shape: 24 480 14 14 (2257920)
I0403 15:45:23.419857 11215 net.cpp:148] Top shape: 24 480 14 14 (2257920)
I0403 15:45:23.419872 11215 net.cpp:156] Memory required for data: 854397984
I0403 15:45:23.419886 11215 layer_factory.hpp:77] Creating layer inception_4a/1x1
I0403 15:45:23.419909 11215 net.cpp:91] Creating Layer inception_4a/1x1
I0403 15:45:23.419926 11215 net.cpp:425] inception_4a/1x1 <- pool3/3x3_s2_pool3/3x3_s2_0_split_0
I0403 15:45:23.419948 11215 net.cpp:399] inception_4a/1x1 -> inception_4a/1x1
I0403 15:45:23.421545 11215 net.cpp:141] Setting up inception_4a/1x1
I0403 15:45:23.421574 11215 net.cpp:148] Top shape: 24 192 14 14 (903168)
I0403 15:45:23.421591 11215 net.cpp:156] Memory required for data: 858010656
I0403 15:45:23.421609 11215 layer_factory.hpp:77] Creating layer inception_4a/relu_1x1
I0403 15:45:23.421630 11215 net.cpp:91] Creating Layer inception_4a/relu_1x1
I0403 15:45:23.421648 11215 net.cpp:425] inception_4a/relu_1x1 <- inception_4a/1x1
I0403 15:45:23.421665 11215 net.cpp:386] inception_4a/relu_1x1 -> inception_4a/1x1 (in-place)
I0403 15:45:23.421844 11215 net.cpp:141] Setting up inception_4a/relu_1x1
I0403 15:45:23.421869 11215 net.cpp:148] Top shape: 24 192 14 14 (903168)
I0403 15:45:23.421883 11215 net.cpp:156] Memory required for data: 861623328
I0403 15:45:23.421898 11215 layer_factory.hpp:77] Creating layer inception_4a/3x3_reduce
I0403 15:45:23.421924 11215 net.cpp:91] Creating Layer inception_4a/3x3_reduce
I0403 15:45:23.421941 11215 net.cpp:425] inception_4a/3x3_reduce <- pool3/3x3_s2_pool3/3x3_s2_0_split_1
I0403 15:45:23.421962 11215 net.cpp:399] inception_4a/3x3_reduce -> inception_4a/3x3_reduce
I0403 15:45:23.423252 11215 net.cpp:141] Setting up inception_4a/3x3_reduce
I0403 15:45:23.423280 11215 net.cpp:148] Top shape: 24 96 14 14 (451584)
I0403 15:45:23.423296 11215 net.cpp:156] Memory required for data: 863429664
I0403 15:45:23.423321 11215 layer_factory.hpp:77] Creating layer inception_4a/relu_3x3_reduce
I0403 15:45:23.423341 11215 net.cpp:91] Creating Layer inception_4a/relu_3x3_reduce
I0403 15:45:23.423358 11215 net.cpp:425] inception_4a/relu_3x3_reduce <- inception_4a/3x3_reduce
I0403 15:45:23.423382 11215 net.cpp:386] inception_4a/relu_3x3_reduce -> inception_4a/3x3_reduce (in-place)
I0403 15:45:23.423558 11215 net.cpp:141] Setting up inception_4a/relu_3x3_reduce
I0403 15:45:23.423584 11215 net.cpp:148] Top shape: 24 96 14 14 (451584)
I0403 15:45:23.423599 11215 net.cpp:156] Memory required for data: 865236000
I0403 15:45:23.423614 11215 layer_factory.hpp:77] Creating layer inception_4a/3x3
I0403 15:45:23.423636 11215 net.cpp:91] Creating Layer inception_4a/3x3
I0403 15:45:23.423655 11215 net.cpp:425] inception_4a/3x3 <- inception_4a/3x3_reduce
I0403 15:45:23.423674 11215 net.cpp:399] inception_4a/3x3 -> inception_4a/3x3
I0403 15:45:23.426410 11215 net.cpp:141] Setting up inception_4a/3x3
I0403 15:45:23.426440 11215 net.cpp:148] Top shape: 24 208 14 14 (978432)
I0403 15:45:23.426460 11215 net.cpp:156] Memory required for data: 869149728
I0403 15:45:23.426479 11215 layer_factory.hpp:77] Creating layer inception_4a/relu_3x3
I0403 15:45:23.426498 11215 net.cpp:91] Creating Layer inception_4a/relu_3x3
I0403 15:45:23.426514 11215 net.cpp:425] inception_4a/relu_3x3 <- inception_4a/3x3
I0403 15:45:23.426532 11215 net.cpp:386] inception_4a/relu_3x3 -> inception_4a/3x3 (in-place)
I0403 15:45:23.426816 11215 net.cpp:141] Setting up inception_4a/relu_3x3
I0403 15:45:23.426842 11215 net.cpp:148] Top shape: 24 208 14 14 (978432)
I0403 15:45:23.426865 11215 net.cpp:156] Memory required for data: 873063456
I0403 15:45:23.426882 11215 layer_factory.hpp:77] Creating layer inception_4a/5x5_reduce
I0403 15:45:23.426901 11215 net.cpp:91] Creating Layer inception_4a/5x5_reduce
I0403 15:45:23.426919 11215 net.cpp:425] inception_4a/5x5_reduce <- pool3/3x3_s2_pool3/3x3_s2_0_split_2
I0403 15:45:23.426940 11215 net.cpp:399] inception_4a/5x5_reduce -> inception_4a/5x5_reduce
I0403 15:45:23.427973 11215 net.cpp:141] Setting up inception_4a/5x5_reduce
I0403 15:45:23.428007 11215 net.cpp:148] Top shape: 24 16 14 14 (75264)
I0403 15:45:23.428025 11215 net.cpp:156] Memory required for data: 873364512
I0403 15:45:23.428043 11215 layer_factory.hpp:77] Creating layer inception_4a/relu_5x5_reduce
I0403 15:45:23.428061 11215 net.cpp:91] Creating Layer inception_4a/relu_5x5_reduce
I0403 15:45:23.428078 11215 net.cpp:425] inception_4a/relu_5x5_reduce <- inception_4a/5x5_reduce
I0403 15:45:23.428095 11215 net.cpp:386] inception_4a/relu_5x5_reduce -> inception_4a/5x5_reduce (in-place)
I0403 15:45:23.428280 11215 net.cpp:141] Setting up inception_4a/relu_5x5_reduce
I0403 15:45:23.428305 11215 net.cpp:148] Top shape: 24 16 14 14 (75264)
I0403 15:45:23.428320 11215 net.cpp:156] Memory required for data: 873665568
I0403 15:45:23.428335 11215 layer_factory.hpp:77] Creating layer inception_4a/5x5
I0403 15:45:23.428357 11215 net.cpp:91] Creating Layer inception_4a/5x5
I0403 15:45:23.428375 11215 net.cpp:425] inception_4a/5x5 <- inception_4a/5x5_reduce
I0403 15:45:23.428397 11215 net.cpp:399] inception_4a/5x5 -> inception_4a/5x5
I0403 15:45:23.429509 11215 net.cpp:141] Setting up inception_4a/5x5
I0403 15:45:23.429538 11215 net.cpp:148] Top shape: 24 48 14 14 (225792)
I0403 15:45:23.429553 11215 net.cpp:156] Memory required for data: 874568736
I0403 15:45:23.429572 11215 layer_factory.hpp:77] Creating layer inception_4a/relu_5x5
I0403 15:45:23.429590 11215 net.cpp:91] Creating Layer inception_4a/relu_5x5
I0403 15:45:23.429606 11215 net.cpp:425] inception_4a/relu_5x5 <- inception_4a/5x5
I0403 15:45:23.429626 11215 net.cpp:386] inception_4a/relu_5x5 -> inception_4a/5x5 (in-place)
I0403 15:45:23.429807 11215 net.cpp:141] Setting up inception_4a/relu_5x5
I0403 15:45:23.429832 11215 net.cpp:148] Top shape: 24 48 14 14 (225792)
I0403 15:45:23.429847 11215 net.cpp:156] Memory required for data: 875471904
I0403 15:45:23.429862 11215 layer_factory.hpp:77] Creating layer inception_4a/pool
I0403 15:45:23.429883 11215 net.cpp:91] Creating Layer inception_4a/pool
I0403 15:45:23.429900 11215 net.cpp:425] inception_4a/pool <- pool3/3x3_s2_pool3/3x3_s2_0_split_3
I0403 15:45:23.429919 11215 net.cpp:399] inception_4a/pool -> inception_4a/pool
I0403 15:45:23.429986 11215 net.cpp:141] Setting up inception_4a/pool
I0403 15:45:23.430011 11215 net.cpp:148] Top shape: 24 480 14 14 (2257920)
I0403 15:45:23.430025 11215 net.cpp:156] Memory required for data: 884503584
I0403 15:45:23.430040 11215 layer_factory.hpp:77] Creating layer inception_4a/pool_proj
I0403 15:45:23.430065 11215 net.cpp:91] Creating Layer inception_4a/pool_proj
I0403 15:45:23.430083 11215 net.cpp:425] inception_4a/pool_proj <- inception_4a/pool
I0403 15:45:23.430105 11215 net.cpp:399] inception_4a/pool_proj -> inception_4a/pool_proj
I0403 15:45:23.431289 11215 net.cpp:141] Setting up inception_4a/pool_proj
I0403 15:45:23.431318 11215 net.cpp:148] Top shape: 24 64 14 14 (301056)
I0403 15:45:23.431349 11215 net.cpp:156] Memory required for data: 885707808
I0403 15:45:23.431368 11215 layer_factory.hpp:77] Creating layer inception_4a/relu_pool_proj
I0403 15:45:23.431391 11215 net.cpp:91] Creating Layer inception_4a/relu_pool_proj
I0403 15:45:23.431408 11215 net.cpp:425] inception_4a/relu_pool_proj <- inception_4a/pool_proj
I0403 15:45:23.431427 11215 net.cpp:386] inception_4a/relu_pool_proj -> inception_4a/pool_proj (in-place)
I0403 15:45:23.431718 11215 net.cpp:141] Setting up inception_4a/relu_pool_proj
I0403 15:45:23.431746 11215 net.cpp:148] Top shape: 24 64 14 14 (301056)
I0403 15:45:23.431761 11215 net.cpp:156] Memory required for data: 886912032
I0403 15:45:23.431777 11215 layer_factory.hpp:77] Creating layer inception_4a/output
I0403 15:45:23.431794 11215 net.cpp:91] Creating Layer inception_4a/output
I0403 15:45:23.431810 11215 net.cpp:425] inception_4a/output <- inception_4a/1x1
I0403 15:45:23.431828 11215 net.cpp:425] inception_4a/output <- inception_4a/3x3
I0403 15:45:23.431843 11215 net.cpp:425] inception_4a/output <- inception_4a/5x5
I0403 15:45:23.431860 11215 net.cpp:425] inception_4a/output <- inception_4a/pool_proj
I0403 15:45:23.431880 11215 net.cpp:399] inception_4a/output -> inception_4a/output
I0403 15:45:23.431929 11215 net.cpp:141] Setting up inception_4a/output
I0403 15:45:23.431952 11215 net.cpp:148] Top shape: 24 512 14 14 (2408448)
I0403 15:45:23.431967 11215 net.cpp:156] Memory required for data: 896545824
I0403 15:45:23.431988 11215 layer_factory.hpp:77] Creating layer inception_4a/output_inception_4a/output_0_split
I0403 15:45:23.432006 11215 net.cpp:91] Creating Layer inception_4a/output_inception_4a/output_0_split
I0403 15:45:23.432023 11215 net.cpp:425] inception_4a/output_inception_4a/output_0_split <- inception_4a/output
I0403 15:45:23.432042 11215 net.cpp:399] inception_4a/output_inception_4a/output_0_split -> inception_4a/output_inception_4a/output_0_split_0
I0403 15:45:23.432065 11215 net.cpp:399] inception_4a/output_inception_4a/output_0_split -> inception_4a/output_inception_4a/output_0_split_1
I0403 15:45:23.432086 11215 net.cpp:399] inception_4a/output_inception_4a/output_0_split -> inception_4a/output_inception_4a/output_0_split_2
I0403 15:45:23.432107 11215 net.cpp:399] inception_4a/output_inception_4a/output_0_split -> inception_4a/output_inception_4a/output_0_split_3
I0403 15:45:23.432127 11215 net.cpp:399] inception_4a/output_inception_4a/output_0_split -> inception_4a/output_inception_4a/output_0_split_4
I0403 15:45:23.432222 11215 net.cpp:141] Setting up inception_4a/output_inception_4a/output_0_split
I0403 15:45:23.432248 11215 net.cpp:148] Top shape: 24 512 14 14 (2408448)
I0403 15:45:23.432265 11215 net.cpp:148] Top shape: 24 512 14 14 (2408448)
I0403 15:45:23.432281 11215 net.cpp:148] Top shape: 24 512 14 14 (2408448)
I0403 15:45:23.432296 11215 net.cpp:148] Top shape: 24 512 14 14 (2408448)
I0403 15:45:23.432312 11215 net.cpp:148] Top shape: 24 512 14 14 (2408448)
I0403 15:45:23.432325 11215 net.cpp:156] Memory required for data: 944714784
I0403 15:45:23.432342 11215 layer_factory.hpp:77] Creating layer loss1/ave_pool
I0403 15:45:23.432358 11215 net.cpp:91] Creating Layer loss1/ave_pool
I0403 15:45:23.432375 11215 net.cpp:425] loss1/ave_pool <- inception_4a/output_inception_4a/output_0_split_0
I0403 15:45:23.432395 11215 net.cpp:399] loss1/ave_pool -> loss1/ave_pool
I0403 15:45:23.432601 11215 net.cpp:141] Setting up loss1/ave_pool
I0403 15:45:23.432627 11215 net.cpp:148] Top shape: 24 512 4 4 (196608)
I0403 15:45:23.432642 11215 net.cpp:156] Memory required for data: 945501216
I0403 15:45:23.432658 11215 layer_factory.hpp:77] Creating layer loss1/conv
I0403 15:45:23.432680 11215 net.cpp:91] Creating Layer loss1/conv
I0403 15:45:23.432698 11215 net.cpp:425] loss1/conv <- loss1/ave_pool
I0403 15:45:23.432719 11215 net.cpp:399] loss1/conv -> loss1/conv
I0403 15:45:23.434166 11215 net.cpp:141] Setting up loss1/conv
I0403 15:45:23.434197 11215 net.cpp:148] Top shape: 24 128 4 4 (49152)
I0403 15:45:23.434227 11215 net.cpp:156] Memory required for data: 945697824
I0403 15:45:23.434247 11215 layer_factory.hpp:77] Creating layer loss1/relu_conv
I0403 15:45:23.434267 11215 net.cpp:91] Creating Layer loss1/relu_conv
I0403 15:45:23.434283 11215 net.cpp:425] loss1/relu_conv <- loss1/conv
I0403 15:45:23.434299 11215 net.cpp:386] loss1/relu_conv -> loss1/conv (in-place)
I0403 15:45:23.434587 11215 net.cpp:141] Setting up loss1/relu_conv
I0403 15:45:23.434617 11215 net.cpp:148] Top shape: 24 128 4 4 (49152)
I0403 15:45:23.434631 11215 net.cpp:156] Memory required for data: 945894432
I0403 15:45:23.434646 11215 layer_factory.hpp:77] Creating layer loss1/fc
I0403 15:45:23.434670 11215 net.cpp:91] Creating Layer loss1/fc
I0403 15:45:23.434689 11215 net.cpp:425] loss1/fc <- loss1/conv
I0403 15:45:23.434710 11215 net.cpp:399] loss1/fc -> loss1/fc
I0403 15:45:23.452654 11215 net.cpp:141] Setting up loss1/fc
I0403 15:45:23.452688 11215 net.cpp:148] Top shape: 24 1024 (24576)
I0403 15:45:23.452704 11215 net.cpp:156] Memory required for data: 945992736
I0403 15:45:23.452723 11215 layer_factory.hpp:77] Creating layer loss1/relu_fc
I0403 15:45:23.452744 11215 net.cpp:91] Creating Layer loss1/relu_fc
I0403 15:45:23.452761 11215 net.cpp:425] loss1/relu_fc <- loss1/fc
I0403 15:45:23.452777 11215 net.cpp:386] loss1/relu_fc -> loss1/fc (in-place)
I0403 15:45:23.452962 11215 net.cpp:141] Setting up loss1/relu_fc
I0403 15:45:23.452991 11215 net.cpp:148] Top shape: 24 1024 (24576)
I0403 15:45:23.453006 11215 net.cpp:156] Memory required for data: 946091040
I0403 15:45:23.453022 11215 layer_factory.hpp:77] Creating layer loss1/drop_fc
I0403 15:45:23.453048 11215 net.cpp:91] Creating Layer loss1/drop_fc
I0403 15:45:23.453065 11215 net.cpp:425] loss1/drop_fc <- loss1/fc
I0403 15:45:23.453083 11215 net.cpp:386] loss1/drop_fc -> loss1/fc (in-place)
I0403 15:45:23.453135 11215 net.cpp:141] Setting up loss1/drop_fc
I0403 15:45:23.453158 11215 net.cpp:148] Top shape: 24 1024 (24576)
I0403 15:45:23.453172 11215 net.cpp:156] Memory required for data: 946189344
I0403 15:45:23.453188 11215 layer_factory.hpp:77] Creating layer loss1/classifier_plantvillage
I0403 15:45:23.453207 11215 net.cpp:91] Creating Layer loss1/classifier_plantvillage
I0403 15:45:23.453222 11215 net.cpp:425] loss1/classifier_plantvillage <- loss1/fc
I0403 15:45:23.453244 11215 net.cpp:399] loss1/classifier_plantvillage -> loss1/classifier_plantvillage
I0403 15:45:23.454161 11215 net.cpp:141] Setting up loss1/classifier_plantvillage
I0403 15:45:23.454192 11215 net.cpp:148] Top shape: 24 38 (912)
I0403 15:45:23.454208 11215 net.cpp:156] Memory required for data: 946192992
I0403 15:45:23.454226 11215 layer_factory.hpp:77] Creating layer loss1/classifier_plantvillage_loss1/classifier_plantvillage_0_split
I0403 15:45:23.454246 11215 net.cpp:91] Creating Layer loss1/classifier_plantvillage_loss1/classifier_plantvillage_0_split
I0403 15:45:23.454262 11215 net.cpp:425] loss1/classifier_plantvillage_loss1/classifier_plantvillage_0_split <- loss1/classifier_plantvillage
I0403 15:45:23.454279 11215 net.cpp:399] loss1/classifier_plantvillage_loss1/classifier_plantvillage_0_split -> loss1/classifier_plantvillage_loss1/classifier_plantvillage_0_split_0
I0403 15:45:23.454300 11215 net.cpp:399] loss1/classifier_plantvillage_loss1/classifier_plantvillage_0_split -> loss1/classifier_plantvillage_loss1/classifier_plantvillage_0_split_1
I0403 15:45:23.454320 11215 net.cpp:399] loss1/classifier_plantvillage_loss1/classifier_plantvillage_0_split -> loss1/classifier_plantvillage_loss1/classifier_plantvillage_0_split_2
I0403 15:45:23.454386 11215 net.cpp:141] Setting up loss1/classifier_plantvillage_loss1/classifier_plantvillage_0_split
I0403 15:45:23.454409 11215 net.cpp:148] Top shape: 24 38 (912)
I0403 15:45:23.454426 11215 net.cpp:148] Top shape: 24 38 (912)
I0403 15:45:23.454440 11215 net.cpp:148] Top shape: 24 38 (912)
I0403 15:45:23.454454 11215 net.cpp:156] Memory required for data: 946203936
I0403 15:45:23.454468 11215 layer_factory.hpp:77] Creating layer inception_4b/1x1
I0403 15:45:23.454489 11215 net.cpp:91] Creating Layer inception_4b/1x1
I0403 15:45:23.454522 11215 net.cpp:425] inception_4b/1x1 <- inception_4a/output_inception_4a/output_0_split_1
I0403 15:45:23.454545 11215 net.cpp:399] inception_4b/1x1 -> inception_4b/1x1
I0403 15:45:23.456173 11215 net.cpp:141] Setting up inception_4b/1x1
I0403 15:45:23.456203 11215 net.cpp:148] Top shape: 24 160 14 14 (752640)
I0403 15:45:23.456220 11215 net.cpp:156] Memory required for data: 949214496
I0403 15:45:23.456238 11215 layer_factory.hpp:77] Creating layer inception_4b/relu_1x1
I0403 15:45:23.456256 11215 net.cpp:91] Creating Layer inception_4b/relu_1x1
I0403 15:45:23.456279 11215 net.cpp:425] inception_4b/relu_1x1 <- inception_4b/1x1
I0403 15:45:23.456296 11215 net.cpp:386] inception_4b/relu_1x1 -> inception_4b/1x1 (in-place)
I0403 15:45:23.456475 11215 net.cpp:141] Setting up inception_4b/relu_1x1
I0403 15:45:23.456499 11215 net.cpp:148] Top shape: 24 160 14 14 (752640)
I0403 15:45:23.456513 11215 net.cpp:156] Memory required for data: 952225056
I0403 15:45:23.456528 11215 layer_factory.hpp:77] Creating layer inception_4b/3x3_reduce
I0403 15:45:23.456552 11215 net.cpp:91] Creating Layer inception_4b/3x3_reduce
I0403 15:45:23.456568 11215 net.cpp:425] inception_4b/3x3_reduce <- inception_4a/output_inception_4a/output_0_split_2
I0403 15:45:23.456588 11215 net.cpp:399] inception_4b/3x3_reduce -> inception_4b/3x3_reduce
I0403 15:45:23.457928 11215 net.cpp:141] Setting up inception_4b/3x3_reduce
I0403 15:45:23.457958 11215 net.cpp:148] Top shape: 24 112 14 14 (526848)
I0403 15:45:23.457974 11215 net.cpp:156] Memory required for data: 954332448
I0403 15:45:23.457998 11215 layer_factory.hpp:77] Creating layer inception_4b/relu_3x3_reduce
I0403 15:45:23.458017 11215 net.cpp:91] Creating Layer inception_4b/relu_3x3_reduce
I0403 15:45:23.458034 11215 net.cpp:425] inception_4b/relu_3x3_reduce <- inception_4b/3x3_reduce
I0403 15:45:23.458055 11215 net.cpp:386] inception_4b/relu_3x3_reduce -> inception_4b/3x3_reduce (in-place)
I0403 15:45:23.458333 11215 net.cpp:141] Setting up inception_4b/relu_3x3_reduce
I0403 15:45:23.458361 11215 net.cpp:148] Top shape: 24 112 14 14 (526848)
I0403 15:45:23.458376 11215 net.cpp:156] Memory required for data: 956439840
I0403 15:45:23.458403 11215 layer_factory.hpp:77] Creating layer inception_4b/3x3
I0403 15:45:23.458425 11215 net.cpp:91] Creating Layer inception_4b/3x3
I0403 15:45:23.458442 11215 net.cpp:425] inception_4b/3x3 <- inception_4b/3x3_reduce
I0403 15:45:23.458467 11215 net.cpp:399] inception_4b/3x3 -> inception_4b/3x3
I0403 15:45:23.461462 11215 net.cpp:141] Setting up inception_4b/3x3
I0403 15:45:23.461490 11215 net.cpp:148] Top shape: 24 224 14 14 (1053696)
I0403 15:45:23.461506 11215 net.cpp:156] Memory required for data: 960654624
I0403 15:45:23.461524 11215 layer_factory.hpp:77] Creating layer inception_4b/relu_3x3
I0403 15:45:23.461545 11215 net.cpp:91] Creating Layer inception_4b/relu_3x3
I0403 15:45:23.461562 11215 net.cpp:425] inception_4b/relu_3x3 <- inception_4b/3x3
I0403 15:45:23.461580 11215 net.cpp:386] inception_4b/relu_3x3 -> inception_4b/3x3 (in-place)
I0403 15:45:23.461760 11215 net.cpp:141] Setting up inception_4b/relu_3x3
I0403 15:45:23.461789 11215 net.cpp:148] Top shape: 24 224 14 14 (1053696)
I0403 15:45:23.461805 11215 net.cpp:156] Memory required for data: 964869408
I0403 15:45:23.461819 11215 layer_factory.hpp:77] Creating layer inception_4b/5x5_reduce
I0403 15:45:23.461841 11215 net.cpp:91] Creating Layer inception_4b/5x5_reduce
I0403 15:45:23.461858 11215 net.cpp:425] inception_4b/5x5_reduce <- inception_4a/output_inception_4a/output_0_split_3
I0403 15:45:23.461879 11215 net.cpp:399] inception_4b/5x5_reduce -> inception_4b/5x5_reduce
I0403 15:45:23.462960 11215 net.cpp:141] Setting up inception_4b/5x5_reduce
I0403 15:45:23.462995 11215 net.cpp:148] Top shape: 24 24 14 14 (112896)
I0403 15:45:23.463011 11215 net.cpp:156] Memory required for data: 965320992
I0403 15:45:23.463030 11215 layer_factory.hpp:77] Creating layer inception_4b/relu_5x5_reduce
I0403 15:45:23.463048 11215 net.cpp:91] Creating Layer inception_4b/relu_5x5_reduce
I0403 15:45:23.463078 11215 net.cpp:425] inception_4b/relu_5x5_reduce <- inception_4b/5x5_reduce
I0403 15:45:23.463099 11215 net.cpp:386] inception_4b/relu_5x5_reduce -> inception_4b/5x5_reduce (in-place)
I0403 15:45:23.463279 11215 net.cpp:141] Setting up inception_4b/relu_5x5_reduce
I0403 15:45:23.463304 11215 net.cpp:148] Top shape: 24 24 14 14 (112896)
I0403 15:45:23.463320 11215 net.cpp:156] Memory required for data: 965772576
I0403 15:45:23.463333 11215 layer_factory.hpp:77] Creating layer inception_4b/5x5
I0403 15:45:23.463356 11215 net.cpp:91] Creating Layer inception_4b/5x5
I0403 15:45:23.463372 11215 net.cpp:425] inception_4b/5x5 <- inception_4b/5x5_reduce
I0403 15:45:23.463393 11215 net.cpp:399] inception_4b/5x5 -> inception_4b/5x5
I0403 15:45:23.464620 11215 net.cpp:141] Setting up inception_4b/5x5
I0403 15:45:23.464650 11215 net.cpp:148] Top shape: 24 64 14 14 (301056)
I0403 15:45:23.464668 11215 net.cpp:156] Memory required for data: 966976800
I0403 15:45:23.464685 11215 layer_factory.hpp:77] Creating layer inception_4b/relu_5x5
I0403 15:45:23.464704 11215 net.cpp:91] Creating Layer inception_4b/relu_5x5
I0403 15:45:23.464720 11215 net.cpp:425] inception_4b/relu_5x5 <- inception_4b/5x5
I0403 15:45:23.464736 11215 net.cpp:386] inception_4b/relu_5x5 -> inception_4b/5x5 (in-place)
I0403 15:45:23.465021 11215 net.cpp:141] Setting up inception_4b/relu_5x5
I0403 15:45:23.465049 11215 net.cpp:148] Top shape: 24 64 14 14 (301056)
I0403 15:45:23.465065 11215 net.cpp:156] Memory required for data: 968181024
I0403 15:45:23.465080 11215 layer_factory.hpp:77] Creating layer inception_4b/pool
I0403 15:45:23.465097 11215 net.cpp:91] Creating Layer inception_4b/pool
I0403 15:45:23.465114 11215 net.cpp:425] inception_4b/pool <- inception_4a/output_inception_4a/output_0_split_4
I0403 15:45:23.465133 11215 net.cpp:399] inception_4b/pool -> inception_4b/pool
I0403 15:45:23.465199 11215 net.cpp:141] Setting up inception_4b/pool
I0403 15:45:23.465222 11215 net.cpp:148] Top shape: 24 512 14 14 (2408448)
I0403 15:45:23.465236 11215 net.cpp:156] Memory required for data: 977814816
I0403 15:45:23.465251 11215 layer_factory.hpp:77] Creating layer inception_4b/pool_proj
I0403 15:45:23.465276 11215 net.cpp:91] Creating Layer inception_4b/pool_proj
I0403 15:45:23.465293 11215 net.cpp:425] inception_4b/pool_proj <- inception_4b/pool
I0403 15:45:23.465314 11215 net.cpp:399] inception_4b/pool_proj -> inception_4b/pool_proj
I0403 15:45:23.466506 11215 net.cpp:141] Setting up inception_4b/pool_proj
I0403 15:45:23.466536 11215 net.cpp:148] Top shape: 24 64 14 14 (301056)
I0403 15:45:23.466552 11215 net.cpp:156] Memory required for data: 979019040
I0403 15:45:23.466572 11215 layer_factory.hpp:77] Creating layer inception_4b/relu_pool_proj
I0403 15:45:23.466590 11215 net.cpp:91] Creating Layer inception_4b/relu_pool_proj
I0403 15:45:23.466606 11215 net.cpp:425] inception_4b/relu_pool_proj <- inception_4b/pool_proj
I0403 15:45:23.466626 11215 net.cpp:386] inception_4b/relu_pool_proj -> inception_4b/pool_proj (in-place)
I0403 15:45:23.466806 11215 net.cpp:141] Setting up inception_4b/relu_pool_proj
I0403 15:45:23.466830 11215 net.cpp:148] Top shape: 24 64 14 14 (301056)
I0403 15:45:23.466845 11215 net.cpp:156] Memory required for data: 980223264
I0403 15:45:23.466861 11215 layer_factory.hpp:77] Creating layer inception_4b/output
I0403 15:45:23.466877 11215 net.cpp:91] Creating Layer inception_4b/output
I0403 15:45:23.466892 11215 net.cpp:425] inception_4b/output <- inception_4b/1x1
I0403 15:45:23.466909 11215 net.cpp:425] inception_4b/output <- inception_4b/3x3
I0403 15:45:23.466925 11215 net.cpp:425] inception_4b/output <- inception_4b/5x5
I0403 15:45:23.466941 11215 net.cpp:425] inception_4b/output <- inception_4b/pool_proj
I0403 15:45:23.466961 11215 net.cpp:399] inception_4b/output -> inception_4b/output
I0403 15:45:23.467010 11215 net.cpp:141] Setting up inception_4b/output
I0403 15:45:23.467036 11215 net.cpp:148] Top shape: 24 512 14 14 (2408448)
I0403 15:45:23.467051 11215 net.cpp:156] Memory required for data: 989857056
I0403 15:45:23.467080 11215 layer_factory.hpp:77] Creating layer inception_4b/output_inception_4b/output_0_split
I0403 15:45:23.467098 11215 net.cpp:91] Creating Layer inception_4b/output_inception_4b/output_0_split
I0403 15:45:23.467114 11215 net.cpp:425] inception_4b/output_inception_4b/output_0_split <- inception_4b/output
I0403 15:45:23.467134 11215 net.cpp:399] inception_4b/output_inception_4b/output_0_split -> inception_4b/output_inception_4b/output_0_split_0
I0403 15:45:23.467154 11215 net.cpp:399] inception_4b/output_inception_4b/output_0_split -> inception_4b/output_inception_4b/output_0_split_1
I0403 15:45:23.467175 11215 net.cpp:399] inception_4b/output_inception_4b/output_0_split -> inception_4b/output_inception_4b/output_0_split_2
I0403 15:45:23.467195 11215 net.cpp:399] inception_4b/output_inception_4b/output_0_split -> inception_4b/output_inception_4b/output_0_split_3
I0403 15:45:23.467279 11215 net.cpp:141] Setting up inception_4b/output_inception_4b/output_0_split
I0403 15:45:23.467301 11215 net.cpp:148] Top shape: 24 512 14 14 (2408448)
I0403 15:45:23.467321 11215 net.cpp:148] Top shape: 24 512 14 14 (2408448)
I0403 15:45:23.467337 11215 net.cpp:148] Top shape: 24 512 14 14 (2408448)
I0403 15:45:23.467352 11215 net.cpp:148] Top shape: 24 512 14 14 (2408448)
I0403 15:45:23.467365 11215 net.cpp:156] Memory required for data: 1028392224
I0403 15:45:23.467381 11215 layer_factory.hpp:77] Creating layer inception_4c/1x1
I0403 15:45:23.467399 11215 net.cpp:91] Creating Layer inception_4c/1x1
I0403 15:45:23.467417 11215 net.cpp:425] inception_4c/1x1 <- inception_4b/output_inception_4b/output_0_split_0
I0403 15:45:23.467437 11215 net.cpp:399] inception_4c/1x1 -> inception_4c/1x1
I0403 15:45:23.468909 11215 net.cpp:141] Setting up inception_4c/1x1
I0403 15:45:23.468938 11215 net.cpp:148] Top shape: 24 128 14 14 (602112)
I0403 15:45:23.468955 11215 net.cpp:156] Memory required for data: 1030800672
I0403 15:45:23.468973 11215 layer_factory.hpp:77] Creating layer inception_4c/relu_1x1
I0403 15:45:23.469009 11215 net.cpp:91] Creating Layer inception_4c/relu_1x1
I0403 15:45:23.469028 11215 net.cpp:425] inception_4c/relu_1x1 <- inception_4c/1x1
I0403 15:45:23.469046 11215 net.cpp:386] inception_4c/relu_1x1 -> inception_4c/1x1 (in-place)
I0403 15:45:23.469230 11215 net.cpp:141] Setting up inception_4c/relu_1x1
I0403 15:45:23.469255 11215 net.cpp:148] Top shape: 24 128 14 14 (602112)
I0403 15:45:23.469270 11215 net.cpp:156] Memory required for data: 1033209120
I0403 15:45:23.469285 11215 layer_factory.hpp:77] Creating layer inception_4c/3x3_reduce
I0403 15:45:23.469310 11215 net.cpp:91] Creating Layer inception_4c/3x3_reduce
I0403 15:45:23.469327 11215 net.cpp:425] inception_4c/3x3_reduce <- inception_4b/output_inception_4b/output_0_split_1
I0403 15:45:23.469347 11215 net.cpp:399] inception_4c/3x3_reduce -> inception_4c/3x3_reduce
I0403 15:45:23.471352 11215 net.cpp:141] Setting up inception_4c/3x3_reduce
I0403 15:45:23.471382 11215 net.cpp:148] Top shape: 24 128 14 14 (602112)
I0403 15:45:23.471398 11215 net.cpp:156] Memory required for data: 1035617568
I0403 15:45:23.471417 11215 layer_factory.hpp:77] Creating layer inception_4c/relu_3x3_reduce
I0403 15:45:23.471438 11215 net.cpp:91] Creating Layer inception_4c/relu_3x3_reduce
I0403 15:45:23.471456 11215 net.cpp:425] inception_4c/relu_3x3_reduce <- inception_4c/3x3_reduce
I0403 15:45:23.471473 11215 net.cpp:386] inception_4c/relu_3x3_reduce -> inception_4c/3x3_reduce (in-place)
I0403 15:45:23.471765 11215 net.cpp:141] Setting up inception_4c/relu_3x3_reduce
I0403 15:45:23.471792 11215 net.cpp:148] Top shape: 24 128 14 14 (602112)
I0403 15:45:23.471807 11215 net.cpp:156] Memory required for data: 1038026016
I0403 15:45:23.471822 11215 layer_factory.hpp:77] Creating layer inception_4c/3x3
I0403 15:45:23.471851 11215 net.cpp:91] Creating Layer inception_4c/3x3
I0403 15:45:23.471870 11215 net.cpp:425] inception_4c/3x3 <- inception_4c/3x3_reduce
I0403 15:45:23.471889 11215 net.cpp:399] inception_4c/3x3 -> inception_4c/3x3
I0403 15:45:23.475608 11215 net.cpp:141] Setting up inception_4c/3x3
I0403 15:45:23.475653 11215 net.cpp:148] Top shape: 24 256 14 14 (1204224)
I0403 15:45:23.475672 11215 net.cpp:156] Memory required for data: 1042842912
I0403 15:45:23.475703 11215 layer_factory.hpp:77] Creating layer inception_4c/relu_3x3
I0403 15:45:23.475724 11215 net.cpp:91] Creating Layer inception_4c/relu_3x3
I0403 15:45:23.475741 11215 net.cpp:425] inception_4c/relu_3x3 <- inception_4c/3x3
I0403 15:45:23.475759 11215 net.cpp:386] inception_4c/relu_3x3 -> inception_4c/3x3 (in-place)
I0403 15:45:23.475945 11215 net.cpp:141] Setting up inception_4c/relu_3x3
I0403 15:45:23.475972 11215 net.cpp:148] Top shape: 24 256 14 14 (1204224)
I0403 15:45:23.475993 11215 net.cpp:156] Memory required for data: 1047659808
I0403 15:45:23.476009 11215 layer_factory.hpp:77] Creating layer inception_4c/5x5_reduce
I0403 15:45:23.476032 11215 net.cpp:91] Creating Layer inception_4c/5x5_reduce
I0403 15:45:23.476052 11215 net.cpp:425] inception_4c/5x5_reduce <- inception_4b/output_inception_4b/output_0_split_2
I0403 15:45:23.476070 11215 net.cpp:399] inception_4c/5x5_reduce -> inception_4c/5x5_reduce
I0403 15:45:23.477181 11215 net.cpp:141] Setting up inception_4c/5x5_reduce
I0403 15:45:23.477213 11215 net.cpp:148] Top shape: 24 24 14 14 (112896)
I0403 15:45:23.477231 11215 net.cpp:156] Memory required for data: 1048111392
I0403 15:45:23.477249 11215 layer_factory.hpp:77] Creating layer inception_4c/relu_5x5_reduce
I0403 15:45:23.477268 11215 net.cpp:91] Creating Layer inception_4c/relu_5x5_reduce
I0403 15:45:23.477284 11215 net.cpp:425] inception_4c/relu_5x5_reduce <- inception_4c/5x5_reduce
I0403 15:45:23.477308 11215 net.cpp:386] inception_4c/relu_5x5_reduce -> inception_4c/5x5_reduce (in-place)
I0403 15:45:23.477496 11215 net.cpp:141] Setting up inception_4c/relu_5x5_reduce
I0403 15:45:23.477521 11215 net.cpp:148] Top shape: 24 24 14 14 (112896)
I0403 15:45:23.477536 11215 net.cpp:156] Memory required for data: 1048562976
I0403 15:45:23.477551 11215 layer_factory.hpp:77] Creating layer inception_4c/5x5
I0403 15:45:23.477573 11215 net.cpp:91] Creating Layer inception_4c/5x5
I0403 15:45:23.477591 11215 net.cpp:425] inception_4c/5x5 <- inception_4c/5x5_reduce
I0403 15:45:23.477613 11215 net.cpp:399] inception_4c/5x5 -> inception_4c/5x5
I0403 15:45:23.478889 11215 net.cpp:141] Setting up inception_4c/5x5
I0403 15:45:23.478917 11215 net.cpp:148] Top shape: 24 64 14 14 (301056)
I0403 15:45:23.478934 11215 net.cpp:156] Memory required for data: 1049767200
I0403 15:45:23.478952 11215 layer_factory.hpp:77] Creating layer inception_4c/relu_5x5
I0403 15:45:23.478973 11215 net.cpp:91] Creating Layer inception_4c/relu_5x5
I0403 15:45:23.479002 11215 net.cpp:425] inception_4c/relu_5x5 <- inception_4c/5x5
I0403 15:45:23.479022 11215 net.cpp:386] inception_4c/relu_5x5 -> inception_4c/5x5 (in-place)
I0403 15:45:23.479318 11215 net.cpp:141] Setting up inception_4c/relu_5x5
I0403 15:45:23.479346 11215 net.cpp:148] Top shape: 24 64 14 14 (301056)
I0403 15:45:23.479360 11215 net.cpp:156] Memory required for data: 1050971424
I0403 15:45:23.479375 11215 layer_factory.hpp:77] Creating layer inception_4c/pool
I0403 15:45:23.479393 11215 net.cpp:91] Creating Layer inception_4c/pool
I0403 15:45:23.479409 11215 net.cpp:425] inception_4c/pool <- inception_4b/output_inception_4b/output_0_split_3
I0403 15:45:23.479430 11215 net.cpp:399] inception_4c/pool -> inception_4c/pool
I0403 15:45:23.479499 11215 net.cpp:141] Setting up inception_4c/pool
I0403 15:45:23.479523 11215 net.cpp:148] Top shape: 24 512 14 14 (2408448)
I0403 15:45:23.479537 11215 net.cpp:156] Memory required for data: 1060605216
I0403 15:45:23.479553 11215 layer_factory.hpp:77] Creating layer inception_4c/pool_proj
I0403 15:45:23.479575 11215 net.cpp:91] Creating Layer inception_4c/pool_proj
I0403 15:45:23.479593 11215 net.cpp:425] inception_4c/pool_proj <- inception_4c/pool
I0403 15:45:23.479614 11215 net.cpp:399] inception_4c/pool_proj -> inception_4c/pool_proj
I0403 15:45:23.480870 11215 net.cpp:141] Setting up inception_4c/pool_proj
I0403 15:45:23.480902 11215 net.cpp:148] Top shape: 24 64 14 14 (301056)
I0403 15:45:23.480931 11215 net.cpp:156] Memory required for data: 1061809440
I0403 15:45:23.480952 11215 layer_factory.hpp:77] Creating layer inception_4c/relu_pool_proj
I0403 15:45:23.480970 11215 net.cpp:91] Creating Layer inception_4c/relu_pool_proj
I0403 15:45:23.480991 11215 net.cpp:425] inception_4c/relu_pool_proj <- inception_4c/pool_proj
I0403 15:45:23.481010 11215 net.cpp:386] inception_4c/relu_pool_proj -> inception_4c/pool_proj (in-place)
I0403 15:45:23.481202 11215 net.cpp:141] Setting up inception_4c/relu_pool_proj
I0403 15:45:23.481228 11215 net.cpp:148] Top shape: 24 64 14 14 (301056)
I0403 15:45:23.481243 11215 net.cpp:156] Memory required for data: 1063013664
I0403 15:45:23.481259 11215 layer_factory.hpp:77] Creating layer inception_4c/output
I0403 15:45:23.481277 11215 net.cpp:91] Creating Layer inception_4c/output
I0403 15:45:23.481293 11215 net.cpp:425] inception_4c/output <- inception_4c/1x1
I0403 15:45:23.481310 11215 net.cpp:425] inception_4c/output <- inception_4c/3x3
I0403 15:45:23.481328 11215 net.cpp:425] inception_4c/output <- inception_4c/5x5
I0403 15:45:23.481343 11215 net.cpp:425] inception_4c/output <- inception_4c/pool_proj
I0403 15:45:23.481364 11215 net.cpp:399] inception_4c/output -> inception_4c/output
I0403 15:45:23.481410 11215 net.cpp:141] Setting up inception_4c/output
I0403 15:45:23.481437 11215 net.cpp:148] Top shape: 24 512 14 14 (2408448)
I0403 15:45:23.481452 11215 net.cpp:156] Memory required for data: 1072647456
I0403 15:45:23.481467 11215 layer_factory.hpp:77] Creating layer inception_4c/output_inception_4c/output_0_split
I0403 15:45:23.481485 11215 net.cpp:91] Creating Layer inception_4c/output_inception_4c/output_0_split
I0403 15:45:23.481501 11215 net.cpp:425] inception_4c/output_inception_4c/output_0_split <- inception_4c/output
I0403 15:45:23.481521 11215 net.cpp:399] inception_4c/output_inception_4c/output_0_split -> inception_4c/output_inception_4c/output_0_split_0
I0403 15:45:23.481542 11215 net.cpp:399] inception_4c/output_inception_4c/output_0_split -> inception_4c/output_inception_4c/output_0_split_1
I0403 15:45:23.481564 11215 net.cpp:399] inception_4c/output_inception_4c/output_0_split -> inception_4c/output_inception_4c/output_0_split_2
I0403 15:45:23.481583 11215 net.cpp:399] inception_4c/output_inception_4c/output_0_split -> inception_4c/output_inception_4c/output_0_split_3
I0403 15:45:23.481672 11215 net.cpp:141] Setting up inception_4c/output_inception_4c/output_0_split
I0403 15:45:23.481695 11215 net.cpp:148] Top shape: 24 512 14 14 (2408448)
I0403 15:45:23.481711 11215 net.cpp:148] Top shape: 24 512 14 14 (2408448)
I0403 15:45:23.481727 11215 net.cpp:148] Top shape: 24 512 14 14 (2408448)
I0403 15:45:23.481742 11215 net.cpp:148] Top shape: 24 512 14 14 (2408448)
I0403 15:45:23.481756 11215 net.cpp:156] Memory required for data: 1111182624
I0403 15:45:23.481771 11215 layer_factory.hpp:77] Creating layer inception_4d/1x1
I0403 15:45:23.481793 11215 net.cpp:91] Creating Layer inception_4d/1x1
I0403 15:45:23.481811 11215 net.cpp:425] inception_4d/1x1 <- inception_4c/output_inception_4c/output_0_split_0
I0403 15:45:23.481832 11215 net.cpp:399] inception_4d/1x1 -> inception_4d/1x1
I0403 15:45:23.483255 11215 net.cpp:141] Setting up inception_4d/1x1
I0403 15:45:23.483284 11215 net.cpp:148] Top shape: 24 112 14 14 (526848)
I0403 15:45:23.483299 11215 net.cpp:156] Memory required for data: 1113290016
I0403 15:45:23.483319 11215 layer_factory.hpp:77] Creating layer inception_4d/relu_1x1
I0403 15:45:23.483340 11215 net.cpp:91] Creating Layer inception_4d/relu_1x1
I0403 15:45:23.483355 11215 net.cpp:425] inception_4d/relu_1x1 <- inception_4d/1x1
I0403 15:45:23.483372 11215 net.cpp:386] inception_4d/relu_1x1 -> inception_4d/1x1 (in-place)
I0403 15:45:23.483561 11215 net.cpp:141] Setting up inception_4d/relu_1x1
I0403 15:45:23.483588 11215 net.cpp:148] Top shape: 24 112 14 14 (526848)
I0403 15:45:23.483604 11215 net.cpp:156] Memory required for data: 1115397408
I0403 15:45:23.483619 11215 layer_factory.hpp:77] Creating layer inception_4d/3x3_reduce
I0403 15:45:23.483656 11215 net.cpp:91] Creating Layer inception_4d/3x3_reduce
I0403 15:45:23.483675 11215 net.cpp:425] inception_4d/3x3_reduce <- inception_4c/output_inception_4c/output_0_split_1
I0403 15:45:23.483695 11215 net.cpp:399] inception_4d/3x3_reduce -> inception_4d/3x3_reduce
I0403 15:45:23.485283 11215 net.cpp:141] Setting up inception_4d/3x3_reduce
I0403 15:45:23.485311 11215 net.cpp:148] Top shape: 24 144 14 14 (677376)
I0403 15:45:23.485327 11215 net.cpp:156] Memory required for data: 1118106912
I0403 15:45:23.485347 11215 layer_factory.hpp:77] Creating layer inception_4d/relu_3x3_reduce
I0403 15:45:23.485371 11215 net.cpp:91] Creating Layer inception_4d/relu_3x3_reduce
I0403 15:45:23.485390 11215 net.cpp:425] inception_4d/relu_3x3_reduce <- inception_4d/3x3_reduce
I0403 15:45:23.485409 11215 net.cpp:386] inception_4d/relu_3x3_reduce -> inception_4d/3x3_reduce (in-place)
I0403 15:45:23.485704 11215 net.cpp:141] Setting up inception_4d/relu_3x3_reduce
I0403 15:45:23.485731 11215 net.cpp:148] Top shape: 24 144 14 14 (677376)
I0403 15:45:23.485746 11215 net.cpp:156] Memory required for data: 1120816416
I0403 15:45:23.485761 11215 layer_factory.hpp:77] Creating layer inception_4d/3x3
I0403 15:45:23.485785 11215 net.cpp:91] Creating Layer inception_4d/3x3
I0403 15:45:23.485802 11215 net.cpp:425] inception_4d/3x3 <- inception_4d/3x3_reduce
I0403 15:45:23.485824 11215 net.cpp:399] inception_4d/3x3 -> inception_4d/3x3
I0403 15:45:23.490139 11215 net.cpp:141] Setting up inception_4d/3x3
I0403 15:45:23.490167 11215 net.cpp:148] Top shape: 24 288 14 14 (1354752)
I0403 15:45:23.490183 11215 net.cpp:156] Memory required for data: 1126235424
I0403 15:45:23.490201 11215 layer_factory.hpp:77] Creating layer inception_4d/relu_3x3
I0403 15:45:23.490222 11215 net.cpp:91] Creating Layer inception_4d/relu_3x3
I0403 15:45:23.490238 11215 net.cpp:425] inception_4d/relu_3x3 <- inception_4d/3x3
I0403 15:45:23.490255 11215 net.cpp:386] inception_4d/relu_3x3 -> inception_4d/3x3 (in-place)
I0403 15:45:23.490437 11215 net.cpp:141] Setting up inception_4d/relu_3x3
I0403 15:45:23.490463 11215 net.cpp:148] Top shape: 24 288 14 14 (1354752)
I0403 15:45:23.490478 11215 net.cpp:156] Memory required for data: 1131654432
I0403 15:45:23.490492 11215 layer_factory.hpp:77] Creating layer inception_4d/5x5_reduce
I0403 15:45:23.490514 11215 net.cpp:91] Creating Layer inception_4d/5x5_reduce
I0403 15:45:23.490531 11215 net.cpp:425] inception_4d/5x5_reduce <- inception_4c/output_inception_4c/output_0_split_2
I0403 15:45:23.490553 11215 net.cpp:399] inception_4d/5x5_reduce -> inception_4d/5x5_reduce
I0403 15:45:23.491696 11215 net.cpp:141] Setting up inception_4d/5x5_reduce
I0403 15:45:23.491724 11215 net.cpp:148] Top shape: 24 32 14 14 (150528)
I0403 15:45:23.491739 11215 net.cpp:156] Memory required for data: 1132256544
I0403 15:45:23.491758 11215 layer_factory.hpp:77] Creating layer inception_4d/relu_5x5_reduce
I0403 15:45:23.491778 11215 net.cpp:91] Creating Layer inception_4d/relu_5x5_reduce
I0403 15:45:23.491796 11215 net.cpp:425] inception_4d/relu_5x5_reduce <- inception_4d/5x5_reduce
I0403 15:45:23.491812 11215 net.cpp:386] inception_4d/relu_5x5_reduce -> inception_4d/5x5_reduce (in-place)
I0403 15:45:23.492005 11215 net.cpp:141] Setting up inception_4d/relu_5x5_reduce
I0403 15:45:23.492032 11215 net.cpp:148] Top shape: 24 32 14 14 (150528)
I0403 15:45:23.492048 11215 net.cpp:156] Memory required for data: 1132858656
I0403 15:45:23.492063 11215 layer_factory.hpp:77] Creating layer inception_4d/5x5
I0403 15:45:23.492089 11215 net.cpp:91] Creating Layer inception_4d/5x5
I0403 15:45:23.492106 11215 net.cpp:425] inception_4d/5x5 <- inception_4d/5x5_reduce
I0403 15:45:23.492125 11215 net.cpp:399] inception_4d/5x5 -> inception_4d/5x5
I0403 15:45:23.493602 11215 net.cpp:141] Setting up inception_4d/5x5
I0403 15:45:23.493631 11215 net.cpp:148] Top shape: 24 64 14 14 (301056)
I0403 15:45:23.493649 11215 net.cpp:156] Memory required for data: 1134062880
I0403 15:45:23.493667 11215 layer_factory.hpp:77] Creating layer inception_4d/relu_5x5
I0403 15:45:23.493700 11215 net.cpp:91] Creating Layer inception_4d/relu_5x5
I0403 15:45:23.493717 11215 net.cpp:425] inception_4d/relu_5x5 <- inception_4d/5x5
I0403 15:45:23.493737 11215 net.cpp:386] inception_4d/relu_5x5 -> inception_4d/5x5 (in-place)
I0403 15:45:23.494045 11215 net.cpp:141] Setting up inception_4d/relu_5x5
I0403 15:45:23.494072 11215 net.cpp:148] Top shape: 24 64 14 14 (301056)
I0403 15:45:23.494088 11215 net.cpp:156] Memory required for data: 1135267104
I0403 15:45:23.494103 11215 layer_factory.hpp:77] Creating layer inception_4d/pool
I0403 15:45:23.494120 11215 net.cpp:91] Creating Layer inception_4d/pool
I0403 15:45:23.494138 11215 net.cpp:425] inception_4d/pool <- inception_4c/output_inception_4c/output_0_split_3
I0403 15:45:23.494158 11215 net.cpp:399] inception_4d/pool -> inception_4d/pool
I0403 15:45:23.494225 11215 net.cpp:141] Setting up inception_4d/pool
I0403 15:45:23.494249 11215 net.cpp:148] Top shape: 24 512 14 14 (2408448)
I0403 15:45:23.494266 11215 net.cpp:156] Memory required for data: 1144900896
I0403 15:45:23.494279 11215 layer_factory.hpp:77] Creating layer inception_4d/pool_proj
I0403 15:45:23.494302 11215 net.cpp:91] Creating Layer inception_4d/pool_proj
I0403 15:45:23.494319 11215 net.cpp:425] inception_4d/pool_proj <- inception_4d/pool
I0403 15:45:23.494338 11215 net.cpp:399] inception_4d/pool_proj -> inception_4d/pool_proj
I0403 15:45:23.496135 11215 net.cpp:141] Setting up inception_4d/pool_proj
I0403 15:45:23.496165 11215 net.cpp:148] Top shape: 24 64 14 14 (301056)
I0403 15:45:23.496181 11215 net.cpp:156] Memory required for data: 1146105120
I0403 15:45:23.496199 11215 layer_factory.hpp:77] Creating layer inception_4d/relu_pool_proj
I0403 15:45:23.496220 11215 net.cpp:91] Creating Layer inception_4d/relu_pool_proj
I0403 15:45:23.496237 11215 net.cpp:425] inception_4d/relu_pool_proj <- inception_4d/pool_proj
I0403 15:45:23.496254 11215 net.cpp:386] inception_4d/relu_pool_proj -> inception_4d/pool_proj (in-place)
I0403 15:45:23.496444 11215 net.cpp:141] Setting up inception_4d/relu_pool_proj
I0403 15:45:23.496469 11215 net.cpp:148] Top shape: 24 64 14 14 (301056)
I0403 15:45:23.496484 11215 net.cpp:156] Memory required for data: 1147309344
I0403 15:45:23.496498 11215 layer_factory.hpp:77] Creating layer inception_4d/output
I0403 15:45:23.496515 11215 net.cpp:91] Creating Layer inception_4d/output
I0403 15:45:23.496531 11215 net.cpp:425] inception_4d/output <- inception_4d/1x1
I0403 15:45:23.496548 11215 net.cpp:425] inception_4d/output <- inception_4d/3x3
I0403 15:45:23.496565 11215 net.cpp:425] inception_4d/output <- inception_4d/5x5
I0403 15:45:23.496582 11215 net.cpp:425] inception_4d/output <- inception_4d/pool_proj
I0403 15:45:23.496598 11215 net.cpp:399] inception_4d/output -> inception_4d/output
I0403 15:45:23.496647 11215 net.cpp:141] Setting up inception_4d/output
I0403 15:45:23.496670 11215 net.cpp:148] Top shape: 24 528 14 14 (2483712)
I0403 15:45:23.496685 11215 net.cpp:156] Memory required for data: 1157244192
I0403 15:45:23.496700 11215 layer_factory.hpp:77] Creating layer inception_4d/output_inception_4d/output_0_split
I0403 15:45:23.496718 11215 net.cpp:91] Creating Layer inception_4d/output_inception_4d/output_0_split
I0403 15:45:23.496736 11215 net.cpp:425] inception_4d/output_inception_4d/output_0_split <- inception_4d/output
I0403 15:45:23.496753 11215 net.cpp:399] inception_4d/output_inception_4d/output_0_split -> inception_4d/output_inception_4d/output_0_split_0
I0403 15:45:23.496774 11215 net.cpp:399] inception_4d/output_inception_4d/output_0_split -> inception_4d/output_inception_4d/output_0_split_1
I0403 15:45:23.496796 11215 net.cpp:399] inception_4d/output_inception_4d/output_0_split -> inception_4d/output_inception_4d/output_0_split_2
I0403 15:45:23.496819 11215 net.cpp:399] inception_4d/output_inception_4d/output_0_split -> inception_4d/output_inception_4d/output_0_split_3
I0403 15:45:23.496840 11215 net.cpp:399] inception_4d/output_inception_4d/output_0_split -> inception_4d/output_inception_4d/output_0_split_4
I0403 15:45:23.496942 11215 net.cpp:141] Setting up inception_4d/output_inception_4d/output_0_split
I0403 15:45:23.496980 11215 net.cpp:148] Top shape: 24 528 14 14 (2483712)
I0403 15:45:23.496999 11215 net.cpp:148] Top shape: 24 528 14 14 (2483712)
I0403 15:45:23.497015 11215 net.cpp:148] Top shape: 24 528 14 14 (2483712)
I0403 15:45:23.497030 11215 net.cpp:148] Top shape: 24 528 14 14 (2483712)
I0403 15:45:23.497047 11215 net.cpp:148] Top shape: 24 528 14 14 (2483712)
I0403 15:45:23.497061 11215 net.cpp:156] Memory required for data: 1206918432
I0403 15:45:23.497074 11215 layer_factory.hpp:77] Creating layer loss2/ave_pool
I0403 15:45:23.497094 11215 net.cpp:91] Creating Layer loss2/ave_pool
I0403 15:45:23.497112 11215 net.cpp:425] loss2/ave_pool <- inception_4d/output_inception_4d/output_0_split_0
I0403 15:45:23.497129 11215 net.cpp:399] loss2/ave_pool -> loss2/ave_pool
I0403 15:45:23.497440 11215 net.cpp:141] Setting up loss2/ave_pool
I0403 15:45:23.497467 11215 net.cpp:148] Top shape: 24 528 4 4 (202752)
I0403 15:45:23.497481 11215 net.cpp:156] Memory required for data: 1207729440
I0403 15:45:23.497496 11215 layer_factory.hpp:77] Creating layer loss2/conv
I0403 15:45:23.497520 11215 net.cpp:91] Creating Layer loss2/conv
I0403 15:45:23.497537 11215 net.cpp:425] loss2/conv <- loss2/ave_pool
I0403 15:45:23.497557 11215 net.cpp:399] loss2/conv -> loss2/conv
I0403 15:45:23.499475 11215 net.cpp:141] Setting up loss2/conv
I0403 15:45:23.499505 11215 net.cpp:148] Top shape: 24 128 4 4 (49152)
I0403 15:45:23.499519 11215 net.cpp:156] Memory required for data: 1207926048
I0403 15:45:23.499538 11215 layer_factory.hpp:77] Creating layer loss2/relu_conv
I0403 15:45:23.499557 11215 net.cpp:91] Creating Layer loss2/relu_conv
I0403 15:45:23.499573 11215 net.cpp:425] loss2/relu_conv <- loss2/conv
I0403 15:45:23.499593 11215 net.cpp:386] loss2/relu_conv -> loss2/conv (in-place)
I0403 15:45:23.499878 11215 net.cpp:141] Setting up loss2/relu_conv
I0403 15:45:23.499904 11215 net.cpp:148] Top shape: 24 128 4 4 (49152)
I0403 15:45:23.499919 11215 net.cpp:156] Memory required for data: 1208122656
I0403 15:45:23.499933 11215 layer_factory.hpp:77] Creating layer loss2/fc
I0403 15:45:23.499953 11215 net.cpp:91] Creating Layer loss2/fc
I0403 15:45:23.499969 11215 net.cpp:425] loss2/fc <- loss2/conv
I0403 15:45:23.499994 11215 net.cpp:399] loss2/fc -> loss2/fc
I0403 15:45:23.517755 11215 net.cpp:141] Setting up loss2/fc
I0403 15:45:23.517819 11215 net.cpp:148] Top shape: 24 1024 (24576)
I0403 15:45:23.517835 11215 net.cpp:156] Memory required for data: 1208220960
I0403 15:45:23.517854 11215 layer_factory.hpp:77] Creating layer loss2/relu_fc
I0403 15:45:23.517874 11215 net.cpp:91] Creating Layer loss2/relu_fc
I0403 15:45:23.517891 11215 net.cpp:425] loss2/relu_fc <- loss2/fc
I0403 15:45:23.517909 11215 net.cpp:386] loss2/relu_fc -> loss2/fc (in-place)
I0403 15:45:23.518224 11215 net.cpp:141] Setting up loss2/relu_fc
I0403 15:45:23.518251 11215 net.cpp:148] Top shape: 24 1024 (24576)
I0403 15:45:23.518266 11215 net.cpp:156] Memory required for data: 1208319264
I0403 15:45:23.518281 11215 layer_factory.hpp:77] Creating layer loss2/drop_fc
I0403 15:45:23.518299 11215 net.cpp:91] Creating Layer loss2/drop_fc
I0403 15:45:23.518316 11215 net.cpp:425] loss2/drop_fc <- loss2/fc
I0403 15:45:23.518333 11215 net.cpp:386] loss2/drop_fc -> loss2/fc (in-place)
I0403 15:45:23.518384 11215 net.cpp:141] Setting up loss2/drop_fc
I0403 15:45:23.518406 11215 net.cpp:148] Top shape: 24 1024 (24576)
I0403 15:45:23.518421 11215 net.cpp:156] Memory required for data: 1208417568
I0403 15:45:23.518436 11215 layer_factory.hpp:77] Creating layer loss2/classifier_plantvillage
I0403 15:45:23.518456 11215 net.cpp:91] Creating Layer loss2/classifier_plantvillage
I0403 15:45:23.518474 11215 net.cpp:425] loss2/classifier_plantvillage <- loss2/fc
I0403 15:45:23.518492 11215 net.cpp:399] loss2/classifier_plantvillage -> loss2/classifier_plantvillage
I0403 15:45:23.518899 11215 net.cpp:141] Setting up loss2/classifier_plantvillage
I0403 15:45:23.518923 11215 net.cpp:148] Top shape: 24 38 (912)
I0403 15:45:23.518954 11215 net.cpp:156] Memory required for data: 1208421216
I0403 15:45:23.518973 11215 layer_factory.hpp:77] Creating layer loss2/classifier_plantvillage_loss2/classifier_plantvillage_0_split
I0403 15:45:23.519002 11215 net.cpp:91] Creating Layer loss2/classifier_plantvillage_loss2/classifier_plantvillage_0_split
I0403 15:45:23.519019 11215 net.cpp:425] loss2/classifier_plantvillage_loss2/classifier_plantvillage_0_split <- loss2/classifier_plantvillage
I0403 15:45:23.519040 11215 net.cpp:399] loss2/classifier_plantvillage_loss2/classifier_plantvillage_0_split -> loss2/classifier_plantvillage_loss2/classifier_plantvillage_0_split_0
I0403 15:45:23.519062 11215 net.cpp:399] loss2/classifier_plantvillage_loss2/classifier_plantvillage_0_split -> loss2/classifier_plantvillage_loss2/classifier_plantvillage_0_split_1
I0403 15:45:23.519083 11215 net.cpp:399] loss2/classifier_plantvillage_loss2/classifier_plantvillage_0_split -> loss2/classifier_plantvillage_loss2/classifier_plantvillage_0_split_2
I0403 15:45:23.519162 11215 net.cpp:141] Setting up loss2/classifier_plantvillage_loss2/classifier_plantvillage_0_split
I0403 15:45:23.519186 11215 net.cpp:148] Top shape: 24 38 (912)
I0403 15:45:23.519203 11215 net.cpp:148] Top shape: 24 38 (912)
I0403 15:45:23.519219 11215 net.cpp:148] Top shape: 24 38 (912)
I0403 15:45:23.519232 11215 net.cpp:156] Memory required for data: 1208432160
I0403 15:45:23.519248 11215 layer_factory.hpp:77] Creating layer inception_4e/1x1
I0403 15:45:23.519269 11215 net.cpp:91] Creating Layer inception_4e/1x1
I0403 15:45:23.519286 11215 net.cpp:425] inception_4e/1x1 <- inception_4d/output_inception_4d/output_0_split_1
I0403 15:45:23.519305 11215 net.cpp:399] inception_4e/1x1 -> inception_4e/1x1
I0403 15:45:23.521180 11215 net.cpp:141] Setting up inception_4e/1x1
I0403 15:45:23.521210 11215 net.cpp:148] Top shape: 24 256 14 14 (1204224)
I0403 15:45:23.521226 11215 net.cpp:156] Memory required for data: 1213249056
I0403 15:45:23.521245 11215 layer_factory.hpp:77] Creating layer inception_4e/relu_1x1
I0403 15:45:23.521266 11215 net.cpp:91] Creating Layer inception_4e/relu_1x1
I0403 15:45:23.521283 11215 net.cpp:425] inception_4e/relu_1x1 <- inception_4e/1x1
I0403 15:45:23.521301 11215 net.cpp:386] inception_4e/relu_1x1 -> inception_4e/1x1 (in-place)
I0403 15:45:23.521606 11215 net.cpp:141] Setting up inception_4e/relu_1x1
I0403 15:45:23.521632 11215 net.cpp:148] Top shape: 24 256 14 14 (1204224)
I0403 15:45:23.521647 11215 net.cpp:156] Memory required for data: 1218065952
I0403 15:45:23.521663 11215 layer_factory.hpp:77] Creating layer inception_4e/3x3_reduce
I0403 15:45:23.521685 11215 net.cpp:91] Creating Layer inception_4e/3x3_reduce
I0403 15:45:23.521703 11215 net.cpp:425] inception_4e/3x3_reduce <- inception_4d/output_inception_4d/output_0_split_2
I0403 15:45:23.521725 11215 net.cpp:399] inception_4e/3x3_reduce -> inception_4e/3x3_reduce
I0403 15:45:23.523950 11215 net.cpp:141] Setting up inception_4e/3x3_reduce
I0403 15:45:23.523984 11215 net.cpp:148] Top shape: 24 160 14 14 (752640)
I0403 15:45:23.524003 11215 net.cpp:156] Memory required for data: 1221076512
I0403 15:45:23.524021 11215 layer_factory.hpp:77] Creating layer inception_4e/relu_3x3_reduce
I0403 15:45:23.524039 11215 net.cpp:91] Creating Layer inception_4e/relu_3x3_reduce
I0403 15:45:23.524055 11215 net.cpp:425] inception_4e/relu_3x3_reduce <- inception_4e/3x3_reduce
I0403 15:45:23.524078 11215 net.cpp:386] inception_4e/relu_3x3_reduce -> inception_4e/3x3_reduce (in-place)
I0403 15:45:23.524269 11215 net.cpp:141] Setting up inception_4e/relu_3x3_reduce
I0403 15:45:23.524296 11215 net.cpp:148] Top shape: 24 160 14 14 (752640)
I0403 15:45:23.524310 11215 net.cpp:156] Memory required for data: 1224087072
I0403 15:45:23.524325 11215 layer_factory.hpp:77] Creating layer inception_4e/3x3
I0403 15:45:23.524348 11215 net.cpp:91] Creating Layer inception_4e/3x3
I0403 15:45:23.524366 11215 net.cpp:425] inception_4e/3x3 <- inception_4e/3x3_reduce
I0403 15:45:23.524387 11215 net.cpp:399] inception_4e/3x3 -> inception_4e/3x3
I0403 15:45:23.529577 11215 net.cpp:141] Setting up inception_4e/3x3
I0403 15:45:23.529618 11215 net.cpp:148] Top shape: 24 320 14 14 (1505280)
I0403 15:45:23.529635 11215 net.cpp:156] Memory required for data: 1230108192
I0403 15:45:23.529655 11215 layer_factory.hpp:77] Creating layer inception_4e/relu_3x3
I0403 15:45:23.529680 11215 net.cpp:91] Creating Layer inception_4e/relu_3x3
I0403 15:45:23.529698 11215 net.cpp:425] inception_4e/relu_3x3 <- inception_4e/3x3
I0403 15:45:23.529716 11215 net.cpp:386] inception_4e/relu_3x3 -> inception_4e/3x3 (in-place)
I0403 15:45:23.530027 11215 net.cpp:141] Setting up inception_4e/relu_3x3
I0403 15:45:23.530055 11215 net.cpp:148] Top shape: 24 320 14 14 (1505280)
I0403 15:45:23.530071 11215 net.cpp:156] Memory required for data: 1236129312
I0403 15:45:23.530086 11215 layer_factory.hpp:77] Creating layer inception_4e/5x5_reduce
I0403 15:45:23.530109 11215 net.cpp:91] Creating Layer inception_4e/5x5_reduce
I0403 15:45:23.530128 11215 net.cpp:425] inception_4e/5x5_reduce <- inception_4d/output_inception_4d/output_0_split_3
I0403 15:45:23.530151 11215 net.cpp:399] inception_4e/5x5_reduce -> inception_4e/5x5_reduce
I0403 15:45:23.531236 11215 net.cpp:141] Setting up inception_4e/5x5_reduce
I0403 15:45:23.531266 11215 net.cpp:148] Top shape: 24 32 14 14 (150528)
I0403 15:45:23.531282 11215 net.cpp:156] Memory required for data: 1236731424
I0403 15:45:23.531301 11215 layer_factory.hpp:77] Creating layer inception_4e/relu_5x5_reduce
I0403 15:45:23.531319 11215 net.cpp:91] Creating Layer inception_4e/relu_5x5_reduce
I0403 15:45:23.531335 11215 net.cpp:425] inception_4e/relu_5x5_reduce <- inception_4e/5x5_reduce
I0403 15:45:23.531354 11215 net.cpp:386] inception_4e/relu_5x5_reduce -> inception_4e/5x5_reduce (in-place)
I0403 15:45:23.531649 11215 net.cpp:141] Setting up inception_4e/relu_5x5_reduce
I0403 15:45:23.531677 11215 net.cpp:148] Top shape: 24 32 14 14 (150528)
I0403 15:45:23.531692 11215 net.cpp:156] Memory required for data: 1237333536
I0403 15:45:23.531708 11215 layer_factory.hpp:77] Creating layer inception_4e/5x5
I0403 15:45:23.531745 11215 net.cpp:91] Creating Layer inception_4e/5x5
I0403 15:45:23.531764 11215 net.cpp:425] inception_4e/5x5 <- inception_4e/5x5_reduce
I0403 15:45:23.531783 11215 net.cpp:399] inception_4e/5x5 -> inception_4e/5x5
I0403 15:45:23.533632 11215 net.cpp:141] Setting up inception_4e/5x5
I0403 15:45:23.533661 11215 net.cpp:148] Top shape: 24 128 14 14 (602112)
I0403 15:45:23.533679 11215 net.cpp:156] Memory required for data: 1239741984
I0403 15:45:23.533697 11215 layer_factory.hpp:77] Creating layer inception_4e/relu_5x5
I0403 15:45:23.533715 11215 net.cpp:91] Creating Layer inception_4e/relu_5x5
I0403 15:45:23.533731 11215 net.cpp:425] inception_4e/relu_5x5 <- inception_4e/5x5
I0403 15:45:23.533754 11215 net.cpp:386] inception_4e/relu_5x5 -> inception_4e/5x5 (in-place)
I0403 15:45:23.533951 11215 net.cpp:141] Setting up inception_4e/relu_5x5
I0403 15:45:23.533975 11215 net.cpp:148] Top shape: 24 128 14 14 (602112)
I0403 15:45:23.533995 11215 net.cpp:156] Memory required for data: 1242150432
I0403 15:45:23.534010 11215 layer_factory.hpp:77] Creating layer inception_4e/pool
I0403 15:45:23.534029 11215 net.cpp:91] Creating Layer inception_4e/pool
I0403 15:45:23.534044 11215 net.cpp:425] inception_4e/pool <- inception_4d/output_inception_4d/output_0_split_4
I0403 15:45:23.534065 11215 net.cpp:399] inception_4e/pool -> inception_4e/pool
I0403 15:45:23.534135 11215 net.cpp:141] Setting up inception_4e/pool
I0403 15:45:23.534158 11215 net.cpp:148] Top shape: 24 528 14 14 (2483712)
I0403 15:45:23.534173 11215 net.cpp:156] Memory required for data: 1252085280
I0403 15:45:23.534188 11215 layer_factory.hpp:77] Creating layer inception_4e/pool_proj
I0403 15:45:23.534214 11215 net.cpp:91] Creating Layer inception_4e/pool_proj
I0403 15:45:23.534231 11215 net.cpp:425] inception_4e/pool_proj <- inception_4e/pool
I0403 15:45:23.534250 11215 net.cpp:399] inception_4e/pool_proj -> inception_4e/pool_proj
I0403 15:45:23.535753 11215 net.cpp:141] Setting up inception_4e/pool_proj
I0403 15:45:23.535791 11215 net.cpp:148] Top shape: 24 128 14 14 (602112)
I0403 15:45:23.535809 11215 net.cpp:156] Memory required for data: 1254493728
I0403 15:45:23.535826 11215 layer_factory.hpp:77] Creating layer inception_4e/relu_pool_proj
I0403 15:45:23.535846 11215 net.cpp:91] Creating Layer inception_4e/relu_pool_proj
I0403 15:45:23.535863 11215 net.cpp:425] inception_4e/relu_pool_proj <- inception_4e/pool_proj
I0403 15:45:23.535881 11215 net.cpp:386] inception_4e/relu_pool_proj -> inception_4e/pool_proj (in-place)
I0403 15:45:23.536175 11215 net.cpp:141] Setting up inception_4e/relu_pool_proj
I0403 15:45:23.536201 11215 net.cpp:148] Top shape: 24 128 14 14 (602112)
I0403 15:45:23.536216 11215 net.cpp:156] Memory required for data: 1256902176
I0403 15:45:23.536231 11215 layer_factory.hpp:77] Creating layer inception_4e/output
I0403 15:45:23.536250 11215 net.cpp:91] Creating Layer inception_4e/output
I0403 15:45:23.536267 11215 net.cpp:425] inception_4e/output <- inception_4e/1x1
I0403 15:45:23.536283 11215 net.cpp:425] inception_4e/output <- inception_4e/3x3
I0403 15:45:23.536300 11215 net.cpp:425] inception_4e/output <- inception_4e/5x5
I0403 15:45:23.536317 11215 net.cpp:425] inception_4e/output <- inception_4e/pool_proj
I0403 15:45:23.536334 11215 net.cpp:399] inception_4e/output -> inception_4e/output
I0403 15:45:23.536386 11215 net.cpp:141] Setting up inception_4e/output
I0403 15:45:23.536408 11215 net.cpp:148] Top shape: 24 832 14 14 (3913728)
I0403 15:45:23.536423 11215 net.cpp:156] Memory required for data: 1272557088
I0403 15:45:23.536438 11215 layer_factory.hpp:77] Creating layer pool4/3x3_s2
I0403 15:45:23.536456 11215 net.cpp:91] Creating Layer pool4/3x3_s2
I0403 15:45:23.536473 11215 net.cpp:425] pool4/3x3_s2 <- inception_4e/output
I0403 15:45:23.536492 11215 net.cpp:399] pool4/3x3_s2 -> pool4/3x3_s2
I0403 15:45:23.536559 11215 net.cpp:141] Setting up pool4/3x3_s2
I0403 15:45:23.536583 11215 net.cpp:148] Top shape: 24 832 7 7 (978432)
I0403 15:45:23.536598 11215 net.cpp:156] Memory required for data: 1276470816
I0403 15:45:23.536613 11215 layer_factory.hpp:77] Creating layer pool4/3x3_s2_pool4/3x3_s2_0_split
I0403 15:45:23.536633 11215 net.cpp:91] Creating Layer pool4/3x3_s2_pool4/3x3_s2_0_split
I0403 15:45:23.536648 11215 net.cpp:425] pool4/3x3_s2_pool4/3x3_s2_0_split <- pool4/3x3_s2
I0403 15:45:23.536669 11215 net.cpp:399] pool4/3x3_s2_pool4/3x3_s2_0_split -> pool4/3x3_s2_pool4/3x3_s2_0_split_0
I0403 15:45:23.536689 11215 net.cpp:399] pool4/3x3_s2_pool4/3x3_s2_0_split -> pool4/3x3_s2_pool4/3x3_s2_0_split_1
I0403 15:45:23.536710 11215 net.cpp:399] pool4/3x3_s2_pool4/3x3_s2_0_split -> pool4/3x3_s2_pool4/3x3_s2_0_split_2
I0403 15:45:23.536731 11215 net.cpp:399] pool4/3x3_s2_pool4/3x3_s2_0_split -> pool4/3x3_s2_pool4/3x3_s2_0_split_3
I0403 15:45:23.536821 11215 net.cpp:141] Setting up pool4/3x3_s2_pool4/3x3_s2_0_split
I0403 15:45:23.536846 11215 net.cpp:148] Top shape: 24 832 7 7 (978432)
I0403 15:45:23.536864 11215 net.cpp:148] Top shape: 24 832 7 7 (978432)
I0403 15:45:23.536880 11215 net.cpp:148] Top shape: 24 832 7 7 (978432)
I0403 15:45:23.536895 11215 net.cpp:148] Top shape: 24 832 7 7 (978432)
I0403 15:45:23.536909 11215 net.cpp:156] Memory required for data: 1292125728
I0403 15:45:23.536923 11215 layer_factory.hpp:77] Creating layer inception_5a/1x1
I0403 15:45:23.536944 11215 net.cpp:91] Creating Layer inception_5a/1x1
I0403 15:45:23.536962 11215 net.cpp:425] inception_5a/1x1 <- pool4/3x3_s2_pool4/3x3_s2_0_split_0
I0403 15:45:23.536984 11215 net.cpp:399] inception_5a/1x1 -> inception_5a/1x1
I0403 15:45:23.539826 11215 net.cpp:141] Setting up inception_5a/1x1
I0403 15:45:23.539857 11215 net.cpp:148] Top shape: 24 256 7 7 (301056)
I0403 15:45:23.539873 11215 net.cpp:156] Memory required for data: 1293329952
I0403 15:45:23.539891 11215 layer_factory.hpp:77] Creating layer inception_5a/relu_1x1
I0403 15:45:23.539916 11215 net.cpp:91] Creating Layer inception_5a/relu_1x1
I0403 15:45:23.539934 11215 net.cpp:425] inception_5a/relu_1x1 <- inception_5a/1x1
I0403 15:45:23.539953 11215 net.cpp:386] inception_5a/relu_1x1 -> inception_5a/1x1 (in-place)
I0403 15:45:23.540261 11215 net.cpp:141] Setting up inception_5a/relu_1x1
I0403 15:45:23.540288 11215 net.cpp:148] Top shape: 24 256 7 7 (301056)
I0403 15:45:23.540304 11215 net.cpp:156] Memory required for data: 1294534176
I0403 15:45:23.540318 11215 layer_factory.hpp:77] Creating layer inception_5a/3x3_reduce
I0403 15:45:23.540339 11215 net.cpp:91] Creating Layer inception_5a/3x3_reduce
I0403 15:45:23.540357 11215 net.cpp:425] inception_5a/3x3_reduce <- pool4/3x3_s2_pool4/3x3_s2_0_split_1
I0403 15:45:23.540375 11215 net.cpp:399] inception_5a/3x3_reduce -> inception_5a/3x3_reduce
I0403 15:45:23.542790 11215 net.cpp:141] Setting up inception_5a/3x3_reduce
I0403 15:45:23.542819 11215 net.cpp:148] Top shape: 24 160 7 7 (188160)
I0403 15:45:23.542834 11215 net.cpp:156] Memory required for data: 1295286816
I0403 15:45:23.542852 11215 layer_factory.hpp:77] Creating layer inception_5a/relu_3x3_reduce
I0403 15:45:23.542872 11215 net.cpp:91] Creating Layer inception_5a/relu_3x3_reduce
I0403 15:45:23.542889 11215 net.cpp:425] inception_5a/relu_3x3_reduce <- inception_5a/3x3_reduce
I0403 15:45:23.542906 11215 net.cpp:386] inception_5a/relu_3x3_reduce -> inception_5a/3x3_reduce (in-place)
I0403 15:45:23.543092 11215 net.cpp:141] Setting up inception_5a/relu_3x3_reduce
I0403 15:45:23.543118 11215 net.cpp:148] Top shape: 24 160 7 7 (188160)
I0403 15:45:23.543133 11215 net.cpp:156] Memory required for data: 1296039456
I0403 15:45:23.543148 11215 layer_factory.hpp:77] Creating layer inception_5a/3x3
I0403 15:45:23.543169 11215 net.cpp:91] Creating Layer inception_5a/3x3
I0403 15:45:23.543186 11215 net.cpp:425] inception_5a/3x3 <- inception_5a/3x3_reduce
I0403 15:45:23.543206 11215 net.cpp:399] inception_5a/3x3 -> inception_5a/3x3
I0403 15:45:23.548130 11215 net.cpp:141] Setting up inception_5a/3x3
I0403 15:45:23.548161 11215 net.cpp:148] Top shape: 24 320 7 7 (376320)
I0403 15:45:23.548189 11215 net.cpp:156] Memory required for data: 1297544736
I0403 15:45:23.548209 11215 layer_factory.hpp:77] Creating layer inception_5a/relu_3x3
I0403 15:45:23.548228 11215 net.cpp:91] Creating Layer inception_5a/relu_3x3
I0403 15:45:23.548244 11215 net.cpp:425] inception_5a/relu_3x3 <- inception_5a/3x3
I0403 15:45:23.548264 11215 net.cpp:386] inception_5a/relu_3x3 -> inception_5a/3x3 (in-place)
I0403 15:45:23.548564 11215 net.cpp:141] Setting up inception_5a/relu_3x3
I0403 15:45:23.548591 11215 net.cpp:148] Top shape: 24 320 7 7 (376320)
I0403 15:45:23.548606 11215 net.cpp:156] Memory required for data: 1299050016
I0403 15:45:23.548621 11215 layer_factory.hpp:77] Creating layer inception_5a/5x5_reduce
I0403 15:45:23.548643 11215 net.cpp:91] Creating Layer inception_5a/5x5_reduce
I0403 15:45:23.548660 11215 net.cpp:425] inception_5a/5x5_reduce <- pool4/3x3_s2_pool4/3x3_s2_0_split_2
I0403 15:45:23.548678 11215 net.cpp:399] inception_5a/5x5_reduce -> inception_5a/5x5_reduce
I0403 15:45:23.549824 11215 net.cpp:141] Setting up inception_5a/5x5_reduce
I0403 15:45:23.549854 11215 net.cpp:148] Top shape: 24 32 7 7 (37632)
I0403 15:45:23.549870 11215 net.cpp:156] Memory required for data: 1299200544
I0403 15:45:23.549887 11215 layer_factory.hpp:77] Creating layer inception_5a/relu_5x5_reduce
I0403 15:45:23.549906 11215 net.cpp:91] Creating Layer inception_5a/relu_5x5_reduce
I0403 15:45:23.549921 11215 net.cpp:425] inception_5a/relu_5x5_reduce <- inception_5a/5x5_reduce
I0403 15:45:23.549940 11215 net.cpp:386] inception_5a/relu_5x5_reduce -> inception_5a/5x5_reduce (in-place)
I0403 15:45:23.550249 11215 net.cpp:141] Setting up inception_5a/relu_5x5_reduce
I0403 15:45:23.550276 11215 net.cpp:148] Top shape: 24 32 7 7 (37632)
I0403 15:45:23.550292 11215 net.cpp:156] Memory required for data: 1299351072
I0403 15:45:23.550307 11215 layer_factory.hpp:77] Creating layer inception_5a/5x5
I0403 15:45:23.550328 11215 net.cpp:91] Creating Layer inception_5a/5x5
I0403 15:45:23.550345 11215 net.cpp:425] inception_5a/5x5 <- inception_5a/5x5_reduce
I0403 15:45:23.550366 11215 net.cpp:399] inception_5a/5x5 -> inception_5a/5x5
I0403 15:45:23.552060 11215 net.cpp:141] Setting up inception_5a/5x5
I0403 15:45:23.552100 11215 net.cpp:148] Top shape: 24 128 7 7 (150528)
I0403 15:45:23.552116 11215 net.cpp:156] Memory required for data: 1299953184
I0403 15:45:23.552134 11215 layer_factory.hpp:77] Creating layer inception_5a/relu_5x5
I0403 15:45:23.552152 11215 net.cpp:91] Creating Layer inception_5a/relu_5x5
I0403 15:45:23.552168 11215 net.cpp:425] inception_5a/relu_5x5 <- inception_5a/5x5
I0403 15:45:23.552188 11215 net.cpp:386] inception_5a/relu_5x5 -> inception_5a/5x5 (in-place)
I0403 15:45:23.552376 11215 net.cpp:141] Setting up inception_5a/relu_5x5
I0403 15:45:23.552399 11215 net.cpp:148] Top shape: 24 128 7 7 (150528)
I0403 15:45:23.552413 11215 net.cpp:156] Memory required for data: 1300555296
I0403 15:45:23.552428 11215 layer_factory.hpp:77] Creating layer inception_5a/pool
I0403 15:45:23.552443 11215 net.cpp:91] Creating Layer inception_5a/pool
I0403 15:45:23.552460 11215 net.cpp:425] inception_5a/pool <- pool4/3x3_s2_pool4/3x3_s2_0_split_3
I0403 15:45:23.552480 11215 net.cpp:399] inception_5a/pool -> inception_5a/pool
I0403 15:45:23.552549 11215 net.cpp:141] Setting up inception_5a/pool
I0403 15:45:23.552572 11215 net.cpp:148] Top shape: 24 832 7 7 (978432)
I0403 15:45:23.552587 11215 net.cpp:156] Memory required for data: 1304469024
I0403 15:45:23.552602 11215 layer_factory.hpp:77] Creating layer inception_5a/pool_proj
I0403 15:45:23.552623 11215 net.cpp:91] Creating Layer inception_5a/pool_proj
I0403 15:45:23.552640 11215 net.cpp:425] inception_5a/pool_proj <- inception_5a/pool
I0403 15:45:23.552659 11215 net.cpp:399] inception_5a/pool_proj -> inception_5a/pool_proj
I0403 15:45:23.554944 11215 net.cpp:141] Setting up inception_5a/pool_proj
I0403 15:45:23.554975 11215 net.cpp:148] Top shape: 24 128 7 7 (150528)
I0403 15:45:23.554996 11215 net.cpp:156] Memory required for data: 1305071136
I0403 15:45:23.555014 11215 layer_factory.hpp:77] Creating layer inception_5a/relu_pool_proj
I0403 15:45:23.555032 11215 net.cpp:91] Creating Layer inception_5a/relu_pool_proj
I0403 15:45:23.555048 11215 net.cpp:425] inception_5a/relu_pool_proj <- inception_5a/pool_proj
I0403 15:45:23.555066 11215 net.cpp:386] inception_5a/relu_pool_proj -> inception_5a/pool_proj (in-place)
I0403 15:45:23.555361 11215 net.cpp:141] Setting up inception_5a/relu_pool_proj
I0403 15:45:23.555388 11215 net.cpp:148] Top shape: 24 128 7 7 (150528)
I0403 15:45:23.555404 11215 net.cpp:156] Memory required for data: 1305673248
I0403 15:45:23.555418 11215 layer_factory.hpp:77] Creating layer inception_5a/output
I0403 15:45:23.555435 11215 net.cpp:91] Creating Layer inception_5a/output
I0403 15:45:23.555451 11215 net.cpp:425] inception_5a/output <- inception_5a/1x1
I0403 15:45:23.555467 11215 net.cpp:425] inception_5a/output <- inception_5a/3x3
I0403 15:45:23.555483 11215 net.cpp:425] inception_5a/output <- inception_5a/5x5
I0403 15:45:23.555500 11215 net.cpp:425] inception_5a/output <- inception_5a/pool_proj
I0403 15:45:23.555516 11215 net.cpp:399] inception_5a/output -> inception_5a/output
I0403 15:45:23.555568 11215 net.cpp:141] Setting up inception_5a/output
I0403 15:45:23.555593 11215 net.cpp:148] Top shape: 24 832 7 7 (978432)
I0403 15:45:23.555608 11215 net.cpp:156] Memory required for data: 1309586976
I0403 15:45:23.555622 11215 layer_factory.hpp:77] Creating layer inception_5a/output_inception_5a/output_0_split
I0403 15:45:23.555639 11215 net.cpp:91] Creating Layer inception_5a/output_inception_5a/output_0_split
I0403 15:45:23.555655 11215 net.cpp:425] inception_5a/output_inception_5a/output_0_split <- inception_5a/output
I0403 15:45:23.555675 11215 net.cpp:399] inception_5a/output_inception_5a/output_0_split -> inception_5a/output_inception_5a/output_0_split_0
I0403 15:45:23.555696 11215 net.cpp:399] inception_5a/output_inception_5a/output_0_split -> inception_5a/output_inception_5a/output_0_split_1
I0403 15:45:23.555716 11215 net.cpp:399] inception_5a/output_inception_5a/output_0_split -> inception_5a/output_inception_5a/output_0_split_2
I0403 15:45:23.555735 11215 net.cpp:399] inception_5a/output_inception_5a/output_0_split -> inception_5a/output_inception_5a/output_0_split_3
I0403 15:45:23.555846 11215 net.cpp:141] Setting up inception_5a/output_inception_5a/output_0_split
I0403 15:45:23.555868 11215 net.cpp:148] Top shape: 24 832 7 7 (978432)
I0403 15:45:23.555884 11215 net.cpp:148] Top shape: 24 832 7 7 (978432)
I0403 15:45:23.555899 11215 net.cpp:148] Top shape: 24 832 7 7 (978432)
I0403 15:45:23.555914 11215 net.cpp:148] Top shape: 24 832 7 7 (978432)
I0403 15:45:23.555927 11215 net.cpp:156] Memory required for data: 1325241888
I0403 15:45:23.555941 11215 layer_factory.hpp:77] Creating layer inception_5b/1x1
I0403 15:45:23.555961 11215 net.cpp:91] Creating Layer inception_5b/1x1
I0403 15:45:23.555982 11215 net.cpp:425] inception_5b/1x1 <- inception_5a/output_inception_5a/output_0_split_0
I0403 15:45:23.556004 11215 net.cpp:399] inception_5b/1x1 -> inception_5b/1x1
I0403 15:45:23.559762 11215 net.cpp:141] Setting up inception_5b/1x1
I0403 15:45:23.559795 11215 net.cpp:148] Top shape: 24 384 7 7 (451584)
I0403 15:45:23.559811 11215 net.cpp:156] Memory required for data: 1327048224
I0403 15:45:23.559829 11215 layer_factory.hpp:77] Creating layer inception_5b/relu_1x1
I0403 15:45:23.559850 11215 net.cpp:91] Creating Layer inception_5b/relu_1x1
I0403 15:45:23.559866 11215 net.cpp:425] inception_5b/relu_1x1 <- inception_5b/1x1
I0403 15:45:23.559885 11215 net.cpp:386] inception_5b/relu_1x1 -> inception_5b/1x1 (in-place)
I0403 15:45:23.560186 11215 net.cpp:141] Setting up inception_5b/relu_1x1
I0403 15:45:23.560212 11215 net.cpp:148] Top shape: 24 384 7 7 (451584)
I0403 15:45:23.560226 11215 net.cpp:156] Memory required for data: 1328854560
I0403 15:45:23.560241 11215 layer_factory.hpp:77] Creating layer inception_5b/3x3_reduce
I0403 15:45:23.560262 11215 net.cpp:91] Creating Layer inception_5b/3x3_reduce
I0403 15:45:23.560281 11215 net.cpp:425] inception_5b/3x3_reduce <- inception_5a/output_inception_5a/output_0_split_1
I0403 15:45:23.560302 11215 net.cpp:399] inception_5b/3x3_reduce -> inception_5b/3x3_reduce
I0403 15:45:23.562949 11215 net.cpp:141] Setting up inception_5b/3x3_reduce
I0403 15:45:23.562981 11215 net.cpp:148] Top shape: 24 192 7 7 (225792)
I0403 15:45:23.562999 11215 net.cpp:156] Memory required for data: 1329757728
I0403 15:45:23.563016 11215 layer_factory.hpp:77] Creating layer inception_5b/relu_3x3_reduce
I0403 15:45:23.563037 11215 net.cpp:91] Creating Layer inception_5b/relu_3x3_reduce
I0403 15:45:23.563053 11215 net.cpp:425] inception_5b/relu_3x3_reduce <- inception_5b/3x3_reduce
I0403 15:45:23.563071 11215 net.cpp:386] inception_5b/relu_3x3_reduce -> inception_5b/3x3_reduce (in-place)
I0403 15:45:23.563256 11215 net.cpp:141] Setting up inception_5b/relu_3x3_reduce
I0403 15:45:23.563282 11215 net.cpp:148] Top shape: 24 192 7 7 (225792)
I0403 15:45:23.563297 11215 net.cpp:156] Memory required for data: 1330660896
I0403 15:45:23.563311 11215 layer_factory.hpp:77] Creating layer inception_5b/3x3
I0403 15:45:23.563333 11215 net.cpp:91] Creating Layer inception_5b/3x3
I0403 15:45:23.563350 11215 net.cpp:425] inception_5b/3x3 <- inception_5b/3x3_reduce
I0403 15:45:23.563369 11215 net.cpp:399] inception_5b/3x3 -> inception_5b/3x3
I0403 15:45:23.569962 11215 net.cpp:141] Setting up inception_5b/3x3
I0403 15:45:23.569995 11215 net.cpp:148] Top shape: 24 384 7 7 (451584)
I0403 15:45:23.570013 11215 net.cpp:156] Memory required for data: 1332467232
I0403 15:45:23.570030 11215 layer_factory.hpp:77] Creating layer inception_5b/relu_3x3
I0403 15:45:23.570047 11215 net.cpp:91] Creating Layer inception_5b/relu_3x3
I0403 15:45:23.570063 11215 net.cpp:425] inception_5b/relu_3x3 <- inception_5b/3x3
I0403 15:45:23.570080 11215 net.cpp:386] inception_5b/relu_3x3 -> inception_5b/3x3 (in-place)
I0403 15:45:23.570374 11215 net.cpp:141] Setting up inception_5b/relu_3x3
I0403 15:45:23.570402 11215 net.cpp:148] Top shape: 24 384 7 7 (451584)
I0403 15:45:23.570417 11215 net.cpp:156] Memory required for data: 1334273568
I0403 15:45:23.570432 11215 layer_factory.hpp:77] Creating layer inception_5b/5x5_reduce
I0403 15:45:23.570467 11215 net.cpp:91] Creating Layer inception_5b/5x5_reduce
I0403 15:45:23.570485 11215 net.cpp:425] inception_5b/5x5_reduce <- inception_5a/output_inception_5a/output_0_split_2
I0403 15:45:23.570508 11215 net.cpp:399] inception_5b/5x5_reduce -> inception_5b/5x5_reduce
I0403 15:45:23.571765 11215 net.cpp:141] Setting up inception_5b/5x5_reduce
I0403 15:45:23.571792 11215 net.cpp:148] Top shape: 24 48 7 7 (56448)
I0403 15:45:23.571807 11215 net.cpp:156] Memory required for data: 1334499360
I0403 15:45:23.571825 11215 layer_factory.hpp:77] Creating layer inception_5b/relu_5x5_reduce
I0403 15:45:23.571846 11215 net.cpp:91] Creating Layer inception_5b/relu_5x5_reduce
I0403 15:45:23.571862 11215 net.cpp:425] inception_5b/relu_5x5_reduce <- inception_5b/5x5_reduce
I0403 15:45:23.571878 11215 net.cpp:386] inception_5b/relu_5x5_reduce -> inception_5b/5x5_reduce (in-place)
I0403 15:45:23.572257 11215 net.cpp:141] Setting up inception_5b/relu_5x5_reduce
I0403 15:45:23.572283 11215 net.cpp:148] Top shape: 24 48 7 7 (56448)
I0403 15:45:23.572299 11215 net.cpp:156] Memory required for data: 1334725152
I0403 15:45:23.572314 11215 layer_factory.hpp:77] Creating layer inception_5b/5x5
I0403 15:45:23.572332 11215 net.cpp:91] Creating Layer inception_5b/5x5
I0403 15:45:23.572350 11215 net.cpp:425] inception_5b/5x5 <- inception_5b/5x5_reduce
I0403 15:45:23.572367 11215 net.cpp:399] inception_5b/5x5 -> inception_5b/5x5
I0403 15:45:23.574425 11215 net.cpp:141] Setting up inception_5b/5x5
I0403 15:45:23.574455 11215 net.cpp:148] Top shape: 24 128 7 7 (150528)
I0403 15:45:23.574471 11215 net.cpp:156] Memory required for data: 1335327264
I0403 15:45:23.574491 11215 layer_factory.hpp:77] Creating layer inception_5b/relu_5x5
I0403 15:45:23.574508 11215 net.cpp:91] Creating Layer inception_5b/relu_5x5
I0403 15:45:23.574525 11215 net.cpp:425] inception_5b/relu_5x5 <- inception_5b/5x5
I0403 15:45:23.574545 11215 net.cpp:386] inception_5b/relu_5x5 -> inception_5b/5x5 (in-place)
I0403 15:45:23.574743 11215 net.cpp:141] Setting up inception_5b/relu_5x5
I0403 15:45:23.574767 11215 net.cpp:148] Top shape: 24 128 7 7 (150528)
I0403 15:45:23.574781 11215 net.cpp:156] Memory required for data: 1335929376
I0403 15:45:23.574796 11215 layer_factory.hpp:77] Creating layer inception_5b/pool
I0403 15:45:23.574815 11215 net.cpp:91] Creating Layer inception_5b/pool
I0403 15:45:23.574831 11215 net.cpp:425] inception_5b/pool <- inception_5a/output_inception_5a/output_0_split_3
I0403 15:45:23.574854 11215 net.cpp:399] inception_5b/pool -> inception_5b/pool
I0403 15:45:23.574929 11215 net.cpp:141] Setting up inception_5b/pool
I0403 15:45:23.574954 11215 net.cpp:148] Top shape: 24 832 7 7 (978432)
I0403 15:45:23.574968 11215 net.cpp:156] Memory required for data: 1339843104
I0403 15:45:23.574986 11215 layer_factory.hpp:77] Creating layer inception_5b/pool_proj
I0403 15:45:23.575009 11215 net.cpp:91] Creating Layer inception_5b/pool_proj
I0403 15:45:23.575028 11215 net.cpp:425] inception_5b/pool_proj <- inception_5b/pool
I0403 15:45:23.575049 11215 net.cpp:399] inception_5b/pool_proj -> inception_5b/pool_proj
I0403 15:45:23.577388 11215 net.cpp:141] Setting up inception_5b/pool_proj
I0403 15:45:23.577417 11215 net.cpp:148] Top shape: 24 128 7 7 (150528)
I0403 15:45:23.577433 11215 net.cpp:156] Memory required for data: 1340445216
I0403 15:45:23.577451 11215 layer_factory.hpp:77] Creating layer inception_5b/relu_pool_proj
I0403 15:45:23.577472 11215 net.cpp:91] Creating Layer inception_5b/relu_pool_proj
I0403 15:45:23.577489 11215 net.cpp:425] inception_5b/relu_pool_proj <- inception_5b/pool_proj
I0403 15:45:23.577507 11215 net.cpp:386] inception_5b/relu_pool_proj -> inception_5b/pool_proj (in-place)
I0403 15:45:23.577810 11215 net.cpp:141] Setting up inception_5b/relu_pool_proj
I0403 15:45:23.577836 11215 net.cpp:148] Top shape: 24 128 7 7 (150528)
I0403 15:45:23.577850 11215 net.cpp:156] Memory required for data: 1341047328
I0403 15:45:23.577865 11215 layer_factory.hpp:77] Creating layer inception_5b/output
I0403 15:45:23.577885 11215 net.cpp:91] Creating Layer inception_5b/output
I0403 15:45:23.577915 11215 net.cpp:425] inception_5b/output <- inception_5b/1x1
I0403 15:45:23.577934 11215 net.cpp:425] inception_5b/output <- inception_5b/3x3
I0403 15:45:23.577950 11215 net.cpp:425] inception_5b/output <- inception_5b/5x5
I0403 15:45:23.577966 11215 net.cpp:425] inception_5b/output <- inception_5b/pool_proj
I0403 15:45:23.577989 11215 net.cpp:399] inception_5b/output -> inception_5b/output
I0403 15:45:23.578045 11215 net.cpp:141] Setting up inception_5b/output
I0403 15:45:23.578068 11215 net.cpp:148] Top shape: 24 1024 7 7 (1204224)
I0403 15:45:23.578083 11215 net.cpp:156] Memory required for data: 1345864224
I0403 15:45:23.578099 11215 layer_factory.hpp:77] Creating layer pool5/7x7_s1
I0403 15:45:23.578119 11215 net.cpp:91] Creating Layer pool5/7x7_s1
I0403 15:45:23.578135 11215 net.cpp:425] pool5/7x7_s1 <- inception_5b/output
I0403 15:45:23.578155 11215 net.cpp:399] pool5/7x7_s1 -> pool5/7x7_s1
I0403 15:45:23.578372 11215 net.cpp:141] Setting up pool5/7x7_s1
I0403 15:45:23.578398 11215 net.cpp:148] Top shape: 24 1024 1 1 (24576)
I0403 15:45:23.578414 11215 net.cpp:156] Memory required for data: 1345962528
I0403 15:45:23.578430 11215 layer_factory.hpp:77] Creating layer pool5/drop_7x7_s1
I0403 15:45:23.578447 11215 net.cpp:91] Creating Layer pool5/drop_7x7_s1
I0403 15:45:23.578464 11215 net.cpp:425] pool5/drop_7x7_s1 <- pool5/7x7_s1
I0403 15:45:23.578483 11215 net.cpp:386] pool5/drop_7x7_s1 -> pool5/7x7_s1 (in-place)
I0403 15:45:23.578534 11215 net.cpp:141] Setting up pool5/drop_7x7_s1
I0403 15:45:23.578557 11215 net.cpp:148] Top shape: 24 1024 1 1 (24576)
I0403 15:45:23.578572 11215 net.cpp:156] Memory required for data: 1346060832
I0403 15:45:23.578586 11215 layer_factory.hpp:77] Creating layer loss3/classifier_plantvillage
I0403 15:45:23.578608 11215 net.cpp:91] Creating Layer loss3/classifier_plantvillage
I0403 15:45:23.578624 11215 net.cpp:425] loss3/classifier_plantvillage <- pool5/7x7_s1
I0403 15:45:23.578645 11215 net.cpp:399] loss3/classifier_plantvillage -> loss3/classifier_plantvillage
I0403 15:45:23.579083 11215 net.cpp:141] Setting up loss3/classifier_plantvillage
I0403 15:45:23.579108 11215 net.cpp:148] Top shape: 24 38 (912)
I0403 15:45:23.579123 11215 net.cpp:156] Memory required for data: 1346064480
I0403 15:45:23.579141 11215 layer_factory.hpp:77] Creating layer loss3/classifier_plantvillage_loss3/classifier_plantvillage_0_split
I0403 15:45:23.579159 11215 net.cpp:91] Creating Layer loss3/classifier_plantvillage_loss3/classifier_plantvillage_0_split
I0403 15:45:23.579180 11215 net.cpp:425] loss3/classifier_plantvillage_loss3/classifier_plantvillage_0_split <- loss3/classifier_plantvillage
I0403 15:45:23.579197 11215 net.cpp:399] loss3/classifier_plantvillage_loss3/classifier_plantvillage_0_split -> loss3/classifier_plantvillage_loss3/classifier_plantvillage_0_split_0
I0403 15:45:23.579217 11215 net.cpp:399] loss3/classifier_plantvillage_loss3/classifier_plantvillage_0_split -> loss3/classifier_plantvillage_loss3/classifier_plantvillage_0_split_1
I0403 15:45:23.579238 11215 net.cpp:399] loss3/classifier_plantvillage_loss3/classifier_plantvillage_0_split -> loss3/classifier_plantvillage_loss3/classifier_plantvillage_0_split_2
I0403 15:45:23.579258 11215 net.cpp:399] loss3/classifier_plantvillage_loss3/classifier_plantvillage_0_split -> loss3/classifier_plantvillage_loss3/classifier_plantvillage_0_split_3
I0403 15:45:23.579361 11215 net.cpp:141] Setting up loss3/classifier_plantvillage_loss3/classifier_plantvillage_0_split
I0403 15:45:23.579385 11215 net.cpp:148] Top shape: 24 38 (912)
I0403 15:45:23.579401 11215 net.cpp:148] Top shape: 24 38 (912)
I0403 15:45:23.579416 11215 net.cpp:148] Top shape: 24 38 (912)
I0403 15:45:23.579430 11215 net.cpp:148] Top shape: 24 38 (912)
I0403 15:45:23.579444 11215 net.cpp:156] Memory required for data: 1346079072
I0403 15:45:23.579459 11215 layer_factory.hpp:77] Creating layer loss1/loss
I0403 15:45:23.579480 11215 net.cpp:91] Creating Layer loss1/loss
I0403 15:45:23.579499 11215 net.cpp:425] loss1/loss <- loss1/classifier_plantvillage_loss1/classifier_plantvillage_0_split_0
I0403 15:45:23.579529 11215 net.cpp:425] loss1/loss <- label_data_1_split_0
…
