…
I0403 15:38:10.173998 10785 net.cpp:313] The NetState phase (1) differed from the phase (0) specified by a rule in layer data
I0403 15:38:10.175199 10785 net.cpp:49] Initializing net from parameters: 
state {
  phase: TEST
}
layer {
  name: "data"
  type: "Data"
  top: "data"
  top: "label"
  include {
    phase: TEST
  }
  transform_param {
    mirror: false
    crop_size: 224
    mean_file: "/home/mohanty/data/final_dataset/lmdb/segmented-80-20/mean.binaryproto"
  }
  data_param {
    source: "/home/mohanty/data/final_dataset/lmdb/segmented-80-20/test_db"
    batch_size: 24
    backend: LMDB
  }
}
layer {
  name: "conv1/7x7_s2"
  type: "Convolution"
  bottom: "data"
  top: "conv1/7x7_s2"
  param {
    lr_mult: 1
    decay_mult: 1
  }
  param {
    lr_mult: 2
    decay_mult: 0
  }
  convolution_param {
    num_output: 64
    pad: 3
    kernel_size: 7
    stride: 2
    weight_filler {
      type: "xavier"
      std: 0.1
    }
    bias_filler {
      type: "constant"
      value: 0.2
    }
  }
}
layer {
  name: "conv1/relu_7x7"
  type: "ReLU"
  bottom: "conv1/7x7_s2"
  top: "conv1/7x7_s2"
}
layer {
  name: "pool1/3x3_s2"
  type: "Pooling"
  bottom: "conv1/7x7_s2"
  top: "pool1/3x3_s2"
  pooling_param {
    pool: MAX
    kernel_size: 3
    stride: 2
  }
}
layer {
  name: "pool1/norm1"
  type: "LRN"
  bottom: "pool1/3x3_s2"
  top: "pool1/norm1"
  lrn_param {
    local_size: 5
    alpha: 0.0001
    beta: 0.75
  }
}
layer {
  name: "conv2/3x3_reduce"
  type: "Convolution"
  bottom: "pool1/norm1"
  top: "conv2/3x3_reduce"
  param {
    lr_mult: 1
    decay_mult: 1
  }
  param {
    lr_mult: 2
    decay_mult: 0
  }
  convolution_param {
    num_output: 64
    kernel_size: 1
    weight_filler {
      type: "xavier"
      std: 0.1
    }
    bias_filler {
      type: "constant"
      value: 0.2
    }
  }
}
layer {
  name: "conv2/relu_3x3_reduce"
  type: "ReLU"
  bottom: "conv2/3x3_reduce"
  top: "conv2/3x3_reduce"
}
layer {
  name: "conv2/3x3"
  type: "Convolution"
  bottom: "conv2/3x3_reduce"
  top: "conv2/3x3"
  param {
    lr_mult: 1
    decay_mult: 1
  }
  param {
    lr_mult: 2
    decay_mult: 0
  }
  convolution_param {
    num_output: 192
    pad: 1
    kernel_size: 3
    weight_filler {
      type: "xavier"
      std: 0.03
    }
    bias_filler {
      type: "constant"
      value: 0.2
    }
  }
}
layer {
  name: "conv2/relu_3x3"
  type: "ReLU"
  bottom: "conv2/3x3"
  top: "conv2/3x3"
}
layer {
  name: "conv2/norm2"
  type: "LRN"
  bottom: "conv2/3x3"
  top: "conv2/norm2"
  lrn_param {
    local_size: 5
    alpha: 0.0001
    beta: 0.75
  }
}
layer {
  name: "pool2/3x3_s2"
  type: "Pooling"
  bottom: "conv2/norm2"
  top: "pool2/3x3_s2"
  pooling_param {
    pool: MAX
    kernel_size: 3
    stride: 2
  }
}
layer {
  name: "inception_3a/1x1"
  type: "Convolution"
  bottom: "pool2/3x3_s2"
  top: "inception_3a/1x1"
  param {
    lr_mult: 1
    decay_mult: 1
  }
  param {
    lr_mult: 2
    decay_mult: 0
  }
  convolution_param {
    num_output: 64
    kernel_size: 1
    weight_filler {
      type: "xavier"
      std: 0.03
    }
    bias_filler {
      type: "constant"
      value: 0.2
    }
  }
}
layer {
  name: "inception_3a/relu_1x1"
  type: "ReLU"
  bottom: "inception_3a/1x1"
  top: "inception_3a/1x1"
}
layer {
  name: "inception_3a/3x3_reduce"
  type: "Convolution"
  bottom: "pool2/3x3_s2"
  top: "inception_3a/3x3_reduce"
  param {
    lr_mult: 1
    decay_mult: 1
  }
  param {
    lr_mult: 2
    decay_mult: 0
  }
  convolution_param {
    num_output: 96
    kernel_size: 1
    weight_filler {
      type: "xavier"
      std: 0.09
    }
    bias_filler {
      type: "constant"
      value: 0.2
    }
  }
}
layer {
  name: "inception_3a/relu_3x3_reduce"
  type: "ReLU"
  bottom: "inception_3a/3x3_reduce"
  top: "inception_3a/3x3_reduce"
}
layer {
  name: "inception_3a/3x3"
  type: "Convolution"
  bottom: "inception_3a/3x3_reduce"
  top: "inception_3a/3x3"
  param {
    lr_mult: 1
    decay_mult: 1
  }
  param {
    lr_mult: 2
    decay_mult: 0
  }
  convolution_param {
    num_output: 128
    pad: 1
    kernel_size: 3
    weight_filler {
      type: "xavier"
      std: 0.03
    }
    bias_filler {
      type: "constant"
      value: 0.2
    }
  }
}
layer {
  name: "inception_3a/relu_3x3"
  type: "ReLU"
  bottom: "inception_3a/3x3"
  top: "inception_3a/3x3"
}
layer {
  name: "inception_3a/5x5_reduce"
  type: "Convolution"
  bottom: "pool2/3x3_s2"
  top: "inception_3a/5x5_reduce"
  param {
    lr_mult: 1
    decay_mult: 1
  }
  param {
    lr_mult: 2
    decay_mult: 0
  }
  convolution_param {
    num_output: 16
    kernel_size: 1
    weight_filler {
      type: "xavier"
      std: 0.2
    }
    bias_filler {
      type: "constant"
      value: 0.2
    }
  }
}
layer {
  name: "inception_3a/relu_5x5_reduce"
  type: "ReLU"
  bottom: "inception_3a/5x5_reduce"
  top: "inception_3a/5x5_reduce"
}
layer {
  name: "inception_3a/5x5"
  type: "Convolution"
  bottom: "inception_3a/5x5_reduce"
  top: "inception_3a/5x5"
  param {
    lr_mult: 1
    decay_mult: 1
  }
  param {
    lr_mult: 2
    decay_mult: 0
  }
  convolution_param {
    num_output: 32
    pad: 2
    kernel_size: 5
    weight_filler {
      type: "xavier"
      std: 0.03
    }
    bias_filler {
      type: "constant"
      value: 0.2
    }
  }
}
layer {
  name: "inception_3a/relu_5x5"
  type: "ReLU"
  bottom: "inception_3a/5x5"
  top: "inception_3a/5x5"
}
layer {
  name: "inception_3a/pool"
  type: "Pooling"
  bottom: "pool2/3x3_s2"
  top: "inception_3a/pool"
  pooling_param {
    pool: MAX
    kernel_size: 3
    stride: 1
    pad: 1
  }
}
layer {
  name: "inception_3a/pool_proj"
  type: "Convolution"
  bottom: "inception_3a/pool"
  top: "inception_3a/pool_proj"
  param {
    lr_mult: 1
    decay_mult: 1
  }
  param {
    lr_mult: 2
    decay_mult: 0
  }
  convolution_param {
    num_output: 32
    kernel_size: 1
    weight_filler {
      type: "xavier"
      std: 0.1
    }
    bias_filler {
      type: "constant"
      value: 0.2
    }
  }
}
layer {
  name: "inception_3a/relu_pool_proj"
  type: "ReLU"
  bottom: "inception_3a/pool_proj"
  top: "inception_3a/pool_proj"
}
layer {
  name: "inception_3a/output"
  type: "Concat"
  bottom: "inception_3a/1x1"
  bottom: "inception_3a/3x3"
  bottom: "inception_3a/5x5"
  bottom: "inception_3a/pool_proj"
  top: "inception_3a/output"
}
layer {
  name: "inception_3b/1x1"
  type: "Convolution"
  bottom: "inception_3a/output"
  top: "inception_3b/1x1"
  param {
    lr_mult: 1
    decay_mult: 1
  }
  param {
    lr_mult: 2
    decay_mult: 0
  }
  convolution_param {
    num_output: 128
    kernel_size: 1
    weight_filler {
      type: "xavier"
      std: 0.03
    }
    bias_filler {
      type: "constant"
      value: 0.2
    }
  }
}
layer {
  name: "inception_3b/relu_1x1"
  type: "ReLU"
  bottom: "inception_3b/1x1"
  top: "inception_3b/1x1"
}
layer {
  name: "inception_3b/3x3_reduce"
  type: "Convolution"
  bottom: "inception_3a/output"
  top: "inception_3b/3x3_reduce"
  param {
    lr_mult: 1
    decay_mult: 1
  }
  param {
    lr_mult: 2
    decay_mult: 0
  }
  convolution_param {
    num_output: 128
    kernel_size: 1
    weight_filler {
      type: "xavier"
      std: 0.09
    }
    bias_filler {
      type: "constant"
      value: 0.2
    }
  }
}
layer {
  name: "inception_3b/relu_3x3_reduce"
  type: "ReLU"
  bottom: "inception_3b/3x3_reduce"
  top: "inception_3b/3x3_reduce"
}
layer {
  name: "inception_3b/3x3"
  type: "Convolution"
  bottom: "inception_3b/3x3_reduce"
  top: "inception_3b/3x3"
  param {
    lr_mult: 1
    decay_mult: 1
  }
  param {
    lr_mult: 2
    decay_mult: 0
  }
  convolution_param {
    num_output: 192
    pad: 1
    kernel_size: 3
    weight_filler {
      type: "xavier"
      std: 0.03
    }
    bias_filler {
      type: "constant"
      value: 0.2
    }
  }
}
layer {
  name: "inception_3b/relu_3x3"
  type: "ReLU"
  bottom: "inception_3b/3x3"
  top: "inception_3b/3x3"
}
layer {
  name: "inception_3b/5x5_reduce"
  type: "Convolution"
  bottom: "inception_3a/output"
  top: "inception_3b/5x5_reduce"
  param {
    lr_mult: 1
    decay_mult: 1
  }
  param {
    lr_mult: 2
    decay_mult: 0
  }
  convolution_param {
    num_output: 32
    kernel_size: 1
    weight_filler {
      type: "xavier"
      std: 0.2
    }
    bias_filler {
      type: "constant"
      value: 0.2
    }
  }
}
layer {
  name: "inception_3b/relu_5x5_reduce"
  type: "ReLU"
  bottom: "inception_3b/5x5_reduce"
  top: "inception_3b/5x5_reduce"
}
layer {
  name: "inception_3b/5x5"
  type: "Convolution"
  bottom: "inception_3b/5x5_reduce"
  top: "inception_3b/5x5"
  param {
    lr_mult: 1
    decay_mult: 1
  }
  param {
    lr_mult: 2
    decay_mult: 0
  }
  convolution_param {
    num_output: 96
    pad: 2
    kernel_size: 5
    weight_filler {
      type: "xavier"
      std: 0.03
    }
    bias_filler {
      type: "constant"
      value: 0.2
    }
  }
}
layer {
  name: "inception_3b/relu_5x5"
  type: "ReLU"
  bottom: "inception_3b/5x5"
  top: "inception_3b/5x5"
}
layer {
  name: "inception_3b/pool"
  type: "Pooling"
  bottom: "inception_3a/output"
  top: "inception_3b/pool"
  pooling_param {
    pool: MAX
    kernel_size: 3
    stride: 1
    pad: 1
  }
}
layer {
  name: "inception_3b/pool_proj"
  type: "Convolution"
  bottom: "inception_3b/pool"
  top: "inception_3b/pool_proj"
  param {
    lr_mult: 1
    decay_mult: 1
  }
  param {
    lr_mult: 2
    decay_mult: 0
  }
  convolution_param {
    num_output: 64
    kernel_size: 1
    weight_filler {
      type: "xavier"
      std: 0.1
    }
    bias_filler {
      type: "constant"
      value: 0.2
    }
  }
}
layer {
  name: "inception_3b/relu_pool_proj"
  type: "ReLU"
  bottom: "inception_3b/pool_proj"
  top: "inception_3b/pool_proj"
}
layer {
  name: "inception_3b/output"
  type: "Concat"
  bottom: "inception_3b/1x1"
  bottom: "inception_3b/3x3"
  bottom: "inception_3b/5x5"
  bottom: "inception_3b/pool_proj"
  top: "inception_3b/output"
}
layer {
  name: "pool3/3x3_s2"
  type: "Pooling"
  bottom: "inception_3b/output"
  top: "pool3/3x3_s2"
  pooling_param {
    pool: MAX
    kernel_size: 3
    stride: 2
  }
}
layer {
  name: "inception_4a/1x1"
  type: "Convolution"
  bottom: "pool3/3x3_s2"
  top: "inception_4a/1x1"
  param {
    lr_mult: 1
    decay_mult: 1
  }
  param {
    lr_mult: 2
    decay_mult: 0
  }
  convolution_param {
    num_output: 192
    kernel_size: 1
    weight_filler {
      type: "xavier"
      std: 0.03
    }
    bias_filler {
      type: "constant"
      value: 0.2
    }
  }
}
layer {
  name: "inception_4a/relu_1x1"
  type: "ReLU"
  bottom: "inception_4a/1x1"
  top: "inception_4a/1x1"
}
layer {
  name: "inception_4a/3x3_reduce"
  type: "Convolution"
  bottom: "pool3/3x3_s2"
  top: "inception_4a/3x3_reduce"
  param {
    lr_mult: 1
    decay_mult: 1
  }
  param {
    lr_mult: 2
    decay_mult: 0
  }
  convolution_param {
    num_output: 96
    kernel_size: 1
    weight_filler {
      type: "xavier"
      std: 0.09
    }
    bias_filler {
      type: "constant"
      value: 0.2
    }
  }
}
layer {
  name: "inception_4a/relu_3x3_reduce"
  type: "ReLU"
  bottom: "inception_4a/3x3_reduce"
  top: "inception_4a/3x3_reduce"
}
layer {
  name: "inception_4a/3x3"
  type: "Convolution"
  bottom: "inception_4a/3x3_reduce"
  top: "inception_4a/3x3"
  param {
    lr_mult: 1
    decay_mult: 1
  }
  param {
    lr_mult: 2
    decay_mult: 0
  }
  convolution_param {
    num_output: 208
    pad: 1
    kernel_size: 3
    weight_filler {
      type: "xavier"
      std: 0.03
    }
    bias_filler {
      type: "constant"
      value: 0.2
    }
  }
}
layer {
  name: "inception_4a/relu_3x3"
  type: "ReLU"
  bottom: "inception_4a/3x3"
  top: "inception_4a/3x3"
}
layer {
  name: "inception_4a/5x5_reduce"
  type: "Convolution"
  bottom: "pool3/3x3_s2"
  top: "inception_4a/5x5_reduce"
  param {
    lr_mult: 1
    decay_mult: 1
  }
  param {
    lr_mult: 2
    decay_mult: 0
  }
  convolution_param {
    num_output: 16
    kernel_size: 1
    weight_filler {
      type: "xavier"
      std: 0.2
    }
    bias_filler {
      type: "constant"
      value: 0.2
    }
  }
}
layer {
  name: "inception_4a/relu_5x5_reduce"
  type: "ReLU"
  bottom: "inception_4a/5x5_reduce"
  top: "inception_4a/5x5_reduce"
}
layer {
  name: "inception_4a/5x5"
  type: "Convolution"
  bottom: "inception_4a/5x5_reduce"
  top: "inception_4a/5x5"
  param {
    lr_mult: 1
    decay_mult: 1
  }
  param {
    lr_mult: 2
    decay_mult: 0
  }
  convolution_param {
    num_output: 48
    pad: 2
    kernel_size: 5
    weight_filler {
      type: "xavier"
      std: 0.03
    }
    bias_filler {
      type: "constant"
      value: 0.2
    }
  }
}
layer {
  name: "inception_4a/relu_5x5"
  type: "ReLU"
  bottom: "inception_4a/5x5"
  top: "inception_4a/5x5"
}
layer {
  name: "inception_4a/pool"
  type: "Pooling"
  bottom: "pool3/3x3_s2"
  top: "inception_4a/pool"
  pooling_param {
    pool: MAX
    kernel_size: 3
    stride: 1
    pad: 1
  }
}
layer {
  name: "inception_4a/pool_proj"
  type: "Convolution"
  bottom: "inception_4a/pool"
  top: "inception_4a/pool_proj"
  param {
    lr_mult: 1
    decay_mult: 1
  }
  param {
    lr_mult: 2
    decay_mult: 0
  }
  convolution_param {
    num_output: 64
    kernel_size: 1
    weight_filler {
      type: "xavier"
      std: 0.1
    }
    bias_filler {
      type: "constant"
      value: 0.2
    }
  }
}
layer {
  name: "inception_4a/relu_pool_proj"
  type: "ReLU"
  bottom: "inception_4a/pool_proj"
  top: "inception_4a/pool_proj"
}
layer {
  name: "inception_4a/output"
  type: "Concat"
  bottom: "inception_4a/1x1"
  bottom: "inception_4a/3x3"
  bottom: "inception_4a/5x5"
  bottom: "inception_4a/pool_proj"
  top: "inception_4a/output"
}
layer {
  name: "loss1/ave_pool"
  type: "Pooling"
  bottom: "inception_4a/output"
  top: "loss1/ave_pool"
  pooling_param {
    pool: AVE
    kernel_size: 5
    stride: 3
  }
}
layer {
  name: "loss1/conv"
  type: "Convolution"
  bottom: "loss1/ave_pool"
  top: "loss1/conv"
  param {
    lr_mult: 1
    decay_mult: 1
  }
  param {
    lr_mult: 2
    decay_mult: 0
  }
  convolution_param {
    num_output: 128
    kernel_size: 1
    weight_filler {
      type: "xavier"
      std: 0.08
    }
    bias_filler {
      type: "constant"
      value: 0.2
    }
  }
}
layer {
  name: "loss1/relu_conv"
  type: "ReLU"
  bottom: "loss1/conv"
  top: "loss1/conv"
}
layer {
  name: "loss1/fc"
  type: "InnerProduct"
  bottom: "loss1/conv"
  top: "loss1/fc"
  param {
    lr_mult: 1
    decay_mult: 1
  }
  param {
    lr_mult: 2
    decay_mult: 0
  }
  inner_product_param {
    num_output: 1024
    weight_filler {
      type: "xavier"
      std: 0.02
    }
    bias_filler {
      type: "constant"
      value: 0.2
    }
  }
}
layer {
  name: "loss1/relu_fc"
  type: "ReLU"
  bottom: "loss1/fc"
  top: "loss1/fc"
}
layer {
  name: "loss1/drop_fc"
  type: "Dropout"
  bottom: "loss1/fc"
  top: "loss1/fc"
  dropout_param {
    dropout_ratio: 0.7
  }
}
layer {
  name: "loss1/classifier_plantvillage"
  type: "InnerProduct"
  bottom: "loss1/fc"
  top: "loss1/classifier_plantvillage"
  param {
    lr_mult: 1
    decay_mult: 1
  }
  param {
    lr_mult: 2
    decay_mult: 0
  }
  inner_product_param {
    num_output: 38
    weight_filler {
      type: "xavier"
      std: 0.0009765625
    }
    bias_filler {
      type: "constant"
      value: 0
    }
  }
}
layer {
  name: "inception_4b/1x1"
  type: "Convolution"
  bottom: "inception_4a/output"
  top: "inception_4b/1x1"
  param {
    lr_mult: 1
    decay_mult: 1
  }
  param {
    lr_mult: 2
    decay_mult: 0
  }
  convolution_param {
    num_output: 160
    kernel_size: 1
    weight_filler {
      type: "xavier"
      std: 0.03
    }
    bias_filler {
      type: "constant"
      value: 0.2
    }
  }
}
layer {
  name: "inception_4b/relu_1x1"
  type: "ReLU"
  bottom: "inception_4b/1x1"
  top: "inception_4b/1x1"
}
layer {
  name: "inception_4b/3x3_reduce"
  type: "Convolution"
  bottom: "inception_4a/output"
  top: "inception_4b/3x3_reduce"
  param {
    lr_mult: 1
    decay_mult: 1
  }
  param {
    lr_mult: 2
    decay_mult: 0
  }
  convolution_param {
    num_output: 112
    kernel_size: 1
    weight_filler {
      type: "xavier"
      std: 0.09
    }
    bias_filler {
      type: "constant"
      value: 0.2
    }
  }
}
layer {
  name: "inception_4b/relu_3x3_reduce"
  type: "ReLU"
  bottom: "inception_4b/3x3_reduce"
  top: "inception_4b/3x3_reduce"
}
layer {
  name: "inception_4b/3x3"
  type: "Convolution"
  bottom: "inception_4b/3x3_reduce"
  top: "inception_4b/3x3"
  param {
    lr_mult: 1
    decay_mult: 1
  }
  param {
    lr_mult: 2
    decay_mult: 0
  }
  convolution_param {
    num_output: 224
    pad: 1
    kernel_size: 3
    weight_filler {
      type: "xavier"
      std: 0.03
    }
    bias_filler {
      type: "constant"
      value: 0.2
    }
  }
}
layer {
  name: "inception_4b/relu_3x3"
  type: "ReLU"
  bottom: "inception_4b/3x3"
  top: "inception_4b/3x3"
}
layer {
  name: "inception_4b/5x5_reduce"
  type: "Convolution"
  bottom: "inception_4a/output"
  top: "inception_4b/5x5_reduce"
  param {
    lr_mult: 1
    decay_mult: 1
  }
  param {
    lr_mult: 2
    decay_mult: 0
  }
  convolution_param {
    num_output: 24
    kernel_size: 1
    weight_filler {
      type: "xavier"
      std: 0.2
    }
    bias_filler {
      type: "constant"
      value: 0.2
    }
  }
}
layer {
  name: "inception_4b/relu_5x5_reduce"
  type: "ReLU"
  bottom: "inception_4b/5x5_reduce"
  top: "inception_4b/5x5_reduce"
}
layer {
  name: "inception_4b/5x5"
  type: "Convolution"
  bottom: "inception_4b/5x5_reduce"
  top: "inception_4b/5x5"
  param {
    lr_mult: 1
    decay_mult: 1
  }
  param {
    lr_mult: 2
    decay_mult: 0
  }
  convolution_param {
    num_output: 64
    pad: 2
    kernel_size: 5
    weight_filler {
      type: "xavier"
      std: 0.03
    }
    bias_filler {
      type: "constant"
      value: 0.2
    }
  }
}
layer {
  name: "inception_4b/relu_5x5"
  type: "ReLU"
  bottom: "inception_4b/5x5"
  top: "inception_4b/5x5"
}
layer {
  name: "inception_4b/pool"
  type: "Pooling"
  bottom: "inception_4a/output"
  top: "inception_4b/pool"
  pooling_param {
    pool: MAX
    kernel_size: 3
    stride: 1
    pad: 1
  }
}
layer {
  name: "inception_4b/pool_proj"
  type: "Convolution"
  bottom: "inception_4b/pool"
  top: "inception_4b/pool_proj"
  param {
    lr_mult: 1
    decay_mult: 1
  }
  param {
    lr_mult: 2
    decay_mult: 0
  }
  convolution_param {
    num_output: 64
    kernel_size: 1
    weight_filler {
      type: "xavier"
      std: 0.1
    }
    bias_filler {
      type: "constant"
      value: 0.2
    }
  }
}
layer {
  name: "inception_4b/relu_pool_proj"
  type: "ReLU"
  bottom: "inception_4b/pool_proj"
  top: "inception_4b/pool_proj"
}
layer {
  name: "inception_4b/output"
  type: "Concat"
  bottom: "inception_4b/1x1"
  bottom: "inception_4b/3x3"
  bottom: "inception_4b/5x5"
  bottom: "inception_4b/pool_proj"
  top: "inception_4b/output"
}
layer {
  name: "inception_4c/1x1"
  type: "Convolution"
  bottom: "inception_4b/output"
  top: "inception_4c/1x1"
  param {
    lr_mult: 1
    decay_mult: 1
  }
  param {
    lr_mult: 2
    decay_mult: 0
  }
  convolution_param {
    num_output: 128
    kernel_size: 1
    weight_filler {
      type: "xavier"
      std: 0.03
    }
    bias_filler {
      type: "constant"
      value: 0.2
    }
  }
}
layer {
  name: "inception_4c/relu_1x1"
  type: "ReLU"
  bottom: "inception_4c/1x1"
  top: "inception_4c/1x1"
}
layer {
  name: "inception_4c/3x3_reduce"
  type: "Convolution"
  bottom: "inception_4b/output"
  top: "inception_4c/3x3_reduce"
  param {
    lr_mult: 1
    decay_mult: 1
  }
  param {
    lr_mult: 2
    decay_mult: 0
  }
  convolution_param {
    num_output: 128
    kernel_size: 1
    weight_filler {
      type: "xavier"
      std: 0.09
    }
    bias_filler {
      type: "constant"
      value: 0.2
    }
  }
}
layer {
  name: "inception_4c/relu_3x3_reduce"
  type: "ReLU"
  bottom: "inception_4c/3x3_reduce"
  top: "inception_4c/3x3_reduce"
}
layer {
  name: "inception_4c/3x3"
  type: "Convolution"
  bottom: "inception_4c/3x3_reduce"
  top: "inception_4c/3x3"
  param {
    lr_mult: 1
    decay_mult: 1
  }
  param {
    lr_mult: 2
    decay_mult: 0
  }
  convolution_param {
    num_output: 256
    pad: 1
    kernel_size: 3
    weight_filler {
      type: "xavier"
      std: 0.03
    }
    bias_filler {
      type: "constant"
      value: 0.2
    }
  }
}
layer {
  name: "inception_4c/relu_3x3"
  type: "ReLU"
  bottom: "inception_4c/3x3"
  top: "inception_4c/3x3"
}
layer {
  name: "inception_4c/5x5_reduce"
  type: "Convolution"
  bottom: "inception_4b/output"
  top: "inception_4c/5x5_reduce"
  param {
    lr_mult: 1
    decay_mult: 1
  }
  param {
    lr_mult: 2
    decay_mult: 0
  }
  convolution_param {
    num_output: 24
    kernel_size: 1
    weight_filler {
      type: "xavier"
      std: 0.2
    }
    bias_filler {
      type: "constant"
      value: 0.2
    }
  }
}
layer {
  name: "inception_4c/relu_5x5_reduce"
  type: "ReLU"
  bottom: "inception_4c/5x5_reduce"
  top: "inception_4c/5x5_reduce"
}
layer {
  name: "inception_4c/5x5"
  type: "Convolution"
  bottom: "inception_4c/5x5_reduce"
  top: "inception_4c/5x5"
  param {
    lr_mult: 1
    decay_mult: 1
  }
  param {
    lr_mult: 2
    decay_mult: 0
  }
  convolution_param {
    num_output: 64
    pad: 2
    kernel_size: 5
    weight_filler {
      type: "xavier"
      std: 0.03
    }
    bias_filler {
      type: "constant"
      value: 0.2
    }
  }
}
layer {
  name: "inception_4c/relu_5x5"
  type: "ReLU"
  bottom: "inception_4c/5x5"
  top: "inception_4c/5x5"
}
layer {
  name: "inception_4c/pool"
  type: "Pooling"
  bottom: "inception_4b/output"
  top: "inception_4c/pool"
  pooling_param {
    pool: MAX
    kernel_size: 3
    stride: 1
    pad: 1
  }
}
layer {
  name: "inception_4c/pool_proj"
  type: "Convolution"
  bottom: "inception_4c/pool"
  top: "inception_4c/pool_proj"
  param {
    lr_mult: 1
    decay_mult: 1
  }
  param {
    lr_mult: 2
    decay_mult: 0
  }
  convolution_param {
    num_output: 64
    kernel_size: 1
    weight_filler {
      type: "xavier"
      std: 0.1
    }
    bias_filler {
      type: "constant"
      value: 0.2
    }
  }
}
layer {
  name: "inception_4c/relu_pool_proj"
  type: "ReLU"
  bottom: "inception_4c/pool_proj"
  top: "inception_4c/pool_proj"
}
layer {
  name: "inception_4c/output"
  type: "Concat"
  bottom: "inception_4c/1x1"
  bottom: "inception_4c/3x3"
  bottom: "inception_4c/5x5"
  bottom: "inception_4c/pool_proj"
  top: "inception_4c/output"
}
layer {
  name: "inception_4d/1x1"
  type: "Convolution"
  bottom: "inception_4c/output"
  top: "inception_4d/1x1"
  param {
    lr_mult: 1
    decay_mult: 1
  }
  param {
    lr_mult: 2
    decay_mult: 0
  }
  convolution_param {
    num_output: 112
    kernel_size: 1
    weight_filler {
      type: "xavier"
      std: 0.03
    }
    bias_filler {
      type: "constant"
      value: 0.2
    }
  }
}
layer {
  name: "inception_4d/relu_1x1"
  type: "ReLU"
  bottom: "inception_4d/1x1"
  top: "inception_4d/1x1"
}
layer {
  name: "inception_4d/3x3_reduce"
  type: "Convolution"
  bottom: "inception_4c/output"
  top: "inception_4d/3x3_reduce"
  param {
    lr_mult: 1
    decay_mult: 1
  }
  param {
    lr_mult: 2
    decay_mult: 0
  }
  convolution_param {
    num_output: 144
    kernel_size: 1
    weight_filler {
      type: "xavier"
      std: 0.09
    }
    bias_filler {
      type: "constant"
      value: 0.2
    }
  }
}
layer {
  name: "inception_4d/relu_3x3_reduce"
  type: "ReLU"
  bottom: "inception_4d/3x3_reduce"
  top: "inception_4d/3x3_reduce"
}
layer {
  name: "inception_4d/3x3"
  type: "Convolution"
  bottom: "inception_4d/3x3_reduce"
  top: "inception_4d/3x3"
  param {
    lr_mult: 1
    decay_mult: 1
  }
  param {
    lr_mult: 2
    decay_mult: 0
  }
  convolution_param {
    num_output: 288
    pad: 1
    kernel_size: 3
    weight_filler {
      type: "xavier"
      std: 0.03
    }
    bias_filler {
      type: "constant"
      value: 0.2
    }
  }
}
layer {
  name: "inception_4d/relu_3x3"
  type: "ReLU"
  bottom: "inception_4d/3x3"
  top: "inception_4d/3x3"
}
layer {
  name: "inception_4d/5x5_reduce"
  type: "Convolution"
  bottom: "inception_4c/output"
  top: "inception_4d/5x5_reduce"
  param {
    lr_mult: 1
    decay_mult: 1
  }
  param {
    lr_mult: 2
    decay_mult: 0
  }
  convolution_param {
    num_output: 32
    kernel_size: 1
    weight_filler {
      type: "xavier"
      std: 0.2
    }
    bias_filler {
      type: "constant"
      value: 0.2
    }
  }
}
layer {
  name: "inception_4d/relu_5x5_reduce"
  type: "ReLU"
  bottom: "inception_4d/5x5_reduce"
  top: "inception_4d/5x5_reduce"
}
layer {
  name: "inception_4d/5x5"
  type: "Convolution"
  bottom: "inception_4d/5x5_reduce"
  top: "inception_4d/5x5"
  param {
    lr_mult: 1
    decay_mult: 1
  }
  param {
    lr_mult: 2
    decay_mult: 0
  }
  convolution_param {
    num_output: 64
    pad: 2
    kernel_size: 5
    weight_filler {
      type: "xavier"
      std: 0.03
    }
    bias_filler {
      type: "constant"
      value: 0.2
    }
  }
}
layer {
  name: "inception_4d/relu_5x5"
  type: "ReLU"
  bottom: "inception_4d/5x5"
  top: "inception_4d/5x5"
}
layer {
  name: "inception_4d/pool"
  type: "Pooling"
  bottom: "inception_4c/output"
  top: "inception_4d/pool"
  pooling_param {
    pool: MAX
    kernel_size: 3
    stride: 1
    pad: 1
  }
}
layer {
  name: "inception_4d/pool_proj"
  type: "Convolution"
  bottom: "inception_4d/pool"
  top: "inception_4d/pool_proj"
  param {
    lr_mult: 1
    decay_mult: 1
  }
  param {
    lr_mult: 2
    decay_mult: 0
  }
  convolution_param {
    num_output: 64
    kernel_size: 1
    weight_filler {
      type: "xavier"
      std: 0.1
    }
    bias_filler {
      type: "constant"
      value: 0.2
    }
  }
}
layer {
  name: "inception_4d/relu_pool_proj"
  type: "ReLU"
  bottom: "inception_4d/pool_proj"
  top: "inception_4d/pool_proj"
}
layer {
  name: "inception_4d/output"
  type: "Concat"
  bottom: "inception_4d/1x1"
  bottom: "inception_4d/3x3"
  bottom: "inception_4d/5x5"
  bottom: "inception_4d/pool_proj"
  top: "inception_4d/output"
}
layer {
  name: "loss2/ave_pool"
  type: "Pooling"
  bottom: "inception_4d/output"
  top: "loss2/ave_pool"
  pooling_param {
    pool: AVE
    kernel_size: 5
    stride: 3
  }
}
layer {
  name: "loss2/conv"
  type: "Convolution"
  bottom: "loss2/ave_pool"
  top: "loss2/conv"
  param {
    lr_mult: 1
    decay_mult: 1
  }
  param {
    lr_mult: 2
    decay_mult: 0
  }
  convolution_param {
    num_output: 128
    kernel_size: 1
    weight_filler {
      type: "xavier"
      std: 0.08
    }
    bias_filler {
      type: "constant"
      value: 0.2
    }
  }
}
layer {
  name: "loss2/relu_conv"
  type: "ReLU"
  bottom: "loss2/conv"
  top: "loss2/conv"
}
layer {
  name: "loss2/fc"
  type: "InnerProduct"
  bottom: "loss2/conv"
  top: "loss2/fc"
  param {
    lr_mult: 1
    decay_mult: 1
  }
  param {
    lr_mult: 2
    decay_mult: 0
  }
  inner_product_param {
    num_output: 1024
    weight_filler {
      type: "xavier"
      std: 0.02
    }
    bias_filler {
      type: "constant"
      value: 0.2
    }
  }
}
layer {
  name: "loss2/relu_fc"
  type: "ReLU"
  bottom: "loss2/fc"
  top: "loss2/fc"
}
layer {
  name: "loss2/drop_fc"
  type: "Dropout"
  bottom: "loss2/fc"
  top: "loss2/fc"
  dropout_param {
    dropout_ratio: 0.7
  }
}
layer {
  name: "loss2/classifier_plantvillage"
  type: "InnerProduct"
  bottom: "loss2/fc"
  top: "loss2/classifier_plantvillage"
  param {
    lr_mult: 1
    decay_mult: 1
  }
  param {
    lr_mult: 2
    decay_mult: 0
  }
  inner_product_param {
    num_output: 38
    weight_filler {
      type: "xavier"
      std: 0.0009765625
    }
    bias_filler {
      type: "constant"
      value: 0
    }
  }
}
layer {
  name: "inception_4e/1x1"
  type: "Convolution"
  bottom: "inception_4d/output"
  top: "inception_4e/1x1"
  param {
    lr_mult: 1
    decay_mult: 1
  }
  param {
    lr_mult: 2
    decay_mult: 0
  }
  convolution_param {
    num_output: 256
    kernel_size: 1
    weight_filler {
      type: "xavier"
      std: 0.03
    }
    bias_filler {
      type: "constant"
      value: 0.2
    }
  }
}
layer {
  name: "inception_4e/relu_1x1"
  type: "ReLU"
  bottom: "inception_4e/1x1"
  top: "inception_4e/1x1"
}
layer {
  name: "inception_4e/3x3_reduce"
  type: "Convolution"
  bottom: "inception_4d/output"
  top: "inception_4e/3x3_reduce"
  param {
    lr_mult: 1
    decay_mult: 1
  }
  param {
    lr_mult: 2
    decay_mult: 0
  }
  convolution_param {
    num_output: 160
    kernel_size: 1
    weight_filler {
      type: "xavier"
      std: 0.09
    }
    bias_filler {
      type: "constant"
      value: 0.2
    }
  }
}
layer {
  name: "inception_4e/relu_3x3_reduce"
  type: "ReLU"
  bottom: "inception_4e/3x3_reduce"
  top: "inception_4e/3x3_reduce"
}
layer {
  name: "inception_4e/3x3"
  type: "Convolution"
  bottom: "inception_4e/3x3_reduce"
  top: "inception_4e/3x3"
  param {
    lr_mult: 1
    decay_mult: 1
  }
  param {
    lr_mult: 2
    decay_mult: 0
  }
  convolution_param {
    num_output: 320
    pad: 1
    kernel_size: 3
    weight_filler {
      type: "xavier"
      std: 0.03
    }
    bias_filler {
      type: "constant"
      value: 0.2
    }
  }
}
layer {
  name: "inception_4e/relu_3x3"
  type: "ReLU"
  bottom: "inception_4e/3x3"
  top: "inception_4e/3x3"
}
layer {
  name: "inception_4e/5x5_reduce"
  type: "Convolution"
  bottom: "inception_4d/output"
  top: "inception_4e/5x5_reduce"
  param {
    lr_mult: 1
    decay_mult: 1
  }
  param {
    lr_mult: 2
    decay_mult: 0
  }
  convolution_param {
    num_output: 32
    kernel_size: 1
    weight_filler {
      type: "xavier"
      std: 0.2
    }
    bias_filler {
      type: "constant"
      value: 0.2
    }
  }
}
layer {
  name: "inception_4e/relu_5x5_reduce"
  type: "ReLU"
  bottom: "inception_4e/5x5_reduce"
  top: "inception_4e/5x5_reduce"
}
layer {
  name: "inception_4e/5x5"
  type: "Convolution"
  bottom: "inception_4e/5x5_reduce"
  top: "inception_4e/
I0403 15:38:10.176384 10785 layer_factory.hpp:77] Creating layer data
I0403 15:38:10.177006 10785 net.cpp:91] Creating Layer data
I0403 15:38:10.177037 10785 net.cpp:399] data -> data
I0403 15:38:10.177088 10785 net.cpp:399] data -> label
I0403 15:38:10.177127 10785 data_transformer.cpp:25] Loading mean file from: /home/mohanty/data/final_dataset/lmdb/segmented-80-20/mean.binaryproto
I0403 15:38:10.179766 10788 db_lmdb.cpp:38] Opened lmdb /home/mohanty/data/final_dataset/lmdb/segmented-80-20/test_db
I0403 15:38:10.190305 10785 data_layer.cpp:41] output data size: 24,3,224,224
I0403 15:38:10.218020 10785 net.cpp:141] Setting up data
I0403 15:38:10.218111 10785 net.cpp:148] Top shape: 24 3 224 224 (3612672)
I0403 15:38:10.218132 10785 net.cpp:148] Top shape: 24 (24)
I0403 15:38:10.218147 10785 net.cpp:156] Memory required for data: 14450784
I0403 15:38:10.218173 10785 layer_factory.hpp:77] Creating layer label_data_1_split
I0403 15:38:10.218201 10785 net.cpp:91] Creating Layer label_data_1_split
I0403 15:38:10.218219 10785 net.cpp:425] label_data_1_split <- label
I0403 15:38:10.218250 10785 net.cpp:399] label_data_1_split -> label_data_1_split_0
I0403 15:38:10.218278 10785 net.cpp:399] label_data_1_split -> label_data_1_split_1
I0403 15:38:10.218300 10785 net.cpp:399] label_data_1_split -> label_data_1_split_2
I0403 15:38:10.218322 10785 net.cpp:399] label_data_1_split -> label_data_1_split_3
I0403 15:38:10.218341 10785 net.cpp:399] label_data_1_split -> label_data_1_split_4
I0403 15:38:10.218361 10785 net.cpp:399] label_data_1_split -> label_data_1_split_5
I0403 15:38:10.218381 10785 net.cpp:399] label_data_1_split -> label_data_1_split_6
I0403 15:38:10.218402 10785 net.cpp:399] label_data_1_split -> label_data_1_split_7
I0403 15:38:10.218421 10785 net.cpp:399] label_data_1_split -> label_data_1_split_8
I0403 15:38:10.218441 10785 net.cpp:399] label_data_1_split -> label_data_1_split_9
I0403 15:38:10.218562 10785 net.cpp:141] Setting up label_data_1_split
I0403 15:38:10.218585 10785 net.cpp:148] Top shape: 24 (24)
I0403 15:38:10.218602 10785 net.cpp:148] Top shape: 24 (24)
I0403 15:38:10.218617 10785 net.cpp:148] Top shape: 24 (24)
I0403 15:38:10.218633 10785 net.cpp:148] Top shape: 24 (24)
I0403 15:38:10.218648 10785 net.cpp:148] Top shape: 24 (24)
I0403 15:38:10.218664 10785 net.cpp:148] Top shape: 24 (24)
I0403 15:38:10.218693 10785 net.cpp:148] Top shape: 24 (24)
I0403 15:38:10.218708 10785 net.cpp:148] Top shape: 24 (24)
I0403 15:38:10.218724 10785 net.cpp:148] Top shape: 24 (24)
I0403 15:38:10.218741 10785 net.cpp:148] Top shape: 24 (24)
I0403 15:38:10.218786 10785 net.cpp:156] Memory required for data: 14451744
I0403 15:38:10.218803 10785 layer_factory.hpp:77] Creating layer conv1/7x7_s2
I0403 15:38:10.218835 10785 net.cpp:91] Creating Layer conv1/7x7_s2
I0403 15:38:10.218855 10785 net.cpp:425] conv1/7x7_s2 <- data
I0403 15:38:10.218875 10785 net.cpp:399] conv1/7x7_s2 -> conv1/7x7_s2
I0403 15:38:10.360098 10785 net.cpp:141] Setting up conv1/7x7_s2
I0403 15:38:10.360185 10785 net.cpp:148] Top shape: 24 64 112 112 (19267584)
I0403 15:38:10.360203 10785 net.cpp:156] Memory required for data: 91522080
I0403 15:38:10.360234 10785 layer_factory.hpp:77] Creating layer conv1/relu_7x7
I0403 15:38:10.360261 10785 net.cpp:91] Creating Layer conv1/relu_7x7
I0403 15:38:10.360280 10785 net.cpp:425] conv1/relu_7x7 <- conv1/7x7_s2
I0403 15:38:10.360297 10785 net.cpp:386] conv1/relu_7x7 -> conv1/7x7_s2 (in-place)
I0403 15:38:10.360554 10785 net.cpp:141] Setting up conv1/relu_7x7
I0403 15:38:10.360580 10785 net.cpp:148] Top shape: 24 64 112 112 (19267584)
I0403 15:38:10.360596 10785 net.cpp:156] Memory required for data: 168592416
I0403 15:38:10.360610 10785 layer_factory.hpp:77] Creating layer pool1/3x3_s2
I0403 15:38:10.360635 10785 net.cpp:91] Creating Layer pool1/3x3_s2
I0403 15:38:10.360652 10785 net.cpp:425] pool1/3x3_s2 <- conv1/7x7_s2
I0403 15:38:10.360671 10785 net.cpp:399] pool1/3x3_s2 -> pool1/3x3_s2
I0403 15:38:10.360743 10785 net.cpp:141] Setting up pool1/3x3_s2
I0403 15:38:10.360767 10785 net.cpp:148] Top shape: 24 64 56 56 (4816896)
I0403 15:38:10.360782 10785 net.cpp:156] Memory required for data: 187860000
I0403 15:38:10.360796 10785 layer_factory.hpp:77] Creating layer pool1/norm1
I0403 15:38:10.360819 10785 net.cpp:91] Creating Layer pool1/norm1
I0403 15:38:10.360836 10785 net.cpp:425] pool1/norm1 <- pool1/3x3_s2
I0403 15:38:10.360854 10785 net.cpp:399] pool1/norm1 -> pool1/norm1
I0403 15:38:10.361147 10785 net.cpp:141] Setting up pool1/norm1
I0403 15:38:10.361173 10785 net.cpp:148] Top shape: 24 64 56 56 (4816896)
I0403 15:38:10.361188 10785 net.cpp:156] Memory required for data: 207127584
I0403 15:38:10.361202 10785 layer_factory.hpp:77] Creating layer conv2/3x3_reduce
I0403 15:38:10.361225 10785 net.cpp:91] Creating Layer conv2/3x3_reduce
I0403 15:38:10.361241 10785 net.cpp:425] conv2/3x3_reduce <- pool1/norm1
I0403 15:38:10.361258 10785 net.cpp:399] conv2/3x3_reduce -> conv2/3x3_reduce
I0403 15:38:10.362567 10785 net.cpp:141] Setting up conv2/3x3_reduce
I0403 15:38:10.362596 10785 net.cpp:148] Top shape: 24 64 56 56 (4816896)
I0403 15:38:10.362612 10785 net.cpp:156] Memory required for data: 226395168
I0403 15:38:10.362632 10785 layer_factory.hpp:77] Creating layer conv2/relu_3x3_reduce
I0403 15:38:10.362650 10785 net.cpp:91] Creating Layer conv2/relu_3x3_reduce
I0403 15:38:10.362665 10785 net.cpp:425] conv2/relu_3x3_reduce <- conv2/3x3_reduce
I0403 15:38:10.362681 10785 net.cpp:386] conv2/relu_3x3_reduce -> conv2/3x3_reduce (in-place)
I0403 15:38:10.362925 10785 net.cpp:141] Setting up conv2/relu_3x3_reduce
I0403 15:38:10.362953 10785 net.cpp:148] Top shape: 24 64 56 56 (4816896)
I0403 15:38:10.362970 10785 net.cpp:156] Memory required for data: 245662752
I0403 15:38:10.362984 10785 layer_factory.hpp:77] Creating layer conv2/3x3
I0403 15:38:10.363006 10785 net.cpp:91] Creating Layer conv2/3x3
I0403 15:38:10.363023 10785 net.cpp:425] conv2/3x3 <- conv2/3x3_reduce
I0403 15:38:10.363040 10785 net.cpp:399] conv2/3x3 -> conv2/3x3
I0403 15:38:10.365252 10785 net.cpp:141] Setting up conv2/3x3
I0403 15:38:10.365281 10785 net.cpp:148] Top shape: 24 192 56 56 (14450688)
I0403 15:38:10.365296 10785 net.cpp:156] Memory required for data: 303465504
I0403 15:38:10.365317 10785 layer_factory.hpp:77] Creating layer conv2/relu_3x3
I0403 15:38:10.365339 10785 net.cpp:91] Creating Layer conv2/relu_3x3
I0403 15:38:10.365355 10785 net.cpp:425] conv2/relu_3x3 <- conv2/3x3
I0403 15:38:10.365371 10785 net.cpp:386] conv2/relu_3x3 -> conv2/3x3 (in-place)
I0403 15:38:10.365540 10785 net.cpp:141] Setting up conv2/relu_3x3
I0403 15:38:10.365564 10785 net.cpp:148] Top shape: 24 192 56 56 (14450688)
I0403 15:38:10.365604 10785 net.cpp:156] Memory required for data: 361268256
I0403 15:38:10.365619 10785 layer_factory.hpp:77] Creating layer conv2/norm2
I0403 15:38:10.365639 10785 net.cpp:91] Creating Layer conv2/norm2
I0403 15:38:10.365655 10785 net.cpp:425] conv2/norm2 <- conv2/3x3
I0403 15:38:10.365672 10785 net.cpp:399] conv2/norm2 -> conv2/norm2
I0403 15:38:10.365968 10785 net.cpp:141] Setting up conv2/norm2
I0403 15:38:10.365994 10785 net.cpp:148] Top shape: 24 192 56 56 (14450688)
I0403 15:38:10.366008 10785 net.cpp:156] Memory required for data: 419071008
I0403 15:38:10.366024 10785 layer_factory.hpp:77] Creating layer pool2/3x3_s2
I0403 15:38:10.366042 10785 net.cpp:91] Creating Layer pool2/3x3_s2
I0403 15:38:10.366058 10785 net.cpp:425] pool2/3x3_s2 <- conv2/norm2
I0403 15:38:10.366075 10785 net.cpp:399] pool2/3x3_s2 -> pool2/3x3_s2
I0403 15:38:10.366127 10785 net.cpp:141] Setting up pool2/3x3_s2
I0403 15:38:10.366149 10785 net.cpp:148] Top shape: 24 192 28 28 (3612672)
I0403 15:38:10.366163 10785 net.cpp:156] Memory required for data: 433521696
I0403 15:38:10.366176 10785 layer_factory.hpp:77] Creating layer pool2/3x3_s2_pool2/3x3_s2_0_split
I0403 15:38:10.366194 10785 net.cpp:91] Creating Layer pool2/3x3_s2_pool2/3x3_s2_0_split
I0403 15:38:10.366209 10785 net.cpp:425] pool2/3x3_s2_pool2/3x3_s2_0_split <- pool2/3x3_s2
I0403 15:38:10.366227 10785 net.cpp:399] pool2/3x3_s2_pool2/3x3_s2_0_split -> pool2/3x3_s2_pool2/3x3_s2_0_split_0
I0403 15:38:10.366247 10785 net.cpp:399] pool2/3x3_s2_pool2/3x3_s2_0_split -> pool2/3x3_s2_pool2/3x3_s2_0_split_1
I0403 15:38:10.366266 10785 net.cpp:399] pool2/3x3_s2_pool2/3x3_s2_0_split -> pool2/3x3_s2_pool2/3x3_s2_0_split_2
I0403 15:38:10.366284 10785 net.cpp:399] pool2/3x3_s2_pool2/3x3_s2_0_split -> pool2/3x3_s2_pool2/3x3_s2_0_split_3
I0403 15:38:10.366356 10785 net.cpp:141] Setting up pool2/3x3_s2_pool2/3x3_s2_0_split
I0403 15:38:10.366380 10785 net.cpp:148] Top shape: 24 192 28 28 (3612672)
I0403 15:38:10.366396 10785 net.cpp:148] Top shape: 24 192 28 28 (3612672)
I0403 15:38:10.366411 10785 net.cpp:148] Top shape: 24 192 28 28 (3612672)
I0403 15:38:10.366426 10785 net.cpp:148] Top shape: 24 192 28 28 (3612672)
I0403 15:38:10.366439 10785 net.cpp:156] Memory required for data: 491324448
I0403 15:38:10.366453 10785 layer_factory.hpp:77] Creating layer inception_3a/1x1
I0403 15:38:10.366475 10785 net.cpp:91] Creating Layer inception_3a/1x1
I0403 15:38:10.366492 10785 net.cpp:425] inception_3a/1x1 <- pool2/3x3_s2_pool2/3x3_s2_0_split_0
I0403 15:38:10.366509 10785 net.cpp:399] inception_3a/1x1 -> inception_3a/1x1
I0403 15:38:10.368000 10785 net.cpp:141] Setting up inception_3a/1x1
I0403 15:38:10.368028 10785 net.cpp:148] Top shape: 24 64 28 28 (1204224)
I0403 15:38:10.368043 10785 net.cpp:156] Memory required for data: 496141344
I0403 15:38:10.368062 10785 layer_factory.hpp:77] Creating layer inception_3a/relu_1x1
I0403 15:38:10.368083 10785 net.cpp:91] Creating Layer inception_3a/relu_1x1
I0403 15:38:10.368098 10785 net.cpp:425] inception_3a/relu_1x1 <- inception_3a/1x1
I0403 15:38:10.368114 10785 net.cpp:386] inception_3a/relu_1x1 -> inception_3a/1x1 (in-place)
I0403 15:38:10.368283 10785 net.cpp:141] Setting up inception_3a/relu_1x1
I0403 15:38:10.368309 10785 net.cpp:148] Top shape: 24 64 28 28 (1204224)
I0403 15:38:10.368324 10785 net.cpp:156] Memory required for data: 500958240
I0403 15:38:10.368337 10785 layer_factory.hpp:77] Creating layer inception_3a/3x3_reduce
I0403 15:38:10.368360 10785 net.cpp:91] Creating Layer inception_3a/3x3_reduce
I0403 15:38:10.368376 10785 net.cpp:425] inception_3a/3x3_reduce <- pool2/3x3_s2_pool2/3x3_s2_0_split_1
I0403 15:38:10.368393 10785 net.cpp:399] inception_3a/3x3_reduce -> inception_3a/3x3_reduce
I0403 15:38:10.370049 10785 net.cpp:141] Setting up inception_3a/3x3_reduce
I0403 15:38:10.370077 10785 net.cpp:148] Top shape: 24 96 28 28 (1806336)
I0403 15:38:10.370092 10785 net.cpp:156] Memory required for data: 508183584
I0403 15:38:10.370113 10785 layer_factory.hpp:77] Creating layer inception_3a/relu_3x3_reduce
I0403 15:38:10.370149 10785 net.cpp:91] Creating Layer inception_3a/relu_3x3_reduce
I0403 15:38:10.370167 10785 net.cpp:425] inception_3a/relu_3x3_reduce <- inception_3a/3x3_reduce
I0403 15:38:10.370187 10785 net.cpp:386] inception_3a/relu_3x3_reduce -> inception_3a/3x3_reduce (in-place)
I0403 15:38:10.370357 10785 net.cpp:141] Setting up inception_3a/relu_3x3_reduce
I0403 15:38:10.370380 10785 net.cpp:148] Top shape: 24 96 28 28 (1806336)
I0403 15:38:10.370394 10785 net.cpp:156] Memory required for data: 515408928
I0403 15:38:10.370409 10785 layer_factory.hpp:77] Creating layer inception_3a/3x3
I0403 15:38:10.370431 10785 net.cpp:91] Creating Layer inception_3a/3x3
I0403 15:38:10.370448 10785 net.cpp:425] inception_3a/3x3 <- inception_3a/3x3_reduce
I0403 15:38:10.370468 10785 net.cpp:399] inception_3a/3x3 -> inception_3a/3x3
I0403 15:38:10.372056 10785 net.cpp:141] Setting up inception_3a/3x3
I0403 15:38:10.372087 10785 net.cpp:148] Top shape: 24 128 28 28 (2408448)
I0403 15:38:10.372102 10785 net.cpp:156] Memory required for data: 525042720
I0403 15:38:10.372120 10785 layer_factory.hpp:77] Creating layer inception_3a/relu_3x3
I0403 15:38:10.372138 10785 net.cpp:91] Creating Layer inception_3a/relu_3x3
I0403 15:38:10.372154 10785 net.cpp:425] inception_3a/relu_3x3 <- inception_3a/3x3
I0403 15:38:10.372170 10785 net.cpp:386] inception_3a/relu_3x3 -> inception_3a/3x3 (in-place)
I0403 15:38:10.372434 10785 net.cpp:141] Setting up inception_3a/relu_3x3
I0403 15:38:10.372462 10785 net.cpp:148] Top shape: 24 128 28 28 (2408448)
I0403 15:38:10.372478 10785 net.cpp:156] Memory required for data: 534676512
I0403 15:38:10.372493 10785 layer_factory.hpp:77] Creating layer inception_3a/5x5_reduce
I0403 15:38:10.372517 10785 net.cpp:91] Creating Layer inception_3a/5x5_reduce
I0403 15:38:10.372534 10785 net.cpp:425] inception_3a/5x5_reduce <- pool2/3x3_s2_pool2/3x3_s2_0_split_2
I0403 15:38:10.372552 10785 net.cpp:399] inception_3a/5x5_reduce -> inception_3a/5x5_reduce
I0403 15:38:10.373473 10785 net.cpp:141] Setting up inception_3a/5x5_reduce
I0403 15:38:10.373500 10785 net.cpp:148] Top shape: 24 16 28 28 (301056)
I0403 15:38:10.373515 10785 net.cpp:156] Memory required for data: 535880736
I0403 15:38:10.373533 10785 layer_factory.hpp:77] Creating layer inception_3a/relu_5x5_reduce
I0403 15:38:10.373551 10785 net.cpp:91] Creating Layer inception_3a/relu_5x5_reduce
I0403 15:38:10.373566 10785 net.cpp:425] inception_3a/relu_5x5_reduce <- inception_3a/5x5_reduce
I0403 15:38:10.373585 10785 net.cpp:386] inception_3a/relu_5x5_reduce -> inception_3a/5x5_reduce (in-place)
I0403 15:38:10.373872 10785 net.cpp:141] Setting up inception_3a/relu_5x5_reduce
I0403 15:38:10.373896 10785 net.cpp:148] Top shape: 24 16 28 28 (301056)
I0403 15:38:10.373910 10785 net.cpp:156] Memory required for data: 537084960
I0403 15:38:10.373927 10785 layer_factory.hpp:77] Creating layer inception_3a/5x5
I0403 15:38:10.373953 10785 net.cpp:91] Creating Layer inception_3a/5x5
I0403 15:38:10.373971 10785 net.cpp:425] inception_3a/5x5 <- inception_3a/5x5_reduce
I0403 15:38:10.373992 10785 net.cpp:399] inception_3a/5x5 -> inception_3a/5x5
I0403 15:38:10.374959 10785 net.cpp:141] Setting up inception_3a/5x5
I0403 15:38:10.374987 10785 net.cpp:148] Top shape: 24 32 28 28 (602112)
I0403 15:38:10.375005 10785 net.cpp:156] Memory required for data: 539493408
I0403 15:38:10.375021 10785 layer_factory.hpp:77] Creating layer inception_3a/relu_5x5
I0403 15:38:10.375039 10785 net.cpp:91] Creating Layer inception_3a/relu_5x5
I0403 15:38:10.375054 10785 net.cpp:425] inception_3a/relu_5x5 <- inception_3a/5x5
I0403 15:38:10.375071 10785 net.cpp:386] inception_3a/relu_5x5 -> inception_3a/5x5 (in-place)
I0403 15:38:10.375236 10785 net.cpp:141] Setting up inception_3a/relu_5x5
I0403 15:38:10.375262 10785 net.cpp:148] Top shape: 24 32 28 28 (602112)
I0403 15:38:10.375277 10785 net.cpp:156] Memory required for data: 541901856
I0403 15:38:10.375291 10785 layer_factory.hpp:77] Creating layer inception_3a/pool
I0403 15:38:10.375308 10785 net.cpp:91] Creating Layer inception_3a/pool
I0403 15:38:10.375336 10785 net.cpp:425] inception_3a/pool <- pool2/3x3_s2_pool2/3x3_s2_0_split_3
I0403 15:38:10.375360 10785 net.cpp:399] inception_3a/pool -> inception_3a/pool
I0403 15:38:10.375416 10785 net.cpp:141] Setting up inception_3a/pool
I0403 15:38:10.375440 10785 net.cpp:148] Top shape: 24 192 28 28 (3612672)
I0403 15:38:10.375454 10785 net.cpp:156] Memory required for data: 556352544
I0403 15:38:10.375468 10785 layer_factory.hpp:77] Creating layer inception_3a/pool_proj
I0403 15:38:10.375491 10785 net.cpp:91] Creating Layer inception_3a/pool_proj
I0403 15:38:10.375509 10785 net.cpp:425] inception_3a/pool_proj <- inception_3a/pool
I0403 15:38:10.375526 10785 net.cpp:399] inception_3a/pool_proj -> inception_3a/pool_proj
I0403 15:38:10.376449 10785 net.cpp:141] Setting up inception_3a/pool_proj
I0403 15:38:10.376477 10785 net.cpp:148] Top shape: 24 32 28 28 (602112)
I0403 15:38:10.376492 10785 net.cpp:156] Memory required for data: 558760992
I0403 15:38:10.376515 10785 layer_factory.hpp:77] Creating layer inception_3a/relu_pool_proj
I0403 15:38:10.376535 10785 net.cpp:91] Creating Layer inception_3a/relu_pool_proj
I0403 15:38:10.376550 10785 net.cpp:425] inception_3a/relu_pool_proj <- inception_3a/pool_proj
I0403 15:38:10.376569 10785 net.cpp:386] inception_3a/relu_pool_proj -> inception_3a/pool_proj (in-place)
I0403 15:38:10.376832 10785 net.cpp:141] Setting up inception_3a/relu_pool_proj
I0403 15:38:10.376858 10785 net.cpp:148] Top shape: 24 32 28 28 (602112)
I0403 15:38:10.376873 10785 net.cpp:156] Memory required for data: 561169440
I0403 15:38:10.376888 10785 layer_factory.hpp:77] Creating layer inception_3a/output
I0403 15:38:10.376905 10785 net.cpp:91] Creating Layer inception_3a/output
I0403 15:38:10.376921 10785 net.cpp:425] inception_3a/output <- inception_3a/1x1
I0403 15:38:10.376937 10785 net.cpp:425] inception_3a/output <- inception_3a/3x3
I0403 15:38:10.376957 10785 net.cpp:425] inception_3a/output <- inception_3a/5x5
I0403 15:38:10.376973 10785 net.cpp:425] inception_3a/output <- inception_3a/pool_proj
I0403 15:38:10.376989 10785 net.cpp:399] inception_3a/output -> inception_3a/output
I0403 15:38:10.377037 10785 net.cpp:141] Setting up inception_3a/output
I0403 15:38:10.377058 10785 net.cpp:148] Top shape: 24 256 28 28 (4816896)
I0403 15:38:10.377073 10785 net.cpp:156] Memory required for data: 580437024
I0403 15:38:10.377086 10785 layer_factory.hpp:77] Creating layer inception_3a/output_inception_3a/output_0_split
I0403 15:38:10.377105 10785 net.cpp:91] Creating Layer inception_3a/output_inception_3a/output_0_split
I0403 15:38:10.377120 10785 net.cpp:425] inception_3a/output_inception_3a/output_0_split <- inception_3a/output
I0403 15:38:10.377136 10785 net.cpp:399] inception_3a/output_inception_3a/output_0_split -> inception_3a/output_inception_3a/output_0_split_0
I0403 15:38:10.377156 10785 net.cpp:399] inception_3a/output_inception_3a/output_0_split -> inception_3a/output_inception_3a/output_0_split_1
I0403 15:38:10.377179 10785 net.cpp:399] inception_3a/output_inception_3a/output_0_split -> inception_3a/output_inception_3a/output_0_split_2
I0403 15:38:10.377200 10785 net.cpp:399] inception_3a/output_inception_3a/output_0_split -> inception_3a/output_inception_3a/output_0_split_3
I0403 15:38:10.377274 10785 net.cpp:141] Setting up inception_3a/output_inception_3a/output_0_split
I0403 15:38:10.377296 10785 net.cpp:148] Top shape: 24 256 28 28 (4816896)
I0403 15:38:10.377311 10785 net.cpp:148] Top shape: 24 256 28 28 (4816896)
I0403 15:38:10.377326 10785 net.cpp:148] Top shape: 24 256 28 28 (4816896)
I0403 15:38:10.377341 10785 net.cpp:148] Top shape: 24 256 28 28 (4816896)
I0403 15:38:10.377356 10785 net.cpp:156] Memory required for data: 657507360
I0403 15:38:10.377370 10785 layer_factory.hpp:77] Creating layer inception_3b/1x1
I0403 15:38:10.377394 10785 net.cpp:91] Creating Layer inception_3b/1x1
I0403 15:38:10.377410 10785 net.cpp:425] inception_3b/1x1 <- inception_3a/output_inception_3a/output_0_split_0
I0403 15:38:10.377429 10785 net.cpp:399] inception_3b/1x1 -> inception_3b/1x1
I0403 15:38:10.378561 10785 net.cpp:141] Setting up inception_3b/1x1
I0403 15:38:10.378600 10785 net.cpp:148] Top shape: 24 128 28 28 (2408448)
I0403 15:38:10.378617 10785 net.cpp:156] Memory required for data: 667141152
I0403 15:38:10.378634 10785 layer_factory.hpp:77] Creating layer inception_3b/relu_1x1
I0403 15:38:10.378654 10785 net.cpp:91] Creating Layer inception_3b/relu_1x1
I0403 15:38:10.378671 10785 net.cpp:425] inception_3b/relu_1x1 <- inception_3b/1x1
I0403 15:38:10.378689 10785 net.cpp:386] inception_3b/relu_1x1 -> inception_3b/1x1 (in-place)
I0403 15:38:10.378865 10785 net.cpp:141] Setting up inception_3b/relu_1x1
I0403 15:38:10.378892 10785 net.cpp:148] Top shape: 24 128 28 28 (2408448)
I0403 15:38:10.378908 10785 net.cpp:156] Memory required for data: 676774944
I0403 15:38:10.378926 10785 layer_factory.hpp:77] Creating layer inception_3b/3x3_reduce
I0403 15:38:10.378952 10785 net.cpp:91] Creating Layer inception_3b/3x3_reduce
I0403 15:38:10.378970 10785 net.cpp:425] inception_3b/3x3_reduce <- inception_3a/output_inception_3a/output_0_split_1
I0403 15:38:10.378990 10785 net.cpp:399] inception_3b/3x3_reduce -> inception_3b/3x3_reduce
I0403 15:38:10.380110 10785 net.cpp:141] Setting up inception_3b/3x3_reduce
I0403 15:38:10.380136 10785 net.cpp:148] Top shape: 24 128 28 28 (2408448)
I0403 15:38:10.380152 10785 net.cpp:156] Memory required for data: 686408736
I0403 15:38:10.380170 10785 layer_factory.hpp:77] Creating layer inception_3b/relu_3x3_reduce
I0403 15:38:10.380192 10785 net.cpp:91] Creating Layer inception_3b/relu_3x3_reduce
I0403 15:38:10.380208 10785 net.cpp:425] inception_3b/relu_3x3_reduce <- inception_3b/3x3_reduce
I0403 15:38:10.380225 10785 net.cpp:386] inception_3b/relu_3x3_reduce -> inception_3b/3x3_reduce (in-place)
I0403 15:38:10.380394 10785 net.cpp:141] Setting up inception_3b/relu_3x3_reduce
I0403 15:38:10.380420 10785 net.cpp:148] Top shape: 24 128 28 28 (2408448)
I0403 15:38:10.380435 10785 net.cpp:156] Memory required for data: 696042528
I0403 15:38:10.380450 10785 layer_factory.hpp:77] Creating layer inception_3b/3x3
I0403 15:38:10.380475 10785 net.cpp:91] Creating Layer inception_3b/3x3
I0403 15:38:10.380491 10785 net.cpp:425] inception_3b/3x3 <- inception_3b/3x3_reduce
I0403 15:38:10.380512 10785 net.cpp:399] inception_3b/3x3 -> inception_3b/3x3
I0403 15:38:10.383405 10785 net.cpp:141] Setting up inception_3b/3x3
I0403 15:38:10.383435 10785 net.cpp:148] Top shape: 24 192 28 28 (3612672)
I0403 15:38:10.383451 10785 net.cpp:156] Memory required for data: 710493216
I0403 15:38:10.383471 10785 layer_factory.hpp:77] Creating layer inception_3b/relu_3x3
I0403 15:38:10.383488 10785 net.cpp:91] Creating Layer inception_3b/relu_3x3
I0403 15:38:10.383504 10785 net.cpp:425] inception_3b/relu_3x3 <- inception_3b/3x3
I0403 15:38:10.383522 10785 net.cpp:386] inception_3b/relu_3x3 -> inception_3b/3x3 (in-place)
I0403 15:38:10.383800 10785 net.cpp:141] Setting up inception_3b/relu_3x3
I0403 15:38:10.383827 10785 net.cpp:148] Top shape: 24 192 28 28 (3612672)
I0403 15:38:10.383843 10785 net.cpp:156] Memory required for data: 724943904
I0403 15:38:10.383858 10785 layer_factory.hpp:77] Creating layer inception_3b/5x5_reduce
I0403 15:38:10.383880 10785 net.cpp:91] Creating Layer inception_3b/5x5_reduce
I0403 15:38:10.383898 10785 net.cpp:425] inception_3b/5x5_reduce <- inception_3a/output_inception_3a/output_0_split_2
I0403 15:38:10.383915 10785 net.cpp:399] inception_3b/5x5_reduce -> inception_3b/5x5_reduce
I0403 15:38:10.384903 10785 net.cpp:141] Setting up inception_3b/5x5_reduce
I0403 15:38:10.384935 10785 net.cpp:148] Top shape: 24 32 28 28 (602112)
I0403 15:38:10.384956 10785 net.cpp:156] Memory required for data: 727352352
I0403 15:38:10.384975 10785 layer_factory.hpp:77] Creating layer inception_3b/relu_5x5_reduce
I0403 15:38:10.384994 10785 net.cpp:91] Creating Layer inception_3b/relu_5x5_reduce
I0403 15:38:10.385010 10785 net.cpp:425] inception_3b/relu_5x5_reduce <- inception_3b/5x5_reduce
I0403 15:38:10.385026 10785 net.cpp:386] inception_3b/relu_5x5_reduce -> inception_3b/5x5_reduce (in-place)
I0403 15:38:10.385215 10785 net.cpp:141] Setting up inception_3b/relu_5x5_reduce
I0403 15:38:10.385239 10785 net.cpp:148] Top shape: 24 32 28 28 (602112)
I0403 15:38:10.385254 10785 net.cpp:156] Memory required for data: 729760800
I0403 15:38:10.385268 10785 layer_factory.hpp:77] Creating layer inception_3b/5x5
I0403 15:38:10.385290 10785 net.cpp:91] Creating Layer inception_3b/5x5
I0403 15:38:10.385308 10785 net.cpp:425] inception_3b/5x5 <- inception_3b/5x5_reduce
I0403 15:38:10.385329 10785 net.cpp:399] inception_3b/5x5 -> inception_3b/5x5
I0403 15:38:10.387301 10785 net.cpp:141] Setting up inception_3b/5x5
I0403 15:38:10.387329 10785 net.cpp:148] Top shape: 24 96 28 28 (1806336)
I0403 15:38:10.387346 10785 net.cpp:156] Memory required for data: 736986144
I0403 15:38:10.387363 10785 layer_factory.hpp:77] Creating layer inception_3b/relu_5x5
I0403 15:38:10.387384 10785 net.cpp:91] Creating Layer inception_3b/relu_5x5
I0403 15:38:10.387401 10785 net.cpp:425] inception_3b/relu_5x5 <- inception_3b/5x5
I0403 15:38:10.387418 10785 net.cpp:386] inception_3b/relu_5x5 -> inception_3b/5x5 (in-place)
I0403 15:38:10.387606 10785 net.cpp:141] Setting up inception_3b/relu_5x5
I0403 15:38:10.387631 10785 net.cpp:148] Top shape: 24 96 28 28 (1806336)
I0403 15:38:10.387646 10785 net.cpp:156] Memory required for data: 744211488
I0403 15:38:10.387660 10785 layer_factory.hpp:77] Creating layer inception_3b/pool
I0403 15:38:10.387677 10785 net.cpp:91] Creating Layer inception_3b/pool
I0403 15:38:10.387694 10785 net.cpp:425] inception_3b/pool <- inception_3a/output_inception_3a/output_0_split_3
I0403 15:38:10.387712 10785 net.cpp:399] inception_3b/pool -> inception_3b/pool
I0403 15:38:10.387768 10785 net.cpp:141] Setting up inception_3b/pool
I0403 15:38:10.387790 10785 net.cpp:148] Top shape: 24 256 28 28 (4816896)
I0403 15:38:10.387804 10785 net.cpp:156] Memory required for data: 763479072
I0403 15:38:10.387819 10785 layer_factory.hpp:77] Creating layer inception_3b/pool_proj
I0403 15:38:10.387840 10785 net.cpp:91] Creating Layer inception_3b/pool_proj
I0403 15:38:10.387857 10785 net.cpp:425] inception_3b/pool_proj <- inception_3b/pool
I0403 15:38:10.387878 10785 net.cpp:399] inception_3b/pool_proj -> inception_3b/pool_proj
I0403 15:38:10.388938 10785 net.cpp:141] Setting up inception_3b/pool_proj
I0403 15:38:10.388970 10785 net.cpp:148] Top shape: 24 64 28 28 (1204224)
I0403 15:38:10.388986 10785 net.cpp:156] Memory required for data: 768295968
I0403 15:38:10.389004 10785 layer_factory.hpp:77] Creating layer inception_3b/relu_pool_proj
I0403 15:38:10.389024 10785 net.cpp:91] Creating Layer inception_3b/relu_pool_proj
I0403 15:38:10.389042 10785 net.cpp:425] inception_3b/relu_pool_proj <- inception_3b/pool_proj
I0403 15:38:10.389060 10785 net.cpp:386] inception_3b/relu_pool_proj -> inception_3b/pool_proj (in-place)
I0403 15:38:10.389453 10785 net.cpp:141] Setting up inception_3b/relu_pool_proj
I0403 15:38:10.389479 10785 net.cpp:148] Top shape: 24 64 28 28 (1204224)
I0403 15:38:10.389494 10785 net.cpp:156] Memory required for data: 773112864
I0403 15:38:10.389508 10785 layer_factory.hpp:77] Creating layer inception_3b/output
I0403 15:38:10.389525 10785 net.cpp:91] Creating Layer inception_3b/output
I0403 15:38:10.389541 10785 net.cpp:425] inception_3b/output <- inception_3b/1x1
I0403 15:38:10.389559 10785 net.cpp:425] inception_3b/output <- inception_3b/3x3
I0403 15:38:10.389574 10785 net.cpp:425] inception_3b/output <- inception_3b/5x5
I0403 15:38:10.389590 10785 net.cpp:425] inception_3b/output <- inception_3b/pool_proj
I0403 15:38:10.389608 10785 net.cpp:399] inception_3b/output -> inception_3b/output
I0403 15:38:10.389652 10785 net.cpp:141] Setting up inception_3b/output
I0403 15:38:10.389677 10785 net.cpp:148] Top shape: 24 480 28 28 (9031680)
I0403 15:38:10.389691 10785 net.cpp:156] Memory required for data: 809239584
I0403 15:38:10.389706 10785 layer_factory.hpp:77] Creating layer pool3/3x3_s2
I0403 15:38:10.389724 10785 net.cpp:91] Creating Layer pool3/3x3_s2
I0403 15:38:10.389739 10785 net.cpp:425] pool3/3x3_s2 <- inception_3b/output
I0403 15:38:10.389771 10785 net.cpp:399] pool3/3x3_s2 -> pool3/3x3_s2
I0403 15:38:10.389832 10785 net.cpp:141] Setting up pool3/3x3_s2
I0403 15:38:10.389854 10785 net.cpp:148] Top shape: 24 480 14 14 (2257920)
I0403 15:38:10.389869 10785 net.cpp:156] Memory required for data: 818271264
I0403 15:38:10.389883 10785 layer_factory.hpp:77] Creating layer pool3/3x3_s2_pool3/3x3_s2_0_split
I0403 15:38:10.389900 10785 net.cpp:91] Creating Layer pool3/3x3_s2_pool3/3x3_s2_0_split
I0403 15:38:10.389915 10785 net.cpp:425] pool3/3x3_s2_pool3/3x3_s2_0_split <- pool3/3x3_s2
I0403 15:38:10.389940 10785 net.cpp:399] pool3/3x3_s2_pool3/3x3_s2_0_split -> pool3/3x3_s2_pool3/3x3_s2_0_split_0
I0403 15:38:10.389964 10785 net.cpp:399] pool3/3x3_s2_pool3/3x3_s2_0_split -> pool3/3x3_s2_pool3/3x3_s2_0_split_1
I0403 15:38:10.389986 10785 net.cpp:399] pool3/3x3_s2_pool3/3x3_s2_0_split -> pool3/3x3_s2_pool3/3x3_s2_0_split_2
I0403 15:38:10.390004 10785 net.cpp:399] pool3/3x3_s2_pool3/3x3_s2_0_split -> pool3/3x3_s2_pool3/3x3_s2_0_split_3
I0403 15:38:10.390082 10785 net.cpp:141] Setting up pool3/3x3_s2_pool3/3x3_s2_0_split
I0403 15:38:10.390105 10785 net.cpp:148] Top shape: 24 480 14 14 (2257920)
I0403 15:38:10.390121 10785 net.cpp:148] Top shape: 24 480 14 14 (2257920)
I0403 15:38:10.390136 10785 net.cpp:148] Top shape: 24 480 14 14 (2257920)
I0403 15:38:10.390151 10785 net.cpp:148] Top shape: 24 480 14 14 (2257920)
I0403 15:38:10.390166 10785 net.cpp:156] Memory required for data: 854397984
I0403 15:38:10.390179 10785 layer_factory.hpp:77] Creating layer inception_4a/1x1
I0403 15:38:10.390202 10785 net.cpp:91] Creating Layer inception_4a/1x1
I0403 15:38:10.390218 10785 net.cpp:425] inception_4a/1x1 <- pool3/3x3_s2_pool3/3x3_s2_0_split_0
I0403 15:38:10.390240 10785 net.cpp:399] inception_4a/1x1 -> inception_4a/1x1
I0403 15:38:10.391790 10785 net.cpp:141] Setting up inception_4a/1x1
I0403 15:38:10.391818 10785 net.cpp:148] Top shape: 24 192 14 14 (903168)
I0403 15:38:10.391832 10785 net.cpp:156] Memory required for data: 858010656
I0403 15:38:10.391850 10785 layer_factory.hpp:77] Creating layer inception_4a/relu_1x1
I0403 15:38:10.391871 10785 net.cpp:91] Creating Layer inception_4a/relu_1x1
I0403 15:38:10.391887 10785 net.cpp:425] inception_4a/relu_1x1 <- inception_4a/1x1
I0403 15:38:10.391904 10785 net.cpp:386] inception_4a/relu_1x1 -> inception_4a/1x1 (in-place)
I0403 15:38:10.392083 10785 net.cpp:141] Setting up inception_4a/relu_1x1
I0403 15:38:10.392107 10785 net.cpp:148] Top shape: 24 192 14 14 (903168)
I0403 15:38:10.392122 10785 net.cpp:156] Memory required for data: 861623328
I0403 15:38:10.392138 10785 layer_factory.hpp:77] Creating layer inception_4a/3x3_reduce
I0403 15:38:10.392161 10785 net.cpp:91] Creating Layer inception_4a/3x3_reduce
I0403 15:38:10.392179 10785 net.cpp:425] inception_4a/3x3_reduce <- pool3/3x3_s2_pool3/3x3_s2_0_split_1
I0403 15:38:10.392199 10785 net.cpp:399] inception_4a/3x3_reduce -> inception_4a/3x3_reduce
I0403 15:38:10.393460 10785 net.cpp:141] Setting up inception_4a/3x3_reduce
I0403 15:38:10.393487 10785 net.cpp:148] Top shape: 24 96 14 14 (451584)
I0403 15:38:10.393508 10785 net.cpp:156] Memory required for data: 863429664
I0403 15:38:10.393532 10785 layer_factory.hpp:77] Creating layer inception_4a/relu_3x3_reduce
I0403 15:38:10.393553 10785 net.cpp:91] Creating Layer inception_4a/relu_3x3_reduce
I0403 15:38:10.393569 10785 net.cpp:425] inception_4a/relu_3x3_reduce <- inception_4a/3x3_reduce
I0403 15:38:10.393589 10785 net.cpp:386] inception_4a/relu_3x3_reduce -> inception_4a/3x3_reduce (in-place)
I0403 15:38:10.393762 10785 net.cpp:141] Setting up inception_4a/relu_3x3_reduce
I0403 15:38:10.393786 10785 net.cpp:148] Top shape: 24 96 14 14 (451584)
I0403 15:38:10.393801 10785 net.cpp:156] Memory required for data: 865236000
I0403 15:38:10.393815 10785 layer_factory.hpp:77] Creating layer inception_4a/3x3
I0403 15:38:10.393837 10785 net.cpp:91] Creating Layer inception_4a/3x3
I0403 15:38:10.393854 10785 net.cpp:425] inception_4a/3x3 <- inception_4a/3x3_reduce
I0403 15:38:10.393874 10785 net.cpp:399] inception_4a/3x3 -> inception_4a/3x3
I0403 15:38:10.396560 10785 net.cpp:141] Setting up inception_4a/3x3
I0403 15:38:10.396589 10785 net.cpp:148] Top shape: 24 208 14 14 (978432)
I0403 15:38:10.396603 10785 net.cpp:156] Memory required for data: 869149728
I0403 15:38:10.396620 10785 layer_factory.hpp:77] Creating layer inception_4a/relu_3x3
I0403 15:38:10.396641 10785 net.cpp:91] Creating Layer inception_4a/relu_3x3
I0403 15:38:10.396657 10785 net.cpp:425] inception_4a/relu_3x3 <- inception_4a/3x3
I0403 15:38:10.396673 10785 net.cpp:386] inception_4a/relu_3x3 -> inception_4a/3x3 (in-place)
I0403 15:38:10.396939 10785 net.cpp:141] Setting up inception_4a/relu_3x3
I0403 15:38:10.396968 10785 net.cpp:148] Top shape: 24 208 14 14 (978432)
I0403 15:38:10.396983 10785 net.cpp:156] Memory required for data: 873063456
I0403 15:38:10.396998 10785 layer_factory.hpp:77] Creating layer inception_4a/5x5_reduce
I0403 15:38:10.397020 10785 net.cpp:91] Creating Layer inception_4a/5x5_reduce
I0403 15:38:10.397037 10785 net.cpp:425] inception_4a/5x5_reduce <- pool3/3x3_s2_pool3/3x3_s2_0_split_2
I0403 15:38:10.397060 10785 net.cpp:399] inception_4a/5x5_reduce -> inception_4a/5x5_reduce
I0403 15:38:10.398046 10785 net.cpp:141] Setting up inception_4a/5x5_reduce
I0403 15:38:10.398073 10785 net.cpp:148] Top shape: 24 16 14 14 (75264)
I0403 15:38:10.398089 10785 net.cpp:156] Memory required for data: 873364512
I0403 15:38:10.398108 10785 layer_factory.hpp:77] Creating layer inception_4a/relu_5x5_reduce
I0403 15:38:10.398125 10785 net.cpp:91] Creating Layer inception_4a/relu_5x5_reduce
I0403 15:38:10.398140 10785 net.cpp:425] inception_4a/relu_5x5_reduce <- inception_4a/5x5_reduce
I0403 15:38:10.398157 10785 net.cpp:386] inception_4a/relu_5x5_reduce -> inception_4a/5x5_reduce (in-place)
I0403 15:38:10.398339 10785 net.cpp:141] Setting up inception_4a/relu_5x5_reduce
I0403 15:38:10.398363 10785 net.cpp:148] Top shape: 24 16 14 14 (75264)
I0403 15:38:10.398378 10785 net.cpp:156] Memory required for data: 873665568
I0403 15:38:10.398393 10785 layer_factory.hpp:77] Creating layer inception_4a/5x5
I0403 15:38:10.398414 10785 net.cpp:91] Creating Layer inception_4a/5x5
I0403 15:38:10.398430 10785 net.cpp:425] inception_4a/5x5 <- inception_4a/5x5_reduce
I0403 15:38:10.398450 10785 net.cpp:399] inception_4a/5x5 -> inception_4a/5x5
I0403 15:38:10.399495 10785 net.cpp:141] Setting up inception_4a/5x5
I0403 15:38:10.399523 10785 net.cpp:148] Top shape: 24 48 14 14 (225792)
I0403 15:38:10.399538 10785 net.cpp:156] Memory required for data: 874568736
I0403 15:38:10.399555 10785 layer_factory.hpp:77] Creating layer inception_4a/relu_5x5
I0403 15:38:10.399574 10785 net.cpp:91] Creating Layer inception_4a/relu_5x5
I0403 15:38:10.399588 10785 net.cpp:425] inception_4a/relu_5x5 <- inception_4a/5x5
I0403 15:38:10.399606 10785 net.cpp:386] inception_4a/relu_5x5 -> inception_4a/5x5 (in-place)
I0403 15:38:10.399775 10785 net.cpp:141] Setting up inception_4a/relu_5x5
I0403 15:38:10.399798 10785 net.cpp:148] Top shape: 24 48 14 14 (225792)
I0403 15:38:10.399812 10785 net.cpp:156] Memory required for data: 875471904
I0403 15:38:10.399827 10785 layer_factory.hpp:77] Creating layer inception_4a/pool
I0403 15:38:10.399845 10785 net.cpp:91] Creating Layer inception_4a/pool
I0403 15:38:10.399862 10785 net.cpp:425] inception_4a/pool <- pool3/3x3_s2_pool3/3x3_s2_0_split_3
I0403 15:38:10.399878 10785 net.cpp:399] inception_4a/pool -> inception_4a/pool
I0403 15:38:10.399955 10785 net.cpp:141] Setting up inception_4a/pool
I0403 15:38:10.399978 10785 net.cpp:148] Top shape: 24 480 14 14 (2257920)
I0403 15:38:10.399993 10785 net.cpp:156] Memory required for data: 884503584
I0403 15:38:10.400007 10785 layer_factory.hpp:77] Creating layer inception_4a/pool_proj
I0403 15:38:10.400029 10785 net.cpp:91] Creating Layer inception_4a/pool_proj
I0403 15:38:10.400046 10785 net.cpp:425] inception_4a/pool_proj <- inception_4a/pool
I0403 15:38:10.400070 10785 net.cpp:399] inception_4a/pool_proj -> inception_4a/pool_proj
I0403 15:38:10.401208 10785 net.cpp:141] Setting up inception_4a/pool_proj
I0403 15:38:10.401235 10785 net.cpp:148] Top shape: 24 64 14 14 (301056)
I0403 15:38:10.401264 10785 net.cpp:156] Memory required for data: 885707808
I0403 15:38:10.401283 10785 layer_factory.hpp:77] Creating layer inception_4a/relu_pool_proj
I0403 15:38:10.401300 10785 net.cpp:91] Creating Layer inception_4a/relu_pool_proj
I0403 15:38:10.401316 10785 net.cpp:425] inception_4a/relu_pool_proj <- inception_4a/pool_proj
I0403 15:38:10.401336 10785 net.cpp:386] inception_4a/relu_pool_proj -> inception_4a/pool_proj (in-place)
I0403 15:38:10.401614 10785 net.cpp:141] Setting up inception_4a/relu_pool_proj
I0403 15:38:10.401639 10785 net.cpp:148] Top shape: 24 64 14 14 (301056)
I0403 15:38:10.401654 10785 net.cpp:156] Memory required for data: 886912032
I0403 15:38:10.401669 10785 layer_factory.hpp:77] Creating layer inception_4a/output
I0403 15:38:10.401685 10785 net.cpp:91] Creating Layer inception_4a/output
I0403 15:38:10.401701 10785 net.cpp:425] inception_4a/output <- inception_4a/1x1
I0403 15:38:10.401717 10785 net.cpp:425] inception_4a/output <- inception_4a/3x3
I0403 15:38:10.401732 10785 net.cpp:425] inception_4a/output <- inception_4a/5x5
I0403 15:38:10.401747 10785 net.cpp:425] inception_4a/output <- inception_4a/pool_proj
I0403 15:38:10.401765 10785 net.cpp:399] inception_4a/output -> inception_4a/output
I0403 15:38:10.401808 10785 net.cpp:141] Setting up inception_4a/output
I0403 15:38:10.401832 10785 net.cpp:148] Top shape: 24 512 14 14 (2408448)
I0403 15:38:10.401847 10785 net.cpp:156] Memory required for data: 896545824
I0403 15:38:10.401861 10785 layer_factory.hpp:77] Creating layer inception_4a/output_inception_4a/output_0_split
I0403 15:38:10.401878 10785 net.cpp:91] Creating Layer inception_4a/output_inception_4a/output_0_split
I0403 15:38:10.401893 10785 net.cpp:425] inception_4a/output_inception_4a/output_0_split <- inception_4a/output
I0403 15:38:10.401912 10785 net.cpp:399] inception_4a/output_inception_4a/output_0_split -> inception_4a/output_inception_4a/output_0_split_0
I0403 15:38:10.401934 10785 net.cpp:399] inception_4a/output_inception_4a/output_0_split -> inception_4a/output_inception_4a/output_0_split_1
I0403 15:38:10.401959 10785 net.cpp:399] inception_4a/output_inception_4a/output_0_split -> inception_4a/output_inception_4a/output_0_split_2
I0403 15:38:10.401980 10785 net.cpp:399] inception_4a/output_inception_4a/output_0_split -> inception_4a/output_inception_4a/output_0_split_3
I0403 15:38:10.402000 10785 net.cpp:399] inception_4a/output_inception_4a/output_0_split -> inception_4a/output_inception_4a/output_0_split_4
I0403 15:38:10.402091 10785 net.cpp:141] Setting up inception_4a/output_inception_4a/output_0_split
I0403 15:38:10.402114 10785 net.cpp:148] Top shape: 24 512 14 14 (2408448)
I0403 15:38:10.402130 10785 net.cpp:148] Top shape: 24 512 14 14 (2408448)
I0403 15:38:10.402145 10785 net.cpp:148] Top shape: 24 512 14 14 (2408448)
I0403 15:38:10.402160 10785 net.cpp:148] Top shape: 24 512 14 14 (2408448)
I0403 15:38:10.402174 10785 net.cpp:148] Top shape: 24 512 14 14 (2408448)
I0403 15:38:10.402189 10785 net.cpp:156] Memory required for data: 944714784
I0403 15:38:10.402201 10785 layer_factory.hpp:77] Creating layer loss1/ave_pool
I0403 15:38:10.402218 10785 net.cpp:91] Creating Layer loss1/ave_pool
I0403 15:38:10.402235 10785 net.cpp:425] loss1/ave_pool <- inception_4a/output_inception_4a/output_0_split_0
I0403 15:38:10.402251 10785 net.cpp:399] loss1/ave_pool -> loss1/ave_pool
I0403 15:38:10.402446 10785 net.cpp:141] Setting up loss1/ave_pool
I0403 15:38:10.402470 10785 net.cpp:148] Top shape: 24 512 4 4 (196608)
I0403 15:38:10.402484 10785 net.cpp:156] Memory required for data: 945501216
I0403 15:38:10.402498 10785 layer_factory.hpp:77] Creating layer loss1/conv
I0403 15:38:10.402520 10785 net.cpp:91] Creating Layer loss1/conv
I0403 15:38:10.402537 10785 net.cpp:425] loss1/conv <- loss1/ave_pool
I0403 15:38:10.402557 10785 net.cpp:399] loss1/conv -> loss1/conv
I0403 15:38:10.403903 10785 net.cpp:141] Setting up loss1/conv
I0403 15:38:10.403931 10785 net.cpp:148] Top shape: 24 128 4 4 (49152)
I0403 15:38:10.403966 10785 net.cpp:156] Memory required for data: 945697824
I0403 15:38:10.403985 10785 layer_factory.hpp:77] Creating layer loss1/relu_conv
I0403 15:38:10.404006 10785 net.cpp:91] Creating Layer loss1/relu_conv
I0403 15:38:10.404022 10785 net.cpp:425] loss1/relu_conv <- loss1/conv
I0403 15:38:10.404038 10785 net.cpp:386] loss1/relu_conv -> loss1/conv (in-place)
I0403 15:38:10.404306 10785 net.cpp:141] Setting up loss1/relu_conv
I0403 15:38:10.404332 10785 net.cpp:148] Top shape: 24 128 4 4 (49152)
I0403 15:38:10.404346 10785 net.cpp:156] Memory required for data: 945894432
I0403 15:38:10.404361 10785 layer_factory.hpp:77] Creating layer loss1/fc
I0403 15:38:10.404386 10785 net.cpp:91] Creating Layer loss1/fc
I0403 15:38:10.404404 10785 net.cpp:425] loss1/fc <- loss1/conv
I0403 15:38:10.404423 10785 net.cpp:399] loss1/fc -> loss1/fc
I0403 15:38:10.421746 10785 net.cpp:141] Setting up loss1/fc
I0403 15:38:10.421779 10785 net.cpp:148] Top shape: 24 1024 (24576)
I0403 15:38:10.421794 10785 net.cpp:156] Memory required for data: 945992736
I0403 15:38:10.421811 10785 layer_factory.hpp:77] Creating layer loss1/relu_fc
I0403 15:38:10.421829 10785 net.cpp:91] Creating Layer loss1/relu_fc
I0403 15:38:10.421849 10785 net.cpp:425] loss1/relu_fc <- loss1/fc
I0403 15:38:10.421864 10785 net.cpp:386] loss1/relu_fc -> loss1/fc (in-place)
I0403 15:38:10.422046 10785 net.cpp:141] Setting up loss1/relu_fc
I0403 15:38:10.422070 10785 net.cpp:148] Top shape: 24 1024 (24576)
I0403 15:38:10.422085 10785 net.cpp:156] Memory required for data: 946091040
I0403 15:38:10.422098 10785 layer_factory.hpp:77] Creating layer loss1/drop_fc
I0403 15:38:10.422125 10785 net.cpp:91] Creating Layer loss1/drop_fc
I0403 15:38:10.422142 10785 net.cpp:425] loss1/drop_fc <- loss1/fc
I0403 15:38:10.422158 10785 net.cpp:386] loss1/drop_fc -> loss1/fc (in-place)
I0403 15:38:10.422207 10785 net.cpp:141] Setting up loss1/drop_fc
I0403 15:38:10.422233 10785 net.cpp:148] Top shape: 24 1024 (24576)
I0403 15:38:10.422250 10785 net.cpp:156] Memory required for data: 946189344
I0403 15:38:10.422263 10785 layer_factory.hpp:77] Creating layer loss1/classifier_plantvillage
I0403 15:38:10.422281 10785 net.cpp:91] Creating Layer loss1/classifier_plantvillage
I0403 15:38:10.422297 10785 net.cpp:425] loss1/classifier_plantvillage <- loss1/fc
I0403 15:38:10.422317 10785 net.cpp:399] loss1/classifier_plantvillage -> loss1/classifier_plantvillage
I0403 15:38:10.423223 10785 net.cpp:141] Setting up loss1/classifier_plantvillage
I0403 15:38:10.423249 10785 net.cpp:148] Top shape: 24 38 (912)
I0403 15:38:10.423264 10785 net.cpp:156] Memory required for data: 946192992
I0403 15:38:10.423280 10785 layer_factory.hpp:77] Creating layer loss1/classifier_plantvillage_loss1/classifier_plantvillage_0_split
I0403 15:38:10.423300 10785 net.cpp:91] Creating Layer loss1/classifier_plantvillage_loss1/classifier_plantvillage_0_split
I0403 15:38:10.423316 10785 net.cpp:425] loss1/classifier_plantvillage_loss1/classifier_plantvillage_0_split <- loss1/classifier_plantvillage
I0403 15:38:10.423333 10785 net.cpp:399] loss1/classifier_plantvillage_loss1/classifier_plantvillage_0_split -> loss1/classifier_plantvillage_loss1/classifier_plantvillage_0_split_0
I0403 15:38:10.423352 10785 net.cpp:399] loss1/classifier_plantvillage_loss1/classifier_plantvillage_0_split -> loss1/classifier_plantvillage_loss1/classifier_plantvillage_0_split_1
I0403 15:38:10.423372 10785 net.cpp:399] loss1/classifier_plantvillage_loss1/classifier_plantvillage_0_split -> loss1/classifier_plantvillage_loss1/classifier_plantvillage_0_split_2
I0403 15:38:10.423436 10785 net.cpp:141] Setting up loss1/classifier_plantvillage_loss1/classifier_plantvillage_0_split
I0403 15:38:10.423459 10785 net.cpp:148] Top shape: 24 38 (912)
I0403 15:38:10.423475 10785 net.cpp:148] Top shape: 24 38 (912)
I0403 15:38:10.423488 10785 net.cpp:148] Top shape: 24 38 (912)
I0403 15:38:10.423502 10785 net.cpp:156] Memory required for data: 946203936
I0403 15:38:10.423516 10785 layer_factory.hpp:77] Creating layer inception_4b/1x1
I0403 15:38:10.423535 10785 net.cpp:91] Creating Layer inception_4b/1x1
I0403 15:38:10.423566 10785 net.cpp:425] inception_4b/1x1 <- inception_4a/output_inception_4a/output_0_split_1
I0403 15:38:10.423588 10785 net.cpp:399] inception_4b/1x1 -> inception_4b/1x1
I0403 15:38:10.425166 10785 net.cpp:141] Setting up inception_4b/1x1
I0403 15:38:10.425195 10785 net.cpp:148] Top shape: 24 160 14 14 (752640)
I0403 15:38:10.425220 10785 net.cpp:156] Memory required for data: 949214496
I0403 15:38:10.425240 10785 layer_factory.hpp:77] Creating layer inception_4b/relu_1x1
I0403 15:38:10.425257 10785 net.cpp:91] Creating Layer inception_4b/relu_1x1
I0403 15:38:10.425272 10785 net.cpp:425] inception_4b/relu_1x1 <- inception_4b/1x1
I0403 15:38:10.425290 10785 net.cpp:386] inception_4b/relu_1x1 -> inception_4b/1x1 (in-place)
I0403 15:38:10.425462 10785 net.cpp:141] Setting up inception_4b/relu_1x1
I0403 15:38:10.425487 10785 net.cpp:148] Top shape: 24 160 14 14 (752640)
I0403 15:38:10.425510 10785 net.cpp:156] Memory required for data: 952225056
I0403 15:38:10.425524 10785 layer_factory.hpp:77] Creating layer inception_4b/3x3_reduce
I0403 15:38:10.425545 10785 net.cpp:91] Creating Layer inception_4b/3x3_reduce
I0403 15:38:10.425562 10785 net.cpp:425] inception_4b/3x3_reduce <- inception_4a/output_inception_4a/output_0_split_2
I0403 15:38:10.425581 10785 net.cpp:399] inception_4b/3x3_reduce -> inception_4b/3x3_reduce
I0403 15:38:10.426921 10785 net.cpp:141] Setting up inception_4b/3x3_reduce
I0403 15:38:10.426956 10785 net.cpp:148] Top shape: 24 112 14 14 (526848)
I0403 15:38:10.426973 10785 net.cpp:156] Memory required for data: 954332448
I0403 15:38:10.426992 10785 layer_factory.hpp:77] Creating layer inception_4b/relu_3x3_reduce
I0403 15:38:10.427011 10785 net.cpp:91] Creating Layer inception_4b/relu_3x3_reduce
I0403 15:38:10.427027 10785 net.cpp:425] inception_4b/relu_3x3_reduce <- inception_4b/3x3_reduce
I0403 15:38:10.427048 10785 net.cpp:386] inception_4b/relu_3x3_reduce -> inception_4b/3x3_reduce (in-place)
I0403 15:38:10.427327 10785 net.cpp:141] Setting up inception_4b/relu_3x3_reduce
I0403 15:38:10.427356 10785 net.cpp:148] Top shape: 24 112 14 14 (526848)
I0403 15:38:10.427371 10785 net.cpp:156] Memory required for data: 956439840
I0403 15:38:10.427386 10785 layer_factory.hpp:77] Creating layer inception_4b/3x3
I0403 15:38:10.427409 10785 net.cpp:91] Creating Layer inception_4b/3x3
I0403 15:38:10.427428 10785 net.cpp:425] inception_4b/3x3 <- inception_4b/3x3_reduce
I0403 15:38:10.427446 10785 net.cpp:399] inception_4b/3x3 -> inception_4b/3x3
I0403 15:38:10.430439 10785 net.cpp:141] Setting up inception_4b/3x3
I0403 15:38:10.430467 10785 net.cpp:148] Top shape: 24 224 14 14 (1053696)
I0403 15:38:10.430483 10785 net.cpp:156] Memory required for data: 960654624
I0403 15:38:10.430511 10785 layer_factory.hpp:77] Creating layer inception_4b/relu_3x3
I0403 15:38:10.430531 10785 net.cpp:91] Creating Layer inception_4b/relu_3x3
I0403 15:38:10.430549 10785 net.cpp:425] inception_4b/relu_3x3 <- inception_4b/3x3
I0403 15:38:10.430567 10785 net.cpp:386] inception_4b/relu_3x3 -> inception_4b/3x3 (in-place)
I0403 15:38:10.430745 10785 net.cpp:141] Setting up inception_4b/relu_3x3
I0403 15:38:10.430770 10785 net.cpp:148] Top shape: 24 224 14 14 (1053696)
I0403 15:38:10.430784 10785 net.cpp:156] Memory required for data: 964869408
I0403 15:38:10.430799 10785 layer_factory.hpp:77] Creating layer inception_4b/5x5_reduce
I0403 15:38:10.430827 10785 net.cpp:91] Creating Layer inception_4b/5x5_reduce
I0403 15:38:10.430846 10785 net.cpp:425] inception_4b/5x5_reduce <- inception_4a/output_inception_4a/output_0_split_3
I0403 15:38:10.430866 10785 net.cpp:399] inception_4b/5x5_reduce -> inception_4b/5x5_reduce
I0403 15:38:10.431942 10785 net.cpp:141] Setting up inception_4b/5x5_reduce
I0403 15:38:10.431975 10785 net.cpp:148] Top shape: 24 24 14 14 (112896)
I0403 15:38:10.431991 10785 net.cpp:156] Memory required for data: 965320992
I0403 15:38:10.432010 10785 layer_factory.hpp:77] Creating layer inception_4b/relu_5x5_reduce
I0403 15:38:10.432029 10785 net.cpp:91] Creating Layer inception_4b/relu_5x5_reduce
I0403 15:38:10.432060 10785 net.cpp:425] inception_4b/relu_5x5_reduce <- inception_4b/5x5_reduce
I0403 15:38:10.432080 10785 net.cpp:386] inception_4b/relu_5x5_reduce -> inception_4b/5x5_reduce (in-place)
I0403 15:38:10.432260 10785 net.cpp:141] Setting up inception_4b/relu_5x5_reduce
I0403 15:38:10.432284 10785 net.cpp:148] Top shape: 24 24 14 14 (112896)
I0403 15:38:10.432298 10785 net.cpp:156] Memory required for data: 965772576
I0403 15:38:10.432314 10785 layer_factory.hpp:77] Creating layer inception_4b/5x5
I0403 15:38:10.432335 10785 net.cpp:91] Creating Layer inception_4b/5x5
I0403 15:38:10.432353 10785 net.cpp:425] inception_4b/5x5 <- inception_4b/5x5_reduce
I0403 15:38:10.432374 10785 net.cpp:399] inception_4b/5x5 -> inception_4b/5x5
I0403 15:38:10.433601 10785 net.cpp:141] Setting up inception_4b/5x5
I0403 15:38:10.433631 10785 net.cpp:148] Top shape: 24 64 14 14 (301056)
I0403 15:38:10.433647 10785 net.cpp:156] Memory required for data: 966976800
I0403 15:38:10.433665 10785 layer_factory.hpp:77] Creating layer inception_4b/relu_5x5
I0403 15:38:10.433683 10785 net.cpp:91] Creating Layer inception_4b/relu_5x5
I0403 15:38:10.433699 10785 net.cpp:425] inception_4b/relu_5x5 <- inception_4b/5x5
I0403 15:38:10.433717 10785 net.cpp:386] inception_4b/relu_5x5 -> inception_4b/5x5 (in-place)
I0403 15:38:10.434001 10785 net.cpp:141] Setting up inception_4b/relu_5x5
I0403 15:38:10.434029 10785 net.cpp:148] Top shape: 24 64 14 14 (301056)
I0403 15:38:10.434046 10785 net.cpp:156] Memory required for data: 968181024
I0403 15:38:10.434061 10785 layer_factory.hpp:77] Creating layer inception_4b/pool
I0403 15:38:10.434079 10785 net.cpp:91] Creating Layer inception_4b/pool
I0403 15:38:10.434095 10785 net.cpp:425] inception_4b/pool <- inception_4a/output_inception_4a/output_0_split_4
I0403 15:38:10.434113 10785 net.cpp:399] inception_4b/pool -> inception_4b/pool
I0403 15:38:10.434180 10785 net.cpp:141] Setting up inception_4b/pool
I0403 15:38:10.434203 10785 net.cpp:148] Top shape: 24 512 14 14 (2408448)
I0403 15:38:10.434224 10785 net.cpp:156] Memory required for data: 977814816
I0403 15:38:10.434238 10785 layer_factory.hpp:77] Creating layer inception_4b/pool_proj
I0403 15:38:10.434260 10785 net.cpp:91] Creating Layer inception_4b/pool_proj
I0403 15:38:10.434278 10785 net.cpp:425] inception_4b/pool_proj <- inception_4b/pool
I0403 15:38:10.434303 10785 net.cpp:399] inception_4b/pool_proj -> inception_4b/pool_proj
I0403 15:38:10.435497 10785 net.cpp:141] Setting up inception_4b/pool_proj
I0403 15:38:10.435528 10785 net.cpp:148] Top shape: 24 64 14 14 (301056)
I0403 15:38:10.435544 10785 net.cpp:156] Memory required for data: 979019040
I0403 15:38:10.435562 10785 layer_factory.hpp:77] Creating layer inception_4b/relu_pool_proj
I0403 15:38:10.435580 10785 net.cpp:91] Creating Layer inception_4b/relu_pool_proj
I0403 15:38:10.435596 10785 net.cpp:425] inception_4b/relu_pool_proj <- inception_4b/pool_proj
I0403 15:38:10.435614 10785 net.cpp:386] inception_4b/relu_pool_proj -> inception_4b/pool_proj (in-place)
I0403 15:38:10.435794 10785 net.cpp:141] Setting up inception_4b/relu_pool_proj
I0403 15:38:10.435818 10785 net.cpp:148] Top shape: 24 64 14 14 (301056)
I0403 15:38:10.435833 10785 net.cpp:156] Memory required for data: 980223264
I0403 15:38:10.435847 10785 layer_factory.hpp:77] Creating layer inception_4b/output
I0403 15:38:10.435864 10785 net.cpp:91] Creating Layer inception_4b/output
I0403 15:38:10.435880 10785 net.cpp:425] inception_4b/output <- inception_4b/1x1
I0403 15:38:10.435896 10785 net.cpp:425] inception_4b/output <- inception_4b/3x3
I0403 15:38:10.435911 10785 net.cpp:425] inception_4b/output <- inception_4b/5x5
I0403 15:38:10.435928 10785 net.cpp:425] inception_4b/output <- inception_4b/pool_proj
I0403 15:38:10.435951 10785 net.cpp:399] inception_4b/output -> inception_4b/output
I0403 15:38:10.435998 10785 net.cpp:141] Setting up inception_4b/output
I0403 15:38:10.436023 10785 net.cpp:148] Top shape: 24 512 14 14 (2408448)
I0403 15:38:10.436038 10785 net.cpp:156] Memory required for data: 989857056
I0403 15:38:10.436066 10785 layer_factory.hpp:77] Creating layer inception_4b/output_inception_4b/output_0_split
I0403 15:38:10.436085 10785 net.cpp:91] Creating Layer inception_4b/output_inception_4b/output_0_split
I0403 15:38:10.436100 10785 net.cpp:425] inception_4b/output_inception_4b/output_0_split <- inception_4b/output
I0403 15:38:10.436118 10785 net.cpp:399] inception_4b/output_inception_4b/output_0_split -> inception_4b/output_inception_4b/output_0_split_0
I0403 15:38:10.436141 10785 net.cpp:399] inception_4b/output_inception_4b/output_0_split -> inception_4b/output_inception_4b/output_0_split_1
I0403 15:38:10.436161 10785 net.cpp:399] inception_4b/output_inception_4b/output_0_split -> inception_4b/output_inception_4b/output_0_split_2
I0403 15:38:10.436182 10785 net.cpp:399] inception_4b/output_inception_4b/output_0_split -> inception_4b/output_inception_4b/output_0_split_3
I0403 15:38:10.436264 10785 net.cpp:141] Setting up inception_4b/output_inception_4b/output_0_split
I0403 15:38:10.436287 10785 net.cpp:148] Top shape: 24 512 14 14 (2408448)
I0403 15:38:10.436302 10785 net.cpp:148] Top shape: 24 512 14 14 (2408448)
I0403 15:38:10.436317 10785 net.cpp:148] Top shape: 24 512 14 14 (2408448)
I0403 15:38:10.436333 10785 net.cpp:148] Top shape: 24 512 14 14 (2408448)
I0403 15:38:10.436347 10785 net.cpp:156] Memory required for data: 1028392224
I0403 15:38:10.436362 10785 layer_factory.hpp:77] Creating layer inception_4c/1x1
I0403 15:38:10.436383 10785 net.cpp:91] Creating Layer inception_4c/1x1
I0403 15:38:10.436399 10785 net.cpp:425] inception_4c/1x1 <- inception_4b/output_inception_4b/output_0_split_0
I0403 15:38:10.436420 10785 net.cpp:399] inception_4c/1x1 -> inception_4c/1x1
I0403 15:38:10.437855 10785 net.cpp:141] Setting up inception_4c/1x1
I0403 15:38:10.437882 10785 net.cpp:148] Top shape: 24 128 14 14 (602112)
I0403 15:38:10.437898 10785 net.cpp:156] Memory required for data: 1030800672
I0403 15:38:10.437917 10785 layer_factory.hpp:77] Creating layer inception_4c/relu_1x1
I0403 15:38:10.437938 10785 net.cpp:91] Creating Layer inception_4c/relu_1x1
I0403 15:38:10.437966 10785 net.cpp:425] inception_4c/relu_1x1 <- inception_4c/1x1
I0403 15:38:10.437986 10785 net.cpp:386] inception_4c/relu_1x1 -> inception_4c/1x1 (in-place)
I0403 15:38:10.438169 10785 net.cpp:141] Setting up inception_4c/relu_1x1
I0403 15:38:10.438194 10785 net.cpp:148] Top shape: 24 128 14 14 (602112)
I0403 15:38:10.438216 10785 net.cpp:156] Memory required for data: 1033209120
I0403 15:38:10.438230 10785 layer_factory.hpp:77] Creating layer inception_4c/3x3_reduce
I0403 15:38:10.438252 10785 net.cpp:91] Creating Layer inception_4c/3x3_reduce
I0403 15:38:10.438271 10785 net.cpp:425] inception_4c/3x3_reduce <- inception_4b/output_inception_4b/output_0_split_1
I0403 15:38:10.438292 10785 net.cpp:399] inception_4c/3x3_reduce -> inception_4c/3x3_reduce
I0403 15:38:10.440281 10785 net.cpp:141] Setting up inception_4c/3x3_reduce
I0403 15:38:10.440310 10785 net.cpp:148] Top shape: 24 128 14 14 (602112)
I0403 15:38:10.440325 10785 net.cpp:156] Memory required for data: 1035617568
I0403 15:38:10.440343 10785 layer_factory.hpp:77] Creating layer inception_4c/relu_3x3_reduce
I0403 15:38:10.440364 10785 net.cpp:91] Creating Layer inception_4c/relu_3x3_reduce
I0403 15:38:10.440382 10785 net.cpp:425] inception_4c/relu_3x3_reduce <- inception_4c/3x3_reduce
I0403 15:38:10.440399 10785 net.cpp:386] inception_4c/relu_3x3_reduce -> inception_4c/3x3_reduce (in-place)
I0403 15:38:10.440685 10785 net.cpp:141] Setting up inception_4c/relu_3x3_reduce
I0403 15:38:10.440709 10785 net.cpp:148] Top shape: 24 128 14 14 (602112)
I0403 15:38:10.440724 10785 net.cpp:156] Memory required for data: 1038026016
I0403 15:38:10.440738 10785 layer_factory.hpp:77] Creating layer inception_4c/3x3
I0403 15:38:10.440768 10785 net.cpp:91] Creating Layer inception_4c/3x3
I0403 15:38:10.440785 10785 net.cpp:425] inception_4c/3x3 <- inception_4c/3x3_reduce
I0403 15:38:10.440804 10785 net.cpp:399] inception_4c/3x3 -> inception_4c/3x3
I0403 15:38:10.444419 10785 net.cpp:141] Setting up inception_4c/3x3
I0403 15:38:10.444461 10785 net.cpp:148] Top shape: 24 256 14 14 (1204224)
I0403 15:38:10.444478 10785 net.cpp:156] Memory required for data: 1042842912
I0403 15:38:10.444507 10785 layer_factory.hpp:77] Creating layer inception_4c/relu_3x3
I0403 15:38:10.444527 10785 net.cpp:91] Creating Layer inception_4c/relu_3x3
I0403 15:38:10.444543 10785 net.cpp:425] inception_4c/relu_3x3 <- inception_4c/3x3
I0403 15:38:10.444560 10785 net.cpp:386] inception_4c/relu_3x3 -> inception_4c/3x3 (in-place)
I0403 15:38:10.444736 10785 net.cpp:141] Setting up inception_4c/relu_3x3
I0403 15:38:10.444763 10785 net.cpp:148] Top shape: 24 256 14 14 (1204224)
I0403 15:38:10.444778 10785 net.cpp:156] Memory required for data: 1047659808
I0403 15:38:10.444792 10785 layer_factory.hpp:77] Creating layer inception_4c/5x5_reduce
I0403 15:38:10.444815 10785 net.cpp:91] Creating Layer inception_4c/5x5_reduce
I0403 15:38:10.444833 10785 net.cpp:425] inception_4c/5x5_reduce <- inception_4b/output_inception_4b/output_0_split_2
I0403 15:38:10.444850 10785 net.cpp:399] inception_4c/5x5_reduce -> inception_4c/5x5_reduce
I0403 15:38:10.445917 10785 net.cpp:141] Setting up inception_4c/5x5_reduce
I0403 15:38:10.445950 10785 net.cpp:148] Top shape: 24 24 14 14 (112896)
I0403 15:38:10.445967 10785 net.cpp:156] Memory required for data: 1048111392
I0403 15:38:10.445986 10785 layer_factory.hpp:77] Creating layer inception_4c/relu_5x5_reduce
I0403 15:38:10.446002 10785 net.cpp:91] Creating Layer inception_4c/relu_5x5_reduce
I0403 15:38:10.446018 10785 net.cpp:425] inception_4c/relu_5x5_reduce <- inception_4c/5x5_reduce
I0403 15:38:10.446036 10785 net.cpp:386] inception_4c/relu_5x5_reduce -> inception_4c/5x5_reduce (in-place)
I0403 15:38:10.446224 10785 net.cpp:141] Setting up inception_4c/relu_5x5_reduce
I0403 15:38:10.446249 10785 net.cpp:148] Top shape: 24 24 14 14 (112896)
I0403 15:38:10.446264 10785 net.cpp:156] Memory required for data: 1048562976
I0403 15:38:10.446277 10785 layer_factory.hpp:77] Creating layer inception_4c/5x5
I0403 15:38:10.446298 10785 net.cpp:91] Creating Layer inception_4c/5x5
I0403 15:38:10.446316 10785 net.cpp:425] inception_4c/5x5 <- inception_4c/5x5_reduce
I0403 15:38:10.446336 10785 net.cpp:399] inception_4c/5x5 -> inception_4c/5x5
I0403 15:38:10.447554 10785 net.cpp:141] Setting up inception_4c/5x5
I0403 15:38:10.447581 10785 net.cpp:148] Top shape: 24 64 14 14 (301056)
I0403 15:38:10.447595 10785 net.cpp:156] Memory required for data: 1049767200
I0403 15:38:10.447613 10785 layer_factory.hpp:77] Creating layer inception_4c/relu_5x5
I0403 15:38:10.447630 10785 net.cpp:91] Creating Layer inception_4c/relu_5x5
I0403 15:38:10.447679 10785 net.cpp:425] inception_4c/relu_5x5 <- inception_4c/5x5
I0403 15:38:10.447696 10785 net.cpp:386] inception_4c/relu_5x5 -> inception_4c/5x5 (in-place)
I0403 15:38:10.448009 10785 net.cpp:141] Setting up inception_4c/relu_5x5
I0403 15:38:10.448034 10785 net.cpp:148] Top shape: 24 64 14 14 (301056)
I0403 15:38:10.448048 10785 net.cpp:156] Memory required for data: 1050971424
I0403 15:38:10.448062 10785 layer_factory.hpp:77] Creating layer inception_4c/pool
I0403 15:38:10.448079 10785 net.cpp:91] Creating Layer inception_4c/pool
I0403 15:38:10.448096 10785 net.cpp:425] inception_4c/pool <- inception_4b/output_inception_4b/output_0_split_3
I0403 15:38:10.448115 10785 net.cpp:399] inception_4c/pool -> inception_4c/pool
I0403 15:38:10.448180 10785 net.cpp:141] Setting up inception_4c/pool
I0403 15:38:10.448205 10785 net.cpp:148] Top shape: 24 512 14 14 (2408448)
I0403 15:38:10.448220 10785 net.cpp:156] Memory required for data: 1060605216
I0403 15:38:10.448233 10785 layer_factory.hpp:77] Creating layer inception_4c/pool_proj
I0403 15:38:10.448256 10785 net.cpp:91] Creating Layer inception_4c/pool_proj
I0403 15:38:10.448272 10785 net.cpp:425] inception_4c/pool_proj <- inception_4c/pool
I0403 15:38:10.448290 10785 net.cpp:399] inception_4c/pool_proj -> inception_4c/pool_proj
I0403 15:38:10.449468 10785 net.cpp:141] Setting up inception_4c/pool_proj
I0403 15:38:10.449498 10785 net.cpp:148] Top shape: 24 64 14 14 (301056)
I0403 15:38:10.449527 10785 net.cpp:156] Memory required for data: 1061809440
I0403 15:38:10.449545 10785 layer_factory.hpp:77] Creating layer inception_4c/relu_pool_proj
I0403 15:38:10.449563 10785 net.cpp:91] Creating Layer inception_4c/relu_pool_proj
I0403 15:38:10.449579 10785 net.cpp:425] inception_4c/relu_pool_proj <- inception_4c/pool_proj
I0403 15:38:10.449596 10785 net.cpp:386] inception_4c/relu_pool_proj -> inception_4c/pool_proj (in-place)
I0403 15:38:10.449776 10785 net.cpp:141] Setting up inception_4c/relu_pool_proj
I0403 15:38:10.449800 10785 net.cpp:148] Top shape: 24 64 14 14 (301056)
I0403 15:38:10.449815 10785 net.cpp:156] Memory required for data: 1063013664
I0403 15:38:10.449828 10785 layer_factory.hpp:77] Creating layer inception_4c/output
I0403 15:38:10.449846 10785 net.cpp:91] Creating Layer inception_4c/output
I0403 15:38:10.449861 10785 net.cpp:425] inception_4c/output <- inception_4c/1x1
I0403 15:38:10.449877 10785 net.cpp:425] inception_4c/output <- inception_4c/3x3
I0403 15:38:10.449892 10785 net.cpp:425] inception_4c/output <- inception_4c/5x5
I0403 15:38:10.449906 10785 net.cpp:425] inception_4c/output <- inception_4c/pool_proj
I0403 15:38:10.449926 10785 net.cpp:399] inception_4c/output -> inception_4c/output
I0403 15:38:10.449975 10785 net.cpp:141] Setting up inception_4c/output
I0403 15:38:10.449998 10785 net.cpp:148] Top shape: 24 512 14 14 (2408448)
I0403 15:38:10.450012 10785 net.cpp:156] Memory required for data: 1072647456
I0403 15:38:10.450026 10785 layer_factory.hpp:77] Creating layer inception_4c/output_inception_4c/output_0_split
I0403 15:38:10.450045 10785 net.cpp:91] Creating Layer inception_4c/output_inception_4c/output_0_split
I0403 15:38:10.450060 10785 net.cpp:425] inception_4c/output_inception_4c/output_0_split <- inception_4c/output
I0403 15:38:10.450078 10785 net.cpp:399] inception_4c/output_inception_4c/output_0_split -> inception_4c/output_inception_4c/output_0_split_0
I0403 15:38:10.450098 10785 net.cpp:399] inception_4c/output_inception_4c/output_0_split -> inception_4c/output_inception_4c/output_0_split_1
I0403 15:38:10.450119 10785 net.cpp:399] inception_4c/output_inception_4c/output_0_split -> inception_4c/output_inception_4c/output_0_split_2
I0403 15:38:10.450139 10785 net.cpp:399] inception_4c/output_inception_4c/output_0_split -> inception_4c/output_inception_4c/output_0_split_3
I0403 15:38:10.450222 10785 net.cpp:141] Setting up inception_4c/output_inception_4c/output_0_split
I0403 15:38:10.450243 10785 net.cpp:148] Top shape: 24 512 14 14 (2408448)
I0403 15:38:10.450258 10785 net.cpp:148] Top shape: 24 512 14 14 (2408448)
I0403 15:38:10.450273 10785 net.cpp:148] Top shape: 24 512 14 14 (2408448)
I0403 15:38:10.450287 10785 net.cpp:148] Top shape: 24 512 14 14 (2408448)
I0403 15:38:10.450301 10785 net.cpp:156] Memory required for data: 1111182624
I0403 15:38:10.450315 10785 layer_factory.hpp:77] Creating layer inception_4d/1x1
I0403 15:38:10.450336 10785 net.cpp:91] Creating Layer inception_4d/1x1
I0403 15:38:10.450353 10785 net.cpp:425] inception_4d/1x1 <- inception_4c/output_inception_4c/output_0_split_0
I0403 15:38:10.450374 10785 net.cpp:399] inception_4d/1x1 -> inception_4d/1x1
I0403 15:38:10.451711 10785 net.cpp:141] Setting up inception_4d/1x1
I0403 15:38:10.451738 10785 net.cpp:148] Top shape: 24 112 14 14 (526848)
I0403 15:38:10.451753 10785 net.cpp:156] Memory required for data: 1113290016
I0403 15:38:10.451771 10785 layer_factory.hpp:77] Creating layer inception_4d/relu_1x1
I0403 15:38:10.451792 10785 net.cpp:91] Creating Layer inception_4d/relu_1x1
I0403 15:38:10.451807 10785 net.cpp:425] inception_4d/relu_1x1 <- inception_4d/1x1
I0403 15:38:10.451824 10785 net.cpp:386] inception_4d/relu_1x1 -> inception_4d/1x1 (in-place)
I0403 15:38:10.452008 10785 net.cpp:141] Setting up inception_4d/relu_1x1
I0403 15:38:10.452031 10785 net.cpp:148] Top shape: 24 112 14 14 (526848)
I0403 15:38:10.452044 10785 net.cpp:156] Memory required for data: 1115397408
I0403 15:38:10.452059 10785 layer_factory.hpp:77] Creating layer inception_4d/3x3_reduce
I0403 15:38:10.452095 10785 net.cpp:91] Creating Layer inception_4d/3x3_reduce
I0403 15:38:10.452113 10785 net.cpp:425] inception_4d/3x3_reduce <- inception_4c/output_inception_4c/output_0_split_1
I0403 15:38:10.452131 10785 net.cpp:399] inception_4d/3x3_reduce -> inception_4d/3x3_reduce
I0403 15:38:10.453599 10785 net.cpp:141] Setting up inception_4d/3x3_reduce
I0403 15:38:10.453626 10785 net.cpp:148] Top shape: 24 144 14 14 (677376)
I0403 15:38:10.453641 10785 net.cpp:156] Memory required for data: 1118106912
I0403 15:38:10.453658 10785 layer_factory.hpp:77] Creating layer inception_4d/relu_3x3_reduce
I0403 15:38:10.453676 10785 net.cpp:91] Creating Layer inception_4d/relu_3x3_reduce
I0403 15:38:10.453692 10785 net.cpp:425] inception_4d/relu_3x3_reduce <- inception_4d/3x3_reduce
I0403 15:38:10.453711 10785 net.cpp:386] inception_4d/relu_3x3_reduce -> inception_4d/3x3_reduce (in-place)
I0403 15:38:10.454001 10785 net.cpp:141] Setting up inception_4d/relu_3x3_reduce
I0403 15:38:10.454026 10785 net.cpp:148] Top shape: 24 144 14 14 (677376)
I0403 15:38:10.454041 10785 net.cpp:156] Memory required for data: 1120816416
I0403 15:38:10.454056 10785 layer_factory.hpp:77] Creating layer inception_4d/3x3
I0403 15:38:10.454077 10785 net.cpp:91] Creating Layer inception_4d/3x3
I0403 15:38:10.454094 10785 net.cpp:425] inception_4d/3x3 <- inception_4d/3x3_reduce
I0403 15:38:10.454115 10785 net.cpp:399] inception_4d/3x3 -> inception_4d/3x3
I0403 15:38:10.458288 10785 net.cpp:141] Setting up inception_4d/3x3
I0403 15:38:10.458317 10785 net.cpp:148] Top shape: 24 288 14 14 (1354752)
I0403 15:38:10.458331 10785 net.cpp:156] Memory required for data: 1126235424
I0403 15:38:10.458349 10785 layer_factory.hpp:77] Creating layer inception_4d/relu_3x3
I0403 15:38:10.458370 10785 net.cpp:91] Creating Layer inception_4d/relu_3x3
I0403 15:38:10.458386 10785 net.cpp:425] inception_4d/relu_3x3 <- inception_4d/3x3
I0403 15:38:10.458403 10785 net.cpp:386] inception_4d/relu_3x3 -> inception_4d/3x3 (in-place)
I0403 15:38:10.458581 10785 net.cpp:141] Setting up inception_4d/relu_3x3
I0403 15:38:10.458607 10785 net.cpp:148] Top shape: 24 288 14 14 (1354752)
I0403 15:38:10.458622 10785 net.cpp:156] Memory required for data: 1131654432
I0403 15:38:10.458637 10785 layer_factory.hpp:77] Creating layer inception_4d/5x5_reduce
I0403 15:38:10.458657 10785 net.cpp:91] Creating Layer inception_4d/5x5_reduce
I0403 15:38:10.458675 10785 net.cpp:425] inception_4d/5x5_reduce <- inception_4c/output_inception_4c/output_0_split_2
I0403 15:38:10.458693 10785 net.cpp:399] inception_4d/5x5_reduce -> inception_4d/5x5_reduce
I0403 15:38:10.459811 10785 net.cpp:141] Setting up inception_4d/5x5_reduce
I0403 15:38:10.459838 10785 net.cpp:148] Top shape: 24 32 14 14 (150528)
I0403 15:38:10.459853 10785 net.cpp:156] Memory required for data: 1132256544
I0403 15:38:10.459872 10785 layer_factory.hpp:77] Creating layer inception_4d/relu_5x5_reduce
I0403 15:38:10.459890 10785 net.cpp:91] Creating Layer inception_4d/relu_5x5_reduce
I0403 15:38:10.459906 10785 net.cpp:425] inception_4d/relu_5x5_reduce <- inception_4d/5x5_reduce
I0403 15:38:10.459925 10785 net.cpp:386] inception_4d/relu_5x5_reduce -> inception_4d/5x5_reduce (in-place)
I0403 15:38:10.460109 10785 net.cpp:141] Setting up inception_4d/relu_5x5_reduce
I0403 15:38:10.460136 10785 net.cpp:148] Top shape: 24 32 14 14 (150528)
I0403 15:38:10.460151 10785 net.cpp:156] Memory required for data: 1132858656
I0403 15:38:10.460166 10785 layer_factory.hpp:77] Creating layer inception_4d/5x5
I0403 15:38:10.460187 10785 net.cpp:91] Creating Layer inception_4d/5x5
I0403 15:38:10.460203 10785 net.cpp:425] inception_4d/5x5 <- inception_4d/5x5_reduce
I0403 15:38:10.460222 10785 net.cpp:399] inception_4d/5x5 -> inception_4d/5x5
I0403 15:38:10.461665 10785 net.cpp:141] Setting up inception_4d/5x5
I0403 15:38:10.461694 10785 net.cpp:148] Top shape: 24 64 14 14 (301056)
I0403 15:38:10.461710 10785 net.cpp:156] Memory required for data: 1134062880
I0403 15:38:10.461729 10785 layer_factory.hpp:77] Creating layer inception_4d/relu_5x5
I0403 15:38:10.461760 10785 net.cpp:91] Creating Layer inception_4d/relu_5x5
I0403 15:38:10.461776 10785 net.cpp:425] inception_4d/relu_5x5 <- inception_4d/5x5
I0403 15:38:10.461796 10785 net.cpp:386] inception_4d/relu_5x5 -> inception_4d/5x5 (in-place)
I0403 15:38:10.462110 10785 net.cpp:141] Setting up inception_4d/relu_5x5
I0403 15:38:10.462137 10785 net.cpp:148] Top shape: 24 64 14 14 (301056)
I0403 15:38:10.462152 10785 net.cpp:156] Memory required for data: 1135267104
I0403 15:38:10.462167 10785 layer_factory.hpp:77] Creating layer inception_4d/pool
I0403 15:38:10.462184 10785 net.cpp:91] Creating Layer inception_4d/pool
I0403 15:38:10.462201 10785 net.cpp:425] inception_4d/pool <- inception_4c/output_inception_4c/output_0_split_3
I0403 15:38:10.462223 10785 net.cpp:399] inception_4d/pool -> inception_4d/pool
I0403 15:38:10.462290 10785 net.cpp:141] Setting up inception_4d/pool
I0403 15:38:10.462312 10785 net.cpp:148] Top shape: 24 512 14 14 (2408448)
I0403 15:38:10.462327 10785 net.cpp:156] Memory required for data: 1144900896
I0403 15:38:10.462342 10785 layer_factory.hpp:77] Creating layer inception_4d/pool_proj
I0403 15:38:10.462363 10785 net.cpp:91] Creating Layer inception_4d/pool_proj
I0403 15:38:10.462380 10785 net.cpp:425] inception_4d/pool_proj <- inception_4d/pool
I0403 15:38:10.462400 10785 net.cpp:399] inception_4d/pool_proj -> inception_4d/pool_proj
I0403 15:38:10.464179 10785 net.cpp:141] Setting up inception_4d/pool_proj
I0403 15:38:10.464207 10785 net.cpp:148] Top shape: 24 64 14 14 (301056)
I0403 15:38:10.464222 10785 net.cpp:156] Memory required for data: 1146105120
I0403 15:38:10.464241 10785 layer_factory.hpp:77] Creating layer inception_4d/relu_pool_proj
I0403 15:38:10.464262 10785 net.cpp:91] Creating Layer inception_4d/relu_pool_proj
I0403 15:38:10.464277 10785 net.cpp:425] inception_4d/relu_pool_proj <- inception_4d/pool_proj
I0403 15:38:10.464294 10785 net.cpp:386] inception_4d/relu_pool_proj -> inception_4d/pool_proj (in-place)
I0403 15:38:10.464475 10785 net.cpp:141] Setting up inception_4d/relu_pool_proj
I0403 15:38:10.464501 10785 net.cpp:148] Top shape: 24 64 14 14 (301056)
I0403 15:38:10.464516 10785 net.cpp:156] Memory required for data: 1147309344
I0403 15:38:10.464530 10785 layer_factory.hpp:77] Creating layer inception_4d/output
I0403 15:38:10.464547 10785 net.cpp:91] Creating Layer inception_4d/output
I0403 15:38:10.464562 10785 net.cpp:425] inception_4d/output <- inception_4d/1x1
I0403 15:38:10.464578 10785 net.cpp:425] inception_4d/output <- inception_4d/3x3
I0403 15:38:10.464593 10785 net.cpp:425] inception_4d/output <- inception_4d/5x5
I0403 15:38:10.464609 10785 net.cpp:425] inception_4d/output <- inception_4d/pool_proj
I0403 15:38:10.464625 10785 net.cpp:399] inception_4d/output -> inception_4d/output
I0403 15:38:10.464673 10785 net.cpp:141] Setting up inception_4d/output
I0403 15:38:10.464694 10785 net.cpp:148] Top shape: 24 528 14 14 (2483712)
I0403 15:38:10.464709 10785 net.cpp:156] Memory required for data: 1157244192
I0403 15:38:10.464722 10785 layer_factory.hpp:77] Creating layer inception_4d/output_inception_4d/output_0_split
I0403 15:38:10.464742 10785 net.cpp:91] Creating Layer inception_4d/output_inception_4d/output_0_split
I0403 15:38:10.464757 10785 net.cpp:425] inception_4d/output_inception_4d/output_0_split <- inception_4d/output
I0403 15:38:10.464774 10785 net.cpp:399] inception_4d/output_inception_4d/output_0_split -> inception_4d/output_inception_4d/output_0_split_0
I0403 15:38:10.464794 10785 net.cpp:399] inception_4d/output_inception_4d/output_0_split -> inception_4d/output_inception_4d/output_0_split_1
I0403 15:38:10.464813 10785 net.cpp:399] inception_4d/output_inception_4d/output_0_split -> inception_4d/output_inception_4d/output_0_split_2
I0403 15:38:10.464835 10785 net.cpp:399] inception_4d/output_inception_4d/output_0_split -> inception_4d/output_inception_4d/output_0_split_3
I0403 15:38:10.464855 10785 net.cpp:399] inception_4d/output_inception_4d/output_0_split -> inception_4d/output_inception_4d/output_0_split_4
I0403 15:38:10.464974 10785 net.cpp:141] Setting up inception_4d/output_inception_4d/output_0_split
I0403 15:38:10.465018 10785 net.cpp:148] Top shape: 24 528 14 14 (2483712)
I0403 15:38:10.465035 10785 net.cpp:148] Top shape: 24 528 14 14 (2483712)
I0403 15:38:10.465051 10785 net.cpp:148] Top shape: 24 528 14 14 (2483712)
I0403 15:38:10.465066 10785 net.cpp:148] Top shape: 24 528 14 14 (2483712)
I0403 15:38:10.465082 10785 net.cpp:148] Top shape: 24 528 14 14 (2483712)
I0403 15:38:10.465095 10785 net.cpp:156] Memory required for data: 1206918432
I0403 15:38:10.465111 10785 layer_factory.hpp:77] Creating layer loss2/ave_pool
I0403 15:38:10.465131 10785 net.cpp:91] Creating Layer loss2/ave_pool
I0403 15:38:10.465148 10785 net.cpp:425] loss2/ave_pool <- inception_4d/output_inception_4d/output_0_split_0
I0403 15:38:10.465167 10785 net.cpp:399] loss2/ave_pool -> loss2/ave_pool
I0403 15:38:10.465478 10785 net.cpp:141] Setting up loss2/ave_pool
I0403 15:38:10.465504 10785 net.cpp:148] Top shape: 24 528 4 4 (202752)
I0403 15:38:10.465520 10785 net.cpp:156] Memory required for data: 1207729440
I0403 15:38:10.465534 10785 layer_factory.hpp:77] Creating layer loss2/conv
I0403 15:38:10.465556 10785 net.cpp:91] Creating Layer loss2/conv
I0403 15:38:10.465574 10785 net.cpp:425] loss2/conv <- loss2/ave_pool
I0403 15:38:10.465595 10785 net.cpp:399] loss2/conv -> loss2/conv
I0403 15:38:10.467501 10785 net.cpp:141] Setting up loss2/conv
I0403 15:38:10.467528 10785 net.cpp:148] Top shape: 24 128 4 4 (49152)
I0403 15:38:10.467545 10785 net.cpp:156] Memory required for data: 1207926048
I0403 15:38:10.467562 10785 layer_factory.hpp:77] Creating layer loss2/relu_conv
I0403 15:38:10.467581 10785 net.cpp:91] Creating Layer loss2/relu_conv
I0403 15:38:10.467597 10785 net.cpp:425] loss2/relu_conv <- loss2/conv
I0403 15:38:10.467615 10785 net.cpp:386] loss2/relu_conv -> loss2/conv (in-place)
I0403 15:38:10.467902 10785 net.cpp:141] Setting up loss2/relu_conv
I0403 15:38:10.467931 10785 net.cpp:148] Top shape: 24 128 4 4 (49152)
I0403 15:38:10.467954 10785 net.cpp:156] Memory required for data: 1208122656
I0403 15:38:10.467972 10785 layer_factory.hpp:77] Creating layer loss2/fc
I0403 15:38:10.467991 10785 net.cpp:91] Creating Layer loss2/fc
I0403 15:38:10.468008 10785 net.cpp:425] loss2/fc <- loss2/conv
I0403 15:38:10.468029 10785 net.cpp:399] loss2/fc -> loss2/fc
I0403 15:38:10.485713 10785 net.cpp:141] Setting up loss2/fc
I0403 15:38:10.485745 10785 net.cpp:148] Top shape: 24 1024 (24576)
I0403 15:38:10.485761 10785 net.cpp:156] Memory required for data: 1208220960
I0403 15:38:10.485780 10785 layer_factory.hpp:77] Creating layer loss2/relu_fc
I0403 15:38:10.485797 10785 net.cpp:91] Creating Layer loss2/relu_fc
I0403 15:38:10.485812 10785 net.cpp:425] loss2/relu_fc <- loss2/fc
I0403 15:38:10.485829 10785 net.cpp:386] loss2/relu_fc -> loss2/fc (in-place)
I0403 15:38:10.486119 10785 net.cpp:141] Setting up loss2/relu_fc
I0403 15:38:10.486146 10785 net.cpp:148] Top shape: 24 1024 (24576)
I0403 15:38:10.486162 10785 net.cpp:156] Memory required for data: 1208319264
I0403 15:38:10.486176 10785 layer_factory.hpp:77] Creating layer loss2/drop_fc
I0403 15:38:10.486194 10785 net.cpp:91] Creating Layer loss2/drop_fc
I0403 15:38:10.486210 10785 net.cpp:425] loss2/drop_fc <- loss2/fc
I0403 15:38:10.486227 10785 net.cpp:386] loss2/drop_fc -> loss2/fc (in-place)
I0403 15:38:10.486275 10785 net.cpp:141] Setting up loss2/drop_fc
I0403 15:38:10.486297 10785 net.cpp:148] Top shape: 24 1024 (24576)
I0403 15:38:10.486311 10785 net.cpp:156] Memory required for data: 1208417568
I0403 15:38:10.486325 10785 layer_factory.hpp:77] Creating layer loss2/classifier_plantvillage
I0403 15:38:10.486345 10785 net.cpp:91] Creating Layer loss2/classifier_plantvillage
I0403 15:38:10.486361 10785 net.cpp:425] loss2/classifier_plantvillage <- loss2/fc
I0403 15:38:10.486378 10785 net.cpp:399] loss2/classifier_plantvillage -> loss2/classifier_plantvillage
I0403 15:38:10.486773 10785 net.cpp:141] Setting up loss2/classifier_plantvillage
I0403 15:38:10.486798 10785 net.cpp:148] Top shape: 24 38 (912)
I0403 15:38:10.486827 10785 net.cpp:156] Memory required for data: 1208421216
I0403 15:38:10.486845 10785 layer_factory.hpp:77] Creating layer loss2/classifier_plantvillage_loss2/classifier_plantvillage_0_split
I0403 15:38:10.486863 10785 net.cpp:91] Creating Layer loss2/classifier_plantvillage_loss2/classifier_plantvillage_0_split
I0403 15:38:10.486878 10785 net.cpp:425] loss2/classifier_plantvillage_loss2/classifier_plantvillage_0_split <- loss2/classifier_plantvillage
I0403 15:38:10.486897 10785 net.cpp:399] loss2/classifier_plantvillage_loss2/classifier_plantvillage_0_split -> loss2/classifier_plantvillage_loss2/classifier_plantvillage_0_split_0
I0403 15:38:10.486918 10785 net.cpp:399] loss2/classifier_plantvillage_loss2/classifier_plantvillage_0_split -> loss2/classifier_plantvillage_loss2/classifier_plantvillage_0_split_1
I0403 15:38:10.486938 10785 net.cpp:399] loss2/classifier_plantvillage_loss2/classifier_plantvillage_0_split -> loss2/classifier_plantvillage_loss2/classifier_plantvillage_0_split_2
I0403 15:38:10.487016 10785 net.cpp:141] Setting up loss2/classifier_plantvillage_loss2/classifier_plantvillage_0_split
I0403 15:38:10.487041 10785 net.cpp:148] Top shape: 24 38 (912)
I0403 15:38:10.487058 10785 net.cpp:148] Top shape: 24 38 (912)
I0403 15:38:10.487072 10785 net.cpp:148] Top shape: 24 38 (912)
I0403 15:38:10.487085 10785 net.cpp:156] Memory required for data: 1208432160
I0403 15:38:10.487099 10785 layer_factory.hpp:77] Creating layer inception_4e/1x1
I0403 15:38:10.487121 10785 net.cpp:91] Creating Layer inception_4e/1x1
I0403 15:38:10.487138 10785 net.cpp:425] inception_4e/1x1 <- inception_4d/output_inception_4d/output_0_split_1
I0403 15:38:10.487156 10785 net.cpp:399] inception_4e/1x1 -> inception_4e/1x1
I0403 15:38:10.488924 10785 net.cpp:141] Setting up inception_4e/1x1
I0403 15:38:10.488956 10785 net.cpp:148] Top shape: 24 256 14 14 (1204224)
I0403 15:38:10.488975 10785 net.cpp:156] Memory required for data: 1213249056
I0403 15:38:10.488992 10785 layer_factory.hpp:77] Creating layer inception_4e/relu_1x1
I0403 15:38:10.489009 10785 net.cpp:91] Creating Layer inception_4e/relu_1x1
I0403 15:38:10.489025 10785 net.cpp:425] inception_4e/relu_1x1 <- inception_4e/1x1
I0403 15:38:10.489043 10785 net.cpp:386] inception_4e/relu_1x1 -> inception_4e/1x1 (in-place)
I0403 15:38:10.489336 10785 net.cpp:141] Setting up inception_4e/relu_1x1
I0403 15:38:10.489362 10785 net.cpp:148] Top shape: 24 256 14 14 (1204224)
I0403 15:38:10.489378 10785 net.cpp:156] Memory required for data: 1218065952
I0403 15:38:10.489392 10785 layer_factory.hpp:77] Creating layer inception_4e/3x3_reduce
I0403 15:38:10.489413 10785 net.cpp:91] Creating Layer inception_4e/3x3_reduce
I0403 15:38:10.489431 10785 net.cpp:425] inception_4e/3x3_reduce <- inception_4d/output_inception_4d/output_0_split_2
I0403 15:38:10.489451 10785 net.cpp:399] inception_4e/3x3_reduce -> inception_4e/3x3_reduce
I0403 15:38:10.491544 10785 net.cpp:141] Setting up inception_4e/3x3_reduce
I0403 15:38:10.491574 10785 net.cpp:148] Top shape: 24 160 14 14 (752640)
I0403 15:38:10.491590 10785 net.cpp:156] Memory required for data: 1221076512
I0403 15:38:10.491607 10785 layer_factory.hpp:77] Creating layer inception_4e/relu_3x3_reduce
I0403 15:38:10.491626 10785 net.cpp:91] Creating Layer inception_4e/relu_3x3_reduce
I0403 15:38:10.491641 10785 net.cpp:425] inception_4e/relu_3x3_reduce <- inception_4e/3x3_reduce
I0403 15:38:10.491657 10785 net.cpp:386] inception_4e/relu_3x3_reduce -> inception_4e/3x3_reduce (in-place)
I0403 15:38:10.491842 10785 net.cpp:141] Setting up inception_4e/relu_3x3_reduce
I0403 15:38:10.491866 10785 net.cpp:148] Top shape: 24 160 14 14 (752640)
I0403 15:38:10.491880 10785 net.cpp:156] Memory required for data: 1224087072
I0403 15:38:10.491895 10785 layer_factory.hpp:77] Creating layer inception_4e/3x3
I0403 15:38:10.491916 10785 net.cpp:91] Creating Layer inception_4e/3x3
I0403 15:38:10.491932 10785 net.cpp:425] inception_4e/3x3 <- inception_4e/3x3_reduce
I0403 15:38:10.491957 10785 net.cpp:399] inception_4e/3x3 -> inception_4e/3x3
I0403 15:38:10.496884 10785 net.cpp:141] Setting up inception_4e/3x3
I0403 15:38:10.496924 10785 net.cpp:148] Top shape: 24 320 14 14 (1505280)
I0403 15:38:10.496940 10785 net.cpp:156] Memory required for data: 1230108192
I0403 15:38:10.496963 10785 layer_factory.hpp:77] Creating layer inception_4e/relu_3x3
I0403 15:38:10.496986 10785 net.cpp:91] Creating Layer inception_4e/relu_3x3
I0403 15:38:10.497004 10785 net.cpp:425] inception_4e/relu_3x3 <- inception_4e/3x3
I0403 15:38:10.497020 10785 net.cpp:386] inception_4e/relu_3x3 -> inception_4e/3x3 (in-place)
I0403 15:38:10.497308 10785 net.cpp:141] Setting up inception_4e/relu_3x3
I0403 15:38:10.497333 10785 net.cpp:148] Top shape: 24 320 14 14 (1505280)
I0403 15:38:10.497347 10785 net.cpp:156] Memory required for data: 1236129312
I0403 15:38:10.497361 10785 layer_factory.hpp:77] Creating layer inception_4e/5x5_reduce
I0403 15:38:10.497383 10785 net.cpp:91] Creating Layer inception_4e/5x5_reduce
I0403 15:38:10.497400 10785 net.cpp:425] inception_4e/5x5_reduce <- inception_4d/output_inception_4d/output_0_split_3
I0403 15:38:10.497421 10785 net.cpp:399] inception_4e/5x5_reduce -> inception_4e/5x5_reduce
I0403 15:38:10.498476 10785 net.cpp:141] Setting up inception_4e/5x5_reduce
I0403 15:38:10.498505 10785 net.cpp:148] Top shape: 24 32 14 14 (150528)
I0403 15:38:10.498522 10785 net.cpp:156] Memory required for data: 1236731424
I0403 15:38:10.498538 10785 layer_factory.hpp:77] Creating layer inception_4e/relu_5x5_reduce
I0403 15:38:10.498556 10785 net.cpp:91] Creating Layer inception_4e/relu_5x5_reduce
I0403 15:38:10.498572 10785 net.cpp:425] inception_4e/relu_5x5_reduce <- inception_4e/5x5_reduce
I0403 15:38:10.498591 10785 net.cpp:386] inception_4e/relu_5x5_reduce -> inception_4e/5x5_reduce (in-place)
I0403 15:38:10.498879 10785 net.cpp:141] Setting up inception_4e/relu_5x5_reduce
I0403 15:38:10.498905 10785 net.cpp:148] Top shape: 24 32 14 14 (150528)
I0403 15:38:10.498922 10785 net.cpp:156] Memory required for data: 1237333536
I0403 15:38:10.498936 10785 layer_factory.hpp:77] Creating layer inception_4e/5x5
I0403 15:38:10.498980 10785 net.cpp:91] Creating Layer inception_4e/5x5
I0403 15:38:10.498999 10785 net.cpp:425] inception_4e/5x5 <- inception_4e/5x5_reduce
I0403 15:38:10.499018 10785 net.cpp:399] inception_4e/5x5 -> inception_4e/5x5
I0403 15:38:10.500802 10785 net.cpp:141] Setting up inception_4e/5x5
I0403 15:38:10.500828 10785 net.cpp:148] Top shape: 24 128 14 14 (602112)
I0403 15:38:10.500844 10785 net.cpp:156] Memory required for data: 1239741984
I0403 15:38:10.500862 10785 layer_factory.hpp:77] Creating layer inception_4e/relu_5x5
I0403 15:38:10.500882 10785 net.cpp:91] Creating Layer inception_4e/relu_5x5
I0403 15:38:10.500898 10785 net.cpp:425] inception_4e/relu_5x5 <- inception_4e/5x5
I0403 15:38:10.500916 10785 net.cpp:386] inception_4e/relu_5x5 -> inception_4e/5x5 (in-place)
I0403 15:38:10.501113 10785 net.cpp:141] Setting up inception_4e/relu_5x5
I0403 15:38:10.501137 10785 net.cpp:148] Top shape: 24 128 14 14 (602112)
I0403 15:38:10.501150 10785 net.cpp:156] Memory required for data: 1242150432
I0403 15:38:10.501165 10785 layer_factory.hpp:77] Creating layer inception_4e/pool
I0403 15:38:10.501183 10785 net.cpp:91] Creating Layer inception_4e/pool
I0403 15:38:10.501197 10785 net.cpp:425] inception_4e/pool <- inception_4d/output_inception_4d/output_0_split_4
I0403 15:38:10.501216 10785 net.cpp:399] inception_4e/pool -> inception_4e/pool
I0403 15:38:10.501284 10785 net.cpp:141] Setting up inception_4e/pool
I0403 15:38:10.501307 10785 net.cpp:148] Top shape: 24 528 14 14 (2483712)
I0403 15:38:10.501320 10785 net.cpp:156] Memory required for data: 1252085280
I0403 15:38:10.501334 10785 layer_factory.hpp:77] Creating layer inception_4e/pool_proj
I0403 15:38:10.501358 10785 net.cpp:91] Creating Layer inception_4e/pool_proj
I0403 15:38:10.501374 10785 net.cpp:425] inception_4e/pool_proj <- inception_4e/pool
I0403 15:38:10.501392 10785 net.cpp:399] inception_4e/pool_proj -> inception_4e/pool_proj
I0403 15:38:10.502876 10785 net.cpp:141] Setting up inception_4e/pool_proj
I0403 15:38:10.502912 10785 net.cpp:148] Top shape: 24 128 14 14 (602112)
I0403 15:38:10.502928 10785 net.cpp:156] Memory required for data: 1254493728
I0403 15:38:10.502949 10785 layer_factory.hpp:77] Creating layer inception_4e/relu_pool_proj
I0403 15:38:10.502970 10785 net.cpp:91] Creating Layer inception_4e/relu_pool_proj
I0403 15:38:10.502986 10785 net.cpp:425] inception_4e/relu_pool_proj <- inception_4e/pool_proj
I0403 15:38:10.503003 10785 net.cpp:386] inception_4e/relu_pool_proj -> inception_4e/pool_proj (in-place)
I0403 15:38:10.503286 10785 net.cpp:141] Setting up inception_4e/relu_pool_proj
I0403 15:38:10.503310 10785 net.cpp:148] Top shape: 24 128 14 14 (602112)
I0403 15:38:10.503325 10785 net.cpp:156] Memory required for data: 1256902176
I0403 15:38:10.503340 10785 layer_factory.hpp:77] Creating layer inception_4e/output
I0403 15:38:10.503360 10785 net.cpp:91] Creating Layer inception_4e/output
I0403 15:38:10.503374 10785 net.cpp:425] inception_4e/output <- inception_4e/1x1
I0403 15:38:10.503391 10785 net.cpp:425] inception_4e/output <- inception_4e/3x3
I0403 15:38:10.503406 10785 net.cpp:425] inception_4e/output <- inception_4e/5x5
I0403 15:38:10.503420 10785 net.cpp:425] inception_4e/output <- inception_4e/pool_proj
I0403 15:38:10.503437 10785 net.cpp:399] inception_4e/output -> inception_4e/output
I0403 15:38:10.503486 10785 net.cpp:141] Setting up inception_4e/output
I0403 15:38:10.503509 10785 net.cpp:148] Top shape: 24 832 14 14 (3913728)
I0403 15:38:10.503521 10785 net.cpp:156] Memory required for data: 1272557088
I0403 15:38:10.503536 10785 layer_factory.hpp:77] Creating layer pool4/3x3_s2
I0403 15:38:10.503552 10785 net.cpp:91] Creating Layer pool4/3x3_s2
I0403 15:38:10.503567 10785 net.cpp:425] pool4/3x3_s2 <- inception_4e/output
I0403 15:38:10.503587 10785 net.cpp:399] pool4/3x3_s2 -> pool4/3x3_s2
I0403 15:38:10.503651 10785 net.cpp:141] Setting up pool4/3x3_s2
I0403 15:38:10.503674 10785 net.cpp:148] Top shape: 24 832 7 7 (978432)
I0403 15:38:10.503687 10785 net.cpp:156] Memory required for data: 1276470816
I0403 15:38:10.503701 10785 layer_factory.hpp:77] Creating layer pool4/3x3_s2_pool4/3x3_s2_0_split
I0403 15:38:10.503721 10785 net.cpp:91] Creating Layer pool4/3x3_s2_pool4/3x3_s2_0_split
I0403 15:38:10.503737 10785 net.cpp:425] pool4/3x3_s2_pool4/3x3_s2_0_split <- pool4/3x3_s2
I0403 15:38:10.503756 10785 net.cpp:399] pool4/3x3_s2_pool4/3x3_s2_0_split -> pool4/3x3_s2_pool4/3x3_s2_0_split_0
I0403 15:38:10.503775 10785 net.cpp:399] pool4/3x3_s2_pool4/3x3_s2_0_split -> pool4/3x3_s2_pool4/3x3_s2_0_split_1
I0403 15:38:10.503795 10785 net.cpp:399] pool4/3x3_s2_pool4/3x3_s2_0_split -> pool4/3x3_s2_pool4/3x3_s2_0_split_2
I0403 15:38:10.503814 10785 net.cpp:399] pool4/3x3_s2_pool4/3x3_s2_0_split -> pool4/3x3_s2_pool4/3x3_s2_0_split_3
I0403 15:38:10.503902 10785 net.cpp:141] Setting up pool4/3x3_s2_pool4/3x3_s2_0_split
I0403 15:38:10.503932 10785 net.cpp:148] Top shape: 24 832 7 7 (978432)
I0403 15:38:10.503953 10785 net.cpp:148] Top shape: 24 832 7 7 (978432)
I0403 15:38:10.503970 10785 net.cpp:148] Top shape: 24 832 7 7 (978432)
I0403 15:38:10.503985 10785 net.cpp:148] Top shape: 24 832 7 7 (978432)
I0403 15:38:10.503998 10785 net.cpp:156] Memory required for data: 1292125728
I0403 15:38:10.504012 10785 layer_factory.hpp:77] Creating layer inception_5a/1x1
I0403 15:38:10.504032 10785 net.cpp:91] Creating Layer inception_5a/1x1
I0403 15:38:10.504047 10785 net.cpp:425] inception_5a/1x1 <- pool4/3x3_s2_pool4/3x3_s2_0_split_0
I0403 15:38:10.504068 10785 net.cpp:399] inception_5a/1x1 -> inception_5a/1x1
I0403 15:38:10.506866 10785 net.cpp:141] Setting up inception_5a/1x1
I0403 15:38:10.506896 10785 net.cpp:148] Top shape: 24 256 7 7 (301056)
I0403 15:38:10.506912 10785 net.cpp:156] Memory required for data: 1293329952
I0403 15:38:10.506932 10785 layer_factory.hpp:77] Creating layer inception_5a/relu_1x1
I0403 15:38:10.506953 10785 net.cpp:91] Creating Layer inception_5a/relu_1x1
I0403 15:38:10.506969 10785 net.cpp:425] inception_5a/relu_1x1 <- inception_5a/1x1
I0403 15:38:10.506986 10785 net.cpp:386] inception_5a/relu_1x1 -> inception_5a/1x1 (in-place)
I0403 15:38:10.507292 10785 net.cpp:141] Setting up inception_5a/relu_1x1
I0403 15:38:10.507319 10785 net.cpp:148] Top shape: 24 256 7 7 (301056)
I0403 15:38:10.507334 10785 net.cpp:156] Memory required for data: 1294534176
I0403 15:38:10.507349 10785 layer_factory.hpp:77] Creating layer inception_5a/3x3_reduce
I0403 15:38:10.507370 10785 net.cpp:91] Creating Layer inception_5a/3x3_reduce
I0403 15:38:10.507386 10785 net.cpp:425] inception_5a/3x3_reduce <- pool4/3x3_s2_pool4/3x3_s2_0_split_1
I0403 15:38:10.507405 10785 net.cpp:399] inception_5a/3x3_reduce -> inception_5a/3x3_reduce
I0403 15:38:10.509821 10785 net.cpp:141] Setting up inception_5a/3x3_reduce
I0403 15:38:10.509850 10785 net.cpp:148] Top shape: 24 160 7 7 (188160)
I0403 15:38:10.509865 10785 net.cpp:156] Memory required for data: 1295286816
I0403 15:38:10.509883 10785 layer_factory.hpp:77] Creating layer inception_5a/relu_3x3_reduce
I0403 15:38:10.509903 10785 net.cpp:91] Creating Layer inception_5a/relu_3x3_reduce
I0403 15:38:10.509922 10785 net.cpp:425] inception_5a/relu_3x3_reduce <- inception_5a/3x3_reduce
I0403 15:38:10.509938 10785 net.cpp:386] inception_5a/relu_3x3_reduce -> inception_5a/3x3_reduce (in-place)
I0403 15:38:10.510123 10785 net.cpp:141] Setting up inception_5a/relu_3x3_reduce
I0403 15:38:10.510149 10785 net.cpp:148] Top shape: 24 160 7 7 (188160)
I0403 15:38:10.510164 10785 net.cpp:156] Memory required for data: 1296039456
I0403 15:38:10.510179 10785 layer_factory.hpp:77] Creating layer inception_5a/3x3
I0403 15:38:10.510201 10785 net.cpp:91] Creating Layer inception_5a/3x3
I0403 15:38:10.510227 10785 net.cpp:425] inception_5a/3x3 <- inception_5a/3x3_reduce
I0403 15:38:10.510246 10785 net.cpp:399] inception_5a/3x3 -> inception_5a/3x3
I0403 15:38:10.515209 10785 net.cpp:141] Setting up inception_5a/3x3
I0403 15:38:10.515238 10785 net.cpp:148] Top shape: 24 320 7 7 (376320)
I0403 15:38:10.515252 10785 net.cpp:156] Memory required for data: 1297544736
I0403 15:38:10.515270 10785 layer_factory.hpp:77] Creating layer inception_5a/relu_3x3
I0403 15:38:10.515290 10785 net.cpp:91] Creating Layer inception_5a/relu_3x3
I0403 15:38:10.515306 10785 net.cpp:425] inception_5a/relu_3x3 <- inception_5a/3x3
I0403 15:38:10.515323 10785 net.cpp:386] inception_5a/relu_3x3 -> inception_5a/3x3 (in-place)
I0403 15:38:10.515611 10785 net.cpp:141] Setting up inception_5a/relu_3x3
I0403 15:38:10.515636 10785 net.cpp:148] Top shape: 24 320 7 7 (376320)
I0403 15:38:10.515651 10785 net.cpp:156] Memory required for data: 1299050016
I0403 15:38:10.515666 10785 layer_factory.hpp:77] Creating layer inception_5a/5x5_reduce
I0403 15:38:10.515691 10785 net.cpp:91] Creating Layer inception_5a/5x5_reduce
I0403 15:38:10.515707 10785 net.cpp:425] inception_5a/5x5_reduce <- pool4/3x3_s2_pool4/3x3_s2_0_split_2
I0403 15:38:10.515727 10785 net.cpp:399] inception_5a/5x5_reduce -> inception_5a/5x5_reduce
I0403 15:38:10.516866 10785 net.cpp:141] Setting up inception_5a/5x5_reduce
I0403 15:38:10.516896 10785 net.cpp:148] Top shape: 24 32 7 7 (37632)
I0403 15:38:10.516911 10785 net.cpp:156] Memory required for data: 1299200544
I0403 15:38:10.516930 10785 layer_factory.hpp:77] Creating layer inception_5a/relu_5x5_reduce
I0403 15:38:10.516952 10785 net.cpp:91] Creating Layer inception_5a/relu_5x5_reduce
I0403 15:38:10.516969 10785 net.cpp:425] inception_5a/relu_5x5_reduce <- inception_5a/5x5_reduce
I0403 15:38:10.516988 10785 net.cpp:386] inception_5a/relu_5x5_reduce -> inception_5a/5x5_reduce (in-place)
I0403 15:38:10.517279 10785 net.cpp:141] Setting up inception_5a/relu_5x5_reduce
I0403 15:38:10.517304 10785 net.cpp:148] Top shape: 24 32 7 7 (37632)
I0403 15:38:10.517319 10785 net.cpp:156] Memory required for data: 1299351072
I0403 15:38:10.517333 10785 layer_factory.hpp:77] Creating layer inception_5a/5x5
I0403 15:38:10.517355 10785 net.cpp:91] Creating Layer inception_5a/5x5
I0403 15:38:10.517374 10785 net.cpp:425] inception_5a/5x5 <- inception_5a/5x5_reduce
I0403 15:38:10.517393 10785 net.cpp:399] inception_5a/5x5 -> inception_5a/5x5
I0403 15:38:10.519073 10785 net.cpp:141] Setting up inception_5a/5x5
I0403 15:38:10.519114 10785 net.cpp:148] Top shape: 24 128 7 7 (150528)
I0403 15:38:10.519129 10785 net.cpp:156] Memory required for data: 1299953184
I0403 15:38:10.519147 10785 layer_factory.hpp:77] Creating layer inception_5a/relu_5x5
I0403 15:38:10.519167 10785 net.cpp:91] Creating Layer inception_5a/relu_5x5
I0403 15:38:10.519183 10785 net.cpp:425] inception_5a/relu_5x5 <- inception_5a/5x5
I0403 15:38:10.519201 10785 net.cpp:386] inception_5a/relu_5x5 -> inception_5a/5x5 (in-place)
I0403 15:38:10.519387 10785 net.cpp:141] Setting up inception_5a/relu_5x5
I0403 15:38:10.519410 10785 net.cpp:148] Top shape: 24 128 7 7 (150528)
I0403 15:38:10.519424 10785 net.cpp:156] Memory required for data: 1300555296
I0403 15:38:10.519439 10785 layer_factory.hpp:77] Creating layer inception_5a/pool
I0403 15:38:10.519456 10785 net.cpp:91] Creating Layer inception_5a/pool
I0403 15:38:10.519471 10785 net.cpp:425] inception_5a/pool <- pool4/3x3_s2_pool4/3x3_s2_0_split_3
I0403 15:38:10.519491 10785 net.cpp:399] inception_5a/pool -> inception_5a/pool
I0403 15:38:10.519561 10785 net.cpp:141] Setting up inception_5a/pool
I0403 15:38:10.519583 10785 net.cpp:148] Top shape: 24 832 7 7 (978432)
I0403 15:38:10.519598 10785 net.cpp:156] Memory required for data: 1304469024
I0403 15:38:10.519613 10785 layer_factory.hpp:77] Creating layer inception_5a/pool_proj
I0403 15:38:10.519635 10785 net.cpp:91] Creating Layer inception_5a/pool_proj
I0403 15:38:10.519652 10785 net.cpp:425] inception_5a/pool_proj <- inception_5a/pool
I0403 15:38:10.519670 10785 net.cpp:399] inception_5a/pool_proj -> inception_5a/pool_proj
I0403 15:38:10.521927 10785 net.cpp:141] Setting up inception_5a/pool_proj
I0403 15:38:10.521960 10785 net.cpp:148] Top shape: 24 128 7 7 (150528)
I0403 15:38:10.521975 10785 net.cpp:156] Memory required for data: 1305071136
I0403 15:38:10.521992 10785 layer_factory.hpp:77] Creating layer inception_5a/relu_pool_proj
I0403 15:38:10.522012 10785 net.cpp:91] Creating Layer inception_5a/relu_pool_proj
I0403 15:38:10.522029 10785 net.cpp:425] inception_5a/relu_pool_proj <- inception_5a/pool_proj
I0403 15:38:10.522047 10785 net.cpp:386] inception_5a/relu_pool_proj -> inception_5a/pool_proj (in-place)
I0403 15:38:10.522351 10785 net.cpp:141] Setting up inception_5a/relu_pool_proj
I0403 15:38:10.522377 10785 net.cpp:148] Top shape: 24 128 7 7 (150528)
I0403 15:38:10.522392 10785 net.cpp:156] Memory required for data: 1305673248
I0403 15:38:10.522405 10785 layer_factory.hpp:77] Creating layer inception_5a/output
I0403 15:38:10.522425 10785 net.cpp:91] Creating Layer inception_5a/output
I0403 15:38:10.522441 10785 net.cpp:425] inception_5a/output <- inception_5a/1x1
I0403 15:38:10.522459 10785 net.cpp:425] inception_5a/output <- inception_5a/3x3
I0403 15:38:10.522475 10785 net.cpp:425] inception_5a/output <- inception_5a/5x5
I0403 15:38:10.522490 10785 net.cpp:425] inception_5a/output <- inception_5a/pool_proj
I0403 15:38:10.522511 10785 net.cpp:399] inception_5a/output -> inception_5a/output
I0403 15:38:10.522562 10785 net.cpp:141] Setting up inception_5a/output
I0403 15:38:10.522584 10785 net.cpp:148] Top shape: 24 832 7 7 (978432)
I0403 15:38:10.522598 10785 net.cpp:156] Memory required for data: 1309586976
I0403 15:38:10.522613 10785 layer_factory.hpp:77] Creating layer inception_5a/output_inception_5a/output_0_split
I0403 15:38:10.522629 10785 net.cpp:91] Creating Layer inception_5a/output_inception_5a/output_0_split
I0403 15:38:10.522644 10785 net.cpp:425] inception_5a/output_inception_5a/output_0_split <- inception_5a/output
I0403 15:38:10.522663 10785 net.cpp:399] inception_5a/output_inception_5a/output_0_split -> inception_5a/output_inception_5a/output_0_split_0
I0403 15:38:10.522683 10785 net.cpp:399] inception_5a/output_inception_5a/output_0_split -> inception_5a/output_inception_5a/output_0_split_1
I0403 15:38:10.522703 10785 net.cpp:399] inception_5a/output_inception_5a/output_0_split -> inception_5a/output_inception_5a/output_0_split_2
I0403 15:38:10.522723 10785 net.cpp:399] inception_5a/output_inception_5a/output_0_split -> inception_5a/output_inception_5a/output_0_split_3
I0403 15:38:10.522833 10785 net.cpp:141] Setting up inception_5a/output_inception_5a/output_0_split
I0403 15:38:10.522856 10785 net.cpp:148] Top shape: 24 832 7 7 (978432)
I0403 15:38:10.522872 10785 net.cpp:148] Top shape: 24 832 7 7 (978432)
I0403 15:38:10.522887 10785 net.cpp:148] Top shape: 24 832 7 7 (978432)
I0403 15:38:10.522902 10785 net.cpp:148] Top shape: 24 832 7 7 (978432)
I0403 15:38:10.522917 10785 net.cpp:156] Memory required for data: 1325241888
I0403 15:38:10.522930 10785 layer_factory.hpp:77] Creating layer inception_5b/1x1
I0403 15:38:10.522969 10785 net.cpp:91] Creating Layer inception_5b/1x1
I0403 15:38:10.522989 10785 net.cpp:425] inception_5b/1x1 <- inception_5a/output_inception_5a/output_0_split_0
I0403 15:38:10.523020 10785 net.cpp:399] inception_5b/1x1 -> inception_5b/1x1
I0403 15:38:10.526849 10785 net.cpp:141] Setting up inception_5b/1x1
I0403 15:38:10.526877 10785 net.cpp:148] Top shape: 24 384 7 7 (451584)
I0403 15:38:10.526893 10785 net.cpp:156] Memory required for data: 1327048224
I0403 15:38:10.526911 10785 layer_factory.hpp:77] Creating layer inception_5b/relu_1x1
I0403 15:38:10.526933 10785 net.cpp:91] Creating Layer inception_5b/relu_1x1
I0403 15:38:10.526954 10785 net.cpp:425] inception_5b/relu_1x1 <- inception_5b/1x1
I0403 15:38:10.526973 10785 net.cpp:386] inception_5b/relu_1x1 -> inception_5b/1x1 (in-place)
I0403 15:38:10.527278 10785 net.cpp:141] Setting up inception_5b/relu_1x1
I0403 15:38:10.527304 10785 net.cpp:148] Top shape: 24 384 7 7 (451584)
I0403 15:38:10.527319 10785 net.cpp:156] Memory required for data: 1328854560
I0403 15:38:10.527333 10785 layer_factory.hpp:77] Creating layer inception_5b/3x3_reduce
I0403 15:38:10.527355 10785 net.cpp:91] Creating Layer inception_5b/3x3_reduce
I0403 15:38:10.527374 10785 net.cpp:425] inception_5b/3x3_reduce <- inception_5a/output_inception_5a/output_0_split_1
I0403 15:38:10.527395 10785 net.cpp:399] inception_5b/3x3_reduce -> inception_5b/3x3_reduce
I0403 15:38:10.530089 10785 net.cpp:141] Setting up inception_5b/3x3_reduce
I0403 15:38:10.530118 10785 net.cpp:148] Top shape: 24 192 7 7 (225792)
I0403 15:38:10.530134 10785 net.cpp:156] Memory required for data: 1329757728
I0403 15:38:10.530153 10785 layer_factory.hpp:77] Creating layer inception_5b/relu_3x3_reduce
I0403 15:38:10.530174 10785 net.cpp:91] Creating Layer inception_5b/relu_3x3_reduce
I0403 15:38:10.530190 10785 net.cpp:425] inception_5b/relu_3x3_reduce <- inception_5b/3x3_reduce
I0403 15:38:10.530208 10785 net.cpp:386] inception_5b/relu_3x3_reduce -> inception_5b/3x3_reduce (in-place)
I0403 15:38:10.530400 10785 net.cpp:141] Setting up inception_5b/relu_3x3_reduce
I0403 15:38:10.530426 10785 net.cpp:148] Top shape: 24 192 7 7 (225792)
I0403 15:38:10.530441 10785 net.cpp:156] Memory required for data: 1330660896
I0403 15:38:10.530457 10785 layer_factory.hpp:77] Creating layer inception_5b/3x3
I0403 15:38:10.530479 10785 net.cpp:91] Creating Layer inception_5b/3x3
I0403 15:38:10.530496 10785 net.cpp:425] inception_5b/3x3 <- inception_5b/3x3_reduce
I0403 15:38:10.530516 10785 net.cpp:399] inception_5b/3x3 -> inception_5b/3x3
I0403 15:38:10.537298 10785 net.cpp:141] Setting up inception_5b/3x3
I0403 15:38:10.537327 10785 net.cpp:148] Top shape: 24 384 7 7 (451584)
I0403 15:38:10.537343 10785 net.cpp:156] Memory required for data: 1332467232
I0403 15:38:10.537360 10785 layer_factory.hpp:77] Creating layer inception_5b/relu_3x3
I0403 15:38:10.537381 10785 net.cpp:91] Creating Layer inception_5b/relu_3x3
I0403 15:38:10.537398 10785 net.cpp:425] inception_5b/relu_3x3 <- inception_5b/3x3
I0403 15:38:10.537415 10785 net.cpp:386] inception_5b/relu_3x3 -> inception_5b/3x3 (in-place)
I0403 15:38:10.537719 10785 net.cpp:141] Setting up inception_5b/relu_3x3
I0403 15:38:10.537744 10785 net.cpp:148] Top shape: 24 384 7 7 (451584)
I0403 15:38:10.537760 10785 net.cpp:156] Memory required for data: 1334273568
I0403 15:38:10.537773 10785 layer_factory.hpp:77] Creating layer inception_5b/5x5_reduce
I0403 15:38:10.537811 10785 net.cpp:91] Creating Layer inception_5b/5x5_reduce
I0403 15:38:10.537830 10785 net.cpp:425] inception_5b/5x5_reduce <- inception_5a/output_inception_5a/output_0_split_2
I0403 15:38:10.537852 10785 net.cpp:399] inception_5b/5x5_reduce -> inception_5b/5x5_reduce
I0403 15:38:10.539186 10785 net.cpp:141] Setting up inception_5b/5x5_reduce
I0403 15:38:10.539213 10785 net.cpp:148] Top shape: 24 48 7 7 (56448)
I0403 15:38:10.539228 10785 net.cpp:156] Memory required for data: 1334499360
I0403 15:38:10.539247 10785 layer_factory.hpp:77] Creating layer inception_5b/relu_5x5_reduce
I0403 15:38:10.539266 10785 net.cpp:91] Creating Layer inception_5b/relu_5x5_reduce
I0403 15:38:10.539283 10785 net.cpp:425] inception_5b/relu_5x5_reduce <- inception_5b/5x5_reduce
I0403 15:38:10.539301 10785 net.cpp:386] inception_5b/relu_5x5_reduce -> inception_5b/5x5_reduce (in-place)
I0403 15:38:10.539677 10785 net.cpp:141] Setting up inception_5b/relu_5x5_reduce
I0403 15:38:10.539703 10785 net.cpp:148] Top shape: 24 48 7 7 (56448)
I0403 15:38:10.539718 10785 net.cpp:156] Memory required for data: 1334725152
I0403 15:38:10.539733 10785 layer_factory.hpp:77] Creating layer inception_5b/5x5
I0403 15:38:10.539754 10785 net.cpp:91] Creating Layer inception_5b/5x5
I0403 15:38:10.539772 10785 net.cpp:425] inception_5b/5x5 <- inception_5b/5x5_reduce
I0403 15:38:10.539790 10785 net.cpp:399] inception_5b/5x5 -> inception_5b/5x5
I0403 15:38:10.541821 10785 net.cpp:141] Setting up inception_5b/5x5
I0403 15:38:10.541852 10785 net.cpp:148] Top shape: 24 128 7 7 (150528)
I0403 15:38:10.541868 10785 net.cpp:156] Memory required for data: 1335327264
I0403 15:38:10.541887 10785 layer_factory.hpp:77] Creating layer inception_5b/relu_5x5
I0403 15:38:10.541904 10785 net.cpp:91] Creating Layer inception_5b/relu_5x5
I0403 15:38:10.541923 10785 net.cpp:425] inception_5b/relu_5x5 <- inception_5b/5x5
I0403 15:38:10.541939 10785 net.cpp:386] inception_5b/relu_5x5 -> inception_5b/5x5 (in-place)
I0403 15:38:10.542135 10785 net.cpp:141] Setting up inception_5b/relu_5x5
I0403 15:38:10.542158 10785 net.cpp:148] Top shape: 24 128 7 7 (150528)
I0403 15:38:10.542172 10785 net.cpp:156] Memory required for data: 1335929376
I0403 15:38:10.542187 10785 layer_factory.hpp:77] Creating layer inception_5b/pool
I0403 15:38:10.542214 10785 net.cpp:91] Creating Layer inception_5b/pool
I0403 15:38:10.542230 10785 net.cpp:425] inception_5b/pool <- inception_5a/output_inception_5a/output_0_split_3
I0403 15:38:10.542250 10785 net.cpp:399] inception_5b/pool -> inception_5b/pool
I0403 15:38:10.542320 10785 net.cpp:141] Setting up inception_5b/pool
I0403 15:38:10.542346 10785 net.cpp:148] Top shape: 24 832 7 7 (978432)
I0403 15:38:10.542361 10785 net.cpp:156] Memory required for data: 1339843104
I0403 15:38:10.542374 10785 layer_factory.hpp:77] Creating layer inception_5b/pool_proj
I0403 15:38:10.542395 10785 net.cpp:91] Creating Layer inception_5b/pool_proj
I0403 15:38:10.542412 10785 net.cpp:425] inception_5b/pool_proj <- inception_5b/pool
I0403 15:38:10.542431 10785 net.cpp:399] inception_5b/pool_proj -> inception_5b/pool_proj
I0403 15:38:10.544697 10785 net.cpp:141] Setting up inception_5b/pool_proj
I0403 15:38:10.544724 10785 net.cpp:148] Top shape: 24 128 7 7 (150528)
I0403 15:38:10.544739 10785 net.cpp:156] Memory required for data: 1340445216
I0403 15:38:10.544757 10785 layer_factory.hpp:77] Creating layer inception_5b/relu_pool_proj
I0403 15:38:10.544777 10785 net.cpp:91] Creating Layer inception_5b/relu_pool_proj
I0403 15:38:10.544795 10785 net.cpp:425] inception_5b/relu_pool_proj <- inception_5b/pool_proj
I0403 15:38:10.544811 10785 net.cpp:386] inception_5b/relu_pool_proj -> inception_5b/pool_proj (in-place)
I0403 15:38:10.545107 10785 net.cpp:141] Setting up inception_5b/relu_pool_proj
I0403 15:38:10.545132 10785 net.cpp:148] Top shape: 24 128 7 7 (150528)
I0403 15:38:10.545147 10785 net.cpp:156] Memory required for data: 1341047328
I0403 15:38:10.545161 10785 layer_factory.hpp:77] Creating layer inception_5b/output
I0403 15:38:10.545181 10785 net.cpp:91] Creating Layer inception_5b/output
I0403 15:38:10.545210 10785 net.cpp:425] inception_5b/output <- inception_5b/1x1
I0403 15:38:10.545228 10785 net.cpp:425] inception_5b/output <- inception_5b/3x3
I0403 15:38:10.545243 10785 net.cpp:425] inception_5b/output <- inception_5b/5x5
I0403 15:38:10.545258 10785 net.cpp:425] inception_5b/output <- inception_5b/pool_proj
I0403 15:38:10.545274 10785 net.cpp:399] inception_5b/output -> inception_5b/output
I0403 15:38:10.545326 10785 net.cpp:141] Setting up inception_5b/output
I0403 15:38:10.545349 10785 net.cpp:148] Top shape: 24 1024 7 7 (1204224)
I0403 15:38:10.545363 10785 net.cpp:156] Memory required for data: 1345864224
I0403 15:38:10.545377 10785 layer_factory.hpp:77] Creating layer pool5/7x7_s1
I0403 15:38:10.545395 10785 net.cpp:91] Creating Layer pool5/7x7_s1
I0403 15:38:10.545410 10785 net.cpp:425] pool5/7x7_s1 <- inception_5b/output
I0403 15:38:10.545429 10785 net.cpp:399] pool5/7x7_s1 -> pool5/7x7_s1
I0403 15:38:10.545637 10785 net.cpp:141] Setting up pool5/7x7_s1
I0403 15:38:10.545663 10785 net.cpp:148] Top shape: 24 1024 1 1 (24576)
I0403 15:38:10.545678 10785 net.cpp:156] Memory required for data: 1345962528
I0403 15:38:10.545693 10785 layer_factory.hpp:77] Creating layer pool5/drop_7x7_s1
I0403 15:38:10.545711 10785 net.cpp:91] Creating Layer pool5/drop_7x7_s1
I0403 15:38:10.545727 10785 net.cpp:425] pool5/drop_7x7_s1 <- pool5/7x7_s1
I0403 15:38:10.545743 10785 net.cpp:386] pool5/drop_7x7_s1 -> pool5/7x7_s1 (in-place)
I0403 15:38:10.545794 10785 net.cpp:141] Setting up pool5/drop_7x7_s1
I0403 15:38:10.545817 10785 net.cpp:148] Top shape: 24 1024 1 1 (24576)
I0403 15:38:10.545831 10785 net.cpp:156] Memory required for data: 1346060832
I0403 15:38:10.545845 10785 layer_factory.hpp:77] Creating layer loss3/classifier_plantvillage
I0403 15:38:10.545866 10785 net.cpp:91] Creating Layer loss3/classifier_plantvillage
I0403 15:38:10.545882 10785 net.cpp:425] loss3/classifier_plantvillage <- pool5/7x7_s1
I0403 15:38:10.545900 10785 net.cpp:399] loss3/classifier_plantvillage -> loss3/classifier_plantvillage
I0403 15:38:10.546321 10785 net.cpp:141] Setting up loss3/classifier_plantvillage
I0403 15:38:10.546345 10785 net.cpp:148] Top shape: 24 38 (912)
I0403 15:38:10.546360 10785 net.cpp:156] Memory required for data: 1346064480
I0403 15:38:10.546376 10785 layer_factory.hpp:77] Creating layer loss3/classifier_plantvillage_loss3/classifier_plantvillage_0_split
I0403 15:38:10.546394 10785 net.cpp:91] Creating Layer loss3/classifier_plantvillage_loss3/classifier_plantvillage_0_split
I0403 15:38:10.546411 10785 net.cpp:425] loss3/classifier_plantvillage_loss3/classifier_plantvillage_0_split <- loss3/classifier_plantvillage
I0403 15:38:10.546430 10785 net.cpp:399] loss3/classifier_plantvillage_loss3/classifier_plantvillage_0_split -> loss3/classifier_plantvillage_loss3/classifier_plantvillage_0_split_0
I0403 15:38:10.546450 10785 net.cpp:399] loss3/classifier_plantvillage_loss3/classifier_plantvillage_0_split -> loss3/classifier_plantvillage_loss3/classifier_plantvillage_0_split_1
I0403 15:38:10.546470 10785 net.cpp:399] loss3/classifier_plantvillage_loss3/classifier_plantvillage_0_split -> loss3/classifier_plantvillage_loss3/classifier_plantvillage_0_split_2
I0403 15:38:10.546489 10785 net.cpp:399] loss3/classifier_plantvillage_loss3/classifier_plantvillage_0_split -> loss3/classifier_plantvillage_loss3/classifier_plantvillage_0_split_3
I0403 15:38:10.546587 10785 net.cpp:141] Setting up loss3/classifier_plantvillage_loss3/classifier_plantvillage_0_split
I0403 15:38:10.546609 10785 net.cpp:148] Top shape: 24 38 (912)
I0403 15:38:10.546624 10785 net.cpp:148] Top shape: 24 38 (912)
I0403 15:38:10.546638 10785 net.cpp:148] Top shape: 24 38 (912)
I0403 15:38:10.546653 10785 net.cpp:148] Top shape: 24 38 (912)
I0403 15:38:10.546666 10785 net.cpp:156] Memory required for data: 1346079072
I0403 15:38:10.546680 10785 layer_factory.hpp:77] Creating layer loss1/loss
I0403 15:38:10.546702 10785 net.cpp:91] Creating Layer loss1/loss
I0403 15:38:10.546718 10785 net.cpp:425] loss1/loss <- loss1/classifier_plantvillage_loss1/classifier_plantvillage_0_split_0
I0403 15:38:10.546747 10785 net.cpp:425] loss1/loss <- label_data_1_split_0
…
