…
I0403 15:46:06.354784 11253 net.cpp:313] The NetState phase (1) differed from the phase (0) specified by a rule in layer data
I0403 15:46:06.355943 11253 net.cpp:49] Initializing net from parameters: 
state {
  phase: TEST
}
layer {
  name: "data"
  type: "Data"
  top: "data"
  top: "label"
  include {
    phase: TEST
  }
  transform_param {
    mirror: false
    crop_size: 224
    mean_file: "/home/mohanty/data/final_dataset/lmdb/segmented-80-20/mean.binaryproto"
  }
  data_param {
    source: "/home/mohanty/data/final_dataset/lmdb/segmented-80-20/test_db"
    batch_size: 24
    backend: LMDB
  }
}
layer {
  name: "conv1/7x7_s2"
  type: "Convolution"
  bottom: "data"
  top: "conv1/7x7_s2"
  param {
    lr_mult: 1
    decay_mult: 1
  }
  param {
    lr_mult: 2
    decay_mult: 0
  }
  convolution_param {
    num_output: 64
    pad: 3
    kernel_size: 7
    stride: 2
    weight_filler {
      type: "xavier"
      std: 0.1
    }
    bias_filler {
      type: "constant"
      value: 0.2
    }
  }
}
layer {
  name: "conv1/relu_7x7"
  type: "ReLU"
  bottom: "conv1/7x7_s2"
  top: "conv1/7x7_s2"
}
layer {
  name: "pool1/3x3_s2"
  type: "Pooling"
  bottom: "conv1/7x7_s2"
  top: "pool1/3x3_s2"
  pooling_param {
    pool: MAX
    kernel_size: 3
    stride: 2
  }
}
layer {
  name: "pool1/norm1"
  type: "LRN"
  bottom: "pool1/3x3_s2"
  top: "pool1/norm1"
  lrn_param {
    local_size: 5
    alpha: 0.0001
    beta: 0.75
  }
}
layer {
  name: "conv2/3x3_reduce"
  type: "Convolution"
  bottom: "pool1/norm1"
  top: "conv2/3x3_reduce"
  param {
    lr_mult: 1
    decay_mult: 1
  }
  param {
    lr_mult: 2
    decay_mult: 0
  }
  convolution_param {
    num_output: 64
    kernel_size: 1
    weight_filler {
      type: "xavier"
      std: 0.1
    }
    bias_filler {
      type: "constant"
      value: 0.2
    }
  }
}
layer {
  name: "conv2/relu_3x3_reduce"
  type: "ReLU"
  bottom: "conv2/3x3_reduce"
  top: "conv2/3x3_reduce"
}
layer {
  name: "conv2/3x3"
  type: "Convolution"
  bottom: "conv2/3x3_reduce"
  top: "conv2/3x3"
  param {
    lr_mult: 1
    decay_mult: 1
  }
  param {
    lr_mult: 2
    decay_mult: 0
  }
  convolution_param {
    num_output: 192
    pad: 1
    kernel_size: 3
    weight_filler {
      type: "xavier"
      std: 0.03
    }
    bias_filler {
      type: "constant"
      value: 0.2
    }
  }
}
layer {
  name: "conv2/relu_3x3"
  type: "ReLU"
  bottom: "conv2/3x3"
  top: "conv2/3x3"
}
layer {
  name: "conv2/norm2"
  type: "LRN"
  bottom: "conv2/3x3"
  top: "conv2/norm2"
  lrn_param {
    local_size: 5
    alpha: 0.0001
    beta: 0.75
  }
}
layer {
  name: "pool2/3x3_s2"
  type: "Pooling"
  bottom: "conv2/norm2"
  top: "pool2/3x3_s2"
  pooling_param {
    pool: MAX
    kernel_size: 3
    stride: 2
  }
}
layer {
  name: "inception_3a/1x1"
  type: "Convolution"
  bottom: "pool2/3x3_s2"
  top: "inception_3a/1x1"
  param {
    lr_mult: 1
    decay_mult: 1
  }
  param {
    lr_mult: 2
    decay_mult: 0
  }
  convolution_param {
    num_output: 64
    kernel_size: 1
    weight_filler {
      type: "xavier"
      std: 0.03
    }
    bias_filler {
      type: "constant"
      value: 0.2
    }
  }
}
layer {
  name: "inception_3a/relu_1x1"
  type: "ReLU"
  bottom: "inception_3a/1x1"
  top: "inception_3a/1x1"
}
layer {
  name: "inception_3a/3x3_reduce"
  type: "Convolution"
  bottom: "pool2/3x3_s2"
  top: "inception_3a/3x3_reduce"
  param {
    lr_mult: 1
    decay_mult: 1
  }
  param {
    lr_mult: 2
    decay_mult: 0
  }
  convolution_param {
    num_output: 96
    kernel_size: 1
    weight_filler {
      type: "xavier"
      std: 0.09
    }
    bias_filler {
      type: "constant"
      value: 0.2
    }
  }
}
layer {
  name: "inception_3a/relu_3x3_reduce"
  type: "ReLU"
  bottom: "inception_3a/3x3_reduce"
  top: "inception_3a/3x3_reduce"
}
layer {
  name: "inception_3a/3x3"
  type: "Convolution"
  bottom: "inception_3a/3x3_reduce"
  top: "inception_3a/3x3"
  param {
    lr_mult: 1
    decay_mult: 1
  }
  param {
    lr_mult: 2
    decay_mult: 0
  }
  convolution_param {
    num_output: 128
    pad: 1
    kernel_size: 3
    weight_filler {
      type: "xavier"
      std: 0.03
    }
    bias_filler {
      type: "constant"
      value: 0.2
    }
  }
}
layer {
  name: "inception_3a/relu_3x3"
  type: "ReLU"
  bottom: "inception_3a/3x3"
  top: "inception_3a/3x3"
}
layer {
  name: "inception_3a/5x5_reduce"
  type: "Convolution"
  bottom: "pool2/3x3_s2"
  top: "inception_3a/5x5_reduce"
  param {
    lr_mult: 1
    decay_mult: 1
  }
  param {
    lr_mult: 2
    decay_mult: 0
  }
  convolution_param {
    num_output: 16
    kernel_size: 1
    weight_filler {
      type: "xavier"
      std: 0.2
    }
    bias_filler {
      type: "constant"
      value: 0.2
    }
  }
}
layer {
  name: "inception_3a/relu_5x5_reduce"
  type: "ReLU"
  bottom: "inception_3a/5x5_reduce"
  top: "inception_3a/5x5_reduce"
}
layer {
  name: "inception_3a/5x5"
  type: "Convolution"
  bottom: "inception_3a/5x5_reduce"
  top: "inception_3a/5x5"
  param {
    lr_mult: 1
    decay_mult: 1
  }
  param {
    lr_mult: 2
    decay_mult: 0
  }
  convolution_param {
    num_output: 32
    pad: 2
    kernel_size: 5
    weight_filler {
      type: "xavier"
      std: 0.03
    }
    bias_filler {
      type: "constant"
      value: 0.2
    }
  }
}
layer {
  name: "inception_3a/relu_5x5"
  type: "ReLU"
  bottom: "inception_3a/5x5"
  top: "inception_3a/5x5"
}
layer {
  name: "inception_3a/pool"
  type: "Pooling"
  bottom: "pool2/3x3_s2"
  top: "inception_3a/pool"
  pooling_param {
    pool: MAX
    kernel_size: 3
    stride: 1
    pad: 1
  }
}
layer {
  name: "inception_3a/pool_proj"
  type: "Convolution"
  bottom: "inception_3a/pool"
  top: "inception_3a/pool_proj"
  param {
    lr_mult: 1
    decay_mult: 1
  }
  param {
    lr_mult: 2
    decay_mult: 0
  }
  convolution_param {
    num_output: 32
    kernel_size: 1
    weight_filler {
      type: "xavier"
      std: 0.1
    }
    bias_filler {
      type: "constant"
      value: 0.2
    }
  }
}
layer {
  name: "inception_3a/relu_pool_proj"
  type: "ReLU"
  bottom: "inception_3a/pool_proj"
  top: "inception_3a/pool_proj"
}
layer {
  name: "inception_3a/output"
  type: "Concat"
  bottom: "inception_3a/1x1"
  bottom: "inception_3a/3x3"
  bottom: "inception_3a/5x5"
  bottom: "inception_3a/pool_proj"
  top: "inception_3a/output"
}
layer {
  name: "inception_3b/1x1"
  type: "Convolution"
  bottom: "inception_3a/output"
  top: "inception_3b/1x1"
  param {
    lr_mult: 1
    decay_mult: 1
  }
  param {
    lr_mult: 2
    decay_mult: 0
  }
  convolution_param {
    num_output: 128
    kernel_size: 1
    weight_filler {
      type: "xavier"
      std: 0.03
    }
    bias_filler {
      type: "constant"
      value: 0.2
    }
  }
}
layer {
  name: "inception_3b/relu_1x1"
  type: "ReLU"
  bottom: "inception_3b/1x1"
  top: "inception_3b/1x1"
}
layer {
  name: "inception_3b/3x3_reduce"
  type: "Convolution"
  bottom: "inception_3a/output"
  top: "inception_3b/3x3_reduce"
  param {
    lr_mult: 1
    decay_mult: 1
  }
  param {
    lr_mult: 2
    decay_mult: 0
  }
  convolution_param {
    num_output: 128
    kernel_size: 1
    weight_filler {
      type: "xavier"
      std: 0.09
    }
    bias_filler {
      type: "constant"
      value: 0.2
    }
  }
}
layer {
  name: "inception_3b/relu_3x3_reduce"
  type: "ReLU"
  bottom: "inception_3b/3x3_reduce"
  top: "inception_3b/3x3_reduce"
}
layer {
  name: "inception_3b/3x3"
  type: "Convolution"
  bottom: "inception_3b/3x3_reduce"
  top: "inception_3b/3x3"
  param {
    lr_mult: 1
    decay_mult: 1
  }
  param {
    lr_mult: 2
    decay_mult: 0
  }
  convolution_param {
    num_output: 192
    pad: 1
    kernel_size: 3
    weight_filler {
      type: "xavier"
      std: 0.03
    }
    bias_filler {
      type: "constant"
      value: 0.2
    }
  }
}
layer {
  name: "inception_3b/relu_3x3"
  type: "ReLU"
  bottom: "inception_3b/3x3"
  top: "inception_3b/3x3"
}
layer {
  name: "inception_3b/5x5_reduce"
  type: "Convolution"
  bottom: "inception_3a/output"
  top: "inception_3b/5x5_reduce"
  param {
    lr_mult: 1
    decay_mult: 1
  }
  param {
    lr_mult: 2
    decay_mult: 0
  }
  convolution_param {
    num_output: 32
    kernel_size: 1
    weight_filler {
      type: "xavier"
      std: 0.2
    }
    bias_filler {
      type: "constant"
      value: 0.2
    }
  }
}
layer {
  name: "inception_3b/relu_5x5_reduce"
  type: "ReLU"
  bottom: "inception_3b/5x5_reduce"
  top: "inception_3b/5x5_reduce"
}
layer {
  name: "inception_3b/5x5"
  type: "Convolution"
  bottom: "inception_3b/5x5_reduce"
  top: "inception_3b/5x5"
  param {
    lr_mult: 1
    decay_mult: 1
  }
  param {
    lr_mult: 2
    decay_mult: 0
  }
  convolution_param {
    num_output: 96
    pad: 2
    kernel_size: 5
    weight_filler {
      type: "xavier"
      std: 0.03
    }
    bias_filler {
      type: "constant"
      value: 0.2
    }
  }
}
layer {
  name: "inception_3b/relu_5x5"
  type: "ReLU"
  bottom: "inception_3b/5x5"
  top: "inception_3b/5x5"
}
layer {
  name: "inception_3b/pool"
  type: "Pooling"
  bottom: "inception_3a/output"
  top: "inception_3b/pool"
  pooling_param {
    pool: MAX
    kernel_size: 3
    stride: 1
    pad: 1
  }
}
layer {
  name: "inception_3b/pool_proj"
  type: "Convolution"
  bottom: "inception_3b/pool"
  top: "inception_3b/pool_proj"
  param {
    lr_mult: 1
    decay_mult: 1
  }
  param {
    lr_mult: 2
    decay_mult: 0
  }
  convolution_param {
    num_output: 64
    kernel_size: 1
    weight_filler {
      type: "xavier"
      std: 0.1
    }
    bias_filler {
      type: "constant"
      value: 0.2
    }
  }
}
layer {
  name: "inception_3b/relu_pool_proj"
  type: "ReLU"
  bottom: "inception_3b/pool_proj"
  top: "inception_3b/pool_proj"
}
layer {
  name: "inception_3b/output"
  type: "Concat"
  bottom: "inception_3b/1x1"
  bottom: "inception_3b/3x3"
  bottom: "inception_3b/5x5"
  bottom: "inception_3b/pool_proj"
  top: "inception_3b/output"
}
layer {
  name: "pool3/3x3_s2"
  type: "Pooling"
  bottom: "inception_3b/output"
  top: "pool3/3x3_s2"
  pooling_param {
    pool: MAX
    kernel_size: 3
    stride: 2
  }
}
layer {
  name: "inception_4a/1x1"
  type: "Convolution"
  bottom: "pool3/3x3_s2"
  top: "inception_4a/1x1"
  param {
    lr_mult: 1
    decay_mult: 1
  }
  param {
    lr_mult: 2
    decay_mult: 0
  }
  convolution_param {
    num_output: 192
    kernel_size: 1
    weight_filler {
      type: "xavier"
      std: 0.03
    }
    bias_filler {
      type: "constant"
      value: 0.2
    }
  }
}
layer {
  name: "inception_4a/relu_1x1"
  type: "ReLU"
  bottom: "inception_4a/1x1"
  top: "inception_4a/1x1"
}
layer {
  name: "inception_4a/3x3_reduce"
  type: "Convolution"
  bottom: "pool3/3x3_s2"
  top: "inception_4a/3x3_reduce"
  param {
    lr_mult: 1
    decay_mult: 1
  }
  param {
    lr_mult: 2
    decay_mult: 0
  }
  convolution_param {
    num_output: 96
    kernel_size: 1
    weight_filler {
      type: "xavier"
      std: 0.09
    }
    bias_filler {
      type: "constant"
      value: 0.2
    }
  }
}
layer {
  name: "inception_4a/relu_3x3_reduce"
  type: "ReLU"
  bottom: "inception_4a/3x3_reduce"
  top: "inception_4a/3x3_reduce"
}
layer {
  name: "inception_4a/3x3"
  type: "Convolution"
  bottom: "inception_4a/3x3_reduce"
  top: "inception_4a/3x3"
  param {
    lr_mult: 1
    decay_mult: 1
  }
  param {
    lr_mult: 2
    decay_mult: 0
  }
  convolution_param {
    num_output: 208
    pad: 1
    kernel_size: 3
    weight_filler {
      type: "xavier"
      std: 0.03
    }
    bias_filler {
      type: "constant"
      value: 0.2
    }
  }
}
layer {
  name: "inception_4a/relu_3x3"
  type: "ReLU"
  bottom: "inception_4a/3x3"
  top: "inception_4a/3x3"
}
layer {
  name: "inception_4a/5x5_reduce"
  type: "Convolution"
  bottom: "pool3/3x3_s2"
  top: "inception_4a/5x5_reduce"
  param {
    lr_mult: 1
    decay_mult: 1
  }
  param {
    lr_mult: 2
    decay_mult: 0
  }
  convolution_param {
    num_output: 16
    kernel_size: 1
    weight_filler {
      type: "xavier"
      std: 0.2
    }
    bias_filler {
      type: "constant"
      value: 0.2
    }
  }
}
layer {
  name: "inception_4a/relu_5x5_reduce"
  type: "ReLU"
  bottom: "inception_4a/5x5_reduce"
  top: "inception_4a/5x5_reduce"
}
layer {
  name: "inception_4a/5x5"
  type: "Convolution"
  bottom: "inception_4a/5x5_reduce"
  top: "inception_4a/5x5"
  param {
    lr_mult: 1
    decay_mult: 1
  }
  param {
    lr_mult: 2
    decay_mult: 0
  }
  convolution_param {
    num_output: 48
    pad: 2
    kernel_size: 5
    weight_filler {
      type: "xavier"
      std: 0.03
    }
    bias_filler {
      type: "constant"
      value: 0.2
    }
  }
}
layer {
  name: "inception_4a/relu_5x5"
  type: "ReLU"
  bottom: "inception_4a/5x5"
  top: "inception_4a/5x5"
}
layer {
  name: "inception_4a/pool"
  type: "Pooling"
  bottom: "pool3/3x3_s2"
  top: "inception_4a/pool"
  pooling_param {
    pool: MAX
    kernel_size: 3
    stride: 1
    pad: 1
  }
}
layer {
  name: "inception_4a/pool_proj"
  type: "Convolution"
  bottom: "inception_4a/pool"
  top: "inception_4a/pool_proj"
  param {
    lr_mult: 1
    decay_mult: 1
  }
  param {
    lr_mult: 2
    decay_mult: 0
  }
  convolution_param {
    num_output: 64
    kernel_size: 1
    weight_filler {
      type: "xavier"
      std: 0.1
    }
    bias_filler {
      type: "constant"
      value: 0.2
    }
  }
}
layer {
  name: "inception_4a/relu_pool_proj"
  type: "ReLU"
  bottom: "inception_4a/pool_proj"
  top: "inception_4a/pool_proj"
}
layer {
  name: "inception_4a/output"
  type: "Concat"
  bottom: "inception_4a/1x1"
  bottom: "inception_4a/3x3"
  bottom: "inception_4a/5x5"
  bottom: "inception_4a/pool_proj"
  top: "inception_4a/output"
}
layer {
  name: "loss1/ave_pool"
  type: "Pooling"
  bottom: "inception_4a/output"
  top: "loss1/ave_pool"
  pooling_param {
    pool: AVE
    kernel_size: 5
    stride: 3
  }
}
layer {
  name: "loss1/conv"
  type: "Convolution"
  bottom: "loss1/ave_pool"
  top: "loss1/conv"
  param {
    lr_mult: 1
    decay_mult: 1
  }
  param {
    lr_mult: 2
    decay_mult: 0
  }
  convolution_param {
    num_output: 128
    kernel_size: 1
    weight_filler {
      type: "xavier"
      std: 0.08
    }
    bias_filler {
      type: "constant"
      value: 0.2
    }
  }
}
layer {
  name: "loss1/relu_conv"
  type: "ReLU"
  bottom: "loss1/conv"
  top: "loss1/conv"
}
layer {
  name: "loss1/fc"
  type: "InnerProduct"
  bottom: "loss1/conv"
  top: "loss1/fc"
  param {
    lr_mult: 1
    decay_mult: 1
  }
  param {
    lr_mult: 2
    decay_mult: 0
  }
  inner_product_param {
    num_output: 1024
    weight_filler {
      type: "xavier"
      std: 0.02
    }
    bias_filler {
      type: "constant"
      value: 0.2
    }
  }
}
layer {
  name: "loss1/relu_fc"
  type: "ReLU"
  bottom: "loss1/fc"
  top: "loss1/fc"
}
layer {
  name: "loss1/drop_fc"
  type: "Dropout"
  bottom: "loss1/fc"
  top: "loss1/fc"
  dropout_param {
    dropout_ratio: 0.7
  }
}
layer {
  name: "loss1/classifier_plantvillage"
  type: "InnerProduct"
  bottom: "loss1/fc"
  top: "loss1/classifier_plantvillage"
  param {
    lr_mult: 1
    decay_mult: 1
  }
  param {
    lr_mult: 2
    decay_mult: 0
  }
  inner_product_param {
    num_output: 38
    weight_filler {
      type: "xavier"
      std: 0.0009765625
    }
    bias_filler {
      type: "constant"
      value: 0
    }
  }
}
layer {
  name: "inception_4b/1x1"
  type: "Convolution"
  bottom: "inception_4a/output"
  top: "inception_4b/1x1"
  param {
    lr_mult: 1
    decay_mult: 1
  }
  param {
    lr_mult: 2
    decay_mult: 0
  }
  convolution_param {
    num_output: 160
    kernel_size: 1
    weight_filler {
      type: "xavier"
      std: 0.03
    }
    bias_filler {
      type: "constant"
      value: 0.2
    }
  }
}
layer {
  name: "inception_4b/relu_1x1"
  type: "ReLU"
  bottom: "inception_4b/1x1"
  top: "inception_4b/1x1"
}
layer {
  name: "inception_4b/3x3_reduce"
  type: "Convolution"
  bottom: "inception_4a/output"
  top: "inception_4b/3x3_reduce"
  param {
    lr_mult: 1
    decay_mult: 1
  }
  param {
    lr_mult: 2
    decay_mult: 0
  }
  convolution_param {
    num_output: 112
    kernel_size: 1
    weight_filler {
      type: "xavier"
      std: 0.09
    }
    bias_filler {
      type: "constant"
      value: 0.2
    }
  }
}
layer {
  name: "inception_4b/relu_3x3_reduce"
  type: "ReLU"
  bottom: "inception_4b/3x3_reduce"
  top: "inception_4b/3x3_reduce"
}
layer {
  name: "inception_4b/3x3"
  type: "Convolution"
  bottom: "inception_4b/3x3_reduce"
  top: "inception_4b/3x3"
  param {
    lr_mult: 1
    decay_mult: 1
  }
  param {
    lr_mult: 2
    decay_mult: 0
  }
  convolution_param {
    num_output: 224
    pad: 1
    kernel_size: 3
    weight_filler {
      type: "xavier"
      std: 0.03
    }
    bias_filler {
      type: "constant"
      value: 0.2
    }
  }
}
layer {
  name: "inception_4b/relu_3x3"
  type: "ReLU"
  bottom: "inception_4b/3x3"
  top: "inception_4b/3x3"
}
layer {
  name: "inception_4b/5x5_reduce"
  type: "Convolution"
  bottom: "inception_4a/output"
  top: "inception_4b/5x5_reduce"
  param {
    lr_mult: 1
    decay_mult: 1
  }
  param {
    lr_mult: 2
    decay_mult: 0
  }
  convolution_param {
    num_output: 24
    kernel_size: 1
    weight_filler {
      type: "xavier"
      std: 0.2
    }
    bias_filler {
      type: "constant"
      value: 0.2
    }
  }
}
layer {
  name: "inception_4b/relu_5x5_reduce"
  type: "ReLU"
  bottom: "inception_4b/5x5_reduce"
  top: "inception_4b/5x5_reduce"
}
layer {
  name: "inception_4b/5x5"
  type: "Convolution"
  bottom: "inception_4b/5x5_reduce"
  top: "inception_4b/5x5"
  param {
    lr_mult: 1
    decay_mult: 1
  }
  param {
    lr_mult: 2
    decay_mult: 0
  }
  convolution_param {
    num_output: 64
    pad: 2
    kernel_size: 5
    weight_filler {
      type: "xavier"
      std: 0.03
    }
    bias_filler {
      type: "constant"
      value: 0.2
    }
  }
}
layer {
  name: "inception_4b/relu_5x5"
  type: "ReLU"
  bottom: "inception_4b/5x5"
  top: "inception_4b/5x5"
}
layer {
  name: "inception_4b/pool"
  type: "Pooling"
  bottom: "inception_4a/output"
  top: "inception_4b/pool"
  pooling_param {
    pool: MAX
    kernel_size: 3
    stride: 1
    pad: 1
  }
}
layer {
  name: "inception_4b/pool_proj"
  type: "Convolution"
  bottom: "inception_4b/pool"
  top: "inception_4b/pool_proj"
  param {
    lr_mult: 1
    decay_mult: 1
  }
  param {
    lr_mult: 2
    decay_mult: 0
  }
  convolution_param {
    num_output: 64
    kernel_size: 1
    weight_filler {
      type: "xavier"
      std: 0.1
    }
    bias_filler {
      type: "constant"
      value: 0.2
    }
  }
}
layer {
  name: "inception_4b/relu_pool_proj"
  type: "ReLU"
  bottom: "inception_4b/pool_proj"
  top: "inception_4b/pool_proj"
}
layer {
  name: "inception_4b/output"
  type: "Concat"
  bottom: "inception_4b/1x1"
  bottom: "inception_4b/3x3"
  bottom: "inception_4b/5x5"
  bottom: "inception_4b/pool_proj"
  top: "inception_4b/output"
}
layer {
  name: "inception_4c/1x1"
  type: "Convolution"
  bottom: "inception_4b/output"
  top: "inception_4c/1x1"
  param {
    lr_mult: 1
    decay_mult: 1
  }
  param {
    lr_mult: 2
    decay_mult: 0
  }
  convolution_param {
    num_output: 128
    kernel_size: 1
    weight_filler {
      type: "xavier"
      std: 0.03
    }
    bias_filler {
      type: "constant"
      value: 0.2
    }
  }
}
layer {
  name: "inception_4c/relu_1x1"
  type: "ReLU"
  bottom: "inception_4c/1x1"
  top: "inception_4c/1x1"
}
layer {
  name: "inception_4c/3x3_reduce"
  type: "Convolution"
  bottom: "inception_4b/output"
  top: "inception_4c/3x3_reduce"
  param {
    lr_mult: 1
    decay_mult: 1
  }
  param {
    lr_mult: 2
    decay_mult: 0
  }
  convolution_param {
    num_output: 128
    kernel_size: 1
    weight_filler {
      type: "xavier"
      std: 0.09
    }
    bias_filler {
      type: "constant"
      value: 0.2
    }
  }
}
layer {
  name: "inception_4c/relu_3x3_reduce"
  type: "ReLU"
  bottom: "inception_4c/3x3_reduce"
  top: "inception_4c/3x3_reduce"
}
layer {
  name: "inception_4c/3x3"
  type: "Convolution"
  bottom: "inception_4c/3x3_reduce"
  top: "inception_4c/3x3"
  param {
    lr_mult: 1
    decay_mult: 1
  }
  param {
    lr_mult: 2
    decay_mult: 0
  }
  convolution_param {
    num_output: 256
    pad: 1
    kernel_size: 3
    weight_filler {
      type: "xavier"
      std: 0.03
    }
    bias_filler {
      type: "constant"
      value: 0.2
    }
  }
}
layer {
  name: "inception_4c/relu_3x3"
  type: "ReLU"
  bottom: "inception_4c/3x3"
  top: "inception_4c/3x3"
}
layer {
  name: "inception_4c/5x5_reduce"
  type: "Convolution"
  bottom: "inception_4b/output"
  top: "inception_4c/5x5_reduce"
  param {
    lr_mult: 1
    decay_mult: 1
  }
  param {
    lr_mult: 2
    decay_mult: 0
  }
  convolution_param {
    num_output: 24
    kernel_size: 1
    weight_filler {
      type: "xavier"
      std: 0.2
    }
    bias_filler {
      type: "constant"
      value: 0.2
    }
  }
}
layer {
  name: "inception_4c/relu_5x5_reduce"
  type: "ReLU"
  bottom: "inception_4c/5x5_reduce"
  top: "inception_4c/5x5_reduce"
}
layer {
  name: "inception_4c/5x5"
  type: "Convolution"
  bottom: "inception_4c/5x5_reduce"
  top: "inception_4c/5x5"
  param {
    lr_mult: 1
    decay_mult: 1
  }
  param {
    lr_mult: 2
    decay_mult: 0
  }
  convolution_param {
    num_output: 64
    pad: 2
    kernel_size: 5
    weight_filler {
      type: "xavier"
      std: 0.03
    }
    bias_filler {
      type: "constant"
      value: 0.2
    }
  }
}
layer {
  name: "inception_4c/relu_5x5"
  type: "ReLU"
  bottom: "inception_4c/5x5"
  top: "inception_4c/5x5"
}
layer {
  name: "inception_4c/pool"
  type: "Pooling"
  bottom: "inception_4b/output"
  top: "inception_4c/pool"
  pooling_param {
    pool: MAX
    kernel_size: 3
    stride: 1
    pad: 1
  }
}
layer {
  name: "inception_4c/pool_proj"
  type: "Convolution"
  bottom: "inception_4c/pool"
  top: "inception_4c/pool_proj"
  param {
    lr_mult: 1
    decay_mult: 1
  }
  param {
    lr_mult: 2
    decay_mult: 0
  }
  convolution_param {
    num_output: 64
    kernel_size: 1
    weight_filler {
      type: "xavier"
      std: 0.1
    }
    bias_filler {
      type: "constant"
      value: 0.2
    }
  }
}
layer {
  name: "inception_4c/relu_pool_proj"
  type: "ReLU"
  bottom: "inception_4c/pool_proj"
  top: "inception_4c/pool_proj"
}
layer {
  name: "inception_4c/output"
  type: "Concat"
  bottom: "inception_4c/1x1"
  bottom: "inception_4c/3x3"
  bottom: "inception_4c/5x5"
  bottom: "inception_4c/pool_proj"
  top: "inception_4c/output"
}
layer {
  name: "inception_4d/1x1"
  type: "Convolution"
  bottom: "inception_4c/output"
  top: "inception_4d/1x1"
  param {
    lr_mult: 1
    decay_mult: 1
  }
  param {
    lr_mult: 2
    decay_mult: 0
  }
  convolution_param {
    num_output: 112
    kernel_size: 1
    weight_filler {
      type: "xavier"
      std: 0.03
    }
    bias_filler {
      type: "constant"
      value: 0.2
    }
  }
}
layer {
  name: "inception_4d/relu_1x1"
  type: "ReLU"
  bottom: "inception_4d/1x1"
  top: "inception_4d/1x1"
}
layer {
  name: "inception_4d/3x3_reduce"
  type: "Convolution"
  bottom: "inception_4c/output"
  top: "inception_4d/3x3_reduce"
  param {
    lr_mult: 1
    decay_mult: 1
  }
  param {
    lr_mult: 2
    decay_mult: 0
  }
  convolution_param {
    num_output: 144
    kernel_size: 1
    weight_filler {
      type: "xavier"
      std: 0.09
    }
    bias_filler {
      type: "constant"
      value: 0.2
    }
  }
}
layer {
  name: "inception_4d/relu_3x3_reduce"
  type: "ReLU"
  bottom: "inception_4d/3x3_reduce"
  top: "inception_4d/3x3_reduce"
}
layer {
  name: "inception_4d/3x3"
  type: "Convolution"
  bottom: "inception_4d/3x3_reduce"
  top: "inception_4d/3x3"
  param {
    lr_mult: 1
    decay_mult: 1
  }
  param {
    lr_mult: 2
    decay_mult: 0
  }
  convolution_param {
    num_output: 288
    pad: 1
    kernel_size: 3
    weight_filler {
      type: "xavier"
      std: 0.03
    }
    bias_filler {
      type: "constant"
      value: 0.2
    }
  }
}
layer {
  name: "inception_4d/relu_3x3"
  type: "ReLU"
  bottom: "inception_4d/3x3"
  top: "inception_4d/3x3"
}
layer {
  name: "inception_4d/5x5_reduce"
  type: "Convolution"
  bottom: "inception_4c/output"
  top: "inception_4d/5x5_reduce"
  param {
    lr_mult: 1
    decay_mult: 1
  }
  param {
    lr_mult: 2
    decay_mult: 0
  }
  convolution_param {
    num_output: 32
    kernel_size: 1
    weight_filler {
      type: "xavier"
      std: 0.2
    }
    bias_filler {
      type: "constant"
      value: 0.2
    }
  }
}
layer {
  name: "inception_4d/relu_5x5_reduce"
  type: "ReLU"
  bottom: "inception_4d/5x5_reduce"
  top: "inception_4d/5x5_reduce"
}
layer {
  name: "inception_4d/5x5"
  type: "Convolution"
  bottom: "inception_4d/5x5_reduce"
  top: "inception_4d/5x5"
  param {
    lr_mult: 1
    decay_mult: 1
  }
  param {
    lr_mult: 2
    decay_mult: 0
  }
  convolution_param {
    num_output: 64
    pad: 2
    kernel_size: 5
    weight_filler {
      type: "xavier"
      std: 0.03
    }
    bias_filler {
      type: "constant"
      value: 0.2
    }
  }
}
layer {
  name: "inception_4d/relu_5x5"
  type: "ReLU"
  bottom: "inception_4d/5x5"
  top: "inception_4d/5x5"
}
layer {
  name: "inception_4d/pool"
  type: "Pooling"
  bottom: "inception_4c/output"
  top: "inception_4d/pool"
  pooling_param {
    pool: MAX
    kernel_size: 3
    stride: 1
    pad: 1
  }
}
layer {
  name: "inception_4d/pool_proj"
  type: "Convolution"
  bottom: "inception_4d/pool"
  top: "inception_4d/pool_proj"
  param {
    lr_mult: 1
    decay_mult: 1
  }
  param {
    lr_mult: 2
    decay_mult: 0
  }
  convolution_param {
    num_output: 64
    kernel_size: 1
    weight_filler {
      type: "xavier"
      std: 0.1
    }
    bias_filler {
      type: "constant"
      value: 0.2
    }
  }
}
layer {
  name: "inception_4d/relu_pool_proj"
  type: "ReLU"
  bottom: "inception_4d/pool_proj"
  top: "inception_4d/pool_proj"
}
layer {
  name: "inception_4d/output"
  type: "Concat"
  bottom: "inception_4d/1x1"
  bottom: "inception_4d/3x3"
  bottom: "inception_4d/5x5"
  bottom: "inception_4d/pool_proj"
  top: "inception_4d/output"
}
layer {
  name: "loss2/ave_pool"
  type: "Pooling"
  bottom: "inception_4d/output"
  top: "loss2/ave_pool"
  pooling_param {
    pool: AVE
    kernel_size: 5
    stride: 3
  }
}
layer {
  name: "loss2/conv"
  type: "Convolution"
  bottom: "loss2/ave_pool"
  top: "loss2/conv"
  param {
    lr_mult: 1
    decay_mult: 1
  }
  param {
    lr_mult: 2
    decay_mult: 0
  }
  convolution_param {
    num_output: 128
    kernel_size: 1
    weight_filler {
      type: "xavier"
      std: 0.08
    }
    bias_filler {
      type: "constant"
      value: 0.2
    }
  }
}
layer {
  name: "loss2/relu_conv"
  type: "ReLU"
  bottom: "loss2/conv"
  top: "loss2/conv"
}
layer {
  name: "loss2/fc"
  type: "InnerProduct"
  bottom: "loss2/conv"
  top: "loss2/fc"
  param {
    lr_mult: 1
    decay_mult: 1
  }
  param {
    lr_mult: 2
    decay_mult: 0
  }
  inner_product_param {
    num_output: 1024
    weight_filler {
      type: "xavier"
      std: 0.02
    }
    bias_filler {
      type: "constant"
      value: 0.2
    }
  }
}
layer {
  name: "loss2/relu_fc"
  type: "ReLU"
  bottom: "loss2/fc"
  top: "loss2/fc"
}
layer {
  name: "loss2/drop_fc"
  type: "Dropout"
  bottom: "loss2/fc"
  top: "loss2/fc"
  dropout_param {
    dropout_ratio: 0.7
  }
}
layer {
  name: "loss2/classifier_plantvillage"
  type: "InnerProduct"
  bottom: "loss2/fc"
  top: "loss2/classifier_plantvillage"
  param {
    lr_mult: 1
    decay_mult: 1
  }
  param {
    lr_mult: 2
    decay_mult: 0
  }
  inner_product_param {
    num_output: 38
    weight_filler {
      type: "xavier"
      std: 0.0009765625
    }
    bias_filler {
      type: "constant"
      value: 0
    }
  }
}
layer {
  name: "inception_4e/1x1"
  type: "Convolution"
  bottom: "inception_4d/output"
  top: "inception_4e/1x1"
  param {
    lr_mult: 1
    decay_mult: 1
  }
  param {
    lr_mult: 2
    decay_mult: 0
  }
  convolution_param {
    num_output: 256
    kernel_size: 1
    weight_filler {
      type: "xavier"
      std: 0.03
    }
    bias_filler {
      type: "constant"
      value: 0.2
    }
  }
}
layer {
  name: "inception_4e/relu_1x1"
  type: "ReLU"
  bottom: "inception_4e/1x1"
  top: "inception_4e/1x1"
}
layer {
  name: "inception_4e/3x3_reduce"
  type: "Convolution"
  bottom: "inception_4d/output"
  top: "inception_4e/3x3_reduce"
  param {
    lr_mult: 1
    decay_mult: 1
  }
  param {
    lr_mult: 2
    decay_mult: 0
  }
  convolution_param {
    num_output: 160
    kernel_size: 1
    weight_filler {
      type: "xavier"
      std: 0.09
    }
    bias_filler {
      type: "constant"
      value: 0.2
    }
  }
}
layer {
  name: "inception_4e/relu_3x3_reduce"
  type: "ReLU"
  bottom: "inception_4e/3x3_reduce"
  top: "inception_4e/3x3_reduce"
}
layer {
  name: "inception_4e/3x3"
  type: "Convolution"
  bottom: "inception_4e/3x3_reduce"
  top: "inception_4e/3x3"
  param {
    lr_mult: 1
    decay_mult: 1
  }
  param {
    lr_mult: 2
    decay_mult: 0
  }
  convolution_param {
    num_output: 320
    pad: 1
    kernel_size: 3
    weight_filler {
      type: "xavier"
      std: 0.03
    }
    bias_filler {
      type: "constant"
      value: 0.2
    }
  }
}
layer {
  name: "inception_4e/relu_3x3"
  type: "ReLU"
  bottom: "inception_4e/3x3"
  top: "inception_4e/3x3"
}
layer {
  name: "inception_4e/5x5_reduce"
  type: "Convolution"
  bottom: "inception_4d/output"
  top: "inception_4e/5x5_reduce"
  param {
    lr_mult: 1
    decay_mult: 1
  }
  param {
    lr_mult: 2
    decay_mult: 0
  }
  convolution_param {
    num_output: 32
    kernel_size: 1
    weight_filler {
      type: "xavier"
      std: 0.2
    }
    bias_filler {
      type: "constant"
      value: 0.2
    }
  }
}
layer {
  name: "inception_4e/relu_5x5_reduce"
  type: "ReLU"
  bottom: "inception_4e/5x5_reduce"
  top: "inception_4e/5x5_reduce"
}
layer {
  name: "inception_4e/5x5"
  type: "Convolution"
  bottom: "inception_4e/5x5_reduce"
  top: "inception_4e/
I0403 15:46:06.357182 11253 layer_factory.hpp:77] Creating layer data
I0403 15:46:06.357772 11253 net.cpp:91] Creating Layer data
I0403 15:46:06.357803 11253 net.cpp:399] data -> data
I0403 15:46:06.357853 11253 net.cpp:399] data -> label
I0403 15:46:06.357890 11253 data_transformer.cpp:25] Loading mean file from: /home/mohanty/data/final_dataset/lmdb/segmented-80-20/mean.binaryproto
I0403 15:46:06.360054 11256 db_lmdb.cpp:38] Opened lmdb /home/mohanty/data/final_dataset/lmdb/segmented-80-20/test_db
I0403 15:46:06.371029 11253 data_layer.cpp:41] output data size: 24,3,224,224
I0403 15:46:06.398915 11253 net.cpp:141] Setting up data
I0403 15:46:06.399010 11253 net.cpp:148] Top shape: 24 3 224 224 (3612672)
I0403 15:46:06.399034 11253 net.cpp:148] Top shape: 24 (24)
I0403 15:46:06.399050 11253 net.cpp:156] Memory required for data: 14450784
I0403 15:46:06.399078 11253 layer_factory.hpp:77] Creating layer label_data_1_split
I0403 15:46:06.399106 11253 net.cpp:91] Creating Layer label_data_1_split
I0403 15:46:06.399126 11253 net.cpp:425] label_data_1_split <- label
I0403 15:46:06.399157 11253 net.cpp:399] label_data_1_split -> label_data_1_split_0
I0403 15:46:06.399186 11253 net.cpp:399] label_data_1_split -> label_data_1_split_1
I0403 15:46:06.399209 11253 net.cpp:399] label_data_1_split -> label_data_1_split_2
I0403 15:46:06.399230 11253 net.cpp:399] label_data_1_split -> label_data_1_split_3
I0403 15:46:06.399251 11253 net.cpp:399] label_data_1_split -> label_data_1_split_4
I0403 15:46:06.399271 11253 net.cpp:399] label_data_1_split -> label_data_1_split_5
I0403 15:46:06.399292 11253 net.cpp:399] label_data_1_split -> label_data_1_split_6
I0403 15:46:06.399313 11253 net.cpp:399] label_data_1_split -> label_data_1_split_7
I0403 15:46:06.399334 11253 net.cpp:399] label_data_1_split -> label_data_1_split_8
I0403 15:46:06.399355 11253 net.cpp:399] label_data_1_split -> label_data_1_split_9
I0403 15:46:06.399474 11253 net.cpp:141] Setting up label_data_1_split
I0403 15:46:06.399498 11253 net.cpp:148] Top shape: 24 (24)
I0403 15:46:06.399516 11253 net.cpp:148] Top shape: 24 (24)
I0403 15:46:06.399533 11253 net.cpp:148] Top shape: 24 (24)
I0403 15:46:06.399549 11253 net.cpp:148] Top shape: 24 (24)
I0403 15:46:06.399565 11253 net.cpp:148] Top shape: 24 (24)
I0403 15:46:06.399581 11253 net.cpp:148] Top shape: 24 (24)
I0403 15:46:06.399598 11253 net.cpp:148] Top shape: 24 (24)
I0403 15:46:06.399616 11253 net.cpp:148] Top shape: 24 (24)
I0403 15:46:06.399631 11253 net.cpp:148] Top shape: 24 (24)
I0403 15:46:06.399648 11253 net.cpp:148] Top shape: 24 (24)
I0403 15:46:06.399693 11253 net.cpp:156] Memory required for data: 14451744
I0403 15:46:06.399709 11253 layer_factory.hpp:77] Creating layer conv1/7x7_s2
I0403 15:46:06.399742 11253 net.cpp:91] Creating Layer conv1/7x7_s2
I0403 15:46:06.399761 11253 net.cpp:425] conv1/7x7_s2 <- data
I0403 15:46:06.399781 11253 net.cpp:399] conv1/7x7_s2 -> conv1/7x7_s2
I0403 15:46:06.542166 11253 net.cpp:141] Setting up conv1/7x7_s2
I0403 15:46:06.542256 11253 net.cpp:148] Top shape: 24 64 112 112 (19267584)
I0403 15:46:06.542273 11253 net.cpp:156] Memory required for data: 91522080
I0403 15:46:06.542304 11253 layer_factory.hpp:77] Creating layer conv1/relu_7x7
I0403 15:46:06.542330 11253 net.cpp:91] Creating Layer conv1/relu_7x7
I0403 15:46:06.542348 11253 net.cpp:425] conv1/relu_7x7 <- conv1/7x7_s2
I0403 15:46:06.542366 11253 net.cpp:386] conv1/relu_7x7 -> conv1/7x7_s2 (in-place)
I0403 15:46:06.542616 11253 net.cpp:141] Setting up conv1/relu_7x7
I0403 15:46:06.542644 11253 net.cpp:148] Top shape: 24 64 112 112 (19267584)
I0403 15:46:06.542659 11253 net.cpp:156] Memory required for data: 168592416
I0403 15:46:06.542675 11253 layer_factory.hpp:77] Creating layer pool1/3x3_s2
I0403 15:46:06.542698 11253 net.cpp:91] Creating Layer pool1/3x3_s2
I0403 15:46:06.542716 11253 net.cpp:425] pool1/3x3_s2 <- conv1/7x7_s2
I0403 15:46:06.542734 11253 net.cpp:399] pool1/3x3_s2 -> pool1/3x3_s2
I0403 15:46:06.542806 11253 net.cpp:141] Setting up pool1/3x3_s2
I0403 15:46:06.542830 11253 net.cpp:148] Top shape: 24 64 56 56 (4816896)
I0403 15:46:06.542845 11253 net.cpp:156] Memory required for data: 187860000
I0403 15:46:06.542860 11253 layer_factory.hpp:77] Creating layer pool1/norm1
I0403 15:46:06.542884 11253 net.cpp:91] Creating Layer pool1/norm1
I0403 15:46:06.542901 11253 net.cpp:425] pool1/norm1 <- pool1/3x3_s2
I0403 15:46:06.542919 11253 net.cpp:399] pool1/norm1 -> pool1/norm1
I0403 15:46:06.543201 11253 net.cpp:141] Setting up pool1/norm1
I0403 15:46:06.543228 11253 net.cpp:148] Top shape: 24 64 56 56 (4816896)
I0403 15:46:06.543243 11253 net.cpp:156] Memory required for data: 207127584
I0403 15:46:06.543259 11253 layer_factory.hpp:77] Creating layer conv2/3x3_reduce
I0403 15:46:06.543283 11253 net.cpp:91] Creating Layer conv2/3x3_reduce
I0403 15:46:06.543300 11253 net.cpp:425] conv2/3x3_reduce <- pool1/norm1
I0403 15:46:06.543318 11253 net.cpp:399] conv2/3x3_reduce -> conv2/3x3_reduce
I0403 15:46:06.544616 11253 net.cpp:141] Setting up conv2/3x3_reduce
I0403 15:46:06.544646 11253 net.cpp:148] Top shape: 24 64 56 56 (4816896)
I0403 15:46:06.544661 11253 net.cpp:156] Memory required for data: 226395168
I0403 15:46:06.544682 11253 layer_factory.hpp:77] Creating layer conv2/relu_3x3_reduce
I0403 15:46:06.544702 11253 net.cpp:91] Creating Layer conv2/relu_3x3_reduce
I0403 15:46:06.544718 11253 net.cpp:425] conv2/relu_3x3_reduce <- conv2/3x3_reduce
I0403 15:46:06.544734 11253 net.cpp:386] conv2/relu_3x3_reduce -> conv2/3x3_reduce (in-place)
I0403 15:46:06.544989 11253 net.cpp:141] Setting up conv2/relu_3x3_reduce
I0403 15:46:06.545016 11253 net.cpp:148] Top shape: 24 64 56 56 (4816896)
I0403 15:46:06.545030 11253 net.cpp:156] Memory required for data: 245662752
I0403 15:46:06.545045 11253 layer_factory.hpp:77] Creating layer conv2/3x3
I0403 15:46:06.545069 11253 net.cpp:91] Creating Layer conv2/3x3
I0403 15:46:06.545088 11253 net.cpp:425] conv2/3x3 <- conv2/3x3_reduce
I0403 15:46:06.545109 11253 net.cpp:399] conv2/3x3 -> conv2/3x3
I0403 15:46:06.547375 11253 net.cpp:141] Setting up conv2/3x3
I0403 15:46:06.547405 11253 net.cpp:148] Top shape: 24 192 56 56 (14450688)
I0403 15:46:06.547420 11253 net.cpp:156] Memory required for data: 303465504
I0403 15:46:06.547444 11253 layer_factory.hpp:77] Creating layer conv2/relu_3x3
I0403 15:46:06.547464 11253 net.cpp:91] Creating Layer conv2/relu_3x3
I0403 15:46:06.547482 11253 net.cpp:425] conv2/relu_3x3 <- conv2/3x3
I0403 15:46:06.547499 11253 net.cpp:386] conv2/relu_3x3 -> conv2/3x3 (in-place)
I0403 15:46:06.547669 11253 net.cpp:141] Setting up conv2/relu_3x3
I0403 15:46:06.547695 11253 net.cpp:148] Top shape: 24 192 56 56 (14450688)
I0403 15:46:06.547740 11253 net.cpp:156] Memory required for data: 361268256
I0403 15:46:06.547755 11253 layer_factory.hpp:77] Creating layer conv2/norm2
I0403 15:46:06.547773 11253 net.cpp:91] Creating Layer conv2/norm2
I0403 15:46:06.547790 11253 net.cpp:425] conv2/norm2 <- conv2/3x3
I0403 15:46:06.547809 11253 net.cpp:399] conv2/norm2 -> conv2/norm2
I0403 15:46:06.548115 11253 net.cpp:141] Setting up conv2/norm2
I0403 15:46:06.548141 11253 net.cpp:148] Top shape: 24 192 56 56 (14450688)
I0403 15:46:06.548156 11253 net.cpp:156] Memory required for data: 419071008
I0403 15:46:06.548171 11253 layer_factory.hpp:77] Creating layer pool2/3x3_s2
I0403 15:46:06.548189 11253 net.cpp:91] Creating Layer pool2/3x3_s2
I0403 15:46:06.548207 11253 net.cpp:425] pool2/3x3_s2 <- conv2/norm2
I0403 15:46:06.548226 11253 net.cpp:399] pool2/3x3_s2 -> pool2/3x3_s2
I0403 15:46:06.548280 11253 net.cpp:141] Setting up pool2/3x3_s2
I0403 15:46:06.548302 11253 net.cpp:148] Top shape: 24 192 28 28 (3612672)
I0403 15:46:06.548316 11253 net.cpp:156] Memory required for data: 433521696
I0403 15:46:06.548331 11253 layer_factory.hpp:77] Creating layer pool2/3x3_s2_pool2/3x3_s2_0_split
I0403 15:46:06.548349 11253 net.cpp:91] Creating Layer pool2/3x3_s2_pool2/3x3_s2_0_split
I0403 15:46:06.548364 11253 net.cpp:425] pool2/3x3_s2_pool2/3x3_s2_0_split <- pool2/3x3_s2
I0403 15:46:06.548382 11253 net.cpp:399] pool2/3x3_s2_pool2/3x3_s2_0_split -> pool2/3x3_s2_pool2/3x3_s2_0_split_0
I0403 15:46:06.548403 11253 net.cpp:399] pool2/3x3_s2_pool2/3x3_s2_0_split -> pool2/3x3_s2_pool2/3x3_s2_0_split_1
I0403 15:46:06.548423 11253 net.cpp:399] pool2/3x3_s2_pool2/3x3_s2_0_split -> pool2/3x3_s2_pool2/3x3_s2_0_split_2
I0403 15:46:06.548442 11253 net.cpp:399] pool2/3x3_s2_pool2/3x3_s2_0_split -> pool2/3x3_s2_pool2/3x3_s2_0_split_3
I0403 15:46:06.548511 11253 net.cpp:141] Setting up pool2/3x3_s2_pool2/3x3_s2_0_split
I0403 15:46:06.548533 11253 net.cpp:148] Top shape: 24 192 28 28 (3612672)
I0403 15:46:06.548549 11253 net.cpp:148] Top shape: 24 192 28 28 (3612672)
I0403 15:46:06.548565 11253 net.cpp:148] Top shape: 24 192 28 28 (3612672)
I0403 15:46:06.548581 11253 net.cpp:148] Top shape: 24 192 28 28 (3612672)
I0403 15:46:06.548594 11253 net.cpp:156] Memory required for data: 491324448
I0403 15:46:06.548609 11253 layer_factory.hpp:77] Creating layer inception_3a/1x1
I0403 15:46:06.548634 11253 net.cpp:91] Creating Layer inception_3a/1x1
I0403 15:46:06.548650 11253 net.cpp:425] inception_3a/1x1 <- pool2/3x3_s2_pool2/3x3_s2_0_split_0
I0403 15:46:06.548669 11253 net.cpp:399] inception_3a/1x1 -> inception_3a/1x1
I0403 15:46:06.550186 11253 net.cpp:141] Setting up inception_3a/1x1
I0403 15:46:06.550216 11253 net.cpp:148] Top shape: 24 64 28 28 (1204224)
I0403 15:46:06.550232 11253 net.cpp:156] Memory required for data: 496141344
I0403 15:46:06.550251 11253 layer_factory.hpp:77] Creating layer inception_3a/relu_1x1
I0403 15:46:06.550271 11253 net.cpp:91] Creating Layer inception_3a/relu_1x1
I0403 15:46:06.550288 11253 net.cpp:425] inception_3a/relu_1x1 <- inception_3a/1x1
I0403 15:46:06.550305 11253 net.cpp:386] inception_3a/relu_1x1 -> inception_3a/1x1 (in-place)
I0403 15:46:06.550477 11253 net.cpp:141] Setting up inception_3a/relu_1x1
I0403 15:46:06.550503 11253 net.cpp:148] Top shape: 24 64 28 28 (1204224)
I0403 15:46:06.550519 11253 net.cpp:156] Memory required for data: 500958240
I0403 15:46:06.550534 11253 layer_factory.hpp:77] Creating layer inception_3a/3x3_reduce
I0403 15:46:06.550556 11253 net.cpp:91] Creating Layer inception_3a/3x3_reduce
I0403 15:46:06.550575 11253 net.cpp:425] inception_3a/3x3_reduce <- pool2/3x3_s2_pool2/3x3_s2_0_split_1
I0403 15:46:06.550593 11253 net.cpp:399] inception_3a/3x3_reduce -> inception_3a/3x3_reduce
I0403 15:46:06.552290 11253 net.cpp:141] Setting up inception_3a/3x3_reduce
I0403 15:46:06.552320 11253 net.cpp:148] Top shape: 24 96 28 28 (1806336)
I0403 15:46:06.552335 11253 net.cpp:156] Memory required for data: 508183584
I0403 15:46:06.552359 11253 layer_factory.hpp:77] Creating layer inception_3a/relu_3x3_reduce
I0403 15:46:06.552394 11253 net.cpp:91] Creating Layer inception_3a/relu_3x3_reduce
I0403 15:46:06.552412 11253 net.cpp:425] inception_3a/relu_3x3_reduce <- inception_3a/3x3_reduce
I0403 15:46:06.552429 11253 net.cpp:386] inception_3a/relu_3x3_reduce -> inception_3a/3x3_reduce (in-place)
I0403 15:46:06.552609 11253 net.cpp:141] Setting up inception_3a/relu_3x3_reduce
I0403 15:46:06.552634 11253 net.cpp:148] Top shape: 24 96 28 28 (1806336)
I0403 15:46:06.552649 11253 net.cpp:156] Memory required for data: 515408928
I0403 15:46:06.552662 11253 layer_factory.hpp:77] Creating layer inception_3a/3x3
I0403 15:46:06.552685 11253 net.cpp:91] Creating Layer inception_3a/3x3
I0403 15:46:06.552703 11253 net.cpp:425] inception_3a/3x3 <- inception_3a/3x3_reduce
I0403 15:46:06.552723 11253 net.cpp:399] inception_3a/3x3 -> inception_3a/3x3
I0403 15:46:06.554348 11253 net.cpp:141] Setting up inception_3a/3x3
I0403 15:46:06.554376 11253 net.cpp:148] Top shape: 24 128 28 28 (2408448)
I0403 15:46:06.554391 11253 net.cpp:156] Memory required for data: 525042720
I0403 15:46:06.554409 11253 layer_factory.hpp:77] Creating layer inception_3a/relu_3x3
I0403 15:46:06.554430 11253 net.cpp:91] Creating Layer inception_3a/relu_3x3
I0403 15:46:06.554446 11253 net.cpp:425] inception_3a/relu_3x3 <- inception_3a/3x3
I0403 15:46:06.554463 11253 net.cpp:386] inception_3a/relu_3x3 -> inception_3a/3x3 (in-place)
I0403 15:46:06.554735 11253 net.cpp:141] Setting up inception_3a/relu_3x3
I0403 15:46:06.554762 11253 net.cpp:148] Top shape: 24 128 28 28 (2408448)
I0403 15:46:06.554777 11253 net.cpp:156] Memory required for data: 534676512
I0403 15:46:06.554791 11253 layer_factory.hpp:77] Creating layer inception_3a/5x5_reduce
I0403 15:46:06.554813 11253 net.cpp:91] Creating Layer inception_3a/5x5_reduce
I0403 15:46:06.554832 11253 net.cpp:425] inception_3a/5x5_reduce <- pool2/3x3_s2_pool2/3x3_s2_0_split_2
I0403 15:46:06.554852 11253 net.cpp:399] inception_3a/5x5_reduce -> inception_3a/5x5_reduce
I0403 15:46:06.555793 11253 net.cpp:141] Setting up inception_3a/5x5_reduce
I0403 15:46:06.555819 11253 net.cpp:148] Top shape: 24 16 28 28 (301056)
I0403 15:46:06.555835 11253 net.cpp:156] Memory required for data: 535880736
I0403 15:46:06.555853 11253 layer_factory.hpp:77] Creating layer inception_3a/relu_5x5_reduce
I0403 15:46:06.555873 11253 net.cpp:91] Creating Layer inception_3a/relu_5x5_reduce
I0403 15:46:06.555891 11253 net.cpp:425] inception_3a/relu_5x5_reduce <- inception_3a/5x5_reduce
I0403 15:46:06.555908 11253 net.cpp:386] inception_3a/relu_5x5_reduce -> inception_3a/5x5_reduce (in-place)
I0403 15:46:06.556207 11253 net.cpp:141] Setting up inception_3a/relu_5x5_reduce
I0403 15:46:06.556236 11253 net.cpp:148] Top shape: 24 16 28 28 (301056)
I0403 15:46:06.556252 11253 net.cpp:156] Memory required for data: 537084960
I0403 15:46:06.556267 11253 layer_factory.hpp:77] Creating layer inception_3a/5x5
I0403 15:46:06.556288 11253 net.cpp:91] Creating Layer inception_3a/5x5
I0403 15:46:06.556306 11253 net.cpp:425] inception_3a/5x5 <- inception_3a/5x5_reduce
I0403 15:46:06.556325 11253 net.cpp:399] inception_3a/5x5 -> inception_3a/5x5
I0403 15:46:06.557317 11253 net.cpp:141] Setting up inception_3a/5x5
I0403 15:46:06.557344 11253 net.cpp:148] Top shape: 24 32 28 28 (602112)
I0403 15:46:06.557360 11253 net.cpp:156] Memory required for data: 539493408
I0403 15:46:06.557379 11253 layer_factory.hpp:77] Creating layer inception_3a/relu_5x5
I0403 15:46:06.557399 11253 net.cpp:91] Creating Layer inception_3a/relu_5x5
I0403 15:46:06.557416 11253 net.cpp:425] inception_3a/relu_5x5 <- inception_3a/5x5
I0403 15:46:06.557435 11253 net.cpp:386] inception_3a/relu_5x5 -> inception_3a/5x5 (in-place)
I0403 15:46:06.557605 11253 net.cpp:141] Setting up inception_3a/relu_5x5
I0403 15:46:06.557632 11253 net.cpp:148] Top shape: 24 32 28 28 (602112)
I0403 15:46:06.557647 11253 net.cpp:156] Memory required for data: 541901856
I0403 15:46:06.557662 11253 layer_factory.hpp:77] Creating layer inception_3a/pool
I0403 15:46:06.557680 11253 net.cpp:91] Creating Layer inception_3a/pool
I0403 15:46:06.557710 11253 net.cpp:425] inception_3a/pool <- pool2/3x3_s2_pool2/3x3_s2_0_split_3
I0403 15:46:06.557729 11253 net.cpp:399] inception_3a/pool -> inception_3a/pool
I0403 15:46:06.557786 11253 net.cpp:141] Setting up inception_3a/pool
I0403 15:46:06.557808 11253 net.cpp:148] Top shape: 24 192 28 28 (3612672)
I0403 15:46:06.557823 11253 net.cpp:156] Memory required for data: 556352544
I0403 15:46:06.557838 11253 layer_factory.hpp:77] Creating layer inception_3a/pool_proj
I0403 15:46:06.557860 11253 net.cpp:91] Creating Layer inception_3a/pool_proj
I0403 15:46:06.557878 11253 net.cpp:425] inception_3a/pool_proj <- inception_3a/pool
I0403 15:46:06.557899 11253 net.cpp:399] inception_3a/pool_proj -> inception_3a/pool_proj
I0403 15:46:06.558847 11253 net.cpp:141] Setting up inception_3a/pool_proj
I0403 15:46:06.558874 11253 net.cpp:148] Top shape: 24 32 28 28 (602112)
I0403 15:46:06.558889 11253 net.cpp:156] Memory required for data: 558760992
I0403 15:46:06.558912 11253 layer_factory.hpp:77] Creating layer inception_3a/relu_pool_proj
I0403 15:46:06.558933 11253 net.cpp:91] Creating Layer inception_3a/relu_pool_proj
I0403 15:46:06.558960 11253 net.cpp:425] inception_3a/relu_pool_proj <- inception_3a/pool_proj
I0403 15:46:06.558981 11253 net.cpp:386] inception_3a/relu_pool_proj -> inception_3a/pool_proj (in-place)
I0403 15:46:06.559253 11253 net.cpp:141] Setting up inception_3a/relu_pool_proj
I0403 15:46:06.559280 11253 net.cpp:148] Top shape: 24 32 28 28 (602112)
I0403 15:46:06.559294 11253 net.cpp:156] Memory required for data: 561169440
I0403 15:46:06.559309 11253 layer_factory.hpp:77] Creating layer inception_3a/output
I0403 15:46:06.559330 11253 net.cpp:91] Creating Layer inception_3a/output
I0403 15:46:06.559347 11253 net.cpp:425] inception_3a/output <- inception_3a/1x1
I0403 15:46:06.559363 11253 net.cpp:425] inception_3a/output <- inception_3a/3x3
I0403 15:46:06.559379 11253 net.cpp:425] inception_3a/output <- inception_3a/5x5
I0403 15:46:06.559396 11253 net.cpp:425] inception_3a/output <- inception_3a/pool_proj
I0403 15:46:06.559412 11253 net.cpp:399] inception_3a/output -> inception_3a/output
I0403 15:46:06.559458 11253 net.cpp:141] Setting up inception_3a/output
I0403 15:46:06.559481 11253 net.cpp:148] Top shape: 24 256 28 28 (4816896)
I0403 15:46:06.559495 11253 net.cpp:156] Memory required for data: 580437024
I0403 15:46:06.559510 11253 layer_factory.hpp:77] Creating layer inception_3a/output_inception_3a/output_0_split
I0403 15:46:06.559526 11253 net.cpp:91] Creating Layer inception_3a/output_inception_3a/output_0_split
I0403 15:46:06.559542 11253 net.cpp:425] inception_3a/output_inception_3a/output_0_split <- inception_3a/output
I0403 15:46:06.559561 11253 net.cpp:399] inception_3a/output_inception_3a/output_0_split -> inception_3a/output_inception_3a/output_0_split_0
I0403 15:46:06.559581 11253 net.cpp:399] inception_3a/output_inception_3a/output_0_split -> inception_3a/output_inception_3a/output_0_split_1
I0403 15:46:06.559605 11253 net.cpp:399] inception_3a/output_inception_3a/output_0_split -> inception_3a/output_inception_3a/output_0_split_2
I0403 15:46:06.559626 11253 net.cpp:399] inception_3a/output_inception_3a/output_0_split -> inception_3a/output_inception_3a/output_0_split_3
I0403 15:46:06.559697 11253 net.cpp:141] Setting up inception_3a/output_inception_3a/output_0_split
I0403 15:46:06.559720 11253 net.cpp:148] Top shape: 24 256 28 28 (4816896)
I0403 15:46:06.559736 11253 net.cpp:148] Top shape: 24 256 28 28 (4816896)
I0403 15:46:06.559751 11253 net.cpp:148] Top shape: 24 256 28 28 (4816896)
I0403 15:46:06.559767 11253 net.cpp:148] Top shape: 24 256 28 28 (4816896)
I0403 15:46:06.559780 11253 net.cpp:156] Memory required for data: 657507360
I0403 15:46:06.559795 11253 layer_factory.hpp:77] Creating layer inception_3b/1x1
I0403 15:46:06.559818 11253 net.cpp:91] Creating Layer inception_3b/1x1
I0403 15:46:06.559834 11253 net.cpp:425] inception_3b/1x1 <- inception_3a/output_inception_3a/output_0_split_0
I0403 15:46:06.559855 11253 net.cpp:399] inception_3b/1x1 -> inception_3b/1x1
I0403 15:46:06.560977 11253 net.cpp:141] Setting up inception_3b/1x1
I0403 15:46:06.561015 11253 net.cpp:148] Top shape: 24 128 28 28 (2408448)
I0403 15:46:06.561031 11253 net.cpp:156] Memory required for data: 667141152
I0403 15:46:06.561050 11253 layer_factory.hpp:77] Creating layer inception_3b/relu_1x1
I0403 15:46:06.561075 11253 net.cpp:91] Creating Layer inception_3b/relu_1x1
I0403 15:46:06.561092 11253 net.cpp:425] inception_3b/relu_1x1 <- inception_3b/1x1
I0403 15:46:06.561110 11253 net.cpp:386] inception_3b/relu_1x1 -> inception_3b/1x1 (in-place)
I0403 15:46:06.561283 11253 net.cpp:141] Setting up inception_3b/relu_1x1
I0403 15:46:06.561307 11253 net.cpp:148] Top shape: 24 128 28 28 (2408448)
I0403 15:46:06.561322 11253 net.cpp:156] Memory required for data: 676774944
I0403 15:46:06.561337 11253 layer_factory.hpp:77] Creating layer inception_3b/3x3_reduce
I0403 15:46:06.561360 11253 net.cpp:91] Creating Layer inception_3b/3x3_reduce
I0403 15:46:06.561378 11253 net.cpp:425] inception_3b/3x3_reduce <- inception_3a/output_inception_3a/output_0_split_1
I0403 15:46:06.561396 11253 net.cpp:399] inception_3b/3x3_reduce -> inception_3b/3x3_reduce
I0403 15:46:06.562510 11253 net.cpp:141] Setting up inception_3b/3x3_reduce
I0403 15:46:06.562537 11253 net.cpp:148] Top shape: 24 128 28 28 (2408448)
I0403 15:46:06.562552 11253 net.cpp:156] Memory required for data: 686408736
I0403 15:46:06.562571 11253 layer_factory.hpp:77] Creating layer inception_3b/relu_3x3_reduce
I0403 15:46:06.562588 11253 net.cpp:91] Creating Layer inception_3b/relu_3x3_reduce
I0403 15:46:06.562605 11253 net.cpp:425] inception_3b/relu_3x3_reduce <- inception_3b/3x3_reduce
I0403 15:46:06.562624 11253 net.cpp:386] inception_3b/relu_3x3_reduce -> inception_3b/3x3_reduce (in-place)
I0403 15:46:06.562793 11253 net.cpp:141] Setting up inception_3b/relu_3x3_reduce
I0403 15:46:06.562816 11253 net.cpp:148] Top shape: 24 128 28 28 (2408448)
I0403 15:46:06.562831 11253 net.cpp:156] Memory required for data: 696042528
I0403 15:46:06.562845 11253 layer_factory.hpp:77] Creating layer inception_3b/3x3
I0403 15:46:06.562870 11253 net.cpp:91] Creating Layer inception_3b/3x3
I0403 15:46:06.562888 11253 net.cpp:425] inception_3b/3x3 <- inception_3b/3x3_reduce
I0403 15:46:06.562909 11253 net.cpp:399] inception_3b/3x3 -> inception_3b/3x3
I0403 15:46:06.565799 11253 net.cpp:141] Setting up inception_3b/3x3
I0403 15:46:06.565827 11253 net.cpp:148] Top shape: 24 192 28 28 (3612672)
I0403 15:46:06.565843 11253 net.cpp:156] Memory required for data: 710493216
I0403 15:46:06.565862 11253 layer_factory.hpp:77] Creating layer inception_3b/relu_3x3
I0403 15:46:06.565882 11253 net.cpp:91] Creating Layer inception_3b/relu_3x3
I0403 15:46:06.565899 11253 net.cpp:425] inception_3b/relu_3x3 <- inception_3b/3x3
I0403 15:46:06.565917 11253 net.cpp:386] inception_3b/relu_3x3 -> inception_3b/3x3 (in-place)
I0403 15:46:06.566198 11253 net.cpp:141] Setting up inception_3b/relu_3x3
I0403 15:46:06.566226 11253 net.cpp:148] Top shape: 24 192 28 28 (3612672)
I0403 15:46:06.566239 11253 net.cpp:156] Memory required for data: 724943904
I0403 15:46:06.566254 11253 layer_factory.hpp:77] Creating layer inception_3b/5x5_reduce
I0403 15:46:06.566277 11253 net.cpp:91] Creating Layer inception_3b/5x5_reduce
I0403 15:46:06.566298 11253 net.cpp:425] inception_3b/5x5_reduce <- inception_3a/output_inception_3a/output_0_split_2
I0403 15:46:06.566318 11253 net.cpp:399] inception_3b/5x5_reduce -> inception_3b/5x5_reduce
I0403 15:46:06.567299 11253 net.cpp:141] Setting up inception_3b/5x5_reduce
I0403 15:46:06.567327 11253 net.cpp:148] Top shape: 24 32 28 28 (602112)
I0403 15:46:06.567343 11253 net.cpp:156] Memory required for data: 727352352
I0403 15:46:06.567361 11253 layer_factory.hpp:77] Creating layer inception_3b/relu_5x5_reduce
I0403 15:46:06.567384 11253 net.cpp:91] Creating Layer inception_3b/relu_5x5_reduce
I0403 15:46:06.567400 11253 net.cpp:425] inception_3b/relu_5x5_reduce <- inception_3b/5x5_reduce
I0403 15:46:06.567419 11253 net.cpp:386] inception_3b/relu_5x5_reduce -> inception_3b/5x5_reduce (in-place)
I0403 15:46:06.567606 11253 net.cpp:141] Setting up inception_3b/relu_5x5_reduce
I0403 15:46:06.567633 11253 net.cpp:148] Top shape: 24 32 28 28 (602112)
I0403 15:46:06.567648 11253 net.cpp:156] Memory required for data: 729760800
I0403 15:46:06.567663 11253 layer_factory.hpp:77] Creating layer inception_3b/5x5
I0403 15:46:06.567687 11253 net.cpp:91] Creating Layer inception_3b/5x5
I0403 15:46:06.567703 11253 net.cpp:425] inception_3b/5x5 <- inception_3b/5x5_reduce
I0403 15:46:06.567723 11253 net.cpp:399] inception_3b/5x5 -> inception_3b/5x5
I0403 15:46:06.569736 11253 net.cpp:141] Setting up inception_3b/5x5
I0403 15:46:06.569766 11253 net.cpp:148] Top shape: 24 96 28 28 (1806336)
I0403 15:46:06.569782 11253 net.cpp:156] Memory required for data: 736986144
I0403 15:46:06.569800 11253 layer_factory.hpp:77] Creating layer inception_3b/relu_5x5
I0403 15:46:06.569819 11253 net.cpp:91] Creating Layer inception_3b/relu_5x5
I0403 15:46:06.569835 11253 net.cpp:425] inception_3b/relu_5x5 <- inception_3b/5x5
I0403 15:46:06.569855 11253 net.cpp:386] inception_3b/relu_5x5 -> inception_3b/5x5 (in-place)
I0403 15:46:06.570056 11253 net.cpp:141] Setting up inception_3b/relu_5x5
I0403 15:46:06.570082 11253 net.cpp:148] Top shape: 24 96 28 28 (1806336)
I0403 15:46:06.570096 11253 net.cpp:156] Memory required for data: 744211488
I0403 15:46:06.570112 11253 layer_factory.hpp:77] Creating layer inception_3b/pool
I0403 15:46:06.570130 11253 net.cpp:91] Creating Layer inception_3b/pool
I0403 15:46:06.570147 11253 net.cpp:425] inception_3b/pool <- inception_3a/output_inception_3a/output_0_split_3
I0403 15:46:06.570165 11253 net.cpp:399] inception_3b/pool -> inception_3b/pool
I0403 15:46:06.570221 11253 net.cpp:141] Setting up inception_3b/pool
I0403 15:46:06.570245 11253 net.cpp:148] Top shape: 24 256 28 28 (4816896)
I0403 15:46:06.570261 11253 net.cpp:156] Memory required for data: 763479072
I0403 15:46:06.570274 11253 layer_factory.hpp:77] Creating layer inception_3b/pool_proj
I0403 15:46:06.570297 11253 net.cpp:91] Creating Layer inception_3b/pool_proj
I0403 15:46:06.570315 11253 net.cpp:425] inception_3b/pool_proj <- inception_3b/pool
I0403 15:46:06.570336 11253 net.cpp:399] inception_3b/pool_proj -> inception_3b/pool_proj
I0403 15:46:06.571411 11253 net.cpp:141] Setting up inception_3b/pool_proj
I0403 15:46:06.571441 11253 net.cpp:148] Top shape: 24 64 28 28 (1204224)
I0403 15:46:06.571458 11253 net.cpp:156] Memory required for data: 768295968
I0403 15:46:06.571478 11253 layer_factory.hpp:77] Creating layer inception_3b/relu_pool_proj
I0403 15:46:06.571496 11253 net.cpp:91] Creating Layer inception_3b/relu_pool_proj
I0403 15:46:06.571513 11253 net.cpp:425] inception_3b/relu_pool_proj <- inception_3b/pool_proj
I0403 15:46:06.571537 11253 net.cpp:386] inception_3b/relu_pool_proj -> inception_3b/pool_proj (in-place)
I0403 15:46:06.571950 11253 net.cpp:141] Setting up inception_3b/relu_pool_proj
I0403 15:46:06.571981 11253 net.cpp:148] Top shape: 24 64 28 28 (1204224)
I0403 15:46:06.571998 11253 net.cpp:156] Memory required for data: 773112864
I0403 15:46:06.572015 11253 layer_factory.hpp:77] Creating layer inception_3b/output
I0403 15:46:06.572032 11253 net.cpp:91] Creating Layer inception_3b/output
I0403 15:46:06.572049 11253 net.cpp:425] inception_3b/output <- inception_3b/1x1
I0403 15:46:06.572067 11253 net.cpp:425] inception_3b/output <- inception_3b/3x3
I0403 15:46:06.572084 11253 net.cpp:425] inception_3b/output <- inception_3b/5x5
I0403 15:46:06.572100 11253 net.cpp:425] inception_3b/output <- inception_3b/pool_proj
I0403 15:46:06.572118 11253 net.cpp:399] inception_3b/output -> inception_3b/output
I0403 15:46:06.572166 11253 net.cpp:141] Setting up inception_3b/output
I0403 15:46:06.572190 11253 net.cpp:148] Top shape: 24 480 28 28 (9031680)
I0403 15:46:06.572217 11253 net.cpp:156] Memory required for data: 809239584
I0403 15:46:06.572233 11253 layer_factory.hpp:77] Creating layer pool3/3x3_s2
I0403 15:46:06.572253 11253 net.cpp:91] Creating Layer pool3/3x3_s2
I0403 15:46:06.572270 11253 net.cpp:425] pool3/3x3_s2 <- inception_3b/output
I0403 15:46:06.572304 11253 net.cpp:399] pool3/3x3_s2 -> pool3/3x3_s2
I0403 15:46:06.572367 11253 net.cpp:141] Setting up pool3/3x3_s2
I0403 15:46:06.572391 11253 net.cpp:148] Top shape: 24 480 14 14 (2257920)
I0403 15:46:06.572407 11253 net.cpp:156] Memory required for data: 818271264
I0403 15:46:06.572422 11253 layer_factory.hpp:77] Creating layer pool3/3x3_s2_pool3/3x3_s2_0_split
I0403 15:46:06.572439 11253 net.cpp:91] Creating Layer pool3/3x3_s2_pool3/3x3_s2_0_split
I0403 15:46:06.572454 11253 net.cpp:425] pool3/3x3_s2_pool3/3x3_s2_0_split <- pool3/3x3_s2
I0403 15:46:06.572474 11253 net.cpp:399] pool3/3x3_s2_pool3/3x3_s2_0_split -> pool3/3x3_s2_pool3/3x3_s2_0_split_0
I0403 15:46:06.572496 11253 net.cpp:399] pool3/3x3_s2_pool3/3x3_s2_0_split -> pool3/3x3_s2_pool3/3x3_s2_0_split_1
I0403 15:46:06.572516 11253 net.cpp:399] pool3/3x3_s2_pool3/3x3_s2_0_split -> pool3/3x3_s2_pool3/3x3_s2_0_split_2
I0403 15:46:06.572536 11253 net.cpp:399] pool3/3x3_s2_pool3/3x3_s2_0_split -> pool3/3x3_s2_pool3/3x3_s2_0_split_3
I0403 15:46:06.572613 11253 net.cpp:141] Setting up pool3/3x3_s2_pool3/3x3_s2_0_split
I0403 15:46:06.572638 11253 net.cpp:148] Top shape: 24 480 14 14 (2257920)
I0403 15:46:06.572656 11253 net.cpp:148] Top shape: 24 480 14 14 (2257920)
I0403 15:46:06.572672 11253 net.cpp:148] Top shape: 24 480 14 14 (2257920)
I0403 15:46:06.572688 11253 net.cpp:148] Top shape: 24 480 14 14 (2257920)
I0403 15:46:06.572703 11253 net.cpp:156] Memory required for data: 854397984
I0403 15:46:06.572720 11253 layer_factory.hpp:77] Creating layer inception_4a/1x1
I0403 15:46:06.572741 11253 net.cpp:91] Creating Layer inception_4a/1x1
I0403 15:46:06.572758 11253 net.cpp:425] inception_4a/1x1 <- pool3/3x3_s2_pool3/3x3_s2_0_split_0
I0403 15:46:06.572777 11253 net.cpp:399] inception_4a/1x1 -> inception_4a/1x1
I0403 15:46:06.574378 11253 net.cpp:141] Setting up inception_4a/1x1
I0403 15:46:06.574405 11253 net.cpp:148] Top shape: 24 192 14 14 (903168)
I0403 15:46:06.574421 11253 net.cpp:156] Memory required for data: 858010656
I0403 15:46:06.574440 11253 layer_factory.hpp:77] Creating layer inception_4a/relu_1x1
I0403 15:46:06.574458 11253 net.cpp:91] Creating Layer inception_4a/relu_1x1
I0403 15:46:06.574475 11253 net.cpp:425] inception_4a/relu_1x1 <- inception_4a/1x1
I0403 15:46:06.574494 11253 net.cpp:386] inception_4a/relu_1x1 -> inception_4a/1x1 (in-place)
I0403 15:46:06.574673 11253 net.cpp:141] Setting up inception_4a/relu_1x1
I0403 15:46:06.574698 11253 net.cpp:148] Top shape: 24 192 14 14 (903168)
I0403 15:46:06.574713 11253 net.cpp:156] Memory required for data: 861623328
I0403 15:46:06.574728 11253 layer_factory.hpp:77] Creating layer inception_4a/3x3_reduce
I0403 15:46:06.574751 11253 net.cpp:91] Creating Layer inception_4a/3x3_reduce
I0403 15:46:06.574769 11253 net.cpp:425] inception_4a/3x3_reduce <- pool3/3x3_s2_pool3/3x3_s2_0_split_1
I0403 15:46:06.574790 11253 net.cpp:399] inception_4a/3x3_reduce -> inception_4a/3x3_reduce
I0403 15:46:06.576088 11253 net.cpp:141] Setting up inception_4a/3x3_reduce
I0403 15:46:06.576119 11253 net.cpp:148] Top shape: 24 96 14 14 (451584)
I0403 15:46:06.576136 11253 net.cpp:156] Memory required for data: 863429664
I0403 15:46:06.576161 11253 layer_factory.hpp:77] Creating layer inception_4a/relu_3x3_reduce
I0403 15:46:06.576181 11253 net.cpp:91] Creating Layer inception_4a/relu_3x3_reduce
I0403 15:46:06.576198 11253 net.cpp:425] inception_4a/relu_3x3_reduce <- inception_4a/3x3_reduce
I0403 15:46:06.576216 11253 net.cpp:386] inception_4a/relu_3x3_reduce -> inception_4a/3x3_reduce (in-place)
I0403 15:46:06.576392 11253 net.cpp:141] Setting up inception_4a/relu_3x3_reduce
I0403 15:46:06.576417 11253 net.cpp:148] Top shape: 24 96 14 14 (451584)
I0403 15:46:06.576432 11253 net.cpp:156] Memory required for data: 865236000
I0403 15:46:06.576447 11253 layer_factory.hpp:77] Creating layer inception_4a/3x3
I0403 15:46:06.576470 11253 net.cpp:91] Creating Layer inception_4a/3x3
I0403 15:46:06.576488 11253 net.cpp:425] inception_4a/3x3 <- inception_4a/3x3_reduce
I0403 15:46:06.576509 11253 net.cpp:399] inception_4a/3x3 -> inception_4a/3x3
I0403 15:46:06.579254 11253 net.cpp:141] Setting up inception_4a/3x3
I0403 15:46:06.579283 11253 net.cpp:148] Top shape: 24 208 14 14 (978432)
I0403 15:46:06.579299 11253 net.cpp:156] Memory required for data: 869149728
I0403 15:46:06.579319 11253 layer_factory.hpp:77] Creating layer inception_4a/relu_3x3
I0403 15:46:06.579341 11253 net.cpp:91] Creating Layer inception_4a/relu_3x3
I0403 15:46:06.579358 11253 net.cpp:425] inception_4a/relu_3x3 <- inception_4a/3x3
I0403 15:46:06.579376 11253 net.cpp:386] inception_4a/relu_3x3 -> inception_4a/3x3 (in-place)
I0403 15:46:06.579665 11253 net.cpp:141] Setting up inception_4a/relu_3x3
I0403 15:46:06.579691 11253 net.cpp:148] Top shape: 24 208 14 14 (978432)
I0403 15:46:06.579706 11253 net.cpp:156] Memory required for data: 873063456
I0403 15:46:06.579722 11253 layer_factory.hpp:77] Creating layer inception_4a/5x5_reduce
I0403 15:46:06.579746 11253 net.cpp:91] Creating Layer inception_4a/5x5_reduce
I0403 15:46:06.579764 11253 net.cpp:425] inception_4a/5x5_reduce <- pool3/3x3_s2_pool3/3x3_s2_0_split_2
I0403 15:46:06.579787 11253 net.cpp:399] inception_4a/5x5_reduce -> inception_4a/5x5_reduce
I0403 15:46:06.580822 11253 net.cpp:141] Setting up inception_4a/5x5_reduce
I0403 15:46:06.580850 11253 net.cpp:148] Top shape: 24 16 14 14 (75264)
I0403 15:46:06.580867 11253 net.cpp:156] Memory required for data: 873364512
I0403 15:46:06.580884 11253 layer_factory.hpp:77] Creating layer inception_4a/relu_5x5_reduce
I0403 15:46:06.580905 11253 net.cpp:91] Creating Layer inception_4a/relu_5x5_reduce
I0403 15:46:06.580924 11253 net.cpp:425] inception_4a/relu_5x5_reduce <- inception_4a/5x5_reduce
I0403 15:46:06.580941 11253 net.cpp:386] inception_4a/relu_5x5_reduce -> inception_4a/5x5_reduce (in-place)
I0403 15:46:06.581125 11253 net.cpp:141] Setting up inception_4a/relu_5x5_reduce
I0403 15:46:06.581153 11253 net.cpp:148] Top shape: 24 16 14 14 (75264)
I0403 15:46:06.581169 11253 net.cpp:156] Memory required for data: 873665568
I0403 15:46:06.581185 11253 layer_factory.hpp:77] Creating layer inception_4a/5x5
I0403 15:46:06.581209 11253 net.cpp:91] Creating Layer inception_4a/5x5
I0403 15:46:06.581228 11253 net.cpp:425] inception_4a/5x5 <- inception_4a/5x5_reduce
I0403 15:46:06.581246 11253 net.cpp:399] inception_4a/5x5 -> inception_4a/5x5
I0403 15:46:06.582352 11253 net.cpp:141] Setting up inception_4a/5x5
I0403 15:46:06.582382 11253 net.cpp:148] Top shape: 24 48 14 14 (225792)
I0403 15:46:06.582398 11253 net.cpp:156] Memory required for data: 874568736
I0403 15:46:06.582417 11253 layer_factory.hpp:77] Creating layer inception_4a/relu_5x5
I0403 15:46:06.582435 11253 net.cpp:91] Creating Layer inception_4a/relu_5x5
I0403 15:46:06.582453 11253 net.cpp:425] inception_4a/relu_5x5 <- inception_4a/5x5
I0403 15:46:06.582473 11253 net.cpp:386] inception_4a/relu_5x5 -> inception_4a/5x5 (in-place)
I0403 15:46:06.582653 11253 net.cpp:141] Setting up inception_4a/relu_5x5
I0403 15:46:06.582679 11253 net.cpp:148] Top shape: 24 48 14 14 (225792)
I0403 15:46:06.582693 11253 net.cpp:156] Memory required for data: 875471904
I0403 15:46:06.582708 11253 layer_factory.hpp:77] Creating layer inception_4a/pool
I0403 15:46:06.582726 11253 net.cpp:91] Creating Layer inception_4a/pool
I0403 15:46:06.582743 11253 net.cpp:425] inception_4a/pool <- pool3/3x3_s2_pool3/3x3_s2_0_split_3
I0403 15:46:06.582763 11253 net.cpp:399] inception_4a/pool -> inception_4a/pool
I0403 15:46:06.582825 11253 net.cpp:141] Setting up inception_4a/pool
I0403 15:46:06.582849 11253 net.cpp:148] Top shape: 24 480 14 14 (2257920)
I0403 15:46:06.582864 11253 net.cpp:156] Memory required for data: 884503584
I0403 15:46:06.582880 11253 layer_factory.hpp:77] Creating layer inception_4a/pool_proj
I0403 15:46:06.582903 11253 net.cpp:91] Creating Layer inception_4a/pool_proj
I0403 15:46:06.582921 11253 net.cpp:425] inception_4a/pool_proj <- inception_4a/pool
I0403 15:46:06.582942 11253 net.cpp:399] inception_4a/pool_proj -> inception_4a/pool_proj
I0403 15:46:06.584134 11253 net.cpp:141] Setting up inception_4a/pool_proj
I0403 15:46:06.584166 11253 net.cpp:148] Top shape: 24 64 14 14 (301056)
I0403 15:46:06.584195 11253 net.cpp:156] Memory required for data: 885707808
I0403 15:46:06.584216 11253 layer_factory.hpp:77] Creating layer inception_4a/relu_pool_proj
I0403 15:46:06.584235 11253 net.cpp:91] Creating Layer inception_4a/relu_pool_proj
I0403 15:46:06.584252 11253 net.cpp:425] inception_4a/relu_pool_proj <- inception_4a/pool_proj
I0403 15:46:06.584273 11253 net.cpp:386] inception_4a/relu_pool_proj -> inception_4a/pool_proj (in-place)
I0403 15:46:06.584561 11253 net.cpp:141] Setting up inception_4a/relu_pool_proj
I0403 15:46:06.584590 11253 net.cpp:148] Top shape: 24 64 14 14 (301056)
I0403 15:46:06.584606 11253 net.cpp:156] Memory required for data: 886912032
I0403 15:46:06.584621 11253 layer_factory.hpp:77] Creating layer inception_4a/output
I0403 15:46:06.584640 11253 net.cpp:91] Creating Layer inception_4a/output
I0403 15:46:06.584656 11253 net.cpp:425] inception_4a/output <- inception_4a/1x1
I0403 15:46:06.584673 11253 net.cpp:425] inception_4a/output <- inception_4a/3x3
I0403 15:46:06.584691 11253 net.cpp:425] inception_4a/output <- inception_4a/5x5
I0403 15:46:06.584707 11253 net.cpp:425] inception_4a/output <- inception_4a/pool_proj
I0403 15:46:06.584727 11253 net.cpp:399] inception_4a/output -> inception_4a/output
I0403 15:46:06.584771 11253 net.cpp:141] Setting up inception_4a/output
I0403 15:46:06.584794 11253 net.cpp:148] Top shape: 24 512 14 14 (2408448)
I0403 15:46:06.584810 11253 net.cpp:156] Memory required for data: 896545824
I0403 15:46:06.584825 11253 layer_factory.hpp:77] Creating layer inception_4a/output_inception_4a/output_0_split
I0403 15:46:06.584846 11253 net.cpp:91] Creating Layer inception_4a/output_inception_4a/output_0_split
I0403 15:46:06.584862 11253 net.cpp:425] inception_4a/output_inception_4a/output_0_split <- inception_4a/output
I0403 15:46:06.584880 11253 net.cpp:399] inception_4a/output_inception_4a/output_0_split -> inception_4a/output_inception_4a/output_0_split_0
I0403 15:46:06.584903 11253 net.cpp:399] inception_4a/output_inception_4a/output_0_split -> inception_4a/output_inception_4a/output_0_split_1
I0403 15:46:06.584924 11253 net.cpp:399] inception_4a/output_inception_4a/output_0_split -> inception_4a/output_inception_4a/output_0_split_2
I0403 15:46:06.584950 11253 net.cpp:399] inception_4a/output_inception_4a/output_0_split -> inception_4a/output_inception_4a/output_0_split_3
I0403 15:46:06.584974 11253 net.cpp:399] inception_4a/output_inception_4a/output_0_split -> inception_4a/output_inception_4a/output_0_split_4
I0403 15:46:06.585067 11253 net.cpp:141] Setting up inception_4a/output_inception_4a/output_0_split
I0403 15:46:06.585091 11253 net.cpp:148] Top shape: 24 512 14 14 (2408448)
I0403 15:46:06.585108 11253 net.cpp:148] Top shape: 24 512 14 14 (2408448)
I0403 15:46:06.585124 11253 net.cpp:148] Top shape: 24 512 14 14 (2408448)
I0403 15:46:06.585140 11253 net.cpp:148] Top shape: 24 512 14 14 (2408448)
I0403 15:46:06.585156 11253 net.cpp:148] Top shape: 24 512 14 14 (2408448)
I0403 15:46:06.585171 11253 net.cpp:156] Memory required for data: 944714784
I0403 15:46:06.585186 11253 layer_factory.hpp:77] Creating layer loss1/ave_pool
I0403 15:46:06.585208 11253 net.cpp:91] Creating Layer loss1/ave_pool
I0403 15:46:06.585227 11253 net.cpp:425] loss1/ave_pool <- inception_4a/output_inception_4a/output_0_split_0
I0403 15:46:06.585244 11253 net.cpp:399] loss1/ave_pool -> loss1/ave_pool
I0403 15:46:06.585451 11253 net.cpp:141] Setting up loss1/ave_pool
I0403 15:46:06.585482 11253 net.cpp:148] Top shape: 24 512 4 4 (196608)
I0403 15:46:06.585500 11253 net.cpp:156] Memory required for data: 945501216
I0403 15:46:06.585515 11253 layer_factory.hpp:77] Creating layer loss1/conv
I0403 15:46:06.585537 11253 net.cpp:91] Creating Layer loss1/conv
I0403 15:46:06.585554 11253 net.cpp:425] loss1/conv <- loss1/ave_pool
I0403 15:46:06.585574 11253 net.cpp:399] loss1/conv -> loss1/conv
I0403 15:46:06.587015 11253 net.cpp:141] Setting up loss1/conv
I0403 15:46:06.587044 11253 net.cpp:148] Top shape: 24 128 4 4 (49152)
I0403 15:46:06.587074 11253 net.cpp:156] Memory required for data: 945697824
I0403 15:46:06.587095 11253 layer_factory.hpp:77] Creating layer loss1/relu_conv
I0403 15:46:06.587116 11253 net.cpp:91] Creating Layer loss1/relu_conv
I0403 15:46:06.587133 11253 net.cpp:425] loss1/relu_conv <- loss1/conv
I0403 15:46:06.587152 11253 net.cpp:386] loss1/relu_conv -> loss1/conv (in-place)
I0403 15:46:06.587440 11253 net.cpp:141] Setting up loss1/relu_conv
I0403 15:46:06.587467 11253 net.cpp:148] Top shape: 24 128 4 4 (49152)
I0403 15:46:06.587493 11253 net.cpp:156] Memory required for data: 945894432
I0403 15:46:06.587508 11253 layer_factory.hpp:77] Creating layer loss1/fc
I0403 15:46:06.587534 11253 net.cpp:91] Creating Layer loss1/fc
I0403 15:46:06.587553 11253 net.cpp:425] loss1/fc <- loss1/conv
I0403 15:46:06.587571 11253 net.cpp:399] loss1/fc -> loss1/fc
I0403 15:46:06.605355 11253 net.cpp:141] Setting up loss1/fc
I0403 15:46:06.605388 11253 net.cpp:148] Top shape: 24 1024 (24576)
I0403 15:46:06.605404 11253 net.cpp:156] Memory required for data: 945992736
I0403 15:46:06.605423 11253 layer_factory.hpp:77] Creating layer loss1/relu_fc
I0403 15:46:06.605442 11253 net.cpp:91] Creating Layer loss1/relu_fc
I0403 15:46:06.605458 11253 net.cpp:425] loss1/relu_fc <- loss1/fc
I0403 15:46:06.605478 11253 net.cpp:386] loss1/relu_fc -> loss1/fc (in-place)
I0403 15:46:06.605664 11253 net.cpp:141] Setting up loss1/relu_fc
I0403 15:46:06.605689 11253 net.cpp:148] Top shape: 24 1024 (24576)
I0403 15:46:06.605702 11253 net.cpp:156] Memory required for data: 946091040
I0403 15:46:06.605717 11253 layer_factory.hpp:77] Creating layer loss1/drop_fc
I0403 15:46:06.605743 11253 net.cpp:91] Creating Layer loss1/drop_fc
I0403 15:46:06.605762 11253 net.cpp:425] loss1/drop_fc <- loss1/fc
I0403 15:46:06.605784 11253 net.cpp:386] loss1/drop_fc -> loss1/fc (in-place)
I0403 15:46:06.605835 11253 net.cpp:141] Setting up loss1/drop_fc
I0403 15:46:06.605860 11253 net.cpp:148] Top shape: 24 1024 (24576)
I0403 15:46:06.605876 11253 net.cpp:156] Memory required for data: 946189344
I0403 15:46:06.605891 11253 layer_factory.hpp:77] Creating layer loss1/classifier_plantvillage
I0403 15:46:06.605908 11253 net.cpp:91] Creating Layer loss1/classifier_plantvillage
I0403 15:46:06.605924 11253 net.cpp:425] loss1/classifier_plantvillage <- loss1/fc
I0403 15:46:06.605948 11253 net.cpp:399] loss1/classifier_plantvillage -> loss1/classifier_plantvillage
I0403 15:46:06.606863 11253 net.cpp:141] Setting up loss1/classifier_plantvillage
I0403 15:46:06.606890 11253 net.cpp:148] Top shape: 24 38 (912)
I0403 15:46:06.606905 11253 net.cpp:156] Memory required for data: 946192992
I0403 15:46:06.606925 11253 layer_factory.hpp:77] Creating layer loss1/classifier_plantvillage_loss1/classifier_plantvillage_0_split
I0403 15:46:06.606942 11253 net.cpp:91] Creating Layer loss1/classifier_plantvillage_loss1/classifier_plantvillage_0_split
I0403 15:46:06.606963 11253 net.cpp:425] loss1/classifier_plantvillage_loss1/classifier_plantvillage_0_split <- loss1/classifier_plantvillage
I0403 15:46:06.606984 11253 net.cpp:399] loss1/classifier_plantvillage_loss1/classifier_plantvillage_0_split -> loss1/classifier_plantvillage_loss1/classifier_plantvillage_0_split_0
I0403 15:46:06.607005 11253 net.cpp:399] loss1/classifier_plantvillage_loss1/classifier_plantvillage_0_split -> loss1/classifier_plantvillage_loss1/classifier_plantvillage_0_split_1
I0403 15:46:06.607025 11253 net.cpp:399] loss1/classifier_plantvillage_loss1/classifier_plantvillage_0_split -> loss1/classifier_plantvillage_loss1/classifier_plantvillage_0_split_2
I0403 15:46:06.607092 11253 net.cpp:141] Setting up loss1/classifier_plantvillage_loss1/classifier_plantvillage_0_split
I0403 15:46:06.607115 11253 net.cpp:148] Top shape: 24 38 (912)
I0403 15:46:06.607131 11253 net.cpp:148] Top shape: 24 38 (912)
I0403 15:46:06.607147 11253 net.cpp:148] Top shape: 24 38 (912)
I0403 15:46:06.607161 11253 net.cpp:156] Memory required for data: 946203936
I0403 15:46:06.607177 11253 layer_factory.hpp:77] Creating layer inception_4b/1x1
I0403 15:46:06.607198 11253 net.cpp:91] Creating Layer inception_4b/1x1
I0403 15:46:06.607230 11253 net.cpp:425] inception_4b/1x1 <- inception_4a/output_inception_4a/output_0_split_1
I0403 15:46:06.607250 11253 net.cpp:399] inception_4b/1x1 -> inception_4b/1x1
I0403 15:46:06.608883 11253 net.cpp:141] Setting up inception_4b/1x1
I0403 15:46:06.608911 11253 net.cpp:148] Top shape: 24 160 14 14 (752640)
I0403 15:46:06.608927 11253 net.cpp:156] Memory required for data: 949214496
I0403 15:46:06.608945 11253 layer_factory.hpp:77] Creating layer inception_4b/relu_1x1
I0403 15:46:06.608978 11253 net.cpp:91] Creating Layer inception_4b/relu_1x1
I0403 15:46:06.608995 11253 net.cpp:425] inception_4b/relu_1x1 <- inception_4b/1x1
I0403 15:46:06.609012 11253 net.cpp:386] inception_4b/relu_1x1 -> inception_4b/1x1 (in-place)
I0403 15:46:06.609190 11253 net.cpp:141] Setting up inception_4b/relu_1x1
I0403 15:46:06.609218 11253 net.cpp:148] Top shape: 24 160 14 14 (752640)
I0403 15:46:06.609233 11253 net.cpp:156] Memory required for data: 952225056
I0403 15:46:06.609248 11253 layer_factory.hpp:77] Creating layer inception_4b/3x3_reduce
I0403 15:46:06.609271 11253 net.cpp:91] Creating Layer inception_4b/3x3_reduce
I0403 15:46:06.609287 11253 net.cpp:425] inception_4b/3x3_reduce <- inception_4a/output_inception_4a/output_0_split_2
I0403 15:46:06.609307 11253 net.cpp:399] inception_4b/3x3_reduce -> inception_4b/3x3_reduce
I0403 15:46:06.610690 11253 net.cpp:141] Setting up inception_4b/3x3_reduce
I0403 15:46:06.610721 11253 net.cpp:148] Top shape: 24 112 14 14 (526848)
I0403 15:46:06.610738 11253 net.cpp:156] Memory required for data: 954332448
I0403 15:46:06.610757 11253 layer_factory.hpp:77] Creating layer inception_4b/relu_3x3_reduce
I0403 15:46:06.610775 11253 net.cpp:91] Creating Layer inception_4b/relu_3x3_reduce
I0403 15:46:06.610791 11253 net.cpp:425] inception_4b/relu_3x3_reduce <- inception_4b/3x3_reduce
I0403 15:46:06.610808 11253 net.cpp:386] inception_4b/relu_3x3_reduce -> inception_4b/3x3_reduce (in-place)
I0403 15:46:06.611099 11253 net.cpp:141] Setting up inception_4b/relu_3x3_reduce
I0403 15:46:06.611127 11253 net.cpp:148] Top shape: 24 112 14 14 (526848)
I0403 15:46:06.611142 11253 net.cpp:156] Memory required for data: 956439840
I0403 15:46:06.611157 11253 layer_factory.hpp:77] Creating layer inception_4b/3x3
I0403 15:46:06.611179 11253 net.cpp:91] Creating Layer inception_4b/3x3
I0403 15:46:06.611197 11253 net.cpp:425] inception_4b/3x3 <- inception_4b/3x3_reduce
I0403 15:46:06.611217 11253 net.cpp:399] inception_4b/3x3 -> inception_4b/3x3
I0403 15:46:06.614207 11253 net.cpp:141] Setting up inception_4b/3x3
I0403 15:46:06.614236 11253 net.cpp:148] Top shape: 24 224 14 14 (1053696)
I0403 15:46:06.614253 11253 net.cpp:156] Memory required for data: 960654624
I0403 15:46:06.614271 11253 layer_factory.hpp:77] Creating layer inception_4b/relu_3x3
I0403 15:46:06.614289 11253 net.cpp:91] Creating Layer inception_4b/relu_3x3
I0403 15:46:06.614306 11253 net.cpp:425] inception_4b/relu_3x3 <- inception_4b/3x3
I0403 15:46:06.614326 11253 net.cpp:386] inception_4b/relu_3x3 -> inception_4b/3x3 (in-place)
I0403 15:46:06.614507 11253 net.cpp:141] Setting up inception_4b/relu_3x3
I0403 15:46:06.614532 11253 net.cpp:148] Top shape: 24 224 14 14 (1053696)
I0403 15:46:06.614547 11253 net.cpp:156] Memory required for data: 964869408
I0403 15:46:06.614562 11253 layer_factory.hpp:77] Creating layer inception_4b/5x5_reduce
I0403 15:46:06.614583 11253 net.cpp:91] Creating Layer inception_4b/5x5_reduce
I0403 15:46:06.614601 11253 net.cpp:425] inception_4b/5x5_reduce <- inception_4a/output_inception_4a/output_0_split_3
I0403 15:46:06.614624 11253 net.cpp:399] inception_4b/5x5_reduce -> inception_4b/5x5_reduce
I0403 15:46:06.615700 11253 net.cpp:141] Setting up inception_4b/5x5_reduce
I0403 15:46:06.615728 11253 net.cpp:148] Top shape: 24 24 14 14 (112896)
I0403 15:46:06.615743 11253 net.cpp:156] Memory required for data: 965320992
I0403 15:46:06.615762 11253 layer_factory.hpp:77] Creating layer inception_4b/relu_5x5_reduce
I0403 15:46:06.615783 11253 net.cpp:91] Creating Layer inception_4b/relu_5x5_reduce
I0403 15:46:06.615814 11253 net.cpp:425] inception_4b/relu_5x5_reduce <- inception_4b/5x5_reduce
I0403 15:46:06.615833 11253 net.cpp:386] inception_4b/relu_5x5_reduce -> inception_4b/5x5_reduce (in-place)
I0403 15:46:06.616017 11253 net.cpp:141] Setting up inception_4b/relu_5x5_reduce
I0403 15:46:06.616044 11253 net.cpp:148] Top shape: 24 24 14 14 (112896)
I0403 15:46:06.616060 11253 net.cpp:156] Memory required for data: 965772576
I0403 15:46:06.616075 11253 layer_factory.hpp:77] Creating layer inception_4b/5x5
I0403 15:46:06.616097 11253 net.cpp:91] Creating Layer inception_4b/5x5
I0403 15:46:06.616116 11253 net.cpp:425] inception_4b/5x5 <- inception_4b/5x5_reduce
I0403 15:46:06.616134 11253 net.cpp:399] inception_4b/5x5 -> inception_4b/5x5
I0403 15:46:06.617393 11253 net.cpp:141] Setting up inception_4b/5x5
I0403 15:46:06.617421 11253 net.cpp:148] Top shape: 24 64 14 14 (301056)
I0403 15:46:06.617437 11253 net.cpp:156] Memory required for data: 966976800
I0403 15:46:06.617456 11253 layer_factory.hpp:77] Creating layer inception_4b/relu_5x5
I0403 15:46:06.617477 11253 net.cpp:91] Creating Layer inception_4b/relu_5x5
I0403 15:46:06.617496 11253 net.cpp:425] inception_4b/relu_5x5 <- inception_4b/5x5
I0403 15:46:06.617513 11253 net.cpp:386] inception_4b/relu_5x5 -> inception_4b/5x5 (in-place)
I0403 15:46:06.617804 11253 net.cpp:141] Setting up inception_4b/relu_5x5
I0403 15:46:06.617830 11253 net.cpp:148] Top shape: 24 64 14 14 (301056)
I0403 15:46:06.617846 11253 net.cpp:156] Memory required for data: 968181024
I0403 15:46:06.617861 11253 layer_factory.hpp:77] Creating layer inception_4b/pool
I0403 15:46:06.617884 11253 net.cpp:91] Creating Layer inception_4b/pool
I0403 15:46:06.617903 11253 net.cpp:425] inception_4b/pool <- inception_4a/output_inception_4a/output_0_split_4
I0403 15:46:06.617923 11253 net.cpp:399] inception_4b/pool -> inception_4b/pool
I0403 15:46:06.617993 11253 net.cpp:141] Setting up inception_4b/pool
I0403 15:46:06.618017 11253 net.cpp:148] Top shape: 24 512 14 14 (2408448)
I0403 15:46:06.618032 11253 net.cpp:156] Memory required for data: 977814816
I0403 15:46:06.618048 11253 layer_factory.hpp:77] Creating layer inception_4b/pool_proj
I0403 15:46:06.618070 11253 net.cpp:91] Creating Layer inception_4b/pool_proj
I0403 15:46:06.618088 11253 net.cpp:425] inception_4b/pool_proj <- inception_4b/pool
I0403 15:46:06.618109 11253 net.cpp:399] inception_4b/pool_proj -> inception_4b/pool_proj
I0403 15:46:06.619343 11253 net.cpp:141] Setting up inception_4b/pool_proj
I0403 15:46:06.619371 11253 net.cpp:148] Top shape: 24 64 14 14 (301056)
I0403 15:46:06.619387 11253 net.cpp:156] Memory required for data: 979019040
I0403 15:46:06.619405 11253 layer_factory.hpp:77] Creating layer inception_4b/relu_pool_proj
I0403 15:46:06.619426 11253 net.cpp:91] Creating Layer inception_4b/relu_pool_proj
I0403 15:46:06.619444 11253 net.cpp:425] inception_4b/relu_pool_proj <- inception_4b/pool_proj
I0403 15:46:06.619462 11253 net.cpp:386] inception_4b/relu_pool_proj -> inception_4b/pool_proj (in-place)
I0403 15:46:06.619643 11253 net.cpp:141] Setting up inception_4b/relu_pool_proj
I0403 15:46:06.619671 11253 net.cpp:148] Top shape: 24 64 14 14 (301056)
I0403 15:46:06.619688 11253 net.cpp:156] Memory required for data: 980223264
I0403 15:46:06.619702 11253 layer_factory.hpp:77] Creating layer inception_4b/output
I0403 15:46:06.619719 11253 net.cpp:91] Creating Layer inception_4b/output
I0403 15:46:06.619735 11253 net.cpp:425] inception_4b/output <- inception_4b/1x1
I0403 15:46:06.619751 11253 net.cpp:425] inception_4b/output <- inception_4b/3x3
I0403 15:46:06.619768 11253 net.cpp:425] inception_4b/output <- inception_4b/5x5
I0403 15:46:06.619784 11253 net.cpp:425] inception_4b/output <- inception_4b/pool_proj
I0403 15:46:06.619801 11253 net.cpp:399] inception_4b/output -> inception_4b/output
I0403 15:46:06.619848 11253 net.cpp:141] Setting up inception_4b/output
I0403 15:46:06.619873 11253 net.cpp:148] Top shape: 24 512 14 14 (2408448)
I0403 15:46:06.619887 11253 net.cpp:156] Memory required for data: 989857056
I0403 15:46:06.619916 11253 layer_factory.hpp:77] Creating layer inception_4b/output_inception_4b/output_0_split
I0403 15:46:06.619938 11253 net.cpp:91] Creating Layer inception_4b/output_inception_4b/output_0_split
I0403 15:46:06.619959 11253 net.cpp:425] inception_4b/output_inception_4b/output_0_split <- inception_4b/output
I0403 15:46:06.619978 11253 net.cpp:399] inception_4b/output_inception_4b/output_0_split -> inception_4b/output_inception_4b/output_0_split_0
I0403 15:46:06.619998 11253 net.cpp:399] inception_4b/output_inception_4b/output_0_split -> inception_4b/output_inception_4b/output_0_split_1
I0403 15:46:06.620019 11253 net.cpp:399] inception_4b/output_inception_4b/output_0_split -> inception_4b/output_inception_4b/output_0_split_2
I0403 15:46:06.620043 11253 net.cpp:399] inception_4b/output_inception_4b/output_0_split -> inception_4b/output_inception_4b/output_0_split_3
I0403 15:46:06.620131 11253 net.cpp:141] Setting up inception_4b/output_inception_4b/output_0_split
I0403 15:46:06.620156 11253 net.cpp:148] Top shape: 24 512 14 14 (2408448)
I0403 15:46:06.620172 11253 net.cpp:148] Top shape: 24 512 14 14 (2408448)
I0403 15:46:06.620187 11253 net.cpp:148] Top shape: 24 512 14 14 (2408448)
I0403 15:46:06.620204 11253 net.cpp:148] Top shape: 24 512 14 14 (2408448)
I0403 15:46:06.620219 11253 net.cpp:156] Memory required for data: 1028392224
I0403 15:46:06.620234 11253 layer_factory.hpp:77] Creating layer inception_4c/1x1
I0403 15:46:06.620256 11253 net.cpp:91] Creating Layer inception_4c/1x1
I0403 15:46:06.620275 11253 net.cpp:425] inception_4c/1x1 <- inception_4b/output_inception_4b/output_0_split_0
I0403 15:46:06.620296 11253 net.cpp:399] inception_4c/1x1 -> inception_4c/1x1
I0403 15:46:06.621788 11253 net.cpp:141] Setting up inception_4c/1x1
I0403 15:46:06.621819 11253 net.cpp:148] Top shape: 24 128 14 14 (602112)
I0403 15:46:06.621835 11253 net.cpp:156] Memory required for data: 1030800672
I0403 15:46:06.621855 11253 layer_factory.hpp:77] Creating layer inception_4c/relu_1x1
I0403 15:46:06.621873 11253 net.cpp:91] Creating Layer inception_4c/relu_1x1
I0403 15:46:06.621889 11253 net.cpp:425] inception_4c/relu_1x1 <- inception_4c/1x1
I0403 15:46:06.621922 11253 net.cpp:386] inception_4c/relu_1x1 -> inception_4c/1x1 (in-place)
I0403 15:46:06.622117 11253 net.cpp:141] Setting up inception_4c/relu_1x1
I0403 15:46:06.622143 11253 net.cpp:148] Top shape: 24 128 14 14 (602112)
I0403 15:46:06.622159 11253 net.cpp:156] Memory required for data: 1033209120
I0403 15:46:06.622175 11253 layer_factory.hpp:77] Creating layer inception_4c/3x3_reduce
I0403 15:46:06.622197 11253 net.cpp:91] Creating Layer inception_4c/3x3_reduce
I0403 15:46:06.622216 11253 net.cpp:425] inception_4c/3x3_reduce <- inception_4b/output_inception_4b/output_0_split_1
I0403 15:46:06.622241 11253 net.cpp:399] inception_4c/3x3_reduce -> inception_4c/3x3_reduce
I0403 15:46:06.624305 11253 net.cpp:141] Setting up inception_4c/3x3_reduce
I0403 15:46:06.624336 11253 net.cpp:148] Top shape: 24 128 14 14 (602112)
I0403 15:46:06.624351 11253 net.cpp:156] Memory required for data: 1035617568
I0403 15:46:06.624371 11253 layer_factory.hpp:77] Creating layer inception_4c/relu_3x3_reduce
I0403 15:46:06.624392 11253 net.cpp:91] Creating Layer inception_4c/relu_3x3_reduce
I0403 15:46:06.624409 11253 net.cpp:425] inception_4c/relu_3x3_reduce <- inception_4c/3x3_reduce
I0403 15:46:06.624428 11253 net.cpp:386] inception_4c/relu_3x3_reduce -> inception_4c/3x3_reduce (in-place)
I0403 15:46:06.624722 11253 net.cpp:141] Setting up inception_4c/relu_3x3_reduce
I0403 15:46:06.624748 11253 net.cpp:148] Top shape: 24 128 14 14 (602112)
I0403 15:46:06.624764 11253 net.cpp:156] Memory required for data: 1038026016
I0403 15:46:06.624779 11253 layer_factory.hpp:77] Creating layer inception_4c/3x3
I0403 15:46:06.624804 11253 net.cpp:91] Creating Layer inception_4c/3x3
I0403 15:46:06.624820 11253 net.cpp:425] inception_4c/3x3 <- inception_4c/3x3_reduce
I0403 15:46:06.624843 11253 net.cpp:399] inception_4c/3x3 -> inception_4c/3x3
I0403 15:46:06.628581 11253 net.cpp:141] Setting up inception_4c/3x3
I0403 15:46:06.628621 11253 net.cpp:148] Top shape: 24 256 14 14 (1204224)
I0403 15:46:06.628638 11253 net.cpp:156] Memory required for data: 1042842912
I0403 15:46:06.628671 11253 layer_factory.hpp:77] Creating layer inception_4c/relu_3x3
I0403 15:46:06.628695 11253 net.cpp:91] Creating Layer inception_4c/relu_3x3
I0403 15:46:06.628712 11253 net.cpp:425] inception_4c/relu_3x3 <- inception_4c/3x3
I0403 15:46:06.628731 11253 net.cpp:386] inception_4c/relu_3x3 -> inception_4c/3x3 (in-place)
I0403 15:46:06.628916 11253 net.cpp:141] Setting up inception_4c/relu_3x3
I0403 15:46:06.628942 11253 net.cpp:148] Top shape: 24 256 14 14 (1204224)
I0403 15:46:06.628969 11253 net.cpp:156] Memory required for data: 1047659808
I0403 15:46:06.628986 11253 layer_factory.hpp:77] Creating layer inception_4c/5x5_reduce
I0403 15:46:06.629009 11253 net.cpp:91] Creating Layer inception_4c/5x5_reduce
I0403 15:46:06.629029 11253 net.cpp:425] inception_4c/5x5_reduce <- inception_4b/output_inception_4b/output_0_split_2
I0403 15:46:06.629051 11253 net.cpp:399] inception_4c/5x5_reduce -> inception_4c/5x5_reduce
I0403 15:46:06.630182 11253 net.cpp:141] Setting up inception_4c/5x5_reduce
I0403 15:46:06.630213 11253 net.cpp:148] Top shape: 24 24 14 14 (112896)
I0403 15:46:06.630228 11253 net.cpp:156] Memory required for data: 1048111392
I0403 15:46:06.630247 11253 layer_factory.hpp:77] Creating layer inception_4c/relu_5x5_reduce
I0403 15:46:06.630270 11253 net.cpp:91] Creating Layer inception_4c/relu_5x5_reduce
I0403 15:46:06.630286 11253 net.cpp:425] inception_4c/relu_5x5_reduce <- inception_4c/5x5_reduce
I0403 15:46:06.630305 11253 net.cpp:386] inception_4c/relu_5x5_reduce -> inception_4c/5x5_reduce (in-place)
I0403 15:46:06.630491 11253 net.cpp:141] Setting up inception_4c/relu_5x5_reduce
I0403 15:46:06.630518 11253 net.cpp:148] Top shape: 24 24 14 14 (112896)
I0403 15:46:06.630533 11253 net.cpp:156] Memory required for data: 1048562976
I0403 15:46:06.630549 11253 layer_factory.hpp:77] Creating layer inception_4c/5x5
I0403 15:46:06.630573 11253 net.cpp:91] Creating Layer inception_4c/5x5
I0403 15:46:06.630590 11253 net.cpp:425] inception_4c/5x5 <- inception_4c/5x5_reduce
I0403 15:46:06.630609 11253 net.cpp:399] inception_4c/5x5 -> inception_4c/5x5
I0403 15:46:06.631880 11253 net.cpp:141] Setting up inception_4c/5x5
I0403 15:46:06.631911 11253 net.cpp:148] Top shape: 24 64 14 14 (301056)
I0403 15:46:06.631928 11253 net.cpp:156] Memory required for data: 1049767200
I0403 15:46:06.631952 11253 layer_factory.hpp:77] Creating layer inception_4c/relu_5x5
I0403 15:46:06.631970 11253 net.cpp:91] Creating Layer inception_4c/relu_5x5
I0403 15:46:06.631988 11253 net.cpp:425] inception_4c/relu_5x5 <- inception_4c/5x5
I0403 15:46:06.632007 11253 net.cpp:386] inception_4c/relu_5x5 -> inception_4c/5x5 (in-place)
I0403 15:46:06.632302 11253 net.cpp:141] Setting up inception_4c/relu_5x5
I0403 15:46:06.632330 11253 net.cpp:148] Top shape: 24 64 14 14 (301056)
I0403 15:46:06.632346 11253 net.cpp:156] Memory required for data: 1050971424
I0403 15:46:06.632362 11253 layer_factory.hpp:77] Creating layer inception_4c/pool
I0403 15:46:06.632380 11253 net.cpp:91] Creating Layer inception_4c/pool
I0403 15:46:06.632396 11253 net.cpp:425] inception_4c/pool <- inception_4b/output_inception_4b/output_0_split_3
I0403 15:46:06.632417 11253 net.cpp:399] inception_4c/pool -> inception_4c/pool
I0403 15:46:06.632485 11253 net.cpp:141] Setting up inception_4c/pool
I0403 15:46:06.632509 11253 net.cpp:148] Top shape: 24 512 14 14 (2408448)
I0403 15:46:06.632524 11253 net.cpp:156] Memory required for data: 1060605216
I0403 15:46:06.632539 11253 layer_factory.hpp:77] Creating layer inception_4c/pool_proj
I0403 15:46:06.632562 11253 net.cpp:91] Creating Layer inception_4c/pool_proj
I0403 15:46:06.632582 11253 net.cpp:425] inception_4c/pool_proj <- inception_4c/pool
I0403 15:46:06.632602 11253 net.cpp:399] inception_4c/pool_proj -> inception_4c/pool_proj
I0403 15:46:06.633857 11253 net.cpp:141] Setting up inception_4c/pool_proj
I0403 15:46:06.633885 11253 net.cpp:148] Top shape: 24 64 14 14 (301056)
I0403 15:46:06.633915 11253 net.cpp:156] Memory required for data: 1061809440
I0403 15:46:06.633936 11253 layer_factory.hpp:77] Creating layer inception_4c/relu_pool_proj
I0403 15:46:06.633962 11253 net.cpp:91] Creating Layer inception_4c/relu_pool_proj
I0403 15:46:06.633981 11253 net.cpp:425] inception_4c/relu_pool_proj <- inception_4c/pool_proj
I0403 15:46:06.633999 11253 net.cpp:386] inception_4c/relu_pool_proj -> inception_4c/pool_proj (in-place)
I0403 15:46:06.634184 11253 net.cpp:141] Setting up inception_4c/relu_pool_proj
I0403 15:46:06.634214 11253 net.cpp:148] Top shape: 24 64 14 14 (301056)
I0403 15:46:06.634229 11253 net.cpp:156] Memory required for data: 1063013664
I0403 15:46:06.634244 11253 layer_factory.hpp:77] Creating layer inception_4c/output
I0403 15:46:06.634261 11253 net.cpp:91] Creating Layer inception_4c/output
I0403 15:46:06.634277 11253 net.cpp:425] inception_4c/output <- inception_4c/1x1
I0403 15:46:06.634294 11253 net.cpp:425] inception_4c/output <- inception_4c/3x3
I0403 15:46:06.634311 11253 net.cpp:425] inception_4c/output <- inception_4c/5x5
I0403 15:46:06.634327 11253 net.cpp:425] inception_4c/output <- inception_4c/pool_proj
I0403 15:46:06.634346 11253 net.cpp:399] inception_4c/output -> inception_4c/output
I0403 15:46:06.634394 11253 net.cpp:141] Setting up inception_4c/output
I0403 15:46:06.634418 11253 net.cpp:148] Top shape: 24 512 14 14 (2408448)
I0403 15:46:06.634433 11253 net.cpp:156] Memory required for data: 1072647456
I0403 15:46:06.634449 11253 layer_factory.hpp:77] Creating layer inception_4c/output_inception_4c/output_0_split
I0403 15:46:06.634467 11253 net.cpp:91] Creating Layer inception_4c/output_inception_4c/output_0_split
I0403 15:46:06.634485 11253 net.cpp:425] inception_4c/output_inception_4c/output_0_split <- inception_4c/output
I0403 15:46:06.634502 11253 net.cpp:399] inception_4c/output_inception_4c/output_0_split -> inception_4c/output_inception_4c/output_0_split_0
I0403 15:46:06.634522 11253 net.cpp:399] inception_4c/output_inception_4c/output_0_split -> inception_4c/output_inception_4c/output_0_split_1
I0403 15:46:06.634543 11253 net.cpp:399] inception_4c/output_inception_4c/output_0_split -> inception_4c/output_inception_4c/output_0_split_2
I0403 15:46:06.634564 11253 net.cpp:399] inception_4c/output_inception_4c/output_0_split -> inception_4c/output_inception_4c/output_0_split_3
I0403 15:46:06.634654 11253 net.cpp:141] Setting up inception_4c/output_inception_4c/output_0_split
I0403 15:46:06.634677 11253 net.cpp:148] Top shape: 24 512 14 14 (2408448)
I0403 15:46:06.634693 11253 net.cpp:148] Top shape: 24 512 14 14 (2408448)
I0403 15:46:06.634711 11253 net.cpp:148] Top shape: 24 512 14 14 (2408448)
I0403 15:46:06.634727 11253 net.cpp:148] Top shape: 24 512 14 14 (2408448)
I0403 15:46:06.634740 11253 net.cpp:156] Memory required for data: 1111182624
I0403 15:46:06.634754 11253 layer_factory.hpp:77] Creating layer inception_4d/1x1
I0403 15:46:06.634778 11253 net.cpp:91] Creating Layer inception_4d/1x1
I0403 15:46:06.634795 11253 net.cpp:425] inception_4d/1x1 <- inception_4c/output_inception_4c/output_0_split_0
I0403 15:46:06.634817 11253 net.cpp:399] inception_4d/1x1 -> inception_4d/1x1
I0403 15:46:06.636234 11253 net.cpp:141] Setting up inception_4d/1x1
I0403 15:46:06.636261 11253 net.cpp:148] Top shape: 24 112 14 14 (526848)
I0403 15:46:06.636277 11253 net.cpp:156] Memory required for data: 1113290016
I0403 15:46:06.636296 11253 layer_factory.hpp:77] Creating layer inception_4d/relu_1x1
I0403 15:46:06.636313 11253 net.cpp:91] Creating Layer inception_4d/relu_1x1
I0403 15:46:06.636329 11253 net.cpp:425] inception_4d/relu_1x1 <- inception_4d/1x1
I0403 15:46:06.636349 11253 net.cpp:386] inception_4d/relu_1x1 -> inception_4d/1x1 (in-place)
I0403 15:46:06.636534 11253 net.cpp:141] Setting up inception_4d/relu_1x1
I0403 15:46:06.636559 11253 net.cpp:148] Top shape: 24 112 14 14 (526848)
I0403 15:46:06.636574 11253 net.cpp:156] Memory required for data: 1115397408
I0403 15:46:06.636587 11253 layer_factory.hpp:77] Creating layer inception_4d/3x3_reduce
I0403 15:46:06.636622 11253 net.cpp:91] Creating Layer inception_4d/3x3_reduce
I0403 15:46:06.636641 11253 net.cpp:425] inception_4d/3x3_reduce <- inception_4c/output_inception_4c/output_0_split_1
I0403 15:46:06.636662 11253 net.cpp:399] inception_4d/3x3_reduce -> inception_4d/3x3_reduce
I0403 15:46:06.638185 11253 net.cpp:141] Setting up inception_4d/3x3_reduce
I0403 15:46:06.638214 11253 net.cpp:148] Top shape: 24 144 14 14 (677376)
I0403 15:46:06.638231 11253 net.cpp:156] Memory required for data: 1118106912
I0403 15:46:06.638249 11253 layer_factory.hpp:77] Creating layer inception_4d/relu_3x3_reduce
I0403 15:46:06.638268 11253 net.cpp:91] Creating Layer inception_4d/relu_3x3_reduce
I0403 15:46:06.638285 11253 net.cpp:425] inception_4d/relu_3x3_reduce <- inception_4d/3x3_reduce
I0403 15:46:06.638304 11253 net.cpp:386] inception_4d/relu_3x3_reduce -> inception_4d/3x3_reduce (in-place)
I0403 15:46:06.638592 11253 net.cpp:141] Setting up inception_4d/relu_3x3_reduce
I0403 15:46:06.638619 11253 net.cpp:148] Top shape: 24 144 14 14 (677376)
I0403 15:46:06.638635 11253 net.cpp:156] Memory required for data: 1120816416
I0403 15:46:06.638650 11253 layer_factory.hpp:77] Creating layer inception_4d/3x3
I0403 15:46:06.638672 11253 net.cpp:91] Creating Layer inception_4d/3x3
I0403 15:46:06.638690 11253 net.cpp:425] inception_4d/3x3 <- inception_4d/3x3_reduce
I0403 15:46:06.638710 11253 net.cpp:399] inception_4d/3x3 -> inception_4d/3x3
I0403 15:46:06.643028 11253 net.cpp:141] Setting up inception_4d/3x3
I0403 15:46:06.643057 11253 net.cpp:148] Top shape: 24 288 14 14 (1354752)
I0403 15:46:06.643074 11253 net.cpp:156] Memory required for data: 1126235424
I0403 15:46:06.643091 11253 layer_factory.hpp:77] Creating layer inception_4d/relu_3x3
I0403 15:46:06.643112 11253 net.cpp:91] Creating Layer inception_4d/relu_3x3
I0403 15:46:06.643131 11253 net.cpp:425] inception_4d/relu_3x3 <- inception_4d/3x3
I0403 15:46:06.643147 11253 net.cpp:386] inception_4d/relu_3x3 -> inception_4d/3x3 (in-place)
I0403 15:46:06.643328 11253 net.cpp:141] Setting up inception_4d/relu_3x3
I0403 15:46:06.643352 11253 net.cpp:148] Top shape: 24 288 14 14 (1354752)
I0403 15:46:06.643368 11253 net.cpp:156] Memory required for data: 1131654432
I0403 15:46:06.643383 11253 layer_factory.hpp:77] Creating layer inception_4d/5x5_reduce
I0403 15:46:06.643405 11253 net.cpp:91] Creating Layer inception_4d/5x5_reduce
I0403 15:46:06.643424 11253 net.cpp:425] inception_4d/5x5_reduce <- inception_4c/output_inception_4c/output_0_split_2
I0403 15:46:06.643442 11253 net.cpp:399] inception_4d/5x5_reduce -> inception_4d/5x5_reduce
I0403 15:46:06.644601 11253 net.cpp:141] Setting up inception_4d/5x5_reduce
I0403 15:46:06.644629 11253 net.cpp:148] Top shape: 24 32 14 14 (150528)
I0403 15:46:06.644644 11253 net.cpp:156] Memory required for data: 1132256544
I0403 15:46:06.644662 11253 layer_factory.hpp:77] Creating layer inception_4d/relu_5x5_reduce
I0403 15:46:06.644680 11253 net.cpp:91] Creating Layer inception_4d/relu_5x5_reduce
I0403 15:46:06.644697 11253 net.cpp:425] inception_4d/relu_5x5_reduce <- inception_4d/5x5_reduce
I0403 15:46:06.644716 11253 net.cpp:386] inception_4d/relu_5x5_reduce -> inception_4d/5x5_reduce (in-place)
I0403 15:46:06.644923 11253 net.cpp:141] Setting up inception_4d/relu_5x5_reduce
I0403 15:46:06.644953 11253 net.cpp:148] Top shape: 24 32 14 14 (150528)
I0403 15:46:06.644968 11253 net.cpp:156] Memory required for data: 1132858656
I0403 15:46:06.644984 11253 layer_factory.hpp:77] Creating layer inception_4d/5x5
I0403 15:46:06.645006 11253 net.cpp:91] Creating Layer inception_4d/5x5
I0403 15:46:06.645036 11253 net.cpp:425] inception_4d/5x5 <- inception_4d/5x5_reduce
I0403 15:46:06.645057 11253 net.cpp:399] inception_4d/5x5 -> inception_4d/5x5
I0403 15:46:06.646527 11253 net.cpp:141] Setting up inception_4d/5x5
I0403 15:46:06.646555 11253 net.cpp:148] Top shape: 24 64 14 14 (301056)
I0403 15:46:06.646572 11253 net.cpp:156] Memory required for data: 1134062880
I0403 15:46:06.646591 11253 layer_factory.hpp:77] Creating layer inception_4d/relu_5x5
I0403 15:46:06.646625 11253 net.cpp:91] Creating Layer inception_4d/relu_5x5
I0403 15:46:06.646641 11253 net.cpp:425] inception_4d/relu_5x5 <- inception_4d/5x5
I0403 15:46:06.646659 11253 net.cpp:386] inception_4d/relu_5x5 -> inception_4d/5x5 (in-place)
I0403 15:46:06.646963 11253 net.cpp:141] Setting up inception_4d/relu_5x5
I0403 15:46:06.646992 11253 net.cpp:148] Top shape: 24 64 14 14 (301056)
I0403 15:46:06.647008 11253 net.cpp:156] Memory required for data: 1135267104
I0403 15:46:06.647023 11253 layer_factory.hpp:77] Creating layer inception_4d/pool
I0403 15:46:06.647042 11253 net.cpp:91] Creating Layer inception_4d/pool
I0403 15:46:06.647058 11253 net.cpp:425] inception_4d/pool <- inception_4c/output_inception_4c/output_0_split_3
I0403 15:46:06.647075 11253 net.cpp:399] inception_4d/pool -> inception_4d/pool
I0403 15:46:06.647143 11253 net.cpp:141] Setting up inception_4d/pool
I0403 15:46:06.647166 11253 net.cpp:148] Top shape: 24 512 14 14 (2408448)
I0403 15:46:06.647181 11253 net.cpp:156] Memory required for data: 1144900896
I0403 15:46:06.647195 11253 layer_factory.hpp:77] Creating layer inception_4d/pool_proj
I0403 15:46:06.647218 11253 net.cpp:91] Creating Layer inception_4d/pool_proj
I0403 15:46:06.647236 11253 net.cpp:425] inception_4d/pool_proj <- inception_4d/pool
I0403 15:46:06.647258 11253 net.cpp:399] inception_4d/pool_proj -> inception_4d/pool_proj
I0403 15:46:06.649046 11253 net.cpp:141] Setting up inception_4d/pool_proj
I0403 15:46:06.649076 11253 net.cpp:148] Top shape: 24 64 14 14 (301056)
I0403 15:46:06.649091 11253 net.cpp:156] Memory required for data: 1146105120
I0403 15:46:06.649111 11253 layer_factory.hpp:77] Creating layer inception_4d/relu_pool_proj
I0403 15:46:06.649132 11253 net.cpp:91] Creating Layer inception_4d/relu_pool_proj
I0403 15:46:06.649148 11253 net.cpp:425] inception_4d/relu_pool_proj <- inception_4d/pool_proj
I0403 15:46:06.649166 11253 net.cpp:386] inception_4d/relu_pool_proj -> inception_4d/pool_proj (in-place)
I0403 15:46:06.649350 11253 net.cpp:141] Setting up inception_4d/relu_pool_proj
I0403 15:46:06.649375 11253 net.cpp:148] Top shape: 24 64 14 14 (301056)
I0403 15:46:06.649389 11253 net.cpp:156] Memory required for data: 1147309344
I0403 15:46:06.649405 11253 layer_factory.hpp:77] Creating layer inception_4d/output
I0403 15:46:06.649423 11253 net.cpp:91] Creating Layer inception_4d/output
I0403 15:46:06.649441 11253 net.cpp:425] inception_4d/output <- inception_4d/1x1
I0403 15:46:06.649457 11253 net.cpp:425] inception_4d/output <- inception_4d/3x3
I0403 15:46:06.649473 11253 net.cpp:425] inception_4d/output <- inception_4d/5x5
I0403 15:46:06.649489 11253 net.cpp:425] inception_4d/output <- inception_4d/pool_proj
I0403 15:46:06.649507 11253 net.cpp:399] inception_4d/output -> inception_4d/output
I0403 15:46:06.649555 11253 net.cpp:141] Setting up inception_4d/output
I0403 15:46:06.649579 11253 net.cpp:148] Top shape: 24 528 14 14 (2483712)
I0403 15:46:06.649592 11253 net.cpp:156] Memory required for data: 1157244192
I0403 15:46:06.649607 11253 layer_factory.hpp:77] Creating layer inception_4d/output_inception_4d/output_0_split
I0403 15:46:06.649626 11253 net.cpp:91] Creating Layer inception_4d/output_inception_4d/output_0_split
I0403 15:46:06.649641 11253 net.cpp:425] inception_4d/output_inception_4d/output_0_split <- inception_4d/output
I0403 15:46:06.649660 11253 net.cpp:399] inception_4d/output_inception_4d/output_0_split -> inception_4d/output_inception_4d/output_0_split_0
I0403 15:46:06.649682 11253 net.cpp:399] inception_4d/output_inception_4d/output_0_split -> inception_4d/output_inception_4d/output_0_split_1
I0403 15:46:06.649701 11253 net.cpp:399] inception_4d/output_inception_4d/output_0_split -> inception_4d/output_inception_4d/output_0_split_2
I0403 15:46:06.649723 11253 net.cpp:399] inception_4d/output_inception_4d/output_0_split -> inception_4d/output_inception_4d/output_0_split_3
I0403 15:46:06.649747 11253 net.cpp:399] inception_4d/output_inception_4d/output_0_split -> inception_4d/output_inception_4d/output_0_split_4
I0403 15:46:06.649848 11253 net.cpp:141] Setting up inception_4d/output_inception_4d/output_0_split
I0403 15:46:06.649883 11253 net.cpp:148] Top shape: 24 528 14 14 (2483712)
I0403 15:46:06.649914 11253 net.cpp:148] Top shape: 24 528 14 14 (2483712)
I0403 15:46:06.649931 11253 net.cpp:148] Top shape: 24 528 14 14 (2483712)
I0403 15:46:06.649951 11253 net.cpp:148] Top shape: 24 528 14 14 (2483712)
I0403 15:46:06.649969 11253 net.cpp:148] Top shape: 24 528 14 14 (2483712)
I0403 15:46:06.649984 11253 net.cpp:156] Memory required for data: 1206918432
I0403 15:46:06.649998 11253 layer_factory.hpp:77] Creating layer loss2/ave_pool
I0403 15:46:06.650017 11253 net.cpp:91] Creating Layer loss2/ave_pool
I0403 15:46:06.650033 11253 net.cpp:425] loss2/ave_pool <- inception_4d/output_inception_4d/output_0_split_0
I0403 15:46:06.650055 11253 net.cpp:399] loss2/ave_pool -> loss2/ave_pool
I0403 15:46:06.650382 11253 net.cpp:141] Setting up loss2/ave_pool
I0403 15:46:06.650409 11253 net.cpp:148] Top shape: 24 528 4 4 (202752)
I0403 15:46:06.650424 11253 net.cpp:156] Memory required for data: 1207729440
I0403 15:46:06.650439 11253 layer_factory.hpp:77] Creating layer loss2/conv
I0403 15:46:06.650462 11253 net.cpp:91] Creating Layer loss2/conv
I0403 15:46:06.650480 11253 net.cpp:425] loss2/conv <- loss2/ave_pool
I0403 15:46:06.650501 11253 net.cpp:399] loss2/conv -> loss2/conv
I0403 15:46:06.652411 11253 net.cpp:141] Setting up loss2/conv
I0403 15:46:06.652441 11253 net.cpp:148] Top shape: 24 128 4 4 (49152)
I0403 15:46:06.652456 11253 net.cpp:156] Memory required for data: 1207926048
I0403 15:46:06.652474 11253 layer_factory.hpp:77] Creating layer loss2/relu_conv
I0403 15:46:06.652494 11253 net.cpp:91] Creating Layer loss2/relu_conv
I0403 15:46:06.652511 11253 net.cpp:425] loss2/relu_conv <- loss2/conv
I0403 15:46:06.652530 11253 net.cpp:386] loss2/relu_conv -> loss2/conv (in-place)
I0403 15:46:06.652815 11253 net.cpp:141] Setting up loss2/relu_conv
I0403 15:46:06.652842 11253 net.cpp:148] Top shape: 24 128 4 4 (49152)
I0403 15:46:06.652856 11253 net.cpp:156] Memory required for data: 1208122656
I0403 15:46:06.652871 11253 layer_factory.hpp:77] Creating layer loss2/fc
I0403 15:46:06.652892 11253 net.cpp:91] Creating Layer loss2/fc
I0403 15:46:06.652909 11253 net.cpp:425] loss2/fc <- loss2/conv
I0403 15:46:06.652930 11253 net.cpp:399] loss2/fc -> loss2/fc
I0403 15:46:06.671219 11253 net.cpp:141] Setting up loss2/fc
I0403 15:46:06.671254 11253 net.cpp:148] Top shape: 24 1024 (24576)
I0403 15:46:06.671270 11253 net.cpp:156] Memory required for data: 1208220960
I0403 15:46:06.671289 11253 layer_factory.hpp:77] Creating layer loss2/relu_fc
I0403 15:46:06.671308 11253 net.cpp:91] Creating Layer loss2/relu_fc
I0403 15:46:06.671325 11253 net.cpp:425] loss2/relu_fc <- loss2/fc
I0403 15:46:06.671345 11253 net.cpp:386] loss2/relu_fc -> loss2/fc (in-place)
I0403 15:46:06.671692 11253 net.cpp:141] Setting up loss2/relu_fc
I0403 15:46:06.671720 11253 net.cpp:148] Top shape: 24 1024 (24576)
I0403 15:46:06.671736 11253 net.cpp:156] Memory required for data: 1208319264
I0403 15:46:06.671751 11253 layer_factory.hpp:77] Creating layer loss2/drop_fc
I0403 15:46:06.671779 11253 net.cpp:91] Creating Layer loss2/drop_fc
I0403 15:46:06.671797 11253 net.cpp:425] loss2/drop_fc <- loss2/fc
I0403 15:46:06.671816 11253 net.cpp:386] loss2/drop_fc -> loss2/fc (in-place)
I0403 15:46:06.671869 11253 net.cpp:141] Setting up loss2/drop_fc
I0403 15:46:06.671893 11253 net.cpp:148] Top shape: 24 1024 (24576)
I0403 15:46:06.671908 11253 net.cpp:156] Memory required for data: 1208417568
I0403 15:46:06.671923 11253 layer_factory.hpp:77] Creating layer loss2/classifier_plantvillage
I0403 15:46:06.671942 11253 net.cpp:91] Creating Layer loss2/classifier_plantvillage
I0403 15:46:06.671963 11253 net.cpp:425] loss2/classifier_plantvillage <- loss2/fc
I0403 15:46:06.671986 11253 net.cpp:399] loss2/classifier_plantvillage -> loss2/classifier_plantvillage
I0403 15:46:06.672415 11253 net.cpp:141] Setting up loss2/classifier_plantvillage
I0403 15:46:06.672438 11253 net.cpp:148] Top shape: 24 38 (912)
I0403 15:46:06.672469 11253 net.cpp:156] Memory required for data: 1208421216
I0403 15:46:06.672488 11253 layer_factory.hpp:77] Creating layer loss2/classifier_plantvillage_loss2/classifier_plantvillage_0_split
I0403 15:46:06.672508 11253 net.cpp:91] Creating Layer loss2/classifier_plantvillage_loss2/classifier_plantvillage_0_split
I0403 15:46:06.672524 11253 net.cpp:425] loss2/classifier_plantvillage_loss2/classifier_plantvillage_0_split <- loss2/classifier_plantvillage
I0403 15:46:06.672544 11253 net.cpp:399] loss2/classifier_plantvillage_loss2/classifier_plantvillage_0_split -> loss2/classifier_plantvillage_loss2/classifier_plantvillage_0_split_0
I0403 15:46:06.672565 11253 net.cpp:399] loss2/classifier_plantvillage_loss2/classifier_plantvillage_0_split -> loss2/classifier_plantvillage_loss2/classifier_plantvillage_0_split_1
I0403 15:46:06.672587 11253 net.cpp:399] loss2/classifier_plantvillage_loss2/classifier_plantvillage_0_split -> loss2/classifier_plantvillage_loss2/classifier_plantvillage_0_split_2
I0403 15:46:06.672663 11253 net.cpp:141] Setting up loss2/classifier_plantvillage_loss2/classifier_plantvillage_0_split
I0403 15:46:06.672686 11253 net.cpp:148] Top shape: 24 38 (912)
I0403 15:46:06.672703 11253 net.cpp:148] Top shape: 24 38 (912)
I0403 15:46:06.672718 11253 net.cpp:148] Top shape: 24 38 (912)
I0403 15:46:06.672731 11253 net.cpp:156] Memory required for data: 1208432160
I0403 15:46:06.672746 11253 layer_factory.hpp:77] Creating layer inception_4e/1x1
I0403 15:46:06.672767 11253 net.cpp:91] Creating Layer inception_4e/1x1
I0403 15:46:06.672785 11253 net.cpp:425] inception_4e/1x1 <- inception_4d/output_inception_4d/output_0_split_1
I0403 15:46:06.672804 11253 net.cpp:399] inception_4e/1x1 -> inception_4e/1x1
I0403 15:46:06.674628 11253 net.cpp:141] Setting up inception_4e/1x1
I0403 15:46:06.674657 11253 net.cpp:148] Top shape: 24 256 14 14 (1204224)
I0403 15:46:06.674674 11253 net.cpp:156] Memory required for data: 1213249056
I0403 15:46:06.674693 11253 layer_factory.hpp:77] Creating layer inception_4e/relu_1x1
I0403 15:46:06.674711 11253 net.cpp:91] Creating Layer inception_4e/relu_1x1
I0403 15:46:06.674727 11253 net.cpp:425] inception_4e/relu_1x1 <- inception_4e/1x1
I0403 15:46:06.674744 11253 net.cpp:386] inception_4e/relu_1x1 -> inception_4e/1x1 (in-place)
I0403 15:46:06.675045 11253 net.cpp:141] Setting up inception_4e/relu_1x1
I0403 15:46:06.675074 11253 net.cpp:148] Top shape: 24 256 14 14 (1204224)
I0403 15:46:06.675089 11253 net.cpp:156] Memory required for data: 1218065952
I0403 15:46:06.675104 11253 layer_factory.hpp:77] Creating layer inception_4e/3x3_reduce
I0403 15:46:06.675127 11253 net.cpp:91] Creating Layer inception_4e/3x3_reduce
I0403 15:46:06.675144 11253 net.cpp:425] inception_4e/3x3_reduce <- inception_4d/output_inception_4d/output_0_split_2
I0403 15:46:06.675164 11253 net.cpp:399] inception_4e/3x3_reduce -> inception_4e/3x3_reduce
I0403 15:46:06.677302 11253 net.cpp:141] Setting up inception_4e/3x3_reduce
I0403 15:46:06.677330 11253 net.cpp:148] Top shape: 24 160 14 14 (752640)
I0403 15:46:06.677346 11253 net.cpp:156] Memory required for data: 1221076512
I0403 15:46:06.677366 11253 layer_factory.hpp:77] Creating layer inception_4e/relu_3x3_reduce
I0403 15:46:06.677386 11253 net.cpp:91] Creating Layer inception_4e/relu_3x3_reduce
I0403 15:46:06.677403 11253 net.cpp:425] inception_4e/relu_3x3_reduce <- inception_4e/3x3_reduce
I0403 15:46:06.677420 11253 net.cpp:386] inception_4e/relu_3x3_reduce -> inception_4e/3x3_reduce (in-place)
I0403 15:46:06.677608 11253 net.cpp:141] Setting up inception_4e/relu_3x3_reduce
I0403 15:46:06.677631 11253 net.cpp:148] Top shape: 24 160 14 14 (752640)
I0403 15:46:06.677646 11253 net.cpp:156] Memory required for data: 1224087072
I0403 15:46:06.677660 11253 layer_factory.hpp:77] Creating layer inception_4e/3x3
I0403 15:46:06.677683 11253 net.cpp:91] Creating Layer inception_4e/3x3
I0403 15:46:06.677701 11253 net.cpp:425] inception_4e/3x3 <- inception_4e/3x3_reduce
I0403 15:46:06.677723 11253 net.cpp:399] inception_4e/3x3 -> inception_4e/3x3
I0403 15:46:06.682781 11253 net.cpp:141] Setting up inception_4e/3x3
I0403 15:46:06.682821 11253 net.cpp:148] Top shape: 24 320 14 14 (1505280)
I0403 15:46:06.682837 11253 net.cpp:156] Memory required for data: 1230108192
I0403 15:46:06.682857 11253 layer_factory.hpp:77] Creating layer inception_4e/relu_3x3
I0403 15:46:06.682874 11253 net.cpp:91] Creating Layer inception_4e/relu_3x3
I0403 15:46:06.682891 11253 net.cpp:425] inception_4e/relu_3x3 <- inception_4e/3x3
I0403 15:46:06.682911 11253 net.cpp:386] inception_4e/relu_3x3 -> inception_4e/3x3 (in-place)
I0403 15:46:06.683214 11253 net.cpp:141] Setting up inception_4e/relu_3x3
I0403 15:46:06.683240 11253 net.cpp:148] Top shape: 24 320 14 14 (1505280)
I0403 15:46:06.683255 11253 net.cpp:156] Memory required for data: 1236129312
I0403 15:46:06.683271 11253 layer_factory.hpp:77] Creating layer inception_4e/5x5_reduce
I0403 15:46:06.683295 11253 net.cpp:91] Creating Layer inception_4e/5x5_reduce
I0403 15:46:06.683313 11253 net.cpp:425] inception_4e/5x5_reduce <- inception_4d/output_inception_4d/output_0_split_3
I0403 15:46:06.683336 11253 net.cpp:399] inception_4e/5x5_reduce -> inception_4e/5x5_reduce
I0403 15:46:06.684408 11253 net.cpp:141] Setting up inception_4e/5x5_reduce
I0403 15:46:06.684437 11253 net.cpp:148] Top shape: 24 32 14 14 (150528)
I0403 15:46:06.684454 11253 net.cpp:156] Memory required for data: 1236731424
I0403 15:46:06.684473 11253 layer_factory.hpp:77] Creating layer inception_4e/relu_5x5_reduce
I0403 15:46:06.684490 11253 net.cpp:91] Creating Layer inception_4e/relu_5x5_reduce
I0403 15:46:06.684507 11253 net.cpp:425] inception_4e/relu_5x5_reduce <- inception_4e/5x5_reduce
I0403 15:46:06.684525 11253 net.cpp:386] inception_4e/relu_5x5_reduce -> inception_4e/5x5_reduce (in-place)
I0403 15:46:06.684820 11253 net.cpp:141] Setting up inception_4e/relu_5x5_reduce
I0403 15:46:06.684849 11253 net.cpp:148] Top shape: 24 32 14 14 (150528)
I0403 15:46:06.684864 11253 net.cpp:156] Memory required for data: 1237333536
I0403 15:46:06.684880 11253 layer_factory.hpp:77] Creating layer inception_4e/5x5
I0403 15:46:06.684916 11253 net.cpp:91] Creating Layer inception_4e/5x5
I0403 15:46:06.684934 11253 net.cpp:425] inception_4e/5x5 <- inception_4e/5x5_reduce
I0403 15:46:06.684962 11253 net.cpp:399] inception_4e/5x5 -> inception_4e/5x5
I0403 15:46:06.686822 11253 net.cpp:141] Setting up inception_4e/5x5
I0403 15:46:06.686851 11253 net.cpp:148] Top shape: 24 128 14 14 (602112)
I0403 15:46:06.686866 11253 net.cpp:156] Memory required for data: 1239741984
I0403 15:46:06.686885 11253 layer_factory.hpp:77] Creating layer inception_4e/relu_5x5
I0403 15:46:06.686907 11253 net.cpp:91] Creating Layer inception_4e/relu_5x5
I0403 15:46:06.686923 11253 net.cpp:425] inception_4e/relu_5x5 <- inception_4e/5x5
I0403 15:46:06.686959 11253 net.cpp:386] inception_4e/relu_5x5 -> inception_4e/5x5 (in-place)
I0403 15:46:06.687182 11253 net.cpp:141] Setting up inception_4e/relu_5x5
I0403 15:46:06.687208 11253 net.cpp:148] Top shape: 24 128 14 14 (602112)
I0403 15:46:06.687224 11253 net.cpp:156] Memory required for data: 1242150432
I0403 15:46:06.687240 11253 layer_factory.hpp:77] Creating layer inception_4e/pool
I0403 15:46:06.687261 11253 net.cpp:91] Creating Layer inception_4e/pool
I0403 15:46:06.687279 11253 net.cpp:425] inception_4e/pool <- inception_4d/output_inception_4d/output_0_split_4
I0403 15:46:06.687311 11253 net.cpp:399] inception_4e/pool -> inception_4e/pool
I0403 15:46:06.687381 11253 net.cpp:141] Setting up inception_4e/pool
I0403 15:46:06.687404 11253 net.cpp:148] Top shape: 24 528 14 14 (2483712)
I0403 15:46:06.687419 11253 net.cpp:156] Memory required for data: 1252085280
I0403 15:46:06.687433 11253 layer_factory.hpp:77] Creating layer inception_4e/pool_proj
I0403 15:46:06.687455 11253 net.cpp:91] Creating Layer inception_4e/pool_proj
I0403 15:46:06.687472 11253 net.cpp:425] inception_4e/pool_proj <- inception_4e/pool
I0403 15:46:06.687494 11253 net.cpp:399] inception_4e/pool_proj -> inception_4e/pool_proj
I0403 15:46:06.689021 11253 net.cpp:141] Setting up inception_4e/pool_proj
I0403 15:46:06.689060 11253 net.cpp:148] Top shape: 24 128 14 14 (602112)
I0403 15:46:06.689076 11253 net.cpp:156] Memory required for data: 1254493728
I0403 15:46:06.689095 11253 layer_factory.hpp:77] Creating layer inception_4e/relu_pool_proj
I0403 15:46:06.689116 11253 net.cpp:91] Creating Layer inception_4e/relu_pool_proj
I0403 15:46:06.689132 11253 net.cpp:425] inception_4e/relu_pool_proj <- inception_4e/pool_proj
I0403 15:46:06.689149 11253 net.cpp:386] inception_4e/relu_pool_proj -> inception_4e/pool_proj (in-place)
I0403 15:46:06.689447 11253 net.cpp:141] Setting up inception_4e/relu_pool_proj
I0403 15:46:06.689473 11253 net.cpp:148] Top shape: 24 128 14 14 (602112)
I0403 15:46:06.689488 11253 net.cpp:156] Memory required for data: 1256902176
I0403 15:46:06.689503 11253 layer_factory.hpp:77] Creating layer inception_4e/output
I0403 15:46:06.689520 11253 net.cpp:91] Creating Layer inception_4e/output
I0403 15:46:06.689537 11253 net.cpp:425] inception_4e/output <- inception_4e/1x1
I0403 15:46:06.689554 11253 net.cpp:425] inception_4e/output <- inception_4e/3x3
I0403 15:46:06.689573 11253 net.cpp:425] inception_4e/output <- inception_4e/5x5
I0403 15:46:06.689589 11253 net.cpp:425] inception_4e/output <- inception_4e/pool_proj
I0403 15:46:06.689604 11253 net.cpp:399] inception_4e/output -> inception_4e/output
I0403 15:46:06.689653 11253 net.cpp:141] Setting up inception_4e/output
I0403 15:46:06.689679 11253 net.cpp:148] Top shape: 24 832 14 14 (3913728)
I0403 15:46:06.689695 11253 net.cpp:156] Memory required for data: 1272557088
I0403 15:46:06.689709 11253 layer_factory.hpp:77] Creating layer pool4/3x3_s2
I0403 15:46:06.689728 11253 net.cpp:91] Creating Layer pool4/3x3_s2
I0403 15:46:06.689743 11253 net.cpp:425] pool4/3x3_s2 <- inception_4e/output
I0403 15:46:06.689764 11253 net.cpp:399] pool4/3x3_s2 -> pool4/3x3_s2
I0403 15:46:06.689836 11253 net.cpp:141] Setting up pool4/3x3_s2
I0403 15:46:06.689862 11253 net.cpp:148] Top shape: 24 832 7 7 (978432)
I0403 15:46:06.689877 11253 net.cpp:156] Memory required for data: 1276470816
I0403 15:46:06.689891 11253 layer_factory.hpp:77] Creating layer pool4/3x3_s2_pool4/3x3_s2_0_split
I0403 15:46:06.689908 11253 net.cpp:91] Creating Layer pool4/3x3_s2_pool4/3x3_s2_0_split
I0403 15:46:06.689935 11253 net.cpp:425] pool4/3x3_s2_pool4/3x3_s2_0_split <- pool4/3x3_s2
I0403 15:46:06.689960 11253 net.cpp:399] pool4/3x3_s2_pool4/3x3_s2_0_split -> pool4/3x3_s2_pool4/3x3_s2_0_split_0
I0403 15:46:06.689981 11253 net.cpp:399] pool4/3x3_s2_pool4/3x3_s2_0_split -> pool4/3x3_s2_pool4/3x3_s2_0_split_1
I0403 15:46:06.690003 11253 net.cpp:399] pool4/3x3_s2_pool4/3x3_s2_0_split -> pool4/3x3_s2_pool4/3x3_s2_0_split_2
I0403 15:46:06.690027 11253 net.cpp:399] pool4/3x3_s2_pool4/3x3_s2_0_split -> pool4/3x3_s2_pool4/3x3_s2_0_split_3
I0403 15:46:06.690124 11253 net.cpp:141] Setting up pool4/3x3_s2_pool4/3x3_s2_0_split
I0403 15:46:06.690147 11253 net.cpp:148] Top shape: 24 832 7 7 (978432)
I0403 15:46:06.690163 11253 net.cpp:148] Top shape: 24 832 7 7 (978432)
I0403 15:46:06.690179 11253 net.cpp:148] Top shape: 24 832 7 7 (978432)
I0403 15:46:06.690196 11253 net.cpp:148] Top shape: 24 832 7 7 (978432)
I0403 15:46:06.690210 11253 net.cpp:156] Memory required for data: 1292125728
I0403 15:46:06.690227 11253 layer_factory.hpp:77] Creating layer inception_5a/1x1
I0403 15:46:06.690248 11253 net.cpp:91] Creating Layer inception_5a/1x1
I0403 15:46:06.690268 11253 net.cpp:425] inception_5a/1x1 <- pool4/3x3_s2_pool4/3x3_s2_0_split_0
I0403 15:46:06.690289 11253 net.cpp:399] inception_5a/1x1 -> inception_5a/1x1
I0403 15:46:06.693200 11253 net.cpp:141] Setting up inception_5a/1x1
I0403 15:46:06.693241 11253 net.cpp:148] Top shape: 24 256 7 7 (301056)
I0403 15:46:06.693256 11253 net.cpp:156] Memory required for data: 1293329952
I0403 15:46:06.693274 11253 layer_factory.hpp:77] Creating layer inception_5a/relu_1x1
I0403 15:46:06.693295 11253 net.cpp:91] Creating Layer inception_5a/relu_1x1
I0403 15:46:06.693311 11253 net.cpp:425] inception_5a/relu_1x1 <- inception_5a/1x1
I0403 15:46:06.693330 11253 net.cpp:386] inception_5a/relu_1x1 -> inception_5a/1x1 (in-place)
I0403 15:46:06.693642 11253 net.cpp:141] Setting up inception_5a/relu_1x1
I0403 15:46:06.693668 11253 net.cpp:148] Top shape: 24 256 7 7 (301056)
I0403 15:46:06.693683 11253 net.cpp:156] Memory required for data: 1294534176
I0403 15:46:06.693698 11253 layer_factory.hpp:77] Creating layer inception_5a/3x3_reduce
I0403 15:46:06.693722 11253 net.cpp:91] Creating Layer inception_5a/3x3_reduce
I0403 15:46:06.693739 11253 net.cpp:425] inception_5a/3x3_reduce <- pool4/3x3_s2_pool4/3x3_s2_0_split_1
I0403 15:46:06.693761 11253 net.cpp:399] inception_5a/3x3_reduce -> inception_5a/3x3_reduce
I0403 15:46:06.696260 11253 net.cpp:141] Setting up inception_5a/3x3_reduce
I0403 15:46:06.696288 11253 net.cpp:148] Top shape: 24 160 7 7 (188160)
I0403 15:46:06.696303 11253 net.cpp:156] Memory required for data: 1295286816
I0403 15:46:06.696321 11253 layer_factory.hpp:77] Creating layer inception_5a/relu_3x3_reduce
I0403 15:46:06.696338 11253 net.cpp:91] Creating Layer inception_5a/relu_3x3_reduce
I0403 15:46:06.696357 11253 net.cpp:425] inception_5a/relu_3x3_reduce <- inception_5a/3x3_reduce
I0403 15:46:06.696375 11253 net.cpp:386] inception_5a/relu_3x3_reduce -> inception_5a/3x3_reduce (in-place)
I0403 15:46:06.696557 11253 net.cpp:141] Setting up inception_5a/relu_3x3_reduce
I0403 15:46:06.696579 11253 net.cpp:148] Top shape: 24 160 7 7 (188160)
I0403 15:46:06.696593 11253 net.cpp:156] Memory required for data: 1296039456
I0403 15:46:06.696609 11253 layer_factory.hpp:77] Creating layer inception_5a/3x3
I0403 15:46:06.696630 11253 net.cpp:91] Creating Layer inception_5a/3x3
I0403 15:46:06.696647 11253 net.cpp:425] inception_5a/3x3 <- inception_5a/3x3_reduce
I0403 15:46:06.696669 11253 net.cpp:399] inception_5a/3x3 -> inception_5a/3x3
I0403 15:46:06.701709 11253 net.cpp:141] Setting up inception_5a/3x3
I0403 15:46:06.701738 11253 net.cpp:148] Top shape: 24 320 7 7 (376320)
I0403 15:46:06.701756 11253 net.cpp:156] Memory required for data: 1297544736
I0403 15:46:06.701774 11253 layer_factory.hpp:77] Creating layer inception_5a/relu_3x3
I0403 15:46:06.701794 11253 net.cpp:91] Creating Layer inception_5a/relu_3x3
I0403 15:46:06.701812 11253 net.cpp:425] inception_5a/relu_3x3 <- inception_5a/3x3
I0403 15:46:06.701830 11253 net.cpp:386] inception_5a/relu_3x3 -> inception_5a/3x3 (in-place)
I0403 15:46:06.702133 11253 net.cpp:141] Setting up inception_5a/relu_3x3
I0403 15:46:06.702159 11253 net.cpp:148] Top shape: 24 320 7 7 (376320)
I0403 15:46:06.702174 11253 net.cpp:156] Memory required for data: 1299050016
I0403 15:46:06.702189 11253 layer_factory.hpp:77] Creating layer inception_5a/5x5_reduce
I0403 15:46:06.702214 11253 net.cpp:91] Creating Layer inception_5a/5x5_reduce
I0403 15:46:06.702232 11253 net.cpp:425] inception_5a/5x5_reduce <- pool4/3x3_s2_pool4/3x3_s2_0_split_2
I0403 15:46:06.702253 11253 net.cpp:399] inception_5a/5x5_reduce -> inception_5a/5x5_reduce
I0403 15:46:06.703424 11253 net.cpp:141] Setting up inception_5a/5x5_reduce
I0403 15:46:06.703452 11253 net.cpp:148] Top shape: 24 32 7 7 (37632)
I0403 15:46:06.703469 11253 net.cpp:156] Memory required for data: 1299200544
I0403 15:46:06.703487 11253 layer_factory.hpp:77] Creating layer inception_5a/relu_5x5_reduce
I0403 15:46:06.703507 11253 net.cpp:91] Creating Layer inception_5a/relu_5x5_reduce
I0403 15:46:06.703524 11253 net.cpp:425] inception_5a/relu_5x5_reduce <- inception_5a/5x5_reduce
I0403 15:46:06.703541 11253 net.cpp:386] inception_5a/relu_5x5_reduce -> inception_5a/5x5_reduce (in-place)
I0403 15:46:06.703845 11253 net.cpp:141] Setting up inception_5a/relu_5x5_reduce
I0403 15:46:06.703871 11253 net.cpp:148] Top shape: 24 32 7 7 (37632)
I0403 15:46:06.703886 11253 net.cpp:156] Memory required for data: 1299351072
I0403 15:46:06.703901 11253 layer_factory.hpp:77] Creating layer inception_5a/5x5
I0403 15:46:06.703927 11253 net.cpp:91] Creating Layer inception_5a/5x5
I0403 15:46:06.703949 11253 net.cpp:425] inception_5a/5x5 <- inception_5a/5x5_reduce
I0403 15:46:06.703970 11253 net.cpp:399] inception_5a/5x5 -> inception_5a/5x5
I0403 15:46:06.705703 11253 net.cpp:141] Setting up inception_5a/5x5
I0403 15:46:06.705741 11253 net.cpp:148] Top shape: 24 128 7 7 (150528)
I0403 15:46:06.705757 11253 net.cpp:156] Memory required for data: 1299953184
I0403 15:46:06.705775 11253 layer_factory.hpp:77] Creating layer inception_5a/relu_5x5
I0403 15:46:06.705796 11253 net.cpp:91] Creating Layer inception_5a/relu_5x5
I0403 15:46:06.705813 11253 net.cpp:425] inception_5a/relu_5x5 <- inception_5a/5x5
I0403 15:46:06.705831 11253 net.cpp:386] inception_5a/relu_5x5 -> inception_5a/5x5 (in-place)
I0403 15:46:06.706035 11253 net.cpp:141] Setting up inception_5a/relu_5x5
I0403 15:46:06.706063 11253 net.cpp:148] Top shape: 24 128 7 7 (150528)
I0403 15:46:06.706079 11253 net.cpp:156] Memory required for data: 1300555296
I0403 15:46:06.706094 11253 layer_factory.hpp:77] Creating layer inception_5a/pool
I0403 15:46:06.706110 11253 net.cpp:91] Creating Layer inception_5a/pool
I0403 15:46:06.706127 11253 net.cpp:425] inception_5a/pool <- pool4/3x3_s2_pool4/3x3_s2_0_split_3
I0403 15:46:06.706147 11253 net.cpp:399] inception_5a/pool -> inception_5a/pool
I0403 15:46:06.706218 11253 net.cpp:141] Setting up inception_5a/pool
I0403 15:46:06.706241 11253 net.cpp:148] Top shape: 24 832 7 7 (978432)
I0403 15:46:06.706256 11253 net.cpp:156] Memory required for data: 1304469024
I0403 15:46:06.706270 11253 layer_factory.hpp:77] Creating layer inception_5a/pool_proj
I0403 15:46:06.706292 11253 net.cpp:91] Creating Layer inception_5a/pool_proj
I0403 15:46:06.706310 11253 net.cpp:425] inception_5a/pool_proj <- inception_5a/pool
I0403 15:46:06.706332 11253 net.cpp:399] inception_5a/pool_proj -> inception_5a/pool_proj
I0403 15:46:06.708631 11253 net.cpp:141] Setting up inception_5a/pool_proj
I0403 15:46:06.708659 11253 net.cpp:148] Top shape: 24 128 7 7 (150528)
I0403 15:46:06.708675 11253 net.cpp:156] Memory required for data: 1305071136
I0403 15:46:06.708693 11253 layer_factory.hpp:77] Creating layer inception_5a/relu_pool_proj
I0403 15:46:06.708714 11253 net.cpp:91] Creating Layer inception_5a/relu_pool_proj
I0403 15:46:06.708731 11253 net.cpp:425] inception_5a/relu_pool_proj <- inception_5a/pool_proj
I0403 15:46:06.708750 11253 net.cpp:386] inception_5a/relu_pool_proj -> inception_5a/pool_proj (in-place)
I0403 15:46:06.709060 11253 net.cpp:141] Setting up inception_5a/relu_pool_proj
I0403 15:46:06.709086 11253 net.cpp:148] Top shape: 24 128 7 7 (150528)
I0403 15:46:06.709101 11253 net.cpp:156] Memory required for data: 1305673248
I0403 15:46:06.709116 11253 layer_factory.hpp:77] Creating layer inception_5a/output
I0403 15:46:06.709133 11253 net.cpp:91] Creating Layer inception_5a/output
I0403 15:46:06.709149 11253 net.cpp:425] inception_5a/output <- inception_5a/1x1
I0403 15:46:06.709167 11253 net.cpp:425] inception_5a/output <- inception_5a/3x3
I0403 15:46:06.709182 11253 net.cpp:425] inception_5a/output <- inception_5a/5x5
I0403 15:46:06.709199 11253 net.cpp:425] inception_5a/output <- inception_5a/pool_proj
I0403 15:46:06.709218 11253 net.cpp:399] inception_5a/output -> inception_5a/output
I0403 15:46:06.709271 11253 net.cpp:141] Setting up inception_5a/output
I0403 15:46:06.709295 11253 net.cpp:148] Top shape: 24 832 7 7 (978432)
I0403 15:46:06.709308 11253 net.cpp:156] Memory required for data: 1309586976
I0403 15:46:06.709323 11253 layer_factory.hpp:77] Creating layer inception_5a/output_inception_5a/output_0_split
I0403 15:46:06.709341 11253 net.cpp:91] Creating Layer inception_5a/output_inception_5a/output_0_split
I0403 15:46:06.709355 11253 net.cpp:425] inception_5a/output_inception_5a/output_0_split <- inception_5a/output
I0403 15:46:06.709375 11253 net.cpp:399] inception_5a/output_inception_5a/output_0_split -> inception_5a/output_inception_5a/output_0_split_0
I0403 15:46:06.709396 11253 net.cpp:399] inception_5a/output_inception_5a/output_0_split -> inception_5a/output_inception_5a/output_0_split_1
I0403 15:46:06.709417 11253 net.cpp:399] inception_5a/output_inception_5a/output_0_split -> inception_5a/output_inception_5a/output_0_split_2
I0403 15:46:06.709437 11253 net.cpp:399] inception_5a/output_inception_5a/output_0_split -> inception_5a/output_inception_5a/output_0_split_3
I0403 15:46:06.709550 11253 net.cpp:141] Setting up inception_5a/output_inception_5a/output_0_split
I0403 15:46:06.709573 11253 net.cpp:148] Top shape: 24 832 7 7 (978432)
I0403 15:46:06.709590 11253 net.cpp:148] Top shape: 24 832 7 7 (978432)
I0403 15:46:06.709606 11253 net.cpp:148] Top shape: 24 832 7 7 (978432)
I0403 15:46:06.709621 11253 net.cpp:148] Top shape: 24 832 7 7 (978432)
I0403 15:46:06.709635 11253 net.cpp:156] Memory required for data: 1325241888
I0403 15:46:06.709650 11253 layer_factory.hpp:77] Creating layer inception_5b/1x1
I0403 15:46:06.709673 11253 net.cpp:91] Creating Layer inception_5b/1x1
I0403 15:46:06.709692 11253 net.cpp:425] inception_5b/1x1 <- inception_5a/output_inception_5a/output_0_split_0
I0403 15:46:06.709710 11253 net.cpp:399] inception_5b/1x1 -> inception_5b/1x1
I0403 15:46:06.713470 11253 net.cpp:141] Setting up inception_5b/1x1
I0403 15:46:06.713500 11253 net.cpp:148] Top shape: 24 384 7 7 (451584)
I0403 15:46:06.713515 11253 net.cpp:156] Memory required for data: 1327048224
I0403 15:46:06.713533 11253 layer_factory.hpp:77] Creating layer inception_5b/relu_1x1
I0403 15:46:06.713551 11253 net.cpp:91] Creating Layer inception_5b/relu_1x1
I0403 15:46:06.713570 11253 net.cpp:425] inception_5b/relu_1x1 <- inception_5b/1x1
I0403 15:46:06.713588 11253 net.cpp:386] inception_5b/relu_1x1 -> inception_5b/1x1 (in-place)
I0403 15:46:06.713884 11253 net.cpp:141] Setting up inception_5b/relu_1x1
I0403 15:46:06.713909 11253 net.cpp:148] Top shape: 24 384 7 7 (451584)
I0403 15:46:06.713923 11253 net.cpp:156] Memory required for data: 1328854560
I0403 15:46:06.713938 11253 layer_factory.hpp:77] Creating layer inception_5b/3x3_reduce
I0403 15:46:06.713965 11253 net.cpp:91] Creating Layer inception_5b/3x3_reduce
I0403 15:46:06.713984 11253 net.cpp:425] inception_5b/3x3_reduce <- inception_5a/output_inception_5a/output_0_split_1
I0403 15:46:06.714010 11253 net.cpp:399] inception_5b/3x3_reduce -> inception_5b/3x3_reduce
I0403 15:46:06.716626 11253 net.cpp:141] Setting up inception_5b/3x3_reduce
I0403 15:46:06.716657 11253 net.cpp:148] Top shape: 24 192 7 7 (225792)
I0403 15:46:06.716672 11253 net.cpp:156] Memory required for data: 1329757728
I0403 15:46:06.716691 11253 layer_factory.hpp:77] Creating layer inception_5b/relu_3x3_reduce
I0403 15:46:06.716708 11253 net.cpp:91] Creating Layer inception_5b/relu_3x3_reduce
I0403 15:46:06.716724 11253 net.cpp:425] inception_5b/relu_3x3_reduce <- inception_5b/3x3_reduce
I0403 15:46:06.716744 11253 net.cpp:386] inception_5b/relu_3x3_reduce -> inception_5b/3x3_reduce (in-place)
I0403 15:46:06.716930 11253 net.cpp:141] Setting up inception_5b/relu_3x3_reduce
I0403 15:46:06.716958 11253 net.cpp:148] Top shape: 24 192 7 7 (225792)
I0403 15:46:06.716974 11253 net.cpp:156] Memory required for data: 1330660896
I0403 15:46:06.716989 11253 layer_factory.hpp:77] Creating layer inception_5b/3x3
I0403 15:46:06.717011 11253 net.cpp:91] Creating Layer inception_5b/3x3
I0403 15:46:06.717028 11253 net.cpp:425] inception_5b/3x3 <- inception_5b/3x3_reduce
I0403 15:46:06.717049 11253 net.cpp:399] inception_5b/3x3 -> inception_5b/3x3
I0403 15:46:06.723846 11253 net.cpp:141] Setting up inception_5b/3x3
I0403 15:46:06.723876 11253 net.cpp:148] Top shape: 24 384 7 7 (451584)
I0403 15:46:06.723892 11253 net.cpp:156] Memory required for data: 1332467232
I0403 15:46:06.723912 11253 layer_factory.hpp:77] Creating layer inception_5b/relu_3x3
I0403 15:46:06.723932 11253 net.cpp:91] Creating Layer inception_5b/relu_3x3
I0403 15:46:06.723953 11253 net.cpp:425] inception_5b/relu_3x3 <- inception_5b/3x3
I0403 15:46:06.723971 11253 net.cpp:386] inception_5b/relu_3x3 -> inception_5b/3x3 (in-place)
I0403 15:46:06.724274 11253 net.cpp:141] Setting up inception_5b/relu_3x3
I0403 15:46:06.724300 11253 net.cpp:148] Top shape: 24 384 7 7 (451584)
I0403 15:46:06.724315 11253 net.cpp:156] Memory required for data: 1334273568
I0403 15:46:06.724330 11253 layer_factory.hpp:77] Creating layer inception_5b/5x5_reduce
I0403 15:46:06.724367 11253 net.cpp:91] Creating Layer inception_5b/5x5_reduce
I0403 15:46:06.724387 11253 net.cpp:425] inception_5b/5x5_reduce <- inception_5a/output_inception_5a/output_0_split_2
I0403 15:46:06.724411 11253 net.cpp:399] inception_5b/5x5_reduce -> inception_5b/5x5_reduce
I0403 15:46:06.725692 11253 net.cpp:141] Setting up inception_5b/5x5_reduce
I0403 15:46:06.725719 11253 net.cpp:148] Top shape: 24 48 7 7 (56448)
I0403 15:46:06.725735 11253 net.cpp:156] Memory required for data: 1334499360
I0403 15:46:06.725754 11253 layer_factory.hpp:77] Creating layer inception_5b/relu_5x5_reduce
I0403 15:46:06.725775 11253 net.cpp:91] Creating Layer inception_5b/relu_5x5_reduce
I0403 15:46:06.725791 11253 net.cpp:425] inception_5b/relu_5x5_reduce <- inception_5b/5x5_reduce
I0403 15:46:06.725808 11253 net.cpp:386] inception_5b/relu_5x5_reduce -> inception_5b/5x5_reduce (in-place)
I0403 15:46:06.726188 11253 net.cpp:141] Setting up inception_5b/relu_5x5_reduce
I0403 15:46:06.726215 11253 net.cpp:148] Top shape: 24 48 7 7 (56448)
I0403 15:46:06.726230 11253 net.cpp:156] Memory required for data: 1334725152
I0403 15:46:06.726245 11253 layer_factory.hpp:77] Creating layer inception_5b/5x5
I0403 15:46:06.726266 11253 net.cpp:91] Creating Layer inception_5b/5x5
I0403 15:46:06.726284 11253 net.cpp:425] inception_5b/5x5 <- inception_5b/5x5_reduce
I0403 15:46:06.726303 11253 net.cpp:399] inception_5b/5x5 -> inception_5b/5x5
I0403 15:46:06.728364 11253 net.cpp:141] Setting up inception_5b/5x5
I0403 15:46:06.728392 11253 net.cpp:148] Top shape: 24 128 7 7 (150528)
I0403 15:46:06.728409 11253 net.cpp:156] Memory required for data: 1335327264
I0403 15:46:06.728426 11253 layer_factory.hpp:77] Creating layer inception_5b/relu_5x5
I0403 15:46:06.728446 11253 net.cpp:91] Creating Layer inception_5b/relu_5x5
I0403 15:46:06.728463 11253 net.cpp:425] inception_5b/relu_5x5 <- inception_5b/5x5
I0403 15:46:06.728482 11253 net.cpp:386] inception_5b/relu_5x5 -> inception_5b/5x5 (in-place)
I0403 15:46:06.728677 11253 net.cpp:141] Setting up inception_5b/relu_5x5
I0403 15:46:06.728703 11253 net.cpp:148] Top shape: 24 128 7 7 (150528)
I0403 15:46:06.728719 11253 net.cpp:156] Memory required for data: 1335929376
I0403 15:46:06.728734 11253 layer_factory.hpp:77] Creating layer inception_5b/pool
I0403 15:46:06.728752 11253 net.cpp:91] Creating Layer inception_5b/pool
I0403 15:46:06.728770 11253 net.cpp:425] inception_5b/pool <- inception_5a/output_inception_5a/output_0_split_3
I0403 15:46:06.728790 11253 net.cpp:399] inception_5b/pool -> inception_5b/pool
I0403 15:46:06.728863 11253 net.cpp:141] Setting up inception_5b/pool
I0403 15:46:06.728886 11253 net.cpp:148] Top shape: 24 832 7 7 (978432)
I0403 15:46:06.728901 11253 net.cpp:156] Memory required for data: 1339843104
I0403 15:46:06.728915 11253 layer_factory.hpp:77] Creating layer inception_5b/pool_proj
I0403 15:46:06.728938 11253 net.cpp:91] Creating Layer inception_5b/pool_proj
I0403 15:46:06.728968 11253 net.cpp:425] inception_5b/pool_proj <- inception_5b/pool
I0403 15:46:06.728991 11253 net.cpp:399] inception_5b/pool_proj -> inception_5b/pool_proj
I0403 15:46:06.731320 11253 net.cpp:141] Setting up inception_5b/pool_proj
I0403 15:46:06.731349 11253 net.cpp:148] Top shape: 24 128 7 7 (150528)
I0403 15:46:06.731365 11253 net.cpp:156] Memory required for data: 1340445216
I0403 15:46:06.731384 11253 layer_factory.hpp:77] Creating layer inception_5b/relu_pool_proj
I0403 15:46:06.731405 11253 net.cpp:91] Creating Layer inception_5b/relu_pool_proj
I0403 15:46:06.731422 11253 net.cpp:425] inception_5b/relu_pool_proj <- inception_5b/pool_proj
I0403 15:46:06.731439 11253 net.cpp:386] inception_5b/relu_pool_proj -> inception_5b/pool_proj (in-place)
I0403 15:46:06.731745 11253 net.cpp:141] Setting up inception_5b/relu_pool_proj
I0403 15:46:06.731771 11253 net.cpp:148] Top shape: 24 128 7 7 (150528)
I0403 15:46:06.731786 11253 net.cpp:156] Memory required for data: 1341047328
I0403 15:46:06.731801 11253 layer_factory.hpp:77] Creating layer inception_5b/output
I0403 15:46:06.731820 11253 net.cpp:91] Creating Layer inception_5b/output
I0403 15:46:06.731850 11253 net.cpp:425] inception_5b/output <- inception_5b/1x1
I0403 15:46:06.731868 11253 net.cpp:425] inception_5b/output <- inception_5b/3x3
I0403 15:46:06.731885 11253 net.cpp:425] inception_5b/output <- inception_5b/5x5
I0403 15:46:06.731901 11253 net.cpp:425] inception_5b/output <- inception_5b/pool_proj
I0403 15:46:06.731920 11253 net.cpp:399] inception_5b/output -> inception_5b/output
I0403 15:46:06.731974 11253 net.cpp:141] Setting up inception_5b/output
I0403 15:46:06.732000 11253 net.cpp:148] Top shape: 24 1024 7 7 (1204224)
I0403 15:46:06.732015 11253 net.cpp:156] Memory required for data: 1345864224
I0403 15:46:06.732030 11253 layer_factory.hpp:77] Creating layer pool5/7x7_s1
I0403 15:46:06.732048 11253 net.cpp:91] Creating Layer pool5/7x7_s1
I0403 15:46:06.732064 11253 net.cpp:425] pool5/7x7_s1 <- inception_5b/output
I0403 15:46:06.732084 11253 net.cpp:399] pool5/7x7_s1 -> pool5/7x7_s1
I0403 15:46:06.732301 11253 net.cpp:141] Setting up pool5/7x7_s1
I0403 15:46:06.732326 11253 net.cpp:148] Top shape: 24 1024 1 1 (24576)
I0403 15:46:06.732342 11253 net.cpp:156] Memory required for data: 1345962528
I0403 15:46:06.732357 11253 layer_factory.hpp:77] Creating layer pool5/drop_7x7_s1
I0403 15:46:06.732377 11253 net.cpp:91] Creating Layer pool5/drop_7x7_s1
I0403 15:46:06.732393 11253 net.cpp:425] pool5/drop_7x7_s1 <- pool5/7x7_s1
I0403 15:46:06.732411 11253 net.cpp:386] pool5/drop_7x7_s1 -> pool5/7x7_s1 (in-place)
I0403 15:46:06.732462 11253 net.cpp:141] Setting up pool5/drop_7x7_s1
I0403 15:46:06.732486 11253 net.cpp:148] Top shape: 24 1024 1 1 (24576)
I0403 15:46:06.732501 11253 net.cpp:156] Memory required for data: 1346060832
I0403 15:46:06.732514 11253 layer_factory.hpp:77] Creating layer loss3/classifier_plantvillage
I0403 15:46:06.732533 11253 net.cpp:91] Creating Layer loss3/classifier_plantvillage
I0403 15:46:06.732553 11253 net.cpp:425] loss3/classifier_plantvillage <- pool5/7x7_s1
I0403 15:46:06.732573 11253 net.cpp:399] loss3/classifier_plantvillage -> loss3/classifier_plantvillage
I0403 15:46:06.733006 11253 net.cpp:141] Setting up loss3/classifier_plantvillage
I0403 15:46:06.733031 11253 net.cpp:148] Top shape: 24 38 (912)
I0403 15:46:06.733045 11253 net.cpp:156] Memory required for data: 1346064480
I0403 15:46:06.733063 11253 layer_factory.hpp:77] Creating layer loss3/classifier_plantvillage_loss3/classifier_plantvillage_0_split
I0403 15:46:06.733081 11253 net.cpp:91] Creating Layer loss3/classifier_plantvillage_loss3/classifier_plantvillage_0_split
I0403 15:46:06.733098 11253 net.cpp:425] loss3/classifier_plantvillage_loss3/classifier_plantvillage_0_split <- loss3/classifier_plantvillage
I0403 15:46:06.733119 11253 net.cpp:399] loss3/classifier_plantvillage_loss3/classifier_plantvillage_0_split -> loss3/classifier_plantvillage_loss3/classifier_plantvillage_0_split_0
I0403 15:46:06.733140 11253 net.cpp:399] loss3/classifier_plantvillage_loss3/classifier_plantvillage_0_split -> loss3/classifier_plantvillage_loss3/classifier_plantvillage_0_split_1
I0403 15:46:06.733160 11253 net.cpp:399] loss3/classifier_plantvillage_loss3/classifier_plantvillage_0_split -> loss3/classifier_plantvillage_loss3/classifier_plantvillage_0_split_2
I0403 15:46:06.733180 11253 net.cpp:399] loss3/classifier_plantvillage_loss3/classifier_plantvillage_0_split -> loss3/classifier_plantvillage_loss3/classifier_plantvillage_0_split_3
I0403 15:46:06.733284 11253 net.cpp:141] Setting up loss3/classifier_plantvillage_loss3/classifier_plantvillage_0_split
I0403 15:46:06.733309 11253 net.cpp:148] Top shape: 24 38 (912)
I0403 15:46:06.733325 11253 net.cpp:148] Top shape: 24 38 (912)
I0403 15:46:06.733340 11253 net.cpp:148] Top shape: 24 38 (912)
I0403 15:46:06.733355 11253 net.cpp:148] Top shape: 24 38 (912)
I0403 15:46:06.733369 11253 net.cpp:156] Memory required for data: 1346079072
I0403 15:46:06.733384 11253 layer_factory.hpp:77] Creating layer loss1/loss
I0403 15:46:06.733407 11253 net.cpp:91] Creating Layer loss1/loss
I0403 15:46:06.733425 11253 net.cpp:425] loss1/loss <- loss1/classifier_plantvillage_loss1/classifier_plantvillage_0_split_0
I0403 15:46:06.733456 11253 net.cpp:425] loss1/loss <- label_data_1_split_0
…
