…
I0403 15:54:47.591281 11763 net.cpp:313] The NetState phase (1) differed from the phase (0) specified by a rule in layer data
I0403 15:54:47.592476 11763 net.cpp:49] Initializing net from parameters: 
state {
  phase: TEST
}
layer {
  name: "data"
  type: "Data"
  top: "data"
  top: "label"
  include {
    phase: TEST
  }
  transform_param {
    mirror: false
    crop_size: 224
    mean_file: "/home/mohanty/data/final_dataset/lmdb/segmented-80-20/mean.binaryproto"
  }
  data_param {
    source: "/home/mohanty/data/final_dataset/lmdb/segmented-80-20/test_db"
    batch_size: 24
    backend: LMDB
  }
}
layer {
  name: "conv1/7x7_s2"
  type: "Convolution"
  bottom: "data"
  top: "conv1/7x7_s2"
  param {
    lr_mult: 1
    decay_mult: 1
  }
  param {
    lr_mult: 2
    decay_mult: 0
  }
  convolution_param {
    num_output: 64
    pad: 3
    kernel_size: 7
    stride: 2
    weight_filler {
      type: "xavier"
      std: 0.1
    }
    bias_filler {
      type: "constant"
      value: 0.2
    }
  }
}
layer {
  name: "conv1/relu_7x7"
  type: "ReLU"
  bottom: "conv1/7x7_s2"
  top: "conv1/7x7_s2"
}
layer {
  name: "pool1/3x3_s2"
  type: "Pooling"
  bottom: "conv1/7x7_s2"
  top: "pool1/3x3_s2"
  pooling_param {
    pool: MAX
    kernel_size: 3
    stride: 2
  }
}
layer {
  name: "pool1/norm1"
  type: "LRN"
  bottom: "pool1/3x3_s2"
  top: "pool1/norm1"
  lrn_param {
    local_size: 5
    alpha: 0.0001
    beta: 0.75
  }
}
layer {
  name: "conv2/3x3_reduce"
  type: "Convolution"
  bottom: "pool1/norm1"
  top: "conv2/3x3_reduce"
  param {
    lr_mult: 1
    decay_mult: 1
  }
  param {
    lr_mult: 2
    decay_mult: 0
  }
  convolution_param {
    num_output: 64
    kernel_size: 1
    weight_filler {
      type: "xavier"
      std: 0.1
    }
    bias_filler {
      type: "constant"
      value: 0.2
    }
  }
}
layer {
  name: "conv2/relu_3x3_reduce"
  type: "ReLU"
  bottom: "conv2/3x3_reduce"
  top: "conv2/3x3_reduce"
}
layer {
  name: "conv2/3x3"
  type: "Convolution"
  bottom: "conv2/3x3_reduce"
  top: "conv2/3x3"
  param {
    lr_mult: 1
    decay_mult: 1
  }
  param {
    lr_mult: 2
    decay_mult: 0
  }
  convolution_param {
    num_output: 192
    pad: 1
    kernel_size: 3
    weight_filler {
      type: "xavier"
      std: 0.03
    }
    bias_filler {
      type: "constant"
      value: 0.2
    }
  }
}
layer {
  name: "conv2/relu_3x3"
  type: "ReLU"
  bottom: "conv2/3x3"
  top: "conv2/3x3"
}
layer {
  name: "conv2/norm2"
  type: "LRN"
  bottom: "conv2/3x3"
  top: "conv2/norm2"
  lrn_param {
    local_size: 5
    alpha: 0.0001
    beta: 0.75
  }
}
layer {
  name: "pool2/3x3_s2"
  type: "Pooling"
  bottom: "conv2/norm2"
  top: "pool2/3x3_s2"
  pooling_param {
    pool: MAX
    kernel_size: 3
    stride: 2
  }
}
layer {
  name: "inception_3a/1x1"
  type: "Convolution"
  bottom: "pool2/3x3_s2"
  top: "inception_3a/1x1"
  param {
    lr_mult: 1
    decay_mult: 1
  }
  param {
    lr_mult: 2
    decay_mult: 0
  }
  convolution_param {
    num_output: 64
    kernel_size: 1
    weight_filler {
      type: "xavier"
      std: 0.03
    }
    bias_filler {
      type: "constant"
      value: 0.2
    }
  }
}
layer {
  name: "inception_3a/relu_1x1"
  type: "ReLU"
  bottom: "inception_3a/1x1"
  top: "inception_3a/1x1"
}
layer {
  name: "inception_3a/3x3_reduce"
  type: "Convolution"
  bottom: "pool2/3x3_s2"
  top: "inception_3a/3x3_reduce"
  param {
    lr_mult: 1
    decay_mult: 1
  }
  param {
    lr_mult: 2
    decay_mult: 0
  }
  convolution_param {
    num_output: 96
    kernel_size: 1
    weight_filler {
      type: "xavier"
      std: 0.09
    }
    bias_filler {
      type: "constant"
      value: 0.2
    }
  }
}
layer {
  name: "inception_3a/relu_3x3_reduce"
  type: "ReLU"
  bottom: "inception_3a/3x3_reduce"
  top: "inception_3a/3x3_reduce"
}
layer {
  name: "inception_3a/3x3"
  type: "Convolution"
  bottom: "inception_3a/3x3_reduce"
  top: "inception_3a/3x3"
  param {
    lr_mult: 1
    decay_mult: 1
  }
  param {
    lr_mult: 2
    decay_mult: 0
  }
  convolution_param {
    num_output: 128
    pad: 1
    kernel_size: 3
    weight_filler {
      type: "xavier"
      std: 0.03
    }
    bias_filler {
      type: "constant"
      value: 0.2
    }
  }
}
layer {
  name: "inception_3a/relu_3x3"
  type: "ReLU"
  bottom: "inception_3a/3x3"
  top: "inception_3a/3x3"
}
layer {
  name: "inception_3a/5x5_reduce"
  type: "Convolution"
  bottom: "pool2/3x3_s2"
  top: "inception_3a/5x5_reduce"
  param {
    lr_mult: 1
    decay_mult: 1
  }
  param {
    lr_mult: 2
    decay_mult: 0
  }
  convolution_param {
    num_output: 16
    kernel_size: 1
    weight_filler {
      type: "xavier"
      std: 0.2
    }
    bias_filler {
      type: "constant"
      value: 0.2
    }
  }
}
layer {
  name: "inception_3a/relu_5x5_reduce"
  type: "ReLU"
  bottom: "inception_3a/5x5_reduce"
  top: "inception_3a/5x5_reduce"
}
layer {
  name: "inception_3a/5x5"
  type: "Convolution"
  bottom: "inception_3a/5x5_reduce"
  top: "inception_3a/5x5"
  param {
    lr_mult: 1
    decay_mult: 1
  }
  param {
    lr_mult: 2
    decay_mult: 0
  }
  convolution_param {
    num_output: 32
    pad: 2
    kernel_size: 5
    weight_filler {
      type: "xavier"
      std: 0.03
    }
    bias_filler {
      type: "constant"
      value: 0.2
    }
  }
}
layer {
  name: "inception_3a/relu_5x5"
  type: "ReLU"
  bottom: "inception_3a/5x5"
  top: "inception_3a/5x5"
}
layer {
  name: "inception_3a/pool"
  type: "Pooling"
  bottom: "pool2/3x3_s2"
  top: "inception_3a/pool"
  pooling_param {
    pool: MAX
    kernel_size: 3
    stride: 1
    pad: 1
  }
}
layer {
  name: "inception_3a/pool_proj"
  type: "Convolution"
  bottom: "inception_3a/pool"
  top: "inception_3a/pool_proj"
  param {
    lr_mult: 1
    decay_mult: 1
  }
  param {
    lr_mult: 2
    decay_mult: 0
  }
  convolution_param {
    num_output: 32
    kernel_size: 1
    weight_filler {
      type: "xavier"
      std: 0.1
    }
    bias_filler {
      type: "constant"
      value: 0.2
    }
  }
}
layer {
  name: "inception_3a/relu_pool_proj"
  type: "ReLU"
  bottom: "inception_3a/pool_proj"
  top: "inception_3a/pool_proj"
}
layer {
  name: "inception_3a/output"
  type: "Concat"
  bottom: "inception_3a/1x1"
  bottom: "inception_3a/3x3"
  bottom: "inception_3a/5x5"
  bottom: "inception_3a/pool_proj"
  top: "inception_3a/output"
}
layer {
  name: "inception_3b/1x1"
  type: "Convolution"
  bottom: "inception_3a/output"
  top: "inception_3b/1x1"
  param {
    lr_mult: 1
    decay_mult: 1
  }
  param {
    lr_mult: 2
    decay_mult: 0
  }
  convolution_param {
    num_output: 128
    kernel_size: 1
    weight_filler {
      type: "xavier"
      std: 0.03
    }
    bias_filler {
      type: "constant"
      value: 0.2
    }
  }
}
layer {
  name: "inception_3b/relu_1x1"
  type: "ReLU"
  bottom: "inception_3b/1x1"
  top: "inception_3b/1x1"
}
layer {
  name: "inception_3b/3x3_reduce"
  type: "Convolution"
  bottom: "inception_3a/output"
  top: "inception_3b/3x3_reduce"
  param {
    lr_mult: 1
    decay_mult: 1
  }
  param {
    lr_mult: 2
    decay_mult: 0
  }
  convolution_param {
    num_output: 128
    kernel_size: 1
    weight_filler {
      type: "xavier"
      std: 0.09
    }
    bias_filler {
      type: "constant"
      value: 0.2
    }
  }
}
layer {
  name: "inception_3b/relu_3x3_reduce"
  type: "ReLU"
  bottom: "inception_3b/3x3_reduce"
  top: "inception_3b/3x3_reduce"
}
layer {
  name: "inception_3b/3x3"
  type: "Convolution"
  bottom: "inception_3b/3x3_reduce"
  top: "inception_3b/3x3"
  param {
    lr_mult: 1
    decay_mult: 1
  }
  param {
    lr_mult: 2
    decay_mult: 0
  }
  convolution_param {
    num_output: 192
    pad: 1
    kernel_size: 3
    weight_filler {
      type: "xavier"
      std: 0.03
    }
    bias_filler {
      type: "constant"
      value: 0.2
    }
  }
}
layer {
  name: "inception_3b/relu_3x3"
  type: "ReLU"
  bottom: "inception_3b/3x3"
  top: "inception_3b/3x3"
}
layer {
  name: "inception_3b/5x5_reduce"
  type: "Convolution"
  bottom: "inception_3a/output"
  top: "inception_3b/5x5_reduce"
  param {
    lr_mult: 1
    decay_mult: 1
  }
  param {
    lr_mult: 2
    decay_mult: 0
  }
  convolution_param {
    num_output: 32
    kernel_size: 1
    weight_filler {
      type: "xavier"
      std: 0.2
    }
    bias_filler {
      type: "constant"
      value: 0.2
    }
  }
}
layer {
  name: "inception_3b/relu_5x5_reduce"
  type: "ReLU"
  bottom: "inception_3b/5x5_reduce"
  top: "inception_3b/5x5_reduce"
}
layer {
  name: "inception_3b/5x5"
  type: "Convolution"
  bottom: "inception_3b/5x5_reduce"
  top: "inception_3b/5x5"
  param {
    lr_mult: 1
    decay_mult: 1
  }
  param {
    lr_mult: 2
    decay_mult: 0
  }
  convolution_param {
    num_output: 96
    pad: 2
    kernel_size: 5
    weight_filler {
      type: "xavier"
      std: 0.03
    }
    bias_filler {
      type: "constant"
      value: 0.2
    }
  }
}
layer {
  name: "inception_3b/relu_5x5"
  type: "ReLU"
  bottom: "inception_3b/5x5"
  top: "inception_3b/5x5"
}
layer {
  name: "inception_3b/pool"
  type: "Pooling"
  bottom: "inception_3a/output"
  top: "inception_3b/pool"
  pooling_param {
    pool: MAX
    kernel_size: 3
    stride: 1
    pad: 1
  }
}
layer {
  name: "inception_3b/pool_proj"
  type: "Convolution"
  bottom: "inception_3b/pool"
  top: "inception_3b/pool_proj"
  param {
    lr_mult: 1
    decay_mult: 1
  }
  param {
    lr_mult: 2
    decay_mult: 0
  }
  convolution_param {
    num_output: 64
    kernel_size: 1
    weight_filler {
      type: "xavier"
      std: 0.1
    }
    bias_filler {
      type: "constant"
      value: 0.2
    }
  }
}
layer {
  name: "inception_3b/relu_pool_proj"
  type: "ReLU"
  bottom: "inception_3b/pool_proj"
  top: "inception_3b/pool_proj"
}
layer {
  name: "inception_3b/output"
  type: "Concat"
  bottom: "inception_3b/1x1"
  bottom: "inception_3b/3x3"
  bottom: "inception_3b/5x5"
  bottom: "inception_3b/pool_proj"
  top: "inception_3b/output"
}
layer {
  name: "pool3/3x3_s2"
  type: "Pooling"
  bottom: "inception_3b/output"
  top: "pool3/3x3_s2"
  pooling_param {
    pool: MAX
    kernel_size: 3
    stride: 2
  }
}
layer {
  name: "inception_4a/1x1"
  type: "Convolution"
  bottom: "pool3/3x3_s2"
  top: "inception_4a/1x1"
  param {
    lr_mult: 1
    decay_mult: 1
  }
  param {
    lr_mult: 2
    decay_mult: 0
  }
  convolution_param {
    num_output: 192
    kernel_size: 1
    weight_filler {
      type: "xavier"
      std: 0.03
    }
    bias_filler {
      type: "constant"
      value: 0.2
    }
  }
}
layer {
  name: "inception_4a/relu_1x1"
  type: "ReLU"
  bottom: "inception_4a/1x1"
  top: "inception_4a/1x1"
}
layer {
  name: "inception_4a/3x3_reduce"
  type: "Convolution"
  bottom: "pool3/3x3_s2"
  top: "inception_4a/3x3_reduce"
  param {
    lr_mult: 1
    decay_mult: 1
  }
  param {
    lr_mult: 2
    decay_mult: 0
  }
  convolution_param {
    num_output: 96
    kernel_size: 1
    weight_filler {
      type: "xavier"
      std: 0.09
    }
    bias_filler {
      type: "constant"
      value: 0.2
    }
  }
}
layer {
  name: "inception_4a/relu_3x3_reduce"
  type: "ReLU"
  bottom: "inception_4a/3x3_reduce"
  top: "inception_4a/3x3_reduce"
}
layer {
  name: "inception_4a/3x3"
  type: "Convolution"
  bottom: "inception_4a/3x3_reduce"
  top: "inception_4a/3x3"
  param {
    lr_mult: 1
    decay_mult: 1
  }
  param {
    lr_mult: 2
    decay_mult: 0
  }
  convolution_param {
    num_output: 208
    pad: 1
    kernel_size: 3
    weight_filler {
      type: "xavier"
      std: 0.03
    }
    bias_filler {
      type: "constant"
      value: 0.2
    }
  }
}
layer {
  name: "inception_4a/relu_3x3"
  type: "ReLU"
  bottom: "inception_4a/3x3"
  top: "inception_4a/3x3"
}
layer {
  name: "inception_4a/5x5_reduce"
  type: "Convolution"
  bottom: "pool3/3x3_s2"
  top: "inception_4a/5x5_reduce"
  param {
    lr_mult: 1
    decay_mult: 1
  }
  param {
    lr_mult: 2
    decay_mult: 0
  }
  convolution_param {
    num_output: 16
    kernel_size: 1
    weight_filler {
      type: "xavier"
      std: 0.2
    }
    bias_filler {
      type: "constant"
      value: 0.2
    }
  }
}
layer {
  name: "inception_4a/relu_5x5_reduce"
  type: "ReLU"
  bottom: "inception_4a/5x5_reduce"
  top: "inception_4a/5x5_reduce"
}
layer {
  name: "inception_4a/5x5"
  type: "Convolution"
  bottom: "inception_4a/5x5_reduce"
  top: "inception_4a/5x5"
  param {
    lr_mult: 1
    decay_mult: 1
  }
  param {
    lr_mult: 2
    decay_mult: 0
  }
  convolution_param {
    num_output: 48
    pad: 2
    kernel_size: 5
    weight_filler {
      type: "xavier"
      std: 0.03
    }
    bias_filler {
      type: "constant"
      value: 0.2
    }
  }
}
layer {
  name: "inception_4a/relu_5x5"
  type: "ReLU"
  bottom: "inception_4a/5x5"
  top: "inception_4a/5x5"
}
layer {
  name: "inception_4a/pool"
  type: "Pooling"
  bottom: "pool3/3x3_s2"
  top: "inception_4a/pool"
  pooling_param {
    pool: MAX
    kernel_size: 3
    stride: 1
    pad: 1
  }
}
layer {
  name: "inception_4a/pool_proj"
  type: "Convolution"
  bottom: "inception_4a/pool"
  top: "inception_4a/pool_proj"
  param {
    lr_mult: 1
    decay_mult: 1
  }
  param {
    lr_mult: 2
    decay_mult: 0
  }
  convolution_param {
    num_output: 64
    kernel_size: 1
    weight_filler {
      type: "xavier"
      std: 0.1
    }
    bias_filler {
      type: "constant"
      value: 0.2
    }
  }
}
layer {
  name: "inception_4a/relu_pool_proj"
  type: "ReLU"
  bottom: "inception_4a/pool_proj"
  top: "inception_4a/pool_proj"
}
layer {
  name: "inception_4a/output"
  type: "Concat"
  bottom: "inception_4a/1x1"
  bottom: "inception_4a/3x3"
  bottom: "inception_4a/5x5"
  bottom: "inception_4a/pool_proj"
  top: "inception_4a/output"
}
layer {
  name: "loss1/ave_pool"
  type: "Pooling"
  bottom: "inception_4a/output"
  top: "loss1/ave_pool"
  pooling_param {
    pool: AVE
    kernel_size: 5
    stride: 3
  }
}
layer {
  name: "loss1/conv"
  type: "Convolution"
  bottom: "loss1/ave_pool"
  top: "loss1/conv"
  param {
    lr_mult: 1
    decay_mult: 1
  }
  param {
    lr_mult: 2
    decay_mult: 0
  }
  convolution_param {
    num_output: 128
    kernel_size: 1
    weight_filler {
      type: "xavier"
      std: 0.08
    }
    bias_filler {
      type: "constant"
      value: 0.2
    }
  }
}
layer {
  name: "loss1/relu_conv"
  type: "ReLU"
  bottom: "loss1/conv"
  top: "loss1/conv"
}
layer {
  name: "loss1/fc"
  type: "InnerProduct"
  bottom: "loss1/conv"
  top: "loss1/fc"
  param {
    lr_mult: 1
    decay_mult: 1
  }
  param {
    lr_mult: 2
    decay_mult: 0
  }
  inner_product_param {
    num_output: 1024
    weight_filler {
      type: "xavier"
      std: 0.02
    }
    bias_filler {
      type: "constant"
      value: 0.2
    }
  }
}
layer {
  name: "loss1/relu_fc"
  type: "ReLU"
  bottom: "loss1/fc"
  top: "loss1/fc"
}
layer {
  name: "loss1/drop_fc"
  type: "Dropout"
  bottom: "loss1/fc"
  top: "loss1/fc"
  dropout_param {
    dropout_ratio: 0.7
  }
}
layer {
  name: "loss1/classifier_plantvillage"
  type: "InnerProduct"
  bottom: "loss1/fc"
  top: "loss1/classifier_plantvillage"
  param {
    lr_mult: 1
    decay_mult: 1
  }
  param {
    lr_mult: 2
    decay_mult: 0
  }
  inner_product_param {
    num_output: 38
    weight_filler {
      type: "xavier"
      std: 0.0009765625
    }
    bias_filler {
      type: "constant"
      value: 0
    }
  }
}
layer {
  name: "inception_4b/1x1"
  type: "Convolution"
  bottom: "inception_4a/output"
  top: "inception_4b/1x1"
  param {
    lr_mult: 1
    decay_mult: 1
  }
  param {
    lr_mult: 2
    decay_mult: 0
  }
  convolution_param {
    num_output: 160
    kernel_size: 1
    weight_filler {
      type: "xavier"
      std: 0.03
    }
    bias_filler {
      type: "constant"
      value: 0.2
    }
  }
}
layer {
  name: "inception_4b/relu_1x1"
  type: "ReLU"
  bottom: "inception_4b/1x1"
  top: "inception_4b/1x1"
}
layer {
  name: "inception_4b/3x3_reduce"
  type: "Convolution"
  bottom: "inception_4a/output"
  top: "inception_4b/3x3_reduce"
  param {
    lr_mult: 1
    decay_mult: 1
  }
  param {
    lr_mult: 2
    decay_mult: 0
  }
  convolution_param {
    num_output: 112
    kernel_size: 1
    weight_filler {
      type: "xavier"
      std: 0.09
    }
    bias_filler {
      type: "constant"
      value: 0.2
    }
  }
}
layer {
  name: "inception_4b/relu_3x3_reduce"
  type: "ReLU"
  bottom: "inception_4b/3x3_reduce"
  top: "inception_4b/3x3_reduce"
}
layer {
  name: "inception_4b/3x3"
  type: "Convolution"
  bottom: "inception_4b/3x3_reduce"
  top: "inception_4b/3x3"
  param {
    lr_mult: 1
    decay_mult: 1
  }
  param {
    lr_mult: 2
    decay_mult: 0
  }
  convolution_param {
    num_output: 224
    pad: 1
    kernel_size: 3
    weight_filler {
      type: "xavier"
      std: 0.03
    }
    bias_filler {
      type: "constant"
      value: 0.2
    }
  }
}
layer {
  name: "inception_4b/relu_3x3"
  type: "ReLU"
  bottom: "inception_4b/3x3"
  top: "inception_4b/3x3"
}
layer {
  name: "inception_4b/5x5_reduce"
  type: "Convolution"
  bottom: "inception_4a/output"
  top: "inception_4b/5x5_reduce"
  param {
    lr_mult: 1
    decay_mult: 1
  }
  param {
    lr_mult: 2
    decay_mult: 0
  }
  convolution_param {
    num_output: 24
    kernel_size: 1
    weight_filler {
      type: "xavier"
      std: 0.2
    }
    bias_filler {
      type: "constant"
      value: 0.2
    }
  }
}
layer {
  name: "inception_4b/relu_5x5_reduce"
  type: "ReLU"
  bottom: "inception_4b/5x5_reduce"
  top: "inception_4b/5x5_reduce"
}
layer {
  name: "inception_4b/5x5"
  type: "Convolution"
  bottom: "inception_4b/5x5_reduce"
  top: "inception_4b/5x5"
  param {
    lr_mult: 1
    decay_mult: 1
  }
  param {
    lr_mult: 2
    decay_mult: 0
  }
  convolution_param {
    num_output: 64
    pad: 2
    kernel_size: 5
    weight_filler {
      type: "xavier"
      std: 0.03
    }
    bias_filler {
      type: "constant"
      value: 0.2
    }
  }
}
layer {
  name: "inception_4b/relu_5x5"
  type: "ReLU"
  bottom: "inception_4b/5x5"
  top: "inception_4b/5x5"
}
layer {
  name: "inception_4b/pool"
  type: "Pooling"
  bottom: "inception_4a/output"
  top: "inception_4b/pool"
  pooling_param {
    pool: MAX
    kernel_size: 3
    stride: 1
    pad: 1
  }
}
layer {
  name: "inception_4b/pool_proj"
  type: "Convolution"
  bottom: "inception_4b/pool"
  top: "inception_4b/pool_proj"
  param {
    lr_mult: 1
    decay_mult: 1
  }
  param {
    lr_mult: 2
    decay_mult: 0
  }
  convolution_param {
    num_output: 64
    kernel_size: 1
    weight_filler {
      type: "xavier"
      std: 0.1
    }
    bias_filler {
      type: "constant"
      value: 0.2
    }
  }
}
layer {
  name: "inception_4b/relu_pool_proj"
  type: "ReLU"
  bottom: "inception_4b/pool_proj"
  top: "inception_4b/pool_proj"
}
layer {
  name: "inception_4b/output"
  type: "Concat"
  bottom: "inception_4b/1x1"
  bottom: "inception_4b/3x3"
  bottom: "inception_4b/5x5"
  bottom: "inception_4b/pool_proj"
  top: "inception_4b/output"
}
layer {
  name: "inception_4c/1x1"
  type: "Convolution"
  bottom: "inception_4b/output"
  top: "inception_4c/1x1"
  param {
    lr_mult: 1
    decay_mult: 1
  }
  param {
    lr_mult: 2
    decay_mult: 0
  }
  convolution_param {
    num_output: 128
    kernel_size: 1
    weight_filler {
      type: "xavier"
      std: 0.03
    }
    bias_filler {
      type: "constant"
      value: 0.2
    }
  }
}
layer {
  name: "inception_4c/relu_1x1"
  type: "ReLU"
  bottom: "inception_4c/1x1"
  top: "inception_4c/1x1"
}
layer {
  name: "inception_4c/3x3_reduce"
  type: "Convolution"
  bottom: "inception_4b/output"
  top: "inception_4c/3x3_reduce"
  param {
    lr_mult: 1
    decay_mult: 1
  }
  param {
    lr_mult: 2
    decay_mult: 0
  }
  convolution_param {
    num_output: 128
    kernel_size: 1
    weight_filler {
      type: "xavier"
      std: 0.09
    }
    bias_filler {
      type: "constant"
      value: 0.2
    }
  }
}
layer {
  name: "inception_4c/relu_3x3_reduce"
  type: "ReLU"
  bottom: "inception_4c/3x3_reduce"
  top: "inception_4c/3x3_reduce"
}
layer {
  name: "inception_4c/3x3"
  type: "Convolution"
  bottom: "inception_4c/3x3_reduce"
  top: "inception_4c/3x3"
  param {
    lr_mult: 1
    decay_mult: 1
  }
  param {
    lr_mult: 2
    decay_mult: 0
  }
  convolution_param {
    num_output: 256
    pad: 1
    kernel_size: 3
    weight_filler {
      type: "xavier"
      std: 0.03
    }
    bias_filler {
      type: "constant"
      value: 0.2
    }
  }
}
layer {
  name: "inception_4c/relu_3x3"
  type: "ReLU"
  bottom: "inception_4c/3x3"
  top: "inception_4c/3x3"
}
layer {
  name: "inception_4c/5x5_reduce"
  type: "Convolution"
  bottom: "inception_4b/output"
  top: "inception_4c/5x5_reduce"
  param {
    lr_mult: 1
    decay_mult: 1
  }
  param {
    lr_mult: 2
    decay_mult: 0
  }
  convolution_param {
    num_output: 24
    kernel_size: 1
    weight_filler {
      type: "xavier"
      std: 0.2
    }
    bias_filler {
      type: "constant"
      value: 0.2
    }
  }
}
layer {
  name: "inception_4c/relu_5x5_reduce"
  type: "ReLU"
  bottom: "inception_4c/5x5_reduce"
  top: "inception_4c/5x5_reduce"
}
layer {
  name: "inception_4c/5x5"
  type: "Convolution"
  bottom: "inception_4c/5x5_reduce"
  top: "inception_4c/5x5"
  param {
    lr_mult: 1
    decay_mult: 1
  }
  param {
    lr_mult: 2
    decay_mult: 0
  }
  convolution_param {
    num_output: 64
    pad: 2
    kernel_size: 5
    weight_filler {
      type: "xavier"
      std: 0.03
    }
    bias_filler {
      type: "constant"
      value: 0.2
    }
  }
}
layer {
  name: "inception_4c/relu_5x5"
  type: "ReLU"
  bottom: "inception_4c/5x5"
  top: "inception_4c/5x5"
}
layer {
  name: "inception_4c/pool"
  type: "Pooling"
  bottom: "inception_4b/output"
  top: "inception_4c/pool"
  pooling_param {
    pool: MAX
    kernel_size: 3
    stride: 1
    pad: 1
  }
}
layer {
  name: "inception_4c/pool_proj"
  type: "Convolution"
  bottom: "inception_4c/pool"
  top: "inception_4c/pool_proj"
  param {
    lr_mult: 1
    decay_mult: 1
  }
  param {
    lr_mult: 2
    decay_mult: 0
  }
  convolution_param {
    num_output: 64
    kernel_size: 1
    weight_filler {
      type: "xavier"
      std: 0.1
    }
    bias_filler {
      type: "constant"
      value: 0.2
    }
  }
}
layer {
  name: "inception_4c/relu_pool_proj"
  type: "ReLU"
  bottom: "inception_4c/pool_proj"
  top: "inception_4c/pool_proj"
}
layer {
  name: "inception_4c/output"
  type: "Concat"
  bottom: "inception_4c/1x1"
  bottom: "inception_4c/3x3"
  bottom: "inception_4c/5x5"
  bottom: "inception_4c/pool_proj"
  top: "inception_4c/output"
}
layer {
  name: "inception_4d/1x1"
  type: "Convolution"
  bottom: "inception_4c/output"
  top: "inception_4d/1x1"
  param {
    lr_mult: 1
    decay_mult: 1
  }
  param {
    lr_mult: 2
    decay_mult: 0
  }
  convolution_param {
    num_output: 112
    kernel_size: 1
    weight_filler {
      type: "xavier"
      std: 0.03
    }
    bias_filler {
      type: "constant"
      value: 0.2
    }
  }
}
layer {
  name: "inception_4d/relu_1x1"
  type: "ReLU"
  bottom: "inception_4d/1x1"
  top: "inception_4d/1x1"
}
layer {
  name: "inception_4d/3x3_reduce"
  type: "Convolution"
  bottom: "inception_4c/output"
  top: "inception_4d/3x3_reduce"
  param {
    lr_mult: 1
    decay_mult: 1
  }
  param {
    lr_mult: 2
    decay_mult: 0
  }
  convolution_param {
    num_output: 144
    kernel_size: 1
    weight_filler {
      type: "xavier"
      std: 0.09
    }
    bias_filler {
      type: "constant"
      value: 0.2
    }
  }
}
layer {
  name: "inception_4d/relu_3x3_reduce"
  type: "ReLU"
  bottom: "inception_4d/3x3_reduce"
  top: "inception_4d/3x3_reduce"
}
layer {
  name: "inception_4d/3x3"
  type: "Convolution"
  bottom: "inception_4d/3x3_reduce"
  top: "inception_4d/3x3"
  param {
    lr_mult: 1
    decay_mult: 1
  }
  param {
    lr_mult: 2
    decay_mult: 0
  }
  convolution_param {
    num_output: 288
    pad: 1
    kernel_size: 3
    weight_filler {
      type: "xavier"
      std: 0.03
    }
    bias_filler {
      type: "constant"
      value: 0.2
    }
  }
}
layer {
  name: "inception_4d/relu_3x3"
  type: "ReLU"
  bottom: "inception_4d/3x3"
  top: "inception_4d/3x3"
}
layer {
  name: "inception_4d/5x5_reduce"
  type: "Convolution"
  bottom: "inception_4c/output"
  top: "inception_4d/5x5_reduce"
  param {
    lr_mult: 1
    decay_mult: 1
  }
  param {
    lr_mult: 2
    decay_mult: 0
  }
  convolution_param {
    num_output: 32
    kernel_size: 1
    weight_filler {
      type: "xavier"
      std: 0.2
    }
    bias_filler {
      type: "constant"
      value: 0.2
    }
  }
}
layer {
  name: "inception_4d/relu_5x5_reduce"
  type: "ReLU"
  bottom: "inception_4d/5x5_reduce"
  top: "inception_4d/5x5_reduce"
}
layer {
  name: "inception_4d/5x5"
  type: "Convolution"
  bottom: "inception_4d/5x5_reduce"
  top: "inception_4d/5x5"
  param {
    lr_mult: 1
    decay_mult: 1
  }
  param {
    lr_mult: 2
    decay_mult: 0
  }
  convolution_param {
    num_output: 64
    pad: 2
    kernel_size: 5
    weight_filler {
      type: "xavier"
      std: 0.03
    }
    bias_filler {
      type: "constant"
      value: 0.2
    }
  }
}
layer {
  name: "inception_4d/relu_5x5"
  type: "ReLU"
  bottom: "inception_4d/5x5"
  top: "inception_4d/5x5"
}
layer {
  name: "inception_4d/pool"
  type: "Pooling"
  bottom: "inception_4c/output"
  top: "inception_4d/pool"
  pooling_param {
    pool: MAX
    kernel_size: 3
    stride: 1
    pad: 1
  }
}
layer {
  name: "inception_4d/pool_proj"
  type: "Convolution"
  bottom: "inception_4d/pool"
  top: "inception_4d/pool_proj"
  param {
    lr_mult: 1
    decay_mult: 1
  }
  param {
    lr_mult: 2
    decay_mult: 0
  }
  convolution_param {
    num_output: 64
    kernel_size: 1
    weight_filler {
      type: "xavier"
      std: 0.1
    }
    bias_filler {
      type: "constant"
      value: 0.2
    }
  }
}
layer {
  name: "inception_4d/relu_pool_proj"
  type: "ReLU"
  bottom: "inception_4d/pool_proj"
  top: "inception_4d/pool_proj"
}
layer {
  name: "inception_4d/output"
  type: "Concat"
  bottom: "inception_4d/1x1"
  bottom: "inception_4d/3x3"
  bottom: "inception_4d/5x5"
  bottom: "inception_4d/pool_proj"
  top: "inception_4d/output"
}
layer {
  name: "loss2/ave_pool"
  type: "Pooling"
  bottom: "inception_4d/output"
  top: "loss2/ave_pool"
  pooling_param {
    pool: AVE
    kernel_size: 5
    stride: 3
  }
}
layer {
  name: "loss2/conv"
  type: "Convolution"
  bottom: "loss2/ave_pool"
  top: "loss2/conv"
  param {
    lr_mult: 1
    decay_mult: 1
  }
  param {
    lr_mult: 2
    decay_mult: 0
  }
  convolution_param {
    num_output: 128
    kernel_size: 1
    weight_filler {
      type: "xavier"
      std: 0.08
    }
    bias_filler {
      type: "constant"
      value: 0.2
    }
  }
}
layer {
  name: "loss2/relu_conv"
  type: "ReLU"
  bottom: "loss2/conv"
  top: "loss2/conv"
}
layer {
  name: "loss2/fc"
  type: "InnerProduct"
  bottom: "loss2/conv"
  top: "loss2/fc"
  param {
    lr_mult: 1
    decay_mult: 1
  }
  param {
    lr_mult: 2
    decay_mult: 0
  }
  inner_product_param {
    num_output: 1024
    weight_filler {
      type: "xavier"
      std: 0.02
    }
    bias_filler {
      type: "constant"
      value: 0.2
    }
  }
}
layer {
  name: "loss2/relu_fc"
  type: "ReLU"
  bottom: "loss2/fc"
  top: "loss2/fc"
}
layer {
  name: "loss2/drop_fc"
  type: "Dropout"
  bottom: "loss2/fc"
  top: "loss2/fc"
  dropout_param {
    dropout_ratio: 0.7
  }
}
layer {
  name: "loss2/classifier_plantvillage"
  type: "InnerProduct"
  bottom: "loss2/fc"
  top: "loss2/classifier_plantvillage"
  param {
    lr_mult: 1
    decay_mult: 1
  }
  param {
    lr_mult: 2
    decay_mult: 0
  }
  inner_product_param {
    num_output: 38
    weight_filler {
      type: "xavier"
      std: 0.0009765625
    }
    bias_filler {
      type: "constant"
      value: 0
    }
  }
}
layer {
  name: "inception_4e/1x1"
  type: "Convolution"
  bottom: "inception_4d/output"
  top: "inception_4e/1x1"
  param {
    lr_mult: 1
    decay_mult: 1
  }
  param {
    lr_mult: 2
    decay_mult: 0
  }
  convolution_param {
    num_output: 256
    kernel_size: 1
    weight_filler {
      type: "xavier"
      std: 0.03
    }
    bias_filler {
      type: "constant"
      value: 0.2
    }
  }
}
layer {
  name: "inception_4e/relu_1x1"
  type: "ReLU"
  bottom: "inception_4e/1x1"
  top: "inception_4e/1x1"
}
layer {
  name: "inception_4e/3x3_reduce"
  type: "Convolution"
  bottom: "inception_4d/output"
  top: "inception_4e/3x3_reduce"
  param {
    lr_mult: 1
    decay_mult: 1
  }
  param {
    lr_mult: 2
    decay_mult: 0
  }
  convolution_param {
    num_output: 160
    kernel_size: 1
    weight_filler {
      type: "xavier"
      std: 0.09
    }
    bias_filler {
      type: "constant"
      value: 0.2
    }
  }
}
layer {
  name: "inception_4e/relu_3x3_reduce"
  type: "ReLU"
  bottom: "inception_4e/3x3_reduce"
  top: "inception_4e/3x3_reduce"
}
layer {
  name: "inception_4e/3x3"
  type: "Convolution"
  bottom: "inception_4e/3x3_reduce"
  top: "inception_4e/3x3"
  param {
    lr_mult: 1
    decay_mult: 1
  }
  param {
    lr_mult: 2
    decay_mult: 0
  }
  convolution_param {
    num_output: 320
    pad: 1
    kernel_size: 3
    weight_filler {
      type: "xavier"
      std: 0.03
    }
    bias_filler {
      type: "constant"
      value: 0.2
    }
  }
}
layer {
  name: "inception_4e/relu_3x3"
  type: "ReLU"
  bottom: "inception_4e/3x3"
  top: "inception_4e/3x3"
}
layer {
  name: "inception_4e/5x5_reduce"
  type: "Convolution"
  bottom: "inception_4d/output"
  top: "inception_4e/5x5_reduce"
  param {
    lr_mult: 1
    decay_mult: 1
  }
  param {
    lr_mult: 2
    decay_mult: 0
  }
  convolution_param {
    num_output: 32
    kernel_size: 1
    weight_filler {
      type: "xavier"
      std: 0.2
    }
    bias_filler {
      type: "constant"
      value: 0.2
    }
  }
}
layer {
  name: "inception_4e/relu_5x5_reduce"
  type: "ReLU"
  bottom: "inception_4e/5x5_reduce"
  top: "inception_4e/5x5_reduce"
}
layer {
  name: "inception_4e/5x5"
  type: "Convolution"
  bottom: "inception_4e/5x5_reduce"
  top: "inception_4e/
I0403 15:54:47.593801 11763 layer_factory.hpp:77] Creating layer data
I0403 15:54:47.594410 11763 net.cpp:91] Creating Layer data
I0403 15:54:47.594442 11763 net.cpp:399] data -> data
I0403 15:54:47.594492 11763 net.cpp:399] data -> label
I0403 15:54:47.594527 11763 data_transformer.cpp:25] Loading mean file from: /home/mohanty/data/final_dataset/lmdb/segmented-80-20/mean.binaryproto
I0403 15:54:47.597240 11765 db_lmdb.cpp:38] Opened lmdb /home/mohanty/data/final_dataset/lmdb/segmented-80-20/test_db
I0403 15:54:47.607540 11763 data_layer.cpp:41] output data size: 24,3,224,224
I0403 15:54:47.634228 11763 net.cpp:141] Setting up data
I0403 15:54:47.634310 11763 net.cpp:148] Top shape: 24 3 224 224 (3612672)
I0403 15:54:47.634332 11763 net.cpp:148] Top shape: 24 (24)
I0403 15:54:47.634347 11763 net.cpp:156] Memory required for data: 14450784
I0403 15:54:47.634374 11763 layer_factory.hpp:77] Creating layer label_data_1_split
I0403 15:54:47.634402 11763 net.cpp:91] Creating Layer label_data_1_split
I0403 15:54:47.634421 11763 net.cpp:425] label_data_1_split <- label
I0403 15:54:47.634466 11763 net.cpp:399] label_data_1_split -> label_data_1_split_0
I0403 15:54:47.634493 11763 net.cpp:399] label_data_1_split -> label_data_1_split_1
I0403 15:54:47.634515 11763 net.cpp:399] label_data_1_split -> label_data_1_split_2
I0403 15:54:47.634534 11763 net.cpp:399] label_data_1_split -> label_data_1_split_3
I0403 15:54:47.634554 11763 net.cpp:399] label_data_1_split -> label_data_1_split_4
I0403 15:54:47.634573 11763 net.cpp:399] label_data_1_split -> label_data_1_split_5
I0403 15:54:47.634593 11763 net.cpp:399] label_data_1_split -> label_data_1_split_6
I0403 15:54:47.634613 11763 net.cpp:399] label_data_1_split -> label_data_1_split_7
I0403 15:54:47.634631 11763 net.cpp:399] label_data_1_split -> label_data_1_split_8
I0403 15:54:47.634650 11763 net.cpp:399] label_data_1_split -> label_data_1_split_9
I0403 15:54:47.634766 11763 net.cpp:141] Setting up label_data_1_split
I0403 15:54:47.634789 11763 net.cpp:148] Top shape: 24 (24)
I0403 15:54:47.634805 11763 net.cpp:148] Top shape: 24 (24)
I0403 15:54:47.634821 11763 net.cpp:148] Top shape: 24 (24)
I0403 15:54:47.634836 11763 net.cpp:148] Top shape: 24 (24)
I0403 15:54:47.634852 11763 net.cpp:148] Top shape: 24 (24)
I0403 15:54:47.634867 11763 net.cpp:148] Top shape: 24 (24)
I0403 15:54:47.634883 11763 net.cpp:148] Top shape: 24 (24)
I0403 15:54:47.634898 11763 net.cpp:148] Top shape: 24 (24)
I0403 15:54:47.634913 11763 net.cpp:148] Top shape: 24 (24)
I0403 15:54:47.634929 11763 net.cpp:148] Top shape: 24 (24)
I0403 15:54:47.634976 11763 net.cpp:156] Memory required for data: 14451744
I0403 15:54:47.634994 11763 layer_factory.hpp:77] Creating layer conv1/7x7_s2
I0403 15:54:47.635025 11763 net.cpp:91] Creating Layer conv1/7x7_s2
I0403 15:54:47.635042 11763 net.cpp:425] conv1/7x7_s2 <- data
I0403 15:54:47.635061 11763 net.cpp:399] conv1/7x7_s2 -> conv1/7x7_s2
I0403 15:54:47.777886 11763 net.cpp:141] Setting up conv1/7x7_s2
I0403 15:54:47.777977 11763 net.cpp:148] Top shape: 24 64 112 112 (19267584)
I0403 15:54:47.777997 11763 net.cpp:156] Memory required for data: 91522080
I0403 15:54:47.778028 11763 layer_factory.hpp:77] Creating layer conv1/relu_7x7
I0403 15:54:47.778059 11763 net.cpp:91] Creating Layer conv1/relu_7x7
I0403 15:54:47.778079 11763 net.cpp:425] conv1/relu_7x7 <- conv1/7x7_s2
I0403 15:54:47.778098 11763 net.cpp:386] conv1/relu_7x7 -> conv1/7x7_s2 (in-place)
I0403 15:54:47.778378 11763 net.cpp:141] Setting up conv1/relu_7x7
I0403 15:54:47.778404 11763 net.cpp:148] Top shape: 24 64 112 112 (19267584)
I0403 15:54:47.778420 11763 net.cpp:156] Memory required for data: 168592416
I0403 15:54:47.778436 11763 layer_factory.hpp:77] Creating layer pool1/3x3_s2
I0403 15:54:47.778463 11763 net.cpp:91] Creating Layer pool1/3x3_s2
I0403 15:54:47.778481 11763 net.cpp:425] pool1/3x3_s2 <- conv1/7x7_s2
I0403 15:54:47.778501 11763 net.cpp:399] pool1/3x3_s2 -> pool1/3x3_s2
I0403 15:54:47.778581 11763 net.cpp:141] Setting up pool1/3x3_s2
I0403 15:54:47.778607 11763 net.cpp:148] Top shape: 24 64 56 56 (4816896)
I0403 15:54:47.778622 11763 net.cpp:156] Memory required for data: 187860000
I0403 15:54:47.778636 11763 layer_factory.hpp:77] Creating layer pool1/norm1
I0403 15:54:47.778664 11763 net.cpp:91] Creating Layer pool1/norm1
I0403 15:54:47.778683 11763 net.cpp:425] pool1/norm1 <- pool1/3x3_s2
I0403 15:54:47.778702 11763 net.cpp:399] pool1/norm1 -> pool1/norm1
I0403 15:54:47.779028 11763 net.cpp:141] Setting up pool1/norm1
I0403 15:54:47.779055 11763 net.cpp:148] Top shape: 24 64 56 56 (4816896)
I0403 15:54:47.779072 11763 net.cpp:156] Memory required for data: 207127584
I0403 15:54:47.779088 11763 layer_factory.hpp:77] Creating layer conv2/3x3_reduce
I0403 15:54:47.779115 11763 net.cpp:91] Creating Layer conv2/3x3_reduce
I0403 15:54:47.779132 11763 net.cpp:425] conv2/3x3_reduce <- pool1/norm1
I0403 15:54:47.779155 11763 net.cpp:399] conv2/3x3_reduce -> conv2/3x3_reduce
I0403 15:54:47.780599 11763 net.cpp:141] Setting up conv2/3x3_reduce
I0403 15:54:47.780632 11763 net.cpp:148] Top shape: 24 64 56 56 (4816896)
I0403 15:54:47.780649 11763 net.cpp:156] Memory required for data: 226395168
I0403 15:54:47.780671 11763 layer_factory.hpp:77] Creating layer conv2/relu_3x3_reduce
I0403 15:54:47.780690 11763 net.cpp:91] Creating Layer conv2/relu_3x3_reduce
I0403 15:54:47.780707 11763 net.cpp:425] conv2/relu_3x3_reduce <- conv2/3x3_reduce
I0403 15:54:47.780727 11763 net.cpp:386] conv2/relu_3x3_reduce -> conv2/3x3_reduce (in-place)
I0403 15:54:47.781025 11763 net.cpp:141] Setting up conv2/relu_3x3_reduce
I0403 15:54:47.781056 11763 net.cpp:148] Top shape: 24 64 56 56 (4816896)
I0403 15:54:47.781074 11763 net.cpp:156] Memory required for data: 245662752
I0403 15:54:47.781090 11763 layer_factory.hpp:77] Creating layer conv2/3x3
I0403 15:54:47.781114 11763 net.cpp:91] Creating Layer conv2/3x3
I0403 15:54:47.781133 11763 net.cpp:425] conv2/3x3 <- conv2/3x3_reduce
I0403 15:54:47.781157 11763 net.cpp:399] conv2/3x3 -> conv2/3x3
I0403 15:54:47.783555 11763 net.cpp:141] Setting up conv2/3x3
I0403 15:54:47.783587 11763 net.cpp:148] Top shape: 24 192 56 56 (14450688)
I0403 15:54:47.783604 11763 net.cpp:156] Memory required for data: 303465504
I0403 15:54:47.783627 11763 layer_factory.hpp:77] Creating layer conv2/relu_3x3
I0403 15:54:47.783648 11763 net.cpp:91] Creating Layer conv2/relu_3x3
I0403 15:54:47.783663 11763 net.cpp:425] conv2/relu_3x3 <- conv2/3x3
I0403 15:54:47.783684 11763 net.cpp:386] conv2/relu_3x3 -> conv2/3x3 (in-place)
I0403 15:54:47.783869 11763 net.cpp:141] Setting up conv2/relu_3x3
I0403 15:54:47.783895 11763 net.cpp:148] Top shape: 24 192 56 56 (14450688)
I0403 15:54:47.783939 11763 net.cpp:156] Memory required for data: 361268256
I0403 15:54:47.783960 11763 layer_factory.hpp:77] Creating layer conv2/norm2
I0403 15:54:47.783982 11763 net.cpp:91] Creating Layer conv2/norm2
I0403 15:54:47.784000 11763 net.cpp:425] conv2/norm2 <- conv2/3x3
I0403 15:54:47.784020 11763 net.cpp:399] conv2/norm2 -> conv2/norm2
I0403 15:54:47.784339 11763 net.cpp:141] Setting up conv2/norm2
I0403 15:54:47.784373 11763 net.cpp:148] Top shape: 24 192 56 56 (14450688)
I0403 15:54:47.784389 11763 net.cpp:156] Memory required for data: 419071008
I0403 15:54:47.784405 11763 layer_factory.hpp:77] Creating layer pool2/3x3_s2
I0403 15:54:47.784423 11763 net.cpp:91] Creating Layer pool2/3x3_s2
I0403 15:54:47.784440 11763 net.cpp:425] pool2/3x3_s2 <- conv2/norm2
I0403 15:54:47.784459 11763 net.cpp:399] pool2/3x3_s2 -> pool2/3x3_s2
I0403 15:54:47.784513 11763 net.cpp:141] Setting up pool2/3x3_s2
I0403 15:54:47.784536 11763 net.cpp:148] Top shape: 24 192 28 28 (3612672)
I0403 15:54:47.784553 11763 net.cpp:156] Memory required for data: 433521696
I0403 15:54:47.784567 11763 layer_factory.hpp:77] Creating layer pool2/3x3_s2_pool2/3x3_s2_0_split
I0403 15:54:47.784587 11763 net.cpp:91] Creating Layer pool2/3x3_s2_pool2/3x3_s2_0_split
I0403 15:54:47.784605 11763 net.cpp:425] pool2/3x3_s2_pool2/3x3_s2_0_split <- pool2/3x3_s2
I0403 15:54:47.784622 11763 net.cpp:399] pool2/3x3_s2_pool2/3x3_s2_0_split -> pool2/3x3_s2_pool2/3x3_s2_0_split_0
I0403 15:54:47.784642 11763 net.cpp:399] pool2/3x3_s2_pool2/3x3_s2_0_split -> pool2/3x3_s2_pool2/3x3_s2_0_split_1
I0403 15:54:47.784663 11763 net.cpp:399] pool2/3x3_s2_pool2/3x3_s2_0_split -> pool2/3x3_s2_pool2/3x3_s2_0_split_2
I0403 15:54:47.784682 11763 net.cpp:399] pool2/3x3_s2_pool2/3x3_s2_0_split -> pool2/3x3_s2_pool2/3x3_s2_0_split_3
I0403 15:54:47.784755 11763 net.cpp:141] Setting up pool2/3x3_s2_pool2/3x3_s2_0_split
I0403 15:54:47.784780 11763 net.cpp:148] Top shape: 24 192 28 28 (3612672)
I0403 15:54:47.784795 11763 net.cpp:148] Top shape: 24 192 28 28 (3612672)
I0403 15:54:47.784812 11763 net.cpp:148] Top shape: 24 192 28 28 (3612672)
I0403 15:54:47.784828 11763 net.cpp:148] Top shape: 24 192 28 28 (3612672)
I0403 15:54:47.784842 11763 net.cpp:156] Memory required for data: 491324448
I0403 15:54:47.784857 11763 layer_factory.hpp:77] Creating layer inception_3a/1x1
I0403 15:54:47.784880 11763 net.cpp:91] Creating Layer inception_3a/1x1
I0403 15:54:47.784898 11763 net.cpp:425] inception_3a/1x1 <- pool2/3x3_s2_pool2/3x3_s2_0_split_0
I0403 15:54:47.784919 11763 net.cpp:399] inception_3a/1x1 -> inception_3a/1x1
I0403 15:54:47.786533 11763 net.cpp:141] Setting up inception_3a/1x1
I0403 15:54:47.786564 11763 net.cpp:148] Top shape: 24 64 28 28 (1204224)
I0403 15:54:47.786581 11763 net.cpp:156] Memory required for data: 496141344
I0403 15:54:47.786600 11763 layer_factory.hpp:77] Creating layer inception_3a/relu_1x1
I0403 15:54:47.786620 11763 net.cpp:91] Creating Layer inception_3a/relu_1x1
I0403 15:54:47.786636 11763 net.cpp:425] inception_3a/relu_1x1 <- inception_3a/1x1
I0403 15:54:47.786669 11763 net.cpp:386] inception_3a/relu_1x1 -> inception_3a/1x1 (in-place)
I0403 15:54:47.786845 11763 net.cpp:141] Setting up inception_3a/relu_1x1
I0403 15:54:47.786870 11763 net.cpp:148] Top shape: 24 64 28 28 (1204224)
I0403 15:54:47.786883 11763 net.cpp:156] Memory required for data: 500958240
I0403 15:54:47.786900 11763 layer_factory.hpp:77] Creating layer inception_3a/3x3_reduce
I0403 15:54:47.786921 11763 net.cpp:91] Creating Layer inception_3a/3x3_reduce
I0403 15:54:47.786938 11763 net.cpp:425] inception_3a/3x3_reduce <- pool2/3x3_s2_pool2/3x3_s2_0_split_1
I0403 15:54:47.786964 11763 net.cpp:399] inception_3a/3x3_reduce -> inception_3a/3x3_reduce
I0403 15:54:47.788656 11763 net.cpp:141] Setting up inception_3a/3x3_reduce
I0403 15:54:47.788687 11763 net.cpp:148] Top shape: 24 96 28 28 (1806336)
I0403 15:54:47.788703 11763 net.cpp:156] Memory required for data: 508183584
I0403 15:54:47.788725 11763 layer_factory.hpp:77] Creating layer inception_3a/relu_3x3_reduce
I0403 15:54:47.788763 11763 net.cpp:91] Creating Layer inception_3a/relu_3x3_reduce
I0403 15:54:47.788780 11763 net.cpp:425] inception_3a/relu_3x3_reduce <- inception_3a/3x3_reduce
I0403 15:54:47.788799 11763 net.cpp:386] inception_3a/relu_3x3_reduce -> inception_3a/3x3_reduce (in-place)
I0403 15:54:47.788995 11763 net.cpp:141] Setting up inception_3a/relu_3x3_reduce
I0403 15:54:47.789022 11763 net.cpp:148] Top shape: 24 96 28 28 (1806336)
I0403 15:54:47.789038 11763 net.cpp:156] Memory required for data: 515408928
I0403 15:54:47.789052 11763 layer_factory.hpp:77] Creating layer inception_3a/3x3
I0403 15:54:47.789075 11763 net.cpp:91] Creating Layer inception_3a/3x3
I0403 15:54:47.789093 11763 net.cpp:425] inception_3a/3x3 <- inception_3a/3x3_reduce
I0403 15:54:47.789110 11763 net.cpp:399] inception_3a/3x3 -> inception_3a/3x3
I0403 15:54:47.790791 11763 net.cpp:141] Setting up inception_3a/3x3
I0403 15:54:47.790819 11763 net.cpp:148] Top shape: 24 128 28 28 (2408448)
I0403 15:54:47.790834 11763 net.cpp:156] Memory required for data: 525042720
I0403 15:54:47.790854 11763 layer_factory.hpp:77] Creating layer inception_3a/relu_3x3
I0403 15:54:47.790873 11763 net.cpp:91] Creating Layer inception_3a/relu_3x3
I0403 15:54:47.790889 11763 net.cpp:425] inception_3a/relu_3x3 <- inception_3a/3x3
I0403 15:54:47.790910 11763 net.cpp:386] inception_3a/relu_3x3 -> inception_3a/3x3 (in-place)
I0403 15:54:47.791196 11763 net.cpp:141] Setting up inception_3a/relu_3x3
I0403 15:54:47.791224 11763 net.cpp:148] Top shape: 24 128 28 28 (2408448)
I0403 15:54:47.791239 11763 net.cpp:156] Memory required for data: 534676512
I0403 15:54:47.791255 11763 layer_factory.hpp:77] Creating layer inception_3a/5x5_reduce
I0403 15:54:47.791278 11763 net.cpp:91] Creating Layer inception_3a/5x5_reduce
I0403 15:54:47.791296 11763 net.cpp:425] inception_3a/5x5_reduce <- pool2/3x3_s2_pool2/3x3_s2_0_split_2
I0403 15:54:47.791318 11763 net.cpp:399] inception_3a/5x5_reduce -> inception_3a/5x5_reduce
I0403 15:54:47.792306 11763 net.cpp:141] Setting up inception_3a/5x5_reduce
I0403 15:54:47.792335 11763 net.cpp:148] Top shape: 24 16 28 28 (301056)
I0403 15:54:47.792351 11763 net.cpp:156] Memory required for data: 535880736
I0403 15:54:47.792371 11763 layer_factory.hpp:77] Creating layer inception_3a/relu_5x5_reduce
I0403 15:54:47.792392 11763 net.cpp:91] Creating Layer inception_3a/relu_5x5_reduce
I0403 15:54:47.792408 11763 net.cpp:425] inception_3a/relu_5x5_reduce <- inception_3a/5x5_reduce
I0403 15:54:47.792426 11763 net.cpp:386] inception_3a/relu_5x5_reduce -> inception_3a/5x5_reduce (in-place)
I0403 15:54:47.792731 11763 net.cpp:141] Setting up inception_3a/relu_5x5_reduce
I0403 15:54:47.792757 11763 net.cpp:148] Top shape: 24 16 28 28 (301056)
I0403 15:54:47.792773 11763 net.cpp:156] Memory required for data: 537084960
I0403 15:54:47.792788 11763 layer_factory.hpp:77] Creating layer inception_3a/5x5
I0403 15:54:47.792812 11763 net.cpp:91] Creating Layer inception_3a/5x5
I0403 15:54:47.792830 11763 net.cpp:425] inception_3a/5x5 <- inception_3a/5x5_reduce
I0403 15:54:47.792851 11763 net.cpp:399] inception_3a/5x5 -> inception_3a/5x5
I0403 15:54:47.793932 11763 net.cpp:141] Setting up inception_3a/5x5
I0403 15:54:47.793965 11763 net.cpp:148] Top shape: 24 32 28 28 (602112)
I0403 15:54:47.793982 11763 net.cpp:156] Memory required for data: 539493408
I0403 15:54:47.794001 11763 layer_factory.hpp:77] Creating layer inception_3a/relu_5x5
I0403 15:54:47.794020 11763 net.cpp:91] Creating Layer inception_3a/relu_5x5
I0403 15:54:47.794037 11763 net.cpp:425] inception_3a/relu_5x5 <- inception_3a/5x5
I0403 15:54:47.794057 11763 net.cpp:386] inception_3a/relu_5x5 -> inception_3a/5x5 (in-place)
I0403 15:54:47.794239 11763 net.cpp:141] Setting up inception_3a/relu_5x5
I0403 15:54:47.794265 11763 net.cpp:148] Top shape: 24 32 28 28 (602112)
I0403 15:54:47.794280 11763 net.cpp:156] Memory required for data: 541901856
I0403 15:54:47.794294 11763 layer_factory.hpp:77] Creating layer inception_3a/pool
I0403 15:54:47.794314 11763 net.cpp:91] Creating Layer inception_3a/pool
I0403 15:54:47.794344 11763 net.cpp:425] inception_3a/pool <- pool2/3x3_s2_pool2/3x3_s2_0_split_3
I0403 15:54:47.794364 11763 net.cpp:399] inception_3a/pool -> inception_3a/pool
I0403 15:54:47.794425 11763 net.cpp:141] Setting up inception_3a/pool
I0403 15:54:47.794450 11763 net.cpp:148] Top shape: 24 192 28 28 (3612672)
I0403 15:54:47.794464 11763 net.cpp:156] Memory required for data: 556352544
I0403 15:54:47.794479 11763 layer_factory.hpp:77] Creating layer inception_3a/pool_proj
I0403 15:54:47.794502 11763 net.cpp:91] Creating Layer inception_3a/pool_proj
I0403 15:54:47.794519 11763 net.cpp:425] inception_3a/pool_proj <- inception_3a/pool
I0403 15:54:47.794541 11763 net.cpp:399] inception_3a/pool_proj -> inception_3a/pool_proj
I0403 15:54:47.795539 11763 net.cpp:141] Setting up inception_3a/pool_proj
I0403 15:54:47.795570 11763 net.cpp:148] Top shape: 24 32 28 28 (602112)
I0403 15:54:47.795588 11763 net.cpp:156] Memory required for data: 558760992
I0403 15:54:47.795609 11763 layer_factory.hpp:77] Creating layer inception_3a/relu_pool_proj
I0403 15:54:47.795631 11763 net.cpp:91] Creating Layer inception_3a/relu_pool_proj
I0403 15:54:47.795650 11763 net.cpp:425] inception_3a/relu_pool_proj <- inception_3a/pool_proj
I0403 15:54:47.795667 11763 net.cpp:386] inception_3a/relu_pool_proj -> inception_3a/pool_proj (in-place)
I0403 15:54:47.795951 11763 net.cpp:141] Setting up inception_3a/relu_pool_proj
I0403 15:54:47.795979 11763 net.cpp:148] Top shape: 24 32 28 28 (602112)
I0403 15:54:47.795994 11763 net.cpp:156] Memory required for data: 561169440
I0403 15:54:47.796010 11763 layer_factory.hpp:77] Creating layer inception_3a/output
I0403 15:54:47.796028 11763 net.cpp:91] Creating Layer inception_3a/output
I0403 15:54:47.796044 11763 net.cpp:425] inception_3a/output <- inception_3a/1x1
I0403 15:54:47.796061 11763 net.cpp:425] inception_3a/output <- inception_3a/3x3
I0403 15:54:47.796077 11763 net.cpp:425] inception_3a/output <- inception_3a/5x5
I0403 15:54:47.796093 11763 net.cpp:425] inception_3a/output <- inception_3a/pool_proj
I0403 15:54:47.796113 11763 net.cpp:399] inception_3a/output -> inception_3a/output
I0403 15:54:47.796160 11763 net.cpp:141] Setting up inception_3a/output
I0403 15:54:47.796187 11763 net.cpp:148] Top shape: 24 256 28 28 (4816896)
I0403 15:54:47.796206 11763 net.cpp:156] Memory required for data: 580437024
I0403 15:54:47.796221 11763 layer_factory.hpp:77] Creating layer inception_3a/output_inception_3a/output_0_split
I0403 15:54:47.796239 11763 net.cpp:91] Creating Layer inception_3a/output_inception_3a/output_0_split
I0403 15:54:47.796255 11763 net.cpp:425] inception_3a/output_inception_3a/output_0_split <- inception_3a/output
I0403 15:54:47.796273 11763 net.cpp:399] inception_3a/output_inception_3a/output_0_split -> inception_3a/output_inception_3a/output_0_split_0
I0403 15:54:47.796295 11763 net.cpp:399] inception_3a/output_inception_3a/output_0_split -> inception_3a/output_inception_3a/output_0_split_1
I0403 15:54:47.796319 11763 net.cpp:399] inception_3a/output_inception_3a/output_0_split -> inception_3a/output_inception_3a/output_0_split_2
I0403 15:54:47.796341 11763 net.cpp:399] inception_3a/output_inception_3a/output_0_split -> inception_3a/output_inception_3a/output_0_split_3
I0403 15:54:47.796419 11763 net.cpp:141] Setting up inception_3a/output_inception_3a/output_0_split
I0403 15:54:47.796445 11763 net.cpp:148] Top shape: 24 256 28 28 (4816896)
I0403 15:54:47.796463 11763 net.cpp:148] Top shape: 24 256 28 28 (4816896)
I0403 15:54:47.796479 11763 net.cpp:148] Top shape: 24 256 28 28 (4816896)
I0403 15:54:47.796496 11763 net.cpp:148] Top shape: 24 256 28 28 (4816896)
I0403 15:54:47.796510 11763 net.cpp:156] Memory required for data: 657507360
I0403 15:54:47.796525 11763 layer_factory.hpp:77] Creating layer inception_3b/1x1
I0403 15:54:47.796548 11763 net.cpp:91] Creating Layer inception_3b/1x1
I0403 15:54:47.796566 11763 net.cpp:425] inception_3b/1x1 <- inception_3a/output_inception_3a/output_0_split_0
I0403 15:54:47.796584 11763 net.cpp:399] inception_3b/1x1 -> inception_3b/1x1
I0403 15:54:47.797767 11763 net.cpp:141] Setting up inception_3b/1x1
I0403 15:54:47.797811 11763 net.cpp:148] Top shape: 24 128 28 28 (2408448)
I0403 15:54:47.797828 11763 net.cpp:156] Memory required for data: 667141152
I0403 15:54:47.797848 11763 layer_factory.hpp:77] Creating layer inception_3b/relu_1x1
I0403 15:54:47.797868 11763 net.cpp:91] Creating Layer inception_3b/relu_1x1
I0403 15:54:47.797884 11763 net.cpp:425] inception_3b/relu_1x1 <- inception_3b/1x1
I0403 15:54:47.797905 11763 net.cpp:386] inception_3b/relu_1x1 -> inception_3b/1x1 (in-place)
I0403 15:54:47.798095 11763 net.cpp:141] Setting up inception_3b/relu_1x1
I0403 15:54:47.798120 11763 net.cpp:148] Top shape: 24 128 28 28 (2408448)
I0403 15:54:47.798135 11763 net.cpp:156] Memory required for data: 676774944
I0403 15:54:47.798151 11763 layer_factory.hpp:77] Creating layer inception_3b/3x3_reduce
I0403 15:54:47.798173 11763 net.cpp:91] Creating Layer inception_3b/3x3_reduce
I0403 15:54:47.798192 11763 net.cpp:425] inception_3b/3x3_reduce <- inception_3a/output_inception_3a/output_0_split_1
I0403 15:54:47.798215 11763 net.cpp:399] inception_3b/3x3_reduce -> inception_3b/3x3_reduce
I0403 15:54:47.799402 11763 net.cpp:141] Setting up inception_3b/3x3_reduce
I0403 15:54:47.799433 11763 net.cpp:148] Top shape: 24 128 28 28 (2408448)
I0403 15:54:47.799450 11763 net.cpp:156] Memory required for data: 686408736
I0403 15:54:47.799469 11763 layer_factory.hpp:77] Creating layer inception_3b/relu_3x3_reduce
I0403 15:54:47.799489 11763 net.cpp:91] Creating Layer inception_3b/relu_3x3_reduce
I0403 15:54:47.799504 11763 net.cpp:425] inception_3b/relu_3x3_reduce <- inception_3b/3x3_reduce
I0403 15:54:47.799522 11763 net.cpp:386] inception_3b/relu_3x3_reduce -> inception_3b/3x3_reduce (in-place)
I0403 15:54:47.799703 11763 net.cpp:141] Setting up inception_3b/relu_3x3_reduce
I0403 15:54:47.799728 11763 net.cpp:148] Top shape: 24 128 28 28 (2408448)
I0403 15:54:47.799743 11763 net.cpp:156] Memory required for data: 696042528
I0403 15:54:47.799758 11763 layer_factory.hpp:77] Creating layer inception_3b/3x3
I0403 15:54:47.799785 11763 net.cpp:91] Creating Layer inception_3b/3x3
I0403 15:54:47.799803 11763 net.cpp:425] inception_3b/3x3 <- inception_3b/3x3_reduce
I0403 15:54:47.799823 11763 net.cpp:399] inception_3b/3x3 -> inception_3b/3x3
I0403 15:54:47.802886 11763 net.cpp:141] Setting up inception_3b/3x3
I0403 15:54:47.802917 11763 net.cpp:148] Top shape: 24 192 28 28 (3612672)
I0403 15:54:47.802932 11763 net.cpp:156] Memory required for data: 710493216
I0403 15:54:47.802956 11763 layer_factory.hpp:77] Creating layer inception_3b/relu_3x3
I0403 15:54:47.802976 11763 net.cpp:91] Creating Layer inception_3b/relu_3x3
I0403 15:54:47.802992 11763 net.cpp:425] inception_3b/relu_3x3 <- inception_3b/3x3
I0403 15:54:47.803012 11763 net.cpp:386] inception_3b/relu_3x3 -> inception_3b/3x3 (in-place)
I0403 15:54:47.803294 11763 net.cpp:141] Setting up inception_3b/relu_3x3
I0403 15:54:47.803321 11763 net.cpp:148] Top shape: 24 192 28 28 (3612672)
I0403 15:54:47.803338 11763 net.cpp:156] Memory required for data: 724943904
I0403 15:54:47.803354 11763 layer_factory.hpp:77] Creating layer inception_3b/5x5_reduce
I0403 15:54:47.803376 11763 net.cpp:91] Creating Layer inception_3b/5x5_reduce
I0403 15:54:47.803393 11763 net.cpp:425] inception_3b/5x5_reduce <- inception_3a/output_inception_3a/output_0_split_2
I0403 15:54:47.803417 11763 net.cpp:399] inception_3b/5x5_reduce -> inception_3b/5x5_reduce
I0403 15:54:47.804438 11763 net.cpp:141] Setting up inception_3b/5x5_reduce
I0403 15:54:47.804467 11763 net.cpp:148] Top shape: 24 32 28 28 (602112)
I0403 15:54:47.804483 11763 net.cpp:156] Memory required for data: 727352352
I0403 15:54:47.804502 11763 layer_factory.hpp:77] Creating layer inception_3b/relu_5x5_reduce
I0403 15:54:47.804520 11763 net.cpp:91] Creating Layer inception_3b/relu_5x5_reduce
I0403 15:54:47.804538 11763 net.cpp:425] inception_3b/relu_5x5_reduce <- inception_3b/5x5_reduce
I0403 15:54:47.804558 11763 net.cpp:386] inception_3b/relu_5x5_reduce -> inception_3b/5x5_reduce (in-place)
I0403 15:54:47.804755 11763 net.cpp:141] Setting up inception_3b/relu_5x5_reduce
I0403 15:54:47.804780 11763 net.cpp:148] Top shape: 24 32 28 28 (602112)
I0403 15:54:47.804796 11763 net.cpp:156] Memory required for data: 729760800
I0403 15:54:47.804811 11763 layer_factory.hpp:77] Creating layer inception_3b/5x5
I0403 15:54:47.804836 11763 net.cpp:91] Creating Layer inception_3b/5x5
I0403 15:54:47.804853 11763 net.cpp:425] inception_3b/5x5 <- inception_3b/5x5_reduce
I0403 15:54:47.804875 11763 net.cpp:399] inception_3b/5x5 -> inception_3b/5x5
I0403 15:54:47.806941 11763 net.cpp:141] Setting up inception_3b/5x5
I0403 15:54:47.806977 11763 net.cpp:148] Top shape: 24 96 28 28 (1806336)
I0403 15:54:47.806995 11763 net.cpp:156] Memory required for data: 736986144
I0403 15:54:47.807014 11763 layer_factory.hpp:77] Creating layer inception_3b/relu_5x5
I0403 15:54:47.807034 11763 net.cpp:91] Creating Layer inception_3b/relu_5x5
I0403 15:54:47.807050 11763 net.cpp:425] inception_3b/relu_5x5 <- inception_3b/5x5
I0403 15:54:47.807068 11763 net.cpp:386] inception_3b/relu_5x5 -> inception_3b/5x5 (in-place)
I0403 15:54:47.807281 11763 net.cpp:141] Setting up inception_3b/relu_5x5
I0403 15:54:47.807307 11763 net.cpp:148] Top shape: 24 96 28 28 (1806336)
I0403 15:54:47.807323 11763 net.cpp:156] Memory required for data: 744211488
I0403 15:54:47.807339 11763 layer_factory.hpp:77] Creating layer inception_3b/pool
I0403 15:54:47.807358 11763 net.cpp:91] Creating Layer inception_3b/pool
I0403 15:54:47.807375 11763 net.cpp:425] inception_3b/pool <- inception_3a/output_inception_3a/output_0_split_3
I0403 15:54:47.807395 11763 net.cpp:399] inception_3b/pool -> inception_3b/pool
I0403 15:54:47.807454 11763 net.cpp:141] Setting up inception_3b/pool
I0403 15:54:47.807492 11763 net.cpp:148] Top shape: 24 256 28 28 (4816896)
I0403 15:54:47.807518 11763 net.cpp:156] Memory required for data: 763479072
I0403 15:54:47.807550 11763 layer_factory.hpp:77] Creating layer inception_3b/pool_proj
I0403 15:54:47.807593 11763 net.cpp:91] Creating Layer inception_3b/pool_proj
I0403 15:54:47.807621 11763 net.cpp:425] inception_3b/pool_proj <- inception_3b/pool
I0403 15:54:47.807651 11763 net.cpp:399] inception_3b/pool_proj -> inception_3b/pool_proj
I0403 15:54:47.808809 11763 net.cpp:141] Setting up inception_3b/pool_proj
I0403 15:54:47.808838 11763 net.cpp:148] Top shape: 24 64 28 28 (1204224)
I0403 15:54:47.808856 11763 net.cpp:156] Memory required for data: 768295968
I0403 15:54:47.808877 11763 layer_factory.hpp:77] Creating layer inception_3b/relu_pool_proj
I0403 15:54:47.808908 11763 net.cpp:91] Creating Layer inception_3b/relu_pool_proj
I0403 15:54:47.808928 11763 net.cpp:425] inception_3b/relu_pool_proj <- inception_3b/pool_proj
I0403 15:54:47.808945 11763 net.cpp:386] inception_3b/relu_pool_proj -> inception_3b/pool_proj (in-place)
I0403 15:54:47.809381 11763 net.cpp:141] Setting up inception_3b/relu_pool_proj
I0403 15:54:47.809407 11763 net.cpp:148] Top shape: 24 64 28 28 (1204224)
I0403 15:54:47.809427 11763 net.cpp:156] Memory required for data: 773112864
I0403 15:54:47.809451 11763 layer_factory.hpp:77] Creating layer inception_3b/output
I0403 15:54:47.809479 11763 net.cpp:91] Creating Layer inception_3b/output
I0403 15:54:47.809497 11763 net.cpp:425] inception_3b/output <- inception_3b/1x1
I0403 15:54:47.809515 11763 net.cpp:425] inception_3b/output <- inception_3b/3x3
I0403 15:54:47.809532 11763 net.cpp:425] inception_3b/output <- inception_3b/5x5
I0403 15:54:47.809550 11763 net.cpp:425] inception_3b/output <- inception_3b/pool_proj
I0403 15:54:47.809571 11763 net.cpp:399] inception_3b/output -> inception_3b/output
I0403 15:54:47.809619 11763 net.cpp:141] Setting up inception_3b/output
I0403 15:54:47.809643 11763 net.cpp:148] Top shape: 24 480 28 28 (9031680)
I0403 15:54:47.809659 11763 net.cpp:156] Memory required for data: 809239584
I0403 15:54:47.809682 11763 layer_factory.hpp:77] Creating layer pool3/3x3_s2
I0403 15:54:47.809701 11763 net.cpp:91] Creating Layer pool3/3x3_s2
I0403 15:54:47.809718 11763 net.cpp:425] pool3/3x3_s2 <- inception_3b/output
I0403 15:54:47.809756 11763 net.cpp:399] pool3/3x3_s2 -> pool3/3x3_s2
I0403 15:54:47.809818 11763 net.cpp:141] Setting up pool3/3x3_s2
I0403 15:54:47.809845 11763 net.cpp:148] Top shape: 24 480 14 14 (2257920)
I0403 15:54:47.809861 11763 net.cpp:156] Memory required for data: 818271264
I0403 15:54:47.809877 11763 layer_factory.hpp:77] Creating layer pool3/3x3_s2_pool3/3x3_s2_0_split
I0403 15:54:47.809898 11763 net.cpp:91] Creating Layer pool3/3x3_s2_pool3/3x3_s2_0_split
I0403 15:54:47.809916 11763 net.cpp:425] pool3/3x3_s2_pool3/3x3_s2_0_split <- pool3/3x3_s2
I0403 15:54:47.809933 11763 net.cpp:399] pool3/3x3_s2_pool3/3x3_s2_0_split -> pool3/3x3_s2_pool3/3x3_s2_0_split_0
I0403 15:54:47.809962 11763 net.cpp:399] pool3/3x3_s2_pool3/3x3_s2_0_split -> pool3/3x3_s2_pool3/3x3_s2_0_split_1
I0403 15:54:47.809984 11763 net.cpp:399] pool3/3x3_s2_pool3/3x3_s2_0_split -> pool3/3x3_s2_pool3/3x3_s2_0_split_2
I0403 15:54:47.810006 11763 net.cpp:399] pool3/3x3_s2_pool3/3x3_s2_0_split -> pool3/3x3_s2_pool3/3x3_s2_0_split_3
I0403 15:54:47.810088 11763 net.cpp:141] Setting up pool3/3x3_s2_pool3/3x3_s2_0_split
I0403 15:54:47.810113 11763 net.cpp:148] Top shape: 24 480 14 14 (2257920)
I0403 15:54:47.810130 11763 net.cpp:148] Top shape: 24 480 14 14 (2257920)
I0403 15:54:47.810148 11763 net.cpp:148] Top shape: 24 480 14 14 (2257920)
I0403 15:54:47.810165 11763 net.cpp:148] Top shape: 24 480 14 14 (2257920)
I0403 15:54:47.810180 11763 net.cpp:156] Memory required for data: 854397984
I0403 15:54:47.810197 11763 layer_factory.hpp:77] Creating layer inception_4a/1x1
I0403 15:54:47.810231 11763 net.cpp:91] Creating Layer inception_4a/1x1
I0403 15:54:47.810248 11763 net.cpp:425] inception_4a/1x1 <- pool3/3x3_s2_pool3/3x3_s2_0_split_0
I0403 15:54:47.810271 11763 net.cpp:399] inception_4a/1x1 -> inception_4a/1x1
I0403 15:54:47.812018 11763 net.cpp:141] Setting up inception_4a/1x1
I0403 15:54:47.812048 11763 net.cpp:148] Top shape: 24 192 14 14 (903168)
I0403 15:54:47.812065 11763 net.cpp:156] Memory required for data: 858010656
I0403 15:54:47.812085 11763 layer_factory.hpp:77] Creating layer inception_4a/relu_1x1
I0403 15:54:47.812108 11763 net.cpp:91] Creating Layer inception_4a/relu_1x1
I0403 15:54:47.812125 11763 net.cpp:425] inception_4a/relu_1x1 <- inception_4a/1x1
I0403 15:54:47.812144 11763 net.cpp:386] inception_4a/relu_1x1 -> inception_4a/1x1 (in-place)
I0403 15:54:47.812331 11763 net.cpp:141] Setting up inception_4a/relu_1x1
I0403 15:54:47.812360 11763 net.cpp:148] Top shape: 24 192 14 14 (903168)
I0403 15:54:47.812377 11763 net.cpp:156] Memory required for data: 861623328
I0403 15:54:47.812392 11763 layer_factory.hpp:77] Creating layer inception_4a/3x3_reduce
I0403 15:54:47.812417 11763 net.cpp:91] Creating Layer inception_4a/3x3_reduce
I0403 15:54:47.812435 11763 net.cpp:425] inception_4a/3x3_reduce <- pool3/3x3_s2_pool3/3x3_s2_0_split_1
I0403 15:54:47.812455 11763 net.cpp:399] inception_4a/3x3_reduce -> inception_4a/3x3_reduce
I0403 15:54:47.813827 11763 net.cpp:141] Setting up inception_4a/3x3_reduce
I0403 15:54:47.814000 11763 net.cpp:148] Top shape: 24 96 14 14 (451584)
I0403 15:54:47.814040 11763 net.cpp:156] Memory required for data: 863429664
I0403 15:54:47.814069 11763 layer_factory.hpp:77] Creating layer inception_4a/relu_3x3_reduce
I0403 15:54:47.814093 11763 net.cpp:91] Creating Layer inception_4a/relu_3x3_reduce
I0403 15:54:47.814113 11763 net.cpp:425] inception_4a/relu_3x3_reduce <- inception_4a/3x3_reduce
I0403 15:54:47.814132 11763 net.cpp:386] inception_4a/relu_3x3_reduce -> inception_4a/3x3_reduce (in-place)
I0403 15:54:47.814319 11763 net.cpp:141] Setting up inception_4a/relu_3x3_reduce
I0403 15:54:47.814347 11763 net.cpp:148] Top shape: 24 96 14 14 (451584)
I0403 15:54:47.814380 11763 net.cpp:156] Memory required for data: 865236000
I0403 15:54:47.814396 11763 layer_factory.hpp:77] Creating layer inception_4a/3x3
I0403 15:54:47.814420 11763 net.cpp:91] Creating Layer inception_4a/3x3
I0403 15:54:47.814438 11763 net.cpp:425] inception_4a/3x3 <- inception_4a/3x3_reduce
I0403 15:54:47.814460 11763 net.cpp:399] inception_4a/3x3 -> inception_4a/3x3
I0403 15:54:47.817343 11763 net.cpp:141] Setting up inception_4a/3x3
I0403 15:54:47.817376 11763 net.cpp:148] Top shape: 24 208 14 14 (978432)
I0403 15:54:47.817396 11763 net.cpp:156] Memory required for data: 869149728
I0403 15:54:47.817417 11763 layer_factory.hpp:77] Creating layer inception_4a/relu_3x3
I0403 15:54:47.817436 11763 net.cpp:91] Creating Layer inception_4a/relu_3x3
I0403 15:54:47.817454 11763 net.cpp:425] inception_4a/relu_3x3 <- inception_4a/3x3
I0403 15:54:47.817474 11763 net.cpp:386] inception_4a/relu_3x3 -> inception_4a/3x3 (in-place)
I0403 15:54:47.817781 11763 net.cpp:141] Setting up inception_4a/relu_3x3
I0403 15:54:47.817812 11763 net.cpp:148] Top shape: 24 208 14 14 (978432)
I0403 15:54:47.817839 11763 net.cpp:156] Memory required for data: 873063456
I0403 15:54:47.817855 11763 layer_factory.hpp:77] Creating layer inception_4a/5x5_reduce
I0403 15:54:47.817878 11763 net.cpp:91] Creating Layer inception_4a/5x5_reduce
I0403 15:54:47.817898 11763 net.cpp:425] inception_4a/5x5_reduce <- pool3/3x3_s2_pool3/3x3_s2_0_split_2
I0403 15:54:47.817919 11763 net.cpp:399] inception_4a/5x5_reduce -> inception_4a/5x5_reduce
I0403 15:54:47.819023 11763 net.cpp:141] Setting up inception_4a/5x5_reduce
I0403 15:54:47.819053 11763 net.cpp:148] Top shape: 24 16 14 14 (75264)
I0403 15:54:47.819069 11763 net.cpp:156] Memory required for data: 873364512
I0403 15:54:47.819088 11763 layer_factory.hpp:77] Creating layer inception_4a/relu_5x5_reduce
I0403 15:54:47.819108 11763 net.cpp:91] Creating Layer inception_4a/relu_5x5_reduce
I0403 15:54:47.819126 11763 net.cpp:425] inception_4a/relu_5x5_reduce <- inception_4a/5x5_reduce
I0403 15:54:47.819149 11763 net.cpp:386] inception_4a/relu_5x5_reduce -> inception_4a/5x5_reduce (in-place)
I0403 15:54:47.819339 11763 net.cpp:141] Setting up inception_4a/relu_5x5_reduce
I0403 15:54:47.819365 11763 net.cpp:148] Top shape: 24 16 14 14 (75264)
I0403 15:54:47.819381 11763 net.cpp:156] Memory required for data: 873665568
I0403 15:54:47.819396 11763 layer_factory.hpp:77] Creating layer inception_4a/5x5
I0403 15:54:47.819421 11763 net.cpp:91] Creating Layer inception_4a/5x5
I0403 15:54:47.819438 11763 net.cpp:425] inception_4a/5x5 <- inception_4a/5x5_reduce
I0403 15:54:47.819461 11763 net.cpp:399] inception_4a/5x5 -> inception_4a/5x5
I0403 15:54:47.820612 11763 net.cpp:141] Setting up inception_4a/5x5
I0403 15:54:47.820641 11763 net.cpp:148] Top shape: 24 48 14 14 (225792)
I0403 15:54:47.820658 11763 net.cpp:156] Memory required for data: 874568736
I0403 15:54:47.820677 11763 layer_factory.hpp:77] Creating layer inception_4a/relu_5x5
I0403 15:54:47.820699 11763 net.cpp:91] Creating Layer inception_4a/relu_5x5
I0403 15:54:47.820719 11763 net.cpp:425] inception_4a/relu_5x5 <- inception_4a/5x5
I0403 15:54:47.820736 11763 net.cpp:386] inception_4a/relu_5x5 -> inception_4a/5x5 (in-place)
I0403 15:54:47.820925 11763 net.cpp:141] Setting up inception_4a/relu_5x5
I0403 15:54:47.820962 11763 net.cpp:148] Top shape: 24 48 14 14 (225792)
I0403 15:54:47.820981 11763 net.cpp:156] Memory required for data: 875471904
I0403 15:54:47.820996 11763 layer_factory.hpp:77] Creating layer inception_4a/pool
I0403 15:54:47.821015 11763 net.cpp:91] Creating Layer inception_4a/pool
I0403 15:54:47.821033 11763 net.cpp:425] inception_4a/pool <- pool3/3x3_s2_pool3/3x3_s2_0_split_3
I0403 15:54:47.821053 11763 net.cpp:399] inception_4a/pool -> inception_4a/pool
I0403 15:54:47.821120 11763 net.cpp:141] Setting up inception_4a/pool
I0403 15:54:47.821144 11763 net.cpp:148] Top shape: 24 480 14 14 (2257920)
I0403 15:54:47.821159 11763 net.cpp:156] Memory required for data: 884503584
I0403 15:54:47.821176 11763 layer_factory.hpp:77] Creating layer inception_4a/pool_proj
I0403 15:54:47.821198 11763 net.cpp:91] Creating Layer inception_4a/pool_proj
I0403 15:54:47.821218 11763 net.cpp:425] inception_4a/pool_proj <- inception_4a/pool
I0403 15:54:47.821238 11763 net.cpp:399] inception_4a/pool_proj -> inception_4a/pool_proj
I0403 15:54:47.822489 11763 net.cpp:141] Setting up inception_4a/pool_proj
I0403 15:54:47.822518 11763 net.cpp:148] Top shape: 24 64 14 14 (301056)
I0403 15:54:47.822549 11763 net.cpp:156] Memory required for data: 885707808
I0403 15:54:47.822571 11763 layer_factory.hpp:77] Creating layer inception_4a/relu_pool_proj
I0403 15:54:47.822593 11763 net.cpp:91] Creating Layer inception_4a/relu_pool_proj
I0403 15:54:47.822612 11763 net.cpp:425] inception_4a/relu_pool_proj <- inception_4a/pool_proj
I0403 15:54:47.822630 11763 net.cpp:386] inception_4a/relu_pool_proj -> inception_4a/pool_proj (in-place)
I0403 15:54:47.822932 11763 net.cpp:141] Setting up inception_4a/relu_pool_proj
I0403 15:54:47.822964 11763 net.cpp:148] Top shape: 24 64 14 14 (301056)
I0403 15:54:47.822983 11763 net.cpp:156] Memory required for data: 886912032
I0403 15:54:47.822998 11763 layer_factory.hpp:77] Creating layer inception_4a/output
I0403 15:54:47.823019 11763 net.cpp:91] Creating Layer inception_4a/output
I0403 15:54:47.823036 11763 net.cpp:425] inception_4a/output <- inception_4a/1x1
I0403 15:54:47.823055 11763 net.cpp:425] inception_4a/output <- inception_4a/3x3
I0403 15:54:47.823071 11763 net.cpp:425] inception_4a/output <- inception_4a/5x5
I0403 15:54:47.823088 11763 net.cpp:425] inception_4a/output <- inception_4a/pool_proj
I0403 15:54:47.823107 11763 net.cpp:399] inception_4a/output -> inception_4a/output
I0403 15:54:47.823155 11763 net.cpp:141] Setting up inception_4a/output
I0403 15:54:47.823189 11763 net.cpp:148] Top shape: 24 512 14 14 (2408448)
I0403 15:54:47.823206 11763 net.cpp:156] Memory required for data: 896545824
I0403 15:54:47.823222 11763 layer_factory.hpp:77] Creating layer inception_4a/output_inception_4a/output_0_split
I0403 15:54:47.823241 11763 net.cpp:91] Creating Layer inception_4a/output_inception_4a/output_0_split
I0403 15:54:47.823257 11763 net.cpp:425] inception_4a/output_inception_4a/output_0_split <- inception_4a/output
I0403 15:54:47.823279 11763 net.cpp:399] inception_4a/output_inception_4a/output_0_split -> inception_4a/output_inception_4a/output_0_split_0
I0403 15:54:47.823302 11763 net.cpp:399] inception_4a/output_inception_4a/output_0_split -> inception_4a/output_inception_4a/output_0_split_1
I0403 15:54:47.823324 11763 net.cpp:399] inception_4a/output_inception_4a/output_0_split -> inception_4a/output_inception_4a/output_0_split_2
I0403 15:54:47.823345 11763 net.cpp:399] inception_4a/output_inception_4a/output_0_split -> inception_4a/output_inception_4a/output_0_split_3
I0403 15:54:47.823369 11763 net.cpp:399] inception_4a/output_inception_4a/output_0_split -> inception_4a/output_inception_4a/output_0_split_4
I0403 15:54:47.823480 11763 net.cpp:141] Setting up inception_4a/output_inception_4a/output_0_split
I0403 15:54:47.823504 11763 net.cpp:148] Top shape: 24 512 14 14 (2408448)
I0403 15:54:47.823521 11763 net.cpp:148] Top shape: 24 512 14 14 (2408448)
I0403 15:54:47.823539 11763 net.cpp:148] Top shape: 24 512 14 14 (2408448)
I0403 15:54:47.823554 11763 net.cpp:148] Top shape: 24 512 14 14 (2408448)
I0403 15:54:47.823571 11763 net.cpp:148] Top shape: 24 512 14 14 (2408448)
I0403 15:54:47.823586 11763 net.cpp:156] Memory required for data: 944714784
I0403 15:54:47.823602 11763 layer_factory.hpp:77] Creating layer loss1/ave_pool
I0403 15:54:47.823621 11763 net.cpp:91] Creating Layer loss1/ave_pool
I0403 15:54:47.823637 11763 net.cpp:425] loss1/ave_pool <- inception_4a/output_inception_4a/output_0_split_0
I0403 15:54:47.823659 11763 net.cpp:399] loss1/ave_pool -> loss1/ave_pool
I0403 15:54:47.823876 11763 net.cpp:141] Setting up loss1/ave_pool
I0403 15:54:47.823904 11763 net.cpp:148] Top shape: 24 512 4 4 (196608)
I0403 15:54:47.823920 11763 net.cpp:156] Memory required for data: 945501216
I0403 15:54:47.823935 11763 layer_factory.hpp:77] Creating layer loss1/conv
I0403 15:54:47.823966 11763 net.cpp:91] Creating Layer loss1/conv
I0403 15:54:47.823987 11763 net.cpp:425] loss1/conv <- loss1/ave_pool
I0403 15:54:47.824007 11763 net.cpp:399] loss1/conv -> loss1/conv
I0403 15:54:47.825502 11763 net.cpp:141] Setting up loss1/conv
I0403 15:54:47.825534 11763 net.cpp:148] Top shape: 24 128 4 4 (49152)
I0403 15:54:47.825565 11763 net.cpp:156] Memory required for data: 945697824
I0403 15:54:47.825585 11763 layer_factory.hpp:77] Creating layer loss1/relu_conv
I0403 15:54:47.825605 11763 net.cpp:91] Creating Layer loss1/relu_conv
I0403 15:54:47.825623 11763 net.cpp:425] loss1/relu_conv <- loss1/conv
I0403 15:54:47.825644 11763 net.cpp:386] loss1/relu_conv -> loss1/conv (in-place)
I0403 15:54:47.825942 11763 net.cpp:141] Setting up loss1/relu_conv
I0403 15:54:47.825973 11763 net.cpp:148] Top shape: 24 128 4 4 (49152)
I0403 15:54:47.825990 11763 net.cpp:156] Memory required for data: 945894432
I0403 15:54:47.826006 11763 layer_factory.hpp:77] Creating layer loss1/fc
I0403 15:54:47.826031 11763 net.cpp:91] Creating Layer loss1/fc
I0403 15:54:47.826050 11763 net.cpp:425] loss1/fc <- loss1/conv
I0403 15:54:47.826072 11763 net.cpp:399] loss1/fc -> loss1/fc
I0403 15:54:47.844970 11763 net.cpp:141] Setting up loss1/fc
I0403 15:54:47.845012 11763 net.cpp:148] Top shape: 24 1024 (24576)
I0403 15:54:47.845029 11763 net.cpp:156] Memory required for data: 945992736
I0403 15:54:47.845049 11763 layer_factory.hpp:77] Creating layer loss1/relu_fc
I0403 15:54:47.845070 11763 net.cpp:91] Creating Layer loss1/relu_fc
I0403 15:54:47.845088 11763 net.cpp:425] loss1/relu_fc <- loss1/fc
I0403 15:54:47.845106 11763 net.cpp:386] loss1/relu_fc -> loss1/fc (in-place)
I0403 15:54:47.845307 11763 net.cpp:141] Setting up loss1/relu_fc
I0403 15:54:47.845336 11763 net.cpp:148] Top shape: 24 1024 (24576)
I0403 15:54:47.845352 11763 net.cpp:156] Memory required for data: 946091040
I0403 15:54:47.845368 11763 layer_factory.hpp:77] Creating layer loss1/drop_fc
I0403 15:54:47.845396 11763 net.cpp:91] Creating Layer loss1/drop_fc
I0403 15:54:47.845415 11763 net.cpp:425] loss1/drop_fc <- loss1/fc
I0403 15:54:47.845433 11763 net.cpp:386] loss1/drop_fc -> loss1/fc (in-place)
I0403 15:54:47.845491 11763 net.cpp:141] Setting up loss1/drop_fc
I0403 15:54:47.845515 11763 net.cpp:148] Top shape: 24 1024 (24576)
I0403 15:54:47.845531 11763 net.cpp:156] Memory required for data: 946189344
I0403 15:54:47.845547 11763 layer_factory.hpp:77] Creating layer loss1/classifier_plantvillage
I0403 15:54:47.845569 11763 net.cpp:91] Creating Layer loss1/classifier_plantvillage
I0403 15:54:47.845588 11763 net.cpp:425] loss1/classifier_plantvillage <- loss1/fc
I0403 15:54:47.845607 11763 net.cpp:399] loss1/classifier_plantvillage -> loss1/classifier_plantvillage
I0403 15:54:47.846573 11763 net.cpp:141] Setting up loss1/classifier_plantvillage
I0403 15:54:47.846606 11763 net.cpp:148] Top shape: 24 38 (912)
I0403 15:54:47.846622 11763 net.cpp:156] Memory required for data: 946192992
I0403 15:54:47.846642 11763 layer_factory.hpp:77] Creating layer loss1/classifier_plantvillage_loss1/classifier_plantvillage_0_split
I0403 15:54:47.846662 11763 net.cpp:91] Creating Layer loss1/classifier_plantvillage_loss1/classifier_plantvillage_0_split
I0403 15:54:47.846679 11763 net.cpp:425] loss1/classifier_plantvillage_loss1/classifier_plantvillage_0_split <- loss1/classifier_plantvillage
I0403 15:54:47.846698 11763 net.cpp:399] loss1/classifier_plantvillage_loss1/classifier_plantvillage_0_split -> loss1/classifier_plantvillage_loss1/classifier_plantvillage_0_split_0
I0403 15:54:47.846719 11763 net.cpp:399] loss1/classifier_plantvillage_loss1/classifier_plantvillage_0_split -> loss1/classifier_plantvillage_loss1/classifier_plantvillage_0_split_1
I0403 15:54:47.846742 11763 net.cpp:399] loss1/classifier_plantvillage_loss1/classifier_plantvillage_0_split -> loss1/classifier_plantvillage_loss1/classifier_plantvillage_0_split_2
I0403 15:54:47.846814 11763 net.cpp:141] Setting up loss1/classifier_plantvillage_loss1/classifier_plantvillage_0_split
I0403 15:54:47.846838 11763 net.cpp:148] Top shape: 24 38 (912)
I0403 15:54:47.846855 11763 net.cpp:148] Top shape: 24 38 (912)
I0403 15:54:47.846871 11763 net.cpp:148] Top shape: 24 38 (912)
I0403 15:54:47.846885 11763 net.cpp:156] Memory required for data: 946203936
I0403 15:54:47.846900 11763 layer_factory.hpp:77] Creating layer inception_4b/1x1
I0403 15:54:47.846921 11763 net.cpp:91] Creating Layer inception_4b/1x1
I0403 15:54:47.846961 11763 net.cpp:425] inception_4b/1x1 <- inception_4a/output_inception_4a/output_0_split_1
I0403 15:54:47.846987 11763 net.cpp:399] inception_4b/1x1 -> inception_4b/1x1
I0403 15:54:47.848748 11763 net.cpp:141] Setting up inception_4b/1x1
I0403 15:54:47.848778 11763 net.cpp:148] Top shape: 24 160 14 14 (752640)
I0403 15:54:47.848794 11763 net.cpp:156] Memory required for data: 949214496
I0403 15:54:47.848814 11763 layer_factory.hpp:77] Creating layer inception_4b/relu_1x1
I0403 15:54:47.848832 11763 net.cpp:91] Creating Layer inception_4b/relu_1x1
I0403 15:54:47.848850 11763 net.cpp:425] inception_4b/relu_1x1 <- inception_4b/1x1
I0403 15:54:47.848871 11763 net.cpp:386] inception_4b/relu_1x1 -> inception_4b/1x1 (in-place)
I0403 15:54:47.849076 11763 net.cpp:141] Setting up inception_4b/relu_1x1
I0403 15:54:47.849103 11763 net.cpp:148] Top shape: 24 160 14 14 (752640)
I0403 15:54:47.849119 11763 net.cpp:156] Memory required for data: 952225056
I0403 15:54:47.849134 11763 layer_factory.hpp:77] Creating layer inception_4b/3x3_reduce
I0403 15:54:47.849158 11763 net.cpp:91] Creating Layer inception_4b/3x3_reduce
I0403 15:54:47.849176 11763 net.cpp:425] inception_4b/3x3_reduce <- inception_4a/output_inception_4a/output_0_split_2
I0403 15:54:47.849198 11763 net.cpp:399] inception_4b/3x3_reduce -> inception_4b/3x3_reduce
I0403 15:54:47.850652 11763 net.cpp:141] Setting up inception_4b/3x3_reduce
I0403 15:54:47.850682 11763 net.cpp:148] Top shape: 24 112 14 14 (526848)
I0403 15:54:47.850698 11763 net.cpp:156] Memory required for data: 954332448
I0403 15:54:47.850718 11763 layer_factory.hpp:77] Creating layer inception_4b/relu_3x3_reduce
I0403 15:54:47.850740 11763 net.cpp:91] Creating Layer inception_4b/relu_3x3_reduce
I0403 15:54:47.850759 11763 net.cpp:425] inception_4b/relu_3x3_reduce <- inception_4b/3x3_reduce
I0403 15:54:47.850777 11763 net.cpp:386] inception_4b/relu_3x3_reduce -> inception_4b/3x3_reduce (in-place)
I0403 15:54:47.851083 11763 net.cpp:141] Setting up inception_4b/relu_3x3_reduce
I0403 15:54:47.851111 11763 net.cpp:148] Top shape: 24 112 14 14 (526848)
I0403 15:54:47.851127 11763 net.cpp:156] Memory required for data: 956439840
I0403 15:54:47.851143 11763 layer_factory.hpp:77] Creating layer inception_4b/3x3
I0403 15:54:47.851167 11763 net.cpp:91] Creating Layer inception_4b/3x3
I0403 15:54:47.851186 11763 net.cpp:425] inception_4b/3x3 <- inception_4b/3x3_reduce
I0403 15:54:47.851212 11763 net.cpp:399] inception_4b/3x3 -> inception_4b/3x3
I0403 15:54:47.854394 11763 net.cpp:141] Setting up inception_4b/3x3
I0403 15:54:47.854429 11763 net.cpp:148] Top shape: 24 224 14 14 (1053696)
I0403 15:54:47.854446 11763 net.cpp:156] Memory required for data: 960654624
I0403 15:54:47.854466 11763 layer_factory.hpp:77] Creating layer inception_4b/relu_3x3
I0403 15:54:47.854485 11763 net.cpp:91] Creating Layer inception_4b/relu_3x3
I0403 15:54:47.854502 11763 net.cpp:425] inception_4b/relu_3x3 <- inception_4b/3x3
I0403 15:54:47.854522 11763 net.cpp:386] inception_4b/relu_3x3 -> inception_4b/3x3 (in-place)
I0403 15:54:47.854720 11763 net.cpp:141] Setting up inception_4b/relu_3x3
I0403 15:54:47.854749 11763 net.cpp:148] Top shape: 24 224 14 14 (1053696)
I0403 15:54:47.854766 11763 net.cpp:156] Memory required for data: 964869408
I0403 15:54:47.854782 11763 layer_factory.hpp:77] Creating layer inception_4b/5x5_reduce
I0403 15:54:47.854805 11763 net.cpp:91] Creating Layer inception_4b/5x5_reduce
I0403 15:54:47.854825 11763 net.cpp:425] inception_4b/5x5_reduce <- inception_4a/output_inception_4a/output_0_split_3
I0403 15:54:47.854845 11763 net.cpp:399] inception_4b/5x5_reduce -> inception_4b/5x5_reduce
I0403 15:54:47.856016 11763 net.cpp:141] Setting up inception_4b/5x5_reduce
I0403 15:54:47.856045 11763 net.cpp:148] Top shape: 24 24 14 14 (112896)
I0403 15:54:47.856061 11763 net.cpp:156] Memory required for data: 965320992
I0403 15:54:47.856081 11763 layer_factory.hpp:77] Creating layer inception_4b/relu_5x5_reduce
I0403 15:54:47.856099 11763 net.cpp:91] Creating Layer inception_4b/relu_5x5_reduce
I0403 15:54:47.856134 11763 net.cpp:425] inception_4b/relu_5x5_reduce <- inception_4b/5x5_reduce
I0403 15:54:47.856154 11763 net.cpp:386] inception_4b/relu_5x5_reduce -> inception_4b/5x5_reduce (in-place)
I0403 15:54:47.856359 11763 net.cpp:141] Setting up inception_4b/relu_5x5_reduce
I0403 15:54:47.856384 11763 net.cpp:148] Top shape: 24 24 14 14 (112896)
I0403 15:54:47.856400 11763 net.cpp:156] Memory required for data: 965772576
I0403 15:54:47.856415 11763 layer_factory.hpp:77] Creating layer inception_4b/5x5
I0403 15:54:47.856439 11763 net.cpp:91] Creating Layer inception_4b/5x5
I0403 15:54:47.856458 11763 net.cpp:425] inception_4b/5x5 <- inception_4b/5x5_reduce
I0403 15:54:47.856483 11763 net.cpp:399] inception_4b/5x5 -> inception_4b/5x5
I0403 15:54:47.857810 11763 net.cpp:141] Setting up inception_4b/5x5
I0403 15:54:47.857841 11763 net.cpp:148] Top shape: 24 64 14 14 (301056)
I0403 15:54:47.857856 11763 net.cpp:156] Memory required for data: 966976800
I0403 15:54:47.857875 11763 layer_factory.hpp:77] Creating layer inception_4b/relu_5x5
I0403 15:54:47.857894 11763 net.cpp:91] Creating Layer inception_4b/relu_5x5
I0403 15:54:47.857913 11763 net.cpp:425] inception_4b/relu_5x5 <- inception_4b/5x5
I0403 15:54:47.857933 11763 net.cpp:386] inception_4b/relu_5x5 -> inception_4b/5x5 (in-place)
I0403 15:54:47.858256 11763 net.cpp:141] Setting up inception_4b/relu_5x5
I0403 15:54:47.858284 11763 net.cpp:148] Top shape: 24 64 14 14 (301056)
I0403 15:54:47.858300 11763 net.cpp:156] Memory required for data: 968181024
I0403 15:54:47.858315 11763 layer_factory.hpp:77] Creating layer inception_4b/pool
I0403 15:54:47.858335 11763 net.cpp:91] Creating Layer inception_4b/pool
I0403 15:54:47.858353 11763 net.cpp:425] inception_4b/pool <- inception_4a/output_inception_4a/output_0_split_4
I0403 15:54:47.858377 11763 net.cpp:399] inception_4b/pool -> inception_4b/pool
I0403 15:54:47.858446 11763 net.cpp:141] Setting up inception_4b/pool
I0403 15:54:47.858481 11763 net.cpp:148] Top shape: 24 512 14 14 (2408448)
I0403 15:54:47.858496 11763 net.cpp:156] Memory required for data: 977814816
I0403 15:54:47.858512 11763 layer_factory.hpp:77] Creating layer inception_4b/pool_proj
I0403 15:54:47.858537 11763 net.cpp:91] Creating Layer inception_4b/pool_proj
I0403 15:54:47.858556 11763 net.cpp:425] inception_4b/pool_proj <- inception_4b/pool
I0403 15:54:47.858575 11763 net.cpp:399] inception_4b/pool_proj -> inception_4b/pool_proj
I0403 15:54:47.859884 11763 net.cpp:141] Setting up inception_4b/pool_proj
I0403 15:54:47.859913 11763 net.cpp:148] Top shape: 24 64 14 14 (301056)
I0403 15:54:47.859930 11763 net.cpp:156] Memory required for data: 979019040
I0403 15:54:47.859953 11763 layer_factory.hpp:77] Creating layer inception_4b/relu_pool_proj
I0403 15:54:47.859974 11763 net.cpp:91] Creating Layer inception_4b/relu_pool_proj
I0403 15:54:47.859992 11763 net.cpp:425] inception_4b/relu_pool_proj <- inception_4b/pool_proj
I0403 15:54:47.860013 11763 net.cpp:386] inception_4b/relu_pool_proj -> inception_4b/pool_proj (in-place)
I0403 15:54:47.860209 11763 net.cpp:141] Setting up inception_4b/relu_pool_proj
I0403 15:54:47.860235 11763 net.cpp:148] Top shape: 24 64 14 14 (301056)
I0403 15:54:47.860251 11763 net.cpp:156] Memory required for data: 980223264
I0403 15:54:47.860267 11763 layer_factory.hpp:77] Creating layer inception_4b/output
I0403 15:54:47.860287 11763 net.cpp:91] Creating Layer inception_4b/output
I0403 15:54:47.860306 11763 net.cpp:425] inception_4b/output <- inception_4b/1x1
I0403 15:54:47.860322 11763 net.cpp:425] inception_4b/output <- inception_4b/3x3
I0403 15:54:47.860340 11763 net.cpp:425] inception_4b/output <- inception_4b/5x5
I0403 15:54:47.860357 11763 net.cpp:425] inception_4b/output <- inception_4b/pool_proj
I0403 15:54:47.860375 11763 net.cpp:399] inception_4b/output -> inception_4b/output
I0403 15:54:47.860425 11763 net.cpp:141] Setting up inception_4b/output
I0403 15:54:47.860450 11763 net.cpp:148] Top shape: 24 512 14 14 (2408448)
I0403 15:54:47.860466 11763 net.cpp:156] Memory required for data: 989857056
I0403 15:54:47.860496 11763 layer_factory.hpp:77] Creating layer inception_4b/output_inception_4b/output_0_split
I0403 15:54:47.860515 11763 net.cpp:91] Creating Layer inception_4b/output_inception_4b/output_0_split
I0403 15:54:47.860532 11763 net.cpp:425] inception_4b/output_inception_4b/output_0_split <- inception_4b/output
I0403 15:54:47.860553 11763 net.cpp:399] inception_4b/output_inception_4b/output_0_split -> inception_4b/output_inception_4b/output_0_split_0
I0403 15:54:47.860575 11763 net.cpp:399] inception_4b/output_inception_4b/output_0_split -> inception_4b/output_inception_4b/output_0_split_1
I0403 15:54:47.860597 11763 net.cpp:399] inception_4b/output_inception_4b/output_0_split -> inception_4b/output_inception_4b/output_0_split_2
I0403 15:54:47.860618 11763 net.cpp:399] inception_4b/output_inception_4b/output_0_split -> inception_4b/output_inception_4b/output_0_split_3
I0403 15:54:47.860708 11763 net.cpp:141] Setting up inception_4b/output_inception_4b/output_0_split
I0403 15:54:47.860734 11763 net.cpp:148] Top shape: 24 512 14 14 (2408448)
I0403 15:54:47.860754 11763 net.cpp:148] Top shape: 24 512 14 14 (2408448)
I0403 15:54:47.860770 11763 net.cpp:148] Top shape: 24 512 14 14 (2408448)
I0403 15:54:47.860786 11763 net.cpp:148] Top shape: 24 512 14 14 (2408448)
I0403 15:54:47.860800 11763 net.cpp:156] Memory required for data: 1028392224
I0403 15:54:47.860816 11763 layer_factory.hpp:77] Creating layer inception_4c/1x1
I0403 15:54:47.860841 11763 net.cpp:91] Creating Layer inception_4c/1x1
I0403 15:54:47.860859 11763 net.cpp:425] inception_4c/1x1 <- inception_4b/output_inception_4b/output_0_split_0
I0403 15:54:47.860879 11763 net.cpp:399] inception_4c/1x1 -> inception_4c/1x1
I0403 15:54:47.862429 11763 net.cpp:141] Setting up inception_4c/1x1
I0403 15:54:47.862459 11763 net.cpp:148] Top shape: 24 128 14 14 (602112)
I0403 15:54:47.862475 11763 net.cpp:156] Memory required for data: 1030800672
I0403 15:54:47.862494 11763 layer_factory.hpp:77] Creating layer inception_4c/relu_1x1
I0403 15:54:47.862516 11763 net.cpp:91] Creating Layer inception_4c/relu_1x1
I0403 15:54:47.862534 11763 net.cpp:425] inception_4c/relu_1x1 <- inception_4c/1x1
I0403 15:54:47.862553 11763 net.cpp:386] inception_4c/relu_1x1 -> inception_4c/1x1 (in-place)
I0403 15:54:47.862748 11763 net.cpp:141] Setting up inception_4c/relu_1x1
I0403 15:54:47.862776 11763 net.cpp:148] Top shape: 24 128 14 14 (602112)
I0403 15:54:47.862792 11763 net.cpp:156] Memory required for data: 1033209120
I0403 15:54:47.862808 11763 layer_factory.hpp:77] Creating layer inception_4c/3x3_reduce
I0403 15:54:47.862833 11763 net.cpp:91] Creating Layer inception_4c/3x3_reduce
I0403 15:54:47.862850 11763 net.cpp:425] inception_4c/3x3_reduce <- inception_4b/output_inception_4b/output_0_split_1
I0403 15:54:47.862870 11763 net.cpp:399] inception_4c/3x3_reduce -> inception_4c/3x3_reduce
I0403 15:54:47.864955 11763 net.cpp:141] Setting up inception_4c/3x3_reduce
I0403 15:54:47.864987 11763 net.cpp:148] Top shape: 24 128 14 14 (602112)
I0403 15:54:47.865005 11763 net.cpp:156] Memory required for data: 1035617568
I0403 15:54:47.865025 11763 layer_factory.hpp:77] Creating layer inception_4c/relu_3x3_reduce
I0403 15:54:47.865046 11763 net.cpp:91] Creating Layer inception_4c/relu_3x3_reduce
I0403 15:54:47.865061 11763 net.cpp:425] inception_4c/relu_3x3_reduce <- inception_4c/3x3_reduce
I0403 15:54:47.865082 11763 net.cpp:386] inception_4c/relu_3x3_reduce -> inception_4c/3x3_reduce (in-place)
I0403 15:54:47.865388 11763 net.cpp:141] Setting up inception_4c/relu_3x3_reduce
I0403 15:54:47.865418 11763 net.cpp:148] Top shape: 24 128 14 14 (602112)
I0403 15:54:47.865435 11763 net.cpp:156] Memory required for data: 1038026016
I0403 15:54:47.865452 11763 layer_factory.hpp:77] Creating layer inception_4c/3x3
I0403 15:54:47.865476 11763 net.cpp:91] Creating Layer inception_4c/3x3
I0403 15:54:47.865495 11763 net.cpp:425] inception_4c/3x3 <- inception_4c/3x3_reduce
I0403 15:54:47.865515 11763 net.cpp:399] inception_4c/3x3 -> inception_4c/3x3
I0403 15:54:47.869376 11763 net.cpp:141] Setting up inception_4c/3x3
I0403 15:54:47.869421 11763 net.cpp:148] Top shape: 24 256 14 14 (1204224)
I0403 15:54:47.869437 11763 net.cpp:156] Memory required for data: 1042842912
I0403 15:54:47.869472 11763 layer_factory.hpp:77] Creating layer inception_4c/relu_3x3
I0403 15:54:47.869493 11763 net.cpp:91] Creating Layer inception_4c/relu_3x3
I0403 15:54:47.869510 11763 net.cpp:425] inception_4c/relu_3x3 <- inception_4c/3x3
I0403 15:54:47.869531 11763 net.cpp:386] inception_4c/relu_3x3 -> inception_4c/3x3 (in-place)
I0403 15:54:47.869727 11763 net.cpp:141] Setting up inception_4c/relu_3x3
I0403 15:54:47.869753 11763 net.cpp:148] Top shape: 24 256 14 14 (1204224)
I0403 15:54:47.869770 11763 net.cpp:156] Memory required for data: 1047659808
I0403 15:54:47.869784 11763 layer_factory.hpp:77] Creating layer inception_4c/5x5_reduce
I0403 15:54:47.869809 11763 net.cpp:91] Creating Layer inception_4c/5x5_reduce
I0403 15:54:47.869828 11763 net.cpp:425] inception_4c/5x5_reduce <- inception_4b/output_inception_4b/output_0_split_2
I0403 15:54:47.869850 11763 net.cpp:399] inception_4c/5x5_reduce -> inception_4c/5x5_reduce
I0403 15:54:47.871024 11763 net.cpp:141] Setting up inception_4c/5x5_reduce
I0403 15:54:47.871054 11763 net.cpp:148] Top shape: 24 24 14 14 (112896)
I0403 15:54:47.871071 11763 net.cpp:156] Memory required for data: 1048111392
I0403 15:54:47.871090 11763 layer_factory.hpp:77] Creating layer inception_4c/relu_5x5_reduce
I0403 15:54:47.871110 11763 net.cpp:91] Creating Layer inception_4c/relu_5x5_reduce
I0403 15:54:47.871131 11763 net.cpp:425] inception_4c/relu_5x5_reduce <- inception_4c/5x5_reduce
I0403 15:54:47.871150 11763 net.cpp:386] inception_4c/relu_5x5_reduce -> inception_4c/5x5_reduce (in-place)
I0403 15:54:47.871346 11763 net.cpp:141] Setting up inception_4c/relu_5x5_reduce
I0403 15:54:47.871373 11763 net.cpp:148] Top shape: 24 24 14 14 (112896)
I0403 15:54:47.871388 11763 net.cpp:156] Memory required for data: 1048562976
I0403 15:54:47.871404 11763 layer_factory.hpp:77] Creating layer inception_4c/5x5
I0403 15:54:47.871429 11763 net.cpp:91] Creating Layer inception_4c/5x5
I0403 15:54:47.871448 11763 net.cpp:425] inception_4c/5x5 <- inception_4c/5x5_reduce
I0403 15:54:47.871479 11763 net.cpp:399] inception_4c/5x5 -> inception_4c/5x5
I0403 15:54:47.872814 11763 net.cpp:141] Setting up inception_4c/5x5
I0403 15:54:47.872843 11763 net.cpp:148] Top shape: 24 64 14 14 (301056)
I0403 15:54:47.872860 11763 net.cpp:156] Memory required for data: 1049767200
I0403 15:54:47.872879 11763 layer_factory.hpp:77] Creating layer inception_4c/relu_5x5
I0403 15:54:47.872901 11763 net.cpp:91] Creating Layer inception_4c/relu_5x5
I0403 15:54:47.872920 11763 net.cpp:425] inception_4c/relu_5x5 <- inception_4c/5x5
I0403 15:54:47.872938 11763 net.cpp:386] inception_4c/relu_5x5 -> inception_4c/5x5 (in-place)
I0403 15:54:47.873253 11763 net.cpp:141] Setting up inception_4c/relu_5x5
I0403 15:54:47.873281 11763 net.cpp:148] Top shape: 24 64 14 14 (301056)
I0403 15:54:47.873297 11763 net.cpp:156] Memory required for data: 1050971424
I0403 15:54:47.873313 11763 layer_factory.hpp:77] Creating layer inception_4c/pool
I0403 15:54:47.873334 11763 net.cpp:91] Creating Layer inception_4c/pool
I0403 15:54:47.873353 11763 net.cpp:425] inception_4c/pool <- inception_4b/output_inception_4b/output_0_split_3
I0403 15:54:47.873373 11763 net.cpp:399] inception_4c/pool -> inception_4c/pool
I0403 15:54:47.873442 11763 net.cpp:141] Setting up inception_4c/pool
I0403 15:54:47.873467 11763 net.cpp:148] Top shape: 24 512 14 14 (2408448)
I0403 15:54:47.873483 11763 net.cpp:156] Memory required for data: 1060605216
I0403 15:54:47.873499 11763 layer_factory.hpp:77] Creating layer inception_4c/pool_proj
I0403 15:54:47.873522 11763 net.cpp:91] Creating Layer inception_4c/pool_proj
I0403 15:54:47.873541 11763 net.cpp:425] inception_4c/pool_proj <- inception_4c/pool
I0403 15:54:47.873564 11763 net.cpp:399] inception_4c/pool_proj -> inception_4c/pool_proj
I0403 15:54:47.874891 11763 net.cpp:141] Setting up inception_4c/pool_proj
I0403 15:54:47.874920 11763 net.cpp:148] Top shape: 24 64 14 14 (301056)
I0403 15:54:47.874956 11763 net.cpp:156] Memory required for data: 1061809440
I0403 15:54:47.874979 11763 layer_factory.hpp:77] Creating layer inception_4c/relu_pool_proj
I0403 15:54:47.874999 11763 net.cpp:91] Creating Layer inception_4c/relu_pool_proj
I0403 15:54:47.875016 11763 net.cpp:425] inception_4c/relu_pool_proj <- inception_4c/pool_proj
I0403 15:54:47.875037 11763 net.cpp:386] inception_4c/relu_pool_proj -> inception_4c/pool_proj (in-place)
I0403 15:54:47.875236 11763 net.cpp:141] Setting up inception_4c/relu_pool_proj
I0403 15:54:47.875262 11763 net.cpp:148] Top shape: 24 64 14 14 (301056)
I0403 15:54:47.875277 11763 net.cpp:156] Memory required for data: 1063013664
I0403 15:54:47.875293 11763 layer_factory.hpp:77] Creating layer inception_4c/output
I0403 15:54:47.875313 11763 net.cpp:91] Creating Layer inception_4c/output
I0403 15:54:47.875332 11763 net.cpp:425] inception_4c/output <- inception_4c/1x1
I0403 15:54:47.875349 11763 net.cpp:425] inception_4c/output <- inception_4c/3x3
I0403 15:54:47.875367 11763 net.cpp:425] inception_4c/output <- inception_4c/5x5
I0403 15:54:47.875385 11763 net.cpp:425] inception_4c/output <- inception_4c/pool_proj
I0403 15:54:47.875402 11763 net.cpp:399] inception_4c/output -> inception_4c/output
I0403 15:54:47.875454 11763 net.cpp:141] Setting up inception_4c/output
I0403 15:54:47.875478 11763 net.cpp:148] Top shape: 24 512 14 14 (2408448)
I0403 15:54:47.875494 11763 net.cpp:156] Memory required for data: 1072647456
I0403 15:54:47.875509 11763 layer_factory.hpp:77] Creating layer inception_4c/output_inception_4c/output_0_split
I0403 15:54:47.875529 11763 net.cpp:91] Creating Layer inception_4c/output_inception_4c/output_0_split
I0403 15:54:47.875545 11763 net.cpp:425] inception_4c/output_inception_4c/output_0_split <- inception_4c/output
I0403 15:54:47.875566 11763 net.cpp:399] inception_4c/output_inception_4c/output_0_split -> inception_4c/output_inception_4c/output_0_split_0
I0403 15:54:47.875587 11763 net.cpp:399] inception_4c/output_inception_4c/output_0_split -> inception_4c/output_inception_4c/output_0_split_1
I0403 15:54:47.875609 11763 net.cpp:399] inception_4c/output_inception_4c/output_0_split -> inception_4c/output_inception_4c/output_0_split_2
I0403 15:54:47.875632 11763 net.cpp:399] inception_4c/output_inception_4c/output_0_split -> inception_4c/output_inception_4c/output_0_split_3
I0403 15:54:47.875723 11763 net.cpp:141] Setting up inception_4c/output_inception_4c/output_0_split
I0403 15:54:47.875751 11763 net.cpp:148] Top shape: 24 512 14 14 (2408448)
I0403 15:54:47.875769 11763 net.cpp:148] Top shape: 24 512 14 14 (2408448)
I0403 15:54:47.875787 11763 net.cpp:148] Top shape: 24 512 14 14 (2408448)
I0403 15:54:47.875803 11763 net.cpp:148] Top shape: 24 512 14 14 (2408448)
I0403 15:54:47.875818 11763 net.cpp:156] Memory required for data: 1111182624
I0403 15:54:47.875833 11763 layer_factory.hpp:77] Creating layer inception_4d/1x1
I0403 15:54:47.875857 11763 net.cpp:91] Creating Layer inception_4d/1x1
I0403 15:54:47.875876 11763 net.cpp:425] inception_4d/1x1 <- inception_4c/output_inception_4c/output_0_split_0
I0403 15:54:47.875896 11763 net.cpp:399] inception_4d/1x1 -> inception_4d/1x1
I0403 15:54:47.877382 11763 net.cpp:141] Setting up inception_4d/1x1
I0403 15:54:47.877414 11763 net.cpp:148] Top shape: 24 112 14 14 (526848)
I0403 15:54:47.877432 11763 net.cpp:156] Memory required for data: 1113290016
I0403 15:54:47.877452 11763 layer_factory.hpp:77] Creating layer inception_4d/relu_1x1
I0403 15:54:47.877471 11763 net.cpp:91] Creating Layer inception_4d/relu_1x1
I0403 15:54:47.877488 11763 net.cpp:425] inception_4d/relu_1x1 <- inception_4d/1x1
I0403 15:54:47.877506 11763 net.cpp:386] inception_4d/relu_1x1 -> inception_4d/1x1 (in-place)
I0403 15:54:47.877707 11763 net.cpp:141] Setting up inception_4d/relu_1x1
I0403 15:54:47.877733 11763 net.cpp:148] Top shape: 24 112 14 14 (526848)
I0403 15:54:47.877749 11763 net.cpp:156] Memory required for data: 1115397408
I0403 15:54:47.877765 11763 layer_factory.hpp:77] Creating layer inception_4d/3x3_reduce
I0403 15:54:47.877804 11763 net.cpp:91] Creating Layer inception_4d/3x3_reduce
I0403 15:54:47.877823 11763 net.cpp:425] inception_4d/3x3_reduce <- inception_4c/output_inception_4c/output_0_split_1
I0403 15:54:47.877846 11763 net.cpp:399] inception_4d/3x3_reduce -> inception_4d/3x3_reduce
I0403 15:54:47.879487 11763 net.cpp:141] Setting up inception_4d/3x3_reduce
I0403 15:54:47.879515 11763 net.cpp:148] Top shape: 24 144 14 14 (677376)
I0403 15:54:47.879531 11763 net.cpp:156] Memory required for data: 1118106912
I0403 15:54:47.879551 11763 layer_factory.hpp:77] Creating layer inception_4d/relu_3x3_reduce
I0403 15:54:47.879572 11763 net.cpp:91] Creating Layer inception_4d/relu_3x3_reduce
I0403 15:54:47.879590 11763 net.cpp:425] inception_4d/relu_3x3_reduce <- inception_4d/3x3_reduce
I0403 15:54:47.879609 11763 net.cpp:386] inception_4d/relu_3x3_reduce -> inception_4d/3x3_reduce (in-place)
I0403 15:54:47.879916 11763 net.cpp:141] Setting up inception_4d/relu_3x3_reduce
I0403 15:54:47.879943 11763 net.cpp:148] Top shape: 24 144 14 14 (677376)
I0403 15:54:47.879966 11763 net.cpp:156] Memory required for data: 1120816416
I0403 15:54:47.879982 11763 layer_factory.hpp:77] Creating layer inception_4d/3x3
I0403 15:54:47.880007 11763 net.cpp:91] Creating Layer inception_4d/3x3
I0403 15:54:47.880024 11763 net.cpp:425] inception_4d/3x3 <- inception_4d/3x3_reduce
I0403 15:54:47.880048 11763 net.cpp:399] inception_4d/3x3 -> inception_4d/3x3
I0403 15:54:47.884629 11763 net.cpp:141] Setting up inception_4d/3x3
I0403 15:54:47.884661 11763 net.cpp:148] Top shape: 24 288 14 14 (1354752)
I0403 15:54:47.884678 11763 net.cpp:156] Memory required for data: 1126235424
I0403 15:54:47.884698 11763 layer_factory.hpp:77] Creating layer inception_4d/relu_3x3
I0403 15:54:47.884718 11763 net.cpp:91] Creating Layer inception_4d/relu_3x3
I0403 15:54:47.884735 11763 net.cpp:425] inception_4d/relu_3x3 <- inception_4d/3x3
I0403 15:54:47.884757 11763 net.cpp:386] inception_4d/relu_3x3 -> inception_4d/3x3 (in-place)
I0403 15:54:47.884959 11763 net.cpp:141] Setting up inception_4d/relu_3x3
I0403 15:54:47.884986 11763 net.cpp:148] Top shape: 24 288 14 14 (1354752)
I0403 15:54:47.885002 11763 net.cpp:156] Memory required for data: 1131654432
I0403 15:54:47.885018 11763 layer_factory.hpp:77] Creating layer inception_4d/5x5_reduce
I0403 15:54:47.885041 11763 net.cpp:91] Creating Layer inception_4d/5x5_reduce
I0403 15:54:47.885059 11763 net.cpp:425] inception_4d/5x5_reduce <- inception_4c/output_inception_4c/output_0_split_2
I0403 15:54:47.885083 11763 net.cpp:399] inception_4d/5x5_reduce -> inception_4d/5x5_reduce
I0403 15:54:47.886327 11763 net.cpp:141] Setting up inception_4d/5x5_reduce
I0403 15:54:47.886359 11763 net.cpp:148] Top shape: 24 32 14 14 (150528)
I0403 15:54:47.886376 11763 net.cpp:156] Memory required for data: 1132256544
I0403 15:54:47.886396 11763 layer_factory.hpp:77] Creating layer inception_4d/relu_5x5_reduce
I0403 15:54:47.886415 11763 net.cpp:91] Creating Layer inception_4d/relu_5x5_reduce
I0403 15:54:47.886433 11763 net.cpp:425] inception_4d/relu_5x5_reduce <- inception_4d/5x5_reduce
I0403 15:54:47.886452 11763 net.cpp:386] inception_4d/relu_5x5_reduce -> inception_4d/5x5_reduce (in-place)
I0403 15:54:47.886667 11763 net.cpp:141] Setting up inception_4d/relu_5x5_reduce
I0403 15:54:47.886693 11763 net.cpp:148] Top shape: 24 32 14 14 (150528)
I0403 15:54:47.886708 11763 net.cpp:156] Memory required for data: 1132858656
I0403 15:54:47.886724 11763 layer_factory.hpp:77] Creating layer inception_4d/5x5
I0403 15:54:47.886749 11763 net.cpp:91] Creating Layer inception_4d/5x5
I0403 15:54:47.886767 11763 net.cpp:425] inception_4d/5x5 <- inception_4d/5x5_reduce
I0403 15:54:47.886790 11763 net.cpp:399] inception_4d/5x5 -> inception_4d/5x5
I0403 15:54:47.888394 11763 net.cpp:141] Setting up inception_4d/5x5
I0403 15:54:47.888424 11763 net.cpp:148] Top shape: 24 64 14 14 (301056)
I0403 15:54:47.888440 11763 net.cpp:156] Memory required for data: 1134062880
I0403 15:54:47.888469 11763 layer_factory.hpp:77] Creating layer inception_4d/relu_5x5
I0403 15:54:47.888507 11763 net.cpp:91] Creating Layer inception_4d/relu_5x5
I0403 15:54:47.888526 11763 net.cpp:425] inception_4d/relu_5x5 <- inception_4d/5x5
I0403 15:54:47.888545 11763 net.cpp:386] inception_4d/relu_5x5 -> inception_4d/5x5 (in-place)
I0403 15:54:47.888873 11763 net.cpp:141] Setting up inception_4d/relu_5x5
I0403 15:54:47.888901 11763 net.cpp:148] Top shape: 24 64 14 14 (301056)
I0403 15:54:47.888917 11763 net.cpp:156] Memory required for data: 1135267104
I0403 15:54:47.888934 11763 layer_factory.hpp:77] Creating layer inception_4d/pool
I0403 15:54:47.888967 11763 net.cpp:91] Creating Layer inception_4d/pool
I0403 15:54:47.888988 11763 net.cpp:425] inception_4d/pool <- inception_4c/output_inception_4c/output_0_split_3
I0403 15:54:47.889008 11763 net.cpp:399] inception_4d/pool -> inception_4d/pool
I0403 15:54:47.889081 11763 net.cpp:141] Setting up inception_4d/pool
I0403 15:54:47.889106 11763 net.cpp:148] Top shape: 24 512 14 14 (2408448)
I0403 15:54:47.889122 11763 net.cpp:156] Memory required for data: 1144900896
I0403 15:54:47.889138 11763 layer_factory.hpp:77] Creating layer inception_4d/pool_proj
I0403 15:54:47.889161 11763 net.cpp:91] Creating Layer inception_4d/pool_proj
I0403 15:54:47.889180 11763 net.cpp:425] inception_4d/pool_proj <- inception_4d/pool
I0403 15:54:47.889202 11763 net.cpp:399] inception_4d/pool_proj -> inception_4d/pool_proj
I0403 15:54:47.891122 11763 net.cpp:141] Setting up inception_4d/pool_proj
I0403 15:54:47.891156 11763 net.cpp:148] Top shape: 24 64 14 14 (301056)
I0403 15:54:47.891175 11763 net.cpp:156] Memory required for data: 1146105120
I0403 15:54:47.891193 11763 layer_factory.hpp:77] Creating layer inception_4d/relu_pool_proj
I0403 15:54:47.891213 11763 net.cpp:91] Creating Layer inception_4d/relu_pool_proj
I0403 15:54:47.891230 11763 net.cpp:425] inception_4d/relu_pool_proj <- inception_4d/pool_proj
I0403 15:54:47.891252 11763 net.cpp:386] inception_4d/relu_pool_proj -> inception_4d/pool_proj (in-place)
I0403 15:54:47.891451 11763 net.cpp:141] Setting up inception_4d/relu_pool_proj
I0403 15:54:47.891477 11763 net.cpp:148] Top shape: 24 64 14 14 (301056)
I0403 15:54:47.891492 11763 net.cpp:156] Memory required for data: 1147309344
I0403 15:54:47.891508 11763 layer_factory.hpp:77] Creating layer inception_4d/output
I0403 15:54:47.891526 11763 net.cpp:91] Creating Layer inception_4d/output
I0403 15:54:47.891543 11763 net.cpp:425] inception_4d/output <- inception_4d/1x1
I0403 15:54:47.891562 11763 net.cpp:425] inception_4d/output <- inception_4d/3x3
I0403 15:54:47.891579 11763 net.cpp:425] inception_4d/output <- inception_4d/5x5
I0403 15:54:47.891597 11763 net.cpp:425] inception_4d/output <- inception_4d/pool_proj
I0403 15:54:47.891616 11763 net.cpp:399] inception_4d/output -> inception_4d/output
I0403 15:54:47.891669 11763 net.cpp:141] Setting up inception_4d/output
I0403 15:54:47.891695 11763 net.cpp:148] Top shape: 24 528 14 14 (2483712)
I0403 15:54:47.891712 11763 net.cpp:156] Memory required for data: 1157244192
I0403 15:54:47.891728 11763 layer_factory.hpp:77] Creating layer inception_4d/output_inception_4d/output_0_split
I0403 15:54:47.891747 11763 net.cpp:91] Creating Layer inception_4d/output_inception_4d/output_0_split
I0403 15:54:47.891763 11763 net.cpp:425] inception_4d/output_inception_4d/output_0_split <- inception_4d/output
I0403 15:54:47.891785 11763 net.cpp:399] inception_4d/output_inception_4d/output_0_split -> inception_4d/output_inception_4d/output_0_split_0
I0403 15:54:47.891808 11763 net.cpp:399] inception_4d/output_inception_4d/output_0_split -> inception_4d/output_inception_4d/output_0_split_1
I0403 15:54:47.891830 11763 net.cpp:399] inception_4d/output_inception_4d/output_0_split -> inception_4d/output_inception_4d/output_0_split_2
I0403 15:54:47.891854 11763 net.cpp:399] inception_4d/output_inception_4d/output_0_split -> inception_4d/output_inception_4d/output_0_split_3
I0403 15:54:47.891875 11763 net.cpp:399] inception_4d/output_inception_4d/output_0_split -> inception_4d/output_inception_4d/output_0_split_4
I0403 15:54:47.892004 11763 net.cpp:141] Setting up inception_4d/output_inception_4d/output_0_split
I0403 15:54:47.892045 11763 net.cpp:148] Top shape: 24 528 14 14 (2483712)
I0403 15:54:47.892062 11763 net.cpp:148] Top shape: 24 528 14 14 (2483712)
I0403 15:54:47.892078 11763 net.cpp:148] Top shape: 24 528 14 14 (2483712)
I0403 15:54:47.892096 11763 net.cpp:148] Top shape: 24 528 14 14 (2483712)
I0403 15:54:47.892112 11763 net.cpp:148] Top shape: 24 528 14 14 (2483712)
I0403 15:54:47.892125 11763 net.cpp:156] Memory required for data: 1206918432
I0403 15:54:47.892140 11763 layer_factory.hpp:77] Creating layer loss2/ave_pool
I0403 15:54:47.892158 11763 net.cpp:91] Creating Layer loss2/ave_pool
I0403 15:54:47.892175 11763 net.cpp:425] loss2/ave_pool <- inception_4d/output_inception_4d/output_0_split_0
I0403 15:54:47.892204 11763 net.cpp:399] loss2/ave_pool -> loss2/ave_pool
I0403 15:54:47.892531 11763 net.cpp:141] Setting up loss2/ave_pool
I0403 15:54:47.892560 11763 net.cpp:148] Top shape: 24 528 4 4 (202752)
I0403 15:54:47.892577 11763 net.cpp:156] Memory required for data: 1207729440
I0403 15:54:47.892593 11763 layer_factory.hpp:77] Creating layer loss2/conv
I0403 15:54:47.892616 11763 net.cpp:91] Creating Layer loss2/conv
I0403 15:54:47.892634 11763 net.cpp:425] loss2/conv <- loss2/ave_pool
I0403 15:54:47.892654 11763 net.cpp:399] loss2/conv -> loss2/conv
I0403 15:54:47.894649 11763 net.cpp:141] Setting up loss2/conv
I0403 15:54:47.894678 11763 net.cpp:148] Top shape: 24 128 4 4 (49152)
I0403 15:54:47.894695 11763 net.cpp:156] Memory required for data: 1207926048
I0403 15:54:47.894713 11763 layer_factory.hpp:77] Creating layer loss2/relu_conv
I0403 15:54:47.894736 11763 net.cpp:91] Creating Layer loss2/relu_conv
I0403 15:54:47.894753 11763 net.cpp:425] loss2/relu_conv <- loss2/conv
I0403 15:54:47.894772 11763 net.cpp:386] loss2/relu_conv -> loss2/conv (in-place)
I0403 15:54:47.895072 11763 net.cpp:141] Setting up loss2/relu_conv
I0403 15:54:47.895099 11763 net.cpp:148] Top shape: 24 128 4 4 (49152)
I0403 15:54:47.895114 11763 net.cpp:156] Memory required for data: 1208122656
I0403 15:54:47.895129 11763 layer_factory.hpp:77] Creating layer loss2/fc
I0403 15:54:47.895151 11763 net.cpp:91] Creating Layer loss2/fc
I0403 15:54:47.895170 11763 net.cpp:425] loss2/fc <- loss2/conv
I0403 15:54:47.895195 11763 net.cpp:399] loss2/fc -> loss2/fc
I0403 15:54:47.913599 11763 net.cpp:141] Setting up loss2/fc
I0403 15:54:47.913635 11763 net.cpp:148] Top shape: 24 1024 (24576)
I0403 15:54:47.913650 11763 net.cpp:156] Memory required for data: 1208220960
I0403 15:54:47.913669 11763 layer_factory.hpp:77] Creating layer loss2/relu_fc
I0403 15:54:47.913687 11763 net.cpp:91] Creating Layer loss2/relu_fc
I0403 15:54:47.913705 11763 net.cpp:425] loss2/relu_fc <- loss2/fc
I0403 15:54:47.913725 11763 net.cpp:386] loss2/relu_fc -> loss2/fc (in-place)
I0403 15:54:47.914038 11763 net.cpp:141] Setting up loss2/relu_fc
I0403 15:54:47.914065 11763 net.cpp:148] Top shape: 24 1024 (24576)
I0403 15:54:47.914082 11763 net.cpp:156] Memory required for data: 1208319264
I0403 15:54:47.914098 11763 layer_factory.hpp:77] Creating layer loss2/drop_fc
I0403 15:54:47.914116 11763 net.cpp:91] Creating Layer loss2/drop_fc
I0403 15:54:47.914134 11763 net.cpp:425] loss2/drop_fc <- loss2/fc
I0403 15:54:47.914157 11763 net.cpp:386] loss2/drop_fc -> loss2/fc (in-place)
I0403 15:54:47.914216 11763 net.cpp:141] Setting up loss2/drop_fc
I0403 15:54:47.914239 11763 net.cpp:148] Top shape: 24 1024 (24576)
I0403 15:54:47.914258 11763 net.cpp:156] Memory required for data: 1208417568
I0403 15:54:47.914273 11763 layer_factory.hpp:77] Creating layer loss2/classifier_plantvillage
I0403 15:54:47.914293 11763 net.cpp:91] Creating Layer loss2/classifier_plantvillage
I0403 15:54:47.914309 11763 net.cpp:425] loss2/classifier_plantvillage <- loss2/fc
I0403 15:54:47.914331 11763 net.cpp:399] loss2/classifier_plantvillage -> loss2/classifier_plantvillage
I0403 15:54:47.914753 11763 net.cpp:141] Setting up loss2/classifier_plantvillage
I0403 15:54:47.914779 11763 net.cpp:148] Top shape: 24 38 (912)
I0403 15:54:47.914810 11763 net.cpp:156] Memory required for data: 1208421216
I0403 15:54:47.914831 11763 layer_factory.hpp:77] Creating layer loss2/classifier_plantvillage_loss2/classifier_plantvillage_0_split
I0403 15:54:47.914852 11763 net.cpp:91] Creating Layer loss2/classifier_plantvillage_loss2/classifier_plantvillage_0_split
I0403 15:54:47.914871 11763 net.cpp:425] loss2/classifier_plantvillage_loss2/classifier_plantvillage_0_split <- loss2/classifier_plantvillage
I0403 15:54:47.914890 11763 net.cpp:399] loss2/classifier_plantvillage_loss2/classifier_plantvillage_0_split -> loss2/classifier_plantvillage_loss2/classifier_plantvillage_0_split_0
I0403 15:54:47.914911 11763 net.cpp:399] loss2/classifier_plantvillage_loss2/classifier_plantvillage_0_split -> loss2/classifier_plantvillage_loss2/classifier_plantvillage_0_split_1
I0403 15:54:47.914932 11763 net.cpp:399] loss2/classifier_plantvillage_loss2/classifier_plantvillage_0_split -> loss2/classifier_plantvillage_loss2/classifier_plantvillage_0_split_2
I0403 15:54:47.915021 11763 net.cpp:141] Setting up loss2/classifier_plantvillage_loss2/classifier_plantvillage_0_split
I0403 15:54:47.915045 11763 net.cpp:148] Top shape: 24 38 (912)
I0403 15:54:47.915062 11763 net.cpp:148] Top shape: 24 38 (912)
I0403 15:54:47.915078 11763 net.cpp:148] Top shape: 24 38 (912)
I0403 15:54:47.915093 11763 net.cpp:156] Memory required for data: 1208432160
I0403 15:54:47.915108 11763 layer_factory.hpp:77] Creating layer inception_4e/1x1
I0403 15:54:47.915132 11763 net.cpp:91] Creating Layer inception_4e/1x1
I0403 15:54:47.915148 11763 net.cpp:425] inception_4e/1x1 <- inception_4d/output_inception_4d/output_0_split_1
I0403 15:54:47.915169 11763 net.cpp:399] inception_4e/1x1 -> inception_4e/1x1
I0403 15:54:47.917035 11763 net.cpp:141] Setting up inception_4e/1x1
I0403 15:54:47.917063 11763 net.cpp:148] Top shape: 24 256 14 14 (1204224)
I0403 15:54:47.917079 11763 net.cpp:156] Memory required for data: 1213249056
I0403 15:54:47.917098 11763 layer_factory.hpp:77] Creating layer inception_4e/relu_1x1
I0403 15:54:47.917119 11763 net.cpp:91] Creating Layer inception_4e/relu_1x1
I0403 15:54:47.917136 11763 net.cpp:425] inception_4e/relu_1x1 <- inception_4e/1x1
I0403 15:54:47.917153 11763 net.cpp:386] inception_4e/relu_1x1 -> inception_4e/1x1 (in-place)
I0403 15:54:47.917459 11763 net.cpp:141] Setting up inception_4e/relu_1x1
I0403 15:54:47.917484 11763 net.cpp:148] Top shape: 24 256 14 14 (1204224)
I0403 15:54:47.917500 11763 net.cpp:156] Memory required for data: 1218065952
I0403 15:54:47.917515 11763 layer_factory.hpp:77] Creating layer inception_4e/3x3_reduce
I0403 15:54:47.917536 11763 net.cpp:91] Creating Layer inception_4e/3x3_reduce
I0403 15:54:47.917554 11763 net.cpp:425] inception_4e/3x3_reduce <- inception_4d/output_inception_4d/output_0_split_2
I0403 15:54:47.917575 11763 net.cpp:399] inception_4e/3x3_reduce -> inception_4e/3x3_reduce
I0403 15:54:47.919769 11763 net.cpp:141] Setting up inception_4e/3x3_reduce
I0403 15:54:47.919797 11763 net.cpp:148] Top shape: 24 160 14 14 (752640)
I0403 15:54:47.919812 11763 net.cpp:156] Memory required for data: 1221076512
I0403 15:54:47.919831 11763 layer_factory.hpp:77] Creating layer inception_4e/relu_3x3_reduce
I0403 15:54:47.919849 11763 net.cpp:91] Creating Layer inception_4e/relu_3x3_reduce
I0403 15:54:47.919865 11763 net.cpp:425] inception_4e/relu_3x3_reduce <- inception_4e/3x3_reduce
I0403 15:54:47.919885 11763 net.cpp:386] inception_4e/relu_3x3_reduce -> inception_4e/3x3_reduce (in-place)
I0403 15:54:47.920079 11763 net.cpp:141] Setting up inception_4e/relu_3x3_reduce
I0403 15:54:47.920104 11763 net.cpp:148] Top shape: 24 160 14 14 (752640)
I0403 15:54:47.920120 11763 net.cpp:156] Memory required for data: 1224087072
I0403 15:54:47.920135 11763 layer_factory.hpp:77] Creating layer inception_4e/3x3
I0403 15:54:47.920157 11763 net.cpp:91] Creating Layer inception_4e/3x3
I0403 15:54:47.920174 11763 net.cpp:425] inception_4e/3x3 <- inception_4e/3x3_reduce
I0403 15:54:47.920195 11763 net.cpp:399] inception_4e/3x3 -> inception_4e/3x3
I0403 15:54:47.925153 11763 net.cpp:141] Setting up inception_4e/3x3
I0403 15:54:47.925194 11763 net.cpp:148] Top shape: 24 320 14 14 (1505280)
I0403 15:54:47.925210 11763 net.cpp:156] Memory required for data: 1230108192
I0403 15:54:47.925228 11763 layer_factory.hpp:77] Creating layer inception_4e/relu_3x3
I0403 15:54:47.925249 11763 net.cpp:91] Creating Layer inception_4e/relu_3x3
I0403 15:54:47.925266 11763 net.cpp:425] inception_4e/relu_3x3 <- inception_4e/3x3
I0403 15:54:47.925283 11763 net.cpp:386] inception_4e/relu_3x3 -> inception_4e/3x3 (in-place)
I0403 15:54:47.925580 11763 net.cpp:141] Setting up inception_4e/relu_3x3
I0403 15:54:47.925608 11763 net.cpp:148] Top shape: 24 320 14 14 (1505280)
I0403 15:54:47.925624 11763 net.cpp:156] Memory required for data: 1236129312
I0403 15:54:47.925639 11763 layer_factory.hpp:77] Creating layer inception_4e/5x5_reduce
I0403 15:54:47.925662 11763 net.cpp:91] Creating Layer inception_4e/5x5_reduce
I0403 15:54:47.925681 11763 net.cpp:425] inception_4e/5x5_reduce <- inception_4d/output_inception_4d/output_0_split_3
I0403 15:54:47.925700 11763 net.cpp:399] inception_4e/5x5_reduce -> inception_4e/5x5_reduce
I0403 15:54:47.926766 11763 net.cpp:141] Setting up inception_4e/5x5_reduce
I0403 15:54:47.926794 11763 net.cpp:148] Top shape: 24 32 14 14 (150528)
I0403 15:54:47.926808 11763 net.cpp:156] Memory required for data: 1236731424
I0403 15:54:47.926826 11763 layer_factory.hpp:77] Creating layer inception_4e/relu_5x5_reduce
I0403 15:54:47.926846 11763 net.cpp:91] Creating Layer inception_4e/relu_5x5_reduce
I0403 15:54:47.926864 11763 net.cpp:425] inception_4e/relu_5x5_reduce <- inception_4e/5x5_reduce
I0403 15:54:47.926880 11763 net.cpp:386] inception_4e/relu_5x5_reduce -> inception_4e/5x5_reduce (in-place)
I0403 15:54:47.927178 11763 net.cpp:141] Setting up inception_4e/relu_5x5_reduce
I0403 15:54:47.927206 11763 net.cpp:148] Top shape: 24 32 14 14 (150528)
I0403 15:54:47.927220 11763 net.cpp:156] Memory required for data: 1237333536
I0403 15:54:47.927235 11763 layer_factory.hpp:77] Creating layer inception_4e/5x5
I0403 15:54:47.927273 11763 net.cpp:91] Creating Layer inception_4e/5x5
I0403 15:54:47.927292 11763 net.cpp:425] inception_4e/5x5 <- inception_4e/5x5_reduce
I0403 15:54:47.927311 11763 net.cpp:399] inception_4e/5x5 -> inception_4e/5x5
I0403 15:54:47.929148 11763 net.cpp:141] Setting up inception_4e/5x5
I0403 15:54:47.929177 11763 net.cpp:148] Top shape: 24 128 14 14 (602112)
I0403 15:54:47.929193 11763 net.cpp:156] Memory required for data: 1239741984
I0403 15:54:47.929214 11763 layer_factory.hpp:77] Creating layer inception_4e/relu_5x5
I0403 15:54:47.929232 11763 net.cpp:91] Creating Layer inception_4e/relu_5x5
I0403 15:54:47.929249 11763 net.cpp:425] inception_4e/relu_5x5 <- inception_4e/5x5
I0403 15:54:47.929267 11763 net.cpp:386] inception_4e/relu_5x5 -> inception_4e/5x5 (in-place)
I0403 15:54:47.929462 11763 net.cpp:141] Setting up inception_4e/relu_5x5
I0403 15:54:47.929486 11763 net.cpp:148] Top shape: 24 128 14 14 (602112)
I0403 15:54:47.929502 11763 net.cpp:156] Memory required for data: 1242150432
I0403 15:54:47.929517 11763 layer_factory.hpp:77] Creating layer inception_4e/pool
I0403 15:54:47.929535 11763 net.cpp:91] Creating Layer inception_4e/pool
I0403 15:54:47.929551 11763 net.cpp:425] inception_4e/pool <- inception_4d/output_inception_4d/output_0_split_4
I0403 15:54:47.929571 11763 net.cpp:399] inception_4e/pool -> inception_4e/pool
I0403 15:54:47.929642 11763 net.cpp:141] Setting up inception_4e/pool
I0403 15:54:47.929666 11763 net.cpp:148] Top shape: 24 528 14 14 (2483712)
I0403 15:54:47.929679 11763 net.cpp:156] Memory required for data: 1252085280
I0403 15:54:47.929693 11763 layer_factory.hpp:77] Creating layer inception_4e/pool_proj
I0403 15:54:47.929715 11763 net.cpp:91] Creating Layer inception_4e/pool_proj
I0403 15:54:47.929733 11763 net.cpp:425] inception_4e/pool_proj <- inception_4e/pool
I0403 15:54:47.929752 11763 net.cpp:399] inception_4e/pool_proj -> inception_4e/pool_proj
I0403 15:54:47.931272 11763 net.cpp:141] Setting up inception_4e/pool_proj
I0403 15:54:47.931319 11763 net.cpp:148] Top shape: 24 128 14 14 (602112)
I0403 15:54:47.931337 11763 net.cpp:156] Memory required for data: 1254493728
I0403 15:54:47.931356 11763 layer_factory.hpp:77] Creating layer inception_4e/relu_pool_proj
I0403 15:54:47.931376 11763 net.cpp:91] Creating Layer inception_4e/relu_pool_proj
I0403 15:54:47.931392 11763 net.cpp:425] inception_4e/relu_pool_proj <- inception_4e/pool_proj
I0403 15:54:47.931413 11763 net.cpp:386] inception_4e/relu_pool_proj -> inception_4e/pool_proj (in-place)
I0403 15:54:47.931725 11763 net.cpp:141] Setting up inception_4e/relu_pool_proj
I0403 15:54:47.931753 11763 net.cpp:148] Top shape: 24 128 14 14 (602112)
I0403 15:54:47.931771 11763 net.cpp:156] Memory required for data: 1256902176
I0403 15:54:47.931785 11763 layer_factory.hpp:77] Creating layer inception_4e/output
I0403 15:54:47.931803 11763 net.cpp:91] Creating Layer inception_4e/output
I0403 15:54:47.931819 11763 net.cpp:425] inception_4e/output <- inception_4e/1x1
I0403 15:54:47.931836 11763 net.cpp:425] inception_4e/output <- inception_4e/3x3
I0403 15:54:47.931852 11763 net.cpp:425] inception_4e/output <- inception_4e/5x5
I0403 15:54:47.931869 11763 net.cpp:425] inception_4e/output <- inception_4e/pool_proj
I0403 15:54:47.931887 11763 net.cpp:399] inception_4e/output -> inception_4e/output
I0403 15:54:47.931938 11763 net.cpp:141] Setting up inception_4e/output
I0403 15:54:47.931965 11763 net.cpp:148] Top shape: 24 832 14 14 (3913728)
I0403 15:54:47.931980 11763 net.cpp:156] Memory required for data: 1272557088
I0403 15:54:47.931995 11763 layer_factory.hpp:77] Creating layer pool4/3x3_s2
I0403 15:54:47.932015 11763 net.cpp:91] Creating Layer pool4/3x3_s2
I0403 15:54:47.932032 11763 net.cpp:425] pool4/3x3_s2 <- inception_4e/output
I0403 15:54:47.932050 11763 net.cpp:399] pool4/3x3_s2 -> pool4/3x3_s2
I0403 15:54:47.932124 11763 net.cpp:141] Setting up pool4/3x3_s2
I0403 15:54:47.932148 11763 net.cpp:148] Top shape: 24 832 7 7 (978432)
I0403 15:54:47.932163 11763 net.cpp:156] Memory required for data: 1276470816
I0403 15:54:47.932178 11763 layer_factory.hpp:77] Creating layer pool4/3x3_s2_pool4/3x3_s2_0_split
I0403 15:54:47.932195 11763 net.cpp:91] Creating Layer pool4/3x3_s2_pool4/3x3_s2_0_split
I0403 15:54:47.932211 11763 net.cpp:425] pool4/3x3_s2_pool4/3x3_s2_0_split <- pool4/3x3_s2
I0403 15:54:47.932231 11763 net.cpp:399] pool4/3x3_s2_pool4/3x3_s2_0_split -> pool4/3x3_s2_pool4/3x3_s2_0_split_0
I0403 15:54:47.932252 11763 net.cpp:399] pool4/3x3_s2_pool4/3x3_s2_0_split -> pool4/3x3_s2_pool4/3x3_s2_0_split_1
I0403 15:54:47.932272 11763 net.cpp:399] pool4/3x3_s2_pool4/3x3_s2_0_split -> pool4/3x3_s2_pool4/3x3_s2_0_split_2
I0403 15:54:47.932292 11763 net.cpp:399] pool4/3x3_s2_pool4/3x3_s2_0_split -> pool4/3x3_s2_pool4/3x3_s2_0_split_3
I0403 15:54:47.932386 11763 net.cpp:141] Setting up pool4/3x3_s2_pool4/3x3_s2_0_split
I0403 15:54:47.932410 11763 net.cpp:148] Top shape: 24 832 7 7 (978432)
I0403 15:54:47.932426 11763 net.cpp:148] Top shape: 24 832 7 7 (978432)
I0403 15:54:47.932441 11763 net.cpp:148] Top shape: 24 832 7 7 (978432)
I0403 15:54:47.932457 11763 net.cpp:148] Top shape: 24 832 7 7 (978432)
I0403 15:54:47.932471 11763 net.cpp:156] Memory required for data: 1292125728
I0403 15:54:47.932487 11763 layer_factory.hpp:77] Creating layer inception_5a/1x1
I0403 15:54:47.932508 11763 net.cpp:91] Creating Layer inception_5a/1x1
I0403 15:54:47.932526 11763 net.cpp:425] inception_5a/1x1 <- pool4/3x3_s2_pool4/3x3_s2_0_split_0
I0403 15:54:47.932548 11763 net.cpp:399] inception_5a/1x1 -> inception_5a/1x1
I0403 15:54:47.935441 11763 net.cpp:141] Setting up inception_5a/1x1
I0403 15:54:47.935470 11763 net.cpp:148] Top shape: 24 256 7 7 (301056)
I0403 15:54:47.935487 11763 net.cpp:156] Memory required for data: 1293329952
I0403 15:54:47.935504 11763 layer_factory.hpp:77] Creating layer inception_5a/relu_1x1
I0403 15:54:47.935523 11763 net.cpp:91] Creating Layer inception_5a/relu_1x1
I0403 15:54:47.935539 11763 net.cpp:425] inception_5a/relu_1x1 <- inception_5a/1x1
I0403 15:54:47.935559 11763 net.cpp:386] inception_5a/relu_1x1 -> inception_5a/1x1 (in-place)
I0403 15:54:47.935876 11763 net.cpp:141] Setting up inception_5a/relu_1x1
I0403 15:54:47.935902 11763 net.cpp:148] Top shape: 24 256 7 7 (301056)
I0403 15:54:47.935919 11763 net.cpp:156] Memory required for data: 1294534176
I0403 15:54:47.935933 11763 layer_factory.hpp:77] Creating layer inception_5a/3x3_reduce
I0403 15:54:47.935959 11763 net.cpp:91] Creating Layer inception_5a/3x3_reduce
I0403 15:54:47.935978 11763 net.cpp:425] inception_5a/3x3_reduce <- pool4/3x3_s2_pool4/3x3_s2_0_split_1
I0403 15:54:47.935999 11763 net.cpp:399] inception_5a/3x3_reduce -> inception_5a/3x3_reduce
I0403 15:54:47.938510 11763 net.cpp:141] Setting up inception_5a/3x3_reduce
I0403 15:54:47.938539 11763 net.cpp:148] Top shape: 24 160 7 7 (188160)
I0403 15:54:47.938555 11763 net.cpp:156] Memory required for data: 1295286816
I0403 15:54:47.938575 11763 layer_factory.hpp:77] Creating layer inception_5a/relu_3x3_reduce
I0403 15:54:47.938596 11763 net.cpp:91] Creating Layer inception_5a/relu_3x3_reduce
I0403 15:54:47.938612 11763 net.cpp:425] inception_5a/relu_3x3_reduce <- inception_5a/3x3_reduce
I0403 15:54:47.938632 11763 net.cpp:386] inception_5a/relu_3x3_reduce -> inception_5a/3x3_reduce (in-place)
I0403 15:54:47.938824 11763 net.cpp:141] Setting up inception_5a/relu_3x3_reduce
I0403 15:54:47.938849 11763 net.cpp:148] Top shape: 24 160 7 7 (188160)
I0403 15:54:47.938863 11763 net.cpp:156] Memory required for data: 1296039456
I0403 15:54:47.938879 11763 layer_factory.hpp:77] Creating layer inception_5a/3x3
I0403 15:54:47.938902 11763 net.cpp:91] Creating Layer inception_5a/3x3
I0403 15:54:47.938920 11763 net.cpp:425] inception_5a/3x3 <- inception_5a/3x3_reduce
I0403 15:54:47.938941 11763 net.cpp:399] inception_5a/3x3 -> inception_5a/3x3
I0403 15:54:47.944077 11763 net.cpp:141] Setting up inception_5a/3x3
I0403 15:54:47.944108 11763 net.cpp:148] Top shape: 24 320 7 7 (376320)
I0403 15:54:47.944123 11763 net.cpp:156] Memory required for data: 1297544736
I0403 15:54:47.944141 11763 layer_factory.hpp:77] Creating layer inception_5a/relu_3x3
I0403 15:54:47.944160 11763 net.cpp:91] Creating Layer inception_5a/relu_3x3
I0403 15:54:47.944176 11763 net.cpp:425] inception_5a/relu_3x3 <- inception_5a/3x3
I0403 15:54:47.944196 11763 net.cpp:386] inception_5a/relu_3x3 -> inception_5a/3x3 (in-place)
I0403 15:54:47.944499 11763 net.cpp:141] Setting up inception_5a/relu_3x3
I0403 15:54:47.944525 11763 net.cpp:148] Top shape: 24 320 7 7 (376320)
I0403 15:54:47.944540 11763 net.cpp:156] Memory required for data: 1299050016
I0403 15:54:47.944555 11763 layer_factory.hpp:77] Creating layer inception_5a/5x5_reduce
I0403 15:54:47.944579 11763 net.cpp:91] Creating Layer inception_5a/5x5_reduce
I0403 15:54:47.944597 11763 net.cpp:425] inception_5a/5x5_reduce <- pool4/3x3_s2_pool4/3x3_s2_0_split_2
I0403 15:54:47.944619 11763 net.cpp:399] inception_5a/5x5_reduce -> inception_5a/5x5_reduce
I0403 15:54:47.945847 11763 net.cpp:141] Setting up inception_5a/5x5_reduce
I0403 15:54:47.945875 11763 net.cpp:148] Top shape: 24 32 7 7 (37632)
I0403 15:54:47.945891 11763 net.cpp:156] Memory required for data: 1299200544
I0403 15:54:47.945910 11763 layer_factory.hpp:77] Creating layer inception_5a/relu_5x5_reduce
I0403 15:54:47.945930 11763 net.cpp:91] Creating Layer inception_5a/relu_5x5_reduce
I0403 15:54:47.945950 11763 net.cpp:425] inception_5a/relu_5x5_reduce <- inception_5a/5x5_reduce
I0403 15:54:47.945971 11763 net.cpp:386] inception_5a/relu_5x5_reduce -> inception_5a/5x5_reduce (in-place)
I0403 15:54:47.946285 11763 net.cpp:141] Setting up inception_5a/relu_5x5_reduce
I0403 15:54:47.946312 11763 net.cpp:148] Top shape: 24 32 7 7 (37632)
I0403 15:54:47.946328 11763 net.cpp:156] Memory required for data: 1299351072
I0403 15:54:47.946344 11763 layer_factory.hpp:77] Creating layer inception_5a/5x5
I0403 15:54:47.946367 11763 net.cpp:91] Creating Layer inception_5a/5x5
I0403 15:54:47.946385 11763 net.cpp:425] inception_5a/5x5 <- inception_5a/5x5_reduce
I0403 15:54:47.946410 11763 net.cpp:399] inception_5a/5x5 -> inception_5a/5x5
I0403 15:54:47.948195 11763 net.cpp:141] Setting up inception_5a/5x5
I0403 15:54:47.948235 11763 net.cpp:148] Top shape: 24 128 7 7 (150528)
I0403 15:54:47.948252 11763 net.cpp:156] Memory required for data: 1299953184
I0403 15:54:47.948271 11763 layer_factory.hpp:77] Creating layer inception_5a/relu_5x5
I0403 15:54:47.948289 11763 net.cpp:91] Creating Layer inception_5a/relu_5x5
I0403 15:54:47.948307 11763 net.cpp:425] inception_5a/relu_5x5 <- inception_5a/5x5
I0403 15:54:47.948326 11763 net.cpp:386] inception_5a/relu_5x5 -> inception_5a/5x5 (in-place)
I0403 15:54:47.948535 11763 net.cpp:141] Setting up inception_5a/relu_5x5
I0403 15:54:47.948559 11763 net.cpp:148] Top shape: 24 128 7 7 (150528)
I0403 15:54:47.948573 11763 net.cpp:156] Memory required for data: 1300555296
I0403 15:54:47.948588 11763 layer_factory.hpp:77] Creating layer inception_5a/pool
I0403 15:54:47.948607 11763 net.cpp:91] Creating Layer inception_5a/pool
I0403 15:54:47.948633 11763 net.cpp:425] inception_5a/pool <- pool4/3x3_s2_pool4/3x3_s2_0_split_3
I0403 15:54:47.948652 11763 net.cpp:399] inception_5a/pool -> inception_5a/pool
I0403 15:54:47.948722 11763 net.cpp:141] Setting up inception_5a/pool
I0403 15:54:47.948745 11763 net.cpp:148] Top shape: 24 832 7 7 (978432)
I0403 15:54:47.948760 11763 net.cpp:156] Memory required for data: 1304469024
I0403 15:54:47.948773 11763 layer_factory.hpp:77] Creating layer inception_5a/pool_proj
I0403 15:54:47.948796 11763 net.cpp:91] Creating Layer inception_5a/pool_proj
I0403 15:54:47.948812 11763 net.cpp:425] inception_5a/pool_proj <- inception_5a/pool
I0403 15:54:47.948833 11763 net.cpp:399] inception_5a/pool_proj -> inception_5a/pool_proj
I0403 15:54:47.951125 11763 net.cpp:141] Setting up inception_5a/pool_proj
I0403 15:54:47.951158 11763 net.cpp:148] Top shape: 24 128 7 7 (150528)
I0403 15:54:47.951174 11763 net.cpp:156] Memory required for data: 1305071136
I0403 15:54:47.951191 11763 layer_factory.hpp:77] Creating layer inception_5a/relu_pool_proj
I0403 15:54:47.951211 11763 net.cpp:91] Creating Layer inception_5a/relu_pool_proj
I0403 15:54:47.951227 11763 net.cpp:425] inception_5a/relu_pool_proj <- inception_5a/pool_proj
I0403 15:54:47.951247 11763 net.cpp:386] inception_5a/relu_pool_proj -> inception_5a/pool_proj (in-place)
I0403 15:54:47.951544 11763 net.cpp:141] Setting up inception_5a/relu_pool_proj
I0403 15:54:47.951570 11763 net.cpp:148] Top shape: 24 128 7 7 (150528)
I0403 15:54:47.951586 11763 net.cpp:156] Memory required for data: 1305673248
I0403 15:54:47.951601 11763 layer_factory.hpp:77] Creating layer inception_5a/output
I0403 15:54:47.951617 11763 net.cpp:91] Creating Layer inception_5a/output
I0403 15:54:47.951632 11763 net.cpp:425] inception_5a/output <- inception_5a/1x1
I0403 15:54:47.951649 11763 net.cpp:425] inception_5a/output <- inception_5a/3x3
I0403 15:54:47.951664 11763 net.cpp:425] inception_5a/output <- inception_5a/5x5
I0403 15:54:47.951680 11763 net.cpp:425] inception_5a/output <- inception_5a/pool_proj
I0403 15:54:47.951697 11763 net.cpp:399] inception_5a/output -> inception_5a/output
I0403 15:54:47.951747 11763 net.cpp:141] Setting up inception_5a/output
I0403 15:54:47.951771 11763 net.cpp:148] Top shape: 24 832 7 7 (978432)
I0403 15:54:47.951784 11763 net.cpp:156] Memory required for data: 1309586976
I0403 15:54:47.951798 11763 layer_factory.hpp:77] Creating layer inception_5a/output_inception_5a/output_0_split
I0403 15:54:47.951817 11763 net.cpp:91] Creating Layer inception_5a/output_inception_5a/output_0_split
I0403 15:54:47.951833 11763 net.cpp:425] inception_5a/output_inception_5a/output_0_split <- inception_5a/output
I0403 15:54:47.951850 11763 net.cpp:399] inception_5a/output_inception_5a/output_0_split -> inception_5a/output_inception_5a/output_0_split_0
I0403 15:54:47.951870 11763 net.cpp:399] inception_5a/output_inception_5a/output_0_split -> inception_5a/output_inception_5a/output_0_split_1
I0403 15:54:47.951890 11763 net.cpp:399] inception_5a/output_inception_5a/output_0_split -> inception_5a/output_inception_5a/output_0_split_2
I0403 15:54:47.951912 11763 net.cpp:399] inception_5a/output_inception_5a/output_0_split -> inception_5a/output_inception_5a/output_0_split_3
I0403 15:54:47.952028 11763 net.cpp:141] Setting up inception_5a/output_inception_5a/output_0_split
I0403 15:54:47.952051 11763 net.cpp:148] Top shape: 24 832 7 7 (978432)
I0403 15:54:47.952067 11763 net.cpp:148] Top shape: 24 832 7 7 (978432)
I0403 15:54:47.952082 11763 net.cpp:148] Top shape: 24 832 7 7 (978432)
I0403 15:54:47.952097 11763 net.cpp:148] Top shape: 24 832 7 7 (978432)
I0403 15:54:47.952111 11763 net.cpp:156] Memory required for data: 1325241888
I0403 15:54:47.952126 11763 layer_factory.hpp:77] Creating layer inception_5b/1x1
I0403 15:54:47.952147 11763 net.cpp:91] Creating Layer inception_5b/1x1
I0403 15:54:47.952163 11763 net.cpp:425] inception_5b/1x1 <- inception_5a/output_inception_5a/output_0_split_0
I0403 15:54:47.952183 11763 net.cpp:399] inception_5b/1x1 -> inception_5b/1x1
I0403 15:54:47.955888 11763 net.cpp:141] Setting up inception_5b/1x1
I0403 15:54:47.955916 11763 net.cpp:148] Top shape: 24 384 7 7 (451584)
I0403 15:54:47.955932 11763 net.cpp:156] Memory required for data: 1327048224
I0403 15:54:47.955956 11763 layer_factory.hpp:77] Creating layer inception_5b/relu_1x1
I0403 15:54:47.955977 11763 net.cpp:91] Creating Layer inception_5b/relu_1x1
I0403 15:54:47.955993 11763 net.cpp:425] inception_5b/relu_1x1 <- inception_5b/1x1
I0403 15:54:47.956012 11763 net.cpp:386] inception_5b/relu_1x1 -> inception_5b/1x1 (in-place)
I0403 15:54:47.956313 11763 net.cpp:141] Setting up inception_5b/relu_1x1
I0403 15:54:47.956338 11763 net.cpp:148] Top shape: 24 384 7 7 (451584)
I0403 15:54:47.956353 11763 net.cpp:156] Memory required for data: 1328854560
I0403 15:54:47.956367 11763 layer_factory.hpp:77] Creating layer inception_5b/3x3_reduce
I0403 15:54:47.956392 11763 net.cpp:91] Creating Layer inception_5b/3x3_reduce
I0403 15:54:47.956409 11763 net.cpp:425] inception_5b/3x3_reduce <- inception_5a/output_inception_5a/output_0_split_1
I0403 15:54:47.956428 11763 net.cpp:399] inception_5b/3x3_reduce -> inception_5b/3x3_reduce
I0403 15:54:47.959110 11763 net.cpp:141] Setting up inception_5b/3x3_reduce
I0403 15:54:47.959141 11763 net.cpp:148] Top shape: 24 192 7 7 (225792)
I0403 15:54:47.959157 11763 net.cpp:156] Memory required for data: 1329757728
I0403 15:54:47.959175 11763 layer_factory.hpp:77] Creating layer inception_5b/relu_3x3_reduce
I0403 15:54:47.959193 11763 net.cpp:91] Creating Layer inception_5b/relu_3x3_reduce
I0403 15:54:47.959210 11763 net.cpp:425] inception_5b/relu_3x3_reduce <- inception_5b/3x3_reduce
I0403 15:54:47.959228 11763 net.cpp:386] inception_5b/relu_3x3_reduce -> inception_5b/3x3_reduce (in-place)
I0403 15:54:47.959419 11763 net.cpp:141] Setting up inception_5b/relu_3x3_reduce
I0403 15:54:47.959442 11763 net.cpp:148] Top shape: 24 192 7 7 (225792)
I0403 15:54:47.959456 11763 net.cpp:156] Memory required for data: 1330660896
I0403 15:54:47.959471 11763 layer_factory.hpp:77] Creating layer inception_5b/3x3
I0403 15:54:47.959492 11763 net.cpp:91] Creating Layer inception_5b/3x3
I0403 15:54:47.959509 11763 net.cpp:425] inception_5b/3x3 <- inception_5b/3x3_reduce
I0403 15:54:47.959530 11763 net.cpp:399] inception_5b/3x3 -> inception_5b/3x3
I0403 15:54:47.966138 11763 net.cpp:141] Setting up inception_5b/3x3
I0403 15:54:47.966168 11763 net.cpp:148] Top shape: 24 384 7 7 (451584)
I0403 15:54:47.966184 11763 net.cpp:156] Memory required for data: 1332467232
I0403 15:54:47.966205 11763 layer_factory.hpp:77] Creating layer inception_5b/relu_3x3
I0403 15:54:47.966223 11763 net.cpp:91] Creating Layer inception_5b/relu_3x3
I0403 15:54:47.966238 11763 net.cpp:425] inception_5b/relu_3x3 <- inception_5b/3x3
I0403 15:54:47.966258 11763 net.cpp:386] inception_5b/relu_3x3 -> inception_5b/3x3 (in-place)
I0403 15:54:47.966549 11763 net.cpp:141] Setting up inception_5b/relu_3x3
I0403 15:54:47.966577 11763 net.cpp:148] Top shape: 24 384 7 7 (451584)
I0403 15:54:47.966591 11763 net.cpp:156] Memory required for data: 1334273568
I0403 15:54:47.966606 11763 layer_factory.hpp:77] Creating layer inception_5b/5x5_reduce
I0403 15:54:47.966646 11763 net.cpp:91] Creating Layer inception_5b/5x5_reduce
I0403 15:54:47.966665 11763 net.cpp:425] inception_5b/5x5_reduce <- inception_5a/output_inception_5a/output_0_split_2
I0403 15:54:47.966686 11763 net.cpp:399] inception_5b/5x5_reduce -> inception_5b/5x5_reduce
I0403 15:54:47.967933 11763 net.cpp:141] Setting up inception_5b/5x5_reduce
I0403 15:54:47.967967 11763 net.cpp:148] Top shape: 24 48 7 7 (56448)
I0403 15:54:47.967983 11763 net.cpp:156] Memory required for data: 1334499360
I0403 15:54:47.968001 11763 layer_factory.hpp:77] Creating layer inception_5b/relu_5x5_reduce
I0403 15:54:47.968019 11763 net.cpp:91] Creating Layer inception_5b/relu_5x5_reduce
I0403 15:54:47.968034 11763 net.cpp:425] inception_5b/relu_5x5_reduce <- inception_5b/5x5_reduce
I0403 15:54:47.968055 11763 net.cpp:386] inception_5b/relu_5x5_reduce -> inception_5b/5x5_reduce (in-place)
I0403 15:54:47.968423 11763 net.cpp:141] Setting up inception_5b/relu_5x5_reduce
I0403 15:54:47.968449 11763 net.cpp:148] Top shape: 24 48 7 7 (56448)
I0403 15:54:47.968473 11763 net.cpp:156] Memory required for data: 1334725152
I0403 15:54:47.968488 11763 layer_factory.hpp:77] Creating layer inception_5b/5x5
I0403 15:54:47.968508 11763 net.cpp:91] Creating Layer inception_5b/5x5
I0403 15:54:47.968524 11763 net.cpp:425] inception_5b/5x5 <- inception_5b/5x5_reduce
I0403 15:54:47.968544 11763 net.cpp:399] inception_5b/5x5 -> inception_5b/5x5
I0403 15:54:47.970562 11763 net.cpp:141] Setting up inception_5b/5x5
I0403 15:54:47.970589 11763 net.cpp:148] Top shape: 24 128 7 7 (150528)
I0403 15:54:47.970604 11763 net.cpp:156] Memory required for data: 1335327264
I0403 15:54:47.970623 11763 layer_factory.hpp:77] Creating layer inception_5b/relu_5x5
I0403 15:54:47.970639 11763 net.cpp:91] Creating Layer inception_5b/relu_5x5
I0403 15:54:47.970655 11763 net.cpp:425] inception_5b/relu_5x5 <- inception_5b/5x5
I0403 15:54:47.970675 11763 net.cpp:386] inception_5b/relu_5x5 -> inception_5b/5x5 (in-place)
I0403 15:54:47.970867 11763 net.cpp:141] Setting up inception_5b/relu_5x5
I0403 15:54:47.970891 11763 net.cpp:148] Top shape: 24 128 7 7 (150528)
I0403 15:54:47.970906 11763 net.cpp:156] Memory required for data: 1335929376
I0403 15:54:47.970921 11763 layer_factory.hpp:77] Creating layer inception_5b/pool
I0403 15:54:47.970939 11763 net.cpp:91] Creating Layer inception_5b/pool
I0403 15:54:47.970962 11763 net.cpp:425] inception_5b/pool <- inception_5a/output_inception_5a/output_0_split_3
I0403 15:54:47.970980 11763 net.cpp:399] inception_5b/pool -> inception_5b/pool
I0403 15:54:47.971052 11763 net.cpp:141] Setting up inception_5b/pool
I0403 15:54:47.971076 11763 net.cpp:148] Top shape: 24 832 7 7 (978432)
I0403 15:54:47.971091 11763 net.cpp:156] Memory required for data: 1339843104
I0403 15:54:47.971104 11763 layer_factory.hpp:77] Creating layer inception_5b/pool_proj
I0403 15:54:47.971127 11763 net.cpp:91] Creating Layer inception_5b/pool_proj
I0403 15:54:47.971143 11763 net.cpp:425] inception_5b/pool_proj <- inception_5b/pool
I0403 15:54:47.971164 11763 net.cpp:399] inception_5b/pool_proj -> inception_5b/pool_proj
I0403 15:54:47.973439 11763 net.cpp:141] Setting up inception_5b/pool_proj
I0403 15:54:47.973470 11763 net.cpp:148] Top shape: 24 128 7 7 (150528)
I0403 15:54:47.973487 11763 net.cpp:156] Memory required for data: 1340445216
I0403 15:54:47.973506 11763 layer_factory.hpp:77] Creating layer inception_5b/relu_pool_proj
I0403 15:54:47.973525 11763 net.cpp:91] Creating Layer inception_5b/relu_pool_proj
I0403 15:54:47.973541 11763 net.cpp:425] inception_5b/relu_pool_proj <- inception_5b/pool_proj
I0403 15:54:47.973561 11763 net.cpp:386] inception_5b/relu_pool_proj -> inception_5b/pool_proj (in-place)
I0403 15:54:47.973856 11763 net.cpp:141] Setting up inception_5b/relu_pool_proj
I0403 15:54:47.973883 11763 net.cpp:148] Top shape: 24 128 7 7 (150528)
I0403 15:54:47.973899 11763 net.cpp:156] Memory required for data: 1341047328
I0403 15:54:47.973914 11763 layer_factory.hpp:77] Creating layer inception_5b/output
I0403 15:54:47.973932 11763 net.cpp:91] Creating Layer inception_5b/output
I0403 15:54:47.973964 11763 net.cpp:425] inception_5b/output <- inception_5b/1x1
I0403 15:54:47.973984 11763 net.cpp:425] inception_5b/output <- inception_5b/3x3
I0403 15:54:47.973999 11763 net.cpp:425] inception_5b/output <- inception_5b/5x5
I0403 15:54:47.974015 11763 net.cpp:425] inception_5b/output <- inception_5b/pool_proj
I0403 15:54:47.974035 11763 net.cpp:399] inception_5b/output -> inception_5b/output
I0403 15:54:47.974084 11763 net.cpp:141] Setting up inception_5b/output
I0403 15:54:47.974107 11763 net.cpp:148] Top shape: 24 1024 7 7 (1204224)
I0403 15:54:47.974123 11763 net.cpp:156] Memory required for data: 1345864224
I0403 15:54:47.974136 11763 layer_factory.hpp:77] Creating layer pool5/7x7_s1
I0403 15:54:47.974158 11763 net.cpp:91] Creating Layer pool5/7x7_s1
I0403 15:54:47.974174 11763 net.cpp:425] pool5/7x7_s1 <- inception_5b/output
I0403 15:54:47.974192 11763 net.cpp:399] pool5/7x7_s1 -> pool5/7x7_s1
I0403 15:54:47.974406 11763 net.cpp:141] Setting up pool5/7x7_s1
I0403 15:54:47.974429 11763 net.cpp:148] Top shape: 24 1024 1 1 (24576)
I0403 15:54:47.974444 11763 net.cpp:156] Memory required for data: 1345962528
I0403 15:54:47.974458 11763 layer_factory.hpp:77] Creating layer pool5/drop_7x7_s1
I0403 15:54:47.974475 11763 net.cpp:91] Creating Layer pool5/drop_7x7_s1
I0403 15:54:47.974491 11763 net.cpp:425] pool5/drop_7x7_s1 <- pool5/7x7_s1
I0403 15:54:47.974511 11763 net.cpp:386] pool5/drop_7x7_s1 -> pool5/7x7_s1 (in-place)
I0403 15:54:47.974560 11763 net.cpp:141] Setting up pool5/drop_7x7_s1
I0403 15:54:47.974582 11763 net.cpp:148] Top shape: 24 1024 1 1 (24576)
I0403 15:54:47.974596 11763 net.cpp:156] Memory required for data: 1346060832
I0403 15:54:47.974611 11763 layer_factory.hpp:77] Creating layer loss3/classifier_plantvillage
I0403 15:54:47.974632 11763 net.cpp:91] Creating Layer loss3/classifier_plantvillage
I0403 15:54:47.974649 11763 net.cpp:425] loss3/classifier_plantvillage <- pool5/7x7_s1
I0403 15:54:47.974668 11763 net.cpp:399] loss3/classifier_plantvillage -> loss3/classifier_plantvillage
I0403 15:54:47.975086 11763 net.cpp:141] Setting up loss3/classifier_plantvillage
I0403 15:54:47.975112 11763 net.cpp:148] Top shape: 24 38 (912)
I0403 15:54:47.975127 11763 net.cpp:156] Memory required for data: 1346064480
I0403 15:54:47.975145 11763 layer_factory.hpp:77] Creating layer loss3/classifier_plantvillage_loss3/classifier_plantvillage_0_split
I0403 15:54:47.975163 11763 net.cpp:91] Creating Layer loss3/classifier_plantvillage_loss3/classifier_plantvillage_0_split
I0403 15:54:47.975178 11763 net.cpp:425] loss3/classifier_plantvillage_loss3/classifier_plantvillage_0_split <- loss3/classifier_plantvillage
I0403 15:54:47.975196 11763 net.cpp:399] loss3/classifier_plantvillage_loss3/classifier_plantvillage_0_split -> loss3/classifier_plantvillage_loss3/classifier_plantvillage_0_split_0
I0403 15:54:47.975216 11763 net.cpp:399] loss3/classifier_plantvillage_loss3/classifier_plantvillage_0_split -> loss3/classifier_plantvillage_loss3/classifier_plantvillage_0_split_1
I0403 15:54:47.975235 11763 net.cpp:399] loss3/classifier_plantvillage_loss3/classifier_plantvillage_0_split -> loss3/classifier_plantvillage_loss3/classifier_plantvillage_0_split_2
I0403 15:54:47.975258 11763 net.cpp:399] loss3/classifier_plantvillage_loss3/classifier_plantvillage_0_split -> loss3/classifier_plantvillage_loss3/classifier_plantvillage_0_split_3
I0403 15:54:47.975358 11763 net.cpp:141] Setting up loss3/classifier_plantvillage_loss3/classifier_plantvillage_0_split
I0403 15:54:47.975379 11763 net.cpp:148] Top shape: 24 38 (912)
I0403 15:54:47.975395 11763 net.cpp:148] Top shape: 24 38 (912)
I0403 15:54:47.975410 11763 net.cpp:148] Top shape: 24 38 (912)
I0403 15:54:47.975425 11763 net.cpp:148] Top shape: 24 38 (912)
I0403 15:54:47.975440 11763 net.cpp:156] Memory required for data: 1346079072
I0403 15:54:47.975453 11763 layer_factory.hpp:77] Creating layer loss1/loss
I0403 15:54:47.975474 11763 net.cpp:91] Creating Layer loss1/loss
I0403 15:54:47.975492 11763 net.cpp:425] loss1/loss <- loss1/classifier_plantvillage_loss1/classifier_plantvillage_0_split_0
I0403 15:54:47.975522 11763 net.cpp:425] loss1/loss <- label_data_1_split_0
…
