…
I0403 15:41:46.738057 10999 net.cpp:313] The NetState phase (1) differed from the phase (0) specified by a rule in layer data
I0403 15:41:46.739150 10999 net.cpp:49] Initializing net from parameters: 
state {
  phase: TEST
}
layer {
  name: "data"
  type: "Data"
  top: "data"
  top: "label"
  include {
    phase: TEST
  }
  transform_param {
    mirror: false
    crop_size: 224
    mean_file: "/home/mohanty/data/final_dataset/lmdb/segmented-80-20/mean.binaryproto"
  }
  data_param {
    source: "/home/mohanty/data/final_dataset/lmdb/segmented-80-20/test_db"
    batch_size: 24
    backend: LMDB
  }
}
layer {
  name: "conv1/7x7_s2"
  type: "Convolution"
  bottom: "data"
  top: "conv1/7x7_s2"
  param {
    lr_mult: 1
    decay_mult: 1
  }
  param {
    lr_mult: 2
    decay_mult: 0
  }
  convolution_param {
    num_output: 64
    pad: 3
    kernel_size: 7
    stride: 2
    weight_filler {
      type: "xavier"
      std: 0.1
    }
    bias_filler {
      type: "constant"
      value: 0.2
    }
  }
}
layer {
  name: "conv1/relu_7x7"
  type: "ReLU"
  bottom: "conv1/7x7_s2"
  top: "conv1/7x7_s2"
}
layer {
  name: "pool1/3x3_s2"
  type: "Pooling"
  bottom: "conv1/7x7_s2"
  top: "pool1/3x3_s2"
  pooling_param {
    pool: MAX
    kernel_size: 3
    stride: 2
  }
}
layer {
  name: "pool1/norm1"
  type: "LRN"
  bottom: "pool1/3x3_s2"
  top: "pool1/norm1"
  lrn_param {
    local_size: 5
    alpha: 0.0001
    beta: 0.75
  }
}
layer {
  name: "conv2/3x3_reduce"
  type: "Convolution"
  bottom: "pool1/norm1"
  top: "conv2/3x3_reduce"
  param {
    lr_mult: 1
    decay_mult: 1
  }
  param {
    lr_mult: 2
    decay_mult: 0
  }
  convolution_param {
    num_output: 64
    kernel_size: 1
    weight_filler {
      type: "xavier"
      std: 0.1
    }
    bias_filler {
      type: "constant"
      value: 0.2
    }
  }
}
layer {
  name: "conv2/relu_3x3_reduce"
  type: "ReLU"
  bottom: "conv2/3x3_reduce"
  top: "conv2/3x3_reduce"
}
layer {
  name: "conv2/3x3"
  type: "Convolution"
  bottom: "conv2/3x3_reduce"
  top: "conv2/3x3"
  param {
    lr_mult: 1
    decay_mult: 1
  }
  param {
    lr_mult: 2
    decay_mult: 0
  }
  convolution_param {
    num_output: 192
    pad: 1
    kernel_size: 3
    weight_filler {
      type: "xavier"
      std: 0.03
    }
    bias_filler {
      type: "constant"
      value: 0.2
    }
  }
}
layer {
  name: "conv2/relu_3x3"
  type: "ReLU"
  bottom: "conv2/3x3"
  top: "conv2/3x3"
}
layer {
  name: "conv2/norm2"
  type: "LRN"
  bottom: "conv2/3x3"
  top: "conv2/norm2"
  lrn_param {
    local_size: 5
    alpha: 0.0001
    beta: 0.75
  }
}
layer {
  name: "pool2/3x3_s2"
  type: "Pooling"
  bottom: "conv2/norm2"
  top: "pool2/3x3_s2"
  pooling_param {
    pool: MAX
    kernel_size: 3
    stride: 2
  }
}
layer {
  name: "inception_3a/1x1"
  type: "Convolution"
  bottom: "pool2/3x3_s2"
  top: "inception_3a/1x1"
  param {
    lr_mult: 1
    decay_mult: 1
  }
  param {
    lr_mult: 2
    decay_mult: 0
  }
  convolution_param {
    num_output: 64
    kernel_size: 1
    weight_filler {
      type: "xavier"
      std: 0.03
    }
    bias_filler {
      type: "constant"
      value: 0.2
    }
  }
}
layer {
  name: "inception_3a/relu_1x1"
  type: "ReLU"
  bottom: "inception_3a/1x1"
  top: "inception_3a/1x1"
}
layer {
  name: "inception_3a/3x3_reduce"
  type: "Convolution"
  bottom: "pool2/3x3_s2"
  top: "inception_3a/3x3_reduce"
  param {
    lr_mult: 1
    decay_mult: 1
  }
  param {
    lr_mult: 2
    decay_mult: 0
  }
  convolution_param {
    num_output: 96
    kernel_size: 1
    weight_filler {
      type: "xavier"
      std: 0.09
    }
    bias_filler {
      type: "constant"
      value: 0.2
    }
  }
}
layer {
  name: "inception_3a/relu_3x3_reduce"
  type: "ReLU"
  bottom: "inception_3a/3x3_reduce"
  top: "inception_3a/3x3_reduce"
}
layer {
  name: "inception_3a/3x3"
  type: "Convolution"
  bottom: "inception_3a/3x3_reduce"
  top: "inception_3a/3x3"
  param {
    lr_mult: 1
    decay_mult: 1
  }
  param {
    lr_mult: 2
    decay_mult: 0
  }
  convolution_param {
    num_output: 128
    pad: 1
    kernel_size: 3
    weight_filler {
      type: "xavier"
      std: 0.03
    }
    bias_filler {
      type: "constant"
      value: 0.2
    }
  }
}
layer {
  name: "inception_3a/relu_3x3"
  type: "ReLU"
  bottom: "inception_3a/3x3"
  top: "inception_3a/3x3"
}
layer {
  name: "inception_3a/5x5_reduce"
  type: "Convolution"
  bottom: "pool2/3x3_s2"
  top: "inception_3a/5x5_reduce"
  param {
    lr_mult: 1
    decay_mult: 1
  }
  param {
    lr_mult: 2
    decay_mult: 0
  }
  convolution_param {
    num_output: 16
    kernel_size: 1
    weight_filler {
      type: "xavier"
      std: 0.2
    }
    bias_filler {
      type: "constant"
      value: 0.2
    }
  }
}
layer {
  name: "inception_3a/relu_5x5_reduce"
  type: "ReLU"
  bottom: "inception_3a/5x5_reduce"
  top: "inception_3a/5x5_reduce"
}
layer {
  name: "inception_3a/5x5"
  type: "Convolution"
  bottom: "inception_3a/5x5_reduce"
  top: "inception_3a/5x5"
  param {
    lr_mult: 1
    decay_mult: 1
  }
  param {
    lr_mult: 2
    decay_mult: 0
  }
  convolution_param {
    num_output: 32
    pad: 2
    kernel_size: 5
    weight_filler {
      type: "xavier"
      std: 0.03
    }
    bias_filler {
      type: "constant"
      value: 0.2
    }
  }
}
layer {
  name: "inception_3a/relu_5x5"
  type: "ReLU"
  bottom: "inception_3a/5x5"
  top: "inception_3a/5x5"
}
layer {
  name: "inception_3a/pool"
  type: "Pooling"
  bottom: "pool2/3x3_s2"
  top: "inception_3a/pool"
  pooling_param {
    pool: MAX
    kernel_size: 3
    stride: 1
    pad: 1
  }
}
layer {
  name: "inception_3a/pool_proj"
  type: "Convolution"
  bottom: "inception_3a/pool"
  top: "inception_3a/pool_proj"
  param {
    lr_mult: 1
    decay_mult: 1
  }
  param {
    lr_mult: 2
    decay_mult: 0
  }
  convolution_param {
    num_output: 32
    kernel_size: 1
    weight_filler {
      type: "xavier"
      std: 0.1
    }
    bias_filler {
      type: "constant"
      value: 0.2
    }
  }
}
layer {
  name: "inception_3a/relu_pool_proj"
  type: "ReLU"
  bottom: "inception_3a/pool_proj"
  top: "inception_3a/pool_proj"
}
layer {
  name: "inception_3a/output"
  type: "Concat"
  bottom: "inception_3a/1x1"
  bottom: "inception_3a/3x3"
  bottom: "inception_3a/5x5"
  bottom: "inception_3a/pool_proj"
  top: "inception_3a/output"
}
layer {
  name: "inception_3b/1x1"
  type: "Convolution"
  bottom: "inception_3a/output"
  top: "inception_3b/1x1"
  param {
    lr_mult: 1
    decay_mult: 1
  }
  param {
    lr_mult: 2
    decay_mult: 0
  }
  convolution_param {
    num_output: 128
    kernel_size: 1
    weight_filler {
      type: "xavier"
      std: 0.03
    }
    bias_filler {
      type: "constant"
      value: 0.2
    }
  }
}
layer {
  name: "inception_3b/relu_1x1"
  type: "ReLU"
  bottom: "inception_3b/1x1"
  top: "inception_3b/1x1"
}
layer {
  name: "inception_3b/3x3_reduce"
  type: "Convolution"
  bottom: "inception_3a/output"
  top: "inception_3b/3x3_reduce"
  param {
    lr_mult: 1
    decay_mult: 1
  }
  param {
    lr_mult: 2
    decay_mult: 0
  }
  convolution_param {
    num_output: 128
    kernel_size: 1
    weight_filler {
      type: "xavier"
      std: 0.09
    }
    bias_filler {
      type: "constant"
      value: 0.2
    }
  }
}
layer {
  name: "inception_3b/relu_3x3_reduce"
  type: "ReLU"
  bottom: "inception_3b/3x3_reduce"
  top: "inception_3b/3x3_reduce"
}
layer {
  name: "inception_3b/3x3"
  type: "Convolution"
  bottom: "inception_3b/3x3_reduce"
  top: "inception_3b/3x3"
  param {
    lr_mult: 1
    decay_mult: 1
  }
  param {
    lr_mult: 2
    decay_mult: 0
  }
  convolution_param {
    num_output: 192
    pad: 1
    kernel_size: 3
    weight_filler {
      type: "xavier"
      std: 0.03
    }
    bias_filler {
      type: "constant"
      value: 0.2
    }
  }
}
layer {
  name: "inception_3b/relu_3x3"
  type: "ReLU"
  bottom: "inception_3b/3x3"
  top: "inception_3b/3x3"
}
layer {
  name: "inception_3b/5x5_reduce"
  type: "Convolution"
  bottom: "inception_3a/output"
  top: "inception_3b/5x5_reduce"
  param {
    lr_mult: 1
    decay_mult: 1
  }
  param {
    lr_mult: 2
    decay_mult: 0
  }
  convolution_param {
    num_output: 32
    kernel_size: 1
    weight_filler {
      type: "xavier"
      std: 0.2
    }
    bias_filler {
      type: "constant"
      value: 0.2
    }
  }
}
layer {
  name: "inception_3b/relu_5x5_reduce"
  type: "ReLU"
  bottom: "inception_3b/5x5_reduce"
  top: "inception_3b/5x5_reduce"
}
layer {
  name: "inception_3b/5x5"
  type: "Convolution"
  bottom: "inception_3b/5x5_reduce"
  top: "inception_3b/5x5"
  param {
    lr_mult: 1
    decay_mult: 1
  }
  param {
    lr_mult: 2
    decay_mult: 0
  }
  convolution_param {
    num_output: 96
    pad: 2
    kernel_size: 5
    weight_filler {
      type: "xavier"
      std: 0.03
    }
    bias_filler {
      type: "constant"
      value: 0.2
    }
  }
}
layer {
  name: "inception_3b/relu_5x5"
  type: "ReLU"
  bottom: "inception_3b/5x5"
  top: "inception_3b/5x5"
}
layer {
  name: "inception_3b/pool"
  type: "Pooling"
  bottom: "inception_3a/output"
  top: "inception_3b/pool"
  pooling_param {
    pool: MAX
    kernel_size: 3
    stride: 1
    pad: 1
  }
}
layer {
  name: "inception_3b/pool_proj"
  type: "Convolution"
  bottom: "inception_3b/pool"
  top: "inception_3b/pool_proj"
  param {
    lr_mult: 1
    decay_mult: 1
  }
  param {
    lr_mult: 2
    decay_mult: 0
  }
  convolution_param {
    num_output: 64
    kernel_size: 1
    weight_filler {
      type: "xavier"
      std: 0.1
    }
    bias_filler {
      type: "constant"
      value: 0.2
    }
  }
}
layer {
  name: "inception_3b/relu_pool_proj"
  type: "ReLU"
  bottom: "inception_3b/pool_proj"
  top: "inception_3b/pool_proj"
}
layer {
  name: "inception_3b/output"
  type: "Concat"
  bottom: "inception_3b/1x1"
  bottom: "inception_3b/3x3"
  bottom: "inception_3b/5x5"
  bottom: "inception_3b/pool_proj"
  top: "inception_3b/output"
}
layer {
  name: "pool3/3x3_s2"
  type: "Pooling"
  bottom: "inception_3b/output"
  top: "pool3/3x3_s2"
  pooling_param {
    pool: MAX
    kernel_size: 3
    stride: 2
  }
}
layer {
  name: "inception_4a/1x1"
  type: "Convolution"
  bottom: "pool3/3x3_s2"
  top: "inception_4a/1x1"
  param {
    lr_mult: 1
    decay_mult: 1
  }
  param {
    lr_mult: 2
    decay_mult: 0
  }
  convolution_param {
    num_output: 192
    kernel_size: 1
    weight_filler {
      type: "xavier"
      std: 0.03
    }
    bias_filler {
      type: "constant"
      value: 0.2
    }
  }
}
layer {
  name: "inception_4a/relu_1x1"
  type: "ReLU"
  bottom: "inception_4a/1x1"
  top: "inception_4a/1x1"
}
layer {
  name: "inception_4a/3x3_reduce"
  type: "Convolution"
  bottom: "pool3/3x3_s2"
  top: "inception_4a/3x3_reduce"
  param {
    lr_mult: 1
    decay_mult: 1
  }
  param {
    lr_mult: 2
    decay_mult: 0
  }
  convolution_param {
    num_output: 96
    kernel_size: 1
    weight_filler {
      type: "xavier"
      std: 0.09
    }
    bias_filler {
      type: "constant"
      value: 0.2
    }
  }
}
layer {
  name: "inception_4a/relu_3x3_reduce"
  type: "ReLU"
  bottom: "inception_4a/3x3_reduce"
  top: "inception_4a/3x3_reduce"
}
layer {
  name: "inception_4a/3x3"
  type: "Convolution"
  bottom: "inception_4a/3x3_reduce"
  top: "inception_4a/3x3"
  param {
    lr_mult: 1
    decay_mult: 1
  }
  param {
    lr_mult: 2
    decay_mult: 0
  }
  convolution_param {
    num_output: 208
    pad: 1
    kernel_size: 3
    weight_filler {
      type: "xavier"
      std: 0.03
    }
    bias_filler {
      type: "constant"
      value: 0.2
    }
  }
}
layer {
  name: "inception_4a/relu_3x3"
  type: "ReLU"
  bottom: "inception_4a/3x3"
  top: "inception_4a/3x3"
}
layer {
  name: "inception_4a/5x5_reduce"
  type: "Convolution"
  bottom: "pool3/3x3_s2"
  top: "inception_4a/5x5_reduce"
  param {
    lr_mult: 1
    decay_mult: 1
  }
  param {
    lr_mult: 2
    decay_mult: 0
  }
  convolution_param {
    num_output: 16
    kernel_size: 1
    weight_filler {
      type: "xavier"
      std: 0.2
    }
    bias_filler {
      type: "constant"
      value: 0.2
    }
  }
}
layer {
  name: "inception_4a/relu_5x5_reduce"
  type: "ReLU"
  bottom: "inception_4a/5x5_reduce"
  top: "inception_4a/5x5_reduce"
}
layer {
  name: "inception_4a/5x5"
  type: "Convolution"
  bottom: "inception_4a/5x5_reduce"
  top: "inception_4a/5x5"
  param {
    lr_mult: 1
    decay_mult: 1
  }
  param {
    lr_mult: 2
    decay_mult: 0
  }
  convolution_param {
    num_output: 48
    pad: 2
    kernel_size: 5
    weight_filler {
      type: "xavier"
      std: 0.03
    }
    bias_filler {
      type: "constant"
      value: 0.2
    }
  }
}
layer {
  name: "inception_4a/relu_5x5"
  type: "ReLU"
  bottom: "inception_4a/5x5"
  top: "inception_4a/5x5"
}
layer {
  name: "inception_4a/pool"
  type: "Pooling"
  bottom: "pool3/3x3_s2"
  top: "inception_4a/pool"
  pooling_param {
    pool: MAX
    kernel_size: 3
    stride: 1
    pad: 1
  }
}
layer {
  name: "inception_4a/pool_proj"
  type: "Convolution"
  bottom: "inception_4a/pool"
  top: "inception_4a/pool_proj"
  param {
    lr_mult: 1
    decay_mult: 1
  }
  param {
    lr_mult: 2
    decay_mult: 0
  }
  convolution_param {
    num_output: 64
    kernel_size: 1
    weight_filler {
      type: "xavier"
      std: 0.1
    }
    bias_filler {
      type: "constant"
      value: 0.2
    }
  }
}
layer {
  name: "inception_4a/relu_pool_proj"
  type: "ReLU"
  bottom: "inception_4a/pool_proj"
  top: "inception_4a/pool_proj"
}
layer {
  name: "inception_4a/output"
  type: "Concat"
  bottom: "inception_4a/1x1"
  bottom: "inception_4a/3x3"
  bottom: "inception_4a/5x5"
  bottom: "inception_4a/pool_proj"
  top: "inception_4a/output"
}
layer {
  name: "loss1/ave_pool"
  type: "Pooling"
  bottom: "inception_4a/output"
  top: "loss1/ave_pool"
  pooling_param {
    pool: AVE
    kernel_size: 5
    stride: 3
  }
}
layer {
  name: "loss1/conv"
  type: "Convolution"
  bottom: "loss1/ave_pool"
  top: "loss1/conv"
  param {
    lr_mult: 1
    decay_mult: 1
  }
  param {
    lr_mult: 2
    decay_mult: 0
  }
  convolution_param {
    num_output: 128
    kernel_size: 1
    weight_filler {
      type: "xavier"
      std: 0.08
    }
    bias_filler {
      type: "constant"
      value: 0.2
    }
  }
}
layer {
  name: "loss1/relu_conv"
  type: "ReLU"
  bottom: "loss1/conv"
  top: "loss1/conv"
}
layer {
  name: "loss1/fc"
  type: "InnerProduct"
  bottom: "loss1/conv"
  top: "loss1/fc"
  param {
    lr_mult: 1
    decay_mult: 1
  }
  param {
    lr_mult: 2
    decay_mult: 0
  }
  inner_product_param {
    num_output: 1024
    weight_filler {
      type: "xavier"
      std: 0.02
    }
    bias_filler {
      type: "constant"
      value: 0.2
    }
  }
}
layer {
  name: "loss1/relu_fc"
  type: "ReLU"
  bottom: "loss1/fc"
  top: "loss1/fc"
}
layer {
  name: "loss1/drop_fc"
  type: "Dropout"
  bottom: "loss1/fc"
  top: "loss1/fc"
  dropout_param {
    dropout_ratio: 0.7
  }
}
layer {
  name: "loss1/classifier_plantvillage"
  type: "InnerProduct"
  bottom: "loss1/fc"
  top: "loss1/classifier_plantvillage"
  param {
    lr_mult: 1
    decay_mult: 1
  }
  param {
    lr_mult: 2
    decay_mult: 0
  }
  inner_product_param {
    num_output: 38
    weight_filler {
      type: "xavier"
      std: 0.0009765625
    }
    bias_filler {
      type: "constant"
      value: 0
    }
  }
}
layer {
  name: "inception_4b/1x1"
  type: "Convolution"
  bottom: "inception_4a/output"
  top: "inception_4b/1x1"
  param {
    lr_mult: 1
    decay_mult: 1
  }
  param {
    lr_mult: 2
    decay_mult: 0
  }
  convolution_param {
    num_output: 160
    kernel_size: 1
    weight_filler {
      type: "xavier"
      std: 0.03
    }
    bias_filler {
      type: "constant"
      value: 0.2
    }
  }
}
layer {
  name: "inception_4b/relu_1x1"
  type: "ReLU"
  bottom: "inception_4b/1x1"
  top: "inception_4b/1x1"
}
layer {
  name: "inception_4b/3x3_reduce"
  type: "Convolution"
  bottom: "inception_4a/output"
  top: "inception_4b/3x3_reduce"
  param {
    lr_mult: 1
    decay_mult: 1
  }
  param {
    lr_mult: 2
    decay_mult: 0
  }
  convolution_param {
    num_output: 112
    kernel_size: 1
    weight_filler {
      type: "xavier"
      std: 0.09
    }
    bias_filler {
      type: "constant"
      value: 0.2
    }
  }
}
layer {
  name: "inception_4b/relu_3x3_reduce"
  type: "ReLU"
  bottom: "inception_4b/3x3_reduce"
  top: "inception_4b/3x3_reduce"
}
layer {
  name: "inception_4b/3x3"
  type: "Convolution"
  bottom: "inception_4b/3x3_reduce"
  top: "inception_4b/3x3"
  param {
    lr_mult: 1
    decay_mult: 1
  }
  param {
    lr_mult: 2
    decay_mult: 0
  }
  convolution_param {
    num_output: 224
    pad: 1
    kernel_size: 3
    weight_filler {
      type: "xavier"
      std: 0.03
    }
    bias_filler {
      type: "constant"
      value: 0.2
    }
  }
}
layer {
  name: "inception_4b/relu_3x3"
  type: "ReLU"
  bottom: "inception_4b/3x3"
  top: "inception_4b/3x3"
}
layer {
  name: "inception_4b/5x5_reduce"
  type: "Convolution"
  bottom: "inception_4a/output"
  top: "inception_4b/5x5_reduce"
  param {
    lr_mult: 1
    decay_mult: 1
  }
  param {
    lr_mult: 2
    decay_mult: 0
  }
  convolution_param {
    num_output: 24
    kernel_size: 1
    weight_filler {
      type: "xavier"
      std: 0.2
    }
    bias_filler {
      type: "constant"
      value: 0.2
    }
  }
}
layer {
  name: "inception_4b/relu_5x5_reduce"
  type: "ReLU"
  bottom: "inception_4b/5x5_reduce"
  top: "inception_4b/5x5_reduce"
}
layer {
  name: "inception_4b/5x5"
  type: "Convolution"
  bottom: "inception_4b/5x5_reduce"
  top: "inception_4b/5x5"
  param {
    lr_mult: 1
    decay_mult: 1
  }
  param {
    lr_mult: 2
    decay_mult: 0
  }
  convolution_param {
    num_output: 64
    pad: 2
    kernel_size: 5
    weight_filler {
      type: "xavier"
      std: 0.03
    }
    bias_filler {
      type: "constant"
      value: 0.2
    }
  }
}
layer {
  name: "inception_4b/relu_5x5"
  type: "ReLU"
  bottom: "inception_4b/5x5"
  top: "inception_4b/5x5"
}
layer {
  name: "inception_4b/pool"
  type: "Pooling"
  bottom: "inception_4a/output"
  top: "inception_4b/pool"
  pooling_param {
    pool: MAX
    kernel_size: 3
    stride: 1
    pad: 1
  }
}
layer {
  name: "inception_4b/pool_proj"
  type: "Convolution"
  bottom: "inception_4b/pool"
  top: "inception_4b/pool_proj"
  param {
    lr_mult: 1
    decay_mult: 1
  }
  param {
    lr_mult: 2
    decay_mult: 0
  }
  convolution_param {
    num_output: 64
    kernel_size: 1
    weight_filler {
      type: "xavier"
      std: 0.1
    }
    bias_filler {
      type: "constant"
      value: 0.2
    }
  }
}
layer {
  name: "inception_4b/relu_pool_proj"
  type: "ReLU"
  bottom: "inception_4b/pool_proj"
  top: "inception_4b/pool_proj"
}
layer {
  name: "inception_4b/output"
  type: "Concat"
  bottom: "inception_4b/1x1"
  bottom: "inception_4b/3x3"
  bottom: "inception_4b/5x5"
  bottom: "inception_4b/pool_proj"
  top: "inception_4b/output"
}
layer {
  name: "inception_4c/1x1"
  type: "Convolution"
  bottom: "inception_4b/output"
  top: "inception_4c/1x1"
  param {
    lr_mult: 1
    decay_mult: 1
  }
  param {
    lr_mult: 2
    decay_mult: 0
  }
  convolution_param {
    num_output: 128
    kernel_size: 1
    weight_filler {
      type: "xavier"
      std: 0.03
    }
    bias_filler {
      type: "constant"
      value: 0.2
    }
  }
}
layer {
  name: "inception_4c/relu_1x1"
  type: "ReLU"
  bottom: "inception_4c/1x1"
  top: "inception_4c/1x1"
}
layer {
  name: "inception_4c/3x3_reduce"
  type: "Convolution"
  bottom: "inception_4b/output"
  top: "inception_4c/3x3_reduce"
  param {
    lr_mult: 1
    decay_mult: 1
  }
  param {
    lr_mult: 2
    decay_mult: 0
  }
  convolution_param {
    num_output: 128
    kernel_size: 1
    weight_filler {
      type: "xavier"
      std: 0.09
    }
    bias_filler {
      type: "constant"
      value: 0.2
    }
  }
}
layer {
  name: "inception_4c/relu_3x3_reduce"
  type: "ReLU"
  bottom: "inception_4c/3x3_reduce"
  top: "inception_4c/3x3_reduce"
}
layer {
  name: "inception_4c/3x3"
  type: "Convolution"
  bottom: "inception_4c/3x3_reduce"
  top: "inception_4c/3x3"
  param {
    lr_mult: 1
    decay_mult: 1
  }
  param {
    lr_mult: 2
    decay_mult: 0
  }
  convolution_param {
    num_output: 256
    pad: 1
    kernel_size: 3
    weight_filler {
      type: "xavier"
      std: 0.03
    }
    bias_filler {
      type: "constant"
      value: 0.2
    }
  }
}
layer {
  name: "inception_4c/relu_3x3"
  type: "ReLU"
  bottom: "inception_4c/3x3"
  top: "inception_4c/3x3"
}
layer {
  name: "inception_4c/5x5_reduce"
  type: "Convolution"
  bottom: "inception_4b/output"
  top: "inception_4c/5x5_reduce"
  param {
    lr_mult: 1
    decay_mult: 1
  }
  param {
    lr_mult: 2
    decay_mult: 0
  }
  convolution_param {
    num_output: 24
    kernel_size: 1
    weight_filler {
      type: "xavier"
      std: 0.2
    }
    bias_filler {
      type: "constant"
      value: 0.2
    }
  }
}
layer {
  name: "inception_4c/relu_5x5_reduce"
  type: "ReLU"
  bottom: "inception_4c/5x5_reduce"
  top: "inception_4c/5x5_reduce"
}
layer {
  name: "inception_4c/5x5"
  type: "Convolution"
  bottom: "inception_4c/5x5_reduce"
  top: "inception_4c/5x5"
  param {
    lr_mult: 1
    decay_mult: 1
  }
  param {
    lr_mult: 2
    decay_mult: 0
  }
  convolution_param {
    num_output: 64
    pad: 2
    kernel_size: 5
    weight_filler {
      type: "xavier"
      std: 0.03
    }
    bias_filler {
      type: "constant"
      value: 0.2
    }
  }
}
layer {
  name: "inception_4c/relu_5x5"
  type: "ReLU"
  bottom: "inception_4c/5x5"
  top: "inception_4c/5x5"
}
layer {
  name: "inception_4c/pool"
  type: "Pooling"
  bottom: "inception_4b/output"
  top: "inception_4c/pool"
  pooling_param {
    pool: MAX
    kernel_size: 3
    stride: 1
    pad: 1
  }
}
layer {
  name: "inception_4c/pool_proj"
  type: "Convolution"
  bottom: "inception_4c/pool"
  top: "inception_4c/pool_proj"
  param {
    lr_mult: 1
    decay_mult: 1
  }
  param {
    lr_mult: 2
    decay_mult: 0
  }
  convolution_param {
    num_output: 64
    kernel_size: 1
    weight_filler {
      type: "xavier"
      std: 0.1
    }
    bias_filler {
      type: "constant"
      value: 0.2
    }
  }
}
layer {
  name: "inception_4c/relu_pool_proj"
  type: "ReLU"
  bottom: "inception_4c/pool_proj"
  top: "inception_4c/pool_proj"
}
layer {
  name: "inception_4c/output"
  type: "Concat"
  bottom: "inception_4c/1x1"
  bottom: "inception_4c/3x3"
  bottom: "inception_4c/5x5"
  bottom: "inception_4c/pool_proj"
  top: "inception_4c/output"
}
layer {
  name: "inception_4d/1x1"
  type: "Convolution"
  bottom: "inception_4c/output"
  top: "inception_4d/1x1"
  param {
    lr_mult: 1
    decay_mult: 1
  }
  param {
    lr_mult: 2
    decay_mult: 0
  }
  convolution_param {
    num_output: 112
    kernel_size: 1
    weight_filler {
      type: "xavier"
      std: 0.03
    }
    bias_filler {
      type: "constant"
      value: 0.2
    }
  }
}
layer {
  name: "inception_4d/relu_1x1"
  type: "ReLU"
  bottom: "inception_4d/1x1"
  top: "inception_4d/1x1"
}
layer {
  name: "inception_4d/3x3_reduce"
  type: "Convolution"
  bottom: "inception_4c/output"
  top: "inception_4d/3x3_reduce"
  param {
    lr_mult: 1
    decay_mult: 1
  }
  param {
    lr_mult: 2
    decay_mult: 0
  }
  convolution_param {
    num_output: 144
    kernel_size: 1
    weight_filler {
      type: "xavier"
      std: 0.09
    }
    bias_filler {
      type: "constant"
      value: 0.2
    }
  }
}
layer {
  name: "inception_4d/relu_3x3_reduce"
  type: "ReLU"
  bottom: "inception_4d/3x3_reduce"
  top: "inception_4d/3x3_reduce"
}
layer {
  name: "inception_4d/3x3"
  type: "Convolution"
  bottom: "inception_4d/3x3_reduce"
  top: "inception_4d/3x3"
  param {
    lr_mult: 1
    decay_mult: 1
  }
  param {
    lr_mult: 2
    decay_mult: 0
  }
  convolution_param {
    num_output: 288
    pad: 1
    kernel_size: 3
    weight_filler {
      type: "xavier"
      std: 0.03
    }
    bias_filler {
      type: "constant"
      value: 0.2
    }
  }
}
layer {
  name: "inception_4d/relu_3x3"
  type: "ReLU"
  bottom: "inception_4d/3x3"
  top: "inception_4d/3x3"
}
layer {
  name: "inception_4d/5x5_reduce"
  type: "Convolution"
  bottom: "inception_4c/output"
  top: "inception_4d/5x5_reduce"
  param {
    lr_mult: 1
    decay_mult: 1
  }
  param {
    lr_mult: 2
    decay_mult: 0
  }
  convolution_param {
    num_output: 32
    kernel_size: 1
    weight_filler {
      type: "xavier"
      std: 0.2
    }
    bias_filler {
      type: "constant"
      value: 0.2
    }
  }
}
layer {
  name: "inception_4d/relu_5x5_reduce"
  type: "ReLU"
  bottom: "inception_4d/5x5_reduce"
  top: "inception_4d/5x5_reduce"
}
layer {
  name: "inception_4d/5x5"
  type: "Convolution"
  bottom: "inception_4d/5x5_reduce"
  top: "inception_4d/5x5"
  param {
    lr_mult: 1
    decay_mult: 1
  }
  param {
    lr_mult: 2
    decay_mult: 0
  }
  convolution_param {
    num_output: 64
    pad: 2
    kernel_size: 5
    weight_filler {
      type: "xavier"
      std: 0.03
    }
    bias_filler {
      type: "constant"
      value: 0.2
    }
  }
}
layer {
  name: "inception_4d/relu_5x5"
  type: "ReLU"
  bottom: "inception_4d/5x5"
  top: "inception_4d/5x5"
}
layer {
  name: "inception_4d/pool"
  type: "Pooling"
  bottom: "inception_4c/output"
  top: "inception_4d/pool"
  pooling_param {
    pool: MAX
    kernel_size: 3
    stride: 1
    pad: 1
  }
}
layer {
  name: "inception_4d/pool_proj"
  type: "Convolution"
  bottom: "inception_4d/pool"
  top: "inception_4d/pool_proj"
  param {
    lr_mult: 1
    decay_mult: 1
  }
  param {
    lr_mult: 2
    decay_mult: 0
  }
  convolution_param {
    num_output: 64
    kernel_size: 1
    weight_filler {
      type: "xavier"
      std: 0.1
    }
    bias_filler {
      type: "constant"
      value: 0.2
    }
  }
}
layer {
  name: "inception_4d/relu_pool_proj"
  type: "ReLU"
  bottom: "inception_4d/pool_proj"
  top: "inception_4d/pool_proj"
}
layer {
  name: "inception_4d/output"
  type: "Concat"
  bottom: "inception_4d/1x1"
  bottom: "inception_4d/3x3"
  bottom: "inception_4d/5x5"
  bottom: "inception_4d/pool_proj"
  top: "inception_4d/output"
}
layer {
  name: "loss2/ave_pool"
  type: "Pooling"
  bottom: "inception_4d/output"
  top: "loss2/ave_pool"
  pooling_param {
    pool: AVE
    kernel_size: 5
    stride: 3
  }
}
layer {
  name: "loss2/conv"
  type: "Convolution"
  bottom: "loss2/ave_pool"
  top: "loss2/conv"
  param {
    lr_mult: 1
    decay_mult: 1
  }
  param {
    lr_mult: 2
    decay_mult: 0
  }
  convolution_param {
    num_output: 128
    kernel_size: 1
    weight_filler {
      type: "xavier"
      std: 0.08
    }
    bias_filler {
      type: "constant"
      value: 0.2
    }
  }
}
layer {
  name: "loss2/relu_conv"
  type: "ReLU"
  bottom: "loss2/conv"
  top: "loss2/conv"
}
layer {
  name: "loss2/fc"
  type: "InnerProduct"
  bottom: "loss2/conv"
  top: "loss2/fc"
  param {
    lr_mult: 1
    decay_mult: 1
  }
  param {
    lr_mult: 2
    decay_mult: 0
  }
  inner_product_param {
    num_output: 1024
    weight_filler {
      type: "xavier"
      std: 0.02
    }
    bias_filler {
      type: "constant"
      value: 0.2
    }
  }
}
layer {
  name: "loss2/relu_fc"
  type: "ReLU"
  bottom: "loss2/fc"
  top: "loss2/fc"
}
layer {
  name: "loss2/drop_fc"
  type: "Dropout"
  bottom: "loss2/fc"
  top: "loss2/fc"
  dropout_param {
    dropout_ratio: 0.7
  }
}
layer {
  name: "loss2/classifier_plantvillage"
  type: "InnerProduct"
  bottom: "loss2/fc"
  top: "loss2/classifier_plantvillage"
  param {
    lr_mult: 1
    decay_mult: 1
  }
  param {
    lr_mult: 2
    decay_mult: 0
  }
  inner_product_param {
    num_output: 38
    weight_filler {
      type: "xavier"
      std: 0.0009765625
    }
    bias_filler {
      type: "constant"
      value: 0
    }
  }
}
layer {
  name: "inception_4e/1x1"
  type: "Convolution"
  bottom: "inception_4d/output"
  top: "inception_4e/1x1"
  param {
    lr_mult: 1
    decay_mult: 1
  }
  param {
    lr_mult: 2
    decay_mult: 0
  }
  convolution_param {
    num_output: 256
    kernel_size: 1
    weight_filler {
      type: "xavier"
      std: 0.03
    }
    bias_filler {
      type: "constant"
      value: 0.2
    }
  }
}
layer {
  name: "inception_4e/relu_1x1"
  type: "ReLU"
  bottom: "inception_4e/1x1"
  top: "inception_4e/1x1"
}
layer {
  name: "inception_4e/3x3_reduce"
  type: "Convolution"
  bottom: "inception_4d/output"
  top: "inception_4e/3x3_reduce"
  param {
    lr_mult: 1
    decay_mult: 1
  }
  param {
    lr_mult: 2
    decay_mult: 0
  }
  convolution_param {
    num_output: 160
    kernel_size: 1
    weight_filler {
      type: "xavier"
      std: 0.09
    }
    bias_filler {
      type: "constant"
      value: 0.2
    }
  }
}
layer {
  name: "inception_4e/relu_3x3_reduce"
  type: "ReLU"
  bottom: "inception_4e/3x3_reduce"
  top: "inception_4e/3x3_reduce"
}
layer {
  name: "inception_4e/3x3"
  type: "Convolution"
  bottom: "inception_4e/3x3_reduce"
  top: "inception_4e/3x3"
  param {
    lr_mult: 1
    decay_mult: 1
  }
  param {
    lr_mult: 2
    decay_mult: 0
  }
  convolution_param {
    num_output: 320
    pad: 1
    kernel_size: 3
    weight_filler {
      type: "xavier"
      std: 0.03
    }
    bias_filler {
      type: "constant"
      value: 0.2
    }
  }
}
layer {
  name: "inception_4e/relu_3x3"
  type: "ReLU"
  bottom: "inception_4e/3x3"
  top: "inception_4e/3x3"
}
layer {
  name: "inception_4e/5x5_reduce"
  type: "Convolution"
  bottom: "inception_4d/output"
  top: "inception_4e/5x5_reduce"
  param {
    lr_mult: 1
    decay_mult: 1
  }
  param {
    lr_mult: 2
    decay_mult: 0
  }
  convolution_param {
    num_output: 32
    kernel_size: 1
    weight_filler {
      type: "xavier"
      std: 0.2
    }
    bias_filler {
      type: "constant"
      value: 0.2
    }
  }
}
layer {
  name: "inception_4e/relu_5x5_reduce"
  type: "ReLU"
  bottom: "inception_4e/5x5_reduce"
  top: "inception_4e/5x5_reduce"
}
layer {
  name: "inception_4e/5x5"
  type: "Convolution"
  bottom: "inception_4e/5x5_reduce"
  top: "inception_4e/
I0403 15:41:46.740357 10999 layer_factory.hpp:77] Creating layer data
I0403 15:41:46.740937 10999 net.cpp:91] Creating Layer data
I0403 15:41:46.740967 10999 net.cpp:399] data -> data
I0403 15:41:46.741024 10999 net.cpp:399] data -> label
I0403 15:41:46.741061 10999 data_transformer.cpp:25] Loading mean file from: /home/mohanty/data/final_dataset/lmdb/segmented-80-20/mean.binaryproto
I0403 15:41:46.744001 11001 db_lmdb.cpp:38] Opened lmdb /home/mohanty/data/final_dataset/lmdb/segmented-80-20/test_db
I0403 15:41:46.754124 10999 data_layer.cpp:41] output data size: 24,3,224,224
I0403 15:41:46.781199 10999 net.cpp:141] Setting up data
I0403 15:41:46.781286 10999 net.cpp:148] Top shape: 24 3 224 224 (3612672)
I0403 15:41:46.781307 10999 net.cpp:148] Top shape: 24 (24)
I0403 15:41:46.781322 10999 net.cpp:156] Memory required for data: 14450784
I0403 15:41:46.781349 10999 layer_factory.hpp:77] Creating layer label_data_1_split
I0403 15:41:46.781374 10999 net.cpp:91] Creating Layer label_data_1_split
I0403 15:41:46.781394 10999 net.cpp:425] label_data_1_split <- label
I0403 15:41:46.781424 10999 net.cpp:399] label_data_1_split -> label_data_1_split_0
I0403 15:41:46.781452 10999 net.cpp:399] label_data_1_split -> label_data_1_split_1
I0403 15:41:46.781472 10999 net.cpp:399] label_data_1_split -> label_data_1_split_2
I0403 15:41:46.781492 10999 net.cpp:399] label_data_1_split -> label_data_1_split_3
I0403 15:41:46.781512 10999 net.cpp:399] label_data_1_split -> label_data_1_split_4
I0403 15:41:46.781532 10999 net.cpp:399] label_data_1_split -> label_data_1_split_5
I0403 15:41:46.781550 10999 net.cpp:399] label_data_1_split -> label_data_1_split_6
I0403 15:41:46.781569 10999 net.cpp:399] label_data_1_split -> label_data_1_split_7
I0403 15:41:46.781589 10999 net.cpp:399] label_data_1_split -> label_data_1_split_8
I0403 15:41:46.781607 10999 net.cpp:399] label_data_1_split -> label_data_1_split_9
I0403 15:41:46.781723 10999 net.cpp:141] Setting up label_data_1_split
I0403 15:41:46.781745 10999 net.cpp:148] Top shape: 24 (24)
I0403 15:41:46.781762 10999 net.cpp:148] Top shape: 24 (24)
I0403 15:41:46.781779 10999 net.cpp:148] Top shape: 24 (24)
I0403 15:41:46.781793 10999 net.cpp:148] Top shape: 24 (24)
I0403 15:41:46.781810 10999 net.cpp:148] Top shape: 24 (24)
I0403 15:41:46.781824 10999 net.cpp:148] Top shape: 24 (24)
I0403 15:41:46.781841 10999 net.cpp:148] Top shape: 24 (24)
I0403 15:41:46.781855 10999 net.cpp:148] Top shape: 24 (24)
I0403 15:41:46.781870 10999 net.cpp:148] Top shape: 24 (24)
I0403 15:41:46.781886 10999 net.cpp:148] Top shape: 24 (24)
I0403 15:41:46.781929 10999 net.cpp:156] Memory required for data: 14451744
I0403 15:41:46.781945 10999 layer_factory.hpp:77] Creating layer conv1/7x7_s2
I0403 15:41:46.781981 10999 net.cpp:91] Creating Layer conv1/7x7_s2
I0403 15:41:46.782001 10999 net.cpp:425] conv1/7x7_s2 <- data
I0403 15:41:46.782021 10999 net.cpp:399] conv1/7x7_s2 -> conv1/7x7_s2
I0403 15:41:46.920719 10999 net.cpp:141] Setting up conv1/7x7_s2
I0403 15:41:46.920804 10999 net.cpp:148] Top shape: 24 64 112 112 (19267584)
I0403 15:41:46.920822 10999 net.cpp:156] Memory required for data: 91522080
I0403 15:41:46.920851 10999 layer_factory.hpp:77] Creating layer conv1/relu_7x7
I0403 15:41:46.920881 10999 net.cpp:91] Creating Layer conv1/relu_7x7
I0403 15:41:46.920898 10999 net.cpp:425] conv1/relu_7x7 <- conv1/7x7_s2
I0403 15:41:46.920917 10999 net.cpp:386] conv1/relu_7x7 -> conv1/7x7_s2 (in-place)
I0403 15:41:46.921183 10999 net.cpp:141] Setting up conv1/relu_7x7
I0403 15:41:46.921231 10999 net.cpp:148] Top shape: 24 64 112 112 (19267584)
I0403 15:41:46.921250 10999 net.cpp:156] Memory required for data: 168592416
I0403 15:41:46.921265 10999 layer_factory.hpp:77] Creating layer pool1/3x3_s2
I0403 15:41:46.921290 10999 net.cpp:91] Creating Layer pool1/3x3_s2
I0403 15:41:46.921308 10999 net.cpp:425] pool1/3x3_s2 <- conv1/7x7_s2
I0403 15:41:46.921327 10999 net.cpp:399] pool1/3x3_s2 -> pool1/3x3_s2
I0403 15:41:46.921404 10999 net.cpp:141] Setting up pool1/3x3_s2
I0403 15:41:46.921429 10999 net.cpp:148] Top shape: 24 64 56 56 (4816896)
I0403 15:41:46.921444 10999 net.cpp:156] Memory required for data: 187860000
I0403 15:41:46.921459 10999 layer_factory.hpp:77] Creating layer pool1/norm1
I0403 15:41:46.921485 10999 net.cpp:91] Creating Layer pool1/norm1
I0403 15:41:46.921514 10999 net.cpp:425] pool1/norm1 <- pool1/3x3_s2
I0403 15:41:46.921531 10999 net.cpp:399] pool1/norm1 -> pool1/norm1
I0403 15:41:46.921825 10999 net.cpp:141] Setting up pool1/norm1
I0403 15:41:46.921851 10999 net.cpp:148] Top shape: 24 64 56 56 (4816896)
I0403 15:41:46.921866 10999 net.cpp:156] Memory required for data: 207127584
I0403 15:41:46.921881 10999 layer_factory.hpp:77] Creating layer conv2/3x3_reduce
I0403 15:41:46.921910 10999 net.cpp:91] Creating Layer conv2/3x3_reduce
I0403 15:41:46.921928 10999 net.cpp:425] conv2/3x3_reduce <- pool1/norm1
I0403 15:41:46.921947 10999 net.cpp:399] conv2/3x3_reduce -> conv2/3x3_reduce
I0403 15:41:46.923341 10999 net.cpp:141] Setting up conv2/3x3_reduce
I0403 15:41:46.923370 10999 net.cpp:148] Top shape: 24 64 56 56 (4816896)
I0403 15:41:46.923387 10999 net.cpp:156] Memory required for data: 226395168
I0403 15:41:46.923418 10999 layer_factory.hpp:77] Creating layer conv2/relu_3x3_reduce
I0403 15:41:46.923439 10999 net.cpp:91] Creating Layer conv2/relu_3x3_reduce
I0403 15:41:46.923454 10999 net.cpp:425] conv2/relu_3x3_reduce <- conv2/3x3_reduce
I0403 15:41:46.923471 10999 net.cpp:386] conv2/relu_3x3_reduce -> conv2/3x3_reduce (in-place)
I0403 15:41:46.923732 10999 net.cpp:141] Setting up conv2/relu_3x3_reduce
I0403 15:41:46.923758 10999 net.cpp:148] Top shape: 24 64 56 56 (4816896)
I0403 15:41:46.923773 10999 net.cpp:156] Memory required for data: 245662752
I0403 15:41:46.923787 10999 layer_factory.hpp:77] Creating layer conv2/3x3
I0403 15:41:46.923810 10999 net.cpp:91] Creating Layer conv2/3x3
I0403 15:41:46.923826 10999 net.cpp:425] conv2/3x3 <- conv2/3x3_reduce
I0403 15:41:46.923848 10999 net.cpp:399] conv2/3x3 -> conv2/3x3
I0403 15:41:46.926203 10999 net.cpp:141] Setting up conv2/3x3
I0403 15:41:46.926232 10999 net.cpp:148] Top shape: 24 192 56 56 (14450688)
I0403 15:41:46.926249 10999 net.cpp:156] Memory required for data: 303465504
I0403 15:41:46.926270 10999 layer_factory.hpp:77] Creating layer conv2/relu_3x3
I0403 15:41:46.926290 10999 net.cpp:91] Creating Layer conv2/relu_3x3
I0403 15:41:46.926306 10999 net.cpp:425] conv2/relu_3x3 <- conv2/3x3
I0403 15:41:46.926322 10999 net.cpp:386] conv2/relu_3x3 -> conv2/3x3 (in-place)
I0403 15:41:46.926488 10999 net.cpp:141] Setting up conv2/relu_3x3
I0403 15:41:46.926513 10999 net.cpp:148] Top shape: 24 192 56 56 (14450688)
I0403 15:41:46.926558 10999 net.cpp:156] Memory required for data: 361268256
I0403 15:41:46.926573 10999 layer_factory.hpp:77] Creating layer conv2/norm2
I0403 15:41:46.926592 10999 net.cpp:91] Creating Layer conv2/norm2
I0403 15:41:46.926609 10999 net.cpp:425] conv2/norm2 <- conv2/3x3
I0403 15:41:46.926627 10999 net.cpp:399] conv2/norm2 -> conv2/norm2
I0403 15:41:46.926919 10999 net.cpp:141] Setting up conv2/norm2
I0403 15:41:46.926945 10999 net.cpp:148] Top shape: 24 192 56 56 (14450688)
I0403 15:41:46.926960 10999 net.cpp:156] Memory required for data: 419071008
I0403 15:41:46.926975 10999 layer_factory.hpp:77] Creating layer pool2/3x3_s2
I0403 15:41:46.926996 10999 net.cpp:91] Creating Layer pool2/3x3_s2
I0403 15:41:46.927012 10999 net.cpp:425] pool2/3x3_s2 <- conv2/norm2
I0403 15:41:46.927032 10999 net.cpp:399] pool2/3x3_s2 -> pool2/3x3_s2
I0403 15:41:46.927086 10999 net.cpp:141] Setting up pool2/3x3_s2
I0403 15:41:46.927111 10999 net.cpp:148] Top shape: 24 192 28 28 (3612672)
I0403 15:41:46.927126 10999 net.cpp:156] Memory required for data: 433521696
I0403 15:41:46.927140 10999 layer_factory.hpp:77] Creating layer pool2/3x3_s2_pool2/3x3_s2_0_split
I0403 15:41:46.927157 10999 net.cpp:91] Creating Layer pool2/3x3_s2_pool2/3x3_s2_0_split
I0403 15:41:46.927172 10999 net.cpp:425] pool2/3x3_s2_pool2/3x3_s2_0_split <- pool2/3x3_s2
I0403 15:41:46.927189 10999 net.cpp:399] pool2/3x3_s2_pool2/3x3_s2_0_split -> pool2/3x3_s2_pool2/3x3_s2_0_split_0
I0403 15:41:46.927208 10999 net.cpp:399] pool2/3x3_s2_pool2/3x3_s2_0_split -> pool2/3x3_s2_pool2/3x3_s2_0_split_1
I0403 15:41:46.927234 10999 net.cpp:399] pool2/3x3_s2_pool2/3x3_s2_0_split -> pool2/3x3_s2_pool2/3x3_s2_0_split_2
I0403 15:41:46.927255 10999 net.cpp:399] pool2/3x3_s2_pool2/3x3_s2_0_split -> pool2/3x3_s2_pool2/3x3_s2_0_split_3
I0403 15:41:46.927325 10999 net.cpp:141] Setting up pool2/3x3_s2_pool2/3x3_s2_0_split
I0403 15:41:46.927346 10999 net.cpp:148] Top shape: 24 192 28 28 (3612672)
I0403 15:41:46.927362 10999 net.cpp:148] Top shape: 24 192 28 28 (3612672)
I0403 15:41:46.927377 10999 net.cpp:148] Top shape: 24 192 28 28 (3612672)
I0403 15:41:46.927393 10999 net.cpp:148] Top shape: 24 192 28 28 (3612672)
I0403 15:41:46.927407 10999 net.cpp:156] Memory required for data: 491324448
I0403 15:41:46.927420 10999 layer_factory.hpp:77] Creating layer inception_3a/1x1
I0403 15:41:46.927443 10999 net.cpp:91] Creating Layer inception_3a/1x1
I0403 15:41:46.927459 10999 net.cpp:425] inception_3a/1x1 <- pool2/3x3_s2_pool2/3x3_s2_0_split_0
I0403 15:41:46.927479 10999 net.cpp:399] inception_3a/1x1 -> inception_3a/1x1
I0403 15:41:46.929023 10999 net.cpp:141] Setting up inception_3a/1x1
I0403 15:41:46.929052 10999 net.cpp:148] Top shape: 24 64 28 28 (1204224)
I0403 15:41:46.929069 10999 net.cpp:156] Memory required for data: 496141344
I0403 15:41:46.929086 10999 layer_factory.hpp:77] Creating layer inception_3a/relu_1x1
I0403 15:41:46.929105 10999 net.cpp:91] Creating Layer inception_3a/relu_1x1
I0403 15:41:46.929121 10999 net.cpp:425] inception_3a/relu_1x1 <- inception_3a/1x1
I0403 15:41:46.929141 10999 net.cpp:386] inception_3a/relu_1x1 -> inception_3a/1x1 (in-place)
I0403 15:41:46.929306 10999 net.cpp:141] Setting up inception_3a/relu_1x1
I0403 15:41:46.929340 10999 net.cpp:148] Top shape: 24 64 28 28 (1204224)
I0403 15:41:46.929357 10999 net.cpp:156] Memory required for data: 500958240
I0403 15:41:46.929370 10999 layer_factory.hpp:77] Creating layer inception_3a/3x3_reduce
I0403 15:41:46.929393 10999 net.cpp:91] Creating Layer inception_3a/3x3_reduce
I0403 15:41:46.929409 10999 net.cpp:425] inception_3a/3x3_reduce <- pool2/3x3_s2_pool2/3x3_s2_0_split_1
I0403 15:41:46.929430 10999 net.cpp:399] inception_3a/3x3_reduce -> inception_3a/3x3_reduce
I0403 15:41:46.931193 10999 net.cpp:141] Setting up inception_3a/3x3_reduce
I0403 15:41:46.931223 10999 net.cpp:148] Top shape: 24 96 28 28 (1806336)
I0403 15:41:46.931239 10999 net.cpp:156] Memory required for data: 508183584
I0403 15:41:46.931262 10999 layer_factory.hpp:77] Creating layer inception_3a/relu_3x3_reduce
I0403 15:41:46.931298 10999 net.cpp:91] Creating Layer inception_3a/relu_3x3_reduce
I0403 15:41:46.931316 10999 net.cpp:425] inception_3a/relu_3x3_reduce <- inception_3a/3x3_reduce
I0403 15:41:46.931334 10999 net.cpp:386] inception_3a/relu_3x3_reduce -> inception_3a/3x3_reduce (in-place)
I0403 15:41:46.931510 10999 net.cpp:141] Setting up inception_3a/relu_3x3_reduce
I0403 15:41:46.931538 10999 net.cpp:148] Top shape: 24 96 28 28 (1806336)
I0403 15:41:46.931555 10999 net.cpp:156] Memory required for data: 515408928
I0403 15:41:46.931570 10999 layer_factory.hpp:77] Creating layer inception_3a/3x3
I0403 15:41:46.931607 10999 net.cpp:91] Creating Layer inception_3a/3x3
I0403 15:41:46.931624 10999 net.cpp:425] inception_3a/3x3 <- inception_3a/3x3_reduce
I0403 15:41:46.931646 10999 net.cpp:399] inception_3a/3x3 -> inception_3a/3x3
I0403 15:41:46.933357 10999 net.cpp:141] Setting up inception_3a/3x3
I0403 15:41:46.933385 10999 net.cpp:148] Top shape: 24 128 28 28 (2408448)
I0403 15:41:46.933400 10999 net.cpp:156] Memory required for data: 525042720
I0403 15:41:46.933418 10999 layer_factory.hpp:77] Creating layer inception_3a/relu_3x3
I0403 15:41:46.933442 10999 net.cpp:91] Creating Layer inception_3a/relu_3x3
I0403 15:41:46.933459 10999 net.cpp:425] inception_3a/relu_3x3 <- inception_3a/3x3
I0403 15:41:46.933477 10999 net.cpp:386] inception_3a/relu_3x3 -> inception_3a/3x3 (in-place)
I0403 15:41:46.933747 10999 net.cpp:141] Setting up inception_3a/relu_3x3
I0403 15:41:46.933773 10999 net.cpp:148] Top shape: 24 128 28 28 (2408448)
I0403 15:41:46.933789 10999 net.cpp:156] Memory required for data: 534676512
I0403 15:41:46.933804 10999 layer_factory.hpp:77] Creating layer inception_3a/5x5_reduce
I0403 15:41:46.933830 10999 net.cpp:91] Creating Layer inception_3a/5x5_reduce
I0403 15:41:46.933846 10999 net.cpp:425] inception_3a/5x5_reduce <- pool2/3x3_s2_pool2/3x3_s2_0_split_2
I0403 15:41:46.933867 10999 net.cpp:399] inception_3a/5x5_reduce -> inception_3a/5x5_reduce
I0403 15:41:46.934849 10999 net.cpp:141] Setting up inception_3a/5x5_reduce
I0403 15:41:46.934877 10999 net.cpp:148] Top shape: 24 16 28 28 (301056)
I0403 15:41:46.934892 10999 net.cpp:156] Memory required for data: 535880736
I0403 15:41:46.934911 10999 layer_factory.hpp:77] Creating layer inception_3a/relu_5x5_reduce
I0403 15:41:46.934933 10999 net.cpp:91] Creating Layer inception_3a/relu_5x5_reduce
I0403 15:41:46.934950 10999 net.cpp:425] inception_3a/relu_5x5_reduce <- inception_3a/5x5_reduce
I0403 15:41:46.934967 10999 net.cpp:386] inception_3a/relu_5x5_reduce -> inception_3a/5x5_reduce (in-place)
I0403 15:41:46.935264 10999 net.cpp:141] Setting up inception_3a/relu_5x5_reduce
I0403 15:41:46.935292 10999 net.cpp:148] Top shape: 24 16 28 28 (301056)
I0403 15:41:46.935309 10999 net.cpp:156] Memory required for data: 537084960
I0403 15:41:46.935338 10999 layer_factory.hpp:77] Creating layer inception_3a/5x5
I0403 15:41:46.935360 10999 net.cpp:91] Creating Layer inception_3a/5x5
I0403 15:41:46.935377 10999 net.cpp:425] inception_3a/5x5 <- inception_3a/5x5_reduce
I0403 15:41:46.935396 10999 net.cpp:399] inception_3a/5x5 -> inception_3a/5x5
I0403 15:41:46.936455 10999 net.cpp:141] Setting up inception_3a/5x5
I0403 15:41:46.936483 10999 net.cpp:148] Top shape: 24 32 28 28 (602112)
I0403 15:41:46.936498 10999 net.cpp:156] Memory required for data: 539493408
I0403 15:41:46.936517 10999 layer_factory.hpp:77] Creating layer inception_3a/relu_5x5
I0403 15:41:46.936537 10999 net.cpp:91] Creating Layer inception_3a/relu_5x5
I0403 15:41:46.936555 10999 net.cpp:425] inception_3a/relu_5x5 <- inception_3a/5x5
I0403 15:41:46.936573 10999 net.cpp:386] inception_3a/relu_5x5 -> inception_3a/5x5 (in-place)
I0403 15:41:46.936743 10999 net.cpp:141] Setting up inception_3a/relu_5x5
I0403 15:41:46.936779 10999 net.cpp:148] Top shape: 24 32 28 28 (602112)
I0403 15:41:46.936799 10999 net.cpp:156] Memory required for data: 541901856
I0403 15:41:46.936813 10999 layer_factory.hpp:77] Creating layer inception_3a/pool
I0403 15:41:46.936831 10999 net.cpp:91] Creating Layer inception_3a/pool
I0403 15:41:46.936861 10999 net.cpp:425] inception_3a/pool <- pool2/3x3_s2_pool2/3x3_s2_0_split_3
I0403 15:41:46.936882 10999 net.cpp:399] inception_3a/pool -> inception_3a/pool
I0403 15:41:46.936946 10999 net.cpp:141] Setting up inception_3a/pool
I0403 15:41:46.936971 10999 net.cpp:148] Top shape: 24 192 28 28 (3612672)
I0403 15:41:46.936991 10999 net.cpp:156] Memory required for data: 556352544
I0403 15:41:46.937007 10999 layer_factory.hpp:77] Creating layer inception_3a/pool_proj
I0403 15:41:46.937031 10999 net.cpp:91] Creating Layer inception_3a/pool_proj
I0403 15:41:46.937048 10999 net.cpp:425] inception_3a/pool_proj <- inception_3a/pool
I0403 15:41:46.937083 10999 net.cpp:399] inception_3a/pool_proj -> inception_3a/pool_proj
I0403 15:41:46.938087 10999 net.cpp:141] Setting up inception_3a/pool_proj
I0403 15:41:46.938115 10999 net.cpp:148] Top shape: 24 32 28 28 (602112)
I0403 15:41:46.938132 10999 net.cpp:156] Memory required for data: 558760992
I0403 15:41:46.938153 10999 layer_factory.hpp:77] Creating layer inception_3a/relu_pool_proj
I0403 15:41:46.938174 10999 net.cpp:91] Creating Layer inception_3a/relu_pool_proj
I0403 15:41:46.938191 10999 net.cpp:425] inception_3a/relu_pool_proj <- inception_3a/pool_proj
I0403 15:41:46.938210 10999 net.cpp:386] inception_3a/relu_pool_proj -> inception_3a/pool_proj (in-place)
I0403 15:41:46.938488 10999 net.cpp:141] Setting up inception_3a/relu_pool_proj
I0403 15:41:46.938513 10999 net.cpp:148] Top shape: 24 32 28 28 (602112)
I0403 15:41:46.938529 10999 net.cpp:156] Memory required for data: 561169440
I0403 15:41:46.938544 10999 layer_factory.hpp:77] Creating layer inception_3a/output
I0403 15:41:46.938561 10999 net.cpp:91] Creating Layer inception_3a/output
I0403 15:41:46.938577 10999 net.cpp:425] inception_3a/output <- inception_3a/1x1
I0403 15:41:46.938594 10999 net.cpp:425] inception_3a/output <- inception_3a/3x3
I0403 15:41:46.938611 10999 net.cpp:425] inception_3a/output <- inception_3a/5x5
I0403 15:41:46.938627 10999 net.cpp:425] inception_3a/output <- inception_3a/pool_proj
I0403 15:41:46.938647 10999 net.cpp:399] inception_3a/output -> inception_3a/output
I0403 15:41:46.938695 10999 net.cpp:141] Setting up inception_3a/output
I0403 15:41:46.938719 10999 net.cpp:148] Top shape: 24 256 28 28 (4816896)
I0403 15:41:46.938735 10999 net.cpp:156] Memory required for data: 580437024
I0403 15:41:46.938748 10999 layer_factory.hpp:77] Creating layer inception_3a/output_inception_3a/output_0_split
I0403 15:41:46.938766 10999 net.cpp:91] Creating Layer inception_3a/output_inception_3a/output_0_split
I0403 15:41:46.938781 10999 net.cpp:425] inception_3a/output_inception_3a/output_0_split <- inception_3a/output
I0403 15:41:46.938801 10999 net.cpp:399] inception_3a/output_inception_3a/output_0_split -> inception_3a/output_inception_3a/output_0_split_0
I0403 15:41:46.938820 10999 net.cpp:399] inception_3a/output_inception_3a/output_0_split -> inception_3a/output_inception_3a/output_0_split_1
I0403 15:41:46.938843 10999 net.cpp:399] inception_3a/output_inception_3a/output_0_split -> inception_3a/output_inception_3a/output_0_split_2
I0403 15:41:46.938868 10999 net.cpp:399] inception_3a/output_inception_3a/output_0_split -> inception_3a/output_inception_3a/output_0_split_3
I0403 15:41:46.938942 10999 net.cpp:141] Setting up inception_3a/output_inception_3a/output_0_split
I0403 15:41:46.938966 10999 net.cpp:148] Top shape: 24 256 28 28 (4816896)
I0403 15:41:46.938987 10999 net.cpp:148] Top shape: 24 256 28 28 (4816896)
I0403 15:41:46.939004 10999 net.cpp:148] Top shape: 24 256 28 28 (4816896)
I0403 15:41:46.939020 10999 net.cpp:148] Top shape: 24 256 28 28 (4816896)
I0403 15:41:46.939034 10999 net.cpp:156] Memory required for data: 657507360
I0403 15:41:46.939049 10999 layer_factory.hpp:77] Creating layer inception_3b/1x1
I0403 15:41:46.939070 10999 net.cpp:91] Creating Layer inception_3b/1x1
I0403 15:41:46.939088 10999 net.cpp:425] inception_3b/1x1 <- inception_3a/output_inception_3a/output_0_split_0
I0403 15:41:46.939110 10999 net.cpp:399] inception_3b/1x1 -> inception_3b/1x1
I0403 15:41:46.940245 10999 net.cpp:141] Setting up inception_3b/1x1
I0403 15:41:46.940284 10999 net.cpp:148] Top shape: 24 128 28 28 (2408448)
I0403 15:41:46.940300 10999 net.cpp:156] Memory required for data: 667141152
I0403 15:41:46.940318 10999 layer_factory.hpp:77] Creating layer inception_3b/relu_1x1
I0403 15:41:46.940337 10999 net.cpp:91] Creating Layer inception_3b/relu_1x1
I0403 15:41:46.940353 10999 net.cpp:425] inception_3b/relu_1x1 <- inception_3b/1x1
I0403 15:41:46.940374 10999 net.cpp:386] inception_3b/relu_1x1 -> inception_3b/1x1 (in-place)
I0403 15:41:46.940548 10999 net.cpp:141] Setting up inception_3b/relu_1x1
I0403 15:41:46.940573 10999 net.cpp:148] Top shape: 24 128 28 28 (2408448)
I0403 15:41:46.940589 10999 net.cpp:156] Memory required for data: 676774944
I0403 15:41:46.940603 10999 layer_factory.hpp:77] Creating layer inception_3b/3x3_reduce
I0403 15:41:46.940626 10999 net.cpp:91] Creating Layer inception_3b/3x3_reduce
I0403 15:41:46.940644 10999 net.cpp:425] inception_3b/3x3_reduce <- inception_3a/output_inception_3a/output_0_split_1
I0403 15:41:46.940665 10999 net.cpp:399] inception_3b/3x3_reduce -> inception_3b/3x3_reduce
I0403 15:41:46.941802 10999 net.cpp:141] Setting up inception_3b/3x3_reduce
I0403 15:41:46.941830 10999 net.cpp:148] Top shape: 24 128 28 28 (2408448)
I0403 15:41:46.941848 10999 net.cpp:156] Memory required for data: 686408736
I0403 15:41:46.941866 10999 layer_factory.hpp:77] Creating layer inception_3b/relu_3x3_reduce
I0403 15:41:46.941885 10999 net.cpp:91] Creating Layer inception_3b/relu_3x3_reduce
I0403 15:41:46.941913 10999 net.cpp:425] inception_3b/relu_3x3_reduce <- inception_3b/3x3_reduce
I0403 15:41:46.941934 10999 net.cpp:386] inception_3b/relu_3x3_reduce -> inception_3b/3x3_reduce (in-place)
I0403 15:41:46.942117 10999 net.cpp:141] Setting up inception_3b/relu_3x3_reduce
I0403 15:41:46.942143 10999 net.cpp:148] Top shape: 24 128 28 28 (2408448)
I0403 15:41:46.942159 10999 net.cpp:156] Memory required for data: 696042528
I0403 15:41:46.942175 10999 layer_factory.hpp:77] Creating layer inception_3b/3x3
I0403 15:41:46.942214 10999 net.cpp:91] Creating Layer inception_3b/3x3
I0403 15:41:46.942232 10999 net.cpp:425] inception_3b/3x3 <- inception_3b/3x3_reduce
I0403 15:41:46.942251 10999 net.cpp:399] inception_3b/3x3 -> inception_3b/3x3
I0403 15:41:46.945225 10999 net.cpp:141] Setting up inception_3b/3x3
I0403 15:41:46.945255 10999 net.cpp:148] Top shape: 24 192 28 28 (3612672)
I0403 15:41:46.945271 10999 net.cpp:156] Memory required for data: 710493216
I0403 15:41:46.945289 10999 layer_factory.hpp:77] Creating layer inception_3b/relu_3x3
I0403 15:41:46.945314 10999 net.cpp:91] Creating Layer inception_3b/relu_3x3
I0403 15:41:46.945333 10999 net.cpp:425] inception_3b/relu_3x3 <- inception_3b/3x3
I0403 15:41:46.945350 10999 net.cpp:386] inception_3b/relu_3x3 -> inception_3b/3x3 (in-place)
I0403 15:41:46.945637 10999 net.cpp:141] Setting up inception_3b/relu_3x3
I0403 15:41:46.945664 10999 net.cpp:148] Top shape: 24 192 28 28 (3612672)
I0403 15:41:46.945679 10999 net.cpp:156] Memory required for data: 724943904
I0403 15:41:46.945694 10999 layer_factory.hpp:77] Creating layer inception_3b/5x5_reduce
I0403 15:41:46.945718 10999 net.cpp:91] Creating Layer inception_3b/5x5_reduce
I0403 15:41:46.945735 10999 net.cpp:425] inception_3b/5x5_reduce <- inception_3a/output_inception_3a/output_0_split_2
I0403 15:41:46.945756 10999 net.cpp:399] inception_3b/5x5_reduce -> inception_3b/5x5_reduce
I0403 15:41:46.946739 10999 net.cpp:141] Setting up inception_3b/5x5_reduce
I0403 15:41:46.946768 10999 net.cpp:148] Top shape: 24 32 28 28 (602112)
I0403 15:41:46.946784 10999 net.cpp:156] Memory required for data: 727352352
I0403 15:41:46.946802 10999 layer_factory.hpp:77] Creating layer inception_3b/relu_5x5_reduce
I0403 15:41:46.946823 10999 net.cpp:91] Creating Layer inception_3b/relu_5x5_reduce
I0403 15:41:46.946841 10999 net.cpp:425] inception_3b/relu_5x5_reduce <- inception_3b/5x5_reduce
I0403 15:41:46.946857 10999 net.cpp:386] inception_3b/relu_5x5_reduce -> inception_3b/5x5_reduce (in-place)
I0403 15:41:46.947046 10999 net.cpp:141] Setting up inception_3b/relu_5x5_reduce
I0403 15:41:46.947074 10999 net.cpp:148] Top shape: 24 32 28 28 (602112)
I0403 15:41:46.947103 10999 net.cpp:156] Memory required for data: 729760800
I0403 15:41:46.947118 10999 layer_factory.hpp:77] Creating layer inception_3b/5x5
I0403 15:41:46.947139 10999 net.cpp:91] Creating Layer inception_3b/5x5
I0403 15:41:46.947156 10999 net.cpp:425] inception_3b/5x5 <- inception_3b/5x5_reduce
I0403 15:41:46.947177 10999 net.cpp:399] inception_3b/5x5 -> inception_3b/5x5
I0403 15:41:46.949277 10999 net.cpp:141] Setting up inception_3b/5x5
I0403 15:41:46.949306 10999 net.cpp:148] Top shape: 24 96 28 28 (1806336)
I0403 15:41:46.949321 10999 net.cpp:156] Memory required for data: 736986144
I0403 15:41:46.949338 10999 layer_factory.hpp:77] Creating layer inception_3b/relu_5x5
I0403 15:41:46.949355 10999 net.cpp:91] Creating Layer inception_3b/relu_5x5
I0403 15:41:46.949372 10999 net.cpp:425] inception_3b/relu_5x5 <- inception_3b/5x5
I0403 15:41:46.949390 10999 net.cpp:386] inception_3b/relu_5x5 -> inception_3b/5x5 (in-place)
I0403 15:41:46.949576 10999 net.cpp:141] Setting up inception_3b/relu_5x5
I0403 15:41:46.949600 10999 net.cpp:148] Top shape: 24 96 28 28 (1806336)
I0403 15:41:46.949615 10999 net.cpp:156] Memory required for data: 744211488
I0403 15:41:46.949722 10999 layer_factory.hpp:77] Creating layer inception_3b/pool
I0403 15:41:46.949740 10999 net.cpp:91] Creating Layer inception_3b/pool
I0403 15:41:46.949758 10999 net.cpp:425] inception_3b/pool <- inception_3a/output_inception_3a/output_0_split_3
I0403 15:41:46.949776 10999 net.cpp:399] inception_3b/pool -> inception_3b/pool
I0403 15:41:46.949833 10999 net.cpp:141] Setting up inception_3b/pool
I0403 15:41:46.949857 10999 net.cpp:148] Top shape: 24 256 28 28 (4816896)
I0403 15:41:46.949872 10999 net.cpp:156] Memory required for data: 763479072
I0403 15:41:46.949888 10999 layer_factory.hpp:77] Creating layer inception_3b/pool_proj
I0403 15:41:46.949910 10999 net.cpp:91] Creating Layer inception_3b/pool_proj
I0403 15:41:46.949930 10999 net.cpp:425] inception_3b/pool_proj <- inception_3b/pool
I0403 15:41:46.949951 10999 net.cpp:399] inception_3b/pool_proj -> inception_3b/pool_proj
I0403 15:41:46.951064 10999 net.cpp:141] Setting up inception_3b/pool_proj
I0403 15:41:46.951092 10999 net.cpp:148] Top shape: 24 64 28 28 (1204224)
I0403 15:41:46.951108 10999 net.cpp:156] Memory required for data: 768295968
I0403 15:41:46.951127 10999 layer_factory.hpp:77] Creating layer inception_3b/relu_pool_proj
I0403 15:41:46.951144 10999 net.cpp:91] Creating Layer inception_3b/relu_pool_proj
I0403 15:41:46.951160 10999 net.cpp:425] inception_3b/relu_pool_proj <- inception_3b/pool_proj
I0403 15:41:46.951177 10999 net.cpp:386] inception_3b/relu_pool_proj -> inception_3b/pool_proj (in-place)
I0403 15:41:46.951561 10999 net.cpp:141] Setting up inception_3b/relu_pool_proj
I0403 15:41:46.951586 10999 net.cpp:148] Top shape: 24 64 28 28 (1204224)
I0403 15:41:46.951601 10999 net.cpp:156] Memory required for data: 773112864
I0403 15:41:46.951616 10999 layer_factory.hpp:77] Creating layer inception_3b/output
I0403 15:41:46.951634 10999 net.cpp:91] Creating Layer inception_3b/output
I0403 15:41:46.951652 10999 net.cpp:425] inception_3b/output <- inception_3b/1x1
I0403 15:41:46.951668 10999 net.cpp:425] inception_3b/output <- inception_3b/3x3
I0403 15:41:46.951683 10999 net.cpp:425] inception_3b/output <- inception_3b/5x5
I0403 15:41:46.951699 10999 net.cpp:425] inception_3b/output <- inception_3b/pool_proj
I0403 15:41:46.951715 10999 net.cpp:399] inception_3b/output -> inception_3b/output
I0403 15:41:46.951761 10999 net.cpp:141] Setting up inception_3b/output
I0403 15:41:46.951782 10999 net.cpp:148] Top shape: 24 480 28 28 (9031680)
I0403 15:41:46.951797 10999 net.cpp:156] Memory required for data: 809239584
I0403 15:41:46.951810 10999 layer_factory.hpp:77] Creating layer pool3/3x3_s2
I0403 15:41:46.951827 10999 net.cpp:91] Creating Layer pool3/3x3_s2
I0403 15:41:46.951843 10999 net.cpp:425] pool3/3x3_s2 <- inception_3b/output
I0403 15:41:46.951876 10999 net.cpp:399] pool3/3x3_s2 -> pool3/3x3_s2
I0403 15:41:46.951935 10999 net.cpp:141] Setting up pool3/3x3_s2
I0403 15:41:46.951956 10999 net.cpp:148] Top shape: 24 480 14 14 (2257920)
I0403 15:41:46.951969 10999 net.cpp:156] Memory required for data: 818271264
I0403 15:41:46.951988 10999 layer_factory.hpp:77] Creating layer pool3/3x3_s2_pool3/3x3_s2_0_split
I0403 15:41:46.952008 10999 net.cpp:91] Creating Layer pool3/3x3_s2_pool3/3x3_s2_0_split
I0403 15:41:46.952024 10999 net.cpp:425] pool3/3x3_s2_pool3/3x3_s2_0_split <- pool3/3x3_s2
I0403 15:41:46.952042 10999 net.cpp:399] pool3/3x3_s2_pool3/3x3_s2_0_split -> pool3/3x3_s2_pool3/3x3_s2_0_split_0
I0403 15:41:46.952062 10999 net.cpp:399] pool3/3x3_s2_pool3/3x3_s2_0_split -> pool3/3x3_s2_pool3/3x3_s2_0_split_1
I0403 15:41:46.952081 10999 net.cpp:399] pool3/3x3_s2_pool3/3x3_s2_0_split -> pool3/3x3_s2_pool3/3x3_s2_0_split_2
I0403 15:41:46.952100 10999 net.cpp:399] pool3/3x3_s2_pool3/3x3_s2_0_split -> pool3/3x3_s2_pool3/3x3_s2_0_split_3
I0403 15:41:46.952173 10999 net.cpp:141] Setting up pool3/3x3_s2_pool3/3x3_s2_0_split
I0403 15:41:46.952198 10999 net.cpp:148] Top shape: 24 480 14 14 (2257920)
I0403 15:41:46.952214 10999 net.cpp:148] Top shape: 24 480 14 14 (2257920)
I0403 15:41:46.952241 10999 net.cpp:148] Top shape: 24 480 14 14 (2257920)
I0403 15:41:46.952257 10999 net.cpp:148] Top shape: 24 480 14 14 (2257920)
I0403 15:41:46.952270 10999 net.cpp:156] Memory required for data: 854397984
I0403 15:41:46.952286 10999 layer_factory.hpp:77] Creating layer inception_4a/1x1
I0403 15:41:46.952306 10999 net.cpp:91] Creating Layer inception_4a/1x1
I0403 15:41:46.952324 10999 net.cpp:425] inception_4a/1x1 <- pool3/3x3_s2_pool3/3x3_s2_0_split_0
I0403 15:41:46.952343 10999 net.cpp:399] inception_4a/1x1 -> inception_4a/1x1
I0403 15:41:46.953948 10999 net.cpp:141] Setting up inception_4a/1x1
I0403 15:41:46.953980 10999 net.cpp:148] Top shape: 24 192 14 14 (903168)
I0403 15:41:46.953999 10999 net.cpp:156] Memory required for data: 858010656
I0403 15:41:46.954016 10999 layer_factory.hpp:77] Creating layer inception_4a/relu_1x1
I0403 15:41:46.954035 10999 net.cpp:91] Creating Layer inception_4a/relu_1x1
I0403 15:41:46.954051 10999 net.cpp:425] inception_4a/relu_1x1 <- inception_4a/1x1
I0403 15:41:46.954067 10999 net.cpp:386] inception_4a/relu_1x1 -> inception_4a/1x1 (in-place)
I0403 15:41:46.954238 10999 net.cpp:141] Setting up inception_4a/relu_1x1
I0403 15:41:46.954263 10999 net.cpp:148] Top shape: 24 192 14 14 (903168)
I0403 15:41:46.954277 10999 net.cpp:156] Memory required for data: 861623328
I0403 15:41:46.954293 10999 layer_factory.hpp:77] Creating layer inception_4a/3x3_reduce
I0403 15:41:46.954313 10999 net.cpp:91] Creating Layer inception_4a/3x3_reduce
I0403 15:41:46.954330 10999 net.cpp:425] inception_4a/3x3_reduce <- pool3/3x3_s2_pool3/3x3_s2_0_split_1
I0403 15:41:46.954351 10999 net.cpp:399] inception_4a/3x3_reduce -> inception_4a/3x3_reduce
I0403 15:41:46.955656 10999 net.cpp:141] Setting up inception_4a/3x3_reduce
I0403 15:41:46.955684 10999 net.cpp:148] Top shape: 24 96 14 14 (451584)
I0403 15:41:46.955700 10999 net.cpp:156] Memory required for data: 863429664
I0403 15:41:46.955724 10999 layer_factory.hpp:77] Creating layer inception_4a/relu_3x3_reduce
I0403 15:41:46.955744 10999 net.cpp:91] Creating Layer inception_4a/relu_3x3_reduce
I0403 15:41:46.955760 10999 net.cpp:425] inception_4a/relu_3x3_reduce <- inception_4a/3x3_reduce
I0403 15:41:46.955776 10999 net.cpp:386] inception_4a/relu_3x3_reduce -> inception_4a/3x3_reduce (in-place)
I0403 15:41:46.955947 10999 net.cpp:141] Setting up inception_4a/relu_3x3_reduce
I0403 15:41:46.955973 10999 net.cpp:148] Top shape: 24 96 14 14 (451584)
I0403 15:41:46.955993 10999 net.cpp:156] Memory required for data: 865236000
I0403 15:41:46.956009 10999 layer_factory.hpp:77] Creating layer inception_4a/3x3
I0403 15:41:46.956032 10999 net.cpp:91] Creating Layer inception_4a/3x3
I0403 15:41:46.956048 10999 net.cpp:425] inception_4a/3x3 <- inception_4a/3x3_reduce
I0403 15:41:46.956068 10999 net.cpp:399] inception_4a/3x3 -> inception_4a/3x3
I0403 15:41:46.958729 10999 net.cpp:141] Setting up inception_4a/3x3
I0403 15:41:46.958757 10999 net.cpp:148] Top shape: 24 208 14 14 (978432)
I0403 15:41:46.958772 10999 net.cpp:156] Memory required for data: 869149728
I0403 15:41:46.958791 10999 layer_factory.hpp:77] Creating layer inception_4a/relu_3x3
I0403 15:41:46.958808 10999 net.cpp:91] Creating Layer inception_4a/relu_3x3
I0403 15:41:46.958823 10999 net.cpp:425] inception_4a/relu_3x3 <- inception_4a/3x3
I0403 15:41:46.958842 10999 net.cpp:386] inception_4a/relu_3x3 -> inception_4a/3x3 (in-place)
I0403 15:41:46.959115 10999 net.cpp:141] Setting up inception_4a/relu_3x3
I0403 15:41:46.959141 10999 net.cpp:148] Top shape: 24 208 14 14 (978432)
I0403 15:41:46.959156 10999 net.cpp:156] Memory required for data: 873063456
I0403 15:41:46.959170 10999 layer_factory.hpp:77] Creating layer inception_4a/5x5_reduce
I0403 15:41:46.959195 10999 net.cpp:91] Creating Layer inception_4a/5x5_reduce
I0403 15:41:46.959213 10999 net.cpp:425] inception_4a/5x5_reduce <- pool3/3x3_s2_pool3/3x3_s2_0_split_2
I0403 15:41:46.959233 10999 net.cpp:399] inception_4a/5x5_reduce -> inception_4a/5x5_reduce
I0403 15:41:46.960230 10999 net.cpp:141] Setting up inception_4a/5x5_reduce
I0403 15:41:46.960258 10999 net.cpp:148] Top shape: 24 16 14 14 (75264)
I0403 15:41:46.960274 10999 net.cpp:156] Memory required for data: 873364512
I0403 15:41:46.960294 10999 layer_factory.hpp:77] Creating layer inception_4a/relu_5x5_reduce
I0403 15:41:46.960314 10999 net.cpp:91] Creating Layer inception_4a/relu_5x5_reduce
I0403 15:41:46.960331 10999 net.cpp:425] inception_4a/relu_5x5_reduce <- inception_4a/5x5_reduce
I0403 15:41:46.960350 10999 net.cpp:386] inception_4a/relu_5x5_reduce -> inception_4a/5x5_reduce (in-place)
I0403 15:41:46.960535 10999 net.cpp:141] Setting up inception_4a/relu_5x5_reduce
I0403 15:41:46.960558 10999 net.cpp:148] Top shape: 24 16 14 14 (75264)
I0403 15:41:46.960577 10999 net.cpp:156] Memory required for data: 873665568
I0403 15:41:46.960592 10999 layer_factory.hpp:77] Creating layer inception_4a/5x5
I0403 15:41:46.960611 10999 net.cpp:91] Creating Layer inception_4a/5x5
I0403 15:41:46.960628 10999 net.cpp:425] inception_4a/5x5 <- inception_4a/5x5_reduce
I0403 15:41:46.960649 10999 net.cpp:399] inception_4a/5x5 -> inception_4a/5x5
I0403 15:41:46.961700 10999 net.cpp:141] Setting up inception_4a/5x5
I0403 15:41:46.961727 10999 net.cpp:148] Top shape: 24 48 14 14 (225792)
I0403 15:41:46.961742 10999 net.cpp:156] Memory required for data: 874568736
I0403 15:41:46.961760 10999 layer_factory.hpp:77] Creating layer inception_4a/relu_5x5
I0403 15:41:46.961779 10999 net.cpp:91] Creating Layer inception_4a/relu_5x5
I0403 15:41:46.961796 10999 net.cpp:425] inception_4a/relu_5x5 <- inception_4a/5x5
I0403 15:41:46.961813 10999 net.cpp:386] inception_4a/relu_5x5 -> inception_4a/5x5 (in-place)
I0403 15:41:46.961990 10999 net.cpp:141] Setting up inception_4a/relu_5x5
I0403 15:41:46.962014 10999 net.cpp:148] Top shape: 24 48 14 14 (225792)
I0403 15:41:46.962030 10999 net.cpp:156] Memory required for data: 875471904
I0403 15:41:46.962044 10999 layer_factory.hpp:77] Creating layer inception_4a/pool
I0403 15:41:46.962061 10999 net.cpp:91] Creating Layer inception_4a/pool
I0403 15:41:46.962077 10999 net.cpp:425] inception_4a/pool <- pool3/3x3_s2_pool3/3x3_s2_0_split_3
I0403 15:41:46.962097 10999 net.cpp:399] inception_4a/pool -> inception_4a/pool
I0403 15:41:46.962158 10999 net.cpp:141] Setting up inception_4a/pool
I0403 15:41:46.962180 10999 net.cpp:148] Top shape: 24 480 14 14 (2257920)
I0403 15:41:46.962195 10999 net.cpp:156] Memory required for data: 884503584
I0403 15:41:46.962209 10999 layer_factory.hpp:77] Creating layer inception_4a/pool_proj
I0403 15:41:46.962237 10999 net.cpp:91] Creating Layer inception_4a/pool_proj
I0403 15:41:46.962255 10999 net.cpp:425] inception_4a/pool_proj <- inception_4a/pool
I0403 15:41:46.962280 10999 net.cpp:399] inception_4a/pool_proj -> inception_4a/pool_proj
I0403 15:41:46.963567 10999 net.cpp:141] Setting up inception_4a/pool_proj
I0403 15:41:46.963596 10999 net.cpp:148] Top shape: 24 64 14 14 (301056)
I0403 15:41:46.963627 10999 net.cpp:156] Memory required for data: 885707808
I0403 15:41:46.963647 10999 layer_factory.hpp:77] Creating layer inception_4a/relu_pool_proj
I0403 15:41:46.963666 10999 net.cpp:91] Creating Layer inception_4a/relu_pool_proj
I0403 15:41:46.963682 10999 net.cpp:425] inception_4a/relu_pool_proj <- inception_4a/pool_proj
I0403 15:41:46.963703 10999 net.cpp:386] inception_4a/relu_pool_proj -> inception_4a/pool_proj (in-place)
I0403 15:41:46.963985 10999 net.cpp:141] Setting up inception_4a/relu_pool_proj
I0403 15:41:46.964015 10999 net.cpp:148] Top shape: 24 64 14 14 (301056)
I0403 15:41:46.964030 10999 net.cpp:156] Memory required for data: 886912032
I0403 15:41:46.964046 10999 layer_factory.hpp:77] Creating layer inception_4a/output
I0403 15:41:46.964062 10999 net.cpp:91] Creating Layer inception_4a/output
I0403 15:41:46.964078 10999 net.cpp:425] inception_4a/output <- inception_4a/1x1
I0403 15:41:46.964094 10999 net.cpp:425] inception_4a/output <- inception_4a/3x3
I0403 15:41:46.964110 10999 net.cpp:425] inception_4a/output <- inception_4a/5x5
I0403 15:41:46.964126 10999 net.cpp:425] inception_4a/output <- inception_4a/pool_proj
I0403 15:41:46.964143 10999 net.cpp:399] inception_4a/output -> inception_4a/output
I0403 15:41:46.964190 10999 net.cpp:141] Setting up inception_4a/output
I0403 15:41:46.964226 10999 net.cpp:148] Top shape: 24 512 14 14 (2408448)
I0403 15:41:46.964239 10999 net.cpp:156] Memory required for data: 896545824
I0403 15:41:46.964254 10999 layer_factory.hpp:77] Creating layer inception_4a/output_inception_4a/output_0_split
I0403 15:41:46.964275 10999 net.cpp:91] Creating Layer inception_4a/output_inception_4a/output_0_split
I0403 15:41:46.964293 10999 net.cpp:425] inception_4a/output_inception_4a/output_0_split <- inception_4a/output
I0403 15:41:46.964311 10999 net.cpp:399] inception_4a/output_inception_4a/output_0_split -> inception_4a/output_inception_4a/output_0_split_0
I0403 15:41:46.964334 10999 net.cpp:399] inception_4a/output_inception_4a/output_0_split -> inception_4a/output_inception_4a/output_0_split_1
I0403 15:41:46.964357 10999 net.cpp:399] inception_4a/output_inception_4a/output_0_split -> inception_4a/output_inception_4a/output_0_split_2
I0403 15:41:46.964380 10999 net.cpp:399] inception_4a/output_inception_4a/output_0_split -> inception_4a/output_inception_4a/output_0_split_3
I0403 15:41:46.964401 10999 net.cpp:399] inception_4a/output_inception_4a/output_0_split -> inception_4a/output_inception_4a/output_0_split_4
I0403 15:41:46.964498 10999 net.cpp:141] Setting up inception_4a/output_inception_4a/output_0_split
I0403 15:41:46.964520 10999 net.cpp:148] Top shape: 24 512 14 14 (2408448)
I0403 15:41:46.964537 10999 net.cpp:148] Top shape: 24 512 14 14 (2408448)
I0403 15:41:46.964553 10999 net.cpp:148] Top shape: 24 512 14 14 (2408448)
I0403 15:41:46.964570 10999 net.cpp:148] Top shape: 24 512 14 14 (2408448)
I0403 15:41:46.964584 10999 net.cpp:148] Top shape: 24 512 14 14 (2408448)
I0403 15:41:46.964599 10999 net.cpp:156] Memory required for data: 944714784
I0403 15:41:46.964614 10999 layer_factory.hpp:77] Creating layer loss1/ave_pool
I0403 15:41:46.964632 10999 net.cpp:91] Creating Layer loss1/ave_pool
I0403 15:41:46.964648 10999 net.cpp:425] loss1/ave_pool <- inception_4a/output_inception_4a/output_0_split_0
I0403 15:41:46.964669 10999 net.cpp:399] loss1/ave_pool -> loss1/ave_pool
I0403 15:41:46.964887 10999 net.cpp:141] Setting up loss1/ave_pool
I0403 15:41:46.964915 10999 net.cpp:148] Top shape: 24 512 4 4 (196608)
I0403 15:41:46.964931 10999 net.cpp:156] Memory required for data: 945501216
I0403 15:41:46.964946 10999 layer_factory.hpp:77] Creating layer loss1/conv
I0403 15:41:46.964969 10999 net.cpp:91] Creating Layer loss1/conv
I0403 15:41:46.964990 10999 net.cpp:425] loss1/conv <- loss1/ave_pool
I0403 15:41:46.965010 10999 net.cpp:399] loss1/conv -> loss1/conv
I0403 15:41:46.966415 10999 net.cpp:141] Setting up loss1/conv
I0403 15:41:46.966444 10999 net.cpp:148] Top shape: 24 128 4 4 (49152)
I0403 15:41:46.966472 10999 net.cpp:156] Memory required for data: 945697824
I0403 15:41:46.966492 10999 layer_factory.hpp:77] Creating layer loss1/relu_conv
I0403 15:41:46.966511 10999 net.cpp:91] Creating Layer loss1/relu_conv
I0403 15:41:46.966526 10999 net.cpp:425] loss1/relu_conv <- loss1/conv
I0403 15:41:46.966547 10999 net.cpp:386] loss1/relu_conv -> loss1/conv (in-place)
I0403 15:41:46.966826 10999 net.cpp:141] Setting up loss1/relu_conv
I0403 15:41:46.966852 10999 net.cpp:148] Top shape: 24 128 4 4 (49152)
I0403 15:41:46.966868 10999 net.cpp:156] Memory required for data: 945894432
I0403 15:41:46.966883 10999 layer_factory.hpp:77] Creating layer loss1/fc
I0403 15:41:46.966915 10999 net.cpp:91] Creating Layer loss1/fc
I0403 15:41:46.966933 10999 net.cpp:425] loss1/fc <- loss1/conv
I0403 15:41:46.966954 10999 net.cpp:399] loss1/fc -> loss1/fc
I0403 15:41:46.984954 10999 net.cpp:141] Setting up loss1/fc
I0403 15:41:46.984993 10999 net.cpp:148] Top shape: 24 1024 (24576)
I0403 15:41:46.985010 10999 net.cpp:156] Memory required for data: 945992736
I0403 15:41:46.985028 10999 layer_factory.hpp:77] Creating layer loss1/relu_fc
I0403 15:41:46.985046 10999 net.cpp:91] Creating Layer loss1/relu_fc
I0403 15:41:46.985062 10999 net.cpp:425] loss1/relu_fc <- loss1/fc
I0403 15:41:46.985080 10999 net.cpp:386] loss1/relu_fc -> loss1/fc (in-place)
I0403 15:41:46.985290 10999 net.cpp:141] Setting up loss1/relu_fc
I0403 15:41:46.985316 10999 net.cpp:148] Top shape: 24 1024 (24576)
I0403 15:41:46.985329 10999 net.cpp:156] Memory required for data: 946091040
I0403 15:41:46.985344 10999 layer_factory.hpp:77] Creating layer loss1/drop_fc
I0403 15:41:46.985370 10999 net.cpp:91] Creating Layer loss1/drop_fc
I0403 15:41:46.985388 10999 net.cpp:425] loss1/drop_fc <- loss1/fc
I0403 15:41:46.985409 10999 net.cpp:386] loss1/drop_fc -> loss1/fc (in-place)
I0403 15:41:46.985460 10999 net.cpp:141] Setting up loss1/drop_fc
I0403 15:41:46.985481 10999 net.cpp:148] Top shape: 24 1024 (24576)
I0403 15:41:46.985508 10999 net.cpp:156] Memory required for data: 946189344
I0403 15:41:46.985522 10999 layer_factory.hpp:77] Creating layer loss1/classifier_plantvillage
I0403 15:41:46.985543 10999 net.cpp:91] Creating Layer loss1/classifier_plantvillage
I0403 15:41:46.985560 10999 net.cpp:425] loss1/classifier_plantvillage <- loss1/fc
I0403 15:41:46.985579 10999 net.cpp:399] loss1/classifier_plantvillage -> loss1/classifier_plantvillage
I0403 15:41:46.986485 10999 net.cpp:141] Setting up loss1/classifier_plantvillage
I0403 15:41:46.986526 10999 net.cpp:148] Top shape: 24 38 (912)
I0403 15:41:46.986541 10999 net.cpp:156] Memory required for data: 946192992
I0403 15:41:46.986558 10999 layer_factory.hpp:77] Creating layer loss1/classifier_plantvillage_loss1/classifier_plantvillage_0_split
I0403 15:41:46.986577 10999 net.cpp:91] Creating Layer loss1/classifier_plantvillage_loss1/classifier_plantvillage_0_split
I0403 15:41:46.986593 10999 net.cpp:425] loss1/classifier_plantvillage_loss1/classifier_plantvillage_0_split <- loss1/classifier_plantvillage
I0403 15:41:46.986613 10999 net.cpp:399] loss1/classifier_plantvillage_loss1/classifier_plantvillage_0_split -> loss1/classifier_plantvillage_loss1/classifier_plantvillage_0_split_0
I0403 15:41:46.986634 10999 net.cpp:399] loss1/classifier_plantvillage_loss1/classifier_plantvillage_0_split -> loss1/classifier_plantvillage_loss1/classifier_plantvillage_0_split_1
I0403 15:41:46.986655 10999 net.cpp:399] loss1/classifier_plantvillage_loss1/classifier_plantvillage_0_split -> loss1/classifier_plantvillage_loss1/classifier_plantvillage_0_split_2
I0403 15:41:46.986722 10999 net.cpp:141] Setting up loss1/classifier_plantvillage_loss1/classifier_plantvillage_0_split
I0403 15:41:46.986745 10999 net.cpp:148] Top shape: 24 38 (912)
I0403 15:41:46.986762 10999 net.cpp:148] Top shape: 24 38 (912)
I0403 15:41:46.986778 10999 net.cpp:148] Top shape: 24 38 (912)
I0403 15:41:46.986802 10999 net.cpp:156] Memory required for data: 946203936
I0403 15:41:46.986817 10999 layer_factory.hpp:77] Creating layer inception_4b/1x1
I0403 15:41:46.986838 10999 net.cpp:91] Creating Layer inception_4b/1x1
I0403 15:41:46.986871 10999 net.cpp:425] inception_4b/1x1 <- inception_4a/output_inception_4a/output_0_split_1
I0403 15:41:46.986891 10999 net.cpp:399] inception_4b/1x1 -> inception_4b/1x1
I0403 15:41:46.988553 10999 net.cpp:141] Setting up inception_4b/1x1
I0403 15:41:46.988580 10999 net.cpp:148] Top shape: 24 160 14 14 (752640)
I0403 15:41:46.988596 10999 net.cpp:156] Memory required for data: 949214496
I0403 15:41:46.988615 10999 layer_factory.hpp:77] Creating layer inception_4b/relu_1x1
I0403 15:41:46.988632 10999 net.cpp:91] Creating Layer inception_4b/relu_1x1
I0403 15:41:46.988648 10999 net.cpp:425] inception_4b/relu_1x1 <- inception_4b/1x1
I0403 15:41:46.988668 10999 net.cpp:386] inception_4b/relu_1x1 -> inception_4b/1x1 (in-place)
I0403 15:41:46.988852 10999 net.cpp:141] Setting up inception_4b/relu_1x1
I0403 15:41:46.988878 10999 net.cpp:148] Top shape: 24 160 14 14 (752640)
I0403 15:41:46.988891 10999 net.cpp:156] Memory required for data: 952225056
I0403 15:41:46.988905 10999 layer_factory.hpp:77] Creating layer inception_4b/3x3_reduce
I0403 15:41:46.988929 10999 net.cpp:91] Creating Layer inception_4b/3x3_reduce
I0403 15:41:46.988945 10999 net.cpp:425] inception_4b/3x3_reduce <- inception_4a/output_inception_4a/output_0_split_2
I0403 15:41:46.988967 10999 net.cpp:399] inception_4b/3x3_reduce -> inception_4b/3x3_reduce
I0403 15:41:46.990306 10999 net.cpp:141] Setting up inception_4b/3x3_reduce
I0403 15:41:46.990334 10999 net.cpp:148] Top shape: 24 112 14 14 (526848)
I0403 15:41:46.990348 10999 net.cpp:156] Memory required for data: 954332448
I0403 15:41:46.990366 10999 layer_factory.hpp:77] Creating layer inception_4b/relu_3x3_reduce
I0403 15:41:46.990386 10999 net.cpp:91] Creating Layer inception_4b/relu_3x3_reduce
I0403 15:41:46.990403 10999 net.cpp:425] inception_4b/relu_3x3_reduce <- inception_4b/3x3_reduce
I0403 15:41:46.990420 10999 net.cpp:386] inception_4b/relu_3x3_reduce -> inception_4b/3x3_reduce (in-place)
I0403 15:41:46.990701 10999 net.cpp:141] Setting up inception_4b/relu_3x3_reduce
I0403 15:41:46.990727 10999 net.cpp:148] Top shape: 24 112 14 14 (526848)
I0403 15:41:46.990742 10999 net.cpp:156] Memory required for data: 956439840
I0403 15:41:46.990757 10999 layer_factory.hpp:77] Creating layer inception_4b/3x3
I0403 15:41:46.990778 10999 net.cpp:91] Creating Layer inception_4b/3x3
I0403 15:41:46.990797 10999 net.cpp:425] inception_4b/3x3 <- inception_4b/3x3_reduce
I0403 15:41:46.990816 10999 net.cpp:399] inception_4b/3x3 -> inception_4b/3x3
I0403 15:41:46.993823 10999 net.cpp:141] Setting up inception_4b/3x3
I0403 15:41:46.993854 10999 net.cpp:148] Top shape: 24 224 14 14 (1053696)
I0403 15:41:46.993871 10999 net.cpp:156] Memory required for data: 960654624
I0403 15:41:46.993901 10999 layer_factory.hpp:77] Creating layer inception_4b/relu_3x3
I0403 15:41:46.993919 10999 net.cpp:91] Creating Layer inception_4b/relu_3x3
I0403 15:41:46.993937 10999 net.cpp:425] inception_4b/relu_3x3 <- inception_4b/3x3
I0403 15:41:46.993955 10999 net.cpp:386] inception_4b/relu_3x3 -> inception_4b/3x3 (in-place)
I0403 15:41:46.994134 10999 net.cpp:141] Setting up inception_4b/relu_3x3
I0403 15:41:46.994160 10999 net.cpp:148] Top shape: 24 224 14 14 (1053696)
I0403 15:41:46.994174 10999 net.cpp:156] Memory required for data: 964869408
I0403 15:41:46.994189 10999 layer_factory.hpp:77] Creating layer inception_4b/5x5_reduce
I0403 15:41:46.994215 10999 net.cpp:91] Creating Layer inception_4b/5x5_reduce
I0403 15:41:46.994233 10999 net.cpp:425] inception_4b/5x5_reduce <- inception_4a/output_inception_4a/output_0_split_3
I0403 15:41:46.994254 10999 net.cpp:399] inception_4b/5x5_reduce -> inception_4b/5x5_reduce
I0403 15:41:46.995337 10999 net.cpp:141] Setting up inception_4b/5x5_reduce
I0403 15:41:46.995363 10999 net.cpp:148] Top shape: 24 24 14 14 (112896)
I0403 15:41:46.995378 10999 net.cpp:156] Memory required for data: 965320992
I0403 15:41:46.995396 10999 layer_factory.hpp:77] Creating layer inception_4b/relu_5x5_reduce
I0403 15:41:46.995417 10999 net.cpp:91] Creating Layer inception_4b/relu_5x5_reduce
I0403 15:41:46.995446 10999 net.cpp:425] inception_4b/relu_5x5_reduce <- inception_4b/5x5_reduce
I0403 15:41:46.995465 10999 net.cpp:386] inception_4b/relu_5x5_reduce -> inception_4b/5x5_reduce (in-place)
I0403 15:41:46.995641 10999 net.cpp:141] Setting up inception_4b/relu_5x5_reduce
I0403 15:41:46.995666 10999 net.cpp:148] Top shape: 24 24 14 14 (112896)
I0403 15:41:46.995682 10999 net.cpp:156] Memory required for data: 965772576
I0403 15:41:46.995695 10999 layer_factory.hpp:77] Creating layer inception_4b/5x5
I0403 15:41:46.995719 10999 net.cpp:91] Creating Layer inception_4b/5x5
I0403 15:41:46.995735 10999 net.cpp:425] inception_4b/5x5 <- inception_4b/5x5_reduce
I0403 15:41:46.995754 10999 net.cpp:399] inception_4b/5x5 -> inception_4b/5x5
I0403 15:41:46.997007 10999 net.cpp:141] Setting up inception_4b/5x5
I0403 15:41:46.997035 10999 net.cpp:148] Top shape: 24 64 14 14 (301056)
I0403 15:41:46.997051 10999 net.cpp:156] Memory required for data: 966976800
I0403 15:41:46.997068 10999 layer_factory.hpp:77] Creating layer inception_4b/relu_5x5
I0403 15:41:46.997087 10999 net.cpp:91] Creating Layer inception_4b/relu_5x5
I0403 15:41:46.997102 10999 net.cpp:425] inception_4b/relu_5x5 <- inception_4b/5x5
I0403 15:41:46.997123 10999 net.cpp:386] inception_4b/relu_5x5 -> inception_4b/5x5 (in-place)
I0403 15:41:46.997395 10999 net.cpp:141] Setting up inception_4b/relu_5x5
I0403 15:41:46.997421 10999 net.cpp:148] Top shape: 24 64 14 14 (301056)
I0403 15:41:46.997436 10999 net.cpp:156] Memory required for data: 968181024
I0403 15:41:46.997450 10999 layer_factory.hpp:77] Creating layer inception_4b/pool
I0403 15:41:46.997468 10999 net.cpp:91] Creating Layer inception_4b/pool
I0403 15:41:46.997484 10999 net.cpp:425] inception_4b/pool <- inception_4a/output_inception_4a/output_0_split_4
I0403 15:41:46.997504 10999 net.cpp:399] inception_4b/pool -> inception_4b/pool
I0403 15:41:46.997567 10999 net.cpp:141] Setting up inception_4b/pool
I0403 15:41:46.997591 10999 net.cpp:148] Top shape: 24 512 14 14 (2408448)
I0403 15:41:46.997606 10999 net.cpp:156] Memory required for data: 977814816
I0403 15:41:46.997619 10999 layer_factory.hpp:77] Creating layer inception_4b/pool_proj
I0403 15:41:46.997647 10999 net.cpp:91] Creating Layer inception_4b/pool_proj
I0403 15:41:46.997663 10999 net.cpp:425] inception_4b/pool_proj <- inception_4b/pool
I0403 15:41:46.997681 10999 net.cpp:399] inception_4b/pool_proj -> inception_4b/pool_proj
I0403 15:41:46.998859 10999 net.cpp:141] Setting up inception_4b/pool_proj
I0403 15:41:46.998886 10999 net.cpp:148] Top shape: 24 64 14 14 (301056)
I0403 15:41:46.998903 10999 net.cpp:156] Memory required for data: 979019040
I0403 15:41:46.998920 10999 layer_factory.hpp:77] Creating layer inception_4b/relu_pool_proj
I0403 15:41:46.998939 10999 net.cpp:91] Creating Layer inception_4b/relu_pool_proj
I0403 15:41:46.998956 10999 net.cpp:425] inception_4b/relu_pool_proj <- inception_4b/pool_proj
I0403 15:41:46.998973 10999 net.cpp:386] inception_4b/relu_pool_proj -> inception_4b/pool_proj (in-place)
I0403 15:41:46.999174 10999 net.cpp:141] Setting up inception_4b/relu_pool_proj
I0403 15:41:46.999202 10999 net.cpp:148] Top shape: 24 64 14 14 (301056)
I0403 15:41:46.999218 10999 net.cpp:156] Memory required for data: 980223264
I0403 15:41:46.999233 10999 layer_factory.hpp:77] Creating layer inception_4b/output
I0403 15:41:46.999249 10999 net.cpp:91] Creating Layer inception_4b/output
I0403 15:41:46.999264 10999 net.cpp:425] inception_4b/output <- inception_4b/1x1
I0403 15:41:46.999281 10999 net.cpp:425] inception_4b/output <- inception_4b/3x3
I0403 15:41:46.999296 10999 net.cpp:425] inception_4b/output <- inception_4b/5x5
I0403 15:41:46.999312 10999 net.cpp:425] inception_4b/output <- inception_4b/pool_proj
I0403 15:41:46.999328 10999 net.cpp:399] inception_4b/output -> inception_4b/output
I0403 15:41:46.999374 10999 net.cpp:141] Setting up inception_4b/output
I0403 15:41:46.999397 10999 net.cpp:148] Top shape: 24 512 14 14 (2408448)
I0403 15:41:46.999411 10999 net.cpp:156] Memory required for data: 989857056
I0403 15:41:46.999440 10999 layer_factory.hpp:77] Creating layer inception_4b/output_inception_4b/output_0_split
I0403 15:41:46.999459 10999 net.cpp:91] Creating Layer inception_4b/output_inception_4b/output_0_split
I0403 15:41:46.999490 10999 net.cpp:425] inception_4b/output_inception_4b/output_0_split <- inception_4b/output
I0403 15:41:46.999507 10999 net.cpp:399] inception_4b/output_inception_4b/output_0_split -> inception_4b/output_inception_4b/output_0_split_0
I0403 15:41:46.999528 10999 net.cpp:399] inception_4b/output_inception_4b/output_0_split -> inception_4b/output_inception_4b/output_0_split_1
I0403 15:41:46.999548 10999 net.cpp:399] inception_4b/output_inception_4b/output_0_split -> inception_4b/output_inception_4b/output_0_split_2
I0403 15:41:46.999568 10999 net.cpp:399] inception_4b/output_inception_4b/output_0_split -> inception_4b/output_inception_4b/output_0_split_3
I0403 15:41:46.999652 10999 net.cpp:141] Setting up inception_4b/output_inception_4b/output_0_split
I0403 15:41:46.999675 10999 net.cpp:148] Top shape: 24 512 14 14 (2408448)
I0403 15:41:46.999692 10999 net.cpp:148] Top shape: 24 512 14 14 (2408448)
I0403 15:41:46.999707 10999 net.cpp:148] Top shape: 24 512 14 14 (2408448)
I0403 15:41:46.999722 10999 net.cpp:148] Top shape: 24 512 14 14 (2408448)
I0403 15:41:46.999737 10999 net.cpp:156] Memory required for data: 1028392224
I0403 15:41:46.999750 10999 layer_factory.hpp:77] Creating layer inception_4c/1x1
I0403 15:41:46.999784 10999 net.cpp:91] Creating Layer inception_4c/1x1
I0403 15:41:46.999802 10999 net.cpp:425] inception_4c/1x1 <- inception_4b/output_inception_4b/output_0_split_0
I0403 15:41:46.999822 10999 net.cpp:399] inception_4c/1x1 -> inception_4c/1x1
I0403 15:41:47.001262 10999 net.cpp:141] Setting up inception_4c/1x1
I0403 15:41:47.001294 10999 net.cpp:148] Top shape: 24 128 14 14 (602112)
I0403 15:41:47.001312 10999 net.cpp:156] Memory required for data: 1030800672
I0403 15:41:47.001330 10999 layer_factory.hpp:77] Creating layer inception_4c/relu_1x1
I0403 15:41:47.001348 10999 net.cpp:91] Creating Layer inception_4c/relu_1x1
I0403 15:41:47.001365 10999 net.cpp:425] inception_4c/relu_1x1 <- inception_4c/1x1
I0403 15:41:47.001384 10999 net.cpp:386] inception_4c/relu_1x1 -> inception_4c/1x1 (in-place)
I0403 15:41:47.001569 10999 net.cpp:141] Setting up inception_4c/relu_1x1
I0403 15:41:47.001593 10999 net.cpp:148] Top shape: 24 128 14 14 (602112)
I0403 15:41:47.001610 10999 net.cpp:156] Memory required for data: 1033209120
I0403 15:41:47.001623 10999 layer_factory.hpp:77] Creating layer inception_4c/3x3_reduce
I0403 15:41:47.001646 10999 net.cpp:91] Creating Layer inception_4c/3x3_reduce
I0403 15:41:47.001663 10999 net.cpp:425] inception_4c/3x3_reduce <- inception_4b/output_inception_4b/output_0_split_1
I0403 15:41:47.001687 10999 net.cpp:399] inception_4c/3x3_reduce -> inception_4c/3x3_reduce
I0403 15:41:47.003721 10999 net.cpp:141] Setting up inception_4c/3x3_reduce
I0403 15:41:47.003751 10999 net.cpp:148] Top shape: 24 128 14 14 (602112)
I0403 15:41:47.003768 10999 net.cpp:156] Memory required for data: 1035617568
I0403 15:41:47.003787 10999 layer_factory.hpp:77] Creating layer inception_4c/relu_3x3_reduce
I0403 15:41:47.003809 10999 net.cpp:91] Creating Layer inception_4c/relu_3x3_reduce
I0403 15:41:47.003828 10999 net.cpp:425] inception_4c/relu_3x3_reduce <- inception_4c/3x3_reduce
I0403 15:41:47.003856 10999 net.cpp:386] inception_4c/relu_3x3_reduce -> inception_4c/3x3_reduce (in-place)
I0403 15:41:47.004148 10999 net.cpp:141] Setting up inception_4c/relu_3x3_reduce
I0403 15:41:47.004174 10999 net.cpp:148] Top shape: 24 128 14 14 (602112)
I0403 15:41:47.004189 10999 net.cpp:156] Memory required for data: 1038026016
I0403 15:41:47.004204 10999 layer_factory.hpp:77] Creating layer inception_4c/3x3
I0403 15:41:47.004230 10999 net.cpp:91] Creating Layer inception_4c/3x3
I0403 15:41:47.004247 10999 net.cpp:425] inception_4c/3x3 <- inception_4c/3x3_reduce
I0403 15:41:47.004268 10999 net.cpp:399] inception_4c/3x3 -> inception_4c/3x3
I0403 15:41:47.007944 10999 net.cpp:141] Setting up inception_4c/3x3
I0403 15:41:47.007994 10999 net.cpp:148] Top shape: 24 256 14 14 (1204224)
I0403 15:41:47.008013 10999 net.cpp:156] Memory required for data: 1042842912
I0403 15:41:47.008046 10999 layer_factory.hpp:77] Creating layer inception_4c/relu_3x3
I0403 15:41:47.008069 10999 net.cpp:91] Creating Layer inception_4c/relu_3x3
I0403 15:41:47.008086 10999 net.cpp:425] inception_4c/relu_3x3 <- inception_4c/3x3
I0403 15:41:47.008103 10999 net.cpp:386] inception_4c/relu_3x3 -> inception_4c/3x3 (in-place)
I0403 15:41:47.008292 10999 net.cpp:141] Setting up inception_4c/relu_3x3
I0403 15:41:47.008316 10999 net.cpp:148] Top shape: 24 256 14 14 (1204224)
I0403 15:41:47.008332 10999 net.cpp:156] Memory required for data: 1047659808
I0403 15:41:47.008345 10999 layer_factory.hpp:77] Creating layer inception_4c/5x5_reduce
I0403 15:41:47.008368 10999 net.cpp:91] Creating Layer inception_4c/5x5_reduce
I0403 15:41:47.008384 10999 net.cpp:425] inception_4c/5x5_reduce <- inception_4b/output_inception_4b/output_0_split_2
I0403 15:41:47.008404 10999 net.cpp:399] inception_4c/5x5_reduce -> inception_4c/5x5_reduce
I0403 15:41:47.009562 10999 net.cpp:141] Setting up inception_4c/5x5_reduce
I0403 15:41:47.009588 10999 net.cpp:148] Top shape: 24 24 14 14 (112896)
I0403 15:41:47.009604 10999 net.cpp:156] Memory required for data: 1048111392
I0403 15:41:47.009623 10999 layer_factory.hpp:77] Creating layer inception_4c/relu_5x5_reduce
I0403 15:41:47.009641 10999 net.cpp:91] Creating Layer inception_4c/relu_5x5_reduce
I0403 15:41:47.009659 10999 net.cpp:425] inception_4c/relu_5x5_reduce <- inception_4c/5x5_reduce
I0403 15:41:47.009675 10999 net.cpp:386] inception_4c/relu_5x5_reduce -> inception_4c/5x5_reduce (in-place)
I0403 15:41:47.009858 10999 net.cpp:141] Setting up inception_4c/relu_5x5_reduce
I0403 15:41:47.009882 10999 net.cpp:148] Top shape: 24 24 14 14 (112896)
I0403 15:41:47.009897 10999 net.cpp:156] Memory required for data: 1048562976
I0403 15:41:47.009912 10999 layer_factory.hpp:77] Creating layer inception_4c/5x5
I0403 15:41:47.009937 10999 net.cpp:91] Creating Layer inception_4c/5x5
I0403 15:41:47.009954 10999 net.cpp:425] inception_4c/5x5 <- inception_4c/5x5_reduce
I0403 15:41:47.009973 10999 net.cpp:399] inception_4c/5x5 -> inception_4c/5x5
I0403 15:41:47.011194 10999 net.cpp:141] Setting up inception_4c/5x5
I0403 15:41:47.011224 10999 net.cpp:148] Top shape: 24 64 14 14 (301056)
I0403 15:41:47.011241 10999 net.cpp:156] Memory required for data: 1049767200
I0403 15:41:47.011260 10999 layer_factory.hpp:77] Creating layer inception_4c/relu_5x5
I0403 15:41:47.011278 10999 net.cpp:91] Creating Layer inception_4c/relu_5x5
I0403 15:41:47.011307 10999 net.cpp:425] inception_4c/relu_5x5 <- inception_4c/5x5
I0403 15:41:47.011323 10999 net.cpp:386] inception_4c/relu_5x5 -> inception_4c/5x5 (in-place)
I0403 15:41:47.011600 10999 net.cpp:141] Setting up inception_4c/relu_5x5
I0403 15:41:47.011627 10999 net.cpp:148] Top shape: 24 64 14 14 (301056)
I0403 15:41:47.011643 10999 net.cpp:156] Memory required for data: 1050971424
I0403 15:41:47.011658 10999 layer_factory.hpp:77] Creating layer inception_4c/pool
I0403 15:41:47.011675 10999 net.cpp:91] Creating Layer inception_4c/pool
I0403 15:41:47.011703 10999 net.cpp:425] inception_4c/pool <- inception_4b/output_inception_4b/output_0_split_3
I0403 15:41:47.011721 10999 net.cpp:399] inception_4c/pool -> inception_4c/pool
I0403 15:41:47.011787 10999 net.cpp:141] Setting up inception_4c/pool
I0403 15:41:47.011811 10999 net.cpp:148] Top shape: 24 512 14 14 (2408448)
I0403 15:41:47.011826 10999 net.cpp:156] Memory required for data: 1060605216
I0403 15:41:47.011840 10999 layer_factory.hpp:77] Creating layer inception_4c/pool_proj
I0403 15:41:47.011862 10999 net.cpp:91] Creating Layer inception_4c/pool_proj
I0403 15:41:47.011880 10999 net.cpp:425] inception_4c/pool_proj <- inception_4c/pool
I0403 15:41:47.011901 10999 net.cpp:399] inception_4c/pool_proj -> inception_4c/pool_proj
I0403 15:41:47.013109 10999 net.cpp:141] Setting up inception_4c/pool_proj
I0403 15:41:47.013137 10999 net.cpp:148] Top shape: 24 64 14 14 (301056)
I0403 15:41:47.013165 10999 net.cpp:156] Memory required for data: 1061809440
I0403 15:41:47.013185 10999 layer_factory.hpp:77] Creating layer inception_4c/relu_pool_proj
I0403 15:41:47.013206 10999 net.cpp:91] Creating Layer inception_4c/relu_pool_proj
I0403 15:41:47.013223 10999 net.cpp:425] inception_4c/relu_pool_proj <- inception_4c/pool_proj
I0403 15:41:47.013239 10999 net.cpp:386] inception_4c/relu_pool_proj -> inception_4c/pool_proj (in-place)
I0403 15:41:47.013418 10999 net.cpp:141] Setting up inception_4c/relu_pool_proj
I0403 15:41:47.013445 10999 net.cpp:148] Top shape: 24 64 14 14 (301056)
I0403 15:41:47.013461 10999 net.cpp:156] Memory required for data: 1063013664
I0403 15:41:47.013492 10999 layer_factory.hpp:77] Creating layer inception_4c/output
I0403 15:41:47.013512 10999 net.cpp:91] Creating Layer inception_4c/output
I0403 15:41:47.013530 10999 net.cpp:425] inception_4c/output <- inception_4c/1x1
I0403 15:41:47.013558 10999 net.cpp:425] inception_4c/output <- inception_4c/3x3
I0403 15:41:47.013574 10999 net.cpp:425] inception_4c/output <- inception_4c/5x5
I0403 15:41:47.013592 10999 net.cpp:425] inception_4c/output <- inception_4c/pool_proj
I0403 15:41:47.013609 10999 net.cpp:399] inception_4c/output -> inception_4c/output
I0403 15:41:47.013659 10999 net.cpp:141] Setting up inception_4c/output
I0403 15:41:47.013682 10999 net.cpp:148] Top shape: 24 512 14 14 (2408448)
I0403 15:41:47.013697 10999 net.cpp:156] Memory required for data: 1072647456
I0403 15:41:47.013712 10999 layer_factory.hpp:77] Creating layer inception_4c/output_inception_4c/output_0_split
I0403 15:41:47.013731 10999 net.cpp:91] Creating Layer inception_4c/output_inception_4c/output_0_split
I0403 15:41:47.013747 10999 net.cpp:425] inception_4c/output_inception_4c/output_0_split <- inception_4c/output
I0403 15:41:47.013768 10999 net.cpp:399] inception_4c/output_inception_4c/output_0_split -> inception_4c/output_inception_4c/output_0_split_0
I0403 15:41:47.013789 10999 net.cpp:399] inception_4c/output_inception_4c/output_0_split -> inception_4c/output_inception_4c/output_0_split_1
I0403 15:41:47.013810 10999 net.cpp:399] inception_4c/output_inception_4c/output_0_split -> inception_4c/output_inception_4c/output_0_split_2
I0403 15:41:47.013842 10999 net.cpp:399] inception_4c/output_inception_4c/output_0_split -> inception_4c/output_inception_4c/output_0_split_3
I0403 15:41:47.013939 10999 net.cpp:141] Setting up inception_4c/output_inception_4c/output_0_split
I0403 15:41:47.013962 10999 net.cpp:148] Top shape: 24 512 14 14 (2408448)
I0403 15:41:47.013981 10999 net.cpp:148] Top shape: 24 512 14 14 (2408448)
I0403 15:41:47.014013 10999 net.cpp:148] Top shape: 24 512 14 14 (2408448)
I0403 15:41:47.014029 10999 net.cpp:148] Top shape: 24 512 14 14 (2408448)
I0403 15:41:47.014050 10999 net.cpp:156] Memory required for data: 1111182624
I0403 15:41:47.014065 10999 layer_factory.hpp:77] Creating layer inception_4d/1x1
I0403 15:41:47.014087 10999 net.cpp:91] Creating Layer inception_4d/1x1
I0403 15:41:47.014106 10999 net.cpp:425] inception_4d/1x1 <- inception_4c/output_inception_4c/output_0_split_0
I0403 15:41:47.014127 10999 net.cpp:399] inception_4d/1x1 -> inception_4d/1x1
I0403 15:41:47.015611 10999 net.cpp:141] Setting up inception_4d/1x1
I0403 15:41:47.015640 10999 net.cpp:148] Top shape: 24 112 14 14 (526848)
I0403 15:41:47.015655 10999 net.cpp:156] Memory required for data: 1113290016
I0403 15:41:47.015673 10999 layer_factory.hpp:77] Creating layer inception_4d/relu_1x1
I0403 15:41:47.015692 10999 net.cpp:91] Creating Layer inception_4d/relu_1x1
I0403 15:41:47.015709 10999 net.cpp:425] inception_4d/relu_1x1 <- inception_4d/1x1
I0403 15:41:47.015728 10999 net.cpp:386] inception_4d/relu_1x1 -> inception_4d/1x1 (in-place)
I0403 15:41:47.015911 10999 net.cpp:141] Setting up inception_4d/relu_1x1
I0403 15:41:47.015936 10999 net.cpp:148] Top shape: 24 112 14 14 (526848)
I0403 15:41:47.015951 10999 net.cpp:156] Memory required for data: 1115397408
I0403 15:41:47.015966 10999 layer_factory.hpp:77] Creating layer inception_4d/3x3_reduce
I0403 15:41:47.016008 10999 net.cpp:91] Creating Layer inception_4d/3x3_reduce
I0403 15:41:47.016028 10999 net.cpp:425] inception_4d/3x3_reduce <- inception_4c/output_inception_4c/output_0_split_1
I0403 15:41:47.016049 10999 net.cpp:399] inception_4d/3x3_reduce -> inception_4d/3x3_reduce
I0403 15:41:47.017627 10999 net.cpp:141] Setting up inception_4d/3x3_reduce
I0403 15:41:47.017654 10999 net.cpp:148] Top shape: 24 144 14 14 (677376)
I0403 15:41:47.017670 10999 net.cpp:156] Memory required for data: 1118106912
I0403 15:41:47.017690 10999 layer_factory.hpp:77] Creating layer inception_4d/relu_3x3_reduce
I0403 15:41:47.017709 10999 net.cpp:91] Creating Layer inception_4d/relu_3x3_reduce
I0403 15:41:47.017725 10999 net.cpp:425] inception_4d/relu_3x3_reduce <- inception_4d/3x3_reduce
I0403 15:41:47.017742 10999 net.cpp:386] inception_4d/relu_3x3_reduce -> inception_4d/3x3_reduce (in-place)
I0403 15:41:47.018046 10999 net.cpp:141] Setting up inception_4d/relu_3x3_reduce
I0403 15:41:47.018074 10999 net.cpp:148] Top shape: 24 144 14 14 (677376)
I0403 15:41:47.018091 10999 net.cpp:156] Memory required for data: 1120816416
I0403 15:41:47.018106 10999 layer_factory.hpp:77] Creating layer inception_4d/3x3
I0403 15:41:47.018129 10999 net.cpp:91] Creating Layer inception_4d/3x3
I0403 15:41:47.018147 10999 net.cpp:425] inception_4d/3x3 <- inception_4d/3x3_reduce
I0403 15:41:47.018167 10999 net.cpp:399] inception_4d/3x3 -> inception_4d/3x3
I0403 15:41:47.022485 10999 net.cpp:141] Setting up inception_4d/3x3
I0403 15:41:47.022514 10999 net.cpp:148] Top shape: 24 288 14 14 (1354752)
I0403 15:41:47.022531 10999 net.cpp:156] Memory required for data: 1126235424
I0403 15:41:47.022549 10999 layer_factory.hpp:77] Creating layer inception_4d/relu_3x3
I0403 15:41:47.022568 10999 net.cpp:91] Creating Layer inception_4d/relu_3x3
I0403 15:41:47.022584 10999 net.cpp:425] inception_4d/relu_3x3 <- inception_4d/3x3
I0403 15:41:47.022604 10999 net.cpp:386] inception_4d/relu_3x3 -> inception_4d/3x3 (in-place)
I0403 15:41:47.022801 10999 net.cpp:141] Setting up inception_4d/relu_3x3
I0403 15:41:47.022827 10999 net.cpp:148] Top shape: 24 288 14 14 (1354752)
I0403 15:41:47.022843 10999 net.cpp:156] Memory required for data: 1131654432
I0403 15:41:47.022858 10999 layer_factory.hpp:77] Creating layer inception_4d/5x5_reduce
I0403 15:41:47.022881 10999 net.cpp:91] Creating Layer inception_4d/5x5_reduce
I0403 15:41:47.022899 10999 net.cpp:425] inception_4d/5x5_reduce <- inception_4c/output_inception_4c/output_0_split_2
I0403 15:41:47.022922 10999 net.cpp:399] inception_4d/5x5_reduce -> inception_4d/5x5_reduce
I0403 15:41:47.024121 10999 net.cpp:141] Setting up inception_4d/5x5_reduce
I0403 15:41:47.024149 10999 net.cpp:148] Top shape: 24 32 14 14 (150528)
I0403 15:41:47.024165 10999 net.cpp:156] Memory required for data: 1132256544
I0403 15:41:47.024183 10999 layer_factory.hpp:77] Creating layer inception_4d/relu_5x5_reduce
I0403 15:41:47.024201 10999 net.cpp:91] Creating Layer inception_4d/relu_5x5_reduce
I0403 15:41:47.024217 10999 net.cpp:425] inception_4d/relu_5x5_reduce <- inception_4d/5x5_reduce
I0403 15:41:47.024236 10999 net.cpp:386] inception_4d/relu_5x5_reduce -> inception_4d/5x5_reduce (in-place)
I0403 15:41:47.024425 10999 net.cpp:141] Setting up inception_4d/relu_5x5_reduce
I0403 15:41:47.024449 10999 net.cpp:148] Top shape: 24 32 14 14 (150528)
I0403 15:41:47.024464 10999 net.cpp:156] Memory required for data: 1132858656
I0403 15:41:47.024479 10999 layer_factory.hpp:77] Creating layer inception_4d/5x5
I0403 15:41:47.024502 10999 net.cpp:91] Creating Layer inception_4d/5x5
I0403 15:41:47.024519 10999 net.cpp:425] inception_4d/5x5 <- inception_4d/5x5_reduce
I0403 15:41:47.024540 10999 net.cpp:399] inception_4d/5x5 -> inception_4d/5x5
I0403 15:41:47.026052 10999 net.cpp:141] Setting up inception_4d/5x5
I0403 15:41:47.026080 10999 net.cpp:148] Top shape: 24 64 14 14 (301056)
I0403 15:41:47.026098 10999 net.cpp:156] Memory required for data: 1134062880
I0403 15:41:47.026116 10999 layer_factory.hpp:77] Creating layer inception_4d/relu_5x5
I0403 15:41:47.026150 10999 net.cpp:91] Creating Layer inception_4d/relu_5x5
I0403 15:41:47.026170 10999 net.cpp:425] inception_4d/relu_5x5 <- inception_4d/5x5
I0403 15:41:47.026187 10999 net.cpp:386] inception_4d/relu_5x5 -> inception_4d/5x5 (in-place)
I0403 15:41:47.026484 10999 net.cpp:141] Setting up inception_4d/relu_5x5
I0403 15:41:47.026511 10999 net.cpp:148] Top shape: 24 64 14 14 (301056)
I0403 15:41:47.026526 10999 net.cpp:156] Memory required for data: 1135267104
I0403 15:41:47.026541 10999 layer_factory.hpp:77] Creating layer inception_4d/pool
I0403 15:41:47.026561 10999 net.cpp:91] Creating Layer inception_4d/pool
I0403 15:41:47.026579 10999 net.cpp:425] inception_4d/pool <- inception_4c/output_inception_4c/output_0_split_3
I0403 15:41:47.026597 10999 net.cpp:399] inception_4d/pool -> inception_4d/pool
I0403 15:41:47.026665 10999 net.cpp:141] Setting up inception_4d/pool
I0403 15:41:47.026690 10999 net.cpp:148] Top shape: 24 512 14 14 (2408448)
I0403 15:41:47.026703 10999 net.cpp:156] Memory required for data: 1144900896
I0403 15:41:47.026718 10999 layer_factory.hpp:77] Creating layer inception_4d/pool_proj
I0403 15:41:47.026741 10999 net.cpp:91] Creating Layer inception_4d/pool_proj
I0403 15:41:47.026757 10999 net.cpp:425] inception_4d/pool_proj <- inception_4d/pool
I0403 15:41:47.026778 10999 net.cpp:399] inception_4d/pool_proj -> inception_4d/pool_proj
I0403 15:41:47.028622 10999 net.cpp:141] Setting up inception_4d/pool_proj
I0403 15:41:47.028652 10999 net.cpp:148] Top shape: 24 64 14 14 (301056)
I0403 15:41:47.028668 10999 net.cpp:156] Memory required for data: 1146105120
I0403 15:41:47.028687 10999 layer_factory.hpp:77] Creating layer inception_4d/relu_pool_proj
I0403 15:41:47.028705 10999 net.cpp:91] Creating Layer inception_4d/relu_pool_proj
I0403 15:41:47.028723 10999 net.cpp:425] inception_4d/relu_pool_proj <- inception_4d/pool_proj
I0403 15:41:47.028741 10999 net.cpp:386] inception_4d/relu_pool_proj -> inception_4d/pool_proj (in-place)
I0403 15:41:47.028930 10999 net.cpp:141] Setting up inception_4d/relu_pool_proj
I0403 15:41:47.028955 10999 net.cpp:148] Top shape: 24 64 14 14 (301056)
I0403 15:41:47.028971 10999 net.cpp:156] Memory required for data: 1147309344
I0403 15:41:47.028990 10999 layer_factory.hpp:77] Creating layer inception_4d/output
I0403 15:41:47.029009 10999 net.cpp:91] Creating Layer inception_4d/output
I0403 15:41:47.029026 10999 net.cpp:425] inception_4d/output <- inception_4d/1x1
I0403 15:41:47.029044 10999 net.cpp:425] inception_4d/output <- inception_4d/3x3
I0403 15:41:47.029062 10999 net.cpp:425] inception_4d/output <- inception_4d/5x5
I0403 15:41:47.029078 10999 net.cpp:425] inception_4d/output <- inception_4d/pool_proj
I0403 15:41:47.029095 10999 net.cpp:399] inception_4d/output -> inception_4d/output
I0403 15:41:47.029145 10999 net.cpp:141] Setting up inception_4d/output
I0403 15:41:47.029168 10999 net.cpp:148] Top shape: 24 528 14 14 (2483712)
I0403 15:41:47.029182 10999 net.cpp:156] Memory required for data: 1157244192
I0403 15:41:47.029197 10999 layer_factory.hpp:77] Creating layer inception_4d/output_inception_4d/output_0_split
I0403 15:41:47.029214 10999 net.cpp:91] Creating Layer inception_4d/output_inception_4d/output_0_split
I0403 15:41:47.029230 10999 net.cpp:425] inception_4d/output_inception_4d/output_0_split <- inception_4d/output
I0403 15:41:47.029253 10999 net.cpp:399] inception_4d/output_inception_4d/output_0_split -> inception_4d/output_inception_4d/output_0_split_0
I0403 15:41:47.029273 10999 net.cpp:399] inception_4d/output_inception_4d/output_0_split -> inception_4d/output_inception_4d/output_0_split_1
I0403 15:41:47.029294 10999 net.cpp:399] inception_4d/output_inception_4d/output_0_split -> inception_4d/output_inception_4d/output_0_split_2
I0403 15:41:47.029314 10999 net.cpp:399] inception_4d/output_inception_4d/output_0_split -> inception_4d/output_inception_4d/output_0_split_3
I0403 15:41:47.029335 10999 net.cpp:399] inception_4d/output_inception_4d/output_0_split -> inception_4d/output_inception_4d/output_0_split_4
I0403 15:41:47.029438 10999 net.cpp:141] Setting up inception_4d/output_inception_4d/output_0_split
I0403 15:41:47.029474 10999 net.cpp:148] Top shape: 24 528 14 14 (2483712)
I0403 15:41:47.029491 10999 net.cpp:148] Top shape: 24 528 14 14 (2483712)
I0403 15:41:47.029507 10999 net.cpp:148] Top shape: 24 528 14 14 (2483712)
I0403 15:41:47.029523 10999 net.cpp:148] Top shape: 24 528 14 14 (2483712)
I0403 15:41:47.029539 10999 net.cpp:148] Top shape: 24 528 14 14 (2483712)
I0403 15:41:47.029553 10999 net.cpp:156] Memory required for data: 1206918432
I0403 15:41:47.029567 10999 layer_factory.hpp:77] Creating layer loss2/ave_pool
I0403 15:41:47.029585 10999 net.cpp:91] Creating Layer loss2/ave_pool
I0403 15:41:47.029602 10999 net.cpp:425] loss2/ave_pool <- inception_4d/output_inception_4d/output_0_split_0
I0403 15:41:47.029621 10999 net.cpp:399] loss2/ave_pool -> loss2/ave_pool
I0403 15:41:47.029942 10999 net.cpp:141] Setting up loss2/ave_pool
I0403 15:41:47.029968 10999 net.cpp:148] Top shape: 24 528 4 4 (202752)
I0403 15:41:47.029988 10999 net.cpp:156] Memory required for data: 1207729440
I0403 15:41:47.030004 10999 layer_factory.hpp:77] Creating layer loss2/conv
I0403 15:41:47.030026 10999 net.cpp:91] Creating Layer loss2/conv
I0403 15:41:47.030045 10999 net.cpp:425] loss2/conv <- loss2/ave_pool
I0403 15:41:47.030066 10999 net.cpp:399] loss2/conv -> loss2/conv
I0403 15:41:47.032068 10999 net.cpp:141] Setting up loss2/conv
I0403 15:41:47.032096 10999 net.cpp:148] Top shape: 24 128 4 4 (49152)
I0403 15:41:47.032112 10999 net.cpp:156] Memory required for data: 1207926048
I0403 15:41:47.032130 10999 layer_factory.hpp:77] Creating layer loss2/relu_conv
I0403 15:41:47.032150 10999 net.cpp:91] Creating Layer loss2/relu_conv
I0403 15:41:47.032166 10999 net.cpp:425] loss2/relu_conv <- loss2/conv
I0403 15:41:47.032196 10999 net.cpp:386] loss2/relu_conv -> loss2/conv (in-place)
I0403 15:41:47.032498 10999 net.cpp:141] Setting up loss2/relu_conv
I0403 15:41:47.032524 10999 net.cpp:148] Top shape: 24 128 4 4 (49152)
I0403 15:41:47.032541 10999 net.cpp:156] Memory required for data: 1208122656
I0403 15:41:47.032554 10999 layer_factory.hpp:77] Creating layer loss2/fc
I0403 15:41:47.032574 10999 net.cpp:91] Creating Layer loss2/fc
I0403 15:41:47.032591 10999 net.cpp:425] loss2/fc <- loss2/conv
I0403 15:41:47.032613 10999 net.cpp:399] loss2/fc -> loss2/fc
I0403 15:41:47.050341 10999 net.cpp:141] Setting up loss2/fc
I0403 15:41:47.050375 10999 net.cpp:148] Top shape: 24 1024 (24576)
I0403 15:41:47.050391 10999 net.cpp:156] Memory required for data: 1208220960
I0403 15:41:47.050408 10999 layer_factory.hpp:77] Creating layer loss2/relu_fc
I0403 15:41:47.050426 10999 net.cpp:91] Creating Layer loss2/relu_fc
I0403 15:41:47.050442 10999 net.cpp:425] loss2/relu_fc <- loss2/fc
I0403 15:41:47.050462 10999 net.cpp:386] loss2/relu_fc -> loss2/fc (in-place)
I0403 15:41:47.050752 10999 net.cpp:141] Setting up loss2/relu_fc
I0403 15:41:47.050778 10999 net.cpp:148] Top shape: 24 1024 (24576)
I0403 15:41:47.050793 10999 net.cpp:156] Memory required for data: 1208319264
I0403 15:41:47.050808 10999 layer_factory.hpp:77] Creating layer loss2/drop_fc
I0403 15:41:47.050825 10999 net.cpp:91] Creating Layer loss2/drop_fc
I0403 15:41:47.050843 10999 net.cpp:425] loss2/drop_fc <- loss2/fc
I0403 15:41:47.050861 10999 net.cpp:386] loss2/drop_fc -> loss2/fc (in-place)
I0403 15:41:47.050909 10999 net.cpp:141] Setting up loss2/drop_fc
I0403 15:41:47.050935 10999 net.cpp:148] Top shape: 24 1024 (24576)
I0403 15:41:47.050951 10999 net.cpp:156] Memory required for data: 1208417568
I0403 15:41:47.050966 10999 layer_factory.hpp:77] Creating layer loss2/classifier_plantvillage
I0403 15:41:47.050986 10999 net.cpp:91] Creating Layer loss2/classifier_plantvillage
I0403 15:41:47.051003 10999 net.cpp:425] loss2/classifier_plantvillage <- loss2/fc
I0403 15:41:47.051024 10999 net.cpp:399] loss2/classifier_plantvillage -> loss2/classifier_plantvillage
I0403 15:41:47.051419 10999 net.cpp:141] Setting up loss2/classifier_plantvillage
I0403 15:41:47.051442 10999 net.cpp:148] Top shape: 24 38 (912)
I0403 15:41:47.051473 10999 net.cpp:156] Memory required for data: 1208421216
I0403 15:41:47.051491 10999 layer_factory.hpp:77] Creating layer loss2/classifier_plantvillage_loss2/classifier_plantvillage_0_split
I0403 15:41:47.051512 10999 net.cpp:91] Creating Layer loss2/classifier_plantvillage_loss2/classifier_plantvillage_0_split
I0403 15:41:47.051528 10999 net.cpp:425] loss2/classifier_plantvillage_loss2/classifier_plantvillage_0_split <- loss2/classifier_plantvillage
I0403 15:41:47.051545 10999 net.cpp:399] loss2/classifier_plantvillage_loss2/classifier_plantvillage_0_split -> loss2/classifier_plantvillage_loss2/classifier_plantvillage_0_split_0
I0403 15:41:47.051568 10999 net.cpp:399] loss2/classifier_plantvillage_loss2/classifier_plantvillage_0_split -> loss2/classifier_plantvillage_loss2/classifier_plantvillage_0_split_1
I0403 15:41:47.051589 10999 net.cpp:399] loss2/classifier_plantvillage_loss2/classifier_plantvillage_0_split -> loss2/classifier_plantvillage_loss2/classifier_plantvillage_0_split_2
I0403 15:41:47.051666 10999 net.cpp:141] Setting up loss2/classifier_plantvillage_loss2/classifier_plantvillage_0_split
I0403 15:41:47.051688 10999 net.cpp:148] Top shape: 24 38 (912)
I0403 15:41:47.051717 10999 net.cpp:148] Top shape: 24 38 (912)
I0403 15:41:47.051731 10999 net.cpp:148] Top shape: 24 38 (912)
I0403 15:41:47.051744 10999 net.cpp:156] Memory required for data: 1208432160
I0403 15:41:47.051759 10999 layer_factory.hpp:77] Creating layer inception_4e/1x1
I0403 15:41:47.051781 10999 net.cpp:91] Creating Layer inception_4e/1x1
I0403 15:41:47.051800 10999 net.cpp:425] inception_4e/1x1 <- inception_4d/output_inception_4d/output_0_split_1
I0403 15:41:47.051818 10999 net.cpp:399] inception_4e/1x1 -> inception_4e/1x1
I0403 15:41:47.053695 10999 net.cpp:141] Setting up inception_4e/1x1
I0403 15:41:47.053724 10999 net.cpp:148] Top shape: 24 256 14 14 (1204224)
I0403 15:41:47.053743 10999 net.cpp:156] Memory required for data: 1213249056
I0403 15:41:47.053773 10999 layer_factory.hpp:77] Creating layer inception_4e/relu_1x1
I0403 15:41:47.053791 10999 net.cpp:91] Creating Layer inception_4e/relu_1x1
I0403 15:41:47.053819 10999 net.cpp:425] inception_4e/relu_1x1 <- inception_4e/1x1
I0403 15:41:47.053835 10999 net.cpp:386] inception_4e/relu_1x1 -> inception_4e/1x1 (in-place)
I0403 15:41:47.054126 10999 net.cpp:141] Setting up inception_4e/relu_1x1
I0403 15:41:47.054152 10999 net.cpp:148] Top shape: 24 256 14 14 (1204224)
I0403 15:41:47.054170 10999 net.cpp:156] Memory required for data: 1218065952
I0403 15:41:47.054184 10999 layer_factory.hpp:77] Creating layer inception_4e/3x3_reduce
I0403 15:41:47.054205 10999 net.cpp:91] Creating Layer inception_4e/3x3_reduce
I0403 15:41:47.054221 10999 net.cpp:425] inception_4e/3x3_reduce <- inception_4d/output_inception_4d/output_0_split_2
I0403 15:41:47.054242 10999 net.cpp:399] inception_4e/3x3_reduce -> inception_4e/3x3_reduce
I0403 15:41:47.056360 10999 net.cpp:141] Setting up inception_4e/3x3_reduce
I0403 15:41:47.056387 10999 net.cpp:148] Top shape: 24 160 14 14 (752640)
I0403 15:41:47.056416 10999 net.cpp:156] Memory required for data: 1221076512
I0403 15:41:47.056434 10999 layer_factory.hpp:77] Creating layer inception_4e/relu_3x3_reduce
I0403 15:41:47.056454 10999 net.cpp:91] Creating Layer inception_4e/relu_3x3_reduce
I0403 15:41:47.056473 10999 net.cpp:425] inception_4e/relu_3x3_reduce <- inception_4e/3x3_reduce
I0403 15:41:47.056489 10999 net.cpp:386] inception_4e/relu_3x3_reduce -> inception_4e/3x3_reduce (in-place)
I0403 15:41:47.056679 10999 net.cpp:141] Setting up inception_4e/relu_3x3_reduce
I0403 15:41:47.056707 10999 net.cpp:148] Top shape: 24 160 14 14 (752640)
I0403 15:41:47.056723 10999 net.cpp:156] Memory required for data: 1224087072
I0403 15:41:47.056737 10999 layer_factory.hpp:77] Creating layer inception_4e/3x3
I0403 15:41:47.056761 10999 net.cpp:91] Creating Layer inception_4e/3x3
I0403 15:41:47.056777 10999 net.cpp:425] inception_4e/3x3 <- inception_4e/3x3_reduce
I0403 15:41:47.056797 10999 net.cpp:399] inception_4e/3x3 -> inception_4e/3x3
I0403 15:41:47.062034 10999 net.cpp:141] Setting up inception_4e/3x3
I0403 15:41:47.062079 10999 net.cpp:148] Top shape: 24 320 14 14 (1505280)
I0403 15:41:47.062098 10999 net.cpp:156] Memory required for data: 1230108192
I0403 15:41:47.062115 10999 layer_factory.hpp:77] Creating layer inception_4e/relu_3x3
I0403 15:41:47.062134 10999 net.cpp:91] Creating Layer inception_4e/relu_3x3
I0403 15:41:47.062150 10999 net.cpp:425] inception_4e/relu_3x3 <- inception_4e/3x3
I0403 15:41:47.062167 10999 net.cpp:386] inception_4e/relu_3x3 -> inception_4e/3x3 (in-place)
I0403 15:41:47.062494 10999 net.cpp:141] Setting up inception_4e/relu_3x3
I0403 15:41:47.062522 10999 net.cpp:148] Top shape: 24 320 14 14 (1505280)
I0403 15:41:47.062538 10999 net.cpp:156] Memory required for data: 1236129312
I0403 15:41:47.062554 10999 layer_factory.hpp:77] Creating layer inception_4e/5x5_reduce
I0403 15:41:47.062590 10999 net.cpp:91] Creating Layer inception_4e/5x5_reduce
I0403 15:41:47.062608 10999 net.cpp:425] inception_4e/5x5_reduce <- inception_4d/output_inception_4d/output_0_split_3
I0403 15:41:47.062629 10999 net.cpp:399] inception_4e/5x5_reduce -> inception_4e/5x5_reduce
I0403 15:41:47.063742 10999 net.cpp:141] Setting up inception_4e/5x5_reduce
I0403 15:41:47.063771 10999 net.cpp:148] Top shape: 24 32 14 14 (150528)
I0403 15:41:47.063786 10999 net.cpp:156] Memory required for data: 1236731424
I0403 15:41:47.063804 10999 layer_factory.hpp:77] Creating layer inception_4e/relu_5x5_reduce
I0403 15:41:47.063825 10999 net.cpp:91] Creating Layer inception_4e/relu_5x5_reduce
I0403 15:41:47.063843 10999 net.cpp:425] inception_4e/relu_5x5_reduce <- inception_4e/5x5_reduce
I0403 15:41:47.063861 10999 net.cpp:386] inception_4e/relu_5x5_reduce -> inception_4e/5x5_reduce (in-place)
I0403 15:41:47.064167 10999 net.cpp:141] Setting up inception_4e/relu_5x5_reduce
I0403 15:41:47.064193 10999 net.cpp:148] Top shape: 24 32 14 14 (150528)
I0403 15:41:47.064208 10999 net.cpp:156] Memory required for data: 1237333536
I0403 15:41:47.064224 10999 layer_factory.hpp:77] Creating layer inception_4e/5x5
I0403 15:41:47.064263 10999 net.cpp:91] Creating Layer inception_4e/5x5
I0403 15:41:47.064283 10999 net.cpp:425] inception_4e/5x5 <- inception_4e/5x5_reduce
I0403 15:41:47.064303 10999 net.cpp:399] inception_4e/5x5 -> inception_4e/5x5
I0403 15:41:47.066308 10999 net.cpp:141] Setting up inception_4e/5x5
I0403 15:41:47.066336 10999 net.cpp:148] Top shape: 24 128 14 14 (602112)
I0403 15:41:47.066351 10999 net.cpp:156] Memory required for data: 1239741984
I0403 15:41:47.066370 10999 layer_factory.hpp:77] Creating layer inception_4e/relu_5x5
I0403 15:41:47.066391 10999 net.cpp:91] Creating Layer inception_4e/relu_5x5
I0403 15:41:47.066408 10999 net.cpp:425] inception_4e/relu_5x5 <- inception_4e/5x5
I0403 15:41:47.066426 10999 net.cpp:386] inception_4e/relu_5x5 -> inception_4e/5x5 (in-place)
I0403 15:41:47.066625 10999 net.cpp:141] Setting up inception_4e/relu_5x5
I0403 15:41:47.066650 10999 net.cpp:148] Top shape: 24 128 14 14 (602112)
I0403 15:41:47.066665 10999 net.cpp:156] Memory required for data: 1242150432
I0403 15:41:47.066681 10999 layer_factory.hpp:77] Creating layer inception_4e/pool
I0403 15:41:47.066702 10999 net.cpp:91] Creating Layer inception_4e/pool
I0403 15:41:47.066720 10999 net.cpp:425] inception_4e/pool <- inception_4d/output_inception_4d/output_0_split_4
I0403 15:41:47.066736 10999 net.cpp:399] inception_4e/pool -> inception_4e/pool
I0403 15:41:47.066808 10999 net.cpp:141] Setting up inception_4e/pool
I0403 15:41:47.066833 10999 net.cpp:148] Top shape: 24 528 14 14 (2483712)
I0403 15:41:47.066846 10999 net.cpp:156] Memory required for data: 1252085280
I0403 15:41:47.066861 10999 layer_factory.hpp:77] Creating layer inception_4e/pool_proj
I0403 15:41:47.066884 10999 net.cpp:91] Creating Layer inception_4e/pool_proj
I0403 15:41:47.066910 10999 net.cpp:425] inception_4e/pool_proj <- inception_4e/pool
I0403 15:41:47.066933 10999 net.cpp:399] inception_4e/pool_proj -> inception_4e/pool_proj
I0403 15:41:47.068488 10999 net.cpp:141] Setting up inception_4e/pool_proj
I0403 15:41:47.068527 10999 net.cpp:148] Top shape: 24 128 14 14 (602112)
I0403 15:41:47.068544 10999 net.cpp:156] Memory required for data: 1254493728
I0403 15:41:47.068562 10999 layer_factory.hpp:77] Creating layer inception_4e/relu_pool_proj
I0403 15:41:47.068580 10999 net.cpp:91] Creating Layer inception_4e/relu_pool_proj
I0403 15:41:47.068599 10999 net.cpp:425] inception_4e/relu_pool_proj <- inception_4e/pool_proj
I0403 15:41:47.068617 10999 net.cpp:386] inception_4e/relu_pool_proj -> inception_4e/pool_proj (in-place)
I0403 15:41:47.068907 10999 net.cpp:141] Setting up inception_4e/relu_pool_proj
I0403 15:41:47.068934 10999 net.cpp:148] Top shape: 24 128 14 14 (602112)
I0403 15:41:47.068950 10999 net.cpp:156] Memory required for data: 1256902176
I0403 15:41:47.068965 10999 layer_factory.hpp:77] Creating layer inception_4e/output
I0403 15:41:47.068987 10999 net.cpp:91] Creating Layer inception_4e/output
I0403 15:41:47.069003 10999 net.cpp:425] inception_4e/output <- inception_4e/1x1
I0403 15:41:47.069020 10999 net.cpp:425] inception_4e/output <- inception_4e/3x3
I0403 15:41:47.069036 10999 net.cpp:425] inception_4e/output <- inception_4e/5x5
I0403 15:41:47.069053 10999 net.cpp:425] inception_4e/output <- inception_4e/pool_proj
I0403 15:41:47.069073 10999 net.cpp:399] inception_4e/output -> inception_4e/output
I0403 15:41:47.069124 10999 net.cpp:141] Setting up inception_4e/output
I0403 15:41:47.069149 10999 net.cpp:148] Top shape: 24 832 14 14 (3913728)
I0403 15:41:47.069165 10999 net.cpp:156] Memory required for data: 1272557088
I0403 15:41:47.069180 10999 layer_factory.hpp:77] Creating layer pool4/3x3_s2
I0403 15:41:47.069198 10999 net.cpp:91] Creating Layer pool4/3x3_s2
I0403 15:41:47.069214 10999 net.cpp:425] pool4/3x3_s2 <- inception_4e/output
I0403 15:41:47.069236 10999 net.cpp:399] pool4/3x3_s2 -> pool4/3x3_s2
I0403 15:41:47.069315 10999 net.cpp:141] Setting up pool4/3x3_s2
I0403 15:41:47.069339 10999 net.cpp:148] Top shape: 24 832 7 7 (978432)
I0403 15:41:47.069355 10999 net.cpp:156] Memory required for data: 1276470816
I0403 15:41:47.069371 10999 layer_factory.hpp:77] Creating layer pool4/3x3_s2_pool4/3x3_s2_0_split
I0403 15:41:47.069391 10999 net.cpp:91] Creating Layer pool4/3x3_s2_pool4/3x3_s2_0_split
I0403 15:41:47.069416 10999 net.cpp:425] pool4/3x3_s2_pool4/3x3_s2_0_split <- pool4/3x3_s2
I0403 15:41:47.069437 10999 net.cpp:399] pool4/3x3_s2_pool4/3x3_s2_0_split -> pool4/3x3_s2_pool4/3x3_s2_0_split_0
I0403 15:41:47.069458 10999 net.cpp:399] pool4/3x3_s2_pool4/3x3_s2_0_split -> pool4/3x3_s2_pool4/3x3_s2_0_split_1
I0403 15:41:47.069480 10999 net.cpp:399] pool4/3x3_s2_pool4/3x3_s2_0_split -> pool4/3x3_s2_pool4/3x3_s2_0_split_2
I0403 15:41:47.069500 10999 net.cpp:399] pool4/3x3_s2_pool4/3x3_s2_0_split -> pool4/3x3_s2_pool4/3x3_s2_0_split_3
I0403 15:41:47.069610 10999 net.cpp:141] Setting up pool4/3x3_s2_pool4/3x3_s2_0_split
I0403 15:41:47.069634 10999 net.cpp:148] Top shape: 24 832 7 7 (978432)
I0403 15:41:47.069650 10999 net.cpp:148] Top shape: 24 832 7 7 (978432)
I0403 15:41:47.069665 10999 net.cpp:148] Top shape: 24 832 7 7 (978432)
I0403 15:41:47.069681 10999 net.cpp:148] Top shape: 24 832 7 7 (978432)
I0403 15:41:47.069694 10999 net.cpp:156] Memory required for data: 1292125728
I0403 15:41:47.069710 10999 layer_factory.hpp:77] Creating layer inception_5a/1x1
I0403 15:41:47.069731 10999 net.cpp:91] Creating Layer inception_5a/1x1
I0403 15:41:47.069749 10999 net.cpp:425] inception_5a/1x1 <- pool4/3x3_s2_pool4/3x3_s2_0_split_0
I0403 15:41:47.069771 10999 net.cpp:399] inception_5a/1x1 -> inception_5a/1x1
I0403 15:41:47.072788 10999 net.cpp:141] Setting up inception_5a/1x1
I0403 15:41:47.072818 10999 net.cpp:148] Top shape: 24 256 7 7 (301056)
I0403 15:41:47.072834 10999 net.cpp:156] Memory required for data: 1293329952
I0403 15:41:47.072854 10999 layer_factory.hpp:77] Creating layer inception_5a/relu_1x1
I0403 15:41:47.072875 10999 net.cpp:91] Creating Layer inception_5a/relu_1x1
I0403 15:41:47.072891 10999 net.cpp:425] inception_5a/relu_1x1 <- inception_5a/1x1
I0403 15:41:47.072909 10999 net.cpp:386] inception_5a/relu_1x1 -> inception_5a/1x1 (in-place)
I0403 15:41:47.073251 10999 net.cpp:141] Setting up inception_5a/relu_1x1
I0403 15:41:47.073288 10999 net.cpp:148] Top shape: 24 256 7 7 (301056)
I0403 15:41:47.073307 10999 net.cpp:156] Memory required for data: 1294534176
I0403 15:41:47.073323 10999 layer_factory.hpp:77] Creating layer inception_5a/3x3_reduce
I0403 15:41:47.073346 10999 net.cpp:91] Creating Layer inception_5a/3x3_reduce
I0403 15:41:47.073365 10999 net.cpp:425] inception_5a/3x3_reduce <- pool4/3x3_s2_pool4/3x3_s2_0_split_1
I0403 15:41:47.073388 10999 net.cpp:399] inception_5a/3x3_reduce -> inception_5a/3x3_reduce
I0403 15:41:47.075963 10999 net.cpp:141] Setting up inception_5a/3x3_reduce
I0403 15:41:47.076000 10999 net.cpp:148] Top shape: 24 160 7 7 (188160)
I0403 15:41:47.076019 10999 net.cpp:156] Memory required for data: 1295286816
I0403 15:41:47.076037 10999 layer_factory.hpp:77] Creating layer inception_5a/relu_3x3_reduce
I0403 15:41:47.076056 10999 net.cpp:91] Creating Layer inception_5a/relu_3x3_reduce
I0403 15:41:47.076072 10999 net.cpp:425] inception_5a/relu_3x3_reduce <- inception_5a/3x3_reduce
I0403 15:41:47.076092 10999 net.cpp:386] inception_5a/relu_3x3_reduce -> inception_5a/3x3_reduce (in-place)
I0403 15:41:47.076284 10999 net.cpp:141] Setting up inception_5a/relu_3x3_reduce
I0403 15:41:47.076310 10999 net.cpp:148] Top shape: 24 160 7 7 (188160)
I0403 15:41:47.076325 10999 net.cpp:156] Memory required for data: 1296039456
I0403 15:41:47.076340 10999 layer_factory.hpp:77] Creating layer inception_5a/3x3
I0403 15:41:47.076362 10999 net.cpp:91] Creating Layer inception_5a/3x3
I0403 15:41:47.076381 10999 net.cpp:425] inception_5a/3x3 <- inception_5a/3x3_reduce
I0403 15:41:47.076403 10999 net.cpp:399] inception_5a/3x3 -> inception_5a/3x3
I0403 15:41:47.081765 10999 net.cpp:141] Setting up inception_5a/3x3
I0403 15:41:47.081796 10999 net.cpp:148] Top shape: 24 320 7 7 (376320)
I0403 15:41:47.081814 10999 net.cpp:156] Memory required for data: 1297544736
I0403 15:41:47.081832 10999 layer_factory.hpp:77] Creating layer inception_5a/relu_3x3
I0403 15:41:47.081853 10999 net.cpp:91] Creating Layer inception_5a/relu_3x3
I0403 15:41:47.081871 10999 net.cpp:425] inception_5a/relu_3x3 <- inception_5a/3x3
I0403 15:41:47.081889 10999 net.cpp:386] inception_5a/relu_3x3 -> inception_5a/3x3 (in-place)
I0403 15:41:47.082201 10999 net.cpp:141] Setting up inception_5a/relu_3x3
I0403 15:41:47.082227 10999 net.cpp:148] Top shape: 24 320 7 7 (376320)
I0403 15:41:47.082243 10999 net.cpp:156] Memory required for data: 1299050016
I0403 15:41:47.082259 10999 layer_factory.hpp:77] Creating layer inception_5a/5x5_reduce
I0403 15:41:47.082283 10999 net.cpp:91] Creating Layer inception_5a/5x5_reduce
I0403 15:41:47.082301 10999 net.cpp:425] inception_5a/5x5_reduce <- pool4/3x3_s2_pool4/3x3_s2_0_split_2
I0403 15:41:47.082324 10999 net.cpp:399] inception_5a/5x5_reduce -> inception_5a/5x5_reduce
I0403 15:41:47.083588 10999 net.cpp:141] Setting up inception_5a/5x5_reduce
I0403 15:41:47.083618 10999 net.cpp:148] Top shape: 24 32 7 7 (37632)
I0403 15:41:47.083636 10999 net.cpp:156] Memory required for data: 1299200544
I0403 15:41:47.083655 10999 layer_factory.hpp:77] Creating layer inception_5a/relu_5x5_reduce
I0403 15:41:47.083678 10999 net.cpp:91] Creating Layer inception_5a/relu_5x5_reduce
I0403 15:41:47.083696 10999 net.cpp:425] inception_5a/relu_5x5_reduce <- inception_5a/5x5_reduce
I0403 15:41:47.083727 10999 net.cpp:386] inception_5a/relu_5x5_reduce -> inception_5a/5x5_reduce (in-place)
I0403 15:41:47.084039 10999 net.cpp:141] Setting up inception_5a/relu_5x5_reduce
I0403 15:41:47.084066 10999 net.cpp:148] Top shape: 24 32 7 7 (37632)
I0403 15:41:47.084082 10999 net.cpp:156] Memory required for data: 1299351072
I0403 15:41:47.084097 10999 layer_factory.hpp:77] Creating layer inception_5a/5x5
I0403 15:41:47.084121 10999 net.cpp:91] Creating Layer inception_5a/5x5
I0403 15:41:47.084139 10999 net.cpp:425] inception_5a/5x5 <- inception_5a/5x5_reduce
I0403 15:41:47.084162 10999 net.cpp:399] inception_5a/5x5 -> inception_5a/5x5
I0403 15:41:47.086019 10999 net.cpp:141] Setting up inception_5a/5x5
I0403 15:41:47.086060 10999 net.cpp:148] Top shape: 24 128 7 7 (150528)
I0403 15:41:47.086082 10999 net.cpp:156] Memory required for data: 1299953184
I0403 15:41:47.086105 10999 layer_factory.hpp:77] Creating layer inception_5a/relu_5x5
I0403 15:41:47.086127 10999 net.cpp:91] Creating Layer inception_5a/relu_5x5
I0403 15:41:47.086145 10999 net.cpp:425] inception_5a/relu_5x5 <- inception_5a/5x5
I0403 15:41:47.086163 10999 net.cpp:386] inception_5a/relu_5x5 -> inception_5a/5x5 (in-place)
I0403 15:41:47.086361 10999 net.cpp:141] Setting up inception_5a/relu_5x5
I0403 15:41:47.086387 10999 net.cpp:148] Top shape: 24 128 7 7 (150528)
I0403 15:41:47.086403 10999 net.cpp:156] Memory required for data: 1300555296
I0403 15:41:47.086419 10999 layer_factory.hpp:77] Creating layer inception_5a/pool
I0403 15:41:47.086439 10999 net.cpp:91] Creating Layer inception_5a/pool
I0403 15:41:47.086457 10999 net.cpp:425] inception_5a/pool <- pool4/3x3_s2_pool4/3x3_s2_0_split_3
I0403 15:41:47.086477 10999 net.cpp:399] inception_5a/pool -> inception_5a/pool
I0403 15:41:47.086550 10999 net.cpp:141] Setting up inception_5a/pool
I0403 15:41:47.086586 10999 net.cpp:148] Top shape: 24 832 7 7 (978432)
I0403 15:41:47.086601 10999 net.cpp:156] Memory required for data: 1304469024
I0403 15:41:47.086617 10999 layer_factory.hpp:77] Creating layer inception_5a/pool_proj
I0403 15:41:47.086640 10999 net.cpp:91] Creating Layer inception_5a/pool_proj
I0403 15:41:47.086659 10999 net.cpp:425] inception_5a/pool_proj <- inception_5a/pool
I0403 15:41:47.086680 10999 net.cpp:399] inception_5a/pool_proj -> inception_5a/pool_proj
I0403 15:41:47.089121 10999 net.cpp:141] Setting up inception_5a/pool_proj
I0403 15:41:47.089151 10999 net.cpp:148] Top shape: 24 128 7 7 (150528)
I0403 15:41:47.089167 10999 net.cpp:156] Memory required for data: 1305071136
I0403 15:41:47.089186 10999 layer_factory.hpp:77] Creating layer inception_5a/relu_pool_proj
I0403 15:41:47.089205 10999 net.cpp:91] Creating Layer inception_5a/relu_pool_proj
I0403 15:41:47.089221 10999 net.cpp:425] inception_5a/relu_pool_proj <- inception_5a/pool_proj
I0403 15:41:47.089241 10999 net.cpp:386] inception_5a/relu_pool_proj -> inception_5a/pool_proj (in-place)
I0403 15:41:47.089540 10999 net.cpp:141] Setting up inception_5a/relu_pool_proj
I0403 15:41:47.089566 10999 net.cpp:148] Top shape: 24 128 7 7 (150528)
I0403 15:41:47.089582 10999 net.cpp:156] Memory required for data: 1305673248
I0403 15:41:47.089597 10999 layer_factory.hpp:77] Creating layer inception_5a/output
I0403 15:41:47.089614 10999 net.cpp:91] Creating Layer inception_5a/output
I0403 15:41:47.089632 10999 net.cpp:425] inception_5a/output <- inception_5a/1x1
I0403 15:41:47.089648 10999 net.cpp:425] inception_5a/output <- inception_5a/3x3
I0403 15:41:47.089665 10999 net.cpp:425] inception_5a/output <- inception_5a/5x5
I0403 15:41:47.089681 10999 net.cpp:425] inception_5a/output <- inception_5a/pool_proj
I0403 15:41:47.089700 10999 net.cpp:399] inception_5a/output -> inception_5a/output
I0403 15:41:47.089751 10999 net.cpp:141] Setting up inception_5a/output
I0403 15:41:47.089777 10999 net.cpp:148] Top shape: 24 832 7 7 (978432)
I0403 15:41:47.089793 10999 net.cpp:156] Memory required for data: 1309586976
I0403 15:41:47.089808 10999 layer_factory.hpp:77] Creating layer inception_5a/output_inception_5a/output_0_split
I0403 15:41:47.089825 10999 net.cpp:91] Creating Layer inception_5a/output_inception_5a/output_0_split
I0403 15:41:47.089840 10999 net.cpp:425] inception_5a/output_inception_5a/output_0_split <- inception_5a/output
I0403 15:41:47.089857 10999 net.cpp:399] inception_5a/output_inception_5a/output_0_split -> inception_5a/output_inception_5a/output_0_split_0
I0403 15:41:47.089877 10999 net.cpp:399] inception_5a/output_inception_5a/output_0_split -> inception_5a/output_inception_5a/output_0_split_1
I0403 15:41:47.089913 10999 net.cpp:399] inception_5a/output_inception_5a/output_0_split -> inception_5a/output_inception_5a/output_0_split_2
I0403 15:41:47.089936 10999 net.cpp:399] inception_5a/output_inception_5a/output_0_split -> inception_5a/output_inception_5a/output_0_split_3
I0403 15:41:47.090057 10999 net.cpp:141] Setting up inception_5a/output_inception_5a/output_0_split
I0403 15:41:47.090082 10999 net.cpp:148] Top shape: 24 832 7 7 (978432)
I0403 15:41:47.090100 10999 net.cpp:148] Top shape: 24 832 7 7 (978432)
I0403 15:41:47.090116 10999 net.cpp:148] Top shape: 24 832 7 7 (978432)
I0403 15:41:47.090131 10999 net.cpp:148] Top shape: 24 832 7 7 (978432)
I0403 15:41:47.090145 10999 net.cpp:156] Memory required for data: 1325241888
I0403 15:41:47.090160 10999 layer_factory.hpp:77] Creating layer inception_5b/1x1
I0403 15:41:47.090188 10999 net.cpp:91] Creating Layer inception_5b/1x1
I0403 15:41:47.090206 10999 net.cpp:425] inception_5b/1x1 <- inception_5a/output_inception_5a/output_0_split_0
I0403 15:41:47.090229 10999 net.cpp:399] inception_5b/1x1 -> inception_5b/1x1
I0403 15:41:47.094223 10999 net.cpp:141] Setting up inception_5b/1x1
I0403 15:41:47.094255 10999 net.cpp:148] Top shape: 24 384 7 7 (451584)
I0403 15:41:47.094272 10999 net.cpp:156] Memory required for data: 1327048224
I0403 15:41:47.094291 10999 layer_factory.hpp:77] Creating layer inception_5b/relu_1x1
I0403 15:41:47.094310 10999 net.cpp:91] Creating Layer inception_5b/relu_1x1
I0403 15:41:47.094327 10999 net.cpp:425] inception_5b/relu_1x1 <- inception_5b/1x1
I0403 15:41:47.094347 10999 net.cpp:386] inception_5b/relu_1x1 -> inception_5b/1x1 (in-place)
I0403 15:41:47.094666 10999 net.cpp:141] Setting up inception_5b/relu_1x1
I0403 15:41:47.094694 10999 net.cpp:148] Top shape: 24 384 7 7 (451584)
I0403 15:41:47.094710 10999 net.cpp:156] Memory required for data: 1328854560
I0403 15:41:47.094725 10999 layer_factory.hpp:77] Creating layer inception_5b/3x3_reduce
I0403 15:41:47.094748 10999 net.cpp:91] Creating Layer inception_5b/3x3_reduce
I0403 15:41:47.094765 10999 net.cpp:425] inception_5b/3x3_reduce <- inception_5a/output_inception_5a/output_0_split_1
I0403 15:41:47.094784 10999 net.cpp:399] inception_5b/3x3_reduce -> inception_5b/3x3_reduce
I0403 15:41:47.097515 10999 net.cpp:141] Setting up inception_5b/3x3_reduce
I0403 15:41:47.097544 10999 net.cpp:148] Top shape: 24 192 7 7 (225792)
I0403 15:41:47.097560 10999 net.cpp:156] Memory required for data: 1329757728
I0403 15:41:47.097579 10999 layer_factory.hpp:77] Creating layer inception_5b/relu_3x3_reduce
I0403 15:41:47.097597 10999 net.cpp:91] Creating Layer inception_5b/relu_3x3_reduce
I0403 15:41:47.097615 10999 net.cpp:425] inception_5b/relu_3x3_reduce <- inception_5b/3x3_reduce
I0403 15:41:47.097635 10999 net.cpp:386] inception_5b/relu_3x3_reduce -> inception_5b/3x3_reduce (in-place)
I0403 15:41:47.097827 10999 net.cpp:141] Setting up inception_5b/relu_3x3_reduce
I0403 15:41:47.097852 10999 net.cpp:148] Top shape: 24 192 7 7 (225792)
I0403 15:41:47.097867 10999 net.cpp:156] Memory required for data: 1330660896
I0403 15:41:47.097882 10999 layer_factory.hpp:77] Creating layer inception_5b/3x3
I0403 15:41:47.097904 10999 net.cpp:91] Creating Layer inception_5b/3x3
I0403 15:41:47.097924 10999 net.cpp:425] inception_5b/3x3 <- inception_5b/3x3_reduce
I0403 15:41:47.097946 10999 net.cpp:399] inception_5b/3x3 -> inception_5b/3x3
I0403 15:41:47.104805 10999 net.cpp:141] Setting up inception_5b/3x3
I0403 15:41:47.104833 10999 net.cpp:148] Top shape: 24 384 7 7 (451584)
I0403 15:41:47.104851 10999 net.cpp:156] Memory required for data: 1332467232
I0403 15:41:47.104868 10999 layer_factory.hpp:77] Creating layer inception_5b/relu_3x3
I0403 15:41:47.104887 10999 net.cpp:91] Creating Layer inception_5b/relu_3x3
I0403 15:41:47.104903 10999 net.cpp:425] inception_5b/relu_3x3 <- inception_5b/3x3
I0403 15:41:47.104923 10999 net.cpp:386] inception_5b/relu_3x3 -> inception_5b/3x3 (in-place)
I0403 15:41:47.105243 10999 net.cpp:141] Setting up inception_5b/relu_3x3
I0403 15:41:47.105271 10999 net.cpp:148] Top shape: 24 384 7 7 (451584)
I0403 15:41:47.105286 10999 net.cpp:156] Memory required for data: 1334273568
I0403 15:41:47.105303 10999 layer_factory.hpp:77] Creating layer inception_5b/5x5_reduce
I0403 15:41:47.105340 10999 net.cpp:91] Creating Layer inception_5b/5x5_reduce
I0403 15:41:47.105360 10999 net.cpp:425] inception_5b/5x5_reduce <- inception_5a/output_inception_5a/output_0_split_2
I0403 15:41:47.105383 10999 net.cpp:399] inception_5b/5x5_reduce -> inception_5b/5x5_reduce
I0403 15:41:47.106716 10999 net.cpp:141] Setting up inception_5b/5x5_reduce
I0403 15:41:47.106745 10999 net.cpp:148] Top shape: 24 48 7 7 (56448)
I0403 15:41:47.106760 10999 net.cpp:156] Memory required for data: 1334499360
I0403 15:41:47.106791 10999 layer_factory.hpp:77] Creating layer inception_5b/relu_5x5_reduce
I0403 15:41:47.106808 10999 net.cpp:91] Creating Layer inception_5b/relu_5x5_reduce
I0403 15:41:47.106828 10999 net.cpp:425] inception_5b/relu_5x5_reduce <- inception_5b/5x5_reduce
I0403 15:41:47.106848 10999 net.cpp:386] inception_5b/relu_5x5_reduce -> inception_5b/5x5_reduce (in-place)
I0403 15:41:47.107265 10999 net.cpp:141] Setting up inception_5b/relu_5x5_reduce
I0403 15:41:47.107293 10999 net.cpp:148] Top shape: 24 48 7 7 (56448)
I0403 15:41:47.107309 10999 net.cpp:156] Memory required for data: 1334725152
I0403 15:41:47.107337 10999 layer_factory.hpp:77] Creating layer inception_5b/5x5
I0403 15:41:47.107358 10999 net.cpp:91] Creating Layer inception_5b/5x5
I0403 15:41:47.107374 10999 net.cpp:425] inception_5b/5x5 <- inception_5b/5x5_reduce
I0403 15:41:47.107393 10999 net.cpp:399] inception_5b/5x5 -> inception_5b/5x5
I0403 15:41:47.109501 10999 net.cpp:141] Setting up inception_5b/5x5
I0403 15:41:47.109530 10999 net.cpp:148] Top shape: 24 128 7 7 (150528)
I0403 15:41:47.109545 10999 net.cpp:156] Memory required for data: 1335327264
I0403 15:41:47.109563 10999 layer_factory.hpp:77] Creating layer inception_5b/relu_5x5
I0403 15:41:47.109585 10999 net.cpp:91] Creating Layer inception_5b/relu_5x5
I0403 15:41:47.109601 10999 net.cpp:425] inception_5b/relu_5x5 <- inception_5b/5x5
I0403 15:41:47.109618 10999 net.cpp:386] inception_5b/relu_5x5 -> inception_5b/5x5 (in-place)
I0403 15:41:47.109813 10999 net.cpp:141] Setting up inception_5b/relu_5x5
I0403 15:41:47.109840 10999 net.cpp:148] Top shape: 24 128 7 7 (150528)
I0403 15:41:47.109856 10999 net.cpp:156] Memory required for data: 1335929376
I0403 15:41:47.109871 10999 layer_factory.hpp:77] Creating layer inception_5b/pool
I0403 15:41:47.109889 10999 net.cpp:91] Creating Layer inception_5b/pool
I0403 15:41:47.109906 10999 net.cpp:425] inception_5b/pool <- inception_5a/output_inception_5a/output_0_split_3
I0403 15:41:47.109936 10999 net.cpp:399] inception_5b/pool -> inception_5b/pool
I0403 15:41:47.110018 10999 net.cpp:141] Setting up inception_5b/pool
I0403 15:41:47.110054 10999 net.cpp:148] Top shape: 24 832 7 7 (978432)
I0403 15:41:47.110069 10999 net.cpp:156] Memory required for data: 1339843104
I0403 15:41:47.110085 10999 layer_factory.hpp:77] Creating layer inception_5b/pool_proj
I0403 15:41:47.110108 10999 net.cpp:91] Creating Layer inception_5b/pool_proj
I0403 15:41:47.110128 10999 net.cpp:425] inception_5b/pool_proj <- inception_5b/pool
I0403 15:41:47.110152 10999 net.cpp:399] inception_5b/pool_proj -> inception_5b/pool_proj
I0403 15:41:47.112543 10999 net.cpp:141] Setting up inception_5b/pool_proj
I0403 15:41:47.112573 10999 net.cpp:148] Top shape: 24 128 7 7 (150528)
I0403 15:41:47.112589 10999 net.cpp:156] Memory required for data: 1340445216
I0403 15:41:47.112608 10999 layer_factory.hpp:77] Creating layer inception_5b/relu_pool_proj
I0403 15:41:47.112628 10999 net.cpp:91] Creating Layer inception_5b/relu_pool_proj
I0403 15:41:47.112645 10999 net.cpp:425] inception_5b/relu_pool_proj <- inception_5b/pool_proj
I0403 15:41:47.112663 10999 net.cpp:386] inception_5b/relu_pool_proj -> inception_5b/pool_proj (in-place)
I0403 15:41:47.112965 10999 net.cpp:141] Setting up inception_5b/relu_pool_proj
I0403 15:41:47.112996 10999 net.cpp:148] Top shape: 24 128 7 7 (150528)
I0403 15:41:47.113013 10999 net.cpp:156] Memory required for data: 1341047328
I0403 15:41:47.113028 10999 layer_factory.hpp:77] Creating layer inception_5b/output
I0403 15:41:47.113045 10999 net.cpp:91] Creating Layer inception_5b/output
I0403 15:41:47.113076 10999 net.cpp:425] inception_5b/output <- inception_5b/1x1
I0403 15:41:47.113095 10999 net.cpp:425] inception_5b/output <- inception_5b/3x3
I0403 15:41:47.113111 10999 net.cpp:425] inception_5b/output <- inception_5b/5x5
I0403 15:41:47.113127 10999 net.cpp:425] inception_5b/output <- inception_5b/pool_proj
I0403 15:41:47.113147 10999 net.cpp:399] inception_5b/output -> inception_5b/output
I0403 15:41:47.113199 10999 net.cpp:141] Setting up inception_5b/output
I0403 15:41:47.113239 10999 net.cpp:148] Top shape: 24 1024 7 7 (1204224)
I0403 15:41:47.113255 10999 net.cpp:156] Memory required for data: 1345864224
I0403 15:41:47.113270 10999 layer_factory.hpp:77] Creating layer pool5/7x7_s1
I0403 15:41:47.113287 10999 net.cpp:91] Creating Layer pool5/7x7_s1
I0403 15:41:47.113304 10999 net.cpp:425] pool5/7x7_s1 <- inception_5b/output
I0403 15:41:47.113327 10999 net.cpp:399] pool5/7x7_s1 -> pool5/7x7_s1
I0403 15:41:47.113560 10999 net.cpp:141] Setting up pool5/7x7_s1
I0403 15:41:47.113585 10999 net.cpp:148] Top shape: 24 1024 1 1 (24576)
I0403 15:41:47.113600 10999 net.cpp:156] Memory required for data: 1345962528
I0403 15:41:47.113615 10999 layer_factory.hpp:77] Creating layer pool5/drop_7x7_s1
I0403 15:41:47.113636 10999 net.cpp:91] Creating Layer pool5/drop_7x7_s1
I0403 15:41:47.113653 10999 net.cpp:425] pool5/drop_7x7_s1 <- pool5/7x7_s1
I0403 15:41:47.113670 10999 net.cpp:386] pool5/drop_7x7_s1 -> pool5/7x7_s1 (in-place)
I0403 15:41:47.113720 10999 net.cpp:141] Setting up pool5/drop_7x7_s1
I0403 15:41:47.113745 10999 net.cpp:148] Top shape: 24 1024 1 1 (24576)
I0403 15:41:47.113761 10999 net.cpp:156] Memory required for data: 1346060832
I0403 15:41:47.113776 10999 layer_factory.hpp:77] Creating layer loss3/classifier_plantvillage
I0403 15:41:47.113795 10999 net.cpp:91] Creating Layer loss3/classifier_plantvillage
I0403 15:41:47.113811 10999 net.cpp:425] loss3/classifier_plantvillage <- pool5/7x7_s1
I0403 15:41:47.113832 10999 net.cpp:399] loss3/classifier_plantvillage -> loss3/classifier_plantvillage
I0403 15:41:47.114264 10999 net.cpp:141] Setting up loss3/classifier_plantvillage
I0403 15:41:47.114289 10999 net.cpp:148] Top shape: 24 38 (912)
I0403 15:41:47.114305 10999 net.cpp:156] Memory required for data: 1346064480
I0403 15:41:47.114322 10999 layer_factory.hpp:77] Creating layer loss3/classifier_plantvillage_loss3/classifier_plantvillage_0_split
I0403 15:41:47.114341 10999 net.cpp:91] Creating Layer loss3/classifier_plantvillage_loss3/classifier_plantvillage_0_split
I0403 15:41:47.114356 10999 net.cpp:425] loss3/classifier_plantvillage_loss3/classifier_plantvillage_0_split <- loss3/classifier_plantvillage
I0403 15:41:47.114374 10999 net.cpp:399] loss3/classifier_plantvillage_loss3/classifier_plantvillage_0_split -> loss3/classifier_plantvillage_loss3/classifier_plantvillage_0_split_0
I0403 15:41:47.114398 10999 net.cpp:399] loss3/classifier_plantvillage_loss3/classifier_plantvillage_0_split -> loss3/classifier_plantvillage_loss3/classifier_plantvillage_0_split_1
I0403 15:41:47.114420 10999 net.cpp:399] loss3/classifier_plantvillage_loss3/classifier_plantvillage_0_split -> loss3/classifier_plantvillage_loss3/classifier_plantvillage_0_split_2
I0403 15:41:47.114440 10999 net.cpp:399] loss3/classifier_plantvillage_loss3/classifier_plantvillage_0_split -> loss3/classifier_plantvillage_loss3/classifier_plantvillage_0_split_3
I0403 15:41:47.114543 10999 net.cpp:141] Setting up loss3/classifier_plantvillage_loss3/classifier_plantvillage_0_split
I0403 15:41:47.114567 10999 net.cpp:148] Top shape: 24 38 (912)
I0403 15:41:47.114583 10999 net.cpp:148] Top shape: 24 38 (912)
I0403 15:41:47.114598 10999 net.cpp:148] Top shape: 24 38 (912)
I0403 15:41:47.114614 10999 net.cpp:148] Top shape: 24 38 (912)
I0403 15:41:47.114626 10999 net.cpp:156] Memory required for data: 1346079072
I0403 15:41:47.114641 10999 layer_factory.hpp:77] Creating layer loss1/loss
I0403 15:41:47.114665 10999 net.cpp:91] Creating Layer loss1/loss
I0403 15:41:47.114683 10999 net.cpp:425] loss1/loss <- loss1/classifier_plantvillage_loss1/classifier_plantvillage_0_split_0
I0403 15:41:47.114714 10999 net.cpp:425] loss1/loss <- label_data_1_split_0
…
