…
I0403 15:33:49.263933 10562 net.cpp:313] The NetState phase (1) differed from the phase (0) specified by a rule in layer data
I0403 15:33:49.265244 10562 net.cpp:49] Initializing net from parameters: 
state {
  phase: TEST
}
layer {
  name: "data"
  type: "Data"
  top: "data"
  top: "label"
  include {
    phase: TEST
  }
  transform_param {
    mirror: false
    crop_size: 224
    mean_file: "/home/mohanty/data/final_dataset/lmdb/segmented-80-20/mean.binaryproto"
  }
  data_param {
    source: "/home/mohanty/data/final_dataset/lmdb/segmented-80-20/test_db"
    batch_size: 24
    backend: LMDB
  }
}
layer {
  name: "conv1/7x7_s2"
  type: "Convolution"
  bottom: "data"
  top: "conv1/7x7_s2"
  param {
    lr_mult: 1
    decay_mult: 1
  }
  param {
    lr_mult: 2
    decay_mult: 0
  }
  convolution_param {
    num_output: 64
    pad: 3
    kernel_size: 7
    stride: 2
    weight_filler {
      type: "xavier"
      std: 0.1
    }
    bias_filler {
      type: "constant"
      value: 0.2
    }
  }
}
layer {
  name: "conv1/relu_7x7"
  type: "ReLU"
  bottom: "conv1/7x7_s2"
  top: "conv1/7x7_s2"
}
layer {
  name: "pool1/3x3_s2"
  type: "Pooling"
  bottom: "conv1/7x7_s2"
  top: "pool1/3x3_s2"
  pooling_param {
    pool: MAX
    kernel_size: 3
    stride: 2
  }
}
layer {
  name: "pool1/norm1"
  type: "LRN"
  bottom: "pool1/3x3_s2"
  top: "pool1/norm1"
  lrn_param {
    local_size: 5
    alpha: 0.0001
    beta: 0.75
  }
}
layer {
  name: "conv2/3x3_reduce"
  type: "Convolution"
  bottom: "pool1/norm1"
  top: "conv2/3x3_reduce"
  param {
    lr_mult: 1
    decay_mult: 1
  }
  param {
    lr_mult: 2
    decay_mult: 0
  }
  convolution_param {
    num_output: 64
    kernel_size: 1
    weight_filler {
      type: "xavier"
      std: 0.1
    }
    bias_filler {
      type: "constant"
      value: 0.2
    }
  }
}
layer {
  name: "conv2/relu_3x3_reduce"
  type: "ReLU"
  bottom: "conv2/3x3_reduce"
  top: "conv2/3x3_reduce"
}
layer {
  name: "conv2/3x3"
  type: "Convolution"
  bottom: "conv2/3x3_reduce"
  top: "conv2/3x3"
  param {
    lr_mult: 1
    decay_mult: 1
  }
  param {
    lr_mult: 2
    decay_mult: 0
  }
  convolution_param {
    num_output: 192
    pad: 1
    kernel_size: 3
    weight_filler {
      type: "xavier"
      std: 0.03
    }
    bias_filler {
      type: "constant"
      value: 0.2
    }
  }
}
layer {
  name: "conv2/relu_3x3"
  type: "ReLU"
  bottom: "conv2/3x3"
  top: "conv2/3x3"
}
layer {
  name: "conv2/norm2"
  type: "LRN"
  bottom: "conv2/3x3"
  top: "conv2/norm2"
  lrn_param {
    local_size: 5
    alpha: 0.0001
    beta: 0.75
  }
}
layer {
  name: "pool2/3x3_s2"
  type: "Pooling"
  bottom: "conv2/norm2"
  top: "pool2/3x3_s2"
  pooling_param {
    pool: MAX
    kernel_size: 3
    stride: 2
  }
}
layer {
  name: "inception_3a/1x1"
  type: "Convolution"
  bottom: "pool2/3x3_s2"
  top: "inception_3a/1x1"
  param {
    lr_mult: 1
    decay_mult: 1
  }
  param {
    lr_mult: 2
    decay_mult: 0
  }
  convolution_param {
    num_output: 64
    kernel_size: 1
    weight_filler {
      type: "xavier"
      std: 0.03
    }
    bias_filler {
      type: "constant"
      value: 0.2
    }
  }
}
layer {
  name: "inception_3a/relu_1x1"
  type: "ReLU"
  bottom: "inception_3a/1x1"
  top: "inception_3a/1x1"
}
layer {
  name: "inception_3a/3x3_reduce"
  type: "Convolution"
  bottom: "pool2/3x3_s2"
  top: "inception_3a/3x3_reduce"
  param {
    lr_mult: 1
    decay_mult: 1
  }
  param {
    lr_mult: 2
    decay_mult: 0
  }
  convolution_param {
    num_output: 96
    kernel_size: 1
    weight_filler {
      type: "xavier"
      std: 0.09
    }
    bias_filler {
      type: "constant"
      value: 0.2
    }
  }
}
layer {
  name: "inception_3a/relu_3x3_reduce"
  type: "ReLU"
  bottom: "inception_3a/3x3_reduce"
  top: "inception_3a/3x3_reduce"
}
layer {
  name: "inception_3a/3x3"
  type: "Convolution"
  bottom: "inception_3a/3x3_reduce"
  top: "inception_3a/3x3"
  param {
    lr_mult: 1
    decay_mult: 1
  }
  param {
    lr_mult: 2
    decay_mult: 0
  }
  convolution_param {
    num_output: 128
    pad: 1
    kernel_size: 3
    weight_filler {
      type: "xavier"
      std: 0.03
    }
    bias_filler {
      type: "constant"
      value: 0.2
    }
  }
}
layer {
  name: "inception_3a/relu_3x3"
  type: "ReLU"
  bottom: "inception_3a/3x3"
  top: "inception_3a/3x3"
}
layer {
  name: "inception_3a/5x5_reduce"
  type: "Convolution"
  bottom: "pool2/3x3_s2"
  top: "inception_3a/5x5_reduce"
  param {
    lr_mult: 1
    decay_mult: 1
  }
  param {
    lr_mult: 2
    decay_mult: 0
  }
  convolution_param {
    num_output: 16
    kernel_size: 1
    weight_filler {
      type: "xavier"
      std: 0.2
    }
    bias_filler {
      type: "constant"
      value: 0.2
    }
  }
}
layer {
  name: "inception_3a/relu_5x5_reduce"
  type: "ReLU"
  bottom: "inception_3a/5x5_reduce"
  top: "inception_3a/5x5_reduce"
}
layer {
  name: "inception_3a/5x5"
  type: "Convolution"
  bottom: "inception_3a/5x5_reduce"
  top: "inception_3a/5x5"
  param {
    lr_mult: 1
    decay_mult: 1
  }
  param {
    lr_mult: 2
    decay_mult: 0
  }
  convolution_param {
    num_output: 32
    pad: 2
    kernel_size: 5
    weight_filler {
      type: "xavier"
      std: 0.03
    }
    bias_filler {
      type: "constant"
      value: 0.2
    }
  }
}
layer {
  name: "inception_3a/relu_5x5"
  type: "ReLU"
  bottom: "inception_3a/5x5"
  top: "inception_3a/5x5"
}
layer {
  name: "inception_3a/pool"
  type: "Pooling"
  bottom: "pool2/3x3_s2"
  top: "inception_3a/pool"
  pooling_param {
    pool: MAX
    kernel_size: 3
    stride: 1
    pad: 1
  }
}
layer {
  name: "inception_3a/pool_proj"
  type: "Convolution"
  bottom: "inception_3a/pool"
  top: "inception_3a/pool_proj"
  param {
    lr_mult: 1
    decay_mult: 1
  }
  param {
    lr_mult: 2
    decay_mult: 0
  }
  convolution_param {
    num_output: 32
    kernel_size: 1
    weight_filler {
      type: "xavier"
      std: 0.1
    }
    bias_filler {
      type: "constant"
      value: 0.2
    }
  }
}
layer {
  name: "inception_3a/relu_pool_proj"
  type: "ReLU"
  bottom: "inception_3a/pool_proj"
  top: "inception_3a/pool_proj"
}
layer {
  name: "inception_3a/output"
  type: "Concat"
  bottom: "inception_3a/1x1"
  bottom: "inception_3a/3x3"
  bottom: "inception_3a/5x5"
  bottom: "inception_3a/pool_proj"
  top: "inception_3a/output"
}
layer {
  name: "inception_3b/1x1"
  type: "Convolution"
  bottom: "inception_3a/output"
  top: "inception_3b/1x1"
  param {
    lr_mult: 1
    decay_mult: 1
  }
  param {
    lr_mult: 2
    decay_mult: 0
  }
  convolution_param {
    num_output: 128
    kernel_size: 1
    weight_filler {
      type: "xavier"
      std: 0.03
    }
    bias_filler {
      type: "constant"
      value: 0.2
    }
  }
}
layer {
  name: "inception_3b/relu_1x1"
  type: "ReLU"
  bottom: "inception_3b/1x1"
  top: "inception_3b/1x1"
}
layer {
  name: "inception_3b/3x3_reduce"
  type: "Convolution"
  bottom: "inception_3a/output"
  top: "inception_3b/3x3_reduce"
  param {
    lr_mult: 1
    decay_mult: 1
  }
  param {
    lr_mult: 2
    decay_mult: 0
  }
  convolution_param {
    num_output: 128
    kernel_size: 1
    weight_filler {
      type: "xavier"
      std: 0.09
    }
    bias_filler {
      type: "constant"
      value: 0.2
    }
  }
}
layer {
  name: "inception_3b/relu_3x3_reduce"
  type: "ReLU"
  bottom: "inception_3b/3x3_reduce"
  top: "inception_3b/3x3_reduce"
}
layer {
  name: "inception_3b/3x3"
  type: "Convolution"
  bottom: "inception_3b/3x3_reduce"
  top: "inception_3b/3x3"
  param {
    lr_mult: 1
    decay_mult: 1
  }
  param {
    lr_mult: 2
    decay_mult: 0
  }
  convolution_param {
    num_output: 192
    pad: 1
    kernel_size: 3
    weight_filler {
      type: "xavier"
      std: 0.03
    }
    bias_filler {
      type: "constant"
      value: 0.2
    }
  }
}
layer {
  name: "inception_3b/relu_3x3"
  type: "ReLU"
  bottom: "inception_3b/3x3"
  top: "inception_3b/3x3"
}
layer {
  name: "inception_3b/5x5_reduce"
  type: "Convolution"
  bottom: "inception_3a/output"
  top: "inception_3b/5x5_reduce"
  param {
    lr_mult: 1
    decay_mult: 1
  }
  param {
    lr_mult: 2
    decay_mult: 0
  }
  convolution_param {
    num_output: 32
    kernel_size: 1
    weight_filler {
      type: "xavier"
      std: 0.2
    }
    bias_filler {
      type: "constant"
      value: 0.2
    }
  }
}
layer {
  name: "inception_3b/relu_5x5_reduce"
  type: "ReLU"
  bottom: "inception_3b/5x5_reduce"
  top: "inception_3b/5x5_reduce"
}
layer {
  name: "inception_3b/5x5"
  type: "Convolution"
  bottom: "inception_3b/5x5_reduce"
  top: "inception_3b/5x5"
  param {
    lr_mult: 1
    decay_mult: 1
  }
  param {
    lr_mult: 2
    decay_mult: 0
  }
  convolution_param {
    num_output: 96
    pad: 2
    kernel_size: 5
    weight_filler {
      type: "xavier"
      std: 0.03
    }
    bias_filler {
      type: "constant"
      value: 0.2
    }
  }
}
layer {
  name: "inception_3b/relu_5x5"
  type: "ReLU"
  bottom: "inception_3b/5x5"
  top: "inception_3b/5x5"
}
layer {
  name: "inception_3b/pool"
  type: "Pooling"
  bottom: "inception_3a/output"
  top: "inception_3b/pool"
  pooling_param {
    pool: MAX
    kernel_size: 3
    stride: 1
    pad: 1
  }
}
layer {
  name: "inception_3b/pool_proj"
  type: "Convolution"
  bottom: "inception_3b/pool"
  top: "inception_3b/pool_proj"
  param {
    lr_mult: 1
    decay_mult: 1
  }
  param {
    lr_mult: 2
    decay_mult: 0
  }
  convolution_param {
    num_output: 64
    kernel_size: 1
    weight_filler {
      type: "xavier"
      std: 0.1
    }
    bias_filler {
      type: "constant"
      value: 0.2
    }
  }
}
layer {
  name: "inception_3b/relu_pool_proj"
  type: "ReLU"
  bottom: "inception_3b/pool_proj"
  top: "inception_3b/pool_proj"
}
layer {
  name: "inception_3b/output"
  type: "Concat"
  bottom: "inception_3b/1x1"
  bottom: "inception_3b/3x3"
  bottom: "inception_3b/5x5"
  bottom: "inception_3b/pool_proj"
  top: "inception_3b/output"
}
layer {
  name: "pool3/3x3_s2"
  type: "Pooling"
  bottom: "inception_3b/output"
  top: "pool3/3x3_s2"
  pooling_param {
    pool: MAX
    kernel_size: 3
    stride: 2
  }
}
layer {
  name: "inception_4a/1x1"
  type: "Convolution"
  bottom: "pool3/3x3_s2"
  top: "inception_4a/1x1"
  param {
    lr_mult: 1
    decay_mult: 1
  }
  param {
    lr_mult: 2
    decay_mult: 0
  }
  convolution_param {
    num_output: 192
    kernel_size: 1
    weight_filler {
      type: "xavier"
      std: 0.03
    }
    bias_filler {
      type: "constant"
      value: 0.2
    }
  }
}
layer {
  name: "inception_4a/relu_1x1"
  type: "ReLU"
  bottom: "inception_4a/1x1"
  top: "inception_4a/1x1"
}
layer {
  name: "inception_4a/3x3_reduce"
  type: "Convolution"
  bottom: "pool3/3x3_s2"
  top: "inception_4a/3x3_reduce"
  param {
    lr_mult: 1
    decay_mult: 1
  }
  param {
    lr_mult: 2
    decay_mult: 0
  }
  convolution_param {
    num_output: 96
    kernel_size: 1
    weight_filler {
      type: "xavier"
      std: 0.09
    }
    bias_filler {
      type: "constant"
      value: 0.2
    }
  }
}
layer {
  name: "inception_4a/relu_3x3_reduce"
  type: "ReLU"
  bottom: "inception_4a/3x3_reduce"
  top: "inception_4a/3x3_reduce"
}
layer {
  name: "inception_4a/3x3"
  type: "Convolution"
  bottom: "inception_4a/3x3_reduce"
  top: "inception_4a/3x3"
  param {
    lr_mult: 1
    decay_mult: 1
  }
  param {
    lr_mult: 2
    decay_mult: 0
  }
  convolution_param {
    num_output: 208
    pad: 1
    kernel_size: 3
    weight_filler {
      type: "xavier"
      std: 0.03
    }
    bias_filler {
      type: "constant"
      value: 0.2
    }
  }
}
layer {
  name: "inception_4a/relu_3x3"
  type: "ReLU"
  bottom: "inception_4a/3x3"
  top: "inception_4a/3x3"
}
layer {
  name: "inception_4a/5x5_reduce"
  type: "Convolution"
  bottom: "pool3/3x3_s2"
  top: "inception_4a/5x5_reduce"
  param {
    lr_mult: 1
    decay_mult: 1
  }
  param {
    lr_mult: 2
    decay_mult: 0
  }
  convolution_param {
    num_output: 16
    kernel_size: 1
    weight_filler {
      type: "xavier"
      std: 0.2
    }
    bias_filler {
      type: "constant"
      value: 0.2
    }
  }
}
layer {
  name: "inception_4a/relu_5x5_reduce"
  type: "ReLU"
  bottom: "inception_4a/5x5_reduce"
  top: "inception_4a/5x5_reduce"
}
layer {
  name: "inception_4a/5x5"
  type: "Convolution"
  bottom: "inception_4a/5x5_reduce"
  top: "inception_4a/5x5"
  param {
    lr_mult: 1
    decay_mult: 1
  }
  param {
    lr_mult: 2
    decay_mult: 0
  }
  convolution_param {
    num_output: 48
    pad: 2
    kernel_size: 5
    weight_filler {
      type: "xavier"
      std: 0.03
    }
    bias_filler {
      type: "constant"
      value: 0.2
    }
  }
}
layer {
  name: "inception_4a/relu_5x5"
  type: "ReLU"
  bottom: "inception_4a/5x5"
  top: "inception_4a/5x5"
}
layer {
  name: "inception_4a/pool"
  type: "Pooling"
  bottom: "pool3/3x3_s2"
  top: "inception_4a/pool"
  pooling_param {
    pool: MAX
    kernel_size: 3
    stride: 1
    pad: 1
  }
}
layer {
  name: "inception_4a/pool_proj"
  type: "Convolution"
  bottom: "inception_4a/pool"
  top: "inception_4a/pool_proj"
  param {
    lr_mult: 1
    decay_mult: 1
  }
  param {
    lr_mult: 2
    decay_mult: 0
  }
  convolution_param {
    num_output: 64
    kernel_size: 1
    weight_filler {
      type: "xavier"
      std: 0.1
    }
    bias_filler {
      type: "constant"
      value: 0.2
    }
  }
}
layer {
  name: "inception_4a/relu_pool_proj"
  type: "ReLU"
  bottom: "inception_4a/pool_proj"
  top: "inception_4a/pool_proj"
}
layer {
  name: "inception_4a/output"
  type: "Concat"
  bottom: "inception_4a/1x1"
  bottom: "inception_4a/3x3"
  bottom: "inception_4a/5x5"
  bottom: "inception_4a/pool_proj"
  top: "inception_4a/output"
}
layer {
  name: "loss1/ave_pool"
  type: "Pooling"
  bottom: "inception_4a/output"
  top: "loss1/ave_pool"
  pooling_param {
    pool: AVE
    kernel_size: 5
    stride: 3
  }
}
layer {
  name: "loss1/conv"
  type: "Convolution"
  bottom: "loss1/ave_pool"
  top: "loss1/conv"
  param {
    lr_mult: 1
    decay_mult: 1
  }
  param {
    lr_mult: 2
    decay_mult: 0
  }
  convolution_param {
    num_output: 128
    kernel_size: 1
    weight_filler {
      type: "xavier"
      std: 0.08
    }
    bias_filler {
      type: "constant"
      value: 0.2
    }
  }
}
layer {
  name: "loss1/relu_conv"
  type: "ReLU"
  bottom: "loss1/conv"
  top: "loss1/conv"
}
layer {
  name: "loss1/fc"
  type: "InnerProduct"
  bottom: "loss1/conv"
  top: "loss1/fc"
  param {
    lr_mult: 1
    decay_mult: 1
  }
  param {
    lr_mult: 2
    decay_mult: 0
  }
  inner_product_param {
    num_output: 1024
    weight_filler {
      type: "xavier"
      std: 0.02
    }
    bias_filler {
      type: "constant"
      value: 0.2
    }
  }
}
layer {
  name: "loss1/relu_fc"
  type: "ReLU"
  bottom: "loss1/fc"
  top: "loss1/fc"
}
layer {
  name: "loss1/drop_fc"
  type: "Dropout"
  bottom: "loss1/fc"
  top: "loss1/fc"
  dropout_param {
    dropout_ratio: 0.7
  }
}
layer {
  name: "loss1/classifier_plantvillage"
  type: "InnerProduct"
  bottom: "loss1/fc"
  top: "loss1/classifier_plantvillage"
  param {
    lr_mult: 1
    decay_mult: 1
  }
  param {
    lr_mult: 2
    decay_mult: 0
  }
  inner_product_param {
    num_output: 38
    weight_filler {
      type: "xavier"
      std: 0.0009765625
    }
    bias_filler {
      type: "constant"
      value: 0
    }
  }
}
layer {
  name: "inception_4b/1x1"
  type: "Convolution"
  bottom: "inception_4a/output"
  top: "inception_4b/1x1"
  param {
    lr_mult: 1
    decay_mult: 1
  }
  param {
    lr_mult: 2
    decay_mult: 0
  }
  convolution_param {
    num_output: 160
    kernel_size: 1
    weight_filler {
      type: "xavier"
      std: 0.03
    }
    bias_filler {
      type: "constant"
      value: 0.2
    }
  }
}
layer {
  name: "inception_4b/relu_1x1"
  type: "ReLU"
  bottom: "inception_4b/1x1"
  top: "inception_4b/1x1"
}
layer {
  name: "inception_4b/3x3_reduce"
  type: "Convolution"
  bottom: "inception_4a/output"
  top: "inception_4b/3x3_reduce"
  param {
    lr_mult: 1
    decay_mult: 1
  }
  param {
    lr_mult: 2
    decay_mult: 0
  }
  convolution_param {
    num_output: 112
    kernel_size: 1
    weight_filler {
      type: "xavier"
      std: 0.09
    }
    bias_filler {
      type: "constant"
      value: 0.2
    }
  }
}
layer {
  name: "inception_4b/relu_3x3_reduce"
  type: "ReLU"
  bottom: "inception_4b/3x3_reduce"
  top: "inception_4b/3x3_reduce"
}
layer {
  name: "inception_4b/3x3"
  type: "Convolution"
  bottom: "inception_4b/3x3_reduce"
  top: "inception_4b/3x3"
  param {
    lr_mult: 1
    decay_mult: 1
  }
  param {
    lr_mult: 2
    decay_mult: 0
  }
  convolution_param {
    num_output: 224
    pad: 1
    kernel_size: 3
    weight_filler {
      type: "xavier"
      std: 0.03
    }
    bias_filler {
      type: "constant"
      value: 0.2
    }
  }
}
layer {
  name: "inception_4b/relu_3x3"
  type: "ReLU"
  bottom: "inception_4b/3x3"
  top: "inception_4b/3x3"
}
layer {
  name: "inception_4b/5x5_reduce"
  type: "Convolution"
  bottom: "inception_4a/output"
  top: "inception_4b/5x5_reduce"
  param {
    lr_mult: 1
    decay_mult: 1
  }
  param {
    lr_mult: 2
    decay_mult: 0
  }
  convolution_param {
    num_output: 24
    kernel_size: 1
    weight_filler {
      type: "xavier"
      std: 0.2
    }
    bias_filler {
      type: "constant"
      value: 0.2
    }
  }
}
layer {
  name: "inception_4b/relu_5x5_reduce"
  type: "ReLU"
  bottom: "inception_4b/5x5_reduce"
  top: "inception_4b/5x5_reduce"
}
layer {
  name: "inception_4b/5x5"
  type: "Convolution"
  bottom: "inception_4b/5x5_reduce"
  top: "inception_4b/5x5"
  param {
    lr_mult: 1
    decay_mult: 1
  }
  param {
    lr_mult: 2
    decay_mult: 0
  }
  convolution_param {
    num_output: 64
    pad: 2
    kernel_size: 5
    weight_filler {
      type: "xavier"
      std: 0.03
    }
    bias_filler {
      type: "constant"
      value: 0.2
    }
  }
}
layer {
  name: "inception_4b/relu_5x5"
  type: "ReLU"
  bottom: "inception_4b/5x5"
  top: "inception_4b/5x5"
}
layer {
  name: "inception_4b/pool"
  type: "Pooling"
  bottom: "inception_4a/output"
  top: "inception_4b/pool"
  pooling_param {
    pool: MAX
    kernel_size: 3
    stride: 1
    pad: 1
  }
}
layer {
  name: "inception_4b/pool_proj"
  type: "Convolution"
  bottom: "inception_4b/pool"
  top: "inception_4b/pool_proj"
  param {
    lr_mult: 1
    decay_mult: 1
  }
  param {
    lr_mult: 2
    decay_mult: 0
  }
  convolution_param {
    num_output: 64
    kernel_size: 1
    weight_filler {
      type: "xavier"
      std: 0.1
    }
    bias_filler {
      type: "constant"
      value: 0.2
    }
  }
}
layer {
  name: "inception_4b/relu_pool_proj"
  type: "ReLU"
  bottom: "inception_4b/pool_proj"
  top: "inception_4b/pool_proj"
}
layer {
  name: "inception_4b/output"
  type: "Concat"
  bottom: "inception_4b/1x1"
  bottom: "inception_4b/3x3"
  bottom: "inception_4b/5x5"
  bottom: "inception_4b/pool_proj"
  top: "inception_4b/output"
}
layer {
  name: "inception_4c/1x1"
  type: "Convolution"
  bottom: "inception_4b/output"
  top: "inception_4c/1x1"
  param {
    lr_mult: 1
    decay_mult: 1
  }
  param {
    lr_mult: 2
    decay_mult: 0
  }
  convolution_param {
    num_output: 128
    kernel_size: 1
    weight_filler {
      type: "xavier"
      std: 0.03
    }
    bias_filler {
      type: "constant"
      value: 0.2
    }
  }
}
layer {
  name: "inception_4c/relu_1x1"
  type: "ReLU"
  bottom: "inception_4c/1x1"
  top: "inception_4c/1x1"
}
layer {
  name: "inception_4c/3x3_reduce"
  type: "Convolution"
  bottom: "inception_4b/output"
  top: "inception_4c/3x3_reduce"
  param {
    lr_mult: 1
    decay_mult: 1
  }
  param {
    lr_mult: 2
    decay_mult: 0
  }
  convolution_param {
    num_output: 128
    kernel_size: 1
    weight_filler {
      type: "xavier"
      std: 0.09
    }
    bias_filler {
      type: "constant"
      value: 0.2
    }
  }
}
layer {
  name: "inception_4c/relu_3x3_reduce"
  type: "ReLU"
  bottom: "inception_4c/3x3_reduce"
  top: "inception_4c/3x3_reduce"
}
layer {
  name: "inception_4c/3x3"
  type: "Convolution"
  bottom: "inception_4c/3x3_reduce"
  top: "inception_4c/3x3"
  param {
    lr_mult: 1
    decay_mult: 1
  }
  param {
    lr_mult: 2
    decay_mult: 0
  }
  convolution_param {
    num_output: 256
    pad: 1
    kernel_size: 3
    weight_filler {
      type: "xavier"
      std: 0.03
    }
    bias_filler {
      type: "constant"
      value: 0.2
    }
  }
}
layer {
  name: "inception_4c/relu_3x3"
  type: "ReLU"
  bottom: "inception_4c/3x3"
  top: "inception_4c/3x3"
}
layer {
  name: "inception_4c/5x5_reduce"
  type: "Convolution"
  bottom: "inception_4b/output"
  top: "inception_4c/5x5_reduce"
  param {
    lr_mult: 1
    decay_mult: 1
  }
  param {
    lr_mult: 2
    decay_mult: 0
  }
  convolution_param {
    num_output: 24
    kernel_size: 1
    weight_filler {
      type: "xavier"
      std: 0.2
    }
    bias_filler {
      type: "constant"
      value: 0.2
    }
  }
}
layer {
  name: "inception_4c/relu_5x5_reduce"
  type: "ReLU"
  bottom: "inception_4c/5x5_reduce"
  top: "inception_4c/5x5_reduce"
}
layer {
  name: "inception_4c/5x5"
  type: "Convolution"
  bottom: "inception_4c/5x5_reduce"
  top: "inception_4c/5x5"
  param {
    lr_mult: 1
    decay_mult: 1
  }
  param {
    lr_mult: 2
    decay_mult: 0
  }
  convolution_param {
    num_output: 64
    pad: 2
    kernel_size: 5
    weight_filler {
      type: "xavier"
      std: 0.03
    }
    bias_filler {
      type: "constant"
      value: 0.2
    }
  }
}
layer {
  name: "inception_4c/relu_5x5"
  type: "ReLU"
  bottom: "inception_4c/5x5"
  top: "inception_4c/5x5"
}
layer {
  name: "inception_4c/pool"
  type: "Pooling"
  bottom: "inception_4b/output"
  top: "inception_4c/pool"
  pooling_param {
    pool: MAX
    kernel_size: 3
    stride: 1
    pad: 1
  }
}
layer {
  name: "inception_4c/pool_proj"
  type: "Convolution"
  bottom: "inception_4c/pool"
  top: "inception_4c/pool_proj"
  param {
    lr_mult: 1
    decay_mult: 1
  }
  param {
    lr_mult: 2
    decay_mult: 0
  }
  convolution_param {
    num_output: 64
    kernel_size: 1
    weight_filler {
      type: "xavier"
      std: 0.1
    }
    bias_filler {
      type: "constant"
      value: 0.2
    }
  }
}
layer {
  name: "inception_4c/relu_pool_proj"
  type: "ReLU"
  bottom: "inception_4c/pool_proj"
  top: "inception_4c/pool_proj"
}
layer {
  name: "inception_4c/output"
  type: "Concat"
  bottom: "inception_4c/1x1"
  bottom: "inception_4c/3x3"
  bottom: "inception_4c/5x5"
  bottom: "inception_4c/pool_proj"
  top: "inception_4c/output"
}
layer {
  name: "inception_4d/1x1"
  type: "Convolution"
  bottom: "inception_4c/output"
  top: "inception_4d/1x1"
  param {
    lr_mult: 1
    decay_mult: 1
  }
  param {
    lr_mult: 2
    decay_mult: 0
  }
  convolution_param {
    num_output: 112
    kernel_size: 1
    weight_filler {
      type: "xavier"
      std: 0.03
    }
    bias_filler {
      type: "constant"
      value: 0.2
    }
  }
}
layer {
  name: "inception_4d/relu_1x1"
  type: "ReLU"
  bottom: "inception_4d/1x1"
  top: "inception_4d/1x1"
}
layer {
  name: "inception_4d/3x3_reduce"
  type: "Convolution"
  bottom: "inception_4c/output"
  top: "inception_4d/3x3_reduce"
  param {
    lr_mult: 1
    decay_mult: 1
  }
  param {
    lr_mult: 2
    decay_mult: 0
  }
  convolution_param {
    num_output: 144
    kernel_size: 1
    weight_filler {
      type: "xavier"
      std: 0.09
    }
    bias_filler {
      type: "constant"
      value: 0.2
    }
  }
}
layer {
  name: "inception_4d/relu_3x3_reduce"
  type: "ReLU"
  bottom: "inception_4d/3x3_reduce"
  top: "inception_4d/3x3_reduce"
}
layer {
  name: "inception_4d/3x3"
  type: "Convolution"
  bottom: "inception_4d/3x3_reduce"
  top: "inception_4d/3x3"
  param {
    lr_mult: 1
    decay_mult: 1
  }
  param {
    lr_mult: 2
    decay_mult: 0
  }
  convolution_param {
    num_output: 288
    pad: 1
    kernel_size: 3
    weight_filler {
      type: "xavier"
      std: 0.03
    }
    bias_filler {
      type: "constant"
      value: 0.2
    }
  }
}
layer {
  name: "inception_4d/relu_3x3"
  type: "ReLU"
  bottom: "inception_4d/3x3"
  top: "inception_4d/3x3"
}
layer {
  name: "inception_4d/5x5_reduce"
  type: "Convolution"
  bottom: "inception_4c/output"
  top: "inception_4d/5x5_reduce"
  param {
    lr_mult: 1
    decay_mult: 1
  }
  param {
    lr_mult: 2
    decay_mult: 0
  }
  convolution_param {
    num_output: 32
    kernel_size: 1
    weight_filler {
      type: "xavier"
      std: 0.2
    }
    bias_filler {
      type: "constant"
      value: 0.2
    }
  }
}
layer {
  name: "inception_4d/relu_5x5_reduce"
  type: "ReLU"
  bottom: "inception_4d/5x5_reduce"
  top: "inception_4d/5x5_reduce"
}
layer {
  name: "inception_4d/5x5"
  type: "Convolution"
  bottom: "inception_4d/5x5_reduce"
  top: "inception_4d/5x5"
  param {
    lr_mult: 1
    decay_mult: 1
  }
  param {
    lr_mult: 2
    decay_mult: 0
  }
  convolution_param {
    num_output: 64
    pad: 2
    kernel_size: 5
    weight_filler {
      type: "xavier"
      std: 0.03
    }
    bias_filler {
      type: "constant"
      value: 0.2
    }
  }
}
layer {
  name: "inception_4d/relu_5x5"
  type: "ReLU"
  bottom: "inception_4d/5x5"
  top: "inception_4d/5x5"
}
layer {
  name: "inception_4d/pool"
  type: "Pooling"
  bottom: "inception_4c/output"
  top: "inception_4d/pool"
  pooling_param {
    pool: MAX
    kernel_size: 3
    stride: 1
    pad: 1
  }
}
layer {
  name: "inception_4d/pool_proj"
  type: "Convolution"
  bottom: "inception_4d/pool"
  top: "inception_4d/pool_proj"
  param {
    lr_mult: 1
    decay_mult: 1
  }
  param {
    lr_mult: 2
    decay_mult: 0
  }
  convolution_param {
    num_output: 64
    kernel_size: 1
    weight_filler {
      type: "xavier"
      std: 0.1
    }
    bias_filler {
      type: "constant"
      value: 0.2
    }
  }
}
layer {
  name: "inception_4d/relu_pool_proj"
  type: "ReLU"
  bottom: "inception_4d/pool_proj"
  top: "inception_4d/pool_proj"
}
layer {
  name: "inception_4d/output"
  type: "Concat"
  bottom: "inception_4d/1x1"
  bottom: "inception_4d/3x3"
  bottom: "inception_4d/5x5"
  bottom: "inception_4d/pool_proj"
  top: "inception_4d/output"
}
layer {
  name: "loss2/ave_pool"
  type: "Pooling"
  bottom: "inception_4d/output"
  top: "loss2/ave_pool"
  pooling_param {
    pool: AVE
    kernel_size: 5
    stride: 3
  }
}
layer {
  name: "loss2/conv"
  type: "Convolution"
  bottom: "loss2/ave_pool"
  top: "loss2/conv"
  param {
    lr_mult: 1
    decay_mult: 1
  }
  param {
    lr_mult: 2
    decay_mult: 0
  }
  convolution_param {
    num_output: 128
    kernel_size: 1
    weight_filler {
      type: "xavier"
      std: 0.08
    }
    bias_filler {
      type: "constant"
      value: 0.2
    }
  }
}
layer {
  name: "loss2/relu_conv"
  type: "ReLU"
  bottom: "loss2/conv"
  top: "loss2/conv"
}
layer {
  name: "loss2/fc"
  type: "InnerProduct"
  bottom: "loss2/conv"
  top: "loss2/fc"
  param {
    lr_mult: 1
    decay_mult: 1
  }
  param {
    lr_mult: 2
    decay_mult: 0
  }
  inner_product_param {
    num_output: 1024
    weight_filler {
      type: "xavier"
      std: 0.02
    }
    bias_filler {
      type: "constant"
      value: 0.2
    }
  }
}
layer {
  name: "loss2/relu_fc"
  type: "ReLU"
  bottom: "loss2/fc"
  top: "loss2/fc"
}
layer {
  name: "loss2/drop_fc"
  type: "Dropout"
  bottom: "loss2/fc"
  top: "loss2/fc"
  dropout_param {
    dropout_ratio: 0.7
  }
}
layer {
  name: "loss2/classifier_plantvillage"
  type: "InnerProduct"
  bottom: "loss2/fc"
  top: "loss2/classifier_plantvillage"
  param {
    lr_mult: 1
    decay_mult: 1
  }
  param {
    lr_mult: 2
    decay_mult: 0
  }
  inner_product_param {
    num_output: 38
    weight_filler {
      type: "xavier"
      std: 0.0009765625
    }
    bias_filler {
      type: "constant"
      value: 0
    }
  }
}
layer {
  name: "inception_4e/1x1"
  type: "Convolution"
  bottom: "inception_4d/output"
  top: "inception_4e/1x1"
  param {
    lr_mult: 1
    decay_mult: 1
  }
  param {
    lr_mult: 2
    decay_mult: 0
  }
  convolution_param {
    num_output: 256
    kernel_size: 1
    weight_filler {
      type: "xavier"
      std: 0.03
    }
    bias_filler {
      type: "constant"
      value: 0.2
    }
  }
}
layer {
  name: "inception_4e/relu_1x1"
  type: "ReLU"
  bottom: "inception_4e/1x1"
  top: "inception_4e/1x1"
}
layer {
  name: "inception_4e/3x3_reduce"
  type: "Convolution"
  bottom: "inception_4d/output"
  top: "inception_4e/3x3_reduce"
  param {
    lr_mult: 1
    decay_mult: 1
  }
  param {
    lr_mult: 2
    decay_mult: 0
  }
  convolution_param {
    num_output: 160
    kernel_size: 1
    weight_filler {
      type: "xavier"
      std: 0.09
    }
    bias_filler {
      type: "constant"
      value: 0.2
    }
  }
}
layer {
  name: "inception_4e/relu_3x3_reduce"
  type: "ReLU"
  bottom: "inception_4e/3x3_reduce"
  top: "inception_4e/3x3_reduce"
}
layer {
  name: "inception_4e/3x3"
  type: "Convolution"
  bottom: "inception_4e/3x3_reduce"
  top: "inception_4e/3x3"
  param {
    lr_mult: 1
    decay_mult: 1
  }
  param {
    lr_mult: 2
    decay_mult: 0
  }
  convolution_param {
    num_output: 320
    pad: 1
    kernel_size: 3
    weight_filler {
      type: "xavier"
      std: 0.03
    }
    bias_filler {
      type: "constant"
      value: 0.2
    }
  }
}
layer {
  name: "inception_4e/relu_3x3"
  type: "ReLU"
  bottom: "inception_4e/3x3"
  top: "inception_4e/3x3"
}
layer {
  name: "inception_4e/5x5_reduce"
  type: "Convolution"
  bottom: "inception_4d/output"
  top: "inception_4e/5x5_reduce"
  param {
    lr_mult: 1
    decay_mult: 1
  }
  param {
    lr_mult: 2
    decay_mult: 0
  }
  convolution_param {
    num_output: 32
    kernel_size: 1
    weight_filler {
      type: "xavier"
      std: 0.2
    }
    bias_filler {
      type: "constant"
      value: 0.2
    }
  }
}
layer {
  name: "inception_4e/relu_5x5_reduce"
  type: "ReLU"
  bottom: "inception_4e/5x5_reduce"
  top: "inception_4e/5x5_reduce"
}
layer {
  name: "inception_4e/5x5"
  type: "Convolution"
  bottom: "inception_4e/5x5_reduce"
  top: "inception_4e/
I0403 15:33:49.266578 10562 layer_factory.hpp:77] Creating layer data
I0403 15:33:49.267411 10562 net.cpp:91] Creating Layer data
I0403 15:33:49.267441 10562 net.cpp:399] data -> data
I0403 15:33:49.267534 10562 net.cpp:399] data -> label
I0403 15:33:49.267608 10562 data_transformer.cpp:25] Loading mean file from: /home/mohanty/data/final_dataset/lmdb/segmented-80-20/mean.binaryproto
I0403 15:33:49.297067 10566 db_lmdb.cpp:38] Opened lmdb /home/mohanty/data/final_dataset/lmdb/segmented-80-20/test_db
I0403 15:33:49.334568 10562 data_layer.cpp:41] output data size: 24,3,224,224
I0403 15:33:49.363143 10562 net.cpp:141] Setting up data
I0403 15:33:49.363240 10562 net.cpp:148] Top shape: 24 3 224 224 (3612672)
I0403 15:33:49.363263 10562 net.cpp:148] Top shape: 24 (24)
I0403 15:33:49.363279 10562 net.cpp:156] Memory required for data: 14450784
I0403 15:33:49.363307 10562 layer_factory.hpp:77] Creating layer label_data_1_split
I0403 15:33:49.363334 10562 net.cpp:91] Creating Layer label_data_1_split
I0403 15:33:49.363353 10562 net.cpp:425] label_data_1_split <- label
I0403 15:33:49.363385 10562 net.cpp:399] label_data_1_split -> label_data_1_split_0
I0403 15:33:49.363414 10562 net.cpp:399] label_data_1_split -> label_data_1_split_1
I0403 15:33:49.363435 10562 net.cpp:399] label_data_1_split -> label_data_1_split_2
I0403 15:33:49.363457 10562 net.cpp:399] label_data_1_split -> label_data_1_split_3
I0403 15:33:49.363477 10562 net.cpp:399] label_data_1_split -> label_data_1_split_4
I0403 15:33:49.363497 10562 net.cpp:399] label_data_1_split -> label_data_1_split_5
I0403 15:33:49.363517 10562 net.cpp:399] label_data_1_split -> label_data_1_split_6
I0403 15:33:49.363538 10562 net.cpp:399] label_data_1_split -> label_data_1_split_7
I0403 15:33:49.363559 10562 net.cpp:399] label_data_1_split -> label_data_1_split_8
I0403 15:33:49.363579 10562 net.cpp:399] label_data_1_split -> label_data_1_split_9
I0403 15:33:49.363701 10562 net.cpp:141] Setting up label_data_1_split
I0403 15:33:49.363725 10562 net.cpp:148] Top shape: 24 (24)
I0403 15:33:49.363744 10562 net.cpp:148] Top shape: 24 (24)
I0403 15:33:49.363760 10562 net.cpp:148] Top shape: 24 (24)
I0403 15:33:49.363777 10562 net.cpp:148] Top shape: 24 (24)
I0403 15:33:49.363795 10562 net.cpp:148] Top shape: 24 (24)
I0403 15:33:49.363809 10562 net.cpp:148] Top shape: 24 (24)
I0403 15:33:49.363826 10562 net.cpp:148] Top shape: 24 (24)
I0403 15:33:49.363842 10562 net.cpp:148] Top shape: 24 (24)
I0403 15:33:49.363858 10562 net.cpp:148] Top shape: 24 (24)
I0403 15:33:49.363876 10562 net.cpp:148] Top shape: 24 (24)
I0403 15:33:49.363914 10562 net.cpp:156] Memory required for data: 14451744
I0403 15:33:49.363932 10562 layer_factory.hpp:77] Creating layer conv1/7x7_s2
I0403 15:33:49.363982 10562 net.cpp:91] Creating Layer conv1/7x7_s2
I0403 15:33:49.364003 10562 net.cpp:425] conv1/7x7_s2 <- data
I0403 15:33:49.364024 10562 net.cpp:399] conv1/7x7_s2 -> conv1/7x7_s2
I0403 15:33:50.376216 10562 net.cpp:141] Setting up conv1/7x7_s2
I0403 15:33:50.376283 10562 net.cpp:148] Top shape: 24 64 112 112 (19267584)
I0403 15:33:50.376302 10562 net.cpp:156] Memory required for data: 91522080
I0403 15:33:50.376333 10562 layer_factory.hpp:77] Creating layer conv1/relu_7x7
I0403 15:33:50.376373 10562 net.cpp:91] Creating Layer conv1/relu_7x7
I0403 15:33:50.376394 10562 net.cpp:425] conv1/relu_7x7 <- conv1/7x7_s2
I0403 15:33:50.376415 10562 net.cpp:386] conv1/relu_7x7 -> conv1/7x7_s2 (in-place)
I0403 15:33:50.376706 10562 net.cpp:141] Setting up conv1/relu_7x7
I0403 15:33:50.376736 10562 net.cpp:148] Top shape: 24 64 112 112 (19267584)
I0403 15:33:50.376754 10562 net.cpp:156] Memory required for data: 168592416
I0403 15:33:50.376770 10562 layer_factory.hpp:77] Creating layer pool1/3x3_s2
I0403 15:33:50.376808 10562 net.cpp:91] Creating Layer pool1/3x3_s2
I0403 15:33:50.376829 10562 net.cpp:425] pool1/3x3_s2 <- conv1/7x7_s2
I0403 15:33:50.376850 10562 net.cpp:399] pool1/3x3_s2 -> pool1/3x3_s2
I0403 15:33:50.376960 10562 net.cpp:141] Setting up pool1/3x3_s2
I0403 15:33:50.376991 10562 net.cpp:148] Top shape: 24 64 56 56 (4816896)
I0403 15:33:50.377008 10562 net.cpp:156] Memory required for data: 187860000
I0403 15:33:50.377024 10562 layer_factory.hpp:77] Creating layer pool1/norm1
I0403 15:33:50.377063 10562 net.cpp:91] Creating Layer pool1/norm1
I0403 15:33:50.377084 10562 net.cpp:425] pool1/norm1 <- pool1/3x3_s2
I0403 15:33:50.377105 10562 net.cpp:399] pool1/norm1 -> pool1/norm1
I0403 15:33:50.377447 10562 net.cpp:141] Setting up pool1/norm1
I0403 15:33:50.377477 10562 net.cpp:148] Top shape: 24 64 56 56 (4816896)
I0403 15:33:50.377495 10562 net.cpp:156] Memory required for data: 207127584
I0403 15:33:50.377511 10562 layer_factory.hpp:77] Creating layer conv2/3x3_reduce
I0403 15:33:50.377542 10562 net.cpp:91] Creating Layer conv2/3x3_reduce
I0403 15:33:50.377560 10562 net.cpp:425] conv2/3x3_reduce <- pool1/norm1
I0403 15:33:50.377580 10562 net.cpp:399] conv2/3x3_reduce -> conv2/3x3_reduce
I0403 15:33:50.379133 10562 net.cpp:141] Setting up conv2/3x3_reduce
I0403 15:33:50.379163 10562 net.cpp:148] Top shape: 24 64 56 56 (4816896)
I0403 15:33:50.379179 10562 net.cpp:156] Memory required for data: 226395168
I0403 15:33:50.379204 10562 layer_factory.hpp:77] Creating layer conv2/relu_3x3_reduce
I0403 15:33:50.379225 10562 net.cpp:91] Creating Layer conv2/relu_3x3_reduce
I0403 15:33:50.379242 10562 net.cpp:425] conv2/relu_3x3_reduce <- conv2/3x3_reduce
I0403 15:33:50.379261 10562 net.cpp:386] conv2/relu_3x3_reduce -> conv2/3x3_reduce (in-place)
I0403 15:33:50.379541 10562 net.cpp:141] Setting up conv2/relu_3x3_reduce
I0403 15:33:50.379570 10562 net.cpp:148] Top shape: 24 64 56 56 (4816896)
I0403 15:33:50.379586 10562 net.cpp:156] Memory required for data: 245662752
I0403 15:33:50.379601 10562 layer_factory.hpp:77] Creating layer conv2/3x3
I0403 15:33:50.379627 10562 net.cpp:91] Creating Layer conv2/3x3
I0403 15:33:50.379645 10562 net.cpp:425] conv2/3x3 <- conv2/3x3_reduce
I0403 15:33:50.379668 10562 net.cpp:399] conv2/3x3 -> conv2/3x3
I0403 15:33:50.382170 10562 net.cpp:141] Setting up conv2/3x3
I0403 15:33:50.382202 10562 net.cpp:148] Top shape: 24 192 56 56 (14450688)
I0403 15:33:50.382220 10562 net.cpp:156] Memory required for data: 303465504
I0403 15:33:50.382243 10562 layer_factory.hpp:77] Creating layer conv2/relu_3x3
I0403 15:33:50.382264 10562 net.cpp:91] Creating Layer conv2/relu_3x3
I0403 15:33:50.382280 10562 net.cpp:425] conv2/relu_3x3 <- conv2/3x3
I0403 15:33:50.382299 10562 net.cpp:386] conv2/relu_3x3 -> conv2/3x3 (in-place)
I0403 15:33:50.382482 10562 net.cpp:141] Setting up conv2/relu_3x3
I0403 15:33:50.382510 10562 net.cpp:148] Top shape: 24 192 56 56 (14450688)
I0403 15:33:50.382552 10562 net.cpp:156] Memory required for data: 361268256
I0403 15:33:50.382570 10562 layer_factory.hpp:77] Creating layer conv2/norm2
I0403 15:33:50.382593 10562 net.cpp:91] Creating Layer conv2/norm2
I0403 15:33:50.382611 10562 net.cpp:425] conv2/norm2 <- conv2/3x3
I0403 15:33:50.382630 10562 net.cpp:399] conv2/norm2 -> conv2/norm2
I0403 15:33:50.382942 10562 net.cpp:141] Setting up conv2/norm2
I0403 15:33:50.382971 10562 net.cpp:148] Top shape: 24 192 56 56 (14450688)
I0403 15:33:50.382992 10562 net.cpp:156] Memory required for data: 419071008
I0403 15:33:50.383009 10562 layer_factory.hpp:77] Creating layer pool2/3x3_s2
I0403 15:33:50.383030 10562 net.cpp:91] Creating Layer pool2/3x3_s2
I0403 15:33:50.383049 10562 net.cpp:425] pool2/3x3_s2 <- conv2/norm2
I0403 15:33:50.383067 10562 net.cpp:399] pool2/3x3_s2 -> pool2/3x3_s2
I0403 15:33:50.383122 10562 net.cpp:141] Setting up pool2/3x3_s2
I0403 15:33:50.383147 10562 net.cpp:148] Top shape: 24 192 28 28 (3612672)
I0403 15:33:50.383162 10562 net.cpp:156] Memory required for data: 433521696
I0403 15:33:50.383178 10562 layer_factory.hpp:77] Creating layer pool2/3x3_s2_pool2/3x3_s2_0_split
I0403 15:33:50.383196 10562 net.cpp:91] Creating Layer pool2/3x3_s2_pool2/3x3_s2_0_split
I0403 15:33:50.383213 10562 net.cpp:425] pool2/3x3_s2_pool2/3x3_s2_0_split <- pool2/3x3_s2
I0403 15:33:50.383235 10562 net.cpp:399] pool2/3x3_s2_pool2/3x3_s2_0_split -> pool2/3x3_s2_pool2/3x3_s2_0_split_0
I0403 15:33:50.383257 10562 net.cpp:399] pool2/3x3_s2_pool2/3x3_s2_0_split -> pool2/3x3_s2_pool2/3x3_s2_0_split_1
I0403 15:33:50.383280 10562 net.cpp:399] pool2/3x3_s2_pool2/3x3_s2_0_split -> pool2/3x3_s2_pool2/3x3_s2_0_split_2
I0403 15:33:50.383299 10562 net.cpp:399] pool2/3x3_s2_pool2/3x3_s2_0_split -> pool2/3x3_s2_pool2/3x3_s2_0_split_3
I0403 15:33:50.383374 10562 net.cpp:141] Setting up pool2/3x3_s2_pool2/3x3_s2_0_split
I0403 15:33:50.383401 10562 net.cpp:148] Top shape: 24 192 28 28 (3612672)
I0403 15:33:50.383419 10562 net.cpp:148] Top shape: 24 192 28 28 (3612672)
I0403 15:33:50.383436 10562 net.cpp:148] Top shape: 24 192 28 28 (3612672)
I0403 15:33:50.383452 10562 net.cpp:148] Top shape: 24 192 28 28 (3612672)
I0403 15:33:50.383467 10562 net.cpp:156] Memory required for data: 491324448
I0403 15:33:50.383482 10562 layer_factory.hpp:77] Creating layer inception_3a/1x1
I0403 15:33:50.383507 10562 net.cpp:91] Creating Layer inception_3a/1x1
I0403 15:33:50.383524 10562 net.cpp:425] inception_3a/1x1 <- pool2/3x3_s2_pool2/3x3_s2_0_split_0
I0403 15:33:50.383544 10562 net.cpp:399] inception_3a/1x1 -> inception_3a/1x1
I0403 15:33:50.385187 10562 net.cpp:141] Setting up inception_3a/1x1
I0403 15:33:50.385216 10562 net.cpp:148] Top shape: 24 64 28 28 (1204224)
I0403 15:33:50.385233 10562 net.cpp:156] Memory required for data: 496141344
I0403 15:33:50.385253 10562 layer_factory.hpp:77] Creating layer inception_3a/relu_1x1
I0403 15:33:50.385275 10562 net.cpp:91] Creating Layer inception_3a/relu_1x1
I0403 15:33:50.385293 10562 net.cpp:425] inception_3a/relu_1x1 <- inception_3a/1x1
I0403 15:33:50.385311 10562 net.cpp:386] inception_3a/relu_1x1 -> inception_3a/1x1 (in-place)
I0403 15:33:50.385493 10562 net.cpp:141] Setting up inception_3a/relu_1x1
I0403 15:33:50.385521 10562 net.cpp:148] Top shape: 24 64 28 28 (1204224)
I0403 15:33:50.385538 10562 net.cpp:156] Memory required for data: 500958240
I0403 15:33:50.385553 10562 layer_factory.hpp:77] Creating layer inception_3a/3x3_reduce
I0403 15:33:50.385577 10562 net.cpp:91] Creating Layer inception_3a/3x3_reduce
I0403 15:33:50.385596 10562 net.cpp:425] inception_3a/3x3_reduce <- pool2/3x3_s2_pool2/3x3_s2_0_split_1
I0403 15:33:50.385617 10562 net.cpp:399] inception_3a/3x3_reduce -> inception_3a/3x3_reduce
I0403 15:33:50.387444 10562 net.cpp:141] Setting up inception_3a/3x3_reduce
I0403 15:33:50.387475 10562 net.cpp:148] Top shape: 24 96 28 28 (1806336)
I0403 15:33:50.387491 10562 net.cpp:156] Memory required for data: 508183584
I0403 15:33:50.387517 10562 layer_factory.hpp:77] Creating layer inception_3a/relu_3x3_reduce
I0403 15:33:50.387553 10562 net.cpp:91] Creating Layer inception_3a/relu_3x3_reduce
I0403 15:33:50.387573 10562 net.cpp:425] inception_3a/relu_3x3_reduce <- inception_3a/3x3_reduce
I0403 15:33:50.387598 10562 net.cpp:386] inception_3a/relu_3x3_reduce -> inception_3a/3x3_reduce (in-place)
I0403 15:33:50.387784 10562 net.cpp:141] Setting up inception_3a/relu_3x3_reduce
I0403 15:33:50.387810 10562 net.cpp:148] Top shape: 24 96 28 28 (1806336)
I0403 15:33:50.387826 10562 net.cpp:156] Memory required for data: 515408928
I0403 15:33:50.387842 10562 layer_factory.hpp:77] Creating layer inception_3a/3x3
I0403 15:33:50.387866 10562 net.cpp:91] Creating Layer inception_3a/3x3
I0403 15:33:50.387884 10562 net.cpp:425] inception_3a/3x3 <- inception_3a/3x3_reduce
I0403 15:33:50.387907 10562 net.cpp:399] inception_3a/3x3 -> inception_3a/3x3
I0403 15:33:50.389647 10562 net.cpp:141] Setting up inception_3a/3x3
I0403 15:33:50.389678 10562 net.cpp:148] Top shape: 24 128 28 28 (2408448)
I0403 15:33:50.389694 10562 net.cpp:156] Memory required for data: 525042720
I0403 15:33:50.389714 10562 layer_factory.hpp:77] Creating layer inception_3a/relu_3x3
I0403 15:33:50.389735 10562 net.cpp:91] Creating Layer inception_3a/relu_3x3
I0403 15:33:50.389752 10562 net.cpp:425] inception_3a/relu_3x3 <- inception_3a/3x3
I0403 15:33:50.389771 10562 net.cpp:386] inception_3a/relu_3x3 -> inception_3a/3x3 (in-place)
I0403 15:33:50.390060 10562 net.cpp:141] Setting up inception_3a/relu_3x3
I0403 15:33:50.390089 10562 net.cpp:148] Top shape: 24 128 28 28 (2408448)
I0403 15:33:50.390105 10562 net.cpp:156] Memory required for data: 534676512
I0403 15:33:50.390120 10562 layer_factory.hpp:77] Creating layer inception_3a/5x5_reduce
I0403 15:33:50.390146 10562 net.cpp:91] Creating Layer inception_3a/5x5_reduce
I0403 15:33:50.390166 10562 net.cpp:425] inception_3a/5x5_reduce <- pool2/3x3_s2_pool2/3x3_s2_0_split_2
I0403 15:33:50.390185 10562 net.cpp:399] inception_3a/5x5_reduce -> inception_3a/5x5_reduce
I0403 15:33:50.391187 10562 net.cpp:141] Setting up inception_3a/5x5_reduce
I0403 15:33:50.391221 10562 net.cpp:148] Top shape: 24 16 28 28 (301056)
I0403 15:33:50.391237 10562 net.cpp:156] Memory required for data: 535880736
I0403 15:33:50.391257 10562 layer_factory.hpp:77] Creating layer inception_3a/relu_5x5_reduce
I0403 15:33:50.391275 10562 net.cpp:91] Creating Layer inception_3a/relu_5x5_reduce
I0403 15:33:50.391291 10562 net.cpp:425] inception_3a/relu_5x5_reduce <- inception_3a/5x5_reduce
I0403 15:33:50.391314 10562 net.cpp:386] inception_3a/relu_5x5_reduce -> inception_3a/5x5_reduce (in-place)
I0403 15:33:50.391618 10562 net.cpp:141] Setting up inception_3a/relu_5x5_reduce
I0403 15:33:50.391644 10562 net.cpp:148] Top shape: 24 16 28 28 (301056)
I0403 15:33:50.391659 10562 net.cpp:156] Memory required for data: 537084960
I0403 15:33:50.391674 10562 layer_factory.hpp:77] Creating layer inception_3a/5x5
I0403 15:33:50.391697 10562 net.cpp:91] Creating Layer inception_3a/5x5
I0403 15:33:50.391716 10562 net.cpp:425] inception_3a/5x5 <- inception_3a/5x5_reduce
I0403 15:33:50.391737 10562 net.cpp:399] inception_3a/5x5 -> inception_3a/5x5
I0403 15:33:50.392789 10562 net.cpp:141] Setting up inception_3a/5x5
I0403 15:33:50.392817 10562 net.cpp:148] Top shape: 24 32 28 28 (602112)
I0403 15:33:50.392832 10562 net.cpp:156] Memory required for data: 539493408
I0403 15:33:50.392851 10562 layer_factory.hpp:77] Creating layer inception_3a/relu_5x5
I0403 15:33:50.392873 10562 net.cpp:91] Creating Layer inception_3a/relu_5x5
I0403 15:33:50.392889 10562 net.cpp:425] inception_3a/relu_5x5 <- inception_3a/5x5
I0403 15:33:50.392909 10562 net.cpp:386] inception_3a/relu_5x5 -> inception_3a/5x5 (in-place)
I0403 15:33:50.393088 10562 net.cpp:141] Setting up inception_3a/relu_5x5
I0403 15:33:50.393115 10562 net.cpp:148] Top shape: 24 32 28 28 (602112)
I0403 15:33:50.393131 10562 net.cpp:156] Memory required for data: 541901856
I0403 15:33:50.393146 10562 layer_factory.hpp:77] Creating layer inception_3a/pool
I0403 15:33:50.393165 10562 net.cpp:91] Creating Layer inception_3a/pool
I0403 15:33:50.393195 10562 net.cpp:425] inception_3a/pool <- pool2/3x3_s2_pool2/3x3_s2_0_split_3
I0403 15:33:50.393218 10562 net.cpp:399] inception_3a/pool -> inception_3a/pool
I0403 15:33:50.393277 10562 net.cpp:141] Setting up inception_3a/pool
I0403 15:33:50.393301 10562 net.cpp:148] Top shape: 24 192 28 28 (3612672)
I0403 15:33:50.393316 10562 net.cpp:156] Memory required for data: 556352544
I0403 15:33:50.393332 10562 layer_factory.hpp:77] Creating layer inception_3a/pool_proj
I0403 15:33:50.393357 10562 net.cpp:91] Creating Layer inception_3a/pool_proj
I0403 15:33:50.393375 10562 net.cpp:425] inception_3a/pool_proj <- inception_3a/pool
I0403 15:33:50.393394 10562 net.cpp:399] inception_3a/pool_proj -> inception_3a/pool_proj
I0403 15:33:50.394402 10562 net.cpp:141] Setting up inception_3a/pool_proj
I0403 15:33:50.394433 10562 net.cpp:148] Top shape: 24 32 28 28 (602112)
I0403 15:33:50.394448 10562 net.cpp:156] Memory required for data: 558760992
I0403 15:33:50.394474 10562 layer_factory.hpp:77] Creating layer inception_3a/relu_pool_proj
I0403 15:33:50.394495 10562 net.cpp:91] Creating Layer inception_3a/relu_pool_proj
I0403 15:33:50.394511 10562 net.cpp:425] inception_3a/relu_pool_proj <- inception_3a/pool_proj
I0403 15:33:50.394531 10562 net.cpp:386] inception_3a/relu_pool_proj -> inception_3a/pool_proj (in-place)
I0403 15:33:50.394821 10562 net.cpp:141] Setting up inception_3a/relu_pool_proj
I0403 15:33:50.394850 10562 net.cpp:148] Top shape: 24 32 28 28 (602112)
I0403 15:33:50.394865 10562 net.cpp:156] Memory required for data: 561169440
I0403 15:33:50.394881 10562 layer_factory.hpp:77] Creating layer inception_3a/output
I0403 15:33:50.394901 10562 net.cpp:91] Creating Layer inception_3a/output
I0403 15:33:50.394922 10562 net.cpp:425] inception_3a/output <- inception_3a/1x1
I0403 15:33:50.394939 10562 net.cpp:425] inception_3a/output <- inception_3a/3x3
I0403 15:33:50.394956 10562 net.cpp:425] inception_3a/output <- inception_3a/5x5
I0403 15:33:50.394973 10562 net.cpp:425] inception_3a/output <- inception_3a/pool_proj
I0403 15:33:50.394999 10562 net.cpp:399] inception_3a/output -> inception_3a/output
I0403 15:33:50.395062 10562 net.cpp:141] Setting up inception_3a/output
I0403 15:33:50.395088 10562 net.cpp:148] Top shape: 24 256 28 28 (4816896)
I0403 15:33:50.395103 10562 net.cpp:156] Memory required for data: 580437024
I0403 15:33:50.395119 10562 layer_factory.hpp:77] Creating layer inception_3a/output_inception_3a/output_0_split
I0403 15:33:50.395138 10562 net.cpp:91] Creating Layer inception_3a/output_inception_3a/output_0_split
I0403 15:33:50.395153 10562 net.cpp:425] inception_3a/output_inception_3a/output_0_split <- inception_3a/output
I0403 15:33:50.395174 10562 net.cpp:399] inception_3a/output_inception_3a/output_0_split -> inception_3a/output_inception_3a/output_0_split_0
I0403 15:33:50.395195 10562 net.cpp:399] inception_3a/output_inception_3a/output_0_split -> inception_3a/output_inception_3a/output_0_split_1
I0403 15:33:50.395221 10562 net.cpp:399] inception_3a/output_inception_3a/output_0_split -> inception_3a/output_inception_3a/output_0_split_2
I0403 15:33:50.395243 10562 net.cpp:399] inception_3a/output_inception_3a/output_0_split -> inception_3a/output_inception_3a/output_0_split_3
I0403 15:33:50.395319 10562 net.cpp:141] Setting up inception_3a/output_inception_3a/output_0_split
I0403 15:33:50.395344 10562 net.cpp:148] Top shape: 24 256 28 28 (4816896)
I0403 15:33:50.395364 10562 net.cpp:148] Top shape: 24 256 28 28 (4816896)
I0403 15:33:50.395381 10562 net.cpp:148] Top shape: 24 256 28 28 (4816896)
I0403 15:33:50.395398 10562 net.cpp:148] Top shape: 24 256 28 28 (4816896)
I0403 15:33:50.395413 10562 net.cpp:156] Memory required for data: 657507360
I0403 15:33:50.395429 10562 layer_factory.hpp:77] Creating layer inception_3b/1x1
I0403 15:33:50.395450 10562 net.cpp:91] Creating Layer inception_3b/1x1
I0403 15:33:50.395467 10562 net.cpp:425] inception_3b/1x1 <- inception_3a/output_inception_3a/output_0_split_0
I0403 15:33:50.395489 10562 net.cpp:399] inception_3b/1x1 -> inception_3b/1x1
I0403 15:33:50.396677 10562 net.cpp:141] Setting up inception_3b/1x1
I0403 15:33:50.396719 10562 net.cpp:148] Top shape: 24 128 28 28 (2408448)
I0403 15:33:50.396738 10562 net.cpp:156] Memory required for data: 667141152
I0403 15:33:50.396757 10562 layer_factory.hpp:77] Creating layer inception_3b/relu_1x1
I0403 15:33:50.396778 10562 net.cpp:91] Creating Layer inception_3b/relu_1x1
I0403 15:33:50.396795 10562 net.cpp:425] inception_3b/relu_1x1 <- inception_3b/1x1
I0403 15:33:50.396814 10562 net.cpp:386] inception_3b/relu_1x1 -> inception_3b/1x1 (in-place)
I0403 15:33:50.397003 10562 net.cpp:141] Setting up inception_3b/relu_1x1
I0403 15:33:50.397029 10562 net.cpp:148] Top shape: 24 128 28 28 (2408448)
I0403 15:33:50.397045 10562 net.cpp:156] Memory required for data: 676774944
I0403 15:33:50.397061 10562 layer_factory.hpp:77] Creating layer inception_3b/3x3_reduce
I0403 15:33:50.397090 10562 net.cpp:91] Creating Layer inception_3b/3x3_reduce
I0403 15:33:50.397109 10562 net.cpp:425] inception_3b/3x3_reduce <- inception_3a/output_inception_3a/output_0_split_1
I0403 15:33:50.397130 10562 net.cpp:399] inception_3b/3x3_reduce -> inception_3b/3x3_reduce
I0403 15:33:50.398324 10562 net.cpp:141] Setting up inception_3b/3x3_reduce
I0403 15:33:50.398353 10562 net.cpp:148] Top shape: 24 128 28 28 (2408448)
I0403 15:33:50.398370 10562 net.cpp:156] Memory required for data: 686408736
I0403 15:33:50.398389 10562 layer_factory.hpp:77] Creating layer inception_3b/relu_3x3_reduce
I0403 15:33:50.398411 10562 net.cpp:91] Creating Layer inception_3b/relu_3x3_reduce
I0403 15:33:50.398429 10562 net.cpp:425] inception_3b/relu_3x3_reduce <- inception_3b/3x3_reduce
I0403 15:33:50.398447 10562 net.cpp:386] inception_3b/relu_3x3_reduce -> inception_3b/3x3_reduce (in-place)
I0403 15:33:50.398627 10562 net.cpp:141] Setting up inception_3b/relu_3x3_reduce
I0403 15:33:50.398655 10562 net.cpp:148] Top shape: 24 128 28 28 (2408448)
I0403 15:33:50.398672 10562 net.cpp:156] Memory required for data: 696042528
I0403 15:33:50.398687 10562 layer_factory.hpp:77] Creating layer inception_3b/3x3
I0403 15:33:50.398713 10562 net.cpp:91] Creating Layer inception_3b/3x3
I0403 15:33:50.398732 10562 net.cpp:425] inception_3b/3x3 <- inception_3b/3x3_reduce
I0403 15:33:50.398756 10562 net.cpp:399] inception_3b/3x3 -> inception_3b/3x3
I0403 15:33:50.401828 10562 net.cpp:141] Setting up inception_3b/3x3
I0403 15:33:50.401856 10562 net.cpp:148] Top shape: 24 192 28 28 (3612672)
I0403 15:33:50.401872 10562 net.cpp:156] Memory required for data: 710493216
I0403 15:33:50.401892 10562 layer_factory.hpp:77] Creating layer inception_3b/relu_3x3
I0403 15:33:50.401913 10562 net.cpp:91] Creating Layer inception_3b/relu_3x3
I0403 15:33:50.401932 10562 net.cpp:425] inception_3b/relu_3x3 <- inception_3b/3x3
I0403 15:33:50.401950 10562 net.cpp:386] inception_3b/relu_3x3 -> inception_3b/3x3 (in-place)
I0403 15:33:50.402245 10562 net.cpp:141] Setting up inception_3b/relu_3x3
I0403 15:33:50.402273 10562 net.cpp:148] Top shape: 24 192 28 28 (3612672)
I0403 15:33:50.402289 10562 net.cpp:156] Memory required for data: 724943904
I0403 15:33:50.402305 10562 layer_factory.hpp:77] Creating layer inception_3b/5x5_reduce
I0403 15:33:50.402333 10562 net.cpp:91] Creating Layer inception_3b/5x5_reduce
I0403 15:33:50.402351 10562 net.cpp:425] inception_3b/5x5_reduce <- inception_3a/output_inception_3a/output_0_split_2
I0403 15:33:50.402372 10562 net.cpp:399] inception_3b/5x5_reduce -> inception_3b/5x5_reduce
I0403 15:33:50.403404 10562 net.cpp:141] Setting up inception_3b/5x5_reduce
I0403 15:33:50.403434 10562 net.cpp:148] Top shape: 24 32 28 28 (602112)
I0403 15:33:50.403450 10562 net.cpp:156] Memory required for data: 727352352
I0403 15:33:50.403470 10562 layer_factory.hpp:77] Creating layer inception_3b/relu_5x5_reduce
I0403 15:33:50.403491 10562 net.cpp:91] Creating Layer inception_3b/relu_5x5_reduce
I0403 15:33:50.403509 10562 net.cpp:425] inception_3b/relu_5x5_reduce <- inception_3b/5x5_reduce
I0403 15:33:50.403527 10562 net.cpp:386] inception_3b/relu_5x5_reduce -> inception_3b/5x5_reduce (in-place)
I0403 15:33:50.403726 10562 net.cpp:141] Setting up inception_3b/relu_5x5_reduce
I0403 15:33:50.403753 10562 net.cpp:148] Top shape: 24 32 28 28 (602112)
I0403 15:33:50.403769 10562 net.cpp:156] Memory required for data: 729760800
I0403 15:33:50.403785 10562 layer_factory.hpp:77] Creating layer inception_3b/5x5
I0403 15:33:50.403808 10562 net.cpp:91] Creating Layer inception_3b/5x5
I0403 15:33:50.403827 10562 net.cpp:425] inception_3b/5x5 <- inception_3b/5x5_reduce
I0403 15:33:50.403849 10562 net.cpp:399] inception_3b/5x5 -> inception_3b/5x5
I0403 15:33:50.405921 10562 net.cpp:141] Setting up inception_3b/5x5
I0403 15:33:50.405952 10562 net.cpp:148] Top shape: 24 96 28 28 (1806336)
I0403 15:33:50.405969 10562 net.cpp:156] Memory required for data: 736986144
I0403 15:33:50.405994 10562 layer_factory.hpp:77] Creating layer inception_3b/relu_5x5
I0403 15:33:50.406016 10562 net.cpp:91] Creating Layer inception_3b/relu_5x5
I0403 15:33:50.406034 10562 net.cpp:425] inception_3b/relu_5x5 <- inception_3b/5x5
I0403 15:33:50.406052 10562 net.cpp:386] inception_3b/relu_5x5 -> inception_3b/5x5 (in-place)
I0403 15:33:50.406251 10562 net.cpp:141] Setting up inception_3b/relu_5x5
I0403 15:33:50.406278 10562 net.cpp:148] Top shape: 24 96 28 28 (1806336)
I0403 15:33:50.406294 10562 net.cpp:156] Memory required for data: 744211488
I0403 15:33:50.406309 10562 layer_factory.hpp:77] Creating layer inception_3b/pool
I0403 15:33:50.406328 10562 net.cpp:91] Creating Layer inception_3b/pool
I0403 15:33:50.406345 10562 net.cpp:425] inception_3b/pool <- inception_3a/output_inception_3a/output_0_split_3
I0403 15:33:50.406364 10562 net.cpp:399] inception_3b/pool -> inception_3b/pool
I0403 15:33:50.406422 10562 net.cpp:141] Setting up inception_3b/pool
I0403 15:33:50.406446 10562 net.cpp:148] Top shape: 24 256 28 28 (4816896)
I0403 15:33:50.406462 10562 net.cpp:156] Memory required for data: 763479072
I0403 15:33:50.406477 10562 layer_factory.hpp:77] Creating layer inception_3b/pool_proj
I0403 15:33:50.406502 10562 net.cpp:91] Creating Layer inception_3b/pool_proj
I0403 15:33:50.406519 10562 net.cpp:425] inception_3b/pool_proj <- inception_3b/pool
I0403 15:33:50.406543 10562 net.cpp:399] inception_3b/pool_proj -> inception_3b/pool_proj
I0403 15:33:50.407673 10562 net.cpp:141] Setting up inception_3b/pool_proj
I0403 15:33:50.407702 10562 net.cpp:148] Top shape: 24 64 28 28 (1204224)
I0403 15:33:50.407718 10562 net.cpp:156] Memory required for data: 768295968
I0403 15:33:50.407738 10562 layer_factory.hpp:77] Creating layer inception_3b/relu_pool_proj
I0403 15:33:50.407757 10562 net.cpp:91] Creating Layer inception_3b/relu_pool_proj
I0403 15:33:50.407774 10562 net.cpp:425] inception_3b/relu_pool_proj <- inception_3b/pool_proj
I0403 15:33:50.407794 10562 net.cpp:386] inception_3b/relu_pool_proj -> inception_3b/pool_proj (in-place)
I0403 15:33:50.408241 10562 net.cpp:141] Setting up inception_3b/relu_pool_proj
I0403 15:33:50.408269 10562 net.cpp:148] Top shape: 24 64 28 28 (1204224)
I0403 15:33:50.408285 10562 net.cpp:156] Memory required for data: 773112864
I0403 15:33:50.408301 10562 layer_factory.hpp:77] Creating layer inception_3b/output
I0403 15:33:50.408319 10562 net.cpp:91] Creating Layer inception_3b/output
I0403 15:33:50.408335 10562 net.cpp:425] inception_3b/output <- inception_3b/1x1
I0403 15:33:50.408352 10562 net.cpp:425] inception_3b/output <- inception_3b/3x3
I0403 15:33:50.408370 10562 net.cpp:425] inception_3b/output <- inception_3b/5x5
I0403 15:33:50.408385 10562 net.cpp:425] inception_3b/output <- inception_3b/pool_proj
I0403 15:33:50.408406 10562 net.cpp:399] inception_3b/output -> inception_3b/output
I0403 15:33:50.408449 10562 net.cpp:141] Setting up inception_3b/output
I0403 15:33:50.408473 10562 net.cpp:148] Top shape: 24 480 28 28 (9031680)
I0403 15:33:50.408488 10562 net.cpp:156] Memory required for data: 809239584
I0403 15:33:50.408502 10562 layer_factory.hpp:77] Creating layer pool3/3x3_s2
I0403 15:33:50.408524 10562 net.cpp:91] Creating Layer pool3/3x3_s2
I0403 15:33:50.408540 10562 net.cpp:425] pool3/3x3_s2 <- inception_3b/output
I0403 15:33:50.408574 10562 net.cpp:399] pool3/3x3_s2 -> pool3/3x3_s2
I0403 15:33:50.408635 10562 net.cpp:141] Setting up pool3/3x3_s2
I0403 15:33:50.408659 10562 net.cpp:148] Top shape: 24 480 14 14 (2257920)
I0403 15:33:50.408674 10562 net.cpp:156] Memory required for data: 818271264
I0403 15:33:50.408689 10562 layer_factory.hpp:77] Creating layer pool3/3x3_s2_pool3/3x3_s2_0_split
I0403 15:33:50.408707 10562 net.cpp:91] Creating Layer pool3/3x3_s2_pool3/3x3_s2_0_split
I0403 15:33:50.408723 10562 net.cpp:425] pool3/3x3_s2_pool3/3x3_s2_0_split <- pool3/3x3_s2
I0403 15:33:50.408743 10562 net.cpp:399] pool3/3x3_s2_pool3/3x3_s2_0_split -> pool3/3x3_s2_pool3/3x3_s2_0_split_0
I0403 15:33:50.408763 10562 net.cpp:399] pool3/3x3_s2_pool3/3x3_s2_0_split -> pool3/3x3_s2_pool3/3x3_s2_0_split_1
I0403 15:33:50.408784 10562 net.cpp:399] pool3/3x3_s2_pool3/3x3_s2_0_split -> pool3/3x3_s2_pool3/3x3_s2_0_split_2
I0403 15:33:50.408804 10562 net.cpp:399] pool3/3x3_s2_pool3/3x3_s2_0_split -> pool3/3x3_s2_pool3/3x3_s2_0_split_3
I0403 15:33:50.408882 10562 net.cpp:141] Setting up pool3/3x3_s2_pool3/3x3_s2_0_split
I0403 15:33:50.408906 10562 net.cpp:148] Top shape: 24 480 14 14 (2257920)
I0403 15:33:50.408924 10562 net.cpp:148] Top shape: 24 480 14 14 (2257920)
I0403 15:33:50.408941 10562 net.cpp:148] Top shape: 24 480 14 14 (2257920)
I0403 15:33:50.408957 10562 net.cpp:148] Top shape: 24 480 14 14 (2257920)
I0403 15:33:50.408972 10562 net.cpp:156] Memory required for data: 854397984
I0403 15:33:50.408992 10562 layer_factory.hpp:77] Creating layer inception_4a/1x1
I0403 15:33:50.409015 10562 net.cpp:91] Creating Layer inception_4a/1x1
I0403 15:33:50.409034 10562 net.cpp:425] inception_4a/1x1 <- pool3/3x3_s2_pool3/3x3_s2_0_split_0
I0403 15:33:50.409055 10562 net.cpp:399] inception_4a/1x1 -> inception_4a/1x1
I0403 15:33:50.410682 10562 net.cpp:141] Setting up inception_4a/1x1
I0403 15:33:50.410711 10562 net.cpp:148] Top shape: 24 192 14 14 (903168)
I0403 15:33:50.410727 10562 net.cpp:156] Memory required for data: 858010656
I0403 15:33:50.410745 10562 layer_factory.hpp:77] Creating layer inception_4a/relu_1x1
I0403 15:33:50.410764 10562 net.cpp:91] Creating Layer inception_4a/relu_1x1
I0403 15:33:50.410781 10562 net.cpp:425] inception_4a/relu_1x1 <- inception_4a/1x1
I0403 15:33:50.410801 10562 net.cpp:386] inception_4a/relu_1x1 -> inception_4a/1x1 (in-place)
I0403 15:33:50.410984 10562 net.cpp:141] Setting up inception_4a/relu_1x1
I0403 15:33:50.411010 10562 net.cpp:148] Top shape: 24 192 14 14 (903168)
I0403 15:33:50.411026 10562 net.cpp:156] Memory required for data: 861623328
I0403 15:33:50.411041 10562 layer_factory.hpp:77] Creating layer inception_4a/3x3_reduce
I0403 15:33:50.411063 10562 net.cpp:91] Creating Layer inception_4a/3x3_reduce
I0403 15:33:50.411082 10562 net.cpp:425] inception_4a/3x3_reduce <- pool3/3x3_s2_pool3/3x3_s2_0_split_1
I0403 15:33:50.411103 10562 net.cpp:399] inception_4a/3x3_reduce -> inception_4a/3x3_reduce
I0403 15:33:50.412412 10562 net.cpp:141] Setting up inception_4a/3x3_reduce
I0403 15:33:50.412439 10562 net.cpp:148] Top shape: 24 96 14 14 (451584)
I0403 15:33:50.412456 10562 net.cpp:156] Memory required for data: 863429664
I0403 15:33:50.412482 10562 layer_factory.hpp:77] Creating layer inception_4a/relu_3x3_reduce
I0403 15:33:50.412502 10562 net.cpp:91] Creating Layer inception_4a/relu_3x3_reduce
I0403 15:33:50.412518 10562 net.cpp:425] inception_4a/relu_3x3_reduce <- inception_4a/3x3_reduce
I0403 15:33:50.412539 10562 net.cpp:386] inception_4a/relu_3x3_reduce -> inception_4a/3x3_reduce (in-place)
I0403 15:33:50.412714 10562 net.cpp:141] Setting up inception_4a/relu_3x3_reduce
I0403 15:33:50.412739 10562 net.cpp:148] Top shape: 24 96 14 14 (451584)
I0403 15:33:50.412755 10562 net.cpp:156] Memory required for data: 865236000
I0403 15:33:50.412770 10562 layer_factory.hpp:77] Creating layer inception_4a/3x3
I0403 15:33:50.412792 10562 net.cpp:91] Creating Layer inception_4a/3x3
I0403 15:33:50.412809 10562 net.cpp:425] inception_4a/3x3 <- inception_4a/3x3_reduce
I0403 15:33:50.412832 10562 net.cpp:399] inception_4a/3x3 -> inception_4a/3x3
I0403 15:33:50.415719 10562 net.cpp:141] Setting up inception_4a/3x3
I0403 15:33:50.415748 10562 net.cpp:148] Top shape: 24 208 14 14 (978432)
I0403 15:33:50.415777 10562 net.cpp:156] Memory required for data: 869149728
I0403 15:33:50.415797 10562 layer_factory.hpp:77] Creating layer inception_4a/relu_3x3
I0403 15:33:50.415818 10562 net.cpp:91] Creating Layer inception_4a/relu_3x3
I0403 15:33:50.415837 10562 net.cpp:425] inception_4a/relu_3x3 <- inception_4a/3x3
I0403 15:33:50.415854 10562 net.cpp:386] inception_4a/relu_3x3 -> inception_4a/3x3 (in-place)
I0403 15:33:50.416152 10562 net.cpp:141] Setting up inception_4a/relu_3x3
I0403 15:33:50.416178 10562 net.cpp:148] Top shape: 24 208 14 14 (978432)
I0403 15:33:50.416193 10562 net.cpp:156] Memory required for data: 873063456
I0403 15:33:50.416208 10562 layer_factory.hpp:77] Creating layer inception_4a/5x5_reduce
I0403 15:33:50.416231 10562 net.cpp:91] Creating Layer inception_4a/5x5_reduce
I0403 15:33:50.416249 10562 net.cpp:425] inception_4a/5x5_reduce <- pool3/3x3_s2_pool3/3x3_s2_0_split_2
I0403 15:33:50.416272 10562 net.cpp:399] inception_4a/5x5_reduce -> inception_4a/5x5_reduce
I0403 15:33:50.417290 10562 net.cpp:141] Setting up inception_4a/5x5_reduce
I0403 15:33:50.417317 10562 net.cpp:148] Top shape: 24 16 14 14 (75264)
I0403 15:33:50.417332 10562 net.cpp:156] Memory required for data: 873364512
I0403 15:33:50.417351 10562 layer_factory.hpp:77] Creating layer inception_4a/relu_5x5_reduce
I0403 15:33:50.417371 10562 net.cpp:91] Creating Layer inception_4a/relu_5x5_reduce
I0403 15:33:50.417387 10562 net.cpp:425] inception_4a/relu_5x5_reduce <- inception_4a/5x5_reduce
I0403 15:33:50.417405 10562 net.cpp:386] inception_4a/relu_5x5_reduce -> inception_4a/5x5_reduce (in-place)
I0403 15:33:50.417580 10562 net.cpp:141] Setting up inception_4a/relu_5x5_reduce
I0403 15:33:50.417606 10562 net.cpp:148] Top shape: 24 16 14 14 (75264)
I0403 15:33:50.417621 10562 net.cpp:156] Memory required for data: 873665568
I0403 15:33:50.417636 10562 layer_factory.hpp:77] Creating layer inception_4a/5x5
I0403 15:33:50.417659 10562 net.cpp:91] Creating Layer inception_4a/5x5
I0403 15:33:50.417676 10562 net.cpp:425] inception_4a/5x5 <- inception_4a/5x5_reduce
I0403 15:33:50.417697 10562 net.cpp:399] inception_4a/5x5 -> inception_4a/5x5
I0403 15:33:50.418788 10562 net.cpp:141] Setting up inception_4a/5x5
I0403 15:33:50.418815 10562 net.cpp:148] Top shape: 24 48 14 14 (225792)
I0403 15:33:50.418831 10562 net.cpp:156] Memory required for data: 874568736
I0403 15:33:50.418849 10562 layer_factory.hpp:77] Creating layer inception_4a/relu_5x5
I0403 15:33:50.418867 10562 net.cpp:91] Creating Layer inception_4a/relu_5x5
I0403 15:33:50.418884 10562 net.cpp:425] inception_4a/relu_5x5 <- inception_4a/5x5
I0403 15:33:50.418903 10562 net.cpp:386] inception_4a/relu_5x5 -> inception_4a/5x5 (in-place)
I0403 15:33:50.419088 10562 net.cpp:141] Setting up inception_4a/relu_5x5
I0403 15:33:50.419112 10562 net.cpp:148] Top shape: 24 48 14 14 (225792)
I0403 15:33:50.419127 10562 net.cpp:156] Memory required for data: 875471904
I0403 15:33:50.419142 10562 layer_factory.hpp:77] Creating layer inception_4a/pool
I0403 15:33:50.419160 10562 net.cpp:91] Creating Layer inception_4a/pool
I0403 15:33:50.419178 10562 net.cpp:425] inception_4a/pool <- pool3/3x3_s2_pool3/3x3_s2_0_split_3
I0403 15:33:50.419196 10562 net.cpp:399] inception_4a/pool -> inception_4a/pool
I0403 15:33:50.419257 10562 net.cpp:141] Setting up inception_4a/pool
I0403 15:33:50.419281 10562 net.cpp:148] Top shape: 24 480 14 14 (2257920)
I0403 15:33:50.419296 10562 net.cpp:156] Memory required for data: 884503584
I0403 15:33:50.419311 10562 layer_factory.hpp:77] Creating layer inception_4a/pool_proj
I0403 15:33:50.419334 10562 net.cpp:91] Creating Layer inception_4a/pool_proj
I0403 15:33:50.419351 10562 net.cpp:425] inception_4a/pool_proj <- inception_4a/pool
I0403 15:33:50.419369 10562 net.cpp:399] inception_4a/pool_proj -> inception_4a/pool_proj
I0403 15:33:50.420518 10562 net.cpp:141] Setting up inception_4a/pool_proj
I0403 15:33:50.420547 10562 net.cpp:148] Top shape: 24 64 14 14 (301056)
I0403 15:33:50.420577 10562 net.cpp:156] Memory required for data: 885707808
I0403 15:33:50.420596 10562 layer_factory.hpp:77] Creating layer inception_4a/relu_pool_proj
I0403 15:33:50.420614 10562 net.cpp:91] Creating Layer inception_4a/relu_pool_proj
I0403 15:33:50.420630 10562 net.cpp:425] inception_4a/relu_pool_proj <- inception_4a/pool_proj
I0403 15:33:50.420651 10562 net.cpp:386] inception_4a/relu_pool_proj -> inception_4a/pool_proj (in-place)
I0403 15:33:50.420927 10562 net.cpp:141] Setting up inception_4a/relu_pool_proj
I0403 15:33:50.420953 10562 net.cpp:148] Top shape: 24 64 14 14 (301056)
I0403 15:33:50.420969 10562 net.cpp:156] Memory required for data: 886912032
I0403 15:33:50.420989 10562 layer_factory.hpp:77] Creating layer inception_4a/output
I0403 15:33:50.421007 10562 net.cpp:91] Creating Layer inception_4a/output
I0403 15:33:50.421023 10562 net.cpp:425] inception_4a/output <- inception_4a/1x1
I0403 15:33:50.421039 10562 net.cpp:425] inception_4a/output <- inception_4a/3x3
I0403 15:33:50.421056 10562 net.cpp:425] inception_4a/output <- inception_4a/5x5
I0403 15:33:50.421072 10562 net.cpp:425] inception_4a/output <- inception_4a/pool_proj
I0403 15:33:50.421092 10562 net.cpp:399] inception_4a/output -> inception_4a/output
I0403 15:33:50.421136 10562 net.cpp:141] Setting up inception_4a/output
I0403 15:33:50.421161 10562 net.cpp:148] Top shape: 24 512 14 14 (2408448)
I0403 15:33:50.421177 10562 net.cpp:156] Memory required for data: 896545824
I0403 15:33:50.421191 10562 layer_factory.hpp:77] Creating layer inception_4a/output_inception_4a/output_0_split
I0403 15:33:50.421210 10562 net.cpp:91] Creating Layer inception_4a/output_inception_4a/output_0_split
I0403 15:33:50.421224 10562 net.cpp:425] inception_4a/output_inception_4a/output_0_split <- inception_4a/output
I0403 15:33:50.421244 10562 net.cpp:399] inception_4a/output_inception_4a/output_0_split -> inception_4a/output_inception_4a/output_0_split_0
I0403 15:33:50.421265 10562 net.cpp:399] inception_4a/output_inception_4a/output_0_split -> inception_4a/output_inception_4a/output_0_split_1
I0403 15:33:50.421286 10562 net.cpp:399] inception_4a/output_inception_4a/output_0_split -> inception_4a/output_inception_4a/output_0_split_2
I0403 15:33:50.421306 10562 net.cpp:399] inception_4a/output_inception_4a/output_0_split -> inception_4a/output_inception_4a/output_0_split_3
I0403 15:33:50.421326 10562 net.cpp:399] inception_4a/output_inception_4a/output_0_split -> inception_4a/output_inception_4a/output_0_split_4
I0403 15:33:50.421417 10562 net.cpp:141] Setting up inception_4a/output_inception_4a/output_0_split
I0403 15:33:50.421440 10562 net.cpp:148] Top shape: 24 512 14 14 (2408448)
I0403 15:33:50.421458 10562 net.cpp:148] Top shape: 24 512 14 14 (2408448)
I0403 15:33:50.421473 10562 net.cpp:148] Top shape: 24 512 14 14 (2408448)
I0403 15:33:50.421489 10562 net.cpp:148] Top shape: 24 512 14 14 (2408448)
I0403 15:33:50.421504 10562 net.cpp:148] Top shape: 24 512 14 14 (2408448)
I0403 15:33:50.421517 10562 net.cpp:156] Memory required for data: 944714784
I0403 15:33:50.421532 10562 layer_factory.hpp:77] Creating layer loss1/ave_pool
I0403 15:33:50.421551 10562 net.cpp:91] Creating Layer loss1/ave_pool
I0403 15:33:50.421567 10562 net.cpp:425] loss1/ave_pool <- inception_4a/output_inception_4a/output_0_split_0
I0403 15:33:50.421586 10562 net.cpp:399] loss1/ave_pool -> loss1/ave_pool
I0403 15:33:50.421807 10562 net.cpp:141] Setting up loss1/ave_pool
I0403 15:33:50.421831 10562 net.cpp:148] Top shape: 24 512 4 4 (196608)
I0403 15:33:50.421846 10562 net.cpp:156] Memory required for data: 945501216
I0403 15:33:50.421861 10562 layer_factory.hpp:77] Creating layer loss1/conv
I0403 15:33:50.421883 10562 net.cpp:91] Creating Layer loss1/conv
I0403 15:33:50.421900 10562 net.cpp:425] loss1/conv <- loss1/ave_pool
I0403 15:33:50.421921 10562 net.cpp:399] loss1/conv -> loss1/conv
I0403 15:33:50.423358 10562 net.cpp:141] Setting up loss1/conv
I0403 15:33:50.423388 10562 net.cpp:148] Top shape: 24 128 4 4 (49152)
I0403 15:33:50.423418 10562 net.cpp:156] Memory required for data: 945697824
I0403 15:33:50.423437 10562 layer_factory.hpp:77] Creating layer loss1/relu_conv
I0403 15:33:50.423459 10562 net.cpp:91] Creating Layer loss1/relu_conv
I0403 15:33:50.423476 10562 net.cpp:425] loss1/relu_conv <- loss1/conv
I0403 15:33:50.423494 10562 net.cpp:386] loss1/relu_conv -> loss1/conv (in-place)
I0403 15:33:50.423811 10562 net.cpp:141] Setting up loss1/relu_conv
I0403 15:33:50.423838 10562 net.cpp:148] Top shape: 24 128 4 4 (49152)
I0403 15:33:50.423854 10562 net.cpp:156] Memory required for data: 945894432
I0403 15:33:50.423871 10562 layer_factory.hpp:77] Creating layer loss1/fc
I0403 15:33:50.423913 10562 net.cpp:91] Creating Layer loss1/fc
I0403 15:33:50.423934 10562 net.cpp:425] loss1/fc <- loss1/conv
I0403 15:33:50.423955 10562 net.cpp:399] loss1/fc -> loss1/fc
I0403 15:33:50.442353 10562 net.cpp:141] Setting up loss1/fc
I0403 15:33:50.442390 10562 net.cpp:148] Top shape: 24 1024 (24576)
I0403 15:33:50.442406 10562 net.cpp:156] Memory required for data: 945992736
I0403 15:33:50.442425 10562 layer_factory.hpp:77] Creating layer loss1/relu_fc
I0403 15:33:50.442445 10562 net.cpp:91] Creating Layer loss1/relu_fc
I0403 15:33:50.442461 10562 net.cpp:425] loss1/relu_fc <- loss1/fc
I0403 15:33:50.442481 10562 net.cpp:386] loss1/relu_fc -> loss1/fc (in-place)
I0403 15:33:50.442672 10562 net.cpp:141] Setting up loss1/relu_fc
I0403 15:33:50.442697 10562 net.cpp:148] Top shape: 24 1024 (24576)
I0403 15:33:50.442713 10562 net.cpp:156] Memory required for data: 946091040
I0403 15:33:50.442728 10562 layer_factory.hpp:77] Creating layer loss1/drop_fc
I0403 15:33:50.442754 10562 net.cpp:91] Creating Layer loss1/drop_fc
I0403 15:33:50.442773 10562 net.cpp:425] loss1/drop_fc <- loss1/fc
I0403 15:33:50.442791 10562 net.cpp:386] loss1/drop_fc -> loss1/fc (in-place)
I0403 15:33:50.442857 10562 net.cpp:141] Setting up loss1/drop_fc
I0403 15:33:50.442884 10562 net.cpp:148] Top shape: 24 1024 (24576)
I0403 15:33:50.442900 10562 net.cpp:156] Memory required for data: 946189344
I0403 15:33:50.442915 10562 layer_factory.hpp:77] Creating layer loss1/classifier_plantvillage
I0403 15:33:50.442935 10562 net.cpp:91] Creating Layer loss1/classifier_plantvillage
I0403 15:33:50.442951 10562 net.cpp:425] loss1/classifier_plantvillage <- loss1/fc
I0403 15:33:50.442973 10562 net.cpp:399] loss1/classifier_plantvillage -> loss1/classifier_plantvillage
I0403 15:33:50.443960 10562 net.cpp:141] Setting up loss1/classifier_plantvillage
I0403 15:33:50.443992 10562 net.cpp:148] Top shape: 24 38 (912)
I0403 15:33:50.444010 10562 net.cpp:156] Memory required for data: 946192992
I0403 15:33:50.444027 10562 layer_factory.hpp:77] Creating layer loss1/classifier_plantvillage_loss1/classifier_plantvillage_0_split
I0403 15:33:50.444046 10562 net.cpp:91] Creating Layer loss1/classifier_plantvillage_loss1/classifier_plantvillage_0_split
I0403 15:33:50.444061 10562 net.cpp:425] loss1/classifier_plantvillage_loss1/classifier_plantvillage_0_split <- loss1/classifier_plantvillage
I0403 15:33:50.444082 10562 net.cpp:399] loss1/classifier_plantvillage_loss1/classifier_plantvillage_0_split -> loss1/classifier_plantvillage_loss1/classifier_plantvillage_0_split_0
I0403 15:33:50.444103 10562 net.cpp:399] loss1/classifier_plantvillage_loss1/classifier_plantvillage_0_split -> loss1/classifier_plantvillage_loss1/classifier_plantvillage_0_split_1
I0403 15:33:50.444123 10562 net.cpp:399] loss1/classifier_plantvillage_loss1/classifier_plantvillage_0_split -> loss1/classifier_plantvillage_loss1/classifier_plantvillage_0_split_2
I0403 15:33:50.444191 10562 net.cpp:141] Setting up loss1/classifier_plantvillage_loss1/classifier_plantvillage_0_split
I0403 15:33:50.444214 10562 net.cpp:148] Top shape: 24 38 (912)
I0403 15:33:50.444231 10562 net.cpp:148] Top shape: 24 38 (912)
I0403 15:33:50.444247 10562 net.cpp:148] Top shape: 24 38 (912)
I0403 15:33:50.444260 10562 net.cpp:156] Memory required for data: 946203936
I0403 15:33:50.444275 10562 layer_factory.hpp:77] Creating layer inception_4b/1x1
I0403 15:33:50.444298 10562 net.cpp:91] Creating Layer inception_4b/1x1
I0403 15:33:50.444329 10562 net.cpp:425] inception_4b/1x1 <- inception_4a/output_inception_4a/output_0_split_1
I0403 15:33:50.444350 10562 net.cpp:399] inception_4b/1x1 -> inception_4b/1x1
I0403 15:33:50.445984 10562 net.cpp:141] Setting up inception_4b/1x1
I0403 15:33:50.446012 10562 net.cpp:148] Top shape: 24 160 14 14 (752640)
I0403 15:33:50.446028 10562 net.cpp:156] Memory required for data: 949214496
I0403 15:33:50.446048 10562 layer_factory.hpp:77] Creating layer inception_4b/relu_1x1
I0403 15:33:50.446068 10562 net.cpp:91] Creating Layer inception_4b/relu_1x1
I0403 15:33:50.446085 10562 net.cpp:425] inception_4b/relu_1x1 <- inception_4b/1x1
I0403 15:33:50.446104 10562 net.cpp:386] inception_4b/relu_1x1 -> inception_4b/1x1 (in-place)
I0403 15:33:50.446282 10562 net.cpp:141] Setting up inception_4b/relu_1x1
I0403 15:33:50.446308 10562 net.cpp:148] Top shape: 24 160 14 14 (752640)
I0403 15:33:50.446324 10562 net.cpp:156] Memory required for data: 952225056
I0403 15:33:50.446339 10562 layer_factory.hpp:77] Creating layer inception_4b/3x3_reduce
I0403 15:33:50.446363 10562 net.cpp:91] Creating Layer inception_4b/3x3_reduce
I0403 15:33:50.446382 10562 net.cpp:425] inception_4b/3x3_reduce <- inception_4a/output_inception_4a/output_0_split_2
I0403 15:33:50.446400 10562 net.cpp:399] inception_4b/3x3_reduce -> inception_4b/3x3_reduce
I0403 15:33:50.447785 10562 net.cpp:141] Setting up inception_4b/3x3_reduce
I0403 15:33:50.447815 10562 net.cpp:148] Top shape: 24 112 14 14 (526848)
I0403 15:33:50.447832 10562 net.cpp:156] Memory required for data: 954332448
I0403 15:33:50.447850 10562 layer_factory.hpp:77] Creating layer inception_4b/relu_3x3_reduce
I0403 15:33:50.447868 10562 net.cpp:91] Creating Layer inception_4b/relu_3x3_reduce
I0403 15:33:50.447885 10562 net.cpp:425] inception_4b/relu_3x3_reduce <- inception_4b/3x3_reduce
I0403 15:33:50.447901 10562 net.cpp:386] inception_4b/relu_3x3_reduce -> inception_4b/3x3_reduce (in-place)
I0403 15:33:50.448194 10562 net.cpp:141] Setting up inception_4b/relu_3x3_reduce
I0403 15:33:50.448223 10562 net.cpp:148] Top shape: 24 112 14 14 (526848)
I0403 15:33:50.448240 10562 net.cpp:156] Memory required for data: 956439840
I0403 15:33:50.448254 10562 layer_factory.hpp:77] Creating layer inception_4b/3x3
I0403 15:33:50.448276 10562 net.cpp:91] Creating Layer inception_4b/3x3
I0403 15:33:50.448294 10562 net.cpp:425] inception_4b/3x3 <- inception_4b/3x3_reduce
I0403 15:33:50.448313 10562 net.cpp:399] inception_4b/3x3 -> inception_4b/3x3
I0403 15:33:50.451326 10562 net.cpp:141] Setting up inception_4b/3x3
I0403 15:33:50.451356 10562 net.cpp:148] Top shape: 24 224 14 14 (1053696)
I0403 15:33:50.451372 10562 net.cpp:156] Memory required for data: 960654624
I0403 15:33:50.451390 10562 layer_factory.hpp:77] Creating layer inception_4b/relu_3x3
I0403 15:33:50.451408 10562 net.cpp:91] Creating Layer inception_4b/relu_3x3
I0403 15:33:50.451423 10562 net.cpp:425] inception_4b/relu_3x3 <- inception_4b/3x3
I0403 15:33:50.451443 10562 net.cpp:386] inception_4b/relu_3x3 -> inception_4b/3x3 (in-place)
I0403 15:33:50.451624 10562 net.cpp:141] Setting up inception_4b/relu_3x3
I0403 15:33:50.451648 10562 net.cpp:148] Top shape: 24 224 14 14 (1053696)
I0403 15:33:50.451663 10562 net.cpp:156] Memory required for data: 964869408
I0403 15:33:50.451678 10562 layer_factory.hpp:77] Creating layer inception_4b/5x5_reduce
I0403 15:33:50.451700 10562 net.cpp:91] Creating Layer inception_4b/5x5_reduce
I0403 15:33:50.451719 10562 net.cpp:425] inception_4b/5x5_reduce <- inception_4a/output_inception_4a/output_0_split_3
I0403 15:33:50.451740 10562 net.cpp:399] inception_4b/5x5_reduce -> inception_4b/5x5_reduce
I0403 15:33:50.452852 10562 net.cpp:141] Setting up inception_4b/5x5_reduce
I0403 15:33:50.452882 10562 net.cpp:148] Top shape: 24 24 14 14 (112896)
I0403 15:33:50.452898 10562 net.cpp:156] Memory required for data: 965320992
I0403 15:33:50.452916 10562 layer_factory.hpp:77] Creating layer inception_4b/relu_5x5_reduce
I0403 15:33:50.452934 10562 net.cpp:91] Creating Layer inception_4b/relu_5x5_reduce
I0403 15:33:50.452965 10562 net.cpp:425] inception_4b/relu_5x5_reduce <- inception_4b/5x5_reduce
I0403 15:33:50.452986 10562 net.cpp:386] inception_4b/relu_5x5_reduce -> inception_4b/5x5_reduce (in-place)
I0403 15:33:50.453171 10562 net.cpp:141] Setting up inception_4b/relu_5x5_reduce
I0403 15:33:50.453198 10562 net.cpp:148] Top shape: 24 24 14 14 (112896)
I0403 15:33:50.453213 10562 net.cpp:156] Memory required for data: 965772576
I0403 15:33:50.453229 10562 layer_factory.hpp:77] Creating layer inception_4b/5x5
I0403 15:33:50.453251 10562 net.cpp:91] Creating Layer inception_4b/5x5
I0403 15:33:50.453269 10562 net.cpp:425] inception_4b/5x5 <- inception_4b/5x5_reduce
I0403 15:33:50.453290 10562 net.cpp:399] inception_4b/5x5 -> inception_4b/5x5
I0403 15:33:50.454522 10562 net.cpp:141] Setting up inception_4b/5x5
I0403 15:33:50.454550 10562 net.cpp:148] Top shape: 24 64 14 14 (301056)
I0403 15:33:50.454566 10562 net.cpp:156] Memory required for data: 966976800
I0403 15:33:50.454601 10562 layer_factory.hpp:77] Creating layer inception_4b/relu_5x5
I0403 15:33:50.454622 10562 net.cpp:91] Creating Layer inception_4b/relu_5x5
I0403 15:33:50.454640 10562 net.cpp:425] inception_4b/relu_5x5 <- inception_4b/5x5
I0403 15:33:50.454658 10562 net.cpp:386] inception_4b/relu_5x5 -> inception_4b/5x5 (in-place)
I0403 15:33:50.454964 10562 net.cpp:141] Setting up inception_4b/relu_5x5
I0403 15:33:50.454995 10562 net.cpp:148] Top shape: 24 64 14 14 (301056)
I0403 15:33:50.455011 10562 net.cpp:156] Memory required for data: 968181024
I0403 15:33:50.455026 10562 layer_factory.hpp:77] Creating layer inception_4b/pool
I0403 15:33:50.455046 10562 net.cpp:91] Creating Layer inception_4b/pool
I0403 15:33:50.455065 10562 net.cpp:425] inception_4b/pool <- inception_4a/output_inception_4a/output_0_split_4
I0403 15:33:50.455082 10562 net.cpp:399] inception_4b/pool -> inception_4b/pool
I0403 15:33:50.455147 10562 net.cpp:141] Setting up inception_4b/pool
I0403 15:33:50.455171 10562 net.cpp:148] Top shape: 24 512 14 14 (2408448)
I0403 15:33:50.455185 10562 net.cpp:156] Memory required for data: 977814816
I0403 15:33:50.455200 10562 layer_factory.hpp:77] Creating layer inception_4b/pool_proj
I0403 15:33:50.455222 10562 net.cpp:91] Creating Layer inception_4b/pool_proj
I0403 15:33:50.455240 10562 net.cpp:425] inception_4b/pool_proj <- inception_4b/pool
I0403 15:33:50.455260 10562 net.cpp:399] inception_4b/pool_proj -> inception_4b/pool_proj
I0403 15:33:50.456454 10562 net.cpp:141] Setting up inception_4b/pool_proj
I0403 15:33:50.456483 10562 net.cpp:148] Top shape: 24 64 14 14 (301056)
I0403 15:33:50.456498 10562 net.cpp:156] Memory required for data: 979019040
I0403 15:33:50.456516 10562 layer_factory.hpp:77] Creating layer inception_4b/relu_pool_proj
I0403 15:33:50.456537 10562 net.cpp:91] Creating Layer inception_4b/relu_pool_proj
I0403 15:33:50.456554 10562 net.cpp:425] inception_4b/relu_pool_proj <- inception_4b/pool_proj
I0403 15:33:50.456571 10562 net.cpp:386] inception_4b/relu_pool_proj -> inception_4b/pool_proj (in-place)
I0403 15:33:50.456748 10562 net.cpp:141] Setting up inception_4b/relu_pool_proj
I0403 15:33:50.456773 10562 net.cpp:148] Top shape: 24 64 14 14 (301056)
I0403 15:33:50.456787 10562 net.cpp:156] Memory required for data: 980223264
I0403 15:33:50.456802 10562 layer_factory.hpp:77] Creating layer inception_4b/output
I0403 15:33:50.456820 10562 net.cpp:91] Creating Layer inception_4b/output
I0403 15:33:50.456835 10562 net.cpp:425] inception_4b/output <- inception_4b/1x1
I0403 15:33:50.456852 10562 net.cpp:425] inception_4b/output <- inception_4b/3x3
I0403 15:33:50.456868 10562 net.cpp:425] inception_4b/output <- inception_4b/5x5
I0403 15:33:50.456884 10562 net.cpp:425] inception_4b/output <- inception_4b/pool_proj
I0403 15:33:50.456902 10562 net.cpp:399] inception_4b/output -> inception_4b/output
I0403 15:33:50.456951 10562 net.cpp:141] Setting up inception_4b/output
I0403 15:33:50.456976 10562 net.cpp:148] Top shape: 24 512 14 14 (2408448)
I0403 15:33:50.456996 10562 net.cpp:156] Memory required for data: 989857056
I0403 15:33:50.457026 10562 layer_factory.hpp:77] Creating layer inception_4b/output_inception_4b/output_0_split
I0403 15:33:50.457044 10562 net.cpp:91] Creating Layer inception_4b/output_inception_4b/output_0_split
I0403 15:33:50.457061 10562 net.cpp:425] inception_4b/output_inception_4b/output_0_split <- inception_4b/output
I0403 15:33:50.457078 10562 net.cpp:399] inception_4b/output_inception_4b/output_0_split -> inception_4b/output_inception_4b/output_0_split_0
I0403 15:33:50.457098 10562 net.cpp:399] inception_4b/output_inception_4b/output_0_split -> inception_4b/output_inception_4b/output_0_split_1
I0403 15:33:50.457120 10562 net.cpp:399] inception_4b/output_inception_4b/output_0_split -> inception_4b/output_inception_4b/output_0_split_2
I0403 15:33:50.457141 10562 net.cpp:399] inception_4b/output_inception_4b/output_0_split -> inception_4b/output_inception_4b/output_0_split_3
I0403 15:33:50.457231 10562 net.cpp:141] Setting up inception_4b/output_inception_4b/output_0_split
I0403 15:33:50.457254 10562 net.cpp:148] Top shape: 24 512 14 14 (2408448)
I0403 15:33:50.457272 10562 net.cpp:148] Top shape: 24 512 14 14 (2408448)
I0403 15:33:50.457286 10562 net.cpp:148] Top shape: 24 512 14 14 (2408448)
I0403 15:33:50.457303 10562 net.cpp:148] Top shape: 24 512 14 14 (2408448)
I0403 15:33:50.457316 10562 net.cpp:156] Memory required for data: 1028392224
I0403 15:33:50.457330 10562 layer_factory.hpp:77] Creating layer inception_4c/1x1
I0403 15:33:50.457353 10562 net.cpp:91] Creating Layer inception_4c/1x1
I0403 15:33:50.457370 10562 net.cpp:425] inception_4c/1x1 <- inception_4b/output_inception_4b/output_0_split_0
I0403 15:33:50.457391 10562 net.cpp:399] inception_4c/1x1 -> inception_4c/1x1
I0403 15:33:50.458824 10562 net.cpp:141] Setting up inception_4c/1x1
I0403 15:33:50.458853 10562 net.cpp:148] Top shape: 24 128 14 14 (602112)
I0403 15:33:50.458868 10562 net.cpp:156] Memory required for data: 1030800672
I0403 15:33:50.458886 10562 layer_factory.hpp:77] Creating layer inception_4c/relu_1x1
I0403 15:33:50.458904 10562 net.cpp:91] Creating Layer inception_4c/relu_1x1
I0403 15:33:50.458922 10562 net.cpp:425] inception_4c/relu_1x1 <- inception_4c/1x1
I0403 15:33:50.458942 10562 net.cpp:386] inception_4c/relu_1x1 -> inception_4c/1x1 (in-place)
I0403 15:33:50.459127 10562 net.cpp:141] Setting up inception_4c/relu_1x1
I0403 15:33:50.459152 10562 net.cpp:148] Top shape: 24 128 14 14 (602112)
I0403 15:33:50.459167 10562 net.cpp:156] Memory required for data: 1033209120
I0403 15:33:50.459182 10562 layer_factory.hpp:77] Creating layer inception_4c/3x3_reduce
I0403 15:33:50.459205 10562 net.cpp:91] Creating Layer inception_4c/3x3_reduce
I0403 15:33:50.459223 10562 net.cpp:425] inception_4c/3x3_reduce <- inception_4b/output_inception_4b/output_0_split_1
I0403 15:33:50.459244 10562 net.cpp:399] inception_4c/3x3_reduce -> inception_4c/3x3_reduce
I0403 15:33:50.461196 10562 net.cpp:141] Setting up inception_4c/3x3_reduce
I0403 15:33:50.461225 10562 net.cpp:148] Top shape: 24 128 14 14 (602112)
I0403 15:33:50.461241 10562 net.cpp:156] Memory required for data: 1035617568
I0403 15:33:50.461261 10562 layer_factory.hpp:77] Creating layer inception_4c/relu_3x3_reduce
I0403 15:33:50.461282 10562 net.cpp:91] Creating Layer inception_4c/relu_3x3_reduce
I0403 15:33:50.461298 10562 net.cpp:425] inception_4c/relu_3x3_reduce <- inception_4c/3x3_reduce
I0403 15:33:50.461316 10562 net.cpp:386] inception_4c/relu_3x3_reduce -> inception_4c/3x3_reduce (in-place)
I0403 15:33:50.461598 10562 net.cpp:141] Setting up inception_4c/relu_3x3_reduce
I0403 15:33:50.461626 10562 net.cpp:148] Top shape: 24 128 14 14 (602112)
I0403 15:33:50.461640 10562 net.cpp:156] Memory required for data: 1038026016
I0403 15:33:50.461655 10562 layer_factory.hpp:77] Creating layer inception_4c/3x3
I0403 15:33:50.461678 10562 net.cpp:91] Creating Layer inception_4c/3x3
I0403 15:33:50.461695 10562 net.cpp:425] inception_4c/3x3 <- inception_4c/3x3_reduce
I0403 15:33:50.461719 10562 net.cpp:399] inception_4c/3x3 -> inception_4c/3x3
I0403 15:33:50.465337 10562 net.cpp:141] Setting up inception_4c/3x3
I0403 15:33:50.465378 10562 net.cpp:148] Top shape: 24 256 14 14 (1204224)
I0403 15:33:50.465395 10562 net.cpp:156] Memory required for data: 1042842912
I0403 15:33:50.465427 10562 layer_factory.hpp:77] Creating layer inception_4c/relu_3x3
I0403 15:33:50.465450 10562 net.cpp:91] Creating Layer inception_4c/relu_3x3
I0403 15:33:50.465466 10562 net.cpp:425] inception_4c/relu_3x3 <- inception_4c/3x3
I0403 15:33:50.465484 10562 net.cpp:386] inception_4c/relu_3x3 -> inception_4c/3x3 (in-place)
I0403 15:33:50.465667 10562 net.cpp:141] Setting up inception_4c/relu_3x3
I0403 15:33:50.465694 10562 net.cpp:148] Top shape: 24 256 14 14 (1204224)
I0403 15:33:50.465709 10562 net.cpp:156] Memory required for data: 1047659808
I0403 15:33:50.465724 10562 layer_factory.hpp:77] Creating layer inception_4c/5x5_reduce
I0403 15:33:50.465749 10562 net.cpp:91] Creating Layer inception_4c/5x5_reduce
I0403 15:33:50.465766 10562 net.cpp:425] inception_4c/5x5_reduce <- inception_4b/output_inception_4b/output_0_split_2
I0403 15:33:50.465785 10562 net.cpp:399] inception_4c/5x5_reduce -> inception_4c/5x5_reduce
I0403 15:33:50.466879 10562 net.cpp:141] Setting up inception_4c/5x5_reduce
I0403 15:33:50.466907 10562 net.cpp:148] Top shape: 24 24 14 14 (112896)
I0403 15:33:50.466928 10562 net.cpp:156] Memory required for data: 1048111392
I0403 15:33:50.466946 10562 layer_factory.hpp:77] Creating layer inception_4c/relu_5x5_reduce
I0403 15:33:50.466964 10562 net.cpp:91] Creating Layer inception_4c/relu_5x5_reduce
I0403 15:33:50.466985 10562 net.cpp:425] inception_4c/relu_5x5_reduce <- inception_4c/5x5_reduce
I0403 15:33:50.467005 10562 net.cpp:386] inception_4c/relu_5x5_reduce -> inception_4c/5x5_reduce (in-place)
I0403 15:33:50.467191 10562 net.cpp:141] Setting up inception_4c/relu_5x5_reduce
I0403 15:33:50.467217 10562 net.cpp:148] Top shape: 24 24 14 14 (112896)
I0403 15:33:50.467233 10562 net.cpp:156] Memory required for data: 1048562976
I0403 15:33:50.467247 10562 layer_factory.hpp:77] Creating layer inception_4c/5x5
I0403 15:33:50.467269 10562 net.cpp:91] Creating Layer inception_4c/5x5
I0403 15:33:50.467288 10562 net.cpp:425] inception_4c/5x5 <- inception_4c/5x5_reduce
I0403 15:33:50.467306 10562 net.cpp:399] inception_4c/5x5 -> inception_4c/5x5
I0403 15:33:50.468564 10562 net.cpp:141] Setting up inception_4c/5x5
I0403 15:33:50.468590 10562 net.cpp:148] Top shape: 24 64 14 14 (301056)
I0403 15:33:50.468606 10562 net.cpp:156] Memory required for data: 1049767200
I0403 15:33:50.468624 10562 layer_factory.hpp:77] Creating layer inception_4c/relu_5x5
I0403 15:33:50.468642 10562 net.cpp:91] Creating Layer inception_4c/relu_5x5
I0403 15:33:50.468658 10562 net.cpp:425] inception_4c/relu_5x5 <- inception_4c/5x5
I0403 15:33:50.468678 10562 net.cpp:386] inception_4c/relu_5x5 -> inception_4c/5x5 (in-place)
I0403 15:33:50.468981 10562 net.cpp:141] Setting up inception_4c/relu_5x5
I0403 15:33:50.469007 10562 net.cpp:148] Top shape: 24 64 14 14 (301056)
I0403 15:33:50.469023 10562 net.cpp:156] Memory required for data: 1050971424
I0403 15:33:50.469038 10562 layer_factory.hpp:77] Creating layer inception_4c/pool
I0403 15:33:50.469056 10562 net.cpp:91] Creating Layer inception_4c/pool
I0403 15:33:50.469072 10562 net.cpp:425] inception_4c/pool <- inception_4b/output_inception_4b/output_0_split_3
I0403 15:33:50.469094 10562 net.cpp:399] inception_4c/pool -> inception_4c/pool
I0403 15:33:50.469159 10562 net.cpp:141] Setting up inception_4c/pool
I0403 15:33:50.469183 10562 net.cpp:148] Top shape: 24 512 14 14 (2408448)
I0403 15:33:50.469197 10562 net.cpp:156] Memory required for data: 1060605216
I0403 15:33:50.469213 10562 layer_factory.hpp:77] Creating layer inception_4c/pool_proj
I0403 15:33:50.469236 10562 net.cpp:91] Creating Layer inception_4c/pool_proj
I0403 15:33:50.469254 10562 net.cpp:425] inception_4c/pool_proj <- inception_4c/pool
I0403 15:33:50.469274 10562 net.cpp:399] inception_4c/pool_proj -> inception_4c/pool_proj
I0403 15:33:50.470500 10562 net.cpp:141] Setting up inception_4c/pool_proj
I0403 15:33:50.470528 10562 net.cpp:148] Top shape: 24 64 14 14 (301056)
I0403 15:33:50.470557 10562 net.cpp:156] Memory required for data: 1061809440
I0403 15:33:50.470577 10562 layer_factory.hpp:77] Creating layer inception_4c/relu_pool_proj
I0403 15:33:50.470597 10562 net.cpp:91] Creating Layer inception_4c/relu_pool_proj
I0403 15:33:50.470615 10562 net.cpp:425] inception_4c/relu_pool_proj <- inception_4c/pool_proj
I0403 15:33:50.470633 10562 net.cpp:386] inception_4c/relu_pool_proj -> inception_4c/pool_proj (in-place)
I0403 15:33:50.470815 10562 net.cpp:141] Setting up inception_4c/relu_pool_proj
I0403 15:33:50.470840 10562 net.cpp:148] Top shape: 24 64 14 14 (301056)
I0403 15:33:50.470854 10562 net.cpp:156] Memory required for data: 1063013664
I0403 15:33:50.470870 10562 layer_factory.hpp:77] Creating layer inception_4c/output
I0403 15:33:50.470887 10562 net.cpp:91] Creating Layer inception_4c/output
I0403 15:33:50.470902 10562 net.cpp:425] inception_4c/output <- inception_4c/1x1
I0403 15:33:50.470918 10562 net.cpp:425] inception_4c/output <- inception_4c/3x3
I0403 15:33:50.470935 10562 net.cpp:425] inception_4c/output <- inception_4c/5x5
I0403 15:33:50.470950 10562 net.cpp:425] inception_4c/output <- inception_4c/pool_proj
I0403 15:33:50.470970 10562 net.cpp:399] inception_4c/output -> inception_4c/output
I0403 15:33:50.471021 10562 net.cpp:141] Setting up inception_4c/output
I0403 15:33:50.471045 10562 net.cpp:148] Top shape: 24 512 14 14 (2408448)
I0403 15:33:50.471062 10562 net.cpp:156] Memory required for data: 1072647456
I0403 15:33:50.471077 10562 layer_factory.hpp:77] Creating layer inception_4c/output_inception_4c/output_0_split
I0403 15:33:50.471094 10562 net.cpp:91] Creating Layer inception_4c/output_inception_4c/output_0_split
I0403 15:33:50.471110 10562 net.cpp:425] inception_4c/output_inception_4c/output_0_split <- inception_4c/output
I0403 15:33:50.471127 10562 net.cpp:399] inception_4c/output_inception_4c/output_0_split -> inception_4c/output_inception_4c/output_0_split_0
I0403 15:33:50.471148 10562 net.cpp:399] inception_4c/output_inception_4c/output_0_split -> inception_4c/output_inception_4c/output_0_split_1
I0403 15:33:50.471168 10562 net.cpp:399] inception_4c/output_inception_4c/output_0_split -> inception_4c/output_inception_4c/output_0_split_2
I0403 15:33:50.471189 10562 net.cpp:399] inception_4c/output_inception_4c/output_0_split -> inception_4c/output_inception_4c/output_0_split_3
I0403 15:33:50.471276 10562 net.cpp:141] Setting up inception_4c/output_inception_4c/output_0_split
I0403 15:33:50.471299 10562 net.cpp:148] Top shape: 24 512 14 14 (2408448)
I0403 15:33:50.471315 10562 net.cpp:148] Top shape: 24 512 14 14 (2408448)
I0403 15:33:50.471331 10562 net.cpp:148] Top shape: 24 512 14 14 (2408448)
I0403 15:33:50.471346 10562 net.cpp:148] Top shape: 24 512 14 14 (2408448)
I0403 15:33:50.471360 10562 net.cpp:156] Memory required for data: 1111182624
I0403 15:33:50.471374 10562 layer_factory.hpp:77] Creating layer inception_4d/1x1
I0403 15:33:50.471397 10562 net.cpp:91] Creating Layer inception_4d/1x1
I0403 15:33:50.471415 10562 net.cpp:425] inception_4d/1x1 <- inception_4c/output_inception_4c/output_0_split_0
I0403 15:33:50.471436 10562 net.cpp:399] inception_4d/1x1 -> inception_4d/1x1
I0403 15:33:50.472815 10562 net.cpp:141] Setting up inception_4d/1x1
I0403 15:33:50.472842 10562 net.cpp:148] Top shape: 24 112 14 14 (526848)
I0403 15:33:50.472858 10562 net.cpp:156] Memory required for data: 1113290016
I0403 15:33:50.472877 10562 layer_factory.hpp:77] Creating layer inception_4d/relu_1x1
I0403 15:33:50.472897 10562 net.cpp:91] Creating Layer inception_4d/relu_1x1
I0403 15:33:50.472913 10562 net.cpp:425] inception_4d/relu_1x1 <- inception_4d/1x1
I0403 15:33:50.472932 10562 net.cpp:386] inception_4d/relu_1x1 -> inception_4d/1x1 (in-place)
I0403 15:33:50.473122 10562 net.cpp:141] Setting up inception_4d/relu_1x1
I0403 15:33:50.473148 10562 net.cpp:148] Top shape: 24 112 14 14 (526848)
I0403 15:33:50.473166 10562 net.cpp:156] Memory required for data: 1115397408
I0403 15:33:50.473181 10562 layer_factory.hpp:77] Creating layer inception_4d/3x3_reduce
I0403 15:33:50.473214 10562 net.cpp:91] Creating Layer inception_4d/3x3_reduce
I0403 15:33:50.473233 10562 net.cpp:425] inception_4d/3x3_reduce <- inception_4c/output_inception_4c/output_0_split_1
I0403 15:33:50.473254 10562 net.cpp:399] inception_4d/3x3_reduce -> inception_4d/3x3_reduce
I0403 15:33:50.474764 10562 net.cpp:141] Setting up inception_4d/3x3_reduce
I0403 15:33:50.474793 10562 net.cpp:148] Top shape: 24 144 14 14 (677376)
I0403 15:33:50.474809 10562 net.cpp:156] Memory required for data: 1118106912
I0403 15:33:50.474828 10562 layer_factory.hpp:77] Creating layer inception_4d/relu_3x3_reduce
I0403 15:33:50.474846 10562 net.cpp:91] Creating Layer inception_4d/relu_3x3_reduce
I0403 15:33:50.474863 10562 net.cpp:425] inception_4d/relu_3x3_reduce <- inception_4d/3x3_reduce
I0403 15:33:50.474881 10562 net.cpp:386] inception_4d/relu_3x3_reduce -> inception_4d/3x3_reduce (in-place)
I0403 15:33:50.475172 10562 net.cpp:141] Setting up inception_4d/relu_3x3_reduce
I0403 15:33:50.475200 10562 net.cpp:148] Top shape: 24 144 14 14 (677376)
I0403 15:33:50.475217 10562 net.cpp:156] Memory required for data: 1120816416
I0403 15:33:50.475232 10562 layer_factory.hpp:77] Creating layer inception_4d/3x3
I0403 15:33:50.475255 10562 net.cpp:91] Creating Layer inception_4d/3x3
I0403 15:33:50.475272 10562 net.cpp:425] inception_4d/3x3 <- inception_4d/3x3_reduce
I0403 15:33:50.475296 10562 net.cpp:399] inception_4d/3x3 -> inception_4d/3x3
I0403 15:33:50.479765 10562 net.cpp:141] Setting up inception_4d/3x3
I0403 15:33:50.479794 10562 net.cpp:148] Top shape: 24 288 14 14 (1354752)
I0403 15:33:50.479809 10562 net.cpp:156] Memory required for data: 1126235424
I0403 15:33:50.479828 10562 layer_factory.hpp:77] Creating layer inception_4d/relu_3x3
I0403 15:33:50.479849 10562 net.cpp:91] Creating Layer inception_4d/relu_3x3
I0403 15:33:50.479867 10562 net.cpp:425] inception_4d/relu_3x3 <- inception_4d/3x3
I0403 15:33:50.479887 10562 net.cpp:386] inception_4d/relu_3x3 -> inception_4d/3x3 (in-place)
I0403 15:33:50.480080 10562 net.cpp:141] Setting up inception_4d/relu_3x3
I0403 15:33:50.480106 10562 net.cpp:148] Top shape: 24 288 14 14 (1354752)
I0403 15:33:50.480121 10562 net.cpp:156] Memory required for data: 1131654432
I0403 15:33:50.480137 10562 layer_factory.hpp:77] Creating layer inception_4d/5x5_reduce
I0403 15:33:50.480165 10562 net.cpp:91] Creating Layer inception_4d/5x5_reduce
I0403 15:33:50.480183 10562 net.cpp:425] inception_4d/5x5_reduce <- inception_4c/output_inception_4c/output_0_split_2
I0403 15:33:50.480203 10562 net.cpp:399] inception_4d/5x5_reduce -> inception_4d/5x5_reduce
I0403 15:33:50.481380 10562 net.cpp:141] Setting up inception_4d/5x5_reduce
I0403 15:33:50.481408 10562 net.cpp:148] Top shape: 24 32 14 14 (150528)
I0403 15:33:50.481425 10562 net.cpp:156] Memory required for data: 1132256544
I0403 15:33:50.481444 10562 layer_factory.hpp:77] Creating layer inception_4d/relu_5x5_reduce
I0403 15:33:50.481465 10562 net.cpp:91] Creating Layer inception_4d/relu_5x5_reduce
I0403 15:33:50.481482 10562 net.cpp:425] inception_4d/relu_5x5_reduce <- inception_4d/5x5_reduce
I0403 15:33:50.481500 10562 net.cpp:386] inception_4d/relu_5x5_reduce -> inception_4d/5x5_reduce (in-place)
I0403 15:33:50.481691 10562 net.cpp:141] Setting up inception_4d/relu_5x5_reduce
I0403 15:33:50.481719 10562 net.cpp:148] Top shape: 24 32 14 14 (150528)
I0403 15:33:50.481736 10562 net.cpp:156] Memory required for data: 1132858656
I0403 15:33:50.481751 10562 layer_factory.hpp:77] Creating layer inception_4d/5x5
I0403 15:33:50.481772 10562 net.cpp:91] Creating Layer inception_4d/5x5
I0403 15:33:50.481788 10562 net.cpp:425] inception_4d/5x5 <- inception_4d/5x5_reduce
I0403 15:33:50.481811 10562 net.cpp:399] inception_4d/5x5 -> inception_4d/5x5
I0403 15:33:50.483341 10562 net.cpp:141] Setting up inception_4d/5x5
I0403 15:33:50.483372 10562 net.cpp:148] Top shape: 24 64 14 14 (301056)
I0403 15:33:50.483389 10562 net.cpp:156] Memory required for data: 1134062880
I0403 15:33:50.483409 10562 layer_factory.hpp:77] Creating layer inception_4d/relu_5x5
I0403 15:33:50.483443 10562 net.cpp:91] Creating Layer inception_4d/relu_5x5
I0403 15:33:50.483460 10562 net.cpp:425] inception_4d/relu_5x5 <- inception_4d/5x5
I0403 15:33:50.483479 10562 net.cpp:386] inception_4d/relu_5x5 -> inception_4d/5x5 (in-place)
I0403 15:33:50.483791 10562 net.cpp:141] Setting up inception_4d/relu_5x5
I0403 15:33:50.483821 10562 net.cpp:148] Top shape: 24 64 14 14 (301056)
I0403 15:33:50.483839 10562 net.cpp:156] Memory required for data: 1135267104
I0403 15:33:50.483853 10562 layer_factory.hpp:77] Creating layer inception_4d/pool
I0403 15:33:50.483871 10562 net.cpp:91] Creating Layer inception_4d/pool
I0403 15:33:50.483888 10562 net.cpp:425] inception_4d/pool <- inception_4c/output_inception_4c/output_0_split_3
I0403 15:33:50.483907 10562 net.cpp:399] inception_4d/pool -> inception_4d/pool
I0403 15:33:50.483983 10562 net.cpp:141] Setting up inception_4d/pool
I0403 15:33:50.484009 10562 net.cpp:148] Top shape: 24 512 14 14 (2408448)
I0403 15:33:50.484022 10562 net.cpp:156] Memory required for data: 1144900896
I0403 15:33:50.484037 10562 layer_factory.hpp:77] Creating layer inception_4d/pool_proj
I0403 15:33:50.484064 10562 net.cpp:91] Creating Layer inception_4d/pool_proj
I0403 15:33:50.484082 10562 net.cpp:425] inception_4d/pool_proj <- inception_4d/pool
I0403 15:33:50.484103 10562 net.cpp:399] inception_4d/pool_proj -> inception_4d/pool_proj
I0403 15:33:50.485940 10562 net.cpp:141] Setting up inception_4d/pool_proj
I0403 15:33:50.485970 10562 net.cpp:148] Top shape: 24 64 14 14 (301056)
I0403 15:33:50.486007 10562 net.cpp:156] Memory required for data: 1146105120
I0403 15:33:50.486027 10562 layer_factory.hpp:77] Creating layer inception_4d/relu_pool_proj
I0403 15:33:50.486050 10562 net.cpp:91] Creating Layer inception_4d/relu_pool_proj
I0403 15:33:50.486068 10562 net.cpp:425] inception_4d/relu_pool_proj <- inception_4d/pool_proj
I0403 15:33:50.486088 10562 net.cpp:386] inception_4d/relu_pool_proj -> inception_4d/pool_proj (in-place)
I0403 15:33:50.486284 10562 net.cpp:141] Setting up inception_4d/relu_pool_proj
I0403 15:33:50.486320 10562 net.cpp:148] Top shape: 24 64 14 14 (301056)
I0403 15:33:50.486335 10562 net.cpp:156] Memory required for data: 1147309344
I0403 15:33:50.486351 10562 layer_factory.hpp:77] Creating layer inception_4d/output
I0403 15:33:50.486371 10562 net.cpp:91] Creating Layer inception_4d/output
I0403 15:33:50.486388 10562 net.cpp:425] inception_4d/output <- inception_4d/1x1
I0403 15:33:50.486407 10562 net.cpp:425] inception_4d/output <- inception_4d/3x3
I0403 15:33:50.486423 10562 net.cpp:425] inception_4d/output <- inception_4d/5x5
I0403 15:33:50.486439 10562 net.cpp:425] inception_4d/output <- inception_4d/pool_proj
I0403 15:33:50.486457 10562 net.cpp:399] inception_4d/output -> inception_4d/output
I0403 15:33:50.486507 10562 net.cpp:141] Setting up inception_4d/output
I0403 15:33:50.486531 10562 net.cpp:148] Top shape: 24 528 14 14 (2483712)
I0403 15:33:50.486546 10562 net.cpp:156] Memory required for data: 1157244192
I0403 15:33:50.486562 10562 layer_factory.hpp:77] Creating layer inception_4d/output_inception_4d/output_0_split
I0403 15:33:50.486580 10562 net.cpp:91] Creating Layer inception_4d/output_inception_4d/output_0_split
I0403 15:33:50.486596 10562 net.cpp:425] inception_4d/output_inception_4d/output_0_split <- inception_4d/output
I0403 15:33:50.486618 10562 net.cpp:399] inception_4d/output_inception_4d/output_0_split -> inception_4d/output_inception_4d/output_0_split_0
I0403 15:33:50.486639 10562 net.cpp:399] inception_4d/output_inception_4d/output_0_split -> inception_4d/output_inception_4d/output_0_split_1
I0403 15:33:50.486660 10562 net.cpp:399] inception_4d/output_inception_4d/output_0_split -> inception_4d/output_inception_4d/output_0_split_2
I0403 15:33:50.486685 10562 net.cpp:399] inception_4d/output_inception_4d/output_0_split -> inception_4d/output_inception_4d/output_0_split_3
I0403 15:33:50.486706 10562 net.cpp:399] inception_4d/output_inception_4d/output_0_split -> inception_4d/output_inception_4d/output_0_split_4
I0403 15:33:50.486812 10562 net.cpp:141] Setting up inception_4d/output_inception_4d/output_0_split
I0403 15:33:50.486850 10562 net.cpp:148] Top shape: 24 528 14 14 (2483712)
I0403 15:33:50.486867 10562 net.cpp:148] Top shape: 24 528 14 14 (2483712)
I0403 15:33:50.486883 10562 net.cpp:148] Top shape: 24 528 14 14 (2483712)
I0403 15:33:50.486901 10562 net.cpp:148] Top shape: 24 528 14 14 (2483712)
I0403 15:33:50.486917 10562 net.cpp:148] Top shape: 24 528 14 14 (2483712)
I0403 15:33:50.486930 10562 net.cpp:156] Memory required for data: 1206918432
I0403 15:33:50.486946 10562 layer_factory.hpp:77] Creating layer loss2/ave_pool
I0403 15:33:50.486964 10562 net.cpp:91] Creating Layer loss2/ave_pool
I0403 15:33:50.486985 10562 net.cpp:425] loss2/ave_pool <- inception_4d/output_inception_4d/output_0_split_0
I0403 15:33:50.487009 10562 net.cpp:399] loss2/ave_pool -> loss2/ave_pool
I0403 15:33:50.487330 10562 net.cpp:141] Setting up loss2/ave_pool
I0403 15:33:50.487359 10562 net.cpp:148] Top shape: 24 528 4 4 (202752)
I0403 15:33:50.487373 10562 net.cpp:156] Memory required for data: 1207729440
I0403 15:33:50.487390 10562 layer_factory.hpp:77] Creating layer loss2/conv
I0403 15:33:50.487413 10562 net.cpp:91] Creating Layer loss2/conv
I0403 15:33:50.487432 10562 net.cpp:425] loss2/conv <- loss2/ave_pool
I0403 15:33:50.487453 10562 net.cpp:399] loss2/conv -> loss2/conv
I0403 15:33:50.489441 10562 net.cpp:141] Setting up loss2/conv
I0403 15:33:50.489471 10562 net.cpp:148] Top shape: 24 128 4 4 (49152)
I0403 15:33:50.489487 10562 net.cpp:156] Memory required for data: 1207926048
I0403 15:33:50.489507 10562 layer_factory.hpp:77] Creating layer loss2/relu_conv
I0403 15:33:50.489526 10562 net.cpp:91] Creating Layer loss2/relu_conv
I0403 15:33:50.489542 10562 net.cpp:425] loss2/relu_conv <- loss2/conv
I0403 15:33:50.489563 10562 net.cpp:386] loss2/relu_conv -> loss2/conv (in-place)
I0403 15:33:50.489853 10562 net.cpp:141] Setting up loss2/relu_conv
I0403 15:33:50.489882 10562 net.cpp:148] Top shape: 24 128 4 4 (49152)
I0403 15:33:50.489899 10562 net.cpp:156] Memory required for data: 1208122656
I0403 15:33:50.489914 10562 layer_factory.hpp:77] Creating layer loss2/fc
I0403 15:33:50.489936 10562 net.cpp:91] Creating Layer loss2/fc
I0403 15:33:50.489953 10562 net.cpp:425] loss2/fc <- loss2/conv
I0403 15:33:50.489975 10562 net.cpp:399] loss2/fc -> loss2/fc
I0403 15:33:50.507902 10562 net.cpp:141] Setting up loss2/fc
I0403 15:33:50.507939 10562 net.cpp:148] Top shape: 24 1024 (24576)
I0403 15:33:50.507954 10562 net.cpp:156] Memory required for data: 1208220960
I0403 15:33:50.507973 10562 layer_factory.hpp:77] Creating layer loss2/relu_fc
I0403 15:33:50.508003 10562 net.cpp:91] Creating Layer loss2/relu_fc
I0403 15:33:50.508020 10562 net.cpp:425] loss2/relu_fc <- loss2/fc
I0403 15:33:50.508038 10562 net.cpp:386] loss2/relu_fc -> loss2/fc (in-place)
I0403 15:33:50.508335 10562 net.cpp:141] Setting up loss2/relu_fc
I0403 15:33:50.508363 10562 net.cpp:148] Top shape: 24 1024 (24576)
I0403 15:33:50.508378 10562 net.cpp:156] Memory required for data: 1208319264
I0403 15:33:50.508393 10562 layer_factory.hpp:77] Creating layer loss2/drop_fc
I0403 15:33:50.508412 10562 net.cpp:91] Creating Layer loss2/drop_fc
I0403 15:33:50.508430 10562 net.cpp:425] loss2/drop_fc <- loss2/fc
I0403 15:33:50.508447 10562 net.cpp:386] loss2/drop_fc -> loss2/fc (in-place)
I0403 15:33:50.508498 10562 net.cpp:141] Setting up loss2/drop_fc
I0403 15:33:50.508520 10562 net.cpp:148] Top shape: 24 1024 (24576)
I0403 15:33:50.508535 10562 net.cpp:156] Memory required for data: 1208417568
I0403 15:33:50.508549 10562 layer_factory.hpp:77] Creating layer loss2/classifier_plantvillage
I0403 15:33:50.508568 10562 net.cpp:91] Creating Layer loss2/classifier_plantvillage
I0403 15:33:50.508584 10562 net.cpp:425] loss2/classifier_plantvillage <- loss2/fc
I0403 15:33:50.508605 10562 net.cpp:399] loss2/classifier_plantvillage -> loss2/classifier_plantvillage
I0403 15:33:50.509017 10562 net.cpp:141] Setting up loss2/classifier_plantvillage
I0403 15:33:50.509042 10562 net.cpp:148] Top shape: 24 38 (912)
I0403 15:33:50.509071 10562 net.cpp:156] Memory required for data: 1208421216
I0403 15:33:50.509090 10562 layer_factory.hpp:77] Creating layer loss2/classifier_plantvillage_loss2/classifier_plantvillage_0_split
I0403 15:33:50.509109 10562 net.cpp:91] Creating Layer loss2/classifier_plantvillage_loss2/classifier_plantvillage_0_split
I0403 15:33:50.509125 10562 net.cpp:425] loss2/classifier_plantvillage_loss2/classifier_plantvillage_0_split <- loss2/classifier_plantvillage
I0403 15:33:50.509145 10562 net.cpp:399] loss2/classifier_plantvillage_loss2/classifier_plantvillage_0_split -> loss2/classifier_plantvillage_loss2/classifier_plantvillage_0_split_0
I0403 15:33:50.509166 10562 net.cpp:399] loss2/classifier_plantvillage_loss2/classifier_plantvillage_0_split -> loss2/classifier_plantvillage_loss2/classifier_plantvillage_0_split_1
I0403 15:33:50.509187 10562 net.cpp:399] loss2/classifier_plantvillage_loss2/classifier_plantvillage_0_split -> loss2/classifier_plantvillage_loss2/classifier_plantvillage_0_split_2
I0403 15:33:50.509263 10562 net.cpp:141] Setting up loss2/classifier_plantvillage_loss2/classifier_plantvillage_0_split
I0403 15:33:50.509286 10562 net.cpp:148] Top shape: 24 38 (912)
I0403 15:33:50.509302 10562 net.cpp:148] Top shape: 24 38 (912)
I0403 15:33:50.509318 10562 net.cpp:148] Top shape: 24 38 (912)
I0403 15:33:50.509332 10562 net.cpp:156] Memory required for data: 1208432160
I0403 15:33:50.509346 10562 layer_factory.hpp:77] Creating layer inception_4e/1x1
I0403 15:33:50.509368 10562 net.cpp:91] Creating Layer inception_4e/1x1
I0403 15:33:50.509387 10562 net.cpp:425] inception_4e/1x1 <- inception_4d/output_inception_4d/output_0_split_1
I0403 15:33:50.509405 10562 net.cpp:399] inception_4e/1x1 -> inception_4e/1x1
I0403 15:33:50.511227 10562 net.cpp:141] Setting up inception_4e/1x1
I0403 15:33:50.511257 10562 net.cpp:148] Top shape: 24 256 14 14 (1204224)
I0403 15:33:50.511272 10562 net.cpp:156] Memory required for data: 1213249056
I0403 15:33:50.511291 10562 layer_factory.hpp:77] Creating layer inception_4e/relu_1x1
I0403 15:33:50.511309 10562 net.cpp:91] Creating Layer inception_4e/relu_1x1
I0403 15:33:50.511325 10562 net.cpp:425] inception_4e/relu_1x1 <- inception_4e/1x1
I0403 15:33:50.511344 10562 net.cpp:386] inception_4e/relu_1x1 -> inception_4e/1x1 (in-place)
I0403 15:33:50.511641 10562 net.cpp:141] Setting up inception_4e/relu_1x1
I0403 15:33:50.511669 10562 net.cpp:148] Top shape: 24 256 14 14 (1204224)
I0403 15:33:50.511684 10562 net.cpp:156] Memory required for data: 1218065952
I0403 15:33:50.511699 10562 layer_factory.hpp:77] Creating layer inception_4e/3x3_reduce
I0403 15:33:50.511723 10562 net.cpp:91] Creating Layer inception_4e/3x3_reduce
I0403 15:33:50.511740 10562 net.cpp:425] inception_4e/3x3_reduce <- inception_4d/output_inception_4d/output_0_split_2
I0403 15:33:50.511761 10562 net.cpp:399] inception_4e/3x3_reduce -> inception_4e/3x3_reduce
I0403 15:33:50.513931 10562 net.cpp:141] Setting up inception_4e/3x3_reduce
I0403 15:33:50.513957 10562 net.cpp:148] Top shape: 24 160 14 14 (752640)
I0403 15:33:50.513973 10562 net.cpp:156] Memory required for data: 1221076512
I0403 15:33:50.513996 10562 layer_factory.hpp:77] Creating layer inception_4e/relu_3x3_reduce
I0403 15:33:50.514017 10562 net.cpp:91] Creating Layer inception_4e/relu_3x3_reduce
I0403 15:33:50.514034 10562 net.cpp:425] inception_4e/relu_3x3_reduce <- inception_4e/3x3_reduce
I0403 15:33:50.514052 10562 net.cpp:386] inception_4e/relu_3x3_reduce -> inception_4e/3x3_reduce (in-place)
I0403 15:33:50.514241 10562 net.cpp:141] Setting up inception_4e/relu_3x3_reduce
I0403 15:33:50.514266 10562 net.cpp:148] Top shape: 24 160 14 14 (752640)
I0403 15:33:50.514281 10562 net.cpp:156] Memory required for data: 1224087072
I0403 15:33:50.514297 10562 layer_factory.hpp:77] Creating layer inception_4e/3x3
I0403 15:33:50.514318 10562 net.cpp:91] Creating Layer inception_4e/3x3
I0403 15:33:50.514336 10562 net.cpp:425] inception_4e/3x3 <- inception_4e/3x3_reduce
I0403 15:33:50.514358 10562 net.cpp:399] inception_4e/3x3 -> inception_4e/3x3
I0403 15:33:50.519460 10562 net.cpp:141] Setting up inception_4e/3x3
I0403 15:33:50.519500 10562 net.cpp:148] Top shape: 24 320 14 14 (1505280)
I0403 15:33:50.519517 10562 net.cpp:156] Memory required for data: 1230108192
I0403 15:33:50.519536 10562 layer_factory.hpp:77] Creating layer inception_4e/relu_3x3
I0403 15:33:50.519554 10562 net.cpp:91] Creating Layer inception_4e/relu_3x3
I0403 15:33:50.519570 10562 net.cpp:425] inception_4e/relu_3x3 <- inception_4e/3x3
I0403 15:33:50.519592 10562 net.cpp:386] inception_4e/relu_3x3 -> inception_4e/3x3 (in-place)
I0403 15:33:50.519891 10562 net.cpp:141] Setting up inception_4e/relu_3x3
I0403 15:33:50.519917 10562 net.cpp:148] Top shape: 24 320 14 14 (1505280)
I0403 15:33:50.519932 10562 net.cpp:156] Memory required for data: 1236129312
I0403 15:33:50.519948 10562 layer_factory.hpp:77] Creating layer inception_4e/5x5_reduce
I0403 15:33:50.519971 10562 net.cpp:91] Creating Layer inception_4e/5x5_reduce
I0403 15:33:50.519994 10562 net.cpp:425] inception_4e/5x5_reduce <- inception_4d/output_inception_4d/output_0_split_3
I0403 15:33:50.520016 10562 net.cpp:399] inception_4e/5x5_reduce -> inception_4e/5x5_reduce
I0403 15:33:50.521093 10562 net.cpp:141] Setting up inception_4e/5x5_reduce
I0403 15:33:50.521127 10562 net.cpp:148] Top shape: 24 32 14 14 (150528)
I0403 15:33:50.521143 10562 net.cpp:156] Memory required for data: 1236731424
I0403 15:33:50.521162 10562 layer_factory.hpp:77] Creating layer inception_4e/relu_5x5_reduce
I0403 15:33:50.521180 10562 net.cpp:91] Creating Layer inception_4e/relu_5x5_reduce
I0403 15:33:50.521198 10562 net.cpp:425] inception_4e/relu_5x5_reduce <- inception_4e/5x5_reduce
I0403 15:33:50.521214 10562 net.cpp:386] inception_4e/relu_5x5_reduce -> inception_4e/5x5_reduce (in-place)
I0403 15:33:50.521509 10562 net.cpp:141] Setting up inception_4e/relu_5x5_reduce
I0403 15:33:50.521538 10562 net.cpp:148] Top shape: 24 32 14 14 (150528)
I0403 15:33:50.521553 10562 net.cpp:156] Memory required for data: 1237333536
I0403 15:33:50.521569 10562 layer_factory.hpp:77] Creating layer inception_4e/5x5
I0403 15:33:50.521606 10562 net.cpp:91] Creating Layer inception_4e/5x5
I0403 15:33:50.521626 10562 net.cpp:425] inception_4e/5x5 <- inception_4e/5x5_reduce
I0403 15:33:50.521646 10562 net.cpp:399] inception_4e/5x5 -> inception_4e/5x5
I0403 15:33:50.523485 10562 net.cpp:141] Setting up inception_4e/5x5
I0403 15:33:50.523514 10562 net.cpp:148] Top shape: 24 128 14 14 (602112)
I0403 15:33:50.523530 10562 net.cpp:156] Memory required for data: 1239741984
I0403 15:33:50.523548 10562 layer_factory.hpp:77] Creating layer inception_4e/relu_5x5
I0403 15:33:50.523569 10562 net.cpp:91] Creating Layer inception_4e/relu_5x5
I0403 15:33:50.523586 10562 net.cpp:425] inception_4e/relu_5x5 <- inception_4e/5x5
I0403 15:33:50.523603 10562 net.cpp:386] inception_4e/relu_5x5 -> inception_4e/5x5 (in-place)
I0403 15:33:50.523800 10562 net.cpp:141] Setting up inception_4e/relu_5x5
I0403 15:33:50.523828 10562 net.cpp:148] Top shape: 24 128 14 14 (602112)
I0403 15:33:50.523844 10562 net.cpp:156] Memory required for data: 1242150432
I0403 15:33:50.523859 10562 layer_factory.hpp:77] Creating layer inception_4e/pool
I0403 15:33:50.523877 10562 net.cpp:91] Creating Layer inception_4e/pool
I0403 15:33:50.523893 10562 net.cpp:425] inception_4e/pool <- inception_4d/output_inception_4d/output_0_split_4
I0403 15:33:50.523915 10562 net.cpp:399] inception_4e/pool -> inception_4e/pool
I0403 15:33:50.523990 10562 net.cpp:141] Setting up inception_4e/pool
I0403 15:33:50.524014 10562 net.cpp:148] Top shape: 24 528 14 14 (2483712)
I0403 15:33:50.524029 10562 net.cpp:156] Memory required for data: 1252085280
I0403 15:33:50.524044 10562 layer_factory.hpp:77] Creating layer inception_4e/pool_proj
I0403 15:33:50.524065 10562 net.cpp:91] Creating Layer inception_4e/pool_proj
I0403 15:33:50.524083 10562 net.cpp:425] inception_4e/pool_proj <- inception_4e/pool
I0403 15:33:50.524104 10562 net.cpp:399] inception_4e/pool_proj -> inception_4e/pool_proj
I0403 15:33:50.525602 10562 net.cpp:141] Setting up inception_4e/pool_proj
I0403 15:33:50.525645 10562 net.cpp:148] Top shape: 24 128 14 14 (602112)
I0403 15:33:50.525660 10562 net.cpp:156] Memory required for data: 1254493728
I0403 15:33:50.525678 10562 layer_factory.hpp:77] Creating layer inception_4e/relu_pool_proj
I0403 15:33:50.525698 10562 net.cpp:91] Creating Layer inception_4e/relu_pool_proj
I0403 15:33:50.525715 10562 net.cpp:425] inception_4e/relu_pool_proj <- inception_4e/pool_proj
I0403 15:33:50.525732 10562 net.cpp:386] inception_4e/relu_pool_proj -> inception_4e/pool_proj (in-place)
I0403 15:33:50.526029 10562 net.cpp:141] Setting up inception_4e/relu_pool_proj
I0403 15:33:50.526056 10562 net.cpp:148] Top shape: 24 128 14 14 (602112)
I0403 15:33:50.526070 10562 net.cpp:156] Memory required for data: 1256902176
I0403 15:33:50.526085 10562 layer_factory.hpp:77] Creating layer inception_4e/output
I0403 15:33:50.526106 10562 net.cpp:91] Creating Layer inception_4e/output
I0403 15:33:50.526124 10562 net.cpp:425] inception_4e/output <- inception_4e/1x1
I0403 15:33:50.526139 10562 net.cpp:425] inception_4e/output <- inception_4e/3x3
I0403 15:33:50.526156 10562 net.cpp:425] inception_4e/output <- inception_4e/5x5
I0403 15:33:50.526172 10562 net.cpp:425] inception_4e/output <- inception_4e/pool_proj
I0403 15:33:50.526190 10562 net.cpp:399] inception_4e/output -> inception_4e/output
I0403 15:33:50.526240 10562 net.cpp:141] Setting up inception_4e/output
I0403 15:33:50.526263 10562 net.cpp:148] Top shape: 24 832 14 14 (3913728)
I0403 15:33:50.526278 10562 net.cpp:156] Memory required for data: 1272557088
I0403 15:33:50.526294 10562 layer_factory.hpp:77] Creating layer pool4/3x3_s2
I0403 15:33:50.526312 10562 net.cpp:91] Creating Layer pool4/3x3_s2
I0403 15:33:50.526327 10562 net.cpp:425] pool4/3x3_s2 <- inception_4e/output
I0403 15:33:50.526348 10562 net.cpp:399] pool4/3x3_s2 -> pool4/3x3_s2
I0403 15:33:50.526417 10562 net.cpp:141] Setting up pool4/3x3_s2
I0403 15:33:50.526443 10562 net.cpp:148] Top shape: 24 832 7 7 (978432)
I0403 15:33:50.526458 10562 net.cpp:156] Memory required for data: 1276470816
I0403 15:33:50.526473 10562 layer_factory.hpp:77] Creating layer pool4/3x3_s2_pool4/3x3_s2_0_split
I0403 15:33:50.526489 10562 net.cpp:91] Creating Layer pool4/3x3_s2_pool4/3x3_s2_0_split
I0403 15:33:50.526505 10562 net.cpp:425] pool4/3x3_s2_pool4/3x3_s2_0_split <- pool4/3x3_s2
I0403 15:33:50.526522 10562 net.cpp:399] pool4/3x3_s2_pool4/3x3_s2_0_split -> pool4/3x3_s2_pool4/3x3_s2_0_split_0
I0403 15:33:50.526543 10562 net.cpp:399] pool4/3x3_s2_pool4/3x3_s2_0_split -> pool4/3x3_s2_pool4/3x3_s2_0_split_1
I0403 15:33:50.526566 10562 net.cpp:399] pool4/3x3_s2_pool4/3x3_s2_0_split -> pool4/3x3_s2_pool4/3x3_s2_0_split_2
I0403 15:33:50.526587 10562 net.cpp:399] pool4/3x3_s2_pool4/3x3_s2_0_split -> pool4/3x3_s2_pool4/3x3_s2_0_split_3
I0403 15:33:50.526679 10562 net.cpp:141] Setting up pool4/3x3_s2_pool4/3x3_s2_0_split
I0403 15:33:50.526701 10562 net.cpp:148] Top shape: 24 832 7 7 (978432)
I0403 15:33:50.526717 10562 net.cpp:148] Top shape: 24 832 7 7 (978432)
I0403 15:33:50.526734 10562 net.cpp:148] Top shape: 24 832 7 7 (978432)
I0403 15:33:50.526751 10562 net.cpp:148] Top shape: 24 832 7 7 (978432)
I0403 15:33:50.526764 10562 net.cpp:156] Memory required for data: 1292125728
I0403 15:33:50.526779 10562 layer_factory.hpp:77] Creating layer inception_5a/1x1
I0403 15:33:50.526801 10562 net.cpp:91] Creating Layer inception_5a/1x1
I0403 15:33:50.526819 10562 net.cpp:425] inception_5a/1x1 <- pool4/3x3_s2_pool4/3x3_s2_0_split_0
I0403 15:33:50.526840 10562 net.cpp:399] inception_5a/1x1 -> inception_5a/1x1
I0403 15:33:50.529760 10562 net.cpp:141] Setting up inception_5a/1x1
I0403 15:33:50.529788 10562 net.cpp:148] Top shape: 24 256 7 7 (301056)
I0403 15:33:50.529803 10562 net.cpp:156] Memory required for data: 1293329952
I0403 15:33:50.529821 10562 layer_factory.hpp:77] Creating layer inception_5a/relu_1x1
I0403 15:33:50.529841 10562 net.cpp:91] Creating Layer inception_5a/relu_1x1
I0403 15:33:50.529858 10562 net.cpp:425] inception_5a/relu_1x1 <- inception_5a/1x1
I0403 15:33:50.529875 10562 net.cpp:386] inception_5a/relu_1x1 -> inception_5a/1x1 (in-place)
I0403 15:33:50.530200 10562 net.cpp:141] Setting up inception_5a/relu_1x1
I0403 15:33:50.530226 10562 net.cpp:148] Top shape: 24 256 7 7 (301056)
I0403 15:33:50.530242 10562 net.cpp:156] Memory required for data: 1294534176
I0403 15:33:50.530258 10562 layer_factory.hpp:77] Creating layer inception_5a/3x3_reduce
I0403 15:33:50.530282 10562 net.cpp:91] Creating Layer inception_5a/3x3_reduce
I0403 15:33:50.530299 10562 net.cpp:425] inception_5a/3x3_reduce <- pool4/3x3_s2_pool4/3x3_s2_0_split_1
I0403 15:33:50.530318 10562 net.cpp:399] inception_5a/3x3_reduce -> inception_5a/3x3_reduce
I0403 15:33:50.532832 10562 net.cpp:141] Setting up inception_5a/3x3_reduce
I0403 15:33:50.532862 10562 net.cpp:148] Top shape: 24 160 7 7 (188160)
I0403 15:33:50.532878 10562 net.cpp:156] Memory required for data: 1295286816
I0403 15:33:50.532897 10562 layer_factory.hpp:77] Creating layer inception_5a/relu_3x3_reduce
I0403 15:33:50.532917 10562 net.cpp:91] Creating Layer inception_5a/relu_3x3_reduce
I0403 15:33:50.532935 10562 net.cpp:425] inception_5a/relu_3x3_reduce <- inception_5a/3x3_reduce
I0403 15:33:50.532953 10562 net.cpp:386] inception_5a/relu_3x3_reduce -> inception_5a/3x3_reduce (in-place)
I0403 15:33:50.533149 10562 net.cpp:141] Setting up inception_5a/relu_3x3_reduce
I0403 15:33:50.533174 10562 net.cpp:148] Top shape: 24 160 7 7 (188160)
I0403 15:33:50.533190 10562 net.cpp:156] Memory required for data: 1296039456
I0403 15:33:50.533203 10562 layer_factory.hpp:77] Creating layer inception_5a/3x3
I0403 15:33:50.533228 10562 net.cpp:91] Creating Layer inception_5a/3x3
I0403 15:33:50.533246 10562 net.cpp:425] inception_5a/3x3 <- inception_5a/3x3_reduce
I0403 15:33:50.533267 10562 net.cpp:399] inception_5a/3x3 -> inception_5a/3x3
I0403 15:33:50.538511 10562 net.cpp:141] Setting up inception_5a/3x3
I0403 15:33:50.538542 10562 net.cpp:148] Top shape: 24 320 7 7 (376320)
I0403 15:33:50.538559 10562 net.cpp:156] Memory required for data: 1297544736
I0403 15:33:50.538578 10562 layer_factory.hpp:77] Creating layer inception_5a/relu_3x3
I0403 15:33:50.538600 10562 net.cpp:91] Creating Layer inception_5a/relu_3x3
I0403 15:33:50.538616 10562 net.cpp:425] inception_5a/relu_3x3 <- inception_5a/3x3
I0403 15:33:50.538635 10562 net.cpp:386] inception_5a/relu_3x3 -> inception_5a/3x3 (in-place)
I0403 15:33:50.538936 10562 net.cpp:141] Setting up inception_5a/relu_3x3
I0403 15:33:50.538962 10562 net.cpp:148] Top shape: 24 320 7 7 (376320)
I0403 15:33:50.538982 10562 net.cpp:156] Memory required for data: 1299050016
I0403 15:33:50.539000 10562 layer_factory.hpp:77] Creating layer inception_5a/5x5_reduce
I0403 15:33:50.539026 10562 net.cpp:91] Creating Layer inception_5a/5x5_reduce
I0403 15:33:50.539046 10562 net.cpp:425] inception_5a/5x5_reduce <- pool4/3x3_s2_pool4/3x3_s2_0_split_2
I0403 15:33:50.539067 10562 net.cpp:399] inception_5a/5x5_reduce -> inception_5a/5x5_reduce
I0403 15:33:50.540274 10562 net.cpp:141] Setting up inception_5a/5x5_reduce
I0403 15:33:50.540307 10562 net.cpp:148] Top shape: 24 32 7 7 (37632)
I0403 15:33:50.540323 10562 net.cpp:156] Memory required for data: 1299200544
I0403 15:33:50.540343 10562 layer_factory.hpp:77] Creating layer inception_5a/relu_5x5_reduce
I0403 15:33:50.540361 10562 net.cpp:91] Creating Layer inception_5a/relu_5x5_reduce
I0403 15:33:50.540380 10562 net.cpp:425] inception_5a/relu_5x5_reduce <- inception_5a/5x5_reduce
I0403 15:33:50.540400 10562 net.cpp:386] inception_5a/relu_5x5_reduce -> inception_5a/5x5_reduce (in-place)
I0403 15:33:50.540706 10562 net.cpp:141] Setting up inception_5a/relu_5x5_reduce
I0403 15:33:50.540735 10562 net.cpp:148] Top shape: 24 32 7 7 (37632)
I0403 15:33:50.540752 10562 net.cpp:156] Memory required for data: 1299351072
I0403 15:33:50.540767 10562 layer_factory.hpp:77] Creating layer inception_5a/5x5
I0403 15:33:50.540791 10562 net.cpp:91] Creating Layer inception_5a/5x5
I0403 15:33:50.540810 10562 net.cpp:425] inception_5a/5x5 <- inception_5a/5x5_reduce
I0403 15:33:50.540830 10562 net.cpp:399] inception_5a/5x5 -> inception_5a/5x5
I0403 15:33:50.542613 10562 net.cpp:141] Setting up inception_5a/5x5
I0403 15:33:50.542654 10562 net.cpp:148] Top shape: 24 128 7 7 (150528)
I0403 15:33:50.542670 10562 net.cpp:156] Memory required for data: 1299953184
I0403 15:33:50.542690 10562 layer_factory.hpp:77] Creating layer inception_5a/relu_5x5
I0403 15:33:50.542711 10562 net.cpp:91] Creating Layer inception_5a/relu_5x5
I0403 15:33:50.542728 10562 net.cpp:425] inception_5a/relu_5x5 <- inception_5a/5x5
I0403 15:33:50.542747 10562 net.cpp:386] inception_5a/relu_5x5 -> inception_5a/5x5 (in-place)
I0403 15:33:50.542943 10562 net.cpp:141] Setting up inception_5a/relu_5x5
I0403 15:33:50.542971 10562 net.cpp:148] Top shape: 24 128 7 7 (150528)
I0403 15:33:50.542991 10562 net.cpp:156] Memory required for data: 1300555296
I0403 15:33:50.543009 10562 layer_factory.hpp:77] Creating layer inception_5a/pool
I0403 15:33:50.543026 10562 net.cpp:91] Creating Layer inception_5a/pool
I0403 15:33:50.543042 10562 net.cpp:425] inception_5a/pool <- pool4/3x3_s2_pool4/3x3_s2_0_split_3
I0403 15:33:50.543067 10562 net.cpp:399] inception_5a/pool -> inception_5a/pool
I0403 15:33:50.543140 10562 net.cpp:141] Setting up inception_5a/pool
I0403 15:33:50.543164 10562 net.cpp:148] Top shape: 24 832 7 7 (978432)
I0403 15:33:50.543179 10562 net.cpp:156] Memory required for data: 1304469024
I0403 15:33:50.543195 10562 layer_factory.hpp:77] Creating layer inception_5a/pool_proj
I0403 15:33:50.543217 10562 net.cpp:91] Creating Layer inception_5a/pool_proj
I0403 15:33:50.543236 10562 net.cpp:425] inception_5a/pool_proj <- inception_5a/pool
I0403 15:33:50.543257 10562 net.cpp:399] inception_5a/pool_proj -> inception_5a/pool_proj
I0403 15:33:50.545640 10562 net.cpp:141] Setting up inception_5a/pool_proj
I0403 15:33:50.545671 10562 net.cpp:148] Top shape: 24 128 7 7 (150528)
I0403 15:33:50.545687 10562 net.cpp:156] Memory required for data: 1305071136
I0403 15:33:50.545706 10562 layer_factory.hpp:77] Creating layer inception_5a/relu_pool_proj
I0403 15:33:50.545727 10562 net.cpp:91] Creating Layer inception_5a/relu_pool_proj
I0403 15:33:50.545745 10562 net.cpp:425] inception_5a/relu_pool_proj <- inception_5a/pool_proj
I0403 15:33:50.545763 10562 net.cpp:386] inception_5a/relu_pool_proj -> inception_5a/pool_proj (in-place)
I0403 15:33:50.546068 10562 net.cpp:141] Setting up inception_5a/relu_pool_proj
I0403 15:33:50.546095 10562 net.cpp:148] Top shape: 24 128 7 7 (150528)
I0403 15:33:50.546111 10562 net.cpp:156] Memory required for data: 1305673248
I0403 15:33:50.546126 10562 layer_factory.hpp:77] Creating layer inception_5a/output
I0403 15:33:50.546144 10562 net.cpp:91] Creating Layer inception_5a/output
I0403 15:33:50.546161 10562 net.cpp:425] inception_5a/output <- inception_5a/1x1
I0403 15:33:50.546181 10562 net.cpp:425] inception_5a/output <- inception_5a/3x3
I0403 15:33:50.546200 10562 net.cpp:425] inception_5a/output <- inception_5a/5x5
I0403 15:33:50.546216 10562 net.cpp:425] inception_5a/output <- inception_5a/pool_proj
I0403 15:33:50.546233 10562 net.cpp:399] inception_5a/output -> inception_5a/output
I0403 15:33:50.546288 10562 net.cpp:141] Setting up inception_5a/output
I0403 15:33:50.546311 10562 net.cpp:148] Top shape: 24 832 7 7 (978432)
I0403 15:33:50.546326 10562 net.cpp:156] Memory required for data: 1309586976
I0403 15:33:50.546342 10562 layer_factory.hpp:77] Creating layer inception_5a/output_inception_5a/output_0_split
I0403 15:33:50.546360 10562 net.cpp:91] Creating Layer inception_5a/output_inception_5a/output_0_split
I0403 15:33:50.546376 10562 net.cpp:425] inception_5a/output_inception_5a/output_0_split <- inception_5a/output
I0403 15:33:50.546396 10562 net.cpp:399] inception_5a/output_inception_5a/output_0_split -> inception_5a/output_inception_5a/output_0_split_0
I0403 15:33:50.546418 10562 net.cpp:399] inception_5a/output_inception_5a/output_0_split -> inception_5a/output_inception_5a/output_0_split_1
I0403 15:33:50.546439 10562 net.cpp:399] inception_5a/output_inception_5a/output_0_split -> inception_5a/output_inception_5a/output_0_split_2
I0403 15:33:50.546460 10562 net.cpp:399] inception_5a/output_inception_5a/output_0_split -> inception_5a/output_inception_5a/output_0_split_3
I0403 15:33:50.546578 10562 net.cpp:141] Setting up inception_5a/output_inception_5a/output_0_split
I0403 15:33:50.546605 10562 net.cpp:148] Top shape: 24 832 7 7 (978432)
I0403 15:33:50.546622 10562 net.cpp:148] Top shape: 24 832 7 7 (978432)
I0403 15:33:50.546639 10562 net.cpp:148] Top shape: 24 832 7 7 (978432)
I0403 15:33:50.546655 10562 net.cpp:148] Top shape: 24 832 7 7 (978432)
I0403 15:33:50.546670 10562 net.cpp:156] Memory required for data: 1325241888
I0403 15:33:50.546685 10562 layer_factory.hpp:77] Creating layer inception_5b/1x1
I0403 15:33:50.546712 10562 net.cpp:91] Creating Layer inception_5b/1x1
I0403 15:33:50.546730 10562 net.cpp:425] inception_5b/1x1 <- inception_5a/output_inception_5a/output_0_split_0
I0403 15:33:50.546751 10562 net.cpp:399] inception_5b/1x1 -> inception_5b/1x1
I0403 15:33:50.550660 10562 net.cpp:141] Setting up inception_5b/1x1
I0403 15:33:50.550691 10562 net.cpp:148] Top shape: 24 384 7 7 (451584)
I0403 15:33:50.550707 10562 net.cpp:156] Memory required for data: 1327048224
I0403 15:33:50.550727 10562 layer_factory.hpp:77] Creating layer inception_5b/relu_1x1
I0403 15:33:50.550748 10562 net.cpp:91] Creating Layer inception_5b/relu_1x1
I0403 15:33:50.550766 10562 net.cpp:425] inception_5b/relu_1x1 <- inception_5b/1x1
I0403 15:33:50.550786 10562 net.cpp:386] inception_5b/relu_1x1 -> inception_5b/1x1 (in-place)
I0403 15:33:50.551120 10562 net.cpp:141] Setting up inception_5b/relu_1x1
I0403 15:33:50.551147 10562 net.cpp:148] Top shape: 24 384 7 7 (451584)
I0403 15:33:50.551163 10562 net.cpp:156] Memory required for data: 1328854560
I0403 15:33:50.551179 10562 layer_factory.hpp:77] Creating layer inception_5b/3x3_reduce
I0403 15:33:50.551215 10562 net.cpp:91] Creating Layer inception_5b/3x3_reduce
I0403 15:33:50.551234 10562 net.cpp:425] inception_5b/3x3_reduce <- inception_5a/output_inception_5a/output_0_split_1
I0403 15:33:50.551256 10562 net.cpp:399] inception_5b/3x3_reduce -> inception_5b/3x3_reduce
I0403 15:33:50.554090 10562 net.cpp:141] Setting up inception_5b/3x3_reduce
I0403 15:33:50.554121 10562 net.cpp:148] Top shape: 24 192 7 7 (225792)
I0403 15:33:50.554137 10562 net.cpp:156] Memory required for data: 1329757728
I0403 15:33:50.554157 10562 layer_factory.hpp:77] Creating layer inception_5b/relu_3x3_reduce
I0403 15:33:50.554178 10562 net.cpp:91] Creating Layer inception_5b/relu_3x3_reduce
I0403 15:33:50.554195 10562 net.cpp:425] inception_5b/relu_3x3_reduce <- inception_5b/3x3_reduce
I0403 15:33:50.554214 10562 net.cpp:386] inception_5b/relu_3x3_reduce -> inception_5b/3x3_reduce (in-place)
I0403 15:33:50.554411 10562 net.cpp:141] Setting up inception_5b/relu_3x3_reduce
I0403 15:33:50.554438 10562 net.cpp:148] Top shape: 24 192 7 7 (225792)
I0403 15:33:50.554455 10562 net.cpp:156] Memory required for data: 1330660896
I0403 15:33:50.554471 10562 layer_factory.hpp:77] Creating layer inception_5b/3x3
I0403 15:33:50.554493 10562 net.cpp:91] Creating Layer inception_5b/3x3
I0403 15:33:50.554512 10562 net.cpp:425] inception_5b/3x3 <- inception_5b/3x3_reduce
I0403 15:33:50.554532 10562 net.cpp:399] inception_5b/3x3 -> inception_5b/3x3
I0403 15:33:50.561360 10562 net.cpp:141] Setting up inception_5b/3x3
I0403 15:33:50.561389 10562 net.cpp:148] Top shape: 24 384 7 7 (451584)
I0403 15:33:50.561405 10562 net.cpp:156] Memory required for data: 1332467232
I0403 15:33:50.561424 10562 layer_factory.hpp:77] Creating layer inception_5b/relu_3x3
I0403 15:33:50.561444 10562 net.cpp:91] Creating Layer inception_5b/relu_3x3
I0403 15:33:50.561461 10562 net.cpp:425] inception_5b/relu_3x3 <- inception_5b/3x3
I0403 15:33:50.561480 10562 net.cpp:386] inception_5b/relu_3x3 -> inception_5b/3x3 (in-place)
I0403 15:33:50.561776 10562 net.cpp:141] Setting up inception_5b/relu_3x3
I0403 15:33:50.561802 10562 net.cpp:148] Top shape: 24 384 7 7 (451584)
I0403 15:33:50.561817 10562 net.cpp:156] Memory required for data: 1334273568
I0403 15:33:50.561832 10562 layer_factory.hpp:77] Creating layer inception_5b/5x5_reduce
I0403 15:33:50.561871 10562 net.cpp:91] Creating Layer inception_5b/5x5_reduce
I0403 15:33:50.561889 10562 net.cpp:425] inception_5b/5x5_reduce <- inception_5a/output_inception_5a/output_0_split_2
I0403 15:33:50.561924 10562 net.cpp:399] inception_5b/5x5_reduce -> inception_5b/5x5_reduce
I0403 15:33:50.563230 10562 net.cpp:141] Setting up inception_5b/5x5_reduce
I0403 15:33:50.563257 10562 net.cpp:148] Top shape: 24 48 7 7 (56448)
I0403 15:33:50.563272 10562 net.cpp:156] Memory required for data: 1334499360
I0403 15:33:50.563292 10562 layer_factory.hpp:77] Creating layer inception_5b/relu_5x5_reduce
I0403 15:33:50.563313 10562 net.cpp:91] Creating Layer inception_5b/relu_5x5_reduce
I0403 15:33:50.563329 10562 net.cpp:425] inception_5b/relu_5x5_reduce <- inception_5b/5x5_reduce
I0403 15:33:50.563346 10562 net.cpp:386] inception_5b/relu_5x5_reduce -> inception_5b/5x5_reduce (in-place)
I0403 15:33:50.563724 10562 net.cpp:141] Setting up inception_5b/relu_5x5_reduce
I0403 15:33:50.563750 10562 net.cpp:148] Top shape: 24 48 7 7 (56448)
I0403 15:33:50.563766 10562 net.cpp:156] Memory required for data: 1334725152
I0403 15:33:50.563781 10562 layer_factory.hpp:77] Creating layer inception_5b/5x5
I0403 15:33:50.563802 10562 net.cpp:91] Creating Layer inception_5b/5x5
I0403 15:33:50.563818 10562 net.cpp:425] inception_5b/5x5 <- inception_5b/5x5_reduce
I0403 15:33:50.563838 10562 net.cpp:399] inception_5b/5x5 -> inception_5b/5x5
I0403 15:33:50.565894 10562 net.cpp:141] Setting up inception_5b/5x5
I0403 15:33:50.565923 10562 net.cpp:148] Top shape: 24 128 7 7 (150528)
I0403 15:33:50.565939 10562 net.cpp:156] Memory required for data: 1335327264
I0403 15:33:50.565959 10562 layer_factory.hpp:77] Creating layer inception_5b/relu_5x5
I0403 15:33:50.565982 10562 net.cpp:91] Creating Layer inception_5b/relu_5x5
I0403 15:33:50.566001 10562 net.cpp:425] inception_5b/relu_5x5 <- inception_5b/5x5
I0403 15:33:50.566020 10562 net.cpp:386] inception_5b/relu_5x5 -> inception_5b/5x5 (in-place)
I0403 15:33:50.566215 10562 net.cpp:141] Setting up inception_5b/relu_5x5
I0403 15:33:50.566239 10562 net.cpp:148] Top shape: 24 128 7 7 (150528)
I0403 15:33:50.566254 10562 net.cpp:156] Memory required for data: 1335929376
I0403 15:33:50.566269 10562 layer_factory.hpp:77] Creating layer inception_5b/pool
I0403 15:33:50.566287 10562 net.cpp:91] Creating Layer inception_5b/pool
I0403 15:33:50.566303 10562 net.cpp:425] inception_5b/pool <- inception_5a/output_inception_5a/output_0_split_3
I0403 15:33:50.566323 10562 net.cpp:399] inception_5b/pool -> inception_5b/pool
I0403 15:33:50.566401 10562 net.cpp:141] Setting up inception_5b/pool
I0403 15:33:50.566424 10562 net.cpp:148] Top shape: 24 832 7 7 (978432)
I0403 15:33:50.566438 10562 net.cpp:156] Memory required for data: 1339843104
I0403 15:33:50.566453 10562 layer_factory.hpp:77] Creating layer inception_5b/pool_proj
I0403 15:33:50.566478 10562 net.cpp:91] Creating Layer inception_5b/pool_proj
I0403 15:33:50.566495 10562 net.cpp:425] inception_5b/pool_proj <- inception_5b/pool
I0403 15:33:50.566514 10562 net.cpp:399] inception_5b/pool_proj -> inception_5b/pool_proj
I0403 15:33:50.568855 10562 net.cpp:141] Setting up inception_5b/pool_proj
I0403 15:33:50.568884 10562 net.cpp:148] Top shape: 24 128 7 7 (150528)
I0403 15:33:50.568900 10562 net.cpp:156] Memory required for data: 1340445216
I0403 15:33:50.568919 10562 layer_factory.hpp:77] Creating layer inception_5b/relu_pool_proj
I0403 15:33:50.568940 10562 net.cpp:91] Creating Layer inception_5b/relu_pool_proj
I0403 15:33:50.568958 10562 net.cpp:425] inception_5b/relu_pool_proj <- inception_5b/pool_proj
I0403 15:33:50.568974 10562 net.cpp:386] inception_5b/relu_pool_proj -> inception_5b/pool_proj (in-place)
I0403 15:33:50.569280 10562 net.cpp:141] Setting up inception_5b/relu_pool_proj
I0403 15:33:50.569306 10562 net.cpp:148] Top shape: 24 128 7 7 (150528)
I0403 15:33:50.569321 10562 net.cpp:156] Memory required for data: 1341047328
I0403 15:33:50.569336 10562 layer_factory.hpp:77] Creating layer inception_5b/output
I0403 15:33:50.569356 10562 net.cpp:91] Creating Layer inception_5b/output
I0403 15:33:50.569386 10562 net.cpp:425] inception_5b/output <- inception_5b/1x1
I0403 15:33:50.569406 10562 net.cpp:425] inception_5b/output <- inception_5b/3x3
I0403 15:33:50.569422 10562 net.cpp:425] inception_5b/output <- inception_5b/5x5
I0403 15:33:50.569437 10562 net.cpp:425] inception_5b/output <- inception_5b/pool_proj
I0403 15:33:50.569454 10562 net.cpp:399] inception_5b/output -> inception_5b/output
I0403 15:33:50.569507 10562 net.cpp:141] Setting up inception_5b/output
I0403 15:33:50.569531 10562 net.cpp:148] Top shape: 24 1024 7 7 (1204224)
I0403 15:33:50.569546 10562 net.cpp:156] Memory required for data: 1345864224
I0403 15:33:50.569561 10562 layer_factory.hpp:77] Creating layer pool5/7x7_s1
I0403 15:33:50.569579 10562 net.cpp:91] Creating Layer pool5/7x7_s1
I0403 15:33:50.569596 10562 net.cpp:425] pool5/7x7_s1 <- inception_5b/output
I0403 15:33:50.569615 10562 net.cpp:399] pool5/7x7_s1 -> pool5/7x7_s1
I0403 15:33:50.569833 10562 net.cpp:141] Setting up pool5/7x7_s1
I0403 15:33:50.569861 10562 net.cpp:148] Top shape: 24 1024 1 1 (24576)
I0403 15:33:50.569877 10562 net.cpp:156] Memory required for data: 1345962528
I0403 15:33:50.569891 10562 layer_factory.hpp:77] Creating layer pool5/drop_7x7_s1
I0403 15:33:50.569910 10562 net.cpp:91] Creating Layer pool5/drop_7x7_s1
I0403 15:33:50.569927 10562 net.cpp:425] pool5/drop_7x7_s1 <- pool5/7x7_s1
I0403 15:33:50.569946 10562 net.cpp:386] pool5/drop_7x7_s1 -> pool5/7x7_s1 (in-place)
I0403 15:33:50.570003 10562 net.cpp:141] Setting up pool5/drop_7x7_s1
I0403 15:33:50.570025 10562 net.cpp:148] Top shape: 24 1024 1 1 (24576)
I0403 15:33:50.570039 10562 net.cpp:156] Memory required for data: 1346060832
I0403 15:33:50.570055 10562 layer_factory.hpp:77] Creating layer loss3/classifier_plantvillage
I0403 15:33:50.570075 10562 net.cpp:91] Creating Layer loss3/classifier_plantvillage
I0403 15:33:50.570092 10562 net.cpp:425] loss3/classifier_plantvillage <- pool5/7x7_s1
I0403 15:33:50.570111 10562 net.cpp:399] loss3/classifier_plantvillage -> loss3/classifier_plantvillage
I0403 15:33:50.570538 10562 net.cpp:141] Setting up loss3/classifier_plantvillage
I0403 15:33:50.570564 10562 net.cpp:148] Top shape: 24 38 (912)
I0403 15:33:50.570577 10562 net.cpp:156] Memory required for data: 1346064480
I0403 15:33:50.570595 10562 layer_factory.hpp:77] Creating layer loss3/classifier_plantvillage_loss3/classifier_plantvillage_0_split
I0403 15:33:50.570613 10562 net.cpp:91] Creating Layer loss3/classifier_plantvillage_loss3/classifier_plantvillage_0_split
I0403 15:33:50.570629 10562 net.cpp:425] loss3/classifier_plantvillage_loss3/classifier_plantvillage_0_split <- loss3/classifier_plantvillage
I0403 15:33:50.570650 10562 net.cpp:399] loss3/classifier_plantvillage_loss3/classifier_plantvillage_0_split -> loss3/classifier_plantvillage_loss3/classifier_plantvillage_0_split_0
I0403 15:33:50.570672 10562 net.cpp:399] loss3/classifier_plantvillage_loss3/classifier_plantvillage_0_split -> loss3/classifier_plantvillage_loss3/classifier_plantvillage_0_split_1
I0403 15:33:50.570693 10562 net.cpp:399] loss3/classifier_plantvillage_loss3/classifier_plantvillage_0_split -> loss3/classifier_plantvillage_loss3/classifier_plantvillage_0_split_2
I0403 15:33:50.570713 10562 net.cpp:399] loss3/classifier_plantvillage_loss3/classifier_plantvillage_0_split -> loss3/classifier_plantvillage_loss3/classifier_plantvillage_0_split_3
I0403 15:33:50.570816 10562 net.cpp:141] Setting up loss3/classifier_plantvillage_loss3/classifier_plantvillage_0_split
I0403 15:33:50.570840 10562 net.cpp:148] Top shape: 24 38 (912)
I0403 15:33:50.570858 10562 net.cpp:148] Top shape: 24 38 (912)
I0403 15:33:50.570873 10562 net.cpp:148] Top shape: 24 38 (912)
I0403 15:33:50.570888 10562 net.cpp:148] Top shape: 24 38 (912)
I0403 15:33:50.570902 10562 net.cpp:156] Memory required for data: 1346079072
I0403 15:33:50.570916 10562 layer_factory.hpp:77] Creating layer loss1/loss
I0403 15:33:50.570961 10562 net.cpp:91] Creating Layer loss1/loss
I0403 15:33:50.570984 10562 net.cpp:425] loss1/loss <- loss1/classifier_plantvillage_loss1/classifier_plantvillage_0_split_0
I0403 15:33:50.571017 10562 net.cpp:425] loss1/loss <- label_data_1_split_0
…
