…
I0403 15:43:56.027359 11120 net.cpp:313] The NetState phase (1) differed from the phase (0) specified by a rule in layer data
I0403 15:43:56.028555 11120 net.cpp:49] Initializing net from parameters: 
state {
  phase: TEST
}
layer {
  name: "data"
  type: "Data"
  top: "data"
  top: "label"
  include {
    phase: TEST
  }
  transform_param {
    mirror: false
    crop_size: 224
    mean_file: "/home/mohanty/data/final_dataset/lmdb/segmented-80-20/mean.binaryproto"
  }
  data_param {
    source: "/home/mohanty/data/final_dataset/lmdb/segmented-80-20/test_db"
    batch_size: 24
    backend: LMDB
  }
}
layer {
  name: "conv1/7x7_s2"
  type: "Convolution"
  bottom: "data"
  top: "conv1/7x7_s2"
  param {
    lr_mult: 1
    decay_mult: 1
  }
  param {
    lr_mult: 2
    decay_mult: 0
  }
  convolution_param {
    num_output: 64
    pad: 3
    kernel_size: 7
    stride: 2
    weight_filler {
      type: "xavier"
      std: 0.1
    }
    bias_filler {
      type: "constant"
      value: 0.2
    }
  }
}
layer {
  name: "conv1/relu_7x7"
  type: "ReLU"
  bottom: "conv1/7x7_s2"
  top: "conv1/7x7_s2"
}
layer {
  name: "pool1/3x3_s2"
  type: "Pooling"
  bottom: "conv1/7x7_s2"
  top: "pool1/3x3_s2"
  pooling_param {
    pool: MAX
    kernel_size: 3
    stride: 2
  }
}
layer {
  name: "pool1/norm1"
  type: "LRN"
  bottom: "pool1/3x3_s2"
  top: "pool1/norm1"
  lrn_param {
    local_size: 5
    alpha: 0.0001
    beta: 0.75
  }
}
layer {
  name: "conv2/3x3_reduce"
  type: "Convolution"
  bottom: "pool1/norm1"
  top: "conv2/3x3_reduce"
  param {
    lr_mult: 1
    decay_mult: 1
  }
  param {
    lr_mult: 2
    decay_mult: 0
  }
  convolution_param {
    num_output: 64
    kernel_size: 1
    weight_filler {
      type: "xavier"
      std: 0.1
    }
    bias_filler {
      type: "constant"
      value: 0.2
    }
  }
}
layer {
  name: "conv2/relu_3x3_reduce"
  type: "ReLU"
  bottom: "conv2/3x3_reduce"
  top: "conv2/3x3_reduce"
}
layer {
  name: "conv2/3x3"
  type: "Convolution"
  bottom: "conv2/3x3_reduce"
  top: "conv2/3x3"
  param {
    lr_mult: 1
    decay_mult: 1
  }
  param {
    lr_mult: 2
    decay_mult: 0
  }
  convolution_param {
    num_output: 192
    pad: 1
    kernel_size: 3
    weight_filler {
      type: "xavier"
      std: 0.03
    }
    bias_filler {
      type: "constant"
      value: 0.2
    }
  }
}
layer {
  name: "conv2/relu_3x3"
  type: "ReLU"
  bottom: "conv2/3x3"
  top: "conv2/3x3"
}
layer {
  name: "conv2/norm2"
  type: "LRN"
  bottom: "conv2/3x3"
  top: "conv2/norm2"
  lrn_param {
    local_size: 5
    alpha: 0.0001
    beta: 0.75
  }
}
layer {
  name: "pool2/3x3_s2"
  type: "Pooling"
  bottom: "conv2/norm2"
  top: "pool2/3x3_s2"
  pooling_param {
    pool: MAX
    kernel_size: 3
    stride: 2
  }
}
layer {
  name: "inception_3a/1x1"
  type: "Convolution"
  bottom: "pool2/3x3_s2"
  top: "inception_3a/1x1"
  param {
    lr_mult: 1
    decay_mult: 1
  }
  param {
    lr_mult: 2
    decay_mult: 0
  }
  convolution_param {
    num_output: 64
    kernel_size: 1
    weight_filler {
      type: "xavier"
      std: 0.03
    }
    bias_filler {
      type: "constant"
      value: 0.2
    }
  }
}
layer {
  name: "inception_3a/relu_1x1"
  type: "ReLU"
  bottom: "inception_3a/1x1"
  top: "inception_3a/1x1"
}
layer {
  name: "inception_3a/3x3_reduce"
  type: "Convolution"
  bottom: "pool2/3x3_s2"
  top: "inception_3a/3x3_reduce"
  param {
    lr_mult: 1
    decay_mult: 1
  }
  param {
    lr_mult: 2
    decay_mult: 0
  }
  convolution_param {
    num_output: 96
    kernel_size: 1
    weight_filler {
      type: "xavier"
      std: 0.09
    }
    bias_filler {
      type: "constant"
      value: 0.2
    }
  }
}
layer {
  name: "inception_3a/relu_3x3_reduce"
  type: "ReLU"
  bottom: "inception_3a/3x3_reduce"
  top: "inception_3a/3x3_reduce"
}
layer {
  name: "inception_3a/3x3"
  type: "Convolution"
  bottom: "inception_3a/3x3_reduce"
  top: "inception_3a/3x3"
  param {
    lr_mult: 1
    decay_mult: 1
  }
  param {
    lr_mult: 2
    decay_mult: 0
  }
  convolution_param {
    num_output: 128
    pad: 1
    kernel_size: 3
    weight_filler {
      type: "xavier"
      std: 0.03
    }
    bias_filler {
      type: "constant"
      value: 0.2
    }
  }
}
layer {
  name: "inception_3a/relu_3x3"
  type: "ReLU"
  bottom: "inception_3a/3x3"
  top: "inception_3a/3x3"
}
layer {
  name: "inception_3a/5x5_reduce"
  type: "Convolution"
  bottom: "pool2/3x3_s2"
  top: "inception_3a/5x5_reduce"
  param {
    lr_mult: 1
    decay_mult: 1
  }
  param {
    lr_mult: 2
    decay_mult: 0
  }
  convolution_param {
    num_output: 16
    kernel_size: 1
    weight_filler {
      type: "xavier"
      std: 0.2
    }
    bias_filler {
      type: "constant"
      value: 0.2
    }
  }
}
layer {
  name: "inception_3a/relu_5x5_reduce"
  type: "ReLU"
  bottom: "inception_3a/5x5_reduce"
  top: "inception_3a/5x5_reduce"
}
layer {
  name: "inception_3a/5x5"
  type: "Convolution"
  bottom: "inception_3a/5x5_reduce"
  top: "inception_3a/5x5"
  param {
    lr_mult: 1
    decay_mult: 1
  }
  param {
    lr_mult: 2
    decay_mult: 0
  }
  convolution_param {
    num_output: 32
    pad: 2
    kernel_size: 5
    weight_filler {
      type: "xavier"
      std: 0.03
    }
    bias_filler {
      type: "constant"
      value: 0.2
    }
  }
}
layer {
  name: "inception_3a/relu_5x5"
  type: "ReLU"
  bottom: "inception_3a/5x5"
  top: "inception_3a/5x5"
}
layer {
  name: "inception_3a/pool"
  type: "Pooling"
  bottom: "pool2/3x3_s2"
  top: "inception_3a/pool"
  pooling_param {
    pool: MAX
    kernel_size: 3
    stride: 1
    pad: 1
  }
}
layer {
  name: "inception_3a/pool_proj"
  type: "Convolution"
  bottom: "inception_3a/pool"
  top: "inception_3a/pool_proj"
  param {
    lr_mult: 1
    decay_mult: 1
  }
  param {
    lr_mult: 2
    decay_mult: 0
  }
  convolution_param {
    num_output: 32
    kernel_size: 1
    weight_filler {
      type: "xavier"
      std: 0.1
    }
    bias_filler {
      type: "constant"
      value: 0.2
    }
  }
}
layer {
  name: "inception_3a/relu_pool_proj"
  type: "ReLU"
  bottom: "inception_3a/pool_proj"
  top: "inception_3a/pool_proj"
}
layer {
  name: "inception_3a/output"
  type: "Concat"
  bottom: "inception_3a/1x1"
  bottom: "inception_3a/3x3"
  bottom: "inception_3a/5x5"
  bottom: "inception_3a/pool_proj"
  top: "inception_3a/output"
}
layer {
  name: "inception_3b/1x1"
  type: "Convolution"
  bottom: "inception_3a/output"
  top: "inception_3b/1x1"
  param {
    lr_mult: 1
    decay_mult: 1
  }
  param {
    lr_mult: 2
    decay_mult: 0
  }
  convolution_param {
    num_output: 128
    kernel_size: 1
    weight_filler {
      type: "xavier"
      std: 0.03
    }
    bias_filler {
      type: "constant"
      value: 0.2
    }
  }
}
layer {
  name: "inception_3b/relu_1x1"
  type: "ReLU"
  bottom: "inception_3b/1x1"
  top: "inception_3b/1x1"
}
layer {
  name: "inception_3b/3x3_reduce"
  type: "Convolution"
  bottom: "inception_3a/output"
  top: "inception_3b/3x3_reduce"
  param {
    lr_mult: 1
    decay_mult: 1
  }
  param {
    lr_mult: 2
    decay_mult: 0
  }
  convolution_param {
    num_output: 128
    kernel_size: 1
    weight_filler {
      type: "xavier"
      std: 0.09
    }
    bias_filler {
      type: "constant"
      value: 0.2
    }
  }
}
layer {
  name: "inception_3b/relu_3x3_reduce"
  type: "ReLU"
  bottom: "inception_3b/3x3_reduce"
  top: "inception_3b/3x3_reduce"
}
layer {
  name: "inception_3b/3x3"
  type: "Convolution"
  bottom: "inception_3b/3x3_reduce"
  top: "inception_3b/3x3"
  param {
    lr_mult: 1
    decay_mult: 1
  }
  param {
    lr_mult: 2
    decay_mult: 0
  }
  convolution_param {
    num_output: 192
    pad: 1
    kernel_size: 3
    weight_filler {
      type: "xavier"
      std: 0.03
    }
    bias_filler {
      type: "constant"
      value: 0.2
    }
  }
}
layer {
  name: "inception_3b/relu_3x3"
  type: "ReLU"
  bottom: "inception_3b/3x3"
  top: "inception_3b/3x3"
}
layer {
  name: "inception_3b/5x5_reduce"
  type: "Convolution"
  bottom: "inception_3a/output"
  top: "inception_3b/5x5_reduce"
  param {
    lr_mult: 1
    decay_mult: 1
  }
  param {
    lr_mult: 2
    decay_mult: 0
  }
  convolution_param {
    num_output: 32
    kernel_size: 1
    weight_filler {
      type: "xavier"
      std: 0.2
    }
    bias_filler {
      type: "constant"
      value: 0.2
    }
  }
}
layer {
  name: "inception_3b/relu_5x5_reduce"
  type: "ReLU"
  bottom: "inception_3b/5x5_reduce"
  top: "inception_3b/5x5_reduce"
}
layer {
  name: "inception_3b/5x5"
  type: "Convolution"
  bottom: "inception_3b/5x5_reduce"
  top: "inception_3b/5x5"
  param {
    lr_mult: 1
    decay_mult: 1
  }
  param {
    lr_mult: 2
    decay_mult: 0
  }
  convolution_param {
    num_output: 96
    pad: 2
    kernel_size: 5
    weight_filler {
      type: "xavier"
      std: 0.03
    }
    bias_filler {
      type: "constant"
      value: 0.2
    }
  }
}
layer {
  name: "inception_3b/relu_5x5"
  type: "ReLU"
  bottom: "inception_3b/5x5"
  top: "inception_3b/5x5"
}
layer {
  name: "inception_3b/pool"
  type: "Pooling"
  bottom: "inception_3a/output"
  top: "inception_3b/pool"
  pooling_param {
    pool: MAX
    kernel_size: 3
    stride: 1
    pad: 1
  }
}
layer {
  name: "inception_3b/pool_proj"
  type: "Convolution"
  bottom: "inception_3b/pool"
  top: "inception_3b/pool_proj"
  param {
    lr_mult: 1
    decay_mult: 1
  }
  param {
    lr_mult: 2
    decay_mult: 0
  }
  convolution_param {
    num_output: 64
    kernel_size: 1
    weight_filler {
      type: "xavier"
      std: 0.1
    }
    bias_filler {
      type: "constant"
      value: 0.2
    }
  }
}
layer {
  name: "inception_3b/relu_pool_proj"
  type: "ReLU"
  bottom: "inception_3b/pool_proj"
  top: "inception_3b/pool_proj"
}
layer {
  name: "inception_3b/output"
  type: "Concat"
  bottom: "inception_3b/1x1"
  bottom: "inception_3b/3x3"
  bottom: "inception_3b/5x5"
  bottom: "inception_3b/pool_proj"
  top: "inception_3b/output"
}
layer {
  name: "pool3/3x3_s2"
  type: "Pooling"
  bottom: "inception_3b/output"
  top: "pool3/3x3_s2"
  pooling_param {
    pool: MAX
    kernel_size: 3
    stride: 2
  }
}
layer {
  name: "inception_4a/1x1"
  type: "Convolution"
  bottom: "pool3/3x3_s2"
  top: "inception_4a/1x1"
  param {
    lr_mult: 1
    decay_mult: 1
  }
  param {
    lr_mult: 2
    decay_mult: 0
  }
  convolution_param {
    num_output: 192
    kernel_size: 1
    weight_filler {
      type: "xavier"
      std: 0.03
    }
    bias_filler {
      type: "constant"
      value: 0.2
    }
  }
}
layer {
  name: "inception_4a/relu_1x1"
  type: "ReLU"
  bottom: "inception_4a/1x1"
  top: "inception_4a/1x1"
}
layer {
  name: "inception_4a/3x3_reduce"
  type: "Convolution"
  bottom: "pool3/3x3_s2"
  top: "inception_4a/3x3_reduce"
  param {
    lr_mult: 1
    decay_mult: 1
  }
  param {
    lr_mult: 2
    decay_mult: 0
  }
  convolution_param {
    num_output: 96
    kernel_size: 1
    weight_filler {
      type: "xavier"
      std: 0.09
    }
    bias_filler {
      type: "constant"
      value: 0.2
    }
  }
}
layer {
  name: "inception_4a/relu_3x3_reduce"
  type: "ReLU"
  bottom: "inception_4a/3x3_reduce"
  top: "inception_4a/3x3_reduce"
}
layer {
  name: "inception_4a/3x3"
  type: "Convolution"
  bottom: "inception_4a/3x3_reduce"
  top: "inception_4a/3x3"
  param {
    lr_mult: 1
    decay_mult: 1
  }
  param {
    lr_mult: 2
    decay_mult: 0
  }
  convolution_param {
    num_output: 208
    pad: 1
    kernel_size: 3
    weight_filler {
      type: "xavier"
      std: 0.03
    }
    bias_filler {
      type: "constant"
      value: 0.2
    }
  }
}
layer {
  name: "inception_4a/relu_3x3"
  type: "ReLU"
  bottom: "inception_4a/3x3"
  top: "inception_4a/3x3"
}
layer {
  name: "inception_4a/5x5_reduce"
  type: "Convolution"
  bottom: "pool3/3x3_s2"
  top: "inception_4a/5x5_reduce"
  param {
    lr_mult: 1
    decay_mult: 1
  }
  param {
    lr_mult: 2
    decay_mult: 0
  }
  convolution_param {
    num_output: 16
    kernel_size: 1
    weight_filler {
      type: "xavier"
      std: 0.2
    }
    bias_filler {
      type: "constant"
      value: 0.2
    }
  }
}
layer {
  name: "inception_4a/relu_5x5_reduce"
  type: "ReLU"
  bottom: "inception_4a/5x5_reduce"
  top: "inception_4a/5x5_reduce"
}
layer {
  name: "inception_4a/5x5"
  type: "Convolution"
  bottom: "inception_4a/5x5_reduce"
  top: "inception_4a/5x5"
  param {
    lr_mult: 1
    decay_mult: 1
  }
  param {
    lr_mult: 2
    decay_mult: 0
  }
  convolution_param {
    num_output: 48
    pad: 2
    kernel_size: 5
    weight_filler {
      type: "xavier"
      std: 0.03
    }
    bias_filler {
      type: "constant"
      value: 0.2
    }
  }
}
layer {
  name: "inception_4a/relu_5x5"
  type: "ReLU"
  bottom: "inception_4a/5x5"
  top: "inception_4a/5x5"
}
layer {
  name: "inception_4a/pool"
  type: "Pooling"
  bottom: "pool3/3x3_s2"
  top: "inception_4a/pool"
  pooling_param {
    pool: MAX
    kernel_size: 3
    stride: 1
    pad: 1
  }
}
layer {
  name: "inception_4a/pool_proj"
  type: "Convolution"
  bottom: "inception_4a/pool"
  top: "inception_4a/pool_proj"
  param {
    lr_mult: 1
    decay_mult: 1
  }
  param {
    lr_mult: 2
    decay_mult: 0
  }
  convolution_param {
    num_output: 64
    kernel_size: 1
    weight_filler {
      type: "xavier"
      std: 0.1
    }
    bias_filler {
      type: "constant"
      value: 0.2
    }
  }
}
layer {
  name: "inception_4a/relu_pool_proj"
  type: "ReLU"
  bottom: "inception_4a/pool_proj"
  top: "inception_4a/pool_proj"
}
layer {
  name: "inception_4a/output"
  type: "Concat"
  bottom: "inception_4a/1x1"
  bottom: "inception_4a/3x3"
  bottom: "inception_4a/5x5"
  bottom: "inception_4a/pool_proj"
  top: "inception_4a/output"
}
layer {
  name: "loss1/ave_pool"
  type: "Pooling"
  bottom: "inception_4a/output"
  top: "loss1/ave_pool"
  pooling_param {
    pool: AVE
    kernel_size: 5
    stride: 3
  }
}
layer {
  name: "loss1/conv"
  type: "Convolution"
  bottom: "loss1/ave_pool"
  top: "loss1/conv"
  param {
    lr_mult: 1
    decay_mult: 1
  }
  param {
    lr_mult: 2
    decay_mult: 0
  }
  convolution_param {
    num_output: 128
    kernel_size: 1
    weight_filler {
      type: "xavier"
      std: 0.08
    }
    bias_filler {
      type: "constant"
      value: 0.2
    }
  }
}
layer {
  name: "loss1/relu_conv"
  type: "ReLU"
  bottom: "loss1/conv"
  top: "loss1/conv"
}
layer {
  name: "loss1/fc"
  type: "InnerProduct"
  bottom: "loss1/conv"
  top: "loss1/fc"
  param {
    lr_mult: 1
    decay_mult: 1
  }
  param {
    lr_mult: 2
    decay_mult: 0
  }
  inner_product_param {
    num_output: 1024
    weight_filler {
      type: "xavier"
      std: 0.02
    }
    bias_filler {
      type: "constant"
      value: 0.2
    }
  }
}
layer {
  name: "loss1/relu_fc"
  type: "ReLU"
  bottom: "loss1/fc"
  top: "loss1/fc"
}
layer {
  name: "loss1/drop_fc"
  type: "Dropout"
  bottom: "loss1/fc"
  top: "loss1/fc"
  dropout_param {
    dropout_ratio: 0.7
  }
}
layer {
  name: "loss1/classifier_plantvillage"
  type: "InnerProduct"
  bottom: "loss1/fc"
  top: "loss1/classifier_plantvillage"
  param {
    lr_mult: 1
    decay_mult: 1
  }
  param {
    lr_mult: 2
    decay_mult: 0
  }
  inner_product_param {
    num_output: 38
    weight_filler {
      type: "xavier"
      std: 0.0009765625
    }
    bias_filler {
      type: "constant"
      value: 0
    }
  }
}
layer {
  name: "inception_4b/1x1"
  type: "Convolution"
  bottom: "inception_4a/output"
  top: "inception_4b/1x1"
  param {
    lr_mult: 1
    decay_mult: 1
  }
  param {
    lr_mult: 2
    decay_mult: 0
  }
  convolution_param {
    num_output: 160
    kernel_size: 1
    weight_filler {
      type: "xavier"
      std: 0.03
    }
    bias_filler {
      type: "constant"
      value: 0.2
    }
  }
}
layer {
  name: "inception_4b/relu_1x1"
  type: "ReLU"
  bottom: "inception_4b/1x1"
  top: "inception_4b/1x1"
}
layer {
  name: "inception_4b/3x3_reduce"
  type: "Convolution"
  bottom: "inception_4a/output"
  top: "inception_4b/3x3_reduce"
  param {
    lr_mult: 1
    decay_mult: 1
  }
  param {
    lr_mult: 2
    decay_mult: 0
  }
  convolution_param {
    num_output: 112
    kernel_size: 1
    weight_filler {
      type: "xavier"
      std: 0.09
    }
    bias_filler {
      type: "constant"
      value: 0.2
    }
  }
}
layer {
  name: "inception_4b/relu_3x3_reduce"
  type: "ReLU"
  bottom: "inception_4b/3x3_reduce"
  top: "inception_4b/3x3_reduce"
}
layer {
  name: "inception_4b/3x3"
  type: "Convolution"
  bottom: "inception_4b/3x3_reduce"
  top: "inception_4b/3x3"
  param {
    lr_mult: 1
    decay_mult: 1
  }
  param {
    lr_mult: 2
    decay_mult: 0
  }
  convolution_param {
    num_output: 224
    pad: 1
    kernel_size: 3
    weight_filler {
      type: "xavier"
      std: 0.03
    }
    bias_filler {
      type: "constant"
      value: 0.2
    }
  }
}
layer {
  name: "inception_4b/relu_3x3"
  type: "ReLU"
  bottom: "inception_4b/3x3"
  top: "inception_4b/3x3"
}
layer {
  name: "inception_4b/5x5_reduce"
  type: "Convolution"
  bottom: "inception_4a/output"
  top: "inception_4b/5x5_reduce"
  param {
    lr_mult: 1
    decay_mult: 1
  }
  param {
    lr_mult: 2
    decay_mult: 0
  }
  convolution_param {
    num_output: 24
    kernel_size: 1
    weight_filler {
      type: "xavier"
      std: 0.2
    }
    bias_filler {
      type: "constant"
      value: 0.2
    }
  }
}
layer {
  name: "inception_4b/relu_5x5_reduce"
  type: "ReLU"
  bottom: "inception_4b/5x5_reduce"
  top: "inception_4b/5x5_reduce"
}
layer {
  name: "inception_4b/5x5"
  type: "Convolution"
  bottom: "inception_4b/5x5_reduce"
  top: "inception_4b/5x5"
  param {
    lr_mult: 1
    decay_mult: 1
  }
  param {
    lr_mult: 2
    decay_mult: 0
  }
  convolution_param {
    num_output: 64
    pad: 2
    kernel_size: 5
    weight_filler {
      type: "xavier"
      std: 0.03
    }
    bias_filler {
      type: "constant"
      value: 0.2
    }
  }
}
layer {
  name: "inception_4b/relu_5x5"
  type: "ReLU"
  bottom: "inception_4b/5x5"
  top: "inception_4b/5x5"
}
layer {
  name: "inception_4b/pool"
  type: "Pooling"
  bottom: "inception_4a/output"
  top: "inception_4b/pool"
  pooling_param {
    pool: MAX
    kernel_size: 3
    stride: 1
    pad: 1
  }
}
layer {
  name: "inception_4b/pool_proj"
  type: "Convolution"
  bottom: "inception_4b/pool"
  top: "inception_4b/pool_proj"
  param {
    lr_mult: 1
    decay_mult: 1
  }
  param {
    lr_mult: 2
    decay_mult: 0
  }
  convolution_param {
    num_output: 64
    kernel_size: 1
    weight_filler {
      type: "xavier"
      std: 0.1
    }
    bias_filler {
      type: "constant"
      value: 0.2
    }
  }
}
layer {
  name: "inception_4b/relu_pool_proj"
  type: "ReLU"
  bottom: "inception_4b/pool_proj"
  top: "inception_4b/pool_proj"
}
layer {
  name: "inception_4b/output"
  type: "Concat"
  bottom: "inception_4b/1x1"
  bottom: "inception_4b/3x3"
  bottom: "inception_4b/5x5"
  bottom: "inception_4b/pool_proj"
  top: "inception_4b/output"
}
layer {
  name: "inception_4c/1x1"
  type: "Convolution"
  bottom: "inception_4b/output"
  top: "inception_4c/1x1"
  param {
    lr_mult: 1
    decay_mult: 1
  }
  param {
    lr_mult: 2
    decay_mult: 0
  }
  convolution_param {
    num_output: 128
    kernel_size: 1
    weight_filler {
      type: "xavier"
      std: 0.03
    }
    bias_filler {
      type: "constant"
      value: 0.2
    }
  }
}
layer {
  name: "inception_4c/relu_1x1"
  type: "ReLU"
  bottom: "inception_4c/1x1"
  top: "inception_4c/1x1"
}
layer {
  name: "inception_4c/3x3_reduce"
  type: "Convolution"
  bottom: "inception_4b/output"
  top: "inception_4c/3x3_reduce"
  param {
    lr_mult: 1
    decay_mult: 1
  }
  param {
    lr_mult: 2
    decay_mult: 0
  }
  convolution_param {
    num_output: 128
    kernel_size: 1
    weight_filler {
      type: "xavier"
      std: 0.09
    }
    bias_filler {
      type: "constant"
      value: 0.2
    }
  }
}
layer {
  name: "inception_4c/relu_3x3_reduce"
  type: "ReLU"
  bottom: "inception_4c/3x3_reduce"
  top: "inception_4c/3x3_reduce"
}
layer {
  name: "inception_4c/3x3"
  type: "Convolution"
  bottom: "inception_4c/3x3_reduce"
  top: "inception_4c/3x3"
  param {
    lr_mult: 1
    decay_mult: 1
  }
  param {
    lr_mult: 2
    decay_mult: 0
  }
  convolution_param {
    num_output: 256
    pad: 1
    kernel_size: 3
    weight_filler {
      type: "xavier"
      std: 0.03
    }
    bias_filler {
      type: "constant"
      value: 0.2
    }
  }
}
layer {
  name: "inception_4c/relu_3x3"
  type: "ReLU"
  bottom: "inception_4c/3x3"
  top: "inception_4c/3x3"
}
layer {
  name: "inception_4c/5x5_reduce"
  type: "Convolution"
  bottom: "inception_4b/output"
  top: "inception_4c/5x5_reduce"
  param {
    lr_mult: 1
    decay_mult: 1
  }
  param {
    lr_mult: 2
    decay_mult: 0
  }
  convolution_param {
    num_output: 24
    kernel_size: 1
    weight_filler {
      type: "xavier"
      std: 0.2
    }
    bias_filler {
      type: "constant"
      value: 0.2
    }
  }
}
layer {
  name: "inception_4c/relu_5x5_reduce"
  type: "ReLU"
  bottom: "inception_4c/5x5_reduce"
  top: "inception_4c/5x5_reduce"
}
layer {
  name: "inception_4c/5x5"
  type: "Convolution"
  bottom: "inception_4c/5x5_reduce"
  top: "inception_4c/5x5"
  param {
    lr_mult: 1
    decay_mult: 1
  }
  param {
    lr_mult: 2
    decay_mult: 0
  }
  convolution_param {
    num_output: 64
    pad: 2
    kernel_size: 5
    weight_filler {
      type: "xavier"
      std: 0.03
    }
    bias_filler {
      type: "constant"
      value: 0.2
    }
  }
}
layer {
  name: "inception_4c/relu_5x5"
  type: "ReLU"
  bottom: "inception_4c/5x5"
  top: "inception_4c/5x5"
}
layer {
  name: "inception_4c/pool"
  type: "Pooling"
  bottom: "inception_4b/output"
  top: "inception_4c/pool"
  pooling_param {
    pool: MAX
    kernel_size: 3
    stride: 1
    pad: 1
  }
}
layer {
  name: "inception_4c/pool_proj"
  type: "Convolution"
  bottom: "inception_4c/pool"
  top: "inception_4c/pool_proj"
  param {
    lr_mult: 1
    decay_mult: 1
  }
  param {
    lr_mult: 2
    decay_mult: 0
  }
  convolution_param {
    num_output: 64
    kernel_size: 1
    weight_filler {
      type: "xavier"
      std: 0.1
    }
    bias_filler {
      type: "constant"
      value: 0.2
    }
  }
}
layer {
  name: "inception_4c/relu_pool_proj"
  type: "ReLU"
  bottom: "inception_4c/pool_proj"
  top: "inception_4c/pool_proj"
}
layer {
  name: "inception_4c/output"
  type: "Concat"
  bottom: "inception_4c/1x1"
  bottom: "inception_4c/3x3"
  bottom: "inception_4c/5x5"
  bottom: "inception_4c/pool_proj"
  top: "inception_4c/output"
}
layer {
  name: "inception_4d/1x1"
  type: "Convolution"
  bottom: "inception_4c/output"
  top: "inception_4d/1x1"
  param {
    lr_mult: 1
    decay_mult: 1
  }
  param {
    lr_mult: 2
    decay_mult: 0
  }
  convolution_param {
    num_output: 112
    kernel_size: 1
    weight_filler {
      type: "xavier"
      std: 0.03
    }
    bias_filler {
      type: "constant"
      value: 0.2
    }
  }
}
layer {
  name: "inception_4d/relu_1x1"
  type: "ReLU"
  bottom: "inception_4d/1x1"
  top: "inception_4d/1x1"
}
layer {
  name: "inception_4d/3x3_reduce"
  type: "Convolution"
  bottom: "inception_4c/output"
  top: "inception_4d/3x3_reduce"
  param {
    lr_mult: 1
    decay_mult: 1
  }
  param {
    lr_mult: 2
    decay_mult: 0
  }
  convolution_param {
    num_output: 144
    kernel_size: 1
    weight_filler {
      type: "xavier"
      std: 0.09
    }
    bias_filler {
      type: "constant"
      value: 0.2
    }
  }
}
layer {
  name: "inception_4d/relu_3x3_reduce"
  type: "ReLU"
  bottom: "inception_4d/3x3_reduce"
  top: "inception_4d/3x3_reduce"
}
layer {
  name: "inception_4d/3x3"
  type: "Convolution"
  bottom: "inception_4d/3x3_reduce"
  top: "inception_4d/3x3"
  param {
    lr_mult: 1
    decay_mult: 1
  }
  param {
    lr_mult: 2
    decay_mult: 0
  }
  convolution_param {
    num_output: 288
    pad: 1
    kernel_size: 3
    weight_filler {
      type: "xavier"
      std: 0.03
    }
    bias_filler {
      type: "constant"
      value: 0.2
    }
  }
}
layer {
  name: "inception_4d/relu_3x3"
  type: "ReLU"
  bottom: "inception_4d/3x3"
  top: "inception_4d/3x3"
}
layer {
  name: "inception_4d/5x5_reduce"
  type: "Convolution"
  bottom: "inception_4c/output"
  top: "inception_4d/5x5_reduce"
  param {
    lr_mult: 1
    decay_mult: 1
  }
  param {
    lr_mult: 2
    decay_mult: 0
  }
  convolution_param {
    num_output: 32
    kernel_size: 1
    weight_filler {
      type: "xavier"
      std: 0.2
    }
    bias_filler {
      type: "constant"
      value: 0.2
    }
  }
}
layer {
  name: "inception_4d/relu_5x5_reduce"
  type: "ReLU"
  bottom: "inception_4d/5x5_reduce"
  top: "inception_4d/5x5_reduce"
}
layer {
  name: "inception_4d/5x5"
  type: "Convolution"
  bottom: "inception_4d/5x5_reduce"
  top: "inception_4d/5x5"
  param {
    lr_mult: 1
    decay_mult: 1
  }
  param {
    lr_mult: 2
    decay_mult: 0
  }
  convolution_param {
    num_output: 64
    pad: 2
    kernel_size: 5
    weight_filler {
      type: "xavier"
      std: 0.03
    }
    bias_filler {
      type: "constant"
      value: 0.2
    }
  }
}
layer {
  name: "inception_4d/relu_5x5"
  type: "ReLU"
  bottom: "inception_4d/5x5"
  top: "inception_4d/5x5"
}
layer {
  name: "inception_4d/pool"
  type: "Pooling"
  bottom: "inception_4c/output"
  top: "inception_4d/pool"
  pooling_param {
    pool: MAX
    kernel_size: 3
    stride: 1
    pad: 1
  }
}
layer {
  name: "inception_4d/pool_proj"
  type: "Convolution"
  bottom: "inception_4d/pool"
  top: "inception_4d/pool_proj"
  param {
    lr_mult: 1
    decay_mult: 1
  }
  param {
    lr_mult: 2
    decay_mult: 0
  }
  convolution_param {
    num_output: 64
    kernel_size: 1
    weight_filler {
      type: "xavier"
      std: 0.1
    }
    bias_filler {
      type: "constant"
      value: 0.2
    }
  }
}
layer {
  name: "inception_4d/relu_pool_proj"
  type: "ReLU"
  bottom: "inception_4d/pool_proj"
  top: "inception_4d/pool_proj"
}
layer {
  name: "inception_4d/output"
  type: "Concat"
  bottom: "inception_4d/1x1"
  bottom: "inception_4d/3x3"
  bottom: "inception_4d/5x5"
  bottom: "inception_4d/pool_proj"
  top: "inception_4d/output"
}
layer {
  name: "loss2/ave_pool"
  type: "Pooling"
  bottom: "inception_4d/output"
  top: "loss2/ave_pool"
  pooling_param {
    pool: AVE
    kernel_size: 5
    stride: 3
  }
}
layer {
  name: "loss2/conv"
  type: "Convolution"
  bottom: "loss2/ave_pool"
  top: "loss2/conv"
  param {
    lr_mult: 1
    decay_mult: 1
  }
  param {
    lr_mult: 2
    decay_mult: 0
  }
  convolution_param {
    num_output: 128
    kernel_size: 1
    weight_filler {
      type: "xavier"
      std: 0.08
    }
    bias_filler {
      type: "constant"
      value: 0.2
    }
  }
}
layer {
  name: "loss2/relu_conv"
  type: "ReLU"
  bottom: "loss2/conv"
  top: "loss2/conv"
}
layer {
  name: "loss2/fc"
  type: "InnerProduct"
  bottom: "loss2/conv"
  top: "loss2/fc"
  param {
    lr_mult: 1
    decay_mult: 1
  }
  param {
    lr_mult: 2
    decay_mult: 0
  }
  inner_product_param {
    num_output: 1024
    weight_filler {
      type: "xavier"
      std: 0.02
    }
    bias_filler {
      type: "constant"
      value: 0.2
    }
  }
}
layer {
  name: "loss2/relu_fc"
  type: "ReLU"
  bottom: "loss2/fc"
  top: "loss2/fc"
}
layer {
  name: "loss2/drop_fc"
  type: "Dropout"
  bottom: "loss2/fc"
  top: "loss2/fc"
  dropout_param {
    dropout_ratio: 0.7
  }
}
layer {
  name: "loss2/classifier_plantvillage"
  type: "InnerProduct"
  bottom: "loss2/fc"
  top: "loss2/classifier_plantvillage"
  param {
    lr_mult: 1
    decay_mult: 1
  }
  param {
    lr_mult: 2
    decay_mult: 0
  }
  inner_product_param {
    num_output: 38
    weight_filler {
      type: "xavier"
      std: 0.0009765625
    }
    bias_filler {
      type: "constant"
      value: 0
    }
  }
}
layer {
  name: "inception_4e/1x1"
  type: "Convolution"
  bottom: "inception_4d/output"
  top: "inception_4e/1x1"
  param {
    lr_mult: 1
    decay_mult: 1
  }
  param {
    lr_mult: 2
    decay_mult: 0
  }
  convolution_param {
    num_output: 256
    kernel_size: 1
    weight_filler {
      type: "xavier"
      std: 0.03
    }
    bias_filler {
      type: "constant"
      value: 0.2
    }
  }
}
layer {
  name: "inception_4e/relu_1x1"
  type: "ReLU"
  bottom: "inception_4e/1x1"
  top: "inception_4e/1x1"
}
layer {
  name: "inception_4e/3x3_reduce"
  type: "Convolution"
  bottom: "inception_4d/output"
  top: "inception_4e/3x3_reduce"
  param {
    lr_mult: 1
    decay_mult: 1
  }
  param {
    lr_mult: 2
    decay_mult: 0
  }
  convolution_param {
    num_output: 160
    kernel_size: 1
    weight_filler {
      type: "xavier"
      std: 0.09
    }
    bias_filler {
      type: "constant"
      value: 0.2
    }
  }
}
layer {
  name: "inception_4e/relu_3x3_reduce"
  type: "ReLU"
  bottom: "inception_4e/3x3_reduce"
  top: "inception_4e/3x3_reduce"
}
layer {
  name: "inception_4e/3x3"
  type: "Convolution"
  bottom: "inception_4e/3x3_reduce"
  top: "inception_4e/3x3"
  param {
    lr_mult: 1
    decay_mult: 1
  }
  param {
    lr_mult: 2
    decay_mult: 0
  }
  convolution_param {
    num_output: 320
    pad: 1
    kernel_size: 3
    weight_filler {
      type: "xavier"
      std: 0.03
    }
    bias_filler {
      type: "constant"
      value: 0.2
    }
  }
}
layer {
  name: "inception_4e/relu_3x3"
  type: "ReLU"
  bottom: "inception_4e/3x3"
  top: "inception_4e/3x3"
}
layer {
  name: "inception_4e/5x5_reduce"
  type: "Convolution"
  bottom: "inception_4d/output"
  top: "inception_4e/5x5_reduce"
  param {
    lr_mult: 1
    decay_mult: 1
  }
  param {
    lr_mult: 2
    decay_mult: 0
  }
  convolution_param {
    num_output: 32
    kernel_size: 1
    weight_filler {
      type: "xavier"
      std: 0.2
    }
    bias_filler {
      type: "constant"
      value: 0.2
    }
  }
}
layer {
  name: "inception_4e/relu_5x5_reduce"
  type: "ReLU"
  bottom: "inception_4e/5x5_reduce"
  top: "inception_4e/5x5_reduce"
}
layer {
  name: "inception_4e/5x5"
  type: "Convolution"
  bottom: "inception_4e/5x5_reduce"
  top: "inception_4e/
I0403 15:43:56.029922 11120 layer_factory.hpp:77] Creating layer data
I0403 15:43:56.030565 11120 net.cpp:91] Creating Layer data
I0403 15:43:56.030596 11120 net.cpp:399] data -> data
I0403 15:43:56.030650 11120 net.cpp:399] data -> label
I0403 15:43:56.030689 11120 data_transformer.cpp:25] Loading mean file from: /home/mohanty/data/final_dataset/lmdb/segmented-80-20/mean.binaryproto
I0403 15:43:56.033534 11123 db_lmdb.cpp:38] Opened lmdb /home/mohanty/data/final_dataset/lmdb/segmented-80-20/test_db
I0403 15:43:56.043598 11120 data_layer.cpp:41] output data size: 24,3,224,224
I0403 15:43:56.071187 11120 net.cpp:141] Setting up data
I0403 15:43:56.071287 11120 net.cpp:148] Top shape: 24 3 224 224 (3612672)
I0403 15:43:56.071310 11120 net.cpp:148] Top shape: 24 (24)
I0403 15:43:56.071324 11120 net.cpp:156] Memory required for data: 14450784
I0403 15:43:56.071351 11120 layer_factory.hpp:77] Creating layer label_data_1_split
I0403 15:43:56.071377 11120 net.cpp:91] Creating Layer label_data_1_split
I0403 15:43:56.071394 11120 net.cpp:425] label_data_1_split <- label
I0403 15:43:56.071426 11120 net.cpp:399] label_data_1_split -> label_data_1_split_0
I0403 15:43:56.071454 11120 net.cpp:399] label_data_1_split -> label_data_1_split_1
I0403 15:43:56.071475 11120 net.cpp:399] label_data_1_split -> label_data_1_split_2
I0403 15:43:56.071496 11120 net.cpp:399] label_data_1_split -> label_data_1_split_3
I0403 15:43:56.071516 11120 net.cpp:399] label_data_1_split -> label_data_1_split_4
I0403 15:43:56.071535 11120 net.cpp:399] label_data_1_split -> label_data_1_split_5
I0403 15:43:56.071554 11120 net.cpp:399] label_data_1_split -> label_data_1_split_6
I0403 15:43:56.071574 11120 net.cpp:399] label_data_1_split -> label_data_1_split_7
I0403 15:43:56.071594 11120 net.cpp:399] label_data_1_split -> label_data_1_split_8
I0403 15:43:56.071614 11120 net.cpp:399] label_data_1_split -> label_data_1_split_9
I0403 15:43:56.071730 11120 net.cpp:141] Setting up label_data_1_split
I0403 15:43:56.071753 11120 net.cpp:148] Top shape: 24 (24)
I0403 15:43:56.071770 11120 net.cpp:148] Top shape: 24 (24)
I0403 15:43:56.071786 11120 net.cpp:148] Top shape: 24 (24)
I0403 15:43:56.071802 11120 net.cpp:148] Top shape: 24 (24)
I0403 15:43:56.071816 11120 net.cpp:148] Top shape: 24 (24)
I0403 15:43:56.071831 11120 net.cpp:148] Top shape: 24 (24)
I0403 15:43:56.071847 11120 net.cpp:148] Top shape: 24 (24)
I0403 15:43:56.071862 11120 net.cpp:148] Top shape: 24 (24)
I0403 15:43:56.071877 11120 net.cpp:148] Top shape: 24 (24)
I0403 15:43:56.071893 11120 net.cpp:148] Top shape: 24 (24)
I0403 15:43:56.071930 11120 net.cpp:156] Memory required for data: 14451744
I0403 15:43:56.071946 11120 layer_factory.hpp:77] Creating layer conv1/7x7_s2
I0403 15:43:56.071981 11120 net.cpp:91] Creating Layer conv1/7x7_s2
I0403 15:43:56.072000 11120 net.cpp:425] conv1/7x7_s2 <- data
I0403 15:43:56.072019 11120 net.cpp:399] conv1/7x7_s2 -> conv1/7x7_s2
I0403 15:43:56.210438 11120 net.cpp:141] Setting up conv1/7x7_s2
I0403 15:43:56.210517 11120 net.cpp:148] Top shape: 24 64 112 112 (19267584)
I0403 15:43:56.210533 11120 net.cpp:156] Memory required for data: 91522080
I0403 15:43:56.210563 11120 layer_factory.hpp:77] Creating layer conv1/relu_7x7
I0403 15:43:56.210589 11120 net.cpp:91] Creating Layer conv1/relu_7x7
I0403 15:43:56.210608 11120 net.cpp:425] conv1/relu_7x7 <- conv1/7x7_s2
I0403 15:43:56.210624 11120 net.cpp:386] conv1/relu_7x7 -> conv1/7x7_s2 (in-place)
I0403 15:43:56.210873 11120 net.cpp:141] Setting up conv1/relu_7x7
I0403 15:43:56.210899 11120 net.cpp:148] Top shape: 24 64 112 112 (19267584)
I0403 15:43:56.210914 11120 net.cpp:156] Memory required for data: 168592416
I0403 15:43:56.210928 11120 layer_factory.hpp:77] Creating layer pool1/3x3_s2
I0403 15:43:56.210952 11120 net.cpp:91] Creating Layer pool1/3x3_s2
I0403 15:43:56.210969 11120 net.cpp:425] pool1/3x3_s2 <- conv1/7x7_s2
I0403 15:43:56.210994 11120 net.cpp:399] pool1/3x3_s2 -> pool1/3x3_s2
I0403 15:43:56.211066 11120 net.cpp:141] Setting up pool1/3x3_s2
I0403 15:43:56.211089 11120 net.cpp:148] Top shape: 24 64 56 56 (4816896)
I0403 15:43:56.211104 11120 net.cpp:156] Memory required for data: 187860000
I0403 15:43:56.211118 11120 layer_factory.hpp:77] Creating layer pool1/norm1
I0403 15:43:56.211141 11120 net.cpp:91] Creating Layer pool1/norm1
I0403 15:43:56.211158 11120 net.cpp:425] pool1/norm1 <- pool1/3x3_s2
I0403 15:43:56.211175 11120 net.cpp:399] pool1/norm1 -> pool1/norm1
I0403 15:43:56.211457 11120 net.cpp:141] Setting up pool1/norm1
I0403 15:43:56.211483 11120 net.cpp:148] Top shape: 24 64 56 56 (4816896)
I0403 15:43:56.211498 11120 net.cpp:156] Memory required for data: 207127584
I0403 15:43:56.211511 11120 layer_factory.hpp:77] Creating layer conv2/3x3_reduce
I0403 15:43:56.211540 11120 net.cpp:91] Creating Layer conv2/3x3_reduce
I0403 15:43:56.211558 11120 net.cpp:425] conv2/3x3_reduce <- pool1/norm1
I0403 15:43:56.211576 11120 net.cpp:399] conv2/3x3_reduce -> conv2/3x3_reduce
I0403 15:43:56.212936 11120 net.cpp:141] Setting up conv2/3x3_reduce
I0403 15:43:56.212965 11120 net.cpp:148] Top shape: 24 64 56 56 (4816896)
I0403 15:43:56.212985 11120 net.cpp:156] Memory required for data: 226395168
I0403 15:43:56.213006 11120 layer_factory.hpp:77] Creating layer conv2/relu_3x3_reduce
I0403 15:43:56.213026 11120 net.cpp:91] Creating Layer conv2/relu_3x3_reduce
I0403 15:43:56.213044 11120 net.cpp:425] conv2/relu_3x3_reduce <- conv2/3x3_reduce
I0403 15:43:56.213062 11120 net.cpp:386] conv2/relu_3x3_reduce -> conv2/3x3_reduce (in-place)
I0403 15:43:56.213327 11120 net.cpp:141] Setting up conv2/relu_3x3_reduce
I0403 15:43:56.213352 11120 net.cpp:148] Top shape: 24 64 56 56 (4816896)
I0403 15:43:56.213368 11120 net.cpp:156] Memory required for data: 245662752
I0403 15:43:56.213382 11120 layer_factory.hpp:77] Creating layer conv2/3x3
I0403 15:43:56.213405 11120 net.cpp:91] Creating Layer conv2/3x3
I0403 15:43:56.213423 11120 net.cpp:425] conv2/3x3 <- conv2/3x3_reduce
I0403 15:43:56.213443 11120 net.cpp:399] conv2/3x3 -> conv2/3x3
I0403 15:43:56.215680 11120 net.cpp:141] Setting up conv2/3x3
I0403 15:43:56.215708 11120 net.cpp:148] Top shape: 24 192 56 56 (14450688)
I0403 15:43:56.215724 11120 net.cpp:156] Memory required for data: 303465504
I0403 15:43:56.215745 11120 layer_factory.hpp:77] Creating layer conv2/relu_3x3
I0403 15:43:56.215766 11120 net.cpp:91] Creating Layer conv2/relu_3x3
I0403 15:43:56.215782 11120 net.cpp:425] conv2/relu_3x3 <- conv2/3x3
I0403 15:43:56.215798 11120 net.cpp:386] conv2/relu_3x3 -> conv2/3x3 (in-place)
I0403 15:43:56.215972 11120 net.cpp:141] Setting up conv2/relu_3x3
I0403 15:43:56.216001 11120 net.cpp:148] Top shape: 24 192 56 56 (14450688)
I0403 15:43:56.216043 11120 net.cpp:156] Memory required for data: 361268256
I0403 15:43:56.216059 11120 layer_factory.hpp:77] Creating layer conv2/norm2
I0403 15:43:56.216079 11120 net.cpp:91] Creating Layer conv2/norm2
I0403 15:43:56.216095 11120 net.cpp:425] conv2/norm2 <- conv2/3x3
I0403 15:43:56.216114 11120 net.cpp:399] conv2/norm2 -> conv2/norm2
I0403 15:43:56.216408 11120 net.cpp:141] Setting up conv2/norm2
I0403 15:43:56.216435 11120 net.cpp:148] Top shape: 24 192 56 56 (14450688)
I0403 15:43:56.216451 11120 net.cpp:156] Memory required for data: 419071008
I0403 15:43:56.216466 11120 layer_factory.hpp:77] Creating layer pool2/3x3_s2
I0403 15:43:56.216482 11120 net.cpp:91] Creating Layer pool2/3x3_s2
I0403 15:43:56.216498 11120 net.cpp:425] pool2/3x3_s2 <- conv2/norm2
I0403 15:43:56.216517 11120 net.cpp:399] pool2/3x3_s2 -> pool2/3x3_s2
I0403 15:43:56.216567 11120 net.cpp:141] Setting up pool2/3x3_s2
I0403 15:43:56.216593 11120 net.cpp:148] Top shape: 24 192 28 28 (3612672)
I0403 15:43:56.216608 11120 net.cpp:156] Memory required for data: 433521696
I0403 15:43:56.216621 11120 layer_factory.hpp:77] Creating layer pool2/3x3_s2_pool2/3x3_s2_0_split
I0403 15:43:56.216639 11120 net.cpp:91] Creating Layer pool2/3x3_s2_pool2/3x3_s2_0_split
I0403 15:43:56.216652 11120 net.cpp:425] pool2/3x3_s2_pool2/3x3_s2_0_split <- pool2/3x3_s2
I0403 15:43:56.216670 11120 net.cpp:399] pool2/3x3_s2_pool2/3x3_s2_0_split -> pool2/3x3_s2_pool2/3x3_s2_0_split_0
I0403 15:43:56.216688 11120 net.cpp:399] pool2/3x3_s2_pool2/3x3_s2_0_split -> pool2/3x3_s2_pool2/3x3_s2_0_split_1
I0403 15:43:56.216709 11120 net.cpp:399] pool2/3x3_s2_pool2/3x3_s2_0_split -> pool2/3x3_s2_pool2/3x3_s2_0_split_2
I0403 15:43:56.216729 11120 net.cpp:399] pool2/3x3_s2_pool2/3x3_s2_0_split -> pool2/3x3_s2_pool2/3x3_s2_0_split_3
I0403 15:43:56.216799 11120 net.cpp:141] Setting up pool2/3x3_s2_pool2/3x3_s2_0_split
I0403 15:43:56.216820 11120 net.cpp:148] Top shape: 24 192 28 28 (3612672)
I0403 15:43:56.216835 11120 net.cpp:148] Top shape: 24 192 28 28 (3612672)
I0403 15:43:56.216850 11120 net.cpp:148] Top shape: 24 192 28 28 (3612672)
I0403 15:43:56.216866 11120 net.cpp:148] Top shape: 24 192 28 28 (3612672)
I0403 15:43:56.216878 11120 net.cpp:156] Memory required for data: 491324448
I0403 15:43:56.216892 11120 layer_factory.hpp:77] Creating layer inception_3a/1x1
I0403 15:43:56.216914 11120 net.cpp:91] Creating Layer inception_3a/1x1
I0403 15:43:56.216930 11120 net.cpp:425] inception_3a/1x1 <- pool2/3x3_s2_pool2/3x3_s2_0_split_0
I0403 15:43:56.216950 11120 net.cpp:399] inception_3a/1x1 -> inception_3a/1x1
I0403 15:43:56.218451 11120 net.cpp:141] Setting up inception_3a/1x1
I0403 15:43:56.218480 11120 net.cpp:148] Top shape: 24 64 28 28 (1204224)
I0403 15:43:56.218497 11120 net.cpp:156] Memory required for data: 496141344
I0403 15:43:56.218513 11120 layer_factory.hpp:77] Creating layer inception_3a/relu_1x1
I0403 15:43:56.218531 11120 net.cpp:91] Creating Layer inception_3a/relu_1x1
I0403 15:43:56.218546 11120 net.cpp:425] inception_3a/relu_1x1 <- inception_3a/1x1
I0403 15:43:56.218565 11120 net.cpp:386] inception_3a/relu_1x1 -> inception_3a/1x1 (in-place)
I0403 15:43:56.218732 11120 net.cpp:141] Setting up inception_3a/relu_1x1
I0403 15:43:56.218756 11120 net.cpp:148] Top shape: 24 64 28 28 (1204224)
I0403 15:43:56.218771 11120 net.cpp:156] Memory required for data: 500958240
I0403 15:43:56.218786 11120 layer_factory.hpp:77] Creating layer inception_3a/3x3_reduce
I0403 15:43:56.218807 11120 net.cpp:91] Creating Layer inception_3a/3x3_reduce
I0403 15:43:56.218824 11120 net.cpp:425] inception_3a/3x3_reduce <- pool2/3x3_s2_pool2/3x3_s2_0_split_1
I0403 15:43:56.218845 11120 net.cpp:399] inception_3a/3x3_reduce -> inception_3a/3x3_reduce
I0403 15:43:56.220494 11120 net.cpp:141] Setting up inception_3a/3x3_reduce
I0403 15:43:56.220522 11120 net.cpp:148] Top shape: 24 96 28 28 (1806336)
I0403 15:43:56.220538 11120 net.cpp:156] Memory required for data: 508183584
I0403 15:43:56.220558 11120 layer_factory.hpp:77] Creating layer inception_3a/relu_3x3_reduce
I0403 15:43:56.220594 11120 net.cpp:91] Creating Layer inception_3a/relu_3x3_reduce
I0403 15:43:56.220613 11120 net.cpp:425] inception_3a/relu_3x3_reduce <- inception_3a/3x3_reduce
I0403 15:43:56.220629 11120 net.cpp:386] inception_3a/relu_3x3_reduce -> inception_3a/3x3_reduce (in-place)
I0403 15:43:56.220805 11120 net.cpp:141] Setting up inception_3a/relu_3x3_reduce
I0403 15:43:56.220831 11120 net.cpp:148] Top shape: 24 96 28 28 (1806336)
I0403 15:43:56.220846 11120 net.cpp:156] Memory required for data: 515408928
I0403 15:43:56.220861 11120 layer_factory.hpp:77] Creating layer inception_3a/3x3
I0403 15:43:56.220883 11120 net.cpp:91] Creating Layer inception_3a/3x3
I0403 15:43:56.220901 11120 net.cpp:425] inception_3a/3x3 <- inception_3a/3x3_reduce
I0403 15:43:56.220918 11120 net.cpp:399] inception_3a/3x3 -> inception_3a/3x3
I0403 15:43:56.222503 11120 net.cpp:141] Setting up inception_3a/3x3
I0403 15:43:56.222530 11120 net.cpp:148] Top shape: 24 128 28 28 (2408448)
I0403 15:43:56.222545 11120 net.cpp:156] Memory required for data: 525042720
I0403 15:43:56.222563 11120 layer_factory.hpp:77] Creating layer inception_3a/relu_3x3
I0403 15:43:56.222582 11120 net.cpp:91] Creating Layer inception_3a/relu_3x3
I0403 15:43:56.222599 11120 net.cpp:425] inception_3a/relu_3x3 <- inception_3a/3x3
I0403 15:43:56.222615 11120 net.cpp:386] inception_3a/relu_3x3 -> inception_3a/3x3 (in-place)
I0403 15:43:56.222877 11120 net.cpp:141] Setting up inception_3a/relu_3x3
I0403 15:43:56.222903 11120 net.cpp:148] Top shape: 24 128 28 28 (2408448)
I0403 15:43:56.222918 11120 net.cpp:156] Memory required for data: 534676512
I0403 15:43:56.222932 11120 layer_factory.hpp:77] Creating layer inception_3a/5x5_reduce
I0403 15:43:56.222954 11120 net.cpp:91] Creating Layer inception_3a/5x5_reduce
I0403 15:43:56.222970 11120 net.cpp:425] inception_3a/5x5_reduce <- pool2/3x3_s2_pool2/3x3_s2_0_split_2
I0403 15:43:56.222996 11120 net.cpp:399] inception_3a/5x5_reduce -> inception_3a/5x5_reduce
I0403 15:43:56.223927 11120 net.cpp:141] Setting up inception_3a/5x5_reduce
I0403 15:43:56.223953 11120 net.cpp:148] Top shape: 24 16 28 28 (301056)
I0403 15:43:56.223968 11120 net.cpp:156] Memory required for data: 535880736
I0403 15:43:56.223990 11120 layer_factory.hpp:77] Creating layer inception_3a/relu_5x5_reduce
I0403 15:43:56.224011 11120 net.cpp:91] Creating Layer inception_3a/relu_5x5_reduce
I0403 15:43:56.224027 11120 net.cpp:425] inception_3a/relu_5x5_reduce <- inception_3a/5x5_reduce
I0403 15:43:56.224045 11120 net.cpp:386] inception_3a/relu_5x5_reduce -> inception_3a/5x5_reduce (in-place)
I0403 15:43:56.224334 11120 net.cpp:141] Setting up inception_3a/relu_5x5_reduce
I0403 15:43:56.224359 11120 net.cpp:148] Top shape: 24 16 28 28 (301056)
I0403 15:43:56.224375 11120 net.cpp:156] Memory required for data: 537084960
I0403 15:43:56.224390 11120 layer_factory.hpp:77] Creating layer inception_3a/5x5
I0403 15:43:56.224412 11120 net.cpp:91] Creating Layer inception_3a/5x5
I0403 15:43:56.224428 11120 net.cpp:425] inception_3a/5x5 <- inception_3a/5x5_reduce
I0403 15:43:56.224447 11120 net.cpp:399] inception_3a/5x5 -> inception_3a/5x5
I0403 15:43:56.225441 11120 net.cpp:141] Setting up inception_3a/5x5
I0403 15:43:56.225467 11120 net.cpp:148] Top shape: 24 32 28 28 (602112)
I0403 15:43:56.225482 11120 net.cpp:156] Memory required for data: 539493408
I0403 15:43:56.225500 11120 layer_factory.hpp:77] Creating layer inception_3a/relu_5x5
I0403 15:43:56.225517 11120 net.cpp:91] Creating Layer inception_3a/relu_5x5
I0403 15:43:56.225533 11120 net.cpp:425] inception_3a/relu_5x5 <- inception_3a/5x5
I0403 15:43:56.225551 11120 net.cpp:386] inception_3a/relu_5x5 -> inception_3a/5x5 (in-place)
I0403 15:43:56.225718 11120 net.cpp:141] Setting up inception_3a/relu_5x5
I0403 15:43:56.225742 11120 net.cpp:148] Top shape: 24 32 28 28 (602112)
I0403 15:43:56.225757 11120 net.cpp:156] Memory required for data: 541901856
I0403 15:43:56.225771 11120 layer_factory.hpp:77] Creating layer inception_3a/pool
I0403 15:43:56.225790 11120 net.cpp:91] Creating Layer inception_3a/pool
I0403 15:43:56.225819 11120 net.cpp:425] inception_3a/pool <- pool2/3x3_s2_pool2/3x3_s2_0_split_3
I0403 15:43:56.225837 11120 net.cpp:399] inception_3a/pool -> inception_3a/pool
I0403 15:43:56.225893 11120 net.cpp:141] Setting up inception_3a/pool
I0403 15:43:56.225916 11120 net.cpp:148] Top shape: 24 192 28 28 (3612672)
I0403 15:43:56.225931 11120 net.cpp:156] Memory required for data: 556352544
I0403 15:43:56.225945 11120 layer_factory.hpp:77] Creating layer inception_3a/pool_proj
I0403 15:43:56.225965 11120 net.cpp:91] Creating Layer inception_3a/pool_proj
I0403 15:43:56.225986 11120 net.cpp:425] inception_3a/pool_proj <- inception_3a/pool
I0403 15:43:56.226009 11120 net.cpp:399] inception_3a/pool_proj -> inception_3a/pool_proj
I0403 15:43:56.226945 11120 net.cpp:141] Setting up inception_3a/pool_proj
I0403 15:43:56.226974 11120 net.cpp:148] Top shape: 24 32 28 28 (602112)
I0403 15:43:56.226994 11120 net.cpp:156] Memory required for data: 558760992
I0403 15:43:56.227015 11120 layer_factory.hpp:77] Creating layer inception_3a/relu_pool_proj
I0403 15:43:56.227036 11120 net.cpp:91] Creating Layer inception_3a/relu_pool_proj
I0403 15:43:56.227053 11120 net.cpp:425] inception_3a/relu_pool_proj <- inception_3a/pool_proj
I0403 15:43:56.227069 11120 net.cpp:386] inception_3a/relu_pool_proj -> inception_3a/pool_proj (in-place)
I0403 15:43:56.227339 11120 net.cpp:141] Setting up inception_3a/relu_pool_proj
I0403 15:43:56.227365 11120 net.cpp:148] Top shape: 24 32 28 28 (602112)
I0403 15:43:56.227380 11120 net.cpp:156] Memory required for data: 561169440
I0403 15:43:56.227394 11120 layer_factory.hpp:77] Creating layer inception_3a/output
I0403 15:43:56.227411 11120 net.cpp:91] Creating Layer inception_3a/output
I0403 15:43:56.227427 11120 net.cpp:425] inception_3a/output <- inception_3a/1x1
I0403 15:43:56.227442 11120 net.cpp:425] inception_3a/output <- inception_3a/3x3
I0403 15:43:56.227458 11120 net.cpp:425] inception_3a/output <- inception_3a/5x5
I0403 15:43:56.227473 11120 net.cpp:425] inception_3a/output <- inception_3a/pool_proj
I0403 15:43:56.227491 11120 net.cpp:399] inception_3a/output -> inception_3a/output
I0403 15:43:56.227538 11120 net.cpp:141] Setting up inception_3a/output
I0403 15:43:56.227560 11120 net.cpp:148] Top shape: 24 256 28 28 (4816896)
I0403 15:43:56.227574 11120 net.cpp:156] Memory required for data: 580437024
I0403 15:43:56.227588 11120 layer_factory.hpp:77] Creating layer inception_3a/output_inception_3a/output_0_split
I0403 15:43:56.227604 11120 net.cpp:91] Creating Layer inception_3a/output_inception_3a/output_0_split
I0403 15:43:56.227619 11120 net.cpp:425] inception_3a/output_inception_3a/output_0_split <- inception_3a/output
I0403 15:43:56.227638 11120 net.cpp:399] inception_3a/output_inception_3a/output_0_split -> inception_3a/output_inception_3a/output_0_split_0
I0403 15:43:56.227659 11120 net.cpp:399] inception_3a/output_inception_3a/output_0_split -> inception_3a/output_inception_3a/output_0_split_1
I0403 15:43:56.227681 11120 net.cpp:399] inception_3a/output_inception_3a/output_0_split -> inception_3a/output_inception_3a/output_0_split_2
I0403 15:43:56.227701 11120 net.cpp:399] inception_3a/output_inception_3a/output_0_split -> inception_3a/output_inception_3a/output_0_split_3
I0403 15:43:56.227776 11120 net.cpp:141] Setting up inception_3a/output_inception_3a/output_0_split
I0403 15:43:56.227797 11120 net.cpp:148] Top shape: 24 256 28 28 (4816896)
I0403 15:43:56.227813 11120 net.cpp:148] Top shape: 24 256 28 28 (4816896)
I0403 15:43:56.227828 11120 net.cpp:148] Top shape: 24 256 28 28 (4816896)
I0403 15:43:56.227843 11120 net.cpp:148] Top shape: 24 256 28 28 (4816896)
I0403 15:43:56.227856 11120 net.cpp:156] Memory required for data: 657507360
I0403 15:43:56.227870 11120 layer_factory.hpp:77] Creating layer inception_3b/1x1
I0403 15:43:56.227892 11120 net.cpp:91] Creating Layer inception_3b/1x1
I0403 15:43:56.227910 11120 net.cpp:425] inception_3b/1x1 <- inception_3a/output_inception_3a/output_0_split_0
I0403 15:43:56.227929 11120 net.cpp:399] inception_3b/1x1 -> inception_3b/1x1
I0403 15:43:56.229053 11120 net.cpp:141] Setting up inception_3b/1x1
I0403 15:43:56.229094 11120 net.cpp:148] Top shape: 24 128 28 28 (2408448)
I0403 15:43:56.229111 11120 net.cpp:156] Memory required for data: 667141152
I0403 15:43:56.229130 11120 layer_factory.hpp:77] Creating layer inception_3b/relu_1x1
I0403 15:43:56.229147 11120 net.cpp:91] Creating Layer inception_3b/relu_1x1
I0403 15:43:56.229163 11120 net.cpp:425] inception_3b/relu_1x1 <- inception_3b/1x1
I0403 15:43:56.229189 11120 net.cpp:386] inception_3b/relu_1x1 -> inception_3b/1x1 (in-place)
I0403 15:43:56.229368 11120 net.cpp:141] Setting up inception_3b/relu_1x1
I0403 15:43:56.229393 11120 net.cpp:148] Top shape: 24 128 28 28 (2408448)
I0403 15:43:56.229406 11120 net.cpp:156] Memory required for data: 676774944
I0403 15:43:56.229421 11120 layer_factory.hpp:77] Creating layer inception_3b/3x3_reduce
I0403 15:43:56.229442 11120 net.cpp:91] Creating Layer inception_3b/3x3_reduce
I0403 15:43:56.229460 11120 net.cpp:425] inception_3b/3x3_reduce <- inception_3a/output_inception_3a/output_0_split_1
I0403 15:43:56.229488 11120 net.cpp:399] inception_3b/3x3_reduce -> inception_3b/3x3_reduce
I0403 15:43:56.230584 11120 net.cpp:141] Setting up inception_3b/3x3_reduce
I0403 15:43:56.230610 11120 net.cpp:148] Top shape: 24 128 28 28 (2408448)
I0403 15:43:56.230628 11120 net.cpp:156] Memory required for data: 686408736
I0403 15:43:56.230645 11120 layer_factory.hpp:77] Creating layer inception_3b/relu_3x3_reduce
I0403 15:43:56.230664 11120 net.cpp:91] Creating Layer inception_3b/relu_3x3_reduce
I0403 15:43:56.230679 11120 net.cpp:425] inception_3b/relu_3x3_reduce <- inception_3b/3x3_reduce
I0403 15:43:56.230697 11120 net.cpp:386] inception_3b/relu_3x3_reduce -> inception_3b/3x3_reduce (in-place)
I0403 15:43:56.230864 11120 net.cpp:141] Setting up inception_3b/relu_3x3_reduce
I0403 15:43:56.230887 11120 net.cpp:148] Top shape: 24 128 28 28 (2408448)
I0403 15:43:56.230903 11120 net.cpp:156] Memory required for data: 696042528
I0403 15:43:56.230917 11120 layer_factory.hpp:77] Creating layer inception_3b/3x3
I0403 15:43:56.230943 11120 net.cpp:91] Creating Layer inception_3b/3x3
I0403 15:43:56.230962 11120 net.cpp:425] inception_3b/3x3 <- inception_3b/3x3_reduce
I0403 15:43:56.230983 11120 net.cpp:399] inception_3b/3x3 -> inception_3b/3x3
I0403 15:43:56.233899 11120 net.cpp:141] Setting up inception_3b/3x3
I0403 15:43:56.233928 11120 net.cpp:148] Top shape: 24 192 28 28 (3612672)
I0403 15:43:56.233944 11120 net.cpp:156] Memory required for data: 710493216
I0403 15:43:56.233963 11120 layer_factory.hpp:77] Creating layer inception_3b/relu_3x3
I0403 15:43:56.233986 11120 net.cpp:91] Creating Layer inception_3b/relu_3x3
I0403 15:43:56.234004 11120 net.cpp:425] inception_3b/relu_3x3 <- inception_3b/3x3
I0403 15:43:56.234022 11120 net.cpp:386] inception_3b/relu_3x3 -> inception_3b/3x3 (in-place)
I0403 15:43:56.234294 11120 net.cpp:141] Setting up inception_3b/relu_3x3
I0403 15:43:56.234320 11120 net.cpp:148] Top shape: 24 192 28 28 (3612672)
I0403 15:43:56.234336 11120 net.cpp:156] Memory required for data: 724943904
I0403 15:43:56.234351 11120 layer_factory.hpp:77] Creating layer inception_3b/5x5_reduce
I0403 15:43:56.234375 11120 net.cpp:91] Creating Layer inception_3b/5x5_reduce
I0403 15:43:56.234393 11120 net.cpp:425] inception_3b/5x5_reduce <- inception_3a/output_inception_3a/output_0_split_2
I0403 15:43:56.234414 11120 net.cpp:399] inception_3b/5x5_reduce -> inception_3b/5x5_reduce
I0403 15:43:56.235395 11120 net.cpp:141] Setting up inception_3b/5x5_reduce
I0403 15:43:56.235422 11120 net.cpp:148] Top shape: 24 32 28 28 (602112)
I0403 15:43:56.235437 11120 net.cpp:156] Memory required for data: 727352352
I0403 15:43:56.235455 11120 layer_factory.hpp:77] Creating layer inception_3b/relu_5x5_reduce
I0403 15:43:56.235473 11120 net.cpp:91] Creating Layer inception_3b/relu_5x5_reduce
I0403 15:43:56.235489 11120 net.cpp:425] inception_3b/relu_5x5_reduce <- inception_3b/5x5_reduce
I0403 15:43:56.235512 11120 net.cpp:386] inception_3b/relu_5x5_reduce -> inception_3b/5x5_reduce (in-place)
I0403 15:43:56.235699 11120 net.cpp:141] Setting up inception_3b/relu_5x5_reduce
I0403 15:43:56.235724 11120 net.cpp:148] Top shape: 24 32 28 28 (602112)
I0403 15:43:56.235739 11120 net.cpp:156] Memory required for data: 729760800
I0403 15:43:56.235754 11120 layer_factory.hpp:77] Creating layer inception_3b/5x5
I0403 15:43:56.235776 11120 net.cpp:91] Creating Layer inception_3b/5x5
I0403 15:43:56.235793 11120 net.cpp:425] inception_3b/5x5 <- inception_3b/5x5_reduce
I0403 15:43:56.235815 11120 net.cpp:399] inception_3b/5x5 -> inception_3b/5x5
I0403 15:43:56.237774 11120 net.cpp:141] Setting up inception_3b/5x5
I0403 15:43:56.237804 11120 net.cpp:148] Top shape: 24 96 28 28 (1806336)
I0403 15:43:56.237820 11120 net.cpp:156] Memory required for data: 736986144
I0403 15:43:56.237838 11120 layer_factory.hpp:77] Creating layer inception_3b/relu_5x5
I0403 15:43:56.237856 11120 net.cpp:91] Creating Layer inception_3b/relu_5x5
I0403 15:43:56.237871 11120 net.cpp:425] inception_3b/relu_5x5 <- inception_3b/5x5
I0403 15:43:56.237891 11120 net.cpp:386] inception_3b/relu_5x5 -> inception_3b/5x5 (in-place)
I0403 15:43:56.238086 11120 net.cpp:141] Setting up inception_3b/relu_5x5
I0403 15:43:56.238111 11120 net.cpp:148] Top shape: 24 96 28 28 (1806336)
I0403 15:43:56.238126 11120 net.cpp:156] Memory required for data: 744211488
I0403 15:43:56.238142 11120 layer_factory.hpp:77] Creating layer inception_3b/pool
I0403 15:43:56.238159 11120 net.cpp:91] Creating Layer inception_3b/pool
I0403 15:43:56.238175 11120 net.cpp:425] inception_3b/pool <- inception_3a/output_inception_3a/output_0_split_3
I0403 15:43:56.238193 11120 net.cpp:399] inception_3b/pool -> inception_3b/pool
I0403 15:43:56.238255 11120 net.cpp:141] Setting up inception_3b/pool
I0403 15:43:56.238277 11120 net.cpp:148] Top shape: 24 256 28 28 (4816896)
I0403 15:43:56.238291 11120 net.cpp:156] Memory required for data: 763479072
I0403 15:43:56.238306 11120 layer_factory.hpp:77] Creating layer inception_3b/pool_proj
I0403 15:43:56.238327 11120 net.cpp:91] Creating Layer inception_3b/pool_proj
I0403 15:43:56.238344 11120 net.cpp:425] inception_3b/pool_proj <- inception_3b/pool
I0403 15:43:56.238365 11120 net.cpp:399] inception_3b/pool_proj -> inception_3b/pool_proj
I0403 15:43:56.239423 11120 net.cpp:141] Setting up inception_3b/pool_proj
I0403 15:43:56.239450 11120 net.cpp:148] Top shape: 24 64 28 28 (1204224)
I0403 15:43:56.239480 11120 net.cpp:156] Memory required for data: 768295968
I0403 15:43:56.239497 11120 layer_factory.hpp:77] Creating layer inception_3b/relu_pool_proj
I0403 15:43:56.239516 11120 net.cpp:91] Creating Layer inception_3b/relu_pool_proj
I0403 15:43:56.239531 11120 net.cpp:425] inception_3b/relu_pool_proj <- inception_3b/pool_proj
I0403 15:43:56.239549 11120 net.cpp:386] inception_3b/relu_pool_proj -> inception_3b/pool_proj (in-place)
I0403 15:43:56.239939 11120 net.cpp:141] Setting up inception_3b/relu_pool_proj
I0403 15:43:56.239965 11120 net.cpp:148] Top shape: 24 64 28 28 (1204224)
I0403 15:43:56.239985 11120 net.cpp:156] Memory required for data: 773112864
I0403 15:43:56.240001 11120 layer_factory.hpp:77] Creating layer inception_3b/output
I0403 15:43:56.240021 11120 net.cpp:91] Creating Layer inception_3b/output
I0403 15:43:56.240038 11120 net.cpp:425] inception_3b/output <- inception_3b/1x1
I0403 15:43:56.240056 11120 net.cpp:425] inception_3b/output <- inception_3b/3x3
I0403 15:43:56.240072 11120 net.cpp:425] inception_3b/output <- inception_3b/5x5
I0403 15:43:56.240087 11120 net.cpp:425] inception_3b/output <- inception_3b/pool_proj
I0403 15:43:56.240103 11120 net.cpp:399] inception_3b/output -> inception_3b/output
I0403 15:43:56.240149 11120 net.cpp:141] Setting up inception_3b/output
I0403 15:43:56.240172 11120 net.cpp:148] Top shape: 24 480 28 28 (9031680)
I0403 15:43:56.240187 11120 net.cpp:156] Memory required for data: 809239584
I0403 15:43:56.240203 11120 layer_factory.hpp:77] Creating layer pool3/3x3_s2
I0403 15:43:56.240221 11120 net.cpp:91] Creating Layer pool3/3x3_s2
I0403 15:43:56.240236 11120 net.cpp:425] pool3/3x3_s2 <- inception_3b/output
I0403 15:43:56.240272 11120 net.cpp:399] pool3/3x3_s2 -> pool3/3x3_s2
I0403 15:43:56.240331 11120 net.cpp:141] Setting up pool3/3x3_s2
I0403 15:43:56.240355 11120 net.cpp:148] Top shape: 24 480 14 14 (2257920)
I0403 15:43:56.240370 11120 net.cpp:156] Memory required for data: 818271264
I0403 15:43:56.240383 11120 layer_factory.hpp:77] Creating layer pool3/3x3_s2_pool3/3x3_s2_0_split
I0403 15:43:56.240403 11120 net.cpp:91] Creating Layer pool3/3x3_s2_pool3/3x3_s2_0_split
I0403 15:43:56.240419 11120 net.cpp:425] pool3/3x3_s2_pool3/3x3_s2_0_split <- pool3/3x3_s2
I0403 15:43:56.240438 11120 net.cpp:399] pool3/3x3_s2_pool3/3x3_s2_0_split -> pool3/3x3_s2_pool3/3x3_s2_0_split_0
I0403 15:43:56.240458 11120 net.cpp:399] pool3/3x3_s2_pool3/3x3_s2_0_split -> pool3/3x3_s2_pool3/3x3_s2_0_split_1
I0403 15:43:56.240478 11120 net.cpp:399] pool3/3x3_s2_pool3/3x3_s2_0_split -> pool3/3x3_s2_pool3/3x3_s2_0_split_2
I0403 15:43:56.240499 11120 net.cpp:399] pool3/3x3_s2_pool3/3x3_s2_0_split -> pool3/3x3_s2_pool3/3x3_s2_0_split_3
I0403 15:43:56.240574 11120 net.cpp:141] Setting up pool3/3x3_s2_pool3/3x3_s2_0_split
I0403 15:43:56.240597 11120 net.cpp:148] Top shape: 24 480 14 14 (2257920)
I0403 15:43:56.240612 11120 net.cpp:148] Top shape: 24 480 14 14 (2257920)
I0403 15:43:56.240628 11120 net.cpp:148] Top shape: 24 480 14 14 (2257920)
I0403 15:43:56.240643 11120 net.cpp:148] Top shape: 24 480 14 14 (2257920)
I0403 15:43:56.240656 11120 net.cpp:156] Memory required for data: 854397984
I0403 15:43:56.240670 11120 layer_factory.hpp:77] Creating layer inception_4a/1x1
I0403 15:43:56.240691 11120 net.cpp:91] Creating Layer inception_4a/1x1
I0403 15:43:56.240708 11120 net.cpp:425] inception_4a/1x1 <- pool3/3x3_s2_pool3/3x3_s2_0_split_0
I0403 15:43:56.240733 11120 net.cpp:399] inception_4a/1x1 -> inception_4a/1x1
I0403 15:43:56.242298 11120 net.cpp:141] Setting up inception_4a/1x1
I0403 15:43:56.242331 11120 net.cpp:148] Top shape: 24 192 14 14 (903168)
I0403 15:43:56.242348 11120 net.cpp:156] Memory required for data: 858010656
I0403 15:43:56.242367 11120 layer_factory.hpp:77] Creating layer inception_4a/relu_1x1
I0403 15:43:56.242385 11120 net.cpp:91] Creating Layer inception_4a/relu_1x1
I0403 15:43:56.242400 11120 net.cpp:425] inception_4a/relu_1x1 <- inception_4a/1x1
I0403 15:43:56.242418 11120 net.cpp:386] inception_4a/relu_1x1 -> inception_4a/1x1 (in-place)
I0403 15:43:56.242595 11120 net.cpp:141] Setting up inception_4a/relu_1x1
I0403 15:43:56.242621 11120 net.cpp:148] Top shape: 24 192 14 14 (903168)
I0403 15:43:56.242636 11120 net.cpp:156] Memory required for data: 861623328
I0403 15:43:56.242650 11120 layer_factory.hpp:77] Creating layer inception_4a/3x3_reduce
I0403 15:43:56.242672 11120 net.cpp:91] Creating Layer inception_4a/3x3_reduce
I0403 15:43:56.242689 11120 net.cpp:425] inception_4a/3x3_reduce <- pool3/3x3_s2_pool3/3x3_s2_0_split_1
I0403 15:43:56.242710 11120 net.cpp:399] inception_4a/3x3_reduce -> inception_4a/3x3_reduce
I0403 15:43:56.244007 11120 net.cpp:141] Setting up inception_4a/3x3_reduce
I0403 15:43:56.244035 11120 net.cpp:148] Top shape: 24 96 14 14 (451584)
I0403 15:43:56.244052 11120 net.cpp:156] Memory required for data: 863429664
I0403 15:43:56.244078 11120 layer_factory.hpp:77] Creating layer inception_4a/relu_3x3_reduce
I0403 15:43:56.244099 11120 net.cpp:91] Creating Layer inception_4a/relu_3x3_reduce
I0403 15:43:56.244117 11120 net.cpp:425] inception_4a/relu_3x3_reduce <- inception_4a/3x3_reduce
I0403 15:43:56.244134 11120 net.cpp:386] inception_4a/relu_3x3_reduce -> inception_4a/3x3_reduce (in-place)
I0403 15:43:56.244329 11120 net.cpp:141] Setting up inception_4a/relu_3x3_reduce
I0403 15:43:56.244356 11120 net.cpp:148] Top shape: 24 96 14 14 (451584)
I0403 15:43:56.244372 11120 net.cpp:156] Memory required for data: 865236000
I0403 15:43:56.244387 11120 layer_factory.hpp:77] Creating layer inception_4a/3x3
I0403 15:43:56.244410 11120 net.cpp:91] Creating Layer inception_4a/3x3
I0403 15:43:56.244427 11120 net.cpp:425] inception_4a/3x3 <- inception_4a/3x3_reduce
I0403 15:43:56.244446 11120 net.cpp:399] inception_4a/3x3 -> inception_4a/3x3
I0403 15:43:56.247138 11120 net.cpp:141] Setting up inception_4a/3x3
I0403 15:43:56.247169 11120 net.cpp:148] Top shape: 24 208 14 14 (978432)
I0403 15:43:56.247184 11120 net.cpp:156] Memory required for data: 869149728
I0403 15:43:56.247202 11120 layer_factory.hpp:77] Creating layer inception_4a/relu_3x3
I0403 15:43:56.247220 11120 net.cpp:91] Creating Layer inception_4a/relu_3x3
I0403 15:43:56.247236 11120 net.cpp:425] inception_4a/relu_3x3 <- inception_4a/3x3
I0403 15:43:56.247256 11120 net.cpp:386] inception_4a/relu_3x3 -> inception_4a/3x3 (in-place)
I0403 15:43:56.247536 11120 net.cpp:141] Setting up inception_4a/relu_3x3
I0403 15:43:56.247562 11120 net.cpp:148] Top shape: 24 208 14 14 (978432)
I0403 15:43:56.247577 11120 net.cpp:156] Memory required for data: 873063456
I0403 15:43:56.247592 11120 layer_factory.hpp:77] Creating layer inception_4a/5x5_reduce
I0403 15:43:56.247616 11120 net.cpp:91] Creating Layer inception_4a/5x5_reduce
I0403 15:43:56.247632 11120 net.cpp:425] inception_4a/5x5_reduce <- pool3/3x3_s2_pool3/3x3_s2_0_split_2
I0403 15:43:56.247655 11120 net.cpp:399] inception_4a/5x5_reduce -> inception_4a/5x5_reduce
I0403 15:43:56.248690 11120 net.cpp:141] Setting up inception_4a/5x5_reduce
I0403 15:43:56.248718 11120 net.cpp:148] Top shape: 24 16 14 14 (75264)
I0403 15:43:56.248733 11120 net.cpp:156] Memory required for data: 873364512
I0403 15:43:56.248751 11120 layer_factory.hpp:77] Creating layer inception_4a/relu_5x5_reduce
I0403 15:43:56.248769 11120 net.cpp:91] Creating Layer inception_4a/relu_5x5_reduce
I0403 15:43:56.248785 11120 net.cpp:425] inception_4a/relu_5x5_reduce <- inception_4a/5x5_reduce
I0403 15:43:56.248805 11120 net.cpp:386] inception_4a/relu_5x5_reduce -> inception_4a/5x5_reduce (in-place)
I0403 15:43:56.248996 11120 net.cpp:141] Setting up inception_4a/relu_5x5_reduce
I0403 15:43:56.249020 11120 net.cpp:148] Top shape: 24 16 14 14 (75264)
I0403 15:43:56.249035 11120 net.cpp:156] Memory required for data: 873665568
I0403 15:43:56.249050 11120 layer_factory.hpp:77] Creating layer inception_4a/5x5
I0403 15:43:56.249073 11120 net.cpp:91] Creating Layer inception_4a/5x5
I0403 15:43:56.249089 11120 net.cpp:425] inception_4a/5x5 <- inception_4a/5x5_reduce
I0403 15:43:56.249112 11120 net.cpp:399] inception_4a/5x5 -> inception_4a/5x5
I0403 15:43:56.250208 11120 net.cpp:141] Setting up inception_4a/5x5
I0403 15:43:56.250236 11120 net.cpp:148] Top shape: 24 48 14 14 (225792)
I0403 15:43:56.250252 11120 net.cpp:156] Memory required for data: 874568736
I0403 15:43:56.250269 11120 layer_factory.hpp:77] Creating layer inception_4a/relu_5x5
I0403 15:43:56.250289 11120 net.cpp:91] Creating Layer inception_4a/relu_5x5
I0403 15:43:56.250306 11120 net.cpp:425] inception_4a/relu_5x5 <- inception_4a/5x5
I0403 15:43:56.250322 11120 net.cpp:386] inception_4a/relu_5x5 -> inception_4a/5x5 (in-place)
I0403 15:43:56.250502 11120 net.cpp:141] Setting up inception_4a/relu_5x5
I0403 15:43:56.250530 11120 net.cpp:148] Top shape: 24 48 14 14 (225792)
I0403 15:43:56.250545 11120 net.cpp:156] Memory required for data: 875471904
I0403 15:43:56.250560 11120 layer_factory.hpp:77] Creating layer inception_4a/pool
I0403 15:43:56.250577 11120 net.cpp:91] Creating Layer inception_4a/pool
I0403 15:43:56.250593 11120 net.cpp:425] inception_4a/pool <- pool3/3x3_s2_pool3/3x3_s2_0_split_3
I0403 15:43:56.250613 11120 net.cpp:399] inception_4a/pool -> inception_4a/pool
I0403 15:43:56.250686 11120 net.cpp:141] Setting up inception_4a/pool
I0403 15:43:56.250708 11120 net.cpp:148] Top shape: 24 480 14 14 (2257920)
I0403 15:43:56.250722 11120 net.cpp:156] Memory required for data: 884503584
I0403 15:43:56.250736 11120 layer_factory.hpp:77] Creating layer inception_4a/pool_proj
I0403 15:43:56.250758 11120 net.cpp:91] Creating Layer inception_4a/pool_proj
I0403 15:43:56.250777 11120 net.cpp:425] inception_4a/pool_proj <- inception_4a/pool
I0403 15:43:56.250794 11120 net.cpp:399] inception_4a/pool_proj -> inception_4a/pool_proj
I0403 15:43:56.251945 11120 net.cpp:141] Setting up inception_4a/pool_proj
I0403 15:43:56.251973 11120 net.cpp:148] Top shape: 24 64 14 14 (301056)
I0403 15:43:56.252007 11120 net.cpp:156] Memory required for data: 885707808
I0403 15:43:56.252025 11120 layer_factory.hpp:77] Creating layer inception_4a/relu_pool_proj
I0403 15:43:56.252046 11120 net.cpp:91] Creating Layer inception_4a/relu_pool_proj
I0403 15:43:56.252063 11120 net.cpp:425] inception_4a/relu_pool_proj <- inception_4a/pool_proj
I0403 15:43:56.252080 11120 net.cpp:386] inception_4a/relu_pool_proj -> inception_4a/pool_proj (in-place)
I0403 15:43:56.252357 11120 net.cpp:141] Setting up inception_4a/relu_pool_proj
I0403 15:43:56.252382 11120 net.cpp:148] Top shape: 24 64 14 14 (301056)
I0403 15:43:56.252396 11120 net.cpp:156] Memory required for data: 886912032
I0403 15:43:56.252410 11120 layer_factory.hpp:77] Creating layer inception_4a/output
I0403 15:43:56.252430 11120 net.cpp:91] Creating Layer inception_4a/output
I0403 15:43:56.252446 11120 net.cpp:425] inception_4a/output <- inception_4a/1x1
I0403 15:43:56.252463 11120 net.cpp:425] inception_4a/output <- inception_4a/3x3
I0403 15:43:56.252478 11120 net.cpp:425] inception_4a/output <- inception_4a/5x5
I0403 15:43:56.252493 11120 net.cpp:425] inception_4a/output <- inception_4a/pool_proj
I0403 15:43:56.252509 11120 net.cpp:399] inception_4a/output -> inception_4a/output
I0403 15:43:56.252557 11120 net.cpp:141] Setting up inception_4a/output
I0403 15:43:56.252580 11120 net.cpp:148] Top shape: 24 512 14 14 (2408448)
I0403 15:43:56.252595 11120 net.cpp:156] Memory required for data: 896545824
I0403 15:43:56.252609 11120 layer_factory.hpp:77] Creating layer inception_4a/output_inception_4a/output_0_split
I0403 15:43:56.252626 11120 net.cpp:91] Creating Layer inception_4a/output_inception_4a/output_0_split
I0403 15:43:56.252641 11120 net.cpp:425] inception_4a/output_inception_4a/output_0_split <- inception_4a/output
I0403 15:43:56.252660 11120 net.cpp:399] inception_4a/output_inception_4a/output_0_split -> inception_4a/output_inception_4a/output_0_split_0
I0403 15:43:56.252681 11120 net.cpp:399] inception_4a/output_inception_4a/output_0_split -> inception_4a/output_inception_4a/output_0_split_1
I0403 15:43:56.252702 11120 net.cpp:399] inception_4a/output_inception_4a/output_0_split -> inception_4a/output_inception_4a/output_0_split_2
I0403 15:43:56.252724 11120 net.cpp:399] inception_4a/output_inception_4a/output_0_split -> inception_4a/output_inception_4a/output_0_split_3
I0403 15:43:56.252745 11120 net.cpp:399] inception_4a/output_inception_4a/output_0_split -> inception_4a/output_inception_4a/output_0_split_4
I0403 15:43:56.252835 11120 net.cpp:141] Setting up inception_4a/output_inception_4a/output_0_split
I0403 15:43:56.252857 11120 net.cpp:148] Top shape: 24 512 14 14 (2408448)
I0403 15:43:56.252873 11120 net.cpp:148] Top shape: 24 512 14 14 (2408448)
I0403 15:43:56.252889 11120 net.cpp:148] Top shape: 24 512 14 14 (2408448)
I0403 15:43:56.252903 11120 net.cpp:148] Top shape: 24 512 14 14 (2408448)
I0403 15:43:56.252918 11120 net.cpp:148] Top shape: 24 512 14 14 (2408448)
I0403 15:43:56.252931 11120 net.cpp:156] Memory required for data: 944714784
I0403 15:43:56.252945 11120 layer_factory.hpp:77] Creating layer loss1/ave_pool
I0403 15:43:56.252962 11120 net.cpp:91] Creating Layer loss1/ave_pool
I0403 15:43:56.252982 11120 net.cpp:425] loss1/ave_pool <- inception_4a/output_inception_4a/output_0_split_0
I0403 15:43:56.253003 11120 net.cpp:399] loss1/ave_pool -> loss1/ave_pool
I0403 15:43:56.253202 11120 net.cpp:141] Setting up loss1/ave_pool
I0403 15:43:56.253227 11120 net.cpp:148] Top shape: 24 512 4 4 (196608)
I0403 15:43:56.253242 11120 net.cpp:156] Memory required for data: 945501216
I0403 15:43:56.253257 11120 layer_factory.hpp:77] Creating layer loss1/conv
I0403 15:43:56.253278 11120 net.cpp:91] Creating Layer loss1/conv
I0403 15:43:56.253295 11120 net.cpp:425] loss1/conv <- loss1/ave_pool
I0403 15:43:56.253314 11120 net.cpp:399] loss1/conv -> loss1/conv
I0403 15:43:56.254678 11120 net.cpp:141] Setting up loss1/conv
I0403 15:43:56.254705 11120 net.cpp:148] Top shape: 24 128 4 4 (49152)
I0403 15:43:56.254734 11120 net.cpp:156] Memory required for data: 945697824
I0403 15:43:56.254753 11120 layer_factory.hpp:77] Creating layer loss1/relu_conv
I0403 15:43:56.254771 11120 net.cpp:91] Creating Layer loss1/relu_conv
I0403 15:43:56.254786 11120 net.cpp:425] loss1/relu_conv <- loss1/conv
I0403 15:43:56.254806 11120 net.cpp:386] loss1/relu_conv -> loss1/conv (in-place)
I0403 15:43:56.255085 11120 net.cpp:141] Setting up loss1/relu_conv
I0403 15:43:56.255110 11120 net.cpp:148] Top shape: 24 128 4 4 (49152)
I0403 15:43:56.255125 11120 net.cpp:156] Memory required for data: 945894432
I0403 15:43:56.255139 11120 layer_factory.hpp:77] Creating layer loss1/fc
I0403 15:43:56.255162 11120 net.cpp:91] Creating Layer loss1/fc
I0403 15:43:56.255179 11120 net.cpp:425] loss1/fc <- loss1/conv
I0403 15:43:56.255199 11120 net.cpp:399] loss1/fc -> loss1/fc
I0403 15:43:56.272485 11120 net.cpp:141] Setting up loss1/fc
I0403 15:43:56.272518 11120 net.cpp:148] Top shape: 24 1024 (24576)
I0403 15:43:56.272534 11120 net.cpp:156] Memory required for data: 945992736
I0403 15:43:56.272552 11120 layer_factory.hpp:77] Creating layer loss1/relu_fc
I0403 15:43:56.272568 11120 net.cpp:91] Creating Layer loss1/relu_fc
I0403 15:43:56.272583 11120 net.cpp:425] loss1/relu_fc <- loss1/fc
I0403 15:43:56.272600 11120 net.cpp:386] loss1/relu_fc -> loss1/fc (in-place)
I0403 15:43:56.272781 11120 net.cpp:141] Setting up loss1/relu_fc
I0403 15:43:56.272805 11120 net.cpp:148] Top shape: 24 1024 (24576)
I0403 15:43:56.272820 11120 net.cpp:156] Memory required for data: 946091040
I0403 15:43:56.272835 11120 layer_factory.hpp:77] Creating layer loss1/drop_fc
I0403 15:43:56.272860 11120 net.cpp:91] Creating Layer loss1/drop_fc
I0403 15:43:56.272876 11120 net.cpp:425] loss1/drop_fc <- loss1/fc
I0403 15:43:56.272896 11120 net.cpp:386] loss1/drop_fc -> loss1/fc (in-place)
I0403 15:43:56.272944 11120 net.cpp:141] Setting up loss1/drop_fc
I0403 15:43:56.272966 11120 net.cpp:148] Top shape: 24 1024 (24576)
I0403 15:43:56.272984 11120 net.cpp:156] Memory required for data: 946189344
I0403 15:43:56.273000 11120 layer_factory.hpp:77] Creating layer loss1/classifier_plantvillage
I0403 15:43:56.273022 11120 net.cpp:91] Creating Layer loss1/classifier_plantvillage
I0403 15:43:56.273039 11120 net.cpp:425] loss1/classifier_plantvillage <- loss1/fc
I0403 15:43:56.273056 11120 net.cpp:399] loss1/classifier_plantvillage -> loss1/classifier_plantvillage
I0403 15:43:56.273957 11120 net.cpp:141] Setting up loss1/classifier_plantvillage
I0403 15:43:56.273989 11120 net.cpp:148] Top shape: 24 38 (912)
I0403 15:43:56.274006 11120 net.cpp:156] Memory required for data: 946192992
I0403 15:43:56.274024 11120 layer_factory.hpp:77] Creating layer loss1/classifier_plantvillage_loss1/classifier_plantvillage_0_split
I0403 15:43:56.274041 11120 net.cpp:91] Creating Layer loss1/classifier_plantvillage_loss1/classifier_plantvillage_0_split
I0403 15:43:56.274056 11120 net.cpp:425] loss1/classifier_plantvillage_loss1/classifier_plantvillage_0_split <- loss1/classifier_plantvillage
I0403 15:43:56.274075 11120 net.cpp:399] loss1/classifier_plantvillage_loss1/classifier_plantvillage_0_split -> loss1/classifier_plantvillage_loss1/classifier_plantvillage_0_split_0
I0403 15:43:56.274096 11120 net.cpp:399] loss1/classifier_plantvillage_loss1/classifier_plantvillage_0_split -> loss1/classifier_plantvillage_loss1/classifier_plantvillage_0_split_1
I0403 15:43:56.274117 11120 net.cpp:399] loss1/classifier_plantvillage_loss1/classifier_plantvillage_0_split -> loss1/classifier_plantvillage_loss1/classifier_plantvillage_0_split_2
I0403 15:43:56.274181 11120 net.cpp:141] Setting up loss1/classifier_plantvillage_loss1/classifier_plantvillage_0_split
I0403 15:43:56.274205 11120 net.cpp:148] Top shape: 24 38 (912)
I0403 15:43:56.274221 11120 net.cpp:148] Top shape: 24 38 (912)
I0403 15:43:56.274236 11120 net.cpp:148] Top shape: 24 38 (912)
I0403 15:43:56.274250 11120 net.cpp:156] Memory required for data: 946203936
I0403 15:43:56.274265 11120 layer_factory.hpp:77] Creating layer inception_4b/1x1
I0403 15:43:56.274283 11120 net.cpp:91] Creating Layer inception_4b/1x1
I0403 15:43:56.274313 11120 net.cpp:425] inception_4b/1x1 <- inception_4a/output_inception_4a/output_0_split_1
I0403 15:43:56.274338 11120 net.cpp:399] inception_4b/1x1 -> inception_4b/1x1
I0403 15:43:56.275933 11120 net.cpp:141] Setting up inception_4b/1x1
I0403 15:43:56.275959 11120 net.cpp:148] Top shape: 24 160 14 14 (752640)
I0403 15:43:56.275974 11120 net.cpp:156] Memory required for data: 949214496
I0403 15:43:56.275996 11120 layer_factory.hpp:77] Creating layer inception_4b/relu_1x1
I0403 15:43:56.276015 11120 net.cpp:91] Creating Layer inception_4b/relu_1x1
I0403 15:43:56.276031 11120 net.cpp:425] inception_4b/relu_1x1 <- inception_4b/1x1
I0403 15:43:56.276051 11120 net.cpp:386] inception_4b/relu_1x1 -> inception_4b/1x1 (in-place)
I0403 15:43:56.276226 11120 net.cpp:141] Setting up inception_4b/relu_1x1
I0403 15:43:56.276249 11120 net.cpp:148] Top shape: 24 160 14 14 (752640)
I0403 15:43:56.276263 11120 net.cpp:156] Memory required for data: 952225056
I0403 15:43:56.276278 11120 layer_factory.hpp:77] Creating layer inception_4b/3x3_reduce
I0403 15:43:56.276298 11120 net.cpp:91] Creating Layer inception_4b/3x3_reduce
I0403 15:43:56.276315 11120 net.cpp:425] inception_4b/3x3_reduce <- inception_4a/output_inception_4a/output_0_split_2
I0403 15:43:56.276336 11120 net.cpp:399] inception_4b/3x3_reduce -> inception_4b/3x3_reduce
I0403 15:43:56.277647 11120 net.cpp:141] Setting up inception_4b/3x3_reduce
I0403 15:43:56.277673 11120 net.cpp:148] Top shape: 24 112 14 14 (526848)
I0403 15:43:56.277689 11120 net.cpp:156] Memory required for data: 954332448
I0403 15:43:56.277706 11120 layer_factory.hpp:77] Creating layer inception_4b/relu_3x3_reduce
I0403 15:43:56.277727 11120 net.cpp:91] Creating Layer inception_4b/relu_3x3_reduce
I0403 15:43:56.277745 11120 net.cpp:425] inception_4b/relu_3x3_reduce <- inception_4b/3x3_reduce
I0403 15:43:56.277761 11120 net.cpp:386] inception_4b/relu_3x3_reduce -> inception_4b/3x3_reduce (in-place)
I0403 15:43:56.278041 11120 net.cpp:141] Setting up inception_4b/relu_3x3_reduce
I0403 15:43:56.278066 11120 net.cpp:148] Top shape: 24 112 14 14 (526848)
I0403 15:43:56.278082 11120 net.cpp:156] Memory required for data: 956439840
I0403 15:43:56.278097 11120 layer_factory.hpp:77] Creating layer inception_4b/3x3
I0403 15:43:56.278118 11120 net.cpp:91] Creating Layer inception_4b/3x3
I0403 15:43:56.278136 11120 net.cpp:425] inception_4b/3x3 <- inception_4b/3x3_reduce
I0403 15:43:56.278156 11120 net.cpp:399] inception_4b/3x3 -> inception_4b/3x3
I0403 15:43:56.281146 11120 net.cpp:141] Setting up inception_4b/3x3
I0403 15:43:56.281186 11120 net.cpp:148] Top shape: 24 224 14 14 (1053696)
I0403 15:43:56.281205 11120 net.cpp:156] Memory required for data: 960654624
I0403 15:43:56.281224 11120 layer_factory.hpp:77] Creating layer inception_4b/relu_3x3
I0403 15:43:56.281242 11120 net.cpp:91] Creating Layer inception_4b/relu_3x3
I0403 15:43:56.281260 11120 net.cpp:425] inception_4b/relu_3x3 <- inception_4b/3x3
I0403 15:43:56.281276 11120 net.cpp:386] inception_4b/relu_3x3 -> inception_4b/3x3 (in-place)
I0403 15:43:56.281457 11120 net.cpp:141] Setting up inception_4b/relu_3x3
I0403 15:43:56.281491 11120 net.cpp:148] Top shape: 24 224 14 14 (1053696)
I0403 15:43:56.281507 11120 net.cpp:156] Memory required for data: 964869408
I0403 15:43:56.281522 11120 layer_factory.hpp:77] Creating layer inception_4b/5x5_reduce
I0403 15:43:56.281545 11120 net.cpp:91] Creating Layer inception_4b/5x5_reduce
I0403 15:43:56.281563 11120 net.cpp:425] inception_4b/5x5_reduce <- inception_4a/output_inception_4a/output_0_split_3
I0403 15:43:56.281584 11120 net.cpp:399] inception_4b/5x5_reduce -> inception_4b/5x5_reduce
I0403 15:43:56.282675 11120 net.cpp:141] Setting up inception_4b/5x5_reduce
I0403 15:43:56.282701 11120 net.cpp:148] Top shape: 24 24 14 14 (112896)
I0403 15:43:56.282717 11120 net.cpp:156] Memory required for data: 965320992
I0403 15:43:56.282735 11120 layer_factory.hpp:77] Creating layer inception_4b/relu_5x5_reduce
I0403 15:43:56.282757 11120 net.cpp:91] Creating Layer inception_4b/relu_5x5_reduce
I0403 15:43:56.282788 11120 net.cpp:425] inception_4b/relu_5x5_reduce <- inception_4b/5x5_reduce
I0403 15:43:56.282806 11120 net.cpp:386] inception_4b/relu_5x5_reduce -> inception_4b/5x5_reduce (in-place)
I0403 15:43:56.282992 11120 net.cpp:141] Setting up inception_4b/relu_5x5_reduce
I0403 15:43:56.283018 11120 net.cpp:148] Top shape: 24 24 14 14 (112896)
I0403 15:43:56.283033 11120 net.cpp:156] Memory required for data: 965772576
I0403 15:43:56.283048 11120 layer_factory.hpp:77] Creating layer inception_4b/5x5
I0403 15:43:56.283076 11120 net.cpp:91] Creating Layer inception_4b/5x5
I0403 15:43:56.283093 11120 net.cpp:425] inception_4b/5x5 <- inception_4b/5x5_reduce
I0403 15:43:56.283113 11120 net.cpp:399] inception_4b/5x5 -> inception_4b/5x5
I0403 15:43:56.284343 11120 net.cpp:141] Setting up inception_4b/5x5
I0403 15:43:56.284370 11120 net.cpp:148] Top shape: 24 64 14 14 (301056)
I0403 15:43:56.284387 11120 net.cpp:156] Memory required for data: 966976800
I0403 15:43:56.284405 11120 layer_factory.hpp:77] Creating layer inception_4b/relu_5x5
I0403 15:43:56.284423 11120 net.cpp:91] Creating Layer inception_4b/relu_5x5
I0403 15:43:56.284440 11120 net.cpp:425] inception_4b/relu_5x5 <- inception_4b/5x5
I0403 15:43:56.284459 11120 net.cpp:386] inception_4b/relu_5x5 -> inception_4b/5x5 (in-place)
I0403 15:43:56.284746 11120 net.cpp:141] Setting up inception_4b/relu_5x5
I0403 15:43:56.284773 11120 net.cpp:148] Top shape: 24 64 14 14 (301056)
I0403 15:43:56.284788 11120 net.cpp:156] Memory required for data: 968181024
I0403 15:43:56.284802 11120 layer_factory.hpp:77] Creating layer inception_4b/pool
I0403 15:43:56.284821 11120 net.cpp:91] Creating Layer inception_4b/pool
I0403 15:43:56.284837 11120 net.cpp:425] inception_4b/pool <- inception_4a/output_inception_4a/output_0_split_4
I0403 15:43:56.284859 11120 net.cpp:399] inception_4b/pool -> inception_4b/pool
I0403 15:43:56.284924 11120 net.cpp:141] Setting up inception_4b/pool
I0403 15:43:56.284948 11120 net.cpp:148] Top shape: 24 512 14 14 (2408448)
I0403 15:43:56.284962 11120 net.cpp:156] Memory required for data: 977814816
I0403 15:43:56.284981 11120 layer_factory.hpp:77] Creating layer inception_4b/pool_proj
I0403 15:43:56.285006 11120 net.cpp:91] Creating Layer inception_4b/pool_proj
I0403 15:43:56.285024 11120 net.cpp:425] inception_4b/pool_proj <- inception_4b/pool
I0403 15:43:56.285043 11120 net.cpp:399] inception_4b/pool_proj -> inception_4b/pool_proj
I0403 15:43:56.286265 11120 net.cpp:141] Setting up inception_4b/pool_proj
I0403 15:43:56.286293 11120 net.cpp:148] Top shape: 24 64 14 14 (301056)
I0403 15:43:56.286309 11120 net.cpp:156] Memory required for data: 979019040
I0403 15:43:56.286326 11120 layer_factory.hpp:77] Creating layer inception_4b/relu_pool_proj
I0403 15:43:56.286347 11120 net.cpp:91] Creating Layer inception_4b/relu_pool_proj
I0403 15:43:56.286365 11120 net.cpp:425] inception_4b/relu_pool_proj <- inception_4b/pool_proj
I0403 15:43:56.286382 11120 net.cpp:386] inception_4b/relu_pool_proj -> inception_4b/pool_proj (in-place)
I0403 15:43:56.286564 11120 net.cpp:141] Setting up inception_4b/relu_pool_proj
I0403 15:43:56.286589 11120 net.cpp:148] Top shape: 24 64 14 14 (301056)
I0403 15:43:56.286607 11120 net.cpp:156] Memory required for data: 980223264
I0403 15:43:56.286623 11120 layer_factory.hpp:77] Creating layer inception_4b/output
I0403 15:43:56.286640 11120 net.cpp:91] Creating Layer inception_4b/output
I0403 15:43:56.286656 11120 net.cpp:425] inception_4b/output <- inception_4b/1x1
I0403 15:43:56.286674 11120 net.cpp:425] inception_4b/output <- inception_4b/3x3
I0403 15:43:56.286689 11120 net.cpp:425] inception_4b/output <- inception_4b/5x5
I0403 15:43:56.286705 11120 net.cpp:425] inception_4b/output <- inception_4b/pool_proj
I0403 15:43:56.286721 11120 net.cpp:399] inception_4b/output -> inception_4b/output
I0403 15:43:56.286769 11120 net.cpp:141] Setting up inception_4b/output
I0403 15:43:56.286792 11120 net.cpp:148] Top shape: 24 512 14 14 (2408448)
I0403 15:43:56.286808 11120 net.cpp:156] Memory required for data: 989857056
I0403 15:43:56.286839 11120 layer_factory.hpp:77] Creating layer inception_4b/output_inception_4b/output_0_split
I0403 15:43:56.286857 11120 net.cpp:91] Creating Layer inception_4b/output_inception_4b/output_0_split
I0403 15:43:56.286872 11120 net.cpp:425] inception_4b/output_inception_4b/output_0_split <- inception_4b/output
I0403 15:43:56.286892 11120 net.cpp:399] inception_4b/output_inception_4b/output_0_split -> inception_4b/output_inception_4b/output_0_split_0
I0403 15:43:56.286913 11120 net.cpp:399] inception_4b/output_inception_4b/output_0_split -> inception_4b/output_inception_4b/output_0_split_1
I0403 15:43:56.286934 11120 net.cpp:399] inception_4b/output_inception_4b/output_0_split -> inception_4b/output_inception_4b/output_0_split_2
I0403 15:43:56.286954 11120 net.cpp:399] inception_4b/output_inception_4b/output_0_split -> inception_4b/output_inception_4b/output_0_split_3
I0403 15:43:56.287042 11120 net.cpp:141] Setting up inception_4b/output_inception_4b/output_0_split
I0403 15:43:56.287065 11120 net.cpp:148] Top shape: 24 512 14 14 (2408448)
I0403 15:43:56.287081 11120 net.cpp:148] Top shape: 24 512 14 14 (2408448)
I0403 15:43:56.287097 11120 net.cpp:148] Top shape: 24 512 14 14 (2408448)
I0403 15:43:56.287113 11120 net.cpp:148] Top shape: 24 512 14 14 (2408448)
I0403 15:43:56.287127 11120 net.cpp:156] Memory required for data: 1028392224
I0403 15:43:56.287142 11120 layer_factory.hpp:77] Creating layer inception_4c/1x1
I0403 15:43:56.287163 11120 net.cpp:91] Creating Layer inception_4c/1x1
I0403 15:43:56.287180 11120 net.cpp:425] inception_4c/1x1 <- inception_4b/output_inception_4b/output_0_split_0
I0403 15:43:56.287201 11120 net.cpp:399] inception_4c/1x1 -> inception_4c/1x1
I0403 15:43:56.288684 11120 net.cpp:141] Setting up inception_4c/1x1
I0403 15:43:56.288715 11120 net.cpp:148] Top shape: 24 128 14 14 (602112)
I0403 15:43:56.288733 11120 net.cpp:156] Memory required for data: 1030800672
I0403 15:43:56.288750 11120 layer_factory.hpp:77] Creating layer inception_4c/relu_1x1
I0403 15:43:56.288769 11120 net.cpp:91] Creating Layer inception_4c/relu_1x1
I0403 15:43:56.288784 11120 net.cpp:425] inception_4c/relu_1x1 <- inception_4c/1x1
I0403 15:43:56.288802 11120 net.cpp:386] inception_4c/relu_1x1 -> inception_4c/1x1 (in-place)
I0403 15:43:56.288993 11120 net.cpp:141] Setting up inception_4c/relu_1x1
I0403 15:43:56.289021 11120 net.cpp:148] Top shape: 24 128 14 14 (602112)
I0403 15:43:56.289036 11120 net.cpp:156] Memory required for data: 1033209120
I0403 15:43:56.289052 11120 layer_factory.hpp:77] Creating layer inception_4c/3x3_reduce
I0403 15:43:56.289073 11120 net.cpp:91] Creating Layer inception_4c/3x3_reduce
I0403 15:43:56.289091 11120 net.cpp:425] inception_4c/3x3_reduce <- inception_4b/output_inception_4b/output_0_split_1
I0403 15:43:56.289114 11120 net.cpp:399] inception_4c/3x3_reduce -> inception_4c/3x3_reduce
I0403 15:43:56.291080 11120 net.cpp:141] Setting up inception_4c/3x3_reduce
I0403 15:43:56.291110 11120 net.cpp:148] Top shape: 24 128 14 14 (602112)
I0403 15:43:56.291126 11120 net.cpp:156] Memory required for data: 1035617568
I0403 15:43:56.291144 11120 layer_factory.hpp:77] Creating layer inception_4c/relu_3x3_reduce
I0403 15:43:56.291162 11120 net.cpp:91] Creating Layer inception_4c/relu_3x3_reduce
I0403 15:43:56.291182 11120 net.cpp:425] inception_4c/relu_3x3_reduce <- inception_4c/3x3_reduce
I0403 15:43:56.291200 11120 net.cpp:386] inception_4c/relu_3x3_reduce -> inception_4c/3x3_reduce (in-place)
I0403 15:43:56.291488 11120 net.cpp:141] Setting up inception_4c/relu_3x3_reduce
I0403 15:43:56.291515 11120 net.cpp:148] Top shape: 24 128 14 14 (602112)
I0403 15:43:56.291530 11120 net.cpp:156] Memory required for data: 1038026016
I0403 15:43:56.291546 11120 layer_factory.hpp:77] Creating layer inception_4c/3x3
I0403 15:43:56.291568 11120 net.cpp:91] Creating Layer inception_4c/3x3
I0403 15:43:56.291586 11120 net.cpp:425] inception_4c/3x3 <- inception_4c/3x3_reduce
I0403 15:43:56.291609 11120 net.cpp:399] inception_4c/3x3 -> inception_4c/3x3
I0403 15:43:56.295233 11120 net.cpp:141] Setting up inception_4c/3x3
I0403 15:43:56.295277 11120 net.cpp:148] Top shape: 24 256 14 14 (1204224)
I0403 15:43:56.295294 11120 net.cpp:156] Memory required for data: 1042842912
I0403 15:43:56.295325 11120 layer_factory.hpp:77] Creating layer inception_4c/relu_3x3
I0403 15:43:56.295346 11120 net.cpp:91] Creating Layer inception_4c/relu_3x3
I0403 15:43:56.295361 11120 net.cpp:425] inception_4c/relu_3x3 <- inception_4c/3x3
I0403 15:43:56.295382 11120 net.cpp:386] inception_4c/relu_3x3 -> inception_4c/3x3 (in-place)
I0403 15:43:56.295567 11120 net.cpp:141] Setting up inception_4c/relu_3x3
I0403 15:43:56.295593 11120 net.cpp:148] Top shape: 24 256 14 14 (1204224)
I0403 15:43:56.295608 11120 net.cpp:156] Memory required for data: 1047659808
I0403 15:43:56.295621 11120 layer_factory.hpp:77] Creating layer inception_4c/5x5_reduce
I0403 15:43:56.295644 11120 net.cpp:91] Creating Layer inception_4c/5x5_reduce
I0403 15:43:56.295661 11120 net.cpp:425] inception_4c/5x5_reduce <- inception_4b/output_inception_4b/output_0_split_2
I0403 15:43:56.295682 11120 net.cpp:399] inception_4c/5x5_reduce -> inception_4c/5x5_reduce
I0403 15:43:56.296787 11120 net.cpp:141] Setting up inception_4c/5x5_reduce
I0403 15:43:56.296813 11120 net.cpp:148] Top shape: 24 24 14 14 (112896)
I0403 15:43:56.296829 11120 net.cpp:156] Memory required for data: 1048111392
I0403 15:43:56.296849 11120 layer_factory.hpp:77] Creating layer inception_4c/relu_5x5_reduce
I0403 15:43:56.296869 11120 net.cpp:91] Creating Layer inception_4c/relu_5x5_reduce
I0403 15:43:56.296886 11120 net.cpp:425] inception_4c/relu_5x5_reduce <- inception_4c/5x5_reduce
I0403 15:43:56.296903 11120 net.cpp:386] inception_4c/relu_5x5_reduce -> inception_4c/5x5_reduce (in-place)
I0403 15:43:56.297102 11120 net.cpp:141] Setting up inception_4c/relu_5x5_reduce
I0403 15:43:56.297127 11120 net.cpp:148] Top shape: 24 24 14 14 (112896)
I0403 15:43:56.297142 11120 net.cpp:156] Memory required for data: 1048562976
I0403 15:43:56.297157 11120 layer_factory.hpp:77] Creating layer inception_4c/5x5
I0403 15:43:56.297188 11120 net.cpp:91] Creating Layer inception_4c/5x5
I0403 15:43:56.297204 11120 net.cpp:425] inception_4c/5x5 <- inception_4c/5x5_reduce
I0403 15:43:56.297222 11120 net.cpp:399] inception_4c/5x5 -> inception_4c/5x5
I0403 15:43:56.298439 11120 net.cpp:141] Setting up inception_4c/5x5
I0403 15:43:56.298466 11120 net.cpp:148] Top shape: 24 64 14 14 (301056)
I0403 15:43:56.298481 11120 net.cpp:156] Memory required for data: 1049767200
I0403 15:43:56.298498 11120 layer_factory.hpp:77] Creating layer inception_4c/relu_5x5
I0403 15:43:56.298519 11120 net.cpp:91] Creating Layer inception_4c/relu_5x5
I0403 15:43:56.298535 11120 net.cpp:425] inception_4c/relu_5x5 <- inception_4c/5x5
I0403 15:43:56.298552 11120 net.cpp:386] inception_4c/relu_5x5 -> inception_4c/5x5 (in-place)
I0403 15:43:56.298837 11120 net.cpp:141] Setting up inception_4c/relu_5x5
I0403 15:43:56.298862 11120 net.cpp:148] Top shape: 24 64 14 14 (301056)
I0403 15:43:56.298880 11120 net.cpp:156] Memory required for data: 1050971424
I0403 15:43:56.298895 11120 layer_factory.hpp:77] Creating layer inception_4c/pool
I0403 15:43:56.298913 11120 net.cpp:91] Creating Layer inception_4c/pool
I0403 15:43:56.298928 11120 net.cpp:425] inception_4c/pool <- inception_4b/output_inception_4b/output_0_split_3
I0403 15:43:56.298945 11120 net.cpp:399] inception_4c/pool -> inception_4c/pool
I0403 15:43:56.299021 11120 net.cpp:141] Setting up inception_4c/pool
I0403 15:43:56.299044 11120 net.cpp:148] Top shape: 24 512 14 14 (2408448)
I0403 15:43:56.299059 11120 net.cpp:156] Memory required for data: 1060605216
I0403 15:43:56.299073 11120 layer_factory.hpp:77] Creating layer inception_4c/pool_proj
I0403 15:43:56.299094 11120 net.cpp:91] Creating Layer inception_4c/pool_proj
I0403 15:43:56.299111 11120 net.cpp:425] inception_4c/pool_proj <- inception_4c/pool
I0403 15:43:56.299131 11120 net.cpp:399] inception_4c/pool_proj -> inception_4c/pool_proj
I0403 15:43:56.300325 11120 net.cpp:141] Setting up inception_4c/pool_proj
I0403 15:43:56.300353 11120 net.cpp:148] Top shape: 24 64 14 14 (301056)
I0403 15:43:56.300381 11120 net.cpp:156] Memory required for data: 1061809440
I0403 15:43:56.300400 11120 layer_factory.hpp:77] Creating layer inception_4c/relu_pool_proj
I0403 15:43:56.300417 11120 net.cpp:91] Creating Layer inception_4c/relu_pool_proj
I0403 15:43:56.300433 11120 net.cpp:425] inception_4c/relu_pool_proj <- inception_4c/pool_proj
I0403 15:43:56.300454 11120 net.cpp:386] inception_4c/relu_pool_proj -> inception_4c/pool_proj (in-place)
I0403 15:43:56.300632 11120 net.cpp:141] Setting up inception_4c/relu_pool_proj
I0403 15:43:56.300657 11120 net.cpp:148] Top shape: 24 64 14 14 (301056)
I0403 15:43:56.300671 11120 net.cpp:156] Memory required for data: 1063013664
I0403 15:43:56.300686 11120 layer_factory.hpp:77] Creating layer inception_4c/output
I0403 15:43:56.300704 11120 net.cpp:91] Creating Layer inception_4c/output
I0403 15:43:56.300721 11120 net.cpp:425] inception_4c/output <- inception_4c/1x1
I0403 15:43:56.300737 11120 net.cpp:425] inception_4c/output <- inception_4c/3x3
I0403 15:43:56.300752 11120 net.cpp:425] inception_4c/output <- inception_4c/5x5
I0403 15:43:56.300768 11120 net.cpp:425] inception_4c/output <- inception_4c/pool_proj
I0403 15:43:56.300784 11120 net.cpp:399] inception_4c/output -> inception_4c/output
I0403 15:43:56.300832 11120 net.cpp:141] Setting up inception_4c/output
I0403 15:43:56.300854 11120 net.cpp:148] Top shape: 24 512 14 14 (2408448)
I0403 15:43:56.300868 11120 net.cpp:156] Memory required for data: 1072647456
I0403 15:43:56.300881 11120 layer_factory.hpp:77] Creating layer inception_4c/output_inception_4c/output_0_split
I0403 15:43:56.300899 11120 net.cpp:91] Creating Layer inception_4c/output_inception_4c/output_0_split
I0403 15:43:56.300912 11120 net.cpp:425] inception_4c/output_inception_4c/output_0_split <- inception_4c/output
I0403 15:43:56.300931 11120 net.cpp:399] inception_4c/output_inception_4c/output_0_split -> inception_4c/output_inception_4c/output_0_split_0
I0403 15:43:56.300952 11120 net.cpp:399] inception_4c/output_inception_4c/output_0_split -> inception_4c/output_inception_4c/output_0_split_1
I0403 15:43:56.300972 11120 net.cpp:399] inception_4c/output_inception_4c/output_0_split -> inception_4c/output_inception_4c/output_0_split_2
I0403 15:43:56.300997 11120 net.cpp:399] inception_4c/output_inception_4c/output_0_split -> inception_4c/output_inception_4c/output_0_split_3
I0403 15:43:56.301080 11120 net.cpp:141] Setting up inception_4c/output_inception_4c/output_0_split
I0403 15:43:56.301103 11120 net.cpp:148] Top shape: 24 512 14 14 (2408448)
I0403 15:43:56.301118 11120 net.cpp:148] Top shape: 24 512 14 14 (2408448)
I0403 15:43:56.301134 11120 net.cpp:148] Top shape: 24 512 14 14 (2408448)
I0403 15:43:56.301148 11120 net.cpp:148] Top shape: 24 512 14 14 (2408448)
I0403 15:43:56.301162 11120 net.cpp:156] Memory required for data: 1111182624
I0403 15:43:56.301175 11120 layer_factory.hpp:77] Creating layer inception_4d/1x1
I0403 15:43:56.301198 11120 net.cpp:91] Creating Layer inception_4d/1x1
I0403 15:43:56.301214 11120 net.cpp:425] inception_4d/1x1 <- inception_4c/output_inception_4c/output_0_split_0
I0403 15:43:56.301235 11120 net.cpp:399] inception_4d/1x1 -> inception_4d/1x1
I0403 15:43:56.302597 11120 net.cpp:141] Setting up inception_4d/1x1
I0403 15:43:56.302628 11120 net.cpp:148] Top shape: 24 112 14 14 (526848)
I0403 15:43:56.302645 11120 net.cpp:156] Memory required for data: 1113290016
I0403 15:43:56.302664 11120 layer_factory.hpp:77] Creating layer inception_4d/relu_1x1
I0403 15:43:56.302681 11120 net.cpp:91] Creating Layer inception_4d/relu_1x1
I0403 15:43:56.302697 11120 net.cpp:425] inception_4d/relu_1x1 <- inception_4d/1x1
I0403 15:43:56.302716 11120 net.cpp:386] inception_4d/relu_1x1 -> inception_4d/1x1 (in-place)
I0403 15:43:56.302898 11120 net.cpp:141] Setting up inception_4d/relu_1x1
I0403 15:43:56.302922 11120 net.cpp:148] Top shape: 24 112 14 14 (526848)
I0403 15:43:56.302937 11120 net.cpp:156] Memory required for data: 1115397408
I0403 15:43:56.302952 11120 layer_factory.hpp:77] Creating layer inception_4d/3x3_reduce
I0403 15:43:56.302990 11120 net.cpp:91] Creating Layer inception_4d/3x3_reduce
I0403 15:43:56.303010 11120 net.cpp:425] inception_4d/3x3_reduce <- inception_4c/output_inception_4c/output_0_split_1
I0403 15:43:56.303030 11120 net.cpp:399] inception_4d/3x3_reduce -> inception_4d/3x3_reduce
I0403 15:43:56.304513 11120 net.cpp:141] Setting up inception_4d/3x3_reduce
I0403 15:43:56.304539 11120 net.cpp:148] Top shape: 24 144 14 14 (677376)
I0403 15:43:56.304554 11120 net.cpp:156] Memory required for data: 1118106912
I0403 15:43:56.304572 11120 layer_factory.hpp:77] Creating layer inception_4d/relu_3x3_reduce
I0403 15:43:56.304592 11120 net.cpp:91] Creating Layer inception_4d/relu_3x3_reduce
I0403 15:43:56.304610 11120 net.cpp:425] inception_4d/relu_3x3_reduce <- inception_4d/3x3_reduce
I0403 15:43:56.304626 11120 net.cpp:386] inception_4d/relu_3x3_reduce -> inception_4d/3x3_reduce (in-place)
I0403 15:43:56.304910 11120 net.cpp:141] Setting up inception_4d/relu_3x3_reduce
I0403 15:43:56.304935 11120 net.cpp:148] Top shape: 24 144 14 14 (677376)
I0403 15:43:56.304950 11120 net.cpp:156] Memory required for data: 1120816416
I0403 15:43:56.304965 11120 layer_factory.hpp:77] Creating layer inception_4d/3x3
I0403 15:43:56.304992 11120 net.cpp:91] Creating Layer inception_4d/3x3
I0403 15:43:56.305011 11120 net.cpp:425] inception_4d/3x3 <- inception_4d/3x3_reduce
I0403 15:43:56.305029 11120 net.cpp:399] inception_4d/3x3 -> inception_4d/3x3
I0403 15:43:56.309222 11120 net.cpp:141] Setting up inception_4d/3x3
I0403 15:43:56.309252 11120 net.cpp:148] Top shape: 24 288 14 14 (1354752)
I0403 15:43:56.309268 11120 net.cpp:156] Memory required for data: 1126235424
I0403 15:43:56.309288 11120 layer_factory.hpp:77] Creating layer inception_4d/relu_3x3
I0403 15:43:56.309304 11120 net.cpp:91] Creating Layer inception_4d/relu_3x3
I0403 15:43:56.309319 11120 net.cpp:425] inception_4d/relu_3x3 <- inception_4d/3x3
I0403 15:43:56.309339 11120 net.cpp:386] inception_4d/relu_3x3 -> inception_4d/3x3 (in-place)
I0403 15:43:56.309522 11120 net.cpp:141] Setting up inception_4d/relu_3x3
I0403 15:43:56.309547 11120 net.cpp:148] Top shape: 24 288 14 14 (1354752)
I0403 15:43:56.309561 11120 net.cpp:156] Memory required for data: 1131654432
I0403 15:43:56.309576 11120 layer_factory.hpp:77] Creating layer inception_4d/5x5_reduce
I0403 15:43:56.309597 11120 net.cpp:91] Creating Layer inception_4d/5x5_reduce
I0403 15:43:56.309613 11120 net.cpp:425] inception_4d/5x5_reduce <- inception_4c/output_inception_4c/output_0_split_2
I0403 15:43:56.309634 11120 net.cpp:399] inception_4d/5x5_reduce -> inception_4d/5x5_reduce
I0403 15:43:56.310765 11120 net.cpp:141] Setting up inception_4d/5x5_reduce
I0403 15:43:56.310792 11120 net.cpp:148] Top shape: 24 32 14 14 (150528)
I0403 15:43:56.310807 11120 net.cpp:156] Memory required for data: 1132256544
I0403 15:43:56.310825 11120 layer_factory.hpp:77] Creating layer inception_4d/relu_5x5_reduce
I0403 15:43:56.310843 11120 net.cpp:91] Creating Layer inception_4d/relu_5x5_reduce
I0403 15:43:56.310858 11120 net.cpp:425] inception_4d/relu_5x5_reduce <- inception_4d/5x5_reduce
I0403 15:43:56.310878 11120 net.cpp:386] inception_4d/relu_5x5_reduce -> inception_4d/5x5_reduce (in-place)
I0403 15:43:56.311067 11120 net.cpp:141] Setting up inception_4d/relu_5x5_reduce
I0403 15:43:56.311091 11120 net.cpp:148] Top shape: 24 32 14 14 (150528)
I0403 15:43:56.311105 11120 net.cpp:156] Memory required for data: 1132858656
I0403 15:43:56.311120 11120 layer_factory.hpp:77] Creating layer inception_4d/5x5
I0403 15:43:56.311141 11120 net.cpp:91] Creating Layer inception_4d/5x5
I0403 15:43:56.311158 11120 net.cpp:425] inception_4d/5x5 <- inception_4d/5x5_reduce
I0403 15:43:56.311179 11120 net.cpp:399] inception_4d/5x5 -> inception_4d/5x5
I0403 15:43:56.312629 11120 net.cpp:141] Setting up inception_4d/5x5
I0403 15:43:56.312656 11120 net.cpp:148] Top shape: 24 64 14 14 (301056)
I0403 15:43:56.312671 11120 net.cpp:156] Memory required for data: 1134062880
I0403 15:43:56.312690 11120 layer_factory.hpp:77] Creating layer inception_4d/relu_5x5
I0403 15:43:56.312723 11120 net.cpp:91] Creating Layer inception_4d/relu_5x5
I0403 15:43:56.312741 11120 net.cpp:425] inception_4d/relu_5x5 <- inception_4d/5x5
I0403 15:43:56.312758 11120 net.cpp:386] inception_4d/relu_5x5 -> inception_4d/5x5 (in-place)
I0403 15:43:56.313055 11120 net.cpp:141] Setting up inception_4d/relu_5x5
I0403 15:43:56.313081 11120 net.cpp:148] Top shape: 24 64 14 14 (301056)
I0403 15:43:56.313096 11120 net.cpp:156] Memory required for data: 1135267104
I0403 15:43:56.313109 11120 layer_factory.hpp:77] Creating layer inception_4d/pool
I0403 15:43:56.313128 11120 net.cpp:91] Creating Layer inception_4d/pool
I0403 15:43:56.313145 11120 net.cpp:425] inception_4d/pool <- inception_4c/output_inception_4c/output_0_split_3
I0403 15:43:56.313163 11120 net.cpp:399] inception_4d/pool -> inception_4d/pool
I0403 15:43:56.313233 11120 net.cpp:141] Setting up inception_4d/pool
I0403 15:43:56.313256 11120 net.cpp:148] Top shape: 24 512 14 14 (2408448)
I0403 15:43:56.313271 11120 net.cpp:156] Memory required for data: 1144900896
I0403 15:43:56.313285 11120 layer_factory.hpp:77] Creating layer inception_4d/pool_proj
I0403 15:43:56.313307 11120 net.cpp:91] Creating Layer inception_4d/pool_proj
I0403 15:43:56.313324 11120 net.cpp:425] inception_4d/pool_proj <- inception_4d/pool
I0403 15:43:56.313344 11120 net.cpp:399] inception_4d/pool_proj -> inception_4d/pool_proj
I0403 15:43:56.315099 11120 net.cpp:141] Setting up inception_4d/pool_proj
I0403 15:43:56.315129 11120 net.cpp:148] Top shape: 24 64 14 14 (301056)
I0403 15:43:56.315145 11120 net.cpp:156] Memory required for data: 1146105120
I0403 15:43:56.315162 11120 layer_factory.hpp:77] Creating layer inception_4d/relu_pool_proj
I0403 15:43:56.315181 11120 net.cpp:91] Creating Layer inception_4d/relu_pool_proj
I0403 15:43:56.315197 11120 net.cpp:425] inception_4d/relu_pool_proj <- inception_4d/pool_proj
I0403 15:43:56.315217 11120 net.cpp:386] inception_4d/relu_pool_proj -> inception_4d/pool_proj (in-place)
I0403 15:43:56.315395 11120 net.cpp:141] Setting up inception_4d/relu_pool_proj
I0403 15:43:56.315420 11120 net.cpp:148] Top shape: 24 64 14 14 (301056)
I0403 15:43:56.315435 11120 net.cpp:156] Memory required for data: 1147309344
I0403 15:43:56.315449 11120 layer_factory.hpp:77] Creating layer inception_4d/output
I0403 15:43:56.315466 11120 net.cpp:91] Creating Layer inception_4d/output
I0403 15:43:56.315481 11120 net.cpp:425] inception_4d/output <- inception_4d/1x1
I0403 15:43:56.315497 11120 net.cpp:425] inception_4d/output <- inception_4d/3x3
I0403 15:43:56.315513 11120 net.cpp:425] inception_4d/output <- inception_4d/5x5
I0403 15:43:56.315529 11120 net.cpp:425] inception_4d/output <- inception_4d/pool_proj
I0403 15:43:56.315548 11120 net.cpp:399] inception_4d/output -> inception_4d/output
I0403 15:43:56.315598 11120 net.cpp:141] Setting up inception_4d/output
I0403 15:43:56.315620 11120 net.cpp:148] Top shape: 24 528 14 14 (2483712)
I0403 15:43:56.315634 11120 net.cpp:156] Memory required for data: 1157244192
I0403 15:43:56.315649 11120 layer_factory.hpp:77] Creating layer inception_4d/output_inception_4d/output_0_split
I0403 15:43:56.315665 11120 net.cpp:91] Creating Layer inception_4d/output_inception_4d/output_0_split
I0403 15:43:56.315680 11120 net.cpp:425] inception_4d/output_inception_4d/output_0_split <- inception_4d/output
I0403 15:43:56.315702 11120 net.cpp:399] inception_4d/output_inception_4d/output_0_split -> inception_4d/output_inception_4d/output_0_split_0
I0403 15:43:56.315724 11120 net.cpp:399] inception_4d/output_inception_4d/output_0_split -> inception_4d/output_inception_4d/output_0_split_1
I0403 15:43:56.315744 11120 net.cpp:399] inception_4d/output_inception_4d/output_0_split -> inception_4d/output_inception_4d/output_0_split_2
I0403 15:43:56.315764 11120 net.cpp:399] inception_4d/output_inception_4d/output_0_split -> inception_4d/output_inception_4d/output_0_split_3
I0403 15:43:56.315783 11120 net.cpp:399] inception_4d/output_inception_4d/output_0_split -> inception_4d/output_inception_4d/output_0_split_4
I0403 15:43:56.315883 11120 net.cpp:141] Setting up inception_4d/output_inception_4d/output_0_split
I0403 15:43:56.315920 11120 net.cpp:148] Top shape: 24 528 14 14 (2483712)
I0403 15:43:56.315937 11120 net.cpp:148] Top shape: 24 528 14 14 (2483712)
I0403 15:43:56.315953 11120 net.cpp:148] Top shape: 24 528 14 14 (2483712)
I0403 15:43:56.315968 11120 net.cpp:148] Top shape: 24 528 14 14 (2483712)
I0403 15:43:56.315989 11120 net.cpp:148] Top shape: 24 528 14 14 (2483712)
I0403 15:43:56.316004 11120 net.cpp:156] Memory required for data: 1206918432
I0403 15:43:56.316017 11120 layer_factory.hpp:77] Creating layer loss2/ave_pool
I0403 15:43:56.316035 11120 net.cpp:91] Creating Layer loss2/ave_pool
I0403 15:43:56.316051 11120 net.cpp:425] loss2/ave_pool <- inception_4d/output_inception_4d/output_0_split_0
I0403 15:43:56.316073 11120 net.cpp:399] loss2/ave_pool -> loss2/ave_pool
I0403 15:43:56.316395 11120 net.cpp:141] Setting up loss2/ave_pool
I0403 15:43:56.316422 11120 net.cpp:148] Top shape: 24 528 4 4 (202752)
I0403 15:43:56.316437 11120 net.cpp:156] Memory required for data: 1207729440
I0403 15:43:56.316452 11120 layer_factory.hpp:77] Creating layer loss2/conv
I0403 15:43:56.316483 11120 net.cpp:91] Creating Layer loss2/conv
I0403 15:43:56.316500 11120 net.cpp:425] loss2/conv <- loss2/ave_pool
I0403 15:43:56.316520 11120 net.cpp:399] loss2/conv -> loss2/conv
I0403 15:43:56.318457 11120 net.cpp:141] Setting up loss2/conv
I0403 15:43:56.318486 11120 net.cpp:148] Top shape: 24 128 4 4 (49152)
I0403 15:43:56.318502 11120 net.cpp:156] Memory required for data: 1207926048
I0403 15:43:56.318521 11120 layer_factory.hpp:77] Creating layer loss2/relu_conv
I0403 15:43:56.318541 11120 net.cpp:91] Creating Layer loss2/relu_conv
I0403 15:43:56.318558 11120 net.cpp:425] loss2/relu_conv <- loss2/conv
I0403 15:43:56.318575 11120 net.cpp:386] loss2/relu_conv -> loss2/conv (in-place)
I0403 15:43:56.318871 11120 net.cpp:141] Setting up loss2/relu_conv
I0403 15:43:56.318897 11120 net.cpp:148] Top shape: 24 128 4 4 (49152)
I0403 15:43:56.318913 11120 net.cpp:156] Memory required for data: 1208122656
I0403 15:43:56.318928 11120 layer_factory.hpp:77] Creating layer loss2/fc
I0403 15:43:56.318948 11120 net.cpp:91] Creating Layer loss2/fc
I0403 15:43:56.318965 11120 net.cpp:425] loss2/fc <- loss2/conv
I0403 15:43:56.318997 11120 net.cpp:399] loss2/fc -> loss2/fc
I0403 15:43:56.336705 11120 net.cpp:141] Setting up loss2/fc
I0403 15:43:56.336738 11120 net.cpp:148] Top shape: 24 1024 (24576)
I0403 15:43:56.336755 11120 net.cpp:156] Memory required for data: 1208220960
I0403 15:43:56.336772 11120 layer_factory.hpp:77] Creating layer loss2/relu_fc
I0403 15:43:56.336789 11120 net.cpp:91] Creating Layer loss2/relu_fc
I0403 15:43:56.336805 11120 net.cpp:425] loss2/relu_fc <- loss2/fc
I0403 15:43:56.336825 11120 net.cpp:386] loss2/relu_fc -> loss2/fc (in-place)
I0403 15:43:56.337123 11120 net.cpp:141] Setting up loss2/relu_fc
I0403 15:43:56.337149 11120 net.cpp:148] Top shape: 24 1024 (24576)
I0403 15:43:56.337163 11120 net.cpp:156] Memory required for data: 1208319264
I0403 15:43:56.337178 11120 layer_factory.hpp:77] Creating layer loss2/drop_fc
I0403 15:43:56.337195 11120 net.cpp:91] Creating Layer loss2/drop_fc
I0403 15:43:56.337213 11120 net.cpp:425] loss2/drop_fc <- loss2/fc
I0403 15:43:56.337231 11120 net.cpp:386] loss2/drop_fc -> loss2/fc (in-place)
I0403 15:43:56.337280 11120 net.cpp:141] Setting up loss2/drop_fc
I0403 15:43:56.337304 11120 net.cpp:148] Top shape: 24 1024 (24576)
I0403 15:43:56.337319 11120 net.cpp:156] Memory required for data: 1208417568
I0403 15:43:56.337332 11120 layer_factory.hpp:77] Creating layer loss2/classifier_plantvillage
I0403 15:43:56.337350 11120 net.cpp:91] Creating Layer loss2/classifier_plantvillage
I0403 15:43:56.337366 11120 net.cpp:425] loss2/classifier_plantvillage <- loss2/fc
I0403 15:43:56.337388 11120 net.cpp:399] loss2/classifier_plantvillage -> loss2/classifier_plantvillage
I0403 15:43:56.337785 11120 net.cpp:141] Setting up loss2/classifier_plantvillage
I0403 15:43:56.337808 11120 net.cpp:148] Top shape: 24 38 (912)
I0403 15:43:56.337839 11120 net.cpp:156] Memory required for data: 1208421216
I0403 15:43:56.337858 11120 layer_factory.hpp:77] Creating layer loss2/classifier_plantvillage_loss2/classifier_plantvillage_0_split
I0403 15:43:56.337878 11120 net.cpp:91] Creating Layer loss2/classifier_plantvillage_loss2/classifier_plantvillage_0_split
I0403 15:43:56.337895 11120 net.cpp:425] loss2/classifier_plantvillage_loss2/classifier_plantvillage_0_split <- loss2/classifier_plantvillage
I0403 15:43:56.337913 11120 net.cpp:399] loss2/classifier_plantvillage_loss2/classifier_plantvillage_0_split -> loss2/classifier_plantvillage_loss2/classifier_plantvillage_0_split_0
I0403 15:43:56.337931 11120 net.cpp:399] loss2/classifier_plantvillage_loss2/classifier_plantvillage_0_split -> loss2/classifier_plantvillage_loss2/classifier_plantvillage_0_split_1
I0403 15:43:56.337955 11120 net.cpp:399] loss2/classifier_plantvillage_loss2/classifier_plantvillage_0_split -> loss2/classifier_plantvillage_loss2/classifier_plantvillage_0_split_2
I0403 15:43:56.338035 11120 net.cpp:141] Setting up loss2/classifier_plantvillage_loss2/classifier_plantvillage_0_split
I0403 15:43:56.338058 11120 net.cpp:148] Top shape: 24 38 (912)
I0403 15:43:56.338074 11120 net.cpp:148] Top shape: 24 38 (912)
I0403 15:43:56.338089 11120 net.cpp:148] Top shape: 24 38 (912)
I0403 15:43:56.338102 11120 net.cpp:156] Memory required for data: 1208432160
I0403 15:43:56.338115 11120 layer_factory.hpp:77] Creating layer inception_4e/1x1
I0403 15:43:56.338136 11120 net.cpp:91] Creating Layer inception_4e/1x1
I0403 15:43:56.338153 11120 net.cpp:425] inception_4e/1x1 <- inception_4d/output_inception_4d/output_0_split_1
I0403 15:43:56.338172 11120 net.cpp:399] inception_4e/1x1 -> inception_4e/1x1
I0403 15:43:56.339989 11120 net.cpp:141] Setting up inception_4e/1x1
I0403 15:43:56.340018 11120 net.cpp:148] Top shape: 24 256 14 14 (1204224)
I0403 15:43:56.340034 11120 net.cpp:156] Memory required for data: 1213249056
I0403 15:43:56.340051 11120 layer_factory.hpp:77] Creating layer inception_4e/relu_1x1
I0403 15:43:56.340072 11120 net.cpp:91] Creating Layer inception_4e/relu_1x1
I0403 15:43:56.340090 11120 net.cpp:425] inception_4e/relu_1x1 <- inception_4e/1x1
I0403 15:43:56.340106 11120 net.cpp:386] inception_4e/relu_1x1 -> inception_4e/1x1 (in-place)
I0403 15:43:56.340409 11120 net.cpp:141] Setting up inception_4e/relu_1x1
I0403 15:43:56.340446 11120 net.cpp:148] Top shape: 24 256 14 14 (1204224)
I0403 15:43:56.340461 11120 net.cpp:156] Memory required for data: 1218065952
I0403 15:43:56.340476 11120 layer_factory.hpp:77] Creating layer inception_4e/3x3_reduce
I0403 15:43:56.340497 11120 net.cpp:91] Creating Layer inception_4e/3x3_reduce
I0403 15:43:56.340528 11120 net.cpp:425] inception_4e/3x3_reduce <- inception_4d/output_inception_4d/output_0_split_2
I0403 15:43:56.340549 11120 net.cpp:399] inception_4e/3x3_reduce -> inception_4e/3x3_reduce
I0403 15:43:56.342670 11120 net.cpp:141] Setting up inception_4e/3x3_reduce
I0403 15:43:56.342700 11120 net.cpp:148] Top shape: 24 160 14 14 (752640)
I0403 15:43:56.342715 11120 net.cpp:156] Memory required for data: 1221076512
I0403 15:43:56.342732 11120 layer_factory.hpp:77] Creating layer inception_4e/relu_3x3_reduce
I0403 15:43:56.342753 11120 net.cpp:91] Creating Layer inception_4e/relu_3x3_reduce
I0403 15:43:56.342770 11120 net.cpp:425] inception_4e/relu_3x3_reduce <- inception_4e/3x3_reduce
I0403 15:43:56.342787 11120 net.cpp:386] inception_4e/relu_3x3_reduce -> inception_4e/3x3_reduce (in-place)
I0403 15:43:56.342970 11120 net.cpp:141] Setting up inception_4e/relu_3x3_reduce
I0403 15:43:56.343001 11120 net.cpp:148] Top shape: 24 160 14 14 (752640)
I0403 15:43:56.343017 11120 net.cpp:156] Memory required for data: 1224087072
I0403 15:43:56.343031 11120 layer_factory.hpp:77] Creating layer inception_4e/3x3
I0403 15:43:56.343052 11120 net.cpp:91] Creating Layer inception_4e/3x3
I0403 15:43:56.343070 11120 net.cpp:425] inception_4e/3x3 <- inception_4e/3x3_reduce
I0403 15:43:56.343087 11120 net.cpp:399] inception_4e/3x3 -> inception_4e/3x3
I0403 15:43:56.348012 11120 net.cpp:141] Setting up inception_4e/3x3
I0403 15:43:56.348055 11120 net.cpp:148] Top shape: 24 320 14 14 (1505280)
I0403 15:43:56.348073 11120 net.cpp:156] Memory required for data: 1230108192
I0403 15:43:56.348090 11120 layer_factory.hpp:77] Creating layer inception_4e/relu_3x3
I0403 15:43:56.348109 11120 net.cpp:91] Creating Layer inception_4e/relu_3x3
I0403 15:43:56.348124 11120 net.cpp:425] inception_4e/relu_3x3 <- inception_4e/3x3
I0403 15:43:56.348140 11120 net.cpp:386] inception_4e/relu_3x3 -> inception_4e/3x3 (in-place)
I0403 15:43:56.348692 11120 net.cpp:141] Setting up inception_4e/relu_3x3
I0403 15:43:56.348719 11120 net.cpp:148] Top shape: 24 320 14 14 (1505280)
I0403 15:43:56.348736 11120 net.cpp:156] Memory required for data: 1236129312
I0403 15:43:56.348749 11120 layer_factory.hpp:77] Creating layer inception_4e/5x5_reduce
I0403 15:43:56.348773 11120 net.cpp:91] Creating Layer inception_4e/5x5_reduce
I0403 15:43:56.348790 11120 net.cpp:425] inception_4e/5x5_reduce <- inception_4d/output_inception_4d/output_0_split_3
I0403 15:43:56.348811 11120 net.cpp:399] inception_4e/5x5_reduce -> inception_4e/5x5_reduce
I0403 15:43:56.349891 11120 net.cpp:141] Setting up inception_4e/5x5_reduce
I0403 15:43:56.349917 11120 net.cpp:148] Top shape: 24 32 14 14 (150528)
I0403 15:43:56.349933 11120 net.cpp:156] Memory required for data: 1236731424
I0403 15:43:56.349951 11120 layer_factory.hpp:77] Creating layer inception_4e/relu_5x5_reduce
I0403 15:43:56.349970 11120 net.cpp:91] Creating Layer inception_4e/relu_5x5_reduce
I0403 15:43:56.349992 11120 net.cpp:425] inception_4e/relu_5x5_reduce <- inception_4e/5x5_reduce
I0403 15:43:56.350009 11120 net.cpp:386] inception_4e/relu_5x5_reduce -> inception_4e/5x5_reduce (in-place)
I0403 15:43:56.350304 11120 net.cpp:141] Setting up inception_4e/relu_5x5_reduce
I0403 15:43:56.350329 11120 net.cpp:148] Top shape: 24 32 14 14 (150528)
I0403 15:43:56.350344 11120 net.cpp:156] Memory required for data: 1237333536
I0403 15:43:56.350359 11120 layer_factory.hpp:77] Creating layer inception_4e/5x5
I0403 15:43:56.350399 11120 net.cpp:91] Creating Layer inception_4e/5x5
I0403 15:43:56.350417 11120 net.cpp:425] inception_4e/5x5 <- inception_4e/5x5_reduce
I0403 15:43:56.350436 11120 net.cpp:399] inception_4e/5x5 -> inception_4e/5x5
I0403 15:43:56.352253 11120 net.cpp:141] Setting up inception_4e/5x5
I0403 15:43:56.352280 11120 net.cpp:148] Top shape: 24 128 14 14 (602112)
I0403 15:43:56.352295 11120 net.cpp:156] Memory required for data: 1239741984
I0403 15:43:56.352314 11120 layer_factory.hpp:77] Creating layer inception_4e/relu_5x5
I0403 15:43:56.352331 11120 net.cpp:91] Creating Layer inception_4e/relu_5x5
I0403 15:43:56.352350 11120 net.cpp:425] inception_4e/relu_5x5 <- inception_4e/5x5
I0403 15:43:56.352367 11120 net.cpp:386] inception_4e/relu_5x5 -> inception_4e/5x5 (in-place)
I0403 15:43:56.352560 11120 net.cpp:141] Setting up inception_4e/relu_5x5
I0403 15:43:56.352583 11120 net.cpp:148] Top shape: 24 128 14 14 (602112)
I0403 15:43:56.352598 11120 net.cpp:156] Memory required for data: 1242150432
I0403 15:43:56.352612 11120 layer_factory.hpp:77] Creating layer inception_4e/pool
I0403 15:43:56.352632 11120 net.cpp:91] Creating Layer inception_4e/pool
I0403 15:43:56.352649 11120 net.cpp:425] inception_4e/pool <- inception_4d/output_inception_4d/output_0_split_4
I0403 15:43:56.352668 11120 net.cpp:399] inception_4e/pool -> inception_4e/pool
I0403 15:43:56.352737 11120 net.cpp:141] Setting up inception_4e/pool
I0403 15:43:56.352761 11120 net.cpp:148] Top shape: 24 528 14 14 (2483712)
I0403 15:43:56.352776 11120 net.cpp:156] Memory required for data: 1252085280
I0403 15:43:56.352789 11120 layer_factory.hpp:77] Creating layer inception_4e/pool_proj
I0403 15:43:56.352810 11120 net.cpp:91] Creating Layer inception_4e/pool_proj
I0403 15:43:56.352826 11120 net.cpp:425] inception_4e/pool_proj <- inception_4e/pool
I0403 15:43:56.352848 11120 net.cpp:399] inception_4e/pool_proj -> inception_4e/pool_proj
I0403 15:43:56.354327 11120 net.cpp:141] Setting up inception_4e/pool_proj
I0403 15:43:56.354369 11120 net.cpp:148] Top shape: 24 128 14 14 (602112)
I0403 15:43:56.354387 11120 net.cpp:156] Memory required for data: 1254493728
I0403 15:43:56.354405 11120 layer_factory.hpp:77] Creating layer inception_4e/relu_pool_proj
I0403 15:43:56.354423 11120 net.cpp:91] Creating Layer inception_4e/relu_pool_proj
I0403 15:43:56.354437 11120 net.cpp:425] inception_4e/relu_pool_proj <- inception_4e/pool_proj
I0403 15:43:56.354456 11120 net.cpp:386] inception_4e/relu_pool_proj -> inception_4e/pool_proj (in-place)
I0403 15:43:56.354743 11120 net.cpp:141] Setting up inception_4e/relu_pool_proj
I0403 15:43:56.354770 11120 net.cpp:148] Top shape: 24 128 14 14 (602112)
I0403 15:43:56.354785 11120 net.cpp:156] Memory required for data: 1256902176
I0403 15:43:56.354800 11120 layer_factory.hpp:77] Creating layer inception_4e/output
I0403 15:43:56.354817 11120 net.cpp:91] Creating Layer inception_4e/output
I0403 15:43:56.354832 11120 net.cpp:425] inception_4e/output <- inception_4e/1x1
I0403 15:43:56.354848 11120 net.cpp:425] inception_4e/output <- inception_4e/3x3
I0403 15:43:56.354863 11120 net.cpp:425] inception_4e/output <- inception_4e/5x5
I0403 15:43:56.354878 11120 net.cpp:425] inception_4e/output <- inception_4e/pool_proj
I0403 15:43:56.354897 11120 net.cpp:399] inception_4e/output -> inception_4e/output
I0403 15:43:56.354946 11120 net.cpp:141] Setting up inception_4e/output
I0403 15:43:56.354969 11120 net.cpp:148] Top shape: 24 832 14 14 (3913728)
I0403 15:43:56.354989 11120 net.cpp:156] Memory required for data: 1272557088
I0403 15:43:56.355003 11120 layer_factory.hpp:77] Creating layer pool4/3x3_s2
I0403 15:43:56.355023 11120 net.cpp:91] Creating Layer pool4/3x3_s2
I0403 15:43:56.355041 11120 net.cpp:425] pool4/3x3_s2 <- inception_4e/output
I0403 15:43:56.355058 11120 net.cpp:399] pool4/3x3_s2 -> pool4/3x3_s2
I0403 15:43:56.355129 11120 net.cpp:141] Setting up pool4/3x3_s2
I0403 15:43:56.355150 11120 net.cpp:148] Top shape: 24 832 7 7 (978432)
I0403 15:43:56.355165 11120 net.cpp:156] Memory required for data: 1276470816
I0403 15:43:56.355187 11120 layer_factory.hpp:77] Creating layer pool4/3x3_s2_pool4/3x3_s2_0_split
I0403 15:43:56.355207 11120 net.cpp:91] Creating Layer pool4/3x3_s2_pool4/3x3_s2_0_split
I0403 15:43:56.355223 11120 net.cpp:425] pool4/3x3_s2_pool4/3x3_s2_0_split <- pool4/3x3_s2
I0403 15:43:56.355242 11120 net.cpp:399] pool4/3x3_s2_pool4/3x3_s2_0_split -> pool4/3x3_s2_pool4/3x3_s2_0_split_0
I0403 15:43:56.355260 11120 net.cpp:399] pool4/3x3_s2_pool4/3x3_s2_0_split -> pool4/3x3_s2_pool4/3x3_s2_0_split_1
I0403 15:43:56.355281 11120 net.cpp:399] pool4/3x3_s2_pool4/3x3_s2_0_split -> pool4/3x3_s2_pool4/3x3_s2_0_split_2
I0403 15:43:56.355300 11120 net.cpp:399] pool4/3x3_s2_pool4/3x3_s2_0_split -> pool4/3x3_s2_pool4/3x3_s2_0_split_3
I0403 15:43:56.355391 11120 net.cpp:141] Setting up pool4/3x3_s2_pool4/3x3_s2_0_split
I0403 15:43:56.355414 11120 net.cpp:148] Top shape: 24 832 7 7 (978432)
I0403 15:43:56.355430 11120 net.cpp:148] Top shape: 24 832 7 7 (978432)
I0403 15:43:56.355445 11120 net.cpp:148] Top shape: 24 832 7 7 (978432)
I0403 15:43:56.355459 11120 net.cpp:148] Top shape: 24 832 7 7 (978432)
I0403 15:43:56.355480 11120 net.cpp:156] Memory required for data: 1292125728
I0403 15:43:56.355495 11120 layer_factory.hpp:77] Creating layer inception_5a/1x1
I0403 15:43:56.355517 11120 net.cpp:91] Creating Layer inception_5a/1x1
I0403 15:43:56.355533 11120 net.cpp:425] inception_5a/1x1 <- pool4/3x3_s2_pool4/3x3_s2_0_split_0
I0403 15:43:56.355554 11120 net.cpp:399] inception_5a/1x1 -> inception_5a/1x1
I0403 15:43:56.358362 11120 net.cpp:141] Setting up inception_5a/1x1
I0403 15:43:56.358391 11120 net.cpp:148] Top shape: 24 256 7 7 (301056)
I0403 15:43:56.358405 11120 net.cpp:156] Memory required for data: 1293329952
I0403 15:43:56.358423 11120 layer_factory.hpp:77] Creating layer inception_5a/relu_1x1
I0403 15:43:56.358443 11120 net.cpp:91] Creating Layer inception_5a/relu_1x1
I0403 15:43:56.358461 11120 net.cpp:425] inception_5a/relu_1x1 <- inception_5a/1x1
I0403 15:43:56.358479 11120 net.cpp:386] inception_5a/relu_1x1 -> inception_5a/1x1 (in-place)
I0403 15:43:56.358789 11120 net.cpp:141] Setting up inception_5a/relu_1x1
I0403 15:43:56.358815 11120 net.cpp:148] Top shape: 24 256 7 7 (301056)
I0403 15:43:56.358830 11120 net.cpp:156] Memory required for data: 1294534176
I0403 15:43:56.358845 11120 layer_factory.hpp:77] Creating layer inception_5a/3x3_reduce
I0403 15:43:56.358866 11120 net.cpp:91] Creating Layer inception_5a/3x3_reduce
I0403 15:43:56.358883 11120 net.cpp:425] inception_5a/3x3_reduce <- pool4/3x3_s2_pool4/3x3_s2_0_split_1
I0403 15:43:56.358904 11120 net.cpp:399] inception_5a/3x3_reduce -> inception_5a/3x3_reduce
I0403 15:43:56.361351 11120 net.cpp:141] Setting up inception_5a/3x3_reduce
I0403 15:43:56.361382 11120 net.cpp:148] Top shape: 24 160 7 7 (188160)
I0403 15:43:56.361398 11120 net.cpp:156] Memory required for data: 1295286816
I0403 15:43:56.361416 11120 layer_factory.hpp:77] Creating layer inception_5a/relu_3x3_reduce
I0403 15:43:56.361434 11120 net.cpp:91] Creating Layer inception_5a/relu_3x3_reduce
I0403 15:43:56.361449 11120 net.cpp:425] inception_5a/relu_3x3_reduce <- inception_5a/3x3_reduce
I0403 15:43:56.361474 11120 net.cpp:386] inception_5a/relu_3x3_reduce -> inception_5a/3x3_reduce (in-place)
I0403 15:43:56.361656 11120 net.cpp:141] Setting up inception_5a/relu_3x3_reduce
I0403 15:43:56.361680 11120 net.cpp:148] Top shape: 24 160 7 7 (188160)
I0403 15:43:56.361696 11120 net.cpp:156] Memory required for data: 1296039456
I0403 15:43:56.361709 11120 layer_factory.hpp:77] Creating layer inception_5a/3x3
I0403 15:43:56.361732 11120 net.cpp:91] Creating Layer inception_5a/3x3
I0403 15:43:56.361748 11120 net.cpp:425] inception_5a/3x3 <- inception_5a/3x3_reduce
I0403 15:43:56.361769 11120 net.cpp:399] inception_5a/3x3 -> inception_5a/3x3
I0403 15:43:56.366742 11120 net.cpp:141] Setting up inception_5a/3x3
I0403 15:43:56.366771 11120 net.cpp:148] Top shape: 24 320 7 7 (376320)
I0403 15:43:56.366787 11120 net.cpp:156] Memory required for data: 1297544736
I0403 15:43:56.366806 11120 layer_factory.hpp:77] Creating layer inception_5a/relu_3x3
I0403 15:43:56.366827 11120 net.cpp:91] Creating Layer inception_5a/relu_3x3
I0403 15:43:56.366842 11120 net.cpp:425] inception_5a/relu_3x3 <- inception_5a/3x3
I0403 15:43:56.366859 11120 net.cpp:386] inception_5a/relu_3x3 -> inception_5a/3x3 (in-place)
I0403 15:43:56.367151 11120 net.cpp:141] Setting up inception_5a/relu_3x3
I0403 15:43:56.367177 11120 net.cpp:148] Top shape: 24 320 7 7 (376320)
I0403 15:43:56.367192 11120 net.cpp:156] Memory required for data: 1299050016
I0403 15:43:56.367208 11120 layer_factory.hpp:77] Creating layer inception_5a/5x5_reduce
I0403 15:43:56.367230 11120 net.cpp:91] Creating Layer inception_5a/5x5_reduce
I0403 15:43:56.367247 11120 net.cpp:425] inception_5a/5x5_reduce <- pool4/3x3_s2_pool4/3x3_s2_0_split_2
I0403 15:43:56.367269 11120 net.cpp:399] inception_5a/5x5_reduce -> inception_5a/5x5_reduce
I0403 15:43:56.368461 11120 net.cpp:141] Setting up inception_5a/5x5_reduce
I0403 15:43:56.368489 11120 net.cpp:148] Top shape: 24 32 7 7 (37632)
I0403 15:43:56.368505 11120 net.cpp:156] Memory required for data: 1299200544
I0403 15:43:56.368522 11120 layer_factory.hpp:77] Creating layer inception_5a/relu_5x5_reduce
I0403 15:43:56.368541 11120 net.cpp:91] Creating Layer inception_5a/relu_5x5_reduce
I0403 15:43:56.368558 11120 net.cpp:425] inception_5a/relu_5x5_reduce <- inception_5a/5x5_reduce
I0403 15:43:56.368574 11120 net.cpp:386] inception_5a/relu_5x5_reduce -> inception_5a/5x5_reduce (in-place)
I0403 15:43:56.368868 11120 net.cpp:141] Setting up inception_5a/relu_5x5_reduce
I0403 15:43:56.368893 11120 net.cpp:148] Top shape: 24 32 7 7 (37632)
I0403 15:43:56.368909 11120 net.cpp:156] Memory required for data: 1299351072
I0403 15:43:56.368923 11120 layer_factory.hpp:77] Creating layer inception_5a/5x5
I0403 15:43:56.368945 11120 net.cpp:91] Creating Layer inception_5a/5x5
I0403 15:43:56.368963 11120 net.cpp:425] inception_5a/5x5 <- inception_5a/5x5_reduce
I0403 15:43:56.368988 11120 net.cpp:399] inception_5a/5x5 -> inception_5a/5x5
I0403 15:43:56.370674 11120 net.cpp:141] Setting up inception_5a/5x5
I0403 15:43:56.370712 11120 net.cpp:148] Top shape: 24 128 7 7 (150528)
I0403 15:43:56.370728 11120 net.cpp:156] Memory required for data: 1299953184
I0403 15:43:56.370745 11120 layer_factory.hpp:77] Creating layer inception_5a/relu_5x5
I0403 15:43:56.370766 11120 net.cpp:91] Creating Layer inception_5a/relu_5x5
I0403 15:43:56.370784 11120 net.cpp:425] inception_5a/relu_5x5 <- inception_5a/5x5
I0403 15:43:56.370800 11120 net.cpp:386] inception_5a/relu_5x5 -> inception_5a/5x5 (in-place)
I0403 15:43:56.370990 11120 net.cpp:141] Setting up inception_5a/relu_5x5
I0403 15:43:56.371016 11120 net.cpp:148] Top shape: 24 128 7 7 (150528)
I0403 15:43:56.371031 11120 net.cpp:156] Memory required for data: 1300555296
I0403 15:43:56.371044 11120 layer_factory.hpp:77] Creating layer inception_5a/pool
I0403 15:43:56.371063 11120 net.cpp:91] Creating Layer inception_5a/pool
I0403 15:43:56.371080 11120 net.cpp:425] inception_5a/pool <- pool4/3x3_s2_pool4/3x3_s2_0_split_3
I0403 15:43:56.371098 11120 net.cpp:399] inception_5a/pool -> inception_5a/pool
I0403 15:43:56.371170 11120 net.cpp:141] Setting up inception_5a/pool
I0403 15:43:56.371202 11120 net.cpp:148] Top shape: 24 832 7 7 (978432)
I0403 15:43:56.371217 11120 net.cpp:156] Memory required for data: 1304469024
I0403 15:43:56.371232 11120 layer_factory.hpp:77] Creating layer inception_5a/pool_proj
I0403 15:43:56.371253 11120 net.cpp:91] Creating Layer inception_5a/pool_proj
I0403 15:43:56.371271 11120 net.cpp:425] inception_5a/pool_proj <- inception_5a/pool
I0403 15:43:56.371294 11120 net.cpp:399] inception_5a/pool_proj -> inception_5a/pool_proj
I0403 15:43:56.373550 11120 net.cpp:141] Setting up inception_5a/pool_proj
I0403 15:43:56.373579 11120 net.cpp:148] Top shape: 24 128 7 7 (150528)
I0403 15:43:56.373595 11120 net.cpp:156] Memory required for data: 1305071136
I0403 15:43:56.373613 11120 layer_factory.hpp:77] Creating layer inception_5a/relu_pool_proj
I0403 15:43:56.373631 11120 net.cpp:91] Creating Layer inception_5a/relu_pool_proj
I0403 15:43:56.373646 11120 net.cpp:425] inception_5a/relu_pool_proj <- inception_5a/pool_proj
I0403 15:43:56.373667 11120 net.cpp:386] inception_5a/relu_pool_proj -> inception_5a/pool_proj (in-place)
I0403 15:43:56.373955 11120 net.cpp:141] Setting up inception_5a/relu_pool_proj
I0403 15:43:56.373985 11120 net.cpp:148] Top shape: 24 128 7 7 (150528)
I0403 15:43:56.374001 11120 net.cpp:156] Memory required for data: 1305673248
I0403 15:43:56.374016 11120 layer_factory.hpp:77] Creating layer inception_5a/output
I0403 15:43:56.374032 11120 net.cpp:91] Creating Layer inception_5a/output
I0403 15:43:56.374047 11120 net.cpp:425] inception_5a/output <- inception_5a/1x1
I0403 15:43:56.374064 11120 net.cpp:425] inception_5a/output <- inception_5a/3x3
I0403 15:43:56.374080 11120 net.cpp:425] inception_5a/output <- inception_5a/5x5
I0403 15:43:56.374095 11120 net.cpp:425] inception_5a/output <- inception_5a/pool_proj
I0403 15:43:56.374114 11120 net.cpp:399] inception_5a/output -> inception_5a/output
I0403 15:43:56.374164 11120 net.cpp:141] Setting up inception_5a/output
I0403 15:43:56.374198 11120 net.cpp:148] Top shape: 24 832 7 7 (978432)
I0403 15:43:56.374213 11120 net.cpp:156] Memory required for data: 1309586976
I0403 15:43:56.374228 11120 layer_factory.hpp:77] Creating layer inception_5a/output_inception_5a/output_0_split
I0403 15:43:56.374244 11120 net.cpp:91] Creating Layer inception_5a/output_inception_5a/output_0_split
I0403 15:43:56.374259 11120 net.cpp:425] inception_5a/output_inception_5a/output_0_split <- inception_5a/output
I0403 15:43:56.374276 11120 net.cpp:399] inception_5a/output_inception_5a/output_0_split -> inception_5a/output_inception_5a/output_0_split_0
I0403 15:43:56.374297 11120 net.cpp:399] inception_5a/output_inception_5a/output_0_split -> inception_5a/output_inception_5a/output_0_split_1
I0403 15:43:56.374320 11120 net.cpp:399] inception_5a/output_inception_5a/output_0_split -> inception_5a/output_inception_5a/output_0_split_2
I0403 15:43:56.374339 11120 net.cpp:399] inception_5a/output_inception_5a/output_0_split -> inception_5a/output_inception_5a/output_0_split_3
I0403 15:43:56.374449 11120 net.cpp:141] Setting up inception_5a/output_inception_5a/output_0_split
I0403 15:43:56.374481 11120 net.cpp:148] Top shape: 24 832 7 7 (978432)
I0403 15:43:56.374497 11120 net.cpp:148] Top shape: 24 832 7 7 (978432)
I0403 15:43:56.374512 11120 net.cpp:148] Top shape: 24 832 7 7 (978432)
I0403 15:43:56.374528 11120 net.cpp:148] Top shape: 24 832 7 7 (978432)
I0403 15:43:56.374541 11120 net.cpp:156] Memory required for data: 1325241888
I0403 15:43:56.374557 11120 layer_factory.hpp:77] Creating layer inception_5b/1x1
I0403 15:43:56.374578 11120 net.cpp:91] Creating Layer inception_5b/1x1
I0403 15:43:56.374594 11120 net.cpp:425] inception_5b/1x1 <- inception_5a/output_inception_5a/output_0_split_0
I0403 15:43:56.374615 11120 net.cpp:399] inception_5b/1x1 -> inception_5b/1x1
I0403 15:43:56.378410 11120 net.cpp:141] Setting up inception_5b/1x1
I0403 15:43:56.378443 11120 net.cpp:148] Top shape: 24 384 7 7 (451584)
I0403 15:43:56.378459 11120 net.cpp:156] Memory required for data: 1327048224
I0403 15:43:56.378479 11120 layer_factory.hpp:77] Creating layer inception_5b/relu_1x1
I0403 15:43:56.378496 11120 net.cpp:91] Creating Layer inception_5b/relu_1x1
I0403 15:43:56.378514 11120 net.cpp:425] inception_5b/relu_1x1 <- inception_5b/1x1
I0403 15:43:56.378533 11120 net.cpp:386] inception_5b/relu_1x1 -> inception_5b/1x1 (in-place)
I0403 15:43:56.378844 11120 net.cpp:141] Setting up inception_5b/relu_1x1
I0403 15:43:56.378872 11120 net.cpp:148] Top shape: 24 384 7 7 (451584)
I0403 15:43:56.378888 11120 net.cpp:156] Memory required for data: 1328854560
I0403 15:43:56.378903 11120 layer_factory.hpp:77] Creating layer inception_5b/3x3_reduce
I0403 15:43:56.378926 11120 net.cpp:91] Creating Layer inception_5b/3x3_reduce
I0403 15:43:56.378943 11120 net.cpp:425] inception_5b/3x3_reduce <- inception_5a/output_inception_5a/output_0_split_1
I0403 15:43:56.378962 11120 net.cpp:399] inception_5b/3x3_reduce -> inception_5b/3x3_reduce
I0403 15:43:56.381685 11120 net.cpp:141] Setting up inception_5b/3x3_reduce
I0403 15:43:56.381716 11120 net.cpp:148] Top shape: 24 192 7 7 (225792)
I0403 15:43:56.381732 11120 net.cpp:156] Memory required for data: 1329757728
I0403 15:43:56.381750 11120 layer_factory.hpp:77] Creating layer inception_5b/relu_3x3_reduce
I0403 15:43:56.381769 11120 net.cpp:91] Creating Layer inception_5b/relu_3x3_reduce
I0403 15:43:56.381785 11120 net.cpp:425] inception_5b/relu_3x3_reduce <- inception_5b/3x3_reduce
I0403 15:43:56.381805 11120 net.cpp:386] inception_5b/relu_3x3_reduce -> inception_5b/3x3_reduce (in-place)
I0403 15:43:56.382006 11120 net.cpp:141] Setting up inception_5b/relu_3x3_reduce
I0403 15:43:56.382031 11120 net.cpp:148] Top shape: 24 192 7 7 (225792)
I0403 15:43:56.382047 11120 net.cpp:156] Memory required for data: 1330660896
I0403 15:43:56.382062 11120 layer_factory.hpp:77] Creating layer inception_5b/3x3
I0403 15:43:56.382084 11120 net.cpp:91] Creating Layer inception_5b/3x3
I0403 15:43:56.382102 11120 net.cpp:425] inception_5b/3x3 <- inception_5b/3x3_reduce
I0403 15:43:56.382123 11120 net.cpp:399] inception_5b/3x3 -> inception_5b/3x3
I0403 15:43:56.388942 11120 net.cpp:141] Setting up inception_5b/3x3
I0403 15:43:56.388970 11120 net.cpp:148] Top shape: 24 384 7 7 (451584)
I0403 15:43:56.388998 11120 net.cpp:156] Memory required for data: 1332467232
I0403 15:43:56.389019 11120 layer_factory.hpp:77] Creating layer inception_5b/relu_3x3
I0403 15:43:56.389036 11120 net.cpp:91] Creating Layer inception_5b/relu_3x3
I0403 15:43:56.389053 11120 net.cpp:425] inception_5b/relu_3x3 <- inception_5b/3x3
I0403 15:43:56.389073 11120 net.cpp:386] inception_5b/relu_3x3 -> inception_5b/3x3 (in-place)
I0403 15:43:56.389380 11120 net.cpp:141] Setting up inception_5b/relu_3x3
I0403 15:43:56.389407 11120 net.cpp:148] Top shape: 24 384 7 7 (451584)
I0403 15:43:56.389423 11120 net.cpp:156] Memory required for data: 1334273568
I0403 15:43:56.389438 11120 layer_factory.hpp:77] Creating layer inception_5b/5x5_reduce
I0403 15:43:56.389485 11120 net.cpp:91] Creating Layer inception_5b/5x5_reduce
I0403 15:43:56.389505 11120 net.cpp:425] inception_5b/5x5_reduce <- inception_5a/output_inception_5a/output_0_split_2
I0403 15:43:56.389528 11120 net.cpp:399] inception_5b/5x5_reduce -> inception_5b/5x5_reduce
I0403 15:43:56.390816 11120 net.cpp:141] Setting up inception_5b/5x5_reduce
I0403 15:43:56.390846 11120 net.cpp:148] Top shape: 24 48 7 7 (56448)
I0403 15:43:56.390863 11120 net.cpp:156] Memory required for data: 1334499360
I0403 15:43:56.390882 11120 layer_factory.hpp:77] Creating layer inception_5b/relu_5x5_reduce
I0403 15:43:56.390911 11120 net.cpp:91] Creating Layer inception_5b/relu_5x5_reduce
I0403 15:43:56.390930 11120 net.cpp:425] inception_5b/relu_5x5_reduce <- inception_5b/5x5_reduce
I0403 15:43:56.390950 11120 net.cpp:386] inception_5b/relu_5x5_reduce -> inception_5b/5x5_reduce (in-place)
I0403 15:43:56.391355 11120 net.cpp:141] Setting up inception_5b/relu_5x5_reduce
I0403 15:43:56.391381 11120 net.cpp:148] Top shape: 24 48 7 7 (56448)
I0403 15:43:56.391397 11120 net.cpp:156] Memory required for data: 1334725152
I0403 15:43:56.391412 11120 layer_factory.hpp:77] Creating layer inception_5b/5x5
I0403 15:43:56.391433 11120 net.cpp:91] Creating Layer inception_5b/5x5
I0403 15:43:56.391450 11120 net.cpp:425] inception_5b/5x5 <- inception_5b/5x5_reduce
I0403 15:43:56.391469 11120 net.cpp:399] inception_5b/5x5 -> inception_5b/5x5
I0403 15:43:56.393563 11120 net.cpp:141] Setting up inception_5b/5x5
I0403 15:43:56.393589 11120 net.cpp:148] Top shape: 24 128 7 7 (150528)
I0403 15:43:56.393604 11120 net.cpp:156] Memory required for data: 1335327264
I0403 15:43:56.393622 11120 layer_factory.hpp:77] Creating layer inception_5b/relu_5x5
I0403 15:43:56.393642 11120 net.cpp:91] Creating Layer inception_5b/relu_5x5
I0403 15:43:56.393659 11120 net.cpp:425] inception_5b/relu_5x5 <- inception_5b/5x5
I0403 15:43:56.393676 11120 net.cpp:386] inception_5b/relu_5x5 -> inception_5b/5x5 (in-place)
I0403 15:43:56.393867 11120 net.cpp:141] Setting up inception_5b/relu_5x5
I0403 15:43:56.393892 11120 net.cpp:148] Top shape: 24 128 7 7 (150528)
I0403 15:43:56.393906 11120 net.cpp:156] Memory required for data: 1335929376
I0403 15:43:56.393921 11120 layer_factory.hpp:77] Creating layer inception_5b/pool
I0403 15:43:56.393940 11120 net.cpp:91] Creating Layer inception_5b/pool
I0403 15:43:56.393957 11120 net.cpp:425] inception_5b/pool <- inception_5a/output_inception_5a/output_0_split_3
I0403 15:43:56.393975 11120 net.cpp:399] inception_5b/pool -> inception_5b/pool
I0403 15:43:56.394052 11120 net.cpp:141] Setting up inception_5b/pool
I0403 15:43:56.394075 11120 net.cpp:148] Top shape: 24 832 7 7 (978432)
I0403 15:43:56.394089 11120 net.cpp:156] Memory required for data: 1339843104
I0403 15:43:56.394104 11120 layer_factory.hpp:77] Creating layer inception_5b/pool_proj
I0403 15:43:56.394125 11120 net.cpp:91] Creating Layer inception_5b/pool_proj
I0403 15:43:56.394142 11120 net.cpp:425] inception_5b/pool_proj <- inception_5b/pool
I0403 15:43:56.394163 11120 net.cpp:399] inception_5b/pool_proj -> inception_5b/pool_proj
I0403 15:43:56.396508 11120 net.cpp:141] Setting up inception_5b/pool_proj
I0403 15:43:56.396536 11120 net.cpp:148] Top shape: 24 128 7 7 (150528)
I0403 15:43:56.396551 11120 net.cpp:156] Memory required for data: 1340445216
I0403 15:43:56.396569 11120 layer_factory.hpp:77] Creating layer inception_5b/relu_pool_proj
I0403 15:43:56.396587 11120 net.cpp:91] Creating Layer inception_5b/relu_pool_proj
I0403 15:43:56.396602 11120 net.cpp:425] inception_5b/relu_pool_proj <- inception_5b/pool_proj
I0403 15:43:56.396622 11120 net.cpp:386] inception_5b/relu_pool_proj -> inception_5b/pool_proj (in-place)
I0403 15:43:56.396917 11120 net.cpp:141] Setting up inception_5b/relu_pool_proj
I0403 15:43:56.396944 11120 net.cpp:148] Top shape: 24 128 7 7 (150528)
I0403 15:43:56.396958 11120 net.cpp:156] Memory required for data: 1341047328
I0403 15:43:56.396973 11120 layer_factory.hpp:77] Creating layer inception_5b/output
I0403 15:43:56.396994 11120 net.cpp:91] Creating Layer inception_5b/output
I0403 15:43:56.397024 11120 net.cpp:425] inception_5b/output <- inception_5b/1x1
I0403 15:43:56.397042 11120 net.cpp:425] inception_5b/output <- inception_5b/3x3
I0403 15:43:56.397058 11120 net.cpp:425] inception_5b/output <- inception_5b/5x5
I0403 15:43:56.397073 11120 net.cpp:425] inception_5b/output <- inception_5b/pool_proj
I0403 15:43:56.397092 11120 net.cpp:399] inception_5b/output -> inception_5b/output
I0403 15:43:56.397143 11120 net.cpp:141] Setting up inception_5b/output
I0403 15:43:56.397168 11120 net.cpp:148] Top shape: 24 1024 7 7 (1204224)
I0403 15:43:56.397183 11120 net.cpp:156] Memory required for data: 1345864224
I0403 15:43:56.397198 11120 layer_factory.hpp:77] Creating layer pool5/7x7_s1
I0403 15:43:56.397215 11120 net.cpp:91] Creating Layer pool5/7x7_s1
I0403 15:43:56.397230 11120 net.cpp:425] pool5/7x7_s1 <- inception_5b/output
I0403 15:43:56.397251 11120 net.cpp:399] pool5/7x7_s1 -> pool5/7x7_s1
I0403 15:43:56.397466 11120 net.cpp:141] Setting up pool5/7x7_s1
I0403 15:43:56.397490 11120 net.cpp:148] Top shape: 24 1024 1 1 (24576)
I0403 15:43:56.397505 11120 net.cpp:156] Memory required for data: 1345962528
I0403 15:43:56.397521 11120 layer_factory.hpp:77] Creating layer pool5/drop_7x7_s1
I0403 15:43:56.397537 11120 net.cpp:91] Creating Layer pool5/drop_7x7_s1
I0403 15:43:56.397553 11120 net.cpp:425] pool5/drop_7x7_s1 <- pool5/7x7_s1
I0403 15:43:56.397575 11120 net.cpp:386] pool5/drop_7x7_s1 -> pool5/7x7_s1 (in-place)
I0403 15:43:56.397625 11120 net.cpp:141] Setting up pool5/drop_7x7_s1
I0403 15:43:56.397650 11120 net.cpp:148] Top shape: 24 1024 1 1 (24576)
I0403 15:43:56.397665 11120 net.cpp:156] Memory required for data: 1346060832
I0403 15:43:56.397678 11120 layer_factory.hpp:77] Creating layer loss3/classifier_plantvillage
I0403 15:43:56.397697 11120 net.cpp:91] Creating Layer loss3/classifier_plantvillage
I0403 15:43:56.397712 11120 net.cpp:425] loss3/classifier_plantvillage <- pool5/7x7_s1
I0403 15:43:56.397732 11120 net.cpp:399] loss3/classifier_plantvillage -> loss3/classifier_plantvillage
I0403 15:43:56.398155 11120 net.cpp:141] Setting up loss3/classifier_plantvillage
I0403 15:43:56.398191 11120 net.cpp:148] Top shape: 24 38 (912)
I0403 15:43:56.398208 11120 net.cpp:156] Memory required for data: 1346064480
I0403 15:43:56.398226 11120 layer_factory.hpp:77] Creating layer loss3/classifier_plantvillage_loss3/classifier_plantvillage_0_split
I0403 15:43:56.398243 11120 net.cpp:91] Creating Layer loss3/classifier_plantvillage_loss3/classifier_plantvillage_0_split
I0403 15:43:56.398259 11120 net.cpp:425] loss3/classifier_plantvillage_loss3/classifier_plantvillage_0_split <- loss3/classifier_plantvillage
I0403 15:43:56.398277 11120 net.cpp:399] loss3/classifier_plantvillage_loss3/classifier_plantvillage_0_split -> loss3/classifier_plantvillage_loss3/classifier_plantvillage_0_split_0
I0403 15:43:56.398298 11120 net.cpp:399] loss3/classifier_plantvillage_loss3/classifier_plantvillage_0_split -> loss3/classifier_plantvillage_loss3/classifier_plantvillage_0_split_1
I0403 15:43:56.398319 11120 net.cpp:399] loss3/classifier_plantvillage_loss3/classifier_plantvillage_0_split -> loss3/classifier_plantvillage_loss3/classifier_plantvillage_0_split_2
I0403 15:43:56.398340 11120 net.cpp:399] loss3/classifier_plantvillage_loss3/classifier_plantvillage_0_split -> loss3/classifier_plantvillage_loss3/classifier_plantvillage_0_split_3
I0403 15:43:56.398439 11120 net.cpp:141] Setting up loss3/classifier_plantvillage_loss3/classifier_plantvillage_0_split
I0403 15:43:56.398463 11120 net.cpp:148] Top shape: 24 38 (912)
I0403 15:43:56.398481 11120 net.cpp:148] Top shape: 24 38 (912)
I0403 15:43:56.398496 11120 net.cpp:148] Top shape: 24 38 (912)
I0403 15:43:56.398511 11120 net.cpp:148] Top shape: 24 38 (912)
I0403 15:43:56.398524 11120 net.cpp:156] Memory required for data: 1346079072
I0403 15:43:56.398538 11120 layer_factory.hpp:77] Creating layer loss1/loss
I0403 15:43:56.398561 11120 net.cpp:91] Creating Layer loss1/loss
I0403 15:43:56.398577 11120 net.cpp:425] loss1/loss <- loss1/classifier_plantvillage_loss1/classifier_plantvillage_0_split_0
I0403 15:43:56.398607 11120 net.cpp:425] loss1/loss <- label_data_1_split_0
…
