…
I0403 15:36:00.527765 10668 net.cpp:313] The NetState phase (1) differed from the phase (0) specified by a rule in layer data
I0403 15:36:00.529011 10668 net.cpp:49] Initializing net from parameters: 
state {
  phase: TEST
}
layer {
  name: "data"
  type: "Data"
  top: "data"
  top: "label"
  include {
    phase: TEST
  }
  transform_param {
    mirror: false
    crop_size: 224
    mean_file: "/home/mohanty/data/final_dataset/lmdb/segmented-80-20/mean.binaryproto"
  }
  data_param {
    source: "/home/mohanty/data/final_dataset/lmdb/segmented-80-20/test_db"
    batch_size: 24
    backend: LMDB
  }
}
layer {
  name: "conv1/7x7_s2"
  type: "Convolution"
  bottom: "data"
  top: "conv1/7x7_s2"
  param {
    lr_mult: 1
    decay_mult: 1
  }
  param {
    lr_mult: 2
    decay_mult: 0
  }
  convolution_param {
    num_output: 64
    pad: 3
    kernel_size: 7
    stride: 2
    weight_filler {
      type: "xavier"
      std: 0.1
    }
    bias_filler {
      type: "constant"
      value: 0.2
    }
  }
}
layer {
  name: "conv1/relu_7x7"
  type: "ReLU"
  bottom: "conv1/7x7_s2"
  top: "conv1/7x7_s2"
}
layer {
  name: "pool1/3x3_s2"
  type: "Pooling"
  bottom: "conv1/7x7_s2"
  top: "pool1/3x3_s2"
  pooling_param {
    pool: MAX
    kernel_size: 3
    stride: 2
  }
}
layer {
  name: "pool1/norm1"
  type: "LRN"
  bottom: "pool1/3x3_s2"
  top: "pool1/norm1"
  lrn_param {
    local_size: 5
    alpha: 0.0001
    beta: 0.75
  }
}
layer {
  name: "conv2/3x3_reduce"
  type: "Convolution"
  bottom: "pool1/norm1"
  top: "conv2/3x3_reduce"
  param {
    lr_mult: 1
    decay_mult: 1
  }
  param {
    lr_mult: 2
    decay_mult: 0
  }
  convolution_param {
    num_output: 64
    kernel_size: 1
    weight_filler {
      type: "xavier"
      std: 0.1
    }
    bias_filler {
      type: "constant"
      value: 0.2
    }
  }
}
layer {
  name: "conv2/relu_3x3_reduce"
  type: "ReLU"
  bottom: "conv2/3x3_reduce"
  top: "conv2/3x3_reduce"
}
layer {
  name: "conv2/3x3"
  type: "Convolution"
  bottom: "conv2/3x3_reduce"
  top: "conv2/3x3"
  param {
    lr_mult: 1
    decay_mult: 1
  }
  param {
    lr_mult: 2
    decay_mult: 0
  }
  convolution_param {
    num_output: 192
    pad: 1
    kernel_size: 3
    weight_filler {
      type: "xavier"
      std: 0.03
    }
    bias_filler {
      type: "constant"
      value: 0.2
    }
  }
}
layer {
  name: "conv2/relu_3x3"
  type: "ReLU"
  bottom: "conv2/3x3"
  top: "conv2/3x3"
}
layer {
  name: "conv2/norm2"
  type: "LRN"
  bottom: "conv2/3x3"
  top: "conv2/norm2"
  lrn_param {
    local_size: 5
    alpha: 0.0001
    beta: 0.75
  }
}
layer {
  name: "pool2/3x3_s2"
  type: "Pooling"
  bottom: "conv2/norm2"
  top: "pool2/3x3_s2"
  pooling_param {
    pool: MAX
    kernel_size: 3
    stride: 2
  }
}
layer {
  name: "inception_3a/1x1"
  type: "Convolution"
  bottom: "pool2/3x3_s2"
  top: "inception_3a/1x1"
  param {
    lr_mult: 1
    decay_mult: 1
  }
  param {
    lr_mult: 2
    decay_mult: 0
  }
  convolution_param {
    num_output: 64
    kernel_size: 1
    weight_filler {
      type: "xavier"
      std: 0.03
    }
    bias_filler {
      type: "constant"
      value: 0.2
    }
  }
}
layer {
  name: "inception_3a/relu_1x1"
  type: "ReLU"
  bottom: "inception_3a/1x1"
  top: "inception_3a/1x1"
}
layer {
  name: "inception_3a/3x3_reduce"
  type: "Convolution"
  bottom: "pool2/3x3_s2"
  top: "inception_3a/3x3_reduce"
  param {
    lr_mult: 1
    decay_mult: 1
  }
  param {
    lr_mult: 2
    decay_mult: 0
  }
  convolution_param {
    num_output: 96
    kernel_size: 1
    weight_filler {
      type: "xavier"
      std: 0.09
    }
    bias_filler {
      type: "constant"
      value: 0.2
    }
  }
}
layer {
  name: "inception_3a/relu_3x3_reduce"
  type: "ReLU"
  bottom: "inception_3a/3x3_reduce"
  top: "inception_3a/3x3_reduce"
}
layer {
  name: "inception_3a/3x3"
  type: "Convolution"
  bottom: "inception_3a/3x3_reduce"
  top: "inception_3a/3x3"
  param {
    lr_mult: 1
    decay_mult: 1
  }
  param {
    lr_mult: 2
    decay_mult: 0
  }
  convolution_param {
    num_output: 128
    pad: 1
    kernel_size: 3
    weight_filler {
      type: "xavier"
      std: 0.03
    }
    bias_filler {
      type: "constant"
      value: 0.2
    }
  }
}
layer {
  name: "inception_3a/relu_3x3"
  type: "ReLU"
  bottom: "inception_3a/3x3"
  top: "inception_3a/3x3"
}
layer {
  name: "inception_3a/5x5_reduce"
  type: "Convolution"
  bottom: "pool2/3x3_s2"
  top: "inception_3a/5x5_reduce"
  param {
    lr_mult: 1
    decay_mult: 1
  }
  param {
    lr_mult: 2
    decay_mult: 0
  }
  convolution_param {
    num_output: 16
    kernel_size: 1
    weight_filler {
      type: "xavier"
      std: 0.2
    }
    bias_filler {
      type: "constant"
      value: 0.2
    }
  }
}
layer {
  name: "inception_3a/relu_5x5_reduce"
  type: "ReLU"
  bottom: "inception_3a/5x5_reduce"
  top: "inception_3a/5x5_reduce"
}
layer {
  name: "inception_3a/5x5"
  type: "Convolution"
  bottom: "inception_3a/5x5_reduce"
  top: "inception_3a/5x5"
  param {
    lr_mult: 1
    decay_mult: 1
  }
  param {
    lr_mult: 2
    decay_mult: 0
  }
  convolution_param {
    num_output: 32
    pad: 2
    kernel_size: 5
    weight_filler {
      type: "xavier"
      std: 0.03
    }
    bias_filler {
      type: "constant"
      value: 0.2
    }
  }
}
layer {
  name: "inception_3a/relu_5x5"
  type: "ReLU"
  bottom: "inception_3a/5x5"
  top: "inception_3a/5x5"
}
layer {
  name: "inception_3a/pool"
  type: "Pooling"
  bottom: "pool2/3x3_s2"
  top: "inception_3a/pool"
  pooling_param {
    pool: MAX
    kernel_size: 3
    stride: 1
    pad: 1
  }
}
layer {
  name: "inception_3a/pool_proj"
  type: "Convolution"
  bottom: "inception_3a/pool"
  top: "inception_3a/pool_proj"
  param {
    lr_mult: 1
    decay_mult: 1
  }
  param {
    lr_mult: 2
    decay_mult: 0
  }
  convolution_param {
    num_output: 32
    kernel_size: 1
    weight_filler {
      type: "xavier"
      std: 0.1
    }
    bias_filler {
      type: "constant"
      value: 0.2
    }
  }
}
layer {
  name: "inception_3a/relu_pool_proj"
  type: "ReLU"
  bottom: "inception_3a/pool_proj"
  top: "inception_3a/pool_proj"
}
layer {
  name: "inception_3a/output"
  type: "Concat"
  bottom: "inception_3a/1x1"
  bottom: "inception_3a/3x3"
  bottom: "inception_3a/5x5"
  bottom: "inception_3a/pool_proj"
  top: "inception_3a/output"
}
layer {
  name: "inception_3b/1x1"
  type: "Convolution"
  bottom: "inception_3a/output"
  top: "inception_3b/1x1"
  param {
    lr_mult: 1
    decay_mult: 1
  }
  param {
    lr_mult: 2
    decay_mult: 0
  }
  convolution_param {
    num_output: 128
    kernel_size: 1
    weight_filler {
      type: "xavier"
      std: 0.03
    }
    bias_filler {
      type: "constant"
      value: 0.2
    }
  }
}
layer {
  name: "inception_3b/relu_1x1"
  type: "ReLU"
  bottom: "inception_3b/1x1"
  top: "inception_3b/1x1"
}
layer {
  name: "inception_3b/3x3_reduce"
  type: "Convolution"
  bottom: "inception_3a/output"
  top: "inception_3b/3x3_reduce"
  param {
    lr_mult: 1
    decay_mult: 1
  }
  param {
    lr_mult: 2
    decay_mult: 0
  }
  convolution_param {
    num_output: 128
    kernel_size: 1
    weight_filler {
      type: "xavier"
      std: 0.09
    }
    bias_filler {
      type: "constant"
      value: 0.2
    }
  }
}
layer {
  name: "inception_3b/relu_3x3_reduce"
  type: "ReLU"
  bottom: "inception_3b/3x3_reduce"
  top: "inception_3b/3x3_reduce"
}
layer {
  name: "inception_3b/3x3"
  type: "Convolution"
  bottom: "inception_3b/3x3_reduce"
  top: "inception_3b/3x3"
  param {
    lr_mult: 1
    decay_mult: 1
  }
  param {
    lr_mult: 2
    decay_mult: 0
  }
  convolution_param {
    num_output: 192
    pad: 1
    kernel_size: 3
    weight_filler {
      type: "xavier"
      std: 0.03
    }
    bias_filler {
      type: "constant"
      value: 0.2
    }
  }
}
layer {
  name: "inception_3b/relu_3x3"
  type: "ReLU"
  bottom: "inception_3b/3x3"
  top: "inception_3b/3x3"
}
layer {
  name: "inception_3b/5x5_reduce"
  type: "Convolution"
  bottom: "inception_3a/output"
  top: "inception_3b/5x5_reduce"
  param {
    lr_mult: 1
    decay_mult: 1
  }
  param {
    lr_mult: 2
    decay_mult: 0
  }
  convolution_param {
    num_output: 32
    kernel_size: 1
    weight_filler {
      type: "xavier"
      std: 0.2
    }
    bias_filler {
      type: "constant"
      value: 0.2
    }
  }
}
layer {
  name: "inception_3b/relu_5x5_reduce"
  type: "ReLU"
  bottom: "inception_3b/5x5_reduce"
  top: "inception_3b/5x5_reduce"
}
layer {
  name: "inception_3b/5x5"
  type: "Convolution"
  bottom: "inception_3b/5x5_reduce"
  top: "inception_3b/5x5"
  param {
    lr_mult: 1
    decay_mult: 1
  }
  param {
    lr_mult: 2
    decay_mult: 0
  }
  convolution_param {
    num_output: 96
    pad: 2
    kernel_size: 5
    weight_filler {
      type: "xavier"
      std: 0.03
    }
    bias_filler {
      type: "constant"
      value: 0.2
    }
  }
}
layer {
  name: "inception_3b/relu_5x5"
  type: "ReLU"
  bottom: "inception_3b/5x5"
  top: "inception_3b/5x5"
}
layer {
  name: "inception_3b/pool"
  type: "Pooling"
  bottom: "inception_3a/output"
  top: "inception_3b/pool"
  pooling_param {
    pool: MAX
    kernel_size: 3
    stride: 1
    pad: 1
  }
}
layer {
  name: "inception_3b/pool_proj"
  type: "Convolution"
  bottom: "inception_3b/pool"
  top: "inception_3b/pool_proj"
  param {
    lr_mult: 1
    decay_mult: 1
  }
  param {
    lr_mult: 2
    decay_mult: 0
  }
  convolution_param {
    num_output: 64
    kernel_size: 1
    weight_filler {
      type: "xavier"
      std: 0.1
    }
    bias_filler {
      type: "constant"
      value: 0.2
    }
  }
}
layer {
  name: "inception_3b/relu_pool_proj"
  type: "ReLU"
  bottom: "inception_3b/pool_proj"
  top: "inception_3b/pool_proj"
}
layer {
  name: "inception_3b/output"
  type: "Concat"
  bottom: "inception_3b/1x1"
  bottom: "inception_3b/3x3"
  bottom: "inception_3b/5x5"
  bottom: "inception_3b/pool_proj"
  top: "inception_3b/output"
}
layer {
  name: "pool3/3x3_s2"
  type: "Pooling"
  bottom: "inception_3b/output"
  top: "pool3/3x3_s2"
  pooling_param {
    pool: MAX
    kernel_size: 3
    stride: 2
  }
}
layer {
  name: "inception_4a/1x1"
  type: "Convolution"
  bottom: "pool3/3x3_s2"
  top: "inception_4a/1x1"
  param {
    lr_mult: 1
    decay_mult: 1
  }
  param {
    lr_mult: 2
    decay_mult: 0
  }
  convolution_param {
    num_output: 192
    kernel_size: 1
    weight_filler {
      type: "xavier"
      std: 0.03
    }
    bias_filler {
      type: "constant"
      value: 0.2
    }
  }
}
layer {
  name: "inception_4a/relu_1x1"
  type: "ReLU"
  bottom: "inception_4a/1x1"
  top: "inception_4a/1x1"
}
layer {
  name: "inception_4a/3x3_reduce"
  type: "Convolution"
  bottom: "pool3/3x3_s2"
  top: "inception_4a/3x3_reduce"
  param {
    lr_mult: 1
    decay_mult: 1
  }
  param {
    lr_mult: 2
    decay_mult: 0
  }
  convolution_param {
    num_output: 96
    kernel_size: 1
    weight_filler {
      type: "xavier"
      std: 0.09
    }
    bias_filler {
      type: "constant"
      value: 0.2
    }
  }
}
layer {
  name: "inception_4a/relu_3x3_reduce"
  type: "ReLU"
  bottom: "inception_4a/3x3_reduce"
  top: "inception_4a/3x3_reduce"
}
layer {
  name: "inception_4a/3x3"
  type: "Convolution"
  bottom: "inception_4a/3x3_reduce"
  top: "inception_4a/3x3"
  param {
    lr_mult: 1
    decay_mult: 1
  }
  param {
    lr_mult: 2
    decay_mult: 0
  }
  convolution_param {
    num_output: 208
    pad: 1
    kernel_size: 3
    weight_filler {
      type: "xavier"
      std: 0.03
    }
    bias_filler {
      type: "constant"
      value: 0.2
    }
  }
}
layer {
  name: "inception_4a/relu_3x3"
  type: "ReLU"
  bottom: "inception_4a/3x3"
  top: "inception_4a/3x3"
}
layer {
  name: "inception_4a/5x5_reduce"
  type: "Convolution"
  bottom: "pool3/3x3_s2"
  top: "inception_4a/5x5_reduce"
  param {
    lr_mult: 1
    decay_mult: 1
  }
  param {
    lr_mult: 2
    decay_mult: 0
  }
  convolution_param {
    num_output: 16
    kernel_size: 1
    weight_filler {
      type: "xavier"
      std: 0.2
    }
    bias_filler {
      type: "constant"
      value: 0.2
    }
  }
}
layer {
  name: "inception_4a/relu_5x5_reduce"
  type: "ReLU"
  bottom: "inception_4a/5x5_reduce"
  top: "inception_4a/5x5_reduce"
}
layer {
  name: "inception_4a/5x5"
  type: "Convolution"
  bottom: "inception_4a/5x5_reduce"
  top: "inception_4a/5x5"
  param {
    lr_mult: 1
    decay_mult: 1
  }
  param {
    lr_mult: 2
    decay_mult: 0
  }
  convolution_param {
    num_output: 48
    pad: 2
    kernel_size: 5
    weight_filler {
      type: "xavier"
      std: 0.03
    }
    bias_filler {
      type: "constant"
      value: 0.2
    }
  }
}
layer {
  name: "inception_4a/relu_5x5"
  type: "ReLU"
  bottom: "inception_4a/5x5"
  top: "inception_4a/5x5"
}
layer {
  name: "inception_4a/pool"
  type: "Pooling"
  bottom: "pool3/3x3_s2"
  top: "inception_4a/pool"
  pooling_param {
    pool: MAX
    kernel_size: 3
    stride: 1
    pad: 1
  }
}
layer {
  name: "inception_4a/pool_proj"
  type: "Convolution"
  bottom: "inception_4a/pool"
  top: "inception_4a/pool_proj"
  param {
    lr_mult: 1
    decay_mult: 1
  }
  param {
    lr_mult: 2
    decay_mult: 0
  }
  convolution_param {
    num_output: 64
    kernel_size: 1
    weight_filler {
      type: "xavier"
      std: 0.1
    }
    bias_filler {
      type: "constant"
      value: 0.2
    }
  }
}
layer {
  name: "inception_4a/relu_pool_proj"
  type: "ReLU"
  bottom: "inception_4a/pool_proj"
  top: "inception_4a/pool_proj"
}
layer {
  name: "inception_4a/output"
  type: "Concat"
  bottom: "inception_4a/1x1"
  bottom: "inception_4a/3x3"
  bottom: "inception_4a/5x5"
  bottom: "inception_4a/pool_proj"
  top: "inception_4a/output"
}
layer {
  name: "loss1/ave_pool"
  type: "Pooling"
  bottom: "inception_4a/output"
  top: "loss1/ave_pool"
  pooling_param {
    pool: AVE
    kernel_size: 5
    stride: 3
  }
}
layer {
  name: "loss1/conv"
  type: "Convolution"
  bottom: "loss1/ave_pool"
  top: "loss1/conv"
  param {
    lr_mult: 1
    decay_mult: 1
  }
  param {
    lr_mult: 2
    decay_mult: 0
  }
  convolution_param {
    num_output: 128
    kernel_size: 1
    weight_filler {
      type: "xavier"
      std: 0.08
    }
    bias_filler {
      type: "constant"
      value: 0.2
    }
  }
}
layer {
  name: "loss1/relu_conv"
  type: "ReLU"
  bottom: "loss1/conv"
  top: "loss1/conv"
}
layer {
  name: "loss1/fc"
  type: "InnerProduct"
  bottom: "loss1/conv"
  top: "loss1/fc"
  param {
    lr_mult: 1
    decay_mult: 1
  }
  param {
    lr_mult: 2
    decay_mult: 0
  }
  inner_product_param {
    num_output: 1024
    weight_filler {
      type: "xavier"
      std: 0.02
    }
    bias_filler {
      type: "constant"
      value: 0.2
    }
  }
}
layer {
  name: "loss1/relu_fc"
  type: "ReLU"
  bottom: "loss1/fc"
  top: "loss1/fc"
}
layer {
  name: "loss1/drop_fc"
  type: "Dropout"
  bottom: "loss1/fc"
  top: "loss1/fc"
  dropout_param {
    dropout_ratio: 0.7
  }
}
layer {
  name: "loss1/classifier_plantvillage"
  type: "InnerProduct"
  bottom: "loss1/fc"
  top: "loss1/classifier_plantvillage"
  param {
    lr_mult: 1
    decay_mult: 1
  }
  param {
    lr_mult: 2
    decay_mult: 0
  }
  inner_product_param {
    num_output: 38
    weight_filler {
      type: "xavier"
      std: 0.0009765625
    }
    bias_filler {
      type: "constant"
      value: 0
    }
  }
}
layer {
  name: "inception_4b/1x1"
  type: "Convolution"
  bottom: "inception_4a/output"
  top: "inception_4b/1x1"
  param {
    lr_mult: 1
    decay_mult: 1
  }
  param {
    lr_mult: 2
    decay_mult: 0
  }
  convolution_param {
    num_output: 160
    kernel_size: 1
    weight_filler {
      type: "xavier"
      std: 0.03
    }
    bias_filler {
      type: "constant"
      value: 0.2
    }
  }
}
layer {
  name: "inception_4b/relu_1x1"
  type: "ReLU"
  bottom: "inception_4b/1x1"
  top: "inception_4b/1x1"
}
layer {
  name: "inception_4b/3x3_reduce"
  type: "Convolution"
  bottom: "inception_4a/output"
  top: "inception_4b/3x3_reduce"
  param {
    lr_mult: 1
    decay_mult: 1
  }
  param {
    lr_mult: 2
    decay_mult: 0
  }
  convolution_param {
    num_output: 112
    kernel_size: 1
    weight_filler {
      type: "xavier"
      std: 0.09
    }
    bias_filler {
      type: "constant"
      value: 0.2
    }
  }
}
layer {
  name: "inception_4b/relu_3x3_reduce"
  type: "ReLU"
  bottom: "inception_4b/3x3_reduce"
  top: "inception_4b/3x3_reduce"
}
layer {
  name: "inception_4b/3x3"
  type: "Convolution"
  bottom: "inception_4b/3x3_reduce"
  top: "inception_4b/3x3"
  param {
    lr_mult: 1
    decay_mult: 1
  }
  param {
    lr_mult: 2
    decay_mult: 0
  }
  convolution_param {
    num_output: 224
    pad: 1
    kernel_size: 3
    weight_filler {
      type: "xavier"
      std: 0.03
    }
    bias_filler {
      type: "constant"
      value: 0.2
    }
  }
}
layer {
  name: "inception_4b/relu_3x3"
  type: "ReLU"
  bottom: "inception_4b/3x3"
  top: "inception_4b/3x3"
}
layer {
  name: "inception_4b/5x5_reduce"
  type: "Convolution"
  bottom: "inception_4a/output"
  top: "inception_4b/5x5_reduce"
  param {
    lr_mult: 1
    decay_mult: 1
  }
  param {
    lr_mult: 2
    decay_mult: 0
  }
  convolution_param {
    num_output: 24
    kernel_size: 1
    weight_filler {
      type: "xavier"
      std: 0.2
    }
    bias_filler {
      type: "constant"
      value: 0.2
    }
  }
}
layer {
  name: "inception_4b/relu_5x5_reduce"
  type: "ReLU"
  bottom: "inception_4b/5x5_reduce"
  top: "inception_4b/5x5_reduce"
}
layer {
  name: "inception_4b/5x5"
  type: "Convolution"
  bottom: "inception_4b/5x5_reduce"
  top: "inception_4b/5x5"
  param {
    lr_mult: 1
    decay_mult: 1
  }
  param {
    lr_mult: 2
    decay_mult: 0
  }
  convolution_param {
    num_output: 64
    pad: 2
    kernel_size: 5
    weight_filler {
      type: "xavier"
      std: 0.03
    }
    bias_filler {
      type: "constant"
      value: 0.2
    }
  }
}
layer {
  name: "inception_4b/relu_5x5"
  type: "ReLU"
  bottom: "inception_4b/5x5"
  top: "inception_4b/5x5"
}
layer {
  name: "inception_4b/pool"
  type: "Pooling"
  bottom: "inception_4a/output"
  top: "inception_4b/pool"
  pooling_param {
    pool: MAX
    kernel_size: 3
    stride: 1
    pad: 1
  }
}
layer {
  name: "inception_4b/pool_proj"
  type: "Convolution"
  bottom: "inception_4b/pool"
  top: "inception_4b/pool_proj"
  param {
    lr_mult: 1
    decay_mult: 1
  }
  param {
    lr_mult: 2
    decay_mult: 0
  }
  convolution_param {
    num_output: 64
    kernel_size: 1
    weight_filler {
      type: "xavier"
      std: 0.1
    }
    bias_filler {
      type: "constant"
      value: 0.2
    }
  }
}
layer {
  name: "inception_4b/relu_pool_proj"
  type: "ReLU"
  bottom: "inception_4b/pool_proj"
  top: "inception_4b/pool_proj"
}
layer {
  name: "inception_4b/output"
  type: "Concat"
  bottom: "inception_4b/1x1"
  bottom: "inception_4b/3x3"
  bottom: "inception_4b/5x5"
  bottom: "inception_4b/pool_proj"
  top: "inception_4b/output"
}
layer {
  name: "inception_4c/1x1"
  type: "Convolution"
  bottom: "inception_4b/output"
  top: "inception_4c/1x1"
  param {
    lr_mult: 1
    decay_mult: 1
  }
  param {
    lr_mult: 2
    decay_mult: 0
  }
  convolution_param {
    num_output: 128
    kernel_size: 1
    weight_filler {
      type: "xavier"
      std: 0.03
    }
    bias_filler {
      type: "constant"
      value: 0.2
    }
  }
}
layer {
  name: "inception_4c/relu_1x1"
  type: "ReLU"
  bottom: "inception_4c/1x1"
  top: "inception_4c/1x1"
}
layer {
  name: "inception_4c/3x3_reduce"
  type: "Convolution"
  bottom: "inception_4b/output"
  top: "inception_4c/3x3_reduce"
  param {
    lr_mult: 1
    decay_mult: 1
  }
  param {
    lr_mult: 2
    decay_mult: 0
  }
  convolution_param {
    num_output: 128
    kernel_size: 1
    weight_filler {
      type: "xavier"
      std: 0.09
    }
    bias_filler {
      type: "constant"
      value: 0.2
    }
  }
}
layer {
  name: "inception_4c/relu_3x3_reduce"
  type: "ReLU"
  bottom: "inception_4c/3x3_reduce"
  top: "inception_4c/3x3_reduce"
}
layer {
  name: "inception_4c/3x3"
  type: "Convolution"
  bottom: "inception_4c/3x3_reduce"
  top: "inception_4c/3x3"
  param {
    lr_mult: 1
    decay_mult: 1
  }
  param {
    lr_mult: 2
    decay_mult: 0
  }
  convolution_param {
    num_output: 256
    pad: 1
    kernel_size: 3
    weight_filler {
      type: "xavier"
      std: 0.03
    }
    bias_filler {
      type: "constant"
      value: 0.2
    }
  }
}
layer {
  name: "inception_4c/relu_3x3"
  type: "ReLU"
  bottom: "inception_4c/3x3"
  top: "inception_4c/3x3"
}
layer {
  name: "inception_4c/5x5_reduce"
  type: "Convolution"
  bottom: "inception_4b/output"
  top: "inception_4c/5x5_reduce"
  param {
    lr_mult: 1
    decay_mult: 1
  }
  param {
    lr_mult: 2
    decay_mult: 0
  }
  convolution_param {
    num_output: 24
    kernel_size: 1
    weight_filler {
      type: "xavier"
      std: 0.2
    }
    bias_filler {
      type: "constant"
      value: 0.2
    }
  }
}
layer {
  name: "inception_4c/relu_5x5_reduce"
  type: "ReLU"
  bottom: "inception_4c/5x5_reduce"
  top: "inception_4c/5x5_reduce"
}
layer {
  name: "inception_4c/5x5"
  type: "Convolution"
  bottom: "inception_4c/5x5_reduce"
  top: "inception_4c/5x5"
  param {
    lr_mult: 1
    decay_mult: 1
  }
  param {
    lr_mult: 2
    decay_mult: 0
  }
  convolution_param {
    num_output: 64
    pad: 2
    kernel_size: 5
    weight_filler {
      type: "xavier"
      std: 0.03
    }
    bias_filler {
      type: "constant"
      value: 0.2
    }
  }
}
layer {
  name: "inception_4c/relu_5x5"
  type: "ReLU"
  bottom: "inception_4c/5x5"
  top: "inception_4c/5x5"
}
layer {
  name: "inception_4c/pool"
  type: "Pooling"
  bottom: "inception_4b/output"
  top: "inception_4c/pool"
  pooling_param {
    pool: MAX
    kernel_size: 3
    stride: 1
    pad: 1
  }
}
layer {
  name: "inception_4c/pool_proj"
  type: "Convolution"
  bottom: "inception_4c/pool"
  top: "inception_4c/pool_proj"
  param {
    lr_mult: 1
    decay_mult: 1
  }
  param {
    lr_mult: 2
    decay_mult: 0
  }
  convolution_param {
    num_output: 64
    kernel_size: 1
    weight_filler {
      type: "xavier"
      std: 0.1
    }
    bias_filler {
      type: "constant"
      value: 0.2
    }
  }
}
layer {
  name: "inception_4c/relu_pool_proj"
  type: "ReLU"
  bottom: "inception_4c/pool_proj"
  top: "inception_4c/pool_proj"
}
layer {
  name: "inception_4c/output"
  type: "Concat"
  bottom: "inception_4c/1x1"
  bottom: "inception_4c/3x3"
  bottom: "inception_4c/5x5"
  bottom: "inception_4c/pool_proj"
  top: "inception_4c/output"
}
layer {
  name: "inception_4d/1x1"
  type: "Convolution"
  bottom: "inception_4c/output"
  top: "inception_4d/1x1"
  param {
    lr_mult: 1
    decay_mult: 1
  }
  param {
    lr_mult: 2
    decay_mult: 0
  }
  convolution_param {
    num_output: 112
    kernel_size: 1
    weight_filler {
      type: "xavier"
      std: 0.03
    }
    bias_filler {
      type: "constant"
      value: 0.2
    }
  }
}
layer {
  name: "inception_4d/relu_1x1"
  type: "ReLU"
  bottom: "inception_4d/1x1"
  top: "inception_4d/1x1"
}
layer {
  name: "inception_4d/3x3_reduce"
  type: "Convolution"
  bottom: "inception_4c/output"
  top: "inception_4d/3x3_reduce"
  param {
    lr_mult: 1
    decay_mult: 1
  }
  param {
    lr_mult: 2
    decay_mult: 0
  }
  convolution_param {
    num_output: 144
    kernel_size: 1
    weight_filler {
      type: "xavier"
      std: 0.09
    }
    bias_filler {
      type: "constant"
      value: 0.2
    }
  }
}
layer {
  name: "inception_4d/relu_3x3_reduce"
  type: "ReLU"
  bottom: "inception_4d/3x3_reduce"
  top: "inception_4d/3x3_reduce"
}
layer {
  name: "inception_4d/3x3"
  type: "Convolution"
  bottom: "inception_4d/3x3_reduce"
  top: "inception_4d/3x3"
  param {
    lr_mult: 1
    decay_mult: 1
  }
  param {
    lr_mult: 2
    decay_mult: 0
  }
  convolution_param {
    num_output: 288
    pad: 1
    kernel_size: 3
    weight_filler {
      type: "xavier"
      std: 0.03
    }
    bias_filler {
      type: "constant"
      value: 0.2
    }
  }
}
layer {
  name: "inception_4d/relu_3x3"
  type: "ReLU"
  bottom: "inception_4d/3x3"
  top: "inception_4d/3x3"
}
layer {
  name: "inception_4d/5x5_reduce"
  type: "Convolution"
  bottom: "inception_4c/output"
  top: "inception_4d/5x5_reduce"
  param {
    lr_mult: 1
    decay_mult: 1
  }
  param {
    lr_mult: 2
    decay_mult: 0
  }
  convolution_param {
    num_output: 32
    kernel_size: 1
    weight_filler {
      type: "xavier"
      std: 0.2
    }
    bias_filler {
      type: "constant"
      value: 0.2
    }
  }
}
layer {
  name: "inception_4d/relu_5x5_reduce"
  type: "ReLU"
  bottom: "inception_4d/5x5_reduce"
  top: "inception_4d/5x5_reduce"
}
layer {
  name: "inception_4d/5x5"
  type: "Convolution"
  bottom: "inception_4d/5x5_reduce"
  top: "inception_4d/5x5"
  param {
    lr_mult: 1
    decay_mult: 1
  }
  param {
    lr_mult: 2
    decay_mult: 0
  }
  convolution_param {
    num_output: 64
    pad: 2
    kernel_size: 5
    weight_filler {
      type: "xavier"
      std: 0.03
    }
    bias_filler {
      type: "constant"
      value: 0.2
    }
  }
}
layer {
  name: "inception_4d/relu_5x5"
  type: "ReLU"
  bottom: "inception_4d/5x5"
  top: "inception_4d/5x5"
}
layer {
  name: "inception_4d/pool"
  type: "Pooling"
  bottom: "inception_4c/output"
  top: "inception_4d/pool"
  pooling_param {
    pool: MAX
    kernel_size: 3
    stride: 1
    pad: 1
  }
}
layer {
  name: "inception_4d/pool_proj"
  type: "Convolution"
  bottom: "inception_4d/pool"
  top: "inception_4d/pool_proj"
  param {
    lr_mult: 1
    decay_mult: 1
  }
  param {
    lr_mult: 2
    decay_mult: 0
  }
  convolution_param {
    num_output: 64
    kernel_size: 1
    weight_filler {
      type: "xavier"
      std: 0.1
    }
    bias_filler {
      type: "constant"
      value: 0.2
    }
  }
}
layer {
  name: "inception_4d/relu_pool_proj"
  type: "ReLU"
  bottom: "inception_4d/pool_proj"
  top: "inception_4d/pool_proj"
}
layer {
  name: "inception_4d/output"
  type: "Concat"
  bottom: "inception_4d/1x1"
  bottom: "inception_4d/3x3"
  bottom: "inception_4d/5x5"
  bottom: "inception_4d/pool_proj"
  top: "inception_4d/output"
}
layer {
  name: "loss2/ave_pool"
  type: "Pooling"
  bottom: "inception_4d/output"
  top: "loss2/ave_pool"
  pooling_param {
    pool: AVE
    kernel_size: 5
    stride: 3
  }
}
layer {
  name: "loss2/conv"
  type: "Convolution"
  bottom: "loss2/ave_pool"
  top: "loss2/conv"
  param {
    lr_mult: 1
    decay_mult: 1
  }
  param {
    lr_mult: 2
    decay_mult: 0
  }
  convolution_param {
    num_output: 128
    kernel_size: 1
    weight_filler {
      type: "xavier"
      std: 0.08
    }
    bias_filler {
      type: "constant"
      value: 0.2
    }
  }
}
layer {
  name: "loss2/relu_conv"
  type: "ReLU"
  bottom: "loss2/conv"
  top: "loss2/conv"
}
layer {
  name: "loss2/fc"
  type: "InnerProduct"
  bottom: "loss2/conv"
  top: "loss2/fc"
  param {
    lr_mult: 1
    decay_mult: 1
  }
  param {
    lr_mult: 2
    decay_mult: 0
  }
  inner_product_param {
    num_output: 1024
    weight_filler {
      type: "xavier"
      std: 0.02
    }
    bias_filler {
      type: "constant"
      value: 0.2
    }
  }
}
layer {
  name: "loss2/relu_fc"
  type: "ReLU"
  bottom: "loss2/fc"
  top: "loss2/fc"
}
layer {
  name: "loss2/drop_fc"
  type: "Dropout"
  bottom: "loss2/fc"
  top: "loss2/fc"
  dropout_param {
    dropout_ratio: 0.7
  }
}
layer {
  name: "loss2/classifier_plantvillage"
  type: "InnerProduct"
  bottom: "loss2/fc"
  top: "loss2/classifier_plantvillage"
  param {
    lr_mult: 1
    decay_mult: 1
  }
  param {
    lr_mult: 2
    decay_mult: 0
  }
  inner_product_param {
    num_output: 38
    weight_filler {
      type: "xavier"
      std: 0.0009765625
    }
    bias_filler {
      type: "constant"
      value: 0
    }
  }
}
layer {
  name: "inception_4e/1x1"
  type: "Convolution"
  bottom: "inception_4d/output"
  top: "inception_4e/1x1"
  param {
    lr_mult: 1
    decay_mult: 1
  }
  param {
    lr_mult: 2
    decay_mult: 0
  }
  convolution_param {
    num_output: 256
    kernel_size: 1
    weight_filler {
      type: "xavier"
      std: 0.03
    }
    bias_filler {
      type: "constant"
      value: 0.2
    }
  }
}
layer {
  name: "inception_4e/relu_1x1"
  type: "ReLU"
  bottom: "inception_4e/1x1"
  top: "inception_4e/1x1"
}
layer {
  name: "inception_4e/3x3_reduce"
  type: "Convolution"
  bottom: "inception_4d/output"
  top: "inception_4e/3x3_reduce"
  param {
    lr_mult: 1
    decay_mult: 1
  }
  param {
    lr_mult: 2
    decay_mult: 0
  }
  convolution_param {
    num_output: 160
    kernel_size: 1
    weight_filler {
      type: "xavier"
      std: 0.09
    }
    bias_filler {
      type: "constant"
      value: 0.2
    }
  }
}
layer {
  name: "inception_4e/relu_3x3_reduce"
  type: "ReLU"
  bottom: "inception_4e/3x3_reduce"
  top: "inception_4e/3x3_reduce"
}
layer {
  name: "inception_4e/3x3"
  type: "Convolution"
  bottom: "inception_4e/3x3_reduce"
  top: "inception_4e/3x3"
  param {
    lr_mult: 1
    decay_mult: 1
  }
  param {
    lr_mult: 2
    decay_mult: 0
  }
  convolution_param {
    num_output: 320
    pad: 1
    kernel_size: 3
    weight_filler {
      type: "xavier"
      std: 0.03
    }
    bias_filler {
      type: "constant"
      value: 0.2
    }
  }
}
layer {
  name: "inception_4e/relu_3x3"
  type: "ReLU"
  bottom: "inception_4e/3x3"
  top: "inception_4e/3x3"
}
layer {
  name: "inception_4e/5x5_reduce"
  type: "Convolution"
  bottom: "inception_4d/output"
  top: "inception_4e/5x5_reduce"
  param {
    lr_mult: 1
    decay_mult: 1
  }
  param {
    lr_mult: 2
    decay_mult: 0
  }
  convolution_param {
    num_output: 32
    kernel_size: 1
    weight_filler {
      type: "xavier"
      std: 0.2
    }
    bias_filler {
      type: "constant"
      value: 0.2
    }
  }
}
layer {
  name: "inception_4e/relu_5x5_reduce"
  type: "ReLU"
  bottom: "inception_4e/5x5_reduce"
  top: "inception_4e/5x5_reduce"
}
layer {
  name: "inception_4e/5x5"
  type: "Convolution"
  bottom: "inception_4e/5x5_reduce"
  top: "inception_4e/
I0403 15:36:00.530283 10668 layer_factory.hpp:77] Creating layer data
I0403 15:36:00.530894 10668 net.cpp:91] Creating Layer data
I0403 15:36:00.530936 10668 net.cpp:399] data -> data
I0403 15:36:00.530994 10668 net.cpp:399] data -> label
I0403 15:36:00.531033 10668 data_transformer.cpp:25] Loading mean file from: /home/mohanty/data/final_dataset/lmdb/segmented-80-20/mean.binaryproto
I0403 15:36:00.533509 10671 db_lmdb.cpp:38] Opened lmdb /home/mohanty/data/final_dataset/lmdb/segmented-80-20/test_db
I0403 15:36:00.544291 10668 data_layer.cpp:41] output data size: 24,3,224,224
I0403 15:36:00.575469 10668 net.cpp:141] Setting up data
I0403 15:36:00.575562 10668 net.cpp:148] Top shape: 24 3 224 224 (3612672)
I0403 15:36:00.575588 10668 net.cpp:148] Top shape: 24 (24)
I0403 15:36:00.575604 10668 net.cpp:156] Memory required for data: 14450784
I0403 15:36:00.575634 10668 layer_factory.hpp:77] Creating layer label_data_1_split
I0403 15:36:00.575662 10668 net.cpp:91] Creating Layer label_data_1_split
I0403 15:36:00.575683 10668 net.cpp:425] label_data_1_split <- label
I0403 15:36:00.575716 10668 net.cpp:399] label_data_1_split -> label_data_1_split_0
I0403 15:36:00.575744 10668 net.cpp:399] label_data_1_split -> label_data_1_split_1
I0403 15:36:00.575768 10668 net.cpp:399] label_data_1_split -> label_data_1_split_2
I0403 15:36:00.575790 10668 net.cpp:399] label_data_1_split -> label_data_1_split_3
I0403 15:36:00.575811 10668 net.cpp:399] label_data_1_split -> label_data_1_split_4
I0403 15:36:00.575832 10668 net.cpp:399] label_data_1_split -> label_data_1_split_5
I0403 15:36:00.575852 10668 net.cpp:399] label_data_1_split -> label_data_1_split_6
I0403 15:36:00.575873 10668 net.cpp:399] label_data_1_split -> label_data_1_split_7
I0403 15:36:00.575894 10668 net.cpp:399] label_data_1_split -> label_data_1_split_8
I0403 15:36:00.575916 10668 net.cpp:399] label_data_1_split -> label_data_1_split_9
I0403 15:36:00.576041 10668 net.cpp:141] Setting up label_data_1_split
I0403 15:36:00.576066 10668 net.cpp:148] Top shape: 24 (24)
I0403 15:36:00.576084 10668 net.cpp:148] Top shape: 24 (24)
I0403 15:36:00.576100 10668 net.cpp:148] Top shape: 24 (24)
I0403 15:36:00.576117 10668 net.cpp:148] Top shape: 24 (24)
I0403 15:36:00.576133 10668 net.cpp:148] Top shape: 24 (24)
I0403 15:36:00.576149 10668 net.cpp:148] Top shape: 24 (24)
I0403 15:36:00.576166 10668 net.cpp:148] Top shape: 24 (24)
I0403 15:36:00.576182 10668 net.cpp:148] Top shape: 24 (24)
I0403 15:36:00.576198 10668 net.cpp:148] Top shape: 24 (24)
I0403 15:36:00.576215 10668 net.cpp:148] Top shape: 24 (24)
I0403 15:36:00.576261 10668 net.cpp:156] Memory required for data: 14451744
I0403 15:36:00.576278 10668 layer_factory.hpp:77] Creating layer conv1/7x7_s2
I0403 15:36:00.576313 10668 net.cpp:91] Creating Layer conv1/7x7_s2
I0403 15:36:00.576331 10668 net.cpp:425] conv1/7x7_s2 <- data
I0403 15:36:00.576351 10668 net.cpp:399] conv1/7x7_s2 -> conv1/7x7_s2
I0403 15:36:00.720782 10668 net.cpp:141] Setting up conv1/7x7_s2
I0403 15:36:00.720868 10668 net.cpp:148] Top shape: 24 64 112 112 (19267584)
I0403 15:36:00.720885 10668 net.cpp:156] Memory required for data: 91522080
I0403 15:36:00.720914 10668 layer_factory.hpp:77] Creating layer conv1/relu_7x7
I0403 15:36:00.720942 10668 net.cpp:91] Creating Layer conv1/relu_7x7
I0403 15:36:00.720960 10668 net.cpp:425] conv1/relu_7x7 <- conv1/7x7_s2
I0403 15:36:00.720983 10668 net.cpp:386] conv1/relu_7x7 -> conv1/7x7_s2 (in-place)
I0403 15:36:00.721230 10668 net.cpp:141] Setting up conv1/relu_7x7
I0403 15:36:00.721256 10668 net.cpp:148] Top shape: 24 64 112 112 (19267584)
I0403 15:36:00.721271 10668 net.cpp:156] Memory required for data: 168592416
I0403 15:36:00.721285 10668 layer_factory.hpp:77] Creating layer pool1/3x3_s2
I0403 15:36:00.721309 10668 net.cpp:91] Creating Layer pool1/3x3_s2
I0403 15:36:00.721326 10668 net.cpp:425] pool1/3x3_s2 <- conv1/7x7_s2
I0403 15:36:00.721344 10668 net.cpp:399] pool1/3x3_s2 -> pool1/3x3_s2
I0403 15:36:00.721415 10668 net.cpp:141] Setting up pool1/3x3_s2
I0403 15:36:00.721436 10668 net.cpp:148] Top shape: 24 64 56 56 (4816896)
I0403 15:36:00.721451 10668 net.cpp:156] Memory required for data: 187860000
I0403 15:36:00.721465 10668 layer_factory.hpp:77] Creating layer pool1/norm1
I0403 15:36:00.721488 10668 net.cpp:91] Creating Layer pool1/norm1
I0403 15:36:00.721505 10668 net.cpp:425] pool1/norm1 <- pool1/3x3_s2
I0403 15:36:00.721523 10668 net.cpp:399] pool1/norm1 -> pool1/norm1
I0403 15:36:00.721799 10668 net.cpp:141] Setting up pool1/norm1
I0403 15:36:00.721825 10668 net.cpp:148] Top shape: 24 64 56 56 (4816896)
I0403 15:36:00.721840 10668 net.cpp:156] Memory required for data: 207127584
I0403 15:36:00.721855 10668 layer_factory.hpp:77] Creating layer conv2/3x3_reduce
I0403 15:36:00.721879 10668 net.cpp:91] Creating Layer conv2/3x3_reduce
I0403 15:36:00.721895 10668 net.cpp:425] conv2/3x3_reduce <- pool1/norm1
I0403 15:36:00.721914 10668 net.cpp:399] conv2/3x3_reduce -> conv2/3x3_reduce
I0403 15:36:00.723265 10668 net.cpp:141] Setting up conv2/3x3_reduce
I0403 15:36:00.723296 10668 net.cpp:148] Top shape: 24 64 56 56 (4816896)
I0403 15:36:00.723314 10668 net.cpp:156] Memory required for data: 226395168
I0403 15:36:00.723335 10668 layer_factory.hpp:77] Creating layer conv2/relu_3x3_reduce
I0403 15:36:00.723352 10668 net.cpp:91] Creating Layer conv2/relu_3x3_reduce
I0403 15:36:00.723368 10668 net.cpp:425] conv2/relu_3x3_reduce <- conv2/3x3_reduce
I0403 15:36:00.723386 10668 net.cpp:386] conv2/relu_3x3_reduce -> conv2/3x3_reduce (in-place)
I0403 15:36:00.723647 10668 net.cpp:141] Setting up conv2/relu_3x3_reduce
I0403 15:36:00.723675 10668 net.cpp:148] Top shape: 24 64 56 56 (4816896)
I0403 15:36:00.723690 10668 net.cpp:156] Memory required for data: 245662752
I0403 15:36:00.723704 10668 layer_factory.hpp:77] Creating layer conv2/3x3
I0403 15:36:00.723727 10668 net.cpp:91] Creating Layer conv2/3x3
I0403 15:36:00.723744 10668 net.cpp:425] conv2/3x3 <- conv2/3x3_reduce
I0403 15:36:00.723765 10668 net.cpp:399] conv2/3x3 -> conv2/3x3
I0403 15:36:00.726006 10668 net.cpp:141] Setting up conv2/3x3
I0403 15:36:00.726042 10668 net.cpp:148] Top shape: 24 192 56 56 (14450688)
I0403 15:36:00.726058 10668 net.cpp:156] Memory required for data: 303465504
I0403 15:36:00.726078 10668 layer_factory.hpp:77] Creating layer conv2/relu_3x3
I0403 15:36:00.726099 10668 net.cpp:91] Creating Layer conv2/relu_3x3
I0403 15:36:00.726114 10668 net.cpp:425] conv2/relu_3x3 <- conv2/3x3
I0403 15:36:00.726133 10668 net.cpp:386] conv2/relu_3x3 -> conv2/3x3 (in-place)
I0403 15:36:00.726315 10668 net.cpp:141] Setting up conv2/relu_3x3
I0403 15:36:00.726339 10668 net.cpp:148] Top shape: 24 192 56 56 (14450688)
I0403 15:36:00.726383 10668 net.cpp:156] Memory required for data: 361268256
I0403 15:36:00.726399 10668 layer_factory.hpp:77] Creating layer conv2/norm2
I0403 15:36:00.726419 10668 net.cpp:91] Creating Layer conv2/norm2
I0403 15:36:00.726435 10668 net.cpp:425] conv2/norm2 <- conv2/3x3
I0403 15:36:00.726452 10668 net.cpp:399] conv2/norm2 -> conv2/norm2
I0403 15:36:00.726742 10668 net.cpp:141] Setting up conv2/norm2
I0403 15:36:00.726770 10668 net.cpp:148] Top shape: 24 192 56 56 (14450688)
I0403 15:36:00.726786 10668 net.cpp:156] Memory required for data: 419071008
I0403 15:36:00.726800 10668 layer_factory.hpp:77] Creating layer pool2/3x3_s2
I0403 15:36:00.726817 10668 net.cpp:91] Creating Layer pool2/3x3_s2
I0403 15:36:00.726832 10668 net.cpp:425] pool2/3x3_s2 <- conv2/norm2
I0403 15:36:00.726850 10668 net.cpp:399] pool2/3x3_s2 -> pool2/3x3_s2
I0403 15:36:00.726900 10668 net.cpp:141] Setting up pool2/3x3_s2
I0403 15:36:00.726923 10668 net.cpp:148] Top shape: 24 192 28 28 (3612672)
I0403 15:36:00.726938 10668 net.cpp:156] Memory required for data: 433521696
I0403 15:36:00.726953 10668 layer_factory.hpp:77] Creating layer pool2/3x3_s2_pool2/3x3_s2_0_split
I0403 15:36:00.726970 10668 net.cpp:91] Creating Layer pool2/3x3_s2_pool2/3x3_s2_0_split
I0403 15:36:00.726990 10668 net.cpp:425] pool2/3x3_s2_pool2/3x3_s2_0_split <- pool2/3x3_s2
I0403 15:36:00.727010 10668 net.cpp:399] pool2/3x3_s2_pool2/3x3_s2_0_split -> pool2/3x3_s2_pool2/3x3_s2_0_split_0
I0403 15:36:00.727028 10668 net.cpp:399] pool2/3x3_s2_pool2/3x3_s2_0_split -> pool2/3x3_s2_pool2/3x3_s2_0_split_1
I0403 15:36:00.727047 10668 net.cpp:399] pool2/3x3_s2_pool2/3x3_s2_0_split -> pool2/3x3_s2_pool2/3x3_s2_0_split_2
I0403 15:36:00.727066 10668 net.cpp:399] pool2/3x3_s2_pool2/3x3_s2_0_split -> pool2/3x3_s2_pool2/3x3_s2_0_split_3
I0403 15:36:00.727138 10668 net.cpp:141] Setting up pool2/3x3_s2_pool2/3x3_s2_0_split
I0403 15:36:00.727160 10668 net.cpp:148] Top shape: 24 192 28 28 (3612672)
I0403 15:36:00.727176 10668 net.cpp:148] Top shape: 24 192 28 28 (3612672)
I0403 15:36:00.727190 10668 net.cpp:148] Top shape: 24 192 28 28 (3612672)
I0403 15:36:00.727205 10668 net.cpp:148] Top shape: 24 192 28 28 (3612672)
I0403 15:36:00.727219 10668 net.cpp:156] Memory required for data: 491324448
I0403 15:36:00.727233 10668 layer_factory.hpp:77] Creating layer inception_3a/1x1
I0403 15:36:00.727255 10668 net.cpp:91] Creating Layer inception_3a/1x1
I0403 15:36:00.727272 10668 net.cpp:425] inception_3a/1x1 <- pool2/3x3_s2_pool2/3x3_s2_0_split_0
I0403 15:36:00.727291 10668 net.cpp:399] inception_3a/1x1 -> inception_3a/1x1
I0403 15:36:00.728770 10668 net.cpp:141] Setting up inception_3a/1x1
I0403 15:36:00.728801 10668 net.cpp:148] Top shape: 24 64 28 28 (1204224)
I0403 15:36:00.728818 10668 net.cpp:156] Memory required for data: 496141344
I0403 15:36:00.728837 10668 layer_factory.hpp:77] Creating layer inception_3a/relu_1x1
I0403 15:36:00.728854 10668 net.cpp:91] Creating Layer inception_3a/relu_1x1
I0403 15:36:00.728869 10668 net.cpp:425] inception_3a/relu_1x1 <- inception_3a/1x1
I0403 15:36:00.728888 10668 net.cpp:386] inception_3a/relu_1x1 -> inception_3a/1x1 (in-place)
I0403 15:36:00.729061 10668 net.cpp:141] Setting up inception_3a/relu_1x1
I0403 15:36:00.729085 10668 net.cpp:148] Top shape: 24 64 28 28 (1204224)
I0403 15:36:00.729099 10668 net.cpp:156] Memory required for data: 500958240
I0403 15:36:00.729115 10668 layer_factory.hpp:77] Creating layer inception_3a/3x3_reduce
I0403 15:36:00.729135 10668 net.cpp:91] Creating Layer inception_3a/3x3_reduce
I0403 15:36:00.729152 10668 net.cpp:425] inception_3a/3x3_reduce <- pool2/3x3_s2_pool2/3x3_s2_0_split_1
I0403 15:36:00.729172 10668 net.cpp:399] inception_3a/3x3_reduce -> inception_3a/3x3_reduce
I0403 15:36:00.730804 10668 net.cpp:141] Setting up inception_3a/3x3_reduce
I0403 15:36:00.730834 10668 net.cpp:148] Top shape: 24 96 28 28 (1806336)
I0403 15:36:00.730850 10668 net.cpp:156] Memory required for data: 508183584
I0403 15:36:00.730871 10668 layer_factory.hpp:77] Creating layer inception_3a/relu_3x3_reduce
I0403 15:36:00.730908 10668 net.cpp:91] Creating Layer inception_3a/relu_3x3_reduce
I0403 15:36:00.730926 10668 net.cpp:425] inception_3a/relu_3x3_reduce <- inception_3a/3x3_reduce
I0403 15:36:00.730945 10668 net.cpp:386] inception_3a/relu_3x3_reduce -> inception_3a/3x3_reduce (in-place)
I0403 15:36:00.731123 10668 net.cpp:141] Setting up inception_3a/relu_3x3_reduce
I0403 15:36:00.731150 10668 net.cpp:148] Top shape: 24 96 28 28 (1806336)
I0403 15:36:00.731164 10668 net.cpp:156] Memory required for data: 515408928
I0403 15:36:00.731180 10668 layer_factory.hpp:77] Creating layer inception_3a/3x3
I0403 15:36:00.731199 10668 net.cpp:91] Creating Layer inception_3a/3x3
I0403 15:36:00.731215 10668 net.cpp:425] inception_3a/3x3 <- inception_3a/3x3_reduce
I0403 15:36:00.731236 10668 net.cpp:399] inception_3a/3x3 -> inception_3a/3x3
I0403 15:36:00.732817 10668 net.cpp:141] Setting up inception_3a/3x3
I0403 15:36:00.732847 10668 net.cpp:148] Top shape: 24 128 28 28 (2408448)
I0403 15:36:00.732863 10668 net.cpp:156] Memory required for data: 525042720
I0403 15:36:00.732882 10668 layer_factory.hpp:77] Creating layer inception_3a/relu_3x3
I0403 15:36:00.732898 10668 net.cpp:91] Creating Layer inception_3a/relu_3x3
I0403 15:36:00.732914 10668 net.cpp:425] inception_3a/relu_3x3 <- inception_3a/3x3
I0403 15:36:00.732933 10668 net.cpp:386] inception_3a/relu_3x3 -> inception_3a/3x3 (in-place)
I0403 15:36:00.733198 10668 net.cpp:141] Setting up inception_3a/relu_3x3
I0403 15:36:00.733225 10668 net.cpp:148] Top shape: 24 128 28 28 (2408448)
I0403 15:36:00.733242 10668 net.cpp:156] Memory required for data: 534676512
I0403 15:36:00.733256 10668 layer_factory.hpp:77] Creating layer inception_3a/5x5_reduce
I0403 15:36:00.733278 10668 net.cpp:91] Creating Layer inception_3a/5x5_reduce
I0403 15:36:00.733294 10668 net.cpp:425] inception_3a/5x5_reduce <- pool2/3x3_s2_pool2/3x3_s2_0_split_2
I0403 15:36:00.733314 10668 net.cpp:399] inception_3a/5x5_reduce -> inception_3a/5x5_reduce
I0403 15:36:00.734242 10668 net.cpp:141] Setting up inception_3a/5x5_reduce
I0403 15:36:00.734269 10668 net.cpp:148] Top shape: 24 16 28 28 (301056)
I0403 15:36:00.734285 10668 net.cpp:156] Memory required for data: 535880736
I0403 15:36:00.734302 10668 layer_factory.hpp:77] Creating layer inception_3a/relu_5x5_reduce
I0403 15:36:00.734323 10668 net.cpp:91] Creating Layer inception_3a/relu_5x5_reduce
I0403 15:36:00.734340 10668 net.cpp:425] inception_3a/relu_5x5_reduce <- inception_3a/5x5_reduce
I0403 15:36:00.734357 10668 net.cpp:386] inception_3a/relu_5x5_reduce -> inception_3a/5x5_reduce (in-place)
I0403 15:36:00.734642 10668 net.cpp:141] Setting up inception_3a/relu_5x5_reduce
I0403 15:36:00.734666 10668 net.cpp:148] Top shape: 24 16 28 28 (301056)
I0403 15:36:00.734680 10668 net.cpp:156] Memory required for data: 537084960
I0403 15:36:00.734694 10668 layer_factory.hpp:77] Creating layer inception_3a/5x5
I0403 15:36:00.734716 10668 net.cpp:91] Creating Layer inception_3a/5x5
I0403 15:36:00.734733 10668 net.cpp:425] inception_3a/5x5 <- inception_3a/5x5_reduce
I0403 15:36:00.734753 10668 net.cpp:399] inception_3a/5x5 -> inception_3a/5x5
I0403 15:36:00.735731 10668 net.cpp:141] Setting up inception_3a/5x5
I0403 15:36:00.735760 10668 net.cpp:148] Top shape: 24 32 28 28 (602112)
I0403 15:36:00.735775 10668 net.cpp:156] Memory required for data: 539493408
I0403 15:36:00.735793 10668 layer_factory.hpp:77] Creating layer inception_3a/relu_5x5
I0403 15:36:00.735810 10668 net.cpp:91] Creating Layer inception_3a/relu_5x5
I0403 15:36:00.735826 10668 net.cpp:425] inception_3a/relu_5x5 <- inception_3a/5x5
I0403 15:36:00.735846 10668 net.cpp:386] inception_3a/relu_5x5 -> inception_3a/5x5 (in-place)
I0403 15:36:00.736016 10668 net.cpp:141] Setting up inception_3a/relu_5x5
I0403 15:36:00.736040 10668 net.cpp:148] Top shape: 24 32 28 28 (602112)
I0403 15:36:00.736054 10668 net.cpp:156] Memory required for data: 541901856
I0403 15:36:00.736068 10668 layer_factory.hpp:77] Creating layer inception_3a/pool
I0403 15:36:00.736085 10668 net.cpp:91] Creating Layer inception_3a/pool
I0403 15:36:00.736114 10668 net.cpp:425] inception_3a/pool <- pool2/3x3_s2_pool2/3x3_s2_0_split_3
I0403 15:36:00.736135 10668 net.cpp:399] inception_3a/pool -> inception_3a/pool
I0403 15:36:00.736191 10668 net.cpp:141] Setting up inception_3a/pool
I0403 15:36:00.736215 10668 net.cpp:148] Top shape: 24 192 28 28 (3612672)
I0403 15:36:00.736229 10668 net.cpp:156] Memory required for data: 556352544
I0403 15:36:00.736243 10668 layer_factory.hpp:77] Creating layer inception_3a/pool_proj
I0403 15:36:00.736268 10668 net.cpp:91] Creating Layer inception_3a/pool_proj
I0403 15:36:00.736284 10668 net.cpp:425] inception_3a/pool_proj <- inception_3a/pool
I0403 15:36:00.736302 10668 net.cpp:399] inception_3a/pool_proj -> inception_3a/pool_proj
I0403 15:36:00.737257 10668 net.cpp:141] Setting up inception_3a/pool_proj
I0403 15:36:00.737283 10668 net.cpp:148] Top shape: 24 32 28 28 (602112)
I0403 15:36:00.737298 10668 net.cpp:156] Memory required for data: 558760992
I0403 15:36:00.737324 10668 layer_factory.hpp:77] Creating layer inception_3a/relu_pool_proj
I0403 15:36:00.737355 10668 net.cpp:91] Creating Layer inception_3a/relu_pool_proj
I0403 15:36:00.737372 10668 net.cpp:425] inception_3a/relu_pool_proj <- inception_3a/pool_proj
I0403 15:36:00.737390 10668 net.cpp:386] inception_3a/relu_pool_proj -> inception_3a/pool_proj (in-place)
I0403 15:36:00.737655 10668 net.cpp:141] Setting up inception_3a/relu_pool_proj
I0403 15:36:00.737684 10668 net.cpp:148] Top shape: 24 32 28 28 (602112)
I0403 15:36:00.737699 10668 net.cpp:156] Memory required for data: 561169440
I0403 15:36:00.737712 10668 layer_factory.hpp:77] Creating layer inception_3a/output
I0403 15:36:00.737731 10668 net.cpp:91] Creating Layer inception_3a/output
I0403 15:36:00.737746 10668 net.cpp:425] inception_3a/output <- inception_3a/1x1
I0403 15:36:00.737761 10668 net.cpp:425] inception_3a/output <- inception_3a/3x3
I0403 15:36:00.737777 10668 net.cpp:425] inception_3a/output <- inception_3a/5x5
I0403 15:36:00.737792 10668 net.cpp:425] inception_3a/output <- inception_3a/pool_proj
I0403 15:36:00.737810 10668 net.cpp:399] inception_3a/output -> inception_3a/output
I0403 15:36:00.737855 10668 net.cpp:141] Setting up inception_3a/output
I0403 15:36:00.737877 10668 net.cpp:148] Top shape: 24 256 28 28 (4816896)
I0403 15:36:00.737891 10668 net.cpp:156] Memory required for data: 580437024
I0403 15:36:00.737905 10668 layer_factory.hpp:77] Creating layer inception_3a/output_inception_3a/output_0_split
I0403 15:36:00.737927 10668 net.cpp:91] Creating Layer inception_3a/output_inception_3a/output_0_split
I0403 15:36:00.737943 10668 net.cpp:425] inception_3a/output_inception_3a/output_0_split <- inception_3a/output
I0403 15:36:00.737960 10668 net.cpp:399] inception_3a/output_inception_3a/output_0_split -> inception_3a/output_inception_3a/output_0_split_0
I0403 15:36:00.737988 10668 net.cpp:399] inception_3a/output_inception_3a/output_0_split -> inception_3a/output_inception_3a/output_0_split_1
I0403 15:36:00.738015 10668 net.cpp:399] inception_3a/output_inception_3a/output_0_split -> inception_3a/output_inception_3a/output_0_split_2
I0403 15:36:00.738036 10668 net.cpp:399] inception_3a/output_inception_3a/output_0_split -> inception_3a/output_inception_3a/output_0_split_3
I0403 15:36:00.738106 10668 net.cpp:141] Setting up inception_3a/output_inception_3a/output_0_split
I0403 15:36:00.738131 10668 net.cpp:148] Top shape: 24 256 28 28 (4816896)
I0403 15:36:00.738147 10668 net.cpp:148] Top shape: 24 256 28 28 (4816896)
I0403 15:36:00.738163 10668 net.cpp:148] Top shape: 24 256 28 28 (4816896)
I0403 15:36:00.738178 10668 net.cpp:148] Top shape: 24 256 28 28 (4816896)
I0403 15:36:00.738193 10668 net.cpp:156] Memory required for data: 657507360
I0403 15:36:00.738206 10668 layer_factory.hpp:77] Creating layer inception_3b/1x1
I0403 15:36:00.738229 10668 net.cpp:91] Creating Layer inception_3b/1x1
I0403 15:36:00.738245 10668 net.cpp:425] inception_3b/1x1 <- inception_3a/output_inception_3a/output_0_split_0
I0403 15:36:00.738263 10668 net.cpp:399] inception_3b/1x1 -> inception_3b/1x1
I0403 15:36:00.739361 10668 net.cpp:141] Setting up inception_3b/1x1
I0403 15:36:00.739400 10668 net.cpp:148] Top shape: 24 128 28 28 (2408448)
I0403 15:36:00.739416 10668 net.cpp:156] Memory required for data: 667141152
I0403 15:36:00.739434 10668 layer_factory.hpp:77] Creating layer inception_3b/relu_1x1
I0403 15:36:00.739452 10668 net.cpp:91] Creating Layer inception_3b/relu_1x1
I0403 15:36:00.739469 10668 net.cpp:425] inception_3b/relu_1x1 <- inception_3b/1x1
I0403 15:36:00.739485 10668 net.cpp:386] inception_3b/relu_1x1 -> inception_3b/1x1 (in-place)
I0403 15:36:00.739656 10668 net.cpp:141] Setting up inception_3b/relu_1x1
I0403 15:36:00.739681 10668 net.cpp:148] Top shape: 24 128 28 28 (2408448)
I0403 15:36:00.739694 10668 net.cpp:156] Memory required for data: 676774944
I0403 15:36:00.739709 10668 layer_factory.hpp:77] Creating layer inception_3b/3x3_reduce
I0403 15:36:00.739730 10668 net.cpp:91] Creating Layer inception_3b/3x3_reduce
I0403 15:36:00.739748 10668 net.cpp:425] inception_3b/3x3_reduce <- inception_3a/output_inception_3a/output_0_split_1
I0403 15:36:00.739768 10668 net.cpp:399] inception_3b/3x3_reduce -> inception_3b/3x3_reduce
I0403 15:36:00.740861 10668 net.cpp:141] Setting up inception_3b/3x3_reduce
I0403 15:36:00.740887 10668 net.cpp:148] Top shape: 24 128 28 28 (2408448)
I0403 15:36:00.740902 10668 net.cpp:156] Memory required for data: 686408736
I0403 15:36:00.740921 10668 layer_factory.hpp:77] Creating layer inception_3b/relu_3x3_reduce
I0403 15:36:00.740941 10668 net.cpp:91] Creating Layer inception_3b/relu_3x3_reduce
I0403 15:36:00.740957 10668 net.cpp:425] inception_3b/relu_3x3_reduce <- inception_3b/3x3_reduce
I0403 15:36:00.740973 10668 net.cpp:386] inception_3b/relu_3x3_reduce -> inception_3b/3x3_reduce (in-place)
I0403 15:36:00.741145 10668 net.cpp:141] Setting up inception_3b/relu_3x3_reduce
I0403 15:36:00.741169 10668 net.cpp:148] Top shape: 24 128 28 28 (2408448)
I0403 15:36:00.741183 10668 net.cpp:156] Memory required for data: 696042528
I0403 15:36:00.741199 10668 layer_factory.hpp:77] Creating layer inception_3b/3x3
I0403 15:36:00.741221 10668 net.cpp:91] Creating Layer inception_3b/3x3
I0403 15:36:00.741241 10668 net.cpp:425] inception_3b/3x3 <- inception_3b/3x3_reduce
I0403 15:36:00.741260 10668 net.cpp:399] inception_3b/3x3 -> inception_3b/3x3
I0403 15:36:00.744079 10668 net.cpp:141] Setting up inception_3b/3x3
I0403 15:36:00.744109 10668 net.cpp:148] Top shape: 24 192 28 28 (3612672)
I0403 15:36:00.744127 10668 net.cpp:156] Memory required for data: 710493216
I0403 15:36:00.744144 10668 layer_factory.hpp:77] Creating layer inception_3b/relu_3x3
I0403 15:36:00.744163 10668 net.cpp:91] Creating Layer inception_3b/relu_3x3
I0403 15:36:00.744179 10668 net.cpp:425] inception_3b/relu_3x3 <- inception_3b/3x3
I0403 15:36:00.744197 10668 net.cpp:386] inception_3b/relu_3x3 -> inception_3b/3x3 (in-place)
I0403 15:36:00.744477 10668 net.cpp:141] Setting up inception_3b/relu_3x3
I0403 15:36:00.744505 10668 net.cpp:148] Top shape: 24 192 28 28 (3612672)
I0403 15:36:00.744520 10668 net.cpp:156] Memory required for data: 724943904
I0403 15:36:00.744534 10668 layer_factory.hpp:77] Creating layer inception_3b/5x5_reduce
I0403 15:36:00.744557 10668 net.cpp:91] Creating Layer inception_3b/5x5_reduce
I0403 15:36:00.744575 10668 net.cpp:425] inception_3b/5x5_reduce <- inception_3a/output_inception_3a/output_0_split_2
I0403 15:36:00.744595 10668 net.cpp:399] inception_3b/5x5_reduce -> inception_3b/5x5_reduce
I0403 15:36:00.745569 10668 net.cpp:141] Setting up inception_3b/5x5_reduce
I0403 15:36:00.745599 10668 net.cpp:148] Top shape: 24 32 28 28 (602112)
I0403 15:36:00.745616 10668 net.cpp:156] Memory required for data: 727352352
I0403 15:36:00.745635 10668 layer_factory.hpp:77] Creating layer inception_3b/relu_5x5_reduce
I0403 15:36:00.745652 10668 net.cpp:91] Creating Layer inception_3b/relu_5x5_reduce
I0403 15:36:00.745668 10668 net.cpp:425] inception_3b/relu_5x5_reduce <- inception_3b/5x5_reduce
I0403 15:36:00.745687 10668 net.cpp:386] inception_3b/relu_5x5_reduce -> inception_3b/5x5_reduce (in-place)
I0403 15:36:00.745874 10668 net.cpp:141] Setting up inception_3b/relu_5x5_reduce
I0403 15:36:00.745898 10668 net.cpp:148] Top shape: 24 32 28 28 (602112)
I0403 15:36:00.745913 10668 net.cpp:156] Memory required for data: 729760800
I0403 15:36:00.745929 10668 layer_factory.hpp:77] Creating layer inception_3b/5x5
I0403 15:36:00.745950 10668 net.cpp:91] Creating Layer inception_3b/5x5
I0403 15:36:00.745968 10668 net.cpp:425] inception_3b/5x5 <- inception_3b/5x5_reduce
I0403 15:36:00.745995 10668 net.cpp:399] inception_3b/5x5 -> inception_3b/5x5
I0403 15:36:00.747937 10668 net.cpp:141] Setting up inception_3b/5x5
I0403 15:36:00.747967 10668 net.cpp:148] Top shape: 24 96 28 28 (1806336)
I0403 15:36:00.747992 10668 net.cpp:156] Memory required for data: 736986144
I0403 15:36:00.748013 10668 layer_factory.hpp:77] Creating layer inception_3b/relu_5x5
I0403 15:36:00.748037 10668 net.cpp:91] Creating Layer inception_3b/relu_5x5
I0403 15:36:00.748054 10668 net.cpp:425] inception_3b/relu_5x5 <- inception_3b/5x5
I0403 15:36:00.748072 10668 net.cpp:386] inception_3b/relu_5x5 -> inception_3b/5x5 (in-place)
I0403 15:36:00.748260 10668 net.cpp:141] Setting up inception_3b/relu_5x5
I0403 15:36:00.748286 10668 net.cpp:148] Top shape: 24 96 28 28 (1806336)
I0403 15:36:00.748301 10668 net.cpp:156] Memory required for data: 744211488
I0403 15:36:00.748314 10668 layer_factory.hpp:77] Creating layer inception_3b/pool
I0403 15:36:00.748332 10668 net.cpp:91] Creating Layer inception_3b/pool
I0403 15:36:00.748348 10668 net.cpp:425] inception_3b/pool <- inception_3a/output_inception_3a/output_0_split_3
I0403 15:36:00.748366 10668 net.cpp:399] inception_3b/pool -> inception_3b/pool
I0403 15:36:00.748421 10668 net.cpp:141] Setting up inception_3b/pool
I0403 15:36:00.748443 10668 net.cpp:148] Top shape: 24 256 28 28 (4816896)
I0403 15:36:00.748458 10668 net.cpp:156] Memory required for data: 763479072
I0403 15:36:00.748473 10668 layer_factory.hpp:77] Creating layer inception_3b/pool_proj
I0403 15:36:00.748497 10668 net.cpp:91] Creating Layer inception_3b/pool_proj
I0403 15:36:00.748513 10668 net.cpp:425] inception_3b/pool_proj <- inception_3b/pool
I0403 15:36:00.748531 10668 net.cpp:399] inception_3b/pool_proj -> inception_3b/pool_proj
I0403 15:36:00.749569 10668 net.cpp:141] Setting up inception_3b/pool_proj
I0403 15:36:00.749596 10668 net.cpp:148] Top shape: 24 64 28 28 (1204224)
I0403 15:36:00.749613 10668 net.cpp:156] Memory required for data: 768295968
I0403 15:36:00.749630 10668 layer_factory.hpp:77] Creating layer inception_3b/relu_pool_proj
I0403 15:36:00.749651 10668 net.cpp:91] Creating Layer inception_3b/relu_pool_proj
I0403 15:36:00.749668 10668 net.cpp:425] inception_3b/relu_pool_proj <- inception_3b/pool_proj
I0403 15:36:00.749686 10668 net.cpp:386] inception_3b/relu_pool_proj -> inception_3b/pool_proj (in-place)
I0403 15:36:00.750078 10668 net.cpp:141] Setting up inception_3b/relu_pool_proj
I0403 15:36:00.750104 10668 net.cpp:148] Top shape: 24 64 28 28 (1204224)
I0403 15:36:00.750119 10668 net.cpp:156] Memory required for data: 773112864
I0403 15:36:00.750134 10668 layer_factory.hpp:77] Creating layer inception_3b/output
I0403 15:36:00.750152 10668 net.cpp:91] Creating Layer inception_3b/output
I0403 15:36:00.750167 10668 net.cpp:425] inception_3b/output <- inception_3b/1x1
I0403 15:36:00.750183 10668 net.cpp:425] inception_3b/output <- inception_3b/3x3
I0403 15:36:00.750200 10668 net.cpp:425] inception_3b/output <- inception_3b/5x5
I0403 15:36:00.750214 10668 net.cpp:425] inception_3b/output <- inception_3b/pool_proj
I0403 15:36:00.750234 10668 net.cpp:399] inception_3b/output -> inception_3b/output
I0403 15:36:00.750277 10668 net.cpp:141] Setting up inception_3b/output
I0403 15:36:00.750303 10668 net.cpp:148] Top shape: 24 480 28 28 (9031680)
I0403 15:36:00.750318 10668 net.cpp:156] Memory required for data: 809239584
I0403 15:36:00.750332 10668 layer_factory.hpp:77] Creating layer pool3/3x3_s2
I0403 15:36:00.750350 10668 net.cpp:91] Creating Layer pool3/3x3_s2
I0403 15:36:00.750366 10668 net.cpp:425] pool3/3x3_s2 <- inception_3b/output
I0403 15:36:00.750403 10668 net.cpp:399] pool3/3x3_s2 -> pool3/3x3_s2
I0403 15:36:00.750461 10668 net.cpp:141] Setting up pool3/3x3_s2
I0403 15:36:00.750484 10668 net.cpp:148] Top shape: 24 480 14 14 (2257920)
I0403 15:36:00.750499 10668 net.cpp:156] Memory required for data: 818271264
I0403 15:36:00.750514 10668 layer_factory.hpp:77] Creating layer pool3/3x3_s2_pool3/3x3_s2_0_split
I0403 15:36:00.750533 10668 net.cpp:91] Creating Layer pool3/3x3_s2_pool3/3x3_s2_0_split
I0403 15:36:00.750550 10668 net.cpp:425] pool3/3x3_s2_pool3/3x3_s2_0_split <- pool3/3x3_s2
I0403 15:36:00.750566 10668 net.cpp:399] pool3/3x3_s2_pool3/3x3_s2_0_split -> pool3/3x3_s2_pool3/3x3_s2_0_split_0
I0403 15:36:00.750586 10668 net.cpp:399] pool3/3x3_s2_pool3/3x3_s2_0_split -> pool3/3x3_s2_pool3/3x3_s2_0_split_1
I0403 15:36:00.750604 10668 net.cpp:399] pool3/3x3_s2_pool3/3x3_s2_0_split -> pool3/3x3_s2_pool3/3x3_s2_0_split_2
I0403 15:36:00.750627 10668 net.cpp:399] pool3/3x3_s2_pool3/3x3_s2_0_split -> pool3/3x3_s2_pool3/3x3_s2_0_split_3
I0403 15:36:00.750702 10668 net.cpp:141] Setting up pool3/3x3_s2_pool3/3x3_s2_0_split
I0403 15:36:00.750725 10668 net.cpp:148] Top shape: 24 480 14 14 (2257920)
I0403 15:36:00.750741 10668 net.cpp:148] Top shape: 24 480 14 14 (2257920)
I0403 15:36:00.750756 10668 net.cpp:148] Top shape: 24 480 14 14 (2257920)
I0403 15:36:00.750771 10668 net.cpp:148] Top shape: 24 480 14 14 (2257920)
I0403 15:36:00.750785 10668 net.cpp:156] Memory required for data: 854397984
I0403 15:36:00.750799 10668 layer_factory.hpp:77] Creating layer inception_4a/1x1
I0403 15:36:00.750821 10668 net.cpp:91] Creating Layer inception_4a/1x1
I0403 15:36:00.750838 10668 net.cpp:425] inception_4a/1x1 <- pool3/3x3_s2_pool3/3x3_s2_0_split_0
I0403 15:36:00.750859 10668 net.cpp:399] inception_4a/1x1 -> inception_4a/1x1
I0403 15:36:00.752449 10668 net.cpp:141] Setting up inception_4a/1x1
I0403 15:36:00.752477 10668 net.cpp:148] Top shape: 24 192 14 14 (903168)
I0403 15:36:00.752492 10668 net.cpp:156] Memory required for data: 858010656
I0403 15:36:00.752511 10668 layer_factory.hpp:77] Creating layer inception_4a/relu_1x1
I0403 15:36:00.752532 10668 net.cpp:91] Creating Layer inception_4a/relu_1x1
I0403 15:36:00.752547 10668 net.cpp:425] inception_4a/relu_1x1 <- inception_4a/1x1
I0403 15:36:00.752565 10668 net.cpp:386] inception_4a/relu_1x1 -> inception_4a/1x1 (in-place)
I0403 15:36:00.752735 10668 net.cpp:141] Setting up inception_4a/relu_1x1
I0403 15:36:00.752763 10668 net.cpp:148] Top shape: 24 192 14 14 (903168)
I0403 15:36:00.752779 10668 net.cpp:156] Memory required for data: 861623328
I0403 15:36:00.752794 10668 layer_factory.hpp:77] Creating layer inception_4a/3x3_reduce
I0403 15:36:00.752816 10668 net.cpp:91] Creating Layer inception_4a/3x3_reduce
I0403 15:36:00.752833 10668 net.cpp:425] inception_4a/3x3_reduce <- pool3/3x3_s2_pool3/3x3_s2_0_split_1
I0403 15:36:00.752852 10668 net.cpp:399] inception_4a/3x3_reduce -> inception_4a/3x3_reduce
I0403 15:36:00.754099 10668 net.cpp:141] Setting up inception_4a/3x3_reduce
I0403 15:36:00.754127 10668 net.cpp:148] Top shape: 24 96 14 14 (451584)
I0403 15:36:00.754142 10668 net.cpp:156] Memory required for data: 863429664
I0403 15:36:00.754166 10668 layer_factory.hpp:77] Creating layer inception_4a/relu_3x3_reduce
I0403 15:36:00.754186 10668 net.cpp:91] Creating Layer inception_4a/relu_3x3_reduce
I0403 15:36:00.754202 10668 net.cpp:425] inception_4a/relu_3x3_reduce <- inception_4a/3x3_reduce
I0403 15:36:00.754221 10668 net.cpp:386] inception_4a/relu_3x3_reduce -> inception_4a/3x3_reduce (in-place)
I0403 15:36:00.754391 10668 net.cpp:141] Setting up inception_4a/relu_3x3_reduce
I0403 15:36:00.754421 10668 net.cpp:148] Top shape: 24 96 14 14 (451584)
I0403 15:36:00.754437 10668 net.cpp:156] Memory required for data: 865236000
I0403 15:36:00.754452 10668 layer_factory.hpp:77] Creating layer inception_4a/3x3
I0403 15:36:00.754472 10668 net.cpp:91] Creating Layer inception_4a/3x3
I0403 15:36:00.754489 10668 net.cpp:425] inception_4a/3x3 <- inception_4a/3x3_reduce
I0403 15:36:00.754510 10668 net.cpp:399] inception_4a/3x3 -> inception_4a/3x3
I0403 15:36:00.757195 10668 net.cpp:141] Setting up inception_4a/3x3
I0403 15:36:00.757225 10668 net.cpp:148] Top shape: 24 208 14 14 (978432)
I0403 15:36:00.757241 10668 net.cpp:156] Memory required for data: 869149728
I0403 15:36:00.757261 10668 layer_factory.hpp:77] Creating layer inception_4a/relu_3x3
I0403 15:36:00.757277 10668 net.cpp:91] Creating Layer inception_4a/relu_3x3
I0403 15:36:00.757293 10668 net.cpp:425] inception_4a/relu_3x3 <- inception_4a/3x3
I0403 15:36:00.757313 10668 net.cpp:386] inception_4a/relu_3x3 -> inception_4a/3x3 (in-place)
I0403 15:36:00.757591 10668 net.cpp:141] Setting up inception_4a/relu_3x3
I0403 15:36:00.757618 10668 net.cpp:148] Top shape: 24 208 14 14 (978432)
I0403 15:36:00.757633 10668 net.cpp:156] Memory required for data: 873063456
I0403 15:36:00.757648 10668 layer_factory.hpp:77] Creating layer inception_4a/5x5_reduce
I0403 15:36:00.757670 10668 net.cpp:91] Creating Layer inception_4a/5x5_reduce
I0403 15:36:00.757688 10668 net.cpp:425] inception_4a/5x5_reduce <- pool3/3x3_s2_pool3/3x3_s2_0_split_2
I0403 15:36:00.757706 10668 net.cpp:399] inception_4a/5x5_reduce -> inception_4a/5x5_reduce
I0403 15:36:00.758688 10668 net.cpp:141] Setting up inception_4a/5x5_reduce
I0403 15:36:00.758718 10668 net.cpp:148] Top shape: 24 16 14 14 (75264)
I0403 15:36:00.758734 10668 net.cpp:156] Memory required for data: 873364512
I0403 15:36:00.758751 10668 layer_factory.hpp:77] Creating layer inception_4a/relu_5x5_reduce
I0403 15:36:00.758769 10668 net.cpp:91] Creating Layer inception_4a/relu_5x5_reduce
I0403 15:36:00.758785 10668 net.cpp:425] inception_4a/relu_5x5_reduce <- inception_4a/5x5_reduce
I0403 15:36:00.758803 10668 net.cpp:386] inception_4a/relu_5x5_reduce -> inception_4a/5x5_reduce (in-place)
I0403 15:36:00.758983 10668 net.cpp:141] Setting up inception_4a/relu_5x5_reduce
I0403 15:36:00.759007 10668 net.cpp:148] Top shape: 24 16 14 14 (75264)
I0403 15:36:00.759021 10668 net.cpp:156] Memory required for data: 873665568
I0403 15:36:00.759037 10668 layer_factory.hpp:77] Creating layer inception_4a/5x5
I0403 15:36:00.759057 10668 net.cpp:91] Creating Layer inception_4a/5x5
I0403 15:36:00.759074 10668 net.cpp:425] inception_4a/5x5 <- inception_4a/5x5_reduce
I0403 15:36:00.759094 10668 net.cpp:399] inception_4a/5x5 -> inception_4a/5x5
I0403 15:36:00.760141 10668 net.cpp:141] Setting up inception_4a/5x5
I0403 15:36:00.760169 10668 net.cpp:148] Top shape: 24 48 14 14 (225792)
I0403 15:36:00.760184 10668 net.cpp:156] Memory required for data: 874568736
I0403 15:36:00.760201 10668 layer_factory.hpp:77] Creating layer inception_4a/relu_5x5
I0403 15:36:00.760221 10668 net.cpp:91] Creating Layer inception_4a/relu_5x5
I0403 15:36:00.760237 10668 net.cpp:425] inception_4a/relu_5x5 <- inception_4a/5x5
I0403 15:36:00.760254 10668 net.cpp:386] inception_4a/relu_5x5 -> inception_4a/5x5 (in-place)
I0403 15:36:00.760424 10668 net.cpp:141] Setting up inception_4a/relu_5x5
I0403 15:36:00.760448 10668 net.cpp:148] Top shape: 24 48 14 14 (225792)
I0403 15:36:00.760462 10668 net.cpp:156] Memory required for data: 875471904
I0403 15:36:00.760476 10668 layer_factory.hpp:77] Creating layer inception_4a/pool
I0403 15:36:00.760496 10668 net.cpp:91] Creating Layer inception_4a/pool
I0403 15:36:00.760512 10668 net.cpp:425] inception_4a/pool <- pool3/3x3_s2_pool3/3x3_s2_0_split_3
I0403 15:36:00.760529 10668 net.cpp:399] inception_4a/pool -> inception_4a/pool
I0403 15:36:00.760588 10668 net.cpp:141] Setting up inception_4a/pool
I0403 15:36:00.760610 10668 net.cpp:148] Top shape: 24 480 14 14 (2257920)
I0403 15:36:00.760624 10668 net.cpp:156] Memory required for data: 884503584
I0403 15:36:00.760638 10668 layer_factory.hpp:77] Creating layer inception_4a/pool_proj
I0403 15:36:00.760660 10668 net.cpp:91] Creating Layer inception_4a/pool_proj
I0403 15:36:00.760676 10668 net.cpp:425] inception_4a/pool_proj <- inception_4a/pool
I0403 15:36:00.760696 10668 net.cpp:399] inception_4a/pool_proj -> inception_4a/pool_proj
I0403 15:36:00.761816 10668 net.cpp:141] Setting up inception_4a/pool_proj
I0403 15:36:00.761843 10668 net.cpp:148] Top shape: 24 64 14 14 (301056)
I0403 15:36:00.761873 10668 net.cpp:156] Memory required for data: 885707808
I0403 15:36:00.761893 10668 layer_factory.hpp:77] Creating layer inception_4a/relu_pool_proj
I0403 15:36:00.761914 10668 net.cpp:91] Creating Layer inception_4a/relu_pool_proj
I0403 15:36:00.761930 10668 net.cpp:425] inception_4a/relu_pool_proj <- inception_4a/pool_proj
I0403 15:36:00.761947 10668 net.cpp:386] inception_4a/relu_pool_proj -> inception_4a/pool_proj (in-place)
I0403 15:36:00.762226 10668 net.cpp:141] Setting up inception_4a/relu_pool_proj
I0403 15:36:00.762251 10668 net.cpp:148] Top shape: 24 64 14 14 (301056)
I0403 15:36:00.762266 10668 net.cpp:156] Memory required for data: 886912032
I0403 15:36:00.762281 10668 layer_factory.hpp:77] Creating layer inception_4a/output
I0403 15:36:00.762301 10668 net.cpp:91] Creating Layer inception_4a/output
I0403 15:36:00.762316 10668 net.cpp:425] inception_4a/output <- inception_4a/1x1
I0403 15:36:00.762332 10668 net.cpp:425] inception_4a/output <- inception_4a/3x3
I0403 15:36:00.762348 10668 net.cpp:425] inception_4a/output <- inception_4a/5x5
I0403 15:36:00.762364 10668 net.cpp:425] inception_4a/output <- inception_4a/pool_proj
I0403 15:36:00.762382 10668 net.cpp:399] inception_4a/output -> inception_4a/output
I0403 15:36:00.762425 10668 net.cpp:141] Setting up inception_4a/output
I0403 15:36:00.762447 10668 net.cpp:148] Top shape: 24 512 14 14 (2408448)
I0403 15:36:00.762461 10668 net.cpp:156] Memory required for data: 896545824
I0403 15:36:00.762475 10668 layer_factory.hpp:77] Creating layer inception_4a/output_inception_4a/output_0_split
I0403 15:36:00.762492 10668 net.cpp:91] Creating Layer inception_4a/output_inception_4a/output_0_split
I0403 15:36:00.762507 10668 net.cpp:425] inception_4a/output_inception_4a/output_0_split <- inception_4a/output
I0403 15:36:00.762526 10668 net.cpp:399] inception_4a/output_inception_4a/output_0_split -> inception_4a/output_inception_4a/output_0_split_0
I0403 15:36:00.762547 10668 net.cpp:399] inception_4a/output_inception_4a/output_0_split -> inception_4a/output_inception_4a/output_0_split_1
I0403 15:36:00.762567 10668 net.cpp:399] inception_4a/output_inception_4a/output_0_split -> inception_4a/output_inception_4a/output_0_split_2
I0403 15:36:00.762588 10668 net.cpp:399] inception_4a/output_inception_4a/output_0_split -> inception_4a/output_inception_4a/output_0_split_3
I0403 15:36:00.762608 10668 net.cpp:399] inception_4a/output_inception_4a/output_0_split -> inception_4a/output_inception_4a/output_0_split_4
I0403 15:36:00.762696 10668 net.cpp:141] Setting up inception_4a/output_inception_4a/output_0_split
I0403 15:36:00.762718 10668 net.cpp:148] Top shape: 24 512 14 14 (2408448)
I0403 15:36:00.762737 10668 net.cpp:148] Top shape: 24 512 14 14 (2408448)
I0403 15:36:00.762751 10668 net.cpp:148] Top shape: 24 512 14 14 (2408448)
I0403 15:36:00.762766 10668 net.cpp:148] Top shape: 24 512 14 14 (2408448)
I0403 15:36:00.762783 10668 net.cpp:148] Top shape: 24 512 14 14 (2408448)
I0403 15:36:00.762795 10668 net.cpp:156] Memory required for data: 944714784
I0403 15:36:00.762810 10668 layer_factory.hpp:77] Creating layer loss1/ave_pool
I0403 15:36:00.762827 10668 net.cpp:91] Creating Layer loss1/ave_pool
I0403 15:36:00.762843 10668 net.cpp:425] loss1/ave_pool <- inception_4a/output_inception_4a/output_0_split_0
I0403 15:36:00.762862 10668 net.cpp:399] loss1/ave_pool -> loss1/ave_pool
I0403 15:36:00.763062 10668 net.cpp:141] Setting up loss1/ave_pool
I0403 15:36:00.763087 10668 net.cpp:148] Top shape: 24 512 4 4 (196608)
I0403 15:36:00.763103 10668 net.cpp:156] Memory required for data: 945501216
I0403 15:36:00.763116 10668 layer_factory.hpp:77] Creating layer loss1/conv
I0403 15:36:00.763137 10668 net.cpp:91] Creating Layer loss1/conv
I0403 15:36:00.763154 10668 net.cpp:425] loss1/conv <- loss1/ave_pool
I0403 15:36:00.763175 10668 net.cpp:399] loss1/conv -> loss1/conv
I0403 15:36:00.764518 10668 net.cpp:141] Setting up loss1/conv
I0403 15:36:00.764549 10668 net.cpp:148] Top shape: 24 128 4 4 (49152)
I0403 15:36:00.764576 10668 net.cpp:156] Memory required for data: 945697824
I0403 15:36:00.764595 10668 layer_factory.hpp:77] Creating layer loss1/relu_conv
I0403 15:36:00.764612 10668 net.cpp:91] Creating Layer loss1/relu_conv
I0403 15:36:00.764627 10668 net.cpp:425] loss1/relu_conv <- loss1/conv
I0403 15:36:00.764647 10668 net.cpp:386] loss1/relu_conv -> loss1/conv (in-place)
I0403 15:36:00.764919 10668 net.cpp:141] Setting up loss1/relu_conv
I0403 15:36:00.764946 10668 net.cpp:148] Top shape: 24 128 4 4 (49152)
I0403 15:36:00.764962 10668 net.cpp:156] Memory required for data: 945894432
I0403 15:36:00.764981 10668 layer_factory.hpp:77] Creating layer loss1/fc
I0403 15:36:00.765005 10668 net.cpp:91] Creating Layer loss1/fc
I0403 15:36:00.765022 10668 net.cpp:425] loss1/fc <- loss1/conv
I0403 15:36:00.765043 10668 net.cpp:399] loss1/fc -> loss1/fc
I0403 15:36:00.782357 10668 net.cpp:141] Setting up loss1/fc
I0403 15:36:00.782390 10668 net.cpp:148] Top shape: 24 1024 (24576)
I0403 15:36:00.782407 10668 net.cpp:156] Memory required for data: 945992736
I0403 15:36:00.782425 10668 layer_factory.hpp:77] Creating layer loss1/relu_fc
I0403 15:36:00.782449 10668 net.cpp:91] Creating Layer loss1/relu_fc
I0403 15:36:00.782464 10668 net.cpp:425] loss1/relu_fc <- loss1/fc
I0403 15:36:00.782481 10668 net.cpp:386] loss1/relu_fc -> loss1/fc (in-place)
I0403 15:36:00.782661 10668 net.cpp:141] Setting up loss1/relu_fc
I0403 15:36:00.782688 10668 net.cpp:148] Top shape: 24 1024 (24576)
I0403 15:36:00.782703 10668 net.cpp:156] Memory required for data: 946091040
I0403 15:36:00.782717 10668 layer_factory.hpp:77] Creating layer loss1/drop_fc
I0403 15:36:00.782742 10668 net.cpp:91] Creating Layer loss1/drop_fc
I0403 15:36:00.782760 10668 net.cpp:425] loss1/drop_fc <- loss1/fc
I0403 15:36:00.782778 10668 net.cpp:386] loss1/drop_fc -> loss1/fc (in-place)
I0403 15:36:00.782829 10668 net.cpp:141] Setting up loss1/drop_fc
I0403 15:36:00.782850 10668 net.cpp:148] Top shape: 24 1024 (24576)
I0403 15:36:00.782866 10668 net.cpp:156] Memory required for data: 946189344
I0403 15:36:00.782879 10668 layer_factory.hpp:77] Creating layer loss1/classifier_plantvillage
I0403 15:36:00.782896 10668 net.cpp:91] Creating Layer loss1/classifier_plantvillage
I0403 15:36:00.782912 10668 net.cpp:425] loss1/classifier_plantvillage <- loss1/fc
I0403 15:36:00.782934 10668 net.cpp:399] loss1/classifier_plantvillage -> loss1/classifier_plantvillage
I0403 15:36:00.783890 10668 net.cpp:141] Setting up loss1/classifier_plantvillage
I0403 15:36:00.783928 10668 net.cpp:148] Top shape: 24 38 (912)
I0403 15:36:00.783943 10668 net.cpp:156] Memory required for data: 946192992
I0403 15:36:00.783960 10668 layer_factory.hpp:77] Creating layer loss1/classifier_plantvillage_loss1/classifier_plantvillage_0_split
I0403 15:36:00.783983 10668 net.cpp:91] Creating Layer loss1/classifier_plantvillage_loss1/classifier_plantvillage_0_split
I0403 15:36:00.784001 10668 net.cpp:425] loss1/classifier_plantvillage_loss1/classifier_plantvillage_0_split <- loss1/classifier_plantvillage
I0403 15:36:00.784018 10668 net.cpp:399] loss1/classifier_plantvillage_loss1/classifier_plantvillage_0_split -> loss1/classifier_plantvillage_loss1/classifier_plantvillage_0_split_0
I0403 15:36:00.784037 10668 net.cpp:399] loss1/classifier_plantvillage_loss1/classifier_plantvillage_0_split -> loss1/classifier_plantvillage_loss1/classifier_plantvillage_0_split_1
I0403 15:36:00.784060 10668 net.cpp:399] loss1/classifier_plantvillage_loss1/classifier_plantvillage_0_split -> loss1/classifier_plantvillage_loss1/classifier_plantvillage_0_split_2
I0403 15:36:00.784124 10668 net.cpp:141] Setting up loss1/classifier_plantvillage_loss1/classifier_plantvillage_0_split
I0403 15:36:00.784147 10668 net.cpp:148] Top shape: 24 38 (912)
I0403 15:36:00.784162 10668 net.cpp:148] Top shape: 24 38 (912)
I0403 15:36:00.784178 10668 net.cpp:148] Top shape: 24 38 (912)
I0403 15:36:00.784190 10668 net.cpp:156] Memory required for data: 946203936
I0403 15:36:00.784204 10668 layer_factory.hpp:77] Creating layer inception_4b/1x1
I0403 15:36:00.784226 10668 net.cpp:91] Creating Layer inception_4b/1x1
I0403 15:36:00.784257 10668 net.cpp:425] inception_4b/1x1 <- inception_4a/output_inception_4a/output_0_split_1
I0403 15:36:00.784277 10668 net.cpp:399] inception_4b/1x1 -> inception_4b/1x1
I0403 15:36:00.785868 10668 net.cpp:141] Setting up inception_4b/1x1
I0403 15:36:00.785897 10668 net.cpp:148] Top shape: 24 160 14 14 (752640)
I0403 15:36:00.785914 10668 net.cpp:156] Memory required for data: 949214496
I0403 15:36:00.785933 10668 layer_factory.hpp:77] Creating layer inception_4b/relu_1x1
I0403 15:36:00.785951 10668 net.cpp:91] Creating Layer inception_4b/relu_1x1
I0403 15:36:00.785967 10668 net.cpp:425] inception_4b/relu_1x1 <- inception_4b/1x1
I0403 15:36:00.785991 10668 net.cpp:386] inception_4b/relu_1x1 -> inception_4b/1x1 (in-place)
I0403 15:36:00.786162 10668 net.cpp:141] Setting up inception_4b/relu_1x1
I0403 15:36:00.786187 10668 net.cpp:148] Top shape: 24 160 14 14 (752640)
I0403 15:36:00.786201 10668 net.cpp:156] Memory required for data: 952225056
I0403 15:36:00.786216 10668 layer_factory.hpp:77] Creating layer inception_4b/3x3_reduce
I0403 15:36:00.786237 10668 net.cpp:91] Creating Layer inception_4b/3x3_reduce
I0403 15:36:00.786254 10668 net.cpp:425] inception_4b/3x3_reduce <- inception_4a/output_inception_4a/output_0_split_2
I0403 15:36:00.786274 10668 net.cpp:399] inception_4b/3x3_reduce -> inception_4b/3x3_reduce
I0403 15:36:00.787576 10668 net.cpp:141] Setting up inception_4b/3x3_reduce
I0403 15:36:00.787602 10668 net.cpp:148] Top shape: 24 112 14 14 (526848)
I0403 15:36:00.787618 10668 net.cpp:156] Memory required for data: 954332448
I0403 15:36:00.787636 10668 layer_factory.hpp:77] Creating layer inception_4b/relu_3x3_reduce
I0403 15:36:00.787654 10668 net.cpp:91] Creating Layer inception_4b/relu_3x3_reduce
I0403 15:36:00.787669 10668 net.cpp:425] inception_4b/relu_3x3_reduce <- inception_4b/3x3_reduce
I0403 15:36:00.787688 10668 net.cpp:386] inception_4b/relu_3x3_reduce -> inception_4b/3x3_reduce (in-place)
I0403 15:36:00.787966 10668 net.cpp:141] Setting up inception_4b/relu_3x3_reduce
I0403 15:36:00.788002 10668 net.cpp:148] Top shape: 24 112 14 14 (526848)
I0403 15:36:00.788017 10668 net.cpp:156] Memory required for data: 956439840
I0403 15:36:00.788033 10668 layer_factory.hpp:77] Creating layer inception_4b/3x3
I0403 15:36:00.788054 10668 net.cpp:91] Creating Layer inception_4b/3x3
I0403 15:36:00.788071 10668 net.cpp:425] inception_4b/3x3 <- inception_4b/3x3_reduce
I0403 15:36:00.788092 10668 net.cpp:399] inception_4b/3x3 -> inception_4b/3x3
I0403 15:36:00.790983 10668 net.cpp:141] Setting up inception_4b/3x3
I0403 15:36:00.791012 10668 net.cpp:148] Top shape: 24 224 14 14 (1053696)
I0403 15:36:00.791028 10668 net.cpp:156] Memory required for data: 960654624
I0403 15:36:00.791046 10668 layer_factory.hpp:77] Creating layer inception_4b/relu_3x3
I0403 15:36:00.791065 10668 net.cpp:91] Creating Layer inception_4b/relu_3x3
I0403 15:36:00.791081 10668 net.cpp:425] inception_4b/relu_3x3 <- inception_4b/3x3
I0403 15:36:00.791098 10668 net.cpp:386] inception_4b/relu_3x3 -> inception_4b/3x3 (in-place)
I0403 15:36:00.791273 10668 net.cpp:141] Setting up inception_4b/relu_3x3
I0403 15:36:00.791299 10668 net.cpp:148] Top shape: 24 224 14 14 (1053696)
I0403 15:36:00.791314 10668 net.cpp:156] Memory required for data: 964869408
I0403 15:36:00.791328 10668 layer_factory.hpp:77] Creating layer inception_4b/5x5_reduce
I0403 15:36:00.791352 10668 net.cpp:91] Creating Layer inception_4b/5x5_reduce
I0403 15:36:00.791368 10668 net.cpp:425] inception_4b/5x5_reduce <- inception_4a/output_inception_4a/output_0_split_3
I0403 15:36:00.791388 10668 net.cpp:399] inception_4b/5x5_reduce -> inception_4b/5x5_reduce
I0403 15:36:00.792443 10668 net.cpp:141] Setting up inception_4b/5x5_reduce
I0403 15:36:00.792469 10668 net.cpp:148] Top shape: 24 24 14 14 (112896)
I0403 15:36:00.792485 10668 net.cpp:156] Memory required for data: 965320992
I0403 15:36:00.792502 10668 layer_factory.hpp:77] Creating layer inception_4b/relu_5x5_reduce
I0403 15:36:00.792520 10668 net.cpp:91] Creating Layer inception_4b/relu_5x5_reduce
I0403 15:36:00.792549 10668 net.cpp:425] inception_4b/relu_5x5_reduce <- inception_4b/5x5_reduce
I0403 15:36:00.792570 10668 net.cpp:386] inception_4b/relu_5x5_reduce -> inception_4b/5x5_reduce (in-place)
I0403 15:36:00.792749 10668 net.cpp:141] Setting up inception_4b/relu_5x5_reduce
I0403 15:36:00.792773 10668 net.cpp:148] Top shape: 24 24 14 14 (112896)
I0403 15:36:00.792788 10668 net.cpp:156] Memory required for data: 965772576
I0403 15:36:00.792803 10668 layer_factory.hpp:77] Creating layer inception_4b/5x5
I0403 15:36:00.792824 10668 net.cpp:91] Creating Layer inception_4b/5x5
I0403 15:36:00.792841 10668 net.cpp:425] inception_4b/5x5 <- inception_4b/5x5_reduce
I0403 15:36:00.792860 10668 net.cpp:399] inception_4b/5x5 -> inception_4b/5x5
I0403 15:36:00.794055 10668 net.cpp:141] Setting up inception_4b/5x5
I0403 15:36:00.794085 10668 net.cpp:148] Top shape: 24 64 14 14 (301056)
I0403 15:36:00.794100 10668 net.cpp:156] Memory required for data: 966976800
I0403 15:36:00.794118 10668 layer_factory.hpp:77] Creating layer inception_4b/relu_5x5
I0403 15:36:00.794136 10668 net.cpp:91] Creating Layer inception_4b/relu_5x5
I0403 15:36:00.794152 10668 net.cpp:425] inception_4b/relu_5x5 <- inception_4b/5x5
I0403 15:36:00.794170 10668 net.cpp:386] inception_4b/relu_5x5 -> inception_4b/5x5 (in-place)
I0403 15:36:00.794443 10668 net.cpp:141] Setting up inception_4b/relu_5x5
I0403 15:36:00.794472 10668 net.cpp:148] Top shape: 24 64 14 14 (301056)
I0403 15:36:00.794489 10668 net.cpp:156] Memory required for data: 968181024
I0403 15:36:00.794504 10668 layer_factory.hpp:77] Creating layer inception_4b/pool
I0403 15:36:00.794523 10668 net.cpp:91] Creating Layer inception_4b/pool
I0403 15:36:00.794538 10668 net.cpp:425] inception_4b/pool <- inception_4a/output_inception_4a/output_0_split_4
I0403 15:36:00.794559 10668 net.cpp:399] inception_4b/pool -> inception_4b/pool
I0403 15:36:00.794620 10668 net.cpp:141] Setting up inception_4b/pool
I0403 15:36:00.794642 10668 net.cpp:148] Top shape: 24 512 14 14 (2408448)
I0403 15:36:00.794657 10668 net.cpp:156] Memory required for data: 977814816
I0403 15:36:00.794672 10668 layer_factory.hpp:77] Creating layer inception_4b/pool_proj
I0403 15:36:00.794692 10668 net.cpp:91] Creating Layer inception_4b/pool_proj
I0403 15:36:00.794709 10668 net.cpp:425] inception_4b/pool_proj <- inception_4b/pool
I0403 15:36:00.794729 10668 net.cpp:399] inception_4b/pool_proj -> inception_4b/pool_proj
I0403 15:36:00.795895 10668 net.cpp:141] Setting up inception_4b/pool_proj
I0403 15:36:00.795925 10668 net.cpp:148] Top shape: 24 64 14 14 (301056)
I0403 15:36:00.795943 10668 net.cpp:156] Memory required for data: 979019040
I0403 15:36:00.795959 10668 layer_factory.hpp:77] Creating layer inception_4b/relu_pool_proj
I0403 15:36:00.795980 10668 net.cpp:91] Creating Layer inception_4b/relu_pool_proj
I0403 15:36:00.795999 10668 net.cpp:425] inception_4b/relu_pool_proj <- inception_4b/pool_proj
I0403 15:36:00.796017 10668 net.cpp:386] inception_4b/relu_pool_proj -> inception_4b/pool_proj (in-place)
I0403 15:36:00.796192 10668 net.cpp:141] Setting up inception_4b/relu_pool_proj
I0403 15:36:00.796216 10668 net.cpp:148] Top shape: 24 64 14 14 (301056)
I0403 15:36:00.796231 10668 net.cpp:156] Memory required for data: 980223264
I0403 15:36:00.796246 10668 layer_factory.hpp:77] Creating layer inception_4b/output
I0403 15:36:00.796262 10668 net.cpp:91] Creating Layer inception_4b/output
I0403 15:36:00.796277 10668 net.cpp:425] inception_4b/output <- inception_4b/1x1
I0403 15:36:00.796293 10668 net.cpp:425] inception_4b/output <- inception_4b/3x3
I0403 15:36:00.796308 10668 net.cpp:425] inception_4b/output <- inception_4b/5x5
I0403 15:36:00.796324 10668 net.cpp:425] inception_4b/output <- inception_4b/pool_proj
I0403 15:36:00.796342 10668 net.cpp:399] inception_4b/output -> inception_4b/output
I0403 15:36:00.796388 10668 net.cpp:141] Setting up inception_4b/output
I0403 15:36:00.796411 10668 net.cpp:148] Top shape: 24 512 14 14 (2408448)
I0403 15:36:00.796424 10668 net.cpp:156] Memory required for data: 989857056
I0403 15:36:00.796452 10668 layer_factory.hpp:77] Creating layer inception_4b/output_inception_4b/output_0_split
I0403 15:36:00.796469 10668 net.cpp:91] Creating Layer inception_4b/output_inception_4b/output_0_split
I0403 15:36:00.796485 10668 net.cpp:425] inception_4b/output_inception_4b/output_0_split <- inception_4b/output
I0403 15:36:00.796505 10668 net.cpp:399] inception_4b/output_inception_4b/output_0_split -> inception_4b/output_inception_4b/output_0_split_0
I0403 15:36:00.796525 10668 net.cpp:399] inception_4b/output_inception_4b/output_0_split -> inception_4b/output_inception_4b/output_0_split_1
I0403 15:36:00.796545 10668 net.cpp:399] inception_4b/output_inception_4b/output_0_split -> inception_4b/output_inception_4b/output_0_split_2
I0403 15:36:00.796564 10668 net.cpp:399] inception_4b/output_inception_4b/output_0_split -> inception_4b/output_inception_4b/output_0_split_3
I0403 15:36:00.796648 10668 net.cpp:141] Setting up inception_4b/output_inception_4b/output_0_split
I0403 15:36:00.796669 10668 net.cpp:148] Top shape: 24 512 14 14 (2408448)
I0403 15:36:00.796685 10668 net.cpp:148] Top shape: 24 512 14 14 (2408448)
I0403 15:36:00.796700 10668 net.cpp:148] Top shape: 24 512 14 14 (2408448)
I0403 15:36:00.796715 10668 net.cpp:148] Top shape: 24 512 14 14 (2408448)
I0403 15:36:00.796728 10668 net.cpp:156] Memory required for data: 1028392224
I0403 15:36:00.796741 10668 layer_factory.hpp:77] Creating layer inception_4c/1x1
I0403 15:36:00.796766 10668 net.cpp:91] Creating Layer inception_4c/1x1
I0403 15:36:00.796782 10668 net.cpp:425] inception_4c/1x1 <- inception_4b/output_inception_4b/output_0_split_0
I0403 15:36:00.796802 10668 net.cpp:399] inception_4c/1x1 -> inception_4c/1x1
I0403 15:36:00.798209 10668 net.cpp:141] Setting up inception_4c/1x1
I0403 15:36:00.798236 10668 net.cpp:148] Top shape: 24 128 14 14 (602112)
I0403 15:36:00.798252 10668 net.cpp:156] Memory required for data: 1030800672
I0403 15:36:00.798270 10668 layer_factory.hpp:77] Creating layer inception_4c/relu_1x1
I0403 15:36:00.798290 10668 net.cpp:91] Creating Layer inception_4c/relu_1x1
I0403 15:36:00.798307 10668 net.cpp:425] inception_4c/relu_1x1 <- inception_4c/1x1
I0403 15:36:00.798324 10668 net.cpp:386] inception_4c/relu_1x1 -> inception_4c/1x1 (in-place)
I0403 15:36:00.798496 10668 net.cpp:141] Setting up inception_4c/relu_1x1
I0403 15:36:00.798527 10668 net.cpp:148] Top shape: 24 128 14 14 (602112)
I0403 15:36:00.798542 10668 net.cpp:156] Memory required for data: 1033209120
I0403 15:36:00.798555 10668 layer_factory.hpp:77] Creating layer inception_4c/3x3_reduce
I0403 15:36:00.798579 10668 net.cpp:91] Creating Layer inception_4c/3x3_reduce
I0403 15:36:00.798596 10668 net.cpp:425] inception_4c/3x3_reduce <- inception_4b/output_inception_4b/output_0_split_1
I0403 15:36:00.798615 10668 net.cpp:399] inception_4c/3x3_reduce -> inception_4c/3x3_reduce
I0403 15:36:00.800532 10668 net.cpp:141] Setting up inception_4c/3x3_reduce
I0403 15:36:00.800562 10668 net.cpp:148] Top shape: 24 128 14 14 (602112)
I0403 15:36:00.800577 10668 net.cpp:156] Memory required for data: 1035617568
I0403 15:36:00.800595 10668 layer_factory.hpp:77] Creating layer inception_4c/relu_3x3_reduce
I0403 15:36:00.800613 10668 net.cpp:91] Creating Layer inception_4c/relu_3x3_reduce
I0403 15:36:00.800628 10668 net.cpp:425] inception_4c/relu_3x3_reduce <- inception_4c/3x3_reduce
I0403 15:36:00.800644 10668 net.cpp:386] inception_4c/relu_3x3_reduce -> inception_4c/3x3_reduce (in-place)
I0403 15:36:00.800932 10668 net.cpp:141] Setting up inception_4c/relu_3x3_reduce
I0403 15:36:00.800959 10668 net.cpp:148] Top shape: 24 128 14 14 (602112)
I0403 15:36:00.800976 10668 net.cpp:156] Memory required for data: 1038026016
I0403 15:36:00.800994 10668 layer_factory.hpp:77] Creating layer inception_4c/3x3
I0403 15:36:00.801019 10668 net.cpp:91] Creating Layer inception_4c/3x3
I0403 15:36:00.801036 10668 net.cpp:425] inception_4c/3x3 <- inception_4c/3x3_reduce
I0403 15:36:00.801055 10668 net.cpp:399] inception_4c/3x3 -> inception_4c/3x3
I0403 15:36:00.804580 10668 net.cpp:141] Setting up inception_4c/3x3
I0403 15:36:00.804622 10668 net.cpp:148] Top shape: 24 256 14 14 (1204224)
I0403 15:36:00.804639 10668 net.cpp:156] Memory required for data: 1042842912
I0403 15:36:00.804669 10668 layer_factory.hpp:77] Creating layer inception_4c/relu_3x3
I0403 15:36:00.804689 10668 net.cpp:91] Creating Layer inception_4c/relu_3x3
I0403 15:36:00.804704 10668 net.cpp:425] inception_4c/relu_3x3 <- inception_4c/3x3
I0403 15:36:00.804723 10668 net.cpp:386] inception_4c/relu_3x3 -> inception_4c/3x3 (in-place)
I0403 15:36:00.804898 10668 net.cpp:141] Setting up inception_4c/relu_3x3
I0403 15:36:00.804924 10668 net.cpp:148] Top shape: 24 256 14 14 (1204224)
I0403 15:36:00.804939 10668 net.cpp:156] Memory required for data: 1047659808
I0403 15:36:00.804952 10668 layer_factory.hpp:77] Creating layer inception_4c/5x5_reduce
I0403 15:36:00.804975 10668 net.cpp:91] Creating Layer inception_4c/5x5_reduce
I0403 15:36:00.804997 10668 net.cpp:425] inception_4c/5x5_reduce <- inception_4b/output_inception_4b/output_0_split_2
I0403 15:36:00.805018 10668 net.cpp:399] inception_4c/5x5_reduce -> inception_4c/5x5_reduce
I0403 15:36:00.806078 10668 net.cpp:141] Setting up inception_4c/5x5_reduce
I0403 15:36:00.806104 10668 net.cpp:148] Top shape: 24 24 14 14 (112896)
I0403 15:36:00.806119 10668 net.cpp:156] Memory required for data: 1048111392
I0403 15:36:00.806138 10668 layer_factory.hpp:77] Creating layer inception_4c/relu_5x5_reduce
I0403 15:36:00.806155 10668 net.cpp:91] Creating Layer inception_4c/relu_5x5_reduce
I0403 15:36:00.806171 10668 net.cpp:425] inception_4c/relu_5x5_reduce <- inception_4c/5x5_reduce
I0403 15:36:00.806190 10668 net.cpp:386] inception_4c/relu_5x5_reduce -> inception_4c/5x5_reduce (in-place)
I0403 15:36:00.806370 10668 net.cpp:141] Setting up inception_4c/relu_5x5_reduce
I0403 15:36:00.806393 10668 net.cpp:148] Top shape: 24 24 14 14 (112896)
I0403 15:36:00.806408 10668 net.cpp:156] Memory required for data: 1048562976
I0403 15:36:00.806423 10668 layer_factory.hpp:77] Creating layer inception_4c/5x5
I0403 15:36:00.806448 10668 net.cpp:91] Creating Layer inception_4c/5x5
I0403 15:36:00.806466 10668 net.cpp:425] inception_4c/5x5 <- inception_4c/5x5_reduce
I0403 15:36:00.806486 10668 net.cpp:399] inception_4c/5x5 -> inception_4c/5x5
I0403 15:36:00.807693 10668 net.cpp:141] Setting up inception_4c/5x5
I0403 15:36:00.807718 10668 net.cpp:148] Top shape: 24 64 14 14 (301056)
I0403 15:36:00.807734 10668 net.cpp:156] Memory required for data: 1049767200
I0403 15:36:00.807750 10668 layer_factory.hpp:77] Creating layer inception_4c/relu_5x5
I0403 15:36:00.807771 10668 net.cpp:91] Creating Layer inception_4c/relu_5x5
I0403 15:36:00.807788 10668 net.cpp:425] inception_4c/relu_5x5 <- inception_4c/5x5
I0403 15:36:00.807806 10668 net.cpp:386] inception_4c/relu_5x5 -> inception_4c/5x5 (in-place)
I0403 15:36:00.808097 10668 net.cpp:141] Setting up inception_4c/relu_5x5
I0403 15:36:00.808122 10668 net.cpp:148] Top shape: 24 64 14 14 (301056)
I0403 15:36:00.808137 10668 net.cpp:156] Memory required for data: 1050971424
I0403 15:36:00.808151 10668 layer_factory.hpp:77] Creating layer inception_4c/pool
I0403 15:36:00.808169 10668 net.cpp:91] Creating Layer inception_4c/pool
I0403 15:36:00.808185 10668 net.cpp:425] inception_4c/pool <- inception_4b/output_inception_4b/output_0_split_3
I0403 15:36:00.808204 10668 net.cpp:399] inception_4c/pool -> inception_4c/pool
I0403 15:36:00.808271 10668 net.cpp:141] Setting up inception_4c/pool
I0403 15:36:00.808295 10668 net.cpp:148] Top shape: 24 512 14 14 (2408448)
I0403 15:36:00.808308 10668 net.cpp:156] Memory required for data: 1060605216
I0403 15:36:00.808325 10668 layer_factory.hpp:77] Creating layer inception_4c/pool_proj
I0403 15:36:00.808346 10668 net.cpp:91] Creating Layer inception_4c/pool_proj
I0403 15:36:00.808362 10668 net.cpp:425] inception_4c/pool_proj <- inception_4c/pool
I0403 15:36:00.808382 10668 net.cpp:399] inception_4c/pool_proj -> inception_4c/pool_proj
I0403 15:36:00.809573 10668 net.cpp:141] Setting up inception_4c/pool_proj
I0403 15:36:00.809602 10668 net.cpp:148] Top shape: 24 64 14 14 (301056)
I0403 15:36:00.809631 10668 net.cpp:156] Memory required for data: 1061809440
I0403 15:36:00.809650 10668 layer_factory.hpp:77] Creating layer inception_4c/relu_pool_proj
I0403 15:36:00.809669 10668 net.cpp:91] Creating Layer inception_4c/relu_pool_proj
I0403 15:36:00.809684 10668 net.cpp:425] inception_4c/relu_pool_proj <- inception_4c/pool_proj
I0403 15:36:00.809705 10668 net.cpp:386] inception_4c/relu_pool_proj -> inception_4c/pool_proj (in-place)
I0403 15:36:00.809880 10668 net.cpp:141] Setting up inception_4c/relu_pool_proj
I0403 15:36:00.809905 10668 net.cpp:148] Top shape: 24 64 14 14 (301056)
I0403 15:36:00.809921 10668 net.cpp:156] Memory required for data: 1063013664
I0403 15:36:00.809937 10668 layer_factory.hpp:77] Creating layer inception_4c/output
I0403 15:36:00.809952 10668 net.cpp:91] Creating Layer inception_4c/output
I0403 15:36:00.809967 10668 net.cpp:425] inception_4c/output <- inception_4c/1x1
I0403 15:36:00.809988 10668 net.cpp:425] inception_4c/output <- inception_4c/3x3
I0403 15:36:00.810004 10668 net.cpp:425] inception_4c/output <- inception_4c/5x5
I0403 15:36:00.810020 10668 net.cpp:425] inception_4c/output <- inception_4c/pool_proj
I0403 15:36:00.810042 10668 net.cpp:399] inception_4c/output -> inception_4c/output
I0403 15:36:00.810091 10668 net.cpp:141] Setting up inception_4c/output
I0403 15:36:00.810113 10668 net.cpp:148] Top shape: 24 512 14 14 (2408448)
I0403 15:36:00.810127 10668 net.cpp:156] Memory required for data: 1072647456
I0403 15:36:00.810142 10668 layer_factory.hpp:77] Creating layer inception_4c/output_inception_4c/output_0_split
I0403 15:36:00.810159 10668 net.cpp:91] Creating Layer inception_4c/output_inception_4c/output_0_split
I0403 15:36:00.810174 10668 net.cpp:425] inception_4c/output_inception_4c/output_0_split <- inception_4c/output
I0403 15:36:00.810194 10668 net.cpp:399] inception_4c/output_inception_4c/output_0_split -> inception_4c/output_inception_4c/output_0_split_0
I0403 15:36:00.810214 10668 net.cpp:399] inception_4c/output_inception_4c/output_0_split -> inception_4c/output_inception_4c/output_0_split_1
I0403 15:36:00.810233 10668 net.cpp:399] inception_4c/output_inception_4c/output_0_split -> inception_4c/output_inception_4c/output_0_split_2
I0403 15:36:00.810252 10668 net.cpp:399] inception_4c/output_inception_4c/output_0_split -> inception_4c/output_inception_4c/output_0_split_3
I0403 15:36:00.810338 10668 net.cpp:141] Setting up inception_4c/output_inception_4c/output_0_split
I0403 15:36:00.810359 10668 net.cpp:148] Top shape: 24 512 14 14 (2408448)
I0403 15:36:00.810375 10668 net.cpp:148] Top shape: 24 512 14 14 (2408448)
I0403 15:36:00.810390 10668 net.cpp:148] Top shape: 24 512 14 14 (2408448)
I0403 15:36:00.810405 10668 net.cpp:148] Top shape: 24 512 14 14 (2408448)
I0403 15:36:00.810418 10668 net.cpp:156] Memory required for data: 1111182624
I0403 15:36:00.810433 10668 layer_factory.hpp:77] Creating layer inception_4d/1x1
I0403 15:36:00.810456 10668 net.cpp:91] Creating Layer inception_4d/1x1
I0403 15:36:00.810473 10668 net.cpp:425] inception_4d/1x1 <- inception_4c/output_inception_4c/output_0_split_0
I0403 15:36:00.810492 10668 net.cpp:399] inception_4d/1x1 -> inception_4d/1x1
I0403 15:36:00.811830 10668 net.cpp:141] Setting up inception_4d/1x1
I0403 15:36:00.811857 10668 net.cpp:148] Top shape: 24 112 14 14 (526848)
I0403 15:36:00.811872 10668 net.cpp:156] Memory required for data: 1113290016
I0403 15:36:00.811890 10668 layer_factory.hpp:77] Creating layer inception_4d/relu_1x1
I0403 15:36:00.811910 10668 net.cpp:91] Creating Layer inception_4d/relu_1x1
I0403 15:36:00.811928 10668 net.cpp:425] inception_4d/relu_1x1 <- inception_4d/1x1
I0403 15:36:00.811945 10668 net.cpp:386] inception_4d/relu_1x1 -> inception_4d/1x1 (in-place)
I0403 15:36:00.812130 10668 net.cpp:141] Setting up inception_4d/relu_1x1
I0403 15:36:00.812155 10668 net.cpp:148] Top shape: 24 112 14 14 (526848)
I0403 15:36:00.812170 10668 net.cpp:156] Memory required for data: 1115397408
I0403 15:36:00.812185 10668 layer_factory.hpp:77] Creating layer inception_4d/3x3_reduce
I0403 15:36:00.812218 10668 net.cpp:91] Creating Layer inception_4d/3x3_reduce
I0403 15:36:00.812237 10668 net.cpp:425] inception_4d/3x3_reduce <- inception_4c/output_inception_4c/output_0_split_1
I0403 15:36:00.812259 10668 net.cpp:399] inception_4d/3x3_reduce -> inception_4d/3x3_reduce
I0403 15:36:00.813733 10668 net.cpp:141] Setting up inception_4d/3x3_reduce
I0403 15:36:00.813760 10668 net.cpp:148] Top shape: 24 144 14 14 (677376)
I0403 15:36:00.813776 10668 net.cpp:156] Memory required for data: 1118106912
I0403 15:36:00.813792 10668 layer_factory.hpp:77] Creating layer inception_4d/relu_3x3_reduce
I0403 15:36:00.813812 10668 net.cpp:91] Creating Layer inception_4d/relu_3x3_reduce
I0403 15:36:00.813829 10668 net.cpp:425] inception_4d/relu_3x3_reduce <- inception_4d/3x3_reduce
I0403 15:36:00.813846 10668 net.cpp:386] inception_4d/relu_3x3_reduce -> inception_4d/3x3_reduce (in-place)
I0403 15:36:00.814137 10668 net.cpp:141] Setting up inception_4d/relu_3x3_reduce
I0403 15:36:00.814162 10668 net.cpp:148] Top shape: 24 144 14 14 (677376)
I0403 15:36:00.814177 10668 net.cpp:156] Memory required for data: 1120816416
I0403 15:36:00.814191 10668 layer_factory.hpp:77] Creating layer inception_4d/3x3
I0403 15:36:00.814213 10668 net.cpp:91] Creating Layer inception_4d/3x3
I0403 15:36:00.814230 10668 net.cpp:425] inception_4d/3x3 <- inception_4d/3x3_reduce
I0403 15:36:00.814251 10668 net.cpp:399] inception_4d/3x3 -> inception_4d/3x3
I0403 15:36:00.818423 10668 net.cpp:141] Setting up inception_4d/3x3
I0403 15:36:00.818455 10668 net.cpp:148] Top shape: 24 288 14 14 (1354752)
I0403 15:36:00.818471 10668 net.cpp:156] Memory required for data: 1126235424
I0403 15:36:00.818488 10668 layer_factory.hpp:77] Creating layer inception_4d/relu_3x3
I0403 15:36:00.818506 10668 net.cpp:91] Creating Layer inception_4d/relu_3x3
I0403 15:36:00.818522 10668 net.cpp:425] inception_4d/relu_3x3 <- inception_4d/3x3
I0403 15:36:00.818539 10668 net.cpp:386] inception_4d/relu_3x3 -> inception_4d/3x3 (in-place)
I0403 15:36:00.818723 10668 net.cpp:141] Setting up inception_4d/relu_3x3
I0403 15:36:00.818749 10668 net.cpp:148] Top shape: 24 288 14 14 (1354752)
I0403 15:36:00.818764 10668 net.cpp:156] Memory required for data: 1131654432
I0403 15:36:00.818779 10668 layer_factory.hpp:77] Creating layer inception_4d/5x5_reduce
I0403 15:36:00.818800 10668 net.cpp:91] Creating Layer inception_4d/5x5_reduce
I0403 15:36:00.818819 10668 net.cpp:425] inception_4d/5x5_reduce <- inception_4c/output_inception_4c/output_0_split_2
I0403 15:36:00.818841 10668 net.cpp:399] inception_4d/5x5_reduce -> inception_4d/5x5_reduce
I0403 15:36:00.819968 10668 net.cpp:141] Setting up inception_4d/5x5_reduce
I0403 15:36:00.819999 10668 net.cpp:148] Top shape: 24 32 14 14 (150528)
I0403 15:36:00.820015 10668 net.cpp:156] Memory required for data: 1132256544
I0403 15:36:00.820032 10668 layer_factory.hpp:77] Creating layer inception_4d/relu_5x5_reduce
I0403 15:36:00.820052 10668 net.cpp:91] Creating Layer inception_4d/relu_5x5_reduce
I0403 15:36:00.820070 10668 net.cpp:425] inception_4d/relu_5x5_reduce <- inception_4d/5x5_reduce
I0403 15:36:00.820086 10668 net.cpp:386] inception_4d/relu_5x5_reduce -> inception_4d/5x5_reduce (in-place)
I0403 15:36:00.820268 10668 net.cpp:141] Setting up inception_4d/relu_5x5_reduce
I0403 15:36:00.820293 10668 net.cpp:148] Top shape: 24 32 14 14 (150528)
I0403 15:36:00.820307 10668 net.cpp:156] Memory required for data: 1132858656
I0403 15:36:00.820322 10668 layer_factory.hpp:77] Creating layer inception_4d/5x5
I0403 15:36:00.820344 10668 net.cpp:91] Creating Layer inception_4d/5x5
I0403 15:36:00.820361 10668 net.cpp:425] inception_4d/5x5 <- inception_4d/5x5_reduce
I0403 15:36:00.820382 10668 net.cpp:399] inception_4d/5x5 -> inception_4d/5x5
I0403 15:36:00.821817 10668 net.cpp:141] Setting up inception_4d/5x5
I0403 15:36:00.821844 10668 net.cpp:148] Top shape: 24 64 14 14 (301056)
I0403 15:36:00.821859 10668 net.cpp:156] Memory required for data: 1134062880
I0403 15:36:00.821878 10668 layer_factory.hpp:77] Creating layer inception_4d/relu_5x5
I0403 15:36:00.821910 10668 net.cpp:91] Creating Layer inception_4d/relu_5x5
I0403 15:36:00.821929 10668 net.cpp:425] inception_4d/relu_5x5 <- inception_4d/5x5
I0403 15:36:00.821949 10668 net.cpp:386] inception_4d/relu_5x5 -> inception_4d/5x5 (in-place)
I0403 15:36:00.822249 10668 net.cpp:141] Setting up inception_4d/relu_5x5
I0403 15:36:00.822274 10668 net.cpp:148] Top shape: 24 64 14 14 (301056)
I0403 15:36:00.822289 10668 net.cpp:156] Memory required for data: 1135267104
I0403 15:36:00.822304 10668 layer_factory.hpp:77] Creating layer inception_4d/pool
I0403 15:36:00.822321 10668 net.cpp:91] Creating Layer inception_4d/pool
I0403 15:36:00.822337 10668 net.cpp:425] inception_4d/pool <- inception_4c/output_inception_4c/output_0_split_3
I0403 15:36:00.822356 10668 net.cpp:399] inception_4d/pool -> inception_4d/pool
I0403 15:36:00.822423 10668 net.cpp:141] Setting up inception_4d/pool
I0403 15:36:00.822446 10668 net.cpp:148] Top shape: 24 512 14 14 (2408448)
I0403 15:36:00.822460 10668 net.cpp:156] Memory required for data: 1144900896
I0403 15:36:00.822475 10668 layer_factory.hpp:77] Creating layer inception_4d/pool_proj
I0403 15:36:00.822499 10668 net.cpp:91] Creating Layer inception_4d/pool_proj
I0403 15:36:00.822515 10668 net.cpp:425] inception_4d/pool_proj <- inception_4d/pool
I0403 15:36:00.822533 10668 net.cpp:399] inception_4d/pool_proj -> inception_4d/pool_proj
I0403 15:36:00.824278 10668 net.cpp:141] Setting up inception_4d/pool_proj
I0403 15:36:00.824309 10668 net.cpp:148] Top shape: 24 64 14 14 (301056)
I0403 15:36:00.824326 10668 net.cpp:156] Memory required for data: 1146105120
I0403 15:36:00.824343 10668 layer_factory.hpp:77] Creating layer inception_4d/relu_pool_proj
I0403 15:36:00.824360 10668 net.cpp:91] Creating Layer inception_4d/relu_pool_proj
I0403 15:36:00.824376 10668 net.cpp:425] inception_4d/relu_pool_proj <- inception_4d/pool_proj
I0403 15:36:00.824393 10668 net.cpp:386] inception_4d/relu_pool_proj -> inception_4d/pool_proj (in-place)
I0403 15:36:00.824576 10668 net.cpp:141] Setting up inception_4d/relu_pool_proj
I0403 15:36:00.824601 10668 net.cpp:148] Top shape: 24 64 14 14 (301056)
I0403 15:36:00.824615 10668 net.cpp:156] Memory required for data: 1147309344
I0403 15:36:00.824630 10668 layer_factory.hpp:77] Creating layer inception_4d/output
I0403 15:36:00.824646 10668 net.cpp:91] Creating Layer inception_4d/output
I0403 15:36:00.824661 10668 net.cpp:425] inception_4d/output <- inception_4d/1x1
I0403 15:36:00.824677 10668 net.cpp:425] inception_4d/output <- inception_4d/3x3
I0403 15:36:00.824693 10668 net.cpp:425] inception_4d/output <- inception_4d/5x5
I0403 15:36:00.824708 10668 net.cpp:425] inception_4d/output <- inception_4d/pool_proj
I0403 15:36:00.824730 10668 net.cpp:399] inception_4d/output -> inception_4d/output
I0403 15:36:00.824776 10668 net.cpp:141] Setting up inception_4d/output
I0403 15:36:00.824800 10668 net.cpp:148] Top shape: 24 528 14 14 (2483712)
I0403 15:36:00.824813 10668 net.cpp:156] Memory required for data: 1157244192
I0403 15:36:00.824828 10668 layer_factory.hpp:77] Creating layer inception_4d/output_inception_4d/output_0_split
I0403 15:36:00.824847 10668 net.cpp:91] Creating Layer inception_4d/output_inception_4d/output_0_split
I0403 15:36:00.824863 10668 net.cpp:425] inception_4d/output_inception_4d/output_0_split <- inception_4d/output
I0403 15:36:00.824884 10668 net.cpp:399] inception_4d/output_inception_4d/output_0_split -> inception_4d/output_inception_4d/output_0_split_0
I0403 15:36:00.824905 10668 net.cpp:399] inception_4d/output_inception_4d/output_0_split -> inception_4d/output_inception_4d/output_0_split_1
I0403 15:36:00.824928 10668 net.cpp:399] inception_4d/output_inception_4d/output_0_split -> inception_4d/output_inception_4d/output_0_split_2
I0403 15:36:00.824947 10668 net.cpp:399] inception_4d/output_inception_4d/output_0_split -> inception_4d/output_inception_4d/output_0_split_3
I0403 15:36:00.824966 10668 net.cpp:399] inception_4d/output_inception_4d/output_0_split -> inception_4d/output_inception_4d/output_0_split_4
I0403 15:36:00.825070 10668 net.cpp:141] Setting up inception_4d/output_inception_4d/output_0_split
I0403 15:36:00.825104 10668 net.cpp:148] Top shape: 24 528 14 14 (2483712)
I0403 15:36:00.825120 10668 net.cpp:148] Top shape: 24 528 14 14 (2483712)
I0403 15:36:00.825135 10668 net.cpp:148] Top shape: 24 528 14 14 (2483712)
I0403 15:36:00.825151 10668 net.cpp:148] Top shape: 24 528 14 14 (2483712)
I0403 15:36:00.825167 10668 net.cpp:148] Top shape: 24 528 14 14 (2483712)
I0403 15:36:00.825181 10668 net.cpp:156] Memory required for data: 1206918432
I0403 15:36:00.825196 10668 layer_factory.hpp:77] Creating layer loss2/ave_pool
I0403 15:36:00.825214 10668 net.cpp:91] Creating Layer loss2/ave_pool
I0403 15:36:00.825230 10668 net.cpp:425] loss2/ave_pool <- inception_4d/output_inception_4d/output_0_split_0
I0403 15:36:00.825248 10668 net.cpp:399] loss2/ave_pool -> loss2/ave_pool
I0403 15:36:00.825553 10668 net.cpp:141] Setting up loss2/ave_pool
I0403 15:36:00.825582 10668 net.cpp:148] Top shape: 24 528 4 4 (202752)
I0403 15:36:00.825598 10668 net.cpp:156] Memory required for data: 1207729440
I0403 15:36:00.825613 10668 layer_factory.hpp:77] Creating layer loss2/conv
I0403 15:36:00.825634 10668 net.cpp:91] Creating Layer loss2/conv
I0403 15:36:00.825650 10668 net.cpp:425] loss2/conv <- loss2/ave_pool
I0403 15:36:00.825670 10668 net.cpp:399] loss2/conv -> loss2/conv
I0403 15:36:00.827543 10668 net.cpp:141] Setting up loss2/conv
I0403 15:36:00.827570 10668 net.cpp:148] Top shape: 24 128 4 4 (49152)
I0403 15:36:00.827585 10668 net.cpp:156] Memory required for data: 1207926048
I0403 15:36:00.827603 10668 layer_factory.hpp:77] Creating layer loss2/relu_conv
I0403 15:36:00.827623 10668 net.cpp:91] Creating Layer loss2/relu_conv
I0403 15:36:00.827641 10668 net.cpp:425] loss2/relu_conv <- loss2/conv
I0403 15:36:00.827657 10668 net.cpp:386] loss2/relu_conv -> loss2/conv (in-place)
I0403 15:36:00.827942 10668 net.cpp:141] Setting up loss2/relu_conv
I0403 15:36:00.827967 10668 net.cpp:148] Top shape: 24 128 4 4 (49152)
I0403 15:36:00.827991 10668 net.cpp:156] Memory required for data: 1208122656
I0403 15:36:00.828008 10668 layer_factory.hpp:77] Creating layer loss2/fc
I0403 15:36:00.828032 10668 net.cpp:91] Creating Layer loss2/fc
I0403 15:36:00.828049 10668 net.cpp:425] loss2/fc <- loss2/conv
I0403 15:36:00.828068 10668 net.cpp:399] loss2/fc -> loss2/fc
I0403 15:36:00.845365 10668 net.cpp:141] Setting up loss2/fc
I0403 15:36:00.845398 10668 net.cpp:148] Top shape: 24 1024 (24576)
I0403 15:36:00.845414 10668 net.cpp:156] Memory required for data: 1208220960
I0403 15:36:00.845433 10668 layer_factory.hpp:77] Creating layer loss2/relu_fc
I0403 15:36:00.845453 10668 net.cpp:91] Creating Layer loss2/relu_fc
I0403 15:36:00.845471 10668 net.cpp:425] loss2/relu_fc <- loss2/fc
I0403 15:36:00.845490 10668 net.cpp:386] loss2/relu_fc -> loss2/fc (in-place)
I0403 15:36:00.845782 10668 net.cpp:141] Setting up loss2/relu_fc
I0403 15:36:00.845809 10668 net.cpp:148] Top shape: 24 1024 (24576)
I0403 15:36:00.845824 10668 net.cpp:156] Memory required for data: 1208319264
I0403 15:36:00.845839 10668 layer_factory.hpp:77] Creating layer loss2/drop_fc
I0403 15:36:00.845857 10668 net.cpp:91] Creating Layer loss2/drop_fc
I0403 15:36:00.845872 10668 net.cpp:425] loss2/drop_fc <- loss2/fc
I0403 15:36:00.845891 10668 net.cpp:386] loss2/drop_fc -> loss2/fc (in-place)
I0403 15:36:00.845939 10668 net.cpp:141] Setting up loss2/drop_fc
I0403 15:36:00.845960 10668 net.cpp:148] Top shape: 24 1024 (24576)
I0403 15:36:00.845974 10668 net.cpp:156] Memory required for data: 1208417568
I0403 15:36:00.845993 10668 layer_factory.hpp:77] Creating layer loss2/classifier_plantvillage
I0403 15:36:00.846015 10668 net.cpp:91] Creating Layer loss2/classifier_plantvillage
I0403 15:36:00.846032 10668 net.cpp:425] loss2/classifier_plantvillage <- loss2/fc
I0403 15:36:00.846052 10668 net.cpp:399] loss2/classifier_plantvillage -> loss2/classifier_plantvillage
I0403 15:36:00.846441 10668 net.cpp:141] Setting up loss2/classifier_plantvillage
I0403 15:36:00.846465 10668 net.cpp:148] Top shape: 24 38 (912)
I0403 15:36:00.846494 10668 net.cpp:156] Memory required for data: 1208421216
I0403 15:36:00.846513 10668 layer_factory.hpp:77] Creating layer loss2/classifier_plantvillage_loss2/classifier_plantvillage_0_split
I0403 15:36:00.846530 10668 net.cpp:91] Creating Layer loss2/classifier_plantvillage_loss2/classifier_plantvillage_0_split
I0403 15:36:00.846549 10668 net.cpp:425] loss2/classifier_plantvillage_loss2/classifier_plantvillage_0_split <- loss2/classifier_plantvillage
I0403 15:36:00.846565 10668 net.cpp:399] loss2/classifier_plantvillage_loss2/classifier_plantvillage_0_split -> loss2/classifier_plantvillage_loss2/classifier_plantvillage_0_split_0
I0403 15:36:00.846585 10668 net.cpp:399] loss2/classifier_plantvillage_loss2/classifier_plantvillage_0_split -> loss2/classifier_plantvillage_loss2/classifier_plantvillage_0_split_1
I0403 15:36:00.846606 10668 net.cpp:399] loss2/classifier_plantvillage_loss2/classifier_plantvillage_0_split -> loss2/classifier_plantvillage_loss2/classifier_plantvillage_0_split_2
I0403 15:36:00.846686 10668 net.cpp:141] Setting up loss2/classifier_plantvillage_loss2/classifier_plantvillage_0_split
I0403 15:36:00.846709 10668 net.cpp:148] Top shape: 24 38 (912)
I0403 15:36:00.846724 10668 net.cpp:148] Top shape: 24 38 (912)
I0403 15:36:00.846740 10668 net.cpp:148] Top shape: 24 38 (912)
I0403 15:36:00.846752 10668 net.cpp:156] Memory required for data: 1208432160
I0403 15:36:00.846767 10668 layer_factory.hpp:77] Creating layer inception_4e/1x1
I0403 15:36:00.846786 10668 net.cpp:91] Creating Layer inception_4e/1x1
I0403 15:36:00.846803 10668 net.cpp:425] inception_4e/1x1 <- inception_4d/output_inception_4d/output_0_split_1
I0403 15:36:00.846823 10668 net.cpp:399] inception_4e/1x1 -> inception_4e/1x1
I0403 15:36:00.848608 10668 net.cpp:141] Setting up inception_4e/1x1
I0403 15:36:00.848634 10668 net.cpp:148] Top shape: 24 256 14 14 (1204224)
I0403 15:36:00.848649 10668 net.cpp:156] Memory required for data: 1213249056
I0403 15:36:00.848667 10668 layer_factory.hpp:77] Creating layer inception_4e/relu_1x1
I0403 15:36:00.848686 10668 net.cpp:91] Creating Layer inception_4e/relu_1x1
I0403 15:36:00.848702 10668 net.cpp:425] inception_4e/relu_1x1 <- inception_4e/1x1
I0403 15:36:00.848719 10668 net.cpp:386] inception_4e/relu_1x1 -> inception_4e/1x1 (in-place)
I0403 15:36:00.849010 10668 net.cpp:141] Setting up inception_4e/relu_1x1
I0403 15:36:00.849035 10668 net.cpp:148] Top shape: 24 256 14 14 (1204224)
I0403 15:36:00.849050 10668 net.cpp:156] Memory required for data: 1218065952
I0403 15:36:00.849066 10668 layer_factory.hpp:77] Creating layer inception_4e/3x3_reduce
I0403 15:36:00.849086 10668 net.cpp:91] Creating Layer inception_4e/3x3_reduce
I0403 15:36:00.849103 10668 net.cpp:425] inception_4e/3x3_reduce <- inception_4d/output_inception_4d/output_0_split_2
I0403 15:36:00.849124 10668 net.cpp:399] inception_4e/3x3_reduce -> inception_4e/3x3_reduce
I0403 15:36:00.851207 10668 net.cpp:141] Setting up inception_4e/3x3_reduce
I0403 15:36:00.851235 10668 net.cpp:148] Top shape: 24 160 14 14 (752640)
I0403 15:36:00.851250 10668 net.cpp:156] Memory required for data: 1221076512
I0403 15:36:00.851269 10668 layer_factory.hpp:77] Creating layer inception_4e/relu_3x3_reduce
I0403 15:36:00.851285 10668 net.cpp:91] Creating Layer inception_4e/relu_3x3_reduce
I0403 15:36:00.851300 10668 net.cpp:425] inception_4e/relu_3x3_reduce <- inception_4e/3x3_reduce
I0403 15:36:00.851320 10668 net.cpp:386] inception_4e/relu_3x3_reduce -> inception_4e/3x3_reduce (in-place)
I0403 15:36:00.851505 10668 net.cpp:141] Setting up inception_4e/relu_3x3_reduce
I0403 15:36:00.851528 10668 net.cpp:148] Top shape: 24 160 14 14 (752640)
I0403 15:36:00.851542 10668 net.cpp:156] Memory required for data: 1224087072
I0403 15:36:00.851557 10668 layer_factory.hpp:77] Creating layer inception_4e/3x3
I0403 15:36:00.851578 10668 net.cpp:91] Creating Layer inception_4e/3x3
I0403 15:36:00.851595 10668 net.cpp:425] inception_4e/3x3 <- inception_4e/3x3_reduce
I0403 15:36:00.851615 10668 net.cpp:399] inception_4e/3x3 -> inception_4e/3x3
I0403 15:36:00.856590 10668 net.cpp:141] Setting up inception_4e/3x3
I0403 15:36:00.856627 10668 net.cpp:148] Top shape: 24 320 14 14 (1505280)
I0403 15:36:00.856643 10668 net.cpp:156] Memory required for data: 1230108192
I0403 15:36:00.856662 10668 layer_factory.hpp:77] Creating layer inception_4e/relu_3x3
I0403 15:36:00.856681 10668 net.cpp:91] Creating Layer inception_4e/relu_3x3
I0403 15:36:00.856698 10668 net.cpp:425] inception_4e/relu_3x3 <- inception_4e/3x3
I0403 15:36:00.856714 10668 net.cpp:386] inception_4e/relu_3x3 -> inception_4e/3x3 (in-place)
I0403 15:36:00.857030 10668 net.cpp:141] Setting up inception_4e/relu_3x3
I0403 15:36:00.857056 10668 net.cpp:148] Top shape: 24 320 14 14 (1505280)
I0403 15:36:00.857071 10668 net.cpp:156] Memory required for data: 1236129312
I0403 15:36:00.857087 10668 layer_factory.hpp:77] Creating layer inception_4e/5x5_reduce
I0403 15:36:00.857112 10668 net.cpp:91] Creating Layer inception_4e/5x5_reduce
I0403 15:36:00.857131 10668 net.cpp:425] inception_4e/5x5_reduce <- inception_4d/output_inception_4d/output_0_split_3
I0403 15:36:00.857151 10668 net.cpp:399] inception_4e/5x5_reduce -> inception_4e/5x5_reduce
I0403 15:36:00.858232 10668 net.cpp:141] Setting up inception_4e/5x5_reduce
I0403 15:36:00.858259 10668 net.cpp:148] Top shape: 24 32 14 14 (150528)
I0403 15:36:00.858274 10668 net.cpp:156] Memory required for data: 1236731424
I0403 15:36:00.858292 10668 layer_factory.hpp:77] Creating layer inception_4e/relu_5x5_reduce
I0403 15:36:00.858310 10668 net.cpp:91] Creating Layer inception_4e/relu_5x5_reduce
I0403 15:36:00.858326 10668 net.cpp:425] inception_4e/relu_5x5_reduce <- inception_4e/5x5_reduce
I0403 15:36:00.858345 10668 net.cpp:386] inception_4e/relu_5x5_reduce -> inception_4e/5x5_reduce (in-place)
I0403 15:36:00.858642 10668 net.cpp:141] Setting up inception_4e/relu_5x5_reduce
I0403 15:36:00.858667 10668 net.cpp:148] Top shape: 24 32 14 14 (150528)
I0403 15:36:00.858681 10668 net.cpp:156] Memory required for data: 1237333536
I0403 15:36:00.858695 10668 layer_factory.hpp:77] Creating layer inception_4e/5x5
I0403 15:36:00.858732 10668 net.cpp:91] Creating Layer inception_4e/5x5
I0403 15:36:00.858750 10668 net.cpp:425] inception_4e/5x5 <- inception_4e/5x5_reduce
I0403 15:36:00.858768 10668 net.cpp:399] inception_4e/5x5 -> inception_4e/5x5
I0403 15:36:00.860595 10668 net.cpp:141] Setting up inception_4e/5x5
I0403 15:36:00.860625 10668 net.cpp:148] Top shape: 24 128 14 14 (602112)
I0403 15:36:00.860641 10668 net.cpp:156] Memory required for data: 1239741984
I0403 15:36:00.860659 10668 layer_factory.hpp:77] Creating layer inception_4e/relu_5x5
I0403 15:36:00.860677 10668 net.cpp:91] Creating Layer inception_4e/relu_5x5
I0403 15:36:00.860692 10668 net.cpp:425] inception_4e/relu_5x5 <- inception_4e/5x5
I0403 15:36:00.860709 10668 net.cpp:386] inception_4e/relu_5x5 -> inception_4e/5x5 (in-place)
I0403 15:36:00.860905 10668 net.cpp:141] Setting up inception_4e/relu_5x5
I0403 15:36:00.860931 10668 net.cpp:148] Top shape: 24 128 14 14 (602112)
I0403 15:36:00.860955 10668 net.cpp:156] Memory required for data: 1242150432
I0403 15:36:00.860970 10668 layer_factory.hpp:77] Creating layer inception_4e/pool
I0403 15:36:00.860991 10668 net.cpp:91] Creating Layer inception_4e/pool
I0403 15:36:00.861016 10668 net.cpp:425] inception_4e/pool <- inception_4d/output_inception_4d/output_0_split_4
I0403 15:36:00.861035 10668 net.cpp:399] inception_4e/pool -> inception_4e/pool
I0403 15:36:00.861104 10668 net.cpp:141] Setting up inception_4e/pool
I0403 15:36:00.861126 10668 net.cpp:148] Top shape: 24 528 14 14 (2483712)
I0403 15:36:00.861141 10668 net.cpp:156] Memory required for data: 1252085280
I0403 15:36:00.861155 10668 layer_factory.hpp:77] Creating layer inception_4e/pool_proj
I0403 15:36:00.861177 10668 net.cpp:91] Creating Layer inception_4e/pool_proj
I0403 15:36:00.861194 10668 net.cpp:425] inception_4e/pool_proj <- inception_4e/pool
I0403 15:36:00.861214 10668 net.cpp:399] inception_4e/pool_proj -> inception_4e/pool_proj
I0403 15:36:00.862689 10668 net.cpp:141] Setting up inception_4e/pool_proj
I0403 15:36:00.862728 10668 net.cpp:148] Top shape: 24 128 14 14 (602112)
I0403 15:36:00.862745 10668 net.cpp:156] Memory required for data: 1254493728
I0403 15:36:00.862761 10668 layer_factory.hpp:77] Creating layer inception_4e/relu_pool_proj
I0403 15:36:00.862778 10668 net.cpp:91] Creating Layer inception_4e/relu_pool_proj
I0403 15:36:00.862794 10668 net.cpp:425] inception_4e/relu_pool_proj <- inception_4e/pool_proj
I0403 15:36:00.862812 10668 net.cpp:386] inception_4e/relu_pool_proj -> inception_4e/pool_proj (in-place)
I0403 15:36:00.863101 10668 net.cpp:141] Setting up inception_4e/relu_pool_proj
I0403 15:36:00.863128 10668 net.cpp:148] Top shape: 24 128 14 14 (602112)
I0403 15:36:00.863144 10668 net.cpp:156] Memory required for data: 1256902176
I0403 15:36:00.863158 10668 layer_factory.hpp:77] Creating layer inception_4e/output
I0403 15:36:00.863176 10668 net.cpp:91] Creating Layer inception_4e/output
I0403 15:36:00.863191 10668 net.cpp:425] inception_4e/output <- inception_4e/1x1
I0403 15:36:00.863207 10668 net.cpp:425] inception_4e/output <- inception_4e/3x3
I0403 15:36:00.863222 10668 net.cpp:425] inception_4e/output <- inception_4e/5x5
I0403 15:36:00.863239 10668 net.cpp:425] inception_4e/output <- inception_4e/pool_proj
I0403 15:36:00.863255 10668 net.cpp:399] inception_4e/output -> inception_4e/output
I0403 15:36:00.863303 10668 net.cpp:141] Setting up inception_4e/output
I0403 15:36:00.863327 10668 net.cpp:148] Top shape: 24 832 14 14 (3913728)
I0403 15:36:00.863340 10668 net.cpp:156] Memory required for data: 1272557088
I0403 15:36:00.863355 10668 layer_factory.hpp:77] Creating layer pool4/3x3_s2
I0403 15:36:00.863374 10668 net.cpp:91] Creating Layer pool4/3x3_s2
I0403 15:36:00.863389 10668 net.cpp:425] pool4/3x3_s2 <- inception_4e/output
I0403 15:36:00.863407 10668 net.cpp:399] pool4/3x3_s2 -> pool4/3x3_s2
I0403 15:36:00.863474 10668 net.cpp:141] Setting up pool4/3x3_s2
I0403 15:36:00.863497 10668 net.cpp:148] Top shape: 24 832 7 7 (978432)
I0403 15:36:00.863512 10668 net.cpp:156] Memory required for data: 1276470816
I0403 15:36:00.863525 10668 layer_factory.hpp:77] Creating layer pool4/3x3_s2_pool4/3x3_s2_0_split
I0403 15:36:00.863543 10668 net.cpp:91] Creating Layer pool4/3x3_s2_pool4/3x3_s2_0_split
I0403 15:36:00.863557 10668 net.cpp:425] pool4/3x3_s2_pool4/3x3_s2_0_split <- pool4/3x3_s2
I0403 15:36:00.863576 10668 net.cpp:399] pool4/3x3_s2_pool4/3x3_s2_0_split -> pool4/3x3_s2_pool4/3x3_s2_0_split_0
I0403 15:36:00.863596 10668 net.cpp:399] pool4/3x3_s2_pool4/3x3_s2_0_split -> pool4/3x3_s2_pool4/3x3_s2_0_split_1
I0403 15:36:00.863616 10668 net.cpp:399] pool4/3x3_s2_pool4/3x3_s2_0_split -> pool4/3x3_s2_pool4/3x3_s2_0_split_2
I0403 15:36:00.863636 10668 net.cpp:399] pool4/3x3_s2_pool4/3x3_s2_0_split -> pool4/3x3_s2_pool4/3x3_s2_0_split_3
I0403 15:36:00.863724 10668 net.cpp:141] Setting up pool4/3x3_s2_pool4/3x3_s2_0_split
I0403 15:36:00.863749 10668 net.cpp:148] Top shape: 24 832 7 7 (978432)
I0403 15:36:00.863765 10668 net.cpp:148] Top shape: 24 832 7 7 (978432)
I0403 15:36:00.863780 10668 net.cpp:148] Top shape: 24 832 7 7 (978432)
I0403 15:36:00.863796 10668 net.cpp:148] Top shape: 24 832 7 7 (978432)
I0403 15:36:00.863809 10668 net.cpp:156] Memory required for data: 1292125728
I0403 15:36:00.863823 10668 layer_factory.hpp:77] Creating layer inception_5a/1x1
I0403 15:36:00.863844 10668 net.cpp:91] Creating Layer inception_5a/1x1
I0403 15:36:00.863862 10668 net.cpp:425] inception_5a/1x1 <- pool4/3x3_s2_pool4/3x3_s2_0_split_0
I0403 15:36:00.863880 10668 net.cpp:399] inception_5a/1x1 -> inception_5a/1x1
I0403 15:36:00.866680 10668 net.cpp:141] Setting up inception_5a/1x1
I0403 15:36:00.866710 10668 net.cpp:148] Top shape: 24 256 7 7 (301056)
I0403 15:36:00.866726 10668 net.cpp:156] Memory required for data: 1293329952
I0403 15:36:00.866744 10668 layer_factory.hpp:77] Creating layer inception_5a/relu_1x1
I0403 15:36:00.866761 10668 net.cpp:91] Creating Layer inception_5a/relu_1x1
I0403 15:36:00.866777 10668 net.cpp:425] inception_5a/relu_1x1 <- inception_5a/1x1
I0403 15:36:00.866796 10668 net.cpp:386] inception_5a/relu_1x1 -> inception_5a/1x1 (in-place)
I0403 15:36:00.867101 10668 net.cpp:141] Setting up inception_5a/relu_1x1
I0403 15:36:00.867130 10668 net.cpp:148] Top shape: 24 256 7 7 (301056)
I0403 15:36:00.867144 10668 net.cpp:156] Memory required for data: 1294534176
I0403 15:36:00.867159 10668 layer_factory.hpp:77] Creating layer inception_5a/3x3_reduce
I0403 15:36:00.867182 10668 net.cpp:91] Creating Layer inception_5a/3x3_reduce
I0403 15:36:00.867197 10668 net.cpp:425] inception_5a/3x3_reduce <- pool4/3x3_s2_pool4/3x3_s2_0_split_1
I0403 15:36:00.867216 10668 net.cpp:399] inception_5a/3x3_reduce -> inception_5a/3x3_reduce
I0403 15:36:00.869629 10668 net.cpp:141] Setting up inception_5a/3x3_reduce
I0403 15:36:00.869657 10668 net.cpp:148] Top shape: 24 160 7 7 (188160)
I0403 15:36:00.869673 10668 net.cpp:156] Memory required for data: 1295286816
I0403 15:36:00.869689 10668 layer_factory.hpp:77] Creating layer inception_5a/relu_3x3_reduce
I0403 15:36:00.869710 10668 net.cpp:91] Creating Layer inception_5a/relu_3x3_reduce
I0403 15:36:00.869726 10668 net.cpp:425] inception_5a/relu_3x3_reduce <- inception_5a/3x3_reduce
I0403 15:36:00.869743 10668 net.cpp:386] inception_5a/relu_3x3_reduce -> inception_5a/3x3_reduce (in-place)
I0403 15:36:00.869930 10668 net.cpp:141] Setting up inception_5a/relu_3x3_reduce
I0403 15:36:00.869956 10668 net.cpp:148] Top shape: 24 160 7 7 (188160)
I0403 15:36:00.869971 10668 net.cpp:156] Memory required for data: 1296039456
I0403 15:36:00.869990 10668 layer_factory.hpp:77] Creating layer inception_5a/3x3
I0403 15:36:00.870013 10668 net.cpp:91] Creating Layer inception_5a/3x3
I0403 15:36:00.870030 10668 net.cpp:425] inception_5a/3x3 <- inception_5a/3x3_reduce
I0403 15:36:00.870048 10668 net.cpp:399] inception_5a/3x3 -> inception_5a/3x3
I0403 15:36:00.875133 10668 net.cpp:141] Setting up inception_5a/3x3
I0403 15:36:00.875164 10668 net.cpp:148] Top shape: 24 320 7 7 (376320)
I0403 15:36:00.875180 10668 net.cpp:156] Memory required for data: 1297544736
I0403 15:36:00.875197 10668 layer_factory.hpp:77] Creating layer inception_5a/relu_3x3
I0403 15:36:00.875216 10668 net.cpp:91] Creating Layer inception_5a/relu_3x3
I0403 15:36:00.875231 10668 net.cpp:425] inception_5a/relu_3x3 <- inception_5a/3x3
I0403 15:36:00.875250 10668 net.cpp:386] inception_5a/relu_3x3 -> inception_5a/3x3 (in-place)
I0403 15:36:00.875556 10668 net.cpp:141] Setting up inception_5a/relu_3x3
I0403 15:36:00.875582 10668 net.cpp:148] Top shape: 24 320 7 7 (376320)
I0403 15:36:00.875597 10668 net.cpp:156] Memory required for data: 1299050016
I0403 15:36:00.875612 10668 layer_factory.hpp:77] Creating layer inception_5a/5x5_reduce
I0403 15:36:00.875633 10668 net.cpp:91] Creating Layer inception_5a/5x5_reduce
I0403 15:36:00.875650 10668 net.cpp:425] inception_5a/5x5_reduce <- pool4/3x3_s2_pool4/3x3_s2_0_split_2
I0403 15:36:00.875671 10668 net.cpp:399] inception_5a/5x5_reduce -> inception_5a/5x5_reduce
I0403 15:36:00.876816 10668 net.cpp:141] Setting up inception_5a/5x5_reduce
I0403 15:36:00.876844 10668 net.cpp:148] Top shape: 24 32 7 7 (37632)
I0403 15:36:00.876860 10668 net.cpp:156] Memory required for data: 1299200544
I0403 15:36:00.876878 10668 layer_factory.hpp:77] Creating layer inception_5a/relu_5x5_reduce
I0403 15:36:00.876896 10668 net.cpp:91] Creating Layer inception_5a/relu_5x5_reduce
I0403 15:36:00.876914 10668 net.cpp:425] inception_5a/relu_5x5_reduce <- inception_5a/5x5_reduce
I0403 15:36:00.876932 10668 net.cpp:386] inception_5a/relu_5x5_reduce -> inception_5a/5x5_reduce (in-place)
I0403 15:36:00.877231 10668 net.cpp:141] Setting up inception_5a/relu_5x5_reduce
I0403 15:36:00.877256 10668 net.cpp:148] Top shape: 24 32 7 7 (37632)
I0403 15:36:00.877271 10668 net.cpp:156] Memory required for data: 1299351072
I0403 15:36:00.877286 10668 layer_factory.hpp:77] Creating layer inception_5a/5x5
I0403 15:36:00.877307 10668 net.cpp:91] Creating Layer inception_5a/5x5
I0403 15:36:00.877324 10668 net.cpp:425] inception_5a/5x5 <- inception_5a/5x5_reduce
I0403 15:36:00.877344 10668 net.cpp:399] inception_5a/5x5 -> inception_5a/5x5
I0403 15:36:00.879046 10668 net.cpp:141] Setting up inception_5a/5x5
I0403 15:36:00.879086 10668 net.cpp:148] Top shape: 24 128 7 7 (150528)
I0403 15:36:00.879102 10668 net.cpp:156] Memory required for data: 1299953184
I0403 15:36:00.879119 10668 layer_factory.hpp:77] Creating layer inception_5a/relu_5x5
I0403 15:36:00.879137 10668 net.cpp:91] Creating Layer inception_5a/relu_5x5
I0403 15:36:00.879153 10668 net.cpp:425] inception_5a/relu_5x5 <- inception_5a/5x5
I0403 15:36:00.879173 10668 net.cpp:386] inception_5a/relu_5x5 -> inception_5a/5x5 (in-place)
I0403 15:36:00.879364 10668 net.cpp:141] Setting up inception_5a/relu_5x5
I0403 15:36:00.879389 10668 net.cpp:148] Top shape: 24 128 7 7 (150528)
I0403 15:36:00.879403 10668 net.cpp:156] Memory required for data: 1300555296
I0403 15:36:00.879417 10668 layer_factory.hpp:77] Creating layer inception_5a/pool
I0403 15:36:00.879436 10668 net.cpp:91] Creating Layer inception_5a/pool
I0403 15:36:00.879454 10668 net.cpp:425] inception_5a/pool <- pool4/3x3_s2_pool4/3x3_s2_0_split_3
I0403 15:36:00.879472 10668 net.cpp:399] inception_5a/pool -> inception_5a/pool
I0403 15:36:00.879540 10668 net.cpp:141] Setting up inception_5a/pool
I0403 15:36:00.879564 10668 net.cpp:148] Top shape: 24 832 7 7 (978432)
I0403 15:36:00.879577 10668 net.cpp:156] Memory required for data: 1304469024
I0403 15:36:00.879591 10668 layer_factory.hpp:77] Creating layer inception_5a/pool_proj
I0403 15:36:00.879613 10668 net.cpp:91] Creating Layer inception_5a/pool_proj
I0403 15:36:00.879629 10668 net.cpp:425] inception_5a/pool_proj <- inception_5a/pool
I0403 15:36:00.879650 10668 net.cpp:399] inception_5a/pool_proj -> inception_5a/pool_proj
I0403 15:36:00.881885 10668 net.cpp:141] Setting up inception_5a/pool_proj
I0403 15:36:00.881916 10668 net.cpp:148] Top shape: 24 128 7 7 (150528)
I0403 15:36:00.881932 10668 net.cpp:156] Memory required for data: 1305071136
I0403 15:36:00.881950 10668 layer_factory.hpp:77] Creating layer inception_5a/relu_pool_proj
I0403 15:36:00.881968 10668 net.cpp:91] Creating Layer inception_5a/relu_pool_proj
I0403 15:36:00.881989 10668 net.cpp:425] inception_5a/relu_pool_proj <- inception_5a/pool_proj
I0403 15:36:00.882009 10668 net.cpp:386] inception_5a/relu_pool_proj -> inception_5a/pool_proj (in-place)
I0403 15:36:00.882295 10668 net.cpp:141] Setting up inception_5a/relu_pool_proj
I0403 15:36:00.882323 10668 net.cpp:148] Top shape: 24 128 7 7 (150528)
I0403 15:36:00.882339 10668 net.cpp:156] Memory required for data: 1305673248
I0403 15:36:00.882354 10668 layer_factory.hpp:77] Creating layer inception_5a/output
I0403 15:36:00.882370 10668 net.cpp:91] Creating Layer inception_5a/output
I0403 15:36:00.882386 10668 net.cpp:425] inception_5a/output <- inception_5a/1x1
I0403 15:36:00.882402 10668 net.cpp:425] inception_5a/output <- inception_5a/3x3
I0403 15:36:00.882417 10668 net.cpp:425] inception_5a/output <- inception_5a/5x5
I0403 15:36:00.882433 10668 net.cpp:425] inception_5a/output <- inception_5a/pool_proj
I0403 15:36:00.882449 10668 net.cpp:399] inception_5a/output -> inception_5a/output
I0403 15:36:00.882499 10668 net.cpp:141] Setting up inception_5a/output
I0403 15:36:00.882522 10668 net.cpp:148] Top shape: 24 832 7 7 (978432)
I0403 15:36:00.882536 10668 net.cpp:156] Memory required for data: 1309586976
I0403 15:36:00.882550 10668 layer_factory.hpp:77] Creating layer inception_5a/output_inception_5a/output_0_split
I0403 15:36:00.882567 10668 net.cpp:91] Creating Layer inception_5a/output_inception_5a/output_0_split
I0403 15:36:00.882582 10668 net.cpp:425] inception_5a/output_inception_5a/output_0_split <- inception_5a/output
I0403 15:36:00.882602 10668 net.cpp:399] inception_5a/output_inception_5a/output_0_split -> inception_5a/output_inception_5a/output_0_split_0
I0403 15:36:00.882622 10668 net.cpp:399] inception_5a/output_inception_5a/output_0_split -> inception_5a/output_inception_5a/output_0_split_1
I0403 15:36:00.882643 10668 net.cpp:399] inception_5a/output_inception_5a/output_0_split -> inception_5a/output_inception_5a/output_0_split_2
I0403 15:36:00.882666 10668 net.cpp:399] inception_5a/output_inception_5a/output_0_split -> inception_5a/output_inception_5a/output_0_split_3
I0403 15:36:00.882778 10668 net.cpp:141] Setting up inception_5a/output_inception_5a/output_0_split
I0403 15:36:00.882802 10668 net.cpp:148] Top shape: 24 832 7 7 (978432)
I0403 15:36:00.882817 10668 net.cpp:148] Top shape: 24 832 7 7 (978432)
I0403 15:36:00.882833 10668 net.cpp:148] Top shape: 24 832 7 7 (978432)
I0403 15:36:00.882848 10668 net.cpp:148] Top shape: 24 832 7 7 (978432)
I0403 15:36:00.882860 10668 net.cpp:156] Memory required for data: 1325241888
I0403 15:36:00.882874 10668 layer_factory.hpp:77] Creating layer inception_5b/1x1
I0403 15:36:00.882895 10668 net.cpp:91] Creating Layer inception_5b/1x1
I0403 15:36:00.882913 10668 net.cpp:425] inception_5b/1x1 <- inception_5a/output_inception_5a/output_0_split_0
I0403 15:36:00.882935 10668 net.cpp:399] inception_5b/1x1 -> inception_5b/1x1
I0403 15:36:00.886664 10668 net.cpp:141] Setting up inception_5b/1x1
I0403 15:36:00.886693 10668 net.cpp:148] Top shape: 24 384 7 7 (451584)
I0403 15:36:00.886708 10668 net.cpp:156] Memory required for data: 1327048224
I0403 15:36:00.886726 10668 layer_factory.hpp:77] Creating layer inception_5b/relu_1x1
I0403 15:36:00.886747 10668 net.cpp:91] Creating Layer inception_5b/relu_1x1
I0403 15:36:00.886764 10668 net.cpp:425] inception_5b/relu_1x1 <- inception_5b/1x1
I0403 15:36:00.886780 10668 net.cpp:386] inception_5b/relu_1x1 -> inception_5b/1x1 (in-place)
I0403 15:36:00.887084 10668 net.cpp:141] Setting up inception_5b/relu_1x1
I0403 15:36:00.887109 10668 net.cpp:148] Top shape: 24 384 7 7 (451584)
I0403 15:36:00.887123 10668 net.cpp:156] Memory required for data: 1328854560
I0403 15:36:00.887137 10668 layer_factory.hpp:77] Creating layer inception_5b/3x3_reduce
I0403 15:36:00.887161 10668 net.cpp:91] Creating Layer inception_5b/3x3_reduce
I0403 15:36:00.887177 10668 net.cpp:425] inception_5b/3x3_reduce <- inception_5a/output_inception_5a/output_0_split_1
I0403 15:36:00.887198 10668 net.cpp:399] inception_5b/3x3_reduce -> inception_5b/3x3_reduce
I0403 15:36:00.889839 10668 net.cpp:141] Setting up inception_5b/3x3_reduce
I0403 15:36:00.889868 10668 net.cpp:148] Top shape: 24 192 7 7 (225792)
I0403 15:36:00.889883 10668 net.cpp:156] Memory required for data: 1329757728
I0403 15:36:00.889901 10668 layer_factory.hpp:77] Creating layer inception_5b/relu_3x3_reduce
I0403 15:36:00.889925 10668 net.cpp:91] Creating Layer inception_5b/relu_3x3_reduce
I0403 15:36:00.889941 10668 net.cpp:425] inception_5b/relu_3x3_reduce <- inception_5b/3x3_reduce
I0403 15:36:00.889960 10668 net.cpp:386] inception_5b/relu_3x3_reduce -> inception_5b/3x3_reduce (in-place)
I0403 15:36:00.890151 10668 net.cpp:141] Setting up inception_5b/relu_3x3_reduce
I0403 15:36:00.890174 10668 net.cpp:148] Top shape: 24 192 7 7 (225792)
I0403 15:36:00.890189 10668 net.cpp:156] Memory required for data: 1330660896
I0403 15:36:00.890203 10668 layer_factory.hpp:77] Creating layer inception_5b/3x3
I0403 15:36:00.890225 10668 net.cpp:91] Creating Layer inception_5b/3x3
I0403 15:36:00.890242 10668 net.cpp:425] inception_5b/3x3 <- inception_5b/3x3_reduce
I0403 15:36:00.890264 10668 net.cpp:399] inception_5b/3x3 -> inception_5b/3x3
I0403 15:36:00.896929 10668 net.cpp:141] Setting up inception_5b/3x3
I0403 15:36:00.896958 10668 net.cpp:148] Top shape: 24 384 7 7 (451584)
I0403 15:36:00.896975 10668 net.cpp:156] Memory required for data: 1332467232
I0403 15:36:00.896996 10668 layer_factory.hpp:77] Creating layer inception_5b/relu_3x3
I0403 15:36:00.897016 10668 net.cpp:91] Creating Layer inception_5b/relu_3x3
I0403 15:36:00.897030 10668 net.cpp:425] inception_5b/relu_3x3 <- inception_5b/3x3
I0403 15:36:00.897050 10668 net.cpp:386] inception_5b/relu_3x3 -> inception_5b/3x3 (in-place)
I0403 15:36:00.897341 10668 net.cpp:141] Setting up inception_5b/relu_3x3
I0403 15:36:00.897368 10668 net.cpp:148] Top shape: 24 384 7 7 (451584)
I0403 15:36:00.897383 10668 net.cpp:156] Memory required for data: 1334273568
I0403 15:36:00.897398 10668 layer_factory.hpp:77] Creating layer inception_5b/5x5_reduce
I0403 15:36:00.897435 10668 net.cpp:91] Creating Layer inception_5b/5x5_reduce
I0403 15:36:00.897454 10668 net.cpp:425] inception_5b/5x5_reduce <- inception_5a/output_inception_5a/output_0_split_2
I0403 15:36:00.897472 10668 net.cpp:399] inception_5b/5x5_reduce -> inception_5b/5x5_reduce
I0403 15:36:00.898722 10668 net.cpp:141] Setting up inception_5b/5x5_reduce
I0403 15:36:00.898751 10668 net.cpp:148] Top shape: 24 48 7 7 (56448)
I0403 15:36:00.898768 10668 net.cpp:156] Memory required for data: 1334499360
I0403 15:36:00.898787 10668 layer_factory.hpp:77] Creating layer inception_5b/relu_5x5_reduce
I0403 15:36:00.898804 10668 net.cpp:91] Creating Layer inception_5b/relu_5x5_reduce
I0403 15:36:00.898820 10668 net.cpp:425] inception_5b/relu_5x5_reduce <- inception_5b/5x5_reduce
I0403 15:36:00.898838 10668 net.cpp:386] inception_5b/relu_5x5_reduce -> inception_5b/5x5_reduce (in-place)
I0403 15:36:00.899212 10668 net.cpp:141] Setting up inception_5b/relu_5x5_reduce
I0403 15:36:00.899238 10668 net.cpp:148] Top shape: 24 48 7 7 (56448)
I0403 15:36:00.899252 10668 net.cpp:156] Memory required for data: 1334725152
I0403 15:36:00.899267 10668 layer_factory.hpp:77] Creating layer inception_5b/5x5
I0403 15:36:00.899287 10668 net.cpp:91] Creating Layer inception_5b/5x5
I0403 15:36:00.899304 10668 net.cpp:425] inception_5b/5x5 <- inception_5b/5x5_reduce
I0403 15:36:00.899322 10668 net.cpp:399] inception_5b/5x5 -> inception_5b/5x5
I0403 15:36:00.901324 10668 net.cpp:141] Setting up inception_5b/5x5
I0403 15:36:00.901353 10668 net.cpp:148] Top shape: 24 128 7 7 (150528)
I0403 15:36:00.901370 10668 net.cpp:156] Memory required for data: 1335327264
I0403 15:36:00.901387 10668 layer_factory.hpp:77] Creating layer inception_5b/relu_5x5
I0403 15:36:00.901406 10668 net.cpp:91] Creating Layer inception_5b/relu_5x5
I0403 15:36:00.901422 10668 net.cpp:425] inception_5b/relu_5x5 <- inception_5b/5x5
I0403 15:36:00.901440 10668 net.cpp:386] inception_5b/relu_5x5 -> inception_5b/5x5 (in-place)
I0403 15:36:00.901633 10668 net.cpp:141] Setting up inception_5b/relu_5x5
I0403 15:36:00.901657 10668 net.cpp:148] Top shape: 24 128 7 7 (150528)
I0403 15:36:00.901670 10668 net.cpp:156] Memory required for data: 1335929376
I0403 15:36:00.901685 10668 layer_factory.hpp:77] Creating layer inception_5b/pool
I0403 15:36:00.901702 10668 net.cpp:91] Creating Layer inception_5b/pool
I0403 15:36:00.901718 10668 net.cpp:425] inception_5b/pool <- inception_5a/output_inception_5a/output_0_split_3
I0403 15:36:00.901738 10668 net.cpp:399] inception_5b/pool -> inception_5b/pool
I0403 15:36:00.901811 10668 net.cpp:141] Setting up inception_5b/pool
I0403 15:36:00.901834 10668 net.cpp:148] Top shape: 24 832 7 7 (978432)
I0403 15:36:00.901849 10668 net.cpp:156] Memory required for data: 1339843104
I0403 15:36:00.901862 10668 layer_factory.hpp:77] Creating layer inception_5b/pool_proj
I0403 15:36:00.901883 10668 net.cpp:91] Creating Layer inception_5b/pool_proj
I0403 15:36:00.901901 10668 net.cpp:425] inception_5b/pool_proj <- inception_5b/pool
I0403 15:36:00.901921 10668 net.cpp:399] inception_5b/pool_proj -> inception_5b/pool_proj
I0403 15:36:00.904212 10668 net.cpp:141] Setting up inception_5b/pool_proj
I0403 15:36:00.904242 10668 net.cpp:148] Top shape: 24 128 7 7 (150528)
I0403 15:36:00.904258 10668 net.cpp:156] Memory required for data: 1340445216
I0403 15:36:00.904276 10668 layer_factory.hpp:77] Creating layer inception_5b/relu_pool_proj
I0403 15:36:00.904295 10668 net.cpp:91] Creating Layer inception_5b/relu_pool_proj
I0403 15:36:00.904310 10668 net.cpp:425] inception_5b/relu_pool_proj <- inception_5b/pool_proj
I0403 15:36:00.904327 10668 net.cpp:386] inception_5b/relu_pool_proj -> inception_5b/pool_proj (in-place)
I0403 15:36:00.904624 10668 net.cpp:141] Setting up inception_5b/relu_pool_proj
I0403 15:36:00.904654 10668 net.cpp:148] Top shape: 24 128 7 7 (150528)
I0403 15:36:00.904669 10668 net.cpp:156] Memory required for data: 1341047328
I0403 15:36:00.904682 10668 layer_factory.hpp:77] Creating layer inception_5b/output
I0403 15:36:00.904700 10668 net.cpp:91] Creating Layer inception_5b/output
I0403 15:36:00.904728 10668 net.cpp:425] inception_5b/output <- inception_5b/1x1
I0403 15:36:00.904747 10668 net.cpp:425] inception_5b/output <- inception_5b/3x3
I0403 15:36:00.904762 10668 net.cpp:425] inception_5b/output <- inception_5b/5x5
I0403 15:36:00.904778 10668 net.cpp:425] inception_5b/output <- inception_5b/pool_proj
I0403 15:36:00.904795 10668 net.cpp:399] inception_5b/output -> inception_5b/output
I0403 15:36:00.904846 10668 net.cpp:141] Setting up inception_5b/output
I0403 15:36:00.904870 10668 net.cpp:148] Top shape: 24 1024 7 7 (1204224)
I0403 15:36:00.904883 10668 net.cpp:156] Memory required for data: 1345864224
I0403 15:36:00.904897 10668 layer_factory.hpp:77] Creating layer pool5/7x7_s1
I0403 15:36:00.904917 10668 net.cpp:91] Creating Layer pool5/7x7_s1
I0403 15:36:00.904933 10668 net.cpp:425] pool5/7x7_s1 <- inception_5b/output
I0403 15:36:00.904950 10668 net.cpp:399] pool5/7x7_s1 -> pool5/7x7_s1
I0403 15:36:00.905169 10668 net.cpp:141] Setting up pool5/7x7_s1
I0403 15:36:00.905194 10668 net.cpp:148] Top shape: 24 1024 1 1 (24576)
I0403 15:36:00.905208 10668 net.cpp:156] Memory required for data: 1345962528
I0403 15:36:00.905222 10668 layer_factory.hpp:77] Creating layer pool5/drop_7x7_s1
I0403 15:36:00.905239 10668 net.cpp:91] Creating Layer pool5/drop_7x7_s1
I0403 15:36:00.905256 10668 net.cpp:425] pool5/drop_7x7_s1 <- pool5/7x7_s1
I0403 15:36:00.905274 10668 net.cpp:386] pool5/drop_7x7_s1 -> pool5/7x7_s1 (in-place)
I0403 15:36:00.905323 10668 net.cpp:141] Setting up pool5/drop_7x7_s1
I0403 15:36:00.905344 10668 net.cpp:148] Top shape: 24 1024 1 1 (24576)
I0403 15:36:00.905359 10668 net.cpp:156] Memory required for data: 1346060832
I0403 15:36:00.905372 10668 layer_factory.hpp:77] Creating layer loss3/classifier_plantvillage
I0403 15:36:00.905393 10668 net.cpp:91] Creating Layer loss3/classifier_plantvillage
I0403 15:36:00.905410 10668 net.cpp:425] loss3/classifier_plantvillage <- pool5/7x7_s1
I0403 15:36:00.905429 10668 net.cpp:399] loss3/classifier_plantvillage -> loss3/classifier_plantvillage
I0403 15:36:00.905843 10668 net.cpp:141] Setting up loss3/classifier_plantvillage
I0403 15:36:00.905866 10668 net.cpp:148] Top shape: 24 38 (912)
I0403 15:36:00.905880 10668 net.cpp:156] Memory required for data: 1346064480
I0403 15:36:00.905899 10668 layer_factory.hpp:77] Creating layer loss3/classifier_plantvillage_loss3/classifier_plantvillage_0_split
I0403 15:36:00.905915 10668 net.cpp:91] Creating Layer loss3/classifier_plantvillage_loss3/classifier_plantvillage_0_split
I0403 15:36:00.905931 10668 net.cpp:425] loss3/classifier_plantvillage_loss3/classifier_plantvillage_0_split <- loss3/classifier_plantvillage
I0403 15:36:00.905951 10668 net.cpp:399] loss3/classifier_plantvillage_loss3/classifier_plantvillage_0_split -> loss3/classifier_plantvillage_loss3/classifier_plantvillage_0_split_0
I0403 15:36:00.905972 10668 net.cpp:399] loss3/classifier_plantvillage_loss3/classifier_plantvillage_0_split -> loss3/classifier_plantvillage_loss3/classifier_plantvillage_0_split_1
I0403 15:36:00.905997 10668 net.cpp:399] loss3/classifier_plantvillage_loss3/classifier_plantvillage_0_split -> loss3/classifier_plantvillage_loss3/classifier_plantvillage_0_split_2
I0403 15:36:00.906020 10668 net.cpp:399] loss3/classifier_plantvillage_loss3/classifier_plantvillage_0_split -> loss3/classifier_plantvillage_loss3/classifier_plantvillage_0_split_3
I0403 15:36:00.906119 10668 net.cpp:141] Setting up loss3/classifier_plantvillage_loss3/classifier_plantvillage_0_split
I0403 15:36:00.906142 10668 net.cpp:148] Top shape: 24 38 (912)
I0403 15:36:00.906157 10668 net.cpp:148] Top shape: 24 38 (912)
I0403 15:36:00.906172 10668 net.cpp:148] Top shape: 24 38 (912)
I0403 15:36:00.906188 10668 net.cpp:148] Top shape: 24 38 (912)
I0403 15:36:00.906200 10668 net.cpp:156] Memory required for data: 1346079072
I0403 15:36:00.906215 10668 layer_factory.hpp:77] Creating layer loss1/loss
I0403 15:36:00.906235 10668 net.cpp:91] Creating Layer loss1/loss
I0403 15:36:00.906252 10668 net.cpp:425] loss1/loss <- loss1/classifier_plantvillage_loss1/classifier_plantvillage_0_split_0
I0403 15:36:00.906282 10668 net.cpp:425] loss1/loss <- label_data_1_split_0
…
