…
I0403 15:35:17.515242 10630 net.cpp:313] The NetState phase (1) differed from the phase (0) specified by a rule in layer data
I0403 15:35:17.516368 10630 net.cpp:49] Initializing net from parameters: 
state {
  phase: TEST
}
layer {
  name: "data"
  type: "Data"
  top: "data"
  top: "label"
  include {
    phase: TEST
  }
  transform_param {
    mirror: false
    crop_size: 224
    mean_file: "/home/mohanty/data/final_dataset/lmdb/segmented-80-20/mean.binaryproto"
  }
  data_param {
    source: "/home/mohanty/data/final_dataset/lmdb/segmented-80-20/test_db"
    batch_size: 24
    backend: LMDB
  }
}
layer {
  name: "conv1/7x7_s2"
  type: "Convolution"
  bottom: "data"
  top: "conv1/7x7_s2"
  param {
    lr_mult: 1
    decay_mult: 1
  }
  param {
    lr_mult: 2
    decay_mult: 0
  }
  convolution_param {
    num_output: 64
    pad: 3
    kernel_size: 7
    stride: 2
    weight_filler {
      type: "xavier"
      std: 0.1
    }
    bias_filler {
      type: "constant"
      value: 0.2
    }
  }
}
layer {
  name: "conv1/relu_7x7"
  type: "ReLU"
  bottom: "conv1/7x7_s2"
  top: "conv1/7x7_s2"
}
layer {
  name: "pool1/3x3_s2"
  type: "Pooling"
  bottom: "conv1/7x7_s2"
  top: "pool1/3x3_s2"
  pooling_param {
    pool: MAX
    kernel_size: 3
    stride: 2
  }
}
layer {
  name: "pool1/norm1"
  type: "LRN"
  bottom: "pool1/3x3_s2"
  top: "pool1/norm1"
  lrn_param {
    local_size: 5
    alpha: 0.0001
    beta: 0.75
  }
}
layer {
  name: "conv2/3x3_reduce"
  type: "Convolution"
  bottom: "pool1/norm1"
  top: "conv2/3x3_reduce"
  param {
    lr_mult: 1
    decay_mult: 1
  }
  param {
    lr_mult: 2
    decay_mult: 0
  }
  convolution_param {
    num_output: 64
    kernel_size: 1
    weight_filler {
      type: "xavier"
      std: 0.1
    }
    bias_filler {
      type: "constant"
      value: 0.2
    }
  }
}
layer {
  name: "conv2/relu_3x3_reduce"
  type: "ReLU"
  bottom: "conv2/3x3_reduce"
  top: "conv2/3x3_reduce"
}
layer {
  name: "conv2/3x3"
  type: "Convolution"
  bottom: "conv2/3x3_reduce"
  top: "conv2/3x3"
  param {
    lr_mult: 1
    decay_mult: 1
  }
  param {
    lr_mult: 2
    decay_mult: 0
  }
  convolution_param {
    num_output: 192
    pad: 1
    kernel_size: 3
    weight_filler {
      type: "xavier"
      std: 0.03
    }
    bias_filler {
      type: "constant"
      value: 0.2
    }
  }
}
layer {
  name: "conv2/relu_3x3"
  type: "ReLU"
  bottom: "conv2/3x3"
  top: "conv2/3x3"
}
layer {
  name: "conv2/norm2"
  type: "LRN"
  bottom: "conv2/3x3"
  top: "conv2/norm2"
  lrn_param {
    local_size: 5
    alpha: 0.0001
    beta: 0.75
  }
}
layer {
  name: "pool2/3x3_s2"
  type: "Pooling"
  bottom: "conv2/norm2"
  top: "pool2/3x3_s2"
  pooling_param {
    pool: MAX
    kernel_size: 3
    stride: 2
  }
}
layer {
  name: "inception_3a/1x1"
  type: "Convolution"
  bottom: "pool2/3x3_s2"
  top: "inception_3a/1x1"
  param {
    lr_mult: 1
    decay_mult: 1
  }
  param {
    lr_mult: 2
    decay_mult: 0
  }
  convolution_param {
    num_output: 64
    kernel_size: 1
    weight_filler {
      type: "xavier"
      std: 0.03
    }
    bias_filler {
      type: "constant"
      value: 0.2
    }
  }
}
layer {
  name: "inception_3a/relu_1x1"
  type: "ReLU"
  bottom: "inception_3a/1x1"
  top: "inception_3a/1x1"
}
layer {
  name: "inception_3a/3x3_reduce"
  type: "Convolution"
  bottom: "pool2/3x3_s2"
  top: "inception_3a/3x3_reduce"
  param {
    lr_mult: 1
    decay_mult: 1
  }
  param {
    lr_mult: 2
    decay_mult: 0
  }
  convolution_param {
    num_output: 96
    kernel_size: 1
    weight_filler {
      type: "xavier"
      std: 0.09
    }
    bias_filler {
      type: "constant"
      value: 0.2
    }
  }
}
layer {
  name: "inception_3a/relu_3x3_reduce"
  type: "ReLU"
  bottom: "inception_3a/3x3_reduce"
  top: "inception_3a/3x3_reduce"
}
layer {
  name: "inception_3a/3x3"
  type: "Convolution"
  bottom: "inception_3a/3x3_reduce"
  top: "inception_3a/3x3"
  param {
    lr_mult: 1
    decay_mult: 1
  }
  param {
    lr_mult: 2
    decay_mult: 0
  }
  convolution_param {
    num_output: 128
    pad: 1
    kernel_size: 3
    weight_filler {
      type: "xavier"
      std: 0.03
    }
    bias_filler {
      type: "constant"
      value: 0.2
    }
  }
}
layer {
  name: "inception_3a/relu_3x3"
  type: "ReLU"
  bottom: "inception_3a/3x3"
  top: "inception_3a/3x3"
}
layer {
  name: "inception_3a/5x5_reduce"
  type: "Convolution"
  bottom: "pool2/3x3_s2"
  top: "inception_3a/5x5_reduce"
  param {
    lr_mult: 1
    decay_mult: 1
  }
  param {
    lr_mult: 2
    decay_mult: 0
  }
  convolution_param {
    num_output: 16
    kernel_size: 1
    weight_filler {
      type: "xavier"
      std: 0.2
    }
    bias_filler {
      type: "constant"
      value: 0.2
    }
  }
}
layer {
  name: "inception_3a/relu_5x5_reduce"
  type: "ReLU"
  bottom: "inception_3a/5x5_reduce"
  top: "inception_3a/5x5_reduce"
}
layer {
  name: "inception_3a/5x5"
  type: "Convolution"
  bottom: "inception_3a/5x5_reduce"
  top: "inception_3a/5x5"
  param {
    lr_mult: 1
    decay_mult: 1
  }
  param {
    lr_mult: 2
    decay_mult: 0
  }
  convolution_param {
    num_output: 32
    pad: 2
    kernel_size: 5
    weight_filler {
      type: "xavier"
      std: 0.03
    }
    bias_filler {
      type: "constant"
      value: 0.2
    }
  }
}
layer {
  name: "inception_3a/relu_5x5"
  type: "ReLU"
  bottom: "inception_3a/5x5"
  top: "inception_3a/5x5"
}
layer {
  name: "inception_3a/pool"
  type: "Pooling"
  bottom: "pool2/3x3_s2"
  top: "inception_3a/pool"
  pooling_param {
    pool: MAX
    kernel_size: 3
    stride: 1
    pad: 1
  }
}
layer {
  name: "inception_3a/pool_proj"
  type: "Convolution"
  bottom: "inception_3a/pool"
  top: "inception_3a/pool_proj"
  param {
    lr_mult: 1
    decay_mult: 1
  }
  param {
    lr_mult: 2
    decay_mult: 0
  }
  convolution_param {
    num_output: 32
    kernel_size: 1
    weight_filler {
      type: "xavier"
      std: 0.1
    }
    bias_filler {
      type: "constant"
      value: 0.2
    }
  }
}
layer {
  name: "inception_3a/relu_pool_proj"
  type: "ReLU"
  bottom: "inception_3a/pool_proj"
  top: "inception_3a/pool_proj"
}
layer {
  name: "inception_3a/output"
  type: "Concat"
  bottom: "inception_3a/1x1"
  bottom: "inception_3a/3x3"
  bottom: "inception_3a/5x5"
  bottom: "inception_3a/pool_proj"
  top: "inception_3a/output"
}
layer {
  name: "inception_3b/1x1"
  type: "Convolution"
  bottom: "inception_3a/output"
  top: "inception_3b/1x1"
  param {
    lr_mult: 1
    decay_mult: 1
  }
  param {
    lr_mult: 2
    decay_mult: 0
  }
  convolution_param {
    num_output: 128
    kernel_size: 1
    weight_filler {
      type: "xavier"
      std: 0.03
    }
    bias_filler {
      type: "constant"
      value: 0.2
    }
  }
}
layer {
  name: "inception_3b/relu_1x1"
  type: "ReLU"
  bottom: "inception_3b/1x1"
  top: "inception_3b/1x1"
}
layer {
  name: "inception_3b/3x3_reduce"
  type: "Convolution"
  bottom: "inception_3a/output"
  top: "inception_3b/3x3_reduce"
  param {
    lr_mult: 1
    decay_mult: 1
  }
  param {
    lr_mult: 2
    decay_mult: 0
  }
  convolution_param {
    num_output: 128
    kernel_size: 1
    weight_filler {
      type: "xavier"
      std: 0.09
    }
    bias_filler {
      type: "constant"
      value: 0.2
    }
  }
}
layer {
  name: "inception_3b/relu_3x3_reduce"
  type: "ReLU"
  bottom: "inception_3b/3x3_reduce"
  top: "inception_3b/3x3_reduce"
}
layer {
  name: "inception_3b/3x3"
  type: "Convolution"
  bottom: "inception_3b/3x3_reduce"
  top: "inception_3b/3x3"
  param {
    lr_mult: 1
    decay_mult: 1
  }
  param {
    lr_mult: 2
    decay_mult: 0
  }
  convolution_param {
    num_output: 192
    pad: 1
    kernel_size: 3
    weight_filler {
      type: "xavier"
      std: 0.03
    }
    bias_filler {
      type: "constant"
      value: 0.2
    }
  }
}
layer {
  name: "inception_3b/relu_3x3"
  type: "ReLU"
  bottom: "inception_3b/3x3"
  top: "inception_3b/3x3"
}
layer {
  name: "inception_3b/5x5_reduce"
  type: "Convolution"
  bottom: "inception_3a/output"
  top: "inception_3b/5x5_reduce"
  param {
    lr_mult: 1
    decay_mult: 1
  }
  param {
    lr_mult: 2
    decay_mult: 0
  }
  convolution_param {
    num_output: 32
    kernel_size: 1
    weight_filler {
      type: "xavier"
      std: 0.2
    }
    bias_filler {
      type: "constant"
      value: 0.2
    }
  }
}
layer {
  name: "inception_3b/relu_5x5_reduce"
  type: "ReLU"
  bottom: "inception_3b/5x5_reduce"
  top: "inception_3b/5x5_reduce"
}
layer {
  name: "inception_3b/5x5"
  type: "Convolution"
  bottom: "inception_3b/5x5_reduce"
  top: "inception_3b/5x5"
  param {
    lr_mult: 1
    decay_mult: 1
  }
  param {
    lr_mult: 2
    decay_mult: 0
  }
  convolution_param {
    num_output: 96
    pad: 2
    kernel_size: 5
    weight_filler {
      type: "xavier"
      std: 0.03
    }
    bias_filler {
      type: "constant"
      value: 0.2
    }
  }
}
layer {
  name: "inception_3b/relu_5x5"
  type: "ReLU"
  bottom: "inception_3b/5x5"
  top: "inception_3b/5x5"
}
layer {
  name: "inception_3b/pool"
  type: "Pooling"
  bottom: "inception_3a/output"
  top: "inception_3b/pool"
  pooling_param {
    pool: MAX
    kernel_size: 3
    stride: 1
    pad: 1
  }
}
layer {
  name: "inception_3b/pool_proj"
  type: "Convolution"
  bottom: "inception_3b/pool"
  top: "inception_3b/pool_proj"
  param {
    lr_mult: 1
    decay_mult: 1
  }
  param {
    lr_mult: 2
    decay_mult: 0
  }
  convolution_param {
    num_output: 64
    kernel_size: 1
    weight_filler {
      type: "xavier"
      std: 0.1
    }
    bias_filler {
      type: "constant"
      value: 0.2
    }
  }
}
layer {
  name: "inception_3b/relu_pool_proj"
  type: "ReLU"
  bottom: "inception_3b/pool_proj"
  top: "inception_3b/pool_proj"
}
layer {
  name: "inception_3b/output"
  type: "Concat"
  bottom: "inception_3b/1x1"
  bottom: "inception_3b/3x3"
  bottom: "inception_3b/5x5"
  bottom: "inception_3b/pool_proj"
  top: "inception_3b/output"
}
layer {
  name: "pool3/3x3_s2"
  type: "Pooling"
  bottom: "inception_3b/output"
  top: "pool3/3x3_s2"
  pooling_param {
    pool: MAX
    kernel_size: 3
    stride: 2
  }
}
layer {
  name: "inception_4a/1x1"
  type: "Convolution"
  bottom: "pool3/3x3_s2"
  top: "inception_4a/1x1"
  param {
    lr_mult: 1
    decay_mult: 1
  }
  param {
    lr_mult: 2
    decay_mult: 0
  }
  convolution_param {
    num_output: 192
    kernel_size: 1
    weight_filler {
      type: "xavier"
      std: 0.03
    }
    bias_filler {
      type: "constant"
      value: 0.2
    }
  }
}
layer {
  name: "inception_4a/relu_1x1"
  type: "ReLU"
  bottom: "inception_4a/1x1"
  top: "inception_4a/1x1"
}
layer {
  name: "inception_4a/3x3_reduce"
  type: "Convolution"
  bottom: "pool3/3x3_s2"
  top: "inception_4a/3x3_reduce"
  param {
    lr_mult: 1
    decay_mult: 1
  }
  param {
    lr_mult: 2
    decay_mult: 0
  }
  convolution_param {
    num_output: 96
    kernel_size: 1
    weight_filler {
      type: "xavier"
      std: 0.09
    }
    bias_filler {
      type: "constant"
      value: 0.2
    }
  }
}
layer {
  name: "inception_4a/relu_3x3_reduce"
  type: "ReLU"
  bottom: "inception_4a/3x3_reduce"
  top: "inception_4a/3x3_reduce"
}
layer {
  name: "inception_4a/3x3"
  type: "Convolution"
  bottom: "inception_4a/3x3_reduce"
  top: "inception_4a/3x3"
  param {
    lr_mult: 1
    decay_mult: 1
  }
  param {
    lr_mult: 2
    decay_mult: 0
  }
  convolution_param {
    num_output: 208
    pad: 1
    kernel_size: 3
    weight_filler {
      type: "xavier"
      std: 0.03
    }
    bias_filler {
      type: "constant"
      value: 0.2
    }
  }
}
layer {
  name: "inception_4a/relu_3x3"
  type: "ReLU"
  bottom: "inception_4a/3x3"
  top: "inception_4a/3x3"
}
layer {
  name: "inception_4a/5x5_reduce"
  type: "Convolution"
  bottom: "pool3/3x3_s2"
  top: "inception_4a/5x5_reduce"
  param {
    lr_mult: 1
    decay_mult: 1
  }
  param {
    lr_mult: 2
    decay_mult: 0
  }
  convolution_param {
    num_output: 16
    kernel_size: 1
    weight_filler {
      type: "xavier"
      std: 0.2
    }
    bias_filler {
      type: "constant"
      value: 0.2
    }
  }
}
layer {
  name: "inception_4a/relu_5x5_reduce"
  type: "ReLU"
  bottom: "inception_4a/5x5_reduce"
  top: "inception_4a/5x5_reduce"
}
layer {
  name: "inception_4a/5x5"
  type: "Convolution"
  bottom: "inception_4a/5x5_reduce"
  top: "inception_4a/5x5"
  param {
    lr_mult: 1
    decay_mult: 1
  }
  param {
    lr_mult: 2
    decay_mult: 0
  }
  convolution_param {
    num_output: 48
    pad: 2
    kernel_size: 5
    weight_filler {
      type: "xavier"
      std: 0.03
    }
    bias_filler {
      type: "constant"
      value: 0.2
    }
  }
}
layer {
  name: "inception_4a/relu_5x5"
  type: "ReLU"
  bottom: "inception_4a/5x5"
  top: "inception_4a/5x5"
}
layer {
  name: "inception_4a/pool"
  type: "Pooling"
  bottom: "pool3/3x3_s2"
  top: "inception_4a/pool"
  pooling_param {
    pool: MAX
    kernel_size: 3
    stride: 1
    pad: 1
  }
}
layer {
  name: "inception_4a/pool_proj"
  type: "Convolution"
  bottom: "inception_4a/pool"
  top: "inception_4a/pool_proj"
  param {
    lr_mult: 1
    decay_mult: 1
  }
  param {
    lr_mult: 2
    decay_mult: 0
  }
  convolution_param {
    num_output: 64
    kernel_size: 1
    weight_filler {
      type: "xavier"
      std: 0.1
    }
    bias_filler {
      type: "constant"
      value: 0.2
    }
  }
}
layer {
  name: "inception_4a/relu_pool_proj"
  type: "ReLU"
  bottom: "inception_4a/pool_proj"
  top: "inception_4a/pool_proj"
}
layer {
  name: "inception_4a/output"
  type: "Concat"
  bottom: "inception_4a/1x1"
  bottom: "inception_4a/3x3"
  bottom: "inception_4a/5x5"
  bottom: "inception_4a/pool_proj"
  top: "inception_4a/output"
}
layer {
  name: "loss1/ave_pool"
  type: "Pooling"
  bottom: "inception_4a/output"
  top: "loss1/ave_pool"
  pooling_param {
    pool: AVE
    kernel_size: 5
    stride: 3
  }
}
layer {
  name: "loss1/conv"
  type: "Convolution"
  bottom: "loss1/ave_pool"
  top: "loss1/conv"
  param {
    lr_mult: 1
    decay_mult: 1
  }
  param {
    lr_mult: 2
    decay_mult: 0
  }
  convolution_param {
    num_output: 128
    kernel_size: 1
    weight_filler {
      type: "xavier"
      std: 0.08
    }
    bias_filler {
      type: "constant"
      value: 0.2
    }
  }
}
layer {
  name: "loss1/relu_conv"
  type: "ReLU"
  bottom: "loss1/conv"
  top: "loss1/conv"
}
layer {
  name: "loss1/fc"
  type: "InnerProduct"
  bottom: "loss1/conv"
  top: "loss1/fc"
  param {
    lr_mult: 1
    decay_mult: 1
  }
  param {
    lr_mult: 2
    decay_mult: 0
  }
  inner_product_param {
    num_output: 1024
    weight_filler {
      type: "xavier"
      std: 0.02
    }
    bias_filler {
      type: "constant"
      value: 0.2
    }
  }
}
layer {
  name: "loss1/relu_fc"
  type: "ReLU"
  bottom: "loss1/fc"
  top: "loss1/fc"
}
layer {
  name: "loss1/drop_fc"
  type: "Dropout"
  bottom: "loss1/fc"
  top: "loss1/fc"
  dropout_param {
    dropout_ratio: 0.7
  }
}
layer {
  name: "loss1/classifier_plantvillage"
  type: "InnerProduct"
  bottom: "loss1/fc"
  top: "loss1/classifier_plantvillage"
  param {
    lr_mult: 1
    decay_mult: 1
  }
  param {
    lr_mult: 2
    decay_mult: 0
  }
  inner_product_param {
    num_output: 38
    weight_filler {
      type: "xavier"
      std: 0.0009765625
    }
    bias_filler {
      type: "constant"
      value: 0
    }
  }
}
layer {
  name: "inception_4b/1x1"
  type: "Convolution"
  bottom: "inception_4a/output"
  top: "inception_4b/1x1"
  param {
    lr_mult: 1
    decay_mult: 1
  }
  param {
    lr_mult: 2
    decay_mult: 0
  }
  convolution_param {
    num_output: 160
    kernel_size: 1
    weight_filler {
      type: "xavier"
      std: 0.03
    }
    bias_filler {
      type: "constant"
      value: 0.2
    }
  }
}
layer {
  name: "inception_4b/relu_1x1"
  type: "ReLU"
  bottom: "inception_4b/1x1"
  top: "inception_4b/1x1"
}
layer {
  name: "inception_4b/3x3_reduce"
  type: "Convolution"
  bottom: "inception_4a/output"
  top: "inception_4b/3x3_reduce"
  param {
    lr_mult: 1
    decay_mult: 1
  }
  param {
    lr_mult: 2
    decay_mult: 0
  }
  convolution_param {
    num_output: 112
    kernel_size: 1
    weight_filler {
      type: "xavier"
      std: 0.09
    }
    bias_filler {
      type: "constant"
      value: 0.2
    }
  }
}
layer {
  name: "inception_4b/relu_3x3_reduce"
  type: "ReLU"
  bottom: "inception_4b/3x3_reduce"
  top: "inception_4b/3x3_reduce"
}
layer {
  name: "inception_4b/3x3"
  type: "Convolution"
  bottom: "inception_4b/3x3_reduce"
  top: "inception_4b/3x3"
  param {
    lr_mult: 1
    decay_mult: 1
  }
  param {
    lr_mult: 2
    decay_mult: 0
  }
  convolution_param {
    num_output: 224
    pad: 1
    kernel_size: 3
    weight_filler {
      type: "xavier"
      std: 0.03
    }
    bias_filler {
      type: "constant"
      value: 0.2
    }
  }
}
layer {
  name: "inception_4b/relu_3x3"
  type: "ReLU"
  bottom: "inception_4b/3x3"
  top: "inception_4b/3x3"
}
layer {
  name: "inception_4b/5x5_reduce"
  type: "Convolution"
  bottom: "inception_4a/output"
  top: "inception_4b/5x5_reduce"
  param {
    lr_mult: 1
    decay_mult: 1
  }
  param {
    lr_mult: 2
    decay_mult: 0
  }
  convolution_param {
    num_output: 24
    kernel_size: 1
    weight_filler {
      type: "xavier"
      std: 0.2
    }
    bias_filler {
      type: "constant"
      value: 0.2
    }
  }
}
layer {
  name: "inception_4b/relu_5x5_reduce"
  type: "ReLU"
  bottom: "inception_4b/5x5_reduce"
  top: "inception_4b/5x5_reduce"
}
layer {
  name: "inception_4b/5x5"
  type: "Convolution"
  bottom: "inception_4b/5x5_reduce"
  top: "inception_4b/5x5"
  param {
    lr_mult: 1
    decay_mult: 1
  }
  param {
    lr_mult: 2
    decay_mult: 0
  }
  convolution_param {
    num_output: 64
    pad: 2
    kernel_size: 5
    weight_filler {
      type: "xavier"
      std: 0.03
    }
    bias_filler {
      type: "constant"
      value: 0.2
    }
  }
}
layer {
  name: "inception_4b/relu_5x5"
  type: "ReLU"
  bottom: "inception_4b/5x5"
  top: "inception_4b/5x5"
}
layer {
  name: "inception_4b/pool"
  type: "Pooling"
  bottom: "inception_4a/output"
  top: "inception_4b/pool"
  pooling_param {
    pool: MAX
    kernel_size: 3
    stride: 1
    pad: 1
  }
}
layer {
  name: "inception_4b/pool_proj"
  type: "Convolution"
  bottom: "inception_4b/pool"
  top: "inception_4b/pool_proj"
  param {
    lr_mult: 1
    decay_mult: 1
  }
  param {
    lr_mult: 2
    decay_mult: 0
  }
  convolution_param {
    num_output: 64
    kernel_size: 1
    weight_filler {
      type: "xavier"
      std: 0.1
    }
    bias_filler {
      type: "constant"
      value: 0.2
    }
  }
}
layer {
  name: "inception_4b/relu_pool_proj"
  type: "ReLU"
  bottom: "inception_4b/pool_proj"
  top: "inception_4b/pool_proj"
}
layer {
  name: "inception_4b/output"
  type: "Concat"
  bottom: "inception_4b/1x1"
  bottom: "inception_4b/3x3"
  bottom: "inception_4b/5x5"
  bottom: "inception_4b/pool_proj"
  top: "inception_4b/output"
}
layer {
  name: "inception_4c/1x1"
  type: "Convolution"
  bottom: "inception_4b/output"
  top: "inception_4c/1x1"
  param {
    lr_mult: 1
    decay_mult: 1
  }
  param {
    lr_mult: 2
    decay_mult: 0
  }
  convolution_param {
    num_output: 128
    kernel_size: 1
    weight_filler {
      type: "xavier"
      std: 0.03
    }
    bias_filler {
      type: "constant"
      value: 0.2
    }
  }
}
layer {
  name: "inception_4c/relu_1x1"
  type: "ReLU"
  bottom: "inception_4c/1x1"
  top: "inception_4c/1x1"
}
layer {
  name: "inception_4c/3x3_reduce"
  type: "Convolution"
  bottom: "inception_4b/output"
  top: "inception_4c/3x3_reduce"
  param {
    lr_mult: 1
    decay_mult: 1
  }
  param {
    lr_mult: 2
    decay_mult: 0
  }
  convolution_param {
    num_output: 128
    kernel_size: 1
    weight_filler {
      type: "xavier"
      std: 0.09
    }
    bias_filler {
      type: "constant"
      value: 0.2
    }
  }
}
layer {
  name: "inception_4c/relu_3x3_reduce"
  type: "ReLU"
  bottom: "inception_4c/3x3_reduce"
  top: "inception_4c/3x3_reduce"
}
layer {
  name: "inception_4c/3x3"
  type: "Convolution"
  bottom: "inception_4c/3x3_reduce"
  top: "inception_4c/3x3"
  param {
    lr_mult: 1
    decay_mult: 1
  }
  param {
    lr_mult: 2
    decay_mult: 0
  }
  convolution_param {
    num_output: 256
    pad: 1
    kernel_size: 3
    weight_filler {
      type: "xavier"
      std: 0.03
    }
    bias_filler {
      type: "constant"
      value: 0.2
    }
  }
}
layer {
  name: "inception_4c/relu_3x3"
  type: "ReLU"
  bottom: "inception_4c/3x3"
  top: "inception_4c/3x3"
}
layer {
  name: "inception_4c/5x5_reduce"
  type: "Convolution"
  bottom: "inception_4b/output"
  top: "inception_4c/5x5_reduce"
  param {
    lr_mult: 1
    decay_mult: 1
  }
  param {
    lr_mult: 2
    decay_mult: 0
  }
  convolution_param {
    num_output: 24
    kernel_size: 1
    weight_filler {
      type: "xavier"
      std: 0.2
    }
    bias_filler {
      type: "constant"
      value: 0.2
    }
  }
}
layer {
  name: "inception_4c/relu_5x5_reduce"
  type: "ReLU"
  bottom: "inception_4c/5x5_reduce"
  top: "inception_4c/5x5_reduce"
}
layer {
  name: "inception_4c/5x5"
  type: "Convolution"
  bottom: "inception_4c/5x5_reduce"
  top: "inception_4c/5x5"
  param {
    lr_mult: 1
    decay_mult: 1
  }
  param {
    lr_mult: 2
    decay_mult: 0
  }
  convolution_param {
    num_output: 64
    pad: 2
    kernel_size: 5
    weight_filler {
      type: "xavier"
      std: 0.03
    }
    bias_filler {
      type: "constant"
      value: 0.2
    }
  }
}
layer {
  name: "inception_4c/relu_5x5"
  type: "ReLU"
  bottom: "inception_4c/5x5"
  top: "inception_4c/5x5"
}
layer {
  name: "inception_4c/pool"
  type: "Pooling"
  bottom: "inception_4b/output"
  top: "inception_4c/pool"
  pooling_param {
    pool: MAX
    kernel_size: 3
    stride: 1
    pad: 1
  }
}
layer {
  name: "inception_4c/pool_proj"
  type: "Convolution"
  bottom: "inception_4c/pool"
  top: "inception_4c/pool_proj"
  param {
    lr_mult: 1
    decay_mult: 1
  }
  param {
    lr_mult: 2
    decay_mult: 0
  }
  convolution_param {
    num_output: 64
    kernel_size: 1
    weight_filler {
      type: "xavier"
      std: 0.1
    }
    bias_filler {
      type: "constant"
      value: 0.2
    }
  }
}
layer {
  name: "inception_4c/relu_pool_proj"
  type: "ReLU"
  bottom: "inception_4c/pool_proj"
  top: "inception_4c/pool_proj"
}
layer {
  name: "inception_4c/output"
  type: "Concat"
  bottom: "inception_4c/1x1"
  bottom: "inception_4c/3x3"
  bottom: "inception_4c/5x5"
  bottom: "inception_4c/pool_proj"
  top: "inception_4c/output"
}
layer {
  name: "inception_4d/1x1"
  type: "Convolution"
  bottom: "inception_4c/output"
  top: "inception_4d/1x1"
  param {
    lr_mult: 1
    decay_mult: 1
  }
  param {
    lr_mult: 2
    decay_mult: 0
  }
  convolution_param {
    num_output: 112
    kernel_size: 1
    weight_filler {
      type: "xavier"
      std: 0.03
    }
    bias_filler {
      type: "constant"
      value: 0.2
    }
  }
}
layer {
  name: "inception_4d/relu_1x1"
  type: "ReLU"
  bottom: "inception_4d/1x1"
  top: "inception_4d/1x1"
}
layer {
  name: "inception_4d/3x3_reduce"
  type: "Convolution"
  bottom: "inception_4c/output"
  top: "inception_4d/3x3_reduce"
  param {
    lr_mult: 1
    decay_mult: 1
  }
  param {
    lr_mult: 2
    decay_mult: 0
  }
  convolution_param {
    num_output: 144
    kernel_size: 1
    weight_filler {
      type: "xavier"
      std: 0.09
    }
    bias_filler {
      type: "constant"
      value: 0.2
    }
  }
}
layer {
  name: "inception_4d/relu_3x3_reduce"
  type: "ReLU"
  bottom: "inception_4d/3x3_reduce"
  top: "inception_4d/3x3_reduce"
}
layer {
  name: "inception_4d/3x3"
  type: "Convolution"
  bottom: "inception_4d/3x3_reduce"
  top: "inception_4d/3x3"
  param {
    lr_mult: 1
    decay_mult: 1
  }
  param {
    lr_mult: 2
    decay_mult: 0
  }
  convolution_param {
    num_output: 288
    pad: 1
    kernel_size: 3
    weight_filler {
      type: "xavier"
      std: 0.03
    }
    bias_filler {
      type: "constant"
      value: 0.2
    }
  }
}
layer {
  name: "inception_4d/relu_3x3"
  type: "ReLU"
  bottom: "inception_4d/3x3"
  top: "inception_4d/3x3"
}
layer {
  name: "inception_4d/5x5_reduce"
  type: "Convolution"
  bottom: "inception_4c/output"
  top: "inception_4d/5x5_reduce"
  param {
    lr_mult: 1
    decay_mult: 1
  }
  param {
    lr_mult: 2
    decay_mult: 0
  }
  convolution_param {
    num_output: 32
    kernel_size: 1
    weight_filler {
      type: "xavier"
      std: 0.2
    }
    bias_filler {
      type: "constant"
      value: 0.2
    }
  }
}
layer {
  name: "inception_4d/relu_5x5_reduce"
  type: "ReLU"
  bottom: "inception_4d/5x5_reduce"
  top: "inception_4d/5x5_reduce"
}
layer {
  name: "inception_4d/5x5"
  type: "Convolution"
  bottom: "inception_4d/5x5_reduce"
  top: "inception_4d/5x5"
  param {
    lr_mult: 1
    decay_mult: 1
  }
  param {
    lr_mult: 2
    decay_mult: 0
  }
  convolution_param {
    num_output: 64
    pad: 2
    kernel_size: 5
    weight_filler {
      type: "xavier"
      std: 0.03
    }
    bias_filler {
      type: "constant"
      value: 0.2
    }
  }
}
layer {
  name: "inception_4d/relu_5x5"
  type: "ReLU"
  bottom: "inception_4d/5x5"
  top: "inception_4d/5x5"
}
layer {
  name: "inception_4d/pool"
  type: "Pooling"
  bottom: "inception_4c/output"
  top: "inception_4d/pool"
  pooling_param {
    pool: MAX
    kernel_size: 3
    stride: 1
    pad: 1
  }
}
layer {
  name: "inception_4d/pool_proj"
  type: "Convolution"
  bottom: "inception_4d/pool"
  top: "inception_4d/pool_proj"
  param {
    lr_mult: 1
    decay_mult: 1
  }
  param {
    lr_mult: 2
    decay_mult: 0
  }
  convolution_param {
    num_output: 64
    kernel_size: 1
    weight_filler {
      type: "xavier"
      std: 0.1
    }
    bias_filler {
      type: "constant"
      value: 0.2
    }
  }
}
layer {
  name: "inception_4d/relu_pool_proj"
  type: "ReLU"
  bottom: "inception_4d/pool_proj"
  top: "inception_4d/pool_proj"
}
layer {
  name: "inception_4d/output"
  type: "Concat"
  bottom: "inception_4d/1x1"
  bottom: "inception_4d/3x3"
  bottom: "inception_4d/5x5"
  bottom: "inception_4d/pool_proj"
  top: "inception_4d/output"
}
layer {
  name: "loss2/ave_pool"
  type: "Pooling"
  bottom: "inception_4d/output"
  top: "loss2/ave_pool"
  pooling_param {
    pool: AVE
    kernel_size: 5
    stride: 3
  }
}
layer {
  name: "loss2/conv"
  type: "Convolution"
  bottom: "loss2/ave_pool"
  top: "loss2/conv"
  param {
    lr_mult: 1
    decay_mult: 1
  }
  param {
    lr_mult: 2
    decay_mult: 0
  }
  convolution_param {
    num_output: 128
    kernel_size: 1
    weight_filler {
      type: "xavier"
      std: 0.08
    }
    bias_filler {
      type: "constant"
      value: 0.2
    }
  }
}
layer {
  name: "loss2/relu_conv"
  type: "ReLU"
  bottom: "loss2/conv"
  top: "loss2/conv"
}
layer {
  name: "loss2/fc"
  type: "InnerProduct"
  bottom: "loss2/conv"
  top: "loss2/fc"
  param {
    lr_mult: 1
    decay_mult: 1
  }
  param {
    lr_mult: 2
    decay_mult: 0
  }
  inner_product_param {
    num_output: 1024
    weight_filler {
      type: "xavier"
      std: 0.02
    }
    bias_filler {
      type: "constant"
      value: 0.2
    }
  }
}
layer {
  name: "loss2/relu_fc"
  type: "ReLU"
  bottom: "loss2/fc"
  top: "loss2/fc"
}
layer {
  name: "loss2/drop_fc"
  type: "Dropout"
  bottom: "loss2/fc"
  top: "loss2/fc"
  dropout_param {
    dropout_ratio: 0.7
  }
}
layer {
  name: "loss2/classifier_plantvillage"
  type: "InnerProduct"
  bottom: "loss2/fc"
  top: "loss2/classifier_plantvillage"
  param {
    lr_mult: 1
    decay_mult: 1
  }
  param {
    lr_mult: 2
    decay_mult: 0
  }
  inner_product_param {
    num_output: 38
    weight_filler {
      type: "xavier"
      std: 0.0009765625
    }
    bias_filler {
      type: "constant"
      value: 0
    }
  }
}
layer {
  name: "inception_4e/1x1"
  type: "Convolution"
  bottom: "inception_4d/output"
  top: "inception_4e/1x1"
  param {
    lr_mult: 1
    decay_mult: 1
  }
  param {
    lr_mult: 2
    decay_mult: 0
  }
  convolution_param {
    num_output: 256
    kernel_size: 1
    weight_filler {
      type: "xavier"
      std: 0.03
    }
    bias_filler {
      type: "constant"
      value: 0.2
    }
  }
}
layer {
  name: "inception_4e/relu_1x1"
  type: "ReLU"
  bottom: "inception_4e/1x1"
  top: "inception_4e/1x1"
}
layer {
  name: "inception_4e/3x3_reduce"
  type: "Convolution"
  bottom: "inception_4d/output"
  top: "inception_4e/3x3_reduce"
  param {
    lr_mult: 1
    decay_mult: 1
  }
  param {
    lr_mult: 2
    decay_mult: 0
  }
  convolution_param {
    num_output: 160
    kernel_size: 1
    weight_filler {
      type: "xavier"
      std: 0.09
    }
    bias_filler {
      type: "constant"
      value: 0.2
    }
  }
}
layer {
  name: "inception_4e/relu_3x3_reduce"
  type: "ReLU"
  bottom: "inception_4e/3x3_reduce"
  top: "inception_4e/3x3_reduce"
}
layer {
  name: "inception_4e/3x3"
  type: "Convolution"
  bottom: "inception_4e/3x3_reduce"
  top: "inception_4e/3x3"
  param {
    lr_mult: 1
    decay_mult: 1
  }
  param {
    lr_mult: 2
    decay_mult: 0
  }
  convolution_param {
    num_output: 320
    pad: 1
    kernel_size: 3
    weight_filler {
      type: "xavier"
      std: 0.03
    }
    bias_filler {
      type: "constant"
      value: 0.2
    }
  }
}
layer {
  name: "inception_4e/relu_3x3"
  type: "ReLU"
  bottom: "inception_4e/3x3"
  top: "inception_4e/3x3"
}
layer {
  name: "inception_4e/5x5_reduce"
  type: "Convolution"
  bottom: "inception_4d/output"
  top: "inception_4e/5x5_reduce"
  param {
    lr_mult: 1
    decay_mult: 1
  }
  param {
    lr_mult: 2
    decay_mult: 0
  }
  convolution_param {
    num_output: 32
    kernel_size: 1
    weight_filler {
      type: "xavier"
      std: 0.2
    }
    bias_filler {
      type: "constant"
      value: 0.2
    }
  }
}
layer {
  name: "inception_4e/relu_5x5_reduce"
  type: "ReLU"
  bottom: "inception_4e/5x5_reduce"
  top: "inception_4e/5x5_reduce"
}
layer {
  name: "inception_4e/5x5"
  type: "Convolution"
  bottom: "inception_4e/5x5_reduce"
  top: "inception_4e/
I0403 15:35:17.517580 10630 layer_factory.hpp:77] Creating layer data
I0403 15:35:17.518167 10630 net.cpp:91] Creating Layer data
I0403 15:35:17.518196 10630 net.cpp:399] data -> data
I0403 15:35:17.518247 10630 net.cpp:399] data -> label
I0403 15:35:17.518283 10630 data_transformer.cpp:25] Loading mean file from: /home/mohanty/data/final_dataset/lmdb/segmented-80-20/mean.binaryproto
I0403 15:35:17.521090 10633 db_lmdb.cpp:38] Opened lmdb /home/mohanty/data/final_dataset/lmdb/segmented-80-20/test_db
I0403 15:35:17.530977 10630 data_layer.cpp:41] output data size: 24,3,224,224
I0403 15:35:17.557639 10630 net.cpp:141] Setting up data
I0403 15:35:17.557723 10630 net.cpp:148] Top shape: 24 3 224 224 (3612672)
I0403 15:35:17.557746 10630 net.cpp:148] Top shape: 24 (24)
I0403 15:35:17.557761 10630 net.cpp:156] Memory required for data: 14450784
I0403 15:35:17.557790 10630 layer_factory.hpp:77] Creating layer label_data_1_split
I0403 15:35:17.557818 10630 net.cpp:91] Creating Layer label_data_1_split
I0403 15:35:17.557838 10630 net.cpp:425] label_data_1_split <- label
I0403 15:35:17.557869 10630 net.cpp:399] label_data_1_split -> label_data_1_split_0
I0403 15:35:17.557898 10630 net.cpp:399] label_data_1_split -> label_data_1_split_1
I0403 15:35:17.557919 10630 net.cpp:399] label_data_1_split -> label_data_1_split_2
I0403 15:35:17.557942 10630 net.cpp:399] label_data_1_split -> label_data_1_split_3
I0403 15:35:17.557974 10630 net.cpp:399] label_data_1_split -> label_data_1_split_4
I0403 15:35:17.557997 10630 net.cpp:399] label_data_1_split -> label_data_1_split_5
I0403 15:35:17.558018 10630 net.cpp:399] label_data_1_split -> label_data_1_split_6
I0403 15:35:17.558040 10630 net.cpp:399] label_data_1_split -> label_data_1_split_7
I0403 15:35:17.558060 10630 net.cpp:399] label_data_1_split -> label_data_1_split_8
I0403 15:35:17.558081 10630 net.cpp:399] label_data_1_split -> label_data_1_split_9
I0403 15:35:17.558193 10630 net.cpp:141] Setting up label_data_1_split
I0403 15:35:17.558218 10630 net.cpp:148] Top shape: 24 (24)
I0403 15:35:17.558236 10630 net.cpp:148] Top shape: 24 (24)
I0403 15:35:17.558253 10630 net.cpp:148] Top shape: 24 (24)
I0403 15:35:17.558267 10630 net.cpp:148] Top shape: 24 (24)
I0403 15:35:17.558282 10630 net.cpp:148] Top shape: 24 (24)
I0403 15:35:17.558297 10630 net.cpp:148] Top shape: 24 (24)
I0403 15:35:17.558313 10630 net.cpp:148] Top shape: 24 (24)
I0403 15:35:17.558328 10630 net.cpp:148] Top shape: 24 (24)
I0403 15:35:17.558343 10630 net.cpp:148] Top shape: 24 (24)
I0403 15:35:17.558358 10630 net.cpp:148] Top shape: 24 (24)
I0403 15:35:17.558403 10630 net.cpp:156] Memory required for data: 14451744
I0403 15:35:17.558418 10630 layer_factory.hpp:77] Creating layer conv1/7x7_s2
I0403 15:35:17.558449 10630 net.cpp:91] Creating Layer conv1/7x7_s2
I0403 15:35:17.558467 10630 net.cpp:425] conv1/7x7_s2 <- data
I0403 15:35:17.558487 10630 net.cpp:399] conv1/7x7_s2 -> conv1/7x7_s2
I0403 15:35:17.698729 10630 net.cpp:141] Setting up conv1/7x7_s2
I0403 15:35:17.698808 10630 net.cpp:148] Top shape: 24 64 112 112 (19267584)
I0403 15:35:17.698827 10630 net.cpp:156] Memory required for data: 91522080
I0403 15:35:17.698859 10630 layer_factory.hpp:77] Creating layer conv1/relu_7x7
I0403 15:35:17.698889 10630 net.cpp:91] Creating Layer conv1/relu_7x7
I0403 15:35:17.698907 10630 net.cpp:425] conv1/relu_7x7 <- conv1/7x7_s2
I0403 15:35:17.698928 10630 net.cpp:386] conv1/relu_7x7 -> conv1/7x7_s2 (in-place)
I0403 15:35:17.699201 10630 net.cpp:141] Setting up conv1/relu_7x7
I0403 15:35:17.699229 10630 net.cpp:148] Top shape: 24 64 112 112 (19267584)
I0403 15:35:17.699246 10630 net.cpp:156] Memory required for data: 168592416
I0403 15:35:17.699262 10630 layer_factory.hpp:77] Creating layer pool1/3x3_s2
I0403 15:35:17.699288 10630 net.cpp:91] Creating Layer pool1/3x3_s2
I0403 15:35:17.699307 10630 net.cpp:425] pool1/3x3_s2 <- conv1/7x7_s2
I0403 15:35:17.699327 10630 net.cpp:399] pool1/3x3_s2 -> pool1/3x3_s2
I0403 15:35:17.699404 10630 net.cpp:141] Setting up pool1/3x3_s2
I0403 15:35:17.699430 10630 net.cpp:148] Top shape: 24 64 56 56 (4816896)
I0403 15:35:17.699445 10630 net.cpp:156] Memory required for data: 187860000
I0403 15:35:17.699461 10630 layer_factory.hpp:77] Creating layer pool1/norm1
I0403 15:35:17.699486 10630 net.cpp:91] Creating Layer pool1/norm1
I0403 15:35:17.699506 10630 net.cpp:425] pool1/norm1 <- pool1/3x3_s2
I0403 15:35:17.699523 10630 net.cpp:399] pool1/norm1 -> pool1/norm1
I0403 15:35:17.699820 10630 net.cpp:141] Setting up pool1/norm1
I0403 15:35:17.699848 10630 net.cpp:148] Top shape: 24 64 56 56 (4816896)
I0403 15:35:17.699864 10630 net.cpp:156] Memory required for data: 207127584
I0403 15:35:17.699882 10630 layer_factory.hpp:77] Creating layer conv2/3x3_reduce
I0403 15:35:17.699906 10630 net.cpp:91] Creating Layer conv2/3x3_reduce
I0403 15:35:17.699925 10630 net.cpp:425] conv2/3x3_reduce <- pool1/norm1
I0403 15:35:17.699949 10630 net.cpp:399] conv2/3x3_reduce -> conv2/3x3_reduce
I0403 15:35:17.701334 10630 net.cpp:141] Setting up conv2/3x3_reduce
I0403 15:35:17.701365 10630 net.cpp:148] Top shape: 24 64 56 56 (4816896)
I0403 15:35:17.701382 10630 net.cpp:156] Memory required for data: 226395168
I0403 15:35:17.701405 10630 layer_factory.hpp:77] Creating layer conv2/relu_3x3_reduce
I0403 15:35:17.701426 10630 net.cpp:91] Creating Layer conv2/relu_3x3_reduce
I0403 15:35:17.701442 10630 net.cpp:425] conv2/relu_3x3_reduce <- conv2/3x3_reduce
I0403 15:35:17.701459 10630 net.cpp:386] conv2/relu_3x3_reduce -> conv2/3x3_reduce (in-place)
I0403 15:35:17.701719 10630 net.cpp:141] Setting up conv2/relu_3x3_reduce
I0403 15:35:17.701747 10630 net.cpp:148] Top shape: 24 64 56 56 (4816896)
I0403 15:35:17.701763 10630 net.cpp:156] Memory required for data: 245662752
I0403 15:35:17.701778 10630 layer_factory.hpp:77] Creating layer conv2/3x3
I0403 15:35:17.701802 10630 net.cpp:91] Creating Layer conv2/3x3
I0403 15:35:17.701819 10630 net.cpp:425] conv2/3x3 <- conv2/3x3_reduce
I0403 15:35:17.701838 10630 net.cpp:399] conv2/3x3 -> conv2/3x3
I0403 15:35:17.704185 10630 net.cpp:141] Setting up conv2/3x3
I0403 15:35:17.704218 10630 net.cpp:148] Top shape: 24 192 56 56 (14450688)
I0403 15:35:17.704236 10630 net.cpp:156] Memory required for data: 303465504
I0403 15:35:17.704259 10630 layer_factory.hpp:77] Creating layer conv2/relu_3x3
I0403 15:35:17.704279 10630 net.cpp:91] Creating Layer conv2/relu_3x3
I0403 15:35:17.704296 10630 net.cpp:425] conv2/relu_3x3 <- conv2/3x3
I0403 15:35:17.704319 10630 net.cpp:386] conv2/relu_3x3 -> conv2/3x3 (in-place)
I0403 15:35:17.704502 10630 net.cpp:141] Setting up conv2/relu_3x3
I0403 15:35:17.704530 10630 net.cpp:148] Top shape: 24 192 56 56 (14450688)
I0403 15:35:17.704568 10630 net.cpp:156] Memory required for data: 361268256
I0403 15:35:17.704584 10630 layer_factory.hpp:77] Creating layer conv2/norm2
I0403 15:35:17.704607 10630 net.cpp:91] Creating Layer conv2/norm2
I0403 15:35:17.704625 10630 net.cpp:425] conv2/norm2 <- conv2/3x3
I0403 15:35:17.704643 10630 net.cpp:399] conv2/norm2 -> conv2/norm2
I0403 15:35:17.704993 10630 net.cpp:141] Setting up conv2/norm2
I0403 15:35:17.705021 10630 net.cpp:148] Top shape: 24 192 56 56 (14450688)
I0403 15:35:17.705037 10630 net.cpp:156] Memory required for data: 419071008
I0403 15:35:17.705054 10630 layer_factory.hpp:77] Creating layer pool2/3x3_s2
I0403 15:35:17.705075 10630 net.cpp:91] Creating Layer pool2/3x3_s2
I0403 15:35:17.705092 10630 net.cpp:425] pool2/3x3_s2 <- conv2/norm2
I0403 15:35:17.705111 10630 net.cpp:399] pool2/3x3_s2 -> pool2/3x3_s2
I0403 15:35:17.705168 10630 net.cpp:141] Setting up pool2/3x3_s2
I0403 15:35:17.705191 10630 net.cpp:148] Top shape: 24 192 28 28 (3612672)
I0403 15:35:17.705207 10630 net.cpp:156] Memory required for data: 433521696
I0403 15:35:17.705224 10630 layer_factory.hpp:77] Creating layer pool2/3x3_s2_pool2/3x3_s2_0_split
I0403 15:35:17.705241 10630 net.cpp:91] Creating Layer pool2/3x3_s2_pool2/3x3_s2_0_split
I0403 15:35:17.705257 10630 net.cpp:425] pool2/3x3_s2_pool2/3x3_s2_0_split <- pool2/3x3_s2
I0403 15:35:17.705277 10630 net.cpp:399] pool2/3x3_s2_pool2/3x3_s2_0_split -> pool2/3x3_s2_pool2/3x3_s2_0_split_0
I0403 15:35:17.705299 10630 net.cpp:399] pool2/3x3_s2_pool2/3x3_s2_0_split -> pool2/3x3_s2_pool2/3x3_s2_0_split_1
I0403 15:35:17.705320 10630 net.cpp:399] pool2/3x3_s2_pool2/3x3_s2_0_split -> pool2/3x3_s2_pool2/3x3_s2_0_split_2
I0403 15:35:17.705340 10630 net.cpp:399] pool2/3x3_s2_pool2/3x3_s2_0_split -> pool2/3x3_s2_pool2/3x3_s2_0_split_3
I0403 15:35:17.705416 10630 net.cpp:141] Setting up pool2/3x3_s2_pool2/3x3_s2_0_split
I0403 15:35:17.705440 10630 net.cpp:148] Top shape: 24 192 28 28 (3612672)
I0403 15:35:17.705457 10630 net.cpp:148] Top shape: 24 192 28 28 (3612672)
I0403 15:35:17.705474 10630 net.cpp:148] Top shape: 24 192 28 28 (3612672)
I0403 15:35:17.705490 10630 net.cpp:148] Top shape: 24 192 28 28 (3612672)
I0403 15:35:17.705505 10630 net.cpp:156] Memory required for data: 491324448
I0403 15:35:17.705520 10630 layer_factory.hpp:77] Creating layer inception_3a/1x1
I0403 15:35:17.705548 10630 net.cpp:91] Creating Layer inception_3a/1x1
I0403 15:35:17.705565 10630 net.cpp:425] inception_3a/1x1 <- pool2/3x3_s2_pool2/3x3_s2_0_split_0
I0403 15:35:17.705587 10630 net.cpp:399] inception_3a/1x1 -> inception_3a/1x1
I0403 15:35:17.707203 10630 net.cpp:141] Setting up inception_3a/1x1
I0403 15:35:17.707237 10630 net.cpp:148] Top shape: 24 64 28 28 (1204224)
I0403 15:35:17.707255 10630 net.cpp:156] Memory required for data: 496141344
I0403 15:35:17.707274 10630 layer_factory.hpp:77] Creating layer inception_3a/relu_1x1
I0403 15:35:17.707294 10630 net.cpp:91] Creating Layer inception_3a/relu_1x1
I0403 15:35:17.707311 10630 net.cpp:425] inception_3a/relu_1x1 <- inception_3a/1x1
I0403 15:35:17.707329 10630 net.cpp:386] inception_3a/relu_1x1 -> inception_3a/1x1 (in-place)
I0403 15:35:17.707515 10630 net.cpp:141] Setting up inception_3a/relu_1x1
I0403 15:35:17.707543 10630 net.cpp:148] Top shape: 24 64 28 28 (1204224)
I0403 15:35:17.707561 10630 net.cpp:156] Memory required for data: 500958240
I0403 15:35:17.707576 10630 layer_factory.hpp:77] Creating layer inception_3a/3x3_reduce
I0403 15:35:17.707598 10630 net.cpp:91] Creating Layer inception_3a/3x3_reduce
I0403 15:35:17.707617 10630 net.cpp:425] inception_3a/3x3_reduce <- pool2/3x3_s2_pool2/3x3_s2_0_split_1
I0403 15:35:17.707638 10630 net.cpp:399] inception_3a/3x3_reduce -> inception_3a/3x3_reduce
I0403 15:35:17.709441 10630 net.cpp:141] Setting up inception_3a/3x3_reduce
I0403 15:35:17.709472 10630 net.cpp:148] Top shape: 24 96 28 28 (1806336)
I0403 15:35:17.709489 10630 net.cpp:156] Memory required for data: 508183584
I0403 15:35:17.709514 10630 layer_factory.hpp:77] Creating layer inception_3a/relu_3x3_reduce
I0403 15:35:17.709553 10630 net.cpp:91] Creating Layer inception_3a/relu_3x3_reduce
I0403 15:35:17.709571 10630 net.cpp:425] inception_3a/relu_3x3_reduce <- inception_3a/3x3_reduce
I0403 15:35:17.709592 10630 net.cpp:386] inception_3a/relu_3x3_reduce -> inception_3a/3x3_reduce (in-place)
I0403 15:35:17.709780 10630 net.cpp:141] Setting up inception_3a/relu_3x3_reduce
I0403 15:35:17.709807 10630 net.cpp:148] Top shape: 24 96 28 28 (1806336)
I0403 15:35:17.709823 10630 net.cpp:156] Memory required for data: 515408928
I0403 15:35:17.709839 10630 layer_factory.hpp:77] Creating layer inception_3a/3x3
I0403 15:35:17.709862 10630 net.cpp:91] Creating Layer inception_3a/3x3
I0403 15:35:17.709880 10630 net.cpp:425] inception_3a/3x3 <- inception_3a/3x3_reduce
I0403 15:35:17.709903 10630 net.cpp:399] inception_3a/3x3 -> inception_3a/3x3
I0403 15:35:17.711647 10630 net.cpp:141] Setting up inception_3a/3x3
I0403 15:35:17.711678 10630 net.cpp:148] Top shape: 24 128 28 28 (2408448)
I0403 15:35:17.711696 10630 net.cpp:156] Memory required for data: 525042720
I0403 15:35:17.711716 10630 layer_factory.hpp:77] Creating layer inception_3a/relu_3x3
I0403 15:35:17.711735 10630 net.cpp:91] Creating Layer inception_3a/relu_3x3
I0403 15:35:17.711753 10630 net.cpp:425] inception_3a/relu_3x3 <- inception_3a/3x3
I0403 15:35:17.711774 10630 net.cpp:386] inception_3a/relu_3x3 -> inception_3a/3x3 (in-place)
I0403 15:35:17.712066 10630 net.cpp:141] Setting up inception_3a/relu_3x3
I0403 15:35:17.712098 10630 net.cpp:148] Top shape: 24 128 28 28 (2408448)
I0403 15:35:17.712116 10630 net.cpp:156] Memory required for data: 534676512
I0403 15:35:17.712131 10630 layer_factory.hpp:77] Creating layer inception_3a/5x5_reduce
I0403 15:35:17.712155 10630 net.cpp:91] Creating Layer inception_3a/5x5_reduce
I0403 15:35:17.712173 10630 net.cpp:425] inception_3a/5x5_reduce <- pool2/3x3_s2_pool2/3x3_s2_0_split_2
I0403 15:35:17.712196 10630 net.cpp:399] inception_3a/5x5_reduce -> inception_3a/5x5_reduce
I0403 15:35:17.713212 10630 net.cpp:141] Setting up inception_3a/5x5_reduce
I0403 15:35:17.713243 10630 net.cpp:148] Top shape: 24 16 28 28 (301056)
I0403 15:35:17.713258 10630 net.cpp:156] Memory required for data: 535880736
I0403 15:35:17.713279 10630 layer_factory.hpp:77] Creating layer inception_3a/relu_5x5_reduce
I0403 15:35:17.713297 10630 net.cpp:91] Creating Layer inception_3a/relu_5x5_reduce
I0403 15:35:17.713315 10630 net.cpp:425] inception_3a/relu_5x5_reduce <- inception_3a/5x5_reduce
I0403 15:35:17.713336 10630 net.cpp:386] inception_3a/relu_5x5_reduce -> inception_3a/5x5_reduce (in-place)
I0403 15:35:17.713650 10630 net.cpp:141] Setting up inception_3a/relu_5x5_reduce
I0403 15:35:17.713677 10630 net.cpp:148] Top shape: 24 16 28 28 (301056)
I0403 15:35:17.713695 10630 net.cpp:156] Memory required for data: 537084960
I0403 15:35:17.713709 10630 layer_factory.hpp:77] Creating layer inception_3a/5x5
I0403 15:35:17.713734 10630 net.cpp:91] Creating Layer inception_3a/5x5
I0403 15:35:17.713753 10630 net.cpp:425] inception_3a/5x5 <- inception_3a/5x5_reduce
I0403 15:35:17.713775 10630 net.cpp:399] inception_3a/5x5 -> inception_3a/5x5
I0403 15:35:17.714834 10630 net.cpp:141] Setting up inception_3a/5x5
I0403 15:35:17.714867 10630 net.cpp:148] Top shape: 24 32 28 28 (602112)
I0403 15:35:17.714885 10630 net.cpp:156] Memory required for data: 539493408
I0403 15:35:17.714905 10630 layer_factory.hpp:77] Creating layer inception_3a/relu_5x5
I0403 15:35:17.714927 10630 net.cpp:91] Creating Layer inception_3a/relu_5x5
I0403 15:35:17.714944 10630 net.cpp:425] inception_3a/relu_5x5 <- inception_3a/5x5
I0403 15:35:17.714967 10630 net.cpp:386] inception_3a/relu_5x5 -> inception_3a/5x5 (in-place)
I0403 15:35:17.715150 10630 net.cpp:141] Setting up inception_3a/relu_5x5
I0403 15:35:17.715178 10630 net.cpp:148] Top shape: 24 32 28 28 (602112)
I0403 15:35:17.715193 10630 net.cpp:156] Memory required for data: 541901856
I0403 15:35:17.715207 10630 layer_factory.hpp:77] Creating layer inception_3a/pool
I0403 15:35:17.715226 10630 net.cpp:91] Creating Layer inception_3a/pool
I0403 15:35:17.715258 10630 net.cpp:425] inception_3a/pool <- pool2/3x3_s2_pool2/3x3_s2_0_split_3
I0403 15:35:17.715281 10630 net.cpp:399] inception_3a/pool -> inception_3a/pool
I0403 15:35:17.715342 10630 net.cpp:141] Setting up inception_3a/pool
I0403 15:35:17.715369 10630 net.cpp:148] Top shape: 24 192 28 28 (3612672)
I0403 15:35:17.715386 10630 net.cpp:156] Memory required for data: 556352544
I0403 15:35:17.715401 10630 layer_factory.hpp:77] Creating layer inception_3a/pool_proj
I0403 15:35:17.715428 10630 net.cpp:91] Creating Layer inception_3a/pool_proj
I0403 15:35:17.715446 10630 net.cpp:425] inception_3a/pool_proj <- inception_3a/pool
I0403 15:35:17.715466 10630 net.cpp:399] inception_3a/pool_proj -> inception_3a/pool_proj
I0403 15:35:17.716473 10630 net.cpp:141] Setting up inception_3a/pool_proj
I0403 15:35:17.716503 10630 net.cpp:148] Top shape: 24 32 28 28 (602112)
I0403 15:35:17.716519 10630 net.cpp:156] Memory required for data: 558760992
I0403 15:35:17.716545 10630 layer_factory.hpp:77] Creating layer inception_3a/relu_pool_proj
I0403 15:35:17.716567 10630 net.cpp:91] Creating Layer inception_3a/relu_pool_proj
I0403 15:35:17.716583 10630 net.cpp:425] inception_3a/relu_pool_proj <- inception_3a/pool_proj
I0403 15:35:17.716603 10630 net.cpp:386] inception_3a/relu_pool_proj -> inception_3a/pool_proj (in-place)
I0403 15:35:17.716887 10630 net.cpp:141] Setting up inception_3a/relu_pool_proj
I0403 15:35:17.716918 10630 net.cpp:148] Top shape: 24 32 28 28 (602112)
I0403 15:35:17.716936 10630 net.cpp:156] Memory required for data: 561169440
I0403 15:35:17.716958 10630 layer_factory.hpp:77] Creating layer inception_3a/output
I0403 15:35:17.716977 10630 net.cpp:91] Creating Layer inception_3a/output
I0403 15:35:17.716994 10630 net.cpp:425] inception_3a/output <- inception_3a/1x1
I0403 15:35:17.717010 10630 net.cpp:425] inception_3a/output <- inception_3a/3x3
I0403 15:35:17.717027 10630 net.cpp:425] inception_3a/output <- inception_3a/5x5
I0403 15:35:17.717044 10630 net.cpp:425] inception_3a/output <- inception_3a/pool_proj
I0403 15:35:17.717061 10630 net.cpp:399] inception_3a/output -> inception_3a/output
I0403 15:35:17.717111 10630 net.cpp:141] Setting up inception_3a/output
I0403 15:35:17.717136 10630 net.cpp:148] Top shape: 24 256 28 28 (4816896)
I0403 15:35:17.717152 10630 net.cpp:156] Memory required for data: 580437024
I0403 15:35:17.717167 10630 layer_factory.hpp:77] Creating layer inception_3a/output_inception_3a/output_0_split
I0403 15:35:17.717187 10630 net.cpp:91] Creating Layer inception_3a/output_inception_3a/output_0_split
I0403 15:35:17.717205 10630 net.cpp:425] inception_3a/output_inception_3a/output_0_split <- inception_3a/output
I0403 15:35:17.717223 10630 net.cpp:399] inception_3a/output_inception_3a/output_0_split -> inception_3a/output_inception_3a/output_0_split_0
I0403 15:35:17.717243 10630 net.cpp:399] inception_3a/output_inception_3a/output_0_split -> inception_3a/output_inception_3a/output_0_split_1
I0403 15:35:17.717270 10630 net.cpp:399] inception_3a/output_inception_3a/output_0_split -> inception_3a/output_inception_3a/output_0_split_2
I0403 15:35:17.717293 10630 net.cpp:399] inception_3a/output_inception_3a/output_0_split -> inception_3a/output_inception_3a/output_0_split_3
I0403 15:35:17.717372 10630 net.cpp:141] Setting up inception_3a/output_inception_3a/output_0_split
I0403 15:35:17.717396 10630 net.cpp:148] Top shape: 24 256 28 28 (4816896)
I0403 15:35:17.717413 10630 net.cpp:148] Top shape: 24 256 28 28 (4816896)
I0403 15:35:17.717430 10630 net.cpp:148] Top shape: 24 256 28 28 (4816896)
I0403 15:35:17.717447 10630 net.cpp:148] Top shape: 24 256 28 28 (4816896)
I0403 15:35:17.717461 10630 net.cpp:156] Memory required for data: 657507360
I0403 15:35:17.717476 10630 layer_factory.hpp:77] Creating layer inception_3b/1x1
I0403 15:35:17.717501 10630 net.cpp:91] Creating Layer inception_3b/1x1
I0403 15:35:17.717519 10630 net.cpp:425] inception_3b/1x1 <- inception_3a/output_inception_3a/output_0_split_0
I0403 15:35:17.717538 10630 net.cpp:399] inception_3b/1x1 -> inception_3b/1x1
I0403 15:35:17.718734 10630 net.cpp:141] Setting up inception_3b/1x1
I0403 15:35:17.718775 10630 net.cpp:148] Top shape: 24 128 28 28 (2408448)
I0403 15:35:17.718792 10630 net.cpp:156] Memory required for data: 667141152
I0403 15:35:17.718812 10630 layer_factory.hpp:77] Creating layer inception_3b/relu_1x1
I0403 15:35:17.718834 10630 net.cpp:91] Creating Layer inception_3b/relu_1x1
I0403 15:35:17.718852 10630 net.cpp:425] inception_3b/relu_1x1 <- inception_3b/1x1
I0403 15:35:17.718870 10630 net.cpp:386] inception_3b/relu_1x1 -> inception_3b/1x1 (in-place)
I0403 15:35:17.719058 10630 net.cpp:141] Setting up inception_3b/relu_1x1
I0403 15:35:17.719085 10630 net.cpp:148] Top shape: 24 128 28 28 (2408448)
I0403 15:35:17.719100 10630 net.cpp:156] Memory required for data: 676774944
I0403 15:35:17.719116 10630 layer_factory.hpp:77] Creating layer inception_3b/3x3_reduce
I0403 15:35:17.719143 10630 net.cpp:91] Creating Layer inception_3b/3x3_reduce
I0403 15:35:17.719161 10630 net.cpp:425] inception_3b/3x3_reduce <- inception_3a/output_inception_3a/output_0_split_1
I0403 15:35:17.719183 10630 net.cpp:399] inception_3b/3x3_reduce -> inception_3b/3x3_reduce
I0403 15:35:17.720369 10630 net.cpp:141] Setting up inception_3b/3x3_reduce
I0403 15:35:17.720398 10630 net.cpp:148] Top shape: 24 128 28 28 (2408448)
I0403 15:35:17.720415 10630 net.cpp:156] Memory required for data: 686408736
I0403 15:35:17.720434 10630 layer_factory.hpp:77] Creating layer inception_3b/relu_3x3_reduce
I0403 15:35:17.720458 10630 net.cpp:91] Creating Layer inception_3b/relu_3x3_reduce
I0403 15:35:17.720475 10630 net.cpp:425] inception_3b/relu_3x3_reduce <- inception_3b/3x3_reduce
I0403 15:35:17.720494 10630 net.cpp:386] inception_3b/relu_3x3_reduce -> inception_3b/3x3_reduce (in-place)
I0403 15:35:17.720674 10630 net.cpp:141] Setting up inception_3b/relu_3x3_reduce
I0403 15:35:17.720702 10630 net.cpp:148] Top shape: 24 128 28 28 (2408448)
I0403 15:35:17.720718 10630 net.cpp:156] Memory required for data: 696042528
I0403 15:35:17.720734 10630 layer_factory.hpp:77] Creating layer inception_3b/3x3
I0403 15:35:17.720760 10630 net.cpp:91] Creating Layer inception_3b/3x3
I0403 15:35:17.720779 10630 net.cpp:425] inception_3b/3x3 <- inception_3b/3x3_reduce
I0403 15:35:17.720801 10630 net.cpp:399] inception_3b/3x3 -> inception_3b/3x3
I0403 15:35:17.723816 10630 net.cpp:141] Setting up inception_3b/3x3
I0403 15:35:17.723848 10630 net.cpp:148] Top shape: 24 192 28 28 (3612672)
I0403 15:35:17.723865 10630 net.cpp:156] Memory required for data: 710493216
I0403 15:35:17.723884 10630 layer_factory.hpp:77] Creating layer inception_3b/relu_3x3
I0403 15:35:17.723903 10630 net.cpp:91] Creating Layer inception_3b/relu_3x3
I0403 15:35:17.723922 10630 net.cpp:425] inception_3b/relu_3x3 <- inception_3b/3x3
I0403 15:35:17.723942 10630 net.cpp:386] inception_3b/relu_3x3 -> inception_3b/3x3 (in-place)
I0403 15:35:17.724230 10630 net.cpp:141] Setting up inception_3b/relu_3x3
I0403 15:35:17.724258 10630 net.cpp:148] Top shape: 24 192 28 28 (3612672)
I0403 15:35:17.724274 10630 net.cpp:156] Memory required for data: 724943904
I0403 15:35:17.724290 10630 layer_factory.hpp:77] Creating layer inception_3b/5x5_reduce
I0403 15:35:17.724313 10630 net.cpp:91] Creating Layer inception_3b/5x5_reduce
I0403 15:35:17.724331 10630 net.cpp:425] inception_3b/5x5_reduce <- inception_3a/output_inception_3a/output_0_split_2
I0403 15:35:17.724351 10630 net.cpp:399] inception_3b/5x5_reduce -> inception_3b/5x5_reduce
I0403 15:35:17.725368 10630 net.cpp:141] Setting up inception_3b/5x5_reduce
I0403 15:35:17.725399 10630 net.cpp:148] Top shape: 24 32 28 28 (602112)
I0403 15:35:17.725415 10630 net.cpp:156] Memory required for data: 727352352
I0403 15:35:17.725435 10630 layer_factory.hpp:77] Creating layer inception_3b/relu_5x5_reduce
I0403 15:35:17.725452 10630 net.cpp:91] Creating Layer inception_3b/relu_5x5_reduce
I0403 15:35:17.725469 10630 net.cpp:425] inception_3b/relu_5x5_reduce <- inception_3b/5x5_reduce
I0403 15:35:17.725486 10630 net.cpp:386] inception_3b/relu_5x5_reduce -> inception_3b/5x5_reduce (in-place)
I0403 15:35:17.725682 10630 net.cpp:141] Setting up inception_3b/relu_5x5_reduce
I0403 15:35:17.725706 10630 net.cpp:148] Top shape: 24 32 28 28 (602112)
I0403 15:35:17.725723 10630 net.cpp:156] Memory required for data: 729760800
I0403 15:35:17.725738 10630 layer_factory.hpp:77] Creating layer inception_3b/5x5
I0403 15:35:17.725760 10630 net.cpp:91] Creating Layer inception_3b/5x5
I0403 15:35:17.725777 10630 net.cpp:425] inception_3b/5x5 <- inception_3b/5x5_reduce
I0403 15:35:17.725798 10630 net.cpp:399] inception_3b/5x5 -> inception_3b/5x5
I0403 15:35:17.727815 10630 net.cpp:141] Setting up inception_3b/5x5
I0403 15:35:17.727843 10630 net.cpp:148] Top shape: 24 96 28 28 (1806336)
I0403 15:35:17.727859 10630 net.cpp:156] Memory required for data: 736986144
I0403 15:35:17.727877 10630 layer_factory.hpp:77] Creating layer inception_3b/relu_5x5
I0403 15:35:17.727910 10630 net.cpp:91] Creating Layer inception_3b/relu_5x5
I0403 15:35:17.727929 10630 net.cpp:425] inception_3b/relu_5x5 <- inception_3b/5x5
I0403 15:35:17.727957 10630 net.cpp:386] inception_3b/relu_5x5 -> inception_3b/5x5 (in-place)
I0403 15:35:17.728152 10630 net.cpp:141] Setting up inception_3b/relu_5x5
I0403 15:35:17.728179 10630 net.cpp:148] Top shape: 24 96 28 28 (1806336)
I0403 15:35:17.728194 10630 net.cpp:156] Memory required for data: 744211488
I0403 15:35:17.728221 10630 layer_factory.hpp:77] Creating layer inception_3b/pool
I0403 15:35:17.728238 10630 net.cpp:91] Creating Layer inception_3b/pool
I0403 15:35:17.728255 10630 net.cpp:425] inception_3b/pool <- inception_3a/output_inception_3a/output_0_split_3
I0403 15:35:17.728272 10630 net.cpp:399] inception_3b/pool -> inception_3b/pool
I0403 15:35:17.728329 10630 net.cpp:141] Setting up inception_3b/pool
I0403 15:35:17.728353 10630 net.cpp:148] Top shape: 24 256 28 28 (4816896)
I0403 15:35:17.728366 10630 net.cpp:156] Memory required for data: 763479072
I0403 15:35:17.728380 10630 layer_factory.hpp:77] Creating layer inception_3b/pool_proj
I0403 15:35:17.728402 10630 net.cpp:91] Creating Layer inception_3b/pool_proj
I0403 15:35:17.728420 10630 net.cpp:425] inception_3b/pool_proj <- inception_3b/pool
I0403 15:35:17.728440 10630 net.cpp:399] inception_3b/pool_proj -> inception_3b/pool_proj
I0403 15:35:17.729513 10630 net.cpp:141] Setting up inception_3b/pool_proj
I0403 15:35:17.729540 10630 net.cpp:148] Top shape: 24 64 28 28 (1204224)
I0403 15:35:17.729557 10630 net.cpp:156] Memory required for data: 768295968
I0403 15:35:17.729573 10630 layer_factory.hpp:77] Creating layer inception_3b/relu_pool_proj
I0403 15:35:17.729593 10630 net.cpp:91] Creating Layer inception_3b/relu_pool_proj
I0403 15:35:17.729609 10630 net.cpp:425] inception_3b/relu_pool_proj <- inception_3b/pool_proj
I0403 15:35:17.729626 10630 net.cpp:386] inception_3b/relu_pool_proj -> inception_3b/pool_proj (in-place)
I0403 15:35:17.730015 10630 net.cpp:141] Setting up inception_3b/relu_pool_proj
I0403 15:35:17.730041 10630 net.cpp:148] Top shape: 24 64 28 28 (1204224)
I0403 15:35:17.730056 10630 net.cpp:156] Memory required for data: 773112864
I0403 15:35:17.730069 10630 layer_factory.hpp:77] Creating layer inception_3b/output
I0403 15:35:17.730087 10630 net.cpp:91] Creating Layer inception_3b/output
I0403 15:35:17.730101 10630 net.cpp:425] inception_3b/output <- inception_3b/1x1
I0403 15:35:17.730118 10630 net.cpp:425] inception_3b/output <- inception_3b/3x3
I0403 15:35:17.730132 10630 net.cpp:425] inception_3b/output <- inception_3b/5x5
I0403 15:35:17.730147 10630 net.cpp:425] inception_3b/output <- inception_3b/pool_proj
I0403 15:35:17.730166 10630 net.cpp:399] inception_3b/output -> inception_3b/output
I0403 15:35:17.730209 10630 net.cpp:141] Setting up inception_3b/output
I0403 15:35:17.730233 10630 net.cpp:148] Top shape: 24 480 28 28 (9031680)
I0403 15:35:17.730249 10630 net.cpp:156] Memory required for data: 809239584
I0403 15:35:17.730263 10630 layer_factory.hpp:77] Creating layer pool3/3x3_s2
I0403 15:35:17.730280 10630 net.cpp:91] Creating Layer pool3/3x3_s2
I0403 15:35:17.730295 10630 net.cpp:425] pool3/3x3_s2 <- inception_3b/output
I0403 15:35:17.730326 10630 net.cpp:399] pool3/3x3_s2 -> pool3/3x3_s2
I0403 15:35:17.730384 10630 net.cpp:141] Setting up pool3/3x3_s2
I0403 15:35:17.730407 10630 net.cpp:148] Top shape: 24 480 14 14 (2257920)
I0403 15:35:17.730422 10630 net.cpp:156] Memory required for data: 818271264
I0403 15:35:17.730435 10630 layer_factory.hpp:77] Creating layer pool3/3x3_s2_pool3/3x3_s2_0_split
I0403 15:35:17.730451 10630 net.cpp:91] Creating Layer pool3/3x3_s2_pool3/3x3_s2_0_split
I0403 15:35:17.730466 10630 net.cpp:425] pool3/3x3_s2_pool3/3x3_s2_0_split <- pool3/3x3_s2
I0403 15:35:17.730485 10630 net.cpp:399] pool3/3x3_s2_pool3/3x3_s2_0_split -> pool3/3x3_s2_pool3/3x3_s2_0_split_0
I0403 15:35:17.730505 10630 net.cpp:399] pool3/3x3_s2_pool3/3x3_s2_0_split -> pool3/3x3_s2_pool3/3x3_s2_0_split_1
I0403 15:35:17.730525 10630 net.cpp:399] pool3/3x3_s2_pool3/3x3_s2_0_split -> pool3/3x3_s2_pool3/3x3_s2_0_split_2
I0403 15:35:17.730546 10630 net.cpp:399] pool3/3x3_s2_pool3/3x3_s2_0_split -> pool3/3x3_s2_pool3/3x3_s2_0_split_3
I0403 15:35:17.730622 10630 net.cpp:141] Setting up pool3/3x3_s2_pool3/3x3_s2_0_split
I0403 15:35:17.730643 10630 net.cpp:148] Top shape: 24 480 14 14 (2257920)
I0403 15:35:17.730659 10630 net.cpp:148] Top shape: 24 480 14 14 (2257920)
I0403 15:35:17.730674 10630 net.cpp:148] Top shape: 24 480 14 14 (2257920)
I0403 15:35:17.730690 10630 net.cpp:148] Top shape: 24 480 14 14 (2257920)
I0403 15:35:17.730703 10630 net.cpp:156] Memory required for data: 854397984
I0403 15:35:17.730716 10630 layer_factory.hpp:77] Creating layer inception_4a/1x1
I0403 15:35:17.730738 10630 net.cpp:91] Creating Layer inception_4a/1x1
I0403 15:35:17.730756 10630 net.cpp:425] inception_4a/1x1 <- pool3/3x3_s2_pool3/3x3_s2_0_split_0
I0403 15:35:17.730775 10630 net.cpp:399] inception_4a/1x1 -> inception_4a/1x1
I0403 15:35:17.732285 10630 net.cpp:141] Setting up inception_4a/1x1
I0403 15:35:17.732312 10630 net.cpp:148] Top shape: 24 192 14 14 (903168)
I0403 15:35:17.732327 10630 net.cpp:156] Memory required for data: 858010656
I0403 15:35:17.732345 10630 layer_factory.hpp:77] Creating layer inception_4a/relu_1x1
I0403 15:35:17.732365 10630 net.cpp:91] Creating Layer inception_4a/relu_1x1
I0403 15:35:17.732381 10630 net.cpp:425] inception_4a/relu_1x1 <- inception_4a/1x1
I0403 15:35:17.732398 10630 net.cpp:386] inception_4a/relu_1x1 -> inception_4a/1x1 (in-place)
I0403 15:35:17.732566 10630 net.cpp:141] Setting up inception_4a/relu_1x1
I0403 15:35:17.732590 10630 net.cpp:148] Top shape: 24 192 14 14 (903168)
I0403 15:35:17.732604 10630 net.cpp:156] Memory required for data: 861623328
I0403 15:35:17.732619 10630 layer_factory.hpp:77] Creating layer inception_4a/3x3_reduce
I0403 15:35:17.732641 10630 net.cpp:91] Creating Layer inception_4a/3x3_reduce
I0403 15:35:17.732658 10630 net.cpp:425] inception_4a/3x3_reduce <- pool3/3x3_s2_pool3/3x3_s2_0_split_1
I0403 15:35:17.732676 10630 net.cpp:399] inception_4a/3x3_reduce -> inception_4a/3x3_reduce
I0403 15:35:17.733893 10630 net.cpp:141] Setting up inception_4a/3x3_reduce
I0403 15:35:17.733919 10630 net.cpp:148] Top shape: 24 96 14 14 (451584)
I0403 15:35:17.733934 10630 net.cpp:156] Memory required for data: 863429664
I0403 15:35:17.733963 10630 layer_factory.hpp:77] Creating layer inception_4a/relu_3x3_reduce
I0403 15:35:17.733983 10630 net.cpp:91] Creating Layer inception_4a/relu_3x3_reduce
I0403 15:35:17.733999 10630 net.cpp:425] inception_4a/relu_3x3_reduce <- inception_4a/3x3_reduce
I0403 15:35:17.734019 10630 net.cpp:386] inception_4a/relu_3x3_reduce -> inception_4a/3x3_reduce (in-place)
I0403 15:35:17.734191 10630 net.cpp:141] Setting up inception_4a/relu_3x3_reduce
I0403 15:35:17.734215 10630 net.cpp:148] Top shape: 24 96 14 14 (451584)
I0403 15:35:17.734230 10630 net.cpp:156] Memory required for data: 865236000
I0403 15:35:17.734242 10630 layer_factory.hpp:77] Creating layer inception_4a/3x3
I0403 15:35:17.734263 10630 net.cpp:91] Creating Layer inception_4a/3x3
I0403 15:35:17.734280 10630 net.cpp:425] inception_4a/3x3 <- inception_4a/3x3_reduce
I0403 15:35:17.734302 10630 net.cpp:399] inception_4a/3x3 -> inception_4a/3x3
I0403 15:35:17.736896 10630 net.cpp:141] Setting up inception_4a/3x3
I0403 15:35:17.736927 10630 net.cpp:148] Top shape: 24 208 14 14 (978432)
I0403 15:35:17.736944 10630 net.cpp:156] Memory required for data: 869149728
I0403 15:35:17.736966 10630 layer_factory.hpp:77] Creating layer inception_4a/relu_3x3
I0403 15:35:17.736985 10630 net.cpp:91] Creating Layer inception_4a/relu_3x3
I0403 15:35:17.737002 10630 net.cpp:425] inception_4a/relu_3x3 <- inception_4a/3x3
I0403 15:35:17.737018 10630 net.cpp:386] inception_4a/relu_3x3 -> inception_4a/3x3 (in-place)
I0403 15:35:17.737287 10630 net.cpp:141] Setting up inception_4a/relu_3x3
I0403 15:35:17.737313 10630 net.cpp:148] Top shape: 24 208 14 14 (978432)
I0403 15:35:17.737329 10630 net.cpp:156] Memory required for data: 873063456
I0403 15:35:17.737344 10630 layer_factory.hpp:77] Creating layer inception_4a/5x5_reduce
I0403 15:35:17.737363 10630 net.cpp:91] Creating Layer inception_4a/5x5_reduce
I0403 15:35:17.737380 10630 net.cpp:425] inception_4a/5x5_reduce <- pool3/3x3_s2_pool3/3x3_s2_0_split_2
I0403 15:35:17.737401 10630 net.cpp:399] inception_4a/5x5_reduce -> inception_4a/5x5_reduce
I0403 15:35:17.738391 10630 net.cpp:141] Setting up inception_4a/5x5_reduce
I0403 15:35:17.738420 10630 net.cpp:148] Top shape: 24 16 14 14 (75264)
I0403 15:35:17.738436 10630 net.cpp:156] Memory required for data: 873364512
I0403 15:35:17.738454 10630 layer_factory.hpp:77] Creating layer inception_4a/relu_5x5_reduce
I0403 15:35:17.738473 10630 net.cpp:91] Creating Layer inception_4a/relu_5x5_reduce
I0403 15:35:17.738488 10630 net.cpp:425] inception_4a/relu_5x5_reduce <- inception_4a/5x5_reduce
I0403 15:35:17.738505 10630 net.cpp:386] inception_4a/relu_5x5_reduce -> inception_4a/5x5_reduce (in-place)
I0403 15:35:17.738677 10630 net.cpp:141] Setting up inception_4a/relu_5x5_reduce
I0403 15:35:17.738703 10630 net.cpp:148] Top shape: 24 16 14 14 (75264)
I0403 15:35:17.738716 10630 net.cpp:156] Memory required for data: 873665568
I0403 15:35:17.738730 10630 layer_factory.hpp:77] Creating layer inception_4a/5x5
I0403 15:35:17.738752 10630 net.cpp:91] Creating Layer inception_4a/5x5
I0403 15:35:17.738768 10630 net.cpp:425] inception_4a/5x5 <- inception_4a/5x5_reduce
I0403 15:35:17.738790 10630 net.cpp:399] inception_4a/5x5 -> inception_4a/5x5
I0403 15:35:17.739902 10630 net.cpp:141] Setting up inception_4a/5x5
I0403 15:35:17.739934 10630 net.cpp:148] Top shape: 24 48 14 14 (225792)
I0403 15:35:17.739967 10630 net.cpp:156] Memory required for data: 874568736
I0403 15:35:17.739986 10630 layer_factory.hpp:77] Creating layer inception_4a/relu_5x5
I0403 15:35:17.740005 10630 net.cpp:91] Creating Layer inception_4a/relu_5x5
I0403 15:35:17.740021 10630 net.cpp:425] inception_4a/relu_5x5 <- inception_4a/5x5
I0403 15:35:17.740056 10630 net.cpp:386] inception_4a/relu_5x5 -> inception_4a/5x5 (in-place)
I0403 15:35:17.740265 10630 net.cpp:141] Setting up inception_4a/relu_5x5
I0403 15:35:17.740293 10630 net.cpp:148] Top shape: 24 48 14 14 (225792)
I0403 15:35:17.740309 10630 net.cpp:156] Memory required for data: 875471904
I0403 15:35:17.740329 10630 layer_factory.hpp:77] Creating layer inception_4a/pool
I0403 15:35:17.740350 10630 net.cpp:91] Creating Layer inception_4a/pool
I0403 15:35:17.740366 10630 net.cpp:425] inception_4a/pool <- pool3/3x3_s2_pool3/3x3_s2_0_split_3
I0403 15:35:17.740386 10630 net.cpp:399] inception_4a/pool -> inception_4a/pool
I0403 15:35:17.740455 10630 net.cpp:141] Setting up inception_4a/pool
I0403 15:35:17.740480 10630 net.cpp:148] Top shape: 24 480 14 14 (2257920)
I0403 15:35:17.740495 10630 net.cpp:156] Memory required for data: 884503584
I0403 15:35:17.740510 10630 layer_factory.hpp:77] Creating layer inception_4a/pool_proj
I0403 15:35:17.740538 10630 net.cpp:91] Creating Layer inception_4a/pool_proj
I0403 15:35:17.740556 10630 net.cpp:425] inception_4a/pool_proj <- inception_4a/pool
I0403 15:35:17.740578 10630 net.cpp:399] inception_4a/pool_proj -> inception_4a/pool_proj
I0403 15:35:17.741900 10630 net.cpp:141] Setting up inception_4a/pool_proj
I0403 15:35:17.741940 10630 net.cpp:148] Top shape: 24 64 14 14 (301056)
I0403 15:35:17.741981 10630 net.cpp:156] Memory required for data: 885707808
I0403 15:35:17.742007 10630 layer_factory.hpp:77] Creating layer inception_4a/relu_pool_proj
I0403 15:35:17.742032 10630 net.cpp:91] Creating Layer inception_4a/relu_pool_proj
I0403 15:35:17.742050 10630 net.cpp:425] inception_4a/relu_pool_proj <- inception_4a/pool_proj
I0403 15:35:17.742069 10630 net.cpp:386] inception_4a/relu_pool_proj -> inception_4a/pool_proj (in-place)
I0403 15:35:17.742388 10630 net.cpp:141] Setting up inception_4a/relu_pool_proj
I0403 15:35:17.742416 10630 net.cpp:148] Top shape: 24 64 14 14 (301056)
I0403 15:35:17.742437 10630 net.cpp:156] Memory required for data: 886912032
I0403 15:35:17.742455 10630 layer_factory.hpp:77] Creating layer inception_4a/output
I0403 15:35:17.742472 10630 net.cpp:91] Creating Layer inception_4a/output
I0403 15:35:17.742491 10630 net.cpp:425] inception_4a/output <- inception_4a/1x1
I0403 15:35:17.742509 10630 net.cpp:425] inception_4a/output <- inception_4a/3x3
I0403 15:35:17.742529 10630 net.cpp:425] inception_4a/output <- inception_4a/5x5
I0403 15:35:17.742547 10630 net.cpp:425] inception_4a/output <- inception_4a/pool_proj
I0403 15:35:17.742568 10630 net.cpp:399] inception_4a/output -> inception_4a/output
I0403 15:35:17.742624 10630 net.cpp:141] Setting up inception_4a/output
I0403 15:35:17.742647 10630 net.cpp:148] Top shape: 24 512 14 14 (2408448)
I0403 15:35:17.742663 10630 net.cpp:156] Memory required for data: 896545824
I0403 15:35:17.742679 10630 layer_factory.hpp:77] Creating layer inception_4a/output_inception_4a/output_0_split
I0403 15:35:17.742698 10630 net.cpp:91] Creating Layer inception_4a/output_inception_4a/output_0_split
I0403 15:35:17.742715 10630 net.cpp:425] inception_4a/output_inception_4a/output_0_split <- inception_4a/output
I0403 15:35:17.742736 10630 net.cpp:399] inception_4a/output_inception_4a/output_0_split -> inception_4a/output_inception_4a/output_0_split_0
I0403 15:35:17.742763 10630 net.cpp:399] inception_4a/output_inception_4a/output_0_split -> inception_4a/output_inception_4a/output_0_split_1
I0403 15:35:17.742786 10630 net.cpp:399] inception_4a/output_inception_4a/output_0_split -> inception_4a/output_inception_4a/output_0_split_2
I0403 15:35:17.742807 10630 net.cpp:399] inception_4a/output_inception_4a/output_0_split -> inception_4a/output_inception_4a/output_0_split_3
I0403 15:35:17.742830 10630 net.cpp:399] inception_4a/output_inception_4a/output_0_split -> inception_4a/output_inception_4a/output_0_split_4
I0403 15:35:17.742933 10630 net.cpp:141] Setting up inception_4a/output_inception_4a/output_0_split
I0403 15:35:17.742967 10630 net.cpp:148] Top shape: 24 512 14 14 (2408448)
I0403 15:35:17.742987 10630 net.cpp:148] Top shape: 24 512 14 14 (2408448)
I0403 15:35:17.743003 10630 net.cpp:148] Top shape: 24 512 14 14 (2408448)
I0403 15:35:17.743019 10630 net.cpp:148] Top shape: 24 512 14 14 (2408448)
I0403 15:35:17.743036 10630 net.cpp:148] Top shape: 24 512 14 14 (2408448)
I0403 15:35:17.743051 10630 net.cpp:156] Memory required for data: 944714784
I0403 15:35:17.743065 10630 layer_factory.hpp:77] Creating layer loss1/ave_pool
I0403 15:35:17.743084 10630 net.cpp:91] Creating Layer loss1/ave_pool
I0403 15:35:17.743100 10630 net.cpp:425] loss1/ave_pool <- inception_4a/output_inception_4a/output_0_split_0
I0403 15:35:17.743121 10630 net.cpp:399] loss1/ave_pool -> loss1/ave_pool
I0403 15:35:17.743350 10630 net.cpp:141] Setting up loss1/ave_pool
I0403 15:35:17.743377 10630 net.cpp:148] Top shape: 24 512 4 4 (196608)
I0403 15:35:17.743393 10630 net.cpp:156] Memory required for data: 945501216
I0403 15:35:17.743413 10630 layer_factory.hpp:77] Creating layer loss1/conv
I0403 15:35:17.743438 10630 net.cpp:91] Creating Layer loss1/conv
I0403 15:35:17.743458 10630 net.cpp:425] loss1/conv <- loss1/ave_pool
I0403 15:35:17.743479 10630 net.cpp:399] loss1/conv -> loss1/conv
I0403 15:35:17.744972 10630 net.cpp:141] Setting up loss1/conv
I0403 15:35:17.745004 10630 net.cpp:148] Top shape: 24 128 4 4 (49152)
I0403 15:35:17.745035 10630 net.cpp:156] Memory required for data: 945697824
I0403 15:35:17.745056 10630 layer_factory.hpp:77] Creating layer loss1/relu_conv
I0403 15:35:17.745076 10630 net.cpp:91] Creating Layer loss1/relu_conv
I0403 15:35:17.745093 10630 net.cpp:425] loss1/relu_conv <- loss1/conv
I0403 15:35:17.745111 10630 net.cpp:386] loss1/relu_conv -> loss1/conv (in-place)
I0403 15:35:17.745411 10630 net.cpp:141] Setting up loss1/relu_conv
I0403 15:35:17.745441 10630 net.cpp:148] Top shape: 24 128 4 4 (49152)
I0403 15:35:17.745458 10630 net.cpp:156] Memory required for data: 945894432
I0403 15:35:17.745474 10630 layer_factory.hpp:77] Creating layer loss1/fc
I0403 15:35:17.745499 10630 net.cpp:91] Creating Layer loss1/fc
I0403 15:35:17.745517 10630 net.cpp:425] loss1/fc <- loss1/conv
I0403 15:35:17.745540 10630 net.cpp:399] loss1/fc -> loss1/fc
I0403 15:35:17.764333 10630 net.cpp:141] Setting up loss1/fc
I0403 15:35:17.764367 10630 net.cpp:148] Top shape: 24 1024 (24576)
I0403 15:35:17.764384 10630 net.cpp:156] Memory required for data: 945992736
I0403 15:35:17.764403 10630 layer_factory.hpp:77] Creating layer loss1/relu_fc
I0403 15:35:17.764425 10630 net.cpp:91] Creating Layer loss1/relu_fc
I0403 15:35:17.764444 10630 net.cpp:425] loss1/relu_fc <- loss1/fc
I0403 15:35:17.764462 10630 net.cpp:386] loss1/relu_fc -> loss1/fc (in-place)
I0403 15:35:17.764655 10630 net.cpp:141] Setting up loss1/relu_fc
I0403 15:35:17.764680 10630 net.cpp:148] Top shape: 24 1024 (24576)
I0403 15:35:17.764696 10630 net.cpp:156] Memory required for data: 946091040
I0403 15:35:17.764711 10630 layer_factory.hpp:77] Creating layer loss1/drop_fc
I0403 15:35:17.764739 10630 net.cpp:91] Creating Layer loss1/drop_fc
I0403 15:35:17.764757 10630 net.cpp:425] loss1/drop_fc <- loss1/fc
I0403 15:35:17.764775 10630 net.cpp:386] loss1/drop_fc -> loss1/fc (in-place)
I0403 15:35:17.764830 10630 net.cpp:141] Setting up loss1/drop_fc
I0403 15:35:17.764853 10630 net.cpp:148] Top shape: 24 1024 (24576)
I0403 15:35:17.764868 10630 net.cpp:156] Memory required for data: 946189344
I0403 15:35:17.764884 10630 layer_factory.hpp:77] Creating layer loss1/classifier_plantvillage
I0403 15:35:17.764902 10630 net.cpp:91] Creating Layer loss1/classifier_plantvillage
I0403 15:35:17.764921 10630 net.cpp:425] loss1/classifier_plantvillage <- loss1/fc
I0403 15:35:17.764945 10630 net.cpp:399] loss1/classifier_plantvillage -> loss1/classifier_plantvillage
I0403 15:35:17.765893 10630 net.cpp:141] Setting up loss1/classifier_plantvillage
I0403 15:35:17.765923 10630 net.cpp:148] Top shape: 24 38 (912)
I0403 15:35:17.765940 10630 net.cpp:156] Memory required for data: 946192992
I0403 15:35:17.765964 10630 layer_factory.hpp:77] Creating layer loss1/classifier_plantvillage_loss1/classifier_plantvillage_0_split
I0403 15:35:17.765985 10630 net.cpp:91] Creating Layer loss1/classifier_plantvillage_loss1/classifier_plantvillage_0_split
I0403 15:35:17.766000 10630 net.cpp:425] loss1/classifier_plantvillage_loss1/classifier_plantvillage_0_split <- loss1/classifier_plantvillage
I0403 15:35:17.766018 10630 net.cpp:399] loss1/classifier_plantvillage_loss1/classifier_plantvillage_0_split -> loss1/classifier_plantvillage_loss1/classifier_plantvillage_0_split_0
I0403 15:35:17.766039 10630 net.cpp:399] loss1/classifier_plantvillage_loss1/classifier_plantvillage_0_split -> loss1/classifier_plantvillage_loss1/classifier_plantvillage_0_split_1
I0403 15:35:17.766060 10630 net.cpp:399] loss1/classifier_plantvillage_loss1/classifier_plantvillage_0_split -> loss1/classifier_plantvillage_loss1/classifier_plantvillage_0_split_2
I0403 15:35:17.766130 10630 net.cpp:141] Setting up loss1/classifier_plantvillage_loss1/classifier_plantvillage_0_split
I0403 15:35:17.766155 10630 net.cpp:148] Top shape: 24 38 (912)
I0403 15:35:17.766171 10630 net.cpp:148] Top shape: 24 38 (912)
I0403 15:35:17.766186 10630 net.cpp:148] Top shape: 24 38 (912)
I0403 15:35:17.766201 10630 net.cpp:156] Memory required for data: 946203936
I0403 15:35:17.766216 10630 layer_factory.hpp:77] Creating layer inception_4b/1x1
I0403 15:35:17.766237 10630 net.cpp:91] Creating Layer inception_4b/1x1
I0403 15:35:17.766269 10630 net.cpp:425] inception_4b/1x1 <- inception_4a/output_inception_4a/output_0_split_1
I0403 15:35:17.766293 10630 net.cpp:399] inception_4b/1x1 -> inception_4b/1x1
I0403 15:35:17.767987 10630 net.cpp:141] Setting up inception_4b/1x1
I0403 15:35:17.768019 10630 net.cpp:148] Top shape: 24 160 14 14 (752640)
I0403 15:35:17.768036 10630 net.cpp:156] Memory required for data: 949214496
I0403 15:35:17.768055 10630 layer_factory.hpp:77] Creating layer inception_4b/relu_1x1
I0403 15:35:17.768074 10630 net.cpp:91] Creating Layer inception_4b/relu_1x1
I0403 15:35:17.768091 10630 net.cpp:425] inception_4b/relu_1x1 <- inception_4b/1x1
I0403 15:35:17.768108 10630 net.cpp:386] inception_4b/relu_1x1 -> inception_4b/1x1 (in-place)
I0403 15:35:17.768293 10630 net.cpp:141] Setting up inception_4b/relu_1x1
I0403 15:35:17.768318 10630 net.cpp:148] Top shape: 24 160 14 14 (752640)
I0403 15:35:17.768333 10630 net.cpp:156] Memory required for data: 952225056
I0403 15:35:17.768348 10630 layer_factory.hpp:77] Creating layer inception_4b/3x3_reduce
I0403 15:35:17.768371 10630 net.cpp:91] Creating Layer inception_4b/3x3_reduce
I0403 15:35:17.768389 10630 net.cpp:425] inception_4b/3x3_reduce <- inception_4a/output_inception_4a/output_0_split_2
I0403 15:35:17.768410 10630 net.cpp:399] inception_4b/3x3_reduce -> inception_4b/3x3_reduce
I0403 15:35:17.769793 10630 net.cpp:141] Setting up inception_4b/3x3_reduce
I0403 15:35:17.769825 10630 net.cpp:148] Top shape: 24 112 14 14 (526848)
I0403 15:35:17.769842 10630 net.cpp:156] Memory required for data: 954332448
I0403 15:35:17.769861 10630 layer_factory.hpp:77] Creating layer inception_4b/relu_3x3_reduce
I0403 15:35:17.769881 10630 net.cpp:91] Creating Layer inception_4b/relu_3x3_reduce
I0403 15:35:17.769896 10630 net.cpp:425] inception_4b/relu_3x3_reduce <- inception_4b/3x3_reduce
I0403 15:35:17.769917 10630 net.cpp:386] inception_4b/relu_3x3_reduce -> inception_4b/3x3_reduce (in-place)
I0403 15:35:17.770218 10630 net.cpp:141] Setting up inception_4b/relu_3x3_reduce
I0403 15:35:17.770247 10630 net.cpp:148] Top shape: 24 112 14 14 (526848)
I0403 15:35:17.770264 10630 net.cpp:156] Memory required for data: 956439840
I0403 15:35:17.770279 10630 layer_factory.hpp:77] Creating layer inception_4b/3x3
I0403 15:35:17.770303 10630 net.cpp:91] Creating Layer inception_4b/3x3
I0403 15:35:17.770320 10630 net.cpp:425] inception_4b/3x3 <- inception_4b/3x3_reduce
I0403 15:35:17.770344 10630 net.cpp:399] inception_4b/3x3 -> inception_4b/3x3
I0403 15:35:17.773422 10630 net.cpp:141] Setting up inception_4b/3x3
I0403 15:35:17.773452 10630 net.cpp:148] Top shape: 24 224 14 14 (1053696)
I0403 15:35:17.773469 10630 net.cpp:156] Memory required for data: 960654624
I0403 15:35:17.773488 10630 layer_factory.hpp:77] Creating layer inception_4b/relu_3x3
I0403 15:35:17.773509 10630 net.cpp:91] Creating Layer inception_4b/relu_3x3
I0403 15:35:17.773527 10630 net.cpp:425] inception_4b/relu_3x3 <- inception_4b/3x3
I0403 15:35:17.773545 10630 net.cpp:386] inception_4b/relu_3x3 -> inception_4b/3x3 (in-place)
I0403 15:35:17.773732 10630 net.cpp:141] Setting up inception_4b/relu_3x3
I0403 15:35:17.773757 10630 net.cpp:148] Top shape: 24 224 14 14 (1053696)
I0403 15:35:17.773773 10630 net.cpp:156] Memory required for data: 964869408
I0403 15:35:17.773788 10630 layer_factory.hpp:77] Creating layer inception_4b/5x5_reduce
I0403 15:35:17.773813 10630 net.cpp:91] Creating Layer inception_4b/5x5_reduce
I0403 15:35:17.773830 10630 net.cpp:425] inception_4b/5x5_reduce <- inception_4a/output_inception_4a/output_0_split_3
I0403 15:35:17.773850 10630 net.cpp:399] inception_4b/5x5_reduce -> inception_4b/5x5_reduce
I0403 15:35:17.774973 10630 net.cpp:141] Setting up inception_4b/5x5_reduce
I0403 15:35:17.775004 10630 net.cpp:148] Top shape: 24 24 14 14 (112896)
I0403 15:35:17.775020 10630 net.cpp:156] Memory required for data: 965320992
I0403 15:35:17.775039 10630 layer_factory.hpp:77] Creating layer inception_4b/relu_5x5_reduce
I0403 15:35:17.775058 10630 net.cpp:91] Creating Layer inception_4b/relu_5x5_reduce
I0403 15:35:17.775089 10630 net.cpp:425] inception_4b/relu_5x5_reduce <- inception_4b/5x5_reduce
I0403 15:35:17.775110 10630 net.cpp:386] inception_4b/relu_5x5_reduce -> inception_4b/5x5_reduce (in-place)
I0403 15:35:17.775298 10630 net.cpp:141] Setting up inception_4b/relu_5x5_reduce
I0403 15:35:17.775323 10630 net.cpp:148] Top shape: 24 24 14 14 (112896)
I0403 15:35:17.775338 10630 net.cpp:156] Memory required for data: 965772576
I0403 15:35:17.775352 10630 layer_factory.hpp:77] Creating layer inception_4b/5x5
I0403 15:35:17.775375 10630 net.cpp:91] Creating Layer inception_4b/5x5
I0403 15:35:17.775393 10630 net.cpp:425] inception_4b/5x5 <- inception_4b/5x5_reduce
I0403 15:35:17.775414 10630 net.cpp:399] inception_4b/5x5 -> inception_4b/5x5
I0403 15:35:17.776684 10630 net.cpp:141] Setting up inception_4b/5x5
I0403 15:35:17.776715 10630 net.cpp:148] Top shape: 24 64 14 14 (301056)
I0403 15:35:17.776732 10630 net.cpp:156] Memory required for data: 966976800
I0403 15:35:17.776752 10630 layer_factory.hpp:77] Creating layer inception_4b/relu_5x5
I0403 15:35:17.776772 10630 net.cpp:91] Creating Layer inception_4b/relu_5x5
I0403 15:35:17.776788 10630 net.cpp:425] inception_4b/relu_5x5 <- inception_4b/5x5
I0403 15:35:17.776808 10630 net.cpp:386] inception_4b/relu_5x5 -> inception_4b/5x5 (in-place)
I0403 15:35:17.777118 10630 net.cpp:141] Setting up inception_4b/relu_5x5
I0403 15:35:17.777148 10630 net.cpp:148] Top shape: 24 64 14 14 (301056)
I0403 15:35:17.777164 10630 net.cpp:156] Memory required for data: 968181024
I0403 15:35:17.777179 10630 layer_factory.hpp:77] Creating layer inception_4b/pool
I0403 15:35:17.777199 10630 net.cpp:91] Creating Layer inception_4b/pool
I0403 15:35:17.777215 10630 net.cpp:425] inception_4b/pool <- inception_4a/output_inception_4a/output_0_split_4
I0403 15:35:17.777233 10630 net.cpp:399] inception_4b/pool -> inception_4b/pool
I0403 15:35:17.777303 10630 net.cpp:141] Setting up inception_4b/pool
I0403 15:35:17.777328 10630 net.cpp:148] Top shape: 24 512 14 14 (2408448)
I0403 15:35:17.777341 10630 net.cpp:156] Memory required for data: 977814816
I0403 15:35:17.777356 10630 layer_factory.hpp:77] Creating layer inception_4b/pool_proj
I0403 15:35:17.777379 10630 net.cpp:91] Creating Layer inception_4b/pool_proj
I0403 15:35:17.777397 10630 net.cpp:425] inception_4b/pool_proj <- inception_4b/pool
I0403 15:35:17.777417 10630 net.cpp:399] inception_4b/pool_proj -> inception_4b/pool_proj
I0403 15:35:17.778661 10630 net.cpp:141] Setting up inception_4b/pool_proj
I0403 15:35:17.778695 10630 net.cpp:148] Top shape: 24 64 14 14 (301056)
I0403 15:35:17.778712 10630 net.cpp:156] Memory required for data: 979019040
I0403 15:35:17.778731 10630 layer_factory.hpp:77] Creating layer inception_4b/relu_pool_proj
I0403 15:35:17.778750 10630 net.cpp:91] Creating Layer inception_4b/relu_pool_proj
I0403 15:35:17.778767 10630 net.cpp:425] inception_4b/relu_pool_proj <- inception_4b/pool_proj
I0403 15:35:17.778789 10630 net.cpp:386] inception_4b/relu_pool_proj -> inception_4b/pool_proj (in-place)
I0403 15:35:17.778982 10630 net.cpp:141] Setting up inception_4b/relu_pool_proj
I0403 15:35:17.779008 10630 net.cpp:148] Top shape: 24 64 14 14 (301056)
I0403 15:35:17.779023 10630 net.cpp:156] Memory required for data: 980223264
I0403 15:35:17.779039 10630 layer_factory.hpp:77] Creating layer inception_4b/output
I0403 15:35:17.779057 10630 net.cpp:91] Creating Layer inception_4b/output
I0403 15:35:17.779072 10630 net.cpp:425] inception_4b/output <- inception_4b/1x1
I0403 15:35:17.779089 10630 net.cpp:425] inception_4b/output <- inception_4b/3x3
I0403 15:35:17.779106 10630 net.cpp:425] inception_4b/output <- inception_4b/5x5
I0403 15:35:17.779122 10630 net.cpp:425] inception_4b/output <- inception_4b/pool_proj
I0403 15:35:17.779142 10630 net.cpp:399] inception_4b/output -> inception_4b/output
I0403 15:35:17.779191 10630 net.cpp:141] Setting up inception_4b/output
I0403 15:35:17.779217 10630 net.cpp:148] Top shape: 24 512 14 14 (2408448)
I0403 15:35:17.779232 10630 net.cpp:156] Memory required for data: 989857056
I0403 15:35:17.779263 10630 layer_factory.hpp:77] Creating layer inception_4b/output_inception_4b/output_0_split
I0403 15:35:17.779280 10630 net.cpp:91] Creating Layer inception_4b/output_inception_4b/output_0_split
I0403 15:35:17.779297 10630 net.cpp:425] inception_4b/output_inception_4b/output_0_split <- inception_4b/output
I0403 15:35:17.779317 10630 net.cpp:399] inception_4b/output_inception_4b/output_0_split -> inception_4b/output_inception_4b/output_0_split_0
I0403 15:35:17.779340 10630 net.cpp:399] inception_4b/output_inception_4b/output_0_split -> inception_4b/output_inception_4b/output_0_split_1
I0403 15:35:17.779361 10630 net.cpp:399] inception_4b/output_inception_4b/output_0_split -> inception_4b/output_inception_4b/output_0_split_2
I0403 15:35:17.779381 10630 net.cpp:399] inception_4b/output_inception_4b/output_0_split -> inception_4b/output_inception_4b/output_0_split_3
I0403 15:35:17.779465 10630 net.cpp:141] Setting up inception_4b/output_inception_4b/output_0_split
I0403 15:35:17.779490 10630 net.cpp:148] Top shape: 24 512 14 14 (2408448)
I0403 15:35:17.779506 10630 net.cpp:148] Top shape: 24 512 14 14 (2408448)
I0403 15:35:17.779522 10630 net.cpp:148] Top shape: 24 512 14 14 (2408448)
I0403 15:35:17.779537 10630 net.cpp:148] Top shape: 24 512 14 14 (2408448)
I0403 15:35:17.779551 10630 net.cpp:156] Memory required for data: 1028392224
I0403 15:35:17.779567 10630 layer_factory.hpp:77] Creating layer inception_4c/1x1
I0403 15:35:17.779589 10630 net.cpp:91] Creating Layer inception_4c/1x1
I0403 15:35:17.779608 10630 net.cpp:425] inception_4c/1x1 <- inception_4b/output_inception_4b/output_0_split_0
I0403 15:35:17.779629 10630 net.cpp:399] inception_4c/1x1 -> inception_4c/1x1
I0403 15:35:17.781182 10630 net.cpp:141] Setting up inception_4c/1x1
I0403 15:35:17.781208 10630 net.cpp:148] Top shape: 24 128 14 14 (602112)
I0403 15:35:17.781224 10630 net.cpp:156] Memory required for data: 1030800672
I0403 15:35:17.781242 10630 layer_factory.hpp:77] Creating layer inception_4c/relu_1x1
I0403 15:35:17.781263 10630 net.cpp:91] Creating Layer inception_4c/relu_1x1
I0403 15:35:17.781281 10630 net.cpp:425] inception_4c/relu_1x1 <- inception_4c/1x1
I0403 15:35:17.781298 10630 net.cpp:386] inception_4c/relu_1x1 -> inception_4c/1x1 (in-place)
I0403 15:35:17.781479 10630 net.cpp:141] Setting up inception_4c/relu_1x1
I0403 15:35:17.781504 10630 net.cpp:148] Top shape: 24 128 14 14 (602112)
I0403 15:35:17.781518 10630 net.cpp:156] Memory required for data: 1033209120
I0403 15:35:17.781533 10630 layer_factory.hpp:77] Creating layer inception_4c/3x3_reduce
I0403 15:35:17.781556 10630 net.cpp:91] Creating Layer inception_4c/3x3_reduce
I0403 15:35:17.781574 10630 net.cpp:425] inception_4c/3x3_reduce <- inception_4b/output_inception_4b/output_0_split_1
I0403 15:35:17.781592 10630 net.cpp:399] inception_4c/3x3_reduce -> inception_4c/3x3_reduce
I0403 15:35:17.783550 10630 net.cpp:141] Setting up inception_4c/3x3_reduce
I0403 15:35:17.783578 10630 net.cpp:148] Top shape: 24 128 14 14 (602112)
I0403 15:35:17.783594 10630 net.cpp:156] Memory required for data: 1035617568
I0403 15:35:17.783612 10630 layer_factory.hpp:77] Creating layer inception_4c/relu_3x3_reduce
I0403 15:35:17.783632 10630 net.cpp:91] Creating Layer inception_4c/relu_3x3_reduce
I0403 15:35:17.783648 10630 net.cpp:425] inception_4c/relu_3x3_reduce <- inception_4c/3x3_reduce
I0403 15:35:17.783666 10630 net.cpp:386] inception_4c/relu_3x3_reduce -> inception_4c/3x3_reduce (in-place)
I0403 15:35:17.783957 10630 net.cpp:141] Setting up inception_4c/relu_3x3_reduce
I0403 15:35:17.783983 10630 net.cpp:148] Top shape: 24 128 14 14 (602112)
I0403 15:35:17.783998 10630 net.cpp:156] Memory required for data: 1038026016
I0403 15:35:17.784013 10630 layer_factory.hpp:77] Creating layer inception_4c/3x3
I0403 15:35:17.784039 10630 net.cpp:91] Creating Layer inception_4c/3x3
I0403 15:35:17.784056 10630 net.cpp:425] inception_4c/3x3 <- inception_4c/3x3_reduce
I0403 15:35:17.784076 10630 net.cpp:399] inception_4c/3x3 -> inception_4c/3x3
I0403 15:35:17.787705 10630 net.cpp:141] Setting up inception_4c/3x3
I0403 15:35:17.787749 10630 net.cpp:148] Top shape: 24 256 14 14 (1204224)
I0403 15:35:17.787766 10630 net.cpp:156] Memory required for data: 1042842912
I0403 15:35:17.787797 10630 layer_factory.hpp:77] Creating layer inception_4c/relu_3x3
I0403 15:35:17.787818 10630 net.cpp:91] Creating Layer inception_4c/relu_3x3
I0403 15:35:17.787834 10630 net.cpp:425] inception_4c/relu_3x3 <- inception_4c/3x3
I0403 15:35:17.787853 10630 net.cpp:386] inception_4c/relu_3x3 -> inception_4c/3x3 (in-place)
I0403 15:35:17.788048 10630 net.cpp:141] Setting up inception_4c/relu_3x3
I0403 15:35:17.788075 10630 net.cpp:148] Top shape: 24 256 14 14 (1204224)
I0403 15:35:17.788091 10630 net.cpp:156] Memory required for data: 1047659808
I0403 15:35:17.788106 10630 layer_factory.hpp:77] Creating layer inception_4c/5x5_reduce
I0403 15:35:17.788130 10630 net.cpp:91] Creating Layer inception_4c/5x5_reduce
I0403 15:35:17.788148 10630 net.cpp:425] inception_4c/5x5_reduce <- inception_4b/output_inception_4b/output_0_split_2
I0403 15:35:17.788167 10630 net.cpp:399] inception_4c/5x5_reduce -> inception_4c/5x5_reduce
I0403 15:35:17.789254 10630 net.cpp:141] Setting up inception_4c/5x5_reduce
I0403 15:35:17.789284 10630 net.cpp:148] Top shape: 24 24 14 14 (112896)
I0403 15:35:17.789300 10630 net.cpp:156] Memory required for data: 1048111392
I0403 15:35:17.789319 10630 layer_factory.hpp:77] Creating layer inception_4c/relu_5x5_reduce
I0403 15:35:17.789337 10630 net.cpp:91] Creating Layer inception_4c/relu_5x5_reduce
I0403 15:35:17.789353 10630 net.cpp:425] inception_4c/relu_5x5_reduce <- inception_4c/5x5_reduce
I0403 15:35:17.789373 10630 net.cpp:386] inception_4c/relu_5x5_reduce -> inception_4c/5x5_reduce (in-place)
I0403 15:35:17.789561 10630 net.cpp:141] Setting up inception_4c/relu_5x5_reduce
I0403 15:35:17.789585 10630 net.cpp:148] Top shape: 24 24 14 14 (112896)
I0403 15:35:17.789599 10630 net.cpp:156] Memory required for data: 1048562976
I0403 15:35:17.789614 10630 layer_factory.hpp:77] Creating layer inception_4c/5x5
I0403 15:35:17.789636 10630 net.cpp:91] Creating Layer inception_4c/5x5
I0403 15:35:17.789654 10630 net.cpp:425] inception_4c/5x5 <- inception_4c/5x5_reduce
I0403 15:35:17.789674 10630 net.cpp:399] inception_4c/5x5 -> inception_4c/5x5
I0403 15:35:17.790912 10630 net.cpp:141] Setting up inception_4c/5x5
I0403 15:35:17.790940 10630 net.cpp:148] Top shape: 24 64 14 14 (301056)
I0403 15:35:17.790959 10630 net.cpp:156] Memory required for data: 1049767200
I0403 15:35:17.790978 10630 layer_factory.hpp:77] Creating layer inception_4c/relu_5x5
I0403 15:35:17.791000 10630 net.cpp:91] Creating Layer inception_4c/relu_5x5
I0403 15:35:17.791018 10630 net.cpp:425] inception_4c/relu_5x5 <- inception_4c/5x5
I0403 15:35:17.791034 10630 net.cpp:386] inception_4c/relu_5x5 -> inception_4c/5x5 (in-place)
I0403 15:35:17.791321 10630 net.cpp:141] Setting up inception_4c/relu_5x5
I0403 15:35:17.791347 10630 net.cpp:148] Top shape: 24 64 14 14 (301056)
I0403 15:35:17.791363 10630 net.cpp:156] Memory required for data: 1050971424
I0403 15:35:17.791378 10630 layer_factory.hpp:77] Creating layer inception_4c/pool
I0403 15:35:17.791395 10630 net.cpp:91] Creating Layer inception_4c/pool
I0403 15:35:17.791412 10630 net.cpp:425] inception_4c/pool <- inception_4b/output_inception_4b/output_0_split_3
I0403 15:35:17.791432 10630 net.cpp:399] inception_4c/pool -> inception_4c/pool
I0403 15:35:17.791501 10630 net.cpp:141] Setting up inception_4c/pool
I0403 15:35:17.791524 10630 net.cpp:148] Top shape: 24 512 14 14 (2408448)
I0403 15:35:17.791538 10630 net.cpp:156] Memory required for data: 1060605216
I0403 15:35:17.791553 10630 layer_factory.hpp:77] Creating layer inception_4c/pool_proj
I0403 15:35:17.791574 10630 net.cpp:91] Creating Layer inception_4c/pool_proj
I0403 15:35:17.791591 10630 net.cpp:425] inception_4c/pool_proj <- inception_4c/pool
I0403 15:35:17.791613 10630 net.cpp:399] inception_4c/pool_proj -> inception_4c/pool_proj
I0403 15:35:17.792863 10630 net.cpp:141] Setting up inception_4c/pool_proj
I0403 15:35:17.792896 10630 net.cpp:148] Top shape: 24 64 14 14 (301056)
I0403 15:35:17.792927 10630 net.cpp:156] Memory required for data: 1061809440
I0403 15:35:17.792949 10630 layer_factory.hpp:77] Creating layer inception_4c/relu_pool_proj
I0403 15:35:17.792969 10630 net.cpp:91] Creating Layer inception_4c/relu_pool_proj
I0403 15:35:17.792986 10630 net.cpp:425] inception_4c/relu_pool_proj <- inception_4c/pool_proj
I0403 15:35:17.793004 10630 net.cpp:386] inception_4c/relu_pool_proj -> inception_4c/pool_proj (in-place)
I0403 15:35:17.793191 10630 net.cpp:141] Setting up inception_4c/relu_pool_proj
I0403 15:35:17.793216 10630 net.cpp:148] Top shape: 24 64 14 14 (301056)
I0403 15:35:17.793231 10630 net.cpp:156] Memory required for data: 1063013664
I0403 15:35:17.793246 10630 layer_factory.hpp:77] Creating layer inception_4c/output
I0403 15:35:17.793263 10630 net.cpp:91] Creating Layer inception_4c/output
I0403 15:35:17.793278 10630 net.cpp:425] inception_4c/output <- inception_4c/1x1
I0403 15:35:17.793295 10630 net.cpp:425] inception_4c/output <- inception_4c/3x3
I0403 15:35:17.793311 10630 net.cpp:425] inception_4c/output <- inception_4c/5x5
I0403 15:35:17.793326 10630 net.cpp:425] inception_4c/output <- inception_4c/pool_proj
I0403 15:35:17.793347 10630 net.cpp:399] inception_4c/output -> inception_4c/output
I0403 15:35:17.793395 10630 net.cpp:141] Setting up inception_4c/output
I0403 15:35:17.793421 10630 net.cpp:148] Top shape: 24 512 14 14 (2408448)
I0403 15:35:17.793437 10630 net.cpp:156] Memory required for data: 1072647456
I0403 15:35:17.793452 10630 layer_factory.hpp:77] Creating layer inception_4c/output_inception_4c/output_0_split
I0403 15:35:17.793468 10630 net.cpp:91] Creating Layer inception_4c/output_inception_4c/output_0_split
I0403 15:35:17.793483 10630 net.cpp:425] inception_4c/output_inception_4c/output_0_split <- inception_4c/output
I0403 15:35:17.793503 10630 net.cpp:399] inception_4c/output_inception_4c/output_0_split -> inception_4c/output_inception_4c/output_0_split_0
I0403 15:35:17.793525 10630 net.cpp:399] inception_4c/output_inception_4c/output_0_split -> inception_4c/output_inception_4c/output_0_split_1
I0403 15:35:17.793545 10630 net.cpp:399] inception_4c/output_inception_4c/output_0_split -> inception_4c/output_inception_4c/output_0_split_2
I0403 15:35:17.793566 10630 net.cpp:399] inception_4c/output_inception_4c/output_0_split -> inception_4c/output_inception_4c/output_0_split_3
I0403 15:35:17.793653 10630 net.cpp:141] Setting up inception_4c/output_inception_4c/output_0_split
I0403 15:35:17.793676 10630 net.cpp:148] Top shape: 24 512 14 14 (2408448)
I0403 15:35:17.793692 10630 net.cpp:148] Top shape: 24 512 14 14 (2408448)
I0403 15:35:17.793707 10630 net.cpp:148] Top shape: 24 512 14 14 (2408448)
I0403 15:35:17.793723 10630 net.cpp:148] Top shape: 24 512 14 14 (2408448)
I0403 15:35:17.793737 10630 net.cpp:156] Memory required for data: 1111182624
I0403 15:35:17.793751 10630 layer_factory.hpp:77] Creating layer inception_4d/1x1
I0403 15:35:17.793773 10630 net.cpp:91] Creating Layer inception_4d/1x1
I0403 15:35:17.793790 10630 net.cpp:425] inception_4d/1x1 <- inception_4c/output_inception_4c/output_0_split_0
I0403 15:35:17.793812 10630 net.cpp:399] inception_4d/1x1 -> inception_4d/1x1
I0403 15:35:17.795202 10630 net.cpp:141] Setting up inception_4d/1x1
I0403 15:35:17.795230 10630 net.cpp:148] Top shape: 24 112 14 14 (526848)
I0403 15:35:17.795246 10630 net.cpp:156] Memory required for data: 1113290016
I0403 15:35:17.795264 10630 layer_factory.hpp:77] Creating layer inception_4d/relu_1x1
I0403 15:35:17.795284 10630 net.cpp:91] Creating Layer inception_4d/relu_1x1
I0403 15:35:17.795302 10630 net.cpp:425] inception_4d/relu_1x1 <- inception_4d/1x1
I0403 15:35:17.795320 10630 net.cpp:386] inception_4d/relu_1x1 -> inception_4d/1x1 (in-place)
I0403 15:35:17.795506 10630 net.cpp:141] Setting up inception_4d/relu_1x1
I0403 15:35:17.795533 10630 net.cpp:148] Top shape: 24 112 14 14 (526848)
I0403 15:35:17.795549 10630 net.cpp:156] Memory required for data: 1115397408
I0403 15:35:17.795563 10630 layer_factory.hpp:77] Creating layer inception_4d/3x3_reduce
I0403 15:35:17.795599 10630 net.cpp:91] Creating Layer inception_4d/3x3_reduce
I0403 15:35:17.795619 10630 net.cpp:425] inception_4d/3x3_reduce <- inception_4c/output_inception_4c/output_0_split_1
I0403 15:35:17.795639 10630 net.cpp:399] inception_4d/3x3_reduce -> inception_4d/3x3_reduce
I0403 15:35:17.797153 10630 net.cpp:141] Setting up inception_4d/3x3_reduce
I0403 15:35:17.797180 10630 net.cpp:148] Top shape: 24 144 14 14 (677376)
I0403 15:35:17.797196 10630 net.cpp:156] Memory required for data: 1118106912
I0403 15:35:17.797225 10630 layer_factory.hpp:77] Creating layer inception_4d/relu_3x3_reduce
I0403 15:35:17.797246 10630 net.cpp:91] Creating Layer inception_4d/relu_3x3_reduce
I0403 15:35:17.797263 10630 net.cpp:425] inception_4d/relu_3x3_reduce <- inception_4d/3x3_reduce
I0403 15:35:17.797279 10630 net.cpp:386] inception_4d/relu_3x3_reduce -> inception_4d/3x3_reduce (in-place)
I0403 15:35:17.797567 10630 net.cpp:141] Setting up inception_4d/relu_3x3_reduce
I0403 15:35:17.797592 10630 net.cpp:148] Top shape: 24 144 14 14 (677376)
I0403 15:35:17.797607 10630 net.cpp:156] Memory required for data: 1120816416
I0403 15:35:17.797622 10630 layer_factory.hpp:77] Creating layer inception_4d/3x3
I0403 15:35:17.797643 10630 net.cpp:91] Creating Layer inception_4d/3x3
I0403 15:35:17.797662 10630 net.cpp:425] inception_4d/3x3 <- inception_4d/3x3_reduce
I0403 15:35:17.797683 10630 net.cpp:399] inception_4d/3x3 -> inception_4d/3x3
I0403 15:35:17.802515 10630 net.cpp:141] Setting up inception_4d/3x3
I0403 15:35:17.802546 10630 net.cpp:148] Top shape: 24 288 14 14 (1354752)
I0403 15:35:17.802562 10630 net.cpp:156] Memory required for data: 1126235424
I0403 15:35:17.802580 10630 layer_factory.hpp:77] Creating layer inception_4d/relu_3x3
I0403 15:35:17.802602 10630 net.cpp:91] Creating Layer inception_4d/relu_3x3
I0403 15:35:17.802619 10630 net.cpp:425] inception_4d/relu_3x3 <- inception_4d/3x3
I0403 15:35:17.802664 10630 net.cpp:386] inception_4d/relu_3x3 -> inception_4d/3x3 (in-place)
I0403 15:35:17.802901 10630 net.cpp:141] Setting up inception_4d/relu_3x3
I0403 15:35:17.802929 10630 net.cpp:148] Top shape: 24 288 14 14 (1354752)
I0403 15:35:17.802944 10630 net.cpp:156] Memory required for data: 1131654432
I0403 15:35:17.802964 10630 layer_factory.hpp:77] Creating layer inception_4d/5x5_reduce
I0403 15:35:17.802986 10630 net.cpp:91] Creating Layer inception_4d/5x5_reduce
I0403 15:35:17.803004 10630 net.cpp:425] inception_4d/5x5_reduce <- inception_4c/output_inception_4c/output_0_split_2
I0403 15:35:17.803025 10630 net.cpp:399] inception_4d/5x5_reduce -> inception_4d/5x5_reduce
I0403 15:35:17.804337 10630 net.cpp:141] Setting up inception_4d/5x5_reduce
I0403 15:35:17.804368 10630 net.cpp:148] Top shape: 24 32 14 14 (150528)
I0403 15:35:17.804395 10630 net.cpp:156] Memory required for data: 1132256544
I0403 15:35:17.804414 10630 layer_factory.hpp:77] Creating layer inception_4d/relu_5x5_reduce
I0403 15:35:17.804436 10630 net.cpp:91] Creating Layer inception_4d/relu_5x5_reduce
I0403 15:35:17.804455 10630 net.cpp:425] inception_4d/relu_5x5_reduce <- inception_4d/5x5_reduce
I0403 15:35:17.804484 10630 net.cpp:386] inception_4d/relu_5x5_reduce -> inception_4d/5x5_reduce (in-place)
I0403 15:35:17.804723 10630 net.cpp:141] Setting up inception_4d/relu_5x5_reduce
I0403 15:35:17.804750 10630 net.cpp:148] Top shape: 24 32 14 14 (150528)
I0403 15:35:17.804766 10630 net.cpp:156] Memory required for data: 1132858656
I0403 15:35:17.804782 10630 layer_factory.hpp:77] Creating layer inception_4d/5x5
I0403 15:35:17.804805 10630 net.cpp:91] Creating Layer inception_4d/5x5
I0403 15:35:17.804823 10630 net.cpp:425] inception_4d/5x5 <- inception_4d/5x5_reduce
I0403 15:35:17.804843 10630 net.cpp:399] inception_4d/5x5 -> inception_4d/5x5
I0403 15:35:17.806520 10630 net.cpp:141] Setting up inception_4d/5x5
I0403 15:35:17.806573 10630 net.cpp:148] Top shape: 24 64 14 14 (301056)
I0403 15:35:17.806607 10630 net.cpp:156] Memory required for data: 1134062880
I0403 15:35:17.806650 10630 layer_factory.hpp:77] Creating layer inception_4d/relu_5x5
I0403 15:35:17.806697 10630 net.cpp:91] Creating Layer inception_4d/relu_5x5
I0403 15:35:17.806720 10630 net.cpp:425] inception_4d/relu_5x5 <- inception_4d/5x5
I0403 15:35:17.806753 10630 net.cpp:386] inception_4d/relu_5x5 -> inception_4d/5x5 (in-place)
I0403 15:35:17.807124 10630 net.cpp:141] Setting up inception_4d/relu_5x5
I0403 15:35:17.807166 10630 net.cpp:148] Top shape: 24 64 14 14 (301056)
I0403 15:35:17.807188 10630 net.cpp:156] Memory required for data: 1135267104
I0403 15:35:17.807205 10630 layer_factory.hpp:77] Creating layer inception_4d/pool
I0403 15:35:17.807225 10630 net.cpp:91] Creating Layer inception_4d/pool
I0403 15:35:17.807243 10630 net.cpp:425] inception_4d/pool <- inception_4c/output_inception_4c/output_0_split_3
I0403 15:35:17.807265 10630 net.cpp:399] inception_4d/pool -> inception_4d/pool
I0403 15:35:17.807348 10630 net.cpp:141] Setting up inception_4d/pool
I0403 15:35:17.807375 10630 net.cpp:148] Top shape: 24 512 14 14 (2408448)
I0403 15:35:17.807391 10630 net.cpp:156] Memory required for data: 1144900896
I0403 15:35:17.807407 10630 layer_factory.hpp:77] Creating layer inception_4d/pool_proj
I0403 15:35:17.807430 10630 net.cpp:91] Creating Layer inception_4d/pool_proj
I0403 15:35:17.807448 10630 net.cpp:425] inception_4d/pool_proj <- inception_4d/pool
I0403 15:35:17.807467 10630 net.cpp:399] inception_4d/pool_proj -> inception_4d/pool_proj
I0403 15:35:17.809458 10630 net.cpp:141] Setting up inception_4d/pool_proj
I0403 15:35:17.809487 10630 net.cpp:148] Top shape: 24 64 14 14 (301056)
I0403 15:35:17.809504 10630 net.cpp:156] Memory required for data: 1146105120
I0403 15:35:17.809522 10630 layer_factory.hpp:77] Creating layer inception_4d/relu_pool_proj
I0403 15:35:17.809545 10630 net.cpp:91] Creating Layer inception_4d/relu_pool_proj
I0403 15:35:17.809561 10630 net.cpp:425] inception_4d/relu_pool_proj <- inception_4d/pool_proj
I0403 15:35:17.809581 10630 net.cpp:386] inception_4d/relu_pool_proj -> inception_4d/pool_proj (in-place)
I0403 15:35:17.809777 10630 net.cpp:141] Setting up inception_4d/relu_pool_proj
I0403 15:35:17.809803 10630 net.cpp:148] Top shape: 24 64 14 14 (301056)
I0403 15:35:17.809819 10630 net.cpp:156] Memory required for data: 1147309344
I0403 15:35:17.809834 10630 layer_factory.hpp:77] Creating layer inception_4d/output
I0403 15:35:17.809851 10630 net.cpp:91] Creating Layer inception_4d/output
I0403 15:35:17.809869 10630 net.cpp:425] inception_4d/output <- inception_4d/1x1
I0403 15:35:17.809885 10630 net.cpp:425] inception_4d/output <- inception_4d/3x3
I0403 15:35:17.809901 10630 net.cpp:425] inception_4d/output <- inception_4d/5x5
I0403 15:35:17.809917 10630 net.cpp:425] inception_4d/output <- inception_4d/pool_proj
I0403 15:35:17.809936 10630 net.cpp:399] inception_4d/output -> inception_4d/output
I0403 15:35:17.809993 10630 net.cpp:141] Setting up inception_4d/output
I0403 15:35:17.810016 10630 net.cpp:148] Top shape: 24 528 14 14 (2483712)
I0403 15:35:17.810031 10630 net.cpp:156] Memory required for data: 1157244192
I0403 15:35:17.810046 10630 layer_factory.hpp:77] Creating layer inception_4d/output_inception_4d/output_0_split
I0403 15:35:17.810066 10630 net.cpp:91] Creating Layer inception_4d/output_inception_4d/output_0_split
I0403 15:35:17.810083 10630 net.cpp:425] inception_4d/output_inception_4d/output_0_split <- inception_4d/output
I0403 15:35:17.810101 10630 net.cpp:399] inception_4d/output_inception_4d/output_0_split -> inception_4d/output_inception_4d/output_0_split_0
I0403 15:35:17.810122 10630 net.cpp:399] inception_4d/output_inception_4d/output_0_split -> inception_4d/output_inception_4d/output_0_split_1
I0403 15:35:17.810147 10630 net.cpp:399] inception_4d/output_inception_4d/output_0_split -> inception_4d/output_inception_4d/output_0_split_2
I0403 15:35:17.810169 10630 net.cpp:399] inception_4d/output_inception_4d/output_0_split -> inception_4d/output_inception_4d/output_0_split_3
I0403 15:35:17.810190 10630 net.cpp:399] inception_4d/output_inception_4d/output_0_split -> inception_4d/output_inception_4d/output_0_split_4
I0403 15:35:17.810299 10630 net.cpp:141] Setting up inception_4d/output_inception_4d/output_0_split
I0403 15:35:17.810335 10630 net.cpp:148] Top shape: 24 528 14 14 (2483712)
I0403 15:35:17.810353 10630 net.cpp:148] Top shape: 24 528 14 14 (2483712)
I0403 15:35:17.810369 10630 net.cpp:148] Top shape: 24 528 14 14 (2483712)
I0403 15:35:17.810385 10630 net.cpp:148] Top shape: 24 528 14 14 (2483712)
I0403 15:35:17.810400 10630 net.cpp:148] Top shape: 24 528 14 14 (2483712)
I0403 15:35:17.810415 10630 net.cpp:156] Memory required for data: 1206918432
I0403 15:35:17.810431 10630 layer_factory.hpp:77] Creating layer loss2/ave_pool
I0403 15:35:17.810451 10630 net.cpp:91] Creating Layer loss2/ave_pool
I0403 15:35:17.810468 10630 net.cpp:425] loss2/ave_pool <- inception_4d/output_inception_4d/output_0_split_0
I0403 15:35:17.810488 10630 net.cpp:399] loss2/ave_pool -> loss2/ave_pool
I0403 15:35:17.810811 10630 net.cpp:141] Setting up loss2/ave_pool
I0403 15:35:17.810839 10630 net.cpp:148] Top shape: 24 528 4 4 (202752)
I0403 15:35:17.810854 10630 net.cpp:156] Memory required for data: 1207729440
I0403 15:35:17.810870 10630 layer_factory.hpp:77] Creating layer loss2/conv
I0403 15:35:17.810894 10630 net.cpp:91] Creating Layer loss2/conv
I0403 15:35:17.810914 10630 net.cpp:425] loss2/conv <- loss2/ave_pool
I0403 15:35:17.810933 10630 net.cpp:399] loss2/conv -> loss2/conv
I0403 15:35:17.812909 10630 net.cpp:141] Setting up loss2/conv
I0403 15:35:17.812939 10630 net.cpp:148] Top shape: 24 128 4 4 (49152)
I0403 15:35:17.812960 10630 net.cpp:156] Memory required for data: 1207926048
I0403 15:35:17.812980 10630 layer_factory.hpp:77] Creating layer loss2/relu_conv
I0403 15:35:17.813000 10630 net.cpp:91] Creating Layer loss2/relu_conv
I0403 15:35:17.813017 10630 net.cpp:425] loss2/relu_conv <- loss2/conv
I0403 15:35:17.813041 10630 net.cpp:386] loss2/relu_conv -> loss2/conv (in-place)
I0403 15:35:17.813335 10630 net.cpp:141] Setting up loss2/relu_conv
I0403 15:35:17.813362 10630 net.cpp:148] Top shape: 24 128 4 4 (49152)
I0403 15:35:17.813379 10630 net.cpp:156] Memory required for data: 1208122656
I0403 15:35:17.813393 10630 layer_factory.hpp:77] Creating layer loss2/fc
I0403 15:35:17.813413 10630 net.cpp:91] Creating Layer loss2/fc
I0403 15:35:17.813431 10630 net.cpp:425] loss2/fc <- loss2/conv
I0403 15:35:17.813452 10630 net.cpp:399] loss2/fc -> loss2/fc
I0403 15:35:17.831581 10630 net.cpp:141] Setting up loss2/fc
I0403 15:35:17.831619 10630 net.cpp:148] Top shape: 24 1024 (24576)
I0403 15:35:17.831637 10630 net.cpp:156] Memory required for data: 1208220960
I0403 15:35:17.831657 10630 layer_factory.hpp:77] Creating layer loss2/relu_fc
I0403 15:35:17.831676 10630 net.cpp:91] Creating Layer loss2/relu_fc
I0403 15:35:17.831693 10630 net.cpp:425] loss2/relu_fc <- loss2/fc
I0403 15:35:17.831712 10630 net.cpp:386] loss2/relu_fc -> loss2/fc (in-place)
I0403 15:35:17.832021 10630 net.cpp:141] Setting up loss2/relu_fc
I0403 15:35:17.832049 10630 net.cpp:148] Top shape: 24 1024 (24576)
I0403 15:35:17.832065 10630 net.cpp:156] Memory required for data: 1208319264
I0403 15:35:17.832080 10630 layer_factory.hpp:77] Creating layer loss2/drop_fc
I0403 15:35:17.832098 10630 net.cpp:91] Creating Layer loss2/drop_fc
I0403 15:35:17.832115 10630 net.cpp:425] loss2/drop_fc <- loss2/fc
I0403 15:35:17.832132 10630 net.cpp:386] loss2/drop_fc -> loss2/fc (in-place)
I0403 15:35:17.832185 10630 net.cpp:141] Setting up loss2/drop_fc
I0403 15:35:17.832207 10630 net.cpp:148] Top shape: 24 1024 (24576)
I0403 15:35:17.832222 10630 net.cpp:156] Memory required for data: 1208417568
I0403 15:35:17.832237 10630 layer_factory.hpp:77] Creating layer loss2/classifier_plantvillage
I0403 15:35:17.832258 10630 net.cpp:91] Creating Layer loss2/classifier_plantvillage
I0403 15:35:17.832275 10630 net.cpp:425] loss2/classifier_plantvillage <- loss2/fc
I0403 15:35:17.832293 10630 net.cpp:399] loss2/classifier_plantvillage -> loss2/classifier_plantvillage
I0403 15:35:17.832711 10630 net.cpp:141] Setting up loss2/classifier_plantvillage
I0403 15:35:17.832737 10630 net.cpp:148] Top shape: 24 38 (912)
I0403 15:35:17.832769 10630 net.cpp:156] Memory required for data: 1208421216
I0403 15:35:17.832788 10630 layer_factory.hpp:77] Creating layer loss2/classifier_plantvillage_loss2/classifier_plantvillage_0_split
I0403 15:35:17.832808 10630 net.cpp:91] Creating Layer loss2/classifier_plantvillage_loss2/classifier_plantvillage_0_split
I0403 15:35:17.832824 10630 net.cpp:425] loss2/classifier_plantvillage_loss2/classifier_plantvillage_0_split <- loss2/classifier_plantvillage
I0403 15:35:17.832849 10630 net.cpp:399] loss2/classifier_plantvillage_loss2/classifier_plantvillage_0_split -> loss2/classifier_plantvillage_loss2/classifier_plantvillage_0_split_0
I0403 15:35:17.832871 10630 net.cpp:399] loss2/classifier_plantvillage_loss2/classifier_plantvillage_0_split -> loss2/classifier_plantvillage_loss2/classifier_plantvillage_0_split_1
I0403 15:35:17.832893 10630 net.cpp:399] loss2/classifier_plantvillage_loss2/classifier_plantvillage_0_split -> loss2/classifier_plantvillage_loss2/classifier_plantvillage_0_split_2
I0403 15:35:17.832978 10630 net.cpp:141] Setting up loss2/classifier_plantvillage_loss2/classifier_plantvillage_0_split
I0403 15:35:17.833004 10630 net.cpp:148] Top shape: 24 38 (912)
I0403 15:35:17.833021 10630 net.cpp:148] Top shape: 24 38 (912)
I0403 15:35:17.833036 10630 net.cpp:148] Top shape: 24 38 (912)
I0403 15:35:17.833051 10630 net.cpp:156] Memory required for data: 1208432160
I0403 15:35:17.833066 10630 layer_factory.hpp:77] Creating layer inception_4e/1x1
I0403 15:35:17.833088 10630 net.cpp:91] Creating Layer inception_4e/1x1
I0403 15:35:17.833106 10630 net.cpp:425] inception_4e/1x1 <- inception_4d/output_inception_4d/output_0_split_1
I0403 15:35:17.833125 10630 net.cpp:399] inception_4e/1x1 -> inception_4e/1x1
I0403 15:35:17.834982 10630 net.cpp:141] Setting up inception_4e/1x1
I0403 15:35:17.835011 10630 net.cpp:148] Top shape: 24 256 14 14 (1204224)
I0403 15:35:17.835026 10630 net.cpp:156] Memory required for data: 1213249056
I0403 15:35:17.835044 10630 layer_factory.hpp:77] Creating layer inception_4e/relu_1x1
I0403 15:35:17.835062 10630 net.cpp:91] Creating Layer inception_4e/relu_1x1
I0403 15:35:17.835081 10630 net.cpp:425] inception_4e/relu_1x1 <- inception_4e/1x1
I0403 15:35:17.835098 10630 net.cpp:386] inception_4e/relu_1x1 -> inception_4e/1x1 (in-place)
I0403 15:35:17.835397 10630 net.cpp:141] Setting up inception_4e/relu_1x1
I0403 15:35:17.835422 10630 net.cpp:148] Top shape: 24 256 14 14 (1204224)
I0403 15:35:17.835438 10630 net.cpp:156] Memory required for data: 1218065952
I0403 15:35:17.835453 10630 layer_factory.hpp:77] Creating layer inception_4e/3x3_reduce
I0403 15:35:17.835474 10630 net.cpp:91] Creating Layer inception_4e/3x3_reduce
I0403 15:35:17.835491 10630 net.cpp:425] inception_4e/3x3_reduce <- inception_4d/output_inception_4d/output_0_split_2
I0403 15:35:17.835513 10630 net.cpp:399] inception_4e/3x3_reduce -> inception_4e/3x3_reduce
I0403 15:35:17.837656 10630 net.cpp:141] Setting up inception_4e/3x3_reduce
I0403 15:35:17.837687 10630 net.cpp:148] Top shape: 24 160 14 14 (752640)
I0403 15:35:17.837702 10630 net.cpp:156] Memory required for data: 1221076512
I0403 15:35:17.837720 10630 layer_factory.hpp:77] Creating layer inception_4e/relu_3x3_reduce
I0403 15:35:17.837738 10630 net.cpp:91] Creating Layer inception_4e/relu_3x3_reduce
I0403 15:35:17.837754 10630 net.cpp:425] inception_4e/relu_3x3_reduce <- inception_4e/3x3_reduce
I0403 15:35:17.837774 10630 net.cpp:386] inception_4e/relu_3x3_reduce -> inception_4e/3x3_reduce (in-place)
I0403 15:35:17.837980 10630 net.cpp:141] Setting up inception_4e/relu_3x3_reduce
I0403 15:35:17.838004 10630 net.cpp:148] Top shape: 24 160 14 14 (752640)
I0403 15:35:17.838019 10630 net.cpp:156] Memory required for data: 1224087072
I0403 15:35:17.838033 10630 layer_factory.hpp:77] Creating layer inception_4e/3x3
I0403 15:35:17.838055 10630 net.cpp:91] Creating Layer inception_4e/3x3
I0403 15:35:17.838073 10630 net.cpp:425] inception_4e/3x3 <- inception_4e/3x3_reduce
I0403 15:35:17.838094 10630 net.cpp:399] inception_4e/3x3 -> inception_4e/3x3
I0403 15:35:17.843137 10630 net.cpp:141] Setting up inception_4e/3x3
I0403 15:35:17.843176 10630 net.cpp:148] Top shape: 24 320 14 14 (1505280)
I0403 15:35:17.843194 10630 net.cpp:156] Memory required for data: 1230108192
I0403 15:35:17.843210 10630 layer_factory.hpp:77] Creating layer inception_4e/relu_3x3
I0403 15:35:17.843232 10630 net.cpp:91] Creating Layer inception_4e/relu_3x3
I0403 15:35:17.843250 10630 net.cpp:425] inception_4e/relu_3x3 <- inception_4e/3x3
I0403 15:35:17.843267 10630 net.cpp:386] inception_4e/relu_3x3 -> inception_4e/3x3 (in-place)
I0403 15:35:17.843571 10630 net.cpp:141] Setting up inception_4e/relu_3x3
I0403 15:35:17.843597 10630 net.cpp:148] Top shape: 24 320 14 14 (1505280)
I0403 15:35:17.843612 10630 net.cpp:156] Memory required for data: 1236129312
I0403 15:35:17.843627 10630 layer_factory.hpp:77] Creating layer inception_4e/5x5_reduce
I0403 15:35:17.843650 10630 net.cpp:91] Creating Layer inception_4e/5x5_reduce
I0403 15:35:17.843668 10630 net.cpp:425] inception_4e/5x5_reduce <- inception_4d/output_inception_4d/output_0_split_3
I0403 15:35:17.843689 10630 net.cpp:399] inception_4e/5x5_reduce -> inception_4e/5x5_reduce
I0403 15:35:17.844768 10630 net.cpp:141] Setting up inception_4e/5x5_reduce
I0403 15:35:17.844797 10630 net.cpp:148] Top shape: 24 32 14 14 (150528)
I0403 15:35:17.844815 10630 net.cpp:156] Memory required for data: 1236731424
I0403 15:35:17.844832 10630 layer_factory.hpp:77] Creating layer inception_4e/relu_5x5_reduce
I0403 15:35:17.844851 10630 net.cpp:91] Creating Layer inception_4e/relu_5x5_reduce
I0403 15:35:17.844867 10630 net.cpp:425] inception_4e/relu_5x5_reduce <- inception_4e/5x5_reduce
I0403 15:35:17.844887 10630 net.cpp:386] inception_4e/relu_5x5_reduce -> inception_4e/5x5_reduce (in-place)
I0403 15:35:17.845212 10630 net.cpp:141] Setting up inception_4e/relu_5x5_reduce
I0403 15:35:17.845252 10630 net.cpp:148] Top shape: 24 32 14 14 (150528)
I0403 15:35:17.845268 10630 net.cpp:156] Memory required for data: 1237333536
I0403 15:35:17.845284 10630 layer_factory.hpp:77] Creating layer inception_4e/5x5
I0403 15:35:17.845322 10630 net.cpp:91] Creating Layer inception_4e/5x5
I0403 15:35:17.845341 10630 net.cpp:425] inception_4e/5x5 <- inception_4e/5x5_reduce
I0403 15:35:17.845360 10630 net.cpp:399] inception_4e/5x5 -> inception_4e/5x5
I0403 15:35:17.847295 10630 net.cpp:141] Setting up inception_4e/5x5
I0403 15:35:17.847321 10630 net.cpp:148] Top shape: 24 128 14 14 (602112)
I0403 15:35:17.847337 10630 net.cpp:156] Memory required for data: 1239741984
I0403 15:35:17.847358 10630 layer_factory.hpp:77] Creating layer inception_4e/relu_5x5
I0403 15:35:17.847378 10630 net.cpp:91] Creating Layer inception_4e/relu_5x5
I0403 15:35:17.847393 10630 net.cpp:425] inception_4e/relu_5x5 <- inception_4e/5x5
I0403 15:35:17.847410 10630 net.cpp:386] inception_4e/relu_5x5 -> inception_4e/5x5 (in-place)
I0403 15:35:17.847612 10630 net.cpp:141] Setting up inception_4e/relu_5x5
I0403 15:35:17.847637 10630 net.cpp:148] Top shape: 24 128 14 14 (602112)
I0403 15:35:17.847652 10630 net.cpp:156] Memory required for data: 1242150432
I0403 15:35:17.847666 10630 layer_factory.hpp:77] Creating layer inception_4e/pool
I0403 15:35:17.847684 10630 net.cpp:91] Creating Layer inception_4e/pool
I0403 15:35:17.847700 10630 net.cpp:425] inception_4e/pool <- inception_4d/output_inception_4d/output_0_split_4
I0403 15:35:17.847720 10630 net.cpp:399] inception_4e/pool -> inception_4e/pool
I0403 15:35:17.847791 10630 net.cpp:141] Setting up inception_4e/pool
I0403 15:35:17.847815 10630 net.cpp:148] Top shape: 24 528 14 14 (2483712)
I0403 15:35:17.847829 10630 net.cpp:156] Memory required for data: 1252085280
I0403 15:35:17.847844 10630 layer_factory.hpp:77] Creating layer inception_4e/pool_proj
I0403 15:35:17.847867 10630 net.cpp:91] Creating Layer inception_4e/pool_proj
I0403 15:35:17.847885 10630 net.cpp:425] inception_4e/pool_proj <- inception_4e/pool
I0403 15:35:17.847903 10630 net.cpp:399] inception_4e/pool_proj -> inception_4e/pool_proj
I0403 15:35:17.849499 10630 net.cpp:141] Setting up inception_4e/pool_proj
I0403 15:35:17.849539 10630 net.cpp:148] Top shape: 24 128 14 14 (602112)
I0403 15:35:17.849555 10630 net.cpp:156] Memory required for data: 1254493728
I0403 15:35:17.849572 10630 layer_factory.hpp:77] Creating layer inception_4e/relu_pool_proj
I0403 15:35:17.849593 10630 net.cpp:91] Creating Layer inception_4e/relu_pool_proj
I0403 15:35:17.849611 10630 net.cpp:425] inception_4e/relu_pool_proj <- inception_4e/pool_proj
I0403 15:35:17.849627 10630 net.cpp:386] inception_4e/relu_pool_proj -> inception_4e/pool_proj (in-place)
I0403 15:35:17.849920 10630 net.cpp:141] Setting up inception_4e/relu_pool_proj
I0403 15:35:17.849949 10630 net.cpp:148] Top shape: 24 128 14 14 (602112)
I0403 15:35:17.849967 10630 net.cpp:156] Memory required for data: 1256902176
I0403 15:35:17.849980 10630 layer_factory.hpp:77] Creating layer inception_4e/output
I0403 15:35:17.850000 10630 net.cpp:91] Creating Layer inception_4e/output
I0403 15:35:17.850018 10630 net.cpp:425] inception_4e/output <- inception_4e/1x1
I0403 15:35:17.850034 10630 net.cpp:425] inception_4e/output <- inception_4e/3x3
I0403 15:35:17.850050 10630 net.cpp:425] inception_4e/output <- inception_4e/5x5
I0403 15:35:17.850065 10630 net.cpp:425] inception_4e/output <- inception_4e/pool_proj
I0403 15:35:17.850082 10630 net.cpp:399] inception_4e/output -> inception_4e/output
I0403 15:35:17.850136 10630 net.cpp:141] Setting up inception_4e/output
I0403 15:35:17.850158 10630 net.cpp:148] Top shape: 24 832 14 14 (3913728)
I0403 15:35:17.850173 10630 net.cpp:156] Memory required for data: 1272557088
I0403 15:35:17.850188 10630 layer_factory.hpp:77] Creating layer pool4/3x3_s2
I0403 15:35:17.850204 10630 net.cpp:91] Creating Layer pool4/3x3_s2
I0403 15:35:17.850220 10630 net.cpp:425] pool4/3x3_s2 <- inception_4e/output
I0403 15:35:17.850240 10630 net.cpp:399] pool4/3x3_s2 -> pool4/3x3_s2
I0403 15:35:17.850308 10630 net.cpp:141] Setting up pool4/3x3_s2
I0403 15:35:17.850332 10630 net.cpp:148] Top shape: 24 832 7 7 (978432)
I0403 15:35:17.850347 10630 net.cpp:156] Memory required for data: 1276470816
I0403 15:35:17.850360 10630 layer_factory.hpp:77] Creating layer pool4/3x3_s2_pool4/3x3_s2_0_split
I0403 15:35:17.850380 10630 net.cpp:91] Creating Layer pool4/3x3_s2_pool4/3x3_s2_0_split
I0403 15:35:17.850397 10630 net.cpp:425] pool4/3x3_s2_pool4/3x3_s2_0_split <- pool4/3x3_s2
I0403 15:35:17.850417 10630 net.cpp:399] pool4/3x3_s2_pool4/3x3_s2_0_split -> pool4/3x3_s2_pool4/3x3_s2_0_split_0
I0403 15:35:17.850440 10630 net.cpp:399] pool4/3x3_s2_pool4/3x3_s2_0_split -> pool4/3x3_s2_pool4/3x3_s2_0_split_1
I0403 15:35:17.850460 10630 net.cpp:399] pool4/3x3_s2_pool4/3x3_s2_0_split -> pool4/3x3_s2_pool4/3x3_s2_0_split_2
I0403 15:35:17.850481 10630 net.cpp:399] pool4/3x3_s2_pool4/3x3_s2_0_split -> pool4/3x3_s2_pool4/3x3_s2_0_split_3
I0403 15:35:17.850570 10630 net.cpp:141] Setting up pool4/3x3_s2_pool4/3x3_s2_0_split
I0403 15:35:17.850596 10630 net.cpp:148] Top shape: 24 832 7 7 (978432)
I0403 15:35:17.850612 10630 net.cpp:148] Top shape: 24 832 7 7 (978432)
I0403 15:35:17.850628 10630 net.cpp:148] Top shape: 24 832 7 7 (978432)
I0403 15:35:17.850643 10630 net.cpp:148] Top shape: 24 832 7 7 (978432)
I0403 15:35:17.850657 10630 net.cpp:156] Memory required for data: 1292125728
I0403 15:35:17.850672 10630 layer_factory.hpp:77] Creating layer inception_5a/1x1
I0403 15:35:17.850693 10630 net.cpp:91] Creating Layer inception_5a/1x1
I0403 15:35:17.850710 10630 net.cpp:425] inception_5a/1x1 <- pool4/3x3_s2_pool4/3x3_s2_0_split_0
I0403 15:35:17.850729 10630 net.cpp:399] inception_5a/1x1 -> inception_5a/1x1
I0403 15:35:17.853610 10630 net.cpp:141] Setting up inception_5a/1x1
I0403 15:35:17.853641 10630 net.cpp:148] Top shape: 24 256 7 7 (301056)
I0403 15:35:17.853657 10630 net.cpp:156] Memory required for data: 1293329952
I0403 15:35:17.853675 10630 layer_factory.hpp:77] Creating layer inception_5a/relu_1x1
I0403 15:35:17.853693 10630 net.cpp:91] Creating Layer inception_5a/relu_1x1
I0403 15:35:17.853709 10630 net.cpp:425] inception_5a/relu_1x1 <- inception_5a/1x1
I0403 15:35:17.853729 10630 net.cpp:386] inception_5a/relu_1x1 -> inception_5a/1x1 (in-place)
I0403 15:35:17.854043 10630 net.cpp:141] Setting up inception_5a/relu_1x1
I0403 15:35:17.854073 10630 net.cpp:148] Top shape: 24 256 7 7 (301056)
I0403 15:35:17.854087 10630 net.cpp:156] Memory required for data: 1294534176
I0403 15:35:17.854102 10630 layer_factory.hpp:77] Creating layer inception_5a/3x3_reduce
I0403 15:35:17.854125 10630 net.cpp:91] Creating Layer inception_5a/3x3_reduce
I0403 15:35:17.854142 10630 net.cpp:425] inception_5a/3x3_reduce <- pool4/3x3_s2_pool4/3x3_s2_0_split_1
I0403 15:35:17.854162 10630 net.cpp:399] inception_5a/3x3_reduce -> inception_5a/3x3_reduce
I0403 15:35:17.856758 10630 net.cpp:141] Setting up inception_5a/3x3_reduce
I0403 15:35:17.856788 10630 net.cpp:148] Top shape: 24 160 7 7 (188160)
I0403 15:35:17.856806 10630 net.cpp:156] Memory required for data: 1295286816
I0403 15:35:17.856823 10630 layer_factory.hpp:77] Creating layer inception_5a/relu_3x3_reduce
I0403 15:35:17.856848 10630 net.cpp:91] Creating Layer inception_5a/relu_3x3_reduce
I0403 15:35:17.856868 10630 net.cpp:425] inception_5a/relu_3x3_reduce <- inception_5a/3x3_reduce
I0403 15:35:17.856884 10630 net.cpp:386] inception_5a/relu_3x3_reduce -> inception_5a/3x3_reduce (in-place)
I0403 15:35:17.857081 10630 net.cpp:141] Setting up inception_5a/relu_3x3_reduce
I0403 15:35:17.857110 10630 net.cpp:148] Top shape: 24 160 7 7 (188160)
I0403 15:35:17.857137 10630 net.cpp:156] Memory required for data: 1296039456
I0403 15:35:17.857152 10630 layer_factory.hpp:77] Creating layer inception_5a/3x3
I0403 15:35:17.857175 10630 net.cpp:91] Creating Layer inception_5a/3x3
I0403 15:35:17.857193 10630 net.cpp:425] inception_5a/3x3 <- inception_5a/3x3_reduce
I0403 15:35:17.857213 10630 net.cpp:399] inception_5a/3x3 -> inception_5a/3x3
I0403 15:35:17.862362 10630 net.cpp:141] Setting up inception_5a/3x3
I0403 15:35:17.862396 10630 net.cpp:148] Top shape: 24 320 7 7 (376320)
I0403 15:35:17.862412 10630 net.cpp:156] Memory required for data: 1297544736
I0403 15:35:17.862432 10630 layer_factory.hpp:77] Creating layer inception_5a/relu_3x3
I0403 15:35:17.862449 10630 net.cpp:91] Creating Layer inception_5a/relu_3x3
I0403 15:35:17.862465 10630 net.cpp:425] inception_5a/relu_3x3 <- inception_5a/3x3
I0403 15:35:17.862488 10630 net.cpp:386] inception_5a/relu_3x3 -> inception_5a/3x3 (in-place)
I0403 15:35:17.862787 10630 net.cpp:141] Setting up inception_5a/relu_3x3
I0403 15:35:17.862815 10630 net.cpp:148] Top shape: 24 320 7 7 (376320)
I0403 15:35:17.862831 10630 net.cpp:156] Memory required for data: 1299050016
I0403 15:35:17.862846 10630 layer_factory.hpp:77] Creating layer inception_5a/5x5_reduce
I0403 15:35:17.862869 10630 net.cpp:91] Creating Layer inception_5a/5x5_reduce
I0403 15:35:17.862887 10630 net.cpp:425] inception_5a/5x5_reduce <- pool4/3x3_s2_pool4/3x3_s2_0_split_2
I0403 15:35:17.862906 10630 net.cpp:399] inception_5a/5x5_reduce -> inception_5a/5x5_reduce
I0403 15:35:17.864094 10630 net.cpp:141] Setting up inception_5a/5x5_reduce
I0403 15:35:17.864123 10630 net.cpp:148] Top shape: 24 32 7 7 (37632)
I0403 15:35:17.864140 10630 net.cpp:156] Memory required for data: 1299200544
I0403 15:35:17.864158 10630 layer_factory.hpp:77] Creating layer inception_5a/relu_5x5_reduce
I0403 15:35:17.864176 10630 net.cpp:91] Creating Layer inception_5a/relu_5x5_reduce
I0403 15:35:17.864192 10630 net.cpp:425] inception_5a/relu_5x5_reduce <- inception_5a/5x5_reduce
I0403 15:35:17.864210 10630 net.cpp:386] inception_5a/relu_5x5_reduce -> inception_5a/5x5_reduce (in-place)
I0403 15:35:17.864512 10630 net.cpp:141] Setting up inception_5a/relu_5x5_reduce
I0403 15:35:17.864537 10630 net.cpp:148] Top shape: 24 32 7 7 (37632)
I0403 15:35:17.864552 10630 net.cpp:156] Memory required for data: 1299351072
I0403 15:35:17.864567 10630 layer_factory.hpp:77] Creating layer inception_5a/5x5
I0403 15:35:17.864589 10630 net.cpp:91] Creating Layer inception_5a/5x5
I0403 15:35:17.864608 10630 net.cpp:425] inception_5a/5x5 <- inception_5a/5x5_reduce
I0403 15:35:17.864629 10630 net.cpp:399] inception_5a/5x5 -> inception_5a/5x5
I0403 15:35:17.866389 10630 net.cpp:141] Setting up inception_5a/5x5
I0403 15:35:17.866430 10630 net.cpp:148] Top shape: 24 128 7 7 (150528)
I0403 15:35:17.866448 10630 net.cpp:156] Memory required for data: 1299953184
I0403 15:35:17.866466 10630 layer_factory.hpp:77] Creating layer inception_5a/relu_5x5
I0403 15:35:17.866484 10630 net.cpp:91] Creating Layer inception_5a/relu_5x5
I0403 15:35:17.866500 10630 net.cpp:425] inception_5a/relu_5x5 <- inception_5a/5x5
I0403 15:35:17.866520 10630 net.cpp:386] inception_5a/relu_5x5 -> inception_5a/5x5 (in-place)
I0403 15:35:17.866716 10630 net.cpp:141] Setting up inception_5a/relu_5x5
I0403 15:35:17.866741 10630 net.cpp:148] Top shape: 24 128 7 7 (150528)
I0403 15:35:17.866756 10630 net.cpp:156] Memory required for data: 1300555296
I0403 15:35:17.866771 10630 layer_factory.hpp:77] Creating layer inception_5a/pool
I0403 15:35:17.866788 10630 net.cpp:91] Creating Layer inception_5a/pool
I0403 15:35:17.866804 10630 net.cpp:425] inception_5a/pool <- pool4/3x3_s2_pool4/3x3_s2_0_split_3
I0403 15:35:17.866825 10630 net.cpp:399] inception_5a/pool -> inception_5a/pool
I0403 15:35:17.866897 10630 net.cpp:141] Setting up inception_5a/pool
I0403 15:35:17.866922 10630 net.cpp:148] Top shape: 24 832 7 7 (978432)
I0403 15:35:17.866937 10630 net.cpp:156] Memory required for data: 1304469024
I0403 15:35:17.866957 10630 layer_factory.hpp:77] Creating layer inception_5a/pool_proj
I0403 15:35:17.866982 10630 net.cpp:91] Creating Layer inception_5a/pool_proj
I0403 15:35:17.867000 10630 net.cpp:425] inception_5a/pool_proj <- inception_5a/pool
I0403 15:35:17.867018 10630 net.cpp:399] inception_5a/pool_proj -> inception_5a/pool_proj
I0403 15:35:17.869338 10630 net.cpp:141] Setting up inception_5a/pool_proj
I0403 15:35:17.869366 10630 net.cpp:148] Top shape: 24 128 7 7 (150528)
I0403 15:35:17.869385 10630 net.cpp:156] Memory required for data: 1305071136
I0403 15:35:17.869403 10630 layer_factory.hpp:77] Creating layer inception_5a/relu_pool_proj
I0403 15:35:17.869421 10630 net.cpp:91] Creating Layer inception_5a/relu_pool_proj
I0403 15:35:17.869437 10630 net.cpp:425] inception_5a/relu_pool_proj <- inception_5a/pool_proj
I0403 15:35:17.869456 10630 net.cpp:386] inception_5a/relu_pool_proj -> inception_5a/pool_proj (in-place)
I0403 15:35:17.869751 10630 net.cpp:141] Setting up inception_5a/relu_pool_proj
I0403 15:35:17.869779 10630 net.cpp:148] Top shape: 24 128 7 7 (150528)
I0403 15:35:17.869796 10630 net.cpp:156] Memory required for data: 1305673248
I0403 15:35:17.869810 10630 layer_factory.hpp:77] Creating layer inception_5a/output
I0403 15:35:17.869828 10630 net.cpp:91] Creating Layer inception_5a/output
I0403 15:35:17.869843 10630 net.cpp:425] inception_5a/output <- inception_5a/1x1
I0403 15:35:17.869860 10630 net.cpp:425] inception_5a/output <- inception_5a/3x3
I0403 15:35:17.869876 10630 net.cpp:425] inception_5a/output <- inception_5a/5x5
I0403 15:35:17.869892 10630 net.cpp:425] inception_5a/output <- inception_5a/pool_proj
I0403 15:35:17.869910 10630 net.cpp:399] inception_5a/output -> inception_5a/output
I0403 15:35:17.869972 10630 net.cpp:141] Setting up inception_5a/output
I0403 15:35:17.869997 10630 net.cpp:148] Top shape: 24 832 7 7 (978432)
I0403 15:35:17.870012 10630 net.cpp:156] Memory required for data: 1309586976
I0403 15:35:17.870025 10630 layer_factory.hpp:77] Creating layer inception_5a/output_inception_5a/output_0_split
I0403 15:35:17.870043 10630 net.cpp:91] Creating Layer inception_5a/output_inception_5a/output_0_split
I0403 15:35:17.870059 10630 net.cpp:425] inception_5a/output_inception_5a/output_0_split <- inception_5a/output
I0403 15:35:17.870079 10630 net.cpp:399] inception_5a/output_inception_5a/output_0_split -> inception_5a/output_inception_5a/output_0_split_0
I0403 15:35:17.870100 10630 net.cpp:399] inception_5a/output_inception_5a/output_0_split -> inception_5a/output_inception_5a/output_0_split_1
I0403 15:35:17.870121 10630 net.cpp:399] inception_5a/output_inception_5a/output_0_split -> inception_5a/output_inception_5a/output_0_split_2
I0403 15:35:17.870142 10630 net.cpp:399] inception_5a/output_inception_5a/output_0_split -> inception_5a/output_inception_5a/output_0_split_3
I0403 15:35:17.870255 10630 net.cpp:141] Setting up inception_5a/output_inception_5a/output_0_split
I0403 15:35:17.870278 10630 net.cpp:148] Top shape: 24 832 7 7 (978432)
I0403 15:35:17.870295 10630 net.cpp:148] Top shape: 24 832 7 7 (978432)
I0403 15:35:17.870311 10630 net.cpp:148] Top shape: 24 832 7 7 (978432)
I0403 15:35:17.870326 10630 net.cpp:148] Top shape: 24 832 7 7 (978432)
I0403 15:35:17.870339 10630 net.cpp:156] Memory required for data: 1325241888
I0403 15:35:17.870353 10630 layer_factory.hpp:77] Creating layer inception_5b/1x1
I0403 15:35:17.870375 10630 net.cpp:91] Creating Layer inception_5b/1x1
I0403 15:35:17.870393 10630 net.cpp:425] inception_5b/1x1 <- inception_5a/output_inception_5a/output_0_split_0
I0403 15:35:17.870414 10630 net.cpp:399] inception_5b/1x1 -> inception_5b/1x1
I0403 15:35:17.874270 10630 net.cpp:141] Setting up inception_5b/1x1
I0403 15:35:17.874300 10630 net.cpp:148] Top shape: 24 384 7 7 (451584)
I0403 15:35:17.874316 10630 net.cpp:156] Memory required for data: 1327048224
I0403 15:35:17.874335 10630 layer_factory.hpp:77] Creating layer inception_5b/relu_1x1
I0403 15:35:17.874356 10630 net.cpp:91] Creating Layer inception_5b/relu_1x1
I0403 15:35:17.874373 10630 net.cpp:425] inception_5b/relu_1x1 <- inception_5b/1x1
I0403 15:35:17.874392 10630 net.cpp:386] inception_5b/relu_1x1 -> inception_5b/1x1 (in-place)
I0403 15:35:17.874697 10630 net.cpp:141] Setting up inception_5b/relu_1x1
I0403 15:35:17.874723 10630 net.cpp:148] Top shape: 24 384 7 7 (451584)
I0403 15:35:17.874738 10630 net.cpp:156] Memory required for data: 1328854560
I0403 15:35:17.874753 10630 layer_factory.hpp:77] Creating layer inception_5b/3x3_reduce
I0403 15:35:17.874776 10630 net.cpp:91] Creating Layer inception_5b/3x3_reduce
I0403 15:35:17.874794 10630 net.cpp:425] inception_5b/3x3_reduce <- inception_5a/output_inception_5a/output_0_split_1
I0403 15:35:17.874817 10630 net.cpp:399] inception_5b/3x3_reduce -> inception_5b/3x3_reduce
I0403 15:35:17.877565 10630 net.cpp:141] Setting up inception_5b/3x3_reduce
I0403 15:35:17.877595 10630 net.cpp:148] Top shape: 24 192 7 7 (225792)
I0403 15:35:17.877611 10630 net.cpp:156] Memory required for data: 1329757728
I0403 15:35:17.877630 10630 layer_factory.hpp:77] Creating layer inception_5b/relu_3x3_reduce
I0403 15:35:17.877650 10630 net.cpp:91] Creating Layer inception_5b/relu_3x3_reduce
I0403 15:35:17.877668 10630 net.cpp:425] inception_5b/relu_3x3_reduce <- inception_5b/3x3_reduce
I0403 15:35:17.877686 10630 net.cpp:386] inception_5b/relu_3x3_reduce -> inception_5b/3x3_reduce (in-place)
I0403 15:35:17.877878 10630 net.cpp:141] Setting up inception_5b/relu_3x3_reduce
I0403 15:35:17.877905 10630 net.cpp:148] Top shape: 24 192 7 7 (225792)
I0403 15:35:17.877923 10630 net.cpp:156] Memory required for data: 1330660896
I0403 15:35:17.877938 10630 layer_factory.hpp:77] Creating layer inception_5b/3x3
I0403 15:35:17.877972 10630 net.cpp:91] Creating Layer inception_5b/3x3
I0403 15:35:17.877991 10630 net.cpp:425] inception_5b/3x3 <- inception_5b/3x3_reduce
I0403 15:35:17.878010 10630 net.cpp:399] inception_5b/3x3 -> inception_5b/3x3
I0403 15:35:17.884779 10630 net.cpp:141] Setting up inception_5b/3x3
I0403 15:35:17.884812 10630 net.cpp:148] Top shape: 24 384 7 7 (451584)
I0403 15:35:17.884831 10630 net.cpp:156] Memory required for data: 1332467232
I0403 15:35:17.884850 10630 layer_factory.hpp:77] Creating layer inception_5b/relu_3x3
I0403 15:35:17.884868 10630 net.cpp:91] Creating Layer inception_5b/relu_3x3
I0403 15:35:17.884884 10630 net.cpp:425] inception_5b/relu_3x3 <- inception_5b/3x3
I0403 15:35:17.884902 10630 net.cpp:386] inception_5b/relu_3x3 -> inception_5b/3x3 (in-place)
I0403 15:35:17.885210 10630 net.cpp:141] Setting up inception_5b/relu_3x3
I0403 15:35:17.885238 10630 net.cpp:148] Top shape: 24 384 7 7 (451584)
I0403 15:35:17.885254 10630 net.cpp:156] Memory required for data: 1334273568
I0403 15:35:17.885269 10630 layer_factory.hpp:77] Creating layer inception_5b/5x5_reduce
I0403 15:35:17.885305 10630 net.cpp:91] Creating Layer inception_5b/5x5_reduce
I0403 15:35:17.885324 10630 net.cpp:425] inception_5b/5x5_reduce <- inception_5a/output_inception_5a/output_0_split_2
I0403 15:35:17.885344 10630 net.cpp:399] inception_5b/5x5_reduce -> inception_5b/5x5_reduce
I0403 15:35:17.886623 10630 net.cpp:141] Setting up inception_5b/5x5_reduce
I0403 15:35:17.886651 10630 net.cpp:148] Top shape: 24 48 7 7 (56448)
I0403 15:35:17.886667 10630 net.cpp:156] Memory required for data: 1334499360
I0403 15:35:17.886685 10630 layer_factory.hpp:77] Creating layer inception_5b/relu_5x5_reduce
I0403 15:35:17.886706 10630 net.cpp:91] Creating Layer inception_5b/relu_5x5_reduce
I0403 15:35:17.886723 10630 net.cpp:425] inception_5b/relu_5x5_reduce <- inception_5b/5x5_reduce
I0403 15:35:17.886740 10630 net.cpp:386] inception_5b/relu_5x5_reduce -> inception_5b/5x5_reduce (in-place)
I0403 15:35:17.887125 10630 net.cpp:141] Setting up inception_5b/relu_5x5_reduce
I0403 15:35:17.887151 10630 net.cpp:148] Top shape: 24 48 7 7 (56448)
I0403 15:35:17.887167 10630 net.cpp:156] Memory required for data: 1334725152
I0403 15:35:17.887182 10630 layer_factory.hpp:77] Creating layer inception_5b/5x5
I0403 15:35:17.887202 10630 net.cpp:91] Creating Layer inception_5b/5x5
I0403 15:35:17.887220 10630 net.cpp:425] inception_5b/5x5 <- inception_5b/5x5_reduce
I0403 15:35:17.887240 10630 net.cpp:399] inception_5b/5x5 -> inception_5b/5x5
I0403 15:35:17.889380 10630 net.cpp:141] Setting up inception_5b/5x5
I0403 15:35:17.889410 10630 net.cpp:148] Top shape: 24 128 7 7 (150528)
I0403 15:35:17.889426 10630 net.cpp:156] Memory required for data: 1335327264
I0403 15:35:17.889444 10630 layer_factory.hpp:77] Creating layer inception_5b/relu_5x5
I0403 15:35:17.889462 10630 net.cpp:91] Creating Layer inception_5b/relu_5x5
I0403 15:35:17.889479 10630 net.cpp:425] inception_5b/relu_5x5 <- inception_5b/5x5
I0403 15:35:17.889498 10630 net.cpp:386] inception_5b/relu_5x5 -> inception_5b/5x5 (in-place)
I0403 15:35:17.889699 10630 net.cpp:141] Setting up inception_5b/relu_5x5
I0403 15:35:17.889724 10630 net.cpp:148] Top shape: 24 128 7 7 (150528)
I0403 15:35:17.889739 10630 net.cpp:156] Memory required for data: 1335929376
I0403 15:35:17.889755 10630 layer_factory.hpp:77] Creating layer inception_5b/pool
I0403 15:35:17.889772 10630 net.cpp:91] Creating Layer inception_5b/pool
I0403 15:35:17.889788 10630 net.cpp:425] inception_5b/pool <- inception_5a/output_inception_5a/output_0_split_3
I0403 15:35:17.889808 10630 net.cpp:399] inception_5b/pool -> inception_5b/pool
I0403 15:35:17.889881 10630 net.cpp:141] Setting up inception_5b/pool
I0403 15:35:17.889906 10630 net.cpp:148] Top shape: 24 832 7 7 (978432)
I0403 15:35:17.889924 10630 net.cpp:156] Memory required for data: 1339843104
I0403 15:35:17.889937 10630 layer_factory.hpp:77] Creating layer inception_5b/pool_proj
I0403 15:35:17.889964 10630 net.cpp:91] Creating Layer inception_5b/pool_proj
I0403 15:35:17.889982 10630 net.cpp:425] inception_5b/pool_proj <- inception_5b/pool
I0403 15:35:17.890003 10630 net.cpp:399] inception_5b/pool_proj -> inception_5b/pool_proj
I0403 15:35:17.892350 10630 net.cpp:141] Setting up inception_5b/pool_proj
I0403 15:35:17.892379 10630 net.cpp:148] Top shape: 24 128 7 7 (150528)
I0403 15:35:17.892395 10630 net.cpp:156] Memory required for data: 1340445216
I0403 15:35:17.892415 10630 layer_factory.hpp:77] Creating layer inception_5b/relu_pool_proj
I0403 15:35:17.892434 10630 net.cpp:91] Creating Layer inception_5b/relu_pool_proj
I0403 15:35:17.892452 10630 net.cpp:425] inception_5b/relu_pool_proj <- inception_5b/pool_proj
I0403 15:35:17.892468 10630 net.cpp:386] inception_5b/relu_pool_proj -> inception_5b/pool_proj (in-place)
I0403 15:35:17.892772 10630 net.cpp:141] Setting up inception_5b/relu_pool_proj
I0403 15:35:17.892798 10630 net.cpp:148] Top shape: 24 128 7 7 (150528)
I0403 15:35:17.892814 10630 net.cpp:156] Memory required for data: 1341047328
I0403 15:35:17.892828 10630 layer_factory.hpp:77] Creating layer inception_5b/output
I0403 15:35:17.892848 10630 net.cpp:91] Creating Layer inception_5b/output
I0403 15:35:17.892881 10630 net.cpp:425] inception_5b/output <- inception_5b/1x1
I0403 15:35:17.892900 10630 net.cpp:425] inception_5b/output <- inception_5b/3x3
I0403 15:35:17.892916 10630 net.cpp:425] inception_5b/output <- inception_5b/5x5
I0403 15:35:17.892933 10630 net.cpp:425] inception_5b/output <- inception_5b/pool_proj
I0403 15:35:17.892956 10630 net.cpp:399] inception_5b/output -> inception_5b/output
I0403 15:35:17.893012 10630 net.cpp:141] Setting up inception_5b/output
I0403 15:35:17.893035 10630 net.cpp:148] Top shape: 24 1024 7 7 (1204224)
I0403 15:35:17.893050 10630 net.cpp:156] Memory required for data: 1345864224
I0403 15:35:17.893064 10630 layer_factory.hpp:77] Creating layer pool5/7x7_s1
I0403 15:35:17.893081 10630 net.cpp:91] Creating Layer pool5/7x7_s1
I0403 15:35:17.893097 10630 net.cpp:425] pool5/7x7_s1 <- inception_5b/output
I0403 15:35:17.893118 10630 net.cpp:399] pool5/7x7_s1 -> pool5/7x7_s1
I0403 15:35:17.893337 10630 net.cpp:141] Setting up pool5/7x7_s1
I0403 15:35:17.893363 10630 net.cpp:148] Top shape: 24 1024 1 1 (24576)
I0403 15:35:17.893379 10630 net.cpp:156] Memory required for data: 1345962528
I0403 15:35:17.893393 10630 layer_factory.hpp:77] Creating layer pool5/drop_7x7_s1
I0403 15:35:17.893411 10630 net.cpp:91] Creating Layer pool5/drop_7x7_s1
I0403 15:35:17.893429 10630 net.cpp:425] pool5/drop_7x7_s1 <- pool5/7x7_s1
I0403 15:35:17.893446 10630 net.cpp:386] pool5/drop_7x7_s1 -> pool5/7x7_s1 (in-place)
I0403 15:35:17.893497 10630 net.cpp:141] Setting up pool5/drop_7x7_s1
I0403 15:35:17.893520 10630 net.cpp:148] Top shape: 24 1024 1 1 (24576)
I0403 15:35:17.893535 10630 net.cpp:156] Memory required for data: 1346060832
I0403 15:35:17.893549 10630 layer_factory.hpp:77] Creating layer loss3/classifier_plantvillage
I0403 15:35:17.893570 10630 net.cpp:91] Creating Layer loss3/classifier_plantvillage
I0403 15:35:17.893587 10630 net.cpp:425] loss3/classifier_plantvillage <- pool5/7x7_s1
I0403 15:35:17.893609 10630 net.cpp:399] loss3/classifier_plantvillage -> loss3/classifier_plantvillage
I0403 15:35:17.894038 10630 net.cpp:141] Setting up loss3/classifier_plantvillage
I0403 15:35:17.894062 10630 net.cpp:148] Top shape: 24 38 (912)
I0403 15:35:17.894078 10630 net.cpp:156] Memory required for data: 1346064480
I0403 15:35:17.894094 10630 layer_factory.hpp:77] Creating layer loss3/classifier_plantvillage_loss3/classifier_plantvillage_0_split
I0403 15:35:17.894112 10630 net.cpp:91] Creating Layer loss3/classifier_plantvillage_loss3/classifier_plantvillage_0_split
I0403 15:35:17.894132 10630 net.cpp:425] loss3/classifier_plantvillage_loss3/classifier_plantvillage_0_split <- loss3/classifier_plantvillage
I0403 15:35:17.894150 10630 net.cpp:399] loss3/classifier_plantvillage_loss3/classifier_plantvillage_0_split -> loss3/classifier_plantvillage_loss3/classifier_plantvillage_0_split_0
I0403 15:35:17.894171 10630 net.cpp:399] loss3/classifier_plantvillage_loss3/classifier_plantvillage_0_split -> loss3/classifier_plantvillage_loss3/classifier_plantvillage_0_split_1
I0403 15:35:17.894191 10630 net.cpp:399] loss3/classifier_plantvillage_loss3/classifier_plantvillage_0_split -> loss3/classifier_plantvillage_loss3/classifier_plantvillage_0_split_2
I0403 15:35:17.894212 10630 net.cpp:399] loss3/classifier_plantvillage_loss3/classifier_plantvillage_0_split -> loss3/classifier_plantvillage_loss3/classifier_plantvillage_0_split_3
I0403 15:35:17.894314 10630 net.cpp:141] Setting up loss3/classifier_plantvillage_loss3/classifier_plantvillage_0_split
I0403 15:35:17.894336 10630 net.cpp:148] Top shape: 24 38 (912)
I0403 15:35:17.894352 10630 net.cpp:148] Top shape: 24 38 (912)
I0403 15:35:17.894367 10630 net.cpp:148] Top shape: 24 38 (912)
I0403 15:35:17.894382 10630 net.cpp:148] Top shape: 24 38 (912)
I0403 15:35:17.894397 10630 net.cpp:156] Memory required for data: 1346079072
I0403 15:35:17.894410 10630 layer_factory.hpp:77] Creating layer loss1/loss
I0403 15:35:17.894433 10630 net.cpp:91] Creating Layer loss1/loss
I0403 15:35:17.894449 10630 net.cpp:425] loss1/loss <- loss1/classifier_plantvillage_loss1/classifier_plantvillage_0_split_0
I0403 15:35:17.894479 10630 net.cpp:425] loss1/loss <- label_data_1_split_0
…
