…
I0403 15:48:16.361119 11370 net.cpp:313] The NetState phase (1) differed from the phase (0) specified by a rule in layer data
I0403 15:48:16.362354 11370 net.cpp:49] Initializing net from parameters: 
state {
  phase: TEST
}
layer {
  name: "data"
  type: "Data"
  top: "data"
  top: "label"
  include {
    phase: TEST
  }
  transform_param {
    mirror: false
    crop_size: 224
    mean_file: "/home/mohanty/data/final_dataset/lmdb/segmented-80-20/mean.binaryproto"
  }
  data_param {
    source: "/home/mohanty/data/final_dataset/lmdb/segmented-80-20/test_db"
    batch_size: 24
    backend: LMDB
  }
}
layer {
  name: "conv1/7x7_s2"
  type: "Convolution"
  bottom: "data"
  top: "conv1/7x7_s2"
  param {
    lr_mult: 1
    decay_mult: 1
  }
  param {
    lr_mult: 2
    decay_mult: 0
  }
  convolution_param {
    num_output: 64
    pad: 3
    kernel_size: 7
    stride: 2
    weight_filler {
      type: "xavier"
      std: 0.1
    }
    bias_filler {
      type: "constant"
      value: 0.2
    }
  }
}
layer {
  name: "conv1/relu_7x7"
  type: "ReLU"
  bottom: "conv1/7x7_s2"
  top: "conv1/7x7_s2"
}
layer {
  name: "pool1/3x3_s2"
  type: "Pooling"
  bottom: "conv1/7x7_s2"
  top: "pool1/3x3_s2"
  pooling_param {
    pool: MAX
    kernel_size: 3
    stride: 2
  }
}
layer {
  name: "pool1/norm1"
  type: "LRN"
  bottom: "pool1/3x3_s2"
  top: "pool1/norm1"
  lrn_param {
    local_size: 5
    alpha: 0.0001
    beta: 0.75
  }
}
layer {
  name: "conv2/3x3_reduce"
  type: "Convolution"
  bottom: "pool1/norm1"
  top: "conv2/3x3_reduce"
  param {
    lr_mult: 1
    decay_mult: 1
  }
  param {
    lr_mult: 2
    decay_mult: 0
  }
  convolution_param {
    num_output: 64
    kernel_size: 1
    weight_filler {
      type: "xavier"
      std: 0.1
    }
    bias_filler {
      type: "constant"
      value: 0.2
    }
  }
}
layer {
  name: "conv2/relu_3x3_reduce"
  type: "ReLU"
  bottom: "conv2/3x3_reduce"
  top: "conv2/3x3_reduce"
}
layer {
  name: "conv2/3x3"
  type: "Convolution"
  bottom: "conv2/3x3_reduce"
  top: "conv2/3x3"
  param {
    lr_mult: 1
    decay_mult: 1
  }
  param {
    lr_mult: 2
    decay_mult: 0
  }
  convolution_param {
    num_output: 192
    pad: 1
    kernel_size: 3
    weight_filler {
      type: "xavier"
      std: 0.03
    }
    bias_filler {
      type: "constant"
      value: 0.2
    }
  }
}
layer {
  name: "conv2/relu_3x3"
  type: "ReLU"
  bottom: "conv2/3x3"
  top: "conv2/3x3"
}
layer {
  name: "conv2/norm2"
  type: "LRN"
  bottom: "conv2/3x3"
  top: "conv2/norm2"
  lrn_param {
    local_size: 5
    alpha: 0.0001
    beta: 0.75
  }
}
layer {
  name: "pool2/3x3_s2"
  type: "Pooling"
  bottom: "conv2/norm2"
  top: "pool2/3x3_s2"
  pooling_param {
    pool: MAX
    kernel_size: 3
    stride: 2
  }
}
layer {
  name: "inception_3a/1x1"
  type: "Convolution"
  bottom: "pool2/3x3_s2"
  top: "inception_3a/1x1"
  param {
    lr_mult: 1
    decay_mult: 1
  }
  param {
    lr_mult: 2
    decay_mult: 0
  }
  convolution_param {
    num_output: 64
    kernel_size: 1
    weight_filler {
      type: "xavier"
      std: 0.03
    }
    bias_filler {
      type: "constant"
      value: 0.2
    }
  }
}
layer {
  name: "inception_3a/relu_1x1"
  type: "ReLU"
  bottom: "inception_3a/1x1"
  top: "inception_3a/1x1"
}
layer {
  name: "inception_3a/3x3_reduce"
  type: "Convolution"
  bottom: "pool2/3x3_s2"
  top: "inception_3a/3x3_reduce"
  param {
    lr_mult: 1
    decay_mult: 1
  }
  param {
    lr_mult: 2
    decay_mult: 0
  }
  convolution_param {
    num_output: 96
    kernel_size: 1
    weight_filler {
      type: "xavier"
      std: 0.09
    }
    bias_filler {
      type: "constant"
      value: 0.2
    }
  }
}
layer {
  name: "inception_3a/relu_3x3_reduce"
  type: "ReLU"
  bottom: "inception_3a/3x3_reduce"
  top: "inception_3a/3x3_reduce"
}
layer {
  name: "inception_3a/3x3"
  type: "Convolution"
  bottom: "inception_3a/3x3_reduce"
  top: "inception_3a/3x3"
  param {
    lr_mult: 1
    decay_mult: 1
  }
  param {
    lr_mult: 2
    decay_mult: 0
  }
  convolution_param {
    num_output: 128
    pad: 1
    kernel_size: 3
    weight_filler {
      type: "xavier"
      std: 0.03
    }
    bias_filler {
      type: "constant"
      value: 0.2
    }
  }
}
layer {
  name: "inception_3a/relu_3x3"
  type: "ReLU"
  bottom: "inception_3a/3x3"
  top: "inception_3a/3x3"
}
layer {
  name: "inception_3a/5x5_reduce"
  type: "Convolution"
  bottom: "pool2/3x3_s2"
  top: "inception_3a/5x5_reduce"
  param {
    lr_mult: 1
    decay_mult: 1
  }
  param {
    lr_mult: 2
    decay_mult: 0
  }
  convolution_param {
    num_output: 16
    kernel_size: 1
    weight_filler {
      type: "xavier"
      std: 0.2
    }
    bias_filler {
      type: "constant"
      value: 0.2
    }
  }
}
layer {
  name: "inception_3a/relu_5x5_reduce"
  type: "ReLU"
  bottom: "inception_3a/5x5_reduce"
  top: "inception_3a/5x5_reduce"
}
layer {
  name: "inception_3a/5x5"
  type: "Convolution"
  bottom: "inception_3a/5x5_reduce"
  top: "inception_3a/5x5"
  param {
    lr_mult: 1
    decay_mult: 1
  }
  param {
    lr_mult: 2
    decay_mult: 0
  }
  convolution_param {
    num_output: 32
    pad: 2
    kernel_size: 5
    weight_filler {
      type: "xavier"
      std: 0.03
    }
    bias_filler {
      type: "constant"
      value: 0.2
    }
  }
}
layer {
  name: "inception_3a/relu_5x5"
  type: "ReLU"
  bottom: "inception_3a/5x5"
  top: "inception_3a/5x5"
}
layer {
  name: "inception_3a/pool"
  type: "Pooling"
  bottom: "pool2/3x3_s2"
  top: "inception_3a/pool"
  pooling_param {
    pool: MAX
    kernel_size: 3
    stride: 1
    pad: 1
  }
}
layer {
  name: "inception_3a/pool_proj"
  type: "Convolution"
  bottom: "inception_3a/pool"
  top: "inception_3a/pool_proj"
  param {
    lr_mult: 1
    decay_mult: 1
  }
  param {
    lr_mult: 2
    decay_mult: 0
  }
  convolution_param {
    num_output: 32
    kernel_size: 1
    weight_filler {
      type: "xavier"
      std: 0.1
    }
    bias_filler {
      type: "constant"
      value: 0.2
    }
  }
}
layer {
  name: "inception_3a/relu_pool_proj"
  type: "ReLU"
  bottom: "inception_3a/pool_proj"
  top: "inception_3a/pool_proj"
}
layer {
  name: "inception_3a/output"
  type: "Concat"
  bottom: "inception_3a/1x1"
  bottom: "inception_3a/3x3"
  bottom: "inception_3a/5x5"
  bottom: "inception_3a/pool_proj"
  top: "inception_3a/output"
}
layer {
  name: "inception_3b/1x1"
  type: "Convolution"
  bottom: "inception_3a/output"
  top: "inception_3b/1x1"
  param {
    lr_mult: 1
    decay_mult: 1
  }
  param {
    lr_mult: 2
    decay_mult: 0
  }
  convolution_param {
    num_output: 128
    kernel_size: 1
    weight_filler {
      type: "xavier"
      std: 0.03
    }
    bias_filler {
      type: "constant"
      value: 0.2
    }
  }
}
layer {
  name: "inception_3b/relu_1x1"
  type: "ReLU"
  bottom: "inception_3b/1x1"
  top: "inception_3b/1x1"
}
layer {
  name: "inception_3b/3x3_reduce"
  type: "Convolution"
  bottom: "inception_3a/output"
  top: "inception_3b/3x3_reduce"
  param {
    lr_mult: 1
    decay_mult: 1
  }
  param {
    lr_mult: 2
    decay_mult: 0
  }
  convolution_param {
    num_output: 128
    kernel_size: 1
    weight_filler {
      type: "xavier"
      std: 0.09
    }
    bias_filler {
      type: "constant"
      value: 0.2
    }
  }
}
layer {
  name: "inception_3b/relu_3x3_reduce"
  type: "ReLU"
  bottom: "inception_3b/3x3_reduce"
  top: "inception_3b/3x3_reduce"
}
layer {
  name: "inception_3b/3x3"
  type: "Convolution"
  bottom: "inception_3b/3x3_reduce"
  top: "inception_3b/3x3"
  param {
    lr_mult: 1
    decay_mult: 1
  }
  param {
    lr_mult: 2
    decay_mult: 0
  }
  convolution_param {
    num_output: 192
    pad: 1
    kernel_size: 3
    weight_filler {
      type: "xavier"
      std: 0.03
    }
    bias_filler {
      type: "constant"
      value: 0.2
    }
  }
}
layer {
  name: "inception_3b/relu_3x3"
  type: "ReLU"
  bottom: "inception_3b/3x3"
  top: "inception_3b/3x3"
}
layer {
  name: "inception_3b/5x5_reduce"
  type: "Convolution"
  bottom: "inception_3a/output"
  top: "inception_3b/5x5_reduce"
  param {
    lr_mult: 1
    decay_mult: 1
  }
  param {
    lr_mult: 2
    decay_mult: 0
  }
  convolution_param {
    num_output: 32
    kernel_size: 1
    weight_filler {
      type: "xavier"
      std: 0.2
    }
    bias_filler {
      type: "constant"
      value: 0.2
    }
  }
}
layer {
  name: "inception_3b/relu_5x5_reduce"
  type: "ReLU"
  bottom: "inception_3b/5x5_reduce"
  top: "inception_3b/5x5_reduce"
}
layer {
  name: "inception_3b/5x5"
  type: "Convolution"
  bottom: "inception_3b/5x5_reduce"
  top: "inception_3b/5x5"
  param {
    lr_mult: 1
    decay_mult: 1
  }
  param {
    lr_mult: 2
    decay_mult: 0
  }
  convolution_param {
    num_output: 96
    pad: 2
    kernel_size: 5
    weight_filler {
      type: "xavier"
      std: 0.03
    }
    bias_filler {
      type: "constant"
      value: 0.2
    }
  }
}
layer {
  name: "inception_3b/relu_5x5"
  type: "ReLU"
  bottom: "inception_3b/5x5"
  top: "inception_3b/5x5"
}
layer {
  name: "inception_3b/pool"
  type: "Pooling"
  bottom: "inception_3a/output"
  top: "inception_3b/pool"
  pooling_param {
    pool: MAX
    kernel_size: 3
    stride: 1
    pad: 1
  }
}
layer {
  name: "inception_3b/pool_proj"
  type: "Convolution"
  bottom: "inception_3b/pool"
  top: "inception_3b/pool_proj"
  param {
    lr_mult: 1
    decay_mult: 1
  }
  param {
    lr_mult: 2
    decay_mult: 0
  }
  convolution_param {
    num_output: 64
    kernel_size: 1
    weight_filler {
      type: "xavier"
      std: 0.1
    }
    bias_filler {
      type: "constant"
      value: 0.2
    }
  }
}
layer {
  name: "inception_3b/relu_pool_proj"
  type: "ReLU"
  bottom: "inception_3b/pool_proj"
  top: "inception_3b/pool_proj"
}
layer {
  name: "inception_3b/output"
  type: "Concat"
  bottom: "inception_3b/1x1"
  bottom: "inception_3b/3x3"
  bottom: "inception_3b/5x5"
  bottom: "inception_3b/pool_proj"
  top: "inception_3b/output"
}
layer {
  name: "pool3/3x3_s2"
  type: "Pooling"
  bottom: "inception_3b/output"
  top: "pool3/3x3_s2"
  pooling_param {
    pool: MAX
    kernel_size: 3
    stride: 2
  }
}
layer {
  name: "inception_4a/1x1"
  type: "Convolution"
  bottom: "pool3/3x3_s2"
  top: "inception_4a/1x1"
  param {
    lr_mult: 1
    decay_mult: 1
  }
  param {
    lr_mult: 2
    decay_mult: 0
  }
  convolution_param {
    num_output: 192
    kernel_size: 1
    weight_filler {
      type: "xavier"
      std: 0.03
    }
    bias_filler {
      type: "constant"
      value: 0.2
    }
  }
}
layer {
  name: "inception_4a/relu_1x1"
  type: "ReLU"
  bottom: "inception_4a/1x1"
  top: "inception_4a/1x1"
}
layer {
  name: "inception_4a/3x3_reduce"
  type: "Convolution"
  bottom: "pool3/3x3_s2"
  top: "inception_4a/3x3_reduce"
  param {
    lr_mult: 1
    decay_mult: 1
  }
  param {
    lr_mult: 2
    decay_mult: 0
  }
  convolution_param {
    num_output: 96
    kernel_size: 1
    weight_filler {
      type: "xavier"
      std: 0.09
    }
    bias_filler {
      type: "constant"
      value: 0.2
    }
  }
}
layer {
  name: "inception_4a/relu_3x3_reduce"
  type: "ReLU"
  bottom: "inception_4a/3x3_reduce"
  top: "inception_4a/3x3_reduce"
}
layer {
  name: "inception_4a/3x3"
  type: "Convolution"
  bottom: "inception_4a/3x3_reduce"
  top: "inception_4a/3x3"
  param {
    lr_mult: 1
    decay_mult: 1
  }
  param {
    lr_mult: 2
    decay_mult: 0
  }
  convolution_param {
    num_output: 208
    pad: 1
    kernel_size: 3
    weight_filler {
      type: "xavier"
      std: 0.03
    }
    bias_filler {
      type: "constant"
      value: 0.2
    }
  }
}
layer {
  name: "inception_4a/relu_3x3"
  type: "ReLU"
  bottom: "inception_4a/3x3"
  top: "inception_4a/3x3"
}
layer {
  name: "inception_4a/5x5_reduce"
  type: "Convolution"
  bottom: "pool3/3x3_s2"
  top: "inception_4a/5x5_reduce"
  param {
    lr_mult: 1
    decay_mult: 1
  }
  param {
    lr_mult: 2
    decay_mult: 0
  }
  convolution_param {
    num_output: 16
    kernel_size: 1
    weight_filler {
      type: "xavier"
      std: 0.2
    }
    bias_filler {
      type: "constant"
      value: 0.2
    }
  }
}
layer {
  name: "inception_4a/relu_5x5_reduce"
  type: "ReLU"
  bottom: "inception_4a/5x5_reduce"
  top: "inception_4a/5x5_reduce"
}
layer {
  name: "inception_4a/5x5"
  type: "Convolution"
  bottom: "inception_4a/5x5_reduce"
  top: "inception_4a/5x5"
  param {
    lr_mult: 1
    decay_mult: 1
  }
  param {
    lr_mult: 2
    decay_mult: 0
  }
  convolution_param {
    num_output: 48
    pad: 2
    kernel_size: 5
    weight_filler {
      type: "xavier"
      std: 0.03
    }
    bias_filler {
      type: "constant"
      value: 0.2
    }
  }
}
layer {
  name: "inception_4a/relu_5x5"
  type: "ReLU"
  bottom: "inception_4a/5x5"
  top: "inception_4a/5x5"
}
layer {
  name: "inception_4a/pool"
  type: "Pooling"
  bottom: "pool3/3x3_s2"
  top: "inception_4a/pool"
  pooling_param {
    pool: MAX
    kernel_size: 3
    stride: 1
    pad: 1
  }
}
layer {
  name: "inception_4a/pool_proj"
  type: "Convolution"
  bottom: "inception_4a/pool"
  top: "inception_4a/pool_proj"
  param {
    lr_mult: 1
    decay_mult: 1
  }
  param {
    lr_mult: 2
    decay_mult: 0
  }
  convolution_param {
    num_output: 64
    kernel_size: 1
    weight_filler {
      type: "xavier"
      std: 0.1
    }
    bias_filler {
      type: "constant"
      value: 0.2
    }
  }
}
layer {
  name: "inception_4a/relu_pool_proj"
  type: "ReLU"
  bottom: "inception_4a/pool_proj"
  top: "inception_4a/pool_proj"
}
layer {
  name: "inception_4a/output"
  type: "Concat"
  bottom: "inception_4a/1x1"
  bottom: "inception_4a/3x3"
  bottom: "inception_4a/5x5"
  bottom: "inception_4a/pool_proj"
  top: "inception_4a/output"
}
layer {
  name: "loss1/ave_pool"
  type: "Pooling"
  bottom: "inception_4a/output"
  top: "loss1/ave_pool"
  pooling_param {
    pool: AVE
    kernel_size: 5
    stride: 3
  }
}
layer {
  name: "loss1/conv"
  type: "Convolution"
  bottom: "loss1/ave_pool"
  top: "loss1/conv"
  param {
    lr_mult: 1
    decay_mult: 1
  }
  param {
    lr_mult: 2
    decay_mult: 0
  }
  convolution_param {
    num_output: 128
    kernel_size: 1
    weight_filler {
      type: "xavier"
      std: 0.08
    }
    bias_filler {
      type: "constant"
      value: 0.2
    }
  }
}
layer {
  name: "loss1/relu_conv"
  type: "ReLU"
  bottom: "loss1/conv"
  top: "loss1/conv"
}
layer {
  name: "loss1/fc"
  type: "InnerProduct"
  bottom: "loss1/conv"
  top: "loss1/fc"
  param {
    lr_mult: 1
    decay_mult: 1
  }
  param {
    lr_mult: 2
    decay_mult: 0
  }
  inner_product_param {
    num_output: 1024
    weight_filler {
      type: "xavier"
      std: 0.02
    }
    bias_filler {
      type: "constant"
      value: 0.2
    }
  }
}
layer {
  name: "loss1/relu_fc"
  type: "ReLU"
  bottom: "loss1/fc"
  top: "loss1/fc"
}
layer {
  name: "loss1/drop_fc"
  type: "Dropout"
  bottom: "loss1/fc"
  top: "loss1/fc"
  dropout_param {
    dropout_ratio: 0.7
  }
}
layer {
  name: "loss1/classifier_plantvillage"
  type: "InnerProduct"
  bottom: "loss1/fc"
  top: "loss1/classifier_plantvillage"
  param {
    lr_mult: 1
    decay_mult: 1
  }
  param {
    lr_mult: 2
    decay_mult: 0
  }
  inner_product_param {
    num_output: 38
    weight_filler {
      type: "xavier"
      std: 0.0009765625
    }
    bias_filler {
      type: "constant"
      value: 0
    }
  }
}
layer {
  name: "inception_4b/1x1"
  type: "Convolution"
  bottom: "inception_4a/output"
  top: "inception_4b/1x1"
  param {
    lr_mult: 1
    decay_mult: 1
  }
  param {
    lr_mult: 2
    decay_mult: 0
  }
  convolution_param {
    num_output: 160
    kernel_size: 1
    weight_filler {
      type: "xavier"
      std: 0.03
    }
    bias_filler {
      type: "constant"
      value: 0.2
    }
  }
}
layer {
  name: "inception_4b/relu_1x1"
  type: "ReLU"
  bottom: "inception_4b/1x1"
  top: "inception_4b/1x1"
}
layer {
  name: "inception_4b/3x3_reduce"
  type: "Convolution"
  bottom: "inception_4a/output"
  top: "inception_4b/3x3_reduce"
  param {
    lr_mult: 1
    decay_mult: 1
  }
  param {
    lr_mult: 2
    decay_mult: 0
  }
  convolution_param {
    num_output: 112
    kernel_size: 1
    weight_filler {
      type: "xavier"
      std: 0.09
    }
    bias_filler {
      type: "constant"
      value: 0.2
    }
  }
}
layer {
  name: "inception_4b/relu_3x3_reduce"
  type: "ReLU"
  bottom: "inception_4b/3x3_reduce"
  top: "inception_4b/3x3_reduce"
}
layer {
  name: "inception_4b/3x3"
  type: "Convolution"
  bottom: "inception_4b/3x3_reduce"
  top: "inception_4b/3x3"
  param {
    lr_mult: 1
    decay_mult: 1
  }
  param {
    lr_mult: 2
    decay_mult: 0
  }
  convolution_param {
    num_output: 224
    pad: 1
    kernel_size: 3
    weight_filler {
      type: "xavier"
      std: 0.03
    }
    bias_filler {
      type: "constant"
      value: 0.2
    }
  }
}
layer {
  name: "inception_4b/relu_3x3"
  type: "ReLU"
  bottom: "inception_4b/3x3"
  top: "inception_4b/3x3"
}
layer {
  name: "inception_4b/5x5_reduce"
  type: "Convolution"
  bottom: "inception_4a/output"
  top: "inception_4b/5x5_reduce"
  param {
    lr_mult: 1
    decay_mult: 1
  }
  param {
    lr_mult: 2
    decay_mult: 0
  }
  convolution_param {
    num_output: 24
    kernel_size: 1
    weight_filler {
      type: "xavier"
      std: 0.2
    }
    bias_filler {
      type: "constant"
      value: 0.2
    }
  }
}
layer {
  name: "inception_4b/relu_5x5_reduce"
  type: "ReLU"
  bottom: "inception_4b/5x5_reduce"
  top: "inception_4b/5x5_reduce"
}
layer {
  name: "inception_4b/5x5"
  type: "Convolution"
  bottom: "inception_4b/5x5_reduce"
  top: "inception_4b/5x5"
  param {
    lr_mult: 1
    decay_mult: 1
  }
  param {
    lr_mult: 2
    decay_mult: 0
  }
  convolution_param {
    num_output: 64
    pad: 2
    kernel_size: 5
    weight_filler {
      type: "xavier"
      std: 0.03
    }
    bias_filler {
      type: "constant"
      value: 0.2
    }
  }
}
layer {
  name: "inception_4b/relu_5x5"
  type: "ReLU"
  bottom: "inception_4b/5x5"
  top: "inception_4b/5x5"
}
layer {
  name: "inception_4b/pool"
  type: "Pooling"
  bottom: "inception_4a/output"
  top: "inception_4b/pool"
  pooling_param {
    pool: MAX
    kernel_size: 3
    stride: 1
    pad: 1
  }
}
layer {
  name: "inception_4b/pool_proj"
  type: "Convolution"
  bottom: "inception_4b/pool"
  top: "inception_4b/pool_proj"
  param {
    lr_mult: 1
    decay_mult: 1
  }
  param {
    lr_mult: 2
    decay_mult: 0
  }
  convolution_param {
    num_output: 64
    kernel_size: 1
    weight_filler {
      type: "xavier"
      std: 0.1
    }
    bias_filler {
      type: "constant"
      value: 0.2
    }
  }
}
layer {
  name: "inception_4b/relu_pool_proj"
  type: "ReLU"
  bottom: "inception_4b/pool_proj"
  top: "inception_4b/pool_proj"
}
layer {
  name: "inception_4b/output"
  type: "Concat"
  bottom: "inception_4b/1x1"
  bottom: "inception_4b/3x3"
  bottom: "inception_4b/5x5"
  bottom: "inception_4b/pool_proj"
  top: "inception_4b/output"
}
layer {
  name: "inception_4c/1x1"
  type: "Convolution"
  bottom: "inception_4b/output"
  top: "inception_4c/1x1"
  param {
    lr_mult: 1
    decay_mult: 1
  }
  param {
    lr_mult: 2
    decay_mult: 0
  }
  convolution_param {
    num_output: 128
    kernel_size: 1
    weight_filler {
      type: "xavier"
      std: 0.03
    }
    bias_filler {
      type: "constant"
      value: 0.2
    }
  }
}
layer {
  name: "inception_4c/relu_1x1"
  type: "ReLU"
  bottom: "inception_4c/1x1"
  top: "inception_4c/1x1"
}
layer {
  name: "inception_4c/3x3_reduce"
  type: "Convolution"
  bottom: "inception_4b/output"
  top: "inception_4c/3x3_reduce"
  param {
    lr_mult: 1
    decay_mult: 1
  }
  param {
    lr_mult: 2
    decay_mult: 0
  }
  convolution_param {
    num_output: 128
    kernel_size: 1
    weight_filler {
      type: "xavier"
      std: 0.09
    }
    bias_filler {
      type: "constant"
      value: 0.2
    }
  }
}
layer {
  name: "inception_4c/relu_3x3_reduce"
  type: "ReLU"
  bottom: "inception_4c/3x3_reduce"
  top: "inception_4c/3x3_reduce"
}
layer {
  name: "inception_4c/3x3"
  type: "Convolution"
  bottom: "inception_4c/3x3_reduce"
  top: "inception_4c/3x3"
  param {
    lr_mult: 1
    decay_mult: 1
  }
  param {
    lr_mult: 2
    decay_mult: 0
  }
  convolution_param {
    num_output: 256
    pad: 1
    kernel_size: 3
    weight_filler {
      type: "xavier"
      std: 0.03
    }
    bias_filler {
      type: "constant"
      value: 0.2
    }
  }
}
layer {
  name: "inception_4c/relu_3x3"
  type: "ReLU"
  bottom: "inception_4c/3x3"
  top: "inception_4c/3x3"
}
layer {
  name: "inception_4c/5x5_reduce"
  type: "Convolution"
  bottom: "inception_4b/output"
  top: "inception_4c/5x5_reduce"
  param {
    lr_mult: 1
    decay_mult: 1
  }
  param {
    lr_mult: 2
    decay_mult: 0
  }
  convolution_param {
    num_output: 24
    kernel_size: 1
    weight_filler {
      type: "xavier"
      std: 0.2
    }
    bias_filler {
      type: "constant"
      value: 0.2
    }
  }
}
layer {
  name: "inception_4c/relu_5x5_reduce"
  type: "ReLU"
  bottom: "inception_4c/5x5_reduce"
  top: "inception_4c/5x5_reduce"
}
layer {
  name: "inception_4c/5x5"
  type: "Convolution"
  bottom: "inception_4c/5x5_reduce"
  top: "inception_4c/5x5"
  param {
    lr_mult: 1
    decay_mult: 1
  }
  param {
    lr_mult: 2
    decay_mult: 0
  }
  convolution_param {
    num_output: 64
    pad: 2
    kernel_size: 5
    weight_filler {
      type: "xavier"
      std: 0.03
    }
    bias_filler {
      type: "constant"
      value: 0.2
    }
  }
}
layer {
  name: "inception_4c/relu_5x5"
  type: "ReLU"
  bottom: "inception_4c/5x5"
  top: "inception_4c/5x5"
}
layer {
  name: "inception_4c/pool"
  type: "Pooling"
  bottom: "inception_4b/output"
  top: "inception_4c/pool"
  pooling_param {
    pool: MAX
    kernel_size: 3
    stride: 1
    pad: 1
  }
}
layer {
  name: "inception_4c/pool_proj"
  type: "Convolution"
  bottom: "inception_4c/pool"
  top: "inception_4c/pool_proj"
  param {
    lr_mult: 1
    decay_mult: 1
  }
  param {
    lr_mult: 2
    decay_mult: 0
  }
  convolution_param {
    num_output: 64
    kernel_size: 1
    weight_filler {
      type: "xavier"
      std: 0.1
    }
    bias_filler {
      type: "constant"
      value: 0.2
    }
  }
}
layer {
  name: "inception_4c/relu_pool_proj"
  type: "ReLU"
  bottom: "inception_4c/pool_proj"
  top: "inception_4c/pool_proj"
}
layer {
  name: "inception_4c/output"
  type: "Concat"
  bottom: "inception_4c/1x1"
  bottom: "inception_4c/3x3"
  bottom: "inception_4c/5x5"
  bottom: "inception_4c/pool_proj"
  top: "inception_4c/output"
}
layer {
  name: "inception_4d/1x1"
  type: "Convolution"
  bottom: "inception_4c/output"
  top: "inception_4d/1x1"
  param {
    lr_mult: 1
    decay_mult: 1
  }
  param {
    lr_mult: 2
    decay_mult: 0
  }
  convolution_param {
    num_output: 112
    kernel_size: 1
    weight_filler {
      type: "xavier"
      std: 0.03
    }
    bias_filler {
      type: "constant"
      value: 0.2
    }
  }
}
layer {
  name: "inception_4d/relu_1x1"
  type: "ReLU"
  bottom: "inception_4d/1x1"
  top: "inception_4d/1x1"
}
layer {
  name: "inception_4d/3x3_reduce"
  type: "Convolution"
  bottom: "inception_4c/output"
  top: "inception_4d/3x3_reduce"
  param {
    lr_mult: 1
    decay_mult: 1
  }
  param {
    lr_mult: 2
    decay_mult: 0
  }
  convolution_param {
    num_output: 144
    kernel_size: 1
    weight_filler {
      type: "xavier"
      std: 0.09
    }
    bias_filler {
      type: "constant"
      value: 0.2
    }
  }
}
layer {
  name: "inception_4d/relu_3x3_reduce"
  type: "ReLU"
  bottom: "inception_4d/3x3_reduce"
  top: "inception_4d/3x3_reduce"
}
layer {
  name: "inception_4d/3x3"
  type: "Convolution"
  bottom: "inception_4d/3x3_reduce"
  top: "inception_4d/3x3"
  param {
    lr_mult: 1
    decay_mult: 1
  }
  param {
    lr_mult: 2
    decay_mult: 0
  }
  convolution_param {
    num_output: 288
    pad: 1
    kernel_size: 3
    weight_filler {
      type: "xavier"
      std: 0.03
    }
    bias_filler {
      type: "constant"
      value: 0.2
    }
  }
}
layer {
  name: "inception_4d/relu_3x3"
  type: "ReLU"
  bottom: "inception_4d/3x3"
  top: "inception_4d/3x3"
}
layer {
  name: "inception_4d/5x5_reduce"
  type: "Convolution"
  bottom: "inception_4c/output"
  top: "inception_4d/5x5_reduce"
  param {
    lr_mult: 1
    decay_mult: 1
  }
  param {
    lr_mult: 2
    decay_mult: 0
  }
  convolution_param {
    num_output: 32
    kernel_size: 1
    weight_filler {
      type: "xavier"
      std: 0.2
    }
    bias_filler {
      type: "constant"
      value: 0.2
    }
  }
}
layer {
  name: "inception_4d/relu_5x5_reduce"
  type: "ReLU"
  bottom: "inception_4d/5x5_reduce"
  top: "inception_4d/5x5_reduce"
}
layer {
  name: "inception_4d/5x5"
  type: "Convolution"
  bottom: "inception_4d/5x5_reduce"
  top: "inception_4d/5x5"
  param {
    lr_mult: 1
    decay_mult: 1
  }
  param {
    lr_mult: 2
    decay_mult: 0
  }
  convolution_param {
    num_output: 64
    pad: 2
    kernel_size: 5
    weight_filler {
      type: "xavier"
      std: 0.03
    }
    bias_filler {
      type: "constant"
      value: 0.2
    }
  }
}
layer {
  name: "inception_4d/relu_5x5"
  type: "ReLU"
  bottom: "inception_4d/5x5"
  top: "inception_4d/5x5"
}
layer {
  name: "inception_4d/pool"
  type: "Pooling"
  bottom: "inception_4c/output"
  top: "inception_4d/pool"
  pooling_param {
    pool: MAX
    kernel_size: 3
    stride: 1
    pad: 1
  }
}
layer {
  name: "inception_4d/pool_proj"
  type: "Convolution"
  bottom: "inception_4d/pool"
  top: "inception_4d/pool_proj"
  param {
    lr_mult: 1
    decay_mult: 1
  }
  param {
    lr_mult: 2
    decay_mult: 0
  }
  convolution_param {
    num_output: 64
    kernel_size: 1
    weight_filler {
      type: "xavier"
      std: 0.1
    }
    bias_filler {
      type: "constant"
      value: 0.2
    }
  }
}
layer {
  name: "inception_4d/relu_pool_proj"
  type: "ReLU"
  bottom: "inception_4d/pool_proj"
  top: "inception_4d/pool_proj"
}
layer {
  name: "inception_4d/output"
  type: "Concat"
  bottom: "inception_4d/1x1"
  bottom: "inception_4d/3x3"
  bottom: "inception_4d/5x5"
  bottom: "inception_4d/pool_proj"
  top: "inception_4d/output"
}
layer {
  name: "loss2/ave_pool"
  type: "Pooling"
  bottom: "inception_4d/output"
  top: "loss2/ave_pool"
  pooling_param {
    pool: AVE
    kernel_size: 5
    stride: 3
  }
}
layer {
  name: "loss2/conv"
  type: "Convolution"
  bottom: "loss2/ave_pool"
  top: "loss2/conv"
  param {
    lr_mult: 1
    decay_mult: 1
  }
  param {
    lr_mult: 2
    decay_mult: 0
  }
  convolution_param {
    num_output: 128
    kernel_size: 1
    weight_filler {
      type: "xavier"
      std: 0.08
    }
    bias_filler {
      type: "constant"
      value: 0.2
    }
  }
}
layer {
  name: "loss2/relu_conv"
  type: "ReLU"
  bottom: "loss2/conv"
  top: "loss2/conv"
}
layer {
  name: "loss2/fc"
  type: "InnerProduct"
  bottom: "loss2/conv"
  top: "loss2/fc"
  param {
    lr_mult: 1
    decay_mult: 1
  }
  param {
    lr_mult: 2
    decay_mult: 0
  }
  inner_product_param {
    num_output: 1024
    weight_filler {
      type: "xavier"
      std: 0.02
    }
    bias_filler {
      type: "constant"
      value: 0.2
    }
  }
}
layer {
  name: "loss2/relu_fc"
  type: "ReLU"
  bottom: "loss2/fc"
  top: "loss2/fc"
}
layer {
  name: "loss2/drop_fc"
  type: "Dropout"
  bottom: "loss2/fc"
  top: "loss2/fc"
  dropout_param {
    dropout_ratio: 0.7
  }
}
layer {
  name: "loss2/classifier_plantvillage"
  type: "InnerProduct"
  bottom: "loss2/fc"
  top: "loss2/classifier_plantvillage"
  param {
    lr_mult: 1
    decay_mult: 1
  }
  param {
    lr_mult: 2
    decay_mult: 0
  }
  inner_product_param {
    num_output: 38
    weight_filler {
      type: "xavier"
      std: 0.0009765625
    }
    bias_filler {
      type: "constant"
      value: 0
    }
  }
}
layer {
  name: "inception_4e/1x1"
  type: "Convolution"
  bottom: "inception_4d/output"
  top: "inception_4e/1x1"
  param {
    lr_mult: 1
    decay_mult: 1
  }
  param {
    lr_mult: 2
    decay_mult: 0
  }
  convolution_param {
    num_output: 256
    kernel_size: 1
    weight_filler {
      type: "xavier"
      std: 0.03
    }
    bias_filler {
      type: "constant"
      value: 0.2
    }
  }
}
layer {
  name: "inception_4e/relu_1x1"
  type: "ReLU"
  bottom: "inception_4e/1x1"
  top: "inception_4e/1x1"
}
layer {
  name: "inception_4e/3x3_reduce"
  type: "Convolution"
  bottom: "inception_4d/output"
  top: "inception_4e/3x3_reduce"
  param {
    lr_mult: 1
    decay_mult: 1
  }
  param {
    lr_mult: 2
    decay_mult: 0
  }
  convolution_param {
    num_output: 160
    kernel_size: 1
    weight_filler {
      type: "xavier"
      std: 0.09
    }
    bias_filler {
      type: "constant"
      value: 0.2
    }
  }
}
layer {
  name: "inception_4e/relu_3x3_reduce"
  type: "ReLU"
  bottom: "inception_4e/3x3_reduce"
  top: "inception_4e/3x3_reduce"
}
layer {
  name: "inception_4e/3x3"
  type: "Convolution"
  bottom: "inception_4e/3x3_reduce"
  top: "inception_4e/3x3"
  param {
    lr_mult: 1
    decay_mult: 1
  }
  param {
    lr_mult: 2
    decay_mult: 0
  }
  convolution_param {
    num_output: 320
    pad: 1
    kernel_size: 3
    weight_filler {
      type: "xavier"
      std: 0.03
    }
    bias_filler {
      type: "constant"
      value: 0.2
    }
  }
}
layer {
  name: "inception_4e/relu_3x3"
  type: "ReLU"
  bottom: "inception_4e/3x3"
  top: "inception_4e/3x3"
}
layer {
  name: "inception_4e/5x5_reduce"
  type: "Convolution"
  bottom: "inception_4d/output"
  top: "inception_4e/5x5_reduce"
  param {
    lr_mult: 1
    decay_mult: 1
  }
  param {
    lr_mult: 2
    decay_mult: 0
  }
  convolution_param {
    num_output: 32
    kernel_size: 1
    weight_filler {
      type: "xavier"
      std: 0.2
    }
    bias_filler {
      type: "constant"
      value: 0.2
    }
  }
}
layer {
  name: "inception_4e/relu_5x5_reduce"
  type: "ReLU"
  bottom: "inception_4e/5x5_reduce"
  top: "inception_4e/5x5_reduce"
}
layer {
  name: "inception_4e/5x5"
  type: "Convolution"
  bottom: "inception_4e/5x5_reduce"
  top: "inception_4e/
I0403 15:48:16.363544 11370 layer_factory.hpp:77] Creating layer data
I0403 15:48:16.364145 11370 net.cpp:91] Creating Layer data
I0403 15:48:16.364178 11370 net.cpp:399] data -> data
I0403 15:48:16.364228 11370 net.cpp:399] data -> label
I0403 15:48:16.364265 11370 data_transformer.cpp:25] Loading mean file from: /home/mohanty/data/final_dataset/lmdb/segmented-80-20/mean.binaryproto
I0403 15:48:16.367800 11373 db_lmdb.cpp:38] Opened lmdb /home/mohanty/data/final_dataset/lmdb/segmented-80-20/test_db
I0403 15:48:16.377286 11370 data_layer.cpp:41] output data size: 24,3,224,224
I0403 15:48:16.404461 11370 net.cpp:141] Setting up data
I0403 15:48:16.404549 11370 net.cpp:148] Top shape: 24 3 224 224 (3612672)
I0403 15:48:16.404572 11370 net.cpp:148] Top shape: 24 (24)
I0403 15:48:16.404587 11370 net.cpp:156] Memory required for data: 14450784
I0403 15:48:16.404614 11370 layer_factory.hpp:77] Creating layer label_data_1_split
I0403 15:48:16.404641 11370 net.cpp:91] Creating Layer label_data_1_split
I0403 15:48:16.404659 11370 net.cpp:425] label_data_1_split <- label
I0403 15:48:16.404690 11370 net.cpp:399] label_data_1_split -> label_data_1_split_0
I0403 15:48:16.404718 11370 net.cpp:399] label_data_1_split -> label_data_1_split_1
I0403 15:48:16.404741 11370 net.cpp:399] label_data_1_split -> label_data_1_split_2
I0403 15:48:16.404762 11370 net.cpp:399] label_data_1_split -> label_data_1_split_3
I0403 15:48:16.404781 11370 net.cpp:399] label_data_1_split -> label_data_1_split_4
I0403 15:48:16.404801 11370 net.cpp:399] label_data_1_split -> label_data_1_split_5
I0403 15:48:16.404821 11370 net.cpp:399] label_data_1_split -> label_data_1_split_6
I0403 15:48:16.404841 11370 net.cpp:399] label_data_1_split -> label_data_1_split_7
I0403 15:48:16.404861 11370 net.cpp:399] label_data_1_split -> label_data_1_split_8
I0403 15:48:16.404881 11370 net.cpp:399] label_data_1_split -> label_data_1_split_9
I0403 15:48:16.405002 11370 net.cpp:141] Setting up label_data_1_split
I0403 15:48:16.405027 11370 net.cpp:148] Top shape: 24 (24)
I0403 15:48:16.405045 11370 net.cpp:148] Top shape: 24 (24)
I0403 15:48:16.405061 11370 net.cpp:148] Top shape: 24 (24)
I0403 15:48:16.405077 11370 net.cpp:148] Top shape: 24 (24)
I0403 15:48:16.405092 11370 net.cpp:148] Top shape: 24 (24)
I0403 15:48:16.405108 11370 net.cpp:148] Top shape: 24 (24)
I0403 15:48:16.405124 11370 net.cpp:148] Top shape: 24 (24)
I0403 15:48:16.405140 11370 net.cpp:148] Top shape: 24 (24)
I0403 15:48:16.405155 11370 net.cpp:148] Top shape: 24 (24)
I0403 15:48:16.405171 11370 net.cpp:148] Top shape: 24 (24)
I0403 15:48:16.405218 11370 net.cpp:156] Memory required for data: 14451744
I0403 15:48:16.405235 11370 layer_factory.hpp:77] Creating layer conv1/7x7_s2
I0403 15:48:16.405267 11370 net.cpp:91] Creating Layer conv1/7x7_s2
I0403 15:48:16.405285 11370 net.cpp:425] conv1/7x7_s2 <- data
I0403 15:48:16.405305 11370 net.cpp:399] conv1/7x7_s2 -> conv1/7x7_s2
I0403 15:48:16.547449 11370 net.cpp:141] Setting up conv1/7x7_s2
I0403 15:48:16.547538 11370 net.cpp:148] Top shape: 24 64 112 112 (19267584)
I0403 15:48:16.547554 11370 net.cpp:156] Memory required for data: 91522080
I0403 15:48:16.547585 11370 layer_factory.hpp:77] Creating layer conv1/relu_7x7
I0403 15:48:16.547610 11370 net.cpp:91] Creating Layer conv1/relu_7x7
I0403 15:48:16.547628 11370 net.cpp:425] conv1/relu_7x7 <- conv1/7x7_s2
I0403 15:48:16.547646 11370 net.cpp:386] conv1/relu_7x7 -> conv1/7x7_s2 (in-place)
I0403 15:48:16.547894 11370 net.cpp:141] Setting up conv1/relu_7x7
I0403 15:48:16.547919 11370 net.cpp:148] Top shape: 24 64 112 112 (19267584)
I0403 15:48:16.547935 11370 net.cpp:156] Memory required for data: 168592416
I0403 15:48:16.547950 11370 layer_factory.hpp:77] Creating layer pool1/3x3_s2
I0403 15:48:16.547974 11370 net.cpp:91] Creating Layer pool1/3x3_s2
I0403 15:48:16.547996 11370 net.cpp:425] pool1/3x3_s2 <- conv1/7x7_s2
I0403 15:48:16.548015 11370 net.cpp:399] pool1/3x3_s2 -> pool1/3x3_s2
I0403 15:48:16.548087 11370 net.cpp:141] Setting up pool1/3x3_s2
I0403 15:48:16.548111 11370 net.cpp:148] Top shape: 24 64 56 56 (4816896)
I0403 15:48:16.548125 11370 net.cpp:156] Memory required for data: 187860000
I0403 15:48:16.548141 11370 layer_factory.hpp:77] Creating layer pool1/norm1
I0403 15:48:16.548163 11370 net.cpp:91] Creating Layer pool1/norm1
I0403 15:48:16.548180 11370 net.cpp:425] pool1/norm1 <- pool1/3x3_s2
I0403 15:48:16.548198 11370 net.cpp:399] pool1/norm1 -> pool1/norm1
I0403 15:48:16.548470 11370 net.cpp:141] Setting up pool1/norm1
I0403 15:48:16.548496 11370 net.cpp:148] Top shape: 24 64 56 56 (4816896)
I0403 15:48:16.548511 11370 net.cpp:156] Memory required for data: 207127584
I0403 15:48:16.548526 11370 layer_factory.hpp:77] Creating layer conv2/3x3_reduce
I0403 15:48:16.548550 11370 net.cpp:91] Creating Layer conv2/3x3_reduce
I0403 15:48:16.548568 11370 net.cpp:425] conv2/3x3_reduce <- pool1/norm1
I0403 15:48:16.548585 11370 net.cpp:399] conv2/3x3_reduce -> conv2/3x3_reduce
I0403 15:48:16.549885 11370 net.cpp:141] Setting up conv2/3x3_reduce
I0403 15:48:16.549913 11370 net.cpp:148] Top shape: 24 64 56 56 (4816896)
I0403 15:48:16.549928 11370 net.cpp:156] Memory required for data: 226395168
I0403 15:48:16.549948 11370 layer_factory.hpp:77] Creating layer conv2/relu_3x3_reduce
I0403 15:48:16.549968 11370 net.cpp:91] Creating Layer conv2/relu_3x3_reduce
I0403 15:48:16.549986 11370 net.cpp:425] conv2/relu_3x3_reduce <- conv2/3x3_reduce
I0403 15:48:16.550004 11370 net.cpp:386] conv2/relu_3x3_reduce -> conv2/3x3_reduce (in-place)
I0403 15:48:16.550246 11370 net.cpp:141] Setting up conv2/relu_3x3_reduce
I0403 15:48:16.550272 11370 net.cpp:148] Top shape: 24 64 56 56 (4816896)
I0403 15:48:16.550287 11370 net.cpp:156] Memory required for data: 245662752
I0403 15:48:16.550302 11370 layer_factory.hpp:77] Creating layer conv2/3x3
I0403 15:48:16.550323 11370 net.cpp:91] Creating Layer conv2/3x3
I0403 15:48:16.550339 11370 net.cpp:425] conv2/3x3 <- conv2/3x3_reduce
I0403 15:48:16.550356 11370 net.cpp:399] conv2/3x3 -> conv2/3x3
I0403 15:48:16.552543 11370 net.cpp:141] Setting up conv2/3x3
I0403 15:48:16.552573 11370 net.cpp:148] Top shape: 24 192 56 56 (14450688)
I0403 15:48:16.552588 11370 net.cpp:156] Memory required for data: 303465504
I0403 15:48:16.552609 11370 layer_factory.hpp:77] Creating layer conv2/relu_3x3
I0403 15:48:16.552626 11370 net.cpp:91] Creating Layer conv2/relu_3x3
I0403 15:48:16.552642 11370 net.cpp:425] conv2/relu_3x3 <- conv2/3x3
I0403 15:48:16.552659 11370 net.cpp:386] conv2/relu_3x3 -> conv2/3x3 (in-place)
I0403 15:48:16.552814 11370 net.cpp:141] Setting up conv2/relu_3x3
I0403 15:48:16.552839 11370 net.cpp:148] Top shape: 24 192 56 56 (14450688)
I0403 15:48:16.552883 11370 net.cpp:156] Memory required for data: 361268256
I0403 15:48:16.552899 11370 layer_factory.hpp:77] Creating layer conv2/norm2
I0403 15:48:16.552917 11370 net.cpp:91] Creating Layer conv2/norm2
I0403 15:48:16.552932 11370 net.cpp:425] conv2/norm2 <- conv2/3x3
I0403 15:48:16.552950 11370 net.cpp:399] conv2/norm2 -> conv2/norm2
I0403 15:48:16.553227 11370 net.cpp:141] Setting up conv2/norm2
I0403 15:48:16.553253 11370 net.cpp:148] Top shape: 24 192 56 56 (14450688)
I0403 15:48:16.553268 11370 net.cpp:156] Memory required for data: 419071008
I0403 15:48:16.553282 11370 layer_factory.hpp:77] Creating layer pool2/3x3_s2
I0403 15:48:16.553299 11370 net.cpp:91] Creating Layer pool2/3x3_s2
I0403 15:48:16.553314 11370 net.cpp:425] pool2/3x3_s2 <- conv2/norm2
I0403 15:48:16.553331 11370 net.cpp:399] pool2/3x3_s2 -> pool2/3x3_s2
I0403 15:48:16.553378 11370 net.cpp:141] Setting up pool2/3x3_s2
I0403 15:48:16.553400 11370 net.cpp:148] Top shape: 24 192 28 28 (3612672)
I0403 15:48:16.553414 11370 net.cpp:156] Memory required for data: 433521696
I0403 15:48:16.553428 11370 layer_factory.hpp:77] Creating layer pool2/3x3_s2_pool2/3x3_s2_0_split
I0403 15:48:16.553445 11370 net.cpp:91] Creating Layer pool2/3x3_s2_pool2/3x3_s2_0_split
I0403 15:48:16.553460 11370 net.cpp:425] pool2/3x3_s2_pool2/3x3_s2_0_split <- pool2/3x3_s2
I0403 15:48:16.553478 11370 net.cpp:399] pool2/3x3_s2_pool2/3x3_s2_0_split -> pool2/3x3_s2_pool2/3x3_s2_0_split_0
I0403 15:48:16.553495 11370 net.cpp:399] pool2/3x3_s2_pool2/3x3_s2_0_split -> pool2/3x3_s2_pool2/3x3_s2_0_split_1
I0403 15:48:16.553514 11370 net.cpp:399] pool2/3x3_s2_pool2/3x3_s2_0_split -> pool2/3x3_s2_pool2/3x3_s2_0_split_2
I0403 15:48:16.553532 11370 net.cpp:399] pool2/3x3_s2_pool2/3x3_s2_0_split -> pool2/3x3_s2_pool2/3x3_s2_0_split_3
I0403 15:48:16.553594 11370 net.cpp:141] Setting up pool2/3x3_s2_pool2/3x3_s2_0_split
I0403 15:48:16.553616 11370 net.cpp:148] Top shape: 24 192 28 28 (3612672)
I0403 15:48:16.553632 11370 net.cpp:148] Top shape: 24 192 28 28 (3612672)
I0403 15:48:16.553647 11370 net.cpp:148] Top shape: 24 192 28 28 (3612672)
I0403 15:48:16.553661 11370 net.cpp:148] Top shape: 24 192 28 28 (3612672)
I0403 15:48:16.553674 11370 net.cpp:156] Memory required for data: 491324448
I0403 15:48:16.553688 11370 layer_factory.hpp:77] Creating layer inception_3a/1x1
I0403 15:48:16.553707 11370 net.cpp:91] Creating Layer inception_3a/1x1
I0403 15:48:16.553724 11370 net.cpp:425] inception_3a/1x1 <- pool2/3x3_s2_pool2/3x3_s2_0_split_0
I0403 15:48:16.553740 11370 net.cpp:399] inception_3a/1x1 -> inception_3a/1x1
I0403 15:48:16.555217 11370 net.cpp:141] Setting up inception_3a/1x1
I0403 15:48:16.555244 11370 net.cpp:148] Top shape: 24 64 28 28 (1204224)
I0403 15:48:16.555260 11370 net.cpp:156] Memory required for data: 496141344
I0403 15:48:16.555279 11370 layer_factory.hpp:77] Creating layer inception_3a/relu_1x1
I0403 15:48:16.555299 11370 net.cpp:91] Creating Layer inception_3a/relu_1x1
I0403 15:48:16.555315 11370 net.cpp:425] inception_3a/relu_1x1 <- inception_3a/1x1
I0403 15:48:16.555332 11370 net.cpp:386] inception_3a/relu_1x1 -> inception_3a/1x1 (in-place)
I0403 15:48:16.555506 11370 net.cpp:141] Setting up inception_3a/relu_1x1
I0403 15:48:16.555531 11370 net.cpp:148] Top shape: 24 64 28 28 (1204224)
I0403 15:48:16.555546 11370 net.cpp:156] Memory required for data: 500958240
I0403 15:48:16.555560 11370 layer_factory.hpp:77] Creating layer inception_3a/3x3_reduce
I0403 15:48:16.555583 11370 net.cpp:91] Creating Layer inception_3a/3x3_reduce
I0403 15:48:16.555600 11370 net.cpp:425] inception_3a/3x3_reduce <- pool2/3x3_s2_pool2/3x3_s2_0_split_1
I0403 15:48:16.555619 11370 net.cpp:399] inception_3a/3x3_reduce -> inception_3a/3x3_reduce
I0403 15:48:16.557266 11370 net.cpp:141] Setting up inception_3a/3x3_reduce
I0403 15:48:16.557296 11370 net.cpp:148] Top shape: 24 96 28 28 (1806336)
I0403 15:48:16.557312 11370 net.cpp:156] Memory required for data: 508183584
I0403 15:48:16.557332 11370 layer_factory.hpp:77] Creating layer inception_3a/relu_3x3_reduce
I0403 15:48:16.557368 11370 net.cpp:91] Creating Layer inception_3a/relu_3x3_reduce
I0403 15:48:16.557385 11370 net.cpp:425] inception_3a/relu_3x3_reduce <- inception_3a/3x3_reduce
I0403 15:48:16.557405 11370 net.cpp:386] inception_3a/relu_3x3_reduce -> inception_3a/3x3_reduce (in-place)
I0403 15:48:16.557579 11370 net.cpp:141] Setting up inception_3a/relu_3x3_reduce
I0403 15:48:16.557605 11370 net.cpp:148] Top shape: 24 96 28 28 (1806336)
I0403 15:48:16.557618 11370 net.cpp:156] Memory required for data: 515408928
I0403 15:48:16.557632 11370 layer_factory.hpp:77] Creating layer inception_3a/3x3
I0403 15:48:16.557653 11370 net.cpp:91] Creating Layer inception_3a/3x3
I0403 15:48:16.557670 11370 net.cpp:425] inception_3a/3x3 <- inception_3a/3x3_reduce
I0403 15:48:16.557692 11370 net.cpp:399] inception_3a/3x3 -> inception_3a/3x3
I0403 15:48:16.559305 11370 net.cpp:141] Setting up inception_3a/3x3
I0403 15:48:16.559334 11370 net.cpp:148] Top shape: 24 128 28 28 (2408448)
I0403 15:48:16.559350 11370 net.cpp:156] Memory required for data: 525042720
I0403 15:48:16.559367 11370 layer_factory.hpp:77] Creating layer inception_3a/relu_3x3
I0403 15:48:16.559388 11370 net.cpp:91] Creating Layer inception_3a/relu_3x3
I0403 15:48:16.559404 11370 net.cpp:425] inception_3a/relu_3x3 <- inception_3a/3x3
I0403 15:48:16.559420 11370 net.cpp:386] inception_3a/relu_3x3 -> inception_3a/3x3 (in-place)
I0403 15:48:16.559689 11370 net.cpp:141] Setting up inception_3a/relu_3x3
I0403 15:48:16.559715 11370 net.cpp:148] Top shape: 24 128 28 28 (2408448)
I0403 15:48:16.559733 11370 net.cpp:156] Memory required for data: 534676512
I0403 15:48:16.559748 11370 layer_factory.hpp:77] Creating layer inception_3a/5x5_reduce
I0403 15:48:16.559767 11370 net.cpp:91] Creating Layer inception_3a/5x5_reduce
I0403 15:48:16.559783 11370 net.cpp:425] inception_3a/5x5_reduce <- pool2/3x3_s2_pool2/3x3_s2_0_split_2
I0403 15:48:16.559804 11370 net.cpp:399] inception_3a/5x5_reduce -> inception_3a/5x5_reduce
I0403 15:48:16.560734 11370 net.cpp:141] Setting up inception_3a/5x5_reduce
I0403 15:48:16.560765 11370 net.cpp:148] Top shape: 24 16 28 28 (301056)
I0403 15:48:16.560781 11370 net.cpp:156] Memory required for data: 535880736
I0403 15:48:16.560798 11370 layer_factory.hpp:77] Creating layer inception_3a/relu_5x5_reduce
I0403 15:48:16.560817 11370 net.cpp:91] Creating Layer inception_3a/relu_5x5_reduce
I0403 15:48:16.560832 11370 net.cpp:425] inception_3a/relu_5x5_reduce <- inception_3a/5x5_reduce
I0403 15:48:16.560849 11370 net.cpp:386] inception_3a/relu_5x5_reduce -> inception_3a/5x5_reduce (in-place)
I0403 15:48:16.561146 11370 net.cpp:141] Setting up inception_3a/relu_5x5_reduce
I0403 15:48:16.561172 11370 net.cpp:148] Top shape: 24 16 28 28 (301056)
I0403 15:48:16.561187 11370 net.cpp:156] Memory required for data: 537084960
I0403 15:48:16.561203 11370 layer_factory.hpp:77] Creating layer inception_3a/5x5
I0403 15:48:16.561224 11370 net.cpp:91] Creating Layer inception_3a/5x5
I0403 15:48:16.561241 11370 net.cpp:425] inception_3a/5x5 <- inception_3a/5x5_reduce
I0403 15:48:16.561261 11370 net.cpp:399] inception_3a/5x5 -> inception_3a/5x5
I0403 15:48:16.562284 11370 net.cpp:141] Setting up inception_3a/5x5
I0403 15:48:16.562311 11370 net.cpp:148] Top shape: 24 32 28 28 (602112)
I0403 15:48:16.562326 11370 net.cpp:156] Memory required for data: 539493408
I0403 15:48:16.562345 11370 layer_factory.hpp:77] Creating layer inception_3a/relu_5x5
I0403 15:48:16.562364 11370 net.cpp:91] Creating Layer inception_3a/relu_5x5
I0403 15:48:16.562381 11370 net.cpp:425] inception_3a/relu_5x5 <- inception_3a/5x5
I0403 15:48:16.562398 11370 net.cpp:386] inception_3a/relu_5x5 -> inception_3a/5x5 (in-place)
I0403 15:48:16.562564 11370 net.cpp:141] Setting up inception_3a/relu_5x5
I0403 15:48:16.562592 11370 net.cpp:148] Top shape: 24 32 28 28 (602112)
I0403 15:48:16.562607 11370 net.cpp:156] Memory required for data: 541901856
I0403 15:48:16.562621 11370 layer_factory.hpp:77] Creating layer inception_3a/pool
I0403 15:48:16.562638 11370 net.cpp:91] Creating Layer inception_3a/pool
I0403 15:48:16.562667 11370 net.cpp:425] inception_3a/pool <- pool2/3x3_s2_pool2/3x3_s2_0_split_3
I0403 15:48:16.562688 11370 net.cpp:399] inception_3a/pool -> inception_3a/pool
I0403 15:48:16.562744 11370 net.cpp:141] Setting up inception_3a/pool
I0403 15:48:16.562767 11370 net.cpp:148] Top shape: 24 192 28 28 (3612672)
I0403 15:48:16.562780 11370 net.cpp:156] Memory required for data: 556352544
I0403 15:48:16.562794 11370 layer_factory.hpp:77] Creating layer inception_3a/pool_proj
I0403 15:48:16.562815 11370 net.cpp:91] Creating Layer inception_3a/pool_proj
I0403 15:48:16.562832 11370 net.cpp:425] inception_3a/pool_proj <- inception_3a/pool
I0403 15:48:16.562854 11370 net.cpp:399] inception_3a/pool_proj -> inception_3a/pool_proj
I0403 15:48:16.563782 11370 net.cpp:141] Setting up inception_3a/pool_proj
I0403 15:48:16.563810 11370 net.cpp:148] Top shape: 24 32 28 28 (602112)
I0403 15:48:16.563825 11370 net.cpp:156] Memory required for data: 558760992
I0403 15:48:16.563848 11370 layer_factory.hpp:77] Creating layer inception_3a/relu_pool_proj
I0403 15:48:16.563868 11370 net.cpp:91] Creating Layer inception_3a/relu_pool_proj
I0403 15:48:16.563884 11370 net.cpp:425] inception_3a/relu_pool_proj <- inception_3a/pool_proj
I0403 15:48:16.563900 11370 net.cpp:386] inception_3a/relu_pool_proj -> inception_3a/pool_proj (in-place)
I0403 15:48:16.564170 11370 net.cpp:141] Setting up inception_3a/relu_pool_proj
I0403 15:48:16.564196 11370 net.cpp:148] Top shape: 24 32 28 28 (602112)
I0403 15:48:16.564211 11370 net.cpp:156] Memory required for data: 561169440
I0403 15:48:16.564226 11370 layer_factory.hpp:77] Creating layer inception_3a/output
I0403 15:48:16.564246 11370 net.cpp:91] Creating Layer inception_3a/output
I0403 15:48:16.564261 11370 net.cpp:425] inception_3a/output <- inception_3a/1x1
I0403 15:48:16.564277 11370 net.cpp:425] inception_3a/output <- inception_3a/3x3
I0403 15:48:16.564293 11370 net.cpp:425] inception_3a/output <- inception_3a/5x5
I0403 15:48:16.564308 11370 net.cpp:425] inception_3a/output <- inception_3a/pool_proj
I0403 15:48:16.564324 11370 net.cpp:399] inception_3a/output -> inception_3a/output
I0403 15:48:16.564371 11370 net.cpp:141] Setting up inception_3a/output
I0403 15:48:16.564394 11370 net.cpp:148] Top shape: 24 256 28 28 (4816896)
I0403 15:48:16.564409 11370 net.cpp:156] Memory required for data: 580437024
I0403 15:48:16.564422 11370 layer_factory.hpp:77] Creating layer inception_3a/output_inception_3a/output_0_split
I0403 15:48:16.564440 11370 net.cpp:91] Creating Layer inception_3a/output_inception_3a/output_0_split
I0403 15:48:16.564453 11370 net.cpp:425] inception_3a/output_inception_3a/output_0_split <- inception_3a/output
I0403 15:48:16.564472 11370 net.cpp:399] inception_3a/output_inception_3a/output_0_split -> inception_3a/output_inception_3a/output_0_split_0
I0403 15:48:16.564493 11370 net.cpp:399] inception_3a/output_inception_3a/output_0_split -> inception_3a/output_inception_3a/output_0_split_1
I0403 15:48:16.564517 11370 net.cpp:399] inception_3a/output_inception_3a/output_0_split -> inception_3a/output_inception_3a/output_0_split_2
I0403 15:48:16.564538 11370 net.cpp:399] inception_3a/output_inception_3a/output_0_split -> inception_3a/output_inception_3a/output_0_split_3
I0403 15:48:16.564613 11370 net.cpp:141] Setting up inception_3a/output_inception_3a/output_0_split
I0403 15:48:16.564636 11370 net.cpp:148] Top shape: 24 256 28 28 (4816896)
I0403 15:48:16.564652 11370 net.cpp:148] Top shape: 24 256 28 28 (4816896)
I0403 15:48:16.564667 11370 net.cpp:148] Top shape: 24 256 28 28 (4816896)
I0403 15:48:16.564682 11370 net.cpp:148] Top shape: 24 256 28 28 (4816896)
I0403 15:48:16.564697 11370 net.cpp:156] Memory required for data: 657507360
I0403 15:48:16.564709 11370 layer_factory.hpp:77] Creating layer inception_3b/1x1
I0403 15:48:16.564731 11370 net.cpp:91] Creating Layer inception_3b/1x1
I0403 15:48:16.564749 11370 net.cpp:425] inception_3b/1x1 <- inception_3a/output_inception_3a/output_0_split_0
I0403 15:48:16.564769 11370 net.cpp:399] inception_3b/1x1 -> inception_3b/1x1
I0403 15:48:16.565866 11370 net.cpp:141] Setting up inception_3b/1x1
I0403 15:48:16.565904 11370 net.cpp:148] Top shape: 24 128 28 28 (2408448)
I0403 15:48:16.565920 11370 net.cpp:156] Memory required for data: 667141152
I0403 15:48:16.565938 11370 layer_factory.hpp:77] Creating layer inception_3b/relu_1x1
I0403 15:48:16.565958 11370 net.cpp:91] Creating Layer inception_3b/relu_1x1
I0403 15:48:16.565974 11370 net.cpp:425] inception_3b/relu_1x1 <- inception_3b/1x1
I0403 15:48:16.565996 11370 net.cpp:386] inception_3b/relu_1x1 -> inception_3b/1x1 (in-place)
I0403 15:48:16.566165 11370 net.cpp:141] Setting up inception_3b/relu_1x1
I0403 15:48:16.566190 11370 net.cpp:148] Top shape: 24 128 28 28 (2408448)
I0403 15:48:16.566210 11370 net.cpp:156] Memory required for data: 676774944
I0403 15:48:16.566225 11370 layer_factory.hpp:77] Creating layer inception_3b/3x3_reduce
I0403 15:48:16.566244 11370 net.cpp:91] Creating Layer inception_3b/3x3_reduce
I0403 15:48:16.566261 11370 net.cpp:425] inception_3b/3x3_reduce <- inception_3a/output_inception_3a/output_0_split_1
I0403 15:48:16.566280 11370 net.cpp:399] inception_3b/3x3_reduce -> inception_3b/3x3_reduce
I0403 15:48:16.567411 11370 net.cpp:141] Setting up inception_3b/3x3_reduce
I0403 15:48:16.567440 11370 net.cpp:148] Top shape: 24 128 28 28 (2408448)
I0403 15:48:16.567454 11370 net.cpp:156] Memory required for data: 686408736
I0403 15:48:16.567472 11370 layer_factory.hpp:77] Creating layer inception_3b/relu_3x3_reduce
I0403 15:48:16.567493 11370 net.cpp:91] Creating Layer inception_3b/relu_3x3_reduce
I0403 15:48:16.567510 11370 net.cpp:425] inception_3b/relu_3x3_reduce <- inception_3b/3x3_reduce
I0403 15:48:16.567528 11370 net.cpp:386] inception_3b/relu_3x3_reduce -> inception_3b/3x3_reduce (in-place)
I0403 15:48:16.567698 11370 net.cpp:141] Setting up inception_3b/relu_3x3_reduce
I0403 15:48:16.567723 11370 net.cpp:148] Top shape: 24 128 28 28 (2408448)
I0403 15:48:16.567737 11370 net.cpp:156] Memory required for data: 696042528
I0403 15:48:16.567752 11370 layer_factory.hpp:77] Creating layer inception_3b/3x3
I0403 15:48:16.567778 11370 net.cpp:91] Creating Layer inception_3b/3x3
I0403 15:48:16.567796 11370 net.cpp:425] inception_3b/3x3 <- inception_3b/3x3_reduce
I0403 15:48:16.567816 11370 net.cpp:399] inception_3b/3x3 -> inception_3b/3x3
I0403 15:48:16.570725 11370 net.cpp:141] Setting up inception_3b/3x3
I0403 15:48:16.570755 11370 net.cpp:148] Top shape: 24 192 28 28 (3612672)
I0403 15:48:16.570770 11370 net.cpp:156] Memory required for data: 710493216
I0403 15:48:16.570790 11370 layer_factory.hpp:77] Creating layer inception_3b/relu_3x3
I0403 15:48:16.570811 11370 net.cpp:91] Creating Layer inception_3b/relu_3x3
I0403 15:48:16.570827 11370 net.cpp:425] inception_3b/relu_3x3 <- inception_3b/3x3
I0403 15:48:16.570843 11370 net.cpp:386] inception_3b/relu_3x3 -> inception_3b/3x3 (in-place)
I0403 15:48:16.571120 11370 net.cpp:141] Setting up inception_3b/relu_3x3
I0403 15:48:16.571146 11370 net.cpp:148] Top shape: 24 192 28 28 (3612672)
I0403 15:48:16.571161 11370 net.cpp:156] Memory required for data: 724943904
I0403 15:48:16.571185 11370 layer_factory.hpp:77] Creating layer inception_3b/5x5_reduce
I0403 15:48:16.571209 11370 net.cpp:91] Creating Layer inception_3b/5x5_reduce
I0403 15:48:16.571226 11370 net.cpp:425] inception_3b/5x5_reduce <- inception_3a/output_inception_3a/output_0_split_2
I0403 15:48:16.571249 11370 net.cpp:399] inception_3b/5x5_reduce -> inception_3b/5x5_reduce
I0403 15:48:16.572242 11370 net.cpp:141] Setting up inception_3b/5x5_reduce
I0403 15:48:16.572270 11370 net.cpp:148] Top shape: 24 32 28 28 (602112)
I0403 15:48:16.572286 11370 net.cpp:156] Memory required for data: 727352352
I0403 15:48:16.572305 11370 layer_factory.hpp:77] Creating layer inception_3b/relu_5x5_reduce
I0403 15:48:16.572325 11370 net.cpp:91] Creating Layer inception_3b/relu_5x5_reduce
I0403 15:48:16.572342 11370 net.cpp:425] inception_3b/relu_5x5_reduce <- inception_3b/5x5_reduce
I0403 15:48:16.572360 11370 net.cpp:386] inception_3b/relu_5x5_reduce -> inception_3b/5x5_reduce (in-place)
I0403 15:48:16.572554 11370 net.cpp:141] Setting up inception_3b/relu_5x5_reduce
I0403 15:48:16.572582 11370 net.cpp:148] Top shape: 24 32 28 28 (602112)
I0403 15:48:16.572598 11370 net.cpp:156] Memory required for data: 729760800
I0403 15:48:16.572613 11370 layer_factory.hpp:77] Creating layer inception_3b/5x5
I0403 15:48:16.572634 11370 net.cpp:91] Creating Layer inception_3b/5x5
I0403 15:48:16.572652 11370 net.cpp:425] inception_3b/5x5 <- inception_3b/5x5_reduce
I0403 15:48:16.572670 11370 net.cpp:399] inception_3b/5x5 -> inception_3b/5x5
I0403 15:48:16.574651 11370 net.cpp:141] Setting up inception_3b/5x5
I0403 15:48:16.574679 11370 net.cpp:148] Top shape: 24 96 28 28 (1806336)
I0403 15:48:16.574695 11370 net.cpp:156] Memory required for data: 736986144
I0403 15:48:16.574714 11370 layer_factory.hpp:77] Creating layer inception_3b/relu_5x5
I0403 15:48:16.574735 11370 net.cpp:91] Creating Layer inception_3b/relu_5x5
I0403 15:48:16.574751 11370 net.cpp:425] inception_3b/relu_5x5 <- inception_3b/5x5
I0403 15:48:16.574769 11370 net.cpp:386] inception_3b/relu_5x5 -> inception_3b/5x5 (in-place)
I0403 15:48:16.574960 11370 net.cpp:141] Setting up inception_3b/relu_5x5
I0403 15:48:16.574990 11370 net.cpp:148] Top shape: 24 96 28 28 (1806336)
I0403 15:48:16.575006 11370 net.cpp:156] Memory required for data: 744211488
I0403 15:48:16.575021 11370 layer_factory.hpp:77] Creating layer inception_3b/pool
I0403 15:48:16.575038 11370 net.cpp:91] Creating Layer inception_3b/pool
I0403 15:48:16.575054 11370 net.cpp:425] inception_3b/pool <- inception_3a/output_inception_3a/output_0_split_3
I0403 15:48:16.575073 11370 net.cpp:399] inception_3b/pool -> inception_3b/pool
I0403 15:48:16.575129 11370 net.cpp:141] Setting up inception_3b/pool
I0403 15:48:16.575150 11370 net.cpp:148] Top shape: 24 256 28 28 (4816896)
I0403 15:48:16.575165 11370 net.cpp:156] Memory required for data: 763479072
I0403 15:48:16.575179 11370 layer_factory.hpp:77] Creating layer inception_3b/pool_proj
I0403 15:48:16.575201 11370 net.cpp:91] Creating Layer inception_3b/pool_proj
I0403 15:48:16.575218 11370 net.cpp:425] inception_3b/pool_proj <- inception_3b/pool
I0403 15:48:16.575239 11370 net.cpp:399] inception_3b/pool_proj -> inception_3b/pool_proj
I0403 15:48:16.576297 11370 net.cpp:141] Setting up inception_3b/pool_proj
I0403 15:48:16.576328 11370 net.cpp:148] Top shape: 24 64 28 28 (1204224)
I0403 15:48:16.576344 11370 net.cpp:156] Memory required for data: 768295968
I0403 15:48:16.576364 11370 layer_factory.hpp:77] Creating layer inception_3b/relu_pool_proj
I0403 15:48:16.576381 11370 net.cpp:91] Creating Layer inception_3b/relu_pool_proj
I0403 15:48:16.576398 11370 net.cpp:425] inception_3b/relu_pool_proj <- inception_3b/pool_proj
I0403 15:48:16.576417 11370 net.cpp:386] inception_3b/relu_pool_proj -> inception_3b/pool_proj (in-place)
I0403 15:48:16.576809 11370 net.cpp:141] Setting up inception_3b/relu_pool_proj
I0403 15:48:16.576838 11370 net.cpp:148] Top shape: 24 64 28 28 (1204224)
I0403 15:48:16.576853 11370 net.cpp:156] Memory required for data: 773112864
I0403 15:48:16.576869 11370 layer_factory.hpp:77] Creating layer inception_3b/output
I0403 15:48:16.576887 11370 net.cpp:91] Creating Layer inception_3b/output
I0403 15:48:16.576902 11370 net.cpp:425] inception_3b/output <- inception_3b/1x1
I0403 15:48:16.576918 11370 net.cpp:425] inception_3b/output <- inception_3b/3x3
I0403 15:48:16.576933 11370 net.cpp:425] inception_3b/output <- inception_3b/5x5
I0403 15:48:16.576951 11370 net.cpp:425] inception_3b/output <- inception_3b/pool_proj
I0403 15:48:16.576967 11370 net.cpp:399] inception_3b/output -> inception_3b/output
I0403 15:48:16.577018 11370 net.cpp:141] Setting up inception_3b/output
I0403 15:48:16.577040 11370 net.cpp:148] Top shape: 24 480 28 28 (9031680)
I0403 15:48:16.577054 11370 net.cpp:156] Memory required for data: 809239584
I0403 15:48:16.577069 11370 layer_factory.hpp:77] Creating layer pool3/3x3_s2
I0403 15:48:16.577088 11370 net.cpp:91] Creating Layer pool3/3x3_s2
I0403 15:48:16.577105 11370 net.cpp:425] pool3/3x3_s2 <- inception_3b/output
I0403 15:48:16.577137 11370 net.cpp:399] pool3/3x3_s2 -> pool3/3x3_s2
I0403 15:48:16.577198 11370 net.cpp:141] Setting up pool3/3x3_s2
I0403 15:48:16.577221 11370 net.cpp:148] Top shape: 24 480 14 14 (2257920)
I0403 15:48:16.577236 11370 net.cpp:156] Memory required for data: 818271264
I0403 15:48:16.577251 11370 layer_factory.hpp:77] Creating layer pool3/3x3_s2_pool3/3x3_s2_0_split
I0403 15:48:16.577268 11370 net.cpp:91] Creating Layer pool3/3x3_s2_pool3/3x3_s2_0_split
I0403 15:48:16.577285 11370 net.cpp:425] pool3/3x3_s2_pool3/3x3_s2_0_split <- pool3/3x3_s2
I0403 15:48:16.577303 11370 net.cpp:399] pool3/3x3_s2_pool3/3x3_s2_0_split -> pool3/3x3_s2_pool3/3x3_s2_0_split_0
I0403 15:48:16.577323 11370 net.cpp:399] pool3/3x3_s2_pool3/3x3_s2_0_split -> pool3/3x3_s2_pool3/3x3_s2_0_split_1
I0403 15:48:16.577342 11370 net.cpp:399] pool3/3x3_s2_pool3/3x3_s2_0_split -> pool3/3x3_s2_pool3/3x3_s2_0_split_2
I0403 15:48:16.577361 11370 net.cpp:399] pool3/3x3_s2_pool3/3x3_s2_0_split -> pool3/3x3_s2_pool3/3x3_s2_0_split_3
I0403 15:48:16.577437 11370 net.cpp:141] Setting up pool3/3x3_s2_pool3/3x3_s2_0_split
I0403 15:48:16.577461 11370 net.cpp:148] Top shape: 24 480 14 14 (2257920)
I0403 15:48:16.577478 11370 net.cpp:148] Top shape: 24 480 14 14 (2257920)
I0403 15:48:16.577494 11370 net.cpp:148] Top shape: 24 480 14 14 (2257920)
I0403 15:48:16.577509 11370 net.cpp:148] Top shape: 24 480 14 14 (2257920)
I0403 15:48:16.577523 11370 net.cpp:156] Memory required for data: 854397984
I0403 15:48:16.577538 11370 layer_factory.hpp:77] Creating layer inception_4a/1x1
I0403 15:48:16.577559 11370 net.cpp:91] Creating Layer inception_4a/1x1
I0403 15:48:16.577577 11370 net.cpp:425] inception_4a/1x1 <- pool3/3x3_s2_pool3/3x3_s2_0_split_0
I0403 15:48:16.577595 11370 net.cpp:399] inception_4a/1x1 -> inception_4a/1x1
I0403 15:48:16.579193 11370 net.cpp:141] Setting up inception_4a/1x1
I0403 15:48:16.579223 11370 net.cpp:148] Top shape: 24 192 14 14 (903168)
I0403 15:48:16.579239 11370 net.cpp:156] Memory required for data: 858010656
I0403 15:48:16.579258 11370 layer_factory.hpp:77] Creating layer inception_4a/relu_1x1
I0403 15:48:16.579277 11370 net.cpp:91] Creating Layer inception_4a/relu_1x1
I0403 15:48:16.579293 11370 net.cpp:425] inception_4a/relu_1x1 <- inception_4a/1x1
I0403 15:48:16.579313 11370 net.cpp:386] inception_4a/relu_1x1 -> inception_4a/1x1 (in-place)
I0403 15:48:16.579488 11370 net.cpp:141] Setting up inception_4a/relu_1x1
I0403 15:48:16.579512 11370 net.cpp:148] Top shape: 24 192 14 14 (903168)
I0403 15:48:16.579527 11370 net.cpp:156] Memory required for data: 861623328
I0403 15:48:16.579542 11370 layer_factory.hpp:77] Creating layer inception_4a/3x3_reduce
I0403 15:48:16.579565 11370 net.cpp:91] Creating Layer inception_4a/3x3_reduce
I0403 15:48:16.579582 11370 net.cpp:425] inception_4a/3x3_reduce <- pool3/3x3_s2_pool3/3x3_s2_0_split_1
I0403 15:48:16.579603 11370 net.cpp:399] inception_4a/3x3_reduce -> inception_4a/3x3_reduce
I0403 15:48:16.580863 11370 net.cpp:141] Setting up inception_4a/3x3_reduce
I0403 15:48:16.580891 11370 net.cpp:148] Top shape: 24 96 14 14 (451584)
I0403 15:48:16.580906 11370 net.cpp:156] Memory required for data: 863429664
I0403 15:48:16.580930 11370 layer_factory.hpp:77] Creating layer inception_4a/relu_3x3_reduce
I0403 15:48:16.580951 11370 net.cpp:91] Creating Layer inception_4a/relu_3x3_reduce
I0403 15:48:16.580967 11370 net.cpp:425] inception_4a/relu_3x3_reduce <- inception_4a/3x3_reduce
I0403 15:48:16.580991 11370 net.cpp:386] inception_4a/relu_3x3_reduce -> inception_4a/3x3_reduce (in-place)
I0403 15:48:16.581166 11370 net.cpp:141] Setting up inception_4a/relu_3x3_reduce
I0403 15:48:16.581192 11370 net.cpp:148] Top shape: 24 96 14 14 (451584)
I0403 15:48:16.581208 11370 net.cpp:156] Memory required for data: 865236000
I0403 15:48:16.581223 11370 layer_factory.hpp:77] Creating layer inception_4a/3x3
I0403 15:48:16.581245 11370 net.cpp:91] Creating Layer inception_4a/3x3
I0403 15:48:16.581262 11370 net.cpp:425] inception_4a/3x3 <- inception_4a/3x3_reduce
I0403 15:48:16.581284 11370 net.cpp:399] inception_4a/3x3 -> inception_4a/3x3
I0403 15:48:16.583950 11370 net.cpp:141] Setting up inception_4a/3x3
I0403 15:48:16.583983 11370 net.cpp:148] Top shape: 24 208 14 14 (978432)
I0403 15:48:16.584000 11370 net.cpp:156] Memory required for data: 869149728
I0403 15:48:16.584019 11370 layer_factory.hpp:77] Creating layer inception_4a/relu_3x3
I0403 15:48:16.584039 11370 net.cpp:91] Creating Layer inception_4a/relu_3x3
I0403 15:48:16.584056 11370 net.cpp:425] inception_4a/relu_3x3 <- inception_4a/3x3
I0403 15:48:16.584074 11370 net.cpp:386] inception_4a/relu_3x3 -> inception_4a/3x3 (in-place)
I0403 15:48:16.584355 11370 net.cpp:141] Setting up inception_4a/relu_3x3
I0403 15:48:16.584381 11370 net.cpp:148] Top shape: 24 208 14 14 (978432)
I0403 15:48:16.584396 11370 net.cpp:156] Memory required for data: 873063456
I0403 15:48:16.584411 11370 layer_factory.hpp:77] Creating layer inception_4a/5x5_reduce
I0403 15:48:16.584434 11370 net.cpp:91] Creating Layer inception_4a/5x5_reduce
I0403 15:48:16.584451 11370 net.cpp:425] inception_4a/5x5_reduce <- pool3/3x3_s2_pool3/3x3_s2_0_split_2
I0403 15:48:16.584472 11370 net.cpp:399] inception_4a/5x5_reduce -> inception_4a/5x5_reduce
I0403 15:48:16.585469 11370 net.cpp:141] Setting up inception_4a/5x5_reduce
I0403 15:48:16.585496 11370 net.cpp:148] Top shape: 24 16 14 14 (75264)
I0403 15:48:16.585510 11370 net.cpp:156] Memory required for data: 873364512
I0403 15:48:16.585528 11370 layer_factory.hpp:77] Creating layer inception_4a/relu_5x5_reduce
I0403 15:48:16.585547 11370 net.cpp:91] Creating Layer inception_4a/relu_5x5_reduce
I0403 15:48:16.585564 11370 net.cpp:425] inception_4a/relu_5x5_reduce <- inception_4a/5x5_reduce
I0403 15:48:16.585580 11370 net.cpp:386] inception_4a/relu_5x5_reduce -> inception_4a/5x5_reduce (in-place)
I0403 15:48:16.585755 11370 net.cpp:141] Setting up inception_4a/relu_5x5_reduce
I0403 15:48:16.585782 11370 net.cpp:148] Top shape: 24 16 14 14 (75264)
I0403 15:48:16.585796 11370 net.cpp:156] Memory required for data: 873665568
I0403 15:48:16.585811 11370 layer_factory.hpp:77] Creating layer inception_4a/5x5
I0403 15:48:16.585832 11370 net.cpp:91] Creating Layer inception_4a/5x5
I0403 15:48:16.585850 11370 net.cpp:425] inception_4a/5x5 <- inception_4a/5x5_reduce
I0403 15:48:16.585867 11370 net.cpp:399] inception_4a/5x5 -> inception_4a/5x5
I0403 15:48:16.586911 11370 net.cpp:141] Setting up inception_4a/5x5
I0403 15:48:16.586941 11370 net.cpp:148] Top shape: 24 48 14 14 (225792)
I0403 15:48:16.586956 11370 net.cpp:156] Memory required for data: 874568736
I0403 15:48:16.586976 11370 layer_factory.hpp:77] Creating layer inception_4a/relu_5x5
I0403 15:48:16.586997 11370 net.cpp:91] Creating Layer inception_4a/relu_5x5
I0403 15:48:16.587013 11370 net.cpp:425] inception_4a/relu_5x5 <- inception_4a/5x5
I0403 15:48:16.587030 11370 net.cpp:386] inception_4a/relu_5x5 -> inception_4a/5x5 (in-place)
I0403 15:48:16.587205 11370 net.cpp:141] Setting up inception_4a/relu_5x5
I0403 15:48:16.587229 11370 net.cpp:148] Top shape: 24 48 14 14 (225792)
I0403 15:48:16.587244 11370 net.cpp:156] Memory required for data: 875471904
I0403 15:48:16.587258 11370 layer_factory.hpp:77] Creating layer inception_4a/pool
I0403 15:48:16.587275 11370 net.cpp:91] Creating Layer inception_4a/pool
I0403 15:48:16.587291 11370 net.cpp:425] inception_4a/pool <- pool3/3x3_s2_pool3/3x3_s2_0_split_3
I0403 15:48:16.587311 11370 net.cpp:399] inception_4a/pool -> inception_4a/pool
I0403 15:48:16.587369 11370 net.cpp:141] Setting up inception_4a/pool
I0403 15:48:16.587393 11370 net.cpp:148] Top shape: 24 480 14 14 (2257920)
I0403 15:48:16.587407 11370 net.cpp:156] Memory required for data: 884503584
I0403 15:48:16.587420 11370 layer_factory.hpp:77] Creating layer inception_4a/pool_proj
I0403 15:48:16.587441 11370 net.cpp:91] Creating Layer inception_4a/pool_proj
I0403 15:48:16.587458 11370 net.cpp:425] inception_4a/pool_proj <- inception_4a/pool
I0403 15:48:16.587476 11370 net.cpp:399] inception_4a/pool_proj -> inception_4a/pool_proj
I0403 15:48:16.588598 11370 net.cpp:141] Setting up inception_4a/pool_proj
I0403 15:48:16.588624 11370 net.cpp:148] Top shape: 24 64 14 14 (301056)
I0403 15:48:16.588654 11370 net.cpp:156] Memory required for data: 885707808
I0403 15:48:16.588672 11370 layer_factory.hpp:77] Creating layer inception_4a/relu_pool_proj
I0403 15:48:16.588690 11370 net.cpp:91] Creating Layer inception_4a/relu_pool_proj
I0403 15:48:16.588706 11370 net.cpp:425] inception_4a/relu_pool_proj <- inception_4a/pool_proj
I0403 15:48:16.588726 11370 net.cpp:386] inception_4a/relu_pool_proj -> inception_4a/pool_proj (in-place)
I0403 15:48:16.589016 11370 net.cpp:141] Setting up inception_4a/relu_pool_proj
I0403 15:48:16.589041 11370 net.cpp:148] Top shape: 24 64 14 14 (301056)
I0403 15:48:16.589056 11370 net.cpp:156] Memory required for data: 886912032
I0403 15:48:16.589071 11370 layer_factory.hpp:77] Creating layer inception_4a/output
I0403 15:48:16.589087 11370 net.cpp:91] Creating Layer inception_4a/output
I0403 15:48:16.589102 11370 net.cpp:425] inception_4a/output <- inception_4a/1x1
I0403 15:48:16.589118 11370 net.cpp:425] inception_4a/output <- inception_4a/3x3
I0403 15:48:16.589134 11370 net.cpp:425] inception_4a/output <- inception_4a/5x5
I0403 15:48:16.589149 11370 net.cpp:425] inception_4a/output <- inception_4a/pool_proj
I0403 15:48:16.589169 11370 net.cpp:399] inception_4a/output -> inception_4a/output
I0403 15:48:16.589210 11370 net.cpp:141] Setting up inception_4a/output
I0403 15:48:16.589236 11370 net.cpp:148] Top shape: 24 512 14 14 (2408448)
I0403 15:48:16.589251 11370 net.cpp:156] Memory required for data: 896545824
I0403 15:48:16.589264 11370 layer_factory.hpp:77] Creating layer inception_4a/output_inception_4a/output_0_split
I0403 15:48:16.589282 11370 net.cpp:91] Creating Layer inception_4a/output_inception_4a/output_0_split
I0403 15:48:16.589296 11370 net.cpp:425] inception_4a/output_inception_4a/output_0_split <- inception_4a/output
I0403 15:48:16.589314 11370 net.cpp:399] inception_4a/output_inception_4a/output_0_split -> inception_4a/output_inception_4a/output_0_split_0
I0403 15:48:16.589334 11370 net.cpp:399] inception_4a/output_inception_4a/output_0_split -> inception_4a/output_inception_4a/output_0_split_1
I0403 15:48:16.589354 11370 net.cpp:399] inception_4a/output_inception_4a/output_0_split -> inception_4a/output_inception_4a/output_0_split_2
I0403 15:48:16.589375 11370 net.cpp:399] inception_4a/output_inception_4a/output_0_split -> inception_4a/output_inception_4a/output_0_split_3
I0403 15:48:16.589395 11370 net.cpp:399] inception_4a/output_inception_4a/output_0_split -> inception_4a/output_inception_4a/output_0_split_4
I0403 15:48:16.589483 11370 net.cpp:141] Setting up inception_4a/output_inception_4a/output_0_split
I0403 15:48:16.589506 11370 net.cpp:148] Top shape: 24 512 14 14 (2408448)
I0403 15:48:16.589522 11370 net.cpp:148] Top shape: 24 512 14 14 (2408448)
I0403 15:48:16.589537 11370 net.cpp:148] Top shape: 24 512 14 14 (2408448)
I0403 15:48:16.589552 11370 net.cpp:148] Top shape: 24 512 14 14 (2408448)
I0403 15:48:16.589567 11370 net.cpp:148] Top shape: 24 512 14 14 (2408448)
I0403 15:48:16.589581 11370 net.cpp:156] Memory required for data: 944714784
I0403 15:48:16.589594 11370 layer_factory.hpp:77] Creating layer loss1/ave_pool
I0403 15:48:16.589617 11370 net.cpp:91] Creating Layer loss1/ave_pool
I0403 15:48:16.589633 11370 net.cpp:425] loss1/ave_pool <- inception_4a/output_inception_4a/output_0_split_0
I0403 15:48:16.589650 11370 net.cpp:399] loss1/ave_pool -> loss1/ave_pool
I0403 15:48:16.589846 11370 net.cpp:141] Setting up loss1/ave_pool
I0403 15:48:16.589871 11370 net.cpp:148] Top shape: 24 512 4 4 (196608)
I0403 15:48:16.589886 11370 net.cpp:156] Memory required for data: 945501216
I0403 15:48:16.589900 11370 layer_factory.hpp:77] Creating layer loss1/conv
I0403 15:48:16.589922 11370 net.cpp:91] Creating Layer loss1/conv
I0403 15:48:16.589938 11370 net.cpp:425] loss1/conv <- loss1/ave_pool
I0403 15:48:16.589958 11370 net.cpp:399] loss1/conv -> loss1/conv
I0403 15:48:16.591326 11370 net.cpp:141] Setting up loss1/conv
I0403 15:48:16.591353 11370 net.cpp:148] Top shape: 24 128 4 4 (49152)
I0403 15:48:16.591382 11370 net.cpp:156] Memory required for data: 945697824
I0403 15:48:16.591403 11370 layer_factory.hpp:77] Creating layer loss1/relu_conv
I0403 15:48:16.591423 11370 net.cpp:91] Creating Layer loss1/relu_conv
I0403 15:48:16.591439 11370 net.cpp:425] loss1/relu_conv <- loss1/conv
I0403 15:48:16.591455 11370 net.cpp:386] loss1/relu_conv -> loss1/conv (in-place)
I0403 15:48:16.591728 11370 net.cpp:141] Setting up loss1/relu_conv
I0403 15:48:16.591754 11370 net.cpp:148] Top shape: 24 128 4 4 (49152)
I0403 15:48:16.591768 11370 net.cpp:156] Memory required for data: 945894432
I0403 15:48:16.591784 11370 layer_factory.hpp:77] Creating layer loss1/fc
I0403 15:48:16.591809 11370 net.cpp:91] Creating Layer loss1/fc
I0403 15:48:16.591827 11370 net.cpp:425] loss1/fc <- loss1/conv
I0403 15:48:16.591845 11370 net.cpp:399] loss1/fc -> loss1/fc
I0403 15:48:16.609145 11370 net.cpp:141] Setting up loss1/fc
I0403 15:48:16.609179 11370 net.cpp:148] Top shape: 24 1024 (24576)
I0403 15:48:16.609194 11370 net.cpp:156] Memory required for data: 945992736
I0403 15:48:16.609225 11370 layer_factory.hpp:77] Creating layer loss1/relu_fc
I0403 15:48:16.609242 11370 net.cpp:91] Creating Layer loss1/relu_fc
I0403 15:48:16.609257 11370 net.cpp:425] loss1/relu_fc <- loss1/fc
I0403 15:48:16.609277 11370 net.cpp:386] loss1/relu_fc -> loss1/fc (in-place)
I0403 15:48:16.609460 11370 net.cpp:141] Setting up loss1/relu_fc
I0403 15:48:16.609484 11370 net.cpp:148] Top shape: 24 1024 (24576)
I0403 15:48:16.609499 11370 net.cpp:156] Memory required for data: 946091040
I0403 15:48:16.609513 11370 layer_factory.hpp:77] Creating layer loss1/drop_fc
I0403 15:48:16.609541 11370 net.cpp:91] Creating Layer loss1/drop_fc
I0403 15:48:16.609558 11370 net.cpp:425] loss1/drop_fc <- loss1/fc
I0403 15:48:16.609575 11370 net.cpp:386] loss1/drop_fc -> loss1/fc (in-place)
I0403 15:48:16.609624 11370 net.cpp:141] Setting up loss1/drop_fc
I0403 15:48:16.609650 11370 net.cpp:148] Top shape: 24 1024 (24576)
I0403 15:48:16.609666 11370 net.cpp:156] Memory required for data: 946189344
I0403 15:48:16.609681 11370 layer_factory.hpp:77] Creating layer loss1/classifier_plantvillage
I0403 15:48:16.609699 11370 net.cpp:91] Creating Layer loss1/classifier_plantvillage
I0403 15:48:16.609714 11370 net.cpp:425] loss1/classifier_plantvillage <- loss1/fc
I0403 15:48:16.609735 11370 net.cpp:399] loss1/classifier_plantvillage -> loss1/classifier_plantvillage
I0403 15:48:16.610625 11370 net.cpp:141] Setting up loss1/classifier_plantvillage
I0403 15:48:16.610651 11370 net.cpp:148] Top shape: 24 38 (912)
I0403 15:48:16.610666 11370 net.cpp:156] Memory required for data: 946192992
I0403 15:48:16.610684 11370 layer_factory.hpp:77] Creating layer loss1/classifier_plantvillage_loss1/classifier_plantvillage_0_split
I0403 15:48:16.610702 11370 net.cpp:91] Creating Layer loss1/classifier_plantvillage_loss1/classifier_plantvillage_0_split
I0403 15:48:16.610721 11370 net.cpp:425] loss1/classifier_plantvillage_loss1/classifier_plantvillage_0_split <- loss1/classifier_plantvillage
I0403 15:48:16.610738 11370 net.cpp:399] loss1/classifier_plantvillage_loss1/classifier_plantvillage_0_split -> loss1/classifier_plantvillage_loss1/classifier_plantvillage_0_split_0
I0403 15:48:16.610759 11370 net.cpp:399] loss1/classifier_plantvillage_loss1/classifier_plantvillage_0_split -> loss1/classifier_plantvillage_loss1/classifier_plantvillage_0_split_1
I0403 15:48:16.610777 11370 net.cpp:399] loss1/classifier_plantvillage_loss1/classifier_plantvillage_0_split -> loss1/classifier_plantvillage_loss1/classifier_plantvillage_0_split_2
I0403 15:48:16.610841 11370 net.cpp:141] Setting up loss1/classifier_plantvillage_loss1/classifier_plantvillage_0_split
I0403 15:48:16.610865 11370 net.cpp:148] Top shape: 24 38 (912)
I0403 15:48:16.610882 11370 net.cpp:148] Top shape: 24 38 (912)
I0403 15:48:16.610898 11370 net.cpp:148] Top shape: 24 38 (912)
I0403 15:48:16.610910 11370 net.cpp:156] Memory required for data: 946203936
I0403 15:48:16.610924 11370 layer_factory.hpp:77] Creating layer inception_4b/1x1
I0403 15:48:16.610944 11370 net.cpp:91] Creating Layer inception_4b/1x1
I0403 15:48:16.610976 11370 net.cpp:425] inception_4b/1x1 <- inception_4a/output_inception_4a/output_0_split_1
I0403 15:48:16.611001 11370 net.cpp:399] inception_4b/1x1 -> inception_4b/1x1
I0403 15:48:16.612589 11370 net.cpp:141] Setting up inception_4b/1x1
I0403 15:48:16.612617 11370 net.cpp:148] Top shape: 24 160 14 14 (752640)
I0403 15:48:16.612632 11370 net.cpp:156] Memory required for data: 949214496
I0403 15:48:16.612650 11370 layer_factory.hpp:77] Creating layer inception_4b/relu_1x1
I0403 15:48:16.612670 11370 net.cpp:91] Creating Layer inception_4b/relu_1x1
I0403 15:48:16.612687 11370 net.cpp:425] inception_4b/relu_1x1 <- inception_4b/1x1
I0403 15:48:16.612704 11370 net.cpp:386] inception_4b/relu_1x1 -> inception_4b/1x1 (in-place)
I0403 15:48:16.612880 11370 net.cpp:141] Setting up inception_4b/relu_1x1
I0403 15:48:16.612906 11370 net.cpp:148] Top shape: 24 160 14 14 (752640)
I0403 15:48:16.612922 11370 net.cpp:156] Memory required for data: 952225056
I0403 15:48:16.612936 11370 layer_factory.hpp:77] Creating layer inception_4b/3x3_reduce
I0403 15:48:16.612958 11370 net.cpp:91] Creating Layer inception_4b/3x3_reduce
I0403 15:48:16.612977 11370 net.cpp:425] inception_4b/3x3_reduce <- inception_4a/output_inception_4a/output_0_split_2
I0403 15:48:16.613000 11370 net.cpp:399] inception_4b/3x3_reduce -> inception_4b/3x3_reduce
I0403 15:48:16.614298 11370 net.cpp:141] Setting up inception_4b/3x3_reduce
I0403 15:48:16.614326 11370 net.cpp:148] Top shape: 24 112 14 14 (526848)
I0403 15:48:16.614342 11370 net.cpp:156] Memory required for data: 954332448
I0403 15:48:16.614361 11370 layer_factory.hpp:77] Creating layer inception_4b/relu_3x3_reduce
I0403 15:48:16.614382 11370 net.cpp:91] Creating Layer inception_4b/relu_3x3_reduce
I0403 15:48:16.614399 11370 net.cpp:425] inception_4b/relu_3x3_reduce <- inception_4b/3x3_reduce
I0403 15:48:16.614415 11370 net.cpp:386] inception_4b/relu_3x3_reduce -> inception_4b/3x3_reduce (in-place)
I0403 15:48:16.614691 11370 net.cpp:141] Setting up inception_4b/relu_3x3_reduce
I0403 15:48:16.614717 11370 net.cpp:148] Top shape: 24 112 14 14 (526848)
I0403 15:48:16.614730 11370 net.cpp:156] Memory required for data: 956439840
I0403 15:48:16.614745 11370 layer_factory.hpp:77] Creating layer inception_4b/3x3
I0403 15:48:16.614768 11370 net.cpp:91] Creating Layer inception_4b/3x3
I0403 15:48:16.614785 11370 net.cpp:425] inception_4b/3x3 <- inception_4b/3x3_reduce
I0403 15:48:16.614804 11370 net.cpp:399] inception_4b/3x3 -> inception_4b/3x3
I0403 15:48:16.617765 11370 net.cpp:141] Setting up inception_4b/3x3
I0403 15:48:16.617794 11370 net.cpp:148] Top shape: 24 224 14 14 (1053696)
I0403 15:48:16.617810 11370 net.cpp:156] Memory required for data: 960654624
I0403 15:48:16.617830 11370 layer_factory.hpp:77] Creating layer inception_4b/relu_3x3
I0403 15:48:16.617847 11370 net.cpp:91] Creating Layer inception_4b/relu_3x3
I0403 15:48:16.617863 11370 net.cpp:425] inception_4b/relu_3x3 <- inception_4b/3x3
I0403 15:48:16.617883 11370 net.cpp:386] inception_4b/relu_3x3 -> inception_4b/3x3 (in-place)
I0403 15:48:16.618068 11370 net.cpp:141] Setting up inception_4b/relu_3x3
I0403 15:48:16.618093 11370 net.cpp:148] Top shape: 24 224 14 14 (1053696)
I0403 15:48:16.618109 11370 net.cpp:156] Memory required for data: 964869408
I0403 15:48:16.618124 11370 layer_factory.hpp:77] Creating layer inception_4b/5x5_reduce
I0403 15:48:16.618146 11370 net.cpp:91] Creating Layer inception_4b/5x5_reduce
I0403 15:48:16.618163 11370 net.cpp:425] inception_4b/5x5_reduce <- inception_4a/output_inception_4a/output_0_split_3
I0403 15:48:16.618186 11370 net.cpp:399] inception_4b/5x5_reduce -> inception_4b/5x5_reduce
I0403 15:48:16.619274 11370 net.cpp:141] Setting up inception_4b/5x5_reduce
I0403 15:48:16.619302 11370 net.cpp:148] Top shape: 24 24 14 14 (112896)
I0403 15:48:16.619318 11370 net.cpp:156] Memory required for data: 965320992
I0403 15:48:16.619338 11370 layer_factory.hpp:77] Creating layer inception_4b/relu_5x5_reduce
I0403 15:48:16.619357 11370 net.cpp:91] Creating Layer inception_4b/relu_5x5_reduce
I0403 15:48:16.619387 11370 net.cpp:425] inception_4b/relu_5x5_reduce <- inception_4b/5x5_reduce
I0403 15:48:16.619406 11370 net.cpp:386] inception_4b/relu_5x5_reduce -> inception_4b/5x5_reduce (in-place)
I0403 15:48:16.619586 11370 net.cpp:141] Setting up inception_4b/relu_5x5_reduce
I0403 15:48:16.619613 11370 net.cpp:148] Top shape: 24 24 14 14 (112896)
I0403 15:48:16.619628 11370 net.cpp:156] Memory required for data: 965772576
I0403 15:48:16.619642 11370 layer_factory.hpp:77] Creating layer inception_4b/5x5
I0403 15:48:16.619664 11370 net.cpp:91] Creating Layer inception_4b/5x5
I0403 15:48:16.619683 11370 net.cpp:425] inception_4b/5x5 <- inception_4b/5x5_reduce
I0403 15:48:16.619702 11370 net.cpp:399] inception_4b/5x5 -> inception_4b/5x5
I0403 15:48:16.620923 11370 net.cpp:141] Setting up inception_4b/5x5
I0403 15:48:16.620952 11370 net.cpp:148] Top shape: 24 64 14 14 (301056)
I0403 15:48:16.620967 11370 net.cpp:156] Memory required for data: 966976800
I0403 15:48:16.620990 11370 layer_factory.hpp:77] Creating layer inception_4b/relu_5x5
I0403 15:48:16.621011 11370 net.cpp:91] Creating Layer inception_4b/relu_5x5
I0403 15:48:16.621028 11370 net.cpp:425] inception_4b/relu_5x5 <- inception_4b/5x5
I0403 15:48:16.621045 11370 net.cpp:386] inception_4b/relu_5x5 -> inception_4b/5x5 (in-place)
I0403 15:48:16.621333 11370 net.cpp:141] Setting up inception_4b/relu_5x5
I0403 15:48:16.621361 11370 net.cpp:148] Top shape: 24 64 14 14 (301056)
I0403 15:48:16.621376 11370 net.cpp:156] Memory required for data: 968181024
I0403 15:48:16.621392 11370 layer_factory.hpp:77] Creating layer inception_4b/pool
I0403 15:48:16.621412 11370 net.cpp:91] Creating Layer inception_4b/pool
I0403 15:48:16.621428 11370 net.cpp:425] inception_4b/pool <- inception_4a/output_inception_4a/output_0_split_4
I0403 15:48:16.621448 11370 net.cpp:399] inception_4b/pool -> inception_4b/pool
I0403 15:48:16.621513 11370 net.cpp:141] Setting up inception_4b/pool
I0403 15:48:16.621536 11370 net.cpp:148] Top shape: 24 512 14 14 (2408448)
I0403 15:48:16.621551 11370 net.cpp:156] Memory required for data: 977814816
I0403 15:48:16.621565 11370 layer_factory.hpp:77] Creating layer inception_4b/pool_proj
I0403 15:48:16.621587 11370 net.cpp:91] Creating Layer inception_4b/pool_proj
I0403 15:48:16.621605 11370 net.cpp:425] inception_4b/pool_proj <- inception_4b/pool
I0403 15:48:16.621626 11370 net.cpp:399] inception_4b/pool_proj -> inception_4b/pool_proj
I0403 15:48:16.622822 11370 net.cpp:141] Setting up inception_4b/pool_proj
I0403 15:48:16.622849 11370 net.cpp:148] Top shape: 24 64 14 14 (301056)
I0403 15:48:16.622864 11370 net.cpp:156] Memory required for data: 979019040
I0403 15:48:16.622884 11370 layer_factory.hpp:77] Creating layer inception_4b/relu_pool_proj
I0403 15:48:16.622905 11370 net.cpp:91] Creating Layer inception_4b/relu_pool_proj
I0403 15:48:16.622922 11370 net.cpp:425] inception_4b/relu_pool_proj <- inception_4b/pool_proj
I0403 15:48:16.622939 11370 net.cpp:386] inception_4b/relu_pool_proj -> inception_4b/pool_proj (in-place)
I0403 15:48:16.623121 11370 net.cpp:141] Setting up inception_4b/relu_pool_proj
I0403 15:48:16.623148 11370 net.cpp:148] Top shape: 24 64 14 14 (301056)
I0403 15:48:16.623164 11370 net.cpp:156] Memory required for data: 980223264
I0403 15:48:16.623179 11370 layer_factory.hpp:77] Creating layer inception_4b/output
I0403 15:48:16.623196 11370 net.cpp:91] Creating Layer inception_4b/output
I0403 15:48:16.623211 11370 net.cpp:425] inception_4b/output <- inception_4b/1x1
I0403 15:48:16.623229 11370 net.cpp:425] inception_4b/output <- inception_4b/3x3
I0403 15:48:16.623245 11370 net.cpp:425] inception_4b/output <- inception_4b/5x5
I0403 15:48:16.623260 11370 net.cpp:425] inception_4b/output <- inception_4b/pool_proj
I0403 15:48:16.623280 11370 net.cpp:399] inception_4b/output -> inception_4b/output
I0403 15:48:16.623324 11370 net.cpp:141] Setting up inception_4b/output
I0403 15:48:16.623347 11370 net.cpp:148] Top shape: 24 512 14 14 (2408448)
I0403 15:48:16.623361 11370 net.cpp:156] Memory required for data: 989857056
I0403 15:48:16.623390 11370 layer_factory.hpp:77] Creating layer inception_4b/output_inception_4b/output_0_split
I0403 15:48:16.623410 11370 net.cpp:91] Creating Layer inception_4b/output_inception_4b/output_0_split
I0403 15:48:16.623427 11370 net.cpp:425] inception_4b/output_inception_4b/output_0_split <- inception_4b/output
I0403 15:48:16.623445 11370 net.cpp:399] inception_4b/output_inception_4b/output_0_split -> inception_4b/output_inception_4b/output_0_split_0
I0403 15:48:16.623466 11370 net.cpp:399] inception_4b/output_inception_4b/output_0_split -> inception_4b/output_inception_4b/output_0_split_1
I0403 15:48:16.623488 11370 net.cpp:399] inception_4b/output_inception_4b/output_0_split -> inception_4b/output_inception_4b/output_0_split_2
I0403 15:48:16.623509 11370 net.cpp:399] inception_4b/output_inception_4b/output_0_split -> inception_4b/output_inception_4b/output_0_split_3
I0403 15:48:16.623591 11370 net.cpp:141] Setting up inception_4b/output_inception_4b/output_0_split
I0403 15:48:16.623615 11370 net.cpp:148] Top shape: 24 512 14 14 (2408448)
I0403 15:48:16.623631 11370 net.cpp:148] Top shape: 24 512 14 14 (2408448)
I0403 15:48:16.623646 11370 net.cpp:148] Top shape: 24 512 14 14 (2408448)
I0403 15:48:16.623661 11370 net.cpp:148] Top shape: 24 512 14 14 (2408448)
I0403 15:48:16.623674 11370 net.cpp:156] Memory required for data: 1028392224
I0403 15:48:16.623688 11370 layer_factory.hpp:77] Creating layer inception_4c/1x1
I0403 15:48:16.623713 11370 net.cpp:91] Creating Layer inception_4c/1x1
I0403 15:48:16.623731 11370 net.cpp:425] inception_4c/1x1 <- inception_4b/output_inception_4b/output_0_split_0
I0403 15:48:16.623752 11370 net.cpp:399] inception_4c/1x1 -> inception_4c/1x1
I0403 15:48:16.625185 11370 net.cpp:141] Setting up inception_4c/1x1
I0403 15:48:16.625217 11370 net.cpp:148] Top shape: 24 128 14 14 (602112)
I0403 15:48:16.625234 11370 net.cpp:156] Memory required for data: 1030800672
I0403 15:48:16.625252 11370 layer_factory.hpp:77] Creating layer inception_4c/relu_1x1
I0403 15:48:16.625270 11370 net.cpp:91] Creating Layer inception_4c/relu_1x1
I0403 15:48:16.625288 11370 net.cpp:425] inception_4c/relu_1x1 <- inception_4c/1x1
I0403 15:48:16.625306 11370 net.cpp:386] inception_4c/relu_1x1 -> inception_4c/1x1 (in-place)
I0403 15:48:16.625485 11370 net.cpp:141] Setting up inception_4c/relu_1x1
I0403 15:48:16.625510 11370 net.cpp:148] Top shape: 24 128 14 14 (602112)
I0403 15:48:16.625525 11370 net.cpp:156] Memory required for data: 1033209120
I0403 15:48:16.625541 11370 layer_factory.hpp:77] Creating layer inception_4c/3x3_reduce
I0403 15:48:16.625563 11370 net.cpp:91] Creating Layer inception_4c/3x3_reduce
I0403 15:48:16.625581 11370 net.cpp:425] inception_4c/3x3_reduce <- inception_4b/output_inception_4b/output_0_split_1
I0403 15:48:16.625602 11370 net.cpp:399] inception_4c/3x3_reduce -> inception_4c/3x3_reduce
I0403 15:48:16.627549 11370 net.cpp:141] Setting up inception_4c/3x3_reduce
I0403 15:48:16.627578 11370 net.cpp:148] Top shape: 24 128 14 14 (602112)
I0403 15:48:16.627593 11370 net.cpp:156] Memory required for data: 1035617568
I0403 15:48:16.627612 11370 layer_factory.hpp:77] Creating layer inception_4c/relu_3x3_reduce
I0403 15:48:16.627632 11370 net.cpp:91] Creating Layer inception_4c/relu_3x3_reduce
I0403 15:48:16.627650 11370 net.cpp:425] inception_4c/relu_3x3_reduce <- inception_4c/3x3_reduce
I0403 15:48:16.627667 11370 net.cpp:386] inception_4c/relu_3x3_reduce -> inception_4c/3x3_reduce (in-place)
I0403 15:48:16.627951 11370 net.cpp:141] Setting up inception_4c/relu_3x3_reduce
I0403 15:48:16.627982 11370 net.cpp:148] Top shape: 24 128 14 14 (602112)
I0403 15:48:16.627998 11370 net.cpp:156] Memory required for data: 1038026016
I0403 15:48:16.628013 11370 layer_factory.hpp:77] Creating layer inception_4c/3x3
I0403 15:48:16.628036 11370 net.cpp:91] Creating Layer inception_4c/3x3
I0403 15:48:16.628054 11370 net.cpp:425] inception_4c/3x3 <- inception_4c/3x3_reduce
I0403 15:48:16.628077 11370 net.cpp:399] inception_4c/3x3 -> inception_4c/3x3
I0403 15:48:16.631691 11370 net.cpp:141] Setting up inception_4c/3x3
I0403 15:48:16.631732 11370 net.cpp:148] Top shape: 24 256 14 14 (1204224)
I0403 15:48:16.631750 11370 net.cpp:156] Memory required for data: 1042842912
I0403 15:48:16.631781 11370 layer_factory.hpp:77] Creating layer inception_4c/relu_3x3
I0403 15:48:16.631804 11370 net.cpp:91] Creating Layer inception_4c/relu_3x3
I0403 15:48:16.631821 11370 net.cpp:425] inception_4c/relu_3x3 <- inception_4c/3x3
I0403 15:48:16.631839 11370 net.cpp:386] inception_4c/relu_3x3 -> inception_4c/3x3 (in-place)
I0403 15:48:16.632028 11370 net.cpp:141] Setting up inception_4c/relu_3x3
I0403 15:48:16.632055 11370 net.cpp:148] Top shape: 24 256 14 14 (1204224)
I0403 15:48:16.632069 11370 net.cpp:156] Memory required for data: 1047659808
I0403 15:48:16.632084 11370 layer_factory.hpp:77] Creating layer inception_4c/5x5_reduce
I0403 15:48:16.632109 11370 net.cpp:91] Creating Layer inception_4c/5x5_reduce
I0403 15:48:16.632127 11370 net.cpp:425] inception_4c/5x5_reduce <- inception_4b/output_inception_4b/output_0_split_2
I0403 15:48:16.632146 11370 net.cpp:399] inception_4c/5x5_reduce -> inception_4c/5x5_reduce
I0403 15:48:16.633230 11370 net.cpp:141] Setting up inception_4c/5x5_reduce
I0403 15:48:16.633258 11370 net.cpp:148] Top shape: 24 24 14 14 (112896)
I0403 15:48:16.633273 11370 net.cpp:156] Memory required for data: 1048111392
I0403 15:48:16.633292 11370 layer_factory.hpp:77] Creating layer inception_4c/relu_5x5_reduce
I0403 15:48:16.633312 11370 net.cpp:91] Creating Layer inception_4c/relu_5x5_reduce
I0403 15:48:16.633329 11370 net.cpp:425] inception_4c/relu_5x5_reduce <- inception_4c/5x5_reduce
I0403 15:48:16.633347 11370 net.cpp:386] inception_4c/relu_5x5_reduce -> inception_4c/5x5_reduce (in-place)
I0403 15:48:16.633530 11370 net.cpp:141] Setting up inception_4c/relu_5x5_reduce
I0403 15:48:16.633558 11370 net.cpp:148] Top shape: 24 24 14 14 (112896)
I0403 15:48:16.633574 11370 net.cpp:156] Memory required for data: 1048562976
I0403 15:48:16.633589 11370 layer_factory.hpp:77] Creating layer inception_4c/5x5
I0403 15:48:16.633610 11370 net.cpp:91] Creating Layer inception_4c/5x5
I0403 15:48:16.633627 11370 net.cpp:425] inception_4c/5x5 <- inception_4c/5x5_reduce
I0403 15:48:16.633646 11370 net.cpp:399] inception_4c/5x5 -> inception_4c/5x5
I0403 15:48:16.634894 11370 net.cpp:141] Setting up inception_4c/5x5
I0403 15:48:16.634924 11370 net.cpp:148] Top shape: 24 64 14 14 (301056)
I0403 15:48:16.634939 11370 net.cpp:156] Memory required for data: 1049767200
I0403 15:48:16.634958 11370 layer_factory.hpp:77] Creating layer inception_4c/relu_5x5
I0403 15:48:16.634974 11370 net.cpp:91] Creating Layer inception_4c/relu_5x5
I0403 15:48:16.634995 11370 net.cpp:425] inception_4c/relu_5x5 <- inception_4c/5x5
I0403 15:48:16.635015 11370 net.cpp:386] inception_4c/relu_5x5 -> inception_4c/5x5 (in-place)
I0403 15:48:16.635298 11370 net.cpp:141] Setting up inception_4c/relu_5x5
I0403 15:48:16.635325 11370 net.cpp:148] Top shape: 24 64 14 14 (301056)
I0403 15:48:16.635340 11370 net.cpp:156] Memory required for data: 1050971424
I0403 15:48:16.635355 11370 layer_factory.hpp:77] Creating layer inception_4c/pool
I0403 15:48:16.635372 11370 net.cpp:91] Creating Layer inception_4c/pool
I0403 15:48:16.635388 11370 net.cpp:425] inception_4c/pool <- inception_4b/output_inception_4b/output_0_split_3
I0403 15:48:16.635408 11370 net.cpp:399] inception_4c/pool -> inception_4c/pool
I0403 15:48:16.635470 11370 net.cpp:141] Setting up inception_4c/pool
I0403 15:48:16.635493 11370 net.cpp:148] Top shape: 24 512 14 14 (2408448)
I0403 15:48:16.635507 11370 net.cpp:156] Memory required for data: 1060605216
I0403 15:48:16.635521 11370 layer_factory.hpp:77] Creating layer inception_4c/pool_proj
I0403 15:48:16.635543 11370 net.cpp:91] Creating Layer inception_4c/pool_proj
I0403 15:48:16.635560 11370 net.cpp:425] inception_4c/pool_proj <- inception_4c/pool
I0403 15:48:16.635581 11370 net.cpp:399] inception_4c/pool_proj -> inception_4c/pool_proj
I0403 15:48:16.636777 11370 net.cpp:141] Setting up inception_4c/pool_proj
I0403 15:48:16.636804 11370 net.cpp:148] Top shape: 24 64 14 14 (301056)
I0403 15:48:16.636833 11370 net.cpp:156] Memory required for data: 1061809440
I0403 15:48:16.636852 11370 layer_factory.hpp:77] Creating layer inception_4c/relu_pool_proj
I0403 15:48:16.636873 11370 net.cpp:91] Creating Layer inception_4c/relu_pool_proj
I0403 15:48:16.636890 11370 net.cpp:425] inception_4c/relu_pool_proj <- inception_4c/pool_proj
I0403 15:48:16.636907 11370 net.cpp:386] inception_4c/relu_pool_proj -> inception_4c/pool_proj (in-place)
I0403 15:48:16.637090 11370 net.cpp:141] Setting up inception_4c/relu_pool_proj
I0403 15:48:16.637117 11370 net.cpp:148] Top shape: 24 64 14 14 (301056)
I0403 15:48:16.637133 11370 net.cpp:156] Memory required for data: 1063013664
I0403 15:48:16.637147 11370 layer_factory.hpp:77] Creating layer inception_4c/output
I0403 15:48:16.637163 11370 net.cpp:91] Creating Layer inception_4c/output
I0403 15:48:16.637178 11370 net.cpp:425] inception_4c/output <- inception_4c/1x1
I0403 15:48:16.637194 11370 net.cpp:425] inception_4c/output <- inception_4c/3x3
I0403 15:48:16.637210 11370 net.cpp:425] inception_4c/output <- inception_4c/5x5
I0403 15:48:16.637225 11370 net.cpp:425] inception_4c/output <- inception_4c/pool_proj
I0403 15:48:16.637244 11370 net.cpp:399] inception_4c/output -> inception_4c/output
I0403 15:48:16.637290 11370 net.cpp:141] Setting up inception_4c/output
I0403 15:48:16.637313 11370 net.cpp:148] Top shape: 24 512 14 14 (2408448)
I0403 15:48:16.637327 11370 net.cpp:156] Memory required for data: 1072647456
I0403 15:48:16.637341 11370 layer_factory.hpp:77] Creating layer inception_4c/output_inception_4c/output_0_split
I0403 15:48:16.637361 11370 net.cpp:91] Creating Layer inception_4c/output_inception_4c/output_0_split
I0403 15:48:16.637377 11370 net.cpp:425] inception_4c/output_inception_4c/output_0_split <- inception_4c/output
I0403 15:48:16.637393 11370 net.cpp:399] inception_4c/output_inception_4c/output_0_split -> inception_4c/output_inception_4c/output_0_split_0
I0403 15:48:16.637413 11370 net.cpp:399] inception_4c/output_inception_4c/output_0_split -> inception_4c/output_inception_4c/output_0_split_1
I0403 15:48:16.637431 11370 net.cpp:399] inception_4c/output_inception_4c/output_0_split -> inception_4c/output_inception_4c/output_0_split_2
I0403 15:48:16.637454 11370 net.cpp:399] inception_4c/output_inception_4c/output_0_split -> inception_4c/output_inception_4c/output_0_split_3
I0403 15:48:16.637538 11370 net.cpp:141] Setting up inception_4c/output_inception_4c/output_0_split
I0403 15:48:16.637562 11370 net.cpp:148] Top shape: 24 512 14 14 (2408448)
I0403 15:48:16.637576 11370 net.cpp:148] Top shape: 24 512 14 14 (2408448)
I0403 15:48:16.637591 11370 net.cpp:148] Top shape: 24 512 14 14 (2408448)
I0403 15:48:16.637605 11370 net.cpp:148] Top shape: 24 512 14 14 (2408448)
I0403 15:48:16.637619 11370 net.cpp:156] Memory required for data: 1111182624
I0403 15:48:16.637634 11370 layer_factory.hpp:77] Creating layer inception_4d/1x1
I0403 15:48:16.637655 11370 net.cpp:91] Creating Layer inception_4d/1x1
I0403 15:48:16.637671 11370 net.cpp:425] inception_4d/1x1 <- inception_4c/output_inception_4c/output_0_split_0
I0403 15:48:16.637691 11370 net.cpp:399] inception_4d/1x1 -> inception_4d/1x1
I0403 15:48:16.639044 11370 net.cpp:141] Setting up inception_4d/1x1
I0403 15:48:16.639071 11370 net.cpp:148] Top shape: 24 112 14 14 (526848)
I0403 15:48:16.639086 11370 net.cpp:156] Memory required for data: 1113290016
I0403 15:48:16.639104 11370 layer_factory.hpp:77] Creating layer inception_4d/relu_1x1
I0403 15:48:16.639124 11370 net.cpp:91] Creating Layer inception_4d/relu_1x1
I0403 15:48:16.639140 11370 net.cpp:425] inception_4d/relu_1x1 <- inception_4d/1x1
I0403 15:48:16.639156 11370 net.cpp:386] inception_4d/relu_1x1 -> inception_4d/1x1 (in-place)
I0403 15:48:16.639336 11370 net.cpp:141] Setting up inception_4d/relu_1x1
I0403 15:48:16.639361 11370 net.cpp:148] Top shape: 24 112 14 14 (526848)
I0403 15:48:16.639375 11370 net.cpp:156] Memory required for data: 1115397408
I0403 15:48:16.639390 11370 layer_factory.hpp:77] Creating layer inception_4d/3x3_reduce
I0403 15:48:16.639425 11370 net.cpp:91] Creating Layer inception_4d/3x3_reduce
I0403 15:48:16.639443 11370 net.cpp:425] inception_4d/3x3_reduce <- inception_4c/output_inception_4c/output_0_split_1
I0403 15:48:16.639474 11370 net.cpp:399] inception_4d/3x3_reduce -> inception_4d/3x3_reduce
I0403 15:48:16.640944 11370 net.cpp:141] Setting up inception_4d/3x3_reduce
I0403 15:48:16.640970 11370 net.cpp:148] Top shape: 24 144 14 14 (677376)
I0403 15:48:16.640990 11370 net.cpp:156] Memory required for data: 1118106912
I0403 15:48:16.641007 11370 layer_factory.hpp:77] Creating layer inception_4d/relu_3x3_reduce
I0403 15:48:16.641026 11370 net.cpp:91] Creating Layer inception_4d/relu_3x3_reduce
I0403 15:48:16.641041 11370 net.cpp:425] inception_4d/relu_3x3_reduce <- inception_4d/3x3_reduce
I0403 15:48:16.641060 11370 net.cpp:386] inception_4d/relu_3x3_reduce -> inception_4d/3x3_reduce (in-place)
I0403 15:48:16.641342 11370 net.cpp:141] Setting up inception_4d/relu_3x3_reduce
I0403 15:48:16.641368 11370 net.cpp:148] Top shape: 24 144 14 14 (677376)
I0403 15:48:16.641383 11370 net.cpp:156] Memory required for data: 1120816416
I0403 15:48:16.641397 11370 layer_factory.hpp:77] Creating layer inception_4d/3x3
I0403 15:48:16.641418 11370 net.cpp:91] Creating Layer inception_4d/3x3
I0403 15:48:16.641435 11370 net.cpp:425] inception_4d/3x3 <- inception_4d/3x3_reduce
I0403 15:48:16.641456 11370 net.cpp:399] inception_4d/3x3 -> inception_4d/3x3
I0403 15:48:16.645645 11370 net.cpp:141] Setting up inception_4d/3x3
I0403 15:48:16.645674 11370 net.cpp:148] Top shape: 24 288 14 14 (1354752)
I0403 15:48:16.645689 11370 net.cpp:156] Memory required for data: 1126235424
I0403 15:48:16.645706 11370 layer_factory.hpp:77] Creating layer inception_4d/relu_3x3
I0403 15:48:16.645726 11370 net.cpp:91] Creating Layer inception_4d/relu_3x3
I0403 15:48:16.645743 11370 net.cpp:425] inception_4d/relu_3x3 <- inception_4d/3x3
I0403 15:48:16.645761 11370 net.cpp:386] inception_4d/relu_3x3 -> inception_4d/3x3 (in-place)
I0403 15:48:16.645938 11370 net.cpp:141] Setting up inception_4d/relu_3x3
I0403 15:48:16.645963 11370 net.cpp:148] Top shape: 24 288 14 14 (1354752)
I0403 15:48:16.645984 11370 net.cpp:156] Memory required for data: 1131654432
I0403 15:48:16.646013 11370 layer_factory.hpp:77] Creating layer inception_4d/5x5_reduce
I0403 15:48:16.646031 11370 net.cpp:91] Creating Layer inception_4d/5x5_reduce
I0403 15:48:16.646049 11370 net.cpp:425] inception_4d/5x5_reduce <- inception_4c/output_inception_4c/output_0_split_2
I0403 15:48:16.646070 11370 net.cpp:399] inception_4d/5x5_reduce -> inception_4d/5x5_reduce
I0403 15:48:16.647233 11370 net.cpp:141] Setting up inception_4d/5x5_reduce
I0403 15:48:16.647260 11370 net.cpp:148] Top shape: 24 32 14 14 (150528)
I0403 15:48:16.647276 11370 net.cpp:156] Memory required for data: 1132256544
I0403 15:48:16.647306 11370 layer_factory.hpp:77] Creating layer inception_4d/relu_5x5_reduce
I0403 15:48:16.647326 11370 net.cpp:91] Creating Layer inception_4d/relu_5x5_reduce
I0403 15:48:16.647342 11370 net.cpp:425] inception_4d/relu_5x5_reduce <- inception_4d/5x5_reduce
I0403 15:48:16.647361 11370 net.cpp:386] inception_4d/relu_5x5_reduce -> inception_4d/5x5_reduce (in-place)
I0403 15:48:16.647541 11370 net.cpp:141] Setting up inception_4d/relu_5x5_reduce
I0403 15:48:16.647564 11370 net.cpp:148] Top shape: 24 32 14 14 (150528)
I0403 15:48:16.647578 11370 net.cpp:156] Memory required for data: 1132858656
I0403 15:48:16.647593 11370 layer_factory.hpp:77] Creating layer inception_4d/5x5
I0403 15:48:16.647615 11370 net.cpp:91] Creating Layer inception_4d/5x5
I0403 15:48:16.647634 11370 net.cpp:425] inception_4d/5x5 <- inception_4d/5x5_reduce
I0403 15:48:16.647651 11370 net.cpp:399] inception_4d/5x5 -> inception_4d/5x5
I0403 15:48:16.649098 11370 net.cpp:141] Setting up inception_4d/5x5
I0403 15:48:16.649127 11370 net.cpp:148] Top shape: 24 64 14 14 (301056)
I0403 15:48:16.649142 11370 net.cpp:156] Memory required for data: 1134062880
I0403 15:48:16.649159 11370 layer_factory.hpp:77] Creating layer inception_4d/relu_5x5
I0403 15:48:16.649194 11370 net.cpp:91] Creating Layer inception_4d/relu_5x5
I0403 15:48:16.649212 11370 net.cpp:425] inception_4d/relu_5x5 <- inception_4d/5x5
I0403 15:48:16.649230 11370 net.cpp:386] inception_4d/relu_5x5 -> inception_4d/5x5 (in-place)
I0403 15:48:16.649525 11370 net.cpp:141] Setting up inception_4d/relu_5x5
I0403 15:48:16.649551 11370 net.cpp:148] Top shape: 24 64 14 14 (301056)
I0403 15:48:16.649566 11370 net.cpp:156] Memory required for data: 1135267104
I0403 15:48:16.649581 11370 layer_factory.hpp:77] Creating layer inception_4d/pool
I0403 15:48:16.649600 11370 net.cpp:91] Creating Layer inception_4d/pool
I0403 15:48:16.649617 11370 net.cpp:425] inception_4d/pool <- inception_4c/output_inception_4c/output_0_split_3
I0403 15:48:16.649636 11370 net.cpp:399] inception_4d/pool -> inception_4d/pool
I0403 15:48:16.649703 11370 net.cpp:141] Setting up inception_4d/pool
I0403 15:48:16.649725 11370 net.cpp:148] Top shape: 24 512 14 14 (2408448)
I0403 15:48:16.649739 11370 net.cpp:156] Memory required for data: 1144900896
I0403 15:48:16.649754 11370 layer_factory.hpp:77] Creating layer inception_4d/pool_proj
I0403 15:48:16.649775 11370 net.cpp:91] Creating Layer inception_4d/pool_proj
I0403 15:48:16.649792 11370 net.cpp:425] inception_4d/pool_proj <- inception_4d/pool
I0403 15:48:16.649812 11370 net.cpp:399] inception_4d/pool_proj -> inception_4d/pool_proj
I0403 15:48:16.651564 11370 net.cpp:141] Setting up inception_4d/pool_proj
I0403 15:48:16.651593 11370 net.cpp:148] Top shape: 24 64 14 14 (301056)
I0403 15:48:16.651609 11370 net.cpp:156] Memory required for data: 1146105120
I0403 15:48:16.651628 11370 layer_factory.hpp:77] Creating layer inception_4d/relu_pool_proj
I0403 15:48:16.651646 11370 net.cpp:91] Creating Layer inception_4d/relu_pool_proj
I0403 15:48:16.651664 11370 net.cpp:425] inception_4d/relu_pool_proj <- inception_4d/pool_proj
I0403 15:48:16.651680 11370 net.cpp:386] inception_4d/relu_pool_proj -> inception_4d/pool_proj (in-place)
I0403 15:48:16.651859 11370 net.cpp:141] Setting up inception_4d/relu_pool_proj
I0403 15:48:16.651883 11370 net.cpp:148] Top shape: 24 64 14 14 (301056)
I0403 15:48:16.651901 11370 net.cpp:156] Memory required for data: 1147309344
I0403 15:48:16.651916 11370 layer_factory.hpp:77] Creating layer inception_4d/output
I0403 15:48:16.651932 11370 net.cpp:91] Creating Layer inception_4d/output
I0403 15:48:16.651947 11370 net.cpp:425] inception_4d/output <- inception_4d/1x1
I0403 15:48:16.651963 11370 net.cpp:425] inception_4d/output <- inception_4d/3x3
I0403 15:48:16.651983 11370 net.cpp:425] inception_4d/output <- inception_4d/5x5
I0403 15:48:16.652000 11370 net.cpp:425] inception_4d/output <- inception_4d/pool_proj
I0403 15:48:16.652017 11370 net.cpp:399] inception_4d/output -> inception_4d/output
I0403 15:48:16.652065 11370 net.cpp:141] Setting up inception_4d/output
I0403 15:48:16.652088 11370 net.cpp:148] Top shape: 24 528 14 14 (2483712)
I0403 15:48:16.652102 11370 net.cpp:156] Memory required for data: 1157244192
I0403 15:48:16.652117 11370 layer_factory.hpp:77] Creating layer inception_4d/output_inception_4d/output_0_split
I0403 15:48:16.652133 11370 net.cpp:91] Creating Layer inception_4d/output_inception_4d/output_0_split
I0403 15:48:16.652151 11370 net.cpp:425] inception_4d/output_inception_4d/output_0_split <- inception_4d/output
I0403 15:48:16.652168 11370 net.cpp:399] inception_4d/output_inception_4d/output_0_split -> inception_4d/output_inception_4d/output_0_split_0
I0403 15:48:16.652189 11370 net.cpp:399] inception_4d/output_inception_4d/output_0_split -> inception_4d/output_inception_4d/output_0_split_1
I0403 15:48:16.652209 11370 net.cpp:399] inception_4d/output_inception_4d/output_0_split -> inception_4d/output_inception_4d/output_0_split_2
I0403 15:48:16.652230 11370 net.cpp:399] inception_4d/output_inception_4d/output_0_split -> inception_4d/output_inception_4d/output_0_split_3
I0403 15:48:16.652250 11370 net.cpp:399] inception_4d/output_inception_4d/output_0_split -> inception_4d/output_inception_4d/output_0_split_4
I0403 15:48:16.652351 11370 net.cpp:141] Setting up inception_4d/output_inception_4d/output_0_split
I0403 15:48:16.652385 11370 net.cpp:148] Top shape: 24 528 14 14 (2483712)
I0403 15:48:16.652402 11370 net.cpp:148] Top shape: 24 528 14 14 (2483712)
I0403 15:48:16.652417 11370 net.cpp:148] Top shape: 24 528 14 14 (2483712)
I0403 15:48:16.652432 11370 net.cpp:148] Top shape: 24 528 14 14 (2483712)
I0403 15:48:16.652447 11370 net.cpp:148] Top shape: 24 528 14 14 (2483712)
I0403 15:48:16.652461 11370 net.cpp:156] Memory required for data: 1206918432
I0403 15:48:16.652474 11370 layer_factory.hpp:77] Creating layer loss2/ave_pool
I0403 15:48:16.652493 11370 net.cpp:91] Creating Layer loss2/ave_pool
I0403 15:48:16.652508 11370 net.cpp:425] loss2/ave_pool <- inception_4d/output_inception_4d/output_0_split_0
I0403 15:48:16.652529 11370 net.cpp:399] loss2/ave_pool -> loss2/ave_pool
I0403 15:48:16.652840 11370 net.cpp:141] Setting up loss2/ave_pool
I0403 15:48:16.652865 11370 net.cpp:148] Top shape: 24 528 4 4 (202752)
I0403 15:48:16.652880 11370 net.cpp:156] Memory required for data: 1207729440
I0403 15:48:16.652894 11370 layer_factory.hpp:77] Creating layer loss2/conv
I0403 15:48:16.652915 11370 net.cpp:91] Creating Layer loss2/conv
I0403 15:48:16.652933 11370 net.cpp:425] loss2/conv <- loss2/ave_pool
I0403 15:48:16.652954 11370 net.cpp:399] loss2/conv -> loss2/conv
I0403 15:48:16.654937 11370 net.cpp:141] Setting up loss2/conv
I0403 15:48:16.654968 11370 net.cpp:148] Top shape: 24 128 4 4 (49152)
I0403 15:48:16.654989 11370 net.cpp:156] Memory required for data: 1207926048
I0403 15:48:16.655009 11370 layer_factory.hpp:77] Creating layer loss2/relu_conv
I0403 15:48:16.655026 11370 net.cpp:91] Creating Layer loss2/relu_conv
I0403 15:48:16.655043 11370 net.cpp:425] loss2/relu_conv <- loss2/conv
I0403 15:48:16.655061 11370 net.cpp:386] loss2/relu_conv -> loss2/conv (in-place)
I0403 15:48:16.655344 11370 net.cpp:141] Setting up loss2/relu_conv
I0403 15:48:16.655375 11370 net.cpp:148] Top shape: 24 128 4 4 (49152)
I0403 15:48:16.655390 11370 net.cpp:156] Memory required for data: 1208122656
I0403 15:48:16.655405 11370 layer_factory.hpp:77] Creating layer loss2/fc
I0403 15:48:16.655423 11370 net.cpp:91] Creating Layer loss2/fc
I0403 15:48:16.655441 11370 net.cpp:425] loss2/fc <- loss2/conv
I0403 15:48:16.655462 11370 net.cpp:399] loss2/fc -> loss2/fc
I0403 15:48:16.673178 11370 net.cpp:141] Setting up loss2/fc
I0403 15:48:16.673215 11370 net.cpp:148] Top shape: 24 1024 (24576)
I0403 15:48:16.673230 11370 net.cpp:156] Memory required for data: 1208220960
I0403 15:48:16.673248 11370 layer_factory.hpp:77] Creating layer loss2/relu_fc
I0403 15:48:16.673271 11370 net.cpp:91] Creating Layer loss2/relu_fc
I0403 15:48:16.673288 11370 net.cpp:425] loss2/relu_fc <- loss2/fc
I0403 15:48:16.673305 11370 net.cpp:386] loss2/relu_fc -> loss2/fc (in-place)
I0403 15:48:16.673594 11370 net.cpp:141] Setting up loss2/relu_fc
I0403 15:48:16.673620 11370 net.cpp:148] Top shape: 24 1024 (24576)
I0403 15:48:16.673635 11370 net.cpp:156] Memory required for data: 1208319264
I0403 15:48:16.673650 11370 layer_factory.hpp:77] Creating layer loss2/drop_fc
I0403 15:48:16.673669 11370 net.cpp:91] Creating Layer loss2/drop_fc
I0403 15:48:16.673686 11370 net.cpp:425] loss2/drop_fc <- loss2/fc
I0403 15:48:16.673702 11370 net.cpp:386] loss2/drop_fc -> loss2/fc (in-place)
I0403 15:48:16.673751 11370 net.cpp:141] Setting up loss2/drop_fc
I0403 15:48:16.673774 11370 net.cpp:148] Top shape: 24 1024 (24576)
I0403 15:48:16.673789 11370 net.cpp:156] Memory required for data: 1208417568
I0403 15:48:16.673804 11370 layer_factory.hpp:77] Creating layer loss2/classifier_plantvillage
I0403 15:48:16.673821 11370 net.cpp:91] Creating Layer loss2/classifier_plantvillage
I0403 15:48:16.673837 11370 net.cpp:425] loss2/classifier_plantvillage <- loss2/fc
I0403 15:48:16.673856 11370 net.cpp:399] loss2/classifier_plantvillage -> loss2/classifier_plantvillage
I0403 15:48:16.674254 11370 net.cpp:141] Setting up loss2/classifier_plantvillage
I0403 15:48:16.674278 11370 net.cpp:148] Top shape: 24 38 (912)
I0403 15:48:16.674309 11370 net.cpp:156] Memory required for data: 1208421216
I0403 15:48:16.674329 11370 layer_factory.hpp:77] Creating layer loss2/classifier_plantvillage_loss2/classifier_plantvillage_0_split
I0403 15:48:16.674346 11370 net.cpp:91] Creating Layer loss2/classifier_plantvillage_loss2/classifier_plantvillage_0_split
I0403 15:48:16.674361 11370 net.cpp:425] loss2/classifier_plantvillage_loss2/classifier_plantvillage_0_split <- loss2/classifier_plantvillage
I0403 15:48:16.674378 11370 net.cpp:399] loss2/classifier_plantvillage_loss2/classifier_plantvillage_0_split -> loss2/classifier_plantvillage_loss2/classifier_plantvillage_0_split_0
I0403 15:48:16.674401 11370 net.cpp:399] loss2/classifier_plantvillage_loss2/classifier_plantvillage_0_split -> loss2/classifier_plantvillage_loss2/classifier_plantvillage_0_split_1
I0403 15:48:16.674420 11370 net.cpp:399] loss2/classifier_plantvillage_loss2/classifier_plantvillage_0_split -> loss2/classifier_plantvillage_loss2/classifier_plantvillage_0_split_2
I0403 15:48:16.674495 11370 net.cpp:141] Setting up loss2/classifier_plantvillage_loss2/classifier_plantvillage_0_split
I0403 15:48:16.674518 11370 net.cpp:148] Top shape: 24 38 (912)
I0403 15:48:16.674537 11370 net.cpp:148] Top shape: 24 38 (912)
I0403 15:48:16.674552 11370 net.cpp:148] Top shape: 24 38 (912)
I0403 15:48:16.674566 11370 net.cpp:156] Memory required for data: 1208432160
I0403 15:48:16.674579 11370 layer_factory.hpp:77] Creating layer inception_4e/1x1
I0403 15:48:16.674599 11370 net.cpp:91] Creating Layer inception_4e/1x1
I0403 15:48:16.674615 11370 net.cpp:425] inception_4e/1x1 <- inception_4d/output_inception_4d/output_0_split_1
I0403 15:48:16.674635 11370 net.cpp:399] inception_4e/1x1 -> inception_4e/1x1
I0403 15:48:16.676414 11370 net.cpp:141] Setting up inception_4e/1x1
I0403 15:48:16.676443 11370 net.cpp:148] Top shape: 24 256 14 14 (1204224)
I0403 15:48:16.676460 11370 net.cpp:156] Memory required for data: 1213249056
I0403 15:48:16.676477 11370 layer_factory.hpp:77] Creating layer inception_4e/relu_1x1
I0403 15:48:16.676496 11370 net.cpp:91] Creating Layer inception_4e/relu_1x1
I0403 15:48:16.676512 11370 net.cpp:425] inception_4e/relu_1x1 <- inception_4e/1x1
I0403 15:48:16.676530 11370 net.cpp:386] inception_4e/relu_1x1 -> inception_4e/1x1 (in-place)
I0403 15:48:16.676817 11370 net.cpp:141] Setting up inception_4e/relu_1x1
I0403 15:48:16.676846 11370 net.cpp:148] Top shape: 24 256 14 14 (1204224)
I0403 15:48:16.676861 11370 net.cpp:156] Memory required for data: 1218065952
I0403 15:48:16.676875 11370 layer_factory.hpp:77] Creating layer inception_4e/3x3_reduce
I0403 15:48:16.676897 11370 net.cpp:91] Creating Layer inception_4e/3x3_reduce
I0403 15:48:16.676913 11370 net.cpp:425] inception_4e/3x3_reduce <- inception_4d/output_inception_4d/output_0_split_2
I0403 15:48:16.676931 11370 net.cpp:399] inception_4e/3x3_reduce -> inception_4e/3x3_reduce
I0403 15:48:16.679059 11370 net.cpp:141] Setting up inception_4e/3x3_reduce
I0403 15:48:16.679090 11370 net.cpp:148] Top shape: 24 160 14 14 (752640)
I0403 15:48:16.679105 11370 net.cpp:156] Memory required for data: 1221076512
I0403 15:48:16.679124 11370 layer_factory.hpp:77] Creating layer inception_4e/relu_3x3_reduce
I0403 15:48:16.679142 11370 net.cpp:91] Creating Layer inception_4e/relu_3x3_reduce
I0403 15:48:16.679158 11370 net.cpp:425] inception_4e/relu_3x3_reduce <- inception_4e/3x3_reduce
I0403 15:48:16.679175 11370 net.cpp:386] inception_4e/relu_3x3_reduce -> inception_4e/3x3_reduce (in-place)
I0403 15:48:16.679358 11370 net.cpp:141] Setting up inception_4e/relu_3x3_reduce
I0403 15:48:16.679384 11370 net.cpp:148] Top shape: 24 160 14 14 (752640)
I0403 15:48:16.679400 11370 net.cpp:156] Memory required for data: 1224087072
I0403 15:48:16.679414 11370 layer_factory.hpp:77] Creating layer inception_4e/3x3
I0403 15:48:16.679435 11370 net.cpp:91] Creating Layer inception_4e/3x3
I0403 15:48:16.679452 11370 net.cpp:425] inception_4e/3x3 <- inception_4e/3x3_reduce
I0403 15:48:16.679471 11370 net.cpp:399] inception_4e/3x3 -> inception_4e/3x3
I0403 15:48:16.684371 11370 net.cpp:141] Setting up inception_4e/3x3
I0403 15:48:16.684414 11370 net.cpp:148] Top shape: 24 320 14 14 (1505280)
I0403 15:48:16.684432 11370 net.cpp:156] Memory required for data: 1230108192
I0403 15:48:16.684449 11370 layer_factory.hpp:77] Creating layer inception_4e/relu_3x3
I0403 15:48:16.684468 11370 net.cpp:91] Creating Layer inception_4e/relu_3x3
I0403 15:48:16.684484 11370 net.cpp:425] inception_4e/relu_3x3 <- inception_4e/3x3
I0403 15:48:16.684502 11370 net.cpp:386] inception_4e/relu_3x3 -> inception_4e/3x3 (in-place)
I0403 15:48:16.684795 11370 net.cpp:141] Setting up inception_4e/relu_3x3
I0403 15:48:16.684820 11370 net.cpp:148] Top shape: 24 320 14 14 (1505280)
I0403 15:48:16.684835 11370 net.cpp:156] Memory required for data: 1236129312
I0403 15:48:16.684850 11370 layer_factory.hpp:77] Creating layer inception_4e/5x5_reduce
I0403 15:48:16.684873 11370 net.cpp:91] Creating Layer inception_4e/5x5_reduce
I0403 15:48:16.684891 11370 net.cpp:425] inception_4e/5x5_reduce <- inception_4d/output_inception_4d/output_0_split_3
I0403 15:48:16.684912 11370 net.cpp:399] inception_4e/5x5_reduce -> inception_4e/5x5_reduce
I0403 15:48:16.685964 11370 net.cpp:141] Setting up inception_4e/5x5_reduce
I0403 15:48:16.685995 11370 net.cpp:148] Top shape: 24 32 14 14 (150528)
I0403 15:48:16.686012 11370 net.cpp:156] Memory required for data: 1236731424
I0403 15:48:16.686029 11370 layer_factory.hpp:77] Creating layer inception_4e/relu_5x5_reduce
I0403 15:48:16.686049 11370 net.cpp:91] Creating Layer inception_4e/relu_5x5_reduce
I0403 15:48:16.686066 11370 net.cpp:425] inception_4e/relu_5x5_reduce <- inception_4e/5x5_reduce
I0403 15:48:16.686084 11370 net.cpp:386] inception_4e/relu_5x5_reduce -> inception_4e/5x5_reduce (in-place)
I0403 15:48:16.686383 11370 net.cpp:141] Setting up inception_4e/relu_5x5_reduce
I0403 15:48:16.686408 11370 net.cpp:148] Top shape: 24 32 14 14 (150528)
I0403 15:48:16.686422 11370 net.cpp:156] Memory required for data: 1237333536
I0403 15:48:16.686436 11370 layer_factory.hpp:77] Creating layer inception_4e/5x5
I0403 15:48:16.686485 11370 net.cpp:91] Creating Layer inception_4e/5x5
I0403 15:48:16.686504 11370 net.cpp:425] inception_4e/5x5 <- inception_4e/5x5_reduce
I0403 15:48:16.686522 11370 net.cpp:399] inception_4e/5x5 -> inception_4e/5x5
I0403 15:48:16.688362 11370 net.cpp:141] Setting up inception_4e/5x5
I0403 15:48:16.688390 11370 net.cpp:148] Top shape: 24 128 14 14 (602112)
I0403 15:48:16.688405 11370 net.cpp:156] Memory required for data: 1239741984
I0403 15:48:16.688422 11370 layer_factory.hpp:77] Creating layer inception_4e/relu_5x5
I0403 15:48:16.688442 11370 net.cpp:91] Creating Layer inception_4e/relu_5x5
I0403 15:48:16.688459 11370 net.cpp:425] inception_4e/relu_5x5 <- inception_4e/5x5
I0403 15:48:16.688477 11370 net.cpp:386] inception_4e/relu_5x5 -> inception_4e/5x5 (in-place)
I0403 15:48:16.688666 11370 net.cpp:141] Setting up inception_4e/relu_5x5
I0403 15:48:16.688693 11370 net.cpp:148] Top shape: 24 128 14 14 (602112)
I0403 15:48:16.688707 11370 net.cpp:156] Memory required for data: 1242150432
I0403 15:48:16.688722 11370 layer_factory.hpp:77] Creating layer inception_4e/pool
I0403 15:48:16.688740 11370 net.cpp:91] Creating Layer inception_4e/pool
I0403 15:48:16.688755 11370 net.cpp:425] inception_4e/pool <- inception_4d/output_inception_4d/output_0_split_4
I0403 15:48:16.688772 11370 net.cpp:399] inception_4e/pool -> inception_4e/pool
I0403 15:48:16.688843 11370 net.cpp:141] Setting up inception_4e/pool
I0403 15:48:16.688865 11370 net.cpp:148] Top shape: 24 528 14 14 (2483712)
I0403 15:48:16.688879 11370 net.cpp:156] Memory required for data: 1252085280
I0403 15:48:16.688894 11370 layer_factory.hpp:77] Creating layer inception_4e/pool_proj
I0403 15:48:16.688915 11370 net.cpp:91] Creating Layer inception_4e/pool_proj
I0403 15:48:16.688930 11370 net.cpp:425] inception_4e/pool_proj <- inception_4e/pool
I0403 15:48:16.688951 11370 net.cpp:399] inception_4e/pool_proj -> inception_4e/pool_proj
I0403 15:48:16.690464 11370 net.cpp:141] Setting up inception_4e/pool_proj
I0403 15:48:16.690505 11370 net.cpp:148] Top shape: 24 128 14 14 (602112)
I0403 15:48:16.690521 11370 net.cpp:156] Memory required for data: 1254493728
I0403 15:48:16.690538 11370 layer_factory.hpp:77] Creating layer inception_4e/relu_pool_proj
I0403 15:48:16.690557 11370 net.cpp:91] Creating Layer inception_4e/relu_pool_proj
I0403 15:48:16.690574 11370 net.cpp:425] inception_4e/relu_pool_proj <- inception_4e/pool_proj
I0403 15:48:16.690592 11370 net.cpp:386] inception_4e/relu_pool_proj -> inception_4e/pool_proj (in-place)
I0403 15:48:16.690877 11370 net.cpp:141] Setting up inception_4e/relu_pool_proj
I0403 15:48:16.690903 11370 net.cpp:148] Top shape: 24 128 14 14 (602112)
I0403 15:48:16.690918 11370 net.cpp:156] Memory required for data: 1256902176
I0403 15:48:16.690932 11370 layer_factory.hpp:77] Creating layer inception_4e/output
I0403 15:48:16.690950 11370 net.cpp:91] Creating Layer inception_4e/output
I0403 15:48:16.690965 11370 net.cpp:425] inception_4e/output <- inception_4e/1x1
I0403 15:48:16.690985 11370 net.cpp:425] inception_4e/output <- inception_4e/3x3
I0403 15:48:16.691002 11370 net.cpp:425] inception_4e/output <- inception_4e/5x5
I0403 15:48:16.691018 11370 net.cpp:425] inception_4e/output <- inception_4e/pool_proj
I0403 15:48:16.691036 11370 net.cpp:399] inception_4e/output -> inception_4e/output
I0403 15:48:16.691087 11370 net.cpp:141] Setting up inception_4e/output
I0403 15:48:16.691110 11370 net.cpp:148] Top shape: 24 832 14 14 (3913728)
I0403 15:48:16.691124 11370 net.cpp:156] Memory required for data: 1272557088
I0403 15:48:16.691138 11370 layer_factory.hpp:77] Creating layer pool4/3x3_s2
I0403 15:48:16.691155 11370 net.cpp:91] Creating Layer pool4/3x3_s2
I0403 15:48:16.691171 11370 net.cpp:425] pool4/3x3_s2 <- inception_4e/output
I0403 15:48:16.691190 11370 net.cpp:399] pool4/3x3_s2 -> pool4/3x3_s2
I0403 15:48:16.691258 11370 net.cpp:141] Setting up pool4/3x3_s2
I0403 15:48:16.691282 11370 net.cpp:148] Top shape: 24 832 7 7 (978432)
I0403 15:48:16.691295 11370 net.cpp:156] Memory required for data: 1276470816
I0403 15:48:16.691310 11370 layer_factory.hpp:77] Creating layer pool4/3x3_s2_pool4/3x3_s2_0_split
I0403 15:48:16.691329 11370 net.cpp:91] Creating Layer pool4/3x3_s2_pool4/3x3_s2_0_split
I0403 15:48:16.691344 11370 net.cpp:425] pool4/3x3_s2_pool4/3x3_s2_0_split <- pool4/3x3_s2
I0403 15:48:16.691361 11370 net.cpp:399] pool4/3x3_s2_pool4/3x3_s2_0_split -> pool4/3x3_s2_pool4/3x3_s2_0_split_0
I0403 15:48:16.691382 11370 net.cpp:399] pool4/3x3_s2_pool4/3x3_s2_0_split -> pool4/3x3_s2_pool4/3x3_s2_0_split_1
I0403 15:48:16.691402 11370 net.cpp:399] pool4/3x3_s2_pool4/3x3_s2_0_split -> pool4/3x3_s2_pool4/3x3_s2_0_split_2
I0403 15:48:16.691421 11370 net.cpp:399] pool4/3x3_s2_pool4/3x3_s2_0_split -> pool4/3x3_s2_pool4/3x3_s2_0_split_3
I0403 15:48:16.691509 11370 net.cpp:141] Setting up pool4/3x3_s2_pool4/3x3_s2_0_split
I0403 15:48:16.691531 11370 net.cpp:148] Top shape: 24 832 7 7 (978432)
I0403 15:48:16.691547 11370 net.cpp:148] Top shape: 24 832 7 7 (978432)
I0403 15:48:16.691562 11370 net.cpp:148] Top shape: 24 832 7 7 (978432)
I0403 15:48:16.691577 11370 net.cpp:148] Top shape: 24 832 7 7 (978432)
I0403 15:48:16.691591 11370 net.cpp:156] Memory required for data: 1292125728
I0403 15:48:16.691604 11370 layer_factory.hpp:77] Creating layer inception_5a/1x1
I0403 15:48:16.691625 11370 net.cpp:91] Creating Layer inception_5a/1x1
I0403 15:48:16.691642 11370 net.cpp:425] inception_5a/1x1 <- pool4/3x3_s2_pool4/3x3_s2_0_split_0
I0403 15:48:16.691663 11370 net.cpp:399] inception_5a/1x1 -> inception_5a/1x1
I0403 15:48:16.694499 11370 net.cpp:141] Setting up inception_5a/1x1
I0403 15:48:16.694527 11370 net.cpp:148] Top shape: 24 256 7 7 (301056)
I0403 15:48:16.694542 11370 net.cpp:156] Memory required for data: 1293329952
I0403 15:48:16.694561 11370 layer_factory.hpp:77] Creating layer inception_5a/relu_1x1
I0403 15:48:16.694581 11370 net.cpp:91] Creating Layer inception_5a/relu_1x1
I0403 15:48:16.694597 11370 net.cpp:425] inception_5a/relu_1x1 <- inception_5a/1x1
I0403 15:48:16.694614 11370 net.cpp:386] inception_5a/relu_1x1 -> inception_5a/1x1 (in-place)
I0403 15:48:16.694921 11370 net.cpp:141] Setting up inception_5a/relu_1x1
I0403 15:48:16.694947 11370 net.cpp:148] Top shape: 24 256 7 7 (301056)
I0403 15:48:16.694960 11370 net.cpp:156] Memory required for data: 1294534176
I0403 15:48:16.694975 11370 layer_factory.hpp:77] Creating layer inception_5a/3x3_reduce
I0403 15:48:16.695004 11370 net.cpp:91] Creating Layer inception_5a/3x3_reduce
I0403 15:48:16.695024 11370 net.cpp:425] inception_5a/3x3_reduce <- pool4/3x3_s2_pool4/3x3_s2_0_split_1
I0403 15:48:16.695044 11370 net.cpp:399] inception_5a/3x3_reduce -> inception_5a/3x3_reduce
I0403 15:48:16.697504 11370 net.cpp:141] Setting up inception_5a/3x3_reduce
I0403 15:48:16.697532 11370 net.cpp:148] Top shape: 24 160 7 7 (188160)
I0403 15:48:16.697547 11370 net.cpp:156] Memory required for data: 1295286816
I0403 15:48:16.697566 11370 layer_factory.hpp:77] Creating layer inception_5a/relu_3x3_reduce
I0403 15:48:16.697583 11370 net.cpp:91] Creating Layer inception_5a/relu_3x3_reduce
I0403 15:48:16.697599 11370 net.cpp:425] inception_5a/relu_3x3_reduce <- inception_5a/3x3_reduce
I0403 15:48:16.697618 11370 net.cpp:386] inception_5a/relu_3x3_reduce -> inception_5a/3x3_reduce (in-place)
I0403 15:48:16.697800 11370 net.cpp:141] Setting up inception_5a/relu_3x3_reduce
I0403 15:48:16.697825 11370 net.cpp:148] Top shape: 24 160 7 7 (188160)
I0403 15:48:16.697840 11370 net.cpp:156] Memory required for data: 1296039456
I0403 15:48:16.697854 11370 layer_factory.hpp:77] Creating layer inception_5a/3x3
I0403 15:48:16.697875 11370 net.cpp:91] Creating Layer inception_5a/3x3
I0403 15:48:16.697893 11370 net.cpp:425] inception_5a/3x3 <- inception_5a/3x3_reduce
I0403 15:48:16.697914 11370 net.cpp:399] inception_5a/3x3 -> inception_5a/3x3
I0403 15:48:16.702853 11370 net.cpp:141] Setting up inception_5a/3x3
I0403 15:48:16.702883 11370 net.cpp:148] Top shape: 24 320 7 7 (376320)
I0403 15:48:16.702898 11370 net.cpp:156] Memory required for data: 1297544736
I0403 15:48:16.702915 11370 layer_factory.hpp:77] Creating layer inception_5a/relu_3x3
I0403 15:48:16.702935 11370 net.cpp:91] Creating Layer inception_5a/relu_3x3
I0403 15:48:16.702952 11370 net.cpp:425] inception_5a/relu_3x3 <- inception_5a/3x3
I0403 15:48:16.702970 11370 net.cpp:386] inception_5a/relu_3x3 -> inception_5a/3x3 (in-place)
I0403 15:48:16.703269 11370 net.cpp:141] Setting up inception_5a/relu_3x3
I0403 15:48:16.703295 11370 net.cpp:148] Top shape: 24 320 7 7 (376320)
I0403 15:48:16.703310 11370 net.cpp:156] Memory required for data: 1299050016
I0403 15:48:16.703325 11370 layer_factory.hpp:77] Creating layer inception_5a/5x5_reduce
I0403 15:48:16.703346 11370 net.cpp:91] Creating Layer inception_5a/5x5_reduce
I0403 15:48:16.703364 11370 net.cpp:425] inception_5a/5x5_reduce <- pool4/3x3_s2_pool4/3x3_s2_0_split_2
I0403 15:48:16.703387 11370 net.cpp:399] inception_5a/5x5_reduce -> inception_5a/5x5_reduce
I0403 15:48:16.704530 11370 net.cpp:141] Setting up inception_5a/5x5_reduce
I0403 15:48:16.704560 11370 net.cpp:148] Top shape: 24 32 7 7 (37632)
I0403 15:48:16.704576 11370 net.cpp:156] Memory required for data: 1299200544
I0403 15:48:16.704594 11370 layer_factory.hpp:77] Creating layer inception_5a/relu_5x5_reduce
I0403 15:48:16.704612 11370 net.cpp:91] Creating Layer inception_5a/relu_5x5_reduce
I0403 15:48:16.704627 11370 net.cpp:425] inception_5a/relu_5x5_reduce <- inception_5a/5x5_reduce
I0403 15:48:16.704643 11370 net.cpp:386] inception_5a/relu_5x5_reduce -> inception_5a/5x5_reduce (in-place)
I0403 15:48:16.704939 11370 net.cpp:141] Setting up inception_5a/relu_5x5_reduce
I0403 15:48:16.704967 11370 net.cpp:148] Top shape: 24 32 7 7 (37632)
I0403 15:48:16.704988 11370 net.cpp:156] Memory required for data: 1299351072
I0403 15:48:16.705003 11370 layer_factory.hpp:77] Creating layer inception_5a/5x5
I0403 15:48:16.705024 11370 net.cpp:91] Creating Layer inception_5a/5x5
I0403 15:48:16.705041 11370 net.cpp:425] inception_5a/5x5 <- inception_5a/5x5_reduce
I0403 15:48:16.705060 11370 net.cpp:399] inception_5a/5x5 -> inception_5a/5x5
I0403 15:48:16.706773 11370 net.cpp:141] Setting up inception_5a/5x5
I0403 15:48:16.706809 11370 net.cpp:148] Top shape: 24 128 7 7 (150528)
I0403 15:48:16.706825 11370 net.cpp:156] Memory required for data: 1299953184
I0403 15:48:16.706843 11370 layer_factory.hpp:77] Creating layer inception_5a/relu_5x5
I0403 15:48:16.706863 11370 net.cpp:91] Creating Layer inception_5a/relu_5x5
I0403 15:48:16.706881 11370 net.cpp:425] inception_5a/relu_5x5 <- inception_5a/5x5
I0403 15:48:16.706897 11370 net.cpp:386] inception_5a/relu_5x5 -> inception_5a/5x5 (in-place)
I0403 15:48:16.707087 11370 net.cpp:141] Setting up inception_5a/relu_5x5
I0403 15:48:16.707113 11370 net.cpp:148] Top shape: 24 128 7 7 (150528)
I0403 15:48:16.707129 11370 net.cpp:156] Memory required for data: 1300555296
I0403 15:48:16.707144 11370 layer_factory.hpp:77] Creating layer inception_5a/pool
I0403 15:48:16.707160 11370 net.cpp:91] Creating Layer inception_5a/pool
I0403 15:48:16.707175 11370 net.cpp:425] inception_5a/pool <- pool4/3x3_s2_pool4/3x3_s2_0_split_3
I0403 15:48:16.707195 11370 net.cpp:399] inception_5a/pool -> inception_5a/pool
I0403 15:48:16.707267 11370 net.cpp:141] Setting up inception_5a/pool
I0403 15:48:16.707288 11370 net.cpp:148] Top shape: 24 832 7 7 (978432)
I0403 15:48:16.707304 11370 net.cpp:156] Memory required for data: 1304469024
I0403 15:48:16.707317 11370 layer_factory.hpp:77] Creating layer inception_5a/pool_proj
I0403 15:48:16.707339 11370 net.cpp:91] Creating Layer inception_5a/pool_proj
I0403 15:48:16.707355 11370 net.cpp:425] inception_5a/pool_proj <- inception_5a/pool
I0403 15:48:16.707376 11370 net.cpp:399] inception_5a/pool_proj -> inception_5a/pool_proj
I0403 15:48:16.709674 11370 net.cpp:141] Setting up inception_5a/pool_proj
I0403 15:48:16.709704 11370 net.cpp:148] Top shape: 24 128 7 7 (150528)
I0403 15:48:16.709720 11370 net.cpp:156] Memory required for data: 1305071136
I0403 15:48:16.709739 11370 layer_factory.hpp:77] Creating layer inception_5a/relu_pool_proj
I0403 15:48:16.709760 11370 net.cpp:91] Creating Layer inception_5a/relu_pool_proj
I0403 15:48:16.709779 11370 net.cpp:425] inception_5a/relu_pool_proj <- inception_5a/pool_proj
I0403 15:48:16.709796 11370 net.cpp:386] inception_5a/relu_pool_proj -> inception_5a/pool_proj (in-place)
I0403 15:48:16.710104 11370 net.cpp:141] Setting up inception_5a/relu_pool_proj
I0403 15:48:16.710130 11370 net.cpp:148] Top shape: 24 128 7 7 (150528)
I0403 15:48:16.710145 11370 net.cpp:156] Memory required for data: 1305673248
I0403 15:48:16.710160 11370 layer_factory.hpp:77] Creating layer inception_5a/output
I0403 15:48:16.710178 11370 net.cpp:91] Creating Layer inception_5a/output
I0403 15:48:16.710198 11370 net.cpp:425] inception_5a/output <- inception_5a/1x1
I0403 15:48:16.710214 11370 net.cpp:425] inception_5a/output <- inception_5a/3x3
I0403 15:48:16.710232 11370 net.cpp:425] inception_5a/output <- inception_5a/5x5
I0403 15:48:16.710247 11370 net.cpp:425] inception_5a/output <- inception_5a/pool_proj
I0403 15:48:16.710264 11370 net.cpp:399] inception_5a/output -> inception_5a/output
I0403 15:48:16.710314 11370 net.cpp:141] Setting up inception_5a/output
I0403 15:48:16.710340 11370 net.cpp:148] Top shape: 24 832 7 7 (978432)
I0403 15:48:16.710355 11370 net.cpp:156] Memory required for data: 1309586976
I0403 15:48:16.710371 11370 layer_factory.hpp:77] Creating layer inception_5a/output_inception_5a/output_0_split
I0403 15:48:16.710387 11370 net.cpp:91] Creating Layer inception_5a/output_inception_5a/output_0_split
I0403 15:48:16.710403 11370 net.cpp:425] inception_5a/output_inception_5a/output_0_split <- inception_5a/output
I0403 15:48:16.710424 11370 net.cpp:399] inception_5a/output_inception_5a/output_0_split -> inception_5a/output_inception_5a/output_0_split_0
I0403 15:48:16.710445 11370 net.cpp:399] inception_5a/output_inception_5a/output_0_split -> inception_5a/output_inception_5a/output_0_split_1
I0403 15:48:16.710465 11370 net.cpp:399] inception_5a/output_inception_5a/output_0_split -> inception_5a/output_inception_5a/output_0_split_2
I0403 15:48:16.710486 11370 net.cpp:399] inception_5a/output_inception_5a/output_0_split -> inception_5a/output_inception_5a/output_0_split_3
I0403 15:48:16.710597 11370 net.cpp:141] Setting up inception_5a/output_inception_5a/output_0_split
I0403 15:48:16.710623 11370 net.cpp:148] Top shape: 24 832 7 7 (978432)
I0403 15:48:16.710640 11370 net.cpp:148] Top shape: 24 832 7 7 (978432)
I0403 15:48:16.710655 11370 net.cpp:148] Top shape: 24 832 7 7 (978432)
I0403 15:48:16.710671 11370 net.cpp:148] Top shape: 24 832 7 7 (978432)
I0403 15:48:16.710685 11370 net.cpp:156] Memory required for data: 1325241888
I0403 15:48:16.710700 11370 layer_factory.hpp:77] Creating layer inception_5b/1x1
I0403 15:48:16.710721 11370 net.cpp:91] Creating Layer inception_5b/1x1
I0403 15:48:16.710739 11370 net.cpp:425] inception_5b/1x1 <- inception_5a/output_inception_5a/output_0_split_0
I0403 15:48:16.710758 11370 net.cpp:399] inception_5b/1x1 -> inception_5b/1x1
I0403 15:48:16.714668 11370 net.cpp:141] Setting up inception_5b/1x1
I0403 15:48:16.714699 11370 net.cpp:148] Top shape: 24 384 7 7 (451584)
I0403 15:48:16.714715 11370 net.cpp:156] Memory required for data: 1327048224
I0403 15:48:16.714735 11370 layer_factory.hpp:77] Creating layer inception_5b/relu_1x1
I0403 15:48:16.714753 11370 net.cpp:91] Creating Layer inception_5b/relu_1x1
I0403 15:48:16.714771 11370 net.cpp:425] inception_5b/relu_1x1 <- inception_5b/1x1
I0403 15:48:16.714792 11370 net.cpp:386] inception_5b/relu_1x1 -> inception_5b/1x1 (in-place)
I0403 15:48:16.715116 11370 net.cpp:141] Setting up inception_5b/relu_1x1
I0403 15:48:16.715143 11370 net.cpp:148] Top shape: 24 384 7 7 (451584)
I0403 15:48:16.715159 11370 net.cpp:156] Memory required for data: 1328854560
I0403 15:48:16.715174 11370 layer_factory.hpp:77] Creating layer inception_5b/3x3_reduce
I0403 15:48:16.715198 11370 net.cpp:91] Creating Layer inception_5b/3x3_reduce
I0403 15:48:16.715216 11370 net.cpp:425] inception_5b/3x3_reduce <- inception_5a/output_inception_5a/output_0_split_1
I0403 15:48:16.715240 11370 net.cpp:399] inception_5b/3x3_reduce -> inception_5b/3x3_reduce
I0403 15:48:16.718010 11370 net.cpp:141] Setting up inception_5b/3x3_reduce
I0403 15:48:16.718041 11370 net.cpp:148] Top shape: 24 192 7 7 (225792)
I0403 15:48:16.718057 11370 net.cpp:156] Memory required for data: 1329757728
I0403 15:48:16.718077 11370 layer_factory.hpp:77] Creating layer inception_5b/relu_3x3_reduce
I0403 15:48:16.718098 11370 net.cpp:91] Creating Layer inception_5b/relu_3x3_reduce
I0403 15:48:16.718116 11370 net.cpp:425] inception_5b/relu_3x3_reduce <- inception_5b/3x3_reduce
I0403 15:48:16.718134 11370 net.cpp:386] inception_5b/relu_3x3_reduce -> inception_5b/3x3_reduce (in-place)
I0403 15:48:16.718332 11370 net.cpp:141] Setting up inception_5b/relu_3x3_reduce
I0403 15:48:16.718358 11370 net.cpp:148] Top shape: 24 192 7 7 (225792)
I0403 15:48:16.718372 11370 net.cpp:156] Memory required for data: 1330660896
I0403 15:48:16.718389 11370 layer_factory.hpp:77] Creating layer inception_5b/3x3
I0403 15:48:16.718413 11370 net.cpp:91] Creating Layer inception_5b/3x3
I0403 15:48:16.718431 11370 net.cpp:425] inception_5b/3x3 <- inception_5b/3x3_reduce
I0403 15:48:16.718451 11370 net.cpp:399] inception_5b/3x3 -> inception_5b/3x3
I0403 15:48:16.725289 11370 net.cpp:141] Setting up inception_5b/3x3
I0403 15:48:16.725318 11370 net.cpp:148] Top shape: 24 384 7 7 (451584)
I0403 15:48:16.725333 11370 net.cpp:156] Memory required for data: 1332467232
I0403 15:48:16.725353 11370 layer_factory.hpp:77] Creating layer inception_5b/relu_3x3
I0403 15:48:16.725373 11370 net.cpp:91] Creating Layer inception_5b/relu_3x3
I0403 15:48:16.725389 11370 net.cpp:425] inception_5b/relu_3x3 <- inception_5b/3x3
I0403 15:48:16.725407 11370 net.cpp:386] inception_5b/relu_3x3 -> inception_5b/3x3 (in-place)
I0403 15:48:16.725713 11370 net.cpp:141] Setting up inception_5b/relu_3x3
I0403 15:48:16.725739 11370 net.cpp:148] Top shape: 24 384 7 7 (451584)
I0403 15:48:16.725754 11370 net.cpp:156] Memory required for data: 1334273568
I0403 15:48:16.725769 11370 layer_factory.hpp:77] Creating layer inception_5b/5x5_reduce
I0403 15:48:16.725806 11370 net.cpp:91] Creating Layer inception_5b/5x5_reduce
I0403 15:48:16.725826 11370 net.cpp:425] inception_5b/5x5_reduce <- inception_5a/output_inception_5a/output_0_split_2
I0403 15:48:16.725847 11370 net.cpp:399] inception_5b/5x5_reduce -> inception_5b/5x5_reduce
I0403 15:48:16.727143 11370 net.cpp:141] Setting up inception_5b/5x5_reduce
I0403 15:48:16.727170 11370 net.cpp:148] Top shape: 24 48 7 7 (56448)
I0403 15:48:16.727186 11370 net.cpp:156] Memory required for data: 1334499360
I0403 15:48:16.727206 11370 layer_factory.hpp:77] Creating layer inception_5b/relu_5x5_reduce
I0403 15:48:16.727226 11370 net.cpp:91] Creating Layer inception_5b/relu_5x5_reduce
I0403 15:48:16.727244 11370 net.cpp:425] inception_5b/relu_5x5_reduce <- inception_5b/5x5_reduce
I0403 15:48:16.727262 11370 net.cpp:386] inception_5b/relu_5x5_reduce -> inception_5b/5x5_reduce (in-place)
I0403 15:48:16.727640 11370 net.cpp:141] Setting up inception_5b/relu_5x5_reduce
I0403 15:48:16.727668 11370 net.cpp:148] Top shape: 24 48 7 7 (56448)
I0403 15:48:16.727684 11370 net.cpp:156] Memory required for data: 1334725152
I0403 15:48:16.727699 11370 layer_factory.hpp:77] Creating layer inception_5b/5x5
I0403 15:48:16.727720 11370 net.cpp:91] Creating Layer inception_5b/5x5
I0403 15:48:16.727737 11370 net.cpp:425] inception_5b/5x5 <- inception_5b/5x5_reduce
I0403 15:48:16.727756 11370 net.cpp:399] inception_5b/5x5 -> inception_5b/5x5
I0403 15:48:16.729841 11370 net.cpp:141] Setting up inception_5b/5x5
I0403 15:48:16.729869 11370 net.cpp:148] Top shape: 24 128 7 7 (150528)
I0403 15:48:16.729884 11370 net.cpp:156] Memory required for data: 1335327264
I0403 15:48:16.729910 11370 layer_factory.hpp:77] Creating layer inception_5b/relu_5x5
I0403 15:48:16.729930 11370 net.cpp:91] Creating Layer inception_5b/relu_5x5
I0403 15:48:16.729948 11370 net.cpp:425] inception_5b/relu_5x5 <- inception_5b/5x5
I0403 15:48:16.729964 11370 net.cpp:386] inception_5b/relu_5x5 -> inception_5b/5x5 (in-place)
I0403 15:48:16.730159 11370 net.cpp:141] Setting up inception_5b/relu_5x5
I0403 15:48:16.730185 11370 net.cpp:148] Top shape: 24 128 7 7 (150528)
I0403 15:48:16.730202 11370 net.cpp:156] Memory required for data: 1335929376
I0403 15:48:16.730217 11370 layer_factory.hpp:77] Creating layer inception_5b/pool
I0403 15:48:16.730234 11370 net.cpp:91] Creating Layer inception_5b/pool
I0403 15:48:16.730250 11370 net.cpp:425] inception_5b/pool <- inception_5a/output_inception_5a/output_0_split_3
I0403 15:48:16.730270 11370 net.cpp:399] inception_5b/pool -> inception_5b/pool
I0403 15:48:16.730340 11370 net.cpp:141] Setting up inception_5b/pool
I0403 15:48:16.730363 11370 net.cpp:148] Top shape: 24 832 7 7 (978432)
I0403 15:48:16.730378 11370 net.cpp:156] Memory required for data: 1339843104
I0403 15:48:16.730392 11370 layer_factory.hpp:77] Creating layer inception_5b/pool_proj
I0403 15:48:16.730413 11370 net.cpp:91] Creating Layer inception_5b/pool_proj
I0403 15:48:16.730432 11370 net.cpp:425] inception_5b/pool_proj <- inception_5b/pool
I0403 15:48:16.730453 11370 net.cpp:399] inception_5b/pool_proj -> inception_5b/pool_proj
I0403 15:48:16.732724 11370 net.cpp:141] Setting up inception_5b/pool_proj
I0403 15:48:16.732753 11370 net.cpp:148] Top shape: 24 128 7 7 (150528)
I0403 15:48:16.732769 11370 net.cpp:156] Memory required for data: 1340445216
I0403 15:48:16.732787 11370 layer_factory.hpp:77] Creating layer inception_5b/relu_pool_proj
I0403 15:48:16.732807 11370 net.cpp:91] Creating Layer inception_5b/relu_pool_proj
I0403 15:48:16.732825 11370 net.cpp:425] inception_5b/relu_pool_proj <- inception_5b/pool_proj
I0403 15:48:16.732841 11370 net.cpp:386] inception_5b/relu_pool_proj -> inception_5b/pool_proj (in-place)
I0403 15:48:16.733137 11370 net.cpp:141] Setting up inception_5b/relu_pool_proj
I0403 15:48:16.733162 11370 net.cpp:148] Top shape: 24 128 7 7 (150528)
I0403 15:48:16.733186 11370 net.cpp:156] Memory required for data: 1341047328
I0403 15:48:16.733202 11370 layer_factory.hpp:77] Creating layer inception_5b/output
I0403 15:48:16.733219 11370 net.cpp:91] Creating Layer inception_5b/output
I0403 15:48:16.733249 11370 net.cpp:425] inception_5b/output <- inception_5b/1x1
I0403 15:48:16.733268 11370 net.cpp:425] inception_5b/output <- inception_5b/3x3
I0403 15:48:16.733283 11370 net.cpp:425] inception_5b/output <- inception_5b/5x5
I0403 15:48:16.733299 11370 net.cpp:425] inception_5b/output <- inception_5b/pool_proj
I0403 15:48:16.733319 11370 net.cpp:399] inception_5b/output -> inception_5b/output
I0403 15:48:16.733372 11370 net.cpp:141] Setting up inception_5b/output
I0403 15:48:16.733395 11370 net.cpp:148] Top shape: 24 1024 7 7 (1204224)
I0403 15:48:16.733409 11370 net.cpp:156] Memory required for data: 1345864224
I0403 15:48:16.733423 11370 layer_factory.hpp:77] Creating layer pool5/7x7_s1
I0403 15:48:16.733440 11370 net.cpp:91] Creating Layer pool5/7x7_s1
I0403 15:48:16.733456 11370 net.cpp:425] pool5/7x7_s1 <- inception_5b/output
I0403 15:48:16.733485 11370 net.cpp:399] pool5/7x7_s1 -> pool5/7x7_s1
I0403 15:48:16.733698 11370 net.cpp:141] Setting up pool5/7x7_s1
I0403 15:48:16.733722 11370 net.cpp:148] Top shape: 24 1024 1 1 (24576)
I0403 15:48:16.733737 11370 net.cpp:156] Memory required for data: 1345962528
I0403 15:48:16.733752 11370 layer_factory.hpp:77] Creating layer pool5/drop_7x7_s1
I0403 15:48:16.733772 11370 net.cpp:91] Creating Layer pool5/drop_7x7_s1
I0403 15:48:16.733788 11370 net.cpp:425] pool5/drop_7x7_s1 <- pool5/7x7_s1
I0403 15:48:16.733804 11370 net.cpp:386] pool5/drop_7x7_s1 -> pool5/7x7_s1 (in-place)
I0403 15:48:16.733855 11370 net.cpp:141] Setting up pool5/drop_7x7_s1
I0403 15:48:16.733877 11370 net.cpp:148] Top shape: 24 1024 1 1 (24576)
I0403 15:48:16.733891 11370 net.cpp:156] Memory required for data: 1346060832
I0403 15:48:16.733906 11370 layer_factory.hpp:77] Creating layer loss3/classifier_plantvillage
I0403 15:48:16.733924 11370 net.cpp:91] Creating Layer loss3/classifier_plantvillage
I0403 15:48:16.733942 11370 net.cpp:425] loss3/classifier_plantvillage <- pool5/7x7_s1
I0403 15:48:16.733961 11370 net.cpp:399] loss3/classifier_plantvillage -> loss3/classifier_plantvillage
I0403 15:48:16.734387 11370 net.cpp:141] Setting up loss3/classifier_plantvillage
I0403 15:48:16.734412 11370 net.cpp:148] Top shape: 24 38 (912)
I0403 15:48:16.734426 11370 net.cpp:156] Memory required for data: 1346064480
I0403 15:48:16.734444 11370 layer_factory.hpp:77] Creating layer loss3/classifier_plantvillage_loss3/classifier_plantvillage_0_split
I0403 15:48:16.734462 11370 net.cpp:91] Creating Layer loss3/classifier_plantvillage_loss3/classifier_plantvillage_0_split
I0403 15:48:16.734478 11370 net.cpp:425] loss3/classifier_plantvillage_loss3/classifier_plantvillage_0_split <- loss3/classifier_plantvillage
I0403 15:48:16.734498 11370 net.cpp:399] loss3/classifier_plantvillage_loss3/classifier_plantvillage_0_split -> loss3/classifier_plantvillage_loss3/classifier_plantvillage_0_split_0
I0403 15:48:16.734518 11370 net.cpp:399] loss3/classifier_plantvillage_loss3/classifier_plantvillage_0_split -> loss3/classifier_plantvillage_loss3/classifier_plantvillage_0_split_1
I0403 15:48:16.734536 11370 net.cpp:399] loss3/classifier_plantvillage_loss3/classifier_plantvillage_0_split -> loss3/classifier_plantvillage_loss3/classifier_plantvillage_0_split_2
I0403 15:48:16.734555 11370 net.cpp:399] loss3/classifier_plantvillage_loss3/classifier_plantvillage_0_split -> loss3/classifier_plantvillage_loss3/classifier_plantvillage_0_split_3
I0403 15:48:16.734653 11370 net.cpp:141] Setting up loss3/classifier_plantvillage_loss3/classifier_plantvillage_0_split
I0403 15:48:16.734676 11370 net.cpp:148] Top shape: 24 38 (912)
I0403 15:48:16.734693 11370 net.cpp:148] Top shape: 24 38 (912)
I0403 15:48:16.734707 11370 net.cpp:148] Top shape: 24 38 (912)
I0403 15:48:16.734721 11370 net.cpp:148] Top shape: 24 38 (912)
I0403 15:48:16.734735 11370 net.cpp:156] Memory required for data: 1346079072
I0403 15:48:16.734750 11370 layer_factory.hpp:77] Creating layer loss1/loss
I0403 15:48:16.734771 11370 net.cpp:91] Creating Layer loss1/loss
I0403 15:48:16.734786 11370 net.cpp:425] loss1/loss <- loss1/classifier_plantvillage_loss1/classifier_plantvillage_0_split_0
I0403 15:48:16.734817 11370 net.cpp:425] loss1/loss <- label_data_1_split_0
…
