…
I0403 15:40:20.774296 10924 net.cpp:313] The NetState phase (1) differed from the phase (0) specified by a rule in layer data
I0403 15:40:20.775477 10924 net.cpp:49] Initializing net from parameters: 
state {
  phase: TEST
}
layer {
  name: "data"
  type: "Data"
  top: "data"
  top: "label"
  include {
    phase: TEST
  }
  transform_param {
    mirror: false
    crop_size: 224
    mean_file: "/home/mohanty/data/final_dataset/lmdb/segmented-80-20/mean.binaryproto"
  }
  data_param {
    source: "/home/mohanty/data/final_dataset/lmdb/segmented-80-20/test_db"
    batch_size: 24
    backend: LMDB
  }
}
layer {
  name: "conv1/7x7_s2"
  type: "Convolution"
  bottom: "data"
  top: "conv1/7x7_s2"
  param {
    lr_mult: 1
    decay_mult: 1
  }
  param {
    lr_mult: 2
    decay_mult: 0
  }
  convolution_param {
    num_output: 64
    pad: 3
    kernel_size: 7
    stride: 2
    weight_filler {
      type: "xavier"
      std: 0.1
    }
    bias_filler {
      type: "constant"
      value: 0.2
    }
  }
}
layer {
  name: "conv1/relu_7x7"
  type: "ReLU"
  bottom: "conv1/7x7_s2"
  top: "conv1/7x7_s2"
}
layer {
  name: "pool1/3x3_s2"
  type: "Pooling"
  bottom: "conv1/7x7_s2"
  top: "pool1/3x3_s2"
  pooling_param {
    pool: MAX
    kernel_size: 3
    stride: 2
  }
}
layer {
  name: "pool1/norm1"
  type: "LRN"
  bottom: "pool1/3x3_s2"
  top: "pool1/norm1"
  lrn_param {
    local_size: 5
    alpha: 0.0001
    beta: 0.75
  }
}
layer {
  name: "conv2/3x3_reduce"
  type: "Convolution"
  bottom: "pool1/norm1"
  top: "conv2/3x3_reduce"
  param {
    lr_mult: 1
    decay_mult: 1
  }
  param {
    lr_mult: 2
    decay_mult: 0
  }
  convolution_param {
    num_output: 64
    kernel_size: 1
    weight_filler {
      type: "xavier"
      std: 0.1
    }
    bias_filler {
      type: "constant"
      value: 0.2
    }
  }
}
layer {
  name: "conv2/relu_3x3_reduce"
  type: "ReLU"
  bottom: "conv2/3x3_reduce"
  top: "conv2/3x3_reduce"
}
layer {
  name: "conv2/3x3"
  type: "Convolution"
  bottom: "conv2/3x3_reduce"
  top: "conv2/3x3"
  param {
    lr_mult: 1
    decay_mult: 1
  }
  param {
    lr_mult: 2
    decay_mult: 0
  }
  convolution_param {
    num_output: 192
    pad: 1
    kernel_size: 3
    weight_filler {
      type: "xavier"
      std: 0.03
    }
    bias_filler {
      type: "constant"
      value: 0.2
    }
  }
}
layer {
  name: "conv2/relu_3x3"
  type: "ReLU"
  bottom: "conv2/3x3"
  top: "conv2/3x3"
}
layer {
  name: "conv2/norm2"
  type: "LRN"
  bottom: "conv2/3x3"
  top: "conv2/norm2"
  lrn_param {
    local_size: 5
    alpha: 0.0001
    beta: 0.75
  }
}
layer {
  name: "pool2/3x3_s2"
  type: "Pooling"
  bottom: "conv2/norm2"
  top: "pool2/3x3_s2"
  pooling_param {
    pool: MAX
    kernel_size: 3
    stride: 2
  }
}
layer {
  name: "inception_3a/1x1"
  type: "Convolution"
  bottom: "pool2/3x3_s2"
  top: "inception_3a/1x1"
  param {
    lr_mult: 1
    decay_mult: 1
  }
  param {
    lr_mult: 2
    decay_mult: 0
  }
  convolution_param {
    num_output: 64
    kernel_size: 1
    weight_filler {
      type: "xavier"
      std: 0.03
    }
    bias_filler {
      type: "constant"
      value: 0.2
    }
  }
}
layer {
  name: "inception_3a/relu_1x1"
  type: "ReLU"
  bottom: "inception_3a/1x1"
  top: "inception_3a/1x1"
}
layer {
  name: "inception_3a/3x3_reduce"
  type: "Convolution"
  bottom: "pool2/3x3_s2"
  top: "inception_3a/3x3_reduce"
  param {
    lr_mult: 1
    decay_mult: 1
  }
  param {
    lr_mult: 2
    decay_mult: 0
  }
  convolution_param {
    num_output: 96
    kernel_size: 1
    weight_filler {
      type: "xavier"
      std: 0.09
    }
    bias_filler {
      type: "constant"
      value: 0.2
    }
  }
}
layer {
  name: "inception_3a/relu_3x3_reduce"
  type: "ReLU"
  bottom: "inception_3a/3x3_reduce"
  top: "inception_3a/3x3_reduce"
}
layer {
  name: "inception_3a/3x3"
  type: "Convolution"
  bottom: "inception_3a/3x3_reduce"
  top: "inception_3a/3x3"
  param {
    lr_mult: 1
    decay_mult: 1
  }
  param {
    lr_mult: 2
    decay_mult: 0
  }
  convolution_param {
    num_output: 128
    pad: 1
    kernel_size: 3
    weight_filler {
      type: "xavier"
      std: 0.03
    }
    bias_filler {
      type: "constant"
      value: 0.2
    }
  }
}
layer {
  name: "inception_3a/relu_3x3"
  type: "ReLU"
  bottom: "inception_3a/3x3"
  top: "inception_3a/3x3"
}
layer {
  name: "inception_3a/5x5_reduce"
  type: "Convolution"
  bottom: "pool2/3x3_s2"
  top: "inception_3a/5x5_reduce"
  param {
    lr_mult: 1
    decay_mult: 1
  }
  param {
    lr_mult: 2
    decay_mult: 0
  }
  convolution_param {
    num_output: 16
    kernel_size: 1
    weight_filler {
      type: "xavier"
      std: 0.2
    }
    bias_filler {
      type: "constant"
      value: 0.2
    }
  }
}
layer {
  name: "inception_3a/relu_5x5_reduce"
  type: "ReLU"
  bottom: "inception_3a/5x5_reduce"
  top: "inception_3a/5x5_reduce"
}
layer {
  name: "inception_3a/5x5"
  type: "Convolution"
  bottom: "inception_3a/5x5_reduce"
  top: "inception_3a/5x5"
  param {
    lr_mult: 1
    decay_mult: 1
  }
  param {
    lr_mult: 2
    decay_mult: 0
  }
  convolution_param {
    num_output: 32
    pad: 2
    kernel_size: 5
    weight_filler {
      type: "xavier"
      std: 0.03
    }
    bias_filler {
      type: "constant"
      value: 0.2
    }
  }
}
layer {
  name: "inception_3a/relu_5x5"
  type: "ReLU"
  bottom: "inception_3a/5x5"
  top: "inception_3a/5x5"
}
layer {
  name: "inception_3a/pool"
  type: "Pooling"
  bottom: "pool2/3x3_s2"
  top: "inception_3a/pool"
  pooling_param {
    pool: MAX
    kernel_size: 3
    stride: 1
    pad: 1
  }
}
layer {
  name: "inception_3a/pool_proj"
  type: "Convolution"
  bottom: "inception_3a/pool"
  top: "inception_3a/pool_proj"
  param {
    lr_mult: 1
    decay_mult: 1
  }
  param {
    lr_mult: 2
    decay_mult: 0
  }
  convolution_param {
    num_output: 32
    kernel_size: 1
    weight_filler {
      type: "xavier"
      std: 0.1
    }
    bias_filler {
      type: "constant"
      value: 0.2
    }
  }
}
layer {
  name: "inception_3a/relu_pool_proj"
  type: "ReLU"
  bottom: "inception_3a/pool_proj"
  top: "inception_3a/pool_proj"
}
layer {
  name: "inception_3a/output"
  type: "Concat"
  bottom: "inception_3a/1x1"
  bottom: "inception_3a/3x3"
  bottom: "inception_3a/5x5"
  bottom: "inception_3a/pool_proj"
  top: "inception_3a/output"
}
layer {
  name: "inception_3b/1x1"
  type: "Convolution"
  bottom: "inception_3a/output"
  top: "inception_3b/1x1"
  param {
    lr_mult: 1
    decay_mult: 1
  }
  param {
    lr_mult: 2
    decay_mult: 0
  }
  convolution_param {
    num_output: 128
    kernel_size: 1
    weight_filler {
      type: "xavier"
      std: 0.03
    }
    bias_filler {
      type: "constant"
      value: 0.2
    }
  }
}
layer {
  name: "inception_3b/relu_1x1"
  type: "ReLU"
  bottom: "inception_3b/1x1"
  top: "inception_3b/1x1"
}
layer {
  name: "inception_3b/3x3_reduce"
  type: "Convolution"
  bottom: "inception_3a/output"
  top: "inception_3b/3x3_reduce"
  param {
    lr_mult: 1
    decay_mult: 1
  }
  param {
    lr_mult: 2
    decay_mult: 0
  }
  convolution_param {
    num_output: 128
    kernel_size: 1
    weight_filler {
      type: "xavier"
      std: 0.09
    }
    bias_filler {
      type: "constant"
      value: 0.2
    }
  }
}
layer {
  name: "inception_3b/relu_3x3_reduce"
  type: "ReLU"
  bottom: "inception_3b/3x3_reduce"
  top: "inception_3b/3x3_reduce"
}
layer {
  name: "inception_3b/3x3"
  type: "Convolution"
  bottom: "inception_3b/3x3_reduce"
  top: "inception_3b/3x3"
  param {
    lr_mult: 1
    decay_mult: 1
  }
  param {
    lr_mult: 2
    decay_mult: 0
  }
  convolution_param {
    num_output: 192
    pad: 1
    kernel_size: 3
    weight_filler {
      type: "xavier"
      std: 0.03
    }
    bias_filler {
      type: "constant"
      value: 0.2
    }
  }
}
layer {
  name: "inception_3b/relu_3x3"
  type: "ReLU"
  bottom: "inception_3b/3x3"
  top: "inception_3b/3x3"
}
layer {
  name: "inception_3b/5x5_reduce"
  type: "Convolution"
  bottom: "inception_3a/output"
  top: "inception_3b/5x5_reduce"
  param {
    lr_mult: 1
    decay_mult: 1
  }
  param {
    lr_mult: 2
    decay_mult: 0
  }
  convolution_param {
    num_output: 32
    kernel_size: 1
    weight_filler {
      type: "xavier"
      std: 0.2
    }
    bias_filler {
      type: "constant"
      value: 0.2
    }
  }
}
layer {
  name: "inception_3b/relu_5x5_reduce"
  type: "ReLU"
  bottom: "inception_3b/5x5_reduce"
  top: "inception_3b/5x5_reduce"
}
layer {
  name: "inception_3b/5x5"
  type: "Convolution"
  bottom: "inception_3b/5x5_reduce"
  top: "inception_3b/5x5"
  param {
    lr_mult: 1
    decay_mult: 1
  }
  param {
    lr_mult: 2
    decay_mult: 0
  }
  convolution_param {
    num_output: 96
    pad: 2
    kernel_size: 5
    weight_filler {
      type: "xavier"
      std: 0.03
    }
    bias_filler {
      type: "constant"
      value: 0.2
    }
  }
}
layer {
  name: "inception_3b/relu_5x5"
  type: "ReLU"
  bottom: "inception_3b/5x5"
  top: "inception_3b/5x5"
}
layer {
  name: "inception_3b/pool"
  type: "Pooling"
  bottom: "inception_3a/output"
  top: "inception_3b/pool"
  pooling_param {
    pool: MAX
    kernel_size: 3
    stride: 1
    pad: 1
  }
}
layer {
  name: "inception_3b/pool_proj"
  type: "Convolution"
  bottom: "inception_3b/pool"
  top: "inception_3b/pool_proj"
  param {
    lr_mult: 1
    decay_mult: 1
  }
  param {
    lr_mult: 2
    decay_mult: 0
  }
  convolution_param {
    num_output: 64
    kernel_size: 1
    weight_filler {
      type: "xavier"
      std: 0.1
    }
    bias_filler {
      type: "constant"
      value: 0.2
    }
  }
}
layer {
  name: "inception_3b/relu_pool_proj"
  type: "ReLU"
  bottom: "inception_3b/pool_proj"
  top: "inception_3b/pool_proj"
}
layer {
  name: "inception_3b/output"
  type: "Concat"
  bottom: "inception_3b/1x1"
  bottom: "inception_3b/3x3"
  bottom: "inception_3b/5x5"
  bottom: "inception_3b/pool_proj"
  top: "inception_3b/output"
}
layer {
  name: "pool3/3x3_s2"
  type: "Pooling"
  bottom: "inception_3b/output"
  top: "pool3/3x3_s2"
  pooling_param {
    pool: MAX
    kernel_size: 3
    stride: 2
  }
}
layer {
  name: "inception_4a/1x1"
  type: "Convolution"
  bottom: "pool3/3x3_s2"
  top: "inception_4a/1x1"
  param {
    lr_mult: 1
    decay_mult: 1
  }
  param {
    lr_mult: 2
    decay_mult: 0
  }
  convolution_param {
    num_output: 192
    kernel_size: 1
    weight_filler {
      type: "xavier"
      std: 0.03
    }
    bias_filler {
      type: "constant"
      value: 0.2
    }
  }
}
layer {
  name: "inception_4a/relu_1x1"
  type: "ReLU"
  bottom: "inception_4a/1x1"
  top: "inception_4a/1x1"
}
layer {
  name: "inception_4a/3x3_reduce"
  type: "Convolution"
  bottom: "pool3/3x3_s2"
  top: "inception_4a/3x3_reduce"
  param {
    lr_mult: 1
    decay_mult: 1
  }
  param {
    lr_mult: 2
    decay_mult: 0
  }
  convolution_param {
    num_output: 96
    kernel_size: 1
    weight_filler {
      type: "xavier"
      std: 0.09
    }
    bias_filler {
      type: "constant"
      value: 0.2
    }
  }
}
layer {
  name: "inception_4a/relu_3x3_reduce"
  type: "ReLU"
  bottom: "inception_4a/3x3_reduce"
  top: "inception_4a/3x3_reduce"
}
layer {
  name: "inception_4a/3x3"
  type: "Convolution"
  bottom: "inception_4a/3x3_reduce"
  top: "inception_4a/3x3"
  param {
    lr_mult: 1
    decay_mult: 1
  }
  param {
    lr_mult: 2
    decay_mult: 0
  }
  convolution_param {
    num_output: 208
    pad: 1
    kernel_size: 3
    weight_filler {
      type: "xavier"
      std: 0.03
    }
    bias_filler {
      type: "constant"
      value: 0.2
    }
  }
}
layer {
  name: "inception_4a/relu_3x3"
  type: "ReLU"
  bottom: "inception_4a/3x3"
  top: "inception_4a/3x3"
}
layer {
  name: "inception_4a/5x5_reduce"
  type: "Convolution"
  bottom: "pool3/3x3_s2"
  top: "inception_4a/5x5_reduce"
  param {
    lr_mult: 1
    decay_mult: 1
  }
  param {
    lr_mult: 2
    decay_mult: 0
  }
  convolution_param {
    num_output: 16
    kernel_size: 1
    weight_filler {
      type: "xavier"
      std: 0.2
    }
    bias_filler {
      type: "constant"
      value: 0.2
    }
  }
}
layer {
  name: "inception_4a/relu_5x5_reduce"
  type: "ReLU"
  bottom: "inception_4a/5x5_reduce"
  top: "inception_4a/5x5_reduce"
}
layer {
  name: "inception_4a/5x5"
  type: "Convolution"
  bottom: "inception_4a/5x5_reduce"
  top: "inception_4a/5x5"
  param {
    lr_mult: 1
    decay_mult: 1
  }
  param {
    lr_mult: 2
    decay_mult: 0
  }
  convolution_param {
    num_output: 48
    pad: 2
    kernel_size: 5
    weight_filler {
      type: "xavier"
      std: 0.03
    }
    bias_filler {
      type: "constant"
      value: 0.2
    }
  }
}
layer {
  name: "inception_4a/relu_5x5"
  type: "ReLU"
  bottom: "inception_4a/5x5"
  top: "inception_4a/5x5"
}
layer {
  name: "inception_4a/pool"
  type: "Pooling"
  bottom: "pool3/3x3_s2"
  top: "inception_4a/pool"
  pooling_param {
    pool: MAX
    kernel_size: 3
    stride: 1
    pad: 1
  }
}
layer {
  name: "inception_4a/pool_proj"
  type: "Convolution"
  bottom: "inception_4a/pool"
  top: "inception_4a/pool_proj"
  param {
    lr_mult: 1
    decay_mult: 1
  }
  param {
    lr_mult: 2
    decay_mult: 0
  }
  convolution_param {
    num_output: 64
    kernel_size: 1
    weight_filler {
      type: "xavier"
      std: 0.1
    }
    bias_filler {
      type: "constant"
      value: 0.2
    }
  }
}
layer {
  name: "inception_4a/relu_pool_proj"
  type: "ReLU"
  bottom: "inception_4a/pool_proj"
  top: "inception_4a/pool_proj"
}
layer {
  name: "inception_4a/output"
  type: "Concat"
  bottom: "inception_4a/1x1"
  bottom: "inception_4a/3x3"
  bottom: "inception_4a/5x5"
  bottom: "inception_4a/pool_proj"
  top: "inception_4a/output"
}
layer {
  name: "loss1/ave_pool"
  type: "Pooling"
  bottom: "inception_4a/output"
  top: "loss1/ave_pool"
  pooling_param {
    pool: AVE
    kernel_size: 5
    stride: 3
  }
}
layer {
  name: "loss1/conv"
  type: "Convolution"
  bottom: "loss1/ave_pool"
  top: "loss1/conv"
  param {
    lr_mult: 1
    decay_mult: 1
  }
  param {
    lr_mult: 2
    decay_mult: 0
  }
  convolution_param {
    num_output: 128
    kernel_size: 1
    weight_filler {
      type: "xavier"
      std: 0.08
    }
    bias_filler {
      type: "constant"
      value: 0.2
    }
  }
}
layer {
  name: "loss1/relu_conv"
  type: "ReLU"
  bottom: "loss1/conv"
  top: "loss1/conv"
}
layer {
  name: "loss1/fc"
  type: "InnerProduct"
  bottom: "loss1/conv"
  top: "loss1/fc"
  param {
    lr_mult: 1
    decay_mult: 1
  }
  param {
    lr_mult: 2
    decay_mult: 0
  }
  inner_product_param {
    num_output: 1024
    weight_filler {
      type: "xavier"
      std: 0.02
    }
    bias_filler {
      type: "constant"
      value: 0.2
    }
  }
}
layer {
  name: "loss1/relu_fc"
  type: "ReLU"
  bottom: "loss1/fc"
  top: "loss1/fc"
}
layer {
  name: "loss1/drop_fc"
  type: "Dropout"
  bottom: "loss1/fc"
  top: "loss1/fc"
  dropout_param {
    dropout_ratio: 0.7
  }
}
layer {
  name: "loss1/classifier_plantvillage"
  type: "InnerProduct"
  bottom: "loss1/fc"
  top: "loss1/classifier_plantvillage"
  param {
    lr_mult: 1
    decay_mult: 1
  }
  param {
    lr_mult: 2
    decay_mult: 0
  }
  inner_product_param {
    num_output: 38
    weight_filler {
      type: "xavier"
      std: 0.0009765625
    }
    bias_filler {
      type: "constant"
      value: 0
    }
  }
}
layer {
  name: "inception_4b/1x1"
  type: "Convolution"
  bottom: "inception_4a/output"
  top: "inception_4b/1x1"
  param {
    lr_mult: 1
    decay_mult: 1
  }
  param {
    lr_mult: 2
    decay_mult: 0
  }
  convolution_param {
    num_output: 160
    kernel_size: 1
    weight_filler {
      type: "xavier"
      std: 0.03
    }
    bias_filler {
      type: "constant"
      value: 0.2
    }
  }
}
layer {
  name: "inception_4b/relu_1x1"
  type: "ReLU"
  bottom: "inception_4b/1x1"
  top: "inception_4b/1x1"
}
layer {
  name: "inception_4b/3x3_reduce"
  type: "Convolution"
  bottom: "inception_4a/output"
  top: "inception_4b/3x3_reduce"
  param {
    lr_mult: 1
    decay_mult: 1
  }
  param {
    lr_mult: 2
    decay_mult: 0
  }
  convolution_param {
    num_output: 112
    kernel_size: 1
    weight_filler {
      type: "xavier"
      std: 0.09
    }
    bias_filler {
      type: "constant"
      value: 0.2
    }
  }
}
layer {
  name: "inception_4b/relu_3x3_reduce"
  type: "ReLU"
  bottom: "inception_4b/3x3_reduce"
  top: "inception_4b/3x3_reduce"
}
layer {
  name: "inception_4b/3x3"
  type: "Convolution"
  bottom: "inception_4b/3x3_reduce"
  top: "inception_4b/3x3"
  param {
    lr_mult: 1
    decay_mult: 1
  }
  param {
    lr_mult: 2
    decay_mult: 0
  }
  convolution_param {
    num_output: 224
    pad: 1
    kernel_size: 3
    weight_filler {
      type: "xavier"
      std: 0.03
    }
    bias_filler {
      type: "constant"
      value: 0.2
    }
  }
}
layer {
  name: "inception_4b/relu_3x3"
  type: "ReLU"
  bottom: "inception_4b/3x3"
  top: "inception_4b/3x3"
}
layer {
  name: "inception_4b/5x5_reduce"
  type: "Convolution"
  bottom: "inception_4a/output"
  top: "inception_4b/5x5_reduce"
  param {
    lr_mult: 1
    decay_mult: 1
  }
  param {
    lr_mult: 2
    decay_mult: 0
  }
  convolution_param {
    num_output: 24
    kernel_size: 1
    weight_filler {
      type: "xavier"
      std: 0.2
    }
    bias_filler {
      type: "constant"
      value: 0.2
    }
  }
}
layer {
  name: "inception_4b/relu_5x5_reduce"
  type: "ReLU"
  bottom: "inception_4b/5x5_reduce"
  top: "inception_4b/5x5_reduce"
}
layer {
  name: "inception_4b/5x5"
  type: "Convolution"
  bottom: "inception_4b/5x5_reduce"
  top: "inception_4b/5x5"
  param {
    lr_mult: 1
    decay_mult: 1
  }
  param {
    lr_mult: 2
    decay_mult: 0
  }
  convolution_param {
    num_output: 64
    pad: 2
    kernel_size: 5
    weight_filler {
      type: "xavier"
      std: 0.03
    }
    bias_filler {
      type: "constant"
      value: 0.2
    }
  }
}
layer {
  name: "inception_4b/relu_5x5"
  type: "ReLU"
  bottom: "inception_4b/5x5"
  top: "inception_4b/5x5"
}
layer {
  name: "inception_4b/pool"
  type: "Pooling"
  bottom: "inception_4a/output"
  top: "inception_4b/pool"
  pooling_param {
    pool: MAX
    kernel_size: 3
    stride: 1
    pad: 1
  }
}
layer {
  name: "inception_4b/pool_proj"
  type: "Convolution"
  bottom: "inception_4b/pool"
  top: "inception_4b/pool_proj"
  param {
    lr_mult: 1
    decay_mult: 1
  }
  param {
    lr_mult: 2
    decay_mult: 0
  }
  convolution_param {
    num_output: 64
    kernel_size: 1
    weight_filler {
      type: "xavier"
      std: 0.1
    }
    bias_filler {
      type: "constant"
      value: 0.2
    }
  }
}
layer {
  name: "inception_4b/relu_pool_proj"
  type: "ReLU"
  bottom: "inception_4b/pool_proj"
  top: "inception_4b/pool_proj"
}
layer {
  name: "inception_4b/output"
  type: "Concat"
  bottom: "inception_4b/1x1"
  bottom: "inception_4b/3x3"
  bottom: "inception_4b/5x5"
  bottom: "inception_4b/pool_proj"
  top: "inception_4b/output"
}
layer {
  name: "inception_4c/1x1"
  type: "Convolution"
  bottom: "inception_4b/output"
  top: "inception_4c/1x1"
  param {
    lr_mult: 1
    decay_mult: 1
  }
  param {
    lr_mult: 2
    decay_mult: 0
  }
  convolution_param {
    num_output: 128
    kernel_size: 1
    weight_filler {
      type: "xavier"
      std: 0.03
    }
    bias_filler {
      type: "constant"
      value: 0.2
    }
  }
}
layer {
  name: "inception_4c/relu_1x1"
  type: "ReLU"
  bottom: "inception_4c/1x1"
  top: "inception_4c/1x1"
}
layer {
  name: "inception_4c/3x3_reduce"
  type: "Convolution"
  bottom: "inception_4b/output"
  top: "inception_4c/3x3_reduce"
  param {
    lr_mult: 1
    decay_mult: 1
  }
  param {
    lr_mult: 2
    decay_mult: 0
  }
  convolution_param {
    num_output: 128
    kernel_size: 1
    weight_filler {
      type: "xavier"
      std: 0.09
    }
    bias_filler {
      type: "constant"
      value: 0.2
    }
  }
}
layer {
  name: "inception_4c/relu_3x3_reduce"
  type: "ReLU"
  bottom: "inception_4c/3x3_reduce"
  top: "inception_4c/3x3_reduce"
}
layer {
  name: "inception_4c/3x3"
  type: "Convolution"
  bottom: "inception_4c/3x3_reduce"
  top: "inception_4c/3x3"
  param {
    lr_mult: 1
    decay_mult: 1
  }
  param {
    lr_mult: 2
    decay_mult: 0
  }
  convolution_param {
    num_output: 256
    pad: 1
    kernel_size: 3
    weight_filler {
      type: "xavier"
      std: 0.03
    }
    bias_filler {
      type: "constant"
      value: 0.2
    }
  }
}
layer {
  name: "inception_4c/relu_3x3"
  type: "ReLU"
  bottom: "inception_4c/3x3"
  top: "inception_4c/3x3"
}
layer {
  name: "inception_4c/5x5_reduce"
  type: "Convolution"
  bottom: "inception_4b/output"
  top: "inception_4c/5x5_reduce"
  param {
    lr_mult: 1
    decay_mult: 1
  }
  param {
    lr_mult: 2
    decay_mult: 0
  }
  convolution_param {
    num_output: 24
    kernel_size: 1
    weight_filler {
      type: "xavier"
      std: 0.2
    }
    bias_filler {
      type: "constant"
      value: 0.2
    }
  }
}
layer {
  name: "inception_4c/relu_5x5_reduce"
  type: "ReLU"
  bottom: "inception_4c/5x5_reduce"
  top: "inception_4c/5x5_reduce"
}
layer {
  name: "inception_4c/5x5"
  type: "Convolution"
  bottom: "inception_4c/5x5_reduce"
  top: "inception_4c/5x5"
  param {
    lr_mult: 1
    decay_mult: 1
  }
  param {
    lr_mult: 2
    decay_mult: 0
  }
  convolution_param {
    num_output: 64
    pad: 2
    kernel_size: 5
    weight_filler {
      type: "xavier"
      std: 0.03
    }
    bias_filler {
      type: "constant"
      value: 0.2
    }
  }
}
layer {
  name: "inception_4c/relu_5x5"
  type: "ReLU"
  bottom: "inception_4c/5x5"
  top: "inception_4c/5x5"
}
layer {
  name: "inception_4c/pool"
  type: "Pooling"
  bottom: "inception_4b/output"
  top: "inception_4c/pool"
  pooling_param {
    pool: MAX
    kernel_size: 3
    stride: 1
    pad: 1
  }
}
layer {
  name: "inception_4c/pool_proj"
  type: "Convolution"
  bottom: "inception_4c/pool"
  top: "inception_4c/pool_proj"
  param {
    lr_mult: 1
    decay_mult: 1
  }
  param {
    lr_mult: 2
    decay_mult: 0
  }
  convolution_param {
    num_output: 64
    kernel_size: 1
    weight_filler {
      type: "xavier"
      std: 0.1
    }
    bias_filler {
      type: "constant"
      value: 0.2
    }
  }
}
layer {
  name: "inception_4c/relu_pool_proj"
  type: "ReLU"
  bottom: "inception_4c/pool_proj"
  top: "inception_4c/pool_proj"
}
layer {
  name: "inception_4c/output"
  type: "Concat"
  bottom: "inception_4c/1x1"
  bottom: "inception_4c/3x3"
  bottom: "inception_4c/5x5"
  bottom: "inception_4c/pool_proj"
  top: "inception_4c/output"
}
layer {
  name: "inception_4d/1x1"
  type: "Convolution"
  bottom: "inception_4c/output"
  top: "inception_4d/1x1"
  param {
    lr_mult: 1
    decay_mult: 1
  }
  param {
    lr_mult: 2
    decay_mult: 0
  }
  convolution_param {
    num_output: 112
    kernel_size: 1
    weight_filler {
      type: "xavier"
      std: 0.03
    }
    bias_filler {
      type: "constant"
      value: 0.2
    }
  }
}
layer {
  name: "inception_4d/relu_1x1"
  type: "ReLU"
  bottom: "inception_4d/1x1"
  top: "inception_4d/1x1"
}
layer {
  name: "inception_4d/3x3_reduce"
  type: "Convolution"
  bottom: "inception_4c/output"
  top: "inception_4d/3x3_reduce"
  param {
    lr_mult: 1
    decay_mult: 1
  }
  param {
    lr_mult: 2
    decay_mult: 0
  }
  convolution_param {
    num_output: 144
    kernel_size: 1
    weight_filler {
      type: "xavier"
      std: 0.09
    }
    bias_filler {
      type: "constant"
      value: 0.2
    }
  }
}
layer {
  name: "inception_4d/relu_3x3_reduce"
  type: "ReLU"
  bottom: "inception_4d/3x3_reduce"
  top: "inception_4d/3x3_reduce"
}
layer {
  name: "inception_4d/3x3"
  type: "Convolution"
  bottom: "inception_4d/3x3_reduce"
  top: "inception_4d/3x3"
  param {
    lr_mult: 1
    decay_mult: 1
  }
  param {
    lr_mult: 2
    decay_mult: 0
  }
  convolution_param {
    num_output: 288
    pad: 1
    kernel_size: 3
    weight_filler {
      type: "xavier"
      std: 0.03
    }
    bias_filler {
      type: "constant"
      value: 0.2
    }
  }
}
layer {
  name: "inception_4d/relu_3x3"
  type: "ReLU"
  bottom: "inception_4d/3x3"
  top: "inception_4d/3x3"
}
layer {
  name: "inception_4d/5x5_reduce"
  type: "Convolution"
  bottom: "inception_4c/output"
  top: "inception_4d/5x5_reduce"
  param {
    lr_mult: 1
    decay_mult: 1
  }
  param {
    lr_mult: 2
    decay_mult: 0
  }
  convolution_param {
    num_output: 32
    kernel_size: 1
    weight_filler {
      type: "xavier"
      std: 0.2
    }
    bias_filler {
      type: "constant"
      value: 0.2
    }
  }
}
layer {
  name: "inception_4d/relu_5x5_reduce"
  type: "ReLU"
  bottom: "inception_4d/5x5_reduce"
  top: "inception_4d/5x5_reduce"
}
layer {
  name: "inception_4d/5x5"
  type: "Convolution"
  bottom: "inception_4d/5x5_reduce"
  top: "inception_4d/5x5"
  param {
    lr_mult: 1
    decay_mult: 1
  }
  param {
    lr_mult: 2
    decay_mult: 0
  }
  convolution_param {
    num_output: 64
    pad: 2
    kernel_size: 5
    weight_filler {
      type: "xavier"
      std: 0.03
    }
    bias_filler {
      type: "constant"
      value: 0.2
    }
  }
}
layer {
  name: "inception_4d/relu_5x5"
  type: "ReLU"
  bottom: "inception_4d/5x5"
  top: "inception_4d/5x5"
}
layer {
  name: "inception_4d/pool"
  type: "Pooling"
  bottom: "inception_4c/output"
  top: "inception_4d/pool"
  pooling_param {
    pool: MAX
    kernel_size: 3
    stride: 1
    pad: 1
  }
}
layer {
  name: "inception_4d/pool_proj"
  type: "Convolution"
  bottom: "inception_4d/pool"
  top: "inception_4d/pool_proj"
  param {
    lr_mult: 1
    decay_mult: 1
  }
  param {
    lr_mult: 2
    decay_mult: 0
  }
  convolution_param {
    num_output: 64
    kernel_size: 1
    weight_filler {
      type: "xavier"
      std: 0.1
    }
    bias_filler {
      type: "constant"
      value: 0.2
    }
  }
}
layer {
  name: "inception_4d/relu_pool_proj"
  type: "ReLU"
  bottom: "inception_4d/pool_proj"
  top: "inception_4d/pool_proj"
}
layer {
  name: "inception_4d/output"
  type: "Concat"
  bottom: "inception_4d/1x1"
  bottom: "inception_4d/3x3"
  bottom: "inception_4d/5x5"
  bottom: "inception_4d/pool_proj"
  top: "inception_4d/output"
}
layer {
  name: "loss2/ave_pool"
  type: "Pooling"
  bottom: "inception_4d/output"
  top: "loss2/ave_pool"
  pooling_param {
    pool: AVE
    kernel_size: 5
    stride: 3
  }
}
layer {
  name: "loss2/conv"
  type: "Convolution"
  bottom: "loss2/ave_pool"
  top: "loss2/conv"
  param {
    lr_mult: 1
    decay_mult: 1
  }
  param {
    lr_mult: 2
    decay_mult: 0
  }
  convolution_param {
    num_output: 128
    kernel_size: 1
    weight_filler {
      type: "xavier"
      std: 0.08
    }
    bias_filler {
      type: "constant"
      value: 0.2
    }
  }
}
layer {
  name: "loss2/relu_conv"
  type: "ReLU"
  bottom: "loss2/conv"
  top: "loss2/conv"
}
layer {
  name: "loss2/fc"
  type: "InnerProduct"
  bottom: "loss2/conv"
  top: "loss2/fc"
  param {
    lr_mult: 1
    decay_mult: 1
  }
  param {
    lr_mult: 2
    decay_mult: 0
  }
  inner_product_param {
    num_output: 1024
    weight_filler {
      type: "xavier"
      std: 0.02
    }
    bias_filler {
      type: "constant"
      value: 0.2
    }
  }
}
layer {
  name: "loss2/relu_fc"
  type: "ReLU"
  bottom: "loss2/fc"
  top: "loss2/fc"
}
layer {
  name: "loss2/drop_fc"
  type: "Dropout"
  bottom: "loss2/fc"
  top: "loss2/fc"
  dropout_param {
    dropout_ratio: 0.7
  }
}
layer {
  name: "loss2/classifier_plantvillage"
  type: "InnerProduct"
  bottom: "loss2/fc"
  top: "loss2/classifier_plantvillage"
  param {
    lr_mult: 1
    decay_mult: 1
  }
  param {
    lr_mult: 2
    decay_mult: 0
  }
  inner_product_param {
    num_output: 38
    weight_filler {
      type: "xavier"
      std: 0.0009765625
    }
    bias_filler {
      type: "constant"
      value: 0
    }
  }
}
layer {
  name: "inception_4e/1x1"
  type: "Convolution"
  bottom: "inception_4d/output"
  top: "inception_4e/1x1"
  param {
    lr_mult: 1
    decay_mult: 1
  }
  param {
    lr_mult: 2
    decay_mult: 0
  }
  convolution_param {
    num_output: 256
    kernel_size: 1
    weight_filler {
      type: "xavier"
      std: 0.03
    }
    bias_filler {
      type: "constant"
      value: 0.2
    }
  }
}
layer {
  name: "inception_4e/relu_1x1"
  type: "ReLU"
  bottom: "inception_4e/1x1"
  top: "inception_4e/1x1"
}
layer {
  name: "inception_4e/3x3_reduce"
  type: "Convolution"
  bottom: "inception_4d/output"
  top: "inception_4e/3x3_reduce"
  param {
    lr_mult: 1
    decay_mult: 1
  }
  param {
    lr_mult: 2
    decay_mult: 0
  }
  convolution_param {
    num_output: 160
    kernel_size: 1
    weight_filler {
      type: "xavier"
      std: 0.09
    }
    bias_filler {
      type: "constant"
      value: 0.2
    }
  }
}
layer {
  name: "inception_4e/relu_3x3_reduce"
  type: "ReLU"
  bottom: "inception_4e/3x3_reduce"
  top: "inception_4e/3x3_reduce"
}
layer {
  name: "inception_4e/3x3"
  type: "Convolution"
  bottom: "inception_4e/3x3_reduce"
  top: "inception_4e/3x3"
  param {
    lr_mult: 1
    decay_mult: 1
  }
  param {
    lr_mult: 2
    decay_mult: 0
  }
  convolution_param {
    num_output: 320
    pad: 1
    kernel_size: 3
    weight_filler {
      type: "xavier"
      std: 0.03
    }
    bias_filler {
      type: "constant"
      value: 0.2
    }
  }
}
layer {
  name: "inception_4e/relu_3x3"
  type: "ReLU"
  bottom: "inception_4e/3x3"
  top: "inception_4e/3x3"
}
layer {
  name: "inception_4e/5x5_reduce"
  type: "Convolution"
  bottom: "inception_4d/output"
  top: "inception_4e/5x5_reduce"
  param {
    lr_mult: 1
    decay_mult: 1
  }
  param {
    lr_mult: 2
    decay_mult: 0
  }
  convolution_param {
    num_output: 32
    kernel_size: 1
    weight_filler {
      type: "xavier"
      std: 0.2
    }
    bias_filler {
      type: "constant"
      value: 0.2
    }
  }
}
layer {
  name: "inception_4e/relu_5x5_reduce"
  type: "ReLU"
  bottom: "inception_4e/5x5_reduce"
  top: "inception_4e/5x5_reduce"
}
layer {
  name: "inception_4e/5x5"
  type: "Convolution"
  bottom: "inception_4e/5x5_reduce"
  top: "inception_4e/
I0403 15:40:20.776697 10924 layer_factory.hpp:77] Creating layer data
I0403 15:40:20.777276 10924 net.cpp:91] Creating Layer data
I0403 15:40:20.777307 10924 net.cpp:399] data -> data
I0403 15:40:20.777359 10924 net.cpp:399] data -> label
I0403 15:40:20.777395 10924 data_transformer.cpp:25] Loading mean file from: /home/mohanty/data/final_dataset/lmdb/segmented-80-20/mean.binaryproto
I0403 15:40:20.780185 10927 db_lmdb.cpp:38] Opened lmdb /home/mohanty/data/final_dataset/lmdb/segmented-80-20/test_db
I0403 15:40:20.790462 10924 data_layer.cpp:41] output data size: 24,3,224,224
I0403 15:40:20.817994 10924 net.cpp:141] Setting up data
I0403 15:40:20.818083 10924 net.cpp:148] Top shape: 24 3 224 224 (3612672)
I0403 15:40:20.818104 10924 net.cpp:148] Top shape: 24 (24)
I0403 15:40:20.818120 10924 net.cpp:156] Memory required for data: 14450784
I0403 15:40:20.818146 10924 layer_factory.hpp:77] Creating layer label_data_1_split
I0403 15:40:20.818173 10924 net.cpp:91] Creating Layer label_data_1_split
I0403 15:40:20.818192 10924 net.cpp:425] label_data_1_split <- label
I0403 15:40:20.818234 10924 net.cpp:399] label_data_1_split -> label_data_1_split_0
I0403 15:40:20.818264 10924 net.cpp:399] label_data_1_split -> label_data_1_split_1
I0403 15:40:20.818285 10924 net.cpp:399] label_data_1_split -> label_data_1_split_2
I0403 15:40:20.818307 10924 net.cpp:399] label_data_1_split -> label_data_1_split_3
I0403 15:40:20.818327 10924 net.cpp:399] label_data_1_split -> label_data_1_split_4
I0403 15:40:20.818348 10924 net.cpp:399] label_data_1_split -> label_data_1_split_5
I0403 15:40:20.818368 10924 net.cpp:399] label_data_1_split -> label_data_1_split_6
I0403 15:40:20.818389 10924 net.cpp:399] label_data_1_split -> label_data_1_split_7
I0403 15:40:20.818409 10924 net.cpp:399] label_data_1_split -> label_data_1_split_8
I0403 15:40:20.818430 10924 net.cpp:399] label_data_1_split -> label_data_1_split_9
I0403 15:40:20.818562 10924 net.cpp:141] Setting up label_data_1_split
I0403 15:40:20.818584 10924 net.cpp:148] Top shape: 24 (24)
I0403 15:40:20.818601 10924 net.cpp:148] Top shape: 24 (24)
I0403 15:40:20.818617 10924 net.cpp:148] Top shape: 24 (24)
I0403 15:40:20.818634 10924 net.cpp:148] Top shape: 24 (24)
I0403 15:40:20.818650 10924 net.cpp:148] Top shape: 24 (24)
I0403 15:40:20.818665 10924 net.cpp:148] Top shape: 24 (24)
I0403 15:40:20.818681 10924 net.cpp:148] Top shape: 24 (24)
I0403 15:40:20.818696 10924 net.cpp:148] Top shape: 24 (24)
I0403 15:40:20.818711 10924 net.cpp:148] Top shape: 24 (24)
I0403 15:40:20.818727 10924 net.cpp:148] Top shape: 24 (24)
I0403 15:40:20.818769 10924 net.cpp:156] Memory required for data: 14451744
I0403 15:40:20.818786 10924 layer_factory.hpp:77] Creating layer conv1/7x7_s2
I0403 15:40:20.818819 10924 net.cpp:91] Creating Layer conv1/7x7_s2
I0403 15:40:20.818835 10924 net.cpp:425] conv1/7x7_s2 <- data
I0403 15:40:20.818855 10924 net.cpp:399] conv1/7x7_s2 -> conv1/7x7_s2
I0403 15:40:20.961091 10924 net.cpp:141] Setting up conv1/7x7_s2
I0403 15:40:20.961179 10924 net.cpp:148] Top shape: 24 64 112 112 (19267584)
I0403 15:40:20.961196 10924 net.cpp:156] Memory required for data: 91522080
I0403 15:40:20.961227 10924 layer_factory.hpp:77] Creating layer conv1/relu_7x7
I0403 15:40:20.961254 10924 net.cpp:91] Creating Layer conv1/relu_7x7
I0403 15:40:20.961272 10924 net.cpp:425] conv1/relu_7x7 <- conv1/7x7_s2
I0403 15:40:20.961292 10924 net.cpp:386] conv1/relu_7x7 -> conv1/7x7_s2 (in-place)
I0403 15:40:20.961555 10924 net.cpp:141] Setting up conv1/relu_7x7
I0403 15:40:20.961582 10924 net.cpp:148] Top shape: 24 64 112 112 (19267584)
I0403 15:40:20.961598 10924 net.cpp:156] Memory required for data: 168592416
I0403 15:40:20.961613 10924 layer_factory.hpp:77] Creating layer pool1/3x3_s2
I0403 15:40:20.961639 10924 net.cpp:91] Creating Layer pool1/3x3_s2
I0403 15:40:20.961658 10924 net.cpp:425] pool1/3x3_s2 <- conv1/7x7_s2
I0403 15:40:20.961678 10924 net.cpp:399] pool1/3x3_s2 -> pool1/3x3_s2
I0403 15:40:20.961751 10924 net.cpp:141] Setting up pool1/3x3_s2
I0403 15:40:20.961776 10924 net.cpp:148] Top shape: 24 64 56 56 (4816896)
I0403 15:40:20.961792 10924 net.cpp:156] Memory required for data: 187860000
I0403 15:40:20.961807 10924 layer_factory.hpp:77] Creating layer pool1/norm1
I0403 15:40:20.961833 10924 net.cpp:91] Creating Layer pool1/norm1
I0403 15:40:20.961851 10924 net.cpp:425] pool1/norm1 <- pool1/3x3_s2
I0403 15:40:20.961869 10924 net.cpp:399] pool1/norm1 -> pool1/norm1
I0403 15:40:20.962167 10924 net.cpp:141] Setting up pool1/norm1
I0403 15:40:20.962194 10924 net.cpp:148] Top shape: 24 64 56 56 (4816896)
I0403 15:40:20.962210 10924 net.cpp:156] Memory required for data: 207127584
I0403 15:40:20.962226 10924 layer_factory.hpp:77] Creating layer conv2/3x3_reduce
I0403 15:40:20.962252 10924 net.cpp:91] Creating Layer conv2/3x3_reduce
I0403 15:40:20.962270 10924 net.cpp:425] conv2/3x3_reduce <- pool1/norm1
I0403 15:40:20.962288 10924 net.cpp:399] conv2/3x3_reduce -> conv2/3x3_reduce
I0403 15:40:20.963706 10924 net.cpp:141] Setting up conv2/3x3_reduce
I0403 15:40:20.963734 10924 net.cpp:148] Top shape: 24 64 56 56 (4816896)
I0403 15:40:20.963750 10924 net.cpp:156] Memory required for data: 226395168
I0403 15:40:20.963773 10924 layer_factory.hpp:77] Creating layer conv2/relu_3x3_reduce
I0403 15:40:20.963791 10924 net.cpp:91] Creating Layer conv2/relu_3x3_reduce
I0403 15:40:20.963807 10924 net.cpp:425] conv2/relu_3x3_reduce <- conv2/3x3_reduce
I0403 15:40:20.963830 10924 net.cpp:386] conv2/relu_3x3_reduce -> conv2/3x3_reduce (in-place)
I0403 15:40:20.964115 10924 net.cpp:141] Setting up conv2/relu_3x3_reduce
I0403 15:40:20.964143 10924 net.cpp:148] Top shape: 24 64 56 56 (4816896)
I0403 15:40:20.964157 10924 net.cpp:156] Memory required for data: 245662752
I0403 15:40:20.964172 10924 layer_factory.hpp:77] Creating layer conv2/3x3
I0403 15:40:20.964197 10924 net.cpp:91] Creating Layer conv2/3x3
I0403 15:40:20.964228 10924 net.cpp:425] conv2/3x3 <- conv2/3x3_reduce
I0403 15:40:20.964251 10924 net.cpp:399] conv2/3x3 -> conv2/3x3
I0403 15:40:20.966662 10924 net.cpp:141] Setting up conv2/3x3
I0403 15:40:20.966692 10924 net.cpp:148] Top shape: 24 192 56 56 (14450688)
I0403 15:40:20.966708 10924 net.cpp:156] Memory required for data: 303465504
I0403 15:40:20.966728 10924 layer_factory.hpp:77] Creating layer conv2/relu_3x3
I0403 15:40:20.966747 10924 net.cpp:91] Creating Layer conv2/relu_3x3
I0403 15:40:20.966763 10924 net.cpp:425] conv2/relu_3x3 <- conv2/3x3
I0403 15:40:20.966783 10924 net.cpp:386] conv2/relu_3x3 -> conv2/3x3 (in-place)
I0403 15:40:20.966953 10924 net.cpp:141] Setting up conv2/relu_3x3
I0403 15:40:20.966986 10924 net.cpp:148] Top shape: 24 192 56 56 (14450688)
I0403 15:40:20.967025 10924 net.cpp:156] Memory required for data: 361268256
I0403 15:40:20.967041 10924 layer_factory.hpp:77] Creating layer conv2/norm2
I0403 15:40:20.967058 10924 net.cpp:91] Creating Layer conv2/norm2
I0403 15:40:20.967073 10924 net.cpp:425] conv2/norm2 <- conv2/3x3
I0403 15:40:20.967093 10924 net.cpp:399] conv2/norm2 -> conv2/norm2
I0403 15:40:20.967398 10924 net.cpp:141] Setting up conv2/norm2
I0403 15:40:20.967425 10924 net.cpp:148] Top shape: 24 192 56 56 (14450688)
I0403 15:40:20.967440 10924 net.cpp:156] Memory required for data: 419071008
I0403 15:40:20.967455 10924 layer_factory.hpp:77] Creating layer pool2/3x3_s2
I0403 15:40:20.967473 10924 net.cpp:91] Creating Layer pool2/3x3_s2
I0403 15:40:20.967489 10924 net.cpp:425] pool2/3x3_s2 <- conv2/norm2
I0403 15:40:20.967509 10924 net.cpp:399] pool2/3x3_s2 -> pool2/3x3_s2
I0403 15:40:20.967561 10924 net.cpp:141] Setting up pool2/3x3_s2
I0403 15:40:20.967583 10924 net.cpp:148] Top shape: 24 192 28 28 (3612672)
I0403 15:40:20.967598 10924 net.cpp:156] Memory required for data: 433521696
I0403 15:40:20.967612 10924 layer_factory.hpp:77] Creating layer pool2/3x3_s2_pool2/3x3_s2_0_split
I0403 15:40:20.967631 10924 net.cpp:91] Creating Layer pool2/3x3_s2_pool2/3x3_s2_0_split
I0403 15:40:20.967648 10924 net.cpp:425] pool2/3x3_s2_pool2/3x3_s2_0_split <- pool2/3x3_s2
I0403 15:40:20.967664 10924 net.cpp:399] pool2/3x3_s2_pool2/3x3_s2_0_split -> pool2/3x3_s2_pool2/3x3_s2_0_split_0
I0403 15:40:20.967684 10924 net.cpp:399] pool2/3x3_s2_pool2/3x3_s2_0_split -> pool2/3x3_s2_pool2/3x3_s2_0_split_1
I0403 15:40:20.967706 10924 net.cpp:399] pool2/3x3_s2_pool2/3x3_s2_0_split -> pool2/3x3_s2_pool2/3x3_s2_0_split_2
I0403 15:40:20.967725 10924 net.cpp:399] pool2/3x3_s2_pool2/3x3_s2_0_split -> pool2/3x3_s2_pool2/3x3_s2_0_split_3
I0403 15:40:20.967793 10924 net.cpp:141] Setting up pool2/3x3_s2_pool2/3x3_s2_0_split
I0403 15:40:20.967816 10924 net.cpp:148] Top shape: 24 192 28 28 (3612672)
I0403 15:40:20.967833 10924 net.cpp:148] Top shape: 24 192 28 28 (3612672)
I0403 15:40:20.967847 10924 net.cpp:148] Top shape: 24 192 28 28 (3612672)
I0403 15:40:20.967862 10924 net.cpp:148] Top shape: 24 192 28 28 (3612672)
I0403 15:40:20.967876 10924 net.cpp:156] Memory required for data: 491324448
I0403 15:40:20.967890 10924 layer_factory.hpp:77] Creating layer inception_3a/1x1
I0403 15:40:20.967913 10924 net.cpp:91] Creating Layer inception_3a/1x1
I0403 15:40:20.967931 10924 net.cpp:425] inception_3a/1x1 <- pool2/3x3_s2_pool2/3x3_s2_0_split_0
I0403 15:40:20.967952 10924 net.cpp:399] inception_3a/1x1 -> inception_3a/1x1
I0403 15:40:20.969519 10924 net.cpp:141] Setting up inception_3a/1x1
I0403 15:40:20.969549 10924 net.cpp:148] Top shape: 24 64 28 28 (1204224)
I0403 15:40:20.969565 10924 net.cpp:156] Memory required for data: 496141344
I0403 15:40:20.969583 10924 layer_factory.hpp:77] Creating layer inception_3a/relu_1x1
I0403 15:40:20.969602 10924 net.cpp:91] Creating Layer inception_3a/relu_1x1
I0403 15:40:20.969617 10924 net.cpp:425] inception_3a/relu_1x1 <- inception_3a/1x1
I0403 15:40:20.969640 10924 net.cpp:386] inception_3a/relu_1x1 -> inception_3a/1x1 (in-place)
I0403 15:40:20.969812 10924 net.cpp:141] Setting up inception_3a/relu_1x1
I0403 15:40:20.969837 10924 net.cpp:148] Top shape: 24 64 28 28 (1204224)
I0403 15:40:20.969852 10924 net.cpp:156] Memory required for data: 500958240
I0403 15:40:20.969867 10924 layer_factory.hpp:77] Creating layer inception_3a/3x3_reduce
I0403 15:40:20.969889 10924 net.cpp:91] Creating Layer inception_3a/3x3_reduce
I0403 15:40:20.969907 10924 net.cpp:425] inception_3a/3x3_reduce <- pool2/3x3_s2_pool2/3x3_s2_0_split_1
I0403 15:40:20.969930 10924 net.cpp:399] inception_3a/3x3_reduce -> inception_3a/3x3_reduce
I0403 15:40:20.971608 10924 net.cpp:141] Setting up inception_3a/3x3_reduce
I0403 15:40:20.971637 10924 net.cpp:148] Top shape: 24 96 28 28 (1806336)
I0403 15:40:20.971652 10924 net.cpp:156] Memory required for data: 508183584
I0403 15:40:20.971673 10924 layer_factory.hpp:77] Creating layer inception_3a/relu_3x3_reduce
I0403 15:40:20.971710 10924 net.cpp:91] Creating Layer inception_3a/relu_3x3_reduce
I0403 15:40:20.971729 10924 net.cpp:425] inception_3a/relu_3x3_reduce <- inception_3a/3x3_reduce
I0403 15:40:20.971745 10924 net.cpp:386] inception_3a/relu_3x3_reduce -> inception_3a/3x3_reduce (in-place)
I0403 15:40:20.971920 10924 net.cpp:141] Setting up inception_3a/relu_3x3_reduce
I0403 15:40:20.971951 10924 net.cpp:148] Top shape: 24 96 28 28 (1806336)
I0403 15:40:20.971966 10924 net.cpp:156] Memory required for data: 515408928
I0403 15:40:20.971983 10924 layer_factory.hpp:77] Creating layer inception_3a/3x3
I0403 15:40:20.972007 10924 net.cpp:91] Creating Layer inception_3a/3x3
I0403 15:40:20.972025 10924 net.cpp:425] inception_3a/3x3 <- inception_3a/3x3_reduce
I0403 15:40:20.972048 10924 net.cpp:399] inception_3a/3x3 -> inception_3a/3x3
I0403 15:40:20.973706 10924 net.cpp:141] Setting up inception_3a/3x3
I0403 15:40:20.973734 10924 net.cpp:148] Top shape: 24 128 28 28 (2408448)
I0403 15:40:20.973750 10924 net.cpp:156] Memory required for data: 525042720
I0403 15:40:20.973768 10924 layer_factory.hpp:77] Creating layer inception_3a/relu_3x3
I0403 15:40:20.973788 10924 net.cpp:91] Creating Layer inception_3a/relu_3x3
I0403 15:40:20.973806 10924 net.cpp:425] inception_3a/relu_3x3 <- inception_3a/3x3
I0403 15:40:20.973824 10924 net.cpp:386] inception_3a/relu_3x3 -> inception_3a/3x3 (in-place)
I0403 15:40:20.974097 10924 net.cpp:141] Setting up inception_3a/relu_3x3
I0403 15:40:20.974123 10924 net.cpp:148] Top shape: 24 128 28 28 (2408448)
I0403 15:40:20.974138 10924 net.cpp:156] Memory required for data: 534676512
I0403 15:40:20.974153 10924 layer_factory.hpp:77] Creating layer inception_3a/5x5_reduce
I0403 15:40:20.974175 10924 net.cpp:91] Creating Layer inception_3a/5x5_reduce
I0403 15:40:20.974192 10924 net.cpp:425] inception_3a/5x5_reduce <- pool2/3x3_s2_pool2/3x3_s2_0_split_2
I0403 15:40:20.974212 10924 net.cpp:399] inception_3a/5x5_reduce -> inception_3a/5x5_reduce
I0403 15:40:20.975167 10924 net.cpp:141] Setting up inception_3a/5x5_reduce
I0403 15:40:20.975194 10924 net.cpp:148] Top shape: 24 16 28 28 (301056)
I0403 15:40:20.975209 10924 net.cpp:156] Memory required for data: 535880736
I0403 15:40:20.975227 10924 layer_factory.hpp:77] Creating layer inception_3a/relu_5x5_reduce
I0403 15:40:20.975247 10924 net.cpp:91] Creating Layer inception_3a/relu_5x5_reduce
I0403 15:40:20.975265 10924 net.cpp:425] inception_3a/relu_5x5_reduce <- inception_3a/5x5_reduce
I0403 15:40:20.975282 10924 net.cpp:386] inception_3a/relu_5x5_reduce -> inception_3a/5x5_reduce (in-place)
I0403 15:40:20.975574 10924 net.cpp:141] Setting up inception_3a/relu_5x5_reduce
I0403 15:40:20.975606 10924 net.cpp:148] Top shape: 24 16 28 28 (301056)
I0403 15:40:20.975622 10924 net.cpp:156] Memory required for data: 537084960
I0403 15:40:20.975637 10924 layer_factory.hpp:77] Creating layer inception_3a/5x5
I0403 15:40:20.975657 10924 net.cpp:91] Creating Layer inception_3a/5x5
I0403 15:40:20.975673 10924 net.cpp:425] inception_3a/5x5 <- inception_3a/5x5_reduce
I0403 15:40:20.975694 10924 net.cpp:399] inception_3a/5x5 -> inception_3a/5x5
I0403 15:40:20.976737 10924 net.cpp:141] Setting up inception_3a/5x5
I0403 15:40:20.976763 10924 net.cpp:148] Top shape: 24 32 28 28 (602112)
I0403 15:40:20.976779 10924 net.cpp:156] Memory required for data: 539493408
I0403 15:40:20.976799 10924 layer_factory.hpp:77] Creating layer inception_3a/relu_5x5
I0403 15:40:20.976819 10924 net.cpp:91] Creating Layer inception_3a/relu_5x5
I0403 15:40:20.976835 10924 net.cpp:425] inception_3a/relu_5x5 <- inception_3a/5x5
I0403 15:40:20.976850 10924 net.cpp:386] inception_3a/relu_5x5 -> inception_3a/5x5 (in-place)
I0403 15:40:20.977025 10924 net.cpp:141] Setting up inception_3a/relu_5x5
I0403 15:40:20.977049 10924 net.cpp:148] Top shape: 24 32 28 28 (602112)
I0403 15:40:20.977066 10924 net.cpp:156] Memory required for data: 541901856
I0403 15:40:20.977079 10924 layer_factory.hpp:77] Creating layer inception_3a/pool
I0403 15:40:20.977099 10924 net.cpp:91] Creating Layer inception_3a/pool
I0403 15:40:20.977129 10924 net.cpp:425] inception_3a/pool <- pool2/3x3_s2_pool2/3x3_s2_0_split_3
I0403 15:40:20.977147 10924 net.cpp:399] inception_3a/pool -> inception_3a/pool
I0403 15:40:20.977206 10924 net.cpp:141] Setting up inception_3a/pool
I0403 15:40:20.977229 10924 net.cpp:148] Top shape: 24 192 28 28 (3612672)
I0403 15:40:20.977244 10924 net.cpp:156] Memory required for data: 556352544
I0403 15:40:20.977258 10924 layer_factory.hpp:77] Creating layer inception_3a/pool_proj
I0403 15:40:20.977280 10924 net.cpp:91] Creating Layer inception_3a/pool_proj
I0403 15:40:20.977298 10924 net.cpp:425] inception_3a/pool_proj <- inception_3a/pool
I0403 15:40:20.977319 10924 net.cpp:399] inception_3a/pool_proj -> inception_3a/pool_proj
I0403 15:40:20.978298 10924 net.cpp:141] Setting up inception_3a/pool_proj
I0403 15:40:20.978329 10924 net.cpp:148] Top shape: 24 32 28 28 (602112)
I0403 15:40:20.978346 10924 net.cpp:156] Memory required for data: 558760992
I0403 15:40:20.978368 10924 layer_factory.hpp:77] Creating layer inception_3a/relu_pool_proj
I0403 15:40:20.978390 10924 net.cpp:91] Creating Layer inception_3a/relu_pool_proj
I0403 15:40:20.978409 10924 net.cpp:425] inception_3a/relu_pool_proj <- inception_3a/pool_proj
I0403 15:40:20.978426 10924 net.cpp:386] inception_3a/relu_pool_proj -> inception_3a/pool_proj (in-place)
I0403 15:40:20.978706 10924 net.cpp:141] Setting up inception_3a/relu_pool_proj
I0403 15:40:20.978732 10924 net.cpp:148] Top shape: 24 32 28 28 (602112)
I0403 15:40:20.978749 10924 net.cpp:156] Memory required for data: 561169440
I0403 15:40:20.978763 10924 layer_factory.hpp:77] Creating layer inception_3a/output
I0403 15:40:20.978780 10924 net.cpp:91] Creating Layer inception_3a/output
I0403 15:40:20.978796 10924 net.cpp:425] inception_3a/output <- inception_3a/1x1
I0403 15:40:20.978812 10924 net.cpp:425] inception_3a/output <- inception_3a/3x3
I0403 15:40:20.978835 10924 net.cpp:425] inception_3a/output <- inception_3a/5x5
I0403 15:40:20.978850 10924 net.cpp:425] inception_3a/output <- inception_3a/pool_proj
I0403 15:40:20.978868 10924 net.cpp:399] inception_3a/output -> inception_3a/output
I0403 15:40:20.978912 10924 net.cpp:141] Setting up inception_3a/output
I0403 15:40:20.978938 10924 net.cpp:148] Top shape: 24 256 28 28 (4816896)
I0403 15:40:20.978953 10924 net.cpp:156] Memory required for data: 580437024
I0403 15:40:20.978968 10924 layer_factory.hpp:77] Creating layer inception_3a/output_inception_3a/output_0_split
I0403 15:40:20.978989 10924 net.cpp:91] Creating Layer inception_3a/output_inception_3a/output_0_split
I0403 15:40:20.979007 10924 net.cpp:425] inception_3a/output_inception_3a/output_0_split <- inception_3a/output
I0403 15:40:20.979025 10924 net.cpp:399] inception_3a/output_inception_3a/output_0_split -> inception_3a/output_inception_3a/output_0_split_0
I0403 15:40:20.979046 10924 net.cpp:399] inception_3a/output_inception_3a/output_0_split -> inception_3a/output_inception_3a/output_0_split_1
I0403 15:40:20.979068 10924 net.cpp:399] inception_3a/output_inception_3a/output_0_split -> inception_3a/output_inception_3a/output_0_split_2
I0403 15:40:20.979089 10924 net.cpp:399] inception_3a/output_inception_3a/output_0_split -> inception_3a/output_inception_3a/output_0_split_3
I0403 15:40:20.979164 10924 net.cpp:141] Setting up inception_3a/output_inception_3a/output_0_split
I0403 15:40:20.979187 10924 net.cpp:148] Top shape: 24 256 28 28 (4816896)
I0403 15:40:20.979203 10924 net.cpp:148] Top shape: 24 256 28 28 (4816896)
I0403 15:40:20.979219 10924 net.cpp:148] Top shape: 24 256 28 28 (4816896)
I0403 15:40:20.979234 10924 net.cpp:148] Top shape: 24 256 28 28 (4816896)
I0403 15:40:20.979249 10924 net.cpp:156] Memory required for data: 657507360
I0403 15:40:20.979262 10924 layer_factory.hpp:77] Creating layer inception_3b/1x1
I0403 15:40:20.979285 10924 net.cpp:91] Creating Layer inception_3b/1x1
I0403 15:40:20.979302 10924 net.cpp:425] inception_3b/1x1 <- inception_3a/output_inception_3a/output_0_split_0
I0403 15:40:20.979322 10924 net.cpp:399] inception_3b/1x1 -> inception_3b/1x1
I0403 15:40:20.980475 10924 net.cpp:141] Setting up inception_3b/1x1
I0403 15:40:20.980527 10924 net.cpp:148] Top shape: 24 128 28 28 (2408448)
I0403 15:40:20.980543 10924 net.cpp:156] Memory required for data: 667141152
I0403 15:40:20.980561 10924 layer_factory.hpp:77] Creating layer inception_3b/relu_1x1
I0403 15:40:20.980579 10924 net.cpp:91] Creating Layer inception_3b/relu_1x1
I0403 15:40:20.980595 10924 net.cpp:425] inception_3b/relu_1x1 <- inception_3b/1x1
I0403 15:40:20.980614 10924 net.cpp:386] inception_3b/relu_1x1 -> inception_3b/1x1 (in-place)
I0403 15:40:20.980787 10924 net.cpp:141] Setting up inception_3b/relu_1x1
I0403 15:40:20.980813 10924 net.cpp:148] Top shape: 24 128 28 28 (2408448)
I0403 15:40:20.980826 10924 net.cpp:156] Memory required for data: 676774944
I0403 15:40:20.980841 10924 layer_factory.hpp:77] Creating layer inception_3b/3x3_reduce
I0403 15:40:20.980865 10924 net.cpp:91] Creating Layer inception_3b/3x3_reduce
I0403 15:40:20.980881 10924 net.cpp:425] inception_3b/3x3_reduce <- inception_3a/output_inception_3a/output_0_split_1
I0403 15:40:20.980901 10924 net.cpp:399] inception_3b/3x3_reduce -> inception_3b/3x3_reduce
I0403 15:40:20.982074 10924 net.cpp:141] Setting up inception_3b/3x3_reduce
I0403 15:40:20.982105 10924 net.cpp:148] Top shape: 24 128 28 28 (2408448)
I0403 15:40:20.982121 10924 net.cpp:156] Memory required for data: 686408736
I0403 15:40:20.982138 10924 layer_factory.hpp:77] Creating layer inception_3b/relu_3x3_reduce
I0403 15:40:20.982157 10924 net.cpp:91] Creating Layer inception_3b/relu_3x3_reduce
I0403 15:40:20.982174 10924 net.cpp:425] inception_3b/relu_3x3_reduce <- inception_3b/3x3_reduce
I0403 15:40:20.982194 10924 net.cpp:386] inception_3b/relu_3x3_reduce -> inception_3b/3x3_reduce (in-place)
I0403 15:40:20.982367 10924 net.cpp:141] Setting up inception_3b/relu_3x3_reduce
I0403 15:40:20.982391 10924 net.cpp:148] Top shape: 24 128 28 28 (2408448)
I0403 15:40:20.982406 10924 net.cpp:156] Memory required for data: 696042528
I0403 15:40:20.982421 10924 layer_factory.hpp:77] Creating layer inception_3b/3x3
I0403 15:40:20.982447 10924 net.cpp:91] Creating Layer inception_3b/3x3
I0403 15:40:20.982465 10924 net.cpp:425] inception_3b/3x3 <- inception_3b/3x3_reduce
I0403 15:40:20.982483 10924 net.cpp:399] inception_3b/3x3 -> inception_3b/3x3
I0403 15:40:20.985414 10924 net.cpp:141] Setting up inception_3b/3x3
I0403 15:40:20.985442 10924 net.cpp:148] Top shape: 24 192 28 28 (3612672)
I0403 15:40:20.985458 10924 net.cpp:156] Memory required for data: 710493216
I0403 15:40:20.985476 10924 layer_factory.hpp:77] Creating layer inception_3b/relu_3x3
I0403 15:40:20.985497 10924 net.cpp:91] Creating Layer inception_3b/relu_3x3
I0403 15:40:20.985514 10924 net.cpp:425] inception_3b/relu_3x3 <- inception_3b/3x3
I0403 15:40:20.985530 10924 net.cpp:386] inception_3b/relu_3x3 -> inception_3b/3x3 (in-place)
I0403 15:40:20.985800 10924 net.cpp:141] Setting up inception_3b/relu_3x3
I0403 15:40:20.985824 10924 net.cpp:148] Top shape: 24 192 28 28 (3612672)
I0403 15:40:20.985839 10924 net.cpp:156] Memory required for data: 724943904
I0403 15:40:20.985854 10924 layer_factory.hpp:77] Creating layer inception_3b/5x5_reduce
I0403 15:40:20.985877 10924 net.cpp:91] Creating Layer inception_3b/5x5_reduce
I0403 15:40:20.985894 10924 net.cpp:425] inception_3b/5x5_reduce <- inception_3a/output_inception_3a/output_0_split_2
I0403 15:40:20.985916 10924 net.cpp:399] inception_3b/5x5_reduce -> inception_3b/5x5_reduce
I0403 15:40:20.986901 10924 net.cpp:141] Setting up inception_3b/5x5_reduce
I0403 15:40:20.986930 10924 net.cpp:148] Top shape: 24 32 28 28 (602112)
I0403 15:40:20.986958 10924 net.cpp:156] Memory required for data: 727352352
I0403 15:40:20.986981 10924 layer_factory.hpp:77] Creating layer inception_3b/relu_5x5_reduce
I0403 15:40:20.987004 10924 net.cpp:91] Creating Layer inception_3b/relu_5x5_reduce
I0403 15:40:20.987021 10924 net.cpp:425] inception_3b/relu_5x5_reduce <- inception_3b/5x5_reduce
I0403 15:40:20.987038 10924 net.cpp:386] inception_3b/relu_5x5_reduce -> inception_3b/5x5_reduce (in-place)
I0403 15:40:20.987236 10924 net.cpp:141] Setting up inception_3b/relu_5x5_reduce
I0403 15:40:20.987272 10924 net.cpp:148] Top shape: 24 32 28 28 (602112)
I0403 15:40:20.987287 10924 net.cpp:156] Memory required for data: 729760800
I0403 15:40:20.987301 10924 layer_factory.hpp:77] Creating layer inception_3b/5x5
I0403 15:40:20.987323 10924 net.cpp:91] Creating Layer inception_3b/5x5
I0403 15:40:20.987342 10924 net.cpp:425] inception_3b/5x5 <- inception_3b/5x5_reduce
I0403 15:40:20.987361 10924 net.cpp:399] inception_3b/5x5 -> inception_3b/5x5
I0403 15:40:20.989364 10924 net.cpp:141] Setting up inception_3b/5x5
I0403 15:40:20.989395 10924 net.cpp:148] Top shape: 24 96 28 28 (1806336)
I0403 15:40:20.989413 10924 net.cpp:156] Memory required for data: 736986144
I0403 15:40:20.989430 10924 layer_factory.hpp:77] Creating layer inception_3b/relu_5x5
I0403 15:40:20.989449 10924 net.cpp:91] Creating Layer inception_3b/relu_5x5
I0403 15:40:20.989464 10924 net.cpp:425] inception_3b/relu_5x5 <- inception_3b/5x5
I0403 15:40:20.989485 10924 net.cpp:386] inception_3b/relu_5x5 -> inception_3b/5x5 (in-place)
I0403 15:40:20.989676 10924 net.cpp:141] Setting up inception_3b/relu_5x5
I0403 15:40:20.989701 10924 net.cpp:148] Top shape: 24 96 28 28 (1806336)
I0403 15:40:20.989717 10924 net.cpp:156] Memory required for data: 744211488
I0403 15:40:20.989732 10924 layer_factory.hpp:77] Creating layer inception_3b/pool
I0403 15:40:20.989749 10924 net.cpp:91] Creating Layer inception_3b/pool
I0403 15:40:20.989764 10924 net.cpp:425] inception_3b/pool <- inception_3a/output_inception_3a/output_0_split_3
I0403 15:40:20.989783 10924 net.cpp:399] inception_3b/pool -> inception_3b/pool
I0403 15:40:20.989838 10924 net.cpp:141] Setting up inception_3b/pool
I0403 15:40:20.989861 10924 net.cpp:148] Top shape: 24 256 28 28 (4816896)
I0403 15:40:20.989876 10924 net.cpp:156] Memory required for data: 763479072
I0403 15:40:20.989892 10924 layer_factory.hpp:77] Creating layer inception_3b/pool_proj
I0403 15:40:20.989914 10924 net.cpp:91] Creating Layer inception_3b/pool_proj
I0403 15:40:20.989934 10924 net.cpp:425] inception_3b/pool_proj <- inception_3b/pool
I0403 15:40:20.989953 10924 net.cpp:399] inception_3b/pool_proj -> inception_3b/pool_proj
I0403 15:40:20.991003 10924 net.cpp:141] Setting up inception_3b/pool_proj
I0403 15:40:20.991031 10924 net.cpp:148] Top shape: 24 64 28 28 (1204224)
I0403 15:40:20.991046 10924 net.cpp:156] Memory required for data: 768295968
I0403 15:40:20.991065 10924 layer_factory.hpp:77] Creating layer inception_3b/relu_pool_proj
I0403 15:40:20.991085 10924 net.cpp:91] Creating Layer inception_3b/relu_pool_proj
I0403 15:40:20.991101 10924 net.cpp:425] inception_3b/relu_pool_proj <- inception_3b/pool_proj
I0403 15:40:20.991119 10924 net.cpp:386] inception_3b/relu_pool_proj -> inception_3b/pool_proj (in-place)
I0403 15:40:20.991510 10924 net.cpp:141] Setting up inception_3b/relu_pool_proj
I0403 15:40:20.991536 10924 net.cpp:148] Top shape: 24 64 28 28 (1204224)
I0403 15:40:20.991551 10924 net.cpp:156] Memory required for data: 773112864
I0403 15:40:20.991566 10924 layer_factory.hpp:77] Creating layer inception_3b/output
I0403 15:40:20.991586 10924 net.cpp:91] Creating Layer inception_3b/output
I0403 15:40:20.991602 10924 net.cpp:425] inception_3b/output <- inception_3b/1x1
I0403 15:40:20.991618 10924 net.cpp:425] inception_3b/output <- inception_3b/3x3
I0403 15:40:20.991634 10924 net.cpp:425] inception_3b/output <- inception_3b/5x5
I0403 15:40:20.991650 10924 net.cpp:425] inception_3b/output <- inception_3b/pool_proj
I0403 15:40:20.991667 10924 net.cpp:399] inception_3b/output -> inception_3b/output
I0403 15:40:20.991713 10924 net.cpp:141] Setting up inception_3b/output
I0403 15:40:20.991735 10924 net.cpp:148] Top shape: 24 480 28 28 (9031680)
I0403 15:40:20.991750 10924 net.cpp:156] Memory required for data: 809239584
I0403 15:40:20.991765 10924 layer_factory.hpp:77] Creating layer pool3/3x3_s2
I0403 15:40:20.991781 10924 net.cpp:91] Creating Layer pool3/3x3_s2
I0403 15:40:20.991796 10924 net.cpp:425] pool3/3x3_s2 <- inception_3b/output
I0403 15:40:20.991830 10924 net.cpp:399] pool3/3x3_s2 -> pool3/3x3_s2
I0403 15:40:20.991888 10924 net.cpp:141] Setting up pool3/3x3_s2
I0403 15:40:20.991925 10924 net.cpp:148] Top shape: 24 480 14 14 (2257920)
I0403 15:40:20.991940 10924 net.cpp:156] Memory required for data: 818271264
I0403 15:40:20.991955 10924 layer_factory.hpp:77] Creating layer pool3/3x3_s2_pool3/3x3_s2_0_split
I0403 15:40:20.991972 10924 net.cpp:91] Creating Layer pool3/3x3_s2_pool3/3x3_s2_0_split
I0403 15:40:20.992007 10924 net.cpp:425] pool3/3x3_s2_pool3/3x3_s2_0_split <- pool3/3x3_s2
I0403 15:40:20.992025 10924 net.cpp:399] pool3/3x3_s2_pool3/3x3_s2_0_split -> pool3/3x3_s2_pool3/3x3_s2_0_split_0
I0403 15:40:20.992048 10924 net.cpp:399] pool3/3x3_s2_pool3/3x3_s2_0_split -> pool3/3x3_s2_pool3/3x3_s2_0_split_1
I0403 15:40:20.992082 10924 net.cpp:399] pool3/3x3_s2_pool3/3x3_s2_0_split -> pool3/3x3_s2_pool3/3x3_s2_0_split_2
I0403 15:40:20.992103 10924 net.cpp:399] pool3/3x3_s2_pool3/3x3_s2_0_split -> pool3/3x3_s2_pool3/3x3_s2_0_split_3
I0403 15:40:20.992185 10924 net.cpp:141] Setting up pool3/3x3_s2_pool3/3x3_s2_0_split
I0403 15:40:20.992215 10924 net.cpp:148] Top shape: 24 480 14 14 (2257920)
I0403 15:40:20.992233 10924 net.cpp:148] Top shape: 24 480 14 14 (2257920)
I0403 15:40:20.992250 10924 net.cpp:148] Top shape: 24 480 14 14 (2257920)
I0403 15:40:20.992266 10924 net.cpp:148] Top shape: 24 480 14 14 (2257920)
I0403 15:40:20.992280 10924 net.cpp:156] Memory required for data: 854397984
I0403 15:40:20.992295 10924 layer_factory.hpp:77] Creating layer inception_4a/1x1
I0403 15:40:20.992321 10924 net.cpp:91] Creating Layer inception_4a/1x1
I0403 15:40:20.992338 10924 net.cpp:425] inception_4a/1x1 <- pool3/3x3_s2_pool3/3x3_s2_0_split_0
I0403 15:40:20.992358 10924 net.cpp:399] inception_4a/1x1 -> inception_4a/1x1
I0403 15:40:20.993975 10924 net.cpp:141] Setting up inception_4a/1x1
I0403 15:40:20.994007 10924 net.cpp:148] Top shape: 24 192 14 14 (903168)
I0403 15:40:20.994024 10924 net.cpp:156] Memory required for data: 858010656
I0403 15:40:20.994045 10924 layer_factory.hpp:77] Creating layer inception_4a/relu_1x1
I0403 15:40:20.994065 10924 net.cpp:91] Creating Layer inception_4a/relu_1x1
I0403 15:40:20.994081 10924 net.cpp:425] inception_4a/relu_1x1 <- inception_4a/1x1
I0403 15:40:20.994098 10924 net.cpp:386] inception_4a/relu_1x1 -> inception_4a/1x1 (in-place)
I0403 15:40:20.994298 10924 net.cpp:141] Setting up inception_4a/relu_1x1
I0403 15:40:20.994324 10924 net.cpp:148] Top shape: 24 192 14 14 (903168)
I0403 15:40:20.994340 10924 net.cpp:156] Memory required for data: 861623328
I0403 15:40:20.994356 10924 layer_factory.hpp:77] Creating layer inception_4a/3x3_reduce
I0403 15:40:20.994379 10924 net.cpp:91] Creating Layer inception_4a/3x3_reduce
I0403 15:40:20.994397 10924 net.cpp:425] inception_4a/3x3_reduce <- pool3/3x3_s2_pool3/3x3_s2_0_split_1
I0403 15:40:20.994421 10924 net.cpp:399] inception_4a/3x3_reduce -> inception_4a/3x3_reduce
I0403 15:40:20.995744 10924 net.cpp:141] Setting up inception_4a/3x3_reduce
I0403 15:40:20.995774 10924 net.cpp:148] Top shape: 24 96 14 14 (451584)
I0403 15:40:20.995791 10924 net.cpp:156] Memory required for data: 863429664
I0403 15:40:20.995815 10924 layer_factory.hpp:77] Creating layer inception_4a/relu_3x3_reduce
I0403 15:40:20.995836 10924 net.cpp:91] Creating Layer inception_4a/relu_3x3_reduce
I0403 15:40:20.995854 10924 net.cpp:425] inception_4a/relu_3x3_reduce <- inception_4a/3x3_reduce
I0403 15:40:20.995873 10924 net.cpp:386] inception_4a/relu_3x3_reduce -> inception_4a/3x3_reduce (in-place)
I0403 15:40:20.996055 10924 net.cpp:141] Setting up inception_4a/relu_3x3_reduce
I0403 15:40:20.996083 10924 net.cpp:148] Top shape: 24 96 14 14 (451584)
I0403 15:40:20.996098 10924 net.cpp:156] Memory required for data: 865236000
I0403 15:40:20.996112 10924 layer_factory.hpp:77] Creating layer inception_4a/3x3
I0403 15:40:20.996135 10924 net.cpp:91] Creating Layer inception_4a/3x3
I0403 15:40:20.996153 10924 net.cpp:425] inception_4a/3x3 <- inception_4a/3x3_reduce
I0403 15:40:20.996175 10924 net.cpp:399] inception_4a/3x3 -> inception_4a/3x3
I0403 15:40:20.998963 10924 net.cpp:141] Setting up inception_4a/3x3
I0403 15:40:20.998999 10924 net.cpp:148] Top shape: 24 208 14 14 (978432)
I0403 15:40:20.999017 10924 net.cpp:156] Memory required for data: 869149728
I0403 15:40:20.999037 10924 layer_factory.hpp:77] Creating layer inception_4a/relu_3x3
I0403 15:40:20.999055 10924 net.cpp:91] Creating Layer inception_4a/relu_3x3
I0403 15:40:20.999071 10924 net.cpp:425] inception_4a/relu_3x3 <- inception_4a/3x3
I0403 15:40:20.999090 10924 net.cpp:386] inception_4a/relu_3x3 -> inception_4a/3x3 (in-place)
I0403 15:40:20.999377 10924 net.cpp:141] Setting up inception_4a/relu_3x3
I0403 15:40:20.999405 10924 net.cpp:148] Top shape: 24 208 14 14 (978432)
I0403 15:40:20.999421 10924 net.cpp:156] Memory required for data: 873063456
I0403 15:40:20.999438 10924 layer_factory.hpp:77] Creating layer inception_4a/5x5_reduce
I0403 15:40:20.999461 10924 net.cpp:91] Creating Layer inception_4a/5x5_reduce
I0403 15:40:20.999480 10924 net.cpp:425] inception_4a/5x5_reduce <- pool3/3x3_s2_pool3/3x3_s2_0_split_2
I0403 15:40:20.999501 10924 net.cpp:399] inception_4a/5x5_reduce -> inception_4a/5x5_reduce
I0403 15:40:21.000579 10924 net.cpp:141] Setting up inception_4a/5x5_reduce
I0403 15:40:21.000608 10924 net.cpp:148] Top shape: 24 16 14 14 (75264)
I0403 15:40:21.000624 10924 net.cpp:156] Memory required for data: 873364512
I0403 15:40:21.000643 10924 layer_factory.hpp:77] Creating layer inception_4a/relu_5x5_reduce
I0403 15:40:21.000664 10924 net.cpp:91] Creating Layer inception_4a/relu_5x5_reduce
I0403 15:40:21.000681 10924 net.cpp:425] inception_4a/relu_5x5_reduce <- inception_4a/5x5_reduce
I0403 15:40:21.000699 10924 net.cpp:386] inception_4a/relu_5x5_reduce -> inception_4a/5x5_reduce (in-place)
I0403 15:40:21.000880 10924 net.cpp:141] Setting up inception_4a/relu_5x5_reduce
I0403 15:40:21.000905 10924 net.cpp:148] Top shape: 24 16 14 14 (75264)
I0403 15:40:21.000922 10924 net.cpp:156] Memory required for data: 873665568
I0403 15:40:21.000937 10924 layer_factory.hpp:77] Creating layer inception_4a/5x5
I0403 15:40:21.000960 10924 net.cpp:91] Creating Layer inception_4a/5x5
I0403 15:40:21.000982 10924 net.cpp:425] inception_4a/5x5 <- inception_4a/5x5_reduce
I0403 15:40:21.001005 10924 net.cpp:399] inception_4a/5x5 -> inception_4a/5x5
I0403 15:40:21.002118 10924 net.cpp:141] Setting up inception_4a/5x5
I0403 15:40:21.002146 10924 net.cpp:148] Top shape: 24 48 14 14 (225792)
I0403 15:40:21.002162 10924 net.cpp:156] Memory required for data: 874568736
I0403 15:40:21.002182 10924 layer_factory.hpp:77] Creating layer inception_4a/relu_5x5
I0403 15:40:21.002202 10924 net.cpp:91] Creating Layer inception_4a/relu_5x5
I0403 15:40:21.002219 10924 net.cpp:425] inception_4a/relu_5x5 <- inception_4a/5x5
I0403 15:40:21.002238 10924 net.cpp:386] inception_4a/relu_5x5 -> inception_4a/5x5 (in-place)
I0403 15:40:21.002418 10924 net.cpp:141] Setting up inception_4a/relu_5x5
I0403 15:40:21.002445 10924 net.cpp:148] Top shape: 24 48 14 14 (225792)
I0403 15:40:21.002461 10924 net.cpp:156] Memory required for data: 875471904
I0403 15:40:21.002476 10924 layer_factory.hpp:77] Creating layer inception_4a/pool
I0403 15:40:21.002495 10924 net.cpp:91] Creating Layer inception_4a/pool
I0403 15:40:21.002511 10924 net.cpp:425] inception_4a/pool <- pool3/3x3_s2_pool3/3x3_s2_0_split_3
I0403 15:40:21.002531 10924 net.cpp:399] inception_4a/pool -> inception_4a/pool
I0403 15:40:21.002593 10924 net.cpp:141] Setting up inception_4a/pool
I0403 15:40:21.002619 10924 net.cpp:148] Top shape: 24 480 14 14 (2257920)
I0403 15:40:21.002634 10924 net.cpp:156] Memory required for data: 884503584
I0403 15:40:21.002648 10924 layer_factory.hpp:77] Creating layer inception_4a/pool_proj
I0403 15:40:21.002671 10924 net.cpp:91] Creating Layer inception_4a/pool_proj
I0403 15:40:21.002688 10924 net.cpp:425] inception_4a/pool_proj <- inception_4a/pool
I0403 15:40:21.002709 10924 net.cpp:399] inception_4a/pool_proj -> inception_4a/pool_proj
I0403 15:40:21.003897 10924 net.cpp:141] Setting up inception_4a/pool_proj
I0403 15:40:21.003931 10924 net.cpp:148] Top shape: 24 64 14 14 (301056)
I0403 15:40:21.003960 10924 net.cpp:156] Memory required for data: 885707808
I0403 15:40:21.003985 10924 layer_factory.hpp:77] Creating layer inception_4a/relu_pool_proj
I0403 15:40:21.004004 10924 net.cpp:91] Creating Layer inception_4a/relu_pool_proj
I0403 15:40:21.004021 10924 net.cpp:425] inception_4a/relu_pool_proj <- inception_4a/pool_proj
I0403 15:40:21.004040 10924 net.cpp:386] inception_4a/relu_pool_proj -> inception_4a/pool_proj (in-place)
I0403 15:40:21.004343 10924 net.cpp:141] Setting up inception_4a/relu_pool_proj
I0403 15:40:21.004374 10924 net.cpp:148] Top shape: 24 64 14 14 (301056)
I0403 15:40:21.004390 10924 net.cpp:156] Memory required for data: 886912032
I0403 15:40:21.004406 10924 layer_factory.hpp:77] Creating layer inception_4a/output
I0403 15:40:21.004426 10924 net.cpp:91] Creating Layer inception_4a/output
I0403 15:40:21.004441 10924 net.cpp:425] inception_4a/output <- inception_4a/1x1
I0403 15:40:21.004459 10924 net.cpp:425] inception_4a/output <- inception_4a/3x3
I0403 15:40:21.004477 10924 net.cpp:425] inception_4a/output <- inception_4a/5x5
I0403 15:40:21.004503 10924 net.cpp:425] inception_4a/output <- inception_4a/pool_proj
I0403 15:40:21.004520 10924 net.cpp:399] inception_4a/output -> inception_4a/output
I0403 15:40:21.004567 10924 net.cpp:141] Setting up inception_4a/output
I0403 15:40:21.004592 10924 net.cpp:148] Top shape: 24 512 14 14 (2408448)
I0403 15:40:21.004607 10924 net.cpp:156] Memory required for data: 896545824
I0403 15:40:21.004622 10924 layer_factory.hpp:77] Creating layer inception_4a/output_inception_4a/output_0_split
I0403 15:40:21.004643 10924 net.cpp:91] Creating Layer inception_4a/output_inception_4a/output_0_split
I0403 15:40:21.004659 10924 net.cpp:425] inception_4a/output_inception_4a/output_0_split <- inception_4a/output
I0403 15:40:21.004678 10924 net.cpp:399] inception_4a/output_inception_4a/output_0_split -> inception_4a/output_inception_4a/output_0_split_0
I0403 15:40:21.004698 10924 net.cpp:399] inception_4a/output_inception_4a/output_0_split -> inception_4a/output_inception_4a/output_0_split_1
I0403 15:40:21.004719 10924 net.cpp:399] inception_4a/output_inception_4a/output_0_split -> inception_4a/output_inception_4a/output_0_split_2
I0403 15:40:21.004740 10924 net.cpp:399] inception_4a/output_inception_4a/output_0_split -> inception_4a/output_inception_4a/output_0_split_3
I0403 15:40:21.004766 10924 net.cpp:399] inception_4a/output_inception_4a/output_0_split -> inception_4a/output_inception_4a/output_0_split_4
I0403 15:40:21.004866 10924 net.cpp:141] Setting up inception_4a/output_inception_4a/output_0_split
I0403 15:40:21.004890 10924 net.cpp:148] Top shape: 24 512 14 14 (2408448)
I0403 15:40:21.004907 10924 net.cpp:148] Top shape: 24 512 14 14 (2408448)
I0403 15:40:21.004925 10924 net.cpp:148] Top shape: 24 512 14 14 (2408448)
I0403 15:40:21.004940 10924 net.cpp:148] Top shape: 24 512 14 14 (2408448)
I0403 15:40:21.004956 10924 net.cpp:148] Top shape: 24 512 14 14 (2408448)
I0403 15:40:21.004969 10924 net.cpp:156] Memory required for data: 944714784
I0403 15:40:21.004989 10924 layer_factory.hpp:77] Creating layer loss1/ave_pool
I0403 15:40:21.005008 10924 net.cpp:91] Creating Layer loss1/ave_pool
I0403 15:40:21.005025 10924 net.cpp:425] loss1/ave_pool <- inception_4a/output_inception_4a/output_0_split_0
I0403 15:40:21.005045 10924 net.cpp:399] loss1/ave_pool -> loss1/ave_pool
I0403 15:40:21.005250 10924 net.cpp:141] Setting up loss1/ave_pool
I0403 15:40:21.005278 10924 net.cpp:148] Top shape: 24 512 4 4 (196608)
I0403 15:40:21.005295 10924 net.cpp:156] Memory required for data: 945501216
I0403 15:40:21.005311 10924 layer_factory.hpp:77] Creating layer loss1/conv
I0403 15:40:21.005332 10924 net.cpp:91] Creating Layer loss1/conv
I0403 15:40:21.005350 10924 net.cpp:425] loss1/conv <- loss1/ave_pool
I0403 15:40:21.005368 10924 net.cpp:399] loss1/conv -> loss1/conv
I0403 15:40:21.006813 10924 net.cpp:141] Setting up loss1/conv
I0403 15:40:21.006841 10924 net.cpp:148] Top shape: 24 128 4 4 (49152)
I0403 15:40:21.006870 10924 net.cpp:156] Memory required for data: 945697824
I0403 15:40:21.006891 10924 layer_factory.hpp:77] Creating layer loss1/relu_conv
I0403 15:40:21.006911 10924 net.cpp:91] Creating Layer loss1/relu_conv
I0403 15:40:21.006929 10924 net.cpp:425] loss1/relu_conv <- loss1/conv
I0403 15:40:21.006961 10924 net.cpp:386] loss1/relu_conv -> loss1/conv (in-place)
I0403 15:40:21.007272 10924 net.cpp:141] Setting up loss1/relu_conv
I0403 15:40:21.007299 10924 net.cpp:148] Top shape: 24 128 4 4 (49152)
I0403 15:40:21.007314 10924 net.cpp:156] Memory required for data: 945894432
I0403 15:40:21.007330 10924 layer_factory.hpp:77] Creating layer loss1/fc
I0403 15:40:21.007354 10924 net.cpp:91] Creating Layer loss1/fc
I0403 15:40:21.007372 10924 net.cpp:425] loss1/fc <- loss1/conv
I0403 15:40:21.007395 10924 net.cpp:399] loss1/fc -> loss1/fc
I0403 15:40:21.025611 10924 net.cpp:141] Setting up loss1/fc
I0403 15:40:21.025646 10924 net.cpp:148] Top shape: 24 1024 (24576)
I0403 15:40:21.025662 10924 net.cpp:156] Memory required for data: 945992736
I0403 15:40:21.025681 10924 layer_factory.hpp:77] Creating layer loss1/relu_fc
I0403 15:40:21.025701 10924 net.cpp:91] Creating Layer loss1/relu_fc
I0403 15:40:21.025719 10924 net.cpp:425] loss1/relu_fc <- loss1/fc
I0403 15:40:21.025737 10924 net.cpp:386] loss1/relu_fc -> loss1/fc (in-place)
I0403 15:40:21.025924 10924 net.cpp:141] Setting up loss1/relu_fc
I0403 15:40:21.025949 10924 net.cpp:148] Top shape: 24 1024 (24576)
I0403 15:40:21.025964 10924 net.cpp:156] Memory required for data: 946091040
I0403 15:40:21.025984 10924 layer_factory.hpp:77] Creating layer loss1/drop_fc
I0403 15:40:21.026010 10924 net.cpp:91] Creating Layer loss1/drop_fc
I0403 15:40:21.026028 10924 net.cpp:425] loss1/drop_fc <- loss1/fc
I0403 15:40:21.026047 10924 net.cpp:386] loss1/drop_fc -> loss1/fc (in-place)
I0403 15:40:21.026099 10924 net.cpp:141] Setting up loss1/drop_fc
I0403 15:40:21.026123 10924 net.cpp:148] Top shape: 24 1024 (24576)
I0403 15:40:21.026136 10924 net.cpp:156] Memory required for data: 946189344
I0403 15:40:21.026152 10924 layer_factory.hpp:77] Creating layer loss1/classifier_plantvillage
I0403 15:40:21.026175 10924 net.cpp:91] Creating Layer loss1/classifier_plantvillage
I0403 15:40:21.026191 10924 net.cpp:425] loss1/classifier_plantvillage <- loss1/fc
I0403 15:40:21.026211 10924 net.cpp:399] loss1/classifier_plantvillage -> loss1/classifier_plantvillage
I0403 15:40:21.027132 10924 net.cpp:141] Setting up loss1/classifier_plantvillage
I0403 15:40:21.027161 10924 net.cpp:148] Top shape: 24 38 (912)
I0403 15:40:21.027179 10924 net.cpp:156] Memory required for data: 946192992
I0403 15:40:21.027196 10924 layer_factory.hpp:77] Creating layer loss1/classifier_plantvillage_loss1/classifier_plantvillage_0_split
I0403 15:40:21.027215 10924 net.cpp:91] Creating Layer loss1/classifier_plantvillage_loss1/classifier_plantvillage_0_split
I0403 15:40:21.027231 10924 net.cpp:425] loss1/classifier_plantvillage_loss1/classifier_plantvillage_0_split <- loss1/classifier_plantvillage
I0403 15:40:21.027251 10924 net.cpp:399] loss1/classifier_plantvillage_loss1/classifier_plantvillage_0_split -> loss1/classifier_plantvillage_loss1/classifier_plantvillage_0_split_0
I0403 15:40:21.027271 10924 net.cpp:399] loss1/classifier_plantvillage_loss1/classifier_plantvillage_0_split -> loss1/classifier_plantvillage_loss1/classifier_plantvillage_0_split_1
I0403 15:40:21.027292 10924 net.cpp:399] loss1/classifier_plantvillage_loss1/classifier_plantvillage_0_split -> loss1/classifier_plantvillage_loss1/classifier_plantvillage_0_split_2
I0403 15:40:21.027357 10924 net.cpp:141] Setting up loss1/classifier_plantvillage_loss1/classifier_plantvillage_0_split
I0403 15:40:21.027380 10924 net.cpp:148] Top shape: 24 38 (912)
I0403 15:40:21.027396 10924 net.cpp:148] Top shape: 24 38 (912)
I0403 15:40:21.027412 10924 net.cpp:148] Top shape: 24 38 (912)
I0403 15:40:21.027426 10924 net.cpp:156] Memory required for data: 946203936
I0403 15:40:21.027441 10924 layer_factory.hpp:77] Creating layer inception_4b/1x1
I0403 15:40:21.027463 10924 net.cpp:91] Creating Layer inception_4b/1x1
I0403 15:40:21.027495 10924 net.cpp:425] inception_4b/1x1 <- inception_4a/output_inception_4a/output_0_split_1
I0403 15:40:21.027514 10924 net.cpp:399] inception_4b/1x1 -> inception_4b/1x1
I0403 15:40:21.029211 10924 net.cpp:141] Setting up inception_4b/1x1
I0403 15:40:21.029240 10924 net.cpp:148] Top shape: 24 160 14 14 (752640)
I0403 15:40:21.029258 10924 net.cpp:156] Memory required for data: 949214496
I0403 15:40:21.029275 10924 layer_factory.hpp:77] Creating layer inception_4b/relu_1x1
I0403 15:40:21.029294 10924 net.cpp:91] Creating Layer inception_4b/relu_1x1
I0403 15:40:21.029312 10924 net.cpp:425] inception_4b/relu_1x1 <- inception_4b/1x1
I0403 15:40:21.029330 10924 net.cpp:386] inception_4b/relu_1x1 -> inception_4b/1x1 (in-place)
I0403 15:40:21.029510 10924 net.cpp:141] Setting up inception_4b/relu_1x1
I0403 15:40:21.029536 10924 net.cpp:148] Top shape: 24 160 14 14 (752640)
I0403 15:40:21.029551 10924 net.cpp:156] Memory required for data: 952225056
I0403 15:40:21.029564 10924 layer_factory.hpp:77] Creating layer inception_4b/3x3_reduce
I0403 15:40:21.029587 10924 net.cpp:91] Creating Layer inception_4b/3x3_reduce
I0403 15:40:21.029604 10924 net.cpp:425] inception_4b/3x3_reduce <- inception_4a/output_inception_4a/output_0_split_2
I0403 15:40:21.029625 10924 net.cpp:399] inception_4b/3x3_reduce -> inception_4b/3x3_reduce
I0403 15:40:21.030982 10924 net.cpp:141] Setting up inception_4b/3x3_reduce
I0403 15:40:21.031008 10924 net.cpp:148] Top shape: 24 112 14 14 (526848)
I0403 15:40:21.031024 10924 net.cpp:156] Memory required for data: 954332448
I0403 15:40:21.031043 10924 layer_factory.hpp:77] Creating layer inception_4b/relu_3x3_reduce
I0403 15:40:21.031064 10924 net.cpp:91] Creating Layer inception_4b/relu_3x3_reduce
I0403 15:40:21.031081 10924 net.cpp:425] inception_4b/relu_3x3_reduce <- inception_4b/3x3_reduce
I0403 15:40:21.031098 10924 net.cpp:386] inception_4b/relu_3x3_reduce -> inception_4b/3x3_reduce (in-place)
I0403 15:40:21.031379 10924 net.cpp:141] Setting up inception_4b/relu_3x3_reduce
I0403 15:40:21.031405 10924 net.cpp:148] Top shape: 24 112 14 14 (526848)
I0403 15:40:21.031421 10924 net.cpp:156] Memory required for data: 956439840
I0403 15:40:21.031435 10924 layer_factory.hpp:77] Creating layer inception_4b/3x3
I0403 15:40:21.031458 10924 net.cpp:91] Creating Layer inception_4b/3x3
I0403 15:40:21.031477 10924 net.cpp:425] inception_4b/3x3 <- inception_4b/3x3_reduce
I0403 15:40:21.031498 10924 net.cpp:399] inception_4b/3x3 -> inception_4b/3x3
I0403 15:40:21.034530 10924 net.cpp:141] Setting up inception_4b/3x3
I0403 15:40:21.034561 10924 net.cpp:148] Top shape: 24 224 14 14 (1053696)
I0403 15:40:21.034577 10924 net.cpp:156] Memory required for data: 960654624
I0403 15:40:21.034595 10924 layer_factory.hpp:77] Creating layer inception_4b/relu_3x3
I0403 15:40:21.034613 10924 net.cpp:91] Creating Layer inception_4b/relu_3x3
I0403 15:40:21.034631 10924 net.cpp:425] inception_4b/relu_3x3 <- inception_4b/3x3
I0403 15:40:21.034649 10924 net.cpp:386] inception_4b/relu_3x3 -> inception_4b/3x3 (in-place)
I0403 15:40:21.034831 10924 net.cpp:141] Setting up inception_4b/relu_3x3
I0403 15:40:21.034854 10924 net.cpp:148] Top shape: 24 224 14 14 (1053696)
I0403 15:40:21.034869 10924 net.cpp:156] Memory required for data: 964869408
I0403 15:40:21.034884 10924 layer_factory.hpp:77] Creating layer inception_4b/5x5_reduce
I0403 15:40:21.034906 10924 net.cpp:91] Creating Layer inception_4b/5x5_reduce
I0403 15:40:21.034925 10924 net.cpp:425] inception_4b/5x5_reduce <- inception_4a/output_inception_4a/output_0_split_3
I0403 15:40:21.034947 10924 net.cpp:399] inception_4b/5x5_reduce -> inception_4b/5x5_reduce
I0403 15:40:21.036034 10924 net.cpp:141] Setting up inception_4b/5x5_reduce
I0403 15:40:21.036062 10924 net.cpp:148] Top shape: 24 24 14 14 (112896)
I0403 15:40:21.036077 10924 net.cpp:156] Memory required for data: 965320992
I0403 15:40:21.036095 10924 layer_factory.hpp:77] Creating layer inception_4b/relu_5x5_reduce
I0403 15:40:21.036116 10924 net.cpp:91] Creating Layer inception_4b/relu_5x5_reduce
I0403 15:40:21.036146 10924 net.cpp:425] inception_4b/relu_5x5_reduce <- inception_4b/5x5_reduce
I0403 15:40:21.036165 10924 net.cpp:386] inception_4b/relu_5x5_reduce -> inception_4b/5x5_reduce (in-place)
I0403 15:40:21.036360 10924 net.cpp:141] Setting up inception_4b/relu_5x5_reduce
I0403 15:40:21.036386 10924 net.cpp:148] Top shape: 24 24 14 14 (112896)
I0403 15:40:21.036404 10924 net.cpp:156] Memory required for data: 965772576
I0403 15:40:21.036419 10924 layer_factory.hpp:77] Creating layer inception_4b/5x5
I0403 15:40:21.036440 10924 net.cpp:91] Creating Layer inception_4b/5x5
I0403 15:40:21.036458 10924 net.cpp:425] inception_4b/5x5 <- inception_4b/5x5_reduce
I0403 15:40:21.036478 10924 net.cpp:399] inception_4b/5x5 -> inception_4b/5x5
I0403 15:40:21.037731 10924 net.cpp:141] Setting up inception_4b/5x5
I0403 15:40:21.037760 10924 net.cpp:148] Top shape: 24 64 14 14 (301056)
I0403 15:40:21.037775 10924 net.cpp:156] Memory required for data: 966976800
I0403 15:40:21.037793 10924 layer_factory.hpp:77] Creating layer inception_4b/relu_5x5
I0403 15:40:21.037813 10924 net.cpp:91] Creating Layer inception_4b/relu_5x5
I0403 15:40:21.037830 10924 net.cpp:425] inception_4b/relu_5x5 <- inception_4b/5x5
I0403 15:40:21.037847 10924 net.cpp:386] inception_4b/relu_5x5 -> inception_4b/5x5 (in-place)
I0403 15:40:21.038146 10924 net.cpp:141] Setting up inception_4b/relu_5x5
I0403 15:40:21.038172 10924 net.cpp:148] Top shape: 24 64 14 14 (301056)
I0403 15:40:21.038187 10924 net.cpp:156] Memory required for data: 968181024
I0403 15:40:21.038203 10924 layer_factory.hpp:77] Creating layer inception_4b/pool
I0403 15:40:21.038219 10924 net.cpp:91] Creating Layer inception_4b/pool
I0403 15:40:21.038236 10924 net.cpp:425] inception_4b/pool <- inception_4a/output_inception_4a/output_0_split_4
I0403 15:40:21.038256 10924 net.cpp:399] inception_4b/pool -> inception_4b/pool
I0403 15:40:21.038321 10924 net.cpp:141] Setting up inception_4b/pool
I0403 15:40:21.038347 10924 net.cpp:148] Top shape: 24 512 14 14 (2408448)
I0403 15:40:21.038362 10924 net.cpp:156] Memory required for data: 977814816
I0403 15:40:21.038378 10924 layer_factory.hpp:77] Creating layer inception_4b/pool_proj
I0403 15:40:21.038399 10924 net.cpp:91] Creating Layer inception_4b/pool_proj
I0403 15:40:21.038417 10924 net.cpp:425] inception_4b/pool_proj <- inception_4b/pool
I0403 15:40:21.038436 10924 net.cpp:399] inception_4b/pool_proj -> inception_4b/pool_proj
I0403 15:40:21.039652 10924 net.cpp:141] Setting up inception_4b/pool_proj
I0403 15:40:21.039680 10924 net.cpp:148] Top shape: 24 64 14 14 (301056)
I0403 15:40:21.039695 10924 net.cpp:156] Memory required for data: 979019040
I0403 15:40:21.039713 10924 layer_factory.hpp:77] Creating layer inception_4b/relu_pool_proj
I0403 15:40:21.039734 10924 net.cpp:91] Creating Layer inception_4b/relu_pool_proj
I0403 15:40:21.039752 10924 net.cpp:425] inception_4b/relu_pool_proj <- inception_4b/pool_proj
I0403 15:40:21.039768 10924 net.cpp:386] inception_4b/relu_pool_proj -> inception_4b/pool_proj (in-place)
I0403 15:40:21.039949 10924 net.cpp:141] Setting up inception_4b/relu_pool_proj
I0403 15:40:21.039973 10924 net.cpp:148] Top shape: 24 64 14 14 (301056)
I0403 15:40:21.039994 10924 net.cpp:156] Memory required for data: 980223264
I0403 15:40:21.040009 10924 layer_factory.hpp:77] Creating layer inception_4b/output
I0403 15:40:21.040029 10924 net.cpp:91] Creating Layer inception_4b/output
I0403 15:40:21.040045 10924 net.cpp:425] inception_4b/output <- inception_4b/1x1
I0403 15:40:21.040062 10924 net.cpp:425] inception_4b/output <- inception_4b/3x3
I0403 15:40:21.040078 10924 net.cpp:425] inception_4b/output <- inception_4b/5x5
I0403 15:40:21.040093 10924 net.cpp:425] inception_4b/output <- inception_4b/pool_proj
I0403 15:40:21.040110 10924 net.cpp:399] inception_4b/output -> inception_4b/output
I0403 15:40:21.040158 10924 net.cpp:141] Setting up inception_4b/output
I0403 15:40:21.040181 10924 net.cpp:148] Top shape: 24 512 14 14 (2408448)
I0403 15:40:21.040196 10924 net.cpp:156] Memory required for data: 989857056
I0403 15:40:21.040236 10924 layer_factory.hpp:77] Creating layer inception_4b/output_inception_4b/output_0_split
I0403 15:40:21.040256 10924 net.cpp:91] Creating Layer inception_4b/output_inception_4b/output_0_split
I0403 15:40:21.040271 10924 net.cpp:425] inception_4b/output_inception_4b/output_0_split <- inception_4b/output
I0403 15:40:21.040297 10924 net.cpp:399] inception_4b/output_inception_4b/output_0_split -> inception_4b/output_inception_4b/output_0_split_0
I0403 15:40:21.040318 10924 net.cpp:399] inception_4b/output_inception_4b/output_0_split -> inception_4b/output_inception_4b/output_0_split_1
I0403 15:40:21.040340 10924 net.cpp:399] inception_4b/output_inception_4b/output_0_split -> inception_4b/output_inception_4b/output_0_split_2
I0403 15:40:21.040361 10924 net.cpp:399] inception_4b/output_inception_4b/output_0_split -> inception_4b/output_inception_4b/output_0_split_3
I0403 15:40:21.040449 10924 net.cpp:141] Setting up inception_4b/output_inception_4b/output_0_split
I0403 15:40:21.040477 10924 net.cpp:148] Top shape: 24 512 14 14 (2408448)
I0403 15:40:21.040505 10924 net.cpp:148] Top shape: 24 512 14 14 (2408448)
I0403 15:40:21.040521 10924 net.cpp:148] Top shape: 24 512 14 14 (2408448)
I0403 15:40:21.040537 10924 net.cpp:148] Top shape: 24 512 14 14 (2408448)
I0403 15:40:21.040550 10924 net.cpp:156] Memory required for data: 1028392224
I0403 15:40:21.040565 10924 layer_factory.hpp:77] Creating layer inception_4c/1x1
I0403 15:40:21.040587 10924 net.cpp:91] Creating Layer inception_4c/1x1
I0403 15:40:21.040606 10924 net.cpp:425] inception_4c/1x1 <- inception_4b/output_inception_4b/output_0_split_0
I0403 15:40:21.040626 10924 net.cpp:399] inception_4c/1x1 -> inception_4c/1x1
I0403 15:40:21.042129 10924 net.cpp:141] Setting up inception_4c/1x1
I0403 15:40:21.042157 10924 net.cpp:148] Top shape: 24 128 14 14 (602112)
I0403 15:40:21.042173 10924 net.cpp:156] Memory required for data: 1030800672
I0403 15:40:21.042192 10924 layer_factory.hpp:77] Creating layer inception_4c/relu_1x1
I0403 15:40:21.042227 10924 net.cpp:91] Creating Layer inception_4c/relu_1x1
I0403 15:40:21.042244 10924 net.cpp:425] inception_4c/relu_1x1 <- inception_4c/1x1
I0403 15:40:21.042263 10924 net.cpp:386] inception_4c/relu_1x1 -> inception_4c/1x1 (in-place)
I0403 15:40:21.042457 10924 net.cpp:141] Setting up inception_4c/relu_1x1
I0403 15:40:21.042484 10924 net.cpp:148] Top shape: 24 128 14 14 (602112)
I0403 15:40:21.042510 10924 net.cpp:156] Memory required for data: 1033209120
I0403 15:40:21.042526 10924 layer_factory.hpp:77] Creating layer inception_4c/3x3_reduce
I0403 15:40:21.042548 10924 net.cpp:91] Creating Layer inception_4c/3x3_reduce
I0403 15:40:21.042567 10924 net.cpp:425] inception_4c/3x3_reduce <- inception_4b/output_inception_4b/output_0_split_1
I0403 15:40:21.042588 10924 net.cpp:399] inception_4c/3x3_reduce -> inception_4c/3x3_reduce
I0403 15:40:21.044692 10924 net.cpp:141] Setting up inception_4c/3x3_reduce
I0403 15:40:21.044721 10924 net.cpp:148] Top shape: 24 128 14 14 (602112)
I0403 15:40:21.044739 10924 net.cpp:156] Memory required for data: 1035617568
I0403 15:40:21.044756 10924 layer_factory.hpp:77] Creating layer inception_4c/relu_3x3_reduce
I0403 15:40:21.044780 10924 net.cpp:91] Creating Layer inception_4c/relu_3x3_reduce
I0403 15:40:21.044796 10924 net.cpp:425] inception_4c/relu_3x3_reduce <- inception_4c/3x3_reduce
I0403 15:40:21.044817 10924 net.cpp:386] inception_4c/relu_3x3_reduce -> inception_4c/3x3_reduce (in-place)
I0403 15:40:21.045116 10924 net.cpp:141] Setting up inception_4c/relu_3x3_reduce
I0403 15:40:21.045143 10924 net.cpp:148] Top shape: 24 128 14 14 (602112)
I0403 15:40:21.045158 10924 net.cpp:156] Memory required for data: 1038026016
I0403 15:40:21.045174 10924 layer_factory.hpp:77] Creating layer inception_4c/3x3
I0403 15:40:21.045199 10924 net.cpp:91] Creating Layer inception_4c/3x3
I0403 15:40:21.045230 10924 net.cpp:425] inception_4c/3x3 <- inception_4c/3x3_reduce
I0403 15:40:21.045253 10924 net.cpp:399] inception_4c/3x3 -> inception_4c/3x3
I0403 15:40:21.049074 10924 net.cpp:141] Setting up inception_4c/3x3
I0403 15:40:21.049118 10924 net.cpp:148] Top shape: 24 256 14 14 (1204224)
I0403 15:40:21.049134 10924 net.cpp:156] Memory required for data: 1042842912
I0403 15:40:21.049170 10924 layer_factory.hpp:77] Creating layer inception_4c/relu_3x3
I0403 15:40:21.049193 10924 net.cpp:91] Creating Layer inception_4c/relu_3x3
I0403 15:40:21.049211 10924 net.cpp:425] inception_4c/relu_3x3 <- inception_4c/3x3
I0403 15:40:21.049228 10924 net.cpp:386] inception_4c/relu_3x3 -> inception_4c/3x3 (in-place)
I0403 15:40:21.049413 10924 net.cpp:141] Setting up inception_4c/relu_3x3
I0403 15:40:21.049439 10924 net.cpp:148] Top shape: 24 256 14 14 (1204224)
I0403 15:40:21.049454 10924 net.cpp:156] Memory required for data: 1047659808
I0403 15:40:21.049469 10924 layer_factory.hpp:77] Creating layer inception_4c/5x5_reduce
I0403 15:40:21.049494 10924 net.cpp:91] Creating Layer inception_4c/5x5_reduce
I0403 15:40:21.049510 10924 net.cpp:425] inception_4c/5x5_reduce <- inception_4b/output_inception_4b/output_0_split_2
I0403 15:40:21.049532 10924 net.cpp:399] inception_4c/5x5_reduce -> inception_4c/5x5_reduce
I0403 15:40:21.050663 10924 net.cpp:141] Setting up inception_4c/5x5_reduce
I0403 15:40:21.050691 10924 net.cpp:148] Top shape: 24 24 14 14 (112896)
I0403 15:40:21.050707 10924 net.cpp:156] Memory required for data: 1048111392
I0403 15:40:21.050726 10924 layer_factory.hpp:77] Creating layer inception_4c/relu_5x5_reduce
I0403 15:40:21.050747 10924 net.cpp:91] Creating Layer inception_4c/relu_5x5_reduce
I0403 15:40:21.050765 10924 net.cpp:425] inception_4c/relu_5x5_reduce <- inception_4c/5x5_reduce
I0403 15:40:21.050782 10924 net.cpp:386] inception_4c/relu_5x5_reduce -> inception_4c/5x5_reduce (in-place)
I0403 15:40:21.050972 10924 net.cpp:141] Setting up inception_4c/relu_5x5_reduce
I0403 15:40:21.051002 10924 net.cpp:148] Top shape: 24 24 14 14 (112896)
I0403 15:40:21.051018 10924 net.cpp:156] Memory required for data: 1048562976
I0403 15:40:21.051033 10924 layer_factory.hpp:77] Creating layer inception_4c/5x5
I0403 15:40:21.051055 10924 net.cpp:91] Creating Layer inception_4c/5x5
I0403 15:40:21.051074 10924 net.cpp:425] inception_4c/5x5 <- inception_4c/5x5_reduce
I0403 15:40:21.051095 10924 net.cpp:399] inception_4c/5x5 -> inception_4c/5x5
I0403 15:40:21.052399 10924 net.cpp:141] Setting up inception_4c/5x5
I0403 15:40:21.052428 10924 net.cpp:148] Top shape: 24 64 14 14 (301056)
I0403 15:40:21.052445 10924 net.cpp:156] Memory required for data: 1049767200
I0403 15:40:21.052464 10924 layer_factory.hpp:77] Creating layer inception_4c/relu_5x5
I0403 15:40:21.052485 10924 net.cpp:91] Creating Layer inception_4c/relu_5x5
I0403 15:40:21.052515 10924 net.cpp:425] inception_4c/relu_5x5 <- inception_4c/5x5
I0403 15:40:21.052534 10924 net.cpp:386] inception_4c/relu_5x5 -> inception_4c/5x5 (in-place)
I0403 15:40:21.052832 10924 net.cpp:141] Setting up inception_4c/relu_5x5
I0403 15:40:21.052860 10924 net.cpp:148] Top shape: 24 64 14 14 (301056)
I0403 15:40:21.052875 10924 net.cpp:156] Memory required for data: 1050971424
I0403 15:40:21.052891 10924 layer_factory.hpp:77] Creating layer inception_4c/pool
I0403 15:40:21.052911 10924 net.cpp:91] Creating Layer inception_4c/pool
I0403 15:40:21.052930 10924 net.cpp:425] inception_4c/pool <- inception_4b/output_inception_4b/output_0_split_3
I0403 15:40:21.052949 10924 net.cpp:399] inception_4c/pool -> inception_4c/pool
I0403 15:40:21.053022 10924 net.cpp:141] Setting up inception_4c/pool
I0403 15:40:21.053047 10924 net.cpp:148] Top shape: 24 512 14 14 (2408448)
I0403 15:40:21.053062 10924 net.cpp:156] Memory required for data: 1060605216
I0403 15:40:21.053078 10924 layer_factory.hpp:77] Creating layer inception_4c/pool_proj
I0403 15:40:21.053102 10924 net.cpp:91] Creating Layer inception_4c/pool_proj
I0403 15:40:21.053120 10924 net.cpp:425] inception_4c/pool_proj <- inception_4c/pool
I0403 15:40:21.053141 10924 net.cpp:399] inception_4c/pool_proj -> inception_4c/pool_proj
I0403 15:40:21.054464 10924 net.cpp:141] Setting up inception_4c/pool_proj
I0403 15:40:21.054505 10924 net.cpp:148] Top shape: 24 64 14 14 (301056)
I0403 15:40:21.054535 10924 net.cpp:156] Memory required for data: 1061809440
I0403 15:40:21.054555 10924 layer_factory.hpp:77] Creating layer inception_4c/relu_pool_proj
I0403 15:40:21.054577 10924 net.cpp:91] Creating Layer inception_4c/relu_pool_proj
I0403 15:40:21.054595 10924 net.cpp:425] inception_4c/relu_pool_proj <- inception_4c/pool_proj
I0403 15:40:21.054612 10924 net.cpp:386] inception_4c/relu_pool_proj -> inception_4c/pool_proj (in-place)
I0403 15:40:21.054800 10924 net.cpp:141] Setting up inception_4c/relu_pool_proj
I0403 15:40:21.054826 10924 net.cpp:148] Top shape: 24 64 14 14 (301056)
I0403 15:40:21.054841 10924 net.cpp:156] Memory required for data: 1063013664
I0403 15:40:21.054857 10924 layer_factory.hpp:77] Creating layer inception_4c/output
I0403 15:40:21.054877 10924 net.cpp:91] Creating Layer inception_4c/output
I0403 15:40:21.054893 10924 net.cpp:425] inception_4c/output <- inception_4c/1x1
I0403 15:40:21.054910 10924 net.cpp:425] inception_4c/output <- inception_4c/3x3
I0403 15:40:21.054929 10924 net.cpp:425] inception_4c/output <- inception_4c/5x5
I0403 15:40:21.054945 10924 net.cpp:425] inception_4c/output <- inception_4c/pool_proj
I0403 15:40:21.054962 10924 net.cpp:399] inception_4c/output -> inception_4c/output
I0403 15:40:21.055016 10924 net.cpp:141] Setting up inception_4c/output
I0403 15:40:21.055040 10924 net.cpp:148] Top shape: 24 512 14 14 (2408448)
I0403 15:40:21.055057 10924 net.cpp:156] Memory required for data: 1072647456
I0403 15:40:21.055071 10924 layer_factory.hpp:77] Creating layer inception_4c/output_inception_4c/output_0_split
I0403 15:40:21.055088 10924 net.cpp:91] Creating Layer inception_4c/output_inception_4c/output_0_split
I0403 15:40:21.055104 10924 net.cpp:425] inception_4c/output_inception_4c/output_0_split <- inception_4c/output
I0403 15:40:21.055124 10924 net.cpp:399] inception_4c/output_inception_4c/output_0_split -> inception_4c/output_inception_4c/output_0_split_0
I0403 15:40:21.055145 10924 net.cpp:399] inception_4c/output_inception_4c/output_0_split -> inception_4c/output_inception_4c/output_0_split_1
I0403 15:40:21.055166 10924 net.cpp:399] inception_4c/output_inception_4c/output_0_split -> inception_4c/output_inception_4c/output_0_split_2
I0403 15:40:21.055187 10924 net.cpp:399] inception_4c/output_inception_4c/output_0_split -> inception_4c/output_inception_4c/output_0_split_3
I0403 15:40:21.055279 10924 net.cpp:141] Setting up inception_4c/output_inception_4c/output_0_split
I0403 15:40:21.055305 10924 net.cpp:148] Top shape: 24 512 14 14 (2408448)
I0403 15:40:21.055322 10924 net.cpp:148] Top shape: 24 512 14 14 (2408448)
I0403 15:40:21.055340 10924 net.cpp:148] Top shape: 24 512 14 14 (2408448)
I0403 15:40:21.055354 10924 net.cpp:148] Top shape: 24 512 14 14 (2408448)
I0403 15:40:21.055369 10924 net.cpp:156] Memory required for data: 1111182624
I0403 15:40:21.055383 10924 layer_factory.hpp:77] Creating layer inception_4d/1x1
I0403 15:40:21.055407 10924 net.cpp:91] Creating Layer inception_4d/1x1
I0403 15:40:21.055424 10924 net.cpp:425] inception_4d/1x1 <- inception_4c/output_inception_4c/output_0_split_0
I0403 15:40:21.055444 10924 net.cpp:399] inception_4d/1x1 -> inception_4d/1x1
I0403 15:40:21.056922 10924 net.cpp:141] Setting up inception_4d/1x1
I0403 15:40:21.056953 10924 net.cpp:148] Top shape: 24 112 14 14 (526848)
I0403 15:40:21.056970 10924 net.cpp:156] Memory required for data: 1113290016
I0403 15:40:21.056994 10924 layer_factory.hpp:77] Creating layer inception_4d/relu_1x1
I0403 15:40:21.057014 10924 net.cpp:91] Creating Layer inception_4d/relu_1x1
I0403 15:40:21.057031 10924 net.cpp:425] inception_4d/relu_1x1 <- inception_4d/1x1
I0403 15:40:21.057055 10924 net.cpp:386] inception_4d/relu_1x1 -> inception_4d/1x1 (in-place)
I0403 15:40:21.057248 10924 net.cpp:141] Setting up inception_4d/relu_1x1
I0403 15:40:21.057273 10924 net.cpp:148] Top shape: 24 112 14 14 (526848)
I0403 15:40:21.057288 10924 net.cpp:156] Memory required for data: 1115397408
I0403 15:40:21.057303 10924 layer_factory.hpp:77] Creating layer inception_4d/3x3_reduce
I0403 15:40:21.057340 10924 net.cpp:91] Creating Layer inception_4d/3x3_reduce
I0403 15:40:21.057359 10924 net.cpp:425] inception_4d/3x3_reduce <- inception_4c/output_inception_4c/output_0_split_1
I0403 15:40:21.057382 10924 net.cpp:399] inception_4d/3x3_reduce -> inception_4d/3x3_reduce
I0403 15:40:21.059002 10924 net.cpp:141] Setting up inception_4d/3x3_reduce
I0403 15:40:21.059033 10924 net.cpp:148] Top shape: 24 144 14 14 (677376)
I0403 15:40:21.059051 10924 net.cpp:156] Memory required for data: 1118106912
I0403 15:40:21.059070 10924 layer_factory.hpp:77] Creating layer inception_4d/relu_3x3_reduce
I0403 15:40:21.059088 10924 net.cpp:91] Creating Layer inception_4d/relu_3x3_reduce
I0403 15:40:21.059105 10924 net.cpp:425] inception_4d/relu_3x3_reduce <- inception_4d/3x3_reduce
I0403 15:40:21.059123 10924 net.cpp:386] inception_4d/relu_3x3_reduce -> inception_4d/3x3_reduce (in-place)
I0403 15:40:21.059422 10924 net.cpp:141] Setting up inception_4d/relu_3x3_reduce
I0403 15:40:21.059450 10924 net.cpp:148] Top shape: 24 144 14 14 (677376)
I0403 15:40:21.059466 10924 net.cpp:156] Memory required for data: 1120816416
I0403 15:40:21.059483 10924 layer_factory.hpp:77] Creating layer inception_4d/3x3
I0403 15:40:21.059515 10924 net.cpp:91] Creating Layer inception_4d/3x3
I0403 15:40:21.059533 10924 net.cpp:425] inception_4d/3x3 <- inception_4d/3x3_reduce
I0403 15:40:21.059556 10924 net.cpp:399] inception_4d/3x3 -> inception_4d/3x3
I0403 15:40:21.063928 10924 net.cpp:141] Setting up inception_4d/3x3
I0403 15:40:21.063956 10924 net.cpp:148] Top shape: 24 288 14 14 (1354752)
I0403 15:40:21.063972 10924 net.cpp:156] Memory required for data: 1126235424
I0403 15:40:21.063995 10924 layer_factory.hpp:77] Creating layer inception_4d/relu_3x3
I0403 15:40:21.064015 10924 net.cpp:91] Creating Layer inception_4d/relu_3x3
I0403 15:40:21.064033 10924 net.cpp:425] inception_4d/relu_3x3 <- inception_4d/3x3
I0403 15:40:21.064051 10924 net.cpp:386] inception_4d/relu_3x3 -> inception_4d/3x3 (in-place)
I0403 15:40:21.064237 10924 net.cpp:141] Setting up inception_4d/relu_3x3
I0403 15:40:21.064262 10924 net.cpp:148] Top shape: 24 288 14 14 (1354752)
I0403 15:40:21.064276 10924 net.cpp:156] Memory required for data: 1131654432
I0403 15:40:21.064291 10924 layer_factory.hpp:77] Creating layer inception_4d/5x5_reduce
I0403 15:40:21.064313 10924 net.cpp:91] Creating Layer inception_4d/5x5_reduce
I0403 15:40:21.064330 10924 net.cpp:425] inception_4d/5x5_reduce <- inception_4c/output_inception_4c/output_0_split_2
I0403 15:40:21.064355 10924 net.cpp:399] inception_4d/5x5_reduce -> inception_4d/5x5_reduce
I0403 15:40:21.065518 10924 net.cpp:141] Setting up inception_4d/5x5_reduce
I0403 15:40:21.065547 10924 net.cpp:148] Top shape: 24 32 14 14 (150528)
I0403 15:40:21.065564 10924 net.cpp:156] Memory required for data: 1132256544
I0403 15:40:21.065582 10924 layer_factory.hpp:77] Creating layer inception_4d/relu_5x5_reduce
I0403 15:40:21.065599 10924 net.cpp:91] Creating Layer inception_4d/relu_5x5_reduce
I0403 15:40:21.065615 10924 net.cpp:425] inception_4d/relu_5x5_reduce <- inception_4d/5x5_reduce
I0403 15:40:21.065635 10924 net.cpp:386] inception_4d/relu_5x5_reduce -> inception_4d/5x5_reduce (in-place)
I0403 15:40:21.065822 10924 net.cpp:141] Setting up inception_4d/relu_5x5_reduce
I0403 15:40:21.065846 10924 net.cpp:148] Top shape: 24 32 14 14 (150528)
I0403 15:40:21.065861 10924 net.cpp:156] Memory required for data: 1132858656
I0403 15:40:21.065876 10924 layer_factory.hpp:77] Creating layer inception_4d/5x5
I0403 15:40:21.065897 10924 net.cpp:91] Creating Layer inception_4d/5x5
I0403 15:40:21.065914 10924 net.cpp:425] inception_4d/5x5 <- inception_4d/5x5_reduce
I0403 15:40:21.065937 10924 net.cpp:399] inception_4d/5x5 -> inception_4d/5x5
I0403 15:40:21.067459 10924 net.cpp:141] Setting up inception_4d/5x5
I0403 15:40:21.067487 10924 net.cpp:148] Top shape: 24 64 14 14 (301056)
I0403 15:40:21.067502 10924 net.cpp:156] Memory required for data: 1134062880
I0403 15:40:21.067520 10924 layer_factory.hpp:77] Creating layer inception_4d/relu_5x5
I0403 15:40:21.067555 10924 net.cpp:91] Creating Layer inception_4d/relu_5x5
I0403 15:40:21.067574 10924 net.cpp:425] inception_4d/relu_5x5 <- inception_4d/5x5
I0403 15:40:21.067592 10924 net.cpp:386] inception_4d/relu_5x5 -> inception_4d/5x5 (in-place)
I0403 15:40:21.067893 10924 net.cpp:141] Setting up inception_4d/relu_5x5
I0403 15:40:21.067919 10924 net.cpp:148] Top shape: 24 64 14 14 (301056)
I0403 15:40:21.067934 10924 net.cpp:156] Memory required for data: 1135267104
I0403 15:40:21.067950 10924 layer_factory.hpp:77] Creating layer inception_4d/pool
I0403 15:40:21.067970 10924 net.cpp:91] Creating Layer inception_4d/pool
I0403 15:40:21.067998 10924 net.cpp:425] inception_4d/pool <- inception_4c/output_inception_4c/output_0_split_3
I0403 15:40:21.068019 10924 net.cpp:399] inception_4d/pool -> inception_4d/pool
I0403 15:40:21.068092 10924 net.cpp:141] Setting up inception_4d/pool
I0403 15:40:21.068116 10924 net.cpp:148] Top shape: 24 512 14 14 (2408448)
I0403 15:40:21.068131 10924 net.cpp:156] Memory required for data: 1144900896
I0403 15:40:21.068146 10924 layer_factory.hpp:77] Creating layer inception_4d/pool_proj
I0403 15:40:21.068169 10924 net.cpp:91] Creating Layer inception_4d/pool_proj
I0403 15:40:21.068186 10924 net.cpp:425] inception_4d/pool_proj <- inception_4d/pool
I0403 15:40:21.068207 10924 net.cpp:399] inception_4d/pool_proj -> inception_4d/pool_proj
I0403 15:40:21.069998 10924 net.cpp:141] Setting up inception_4d/pool_proj
I0403 15:40:21.070027 10924 net.cpp:148] Top shape: 24 64 14 14 (301056)
I0403 15:40:21.070042 10924 net.cpp:156] Memory required for data: 1146105120
I0403 15:40:21.070061 10924 layer_factory.hpp:77] Creating layer inception_4d/relu_pool_proj
I0403 15:40:21.070080 10924 net.cpp:91] Creating Layer inception_4d/relu_pool_proj
I0403 15:40:21.070096 10924 net.cpp:425] inception_4d/relu_pool_proj <- inception_4d/pool_proj
I0403 15:40:21.070114 10924 net.cpp:386] inception_4d/relu_pool_proj -> inception_4d/pool_proj (in-place)
I0403 15:40:21.070317 10924 net.cpp:141] Setting up inception_4d/relu_pool_proj
I0403 15:40:21.070343 10924 net.cpp:148] Top shape: 24 64 14 14 (301056)
I0403 15:40:21.070358 10924 net.cpp:156] Memory required for data: 1147309344
I0403 15:40:21.070374 10924 layer_factory.hpp:77] Creating layer inception_4d/output
I0403 15:40:21.070390 10924 net.cpp:91] Creating Layer inception_4d/output
I0403 15:40:21.070410 10924 net.cpp:425] inception_4d/output <- inception_4d/1x1
I0403 15:40:21.070426 10924 net.cpp:425] inception_4d/output <- inception_4d/3x3
I0403 15:40:21.070443 10924 net.cpp:425] inception_4d/output <- inception_4d/5x5
I0403 15:40:21.070459 10924 net.cpp:425] inception_4d/output <- inception_4d/pool_proj
I0403 15:40:21.070477 10924 net.cpp:399] inception_4d/output -> inception_4d/output
I0403 15:40:21.070535 10924 net.cpp:141] Setting up inception_4d/output
I0403 15:40:21.070561 10924 net.cpp:148] Top shape: 24 528 14 14 (2483712)
I0403 15:40:21.070576 10924 net.cpp:156] Memory required for data: 1157244192
I0403 15:40:21.070591 10924 layer_factory.hpp:77] Creating layer inception_4d/output_inception_4d/output_0_split
I0403 15:40:21.070608 10924 net.cpp:91] Creating Layer inception_4d/output_inception_4d/output_0_split
I0403 15:40:21.070624 10924 net.cpp:425] inception_4d/output_inception_4d/output_0_split <- inception_4d/output
I0403 15:40:21.070646 10924 net.cpp:399] inception_4d/output_inception_4d/output_0_split -> inception_4d/output_inception_4d/output_0_split_0
I0403 15:40:21.070667 10924 net.cpp:399] inception_4d/output_inception_4d/output_0_split -> inception_4d/output_inception_4d/output_0_split_1
I0403 15:40:21.070688 10924 net.cpp:399] inception_4d/output_inception_4d/output_0_split -> inception_4d/output_inception_4d/output_0_split_2
I0403 15:40:21.070708 10924 net.cpp:399] inception_4d/output_inception_4d/output_0_split -> inception_4d/output_inception_4d/output_0_split_3
I0403 15:40:21.070727 10924 net.cpp:399] inception_4d/output_inception_4d/output_0_split -> inception_4d/output_inception_4d/output_0_split_4
I0403 15:40:21.070832 10924 net.cpp:141] Setting up inception_4d/output_inception_4d/output_0_split
I0403 15:40:21.070866 10924 net.cpp:148] Top shape: 24 528 14 14 (2483712)
I0403 15:40:21.070886 10924 net.cpp:148] Top shape: 24 528 14 14 (2483712)
I0403 15:40:21.070904 10924 net.cpp:148] Top shape: 24 528 14 14 (2483712)
I0403 15:40:21.070919 10924 net.cpp:148] Top shape: 24 528 14 14 (2483712)
I0403 15:40:21.070935 10924 net.cpp:148] Top shape: 24 528 14 14 (2483712)
I0403 15:40:21.070948 10924 net.cpp:156] Memory required for data: 1206918432
I0403 15:40:21.070962 10924 layer_factory.hpp:77] Creating layer loss2/ave_pool
I0403 15:40:21.070984 10924 net.cpp:91] Creating Layer loss2/ave_pool
I0403 15:40:21.071002 10924 net.cpp:425] loss2/ave_pool <- inception_4d/output_inception_4d/output_0_split_0
I0403 15:40:21.071022 10924 net.cpp:399] loss2/ave_pool -> loss2/ave_pool
I0403 15:40:21.071343 10924 net.cpp:141] Setting up loss2/ave_pool
I0403 15:40:21.071370 10924 net.cpp:148] Top shape: 24 528 4 4 (202752)
I0403 15:40:21.071385 10924 net.cpp:156] Memory required for data: 1207729440
I0403 15:40:21.071400 10924 layer_factory.hpp:77] Creating layer loss2/conv
I0403 15:40:21.071422 10924 net.cpp:91] Creating Layer loss2/conv
I0403 15:40:21.071439 10924 net.cpp:425] loss2/conv <- loss2/ave_pool
I0403 15:40:21.071460 10924 net.cpp:399] loss2/conv -> loss2/conv
I0403 15:40:21.073393 10924 net.cpp:141] Setting up loss2/conv
I0403 15:40:21.073422 10924 net.cpp:148] Top shape: 24 128 4 4 (49152)
I0403 15:40:21.073438 10924 net.cpp:156] Memory required for data: 1207926048
I0403 15:40:21.073457 10924 layer_factory.hpp:77] Creating layer loss2/relu_conv
I0403 15:40:21.073477 10924 net.cpp:91] Creating Layer loss2/relu_conv
I0403 15:40:21.073495 10924 net.cpp:425] loss2/relu_conv <- loss2/conv
I0403 15:40:21.073513 10924 net.cpp:386] loss2/relu_conv -> loss2/conv (in-place)
I0403 15:40:21.073804 10924 net.cpp:141] Setting up loss2/relu_conv
I0403 15:40:21.073830 10924 net.cpp:148] Top shape: 24 128 4 4 (49152)
I0403 15:40:21.073846 10924 net.cpp:156] Memory required for data: 1208122656
I0403 15:40:21.073861 10924 layer_factory.hpp:77] Creating layer loss2/fc
I0403 15:40:21.073882 10924 net.cpp:91] Creating Layer loss2/fc
I0403 15:40:21.073899 10924 net.cpp:425] loss2/fc <- loss2/conv
I0403 15:40:21.073918 10924 net.cpp:399] loss2/fc -> loss2/fc
I0403 15:40:21.091934 10924 net.cpp:141] Setting up loss2/fc
I0403 15:40:21.091969 10924 net.cpp:148] Top shape: 24 1024 (24576)
I0403 15:40:21.091990 10924 net.cpp:156] Memory required for data: 1208220960
I0403 15:40:21.092010 10924 layer_factory.hpp:77] Creating layer loss2/relu_fc
I0403 15:40:21.092030 10924 net.cpp:91] Creating Layer loss2/relu_fc
I0403 15:40:21.092047 10924 net.cpp:425] loss2/relu_fc <- loss2/fc
I0403 15:40:21.092080 10924 net.cpp:386] loss2/relu_fc -> loss2/fc (in-place)
I0403 15:40:21.092384 10924 net.cpp:141] Setting up loss2/relu_fc
I0403 15:40:21.092411 10924 net.cpp:148] Top shape: 24 1024 (24576)
I0403 15:40:21.092427 10924 net.cpp:156] Memory required for data: 1208319264
I0403 15:40:21.092442 10924 layer_factory.hpp:77] Creating layer loss2/drop_fc
I0403 15:40:21.092460 10924 net.cpp:91] Creating Layer loss2/drop_fc
I0403 15:40:21.092478 10924 net.cpp:425] loss2/drop_fc <- loss2/fc
I0403 15:40:21.092497 10924 net.cpp:386] loss2/drop_fc -> loss2/fc (in-place)
I0403 15:40:21.092546 10924 net.cpp:141] Setting up loss2/drop_fc
I0403 15:40:21.092573 10924 net.cpp:148] Top shape: 24 1024 (24576)
I0403 15:40:21.092588 10924 net.cpp:156] Memory required for data: 1208417568
I0403 15:40:21.092603 10924 layer_factory.hpp:77] Creating layer loss2/classifier_plantvillage
I0403 15:40:21.092622 10924 net.cpp:91] Creating Layer loss2/classifier_plantvillage
I0403 15:40:21.092639 10924 net.cpp:425] loss2/classifier_plantvillage <- loss2/fc
I0403 15:40:21.092660 10924 net.cpp:399] loss2/classifier_plantvillage -> loss2/classifier_plantvillage
I0403 15:40:21.093068 10924 net.cpp:141] Setting up loss2/classifier_plantvillage
I0403 15:40:21.093096 10924 net.cpp:148] Top shape: 24 38 (912)
I0403 15:40:21.093127 10924 net.cpp:156] Memory required for data: 1208421216
I0403 15:40:21.093147 10924 layer_factory.hpp:77] Creating layer loss2/classifier_plantvillage_loss2/classifier_plantvillage_0_split
I0403 15:40:21.093165 10924 net.cpp:91] Creating Layer loss2/classifier_plantvillage_loss2/classifier_plantvillage_0_split
I0403 15:40:21.093181 10924 net.cpp:425] loss2/classifier_plantvillage_loss2/classifier_plantvillage_0_split <- loss2/classifier_plantvillage
I0403 15:40:21.093199 10924 net.cpp:399] loss2/classifier_plantvillage_loss2/classifier_plantvillage_0_split -> loss2/classifier_plantvillage_loss2/classifier_plantvillage_0_split_0
I0403 15:40:21.093219 10924 net.cpp:399] loss2/classifier_plantvillage_loss2/classifier_plantvillage_0_split -> loss2/classifier_plantvillage_loss2/classifier_plantvillage_0_split_1
I0403 15:40:21.093240 10924 net.cpp:399] loss2/classifier_plantvillage_loss2/classifier_plantvillage_0_split -> loss2/classifier_plantvillage_loss2/classifier_plantvillage_0_split_2
I0403 15:40:21.093319 10924 net.cpp:141] Setting up loss2/classifier_plantvillage_loss2/classifier_plantvillage_0_split
I0403 15:40:21.093343 10924 net.cpp:148] Top shape: 24 38 (912)
I0403 15:40:21.093359 10924 net.cpp:148] Top shape: 24 38 (912)
I0403 15:40:21.093375 10924 net.cpp:148] Top shape: 24 38 (912)
I0403 15:40:21.093389 10924 net.cpp:156] Memory required for data: 1208432160
I0403 15:40:21.093403 10924 layer_factory.hpp:77] Creating layer inception_4e/1x1
I0403 15:40:21.093425 10924 net.cpp:91] Creating Layer inception_4e/1x1
I0403 15:40:21.093441 10924 net.cpp:425] inception_4e/1x1 <- inception_4d/output_inception_4d/output_0_split_1
I0403 15:40:21.093462 10924 net.cpp:399] inception_4e/1x1 -> inception_4e/1x1
I0403 15:40:21.095417 10924 net.cpp:141] Setting up inception_4e/1x1
I0403 15:40:21.095446 10924 net.cpp:148] Top shape: 24 256 14 14 (1204224)
I0403 15:40:21.095463 10924 net.cpp:156] Memory required for data: 1213249056
I0403 15:40:21.095482 10924 layer_factory.hpp:77] Creating layer inception_4e/relu_1x1
I0403 15:40:21.095515 10924 net.cpp:91] Creating Layer inception_4e/relu_1x1
I0403 15:40:21.095533 10924 net.cpp:425] inception_4e/relu_1x1 <- inception_4e/1x1
I0403 15:40:21.095551 10924 net.cpp:386] inception_4e/relu_1x1 -> inception_4e/1x1 (in-place)
I0403 15:40:21.095860 10924 net.cpp:141] Setting up inception_4e/relu_1x1
I0403 15:40:21.095886 10924 net.cpp:148] Top shape: 24 256 14 14 (1204224)
I0403 15:40:21.095901 10924 net.cpp:156] Memory required for data: 1218065952
I0403 15:40:21.095917 10924 layer_factory.hpp:77] Creating layer inception_4e/3x3_reduce
I0403 15:40:21.095940 10924 net.cpp:91] Creating Layer inception_4e/3x3_reduce
I0403 15:40:21.095959 10924 net.cpp:425] inception_4e/3x3_reduce <- inception_4d/output_inception_4d/output_0_split_2
I0403 15:40:21.095983 10924 net.cpp:399] inception_4e/3x3_reduce -> inception_4e/3x3_reduce
I0403 15:40:21.098220 10924 net.cpp:141] Setting up inception_4e/3x3_reduce
I0403 15:40:21.098253 10924 net.cpp:148] Top shape: 24 160 14 14 (752640)
I0403 15:40:21.098268 10924 net.cpp:156] Memory required for data: 1221076512
I0403 15:40:21.098289 10924 layer_factory.hpp:77] Creating layer inception_4e/relu_3x3_reduce
I0403 15:40:21.098311 10924 net.cpp:91] Creating Layer inception_4e/relu_3x3_reduce
I0403 15:40:21.098330 10924 net.cpp:425] inception_4e/relu_3x3_reduce <- inception_4e/3x3_reduce
I0403 15:40:21.098347 10924 net.cpp:386] inception_4e/relu_3x3_reduce -> inception_4e/3x3_reduce (in-place)
I0403 15:40:21.098557 10924 net.cpp:141] Setting up inception_4e/relu_3x3_reduce
I0403 15:40:21.098582 10924 net.cpp:148] Top shape: 24 160 14 14 (752640)
I0403 15:40:21.098598 10924 net.cpp:156] Memory required for data: 1224087072
I0403 15:40:21.098613 10924 layer_factory.hpp:77] Creating layer inception_4e/3x3
I0403 15:40:21.098637 10924 net.cpp:91] Creating Layer inception_4e/3x3
I0403 15:40:21.098655 10924 net.cpp:425] inception_4e/3x3 <- inception_4e/3x3_reduce
I0403 15:40:21.098675 10924 net.cpp:399] inception_4e/3x3 -> inception_4e/3x3
I0403 15:40:21.103948 10924 net.cpp:141] Setting up inception_4e/3x3
I0403 15:40:21.103996 10924 net.cpp:148] Top shape: 24 320 14 14 (1505280)
I0403 15:40:21.104012 10924 net.cpp:156] Memory required for data: 1230108192
I0403 15:40:21.104032 10924 layer_factory.hpp:77] Creating layer inception_4e/relu_3x3
I0403 15:40:21.104053 10924 net.cpp:91] Creating Layer inception_4e/relu_3x3
I0403 15:40:21.104071 10924 net.cpp:425] inception_4e/relu_3x3 <- inception_4e/3x3
I0403 15:40:21.104089 10924 net.cpp:386] inception_4e/relu_3x3 -> inception_4e/3x3 (in-place)
I0403 15:40:21.104403 10924 net.cpp:141] Setting up inception_4e/relu_3x3
I0403 15:40:21.104434 10924 net.cpp:148] Top shape: 24 320 14 14 (1505280)
I0403 15:40:21.104449 10924 net.cpp:156] Memory required for data: 1236129312
I0403 15:40:21.104465 10924 layer_factory.hpp:77] Creating layer inception_4e/5x5_reduce
I0403 15:40:21.104490 10924 net.cpp:91] Creating Layer inception_4e/5x5_reduce
I0403 15:40:21.104508 10924 net.cpp:425] inception_4e/5x5_reduce <- inception_4d/output_inception_4d/output_0_split_3
I0403 15:40:21.104528 10924 net.cpp:399] inception_4e/5x5_reduce -> inception_4e/5x5_reduce
I0403 15:40:21.105648 10924 net.cpp:141] Setting up inception_4e/5x5_reduce
I0403 15:40:21.105676 10924 net.cpp:148] Top shape: 24 32 14 14 (150528)
I0403 15:40:21.105692 10924 net.cpp:156] Memory required for data: 1236731424
I0403 15:40:21.105711 10924 layer_factory.hpp:77] Creating layer inception_4e/relu_5x5_reduce
I0403 15:40:21.105732 10924 net.cpp:91] Creating Layer inception_4e/relu_5x5_reduce
I0403 15:40:21.105751 10924 net.cpp:425] inception_4e/relu_5x5_reduce <- inception_4e/5x5_reduce
I0403 15:40:21.105767 10924 net.cpp:386] inception_4e/relu_5x5_reduce -> inception_4e/5x5_reduce (in-place)
I0403 15:40:21.106087 10924 net.cpp:141] Setting up inception_4e/relu_5x5_reduce
I0403 15:40:21.106113 10924 net.cpp:148] Top shape: 24 32 14 14 (150528)
I0403 15:40:21.106129 10924 net.cpp:156] Memory required for data: 1237333536
I0403 15:40:21.106145 10924 layer_factory.hpp:77] Creating layer inception_4e/5x5
I0403 15:40:21.106184 10924 net.cpp:91] Creating Layer inception_4e/5x5
I0403 15:40:21.106215 10924 net.cpp:425] inception_4e/5x5 <- inception_4e/5x5_reduce
I0403 15:40:21.106238 10924 net.cpp:399] inception_4e/5x5 -> inception_4e/5x5
I0403 15:40:21.108192 10924 net.cpp:141] Setting up inception_4e/5x5
I0403 15:40:21.108222 10924 net.cpp:148] Top shape: 24 128 14 14 (602112)
I0403 15:40:21.108237 10924 net.cpp:156] Memory required for data: 1239741984
I0403 15:40:21.108258 10924 layer_factory.hpp:77] Creating layer inception_4e/relu_5x5
I0403 15:40:21.108288 10924 net.cpp:91] Creating Layer inception_4e/relu_5x5
I0403 15:40:21.108304 10924 net.cpp:425] inception_4e/relu_5x5 <- inception_4e/5x5
I0403 15:40:21.108324 10924 net.cpp:386] inception_4e/relu_5x5 -> inception_4e/5x5 (in-place)
I0403 15:40:21.108523 10924 net.cpp:141] Setting up inception_4e/relu_5x5
I0403 15:40:21.108548 10924 net.cpp:148] Top shape: 24 128 14 14 (602112)
I0403 15:40:21.108563 10924 net.cpp:156] Memory required for data: 1242150432
I0403 15:40:21.108578 10924 layer_factory.hpp:77] Creating layer inception_4e/pool
I0403 15:40:21.108599 10924 net.cpp:91] Creating Layer inception_4e/pool
I0403 15:40:21.108616 10924 net.cpp:425] inception_4e/pool <- inception_4d/output_inception_4d/output_0_split_4
I0403 15:40:21.108634 10924 net.cpp:399] inception_4e/pool -> inception_4e/pool
I0403 15:40:21.108705 10924 net.cpp:141] Setting up inception_4e/pool
I0403 15:40:21.108729 10924 net.cpp:148] Top shape: 24 528 14 14 (2483712)
I0403 15:40:21.108743 10924 net.cpp:156] Memory required for data: 1252085280
I0403 15:40:21.108758 10924 layer_factory.hpp:77] Creating layer inception_4e/pool_proj
I0403 15:40:21.108780 10924 net.cpp:91] Creating Layer inception_4e/pool_proj
I0403 15:40:21.108798 10924 net.cpp:425] inception_4e/pool_proj <- inception_4e/pool
I0403 15:40:21.108819 10924 net.cpp:399] inception_4e/pool_proj -> inception_4e/pool_proj
I0403 15:40:21.110430 10924 net.cpp:141] Setting up inception_4e/pool_proj
I0403 15:40:21.110469 10924 net.cpp:148] Top shape: 24 128 14 14 (602112)
I0403 15:40:21.110486 10924 net.cpp:156] Memory required for data: 1254493728
I0403 15:40:21.110517 10924 layer_factory.hpp:77] Creating layer inception_4e/relu_pool_proj
I0403 15:40:21.110535 10924 net.cpp:91] Creating Layer inception_4e/relu_pool_proj
I0403 15:40:21.110550 10924 net.cpp:425] inception_4e/relu_pool_proj <- inception_4e/pool_proj
I0403 15:40:21.110569 10924 net.cpp:386] inception_4e/relu_pool_proj -> inception_4e/pool_proj (in-place)
I0403 15:40:21.110867 10924 net.cpp:141] Setting up inception_4e/relu_pool_proj
I0403 15:40:21.110893 10924 net.cpp:148] Top shape: 24 128 14 14 (602112)
I0403 15:40:21.110909 10924 net.cpp:156] Memory required for data: 1256902176
I0403 15:40:21.110926 10924 layer_factory.hpp:77] Creating layer inception_4e/output
I0403 15:40:21.110944 10924 net.cpp:91] Creating Layer inception_4e/output
I0403 15:40:21.110960 10924 net.cpp:425] inception_4e/output <- inception_4e/1x1
I0403 15:40:21.110976 10924 net.cpp:425] inception_4e/output <- inception_4e/3x3
I0403 15:40:21.110996 10924 net.cpp:425] inception_4e/output <- inception_4e/5x5
I0403 15:40:21.111013 10924 net.cpp:425] inception_4e/output <- inception_4e/pool_proj
I0403 15:40:21.111032 10924 net.cpp:399] inception_4e/output -> inception_4e/output
I0403 15:40:21.111083 10924 net.cpp:141] Setting up inception_4e/output
I0403 15:40:21.111109 10924 net.cpp:148] Top shape: 24 832 14 14 (3913728)
I0403 15:40:21.111125 10924 net.cpp:156] Memory required for data: 1272557088
I0403 15:40:21.111140 10924 layer_factory.hpp:77] Creating layer pool4/3x3_s2
I0403 15:40:21.111158 10924 net.cpp:91] Creating Layer pool4/3x3_s2
I0403 15:40:21.111174 10924 net.cpp:425] pool4/3x3_s2 <- inception_4e/output
I0403 15:40:21.111191 10924 net.cpp:399] pool4/3x3_s2 -> pool4/3x3_s2
I0403 15:40:21.111261 10924 net.cpp:141] Setting up pool4/3x3_s2
I0403 15:40:21.111285 10924 net.cpp:148] Top shape: 24 832 7 7 (978432)
I0403 15:40:21.111299 10924 net.cpp:156] Memory required for data: 1276470816
I0403 15:40:21.111315 10924 layer_factory.hpp:77] Creating layer pool4/3x3_s2_pool4/3x3_s2_0_split
I0403 15:40:21.111331 10924 net.cpp:91] Creating Layer pool4/3x3_s2_pool4/3x3_s2_0_split
I0403 15:40:21.111346 10924 net.cpp:425] pool4/3x3_s2_pool4/3x3_s2_0_split <- pool4/3x3_s2
I0403 15:40:21.111366 10924 net.cpp:399] pool4/3x3_s2_pool4/3x3_s2_0_split -> pool4/3x3_s2_pool4/3x3_s2_0_split_0
I0403 15:40:21.111387 10924 net.cpp:399] pool4/3x3_s2_pool4/3x3_s2_0_split -> pool4/3x3_s2_pool4/3x3_s2_0_split_1
I0403 15:40:21.111407 10924 net.cpp:399] pool4/3x3_s2_pool4/3x3_s2_0_split -> pool4/3x3_s2_pool4/3x3_s2_0_split_2
I0403 15:40:21.111426 10924 net.cpp:399] pool4/3x3_s2_pool4/3x3_s2_0_split -> pool4/3x3_s2_pool4/3x3_s2_0_split_3
I0403 15:40:21.111522 10924 net.cpp:141] Setting up pool4/3x3_s2_pool4/3x3_s2_0_split
I0403 15:40:21.111546 10924 net.cpp:148] Top shape: 24 832 7 7 (978432)
I0403 15:40:21.111562 10924 net.cpp:148] Top shape: 24 832 7 7 (978432)
I0403 15:40:21.111577 10924 net.cpp:148] Top shape: 24 832 7 7 (978432)
I0403 15:40:21.111593 10924 net.cpp:148] Top shape: 24 832 7 7 (978432)
I0403 15:40:21.111606 10924 net.cpp:156] Memory required for data: 1292125728
I0403 15:40:21.111621 10924 layer_factory.hpp:77] Creating layer inception_5a/1x1
I0403 15:40:21.111644 10924 net.cpp:91] Creating Layer inception_5a/1x1
I0403 15:40:21.111660 10924 net.cpp:425] inception_5a/1x1 <- pool4/3x3_s2_pool4/3x3_s2_0_split_0
I0403 15:40:21.111681 10924 net.cpp:399] inception_5a/1x1 -> inception_5a/1x1
I0403 15:40:21.114632 10924 net.cpp:141] Setting up inception_5a/1x1
I0403 15:40:21.114660 10924 net.cpp:148] Top shape: 24 256 7 7 (301056)
I0403 15:40:21.114676 10924 net.cpp:156] Memory required for data: 1293329952
I0403 15:40:21.114694 10924 layer_factory.hpp:77] Creating layer inception_5a/relu_1x1
I0403 15:40:21.114714 10924 net.cpp:91] Creating Layer inception_5a/relu_1x1
I0403 15:40:21.114732 10924 net.cpp:425] inception_5a/relu_1x1 <- inception_5a/1x1
I0403 15:40:21.114748 10924 net.cpp:386] inception_5a/relu_1x1 -> inception_5a/1x1 (in-place)
I0403 15:40:21.115067 10924 net.cpp:141] Setting up inception_5a/relu_1x1
I0403 15:40:21.115093 10924 net.cpp:148] Top shape: 24 256 7 7 (301056)
I0403 15:40:21.115108 10924 net.cpp:156] Memory required for data: 1294534176
I0403 15:40:21.115123 10924 layer_factory.hpp:77] Creating layer inception_5a/3x3_reduce
I0403 15:40:21.115144 10924 net.cpp:91] Creating Layer inception_5a/3x3_reduce
I0403 15:40:21.115161 10924 net.cpp:425] inception_5a/3x3_reduce <- pool4/3x3_s2_pool4/3x3_s2_0_split_1
I0403 15:40:21.115182 10924 net.cpp:399] inception_5a/3x3_reduce -> inception_5a/3x3_reduce
I0403 15:40:21.117619 10924 net.cpp:141] Setting up inception_5a/3x3_reduce
I0403 15:40:21.117650 10924 net.cpp:148] Top shape: 24 160 7 7 (188160)
I0403 15:40:21.117666 10924 net.cpp:156] Memory required for data: 1295286816
I0403 15:40:21.117684 10924 layer_factory.hpp:77] Creating layer inception_5a/relu_3x3_reduce
I0403 15:40:21.117702 10924 net.cpp:91] Creating Layer inception_5a/relu_3x3_reduce
I0403 15:40:21.117717 10924 net.cpp:425] inception_5a/relu_3x3_reduce <- inception_5a/3x3_reduce
I0403 15:40:21.117736 10924 net.cpp:386] inception_5a/relu_3x3_reduce -> inception_5a/3x3_reduce (in-place)
I0403 15:40:21.117923 10924 net.cpp:141] Setting up inception_5a/relu_3x3_reduce
I0403 15:40:21.117947 10924 net.cpp:148] Top shape: 24 160 7 7 (188160)
I0403 15:40:21.117961 10924 net.cpp:156] Memory required for data: 1296039456
I0403 15:40:21.117976 10924 layer_factory.hpp:77] Creating layer inception_5a/3x3
I0403 15:40:21.118010 10924 net.cpp:91] Creating Layer inception_5a/3x3
I0403 15:40:21.118028 10924 net.cpp:425] inception_5a/3x3 <- inception_5a/3x3_reduce
I0403 15:40:21.118049 10924 net.cpp:399] inception_5a/3x3 -> inception_5a/3x3
I0403 15:40:21.123128 10924 net.cpp:141] Setting up inception_5a/3x3
I0403 15:40:21.123157 10924 net.cpp:148] Top shape: 24 320 7 7 (376320)
I0403 15:40:21.123172 10924 net.cpp:156] Memory required for data: 1297544736
I0403 15:40:21.123190 10924 layer_factory.hpp:77] Creating layer inception_5a/relu_3x3
I0403 15:40:21.123208 10924 net.cpp:91] Creating Layer inception_5a/relu_3x3
I0403 15:40:21.123224 10924 net.cpp:425] inception_5a/relu_3x3 <- inception_5a/3x3
I0403 15:40:21.123244 10924 net.cpp:386] inception_5a/relu_3x3 -> inception_5a/3x3 (in-place)
I0403 15:40:21.123534 10924 net.cpp:141] Setting up inception_5a/relu_3x3
I0403 15:40:21.123560 10924 net.cpp:148] Top shape: 24 320 7 7 (376320)
I0403 15:40:21.123574 10924 net.cpp:156] Memory required for data: 1299050016
I0403 15:40:21.123589 10924 layer_factory.hpp:77] Creating layer inception_5a/5x5_reduce
I0403 15:40:21.123610 10924 net.cpp:91] Creating Layer inception_5a/5x5_reduce
I0403 15:40:21.123628 10924 net.cpp:425] inception_5a/5x5_reduce <- pool4/3x3_s2_pool4/3x3_s2_0_split_2
I0403 15:40:21.123651 10924 net.cpp:399] inception_5a/5x5_reduce -> inception_5a/5x5_reduce
I0403 15:40:21.124812 10924 net.cpp:141] Setting up inception_5a/5x5_reduce
I0403 15:40:21.124841 10924 net.cpp:148] Top shape: 24 32 7 7 (37632)
I0403 15:40:21.124857 10924 net.cpp:156] Memory required for data: 1299200544
I0403 15:40:21.124876 10924 layer_factory.hpp:77] Creating layer inception_5a/relu_5x5_reduce
I0403 15:40:21.124893 10924 net.cpp:91] Creating Layer inception_5a/relu_5x5_reduce
I0403 15:40:21.124909 10924 net.cpp:425] inception_5a/relu_5x5_reduce <- inception_5a/5x5_reduce
I0403 15:40:21.124928 10924 net.cpp:386] inception_5a/relu_5x5_reduce -> inception_5a/5x5_reduce (in-place)
I0403 15:40:21.125223 10924 net.cpp:141] Setting up inception_5a/relu_5x5_reduce
I0403 15:40:21.125248 10924 net.cpp:148] Top shape: 24 32 7 7 (37632)
I0403 15:40:21.125263 10924 net.cpp:156] Memory required for data: 1299351072
I0403 15:40:21.125278 10924 layer_factory.hpp:77] Creating layer inception_5a/5x5
I0403 15:40:21.125300 10924 net.cpp:91] Creating Layer inception_5a/5x5
I0403 15:40:21.125319 10924 net.cpp:425] inception_5a/5x5 <- inception_5a/5x5_reduce
I0403 15:40:21.125339 10924 net.cpp:399] inception_5a/5x5 -> inception_5a/5x5
I0403 15:40:21.127071 10924 net.cpp:141] Setting up inception_5a/5x5
I0403 15:40:21.127109 10924 net.cpp:148] Top shape: 24 128 7 7 (150528)
I0403 15:40:21.127123 10924 net.cpp:156] Memory required for data: 1299953184
I0403 15:40:21.127141 10924 layer_factory.hpp:77] Creating layer inception_5a/relu_5x5
I0403 15:40:21.127159 10924 net.cpp:91] Creating Layer inception_5a/relu_5x5
I0403 15:40:21.127176 10924 net.cpp:425] inception_5a/relu_5x5 <- inception_5a/5x5
I0403 15:40:21.127194 10924 net.cpp:386] inception_5a/relu_5x5 -> inception_5a/5x5 (in-place)
I0403 15:40:21.127383 10924 net.cpp:141] Setting up inception_5a/relu_5x5
I0403 15:40:21.127408 10924 net.cpp:148] Top shape: 24 128 7 7 (150528)
I0403 15:40:21.127423 10924 net.cpp:156] Memory required for data: 1300555296
I0403 15:40:21.127437 10924 layer_factory.hpp:77] Creating layer inception_5a/pool
I0403 15:40:21.127456 10924 net.cpp:91] Creating Layer inception_5a/pool
I0403 15:40:21.127472 10924 net.cpp:425] inception_5a/pool <- pool4/3x3_s2_pool4/3x3_s2_0_split_3
I0403 15:40:21.127490 10924 net.cpp:399] inception_5a/pool -> inception_5a/pool
I0403 15:40:21.127562 10924 net.cpp:141] Setting up inception_5a/pool
I0403 15:40:21.127584 10924 net.cpp:148] Top shape: 24 832 7 7 (978432)
I0403 15:40:21.127599 10924 net.cpp:156] Memory required for data: 1304469024
I0403 15:40:21.127612 10924 layer_factory.hpp:77] Creating layer inception_5a/pool_proj
I0403 15:40:21.127635 10924 net.cpp:91] Creating Layer inception_5a/pool_proj
I0403 15:40:21.127651 10924 net.cpp:425] inception_5a/pool_proj <- inception_5a/pool
I0403 15:40:21.127671 10924 net.cpp:399] inception_5a/pool_proj -> inception_5a/pool_proj
I0403 15:40:21.129940 10924 net.cpp:141] Setting up inception_5a/pool_proj
I0403 15:40:21.129969 10924 net.cpp:148] Top shape: 24 128 7 7 (150528)
I0403 15:40:21.129990 10924 net.cpp:156] Memory required for data: 1305071136
I0403 15:40:21.130009 10924 layer_factory.hpp:77] Creating layer inception_5a/relu_pool_proj
I0403 15:40:21.130026 10924 net.cpp:91] Creating Layer inception_5a/relu_pool_proj
I0403 15:40:21.130043 10924 net.cpp:425] inception_5a/relu_pool_proj <- inception_5a/pool_proj
I0403 15:40:21.130061 10924 net.cpp:386] inception_5a/relu_pool_proj -> inception_5a/pool_proj (in-place)
I0403 15:40:21.130372 10924 net.cpp:141] Setting up inception_5a/relu_pool_proj
I0403 15:40:21.130398 10924 net.cpp:148] Top shape: 24 128 7 7 (150528)
I0403 15:40:21.130412 10924 net.cpp:156] Memory required for data: 1305673248
I0403 15:40:21.130426 10924 layer_factory.hpp:77] Creating layer inception_5a/output
I0403 15:40:21.130445 10924 net.cpp:91] Creating Layer inception_5a/output
I0403 15:40:21.130460 10924 net.cpp:425] inception_5a/output <- inception_5a/1x1
I0403 15:40:21.130477 10924 net.cpp:425] inception_5a/output <- inception_5a/3x3
I0403 15:40:21.130506 10924 net.cpp:425] inception_5a/output <- inception_5a/5x5
I0403 15:40:21.130522 10924 net.cpp:425] inception_5a/output <- inception_5a/pool_proj
I0403 15:40:21.130540 10924 net.cpp:399] inception_5a/output -> inception_5a/output
I0403 15:40:21.130589 10924 net.cpp:141] Setting up inception_5a/output
I0403 15:40:21.130610 10924 net.cpp:148] Top shape: 24 832 7 7 (978432)
I0403 15:40:21.130625 10924 net.cpp:156] Memory required for data: 1309586976
I0403 15:40:21.130640 10924 layer_factory.hpp:77] Creating layer inception_5a/output_inception_5a/output_0_split
I0403 15:40:21.130658 10924 net.cpp:91] Creating Layer inception_5a/output_inception_5a/output_0_split
I0403 15:40:21.130674 10924 net.cpp:425] inception_5a/output_inception_5a/output_0_split <- inception_5a/output
I0403 15:40:21.130692 10924 net.cpp:399] inception_5a/output_inception_5a/output_0_split -> inception_5a/output_inception_5a/output_0_split_0
I0403 15:40:21.130714 10924 net.cpp:399] inception_5a/output_inception_5a/output_0_split -> inception_5a/output_inception_5a/output_0_split_1
I0403 15:40:21.130735 10924 net.cpp:399] inception_5a/output_inception_5a/output_0_split -> inception_5a/output_inception_5a/output_0_split_2
I0403 15:40:21.130756 10924 net.cpp:399] inception_5a/output_inception_5a/output_0_split -> inception_5a/output_inception_5a/output_0_split_3
I0403 15:40:21.130864 10924 net.cpp:141] Setting up inception_5a/output_inception_5a/output_0_split
I0403 15:40:21.130887 10924 net.cpp:148] Top shape: 24 832 7 7 (978432)
I0403 15:40:21.130903 10924 net.cpp:148] Top shape: 24 832 7 7 (978432)
I0403 15:40:21.130920 10924 net.cpp:148] Top shape: 24 832 7 7 (978432)
I0403 15:40:21.130935 10924 net.cpp:148] Top shape: 24 832 7 7 (978432)
I0403 15:40:21.130949 10924 net.cpp:156] Memory required for data: 1325241888
I0403 15:40:21.130964 10924 layer_factory.hpp:77] Creating layer inception_5b/1x1
I0403 15:40:21.130988 10924 net.cpp:91] Creating Layer inception_5b/1x1
I0403 15:40:21.131006 10924 net.cpp:425] inception_5b/1x1 <- inception_5a/output_inception_5a/output_0_split_0
I0403 15:40:21.131027 10924 net.cpp:399] inception_5b/1x1 -> inception_5b/1x1
I0403 15:40:21.134768 10924 net.cpp:141] Setting up inception_5b/1x1
I0403 15:40:21.134799 10924 net.cpp:148] Top shape: 24 384 7 7 (451584)
I0403 15:40:21.134815 10924 net.cpp:156] Memory required for data: 1327048224
I0403 15:40:21.134835 10924 layer_factory.hpp:77] Creating layer inception_5b/relu_1x1
I0403 15:40:21.134851 10924 net.cpp:91] Creating Layer inception_5b/relu_1x1
I0403 15:40:21.134867 10924 net.cpp:425] inception_5b/relu_1x1 <- inception_5b/1x1
I0403 15:40:21.134891 10924 net.cpp:386] inception_5b/relu_1x1 -> inception_5b/1x1 (in-place)
I0403 15:40:21.135192 10924 net.cpp:141] Setting up inception_5b/relu_1x1
I0403 15:40:21.135221 10924 net.cpp:148] Top shape: 24 384 7 7 (451584)
I0403 15:40:21.135236 10924 net.cpp:156] Memory required for data: 1328854560
I0403 15:40:21.135251 10924 layer_factory.hpp:77] Creating layer inception_5b/3x3_reduce
I0403 15:40:21.135272 10924 net.cpp:91] Creating Layer inception_5b/3x3_reduce
I0403 15:40:21.135289 10924 net.cpp:425] inception_5b/3x3_reduce <- inception_5a/output_inception_5a/output_0_split_1
I0403 15:40:21.135308 10924 net.cpp:399] inception_5b/3x3_reduce -> inception_5b/3x3_reduce
I0403 15:40:21.137938 10924 net.cpp:141] Setting up inception_5b/3x3_reduce
I0403 15:40:21.137969 10924 net.cpp:148] Top shape: 24 192 7 7 (225792)
I0403 15:40:21.137995 10924 net.cpp:156] Memory required for data: 1329757728
I0403 15:40:21.138015 10924 layer_factory.hpp:77] Creating layer inception_5b/relu_3x3_reduce
I0403 15:40:21.138033 10924 net.cpp:91] Creating Layer inception_5b/relu_3x3_reduce
I0403 15:40:21.138049 10924 net.cpp:425] inception_5b/relu_3x3_reduce <- inception_5b/3x3_reduce
I0403 15:40:21.138069 10924 net.cpp:386] inception_5b/relu_3x3_reduce -> inception_5b/3x3_reduce (in-place)
I0403 15:40:21.138270 10924 net.cpp:141] Setting up inception_5b/relu_3x3_reduce
I0403 15:40:21.138295 10924 net.cpp:148] Top shape: 24 192 7 7 (225792)
I0403 15:40:21.138310 10924 net.cpp:156] Memory required for data: 1330660896
I0403 15:40:21.138325 10924 layer_factory.hpp:77] Creating layer inception_5b/3x3
I0403 15:40:21.138350 10924 net.cpp:91] Creating Layer inception_5b/3x3
I0403 15:40:21.138370 10924 net.cpp:425] inception_5b/3x3 <- inception_5b/3x3_reduce
I0403 15:40:21.138392 10924 net.cpp:399] inception_5b/3x3 -> inception_5b/3x3
I0403 15:40:21.145097 10924 net.cpp:141] Setting up inception_5b/3x3
I0403 15:40:21.145125 10924 net.cpp:148] Top shape: 24 384 7 7 (451584)
I0403 15:40:21.145140 10924 net.cpp:156] Memory required for data: 1332467232
I0403 15:40:21.145159 10924 layer_factory.hpp:77] Creating layer inception_5b/relu_3x3
I0403 15:40:21.145176 10924 net.cpp:91] Creating Layer inception_5b/relu_3x3
I0403 15:40:21.145192 10924 net.cpp:425] inception_5b/relu_3x3 <- inception_5b/3x3
I0403 15:40:21.145212 10924 net.cpp:386] inception_5b/relu_3x3 -> inception_5b/3x3 (in-place)
I0403 15:40:21.145508 10924 net.cpp:141] Setting up inception_5b/relu_3x3
I0403 15:40:21.145532 10924 net.cpp:148] Top shape: 24 384 7 7 (451584)
I0403 15:40:21.145547 10924 net.cpp:156] Memory required for data: 1334273568
I0403 15:40:21.145561 10924 layer_factory.hpp:77] Creating layer inception_5b/5x5_reduce
I0403 15:40:21.145598 10924 net.cpp:91] Creating Layer inception_5b/5x5_reduce
I0403 15:40:21.145617 10924 net.cpp:425] inception_5b/5x5_reduce <- inception_5a/output_inception_5a/output_0_split_2
I0403 15:40:21.145638 10924 net.cpp:399] inception_5b/5x5_reduce -> inception_5b/5x5_reduce
I0403 15:40:21.146934 10924 net.cpp:141] Setting up inception_5b/5x5_reduce
I0403 15:40:21.146960 10924 net.cpp:148] Top shape: 24 48 7 7 (56448)
I0403 15:40:21.146976 10924 net.cpp:156] Memory required for data: 1334499360
I0403 15:40:21.146999 10924 layer_factory.hpp:77] Creating layer inception_5b/relu_5x5_reduce
I0403 15:40:21.147017 10924 net.cpp:91] Creating Layer inception_5b/relu_5x5_reduce
I0403 15:40:21.147032 10924 net.cpp:425] inception_5b/relu_5x5_reduce <- inception_5b/5x5_reduce
I0403 15:40:21.147052 10924 net.cpp:386] inception_5b/relu_5x5_reduce -> inception_5b/5x5_reduce (in-place)
I0403 15:40:21.147428 10924 net.cpp:141] Setting up inception_5b/relu_5x5_reduce
I0403 15:40:21.147454 10924 net.cpp:148] Top shape: 24 48 7 7 (56448)
I0403 15:40:21.147469 10924 net.cpp:156] Memory required for data: 1334725152
I0403 15:40:21.147482 10924 layer_factory.hpp:77] Creating layer inception_5b/5x5
I0403 15:40:21.147502 10924 net.cpp:91] Creating Layer inception_5b/5x5
I0403 15:40:21.147521 10924 net.cpp:425] inception_5b/5x5 <- inception_5b/5x5_reduce
I0403 15:40:21.147538 10924 net.cpp:399] inception_5b/5x5 -> inception_5b/5x5
I0403 15:40:21.149576 10924 net.cpp:141] Setting up inception_5b/5x5
I0403 15:40:21.149603 10924 net.cpp:148] Top shape: 24 128 7 7 (150528)
I0403 15:40:21.149619 10924 net.cpp:156] Memory required for data: 1335327264
I0403 15:40:21.149637 10924 layer_factory.hpp:77] Creating layer inception_5b/relu_5x5
I0403 15:40:21.149657 10924 net.cpp:91] Creating Layer inception_5b/relu_5x5
I0403 15:40:21.149674 10924 net.cpp:425] inception_5b/relu_5x5 <- inception_5b/5x5
I0403 15:40:21.149690 10924 net.cpp:386] inception_5b/relu_5x5 -> inception_5b/5x5 (in-place)
I0403 15:40:21.149881 10924 net.cpp:141] Setting up inception_5b/relu_5x5
I0403 15:40:21.149905 10924 net.cpp:148] Top shape: 24 128 7 7 (150528)
I0403 15:40:21.149921 10924 net.cpp:156] Memory required for data: 1335929376
I0403 15:40:21.149935 10924 layer_factory.hpp:77] Creating layer inception_5b/pool
I0403 15:40:21.149955 10924 net.cpp:91] Creating Layer inception_5b/pool
I0403 15:40:21.149971 10924 net.cpp:425] inception_5b/pool <- inception_5a/output_inception_5a/output_0_split_3
I0403 15:40:21.149994 10924 net.cpp:399] inception_5b/pool -> inception_5b/pool
I0403 15:40:21.150070 10924 net.cpp:141] Setting up inception_5b/pool
I0403 15:40:21.150094 10924 net.cpp:148] Top shape: 24 832 7 7 (978432)
I0403 15:40:21.150109 10924 net.cpp:156] Memory required for data: 1339843104
I0403 15:40:21.150123 10924 layer_factory.hpp:77] Creating layer inception_5b/pool_proj
I0403 15:40:21.150144 10924 net.cpp:91] Creating Layer inception_5b/pool_proj
I0403 15:40:21.150162 10924 net.cpp:425] inception_5b/pool_proj <- inception_5b/pool
I0403 15:40:21.150182 10924 net.cpp:399] inception_5b/pool_proj -> inception_5b/pool_proj
I0403 15:40:21.152567 10924 net.cpp:141] Setting up inception_5b/pool_proj
I0403 15:40:21.152597 10924 net.cpp:148] Top shape: 24 128 7 7 (150528)
I0403 15:40:21.152613 10924 net.cpp:156] Memory required for data: 1340445216
I0403 15:40:21.152632 10924 layer_factory.hpp:77] Creating layer inception_5b/relu_pool_proj
I0403 15:40:21.152649 10924 net.cpp:91] Creating Layer inception_5b/relu_pool_proj
I0403 15:40:21.152665 10924 net.cpp:425] inception_5b/relu_pool_proj <- inception_5b/pool_proj
I0403 15:40:21.152686 10924 net.cpp:386] inception_5b/relu_pool_proj -> inception_5b/pool_proj (in-place)
I0403 15:40:21.152989 10924 net.cpp:141] Setting up inception_5b/relu_pool_proj
I0403 15:40:21.153015 10924 net.cpp:148] Top shape: 24 128 7 7 (150528)
I0403 15:40:21.153030 10924 net.cpp:156] Memory required for data: 1341047328
I0403 15:40:21.153045 10924 layer_factory.hpp:77] Creating layer inception_5b/output
I0403 15:40:21.153064 10924 net.cpp:91] Creating Layer inception_5b/output
I0403 15:40:21.153095 10924 net.cpp:425] inception_5b/output <- inception_5b/1x1
I0403 15:40:21.153112 10924 net.cpp:425] inception_5b/output <- inception_5b/3x3
I0403 15:40:21.153128 10924 net.cpp:425] inception_5b/output <- inception_5b/5x5
I0403 15:40:21.153144 10924 net.cpp:425] inception_5b/output <- inception_5b/pool_proj
I0403 15:40:21.153164 10924 net.cpp:399] inception_5b/output -> inception_5b/output
I0403 15:40:21.153218 10924 net.cpp:141] Setting up inception_5b/output
I0403 15:40:21.153244 10924 net.cpp:148] Top shape: 24 1024 7 7 (1204224)
I0403 15:40:21.153259 10924 net.cpp:156] Memory required for data: 1345864224
I0403 15:40:21.153275 10924 layer_factory.hpp:77] Creating layer pool5/7x7_s1
I0403 15:40:21.153290 10924 net.cpp:91] Creating Layer pool5/7x7_s1
I0403 15:40:21.153306 10924 net.cpp:425] pool5/7x7_s1 <- inception_5b/output
I0403 15:40:21.153324 10924 net.cpp:399] pool5/7x7_s1 -> pool5/7x7_s1
I0403 15:40:21.153544 10924 net.cpp:141] Setting up pool5/7x7_s1
I0403 15:40:21.153570 10924 net.cpp:148] Top shape: 24 1024 1 1 (24576)
I0403 15:40:21.153585 10924 net.cpp:156] Memory required for data: 1345962528
I0403 15:40:21.153599 10924 layer_factory.hpp:77] Creating layer pool5/drop_7x7_s1
I0403 15:40:21.153617 10924 net.cpp:91] Creating Layer pool5/drop_7x7_s1
I0403 15:40:21.153635 10924 net.cpp:425] pool5/drop_7x7_s1 <- pool5/7x7_s1
I0403 15:40:21.153653 10924 net.cpp:386] pool5/drop_7x7_s1 -> pool5/7x7_s1 (in-place)
I0403 15:40:21.153704 10924 net.cpp:141] Setting up pool5/drop_7x7_s1
I0403 15:40:21.153730 10924 net.cpp:148] Top shape: 24 1024 1 1 (24576)
I0403 15:40:21.153745 10924 net.cpp:156] Memory required for data: 1346060832
I0403 15:40:21.153760 10924 layer_factory.hpp:77] Creating layer loss3/classifier_plantvillage
I0403 15:40:21.153779 10924 net.cpp:91] Creating Layer loss3/classifier_plantvillage
I0403 15:40:21.153795 10924 net.cpp:425] loss3/classifier_plantvillage <- pool5/7x7_s1
I0403 15:40:21.153820 10924 net.cpp:399] loss3/classifier_plantvillage -> loss3/classifier_plantvillage
I0403 15:40:21.154275 10924 net.cpp:141] Setting up loss3/classifier_plantvillage
I0403 15:40:21.154300 10924 net.cpp:148] Top shape: 24 38 (912)
I0403 15:40:21.154316 10924 net.cpp:156] Memory required for data: 1346064480
I0403 15:40:21.154335 10924 layer_factory.hpp:77] Creating layer loss3/classifier_plantvillage_loss3/classifier_plantvillage_0_split
I0403 15:40:21.154356 10924 net.cpp:91] Creating Layer loss3/classifier_plantvillage_loss3/classifier_plantvillage_0_split
I0403 15:40:21.154374 10924 net.cpp:425] loss3/classifier_plantvillage_loss3/classifier_plantvillage_0_split <- loss3/classifier_plantvillage
I0403 15:40:21.154392 10924 net.cpp:399] loss3/classifier_plantvillage_loss3/classifier_plantvillage_0_split -> loss3/classifier_plantvillage_loss3/classifier_plantvillage_0_split_0
I0403 15:40:21.154417 10924 net.cpp:399] loss3/classifier_plantvillage_loss3/classifier_plantvillage_0_split -> loss3/classifier_plantvillage_loss3/classifier_plantvillage_0_split_1
I0403 15:40:21.154436 10924 net.cpp:399] loss3/classifier_plantvillage_loss3/classifier_plantvillage_0_split -> loss3/classifier_plantvillage_loss3/classifier_plantvillage_0_split_2
I0403 15:40:21.154458 10924 net.cpp:399] loss3/classifier_plantvillage_loss3/classifier_plantvillage_0_split -> loss3/classifier_plantvillage_loss3/classifier_plantvillage_0_split_3
I0403 15:40:21.154573 10924 net.cpp:141] Setting up loss3/classifier_plantvillage_loss3/classifier_plantvillage_0_split
I0403 15:40:21.154597 10924 net.cpp:148] Top shape: 24 38 (912)
I0403 15:40:21.154614 10924 net.cpp:148] Top shape: 24 38 (912)
I0403 15:40:21.154630 10924 net.cpp:148] Top shape: 24 38 (912)
I0403 15:40:21.154645 10924 net.cpp:148] Top shape: 24 38 (912)
I0403 15:40:21.154659 10924 net.cpp:156] Memory required for data: 1346079072
I0403 15:40:21.154673 10924 layer_factory.hpp:77] Creating layer loss1/loss
I0403 15:40:21.154695 10924 net.cpp:91] Creating Layer loss1/loss
I0403 15:40:21.154712 10924 net.cpp:425] loss1/loss <- loss1/classifier_plantvillage_loss1/classifier_plantvillage_0_split_0
I0403 15:40:21.154742 10924 net.cpp:425] loss1/loss <- label_data_1_split_0
…
