…
I0403 13:11:01.409628 31652 net.cpp:313] The NetState phase (1) differed from the phase (0) specified by a rule in layer data
I0403 13:11:01.409932 31652 net.cpp:49] Initializing net from parameters: 
state {
  phase: TEST
}
layer {
  name: "data"
  type: "Data"
  top: "data"
  top: "label"
  include {
    phase: TEST
  }
  transform_param {
    crop_size: 227
    mean_file: "/home/mohanty/data/final_dataset/lmdb/grayscale-60-40/mean.binaryproto"
  }
  data_param {
    source: "/home/mohanty/data/final_dataset/lmdb/grayscale-60-40/test_db"
    batch_size: 100
    backend: LMDB
  }
}
layer {
  name: "conv1"
  type: "Convolution"
  bottom: "data"
  top: "conv1"
  param {
    lr_mult: 1
    decay_mult: 1
  }
  param {
    lr_mult: 2
    decay_mult: 0
  }
  convolution_param {
    num_output: 96
    kernel_size: 11
    stride: 4
    weight_filler {
      type: "gaussian"
      std: 0.01
    }
    bias_filler {
      type: "constant"
      value: 0
    }
  }
}
layer {
  name: "relu1"
  type: "ReLU"
  bottom: "conv1"
  top: "conv1"
}
layer {
  name: "norm1"
  type: "LRN"
  bottom: "conv1"
  top: "norm1"
  lrn_param {
    local_size: 5
    alpha: 0.0001
    beta: 0.75
  }
}
layer {
  name: "pool1"
  type: "Pooling"
  bottom: "norm1"
  top: "pool1"
  pooling_param {
    pool: MAX
    kernel_size: 3
    stride: 2
  }
}
layer {
  name: "conv2"
  type: "Convolution"
  bottom: "pool1"
  top: "conv2"
  param {
    lr_mult: 1
    decay_mult: 1
  }
  param {
    lr_mult: 2
    decay_mult: 0
  }
  convolution_param {
    num_output: 256
    pad: 2
    kernel_size: 5
    group: 2
    weight_filler {
      type: "gaussian"
      std: 0.01
    }
    bias_filler {
      type: "constant"
      value: 0.1
    }
  }
}
layer {
  name: "relu2"
  type: "ReLU"
  bottom: "conv2"
  top: "conv2"
}
layer {
  name: "norm2"
  type: "LRN"
  bottom: "conv2"
  top: "norm2"
  lrn_param {
    local_size: 5
    alpha: 0.0001
    beta: 0.75
  }
}
layer {
  name: "pool2"
  type: "Pooling"
  bottom: "norm2"
  top: "pool2"
  pooling_param {
    pool: MAX
    kernel_size: 3
    stride: 2
  }
}
layer {
  name: "conv3"
  type: "Convolution"
  bottom: "pool2"
  top: "conv3"
  param {
    lr_mult: 1
    decay_mult: 1
  }
  param {
    lr_mult: 2
    decay_mult: 0
  }
  convolution_param {
    num_output: 384
    pad: 1
    kernel_size: 3
    weight_filler {
      type: "gaussian"
      std: 0.01
    }
    bias_filler {
      type: "constant"
      value: 0
    }
  }
}
layer {
  name: "relu3"
  type: "ReLU"
  bottom: "conv3"
  top: "conv3"
}
layer {
  name: "conv4"
  type: "Convolution"
  bottom: "conv3"
  top: "conv4"
  param {
    lr_mult: 1
    decay_mult: 1
  }
  param {
    lr_mult: 2
    decay_mult: 0
  }
  convolution_param {
    num_output: 384
    pad: 1
    kernel_size: 3
    group: 2
    weight_filler {
      type: "gaussian"
      std: 0.01
    }
    bias_filler {
      type: "constant"
      value: 0.1
    }
  }
}
layer {
  name: "relu4"
  type: "ReLU"
  bottom: "conv4"
  top: "conv4"
}
layer {
  name: "conv5"
  type: "Convolution"
  bottom: "conv4"
  top: "conv5"
  param {
    lr_mult: 1
    decay_mult: 1
  }
  param {
    lr_mult: 2
    decay_mult: 0
  }
  convolution_param {
    num_output: 256
    pad: 1
    kernel_size: 3
    group: 2
    weight_filler {
      type: "gaussian"
      std: 0.01
    }
    bias_filler {
      type: "constant"
      value: 0.1
    }
  }
}
layer {
  name: "relu5"
  type: "ReLU"
  bottom: "conv5"
  top: "conv5"
}
layer {
  name: "pool5"
  type: "Pooling"
  bottom: "conv5"
  top: "pool5"
  pooling_param {
    pool: MAX
    kernel_size: 3
    stride: 2
  }
}
layer {
  name: "fc6"
  type: "InnerProduct"
  bottom: "pool5"
  top: "fc6"
  param {
    lr_mult: 1
    decay_mult: 1
  }
  param {
    lr_mult: 2
    decay_mult: 0
  }
  inner_product_param {
    num_output: 4096
    weight_filler {
      type: "gaussian"
      std: 0.005
    }
    bias_filler {
      type: "constant"
      value: 0.1
    }
  }
}
layer {
  name: "relu6"
  type: "ReLU"
  bottom: "fc6"
  top: "fc6"
}
layer {
  name: "drop6"
  type: "Dropout"
  bottom: "fc6"
  top: "fc6"
  dropout_param {
    dropout_ratio: 0.5
  }
}
layer {
  name: "fc7"
  type: "InnerProduct"
  bottom: "fc6"
  top: "fc7"
  param {
    lr_mult: 1
    decay_mult: 1
  }
  param {
    lr_mult: 2
    decay_mult: 0
  }
  inner_product_param {
    num_output: 4096
    weight_filler {
      type: "gaussian"
      std: 0.005
    }
    bias_filler {
      type: "constant"
      value: 0.1
    }
  }
}
layer {
  name: "relu7"
  type: "ReLU"
  bottom: "fc7"
  top: "fc7"
}
layer {
  name: "drop7"
  type: "Dropout"
  bottom: "fc7"
  top: "fc7"
  dropout_param {
    dropout_ratio: 0.5
  }
}
layer {
  name: "fc8_plantvillage"
  type: "InnerProduct"
  bottom: "fc7"
  top: "fc8_plantvillage"
  param {
    lr_mult: 1
    decay_mult: 1
  }
  param {
    lr_mult: 2
    decay_mult: 0
  }
  inner_product_param {
    num_output: 38
    weight_filler {
      type: "gaussian"
      std: 0.01
    }
    bias_filler {
      type: "constant"
      value: 0
    }
  }
}
layer {
  name: "prob"
  type: "Softmax"
  bottom: "fc8_plantvillage"
  top: "prob"
  include {
    phase: TEST
  }
}
layer {
  name: "hdf5out"
  type: "HDF5Output"
  bottom: "prob"
  bottom: "label"
  include {
    phase: TEST
  }
  hdf5_output_param {
    file_name: "hdf5_dumps/iter_975.h5"
  }
}
layer {
  name: "loss"
  type: "SoftmaxWithLoss"
  bottom: "fc8_plantvillage"
  bottom: "label"
  top: "loss"
}
layer {
  name: "accuracy"
  type: "Accuracy"
  bottom: "fc8_plantvillage"
  bottom: "label"
  top: "accuracy"
  include {
    phase: TEST
  }
}
I0403 13:11:01.415673 31652 layer_factory.hpp:77] Creating layer data
I0403 13:11:01.416355 31652 net.cpp:91] Creating Layer data
I0403 13:11:01.416384 31652 net.cpp:399] data -> data
I0403 13:11:01.416436 31652 net.cpp:399] data -> label
I0403 13:11:01.416476 31652 data_transformer.cpp:25] Loading mean file from: /home/mohanty/data/final_dataset/lmdb/grayscale-60-40/mean.binaryproto
I0403 13:11:01.430795 31655 db_lmdb.cpp:38] Opened lmdb /home/mohanty/data/final_dataset/lmdb/grayscale-60-40/test_db
I0403 13:11:01.435204 31652 data_layer.cpp:41] output data size: 100,3,227,227
I0403 13:11:01.553436 31652 net.cpp:141] Setting up data
I0403 13:11:01.553542 31652 net.cpp:148] Top shape: 100 3 227 227 (15458700)
I0403 13:11:01.553565 31652 net.cpp:148] Top shape: 100 (100)
I0403 13:11:01.553580 31652 net.cpp:156] Memory required for data: 61835200
I0403 13:11:01.553608 31652 layer_factory.hpp:77] Creating layer label_data_1_split
I0403 13:11:01.553634 31652 net.cpp:91] Creating Layer label_data_1_split
I0403 13:11:01.553653 31652 net.cpp:425] label_data_1_split <- label
I0403 13:11:01.553684 31652 net.cpp:399] label_data_1_split -> label_data_1_split_0
I0403 13:11:01.553712 31652 net.cpp:399] label_data_1_split -> label_data_1_split_1
I0403 13:11:01.553733 31652 net.cpp:399] label_data_1_split -> label_data_1_split_2
I0403 13:11:01.553797 31652 net.cpp:141] Setting up label_data_1_split
I0403 13:11:01.553822 31652 net.cpp:148] Top shape: 100 (100)
I0403 13:11:01.553838 31652 net.cpp:148] Top shape: 100 (100)
I0403 13:11:01.553854 31652 net.cpp:148] Top shape: 100 (100)
I0403 13:11:01.553869 31652 net.cpp:156] Memory required for data: 61836400
I0403 13:11:01.553884 31652 layer_factory.hpp:77] Creating layer conv1
I0403 13:11:01.553916 31652 net.cpp:91] Creating Layer conv1
I0403 13:11:01.553936 31652 net.cpp:425] conv1 <- data
I0403 13:11:01.553956 31652 net.cpp:399] conv1 -> conv1
I0403 13:11:01.695984 31652 net.cpp:141] Setting up conv1
I0403 13:11:01.696074 31652 net.cpp:148] Top shape: 100 96 55 55 (29040000)
I0403 13:11:01.696091 31652 net.cpp:156] Memory required for data: 177996400
I0403 13:11:01.696123 31652 layer_factory.hpp:77] Creating layer relu1
I0403 13:11:01.696151 31652 net.cpp:91] Creating Layer relu1
I0403 13:11:01.696171 31652 net.cpp:425] relu1 <- conv1
I0403 13:11:01.696189 31652 net.cpp:386] relu1 -> conv1 (in-place)
I0403 13:11:01.696450 31652 net.cpp:141] Setting up relu1
I0403 13:11:01.696478 31652 net.cpp:148] Top shape: 100 96 55 55 (29040000)
I0403 13:11:01.696524 31652 net.cpp:156] Memory required for data: 294156400
I0403 13:11:01.696542 31652 layer_factory.hpp:77] Creating layer norm1
I0403 13:11:01.696569 31652 net.cpp:91] Creating Layer norm1
I0403 13:11:01.696588 31652 net.cpp:425] norm1 <- conv1
I0403 13:11:01.696606 31652 net.cpp:399] norm1 -> norm1
I0403 13:11:01.696910 31652 net.cpp:141] Setting up norm1
I0403 13:11:01.696939 31652 net.cpp:148] Top shape: 100 96 55 55 (29040000)
I0403 13:11:01.696955 31652 net.cpp:156] Memory required for data: 410316400
I0403 13:11:01.696971 31652 layer_factory.hpp:77] Creating layer pool1
I0403 13:11:01.696995 31652 net.cpp:91] Creating Layer pool1
I0403 13:11:01.697012 31652 net.cpp:425] pool1 <- norm1
I0403 13:11:01.697031 31652 net.cpp:399] pool1 -> pool1
I0403 13:11:01.697096 31652 net.cpp:141] Setting up pool1
I0403 13:11:01.697120 31652 net.cpp:148] Top shape: 100 96 27 27 (6998400)
I0403 13:11:01.697136 31652 net.cpp:156] Memory required for data: 438310000
I0403 13:11:01.697151 31652 layer_factory.hpp:77] Creating layer conv2
I0403 13:11:01.697175 31652 net.cpp:91] Creating Layer conv2
I0403 13:11:01.697192 31652 net.cpp:425] conv2 <- pool1
I0403 13:11:01.697216 31652 net.cpp:399] conv2 -> conv2
I0403 13:11:01.712237 31652 net.cpp:141] Setting up conv2
I0403 13:11:01.712296 31652 net.cpp:148] Top shape: 100 256 27 27 (18662400)
I0403 13:11:01.712314 31652 net.cpp:156] Memory required for data: 512959600
I0403 13:11:01.712338 31652 layer_factory.hpp:77] Creating layer relu2
I0403 13:11:01.712358 31652 net.cpp:91] Creating Layer relu2
I0403 13:11:01.712375 31652 net.cpp:425] relu2 <- conv2
I0403 13:11:01.712393 31652 net.cpp:386] relu2 -> conv2 (in-place)
I0403 13:11:01.712678 31652 net.cpp:141] Setting up relu2
I0403 13:11:01.712705 31652 net.cpp:148] Top shape: 100 256 27 27 (18662400)
I0403 13:11:01.712721 31652 net.cpp:156] Memory required for data: 587609200
I0403 13:11:01.712736 31652 layer_factory.hpp:77] Creating layer norm2
I0403 13:11:01.712759 31652 net.cpp:91] Creating Layer norm2
I0403 13:11:01.712776 31652 net.cpp:425] norm2 <- conv2
I0403 13:11:01.712795 31652 net.cpp:399] norm2 -> norm2
I0403 13:11:01.712995 31652 net.cpp:141] Setting up norm2
I0403 13:11:01.713023 31652 net.cpp:148] Top shape: 100 256 27 27 (18662400)
I0403 13:11:01.713039 31652 net.cpp:156] Memory required for data: 662258800
I0403 13:11:01.713055 31652 layer_factory.hpp:77] Creating layer pool2
I0403 13:11:01.713074 31652 net.cpp:91] Creating Layer pool2
I0403 13:11:01.713089 31652 net.cpp:425] pool2 <- norm2
I0403 13:11:01.713106 31652 net.cpp:399] pool2 -> pool2
I0403 13:11:01.713163 31652 net.cpp:141] Setting up pool2
I0403 13:11:01.713187 31652 net.cpp:148] Top shape: 100 256 13 13 (4326400)
I0403 13:11:01.713202 31652 net.cpp:156] Memory required for data: 679564400
I0403 13:11:01.713230 31652 layer_factory.hpp:77] Creating layer conv3
I0403 13:11:01.713258 31652 net.cpp:91] Creating Layer conv3
I0403 13:11:01.713275 31652 net.cpp:425] conv3 <- pool2
I0403 13:11:01.713297 31652 net.cpp:399] conv3 -> conv3
I0403 13:11:01.751881 31652 net.cpp:141] Setting up conv3
I0403 13:11:01.751971 31652 net.cpp:148] Top shape: 100 384 13 13 (6489600)
I0403 13:11:01.751991 31652 net.cpp:156] Memory required for data: 705522800
I0403 13:11:01.752017 31652 layer_factory.hpp:77] Creating layer relu3
I0403 13:11:01.752040 31652 net.cpp:91] Creating Layer relu3
I0403 13:11:01.752058 31652 net.cpp:425] relu3 <- conv3
I0403 13:11:01.752080 31652 net.cpp:386] relu3 -> conv3 (in-place)
I0403 13:11:01.752364 31652 net.cpp:141] Setting up relu3
I0403 13:11:01.752394 31652 net.cpp:148] Top shape: 100 384 13 13 (6489600)
I0403 13:11:01.752411 31652 net.cpp:156] Memory required for data: 731481200
I0403 13:11:01.752427 31652 layer_factory.hpp:77] Creating layer conv4
I0403 13:11:01.752455 31652 net.cpp:91] Creating Layer conv4
I0403 13:11:01.752473 31652 net.cpp:425] conv4 <- conv3
I0403 13:11:01.752492 31652 net.cpp:399] conv4 -> conv4
I0403 13:11:01.782346 31652 net.cpp:141] Setting up conv4
I0403 13:11:01.782425 31652 net.cpp:148] Top shape: 100 384 13 13 (6489600)
I0403 13:11:01.782475 31652 net.cpp:156] Memory required for data: 757439600
I0403 13:11:01.782501 31652 layer_factory.hpp:77] Creating layer relu4
I0403 13:11:01.782534 31652 net.cpp:91] Creating Layer relu4
I0403 13:11:01.782557 31652 net.cpp:425] relu4 <- conv4
I0403 13:11:01.782577 31652 net.cpp:386] relu4 -> conv4 (in-place)
I0403 13:11:01.782866 31652 net.cpp:141] Setting up relu4
I0403 13:11:01.782892 31652 net.cpp:148] Top shape: 100 384 13 13 (6489600)
I0403 13:11:01.782908 31652 net.cpp:156] Memory required for data: 783398000
I0403 13:11:01.782923 31652 layer_factory.hpp:77] Creating layer conv5
I0403 13:11:01.782950 31652 net.cpp:91] Creating Layer conv5
I0403 13:11:01.782968 31652 net.cpp:425] conv5 <- conv4
I0403 13:11:01.782987 31652 net.cpp:399] conv5 -> conv5
I0403 13:11:01.803390 31652 net.cpp:141] Setting up conv5
I0403 13:11:01.803438 31652 net.cpp:148] Top shape: 100 256 13 13 (4326400)
I0403 13:11:01.803455 31652 net.cpp:156] Memory required for data: 800703600
I0403 13:11:01.803481 31652 layer_factory.hpp:77] Creating layer relu5
I0403 13:11:01.803503 31652 net.cpp:91] Creating Layer relu5
I0403 13:11:01.803520 31652 net.cpp:425] relu5 <- conv5
I0403 13:11:01.803539 31652 net.cpp:386] relu5 -> conv5 (in-place)
I0403 13:11:01.803820 31652 net.cpp:141] Setting up relu5
I0403 13:11:01.803848 31652 net.cpp:148] Top shape: 100 256 13 13 (4326400)
I0403 13:11:01.803864 31652 net.cpp:156] Memory required for data: 818009200
I0403 13:11:01.803879 31652 layer_factory.hpp:77] Creating layer pool5
I0403 13:11:01.803901 31652 net.cpp:91] Creating Layer pool5
I0403 13:11:01.803917 31652 net.cpp:425] pool5 <- conv5
I0403 13:11:01.803939 31652 net.cpp:399] pool5 -> pool5
I0403 13:11:01.804002 31652 net.cpp:141] Setting up pool5
I0403 13:11:01.804025 31652 net.cpp:148] Top shape: 100 256 6 6 (921600)
I0403 13:11:01.804040 31652 net.cpp:156] Memory required for data: 821695600
I0403 13:11:01.804054 31652 layer_factory.hpp:77] Creating layer fc6
I0403 13:11:01.804085 31652 net.cpp:91] Creating Layer fc6
I0403 13:11:01.804102 31652 net.cpp:425] fc6 <- pool5
I0403 13:11:01.804124 31652 net.cpp:399] fc6 -> fc6
I0403 13:11:03.360011 31652 net.cpp:141] Setting up fc6
I0403 13:11:03.360100 31652 net.cpp:148] Top shape: 100 4096 (409600)
I0403 13:11:03.360116 31652 net.cpp:156] Memory required for data: 823334000
I0403 13:11:03.360138 31652 layer_factory.hpp:77] Creating layer relu6
I0403 13:11:03.360162 31652 net.cpp:91] Creating Layer relu6
I0403 13:11:03.360182 31652 net.cpp:425] relu6 <- fc6
I0403 13:11:03.360200 31652 net.cpp:386] relu6 -> fc6 (in-place)
I0403 13:11:03.360436 31652 net.cpp:141] Setting up relu6
I0403 13:11:03.360463 31652 net.cpp:148] Top shape: 100 4096 (409600)
I0403 13:11:03.360479 31652 net.cpp:156] Memory required for data: 824972400
I0403 13:11:03.360494 31652 layer_factory.hpp:77] Creating layer drop6
I0403 13:11:03.360513 31652 net.cpp:91] Creating Layer drop6
I0403 13:11:03.360528 31652 net.cpp:425] drop6 <- fc6
I0403 13:11:03.360545 31652 net.cpp:386] drop6 -> fc6 (in-place)
I0403 13:11:03.360599 31652 net.cpp:141] Setting up drop6
I0403 13:11:03.360622 31652 net.cpp:148] Top shape: 100 4096 (409600)
I0403 13:11:03.360636 31652 net.cpp:156] Memory required for data: 826610800
I0403 13:11:03.360651 31652 layer_factory.hpp:77] Creating layer fc7
I0403 13:11:03.360673 31652 net.cpp:91] Creating Layer fc7
I0403 13:11:03.360689 31652 net.cpp:425] fc7 <- fc6
I0403 13:11:03.360707 31652 net.cpp:399] fc7 -> fc7
I0403 13:11:04.048871 31652 net.cpp:141] Setting up fc7
I0403 13:11:04.048918 31652 net.cpp:148] Top shape: 100 4096 (409600)
I0403 13:11:04.048933 31652 net.cpp:156] Memory required for data: 828249200
I0403 13:11:04.048954 31652 layer_factory.hpp:77] Creating layer relu7
I0403 13:11:04.048979 31652 net.cpp:91] Creating Layer relu7
I0403 13:11:04.048997 31652 net.cpp:425] relu7 <- fc7
I0403 13:11:04.049016 31652 net.cpp:386] relu7 -> fc7 (in-place)
I0403 13:11:04.049438 31652 net.cpp:141] Setting up relu7
I0403 13:11:04.049465 31652 net.cpp:148] Top shape: 100 4096 (409600)
I0403 13:11:04.049513 31652 net.cpp:156] Memory required for data: 829887600
I0403 13:11:04.049528 31652 layer_factory.hpp:77] Creating layer drop7
I0403 13:11:04.049546 31652 net.cpp:91] Creating Layer drop7
I0403 13:11:04.049561 31652 net.cpp:425] drop7 <- fc7
I0403 13:11:04.049582 31652 net.cpp:386] drop7 -> fc7 (in-place)
I0403 13:11:04.049623 31652 net.cpp:141] Setting up drop7
I0403 13:11:04.049645 31652 net.cpp:148] Top shape: 100 4096 (409600)
I0403 13:11:04.049659 31652 net.cpp:156] Memory required for data: 831526000
I0403 13:11:04.049685 31652 layer_factory.hpp:77] Creating layer fc8_plantvillage
I0403 13:11:04.049707 31652 net.cpp:91] Creating Layer fc8_plantvillage
I0403 13:11:04.049724 31652 net.cpp:425] fc8_plantvillage <- fc7
I0403 13:11:04.049746 31652 net.cpp:399] fc8_plantvillage -> fc8_plantvillage
I0403 13:11:04.056444 31652 net.cpp:141] Setting up fc8_plantvillage
I0403 13:11:04.056473 31652 net.cpp:148] Top shape: 100 38 (3800)
I0403 13:11:04.056488 31652 net.cpp:156] Memory required for data: 831541200
I0403 13:11:04.056506 31652 layer_factory.hpp:77] Creating layer fc8_plantvillage_fc8_plantvillage_0_split
I0403 13:11:04.056524 31652 net.cpp:91] Creating Layer fc8_plantvillage_fc8_plantvillage_0_split
I0403 13:11:04.056540 31652 net.cpp:425] fc8_plantvillage_fc8_plantvillage_0_split <- fc8_plantvillage
I0403 13:11:04.056557 31652 net.cpp:399] fc8_plantvillage_fc8_plantvillage_0_split -> fc8_plantvillage_fc8_plantvillage_0_split_0
I0403 13:11:04.056578 31652 net.cpp:399] fc8_plantvillage_fc8_plantvillage_0_split -> fc8_plantvillage_fc8_plantvillage_0_split_1
I0403 13:11:04.056598 31652 net.cpp:399] fc8_plantvillage_fc8_plantvillage_0_split -> fc8_plantvillage_fc8_plantvillage_0_split_2
I0403 13:11:04.056674 31652 net.cpp:141] Setting up fc8_plantvillage_fc8_plantvillage_0_split
I0403 13:11:04.056696 31652 net.cpp:148] Top shape: 100 38 (3800)
I0403 13:11:04.056712 31652 net.cpp:148] Top shape: 100 38 (3800)
I0403 13:11:04.056727 31652 net.cpp:148] Top shape: 100 38 (3800)
I0403 13:11:04.056740 31652 net.cpp:156] Memory required for data: 831586800
I0403 13:11:04.056754 31652 layer_factory.hpp:77] Creating layer prob
I0403 13:11:04.056772 31652 net.cpp:91] Creating Layer prob
I0403 13:11:04.056787 31652 net.cpp:425] prob <- fc8_plantvillage_fc8_plantvillage_0_split_0
I0403 13:11:04.056805 31652 net.cpp:399] prob -> prob
I0403 13:11:04.057025 31652 net.cpp:141] Setting up prob
I0403 13:11:04.057052 31652 net.cpp:148] Top shape: 100 38 (3800)
I0403 13:11:04.057068 31652 net.cpp:156] Memory required for data: 831602000
I0403 13:11:04.057082 31652 layer_factory.hpp:77] Creating layer hdf5out
I0403 13:11:04.057101 31652 net.cpp:91] Creating Layer hdf5out
I0403 13:11:04.057116 31652 net.cpp:425] hdf5out <- prob
I0403 13:11:04.057132 31652 net.cpp:425] hdf5out <- label_data_1_split_0
I0403 13:11:04.059367 31652 net.cpp:141] Setting up hdf5out
…
