…
I0403 13:16:30.637601 31814 net.cpp:313] The NetState phase (1) differed from the phase (0) specified by a rule in layer data
I0403 13:16:30.637904 31814 net.cpp:49] Initializing net from parameters: 
state {
  phase: TEST
}
layer {
  name: "data"
  type: "Data"
  top: "data"
  top: "label"
  include {
    phase: TEST
  }
  transform_param {
    crop_size: 227
    mean_file: "/home/mohanty/data/final_dataset/lmdb/grayscale-60-40/mean.binaryproto"
  }
  data_param {
    source: "/home/mohanty/data/final_dataset/lmdb/grayscale-60-40/test_db"
    batch_size: 100
    backend: LMDB
  }
}
layer {
  name: "conv1"
  type: "Convolution"
  bottom: "data"
  top: "conv1"
  param {
    lr_mult: 1
    decay_mult: 1
  }
  param {
    lr_mult: 2
    decay_mult: 0
  }
  convolution_param {
    num_output: 96
    kernel_size: 11
    stride: 4
    weight_filler {
      type: "gaussian"
      std: 0.01
    }
    bias_filler {
      type: "constant"
      value: 0
    }
  }
}
layer {
  name: "relu1"
  type: "ReLU"
  bottom: "conv1"
  top: "conv1"
}
layer {
  name: "norm1"
  type: "LRN"
  bottom: "conv1"
  top: "norm1"
  lrn_param {
    local_size: 5
    alpha: 0.0001
    beta: 0.75
  }
}
layer {
  name: "pool1"
  type: "Pooling"
  bottom: "norm1"
  top: "pool1"
  pooling_param {
    pool: MAX
    kernel_size: 3
    stride: 2
  }
}
layer {
  name: "conv2"
  type: "Convolution"
  bottom: "pool1"
  top: "conv2"
  param {
    lr_mult: 1
    decay_mult: 1
  }
  param {
    lr_mult: 2
    decay_mult: 0
  }
  convolution_param {
    num_output: 256
    pad: 2
    kernel_size: 5
    group: 2
    weight_filler {
      type: "gaussian"
      std: 0.01
    }
    bias_filler {
      type: "constant"
      value: 0.1
    }
  }
}
layer {
  name: "relu2"
  type: "ReLU"
  bottom: "conv2"
  top: "conv2"
}
layer {
  name: "norm2"
  type: "LRN"
  bottom: "conv2"
  top: "norm2"
  lrn_param {
    local_size: 5
    alpha: 0.0001
    beta: 0.75
  }
}
layer {
  name: "pool2"
  type: "Pooling"
  bottom: "norm2"
  top: "pool2"
  pooling_param {
    pool: MAX
    kernel_size: 3
    stride: 2
  }
}
layer {
  name: "conv3"
  type: "Convolution"
  bottom: "pool2"
  top: "conv3"
  param {
    lr_mult: 1
    decay_mult: 1
  }
  param {
    lr_mult: 2
    decay_mult: 0
  }
  convolution_param {
    num_output: 384
    pad: 1
    kernel_size: 3
    weight_filler {
      type: "gaussian"
      std: 0.01
    }
    bias_filler {
      type: "constant"
      value: 0
    }
  }
}
layer {
  name: "relu3"
  type: "ReLU"
  bottom: "conv3"
  top: "conv3"
}
layer {
  name: "conv4"
  type: "Convolution"
  bottom: "conv3"
  top: "conv4"
  param {
    lr_mult: 1
    decay_mult: 1
  }
  param {
    lr_mult: 2
    decay_mult: 0
  }
  convolution_param {
    num_output: 384
    pad: 1
    kernel_size: 3
    group: 2
    weight_filler {
      type: "gaussian"
      std: 0.01
    }
    bias_filler {
      type: "constant"
      value: 0.1
    }
  }
}
layer {
  name: "relu4"
  type: "ReLU"
  bottom: "conv4"
  top: "conv4"
}
layer {
  name: "conv5"
  type: "Convolution"
  bottom: "conv4"
  top: "conv5"
  param {
    lr_mult: 1
    decay_mult: 1
  }
  param {
    lr_mult: 2
    decay_mult: 0
  }
  convolution_param {
    num_output: 256
    pad: 1
    kernel_size: 3
    group: 2
    weight_filler {
      type: "gaussian"
      std: 0.01
    }
    bias_filler {
      type: "constant"
      value: 0.1
    }
  }
}
layer {
  name: "relu5"
  type: "ReLU"
  bottom: "conv5"
  top: "conv5"
}
layer {
  name: "pool5"
  type: "Pooling"
  bottom: "conv5"
  top: "pool5"
  pooling_param {
    pool: MAX
    kernel_size: 3
    stride: 2
  }
}
layer {
  name: "fc6"
  type: "InnerProduct"
  bottom: "pool5"
  top: "fc6"
  param {
    lr_mult: 1
    decay_mult: 1
  }
  param {
    lr_mult: 2
    decay_mult: 0
  }
  inner_product_param {
    num_output: 4096
    weight_filler {
      type: "gaussian"
      std: 0.005
    }
    bias_filler {
      type: "constant"
      value: 0.1
    }
  }
}
layer {
  name: "relu6"
  type: "ReLU"
  bottom: "fc6"
  top: "fc6"
}
layer {
  name: "drop6"
  type: "Dropout"
  bottom: "fc6"
  top: "fc6"
  dropout_param {
    dropout_ratio: 0.5
  }
}
layer {
  name: "fc7"
  type: "InnerProduct"
  bottom: "fc6"
  top: "fc7"
  param {
    lr_mult: 1
    decay_mult: 1
  }
  param {
    lr_mult: 2
    decay_mult: 0
  }
  inner_product_param {
    num_output: 4096
    weight_filler {
      type: "gaussian"
      std: 0.005
    }
    bias_filler {
      type: "constant"
      value: 0.1
    }
  }
}
layer {
  name: "relu7"
  type: "ReLU"
  bottom: "fc7"
  top: "fc7"
}
layer {
  name: "drop7"
  type: "Dropout"
  bottom: "fc7"
  top: "fc7"
  dropout_param {
    dropout_ratio: 0.5
  }
}
layer {
  name: "fc8_plantvillage"
  type: "InnerProduct"
  bottom: "fc7"
  top: "fc8_plantvillage"
  param {
    lr_mult: 1
    decay_mult: 1
  }
  param {
    lr_mult: 2
    decay_mult: 0
  }
  inner_product_param {
    num_output: 38
    weight_filler {
      type: "gaussian"
      std: 0.01
    }
    bias_filler {
      type: "constant"
      value: 0
    }
  }
}
layer {
  name: "prob"
  type: "Softmax"
  bottom: "fc8_plantvillage"
  top: "prob"
  include {
    phase: TEST
  }
}
layer {
  name: "hdf5out"
  type: "HDF5Output"
  bottom: "prob"
  bottom: "label"
  include {
    phase: TEST
  }
  hdf5_output_param {
    file_name: "hdf5_dumps/iter_3250.h5"
  }
}
layer {
  name: "loss"
  type: "SoftmaxWithLoss"
  bottom: "fc8_plantvillage"
  bottom: "label"
  top: "loss"
}
layer {
  name: "accuracy"
  type: "Accuracy"
  bottom: "fc8_plantvillage"
  bottom: "label"
  top: "accuracy"
  include {
    phase: TEST
  }
}
I0403 13:16:30.638501 31814 layer_factory.hpp:77] Creating layer data
I0403 13:16:30.639142 31814 net.cpp:91] Creating Layer data
I0403 13:16:30.639171 31814 net.cpp:399] data -> data
I0403 13:16:30.639230 31814 net.cpp:399] data -> label
I0403 13:16:30.639267 31814 data_transformer.cpp:25] Loading mean file from: /home/mohanty/data/final_dataset/lmdb/grayscale-60-40/mean.binaryproto
I0403 13:16:30.641918 31817 db_lmdb.cpp:38] Opened lmdb /home/mohanty/data/final_dataset/lmdb/grayscale-60-40/test_db
I0403 13:16:30.654006 31814 data_layer.cpp:41] output data size: 100,3,227,227
I0403 13:16:30.775074 31814 net.cpp:141] Setting up data
I0403 13:16:30.775182 31814 net.cpp:148] Top shape: 100 3 227 227 (15458700)
I0403 13:16:30.775205 31814 net.cpp:148] Top shape: 100 (100)
I0403 13:16:30.775221 31814 net.cpp:156] Memory required for data: 61835200
I0403 13:16:30.775249 31814 layer_factory.hpp:77] Creating layer label_data_1_split
I0403 13:16:30.775274 31814 net.cpp:91] Creating Layer label_data_1_split
I0403 13:16:30.775291 31814 net.cpp:425] label_data_1_split <- label
I0403 13:16:30.775321 31814 net.cpp:399] label_data_1_split -> label_data_1_split_0
I0403 13:16:30.775348 31814 net.cpp:399] label_data_1_split -> label_data_1_split_1
I0403 13:16:30.775369 31814 net.cpp:399] label_data_1_split -> label_data_1_split_2
I0403 13:16:30.775432 31814 net.cpp:141] Setting up label_data_1_split
I0403 13:16:30.775455 31814 net.cpp:148] Top shape: 100 (100)
I0403 13:16:30.775472 31814 net.cpp:148] Top shape: 100 (100)
I0403 13:16:30.775490 31814 net.cpp:148] Top shape: 100 (100)
I0403 13:16:30.775503 31814 net.cpp:156] Memory required for data: 61836400
I0403 13:16:30.775518 31814 layer_factory.hpp:77] Creating layer conv1
I0403 13:16:30.775550 31814 net.cpp:91] Creating Layer conv1
I0403 13:16:30.775568 31814 net.cpp:425] conv1 <- data
I0403 13:16:30.775588 31814 net.cpp:399] conv1 -> conv1
I0403 13:16:30.915701 31814 net.cpp:141] Setting up conv1
I0403 13:16:30.915768 31814 net.cpp:148] Top shape: 100 96 55 55 (29040000)
I0403 13:16:30.915786 31814 net.cpp:156] Memory required for data: 177996400
I0403 13:16:30.915815 31814 layer_factory.hpp:77] Creating layer relu1
I0403 13:16:30.915843 31814 net.cpp:91] Creating Layer relu1
I0403 13:16:30.915861 31814 net.cpp:425] relu1 <- conv1
I0403 13:16:30.915879 31814 net.cpp:386] relu1 -> conv1 (in-place)
I0403 13:16:30.916137 31814 net.cpp:141] Setting up relu1
I0403 13:16:30.916164 31814 net.cpp:148] Top shape: 100 96 55 55 (29040000)
I0403 13:16:30.916213 31814 net.cpp:156] Memory required for data: 294156400
I0403 13:16:30.916231 31814 layer_factory.hpp:77] Creating layer norm1
I0403 13:16:30.916260 31814 net.cpp:91] Creating Layer norm1
I0403 13:16:30.916277 31814 net.cpp:425] norm1 <- conv1
I0403 13:16:30.916296 31814 net.cpp:399] norm1 -> norm1
I0403 13:16:30.916623 31814 net.cpp:141] Setting up norm1
I0403 13:16:30.916651 31814 net.cpp:148] Top shape: 100 96 55 55 (29040000)
I0403 13:16:30.916666 31814 net.cpp:156] Memory required for data: 410316400
I0403 13:16:30.916681 31814 layer_factory.hpp:77] Creating layer pool1
I0403 13:16:30.916705 31814 net.cpp:91] Creating Layer pool1
I0403 13:16:30.916723 31814 net.cpp:425] pool1 <- norm1
I0403 13:16:30.916740 31814 net.cpp:399] pool1 -> pool1
I0403 13:16:30.916811 31814 net.cpp:141] Setting up pool1
I0403 13:16:30.916834 31814 net.cpp:148] Top shape: 100 96 27 27 (6998400)
I0403 13:16:30.916849 31814 net.cpp:156] Memory required for data: 438310000
I0403 13:16:30.916863 31814 layer_factory.hpp:77] Creating layer conv2
I0403 13:16:30.916890 31814 net.cpp:91] Creating Layer conv2
I0403 13:16:30.916908 31814 net.cpp:425] conv2 <- pool1
I0403 13:16:30.916930 31814 net.cpp:399] conv2 -> conv2
I0403 13:16:30.932406 31814 net.cpp:141] Setting up conv2
I0403 13:16:30.932466 31814 net.cpp:148] Top shape: 100 256 27 27 (18662400)
I0403 13:16:30.932482 31814 net.cpp:156] Memory required for data: 512959600
I0403 13:16:30.932508 31814 layer_factory.hpp:77] Creating layer relu2
I0403 13:16:30.932529 31814 net.cpp:91] Creating Layer relu2
I0403 13:16:30.932546 31814 net.cpp:425] relu2 <- conv2
I0403 13:16:30.932564 31814 net.cpp:386] relu2 -> conv2 (in-place)
I0403 13:16:30.932881 31814 net.cpp:141] Setting up relu2
I0403 13:16:30.932910 31814 net.cpp:148] Top shape: 100 256 27 27 (18662400)
I0403 13:16:30.932927 31814 net.cpp:156] Memory required for data: 587609200
I0403 13:16:30.932942 31814 layer_factory.hpp:77] Creating layer norm2
I0403 13:16:30.932963 31814 net.cpp:91] Creating Layer norm2
I0403 13:16:30.932981 31814 net.cpp:425] norm2 <- conv2
I0403 13:16:30.933001 31814 net.cpp:399] norm2 -> norm2
I0403 13:16:30.933202 31814 net.cpp:141] Setting up norm2
I0403 13:16:30.933238 31814 net.cpp:148] Top shape: 100 256 27 27 (18662400)
I0403 13:16:30.933254 31814 net.cpp:156] Memory required for data: 662258800
I0403 13:16:30.933270 31814 layer_factory.hpp:77] Creating layer pool2
I0403 13:16:30.933290 31814 net.cpp:91] Creating Layer pool2
I0403 13:16:30.933307 31814 net.cpp:425] pool2 <- norm2
I0403 13:16:30.933326 31814 net.cpp:399] pool2 -> pool2
I0403 13:16:30.933378 31814 net.cpp:141] Setting up pool2
I0403 13:16:30.933403 31814 net.cpp:148] Top shape: 100 256 13 13 (4326400)
I0403 13:16:30.933418 31814 net.cpp:156] Memory required for data: 679564400
I0403 13:16:30.933434 31814 layer_factory.hpp:77] Creating layer conv3
I0403 13:16:30.933459 31814 net.cpp:91] Creating Layer conv3
I0403 13:16:30.933475 31814 net.cpp:425] conv3 <- pool2
I0403 13:16:30.933496 31814 net.cpp:399] conv3 -> conv3
I0403 13:16:30.977388 31814 net.cpp:141] Setting up conv3
I0403 13:16:30.977476 31814 net.cpp:148] Top shape: 100 384 13 13 (6489600)
I0403 13:16:30.977494 31814 net.cpp:156] Memory required for data: 705522800
I0403 13:16:30.977520 31814 layer_factory.hpp:77] Creating layer relu3
I0403 13:16:30.977545 31814 net.cpp:91] Creating Layer relu3
I0403 13:16:30.977565 31814 net.cpp:425] relu3 <- conv3
I0403 13:16:30.977584 31814 net.cpp:386] relu3 -> conv3 (in-place)
I0403 13:16:30.977860 31814 net.cpp:141] Setting up relu3
I0403 13:16:30.977887 31814 net.cpp:148] Top shape: 100 384 13 13 (6489600)
I0403 13:16:30.977903 31814 net.cpp:156] Memory required for data: 731481200
I0403 13:16:30.977918 31814 layer_factory.hpp:77] Creating layer conv4
I0403 13:16:30.977947 31814 net.cpp:91] Creating Layer conv4
I0403 13:16:30.977965 31814 net.cpp:425] conv4 <- conv3
I0403 13:16:30.977984 31814 net.cpp:399] conv4 -> conv4
I0403 13:16:31.008424 31814 net.cpp:141] Setting up conv4
I0403 13:16:31.008505 31814 net.cpp:148] Top shape: 100 384 13 13 (6489600)
I0403 13:16:31.008554 31814 net.cpp:156] Memory required for data: 757439600
I0403 13:16:31.008577 31814 layer_factory.hpp:77] Creating layer relu4
I0403 13:16:31.008602 31814 net.cpp:91] Creating Layer relu4
I0403 13:16:31.008620 31814 net.cpp:425] relu4 <- conv4
I0403 13:16:31.008641 31814 net.cpp:386] relu4 -> conv4 (in-place)
I0403 13:16:31.008924 31814 net.cpp:141] Setting up relu4
I0403 13:16:31.008990 31814 net.cpp:148] Top shape: 100 384 13 13 (6489600)
I0403 13:16:31.009011 31814 net.cpp:156] Memory required for data: 783398000
I0403 13:16:31.009027 31814 layer_factory.hpp:77] Creating layer conv5
I0403 13:16:31.009058 31814 net.cpp:91] Creating Layer conv5
I0403 13:16:31.009078 31814 net.cpp:425] conv5 <- conv4
I0403 13:16:31.009099 31814 net.cpp:399] conv5 -> conv5
I0403 13:16:31.030020 31814 net.cpp:141] Setting up conv5
I0403 13:16:31.030055 31814 net.cpp:148] Top shape: 100 256 13 13 (4326400)
I0403 13:16:31.030072 31814 net.cpp:156] Memory required for data: 800703600
I0403 13:16:31.030112 31814 layer_factory.hpp:77] Creating layer relu5
I0403 13:16:31.030134 31814 net.cpp:91] Creating Layer relu5
I0403 13:16:31.030150 31814 net.cpp:425] relu5 <- conv5
I0403 13:16:31.030167 31814 net.cpp:386] relu5 -> conv5 (in-place)
I0403 13:16:31.030452 31814 net.cpp:141] Setting up relu5
I0403 13:16:31.030480 31814 net.cpp:148] Top shape: 100 256 13 13 (4326400)
I0403 13:16:31.030498 31814 net.cpp:156] Memory required for data: 818009200
I0403 13:16:31.030513 31814 layer_factory.hpp:77] Creating layer pool5
I0403 13:16:31.030534 31814 net.cpp:91] Creating Layer pool5
I0403 13:16:31.030550 31814 net.cpp:425] pool5 <- conv5
I0403 13:16:31.030570 31814 net.cpp:399] pool5 -> pool5
I0403 13:16:31.030628 31814 net.cpp:141] Setting up pool5
I0403 13:16:31.030652 31814 net.cpp:148] Top shape: 100 256 6 6 (921600)
I0403 13:16:31.030696 31814 net.cpp:156] Memory required for data: 821695600
I0403 13:16:31.030716 31814 layer_factory.hpp:77] Creating layer fc6
I0403 13:16:31.030746 31814 net.cpp:91] Creating Layer fc6
I0403 13:16:31.030764 31814 net.cpp:425] fc6 <- pool5
I0403 13:16:31.030784 31814 net.cpp:399] fc6 -> fc6
I0403 13:16:32.594602 31814 net.cpp:141] Setting up fc6
I0403 13:16:32.594691 31814 net.cpp:148] Top shape: 100 4096 (409600)
I0403 13:16:32.594707 31814 net.cpp:156] Memory required for data: 823334000
I0403 13:16:32.594729 31814 layer_factory.hpp:77] Creating layer relu6
I0403 13:16:32.594751 31814 net.cpp:91] Creating Layer relu6
I0403 13:16:32.594769 31814 net.cpp:425] relu6 <- fc6
I0403 13:16:32.594791 31814 net.cpp:386] relu6 -> fc6 (in-place)
I0403 13:16:32.595021 31814 net.cpp:141] Setting up relu6
I0403 13:16:32.595046 31814 net.cpp:148] Top shape: 100 4096 (409600)
I0403 13:16:32.595059 31814 net.cpp:156] Memory required for data: 824972400
I0403 13:16:32.595074 31814 layer_factory.hpp:77] Creating layer drop6
I0403 13:16:32.595096 31814 net.cpp:91] Creating Layer drop6
I0403 13:16:32.595113 31814 net.cpp:425] drop6 <- fc6
I0403 13:16:32.595129 31814 net.cpp:386] drop6 -> fc6 (in-place)
I0403 13:16:32.595182 31814 net.cpp:141] Setting up drop6
I0403 13:16:32.595206 31814 net.cpp:148] Top shape: 100 4096 (409600)
I0403 13:16:32.595227 31814 net.cpp:156] Memory required for data: 826610800
I0403 13:16:32.595242 31814 layer_factory.hpp:77] Creating layer fc7
I0403 13:16:32.595263 31814 net.cpp:91] Creating Layer fc7
I0403 13:16:32.595279 31814 net.cpp:425] fc7 <- fc6
I0403 13:16:32.595298 31814 net.cpp:399] fc7 -> fc7
I0403 13:16:33.282203 31814 net.cpp:141] Setting up fc7
I0403 13:16:33.282256 31814 net.cpp:148] Top shape: 100 4096 (409600)
I0403 13:16:33.282272 31814 net.cpp:156] Memory required for data: 828249200
I0403 13:16:33.282294 31814 layer_factory.hpp:77] Creating layer relu7
I0403 13:16:33.282318 31814 net.cpp:91] Creating Layer relu7
I0403 13:16:33.282337 31814 net.cpp:425] relu7 <- fc7
I0403 13:16:33.282356 31814 net.cpp:386] relu7 -> fc7 (in-place)
I0403 13:16:33.282783 31814 net.cpp:141] Setting up relu7
I0403 13:16:33.282809 31814 net.cpp:148] Top shape: 100 4096 (409600)
I0403 13:16:33.282872 31814 net.cpp:156] Memory required for data: 829887600
I0403 13:16:33.282889 31814 layer_factory.hpp:77] Creating layer drop7
I0403 13:16:33.282912 31814 net.cpp:91] Creating Layer drop7
I0403 13:16:33.282929 31814 net.cpp:425] drop7 <- fc7
I0403 13:16:33.282959 31814 net.cpp:386] drop7 -> fc7 (in-place)
I0403 13:16:33.283007 31814 net.cpp:141] Setting up drop7
I0403 13:16:33.283030 31814 net.cpp:148] Top shape: 100 4096 (409600)
I0403 13:16:33.283046 31814 net.cpp:156] Memory required for data: 831526000
I0403 13:16:33.283061 31814 layer_factory.hpp:77] Creating layer fc8_plantvillage
I0403 13:16:33.283082 31814 net.cpp:91] Creating Layer fc8_plantvillage
I0403 13:16:33.283098 31814 net.cpp:425] fc8_plantvillage <- fc7
I0403 13:16:33.283120 31814 net.cpp:399] fc8_plantvillage -> fc8_plantvillage
I0403 13:16:33.289932 31814 net.cpp:141] Setting up fc8_plantvillage
I0403 13:16:33.289961 31814 net.cpp:148] Top shape: 100 38 (3800)
I0403 13:16:33.289978 31814 net.cpp:156] Memory required for data: 831541200
I0403 13:16:33.289994 31814 layer_factory.hpp:77] Creating layer fc8_plantvillage_fc8_plantvillage_0_split
I0403 13:16:33.290014 31814 net.cpp:91] Creating Layer fc8_plantvillage_fc8_plantvillage_0_split
I0403 13:16:33.290027 31814 net.cpp:425] fc8_plantvillage_fc8_plantvillage_0_split <- fc8_plantvillage
I0403 13:16:33.290045 31814 net.cpp:399] fc8_plantvillage_fc8_plantvillage_0_split -> fc8_plantvillage_fc8_plantvillage_0_split_0
I0403 13:16:33.290065 31814 net.cpp:399] fc8_plantvillage_fc8_plantvillage_0_split -> fc8_plantvillage_fc8_plantvillage_0_split_1
I0403 13:16:33.290083 31814 net.cpp:399] fc8_plantvillage_fc8_plantvillage_0_split -> fc8_plantvillage_fc8_plantvillage_0_split_2
I0403 13:16:33.290158 31814 net.cpp:141] Setting up fc8_plantvillage_fc8_plantvillage_0_split
I0403 13:16:33.290179 31814 net.cpp:148] Top shape: 100 38 (3800)
I0403 13:16:33.290195 31814 net.cpp:148] Top shape: 100 38 (3800)
I0403 13:16:33.290215 31814 net.cpp:148] Top shape: 100 38 (3800)
I0403 13:16:33.290230 31814 net.cpp:156] Memory required for data: 831586800
I0403 13:16:33.290243 31814 layer_factory.hpp:77] Creating layer prob
I0403 13:16:33.290266 31814 net.cpp:91] Creating Layer prob
I0403 13:16:33.290280 31814 net.cpp:425] prob <- fc8_plantvillage_fc8_plantvillage_0_split_0
I0403 13:16:33.290297 31814 net.cpp:399] prob -> prob
I0403 13:16:33.290518 31814 net.cpp:141] Setting up prob
I0403 13:16:33.290550 31814 net.cpp:148] Top shape: 100 38 (3800)
I0403 13:16:33.290565 31814 net.cpp:156] Memory required for data: 831602000
I0403 13:16:33.290580 31814 layer_factory.hpp:77] Creating layer hdf5out
I0403 13:16:33.290601 31814 net.cpp:91] Creating Layer hdf5out
I0403 13:16:33.290618 31814 net.cpp:425] hdf5out <- prob
I0403 13:16:33.290633 31814 net.cpp:425] hdf5out <- label_data_1_split_0
I0403 13:16:33.292912 31814 net.cpp:141] Setting up hdf5out
…
