…
I0403 13:13:21.431219 31715 net.cpp:313] The NetState phase (1) differed from the phase (0) specified by a rule in layer data
I0403 13:13:21.431510 31715 net.cpp:49] Initializing net from parameters: 
state {
  phase: TEST
}
layer {
  name: "data"
  type: "Data"
  top: "data"
  top: "label"
  include {
    phase: TEST
  }
  transform_param {
    crop_size: 227
    mean_file: "/home/mohanty/data/final_dataset/lmdb/grayscale-60-40/mean.binaryproto"
  }
  data_param {
    source: "/home/mohanty/data/final_dataset/lmdb/grayscale-60-40/test_db"
    batch_size: 100
    backend: LMDB
  }
}
layer {
  name: "conv1"
  type: "Convolution"
  bottom: "data"
  top: "conv1"
  param {
    lr_mult: 1
    decay_mult: 1
  }
  param {
    lr_mult: 2
    decay_mult: 0
  }
  convolution_param {
    num_output: 96
    kernel_size: 11
    stride: 4
    weight_filler {
      type: "gaussian"
      std: 0.01
    }
    bias_filler {
      type: "constant"
      value: 0
    }
  }
}
layer {
  name: "relu1"
  type: "ReLU"
  bottom: "conv1"
  top: "conv1"
}
layer {
  name: "norm1"
  type: "LRN"
  bottom: "conv1"
  top: "norm1"
  lrn_param {
    local_size: 5
    alpha: 0.0001
    beta: 0.75
  }
}
layer {
  name: "pool1"
  type: "Pooling"
  bottom: "norm1"
  top: "pool1"
  pooling_param {
    pool: MAX
    kernel_size: 3
    stride: 2
  }
}
layer {
  name: "conv2"
  type: "Convolution"
  bottom: "pool1"
  top: "conv2"
  param {
    lr_mult: 1
    decay_mult: 1
  }
  param {
    lr_mult: 2
    decay_mult: 0
  }
  convolution_param {
    num_output: 256
    pad: 2
    kernel_size: 5
    group: 2
    weight_filler {
      type: "gaussian"
      std: 0.01
    }
    bias_filler {
      type: "constant"
      value: 0.1
    }
  }
}
layer {
  name: "relu2"
  type: "ReLU"
  bottom: "conv2"
  top: "conv2"
}
layer {
  name: "norm2"
  type: "LRN"
  bottom: "conv2"
  top: "norm2"
  lrn_param {
    local_size: 5
    alpha: 0.0001
    beta: 0.75
  }
}
layer {
  name: "pool2"
  type: "Pooling"
  bottom: "norm2"
  top: "pool2"
  pooling_param {
    pool: MAX
    kernel_size: 3
    stride: 2
  }
}
layer {
  name: "conv3"
  type: "Convolution"
  bottom: "pool2"
  top: "conv3"
  param {
    lr_mult: 1
    decay_mult: 1
  }
  param {
    lr_mult: 2
    decay_mult: 0
  }
  convolution_param {
    num_output: 384
    pad: 1
    kernel_size: 3
    weight_filler {
      type: "gaussian"
      std: 0.01
    }
    bias_filler {
      type: "constant"
      value: 0
    }
  }
}
layer {
  name: "relu3"
  type: "ReLU"
  bottom: "conv3"
  top: "conv3"
}
layer {
  name: "conv4"
  type: "Convolution"
  bottom: "conv3"
  top: "conv4"
  param {
    lr_mult: 1
    decay_mult: 1
  }
  param {
    lr_mult: 2
    decay_mult: 0
  }
  convolution_param {
    num_output: 384
    pad: 1
    kernel_size: 3
    group: 2
    weight_filler {
      type: "gaussian"
      std: 0.01
    }
    bias_filler {
      type: "constant"
      value: 0.1
    }
  }
}
layer {
  name: "relu4"
  type: "ReLU"
  bottom: "conv4"
  top: "conv4"
}
layer {
  name: "conv5"
  type: "Convolution"
  bottom: "conv4"
  top: "conv5"
  param {
    lr_mult: 1
    decay_mult: 1
  }
  param {
    lr_mult: 2
    decay_mult: 0
  }
  convolution_param {
    num_output: 256
    pad: 1
    kernel_size: 3
    group: 2
    weight_filler {
      type: "gaussian"
      std: 0.01
    }
    bias_filler {
      type: "constant"
      value: 0.1
    }
  }
}
layer {
  name: "relu5"
  type: "ReLU"
  bottom: "conv5"
  top: "conv5"
}
layer {
  name: "pool5"
  type: "Pooling"
  bottom: "conv5"
  top: "pool5"
  pooling_param {
    pool: MAX
    kernel_size: 3
    stride: 2
  }
}
layer {
  name: "fc6"
  type: "InnerProduct"
  bottom: "pool5"
  top: "fc6"
  param {
    lr_mult: 1
    decay_mult: 1
  }
  param {
    lr_mult: 2
    decay_mult: 0
  }
  inner_product_param {
    num_output: 4096
    weight_filler {
      type: "gaussian"
      std: 0.005
    }
    bias_filler {
      type: "constant"
      value: 0.1
    }
  }
}
layer {
  name: "relu6"
  type: "ReLU"
  bottom: "fc6"
  top: "fc6"
}
layer {
  name: "drop6"
  type: "Dropout"
  bottom: "fc6"
  top: "fc6"
  dropout_param {
    dropout_ratio: 0.5
  }
}
layer {
  name: "fc7"
  type: "InnerProduct"
  bottom: "fc6"
  top: "fc7"
  param {
    lr_mult: 1
    decay_mult: 1
  }
  param {
    lr_mult: 2
    decay_mult: 0
  }
  inner_product_param {
    num_output: 4096
    weight_filler {
      type: "gaussian"
      std: 0.005
    }
    bias_filler {
      type: "constant"
      value: 0.1
    }
  }
}
layer {
  name: "relu7"
  type: "ReLU"
  bottom: "fc7"
  top: "fc7"
}
layer {
  name: "drop7"
  type: "Dropout"
  bottom: "fc7"
  top: "fc7"
  dropout_param {
    dropout_ratio: 0.5
  }
}
layer {
  name: "fc8_plantvillage"
  type: "InnerProduct"
  bottom: "fc7"
  top: "fc8_plantvillage"
  param {
    lr_mult: 1
    decay_mult: 1
  }
  param {
    lr_mult: 2
    decay_mult: 0
  }
  inner_product_param {
    num_output: 38
    weight_filler {
      type: "gaussian"
      std: 0.01
    }
    bias_filler {
      type: "constant"
      value: 0
    }
  }
}
layer {
  name: "prob"
  type: "Softmax"
  bottom: "fc8_plantvillage"
  top: "prob"
  include {
    phase: TEST
  }
}
layer {
  name: "hdf5out"
  type: "HDF5Output"
  bottom: "prob"
  bottom: "label"
  include {
    phase: TEST
  }
  hdf5_output_param {
    file_name: "hdf5_dumps/iter_1950.h5"
  }
}
layer {
  name: "loss"
  type: "SoftmaxWithLoss"
  bottom: "fc8_plantvillage"
  bottom: "label"
  top: "loss"
}
layer {
  name: "accuracy"
  type: "Accuracy"
  bottom: "fc8_plantvillage"
  bottom: "label"
  top: "accuracy"
  include {
    phase: TEST
  }
}
I0403 13:13:21.432111 31715 layer_factory.hpp:77] Creating layer data
I0403 13:13:21.432777 31715 net.cpp:91] Creating Layer data
I0403 13:13:21.432808 31715 net.cpp:399] data -> data
I0403 13:13:21.432862 31715 net.cpp:399] data -> label
I0403 13:13:21.432898 31715 data_transformer.cpp:25] Loading mean file from: /home/mohanty/data/final_dataset/lmdb/grayscale-60-40/mean.binaryproto
I0403 13:13:21.436066 31720 db_lmdb.cpp:38] Opened lmdb /home/mohanty/data/final_dataset/lmdb/grayscale-60-40/test_db
I0403 13:13:21.447399 31715 data_layer.cpp:41] output data size: 100,3,227,227
I0403 13:13:21.567044 31715 net.cpp:141] Setting up data
I0403 13:13:21.567150 31715 net.cpp:148] Top shape: 100 3 227 227 (15458700)
I0403 13:13:21.567173 31715 net.cpp:148] Top shape: 100 (100)
I0403 13:13:21.567189 31715 net.cpp:156] Memory required for data: 61835200
I0403 13:13:21.567222 31715 layer_factory.hpp:77] Creating layer label_data_1_split
I0403 13:13:21.567251 31715 net.cpp:91] Creating Layer label_data_1_split
I0403 13:13:21.567270 31715 net.cpp:425] label_data_1_split <- label
I0403 13:13:21.567302 31715 net.cpp:399] label_data_1_split -> label_data_1_split_0
I0403 13:13:21.567329 31715 net.cpp:399] label_data_1_split -> label_data_1_split_1
I0403 13:13:21.567350 31715 net.cpp:399] label_data_1_split -> label_data_1_split_2
I0403 13:13:21.567415 31715 net.cpp:141] Setting up label_data_1_split
I0403 13:13:21.567440 31715 net.cpp:148] Top shape: 100 (100)
I0403 13:13:21.567456 31715 net.cpp:148] Top shape: 100 (100)
I0403 13:13:21.567473 31715 net.cpp:148] Top shape: 100 (100)
I0403 13:13:21.567488 31715 net.cpp:156] Memory required for data: 61836400
I0403 13:13:21.567502 31715 layer_factory.hpp:77] Creating layer conv1
I0403 13:13:21.567535 31715 net.cpp:91] Creating Layer conv1
I0403 13:13:21.567554 31715 net.cpp:425] conv1 <- data
I0403 13:13:21.567574 31715 net.cpp:399] conv1 -> conv1
I0403 13:13:21.713831 31715 net.cpp:141] Setting up conv1
I0403 13:13:21.713920 31715 net.cpp:148] Top shape: 100 96 55 55 (29040000)
I0403 13:13:21.713938 31715 net.cpp:156] Memory required for data: 177996400
I0403 13:13:21.713970 31715 layer_factory.hpp:77] Creating layer relu1
I0403 13:13:21.713999 31715 net.cpp:91] Creating Layer relu1
I0403 13:13:21.714017 31715 net.cpp:425] relu1 <- conv1
I0403 13:13:21.714076 31715 net.cpp:386] relu1 -> conv1 (in-place)
I0403 13:13:21.714355 31715 net.cpp:141] Setting up relu1
I0403 13:13:21.714383 31715 net.cpp:148] Top shape: 100 96 55 55 (29040000)
I0403 13:13:21.714432 31715 net.cpp:156] Memory required for data: 294156400
I0403 13:13:21.714449 31715 layer_factory.hpp:77] Creating layer norm1
I0403 13:13:21.714478 31715 net.cpp:91] Creating Layer norm1
I0403 13:13:21.714496 31715 net.cpp:425] norm1 <- conv1
I0403 13:13:21.714515 31715 net.cpp:399] norm1 -> norm1
I0403 13:13:21.714833 31715 net.cpp:141] Setting up norm1
I0403 13:13:21.714862 31715 net.cpp:148] Top shape: 100 96 55 55 (29040000)
I0403 13:13:21.714879 31715 net.cpp:156] Memory required for data: 410316400
I0403 13:13:21.714893 31715 layer_factory.hpp:77] Creating layer pool1
I0403 13:13:21.714917 31715 net.cpp:91] Creating Layer pool1
I0403 13:13:21.714934 31715 net.cpp:425] pool1 <- norm1
I0403 13:13:21.714953 31715 net.cpp:399] pool1 -> pool1
I0403 13:13:21.715021 31715 net.cpp:141] Setting up pool1
I0403 13:13:21.715045 31715 net.cpp:148] Top shape: 100 96 27 27 (6998400)
I0403 13:13:21.715061 31715 net.cpp:156] Memory required for data: 438310000
I0403 13:13:21.715077 31715 layer_factory.hpp:77] Creating layer conv2
I0403 13:13:21.715102 31715 net.cpp:91] Creating Layer conv2
I0403 13:13:21.715118 31715 net.cpp:425] conv2 <- pool1
I0403 13:13:21.715137 31715 net.cpp:399] conv2 -> conv2
I0403 13:13:21.731042 31715 net.cpp:141] Setting up conv2
I0403 13:13:21.731107 31715 net.cpp:148] Top shape: 100 256 27 27 (18662400)
I0403 13:13:21.731127 31715 net.cpp:156] Memory required for data: 512959600
I0403 13:13:21.731151 31715 layer_factory.hpp:77] Creating layer relu2
I0403 13:13:21.731174 31715 net.cpp:91] Creating Layer relu2
I0403 13:13:21.731191 31715 net.cpp:425] relu2 <- conv2
I0403 13:13:21.731216 31715 net.cpp:386] relu2 -> conv2 (in-place)
I0403 13:13:21.731514 31715 net.cpp:141] Setting up relu2
I0403 13:13:21.731542 31715 net.cpp:148] Top shape: 100 256 27 27 (18662400)
I0403 13:13:21.731559 31715 net.cpp:156] Memory required for data: 587609200
I0403 13:13:21.731575 31715 layer_factory.hpp:77] Creating layer norm2
I0403 13:13:21.731600 31715 net.cpp:91] Creating Layer norm2
I0403 13:13:21.731617 31715 net.cpp:425] norm2 <- conv2
I0403 13:13:21.731637 31715 net.cpp:399] norm2 -> norm2
I0403 13:13:21.731843 31715 net.cpp:141] Setting up norm2
I0403 13:13:21.731900 31715 net.cpp:148] Top shape: 100 256 27 27 (18662400)
I0403 13:13:21.731922 31715 net.cpp:156] Memory required for data: 662258800
I0403 13:13:21.731938 31715 layer_factory.hpp:77] Creating layer pool2
I0403 13:13:21.731958 31715 net.cpp:91] Creating Layer pool2
I0403 13:13:21.731974 31715 net.cpp:425] pool2 <- norm2
I0403 13:13:21.731992 31715 net.cpp:399] pool2 -> pool2
I0403 13:13:21.732050 31715 net.cpp:141] Setting up pool2
I0403 13:13:21.732074 31715 net.cpp:148] Top shape: 100 256 13 13 (4326400)
I0403 13:13:21.732089 31715 net.cpp:156] Memory required for data: 679564400
I0403 13:13:21.732103 31715 layer_factory.hpp:77] Creating layer conv3
I0403 13:13:21.732128 31715 net.cpp:91] Creating Layer conv3
I0403 13:13:21.732146 31715 net.cpp:425] conv3 <- pool2
I0403 13:13:21.732167 31715 net.cpp:399] conv3 -> conv3
I0403 13:13:21.773713 31715 net.cpp:141] Setting up conv3
I0403 13:13:21.773773 31715 net.cpp:148] Top shape: 100 384 13 13 (6489600)
I0403 13:13:21.773790 31715 net.cpp:156] Memory required for data: 705522800
I0403 13:13:21.773816 31715 layer_factory.hpp:77] Creating layer relu3
I0403 13:13:21.773843 31715 net.cpp:91] Creating Layer relu3
I0403 13:13:21.773861 31715 net.cpp:425] relu3 <- conv3
I0403 13:13:21.773881 31715 net.cpp:386] relu3 -> conv3 (in-place)
I0403 13:13:21.774168 31715 net.cpp:141] Setting up relu3
I0403 13:13:21.774199 31715 net.cpp:148] Top shape: 100 384 13 13 (6489600)
I0403 13:13:21.774220 31715 net.cpp:156] Memory required for data: 731481200
I0403 13:13:21.774236 31715 layer_factory.hpp:77] Creating layer conv4
I0403 13:13:21.774265 31715 net.cpp:91] Creating Layer conv4
I0403 13:13:21.774283 31715 net.cpp:425] conv4 <- conv3
I0403 13:13:21.774302 31715 net.cpp:399] conv4 -> conv4
I0403 13:13:21.805539 31715 net.cpp:141] Setting up conv4
I0403 13:13:21.805632 31715 net.cpp:148] Top shape: 100 384 13 13 (6489600)
I0403 13:13:21.805681 31715 net.cpp:156] Memory required for data: 757439600
I0403 13:13:21.805703 31715 layer_factory.hpp:77] Creating layer relu4
I0403 13:13:21.805728 31715 net.cpp:91] Creating Layer relu4
I0403 13:13:21.805747 31715 net.cpp:425] relu4 <- conv4
I0403 13:13:21.805768 31715 net.cpp:386] relu4 -> conv4 (in-place)
I0403 13:13:21.806051 31715 net.cpp:141] Setting up relu4
I0403 13:13:21.806077 31715 net.cpp:148] Top shape: 100 384 13 13 (6489600)
I0403 13:13:21.806092 31715 net.cpp:156] Memory required for data: 783398000
I0403 13:13:21.806108 31715 layer_factory.hpp:77] Creating layer conv5
I0403 13:13:21.806136 31715 net.cpp:91] Creating Layer conv5
I0403 13:13:21.806188 31715 net.cpp:425] conv5 <- conv4
I0403 13:13:21.806219 31715 net.cpp:399] conv5 -> conv5
I0403 13:13:21.827626 31715 net.cpp:141] Setting up conv5
I0403 13:13:21.827679 31715 net.cpp:148] Top shape: 100 256 13 13 (4326400)
I0403 13:13:21.827702 31715 net.cpp:156] Memory required for data: 800703600
I0403 13:13:21.827728 31715 layer_factory.hpp:77] Creating layer relu5
I0403 13:13:21.827750 31715 net.cpp:91] Creating Layer relu5
I0403 13:13:21.827767 31715 net.cpp:425] relu5 <- conv5
I0403 13:13:21.827786 31715 net.cpp:386] relu5 -> conv5 (in-place)
I0403 13:13:21.828076 31715 net.cpp:141] Setting up relu5
I0403 13:13:21.828107 31715 net.cpp:148] Top shape: 100 256 13 13 (4326400)
I0403 13:13:21.828124 31715 net.cpp:156] Memory required for data: 818009200
I0403 13:13:21.828140 31715 layer_factory.hpp:77] Creating layer pool5
I0403 13:13:21.828162 31715 net.cpp:91] Creating Layer pool5
I0403 13:13:21.828179 31715 net.cpp:425] pool5 <- conv5
I0403 13:13:21.828200 31715 net.cpp:399] pool5 -> pool5
I0403 13:13:21.828269 31715 net.cpp:141] Setting up pool5
I0403 13:13:21.828292 31715 net.cpp:148] Top shape: 100 256 6 6 (921600)
I0403 13:13:21.828308 31715 net.cpp:156] Memory required for data: 821695600
I0403 13:13:21.828323 31715 layer_factory.hpp:77] Creating layer fc6
I0403 13:13:21.828356 31715 net.cpp:91] Creating Layer fc6
I0403 13:13:21.828373 31715 net.cpp:425] fc6 <- pool5
I0403 13:13:21.828395 31715 net.cpp:399] fc6 -> fc6
I0403 13:13:23.480581 31715 net.cpp:141] Setting up fc6
I0403 13:13:23.480671 31715 net.cpp:148] Top shape: 100 4096 (409600)
I0403 13:13:23.480687 31715 net.cpp:156] Memory required for data: 823334000
I0403 13:13:23.480708 31715 layer_factory.hpp:77] Creating layer relu6
I0403 13:13:23.480733 31715 net.cpp:91] Creating Layer relu6
I0403 13:13:23.480751 31715 net.cpp:425] relu6 <- fc6
I0403 13:13:23.480770 31715 net.cpp:386] relu6 -> fc6 (in-place)
I0403 13:13:23.480995 31715 net.cpp:141] Setting up relu6
I0403 13:13:23.481021 31715 net.cpp:148] Top shape: 100 4096 (409600)
I0403 13:13:23.481037 31715 net.cpp:156] Memory required for data: 824972400
I0403 13:13:23.481052 31715 layer_factory.hpp:77] Creating layer drop6
I0403 13:13:23.481070 31715 net.cpp:91] Creating Layer drop6
I0403 13:13:23.481086 31715 net.cpp:425] drop6 <- fc6
I0403 13:13:23.481102 31715 net.cpp:386] drop6 -> fc6 (in-place)
I0403 13:13:23.481155 31715 net.cpp:141] Setting up drop6
I0403 13:13:23.481178 31715 net.cpp:148] Top shape: 100 4096 (409600)
I0403 13:13:23.481192 31715 net.cpp:156] Memory required for data: 826610800
I0403 13:13:23.481212 31715 layer_factory.hpp:77] Creating layer fc7
I0403 13:13:23.481236 31715 net.cpp:91] Creating Layer fc7
I0403 13:13:23.481252 31715 net.cpp:425] fc7 <- fc6
I0403 13:13:23.481271 31715 net.cpp:399] fc7 -> fc7
I0403 13:13:24.197043 31715 net.cpp:141] Setting up fc7
I0403 13:13:24.197088 31715 net.cpp:148] Top shape: 100 4096 (409600)
I0403 13:13:24.197103 31715 net.cpp:156] Memory required for data: 828249200
I0403 13:13:24.197124 31715 layer_factory.hpp:77] Creating layer relu7
I0403 13:13:24.197149 31715 net.cpp:91] Creating Layer relu7
I0403 13:13:24.197165 31715 net.cpp:425] relu7 <- fc7
I0403 13:13:24.197183 31715 net.cpp:386] relu7 -> fc7 (in-place)
I0403 13:13:24.197590 31715 net.cpp:141] Setting up relu7
I0403 13:13:24.197615 31715 net.cpp:148] Top shape: 100 4096 (409600)
I0403 13:13:24.197664 31715 net.cpp:156] Memory required for data: 829887600
I0403 13:13:24.197679 31715 layer_factory.hpp:77] Creating layer drop7
I0403 13:13:24.197700 31715 net.cpp:91] Creating Layer drop7
I0403 13:13:24.197715 31715 net.cpp:425] drop7 <- fc7
I0403 13:13:24.197732 31715 net.cpp:386] drop7 -> fc7 (in-place)
I0403 13:13:24.197777 31715 net.cpp:141] Setting up drop7
I0403 13:13:24.197798 31715 net.cpp:148] Top shape: 100 4096 (409600)
I0403 13:13:24.197810 31715 net.cpp:156] Memory required for data: 831526000
I0403 13:13:24.197824 31715 layer_factory.hpp:77] Creating layer fc8_plantvillage
I0403 13:13:24.197847 31715 net.cpp:91] Creating Layer fc8_plantvillage
I0403 13:13:24.197862 31715 net.cpp:425] fc8_plantvillage <- fc7
I0403 13:13:24.197880 31715 net.cpp:399] fc8_plantvillage -> fc8_plantvillage
I0403 13:13:24.204957 31715 net.cpp:141] Setting up fc8_plantvillage
I0403 13:13:24.204988 31715 net.cpp:148] Top shape: 100 38 (3800)
I0403 13:13:24.205003 31715 net.cpp:156] Memory required for data: 831541200
I0403 13:13:24.205021 31715 layer_factory.hpp:77] Creating layer fc8_plantvillage_fc8_plantvillage_0_split
I0403 13:13:24.205040 31715 net.cpp:91] Creating Layer fc8_plantvillage_fc8_plantvillage_0_split
I0403 13:13:24.205056 31715 net.cpp:425] fc8_plantvillage_fc8_plantvillage_0_split <- fc8_plantvillage
I0403 13:13:24.205075 31715 net.cpp:399] fc8_plantvillage_fc8_plantvillage_0_split -> fc8_plantvillage_fc8_plantvillage_0_split_0
I0403 13:13:24.205096 31715 net.cpp:399] fc8_plantvillage_fc8_plantvillage_0_split -> fc8_plantvillage_fc8_plantvillage_0_split_1
I0403 13:13:24.205117 31715 net.cpp:399] fc8_plantvillage_fc8_plantvillage_0_split -> fc8_plantvillage_fc8_plantvillage_0_split_2
I0403 13:13:24.205194 31715 net.cpp:141] Setting up fc8_plantvillage_fc8_plantvillage_0_split
I0403 13:13:24.205222 31715 net.cpp:148] Top shape: 100 38 (3800)
I0403 13:13:24.205240 31715 net.cpp:148] Top shape: 100 38 (3800)
I0403 13:13:24.205255 31715 net.cpp:148] Top shape: 100 38 (3800)
I0403 13:13:24.205268 31715 net.cpp:156] Memory required for data: 831586800
I0403 13:13:24.205282 31715 layer_factory.hpp:77] Creating layer prob
I0403 13:13:24.205302 31715 net.cpp:91] Creating Layer prob
I0403 13:13:24.205317 31715 net.cpp:425] prob <- fc8_plantvillage_fc8_plantvillage_0_split_0
I0403 13:13:24.205334 31715 net.cpp:399] prob -> prob
I0403 13:13:24.205559 31715 net.cpp:141] Setting up prob
I0403 13:13:24.205585 31715 net.cpp:148] Top shape: 100 38 (3800)
I0403 13:13:24.205598 31715 net.cpp:156] Memory required for data: 831602000
I0403 13:13:24.205612 31715 layer_factory.hpp:77] Creating layer hdf5out
I0403 13:13:24.205634 31715 net.cpp:91] Creating Layer hdf5out
I0403 13:13:24.205651 31715 net.cpp:425] hdf5out <- prob
I0403 13:13:24.205667 31715 net.cpp:425] hdf5out <- label_data_1_split_0
I0403 13:13:24.208032 31715 net.cpp:141] Setting up hdf5out
…
