…
I0403 13:18:04.007732 31858 net.cpp:313] The NetState phase (1) differed from the phase (0) specified by a rule in layer data
I0403 13:18:04.008033 31858 net.cpp:49] Initializing net from parameters: 
state {
  phase: TEST
}
layer {
  name: "data"
  type: "Data"
  top: "data"
  top: "label"
  include {
    phase: TEST
  }
  transform_param {
    crop_size: 227
    mean_file: "/home/mohanty/data/final_dataset/lmdb/grayscale-60-40/mean.binaryproto"
  }
  data_param {
    source: "/home/mohanty/data/final_dataset/lmdb/grayscale-60-40/test_db"
    batch_size: 100
    backend: LMDB
  }
}
layer {
  name: "conv1"
  type: "Convolution"
  bottom: "data"
  top: "conv1"
  param {
    lr_mult: 1
    decay_mult: 1
  }
  param {
    lr_mult: 2
    decay_mult: 0
  }
  convolution_param {
    num_output: 96
    kernel_size: 11
    stride: 4
    weight_filler {
      type: "gaussian"
      std: 0.01
    }
    bias_filler {
      type: "constant"
      value: 0
    }
  }
}
layer {
  name: "relu1"
  type: "ReLU"
  bottom: "conv1"
  top: "conv1"
}
layer {
  name: "norm1"
  type: "LRN"
  bottom: "conv1"
  top: "norm1"
  lrn_param {
    local_size: 5
    alpha: 0.0001
    beta: 0.75
  }
}
layer {
  name: "pool1"
  type: "Pooling"
  bottom: "norm1"
  top: "pool1"
  pooling_param {
    pool: MAX
    kernel_size: 3
    stride: 2
  }
}
layer {
  name: "conv2"
  type: "Convolution"
  bottom: "pool1"
  top: "conv2"
  param {
    lr_mult: 1
    decay_mult: 1
  }
  param {
    lr_mult: 2
    decay_mult: 0
  }
  convolution_param {
    num_output: 256
    pad: 2
    kernel_size: 5
    group: 2
    weight_filler {
      type: "gaussian"
      std: 0.01
    }
    bias_filler {
      type: "constant"
      value: 0.1
    }
  }
}
layer {
  name: "relu2"
  type: "ReLU"
  bottom: "conv2"
  top: "conv2"
}
layer {
  name: "norm2"
  type: "LRN"
  bottom: "conv2"
  top: "norm2"
  lrn_param {
    local_size: 5
    alpha: 0.0001
    beta: 0.75
  }
}
layer {
  name: "pool2"
  type: "Pooling"
  bottom: "norm2"
  top: "pool2"
  pooling_param {
    pool: MAX
    kernel_size: 3
    stride: 2
  }
}
layer {
  name: "conv3"
  type: "Convolution"
  bottom: "pool2"
  top: "conv3"
  param {
    lr_mult: 1
    decay_mult: 1
  }
  param {
    lr_mult: 2
    decay_mult: 0
  }
  convolution_param {
    num_output: 384
    pad: 1
    kernel_size: 3
    weight_filler {
      type: "gaussian"
      std: 0.01
    }
    bias_filler {
      type: "constant"
      value: 0
    }
  }
}
layer {
  name: "relu3"
  type: "ReLU"
  bottom: "conv3"
  top: "conv3"
}
layer {
  name: "conv4"
  type: "Convolution"
  bottom: "conv3"
  top: "conv4"
  param {
    lr_mult: 1
    decay_mult: 1
  }
  param {
    lr_mult: 2
    decay_mult: 0
  }
  convolution_param {
    num_output: 384
    pad: 1
    kernel_size: 3
    group: 2
    weight_filler {
      type: "gaussian"
      std: 0.01
    }
    bias_filler {
      type: "constant"
      value: 0.1
    }
  }
}
layer {
  name: "relu4"
  type: "ReLU"
  bottom: "conv4"
  top: "conv4"
}
layer {
  name: "conv5"
  type: "Convolution"
  bottom: "conv4"
  top: "conv5"
  param {
    lr_mult: 1
    decay_mult: 1
  }
  param {
    lr_mult: 2
    decay_mult: 0
  }
  convolution_param {
    num_output: 256
    pad: 1
    kernel_size: 3
    group: 2
    weight_filler {
      type: "gaussian"
      std: 0.01
    }
    bias_filler {
      type: "constant"
      value: 0.1
    }
  }
}
layer {
  name: "relu5"
  type: "ReLU"
  bottom: "conv5"
  top: "conv5"
}
layer {
  name: "pool5"
  type: "Pooling"
  bottom: "conv5"
  top: "pool5"
  pooling_param {
    pool: MAX
    kernel_size: 3
    stride: 2
  }
}
layer {
  name: "fc6"
  type: "InnerProduct"
  bottom: "pool5"
  top: "fc6"
  param {
    lr_mult: 1
    decay_mult: 1
  }
  param {
    lr_mult: 2
    decay_mult: 0
  }
  inner_product_param {
    num_output: 4096
    weight_filler {
      type: "gaussian"
      std: 0.005
    }
    bias_filler {
      type: "constant"
      value: 0.1
    }
  }
}
layer {
  name: "relu6"
  type: "ReLU"
  bottom: "fc6"
  top: "fc6"
}
layer {
  name: "drop6"
  type: "Dropout"
  bottom: "fc6"
  top: "fc6"
  dropout_param {
    dropout_ratio: 0.5
  }
}
layer {
  name: "fc7"
  type: "InnerProduct"
  bottom: "fc6"
  top: "fc7"
  param {
    lr_mult: 1
    decay_mult: 1
  }
  param {
    lr_mult: 2
    decay_mult: 0
  }
  inner_product_param {
    num_output: 4096
    weight_filler {
      type: "gaussian"
      std: 0.005
    }
    bias_filler {
      type: "constant"
      value: 0.1
    }
  }
}
layer {
  name: "relu7"
  type: "ReLU"
  bottom: "fc7"
  top: "fc7"
}
layer {
  name: "drop7"
  type: "Dropout"
  bottom: "fc7"
  top: "fc7"
  dropout_param {
    dropout_ratio: 0.5
  }
}
layer {
  name: "fc8_plantvillage"
  type: "InnerProduct"
  bottom: "fc7"
  top: "fc8_plantvillage"
  param {
    lr_mult: 1
    decay_mult: 1
  }
  param {
    lr_mult: 2
    decay_mult: 0
  }
  inner_product_param {
    num_output: 38
    weight_filler {
      type: "gaussian"
      std: 0.01
    }
    bias_filler {
      type: "constant"
      value: 0
    }
  }
}
layer {
  name: "prob"
  type: "Softmax"
  bottom: "fc8_plantvillage"
  top: "prob"
  include {
    phase: TEST
  }
}
layer {
  name: "hdf5out"
  type: "HDF5Output"
  bottom: "prob"
  bottom: "label"
  include {
    phase: TEST
  }
  hdf5_output_param {
    file_name: "hdf5_dumps/iter_3900.h5"
  }
}
layer {
  name: "loss"
  type: "SoftmaxWithLoss"
  bottom: "fc8_plantvillage"
  bottom: "label"
  top: "loss"
}
layer {
  name: "accuracy"
  type: "Accuracy"
  bottom: "fc8_plantvillage"
  bottom: "label"
  top: "accuracy"
  include {
    phase: TEST
  }
}
I0403 13:18:04.008721 31858 layer_factory.hpp:77] Creating layer data
I0403 13:18:04.009402 31858 net.cpp:91] Creating Layer data
I0403 13:18:04.009433 31858 net.cpp:399] data -> data
I0403 13:18:04.009487 31858 net.cpp:399] data -> label
I0403 13:18:04.009524 31858 data_transformer.cpp:25] Loading mean file from: /home/mohanty/data/final_dataset/lmdb/grayscale-60-40/mean.binaryproto
I0403 13:18:04.012466 31861 db_lmdb.cpp:38] Opened lmdb /home/mohanty/data/final_dataset/lmdb/grayscale-60-40/test_db
I0403 13:18:04.024219 31858 data_layer.cpp:41] output data size: 100,3,227,227
I0403 13:18:04.145608 31858 net.cpp:141] Setting up data
I0403 13:18:04.145712 31858 net.cpp:148] Top shape: 100 3 227 227 (15458700)
I0403 13:18:04.145735 31858 net.cpp:148] Top shape: 100 (100)
I0403 13:18:04.145750 31858 net.cpp:156] Memory required for data: 61835200
I0403 13:18:04.145776 31858 layer_factory.hpp:77] Creating layer label_data_1_split
I0403 13:18:04.145800 31858 net.cpp:91] Creating Layer label_data_1_split
I0403 13:18:04.145818 31858 net.cpp:425] label_data_1_split <- label
I0403 13:18:04.145848 31858 net.cpp:399] label_data_1_split -> label_data_1_split_0
I0403 13:18:04.145875 31858 net.cpp:399] label_data_1_split -> label_data_1_split_1
I0403 13:18:04.145896 31858 net.cpp:399] label_data_1_split -> label_data_1_split_2
I0403 13:18:04.145959 31858 net.cpp:141] Setting up label_data_1_split
I0403 13:18:04.145984 31858 net.cpp:148] Top shape: 100 (100)
I0403 13:18:04.146003 31858 net.cpp:148] Top shape: 100 (100)
I0403 13:18:04.146020 31858 net.cpp:148] Top shape: 100 (100)
I0403 13:18:04.146035 31858 net.cpp:156] Memory required for data: 61836400
I0403 13:18:04.146050 31858 layer_factory.hpp:77] Creating layer conv1
I0403 13:18:04.146082 31858 net.cpp:91] Creating Layer conv1
I0403 13:18:04.146100 31858 net.cpp:425] conv1 <- data
I0403 13:18:04.146121 31858 net.cpp:399] conv1 -> conv1
I0403 13:18:04.289291 31858 net.cpp:141] Setting up conv1
I0403 13:18:04.289378 31858 net.cpp:148] Top shape: 100 96 55 55 (29040000)
I0403 13:18:04.289397 31858 net.cpp:156] Memory required for data: 177996400
I0403 13:18:04.289429 31858 layer_factory.hpp:77] Creating layer relu1
I0403 13:18:04.289456 31858 net.cpp:91] Creating Layer relu1
I0403 13:18:04.289475 31858 net.cpp:425] relu1 <- conv1
I0403 13:18:04.289495 31858 net.cpp:386] relu1 -> conv1 (in-place)
I0403 13:18:04.289751 31858 net.cpp:141] Setting up relu1
I0403 13:18:04.289777 31858 net.cpp:148] Top shape: 100 96 55 55 (29040000)
I0403 13:18:04.289824 31858 net.cpp:156] Memory required for data: 294156400
I0403 13:18:04.289841 31858 layer_factory.hpp:77] Creating layer norm1
I0403 13:18:04.289868 31858 net.cpp:91] Creating Layer norm1
I0403 13:18:04.289898 31858 net.cpp:425] norm1 <- conv1
I0403 13:18:04.289916 31858 net.cpp:399] norm1 -> norm1
I0403 13:18:04.290232 31858 net.cpp:141] Setting up norm1
I0403 13:18:04.290261 31858 net.cpp:148] Top shape: 100 96 55 55 (29040000)
I0403 13:18:04.290276 31858 net.cpp:156] Memory required for data: 410316400
I0403 13:18:04.290290 31858 layer_factory.hpp:77] Creating layer pool1
I0403 13:18:04.290313 31858 net.cpp:91] Creating Layer pool1
I0403 13:18:04.290330 31858 net.cpp:425] pool1 <- norm1
I0403 13:18:04.290349 31858 net.cpp:399] pool1 -> pool1
I0403 13:18:04.290413 31858 net.cpp:141] Setting up pool1
I0403 13:18:04.290436 31858 net.cpp:148] Top shape: 100 96 27 27 (6998400)
I0403 13:18:04.290451 31858 net.cpp:156] Memory required for data: 438310000
I0403 13:18:04.290465 31858 layer_factory.hpp:77] Creating layer conv2
I0403 13:18:04.290496 31858 net.cpp:91] Creating Layer conv2
I0403 13:18:04.290513 31858 net.cpp:425] conv2 <- pool1
I0403 13:18:04.290531 31858 net.cpp:399] conv2 -> conv2
I0403 13:18:04.305987 31858 net.cpp:141] Setting up conv2
I0403 13:18:04.306038 31858 net.cpp:148] Top shape: 100 256 27 27 (18662400)
I0403 13:18:04.306056 31858 net.cpp:156] Memory required for data: 512959600
I0403 13:18:04.306077 31858 layer_factory.hpp:77] Creating layer relu2
I0403 13:18:04.306100 31858 net.cpp:91] Creating Layer relu2
I0403 13:18:04.306118 31858 net.cpp:425] relu2 <- conv2
I0403 13:18:04.306135 31858 net.cpp:386] relu2 -> conv2 (in-place)
I0403 13:18:04.306450 31858 net.cpp:141] Setting up relu2
I0403 13:18:04.306478 31858 net.cpp:148] Top shape: 100 256 27 27 (18662400)
I0403 13:18:04.306494 31858 net.cpp:156] Memory required for data: 587609200
I0403 13:18:04.306509 31858 layer_factory.hpp:77] Creating layer norm2
I0403 13:18:04.306534 31858 net.cpp:91] Creating Layer norm2
I0403 13:18:04.306550 31858 net.cpp:425] norm2 <- conv2
I0403 13:18:04.306571 31858 net.cpp:399] norm2 -> norm2
I0403 13:18:04.306766 31858 net.cpp:141] Setting up norm2
I0403 13:18:04.306792 31858 net.cpp:148] Top shape: 100 256 27 27 (18662400)
I0403 13:18:04.306807 31858 net.cpp:156] Memory required for data: 662258800
I0403 13:18:04.306823 31858 layer_factory.hpp:77] Creating layer pool2
I0403 13:18:04.306840 31858 net.cpp:91] Creating Layer pool2
I0403 13:18:04.306855 31858 net.cpp:425] pool2 <- norm2
I0403 13:18:04.306876 31858 net.cpp:399] pool2 -> pool2
I0403 13:18:04.306929 31858 net.cpp:141] Setting up pool2
I0403 13:18:04.306952 31858 net.cpp:148] Top shape: 100 256 13 13 (4326400)
I0403 13:18:04.306967 31858 net.cpp:156] Memory required for data: 679564400
I0403 13:18:04.306982 31858 layer_factory.hpp:77] Creating layer conv3
I0403 13:18:04.307008 31858 net.cpp:91] Creating Layer conv3
I0403 13:18:04.307024 31858 net.cpp:425] conv3 <- pool2
I0403 13:18:04.307045 31858 net.cpp:399] conv3 -> conv3
I0403 13:18:04.347367 31858 net.cpp:141] Setting up conv3
I0403 13:18:04.347452 31858 net.cpp:148] Top shape: 100 384 13 13 (6489600)
I0403 13:18:04.347470 31858 net.cpp:156] Memory required for data: 705522800
I0403 13:18:04.347494 31858 layer_factory.hpp:77] Creating layer relu3
I0403 13:18:04.347520 31858 net.cpp:91] Creating Layer relu3
I0403 13:18:04.347538 31858 net.cpp:425] relu3 <- conv3
I0403 13:18:04.347558 31858 net.cpp:386] relu3 -> conv3 (in-place)
I0403 13:18:04.347846 31858 net.cpp:141] Setting up relu3
I0403 13:18:04.347873 31858 net.cpp:148] Top shape: 100 384 13 13 (6489600)
I0403 13:18:04.347888 31858 net.cpp:156] Memory required for data: 731481200
I0403 13:18:04.347904 31858 layer_factory.hpp:77] Creating layer conv4
I0403 13:18:04.347930 31858 net.cpp:91] Creating Layer conv4
I0403 13:18:04.347947 31858 net.cpp:425] conv4 <- conv3
I0403 13:18:04.347968 31858 net.cpp:399] conv4 -> conv4
I0403 13:18:04.378440 31858 net.cpp:141] Setting up conv4
I0403 13:18:04.378520 31858 net.cpp:148] Top shape: 100 384 13 13 (6489600)
I0403 13:18:04.378568 31858 net.cpp:156] Memory required for data: 757439600
I0403 13:18:04.378592 31858 layer_factory.hpp:77] Creating layer relu4
I0403 13:18:04.378614 31858 net.cpp:91] Creating Layer relu4
I0403 13:18:04.378635 31858 net.cpp:425] relu4 <- conv4
I0403 13:18:04.378655 31858 net.cpp:386] relu4 -> conv4 (in-place)
I0403 13:18:04.378939 31858 net.cpp:141] Setting up relu4
I0403 13:18:04.378967 31858 net.cpp:148] Top shape: 100 384 13 13 (6489600)
I0403 13:18:04.378981 31858 net.cpp:156] Memory required for data: 783398000
I0403 13:18:04.378996 31858 layer_factory.hpp:77] Creating layer conv5
I0403 13:18:04.379070 31858 net.cpp:91] Creating Layer conv5
I0403 13:18:04.379092 31858 net.cpp:425] conv5 <- conv4
I0403 13:18:04.379115 31858 net.cpp:399] conv5 -> conv5
I0403 13:18:04.400089 31858 net.cpp:141] Setting up conv5
I0403 13:18:04.400164 31858 net.cpp:148] Top shape: 100 256 13 13 (4326400)
I0403 13:18:04.400187 31858 net.cpp:156] Memory required for data: 800703600
I0403 13:18:04.400213 31858 layer_factory.hpp:77] Creating layer relu5
I0403 13:18:04.400240 31858 net.cpp:91] Creating Layer relu5
I0403 13:18:04.400260 31858 net.cpp:425] relu5 <- conv5
I0403 13:18:04.400279 31858 net.cpp:386] relu5 -> conv5 (in-place)
I0403 13:18:04.400562 31858 net.cpp:141] Setting up relu5
I0403 13:18:04.400588 31858 net.cpp:148] Top shape: 100 256 13 13 (4326400)
I0403 13:18:04.400604 31858 net.cpp:156] Memory required for data: 818009200
I0403 13:18:04.400619 31858 layer_factory.hpp:77] Creating layer pool5
I0403 13:18:04.400645 31858 net.cpp:91] Creating Layer pool5
I0403 13:18:04.400662 31858 net.cpp:425] pool5 <- conv5
I0403 13:18:04.400681 31858 net.cpp:399] pool5 -> pool5
I0403 13:18:04.400744 31858 net.cpp:141] Setting up pool5
I0403 13:18:04.400768 31858 net.cpp:148] Top shape: 100 256 6 6 (921600)
I0403 13:18:04.400812 31858 net.cpp:156] Memory required for data: 821695600
I0403 13:18:04.400831 31858 layer_factory.hpp:77] Creating layer fc6
I0403 13:18:04.400862 31858 net.cpp:91] Creating Layer fc6
I0403 13:18:04.400882 31858 net.cpp:425] fc6 <- pool5
I0403 13:18:04.400900 31858 net.cpp:399] fc6 -> fc6
I0403 13:18:05.979346 31858 net.cpp:141] Setting up fc6
I0403 13:18:05.979434 31858 net.cpp:148] Top shape: 100 4096 (409600)
I0403 13:18:05.979450 31858 net.cpp:156] Memory required for data: 823334000
I0403 13:18:05.979472 31858 layer_factory.hpp:77] Creating layer relu6
I0403 13:18:05.979495 31858 net.cpp:91] Creating Layer relu6
I0403 13:18:05.979511 31858 net.cpp:425] relu6 <- fc6
I0403 13:18:05.979533 31858 net.cpp:386] relu6 -> fc6 (in-place)
I0403 13:18:05.979758 31858 net.cpp:141] Setting up relu6
I0403 13:18:05.979782 31858 net.cpp:148] Top shape: 100 4096 (409600)
I0403 13:18:05.979797 31858 net.cpp:156] Memory required for data: 824972400
I0403 13:18:05.979812 31858 layer_factory.hpp:77] Creating layer drop6
I0403 13:18:05.979830 31858 net.cpp:91] Creating Layer drop6
I0403 13:18:05.979846 31858 net.cpp:425] drop6 <- fc6
I0403 13:18:05.979864 31858 net.cpp:386] drop6 -> fc6 (in-place)
I0403 13:18:05.979919 31858 net.cpp:141] Setting up drop6
I0403 13:18:05.979943 31858 net.cpp:148] Top shape: 100 4096 (409600)
I0403 13:18:05.979956 31858 net.cpp:156] Memory required for data: 826610800
I0403 13:18:05.979971 31858 layer_factory.hpp:77] Creating layer fc7
I0403 13:18:05.979990 31858 net.cpp:91] Creating Layer fc7
I0403 13:18:05.980005 31858 net.cpp:425] fc7 <- fc6
I0403 13:18:05.980026 31858 net.cpp:399] fc7 -> fc7
I0403 13:18:06.666553 31858 net.cpp:141] Setting up fc7
I0403 13:18:06.666595 31858 net.cpp:148] Top shape: 100 4096 (409600)
I0403 13:18:06.666610 31858 net.cpp:156] Memory required for data: 828249200
I0403 13:18:06.666631 31858 layer_factory.hpp:77] Creating layer relu7
I0403 13:18:06.666656 31858 net.cpp:91] Creating Layer relu7
I0403 13:18:06.666673 31858 net.cpp:425] relu7 <- fc7
I0403 13:18:06.666692 31858 net.cpp:386] relu7 -> fc7 (in-place)
I0403 13:18:06.667115 31858 net.cpp:141] Setting up relu7
I0403 13:18:06.667141 31858 net.cpp:148] Top shape: 100 4096 (409600)
I0403 13:18:06.667196 31858 net.cpp:156] Memory required for data: 829887600
I0403 13:18:06.667213 31858 layer_factory.hpp:77] Creating layer drop7
I0403 13:18:06.667232 31858 net.cpp:91] Creating Layer drop7
I0403 13:18:06.667250 31858 net.cpp:425] drop7 <- fc7
I0403 13:18:06.667268 31858 net.cpp:386] drop7 -> fc7 (in-place)
I0403 13:18:06.667311 31858 net.cpp:141] Setting up drop7
I0403 13:18:06.667335 31858 net.cpp:148] Top shape: 100 4096 (409600)
I0403 13:18:06.667351 31858 net.cpp:156] Memory required for data: 831526000
I0403 13:18:06.667366 31858 layer_factory.hpp:77] Creating layer fc8_plantvillage
I0403 13:18:06.667397 31858 net.cpp:91] Creating Layer fc8_plantvillage
I0403 13:18:06.667412 31858 net.cpp:425] fc8_plantvillage <- fc7
I0403 13:18:06.667430 31858 net.cpp:399] fc8_plantvillage -> fc8_plantvillage
I0403 13:18:06.674108 31858 net.cpp:141] Setting up fc8_plantvillage
I0403 13:18:06.674137 31858 net.cpp:148] Top shape: 100 38 (3800)
I0403 13:18:06.674152 31858 net.cpp:156] Memory required for data: 831541200
I0403 13:18:06.674170 31858 layer_factory.hpp:77] Creating layer fc8_plantvillage_fc8_plantvillage_0_split
I0403 13:18:06.674197 31858 net.cpp:91] Creating Layer fc8_plantvillage_fc8_plantvillage_0_split
I0403 13:18:06.674214 31858 net.cpp:425] fc8_plantvillage_fc8_plantvillage_0_split <- fc8_plantvillage
I0403 13:18:06.674232 31858 net.cpp:399] fc8_plantvillage_fc8_plantvillage_0_split -> fc8_plantvillage_fc8_plantvillage_0_split_0
I0403 13:18:06.674252 31858 net.cpp:399] fc8_plantvillage_fc8_plantvillage_0_split -> fc8_plantvillage_fc8_plantvillage_0_split_1
I0403 13:18:06.674271 31858 net.cpp:399] fc8_plantvillage_fc8_plantvillage_0_split -> fc8_plantvillage_fc8_plantvillage_0_split_2
I0403 13:18:06.674350 31858 net.cpp:141] Setting up fc8_plantvillage_fc8_plantvillage_0_split
I0403 13:18:06.674372 31858 net.cpp:148] Top shape: 100 38 (3800)
I0403 13:18:06.674388 31858 net.cpp:148] Top shape: 100 38 (3800)
I0403 13:18:06.674404 31858 net.cpp:148] Top shape: 100 38 (3800)
I0403 13:18:06.674417 31858 net.cpp:156] Memory required for data: 831586800
I0403 13:18:06.674432 31858 layer_factory.hpp:77] Creating layer prob
I0403 13:18:06.674450 31858 net.cpp:91] Creating Layer prob
I0403 13:18:06.674464 31858 net.cpp:425] prob <- fc8_plantvillage_fc8_plantvillage_0_split_0
I0403 13:18:06.674484 31858 net.cpp:399] prob -> prob
I0403 13:18:06.674708 31858 net.cpp:141] Setting up prob
I0403 13:18:06.674733 31858 net.cpp:148] Top shape: 100 38 (3800)
I0403 13:18:06.674748 31858 net.cpp:156] Memory required for data: 831602000
I0403 13:18:06.674762 31858 layer_factory.hpp:77] Creating layer hdf5out
I0403 13:18:06.674783 31858 net.cpp:91] Creating Layer hdf5out
I0403 13:18:06.674799 31858 net.cpp:425] hdf5out <- prob
I0403 13:18:06.674814 31858 net.cpp:425] hdf5out <- label_data_1_split_0
I0403 13:18:06.677237 31858 net.cpp:141] Setting up hdf5out
…
