…
I0403 13:12:34.696102 31694 net.cpp:313] The NetState phase (1) differed from the phase (0) specified by a rule in layer data
I0403 13:12:34.696424 31694 net.cpp:49] Initializing net from parameters: 
state {
  phase: TEST
}
layer {
  name: "data"
  type: "Data"
  top: "data"
  top: "label"
  include {
    phase: TEST
  }
  transform_param {
    crop_size: 227
    mean_file: "/home/mohanty/data/final_dataset/lmdb/grayscale-60-40/mean.binaryproto"
  }
  data_param {
    source: "/home/mohanty/data/final_dataset/lmdb/grayscale-60-40/test_db"
    batch_size: 100
    backend: LMDB
  }
}
layer {
  name: "conv1"
  type: "Convolution"
  bottom: "data"
  top: "conv1"
  param {
    lr_mult: 1
    decay_mult: 1
  }
  param {
    lr_mult: 2
    decay_mult: 0
  }
  convolution_param {
    num_output: 96
    kernel_size: 11
    stride: 4
    weight_filler {
      type: "gaussian"
      std: 0.01
    }
    bias_filler {
      type: "constant"
      value: 0
    }
  }
}
layer {
  name: "relu1"
  type: "ReLU"
  bottom: "conv1"
  top: "conv1"
}
layer {
  name: "norm1"
  type: "LRN"
  bottom: "conv1"
  top: "norm1"
  lrn_param {
    local_size: 5
    alpha: 0.0001
    beta: 0.75
  }
}
layer {
  name: "pool1"
  type: "Pooling"
  bottom: "norm1"
  top: "pool1"
  pooling_param {
    pool: MAX
    kernel_size: 3
    stride: 2
  }
}
layer {
  name: "conv2"
  type: "Convolution"
  bottom: "pool1"
  top: "conv2"
  param {
    lr_mult: 1
    decay_mult: 1
  }
  param {
    lr_mult: 2
    decay_mult: 0
  }
  convolution_param {
    num_output: 256
    pad: 2
    kernel_size: 5
    group: 2
    weight_filler {
      type: "gaussian"
      std: 0.01
    }
    bias_filler {
      type: "constant"
      value: 0.1
    }
  }
}
layer {
  name: "relu2"
  type: "ReLU"
  bottom: "conv2"
  top: "conv2"
}
layer {
  name: "norm2"
  type: "LRN"
  bottom: "conv2"
  top: "norm2"
  lrn_param {
    local_size: 5
    alpha: 0.0001
    beta: 0.75
  }
}
layer {
  name: "pool2"
  type: "Pooling"
  bottom: "norm2"
  top: "pool2"
  pooling_param {
    pool: MAX
    kernel_size: 3
    stride: 2
  }
}
layer {
  name: "conv3"
  type: "Convolution"
  bottom: "pool2"
  top: "conv3"
  param {
    lr_mult: 1
    decay_mult: 1
  }
  param {
    lr_mult: 2
    decay_mult: 0
  }
  convolution_param {
    num_output: 384
    pad: 1
    kernel_size: 3
    weight_filler {
      type: "gaussian"
      std: 0.01
    }
    bias_filler {
      type: "constant"
      value: 0
    }
  }
}
layer {
  name: "relu3"
  type: "ReLU"
  bottom: "conv3"
  top: "conv3"
}
layer {
  name: "conv4"
  type: "Convolution"
  bottom: "conv3"
  top: "conv4"
  param {
    lr_mult: 1
    decay_mult: 1
  }
  param {
    lr_mult: 2
    decay_mult: 0
  }
  convolution_param {
    num_output: 384
    pad: 1
    kernel_size: 3
    group: 2
    weight_filler {
      type: "gaussian"
      std: 0.01
    }
    bias_filler {
      type: "constant"
      value: 0.1
    }
  }
}
layer {
  name: "relu4"
  type: "ReLU"
  bottom: "conv4"
  top: "conv4"
}
layer {
  name: "conv5"
  type: "Convolution"
  bottom: "conv4"
  top: "conv5"
  param {
    lr_mult: 1
    decay_mult: 1
  }
  param {
    lr_mult: 2
    decay_mult: 0
  }
  convolution_param {
    num_output: 256
    pad: 1
    kernel_size: 3
    group: 2
    weight_filler {
      type: "gaussian"
      std: 0.01
    }
    bias_filler {
      type: "constant"
      value: 0.1
    }
  }
}
layer {
  name: "relu5"
  type: "ReLU"
  bottom: "conv5"
  top: "conv5"
}
layer {
  name: "pool5"
  type: "Pooling"
  bottom: "conv5"
  top: "pool5"
  pooling_param {
    pool: MAX
    kernel_size: 3
    stride: 2
  }
}
layer {
  name: "fc6"
  type: "InnerProduct"
  bottom: "pool5"
  top: "fc6"
  param {
    lr_mult: 1
    decay_mult: 1
  }
  param {
    lr_mult: 2
    decay_mult: 0
  }
  inner_product_param {
    num_output: 4096
    weight_filler {
      type: "gaussian"
      std: 0.005
    }
    bias_filler {
      type: "constant"
      value: 0.1
    }
  }
}
layer {
  name: "relu6"
  type: "ReLU"
  bottom: "fc6"
  top: "fc6"
}
layer {
  name: "drop6"
  type: "Dropout"
  bottom: "fc6"
  top: "fc6"
  dropout_param {
    dropout_ratio: 0.5
  }
}
layer {
  name: "fc7"
  type: "InnerProduct"
  bottom: "fc6"
  top: "fc7"
  param {
    lr_mult: 1
    decay_mult: 1
  }
  param {
    lr_mult: 2
    decay_mult: 0
  }
  inner_product_param {
    num_output: 4096
    weight_filler {
      type: "gaussian"
      std: 0.005
    }
    bias_filler {
      type: "constant"
      value: 0.1
    }
  }
}
layer {
  name: "relu7"
  type: "ReLU"
  bottom: "fc7"
  top: "fc7"
}
layer {
  name: "drop7"
  type: "Dropout"
  bottom: "fc7"
  top: "fc7"
  dropout_param {
    dropout_ratio: 0.5
  }
}
layer {
  name: "fc8_plantvillage"
  type: "InnerProduct"
  bottom: "fc7"
  top: "fc8_plantvillage"
  param {
    lr_mult: 1
    decay_mult: 1
  }
  param {
    lr_mult: 2
    decay_mult: 0
  }
  inner_product_param {
    num_output: 38
    weight_filler {
      type: "gaussian"
      std: 0.01
    }
    bias_filler {
      type: "constant"
      value: 0
    }
  }
}
layer {
  name: "prob"
  type: "Softmax"
  bottom: "fc8_plantvillage"
  top: "prob"
  include {
    phase: TEST
  }
}
layer {
  name: "hdf5out"
  type: "HDF5Output"
  bottom: "prob"
  bottom: "label"
  include {
    phase: TEST
  }
  hdf5_output_param {
    file_name: "hdf5_dumps/iter_1625.h5"
  }
}
layer {
  name: "loss"
  type: "SoftmaxWithLoss"
  bottom: "fc8_plantvillage"
  bottom: "label"
  top: "loss"
}
layer {
  name: "accuracy"
  type: "Accuracy"
  bottom: "fc8_plantvillage"
  bottom: "label"
  top: "accuracy"
  include {
    phase: TEST
  }
}
I0403 13:12:34.697023 31694 layer_factory.hpp:77] Creating layer data
I0403 13:12:34.697688 31694 net.cpp:91] Creating Layer data
I0403 13:12:34.697721 31694 net.cpp:399] data -> data
I0403 13:12:34.697773 31694 net.cpp:399] data -> label
I0403 13:12:34.697809 31694 data_transformer.cpp:25] Loading mean file from: /home/mohanty/data/final_dataset/lmdb/grayscale-60-40/mean.binaryproto
I0403 13:12:34.700417 31697 db_lmdb.cpp:38] Opened lmdb /home/mohanty/data/final_dataset/lmdb/grayscale-60-40/test_db
I0403 13:12:34.712038 31694 data_layer.cpp:41] output data size: 100,3,227,227
I0403 13:12:34.830936 31694 net.cpp:141] Setting up data
I0403 13:12:34.831040 31694 net.cpp:148] Top shape: 100 3 227 227 (15458700)
I0403 13:12:34.831065 31694 net.cpp:148] Top shape: 100 (100)
I0403 13:12:34.831082 31694 net.cpp:156] Memory required for data: 61835200
I0403 13:12:34.831112 31694 layer_factory.hpp:77] Creating layer label_data_1_split
I0403 13:12:34.831138 31694 net.cpp:91] Creating Layer label_data_1_split
I0403 13:12:34.831158 31694 net.cpp:425] label_data_1_split <- label
I0403 13:12:34.831192 31694 net.cpp:399] label_data_1_split -> label_data_1_split_0
I0403 13:12:34.831225 31694 net.cpp:399] label_data_1_split -> label_data_1_split_1
I0403 13:12:34.831250 31694 net.cpp:399] label_data_1_split -> label_data_1_split_2
I0403 13:12:34.831317 31694 net.cpp:141] Setting up label_data_1_split
I0403 13:12:34.831341 31694 net.cpp:148] Top shape: 100 (100)
I0403 13:12:34.831360 31694 net.cpp:148] Top shape: 100 (100)
I0403 13:12:34.831377 31694 net.cpp:148] Top shape: 100 (100)
I0403 13:12:34.831393 31694 net.cpp:156] Memory required for data: 61836400
I0403 13:12:34.831409 31694 layer_factory.hpp:77] Creating layer conv1
I0403 13:12:34.831444 31694 net.cpp:91] Creating Layer conv1
I0403 13:12:34.831465 31694 net.cpp:425] conv1 <- data
I0403 13:12:34.831485 31694 net.cpp:399] conv1 -> conv1
I0403 13:12:34.975023 31694 net.cpp:141] Setting up conv1
I0403 13:12:34.975087 31694 net.cpp:148] Top shape: 100 96 55 55 (29040000)
I0403 13:12:34.975105 31694 net.cpp:156] Memory required for data: 177996400
I0403 13:12:34.975142 31694 layer_factory.hpp:77] Creating layer relu1
I0403 13:12:34.975170 31694 net.cpp:91] Creating Layer relu1
I0403 13:12:34.975190 31694 net.cpp:425] relu1 <- conv1
I0403 13:12:34.975213 31694 net.cpp:386] relu1 -> conv1 (in-place)
I0403 13:12:34.975468 31694 net.cpp:141] Setting up relu1
I0403 13:12:34.975495 31694 net.cpp:148] Top shape: 100 96 55 55 (29040000)
I0403 13:12:34.975540 31694 net.cpp:156] Memory required for data: 294156400
I0403 13:12:34.975558 31694 layer_factory.hpp:77] Creating layer norm1
I0403 13:12:34.975585 31694 net.cpp:91] Creating Layer norm1
I0403 13:12:34.975603 31694 net.cpp:425] norm1 <- conv1
I0403 13:12:34.975622 31694 net.cpp:399] norm1 -> norm1
I0403 13:12:34.975932 31694 net.cpp:141] Setting up norm1
I0403 13:12:34.975961 31694 net.cpp:148] Top shape: 100 96 55 55 (29040000)
I0403 13:12:34.975976 31694 net.cpp:156] Memory required for data: 410316400
I0403 13:12:34.975992 31694 layer_factory.hpp:77] Creating layer pool1
I0403 13:12:34.976016 31694 net.cpp:91] Creating Layer pool1
I0403 13:12:34.976033 31694 net.cpp:425] pool1 <- norm1
I0403 13:12:34.976052 31694 net.cpp:399] pool1 -> pool1
I0403 13:12:34.976119 31694 net.cpp:141] Setting up pool1
I0403 13:12:34.976145 31694 net.cpp:148] Top shape: 100 96 27 27 (6998400)
I0403 13:12:34.976160 31694 net.cpp:156] Memory required for data: 438310000
I0403 13:12:34.976176 31694 layer_factory.hpp:77] Creating layer conv2
I0403 13:12:34.976200 31694 net.cpp:91] Creating Layer conv2
I0403 13:12:34.976234 31694 net.cpp:425] conv2 <- pool1
I0403 13:12:34.976254 31694 net.cpp:399] conv2 -> conv2
I0403 13:12:34.991335 31694 net.cpp:141] Setting up conv2
I0403 13:12:34.991390 31694 net.cpp:148] Top shape: 100 256 27 27 (18662400)
I0403 13:12:34.991408 31694 net.cpp:156] Memory required for data: 512959600
I0403 13:12:34.991436 31694 layer_factory.hpp:77] Creating layer relu2
I0403 13:12:34.991457 31694 net.cpp:91] Creating Layer relu2
I0403 13:12:34.991475 31694 net.cpp:425] relu2 <- conv2
I0403 13:12:34.991497 31694 net.cpp:386] relu2 -> conv2 (in-place)
I0403 13:12:34.991780 31694 net.cpp:141] Setting up relu2
I0403 13:12:34.991807 31694 net.cpp:148] Top shape: 100 256 27 27 (18662400)
I0403 13:12:34.991823 31694 net.cpp:156] Memory required for data: 587609200
I0403 13:12:34.991838 31694 layer_factory.hpp:77] Creating layer norm2
I0403 13:12:34.991863 31694 net.cpp:91] Creating Layer norm2
I0403 13:12:34.991880 31694 net.cpp:425] norm2 <- conv2
I0403 13:12:34.991899 31694 net.cpp:399] norm2 -> norm2
I0403 13:12:34.992096 31694 net.cpp:141] Setting up norm2
I0403 13:12:34.992122 31694 net.cpp:148] Top shape: 100 256 27 27 (18662400)
I0403 13:12:34.992138 31694 net.cpp:156] Memory required for data: 662258800
I0403 13:12:34.992153 31694 layer_factory.hpp:77] Creating layer pool2
I0403 13:12:34.992172 31694 net.cpp:91] Creating Layer pool2
I0403 13:12:34.992199 31694 net.cpp:425] pool2 <- norm2
I0403 13:12:34.992236 31694 net.cpp:399] pool2 -> pool2
I0403 13:12:34.992295 31694 net.cpp:141] Setting up pool2
I0403 13:12:34.992318 31694 net.cpp:148] Top shape: 100 256 13 13 (4326400)
I0403 13:12:34.992334 31694 net.cpp:156] Memory required for data: 679564400
I0403 13:12:34.992350 31694 layer_factory.hpp:77] Creating layer conv3
I0403 13:12:34.992377 31694 net.cpp:91] Creating Layer conv3
I0403 13:12:34.992394 31694 net.cpp:425] conv3 <- pool2
I0403 13:12:34.992414 31694 net.cpp:399] conv3 -> conv3
I0403 13:12:35.031996 31694 net.cpp:141] Setting up conv3
I0403 13:12:35.032038 31694 net.cpp:148] Top shape: 100 384 13 13 (6489600)
I0403 13:12:35.032058 31694 net.cpp:156] Memory required for data: 705522800
I0403 13:12:35.032083 31694 layer_factory.hpp:77] Creating layer relu3
I0403 13:12:35.032107 31694 net.cpp:91] Creating Layer relu3
I0403 13:12:35.032125 31694 net.cpp:425] relu3 <- conv3
I0403 13:12:35.032147 31694 net.cpp:386] relu3 -> conv3 (in-place)
I0403 13:12:35.032438 31694 net.cpp:141] Setting up relu3
I0403 13:12:35.032467 31694 net.cpp:148] Top shape: 100 384 13 13 (6489600)
I0403 13:12:35.032483 31694 net.cpp:156] Memory required for data: 731481200
I0403 13:12:35.032500 31694 layer_factory.hpp:77] Creating layer conv4
I0403 13:12:35.032528 31694 net.cpp:91] Creating Layer conv4
I0403 13:12:35.032547 31694 net.cpp:425] conv4 <- conv3
I0403 13:12:35.032569 31694 net.cpp:399] conv4 -> conv4
I0403 13:12:35.069234 31694 net.cpp:141] Setting up conv4
I0403 13:12:35.069326 31694 net.cpp:148] Top shape: 100 384 13 13 (6489600)
I0403 13:12:35.069380 31694 net.cpp:156] Memory required for data: 757439600
I0403 13:12:35.069407 31694 layer_factory.hpp:77] Creating layer relu4
I0403 13:12:35.069430 31694 net.cpp:91] Creating Layer relu4
I0403 13:12:35.069449 31694 net.cpp:425] relu4 <- conv4
I0403 13:12:35.069473 31694 net.cpp:386] relu4 -> conv4 (in-place)
I0403 13:12:35.069761 31694 net.cpp:141] Setting up relu4
I0403 13:12:35.069792 31694 net.cpp:148] Top shape: 100 384 13 13 (6489600)
I0403 13:12:35.069809 31694 net.cpp:156] Memory required for data: 783398000
I0403 13:12:35.069826 31694 layer_factory.hpp:77] Creating layer conv5
I0403 13:12:35.069869 31694 net.cpp:91] Creating Layer conv5
I0403 13:12:35.069892 31694 net.cpp:425] conv5 <- conv4
I0403 13:12:35.069912 31694 net.cpp:399] conv5 -> conv5
I0403 13:12:35.091410 31694 net.cpp:141] Setting up conv5
I0403 13:12:35.091475 31694 net.cpp:148] Top shape: 100 256 13 13 (4326400)
I0403 13:12:35.091493 31694 net.cpp:156] Memory required for data: 800703600
I0403 13:12:35.091518 31694 layer_factory.hpp:77] Creating layer relu5
I0403 13:12:35.091541 31694 net.cpp:91] Creating Layer relu5
I0403 13:12:35.091558 31694 net.cpp:425] relu5 <- conv5
I0403 13:12:35.091579 31694 net.cpp:386] relu5 -> conv5 (in-place)
I0403 13:12:35.091871 31694 net.cpp:141] Setting up relu5
I0403 13:12:35.091899 31694 net.cpp:148] Top shape: 100 256 13 13 (4326400)
I0403 13:12:35.091915 31694 net.cpp:156] Memory required for data: 818009200
I0403 13:12:35.091930 31694 layer_factory.hpp:77] Creating layer pool5
I0403 13:12:35.091958 31694 net.cpp:91] Creating Layer pool5
I0403 13:12:35.091976 31694 net.cpp:425] pool5 <- conv5
I0403 13:12:35.091995 31694 net.cpp:399] pool5 -> pool5
I0403 13:12:35.092058 31694 net.cpp:141] Setting up pool5
I0403 13:12:35.092082 31694 net.cpp:148] Top shape: 100 256 6 6 (921600)
I0403 13:12:35.092098 31694 net.cpp:156] Memory required for data: 821695600
I0403 13:12:35.092114 31694 layer_factory.hpp:77] Creating layer fc6
I0403 13:12:35.092141 31694 net.cpp:91] Creating Layer fc6
I0403 13:12:35.092159 31694 net.cpp:425] fc6 <- pool5
I0403 13:12:35.092181 31694 net.cpp:399] fc6 -> fc6
I0403 13:12:36.660338 31694 net.cpp:141] Setting up fc6
I0403 13:12:36.660379 31694 net.cpp:148] Top shape: 100 4096 (409600)
I0403 13:12:36.660395 31694 net.cpp:156] Memory required for data: 823334000
I0403 13:12:36.660416 31694 layer_factory.hpp:77] Creating layer relu6
I0403 13:12:36.660440 31694 net.cpp:91] Creating Layer relu6
I0403 13:12:36.660459 31694 net.cpp:425] relu6 <- fc6
I0403 13:12:36.660481 31694 net.cpp:386] relu6 -> fc6 (in-place)
I0403 13:12:36.660696 31694 net.cpp:141] Setting up relu6
I0403 13:12:36.660719 31694 net.cpp:148] Top shape: 100 4096 (409600)
I0403 13:12:36.660732 31694 net.cpp:156] Memory required for data: 824972400
I0403 13:12:36.660747 31694 layer_factory.hpp:77] Creating layer drop6
I0403 13:12:36.660763 31694 net.cpp:91] Creating Layer drop6
I0403 13:12:36.660778 31694 net.cpp:425] drop6 <- fc6
I0403 13:12:36.660797 31694 net.cpp:386] drop6 -> fc6 (in-place)
I0403 13:12:36.660859 31694 net.cpp:141] Setting up drop6
I0403 13:12:36.660884 31694 net.cpp:148] Top shape: 100 4096 (409600)
I0403 13:12:36.660902 31694 net.cpp:156] Memory required for data: 826610800
I0403 13:12:36.660915 31694 layer_factory.hpp:77] Creating layer fc7
I0403 13:12:36.660934 31694 net.cpp:91] Creating Layer fc7
I0403 13:12:36.660949 31694 net.cpp:425] fc7 <- fc6
I0403 13:12:36.660969 31694 net.cpp:399] fc7 -> fc7
I0403 13:12:37.357822 31694 net.cpp:141] Setting up fc7
I0403 13:12:37.357903 31694 net.cpp:148] Top shape: 100 4096 (409600)
I0403 13:12:37.357919 31694 net.cpp:156] Memory required for data: 828249200
I0403 13:12:37.357941 31694 layer_factory.hpp:77] Creating layer relu7
I0403 13:12:37.357964 31694 net.cpp:91] Creating Layer relu7
I0403 13:12:37.357980 31694 net.cpp:425] relu7 <- fc7
I0403 13:12:37.358002 31694 net.cpp:386] relu7 -> fc7 (in-place)
I0403 13:12:37.358417 31694 net.cpp:141] Setting up relu7
I0403 13:12:37.358445 31694 net.cpp:148] Top shape: 100 4096 (409600)
I0403 13:12:37.358492 31694 net.cpp:156] Memory required for data: 829887600
I0403 13:12:37.358508 31694 layer_factory.hpp:77] Creating layer drop7
I0403 13:12:37.358527 31694 net.cpp:91] Creating Layer drop7
I0403 13:12:37.358542 31694 net.cpp:425] drop7 <- fc7
I0403 13:12:37.358563 31694 net.cpp:386] drop7 -> fc7 (in-place)
I0403 13:12:37.358608 31694 net.cpp:141] Setting up drop7
I0403 13:12:37.358628 31694 net.cpp:148] Top shape: 100 4096 (409600)
I0403 13:12:37.358644 31694 net.cpp:156] Memory required for data: 831526000
I0403 13:12:37.358659 31694 layer_factory.hpp:77] Creating layer fc8_plantvillage
I0403 13:12:37.358680 31694 net.cpp:91] Creating Layer fc8_plantvillage
I0403 13:12:37.358696 31694 net.cpp:425] fc8_plantvillage <- fc7
I0403 13:12:37.358716 31694 net.cpp:399] fc8_plantvillage -> fc8_plantvillage
I0403 13:12:37.365501 31694 net.cpp:141] Setting up fc8_plantvillage
I0403 13:12:37.365531 31694 net.cpp:148] Top shape: 100 38 (3800)
I0403 13:12:37.365547 31694 net.cpp:156] Memory required for data: 831541200
I0403 13:12:37.365566 31694 layer_factory.hpp:77] Creating layer fc8_plantvillage_fc8_plantvillage_0_split
I0403 13:12:37.365586 31694 net.cpp:91] Creating Layer fc8_plantvillage_fc8_plantvillage_0_split
I0403 13:12:37.365602 31694 net.cpp:425] fc8_plantvillage_fc8_plantvillage_0_split <- fc8_plantvillage
I0403 13:12:37.365623 31694 net.cpp:399] fc8_plantvillage_fc8_plantvillage_0_split -> fc8_plantvillage_fc8_plantvillage_0_split_0
I0403 13:12:37.365645 31694 net.cpp:399] fc8_plantvillage_fc8_plantvillage_0_split -> fc8_plantvillage_fc8_plantvillage_0_split_1
I0403 13:12:37.365665 31694 net.cpp:399] fc8_plantvillage_fc8_plantvillage_0_split -> fc8_plantvillage_fc8_plantvillage_0_split_2
I0403 13:12:37.365741 31694 net.cpp:141] Setting up fc8_plantvillage_fc8_plantvillage_0_split
I0403 13:12:37.365764 31694 net.cpp:148] Top shape: 100 38 (3800)
I0403 13:12:37.365782 31694 net.cpp:148] Top shape: 100 38 (3800)
I0403 13:12:37.365797 31694 net.cpp:148] Top shape: 100 38 (3800)
I0403 13:12:37.365811 31694 net.cpp:156] Memory required for data: 831586800
I0403 13:12:37.365826 31694 layer_factory.hpp:77] Creating layer prob
I0403 13:12:37.365844 31694 net.cpp:91] Creating Layer prob
I0403 13:12:37.365859 31694 net.cpp:425] prob <- fc8_plantvillage_fc8_plantvillage_0_split_0
I0403 13:12:37.365880 31694 net.cpp:399] prob -> prob
I0403 13:12:37.366104 31694 net.cpp:141] Setting up prob
I0403 13:12:37.366133 31694 net.cpp:148] Top shape: 100 38 (3800)
I0403 13:12:37.366148 31694 net.cpp:156] Memory required for data: 831602000
I0403 13:12:37.366163 31694 layer_factory.hpp:77] Creating layer hdf5out
I0403 13:12:37.366183 31694 net.cpp:91] Creating Layer hdf5out
I0403 13:12:37.366199 31694 net.cpp:425] hdf5out <- prob
I0403 13:12:37.366221 31694 net.cpp:425] hdf5out <- label_data_1_split_0
I0403 13:12:37.368579 31694 net.cpp:141] Setting up hdf5out
…
