…
I0403 13:30:33.228314 32358 net.cpp:313] The NetState phase (1) differed from the phase (0) specified by a rule in layer data
I0403 13:30:33.228617 32358 net.cpp:49] Initializing net from parameters: 
state {
  phase: TEST
}
layer {
  name: "data"
  type: "Data"
  top: "data"
  top: "label"
  include {
    phase: TEST
  }
  transform_param {
    crop_size: 227
    mean_file: "/home/mohanty/data/final_dataset/lmdb/grayscale-60-40/mean.binaryproto"
  }
  data_param {
    source: "/home/mohanty/data/final_dataset/lmdb/grayscale-60-40/test_db"
    batch_size: 100
    backend: LMDB
  }
}
layer {
  name: "conv1"
  type: "Convolution"
  bottom: "data"
  top: "conv1"
  param {
    lr_mult: 1
    decay_mult: 1
  }
  param {
    lr_mult: 2
    decay_mult: 0
  }
  convolution_param {
    num_output: 96
    kernel_size: 11
    stride: 4
    weight_filler {
      type: "gaussian"
      std: 0.01
    }
    bias_filler {
      type: "constant"
      value: 0
    }
  }
}
layer {
  name: "relu1"
  type: "ReLU"
  bottom: "conv1"
  top: "conv1"
}
layer {
  name: "norm1"
  type: "LRN"
  bottom: "conv1"
  top: "norm1"
  lrn_param {
    local_size: 5
    alpha: 0.0001
    beta: 0.75
  }
}
layer {
  name: "pool1"
  type: "Pooling"
  bottom: "norm1"
  top: "pool1"
  pooling_param {
    pool: MAX
    kernel_size: 3
    stride: 2
  }
}
layer {
  name: "conv2"
  type: "Convolution"
  bottom: "pool1"
  top: "conv2"
  param {
    lr_mult: 1
    decay_mult: 1
  }
  param {
    lr_mult: 2
    decay_mult: 0
  }
  convolution_param {
    num_output: 256
    pad: 2
    kernel_size: 5
    group: 2
    weight_filler {
      type: "gaussian"
      std: 0.01
    }
    bias_filler {
      type: "constant"
      value: 0.1
    }
  }
}
layer {
  name: "relu2"
  type: "ReLU"
  bottom: "conv2"
  top: "conv2"
}
layer {
  name: "norm2"
  type: "LRN"
  bottom: "conv2"
  top: "norm2"
  lrn_param {
    local_size: 5
    alpha: 0.0001
    beta: 0.75
  }
}
layer {
  name: "pool2"
  type: "Pooling"
  bottom: "norm2"
  top: "pool2"
  pooling_param {
    pool: MAX
    kernel_size: 3
    stride: 2
  }
}
layer {
  name: "conv3"
  type: "Convolution"
  bottom: "pool2"
  top: "conv3"
  param {
    lr_mult: 1
    decay_mult: 1
  }
  param {
    lr_mult: 2
    decay_mult: 0
  }
  convolution_param {
    num_output: 384
    pad: 1
    kernel_size: 3
    weight_filler {
      type: "gaussian"
      std: 0.01
    }
    bias_filler {
      type: "constant"
      value: 0
    }
  }
}
layer {
  name: "relu3"
  type: "ReLU"
  bottom: "conv3"
  top: "conv3"
}
layer {
  name: "conv4"
  type: "Convolution"
  bottom: "conv3"
  top: "conv4"
  param {
    lr_mult: 1
    decay_mult: 1
  }
  param {
    lr_mult: 2
    decay_mult: 0
  }
  convolution_param {
    num_output: 384
    pad: 1
    kernel_size: 3
    group: 2
    weight_filler {
      type: "gaussian"
      std: 0.01
    }
    bias_filler {
      type: "constant"
      value: 0.1
    }
  }
}
layer {
  name: "relu4"
  type: "ReLU"
  bottom: "conv4"
  top: "conv4"
}
layer {
  name: "conv5"
  type: "Convolution"
  bottom: "conv4"
  top: "conv5"
  param {
    lr_mult: 1
    decay_mult: 1
  }
  param {
    lr_mult: 2
    decay_mult: 0
  }
  convolution_param {
    num_output: 256
    pad: 1
    kernel_size: 3
    group: 2
    weight_filler {
      type: "gaussian"
      std: 0.01
    }
    bias_filler {
      type: "constant"
      value: 0.1
    }
  }
}
layer {
  name: "relu5"
  type: "ReLU"
  bottom: "conv5"
  top: "conv5"
}
layer {
  name: "pool5"
  type: "Pooling"
  bottom: "conv5"
  top: "pool5"
  pooling_param {
    pool: MAX
    kernel_size: 3
    stride: 2
  }
}
layer {
  name: "fc6"
  type: "InnerProduct"
  bottom: "pool5"
  top: "fc6"
  param {
    lr_mult: 1
    decay_mult: 1
  }
  param {
    lr_mult: 2
    decay_mult: 0
  }
  inner_product_param {
    num_output: 4096
    weight_filler {
      type: "gaussian"
      std: 0.005
    }
    bias_filler {
      type: "constant"
      value: 0.1
    }
  }
}
layer {
  name: "relu6"
  type: "ReLU"
  bottom: "fc6"
  top: "fc6"
}
layer {
  name: "drop6"
  type: "Dropout"
  bottom: "fc6"
  top: "fc6"
  dropout_param {
    dropout_ratio: 0.5
  }
}
layer {
  name: "fc7"
  type: "InnerProduct"
  bottom: "fc6"
  top: "fc7"
  param {
    lr_mult: 1
    decay_mult: 1
  }
  param {
    lr_mult: 2
    decay_mult: 0
  }
  inner_product_param {
    num_output: 4096
    weight_filler {
      type: "gaussian"
      std: 0.005
    }
    bias_filler {
      type: "constant"
      value: 0.1
    }
  }
}
layer {
  name: "relu7"
  type: "ReLU"
  bottom: "fc7"
  top: "fc7"
}
layer {
  name: "drop7"
  type: "Dropout"
  bottom: "fc7"
  top: "fc7"
  dropout_param {
    dropout_ratio: 0.5
  }
}
layer {
  name: "fc8_plantvillage"
  type: "InnerProduct"
  bottom: "fc7"
  top: "fc8_plantvillage"
  param {
    lr_mult: 1
    decay_mult: 1
  }
  param {
    lr_mult: 2
    decay_mult: 0
  }
  inner_product_param {
    num_output: 38
    weight_filler {
      type: "gaussian"
      std: 0.01
    }
    bias_filler {
      type: "constant"
      value: 0
    }
  }
}
layer {
  name: "prob"
  type: "Softmax"
  bottom: "fc8_plantvillage"
  top: "prob"
  include {
    phase: TEST
  }
}
layer {
  name: "hdf5out"
  type: "HDF5Output"
  bottom: "prob"
  bottom: "label"
  include {
    phase: TEST
  }
  hdf5_output_param {
    file_name: "hdf5_dumps/iter_9100.h5"
  }
}
layer {
  name: "loss"
  type: "SoftmaxWithLoss"
  bottom: "fc8_plantvillage"
  bottom: "label"
  top: "loss"
}
layer {
  name: "accuracy"
  type: "Accuracy"
  bottom: "fc8_plantvillage"
  bottom: "label"
  top: "accuracy"
  include {
    phase: TEST
  }
}
I0403 13:30:33.229293 32358 layer_factory.hpp:77] Creating layer data
I0403 13:30:33.229959 32358 net.cpp:91] Creating Layer data
I0403 13:30:33.229990 32358 net.cpp:399] data -> data
I0403 13:30:33.230043 32358 net.cpp:399] data -> label
I0403 13:30:33.230080 32358 data_transformer.cpp:25] Loading mean file from: /home/mohanty/data/final_dataset/lmdb/grayscale-60-40/mean.binaryproto
I0403 13:30:33.233222 32361 db_lmdb.cpp:38] Opened lmdb /home/mohanty/data/final_dataset/lmdb/grayscale-60-40/test_db
I0403 13:30:33.244643 32358 data_layer.cpp:41] output data size: 100,3,227,227
I0403 13:30:33.368115 32358 net.cpp:141] Setting up data
I0403 13:30:33.368228 32358 net.cpp:148] Top shape: 100 3 227 227 (15458700)
I0403 13:30:33.368252 32358 net.cpp:148] Top shape: 100 (100)
I0403 13:30:33.368268 32358 net.cpp:156] Memory required for data: 61835200
I0403 13:30:33.368296 32358 layer_factory.hpp:77] Creating layer label_data_1_split
I0403 13:30:33.368322 32358 net.cpp:91] Creating Layer label_data_1_split
I0403 13:30:33.368342 32358 net.cpp:425] label_data_1_split <- label
I0403 13:30:33.368374 32358 net.cpp:399] label_data_1_split -> label_data_1_split_0
I0403 13:30:33.368403 32358 net.cpp:399] label_data_1_split -> label_data_1_split_1
I0403 13:30:33.368423 32358 net.cpp:399] label_data_1_split -> label_data_1_split_2
I0403 13:30:33.368491 32358 net.cpp:141] Setting up label_data_1_split
I0403 13:30:33.368515 32358 net.cpp:148] Top shape: 100 (100)
I0403 13:30:33.368533 32358 net.cpp:148] Top shape: 100 (100)
I0403 13:30:33.368551 32358 net.cpp:148] Top shape: 100 (100)
I0403 13:30:33.368566 32358 net.cpp:156] Memory required for data: 61836400
I0403 13:30:33.368580 32358 layer_factory.hpp:77] Creating layer conv1
I0403 13:30:33.368613 32358 net.cpp:91] Creating Layer conv1
I0403 13:30:33.368633 32358 net.cpp:425] conv1 <- data
I0403 13:30:33.368652 32358 net.cpp:399] conv1 -> conv1
I0403 13:30:33.515801 32358 net.cpp:141] Setting up conv1
I0403 13:30:33.515890 32358 net.cpp:148] Top shape: 100 96 55 55 (29040000)
I0403 13:30:33.515908 32358 net.cpp:156] Memory required for data: 177996400
I0403 13:30:33.515939 32358 layer_factory.hpp:77] Creating layer relu1
I0403 13:30:33.515967 32358 net.cpp:91] Creating Layer relu1
I0403 13:30:33.515986 32358 net.cpp:425] relu1 <- conv1
I0403 13:30:33.516005 32358 net.cpp:386] relu1 -> conv1 (in-place)
I0403 13:30:33.516269 32358 net.cpp:141] Setting up relu1
I0403 13:30:33.516296 32358 net.cpp:148] Top shape: 100 96 55 55 (29040000)
I0403 13:30:33.516347 32358 net.cpp:156] Memory required for data: 294156400
I0403 13:30:33.516365 32358 layer_factory.hpp:77] Creating layer norm1
I0403 13:30:33.516392 32358 net.cpp:91] Creating Layer norm1
I0403 13:30:33.516410 32358 net.cpp:425] norm1 <- conv1
I0403 13:30:33.516429 32358 net.cpp:399] norm1 -> norm1
I0403 13:30:33.516738 32358 net.cpp:141] Setting up norm1
I0403 13:30:33.516767 32358 net.cpp:148] Top shape: 100 96 55 55 (29040000)
I0403 13:30:33.516783 32358 net.cpp:156] Memory required for data: 410316400
I0403 13:30:33.516799 32358 layer_factory.hpp:77] Creating layer pool1
I0403 13:30:33.516824 32358 net.cpp:91] Creating Layer pool1
I0403 13:30:33.516842 32358 net.cpp:425] pool1 <- norm1
I0403 13:30:33.516860 32358 net.cpp:399] pool1 -> pool1
I0403 13:30:33.516928 32358 net.cpp:141] Setting up pool1
I0403 13:30:33.516952 32358 net.cpp:148] Top shape: 100 96 27 27 (6998400)
I0403 13:30:33.516968 32358 net.cpp:156] Memory required for data: 438310000
I0403 13:30:33.516983 32358 layer_factory.hpp:77] Creating layer conv2
I0403 13:30:33.517007 32358 net.cpp:91] Creating Layer conv2
I0403 13:30:33.517024 32358 net.cpp:425] conv2 <- pool1
I0403 13:30:33.517042 32358 net.cpp:399] conv2 -> conv2
I0403 13:30:33.531935 32358 net.cpp:141] Setting up conv2
I0403 13:30:33.531992 32358 net.cpp:148] Top shape: 100 256 27 27 (18662400)
I0403 13:30:33.532011 32358 net.cpp:156] Memory required for data: 512959600
I0403 13:30:33.532033 32358 layer_factory.hpp:77] Creating layer relu2
I0403 13:30:33.532054 32358 net.cpp:91] Creating Layer relu2
I0403 13:30:33.532071 32358 net.cpp:425] relu2 <- conv2
I0403 13:30:33.532090 32358 net.cpp:386] relu2 -> conv2 (in-place)
I0403 13:30:33.532366 32358 net.cpp:141] Setting up relu2
I0403 13:30:33.532392 32358 net.cpp:148] Top shape: 100 256 27 27 (18662400)
I0403 13:30:33.532408 32358 net.cpp:156] Memory required for data: 587609200
I0403 13:30:33.532423 32358 layer_factory.hpp:77] Creating layer norm2
I0403 13:30:33.532445 32358 net.cpp:91] Creating Layer norm2
I0403 13:30:33.532464 32358 net.cpp:425] norm2 <- conv2
I0403 13:30:33.532483 32358 net.cpp:399] norm2 -> norm2
I0403 13:30:33.532670 32358 net.cpp:141] Setting up norm2
I0403 13:30:33.532696 32358 net.cpp:148] Top shape: 100 256 27 27 (18662400)
I0403 13:30:33.532711 32358 net.cpp:156] Memory required for data: 662258800
I0403 13:30:33.532727 32358 layer_factory.hpp:77] Creating layer pool2
I0403 13:30:33.532747 32358 net.cpp:91] Creating Layer pool2
I0403 13:30:33.532763 32358 net.cpp:425] pool2 <- norm2
I0403 13:30:33.532783 32358 net.cpp:399] pool2 -> pool2
I0403 13:30:33.532834 32358 net.cpp:141] Setting up pool2
I0403 13:30:33.532856 32358 net.cpp:148] Top shape: 100 256 13 13 (4326400)
I0403 13:30:33.532871 32358 net.cpp:156] Memory required for data: 679564400
I0403 13:30:33.532886 32358 layer_factory.hpp:77] Creating layer conv3
I0403 13:30:33.532909 32358 net.cpp:91] Creating Layer conv3
I0403 13:30:33.532928 32358 net.cpp:425] conv3 <- pool2
I0403 13:30:33.532946 32358 net.cpp:399] conv3 -> conv3
I0403 13:30:33.573606 32358 net.cpp:141] Setting up conv3
I0403 13:30:33.573662 32358 net.cpp:148] Top shape: 100 384 13 13 (6489600)
I0403 13:30:33.573679 32358 net.cpp:156] Memory required for data: 705522800
I0403 13:30:33.573706 32358 layer_factory.hpp:77] Creating layer relu3
I0403 13:30:33.573729 32358 net.cpp:91] Creating Layer relu3
I0403 13:30:33.573747 32358 net.cpp:425] relu3 <- conv3
I0403 13:30:33.573767 32358 net.cpp:386] relu3 -> conv3 (in-place)
I0403 13:30:33.574043 32358 net.cpp:141] Setting up relu3
I0403 13:30:33.574069 32358 net.cpp:148] Top shape: 100 384 13 13 (6489600)
I0403 13:30:33.574084 32358 net.cpp:156] Memory required for data: 731481200
I0403 13:30:33.574100 32358 layer_factory.hpp:77] Creating layer conv4
I0403 13:30:33.574123 32358 net.cpp:91] Creating Layer conv4
I0403 13:30:33.574139 32358 net.cpp:425] conv4 <- conv3
I0403 13:30:33.574158 32358 net.cpp:399] conv4 -> conv4
I0403 13:30:33.603749 32358 net.cpp:141] Setting up conv4
I0403 13:30:33.603828 32358 net.cpp:148] Top shape: 100 384 13 13 (6489600)
I0403 13:30:33.603878 32358 net.cpp:156] Memory required for data: 757439600
I0403 13:30:33.603899 32358 layer_factory.hpp:77] Creating layer relu4
I0403 13:30:33.603922 32358 net.cpp:91] Creating Layer relu4
I0403 13:30:33.603940 32358 net.cpp:425] relu4 <- conv4
I0403 13:30:33.603960 32358 net.cpp:386] relu4 -> conv4 (in-place)
I0403 13:30:33.604251 32358 net.cpp:141] Setting up relu4
I0403 13:30:33.604279 32358 net.cpp:148] Top shape: 100 384 13 13 (6489600)
I0403 13:30:33.604295 32358 net.cpp:156] Memory required for data: 783398000
I0403 13:30:33.604310 32358 layer_factory.hpp:77] Creating layer conv5
I0403 13:30:33.604336 32358 net.cpp:91] Creating Layer conv5
I0403 13:30:33.604354 32358 net.cpp:425] conv5 <- conv4
I0403 13:30:33.604377 32358 net.cpp:399] conv5 -> conv5
I0403 13:30:33.624672 32358 net.cpp:141] Setting up conv5
I0403 13:30:33.624725 32358 net.cpp:148] Top shape: 100 256 13 13 (4326400)
I0403 13:30:33.624742 32358 net.cpp:156] Memory required for data: 800703600
I0403 13:30:33.624770 32358 layer_factory.hpp:77] Creating layer relu5
I0403 13:30:33.624793 32358 net.cpp:91] Creating Layer relu5
I0403 13:30:33.624809 32358 net.cpp:425] relu5 <- conv5
I0403 13:30:33.624826 32358 net.cpp:386] relu5 -> conv5 (in-place)
I0403 13:30:33.625111 32358 net.cpp:141] Setting up relu5
I0403 13:30:33.625141 32358 net.cpp:148] Top shape: 100 256 13 13 (4326400)
I0403 13:30:33.625159 32358 net.cpp:156] Memory required for data: 818009200
I0403 13:30:33.625174 32358 layer_factory.hpp:77] Creating layer pool5
I0403 13:30:33.625200 32358 net.cpp:91] Creating Layer pool5
I0403 13:30:33.625218 32358 net.cpp:425] pool5 <- conv5
I0403 13:30:33.625241 32358 net.cpp:399] pool5 -> pool5
I0403 13:30:33.625301 32358 net.cpp:141] Setting up pool5
I0403 13:30:33.625325 32358 net.cpp:148] Top shape: 100 256 6 6 (921600)
I0403 13:30:33.625341 32358 net.cpp:156] Memory required for data: 821695600
I0403 13:30:33.625358 32358 layer_factory.hpp:77] Creating layer fc6
I0403 13:30:33.625392 32358 net.cpp:91] Creating Layer fc6
I0403 13:30:33.625414 32358 net.cpp:425] fc6 <- pool5
I0403 13:30:33.625437 32358 net.cpp:399] fc6 -> fc6
I0403 13:30:35.208124 32358 net.cpp:141] Setting up fc6
I0403 13:30:35.208186 32358 net.cpp:148] Top shape: 100 4096 (409600)
I0403 13:30:35.208205 32358 net.cpp:156] Memory required for data: 823334000
I0403 13:30:35.208227 32358 layer_factory.hpp:77] Creating layer relu6
I0403 13:30:35.208250 32358 net.cpp:91] Creating Layer relu6
I0403 13:30:35.208267 32358 net.cpp:425] relu6 <- fc6
I0403 13:30:35.208288 32358 net.cpp:386] relu6 -> fc6 (in-place)
I0403 13:30:35.208511 32358 net.cpp:141] Setting up relu6
I0403 13:30:35.208536 32358 net.cpp:148] Top shape: 100 4096 (409600)
I0403 13:30:35.208552 32358 net.cpp:156] Memory required for data: 824972400
I0403 13:30:35.208567 32358 layer_factory.hpp:77] Creating layer drop6
I0403 13:30:35.208588 32358 net.cpp:91] Creating Layer drop6
I0403 13:30:35.208605 32358 net.cpp:425] drop6 <- fc6
I0403 13:30:35.208621 32358 net.cpp:386] drop6 -> fc6 (in-place)
I0403 13:30:35.208674 32358 net.cpp:141] Setting up drop6
I0403 13:30:35.208698 32358 net.cpp:148] Top shape: 100 4096 (409600)
I0403 13:30:35.208711 32358 net.cpp:156] Memory required for data: 826610800
I0403 13:30:35.208726 32358 layer_factory.hpp:77] Creating layer fc7
I0403 13:30:35.208750 32358 net.cpp:91] Creating Layer fc7
I0403 13:30:35.208767 32358 net.cpp:425] fc7 <- fc6
I0403 13:30:35.208786 32358 net.cpp:399] fc7 -> fc7
I0403 13:30:35.909911 32358 net.cpp:141] Setting up fc7
I0403 13:30:35.910004 32358 net.cpp:148] Top shape: 100 4096 (409600)
I0403 13:30:35.910022 32358 net.cpp:156] Memory required for data: 828249200
I0403 13:30:35.910043 32358 layer_factory.hpp:77] Creating layer relu7
I0403 13:30:35.910068 32358 net.cpp:91] Creating Layer relu7
I0403 13:30:35.910086 32358 net.cpp:425] relu7 <- fc7
I0403 13:30:35.910105 32358 net.cpp:386] relu7 -> fc7 (in-place)
I0403 13:30:35.910523 32358 net.cpp:141] Setting up relu7
I0403 13:30:35.910550 32358 net.cpp:148] Top shape: 100 4096 (409600)
I0403 13:30:35.910598 32358 net.cpp:156] Memory required for data: 829887600
I0403 13:30:35.910614 32358 layer_factory.hpp:77] Creating layer drop7
I0403 13:30:35.910635 32358 net.cpp:91] Creating Layer drop7
I0403 13:30:35.910652 32358 net.cpp:425] drop7 <- fc7
I0403 13:30:35.910740 32358 net.cpp:386] drop7 -> fc7 (in-place)
I0403 13:30:35.910787 32358 net.cpp:141] Setting up drop7
I0403 13:30:35.910810 32358 net.cpp:148] Top shape: 100 4096 (409600)
I0403 13:30:35.910825 32358 net.cpp:156] Memory required for data: 831526000
I0403 13:30:35.910840 32358 layer_factory.hpp:77] Creating layer fc8_plantvillage
I0403 13:30:35.910861 32358 net.cpp:91] Creating Layer fc8_plantvillage
I0403 13:30:35.910876 32358 net.cpp:425] fc8_plantvillage <- fc7
I0403 13:30:35.910897 32358 net.cpp:399] fc8_plantvillage -> fc8_plantvillage
I0403 13:30:35.917832 32358 net.cpp:141] Setting up fc8_plantvillage
I0403 13:30:35.917865 32358 net.cpp:148] Top shape: 100 38 (3800)
I0403 13:30:35.917881 32358 net.cpp:156] Memory required for data: 831541200
I0403 13:30:35.917901 32358 layer_factory.hpp:77] Creating layer fc8_plantvillage_fc8_plantvillage_0_split
I0403 13:30:35.917919 32358 net.cpp:91] Creating Layer fc8_plantvillage_fc8_plantvillage_0_split
I0403 13:30:35.917937 32358 net.cpp:425] fc8_plantvillage_fc8_plantvillage_0_split <- fc8_plantvillage
I0403 13:30:35.917955 32358 net.cpp:399] fc8_plantvillage_fc8_plantvillage_0_split -> fc8_plantvillage_fc8_plantvillage_0_split_0
I0403 13:30:35.917976 32358 net.cpp:399] fc8_plantvillage_fc8_plantvillage_0_split -> fc8_plantvillage_fc8_plantvillage_0_split_1
I0403 13:30:35.917999 32358 net.cpp:399] fc8_plantvillage_fc8_plantvillage_0_split -> fc8_plantvillage_fc8_plantvillage_0_split_2
I0403 13:30:35.918081 32358 net.cpp:141] Setting up fc8_plantvillage_fc8_plantvillage_0_split
I0403 13:30:35.918104 32358 net.cpp:148] Top shape: 100 38 (3800)
I0403 13:30:35.918122 32358 net.cpp:148] Top shape: 100 38 (3800)
I0403 13:30:35.918138 32358 net.cpp:148] Top shape: 100 38 (3800)
I0403 13:30:35.918151 32358 net.cpp:156] Memory required for data: 831586800
I0403 13:30:35.918166 32358 layer_factory.hpp:77] Creating layer prob
I0403 13:30:35.918191 32358 net.cpp:91] Creating Layer prob
I0403 13:30:35.918208 32358 net.cpp:425] prob <- fc8_plantvillage_fc8_plantvillage_0_split_0
I0403 13:30:35.918227 32358 net.cpp:399] prob -> prob
I0403 13:30:35.918460 32358 net.cpp:141] Setting up prob
I0403 13:30:35.918486 32358 net.cpp:148] Top shape: 100 38 (3800)
I0403 13:30:35.918501 32358 net.cpp:156] Memory required for data: 831602000
I0403 13:30:35.918516 32358 layer_factory.hpp:77] Creating layer hdf5out
I0403 13:30:35.918539 32358 net.cpp:91] Creating Layer hdf5out
I0403 13:30:35.918556 32358 net.cpp:425] hdf5out <- prob
I0403 13:30:35.918572 32358 net.cpp:425] hdf5out <- label_data_1_split_0
I0403 13:30:35.920696 32358 net.cpp:141] Setting up hdf5out
…
