…
I0403 13:19:37.714347 31912 net.cpp:313] The NetState phase (1) differed from the phase (0) specified by a rule in layer data
I0403 13:19:37.714660 31912 net.cpp:49] Initializing net from parameters: 
state {
  phase: TEST
}
layer {
  name: "data"
  type: "Data"
  top: "data"
  top: "label"
  include {
    phase: TEST
  }
  transform_param {
    crop_size: 227
    mean_file: "/home/mohanty/data/final_dataset/lmdb/grayscale-60-40/mean.binaryproto"
  }
  data_param {
    source: "/home/mohanty/data/final_dataset/lmdb/grayscale-60-40/test_db"
    batch_size: 100
    backend: LMDB
  }
}
layer {
  name: "conv1"
  type: "Convolution"
  bottom: "data"
  top: "conv1"
  param {
    lr_mult: 1
    decay_mult: 1
  }
  param {
    lr_mult: 2
    decay_mult: 0
  }
  convolution_param {
    num_output: 96
    kernel_size: 11
    stride: 4
    weight_filler {
      type: "gaussian"
      std: 0.01
    }
    bias_filler {
      type: "constant"
      value: 0
    }
  }
}
layer {
  name: "relu1"
  type: "ReLU"
  bottom: "conv1"
  top: "conv1"
}
layer {
  name: "norm1"
  type: "LRN"
  bottom: "conv1"
  top: "norm1"
  lrn_param {
    local_size: 5
    alpha: 0.0001
    beta: 0.75
  }
}
layer {
  name: "pool1"
  type: "Pooling"
  bottom: "norm1"
  top: "pool1"
  pooling_param {
    pool: MAX
    kernel_size: 3
    stride: 2
  }
}
layer {
  name: "conv2"
  type: "Convolution"
  bottom: "pool1"
  top: "conv2"
  param {
    lr_mult: 1
    decay_mult: 1
  }
  param {
    lr_mult: 2
    decay_mult: 0
  }
  convolution_param {
    num_output: 256
    pad: 2
    kernel_size: 5
    group: 2
    weight_filler {
      type: "gaussian"
      std: 0.01
    }
    bias_filler {
      type: "constant"
      value: 0.1
    }
  }
}
layer {
  name: "relu2"
  type: "ReLU"
  bottom: "conv2"
  top: "conv2"
}
layer {
  name: "norm2"
  type: "LRN"
  bottom: "conv2"
  top: "norm2"
  lrn_param {
    local_size: 5
    alpha: 0.0001
    beta: 0.75
  }
}
layer {
  name: "pool2"
  type: "Pooling"
  bottom: "norm2"
  top: "pool2"
  pooling_param {
    pool: MAX
    kernel_size: 3
    stride: 2
  }
}
layer {
  name: "conv3"
  type: "Convolution"
  bottom: "pool2"
  top: "conv3"
  param {
    lr_mult: 1
    decay_mult: 1
  }
  param {
    lr_mult: 2
    decay_mult: 0
  }
  convolution_param {
    num_output: 384
    pad: 1
    kernel_size: 3
    weight_filler {
      type: "gaussian"
      std: 0.01
    }
    bias_filler {
      type: "constant"
      value: 0
    }
  }
}
layer {
  name: "relu3"
  type: "ReLU"
  bottom: "conv3"
  top: "conv3"
}
layer {
  name: "conv4"
  type: "Convolution"
  bottom: "conv3"
  top: "conv4"
  param {
    lr_mult: 1
    decay_mult: 1
  }
  param {
    lr_mult: 2
    decay_mult: 0
  }
  convolution_param {
    num_output: 384
    pad: 1
    kernel_size: 3
    group: 2
    weight_filler {
      type: "gaussian"
      std: 0.01
    }
    bias_filler {
      type: "constant"
      value: 0.1
    }
  }
}
layer {
  name: "relu4"
  type: "ReLU"
  bottom: "conv4"
  top: "conv4"
}
layer {
  name: "conv5"
  type: "Convolution"
  bottom: "conv4"
  top: "conv5"
  param {
    lr_mult: 1
    decay_mult: 1
  }
  param {
    lr_mult: 2
    decay_mult: 0
  }
  convolution_param {
    num_output: 256
    pad: 1
    kernel_size: 3
    group: 2
    weight_filler {
      type: "gaussian"
      std: 0.01
    }
    bias_filler {
      type: "constant"
      value: 0.1
    }
  }
}
layer {
  name: "relu5"
  type: "ReLU"
  bottom: "conv5"
  top: "conv5"
}
layer {
  name: "pool5"
  type: "Pooling"
  bottom: "conv5"
  top: "pool5"
  pooling_param {
    pool: MAX
    kernel_size: 3
    stride: 2
  }
}
layer {
  name: "fc6"
  type: "InnerProduct"
  bottom: "pool5"
  top: "fc6"
  param {
    lr_mult: 1
    decay_mult: 1
  }
  param {
    lr_mult: 2
    decay_mult: 0
  }
  inner_product_param {
    num_output: 4096
    weight_filler {
      type: "gaussian"
      std: 0.005
    }
    bias_filler {
      type: "constant"
      value: 0.1
    }
  }
}
layer {
  name: "relu6"
  type: "ReLU"
  bottom: "fc6"
  top: "fc6"
}
layer {
  name: "drop6"
  type: "Dropout"
  bottom: "fc6"
  top: "fc6"
  dropout_param {
    dropout_ratio: 0.5
  }
}
layer {
  name: "fc7"
  type: "InnerProduct"
  bottom: "fc6"
  top: "fc7"
  param {
    lr_mult: 1
    decay_mult: 1
  }
  param {
    lr_mult: 2
    decay_mult: 0
  }
  inner_product_param {
    num_output: 4096
    weight_filler {
      type: "gaussian"
      std: 0.005
    }
    bias_filler {
      type: "constant"
      value: 0.1
    }
  }
}
layer {
  name: "relu7"
  type: "ReLU"
  bottom: "fc7"
  top: "fc7"
}
layer {
  name: "drop7"
  type: "Dropout"
  bottom: "fc7"
  top: "fc7"
  dropout_param {
    dropout_ratio: 0.5
  }
}
layer {
  name: "fc8_plantvillage"
  type: "InnerProduct"
  bottom: "fc7"
  top: "fc8_plantvillage"
  param {
    lr_mult: 1
    decay_mult: 1
  }
  param {
    lr_mult: 2
    decay_mult: 0
  }
  inner_product_param {
    num_output: 38
    weight_filler {
      type: "gaussian"
      std: 0.01
    }
    bias_filler {
      type: "constant"
      value: 0
    }
  }
}
layer {
  name: "prob"
  type: "Softmax"
  bottom: "fc8_plantvillage"
  top: "prob"
  include {
    phase: TEST
  }
}
layer {
  name: "hdf5out"
  type: "HDF5Output"
  bottom: "prob"
  bottom: "label"
  include {
    phase: TEST
  }
  hdf5_output_param {
    file_name: "hdf5_dumps/iter_4550.h5"
  }
}
layer {
  name: "loss"
  type: "SoftmaxWithLoss"
  bottom: "fc8_plantvillage"
  bottom: "label"
  top: "loss"
}
layer {
  name: "accuracy"
  type: "Accuracy"
  bottom: "fc8_plantvillage"
  bottom: "label"
  top: "accuracy"
  include {
    phase: TEST
  }
}
I0403 13:19:37.715212 31912 layer_factory.hpp:77] Creating layer data
I0403 13:19:37.715906 31912 net.cpp:91] Creating Layer data
I0403 13:19:37.715936 31912 net.cpp:399] data -> data
I0403 13:19:37.715989 31912 net.cpp:399] data -> label
I0403 13:19:37.716028 31912 data_transformer.cpp:25] Loading mean file from: /home/mohanty/data/final_dataset/lmdb/grayscale-60-40/mean.binaryproto
I0403 13:19:37.718936 31917 db_lmdb.cpp:38] Opened lmdb /home/mohanty/data/final_dataset/lmdb/grayscale-60-40/test_db
I0403 13:19:37.730614 31912 data_layer.cpp:41] output data size: 100,3,227,227
I0403 13:19:37.853690 31912 net.cpp:141] Setting up data
I0403 13:19:37.853798 31912 net.cpp:148] Top shape: 100 3 227 227 (15458700)
I0403 13:19:37.853821 31912 net.cpp:148] Top shape: 100 (100)
I0403 13:19:37.853837 31912 net.cpp:156] Memory required for data: 61835200
I0403 13:19:37.853865 31912 layer_factory.hpp:77] Creating layer label_data_1_split
I0403 13:19:37.853891 31912 net.cpp:91] Creating Layer label_data_1_split
I0403 13:19:37.853909 31912 net.cpp:425] label_data_1_split <- label
I0403 13:19:37.853941 31912 net.cpp:399] label_data_1_split -> label_data_1_split_0
I0403 13:19:37.853970 31912 net.cpp:399] label_data_1_split -> label_data_1_split_1
I0403 13:19:37.853991 31912 net.cpp:399] label_data_1_split -> label_data_1_split_2
I0403 13:19:37.854058 31912 net.cpp:141] Setting up label_data_1_split
I0403 13:19:37.854080 31912 net.cpp:148] Top shape: 100 (100)
I0403 13:19:37.854097 31912 net.cpp:148] Top shape: 100 (100)
I0403 13:19:37.854115 31912 net.cpp:148] Top shape: 100 (100)
I0403 13:19:37.854128 31912 net.cpp:156] Memory required for data: 61836400
I0403 13:19:37.854145 31912 layer_factory.hpp:77] Creating layer conv1
I0403 13:19:37.854177 31912 net.cpp:91] Creating Layer conv1
I0403 13:19:37.854195 31912 net.cpp:425] conv1 <- data
I0403 13:19:37.854223 31912 net.cpp:399] conv1 -> conv1
I0403 13:19:38.000315 31912 net.cpp:141] Setting up conv1
I0403 13:19:38.000402 31912 net.cpp:148] Top shape: 100 96 55 55 (29040000)
I0403 13:19:38.000422 31912 net.cpp:156] Memory required for data: 177996400
I0403 13:19:38.000453 31912 layer_factory.hpp:77] Creating layer relu1
I0403 13:19:38.000483 31912 net.cpp:91] Creating Layer relu1
I0403 13:19:38.000501 31912 net.cpp:425] relu1 <- conv1
I0403 13:19:38.000521 31912 net.cpp:386] relu1 -> conv1 (in-place)
I0403 13:19:38.000788 31912 net.cpp:141] Setting up relu1
I0403 13:19:38.000816 31912 net.cpp:148] Top shape: 100 96 55 55 (29040000)
I0403 13:19:38.000865 31912 net.cpp:156] Memory required for data: 294156400
I0403 13:19:38.000883 31912 layer_factory.hpp:77] Creating layer norm1
I0403 13:19:38.000912 31912 net.cpp:91] Creating Layer norm1
I0403 13:19:38.000931 31912 net.cpp:425] norm1 <- conv1
I0403 13:19:38.000951 31912 net.cpp:399] norm1 -> norm1
I0403 13:19:38.001274 31912 net.cpp:141] Setting up norm1
I0403 13:19:38.001303 31912 net.cpp:148] Top shape: 100 96 55 55 (29040000)
I0403 13:19:38.001319 31912 net.cpp:156] Memory required for data: 410316400
I0403 13:19:38.001337 31912 layer_factory.hpp:77] Creating layer pool1
I0403 13:19:38.001361 31912 net.cpp:91] Creating Layer pool1
I0403 13:19:38.001379 31912 net.cpp:425] pool1 <- norm1
I0403 13:19:38.001399 31912 net.cpp:399] pool1 -> pool1
I0403 13:19:38.001469 31912 net.cpp:141] Setting up pool1
I0403 13:19:38.001494 31912 net.cpp:148] Top shape: 100 96 27 27 (6998400)
I0403 13:19:38.001509 31912 net.cpp:156] Memory required for data: 438310000
I0403 13:19:38.001525 31912 layer_factory.hpp:77] Creating layer conv2
I0403 13:19:38.001551 31912 net.cpp:91] Creating Layer conv2
I0403 13:19:38.001569 31912 net.cpp:425] conv2 <- pool1
I0403 13:19:38.001587 31912 net.cpp:399] conv2 -> conv2
I0403 13:19:38.017454 31912 net.cpp:141] Setting up conv2
I0403 13:19:38.017516 31912 net.cpp:148] Top shape: 100 256 27 27 (18662400)
I0403 13:19:38.017534 31912 net.cpp:156] Memory required for data: 512959600
I0403 13:19:38.017560 31912 layer_factory.hpp:77] Creating layer relu2
I0403 13:19:38.017580 31912 net.cpp:91] Creating Layer relu2
I0403 13:19:38.017598 31912 net.cpp:425] relu2 <- conv2
I0403 13:19:38.017619 31912 net.cpp:386] relu2 -> conv2 (in-place)
I0403 13:19:38.017910 31912 net.cpp:141] Setting up relu2
I0403 13:19:38.017938 31912 net.cpp:148] Top shape: 100 256 27 27 (18662400)
I0403 13:19:38.017954 31912 net.cpp:156] Memory required for data: 587609200
I0403 13:19:38.017971 31912 layer_factory.hpp:77] Creating layer norm2
I0403 13:19:38.017995 31912 net.cpp:91] Creating Layer norm2
I0403 13:19:38.018013 31912 net.cpp:425] norm2 <- conv2
I0403 13:19:38.018033 31912 net.cpp:399] norm2 -> norm2
I0403 13:19:38.018283 31912 net.cpp:141] Setting up norm2
I0403 13:19:38.018313 31912 net.cpp:148] Top shape: 100 256 27 27 (18662400)
I0403 13:19:38.018329 31912 net.cpp:156] Memory required for data: 662258800
I0403 13:19:38.018345 31912 layer_factory.hpp:77] Creating layer pool2
I0403 13:19:38.018364 31912 net.cpp:91] Creating Layer pool2
I0403 13:19:38.018380 31912 net.cpp:425] pool2 <- norm2
I0403 13:19:38.018401 31912 net.cpp:399] pool2 -> pool2
I0403 13:19:38.018457 31912 net.cpp:141] Setting up pool2
I0403 13:19:38.018482 31912 net.cpp:148] Top shape: 100 256 13 13 (4326400)
I0403 13:19:38.018497 31912 net.cpp:156] Memory required for data: 679564400
I0403 13:19:38.018513 31912 layer_factory.hpp:77] Creating layer conv3
I0403 13:19:38.018538 31912 net.cpp:91] Creating Layer conv3
I0403 13:19:38.018556 31912 net.cpp:425] conv3 <- pool2
I0403 13:19:38.018579 31912 net.cpp:399] conv3 -> conv3
I0403 13:19:38.060060 31912 net.cpp:141] Setting up conv3
I0403 13:19:38.060148 31912 net.cpp:148] Top shape: 100 384 13 13 (6489600)
I0403 13:19:38.060166 31912 net.cpp:156] Memory required for data: 705522800
I0403 13:19:38.060196 31912 layer_factory.hpp:77] Creating layer relu3
I0403 13:19:38.060225 31912 net.cpp:91] Creating Layer relu3
I0403 13:19:38.060245 31912 net.cpp:425] relu3 <- conv3
I0403 13:19:38.060274 31912 net.cpp:386] relu3 -> conv3 (in-place)
I0403 13:19:38.060569 31912 net.cpp:141] Setting up relu3
I0403 13:19:38.060596 31912 net.cpp:148] Top shape: 100 384 13 13 (6489600)
I0403 13:19:38.060612 31912 net.cpp:156] Memory required for data: 731481200
I0403 13:19:38.060628 31912 layer_factory.hpp:77] Creating layer conv4
I0403 13:19:38.060655 31912 net.cpp:91] Creating Layer conv4
I0403 13:19:38.060674 31912 net.cpp:425] conv4 <- conv3
I0403 13:19:38.060698 31912 net.cpp:399] conv4 -> conv4
I0403 13:19:38.092023 31912 net.cpp:141] Setting up conv4
I0403 13:19:38.092068 31912 net.cpp:148] Top shape: 100 384 13 13 (6489600)
I0403 13:19:38.092118 31912 net.cpp:156] Memory required for data: 757439600
I0403 13:19:38.092141 31912 layer_factory.hpp:77] Creating layer relu4
I0403 13:19:38.092164 31912 net.cpp:91] Creating Layer relu4
I0403 13:19:38.092181 31912 net.cpp:425] relu4 <- conv4
I0403 13:19:38.092202 31912 net.cpp:386] relu4 -> conv4 (in-place)
I0403 13:19:38.092514 31912 net.cpp:141] Setting up relu4
I0403 13:19:38.092548 31912 net.cpp:148] Top shape: 100 384 13 13 (6489600)
I0403 13:19:38.092564 31912 net.cpp:156] Memory required for data: 783398000
I0403 13:19:38.092581 31912 layer_factory.hpp:77] Creating layer conv5
I0403 13:19:38.092604 31912 net.cpp:91] Creating Layer conv5
I0403 13:19:38.092622 31912 net.cpp:425] conv5 <- conv4
I0403 13:19:38.092663 31912 net.cpp:399] conv5 -> conv5
I0403 13:19:38.114147 31912 net.cpp:141] Setting up conv5
I0403 13:19:38.114210 31912 net.cpp:148] Top shape: 100 256 13 13 (4326400)
I0403 13:19:38.114230 31912 net.cpp:156] Memory required for data: 800703600
I0403 13:19:38.114256 31912 layer_factory.hpp:77] Creating layer relu5
I0403 13:19:38.114277 31912 net.cpp:91] Creating Layer relu5
I0403 13:19:38.114295 31912 net.cpp:425] relu5 <- conv5
I0403 13:19:38.114316 31912 net.cpp:386] relu5 -> conv5 (in-place)
I0403 13:19:38.114598 31912 net.cpp:141] Setting up relu5
I0403 13:19:38.114626 31912 net.cpp:148] Top shape: 100 256 13 13 (4326400)
I0403 13:19:38.114644 31912 net.cpp:156] Memory required for data: 818009200
I0403 13:19:38.114658 31912 layer_factory.hpp:77] Creating layer pool5
I0403 13:19:38.114681 31912 net.cpp:91] Creating Layer pool5
I0403 13:19:38.114702 31912 net.cpp:425] pool5 <- conv5
I0403 13:19:38.114722 31912 net.cpp:399] pool5 -> pool5
I0403 13:19:38.114797 31912 net.cpp:141] Setting up pool5
I0403 13:19:38.114823 31912 net.cpp:148] Top shape: 100 256 6 6 (921600)
I0403 13:19:38.114838 31912 net.cpp:156] Memory required for data: 821695600
I0403 13:19:38.114855 31912 layer_factory.hpp:77] Creating layer fc6
I0403 13:19:38.114882 31912 net.cpp:91] Creating Layer fc6
I0403 13:19:38.114900 31912 net.cpp:425] fc6 <- pool5
I0403 13:19:38.114924 31912 net.cpp:399] fc6 -> fc6
I0403 13:19:39.680902 31912 net.cpp:141] Setting up fc6
I0403 13:19:39.680991 31912 net.cpp:148] Top shape: 100 4096 (409600)
I0403 13:19:39.681008 31912 net.cpp:156] Memory required for data: 823334000
I0403 13:19:39.681030 31912 layer_factory.hpp:77] Creating layer relu6
I0403 13:19:39.681053 31912 net.cpp:91] Creating Layer relu6
I0403 13:19:39.681071 31912 net.cpp:425] relu6 <- fc6
I0403 13:19:39.681090 31912 net.cpp:386] relu6 -> fc6 (in-place)
I0403 13:19:39.681321 31912 net.cpp:141] Setting up relu6
I0403 13:19:39.681349 31912 net.cpp:148] Top shape: 100 4096 (409600)
I0403 13:19:39.681363 31912 net.cpp:156] Memory required for data: 824972400
I0403 13:19:39.681380 31912 layer_factory.hpp:77] Creating layer drop6
I0403 13:19:39.681397 31912 net.cpp:91] Creating Layer drop6
I0403 13:19:39.681413 31912 net.cpp:425] drop6 <- fc6
I0403 13:19:39.681434 31912 net.cpp:386] drop6 -> fc6 (in-place)
I0403 13:19:39.681486 31912 net.cpp:141] Setting up drop6
I0403 13:19:39.681509 31912 net.cpp:148] Top shape: 100 4096 (409600)
I0403 13:19:39.681524 31912 net.cpp:156] Memory required for data: 826610800
I0403 13:19:39.681538 31912 layer_factory.hpp:77] Creating layer fc7
I0403 13:19:39.681560 31912 net.cpp:91] Creating Layer fc7
I0403 13:19:39.681578 31912 net.cpp:425] fc7 <- fc6
I0403 13:19:39.681598 31912 net.cpp:399] fc7 -> fc7
I0403 13:19:40.366827 31912 net.cpp:141] Setting up fc7
I0403 13:19:40.366894 31912 net.cpp:148] Top shape: 100 4096 (409600)
I0403 13:19:40.366910 31912 net.cpp:156] Memory required for data: 828249200
I0403 13:19:40.366931 31912 layer_factory.hpp:77] Creating layer relu7
I0403 13:19:40.366952 31912 net.cpp:91] Creating Layer relu7
I0403 13:19:40.366969 31912 net.cpp:425] relu7 <- fc7
I0403 13:19:40.366988 31912 net.cpp:386] relu7 -> fc7 (in-place)
I0403 13:19:40.367429 31912 net.cpp:141] Setting up relu7
I0403 13:19:40.367470 31912 net.cpp:148] Top shape: 100 4096 (409600)
I0403 13:19:40.367516 31912 net.cpp:156] Memory required for data: 829887600
I0403 13:19:40.367530 31912 layer_factory.hpp:77] Creating layer drop7
I0403 13:19:40.367549 31912 net.cpp:91] Creating Layer drop7
I0403 13:19:40.367564 31912 net.cpp:425] drop7 <- fc7
I0403 13:19:40.367581 31912 net.cpp:386] drop7 -> fc7 (in-place)
I0403 13:19:40.367625 31912 net.cpp:141] Setting up drop7
I0403 13:19:40.367646 31912 net.cpp:148] Top shape: 100 4096 (409600)
I0403 13:19:40.367660 31912 net.cpp:156] Memory required for data: 831526000
I0403 13:19:40.367674 31912 layer_factory.hpp:77] Creating layer fc8_plantvillage
I0403 13:19:40.367697 31912 net.cpp:91] Creating Layer fc8_plantvillage
I0403 13:19:40.367712 31912 net.cpp:425] fc8_plantvillage <- fc7
I0403 13:19:40.367730 31912 net.cpp:399] fc8_plantvillage -> fc8_plantvillage
I0403 13:19:40.374478 31912 net.cpp:141] Setting up fc8_plantvillage
I0403 13:19:40.374507 31912 net.cpp:148] Top shape: 100 38 (3800)
I0403 13:19:40.374522 31912 net.cpp:156] Memory required for data: 831541200
I0403 13:19:40.374541 31912 layer_factory.hpp:77] Creating layer fc8_plantvillage_fc8_plantvillage_0_split
I0403 13:19:40.374559 31912 net.cpp:91] Creating Layer fc8_plantvillage_fc8_plantvillage_0_split
I0403 13:19:40.374575 31912 net.cpp:425] fc8_plantvillage_fc8_plantvillage_0_split <- fc8_plantvillage
I0403 13:19:40.374595 31912 net.cpp:399] fc8_plantvillage_fc8_plantvillage_0_split -> fc8_plantvillage_fc8_plantvillage_0_split_0
I0403 13:19:40.374616 31912 net.cpp:399] fc8_plantvillage_fc8_plantvillage_0_split -> fc8_plantvillage_fc8_plantvillage_0_split_1
I0403 13:19:40.374636 31912 net.cpp:399] fc8_plantvillage_fc8_plantvillage_0_split -> fc8_plantvillage_fc8_plantvillage_0_split_2
I0403 13:19:40.374716 31912 net.cpp:141] Setting up fc8_plantvillage_fc8_plantvillage_0_split
I0403 13:19:40.374739 31912 net.cpp:148] Top shape: 100 38 (3800)
I0403 13:19:40.374755 31912 net.cpp:148] Top shape: 100 38 (3800)
I0403 13:19:40.374770 31912 net.cpp:148] Top shape: 100 38 (3800)
I0403 13:19:40.374784 31912 net.cpp:156] Memory required for data: 831586800
I0403 13:19:40.374799 31912 layer_factory.hpp:77] Creating layer prob
I0403 13:19:40.374820 31912 net.cpp:91] Creating Layer prob
I0403 13:19:40.374837 31912 net.cpp:425] prob <- fc8_plantvillage_fc8_plantvillage_0_split_0
I0403 13:19:40.374855 31912 net.cpp:399] prob -> prob
I0403 13:19:40.375075 31912 net.cpp:141] Setting up prob
I0403 13:19:40.375103 31912 net.cpp:148] Top shape: 100 38 (3800)
I0403 13:19:40.375120 31912 net.cpp:156] Memory required for data: 831602000
I0403 13:19:40.375135 31912 layer_factory.hpp:77] Creating layer hdf5out
I0403 13:19:40.375154 31912 net.cpp:91] Creating Layer hdf5out
I0403 13:19:40.375169 31912 net.cpp:425] hdf5out <- prob
I0403 13:19:40.375185 31912 net.cpp:425] hdf5out <- label_data_1_split_0
I0403 13:19:40.377756 31912 net.cpp:141] Setting up hdf5out
…
