…
I0403 13:09:25.271034 31611 net.cpp:313] The NetState phase (1) differed from the phase (0) specified by a rule in layer data
I0403 13:09:25.271352 31611 net.cpp:49] Initializing net from parameters: 
state {
  phase: TEST
}
layer {
  name: "data"
  type: "Data"
  top: "data"
  top: "label"
  include {
    phase: TEST
  }
  transform_param {
    crop_size: 227
    mean_file: "/home/mohanty/data/final_dataset/lmdb/grayscale-60-40/mean.binaryproto"
  }
  data_param {
    source: "/home/mohanty/data/final_dataset/lmdb/grayscale-60-40/test_db"
    batch_size: 100
    backend: LMDB
  }
}
layer {
  name: "conv1"
  type: "Convolution"
  bottom: "data"
  top: "conv1"
  param {
    lr_mult: 1
    decay_mult: 1
  }
  param {
    lr_mult: 2
    decay_mult: 0
  }
  convolution_param {
    num_output: 96
    kernel_size: 11
    stride: 4
    weight_filler {
      type: "gaussian"
      std: 0.01
    }
    bias_filler {
      type: "constant"
      value: 0
    }
  }
}
layer {
  name: "relu1"
  type: "ReLU"
  bottom: "conv1"
  top: "conv1"
}
layer {
  name: "norm1"
  type: "LRN"
  bottom: "conv1"
  top: "norm1"
  lrn_param {
    local_size: 5
    alpha: 0.0001
    beta: 0.75
  }
}
layer {
  name: "pool1"
  type: "Pooling"
  bottom: "norm1"
  top: "pool1"
  pooling_param {
    pool: MAX
    kernel_size: 3
    stride: 2
  }
}
layer {
  name: "conv2"
  type: "Convolution"
  bottom: "pool1"
  top: "conv2"
  param {
    lr_mult: 1
    decay_mult: 1
  }
  param {
    lr_mult: 2
    decay_mult: 0
  }
  convolution_param {
    num_output: 256
    pad: 2
    kernel_size: 5
    group: 2
    weight_filler {
      type: "gaussian"
      std: 0.01
    }
    bias_filler {
      type: "constant"
      value: 0.1
    }
  }
}
layer {
  name: "relu2"
  type: "ReLU"
  bottom: "conv2"
  top: "conv2"
}
layer {
  name: "norm2"
  type: "LRN"
  bottom: "conv2"
  top: "norm2"
  lrn_param {
    local_size: 5
    alpha: 0.0001
    beta: 0.75
  }
}
layer {
  name: "pool2"
  type: "Pooling"
  bottom: "norm2"
  top: "pool2"
  pooling_param {
    pool: MAX
    kernel_size: 3
    stride: 2
  }
}
layer {
  name: "conv3"
  type: "Convolution"
  bottom: "pool2"
  top: "conv3"
  param {
    lr_mult: 1
    decay_mult: 1
  }
  param {
    lr_mult: 2
    decay_mult: 0
  }
  convolution_param {
    num_output: 384
    pad: 1
    kernel_size: 3
    weight_filler {
      type: "gaussian"
      std: 0.01
    }
    bias_filler {
      type: "constant"
      value: 0
    }
  }
}
layer {
  name: "relu3"
  type: "ReLU"
  bottom: "conv3"
  top: "conv3"
}
layer {
  name: "conv4"
  type: "Convolution"
  bottom: "conv3"
  top: "conv4"
  param {
    lr_mult: 1
    decay_mult: 1
  }
  param {
    lr_mult: 2
    decay_mult: 0
  }
  convolution_param {
    num_output: 384
    pad: 1
    kernel_size: 3
    group: 2
    weight_filler {
      type: "gaussian"
      std: 0.01
    }
    bias_filler {
      type: "constant"
      value: 0.1
    }
  }
}
layer {
  name: "relu4"
  type: "ReLU"
  bottom: "conv4"
  top: "conv4"
}
layer {
  name: "conv5"
  type: "Convolution"
  bottom: "conv4"
  top: "conv5"
  param {
    lr_mult: 1
    decay_mult: 1
  }
  param {
    lr_mult: 2
    decay_mult: 0
  }
  convolution_param {
    num_output: 256
    pad: 1
    kernel_size: 3
    group: 2
    weight_filler {
      type: "gaussian"
      std: 0.01
    }
    bias_filler {
      type: "constant"
      value: 0.1
    }
  }
}
layer {
  name: "relu5"
  type: "ReLU"
  bottom: "conv5"
  top: "conv5"
}
layer {
  name: "pool5"
  type: "Pooling"
  bottom: "conv5"
  top: "pool5"
  pooling_param {
    pool: MAX
    kernel_size: 3
    stride: 2
  }
}
layer {
  name: "fc6"
  type: "InnerProduct"
  bottom: "pool5"
  top: "fc6"
  param {
    lr_mult: 1
    decay_mult: 1
  }
  param {
    lr_mult: 2
    decay_mult: 0
  }
  inner_product_param {
    num_output: 4096
    weight_filler {
      type: "gaussian"
      std: 0.005
    }
    bias_filler {
      type: "constant"
      value: 0.1
    }
  }
}
layer {
  name: "relu6"
  type: "ReLU"
  bottom: "fc6"
  top: "fc6"
}
layer {
  name: "drop6"
  type: "Dropout"
  bottom: "fc6"
  top: "fc6"
  dropout_param {
    dropout_ratio: 0.5
  }
}
layer {
  name: "fc7"
  type: "InnerProduct"
  bottom: "fc6"
  top: "fc7"
  param {
    lr_mult: 1
    decay_mult: 1
  }
  param {
    lr_mult: 2
    decay_mult: 0
  }
  inner_product_param {
    num_output: 4096
    weight_filler {
      type: "gaussian"
      std: 0.005
    }
    bias_filler {
      type: "constant"
      value: 0.1
    }
  }
}
layer {
  name: "relu7"
  type: "ReLU"
  bottom: "fc7"
  top: "fc7"
}
layer {
  name: "drop7"
  type: "Dropout"
  bottom: "fc7"
  top: "fc7"
  dropout_param {
    dropout_ratio: 0.5
  }
}
layer {
  name: "fc8_plantvillage"
  type: "InnerProduct"
  bottom: "fc7"
  top: "fc8_plantvillage"
  param {
    lr_mult: 1
    decay_mult: 1
  }
  param {
    lr_mult: 2
    decay_mult: 0
  }
  inner_product_param {
    num_output: 38
    weight_filler {
      type: "gaussian"
      std: 0.01
    }
    bias_filler {
      type: "constant"
      value: 0
    }
  }
}
layer {
  name: "prob"
  type: "Softmax"
  bottom: "fc8_plantvillage"
  top: "prob"
  include {
    phase: TEST
  }
}
layer {
  name: "hdf5out"
  type: "HDF5Output"
  bottom: "prob"
  bottom: "label"
  include {
    phase: TEST
  }
  hdf5_output_param {
    file_name: "hdf5_dumps/iter_325.h5"
  }
}
layer {
  name: "loss"
  type: "SoftmaxWithLoss"
  bottom: "fc8_plantvillage"
  bottom: "label"
  top: "loss"
}
layer {
  name: "accuracy"
  type: "Accuracy"
  bottom: "fc8_plantvillage"
  bottom: "label"
  top: "accuracy"
  include {
    phase: TEST
  }
}
I0403 13:09:25.271939 31611 layer_factory.hpp:77] Creating layer data
I0403 13:09:25.272575 31611 net.cpp:91] Creating Layer data
I0403 13:09:25.272605 31611 net.cpp:399] data -> data
I0403 13:09:25.272655 31611 net.cpp:399] data -> label
I0403 13:09:25.272693 31611 data_transformer.cpp:25] Loading mean file from: /home/mohanty/data/final_dataset/lmdb/grayscale-60-40/mean.binaryproto
I0403 13:09:25.341346 31613 db_lmdb.cpp:38] Opened lmdb /home/mohanty/data/final_dataset/lmdb/grayscale-60-40/test_db
I0403 13:09:25.369061 31611 data_layer.cpp:41] output data size: 100,3,227,227
I0403 13:09:25.504302 31611 net.cpp:141] Setting up data
I0403 13:09:25.504391 31611 net.cpp:148] Top shape: 100 3 227 227 (15458700)
I0403 13:09:25.504415 31611 net.cpp:148] Top shape: 100 (100)
I0403 13:09:25.504431 31611 net.cpp:156] Memory required for data: 61835200
I0403 13:09:25.504459 31611 layer_factory.hpp:77] Creating layer label_data_1_split
I0403 13:09:25.504485 31611 net.cpp:91] Creating Layer label_data_1_split
I0403 13:09:25.504504 31611 net.cpp:425] label_data_1_split <- label
I0403 13:09:25.504536 31611 net.cpp:399] label_data_1_split -> label_data_1_split_0
I0403 13:09:25.504565 31611 net.cpp:399] label_data_1_split -> label_data_1_split_1
I0403 13:09:25.504585 31611 net.cpp:399] label_data_1_split -> label_data_1_split_2
I0403 13:09:25.504652 31611 net.cpp:141] Setting up label_data_1_split
I0403 13:09:25.504674 31611 net.cpp:148] Top shape: 100 (100)
I0403 13:09:25.504691 31611 net.cpp:148] Top shape: 100 (100)
I0403 13:09:25.504709 31611 net.cpp:148] Top shape: 100 (100)
I0403 13:09:25.504722 31611 net.cpp:156] Memory required for data: 61836400
I0403 13:09:25.504739 31611 layer_factory.hpp:77] Creating layer conv1
I0403 13:09:25.504770 31611 net.cpp:91] Creating Layer conv1
I0403 13:09:25.504788 31611 net.cpp:425] conv1 <- data
I0403 13:09:25.504807 31611 net.cpp:399] conv1 -> conv1
I0403 13:09:25.647289 31611 net.cpp:141] Setting up conv1
I0403 13:09:25.647358 31611 net.cpp:148] Top shape: 100 96 55 55 (29040000)
I0403 13:09:25.647374 31611 net.cpp:156] Memory required for data: 177996400
I0403 13:09:25.647405 31611 layer_factory.hpp:77] Creating layer relu1
I0403 13:09:25.647433 31611 net.cpp:91] Creating Layer relu1
I0403 13:09:25.647450 31611 net.cpp:425] relu1 <- conv1
I0403 13:09:25.647469 31611 net.cpp:386] relu1 -> conv1 (in-place)
I0403 13:09:25.647717 31611 net.cpp:141] Setting up relu1
I0403 13:09:25.647744 31611 net.cpp:148] Top shape: 100 96 55 55 (29040000)
I0403 13:09:25.647789 31611 net.cpp:156] Memory required for data: 294156400
I0403 13:09:25.647806 31611 layer_factory.hpp:77] Creating layer norm1
I0403 13:09:25.647835 31611 net.cpp:91] Creating Layer norm1
I0403 13:09:25.647852 31611 net.cpp:425] norm1 <- conv1
I0403 13:09:25.647871 31611 net.cpp:399] norm1 -> norm1
I0403 13:09:25.648169 31611 net.cpp:141] Setting up norm1
I0403 13:09:25.648200 31611 net.cpp:148] Top shape: 100 96 55 55 (29040000)
I0403 13:09:25.648216 31611 net.cpp:156] Memory required for data: 410316400
I0403 13:09:25.648232 31611 layer_factory.hpp:77] Creating layer pool1
I0403 13:09:25.648255 31611 net.cpp:91] Creating Layer pool1
I0403 13:09:25.648272 31611 net.cpp:425] pool1 <- norm1
I0403 13:09:25.648290 31611 net.cpp:399] pool1 -> pool1
I0403 13:09:25.648355 31611 net.cpp:141] Setting up pool1
I0403 13:09:25.648378 31611 net.cpp:148] Top shape: 100 96 27 27 (6998400)
I0403 13:09:25.648393 31611 net.cpp:156] Memory required for data: 438310000
I0403 13:09:25.648407 31611 layer_factory.hpp:77] Creating layer conv2
I0403 13:09:25.648432 31611 net.cpp:91] Creating Layer conv2
I0403 13:09:25.648447 31611 net.cpp:425] conv2 <- pool1
I0403 13:09:25.648466 31611 net.cpp:399] conv2 -> conv2
I0403 13:09:25.663317 31611 net.cpp:141] Setting up conv2
I0403 13:09:25.663353 31611 net.cpp:148] Top shape: 100 256 27 27 (18662400)
I0403 13:09:25.663370 31611 net.cpp:156] Memory required for data: 512959600
I0403 13:09:25.663393 31611 layer_factory.hpp:77] Creating layer relu2
I0403 13:09:25.663411 31611 net.cpp:91] Creating Layer relu2
I0403 13:09:25.663427 31611 net.cpp:425] relu2 <- conv2
I0403 13:09:25.663445 31611 net.cpp:386] relu2 -> conv2 (in-place)
I0403 13:09:25.663710 31611 net.cpp:141] Setting up relu2
I0403 13:09:25.663736 31611 net.cpp:148] Top shape: 100 256 27 27 (18662400)
I0403 13:09:25.663753 31611 net.cpp:156] Memory required for data: 587609200
I0403 13:09:25.663769 31611 layer_factory.hpp:77] Creating layer norm2
I0403 13:09:25.663787 31611 net.cpp:91] Creating Layer norm2
I0403 13:09:25.663805 31611 net.cpp:425] norm2 <- conv2
I0403 13:09:25.663822 31611 net.cpp:399] norm2 -> norm2
I0403 13:09:25.664010 31611 net.cpp:141] Setting up norm2
I0403 13:09:25.664036 31611 net.cpp:148] Top shape: 100 256 27 27 (18662400)
I0403 13:09:25.664050 31611 net.cpp:156] Memory required for data: 662258800
I0403 13:09:25.664065 31611 layer_factory.hpp:77] Creating layer pool2
I0403 13:09:25.664084 31611 net.cpp:91] Creating Layer pool2
I0403 13:09:25.664100 31611 net.cpp:425] pool2 <- norm2
I0403 13:09:25.664120 31611 net.cpp:399] pool2 -> pool2
I0403 13:09:25.664183 31611 net.cpp:141] Setting up pool2
I0403 13:09:25.664208 31611 net.cpp:148] Top shape: 100 256 13 13 (4326400)
I0403 13:09:25.664223 31611 net.cpp:156] Memory required for data: 679564400
I0403 13:09:25.664237 31611 layer_factory.hpp:77] Creating layer conv3
I0403 13:09:25.664258 31611 net.cpp:91] Creating Layer conv3
I0403 13:09:25.664274 31611 net.cpp:425] conv3 <- pool2
I0403 13:09:25.664294 31611 net.cpp:399] conv3 -> conv3
I0403 13:09:25.702844 31611 net.cpp:141] Setting up conv3
I0403 13:09:25.702908 31611 net.cpp:148] Top shape: 100 384 13 13 (6489600)
I0403 13:09:25.702926 31611 net.cpp:156] Memory required for data: 705522800
I0403 13:09:25.702953 31611 layer_factory.hpp:77] Creating layer relu3
I0403 13:09:25.702977 31611 net.cpp:91] Creating Layer relu3
I0403 13:09:25.702996 31611 net.cpp:425] relu3 <- conv3
I0403 13:09:25.703016 31611 net.cpp:386] relu3 -> conv3 (in-place)
I0403 13:09:25.703308 31611 net.cpp:141] Setting up relu3
I0403 13:09:25.703336 31611 net.cpp:148] Top shape: 100 384 13 13 (6489600)
I0403 13:09:25.703352 31611 net.cpp:156] Memory required for data: 731481200
I0403 13:09:25.703368 31611 layer_factory.hpp:77] Creating layer conv4
I0403 13:09:25.703393 31611 net.cpp:91] Creating Layer conv4
I0403 13:09:25.703409 31611 net.cpp:425] conv4 <- conv3
I0403 13:09:25.703428 31611 net.cpp:399] conv4 -> conv4
I0403 13:09:25.733558 31611 net.cpp:141] Setting up conv4
I0403 13:09:25.733610 31611 net.cpp:148] Top shape: 100 384 13 13 (6489600)
I0403 13:09:25.733659 31611 net.cpp:156] Memory required for data: 757439600
I0403 13:09:25.733680 31611 layer_factory.hpp:77] Creating layer relu4
I0403 13:09:25.733703 31611 net.cpp:91] Creating Layer relu4
I0403 13:09:25.733721 31611 net.cpp:425] relu4 <- conv4
I0403 13:09:25.733741 31611 net.cpp:386] relu4 -> conv4 (in-place)
I0403 13:09:25.734031 31611 net.cpp:141] Setting up relu4
I0403 13:09:25.734060 31611 net.cpp:148] Top shape: 100 384 13 13 (6489600)
I0403 13:09:25.734076 31611 net.cpp:156] Memory required for data: 783398000
I0403 13:09:25.734091 31611 layer_factory.hpp:77] Creating layer conv5
I0403 13:09:25.734115 31611 net.cpp:91] Creating Layer conv5
I0403 13:09:25.734133 31611 net.cpp:425] conv5 <- conv4
I0403 13:09:25.734154 31611 net.cpp:399] conv5 -> conv5
I0403 13:09:25.755198 31611 net.cpp:141] Setting up conv5
I0403 13:09:25.755236 31611 net.cpp:148] Top shape: 100 256 13 13 (4326400)
I0403 13:09:25.755254 31611 net.cpp:156] Memory required for data: 800703600
I0403 13:09:25.755280 31611 layer_factory.hpp:77] Creating layer relu5
I0403 13:09:25.755307 31611 net.cpp:91] Creating Layer relu5
I0403 13:09:25.755326 31611 net.cpp:425] relu5 <- conv5
I0403 13:09:25.755344 31611 net.cpp:386] relu5 -> conv5 (in-place)
I0403 13:09:25.755626 31611 net.cpp:141] Setting up relu5
I0403 13:09:25.755661 31611 net.cpp:148] Top shape: 100 256 13 13 (4326400)
I0403 13:09:25.755686 31611 net.cpp:156] Memory required for data: 818009200
I0403 13:09:25.755707 31611 layer_factory.hpp:77] Creating layer pool5
I0403 13:09:25.755730 31611 net.cpp:91] Creating Layer pool5
I0403 13:09:25.755748 31611 net.cpp:425] pool5 <- conv5
I0403 13:09:25.755771 31611 net.cpp:399] pool5 -> pool5
I0403 13:09:25.755831 31611 net.cpp:141] Setting up pool5
I0403 13:09:25.755859 31611 net.cpp:148] Top shape: 100 256 6 6 (921600)
I0403 13:09:25.755878 31611 net.cpp:156] Memory required for data: 821695600
I0403 13:09:25.755900 31611 layer_factory.hpp:77] Creating layer fc6
I0403 13:09:25.755934 31611 net.cpp:91] Creating Layer fc6
I0403 13:09:25.755952 31611 net.cpp:425] fc6 <- pool5
I0403 13:09:25.755976 31611 net.cpp:399] fc6 -> fc6
I0403 13:09:27.389478 31611 net.cpp:141] Setting up fc6
I0403 13:09:27.389521 31611 net.cpp:148] Top shape: 100 4096 (409600)
I0403 13:09:27.389539 31611 net.cpp:156] Memory required for data: 823334000
I0403 13:09:27.389560 31611 layer_factory.hpp:77] Creating layer relu6
I0403 13:09:27.389582 31611 net.cpp:91] Creating Layer relu6
I0403 13:09:27.389598 31611 net.cpp:425] relu6 <- fc6
I0403 13:09:27.389619 31611 net.cpp:386] relu6 -> fc6 (in-place)
I0403 13:09:27.389849 31611 net.cpp:141] Setting up relu6
I0403 13:09:27.389876 31611 net.cpp:148] Top shape: 100 4096 (409600)
I0403 13:09:27.389892 31611 net.cpp:156] Memory required for data: 824972400
I0403 13:09:27.389907 31611 layer_factory.hpp:77] Creating layer drop6
I0403 13:09:27.389927 31611 net.cpp:91] Creating Layer drop6
I0403 13:09:27.389941 31611 net.cpp:425] drop6 <- fc6
I0403 13:09:27.389958 31611 net.cpp:386] drop6 -> fc6 (in-place)
I0403 13:09:27.390013 31611 net.cpp:141] Setting up drop6
I0403 13:09:27.390036 31611 net.cpp:148] Top shape: 100 4096 (409600)
I0403 13:09:27.390050 31611 net.cpp:156] Memory required for data: 826610800
I0403 13:09:27.390064 31611 layer_factory.hpp:77] Creating layer fc7
I0403 13:09:27.390085 31611 net.cpp:91] Creating Layer fc7
I0403 13:09:27.390113 31611 net.cpp:425] fc7 <- fc6
I0403 13:09:27.390130 31611 net.cpp:399] fc7 -> fc7
I0403 13:09:28.090504 31611 net.cpp:141] Setting up fc7
I0403 13:09:28.090585 31611 net.cpp:148] Top shape: 100 4096 (409600)
I0403 13:09:28.090601 31611 net.cpp:156] Memory required for data: 828249200
I0403 13:09:28.090625 31611 layer_factory.hpp:77] Creating layer relu7
I0403 13:09:28.090649 31611 net.cpp:91] Creating Layer relu7
I0403 13:09:28.090668 31611 net.cpp:425] relu7 <- fc7
I0403 13:09:28.090688 31611 net.cpp:386] relu7 -> fc7 (in-place)
I0403 13:09:28.091127 31611 net.cpp:141] Setting up relu7
I0403 13:09:28.091155 31611 net.cpp:148] Top shape: 100 4096 (409600)
I0403 13:09:28.091210 31611 net.cpp:156] Memory required for data: 829887600
I0403 13:09:28.091228 31611 layer_factory.hpp:77] Creating layer drop7
I0403 13:09:28.091249 31611 net.cpp:91] Creating Layer drop7
I0403 13:09:28.091265 31611 net.cpp:425] drop7 <- fc7
I0403 13:09:28.091284 31611 net.cpp:386] drop7 -> fc7 (in-place)
I0403 13:09:28.091331 31611 net.cpp:141] Setting up drop7
I0403 13:09:28.091367 31611 net.cpp:148] Top shape: 100 4096 (409600)
I0403 13:09:28.091380 31611 net.cpp:156] Memory required for data: 831526000
I0403 13:09:28.091397 31611 layer_factory.hpp:77] Creating layer fc8_plantvillage
I0403 13:09:28.091415 31611 net.cpp:91] Creating Layer fc8_plantvillage
I0403 13:09:28.091429 31611 net.cpp:425] fc8_plantvillage <- fc7
I0403 13:09:28.091449 31611 net.cpp:399] fc8_plantvillage -> fc8_plantvillage
I0403 13:09:28.098211 31611 net.cpp:141] Setting up fc8_plantvillage
I0403 13:09:28.098242 31611 net.cpp:148] Top shape: 100 38 (3800)
I0403 13:09:28.098258 31611 net.cpp:156] Memory required for data: 831541200
I0403 13:09:28.098278 31611 layer_factory.hpp:77] Creating layer fc8_plantvillage_fc8_plantvillage_0_split
I0403 13:09:28.098296 31611 net.cpp:91] Creating Layer fc8_plantvillage_fc8_plantvillage_0_split
I0403 13:09:28.098312 31611 net.cpp:425] fc8_plantvillage_fc8_plantvillage_0_split <- fc8_plantvillage
I0403 13:09:28.098330 31611 net.cpp:399] fc8_plantvillage_fc8_plantvillage_0_split -> fc8_plantvillage_fc8_plantvillage_0_split_0
I0403 13:09:28.098351 31611 net.cpp:399] fc8_plantvillage_fc8_plantvillage_0_split -> fc8_plantvillage_fc8_plantvillage_0_split_1
I0403 13:09:28.098373 31611 net.cpp:399] fc8_plantvillage_fc8_plantvillage_0_split -> fc8_plantvillage_fc8_plantvillage_0_split_2
I0403 13:09:28.098450 31611 net.cpp:141] Setting up fc8_plantvillage_fc8_plantvillage_0_split
I0403 13:09:28.098474 31611 net.cpp:148] Top shape: 100 38 (3800)
I0403 13:09:28.098490 31611 net.cpp:148] Top shape: 100 38 (3800)
I0403 13:09:28.098506 31611 net.cpp:148] Top shape: 100 38 (3800)
I0403 13:09:28.098520 31611 net.cpp:156] Memory required for data: 831586800
I0403 13:09:28.098534 31611 layer_factory.hpp:77] Creating layer prob
I0403 13:09:28.098552 31611 net.cpp:91] Creating Layer prob
I0403 13:09:28.098567 31611 net.cpp:425] prob <- fc8_plantvillage_fc8_plantvillage_0_split_0
I0403 13:09:28.098584 31611 net.cpp:399] prob -> prob
I0403 13:09:28.098806 31611 net.cpp:141] Setting up prob
I0403 13:09:28.098832 31611 net.cpp:148] Top shape: 100 38 (3800)
I0403 13:09:28.098847 31611 net.cpp:156] Memory required for data: 831602000
I0403 13:09:28.098862 31611 layer_factory.hpp:77] Creating layer hdf5out
I0403 13:09:28.098884 31611 net.cpp:91] Creating Layer hdf5out
I0403 13:09:28.098901 31611 net.cpp:425] hdf5out <- prob
I0403 13:09:28.098917 31611 net.cpp:425] hdf5out <- label_data_1_split_0
I0403 13:09:28.109922 31611 net.cpp:141] Setting up hdf5out
…
