…
I0403 13:28:57.924160 32311 net.cpp:313] The NetState phase (1) differed from the phase (0) specified by a rule in layer data
I0403 13:28:57.924456 32311 net.cpp:49] Initializing net from parameters: 
state {
  phase: TEST
}
layer {
  name: "data"
  type: "Data"
  top: "data"
  top: "label"
  include {
    phase: TEST
  }
  transform_param {
    crop_size: 227
    mean_file: "/home/mohanty/data/final_dataset/lmdb/grayscale-60-40/mean.binaryproto"
  }
  data_param {
    source: "/home/mohanty/data/final_dataset/lmdb/grayscale-60-40/test_db"
    batch_size: 100
    backend: LMDB
  }
}
layer {
  name: "conv1"
  type: "Convolution"
  bottom: "data"
  top: "conv1"
  param {
    lr_mult: 1
    decay_mult: 1
  }
  param {
    lr_mult: 2
    decay_mult: 0
  }
  convolution_param {
    num_output: 96
    kernel_size: 11
    stride: 4
    weight_filler {
      type: "gaussian"
      std: 0.01
    }
    bias_filler {
      type: "constant"
      value: 0
    }
  }
}
layer {
  name: "relu1"
  type: "ReLU"
  bottom: "conv1"
  top: "conv1"
}
layer {
  name: "norm1"
  type: "LRN"
  bottom: "conv1"
  top: "norm1"
  lrn_param {
    local_size: 5
    alpha: 0.0001
    beta: 0.75
  }
}
layer {
  name: "pool1"
  type: "Pooling"
  bottom: "norm1"
  top: "pool1"
  pooling_param {
    pool: MAX
    kernel_size: 3
    stride: 2
  }
}
layer {
  name: "conv2"
  type: "Convolution"
  bottom: "pool1"
  top: "conv2"
  param {
    lr_mult: 1
    decay_mult: 1
  }
  param {
    lr_mult: 2
    decay_mult: 0
  }
  convolution_param {
    num_output: 256
    pad: 2
    kernel_size: 5
    group: 2
    weight_filler {
      type: "gaussian"
      std: 0.01
    }
    bias_filler {
      type: "constant"
      value: 0.1
    }
  }
}
layer {
  name: "relu2"
  type: "ReLU"
  bottom: "conv2"
  top: "conv2"
}
layer {
  name: "norm2"
  type: "LRN"
  bottom: "conv2"
  top: "norm2"
  lrn_param {
    local_size: 5
    alpha: 0.0001
    beta: 0.75
  }
}
layer {
  name: "pool2"
  type: "Pooling"
  bottom: "norm2"
  top: "pool2"
  pooling_param {
    pool: MAX
    kernel_size: 3
    stride: 2
  }
}
layer {
  name: "conv3"
  type: "Convolution"
  bottom: "pool2"
  top: "conv3"
  param {
    lr_mult: 1
    decay_mult: 1
  }
  param {
    lr_mult: 2
    decay_mult: 0
  }
  convolution_param {
    num_output: 384
    pad: 1
    kernel_size: 3
    weight_filler {
      type: "gaussian"
      std: 0.01
    }
    bias_filler {
      type: "constant"
      value: 0
    }
  }
}
layer {
  name: "relu3"
  type: "ReLU"
  bottom: "conv3"
  top: "conv3"
}
layer {
  name: "conv4"
  type: "Convolution"
  bottom: "conv3"
  top: "conv4"
  param {
    lr_mult: 1
    decay_mult: 1
  }
  param {
    lr_mult: 2
    decay_mult: 0
  }
  convolution_param {
    num_output: 384
    pad: 1
    kernel_size: 3
    group: 2
    weight_filler {
      type: "gaussian"
      std: 0.01
    }
    bias_filler {
      type: "constant"
      value: 0.1
    }
  }
}
layer {
  name: "relu4"
  type: "ReLU"
  bottom: "conv4"
  top: "conv4"
}
layer {
  name: "conv5"
  type: "Convolution"
  bottom: "conv4"
  top: "conv5"
  param {
    lr_mult: 1
    decay_mult: 1
  }
  param {
    lr_mult: 2
    decay_mult: 0
  }
  convolution_param {
    num_output: 256
    pad: 1
    kernel_size: 3
    group: 2
    weight_filler {
      type: "gaussian"
      std: 0.01
    }
    bias_filler {
      type: "constant"
      value: 0.1
    }
  }
}
layer {
  name: "relu5"
  type: "ReLU"
  bottom: "conv5"
  top: "conv5"
}
layer {
  name: "pool5"
  type: "Pooling"
  bottom: "conv5"
  top: "pool5"
  pooling_param {
    pool: MAX
    kernel_size: 3
    stride: 2
  }
}
layer {
  name: "fc6"
  type: "InnerProduct"
  bottom: "pool5"
  top: "fc6"
  param {
    lr_mult: 1
    decay_mult: 1
  }
  param {
    lr_mult: 2
    decay_mult: 0
  }
  inner_product_param {
    num_output: 4096
    weight_filler {
      type: "gaussian"
      std: 0.005
    }
    bias_filler {
      type: "constant"
      value: 0.1
    }
  }
}
layer {
  name: "relu6"
  type: "ReLU"
  bottom: "fc6"
  top: "fc6"
}
layer {
  name: "drop6"
  type: "Dropout"
  bottom: "fc6"
  top: "fc6"
  dropout_param {
    dropout_ratio: 0.5
  }
}
layer {
  name: "fc7"
  type: "InnerProduct"
  bottom: "fc6"
  top: "fc7"
  param {
    lr_mult: 1
    decay_mult: 1
  }
  param {
    lr_mult: 2
    decay_mult: 0
  }
  inner_product_param {
    num_output: 4096
    weight_filler {
      type: "gaussian"
      std: 0.005
    }
    bias_filler {
      type: "constant"
      value: 0.1
    }
  }
}
layer {
  name: "relu7"
  type: "ReLU"
  bottom: "fc7"
  top: "fc7"
}
layer {
  name: "drop7"
  type: "Dropout"
  bottom: "fc7"
  top: "fc7"
  dropout_param {
    dropout_ratio: 0.5
  }
}
layer {
  name: "fc8_plantvillage"
  type: "InnerProduct"
  bottom: "fc7"
  top: "fc8_plantvillage"
  param {
    lr_mult: 1
    decay_mult: 1
  }
  param {
    lr_mult: 2
    decay_mult: 0
  }
  inner_product_param {
    num_output: 38
    weight_filler {
      type: "gaussian"
      std: 0.01
    }
    bias_filler {
      type: "constant"
      value: 0
    }
  }
}
layer {
  name: "prob"
  type: "Softmax"
  bottom: "fc8_plantvillage"
  top: "prob"
  include {
    phase: TEST
  }
}
layer {
  name: "hdf5out"
  type: "HDF5Output"
  bottom: "prob"
  bottom: "label"
  include {
    phase: TEST
  }
  hdf5_output_param {
    file_name: "hdf5_dumps/iter_8450.h5"
  }
}
layer {
  name: "loss"
  type: "SoftmaxWithLoss"
  bottom: "fc8_plantvillage"
  bottom: "label"
  top: "loss"
}
layer {
  name: "accuracy"
  type: "Accuracy"
  bottom: "fc8_plantvillage"
  bottom: "label"
  top: "accuracy"
  include {
    phase: TEST
  }
}
I0403 13:28:57.925078 32311 layer_factory.hpp:77] Creating layer data
I0403 13:28:57.925706 32311 net.cpp:91] Creating Layer data
I0403 13:28:57.925739 32311 net.cpp:399] data -> data
I0403 13:28:57.925786 32311 net.cpp:399] data -> label
I0403 13:28:57.925820 32311 data_transformer.cpp:25] Loading mean file from: /home/mohanty/data/final_dataset/lmdb/grayscale-60-40/mean.binaryproto
I0403 13:28:57.928758 32314 db_lmdb.cpp:38] Opened lmdb /home/mohanty/data/final_dataset/lmdb/grayscale-60-40/test_db
I0403 13:28:57.940359 32311 data_layer.cpp:41] output data size: 100,3,227,227
I0403 13:28:58.150465 32311 net.cpp:141] Setting up data
I0403 13:28:58.150535 32311 net.cpp:148] Top shape: 100 3 227 227 (15458700)
I0403 13:28:58.150559 32311 net.cpp:148] Top shape: 100 (100)
I0403 13:28:58.150575 32311 net.cpp:156] Memory required for data: 61835200
I0403 13:28:58.150601 32311 layer_factory.hpp:77] Creating layer label_data_1_split
I0403 13:28:58.150629 32311 net.cpp:91] Creating Layer label_data_1_split
I0403 13:28:58.150646 32311 net.cpp:425] label_data_1_split <- label
I0403 13:28:58.150674 32311 net.cpp:399] label_data_1_split -> label_data_1_split_0
I0403 13:28:58.150702 32311 net.cpp:399] label_data_1_split -> label_data_1_split_1
I0403 13:28:58.150724 32311 net.cpp:399] label_data_1_split -> label_data_1_split_2
I0403 13:28:58.150790 32311 net.cpp:141] Setting up label_data_1_split
I0403 13:28:58.150815 32311 net.cpp:148] Top shape: 100 (100)
I0403 13:28:58.150831 32311 net.cpp:148] Top shape: 100 (100)
I0403 13:28:58.150848 32311 net.cpp:148] Top shape: 100 (100)
I0403 13:28:58.150863 32311 net.cpp:156] Memory required for data: 61836400
I0403 13:28:58.150878 32311 layer_factory.hpp:77] Creating layer conv1
I0403 13:28:58.150910 32311 net.cpp:91] Creating Layer conv1
I0403 13:28:58.150929 32311 net.cpp:425] conv1 <- data
I0403 13:28:58.150949 32311 net.cpp:399] conv1 -> conv1
I0403 13:29:00.374050 32311 net.cpp:141] Setting up conv1
I0403 13:29:00.374141 32311 net.cpp:148] Top shape: 100 96 55 55 (29040000)
I0403 13:29:00.374160 32311 net.cpp:156] Memory required for data: 177996400
I0403 13:29:00.374192 32311 layer_factory.hpp:77] Creating layer relu1
I0403 13:29:00.374225 32311 net.cpp:91] Creating Layer relu1
I0403 13:29:00.374245 32311 net.cpp:425] relu1 <- conv1
I0403 13:29:00.374265 32311 net.cpp:386] relu1 -> conv1 (in-place)
I0403 13:29:00.374644 32311 net.cpp:141] Setting up relu1
I0403 13:29:00.374671 32311 net.cpp:148] Top shape: 100 96 55 55 (29040000)
I0403 13:29:00.374717 32311 net.cpp:156] Memory required for data: 294156400
I0403 13:29:00.374734 32311 layer_factory.hpp:77] Creating layer norm1
I0403 13:29:00.374763 32311 net.cpp:91] Creating Layer norm1
I0403 13:29:00.374780 32311 net.cpp:425] norm1 <- conv1
I0403 13:29:00.374799 32311 net.cpp:399] norm1 -> norm1
I0403 13:29:00.380830 32311 net.cpp:141] Setting up norm1
I0403 13:29:00.380916 32311 net.cpp:148] Top shape: 100 96 55 55 (29040000)
I0403 13:29:00.380933 32311 net.cpp:156] Memory required for data: 410316400
I0403 13:29:00.380950 32311 layer_factory.hpp:77] Creating layer pool1
I0403 13:29:00.380980 32311 net.cpp:91] Creating Layer pool1
I0403 13:29:00.381000 32311 net.cpp:425] pool1 <- norm1
I0403 13:29:00.381021 32311 net.cpp:399] pool1 -> pool1
I0403 13:29:00.381093 32311 net.cpp:141] Setting up pool1
I0403 13:29:00.381115 32311 net.cpp:148] Top shape: 100 96 27 27 (6998400)
I0403 13:29:00.381129 32311 net.cpp:156] Memory required for data: 438310000
I0403 13:29:00.381145 32311 layer_factory.hpp:77] Creating layer conv2
I0403 13:29:00.381170 32311 net.cpp:91] Creating Layer conv2
I0403 13:29:00.381186 32311 net.cpp:425] conv2 <- pool1
I0403 13:29:00.381204 32311 net.cpp:399] conv2 -> conv2
I0403 13:29:00.412441 32311 net.cpp:141] Setting up conv2
I0403 13:29:00.412528 32311 net.cpp:148] Top shape: 100 256 27 27 (18662400)
I0403 13:29:00.412544 32311 net.cpp:156] Memory required for data: 512959600
I0403 13:29:00.412574 32311 layer_factory.hpp:77] Creating layer relu2
I0403 13:29:00.412598 32311 net.cpp:91] Creating Layer relu2
I0403 13:29:00.412614 32311 net.cpp:425] relu2 <- conv2
I0403 13:29:00.412633 32311 net.cpp:386] relu2 -> conv2 (in-place)
I0403 13:29:00.412916 32311 net.cpp:141] Setting up relu2
I0403 13:29:00.412943 32311 net.cpp:148] Top shape: 100 256 27 27 (18662400)
I0403 13:29:00.412964 32311 net.cpp:156] Memory required for data: 587609200
I0403 13:29:00.412979 32311 layer_factory.hpp:77] Creating layer norm2
I0403 13:29:00.413002 32311 net.cpp:91] Creating Layer norm2
I0403 13:29:00.413018 32311 net.cpp:425] norm2 <- conv2
I0403 13:29:00.413038 32311 net.cpp:399] norm2 -> norm2
I0403 13:29:00.413286 32311 net.cpp:141] Setting up norm2
I0403 13:29:00.413312 32311 net.cpp:148] Top shape: 100 256 27 27 (18662400)
I0403 13:29:00.413327 32311 net.cpp:156] Memory required for data: 662258800
I0403 13:29:00.413342 32311 layer_factory.hpp:77] Creating layer pool2
I0403 13:29:00.413363 32311 net.cpp:91] Creating Layer pool2
I0403 13:29:00.413379 32311 net.cpp:425] pool2 <- norm2
I0403 13:29:00.413396 32311 net.cpp:399] pool2 -> pool2
I0403 13:29:00.413451 32311 net.cpp:141] Setting up pool2
I0403 13:29:00.413475 32311 net.cpp:148] Top shape: 100 256 13 13 (4326400)
I0403 13:29:00.413489 32311 net.cpp:156] Memory required for data: 679564400
I0403 13:29:00.413503 32311 layer_factory.hpp:77] Creating layer conv3
I0403 13:29:00.413529 32311 net.cpp:91] Creating Layer conv3
I0403 13:29:00.413547 32311 net.cpp:425] conv3 <- pool2
I0403 13:29:00.413568 32311 net.cpp:399] conv3 -> conv3
I0403 13:29:00.452715 32311 net.cpp:141] Setting up conv3
I0403 13:29:00.452802 32311 net.cpp:148] Top shape: 100 384 13 13 (6489600)
I0403 13:29:00.452819 32311 net.cpp:156] Memory required for data: 705522800
I0403 13:29:00.452846 32311 layer_factory.hpp:77] Creating layer relu3
I0403 13:29:00.452872 32311 net.cpp:91] Creating Layer relu3
I0403 13:29:00.452890 32311 net.cpp:425] relu3 <- conv3
I0403 13:29:00.452909 32311 net.cpp:386] relu3 -> conv3 (in-place)
I0403 13:29:00.453243 32311 net.cpp:141] Setting up relu3
I0403 13:29:00.453269 32311 net.cpp:148] Top shape: 100 384 13 13 (6489600)
I0403 13:29:00.453284 32311 net.cpp:156] Memory required for data: 731481200
I0403 13:29:00.453299 32311 layer_factory.hpp:77] Creating layer conv4
I0403 13:29:00.453325 32311 net.cpp:91] Creating Layer conv4
I0403 13:29:00.453341 32311 net.cpp:425] conv4 <- conv3
I0403 13:29:00.453362 32311 net.cpp:399] conv4 -> conv4
I0403 13:29:00.482851 32311 net.cpp:141] Setting up conv4
I0403 13:29:00.482939 32311 net.cpp:148] Top shape: 100 384 13 13 (6489600)
I0403 13:29:00.482986 32311 net.cpp:156] Memory required for data: 757439600
I0403 13:29:00.483008 32311 layer_factory.hpp:77] Creating layer relu4
I0403 13:29:00.483031 32311 net.cpp:91] Creating Layer relu4
I0403 13:29:00.483048 32311 net.cpp:425] relu4 <- conv4
I0403 13:29:00.483072 32311 net.cpp:386] relu4 -> conv4 (in-place)
I0403 13:29:00.483357 32311 net.cpp:141] Setting up relu4
I0403 13:29:00.483383 32311 net.cpp:148] Top shape: 100 384 13 13 (6489600)
I0403 13:29:00.483399 32311 net.cpp:156] Memory required for data: 783398000
I0403 13:29:00.483414 32311 layer_factory.hpp:77] Creating layer conv5
I0403 13:29:00.483441 32311 net.cpp:91] Creating Layer conv5
I0403 13:29:00.483458 32311 net.cpp:425] conv5 <- conv4
I0403 13:29:00.483479 32311 net.cpp:399] conv5 -> conv5
I0403 13:29:00.503886 32311 net.cpp:141] Setting up conv5
I0403 13:29:00.503967 32311 net.cpp:148] Top shape: 100 256 13 13 (4326400)
I0403 13:29:00.503983 32311 net.cpp:156] Memory required for data: 800703600
I0403 13:29:00.504009 32311 layer_factory.hpp:77] Creating layer relu5
I0403 13:29:00.504034 32311 net.cpp:91] Creating Layer relu5
I0403 13:29:00.504052 32311 net.cpp:425] relu5 <- conv5
I0403 13:29:00.504071 32311 net.cpp:386] relu5 -> conv5 (in-place)
I0403 13:29:00.504350 32311 net.cpp:141] Setting up relu5
I0403 13:29:00.504377 32311 net.cpp:148] Top shape: 100 256 13 13 (4326400)
I0403 13:29:00.504392 32311 net.cpp:156] Memory required for data: 818009200
I0403 13:29:00.504407 32311 layer_factory.hpp:77] Creating layer pool5
I0403 13:29:00.504432 32311 net.cpp:91] Creating Layer pool5
I0403 13:29:00.504449 32311 net.cpp:425] pool5 <- conv5
I0403 13:29:00.504468 32311 net.cpp:399] pool5 -> pool5
I0403 13:29:00.504529 32311 net.cpp:141] Setting up pool5
I0403 13:29:00.504554 32311 net.cpp:148] Top shape: 100 256 6 6 (921600)
I0403 13:29:00.504567 32311 net.cpp:156] Memory required for data: 821695600
I0403 13:29:00.504582 32311 layer_factory.hpp:77] Creating layer fc6
I0403 13:29:00.504611 32311 net.cpp:91] Creating Layer fc6
I0403 13:29:00.504629 32311 net.cpp:425] fc6 <- pool5
I0403 13:29:00.504647 32311 net.cpp:399] fc6 -> fc6
I0403 13:29:02.047580 32311 net.cpp:141] Setting up fc6
I0403 13:29:02.047672 32311 net.cpp:148] Top shape: 100 4096 (409600)
I0403 13:29:02.047688 32311 net.cpp:156] Memory required for data: 823334000
I0403 13:29:02.047710 32311 layer_factory.hpp:77] Creating layer relu6
I0403 13:29:02.047732 32311 net.cpp:91] Creating Layer relu6
I0403 13:29:02.047749 32311 net.cpp:425] relu6 <- fc6
I0403 13:29:02.047770 32311 net.cpp:386] relu6 -> fc6 (in-place)
I0403 13:29:02.047987 32311 net.cpp:141] Setting up relu6
I0403 13:29:02.048012 32311 net.cpp:148] Top shape: 100 4096 (409600)
I0403 13:29:02.048027 32311 net.cpp:156] Memory required for data: 824972400
I0403 13:29:02.048040 32311 layer_factory.hpp:77] Creating layer drop6
I0403 13:29:02.048063 32311 net.cpp:91] Creating Layer drop6
I0403 13:29:02.048077 32311 net.cpp:425] drop6 <- fc6
I0403 13:29:02.048094 32311 net.cpp:386] drop6 -> fc6 (in-place)
I0403 13:29:02.048143 32311 net.cpp:141] Setting up drop6
I0403 13:29:02.048169 32311 net.cpp:148] Top shape: 100 4096 (409600)
I0403 13:29:02.048184 32311 net.cpp:156] Memory required for data: 826610800
I0403 13:29:02.048198 32311 layer_factory.hpp:77] Creating layer fc7
I0403 13:29:02.048224 32311 net.cpp:91] Creating Layer fc7
I0403 13:29:02.048241 32311 net.cpp:425] fc7 <- fc6
I0403 13:29:02.048261 32311 net.cpp:399] fc7 -> fc7
I0403 13:29:02.721144 32311 net.cpp:141] Setting up fc7
I0403 13:29:02.721241 32311 net.cpp:148] Top shape: 100 4096 (409600)
I0403 13:29:02.721258 32311 net.cpp:156] Memory required for data: 828249200
I0403 13:29:02.721279 32311 layer_factory.hpp:77] Creating layer relu7
I0403 13:29:02.721300 32311 net.cpp:91] Creating Layer relu7
I0403 13:29:02.721318 32311 net.cpp:425] relu7 <- fc7
I0403 13:29:02.721338 32311 net.cpp:386] relu7 -> fc7 (in-place)
I0403 13:29:02.721740 32311 net.cpp:141] Setting up relu7
I0403 13:29:02.721765 32311 net.cpp:148] Top shape: 100 4096 (409600)
I0403 13:29:02.721812 32311 net.cpp:156] Memory required for data: 829887600
I0403 13:29:02.721828 32311 layer_factory.hpp:77] Creating layer drop7
I0403 13:29:02.721848 32311 net.cpp:91] Creating Layer drop7
I0403 13:29:02.721863 32311 net.cpp:425] drop7 <- fc7
I0403 13:29:02.721881 32311 net.cpp:386] drop7 -> fc7 (in-place)
I0403 13:29:02.721925 32311 net.cpp:141] Setting up drop7
I0403 13:29:02.721946 32311 net.cpp:148] Top shape: 100 4096 (409600)
I0403 13:29:02.721959 32311 net.cpp:156] Memory required for data: 831526000
I0403 13:29:02.721972 32311 layer_factory.hpp:77] Creating layer fc8_plantvillage
I0403 13:29:02.721992 32311 net.cpp:91] Creating Layer fc8_plantvillage
I0403 13:29:02.722007 32311 net.cpp:425] fc8_plantvillage <- fc7
I0403 13:29:02.722029 32311 net.cpp:399] fc8_plantvillage -> fc8_plantvillage
I0403 13:29:02.728543 32311 net.cpp:141] Setting up fc8_plantvillage
I0403 13:29:02.728569 32311 net.cpp:148] Top shape: 100 38 (3800)
I0403 13:29:02.728584 32311 net.cpp:156] Memory required for data: 831541200
I0403 13:29:02.728602 32311 layer_factory.hpp:77] Creating layer fc8_plantvillage_fc8_plantvillage_0_split
I0403 13:29:02.728623 32311 net.cpp:91] Creating Layer fc8_plantvillage_fc8_plantvillage_0_split
I0403 13:29:02.728639 32311 net.cpp:425] fc8_plantvillage_fc8_plantvillage_0_split <- fc8_plantvillage
I0403 13:29:02.728657 32311 net.cpp:399] fc8_plantvillage_fc8_plantvillage_0_split -> fc8_plantvillage_fc8_plantvillage_0_split_0
I0403 13:29:02.728677 32311 net.cpp:399] fc8_plantvillage_fc8_plantvillage_0_split -> fc8_plantvillage_fc8_plantvillage_0_split_1
I0403 13:29:02.728695 32311 net.cpp:399] fc8_plantvillage_fc8_plantvillage_0_split -> fc8_plantvillage_fc8_plantvillage_0_split_2
I0403 13:29:02.728770 32311 net.cpp:141] Setting up fc8_plantvillage_fc8_plantvillage_0_split
I0403 13:29:02.728792 32311 net.cpp:148] Top shape: 100 38 (3800)
I0403 13:29:02.728807 32311 net.cpp:148] Top shape: 100 38 (3800)
I0403 13:29:02.728821 32311 net.cpp:148] Top shape: 100 38 (3800)
I0403 13:29:02.728834 32311 net.cpp:156] Memory required for data: 831586800
I0403 13:29:02.728848 32311 layer_factory.hpp:77] Creating layer prob
I0403 13:29:02.728866 32311 net.cpp:91] Creating Layer prob
I0403 13:29:02.728881 32311 net.cpp:425] prob <- fc8_plantvillage_fc8_plantvillage_0_split_0
I0403 13:29:02.728899 32311 net.cpp:399] prob -> prob
I0403 13:29:02.729110 32311 net.cpp:141] Setting up prob
I0403 13:29:02.729135 32311 net.cpp:148] Top shape: 100 38 (3800)
I0403 13:29:02.729149 32311 net.cpp:156] Memory required for data: 831602000
I0403 13:29:02.729163 32311 layer_factory.hpp:77] Creating layer hdf5out
I0403 13:29:02.729182 32311 net.cpp:91] Creating Layer hdf5out
I0403 13:29:02.729197 32311 net.cpp:425] hdf5out <- prob
I0403 13:29:02.729223 32311 net.cpp:425] hdf5out <- label_data_1_split_0
I0403 13:29:02.731478 32311 net.cpp:141] Setting up hdf5out
…
