…
I0403 13:14:54.832506 31768 net.cpp:313] The NetState phase (1) differed from the phase (0) specified by a rule in layer data
I0403 13:14:54.832808 31768 net.cpp:49] Initializing net from parameters: 
state {
  phase: TEST
}
layer {
  name: "data"
  type: "Data"
  top: "data"
  top: "label"
  include {
    phase: TEST
  }
  transform_param {
    crop_size: 227
    mean_file: "/home/mohanty/data/final_dataset/lmdb/grayscale-60-40/mean.binaryproto"
  }
  data_param {
    source: "/home/mohanty/data/final_dataset/lmdb/grayscale-60-40/test_db"
    batch_size: 100
    backend: LMDB
  }
}
layer {
  name: "conv1"
  type: "Convolution"
  bottom: "data"
  top: "conv1"
  param {
    lr_mult: 1
    decay_mult: 1
  }
  param {
    lr_mult: 2
    decay_mult: 0
  }
  convolution_param {
    num_output: 96
    kernel_size: 11
    stride: 4
    weight_filler {
      type: "gaussian"
      std: 0.01
    }
    bias_filler {
      type: "constant"
      value: 0
    }
  }
}
layer {
  name: "relu1"
  type: "ReLU"
  bottom: "conv1"
  top: "conv1"
}
layer {
  name: "norm1"
  type: "LRN"
  bottom: "conv1"
  top: "norm1"
  lrn_param {
    local_size: 5
    alpha: 0.0001
    beta: 0.75
  }
}
layer {
  name: "pool1"
  type: "Pooling"
  bottom: "norm1"
  top: "pool1"
  pooling_param {
    pool: MAX
    kernel_size: 3
    stride: 2
  }
}
layer {
  name: "conv2"
  type: "Convolution"
  bottom: "pool1"
  top: "conv2"
  param {
    lr_mult: 1
    decay_mult: 1
  }
  param {
    lr_mult: 2
    decay_mult: 0
  }
  convolution_param {
    num_output: 256
    pad: 2
    kernel_size: 5
    group: 2
    weight_filler {
      type: "gaussian"
      std: 0.01
    }
    bias_filler {
      type: "constant"
      value: 0.1
    }
  }
}
layer {
  name: "relu2"
  type: "ReLU"
  bottom: "conv2"
  top: "conv2"
}
layer {
  name: "norm2"
  type: "LRN"
  bottom: "conv2"
  top: "norm2"
  lrn_param {
    local_size: 5
    alpha: 0.0001
    beta: 0.75
  }
}
layer {
  name: "pool2"
  type: "Pooling"
  bottom: "norm2"
  top: "pool2"
  pooling_param {
    pool: MAX
    kernel_size: 3
    stride: 2
  }
}
layer {
  name: "conv3"
  type: "Convolution"
  bottom: "pool2"
  top: "conv3"
  param {
    lr_mult: 1
    decay_mult: 1
  }
  param {
    lr_mult: 2
    decay_mult: 0
  }
  convolution_param {
    num_output: 384
    pad: 1
    kernel_size: 3
    weight_filler {
      type: "gaussian"
      std: 0.01
    }
    bias_filler {
      type: "constant"
      value: 0
    }
  }
}
layer {
  name: "relu3"
  type: "ReLU"
  bottom: "conv3"
  top: "conv3"
}
layer {
  name: "conv4"
  type: "Convolution"
  bottom: "conv3"
  top: "conv4"
  param {
    lr_mult: 1
    decay_mult: 1
  }
  param {
    lr_mult: 2
    decay_mult: 0
  }
  convolution_param {
    num_output: 384
    pad: 1
    kernel_size: 3
    group: 2
    weight_filler {
      type: "gaussian"
      std: 0.01
    }
    bias_filler {
      type: "constant"
      value: 0.1
    }
  }
}
layer {
  name: "relu4"
  type: "ReLU"
  bottom: "conv4"
  top: "conv4"
}
layer {
  name: "conv5"
  type: "Convolution"
  bottom: "conv4"
  top: "conv5"
  param {
    lr_mult: 1
    decay_mult: 1
  }
  param {
    lr_mult: 2
    decay_mult: 0
  }
  convolution_param {
    num_output: 256
    pad: 1
    kernel_size: 3
    group: 2
    weight_filler {
      type: "gaussian"
      std: 0.01
    }
    bias_filler {
      type: "constant"
      value: 0.1
    }
  }
}
layer {
  name: "relu5"
  type: "ReLU"
  bottom: "conv5"
  top: "conv5"
}
layer {
  name: "pool5"
  type: "Pooling"
  bottom: "conv5"
  top: "pool5"
  pooling_param {
    pool: MAX
    kernel_size: 3
    stride: 2
  }
}
layer {
  name: "fc6"
  type: "InnerProduct"
  bottom: "pool5"
  top: "fc6"
  param {
    lr_mult: 1
    decay_mult: 1
  }
  param {
    lr_mult: 2
    decay_mult: 0
  }
  inner_product_param {
    num_output: 4096
    weight_filler {
      type: "gaussian"
      std: 0.005
    }
    bias_filler {
      type: "constant"
      value: 0.1
    }
  }
}
layer {
  name: "relu6"
  type: "ReLU"
  bottom: "fc6"
  top: "fc6"
}
layer {
  name: "drop6"
  type: "Dropout"
  bottom: "fc6"
  top: "fc6"
  dropout_param {
    dropout_ratio: 0.5
  }
}
layer {
  name: "fc7"
  type: "InnerProduct"
  bottom: "fc6"
  top: "fc7"
  param {
    lr_mult: 1
    decay_mult: 1
  }
  param {
    lr_mult: 2
    decay_mult: 0
  }
  inner_product_param {
    num_output: 4096
    weight_filler {
      type: "gaussian"
      std: 0.005
    }
    bias_filler {
      type: "constant"
      value: 0.1
    }
  }
}
layer {
  name: "relu7"
  type: "ReLU"
  bottom: "fc7"
  top: "fc7"
}
layer {
  name: "drop7"
  type: "Dropout"
  bottom: "fc7"
  top: "fc7"
  dropout_param {
    dropout_ratio: 0.5
  }
}
layer {
  name: "fc8_plantvillage"
  type: "InnerProduct"
  bottom: "fc7"
  top: "fc8_plantvillage"
  param {
    lr_mult: 1
    decay_mult: 1
  }
  param {
    lr_mult: 2
    decay_mult: 0
  }
  inner_product_param {
    num_output: 38
    weight_filler {
      type: "gaussian"
      std: 0.01
    }
    bias_filler {
      type: "constant"
      value: 0
    }
  }
}
layer {
  name: "prob"
  type: "Softmax"
  bottom: "fc8_plantvillage"
  top: "prob"
  include {
    phase: TEST
  }
}
layer {
  name: "hdf5out"
  type: "HDF5Output"
  bottom: "prob"
  bottom: "label"
  include {
    phase: TEST
  }
  hdf5_output_param {
    file_name: "hdf5_dumps/iter_2600.h5"
  }
}
layer {
  name: "loss"
  type: "SoftmaxWithLoss"
  bottom: "fc8_plantvillage"
  bottom: "label"
  top: "loss"
}
layer {
  name: "accuracy"
  type: "Accuracy"
  bottom: "fc8_plantvillage"
  bottom: "label"
  top: "accuracy"
  include {
    phase: TEST
  }
}
I0403 13:14:54.833324 31768 layer_factory.hpp:77] Creating layer data
I0403 13:14:54.833936 31768 net.cpp:91] Creating Layer data
I0403 13:14:54.833966 31768 net.cpp:399] data -> data
I0403 13:14:54.834014 31768 net.cpp:399] data -> label
I0403 13:14:54.834050 31768 data_transformer.cpp:25] Loading mean file from: /home/mohanty/data/final_dataset/lmdb/grayscale-60-40/mean.binaryproto
I0403 13:14:54.836988 31771 db_lmdb.cpp:38] Opened lmdb /home/mohanty/data/final_dataset/lmdb/grayscale-60-40/test_db
I0403 13:14:54.848399 31768 data_layer.cpp:41] output data size: 100,3,227,227
I0403 13:14:55.058234 31768 net.cpp:141] Setting up data
I0403 13:14:55.058305 31768 net.cpp:148] Top shape: 100 3 227 227 (15458700)
I0403 13:14:55.058329 31768 net.cpp:148] Top shape: 100 (100)
I0403 13:14:55.058346 31768 net.cpp:156] Memory required for data: 61835200
I0403 13:14:55.058370 31768 layer_factory.hpp:77] Creating layer label_data_1_split
I0403 13:14:55.058396 31768 net.cpp:91] Creating Layer label_data_1_split
I0403 13:14:55.058414 31768 net.cpp:425] label_data_1_split <- label
I0403 13:14:55.058442 31768 net.cpp:399] label_data_1_split -> label_data_1_split_0
I0403 13:14:55.058471 31768 net.cpp:399] label_data_1_split -> label_data_1_split_1
I0403 13:14:55.058493 31768 net.cpp:399] label_data_1_split -> label_data_1_split_2
I0403 13:14:55.058558 31768 net.cpp:141] Setting up label_data_1_split
I0403 13:14:55.058581 31768 net.cpp:148] Top shape: 100 (100)
I0403 13:14:55.058598 31768 net.cpp:148] Top shape: 100 (100)
I0403 13:14:55.058615 31768 net.cpp:148] Top shape: 100 (100)
I0403 13:14:55.058630 31768 net.cpp:156] Memory required for data: 61836400
I0403 13:14:55.058645 31768 layer_factory.hpp:77] Creating layer conv1
I0403 13:14:55.058676 31768 net.cpp:91] Creating Layer conv1
I0403 13:14:55.058696 31768 net.cpp:425] conv1 <- data
I0403 13:14:55.058715 31768 net.cpp:399] conv1 -> conv1
I0403 13:14:57.394974 31768 net.cpp:141] Setting up conv1
I0403 13:14:57.395074 31768 net.cpp:148] Top shape: 100 96 55 55 (29040000)
I0403 13:14:57.395095 31768 net.cpp:156] Memory required for data: 177996400
I0403 13:14:57.395133 31768 layer_factory.hpp:77] Creating layer relu1
I0403 13:14:57.395165 31768 net.cpp:91] Creating Layer relu1
I0403 13:14:57.395187 31768 net.cpp:425] relu1 <- conv1
I0403 13:14:57.395216 31768 net.cpp:386] relu1 -> conv1 (in-place)
I0403 13:14:57.400970 31768 net.cpp:141] Setting up relu1
I0403 13:14:57.401072 31768 net.cpp:148] Top shape: 100 96 55 55 (29040000)
I0403 13:14:57.401134 31768 net.cpp:156] Memory required for data: 294156400
I0403 13:14:57.401157 31768 layer_factory.hpp:77] Creating layer norm1
I0403 13:14:57.401201 31768 net.cpp:91] Creating Layer norm1
I0403 13:14:57.401232 31768 net.cpp:425] norm1 <- conv1
I0403 13:14:57.401258 31768 net.cpp:399] norm1 -> norm1
I0403 13:14:57.401728 31768 net.cpp:141] Setting up norm1
I0403 13:14:57.401762 31768 net.cpp:148] Top shape: 100 96 55 55 (29040000)
I0403 13:14:57.401782 31768 net.cpp:156] Memory required for data: 410316400
I0403 13:14:57.401801 31768 layer_factory.hpp:77] Creating layer pool1
I0403 13:14:57.401830 31768 net.cpp:91] Creating Layer pool1
I0403 13:14:57.401851 31768 net.cpp:425] pool1 <- norm1
I0403 13:14:57.401872 31768 net.cpp:399] pool1 -> pool1
I0403 13:14:57.401955 31768 net.cpp:141] Setting up pool1
I0403 13:14:57.401984 31768 net.cpp:148] Top shape: 100 96 27 27 (6998400)
I0403 13:14:57.402003 31768 net.cpp:156] Memory required for data: 438310000
I0403 13:14:57.402021 31768 layer_factory.hpp:77] Creating layer conv2
I0403 13:14:57.402050 31768 net.cpp:91] Creating Layer conv2
I0403 13:14:57.402070 31768 net.cpp:425] conv2 <- pool1
I0403 13:14:57.402092 31768 net.cpp:399] conv2 -> conv2
I0403 13:14:57.437516 31768 net.cpp:141] Setting up conv2
I0403 13:14:57.437619 31768 net.cpp:148] Top shape: 100 256 27 27 (18662400)
I0403 13:14:57.437640 31768 net.cpp:156] Memory required for data: 512959600
I0403 13:14:57.437674 31768 layer_factory.hpp:77] Creating layer relu2
I0403 13:14:57.437701 31768 net.cpp:91] Creating Layer relu2
I0403 13:14:57.437723 31768 net.cpp:425] relu2 <- conv2
I0403 13:14:57.437747 31768 net.cpp:386] relu2 -> conv2 (in-place)
I0403 13:14:57.438225 31768 net.cpp:141] Setting up relu2
I0403 13:14:57.438258 31768 net.cpp:148] Top shape: 100 256 27 27 (18662400)
I0403 13:14:57.438277 31768 net.cpp:156] Memory required for data: 587609200
I0403 13:14:57.438294 31768 layer_factory.hpp:77] Creating layer norm2
I0403 13:14:57.438328 31768 net.cpp:91] Creating Layer norm2
I0403 13:14:57.438349 31768 net.cpp:425] norm2 <- conv2
I0403 13:14:57.438372 31768 net.cpp:399] norm2 -> norm2
I0403 13:14:57.438621 31768 net.cpp:141] Setting up norm2
I0403 13:14:57.438653 31768 net.cpp:148] Top shape: 100 256 27 27 (18662400)
I0403 13:14:57.438673 31768 net.cpp:156] Memory required for data: 662258800
I0403 13:14:57.438691 31768 layer_factory.hpp:77] Creating layer pool2
I0403 13:14:57.438714 31768 net.cpp:91] Creating Layer pool2
I0403 13:14:57.438733 31768 net.cpp:425] pool2 <- norm2
I0403 13:14:57.438755 31768 net.cpp:399] pool2 -> pool2
I0403 13:14:57.438822 31768 net.cpp:141] Setting up pool2
I0403 13:14:57.438850 31768 net.cpp:148] Top shape: 100 256 13 13 (4326400)
I0403 13:14:57.438868 31768 net.cpp:156] Memory required for data: 679564400
I0403 13:14:57.438889 31768 layer_factory.hpp:77] Creating layer conv3
I0403 13:14:57.438972 31768 net.cpp:91] Creating Layer conv3
I0403 13:14:57.438997 31768 net.cpp:425] conv3 <- pool2
I0403 13:14:57.439024 31768 net.cpp:399] conv3 -> conv3
I0403 13:14:57.492292 31768 net.cpp:141] Setting up conv3
I0403 13:14:57.492385 31768 net.cpp:148] Top shape: 100 384 13 13 (6489600)
I0403 13:14:57.492405 31768 net.cpp:156] Memory required for data: 705522800
I0403 13:14:57.492436 31768 layer_factory.hpp:77] Creating layer relu3
I0403 13:14:57.492470 31768 net.cpp:91] Creating Layer relu3
I0403 13:14:57.492492 31768 net.cpp:425] relu3 <- conv3
I0403 13:14:57.492516 31768 net.cpp:386] relu3 -> conv3 (in-place)
I0403 13:14:57.492842 31768 net.cpp:141] Setting up relu3
I0403 13:14:57.492878 31768 net.cpp:148] Top shape: 100 384 13 13 (6489600)
I0403 13:14:57.492900 31768 net.cpp:156] Memory required for data: 731481200
I0403 13:14:57.492919 31768 layer_factory.hpp:77] Creating layer conv4
I0403 13:14:57.492950 31768 net.cpp:91] Creating Layer conv4
I0403 13:14:57.492971 31768 net.cpp:425] conv4 <- conv3
I0403 13:14:57.492995 31768 net.cpp:399] conv4 -> conv4
I0403 13:14:57.529304 31768 net.cpp:141] Setting up conv4
I0403 13:14:57.529397 31768 net.cpp:148] Top shape: 100 384 13 13 (6489600)
I0403 13:14:57.529453 31768 net.cpp:156] Memory required for data: 757439600
I0403 13:14:57.529479 31768 layer_factory.hpp:77] Creating layer relu4
I0403 13:14:57.529510 31768 net.cpp:91] Creating Layer relu4
I0403 13:14:57.529531 31768 net.cpp:425] relu4 <- conv4
I0403 13:14:57.529556 31768 net.cpp:386] relu4 -> conv4 (in-place)
I0403 13:14:57.529938 31768 net.cpp:141] Setting up relu4
I0403 13:14:57.529971 31768 net.cpp:148] Top shape: 100 384 13 13 (6489600)
I0403 13:14:57.529989 31768 net.cpp:156] Memory required for data: 783398000
I0403 13:14:57.530007 31768 layer_factory.hpp:77] Creating layer conv5
I0403 13:14:57.530038 31768 net.cpp:91] Creating Layer conv5
I0403 13:14:57.530061 31768 net.cpp:425] conv5 <- conv4
I0403 13:14:57.530087 31768 net.cpp:399] conv5 -> conv5
I0403 13:14:57.555042 31768 net.cpp:141] Setting up conv5
I0403 13:14:57.555132 31768 net.cpp:148] Top shape: 100 256 13 13 (4326400)
I0403 13:14:57.555156 31768 net.cpp:156] Memory required for data: 800703600
I0403 13:14:57.555188 31768 layer_factory.hpp:77] Creating layer relu5
I0403 13:14:57.555218 31768 net.cpp:91] Creating Layer relu5
I0403 13:14:57.555241 31768 net.cpp:425] relu5 <- conv5
I0403 13:14:57.555265 31768 net.cpp:386] relu5 -> conv5 (in-place)
I0403 13:14:57.555600 31768 net.cpp:141] Setting up relu5
I0403 13:14:57.555636 31768 net.cpp:148] Top shape: 100 256 13 13 (4326400)
I0403 13:14:57.555655 31768 net.cpp:156] Memory required for data: 818009200
I0403 13:14:57.555675 31768 layer_factory.hpp:77] Creating layer pool5
I0403 13:14:57.555701 31768 net.cpp:91] Creating Layer pool5
I0403 13:14:57.555721 31768 net.cpp:425] pool5 <- conv5
I0403 13:14:57.555747 31768 net.cpp:399] pool5 -> pool5
I0403 13:14:57.555821 31768 net.cpp:141] Setting up pool5
I0403 13:14:57.555850 31768 net.cpp:148] Top shape: 100 256 6 6 (921600)
I0403 13:14:57.555868 31768 net.cpp:156] Memory required for data: 821695600
I0403 13:14:57.555886 31768 layer_factory.hpp:77] Creating layer fc6
I0403 13:14:57.555922 31768 net.cpp:91] Creating Layer fc6
I0403 13:14:57.555944 31768 net.cpp:425] fc6 <- pool5
I0403 13:14:57.555969 31768 net.cpp:399] fc6 -> fc6
I0403 13:14:59.206828 31768 net.cpp:141] Setting up fc6
I0403 13:14:59.206923 31768 net.cpp:148] Top shape: 100 4096 (409600)
I0403 13:14:59.206938 31768 net.cpp:156] Memory required for data: 823334000
I0403 13:14:59.206960 31768 layer_factory.hpp:77] Creating layer relu6
I0403 13:14:59.206984 31768 net.cpp:91] Creating Layer relu6
I0403 13:14:59.207002 31768 net.cpp:425] relu6 <- fc6
I0403 13:14:59.207022 31768 net.cpp:386] relu6 -> fc6 (in-place)
I0403 13:14:59.207262 31768 net.cpp:141] Setting up relu6
I0403 13:14:59.207288 31768 net.cpp:148] Top shape: 100 4096 (409600)
I0403 13:14:59.207304 31768 net.cpp:156] Memory required for data: 824972400
I0403 13:14:59.207319 31768 layer_factory.hpp:77] Creating layer drop6
I0403 13:14:59.207339 31768 net.cpp:91] Creating Layer drop6
I0403 13:14:59.207355 31768 net.cpp:425] drop6 <- fc6
I0403 13:14:59.207370 31768 net.cpp:386] drop6 -> fc6 (in-place)
I0403 13:14:59.207427 31768 net.cpp:141] Setting up drop6
I0403 13:14:59.207449 31768 net.cpp:148] Top shape: 100 4096 (409600)
I0403 13:14:59.207464 31768 net.cpp:156] Memory required for data: 826610800
I0403 13:14:59.207479 31768 layer_factory.hpp:77] Creating layer fc7
I0403 13:14:59.207500 31768 net.cpp:91] Creating Layer fc7
I0403 13:14:59.207517 31768 net.cpp:425] fc7 <- fc6
I0403 13:14:59.207535 31768 net.cpp:399] fc7 -> fc7
I0403 13:14:59.874028 31768 net.cpp:141] Setting up fc7
I0403 13:14:59.874120 31768 net.cpp:148] Top shape: 100 4096 (409600)
I0403 13:14:59.874135 31768 net.cpp:156] Memory required for data: 828249200
I0403 13:14:59.874155 31768 layer_factory.hpp:77] Creating layer relu7
I0403 13:14:59.874179 31768 net.cpp:91] Creating Layer relu7
I0403 13:14:59.874197 31768 net.cpp:425] relu7 <- fc7
I0403 13:14:59.874222 31768 net.cpp:386] relu7 -> fc7 (in-place)
I0403 13:14:59.874626 31768 net.cpp:141] Setting up relu7
I0403 13:14:59.874652 31768 net.cpp:148] Top shape: 100 4096 (409600)
I0403 13:14:59.874698 31768 net.cpp:156] Memory required for data: 829887600
I0403 13:14:59.874713 31768 layer_factory.hpp:77] Creating layer drop7
I0403 13:14:59.874734 31768 net.cpp:91] Creating Layer drop7
I0403 13:14:59.874749 31768 net.cpp:425] drop7 <- fc7
I0403 13:14:59.874768 31768 net.cpp:386] drop7 -> fc7 (in-place)
I0403 13:14:59.874812 31768 net.cpp:141] Setting up drop7
I0403 13:14:59.874835 31768 net.cpp:148] Top shape: 100 4096 (409600)
I0403 13:14:59.874847 31768 net.cpp:156] Memory required for data: 831526000
I0403 13:14:59.874861 31768 layer_factory.hpp:77] Creating layer fc8_plantvillage
I0403 13:14:59.874883 31768 net.cpp:91] Creating Layer fc8_plantvillage
I0403 13:14:59.874899 31768 net.cpp:425] fc8_plantvillage <- fc7
I0403 13:14:59.874917 31768 net.cpp:399] fc8_plantvillage -> fc8_plantvillage
I0403 13:14:59.881449 31768 net.cpp:141] Setting up fc8_plantvillage
I0403 13:14:59.881476 31768 net.cpp:148] Top shape: 100 38 (3800)
I0403 13:14:59.881491 31768 net.cpp:156] Memory required for data: 831541200
I0403 13:14:59.881508 31768 layer_factory.hpp:77] Creating layer fc8_plantvillage_fc8_plantvillage_0_split
I0403 13:14:59.881526 31768 net.cpp:91] Creating Layer fc8_plantvillage_fc8_plantvillage_0_split
I0403 13:14:59.881541 31768 net.cpp:425] fc8_plantvillage_fc8_plantvillage_0_split <- fc8_plantvillage
I0403 13:14:59.881558 31768 net.cpp:399] fc8_plantvillage_fc8_plantvillage_0_split -> fc8_plantvillage_fc8_plantvillage_0_split_0
I0403 13:14:59.881579 31768 net.cpp:399] fc8_plantvillage_fc8_plantvillage_0_split -> fc8_plantvillage_fc8_plantvillage_0_split_1
I0403 13:14:59.881599 31768 net.cpp:399] fc8_plantvillage_fc8_plantvillage_0_split -> fc8_plantvillage_fc8_plantvillage_0_split_2
I0403 13:14:59.881676 31768 net.cpp:141] Setting up fc8_plantvillage_fc8_plantvillage_0_split
I0403 13:14:59.881698 31768 net.cpp:148] Top shape: 100 38 (3800)
I0403 13:14:59.881714 31768 net.cpp:148] Top shape: 100 38 (3800)
I0403 13:14:59.881729 31768 net.cpp:148] Top shape: 100 38 (3800)
I0403 13:14:59.881742 31768 net.cpp:156] Memory required for data: 831586800
I0403 13:14:59.881757 31768 layer_factory.hpp:77] Creating layer prob
I0403 13:14:59.881775 31768 net.cpp:91] Creating Layer prob
I0403 13:14:59.881790 31768 net.cpp:425] prob <- fc8_plantvillage_fc8_plantvillage_0_split_0
I0403 13:14:59.881808 31768 net.cpp:399] prob -> prob
I0403 13:14:59.882040 31768 net.cpp:141] Setting up prob
I0403 13:14:59.882066 31768 net.cpp:148] Top shape: 100 38 (3800)
I0403 13:14:59.882081 31768 net.cpp:156] Memory required for data: 831602000
I0403 13:14:59.882094 31768 layer_factory.hpp:77] Creating layer hdf5out
I0403 13:14:59.882117 31768 net.cpp:91] Creating Layer hdf5out
I0403 13:14:59.882134 31768 net.cpp:425] hdf5out <- prob
I0403 13:14:59.882150 31768 net.cpp:425] hdf5out <- label_data_1_split_0
I0403 13:14:59.884517 31768 net.cpp:141] Setting up hdf5out
…
