…
I0403 13:25:06.078229 32078 net.cpp:313] The NetState phase (1) differed from the phase (0) specified by a rule in layer data
I0403 13:25:06.078536 32078 net.cpp:49] Initializing net from parameters: 
state {
  phase: TEST
}
layer {
  name: "data"
  type: "Data"
  top: "data"
  top: "label"
  include {
    phase: TEST
  }
  transform_param {
    crop_size: 227
    mean_file: "/home/mohanty/data/final_dataset/lmdb/grayscale-60-40/mean.binaryproto"
  }
  data_param {
    source: "/home/mohanty/data/final_dataset/lmdb/grayscale-60-40/test_db"
    batch_size: 100
    backend: LMDB
  }
}
layer {
  name: "conv1"
  type: "Convolution"
  bottom: "data"
  top: "conv1"
  param {
    lr_mult: 1
    decay_mult: 1
  }
  param {
    lr_mult: 2
    decay_mult: 0
  }
  convolution_param {
    num_output: 96
    kernel_size: 11
    stride: 4
    weight_filler {
      type: "gaussian"
      std: 0.01
    }
    bias_filler {
      type: "constant"
      value: 0
    }
  }
}
layer {
  name: "relu1"
  type: "ReLU"
  bottom: "conv1"
  top: "conv1"
}
layer {
  name: "norm1"
  type: "LRN"
  bottom: "conv1"
  top: "norm1"
  lrn_param {
    local_size: 5
    alpha: 0.0001
    beta: 0.75
  }
}
layer {
  name: "pool1"
  type: "Pooling"
  bottom: "norm1"
  top: "pool1"
  pooling_param {
    pool: MAX
    kernel_size: 3
    stride: 2
  }
}
layer {
  name: "conv2"
  type: "Convolution"
  bottom: "pool1"
  top: "conv2"
  param {
    lr_mult: 1
    decay_mult: 1
  }
  param {
    lr_mult: 2
    decay_mult: 0
  }
  convolution_param {
    num_output: 256
    pad: 2
    kernel_size: 5
    group: 2
    weight_filler {
      type: "gaussian"
      std: 0.01
    }
    bias_filler {
      type: "constant"
      value: 0.1
    }
  }
}
layer {
  name: "relu2"
  type: "ReLU"
  bottom: "conv2"
  top: "conv2"
}
layer {
  name: "norm2"
  type: "LRN"
  bottom: "conv2"
  top: "norm2"
  lrn_param {
    local_size: 5
    alpha: 0.0001
    beta: 0.75
  }
}
layer {
  name: "pool2"
  type: "Pooling"
  bottom: "norm2"
  top: "pool2"
  pooling_param {
    pool: MAX
    kernel_size: 3
    stride: 2
  }
}
layer {
  name: "conv3"
  type: "Convolution"
  bottom: "pool2"
  top: "conv3"
  param {
    lr_mult: 1
    decay_mult: 1
  }
  param {
    lr_mult: 2
    decay_mult: 0
  }
  convolution_param {
    num_output: 384
    pad: 1
    kernel_size: 3
    weight_filler {
      type: "gaussian"
      std: 0.01
    }
    bias_filler {
      type: "constant"
      value: 0
    }
  }
}
layer {
  name: "relu3"
  type: "ReLU"
  bottom: "conv3"
  top: "conv3"
}
layer {
  name: "conv4"
  type: "Convolution"
  bottom: "conv3"
  top: "conv4"
  param {
    lr_mult: 1
    decay_mult: 1
  }
  param {
    lr_mult: 2
    decay_mult: 0
  }
  convolution_param {
    num_output: 384
    pad: 1
    kernel_size: 3
    group: 2
    weight_filler {
      type: "gaussian"
      std: 0.01
    }
    bias_filler {
      type: "constant"
      value: 0.1
    }
  }
}
layer {
  name: "relu4"
  type: "ReLU"
  bottom: "conv4"
  top: "conv4"
}
layer {
  name: "conv5"
  type: "Convolution"
  bottom: "conv4"
  top: "conv5"
  param {
    lr_mult: 1
    decay_mult: 1
  }
  param {
    lr_mult: 2
    decay_mult: 0
  }
  convolution_param {
    num_output: 256
    pad: 1
    kernel_size: 3
    group: 2
    weight_filler {
      type: "gaussian"
      std: 0.01
    }
    bias_filler {
      type: "constant"
      value: 0.1
    }
  }
}
layer {
  name: "relu5"
  type: "ReLU"
  bottom: "conv5"
  top: "conv5"
}
layer {
  name: "pool5"
  type: "Pooling"
  bottom: "conv5"
  top: "pool5"
  pooling_param {
    pool: MAX
    kernel_size: 3
    stride: 2
  }
}
layer {
  name: "fc6"
  type: "InnerProduct"
  bottom: "pool5"
  top: "fc6"
  param {
    lr_mult: 1
    decay_mult: 1
  }
  param {
    lr_mult: 2
    decay_mult: 0
  }
  inner_product_param {
    num_output: 4096
    weight_filler {
      type: "gaussian"
      std: 0.005
    }
    bias_filler {
      type: "constant"
      value: 0.1
    }
  }
}
layer {
  name: "relu6"
  type: "ReLU"
  bottom: "fc6"
  top: "fc6"
}
layer {
  name: "drop6"
  type: "Dropout"
  bottom: "fc6"
  top: "fc6"
  dropout_param {
    dropout_ratio: 0.5
  }
}
layer {
  name: "fc7"
  type: "InnerProduct"
  bottom: "fc6"
  top: "fc7"
  param {
    lr_mult: 1
    decay_mult: 1
  }
  param {
    lr_mult: 2
    decay_mult: 0
  }
  inner_product_param {
    num_output: 4096
    weight_filler {
      type: "gaussian"
      std: 0.005
    }
    bias_filler {
      type: "constant"
      value: 0.1
    }
  }
}
layer {
  name: "relu7"
  type: "ReLU"
  bottom: "fc7"
  top: "fc7"
}
layer {
  name: "drop7"
  type: "Dropout"
  bottom: "fc7"
  top: "fc7"
  dropout_param {
    dropout_ratio: 0.5
  }
}
layer {
  name: "fc8_plantvillage"
  type: "InnerProduct"
  bottom: "fc7"
  top: "fc8_plantvillage"
  param {
    lr_mult: 1
    decay_mult: 1
  }
  param {
    lr_mult: 2
    decay_mult: 0
  }
  inner_product_param {
    num_output: 38
    weight_filler {
      type: "gaussian"
      std: 0.01
    }
    bias_filler {
      type: "constant"
      value: 0
    }
  }
}
layer {
  name: "prob"
  type: "Softmax"
  bottom: "fc8_plantvillage"
  top: "prob"
  include {
    phase: TEST
  }
}
layer {
  name: "hdf5out"
  type: "HDF5Output"
  bottom: "prob"
  bottom: "label"
  include {
    phase: TEST
  }
  hdf5_output_param {
    file_name: "hdf5_dumps/iter_6825.h5"
  }
}
layer {
  name: "loss"
  type: "SoftmaxWithLoss"
  bottom: "fc8_plantvillage"
  bottom: "label"
  top: "loss"
}
layer {
  name: "accuracy"
  type: "Accuracy"
  bottom: "fc8_plantvillage"
  bottom: "label"
  top: "accuracy"
  include {
    phase: TEST
  }
}
I0403 13:25:06.079128 32078 layer_factory.hpp:77] Creating layer data
I0403 13:25:06.079802 32078 net.cpp:91] Creating Layer data
I0403 13:25:06.079831 32078 net.cpp:399] data -> data
I0403 13:25:06.079884 32078 net.cpp:399] data -> label
I0403 13:25:06.079921 32078 data_transformer.cpp:25] Loading mean file from: /home/mohanty/data/final_dataset/lmdb/grayscale-60-40/mean.binaryproto
I0403 13:25:06.082902 32082 db_lmdb.cpp:38] Opened lmdb /home/mohanty/data/final_dataset/lmdb/grayscale-60-40/test_db
I0403 13:25:06.097427 32078 data_layer.cpp:41] output data size: 100,3,227,227
I0403 13:25:06.216367 32078 net.cpp:141] Setting up data
I0403 13:25:06.216473 32078 net.cpp:148] Top shape: 100 3 227 227 (15458700)
I0403 13:25:06.216496 32078 net.cpp:148] Top shape: 100 (100)
I0403 13:25:06.216512 32078 net.cpp:156] Memory required for data: 61835200
I0403 13:25:06.216539 32078 layer_factory.hpp:77] Creating layer label_data_1_split
I0403 13:25:06.216565 32078 net.cpp:91] Creating Layer label_data_1_split
I0403 13:25:06.216584 32078 net.cpp:425] label_data_1_split <- label
I0403 13:25:06.216616 32078 net.cpp:399] label_data_1_split -> label_data_1_split_0
I0403 13:25:06.216642 32078 net.cpp:399] label_data_1_split -> label_data_1_split_1
I0403 13:25:06.216665 32078 net.cpp:399] label_data_1_split -> label_data_1_split_2
I0403 13:25:06.216728 32078 net.cpp:141] Setting up label_data_1_split
I0403 13:25:06.216752 32078 net.cpp:148] Top shape: 100 (100)
I0403 13:25:06.216769 32078 net.cpp:148] Top shape: 100 (100)
I0403 13:25:06.216794 32078 net.cpp:148] Top shape: 100 (100)
I0403 13:25:06.216809 32078 net.cpp:156] Memory required for data: 61836400
I0403 13:25:06.216822 32078 layer_factory.hpp:77] Creating layer conv1
I0403 13:25:06.216868 32078 net.cpp:91] Creating Layer conv1
I0403 13:25:06.216888 32078 net.cpp:425] conv1 <- data
I0403 13:25:06.216912 32078 net.cpp:399] conv1 -> conv1
I0403 13:25:06.360025 32078 net.cpp:141] Setting up conv1
I0403 13:25:06.360090 32078 net.cpp:148] Top shape: 100 96 55 55 (29040000)
I0403 13:25:06.360107 32078 net.cpp:156] Memory required for data: 177996400
I0403 13:25:06.360139 32078 layer_factory.hpp:77] Creating layer relu1
I0403 13:25:06.360167 32078 net.cpp:91] Creating Layer relu1
I0403 13:25:06.360186 32078 net.cpp:425] relu1 <- conv1
I0403 13:25:06.360205 32078 net.cpp:386] relu1 -> conv1 (in-place)
I0403 13:25:06.360473 32078 net.cpp:141] Setting up relu1
I0403 13:25:06.360502 32078 net.cpp:148] Top shape: 100 96 55 55 (29040000)
I0403 13:25:06.360549 32078 net.cpp:156] Memory required for data: 294156400
I0403 13:25:06.360566 32078 layer_factory.hpp:77] Creating layer norm1
I0403 13:25:06.360594 32078 net.cpp:91] Creating Layer norm1
I0403 13:25:06.360613 32078 net.cpp:425] norm1 <- conv1
I0403 13:25:06.360632 32078 net.cpp:399] norm1 -> norm1
I0403 13:25:06.360946 32078 net.cpp:141] Setting up norm1
I0403 13:25:06.360975 32078 net.cpp:148] Top shape: 100 96 55 55 (29040000)
I0403 13:25:06.360991 32078 net.cpp:156] Memory required for data: 410316400
I0403 13:25:06.361007 32078 layer_factory.hpp:77] Creating layer pool1
I0403 13:25:06.361032 32078 net.cpp:91] Creating Layer pool1
I0403 13:25:06.361049 32078 net.cpp:425] pool1 <- norm1
I0403 13:25:06.361068 32078 net.cpp:399] pool1 -> pool1
I0403 13:25:06.361135 32078 net.cpp:141] Setting up pool1
I0403 13:25:06.361160 32078 net.cpp:148] Top shape: 100 96 27 27 (6998400)
I0403 13:25:06.361174 32078 net.cpp:156] Memory required for data: 438310000
I0403 13:25:06.361189 32078 layer_factory.hpp:77] Creating layer conv2
I0403 13:25:06.361219 32078 net.cpp:91] Creating Layer conv2
I0403 13:25:06.361238 32078 net.cpp:425] conv2 <- pool1
I0403 13:25:06.361258 32078 net.cpp:399] conv2 -> conv2
I0403 13:25:06.376266 32078 net.cpp:141] Setting up conv2
I0403 13:25:06.376319 32078 net.cpp:148] Top shape: 100 256 27 27 (18662400)
I0403 13:25:06.376337 32078 net.cpp:156] Memory required for data: 512959600
I0403 13:25:06.376363 32078 layer_factory.hpp:77] Creating layer relu2
I0403 13:25:06.376384 32078 net.cpp:91] Creating Layer relu2
I0403 13:25:06.376400 32078 net.cpp:425] relu2 <- conv2
I0403 13:25:06.376420 32078 net.cpp:386] relu2 -> conv2 (in-place)
I0403 13:25:06.376709 32078 net.cpp:141] Setting up relu2
I0403 13:25:06.376739 32078 net.cpp:148] Top shape: 100 256 27 27 (18662400)
I0403 13:25:06.376755 32078 net.cpp:156] Memory required for data: 587609200
I0403 13:25:06.376771 32078 layer_factory.hpp:77] Creating layer norm2
I0403 13:25:06.376792 32078 net.cpp:91] Creating Layer norm2
I0403 13:25:06.376808 32078 net.cpp:425] norm2 <- conv2
I0403 13:25:06.376830 32078 net.cpp:399] norm2 -> norm2
I0403 13:25:06.377038 32078 net.cpp:141] Setting up norm2
I0403 13:25:06.377064 32078 net.cpp:148] Top shape: 100 256 27 27 (18662400)
I0403 13:25:06.377079 32078 net.cpp:156] Memory required for data: 662258800
I0403 13:25:06.377094 32078 layer_factory.hpp:77] Creating layer pool2
I0403 13:25:06.377115 32078 net.cpp:91] Creating Layer pool2
I0403 13:25:06.377132 32078 net.cpp:425] pool2 <- norm2
I0403 13:25:06.377151 32078 net.cpp:399] pool2 -> pool2
I0403 13:25:06.377207 32078 net.cpp:141] Setting up pool2
I0403 13:25:06.377234 32078 net.cpp:148] Top shape: 100 256 13 13 (4326400)
I0403 13:25:06.377250 32078 net.cpp:156] Memory required for data: 679564400
I0403 13:25:06.377264 32078 layer_factory.hpp:77] Creating layer conv3
I0403 13:25:06.377288 32078 net.cpp:91] Creating Layer conv3
I0403 13:25:06.377305 32078 net.cpp:425] conv3 <- pool2
I0403 13:25:06.377327 32078 net.cpp:399] conv3 -> conv3
I0403 13:25:06.419929 32078 net.cpp:141] Setting up conv3
I0403 13:25:06.420013 32078 net.cpp:148] Top shape: 100 384 13 13 (6489600)
I0403 13:25:06.420030 32078 net.cpp:156] Memory required for data: 705522800
I0403 13:25:06.420056 32078 layer_factory.hpp:77] Creating layer relu3
I0403 13:25:06.420083 32078 net.cpp:91] Creating Layer relu3
I0403 13:25:06.420101 32078 net.cpp:425] relu3 <- conv3
I0403 13:25:06.420121 32078 net.cpp:386] relu3 -> conv3 (in-place)
I0403 13:25:06.420408 32078 net.cpp:141] Setting up relu3
I0403 13:25:06.420438 32078 net.cpp:148] Top shape: 100 384 13 13 (6489600)
I0403 13:25:06.420454 32078 net.cpp:156] Memory required for data: 731481200
I0403 13:25:06.420469 32078 layer_factory.hpp:77] Creating layer conv4
I0403 13:25:06.420496 32078 net.cpp:91] Creating Layer conv4
I0403 13:25:06.420517 32078 net.cpp:425] conv4 <- conv3
I0403 13:25:06.420536 32078 net.cpp:399] conv4 -> conv4
I0403 13:25:06.450320 32078 net.cpp:141] Setting up conv4
I0403 13:25:06.450393 32078 net.cpp:148] Top shape: 100 384 13 13 (6489600)
I0403 13:25:06.450443 32078 net.cpp:156] Memory required for data: 757439600
I0403 13:25:06.450465 32078 layer_factory.hpp:77] Creating layer relu4
I0403 13:25:06.450489 32078 net.cpp:91] Creating Layer relu4
I0403 13:25:06.450507 32078 net.cpp:425] relu4 <- conv4
I0403 13:25:06.450527 32078 net.cpp:386] relu4 -> conv4 (in-place)
I0403 13:25:06.450809 32078 net.cpp:141] Setting up relu4
I0403 13:25:06.450837 32078 net.cpp:148] Top shape: 100 384 13 13 (6489600)
I0403 13:25:06.450853 32078 net.cpp:156] Memory required for data: 783398000
I0403 13:25:06.450868 32078 layer_factory.hpp:77] Creating layer conv5
I0403 13:25:06.450897 32078 net.cpp:91] Creating Layer conv5
I0403 13:25:06.450917 32078 net.cpp:425] conv5 <- conv4
I0403 13:25:06.450938 32078 net.cpp:399] conv5 -> conv5
I0403 13:25:06.471518 32078 net.cpp:141] Setting up conv5
I0403 13:25:06.471566 32078 net.cpp:148] Top shape: 100 256 13 13 (4326400)
I0403 13:25:06.471582 32078 net.cpp:156] Memory required for data: 800703600
I0403 13:25:06.471611 32078 layer_factory.hpp:77] Creating layer relu5
I0403 13:25:06.471632 32078 net.cpp:91] Creating Layer relu5
I0403 13:25:06.471649 32078 net.cpp:425] relu5 <- conv5
I0403 13:25:06.471679 32078 net.cpp:386] relu5 -> conv5 (in-place)
I0403 13:25:06.471961 32078 net.cpp:141] Setting up relu5
I0403 13:25:06.471987 32078 net.cpp:148] Top shape: 100 256 13 13 (4326400)
I0403 13:25:06.472004 32078 net.cpp:156] Memory required for data: 818009200
I0403 13:25:06.472019 32078 layer_factory.hpp:77] Creating layer pool5
I0403 13:25:06.472044 32078 net.cpp:91] Creating Layer pool5
I0403 13:25:06.472061 32078 net.cpp:425] pool5 <- conv5
I0403 13:25:06.472080 32078 net.cpp:399] pool5 -> pool5
I0403 13:25:06.472142 32078 net.cpp:141] Setting up pool5
I0403 13:25:06.472165 32078 net.cpp:148] Top shape: 100 256 6 6 (921600)
I0403 13:25:06.472182 32078 net.cpp:156] Memory required for data: 821695600
I0403 13:25:06.472198 32078 layer_factory.hpp:77] Creating layer fc6
I0403 13:25:06.472234 32078 net.cpp:91] Creating Layer fc6
I0403 13:25:06.472252 32078 net.cpp:425] fc6 <- pool5
I0403 13:25:06.472272 32078 net.cpp:399] fc6 -> fc6
I0403 13:25:08.035403 32078 net.cpp:141] Setting up fc6
I0403 13:25:08.035490 32078 net.cpp:148] Top shape: 100 4096 (409600)
I0403 13:25:08.035507 32078 net.cpp:156] Memory required for data: 823334000
I0403 13:25:08.035528 32078 layer_factory.hpp:77] Creating layer relu6
I0403 13:25:08.035552 32078 net.cpp:91] Creating Layer relu6
I0403 13:25:08.035569 32078 net.cpp:425] relu6 <- fc6
I0403 13:25:08.035591 32078 net.cpp:386] relu6 -> fc6 (in-place)
I0403 13:25:08.035817 32078 net.cpp:141] Setting up relu6
I0403 13:25:08.035842 32078 net.cpp:148] Top shape: 100 4096 (409600)
I0403 13:25:08.035857 32078 net.cpp:156] Memory required for data: 824972400
I0403 13:25:08.035873 32078 layer_factory.hpp:77] Creating layer drop6
I0403 13:25:08.035894 32078 net.cpp:91] Creating Layer drop6
I0403 13:25:08.035912 32078 net.cpp:425] drop6 <- fc6
I0403 13:25:08.035928 32078 net.cpp:386] drop6 -> fc6 (in-place)
I0403 13:25:08.035981 32078 net.cpp:141] Setting up drop6
I0403 13:25:08.036005 32078 net.cpp:148] Top shape: 100 4096 (409600)
I0403 13:25:08.036020 32078 net.cpp:156] Memory required for data: 826610800
I0403 13:25:08.036036 32078 layer_factory.hpp:77] Creating layer fc7
I0403 13:25:08.036056 32078 net.cpp:91] Creating Layer fc7
I0403 13:25:08.036070 32078 net.cpp:425] fc7 <- fc6
I0403 13:25:08.036093 32078 net.cpp:399] fc7 -> fc7
I0403 13:25:08.723709 32078 net.cpp:141] Setting up fc7
I0403 13:25:08.723752 32078 net.cpp:148] Top shape: 100 4096 (409600)
I0403 13:25:08.723768 32078 net.cpp:156] Memory required for data: 828249200
I0403 13:25:08.723790 32078 layer_factory.hpp:77] Creating layer relu7
I0403 13:25:08.723815 32078 net.cpp:91] Creating Layer relu7
I0403 13:25:08.723834 32078 net.cpp:425] relu7 <- fc7
I0403 13:25:08.723852 32078 net.cpp:386] relu7 -> fc7 (in-place)
I0403 13:25:08.724264 32078 net.cpp:141] Setting up relu7
I0403 13:25:08.724292 32078 net.cpp:148] Top shape: 100 4096 (409600)
I0403 13:25:08.724339 32078 net.cpp:156] Memory required for data: 829887600
I0403 13:25:08.724356 32078 layer_factory.hpp:77] Creating layer drop7
I0403 13:25:08.724378 32078 net.cpp:91] Creating Layer drop7
I0403 13:25:08.724395 32078 net.cpp:425] drop7 <- fc7
I0403 13:25:08.724412 32078 net.cpp:386] drop7 -> fc7 (in-place)
I0403 13:25:08.724457 32078 net.cpp:141] Setting up drop7
I0403 13:25:08.724479 32078 net.cpp:148] Top shape: 100 4096 (409600)
I0403 13:25:08.724494 32078 net.cpp:156] Memory required for data: 831526000
I0403 13:25:08.724509 32078 layer_factory.hpp:77] Creating layer fc8_plantvillage
I0403 13:25:08.724529 32078 net.cpp:91] Creating Layer fc8_plantvillage
I0403 13:25:08.724545 32078 net.cpp:425] fc8_plantvillage <- fc7
I0403 13:25:08.724568 32078 net.cpp:399] fc8_plantvillage -> fc8_plantvillage
I0403 13:25:08.731441 32078 net.cpp:141] Setting up fc8_plantvillage
I0403 13:25:08.731470 32078 net.cpp:148] Top shape: 100 38 (3800)
I0403 13:25:08.731487 32078 net.cpp:156] Memory required for data: 831541200
I0403 13:25:08.731505 32078 layer_factory.hpp:77] Creating layer fc8_plantvillage_fc8_plantvillage_0_split
I0403 13:25:08.731523 32078 net.cpp:91] Creating Layer fc8_plantvillage_fc8_plantvillage_0_split
I0403 13:25:08.731539 32078 net.cpp:425] fc8_plantvillage_fc8_plantvillage_0_split <- fc8_plantvillage
I0403 13:25:08.731557 32078 net.cpp:399] fc8_plantvillage_fc8_plantvillage_0_split -> fc8_plantvillage_fc8_plantvillage_0_split_0
I0403 13:25:08.731577 32078 net.cpp:399] fc8_plantvillage_fc8_plantvillage_0_split -> fc8_plantvillage_fc8_plantvillage_0_split_1
I0403 13:25:08.731597 32078 net.cpp:399] fc8_plantvillage_fc8_plantvillage_0_split -> fc8_plantvillage_fc8_plantvillage_0_split_2
I0403 13:25:08.731674 32078 net.cpp:141] Setting up fc8_plantvillage_fc8_plantvillage_0_split
I0403 13:25:08.731698 32078 net.cpp:148] Top shape: 100 38 (3800)
I0403 13:25:08.731714 32078 net.cpp:148] Top shape: 100 38 (3800)
I0403 13:25:08.731730 32078 net.cpp:148] Top shape: 100 38 (3800)
I0403 13:25:08.731745 32078 net.cpp:156] Memory required for data: 831586800
I0403 13:25:08.731760 32078 layer_factory.hpp:77] Creating layer prob
I0403 13:25:08.731777 32078 net.cpp:91] Creating Layer prob
I0403 13:25:08.731793 32078 net.cpp:425] prob <- fc8_plantvillage_fc8_plantvillage_0_split_0
I0403 13:25:08.731812 32078 net.cpp:399] prob -> prob
I0403 13:25:08.732039 32078 net.cpp:141] Setting up prob
I0403 13:25:08.732064 32078 net.cpp:148] Top shape: 100 38 (3800)
I0403 13:25:08.732079 32078 net.cpp:156] Memory required for data: 831602000
I0403 13:25:08.732095 32078 layer_factory.hpp:77] Creating layer hdf5out
I0403 13:25:08.732117 32078 net.cpp:91] Creating Layer hdf5out
I0403 13:25:08.732134 32078 net.cpp:425] hdf5out <- prob
I0403 13:25:08.732151 32078 net.cpp:425] hdf5out <- label_data_1_split_0
I0403 13:25:08.734879 32078 net.cpp:141] Setting up hdf5out
…
