…
I0403 13:32:52.051519 32409 net.cpp:313] The NetState phase (1) differed from the phase (0) specified by a rule in layer data
I0403 13:32:52.051815 32409 net.cpp:49] Initializing net from parameters: 
state {
  phase: TEST
}
layer {
  name: "data"
  type: "Data"
  top: "data"
  top: "label"
  include {
    phase: TEST
  }
  transform_param {
    crop_size: 227
    mean_file: "/home/mohanty/data/final_dataset/lmdb/grayscale-60-40/mean.binaryproto"
  }
  data_param {
    source: "/home/mohanty/data/final_dataset/lmdb/grayscale-60-40/test_db"
    batch_size: 100
    backend: LMDB
  }
}
layer {
  name: "conv1"
  type: "Convolution"
  bottom: "data"
  top: "conv1"
  param {
    lr_mult: 1
    decay_mult: 1
  }
  param {
    lr_mult: 2
    decay_mult: 0
  }
  convolution_param {
    num_output: 96
    kernel_size: 11
    stride: 4
    weight_filler {
      type: "gaussian"
      std: 0.01
    }
    bias_filler {
      type: "constant"
      value: 0
    }
  }
}
layer {
  name: "relu1"
  type: "ReLU"
  bottom: "conv1"
  top: "conv1"
}
layer {
  name: "norm1"
  type: "LRN"
  bottom: "conv1"
  top: "norm1"
  lrn_param {
    local_size: 5
    alpha: 0.0001
    beta: 0.75
  }
}
layer {
  name: "pool1"
  type: "Pooling"
  bottom: "norm1"
  top: "pool1"
  pooling_param {
    pool: MAX
    kernel_size: 3
    stride: 2
  }
}
layer {
  name: "conv2"
  type: "Convolution"
  bottom: "pool1"
  top: "conv2"
  param {
    lr_mult: 1
    decay_mult: 1
  }
  param {
    lr_mult: 2
    decay_mult: 0
  }
  convolution_param {
    num_output: 256
    pad: 2
    kernel_size: 5
    group: 2
    weight_filler {
      type: "gaussian"
      std: 0.01
    }
    bias_filler {
      type: "constant"
      value: 0.1
    }
  }
}
layer {
  name: "relu2"
  type: "ReLU"
  bottom: "conv2"
  top: "conv2"
}
layer {
  name: "norm2"
  type: "LRN"
  bottom: "conv2"
  top: "norm2"
  lrn_param {
    local_size: 5
    alpha: 0.0001
    beta: 0.75
  }
}
layer {
  name: "pool2"
  type: "Pooling"
  bottom: "norm2"
  top: "pool2"
  pooling_param {
    pool: MAX
    kernel_size: 3
    stride: 2
  }
}
layer {
  name: "conv3"
  type: "Convolution"
  bottom: "pool2"
  top: "conv3"
  param {
    lr_mult: 1
    decay_mult: 1
  }
  param {
    lr_mult: 2
    decay_mult: 0
  }
  convolution_param {
    num_output: 384
    pad: 1
    kernel_size: 3
    weight_filler {
      type: "gaussian"
      std: 0.01
    }
    bias_filler {
      type: "constant"
      value: 0
    }
  }
}
layer {
  name: "relu3"
  type: "ReLU"
  bottom: "conv3"
  top: "conv3"
}
layer {
  name: "conv4"
  type: "Convolution"
  bottom: "conv3"
  top: "conv4"
  param {
    lr_mult: 1
    decay_mult: 1
  }
  param {
    lr_mult: 2
    decay_mult: 0
  }
  convolution_param {
    num_output: 384
    pad: 1
    kernel_size: 3
    group: 2
    weight_filler {
      type: "gaussian"
      std: 0.01
    }
    bias_filler {
      type: "constant"
      value: 0.1
    }
  }
}
layer {
  name: "relu4"
  type: "ReLU"
  bottom: "conv4"
  top: "conv4"
}
layer {
  name: "conv5"
  type: "Convolution"
  bottom: "conv4"
  top: "conv5"
  param {
    lr_mult: 1
    decay_mult: 1
  }
  param {
    lr_mult: 2
    decay_mult: 0
  }
  convolution_param {
    num_output: 256
    pad: 1
    kernel_size: 3
    group: 2
    weight_filler {
      type: "gaussian"
      std: 0.01
    }
    bias_filler {
      type: "constant"
      value: 0.1
    }
  }
}
layer {
  name: "relu5"
  type: "ReLU"
  bottom: "conv5"
  top: "conv5"
}
layer {
  name: "pool5"
  type: "Pooling"
  bottom: "conv5"
  top: "pool5"
  pooling_param {
    pool: MAX
    kernel_size: 3
    stride: 2
  }
}
layer {
  name: "fc6"
  type: "InnerProduct"
  bottom: "pool5"
  top: "fc6"
  param {
    lr_mult: 1
    decay_mult: 1
  }
  param {
    lr_mult: 2
    decay_mult: 0
  }
  inner_product_param {
    num_output: 4096
    weight_filler {
      type: "gaussian"
      std: 0.005
    }
    bias_filler {
      type: "constant"
      value: 0.1
    }
  }
}
layer {
  name: "relu6"
  type: "ReLU"
  bottom: "fc6"
  top: "fc6"
}
layer {
  name: "drop6"
  type: "Dropout"
  bottom: "fc6"
  top: "fc6"
  dropout_param {
    dropout_ratio: 0.5
  }
}
layer {
  name: "fc7"
  type: "InnerProduct"
  bottom: "fc6"
  top: "fc7"
  param {
    lr_mult: 1
    decay_mult: 1
  }
  param {
    lr_mult: 2
    decay_mult: 0
  }
  inner_product_param {
    num_output: 4096
    weight_filler {
      type: "gaussian"
      std: 0.005
    }
    bias_filler {
      type: "constant"
      value: 0.1
    }
  }
}
layer {
  name: "relu7"
  type: "ReLU"
  bottom: "fc7"
  top: "fc7"
}
layer {
  name: "drop7"
  type: "Dropout"
  bottom: "fc7"
  top: "fc7"
  dropout_param {
    dropout_ratio: 0.5
  }
}
layer {
  name: "fc8_plantvillage"
  type: "InnerProduct"
  bottom: "fc7"
  top: "fc8_plantvillage"
  param {
    lr_mult: 1
    decay_mult: 1
  }
  param {
    lr_mult: 2
    decay_mult: 0
  }
  inner_product_param {
    num_output: 38
    weight_filler {
      type: "gaussian"
      std: 0.01
    }
    bias_filler {
      type: "constant"
      value: 0
    }
  }
}
layer {
  name: "prob"
  type: "Softmax"
  bottom: "fc8_plantvillage"
  top: "prob"
  include {
    phase: TEST
  }
}
layer {
  name: "hdf5out"
  type: "HDF5Output"
  bottom: "prob"
  bottom: "label"
  include {
    phase: TEST
  }
  hdf5_output_param {
    file_name: "hdf5_dumps/iter_9758.h5"
  }
}
layer {
  name: "loss"
  type: "SoftmaxWithLoss"
  bottom: "fc8_plantvillage"
  bottom: "label"
  top: "loss"
}
layer {
  name: "accuracy"
  type: "Accuracy"
  bottom: "fc8_plantvillage"
  bottom: "label"
  top: "accuracy"
  include {
    phase: TEST
  }
}
I0403 13:32:52.052350 32409 layer_factory.hpp:77] Creating layer data
I0403 13:32:52.052969 32409 net.cpp:91] Creating Layer data
I0403 13:32:52.052999 32409 net.cpp:399] data -> data
I0403 13:32:52.053046 32409 net.cpp:399] data -> label
I0403 13:32:52.053079 32409 data_transformer.cpp:25] Loading mean file from: /home/mohanty/data/final_dataset/lmdb/grayscale-60-40/mean.binaryproto
I0403 13:32:52.055944 32413 db_lmdb.cpp:38] Opened lmdb /home/mohanty/data/final_dataset/lmdb/grayscale-60-40/test_db
I0403 13:32:52.071749 32409 data_layer.cpp:41] output data size: 100,3,227,227
I0403 13:32:52.274775 32409 net.cpp:141] Setting up data
I0403 13:32:52.274857 32409 net.cpp:148] Top shape: 100 3 227 227 (15458700)
I0403 13:32:52.274883 32409 net.cpp:148] Top shape: 100 (100)
I0403 13:32:52.274899 32409 net.cpp:156] Memory required for data: 61835200
I0403 13:32:52.274927 32409 layer_factory.hpp:77] Creating layer label_data_1_split
I0403 13:32:52.274956 32409 net.cpp:91] Creating Layer label_data_1_split
I0403 13:32:52.274976 32409 net.cpp:425] label_data_1_split <- label
I0403 13:32:52.275005 32409 net.cpp:399] label_data_1_split -> label_data_1_split_0
I0403 13:32:52.275033 32409 net.cpp:399] label_data_1_split -> label_data_1_split_1
I0403 13:32:52.275055 32409 net.cpp:399] label_data_1_split -> label_data_1_split_2
I0403 13:32:52.275122 32409 net.cpp:141] Setting up label_data_1_split
I0403 13:32:52.275146 32409 net.cpp:148] Top shape: 100 (100)
I0403 13:32:52.275163 32409 net.cpp:148] Top shape: 100 (100)
I0403 13:32:52.275180 32409 net.cpp:148] Top shape: 100 (100)
I0403 13:32:52.275195 32409 net.cpp:156] Memory required for data: 61836400
I0403 13:32:52.275215 32409 layer_factory.hpp:77] Creating layer conv1
I0403 13:32:52.275259 32409 net.cpp:91] Creating Layer conv1
I0403 13:32:52.275279 32409 net.cpp:425] conv1 <- data
I0403 13:32:52.275300 32409 net.cpp:399] conv1 -> conv1
I0403 13:32:54.508836 32409 net.cpp:141] Setting up conv1
I0403 13:32:54.508925 32409 net.cpp:148] Top shape: 100 96 55 55 (29040000)
I0403 13:32:54.508942 32409 net.cpp:156] Memory required for data: 177996400
I0403 13:32:54.508975 32409 layer_factory.hpp:77] Creating layer relu1
I0403 13:32:54.509003 32409 net.cpp:91] Creating Layer relu1
I0403 13:32:54.509021 32409 net.cpp:425] relu1 <- conv1
I0403 13:32:54.509040 32409 net.cpp:386] relu1 -> conv1 (in-place)
I0403 13:32:54.515070 32409 net.cpp:141] Setting up relu1
I0403 13:32:54.515171 32409 net.cpp:148] Top shape: 100 96 55 55 (29040000)
I0403 13:32:54.515242 32409 net.cpp:156] Memory required for data: 294156400
I0403 13:32:54.515262 32409 layer_factory.hpp:77] Creating layer norm1
I0403 13:32:54.515300 32409 net.cpp:91] Creating Layer norm1
I0403 13:32:54.515321 32409 net.cpp:425] norm1 <- conv1
I0403 13:32:54.515342 32409 net.cpp:399] norm1 -> norm1
I0403 13:32:54.515702 32409 net.cpp:141] Setting up norm1
I0403 13:32:54.515730 32409 net.cpp:148] Top shape: 100 96 55 55 (29040000)
I0403 13:32:54.515745 32409 net.cpp:156] Memory required for data: 410316400
I0403 13:32:54.515760 32409 layer_factory.hpp:77] Creating layer pool1
I0403 13:32:54.515784 32409 net.cpp:91] Creating Layer pool1
I0403 13:32:54.515801 32409 net.cpp:425] pool1 <- norm1
I0403 13:32:54.515820 32409 net.cpp:399] pool1 -> pool1
I0403 13:32:54.515887 32409 net.cpp:141] Setting up pool1
I0403 13:32:54.515911 32409 net.cpp:148] Top shape: 100 96 27 27 (6998400)
I0403 13:32:54.515926 32409 net.cpp:156] Memory required for data: 438310000
I0403 13:32:54.515940 32409 layer_factory.hpp:77] Creating layer conv2
I0403 13:32:54.515964 32409 net.cpp:91] Creating Layer conv2
I0403 13:32:54.515980 32409 net.cpp:425] conv2 <- pool1
I0403 13:32:54.516000 32409 net.cpp:399] conv2 -> conv2
I0403 13:32:54.549237 32409 net.cpp:141] Setting up conv2
I0403 13:32:54.549335 32409 net.cpp:148] Top shape: 100 256 27 27 (18662400)
I0403 13:32:54.549351 32409 net.cpp:156] Memory required for data: 512959600
I0403 13:32:54.549381 32409 layer_factory.hpp:77] Creating layer relu2
I0403 13:32:54.549403 32409 net.cpp:91] Creating Layer relu2
I0403 13:32:54.549420 32409 net.cpp:425] relu2 <- conv2
I0403 13:32:54.549439 32409 net.cpp:386] relu2 -> conv2 (in-place)
I0403 13:32:54.549850 32409 net.cpp:141] Setting up relu2
I0403 13:32:54.549877 32409 net.cpp:148] Top shape: 100 256 27 27 (18662400)
I0403 13:32:54.549892 32409 net.cpp:156] Memory required for data: 587609200
I0403 13:32:54.549907 32409 layer_factory.hpp:77] Creating layer norm2
I0403 13:32:54.549932 32409 net.cpp:91] Creating Layer norm2
I0403 13:32:54.549947 32409 net.cpp:425] norm2 <- conv2
I0403 13:32:54.549965 32409 net.cpp:399] norm2 -> norm2
I0403 13:32:54.550159 32409 net.cpp:141] Setting up norm2
I0403 13:32:54.550186 32409 net.cpp:148] Top shape: 100 256 27 27 (18662400)
I0403 13:32:54.550200 32409 net.cpp:156] Memory required for data: 662258800
I0403 13:32:54.550220 32409 layer_factory.hpp:77] Creating layer pool2
I0403 13:32:54.550240 32409 net.cpp:91] Creating Layer pool2
I0403 13:32:54.550256 32409 net.cpp:425] pool2 <- norm2
I0403 13:32:54.550273 32409 net.cpp:399] pool2 -> pool2
I0403 13:32:54.550324 32409 net.cpp:141] Setting up pool2
I0403 13:32:54.550346 32409 net.cpp:148] Top shape: 100 256 13 13 (4326400)
I0403 13:32:54.550360 32409 net.cpp:156] Memory required for data: 679564400
I0403 13:32:54.550374 32409 layer_factory.hpp:77] Creating layer conv3
I0403 13:32:54.550398 32409 net.cpp:91] Creating Layer conv3
I0403 13:32:54.550415 32409 net.cpp:425] conv3 <- pool2
I0403 13:32:54.550433 32409 net.cpp:399] conv3 -> conv3
I0403 13:32:54.598181 32409 net.cpp:141] Setting up conv3
I0403 13:32:54.598275 32409 net.cpp:148] Top shape: 100 384 13 13 (6489600)
I0403 13:32:54.598294 32409 net.cpp:156] Memory required for data: 705522800
I0403 13:32:54.598320 32409 layer_factory.hpp:77] Creating layer relu3
I0403 13:32:54.598341 32409 net.cpp:91] Creating Layer relu3
I0403 13:32:54.598361 32409 net.cpp:425] relu3 <- conv3
I0403 13:32:54.598381 32409 net.cpp:386] relu3 -> conv3 (in-place)
I0403 13:32:54.598655 32409 net.cpp:141] Setting up relu3
I0403 13:32:54.598683 32409 net.cpp:148] Top shape: 100 384 13 13 (6489600)
I0403 13:32:54.598700 32409 net.cpp:156] Memory required for data: 731481200
I0403 13:32:54.598714 32409 layer_factory.hpp:77] Creating layer conv4
I0403 13:32:54.598742 32409 net.cpp:91] Creating Layer conv4
I0403 13:32:54.598758 32409 net.cpp:425] conv4 <- conv3
I0403 13:32:54.598779 32409 net.cpp:399] conv4 -> conv4
I0403 13:32:54.628518 32409 net.cpp:141] Setting up conv4
I0403 13:32:54.628605 32409 net.cpp:148] Top shape: 100 384 13 13 (6489600)
I0403 13:32:54.628656 32409 net.cpp:156] Memory required for data: 757439600
I0403 13:32:54.628679 32409 layer_factory.hpp:77] Creating layer relu4
I0403 13:32:54.628700 32409 net.cpp:91] Creating Layer relu4
I0403 13:32:54.628717 32409 net.cpp:425] relu4 <- conv4
I0403 13:32:54.628736 32409 net.cpp:386] relu4 -> conv4 (in-place)
I0403 13:32:54.629058 32409 net.cpp:141] Setting up relu4
I0403 13:32:54.629086 32409 net.cpp:148] Top shape: 100 384 13 13 (6489600)
I0403 13:32:54.629103 32409 net.cpp:156] Memory required for data: 783398000
I0403 13:32:54.629118 32409 layer_factory.hpp:77] Creating layer conv5
I0403 13:32:54.629142 32409 net.cpp:91] Creating Layer conv5
I0403 13:32:54.629158 32409 net.cpp:425] conv5 <- conv4
I0403 13:32:54.629179 32409 net.cpp:399] conv5 -> conv5
I0403 13:32:54.649680 32409 net.cpp:141] Setting up conv5
I0403 13:32:54.649761 32409 net.cpp:148] Top shape: 100 256 13 13 (4326400)
I0403 13:32:54.649777 32409 net.cpp:156] Memory required for data: 800703600
I0403 13:32:54.649806 32409 layer_factory.hpp:77] Creating layer relu5
I0403 13:32:54.649829 32409 net.cpp:91] Creating Layer relu5
I0403 13:32:54.649847 32409 net.cpp:425] relu5 <- conv5
I0403 13:32:54.649868 32409 net.cpp:386] relu5 -> conv5 (in-place)
I0403 13:32:54.650142 32409 net.cpp:141] Setting up relu5
I0403 13:32:54.650171 32409 net.cpp:148] Top shape: 100 256 13 13 (4326400)
I0403 13:32:54.650187 32409 net.cpp:156] Memory required for data: 818009200
I0403 13:32:54.650202 32409 layer_factory.hpp:77] Creating layer pool5
I0403 13:32:54.650228 32409 net.cpp:91] Creating Layer pool5
I0403 13:32:54.650245 32409 net.cpp:425] pool5 <- conv5
I0403 13:32:54.650266 32409 net.cpp:399] pool5 -> pool5
I0403 13:32:54.650341 32409 net.cpp:141] Setting up pool5
I0403 13:32:54.650367 32409 net.cpp:148] Top shape: 100 256 6 6 (921600)
I0403 13:32:54.650383 32409 net.cpp:156] Memory required for data: 821695600
I0403 13:32:54.650398 32409 layer_factory.hpp:77] Creating layer fc6
I0403 13:32:54.650426 32409 net.cpp:91] Creating Layer fc6
I0403 13:32:54.650444 32409 net.cpp:425] fc6 <- pool5
I0403 13:32:54.650465 32409 net.cpp:399] fc6 -> fc6
I0403 13:32:56.188256 32409 net.cpp:141] Setting up fc6
I0403 13:32:56.188364 32409 net.cpp:148] Top shape: 100 4096 (409600)
I0403 13:32:56.188381 32409 net.cpp:156] Memory required for data: 823334000
I0403 13:32:56.188403 32409 layer_factory.hpp:77] Creating layer relu6
I0403 13:32:56.188426 32409 net.cpp:91] Creating Layer relu6
I0403 13:32:56.188442 32409 net.cpp:425] relu6 <- fc6
I0403 13:32:56.188462 32409 net.cpp:386] relu6 -> fc6 (in-place)
I0403 13:32:56.188696 32409 net.cpp:141] Setting up relu6
I0403 13:32:56.188722 32409 net.cpp:148] Top shape: 100 4096 (409600)
I0403 13:32:56.188736 32409 net.cpp:156] Memory required for data: 824972400
I0403 13:32:56.188750 32409 layer_factory.hpp:77] Creating layer drop6
I0403 13:32:56.188768 32409 net.cpp:91] Creating Layer drop6
I0403 13:32:56.188783 32409 net.cpp:425] drop6 <- fc6
I0403 13:32:56.188802 32409 net.cpp:386] drop6 -> fc6 (in-place)
I0403 13:32:56.188854 32409 net.cpp:141] Setting up drop6
I0403 13:32:56.188875 32409 net.cpp:148] Top shape: 100 4096 (409600)
I0403 13:32:56.188889 32409 net.cpp:156] Memory required for data: 826610800
I0403 13:32:56.188905 32409 layer_factory.hpp:77] Creating layer fc7
I0403 13:32:56.188927 32409 net.cpp:91] Creating Layer fc7
I0403 13:32:56.188943 32409 net.cpp:425] fc7 <- fc6
I0403 13:32:56.188962 32409 net.cpp:399] fc7 -> fc7
I0403 13:32:56.858441 32409 net.cpp:141] Setting up fc7
I0403 13:32:56.858531 32409 net.cpp:148] Top shape: 100 4096 (409600)
I0403 13:32:56.858548 32409 net.cpp:156] Memory required for data: 828249200
I0403 13:32:56.858569 32409 layer_factory.hpp:77] Creating layer relu7
I0403 13:32:56.858590 32409 net.cpp:91] Creating Layer relu7
I0403 13:32:56.858608 32409 net.cpp:425] relu7 <- fc7
I0403 13:32:56.858626 32409 net.cpp:386] relu7 -> fc7 (in-place)
I0403 13:32:56.859025 32409 net.cpp:141] Setting up relu7
I0403 13:32:56.859052 32409 net.cpp:148] Top shape: 100 4096 (409600)
I0403 13:32:56.859096 32409 net.cpp:156] Memory required for data: 829887600
I0403 13:32:56.859110 32409 layer_factory.hpp:77] Creating layer drop7
I0403 13:32:56.859129 32409 net.cpp:91] Creating Layer drop7
I0403 13:32:56.859144 32409 net.cpp:425] drop7 <- fc7
I0403 13:32:56.859160 32409 net.cpp:386] drop7 -> fc7 (in-place)
I0403 13:32:56.859223 32409 net.cpp:141] Setting up drop7
I0403 13:32:56.859246 32409 net.cpp:148] Top shape: 100 4096 (409600)
I0403 13:32:56.859261 32409 net.cpp:156] Memory required for data: 831526000
I0403 13:32:56.859274 32409 layer_factory.hpp:77] Creating layer fc8_plantvillage
I0403 13:32:56.859297 32409 net.cpp:91] Creating Layer fc8_plantvillage
I0403 13:32:56.859313 32409 net.cpp:425] fc8_plantvillage <- fc7
I0403 13:32:56.859344 32409 net.cpp:399] fc8_plantvillage -> fc8_plantvillage
I0403 13:32:56.865991 32409 net.cpp:141] Setting up fc8_plantvillage
I0403 13:32:56.866019 32409 net.cpp:148] Top shape: 100 38 (3800)
I0403 13:32:56.866034 32409 net.cpp:156] Memory required for data: 831541200
I0403 13:32:56.866050 32409 layer_factory.hpp:77] Creating layer fc8_plantvillage_fc8_plantvillage_0_split
I0403 13:32:56.866068 32409 net.cpp:91] Creating Layer fc8_plantvillage_fc8_plantvillage_0_split
I0403 13:32:56.866083 32409 net.cpp:425] fc8_plantvillage_fc8_plantvillage_0_split <- fc8_plantvillage
I0403 13:32:56.866102 32409 net.cpp:399] fc8_plantvillage_fc8_plantvillage_0_split -> fc8_plantvillage_fc8_plantvillage_0_split_0
I0403 13:32:56.866123 32409 net.cpp:399] fc8_plantvillage_fc8_plantvillage_0_split -> fc8_plantvillage_fc8_plantvillage_0_split_1
I0403 13:32:56.866142 32409 net.cpp:399] fc8_plantvillage_fc8_plantvillage_0_split -> fc8_plantvillage_fc8_plantvillage_0_split_2
I0403 13:32:56.866221 32409 net.cpp:141] Setting up fc8_plantvillage_fc8_plantvillage_0_split
I0403 13:32:56.866245 32409 net.cpp:148] Top shape: 100 38 (3800)
I0403 13:32:56.866261 32409 net.cpp:148] Top shape: 100 38 (3800)
I0403 13:32:56.866276 32409 net.cpp:148] Top shape: 100 38 (3800)
I0403 13:32:56.866288 32409 net.cpp:156] Memory required for data: 831586800
I0403 13:32:56.866302 32409 layer_factory.hpp:77] Creating layer prob
I0403 13:32:56.866322 32409 net.cpp:91] Creating Layer prob
I0403 13:32:56.866338 32409 net.cpp:425] prob <- fc8_plantvillage_fc8_plantvillage_0_split_0
I0403 13:32:56.866355 32409 net.cpp:399] prob -> prob
I0403 13:32:56.866571 32409 net.cpp:141] Setting up prob
I0403 13:32:56.866600 32409 net.cpp:148] Top shape: 100 38 (3800)
I0403 13:32:56.866614 32409 net.cpp:156] Memory required for data: 831602000
I0403 13:32:56.866628 32409 layer_factory.hpp:77] Creating layer hdf5out
I0403 13:32:56.866647 32409 net.cpp:91] Creating Layer hdf5out
I0403 13:32:56.866662 32409 net.cpp:425] hdf5out <- prob
I0403 13:32:56.866677 32409 net.cpp:425] hdf5out <- label_data_1_split_0
I0403 13:32:56.868890 32409 net.cpp:141] Setting up hdf5out
…
