…
I0403 13:17:17.297776 31837 net.cpp:313] The NetState phase (1) differed from the phase (0) specified by a rule in layer data
I0403 13:17:17.298092 31837 net.cpp:49] Initializing net from parameters: 
state {
  phase: TEST
}
layer {
  name: "data"
  type: "Data"
  top: "data"
  top: "label"
  include {
    phase: TEST
  }
  transform_param {
    crop_size: 227
    mean_file: "/home/mohanty/data/final_dataset/lmdb/grayscale-60-40/mean.binaryproto"
  }
  data_param {
    source: "/home/mohanty/data/final_dataset/lmdb/grayscale-60-40/test_db"
    batch_size: 100
    backend: LMDB
  }
}
layer {
  name: "conv1"
  type: "Convolution"
  bottom: "data"
  top: "conv1"
  param {
    lr_mult: 1
    decay_mult: 1
  }
  param {
    lr_mult: 2
    decay_mult: 0
  }
  convolution_param {
    num_output: 96
    kernel_size: 11
    stride: 4
    weight_filler {
      type: "gaussian"
      std: 0.01
    }
    bias_filler {
      type: "constant"
      value: 0
    }
  }
}
layer {
  name: "relu1"
  type: "ReLU"
  bottom: "conv1"
  top: "conv1"
}
layer {
  name: "norm1"
  type: "LRN"
  bottom: "conv1"
  top: "norm1"
  lrn_param {
    local_size: 5
    alpha: 0.0001
    beta: 0.75
  }
}
layer {
  name: "pool1"
  type: "Pooling"
  bottom: "norm1"
  top: "pool1"
  pooling_param {
    pool: MAX
    kernel_size: 3
    stride: 2
  }
}
layer {
  name: "conv2"
  type: "Convolution"
  bottom: "pool1"
  top: "conv2"
  param {
    lr_mult: 1
    decay_mult: 1
  }
  param {
    lr_mult: 2
    decay_mult: 0
  }
  convolution_param {
    num_output: 256
    pad: 2
    kernel_size: 5
    group: 2
    weight_filler {
      type: "gaussian"
      std: 0.01
    }
    bias_filler {
      type: "constant"
      value: 0.1
    }
  }
}
layer {
  name: "relu2"
  type: "ReLU"
  bottom: "conv2"
  top: "conv2"
}
layer {
  name: "norm2"
  type: "LRN"
  bottom: "conv2"
  top: "norm2"
  lrn_param {
    local_size: 5
    alpha: 0.0001
    beta: 0.75
  }
}
layer {
  name: "pool2"
  type: "Pooling"
  bottom: "norm2"
  top: "pool2"
  pooling_param {
    pool: MAX
    kernel_size: 3
    stride: 2
  }
}
layer {
  name: "conv3"
  type: "Convolution"
  bottom: "pool2"
  top: "conv3"
  param {
    lr_mult: 1
    decay_mult: 1
  }
  param {
    lr_mult: 2
    decay_mult: 0
  }
  convolution_param {
    num_output: 384
    pad: 1
    kernel_size: 3
    weight_filler {
      type: "gaussian"
      std: 0.01
    }
    bias_filler {
      type: "constant"
      value: 0
    }
  }
}
layer {
  name: "relu3"
  type: "ReLU"
  bottom: "conv3"
  top: "conv3"
}
layer {
  name: "conv4"
  type: "Convolution"
  bottom: "conv3"
  top: "conv4"
  param {
    lr_mult: 1
    decay_mult: 1
  }
  param {
    lr_mult: 2
    decay_mult: 0
  }
  convolution_param {
    num_output: 384
    pad: 1
    kernel_size: 3
    group: 2
    weight_filler {
      type: "gaussian"
      std: 0.01
    }
    bias_filler {
      type: "constant"
      value: 0.1
    }
  }
}
layer {
  name: "relu4"
  type: "ReLU"
  bottom: "conv4"
  top: "conv4"
}
layer {
  name: "conv5"
  type: "Convolution"
  bottom: "conv4"
  top: "conv5"
  param {
    lr_mult: 1
    decay_mult: 1
  }
  param {
    lr_mult: 2
    decay_mult: 0
  }
  convolution_param {
    num_output: 256
    pad: 1
    kernel_size: 3
    group: 2
    weight_filler {
      type: "gaussian"
      std: 0.01
    }
    bias_filler {
      type: "constant"
      value: 0.1
    }
  }
}
layer {
  name: "relu5"
  type: "ReLU"
  bottom: "conv5"
  top: "conv5"
}
layer {
  name: "pool5"
  type: "Pooling"
  bottom: "conv5"
  top: "pool5"
  pooling_param {
    pool: MAX
    kernel_size: 3
    stride: 2
  }
}
layer {
  name: "fc6"
  type: "InnerProduct"
  bottom: "pool5"
  top: "fc6"
  param {
    lr_mult: 1
    decay_mult: 1
  }
  param {
    lr_mult: 2
    decay_mult: 0
  }
  inner_product_param {
    num_output: 4096
    weight_filler {
      type: "gaussian"
      std: 0.005
    }
    bias_filler {
      type: "constant"
      value: 0.1
    }
  }
}
layer {
  name: "relu6"
  type: "ReLU"
  bottom: "fc6"
  top: "fc6"
}
layer {
  name: "drop6"
  type: "Dropout"
  bottom: "fc6"
  top: "fc6"
  dropout_param {
    dropout_ratio: 0.5
  }
}
layer {
  name: "fc7"
  type: "InnerProduct"
  bottom: "fc6"
  top: "fc7"
  param {
    lr_mult: 1
    decay_mult: 1
  }
  param {
    lr_mult: 2
    decay_mult: 0
  }
  inner_product_param {
    num_output: 4096
    weight_filler {
      type: "gaussian"
      std: 0.005
    }
    bias_filler {
      type: "constant"
      value: 0.1
    }
  }
}
layer {
  name: "relu7"
  type: "ReLU"
  bottom: "fc7"
  top: "fc7"
}
layer {
  name: "drop7"
  type: "Dropout"
  bottom: "fc7"
  top: "fc7"
  dropout_param {
    dropout_ratio: 0.5
  }
}
layer {
  name: "fc8_plantvillage"
  type: "InnerProduct"
  bottom: "fc7"
  top: "fc8_plantvillage"
  param {
    lr_mult: 1
    decay_mult: 1
  }
  param {
    lr_mult: 2
    decay_mult: 0
  }
  inner_product_param {
    num_output: 38
    weight_filler {
      type: "gaussian"
      std: 0.01
    }
    bias_filler {
      type: "constant"
      value: 0
    }
  }
}
layer {
  name: "prob"
  type: "Softmax"
  bottom: "fc8_plantvillage"
  top: "prob"
  include {
    phase: TEST
  }
}
layer {
  name: "hdf5out"
  type: "HDF5Output"
  bottom: "prob"
  bottom: "label"
  include {
    phase: TEST
  }
  hdf5_output_param {
    file_name: "hdf5_dumps/iter_3575.h5"
  }
}
layer {
  name: "loss"
  type: "SoftmaxWithLoss"
  bottom: "fc8_plantvillage"
  bottom: "label"
  top: "loss"
}
layer {
  name: "accuracy"
  type: "Accuracy"
  bottom: "fc8_plantvillage"
  bottom: "label"
  top: "accuracy"
  include {
    phase: TEST
  }
}
I0403 13:17:17.298636 31837 layer_factory.hpp:77] Creating layer data
I0403 13:17:17.299302 31837 net.cpp:91] Creating Layer data
I0403 13:17:17.299335 31837 net.cpp:399] data -> data
I0403 13:17:17.299386 31837 net.cpp:399] data -> label
I0403 13:17:17.299423 31837 data_transformer.cpp:25] Loading mean file from: /home/mohanty/data/final_dataset/lmdb/grayscale-60-40/mean.binaryproto
I0403 13:17:17.302633 31840 db_lmdb.cpp:38] Opened lmdb /home/mohanty/data/final_dataset/lmdb/grayscale-60-40/test_db
I0403 13:17:17.313710 31837 data_layer.cpp:41] output data size: 100,3,227,227
I0403 13:17:17.434432 31837 net.cpp:141] Setting up data
I0403 13:17:17.434535 31837 net.cpp:148] Top shape: 100 3 227 227 (15458700)
I0403 13:17:17.434557 31837 net.cpp:148] Top shape: 100 (100)
I0403 13:17:17.434573 31837 net.cpp:156] Memory required for data: 61835200
I0403 13:17:17.434600 31837 layer_factory.hpp:77] Creating layer label_data_1_split
I0403 13:17:17.434625 31837 net.cpp:91] Creating Layer label_data_1_split
I0403 13:17:17.434643 31837 net.cpp:425] label_data_1_split <- label
I0403 13:17:17.434675 31837 net.cpp:399] label_data_1_split -> label_data_1_split_0
I0403 13:17:17.434702 31837 net.cpp:399] label_data_1_split -> label_data_1_split_1
I0403 13:17:17.434723 31837 net.cpp:399] label_data_1_split -> label_data_1_split_2
I0403 13:17:17.434787 31837 net.cpp:141] Setting up label_data_1_split
I0403 13:17:17.434809 31837 net.cpp:148] Top shape: 100 (100)
I0403 13:17:17.434828 31837 net.cpp:148] Top shape: 100 (100)
I0403 13:17:17.434844 31837 net.cpp:148] Top shape: 100 (100)
I0403 13:17:17.434859 31837 net.cpp:156] Memory required for data: 61836400
I0403 13:17:17.434873 31837 layer_factory.hpp:77] Creating layer conv1
I0403 13:17:17.434905 31837 net.cpp:91] Creating Layer conv1
I0403 13:17:17.434922 31837 net.cpp:425] conv1 <- data
I0403 13:17:17.434942 31837 net.cpp:399] conv1 -> conv1
I0403 13:17:17.579540 31837 net.cpp:141] Setting up conv1
I0403 13:17:17.579632 31837 net.cpp:148] Top shape: 100 96 55 55 (29040000)
I0403 13:17:17.579649 31837 net.cpp:156] Memory required for data: 177996400
I0403 13:17:17.579681 31837 layer_factory.hpp:77] Creating layer relu1
I0403 13:17:17.579710 31837 net.cpp:91] Creating Layer relu1
I0403 13:17:17.579728 31837 net.cpp:425] relu1 <- conv1
I0403 13:17:17.579749 31837 net.cpp:386] relu1 -> conv1 (in-place)
I0403 13:17:17.580103 31837 net.cpp:141] Setting up relu1
I0403 13:17:17.580130 31837 net.cpp:148] Top shape: 100 96 55 55 (29040000)
I0403 13:17:17.580178 31837 net.cpp:156] Memory required for data: 294156400
I0403 13:17:17.580193 31837 layer_factory.hpp:77] Creating layer norm1
I0403 13:17:17.580224 31837 net.cpp:91] Creating Layer norm1
I0403 13:17:17.580242 31837 net.cpp:425] norm1 <- conv1
I0403 13:17:17.580263 31837 net.cpp:399] norm1 -> norm1
I0403 13:17:17.580591 31837 net.cpp:141] Setting up norm1
I0403 13:17:17.580618 31837 net.cpp:148] Top shape: 100 96 55 55 (29040000)
I0403 13:17:17.580634 31837 net.cpp:156] Memory required for data: 410316400
I0403 13:17:17.580660 31837 layer_factory.hpp:77] Creating layer pool1
I0403 13:17:17.580683 31837 net.cpp:91] Creating Layer pool1
I0403 13:17:17.580701 31837 net.cpp:425] pool1 <- norm1
I0403 13:17:17.580723 31837 net.cpp:399] pool1 -> pool1
I0403 13:17:17.580792 31837 net.cpp:141] Setting up pool1
I0403 13:17:17.580817 31837 net.cpp:148] Top shape: 100 96 27 27 (6998400)
I0403 13:17:17.580832 31837 net.cpp:156] Memory required for data: 438310000
I0403 13:17:17.580848 31837 layer_factory.hpp:77] Creating layer conv2
I0403 13:17:17.580878 31837 net.cpp:91] Creating Layer conv2
I0403 13:17:17.580894 31837 net.cpp:425] conv2 <- pool1
I0403 13:17:17.580915 31837 net.cpp:399] conv2 -> conv2
I0403 13:17:17.596070 31837 net.cpp:141] Setting up conv2
I0403 13:17:17.596117 31837 net.cpp:148] Top shape: 100 256 27 27 (18662400)
I0403 13:17:17.596134 31837 net.cpp:156] Memory required for data: 512959600
I0403 13:17:17.596158 31837 layer_factory.hpp:77] Creating layer relu2
I0403 13:17:17.596179 31837 net.cpp:91] Creating Layer relu2
I0403 13:17:17.596197 31837 net.cpp:425] relu2 <- conv2
I0403 13:17:17.596220 31837 net.cpp:386] relu2 -> conv2 (in-place)
I0403 13:17:17.596506 31837 net.cpp:141] Setting up relu2
I0403 13:17:17.596534 31837 net.cpp:148] Top shape: 100 256 27 27 (18662400)
I0403 13:17:17.596550 31837 net.cpp:156] Memory required for data: 587609200
I0403 13:17:17.596565 31837 layer_factory.hpp:77] Creating layer norm2
I0403 13:17:17.596588 31837 net.cpp:91] Creating Layer norm2
I0403 13:17:17.596606 31837 net.cpp:425] norm2 <- conv2
I0403 13:17:17.596627 31837 net.cpp:399] norm2 -> norm2
I0403 13:17:17.596832 31837 net.cpp:141] Setting up norm2
I0403 13:17:17.596858 31837 net.cpp:148] Top shape: 100 256 27 27 (18662400)
I0403 13:17:17.596874 31837 net.cpp:156] Memory required for data: 662258800
I0403 13:17:17.596889 31837 layer_factory.hpp:77] Creating layer pool2
I0403 13:17:17.596907 31837 net.cpp:91] Creating Layer pool2
I0403 13:17:17.596926 31837 net.cpp:425] pool2 <- norm2
I0403 13:17:17.596943 31837 net.cpp:399] pool2 -> pool2
I0403 13:17:17.596998 31837 net.cpp:141] Setting up pool2
I0403 13:17:17.597021 31837 net.cpp:148] Top shape: 100 256 13 13 (4326400)
I0403 13:17:17.597036 31837 net.cpp:156] Memory required for data: 679564400
I0403 13:17:17.597051 31837 layer_factory.hpp:77] Creating layer conv3
I0403 13:17:17.597074 31837 net.cpp:91] Creating Layer conv3
I0403 13:17:17.597090 31837 net.cpp:425] conv3 <- pool2
I0403 13:17:17.597111 31837 net.cpp:399] conv3 -> conv3
I0403 13:17:17.637470 31837 net.cpp:141] Setting up conv3
I0403 13:17:17.637552 31837 net.cpp:148] Top shape: 100 384 13 13 (6489600)
I0403 13:17:17.637568 31837 net.cpp:156] Memory required for data: 705522800
I0403 13:17:17.637594 31837 layer_factory.hpp:77] Creating layer relu3
I0403 13:17:17.637619 31837 net.cpp:91] Creating Layer relu3
I0403 13:17:17.637639 31837 net.cpp:425] relu3 <- conv3
I0403 13:17:17.637658 31837 net.cpp:386] relu3 -> conv3 (in-place)
I0403 13:17:17.637934 31837 net.cpp:141] Setting up relu3
I0403 13:17:17.637961 31837 net.cpp:148] Top shape: 100 384 13 13 (6489600)
I0403 13:17:17.637977 31837 net.cpp:156] Memory required for data: 731481200
I0403 13:17:17.637992 31837 layer_factory.hpp:77] Creating layer conv4
I0403 13:17:17.638018 31837 net.cpp:91] Creating Layer conv4
I0403 13:17:17.638036 31837 net.cpp:425] conv4 <- conv3
I0403 13:17:17.638059 31837 net.cpp:399] conv4 -> conv4
I0403 13:17:17.668467 31837 net.cpp:141] Setting up conv4
I0403 13:17:17.668545 31837 net.cpp:148] Top shape: 100 384 13 13 (6489600)
I0403 13:17:17.668593 31837 net.cpp:156] Memory required for data: 757439600
I0403 13:17:17.668617 31837 layer_factory.hpp:77] Creating layer relu4
I0403 13:17:17.668642 31837 net.cpp:91] Creating Layer relu4
I0403 13:17:17.668658 31837 net.cpp:425] relu4 <- conv4
I0403 13:17:17.668680 31837 net.cpp:386] relu4 -> conv4 (in-place)
I0403 13:17:17.668961 31837 net.cpp:141] Setting up relu4
I0403 13:17:17.668987 31837 net.cpp:148] Top shape: 100 384 13 13 (6489600)
I0403 13:17:17.669003 31837 net.cpp:156] Memory required for data: 783398000
I0403 13:17:17.669018 31837 layer_factory.hpp:77] Creating layer conv5
I0403 13:17:17.669045 31837 net.cpp:91] Creating Layer conv5
I0403 13:17:17.669064 31837 net.cpp:425] conv5 <- conv4
I0403 13:17:17.669132 31837 net.cpp:399] conv5 -> conv5
I0403 13:17:17.690040 31837 net.cpp:141] Setting up conv5
I0403 13:17:17.690095 31837 net.cpp:148] Top shape: 100 256 13 13 (4326400)
I0403 13:17:17.690112 31837 net.cpp:156] Memory required for data: 800703600
I0403 13:17:17.690137 31837 layer_factory.hpp:77] Creating layer relu5
I0403 13:17:17.690161 31837 net.cpp:91] Creating Layer relu5
I0403 13:17:17.690179 31837 net.cpp:425] relu5 <- conv5
I0403 13:17:17.690197 31837 net.cpp:386] relu5 -> conv5 (in-place)
I0403 13:17:17.690479 31837 net.cpp:141] Setting up relu5
I0403 13:17:17.690505 31837 net.cpp:148] Top shape: 100 256 13 13 (4326400)
I0403 13:17:17.690521 31837 net.cpp:156] Memory required for data: 818009200
I0403 13:17:17.690536 31837 layer_factory.hpp:77] Creating layer pool5
I0403 13:17:17.690562 31837 net.cpp:91] Creating Layer pool5
I0403 13:17:17.690579 31837 net.cpp:425] pool5 <- conv5
I0403 13:17:17.690598 31837 net.cpp:399] pool5 -> pool5
I0403 13:17:17.690659 31837 net.cpp:141] Setting up pool5
I0403 13:17:17.690683 31837 net.cpp:148] Top shape: 100 256 6 6 (921600)
I0403 13:17:17.690698 31837 net.cpp:156] Memory required for data: 821695600
I0403 13:17:17.690713 31837 layer_factory.hpp:77] Creating layer fc6
I0403 13:17:17.690742 31837 net.cpp:91] Creating Layer fc6
I0403 13:17:17.690762 31837 net.cpp:425] fc6 <- pool5
I0403 13:17:17.690779 31837 net.cpp:399] fc6 -> fc6
I0403 13:17:19.255681 31837 net.cpp:141] Setting up fc6
I0403 13:17:19.255771 31837 net.cpp:148] Top shape: 100 4096 (409600)
I0403 13:17:19.255787 31837 net.cpp:156] Memory required for data: 823334000
I0403 13:17:19.255810 31837 layer_factory.hpp:77] Creating layer relu6
I0403 13:17:19.255831 31837 net.cpp:91] Creating Layer relu6
I0403 13:17:19.255849 31837 net.cpp:425] relu6 <- fc6
I0403 13:17:19.255872 31837 net.cpp:386] relu6 -> fc6 (in-place)
I0403 13:17:19.256103 31837 net.cpp:141] Setting up relu6
I0403 13:17:19.256129 31837 net.cpp:148] Top shape: 100 4096 (409600)
I0403 13:17:19.256145 31837 net.cpp:156] Memory required for data: 824972400
I0403 13:17:19.256160 31837 layer_factory.hpp:77] Creating layer drop6
I0403 13:17:19.256178 31837 net.cpp:91] Creating Layer drop6
I0403 13:17:19.256196 31837 net.cpp:425] drop6 <- fc6
I0403 13:17:19.256222 31837 net.cpp:386] drop6 -> fc6 (in-place)
I0403 13:17:19.256284 31837 net.cpp:141] Setting up drop6
I0403 13:17:19.256310 31837 net.cpp:148] Top shape: 100 4096 (409600)
I0403 13:17:19.256326 31837 net.cpp:156] Memory required for data: 826610800
I0403 13:17:19.256341 31837 layer_factory.hpp:77] Creating layer fc7
I0403 13:17:19.256362 31837 net.cpp:91] Creating Layer fc7
I0403 13:17:19.256378 31837 net.cpp:425] fc7 <- fc6
I0403 13:17:19.256399 31837 net.cpp:399] fc7 -> fc7
I0403 13:17:19.941318 31837 net.cpp:141] Setting up fc7
I0403 13:17:19.941407 31837 net.cpp:148] Top shape: 100 4096 (409600)
I0403 13:17:19.941423 31837 net.cpp:156] Memory required for data: 828249200
I0403 13:17:19.941445 31837 layer_factory.hpp:77] Creating layer relu7
I0403 13:17:19.941467 31837 net.cpp:91] Creating Layer relu7
I0403 13:17:19.941483 31837 net.cpp:425] relu7 <- fc7
I0403 13:17:19.941504 31837 net.cpp:386] relu7 -> fc7 (in-place)
I0403 13:17:19.941920 31837 net.cpp:141] Setting up relu7
I0403 13:17:19.941947 31837 net.cpp:148] Top shape: 100 4096 (409600)
I0403 13:17:19.941997 31837 net.cpp:156] Memory required for data: 829887600
I0403 13:17:19.942013 31837 layer_factory.hpp:77] Creating layer drop7
I0403 13:17:19.942031 31837 net.cpp:91] Creating Layer drop7
I0403 13:17:19.942046 31837 net.cpp:425] drop7 <- fc7
I0403 13:17:19.942066 31837 net.cpp:386] drop7 -> fc7 (in-place)
I0403 13:17:19.942111 31837 net.cpp:141] Setting up drop7
I0403 13:17:19.942137 31837 net.cpp:148] Top shape: 100 4096 (409600)
I0403 13:17:19.942152 31837 net.cpp:156] Memory required for data: 831526000
I0403 13:17:19.942167 31837 layer_factory.hpp:77] Creating layer fc8_plantvillage
I0403 13:17:19.942186 31837 net.cpp:91] Creating Layer fc8_plantvillage
I0403 13:17:19.942203 31837 net.cpp:425] fc8_plantvillage <- fc7
I0403 13:17:19.942236 31837 net.cpp:399] fc8_plantvillage -> fc8_plantvillage
I0403 13:17:19.948968 31837 net.cpp:141] Setting up fc8_plantvillage
I0403 13:17:19.948997 31837 net.cpp:148] Top shape: 100 38 (3800)
I0403 13:17:19.949012 31837 net.cpp:156] Memory required for data: 831541200
I0403 13:17:19.949029 31837 layer_factory.hpp:77] Creating layer fc8_plantvillage_fc8_plantvillage_0_split
I0403 13:17:19.949049 31837 net.cpp:91] Creating Layer fc8_plantvillage_fc8_plantvillage_0_split
I0403 13:17:19.949065 31837 net.cpp:425] fc8_plantvillage_fc8_plantvillage_0_split <- fc8_plantvillage
I0403 13:17:19.949084 31837 net.cpp:399] fc8_plantvillage_fc8_plantvillage_0_split -> fc8_plantvillage_fc8_plantvillage_0_split_0
I0403 13:17:19.949102 31837 net.cpp:399] fc8_plantvillage_fc8_plantvillage_0_split -> fc8_plantvillage_fc8_plantvillage_0_split_1
I0403 13:17:19.949121 31837 net.cpp:399] fc8_plantvillage_fc8_plantvillage_0_split -> fc8_plantvillage_fc8_plantvillage_0_split_2
I0403 13:17:19.949198 31837 net.cpp:141] Setting up fc8_plantvillage_fc8_plantvillage_0_split
I0403 13:17:19.949228 31837 net.cpp:148] Top shape: 100 38 (3800)
I0403 13:17:19.949244 31837 net.cpp:148] Top shape: 100 38 (3800)
I0403 13:17:19.949260 31837 net.cpp:148] Top shape: 100 38 (3800)
I0403 13:17:19.949273 31837 net.cpp:156] Memory required for data: 831586800
I0403 13:17:19.949287 31837 layer_factory.hpp:77] Creating layer prob
I0403 13:17:19.949306 31837 net.cpp:91] Creating Layer prob
I0403 13:17:19.949321 31837 net.cpp:425] prob <- fc8_plantvillage_fc8_plantvillage_0_split_0
I0403 13:17:19.949337 31837 net.cpp:399] prob -> prob
I0403 13:17:19.949573 31837 net.cpp:141] Setting up prob
I0403 13:17:19.949599 31837 net.cpp:148] Top shape: 100 38 (3800)
I0403 13:17:19.949612 31837 net.cpp:156] Memory required for data: 831602000
I0403 13:17:19.949627 31837 layer_factory.hpp:77] Creating layer hdf5out
I0403 13:17:19.949646 31837 net.cpp:91] Creating Layer hdf5out
I0403 13:17:19.949661 31837 net.cpp:425] hdf5out <- prob
I0403 13:17:19.949678 31837 net.cpp:425] hdf5out <- label_data_1_split_0
I0403 13:17:19.951912 31837 net.cpp:141] Setting up hdf5out
…
