…
I0403 13:25:52.944886 32098 net.cpp:313] The NetState phase (1) differed from the phase (0) specified by a rule in layer data
I0403 13:25:52.945195 32098 net.cpp:49] Initializing net from parameters: 
state {
  phase: TEST
}
layer {
  name: "data"
  type: "Data"
  top: "data"
  top: "label"
  include {
    phase: TEST
  }
  transform_param {
    crop_size: 227
    mean_file: "/home/mohanty/data/final_dataset/lmdb/grayscale-60-40/mean.binaryproto"
  }
  data_param {
    source: "/home/mohanty/data/final_dataset/lmdb/grayscale-60-40/test_db"
    batch_size: 100
    backend: LMDB
  }
}
layer {
  name: "conv1"
  type: "Convolution"
  bottom: "data"
  top: "conv1"
  param {
    lr_mult: 1
    decay_mult: 1
  }
  param {
    lr_mult: 2
    decay_mult: 0
  }
  convolution_param {
    num_output: 96
    kernel_size: 11
    stride: 4
    weight_filler {
      type: "gaussian"
      std: 0.01
    }
    bias_filler {
      type: "constant"
      value: 0
    }
  }
}
layer {
  name: "relu1"
  type: "ReLU"
  bottom: "conv1"
  top: "conv1"
}
layer {
  name: "norm1"
  type: "LRN"
  bottom: "conv1"
  top: "norm1"
  lrn_param {
    local_size: 5
    alpha: 0.0001
    beta: 0.75
  }
}
layer {
  name: "pool1"
  type: "Pooling"
  bottom: "norm1"
  top: "pool1"
  pooling_param {
    pool: MAX
    kernel_size: 3
    stride: 2
  }
}
layer {
  name: "conv2"
  type: "Convolution"
  bottom: "pool1"
  top: "conv2"
  param {
    lr_mult: 1
    decay_mult: 1
  }
  param {
    lr_mult: 2
    decay_mult: 0
  }
  convolution_param {
    num_output: 256
    pad: 2
    kernel_size: 5
    group: 2
    weight_filler {
      type: "gaussian"
      std: 0.01
    }
    bias_filler {
      type: "constant"
      value: 0.1
    }
  }
}
layer {
  name: "relu2"
  type: "ReLU"
  bottom: "conv2"
  top: "conv2"
}
layer {
  name: "norm2"
  type: "LRN"
  bottom: "conv2"
  top: "norm2"
  lrn_param {
    local_size: 5
    alpha: 0.0001
    beta: 0.75
  }
}
layer {
  name: "pool2"
  type: "Pooling"
  bottom: "norm2"
  top: "pool2"
  pooling_param {
    pool: MAX
    kernel_size: 3
    stride: 2
  }
}
layer {
  name: "conv3"
  type: "Convolution"
  bottom: "pool2"
  top: "conv3"
  param {
    lr_mult: 1
    decay_mult: 1
  }
  param {
    lr_mult: 2
    decay_mult: 0
  }
  convolution_param {
    num_output: 384
    pad: 1
    kernel_size: 3
    weight_filler {
      type: "gaussian"
      std: 0.01
    }
    bias_filler {
      type: "constant"
      value: 0
    }
  }
}
layer {
  name: "relu3"
  type: "ReLU"
  bottom: "conv3"
  top: "conv3"
}
layer {
  name: "conv4"
  type: "Convolution"
  bottom: "conv3"
  top: "conv4"
  param {
    lr_mult: 1
    decay_mult: 1
  }
  param {
    lr_mult: 2
    decay_mult: 0
  }
  convolution_param {
    num_output: 384
    pad: 1
    kernel_size: 3
    group: 2
    weight_filler {
      type: "gaussian"
      std: 0.01
    }
    bias_filler {
      type: "constant"
      value: 0.1
    }
  }
}
layer {
  name: "relu4"
  type: "ReLU"
  bottom: "conv4"
  top: "conv4"
}
layer {
  name: "conv5"
  type: "Convolution"
  bottom: "conv4"
  top: "conv5"
  param {
    lr_mult: 1
    decay_mult: 1
  }
  param {
    lr_mult: 2
    decay_mult: 0
  }
  convolution_param {
    num_output: 256
    pad: 1
    kernel_size: 3
    group: 2
    weight_filler {
      type: "gaussian"
      std: 0.01
    }
    bias_filler {
      type: "constant"
      value: 0.1
    }
  }
}
layer {
  name: "relu5"
  type: "ReLU"
  bottom: "conv5"
  top: "conv5"
}
layer {
  name: "pool5"
  type: "Pooling"
  bottom: "conv5"
  top: "pool5"
  pooling_param {
    pool: MAX
    kernel_size: 3
    stride: 2
  }
}
layer {
  name: "fc6"
  type: "InnerProduct"
  bottom: "pool5"
  top: "fc6"
  param {
    lr_mult: 1
    decay_mult: 1
  }
  param {
    lr_mult: 2
    decay_mult: 0
  }
  inner_product_param {
    num_output: 4096
    weight_filler {
      type: "gaussian"
      std: 0.005
    }
    bias_filler {
      type: "constant"
      value: 0.1
    }
  }
}
layer {
  name: "relu6"
  type: "ReLU"
  bottom: "fc6"
  top: "fc6"
}
layer {
  name: "drop6"
  type: "Dropout"
  bottom: "fc6"
  top: "fc6"
  dropout_param {
    dropout_ratio: 0.5
  }
}
layer {
  name: "fc7"
  type: "InnerProduct"
  bottom: "fc6"
  top: "fc7"
  param {
    lr_mult: 1
    decay_mult: 1
  }
  param {
    lr_mult: 2
    decay_mult: 0
  }
  inner_product_param {
    num_output: 4096
    weight_filler {
      type: "gaussian"
      std: 0.005
    }
    bias_filler {
      type: "constant"
      value: 0.1
    }
  }
}
layer {
  name: "relu7"
  type: "ReLU"
  bottom: "fc7"
  top: "fc7"
}
layer {
  name: "drop7"
  type: "Dropout"
  bottom: "fc7"
  top: "fc7"
  dropout_param {
    dropout_ratio: 0.5
  }
}
layer {
  name: "fc8_plantvillage"
  type: "InnerProduct"
  bottom: "fc7"
  top: "fc8_plantvillage"
  param {
    lr_mult: 1
    decay_mult: 1
  }
  param {
    lr_mult: 2
    decay_mult: 0
  }
  inner_product_param {
    num_output: 38
    weight_filler {
      type: "gaussian"
      std: 0.01
    }
    bias_filler {
      type: "constant"
      value: 0
    }
  }
}
layer {
  name: "prob"
  type: "Softmax"
  bottom: "fc8_plantvillage"
  top: "prob"
  include {
    phase: TEST
  }
}
layer {
  name: "hdf5out"
  type: "HDF5Output"
  bottom: "prob"
  bottom: "label"
  include {
    phase: TEST
  }
  hdf5_output_param {
    file_name: "hdf5_dumps/iter_7150.h5"
  }
}
layer {
  name: "loss"
  type: "SoftmaxWithLoss"
  bottom: "fc8_plantvillage"
  bottom: "label"
  top: "loss"
}
layer {
  name: "accuracy"
  type: "Accuracy"
  bottom: "fc8_plantvillage"
  bottom: "label"
  top: "accuracy"
  include {
    phase: TEST
  }
}
I0403 13:25:52.945771 32098 layer_factory.hpp:77] Creating layer data
I0403 13:25:52.946439 32098 net.cpp:91] Creating Layer data
I0403 13:25:52.946468 32098 net.cpp:399] data -> data
I0403 13:25:52.946519 32098 net.cpp:399] data -> label
I0403 13:25:52.946558 32098 data_transformer.cpp:25] Loading mean file from: /home/mohanty/data/final_dataset/lmdb/grayscale-60-40/mean.binaryproto
I0403 13:25:52.960762 32103 db_lmdb.cpp:38] Opened lmdb /home/mohanty/data/final_dataset/lmdb/grayscale-60-40/test_db
I0403 13:25:52.967203 32098 data_layer.cpp:41] output data size: 100,3,227,227
I0403 13:25:53.092850 32098 net.cpp:141] Setting up data
I0403 13:25:53.092931 32098 net.cpp:148] Top shape: 100 3 227 227 (15458700)
I0403 13:25:53.092953 32098 net.cpp:148] Top shape: 100 (100)
I0403 13:25:53.092969 32098 net.cpp:156] Memory required for data: 61835200
I0403 13:25:53.092996 32098 layer_factory.hpp:77] Creating layer label_data_1_split
I0403 13:25:53.093021 32098 net.cpp:91] Creating Layer label_data_1_split
I0403 13:25:53.093039 32098 net.cpp:425] label_data_1_split <- label
I0403 13:25:53.093071 32098 net.cpp:399] label_data_1_split -> label_data_1_split_0
I0403 13:25:53.093097 32098 net.cpp:399] label_data_1_split -> label_data_1_split_1
I0403 13:25:53.093118 32098 net.cpp:399] label_data_1_split -> label_data_1_split_2
I0403 13:25:53.093190 32098 net.cpp:141] Setting up label_data_1_split
I0403 13:25:53.093214 32098 net.cpp:148] Top shape: 100 (100)
I0403 13:25:53.093231 32098 net.cpp:148] Top shape: 100 (100)
I0403 13:25:53.093247 32098 net.cpp:148] Top shape: 100 (100)
I0403 13:25:53.093261 32098 net.cpp:156] Memory required for data: 61836400
I0403 13:25:53.093276 32098 layer_factory.hpp:77] Creating layer conv1
I0403 13:25:53.093308 32098 net.cpp:91] Creating Layer conv1
I0403 13:25:53.093327 32098 net.cpp:425] conv1 <- data
I0403 13:25:53.093348 32098 net.cpp:399] conv1 -> conv1
I0403 13:25:53.240128 32098 net.cpp:141] Setting up conv1
I0403 13:25:53.240222 32098 net.cpp:148] Top shape: 100 96 55 55 (29040000)
I0403 13:25:53.240242 32098 net.cpp:156] Memory required for data: 177996400
I0403 13:25:53.240273 32098 layer_factory.hpp:77] Creating layer relu1
I0403 13:25:53.240303 32098 net.cpp:91] Creating Layer relu1
I0403 13:25:53.240324 32098 net.cpp:425] relu1 <- conv1
I0403 13:25:53.240342 32098 net.cpp:386] relu1 -> conv1 (in-place)
I0403 13:25:53.240631 32098 net.cpp:141] Setting up relu1
I0403 13:25:53.240658 32098 net.cpp:148] Top shape: 100 96 55 55 (29040000)
I0403 13:25:53.240707 32098 net.cpp:156] Memory required for data: 294156400
I0403 13:25:53.240723 32098 layer_factory.hpp:77] Creating layer norm1
I0403 13:25:53.240753 32098 net.cpp:91] Creating Layer norm1
I0403 13:25:53.240772 32098 net.cpp:425] norm1 <- conv1
I0403 13:25:53.240792 32098 net.cpp:399] norm1 -> norm1
I0403 13:25:53.241134 32098 net.cpp:141] Setting up norm1
I0403 13:25:53.241165 32098 net.cpp:148] Top shape: 100 96 55 55 (29040000)
I0403 13:25:53.241183 32098 net.cpp:156] Memory required for data: 410316400
I0403 13:25:53.241199 32098 layer_factory.hpp:77] Creating layer pool1
I0403 13:25:53.241227 32098 net.cpp:91] Creating Layer pool1
I0403 13:25:53.241246 32098 net.cpp:425] pool1 <- norm1
I0403 13:25:53.241266 32098 net.cpp:399] pool1 -> pool1
I0403 13:25:53.241339 32098 net.cpp:141] Setting up pool1
I0403 13:25:53.241364 32098 net.cpp:148] Top shape: 100 96 27 27 (6998400)
I0403 13:25:53.241379 32098 net.cpp:156] Memory required for data: 438310000
I0403 13:25:53.241394 32098 layer_factory.hpp:77] Creating layer conv2
I0403 13:25:53.241420 32098 net.cpp:91] Creating Layer conv2
I0403 13:25:53.241439 32098 net.cpp:425] conv2 <- pool1
I0403 13:25:53.241461 32098 net.cpp:399] conv2 -> conv2
I0403 13:25:53.257828 32098 net.cpp:141] Setting up conv2
I0403 13:25:53.257890 32098 net.cpp:148] Top shape: 100 256 27 27 (18662400)
I0403 13:25:53.257908 32098 net.cpp:156] Memory required for data: 512959600
I0403 13:25:53.257931 32098 layer_factory.hpp:77] Creating layer relu2
I0403 13:25:53.257953 32098 net.cpp:91] Creating Layer relu2
I0403 13:25:53.257971 32098 net.cpp:425] relu2 <- conv2
I0403 13:25:53.257988 32098 net.cpp:386] relu2 -> conv2 (in-place)
I0403 13:25:53.258283 32098 net.cpp:141] Setting up relu2
I0403 13:25:53.258313 32098 net.cpp:148] Top shape: 100 256 27 27 (18662400)
I0403 13:25:53.258330 32098 net.cpp:156] Memory required for data: 587609200
I0403 13:25:53.258347 32098 layer_factory.hpp:77] Creating layer norm2
I0403 13:25:53.258370 32098 net.cpp:91] Creating Layer norm2
I0403 13:25:53.258388 32098 net.cpp:425] norm2 <- conv2
I0403 13:25:53.258406 32098 net.cpp:399] norm2 -> norm2
I0403 13:25:53.258616 32098 net.cpp:141] Setting up norm2
I0403 13:25:53.258642 32098 net.cpp:148] Top shape: 100 256 27 27 (18662400)
I0403 13:25:53.258657 32098 net.cpp:156] Memory required for data: 662258800
I0403 13:25:53.258672 32098 layer_factory.hpp:77] Creating layer pool2
I0403 13:25:53.258694 32098 net.cpp:91] Creating Layer pool2
I0403 13:25:53.258711 32098 net.cpp:425] pool2 <- norm2
I0403 13:25:53.258729 32098 net.cpp:399] pool2 -> pool2
I0403 13:25:53.258787 32098 net.cpp:141] Setting up pool2
I0403 13:25:53.258810 32098 net.cpp:148] Top shape: 100 256 13 13 (4326400)
I0403 13:25:53.258826 32098 net.cpp:156] Memory required for data: 679564400
I0403 13:25:53.258841 32098 layer_factory.hpp:77] Creating layer conv3
I0403 13:25:53.258865 32098 net.cpp:91] Creating Layer conv3
I0403 13:25:53.258882 32098 net.cpp:425] conv3 <- pool2
I0403 13:25:53.258904 32098 net.cpp:399] conv3 -> conv3
I0403 13:25:53.302049 32098 net.cpp:141] Setting up conv3
I0403 13:25:53.302134 32098 net.cpp:148] Top shape: 100 384 13 13 (6489600)
I0403 13:25:53.302152 32098 net.cpp:156] Memory required for data: 705522800
I0403 13:25:53.302178 32098 layer_factory.hpp:77] Creating layer relu3
I0403 13:25:53.302217 32098 net.cpp:91] Creating Layer relu3
I0403 13:25:53.302237 32098 net.cpp:425] relu3 <- conv3
I0403 13:25:53.302256 32098 net.cpp:386] relu3 -> conv3 (in-place)
I0403 13:25:53.302534 32098 net.cpp:141] Setting up relu3
I0403 13:25:53.302563 32098 net.cpp:148] Top shape: 100 384 13 13 (6489600)
I0403 13:25:53.302580 32098 net.cpp:156] Memory required for data: 731481200
I0403 13:25:53.302597 32098 layer_factory.hpp:77] Creating layer conv4
I0403 13:25:53.302621 32098 net.cpp:91] Creating Layer conv4
I0403 13:25:53.302639 32098 net.cpp:425] conv4 <- conv3
I0403 13:25:53.302657 32098 net.cpp:399] conv4 -> conv4
I0403 13:25:53.334908 32098 net.cpp:141] Setting up conv4
I0403 13:25:53.334986 32098 net.cpp:148] Top shape: 100 384 13 13 (6489600)
I0403 13:25:53.335034 32098 net.cpp:156] Memory required for data: 757439600
I0403 13:25:53.335057 32098 layer_factory.hpp:77] Creating layer relu4
I0403 13:25:53.335080 32098 net.cpp:91] Creating Layer relu4
I0403 13:25:53.335098 32098 net.cpp:425] relu4 <- conv4
I0403 13:25:53.335119 32098 net.cpp:386] relu4 -> conv4 (in-place)
I0403 13:25:53.335417 32098 net.cpp:141] Setting up relu4
I0403 13:25:53.335446 32098 net.cpp:148] Top shape: 100 384 13 13 (6489600)
I0403 13:25:53.335463 32098 net.cpp:156] Memory required for data: 783398000
I0403 13:25:53.335477 32098 layer_factory.hpp:77] Creating layer conv5
I0403 13:25:53.335503 32098 net.cpp:91] Creating Layer conv5
I0403 13:25:53.335522 32098 net.cpp:425] conv5 <- conv4
I0403 13:25:53.335544 32098 net.cpp:399] conv5 -> conv5
I0403 13:25:53.357734 32098 net.cpp:141] Setting up conv5
I0403 13:25:53.357798 32098 net.cpp:148] Top shape: 100 256 13 13 (4326400)
I0403 13:25:53.357815 32098 net.cpp:156] Memory required for data: 800703600
I0403 13:25:53.357839 32098 layer_factory.hpp:77] Creating layer relu5
I0403 13:25:53.357862 32098 net.cpp:91] Creating Layer relu5
I0403 13:25:53.357882 32098 net.cpp:425] relu5 <- conv5
I0403 13:25:53.357903 32098 net.cpp:386] relu5 -> conv5 (in-place)
I0403 13:25:53.358197 32098 net.cpp:141] Setting up relu5
I0403 13:25:53.358232 32098 net.cpp:148] Top shape: 100 256 13 13 (4326400)
I0403 13:25:53.358248 32098 net.cpp:156] Memory required for data: 818009200
I0403 13:25:53.358264 32098 layer_factory.hpp:77] Creating layer pool5
I0403 13:25:53.358286 32098 net.cpp:91] Creating Layer pool5
I0403 13:25:53.358304 32098 net.cpp:425] pool5 <- conv5
I0403 13:25:53.358325 32098 net.cpp:399] pool5 -> pool5
I0403 13:25:53.358388 32098 net.cpp:141] Setting up pool5
I0403 13:25:53.358417 32098 net.cpp:148] Top shape: 100 256 6 6 (921600)
I0403 13:25:53.358433 32098 net.cpp:156] Memory required for data: 821695600
I0403 13:25:53.358448 32098 layer_factory.hpp:77] Creating layer fc6
I0403 13:25:53.358476 32098 net.cpp:91] Creating Layer fc6
I0403 13:25:53.358495 32098 net.cpp:425] fc6 <- pool5
I0403 13:25:53.358517 32098 net.cpp:399] fc6 -> fc6
I0403 13:25:54.932500 32098 net.cpp:141] Setting up fc6
I0403 13:25:54.932575 32098 net.cpp:148] Top shape: 100 4096 (409600)
I0403 13:25:54.932591 32098 net.cpp:156] Memory required for data: 823334000
I0403 13:25:54.932611 32098 layer_factory.hpp:77] Creating layer relu6
I0403 13:25:54.932636 32098 net.cpp:91] Creating Layer relu6
I0403 13:25:54.932653 32098 net.cpp:425] relu6 <- fc6
I0403 13:25:54.932673 32098 net.cpp:386] relu6 -> fc6 (in-place)
I0403 13:25:54.932884 32098 net.cpp:141] Setting up relu6
I0403 13:25:54.932910 32098 net.cpp:148] Top shape: 100 4096 (409600)
I0403 13:25:54.932925 32098 net.cpp:156] Memory required for data: 824972400
I0403 13:25:54.932940 32098 layer_factory.hpp:77] Creating layer drop6
I0403 13:25:54.932957 32098 net.cpp:91] Creating Layer drop6
I0403 13:25:54.932973 32098 net.cpp:425] drop6 <- fc6
I0403 13:25:54.932989 32098 net.cpp:386] drop6 -> fc6 (in-place)
I0403 13:25:54.933042 32098 net.cpp:141] Setting up drop6
I0403 13:25:54.933063 32098 net.cpp:148] Top shape: 100 4096 (409600)
I0403 13:25:54.933078 32098 net.cpp:156] Memory required for data: 826610800
I0403 13:25:54.933091 32098 layer_factory.hpp:77] Creating layer fc7
I0403 13:25:54.933116 32098 net.cpp:91] Creating Layer fc7
I0403 13:25:54.933133 32098 net.cpp:425] fc7 <- fc6
I0403 13:25:54.933151 32098 net.cpp:399] fc7 -> fc7
I0403 13:25:55.619571 32098 net.cpp:141] Setting up fc7
I0403 13:25:55.619663 32098 net.cpp:148] Top shape: 100 4096 (409600)
I0403 13:25:55.619678 32098 net.cpp:156] Memory required for data: 828249200
I0403 13:25:55.619699 32098 layer_factory.hpp:77] Creating layer relu7
I0403 13:25:55.619720 32098 net.cpp:91] Creating Layer relu7
I0403 13:25:55.619738 32098 net.cpp:425] relu7 <- fc7
I0403 13:25:55.619757 32098 net.cpp:386] relu7 -> fc7 (in-place)
I0403 13:25:55.620177 32098 net.cpp:141] Setting up relu7
I0403 13:25:55.620205 32098 net.cpp:148] Top shape: 100 4096 (409600)
I0403 13:25:55.620257 32098 net.cpp:156] Memory required for data: 829887600
I0403 13:25:55.620273 32098 layer_factory.hpp:77] Creating layer drop7
I0403 13:25:55.620293 32098 net.cpp:91] Creating Layer drop7
I0403 13:25:55.620308 32098 net.cpp:425] drop7 <- fc7
I0403 13:25:55.620326 32098 net.cpp:386] drop7 -> fc7 (in-place)
I0403 13:25:55.620369 32098 net.cpp:141] Setting up drop7
I0403 13:25:55.620391 32098 net.cpp:148] Top shape: 100 4096 (409600)
I0403 13:25:55.620405 32098 net.cpp:156] Memory required for data: 831526000
I0403 13:25:55.620420 32098 layer_factory.hpp:77] Creating layer fc8_plantvillage
I0403 13:25:55.620441 32098 net.cpp:91] Creating Layer fc8_plantvillage
I0403 13:25:55.620457 32098 net.cpp:425] fc8_plantvillage <- fc7
I0403 13:25:55.620476 32098 net.cpp:399] fc8_plantvillage -> fc8_plantvillage
I0403 13:25:55.627197 32098 net.cpp:141] Setting up fc8_plantvillage
I0403 13:25:55.627233 32098 net.cpp:148] Top shape: 100 38 (3800)
I0403 13:25:55.627249 32098 net.cpp:156] Memory required for data: 831541200
I0403 13:25:55.627266 32098 layer_factory.hpp:77] Creating layer fc8_plantvillage_fc8_plantvillage_0_split
I0403 13:25:55.627286 32098 net.cpp:91] Creating Layer fc8_plantvillage_fc8_plantvillage_0_split
I0403 13:25:55.627301 32098 net.cpp:425] fc8_plantvillage_fc8_plantvillage_0_split <- fc8_plantvillage
I0403 13:25:55.627321 32098 net.cpp:399] fc8_plantvillage_fc8_plantvillage_0_split -> fc8_plantvillage_fc8_plantvillage_0_split_0
I0403 13:25:55.627342 32098 net.cpp:399] fc8_plantvillage_fc8_plantvillage_0_split -> fc8_plantvillage_fc8_plantvillage_0_split_1
I0403 13:25:55.627362 32098 net.cpp:399] fc8_plantvillage_fc8_plantvillage_0_split -> fc8_plantvillage_fc8_plantvillage_0_split_2
I0403 13:25:55.627439 32098 net.cpp:141] Setting up fc8_plantvillage_fc8_plantvillage_0_split
I0403 13:25:55.627462 32098 net.cpp:148] Top shape: 100 38 (3800)
I0403 13:25:55.627477 32098 net.cpp:148] Top shape: 100 38 (3800)
I0403 13:25:55.627492 32098 net.cpp:148] Top shape: 100 38 (3800)
I0403 13:25:55.627506 32098 net.cpp:156] Memory required for data: 831586800
I0403 13:25:55.627519 32098 layer_factory.hpp:77] Creating layer prob
I0403 13:25:55.627540 32098 net.cpp:91] Creating Layer prob
I0403 13:25:55.627557 32098 net.cpp:425] prob <- fc8_plantvillage_fc8_plantvillage_0_split_0
I0403 13:25:55.627573 32098 net.cpp:399] prob -> prob
I0403 13:25:55.627794 32098 net.cpp:141] Setting up prob
I0403 13:25:55.627822 32098 net.cpp:148] Top shape: 100 38 (3800)
I0403 13:25:55.627837 32098 net.cpp:156] Memory required for data: 831602000
I0403 13:25:55.627852 32098 layer_factory.hpp:77] Creating layer hdf5out
I0403 13:25:55.627871 32098 net.cpp:91] Creating Layer hdf5out
I0403 13:25:55.627887 32098 net.cpp:425] hdf5out <- prob
I0403 13:25:55.627902 32098 net.cpp:425] hdf5out <- label_data_1_split_0
I0403 13:25:55.630405 32098 net.cpp:141] Setting up hdf5out
…
