…
I0403 13:21:58.975147 31983 net.cpp:313] The NetState phase (1) differed from the phase (0) specified by a rule in layer data
I0403 13:21:58.975481 31983 net.cpp:49] Initializing net from parameters: 
state {
  phase: TEST
}
layer {
  name: "data"
  type: "Data"
  top: "data"
  top: "label"
  include {
    phase: TEST
  }
  transform_param {
    crop_size: 227
    mean_file: "/home/mohanty/data/final_dataset/lmdb/grayscale-60-40/mean.binaryproto"
  }
  data_param {
    source: "/home/mohanty/data/final_dataset/lmdb/grayscale-60-40/test_db"
    batch_size: 100
    backend: LMDB
  }
}
layer {
  name: "conv1"
  type: "Convolution"
  bottom: "data"
  top: "conv1"
  param {
    lr_mult: 1
    decay_mult: 1
  }
  param {
    lr_mult: 2
    decay_mult: 0
  }
  convolution_param {
    num_output: 96
    kernel_size: 11
    stride: 4
    weight_filler {
      type: "gaussian"
      std: 0.01
    }
    bias_filler {
      type: "constant"
      value: 0
    }
  }
}
layer {
  name: "relu1"
  type: "ReLU"
  bottom: "conv1"
  top: "conv1"
}
layer {
  name: "norm1"
  type: "LRN"
  bottom: "conv1"
  top: "norm1"
  lrn_param {
    local_size: 5
    alpha: 0.0001
    beta: 0.75
  }
}
layer {
  name: "pool1"
  type: "Pooling"
  bottom: "norm1"
  top: "pool1"
  pooling_param {
    pool: MAX
    kernel_size: 3
    stride: 2
  }
}
layer {
  name: "conv2"
  type: "Convolution"
  bottom: "pool1"
  top: "conv2"
  param {
    lr_mult: 1
    decay_mult: 1
  }
  param {
    lr_mult: 2
    decay_mult: 0
  }
  convolution_param {
    num_output: 256
    pad: 2
    kernel_size: 5
    group: 2
    weight_filler {
      type: "gaussian"
      std: 0.01
    }
    bias_filler {
      type: "constant"
      value: 0.1
    }
  }
}
layer {
  name: "relu2"
  type: "ReLU"
  bottom: "conv2"
  top: "conv2"
}
layer {
  name: "norm2"
  type: "LRN"
  bottom: "conv2"
  top: "norm2"
  lrn_param {
    local_size: 5
    alpha: 0.0001
    beta: 0.75
  }
}
layer {
  name: "pool2"
  type: "Pooling"
  bottom: "norm2"
  top: "pool2"
  pooling_param {
    pool: MAX
    kernel_size: 3
    stride: 2
  }
}
layer {
  name: "conv3"
  type: "Convolution"
  bottom: "pool2"
  top: "conv3"
  param {
    lr_mult: 1
    decay_mult: 1
  }
  param {
    lr_mult: 2
    decay_mult: 0
  }
  convolution_param {
    num_output: 384
    pad: 1
    kernel_size: 3
    weight_filler {
      type: "gaussian"
      std: 0.01
    }
    bias_filler {
      type: "constant"
      value: 0
    }
  }
}
layer {
  name: "relu3"
  type: "ReLU"
  bottom: "conv3"
  top: "conv3"
}
layer {
  name: "conv4"
  type: "Convolution"
  bottom: "conv3"
  top: "conv4"
  param {
    lr_mult: 1
    decay_mult: 1
  }
  param {
    lr_mult: 2
    decay_mult: 0
  }
  convolution_param {
    num_output: 384
    pad: 1
    kernel_size: 3
    group: 2
    weight_filler {
      type: "gaussian"
      std: 0.01
    }
    bias_filler {
      type: "constant"
      value: 0.1
    }
  }
}
layer {
  name: "relu4"
  type: "ReLU"
  bottom: "conv4"
  top: "conv4"
}
layer {
  name: "conv5"
  type: "Convolution"
  bottom: "conv4"
  top: "conv5"
  param {
    lr_mult: 1
    decay_mult: 1
  }
  param {
    lr_mult: 2
    decay_mult: 0
  }
  convolution_param {
    num_output: 256
    pad: 1
    kernel_size: 3
    group: 2
    weight_filler {
      type: "gaussian"
      std: 0.01
    }
    bias_filler {
      type: "constant"
      value: 0.1
    }
  }
}
layer {
  name: "relu5"
  type: "ReLU"
  bottom: "conv5"
  top: "conv5"
}
layer {
  name: "pool5"
  type: "Pooling"
  bottom: "conv5"
  top: "pool5"
  pooling_param {
    pool: MAX
    kernel_size: 3
    stride: 2
  }
}
layer {
  name: "fc6"
  type: "InnerProduct"
  bottom: "pool5"
  top: "fc6"
  param {
    lr_mult: 1
    decay_mult: 1
  }
  param {
    lr_mult: 2
    decay_mult: 0
  }
  inner_product_param {
    num_output: 4096
    weight_filler {
      type: "gaussian"
      std: 0.005
    }
    bias_filler {
      type: "constant"
      value: 0.1
    }
  }
}
layer {
  name: "relu6"
  type: "ReLU"
  bottom: "fc6"
  top: "fc6"
}
layer {
  name: "drop6"
  type: "Dropout"
  bottom: "fc6"
  top: "fc6"
  dropout_param {
    dropout_ratio: 0.5
  }
}
layer {
  name: "fc7"
  type: "InnerProduct"
  bottom: "fc6"
  top: "fc7"
  param {
    lr_mult: 1
    decay_mult: 1
  }
  param {
    lr_mult: 2
    decay_mult: 0
  }
  inner_product_param {
    num_output: 4096
    weight_filler {
      type: "gaussian"
      std: 0.005
    }
    bias_filler {
      type: "constant"
      value: 0.1
    }
  }
}
layer {
  name: "relu7"
  type: "ReLU"
  bottom: "fc7"
  top: "fc7"
}
layer {
  name: "drop7"
  type: "Dropout"
  bottom: "fc7"
  top: "fc7"
  dropout_param {
    dropout_ratio: 0.5
  }
}
layer {
  name: "fc8_plantvillage"
  type: "InnerProduct"
  bottom: "fc7"
  top: "fc8_plantvillage"
  param {
    lr_mult: 1
    decay_mult: 1
  }
  param {
    lr_mult: 2
    decay_mult: 0
  }
  inner_product_param {
    num_output: 38
    weight_filler {
      type: "gaussian"
      std: 0.01
    }
    bias_filler {
      type: "constant"
      value: 0
    }
  }
}
layer {
  name: "prob"
  type: "Softmax"
  bottom: "fc8_plantvillage"
  top: "prob"
  include {
    phase: TEST
  }
}
layer {
  name: "hdf5out"
  type: "HDF5Output"
  bottom: "prob"
  bottom: "label"
  include {
    phase: TEST
  }
  hdf5_output_param {
    file_name: "hdf5_dumps/iter_5525.h5"
  }
}
layer {
  name: "loss"
  type: "SoftmaxWithLoss"
  bottom: "fc8_plantvillage"
  bottom: "label"
  top: "loss"
}
layer {
  name: "accuracy"
  type: "Accuracy"
  bottom: "fc8_plantvillage"
  bottom: "label"
  top: "accuracy"
  include {
    phase: TEST
  }
}
I0403 13:21:58.976040 31983 layer_factory.hpp:77] Creating layer data
I0403 13:21:58.976701 31983 net.cpp:91] Creating Layer data
I0403 13:21:58.976734 31983 net.cpp:399] data -> data
I0403 13:21:58.976785 31983 net.cpp:399] data -> label
I0403 13:21:58.976827 31983 data_transformer.cpp:25] Loading mean file from: /home/mohanty/data/final_dataset/lmdb/grayscale-60-40/mean.binaryproto
I0403 13:21:58.979524 31986 db_lmdb.cpp:38] Opened lmdb /home/mohanty/data/final_dataset/lmdb/grayscale-60-40/test_db
I0403 13:21:58.991364 31983 data_layer.cpp:41] output data size: 100,3,227,227
I0403 13:21:59.115432 31983 net.cpp:141] Setting up data
I0403 13:21:59.115530 31983 net.cpp:148] Top shape: 100 3 227 227 (15458700)
I0403 13:21:59.115553 31983 net.cpp:148] Top shape: 100 (100)
I0403 13:21:59.115569 31983 net.cpp:156] Memory required for data: 61835200
I0403 13:21:59.115597 31983 layer_factory.hpp:77] Creating layer label_data_1_split
I0403 13:21:59.115622 31983 net.cpp:91] Creating Layer label_data_1_split
I0403 13:21:59.115640 31983 net.cpp:425] label_data_1_split <- label
I0403 13:21:59.115671 31983 net.cpp:399] label_data_1_split -> label_data_1_split_0
I0403 13:21:59.115699 31983 net.cpp:399] label_data_1_split -> label_data_1_split_1
I0403 13:21:59.115720 31983 net.cpp:399] label_data_1_split -> label_data_1_split_2
I0403 13:21:59.115785 31983 net.cpp:141] Setting up label_data_1_split
I0403 13:21:59.115809 31983 net.cpp:148] Top shape: 100 (100)
I0403 13:21:59.115826 31983 net.cpp:148] Top shape: 100 (100)
I0403 13:21:59.115842 31983 net.cpp:148] Top shape: 100 (100)
I0403 13:21:59.115856 31983 net.cpp:156] Memory required for data: 61836400
I0403 13:21:59.115872 31983 layer_factory.hpp:77] Creating layer conv1
I0403 13:21:59.115906 31983 net.cpp:91] Creating Layer conv1
I0403 13:21:59.115924 31983 net.cpp:425] conv1 <- data
I0403 13:21:59.115944 31983 net.cpp:399] conv1 -> conv1
I0403 13:21:59.258260 31983 net.cpp:141] Setting up conv1
I0403 13:21:59.258343 31983 net.cpp:148] Top shape: 100 96 55 55 (29040000)
I0403 13:21:59.258361 31983 net.cpp:156] Memory required for data: 177996400
I0403 13:21:59.258394 31983 layer_factory.hpp:77] Creating layer relu1
I0403 13:21:59.258421 31983 net.cpp:91] Creating Layer relu1
I0403 13:21:59.258440 31983 net.cpp:425] relu1 <- conv1
I0403 13:21:59.258460 31983 net.cpp:386] relu1 -> conv1 (in-place)
I0403 13:21:59.258719 31983 net.cpp:141] Setting up relu1
I0403 13:21:59.258746 31983 net.cpp:148] Top shape: 100 96 55 55 (29040000)
I0403 13:21:59.258793 31983 net.cpp:156] Memory required for data: 294156400
I0403 13:21:59.258810 31983 layer_factory.hpp:77] Creating layer norm1
I0403 13:21:59.258839 31983 net.cpp:91] Creating Layer norm1
I0403 13:21:59.258858 31983 net.cpp:425] norm1 <- conv1
I0403 13:21:59.258877 31983 net.cpp:399] norm1 -> norm1
I0403 13:21:59.259188 31983 net.cpp:141] Setting up norm1
I0403 13:21:59.259222 31983 net.cpp:148] Top shape: 100 96 55 55 (29040000)
I0403 13:21:59.259238 31983 net.cpp:156] Memory required for data: 410316400
I0403 13:21:59.259255 31983 layer_factory.hpp:77] Creating layer pool1
I0403 13:21:59.259280 31983 net.cpp:91] Creating Layer pool1
I0403 13:21:59.259299 31983 net.cpp:425] pool1 <- norm1
I0403 13:21:59.259317 31983 net.cpp:399] pool1 -> pool1
I0403 13:21:59.259385 31983 net.cpp:141] Setting up pool1
I0403 13:21:59.259409 31983 net.cpp:148] Top shape: 100 96 27 27 (6998400)
I0403 13:21:59.259425 31983 net.cpp:156] Memory required for data: 438310000
I0403 13:21:59.259440 31983 layer_factory.hpp:77] Creating layer conv2
I0403 13:21:59.259465 31983 net.cpp:91] Creating Layer conv2
I0403 13:21:59.259482 31983 net.cpp:425] conv2 <- pool1
I0403 13:21:59.259500 31983 net.cpp:399] conv2 -> conv2
I0403 13:21:59.274806 31983 net.cpp:141] Setting up conv2
I0403 13:21:59.274844 31983 net.cpp:148] Top shape: 100 256 27 27 (18662400)
I0403 13:21:59.274862 31983 net.cpp:156] Memory required for data: 512959600
I0403 13:21:59.274883 31983 layer_factory.hpp:77] Creating layer relu2
I0403 13:21:59.274904 31983 net.cpp:91] Creating Layer relu2
I0403 13:21:59.274919 31983 net.cpp:425] relu2 <- conv2
I0403 13:21:59.274937 31983 net.cpp:386] relu2 -> conv2 (in-place)
I0403 13:21:59.275207 31983 net.cpp:141] Setting up relu2
I0403 13:21:59.275239 31983 net.cpp:148] Top shape: 100 256 27 27 (18662400)
I0403 13:21:59.275255 31983 net.cpp:156] Memory required for data: 587609200
I0403 13:21:59.275271 31983 layer_factory.hpp:77] Creating layer norm2
I0403 13:21:59.275293 31983 net.cpp:91] Creating Layer norm2
I0403 13:21:59.275310 31983 net.cpp:425] norm2 <- conv2
I0403 13:21:59.275331 31983 net.cpp:399] norm2 -> norm2
I0403 13:21:59.275517 31983 net.cpp:141] Setting up norm2
I0403 13:21:59.275543 31983 net.cpp:148] Top shape: 100 256 27 27 (18662400)
I0403 13:21:59.275559 31983 net.cpp:156] Memory required for data: 662258800
I0403 13:21:59.275575 31983 layer_factory.hpp:77] Creating layer pool2
I0403 13:21:59.275594 31983 net.cpp:91] Creating Layer pool2
I0403 13:21:59.275610 31983 net.cpp:425] pool2 <- norm2
I0403 13:21:59.275627 31983 net.cpp:399] pool2 -> pool2
I0403 13:21:59.275678 31983 net.cpp:141] Setting up pool2
I0403 13:21:59.275702 31983 net.cpp:148] Top shape: 100 256 13 13 (4326400)
I0403 13:21:59.275718 31983 net.cpp:156] Memory required for data: 679564400
I0403 13:21:59.275733 31983 layer_factory.hpp:77] Creating layer conv3
I0403 13:21:59.275755 31983 net.cpp:91] Creating Layer conv3
I0403 13:21:59.275771 31983 net.cpp:425] conv3 <- pool2
I0403 13:21:59.275791 31983 net.cpp:399] conv3 -> conv3
I0403 13:21:59.315256 31983 net.cpp:141] Setting up conv3
I0403 13:21:59.315321 31983 net.cpp:148] Top shape: 100 384 13 13 (6489600)
I0403 13:21:59.315337 31983 net.cpp:156] Memory required for data: 705522800
I0403 13:21:59.315364 31983 layer_factory.hpp:77] Creating layer relu3
I0403 13:21:59.315385 31983 net.cpp:91] Creating Layer relu3
I0403 13:21:59.315402 31983 net.cpp:425] relu3 <- conv3
I0403 13:21:59.315420 31983 net.cpp:386] relu3 -> conv3 (in-place)
I0403 13:21:59.315699 31983 net.cpp:141] Setting up relu3
I0403 13:21:59.315726 31983 net.cpp:148] Top shape: 100 384 13 13 (6489600)
I0403 13:21:59.315742 31983 net.cpp:156] Memory required for data: 731481200
I0403 13:21:59.315757 31983 layer_factory.hpp:77] Creating layer conv4
I0403 13:21:59.315781 31983 net.cpp:91] Creating Layer conv4
I0403 13:21:59.315798 31983 net.cpp:425] conv4 <- conv3
I0403 13:21:59.315817 31983 net.cpp:399] conv4 -> conv4
I0403 13:21:59.346199 31983 net.cpp:141] Setting up conv4
I0403 13:21:59.346261 31983 net.cpp:148] Top shape: 100 384 13 13 (6489600)
I0403 13:21:59.346309 31983 net.cpp:156] Memory required for data: 757439600
I0403 13:21:59.346333 31983 layer_factory.hpp:77] Creating layer relu4
I0403 13:21:59.346351 31983 net.cpp:91] Creating Layer relu4
I0403 13:21:59.346369 31983 net.cpp:425] relu4 <- conv4
I0403 13:21:59.346386 31983 net.cpp:386] relu4 -> conv4 (in-place)
I0403 13:21:59.346667 31983 net.cpp:141] Setting up relu4
I0403 13:21:59.346694 31983 net.cpp:148] Top shape: 100 384 13 13 (6489600)
I0403 13:21:59.346710 31983 net.cpp:156] Memory required for data: 783398000
I0403 13:21:59.346725 31983 layer_factory.hpp:77] Creating layer conv5
I0403 13:21:59.346750 31983 net.cpp:91] Creating Layer conv5
I0403 13:21:59.346773 31983 net.cpp:425] conv5 <- conv4
I0403 13:21:59.346792 31983 net.cpp:399] conv5 -> conv5
I0403 13:21:59.367157 31983 net.cpp:141] Setting up conv5
I0403 13:21:59.367198 31983 net.cpp:148] Top shape: 100 256 13 13 (4326400)
I0403 13:21:59.367220 31983 net.cpp:156] Memory required for data: 800703600
I0403 13:21:59.367246 31983 layer_factory.hpp:77] Creating layer relu5
I0403 13:21:59.367267 31983 net.cpp:91] Creating Layer relu5
I0403 13:21:59.367283 31983 net.cpp:425] relu5 <- conv5
I0403 13:21:59.367303 31983 net.cpp:386] relu5 -> conv5 (in-place)
I0403 13:21:59.367578 31983 net.cpp:141] Setting up relu5
I0403 13:21:59.367607 31983 net.cpp:148] Top shape: 100 256 13 13 (4326400)
I0403 13:21:59.367624 31983 net.cpp:156] Memory required for data: 818009200
I0403 13:21:59.367640 31983 layer_factory.hpp:77] Creating layer pool5
I0403 13:21:59.367662 31983 net.cpp:91] Creating Layer pool5
I0403 13:21:59.367679 31983 net.cpp:425] pool5 <- conv5
I0403 13:21:59.367698 31983 net.cpp:399] pool5 -> pool5
I0403 13:21:59.367759 31983 net.cpp:141] Setting up pool5
I0403 13:21:59.367782 31983 net.cpp:148] Top shape: 100 256 6 6 (921600)
I0403 13:21:59.367796 31983 net.cpp:156] Memory required for data: 821695600
I0403 13:21:59.367811 31983 layer_factory.hpp:77] Creating layer fc6
I0403 13:21:59.367838 31983 net.cpp:91] Creating Layer fc6
I0403 13:21:59.367856 31983 net.cpp:425] fc6 <- pool5
I0403 13:21:59.367877 31983 net.cpp:399] fc6 -> fc6
I0403 13:22:01.028151 31983 net.cpp:141] Setting up fc6
I0403 13:22:01.028254 31983 net.cpp:148] Top shape: 100 4096 (409600)
I0403 13:22:01.028270 31983 net.cpp:156] Memory required for data: 823334000
I0403 13:22:01.028293 31983 layer_factory.hpp:77] Creating layer relu6
I0403 13:22:01.028318 31983 net.cpp:91] Creating Layer relu6
I0403 13:22:01.028336 31983 net.cpp:425] relu6 <- fc6
I0403 13:22:01.028355 31983 net.cpp:386] relu6 -> fc6 (in-place)
I0403 13:22:01.028579 31983 net.cpp:141] Setting up relu6
I0403 13:22:01.028606 31983 net.cpp:148] Top shape: 100 4096 (409600)
I0403 13:22:01.028621 31983 net.cpp:156] Memory required for data: 824972400
I0403 13:22:01.028636 31983 layer_factory.hpp:77] Creating layer drop6
I0403 13:22:01.028656 31983 net.cpp:91] Creating Layer drop6
I0403 13:22:01.028671 31983 net.cpp:425] drop6 <- fc6
I0403 13:22:01.028692 31983 net.cpp:386] drop6 -> fc6 (in-place)
I0403 13:22:01.028743 31983 net.cpp:141] Setting up drop6
I0403 13:22:01.028764 31983 net.cpp:148] Top shape: 100 4096 (409600)
I0403 13:22:01.028779 31983 net.cpp:156] Memory required for data: 826610800
I0403 13:22:01.028792 31983 layer_factory.hpp:77] Creating layer fc7
I0403 13:22:01.028818 31983 net.cpp:91] Creating Layer fc7
I0403 13:22:01.028834 31983 net.cpp:425] fc7 <- fc6
I0403 13:22:01.028854 31983 net.cpp:399] fc7 -> fc7
I0403 13:22:01.720016 31983 net.cpp:141] Setting up fc7
I0403 13:22:01.720082 31983 net.cpp:148] Top shape: 100 4096 (409600)
I0403 13:22:01.720098 31983 net.cpp:156] Memory required for data: 828249200
I0403 13:22:01.720120 31983 layer_factory.hpp:77] Creating layer relu7
I0403 13:22:01.720142 31983 net.cpp:91] Creating Layer relu7
I0403 13:22:01.720160 31983 net.cpp:425] relu7 <- fc7
I0403 13:22:01.720182 31983 net.cpp:386] relu7 -> fc7 (in-place)
I0403 13:22:01.720590 31983 net.cpp:141] Setting up relu7
I0403 13:22:01.720618 31983 net.cpp:148] Top shape: 100 4096 (409600)
I0403 13:22:01.720667 31983 net.cpp:156] Memory required for data: 829887600
I0403 13:22:01.720684 31983 layer_factory.hpp:77] Creating layer drop7
I0403 13:22:01.720702 31983 net.cpp:91] Creating Layer drop7
I0403 13:22:01.720717 31983 net.cpp:425] drop7 <- fc7
I0403 13:22:01.720734 31983 net.cpp:386] drop7 -> fc7 (in-place)
I0403 13:22:01.720778 31983 net.cpp:141] Setting up drop7
I0403 13:22:01.720800 31983 net.cpp:148] Top shape: 100 4096 (409600)
I0403 13:22:01.720814 31983 net.cpp:156] Memory required for data: 831526000
I0403 13:22:01.720829 31983 layer_factory.hpp:77] Creating layer fc8_plantvillage
I0403 13:22:01.720851 31983 net.cpp:91] Creating Layer fc8_plantvillage
I0403 13:22:01.720867 31983 net.cpp:425] fc8_plantvillage <- fc7
I0403 13:22:01.720885 31983 net.cpp:399] fc8_plantvillage -> fc8_plantvillage
I0403 13:22:01.727681 31983 net.cpp:141] Setting up fc8_plantvillage
I0403 13:22:01.727710 31983 net.cpp:148] Top shape: 100 38 (3800)
I0403 13:22:01.727725 31983 net.cpp:156] Memory required for data: 831541200
I0403 13:22:01.727742 31983 layer_factory.hpp:77] Creating layer fc8_plantvillage_fc8_plantvillage_0_split
I0403 13:22:01.727761 31983 net.cpp:91] Creating Layer fc8_plantvillage_fc8_plantvillage_0_split
I0403 13:22:01.727777 31983 net.cpp:425] fc8_plantvillage_fc8_plantvillage_0_split <- fc8_plantvillage
I0403 13:22:01.727797 31983 net.cpp:399] fc8_plantvillage_fc8_plantvillage_0_split -> fc8_plantvillage_fc8_plantvillage_0_split_0
I0403 13:22:01.727818 31983 net.cpp:399] fc8_plantvillage_fc8_plantvillage_0_split -> fc8_plantvillage_fc8_plantvillage_0_split_1
I0403 13:22:01.727836 31983 net.cpp:399] fc8_plantvillage_fc8_plantvillage_0_split -> fc8_plantvillage_fc8_plantvillage_0_split_2
I0403 13:22:01.727913 31983 net.cpp:141] Setting up fc8_plantvillage_fc8_plantvillage_0_split
I0403 13:22:01.727938 31983 net.cpp:148] Top shape: 100 38 (3800)
I0403 13:22:01.727955 31983 net.cpp:148] Top shape: 100 38 (3800)
I0403 13:22:01.727972 31983 net.cpp:148] Top shape: 100 38 (3800)
I0403 13:22:01.727985 31983 net.cpp:156] Memory required for data: 831586800
I0403 13:22:01.727999 31983 layer_factory.hpp:77] Creating layer prob
I0403 13:22:01.728018 31983 net.cpp:91] Creating Layer prob
I0403 13:22:01.728034 31983 net.cpp:425] prob <- fc8_plantvillage_fc8_plantvillage_0_split_0
I0403 13:22:01.728050 31983 net.cpp:399] prob -> prob
I0403 13:22:01.728281 31983 net.cpp:141] Setting up prob
I0403 13:22:01.728309 31983 net.cpp:148] Top shape: 100 38 (3800)
I0403 13:22:01.728325 31983 net.cpp:156] Memory required for data: 831602000
I0403 13:22:01.728340 31983 layer_factory.hpp:77] Creating layer hdf5out
I0403 13:22:01.728359 31983 net.cpp:91] Creating Layer hdf5out
I0403 13:22:01.728375 31983 net.cpp:425] hdf5out <- prob
I0403 13:22:01.728391 31983 net.cpp:425] hdf5out <- label_data_1_split_0
I0403 13:22:01.730650 31983 net.cpp:141] Setting up hdf5out
…
