…
I0403 13:24:19.167688 32055 net.cpp:313] The NetState phase (1) differed from the phase (0) specified by a rule in layer data
I0403 13:24:19.168005 32055 net.cpp:49] Initializing net from parameters: 
state {
  phase: TEST
}
layer {
  name: "data"
  type: "Data"
  top: "data"
  top: "label"
  include {
    phase: TEST
  }
  transform_param {
    crop_size: 227
    mean_file: "/home/mohanty/data/final_dataset/lmdb/grayscale-60-40/mean.binaryproto"
  }
  data_param {
    source: "/home/mohanty/data/final_dataset/lmdb/grayscale-60-40/test_db"
    batch_size: 100
    backend: LMDB
  }
}
layer {
  name: "conv1"
  type: "Convolution"
  bottom: "data"
  top: "conv1"
  param {
    lr_mult: 1
    decay_mult: 1
  }
  param {
    lr_mult: 2
    decay_mult: 0
  }
  convolution_param {
    num_output: 96
    kernel_size: 11
    stride: 4
    weight_filler {
      type: "gaussian"
      std: 0.01
    }
    bias_filler {
      type: "constant"
      value: 0
    }
  }
}
layer {
  name: "relu1"
  type: "ReLU"
  bottom: "conv1"
  top: "conv1"
}
layer {
  name: "norm1"
  type: "LRN"
  bottom: "conv1"
  top: "norm1"
  lrn_param {
    local_size: 5
    alpha: 0.0001
    beta: 0.75
  }
}
layer {
  name: "pool1"
  type: "Pooling"
  bottom: "norm1"
  top: "pool1"
  pooling_param {
    pool: MAX
    kernel_size: 3
    stride: 2
  }
}
layer {
  name: "conv2"
  type: "Convolution"
  bottom: "pool1"
  top: "conv2"
  param {
    lr_mult: 1
    decay_mult: 1
  }
  param {
    lr_mult: 2
    decay_mult: 0
  }
  convolution_param {
    num_output: 256
    pad: 2
    kernel_size: 5
    group: 2
    weight_filler {
      type: "gaussian"
      std: 0.01
    }
    bias_filler {
      type: "constant"
      value: 0.1
    }
  }
}
layer {
  name: "relu2"
  type: "ReLU"
  bottom: "conv2"
  top: "conv2"
}
layer {
  name: "norm2"
  type: "LRN"
  bottom: "conv2"
  top: "norm2"
  lrn_param {
    local_size: 5
    alpha: 0.0001
    beta: 0.75
  }
}
layer {
  name: "pool2"
  type: "Pooling"
  bottom: "norm2"
  top: "pool2"
  pooling_param {
    pool: MAX
    kernel_size: 3
    stride: 2
  }
}
layer {
  name: "conv3"
  type: "Convolution"
  bottom: "pool2"
  top: "conv3"
  param {
    lr_mult: 1
    decay_mult: 1
  }
  param {
    lr_mult: 2
    decay_mult: 0
  }
  convolution_param {
    num_output: 384
    pad: 1
    kernel_size: 3
    weight_filler {
      type: "gaussian"
      std: 0.01
    }
    bias_filler {
      type: "constant"
      value: 0
    }
  }
}
layer {
  name: "relu3"
  type: "ReLU"
  bottom: "conv3"
  top: "conv3"
}
layer {
  name: "conv4"
  type: "Convolution"
  bottom: "conv3"
  top: "conv4"
  param {
    lr_mult: 1
    decay_mult: 1
  }
  param {
    lr_mult: 2
    decay_mult: 0
  }
  convolution_param {
    num_output: 384
    pad: 1
    kernel_size: 3
    group: 2
    weight_filler {
      type: "gaussian"
      std: 0.01
    }
    bias_filler {
      type: "constant"
      value: 0.1
    }
  }
}
layer {
  name: "relu4"
  type: "ReLU"
  bottom: "conv4"
  top: "conv4"
}
layer {
  name: "conv5"
  type: "Convolution"
  bottom: "conv4"
  top: "conv5"
  param {
    lr_mult: 1
    decay_mult: 1
  }
  param {
    lr_mult: 2
    decay_mult: 0
  }
  convolution_param {
    num_output: 256
    pad: 1
    kernel_size: 3
    group: 2
    weight_filler {
      type: "gaussian"
      std: 0.01
    }
    bias_filler {
      type: "constant"
      value: 0.1
    }
  }
}
layer {
  name: "relu5"
  type: "ReLU"
  bottom: "conv5"
  top: "conv5"
}
layer {
  name: "pool5"
  type: "Pooling"
  bottom: "conv5"
  top: "pool5"
  pooling_param {
    pool: MAX
    kernel_size: 3
    stride: 2
  }
}
layer {
  name: "fc6"
  type: "InnerProduct"
  bottom: "pool5"
  top: "fc6"
  param {
    lr_mult: 1
    decay_mult: 1
  }
  param {
    lr_mult: 2
    decay_mult: 0
  }
  inner_product_param {
    num_output: 4096
    weight_filler {
      type: "gaussian"
      std: 0.005
    }
    bias_filler {
      type: "constant"
      value: 0.1
    }
  }
}
layer {
  name: "relu6"
  type: "ReLU"
  bottom: "fc6"
  top: "fc6"
}
layer {
  name: "drop6"
  type: "Dropout"
  bottom: "fc6"
  top: "fc6"
  dropout_param {
    dropout_ratio: 0.5
  }
}
layer {
  name: "fc7"
  type: "InnerProduct"
  bottom: "fc6"
  top: "fc7"
  param {
    lr_mult: 1
    decay_mult: 1
  }
  param {
    lr_mult: 2
    decay_mult: 0
  }
  inner_product_param {
    num_output: 4096
    weight_filler {
      type: "gaussian"
      std: 0.005
    }
    bias_filler {
      type: "constant"
      value: 0.1
    }
  }
}
layer {
  name: "relu7"
  type: "ReLU"
  bottom: "fc7"
  top: "fc7"
}
layer {
  name: "drop7"
  type: "Dropout"
  bottom: "fc7"
  top: "fc7"
  dropout_param {
    dropout_ratio: 0.5
  }
}
layer {
  name: "fc8_plantvillage"
  type: "InnerProduct"
  bottom: "fc7"
  top: "fc8_plantvillage"
  param {
    lr_mult: 1
    decay_mult: 1
  }
  param {
    lr_mult: 2
    decay_mult: 0
  }
  inner_product_param {
    num_output: 38
    weight_filler {
      type: "gaussian"
      std: 0.01
    }
    bias_filler {
      type: "constant"
      value: 0
    }
  }
}
layer {
  name: "prob"
  type: "Softmax"
  bottom: "fc8_plantvillage"
  top: "prob"
  include {
    phase: TEST
  }
}
layer {
  name: "hdf5out"
  type: "HDF5Output"
  bottom: "prob"
  bottom: "label"
  include {
    phase: TEST
  }
  hdf5_output_param {
    file_name: "hdf5_dumps/iter_6500.h5"
  }
}
layer {
  name: "loss"
  type: "SoftmaxWithLoss"
  bottom: "fc8_plantvillage"
  bottom: "label"
  top: "loss"
}
layer {
  name: "accuracy"
  type: "Accuracy"
  bottom: "fc8_plantvillage"
  bottom: "label"
  top: "accuracy"
  include {
    phase: TEST
  }
}
I0403 13:24:19.168757 32055 layer_factory.hpp:77] Creating layer data
I0403 13:24:19.169423 32055 net.cpp:91] Creating Layer data
I0403 13:24:19.169455 32055 net.cpp:399] data -> data
I0403 13:24:19.169507 32055 net.cpp:399] data -> label
I0403 13:24:19.169545 32055 data_transformer.cpp:25] Loading mean file from: /home/mohanty/data/final_dataset/lmdb/grayscale-60-40/mean.binaryproto
I0403 13:24:19.172425 32058 db_lmdb.cpp:38] Opened lmdb /home/mohanty/data/final_dataset/lmdb/grayscale-60-40/test_db
I0403 13:24:19.184216 32055 data_layer.cpp:41] output data size: 100,3,227,227
I0403 13:24:19.306920 32055 net.cpp:141] Setting up data
I0403 13:24:19.307031 32055 net.cpp:148] Top shape: 100 3 227 227 (15458700)
I0403 13:24:19.307054 32055 net.cpp:148] Top shape: 100 (100)
I0403 13:24:19.307070 32055 net.cpp:156] Memory required for data: 61835200
I0403 13:24:19.307098 32055 layer_factory.hpp:77] Creating layer label_data_1_split
I0403 13:24:19.307123 32055 net.cpp:91] Creating Layer label_data_1_split
I0403 13:24:19.307142 32055 net.cpp:425] label_data_1_split <- label
I0403 13:24:19.307174 32055 net.cpp:399] label_data_1_split -> label_data_1_split_0
I0403 13:24:19.307201 32055 net.cpp:399] label_data_1_split -> label_data_1_split_1
I0403 13:24:19.307227 32055 net.cpp:399] label_data_1_split -> label_data_1_split_2
I0403 13:24:19.307291 32055 net.cpp:141] Setting up label_data_1_split
I0403 13:24:19.307315 32055 net.cpp:148] Top shape: 100 (100)
I0403 13:24:19.307333 32055 net.cpp:148] Top shape: 100 (100)
I0403 13:24:19.307349 32055 net.cpp:148] Top shape: 100 (100)
I0403 13:24:19.307364 32055 net.cpp:156] Memory required for data: 61836400
I0403 13:24:19.307380 32055 layer_factory.hpp:77] Creating layer conv1
I0403 13:24:19.307412 32055 net.cpp:91] Creating Layer conv1
I0403 13:24:19.307433 32055 net.cpp:425] conv1 <- data
I0403 13:24:19.307454 32055 net.cpp:399] conv1 -> conv1
I0403 13:24:19.453492 32055 net.cpp:141] Setting up conv1
I0403 13:24:19.453590 32055 net.cpp:148] Top shape: 100 96 55 55 (29040000)
I0403 13:24:19.453608 32055 net.cpp:156] Memory required for data: 177996400
I0403 13:24:19.453642 32055 layer_factory.hpp:77] Creating layer relu1
I0403 13:24:19.453672 32055 net.cpp:91] Creating Layer relu1
I0403 13:24:19.453693 32055 net.cpp:425] relu1 <- conv1
I0403 13:24:19.453714 32055 net.cpp:386] relu1 -> conv1 (in-place)
I0403 13:24:19.453980 32055 net.cpp:141] Setting up relu1
I0403 13:24:19.454010 32055 net.cpp:148] Top shape: 100 96 55 55 (29040000)
I0403 13:24:19.454059 32055 net.cpp:156] Memory required for data: 294156400
I0403 13:24:19.454077 32055 layer_factory.hpp:77] Creating layer norm1
I0403 13:24:19.454108 32055 net.cpp:91] Creating Layer norm1
I0403 13:24:19.454128 32055 net.cpp:425] norm1 <- conv1
I0403 13:24:19.454147 32055 net.cpp:399] norm1 -> norm1
I0403 13:24:19.454471 32055 net.cpp:141] Setting up norm1
I0403 13:24:19.454502 32055 net.cpp:148] Top shape: 100 96 55 55 (29040000)
I0403 13:24:19.454519 32055 net.cpp:156] Memory required for data: 410316400
I0403 13:24:19.454536 32055 layer_factory.hpp:77] Creating layer pool1
I0403 13:24:19.454562 32055 net.cpp:91] Creating Layer pool1
I0403 13:24:19.454581 32055 net.cpp:425] pool1 <- norm1
I0403 13:24:19.454602 32055 net.cpp:399] pool1 -> pool1
I0403 13:24:19.454674 32055 net.cpp:141] Setting up pool1
I0403 13:24:19.454700 32055 net.cpp:148] Top shape: 100 96 27 27 (6998400)
I0403 13:24:19.454717 32055 net.cpp:156] Memory required for data: 438310000
I0403 13:24:19.454735 32055 layer_factory.hpp:77] Creating layer conv2
I0403 13:24:19.454761 32055 net.cpp:91] Creating Layer conv2
I0403 13:24:19.454777 32055 net.cpp:425] conv2 <- pool1
I0403 13:24:19.454797 32055 net.cpp:399] conv2 -> conv2
I0403 13:24:19.470407 32055 net.cpp:141] Setting up conv2
I0403 13:24:19.470466 32055 net.cpp:148] Top shape: 100 256 27 27 (18662400)
I0403 13:24:19.470484 32055 net.cpp:156] Memory required for data: 512959600
I0403 13:24:19.470510 32055 layer_factory.hpp:77] Creating layer relu2
I0403 13:24:19.470530 32055 net.cpp:91] Creating Layer relu2
I0403 13:24:19.470546 32055 net.cpp:425] relu2 <- conv2
I0403 13:24:19.470566 32055 net.cpp:386] relu2 -> conv2 (in-place)
I0403 13:24:19.470856 32055 net.cpp:141] Setting up relu2
I0403 13:24:19.470885 32055 net.cpp:148] Top shape: 100 256 27 27 (18662400)
I0403 13:24:19.470901 32055 net.cpp:156] Memory required for data: 587609200
I0403 13:24:19.470916 32055 layer_factory.hpp:77] Creating layer norm2
I0403 13:24:19.470942 32055 net.cpp:91] Creating Layer norm2
I0403 13:24:19.470958 32055 net.cpp:425] norm2 <- conv2
I0403 13:24:19.470978 32055 net.cpp:399] norm2 -> norm2
I0403 13:24:19.471185 32055 net.cpp:141] Setting up norm2
I0403 13:24:19.471220 32055 net.cpp:148] Top shape: 100 256 27 27 (18662400)
I0403 13:24:19.471236 32055 net.cpp:156] Memory required for data: 662258800
I0403 13:24:19.471253 32055 layer_factory.hpp:77] Creating layer pool2
I0403 13:24:19.471274 32055 net.cpp:91] Creating Layer pool2
I0403 13:24:19.471290 32055 net.cpp:425] pool2 <- norm2
I0403 13:24:19.471308 32055 net.cpp:399] pool2 -> pool2
I0403 13:24:19.471364 32055 net.cpp:141] Setting up pool2
I0403 13:24:19.471388 32055 net.cpp:148] Top shape: 100 256 13 13 (4326400)
I0403 13:24:19.471403 32055 net.cpp:156] Memory required for data: 679564400
I0403 13:24:19.471418 32055 layer_factory.hpp:77] Creating layer conv3
I0403 13:24:19.471442 32055 net.cpp:91] Creating Layer conv3
I0403 13:24:19.471460 32055 net.cpp:425] conv3 <- pool2
I0403 13:24:19.471482 32055 net.cpp:399] conv3 -> conv3
I0403 13:24:19.516633 32055 net.cpp:141] Setting up conv3
I0403 13:24:19.516728 32055 net.cpp:148] Top shape: 100 384 13 13 (6489600)
I0403 13:24:19.516746 32055 net.cpp:156] Memory required for data: 705522800
I0403 13:24:19.516773 32055 layer_factory.hpp:77] Creating layer relu3
I0403 13:24:19.516796 32055 net.cpp:91] Creating Layer relu3
I0403 13:24:19.516814 32055 net.cpp:425] relu3 <- conv3
I0403 13:24:19.516836 32055 net.cpp:386] relu3 -> conv3 (in-place)
I0403 13:24:19.517112 32055 net.cpp:141] Setting up relu3
I0403 13:24:19.517141 32055 net.cpp:148] Top shape: 100 384 13 13 (6489600)
I0403 13:24:19.517158 32055 net.cpp:156] Memory required for data: 731481200
I0403 13:24:19.517174 32055 layer_factory.hpp:77] Creating layer conv4
I0403 13:24:19.517202 32055 net.cpp:91] Creating Layer conv4
I0403 13:24:19.517225 32055 net.cpp:425] conv4 <- conv3
I0403 13:24:19.517246 32055 net.cpp:399] conv4 -> conv4
I0403 13:24:19.547693 32055 net.cpp:141] Setting up conv4
I0403 13:24:19.547776 32055 net.cpp:148] Top shape: 100 384 13 13 (6489600)
I0403 13:24:19.547826 32055 net.cpp:156] Memory required for data: 757439600
I0403 13:24:19.547847 32055 layer_factory.hpp:77] Creating layer relu4
I0403 13:24:19.547873 32055 net.cpp:91] Creating Layer relu4
I0403 13:24:19.547891 32055 net.cpp:425] relu4 <- conv4
I0403 13:24:19.547911 32055 net.cpp:386] relu4 -> conv4 (in-place)
I0403 13:24:19.548195 32055 net.cpp:141] Setting up relu4
I0403 13:24:19.548228 32055 net.cpp:148] Top shape: 100 384 13 13 (6489600)
I0403 13:24:19.548244 32055 net.cpp:156] Memory required for data: 783398000
I0403 13:24:19.548259 32055 layer_factory.hpp:77] Creating layer conv5
I0403 13:24:19.548288 32055 net.cpp:91] Creating Layer conv5
I0403 13:24:19.548305 32055 net.cpp:425] conv5 <- conv4
I0403 13:24:19.548326 32055 net.cpp:399] conv5 -> conv5
I0403 13:24:19.569331 32055 net.cpp:141] Setting up conv5
I0403 13:24:19.569372 32055 net.cpp:148] Top shape: 100 256 13 13 (4326400)
I0403 13:24:19.569392 32055 net.cpp:156] Memory required for data: 800703600
I0403 13:24:19.569417 32055 layer_factory.hpp:77] Creating layer relu5
I0403 13:24:19.569439 32055 net.cpp:91] Creating Layer relu5
I0403 13:24:19.569456 32055 net.cpp:425] relu5 <- conv5
I0403 13:24:19.569474 32055 net.cpp:386] relu5 -> conv5 (in-place)
I0403 13:24:19.569744 32055 net.cpp:141] Setting up relu5
I0403 13:24:19.569772 32055 net.cpp:148] Top shape: 100 256 13 13 (4326400)
I0403 13:24:19.569788 32055 net.cpp:156] Memory required for data: 818009200
I0403 13:24:19.569803 32055 layer_factory.hpp:77] Creating layer pool5
I0403 13:24:19.569824 32055 net.cpp:91] Creating Layer pool5
I0403 13:24:19.569840 32055 net.cpp:425] pool5 <- conv5
I0403 13:24:19.569860 32055 net.cpp:399] pool5 -> pool5
I0403 13:24:19.569923 32055 net.cpp:141] Setting up pool5
I0403 13:24:19.569947 32055 net.cpp:148] Top shape: 100 256 6 6 (921600)
I0403 13:24:19.569960 32055 net.cpp:156] Memory required for data: 821695600
I0403 13:24:19.569975 32055 layer_factory.hpp:77] Creating layer fc6
I0403 13:24:19.570005 32055 net.cpp:91] Creating Layer fc6
I0403 13:24:19.570022 32055 net.cpp:425] fc6 <- pool5
I0403 13:24:19.570044 32055 net.cpp:399] fc6 -> fc6
I0403 13:24:21.146153 32055 net.cpp:141] Setting up fc6
I0403 13:24:21.146250 32055 net.cpp:148] Top shape: 100 4096 (409600)
I0403 13:24:21.146267 32055 net.cpp:156] Memory required for data: 823334000
I0403 13:24:21.146291 32055 layer_factory.hpp:77] Creating layer relu6
I0403 13:24:21.146316 32055 net.cpp:91] Creating Layer relu6
I0403 13:24:21.146333 32055 net.cpp:425] relu6 <- fc6
I0403 13:24:21.146353 32055 net.cpp:386] relu6 -> fc6 (in-place)
I0403 13:24:21.146580 32055 net.cpp:141] Setting up relu6
I0403 13:24:21.146606 32055 net.cpp:148] Top shape: 100 4096 (409600)
I0403 13:24:21.146621 32055 net.cpp:156] Memory required for data: 824972400
I0403 13:24:21.146636 32055 layer_factory.hpp:77] Creating layer drop6
I0403 13:24:21.146656 32055 net.cpp:91] Creating Layer drop6
I0403 13:24:21.146670 32055 net.cpp:425] drop6 <- fc6
I0403 13:24:21.146687 32055 net.cpp:386] drop6 -> fc6 (in-place)
I0403 13:24:21.146739 32055 net.cpp:141] Setting up drop6
I0403 13:24:21.146761 32055 net.cpp:148] Top shape: 100 4096 (409600)
I0403 13:24:21.146775 32055 net.cpp:156] Memory required for data: 826610800
I0403 13:24:21.146790 32055 layer_factory.hpp:77] Creating layer fc7
I0403 13:24:21.146813 32055 net.cpp:91] Creating Layer fc7
I0403 13:24:21.146828 32055 net.cpp:425] fc7 <- fc6
I0403 13:24:21.146847 32055 net.cpp:399] fc7 -> fc7
I0403 13:24:21.850994 32055 net.cpp:141] Setting up fc7
I0403 13:24:21.851044 32055 net.cpp:148] Top shape: 100 4096 (409600)
I0403 13:24:21.851060 32055 net.cpp:156] Memory required for data: 828249200
I0403 13:24:21.851083 32055 layer_factory.hpp:77] Creating layer relu7
I0403 13:24:21.851105 32055 net.cpp:91] Creating Layer relu7
I0403 13:24:21.851122 32055 net.cpp:425] relu7 <- fc7
I0403 13:24:21.851142 32055 net.cpp:386] relu7 -> fc7 (in-place)
I0403 13:24:21.851577 32055 net.cpp:141] Setting up relu7
I0403 13:24:21.851604 32055 net.cpp:148] Top shape: 100 4096 (409600)
I0403 13:24:21.851662 32055 net.cpp:156] Memory required for data: 829887600
I0403 13:24:21.851678 32055 layer_factory.hpp:77] Creating layer drop7
I0403 13:24:21.851696 32055 net.cpp:91] Creating Layer drop7
I0403 13:24:21.851711 32055 net.cpp:425] drop7 <- fc7
I0403 13:24:21.851730 32055 net.cpp:386] drop7 -> fc7 (in-place)
I0403 13:24:21.851771 32055 net.cpp:141] Setting up drop7
I0403 13:24:21.851794 32055 net.cpp:148] Top shape: 100 4096 (409600)
I0403 13:24:21.851807 32055 net.cpp:156] Memory required for data: 831526000
I0403 13:24:21.851821 32055 layer_factory.hpp:77] Creating layer fc8_plantvillage
I0403 13:24:21.851842 32055 net.cpp:91] Creating Layer fc8_plantvillage
I0403 13:24:21.851858 32055 net.cpp:425] fc8_plantvillage <- fc7
I0403 13:24:21.851878 32055 net.cpp:399] fc8_plantvillage -> fc8_plantvillage
I0403 13:24:21.858645 32055 net.cpp:141] Setting up fc8_plantvillage
I0403 13:24:21.858674 32055 net.cpp:148] Top shape: 100 38 (3800)
I0403 13:24:21.858690 32055 net.cpp:156] Memory required for data: 831541200
I0403 13:24:21.858708 32055 layer_factory.hpp:77] Creating layer fc8_plantvillage_fc8_plantvillage_0_split
I0403 13:24:21.858727 32055 net.cpp:91] Creating Layer fc8_plantvillage_fc8_plantvillage_0_split
I0403 13:24:21.858744 32055 net.cpp:425] fc8_plantvillage_fc8_plantvillage_0_split <- fc8_plantvillage
I0403 13:24:21.858763 32055 net.cpp:399] fc8_plantvillage_fc8_plantvillage_0_split -> fc8_plantvillage_fc8_plantvillage_0_split_0
I0403 13:24:21.858783 32055 net.cpp:399] fc8_plantvillage_fc8_plantvillage_0_split -> fc8_plantvillage_fc8_plantvillage_0_split_1
I0403 13:24:21.858803 32055 net.cpp:399] fc8_plantvillage_fc8_plantvillage_0_split -> fc8_plantvillage_fc8_plantvillage_0_split_2
I0403 13:24:21.858877 32055 net.cpp:141] Setting up fc8_plantvillage_fc8_plantvillage_0_split
I0403 13:24:21.858899 32055 net.cpp:148] Top shape: 100 38 (3800)
I0403 13:24:21.858916 32055 net.cpp:148] Top shape: 100 38 (3800)
I0403 13:24:21.858930 32055 net.cpp:148] Top shape: 100 38 (3800)
I0403 13:24:21.858943 32055 net.cpp:156] Memory required for data: 831586800
I0403 13:24:21.858958 32055 layer_factory.hpp:77] Creating layer prob
I0403 13:24:21.858975 32055 net.cpp:91] Creating Layer prob
I0403 13:24:21.859004 32055 net.cpp:425] prob <- fc8_plantvillage_fc8_plantvillage_0_split_0
I0403 13:24:21.859021 32055 net.cpp:399] prob -> prob
I0403 13:24:21.859252 32055 net.cpp:141] Setting up prob
I0403 13:24:21.859282 32055 net.cpp:148] Top shape: 100 38 (3800)
I0403 13:24:21.859297 32055 net.cpp:156] Memory required for data: 831602000
I0403 13:24:21.859323 32055 layer_factory.hpp:77] Creating layer hdf5out
I0403 13:24:21.859343 32055 net.cpp:91] Creating Layer hdf5out
I0403 13:24:21.859357 32055 net.cpp:425] hdf5out <- prob
I0403 13:24:21.859372 32055 net.cpp:425] hdf5out <- label_data_1_split_0
I0403 13:24:21.861768 32055 net.cpp:141] Setting up hdf5out
…
