…
I0403 13:31:19.130069 32372 net.cpp:313] The NetState phase (1) differed from the phase (0) specified by a rule in layer data
I0403 13:31:19.130398 32372 net.cpp:49] Initializing net from parameters: 
state {
  phase: TEST
}
layer {
  name: "data"
  type: "Data"
  top: "data"
  top: "label"
  include {
    phase: TEST
  }
  transform_param {
    crop_size: 227
    mean_file: "/home/mohanty/data/final_dataset/lmdb/grayscale-60-40/mean.binaryproto"
  }
  data_param {
    source: "/home/mohanty/data/final_dataset/lmdb/grayscale-60-40/test_db"
    batch_size: 100
    backend: LMDB
  }
}
layer {
  name: "conv1"
  type: "Convolution"
  bottom: "data"
  top: "conv1"
  param {
    lr_mult: 1
    decay_mult: 1
  }
  param {
    lr_mult: 2
    decay_mult: 0
  }
  convolution_param {
    num_output: 96
    kernel_size: 11
    stride: 4
    weight_filler {
      type: "gaussian"
      std: 0.01
    }
    bias_filler {
      type: "constant"
      value: 0
    }
  }
}
layer {
  name: "relu1"
  type: "ReLU"
  bottom: "conv1"
  top: "conv1"
}
layer {
  name: "norm1"
  type: "LRN"
  bottom: "conv1"
  top: "norm1"
  lrn_param {
    local_size: 5
    alpha: 0.0001
    beta: 0.75
  }
}
layer {
  name: "pool1"
  type: "Pooling"
  bottom: "norm1"
  top: "pool1"
  pooling_param {
    pool: MAX
    kernel_size: 3
    stride: 2
  }
}
layer {
  name: "conv2"
  type: "Convolution"
  bottom: "pool1"
  top: "conv2"
  param {
    lr_mult: 1
    decay_mult: 1
  }
  param {
    lr_mult: 2
    decay_mult: 0
  }
  convolution_param {
    num_output: 256
    pad: 2
    kernel_size: 5
    group: 2
    weight_filler {
      type: "gaussian"
      std: 0.01
    }
    bias_filler {
      type: "constant"
      value: 0.1
    }
  }
}
layer {
  name: "relu2"
  type: "ReLU"
  bottom: "conv2"
  top: "conv2"
}
layer {
  name: "norm2"
  type: "LRN"
  bottom: "conv2"
  top: "norm2"
  lrn_param {
    local_size: 5
    alpha: 0.0001
    beta: 0.75
  }
}
layer {
  name: "pool2"
  type: "Pooling"
  bottom: "norm2"
  top: "pool2"
  pooling_param {
    pool: MAX
    kernel_size: 3
    stride: 2
  }
}
layer {
  name: "conv3"
  type: "Convolution"
  bottom: "pool2"
  top: "conv3"
  param {
    lr_mult: 1
    decay_mult: 1
  }
  param {
    lr_mult: 2
    decay_mult: 0
  }
  convolution_param {
    num_output: 384
    pad: 1
    kernel_size: 3
    weight_filler {
      type: "gaussian"
      std: 0.01
    }
    bias_filler {
      type: "constant"
      value: 0
    }
  }
}
layer {
  name: "relu3"
  type: "ReLU"
  bottom: "conv3"
  top: "conv3"
}
layer {
  name: "conv4"
  type: "Convolution"
  bottom: "conv3"
  top: "conv4"
  param {
    lr_mult: 1
    decay_mult: 1
  }
  param {
    lr_mult: 2
    decay_mult: 0
  }
  convolution_param {
    num_output: 384
    pad: 1
    kernel_size: 3
    group: 2
    weight_filler {
      type: "gaussian"
      std: 0.01
    }
    bias_filler {
      type: "constant"
      value: 0.1
    }
  }
}
layer {
  name: "relu4"
  type: "ReLU"
  bottom: "conv4"
  top: "conv4"
}
layer {
  name: "conv5"
  type: "Convolution"
  bottom: "conv4"
  top: "conv5"
  param {
    lr_mult: 1
    decay_mult: 1
  }
  param {
    lr_mult: 2
    decay_mult: 0
  }
  convolution_param {
    num_output: 256
    pad: 1
    kernel_size: 3
    group: 2
    weight_filler {
      type: "gaussian"
      std: 0.01
    }
    bias_filler {
      type: "constant"
      value: 0.1
    }
  }
}
layer {
  name: "relu5"
  type: "ReLU"
  bottom: "conv5"
  top: "conv5"
}
layer {
  name: "pool5"
  type: "Pooling"
  bottom: "conv5"
  top: "pool5"
  pooling_param {
    pool: MAX
    kernel_size: 3
    stride: 2
  }
}
layer {
  name: "fc6"
  type: "InnerProduct"
  bottom: "pool5"
  top: "fc6"
  param {
    lr_mult: 1
    decay_mult: 1
  }
  param {
    lr_mult: 2
    decay_mult: 0
  }
  inner_product_param {
    num_output: 4096
    weight_filler {
      type: "gaussian"
      std: 0.005
    }
    bias_filler {
      type: "constant"
      value: 0.1
    }
  }
}
layer {
  name: "relu6"
  type: "ReLU"
  bottom: "fc6"
  top: "fc6"
}
layer {
  name: "drop6"
  type: "Dropout"
  bottom: "fc6"
  top: "fc6"
  dropout_param {
    dropout_ratio: 0.5
  }
}
layer {
  name: "fc7"
  type: "InnerProduct"
  bottom: "fc6"
  top: "fc7"
  param {
    lr_mult: 1
    decay_mult: 1
  }
  param {
    lr_mult: 2
    decay_mult: 0
  }
  inner_product_param {
    num_output: 4096
    weight_filler {
      type: "gaussian"
      std: 0.005
    }
    bias_filler {
      type: "constant"
      value: 0.1
    }
  }
}
layer {
  name: "relu7"
  type: "ReLU"
  bottom: "fc7"
  top: "fc7"
}
layer {
  name: "drop7"
  type: "Dropout"
  bottom: "fc7"
  top: "fc7"
  dropout_param {
    dropout_ratio: 0.5
  }
}
layer {
  name: "fc8_plantvillage"
  type: "InnerProduct"
  bottom: "fc7"
  top: "fc8_plantvillage"
  param {
    lr_mult: 1
    decay_mult: 1
  }
  param {
    lr_mult: 2
    decay_mult: 0
  }
  inner_product_param {
    num_output: 38
    weight_filler {
      type: "gaussian"
      std: 0.01
    }
    bias_filler {
      type: "constant"
      value: 0
    }
  }
}
layer {
  name: "prob"
  type: "Softmax"
  bottom: "fc8_plantvillage"
  top: "prob"
  include {
    phase: TEST
  }
}
layer {
  name: "hdf5out"
  type: "HDF5Output"
  bottom: "prob"
  bottom: "label"
  include {
    phase: TEST
  }
  hdf5_output_param {
    file_name: "hdf5_dumps/iter_9425.h5"
  }
}
layer {
  name: "loss"
  type: "SoftmaxWithLoss"
  bottom: "fc8_plantvillage"
  bottom: "label"
  top: "loss"
}
layer {
  name: "accuracy"
  type: "Accuracy"
  bottom: "fc8_plantvillage"
  bottom: "label"
  top: "accuracy"
  include {
    phase: TEST
  }
}
I0403 13:31:19.130954 32372 layer_factory.hpp:77] Creating layer data
I0403 13:31:19.131606 32372 net.cpp:91] Creating Layer data
I0403 13:31:19.131640 32372 net.cpp:399] data -> data
I0403 13:31:19.131691 32372 net.cpp:399] data -> label
I0403 13:31:19.131728 32372 data_transformer.cpp:25] Loading mean file from: /home/mohanty/data/final_dataset/lmdb/grayscale-60-40/mean.binaryproto
I0403 13:31:19.134191 32374 db_lmdb.cpp:38] Opened lmdb /home/mohanty/data/final_dataset/lmdb/grayscale-60-40/test_db
I0403 13:31:19.146404 32372 data_layer.cpp:41] output data size: 100,3,227,227
I0403 13:31:19.267473 32372 net.cpp:141] Setting up data
I0403 13:31:19.267577 32372 net.cpp:148] Top shape: 100 3 227 227 (15458700)
I0403 13:31:19.267599 32372 net.cpp:148] Top shape: 100 (100)
I0403 13:31:19.267613 32372 net.cpp:156] Memory required for data: 61835200
I0403 13:31:19.267642 32372 layer_factory.hpp:77] Creating layer label_data_1_split
I0403 13:31:19.267668 32372 net.cpp:91] Creating Layer label_data_1_split
I0403 13:31:19.267684 32372 net.cpp:425] label_data_1_split <- label
I0403 13:31:19.267714 32372 net.cpp:399] label_data_1_split -> label_data_1_split_0
I0403 13:31:19.267740 32372 net.cpp:399] label_data_1_split -> label_data_1_split_1
I0403 13:31:19.267760 32372 net.cpp:399] label_data_1_split -> label_data_1_split_2
I0403 13:31:19.267819 32372 net.cpp:141] Setting up label_data_1_split
I0403 13:31:19.267843 32372 net.cpp:148] Top shape: 100 (100)
I0403 13:31:19.267858 32372 net.cpp:148] Top shape: 100 (100)
I0403 13:31:19.267874 32372 net.cpp:148] Top shape: 100 (100)
I0403 13:31:19.267887 32372 net.cpp:156] Memory required for data: 61836400
I0403 13:31:19.267902 32372 layer_factory.hpp:77] Creating layer conv1
I0403 13:31:19.267932 32372 net.cpp:91] Creating Layer conv1
I0403 13:31:19.267951 32372 net.cpp:425] conv1 <- data
I0403 13:31:19.267969 32372 net.cpp:399] conv1 -> conv1
I0403 13:31:19.413287 32372 net.cpp:141] Setting up conv1
I0403 13:31:19.413378 32372 net.cpp:148] Top shape: 100 96 55 55 (29040000)
I0403 13:31:19.413395 32372 net.cpp:156] Memory required for data: 177996400
I0403 13:31:19.413427 32372 layer_factory.hpp:77] Creating layer relu1
I0403 13:31:19.413470 32372 net.cpp:91] Creating Layer relu1
I0403 13:31:19.413489 32372 net.cpp:425] relu1 <- conv1
I0403 13:31:19.413509 32372 net.cpp:386] relu1 -> conv1 (in-place)
I0403 13:31:19.413806 32372 net.cpp:141] Setting up relu1
I0403 13:31:19.413835 32372 net.cpp:148] Top shape: 100 96 55 55 (29040000)
I0403 13:31:19.413880 32372 net.cpp:156] Memory required for data: 294156400
I0403 13:31:19.413897 32372 layer_factory.hpp:77] Creating layer norm1
I0403 13:31:19.413926 32372 net.cpp:91] Creating Layer norm1
I0403 13:31:19.413945 32372 net.cpp:425] norm1 <- conv1
I0403 13:31:19.413966 32372 net.cpp:399] norm1 -> norm1
I0403 13:31:19.414304 32372 net.cpp:141] Setting up norm1
I0403 13:31:19.414333 32372 net.cpp:148] Top shape: 100 96 55 55 (29040000)
I0403 13:31:19.414350 32372 net.cpp:156] Memory required for data: 410316400
I0403 13:31:19.414366 32372 layer_factory.hpp:77] Creating layer pool1
I0403 13:31:19.414388 32372 net.cpp:91] Creating Layer pool1
I0403 13:31:19.414405 32372 net.cpp:425] pool1 <- norm1
I0403 13:31:19.414427 32372 net.cpp:399] pool1 -> pool1
I0403 13:31:19.414496 32372 net.cpp:141] Setting up pool1
I0403 13:31:19.414520 32372 net.cpp:148] Top shape: 100 96 27 27 (6998400)
I0403 13:31:19.414535 32372 net.cpp:156] Memory required for data: 438310000
I0403 13:31:19.414549 32372 layer_factory.hpp:77] Creating layer conv2
I0403 13:31:19.414577 32372 net.cpp:91] Creating Layer conv2
I0403 13:31:19.414597 32372 net.cpp:425] conv2 <- pool1
I0403 13:31:19.414615 32372 net.cpp:399] conv2 -> conv2
I0403 13:31:19.429826 32372 net.cpp:141] Setting up conv2
I0403 13:31:19.429867 32372 net.cpp:148] Top shape: 100 256 27 27 (18662400)
I0403 13:31:19.429884 32372 net.cpp:156] Memory required for data: 512959600
I0403 13:31:19.429908 32372 layer_factory.hpp:77] Creating layer relu2
I0403 13:31:19.429927 32372 net.cpp:91] Creating Layer relu2
I0403 13:31:19.429942 32372 net.cpp:425] relu2 <- conv2
I0403 13:31:19.429962 32372 net.cpp:386] relu2 -> conv2 (in-place)
I0403 13:31:19.430258 32372 net.cpp:141] Setting up relu2
I0403 13:31:19.430284 32372 net.cpp:148] Top shape: 100 256 27 27 (18662400)
I0403 13:31:19.430299 32372 net.cpp:156] Memory required for data: 587609200
I0403 13:31:19.430315 32372 layer_factory.hpp:77] Creating layer norm2
I0403 13:31:19.430338 32372 net.cpp:91] Creating Layer norm2
I0403 13:31:19.430357 32372 net.cpp:425] norm2 <- conv2
I0403 13:31:19.430376 32372 net.cpp:399] norm2 -> norm2
I0403 13:31:19.430572 32372 net.cpp:141] Setting up norm2
I0403 13:31:19.430599 32372 net.cpp:148] Top shape: 100 256 27 27 (18662400)
I0403 13:31:19.430614 32372 net.cpp:156] Memory required for data: 662258800
I0403 13:31:19.430629 32372 layer_factory.hpp:77] Creating layer pool2
I0403 13:31:19.430660 32372 net.cpp:91] Creating Layer pool2
I0403 13:31:19.430675 32372 net.cpp:425] pool2 <- norm2
I0403 13:31:19.430694 32372 net.cpp:399] pool2 -> pool2
I0403 13:31:19.430744 32372 net.cpp:141] Setting up pool2
I0403 13:31:19.430766 32372 net.cpp:148] Top shape: 100 256 13 13 (4326400)
I0403 13:31:19.430799 32372 net.cpp:156] Memory required for data: 679564400
I0403 13:31:19.430814 32372 layer_factory.hpp:77] Creating layer conv3
I0403 13:31:19.430838 32372 net.cpp:91] Creating Layer conv3
I0403 13:31:19.430855 32372 net.cpp:425] conv3 <- pool2
I0403 13:31:19.430876 32372 net.cpp:399] conv3 -> conv3
I0403 13:31:19.471529 32372 net.cpp:141] Setting up conv3
I0403 13:31:19.471616 32372 net.cpp:148] Top shape: 100 384 13 13 (6489600)
I0403 13:31:19.471633 32372 net.cpp:156] Memory required for data: 705522800
I0403 13:31:19.471659 32372 layer_factory.hpp:77] Creating layer relu3
I0403 13:31:19.471681 32372 net.cpp:91] Creating Layer relu3
I0403 13:31:19.471699 32372 net.cpp:425] relu3 <- conv3
I0403 13:31:19.471717 32372 net.cpp:386] relu3 -> conv3 (in-place)
I0403 13:31:19.471994 32372 net.cpp:141] Setting up relu3
I0403 13:31:19.472021 32372 net.cpp:148] Top shape: 100 384 13 13 (6489600)
I0403 13:31:19.472036 32372 net.cpp:156] Memory required for data: 731481200
I0403 13:31:19.472051 32372 layer_factory.hpp:77] Creating layer conv4
I0403 13:31:19.472079 32372 net.cpp:91] Creating Layer conv4
I0403 13:31:19.472095 32372 net.cpp:425] conv4 <- conv3
I0403 13:31:19.472116 32372 net.cpp:399] conv4 -> conv4
I0403 13:31:19.502087 32372 net.cpp:141] Setting up conv4
I0403 13:31:19.502164 32372 net.cpp:148] Top shape: 100 384 13 13 (6489600)
I0403 13:31:19.502218 32372 net.cpp:156] Memory required for data: 757439600
I0403 13:31:19.502241 32372 layer_factory.hpp:77] Creating layer relu4
I0403 13:31:19.502264 32372 net.cpp:91] Creating Layer relu4
I0403 13:31:19.502281 32372 net.cpp:425] relu4 <- conv4
I0403 13:31:19.502300 32372 net.cpp:386] relu4 -> conv4 (in-place)
I0403 13:31:19.502589 32372 net.cpp:141] Setting up relu4
I0403 13:31:19.502617 32372 net.cpp:148] Top shape: 100 384 13 13 (6489600)
I0403 13:31:19.502636 32372 net.cpp:156] Memory required for data: 783398000
I0403 13:31:19.502651 32372 layer_factory.hpp:77] Creating layer conv5
I0403 13:31:19.502673 32372 net.cpp:91] Creating Layer conv5
I0403 13:31:19.502691 32372 net.cpp:425] conv5 <- conv4
I0403 13:31:19.502712 32372 net.cpp:399] conv5 -> conv5
I0403 13:31:19.523313 32372 net.cpp:141] Setting up conv5
I0403 13:31:19.523375 32372 net.cpp:148] Top shape: 100 256 13 13 (4326400)
I0403 13:31:19.523391 32372 net.cpp:156] Memory required for data: 800703600
I0403 13:31:19.523418 32372 layer_factory.hpp:77] Creating layer relu5
I0403 13:31:19.523440 32372 net.cpp:91] Creating Layer relu5
I0403 13:31:19.523457 32372 net.cpp:425] relu5 <- conv5
I0403 13:31:19.523478 32372 net.cpp:386] relu5 -> conv5 (in-place)
I0403 13:31:19.523756 32372 net.cpp:141] Setting up relu5
I0403 13:31:19.523785 32372 net.cpp:148] Top shape: 100 256 13 13 (4326400)
I0403 13:31:19.523802 32372 net.cpp:156] Memory required for data: 818009200
I0403 13:31:19.523818 32372 layer_factory.hpp:77] Creating layer pool5
I0403 13:31:19.523839 32372 net.cpp:91] Creating Layer pool5
I0403 13:31:19.523855 32372 net.cpp:425] pool5 <- conv5
I0403 13:31:19.523877 32372 net.cpp:399] pool5 -> pool5
I0403 13:31:19.523938 32372 net.cpp:141] Setting up pool5
I0403 13:31:19.523964 32372 net.cpp:148] Top shape: 100 256 6 6 (921600)
I0403 13:31:19.523979 32372 net.cpp:156] Memory required for data: 821695600
I0403 13:31:19.523994 32372 layer_factory.hpp:77] Creating layer fc6
I0403 13:31:19.524022 32372 net.cpp:91] Creating Layer fc6
I0403 13:31:19.524040 32372 net.cpp:425] fc6 <- pool5
I0403 13:31:19.524065 32372 net.cpp:399] fc6 -> fc6
I0403 13:31:21.091109 32372 net.cpp:141] Setting up fc6
I0403 13:31:21.091189 32372 net.cpp:148] Top shape: 100 4096 (409600)
I0403 13:31:21.091205 32372 net.cpp:156] Memory required for data: 823334000
I0403 13:31:21.091234 32372 layer_factory.hpp:77] Creating layer relu6
I0403 13:31:21.091256 32372 net.cpp:91] Creating Layer relu6
I0403 13:31:21.091274 32372 net.cpp:425] relu6 <- fc6
I0403 13:31:21.091292 32372 net.cpp:386] relu6 -> fc6 (in-place)
I0403 13:31:21.091509 32372 net.cpp:141] Setting up relu6
I0403 13:31:21.091536 32372 net.cpp:148] Top shape: 100 4096 (409600)
I0403 13:31:21.091552 32372 net.cpp:156] Memory required for data: 824972400
I0403 13:31:21.091567 32372 layer_factory.hpp:77] Creating layer drop6
I0403 13:31:21.091584 32372 net.cpp:91] Creating Layer drop6
I0403 13:31:21.091599 32372 net.cpp:425] drop6 <- fc6
I0403 13:31:21.091619 32372 net.cpp:386] drop6 -> fc6 (in-place)
I0403 13:31:21.091668 32372 net.cpp:141] Setting up drop6
I0403 13:31:21.091692 32372 net.cpp:148] Top shape: 100 4096 (409600)
I0403 13:31:21.091706 32372 net.cpp:156] Memory required for data: 826610800
I0403 13:31:21.091722 32372 layer_factory.hpp:77] Creating layer fc7
I0403 13:31:21.091747 32372 net.cpp:91] Creating Layer fc7
I0403 13:31:21.091764 32372 net.cpp:425] fc7 <- fc6
I0403 13:31:21.091784 32372 net.cpp:399] fc7 -> fc7
I0403 13:31:21.776754 32372 net.cpp:141] Setting up fc7
I0403 13:31:21.776845 32372 net.cpp:148] Top shape: 100 4096 (409600)
I0403 13:31:21.776861 32372 net.cpp:156] Memory required for data: 828249200
I0403 13:31:21.776883 32372 layer_factory.hpp:77] Creating layer relu7
I0403 13:31:21.776904 32372 net.cpp:91] Creating Layer relu7
I0403 13:31:21.776922 32372 net.cpp:425] relu7 <- fc7
I0403 13:31:21.776940 32372 net.cpp:386] relu7 -> fc7 (in-place)
I0403 13:31:21.777369 32372 net.cpp:141] Setting up relu7
I0403 13:31:21.777398 32372 net.cpp:148] Top shape: 100 4096 (409600)
I0403 13:31:21.777462 32372 net.cpp:156] Memory required for data: 829887600
I0403 13:31:21.777479 32372 layer_factory.hpp:77] Creating layer drop7
I0403 13:31:21.777499 32372 net.cpp:91] Creating Layer drop7
I0403 13:31:21.777516 32372 net.cpp:425] drop7 <- fc7
I0403 13:31:21.777534 32372 net.cpp:386] drop7 -> fc7 (in-place)
I0403 13:31:21.777580 32372 net.cpp:141] Setting up drop7
I0403 13:31:21.777602 32372 net.cpp:148] Top shape: 100 4096 (409600)
I0403 13:31:21.777617 32372 net.cpp:156] Memory required for data: 831526000
I0403 13:31:21.777632 32372 layer_factory.hpp:77] Creating layer fc8_plantvillage
I0403 13:31:21.777654 32372 net.cpp:91] Creating Layer fc8_plantvillage
I0403 13:31:21.777672 32372 net.cpp:425] fc8_plantvillage <- fc7
I0403 13:31:21.777689 32372 net.cpp:399] fc8_plantvillage -> fc8_plantvillage
I0403 13:31:21.784806 32372 net.cpp:141] Setting up fc8_plantvillage
I0403 13:31:21.784834 32372 net.cpp:148] Top shape: 100 38 (3800)
I0403 13:31:21.784850 32372 net.cpp:156] Memory required for data: 831541200
I0403 13:31:21.784869 32372 layer_factory.hpp:77] Creating layer fc8_plantvillage_fc8_plantvillage_0_split
I0403 13:31:21.784888 32372 net.cpp:91] Creating Layer fc8_plantvillage_fc8_plantvillage_0_split
I0403 13:31:21.784904 32372 net.cpp:425] fc8_plantvillage_fc8_plantvillage_0_split <- fc8_plantvillage
I0403 13:31:21.784924 32372 net.cpp:399] fc8_plantvillage_fc8_plantvillage_0_split -> fc8_plantvillage_fc8_plantvillage_0_split_0
I0403 13:31:21.784943 32372 net.cpp:399] fc8_plantvillage_fc8_plantvillage_0_split -> fc8_plantvillage_fc8_plantvillage_0_split_1
I0403 13:31:21.784963 32372 net.cpp:399] fc8_plantvillage_fc8_plantvillage_0_split -> fc8_plantvillage_fc8_plantvillage_0_split_2
I0403 13:31:21.785040 32372 net.cpp:141] Setting up fc8_plantvillage_fc8_plantvillage_0_split
I0403 13:31:21.785063 32372 net.cpp:148] Top shape: 100 38 (3800)
I0403 13:31:21.785079 32372 net.cpp:148] Top shape: 100 38 (3800)
I0403 13:31:21.785095 32372 net.cpp:148] Top shape: 100 38 (3800)
I0403 13:31:21.785109 32372 net.cpp:156] Memory required for data: 831586800
I0403 13:31:21.785123 32372 layer_factory.hpp:77] Creating layer prob
I0403 13:31:21.785145 32372 net.cpp:91] Creating Layer prob
I0403 13:31:21.785161 32372 net.cpp:425] prob <- fc8_plantvillage_fc8_plantvillage_0_split_0
I0403 13:31:21.785181 32372 net.cpp:399] prob -> prob
I0403 13:31:21.785414 32372 net.cpp:141] Setting up prob
I0403 13:31:21.785444 32372 net.cpp:148] Top shape: 100 38 (3800)
I0403 13:31:21.785459 32372 net.cpp:156] Memory required for data: 831602000
I0403 13:31:21.785475 32372 layer_factory.hpp:77] Creating layer hdf5out
I0403 13:31:21.785493 32372 net.cpp:91] Creating Layer hdf5out
I0403 13:31:21.785509 32372 net.cpp:425] hdf5out <- prob
I0403 13:31:21.785524 32372 net.cpp:425] hdf5out <- label_data_1_split_0
I0403 13:31:21.787858 32372 net.cpp:141] Setting up hdf5out
…
