…
I0403 13:26:39.930382 32120 net.cpp:313] The NetState phase (1) differed from the phase (0) specified by a rule in layer data
I0403 13:26:39.930696 32120 net.cpp:49] Initializing net from parameters: 
state {
  phase: TEST
}
layer {
  name: "data"
  type: "Data"
  top: "data"
  top: "label"
  include {
    phase: TEST
  }
  transform_param {
    crop_size: 227
    mean_file: "/home/mohanty/data/final_dataset/lmdb/grayscale-60-40/mean.binaryproto"
  }
  data_param {
    source: "/home/mohanty/data/final_dataset/lmdb/grayscale-60-40/test_db"
    batch_size: 100
    backend: LMDB
  }
}
layer {
  name: "conv1"
  type: "Convolution"
  bottom: "data"
  top: "conv1"
  param {
    lr_mult: 1
    decay_mult: 1
  }
  param {
    lr_mult: 2
    decay_mult: 0
  }
  convolution_param {
    num_output: 96
    kernel_size: 11
    stride: 4
    weight_filler {
      type: "gaussian"
      std: 0.01
    }
    bias_filler {
      type: "constant"
      value: 0
    }
  }
}
layer {
  name: "relu1"
  type: "ReLU"
  bottom: "conv1"
  top: "conv1"
}
layer {
  name: "norm1"
  type: "LRN"
  bottom: "conv1"
  top: "norm1"
  lrn_param {
    local_size: 5
    alpha: 0.0001
    beta: 0.75
  }
}
layer {
  name: "pool1"
  type: "Pooling"
  bottom: "norm1"
  top: "pool1"
  pooling_param {
    pool: MAX
    kernel_size: 3
    stride: 2
  }
}
layer {
  name: "conv2"
  type: "Convolution"
  bottom: "pool1"
  top: "conv2"
  param {
    lr_mult: 1
    decay_mult: 1
  }
  param {
    lr_mult: 2
    decay_mult: 0
  }
  convolution_param {
    num_output: 256
    pad: 2
    kernel_size: 5
    group: 2
    weight_filler {
      type: "gaussian"
      std: 0.01
    }
    bias_filler {
      type: "constant"
      value: 0.1
    }
  }
}
layer {
  name: "relu2"
  type: "ReLU"
  bottom: "conv2"
  top: "conv2"
}
layer {
  name: "norm2"
  type: "LRN"
  bottom: "conv2"
  top: "norm2"
  lrn_param {
    local_size: 5
    alpha: 0.0001
    beta: 0.75
  }
}
layer {
  name: "pool2"
  type: "Pooling"
  bottom: "norm2"
  top: "pool2"
  pooling_param {
    pool: MAX
    kernel_size: 3
    stride: 2
  }
}
layer {
  name: "conv3"
  type: "Convolution"
  bottom: "pool2"
  top: "conv3"
  param {
    lr_mult: 1
    decay_mult: 1
  }
  param {
    lr_mult: 2
    decay_mult: 0
  }
  convolution_param {
    num_output: 384
    pad: 1
    kernel_size: 3
    weight_filler {
      type: "gaussian"
      std: 0.01
    }
    bias_filler {
      type: "constant"
      value: 0
    }
  }
}
layer {
  name: "relu3"
  type: "ReLU"
  bottom: "conv3"
  top: "conv3"
}
layer {
  name: "conv4"
  type: "Convolution"
  bottom: "conv3"
  top: "conv4"
  param {
    lr_mult: 1
    decay_mult: 1
  }
  param {
    lr_mult: 2
    decay_mult: 0
  }
  convolution_param {
    num_output: 384
    pad: 1
    kernel_size: 3
    group: 2
    weight_filler {
      type: "gaussian"
      std: 0.01
    }
    bias_filler {
      type: "constant"
      value: 0.1
    }
  }
}
layer {
  name: "relu4"
  type: "ReLU"
  bottom: "conv4"
  top: "conv4"
}
layer {
  name: "conv5"
  type: "Convolution"
  bottom: "conv4"
  top: "conv5"
  param {
    lr_mult: 1
    decay_mult: 1
  }
  param {
    lr_mult: 2
    decay_mult: 0
  }
  convolution_param {
    num_output: 256
    pad: 1
    kernel_size: 3
    group: 2
    weight_filler {
      type: "gaussian"
      std: 0.01
    }
    bias_filler {
      type: "constant"
      value: 0.1
    }
  }
}
layer {
  name: "relu5"
  type: "ReLU"
  bottom: "conv5"
  top: "conv5"
}
layer {
  name: "pool5"
  type: "Pooling"
  bottom: "conv5"
  top: "pool5"
  pooling_param {
    pool: MAX
    kernel_size: 3
    stride: 2
  }
}
layer {
  name: "fc6"
  type: "InnerProduct"
  bottom: "pool5"
  top: "fc6"
  param {
    lr_mult: 1
    decay_mult: 1
  }
  param {
    lr_mult: 2
    decay_mult: 0
  }
  inner_product_param {
    num_output: 4096
    weight_filler {
      type: "gaussian"
      std: 0.005
    }
    bias_filler {
      type: "constant"
      value: 0.1
    }
  }
}
layer {
  name: "relu6"
  type: "ReLU"
  bottom: "fc6"
  top: "fc6"
}
layer {
  name: "drop6"
  type: "Dropout"
  bottom: "fc6"
  top: "fc6"
  dropout_param {
    dropout_ratio: 0.5
  }
}
layer {
  name: "fc7"
  type: "InnerProduct"
  bottom: "fc6"
  top: "fc7"
  param {
    lr_mult: 1
    decay_mult: 1
  }
  param {
    lr_mult: 2
    decay_mult: 0
  }
  inner_product_param {
    num_output: 4096
    weight_filler {
      type: "gaussian"
      std: 0.005
    }
    bias_filler {
      type: "constant"
      value: 0.1
    }
  }
}
layer {
  name: "relu7"
  type: "ReLU"
  bottom: "fc7"
  top: "fc7"
}
layer {
  name: "drop7"
  type: "Dropout"
  bottom: "fc7"
  top: "fc7"
  dropout_param {
    dropout_ratio: 0.5
  }
}
layer {
  name: "fc8_plantvillage"
  type: "InnerProduct"
  bottom: "fc7"
  top: "fc8_plantvillage"
  param {
    lr_mult: 1
    decay_mult: 1
  }
  param {
    lr_mult: 2
    decay_mult: 0
  }
  inner_product_param {
    num_output: 38
    weight_filler {
      type: "gaussian"
      std: 0.01
    }
    bias_filler {
      type: "constant"
      value: 0
    }
  }
}
layer {
  name: "prob"
  type: "Softmax"
  bottom: "fc8_plantvillage"
  top: "prob"
  include {
    phase: TEST
  }
}
layer {
  name: "hdf5out"
  type: "HDF5Output"
  bottom: "prob"
  bottom: "label"
  include {
    phase: TEST
  }
  hdf5_output_param {
    file_name: "hdf5_dumps/iter_7475.h5"
  }
}
layer {
  name: "loss"
  type: "SoftmaxWithLoss"
  bottom: "fc8_plantvillage"
  bottom: "label"
  top: "loss"
}
layer {
  name: "accuracy"
  type: "Accuracy"
  bottom: "fc8_plantvillage"
  bottom: "label"
  top: "accuracy"
  include {
    phase: TEST
  }
}
I0403 13:26:39.931249 32120 layer_factory.hpp:77] Creating layer data
I0403 13:26:39.931910 32120 net.cpp:91] Creating Layer data
I0403 13:26:39.931943 32120 net.cpp:399] data -> data
I0403 13:26:39.931993 32120 net.cpp:399] data -> label
I0403 13:26:39.932029 32120 data_transformer.cpp:25] Loading mean file from: /home/mohanty/data/final_dataset/lmdb/grayscale-60-40/mean.binaryproto
I0403 13:26:39.943580 32123 db_lmdb.cpp:38] Opened lmdb /home/mohanty/data/final_dataset/lmdb/grayscale-60-40/test_db
I0403 13:26:39.948068 32120 data_layer.cpp:41] output data size: 100,3,227,227
I0403 13:26:40.068928 32120 net.cpp:141] Setting up data
I0403 13:26:40.069025 32120 net.cpp:148] Top shape: 100 3 227 227 (15458700)
I0403 13:26:40.069047 32120 net.cpp:148] Top shape: 100 (100)
I0403 13:26:40.069063 32120 net.cpp:156] Memory required for data: 61835200
I0403 13:26:40.069089 32120 layer_factory.hpp:77] Creating layer label_data_1_split
I0403 13:26:40.069115 32120 net.cpp:91] Creating Layer label_data_1_split
I0403 13:26:40.069134 32120 net.cpp:425] label_data_1_split <- label
I0403 13:26:40.069166 32120 net.cpp:399] label_data_1_split -> label_data_1_split_0
I0403 13:26:40.069193 32120 net.cpp:399] label_data_1_split -> label_data_1_split_1
I0403 13:26:40.069218 32120 net.cpp:399] label_data_1_split -> label_data_1_split_2
I0403 13:26:40.069285 32120 net.cpp:141] Setting up label_data_1_split
I0403 13:26:40.069308 32120 net.cpp:148] Top shape: 100 (100)
I0403 13:26:40.069325 32120 net.cpp:148] Top shape: 100 (100)
I0403 13:26:40.069341 32120 net.cpp:148] Top shape: 100 (100)
I0403 13:26:40.069356 32120 net.cpp:156] Memory required for data: 61836400
I0403 13:26:40.069370 32120 layer_factory.hpp:77] Creating layer conv1
I0403 13:26:40.069402 32120 net.cpp:91] Creating Layer conv1
I0403 13:26:40.069422 32120 net.cpp:425] conv1 <- data
I0403 13:26:40.069442 32120 net.cpp:399] conv1 -> conv1
I0403 13:26:40.213667 32120 net.cpp:141] Setting up conv1
I0403 13:26:40.213757 32120 net.cpp:148] Top shape: 100 96 55 55 (29040000)
I0403 13:26:40.213774 32120 net.cpp:156] Memory required for data: 177996400
I0403 13:26:40.213806 32120 layer_factory.hpp:77] Creating layer relu1
I0403 13:26:40.213835 32120 net.cpp:91] Creating Layer relu1
I0403 13:26:40.213855 32120 net.cpp:425] relu1 <- conv1
I0403 13:26:40.213874 32120 net.cpp:386] relu1 -> conv1 (in-place)
I0403 13:26:40.214190 32120 net.cpp:141] Setting up relu1
I0403 13:26:40.214224 32120 net.cpp:148] Top shape: 100 96 55 55 (29040000)
I0403 13:26:40.214272 32120 net.cpp:156] Memory required for data: 294156400
I0403 13:26:40.214289 32120 layer_factory.hpp:77] Creating layer norm1
I0403 13:26:40.214316 32120 net.cpp:91] Creating Layer norm1
I0403 13:26:40.214336 32120 net.cpp:425] norm1 <- conv1
I0403 13:26:40.214354 32120 net.cpp:399] norm1 -> norm1
I0403 13:26:40.214684 32120 net.cpp:141] Setting up norm1
I0403 13:26:40.214711 32120 net.cpp:148] Top shape: 100 96 55 55 (29040000)
I0403 13:26:40.214727 32120 net.cpp:156] Memory required for data: 410316400
I0403 13:26:40.214742 32120 layer_factory.hpp:77] Creating layer pool1
I0403 13:26:40.214766 32120 net.cpp:91] Creating Layer pool1
I0403 13:26:40.214783 32120 net.cpp:425] pool1 <- norm1
I0403 13:26:40.214802 32120 net.cpp:399] pool1 -> pool1
I0403 13:26:40.214869 32120 net.cpp:141] Setting up pool1
I0403 13:26:40.214892 32120 net.cpp:148] Top shape: 100 96 27 27 (6998400)
I0403 13:26:40.214908 32120 net.cpp:156] Memory required for data: 438310000
I0403 13:26:40.214923 32120 layer_factory.hpp:77] Creating layer conv2
I0403 13:26:40.214948 32120 net.cpp:91] Creating Layer conv2
I0403 13:26:40.214964 32120 net.cpp:425] conv2 <- pool1
I0403 13:26:40.214982 32120 net.cpp:399] conv2 -> conv2
I0403 13:26:40.230777 32120 net.cpp:141] Setting up conv2
I0403 13:26:40.230837 32120 net.cpp:148] Top shape: 100 256 27 27 (18662400)
I0403 13:26:40.230854 32120 net.cpp:156] Memory required for data: 512959600
I0403 13:26:40.230876 32120 layer_factory.hpp:77] Creating layer relu2
I0403 13:26:40.230900 32120 net.cpp:91] Creating Layer relu2
I0403 13:26:40.230917 32120 net.cpp:425] relu2 <- conv2
I0403 13:26:40.230936 32120 net.cpp:386] relu2 -> conv2 (in-place)
I0403 13:26:40.231225 32120 net.cpp:141] Setting up relu2
I0403 13:26:40.231251 32120 net.cpp:148] Top shape: 100 256 27 27 (18662400)
I0403 13:26:40.231267 32120 net.cpp:156] Memory required for data: 587609200
I0403 13:26:40.231281 32120 layer_factory.hpp:77] Creating layer norm2
I0403 13:26:40.231305 32120 net.cpp:91] Creating Layer norm2
I0403 13:26:40.231322 32120 net.cpp:425] norm2 <- conv2
I0403 13:26:40.231344 32120 net.cpp:399] norm2 -> norm2
I0403 13:26:40.231547 32120 net.cpp:141] Setting up norm2
I0403 13:26:40.231573 32120 net.cpp:148] Top shape: 100 256 27 27 (18662400)
I0403 13:26:40.231588 32120 net.cpp:156] Memory required for data: 662258800
I0403 13:26:40.231603 32120 layer_factory.hpp:77] Creating layer pool2
I0403 13:26:40.231624 32120 net.cpp:91] Creating Layer pool2
I0403 13:26:40.231640 32120 net.cpp:425] pool2 <- norm2
I0403 13:26:40.231657 32120 net.cpp:399] pool2 -> pool2
I0403 13:26:40.231712 32120 net.cpp:141] Setting up pool2
I0403 13:26:40.231748 32120 net.cpp:148] Top shape: 100 256 13 13 (4326400)
I0403 13:26:40.231765 32120 net.cpp:156] Memory required for data: 679564400
I0403 13:26:40.231780 32120 layer_factory.hpp:77] Creating layer conv3
I0403 13:26:40.231804 32120 net.cpp:91] Creating Layer conv3
I0403 13:26:40.231848 32120 net.cpp:425] conv3 <- pool2
I0403 13:26:40.231878 32120 net.cpp:399] conv3 -> conv3
I0403 13:26:40.273332 32120 net.cpp:141] Setting up conv3
I0403 13:26:40.273416 32120 net.cpp:148] Top shape: 100 384 13 13 (6489600)
I0403 13:26:40.273433 32120 net.cpp:156] Memory required for data: 705522800
I0403 13:26:40.273459 32120 layer_factory.hpp:77] Creating layer relu3
I0403 13:26:40.273485 32120 net.cpp:91] Creating Layer relu3
I0403 13:26:40.273504 32120 net.cpp:425] relu3 <- conv3
I0403 13:26:40.273524 32120 net.cpp:386] relu3 -> conv3 (in-place)
I0403 13:26:40.273814 32120 net.cpp:141] Setting up relu3
I0403 13:26:40.273843 32120 net.cpp:148] Top shape: 100 384 13 13 (6489600)
I0403 13:26:40.273857 32120 net.cpp:156] Memory required for data: 731481200
I0403 13:26:40.273874 32120 layer_factory.hpp:77] Creating layer conv4
I0403 13:26:40.273902 32120 net.cpp:91] Creating Layer conv4
I0403 13:26:40.273921 32120 net.cpp:425] conv4 <- conv3
I0403 13:26:40.273944 32120 net.cpp:399] conv4 -> conv4
I0403 13:26:40.304855 32120 net.cpp:141] Setting up conv4
I0403 13:26:40.304930 32120 net.cpp:148] Top shape: 100 384 13 13 (6489600)
I0403 13:26:40.304980 32120 net.cpp:156] Memory required for data: 757439600
I0403 13:26:40.305002 32120 layer_factory.hpp:77] Creating layer relu4
I0403 13:26:40.305024 32120 net.cpp:91] Creating Layer relu4
I0403 13:26:40.305042 32120 net.cpp:425] relu4 <- conv4
I0403 13:26:40.305063 32120 net.cpp:386] relu4 -> conv4 (in-place)
I0403 13:26:40.305356 32120 net.cpp:141] Setting up relu4
I0403 13:26:40.305383 32120 net.cpp:148] Top shape: 100 384 13 13 (6489600)
I0403 13:26:40.305398 32120 net.cpp:156] Memory required for data: 783398000
I0403 13:26:40.305413 32120 layer_factory.hpp:77] Creating layer conv5
I0403 13:26:40.305439 32120 net.cpp:91] Creating Layer conv5
I0403 13:26:40.305457 32120 net.cpp:425] conv5 <- conv4
I0403 13:26:40.305518 32120 net.cpp:399] conv5 -> conv5
I0403 13:26:40.328557 32120 net.cpp:141] Setting up conv5
I0403 13:26:40.328613 32120 net.cpp:148] Top shape: 100 256 13 13 (4326400)
I0403 13:26:40.328629 32120 net.cpp:156] Memory required for data: 800703600
I0403 13:26:40.328654 32120 layer_factory.hpp:77] Creating layer relu5
I0403 13:26:40.328680 32120 net.cpp:91] Creating Layer relu5
I0403 13:26:40.328697 32120 net.cpp:425] relu5 <- conv5
I0403 13:26:40.328716 32120 net.cpp:386] relu5 -> conv5 (in-place)
I0403 13:26:40.328995 32120 net.cpp:141] Setting up relu5
I0403 13:26:40.329022 32120 net.cpp:148] Top shape: 100 256 13 13 (4326400)
I0403 13:26:40.329038 32120 net.cpp:156] Memory required for data: 818009200
I0403 13:26:40.329053 32120 layer_factory.hpp:77] Creating layer pool5
I0403 13:26:40.329078 32120 net.cpp:91] Creating Layer pool5
I0403 13:26:40.329095 32120 net.cpp:425] pool5 <- conv5
I0403 13:26:40.329114 32120 net.cpp:399] pool5 -> pool5
I0403 13:26:40.329179 32120 net.cpp:141] Setting up pool5
I0403 13:26:40.329203 32120 net.cpp:148] Top shape: 100 256 6 6 (921600)
I0403 13:26:40.329224 32120 net.cpp:156] Memory required for data: 821695600
I0403 13:26:40.329239 32120 layer_factory.hpp:77] Creating layer fc6
I0403 13:26:40.329268 32120 net.cpp:91] Creating Layer fc6
I0403 13:26:40.329287 32120 net.cpp:425] fc6 <- pool5
I0403 13:26:40.329305 32120 net.cpp:399] fc6 -> fc6
I0403 13:26:41.923827 32120 net.cpp:141] Setting up fc6
I0403 13:26:41.923914 32120 net.cpp:148] Top shape: 100 4096 (409600)
I0403 13:26:41.923930 32120 net.cpp:156] Memory required for data: 823334000
I0403 13:26:41.923951 32120 layer_factory.hpp:77] Creating layer relu6
I0403 13:26:41.923972 32120 net.cpp:91] Creating Layer relu6
I0403 13:26:41.923990 32120 net.cpp:425] relu6 <- fc6
I0403 13:26:41.924011 32120 net.cpp:386] relu6 -> fc6 (in-place)
I0403 13:26:41.924233 32120 net.cpp:141] Setting up relu6
I0403 13:26:41.924257 32120 net.cpp:148] Top shape: 100 4096 (409600)
I0403 13:26:41.924273 32120 net.cpp:156] Memory required for data: 824972400
I0403 13:26:41.924288 32120 layer_factory.hpp:77] Creating layer drop6
I0403 13:26:41.924307 32120 net.cpp:91] Creating Layer drop6
I0403 13:26:41.924324 32120 net.cpp:425] drop6 <- fc6
I0403 13:26:41.924340 32120 net.cpp:386] drop6 -> fc6 (in-place)
I0403 13:26:41.924391 32120 net.cpp:141] Setting up drop6
I0403 13:26:41.924414 32120 net.cpp:148] Top shape: 100 4096 (409600)
I0403 13:26:41.924429 32120 net.cpp:156] Memory required for data: 826610800
I0403 13:26:41.924444 32120 layer_factory.hpp:77] Creating layer fc7
I0403 13:26:41.924464 32120 net.cpp:91] Creating Layer fc7
I0403 13:26:41.924479 32120 net.cpp:425] fc7 <- fc6
I0403 13:26:41.924499 32120 net.cpp:399] fc7 -> fc7
I0403 13:26:42.610901 32120 net.cpp:141] Setting up fc7
I0403 13:26:42.610991 32120 net.cpp:148] Top shape: 100 4096 (409600)
I0403 13:26:42.611007 32120 net.cpp:156] Memory required for data: 828249200
I0403 13:26:42.611028 32120 layer_factory.hpp:77] Creating layer relu7
I0403 13:26:42.611050 32120 net.cpp:91] Creating Layer relu7
I0403 13:26:42.611068 32120 net.cpp:425] relu7 <- fc7
I0403 13:26:42.611089 32120 net.cpp:386] relu7 -> fc7 (in-place)
I0403 13:26:42.611512 32120 net.cpp:141] Setting up relu7
I0403 13:26:42.611539 32120 net.cpp:148] Top shape: 100 4096 (409600)
I0403 13:26:42.611588 32120 net.cpp:156] Memory required for data: 829887600
I0403 13:26:42.611604 32120 layer_factory.hpp:77] Creating layer drop7
I0403 13:26:42.611624 32120 net.cpp:91] Creating Layer drop7
I0403 13:26:42.611639 32120 net.cpp:425] drop7 <- fc7
I0403 13:26:42.611659 32120 net.cpp:386] drop7 -> fc7 (in-place)
I0403 13:26:42.611703 32120 net.cpp:141] Setting up drop7
I0403 13:26:42.611726 32120 net.cpp:148] Top shape: 100 4096 (409600)
I0403 13:26:42.611739 32120 net.cpp:156] Memory required for data: 831526000
I0403 13:26:42.611754 32120 layer_factory.hpp:77] Creating layer fc8_plantvillage
I0403 13:26:42.611773 32120 net.cpp:91] Creating Layer fc8_plantvillage
I0403 13:26:42.611789 32120 net.cpp:425] fc8_plantvillage <- fc7
I0403 13:26:42.611809 32120 net.cpp:399] fc8_plantvillage -> fc8_plantvillage
I0403 13:26:42.618533 32120 net.cpp:141] Setting up fc8_plantvillage
I0403 13:26:42.618562 32120 net.cpp:148] Top shape: 100 38 (3800)
I0403 13:26:42.618577 32120 net.cpp:156] Memory required for data: 831541200
I0403 13:26:42.618595 32120 layer_factory.hpp:77] Creating layer fc8_plantvillage_fc8_plantvillage_0_split
I0403 13:26:42.618615 32120 net.cpp:91] Creating Layer fc8_plantvillage_fc8_plantvillage_0_split
I0403 13:26:42.618631 32120 net.cpp:425] fc8_plantvillage_fc8_plantvillage_0_split <- fc8_plantvillage
I0403 13:26:42.618649 32120 net.cpp:399] fc8_plantvillage_fc8_plantvillage_0_split -> fc8_plantvillage_fc8_plantvillage_0_split_0
I0403 13:26:42.618669 32120 net.cpp:399] fc8_plantvillage_fc8_plantvillage_0_split -> fc8_plantvillage_fc8_plantvillage_0_split_1
I0403 13:26:42.618687 32120 net.cpp:399] fc8_plantvillage_fc8_plantvillage_0_split -> fc8_plantvillage_fc8_plantvillage_0_split_2
I0403 13:26:42.618768 32120 net.cpp:141] Setting up fc8_plantvillage_fc8_plantvillage_0_split
I0403 13:26:42.618791 32120 net.cpp:148] Top shape: 100 38 (3800)
I0403 13:26:42.618808 32120 net.cpp:148] Top shape: 100 38 (3800)
I0403 13:26:42.618824 32120 net.cpp:148] Top shape: 100 38 (3800)
I0403 13:26:42.618837 32120 net.cpp:156] Memory required for data: 831586800
I0403 13:26:42.618852 32120 layer_factory.hpp:77] Creating layer prob
I0403 13:26:42.618870 32120 net.cpp:91] Creating Layer prob
I0403 13:26:42.618885 32120 net.cpp:425] prob <- fc8_plantvillage_fc8_plantvillage_0_split_0
I0403 13:26:42.618903 32120 net.cpp:399] prob -> prob
I0403 13:26:42.619127 32120 net.cpp:141] Setting up prob
I0403 13:26:42.619153 32120 net.cpp:148] Top shape: 100 38 (3800)
I0403 13:26:42.619166 32120 net.cpp:156] Memory required for data: 831602000
I0403 13:26:42.619180 32120 layer_factory.hpp:77] Creating layer hdf5out
I0403 13:26:42.619199 32120 net.cpp:91] Creating Layer hdf5out
I0403 13:26:42.619222 32120 net.cpp:425] hdf5out <- prob
I0403 13:26:42.619238 32120 net.cpp:425] hdf5out <- label_data_1_split_0
I0403 13:26:42.621502 32120 net.cpp:141] Setting up hdf5out
…
