…
I0403 13:23:32.515656 32025 net.cpp:313] The NetState phase (1) differed from the phase (0) specified by a rule in layer data
I0403 13:23:32.515959 32025 net.cpp:49] Initializing net from parameters: 
state {
  phase: TEST
}
layer {
  name: "data"
  type: "Data"
  top: "data"
  top: "label"
  include {
    phase: TEST
  }
  transform_param {
    crop_size: 227
    mean_file: "/home/mohanty/data/final_dataset/lmdb/grayscale-60-40/mean.binaryproto"
  }
  data_param {
    source: "/home/mohanty/data/final_dataset/lmdb/grayscale-60-40/test_db"
    batch_size: 100
    backend: LMDB
  }
}
layer {
  name: "conv1"
  type: "Convolution"
  bottom: "data"
  top: "conv1"
  param {
    lr_mult: 1
    decay_mult: 1
  }
  param {
    lr_mult: 2
    decay_mult: 0
  }
  convolution_param {
    num_output: 96
    kernel_size: 11
    stride: 4
    weight_filler {
      type: "gaussian"
      std: 0.01
    }
    bias_filler {
      type: "constant"
      value: 0
    }
  }
}
layer {
  name: "relu1"
  type: "ReLU"
  bottom: "conv1"
  top: "conv1"
}
layer {
  name: "norm1"
  type: "LRN"
  bottom: "conv1"
  top: "norm1"
  lrn_param {
    local_size: 5
    alpha: 0.0001
    beta: 0.75
  }
}
layer {
  name: "pool1"
  type: "Pooling"
  bottom: "norm1"
  top: "pool1"
  pooling_param {
    pool: MAX
    kernel_size: 3
    stride: 2
  }
}
layer {
  name: "conv2"
  type: "Convolution"
  bottom: "pool1"
  top: "conv2"
  param {
    lr_mult: 1
    decay_mult: 1
  }
  param {
    lr_mult: 2
    decay_mult: 0
  }
  convolution_param {
    num_output: 256
    pad: 2
    kernel_size: 5
    group: 2
    weight_filler {
      type: "gaussian"
      std: 0.01
    }
    bias_filler {
      type: "constant"
      value: 0.1
    }
  }
}
layer {
  name: "relu2"
  type: "ReLU"
  bottom: "conv2"
  top: "conv2"
}
layer {
  name: "norm2"
  type: "LRN"
  bottom: "conv2"
  top: "norm2"
  lrn_param {
    local_size: 5
    alpha: 0.0001
    beta: 0.75
  }
}
layer {
  name: "pool2"
  type: "Pooling"
  bottom: "norm2"
  top: "pool2"
  pooling_param {
    pool: MAX
    kernel_size: 3
    stride: 2
  }
}
layer {
  name: "conv3"
  type: "Convolution"
  bottom: "pool2"
  top: "conv3"
  param {
    lr_mult: 1
    decay_mult: 1
  }
  param {
    lr_mult: 2
    decay_mult: 0
  }
  convolution_param {
    num_output: 384
    pad: 1
    kernel_size: 3
    weight_filler {
      type: "gaussian"
      std: 0.01
    }
    bias_filler {
      type: "constant"
      value: 0
    }
  }
}
layer {
  name: "relu3"
  type: "ReLU"
  bottom: "conv3"
  top: "conv3"
}
layer {
  name: "conv4"
  type: "Convolution"
  bottom: "conv3"
  top: "conv4"
  param {
    lr_mult: 1
    decay_mult: 1
  }
  param {
    lr_mult: 2
    decay_mult: 0
  }
  convolution_param {
    num_output: 384
    pad: 1
    kernel_size: 3
    group: 2
    weight_filler {
      type: "gaussian"
      std: 0.01
    }
    bias_filler {
      type: "constant"
      value: 0.1
    }
  }
}
layer {
  name: "relu4"
  type: "ReLU"
  bottom: "conv4"
  top: "conv4"
}
layer {
  name: "conv5"
  type: "Convolution"
  bottom: "conv4"
  top: "conv5"
  param {
    lr_mult: 1
    decay_mult: 1
  }
  param {
    lr_mult: 2
    decay_mult: 0
  }
  convolution_param {
    num_output: 256
    pad: 1
    kernel_size: 3
    group: 2
    weight_filler {
      type: "gaussian"
      std: 0.01
    }
    bias_filler {
      type: "constant"
      value: 0.1
    }
  }
}
layer {
  name: "relu5"
  type: "ReLU"
  bottom: "conv5"
  top: "conv5"
}
layer {
  name: "pool5"
  type: "Pooling"
  bottom: "conv5"
  top: "pool5"
  pooling_param {
    pool: MAX
    kernel_size: 3
    stride: 2
  }
}
layer {
  name: "fc6"
  type: "InnerProduct"
  bottom: "pool5"
  top: "fc6"
  param {
    lr_mult: 1
    decay_mult: 1
  }
  param {
    lr_mult: 2
    decay_mult: 0
  }
  inner_product_param {
    num_output: 4096
    weight_filler {
      type: "gaussian"
      std: 0.005
    }
    bias_filler {
      type: "constant"
      value: 0.1
    }
  }
}
layer {
  name: "relu6"
  type: "ReLU"
  bottom: "fc6"
  top: "fc6"
}
layer {
  name: "drop6"
  type: "Dropout"
  bottom: "fc6"
  top: "fc6"
  dropout_param {
    dropout_ratio: 0.5
  }
}
layer {
  name: "fc7"
  type: "InnerProduct"
  bottom: "fc6"
  top: "fc7"
  param {
    lr_mult: 1
    decay_mult: 1
  }
  param {
    lr_mult: 2
    decay_mult: 0
  }
  inner_product_param {
    num_output: 4096
    weight_filler {
      type: "gaussian"
      std: 0.005
    }
    bias_filler {
      type: "constant"
      value: 0.1
    }
  }
}
layer {
  name: "relu7"
  type: "ReLU"
  bottom: "fc7"
  top: "fc7"
}
layer {
  name: "drop7"
  type: "Dropout"
  bottom: "fc7"
  top: "fc7"
  dropout_param {
    dropout_ratio: 0.5
  }
}
layer {
  name: "fc8_plantvillage"
  type: "InnerProduct"
  bottom: "fc7"
  top: "fc8_plantvillage"
  param {
    lr_mult: 1
    decay_mult: 1
  }
  param {
    lr_mult: 2
    decay_mult: 0
  }
  inner_product_param {
    num_output: 38
    weight_filler {
      type: "gaussian"
      std: 0.01
    }
    bias_filler {
      type: "constant"
      value: 0
    }
  }
}
layer {
  name: "prob"
  type: "Softmax"
  bottom: "fc8_plantvillage"
  top: "prob"
  include {
    phase: TEST
  }
}
layer {
  name: "hdf5out"
  type: "HDF5Output"
  bottom: "prob"
  bottom: "label"
  include {
    phase: TEST
  }
  hdf5_output_param {
    file_name: "hdf5_dumps/iter_6175.h5"
  }
}
layer {
  name: "loss"
  type: "SoftmaxWithLoss"
  bottom: "fc8_plantvillage"
  bottom: "label"
  top: "loss"
}
layer {
  name: "accuracy"
  type: "Accuracy"
  bottom: "fc8_plantvillage"
  bottom: "label"
  top: "accuracy"
  include {
    phase: TEST
  }
}
I0403 13:23:32.516517 32025 layer_factory.hpp:77] Creating layer data
I0403 13:23:32.517155 32025 net.cpp:91] Creating Layer data
I0403 13:23:32.517185 32025 net.cpp:399] data -> data
I0403 13:23:32.517240 32025 net.cpp:399] data -> label
I0403 13:23:32.517279 32025 data_transformer.cpp:25] Loading mean file from: /home/mohanty/data/final_dataset/lmdb/grayscale-60-40/mean.binaryproto
I0403 13:23:32.520416 32028 db_lmdb.cpp:38] Opened lmdb /home/mohanty/data/final_dataset/lmdb/grayscale-60-40/test_db
I0403 13:23:32.531689 32025 data_layer.cpp:41] output data size: 100,3,227,227
I0403 13:23:32.651232 32025 net.cpp:141] Setting up data
I0403 13:23:32.651337 32025 net.cpp:148] Top shape: 100 3 227 227 (15458700)
I0403 13:23:32.651360 32025 net.cpp:148] Top shape: 100 (100)
I0403 13:23:32.651377 32025 net.cpp:156] Memory required for data: 61835200
I0403 13:23:32.651406 32025 layer_factory.hpp:77] Creating layer label_data_1_split
I0403 13:23:32.651432 32025 net.cpp:91] Creating Layer label_data_1_split
I0403 13:23:32.651450 32025 net.cpp:425] label_data_1_split <- label
I0403 13:23:32.651481 32025 net.cpp:399] label_data_1_split -> label_data_1_split_0
I0403 13:23:32.651509 32025 net.cpp:399] label_data_1_split -> label_data_1_split_1
I0403 13:23:32.651528 32025 net.cpp:399] label_data_1_split -> label_data_1_split_2
I0403 13:23:32.651592 32025 net.cpp:141] Setting up label_data_1_split
I0403 13:23:32.651615 32025 net.cpp:148] Top shape: 100 (100)
I0403 13:23:32.651633 32025 net.cpp:148] Top shape: 100 (100)
I0403 13:23:32.651649 32025 net.cpp:148] Top shape: 100 (100)
I0403 13:23:32.651664 32025 net.cpp:156] Memory required for data: 61836400
I0403 13:23:32.651679 32025 layer_factory.hpp:77] Creating layer conv1
I0403 13:23:32.651710 32025 net.cpp:91] Creating Layer conv1
I0403 13:23:32.651727 32025 net.cpp:425] conv1 <- data
I0403 13:23:32.651747 32025 net.cpp:399] conv1 -> conv1
I0403 13:23:32.795797 32025 net.cpp:141] Setting up conv1
I0403 13:23:32.795886 32025 net.cpp:148] Top shape: 100 96 55 55 (29040000)
I0403 13:23:32.795902 32025 net.cpp:156] Memory required for data: 177996400
I0403 13:23:32.795934 32025 layer_factory.hpp:77] Creating layer relu1
I0403 13:23:32.795963 32025 net.cpp:91] Creating Layer relu1
I0403 13:23:32.795980 32025 net.cpp:425] relu1 <- conv1
I0403 13:23:32.795999 32025 net.cpp:386] relu1 -> conv1 (in-place)
I0403 13:23:32.796278 32025 net.cpp:141] Setting up relu1
I0403 13:23:32.796304 32025 net.cpp:148] Top shape: 100 96 55 55 (29040000)
I0403 13:23:32.796351 32025 net.cpp:156] Memory required for data: 294156400
I0403 13:23:32.796367 32025 layer_factory.hpp:77] Creating layer norm1
I0403 13:23:32.796394 32025 net.cpp:91] Creating Layer norm1
I0403 13:23:32.796412 32025 net.cpp:425] norm1 <- conv1
I0403 13:23:32.796429 32025 net.cpp:399] norm1 -> norm1
I0403 13:23:32.796741 32025 net.cpp:141] Setting up norm1
I0403 13:23:32.796768 32025 net.cpp:148] Top shape: 100 96 55 55 (29040000)
I0403 13:23:32.796783 32025 net.cpp:156] Memory required for data: 410316400
I0403 13:23:32.796799 32025 layer_factory.hpp:77] Creating layer pool1
I0403 13:23:32.796823 32025 net.cpp:91] Creating Layer pool1
I0403 13:23:32.796839 32025 net.cpp:425] pool1 <- norm1
I0403 13:23:32.796857 32025 net.cpp:399] pool1 -> pool1
I0403 13:23:32.796923 32025 net.cpp:141] Setting up pool1
I0403 13:23:32.796947 32025 net.cpp:148] Top shape: 100 96 27 27 (6998400)
I0403 13:23:32.796962 32025 net.cpp:156] Memory required for data: 438310000
I0403 13:23:32.796977 32025 layer_factory.hpp:77] Creating layer conv2
I0403 13:23:32.797003 32025 net.cpp:91] Creating Layer conv2
I0403 13:23:32.797019 32025 net.cpp:425] conv2 <- pool1
I0403 13:23:32.797036 32025 net.cpp:399] conv2 -> conv2
I0403 13:23:32.811933 32025 net.cpp:141] Setting up conv2
I0403 13:23:32.811992 32025 net.cpp:148] Top shape: 100 256 27 27 (18662400)
I0403 13:23:32.812012 32025 net.cpp:156] Memory required for data: 512959600
I0403 13:23:32.812036 32025 layer_factory.hpp:77] Creating layer relu2
I0403 13:23:32.812057 32025 net.cpp:91] Creating Layer relu2
I0403 13:23:32.812077 32025 net.cpp:425] relu2 <- conv2
I0403 13:23:32.812094 32025 net.cpp:386] relu2 -> conv2 (in-place)
I0403 13:23:32.812376 32025 net.cpp:141] Setting up relu2
I0403 13:23:32.812407 32025 net.cpp:148] Top shape: 100 256 27 27 (18662400)
I0403 13:23:32.812423 32025 net.cpp:156] Memory required for data: 587609200
I0403 13:23:32.812439 32025 layer_factory.hpp:77] Creating layer norm2
I0403 13:23:32.812461 32025 net.cpp:91] Creating Layer norm2
I0403 13:23:32.812476 32025 net.cpp:425] norm2 <- conv2
I0403 13:23:32.812499 32025 net.cpp:399] norm2 -> norm2
I0403 13:23:32.812700 32025 net.cpp:141] Setting up norm2
I0403 13:23:32.812729 32025 net.cpp:148] Top shape: 100 256 27 27 (18662400)
I0403 13:23:32.812747 32025 net.cpp:156] Memory required for data: 662258800
I0403 13:23:32.812762 32025 layer_factory.hpp:77] Creating layer pool2
I0403 13:23:32.812780 32025 net.cpp:91] Creating Layer pool2
I0403 13:23:32.812796 32025 net.cpp:425] pool2 <- norm2
I0403 13:23:32.812813 32025 net.cpp:399] pool2 -> pool2
I0403 13:23:32.812868 32025 net.cpp:141] Setting up pool2
I0403 13:23:32.812892 32025 net.cpp:148] Top shape: 100 256 13 13 (4326400)
I0403 13:23:32.812908 32025 net.cpp:156] Memory required for data: 679564400
I0403 13:23:32.812923 32025 layer_factory.hpp:77] Creating layer conv3
I0403 13:23:32.812949 32025 net.cpp:91] Creating Layer conv3
I0403 13:23:32.812968 32025 net.cpp:425] conv3 <- pool2
I0403 13:23:32.812989 32025 net.cpp:399] conv3 -> conv3
I0403 13:23:32.853868 32025 net.cpp:141] Setting up conv3
I0403 13:23:32.853953 32025 net.cpp:148] Top shape: 100 384 13 13 (6489600)
I0403 13:23:32.853971 32025 net.cpp:156] Memory required for data: 705522800
I0403 13:23:32.853997 32025 layer_factory.hpp:77] Creating layer relu3
I0403 13:23:32.854022 32025 net.cpp:91] Creating Layer relu3
I0403 13:23:32.854041 32025 net.cpp:425] relu3 <- conv3
I0403 13:23:32.854060 32025 net.cpp:386] relu3 -> conv3 (in-place)
I0403 13:23:32.854341 32025 net.cpp:141] Setting up relu3
I0403 13:23:32.854370 32025 net.cpp:148] Top shape: 100 384 13 13 (6489600)
I0403 13:23:32.854387 32025 net.cpp:156] Memory required for data: 731481200
I0403 13:23:32.854401 32025 layer_factory.hpp:77] Creating layer conv4
I0403 13:23:32.854429 32025 net.cpp:91] Creating Layer conv4
I0403 13:23:32.854447 32025 net.cpp:425] conv4 <- conv3
I0403 13:23:32.854466 32025 net.cpp:399] conv4 -> conv4
I0403 13:23:32.884263 32025 net.cpp:141] Setting up conv4
I0403 13:23:32.884342 32025 net.cpp:148] Top shape: 100 384 13 13 (6489600)
I0403 13:23:32.884390 32025 net.cpp:156] Memory required for data: 757439600
I0403 13:23:32.884413 32025 layer_factory.hpp:77] Creating layer relu4
I0403 13:23:32.884438 32025 net.cpp:91] Creating Layer relu4
I0403 13:23:32.884456 32025 net.cpp:425] relu4 <- conv4
I0403 13:23:32.884475 32025 net.cpp:386] relu4 -> conv4 (in-place)
I0403 13:23:32.884755 32025 net.cpp:141] Setting up relu4
I0403 13:23:32.884783 32025 net.cpp:148] Top shape: 100 384 13 13 (6489600)
I0403 13:23:32.884799 32025 net.cpp:156] Memory required for data: 783398000
I0403 13:23:32.884814 32025 layer_factory.hpp:77] Creating layer conv5
I0403 13:23:32.884840 32025 net.cpp:91] Creating Layer conv5
I0403 13:23:32.884856 32025 net.cpp:425] conv5 <- conv4
I0403 13:23:32.884877 32025 net.cpp:399] conv5 -> conv5
I0403 13:23:32.905421 32025 net.cpp:141] Setting up conv5
I0403 13:23:32.905484 32025 net.cpp:148] Top shape: 100 256 13 13 (4326400)
I0403 13:23:32.905503 32025 net.cpp:156] Memory required for data: 800703600
I0403 13:23:32.905530 32025 layer_factory.hpp:77] Creating layer relu5
I0403 13:23:32.905553 32025 net.cpp:91] Creating Layer relu5
I0403 13:23:32.905570 32025 net.cpp:425] relu5 <- conv5
I0403 13:23:32.905588 32025 net.cpp:386] relu5 -> conv5 (in-place)
I0403 13:23:32.905877 32025 net.cpp:141] Setting up relu5
I0403 13:23:32.905906 32025 net.cpp:148] Top shape: 100 256 13 13 (4326400)
I0403 13:23:32.905923 32025 net.cpp:156] Memory required for data: 818009200
I0403 13:23:32.905938 32025 layer_factory.hpp:77] Creating layer pool5
I0403 13:23:32.905961 32025 net.cpp:91] Creating Layer pool5
I0403 13:23:32.905977 32025 net.cpp:425] pool5 <- conv5
I0403 13:23:32.905997 32025 net.cpp:399] pool5 -> pool5
I0403 13:23:32.906059 32025 net.cpp:141] Setting up pool5
I0403 13:23:32.906082 32025 net.cpp:148] Top shape: 100 256 6 6 (921600)
I0403 13:23:32.906097 32025 net.cpp:156] Memory required for data: 821695600
I0403 13:23:32.906113 32025 layer_factory.hpp:77] Creating layer fc6
I0403 13:23:32.906147 32025 net.cpp:91] Creating Layer fc6
I0403 13:23:32.906167 32025 net.cpp:425] fc6 <- pool5
I0403 13:23:32.906195 32025 net.cpp:399] fc6 -> fc6
I0403 13:23:34.470716 32025 net.cpp:141] Setting up fc6
I0403 13:23:34.470805 32025 net.cpp:148] Top shape: 100 4096 (409600)
I0403 13:23:34.470821 32025 net.cpp:156] Memory required for data: 823334000
I0403 13:23:34.470841 32025 layer_factory.hpp:77] Creating layer relu6
I0403 13:23:34.470865 32025 net.cpp:91] Creating Layer relu6
I0403 13:23:34.470883 32025 net.cpp:425] relu6 <- fc6
I0403 13:23:34.470902 32025 net.cpp:386] relu6 -> fc6 (in-place)
I0403 13:23:34.471125 32025 net.cpp:141] Setting up relu6
I0403 13:23:34.471164 32025 net.cpp:148] Top shape: 100 4096 (409600)
I0403 13:23:34.471186 32025 net.cpp:156] Memory required for data: 824972400
I0403 13:23:34.471202 32025 layer_factory.hpp:77] Creating layer drop6
I0403 13:23:34.471221 32025 net.cpp:91] Creating Layer drop6
I0403 13:23:34.471236 32025 net.cpp:425] drop6 <- fc6
I0403 13:23:34.471253 32025 net.cpp:386] drop6 -> fc6 (in-place)
I0403 13:23:34.471308 32025 net.cpp:141] Setting up drop6
I0403 13:23:34.471331 32025 net.cpp:148] Top shape: 100 4096 (409600)
I0403 13:23:34.471345 32025 net.cpp:156] Memory required for data: 826610800
I0403 13:23:34.471359 32025 layer_factory.hpp:77] Creating layer fc7
I0403 13:23:34.471382 32025 net.cpp:91] Creating Layer fc7
I0403 13:23:34.471398 32025 net.cpp:425] fc7 <- fc6
I0403 13:23:34.471428 32025 net.cpp:399] fc7 -> fc7
I0403 13:23:35.180945 32025 net.cpp:141] Setting up fc7
I0403 13:23:35.181035 32025 net.cpp:148] Top shape: 100 4096 (409600)
I0403 13:23:35.181053 32025 net.cpp:156] Memory required for data: 828249200
I0403 13:23:35.181077 32025 layer_factory.hpp:77] Creating layer relu7
I0403 13:23:35.181102 32025 net.cpp:91] Creating Layer relu7
I0403 13:23:35.181123 32025 net.cpp:425] relu7 <- fc7
I0403 13:23:35.181143 32025 net.cpp:386] relu7 -> fc7 (in-place)
I0403 13:23:35.181587 32025 net.cpp:141] Setting up relu7
I0403 13:23:35.181615 32025 net.cpp:148] Top shape: 100 4096 (409600)
I0403 13:23:35.181663 32025 net.cpp:156] Memory required for data: 829887600
I0403 13:23:35.181679 32025 layer_factory.hpp:77] Creating layer drop7
I0403 13:23:35.181701 32025 net.cpp:91] Creating Layer drop7
I0403 13:23:35.181720 32025 net.cpp:425] drop7 <- fc7
I0403 13:23:35.181737 32025 net.cpp:386] drop7 -> fc7 (in-place)
I0403 13:23:35.181784 32025 net.cpp:141] Setting up drop7
I0403 13:23:35.181808 32025 net.cpp:148] Top shape: 100 4096 (409600)
I0403 13:23:35.181823 32025 net.cpp:156] Memory required for data: 831526000
I0403 13:23:35.181838 32025 layer_factory.hpp:77] Creating layer fc8_plantvillage
I0403 13:23:35.181860 32025 net.cpp:91] Creating Layer fc8_plantvillage
I0403 13:23:35.181877 32025 net.cpp:425] fc8_plantvillage <- fc7
I0403 13:23:35.181896 32025 net.cpp:399] fc8_plantvillage -> fc8_plantvillage
I0403 13:23:35.189095 32025 net.cpp:141] Setting up fc8_plantvillage
I0403 13:23:35.189126 32025 net.cpp:148] Top shape: 100 38 (3800)
I0403 13:23:35.189141 32025 net.cpp:156] Memory required for data: 831541200
I0403 13:23:35.189160 32025 layer_factory.hpp:77] Creating layer fc8_plantvillage_fc8_plantvillage_0_split
I0403 13:23:35.189185 32025 net.cpp:91] Creating Layer fc8_plantvillage_fc8_plantvillage_0_split
I0403 13:23:35.189204 32025 net.cpp:425] fc8_plantvillage_fc8_plantvillage_0_split <- fc8_plantvillage
I0403 13:23:35.189223 32025 net.cpp:399] fc8_plantvillage_fc8_plantvillage_0_split -> fc8_plantvillage_fc8_plantvillage_0_split_0
I0403 13:23:35.189245 32025 net.cpp:399] fc8_plantvillage_fc8_plantvillage_0_split -> fc8_plantvillage_fc8_plantvillage_0_split_1
I0403 13:23:35.189267 32025 net.cpp:399] fc8_plantvillage_fc8_plantvillage_0_split -> fc8_plantvillage_fc8_plantvillage_0_split_2
I0403 13:23:35.189348 32025 net.cpp:141] Setting up fc8_plantvillage_fc8_plantvillage_0_split
I0403 13:23:35.189373 32025 net.cpp:148] Top shape: 100 38 (3800)
I0403 13:23:35.189390 32025 net.cpp:148] Top shape: 100 38 (3800)
I0403 13:23:35.189406 32025 net.cpp:148] Top shape: 100 38 (3800)
I0403 13:23:35.189421 32025 net.cpp:156] Memory required for data: 831586800
I0403 13:23:35.189437 32025 layer_factory.hpp:77] Creating layer prob
I0403 13:23:35.189456 32025 net.cpp:91] Creating Layer prob
I0403 13:23:35.189472 32025 net.cpp:425] prob <- fc8_plantvillage_fc8_plantvillage_0_split_0
I0403 13:23:35.189491 32025 net.cpp:399] prob -> prob
I0403 13:23:35.189730 32025 net.cpp:141] Setting up prob
I0403 13:23:35.189756 32025 net.cpp:148] Top shape: 100 38 (3800)
I0403 13:23:35.189771 32025 net.cpp:156] Memory required for data: 831602000
I0403 13:23:35.189786 32025 layer_factory.hpp:77] Creating layer hdf5out
I0403 13:23:35.189810 32025 net.cpp:91] Creating Layer hdf5out
I0403 13:23:35.189828 32025 net.cpp:425] hdf5out <- prob
I0403 13:23:35.189846 32025 net.cpp:425] hdf5out <- label_data_1_split_0
I0403 13:23:35.191977 32025 net.cpp:141] Setting up hdf5out
…
