…
I0403 13:27:24.174157 32244 net.cpp:313] The NetState phase (1) differed from the phase (0) specified by a rule in layer data
I0403 13:27:24.174872 32244 net.cpp:49] Initializing net from parameters: 
state {
  phase: TEST
}
layer {
  name: "data"
  type: "Data"
  top: "data"
  top: "label"
  include {
    phase: TEST
  }
  transform_param {
    crop_size: 227
    mean_file: "/home/mohanty/data/final_dataset/lmdb/grayscale-60-40/mean.binaryproto"
  }
  data_param {
    source: "/home/mohanty/data/final_dataset/lmdb/grayscale-60-40/test_db"
    batch_size: 100
    backend: LMDB
  }
}
layer {
  name: "conv1"
  type: "Convolution"
  bottom: "data"
  top: "conv1"
  param {
    lr_mult: 1
    decay_mult: 1
  }
  param {
    lr_mult: 2
    decay_mult: 0
  }
  convolution_param {
    num_output: 96
    kernel_size: 11
    stride: 4
    weight_filler {
      type: "gaussian"
      std: 0.01
    }
    bias_filler {
      type: "constant"
      value: 0
    }
  }
}
layer {
  name: "relu1"
  type: "ReLU"
  bottom: "conv1"
  top: "conv1"
}
layer {
  name: "norm1"
  type: "LRN"
  bottom: "conv1"
  top: "norm1"
  lrn_param {
    local_size: 5
    alpha: 0.0001
    beta: 0.75
  }
}
layer {
  name: "pool1"
  type: "Pooling"
  bottom: "norm1"
  top: "pool1"
  pooling_param {
    pool: MAX
    kernel_size: 3
    stride: 2
  }
}
layer {
  name: "conv2"
  type: "Convolution"
  bottom: "pool1"
  top: "conv2"
  param {
    lr_mult: 1
    decay_mult: 1
  }
  param {
    lr_mult: 2
    decay_mult: 0
  }
  convolution_param {
    num_output: 256
    pad: 2
    kernel_size: 5
    group: 2
    weight_filler {
      type: "gaussian"
      std: 0.01
    }
    bias_filler {
      type: "constant"
      value: 0.1
    }
  }
}
layer {
  name: "relu2"
  type: "ReLU"
  bottom: "conv2"
  top: "conv2"
}
layer {
  name: "norm2"
  type: "LRN"
  bottom: "conv2"
  top: "norm2"
  lrn_param {
    local_size: 5
    alpha: 0.0001
    beta: 0.75
  }
}
layer {
  name: "pool2"
  type: "Pooling"
  bottom: "norm2"
  top: "pool2"
  pooling_param {
    pool: MAX
    kernel_size: 3
    stride: 2
  }
}
layer {
  name: "conv3"
  type: "Convolution"
  bottom: "pool2"
  top: "conv3"
  param {
    lr_mult: 1
    decay_mult: 1
  }
  param {
    lr_mult: 2
    decay_mult: 0
  }
  convolution_param {
    num_output: 384
    pad: 1
    kernel_size: 3
    weight_filler {
      type: "gaussian"
      std: 0.01
    }
    bias_filler {
      type: "constant"
      value: 0
    }
  }
}
layer {
  name: "relu3"
  type: "ReLU"
  bottom: "conv3"
  top: "conv3"
}
layer {
  name: "conv4"
  type: "Convolution"
  bottom: "conv3"
  top: "conv4"
  param {
    lr_mult: 1
    decay_mult: 1
  }
  param {
    lr_mult: 2
    decay_mult: 0
  }
  convolution_param {
    num_output: 384
    pad: 1
    kernel_size: 3
    group: 2
    weight_filler {
      type: "gaussian"
      std: 0.01
    }
    bias_filler {
      type: "constant"
      value: 0.1
    }
  }
}
layer {
  name: "relu4"
  type: "ReLU"
  bottom: "conv4"
  top: "conv4"
}
layer {
  name: "conv5"
  type: "Convolution"
  bottom: "conv4"
  top: "conv5"
  param {
    lr_mult: 1
    decay_mult: 1
  }
  param {
    lr_mult: 2
    decay_mult: 0
  }
  convolution_param {
    num_output: 256
    pad: 1
    kernel_size: 3
    group: 2
    weight_filler {
      type: "gaussian"
      std: 0.01
    }
    bias_filler {
      type: "constant"
      value: 0.1
    }
  }
}
layer {
  name: "relu5"
  type: "ReLU"
  bottom: "conv5"
  top: "conv5"
}
layer {
  name: "pool5"
  type: "Pooling"
  bottom: "conv5"
  top: "pool5"
  pooling_param {
    pool: MAX
    kernel_size: 3
    stride: 2
  }
}
layer {
  name: "fc6"
  type: "InnerProduct"
  bottom: "pool5"
  top: "fc6"
  param {
    lr_mult: 1
    decay_mult: 1
  }
  param {
    lr_mult: 2
    decay_mult: 0
  }
  inner_product_param {
    num_output: 4096
    weight_filler {
      type: "gaussian"
      std: 0.005
    }
    bias_filler {
      type: "constant"
      value: 0.1
    }
  }
}
layer {
  name: "relu6"
  type: "ReLU"
  bottom: "fc6"
  top: "fc6"
}
layer {
  name: "drop6"
  type: "Dropout"
  bottom: "fc6"
  top: "fc6"
  dropout_param {
    dropout_ratio: 0.5
  }
}
layer {
  name: "fc7"
  type: "InnerProduct"
  bottom: "fc6"
  top: "fc7"
  param {
    lr_mult: 1
    decay_mult: 1
  }
  param {
    lr_mult: 2
    decay_mult: 0
  }
  inner_product_param {
    num_output: 4096
    weight_filler {
      type: "gaussian"
      std: 0.005
    }
    bias_filler {
      type: "constant"
      value: 0.1
    }
  }
}
layer {
  name: "relu7"
  type: "ReLU"
  bottom: "fc7"
  top: "fc7"
}
layer {
  name: "drop7"
  type: "Dropout"
  bottom: "fc7"
  top: "fc7"
  dropout_param {
    dropout_ratio: 0.5
  }
}
layer {
  name: "fc8_plantvillage"
  type: "InnerProduct"
  bottom: "fc7"
  top: "fc8_plantvillage"
  param {
    lr_mult: 1
    decay_mult: 1
  }
  param {
    lr_mult: 2
    decay_mult: 0
  }
  inner_product_param {
    num_output: 38
    weight_filler {
      type: "gaussian"
      std: 0.01
    }
    bias_filler {
      type: "constant"
      value: 0
    }
  }
}
layer {
  name: "prob"
  type: "Softmax"
  bottom: "fc8_plantvillage"
  top: "prob"
  include {
    phase: TEST
  }
}
layer {
  name: "hdf5out"
  type: "HDF5Output"
  bottom: "prob"
  bottom: "label"
  include {
    phase: TEST
  }
  hdf5_output_param {
    file_name: "hdf5_dumps/iter_7800.h5"
  }
}
layer {
  name: "loss"
  type: "SoftmaxWithLoss"
  bottom: "fc8_plantvillage"
  bottom: "label"
  top: "loss"
}
layer {
  name: "accuracy"
  type: "Accuracy"
  bottom: "fc8_plantvillage"
  bottom: "label"
  top: "accuracy"
  include {
    phase: TEST
  }
}
I0403 13:27:24.176159 32244 layer_factory.hpp:77] Creating layer data
I0403 13:27:24.177786 32244 net.cpp:91] Creating Layer data
I0403 13:27:24.177847 32244 net.cpp:399] data -> data
I0403 13:27:24.177907 32244 net.cpp:399] data -> label
I0403 13:27:24.177952 32244 data_transformer.cpp:25] Loading mean file from: /home/mohanty/data/final_dataset/lmdb/grayscale-60-40/mean.binaryproto
I0403 13:27:24.182368 32248 db_lmdb.cpp:38] Opened lmdb /home/mohanty/data/final_dataset/lmdb/grayscale-60-40/test_db
I0403 13:27:24.196766 32244 data_layer.cpp:41] output data size: 100,3,227,227
I0403 13:27:24.333995 32244 net.cpp:141] Setting up data
I0403 13:27:24.334115 32244 net.cpp:148] Top shape: 100 3 227 227 (15458700)
I0403 13:27:24.334142 32244 net.cpp:148] Top shape: 100 (100)
I0403 13:27:24.334161 32244 net.cpp:156] Memory required for data: 61835200
I0403 13:27:24.334193 32244 layer_factory.hpp:77] Creating layer label_data_1_split
I0403 13:27:24.334228 32244 net.cpp:91] Creating Layer label_data_1_split
I0403 13:27:24.334251 32244 net.cpp:425] label_data_1_split <- label
I0403 13:27:24.334290 32244 net.cpp:399] label_data_1_split -> label_data_1_split_0
I0403 13:27:24.334321 32244 net.cpp:399] label_data_1_split -> label_data_1_split_1
I0403 13:27:24.334345 32244 net.cpp:399] label_data_1_split -> label_data_1_split_2
I0403 13:27:24.334420 32244 net.cpp:141] Setting up label_data_1_split
I0403 13:27:24.334450 32244 net.cpp:148] Top shape: 100 (100)
I0403 13:27:24.334470 32244 net.cpp:148] Top shape: 100 (100)
I0403 13:27:24.334489 32244 net.cpp:148] Top shape: 100 (100)
I0403 13:27:24.334506 32244 net.cpp:156] Memory required for data: 61836400
I0403 13:27:24.334524 32244 layer_factory.hpp:77] Creating layer conv1
I0403 13:27:24.334561 32244 net.cpp:91] Creating Layer conv1
I0403 13:27:24.334585 32244 net.cpp:425] conv1 <- data
I0403 13:27:24.334609 32244 net.cpp:399] conv1 -> conv1
I0403 13:27:24.500653 32244 net.cpp:141] Setting up conv1
I0403 13:27:24.500749 32244 net.cpp:148] Top shape: 100 96 55 55 (29040000)
I0403 13:27:24.500769 32244 net.cpp:156] Memory required for data: 177996400
I0403 13:27:24.500808 32244 layer_factory.hpp:77] Creating layer relu1
I0403 13:27:24.500840 32244 net.cpp:91] Creating Layer relu1
I0403 13:27:24.500862 32244 net.cpp:425] relu1 <- conv1
I0403 13:27:24.500886 32244 net.cpp:386] relu1 -> conv1 (in-place)
I0403 13:27:24.501193 32244 net.cpp:141] Setting up relu1
I0403 13:27:24.501225 32244 net.cpp:148] Top shape: 100 96 55 55 (29040000)
I0403 13:27:24.501281 32244 net.cpp:156] Memory required for data: 294156400
I0403 13:27:24.501301 32244 layer_factory.hpp:77] Creating layer norm1
I0403 13:27:24.501332 32244 net.cpp:91] Creating Layer norm1
I0403 13:27:24.501353 32244 net.cpp:425] norm1 <- conv1
I0403 13:27:24.501375 32244 net.cpp:399] norm1 -> norm1
I0403 13:27:24.501828 32244 net.cpp:141] Setting up norm1
I0403 13:27:24.501863 32244 net.cpp:148] Top shape: 100 96 55 55 (29040000)
I0403 13:27:24.501883 32244 net.cpp:156] Memory required for data: 410316400
I0403 13:27:24.501900 32244 layer_factory.hpp:77] Creating layer pool1
I0403 13:27:24.501929 32244 net.cpp:91] Creating Layer pool1
I0403 13:27:24.501950 32244 net.cpp:425] pool1 <- norm1
I0403 13:27:24.501972 32244 net.cpp:399] pool1 -> pool1
I0403 13:27:24.502053 32244 net.cpp:141] Setting up pool1
I0403 13:27:24.502082 32244 net.cpp:148] Top shape: 100 96 27 27 (6998400)
I0403 13:27:24.502100 32244 net.cpp:156] Memory required for data: 438310000
I0403 13:27:24.502118 32244 layer_factory.hpp:77] Creating layer conv2
I0403 13:27:24.502148 32244 net.cpp:91] Creating Layer conv2
I0403 13:27:24.502167 32244 net.cpp:425] conv2 <- pool1
I0403 13:27:24.502195 32244 net.cpp:399] conv2 -> conv2
I0403 13:27:24.520328 32244 net.cpp:141] Setting up conv2
I0403 13:27:24.520387 32244 net.cpp:148] Top shape: 100 256 27 27 (18662400)
I0403 13:27:24.520409 32244 net.cpp:156] Memory required for data: 512959600
I0403 13:27:24.520436 32244 layer_factory.hpp:77] Creating layer relu2
I0403 13:27:24.520458 32244 net.cpp:91] Creating Layer relu2
I0403 13:27:24.520478 32244 net.cpp:425] relu2 <- conv2
I0403 13:27:24.520499 32244 net.cpp:386] relu2 -> conv2 (in-place)
I0403 13:27:24.520814 32244 net.cpp:141] Setting up relu2
I0403 13:27:24.520848 32244 net.cpp:148] Top shape: 100 256 27 27 (18662400)
I0403 13:27:24.520866 32244 net.cpp:156] Memory required for data: 587609200
I0403 13:27:24.520885 32244 layer_factory.hpp:77] Creating layer norm2
I0403 13:27:24.520910 32244 net.cpp:91] Creating Layer norm2
I0403 13:27:24.520930 32244 net.cpp:425] norm2 <- conv2
I0403 13:27:24.520951 32244 net.cpp:399] norm2 -> norm2
I0403 13:27:24.521167 32244 net.cpp:141] Setting up norm2
I0403 13:27:24.521203 32244 net.cpp:148] Top shape: 100 256 27 27 (18662400)
I0403 13:27:24.521222 32244 net.cpp:156] Memory required for data: 662258800
I0403 13:27:24.521240 32244 layer_factory.hpp:77] Creating layer pool2
I0403 13:27:24.521263 32244 net.cpp:91] Creating Layer pool2
I0403 13:27:24.521281 32244 net.cpp:425] pool2 <- norm2
I0403 13:27:24.521302 32244 net.cpp:399] pool2 -> pool2
I0403 13:27:24.521360 32244 net.cpp:141] Setting up pool2
I0403 13:27:24.521389 32244 net.cpp:148] Top shape: 100 256 13 13 (4326400)
I0403 13:27:24.521407 32244 net.cpp:156] Memory required for data: 679564400
I0403 13:27:24.521425 32244 layer_factory.hpp:77] Creating layer conv3
I0403 13:27:24.521450 32244 net.cpp:91] Creating Layer conv3
I0403 13:27:24.521471 32244 net.cpp:425] conv3 <- pool2
I0403 13:27:24.521492 32244 net.cpp:399] conv3 -> conv3
I0403 13:27:24.571728 32244 net.cpp:141] Setting up conv3
I0403 13:27:24.571795 32244 net.cpp:148] Top shape: 100 384 13 13 (6489600)
I0403 13:27:24.571815 32244 net.cpp:156] Memory required for data: 705522800
I0403 13:27:24.571843 32244 layer_factory.hpp:77] Creating layer relu3
I0403 13:27:24.571868 32244 net.cpp:91] Creating Layer relu3
I0403 13:27:24.571887 32244 net.cpp:425] relu3 <- conv3
I0403 13:27:24.571909 32244 net.cpp:386] relu3 -> conv3 (in-place)
I0403 13:27:24.572233 32244 net.cpp:141] Setting up relu3
I0403 13:27:24.572266 32244 net.cpp:148] Top shape: 100 384 13 13 (6489600)
I0403 13:27:24.572284 32244 net.cpp:156] Memory required for data: 731481200
I0403 13:27:24.572302 32244 layer_factory.hpp:77] Creating layer conv4
I0403 13:27:24.572329 32244 net.cpp:91] Creating Layer conv4
I0403 13:27:24.572350 32244 net.cpp:425] conv4 <- conv3
I0403 13:27:24.572372 32244 net.cpp:399] conv4 -> conv4
I0403 13:27:24.608078 32244 net.cpp:141] Setting up conv4
I0403 13:27:24.608127 32244 net.cpp:148] Top shape: 100 384 13 13 (6489600)
I0403 13:27:24.608189 32244 net.cpp:156] Memory required for data: 757439600
I0403 13:27:24.608217 32244 layer_factory.hpp:77] Creating layer relu4
I0403 13:27:24.608240 32244 net.cpp:91] Creating Layer relu4
I0403 13:27:24.608261 32244 net.cpp:425] relu4 <- conv4
I0403 13:27:24.608285 32244 net.cpp:386] relu4 -> conv4 (in-place)
I0403 13:27:24.608615 32244 net.cpp:141] Setting up relu4
I0403 13:27:24.608652 32244 net.cpp:148] Top shape: 100 384 13 13 (6489600)
I0403 13:27:24.608672 32244 net.cpp:156] Memory required for data: 783398000
I0403 13:27:24.608691 32244 layer_factory.hpp:77] Creating layer conv5
I0403 13:27:24.608719 32244 net.cpp:91] Creating Layer conv5
I0403 13:27:24.608741 32244 net.cpp:425] conv5 <- conv4
I0403 13:27:24.608764 32244 net.cpp:399] conv5 -> conv5
I0403 13:27:24.633107 32244 net.cpp:141] Setting up conv5
I0403 13:27:24.633150 32244 net.cpp:148] Top shape: 100 256 13 13 (4326400)
I0403 13:27:24.633172 32244 net.cpp:156] Memory required for data: 800703600
I0403 13:27:24.633209 32244 layer_factory.hpp:77] Creating layer relu5
I0403 13:27:24.633235 32244 net.cpp:91] Creating Layer relu5
I0403 13:27:24.633255 32244 net.cpp:425] relu5 <- conv5
I0403 13:27:24.633278 32244 net.cpp:386] relu5 -> conv5 (in-place)
I0403 13:27:24.633606 32244 net.cpp:141] Setting up relu5
I0403 13:27:24.633638 32244 net.cpp:148] Top shape: 100 256 13 13 (4326400)
I0403 13:27:24.633657 32244 net.cpp:156] Memory required for data: 818009200
I0403 13:27:24.633676 32244 layer_factory.hpp:77] Creating layer pool5
I0403 13:27:24.633702 32244 net.cpp:91] Creating Layer pool5
I0403 13:27:24.633720 32244 net.cpp:425] pool5 <- conv5
I0403 13:27:24.633745 32244 net.cpp:399] pool5 -> pool5
I0403 13:27:24.633821 32244 net.cpp:141] Setting up pool5
I0403 13:27:24.633849 32244 net.cpp:148] Top shape: 100 256 6 6 (921600)
I0403 13:27:24.633867 32244 net.cpp:156] Memory required for data: 821695600
I0403 13:27:24.633884 32244 layer_factory.hpp:77] Creating layer fc6
I0403 13:27:24.633919 32244 net.cpp:91] Creating Layer fc6
I0403 13:27:24.633939 32244 net.cpp:425] fc6 <- pool5
I0403 13:27:24.633965 32244 net.cpp:399] fc6 -> fc6
I0403 13:27:26.174804 32244 net.cpp:141] Setting up fc6
I0403 13:27:26.174898 32244 net.cpp:148] Top shape: 100 4096 (409600)
I0403 13:27:26.174913 32244 net.cpp:156] Memory required for data: 823334000
I0403 13:27:26.174934 32244 layer_factory.hpp:77] Creating layer relu6
I0403 13:27:26.174957 32244 net.cpp:91] Creating Layer relu6
I0403 13:27:26.174974 32244 net.cpp:425] relu6 <- fc6
I0403 13:27:26.174993 32244 net.cpp:386] relu6 -> fc6 (in-place)
I0403 13:27:26.175215 32244 net.cpp:141] Setting up relu6
I0403 13:27:26.175240 32244 net.cpp:148] Top shape: 100 4096 (409600)
I0403 13:27:26.175252 32244 net.cpp:156] Memory required for data: 824972400
I0403 13:27:26.175266 32244 layer_factory.hpp:77] Creating layer drop6
I0403 13:27:26.175283 32244 net.cpp:91] Creating Layer drop6
I0403 13:27:26.175297 32244 net.cpp:425] drop6 <- fc6
I0403 13:27:26.175320 32244 net.cpp:386] drop6 -> fc6 (in-place)
I0403 13:27:26.175372 32244 net.cpp:141] Setting up drop6
I0403 13:27:26.175395 32244 net.cpp:148] Top shape: 100 4096 (409600)
I0403 13:27:26.175410 32244 net.cpp:156] Memory required for data: 826610800
I0403 13:27:26.175423 32244 layer_factory.hpp:77] Creating layer fc7
I0403 13:27:26.175442 32244 net.cpp:91] Creating Layer fc7
I0403 13:27:26.175457 32244 net.cpp:425] fc7 <- fc6
I0403 13:27:26.175474 32244 net.cpp:399] fc7 -> fc7
I0403 13:27:26.825723 32244 net.cpp:141] Setting up fc7
I0403 13:27:26.825815 32244 net.cpp:148] Top shape: 100 4096 (409600)
I0403 13:27:26.825830 32244 net.cpp:156] Memory required for data: 828249200
I0403 13:27:26.825850 32244 layer_factory.hpp:77] Creating layer relu7
I0403 13:27:26.825870 32244 net.cpp:91] Creating Layer relu7
I0403 13:27:26.825886 32244 net.cpp:425] relu7 <- fc7
I0403 13:27:26.825907 32244 net.cpp:386] relu7 -> fc7 (in-place)
I0403 13:27:26.826319 32244 net.cpp:141] Setting up relu7
I0403 13:27:26.826347 32244 net.cpp:148] Top shape: 100 4096 (409600)
I0403 13:27:26.826395 32244 net.cpp:156] Memory required for data: 829887600
I0403 13:27:26.826411 32244 layer_factory.hpp:77] Creating layer drop7
I0403 13:27:26.826429 32244 net.cpp:91] Creating Layer drop7
I0403 13:27:26.826444 32244 net.cpp:425] drop7 <- fc7
I0403 13:27:26.826462 32244 net.cpp:386] drop7 -> fc7 (in-place)
I0403 13:27:26.826504 32244 net.cpp:141] Setting up drop7
I0403 13:27:26.826537 32244 net.cpp:148] Top shape: 100 4096 (409600)
I0403 13:27:26.826550 32244 net.cpp:156] Memory required for data: 831526000
I0403 13:27:26.826563 32244 layer_factory.hpp:77] Creating layer fc8_plantvillage
I0403 13:27:26.826584 32244 net.cpp:91] Creating Layer fc8_plantvillage
I0403 13:27:26.826599 32244 net.cpp:425] fc8_plantvillage <- fc7
I0403 13:27:26.826618 32244 net.cpp:399] fc8_plantvillage -> fc8_plantvillage
I0403 13:27:26.832979 32244 net.cpp:141] Setting up fc8_plantvillage
I0403 13:27:26.833006 32244 net.cpp:148] Top shape: 100 38 (3800)
I0403 13:27:26.833021 32244 net.cpp:156] Memory required for data: 831541200
I0403 13:27:26.833039 32244 layer_factory.hpp:77] Creating layer fc8_plantvillage_fc8_plantvillage_0_split
I0403 13:27:26.833055 32244 net.cpp:91] Creating Layer fc8_plantvillage_fc8_plantvillage_0_split
I0403 13:27:26.833070 32244 net.cpp:425] fc8_plantvillage_fc8_plantvillage_0_split <- fc8_plantvillage
I0403 13:27:26.833088 32244 net.cpp:399] fc8_plantvillage_fc8_plantvillage_0_split -> fc8_plantvillage_fc8_plantvillage_0_split_0
I0403 13:27:26.833107 32244 net.cpp:399] fc8_plantvillage_fc8_plantvillage_0_split -> fc8_plantvillage_fc8_plantvillage_0_split_1
I0403 13:27:26.833127 32244 net.cpp:399] fc8_plantvillage_fc8_plantvillage_0_split -> fc8_plantvillage_fc8_plantvillage_0_split_2
I0403 13:27:26.833204 32244 net.cpp:141] Setting up fc8_plantvillage_fc8_plantvillage_0_split
I0403 13:27:26.833226 32244 net.cpp:148] Top shape: 100 38 (3800)
I0403 13:27:26.833241 32244 net.cpp:148] Top shape: 100 38 (3800)
I0403 13:27:26.833256 32244 net.cpp:148] Top shape: 100 38 (3800)
I0403 13:27:26.833269 32244 net.cpp:156] Memory required for data: 831586800
I0403 13:27:26.833283 32244 layer_factory.hpp:77] Creating layer prob
I0403 13:27:26.833300 32244 net.cpp:91] Creating Layer prob
I0403 13:27:26.833315 32244 net.cpp:425] prob <- fc8_plantvillage_fc8_plantvillage_0_split_0
I0403 13:27:26.833334 32244 net.cpp:399] prob -> prob
I0403 13:27:26.833544 32244 net.cpp:141] Setting up prob
I0403 13:27:26.833571 32244 net.cpp:148] Top shape: 100 38 (3800)
I0403 13:27:26.833587 32244 net.cpp:156] Memory required for data: 831602000
I0403 13:27:26.833600 32244 layer_factory.hpp:77] Creating layer hdf5out
I0403 13:27:26.833618 32244 net.cpp:91] Creating Layer hdf5out
I0403 13:27:26.833633 32244 net.cpp:425] hdf5out <- prob
I0403 13:27:26.833648 32244 net.cpp:425] hdf5out <- label_data_1_split_0
I0403 13:27:26.836171 32244 net.cpp:141] Setting up hdf5out
…
