…
I0403 13:29:46.034605 32331 net.cpp:313] The NetState phase (1) differed from the phase (0) specified by a rule in layer data
I0403 13:29:46.034925 32331 net.cpp:49] Initializing net from parameters: 
state {
  phase: TEST
}
layer {
  name: "data"
  type: "Data"
  top: "data"
  top: "label"
  include {
    phase: TEST
  }
  transform_param {
    crop_size: 227
    mean_file: "/home/mohanty/data/final_dataset/lmdb/grayscale-60-40/mean.binaryproto"
  }
  data_param {
    source: "/home/mohanty/data/final_dataset/lmdb/grayscale-60-40/test_db"
    batch_size: 100
    backend: LMDB
  }
}
layer {
  name: "conv1"
  type: "Convolution"
  bottom: "data"
  top: "conv1"
  param {
    lr_mult: 1
    decay_mult: 1
  }
  param {
    lr_mult: 2
    decay_mult: 0
  }
  convolution_param {
    num_output: 96
    kernel_size: 11
    stride: 4
    weight_filler {
      type: "gaussian"
      std: 0.01
    }
    bias_filler {
      type: "constant"
      value: 0
    }
  }
}
layer {
  name: "relu1"
  type: "ReLU"
  bottom: "conv1"
  top: "conv1"
}
layer {
  name: "norm1"
  type: "LRN"
  bottom: "conv1"
  top: "norm1"
  lrn_param {
    local_size: 5
    alpha: 0.0001
    beta: 0.75
  }
}
layer {
  name: "pool1"
  type: "Pooling"
  bottom: "norm1"
  top: "pool1"
  pooling_param {
    pool: MAX
    kernel_size: 3
    stride: 2
  }
}
layer {
  name: "conv2"
  type: "Convolution"
  bottom: "pool1"
  top: "conv2"
  param {
    lr_mult: 1
    decay_mult: 1
  }
  param {
    lr_mult: 2
    decay_mult: 0
  }
  convolution_param {
    num_output: 256
    pad: 2
    kernel_size: 5
    group: 2
    weight_filler {
      type: "gaussian"
      std: 0.01
    }
    bias_filler {
      type: "constant"
      value: 0.1
    }
  }
}
layer {
  name: "relu2"
  type: "ReLU"
  bottom: "conv2"
  top: "conv2"
}
layer {
  name: "norm2"
  type: "LRN"
  bottom: "conv2"
  top: "norm2"
  lrn_param {
    local_size: 5
    alpha: 0.0001
    beta: 0.75
  }
}
layer {
  name: "pool2"
  type: "Pooling"
  bottom: "norm2"
  top: "pool2"
  pooling_param {
    pool: MAX
    kernel_size: 3
    stride: 2
  }
}
layer {
  name: "conv3"
  type: "Convolution"
  bottom: "pool2"
  top: "conv3"
  param {
    lr_mult: 1
    decay_mult: 1
  }
  param {
    lr_mult: 2
    decay_mult: 0
  }
  convolution_param {
    num_output: 384
    pad: 1
    kernel_size: 3
    weight_filler {
      type: "gaussian"
      std: 0.01
    }
    bias_filler {
      type: "constant"
      value: 0
    }
  }
}
layer {
  name: "relu3"
  type: "ReLU"
  bottom: "conv3"
  top: "conv3"
}
layer {
  name: "conv4"
  type: "Convolution"
  bottom: "conv3"
  top: "conv4"
  param {
    lr_mult: 1
    decay_mult: 1
  }
  param {
    lr_mult: 2
    decay_mult: 0
  }
  convolution_param {
    num_output: 384
    pad: 1
    kernel_size: 3
    group: 2
    weight_filler {
      type: "gaussian"
      std: 0.01
    }
    bias_filler {
      type: "constant"
      value: 0.1
    }
  }
}
layer {
  name: "relu4"
  type: "ReLU"
  bottom: "conv4"
  top: "conv4"
}
layer {
  name: "conv5"
  type: "Convolution"
  bottom: "conv4"
  top: "conv5"
  param {
    lr_mult: 1
    decay_mult: 1
  }
  param {
    lr_mult: 2
    decay_mult: 0
  }
  convolution_param {
    num_output: 256
    pad: 1
    kernel_size: 3
    group: 2
    weight_filler {
      type: "gaussian"
      std: 0.01
    }
    bias_filler {
      type: "constant"
      value: 0.1
    }
  }
}
layer {
  name: "relu5"
  type: "ReLU"
  bottom: "conv5"
  top: "conv5"
}
layer {
  name: "pool5"
  type: "Pooling"
  bottom: "conv5"
  top: "pool5"
  pooling_param {
    pool: MAX
    kernel_size: 3
    stride: 2
  }
}
layer {
  name: "fc6"
  type: "InnerProduct"
  bottom: "pool5"
  top: "fc6"
  param {
    lr_mult: 1
    decay_mult: 1
  }
  param {
    lr_mult: 2
    decay_mult: 0
  }
  inner_product_param {
    num_output: 4096
    weight_filler {
      type: "gaussian"
      std: 0.005
    }
    bias_filler {
      type: "constant"
      value: 0.1
    }
  }
}
layer {
  name: "relu6"
  type: "ReLU"
  bottom: "fc6"
  top: "fc6"
}
layer {
  name: "drop6"
  type: "Dropout"
  bottom: "fc6"
  top: "fc6"
  dropout_param {
    dropout_ratio: 0.5
  }
}
layer {
  name: "fc7"
  type: "InnerProduct"
  bottom: "fc6"
  top: "fc7"
  param {
    lr_mult: 1
    decay_mult: 1
  }
  param {
    lr_mult: 2
    decay_mult: 0
  }
  inner_product_param {
    num_output: 4096
    weight_filler {
      type: "gaussian"
      std: 0.005
    }
    bias_filler {
      type: "constant"
      value: 0.1
    }
  }
}
layer {
  name: "relu7"
  type: "ReLU"
  bottom: "fc7"
  top: "fc7"
}
layer {
  name: "drop7"
  type: "Dropout"
  bottom: "fc7"
  top: "fc7"
  dropout_param {
    dropout_ratio: 0.5
  }
}
layer {
  name: "fc8_plantvillage"
  type: "InnerProduct"
  bottom: "fc7"
  top: "fc8_plantvillage"
  param {
    lr_mult: 1
    decay_mult: 1
  }
  param {
    lr_mult: 2
    decay_mult: 0
  }
  inner_product_param {
    num_output: 38
    weight_filler {
      type: "gaussian"
      std: 0.01
    }
    bias_filler {
      type: "constant"
      value: 0
    }
  }
}
layer {
  name: "prob"
  type: "Softmax"
  bottom: "fc8_plantvillage"
  top: "prob"
  include {
    phase: TEST
  }
}
layer {
  name: "hdf5out"
  type: "HDF5Output"
  bottom: "prob"
  bottom: "label"
  include {
    phase: TEST
  }
  hdf5_output_param {
    file_name: "hdf5_dumps/iter_8775.h5"
  }
}
layer {
  name: "loss"
  type: "SoftmaxWithLoss"
  bottom: "fc8_plantvillage"
  bottom: "label"
  top: "loss"
}
layer {
  name: "accuracy"
  type: "Accuracy"
  bottom: "fc8_plantvillage"
  bottom: "label"
  top: "accuracy"
  include {
    phase: TEST
  }
}
I0403 13:29:46.035480 32331 layer_factory.hpp:77] Creating layer data
I0403 13:29:46.036139 32331 net.cpp:91] Creating Layer data
I0403 13:29:46.036170 32331 net.cpp:399] data -> data
I0403 13:29:46.036231 32331 net.cpp:399] data -> label
I0403 13:29:46.036278 32331 data_transformer.cpp:25] Loading mean file from: /home/mohanty/data/final_dataset/lmdb/grayscale-60-40/mean.binaryproto
I0403 13:29:46.039000 32334 db_lmdb.cpp:38] Opened lmdb /home/mohanty/data/final_dataset/lmdb/grayscale-60-40/test_db
I0403 13:29:46.050957 32331 data_layer.cpp:41] output data size: 100,3,227,227
I0403 13:29:46.177132 32331 net.cpp:141] Setting up data
I0403 13:29:46.177247 32331 net.cpp:148] Top shape: 100 3 227 227 (15458700)
I0403 13:29:46.177271 32331 net.cpp:148] Top shape: 100 (100)
I0403 13:29:46.177287 32331 net.cpp:156] Memory required for data: 61835200
I0403 13:29:46.177316 32331 layer_factory.hpp:77] Creating layer label_data_1_split
I0403 13:29:46.177342 32331 net.cpp:91] Creating Layer label_data_1_split
I0403 13:29:46.177361 32331 net.cpp:425] label_data_1_split <- label
I0403 13:29:46.177394 32331 net.cpp:399] label_data_1_split -> label_data_1_split_0
I0403 13:29:46.177423 32331 net.cpp:399] label_data_1_split -> label_data_1_split_1
I0403 13:29:46.177444 32331 net.cpp:399] label_data_1_split -> label_data_1_split_2
I0403 13:29:46.177510 32331 net.cpp:141] Setting up label_data_1_split
I0403 13:29:46.177534 32331 net.cpp:148] Top shape: 100 (100)
I0403 13:29:46.177552 32331 net.cpp:148] Top shape: 100 (100)
I0403 13:29:46.177570 32331 net.cpp:148] Top shape: 100 (100)
I0403 13:29:46.177585 32331 net.cpp:156] Memory required for data: 61836400
I0403 13:29:46.177600 32331 layer_factory.hpp:77] Creating layer conv1
I0403 13:29:46.177634 32331 net.cpp:91] Creating Layer conv1
I0403 13:29:46.177652 32331 net.cpp:425] conv1 <- data
I0403 13:29:46.177672 32331 net.cpp:399] conv1 -> conv1
I0403 13:29:46.325366 32331 net.cpp:141] Setting up conv1
I0403 13:29:46.325461 32331 net.cpp:148] Top shape: 100 96 55 55 (29040000)
I0403 13:29:46.325479 32331 net.cpp:156] Memory required for data: 177996400
I0403 13:29:46.325510 32331 layer_factory.hpp:77] Creating layer relu1
I0403 13:29:46.325538 32331 net.cpp:91] Creating Layer relu1
I0403 13:29:46.325556 32331 net.cpp:425] relu1 <- conv1
I0403 13:29:46.325575 32331 net.cpp:386] relu1 -> conv1 (in-place)
I0403 13:29:46.325844 32331 net.cpp:141] Setting up relu1
I0403 13:29:46.325873 32331 net.cpp:148] Top shape: 100 96 55 55 (29040000)
I0403 13:29:46.325922 32331 net.cpp:156] Memory required for data: 294156400
I0403 13:29:46.325938 32331 layer_factory.hpp:77] Creating layer norm1
I0403 13:29:46.325966 32331 net.cpp:91] Creating Layer norm1
I0403 13:29:46.325984 32331 net.cpp:425] norm1 <- conv1
I0403 13:29:46.326005 32331 net.cpp:399] norm1 -> norm1
I0403 13:29:46.326365 32331 net.cpp:141] Setting up norm1
I0403 13:29:46.326393 32331 net.cpp:148] Top shape: 100 96 55 55 (29040000)
I0403 13:29:46.326411 32331 net.cpp:156] Memory required for data: 410316400
I0403 13:29:46.326448 32331 layer_factory.hpp:77] Creating layer pool1
I0403 13:29:46.326472 32331 net.cpp:91] Creating Layer pool1
I0403 13:29:46.326488 32331 net.cpp:425] pool1 <- norm1
I0403 13:29:46.326509 32331 net.cpp:399] pool1 -> pool1
I0403 13:29:46.326578 32331 net.cpp:141] Setting up pool1
I0403 13:29:46.326603 32331 net.cpp:148] Top shape: 100 96 27 27 (6998400)
I0403 13:29:46.326618 32331 net.cpp:156] Memory required for data: 438310000
I0403 13:29:46.326634 32331 layer_factory.hpp:77] Creating layer conv2
I0403 13:29:46.326663 32331 net.cpp:91] Creating Layer conv2
I0403 13:29:46.326681 32331 net.cpp:425] conv2 <- pool1
I0403 13:29:46.326700 32331 net.cpp:399] conv2 -> conv2
I0403 13:29:46.342170 32331 net.cpp:141] Setting up conv2
I0403 13:29:46.342231 32331 net.cpp:148] Top shape: 100 256 27 27 (18662400)
I0403 13:29:46.342249 32331 net.cpp:156] Memory required for data: 512959600
I0403 13:29:46.342272 32331 layer_factory.hpp:77] Creating layer relu2
I0403 13:29:46.342296 32331 net.cpp:91] Creating Layer relu2
I0403 13:29:46.342314 32331 net.cpp:425] relu2 <- conv2
I0403 13:29:46.342334 32331 net.cpp:386] relu2 -> conv2 (in-place)
I0403 13:29:46.342624 32331 net.cpp:141] Setting up relu2
I0403 13:29:46.342653 32331 net.cpp:148] Top shape: 100 256 27 27 (18662400)
I0403 13:29:46.342669 32331 net.cpp:156] Memory required for data: 587609200
I0403 13:29:46.342684 32331 layer_factory.hpp:77] Creating layer norm2
I0403 13:29:46.342707 32331 net.cpp:91] Creating Layer norm2
I0403 13:29:46.342725 32331 net.cpp:425] norm2 <- conv2
I0403 13:29:46.342743 32331 net.cpp:399] norm2 -> norm2
I0403 13:29:46.342950 32331 net.cpp:141] Setting up norm2
I0403 13:29:46.342978 32331 net.cpp:148] Top shape: 100 256 27 27 (18662400)
I0403 13:29:46.342993 32331 net.cpp:156] Memory required for data: 662258800
I0403 13:29:46.343009 32331 layer_factory.hpp:77] Creating layer pool2
I0403 13:29:46.343029 32331 net.cpp:91] Creating Layer pool2
I0403 13:29:46.343044 32331 net.cpp:425] pool2 <- norm2
I0403 13:29:46.343065 32331 net.cpp:399] pool2 -> pool2
I0403 13:29:46.343119 32331 net.cpp:141] Setting up pool2
I0403 13:29:46.343147 32331 net.cpp:148] Top shape: 100 256 13 13 (4326400)
I0403 13:29:46.343163 32331 net.cpp:156] Memory required for data: 679564400
I0403 13:29:46.343189 32331 layer_factory.hpp:77] Creating layer conv3
I0403 13:29:46.343219 32331 net.cpp:91] Creating Layer conv3
I0403 13:29:46.343237 32331 net.cpp:425] conv3 <- pool2
I0403 13:29:46.343257 32331 net.cpp:399] conv3 -> conv3
I0403 13:29:46.384577 32331 net.cpp:141] Setting up conv3
I0403 13:29:46.384666 32331 net.cpp:148] Top shape: 100 384 13 13 (6489600)
I0403 13:29:46.384685 32331 net.cpp:156] Memory required for data: 705522800
I0403 13:29:46.384711 32331 layer_factory.hpp:77] Creating layer relu3
I0403 13:29:46.384735 32331 net.cpp:91] Creating Layer relu3
I0403 13:29:46.384754 32331 net.cpp:425] relu3 <- conv3
I0403 13:29:46.384776 32331 net.cpp:386] relu3 -> conv3 (in-place)
I0403 13:29:46.385063 32331 net.cpp:141] Setting up relu3
I0403 13:29:46.385092 32331 net.cpp:148] Top shape: 100 384 13 13 (6489600)
I0403 13:29:46.385108 32331 net.cpp:156] Memory required for data: 731481200
I0403 13:29:46.385124 32331 layer_factory.hpp:77] Creating layer conv4
I0403 13:29:46.385151 32331 net.cpp:91] Creating Layer conv4
I0403 13:29:46.385169 32331 net.cpp:425] conv4 <- conv3
I0403 13:29:46.385198 32331 net.cpp:399] conv4 -> conv4
I0403 13:29:46.416106 32331 net.cpp:141] Setting up conv4
I0403 13:29:46.416193 32331 net.cpp:148] Top shape: 100 384 13 13 (6489600)
I0403 13:29:46.416244 32331 net.cpp:156] Memory required for data: 757439600
I0403 13:29:46.416267 32331 layer_factory.hpp:77] Creating layer relu4
I0403 13:29:46.416291 32331 net.cpp:91] Creating Layer relu4
I0403 13:29:46.416311 32331 net.cpp:425] relu4 <- conv4
I0403 13:29:46.416333 32331 net.cpp:386] relu4 -> conv4 (in-place)
I0403 13:29:46.416620 32331 net.cpp:141] Setting up relu4
I0403 13:29:46.416648 32331 net.cpp:148] Top shape: 100 384 13 13 (6489600)
I0403 13:29:46.416664 32331 net.cpp:156] Memory required for data: 783398000
I0403 13:29:46.416682 32331 layer_factory.hpp:77] Creating layer conv5
I0403 13:29:46.416708 32331 net.cpp:91] Creating Layer conv5
I0403 13:29:46.416726 32331 net.cpp:425] conv5 <- conv4
I0403 13:29:46.416749 32331 net.cpp:399] conv5 -> conv5
I0403 13:29:46.437989 32331 net.cpp:141] Setting up conv5
I0403 13:29:46.438050 32331 net.cpp:148] Top shape: 100 256 13 13 (4326400)
I0403 13:29:46.438068 32331 net.cpp:156] Memory required for data: 800703600
I0403 13:29:46.438093 32331 layer_factory.hpp:77] Creating layer relu5
I0403 13:29:46.438115 32331 net.cpp:91] Creating Layer relu5
I0403 13:29:46.438133 32331 net.cpp:425] relu5 <- conv5
I0403 13:29:46.438154 32331 net.cpp:386] relu5 -> conv5 (in-place)
I0403 13:29:46.438446 32331 net.cpp:141] Setting up relu5
I0403 13:29:46.438473 32331 net.cpp:148] Top shape: 100 256 13 13 (4326400)
I0403 13:29:46.438489 32331 net.cpp:156] Memory required for data: 818009200
I0403 13:29:46.438508 32331 layer_factory.hpp:77] Creating layer pool5
I0403 13:29:46.438534 32331 net.cpp:91] Creating Layer pool5
I0403 13:29:46.438555 32331 net.cpp:425] pool5 <- conv5
I0403 13:29:46.438575 32331 net.cpp:399] pool5 -> pool5
I0403 13:29:46.438642 32331 net.cpp:141] Setting up pool5
I0403 13:29:46.438666 32331 net.cpp:148] Top shape: 100 256 6 6 (921600)
I0403 13:29:46.438683 32331 net.cpp:156] Memory required for data: 821695600
I0403 13:29:46.438697 32331 layer_factory.hpp:77] Creating layer fc6
I0403 13:29:46.438725 32331 net.cpp:91] Creating Layer fc6
I0403 13:29:46.438743 32331 net.cpp:425] fc6 <- pool5
I0403 13:29:46.438766 32331 net.cpp:399] fc6 -> fc6
I0403 13:29:48.036262 32331 net.cpp:141] Setting up fc6
I0403 13:29:48.036353 32331 net.cpp:148] Top shape: 100 4096 (409600)
I0403 13:29:48.036370 32331 net.cpp:156] Memory required for data: 823334000
I0403 13:29:48.036392 32331 layer_factory.hpp:77] Creating layer relu6
I0403 13:29:48.036415 32331 net.cpp:91] Creating Layer relu6
I0403 13:29:48.036432 32331 net.cpp:425] relu6 <- fc6
I0403 13:29:48.036453 32331 net.cpp:386] relu6 -> fc6 (in-place)
I0403 13:29:48.036677 32331 net.cpp:141] Setting up relu6
I0403 13:29:48.036702 32331 net.cpp:148] Top shape: 100 4096 (409600)
I0403 13:29:48.036716 32331 net.cpp:156] Memory required for data: 824972400
I0403 13:29:48.036731 32331 layer_factory.hpp:77] Creating layer drop6
I0403 13:29:48.036751 32331 net.cpp:91] Creating Layer drop6
I0403 13:29:48.036766 32331 net.cpp:425] drop6 <- fc6
I0403 13:29:48.036785 32331 net.cpp:386] drop6 -> fc6 (in-place)
I0403 13:29:48.036835 32331 net.cpp:141] Setting up drop6
I0403 13:29:48.036860 32331 net.cpp:148] Top shape: 100 4096 (409600)
I0403 13:29:48.036876 32331 net.cpp:156] Memory required for data: 826610800
I0403 13:29:48.036891 32331 layer_factory.hpp:77] Creating layer fc7
I0403 13:29:48.036911 32331 net.cpp:91] Creating Layer fc7
I0403 13:29:48.036926 32331 net.cpp:425] fc7 <- fc6
I0403 13:29:48.036947 32331 net.cpp:399] fc7 -> fc7
I0403 13:29:48.723834 32331 net.cpp:141] Setting up fc7
I0403 13:29:48.723917 32331 net.cpp:148] Top shape: 100 4096 (409600)
I0403 13:29:48.723932 32331 net.cpp:156] Memory required for data: 828249200
I0403 13:29:48.723953 32331 layer_factory.hpp:77] Creating layer relu7
I0403 13:29:48.723975 32331 net.cpp:91] Creating Layer relu7
I0403 13:29:48.723992 32331 net.cpp:425] relu7 <- fc7
I0403 13:29:48.724014 32331 net.cpp:386] relu7 -> fc7 (in-place)
I0403 13:29:48.724601 32331 net.cpp:141] Setting up relu7
I0403 13:29:48.724628 32331 net.cpp:148] Top shape: 100 4096 (409600)
I0403 13:29:48.724676 32331 net.cpp:156] Memory required for data: 829887600
I0403 13:29:48.724692 32331 layer_factory.hpp:77] Creating layer drop7
I0403 13:29:48.724711 32331 net.cpp:91] Creating Layer drop7
I0403 13:29:48.724726 32331 net.cpp:425] drop7 <- fc7
I0403 13:29:48.724746 32331 net.cpp:386] drop7 -> fc7 (in-place)
I0403 13:29:48.724791 32331 net.cpp:141] Setting up drop7
I0403 13:29:48.724814 32331 net.cpp:148] Top shape: 100 4096 (409600)
I0403 13:29:48.724830 32331 net.cpp:156] Memory required for data: 831526000
I0403 13:29:48.724844 32331 layer_factory.hpp:77] Creating layer fc8_plantvillage
I0403 13:29:48.724864 32331 net.cpp:91] Creating Layer fc8_plantvillage
I0403 13:29:48.724879 32331 net.cpp:425] fc8_plantvillage <- fc7
I0403 13:29:48.724898 32331 net.cpp:399] fc8_plantvillage -> fc8_plantvillage
I0403 13:29:48.731619 32331 net.cpp:141] Setting up fc8_plantvillage
I0403 13:29:48.731647 32331 net.cpp:148] Top shape: 100 38 (3800)
I0403 13:29:48.731662 32331 net.cpp:156] Memory required for data: 831541200
I0403 13:29:48.731680 32331 layer_factory.hpp:77] Creating layer fc8_plantvillage_fc8_plantvillage_0_split
I0403 13:29:48.731699 32331 net.cpp:91] Creating Layer fc8_plantvillage_fc8_plantvillage_0_split
I0403 13:29:48.731719 32331 net.cpp:425] fc8_plantvillage_fc8_plantvillage_0_split <- fc8_plantvillage
I0403 13:29:48.731736 32331 net.cpp:399] fc8_plantvillage_fc8_plantvillage_0_split -> fc8_plantvillage_fc8_plantvillage_0_split_0
I0403 13:29:48.731755 32331 net.cpp:399] fc8_plantvillage_fc8_plantvillage_0_split -> fc8_plantvillage_fc8_plantvillage_0_split_1
I0403 13:29:48.731775 32331 net.cpp:399] fc8_plantvillage_fc8_plantvillage_0_split -> fc8_plantvillage_fc8_plantvillage_0_split_2
I0403 13:29:48.731854 32331 net.cpp:141] Setting up fc8_plantvillage_fc8_plantvillage_0_split
I0403 13:29:48.731879 32331 net.cpp:148] Top shape: 100 38 (3800)
I0403 13:29:48.731896 32331 net.cpp:148] Top shape: 100 38 (3800)
I0403 13:29:48.731911 32331 net.cpp:148] Top shape: 100 38 (3800)
I0403 13:29:48.731925 32331 net.cpp:156] Memory required for data: 831586800
I0403 13:29:48.731940 32331 layer_factory.hpp:77] Creating layer prob
I0403 13:29:48.731958 32331 net.cpp:91] Creating Layer prob
I0403 13:29:48.731974 32331 net.cpp:425] prob <- fc8_plantvillage_fc8_plantvillage_0_split_0
I0403 13:29:48.731992 32331 net.cpp:399] prob -> prob
I0403 13:29:48.732228 32331 net.cpp:141] Setting up prob
I0403 13:29:48.732255 32331 net.cpp:148] Top shape: 100 38 (3800)
I0403 13:29:48.732270 32331 net.cpp:156] Memory required for data: 831602000
I0403 13:29:48.732285 32331 layer_factory.hpp:77] Creating layer hdf5out
I0403 13:29:48.732303 32331 net.cpp:91] Creating Layer hdf5out
I0403 13:29:48.732318 32331 net.cpp:425] hdf5out <- prob
I0403 13:29:48.732336 32331 net.cpp:425] hdf5out <- label_data_1_split_0
I0403 13:29:48.734506 32331 net.cpp:141] Setting up hdf5out
…
