…
I0403 13:15:43.952530 31793 net.cpp:313] The NetState phase (1) differed from the phase (0) specified by a rule in layer data
I0403 13:15:43.952889 31793 net.cpp:49] Initializing net from parameters: 
state {
  phase: TEST
}
layer {
  name: "data"
  type: "Data"
  top: "data"
  top: "label"
  include {
    phase: TEST
  }
  transform_param {
    crop_size: 227
    mean_file: "/home/mohanty/data/final_dataset/lmdb/grayscale-60-40/mean.binaryproto"
  }
  data_param {
    source: "/home/mohanty/data/final_dataset/lmdb/grayscale-60-40/test_db"
    batch_size: 100
    backend: LMDB
  }
}
layer {
  name: "conv1"
  type: "Convolution"
  bottom: "data"
  top: "conv1"
  param {
    lr_mult: 1
    decay_mult: 1
  }
  param {
    lr_mult: 2
    decay_mult: 0
  }
  convolution_param {
    num_output: 96
    kernel_size: 11
    stride: 4
    weight_filler {
      type: "gaussian"
      std: 0.01
    }
    bias_filler {
      type: "constant"
      value: 0
    }
  }
}
layer {
  name: "relu1"
  type: "ReLU"
  bottom: "conv1"
  top: "conv1"
}
layer {
  name: "norm1"
  type: "LRN"
  bottom: "conv1"
  top: "norm1"
  lrn_param {
    local_size: 5
    alpha: 0.0001
    beta: 0.75
  }
}
layer {
  name: "pool1"
  type: "Pooling"
  bottom: "norm1"
  top: "pool1"
  pooling_param {
    pool: MAX
    kernel_size: 3
    stride: 2
  }
}
layer {
  name: "conv2"
  type: "Convolution"
  bottom: "pool1"
  top: "conv2"
  param {
    lr_mult: 1
    decay_mult: 1
  }
  param {
    lr_mult: 2
    decay_mult: 0
  }
  convolution_param {
    num_output: 256
    pad: 2
    kernel_size: 5
    group: 2
    weight_filler {
      type: "gaussian"
      std: 0.01
    }
    bias_filler {
      type: "constant"
      value: 0.1
    }
  }
}
layer {
  name: "relu2"
  type: "ReLU"
  bottom: "conv2"
  top: "conv2"
}
layer {
  name: "norm2"
  type: "LRN"
  bottom: "conv2"
  top: "norm2"
  lrn_param {
    local_size: 5
    alpha: 0.0001
    beta: 0.75
  }
}
layer {
  name: "pool2"
  type: "Pooling"
  bottom: "norm2"
  top: "pool2"
  pooling_param {
    pool: MAX
    kernel_size: 3
    stride: 2
  }
}
layer {
  name: "conv3"
  type: "Convolution"
  bottom: "pool2"
  top: "conv3"
  param {
    lr_mult: 1
    decay_mult: 1
  }
  param {
    lr_mult: 2
    decay_mult: 0
  }
  convolution_param {
    num_output: 384
    pad: 1
    kernel_size: 3
    weight_filler {
      type: "gaussian"
      std: 0.01
    }
    bias_filler {
      type: "constant"
      value: 0
    }
  }
}
layer {
  name: "relu3"
  type: "ReLU"
  bottom: "conv3"
  top: "conv3"
}
layer {
  name: "conv4"
  type: "Convolution"
  bottom: "conv3"
  top: "conv4"
  param {
    lr_mult: 1
    decay_mult: 1
  }
  param {
    lr_mult: 2
    decay_mult: 0
  }
  convolution_param {
    num_output: 384
    pad: 1
    kernel_size: 3
    group: 2
    weight_filler {
      type: "gaussian"
      std: 0.01
    }
    bias_filler {
      type: "constant"
      value: 0.1
    }
  }
}
layer {
  name: "relu4"
  type: "ReLU"
  bottom: "conv4"
  top: "conv4"
}
layer {
  name: "conv5"
  type: "Convolution"
  bottom: "conv4"
  top: "conv5"
  param {
    lr_mult: 1
    decay_mult: 1
  }
  param {
    lr_mult: 2
    decay_mult: 0
  }
  convolution_param {
    num_output: 256
    pad: 1
    kernel_size: 3
    group: 2
    weight_filler {
      type: "gaussian"
      std: 0.01
    }
    bias_filler {
      type: "constant"
      value: 0.1
    }
  }
}
layer {
  name: "relu5"
  type: "ReLU"
  bottom: "conv5"
  top: "conv5"
}
layer {
  name: "pool5"
  type: "Pooling"
  bottom: "conv5"
  top: "pool5"
  pooling_param {
    pool: MAX
    kernel_size: 3
    stride: 2
  }
}
layer {
  name: "fc6"
  type: "InnerProduct"
  bottom: "pool5"
  top: "fc6"
  param {
    lr_mult: 1
    decay_mult: 1
  }
  param {
    lr_mult: 2
    decay_mult: 0
  }
  inner_product_param {
    num_output: 4096
    weight_filler {
      type: "gaussian"
      std: 0.005
    }
    bias_filler {
      type: "constant"
      value: 0.1
    }
  }
}
layer {
  name: "relu6"
  type: "ReLU"
  bottom: "fc6"
  top: "fc6"
}
layer {
  name: "drop6"
  type: "Dropout"
  bottom: "fc6"
  top: "fc6"
  dropout_param {
    dropout_ratio: 0.5
  }
}
layer {
  name: "fc7"
  type: "InnerProduct"
  bottom: "fc6"
  top: "fc7"
  param {
    lr_mult: 1
    decay_mult: 1
  }
  param {
    lr_mult: 2
    decay_mult: 0
  }
  inner_product_param {
    num_output: 4096
    weight_filler {
      type: "gaussian"
      std: 0.005
    }
    bias_filler {
      type: "constant"
      value: 0.1
    }
  }
}
layer {
  name: "relu7"
  type: "ReLU"
  bottom: "fc7"
  top: "fc7"
}
layer {
  name: "drop7"
  type: "Dropout"
  bottom: "fc7"
  top: "fc7"
  dropout_param {
    dropout_ratio: 0.5
  }
}
layer {
  name: "fc8_plantvillage"
  type: "InnerProduct"
  bottom: "fc7"
  top: "fc8_plantvillage"
  param {
    lr_mult: 1
    decay_mult: 1
  }
  param {
    lr_mult: 2
    decay_mult: 0
  }
  inner_product_param {
    num_output: 38
    weight_filler {
      type: "gaussian"
      std: 0.01
    }
    bias_filler {
      type: "constant"
      value: 0
    }
  }
}
layer {
  name: "prob"
  type: "Softmax"
  bottom: "fc8_plantvillage"
  top: "prob"
  include {
    phase: TEST
  }
}
layer {
  name: "hdf5out"
  type: "HDF5Output"
  bottom: "prob"
  bottom: "label"
  include {
    phase: TEST
  }
  hdf5_output_param {
    file_name: "hdf5_dumps/iter_2925.h5"
  }
}
layer {
  name: "loss"
  type: "SoftmaxWithLoss"
  bottom: "fc8_plantvillage"
  bottom: "label"
  top: "loss"
}
layer {
  name: "accuracy"
  type: "Accuracy"
  bottom: "fc8_plantvillage"
  bottom: "label"
  top: "accuracy"
  include {
    phase: TEST
  }
}
I0403 13:15:43.953616 31793 layer_factory.hpp:77] Creating layer data
I0403 13:15:43.954311 31793 net.cpp:91] Creating Layer data
I0403 13:15:43.954344 31793 net.cpp:399] data -> data
I0403 13:15:43.954398 31793 net.cpp:399] data -> label
I0403 13:15:43.954437 31793 data_transformer.cpp:25] Loading mean file from: /home/mohanty/data/final_dataset/lmdb/grayscale-60-40/mean.binaryproto
I0403 13:15:43.957242 31796 db_lmdb.cpp:38] Opened lmdb /home/mohanty/data/final_dataset/lmdb/grayscale-60-40/test_db
I0403 13:15:43.969595 31793 data_layer.cpp:41] output data size: 100,3,227,227
I0403 13:15:44.097033 31793 net.cpp:141] Setting up data
I0403 13:15:44.097996 31793 net.cpp:148] Top shape: 100 3 227 227 (15458700)
I0403 13:15:44.098027 31793 net.cpp:148] Top shape: 100 (100)
I0403 13:15:44.098047 31793 net.cpp:156] Memory required for data: 61835200
I0403 13:15:44.098078 31793 layer_factory.hpp:77] Creating layer label_data_1_split
I0403 13:15:44.098105 31793 net.cpp:91] Creating Layer label_data_1_split
I0403 13:15:44.098124 31793 net.cpp:425] label_data_1_split <- label
I0403 13:15:44.098160 31793 net.cpp:399] label_data_1_split -> label_data_1_split_0
I0403 13:15:44.098188 31793 net.cpp:399] label_data_1_split -> label_data_1_split_1
I0403 13:15:44.098214 31793 net.cpp:399] label_data_1_split -> label_data_1_split_2
I0403 13:15:44.098294 31793 net.cpp:141] Setting up label_data_1_split
I0403 13:15:44.098325 31793 net.cpp:148] Top shape: 100 (100)
I0403 13:15:44.098343 31793 net.cpp:148] Top shape: 100 (100)
I0403 13:15:44.098361 31793 net.cpp:148] Top shape: 100 (100)
I0403 13:15:44.098376 31793 net.cpp:156] Memory required for data: 61836400
I0403 13:15:44.098392 31793 layer_factory.hpp:77] Creating layer conv1
I0403 13:15:44.098425 31793 net.cpp:91] Creating Layer conv1
I0403 13:15:44.098445 31793 net.cpp:425] conv1 <- data
I0403 13:15:44.098465 31793 net.cpp:399] conv1 -> conv1
I0403 13:15:44.244426 31793 net.cpp:141] Setting up conv1
I0403 13:15:44.244498 31793 net.cpp:148] Top shape: 100 96 55 55 (29040000)
I0403 13:15:44.244518 31793 net.cpp:156] Memory required for data: 177996400
I0403 13:15:44.244552 31793 layer_factory.hpp:77] Creating layer relu1
I0403 13:15:44.244582 31793 net.cpp:91] Creating Layer relu1
I0403 13:15:44.244603 31793 net.cpp:425] relu1 <- conv1
I0403 13:15:44.244623 31793 net.cpp:386] relu1 -> conv1 (in-place)
I0403 13:15:44.244899 31793 net.cpp:141] Setting up relu1
I0403 13:15:44.244928 31793 net.cpp:148] Top shape: 100 96 55 55 (29040000)
I0403 13:15:44.244978 31793 net.cpp:156] Memory required for data: 294156400
I0403 13:15:44.244997 31793 layer_factory.hpp:77] Creating layer norm1
I0403 13:15:44.245026 31793 net.cpp:91] Creating Layer norm1
I0403 13:15:44.245045 31793 net.cpp:425] norm1 <- conv1
I0403 13:15:44.245066 31793 net.cpp:399] norm1 -> norm1
I0403 13:15:44.245440 31793 net.cpp:141] Setting up norm1
I0403 13:15:44.245471 31793 net.cpp:148] Top shape: 100 96 55 55 (29040000)
I0403 13:15:44.245487 31793 net.cpp:156] Memory required for data: 410316400
I0403 13:15:44.245503 31793 layer_factory.hpp:77] Creating layer pool1
I0403 13:15:44.245528 31793 net.cpp:91] Creating Layer pool1
I0403 13:15:44.245548 31793 net.cpp:425] pool1 <- norm1
I0403 13:15:44.245566 31793 net.cpp:399] pool1 -> pool1
I0403 13:15:44.245635 31793 net.cpp:141] Setting up pool1
I0403 13:15:44.245661 31793 net.cpp:148] Top shape: 100 96 27 27 (6998400)
I0403 13:15:44.245677 31793 net.cpp:156] Memory required for data: 438310000
I0403 13:15:44.245693 31793 layer_factory.hpp:77] Creating layer conv2
I0403 13:15:44.245718 31793 net.cpp:91] Creating Layer conv2
I0403 13:15:44.245735 31793 net.cpp:425] conv2 <- pool1
I0403 13:15:44.245755 31793 net.cpp:399] conv2 -> conv2
I0403 13:15:44.264150 31793 net.cpp:141] Setting up conv2
I0403 13:15:44.264276 31793 net.cpp:148] Top shape: 100 256 27 27 (18662400)
I0403 13:15:44.264295 31793 net.cpp:156] Memory required for data: 512959600
I0403 13:15:44.264323 31793 layer_factory.hpp:77] Creating layer relu2
I0403 13:15:44.264348 31793 net.cpp:91] Creating Layer relu2
I0403 13:15:44.264365 31793 net.cpp:425] relu2 <- conv2
I0403 13:15:44.264385 31793 net.cpp:386] relu2 -> conv2 (in-place)
I0403 13:15:44.264684 31793 net.cpp:141] Setting up relu2
I0403 13:15:44.264714 31793 net.cpp:148] Top shape: 100 256 27 27 (18662400)
I0403 13:15:44.264731 31793 net.cpp:156] Memory required for data: 587609200
I0403 13:15:44.264747 31793 layer_factory.hpp:77] Creating layer norm2
I0403 13:15:44.264771 31793 net.cpp:91] Creating Layer norm2
I0403 13:15:44.264787 31793 net.cpp:425] norm2 <- conv2
I0403 13:15:44.264808 31793 net.cpp:399] norm2 -> norm2
I0403 13:15:44.265027 31793 net.cpp:141] Setting up norm2
I0403 13:15:44.265058 31793 net.cpp:148] Top shape: 100 256 27 27 (18662400)
I0403 13:15:44.265075 31793 net.cpp:156] Memory required for data: 662258800
I0403 13:15:44.265091 31793 layer_factory.hpp:77] Creating layer pool2
I0403 13:15:44.265111 31793 net.cpp:91] Creating Layer pool2
I0403 13:15:44.265127 31793 net.cpp:425] pool2 <- norm2
I0403 13:15:44.265146 31793 net.cpp:399] pool2 -> pool2
I0403 13:15:44.265203 31793 net.cpp:141] Setting up pool2
I0403 13:15:44.265233 31793 net.cpp:148] Top shape: 100 256 13 13 (4326400)
I0403 13:15:44.265249 31793 net.cpp:156] Memory required for data: 679564400
I0403 13:15:44.265264 31793 layer_factory.hpp:77] Creating layer conv3
I0403 13:15:44.265291 31793 net.cpp:91] Creating Layer conv3
I0403 13:15:44.265310 31793 net.cpp:425] conv3 <- pool2
I0403 13:15:44.265331 31793 net.cpp:399] conv3 -> conv3
I0403 13:15:44.308712 31793 net.cpp:141] Setting up conv3
I0403 13:15:44.308782 31793 net.cpp:148] Top shape: 100 384 13 13 (6489600)
I0403 13:15:44.308801 31793 net.cpp:156] Memory required for data: 705522800
I0403 13:15:44.308830 31793 layer_factory.hpp:77] Creating layer relu3
I0403 13:15:44.308856 31793 net.cpp:91] Creating Layer relu3
I0403 13:15:44.308878 31793 net.cpp:425] relu3 <- conv3
I0403 13:15:44.308900 31793 net.cpp:386] relu3 -> conv3 (in-place)
I0403 13:15:44.309193 31793 net.cpp:141] Setting up relu3
I0403 13:15:44.309226 31793 net.cpp:148] Top shape: 100 384 13 13 (6489600)
I0403 13:15:44.309245 31793 net.cpp:156] Memory required for data: 731481200
I0403 13:15:44.309263 31793 layer_factory.hpp:77] Creating layer conv4
I0403 13:15:44.309294 31793 net.cpp:91] Creating Layer conv4
I0403 13:15:44.309314 31793 net.cpp:425] conv4 <- conv3
I0403 13:15:44.309334 31793 net.cpp:399] conv4 -> conv4
I0403 13:15:44.341040 31793 net.cpp:141] Setting up conv4
I0403 13:15:44.341131 31793 net.cpp:148] Top shape: 100 384 13 13 (6489600)
I0403 13:15:44.341186 31793 net.cpp:156] Memory required for data: 757439600
I0403 13:15:44.341217 31793 layer_factory.hpp:77] Creating layer relu4
I0403 13:15:44.341245 31793 net.cpp:91] Creating Layer relu4
I0403 13:15:44.341266 31793 net.cpp:425] relu4 <- conv4
I0403 13:15:44.341287 31793 net.cpp:386] relu4 -> conv4 (in-place)
I0403 13:15:44.341594 31793 net.cpp:141] Setting up relu4
I0403 13:15:44.341624 31793 net.cpp:148] Top shape: 100 384 13 13 (6489600)
I0403 13:15:44.341639 31793 net.cpp:156] Memory required for data: 783398000
I0403 13:15:44.341655 31793 layer_factory.hpp:77] Creating layer conv5
I0403 13:15:44.341684 31793 net.cpp:91] Creating Layer conv5
I0403 13:15:44.341703 31793 net.cpp:425] conv5 <- conv4
I0403 13:15:44.341727 31793 net.cpp:399] conv5 -> conv5
I0403 13:15:44.363571 31793 net.cpp:141] Setting up conv5
I0403 13:15:44.363662 31793 net.cpp:148] Top shape: 100 256 13 13 (4326400)
I0403 13:15:44.363680 31793 net.cpp:156] Memory required for data: 800703600
I0403 13:15:44.363714 31793 layer_factory.hpp:77] Creating layer relu5
I0403 13:15:44.363741 31793 net.cpp:91] Creating Layer relu5
I0403 13:15:44.363759 31793 net.cpp:425] relu5 <- conv5
I0403 13:15:44.363780 31793 net.cpp:386] relu5 -> conv5 (in-place)
I0403 13:15:44.364071 31793 net.cpp:141] Setting up relu5
I0403 13:15:44.364102 31793 net.cpp:148] Top shape: 100 256 13 13 (4326400)
I0403 13:15:44.364120 31793 net.cpp:156] Memory required for data: 818009200
I0403 13:15:44.364135 31793 layer_factory.hpp:77] Creating layer pool5
I0403 13:15:44.364157 31793 net.cpp:91] Creating Layer pool5
I0403 13:15:44.364173 31793 net.cpp:425] pool5 <- conv5
I0403 13:15:44.364194 31793 net.cpp:399] pool5 -> pool5
I0403 13:15:44.364264 31793 net.cpp:141] Setting up pool5
I0403 13:15:44.364289 31793 net.cpp:148] Top shape: 100 256 6 6 (921600)
I0403 13:15:44.364303 31793 net.cpp:156] Memory required for data: 821695600
I0403 13:15:44.364318 31793 layer_factory.hpp:77] Creating layer fc6
I0403 13:15:44.364352 31793 net.cpp:91] Creating Layer fc6
I0403 13:15:44.364372 31793 net.cpp:425] fc6 <- pool5
I0403 13:15:44.364393 31793 net.cpp:399] fc6 -> fc6
I0403 13:15:45.936492 31793 net.cpp:141] Setting up fc6
I0403 13:15:45.936564 31793 net.cpp:148] Top shape: 100 4096 (409600)
I0403 13:15:45.936580 31793 net.cpp:156] Memory required for data: 823334000
I0403 13:15:45.936601 31793 layer_factory.hpp:77] Creating layer relu6
I0403 13:15:45.936624 31793 net.cpp:91] Creating Layer relu6
I0403 13:15:45.936640 31793 net.cpp:425] relu6 <- fc6
I0403 13:15:45.936662 31793 net.cpp:386] relu6 -> fc6 (in-place)
I0403 13:15:45.936898 31793 net.cpp:141] Setting up relu6
I0403 13:15:45.936925 31793 net.cpp:148] Top shape: 100 4096 (409600)
I0403 13:15:45.936940 31793 net.cpp:156] Memory required for data: 824972400
I0403 13:15:45.936955 31793 layer_factory.hpp:77] Creating layer drop6
I0403 13:15:45.936975 31793 net.cpp:91] Creating Layer drop6
I0403 13:15:45.936988 31793 net.cpp:425] drop6 <- fc6
I0403 13:15:45.937005 31793 net.cpp:386] drop6 -> fc6 (in-place)
I0403 13:15:45.937057 31793 net.cpp:141] Setting up drop6
I0403 13:15:45.937080 31793 net.cpp:148] Top shape: 100 4096 (409600)
I0403 13:15:45.937094 31793 net.cpp:156] Memory required for data: 826610800
I0403 13:15:45.937109 31793 layer_factory.hpp:77] Creating layer fc7
I0403 13:15:45.937130 31793 net.cpp:91] Creating Layer fc7
I0403 13:15:45.937146 31793 net.cpp:425] fc7 <- fc6
I0403 13:15:45.937163 31793 net.cpp:399] fc7 -> fc7
I0403 13:15:46.625509 31793 net.cpp:141] Setting up fc7
I0403 13:15:46.625599 31793 net.cpp:148] Top shape: 100 4096 (409600)
I0403 13:15:46.625617 31793 net.cpp:156] Memory required for data: 828249200
I0403 13:15:46.625638 31793 layer_factory.hpp:77] Creating layer relu7
I0403 13:15:46.625661 31793 net.cpp:91] Creating Layer relu7
I0403 13:15:46.625679 31793 net.cpp:425] relu7 <- fc7
I0403 13:15:46.625699 31793 net.cpp:386] relu7 -> fc7 (in-place)
I0403 13:15:46.626123 31793 net.cpp:141] Setting up relu7
I0403 13:15:46.626150 31793 net.cpp:148] Top shape: 100 4096 (409600)
I0403 13:15:46.626199 31793 net.cpp:156] Memory required for data: 829887600
I0403 13:15:46.626220 31793 layer_factory.hpp:77] Creating layer drop7
I0403 13:15:46.626242 31793 net.cpp:91] Creating Layer drop7
I0403 13:15:46.626260 31793 net.cpp:425] drop7 <- fc7
I0403 13:15:46.626277 31793 net.cpp:386] drop7 -> fc7 (in-place)
I0403 13:15:46.626323 31793 net.cpp:141] Setting up drop7
I0403 13:15:46.626346 31793 net.cpp:148] Top shape: 100 4096 (409600)
I0403 13:15:46.626360 31793 net.cpp:156] Memory required for data: 831526000
I0403 13:15:46.626375 31793 layer_factory.hpp:77] Creating layer fc8_plantvillage
I0403 13:15:46.626397 31793 net.cpp:91] Creating Layer fc8_plantvillage
I0403 13:15:46.626413 31793 net.cpp:425] fc8_plantvillage <- fc7
I0403 13:15:46.626431 31793 net.cpp:399] fc8_plantvillage -> fc8_plantvillage
I0403 13:15:46.633309 31793 net.cpp:141] Setting up fc8_plantvillage
I0403 13:15:46.633352 31793 net.cpp:148] Top shape: 100 38 (3800)
I0403 13:15:46.633368 31793 net.cpp:156] Memory required for data: 831541200
I0403 13:15:46.633386 31793 layer_factory.hpp:77] Creating layer fc8_plantvillage_fc8_plantvillage_0_split
I0403 13:15:46.633405 31793 net.cpp:91] Creating Layer fc8_plantvillage_fc8_plantvillage_0_split
I0403 13:15:46.633422 31793 net.cpp:425] fc8_plantvillage_fc8_plantvillage_0_split <- fc8_plantvillage
I0403 13:15:46.633441 31793 net.cpp:399] fc8_plantvillage_fc8_plantvillage_0_split -> fc8_plantvillage_fc8_plantvillage_0_split_0
I0403 13:15:46.633465 31793 net.cpp:399] fc8_plantvillage_fc8_plantvillage_0_split -> fc8_plantvillage_fc8_plantvillage_0_split_1
I0403 13:15:46.633486 31793 net.cpp:399] fc8_plantvillage_fc8_plantvillage_0_split -> fc8_plantvillage_fc8_plantvillage_0_split_2
I0403 13:15:46.633580 31793 net.cpp:141] Setting up fc8_plantvillage_fc8_plantvillage_0_split
I0403 13:15:46.633605 31793 net.cpp:148] Top shape: 100 38 (3800)
I0403 13:15:46.633633 31793 net.cpp:148] Top shape: 100 38 (3800)
I0403 13:15:46.633649 31793 net.cpp:148] Top shape: 100 38 (3800)
I0403 13:15:46.633662 31793 net.cpp:156] Memory required for data: 831586800
I0403 13:15:46.633677 31793 layer_factory.hpp:77] Creating layer prob
I0403 13:15:46.633694 31793 net.cpp:91] Creating Layer prob
I0403 13:15:46.633710 31793 net.cpp:425] prob <- fc8_plantvillage_fc8_plantvillage_0_split_0
I0403 13:15:46.633728 31793 net.cpp:399] prob -> prob
I0403 13:15:46.633960 31793 net.cpp:141] Setting up prob
I0403 13:15:46.633986 31793 net.cpp:148] Top shape: 100 38 (3800)
I0403 13:15:46.634001 31793 net.cpp:156] Memory required for data: 831602000
I0403 13:15:46.634016 31793 layer_factory.hpp:77] Creating layer hdf5out
I0403 13:15:46.634037 31793 net.cpp:91] Creating Layer hdf5out
I0403 13:15:46.634053 31793 net.cpp:425] hdf5out <- prob
I0403 13:15:46.634070 31793 net.cpp:425] hdf5out <- label_data_1_split_0
I0403 13:15:46.636857 31793 net.cpp:141] Setting up hdf5out
…
