…
I0403 13:32:05.961020 32394 net.cpp:313] The NetState phase (1) differed from the phase (0) specified by a rule in layer data
I0403 13:32:05.961345 32394 net.cpp:49] Initializing net from parameters: 
state {
  phase: TEST
}
layer {
  name: "data"
  type: "Data"
  top: "data"
  top: "label"
  include {
    phase: TEST
  }
  transform_param {
    crop_size: 227
    mean_file: "/home/mohanty/data/final_dataset/lmdb/grayscale-60-40/mean.binaryproto"
  }
  data_param {
    source: "/home/mohanty/data/final_dataset/lmdb/grayscale-60-40/test_db"
    batch_size: 100
    backend: LMDB
  }
}
layer {
  name: "conv1"
  type: "Convolution"
  bottom: "data"
  top: "conv1"
  param {
    lr_mult: 1
    decay_mult: 1
  }
  param {
    lr_mult: 2
    decay_mult: 0
  }
  convolution_param {
    num_output: 96
    kernel_size: 11
    stride: 4
    weight_filler {
      type: "gaussian"
      std: 0.01
    }
    bias_filler {
      type: "constant"
      value: 0
    }
  }
}
layer {
  name: "relu1"
  type: "ReLU"
  bottom: "conv1"
  top: "conv1"
}
layer {
  name: "norm1"
  type: "LRN"
  bottom: "conv1"
  top: "norm1"
  lrn_param {
    local_size: 5
    alpha: 0.0001
    beta: 0.75
  }
}
layer {
  name: "pool1"
  type: "Pooling"
  bottom: "norm1"
  top: "pool1"
  pooling_param {
    pool: MAX
    kernel_size: 3
    stride: 2
  }
}
layer {
  name: "conv2"
  type: "Convolution"
  bottom: "pool1"
  top: "conv2"
  param {
    lr_mult: 1
    decay_mult: 1
  }
  param {
    lr_mult: 2
    decay_mult: 0
  }
  convolution_param {
    num_output: 256
    pad: 2
    kernel_size: 5
    group: 2
    weight_filler {
      type: "gaussian"
      std: 0.01
    }
    bias_filler {
      type: "constant"
      value: 0.1
    }
  }
}
layer {
  name: "relu2"
  type: "ReLU"
  bottom: "conv2"
  top: "conv2"
}
layer {
  name: "norm2"
  type: "LRN"
  bottom: "conv2"
  top: "norm2"
  lrn_param {
    local_size: 5
    alpha: 0.0001
    beta: 0.75
  }
}
layer {
  name: "pool2"
  type: "Pooling"
  bottom: "norm2"
  top: "pool2"
  pooling_param {
    pool: MAX
    kernel_size: 3
    stride: 2
  }
}
layer {
  name: "conv3"
  type: "Convolution"
  bottom: "pool2"
  top: "conv3"
  param {
    lr_mult: 1
    decay_mult: 1
  }
  param {
    lr_mult: 2
    decay_mult: 0
  }
  convolution_param {
    num_output: 384
    pad: 1
    kernel_size: 3
    weight_filler {
      type: "gaussian"
      std: 0.01
    }
    bias_filler {
      type: "constant"
      value: 0
    }
  }
}
layer {
  name: "relu3"
  type: "ReLU"
  bottom: "conv3"
  top: "conv3"
}
layer {
  name: "conv4"
  type: "Convolution"
  bottom: "conv3"
  top: "conv4"
  param {
    lr_mult: 1
    decay_mult: 1
  }
  param {
    lr_mult: 2
    decay_mult: 0
  }
  convolution_param {
    num_output: 384
    pad: 1
    kernel_size: 3
    group: 2
    weight_filler {
      type: "gaussian"
      std: 0.01
    }
    bias_filler {
      type: "constant"
      value: 0.1
    }
  }
}
layer {
  name: "relu4"
  type: "ReLU"
  bottom: "conv4"
  top: "conv4"
}
layer {
  name: "conv5"
  type: "Convolution"
  bottom: "conv4"
  top: "conv5"
  param {
    lr_mult: 1
    decay_mult: 1
  }
  param {
    lr_mult: 2
    decay_mult: 0
  }
  convolution_param {
    num_output: 256
    pad: 1
    kernel_size: 3
    group: 2
    weight_filler {
      type: "gaussian"
      std: 0.01
    }
    bias_filler {
      type: "constant"
      value: 0.1
    }
  }
}
layer {
  name: "relu5"
  type: "ReLU"
  bottom: "conv5"
  top: "conv5"
}
layer {
  name: "pool5"
  type: "Pooling"
  bottom: "conv5"
  top: "pool5"
  pooling_param {
    pool: MAX
    kernel_size: 3
    stride: 2
  }
}
layer {
  name: "fc6"
  type: "InnerProduct"
  bottom: "pool5"
  top: "fc6"
  param {
    lr_mult: 1
    decay_mult: 1
  }
  param {
    lr_mult: 2
    decay_mult: 0
  }
  inner_product_param {
    num_output: 4096
    weight_filler {
      type: "gaussian"
      std: 0.005
    }
    bias_filler {
      type: "constant"
      value: 0.1
    }
  }
}
layer {
  name: "relu6"
  type: "ReLU"
  bottom: "fc6"
  top: "fc6"
}
layer {
  name: "drop6"
  type: "Dropout"
  bottom: "fc6"
  top: "fc6"
  dropout_param {
    dropout_ratio: 0.5
  }
}
layer {
  name: "fc7"
  type: "InnerProduct"
  bottom: "fc6"
  top: "fc7"
  param {
    lr_mult: 1
    decay_mult: 1
  }
  param {
    lr_mult: 2
    decay_mult: 0
  }
  inner_product_param {
    num_output: 4096
    weight_filler {
      type: "gaussian"
      std: 0.005
    }
    bias_filler {
      type: "constant"
      value: 0.1
    }
  }
}
layer {
  name: "relu7"
  type: "ReLU"
  bottom: "fc7"
  top: "fc7"
}
layer {
  name: "drop7"
  type: "Dropout"
  bottom: "fc7"
  top: "fc7"
  dropout_param {
    dropout_ratio: 0.5
  }
}
layer {
  name: "fc8_plantvillage"
  type: "InnerProduct"
  bottom: "fc7"
  top: "fc8_plantvillage"
  param {
    lr_mult: 1
    decay_mult: 1
  }
  param {
    lr_mult: 2
    decay_mult: 0
  }
  inner_product_param {
    num_output: 38
    weight_filler {
      type: "gaussian"
      std: 0.01
    }
    bias_filler {
      type: "constant"
      value: 0
    }
  }
}
layer {
  name: "prob"
  type: "Softmax"
  bottom: "fc8_plantvillage"
  top: "prob"
  include {
    phase: TEST
  }
}
layer {
  name: "hdf5out"
  type: "HDF5Output"
  bottom: "prob"
  bottom: "label"
  include {
    phase: TEST
  }
  hdf5_output_param {
    file_name: "hdf5_dumps/iter_9750.h5"
  }
}
layer {
  name: "loss"
  type: "SoftmaxWithLoss"
  bottom: "fc8_plantvillage"
  bottom: "label"
  top: "loss"
}
layer {
  name: "accuracy"
  type: "Accuracy"
  bottom: "fc8_plantvillage"
  bottom: "label"
  top: "accuracy"
  include {
    phase: TEST
  }
}
I0403 13:32:05.961989 32394 layer_factory.hpp:77] Creating layer data
I0403 13:32:05.962676 32394 net.cpp:91] Creating Layer data
I0403 13:32:05.962709 32394 net.cpp:399] data -> data
I0403 13:32:05.962762 32394 net.cpp:399] data -> label
I0403 13:32:05.962800 32394 data_transformer.cpp:25] Loading mean file from: /home/mohanty/data/final_dataset/lmdb/grayscale-60-40/mean.binaryproto
I0403 13:32:05.965646 32398 db_lmdb.cpp:38] Opened lmdb /home/mohanty/data/final_dataset/lmdb/grayscale-60-40/test_db
I0403 13:32:05.977825 32394 data_layer.cpp:41] output data size: 100,3,227,227
I0403 13:32:06.099898 32394 net.cpp:141] Setting up data
I0403 13:32:06.100005 32394 net.cpp:148] Top shape: 100 3 227 227 (15458700)
I0403 13:32:06.100028 32394 net.cpp:148] Top shape: 100 (100)
I0403 13:32:06.100044 32394 net.cpp:156] Memory required for data: 61835200
I0403 13:32:06.100085 32394 layer_factory.hpp:77] Creating layer label_data_1_split
I0403 13:32:06.100111 32394 net.cpp:91] Creating Layer label_data_1_split
I0403 13:32:06.100128 32394 net.cpp:425] label_data_1_split <- label
I0403 13:32:06.100159 32394 net.cpp:399] label_data_1_split -> label_data_1_split_0
I0403 13:32:06.100190 32394 net.cpp:399] label_data_1_split -> label_data_1_split_1
I0403 13:32:06.100213 32394 net.cpp:399] label_data_1_split -> label_data_1_split_2
I0403 13:32:06.100275 32394 net.cpp:141] Setting up label_data_1_split
I0403 13:32:06.100298 32394 net.cpp:148] Top shape: 100 (100)
I0403 13:32:06.100316 32394 net.cpp:148] Top shape: 100 (100)
I0403 13:32:06.100332 32394 net.cpp:148] Top shape: 100 (100)
I0403 13:32:06.100345 32394 net.cpp:156] Memory required for data: 61836400
I0403 13:32:06.100360 32394 layer_factory.hpp:77] Creating layer conv1
I0403 13:32:06.100394 32394 net.cpp:91] Creating Layer conv1
I0403 13:32:06.100412 32394 net.cpp:425] conv1 <- data
I0403 13:32:06.100431 32394 net.cpp:399] conv1 -> conv1
I0403 13:32:06.246451 32394 net.cpp:141] Setting up conv1
I0403 13:32:06.246541 32394 net.cpp:148] Top shape: 100 96 55 55 (29040000)
I0403 13:32:06.246559 32394 net.cpp:156] Memory required for data: 177996400
I0403 13:32:06.246590 32394 layer_factory.hpp:77] Creating layer relu1
I0403 13:32:06.246618 32394 net.cpp:91] Creating Layer relu1
I0403 13:32:06.246637 32394 net.cpp:425] relu1 <- conv1
I0403 13:32:06.246655 32394 net.cpp:386] relu1 -> conv1 (in-place)
I0403 13:32:06.246959 32394 net.cpp:141] Setting up relu1
I0403 13:32:06.246986 32394 net.cpp:148] Top shape: 100 96 55 55 (29040000)
I0403 13:32:06.247032 32394 net.cpp:156] Memory required for data: 294156400
I0403 13:32:06.247048 32394 layer_factory.hpp:77] Creating layer norm1
I0403 13:32:06.247076 32394 net.cpp:91] Creating Layer norm1
I0403 13:32:06.247093 32394 net.cpp:425] norm1 <- conv1
I0403 13:32:06.247112 32394 net.cpp:399] norm1 -> norm1
I0403 13:32:06.247416 32394 net.cpp:141] Setting up norm1
I0403 13:32:06.247450 32394 net.cpp:148] Top shape: 100 96 55 55 (29040000)
I0403 13:32:06.247467 32394 net.cpp:156] Memory required for data: 410316400
I0403 13:32:06.247486 32394 layer_factory.hpp:77] Creating layer pool1
I0403 13:32:06.247509 32394 net.cpp:91] Creating Layer pool1
I0403 13:32:06.247525 32394 net.cpp:425] pool1 <- norm1
I0403 13:32:06.247545 32394 net.cpp:399] pool1 -> pool1
I0403 13:32:06.247608 32394 net.cpp:141] Setting up pool1
I0403 13:32:06.247632 32394 net.cpp:148] Top shape: 100 96 27 27 (6998400)
I0403 13:32:06.247647 32394 net.cpp:156] Memory required for data: 438310000
I0403 13:32:06.247660 32394 layer_factory.hpp:77] Creating layer conv2
I0403 13:32:06.247685 32394 net.cpp:91] Creating Layer conv2
I0403 13:32:06.247701 32394 net.cpp:425] conv2 <- pool1
I0403 13:32:06.247720 32394 net.cpp:399] conv2 -> conv2
I0403 13:32:06.262991 32394 net.cpp:141] Setting up conv2
I0403 13:32:06.263049 32394 net.cpp:148] Top shape: 100 256 27 27 (18662400)
I0403 13:32:06.263068 32394 net.cpp:156] Memory required for data: 512959600
I0403 13:32:06.263092 32394 layer_factory.hpp:77] Creating layer relu2
I0403 13:32:06.263111 32394 net.cpp:91] Creating Layer relu2
I0403 13:32:06.263128 32394 net.cpp:425] relu2 <- conv2
I0403 13:32:06.263149 32394 net.cpp:386] relu2 -> conv2 (in-place)
I0403 13:32:06.263434 32394 net.cpp:141] Setting up relu2
I0403 13:32:06.263461 32394 net.cpp:148] Top shape: 100 256 27 27 (18662400)
I0403 13:32:06.263478 32394 net.cpp:156] Memory required for data: 587609200
I0403 13:32:06.263492 32394 layer_factory.hpp:77] Creating layer norm2
I0403 13:32:06.263519 32394 net.cpp:91] Creating Layer norm2
I0403 13:32:06.263536 32394 net.cpp:425] norm2 <- conv2
I0403 13:32:06.263553 32394 net.cpp:399] norm2 -> norm2
I0403 13:32:06.263757 32394 net.cpp:141] Setting up norm2
I0403 13:32:06.263787 32394 net.cpp:148] Top shape: 100 256 27 27 (18662400)
I0403 13:32:06.263803 32394 net.cpp:156] Memory required for data: 662258800
I0403 13:32:06.263816 32394 layer_factory.hpp:77] Creating layer pool2
I0403 13:32:06.263834 32394 net.cpp:91] Creating Layer pool2
I0403 13:32:06.263850 32394 net.cpp:425] pool2 <- norm2
I0403 13:32:06.263870 32394 net.cpp:399] pool2 -> pool2
I0403 13:32:06.263922 32394 net.cpp:141] Setting up pool2
I0403 13:32:06.263948 32394 net.cpp:148] Top shape: 100 256 13 13 (4326400)
I0403 13:32:06.263963 32394 net.cpp:156] Memory required for data: 679564400
I0403 13:32:06.263979 32394 layer_factory.hpp:77] Creating layer conv3
I0403 13:32:06.264003 32394 net.cpp:91] Creating Layer conv3
I0403 13:32:06.264019 32394 net.cpp:425] conv3 <- pool2
I0403 13:32:06.264039 32394 net.cpp:399] conv3 -> conv3
I0403 13:32:06.303872 32394 net.cpp:141] Setting up conv3
I0403 13:32:06.303961 32394 net.cpp:148] Top shape: 100 384 13 13 (6489600)
I0403 13:32:06.303978 32394 net.cpp:156] Memory required for data: 705522800
I0403 13:32:06.304004 32394 layer_factory.hpp:77] Creating layer relu3
I0403 13:32:06.304028 32394 net.cpp:91] Creating Layer relu3
I0403 13:32:06.304045 32394 net.cpp:425] relu3 <- conv3
I0403 13:32:06.304069 32394 net.cpp:386] relu3 -> conv3 (in-place)
I0403 13:32:06.304406 32394 net.cpp:141] Setting up relu3
I0403 13:32:06.304435 32394 net.cpp:148] Top shape: 100 384 13 13 (6489600)
I0403 13:32:06.304450 32394 net.cpp:156] Memory required for data: 731481200
I0403 13:32:06.304466 32394 layer_factory.hpp:77] Creating layer conv4
I0403 13:32:06.304491 32394 net.cpp:91] Creating Layer conv4
I0403 13:32:06.304508 32394 net.cpp:425] conv4 <- conv3
I0403 13:32:06.304532 32394 net.cpp:399] conv4 -> conv4
I0403 13:32:06.334506 32394 net.cpp:141] Setting up conv4
I0403 13:32:06.334589 32394 net.cpp:148] Top shape: 100 384 13 13 (6489600)
I0403 13:32:06.334637 32394 net.cpp:156] Memory required for data: 757439600
I0403 13:32:06.334659 32394 layer_factory.hpp:77] Creating layer relu4
I0403 13:32:06.334681 32394 net.cpp:91] Creating Layer relu4
I0403 13:32:06.334698 32394 net.cpp:425] relu4 <- conv4
I0403 13:32:06.334718 32394 net.cpp:386] relu4 -> conv4 (in-place)
I0403 13:32:06.335005 32394 net.cpp:141] Setting up relu4
I0403 13:32:06.335034 32394 net.cpp:148] Top shape: 100 384 13 13 (6489600)
I0403 13:32:06.335050 32394 net.cpp:156] Memory required for data: 783398000
I0403 13:32:06.335065 32394 layer_factory.hpp:77] Creating layer conv5
I0403 13:32:06.335091 32394 net.cpp:91] Creating Layer conv5
I0403 13:32:06.335110 32394 net.cpp:425] conv5 <- conv4
I0403 13:32:06.335129 32394 net.cpp:399] conv5 -> conv5
I0403 13:32:06.355610 32394 net.cpp:141] Setting up conv5
I0403 13:32:06.355679 32394 net.cpp:148] Top shape: 100 256 13 13 (4326400)
I0403 13:32:06.355696 32394 net.cpp:156] Memory required for data: 800703600
I0403 13:32:06.355721 32394 layer_factory.hpp:77] Creating layer relu5
I0403 13:32:06.355743 32394 net.cpp:91] Creating Layer relu5
I0403 13:32:06.355762 32394 net.cpp:425] relu5 <- conv5
I0403 13:32:06.355782 32394 net.cpp:386] relu5 -> conv5 (in-place)
I0403 13:32:06.356065 32394 net.cpp:141] Setting up relu5
I0403 13:32:06.356092 32394 net.cpp:148] Top shape: 100 256 13 13 (4326400)
I0403 13:32:06.356108 32394 net.cpp:156] Memory required for data: 818009200
I0403 13:32:06.356123 32394 layer_factory.hpp:77] Creating layer pool5
I0403 13:32:06.356148 32394 net.cpp:91] Creating Layer pool5
I0403 13:32:06.356165 32394 net.cpp:425] pool5 <- conv5
I0403 13:32:06.356184 32394 net.cpp:399] pool5 -> pool5
I0403 13:32:06.356251 32394 net.cpp:141] Setting up pool5
I0403 13:32:06.356274 32394 net.cpp:148] Top shape: 100 256 6 6 (921600)
I0403 13:32:06.356289 32394 net.cpp:156] Memory required for data: 821695600
I0403 13:32:06.356303 32394 layer_factory.hpp:77] Creating layer fc6
I0403 13:32:06.356330 32394 net.cpp:91] Creating Layer fc6
I0403 13:32:06.356348 32394 net.cpp:425] fc6 <- pool5
I0403 13:32:06.356369 32394 net.cpp:399] fc6 -> fc6
I0403 13:32:07.923254 32394 net.cpp:141] Setting up fc6
I0403 13:32:07.923351 32394 net.cpp:148] Top shape: 100 4096 (409600)
I0403 13:32:07.923367 32394 net.cpp:156] Memory required for data: 823334000
I0403 13:32:07.923389 32394 layer_factory.hpp:77] Creating layer relu6
I0403 13:32:07.923413 32394 net.cpp:91] Creating Layer relu6
I0403 13:32:07.923429 32394 net.cpp:425] relu6 <- fc6
I0403 13:32:07.923449 32394 net.cpp:386] relu6 -> fc6 (in-place)
I0403 13:32:07.923677 32394 net.cpp:141] Setting up relu6
I0403 13:32:07.923702 32394 net.cpp:148] Top shape: 100 4096 (409600)
I0403 13:32:07.923717 32394 net.cpp:156] Memory required for data: 824972400
I0403 13:32:07.923730 32394 layer_factory.hpp:77] Creating layer drop6
I0403 13:32:07.923749 32394 net.cpp:91] Creating Layer drop6
I0403 13:32:07.923766 32394 net.cpp:425] drop6 <- fc6
I0403 13:32:07.923785 32394 net.cpp:386] drop6 -> fc6 (in-place)
I0403 13:32:07.923837 32394 net.cpp:141] Setting up drop6
I0403 13:32:07.923861 32394 net.cpp:148] Top shape: 100 4096 (409600)
I0403 13:32:07.923874 32394 net.cpp:156] Memory required for data: 826610800
I0403 13:32:07.923889 32394 layer_factory.hpp:77] Creating layer fc7
I0403 13:32:07.923914 32394 net.cpp:91] Creating Layer fc7
I0403 13:32:07.923931 32394 net.cpp:425] fc7 <- fc6
I0403 13:32:07.923951 32394 net.cpp:399] fc7 -> fc7
I0403 13:32:08.611045 32394 net.cpp:141] Setting up fc7
I0403 13:32:08.611089 32394 net.cpp:148] Top shape: 100 4096 (409600)
I0403 13:32:08.611105 32394 net.cpp:156] Memory required for data: 828249200
I0403 13:32:08.611126 32394 layer_factory.hpp:77] Creating layer relu7
I0403 13:32:08.611148 32394 net.cpp:91] Creating Layer relu7
I0403 13:32:08.611166 32394 net.cpp:425] relu7 <- fc7
I0403 13:32:08.611193 32394 net.cpp:386] relu7 -> fc7 (in-place)
I0403 13:32:08.611604 32394 net.cpp:141] Setting up relu7
I0403 13:32:08.611629 32394 net.cpp:148] Top shape: 100 4096 (409600)
I0403 13:32:08.611676 32394 net.cpp:156] Memory required for data: 829887600
I0403 13:32:08.611692 32394 layer_factory.hpp:77] Creating layer drop7
I0403 13:32:08.611711 32394 net.cpp:91] Creating Layer drop7
I0403 13:32:08.611726 32394 net.cpp:425] drop7 <- fc7
I0403 13:32:08.611744 32394 net.cpp:386] drop7 -> fc7 (in-place)
I0403 13:32:08.611786 32394 net.cpp:141] Setting up drop7
I0403 13:32:08.611809 32394 net.cpp:148] Top shape: 100 4096 (409600)
I0403 13:32:08.611825 32394 net.cpp:156] Memory required for data: 831526000
I0403 13:32:08.611840 32394 layer_factory.hpp:77] Creating layer fc8_plantvillage
I0403 13:32:08.611857 32394 net.cpp:91] Creating Layer fc8_plantvillage
I0403 13:32:08.611872 32394 net.cpp:425] fc8_plantvillage <- fc7
I0403 13:32:08.611891 32394 net.cpp:399] fc8_plantvillage -> fc8_plantvillage
I0403 13:32:08.618584 32394 net.cpp:141] Setting up fc8_plantvillage
I0403 13:32:08.618613 32394 net.cpp:148] Top shape: 100 38 (3800)
I0403 13:32:08.618629 32394 net.cpp:156] Memory required for data: 831541200
I0403 13:32:08.618648 32394 layer_factory.hpp:77] Creating layer fc8_plantvillage_fc8_plantvillage_0_split
I0403 13:32:08.618666 32394 net.cpp:91] Creating Layer fc8_plantvillage_fc8_plantvillage_0_split
I0403 13:32:08.618682 32394 net.cpp:425] fc8_plantvillage_fc8_plantvillage_0_split <- fc8_plantvillage
I0403 13:32:08.618702 32394 net.cpp:399] fc8_plantvillage_fc8_plantvillage_0_split -> fc8_plantvillage_fc8_plantvillage_0_split_0
I0403 13:32:08.618723 32394 net.cpp:399] fc8_plantvillage_fc8_plantvillage_0_split -> fc8_plantvillage_fc8_plantvillage_0_split_1
I0403 13:32:08.618755 32394 net.cpp:399] fc8_plantvillage_fc8_plantvillage_0_split -> fc8_plantvillage_fc8_plantvillage_0_split_2
I0403 13:32:08.618844 32394 net.cpp:141] Setting up fc8_plantvillage_fc8_plantvillage_0_split
I0403 13:32:08.618870 32394 net.cpp:148] Top shape: 100 38 (3800)
I0403 13:32:08.618885 32394 net.cpp:148] Top shape: 100 38 (3800)
I0403 13:32:08.618901 32394 net.cpp:148] Top shape: 100 38 (3800)
I0403 13:32:08.618913 32394 net.cpp:156] Memory required for data: 831586800
I0403 13:32:08.618927 32394 layer_factory.hpp:77] Creating layer prob
I0403 13:32:08.618944 32394 net.cpp:91] Creating Layer prob
I0403 13:32:08.618959 32394 net.cpp:425] prob <- fc8_plantvillage_fc8_plantvillage_0_split_0
I0403 13:32:08.618976 32394 net.cpp:399] prob -> prob
I0403 13:32:08.619204 32394 net.cpp:141] Setting up prob
I0403 13:32:08.619227 32394 net.cpp:148] Top shape: 100 38 (3800)
I0403 13:32:08.619242 32394 net.cpp:156] Memory required for data: 831602000
I0403 13:32:08.619256 32394 layer_factory.hpp:77] Creating layer hdf5out
I0403 13:32:08.619273 32394 net.cpp:91] Creating Layer hdf5out
I0403 13:32:08.619288 32394 net.cpp:425] hdf5out <- prob
I0403 13:32:08.619303 32394 net.cpp:425] hdf5out <- label_data_1_split_0
I0403 13:32:08.621589 32394 net.cpp:141] Setting up hdf5out
…
