…
I0403 13:18:50.654256 31890 net.cpp:313] The NetState phase (1) differed from the phase (0) specified by a rule in layer data
I0403 13:18:50.654562 31890 net.cpp:49] Initializing net from parameters: 
state {
  phase: TEST
}
layer {
  name: "data"
  type: "Data"
  top: "data"
  top: "label"
  include {
    phase: TEST
  }
  transform_param {
    crop_size: 227
    mean_file: "/home/mohanty/data/final_dataset/lmdb/grayscale-60-40/mean.binaryproto"
  }
  data_param {
    source: "/home/mohanty/data/final_dataset/lmdb/grayscale-60-40/test_db"
    batch_size: 100
    backend: LMDB
  }
}
layer {
  name: "conv1"
  type: "Convolution"
  bottom: "data"
  top: "conv1"
  param {
    lr_mult: 1
    decay_mult: 1
  }
  param {
    lr_mult: 2
    decay_mult: 0
  }
  convolution_param {
    num_output: 96
    kernel_size: 11
    stride: 4
    weight_filler {
      type: "gaussian"
      std: 0.01
    }
    bias_filler {
      type: "constant"
      value: 0
    }
  }
}
layer {
  name: "relu1"
  type: "ReLU"
  bottom: "conv1"
  top: "conv1"
}
layer {
  name: "norm1"
  type: "LRN"
  bottom: "conv1"
  top: "norm1"
  lrn_param {
    local_size: 5
    alpha: 0.0001
    beta: 0.75
  }
}
layer {
  name: "pool1"
  type: "Pooling"
  bottom: "norm1"
  top: "pool1"
  pooling_param {
    pool: MAX
    kernel_size: 3
    stride: 2
  }
}
layer {
  name: "conv2"
  type: "Convolution"
  bottom: "pool1"
  top: "conv2"
  param {
    lr_mult: 1
    decay_mult: 1
  }
  param {
    lr_mult: 2
    decay_mult: 0
  }
  convolution_param {
    num_output: 256
    pad: 2
    kernel_size: 5
    group: 2
    weight_filler {
      type: "gaussian"
      std: 0.01
    }
    bias_filler {
      type: "constant"
      value: 0.1
    }
  }
}
layer {
  name: "relu2"
  type: "ReLU"
  bottom: "conv2"
  top: "conv2"
}
layer {
  name: "norm2"
  type: "LRN"
  bottom: "conv2"
  top: "norm2"
  lrn_param {
    local_size: 5
    alpha: 0.0001
    beta: 0.75
  }
}
layer {
  name: "pool2"
  type: "Pooling"
  bottom: "norm2"
  top: "pool2"
  pooling_param {
    pool: MAX
    kernel_size: 3
    stride: 2
  }
}
layer {
  name: "conv3"
  type: "Convolution"
  bottom: "pool2"
  top: "conv3"
  param {
    lr_mult: 1
    decay_mult: 1
  }
  param {
    lr_mult: 2
    decay_mult: 0
  }
  convolution_param {
    num_output: 384
    pad: 1
    kernel_size: 3
    weight_filler {
      type: "gaussian"
      std: 0.01
    }
    bias_filler {
      type: "constant"
      value: 0
    }
  }
}
layer {
  name: "relu3"
  type: "ReLU"
  bottom: "conv3"
  top: "conv3"
}
layer {
  name: "conv4"
  type: "Convolution"
  bottom: "conv3"
  top: "conv4"
  param {
    lr_mult: 1
    decay_mult: 1
  }
  param {
    lr_mult: 2
    decay_mult: 0
  }
  convolution_param {
    num_output: 384
    pad: 1
    kernel_size: 3
    group: 2
    weight_filler {
      type: "gaussian"
      std: 0.01
    }
    bias_filler {
      type: "constant"
      value: 0.1
    }
  }
}
layer {
  name: "relu4"
  type: "ReLU"
  bottom: "conv4"
  top: "conv4"
}
layer {
  name: "conv5"
  type: "Convolution"
  bottom: "conv4"
  top: "conv5"
  param {
    lr_mult: 1
    decay_mult: 1
  }
  param {
    lr_mult: 2
    decay_mult: 0
  }
  convolution_param {
    num_output: 256
    pad: 1
    kernel_size: 3
    group: 2
    weight_filler {
      type: "gaussian"
      std: 0.01
    }
    bias_filler {
      type: "constant"
      value: 0.1
    }
  }
}
layer {
  name: "relu5"
  type: "ReLU"
  bottom: "conv5"
  top: "conv5"
}
layer {
  name: "pool5"
  type: "Pooling"
  bottom: "conv5"
  top: "pool5"
  pooling_param {
    pool: MAX
    kernel_size: 3
    stride: 2
  }
}
layer {
  name: "fc6"
  type: "InnerProduct"
  bottom: "pool5"
  top: "fc6"
  param {
    lr_mult: 1
    decay_mult: 1
  }
  param {
    lr_mult: 2
    decay_mult: 0
  }
  inner_product_param {
    num_output: 4096
    weight_filler {
      type: "gaussian"
      std: 0.005
    }
    bias_filler {
      type: "constant"
      value: 0.1
    }
  }
}
layer {
  name: "relu6"
  type: "ReLU"
  bottom: "fc6"
  top: "fc6"
}
layer {
  name: "drop6"
  type: "Dropout"
  bottom: "fc6"
  top: "fc6"
  dropout_param {
    dropout_ratio: 0.5
  }
}
layer {
  name: "fc7"
  type: "InnerProduct"
  bottom: "fc6"
  top: "fc7"
  param {
    lr_mult: 1
    decay_mult: 1
  }
  param {
    lr_mult: 2
    decay_mult: 0
  }
  inner_product_param {
    num_output: 4096
    weight_filler {
      type: "gaussian"
      std: 0.005
    }
    bias_filler {
      type: "constant"
      value: 0.1
    }
  }
}
layer {
  name: "relu7"
  type: "ReLU"
  bottom: "fc7"
  top: "fc7"
}
layer {
  name: "drop7"
  type: "Dropout"
  bottom: "fc7"
  top: "fc7"
  dropout_param {
    dropout_ratio: 0.5
  }
}
layer {
  name: "fc8_plantvillage"
  type: "InnerProduct"
  bottom: "fc7"
  top: "fc8_plantvillage"
  param {
    lr_mult: 1
    decay_mult: 1
  }
  param {
    lr_mult: 2
    decay_mult: 0
  }
  inner_product_param {
    num_output: 38
    weight_filler {
      type: "gaussian"
      std: 0.01
    }
    bias_filler {
      type: "constant"
      value: 0
    }
  }
}
layer {
  name: "prob"
  type: "Softmax"
  bottom: "fc8_plantvillage"
  top: "prob"
  include {
    phase: TEST
  }
}
layer {
  name: "hdf5out"
  type: "HDF5Output"
  bottom: "prob"
  bottom: "label"
  include {
    phase: TEST
  }
  hdf5_output_param {
    file_name: "hdf5_dumps/iter_4225.h5"
  }
}
layer {
  name: "loss"
  type: "SoftmaxWithLoss"
  bottom: "fc8_plantvillage"
  bottom: "label"
  top: "loss"
}
layer {
  name: "accuracy"
  type: "Accuracy"
  bottom: "fc8_plantvillage"
  bottom: "label"
  top: "accuracy"
  include {
    phase: TEST
  }
}
I0403 13:18:50.655166 31890 layer_factory.hpp:77] Creating layer data
I0403 13:18:50.655832 31890 net.cpp:91] Creating Layer data
I0403 13:18:50.655865 31890 net.cpp:399] data -> data
I0403 13:18:50.655916 31890 net.cpp:399] data -> label
I0403 13:18:50.655953 31890 data_transformer.cpp:25] Loading mean file from: /home/mohanty/data/final_dataset/lmdb/grayscale-60-40/mean.binaryproto
I0403 13:18:50.658814 31896 db_lmdb.cpp:38] Opened lmdb /home/mohanty/data/final_dataset/lmdb/grayscale-60-40/test_db
I0403 13:18:50.670711 31890 data_layer.cpp:41] output data size: 100,3,227,227
I0403 13:18:50.793833 31890 net.cpp:141] Setting up data
I0403 13:18:50.793941 31890 net.cpp:148] Top shape: 100 3 227 227 (15458700)
I0403 13:18:50.793967 31890 net.cpp:148] Top shape: 100 (100)
I0403 13:18:50.793983 31890 net.cpp:156] Memory required for data: 61835200
I0403 13:18:50.794014 31890 layer_factory.hpp:77] Creating layer label_data_1_split
I0403 13:18:50.794041 31890 net.cpp:91] Creating Layer label_data_1_split
I0403 13:18:50.794060 31890 net.cpp:425] label_data_1_split <- label
I0403 13:18:50.794093 31890 net.cpp:399] label_data_1_split -> label_data_1_split_0
I0403 13:18:50.794124 31890 net.cpp:399] label_data_1_split -> label_data_1_split_1
I0403 13:18:50.794147 31890 net.cpp:399] label_data_1_split -> label_data_1_split_2
I0403 13:18:50.794216 31890 net.cpp:141] Setting up label_data_1_split
I0403 13:18:50.794242 31890 net.cpp:148] Top shape: 100 (100)
I0403 13:18:50.794261 31890 net.cpp:148] Top shape: 100 (100)
I0403 13:18:50.794280 31890 net.cpp:148] Top shape: 100 (100)
I0403 13:18:50.794298 31890 net.cpp:156] Memory required for data: 61836400
I0403 13:18:50.794313 31890 layer_factory.hpp:77] Creating layer conv1
I0403 13:18:50.794348 31890 net.cpp:91] Creating Layer conv1
I0403 13:18:50.794368 31890 net.cpp:425] conv1 <- data
I0403 13:18:50.794395 31890 net.cpp:399] conv1 -> conv1
I0403 13:18:50.937644 31890 net.cpp:141] Setting up conv1
I0403 13:18:50.937731 31890 net.cpp:148] Top shape: 100 96 55 55 (29040000)
I0403 13:18:50.937749 31890 net.cpp:156] Memory required for data: 177996400
I0403 13:18:50.937782 31890 layer_factory.hpp:77] Creating layer relu1
I0403 13:18:50.937809 31890 net.cpp:91] Creating Layer relu1
I0403 13:18:50.937827 31890 net.cpp:425] relu1 <- conv1
I0403 13:18:50.937846 31890 net.cpp:386] relu1 -> conv1 (in-place)
I0403 13:18:50.938098 31890 net.cpp:141] Setting up relu1
I0403 13:18:50.938125 31890 net.cpp:148] Top shape: 100 96 55 55 (29040000)
I0403 13:18:50.938174 31890 net.cpp:156] Memory required for data: 294156400
I0403 13:18:50.938196 31890 layer_factory.hpp:77] Creating layer norm1
I0403 13:18:50.938226 31890 net.cpp:91] Creating Layer norm1
I0403 13:18:50.938246 31890 net.cpp:425] norm1 <- conv1
I0403 13:18:50.938263 31890 net.cpp:399] norm1 -> norm1
I0403 13:18:50.938568 31890 net.cpp:141] Setting up norm1
I0403 13:18:50.938596 31890 net.cpp:148] Top shape: 100 96 55 55 (29040000)
I0403 13:18:50.938612 31890 net.cpp:156] Memory required for data: 410316400
I0403 13:18:50.938628 31890 layer_factory.hpp:77] Creating layer pool1
I0403 13:18:50.938653 31890 net.cpp:91] Creating Layer pool1
I0403 13:18:50.938670 31890 net.cpp:425] pool1 <- norm1
I0403 13:18:50.938689 31890 net.cpp:399] pool1 -> pool1
I0403 13:18:50.938757 31890 net.cpp:141] Setting up pool1
I0403 13:18:50.938782 31890 net.cpp:148] Top shape: 100 96 27 27 (6998400)
I0403 13:18:50.938797 31890 net.cpp:156] Memory required for data: 438310000
I0403 13:18:50.938812 31890 layer_factory.hpp:77] Creating layer conv2
I0403 13:18:50.938838 31890 net.cpp:91] Creating Layer conv2
I0403 13:18:50.938854 31890 net.cpp:425] conv2 <- pool1
I0403 13:18:50.938874 31890 net.cpp:399] conv2 -> conv2
I0403 13:18:50.954259 31890 net.cpp:141] Setting up conv2
I0403 13:18:50.954318 31890 net.cpp:148] Top shape: 100 256 27 27 (18662400)
I0403 13:18:50.954334 31890 net.cpp:156] Memory required for data: 512959600
I0403 13:18:50.954358 31890 layer_factory.hpp:77] Creating layer relu2
I0403 13:18:50.954380 31890 net.cpp:91] Creating Layer relu2
I0403 13:18:50.954397 31890 net.cpp:425] relu2 <- conv2
I0403 13:18:50.954416 31890 net.cpp:386] relu2 -> conv2 (in-place)
I0403 13:18:50.954718 31890 net.cpp:141] Setting up relu2
I0403 13:18:50.954746 31890 net.cpp:148] Top shape: 100 256 27 27 (18662400)
I0403 13:18:50.954762 31890 net.cpp:156] Memory required for data: 587609200
I0403 13:18:50.954778 31890 layer_factory.hpp:77] Creating layer norm2
I0403 13:18:50.954802 31890 net.cpp:91] Creating Layer norm2
I0403 13:18:50.954818 31890 net.cpp:425] norm2 <- conv2
I0403 13:18:50.954838 31890 net.cpp:399] norm2 -> norm2
I0403 13:18:50.955027 31890 net.cpp:141] Setting up norm2
I0403 13:18:50.955054 31890 net.cpp:148] Top shape: 100 256 27 27 (18662400)
I0403 13:18:50.955068 31890 net.cpp:156] Memory required for data: 662258800
I0403 13:18:50.955085 31890 layer_factory.hpp:77] Creating layer pool2
I0403 13:18:50.955104 31890 net.cpp:91] Creating Layer pool2
I0403 13:18:50.955121 31890 net.cpp:425] pool2 <- norm2
I0403 13:18:50.955140 31890 net.cpp:399] pool2 -> pool2
I0403 13:18:50.955194 31890 net.cpp:141] Setting up pool2
I0403 13:18:50.955219 31890 net.cpp:148] Top shape: 100 256 13 13 (4326400)
I0403 13:18:50.955234 31890 net.cpp:156] Memory required for data: 679564400
I0403 13:18:50.955250 31890 layer_factory.hpp:77] Creating layer conv3
I0403 13:18:50.955272 31890 net.cpp:91] Creating Layer conv3
I0403 13:18:50.955289 31890 net.cpp:425] conv3 <- pool2
I0403 13:18:50.955309 31890 net.cpp:399] conv3 -> conv3
I0403 13:18:50.995510 31890 net.cpp:141] Setting up conv3
I0403 13:18:50.995589 31890 net.cpp:148] Top shape: 100 384 13 13 (6489600)
I0403 13:18:50.995605 31890 net.cpp:156] Memory required for data: 705522800
I0403 13:18:50.995645 31890 layer_factory.hpp:77] Creating layer relu3
I0403 13:18:50.995667 31890 net.cpp:91] Creating Layer relu3
I0403 13:18:50.995684 31890 net.cpp:425] relu3 <- conv3
I0403 13:18:50.995703 31890 net.cpp:386] relu3 -> conv3 (in-place)
I0403 13:18:50.995961 31890 net.cpp:141] Setting up relu3
I0403 13:18:50.995987 31890 net.cpp:148] Top shape: 100 384 13 13 (6489600)
I0403 13:18:50.996002 31890 net.cpp:156] Memory required for data: 731481200
I0403 13:18:50.996018 31890 layer_factory.hpp:77] Creating layer conv4
I0403 13:18:50.996043 31890 net.cpp:91] Creating Layer conv4
I0403 13:18:50.996060 31890 net.cpp:425] conv4 <- conv3
I0403 13:18:50.996078 31890 net.cpp:399] conv4 -> conv4
I0403 13:18:51.026139 31890 net.cpp:141] Setting up conv4
I0403 13:18:51.026218 31890 net.cpp:148] Top shape: 100 384 13 13 (6489600)
I0403 13:18:51.026268 31890 net.cpp:156] Memory required for data: 757439600
I0403 13:18:51.026291 31890 layer_factory.hpp:77] Creating layer relu4
I0403 13:18:51.026315 31890 net.cpp:91] Creating Layer relu4
I0403 13:18:51.026335 31890 net.cpp:425] relu4 <- conv4
I0403 13:18:51.026353 31890 net.cpp:386] relu4 -> conv4 (in-place)
I0403 13:18:51.026633 31890 net.cpp:141] Setting up relu4
I0403 13:18:51.026660 31890 net.cpp:148] Top shape: 100 384 13 13 (6489600)
I0403 13:18:51.026676 31890 net.cpp:156] Memory required for data: 783398000
I0403 13:18:51.026691 31890 layer_factory.hpp:77] Creating layer conv5
I0403 13:18:51.026718 31890 net.cpp:91] Creating Layer conv5
I0403 13:18:51.026736 31890 net.cpp:425] conv5 <- conv4
I0403 13:18:51.026757 31890 net.cpp:399] conv5 -> conv5
I0403 13:18:51.047701 31890 net.cpp:141] Setting up conv5
I0403 13:18:51.047768 31890 net.cpp:148] Top shape: 100 256 13 13 (4326400)
I0403 13:18:51.047785 31890 net.cpp:156] Memory required for data: 800703600
I0403 13:18:51.047811 31890 layer_factory.hpp:77] Creating layer relu5
I0403 13:18:51.047837 31890 net.cpp:91] Creating Layer relu5
I0403 13:18:51.047854 31890 net.cpp:425] relu5 <- conv5
I0403 13:18:51.047873 31890 net.cpp:386] relu5 -> conv5 (in-place)
I0403 13:18:51.048153 31890 net.cpp:141] Setting up relu5
I0403 13:18:51.048185 31890 net.cpp:148] Top shape: 100 256 13 13 (4326400)
I0403 13:18:51.048203 31890 net.cpp:156] Memory required for data: 818009200
I0403 13:18:51.048219 31890 layer_factory.hpp:77] Creating layer pool5
I0403 13:18:51.048244 31890 net.cpp:91] Creating Layer pool5
I0403 13:18:51.048260 31890 net.cpp:425] pool5 <- conv5
I0403 13:18:51.048282 31890 net.cpp:399] pool5 -> pool5
I0403 13:18:51.048343 31890 net.cpp:141] Setting up pool5
I0403 13:18:51.048367 31890 net.cpp:148] Top shape: 100 256 6 6 (921600)
I0403 13:18:51.048382 31890 net.cpp:156] Memory required for data: 821695600
I0403 13:18:51.048398 31890 layer_factory.hpp:77] Creating layer fc6
I0403 13:18:51.048429 31890 net.cpp:91] Creating Layer fc6
I0403 13:18:51.048449 31890 net.cpp:425] fc6 <- pool5
I0403 13:18:51.048467 31890 net.cpp:399] fc6 -> fc6
I0403 13:18:52.664633 31890 net.cpp:141] Setting up fc6
I0403 13:18:52.664724 31890 net.cpp:148] Top shape: 100 4096 (409600)
I0403 13:18:52.664741 31890 net.cpp:156] Memory required for data: 823334000
I0403 13:18:52.664763 31890 layer_factory.hpp:77] Creating layer relu6
I0403 13:18:52.664785 31890 net.cpp:91] Creating Layer relu6
I0403 13:18:52.664803 31890 net.cpp:425] relu6 <- fc6
I0403 13:18:52.664824 31890 net.cpp:386] relu6 -> fc6 (in-place)
I0403 13:18:52.665048 31890 net.cpp:141] Setting up relu6
I0403 13:18:52.665074 31890 net.cpp:148] Top shape: 100 4096 (409600)
I0403 13:18:52.665089 31890 net.cpp:156] Memory required for data: 824972400
I0403 13:18:52.665104 31890 layer_factory.hpp:77] Creating layer drop6
I0403 13:18:52.665127 31890 net.cpp:91] Creating Layer drop6
I0403 13:18:52.665143 31890 net.cpp:425] drop6 <- fc6
I0403 13:18:52.665161 31890 net.cpp:386] drop6 -> fc6 (in-place)
I0403 13:18:52.665221 31890 net.cpp:141] Setting up drop6
I0403 13:18:52.665244 31890 net.cpp:148] Top shape: 100 4096 (409600)
I0403 13:18:52.665259 31890 net.cpp:156] Memory required for data: 826610800
I0403 13:18:52.665274 31890 layer_factory.hpp:77] Creating layer fc7
I0403 13:18:52.665294 31890 net.cpp:91] Creating Layer fc7
I0403 13:18:52.665310 31890 net.cpp:425] fc7 <- fc6
I0403 13:18:52.665333 31890 net.cpp:399] fc7 -> fc7
I0403 13:18:53.392060 31890 net.cpp:141] Setting up fc7
I0403 13:18:53.392102 31890 net.cpp:148] Top shape: 100 4096 (409600)
I0403 13:18:53.392118 31890 net.cpp:156] Memory required for data: 828249200
I0403 13:18:53.392139 31890 layer_factory.hpp:77] Creating layer relu7
I0403 13:18:53.392164 31890 net.cpp:91] Creating Layer relu7
I0403 13:18:53.392201 31890 net.cpp:425] relu7 <- fc7
I0403 13:18:53.392221 31890 net.cpp:386] relu7 -> fc7 (in-place)
I0403 13:18:53.392619 31890 net.cpp:141] Setting up relu7
I0403 13:18:53.392645 31890 net.cpp:148] Top shape: 100 4096 (409600)
I0403 13:18:53.392693 31890 net.cpp:156] Memory required for data: 829887600
I0403 13:18:53.392709 31890 layer_factory.hpp:77] Creating layer drop7
I0403 13:18:53.392731 31890 net.cpp:91] Creating Layer drop7
I0403 13:18:53.392746 31890 net.cpp:425] drop7 <- fc7
I0403 13:18:53.392763 31890 net.cpp:386] drop7 -> fc7 (in-place)
I0403 13:18:53.392805 31890 net.cpp:141] Setting up drop7
I0403 13:18:53.392829 31890 net.cpp:148] Top shape: 100 4096 (409600)
I0403 13:18:53.392844 31890 net.cpp:156] Memory required for data: 831526000
I0403 13:18:53.392859 31890 layer_factory.hpp:77] Creating layer fc8_plantvillage
I0403 13:18:53.392891 31890 net.cpp:91] Creating Layer fc8_plantvillage
I0403 13:18:53.392907 31890 net.cpp:425] fc8_plantvillage <- fc7
I0403 13:18:53.392928 31890 net.cpp:399] fc8_plantvillage -> fc8_plantvillage
I0403 13:18:53.400012 31890 net.cpp:141] Setting up fc8_plantvillage
I0403 13:18:53.400040 31890 net.cpp:148] Top shape: 100 38 (3800)
I0403 13:18:53.400056 31890 net.cpp:156] Memory required for data: 831541200
I0403 13:18:53.400075 31890 layer_factory.hpp:77] Creating layer fc8_plantvillage_fc8_plantvillage_0_split
I0403 13:18:53.400096 31890 net.cpp:91] Creating Layer fc8_plantvillage_fc8_plantvillage_0_split
I0403 13:18:53.400113 31890 net.cpp:425] fc8_plantvillage_fc8_plantvillage_0_split <- fc8_plantvillage
I0403 13:18:53.400131 31890 net.cpp:399] fc8_plantvillage_fc8_plantvillage_0_split -> fc8_plantvillage_fc8_plantvillage_0_split_0
I0403 13:18:53.400152 31890 net.cpp:399] fc8_plantvillage_fc8_plantvillage_0_split -> fc8_plantvillage_fc8_plantvillage_0_split_1
I0403 13:18:53.400171 31890 net.cpp:399] fc8_plantvillage_fc8_plantvillage_0_split -> fc8_plantvillage_fc8_plantvillage_0_split_2
I0403 13:18:53.400270 31890 net.cpp:141] Setting up fc8_plantvillage_fc8_plantvillage_0_split
I0403 13:18:53.400293 31890 net.cpp:148] Top shape: 100 38 (3800)
I0403 13:18:53.400310 31890 net.cpp:148] Top shape: 100 38 (3800)
I0403 13:18:53.400326 31890 net.cpp:148] Top shape: 100 38 (3800)
I0403 13:18:53.400339 31890 net.cpp:156] Memory required for data: 831586800
I0403 13:18:53.400354 31890 layer_factory.hpp:77] Creating layer prob
I0403 13:18:53.400372 31890 net.cpp:91] Creating Layer prob
I0403 13:18:53.400388 31890 net.cpp:425] prob <- fc8_plantvillage_fc8_plantvillage_0_split_0
I0403 13:18:53.400408 31890 net.cpp:399] prob -> prob
I0403 13:18:53.400631 31890 net.cpp:141] Setting up prob
I0403 13:18:53.400656 31890 net.cpp:148] Top shape: 100 38 (3800)
I0403 13:18:53.400671 31890 net.cpp:156] Memory required for data: 831602000
I0403 13:18:53.400686 31890 layer_factory.hpp:77] Creating layer hdf5out
I0403 13:18:53.400707 31890 net.cpp:91] Creating Layer hdf5out
I0403 13:18:53.400724 31890 net.cpp:425] hdf5out <- prob
I0403 13:18:53.400741 31890 net.cpp:425] hdf5out <- label_data_1_split_0
I0403 13:18:53.403173 31890 net.cpp:141] Setting up hdf5out
…
