…
I0403 13:14:08.139225 31746 net.cpp:313] The NetState phase (1) differed from the phase (0) specified by a rule in layer data
I0403 13:14:08.139541 31746 net.cpp:49] Initializing net from parameters: 
state {
  phase: TEST
}
layer {
  name: "data"
  type: "Data"
  top: "data"
  top: "label"
  include {
    phase: TEST
  }
  transform_param {
    crop_size: 227
    mean_file: "/home/mohanty/data/final_dataset/lmdb/grayscale-60-40/mean.binaryproto"
  }
  data_param {
    source: "/home/mohanty/data/final_dataset/lmdb/grayscale-60-40/test_db"
    batch_size: 100
    backend: LMDB
  }
}
layer {
  name: "conv1"
  type: "Convolution"
  bottom: "data"
  top: "conv1"
  param {
    lr_mult: 1
    decay_mult: 1
  }
  param {
    lr_mult: 2
    decay_mult: 0
  }
  convolution_param {
    num_output: 96
    kernel_size: 11
    stride: 4
    weight_filler {
      type: "gaussian"
      std: 0.01
    }
    bias_filler {
      type: "constant"
      value: 0
    }
  }
}
layer {
  name: "relu1"
  type: "ReLU"
  bottom: "conv1"
  top: "conv1"
}
layer {
  name: "norm1"
  type: "LRN"
  bottom: "conv1"
  top: "norm1"
  lrn_param {
    local_size: 5
    alpha: 0.0001
    beta: 0.75
  }
}
layer {
  name: "pool1"
  type: "Pooling"
  bottom: "norm1"
  top: "pool1"
  pooling_param {
    pool: MAX
    kernel_size: 3
    stride: 2
  }
}
layer {
  name: "conv2"
  type: "Convolution"
  bottom: "pool1"
  top: "conv2"
  param {
    lr_mult: 1
    decay_mult: 1
  }
  param {
    lr_mult: 2
    decay_mult: 0
  }
  convolution_param {
    num_output: 256
    pad: 2
    kernel_size: 5
    group: 2
    weight_filler {
      type: "gaussian"
      std: 0.01
    }
    bias_filler {
      type: "constant"
      value: 0.1
    }
  }
}
layer {
  name: "relu2"
  type: "ReLU"
  bottom: "conv2"
  top: "conv2"
}
layer {
  name: "norm2"
  type: "LRN"
  bottom: "conv2"
  top: "norm2"
  lrn_param {
    local_size: 5
    alpha: 0.0001
    beta: 0.75
  }
}
layer {
  name: "pool2"
  type: "Pooling"
  bottom: "norm2"
  top: "pool2"
  pooling_param {
    pool: MAX
    kernel_size: 3
    stride: 2
  }
}
layer {
  name: "conv3"
  type: "Convolution"
  bottom: "pool2"
  top: "conv3"
  param {
    lr_mult: 1
    decay_mult: 1
  }
  param {
    lr_mult: 2
    decay_mult: 0
  }
  convolution_param {
    num_output: 384
    pad: 1
    kernel_size: 3
    weight_filler {
      type: "gaussian"
      std: 0.01
    }
    bias_filler {
      type: "constant"
      value: 0
    }
  }
}
layer {
  name: "relu3"
  type: "ReLU"
  bottom: "conv3"
  top: "conv3"
}
layer {
  name: "conv4"
  type: "Convolution"
  bottom: "conv3"
  top: "conv4"
  param {
    lr_mult: 1
    decay_mult: 1
  }
  param {
    lr_mult: 2
    decay_mult: 0
  }
  convolution_param {
    num_output: 384
    pad: 1
    kernel_size: 3
    group: 2
    weight_filler {
      type: "gaussian"
      std: 0.01
    }
    bias_filler {
      type: "constant"
      value: 0.1
    }
  }
}
layer {
  name: "relu4"
  type: "ReLU"
  bottom: "conv4"
  top: "conv4"
}
layer {
  name: "conv5"
  type: "Convolution"
  bottom: "conv4"
  top: "conv5"
  param {
    lr_mult: 1
    decay_mult: 1
  }
  param {
    lr_mult: 2
    decay_mult: 0
  }
  convolution_param {
    num_output: 256
    pad: 1
    kernel_size: 3
    group: 2
    weight_filler {
      type: "gaussian"
      std: 0.01
    }
    bias_filler {
      type: "constant"
      value: 0.1
    }
  }
}
layer {
  name: "relu5"
  type: "ReLU"
  bottom: "conv5"
  top: "conv5"
}
layer {
  name: "pool5"
  type: "Pooling"
  bottom: "conv5"
  top: "pool5"
  pooling_param {
    pool: MAX
    kernel_size: 3
    stride: 2
  }
}
layer {
  name: "fc6"
  type: "InnerProduct"
  bottom: "pool5"
  top: "fc6"
  param {
    lr_mult: 1
    decay_mult: 1
  }
  param {
    lr_mult: 2
    decay_mult: 0
  }
  inner_product_param {
    num_output: 4096
    weight_filler {
      type: "gaussian"
      std: 0.005
    }
    bias_filler {
      type: "constant"
      value: 0.1
    }
  }
}
layer {
  name: "relu6"
  type: "ReLU"
  bottom: "fc6"
  top: "fc6"
}
layer {
  name: "drop6"
  type: "Dropout"
  bottom: "fc6"
  top: "fc6"
  dropout_param {
    dropout_ratio: 0.5
  }
}
layer {
  name: "fc7"
  type: "InnerProduct"
  bottom: "fc6"
  top: "fc7"
  param {
    lr_mult: 1
    decay_mult: 1
  }
  param {
    lr_mult: 2
    decay_mult: 0
  }
  inner_product_param {
    num_output: 4096
    weight_filler {
      type: "gaussian"
      std: 0.005
    }
    bias_filler {
      type: "constant"
      value: 0.1
    }
  }
}
layer {
  name: "relu7"
  type: "ReLU"
  bottom: "fc7"
  top: "fc7"
}
layer {
  name: "drop7"
  type: "Dropout"
  bottom: "fc7"
  top: "fc7"
  dropout_param {
    dropout_ratio: 0.5
  }
}
layer {
  name: "fc8_plantvillage"
  type: "InnerProduct"
  bottom: "fc7"
  top: "fc8_plantvillage"
  param {
    lr_mult: 1
    decay_mult: 1
  }
  param {
    lr_mult: 2
    decay_mult: 0
  }
  inner_product_param {
    num_output: 38
    weight_filler {
      type: "gaussian"
      std: 0.01
    }
    bias_filler {
      type: "constant"
      value: 0
    }
  }
}
layer {
  name: "prob"
  type: "Softmax"
  bottom: "fc8_plantvillage"
  top: "prob"
  include {
    phase: TEST
  }
}
layer {
  name: "hdf5out"
  type: "HDF5Output"
  bottom: "prob"
  bottom: "label"
  include {
    phase: TEST
  }
  hdf5_output_param {
    file_name: "hdf5_dumps/iter_2275.h5"
  }
}
layer {
  name: "loss"
  type: "SoftmaxWithLoss"
  bottom: "fc8_plantvillage"
  bottom: "label"
  top: "loss"
}
layer {
  name: "accuracy"
  type: "Accuracy"
  bottom: "fc8_plantvillage"
  bottom: "label"
  top: "accuracy"
  include {
    phase: TEST
  }
}
I0403 13:14:08.140139 31746 layer_factory.hpp:77] Creating layer data
I0403 13:14:08.140812 31746 net.cpp:91] Creating Layer data
I0403 13:14:08.140846 31746 net.cpp:399] data -> data
I0403 13:14:08.140899 31746 net.cpp:399] data -> label
I0403 13:14:08.140936 31746 data_transformer.cpp:25] Loading mean file from: /home/mohanty/data/final_dataset/lmdb/grayscale-60-40/mean.binaryproto
I0403 13:14:08.143838 31749 db_lmdb.cpp:38] Opened lmdb /home/mohanty/data/final_dataset/lmdb/grayscale-60-40/test_db
I0403 13:14:08.155442 31746 data_layer.cpp:41] output data size: 100,3,227,227
I0403 13:14:08.275290 31746 net.cpp:141] Setting up data
I0403 13:14:08.275399 31746 net.cpp:148] Top shape: 100 3 227 227 (15458700)
I0403 13:14:08.275423 31746 net.cpp:148] Top shape: 100 (100)
I0403 13:14:08.275439 31746 net.cpp:156] Memory required for data: 61835200
I0403 13:14:08.275467 31746 layer_factory.hpp:77] Creating layer label_data_1_split
I0403 13:14:08.275495 31746 net.cpp:91] Creating Layer label_data_1_split
I0403 13:14:08.275516 31746 net.cpp:425] label_data_1_split <- label
I0403 13:14:08.275548 31746 net.cpp:399] label_data_1_split -> label_data_1_split_0
I0403 13:14:08.275578 31746 net.cpp:399] label_data_1_split -> label_data_1_split_1
I0403 13:14:08.275599 31746 net.cpp:399] label_data_1_split -> label_data_1_split_2
I0403 13:14:08.275665 31746 net.cpp:141] Setting up label_data_1_split
I0403 13:14:08.275689 31746 net.cpp:148] Top shape: 100 (100)
I0403 13:14:08.275707 31746 net.cpp:148] Top shape: 100 (100)
I0403 13:14:08.275723 31746 net.cpp:148] Top shape: 100 (100)
I0403 13:14:08.275739 31746 net.cpp:156] Memory required for data: 61836400
I0403 13:14:08.275755 31746 layer_factory.hpp:77] Creating layer conv1
I0403 13:14:08.275787 31746 net.cpp:91] Creating Layer conv1
I0403 13:14:08.275807 31746 net.cpp:425] conv1 <- data
I0403 13:14:08.275827 31746 net.cpp:399] conv1 -> conv1
I0403 13:14:08.422612 31746 net.cpp:141] Setting up conv1
I0403 13:14:08.422701 31746 net.cpp:148] Top shape: 100 96 55 55 (29040000)
I0403 13:14:08.422719 31746 net.cpp:156] Memory required for data: 177996400
I0403 13:14:08.422752 31746 layer_factory.hpp:77] Creating layer relu1
I0403 13:14:08.422780 31746 net.cpp:91] Creating Layer relu1
I0403 13:14:08.422801 31746 net.cpp:425] relu1 <- conv1
I0403 13:14:08.422821 31746 net.cpp:386] relu1 -> conv1 (in-place)
I0403 13:14:08.423085 31746 net.cpp:141] Setting up relu1
I0403 13:14:08.423115 31746 net.cpp:148] Top shape: 100 96 55 55 (29040000)
I0403 13:14:08.423164 31746 net.cpp:156] Memory required for data: 294156400
I0403 13:14:08.423182 31746 layer_factory.hpp:77] Creating layer norm1
I0403 13:14:08.423223 31746 net.cpp:91] Creating Layer norm1
I0403 13:14:08.423244 31746 net.cpp:425] norm1 <- conv1
I0403 13:14:08.423264 31746 net.cpp:399] norm1 -> norm1
I0403 13:14:08.423651 31746 net.cpp:141] Setting up norm1
I0403 13:14:08.423681 31746 net.cpp:148] Top shape: 100 96 55 55 (29040000)
I0403 13:14:08.423698 31746 net.cpp:156] Memory required for data: 410316400
I0403 13:14:08.423714 31746 layer_factory.hpp:77] Creating layer pool1
I0403 13:14:08.423738 31746 net.cpp:91] Creating Layer pool1
I0403 13:14:08.423758 31746 net.cpp:425] pool1 <- norm1
I0403 13:14:08.423776 31746 net.cpp:399] pool1 -> pool1
I0403 13:14:08.423846 31746 net.cpp:141] Setting up pool1
I0403 13:14:08.423871 31746 net.cpp:148] Top shape: 100 96 27 27 (6998400)
I0403 13:14:08.423887 31746 net.cpp:156] Memory required for data: 438310000
I0403 13:14:08.423902 31746 layer_factory.hpp:77] Creating layer conv2
I0403 13:14:08.423928 31746 net.cpp:91] Creating Layer conv2
I0403 13:14:08.423945 31746 net.cpp:425] conv2 <- pool1
I0403 13:14:08.423964 31746 net.cpp:399] conv2 -> conv2
I0403 13:14:08.439714 31746 net.cpp:141] Setting up conv2
I0403 13:14:08.439772 31746 net.cpp:148] Top shape: 100 256 27 27 (18662400)
I0403 13:14:08.439790 31746 net.cpp:156] Memory required for data: 512959600
I0403 13:14:08.439815 31746 layer_factory.hpp:77] Creating layer relu2
I0403 13:14:08.439836 31746 net.cpp:91] Creating Layer relu2
I0403 13:14:08.439854 31746 net.cpp:425] relu2 <- conv2
I0403 13:14:08.439873 31746 net.cpp:386] relu2 -> conv2 (in-place)
I0403 13:14:08.440153 31746 net.cpp:141] Setting up relu2
I0403 13:14:08.440181 31746 net.cpp:148] Top shape: 100 256 27 27 (18662400)
I0403 13:14:08.440197 31746 net.cpp:156] Memory required for data: 587609200
I0403 13:14:08.440219 31746 layer_factory.hpp:77] Creating layer norm2
I0403 13:14:08.440243 31746 net.cpp:91] Creating Layer norm2
I0403 13:14:08.440261 31746 net.cpp:425] norm2 <- conv2
I0403 13:14:08.440281 31746 net.cpp:399] norm2 -> norm2
I0403 13:14:08.440479 31746 net.cpp:141] Setting up norm2
I0403 13:14:08.440505 31746 net.cpp:148] Top shape: 100 256 27 27 (18662400)
I0403 13:14:08.440521 31746 net.cpp:156] Memory required for data: 662258800
I0403 13:14:08.440537 31746 layer_factory.hpp:77] Creating layer pool2
I0403 13:14:08.440558 31746 net.cpp:91] Creating Layer pool2
I0403 13:14:08.440575 31746 net.cpp:425] pool2 <- norm2
I0403 13:14:08.440595 31746 net.cpp:399] pool2 -> pool2
I0403 13:14:08.440649 31746 net.cpp:141] Setting up pool2
I0403 13:14:08.440671 31746 net.cpp:148] Top shape: 100 256 13 13 (4326400)
I0403 13:14:08.440687 31746 net.cpp:156] Memory required for data: 679564400
I0403 13:14:08.440703 31746 layer_factory.hpp:77] Creating layer conv3
I0403 13:14:08.440726 31746 net.cpp:91] Creating Layer conv3
I0403 13:14:08.440744 31746 net.cpp:425] conv3 <- pool2
I0403 13:14:08.440763 31746 net.cpp:399] conv3 -> conv3
I0403 13:14:08.482314 31746 net.cpp:141] Setting up conv3
I0403 13:14:08.482364 31746 net.cpp:148] Top shape: 100 384 13 13 (6489600)
I0403 13:14:08.482383 31746 net.cpp:156] Memory required for data: 705522800
I0403 13:14:08.482411 31746 layer_factory.hpp:77] Creating layer relu3
I0403 13:14:08.482436 31746 net.cpp:91] Creating Layer relu3
I0403 13:14:08.482455 31746 net.cpp:425] relu3 <- conv3
I0403 13:14:08.482484 31746 net.cpp:386] relu3 -> conv3 (in-place)
I0403 13:14:08.482780 31746 net.cpp:141] Setting up relu3
I0403 13:14:08.482808 31746 net.cpp:148] Top shape: 100 384 13 13 (6489600)
I0403 13:14:08.482825 31746 net.cpp:156] Memory required for data: 731481200
I0403 13:14:08.482841 31746 layer_factory.hpp:77] Creating layer conv4
I0403 13:14:08.482869 31746 net.cpp:91] Creating Layer conv4
I0403 13:14:08.482887 31746 net.cpp:425] conv4 <- conv3
I0403 13:14:08.482910 31746 net.cpp:399] conv4 -> conv4
I0403 13:14:08.513526 31746 net.cpp:141] Setting up conv4
I0403 13:14:08.513610 31746 net.cpp:148] Top shape: 100 384 13 13 (6489600)
I0403 13:14:08.513672 31746 net.cpp:156] Memory required for data: 757439600
I0403 13:14:08.513695 31746 layer_factory.hpp:77] Creating layer relu4
I0403 13:14:08.513717 31746 net.cpp:91] Creating Layer relu4
I0403 13:14:08.513736 31746 net.cpp:425] relu4 <- conv4
I0403 13:14:08.513756 31746 net.cpp:386] relu4 -> conv4 (in-place)
I0403 13:14:08.514039 31746 net.cpp:141] Setting up relu4
I0403 13:14:08.514068 31746 net.cpp:148] Top shape: 100 384 13 13 (6489600)
I0403 13:14:08.514086 31746 net.cpp:156] Memory required for data: 783398000
I0403 13:14:08.514101 31746 layer_factory.hpp:77] Creating layer conv5
I0403 13:14:08.514124 31746 net.cpp:91] Creating Layer conv5
I0403 13:14:08.514142 31746 net.cpp:425] conv5 <- conv4
I0403 13:14:08.514164 31746 net.cpp:399] conv5 -> conv5
I0403 13:14:08.534654 31746 net.cpp:141] Setting up conv5
I0403 13:14:08.534713 31746 net.cpp:148] Top shape: 100 256 13 13 (4326400)
I0403 13:14:08.534729 31746 net.cpp:156] Memory required for data: 800703600
I0403 13:14:08.534757 31746 layer_factory.hpp:77] Creating layer relu5
I0403 13:14:08.534780 31746 net.cpp:91] Creating Layer relu5
I0403 13:14:08.534797 31746 net.cpp:425] relu5 <- conv5
I0403 13:14:08.534818 31746 net.cpp:386] relu5 -> conv5 (in-place)
I0403 13:14:08.535099 31746 net.cpp:141] Setting up relu5
I0403 13:14:08.535130 31746 net.cpp:148] Top shape: 100 256 13 13 (4326400)
I0403 13:14:08.535146 31746 net.cpp:156] Memory required for data: 818009200
I0403 13:14:08.535162 31746 layer_factory.hpp:77] Creating layer pool5
I0403 13:14:08.535186 31746 net.cpp:91] Creating Layer pool5
I0403 13:14:08.535212 31746 net.cpp:425] pool5 <- conv5
I0403 13:14:08.535233 31746 net.cpp:399] pool5 -> pool5
I0403 13:14:08.535295 31746 net.cpp:141] Setting up pool5
I0403 13:14:08.535322 31746 net.cpp:148] Top shape: 100 256 6 6 (921600)
I0403 13:14:08.535339 31746 net.cpp:156] Memory required for data: 821695600
I0403 13:14:08.535356 31746 layer_factory.hpp:77] Creating layer fc6
I0403 13:14:08.535450 31746 net.cpp:91] Creating Layer fc6
I0403 13:14:08.535472 31746 net.cpp:425] fc6 <- pool5
I0403 13:14:08.535495 31746 net.cpp:399] fc6 -> fc6
I0403 13:14:10.105537 31746 net.cpp:141] Setting up fc6
I0403 13:14:10.105582 31746 net.cpp:148] Top shape: 100 4096 (409600)
I0403 13:14:10.105600 31746 net.cpp:156] Memory required for data: 823334000
I0403 13:14:10.105623 31746 layer_factory.hpp:77] Creating layer relu6
I0403 13:14:10.105645 31746 net.cpp:91] Creating Layer relu6
I0403 13:14:10.105662 31746 net.cpp:425] relu6 <- fc6
I0403 13:14:10.105682 31746 net.cpp:386] relu6 -> fc6 (in-place)
I0403 13:14:10.105897 31746 net.cpp:141] Setting up relu6
I0403 13:14:10.105924 31746 net.cpp:148] Top shape: 100 4096 (409600)
I0403 13:14:10.105942 31746 net.cpp:156] Memory required for data: 824972400
I0403 13:14:10.105957 31746 layer_factory.hpp:77] Creating layer drop6
I0403 13:14:10.105975 31746 net.cpp:91] Creating Layer drop6
I0403 13:14:10.105991 31746 net.cpp:425] drop6 <- fc6
I0403 13:14:10.106011 31746 net.cpp:386] drop6 -> fc6 (in-place)
I0403 13:14:10.106063 31746 net.cpp:141] Setting up drop6
I0403 13:14:10.106098 31746 net.cpp:148] Top shape: 100 4096 (409600)
I0403 13:14:10.106112 31746 net.cpp:156] Memory required for data: 826610800
I0403 13:14:10.106127 31746 layer_factory.hpp:77] Creating layer fc7
I0403 13:14:10.106153 31746 net.cpp:91] Creating Layer fc7
I0403 13:14:10.106169 31746 net.cpp:425] fc7 <- fc6
I0403 13:14:10.106190 31746 net.cpp:399] fc7 -> fc7
I0403 13:14:10.791630 31746 net.cpp:141] Setting up fc7
I0403 13:14:10.791705 31746 net.cpp:148] Top shape: 100 4096 (409600)
I0403 13:14:10.791723 31746 net.cpp:156] Memory required for data: 828249200
I0403 13:14:10.791744 31746 layer_factory.hpp:77] Creating layer relu7
I0403 13:14:10.791766 31746 net.cpp:91] Creating Layer relu7
I0403 13:14:10.791785 31746 net.cpp:425] relu7 <- fc7
I0403 13:14:10.791805 31746 net.cpp:386] relu7 -> fc7 (in-place)
I0403 13:14:10.792230 31746 net.cpp:141] Setting up relu7
I0403 13:14:10.792260 31746 net.cpp:148] Top shape: 100 4096 (409600)
I0403 13:14:10.792310 31746 net.cpp:156] Memory required for data: 829887600
I0403 13:14:10.792327 31746 layer_factory.hpp:77] Creating layer drop7
I0403 13:14:10.792347 31746 net.cpp:91] Creating Layer drop7
I0403 13:14:10.792363 31746 net.cpp:425] drop7 <- fc7
I0403 13:14:10.792382 31746 net.cpp:386] drop7 -> fc7 (in-place)
I0403 13:14:10.792428 31746 net.cpp:141] Setting up drop7
I0403 13:14:10.792450 31746 net.cpp:148] Top shape: 100 4096 (409600)
I0403 13:14:10.792465 31746 net.cpp:156] Memory required for data: 831526000
I0403 13:14:10.792480 31746 layer_factory.hpp:77] Creating layer fc8_plantvillage
I0403 13:14:10.792503 31746 net.cpp:91] Creating Layer fc8_plantvillage
I0403 13:14:10.792520 31746 net.cpp:425] fc8_plantvillage <- fc7
I0403 13:14:10.792538 31746 net.cpp:399] fc8_plantvillage -> fc8_plantvillage
I0403 13:14:10.799291 31746 net.cpp:141] Setting up fc8_plantvillage
I0403 13:14:10.799320 31746 net.cpp:148] Top shape: 100 38 (3800)
I0403 13:14:10.799337 31746 net.cpp:156] Memory required for data: 831541200
I0403 13:14:10.799356 31746 layer_factory.hpp:77] Creating layer fc8_plantvillage_fc8_plantvillage_0_split
I0403 13:14:10.799374 31746 net.cpp:91] Creating Layer fc8_plantvillage_fc8_plantvillage_0_split
I0403 13:14:10.799391 31746 net.cpp:425] fc8_plantvillage_fc8_plantvillage_0_split <- fc8_plantvillage
I0403 13:14:10.799412 31746 net.cpp:399] fc8_plantvillage_fc8_plantvillage_0_split -> fc8_plantvillage_fc8_plantvillage_0_split_0
I0403 13:14:10.799432 31746 net.cpp:399] fc8_plantvillage_fc8_plantvillage_0_split -> fc8_plantvillage_fc8_plantvillage_0_split_1
I0403 13:14:10.799453 31746 net.cpp:399] fc8_plantvillage_fc8_plantvillage_0_split -> fc8_plantvillage_fc8_plantvillage_0_split_2
I0403 13:14:10.799537 31746 net.cpp:141] Setting up fc8_plantvillage_fc8_plantvillage_0_split
I0403 13:14:10.799561 31746 net.cpp:148] Top shape: 100 38 (3800)
I0403 13:14:10.799577 31746 net.cpp:148] Top shape: 100 38 (3800)
I0403 13:14:10.799592 31746 net.cpp:148] Top shape: 100 38 (3800)
I0403 13:14:10.799607 31746 net.cpp:156] Memory required for data: 831586800
I0403 13:14:10.799621 31746 layer_factory.hpp:77] Creating layer prob
I0403 13:14:10.799643 31746 net.cpp:91] Creating Layer prob
I0403 13:14:10.799659 31746 net.cpp:425] prob <- fc8_plantvillage_fc8_plantvillage_0_split_0
I0403 13:14:10.799679 31746 net.cpp:399] prob -> prob
I0403 13:14:10.799898 31746 net.cpp:141] Setting up prob
I0403 13:14:10.799928 31746 net.cpp:148] Top shape: 100 38 (3800)
I0403 13:14:10.799944 31746 net.cpp:156] Memory required for data: 831602000
I0403 13:14:10.799959 31746 layer_factory.hpp:77] Creating layer hdf5out
I0403 13:14:10.799978 31746 net.cpp:91] Creating Layer hdf5out
I0403 13:14:10.799994 31746 net.cpp:425] hdf5out <- prob
I0403 13:14:10.800011 31746 net.cpp:425] hdf5out <- label_data_1_split_0
I0403 13:14:10.802377 31746 net.cpp:141] Setting up hdf5out
…
