…
I0403 13:11:48.010915 31672 net.cpp:313] The NetState phase (1) differed from the phase (0) specified by a rule in layer data
I0403 13:11:48.011234 31672 net.cpp:49] Initializing net from parameters: 
state {
  phase: TEST
}
layer {
  name: "data"
  type: "Data"
  top: "data"
  top: "label"
  include {
    phase: TEST
  }
  transform_param {
    crop_size: 227
    mean_file: "/home/mohanty/data/final_dataset/lmdb/grayscale-60-40/mean.binaryproto"
  }
  data_param {
    source: "/home/mohanty/data/final_dataset/lmdb/grayscale-60-40/test_db"
    batch_size: 100
    backend: LMDB
  }
}
layer {
  name: "conv1"
  type: "Convolution"
  bottom: "data"
  top: "conv1"
  param {
    lr_mult: 1
    decay_mult: 1
  }
  param {
    lr_mult: 2
    decay_mult: 0
  }
  convolution_param {
    num_output: 96
    kernel_size: 11
    stride: 4
    weight_filler {
      type: "gaussian"
      std: 0.01
    }
    bias_filler {
      type: "constant"
      value: 0
    }
  }
}
layer {
  name: "relu1"
  type: "ReLU"
  bottom: "conv1"
  top: "conv1"
}
layer {
  name: "norm1"
  type: "LRN"
  bottom: "conv1"
  top: "norm1"
  lrn_param {
    local_size: 5
    alpha: 0.0001
    beta: 0.75
  }
}
layer {
  name: "pool1"
  type: "Pooling"
  bottom: "norm1"
  top: "pool1"
  pooling_param {
    pool: MAX
    kernel_size: 3
    stride: 2
  }
}
layer {
  name: "conv2"
  type: "Convolution"
  bottom: "pool1"
  top: "conv2"
  param {
    lr_mult: 1
    decay_mult: 1
  }
  param {
    lr_mult: 2
    decay_mult: 0
  }
  convolution_param {
    num_output: 256
    pad: 2
    kernel_size: 5
    group: 2
    weight_filler {
      type: "gaussian"
      std: 0.01
    }
    bias_filler {
      type: "constant"
      value: 0.1
    }
  }
}
layer {
  name: "relu2"
  type: "ReLU"
  bottom: "conv2"
  top: "conv2"
}
layer {
  name: "norm2"
  type: "LRN"
  bottom: "conv2"
  top: "norm2"
  lrn_param {
    local_size: 5
    alpha: 0.0001
    beta: 0.75
  }
}
layer {
  name: "pool2"
  type: "Pooling"
  bottom: "norm2"
  top: "pool2"
  pooling_param {
    pool: MAX
    kernel_size: 3
    stride: 2
  }
}
layer {
  name: "conv3"
  type: "Convolution"
  bottom: "pool2"
  top: "conv3"
  param {
    lr_mult: 1
    decay_mult: 1
  }
  param {
    lr_mult: 2
    decay_mult: 0
  }
  convolution_param {
    num_output: 384
    pad: 1
    kernel_size: 3
    weight_filler {
      type: "gaussian"
      std: 0.01
    }
    bias_filler {
      type: "constant"
      value: 0
    }
  }
}
layer {
  name: "relu3"
  type: "ReLU"
  bottom: "conv3"
  top: "conv3"
}
layer {
  name: "conv4"
  type: "Convolution"
  bottom: "conv3"
  top: "conv4"
  param {
    lr_mult: 1
    decay_mult: 1
  }
  param {
    lr_mult: 2
    decay_mult: 0
  }
  convolution_param {
    num_output: 384
    pad: 1
    kernel_size: 3
    group: 2
    weight_filler {
      type: "gaussian"
      std: 0.01
    }
    bias_filler {
      type: "constant"
      value: 0.1
    }
  }
}
layer {
  name: "relu4"
  type: "ReLU"
  bottom: "conv4"
  top: "conv4"
}
layer {
  name: "conv5"
  type: "Convolution"
  bottom: "conv4"
  top: "conv5"
  param {
    lr_mult: 1
    decay_mult: 1
  }
  param {
    lr_mult: 2
    decay_mult: 0
  }
  convolution_param {
    num_output: 256
    pad: 1
    kernel_size: 3
    group: 2
    weight_filler {
      type: "gaussian"
      std: 0.01
    }
    bias_filler {
      type: "constant"
      value: 0.1
    }
  }
}
layer {
  name: "relu5"
  type: "ReLU"
  bottom: "conv5"
  top: "conv5"
}
layer {
  name: "pool5"
  type: "Pooling"
  bottom: "conv5"
  top: "pool5"
  pooling_param {
    pool: MAX
    kernel_size: 3
    stride: 2
  }
}
layer {
  name: "fc6"
  type: "InnerProduct"
  bottom: "pool5"
  top: "fc6"
  param {
    lr_mult: 1
    decay_mult: 1
  }
  param {
    lr_mult: 2
    decay_mult: 0
  }
  inner_product_param {
    num_output: 4096
    weight_filler {
      type: "gaussian"
      std: 0.005
    }
    bias_filler {
      type: "constant"
      value: 0.1
    }
  }
}
layer {
  name: "relu6"
  type: "ReLU"
  bottom: "fc6"
  top: "fc6"
}
layer {
  name: "drop6"
  type: "Dropout"
  bottom: "fc6"
  top: "fc6"
  dropout_param {
    dropout_ratio: 0.5
  }
}
layer {
  name: "fc7"
  type: "InnerProduct"
  bottom: "fc6"
  top: "fc7"
  param {
    lr_mult: 1
    decay_mult: 1
  }
  param {
    lr_mult: 2
    decay_mult: 0
  }
  inner_product_param {
    num_output: 4096
    weight_filler {
      type: "gaussian"
      std: 0.005
    }
    bias_filler {
      type: "constant"
      value: 0.1
    }
  }
}
layer {
  name: "relu7"
  type: "ReLU"
  bottom: "fc7"
  top: "fc7"
}
layer {
  name: "drop7"
  type: "Dropout"
  bottom: "fc7"
  top: "fc7"
  dropout_param {
    dropout_ratio: 0.5
  }
}
layer {
  name: "fc8_plantvillage"
  type: "InnerProduct"
  bottom: "fc7"
  top: "fc8_plantvillage"
  param {
    lr_mult: 1
    decay_mult: 1
  }
  param {
    lr_mult: 2
    decay_mult: 0
  }
  inner_product_param {
    num_output: 38
    weight_filler {
      type: "gaussian"
      std: 0.01
    }
    bias_filler {
      type: "constant"
      value: 0
    }
  }
}
layer {
  name: "prob"
  type: "Softmax"
  bottom: "fc8_plantvillage"
  top: "prob"
  include {
    phase: TEST
  }
}
layer {
  name: "hdf5out"
  type: "HDF5Output"
  bottom: "prob"
  bottom: "label"
  include {
    phase: TEST
  }
  hdf5_output_param {
    file_name: "hdf5_dumps/iter_1300.h5"
  }
}
layer {
  name: "loss"
  type: "SoftmaxWithLoss"
  bottom: "fc8_plantvillage"
  bottom: "label"
  top: "loss"
}
layer {
  name: "accuracy"
  type: "Accuracy"
  bottom: "fc8_plantvillage"
  bottom: "label"
  top: "accuracy"
  include {
    phase: TEST
  }
}
I0403 13:11:48.011806 31672 layer_factory.hpp:77] Creating layer data
I0403 13:11:48.012461 31672 net.cpp:91] Creating Layer data
I0403 13:11:48.012490 31672 net.cpp:399] data -> data
I0403 13:11:48.012542 31672 net.cpp:399] data -> label
I0403 13:11:48.012578 31672 data_transformer.cpp:25] Loading mean file from: /home/mohanty/data/final_dataset/lmdb/grayscale-60-40/mean.binaryproto
I0403 13:11:48.019182 31675 db_lmdb.cpp:38] Opened lmdb /home/mohanty/data/final_dataset/lmdb/grayscale-60-40/test_db
I0403 13:11:48.026326 31672 data_layer.cpp:41] output data size: 100,3,227,227
I0403 13:11:48.143611 31672 net.cpp:141] Setting up data
I0403 13:11:48.143718 31672 net.cpp:148] Top shape: 100 3 227 227 (15458700)
I0403 13:11:48.143739 31672 net.cpp:148] Top shape: 100 (100)
I0403 13:11:48.143754 31672 net.cpp:156] Memory required for data: 61835200
I0403 13:11:48.143782 31672 layer_factory.hpp:77] Creating layer label_data_1_split
I0403 13:11:48.143807 31672 net.cpp:91] Creating Layer label_data_1_split
I0403 13:11:48.143826 31672 net.cpp:425] label_data_1_split <- label
I0403 13:11:48.143857 31672 net.cpp:399] label_data_1_split -> label_data_1_split_0
I0403 13:11:48.143884 31672 net.cpp:399] label_data_1_split -> label_data_1_split_1
I0403 13:11:48.143905 31672 net.cpp:399] label_data_1_split -> label_data_1_split_2
I0403 13:11:48.143970 31672 net.cpp:141] Setting up label_data_1_split
I0403 13:11:48.143993 31672 net.cpp:148] Top shape: 100 (100)
I0403 13:11:48.144011 31672 net.cpp:148] Top shape: 100 (100)
I0403 13:11:48.144027 31672 net.cpp:148] Top shape: 100 (100)
I0403 13:11:48.144042 31672 net.cpp:156] Memory required for data: 61836400
I0403 13:11:48.144057 31672 layer_factory.hpp:77] Creating layer conv1
I0403 13:11:48.144088 31672 net.cpp:91] Creating Layer conv1
I0403 13:11:48.144107 31672 net.cpp:425] conv1 <- data
I0403 13:11:48.144126 31672 net.cpp:399] conv1 -> conv1
I0403 13:11:48.286576 31672 net.cpp:141] Setting up conv1
I0403 13:11:48.286705 31672 net.cpp:148] Top shape: 100 96 55 55 (29040000)
I0403 13:11:48.286727 31672 net.cpp:156] Memory required for data: 177996400
I0403 13:11:48.286757 31672 layer_factory.hpp:77] Creating layer relu1
I0403 13:11:48.286783 31672 net.cpp:91] Creating Layer relu1
I0403 13:11:48.286803 31672 net.cpp:425] relu1 <- conv1
I0403 13:11:48.286820 31672 net.cpp:386] relu1 -> conv1 (in-place)
I0403 13:11:48.287070 31672 net.cpp:141] Setting up relu1
I0403 13:11:48.287098 31672 net.cpp:148] Top shape: 100 96 55 55 (29040000)
I0403 13:11:48.287145 31672 net.cpp:156] Memory required for data: 294156400
I0403 13:11:48.287161 31672 layer_factory.hpp:77] Creating layer norm1
I0403 13:11:48.287192 31672 net.cpp:91] Creating Layer norm1
I0403 13:11:48.287211 31672 net.cpp:425] norm1 <- conv1
I0403 13:11:48.287230 31672 net.cpp:399] norm1 -> norm1
I0403 13:11:48.287544 31672 net.cpp:141] Setting up norm1
I0403 13:11:48.287571 31672 net.cpp:148] Top shape: 100 96 55 55 (29040000)
I0403 13:11:48.287587 31672 net.cpp:156] Memory required for data: 410316400
I0403 13:11:48.287603 31672 layer_factory.hpp:77] Creating layer pool1
I0403 13:11:48.287626 31672 net.cpp:91] Creating Layer pool1
I0403 13:11:48.287644 31672 net.cpp:425] pool1 <- norm1
I0403 13:11:48.287662 31672 net.cpp:399] pool1 -> pool1
I0403 13:11:48.287729 31672 net.cpp:141] Setting up pool1
I0403 13:11:48.287753 31672 net.cpp:148] Top shape: 100 96 27 27 (6998400)
I0403 13:11:48.287780 31672 net.cpp:156] Memory required for data: 438310000
I0403 13:11:48.287793 31672 layer_factory.hpp:77] Creating layer conv2
I0403 13:11:48.287817 31672 net.cpp:91] Creating Layer conv2
I0403 13:11:48.287834 31672 net.cpp:425] conv2 <- pool1
I0403 13:11:48.287852 31672 net.cpp:399] conv2 -> conv2
I0403 13:11:48.303205 31672 net.cpp:141] Setting up conv2
I0403 13:11:48.303264 31672 net.cpp:148] Top shape: 100 256 27 27 (18662400)
I0403 13:11:48.303282 31672 net.cpp:156] Memory required for data: 512959600
I0403 13:11:48.303304 31672 layer_factory.hpp:77] Creating layer relu2
I0403 13:11:48.303324 31672 net.cpp:91] Creating Layer relu2
I0403 13:11:48.303341 31672 net.cpp:425] relu2 <- conv2
I0403 13:11:48.303364 31672 net.cpp:386] relu2 -> conv2 (in-place)
I0403 13:11:48.303649 31672 net.cpp:141] Setting up relu2
I0403 13:11:48.303676 31672 net.cpp:148] Top shape: 100 256 27 27 (18662400)
I0403 13:11:48.303692 31672 net.cpp:156] Memory required for data: 587609200
I0403 13:11:48.303707 31672 layer_factory.hpp:77] Creating layer norm2
I0403 13:11:48.303731 31672 net.cpp:91] Creating Layer norm2
I0403 13:11:48.303750 31672 net.cpp:425] norm2 <- conv2
I0403 13:11:48.303768 31672 net.cpp:399] norm2 -> norm2
I0403 13:11:48.304008 31672 net.cpp:141] Setting up norm2
I0403 13:11:48.304036 31672 net.cpp:148] Top shape: 100 256 27 27 (18662400)
I0403 13:11:48.304052 31672 net.cpp:156] Memory required for data: 662258800
I0403 13:11:48.304067 31672 layer_factory.hpp:77] Creating layer pool2
I0403 13:11:48.304085 31672 net.cpp:91] Creating Layer pool2
I0403 13:11:48.304101 31672 net.cpp:425] pool2 <- norm2
I0403 13:11:48.304121 31672 net.cpp:399] pool2 -> pool2
I0403 13:11:48.304180 31672 net.cpp:141] Setting up pool2
I0403 13:11:48.304206 31672 net.cpp:148] Top shape: 100 256 13 13 (4326400)
I0403 13:11:48.304222 31672 net.cpp:156] Memory required for data: 679564400
I0403 13:11:48.304237 31672 layer_factory.hpp:77] Creating layer conv3
I0403 13:11:48.304261 31672 net.cpp:91] Creating Layer conv3
I0403 13:11:48.304280 31672 net.cpp:425] conv3 <- pool2
I0403 13:11:48.304297 31672 net.cpp:399] conv3 -> conv3
I0403 13:11:48.344769 31672 net.cpp:141] Setting up conv3
I0403 13:11:48.344851 31672 net.cpp:148] Top shape: 100 384 13 13 (6489600)
I0403 13:11:48.344867 31672 net.cpp:156] Memory required for data: 705522800
I0403 13:11:48.344893 31672 layer_factory.hpp:77] Creating layer relu3
I0403 13:11:48.344915 31672 net.cpp:91] Creating Layer relu3
I0403 13:11:48.344933 31672 net.cpp:425] relu3 <- conv3
I0403 13:11:48.344954 31672 net.cpp:386] relu3 -> conv3 (in-place)
I0403 13:11:48.345237 31672 net.cpp:141] Setting up relu3
I0403 13:11:48.345263 31672 net.cpp:148] Top shape: 100 384 13 13 (6489600)
I0403 13:11:48.345278 31672 net.cpp:156] Memory required for data: 731481200
I0403 13:11:48.345293 31672 layer_factory.hpp:77] Creating layer conv4
I0403 13:11:48.345319 31672 net.cpp:91] Creating Layer conv4
I0403 13:11:48.345336 31672 net.cpp:425] conv4 <- conv3
I0403 13:11:48.345358 31672 net.cpp:399] conv4 -> conv4
I0403 13:11:48.375859 31672 net.cpp:141] Setting up conv4
I0403 13:11:48.375941 31672 net.cpp:148] Top shape: 100 384 13 13 (6489600)
I0403 13:11:48.375989 31672 net.cpp:156] Memory required for data: 757439600
I0403 13:11:48.376013 31672 layer_factory.hpp:77] Creating layer relu4
I0403 13:11:48.376035 31672 net.cpp:91] Creating Layer relu4
I0403 13:11:48.376055 31672 net.cpp:425] relu4 <- conv4
I0403 13:11:48.376075 31672 net.cpp:386] relu4 -> conv4 (in-place)
I0403 13:11:48.376406 31672 net.cpp:141] Setting up relu4
I0403 13:11:48.376436 31672 net.cpp:148] Top shape: 100 384 13 13 (6489600)
I0403 13:11:48.376452 31672 net.cpp:156] Memory required for data: 783398000
I0403 13:11:48.376467 31672 layer_factory.hpp:77] Creating layer conv5
I0403 13:11:48.376492 31672 net.cpp:91] Creating Layer conv5
I0403 13:11:48.376510 31672 net.cpp:425] conv5 <- conv4
I0403 13:11:48.376530 31672 net.cpp:399] conv5 -> conv5
I0403 13:11:48.397454 31672 net.cpp:141] Setting up conv5
I0403 13:11:48.397521 31672 net.cpp:148] Top shape: 100 256 13 13 (4326400)
I0403 13:11:48.397538 31672 net.cpp:156] Memory required for data: 800703600
I0403 13:11:48.397564 31672 layer_factory.hpp:77] Creating layer relu5
I0403 13:11:48.397585 31672 net.cpp:91] Creating Layer relu5
I0403 13:11:48.397604 31672 net.cpp:425] relu5 <- conv5
I0403 13:11:48.397625 31672 net.cpp:386] relu5 -> conv5 (in-place)
I0403 13:11:48.397907 31672 net.cpp:141] Setting up relu5
I0403 13:11:48.397933 31672 net.cpp:148] Top shape: 100 256 13 13 (4326400)
I0403 13:11:48.397949 31672 net.cpp:156] Memory required for data: 818009200
I0403 13:11:48.397964 31672 layer_factory.hpp:77] Creating layer pool5
I0403 13:11:48.397989 31672 net.cpp:91] Creating Layer pool5
I0403 13:11:48.398006 31672 net.cpp:425] pool5 <- conv5
I0403 13:11:48.398025 31672 net.cpp:399] pool5 -> pool5
I0403 13:11:48.398088 31672 net.cpp:141] Setting up pool5
I0403 13:11:48.398138 31672 net.cpp:148] Top shape: 100 256 6 6 (921600)
I0403 13:11:48.398155 31672 net.cpp:156] Memory required for data: 821695600
I0403 13:11:48.398170 31672 layer_factory.hpp:77] Creating layer fc6
I0403 13:11:48.398202 31672 net.cpp:91] Creating Layer fc6
I0403 13:11:48.398221 31672 net.cpp:425] fc6 <- pool5
I0403 13:11:48.398244 31672 net.cpp:399] fc6 -> fc6
I0403 13:11:49.967622 31672 net.cpp:141] Setting up fc6
I0403 13:11:49.967711 31672 net.cpp:148] Top shape: 100 4096 (409600)
I0403 13:11:49.967727 31672 net.cpp:156] Memory required for data: 823334000
I0403 13:11:49.967749 31672 layer_factory.hpp:77] Creating layer relu6
I0403 13:11:49.967772 31672 net.cpp:91] Creating Layer relu6
I0403 13:11:49.967787 31672 net.cpp:425] relu6 <- fc6
I0403 13:11:49.967806 31672 net.cpp:386] relu6 -> fc6 (in-place)
I0403 13:11:49.968034 31672 net.cpp:141] Setting up relu6
I0403 13:11:49.968058 31672 net.cpp:148] Top shape: 100 4096 (409600)
I0403 13:11:49.968073 31672 net.cpp:156] Memory required for data: 824972400
I0403 13:11:49.968087 31672 layer_factory.hpp:77] Creating layer drop6
I0403 13:11:49.968106 31672 net.cpp:91] Creating Layer drop6
I0403 13:11:49.968122 31672 net.cpp:425] drop6 <- fc6
I0403 13:11:49.968142 31672 net.cpp:386] drop6 -> fc6 (in-place)
I0403 13:11:49.968199 31672 net.cpp:141] Setting up drop6
I0403 13:11:49.968226 31672 net.cpp:148] Top shape: 100 4096 (409600)
I0403 13:11:49.968241 31672 net.cpp:156] Memory required for data: 826610800
I0403 13:11:49.968256 31672 layer_factory.hpp:77] Creating layer fc7
I0403 13:11:49.968276 31672 net.cpp:91] Creating Layer fc7
I0403 13:11:49.968292 31672 net.cpp:425] fc7 <- fc6
I0403 13:11:49.968313 31672 net.cpp:399] fc7 -> fc7
I0403 13:11:50.657626 31672 net.cpp:141] Setting up fc7
I0403 13:11:50.657701 31672 net.cpp:148] Top shape: 100 4096 (409600)
I0403 13:11:50.657717 31672 net.cpp:156] Memory required for data: 828249200
I0403 13:11:50.657739 31672 layer_factory.hpp:77] Creating layer relu7
I0403 13:11:50.657762 31672 net.cpp:91] Creating Layer relu7
I0403 13:11:50.657779 31672 net.cpp:425] relu7 <- fc7
I0403 13:11:50.657800 31672 net.cpp:386] relu7 -> fc7 (in-place)
I0403 13:11:50.658232 31672 net.cpp:141] Setting up relu7
I0403 13:11:50.658259 31672 net.cpp:148] Top shape: 100 4096 (409600)
I0403 13:11:50.658305 31672 net.cpp:156] Memory required for data: 829887600
I0403 13:11:50.658323 31672 layer_factory.hpp:77] Creating layer drop7
I0403 13:11:50.658340 31672 net.cpp:91] Creating Layer drop7
I0403 13:11:50.658356 31672 net.cpp:425] drop7 <- fc7
I0403 13:11:50.658375 31672 net.cpp:386] drop7 -> fc7 (in-place)
I0403 13:11:50.658417 31672 net.cpp:141] Setting up drop7
I0403 13:11:50.658442 31672 net.cpp:148] Top shape: 100 4096 (409600)
I0403 13:11:50.658457 31672 net.cpp:156] Memory required for data: 831526000
I0403 13:11:50.658471 31672 layer_factory.hpp:77] Creating layer fc8_plantvillage
I0403 13:11:50.658490 31672 net.cpp:91] Creating Layer fc8_plantvillage
I0403 13:11:50.658506 31672 net.cpp:425] fc8_plantvillage <- fc7
I0403 13:11:50.658538 31672 net.cpp:399] fc8_plantvillage -> fc8_plantvillage
I0403 13:11:50.665210 31672 net.cpp:141] Setting up fc8_plantvillage
I0403 13:11:50.665249 31672 net.cpp:148] Top shape: 100 38 (3800)
I0403 13:11:50.665264 31672 net.cpp:156] Memory required for data: 831541200
I0403 13:11:50.665282 31672 layer_factory.hpp:77] Creating layer fc8_plantvillage_fc8_plantvillage_0_split
I0403 13:11:50.665302 31672 net.cpp:91] Creating Layer fc8_plantvillage_fc8_plantvillage_0_split
I0403 13:11:50.665316 31672 net.cpp:425] fc8_plantvillage_fc8_plantvillage_0_split <- fc8_plantvillage
I0403 13:11:50.665336 31672 net.cpp:399] fc8_plantvillage_fc8_plantvillage_0_split -> fc8_plantvillage_fc8_plantvillage_0_split_0
I0403 13:11:50.665357 31672 net.cpp:399] fc8_plantvillage_fc8_plantvillage_0_split -> fc8_plantvillage_fc8_plantvillage_0_split_1
I0403 13:11:50.665377 31672 net.cpp:399] fc8_plantvillage_fc8_plantvillage_0_split -> fc8_plantvillage_fc8_plantvillage_0_split_2
I0403 13:11:50.665455 31672 net.cpp:141] Setting up fc8_plantvillage_fc8_plantvillage_0_split
I0403 13:11:50.665480 31672 net.cpp:148] Top shape: 100 38 (3800)
I0403 13:11:50.665498 31672 net.cpp:148] Top shape: 100 38 (3800)
I0403 13:11:50.665513 31672 net.cpp:148] Top shape: 100 38 (3800)
I0403 13:11:50.665529 31672 net.cpp:156] Memory required for data: 831586800
I0403 13:11:50.665542 31672 layer_factory.hpp:77] Creating layer prob
I0403 13:11:50.665560 31672 net.cpp:91] Creating Layer prob
I0403 13:11:50.665588 31672 net.cpp:425] prob <- fc8_plantvillage_fc8_plantvillage_0_split_0
I0403 13:11:50.665606 31672 net.cpp:399] prob -> prob
I0403 13:11:50.665828 31672 net.cpp:141] Setting up prob
I0403 13:11:50.665853 31672 net.cpp:148] Top shape: 100 38 (3800)
I0403 13:11:50.665868 31672 net.cpp:156] Memory required for data: 831602000
I0403 13:11:50.665881 31672 layer_factory.hpp:77] Creating layer hdf5out
I0403 13:11:50.665899 31672 net.cpp:91] Creating Layer hdf5out
I0403 13:11:50.665915 31672 net.cpp:425] hdf5out <- prob
I0403 13:11:50.665930 31672 net.cpp:425] hdf5out <- label_data_1_split_0
I0403 13:11:50.668359 31672 net.cpp:141] Setting up hdf5out
…
