…
I0403 13:21:11.062925 31957 net.cpp:313] The NetState phase (1) differed from the phase (0) specified by a rule in layer data
I0403 13:21:11.063249 31957 net.cpp:49] Initializing net from parameters: 
state {
  phase: TEST
}
layer {
  name: "data"
  type: "Data"
  top: "data"
  top: "label"
  include {
    phase: TEST
  }
  transform_param {
    crop_size: 227
    mean_file: "/home/mohanty/data/final_dataset/lmdb/grayscale-60-40/mean.binaryproto"
  }
  data_param {
    source: "/home/mohanty/data/final_dataset/lmdb/grayscale-60-40/test_db"
    batch_size: 100
    backend: LMDB
  }
}
layer {
  name: "conv1"
  type: "Convolution"
  bottom: "data"
  top: "conv1"
  param {
    lr_mult: 1
    decay_mult: 1
  }
  param {
    lr_mult: 2
    decay_mult: 0
  }
  convolution_param {
    num_output: 96
    kernel_size: 11
    stride: 4
    weight_filler {
      type: "gaussian"
      std: 0.01
    }
    bias_filler {
      type: "constant"
      value: 0
    }
  }
}
layer {
  name: "relu1"
  type: "ReLU"
  bottom: "conv1"
  top: "conv1"
}
layer {
  name: "norm1"
  type: "LRN"
  bottom: "conv1"
  top: "norm1"
  lrn_param {
    local_size: 5
    alpha: 0.0001
    beta: 0.75
  }
}
layer {
  name: "pool1"
  type: "Pooling"
  bottom: "norm1"
  top: "pool1"
  pooling_param {
    pool: MAX
    kernel_size: 3
    stride: 2
  }
}
layer {
  name: "conv2"
  type: "Convolution"
  bottom: "pool1"
  top: "conv2"
  param {
    lr_mult: 1
    decay_mult: 1
  }
  param {
    lr_mult: 2
    decay_mult: 0
  }
  convolution_param {
    num_output: 256
    pad: 2
    kernel_size: 5
    group: 2
    weight_filler {
      type: "gaussian"
      std: 0.01
    }
    bias_filler {
      type: "constant"
      value: 0.1
    }
  }
}
layer {
  name: "relu2"
  type: "ReLU"
  bottom: "conv2"
  top: "conv2"
}
layer {
  name: "norm2"
  type: "LRN"
  bottom: "conv2"
  top: "norm2"
  lrn_param {
    local_size: 5
    alpha: 0.0001
    beta: 0.75
  }
}
layer {
  name: "pool2"
  type: "Pooling"
  bottom: "norm2"
  top: "pool2"
  pooling_param {
    pool: MAX
    kernel_size: 3
    stride: 2
  }
}
layer {
  name: "conv3"
  type: "Convolution"
  bottom: "pool2"
  top: "conv3"
  param {
    lr_mult: 1
    decay_mult: 1
  }
  param {
    lr_mult: 2
    decay_mult: 0
  }
  convolution_param {
    num_output: 384
    pad: 1
    kernel_size: 3
    weight_filler {
      type: "gaussian"
      std: 0.01
    }
    bias_filler {
      type: "constant"
      value: 0
    }
  }
}
layer {
  name: "relu3"
  type: "ReLU"
  bottom: "conv3"
  top: "conv3"
}
layer {
  name: "conv4"
  type: "Convolution"
  bottom: "conv3"
  top: "conv4"
  param {
    lr_mult: 1
    decay_mult: 1
  }
  param {
    lr_mult: 2
    decay_mult: 0
  }
  convolution_param {
    num_output: 384
    pad: 1
    kernel_size: 3
    group: 2
    weight_filler {
      type: "gaussian"
      std: 0.01
    }
    bias_filler {
      type: "constant"
      value: 0.1
    }
  }
}
layer {
  name: "relu4"
  type: "ReLU"
  bottom: "conv4"
  top: "conv4"
}
layer {
  name: "conv5"
  type: "Convolution"
  bottom: "conv4"
  top: "conv5"
  param {
    lr_mult: 1
    decay_mult: 1
  }
  param {
    lr_mult: 2
    decay_mult: 0
  }
  convolution_param {
    num_output: 256
    pad: 1
    kernel_size: 3
    group: 2
    weight_filler {
      type: "gaussian"
      std: 0.01
    }
    bias_filler {
      type: "constant"
      value: 0.1
    }
  }
}
layer {
  name: "relu5"
  type: "ReLU"
  bottom: "conv5"
  top: "conv5"
}
layer {
  name: "pool5"
  type: "Pooling"
  bottom: "conv5"
  top: "pool5"
  pooling_param {
    pool: MAX
    kernel_size: 3
    stride: 2
  }
}
layer {
  name: "fc6"
  type: "InnerProduct"
  bottom: "pool5"
  top: "fc6"
  param {
    lr_mult: 1
    decay_mult: 1
  }
  param {
    lr_mult: 2
    decay_mult: 0
  }
  inner_product_param {
    num_output: 4096
    weight_filler {
      type: "gaussian"
      std: 0.005
    }
    bias_filler {
      type: "constant"
      value: 0.1
    }
  }
}
layer {
  name: "relu6"
  type: "ReLU"
  bottom: "fc6"
  top: "fc6"
}
layer {
  name: "drop6"
  type: "Dropout"
  bottom: "fc6"
  top: "fc6"
  dropout_param {
    dropout_ratio: 0.5
  }
}
layer {
  name: "fc7"
  type: "InnerProduct"
  bottom: "fc6"
  top: "fc7"
  param {
    lr_mult: 1
    decay_mult: 1
  }
  param {
    lr_mult: 2
    decay_mult: 0
  }
  inner_product_param {
    num_output: 4096
    weight_filler {
      type: "gaussian"
      std: 0.005
    }
    bias_filler {
      type: "constant"
      value: 0.1
    }
  }
}
layer {
  name: "relu7"
  type: "ReLU"
  bottom: "fc7"
  top: "fc7"
}
layer {
  name: "drop7"
  type: "Dropout"
  bottom: "fc7"
  top: "fc7"
  dropout_param {
    dropout_ratio: 0.5
  }
}
layer {
  name: "fc8_plantvillage"
  type: "InnerProduct"
  bottom: "fc7"
  top: "fc8_plantvillage"
  param {
    lr_mult: 1
    decay_mult: 1
  }
  param {
    lr_mult: 2
    decay_mult: 0
  }
  inner_product_param {
    num_output: 38
    weight_filler {
      type: "gaussian"
      std: 0.01
    }
    bias_filler {
      type: "constant"
      value: 0
    }
  }
}
layer {
  name: "prob"
  type: "Softmax"
  bottom: "fc8_plantvillage"
  top: "prob"
  include {
    phase: TEST
  }
}
layer {
  name: "hdf5out"
  type: "HDF5Output"
  bottom: "prob"
  bottom: "label"
  include {
    phase: TEST
  }
  hdf5_output_param {
    file_name: "hdf5_dumps/iter_5200.h5"
  }
}
layer {
  name: "loss"
  type: "SoftmaxWithLoss"
  bottom: "fc8_plantvillage"
  bottom: "label"
  top: "loss"
}
layer {
  name: "accuracy"
  type: "Accuracy"
  bottom: "fc8_plantvillage"
  bottom: "label"
  top: "accuracy"
  include {
    phase: TEST
  }
}
I0403 13:21:11.063885 31957 layer_factory.hpp:77] Creating layer data
I0403 13:21:11.064551 31957 net.cpp:91] Creating Layer data
I0403 13:21:11.064585 31957 net.cpp:399] data -> data
I0403 13:21:11.064637 31957 net.cpp:399] data -> label
I0403 13:21:11.064674 31957 data_transformer.cpp:25] Loading mean file from: /home/mohanty/data/final_dataset/lmdb/grayscale-60-40/mean.binaryproto
I0403 13:21:11.067633 31960 db_lmdb.cpp:38] Opened lmdb /home/mohanty/data/final_dataset/lmdb/grayscale-60-40/test_db
I0403 13:21:11.084826 31957 data_layer.cpp:41] output data size: 100,3,227,227
I0403 13:21:11.207813 31957 net.cpp:141] Setting up data
I0403 13:21:11.207918 31957 net.cpp:148] Top shape: 100 3 227 227 (15458700)
I0403 13:21:11.207940 31957 net.cpp:148] Top shape: 100 (100)
I0403 13:21:11.207955 31957 net.cpp:156] Memory required for data: 61835200
I0403 13:21:11.207983 31957 layer_factory.hpp:77] Creating layer label_data_1_split
I0403 13:21:11.208009 31957 net.cpp:91] Creating Layer label_data_1_split
I0403 13:21:11.208026 31957 net.cpp:425] label_data_1_split <- label
I0403 13:21:11.208058 31957 net.cpp:399] label_data_1_split -> label_data_1_split_0
I0403 13:21:11.208086 31957 net.cpp:399] label_data_1_split -> label_data_1_split_1
I0403 13:21:11.208106 31957 net.cpp:399] label_data_1_split -> label_data_1_split_2
I0403 13:21:11.208168 31957 net.cpp:141] Setting up label_data_1_split
I0403 13:21:11.208195 31957 net.cpp:148] Top shape: 100 (100)
I0403 13:21:11.208212 31957 net.cpp:148] Top shape: 100 (100)
I0403 13:21:11.208228 31957 net.cpp:148] Top shape: 100 (100)
I0403 13:21:11.208243 31957 net.cpp:156] Memory required for data: 61836400
I0403 13:21:11.208258 31957 layer_factory.hpp:77] Creating layer conv1
I0403 13:21:11.208289 31957 net.cpp:91] Creating Layer conv1
I0403 13:21:11.208307 31957 net.cpp:425] conv1 <- data
I0403 13:21:11.208328 31957 net.cpp:399] conv1 -> conv1
I0403 13:21:11.355466 31957 net.cpp:141] Setting up conv1
I0403 13:21:11.355556 31957 net.cpp:148] Top shape: 100 96 55 55 (29040000)
I0403 13:21:11.355573 31957 net.cpp:156] Memory required for data: 177996400
I0403 13:21:11.355605 31957 layer_factory.hpp:77] Creating layer relu1
I0403 13:21:11.355633 31957 net.cpp:91] Creating Layer relu1
I0403 13:21:11.355651 31957 net.cpp:425] relu1 <- conv1
I0403 13:21:11.355671 31957 net.cpp:386] relu1 -> conv1 (in-place)
I0403 13:21:11.355947 31957 net.cpp:141] Setting up relu1
I0403 13:21:11.355973 31957 net.cpp:148] Top shape: 100 96 55 55 (29040000)
I0403 13:21:11.356020 31957 net.cpp:156] Memory required for data: 294156400
I0403 13:21:11.356037 31957 layer_factory.hpp:77] Creating layer norm1
I0403 13:21:11.356067 31957 net.cpp:91] Creating Layer norm1
I0403 13:21:11.356086 31957 net.cpp:425] norm1 <- conv1
I0403 13:21:11.356104 31957 net.cpp:399] norm1 -> norm1
I0403 13:21:11.356439 31957 net.cpp:141] Setting up norm1
I0403 13:21:11.356470 31957 net.cpp:148] Top shape: 100 96 55 55 (29040000)
I0403 13:21:11.356487 31957 net.cpp:156] Memory required for data: 410316400
I0403 13:21:11.356503 31957 layer_factory.hpp:77] Creating layer pool1
I0403 13:21:11.356526 31957 net.cpp:91] Creating Layer pool1
I0403 13:21:11.356544 31957 net.cpp:425] pool1 <- norm1
I0403 13:21:11.356562 31957 net.cpp:399] pool1 -> pool1
I0403 13:21:11.356634 31957 net.cpp:141] Setting up pool1
I0403 13:21:11.356658 31957 net.cpp:148] Top shape: 100 96 27 27 (6998400)
I0403 13:21:11.356673 31957 net.cpp:156] Memory required for data: 438310000
I0403 13:21:11.356688 31957 layer_factory.hpp:77] Creating layer conv2
I0403 13:21:11.356715 31957 net.cpp:91] Creating Layer conv2
I0403 13:21:11.356734 31957 net.cpp:425] conv2 <- pool1
I0403 13:21:11.356755 31957 net.cpp:399] conv2 -> conv2
I0403 13:21:11.372617 31957 net.cpp:141] Setting up conv2
I0403 13:21:11.372670 31957 net.cpp:148] Top shape: 100 256 27 27 (18662400)
I0403 13:21:11.372687 31957 net.cpp:156] Memory required for data: 512959600
I0403 13:21:11.372711 31957 layer_factory.hpp:77] Creating layer relu2
I0403 13:21:11.372735 31957 net.cpp:91] Creating Layer relu2
I0403 13:21:11.372752 31957 net.cpp:425] relu2 <- conv2
I0403 13:21:11.372771 31957 net.cpp:386] relu2 -> conv2 (in-place)
I0403 13:21:11.373119 31957 net.cpp:141] Setting up relu2
I0403 13:21:11.373150 31957 net.cpp:148] Top shape: 100 256 27 27 (18662400)
I0403 13:21:11.373167 31957 net.cpp:156] Memory required for data: 587609200
I0403 13:21:11.373194 31957 layer_factory.hpp:77] Creating layer norm2
I0403 13:21:11.373221 31957 net.cpp:91] Creating Layer norm2
I0403 13:21:11.373240 31957 net.cpp:425] norm2 <- conv2
I0403 13:21:11.373260 31957 net.cpp:399] norm2 -> norm2
I0403 13:21:11.373471 31957 net.cpp:141] Setting up norm2
I0403 13:21:11.373498 31957 net.cpp:148] Top shape: 100 256 27 27 (18662400)
I0403 13:21:11.373513 31957 net.cpp:156] Memory required for data: 662258800
I0403 13:21:11.373529 31957 layer_factory.hpp:77] Creating layer pool2
I0403 13:21:11.373551 31957 net.cpp:91] Creating Layer pool2
I0403 13:21:11.373567 31957 net.cpp:425] pool2 <- norm2
I0403 13:21:11.373585 31957 net.cpp:399] pool2 -> pool2
I0403 13:21:11.373641 31957 net.cpp:141] Setting up pool2
I0403 13:21:11.373666 31957 net.cpp:148] Top shape: 100 256 13 13 (4326400)
I0403 13:21:11.373680 31957 net.cpp:156] Memory required for data: 679564400
I0403 13:21:11.373697 31957 layer_factory.hpp:77] Creating layer conv3
I0403 13:21:11.373720 31957 net.cpp:91] Creating Layer conv3
I0403 13:21:11.373739 31957 net.cpp:425] conv3 <- pool2
I0403 13:21:11.373759 31957 net.cpp:399] conv3 -> conv3
I0403 13:21:11.414376 31957 net.cpp:141] Setting up conv3
I0403 13:21:11.414464 31957 net.cpp:148] Top shape: 100 384 13 13 (6489600)
I0403 13:21:11.414484 31957 net.cpp:156] Memory required for data: 705522800
I0403 13:21:11.414511 31957 layer_factory.hpp:77] Creating layer relu3
I0403 13:21:11.414535 31957 net.cpp:91] Creating Layer relu3
I0403 13:21:11.414553 31957 net.cpp:425] relu3 <- conv3
I0403 13:21:11.414573 31957 net.cpp:386] relu3 -> conv3 (in-place)
I0403 13:21:11.414865 31957 net.cpp:141] Setting up relu3
I0403 13:21:11.414896 31957 net.cpp:148] Top shape: 100 384 13 13 (6489600)
I0403 13:21:11.414911 31957 net.cpp:156] Memory required for data: 731481200
I0403 13:21:11.414927 31957 layer_factory.hpp:77] Creating layer conv4
I0403 13:21:11.414954 31957 net.cpp:91] Creating Layer conv4
I0403 13:21:11.414973 31957 net.cpp:425] conv4 <- conv3
I0403 13:21:11.414993 31957 net.cpp:399] conv4 -> conv4
I0403 13:21:11.446298 31957 net.cpp:141] Setting up conv4
I0403 13:21:11.446375 31957 net.cpp:148] Top shape: 100 384 13 13 (6489600)
I0403 13:21:11.446424 31957 net.cpp:156] Memory required for data: 757439600
I0403 13:21:11.446447 31957 layer_factory.hpp:77] Creating layer relu4
I0403 13:21:11.446473 31957 net.cpp:91] Creating Layer relu4
I0403 13:21:11.446491 31957 net.cpp:425] relu4 <- conv4
I0403 13:21:11.446511 31957 net.cpp:386] relu4 -> conv4 (in-place)
I0403 13:21:11.446861 31957 net.cpp:141] Setting up relu4
I0403 13:21:11.446889 31957 net.cpp:148] Top shape: 100 384 13 13 (6489600)
I0403 13:21:11.446905 31957 net.cpp:156] Memory required for data: 783398000
I0403 13:21:11.446920 31957 layer_factory.hpp:77] Creating layer conv5
I0403 13:21:11.446948 31957 net.cpp:91] Creating Layer conv5
I0403 13:21:11.446964 31957 net.cpp:425] conv5 <- conv4
I0403 13:21:11.446986 31957 net.cpp:399] conv5 -> conv5
I0403 13:21:11.468196 31957 net.cpp:141] Setting up conv5
I0403 13:21:11.468235 31957 net.cpp:148] Top shape: 100 256 13 13 (4326400)
I0403 13:21:11.468252 31957 net.cpp:156] Memory required for data: 800703600
I0403 13:21:11.468276 31957 layer_factory.hpp:77] Creating layer relu5
I0403 13:21:11.468302 31957 net.cpp:91] Creating Layer relu5
I0403 13:21:11.468318 31957 net.cpp:425] relu5 <- conv5
I0403 13:21:11.468338 31957 net.cpp:386] relu5 -> conv5 (in-place)
I0403 13:21:11.468658 31957 net.cpp:141] Setting up relu5
I0403 13:21:11.468688 31957 net.cpp:148] Top shape: 100 256 13 13 (4326400)
I0403 13:21:11.468704 31957 net.cpp:156] Memory required for data: 818009200
I0403 13:21:11.468720 31957 layer_factory.hpp:77] Creating layer pool5
I0403 13:21:11.468742 31957 net.cpp:91] Creating Layer pool5
I0403 13:21:11.468760 31957 net.cpp:425] pool5 <- conv5
I0403 13:21:11.468780 31957 net.cpp:399] pool5 -> pool5
I0403 13:21:11.468842 31957 net.cpp:141] Setting up pool5
I0403 13:21:11.468868 31957 net.cpp:148] Top shape: 100 256 6 6 (921600)
I0403 13:21:11.468884 31957 net.cpp:156] Memory required for data: 821695600
I0403 13:21:11.468899 31957 layer_factory.hpp:77] Creating layer fc6
I0403 13:21:11.468926 31957 net.cpp:91] Creating Layer fc6
I0403 13:21:11.468945 31957 net.cpp:425] fc6 <- pool5
I0403 13:21:11.468966 31957 net.cpp:399] fc6 -> fc6
I0403 13:21:13.343745 31957 net.cpp:141] Setting up fc6
I0403 13:21:13.343843 31957 net.cpp:148] Top shape: 100 4096 (409600)
I0403 13:21:13.343860 31957 net.cpp:156] Memory required for data: 823334000
I0403 13:21:13.343883 31957 layer_factory.hpp:77] Creating layer relu6
I0403 13:21:13.343906 31957 net.cpp:91] Creating Layer relu6
I0403 13:21:13.343924 31957 net.cpp:425] relu6 <- fc6
I0403 13:21:13.343943 31957 net.cpp:386] relu6 -> fc6 (in-place)
I0403 13:21:13.344171 31957 net.cpp:141] Setting up relu6
I0403 13:21:13.344194 31957 net.cpp:148] Top shape: 100 4096 (409600)
I0403 13:21:13.344215 31957 net.cpp:156] Memory required for data: 824972400
I0403 13:21:13.344245 31957 layer_factory.hpp:77] Creating layer drop6
I0403 13:21:13.344267 31957 net.cpp:91] Creating Layer drop6
I0403 13:21:13.344298 31957 net.cpp:425] drop6 <- fc6
I0403 13:21:13.344316 31957 net.cpp:386] drop6 -> fc6 (in-place)
I0403 13:21:13.344375 31957 net.cpp:141] Setting up drop6
I0403 13:21:13.344398 31957 net.cpp:148] Top shape: 100 4096 (409600)
I0403 13:21:13.344413 31957 net.cpp:156] Memory required for data: 826610800
I0403 13:21:13.344429 31957 layer_factory.hpp:77] Creating layer fc7
I0403 13:21:13.344458 31957 net.cpp:91] Creating Layer fc7
I0403 13:21:13.344485 31957 net.cpp:425] fc7 <- fc6
I0403 13:21:13.344503 31957 net.cpp:399] fc7 -> fc7
I0403 13:21:14.698745 31957 net.cpp:141] Setting up fc7
I0403 13:21:14.698845 31957 net.cpp:148] Top shape: 100 4096 (409600)
I0403 13:21:14.698863 31957 net.cpp:156] Memory required for data: 828249200
I0403 13:21:14.698886 31957 layer_factory.hpp:77] Creating layer relu7
I0403 13:21:14.698910 31957 net.cpp:91] Creating Layer relu7
I0403 13:21:14.698928 31957 net.cpp:425] relu7 <- fc7
I0403 13:21:14.698947 31957 net.cpp:386] relu7 -> fc7 (in-place)
I0403 13:21:14.699391 31957 net.cpp:141] Setting up relu7
I0403 13:21:14.699431 31957 net.cpp:148] Top shape: 100 4096 (409600)
I0403 13:21:14.699481 31957 net.cpp:156] Memory required for data: 829887600
I0403 13:21:14.699498 31957 layer_factory.hpp:77] Creating layer drop7
I0403 13:21:14.699518 31957 net.cpp:91] Creating Layer drop7
I0403 13:21:14.699533 31957 net.cpp:425] drop7 <- fc7
I0403 13:21:14.699551 31957 net.cpp:386] drop7 -> fc7 (in-place)
I0403 13:21:14.699602 31957 net.cpp:141] Setting up drop7
I0403 13:21:14.699625 31957 net.cpp:148] Top shape: 100 4096 (409600)
I0403 13:21:14.699640 31957 net.cpp:156] Memory required for data: 831526000
I0403 13:21:14.699654 31957 layer_factory.hpp:77] Creating layer fc8_plantvillage
I0403 13:21:14.699677 31957 net.cpp:91] Creating Layer fc8_plantvillage
I0403 13:21:14.699694 31957 net.cpp:425] fc8_plantvillage <- fc7
I0403 13:21:14.699712 31957 net.cpp:399] fc8_plantvillage -> fc8_plantvillage
I0403 13:21:14.707372 31957 net.cpp:141] Setting up fc8_plantvillage
I0403 13:21:14.707407 31957 net.cpp:148] Top shape: 100 38 (3800)
I0403 13:21:14.707422 31957 net.cpp:156] Memory required for data: 831541200
I0403 13:21:14.707442 31957 layer_factory.hpp:77] Creating layer fc8_plantvillage_fc8_plantvillage_0_split
I0403 13:21:14.707463 31957 net.cpp:91] Creating Layer fc8_plantvillage_fc8_plantvillage_0_split
I0403 13:21:14.707479 31957 net.cpp:425] fc8_plantvillage_fc8_plantvillage_0_split <- fc8_plantvillage
I0403 13:21:14.707496 31957 net.cpp:399] fc8_plantvillage_fc8_plantvillage_0_split -> fc8_plantvillage_fc8_plantvillage_0_split_0
I0403 13:21:14.707520 31957 net.cpp:399] fc8_plantvillage_fc8_plantvillage_0_split -> fc8_plantvillage_fc8_plantvillage_0_split_1
I0403 13:21:14.707540 31957 net.cpp:399] fc8_plantvillage_fc8_plantvillage_0_split -> fc8_plantvillage_fc8_plantvillage_0_split_2
I0403 13:21:14.707617 31957 net.cpp:141] Setting up fc8_plantvillage_fc8_plantvillage_0_split
I0403 13:21:14.707641 31957 net.cpp:148] Top shape: 100 38 (3800)
I0403 13:21:14.707658 31957 net.cpp:148] Top shape: 100 38 (3800)
I0403 13:21:14.707672 31957 net.cpp:148] Top shape: 100 38 (3800)
I0403 13:21:14.707686 31957 net.cpp:156] Memory required for data: 831586800
I0403 13:21:14.707700 31957 layer_factory.hpp:77] Creating layer prob
I0403 13:21:14.707721 31957 net.cpp:91] Creating Layer prob
I0403 13:21:14.707737 31957 net.cpp:425] prob <- fc8_plantvillage_fc8_plantvillage_0_split_0
I0403 13:21:14.707756 31957 net.cpp:399] prob -> prob
I0403 13:21:14.707990 31957 net.cpp:141] Setting up prob
I0403 13:21:14.708015 31957 net.cpp:148] Top shape: 100 38 (3800)
I0403 13:21:14.708030 31957 net.cpp:156] Memory required for data: 831602000
I0403 13:21:14.708045 31957 layer_factory.hpp:77] Creating layer hdf5out
I0403 13:21:14.708067 31957 net.cpp:91] Creating Layer hdf5out
I0403 13:21:14.708083 31957 net.cpp:425] hdf5out <- prob
I0403 13:21:14.708099 31957 net.cpp:425] hdf5out <- label_data_1_split_0
I0403 13:21:14.710315 31957 net.cpp:141] Setting up hdf5out
…
