…
I0403 13:20:24.433003 31936 net.cpp:313] The NetState phase (1) differed from the phase (0) specified by a rule in layer data
I0403 13:20:24.433327 31936 net.cpp:49] Initializing net from parameters: 
state {
  phase: TEST
}
layer {
  name: "data"
  type: "Data"
  top: "data"
  top: "label"
  include {
    phase: TEST
  }
  transform_param {
    crop_size: 227
    mean_file: "/home/mohanty/data/final_dataset/lmdb/grayscale-60-40/mean.binaryproto"
  }
  data_param {
    source: "/home/mohanty/data/final_dataset/lmdb/grayscale-60-40/test_db"
    batch_size: 100
    backend: LMDB
  }
}
layer {
  name: "conv1"
  type: "Convolution"
  bottom: "data"
  top: "conv1"
  param {
    lr_mult: 1
    decay_mult: 1
  }
  param {
    lr_mult: 2
    decay_mult: 0
  }
  convolution_param {
    num_output: 96
    kernel_size: 11
    stride: 4
    weight_filler {
      type: "gaussian"
      std: 0.01
    }
    bias_filler {
      type: "constant"
      value: 0
    }
  }
}
layer {
  name: "relu1"
  type: "ReLU"
  bottom: "conv1"
  top: "conv1"
}
layer {
  name: "norm1"
  type: "LRN"
  bottom: "conv1"
  top: "norm1"
  lrn_param {
    local_size: 5
    alpha: 0.0001
    beta: 0.75
  }
}
layer {
  name: "pool1"
  type: "Pooling"
  bottom: "norm1"
  top: "pool1"
  pooling_param {
    pool: MAX
    kernel_size: 3
    stride: 2
  }
}
layer {
  name: "conv2"
  type: "Convolution"
  bottom: "pool1"
  top: "conv2"
  param {
    lr_mult: 1
    decay_mult: 1
  }
  param {
    lr_mult: 2
    decay_mult: 0
  }
  convolution_param {
    num_output: 256
    pad: 2
    kernel_size: 5
    group: 2
    weight_filler {
      type: "gaussian"
      std: 0.01
    }
    bias_filler {
      type: "constant"
      value: 0.1
    }
  }
}
layer {
  name: "relu2"
  type: "ReLU"
  bottom: "conv2"
  top: "conv2"
}
layer {
  name: "norm2"
  type: "LRN"
  bottom: "conv2"
  top: "norm2"
  lrn_param {
    local_size: 5
    alpha: 0.0001
    beta: 0.75
  }
}
layer {
  name: "pool2"
  type: "Pooling"
  bottom: "norm2"
  top: "pool2"
  pooling_param {
    pool: MAX
    kernel_size: 3
    stride: 2
  }
}
layer {
  name: "conv3"
  type: "Convolution"
  bottom: "pool2"
  top: "conv3"
  param {
    lr_mult: 1
    decay_mult: 1
  }
  param {
    lr_mult: 2
    decay_mult: 0
  }
  convolution_param {
    num_output: 384
    pad: 1
    kernel_size: 3
    weight_filler {
      type: "gaussian"
      std: 0.01
    }
    bias_filler {
      type: "constant"
      value: 0
    }
  }
}
layer {
  name: "relu3"
  type: "ReLU"
  bottom: "conv3"
  top: "conv3"
}
layer {
  name: "conv4"
  type: "Convolution"
  bottom: "conv3"
  top: "conv4"
  param {
    lr_mult: 1
    decay_mult: 1
  }
  param {
    lr_mult: 2
    decay_mult: 0
  }
  convolution_param {
    num_output: 384
    pad: 1
    kernel_size: 3
    group: 2
    weight_filler {
      type: "gaussian"
      std: 0.01
    }
    bias_filler {
      type: "constant"
      value: 0.1
    }
  }
}
layer {
  name: "relu4"
  type: "ReLU"
  bottom: "conv4"
  top: "conv4"
}
layer {
  name: "conv5"
  type: "Convolution"
  bottom: "conv4"
  top: "conv5"
  param {
    lr_mult: 1
    decay_mult: 1
  }
  param {
    lr_mult: 2
    decay_mult: 0
  }
  convolution_param {
    num_output: 256
    pad: 1
    kernel_size: 3
    group: 2
    weight_filler {
      type: "gaussian"
      std: 0.01
    }
    bias_filler {
      type: "constant"
      value: 0.1
    }
  }
}
layer {
  name: "relu5"
  type: "ReLU"
  bottom: "conv5"
  top: "conv5"
}
layer {
  name: "pool5"
  type: "Pooling"
  bottom: "conv5"
  top: "pool5"
  pooling_param {
    pool: MAX
    kernel_size: 3
    stride: 2
  }
}
layer {
  name: "fc6"
  type: "InnerProduct"
  bottom: "pool5"
  top: "fc6"
  param {
    lr_mult: 1
    decay_mult: 1
  }
  param {
    lr_mult: 2
    decay_mult: 0
  }
  inner_product_param {
    num_output: 4096
    weight_filler {
      type: "gaussian"
      std: 0.005
    }
    bias_filler {
      type: "constant"
      value: 0.1
    }
  }
}
layer {
  name: "relu6"
  type: "ReLU"
  bottom: "fc6"
  top: "fc6"
}
layer {
  name: "drop6"
  type: "Dropout"
  bottom: "fc6"
  top: "fc6"
  dropout_param {
    dropout_ratio: 0.5
  }
}
layer {
  name: "fc7"
  type: "InnerProduct"
  bottom: "fc6"
  top: "fc7"
  param {
    lr_mult: 1
    decay_mult: 1
  }
  param {
    lr_mult: 2
    decay_mult: 0
  }
  inner_product_param {
    num_output: 4096
    weight_filler {
      type: "gaussian"
      std: 0.005
    }
    bias_filler {
      type: "constant"
      value: 0.1
    }
  }
}
layer {
  name: "relu7"
  type: "ReLU"
  bottom: "fc7"
  top: "fc7"
}
layer {
  name: "drop7"
  type: "Dropout"
  bottom: "fc7"
  top: "fc7"
  dropout_param {
    dropout_ratio: 0.5
  }
}
layer {
  name: "fc8_plantvillage"
  type: "InnerProduct"
  bottom: "fc7"
  top: "fc8_plantvillage"
  param {
    lr_mult: 1
    decay_mult: 1
  }
  param {
    lr_mult: 2
    decay_mult: 0
  }
  inner_product_param {
    num_output: 38
    weight_filler {
      type: "gaussian"
      std: 0.01
    }
    bias_filler {
      type: "constant"
      value: 0
    }
  }
}
layer {
  name: "prob"
  type: "Softmax"
  bottom: "fc8_plantvillage"
  top: "prob"
  include {
    phase: TEST
  }
}
layer {
  name: "hdf5out"
  type: "HDF5Output"
  bottom: "prob"
  bottom: "label"
  include {
    phase: TEST
  }
  hdf5_output_param {
    file_name: "hdf5_dumps/iter_4875.h5"
  }
}
layer {
  name: "loss"
  type: "SoftmaxWithLoss"
  bottom: "fc8_plantvillage"
  bottom: "label"
  top: "loss"
}
layer {
  name: "accuracy"
  type: "Accuracy"
  bottom: "fc8_plantvillage"
  bottom: "label"
  top: "accuracy"
  include {
    phase: TEST
  }
}
I0403 13:20:24.433894 31936 layer_factory.hpp:77] Creating layer data
I0403 13:20:24.434532 31936 net.cpp:91] Creating Layer data
I0403 13:20:24.434563 31936 net.cpp:399] data -> data
I0403 13:20:24.434617 31936 net.cpp:399] data -> label
I0403 13:20:24.434653 31936 data_transformer.cpp:25] Loading mean file from: /home/mohanty/data/final_dataset/lmdb/grayscale-60-40/mean.binaryproto
I0403 13:20:24.437769 31939 db_lmdb.cpp:38] Opened lmdb /home/mohanty/data/final_dataset/lmdb/grayscale-60-40/test_db
I0403 13:20:24.449240 31936 data_layer.cpp:41] output data size: 100,3,227,227
I0403 13:20:24.570574 31936 net.cpp:141] Setting up data
I0403 13:20:24.570678 31936 net.cpp:148] Top shape: 100 3 227 227 (15458700)
I0403 13:20:24.570703 31936 net.cpp:148] Top shape: 100 (100)
I0403 13:20:24.570719 31936 net.cpp:156] Memory required for data: 61835200
I0403 13:20:24.570747 31936 layer_factory.hpp:77] Creating layer label_data_1_split
I0403 13:20:24.570775 31936 net.cpp:91] Creating Layer label_data_1_split
I0403 13:20:24.570794 31936 net.cpp:425] label_data_1_split <- label
I0403 13:20:24.570825 31936 net.cpp:399] label_data_1_split -> label_data_1_split_0
I0403 13:20:24.570852 31936 net.cpp:399] label_data_1_split -> label_data_1_split_1
I0403 13:20:24.570873 31936 net.cpp:399] label_data_1_split -> label_data_1_split_2
I0403 13:20:24.570935 31936 net.cpp:141] Setting up label_data_1_split
I0403 13:20:24.570958 31936 net.cpp:148] Top shape: 100 (100)
I0403 13:20:24.570976 31936 net.cpp:148] Top shape: 100 (100)
I0403 13:20:24.570991 31936 net.cpp:148] Top shape: 100 (100)
I0403 13:20:24.571005 31936 net.cpp:156] Memory required for data: 61836400
I0403 13:20:24.571020 31936 layer_factory.hpp:77] Creating layer conv1
I0403 13:20:24.571053 31936 net.cpp:91] Creating Layer conv1
I0403 13:20:24.571070 31936 net.cpp:425] conv1 <- data
I0403 13:20:24.571089 31936 net.cpp:399] conv1 -> conv1
I0403 13:20:24.716239 31936 net.cpp:141] Setting up conv1
I0403 13:20:24.716326 31936 net.cpp:148] Top shape: 100 96 55 55 (29040000)
I0403 13:20:24.716344 31936 net.cpp:156] Memory required for data: 177996400
I0403 13:20:24.716377 31936 layer_factory.hpp:77] Creating layer relu1
I0403 13:20:24.716405 31936 net.cpp:91] Creating Layer relu1
I0403 13:20:24.716424 31936 net.cpp:425] relu1 <- conv1
I0403 13:20:24.716445 31936 net.cpp:386] relu1 -> conv1 (in-place)
I0403 13:20:24.716707 31936 net.cpp:141] Setting up relu1
I0403 13:20:24.716735 31936 net.cpp:148] Top shape: 100 96 55 55 (29040000)
I0403 13:20:24.716784 31936 net.cpp:156] Memory required for data: 294156400
I0403 13:20:24.716800 31936 layer_factory.hpp:77] Creating layer norm1
I0403 13:20:24.716828 31936 net.cpp:91] Creating Layer norm1
I0403 13:20:24.716847 31936 net.cpp:425] norm1 <- conv1
I0403 13:20:24.716867 31936 net.cpp:399] norm1 -> norm1
I0403 13:20:24.717187 31936 net.cpp:141] Setting up norm1
I0403 13:20:24.717221 31936 net.cpp:148] Top shape: 100 96 55 55 (29040000)
I0403 13:20:24.717238 31936 net.cpp:156] Memory required for data: 410316400
I0403 13:20:24.717254 31936 layer_factory.hpp:77] Creating layer pool1
I0403 13:20:24.717279 31936 net.cpp:91] Creating Layer pool1
I0403 13:20:24.717298 31936 net.cpp:425] pool1 <- norm1
I0403 13:20:24.717317 31936 net.cpp:399] pool1 -> pool1
I0403 13:20:24.717386 31936 net.cpp:141] Setting up pool1
I0403 13:20:24.717411 31936 net.cpp:148] Top shape: 100 96 27 27 (6998400)
I0403 13:20:24.717427 31936 net.cpp:156] Memory required for data: 438310000
I0403 13:20:24.717443 31936 layer_factory.hpp:77] Creating layer conv2
I0403 13:20:24.717469 31936 net.cpp:91] Creating Layer conv2
I0403 13:20:24.717486 31936 net.cpp:425] conv2 <- pool1
I0403 13:20:24.717506 31936 net.cpp:399] conv2 -> conv2
I0403 13:20:24.733335 31936 net.cpp:141] Setting up conv2
I0403 13:20:24.733393 31936 net.cpp:148] Top shape: 100 256 27 27 (18662400)
I0403 13:20:24.733412 31936 net.cpp:156] Memory required for data: 512959600
I0403 13:20:24.733435 31936 layer_factory.hpp:77] Creating layer relu2
I0403 13:20:24.733456 31936 net.cpp:91] Creating Layer relu2
I0403 13:20:24.733474 31936 net.cpp:425] relu2 <- conv2
I0403 13:20:24.733495 31936 net.cpp:386] relu2 -> conv2 (in-place)
I0403 13:20:24.733786 31936 net.cpp:141] Setting up relu2
I0403 13:20:24.733814 31936 net.cpp:148] Top shape: 100 256 27 27 (18662400)
I0403 13:20:24.733830 31936 net.cpp:156] Memory required for data: 587609200
I0403 13:20:24.733846 31936 layer_factory.hpp:77] Creating layer norm2
I0403 13:20:24.733872 31936 net.cpp:91] Creating Layer norm2
I0403 13:20:24.733891 31936 net.cpp:425] norm2 <- conv2
I0403 13:20:24.733911 31936 net.cpp:399] norm2 -> norm2
I0403 13:20:24.734119 31936 net.cpp:141] Setting up norm2
I0403 13:20:24.734145 31936 net.cpp:148] Top shape: 100 256 27 27 (18662400)
I0403 13:20:24.734161 31936 net.cpp:156] Memory required for data: 662258800
I0403 13:20:24.734177 31936 layer_factory.hpp:77] Creating layer pool2
I0403 13:20:24.734196 31936 net.cpp:91] Creating Layer pool2
I0403 13:20:24.734217 31936 net.cpp:425] pool2 <- norm2
I0403 13:20:24.734241 31936 net.cpp:399] pool2 -> pool2
I0403 13:20:24.734297 31936 net.cpp:141] Setting up pool2
I0403 13:20:24.734320 31936 net.cpp:148] Top shape: 100 256 13 13 (4326400)
I0403 13:20:24.734335 31936 net.cpp:156] Memory required for data: 679564400
I0403 13:20:24.734350 31936 layer_factory.hpp:77] Creating layer conv3
I0403 13:20:24.734377 31936 net.cpp:91] Creating Layer conv3
I0403 13:20:24.734395 31936 net.cpp:425] conv3 <- pool2
I0403 13:20:24.734414 31936 net.cpp:399] conv3 -> conv3
I0403 13:20:24.774720 31936 net.cpp:141] Setting up conv3
I0403 13:20:24.774809 31936 net.cpp:148] Top shape: 100 384 13 13 (6489600)
I0403 13:20:24.774828 31936 net.cpp:156] Memory required for data: 705522800
I0403 13:20:24.774857 31936 layer_factory.hpp:77] Creating layer relu3
I0403 13:20:24.774879 31936 net.cpp:91] Creating Layer relu3
I0403 13:20:24.774899 31936 net.cpp:425] relu3 <- conv3
I0403 13:20:24.774921 31936 net.cpp:386] relu3 -> conv3 (in-place)
I0403 13:20:24.775254 31936 net.cpp:141] Setting up relu3
I0403 13:20:24.775284 31936 net.cpp:148] Top shape: 100 384 13 13 (6489600)
I0403 13:20:24.775300 31936 net.cpp:156] Memory required for data: 731481200
I0403 13:20:24.775315 31936 layer_factory.hpp:77] Creating layer conv4
I0403 13:20:24.775344 31936 net.cpp:91] Creating Layer conv4
I0403 13:20:24.775362 31936 net.cpp:425] conv4 <- conv3
I0403 13:20:24.775385 31936 net.cpp:399] conv4 -> conv4
I0403 13:20:24.806771 31936 net.cpp:141] Setting up conv4
I0403 13:20:24.806854 31936 net.cpp:148] Top shape: 100 384 13 13 (6489600)
I0403 13:20:24.806901 31936 net.cpp:156] Memory required for data: 757439600
I0403 13:20:24.806924 31936 layer_factory.hpp:77] Creating layer relu4
I0403 13:20:24.806947 31936 net.cpp:91] Creating Layer relu4
I0403 13:20:24.806964 31936 net.cpp:425] relu4 <- conv4
I0403 13:20:24.806988 31936 net.cpp:386] relu4 -> conv4 (in-place)
I0403 13:20:24.807286 31936 net.cpp:141] Setting up relu4
I0403 13:20:24.807317 31936 net.cpp:148] Top shape: 100 384 13 13 (6489600)
I0403 13:20:24.807333 31936 net.cpp:156] Memory required for data: 783398000
I0403 13:20:24.807350 31936 layer_factory.hpp:77] Creating layer conv5
I0403 13:20:24.807376 31936 net.cpp:91] Creating Layer conv5
I0403 13:20:24.807395 31936 net.cpp:425] conv5 <- conv4
I0403 13:20:24.807415 31936 net.cpp:399] conv5 -> conv5
I0403 13:20:24.828598 31936 net.cpp:141] Setting up conv5
I0403 13:20:24.828645 31936 net.cpp:148] Top shape: 100 256 13 13 (4326400)
I0403 13:20:24.828662 31936 net.cpp:156] Memory required for data: 800703600
I0403 13:20:24.828687 31936 layer_factory.hpp:77] Creating layer relu5
I0403 13:20:24.828709 31936 net.cpp:91] Creating Layer relu5
I0403 13:20:24.828727 31936 net.cpp:425] relu5 <- conv5
I0403 13:20:24.828747 31936 net.cpp:386] relu5 -> conv5 (in-place)
I0403 13:20:24.829022 31936 net.cpp:141] Setting up relu5
I0403 13:20:24.829048 31936 net.cpp:148] Top shape: 100 256 13 13 (4326400)
I0403 13:20:24.829063 31936 net.cpp:156] Memory required for data: 818009200
I0403 13:20:24.829078 31936 layer_factory.hpp:77] Creating layer pool5
I0403 13:20:24.829099 31936 net.cpp:91] Creating Layer pool5
I0403 13:20:24.829115 31936 net.cpp:425] pool5 <- conv5
I0403 13:20:24.829136 31936 net.cpp:399] pool5 -> pool5
I0403 13:20:24.829197 31936 net.cpp:141] Setting up pool5
I0403 13:20:24.829253 31936 net.cpp:148] Top shape: 100 256 6 6 (921600)
I0403 13:20:24.829283 31936 net.cpp:156] Memory required for data: 821695600
I0403 13:20:24.829298 31936 layer_factory.hpp:77] Creating layer fc6
I0403 13:20:24.829329 31936 net.cpp:91] Creating Layer fc6
I0403 13:20:24.829349 31936 net.cpp:425] fc6 <- pool5
I0403 13:20:24.829370 31936 net.cpp:399] fc6 -> fc6
I0403 13:20:26.404170 31936 net.cpp:141] Setting up fc6
I0403 13:20:26.404276 31936 net.cpp:148] Top shape: 100 4096 (409600)
I0403 13:20:26.404295 31936 net.cpp:156] Memory required for data: 823334000
I0403 13:20:26.404319 31936 layer_factory.hpp:77] Creating layer relu6
I0403 13:20:26.404345 31936 net.cpp:91] Creating Layer relu6
I0403 13:20:26.404364 31936 net.cpp:425] relu6 <- fc6
I0403 13:20:26.404386 31936 net.cpp:386] relu6 -> fc6 (in-place)
I0403 13:20:26.404633 31936 net.cpp:141] Setting up relu6
I0403 13:20:26.404657 31936 net.cpp:148] Top shape: 100 4096 (409600)
I0403 13:20:26.404672 31936 net.cpp:156] Memory required for data: 824972400
I0403 13:20:26.404686 31936 layer_factory.hpp:77] Creating layer drop6
I0403 13:20:26.404706 31936 net.cpp:91] Creating Layer drop6
I0403 13:20:26.404721 31936 net.cpp:425] drop6 <- fc6
I0403 13:20:26.404741 31936 net.cpp:386] drop6 -> fc6 (in-place)
I0403 13:20:26.404793 31936 net.cpp:141] Setting up drop6
I0403 13:20:26.404819 31936 net.cpp:148] Top shape: 100 4096 (409600)
I0403 13:20:26.404834 31936 net.cpp:156] Memory required for data: 826610800
I0403 13:20:26.404849 31936 layer_factory.hpp:77] Creating layer fc7
I0403 13:20:26.404870 31936 net.cpp:91] Creating Layer fc7
I0403 13:20:26.404884 31936 net.cpp:425] fc7 <- fc6
I0403 13:20:26.404906 31936 net.cpp:399] fc7 -> fc7
I0403 13:20:27.104857 31936 net.cpp:141] Setting up fc7
I0403 13:20:27.104903 31936 net.cpp:148] Top shape: 100 4096 (409600)
I0403 13:20:27.104920 31936 net.cpp:156] Memory required for data: 828249200
I0403 13:20:27.104943 31936 layer_factory.hpp:77] Creating layer relu7
I0403 13:20:27.104965 31936 net.cpp:91] Creating Layer relu7
I0403 13:20:27.104984 31936 net.cpp:425] relu7 <- fc7
I0403 13:20:27.105005 31936 net.cpp:386] relu7 -> fc7 (in-place)
I0403 13:20:27.105434 31936 net.cpp:141] Setting up relu7
I0403 13:20:27.105463 31936 net.cpp:148] Top shape: 100 4096 (409600)
I0403 13:20:27.105497 31936 net.cpp:156] Memory required for data: 829887600
I0403 13:20:27.105514 31936 layer_factory.hpp:77] Creating layer drop7
I0403 13:20:27.105532 31936 net.cpp:91] Creating Layer drop7
I0403 13:20:27.105548 31936 net.cpp:425] drop7 <- fc7
I0403 13:20:27.105569 31936 net.cpp:386] drop7 -> fc7 (in-place)
I0403 13:20:27.105612 31936 net.cpp:141] Setting up drop7
I0403 13:20:27.105634 31936 net.cpp:148] Top shape: 100 4096 (409600)
I0403 13:20:27.105648 31936 net.cpp:156] Memory required for data: 831526000
I0403 13:20:27.105664 31936 layer_factory.hpp:77] Creating layer fc8_plantvillage
I0403 13:20:27.105685 31936 net.cpp:91] Creating Layer fc8_plantvillage
I0403 13:20:27.105702 31936 net.cpp:425] fc8_plantvillage <- fc7
I0403 13:20:27.105723 31936 net.cpp:399] fc8_plantvillage -> fc8_plantvillage
I0403 13:20:27.112779 31936 net.cpp:141] Setting up fc8_plantvillage
I0403 13:20:27.112809 31936 net.cpp:148] Top shape: 100 38 (3800)
I0403 13:20:27.112826 31936 net.cpp:156] Memory required for data: 831541200
I0403 13:20:27.112845 31936 layer_factory.hpp:77] Creating layer fc8_plantvillage_fc8_plantvillage_0_split
I0403 13:20:27.112864 31936 net.cpp:91] Creating Layer fc8_plantvillage_fc8_plantvillage_0_split
I0403 13:20:27.112879 31936 net.cpp:425] fc8_plantvillage_fc8_plantvillage_0_split <- fc8_plantvillage
I0403 13:20:27.112898 31936 net.cpp:399] fc8_plantvillage_fc8_plantvillage_0_split -> fc8_plantvillage_fc8_plantvillage_0_split_0
I0403 13:20:27.112920 31936 net.cpp:399] fc8_plantvillage_fc8_plantvillage_0_split -> fc8_plantvillage_fc8_plantvillage_0_split_1
I0403 13:20:27.112939 31936 net.cpp:399] fc8_plantvillage_fc8_plantvillage_0_split -> fc8_plantvillage_fc8_plantvillage_0_split_2
I0403 13:20:27.113029 31936 net.cpp:141] Setting up fc8_plantvillage_fc8_plantvillage_0_split
I0403 13:20:27.113052 31936 net.cpp:148] Top shape: 100 38 (3800)
I0403 13:20:27.113068 31936 net.cpp:148] Top shape: 100 38 (3800)
I0403 13:20:27.113085 31936 net.cpp:148] Top shape: 100 38 (3800)
I0403 13:20:27.113098 31936 net.cpp:156] Memory required for data: 831586800
I0403 13:20:27.113112 31936 layer_factory.hpp:77] Creating layer prob
I0403 13:20:27.113131 31936 net.cpp:91] Creating Layer prob
I0403 13:20:27.113147 31936 net.cpp:425] prob <- fc8_plantvillage_fc8_plantvillage_0_split_0
I0403 13:20:27.113167 31936 net.cpp:399] prob -> prob
I0403 13:20:27.113410 31936 net.cpp:141] Setting up prob
I0403 13:20:27.113438 31936 net.cpp:148] Top shape: 100 38 (3800)
I0403 13:20:27.113454 31936 net.cpp:156] Memory required for data: 831602000
I0403 13:20:27.113471 31936 layer_factory.hpp:77] Creating layer hdf5out
I0403 13:20:27.113489 31936 net.cpp:91] Creating Layer hdf5out
I0403 13:20:27.113504 31936 net.cpp:425] hdf5out <- prob
I0403 13:20:27.113520 31936 net.cpp:425] hdf5out <- label_data_1_split_0
I0403 13:20:27.217089 31936 net.cpp:141] Setting up hdf5out
…
