…
I0403 13:22:45.679989 32002 net.cpp:313] The NetState phase (1) differed from the phase (0) specified by a rule in layer data
I0403 13:22:45.680297 32002 net.cpp:49] Initializing net from parameters: 
state {
  phase: TEST
}
layer {
  name: "data"
  type: "Data"
  top: "data"
  top: "label"
  include {
    phase: TEST
  }
  transform_param {
    crop_size: 227
    mean_file: "/home/mohanty/data/final_dataset/lmdb/grayscale-60-40/mean.binaryproto"
  }
  data_param {
    source: "/home/mohanty/data/final_dataset/lmdb/grayscale-60-40/test_db"
    batch_size: 100
    backend: LMDB
  }
}
layer {
  name: "conv1"
  type: "Convolution"
  bottom: "data"
  top: "conv1"
  param {
    lr_mult: 1
    decay_mult: 1
  }
  param {
    lr_mult: 2
    decay_mult: 0
  }
  convolution_param {
    num_output: 96
    kernel_size: 11
    stride: 4
    weight_filler {
      type: "gaussian"
      std: 0.01
    }
    bias_filler {
      type: "constant"
      value: 0
    }
  }
}
layer {
  name: "relu1"
  type: "ReLU"
  bottom: "conv1"
  top: "conv1"
}
layer {
  name: "norm1"
  type: "LRN"
  bottom: "conv1"
  top: "norm1"
  lrn_param {
    local_size: 5
    alpha: 0.0001
    beta: 0.75
  }
}
layer {
  name: "pool1"
  type: "Pooling"
  bottom: "norm1"
  top: "pool1"
  pooling_param {
    pool: MAX
    kernel_size: 3
    stride: 2
  }
}
layer {
  name: "conv2"
  type: "Convolution"
  bottom: "pool1"
  top: "conv2"
  param {
    lr_mult: 1
    decay_mult: 1
  }
  param {
    lr_mult: 2
    decay_mult: 0
  }
  convolution_param {
    num_output: 256
    pad: 2
    kernel_size: 5
    group: 2
    weight_filler {
      type: "gaussian"
      std: 0.01
    }
    bias_filler {
      type: "constant"
      value: 0.1
    }
  }
}
layer {
  name: "relu2"
  type: "ReLU"
  bottom: "conv2"
  top: "conv2"
}
layer {
  name: "norm2"
  type: "LRN"
  bottom: "conv2"
  top: "norm2"
  lrn_param {
    local_size: 5
    alpha: 0.0001
    beta: 0.75
  }
}
layer {
  name: "pool2"
  type: "Pooling"
  bottom: "norm2"
  top: "pool2"
  pooling_param {
    pool: MAX
    kernel_size: 3
    stride: 2
  }
}
layer {
  name: "conv3"
  type: "Convolution"
  bottom: "pool2"
  top: "conv3"
  param {
    lr_mult: 1
    decay_mult: 1
  }
  param {
    lr_mult: 2
    decay_mult: 0
  }
  convolution_param {
    num_output: 384
    pad: 1
    kernel_size: 3
    weight_filler {
      type: "gaussian"
      std: 0.01
    }
    bias_filler {
      type: "constant"
      value: 0
    }
  }
}
layer {
  name: "relu3"
  type: "ReLU"
  bottom: "conv3"
  top: "conv3"
}
layer {
  name: "conv4"
  type: "Convolution"
  bottom: "conv3"
  top: "conv4"
  param {
    lr_mult: 1
    decay_mult: 1
  }
  param {
    lr_mult: 2
    decay_mult: 0
  }
  convolution_param {
    num_output: 384
    pad: 1
    kernel_size: 3
    group: 2
    weight_filler {
      type: "gaussian"
      std: 0.01
    }
    bias_filler {
      type: "constant"
      value: 0.1
    }
  }
}
layer {
  name: "relu4"
  type: "ReLU"
  bottom: "conv4"
  top: "conv4"
}
layer {
  name: "conv5"
  type: "Convolution"
  bottom: "conv4"
  top: "conv5"
  param {
    lr_mult: 1
    decay_mult: 1
  }
  param {
    lr_mult: 2
    decay_mult: 0
  }
  convolution_param {
    num_output: 256
    pad: 1
    kernel_size: 3
    group: 2
    weight_filler {
      type: "gaussian"
      std: 0.01
    }
    bias_filler {
      type: "constant"
      value: 0.1
    }
  }
}
layer {
  name: "relu5"
  type: "ReLU"
  bottom: "conv5"
  top: "conv5"
}
layer {
  name: "pool5"
  type: "Pooling"
  bottom: "conv5"
  top: "pool5"
  pooling_param {
    pool: MAX
    kernel_size: 3
    stride: 2
  }
}
layer {
  name: "fc6"
  type: "InnerProduct"
  bottom: "pool5"
  top: "fc6"
  param {
    lr_mult: 1
    decay_mult: 1
  }
  param {
    lr_mult: 2
    decay_mult: 0
  }
  inner_product_param {
    num_output: 4096
    weight_filler {
      type: "gaussian"
      std: 0.005
    }
    bias_filler {
      type: "constant"
      value: 0.1
    }
  }
}
layer {
  name: "relu6"
  type: "ReLU"
  bottom: "fc6"
  top: "fc6"
}
layer {
  name: "drop6"
  type: "Dropout"
  bottom: "fc6"
  top: "fc6"
  dropout_param {
    dropout_ratio: 0.5
  }
}
layer {
  name: "fc7"
  type: "InnerProduct"
  bottom: "fc6"
  top: "fc7"
  param {
    lr_mult: 1
    decay_mult: 1
  }
  param {
    lr_mult: 2
    decay_mult: 0
  }
  inner_product_param {
    num_output: 4096
    weight_filler {
      type: "gaussian"
      std: 0.005
    }
    bias_filler {
      type: "constant"
      value: 0.1
    }
  }
}
layer {
  name: "relu7"
  type: "ReLU"
  bottom: "fc7"
  top: "fc7"
}
layer {
  name: "drop7"
  type: "Dropout"
  bottom: "fc7"
  top: "fc7"
  dropout_param {
    dropout_ratio: 0.5
  }
}
layer {
  name: "fc8_plantvillage"
  type: "InnerProduct"
  bottom: "fc7"
  top: "fc8_plantvillage"
  param {
    lr_mult: 1
    decay_mult: 1
  }
  param {
    lr_mult: 2
    decay_mult: 0
  }
  inner_product_param {
    num_output: 38
    weight_filler {
      type: "gaussian"
      std: 0.01
    }
    bias_filler {
      type: "constant"
      value: 0
    }
  }
}
layer {
  name: "prob"
  type: "Softmax"
  bottom: "fc8_plantvillage"
  top: "prob"
  include {
    phase: TEST
  }
}
layer {
  name: "hdf5out"
  type: "HDF5Output"
  bottom: "prob"
  bottom: "label"
  include {
    phase: TEST
  }
  hdf5_output_param {
    file_name: "hdf5_dumps/iter_5850.h5"
  }
}
layer {
  name: "loss"
  type: "SoftmaxWithLoss"
  bottom: "fc8_plantvillage"
  bottom: "label"
  top: "loss"
}
layer {
  name: "accuracy"
  type: "Accuracy"
  bottom: "fc8_plantvillage"
  bottom: "label"
  top: "accuracy"
  include {
    phase: TEST
  }
}
I0403 13:22:45.680905 32002 layer_factory.hpp:77] Creating layer data
I0403 13:22:45.681570 32002 net.cpp:91] Creating Layer data
I0403 13:22:45.681599 32002 net.cpp:399] data -> data
I0403 13:22:45.681650 32002 net.cpp:399] data -> label
I0403 13:22:45.681689 32002 data_transformer.cpp:25] Loading mean file from: /home/mohanty/data/final_dataset/lmdb/grayscale-60-40/mean.binaryproto
I0403 13:22:45.684694 32005 db_lmdb.cpp:38] Opened lmdb /home/mohanty/data/final_dataset/lmdb/grayscale-60-40/test_db
I0403 13:22:45.696601 32002 data_layer.cpp:41] output data size: 100,3,227,227
I0403 13:22:45.817003 32002 net.cpp:141] Setting up data
I0403 13:22:45.817068 32002 net.cpp:148] Top shape: 100 3 227 227 (15458700)
I0403 13:22:45.817091 32002 net.cpp:148] Top shape: 100 (100)
I0403 13:22:45.817106 32002 net.cpp:156] Memory required for data: 61835200
I0403 13:22:45.817145 32002 layer_factory.hpp:77] Creating layer label_data_1_split
I0403 13:22:45.817169 32002 net.cpp:91] Creating Layer label_data_1_split
I0403 13:22:45.817188 32002 net.cpp:425] label_data_1_split <- label
I0403 13:22:45.817224 32002 net.cpp:399] label_data_1_split -> label_data_1_split_0
I0403 13:22:45.817250 32002 net.cpp:399] label_data_1_split -> label_data_1_split_1
I0403 13:22:45.817270 32002 net.cpp:399] label_data_1_split -> label_data_1_split_2
I0403 13:22:45.817332 32002 net.cpp:141] Setting up label_data_1_split
I0403 13:22:45.817354 32002 net.cpp:148] Top shape: 100 (100)
I0403 13:22:45.817370 32002 net.cpp:148] Top shape: 100 (100)
I0403 13:22:45.817386 32002 net.cpp:148] Top shape: 100 (100)
I0403 13:22:45.817400 32002 net.cpp:156] Memory required for data: 61836400
I0403 13:22:45.817414 32002 layer_factory.hpp:77] Creating layer conv1
I0403 13:22:45.817445 32002 net.cpp:91] Creating Layer conv1
I0403 13:22:45.817462 32002 net.cpp:425] conv1 <- data
I0403 13:22:45.817481 32002 net.cpp:399] conv1 -> conv1
I0403 13:22:45.960466 32002 net.cpp:141] Setting up conv1
I0403 13:22:45.960518 32002 net.cpp:148] Top shape: 100 96 55 55 (29040000)
I0403 13:22:45.960547 32002 net.cpp:156] Memory required for data: 177996400
I0403 13:22:45.960579 32002 layer_factory.hpp:77] Creating layer relu1
I0403 13:22:45.960608 32002 net.cpp:91] Creating Layer relu1
I0403 13:22:45.960628 32002 net.cpp:425] relu1 <- conv1
I0403 13:22:45.960646 32002 net.cpp:386] relu1 -> conv1 (in-place)
I0403 13:22:45.960942 32002 net.cpp:141] Setting up relu1
I0403 13:22:45.960968 32002 net.cpp:148] Top shape: 100 96 55 55 (29040000)
I0403 13:22:45.961015 32002 net.cpp:156] Memory required for data: 294156400
I0403 13:22:45.961031 32002 layer_factory.hpp:77] Creating layer norm1
I0403 13:22:45.961061 32002 net.cpp:91] Creating Layer norm1
I0403 13:22:45.961081 32002 net.cpp:425] norm1 <- conv1
I0403 13:22:45.961098 32002 net.cpp:399] norm1 -> norm1
I0403 13:22:45.961470 32002 net.cpp:141] Setting up norm1
I0403 13:22:45.961499 32002 net.cpp:148] Top shape: 100 96 55 55 (29040000)
I0403 13:22:45.961515 32002 net.cpp:156] Memory required for data: 410316400
I0403 13:22:45.961530 32002 layer_factory.hpp:77] Creating layer pool1
I0403 13:22:45.961556 32002 net.cpp:91] Creating Layer pool1
I0403 13:22:45.961575 32002 net.cpp:425] pool1 <- norm1
I0403 13:22:45.961593 32002 net.cpp:399] pool1 -> pool1
I0403 13:22:45.961665 32002 net.cpp:141] Setting up pool1
I0403 13:22:45.961689 32002 net.cpp:148] Top shape: 100 96 27 27 (6998400)
I0403 13:22:45.961704 32002 net.cpp:156] Memory required for data: 438310000
I0403 13:22:45.961720 32002 layer_factory.hpp:77] Creating layer conv2
I0403 13:22:45.961746 32002 net.cpp:91] Creating Layer conv2
I0403 13:22:45.961763 32002 net.cpp:425] conv2 <- pool1
I0403 13:22:45.961784 32002 net.cpp:399] conv2 -> conv2
I0403 13:22:45.977603 32002 net.cpp:141] Setting up conv2
I0403 13:22:45.977656 32002 net.cpp:148] Top shape: 100 256 27 27 (18662400)
I0403 13:22:45.977674 32002 net.cpp:156] Memory required for data: 512959600
I0403 13:22:45.977699 32002 layer_factory.hpp:77] Creating layer relu2
I0403 13:22:45.977720 32002 net.cpp:91] Creating Layer relu2
I0403 13:22:45.977736 32002 net.cpp:425] relu2 <- conv2
I0403 13:22:45.977754 32002 net.cpp:386] relu2 -> conv2 (in-place)
I0403 13:22:45.978040 32002 net.cpp:141] Setting up relu2
I0403 13:22:45.978070 32002 net.cpp:148] Top shape: 100 256 27 27 (18662400)
I0403 13:22:45.978086 32002 net.cpp:156] Memory required for data: 587609200
I0403 13:22:45.978101 32002 layer_factory.hpp:77] Creating layer norm2
I0403 13:22:45.978123 32002 net.cpp:91] Creating Layer norm2
I0403 13:22:45.978139 32002 net.cpp:425] norm2 <- conv2
I0403 13:22:45.978160 32002 net.cpp:399] norm2 -> norm2
I0403 13:22:45.978364 32002 net.cpp:141] Setting up norm2
I0403 13:22:45.978391 32002 net.cpp:148] Top shape: 100 256 27 27 (18662400)
I0403 13:22:45.978422 32002 net.cpp:156] Memory required for data: 662258800
I0403 13:22:45.978438 32002 layer_factory.hpp:77] Creating layer pool2
I0403 13:22:45.978461 32002 net.cpp:91] Creating Layer pool2
I0403 13:22:45.978478 32002 net.cpp:425] pool2 <- norm2
I0403 13:22:45.978497 32002 net.cpp:399] pool2 -> pool2
I0403 13:22:45.978552 32002 net.cpp:141] Setting up pool2
I0403 13:22:45.978577 32002 net.cpp:148] Top shape: 100 256 13 13 (4326400)
I0403 13:22:45.978592 32002 net.cpp:156] Memory required for data: 679564400
I0403 13:22:45.978608 32002 layer_factory.hpp:77] Creating layer conv3
I0403 13:22:45.978631 32002 net.cpp:91] Creating Layer conv3
I0403 13:22:45.978649 32002 net.cpp:425] conv3 <- pool2
I0403 13:22:45.978672 32002 net.cpp:399] conv3 -> conv3
I0403 13:22:46.020215 32002 net.cpp:141] Setting up conv3
I0403 13:22:46.020300 32002 net.cpp:148] Top shape: 100 384 13 13 (6489600)
I0403 13:22:46.020318 32002 net.cpp:156] Memory required for data: 705522800
I0403 13:22:46.020345 32002 layer_factory.hpp:77] Creating layer relu3
I0403 13:22:46.020371 32002 net.cpp:91] Creating Layer relu3
I0403 13:22:46.020390 32002 net.cpp:425] relu3 <- conv3
I0403 13:22:46.020409 32002 net.cpp:386] relu3 -> conv3 (in-place)
I0403 13:22:46.020696 32002 net.cpp:141] Setting up relu3
I0403 13:22:46.020725 32002 net.cpp:148] Top shape: 100 384 13 13 (6489600)
I0403 13:22:46.020741 32002 net.cpp:156] Memory required for data: 731481200
I0403 13:22:46.020757 32002 layer_factory.hpp:77] Creating layer conv4
I0403 13:22:46.020786 32002 net.cpp:91] Creating Layer conv4
I0403 13:22:46.020804 32002 net.cpp:425] conv4 <- conv3
I0403 13:22:46.020826 32002 net.cpp:399] conv4 -> conv4
I0403 13:22:46.052320 32002 net.cpp:141] Setting up conv4
I0403 13:22:46.052403 32002 net.cpp:148] Top shape: 100 384 13 13 (6489600)
I0403 13:22:46.052453 32002 net.cpp:156] Memory required for data: 757439600
I0403 13:22:46.052476 32002 layer_factory.hpp:77] Creating layer relu4
I0403 13:22:46.052500 32002 net.cpp:91] Creating Layer relu4
I0403 13:22:46.052518 32002 net.cpp:425] relu4 <- conv4
I0403 13:22:46.052541 32002 net.cpp:386] relu4 -> conv4 (in-place)
I0403 13:22:46.052832 32002 net.cpp:141] Setting up relu4
I0403 13:22:46.052894 32002 net.cpp:148] Top shape: 100 384 13 13 (6489600)
I0403 13:22:46.052916 32002 net.cpp:156] Memory required for data: 783398000
I0403 13:22:46.052932 32002 layer_factory.hpp:77] Creating layer conv5
I0403 13:22:46.052959 32002 net.cpp:91] Creating Layer conv5
I0403 13:22:46.052978 32002 net.cpp:425] conv5 <- conv4
I0403 13:22:46.052999 32002 net.cpp:399] conv5 -> conv5
I0403 13:22:46.074683 32002 net.cpp:141] Setting up conv5
I0403 13:22:46.074741 32002 net.cpp:148] Top shape: 100 256 13 13 (4326400)
I0403 13:22:46.074759 32002 net.cpp:156] Memory required for data: 800703600
I0403 13:22:46.074789 32002 layer_factory.hpp:77] Creating layer relu5
I0403 13:22:46.074811 32002 net.cpp:91] Creating Layer relu5
I0403 13:22:46.074829 32002 net.cpp:425] relu5 <- conv5
I0403 13:22:46.074848 32002 net.cpp:386] relu5 -> conv5 (in-place)
I0403 13:22:46.075140 32002 net.cpp:141] Setting up relu5
I0403 13:22:46.075168 32002 net.cpp:148] Top shape: 100 256 13 13 (4326400)
I0403 13:22:46.075184 32002 net.cpp:156] Memory required for data: 818009200
I0403 13:22:46.075201 32002 layer_factory.hpp:77] Creating layer pool5
I0403 13:22:46.075232 32002 net.cpp:91] Creating Layer pool5
I0403 13:22:46.075250 32002 net.cpp:425] pool5 <- conv5
I0403 13:22:46.075269 32002 net.cpp:399] pool5 -> pool5
I0403 13:22:46.075335 32002 net.cpp:141] Setting up pool5
I0403 13:22:46.075386 32002 net.cpp:148] Top shape: 100 256 6 6 (921600)
I0403 13:22:46.075404 32002 net.cpp:156] Memory required for data: 821695600
I0403 13:22:46.075420 32002 layer_factory.hpp:77] Creating layer fc6
I0403 13:22:46.075451 32002 net.cpp:91] Creating Layer fc6
I0403 13:22:46.075470 32002 net.cpp:425] fc6 <- pool5
I0403 13:22:46.075489 32002 net.cpp:399] fc6 -> fc6
I0403 13:22:47.678499 32002 net.cpp:141] Setting up fc6
I0403 13:22:47.678586 32002 net.cpp:148] Top shape: 100 4096 (409600)
I0403 13:22:47.678603 32002 net.cpp:156] Memory required for data: 823334000
I0403 13:22:47.678624 32002 layer_factory.hpp:77] Creating layer relu6
I0403 13:22:47.678647 32002 net.cpp:91] Creating Layer relu6
I0403 13:22:47.678664 32002 net.cpp:425] relu6 <- fc6
I0403 13:22:47.678688 32002 net.cpp:386] relu6 -> fc6 (in-place)
I0403 13:22:47.678905 32002 net.cpp:141] Setting up relu6
I0403 13:22:47.678932 32002 net.cpp:148] Top shape: 100 4096 (409600)
I0403 13:22:47.678947 32002 net.cpp:156] Memory required for data: 824972400
I0403 13:22:47.678962 32002 layer_factory.hpp:77] Creating layer drop6
I0403 13:22:47.678983 32002 net.cpp:91] Creating Layer drop6
I0403 13:22:47.678999 32002 net.cpp:425] drop6 <- fc6
I0403 13:22:47.679018 32002 net.cpp:386] drop6 -> fc6 (in-place)
I0403 13:22:47.679071 32002 net.cpp:141] Setting up drop6
I0403 13:22:47.679095 32002 net.cpp:148] Top shape: 100 4096 (409600)
I0403 13:22:47.679111 32002 net.cpp:156] Memory required for data: 826610800
I0403 13:22:47.679124 32002 layer_factory.hpp:77] Creating layer fc7
I0403 13:22:47.679146 32002 net.cpp:91] Creating Layer fc7
I0403 13:22:47.679162 32002 net.cpp:425] fc7 <- fc6
I0403 13:22:47.679183 32002 net.cpp:399] fc7 -> fc7
I0403 13:22:48.378973 32002 net.cpp:141] Setting up fc7
I0403 13:22:48.379075 32002 net.cpp:148] Top shape: 100 4096 (409600)
I0403 13:22:48.379091 32002 net.cpp:156] Memory required for data: 828249200
I0403 13:22:48.379112 32002 layer_factory.hpp:77] Creating layer relu7
I0403 13:22:48.379137 32002 net.cpp:91] Creating Layer relu7
I0403 13:22:48.379156 32002 net.cpp:425] relu7 <- fc7
I0403 13:22:48.379176 32002 net.cpp:386] relu7 -> fc7 (in-place)
I0403 13:22:48.379617 32002 net.cpp:141] Setting up relu7
I0403 13:22:48.379644 32002 net.cpp:148] Top shape: 100 4096 (409600)
I0403 13:22:48.379693 32002 net.cpp:156] Memory required for data: 829887600
I0403 13:22:48.379709 32002 layer_factory.hpp:77] Creating layer drop7
I0403 13:22:48.379729 32002 net.cpp:91] Creating Layer drop7
I0403 13:22:48.379744 32002 net.cpp:425] drop7 <- fc7
I0403 13:22:48.379763 32002 net.cpp:386] drop7 -> fc7 (in-place)
I0403 13:22:48.379809 32002 net.cpp:141] Setting up drop7
I0403 13:22:48.379832 32002 net.cpp:148] Top shape: 100 4096 (409600)
I0403 13:22:48.379845 32002 net.cpp:156] Memory required for data: 831526000
I0403 13:22:48.379859 32002 layer_factory.hpp:77] Creating layer fc8_plantvillage
I0403 13:22:48.379879 32002 net.cpp:91] Creating Layer fc8_plantvillage
I0403 13:22:48.379895 32002 net.cpp:425] fc8_plantvillage <- fc7
I0403 13:22:48.379915 32002 net.cpp:399] fc8_plantvillage -> fc8_plantvillage
I0403 13:22:48.386720 32002 net.cpp:141] Setting up fc8_plantvillage
I0403 13:22:48.386751 32002 net.cpp:148] Top shape: 100 38 (3800)
I0403 13:22:48.386767 32002 net.cpp:156] Memory required for data: 831541200
I0403 13:22:48.386785 32002 layer_factory.hpp:77] Creating layer fc8_plantvillage_fc8_plantvillage_0_split
I0403 13:22:48.386803 32002 net.cpp:91] Creating Layer fc8_plantvillage_fc8_plantvillage_0_split
I0403 13:22:48.386819 32002 net.cpp:425] fc8_plantvillage_fc8_plantvillage_0_split <- fc8_plantvillage
I0403 13:22:48.386837 32002 net.cpp:399] fc8_plantvillage_fc8_plantvillage_0_split -> fc8_plantvillage_fc8_plantvillage_0_split_0
I0403 13:22:48.386857 32002 net.cpp:399] fc8_plantvillage_fc8_plantvillage_0_split -> fc8_plantvillage_fc8_plantvillage_0_split_1
I0403 13:22:48.386876 32002 net.cpp:399] fc8_plantvillage_fc8_plantvillage_0_split -> fc8_plantvillage_fc8_plantvillage_0_split_2
I0403 13:22:48.386953 32002 net.cpp:141] Setting up fc8_plantvillage_fc8_plantvillage_0_split
I0403 13:22:48.386977 32002 net.cpp:148] Top shape: 100 38 (3800)
I0403 13:22:48.386993 32002 net.cpp:148] Top shape: 100 38 (3800)
I0403 13:22:48.387008 32002 net.cpp:148] Top shape: 100 38 (3800)
I0403 13:22:48.387022 32002 net.cpp:156] Memory required for data: 831586800
I0403 13:22:48.387037 32002 layer_factory.hpp:77] Creating layer prob
I0403 13:22:48.387056 32002 net.cpp:91] Creating Layer prob
I0403 13:22:48.387071 32002 net.cpp:425] prob <- fc8_plantvillage_fc8_plantvillage_0_split_0
I0403 13:22:48.387089 32002 net.cpp:399] prob -> prob
I0403 13:22:48.387320 32002 net.cpp:141] Setting up prob
I0403 13:22:48.387346 32002 net.cpp:148] Top shape: 100 38 (3800)
I0403 13:22:48.387361 32002 net.cpp:156] Memory required for data: 831602000
I0403 13:22:48.387375 32002 layer_factory.hpp:77] Creating layer hdf5out
I0403 13:22:48.387397 32002 net.cpp:91] Creating Layer hdf5out
I0403 13:22:48.387413 32002 net.cpp:425] hdf5out <- prob
I0403 13:22:48.387429 32002 net.cpp:425] hdf5out <- label_data_1_split_0
I0403 13:22:48.389669 32002 net.cpp:141] Setting up hdf5out
…
