…
I0403 13:28:11.033675 32286 net.cpp:313] The NetState phase (1) differed from the phase (0) specified by a rule in layer data
I0403 13:28:11.033998 32286 net.cpp:49] Initializing net from parameters: 
state {
  phase: TEST
}
layer {
  name: "data"
  type: "Data"
  top: "data"
  top: "label"
  include {
    phase: TEST
  }
  transform_param {
    crop_size: 227
    mean_file: "/home/mohanty/data/final_dataset/lmdb/grayscale-60-40/mean.binaryproto"
  }
  data_param {
    source: "/home/mohanty/data/final_dataset/lmdb/grayscale-60-40/test_db"
    batch_size: 100
    backend: LMDB
  }
}
layer {
  name: "conv1"
  type: "Convolution"
  bottom: "data"
  top: "conv1"
  param {
    lr_mult: 1
    decay_mult: 1
  }
  param {
    lr_mult: 2
    decay_mult: 0
  }
  convolution_param {
    num_output: 96
    kernel_size: 11
    stride: 4
    weight_filler {
      type: "gaussian"
      std: 0.01
    }
    bias_filler {
      type: "constant"
      value: 0
    }
  }
}
layer {
  name: "relu1"
  type: "ReLU"
  bottom: "conv1"
  top: "conv1"
}
layer {
  name: "norm1"
  type: "LRN"
  bottom: "conv1"
  top: "norm1"
  lrn_param {
    local_size: 5
    alpha: 0.0001
    beta: 0.75
  }
}
layer {
  name: "pool1"
  type: "Pooling"
  bottom: "norm1"
  top: "pool1"
  pooling_param {
    pool: MAX
    kernel_size: 3
    stride: 2
  }
}
layer {
  name: "conv2"
  type: "Convolution"
  bottom: "pool1"
  top: "conv2"
  param {
    lr_mult: 1
    decay_mult: 1
  }
  param {
    lr_mult: 2
    decay_mult: 0
  }
  convolution_param {
    num_output: 256
    pad: 2
    kernel_size: 5
    group: 2
    weight_filler {
      type: "gaussian"
      std: 0.01
    }
    bias_filler {
      type: "constant"
      value: 0.1
    }
  }
}
layer {
  name: "relu2"
  type: "ReLU"
  bottom: "conv2"
  top: "conv2"
}
layer {
  name: "norm2"
  type: "LRN"
  bottom: "conv2"
  top: "norm2"
  lrn_param {
    local_size: 5
    alpha: 0.0001
    beta: 0.75
  }
}
layer {
  name: "pool2"
  type: "Pooling"
  bottom: "norm2"
  top: "pool2"
  pooling_param {
    pool: MAX
    kernel_size: 3
    stride: 2
  }
}
layer {
  name: "conv3"
  type: "Convolution"
  bottom: "pool2"
  top: "conv3"
  param {
    lr_mult: 1
    decay_mult: 1
  }
  param {
    lr_mult: 2
    decay_mult: 0
  }
  convolution_param {
    num_output: 384
    pad: 1
    kernel_size: 3
    weight_filler {
      type: "gaussian"
      std: 0.01
    }
    bias_filler {
      type: "constant"
      value: 0
    }
  }
}
layer {
  name: "relu3"
  type: "ReLU"
  bottom: "conv3"
  top: "conv3"
}
layer {
  name: "conv4"
  type: "Convolution"
  bottom: "conv3"
  top: "conv4"
  param {
    lr_mult: 1
    decay_mult: 1
  }
  param {
    lr_mult: 2
    decay_mult: 0
  }
  convolution_param {
    num_output: 384
    pad: 1
    kernel_size: 3
    group: 2
    weight_filler {
      type: "gaussian"
      std: 0.01
    }
    bias_filler {
      type: "constant"
      value: 0.1
    }
  }
}
layer {
  name: "relu4"
  type: "ReLU"
  bottom: "conv4"
  top: "conv4"
}
layer {
  name: "conv5"
  type: "Convolution"
  bottom: "conv4"
  top: "conv5"
  param {
    lr_mult: 1
    decay_mult: 1
  }
  param {
    lr_mult: 2
    decay_mult: 0
  }
  convolution_param {
    num_output: 256
    pad: 1
    kernel_size: 3
    group: 2
    weight_filler {
      type: "gaussian"
      std: 0.01
    }
    bias_filler {
      type: "constant"
      value: 0.1
    }
  }
}
layer {
  name: "relu5"
  type: "ReLU"
  bottom: "conv5"
  top: "conv5"
}
layer {
  name: "pool5"
  type: "Pooling"
  bottom: "conv5"
  top: "pool5"
  pooling_param {
    pool: MAX
    kernel_size: 3
    stride: 2
  }
}
layer {
  name: "fc6"
  type: "InnerProduct"
  bottom: "pool5"
  top: "fc6"
  param {
    lr_mult: 1
    decay_mult: 1
  }
  param {
    lr_mult: 2
    decay_mult: 0
  }
  inner_product_param {
    num_output: 4096
    weight_filler {
      type: "gaussian"
      std: 0.005
    }
    bias_filler {
      type: "constant"
      value: 0.1
    }
  }
}
layer {
  name: "relu6"
  type: "ReLU"
  bottom: "fc6"
  top: "fc6"
}
layer {
  name: "drop6"
  type: "Dropout"
  bottom: "fc6"
  top: "fc6"
  dropout_param {
    dropout_ratio: 0.5
  }
}
layer {
  name: "fc7"
  type: "InnerProduct"
  bottom: "fc6"
  top: "fc7"
  param {
    lr_mult: 1
    decay_mult: 1
  }
  param {
    lr_mult: 2
    decay_mult: 0
  }
  inner_product_param {
    num_output: 4096
    weight_filler {
      type: "gaussian"
      std: 0.005
    }
    bias_filler {
      type: "constant"
      value: 0.1
    }
  }
}
layer {
  name: "relu7"
  type: "ReLU"
  bottom: "fc7"
  top: "fc7"
}
layer {
  name: "drop7"
  type: "Dropout"
  bottom: "fc7"
  top: "fc7"
  dropout_param {
    dropout_ratio: 0.5
  }
}
layer {
  name: "fc8_plantvillage"
  type: "InnerProduct"
  bottom: "fc7"
  top: "fc8_plantvillage"
  param {
    lr_mult: 1
    decay_mult: 1
  }
  param {
    lr_mult: 2
    decay_mult: 0
  }
  inner_product_param {
    num_output: 38
    weight_filler {
      type: "gaussian"
      std: 0.01
    }
    bias_filler {
      type: "constant"
      value: 0
    }
  }
}
layer {
  name: "prob"
  type: "Softmax"
  bottom: "fc8_plantvillage"
  top: "prob"
  include {
    phase: TEST
  }
}
layer {
  name: "hdf5out"
  type: "HDF5Output"
  bottom: "prob"
  bottom: "label"
  include {
    phase: TEST
  }
  hdf5_output_param {
    file_name: "hdf5_dumps/iter_8125.h5"
  }
}
layer {
  name: "loss"
  type: "SoftmaxWithLoss"
  bottom: "fc8_plantvillage"
  bottom: "label"
  top: "loss"
}
layer {
  name: "accuracy"
  type: "Accuracy"
  bottom: "fc8_plantvillage"
  bottom: "label"
  top: "accuracy"
  include {
    phase: TEST
  }
}
I0403 13:28:11.034566 32286 layer_factory.hpp:77] Creating layer data
I0403 13:28:11.035229 32286 net.cpp:91] Creating Layer data
I0403 13:28:11.035261 32286 net.cpp:399] data -> data
I0403 13:28:11.035312 32286 net.cpp:399] data -> label
I0403 13:28:11.035351 32286 data_transformer.cpp:25] Loading mean file from: /home/mohanty/data/final_dataset/lmdb/grayscale-60-40/mean.binaryproto
I0403 13:28:11.049593 32289 db_lmdb.cpp:38] Opened lmdb /home/mohanty/data/final_dataset/lmdb/grayscale-60-40/test_db
I0403 13:28:11.054805 32286 data_layer.cpp:41] output data size: 100,3,227,227
I0403 13:28:11.179818 32286 net.cpp:141] Setting up data
I0403 13:28:11.179908 32286 net.cpp:148] Top shape: 100 3 227 227 (15458700)
I0403 13:28:11.179932 32286 net.cpp:148] Top shape: 100 (100)
I0403 13:28:11.179949 32286 net.cpp:156] Memory required for data: 61835200
I0403 13:28:11.179977 32286 layer_factory.hpp:77] Creating layer label_data_1_split
I0403 13:28:11.180004 32286 net.cpp:91] Creating Layer label_data_1_split
I0403 13:28:11.180022 32286 net.cpp:425] label_data_1_split <- label
I0403 13:28:11.180054 32286 net.cpp:399] label_data_1_split -> label_data_1_split_0
I0403 13:28:11.180084 32286 net.cpp:399] label_data_1_split -> label_data_1_split_1
I0403 13:28:11.180106 32286 net.cpp:399] label_data_1_split -> label_data_1_split_2
I0403 13:28:11.180171 32286 net.cpp:141] Setting up label_data_1_split
I0403 13:28:11.180203 32286 net.cpp:148] Top shape: 100 (100)
I0403 13:28:11.180222 32286 net.cpp:148] Top shape: 100 (100)
I0403 13:28:11.180238 32286 net.cpp:148] Top shape: 100 (100)
I0403 13:28:11.180253 32286 net.cpp:156] Memory required for data: 61836400
I0403 13:28:11.180269 32286 layer_factory.hpp:77] Creating layer conv1
I0403 13:28:11.180302 32286 net.cpp:91] Creating Layer conv1
I0403 13:28:11.180321 32286 net.cpp:425] conv1 <- data
I0403 13:28:11.180341 32286 net.cpp:399] conv1 -> conv1
I0403 13:28:11.325470 32286 net.cpp:141] Setting up conv1
I0403 13:28:11.325543 32286 net.cpp:148] Top shape: 100 96 55 55 (29040000)
I0403 13:28:11.325562 32286 net.cpp:156] Memory required for data: 177996400
I0403 13:28:11.325594 32286 layer_factory.hpp:77] Creating layer relu1
I0403 13:28:11.325623 32286 net.cpp:91] Creating Layer relu1
I0403 13:28:11.325642 32286 net.cpp:425] relu1 <- conv1
I0403 13:28:11.325662 32286 net.cpp:386] relu1 -> conv1 (in-place)
I0403 13:28:11.325933 32286 net.cpp:141] Setting up relu1
I0403 13:28:11.325963 32286 net.cpp:148] Top shape: 100 96 55 55 (29040000)
I0403 13:28:11.326005 32286 net.cpp:156] Memory required for data: 294156400
I0403 13:28:11.326022 32286 layer_factory.hpp:77] Creating layer norm1
I0403 13:28:11.326050 32286 net.cpp:91] Creating Layer norm1
I0403 13:28:11.326069 32286 net.cpp:425] norm1 <- conv1
I0403 13:28:11.326088 32286 net.cpp:399] norm1 -> norm1
I0403 13:28:11.326413 32286 net.cpp:141] Setting up norm1
I0403 13:28:11.326444 32286 net.cpp:148] Top shape: 100 96 55 55 (29040000)
I0403 13:28:11.326460 32286 net.cpp:156] Memory required for data: 410316400
I0403 13:28:11.326478 32286 layer_factory.hpp:77] Creating layer pool1
I0403 13:28:11.326501 32286 net.cpp:91] Creating Layer pool1
I0403 13:28:11.326519 32286 net.cpp:425] pool1 <- norm1
I0403 13:28:11.326539 32286 net.cpp:399] pool1 -> pool1
I0403 13:28:11.326611 32286 net.cpp:141] Setting up pool1
I0403 13:28:11.326637 32286 net.cpp:148] Top shape: 100 96 27 27 (6998400)
I0403 13:28:11.326652 32286 net.cpp:156] Memory required for data: 438310000
I0403 13:28:11.326668 32286 layer_factory.hpp:77] Creating layer conv2
I0403 13:28:11.326694 32286 net.cpp:91] Creating Layer conv2
I0403 13:28:11.326710 32286 net.cpp:425] conv2 <- pool1
I0403 13:28:11.326730 32286 net.cpp:399] conv2 -> conv2
I0403 13:28:11.342618 32286 net.cpp:141] Setting up conv2
I0403 13:28:11.342665 32286 net.cpp:148] Top shape: 100 256 27 27 (18662400)
I0403 13:28:11.342684 32286 net.cpp:156] Memory required for data: 512959600
I0403 13:28:11.342706 32286 layer_factory.hpp:77] Creating layer relu2
I0403 13:28:11.342727 32286 net.cpp:91] Creating Layer relu2
I0403 13:28:11.342746 32286 net.cpp:425] relu2 <- conv2
I0403 13:28:11.342767 32286 net.cpp:386] relu2 -> conv2 (in-place)
I0403 13:28:11.343062 32286 net.cpp:141] Setting up relu2
I0403 13:28:11.343091 32286 net.cpp:148] Top shape: 100 256 27 27 (18662400)
I0403 13:28:11.343106 32286 net.cpp:156] Memory required for data: 587609200
I0403 13:28:11.343122 32286 layer_factory.hpp:77] Creating layer norm2
I0403 13:28:11.343153 32286 net.cpp:91] Creating Layer norm2
I0403 13:28:11.343174 32286 net.cpp:425] norm2 <- conv2
I0403 13:28:11.343243 32286 net.cpp:399] norm2 -> norm2
I0403 13:28:11.343518 32286 net.cpp:141] Setting up norm2
I0403 13:28:11.343546 32286 net.cpp:148] Top shape: 100 256 27 27 (18662400)
I0403 13:28:11.343562 32286 net.cpp:156] Memory required for data: 662258800
I0403 13:28:11.343578 32286 layer_factory.hpp:77] Creating layer pool2
I0403 13:28:11.343597 32286 net.cpp:91] Creating Layer pool2
I0403 13:28:11.343613 32286 net.cpp:425] pool2 <- norm2
I0403 13:28:11.343636 32286 net.cpp:399] pool2 -> pool2
I0403 13:28:11.343693 32286 net.cpp:141] Setting up pool2
I0403 13:28:11.343716 32286 net.cpp:148] Top shape: 100 256 13 13 (4326400)
I0403 13:28:11.343731 32286 net.cpp:156] Memory required for data: 679564400
I0403 13:28:11.343746 32286 layer_factory.hpp:77] Creating layer conv3
I0403 13:28:11.343772 32286 net.cpp:91] Creating Layer conv3
I0403 13:28:11.343791 32286 net.cpp:425] conv3 <- pool2
I0403 13:28:11.343809 32286 net.cpp:399] conv3 -> conv3
I0403 13:28:11.387022 32286 net.cpp:141] Setting up conv3
I0403 13:28:11.387094 32286 net.cpp:148] Top shape: 100 384 13 13 (6489600)
I0403 13:28:11.387112 32286 net.cpp:156] Memory required for data: 705522800
I0403 13:28:11.387140 32286 layer_factory.hpp:77] Creating layer relu3
I0403 13:28:11.387163 32286 net.cpp:91] Creating Layer relu3
I0403 13:28:11.387187 32286 net.cpp:425] relu3 <- conv3
I0403 13:28:11.387210 32286 net.cpp:386] relu3 -> conv3 (in-place)
I0403 13:28:11.387498 32286 net.cpp:141] Setting up relu3
I0403 13:28:11.387526 32286 net.cpp:148] Top shape: 100 384 13 13 (6489600)
I0403 13:28:11.387543 32286 net.cpp:156] Memory required for data: 731481200
I0403 13:28:11.387559 32286 layer_factory.hpp:77] Creating layer conv4
I0403 13:28:11.387588 32286 net.cpp:91] Creating Layer conv4
I0403 13:28:11.387606 32286 net.cpp:425] conv4 <- conv3
I0403 13:28:11.387627 32286 net.cpp:399] conv4 -> conv4
I0403 13:28:11.418555 32286 net.cpp:141] Setting up conv4
I0403 13:28:11.418614 32286 net.cpp:148] Top shape: 100 384 13 13 (6489600)
I0403 13:28:11.418653 32286 net.cpp:156] Memory required for data: 757439600
I0403 13:28:11.418676 32286 layer_factory.hpp:77] Creating layer relu4
I0403 13:28:11.418699 32286 net.cpp:91] Creating Layer relu4
I0403 13:28:11.418716 32286 net.cpp:425] relu4 <- conv4
I0403 13:28:11.418738 32286 net.cpp:386] relu4 -> conv4 (in-place)
I0403 13:28:11.419028 32286 net.cpp:141] Setting up relu4
I0403 13:28:11.419057 32286 net.cpp:148] Top shape: 100 384 13 13 (6489600)
I0403 13:28:11.419075 32286 net.cpp:156] Memory required for data: 783398000
I0403 13:28:11.419090 32286 layer_factory.hpp:77] Creating layer conv5
I0403 13:28:11.419116 32286 net.cpp:91] Creating Layer conv5
I0403 13:28:11.419134 32286 net.cpp:425] conv5 <- conv4
I0403 13:28:11.419154 32286 net.cpp:399] conv5 -> conv5
I0403 13:28:11.440721 32286 net.cpp:141] Setting up conv5
I0403 13:28:11.440778 32286 net.cpp:148] Top shape: 100 256 13 13 (4326400)
I0403 13:28:11.440795 32286 net.cpp:156] Memory required for data: 800703600
I0403 13:28:11.440821 32286 layer_factory.hpp:77] Creating layer relu5
I0403 13:28:11.440845 32286 net.cpp:91] Creating Layer relu5
I0403 13:28:11.440861 32286 net.cpp:425] relu5 <- conv5
I0403 13:28:11.440886 32286 net.cpp:386] relu5 -> conv5 (in-place)
I0403 13:28:11.441185 32286 net.cpp:141] Setting up relu5
I0403 13:28:11.441213 32286 net.cpp:148] Top shape: 100 256 13 13 (4326400)
I0403 13:28:11.441229 32286 net.cpp:156] Memory required for data: 818009200
I0403 13:28:11.441246 32286 layer_factory.hpp:77] Creating layer pool5
I0403 13:28:11.441267 32286 net.cpp:91] Creating Layer pool5
I0403 13:28:11.441284 32286 net.cpp:425] pool5 <- conv5
I0403 13:28:11.441306 32286 net.cpp:399] pool5 -> pool5
I0403 13:28:11.441370 32286 net.cpp:141] Setting up pool5
I0403 13:28:11.441393 32286 net.cpp:148] Top shape: 100 256 6 6 (921600)
I0403 13:28:11.441408 32286 net.cpp:156] Memory required for data: 821695600
I0403 13:28:11.441424 32286 layer_factory.hpp:77] Creating layer fc6
I0403 13:28:11.441455 32286 net.cpp:91] Creating Layer fc6
I0403 13:28:11.441473 32286 net.cpp:425] fc6 <- pool5
I0403 13:28:11.441495 32286 net.cpp:399] fc6 -> fc6
I0403 13:28:13.060369 32286 net.cpp:141] Setting up fc6
I0403 13:28:13.060425 32286 net.cpp:148] Top shape: 100 4096 (409600)
I0403 13:28:13.060441 32286 net.cpp:156] Memory required for data: 823334000
I0403 13:28:13.060464 32286 layer_factory.hpp:77] Creating layer relu6
I0403 13:28:13.060488 32286 net.cpp:91] Creating Layer relu6
I0403 13:28:13.060508 32286 net.cpp:425] relu6 <- fc6
I0403 13:28:13.060529 32286 net.cpp:386] relu6 -> fc6 (in-place)
I0403 13:28:13.060760 32286 net.cpp:141] Setting up relu6
I0403 13:28:13.060784 32286 net.cpp:148] Top shape: 100 4096 (409600)
I0403 13:28:13.060799 32286 net.cpp:156] Memory required for data: 824972400
I0403 13:28:13.060816 32286 layer_factory.hpp:77] Creating layer drop6
I0403 13:28:13.060834 32286 net.cpp:91] Creating Layer drop6
I0403 13:28:13.060850 32286 net.cpp:425] drop6 <- fc6
I0403 13:28:13.060870 32286 net.cpp:386] drop6 -> fc6 (in-place)
I0403 13:28:13.060922 32286 net.cpp:141] Setting up drop6
I0403 13:28:13.060946 32286 net.cpp:148] Top shape: 100 4096 (409600)
I0403 13:28:13.060964 32286 net.cpp:156] Memory required for data: 826610800
I0403 13:28:13.060981 32286 layer_factory.hpp:77] Creating layer fc7
I0403 13:28:13.060999 32286 net.cpp:91] Creating Layer fc7
I0403 13:28:13.061015 32286 net.cpp:425] fc7 <- fc6
I0403 13:28:13.061036 32286 net.cpp:399] fc7 -> fc7
I0403 13:28:13.782794 32286 net.cpp:141] Setting up fc7
I0403 13:28:13.782866 32286 net.cpp:148] Top shape: 100 4096 (409600)
I0403 13:28:13.782883 32286 net.cpp:156] Memory required for data: 828249200
I0403 13:28:13.782905 32286 layer_factory.hpp:77] Creating layer relu7
I0403 13:28:13.782928 32286 net.cpp:91] Creating Layer relu7
I0403 13:28:13.782948 32286 net.cpp:425] relu7 <- fc7
I0403 13:28:13.782969 32286 net.cpp:386] relu7 -> fc7 (in-place)
I0403 13:28:13.783396 32286 net.cpp:141] Setting up relu7
I0403 13:28:13.783427 32286 net.cpp:148] Top shape: 100 4096 (409600)
I0403 13:28:13.783478 32286 net.cpp:156] Memory required for data: 829887600
I0403 13:28:13.783495 32286 layer_factory.hpp:77] Creating layer drop7
I0403 13:28:13.783515 32286 net.cpp:91] Creating Layer drop7
I0403 13:28:13.783532 32286 net.cpp:425] drop7 <- fc7
I0403 13:28:13.783553 32286 net.cpp:386] drop7 -> fc7 (in-place)
I0403 13:28:13.783599 32286 net.cpp:141] Setting up drop7
I0403 13:28:13.783623 32286 net.cpp:148] Top shape: 100 4096 (409600)
I0403 13:28:13.783639 32286 net.cpp:156] Memory required for data: 831526000
I0403 13:28:13.783654 32286 layer_factory.hpp:77] Creating layer fc8_plantvillage
I0403 13:28:13.783679 32286 net.cpp:91] Creating Layer fc8_plantvillage
I0403 13:28:13.783695 32286 net.cpp:425] fc8_plantvillage <- fc7
I0403 13:28:13.783718 32286 net.cpp:399] fc8_plantvillage -> fc8_plantvillage
I0403 13:28:13.790853 32286 net.cpp:141] Setting up fc8_plantvillage
I0403 13:28:13.790884 32286 net.cpp:148] Top shape: 100 38 (3800)
I0403 13:28:13.790900 32286 net.cpp:156] Memory required for data: 831541200
I0403 13:28:13.790920 32286 layer_factory.hpp:77] Creating layer fc8_plantvillage_fc8_plantvillage_0_split
I0403 13:28:13.790940 32286 net.cpp:91] Creating Layer fc8_plantvillage_fc8_plantvillage_0_split
I0403 13:28:13.790956 32286 net.cpp:425] fc8_plantvillage_fc8_plantvillage_0_split <- fc8_plantvillage
I0403 13:28:13.790976 32286 net.cpp:399] fc8_plantvillage_fc8_plantvillage_0_split -> fc8_plantvillage_fc8_plantvillage_0_split_0
I0403 13:28:13.790997 32286 net.cpp:399] fc8_plantvillage_fc8_plantvillage_0_split -> fc8_plantvillage_fc8_plantvillage_0_split_1
I0403 13:28:13.791019 32286 net.cpp:399] fc8_plantvillage_fc8_plantvillage_0_split -> fc8_plantvillage_fc8_plantvillage_0_split_2
I0403 13:28:13.791101 32286 net.cpp:141] Setting up fc8_plantvillage_fc8_plantvillage_0_split
I0403 13:28:13.791126 32286 net.cpp:148] Top shape: 100 38 (3800)
I0403 13:28:13.791143 32286 net.cpp:148] Top shape: 100 38 (3800)
I0403 13:28:13.791159 32286 net.cpp:148] Top shape: 100 38 (3800)
I0403 13:28:13.791173 32286 net.cpp:156] Memory required for data: 831586800
I0403 13:28:13.791195 32286 layer_factory.hpp:77] Creating layer prob
I0403 13:28:13.791215 32286 net.cpp:91] Creating Layer prob
I0403 13:28:13.791232 32286 net.cpp:425] prob <- fc8_plantvillage_fc8_plantvillage_0_split_0
I0403 13:28:13.791254 32286 net.cpp:399] prob -> prob
I0403 13:28:13.791493 32286 net.cpp:141] Setting up prob
I0403 13:28:13.791523 32286 net.cpp:148] Top shape: 100 38 (3800)
I0403 13:28:13.791540 32286 net.cpp:156] Memory required for data: 831602000
I0403 13:28:13.791555 32286 layer_factory.hpp:77] Creating layer hdf5out
I0403 13:28:13.791575 32286 net.cpp:91] Creating Layer hdf5out
I0403 13:28:13.791591 32286 net.cpp:425] hdf5out <- prob
I0403 13:28:13.791609 32286 net.cpp:425] hdf5out <- label_data_1_split_0
I0403 13:28:13.794095 32286 net.cpp:141] Setting up hdf5out
…
