…
I0403 13:10:14.756083 31632 net.cpp:313] The NetState phase (1) differed from the phase (0) specified by a rule in layer data
I0403 13:10:14.756393 31632 net.cpp:49] Initializing net from parameters: 
state {
  phase: TEST
}
layer {
  name: "data"
  type: "Data"
  top: "data"
  top: "label"
  include {
    phase: TEST
  }
  transform_param {
    crop_size: 227
    mean_file: "/home/mohanty/data/final_dataset/lmdb/grayscale-60-40/mean.binaryproto"
  }
  data_param {
    source: "/home/mohanty/data/final_dataset/lmdb/grayscale-60-40/test_db"
    batch_size: 100
    backend: LMDB
  }
}
layer {
  name: "conv1"
  type: "Convolution"
  bottom: "data"
  top: "conv1"
  param {
    lr_mult: 1
    decay_mult: 1
  }
  param {
    lr_mult: 2
    decay_mult: 0
  }
  convolution_param {
    num_output: 96
    kernel_size: 11
    stride: 4
    weight_filler {
      type: "gaussian"
      std: 0.01
    }
    bias_filler {
      type: "constant"
      value: 0
    }
  }
}
layer {
  name: "relu1"
  type: "ReLU"
  bottom: "conv1"
  top: "conv1"
}
layer {
  name: "norm1"
  type: "LRN"
  bottom: "conv1"
  top: "norm1"
  lrn_param {
    local_size: 5
    alpha: 0.0001
    beta: 0.75
  }
}
layer {
  name: "pool1"
  type: "Pooling"
  bottom: "norm1"
  top: "pool1"
  pooling_param {
    pool: MAX
    kernel_size: 3
    stride: 2
  }
}
layer {
  name: "conv2"
  type: "Convolution"
  bottom: "pool1"
  top: "conv2"
  param {
    lr_mult: 1
    decay_mult: 1
  }
  param {
    lr_mult: 2
    decay_mult: 0
  }
  convolution_param {
    num_output: 256
    pad: 2
    kernel_size: 5
    group: 2
    weight_filler {
      type: "gaussian"
      std: 0.01
    }
    bias_filler {
      type: "constant"
      value: 0.1
    }
  }
}
layer {
  name: "relu2"
  type: "ReLU"
  bottom: "conv2"
  top: "conv2"
}
layer {
  name: "norm2"
  type: "LRN"
  bottom: "conv2"
  top: "norm2"
  lrn_param {
    local_size: 5
    alpha: 0.0001
    beta: 0.75
  }
}
layer {
  name: "pool2"
  type: "Pooling"
  bottom: "norm2"
  top: "pool2"
  pooling_param {
    pool: MAX
    kernel_size: 3
    stride: 2
  }
}
layer {
  name: "conv3"
  type: "Convolution"
  bottom: "pool2"
  top: "conv3"
  param {
    lr_mult: 1
    decay_mult: 1
  }
  param {
    lr_mult: 2
    decay_mult: 0
  }
  convolution_param {
    num_output: 384
    pad: 1
    kernel_size: 3
    weight_filler {
      type: "gaussian"
      std: 0.01
    }
    bias_filler {
      type: "constant"
      value: 0
    }
  }
}
layer {
  name: "relu3"
  type: "ReLU"
  bottom: "conv3"
  top: "conv3"
}
layer {
  name: "conv4"
  type: "Convolution"
  bottom: "conv3"
  top: "conv4"
  param {
    lr_mult: 1
    decay_mult: 1
  }
  param {
    lr_mult: 2
    decay_mult: 0
  }
  convolution_param {
    num_output: 384
    pad: 1
    kernel_size: 3
    group: 2
    weight_filler {
      type: "gaussian"
      std: 0.01
    }
    bias_filler {
      type: "constant"
      value: 0.1
    }
  }
}
layer {
  name: "relu4"
  type: "ReLU"
  bottom: "conv4"
  top: "conv4"
}
layer {
  name: "conv5"
  type: "Convolution"
  bottom: "conv4"
  top: "conv5"
  param {
    lr_mult: 1
    decay_mult: 1
  }
  param {
    lr_mult: 2
    decay_mult: 0
  }
  convolution_param {
    num_output: 256
    pad: 1
    kernel_size: 3
    group: 2
    weight_filler {
      type: "gaussian"
      std: 0.01
    }
    bias_filler {
      type: "constant"
      value: 0.1
    }
  }
}
layer {
  name: "relu5"
  type: "ReLU"
  bottom: "conv5"
  top: "conv5"
}
layer {
  name: "pool5"
  type: "Pooling"
  bottom: "conv5"
  top: "pool5"
  pooling_param {
    pool: MAX
    kernel_size: 3
    stride: 2
  }
}
layer {
  name: "fc6"
  type: "InnerProduct"
  bottom: "pool5"
  top: "fc6"
  param {
    lr_mult: 1
    decay_mult: 1
  }
  param {
    lr_mult: 2
    decay_mult: 0
  }
  inner_product_param {
    num_output: 4096
    weight_filler {
      type: "gaussian"
      std: 0.005
    }
    bias_filler {
      type: "constant"
      value: 0.1
    }
  }
}
layer {
  name: "relu6"
  type: "ReLU"
  bottom: "fc6"
  top: "fc6"
}
layer {
  name: "drop6"
  type: "Dropout"
  bottom: "fc6"
  top: "fc6"
  dropout_param {
    dropout_ratio: 0.5
  }
}
layer {
  name: "fc7"
  type: "InnerProduct"
  bottom: "fc6"
  top: "fc7"
  param {
    lr_mult: 1
    decay_mult: 1
  }
  param {
    lr_mult: 2
    decay_mult: 0
  }
  inner_product_param {
    num_output: 4096
    weight_filler {
      type: "gaussian"
      std: 0.005
    }
    bias_filler {
      type: "constant"
      value: 0.1
    }
  }
}
layer {
  name: "relu7"
  type: "ReLU"
  bottom: "fc7"
  top: "fc7"
}
layer {
  name: "drop7"
  type: "Dropout"
  bottom: "fc7"
  top: "fc7"
  dropout_param {
    dropout_ratio: 0.5
  }
}
layer {
  name: "fc8_plantvillage"
  type: "InnerProduct"
  bottom: "fc7"
  top: "fc8_plantvillage"
  param {
    lr_mult: 1
    decay_mult: 1
  }
  param {
    lr_mult: 2
    decay_mult: 0
  }
  inner_product_param {
    num_output: 38
    weight_filler {
      type: "gaussian"
      std: 0.01
    }
    bias_filler {
      type: "constant"
      value: 0
    }
  }
}
layer {
  name: "prob"
  type: "Softmax"
  bottom: "fc8_plantvillage"
  top: "prob"
  include {
    phase: TEST
  }
}
layer {
  name: "hdf5out"
  type: "HDF5Output"
  bottom: "prob"
  bottom: "label"
  include {
    phase: TEST
  }
  hdf5_output_param {
    file_name: "hdf5_dumps/iter_650.h5"
  }
}
layer {
  name: "loss"
  type: "SoftmaxWithLoss"
  bottom: "fc8_plantvillage"
  bottom: "label"
  top: "loss"
}
layer {
  name: "accuracy"
  type: "Accuracy"
  bottom: "fc8_plantvillage"
  bottom: "label"
  top: "accuracy"
  include {
    phase: TEST
  }
}
I0403 13:10:14.756953 31632 layer_factory.hpp:77] Creating layer data
I0403 13:10:14.757609 31632 net.cpp:91] Creating Layer data
I0403 13:10:14.757640 31632 net.cpp:399] data -> data
I0403 13:10:14.757694 31632 net.cpp:399] data -> label
I0403 13:10:14.757731 31632 data_transformer.cpp:25] Loading mean file from: /home/mohanty/data/final_dataset/lmdb/grayscale-60-40/mean.binaryproto
I0403 13:10:14.766052 31635 db_lmdb.cpp:38] Opened lmdb /home/mohanty/data/final_dataset/lmdb/grayscale-60-40/test_db
I0403 13:10:14.771088 31632 data_layer.cpp:41] output data size: 100,3,227,227
I0403 13:10:14.891573 31632 net.cpp:141] Setting up data
I0403 13:10:14.891679 31632 net.cpp:148] Top shape: 100 3 227 227 (15458700)
I0403 13:10:14.891701 31632 net.cpp:148] Top shape: 100 (100)
I0403 13:10:14.891718 31632 net.cpp:156] Memory required for data: 61835200
I0403 13:10:14.891746 31632 layer_factory.hpp:77] Creating layer label_data_1_split
I0403 13:10:14.891772 31632 net.cpp:91] Creating Layer label_data_1_split
I0403 13:10:14.891791 31632 net.cpp:425] label_data_1_split <- label
I0403 13:10:14.891824 31632 net.cpp:399] label_data_1_split -> label_data_1_split_0
I0403 13:10:14.891851 31632 net.cpp:399] label_data_1_split -> label_data_1_split_1
I0403 13:10:14.891872 31632 net.cpp:399] label_data_1_split -> label_data_1_split_2
I0403 13:10:14.891937 31632 net.cpp:141] Setting up label_data_1_split
I0403 13:10:14.891962 31632 net.cpp:148] Top shape: 100 (100)
I0403 13:10:14.891979 31632 net.cpp:148] Top shape: 100 (100)
I0403 13:10:14.891998 31632 net.cpp:148] Top shape: 100 (100)
I0403 13:10:14.892012 31632 net.cpp:156] Memory required for data: 61836400
I0403 13:10:14.892027 31632 layer_factory.hpp:77] Creating layer conv1
I0403 13:10:14.892058 31632 net.cpp:91] Creating Layer conv1
I0403 13:10:14.892077 31632 net.cpp:425] conv1 <- data
I0403 13:10:14.892097 31632 net.cpp:399] conv1 -> conv1
I0403 13:10:15.030694 31632 net.cpp:141] Setting up conv1
I0403 13:10:15.030758 31632 net.cpp:148] Top shape: 100 96 55 55 (29040000)
I0403 13:10:15.030776 31632 net.cpp:156] Memory required for data: 177996400
I0403 13:10:15.030807 31632 layer_factory.hpp:77] Creating layer relu1
I0403 13:10:15.030835 31632 net.cpp:91] Creating Layer relu1
I0403 13:10:15.030854 31632 net.cpp:425] relu1 <- conv1
I0403 13:10:15.030874 31632 net.cpp:386] relu1 -> conv1 (in-place)
I0403 13:10:15.031127 31632 net.cpp:141] Setting up relu1
I0403 13:10:15.031154 31632 net.cpp:148] Top shape: 100 96 55 55 (29040000)
I0403 13:10:15.031205 31632 net.cpp:156] Memory required for data: 294156400
I0403 13:10:15.031224 31632 layer_factory.hpp:77] Creating layer norm1
I0403 13:10:15.031251 31632 net.cpp:91] Creating Layer norm1
I0403 13:10:15.031270 31632 net.cpp:425] norm1 <- conv1
I0403 13:10:15.031288 31632 net.cpp:399] norm1 -> norm1
I0403 13:10:15.031594 31632 net.cpp:141] Setting up norm1
I0403 13:10:15.031623 31632 net.cpp:148] Top shape: 100 96 55 55 (29040000)
I0403 13:10:15.031640 31632 net.cpp:156] Memory required for data: 410316400
I0403 13:10:15.031654 31632 layer_factory.hpp:77] Creating layer pool1
I0403 13:10:15.031678 31632 net.cpp:91] Creating Layer pool1
I0403 13:10:15.031695 31632 net.cpp:425] pool1 <- norm1
I0403 13:10:15.031713 31632 net.cpp:399] pool1 -> pool1
I0403 13:10:15.031780 31632 net.cpp:141] Setting up pool1
I0403 13:10:15.031805 31632 net.cpp:148] Top shape: 100 96 27 27 (6998400)
I0403 13:10:15.031822 31632 net.cpp:156] Memory required for data: 438310000
I0403 13:10:15.031837 31632 layer_factory.hpp:77] Creating layer conv2
I0403 13:10:15.031867 31632 net.cpp:91] Creating Layer conv2
I0403 13:10:15.031883 31632 net.cpp:425] conv2 <- pool1
I0403 13:10:15.031903 31632 net.cpp:399] conv2 -> conv2
I0403 13:10:15.047370 31632 net.cpp:141] Setting up conv2
I0403 13:10:15.047427 31632 net.cpp:148] Top shape: 100 256 27 27 (18662400)
I0403 13:10:15.047444 31632 net.cpp:156] Memory required for data: 512959600
I0403 13:10:15.047472 31632 layer_factory.hpp:77] Creating layer relu2
I0403 13:10:15.047493 31632 net.cpp:91] Creating Layer relu2
I0403 13:10:15.047510 31632 net.cpp:425] relu2 <- conv2
I0403 13:10:15.047530 31632 net.cpp:386] relu2 -> conv2 (in-place)
I0403 13:10:15.047819 31632 net.cpp:141] Setting up relu2
I0403 13:10:15.047849 31632 net.cpp:148] Top shape: 100 256 27 27 (18662400)
I0403 13:10:15.047866 31632 net.cpp:156] Memory required for data: 587609200
I0403 13:10:15.047883 31632 layer_factory.hpp:77] Creating layer norm2
I0403 13:10:15.047906 31632 net.cpp:91] Creating Layer norm2
I0403 13:10:15.047927 31632 net.cpp:425] norm2 <- conv2
I0403 13:10:15.047950 31632 net.cpp:399] norm2 -> norm2
I0403 13:10:15.048168 31632 net.cpp:141] Setting up norm2
I0403 13:10:15.048202 31632 net.cpp:148] Top shape: 100 256 27 27 (18662400)
I0403 13:10:15.048218 31632 net.cpp:156] Memory required for data: 662258800
I0403 13:10:15.048233 31632 layer_factory.hpp:77] Creating layer pool2
I0403 13:10:15.048254 31632 net.cpp:91] Creating Layer pool2
I0403 13:10:15.048271 31632 net.cpp:425] pool2 <- norm2
I0403 13:10:15.048290 31632 net.cpp:399] pool2 -> pool2
I0403 13:10:15.048346 31632 net.cpp:141] Setting up pool2
I0403 13:10:15.048369 31632 net.cpp:148] Top shape: 100 256 13 13 (4326400)
I0403 13:10:15.048384 31632 net.cpp:156] Memory required for data: 679564400
I0403 13:10:15.048399 31632 layer_factory.hpp:77] Creating layer conv3
I0403 13:10:15.048424 31632 net.cpp:91] Creating Layer conv3
I0403 13:10:15.048441 31632 net.cpp:425] conv3 <- pool2
I0403 13:10:15.048463 31632 net.cpp:399] conv3 -> conv3
I0403 13:10:15.087023 31632 net.cpp:141] Setting up conv3
I0403 13:10:15.087108 31632 net.cpp:148] Top shape: 100 384 13 13 (6489600)
I0403 13:10:15.087126 31632 net.cpp:156] Memory required for data: 705522800
I0403 13:10:15.087152 31632 layer_factory.hpp:77] Creating layer relu3
I0403 13:10:15.087182 31632 net.cpp:91] Creating Layer relu3
I0403 13:10:15.087203 31632 net.cpp:425] relu3 <- conv3
I0403 13:10:15.087221 31632 net.cpp:386] relu3 -> conv3 (in-place)
I0403 13:10:15.087504 31632 net.cpp:141] Setting up relu3
I0403 13:10:15.087532 31632 net.cpp:148] Top shape: 100 384 13 13 (6489600)
I0403 13:10:15.087548 31632 net.cpp:156] Memory required for data: 731481200
I0403 13:10:15.087561 31632 layer_factory.hpp:77] Creating layer conv4
I0403 13:10:15.087589 31632 net.cpp:91] Creating Layer conv4
I0403 13:10:15.087606 31632 net.cpp:425] conv4 <- conv3
I0403 13:10:15.087626 31632 net.cpp:399] conv4 -> conv4
I0403 13:10:15.117552 31632 net.cpp:141] Setting up conv4
I0403 13:10:15.117641 31632 net.cpp:148] Top shape: 100 384 13 13 (6489600)
I0403 13:10:15.117691 31632 net.cpp:156] Memory required for data: 757439600
I0403 13:10:15.117712 31632 layer_factory.hpp:77] Creating layer relu4
I0403 13:10:15.117738 31632 net.cpp:91] Creating Layer relu4
I0403 13:10:15.117755 31632 net.cpp:425] relu4 <- conv4
I0403 13:10:15.117774 31632 net.cpp:386] relu4 -> conv4 (in-place)
I0403 13:10:15.118057 31632 net.cpp:141] Setting up relu4
I0403 13:10:15.118084 31632 net.cpp:148] Top shape: 100 384 13 13 (6489600)
I0403 13:10:15.118099 31632 net.cpp:156] Memory required for data: 783398000
I0403 13:10:15.118115 31632 layer_factory.hpp:77] Creating layer conv5
I0403 13:10:15.118144 31632 net.cpp:91] Creating Layer conv5
I0403 13:10:15.118161 31632 net.cpp:425] conv5 <- conv4
I0403 13:10:15.118190 31632 net.cpp:399] conv5 -> conv5
I0403 13:10:15.139080 31632 net.cpp:141] Setting up conv5
I0403 13:10:15.139117 31632 net.cpp:148] Top shape: 100 256 13 13 (4326400)
I0403 13:10:15.139133 31632 net.cpp:156] Memory required for data: 800703600
I0403 13:10:15.139161 31632 layer_factory.hpp:77] Creating layer relu5
I0403 13:10:15.139190 31632 net.cpp:91] Creating Layer relu5
I0403 13:10:15.139209 31632 net.cpp:425] relu5 <- conv5
I0403 13:10:15.139228 31632 net.cpp:386] relu5 -> conv5 (in-place)
I0403 13:10:15.139518 31632 net.cpp:141] Setting up relu5
I0403 13:10:15.139544 31632 net.cpp:148] Top shape: 100 256 13 13 (4326400)
I0403 13:10:15.139561 31632 net.cpp:156] Memory required for data: 818009200
I0403 13:10:15.139576 31632 layer_factory.hpp:77] Creating layer pool5
I0403 13:10:15.139598 31632 net.cpp:91] Creating Layer pool5
I0403 13:10:15.139613 31632 net.cpp:425] pool5 <- conv5
I0403 13:10:15.139634 31632 net.cpp:399] pool5 -> pool5
I0403 13:10:15.139732 31632 net.cpp:141] Setting up pool5
I0403 13:10:15.139757 31632 net.cpp:148] Top shape: 100 256 6 6 (921600)
I0403 13:10:15.139771 31632 net.cpp:156] Memory required for data: 821695600
I0403 13:10:15.139787 31632 layer_factory.hpp:77] Creating layer fc6
I0403 13:10:15.139816 31632 net.cpp:91] Creating Layer fc6
I0403 13:10:15.139834 31632 net.cpp:425] fc6 <- pool5
I0403 13:10:15.139855 31632 net.cpp:399] fc6 -> fc6
I0403 13:10:16.727309 31632 net.cpp:141] Setting up fc6
I0403 13:10:16.727401 31632 net.cpp:148] Top shape: 100 4096 (409600)
I0403 13:10:16.727416 31632 net.cpp:156] Memory required for data: 823334000
I0403 13:10:16.727438 31632 layer_factory.hpp:77] Creating layer relu6
I0403 13:10:16.727463 31632 net.cpp:91] Creating Layer relu6
I0403 13:10:16.727479 31632 net.cpp:425] relu6 <- fc6
I0403 13:10:16.727502 31632 net.cpp:386] relu6 -> fc6 (in-place)
I0403 13:10:16.727746 31632 net.cpp:141] Setting up relu6
I0403 13:10:16.727771 31632 net.cpp:148] Top shape: 100 4096 (409600)
I0403 13:10:16.727787 31632 net.cpp:156] Memory required for data: 824972400
I0403 13:10:16.727802 31632 layer_factory.hpp:77] Creating layer drop6
I0403 13:10:16.727823 31632 net.cpp:91] Creating Layer drop6
I0403 13:10:16.727838 31632 net.cpp:425] drop6 <- fc6
I0403 13:10:16.727855 31632 net.cpp:386] drop6 -> fc6 (in-place)
I0403 13:10:16.727908 31632 net.cpp:141] Setting up drop6
I0403 13:10:16.727931 31632 net.cpp:148] Top shape: 100 4096 (409600)
I0403 13:10:16.727946 31632 net.cpp:156] Memory required for data: 826610800
I0403 13:10:16.727960 31632 layer_factory.hpp:77] Creating layer fc7
I0403 13:10:16.727982 31632 net.cpp:91] Creating Layer fc7
I0403 13:10:16.727999 31632 net.cpp:425] fc7 <- fc6
I0403 13:10:16.728018 31632 net.cpp:399] fc7 -> fc7
I0403 13:10:17.455761 31632 net.cpp:141] Setting up fc7
I0403 13:10:17.455837 31632 net.cpp:148] Top shape: 100 4096 (409600)
I0403 13:10:17.455853 31632 net.cpp:156] Memory required for data: 828249200
I0403 13:10:17.455873 31632 layer_factory.hpp:77] Creating layer relu7
I0403 13:10:17.455898 31632 net.cpp:91] Creating Layer relu7
I0403 13:10:17.455915 31632 net.cpp:425] relu7 <- fc7
I0403 13:10:17.455935 31632 net.cpp:386] relu7 -> fc7 (in-place)
I0403 13:10:17.456339 31632 net.cpp:141] Setting up relu7
I0403 13:10:17.456365 31632 net.cpp:148] Top shape: 100 4096 (409600)
I0403 13:10:17.456430 31632 net.cpp:156] Memory required for data: 829887600
I0403 13:10:17.456446 31632 layer_factory.hpp:77] Creating layer drop7
I0403 13:10:17.456467 31632 net.cpp:91] Creating Layer drop7
I0403 13:10:17.456483 31632 net.cpp:425] drop7 <- fc7
I0403 13:10:17.456501 31632 net.cpp:386] drop7 -> fc7 (in-place)
I0403 13:10:17.456545 31632 net.cpp:141] Setting up drop7
I0403 13:10:17.456568 31632 net.cpp:148] Top shape: 100 4096 (409600)
I0403 13:10:17.456581 31632 net.cpp:156] Memory required for data: 831526000
I0403 13:10:17.456596 31632 layer_factory.hpp:77] Creating layer fc8_plantvillage
I0403 13:10:17.456615 31632 net.cpp:91] Creating Layer fc8_plantvillage
I0403 13:10:17.456631 31632 net.cpp:425] fc8_plantvillage <- fc7
I0403 13:10:17.456651 31632 net.cpp:399] fc8_plantvillage -> fc8_plantvillage
I0403 13:10:17.463624 31632 net.cpp:141] Setting up fc8_plantvillage
I0403 13:10:17.463656 31632 net.cpp:148] Top shape: 100 38 (3800)
I0403 13:10:17.463672 31632 net.cpp:156] Memory required for data: 831541200
I0403 13:10:17.463691 31632 layer_factory.hpp:77] Creating layer fc8_plantvillage_fc8_plantvillage_0_split
I0403 13:10:17.463709 31632 net.cpp:91] Creating Layer fc8_plantvillage_fc8_plantvillage_0_split
I0403 13:10:17.463724 31632 net.cpp:425] fc8_plantvillage_fc8_plantvillage_0_split <- fc8_plantvillage
I0403 13:10:17.463742 31632 net.cpp:399] fc8_plantvillage_fc8_plantvillage_0_split -> fc8_plantvillage_fc8_plantvillage_0_split_0
I0403 13:10:17.463762 31632 net.cpp:399] fc8_plantvillage_fc8_plantvillage_0_split -> fc8_plantvillage_fc8_plantvillage_0_split_1
I0403 13:10:17.463781 31632 net.cpp:399] fc8_plantvillage_fc8_plantvillage_0_split -> fc8_plantvillage_fc8_plantvillage_0_split_2
I0403 13:10:17.463856 31632 net.cpp:141] Setting up fc8_plantvillage_fc8_plantvillage_0_split
I0403 13:10:17.463879 31632 net.cpp:148] Top shape: 100 38 (3800)
I0403 13:10:17.463896 31632 net.cpp:148] Top shape: 100 38 (3800)
I0403 13:10:17.463910 31632 net.cpp:148] Top shape: 100 38 (3800)
I0403 13:10:17.463925 31632 net.cpp:156] Memory required for data: 831586800
I0403 13:10:17.463939 31632 layer_factory.hpp:77] Creating layer prob
I0403 13:10:17.463958 31632 net.cpp:91] Creating Layer prob
I0403 13:10:17.463973 31632 net.cpp:425] prob <- fc8_plantvillage_fc8_plantvillage_0_split_0
I0403 13:10:17.463989 31632 net.cpp:399] prob -> prob
I0403 13:10:17.464221 31632 net.cpp:141] Setting up prob
I0403 13:10:17.464246 31632 net.cpp:148] Top shape: 100 38 (3800)
I0403 13:10:17.464262 31632 net.cpp:156] Memory required for data: 831602000
I0403 13:10:17.464275 31632 layer_factory.hpp:77] Creating layer hdf5out
I0403 13:10:17.464298 31632 net.cpp:91] Creating Layer hdf5out
I0403 13:10:17.464314 31632 net.cpp:425] hdf5out <- prob
I0403 13:10:17.464331 31632 net.cpp:425] hdf5out <- label_data_1_split_0
I0403 13:10:17.466760 31632 net.cpp:141] Setting up hdf5out
…
