…
I0403 19:37:08.635522 25312 net.cpp:313] The NetState phase (1) differed from the phase (0) specified by a rule in layer data
I0403 19:37:08.636651 25312 net.cpp:49] Initializing net from parameters: 
state {
  phase: TEST
}
layer {
  name: "data"
  type: "Data"
  top: "data"
  top: "label"
  include {
    phase: TEST
  }
  transform_param {
    mirror: false
    crop_size: 224
    mean_file: "/home/mohanty/data/final_dataset/lmdb/grayscale-80-20/mean.binaryproto"
  }
  data_param {
    source: "/home/mohanty/data/final_dataset/lmdb/grayscale-80-20/test_db"
    batch_size: 24
    backend: LMDB
  }
}
layer {
  name: "conv1/7x7_s2"
  type: "Convolution"
  bottom: "data"
  top: "conv1/7x7_s2"
  param {
    lr_mult: 1
    decay_mult: 1
  }
  param {
    lr_mult: 2
    decay_mult: 0
  }
  convolution_param {
    num_output: 64
    pad: 3
    kernel_size: 7
    stride: 2
    weight_filler {
      type: "xavier"
      std: 0.1
    }
    bias_filler {
      type: "constant"
      value: 0.2
    }
  }
}
layer {
  name: "conv1/relu_7x7"
  type: "ReLU"
  bottom: "conv1/7x7_s2"
  top: "conv1/7x7_s2"
}
layer {
  name: "pool1/3x3_s2"
  type: "Pooling"
  bottom: "conv1/7x7_s2"
  top: "pool1/3x3_s2"
  pooling_param {
    pool: MAX
    kernel_size: 3
    stride: 2
  }
}
layer {
  name: "pool1/norm1"
  type: "LRN"
  bottom: "pool1/3x3_s2"
  top: "pool1/norm1"
  lrn_param {
    local_size: 5
    alpha: 0.0001
    beta: 0.75
  }
}
layer {
  name: "conv2/3x3_reduce"
  type: "Convolution"
  bottom: "pool1/norm1"
  top: "conv2/3x3_reduce"
  param {
    lr_mult: 1
    decay_mult: 1
  }
  param {
    lr_mult: 2
    decay_mult: 0
  }
  convolution_param {
    num_output: 64
    kernel_size: 1
    weight_filler {
      type: "xavier"
      std: 0.1
    }
    bias_filler {
      type: "constant"
      value: 0.2
    }
  }
}
layer {
  name: "conv2/relu_3x3_reduce"
  type: "ReLU"
  bottom: "conv2/3x3_reduce"
  top: "conv2/3x3_reduce"
}
layer {
  name: "conv2/3x3"
  type: "Convolution"
  bottom: "conv2/3x3_reduce"
  top: "conv2/3x3"
  param {
    lr_mult: 1
    decay_mult: 1
  }
  param {
    lr_mult: 2
    decay_mult: 0
  }
  convolution_param {
    num_output: 192
    pad: 1
    kernel_size: 3
    weight_filler {
      type: "xavier"
      std: 0.03
    }
    bias_filler {
      type: "constant"
      value: 0.2
    }
  }
}
layer {
  name: "conv2/relu_3x3"
  type: "ReLU"
  bottom: "conv2/3x3"
  top: "conv2/3x3"
}
layer {
  name: "conv2/norm2"
  type: "LRN"
  bottom: "conv2/3x3"
  top: "conv2/norm2"
  lrn_param {
    local_size: 5
    alpha: 0.0001
    beta: 0.75
  }
}
layer {
  name: "pool2/3x3_s2"
  type: "Pooling"
  bottom: "conv2/norm2"
  top: "pool2/3x3_s2"
  pooling_param {
    pool: MAX
    kernel_size: 3
    stride: 2
  }
}
layer {
  name: "inception_3a/1x1"
  type: "Convolution"
  bottom: "pool2/3x3_s2"
  top: "inception_3a/1x1"
  param {
    lr_mult: 1
    decay_mult: 1
  }
  param {
    lr_mult: 2
    decay_mult: 0
  }
  convolution_param {
    num_output: 64
    kernel_size: 1
    weight_filler {
      type: "xavier"
      std: 0.03
    }
    bias_filler {
      type: "constant"
      value: 0.2
    }
  }
}
layer {
  name: "inception_3a/relu_1x1"
  type: "ReLU"
  bottom: "inception_3a/1x1"
  top: "inception_3a/1x1"
}
layer {
  name: "inception_3a/3x3_reduce"
  type: "Convolution"
  bottom: "pool2/3x3_s2"
  top: "inception_3a/3x3_reduce"
  param {
    lr_mult: 1
    decay_mult: 1
  }
  param {
    lr_mult: 2
    decay_mult: 0
  }
  convolution_param {
    num_output: 96
    kernel_size: 1
    weight_filler {
      type: "xavier"
      std: 0.09
    }
    bias_filler {
      type: "constant"
      value: 0.2
    }
  }
}
layer {
  name: "inception_3a/relu_3x3_reduce"
  type: "ReLU"
  bottom: "inception_3a/3x3_reduce"
  top: "inception_3a/3x3_reduce"
}
layer {
  name: "inception_3a/3x3"
  type: "Convolution"
  bottom: "inception_3a/3x3_reduce"
  top: "inception_3a/3x3"
  param {
    lr_mult: 1
    decay_mult: 1
  }
  param {
    lr_mult: 2
    decay_mult: 0
  }
  convolution_param {
    num_output: 128
    pad: 1
    kernel_size: 3
    weight_filler {
      type: "xavier"
      std: 0.03
    }
    bias_filler {
      type: "constant"
      value: 0.2
    }
  }
}
layer {
  name: "inception_3a/relu_3x3"
  type: "ReLU"
  bottom: "inception_3a/3x3"
  top: "inception_3a/3x3"
}
layer {
  name: "inception_3a/5x5_reduce"
  type: "Convolution"
  bottom: "pool2/3x3_s2"
  top: "inception_3a/5x5_reduce"
  param {
    lr_mult: 1
    decay_mult: 1
  }
  param {
    lr_mult: 2
    decay_mult: 0
  }
  convolution_param {
    num_output: 16
    kernel_size: 1
    weight_filler {
      type: "xavier"
      std: 0.2
    }
    bias_filler {
      type: "constant"
      value: 0.2
    }
  }
}
layer {
  name: "inception_3a/relu_5x5_reduce"
  type: "ReLU"
  bottom: "inception_3a/5x5_reduce"
  top: "inception_3a/5x5_reduce"
}
layer {
  name: "inception_3a/5x5"
  type: "Convolution"
  bottom: "inception_3a/5x5_reduce"
  top: "inception_3a/5x5"
  param {
    lr_mult: 1
    decay_mult: 1
  }
  param {
    lr_mult: 2
    decay_mult: 0
  }
  convolution_param {
    num_output: 32
    pad: 2
    kernel_size: 5
    weight_filler {
      type: "xavier"
      std: 0.03
    }
    bias_filler {
      type: "constant"
      value: 0.2
    }
  }
}
layer {
  name: "inception_3a/relu_5x5"
  type: "ReLU"
  bottom: "inception_3a/5x5"
  top: "inception_3a/5x5"
}
layer {
  name: "inception_3a/pool"
  type: "Pooling"
  bottom: "pool2/3x3_s2"
  top: "inception_3a/pool"
  pooling_param {
    pool: MAX
    kernel_size: 3
    stride: 1
    pad: 1
  }
}
layer {
  name: "inception_3a/pool_proj"
  type: "Convolution"
  bottom: "inception_3a/pool"
  top: "inception_3a/pool_proj"
  param {
    lr_mult: 1
    decay_mult: 1
  }
  param {
    lr_mult: 2
    decay_mult: 0
  }
  convolution_param {
    num_output: 32
    kernel_size: 1
    weight_filler {
      type: "xavier"
      std: 0.1
    }
    bias_filler {
      type: "constant"
      value: 0.2
    }
  }
}
layer {
  name: "inception_3a/relu_pool_proj"
  type: "ReLU"
  bottom: "inception_3a/pool_proj"
  top: "inception_3a/pool_proj"
}
layer {
  name: "inception_3a/output"
  type: "Concat"
  bottom: "inception_3a/1x1"
  bottom: "inception_3a/3x3"
  bottom: "inception_3a/5x5"
  bottom: "inception_3a/pool_proj"
  top: "inception_3a/output"
}
layer {
  name: "inception_3b/1x1"
  type: "Convolution"
  bottom: "inception_3a/output"
  top: "inception_3b/1x1"
  param {
    lr_mult: 1
    decay_mult: 1
  }
  param {
    lr_mult: 2
    decay_mult: 0
  }
  convolution_param {
    num_output: 128
    kernel_size: 1
    weight_filler {
      type: "xavier"
      std: 0.03
    }
    bias_filler {
      type: "constant"
      value: 0.2
    }
  }
}
layer {
  name: "inception_3b/relu_1x1"
  type: "ReLU"
  bottom: "inception_3b/1x1"
  top: "inception_3b/1x1"
}
layer {
  name: "inception_3b/3x3_reduce"
  type: "Convolution"
  bottom: "inception_3a/output"
  top: "inception_3b/3x3_reduce"
  param {
    lr_mult: 1
    decay_mult: 1
  }
  param {
    lr_mult: 2
    decay_mult: 0
  }
  convolution_param {
    num_output: 128
    kernel_size: 1
    weight_filler {
      type: "xavier"
      std: 0.09
    }
    bias_filler {
      type: "constant"
      value: 0.2
    }
  }
}
layer {
  name: "inception_3b/relu_3x3_reduce"
  type: "ReLU"
  bottom: "inception_3b/3x3_reduce"
  top: "inception_3b/3x3_reduce"
}
layer {
  name: "inception_3b/3x3"
  type: "Convolution"
  bottom: "inception_3b/3x3_reduce"
  top: "inception_3b/3x3"
  param {
    lr_mult: 1
    decay_mult: 1
  }
  param {
    lr_mult: 2
    decay_mult: 0
  }
  convolution_param {
    num_output: 192
    pad: 1
    kernel_size: 3
    weight_filler {
      type: "xavier"
      std: 0.03
    }
    bias_filler {
      type: "constant"
      value: 0.2
    }
  }
}
layer {
  name: "inception_3b/relu_3x3"
  type: "ReLU"
  bottom: "inception_3b/3x3"
  top: "inception_3b/3x3"
}
layer {
  name: "inception_3b/5x5_reduce"
  type: "Convolution"
  bottom: "inception_3a/output"
  top: "inception_3b/5x5_reduce"
  param {
    lr_mult: 1
    decay_mult: 1
  }
  param {
    lr_mult: 2
    decay_mult: 0
  }
  convolution_param {
    num_output: 32
    kernel_size: 1
    weight_filler {
      type: "xavier"
      std: 0.2
    }
    bias_filler {
      type: "constant"
      value: 0.2
    }
  }
}
layer {
  name: "inception_3b/relu_5x5_reduce"
  type: "ReLU"
  bottom: "inception_3b/5x5_reduce"
  top: "inception_3b/5x5_reduce"
}
layer {
  name: "inception_3b/5x5"
  type: "Convolution"
  bottom: "inception_3b/5x5_reduce"
  top: "inception_3b/5x5"
  param {
    lr_mult: 1
    decay_mult: 1
  }
  param {
    lr_mult: 2
    decay_mult: 0
  }
  convolution_param {
    num_output: 96
    pad: 2
    kernel_size: 5
    weight_filler {
      type: "xavier"
      std: 0.03
    }
    bias_filler {
      type: "constant"
      value: 0.2
    }
  }
}
layer {
  name: "inception_3b/relu_5x5"
  type: "ReLU"
  bottom: "inception_3b/5x5"
  top: "inception_3b/5x5"
}
layer {
  name: "inception_3b/pool"
  type: "Pooling"
  bottom: "inception_3a/output"
  top: "inception_3b/pool"
  pooling_param {
    pool: MAX
    kernel_size: 3
    stride: 1
    pad: 1
  }
}
layer {
  name: "inception_3b/pool_proj"
  type: "Convolution"
  bottom: "inception_3b/pool"
  top: "inception_3b/pool_proj"
  param {
    lr_mult: 1
    decay_mult: 1
  }
  param {
    lr_mult: 2
    decay_mult: 0
  }
  convolution_param {
    num_output: 64
    kernel_size: 1
    weight_filler {
      type: "xavier"
      std: 0.1
    }
    bias_filler {
      type: "constant"
      value: 0.2
    }
  }
}
layer {
  name: "inception_3b/relu_pool_proj"
  type: "ReLU"
  bottom: "inception_3b/pool_proj"
  top: "inception_3b/pool_proj"
}
layer {
  name: "inception_3b/output"
  type: "Concat"
  bottom: "inception_3b/1x1"
  bottom: "inception_3b/3x3"
  bottom: "inception_3b/5x5"
  bottom: "inception_3b/pool_proj"
  top: "inception_3b/output"
}
layer {
  name: "pool3/3x3_s2"
  type: "Pooling"
  bottom: "inception_3b/output"
  top: "pool3/3x3_s2"
  pooling_param {
    pool: MAX
    kernel_size: 3
    stride: 2
  }
}
layer {
  name: "inception_4a/1x1"
  type: "Convolution"
  bottom: "pool3/3x3_s2"
  top: "inception_4a/1x1"
  param {
    lr_mult: 1
    decay_mult: 1
  }
  param {
    lr_mult: 2
    decay_mult: 0
  }
  convolution_param {
    num_output: 192
    kernel_size: 1
    weight_filler {
      type: "xavier"
      std: 0.03
    }
    bias_filler {
      type: "constant"
      value: 0.2
    }
  }
}
layer {
  name: "inception_4a/relu_1x1"
  type: "ReLU"
  bottom: "inception_4a/1x1"
  top: "inception_4a/1x1"
}
layer {
  name: "inception_4a/3x3_reduce"
  type: "Convolution"
  bottom: "pool3/3x3_s2"
  top: "inception_4a/3x3_reduce"
  param {
    lr_mult: 1
    decay_mult: 1
  }
  param {
    lr_mult: 2
    decay_mult: 0
  }
  convolution_param {
    num_output: 96
    kernel_size: 1
    weight_filler {
      type: "xavier"
      std: 0.09
    }
    bias_filler {
      type: "constant"
      value: 0.2
    }
  }
}
layer {
  name: "inception_4a/relu_3x3_reduce"
  type: "ReLU"
  bottom: "inception_4a/3x3_reduce"
  top: "inception_4a/3x3_reduce"
}
layer {
  name: "inception_4a/3x3"
  type: "Convolution"
  bottom: "inception_4a/3x3_reduce"
  top: "inception_4a/3x3"
  param {
    lr_mult: 1
    decay_mult: 1
  }
  param {
    lr_mult: 2
    decay_mult: 0
  }
  convolution_param {
    num_output: 208
    pad: 1
    kernel_size: 3
    weight_filler {
      type: "xavier"
      std: 0.03
    }
    bias_filler {
      type: "constant"
      value: 0.2
    }
  }
}
layer {
  name: "inception_4a/relu_3x3"
  type: "ReLU"
  bottom: "inception_4a/3x3"
  top: "inception_4a/3x3"
}
layer {
  name: "inception_4a/5x5_reduce"
  type: "Convolution"
  bottom: "pool3/3x3_s2"
  top: "inception_4a/5x5_reduce"
  param {
    lr_mult: 1
    decay_mult: 1
  }
  param {
    lr_mult: 2
    decay_mult: 0
  }
  convolution_param {
    num_output: 16
    kernel_size: 1
    weight_filler {
      type: "xavier"
      std: 0.2
    }
    bias_filler {
      type: "constant"
      value: 0.2
    }
  }
}
layer {
  name: "inception_4a/relu_5x5_reduce"
  type: "ReLU"
  bottom: "inception_4a/5x5_reduce"
  top: "inception_4a/5x5_reduce"
}
layer {
  name: "inception_4a/5x5"
  type: "Convolution"
  bottom: "inception_4a/5x5_reduce"
  top: "inception_4a/5x5"
  param {
    lr_mult: 1
    decay_mult: 1
  }
  param {
    lr_mult: 2
    decay_mult: 0
  }
  convolution_param {
    num_output: 48
    pad: 2
    kernel_size: 5
    weight_filler {
      type: "xavier"
      std: 0.03
    }
    bias_filler {
      type: "constant"
      value: 0.2
    }
  }
}
layer {
  name: "inception_4a/relu_5x5"
  type: "ReLU"
  bottom: "inception_4a/5x5"
  top: "inception_4a/5x5"
}
layer {
  name: "inception_4a/pool"
  type: "Pooling"
  bottom: "pool3/3x3_s2"
  top: "inception_4a/pool"
  pooling_param {
    pool: MAX
    kernel_size: 3
    stride: 1
    pad: 1
  }
}
layer {
  name: "inception_4a/pool_proj"
  type: "Convolution"
  bottom: "inception_4a/pool"
  top: "inception_4a/pool_proj"
  param {
    lr_mult: 1
    decay_mult: 1
  }
  param {
    lr_mult: 2
    decay_mult: 0
  }
  convolution_param {
    num_output: 64
    kernel_size: 1
    weight_filler {
      type: "xavier"
      std: 0.1
    }
    bias_filler {
      type: "constant"
      value: 0.2
    }
  }
}
layer {
  name: "inception_4a/relu_pool_proj"
  type: "ReLU"
  bottom: "inception_4a/pool_proj"
  top: "inception_4a/pool_proj"
}
layer {
  name: "inception_4a/output"
  type: "Concat"
  bottom: "inception_4a/1x1"
  bottom: "inception_4a/3x3"
  bottom: "inception_4a/5x5"
  bottom: "inception_4a/pool_proj"
  top: "inception_4a/output"
}
layer {
  name: "loss1/ave_pool"
  type: "Pooling"
  bottom: "inception_4a/output"
  top: "loss1/ave_pool"
  pooling_param {
    pool: AVE
    kernel_size: 5
    stride: 3
  }
}
layer {
  name: "loss1/conv"
  type: "Convolution"
  bottom: "loss1/ave_pool"
  top: "loss1/conv"
  param {
    lr_mult: 1
    decay_mult: 1
  }
  param {
    lr_mult: 2
    decay_mult: 0
  }
  convolution_param {
    num_output: 128
    kernel_size: 1
    weight_filler {
      type: "xavier"
      std: 0.08
    }
    bias_filler {
      type: "constant"
      value: 0.2
    }
  }
}
layer {
  name: "loss1/relu_conv"
  type: "ReLU"
  bottom: "loss1/conv"
  top: "loss1/conv"
}
layer {
  name: "loss1/fc"
  type: "InnerProduct"
  bottom: "loss1/conv"
  top: "loss1/fc"
  param {
    lr_mult: 1
    decay_mult: 1
  }
  param {
    lr_mult: 2
    decay_mult: 0
  }
  inner_product_param {
    num_output: 1024
    weight_filler {
      type: "xavier"
      std: 0.02
    }
    bias_filler {
      type: "constant"
      value: 0.2
    }
  }
}
layer {
  name: "loss1/relu_fc"
  type: "ReLU"
  bottom: "loss1/fc"
  top: "loss1/fc"
}
layer {
  name: "loss1/drop_fc"
  type: "Dropout"
  bottom: "loss1/fc"
  top: "loss1/fc"
  dropout_param {
    dropout_ratio: 0.7
  }
}
layer {
  name: "loss1/classifier_plantvillage"
  type: "InnerProduct"
  bottom: "loss1/fc"
  top: "loss1/classifier_plantvillage"
  param {
    lr_mult: 1
    decay_mult: 1
  }
  param {
    lr_mult: 2
    decay_mult: 0
  }
  inner_product_param {
    num_output: 38
    weight_filler {
      type: "xavier"
      std: 0.0009765625
    }
    bias_filler {
      type: "constant"
      value: 0
    }
  }
}
layer {
  name: "inception_4b/1x1"
  type: "Convolution"
  bottom: "inception_4a/output"
  top: "inception_4b/1x1"
  param {
    lr_mult: 1
    decay_mult: 1
  }
  param {
    lr_mult: 2
    decay_mult: 0
  }
  convolution_param {
    num_output: 160
    kernel_size: 1
    weight_filler {
      type: "xavier"
      std: 0.03
    }
    bias_filler {
      type: "constant"
      value: 0.2
    }
  }
}
layer {
  name: "inception_4b/relu_1x1"
  type: "ReLU"
  bottom: "inception_4b/1x1"
  top: "inception_4b/1x1"
}
layer {
  name: "inception_4b/3x3_reduce"
  type: "Convolution"
  bottom: "inception_4a/output"
  top: "inception_4b/3x3_reduce"
  param {
    lr_mult: 1
    decay_mult: 1
  }
  param {
    lr_mult: 2
    decay_mult: 0
  }
  convolution_param {
    num_output: 112
    kernel_size: 1
    weight_filler {
      type: "xavier"
      std: 0.09
    }
    bias_filler {
      type: "constant"
      value: 0.2
    }
  }
}
layer {
  name: "inception_4b/relu_3x3_reduce"
  type: "ReLU"
  bottom: "inception_4b/3x3_reduce"
  top: "inception_4b/3x3_reduce"
}
layer {
  name: "inception_4b/3x3"
  type: "Convolution"
  bottom: "inception_4b/3x3_reduce"
  top: "inception_4b/3x3"
  param {
    lr_mult: 1
    decay_mult: 1
  }
  param {
    lr_mult: 2
    decay_mult: 0
  }
  convolution_param {
    num_output: 224
    pad: 1
    kernel_size: 3
    weight_filler {
      type: "xavier"
      std: 0.03
    }
    bias_filler {
      type: "constant"
      value: 0.2
    }
  }
}
layer {
  name: "inception_4b/relu_3x3"
  type: "ReLU"
  bottom: "inception_4b/3x3"
  top: "inception_4b/3x3"
}
layer {
  name: "inception_4b/5x5_reduce"
  type: "Convolution"
  bottom: "inception_4a/output"
  top: "inception_4b/5x5_reduce"
  param {
    lr_mult: 1
    decay_mult: 1
  }
  param {
    lr_mult: 2
    decay_mult: 0
  }
  convolution_param {
    num_output: 24
    kernel_size: 1
    weight_filler {
      type: "xavier"
      std: 0.2
    }
    bias_filler {
      type: "constant"
      value: 0.2
    }
  }
}
layer {
  name: "inception_4b/relu_5x5_reduce"
  type: "ReLU"
  bottom: "inception_4b/5x5_reduce"
  top: "inception_4b/5x5_reduce"
}
layer {
  name: "inception_4b/5x5"
  type: "Convolution"
  bottom: "inception_4b/5x5_reduce"
  top: "inception_4b/5x5"
  param {
    lr_mult: 1
    decay_mult: 1
  }
  param {
    lr_mult: 2
    decay_mult: 0
  }
  convolution_param {
    num_output: 64
    pad: 2
    kernel_size: 5
    weight_filler {
      type: "xavier"
      std: 0.03
    }
    bias_filler {
      type: "constant"
      value: 0.2
    }
  }
}
layer {
  name: "inception_4b/relu_5x5"
  type: "ReLU"
  bottom: "inception_4b/5x5"
  top: "inception_4b/5x5"
}
layer {
  name: "inception_4b/pool"
  type: "Pooling"
  bottom: "inception_4a/output"
  top: "inception_4b/pool"
  pooling_param {
    pool: MAX
    kernel_size: 3
    stride: 1
    pad: 1
  }
}
layer {
  name: "inception_4b/pool_proj"
  type: "Convolution"
  bottom: "inception_4b/pool"
  top: "inception_4b/pool_proj"
  param {
    lr_mult: 1
    decay_mult: 1
  }
  param {
    lr_mult: 2
    decay_mult: 0
  }
  convolution_param {
    num_output: 64
    kernel_size: 1
    weight_filler {
      type: "xavier"
      std: 0.1
    }
    bias_filler {
      type: "constant"
      value: 0.2
    }
  }
}
layer {
  name: "inception_4b/relu_pool_proj"
  type: "ReLU"
  bottom: "inception_4b/pool_proj"
  top: "inception_4b/pool_proj"
}
layer {
  name: "inception_4b/output"
  type: "Concat"
  bottom: "inception_4b/1x1"
  bottom: "inception_4b/3x3"
  bottom: "inception_4b/5x5"
  bottom: "inception_4b/pool_proj"
  top: "inception_4b/output"
}
layer {
  name: "inception_4c/1x1"
  type: "Convolution"
  bottom: "inception_4b/output"
  top: "inception_4c/1x1"
  param {
    lr_mult: 1
    decay_mult: 1
  }
  param {
    lr_mult: 2
    decay_mult: 0
  }
  convolution_param {
    num_output: 128
    kernel_size: 1
    weight_filler {
      type: "xavier"
      std: 0.03
    }
    bias_filler {
      type: "constant"
      value: 0.2
    }
  }
}
layer {
  name: "inception_4c/relu_1x1"
  type: "ReLU"
  bottom: "inception_4c/1x1"
  top: "inception_4c/1x1"
}
layer {
  name: "inception_4c/3x3_reduce"
  type: "Convolution"
  bottom: "inception_4b/output"
  top: "inception_4c/3x3_reduce"
  param {
    lr_mult: 1
    decay_mult: 1
  }
  param {
    lr_mult: 2
    decay_mult: 0
  }
  convolution_param {
    num_output: 128
    kernel_size: 1
    weight_filler {
      type: "xavier"
      std: 0.09
    }
    bias_filler {
      type: "constant"
      value: 0.2
    }
  }
}
layer {
  name: "inception_4c/relu_3x3_reduce"
  type: "ReLU"
  bottom: "inception_4c/3x3_reduce"
  top: "inception_4c/3x3_reduce"
}
layer {
  name: "inception_4c/3x3"
  type: "Convolution"
  bottom: "inception_4c/3x3_reduce"
  top: "inception_4c/3x3"
  param {
    lr_mult: 1
    decay_mult: 1
  }
  param {
    lr_mult: 2
    decay_mult: 0
  }
  convolution_param {
    num_output: 256
    pad: 1
    kernel_size: 3
    weight_filler {
      type: "xavier"
      std: 0.03
    }
    bias_filler {
      type: "constant"
      value: 0.2
    }
  }
}
layer {
  name: "inception_4c/relu_3x3"
  type: "ReLU"
  bottom: "inception_4c/3x3"
  top: "inception_4c/3x3"
}
layer {
  name: "inception_4c/5x5_reduce"
  type: "Convolution"
  bottom: "inception_4b/output"
  top: "inception_4c/5x5_reduce"
  param {
    lr_mult: 1
    decay_mult: 1
  }
  param {
    lr_mult: 2
    decay_mult: 0
  }
  convolution_param {
    num_output: 24
    kernel_size: 1
    weight_filler {
      type: "xavier"
      std: 0.2
    }
    bias_filler {
      type: "constant"
      value: 0.2
    }
  }
}
layer {
  name: "inception_4c/relu_5x5_reduce"
  type: "ReLU"
  bottom: "inception_4c/5x5_reduce"
  top: "inception_4c/5x5_reduce"
}
layer {
  name: "inception_4c/5x5"
  type: "Convolution"
  bottom: "inception_4c/5x5_reduce"
  top: "inception_4c/5x5"
  param {
    lr_mult: 1
    decay_mult: 1
  }
  param {
    lr_mult: 2
    decay_mult: 0
  }
  convolution_param {
    num_output: 64
    pad: 2
    kernel_size: 5
    weight_filler {
      type: "xavier"
      std: 0.03
    }
    bias_filler {
      type: "constant"
      value: 0.2
    }
  }
}
layer {
  name: "inception_4c/relu_5x5"
  type: "ReLU"
  bottom: "inception_4c/5x5"
  top: "inception_4c/5x5"
}
layer {
  name: "inception_4c/pool"
  type: "Pooling"
  bottom: "inception_4b/output"
  top: "inception_4c/pool"
  pooling_param {
    pool: MAX
    kernel_size: 3
    stride: 1
    pad: 1
  }
}
layer {
  name: "inception_4c/pool_proj"
  type: "Convolution"
  bottom: "inception_4c/pool"
  top: "inception_4c/pool_proj"
  param {
    lr_mult: 1
    decay_mult: 1
  }
  param {
    lr_mult: 2
    decay_mult: 0
  }
  convolution_param {
    num_output: 64
    kernel_size: 1
    weight_filler {
      type: "xavier"
      std: 0.1
    }
    bias_filler {
      type: "constant"
      value: 0.2
    }
  }
}
layer {
  name: "inception_4c/relu_pool_proj"
  type: "ReLU"
  bottom: "inception_4c/pool_proj"
  top: "inception_4c/pool_proj"
}
layer {
  name: "inception_4c/output"
  type: "Concat"
  bottom: "inception_4c/1x1"
  bottom: "inception_4c/3x3"
  bottom: "inception_4c/5x5"
  bottom: "inception_4c/pool_proj"
  top: "inception_4c/output"
}
layer {
  name: "inception_4d/1x1"
  type: "Convolution"
  bottom: "inception_4c/output"
  top: "inception_4d/1x1"
  param {
    lr_mult: 1
    decay_mult: 1
  }
  param {
    lr_mult: 2
    decay_mult: 0
  }
  convolution_param {
    num_output: 112
    kernel_size: 1
    weight_filler {
      type: "xavier"
      std: 0.03
    }
    bias_filler {
      type: "constant"
      value: 0.2
    }
  }
}
layer {
  name: "inception_4d/relu_1x1"
  type: "ReLU"
  bottom: "inception_4d/1x1"
  top: "inception_4d/1x1"
}
layer {
  name: "inception_4d/3x3_reduce"
  type: "Convolution"
  bottom: "inception_4c/output"
  top: "inception_4d/3x3_reduce"
  param {
    lr_mult: 1
    decay_mult: 1
  }
  param {
    lr_mult: 2
    decay_mult: 0
  }
  convolution_param {
    num_output: 144
    kernel_size: 1
    weight_filler {
      type: "xavier"
      std: 0.09
    }
    bias_filler {
      type: "constant"
      value: 0.2
    }
  }
}
layer {
  name: "inception_4d/relu_3x3_reduce"
  type: "ReLU"
  bottom: "inception_4d/3x3_reduce"
  top: "inception_4d/3x3_reduce"
}
layer {
  name: "inception_4d/3x3"
  type: "Convolution"
  bottom: "inception_4d/3x3_reduce"
  top: "inception_4d/3x3"
  param {
    lr_mult: 1
    decay_mult: 1
  }
  param {
    lr_mult: 2
    decay_mult: 0
  }
  convolution_param {
    num_output: 288
    pad: 1
    kernel_size: 3
    weight_filler {
      type: "xavier"
      std: 0.03
    }
    bias_filler {
      type: "constant"
      value: 0.2
    }
  }
}
layer {
  name: "inception_4d/relu_3x3"
  type: "ReLU"
  bottom: "inception_4d/3x3"
  top: "inception_4d/3x3"
}
layer {
  name: "inception_4d/5x5_reduce"
  type: "Convolution"
  bottom: "inception_4c/output"
  top: "inception_4d/5x5_reduce"
  param {
    lr_mult: 1
    decay_mult: 1
  }
  param {
    lr_mult: 2
    decay_mult: 0
  }
  convolution_param {
    num_output: 32
    kernel_size: 1
    weight_filler {
      type: "xavier"
      std: 0.2
    }
    bias_filler {
      type: "constant"
      value: 0.2
    }
  }
}
layer {
  name: "inception_4d/relu_5x5_reduce"
  type: "ReLU"
  bottom: "inception_4d/5x5_reduce"
  top: "inception_4d/5x5_reduce"
}
layer {
  name: "inception_4d/5x5"
  type: "Convolution"
  bottom: "inception_4d/5x5_reduce"
  top: "inception_4d/5x5"
  param {
    lr_mult: 1
    decay_mult: 1
  }
  param {
    lr_mult: 2
    decay_mult: 0
  }
  convolution_param {
    num_output: 64
    pad: 2
    kernel_size: 5
    weight_filler {
      type: "xavier"
      std: 0.03
    }
    bias_filler {
      type: "constant"
      value: 0.2
    }
  }
}
layer {
  name: "inception_4d/relu_5x5"
  type: "ReLU"
  bottom: "inception_4d/5x5"
  top: "inception_4d/5x5"
}
layer {
  name: "inception_4d/pool"
  type: "Pooling"
  bottom: "inception_4c/output"
  top: "inception_4d/pool"
  pooling_param {
    pool: MAX
    kernel_size: 3
    stride: 1
    pad: 1
  }
}
layer {
  name: "inception_4d/pool_proj"
  type: "Convolution"
  bottom: "inception_4d/pool"
  top: "inception_4d/pool_proj"
  param {
    lr_mult: 1
    decay_mult: 1
  }
  param {
    lr_mult: 2
    decay_mult: 0
  }
  convolution_param {
    num_output: 64
    kernel_size: 1
    weight_filler {
      type: "xavier"
      std: 0.1
    }
    bias_filler {
      type: "constant"
      value: 0.2
    }
  }
}
layer {
  name: "inception_4d/relu_pool_proj"
  type: "ReLU"
  bottom: "inception_4d/pool_proj"
  top: "inception_4d/pool_proj"
}
layer {
  name: "inception_4d/output"
  type: "Concat"
  bottom: "inception_4d/1x1"
  bottom: "inception_4d/3x3"
  bottom: "inception_4d/5x5"
  bottom: "inception_4d/pool_proj"
  top: "inception_4d/output"
}
layer {
  name: "loss2/ave_pool"
  type: "Pooling"
  bottom: "inception_4d/output"
  top: "loss2/ave_pool"
  pooling_param {
    pool: AVE
    kernel_size: 5
    stride: 3
  }
}
layer {
  name: "loss2/conv"
  type: "Convolution"
  bottom: "loss2/ave_pool"
  top: "loss2/conv"
  param {
    lr_mult: 1
    decay_mult: 1
  }
  param {
    lr_mult: 2
    decay_mult: 0
  }
  convolution_param {
    num_output: 128
    kernel_size: 1
    weight_filler {
      type: "xavier"
      std: 0.08
    }
    bias_filler {
      type: "constant"
      value: 0.2
    }
  }
}
layer {
  name: "loss2/relu_conv"
  type: "ReLU"
  bottom: "loss2/conv"
  top: "loss2/conv"
}
layer {
  name: "loss2/fc"
  type: "InnerProduct"
  bottom: "loss2/conv"
  top: "loss2/fc"
  param {
    lr_mult: 1
    decay_mult: 1
  }
  param {
    lr_mult: 2
    decay_mult: 0
  }
  inner_product_param {
    num_output: 1024
    weight_filler {
      type: "xavier"
      std: 0.02
    }
    bias_filler {
      type: "constant"
      value: 0.2
    }
  }
}
layer {
  name: "loss2/relu_fc"
  type: "ReLU"
  bottom: "loss2/fc"
  top: "loss2/fc"
}
layer {
  name: "loss2/drop_fc"
  type: "Dropout"
  bottom: "loss2/fc"
  top: "loss2/fc"
  dropout_param {
    dropout_ratio: 0.7
  }
}
layer {
  name: "loss2/classifier_plantvillage"
  type: "InnerProduct"
  bottom: "loss2/fc"
  top: "loss2/classifier_plantvillage"
  param {
    lr_mult: 1
    decay_mult: 1
  }
  param {
    lr_mult: 2
    decay_mult: 0
  }
  inner_product_param {
    num_output: 38
    weight_filler {
      type: "xavier"
      std: 0.0009765625
    }
    bias_filler {
      type: "constant"
      value: 0
    }
  }
}
layer {
  name: "inception_4e/1x1"
  type: "Convolution"
  bottom: "inception_4d/output"
  top: "inception_4e/1x1"
  param {
    lr_mult: 1
    decay_mult: 1
  }
  param {
    lr_mult: 2
    decay_mult: 0
  }
  convolution_param {
    num_output: 256
    kernel_size: 1
    weight_filler {
      type: "xavier"
      std: 0.03
    }
    bias_filler {
      type: "constant"
      value: 0.2
    }
  }
}
layer {
  name: "inception_4e/relu_1x1"
  type: "ReLU"
  bottom: "inception_4e/1x1"
  top: "inception_4e/1x1"
}
layer {
  name: "inception_4e/3x3_reduce"
  type: "Convolution"
  bottom: "inception_4d/output"
  top: "inception_4e/3x3_reduce"
  param {
    lr_mult: 1
    decay_mult: 1
  }
  param {
    lr_mult: 2
    decay_mult: 0
  }
  convolution_param {
    num_output: 160
    kernel_size: 1
    weight_filler {
      type: "xavier"
      std: 0.09
    }
    bias_filler {
      type: "constant"
      value: 0.2
    }
  }
}
layer {
  name: "inception_4e/relu_3x3_reduce"
  type: "ReLU"
  bottom: "inception_4e/3x3_reduce"
  top: "inception_4e/3x3_reduce"
}
layer {
  name: "inception_4e/3x3"
  type: "Convolution"
  bottom: "inception_4e/3x3_reduce"
  top: "inception_4e/3x3"
  param {
    lr_mult: 1
    decay_mult: 1
  }
  param {
    lr_mult: 2
    decay_mult: 0
  }
  convolution_param {
    num_output: 320
    pad: 1
    kernel_size: 3
    weight_filler {
      type: "xavier"
      std: 0.03
    }
    bias_filler {
      type: "constant"
      value: 0.2
    }
  }
}
layer {
  name: "inception_4e/relu_3x3"
  type: "ReLU"
  bottom: "inception_4e/3x3"
  top: "inception_4e/3x3"
}
layer {
  name: "inception_4e/5x5_reduce"
  type: "Convolution"
  bottom: "inception_4d/output"
  top: "inception_4e/5x5_reduce"
  param {
    lr_mult: 1
    decay_mult: 1
  }
  param {
    lr_mult: 2
    decay_mult: 0
  }
  convolution_param {
    num_output: 32
    kernel_size: 1
    weight_filler {
      type: "xavier"
      std: 0.2
    }
    bias_filler {
      type: "constant"
      value: 0.2
    }
  }
}
layer {
  name: "inception_4e/relu_5x5_reduce"
  type: "ReLU"
  bottom: "inception_4e/5x5_reduce"
  top: "inception_4e/5x5_reduce"
}
layer {
  name: "inception_4e/5x5"
  type: "Convolution"
  bottom: "inception_4e/5x5_reduce"
  top: "inception_4e/
I0403 19:37:08.638232 25312 layer_factory.hpp:77] Creating layer data
I0403 19:37:08.638842 25312 net.cpp:91] Creating Layer data
I0403 19:37:08.638877 25312 net.cpp:399] data -> data
I0403 19:37:08.638948 25312 net.cpp:399] data -> label
I0403 19:37:08.638991 25312 data_transformer.cpp:25] Loading mean file from: /home/mohanty/data/final_dataset/lmdb/grayscale-80-20/mean.binaryproto
I0403 19:37:08.639936 25314 db_lmdb.cpp:38] Opened lmdb /home/mohanty/data/final_dataset/lmdb/grayscale-80-20/test_db
I0403 19:37:08.652530 25312 data_layer.cpp:41] output data size: 24,3,224,224
I0403 19:37:08.680543 25312 net.cpp:141] Setting up data
I0403 19:37:08.680646 25312 net.cpp:148] Top shape: 24 3 224 224 (3612672)
I0403 19:37:08.680671 25312 net.cpp:148] Top shape: 24 (24)
I0403 19:37:08.680690 25312 net.cpp:156] Memory required for data: 14450784
I0403 19:37:08.680724 25312 layer_factory.hpp:77] Creating layer label_data_1_split
I0403 19:37:08.680757 25312 net.cpp:91] Creating Layer label_data_1_split
I0403 19:37:08.680776 25312 net.cpp:425] label_data_1_split <- label
I0403 19:37:08.680814 25312 net.cpp:399] label_data_1_split -> label_data_1_split_0
I0403 19:37:08.680845 25312 net.cpp:399] label_data_1_split -> label_data_1_split_1
I0403 19:37:08.680871 25312 net.cpp:399] label_data_1_split -> label_data_1_split_2
I0403 19:37:08.680892 25312 net.cpp:399] label_data_1_split -> label_data_1_split_3
I0403 19:37:08.680913 25312 net.cpp:399] label_data_1_split -> label_data_1_split_4
I0403 19:37:08.680934 25312 net.cpp:399] label_data_1_split -> label_data_1_split_5
I0403 19:37:08.680954 25312 net.cpp:399] label_data_1_split -> label_data_1_split_6
I0403 19:37:08.680976 25312 net.cpp:399] label_data_1_split -> label_data_1_split_7
I0403 19:37:08.680997 25312 net.cpp:399] label_data_1_split -> label_data_1_split_8
I0403 19:37:08.681018 25312 net.cpp:399] label_data_1_split -> label_data_1_split_9
I0403 19:37:08.681131 25312 net.cpp:141] Setting up label_data_1_split
I0403 19:37:08.681157 25312 net.cpp:148] Top shape: 24 (24)
I0403 19:37:08.681175 25312 net.cpp:148] Top shape: 24 (24)
I0403 19:37:08.681193 25312 net.cpp:148] Top shape: 24 (24)
I0403 19:37:08.681210 25312 net.cpp:148] Top shape: 24 (24)
I0403 19:37:08.681228 25312 net.cpp:148] Top shape: 24 (24)
I0403 19:37:08.681244 25312 net.cpp:148] Top shape: 24 (24)
I0403 19:37:08.681259 25312 net.cpp:148] Top shape: 24 (24)
I0403 19:37:08.681311 25312 net.cpp:148] Top shape: 24 (24)
I0403 19:37:08.681334 25312 net.cpp:148] Top shape: 24 (24)
I0403 19:37:08.681354 25312 net.cpp:148] Top shape: 24 (24)
I0403 19:37:08.681402 25312 net.cpp:156] Memory required for data: 14451744
I0403 19:37:08.681421 25312 layer_factory.hpp:77] Creating layer conv1/7x7_s2
I0403 19:37:08.681460 25312 net.cpp:91] Creating Layer conv1/7x7_s2
I0403 19:37:08.681481 25312 net.cpp:425] conv1/7x7_s2 <- data
I0403 19:37:08.681502 25312 net.cpp:399] conv1/7x7_s2 -> conv1/7x7_s2
I0403 19:37:08.822321 25312 net.cpp:141] Setting up conv1/7x7_s2
I0403 19:37:08.822424 25312 net.cpp:148] Top shape: 24 64 112 112 (19267584)
I0403 19:37:08.822445 25312 net.cpp:156] Memory required for data: 91522080
I0403 19:37:08.822485 25312 layer_factory.hpp:77] Creating layer conv1/relu_7x7
I0403 19:37:08.822520 25312 net.cpp:91] Creating Layer conv1/relu_7x7
I0403 19:37:08.822541 25312 net.cpp:425] conv1/relu_7x7 <- conv1/7x7_s2
I0403 19:37:08.822562 25312 net.cpp:386] conv1/relu_7x7 -> conv1/7x7_s2 (in-place)
I0403 19:37:08.822824 25312 net.cpp:141] Setting up conv1/relu_7x7
I0403 19:37:08.822854 25312 net.cpp:148] Top shape: 24 64 112 112 (19267584)
I0403 19:37:08.822870 25312 net.cpp:156] Memory required for data: 168592416
I0403 19:37:08.822888 25312 layer_factory.hpp:77] Creating layer pool1/3x3_s2
I0403 19:37:08.822916 25312 net.cpp:91] Creating Layer pool1/3x3_s2
I0403 19:37:08.822937 25312 net.cpp:425] pool1/3x3_s2 <- conv1/7x7_s2
I0403 19:37:08.822957 25312 net.cpp:399] pool1/3x3_s2 -> pool1/3x3_s2
I0403 19:37:08.823037 25312 net.cpp:141] Setting up pool1/3x3_s2
I0403 19:37:08.823065 25312 net.cpp:148] Top shape: 24 64 56 56 (4816896)
I0403 19:37:08.823081 25312 net.cpp:156] Memory required for data: 187860000
I0403 19:37:08.823097 25312 layer_factory.hpp:77] Creating layer pool1/norm1
I0403 19:37:08.823127 25312 net.cpp:91] Creating Layer pool1/norm1
I0403 19:37:08.823146 25312 net.cpp:425] pool1/norm1 <- pool1/3x3_s2
I0403 19:37:08.823179 25312 net.cpp:399] pool1/norm1 -> pool1/norm1
I0403 19:37:08.823528 25312 net.cpp:141] Setting up pool1/norm1
I0403 19:37:08.823559 25312 net.cpp:148] Top shape: 24 64 56 56 (4816896)
I0403 19:37:08.823577 25312 net.cpp:156] Memory required for data: 207127584
I0403 19:37:08.823606 25312 layer_factory.hpp:77] Creating layer conv2/3x3_reduce
I0403 19:37:08.823638 25312 net.cpp:91] Creating Layer conv2/3x3_reduce
I0403 19:37:08.823657 25312 net.cpp:425] conv2/3x3_reduce <- pool1/norm1
I0403 19:37:08.823683 25312 net.cpp:399] conv2/3x3_reduce -> conv2/3x3_reduce
I0403 19:37:08.825134 25312 net.cpp:141] Setting up conv2/3x3_reduce
I0403 19:37:08.825167 25312 net.cpp:148] Top shape: 24 64 56 56 (4816896)
I0403 19:37:08.825184 25312 net.cpp:156] Memory required for data: 226395168
I0403 19:37:08.825208 25312 layer_factory.hpp:77] Creating layer conv2/relu_3x3_reduce
I0403 19:37:08.825228 25312 net.cpp:91] Creating Layer conv2/relu_3x3_reduce
I0403 19:37:08.825247 25312 net.cpp:425] conv2/relu_3x3_reduce <- conv2/3x3_reduce
I0403 19:37:08.825278 25312 net.cpp:386] conv2/relu_3x3_reduce -> conv2/3x3_reduce (in-place)
I0403 19:37:08.825584 25312 net.cpp:141] Setting up conv2/relu_3x3_reduce
I0403 19:37:08.825616 25312 net.cpp:148] Top shape: 24 64 56 56 (4816896)
I0403 19:37:08.825635 25312 net.cpp:156] Memory required for data: 245662752
I0403 19:37:08.825650 25312 layer_factory.hpp:77] Creating layer conv2/3x3
I0403 19:37:08.825677 25312 net.cpp:91] Creating Layer conv2/3x3
I0403 19:37:08.825697 25312 net.cpp:425] conv2/3x3 <- conv2/3x3_reduce
I0403 19:37:08.825722 25312 net.cpp:399] conv2/3x3 -> conv2/3x3
I0403 19:37:08.828078 25312 net.cpp:141] Setting up conv2/3x3
I0403 19:37:08.828111 25312 net.cpp:148] Top shape: 24 192 56 56 (14450688)
I0403 19:37:08.828130 25312 net.cpp:156] Memory required for data: 303465504
I0403 19:37:08.828153 25312 layer_factory.hpp:77] Creating layer conv2/relu_3x3
I0403 19:37:08.828176 25312 net.cpp:91] Creating Layer conv2/relu_3x3
I0403 19:37:08.828194 25312 net.cpp:425] conv2/relu_3x3 <- conv2/3x3
I0403 19:37:08.828213 25312 net.cpp:386] conv2/relu_3x3 -> conv2/3x3 (in-place)
I0403 19:37:08.828395 25312 net.cpp:141] Setting up conv2/relu_3x3
I0403 19:37:08.828428 25312 net.cpp:148] Top shape: 24 192 56 56 (14450688)
I0403 19:37:08.828480 25312 net.cpp:156] Memory required for data: 361268256
I0403 19:37:08.828496 25312 layer_factory.hpp:77] Creating layer conv2/norm2
I0403 19:37:08.828516 25312 net.cpp:91] Creating Layer conv2/norm2
I0403 19:37:08.828533 25312 net.cpp:425] conv2/norm2 <- conv2/3x3
I0403 19:37:08.828557 25312 net.cpp:399] conv2/norm2 -> conv2/norm2
I0403 19:37:08.828861 25312 net.cpp:141] Setting up conv2/norm2
I0403 19:37:08.828893 25312 net.cpp:148] Top shape: 24 192 56 56 (14450688)
I0403 19:37:08.828910 25312 net.cpp:156] Memory required for data: 419071008
I0403 19:37:08.828925 25312 layer_factory.hpp:77] Creating layer pool2/3x3_s2
I0403 19:37:08.828944 25312 net.cpp:91] Creating Layer pool2/3x3_s2
I0403 19:37:08.828961 25312 net.cpp:425] pool2/3x3_s2 <- conv2/norm2
I0403 19:37:08.828986 25312 net.cpp:399] pool2/3x3_s2 -> pool2/3x3_s2
I0403 19:37:08.829042 25312 net.cpp:141] Setting up pool2/3x3_s2
I0403 19:37:08.829071 25312 net.cpp:148] Top shape: 24 192 28 28 (3612672)
I0403 19:37:08.829087 25312 net.cpp:156] Memory required for data: 433521696
I0403 19:37:08.829103 25312 layer_factory.hpp:77] Creating layer pool2/3x3_s2_pool2/3x3_s2_0_split
I0403 19:37:08.829124 25312 net.cpp:91] Creating Layer pool2/3x3_s2_pool2/3x3_s2_0_split
I0403 19:37:08.829141 25312 net.cpp:425] pool2/3x3_s2_pool2/3x3_s2_0_split <- pool2/3x3_s2
I0403 19:37:08.829161 25312 net.cpp:399] pool2/3x3_s2_pool2/3x3_s2_0_split -> pool2/3x3_s2_pool2/3x3_s2_0_split_0
I0403 19:37:08.829186 25312 net.cpp:399] pool2/3x3_s2_pool2/3x3_s2_0_split -> pool2/3x3_s2_pool2/3x3_s2_0_split_1
I0403 19:37:08.829207 25312 net.cpp:399] pool2/3x3_s2_pool2/3x3_s2_0_split -> pool2/3x3_s2_pool2/3x3_s2_0_split_2
I0403 19:37:08.829229 25312 net.cpp:399] pool2/3x3_s2_pool2/3x3_s2_0_split -> pool2/3x3_s2_pool2/3x3_s2_0_split_3
I0403 19:37:08.829305 25312 net.cpp:141] Setting up pool2/3x3_s2_pool2/3x3_s2_0_split
I0403 19:37:08.829334 25312 net.cpp:148] Top shape: 24 192 28 28 (3612672)
I0403 19:37:08.829352 25312 net.cpp:148] Top shape: 24 192 28 28 (3612672)
I0403 19:37:08.829370 25312 net.cpp:148] Top shape: 24 192 28 28 (3612672)
I0403 19:37:08.829386 25312 net.cpp:148] Top shape: 24 192 28 28 (3612672)
I0403 19:37:08.829401 25312 net.cpp:156] Memory required for data: 491324448
I0403 19:37:08.829417 25312 layer_factory.hpp:77] Creating layer inception_3a/1x1
I0403 19:37:08.829443 25312 net.cpp:91] Creating Layer inception_3a/1x1
I0403 19:37:08.829463 25312 net.cpp:425] inception_3a/1x1 <- pool2/3x3_s2_pool2/3x3_s2_0_split_0
I0403 19:37:08.829488 25312 net.cpp:399] inception_3a/1x1 -> inception_3a/1x1
I0403 19:37:08.831032 25312 net.cpp:141] Setting up inception_3a/1x1
I0403 19:37:08.831063 25312 net.cpp:148] Top shape: 24 64 28 28 (1204224)
I0403 19:37:08.831081 25312 net.cpp:156] Memory required for data: 496141344
I0403 19:37:08.831100 25312 layer_factory.hpp:77] Creating layer inception_3a/relu_1x1
I0403 19:37:08.831125 25312 net.cpp:91] Creating Layer inception_3a/relu_1x1
I0403 19:37:08.831142 25312 net.cpp:425] inception_3a/relu_1x1 <- inception_3a/1x1
I0403 19:37:08.831164 25312 net.cpp:386] inception_3a/relu_1x1 -> inception_3a/1x1 (in-place)
I0403 19:37:08.831346 25312 net.cpp:141] Setting up inception_3a/relu_1x1
I0403 19:37:08.831377 25312 net.cpp:148] Top shape: 24 64 28 28 (1204224)
I0403 19:37:08.831393 25312 net.cpp:156] Memory required for data: 500958240
I0403 19:37:08.831410 25312 layer_factory.hpp:77] Creating layer inception_3a/3x3_reduce
I0403 19:37:08.831434 25312 net.cpp:91] Creating Layer inception_3a/3x3_reduce
I0403 19:37:08.831455 25312 net.cpp:425] inception_3a/3x3_reduce <- pool2/3x3_s2_pool2/3x3_s2_0_split_1
I0403 19:37:08.831480 25312 net.cpp:399] inception_3a/3x3_reduce -> inception_3a/3x3_reduce
I0403 19:37:08.833156 25312 net.cpp:141] Setting up inception_3a/3x3_reduce
I0403 19:37:08.833189 25312 net.cpp:148] Top shape: 24 96 28 28 (1806336)
I0403 19:37:08.833206 25312 net.cpp:156] Memory required for data: 508183584
I0403 19:37:08.833230 25312 layer_factory.hpp:77] Creating layer inception_3a/relu_3x3_reduce
I0403 19:37:08.833277 25312 net.cpp:91] Creating Layer inception_3a/relu_3x3_reduce
I0403 19:37:08.833299 25312 net.cpp:425] inception_3a/relu_3x3_reduce <- inception_3a/3x3_reduce
I0403 19:37:08.833319 25312 net.cpp:386] inception_3a/relu_3x3_reduce -> inception_3a/3x3_reduce (in-place)
I0403 19:37:08.833499 25312 net.cpp:141] Setting up inception_3a/relu_3x3_reduce
I0403 19:37:08.833528 25312 net.cpp:148] Top shape: 24 96 28 28 (1806336)
I0403 19:37:08.833544 25312 net.cpp:156] Memory required for data: 515408928
I0403 19:37:08.833561 25312 layer_factory.hpp:77] Creating layer inception_3a/3x3
I0403 19:37:08.833585 25312 net.cpp:91] Creating Layer inception_3a/3x3
I0403 19:37:08.833608 25312 net.cpp:425] inception_3a/3x3 <- inception_3a/3x3_reduce
I0403 19:37:08.833636 25312 net.cpp:399] inception_3a/3x3 -> inception_3a/3x3
I0403 19:37:08.835314 25312 net.cpp:141] Setting up inception_3a/3x3
I0403 19:37:08.835345 25312 net.cpp:148] Top shape: 24 128 28 28 (2408448)
I0403 19:37:08.835361 25312 net.cpp:156] Memory required for data: 525042720
I0403 19:37:08.835382 25312 layer_factory.hpp:77] Creating layer inception_3a/relu_3x3
I0403 19:37:08.835407 25312 net.cpp:91] Creating Layer inception_3a/relu_3x3
I0403 19:37:08.835427 25312 net.cpp:425] inception_3a/relu_3x3 <- inception_3a/3x3
I0403 19:37:08.835446 25312 net.cpp:386] inception_3a/relu_3x3 -> inception_3a/3x3 (in-place)
I0403 19:37:08.835716 25312 net.cpp:141] Setting up inception_3a/relu_3x3
I0403 19:37:08.835746 25312 net.cpp:148] Top shape: 24 128 28 28 (2408448)
I0403 19:37:08.835763 25312 net.cpp:156] Memory required for data: 534676512
I0403 19:37:08.835779 25312 layer_factory.hpp:77] Creating layer inception_3a/5x5_reduce
I0403 19:37:08.835804 25312 net.cpp:91] Creating Layer inception_3a/5x5_reduce
I0403 19:37:08.835824 25312 net.cpp:425] inception_3a/5x5_reduce <- pool2/3x3_s2_pool2/3x3_s2_0_split_2
I0403 19:37:08.835846 25312 net.cpp:399] inception_3a/5x5_reduce -> inception_3a/5x5_reduce
I0403 19:37:08.836797 25312 net.cpp:141] Setting up inception_3a/5x5_reduce
I0403 19:37:08.836828 25312 net.cpp:148] Top shape: 24 16 28 28 (301056)
I0403 19:37:08.836845 25312 net.cpp:156] Memory required for data: 535880736
I0403 19:37:08.836865 25312 layer_factory.hpp:77] Creating layer inception_3a/relu_5x5_reduce
I0403 19:37:08.836887 25312 net.cpp:91] Creating Layer inception_3a/relu_5x5_reduce
I0403 19:37:08.836905 25312 net.cpp:425] inception_3a/relu_5x5_reduce <- inception_3a/5x5_reduce
I0403 19:37:08.836923 25312 net.cpp:386] inception_3a/relu_5x5_reduce -> inception_3a/5x5_reduce (in-place)
I0403 19:37:08.837195 25312 net.cpp:141] Setting up inception_3a/relu_5x5_reduce
I0403 19:37:08.837229 25312 net.cpp:148] Top shape: 24 16 28 28 (301056)
I0403 19:37:08.837247 25312 net.cpp:156] Memory required for data: 537084960
I0403 19:37:08.837271 25312 layer_factory.hpp:77] Creating layer inception_3a/5x5
I0403 19:37:08.837298 25312 net.cpp:91] Creating Layer inception_3a/5x5
I0403 19:37:08.837317 25312 net.cpp:425] inception_3a/5x5 <- inception_3a/5x5_reduce
I0403 19:37:08.837338 25312 net.cpp:399] inception_3a/5x5 -> inception_3a/5x5
I0403 19:37:08.838351 25312 net.cpp:141] Setting up inception_3a/5x5
I0403 19:37:08.838382 25312 net.cpp:148] Top shape: 24 32 28 28 (602112)
I0403 19:37:08.838400 25312 net.cpp:156] Memory required for data: 539493408
I0403 19:37:08.838420 25312 layer_factory.hpp:77] Creating layer inception_3a/relu_5x5
I0403 19:37:08.838444 25312 net.cpp:91] Creating Layer inception_3a/relu_5x5
I0403 19:37:08.838462 25312 net.cpp:425] inception_3a/relu_5x5 <- inception_3a/5x5
I0403 19:37:08.838481 25312 net.cpp:386] inception_3a/relu_5x5 -> inception_3a/5x5 (in-place)
I0403 19:37:08.838671 25312 net.cpp:141] Setting up inception_3a/relu_5x5
I0403 19:37:08.838701 25312 net.cpp:148] Top shape: 24 32 28 28 (602112)
I0403 19:37:08.838717 25312 net.cpp:156] Memory required for data: 541901856
I0403 19:37:08.838735 25312 layer_factory.hpp:77] Creating layer inception_3a/pool
I0403 19:37:08.838757 25312 net.cpp:91] Creating Layer inception_3a/pool
I0403 19:37:08.838790 25312 net.cpp:425] inception_3a/pool <- pool2/3x3_s2_pool2/3x3_s2_0_split_3
I0403 19:37:08.838824 25312 net.cpp:399] inception_3a/pool -> inception_3a/pool
I0403 19:37:08.838884 25312 net.cpp:141] Setting up inception_3a/pool
I0403 19:37:08.838913 25312 net.cpp:148] Top shape: 24 192 28 28 (3612672)
I0403 19:37:08.838930 25312 net.cpp:156] Memory required for data: 556352544
I0403 19:37:08.838948 25312 layer_factory.hpp:77] Creating layer inception_3a/pool_proj
I0403 19:37:08.838970 25312 net.cpp:91] Creating Layer inception_3a/pool_proj
I0403 19:37:08.838992 25312 net.cpp:425] inception_3a/pool_proj <- inception_3a/pool
I0403 19:37:08.839016 25312 net.cpp:399] inception_3a/pool_proj -> inception_3a/pool_proj
I0403 19:37:08.840004 25312 net.cpp:141] Setting up inception_3a/pool_proj
I0403 19:37:08.840036 25312 net.cpp:148] Top shape: 24 32 28 28 (602112)
I0403 19:37:08.840055 25312 net.cpp:156] Memory required for data: 558760992
I0403 19:37:08.840077 25312 layer_factory.hpp:77] Creating layer inception_3a/relu_pool_proj
I0403 19:37:08.840101 25312 net.cpp:91] Creating Layer inception_3a/relu_pool_proj
I0403 19:37:08.840119 25312 net.cpp:425] inception_3a/relu_pool_proj <- inception_3a/pool_proj
I0403 19:37:08.840139 25312 net.cpp:386] inception_3a/relu_pool_proj -> inception_3a/pool_proj (in-place)
I0403 19:37:08.840415 25312 net.cpp:141] Setting up inception_3a/relu_pool_proj
I0403 19:37:08.840445 25312 net.cpp:148] Top shape: 24 32 28 28 (602112)
I0403 19:37:08.840461 25312 net.cpp:156] Memory required for data: 561169440
I0403 19:37:08.840477 25312 layer_factory.hpp:77] Creating layer inception_3a/output
I0403 19:37:08.840499 25312 net.cpp:91] Creating Layer inception_3a/output
I0403 19:37:08.840520 25312 net.cpp:425] inception_3a/output <- inception_3a/1x1
I0403 19:37:08.840540 25312 net.cpp:425] inception_3a/output <- inception_3a/3x3
I0403 19:37:08.840559 25312 net.cpp:425] inception_3a/output <- inception_3a/5x5
I0403 19:37:08.840576 25312 net.cpp:425] inception_3a/output <- inception_3a/pool_proj
I0403 19:37:08.840595 25312 net.cpp:399] inception_3a/output -> inception_3a/output
I0403 19:37:08.840643 25312 net.cpp:141] Setting up inception_3a/output
I0403 19:37:08.840672 25312 net.cpp:148] Top shape: 24 256 28 28 (4816896)
I0403 19:37:08.840692 25312 net.cpp:156] Memory required for data: 580437024
I0403 19:37:08.840709 25312 layer_factory.hpp:77] Creating layer inception_3a/output_inception_3a/output_0_split
I0403 19:37:08.840728 25312 net.cpp:91] Creating Layer inception_3a/output_inception_3a/output_0_split
I0403 19:37:08.840744 25312 net.cpp:425] inception_3a/output_inception_3a/output_0_split <- inception_3a/output
I0403 19:37:08.840767 25312 net.cpp:399] inception_3a/output_inception_3a/output_0_split -> inception_3a/output_inception_3a/output_0_split_0
I0403 19:37:08.840790 25312 net.cpp:399] inception_3a/output_inception_3a/output_0_split -> inception_3a/output_inception_3a/output_0_split_1
I0403 19:37:08.840816 25312 net.cpp:399] inception_3a/output_inception_3a/output_0_split -> inception_3a/output_inception_3a/output_0_split_2
I0403 19:37:08.840840 25312 net.cpp:399] inception_3a/output_inception_3a/output_0_split -> inception_3a/output_inception_3a/output_0_split_3
I0403 19:37:08.840917 25312 net.cpp:141] Setting up inception_3a/output_inception_3a/output_0_split
I0403 19:37:08.840945 25312 net.cpp:148] Top shape: 24 256 28 28 (4816896)
I0403 19:37:08.840965 25312 net.cpp:148] Top shape: 24 256 28 28 (4816896)
I0403 19:37:08.840981 25312 net.cpp:148] Top shape: 24 256 28 28 (4816896)
I0403 19:37:08.840996 25312 net.cpp:148] Top shape: 24 256 28 28 (4816896)
I0403 19:37:08.841012 25312 net.cpp:156] Memory required for data: 657507360
I0403 19:37:08.841028 25312 layer_factory.hpp:77] Creating layer inception_3b/1x1
I0403 19:37:08.841051 25312 net.cpp:91] Creating Layer inception_3b/1x1
I0403 19:37:08.841070 25312 net.cpp:425] inception_3b/1x1 <- inception_3a/output_inception_3a/output_0_split_0
I0403 19:37:08.841094 25312 net.cpp:399] inception_3b/1x1 -> inception_3b/1x1
I0403 19:37:08.842226 25312 net.cpp:141] Setting up inception_3b/1x1
I0403 19:37:08.842278 25312 net.cpp:148] Top shape: 24 128 28 28 (2408448)
I0403 19:37:08.842299 25312 net.cpp:156] Memory required for data: 667141152
I0403 19:37:08.842319 25312 layer_factory.hpp:77] Creating layer inception_3b/relu_1x1
I0403 19:37:08.842336 25312 net.cpp:91] Creating Layer inception_3b/relu_1x1
I0403 19:37:08.842355 25312 net.cpp:425] inception_3b/relu_1x1 <- inception_3b/1x1
I0403 19:37:08.842377 25312 net.cpp:386] inception_3b/relu_1x1 -> inception_3b/1x1 (in-place)
I0403 19:37:08.842555 25312 net.cpp:141] Setting up inception_3b/relu_1x1
I0403 19:37:08.842582 25312 net.cpp:148] Top shape: 24 128 28 28 (2408448)
I0403 19:37:08.842598 25312 net.cpp:156] Memory required for data: 676774944
I0403 19:37:08.842613 25312 layer_factory.hpp:77] Creating layer inception_3b/3x3_reduce
I0403 19:37:08.842638 25312 net.cpp:91] Creating Layer inception_3b/3x3_reduce
I0403 19:37:08.842658 25312 net.cpp:425] inception_3b/3x3_reduce <- inception_3a/output_inception_3a/output_0_split_1
I0403 19:37:08.842681 25312 net.cpp:399] inception_3b/3x3_reduce -> inception_3b/3x3_reduce
I0403 19:37:08.843870 25312 net.cpp:141] Setting up inception_3b/3x3_reduce
I0403 19:37:08.843904 25312 net.cpp:148] Top shape: 24 128 28 28 (2408448)
I0403 19:37:08.843921 25312 net.cpp:156] Memory required for data: 686408736
I0403 19:37:08.843940 25312 layer_factory.hpp:77] Creating layer inception_3b/relu_3x3_reduce
I0403 19:37:08.843961 25312 net.cpp:91] Creating Layer inception_3b/relu_3x3_reduce
I0403 19:37:08.843981 25312 net.cpp:425] inception_3b/relu_3x3_reduce <- inception_3b/3x3_reduce
I0403 19:37:08.844002 25312 net.cpp:386] inception_3b/relu_3x3_reduce -> inception_3b/3x3_reduce (in-place)
I0403 19:37:08.844175 25312 net.cpp:141] Setting up inception_3b/relu_3x3_reduce
I0403 19:37:08.844204 25312 net.cpp:148] Top shape: 24 128 28 28 (2408448)
I0403 19:37:08.844221 25312 net.cpp:156] Memory required for data: 696042528
I0403 19:37:08.844236 25312 layer_factory.hpp:77] Creating layer inception_3b/3x3
I0403 19:37:08.844301 25312 net.cpp:91] Creating Layer inception_3b/3x3
I0403 19:37:08.844327 25312 net.cpp:425] inception_3b/3x3 <- inception_3b/3x3_reduce
I0403 19:37:08.844352 25312 net.cpp:399] inception_3b/3x3 -> inception_3b/3x3
I0403 19:37:08.847327 25312 net.cpp:141] Setting up inception_3b/3x3
I0403 19:37:08.847358 25312 net.cpp:148] Top shape: 24 192 28 28 (3612672)
I0403 19:37:08.847375 25312 net.cpp:156] Memory required for data: 710493216
I0403 19:37:08.847395 25312 layer_factory.hpp:77] Creating layer inception_3b/relu_3x3
I0403 19:37:08.847417 25312 net.cpp:91] Creating Layer inception_3b/relu_3x3
I0403 19:37:08.847437 25312 net.cpp:425] inception_3b/relu_3x3 <- inception_3b/3x3
I0403 19:37:08.847456 25312 net.cpp:386] inception_3b/relu_3x3 -> inception_3b/3x3 (in-place)
I0403 19:37:08.847750 25312 net.cpp:141] Setting up inception_3b/relu_3x3
I0403 19:37:08.847779 25312 net.cpp:148] Top shape: 24 192 28 28 (3612672)
I0403 19:37:08.847796 25312 net.cpp:156] Memory required for data: 724943904
I0403 19:37:08.847826 25312 layer_factory.hpp:77] Creating layer inception_3b/5x5_reduce
I0403 19:37:08.847848 25312 net.cpp:91] Creating Layer inception_3b/5x5_reduce
I0403 19:37:08.847867 25312 net.cpp:425] inception_3b/5x5_reduce <- inception_3a/output_inception_3a/output_0_split_2
I0403 19:37:08.847890 25312 net.cpp:399] inception_3b/5x5_reduce -> inception_3b/5x5_reduce
I0403 19:37:08.848906 25312 net.cpp:141] Setting up inception_3b/5x5_reduce
I0403 19:37:08.848937 25312 net.cpp:148] Top shape: 24 32 28 28 (602112)
I0403 19:37:08.848953 25312 net.cpp:156] Memory required for data: 727352352
I0403 19:37:08.848973 25312 layer_factory.hpp:77] Creating layer inception_3b/relu_5x5_reduce
I0403 19:37:08.848994 25312 net.cpp:91] Creating Layer inception_3b/relu_5x5_reduce
I0403 19:37:08.849012 25312 net.cpp:425] inception_3b/relu_5x5_reduce <- inception_3b/5x5_reduce
I0403 19:37:08.849030 25312 net.cpp:386] inception_3b/relu_5x5_reduce -> inception_3b/5x5_reduce (in-place)
I0403 19:37:08.849220 25312 net.cpp:141] Setting up inception_3b/relu_5x5_reduce
I0403 19:37:08.849247 25312 net.cpp:148] Top shape: 24 32 28 28 (602112)
I0403 19:37:08.849272 25312 net.cpp:156] Memory required for data: 729760800
I0403 19:37:08.849287 25312 layer_factory.hpp:77] Creating layer inception_3b/5x5
I0403 19:37:08.849311 25312 net.cpp:91] Creating Layer inception_3b/5x5
I0403 19:37:08.849329 25312 net.cpp:425] inception_3b/5x5 <- inception_3b/5x5_reduce
I0403 19:37:08.849349 25312 net.cpp:399] inception_3b/5x5 -> inception_3b/5x5
I0403 19:37:08.851223 25312 net.cpp:141] Setting up inception_3b/5x5
I0403 19:37:08.851263 25312 net.cpp:148] Top shape: 24 96 28 28 (1806336)
I0403 19:37:08.851284 25312 net.cpp:156] Memory required for data: 736986144
I0403 19:37:08.851303 25312 layer_factory.hpp:77] Creating layer inception_3b/relu_5x5
I0403 19:37:08.851323 25312 net.cpp:91] Creating Layer inception_3b/relu_5x5
I0403 19:37:08.851339 25312 net.cpp:425] inception_3b/relu_5x5 <- inception_3b/5x5
I0403 19:37:08.851361 25312 net.cpp:386] inception_3b/relu_5x5 -> inception_3b/5x5 (in-place)
I0403 19:37:08.851562 25312 net.cpp:141] Setting up inception_3b/relu_5x5
I0403 19:37:08.851590 25312 net.cpp:148] Top shape: 24 96 28 28 (1806336)
I0403 19:37:08.851608 25312 net.cpp:156] Memory required for data: 744211488
I0403 19:37:08.851622 25312 layer_factory.hpp:77] Creating layer inception_3b/pool
I0403 19:37:08.851642 25312 net.cpp:91] Creating Layer inception_3b/pool
I0403 19:37:08.851660 25312 net.cpp:425] inception_3b/pool <- inception_3a/output_inception_3a/output_0_split_3
I0403 19:37:08.851680 25312 net.cpp:399] inception_3b/pool -> inception_3b/pool
I0403 19:37:08.851739 25312 net.cpp:141] Setting up inception_3b/pool
I0403 19:37:08.851765 25312 net.cpp:148] Top shape: 24 256 28 28 (4816896)
I0403 19:37:08.851783 25312 net.cpp:156] Memory required for data: 763479072
I0403 19:37:08.851796 25312 layer_factory.hpp:77] Creating layer inception_3b/pool_proj
I0403 19:37:08.851830 25312 net.cpp:91] Creating Layer inception_3b/pool_proj
I0403 19:37:08.851850 25312 net.cpp:425] inception_3b/pool_proj <- inception_3b/pool
I0403 19:37:08.851871 25312 net.cpp:399] inception_3b/pool_proj -> inception_3b/pool_proj
I0403 19:37:08.852916 25312 net.cpp:141] Setting up inception_3b/pool_proj
I0403 19:37:08.852946 25312 net.cpp:148] Top shape: 24 64 28 28 (1204224)
I0403 19:37:08.852962 25312 net.cpp:156] Memory required for data: 768295968
I0403 19:37:08.852980 25312 layer_factory.hpp:77] Creating layer inception_3b/relu_pool_proj
I0403 19:37:08.853000 25312 net.cpp:91] Creating Layer inception_3b/relu_pool_proj
I0403 19:37:08.853019 25312 net.cpp:425] inception_3b/relu_pool_proj <- inception_3b/pool_proj
I0403 19:37:08.853037 25312 net.cpp:386] inception_3b/relu_pool_proj -> inception_3b/pool_proj (in-place)
I0403 19:37:08.853399 25312 net.cpp:141] Setting up inception_3b/relu_pool_proj
I0403 19:37:08.853427 25312 net.cpp:148] Top shape: 24 64 28 28 (1204224)
I0403 19:37:08.853445 25312 net.cpp:156] Memory required for data: 773112864
I0403 19:37:08.853459 25312 layer_factory.hpp:77] Creating layer inception_3b/output
I0403 19:37:08.853479 25312 net.cpp:91] Creating Layer inception_3b/output
I0403 19:37:08.853497 25312 net.cpp:425] inception_3b/output <- inception_3b/1x1
I0403 19:37:08.853516 25312 net.cpp:425] inception_3b/output <- inception_3b/3x3
I0403 19:37:08.853534 25312 net.cpp:425] inception_3b/output <- inception_3b/5x5
I0403 19:37:08.853551 25312 net.cpp:425] inception_3b/output <- inception_3b/pool_proj
I0403 19:37:08.853569 25312 net.cpp:399] inception_3b/output -> inception_3b/output
I0403 19:37:08.853612 25312 net.cpp:141] Setting up inception_3b/output
I0403 19:37:08.853637 25312 net.cpp:148] Top shape: 24 480 28 28 (9031680)
I0403 19:37:08.853653 25312 net.cpp:156] Memory required for data: 809239584
I0403 19:37:08.853669 25312 layer_factory.hpp:77] Creating layer pool3/3x3_s2
I0403 19:37:08.853688 25312 net.cpp:91] Creating Layer pool3/3x3_s2
I0403 19:37:08.853704 25312 net.cpp:425] pool3/3x3_s2 <- inception_3b/output
I0403 19:37:08.853742 25312 net.cpp:399] pool3/3x3_s2 -> pool3/3x3_s2
I0403 19:37:08.853802 25312 net.cpp:141] Setting up pool3/3x3_s2
I0403 19:37:08.853829 25312 net.cpp:148] Top shape: 24 480 14 14 (2257920)
I0403 19:37:08.853845 25312 net.cpp:156] Memory required for data: 818271264
I0403 19:37:08.853863 25312 layer_factory.hpp:77] Creating layer pool3/3x3_s2_pool3/3x3_s2_0_split
I0403 19:37:08.853879 25312 net.cpp:91] Creating Layer pool3/3x3_s2_pool3/3x3_s2_0_split
I0403 19:37:08.853894 25312 net.cpp:425] pool3/3x3_s2_pool3/3x3_s2_0_split <- pool3/3x3_s2
I0403 19:37:08.853914 25312 net.cpp:399] pool3/3x3_s2_pool3/3x3_s2_0_split -> pool3/3x3_s2_pool3/3x3_s2_0_split_0
I0403 19:37:08.853936 25312 net.cpp:399] pool3/3x3_s2_pool3/3x3_s2_0_split -> pool3/3x3_s2_pool3/3x3_s2_0_split_1
I0403 19:37:08.853960 25312 net.cpp:399] pool3/3x3_s2_pool3/3x3_s2_0_split -> pool3/3x3_s2_pool3/3x3_s2_0_split_2
I0403 19:37:08.853979 25312 net.cpp:399] pool3/3x3_s2_pool3/3x3_s2_0_split -> pool3/3x3_s2_pool3/3x3_s2_0_split_3
I0403 19:37:08.854056 25312 net.cpp:141] Setting up pool3/3x3_s2_pool3/3x3_s2_0_split
I0403 19:37:08.854081 25312 net.cpp:148] Top shape: 24 480 14 14 (2257920)
I0403 19:37:08.854099 25312 net.cpp:148] Top shape: 24 480 14 14 (2257920)
I0403 19:37:08.854115 25312 net.cpp:148] Top shape: 24 480 14 14 (2257920)
I0403 19:37:08.854131 25312 net.cpp:148] Top shape: 24 480 14 14 (2257920)
I0403 19:37:08.854146 25312 net.cpp:156] Memory required for data: 854397984
I0403 19:37:08.854161 25312 layer_factory.hpp:77] Creating layer inception_4a/1x1
I0403 19:37:08.854184 25312 net.cpp:91] Creating Layer inception_4a/1x1
I0403 19:37:08.854203 25312 net.cpp:425] inception_4a/1x1 <- pool3/3x3_s2_pool3/3x3_s2_0_split_0
I0403 19:37:08.854224 25312 net.cpp:399] inception_4a/1x1 -> inception_4a/1x1
I0403 19:37:08.855762 25312 net.cpp:141] Setting up inception_4a/1x1
I0403 19:37:08.855794 25312 net.cpp:148] Top shape: 24 192 14 14 (903168)
I0403 19:37:08.855824 25312 net.cpp:156] Memory required for data: 858010656
I0403 19:37:08.855844 25312 layer_factory.hpp:77] Creating layer inception_4a/relu_1x1
I0403 19:37:08.855862 25312 net.cpp:91] Creating Layer inception_4a/relu_1x1
I0403 19:37:08.855880 25312 net.cpp:425] inception_4a/relu_1x1 <- inception_4a/1x1
I0403 19:37:08.855898 25312 net.cpp:386] inception_4a/relu_1x1 -> inception_4a/1x1 (in-place)
I0403 19:37:08.856072 25312 net.cpp:141] Setting up inception_4a/relu_1x1
I0403 19:37:08.856099 25312 net.cpp:148] Top shape: 24 192 14 14 (903168)
I0403 19:37:08.856114 25312 net.cpp:156] Memory required for data: 861623328
I0403 19:37:08.856129 25312 layer_factory.hpp:77] Creating layer inception_4a/3x3_reduce
I0403 19:37:08.856153 25312 net.cpp:91] Creating Layer inception_4a/3x3_reduce
I0403 19:37:08.856171 25312 net.cpp:425] inception_4a/3x3_reduce <- pool3/3x3_s2_pool3/3x3_s2_0_split_1
I0403 19:37:08.856194 25312 net.cpp:399] inception_4a/3x3_reduce -> inception_4a/3x3_reduce
I0403 19:37:08.857421 25312 net.cpp:141] Setting up inception_4a/3x3_reduce
I0403 19:37:08.857453 25312 net.cpp:148] Top shape: 24 96 14 14 (451584)
I0403 19:37:08.857472 25312 net.cpp:156] Memory required for data: 863429664
I0403 19:37:08.857496 25312 layer_factory.hpp:77] Creating layer inception_4a/relu_3x3_reduce
I0403 19:37:08.857517 25312 net.cpp:91] Creating Layer inception_4a/relu_3x3_reduce
I0403 19:37:08.857537 25312 net.cpp:425] inception_4a/relu_3x3_reduce <- inception_4a/3x3_reduce
I0403 19:37:08.857556 25312 net.cpp:386] inception_4a/relu_3x3_reduce -> inception_4a/3x3_reduce (in-place)
I0403 19:37:08.857728 25312 net.cpp:141] Setting up inception_4a/relu_3x3_reduce
I0403 19:37:08.857754 25312 net.cpp:148] Top shape: 24 96 14 14 (451584)
I0403 19:37:08.857770 25312 net.cpp:156] Memory required for data: 865236000
I0403 19:37:08.857785 25312 layer_factory.hpp:77] Creating layer inception_4a/3x3
I0403 19:37:08.857810 25312 net.cpp:91] Creating Layer inception_4a/3x3
I0403 19:37:08.857828 25312 net.cpp:425] inception_4a/3x3 <- inception_4a/3x3_reduce
I0403 19:37:08.857851 25312 net.cpp:399] inception_4a/3x3 -> inception_4a/3x3
I0403 19:37:08.860456 25312 net.cpp:141] Setting up inception_4a/3x3
I0403 19:37:08.860486 25312 net.cpp:148] Top shape: 24 208 14 14 (978432)
I0403 19:37:08.860503 25312 net.cpp:156] Memory required for data: 869149728
I0403 19:37:08.860522 25312 layer_factory.hpp:77] Creating layer inception_4a/relu_3x3
I0403 19:37:08.860541 25312 net.cpp:91] Creating Layer inception_4a/relu_3x3
I0403 19:37:08.860558 25312 net.cpp:425] inception_4a/relu_3x3 <- inception_4a/3x3
I0403 19:37:08.860579 25312 net.cpp:386] inception_4a/relu_3x3 -> inception_4a/3x3 (in-place)
I0403 19:37:08.860849 25312 net.cpp:141] Setting up inception_4a/relu_3x3
I0403 19:37:08.860877 25312 net.cpp:148] Top shape: 24 208 14 14 (978432)
I0403 19:37:08.860893 25312 net.cpp:156] Memory required for data: 873063456
I0403 19:37:08.860908 25312 layer_factory.hpp:77] Creating layer inception_4a/5x5_reduce
I0403 19:37:08.860932 25312 net.cpp:91] Creating Layer inception_4a/5x5_reduce
I0403 19:37:08.860951 25312 net.cpp:425] inception_4a/5x5_reduce <- pool3/3x3_s2_pool3/3x3_s2_0_split_2
I0403 19:37:08.860973 25312 net.cpp:399] inception_4a/5x5_reduce -> inception_4a/5x5_reduce
I0403 19:37:08.861995 25312 net.cpp:141] Setting up inception_4a/5x5_reduce
I0403 19:37:08.862025 25312 net.cpp:148] Top shape: 24 16 14 14 (75264)
I0403 19:37:08.862041 25312 net.cpp:156] Memory required for data: 873364512
I0403 19:37:08.862061 25312 layer_factory.hpp:77] Creating layer inception_4a/relu_5x5_reduce
I0403 19:37:08.862083 25312 net.cpp:91] Creating Layer inception_4a/relu_5x5_reduce
I0403 19:37:08.862102 25312 net.cpp:425] inception_4a/relu_5x5_reduce <- inception_4a/5x5_reduce
I0403 19:37:08.862118 25312 net.cpp:386] inception_4a/relu_5x5_reduce -> inception_4a/5x5_reduce (in-place)
I0403 19:37:08.862294 25312 net.cpp:141] Setting up inception_4a/relu_5x5_reduce
I0403 19:37:08.862323 25312 net.cpp:148] Top shape: 24 16 14 14 (75264)
I0403 19:37:08.862339 25312 net.cpp:156] Memory required for data: 873665568
I0403 19:37:08.862355 25312 layer_factory.hpp:77] Creating layer inception_4a/5x5
I0403 19:37:08.862380 25312 net.cpp:91] Creating Layer inception_4a/5x5
I0403 19:37:08.862397 25312 net.cpp:425] inception_4a/5x5 <- inception_4a/5x5_reduce
I0403 19:37:08.862417 25312 net.cpp:399] inception_4a/5x5 -> inception_4a/5x5
I0403 19:37:08.863497 25312 net.cpp:141] Setting up inception_4a/5x5
I0403 19:37:08.863525 25312 net.cpp:148] Top shape: 24 48 14 14 (225792)
I0403 19:37:08.863543 25312 net.cpp:156] Memory required for data: 874568736
I0403 19:37:08.863564 25312 layer_factory.hpp:77] Creating layer inception_4a/relu_5x5
I0403 19:37:08.863585 25312 net.cpp:91] Creating Layer inception_4a/relu_5x5
I0403 19:37:08.863602 25312 net.cpp:425] inception_4a/relu_5x5 <- inception_4a/5x5
I0403 19:37:08.863620 25312 net.cpp:386] inception_4a/relu_5x5 -> inception_4a/5x5 (in-place)
I0403 19:37:08.863793 25312 net.cpp:141] Setting up inception_4a/relu_5x5
I0403 19:37:08.863828 25312 net.cpp:148] Top shape: 24 48 14 14 (225792)
I0403 19:37:08.863847 25312 net.cpp:156] Memory required for data: 875471904
I0403 19:37:08.863863 25312 layer_factory.hpp:77] Creating layer inception_4a/pool
I0403 19:37:08.863881 25312 net.cpp:91] Creating Layer inception_4a/pool
I0403 19:37:08.863898 25312 net.cpp:425] inception_4a/pool <- pool3/3x3_s2_pool3/3x3_s2_0_split_3
I0403 19:37:08.863919 25312 net.cpp:399] inception_4a/pool -> inception_4a/pool
I0403 19:37:08.863981 25312 net.cpp:141] Setting up inception_4a/pool
I0403 19:37:08.864012 25312 net.cpp:148] Top shape: 24 480 14 14 (2257920)
I0403 19:37:08.864029 25312 net.cpp:156] Memory required for data: 884503584
I0403 19:37:08.864044 25312 layer_factory.hpp:77] Creating layer inception_4a/pool_proj
I0403 19:37:08.864064 25312 net.cpp:91] Creating Layer inception_4a/pool_proj
I0403 19:37:08.864084 25312 net.cpp:425] inception_4a/pool_proj <- inception_4a/pool
I0403 19:37:08.864106 25312 net.cpp:399] inception_4a/pool_proj -> inception_4a/pool_proj
I0403 19:37:08.865231 25312 net.cpp:141] Setting up inception_4a/pool_proj
I0403 19:37:08.865272 25312 net.cpp:148] Top shape: 24 64 14 14 (301056)
I0403 19:37:08.865306 25312 net.cpp:156] Memory required for data: 885707808
I0403 19:37:08.865327 25312 layer_factory.hpp:77] Creating layer inception_4a/relu_pool_proj
I0403 19:37:08.865347 25312 net.cpp:91] Creating Layer inception_4a/relu_pool_proj
I0403 19:37:08.865365 25312 net.cpp:425] inception_4a/relu_pool_proj <- inception_4a/pool_proj
I0403 19:37:08.865384 25312 net.cpp:386] inception_4a/relu_pool_proj -> inception_4a/pool_proj (in-place)
I0403 19:37:08.865655 25312 net.cpp:141] Setting up inception_4a/relu_pool_proj
I0403 19:37:08.865689 25312 net.cpp:148] Top shape: 24 64 14 14 (301056)
I0403 19:37:08.865705 25312 net.cpp:156] Memory required for data: 886912032
I0403 19:37:08.865722 25312 layer_factory.hpp:77] Creating layer inception_4a/output
I0403 19:37:08.865741 25312 net.cpp:91] Creating Layer inception_4a/output
I0403 19:37:08.865758 25312 net.cpp:425] inception_4a/output <- inception_4a/1x1
I0403 19:37:08.865777 25312 net.cpp:425] inception_4a/output <- inception_4a/3x3
I0403 19:37:08.865793 25312 net.cpp:425] inception_4a/output <- inception_4a/5x5
I0403 19:37:08.865810 25312 net.cpp:425] inception_4a/output <- inception_4a/pool_proj
I0403 19:37:08.865828 25312 net.cpp:399] inception_4a/output -> inception_4a/output
I0403 19:37:08.865875 25312 net.cpp:141] Setting up inception_4a/output
I0403 19:37:08.865905 25312 net.cpp:148] Top shape: 24 512 14 14 (2408448)
I0403 19:37:08.865922 25312 net.cpp:156] Memory required for data: 896545824
I0403 19:37:08.865939 25312 layer_factory.hpp:77] Creating layer inception_4a/output_inception_4a/output_0_split
I0403 19:37:08.865960 25312 net.cpp:91] Creating Layer inception_4a/output_inception_4a/output_0_split
I0403 19:37:08.865978 25312 net.cpp:425] inception_4a/output_inception_4a/output_0_split <- inception_4a/output
I0403 19:37:08.865995 25312 net.cpp:399] inception_4a/output_inception_4a/output_0_split -> inception_4a/output_inception_4a/output_0_split_0
I0403 19:37:08.866017 25312 net.cpp:399] inception_4a/output_inception_4a/output_0_split -> inception_4a/output_inception_4a/output_0_split_1
I0403 19:37:08.866040 25312 net.cpp:399] inception_4a/output_inception_4a/output_0_split -> inception_4a/output_inception_4a/output_0_split_2
I0403 19:37:08.866066 25312 net.cpp:399] inception_4a/output_inception_4a/output_0_split -> inception_4a/output_inception_4a/output_0_split_3
I0403 19:37:08.866091 25312 net.cpp:399] inception_4a/output_inception_4a/output_0_split -> inception_4a/output_inception_4a/output_0_split_4
I0403 19:37:08.866190 25312 net.cpp:141] Setting up inception_4a/output_inception_4a/output_0_split
I0403 19:37:08.866219 25312 net.cpp:148] Top shape: 24 512 14 14 (2408448)
I0403 19:37:08.866236 25312 net.cpp:148] Top shape: 24 512 14 14 (2408448)
I0403 19:37:08.866261 25312 net.cpp:148] Top shape: 24 512 14 14 (2408448)
I0403 19:37:08.866281 25312 net.cpp:148] Top shape: 24 512 14 14 (2408448)
I0403 19:37:08.866297 25312 net.cpp:148] Top shape: 24 512 14 14 (2408448)
I0403 19:37:08.866320 25312 net.cpp:156] Memory required for data: 944714784
I0403 19:37:08.866336 25312 layer_factory.hpp:77] Creating layer loss1/ave_pool
I0403 19:37:08.866358 25312 net.cpp:91] Creating Layer loss1/ave_pool
I0403 19:37:08.866376 25312 net.cpp:425] loss1/ave_pool <- inception_4a/output_inception_4a/output_0_split_0
I0403 19:37:08.866394 25312 net.cpp:399] loss1/ave_pool -> loss1/ave_pool
I0403 19:37:08.866621 25312 net.cpp:141] Setting up loss1/ave_pool
I0403 19:37:08.866652 25312 net.cpp:148] Top shape: 24 512 4 4 (196608)
I0403 19:37:08.866670 25312 net.cpp:156] Memory required for data: 945501216
I0403 19:37:08.866685 25312 layer_factory.hpp:77] Creating layer loss1/conv
I0403 19:37:08.866709 25312 net.cpp:91] Creating Layer loss1/conv
I0403 19:37:08.866730 25312 net.cpp:425] loss1/conv <- loss1/ave_pool
I0403 19:37:08.866750 25312 net.cpp:399] loss1/conv -> loss1/conv
I0403 19:37:08.868115 25312 net.cpp:141] Setting up loss1/conv
I0403 19:37:08.868144 25312 net.cpp:148] Top shape: 24 128 4 4 (49152)
I0403 19:37:08.868177 25312 net.cpp:156] Memory required for data: 945697824
I0403 19:37:08.868197 25312 layer_factory.hpp:77] Creating layer loss1/relu_conv
I0403 19:37:08.868219 25312 net.cpp:91] Creating Layer loss1/relu_conv
I0403 19:37:08.868238 25312 net.cpp:425] loss1/relu_conv <- loss1/conv
I0403 19:37:08.868262 25312 net.cpp:386] loss1/relu_conv -> loss1/conv (in-place)
I0403 19:37:08.868533 25312 net.cpp:141] Setting up loss1/relu_conv
I0403 19:37:08.868561 25312 net.cpp:148] Top shape: 24 128 4 4 (49152)
I0403 19:37:08.868578 25312 net.cpp:156] Memory required for data: 945894432
I0403 19:37:08.868594 25312 layer_factory.hpp:77] Creating layer loss1/fc
I0403 19:37:08.868623 25312 net.cpp:91] Creating Layer loss1/fc
I0403 19:37:08.868643 25312 net.cpp:425] loss1/fc <- loss1/conv
I0403 19:37:08.868661 25312 net.cpp:399] loss1/fc -> loss1/fc
I0403 19:37:08.886171 25312 net.cpp:141] Setting up loss1/fc
I0403 19:37:08.886206 25312 net.cpp:148] Top shape: 24 1024 (24576)
I0403 19:37:08.886222 25312 net.cpp:156] Memory required for data: 945992736
I0403 19:37:08.886241 25312 layer_factory.hpp:77] Creating layer loss1/relu_fc
I0403 19:37:08.886267 25312 net.cpp:91] Creating Layer loss1/relu_fc
I0403 19:37:08.886287 25312 net.cpp:425] loss1/relu_fc <- loss1/fc
I0403 19:37:08.886308 25312 net.cpp:386] loss1/relu_fc -> loss1/fc (in-place)
I0403 19:37:08.886483 25312 net.cpp:141] Setting up loss1/relu_fc
I0403 19:37:08.886523 25312 net.cpp:148] Top shape: 24 1024 (24576)
I0403 19:37:08.886540 25312 net.cpp:156] Memory required for data: 946091040
I0403 19:37:08.886556 25312 layer_factory.hpp:77] Creating layer loss1/drop_fc
I0403 19:37:08.886584 25312 net.cpp:91] Creating Layer loss1/drop_fc
I0403 19:37:08.886605 25312 net.cpp:425] loss1/drop_fc <- loss1/fc
I0403 19:37:08.886626 25312 net.cpp:386] loss1/drop_fc -> loss1/fc (in-place)
I0403 19:37:08.886680 25312 net.cpp:141] Setting up loss1/drop_fc
I0403 19:37:08.886706 25312 net.cpp:148] Top shape: 24 1024 (24576)
I0403 19:37:08.886723 25312 net.cpp:156] Memory required for data: 946189344
I0403 19:37:08.886739 25312 layer_factory.hpp:77] Creating layer loss1/classifier_plantvillage
I0403 19:37:08.886762 25312 net.cpp:91] Creating Layer loss1/classifier_plantvillage
I0403 19:37:08.886780 25312 net.cpp:425] loss1/classifier_plantvillage <- loss1/fc
I0403 19:37:08.886813 25312 net.cpp:399] loss1/classifier_plantvillage -> loss1/classifier_plantvillage
I0403 19:37:08.887676 25312 net.cpp:141] Setting up loss1/classifier_plantvillage
I0403 19:37:08.887709 25312 net.cpp:148] Top shape: 24 38 (912)
I0403 19:37:08.887729 25312 net.cpp:156] Memory required for data: 946192992
I0403 19:37:08.887749 25312 layer_factory.hpp:77] Creating layer loss1/classifier_plantvillage_loss1/classifier_plantvillage_0_split
I0403 19:37:08.887768 25312 net.cpp:91] Creating Layer loss1/classifier_plantvillage_loss1/classifier_plantvillage_0_split
I0403 19:37:08.887785 25312 net.cpp:425] loss1/classifier_plantvillage_loss1/classifier_plantvillage_0_split <- loss1/classifier_plantvillage
I0403 19:37:08.887805 25312 net.cpp:399] loss1/classifier_plantvillage_loss1/classifier_plantvillage_0_split -> loss1/classifier_plantvillage_loss1/classifier_plantvillage_0_split_0
I0403 19:37:08.887828 25312 net.cpp:399] loss1/classifier_plantvillage_loss1/classifier_plantvillage_0_split -> loss1/classifier_plantvillage_loss1/classifier_plantvillage_0_split_1
I0403 19:37:08.887851 25312 net.cpp:399] loss1/classifier_plantvillage_loss1/classifier_plantvillage_0_split -> loss1/classifier_plantvillage_loss1/classifier_plantvillage_0_split_2
I0403 19:37:08.887917 25312 net.cpp:141] Setting up loss1/classifier_plantvillage_loss1/classifier_plantvillage_0_split
I0403 19:37:08.887943 25312 net.cpp:148] Top shape: 24 38 (912)
I0403 19:37:08.887959 25312 net.cpp:148] Top shape: 24 38 (912)
I0403 19:37:08.887976 25312 net.cpp:148] Top shape: 24 38 (912)
I0403 19:37:08.887989 25312 net.cpp:156] Memory required for data: 946203936
I0403 19:37:08.888005 25312 layer_factory.hpp:77] Creating layer inception_4b/1x1
I0403 19:37:08.888031 25312 net.cpp:91] Creating Layer inception_4b/1x1
I0403 19:37:08.888064 25312 net.cpp:425] inception_4b/1x1 <- inception_4a/output_inception_4a/output_0_split_1
I0403 19:37:08.888085 25312 net.cpp:399] inception_4b/1x1 -> inception_4b/1x1
I0403 19:37:08.889655 25312 net.cpp:141] Setting up inception_4b/1x1
I0403 19:37:08.889684 25312 net.cpp:148] Top shape: 24 160 14 14 (752640)
I0403 19:37:08.889703 25312 net.cpp:156] Memory required for data: 949214496
I0403 19:37:08.889724 25312 layer_factory.hpp:77] Creating layer inception_4b/relu_1x1
I0403 19:37:08.889745 25312 net.cpp:91] Creating Layer inception_4b/relu_1x1
I0403 19:37:08.889765 25312 net.cpp:425] inception_4b/relu_1x1 <- inception_4b/1x1
I0403 19:37:08.889781 25312 net.cpp:386] inception_4b/relu_1x1 -> inception_4b/1x1 (in-place)
I0403 19:37:08.889956 25312 net.cpp:141] Setting up inception_4b/relu_1x1
I0403 19:37:08.889983 25312 net.cpp:148] Top shape: 24 160 14 14 (752640)
I0403 19:37:08.890000 25312 net.cpp:156] Memory required for data: 952225056
I0403 19:37:08.890017 25312 layer_factory.hpp:77] Creating layer inception_4b/3x3_reduce
I0403 19:37:08.890039 25312 net.cpp:91] Creating Layer inception_4b/3x3_reduce
I0403 19:37:08.890060 25312 net.cpp:425] inception_4b/3x3_reduce <- inception_4a/output_inception_4a/output_0_split_2
I0403 19:37:08.890080 25312 net.cpp:399] inception_4b/3x3_reduce -> inception_4b/3x3_reduce
I0403 19:37:08.891458 25312 net.cpp:141] Setting up inception_4b/3x3_reduce
I0403 19:37:08.891489 25312 net.cpp:148] Top shape: 24 112 14 14 (526848)
I0403 19:37:08.891506 25312 net.cpp:156] Memory required for data: 954332448
I0403 19:37:08.891525 25312 layer_factory.hpp:77] Creating layer inception_4b/relu_3x3_reduce
I0403 19:37:08.891546 25312 net.cpp:91] Creating Layer inception_4b/relu_3x3_reduce
I0403 19:37:08.891564 25312 net.cpp:425] inception_4b/relu_3x3_reduce <- inception_4b/3x3_reduce
I0403 19:37:08.891584 25312 net.cpp:386] inception_4b/relu_3x3_reduce -> inception_4b/3x3_reduce (in-place)
I0403 19:37:08.891867 25312 net.cpp:141] Setting up inception_4b/relu_3x3_reduce
I0403 19:37:08.891896 25312 net.cpp:148] Top shape: 24 112 14 14 (526848)
I0403 19:37:08.891912 25312 net.cpp:156] Memory required for data: 956439840
I0403 19:37:08.891929 25312 layer_factory.hpp:77] Creating layer inception_4b/3x3
I0403 19:37:08.891952 25312 net.cpp:91] Creating Layer inception_4b/3x3
I0403 19:37:08.891973 25312 net.cpp:425] inception_4b/3x3 <- inception_4b/3x3_reduce
I0403 19:37:08.891995 25312 net.cpp:399] inception_4b/3x3 -> inception_4b/3x3
I0403 19:37:08.894929 25312 net.cpp:141] Setting up inception_4b/3x3
I0403 19:37:08.894964 25312 net.cpp:148] Top shape: 24 224 14 14 (1053696)
I0403 19:37:08.894984 25312 net.cpp:156] Memory required for data: 960654624
I0403 19:37:08.895004 25312 layer_factory.hpp:77] Creating layer inception_4b/relu_3x3
I0403 19:37:08.895025 25312 net.cpp:91] Creating Layer inception_4b/relu_3x3
I0403 19:37:08.895043 25312 net.cpp:425] inception_4b/relu_3x3 <- inception_4b/3x3
I0403 19:37:08.895064 25312 net.cpp:386] inception_4b/relu_3x3 -> inception_4b/3x3 (in-place)
I0403 19:37:08.895241 25312 net.cpp:141] Setting up inception_4b/relu_3x3
I0403 19:37:08.895277 25312 net.cpp:148] Top shape: 24 224 14 14 (1053696)
I0403 19:37:08.895294 25312 net.cpp:156] Memory required for data: 964869408
I0403 19:37:08.895310 25312 layer_factory.hpp:77] Creating layer inception_4b/5x5_reduce
I0403 19:37:08.895335 25312 net.cpp:91] Creating Layer inception_4b/5x5_reduce
I0403 19:37:08.895355 25312 net.cpp:425] inception_4b/5x5_reduce <- inception_4a/output_inception_4a/output_0_split_3
I0403 19:37:08.895378 25312 net.cpp:399] inception_4b/5x5_reduce -> inception_4b/5x5_reduce
I0403 19:37:08.896440 25312 net.cpp:141] Setting up inception_4b/5x5_reduce
I0403 19:37:08.896471 25312 net.cpp:148] Top shape: 24 24 14 14 (112896)
I0403 19:37:08.896488 25312 net.cpp:156] Memory required for data: 965320992
I0403 19:37:08.896508 25312 layer_factory.hpp:77] Creating layer inception_4b/relu_5x5_reduce
I0403 19:37:08.896530 25312 net.cpp:91] Creating Layer inception_4b/relu_5x5_reduce
I0403 19:37:08.896564 25312 net.cpp:425] inception_4b/relu_5x5_reduce <- inception_4b/5x5_reduce
I0403 19:37:08.896582 25312 net.cpp:386] inception_4b/relu_5x5_reduce -> inception_4b/5x5_reduce (in-place)
I0403 19:37:08.896760 25312 net.cpp:141] Setting up inception_4b/relu_5x5_reduce
I0403 19:37:08.896793 25312 net.cpp:148] Top shape: 24 24 14 14 (112896)
I0403 19:37:08.896811 25312 net.cpp:156] Memory required for data: 965772576
I0403 19:37:08.896828 25312 layer_factory.hpp:77] Creating layer inception_4b/5x5
I0403 19:37:08.896852 25312 net.cpp:91] Creating Layer inception_4b/5x5
I0403 19:37:08.896869 25312 net.cpp:425] inception_4b/5x5 <- inception_4b/5x5_reduce
I0403 19:37:08.896888 25312 net.cpp:399] inception_4b/5x5 -> inception_4b/5x5
I0403 19:37:08.898082 25312 net.cpp:141] Setting up inception_4b/5x5
I0403 19:37:08.898113 25312 net.cpp:148] Top shape: 24 64 14 14 (301056)
I0403 19:37:08.898130 25312 net.cpp:156] Memory required for data: 966976800
I0403 19:37:08.898149 25312 layer_factory.hpp:77] Creating layer inception_4b/relu_5x5
I0403 19:37:08.898170 25312 net.cpp:91] Creating Layer inception_4b/relu_5x5
I0403 19:37:08.898187 25312 net.cpp:425] inception_4b/relu_5x5 <- inception_4b/5x5
I0403 19:37:08.898205 25312 net.cpp:386] inception_4b/relu_5x5 -> inception_4b/5x5 (in-place)
I0403 19:37:08.898488 25312 net.cpp:141] Setting up inception_4b/relu_5x5
I0403 19:37:08.898520 25312 net.cpp:148] Top shape: 24 64 14 14 (301056)
I0403 19:37:08.898537 25312 net.cpp:156] Memory required for data: 968181024
I0403 19:37:08.898555 25312 layer_factory.hpp:77] Creating layer inception_4b/pool
I0403 19:37:08.898573 25312 net.cpp:91] Creating Layer inception_4b/pool
I0403 19:37:08.898588 25312 net.cpp:425] inception_4b/pool <- inception_4a/output_inception_4a/output_0_split_4
I0403 19:37:08.898612 25312 net.cpp:399] inception_4b/pool -> inception_4b/pool
I0403 19:37:08.898677 25312 net.cpp:141] Setting up inception_4b/pool
I0403 19:37:08.898706 25312 net.cpp:148] Top shape: 24 512 14 14 (2408448)
I0403 19:37:08.898722 25312 net.cpp:156] Memory required for data: 977814816
I0403 19:37:08.898738 25312 layer_factory.hpp:77] Creating layer inception_4b/pool_proj
I0403 19:37:08.898761 25312 net.cpp:91] Creating Layer inception_4b/pool_proj
I0403 19:37:08.898782 25312 net.cpp:425] inception_4b/pool_proj <- inception_4b/pool
I0403 19:37:08.898803 25312 net.cpp:399] inception_4b/pool_proj -> inception_4b/pool_proj
I0403 19:37:08.899968 25312 net.cpp:141] Setting up inception_4b/pool_proj
I0403 19:37:08.900001 25312 net.cpp:148] Top shape: 24 64 14 14 (301056)
I0403 19:37:08.900017 25312 net.cpp:156] Memory required for data: 979019040
I0403 19:37:08.900037 25312 layer_factory.hpp:77] Creating layer inception_4b/relu_pool_proj
I0403 19:37:08.900058 25312 net.cpp:91] Creating Layer inception_4b/relu_pool_proj
I0403 19:37:08.900079 25312 net.cpp:425] inception_4b/relu_pool_proj <- inception_4b/pool_proj
I0403 19:37:08.900097 25312 net.cpp:386] inception_4b/relu_pool_proj -> inception_4b/pool_proj (in-place)
I0403 19:37:08.900280 25312 net.cpp:141] Setting up inception_4b/relu_pool_proj
I0403 19:37:08.900310 25312 net.cpp:148] Top shape: 24 64 14 14 (301056)
I0403 19:37:08.900326 25312 net.cpp:156] Memory required for data: 980223264
I0403 19:37:08.900341 25312 layer_factory.hpp:77] Creating layer inception_4b/output
I0403 19:37:08.900362 25312 net.cpp:91] Creating Layer inception_4b/output
I0403 19:37:08.900380 25312 net.cpp:425] inception_4b/output <- inception_4b/1x1
I0403 19:37:08.900401 25312 net.cpp:425] inception_4b/output <- inception_4b/3x3
I0403 19:37:08.900419 25312 net.cpp:425] inception_4b/output <- inception_4b/5x5
I0403 19:37:08.900435 25312 net.cpp:425] inception_4b/output <- inception_4b/pool_proj
I0403 19:37:08.900452 25312 net.cpp:399] inception_4b/output -> inception_4b/output
I0403 19:37:08.900501 25312 net.cpp:141] Setting up inception_4b/output
I0403 19:37:08.900530 25312 net.cpp:148] Top shape: 24 512 14 14 (2408448)
I0403 19:37:08.900547 25312 net.cpp:156] Memory required for data: 989857056
I0403 19:37:08.900579 25312 layer_factory.hpp:77] Creating layer inception_4b/output_inception_4b/output_0_split
I0403 19:37:08.900599 25312 net.cpp:91] Creating Layer inception_4b/output_inception_4b/output_0_split
I0403 19:37:08.900615 25312 net.cpp:425] inception_4b/output_inception_4b/output_0_split <- inception_4b/output
I0403 19:37:08.900635 25312 net.cpp:399] inception_4b/output_inception_4b/output_0_split -> inception_4b/output_inception_4b/output_0_split_0
I0403 19:37:08.900658 25312 net.cpp:399] inception_4b/output_inception_4b/output_0_split -> inception_4b/output_inception_4b/output_0_split_1
I0403 19:37:08.900682 25312 net.cpp:399] inception_4b/output_inception_4b/output_0_split -> inception_4b/output_inception_4b/output_0_split_2
I0403 19:37:08.900706 25312 net.cpp:399] inception_4b/output_inception_4b/output_0_split -> inception_4b/output_inception_4b/output_0_split_3
I0403 19:37:08.900794 25312 net.cpp:141] Setting up inception_4b/output_inception_4b/output_0_split
I0403 19:37:08.900821 25312 net.cpp:148] Top shape: 24 512 14 14 (2408448)
I0403 19:37:08.900840 25312 net.cpp:148] Top shape: 24 512 14 14 (2408448)
I0403 19:37:08.900856 25312 net.cpp:148] Top shape: 24 512 14 14 (2408448)
I0403 19:37:08.900871 25312 net.cpp:148] Top shape: 24 512 14 14 (2408448)
I0403 19:37:08.900887 25312 net.cpp:156] Memory required for data: 1028392224
I0403 19:37:08.900902 25312 layer_factory.hpp:77] Creating layer inception_4c/1x1
I0403 19:37:08.900924 25312 net.cpp:91] Creating Layer inception_4c/1x1
I0403 19:37:08.900944 25312 net.cpp:425] inception_4c/1x1 <- inception_4b/output_inception_4b/output_0_split_0
I0403 19:37:08.900966 25312 net.cpp:399] inception_4c/1x1 -> inception_4c/1x1
I0403 19:37:08.902391 25312 net.cpp:141] Setting up inception_4c/1x1
I0403 19:37:08.902423 25312 net.cpp:148] Top shape: 24 128 14 14 (602112)
I0403 19:37:08.902441 25312 net.cpp:156] Memory required for data: 1030800672
I0403 19:37:08.902459 25312 layer_factory.hpp:77] Creating layer inception_4c/relu_1x1
I0403 19:37:08.902482 25312 net.cpp:91] Creating Layer inception_4c/relu_1x1
I0403 19:37:08.902500 25312 net.cpp:425] inception_4c/relu_1x1 <- inception_4c/1x1
I0403 19:37:08.902519 25312 net.cpp:386] inception_4c/relu_1x1 -> inception_4c/1x1 (in-place)
I0403 19:37:08.902703 25312 net.cpp:141] Setting up inception_4c/relu_1x1
I0403 19:37:08.902734 25312 net.cpp:148] Top shape: 24 128 14 14 (602112)
I0403 19:37:08.902751 25312 net.cpp:156] Memory required for data: 1033209120
I0403 19:37:08.902766 25312 layer_factory.hpp:77] Creating layer inception_4c/3x3_reduce
I0403 19:37:08.902788 25312 net.cpp:91] Creating Layer inception_4c/3x3_reduce
I0403 19:37:08.902808 25312 net.cpp:425] inception_4c/3x3_reduce <- inception_4b/output_inception_4b/output_0_split_1
I0403 19:37:08.902832 25312 net.cpp:399] inception_4c/3x3_reduce -> inception_4c/3x3_reduce
I0403 19:37:08.904749 25312 net.cpp:141] Setting up inception_4c/3x3_reduce
I0403 19:37:08.904781 25312 net.cpp:148] Top shape: 24 128 14 14 (602112)
I0403 19:37:08.904798 25312 net.cpp:156] Memory required for data: 1035617568
I0403 19:37:08.904817 25312 layer_factory.hpp:77] Creating layer inception_4c/relu_3x3_reduce
I0403 19:37:08.904836 25312 net.cpp:91] Creating Layer inception_4c/relu_3x3_reduce
I0403 19:37:08.904855 25312 net.cpp:425] inception_4c/relu_3x3_reduce <- inception_4c/3x3_reduce
I0403 19:37:08.904876 25312 net.cpp:386] inception_4c/relu_3x3_reduce -> inception_4c/3x3_reduce (in-place)
I0403 19:37:08.905156 25312 net.cpp:141] Setting up inception_4c/relu_3x3_reduce
I0403 19:37:08.905184 25312 net.cpp:148] Top shape: 24 128 14 14 (602112)
I0403 19:37:08.905200 25312 net.cpp:156] Memory required for data: 1038026016
I0403 19:37:08.905216 25312 layer_factory.hpp:77] Creating layer inception_4c/3x3
I0403 19:37:08.905242 25312 net.cpp:91] Creating Layer inception_4c/3x3
I0403 19:37:08.905269 25312 net.cpp:425] inception_4c/3x3 <- inception_4c/3x3_reduce
I0403 19:37:08.905297 25312 net.cpp:399] inception_4c/3x3 -> inception_4c/3x3
I0403 19:37:08.908815 25312 net.cpp:141] Setting up inception_4c/3x3
I0403 19:37:08.908860 25312 net.cpp:148] Top shape: 24 256 14 14 (1204224)
I0403 19:37:08.908877 25312 net.cpp:156] Memory required for data: 1042842912
I0403 19:37:08.908912 25312 layer_factory.hpp:77] Creating layer inception_4c/relu_3x3
I0403 19:37:08.908941 25312 net.cpp:91] Creating Layer inception_4c/relu_3x3
I0403 19:37:08.908962 25312 net.cpp:425] inception_4c/relu_3x3 <- inception_4c/3x3
I0403 19:37:08.908982 25312 net.cpp:386] inception_4c/relu_3x3 -> inception_4c/3x3 (in-place)
I0403 19:37:08.909157 25312 net.cpp:141] Setting up inception_4c/relu_3x3
I0403 19:37:08.909188 25312 net.cpp:148] Top shape: 24 256 14 14 (1204224)
I0403 19:37:08.909204 25312 net.cpp:156] Memory required for data: 1047659808
I0403 19:37:08.909219 25312 layer_factory.hpp:77] Creating layer inception_4c/5x5_reduce
I0403 19:37:08.909242 25312 net.cpp:91] Creating Layer inception_4c/5x5_reduce
I0403 19:37:08.909267 25312 net.cpp:425] inception_4c/5x5_reduce <- inception_4b/output_inception_4b/output_0_split_2
I0403 19:37:08.909294 25312 net.cpp:399] inception_4c/5x5_reduce -> inception_4c/5x5_reduce
I0403 19:37:08.910364 25312 net.cpp:141] Setting up inception_4c/5x5_reduce
I0403 19:37:08.910398 25312 net.cpp:148] Top shape: 24 24 14 14 (112896)
I0403 19:37:08.910416 25312 net.cpp:156] Memory required for data: 1048111392
I0403 19:37:08.910435 25312 layer_factory.hpp:77] Creating layer inception_4c/relu_5x5_reduce
I0403 19:37:08.910459 25312 net.cpp:91] Creating Layer inception_4c/relu_5x5_reduce
I0403 19:37:08.910475 25312 net.cpp:425] inception_4c/relu_5x5_reduce <- inception_4c/5x5_reduce
I0403 19:37:08.910495 25312 net.cpp:386] inception_4c/relu_5x5_reduce -> inception_4c/5x5_reduce (in-place)
I0403 19:37:08.910676 25312 net.cpp:141] Setting up inception_4c/relu_5x5_reduce
I0403 19:37:08.910704 25312 net.cpp:148] Top shape: 24 24 14 14 (112896)
I0403 19:37:08.910727 25312 net.cpp:156] Memory required for data: 1048562976
I0403 19:37:08.910743 25312 layer_factory.hpp:77] Creating layer inception_4c/5x5
I0403 19:37:08.910763 25312 net.cpp:91] Creating Layer inception_4c/5x5
I0403 19:37:08.910781 25312 net.cpp:425] inception_4c/5x5 <- inception_4c/5x5_reduce
I0403 19:37:08.910804 25312 net.cpp:399] inception_4c/5x5 -> inception_4c/5x5
I0403 19:37:08.912014 25312 net.cpp:141] Setting up inception_4c/5x5
I0403 19:37:08.912047 25312 net.cpp:148] Top shape: 24 64 14 14 (301056)
I0403 19:37:08.912065 25312 net.cpp:156] Memory required for data: 1049767200
I0403 19:37:08.912086 25312 layer_factory.hpp:77] Creating layer inception_4c/relu_5x5
I0403 19:37:08.912107 25312 net.cpp:91] Creating Layer inception_4c/relu_5x5
I0403 19:37:08.912127 25312 net.cpp:425] inception_4c/relu_5x5 <- inception_4c/5x5
I0403 19:37:08.912145 25312 net.cpp:386] inception_4c/relu_5x5 -> inception_4c/5x5 (in-place)
I0403 19:37:08.912436 25312 net.cpp:141] Setting up inception_4c/relu_5x5
I0403 19:37:08.912468 25312 net.cpp:148] Top shape: 24 64 14 14 (301056)
I0403 19:37:08.912485 25312 net.cpp:156] Memory required for data: 1050971424
I0403 19:37:08.912500 25312 layer_factory.hpp:77] Creating layer inception_4c/pool
I0403 19:37:08.912521 25312 net.cpp:91] Creating Layer inception_4c/pool
I0403 19:37:08.912540 25312 net.cpp:425] inception_4c/pool <- inception_4b/output_inception_4b/output_0_split_3
I0403 19:37:08.912561 25312 net.cpp:399] inception_4c/pool -> inception_4c/pool
I0403 19:37:08.912629 25312 net.cpp:141] Setting up inception_4c/pool
I0403 19:37:08.912658 25312 net.cpp:148] Top shape: 24 512 14 14 (2408448)
I0403 19:37:08.912674 25312 net.cpp:156] Memory required for data: 1060605216
I0403 19:37:08.912689 25312 layer_factory.hpp:77] Creating layer inception_4c/pool_proj
I0403 19:37:08.912711 25312 net.cpp:91] Creating Layer inception_4c/pool_proj
I0403 19:37:08.912729 25312 net.cpp:425] inception_4c/pool_proj <- inception_4c/pool
I0403 19:37:08.912752 25312 net.cpp:399] inception_4c/pool_proj -> inception_4c/pool_proj
I0403 19:37:08.913940 25312 net.cpp:141] Setting up inception_4c/pool_proj
I0403 19:37:08.913972 25312 net.cpp:148] Top shape: 24 64 14 14 (301056)
I0403 19:37:08.914005 25312 net.cpp:156] Memory required for data: 1061809440
I0403 19:37:08.914026 25312 layer_factory.hpp:77] Creating layer inception_4c/relu_pool_proj
I0403 19:37:08.914048 25312 net.cpp:91] Creating Layer inception_4c/relu_pool_proj
I0403 19:37:08.914068 25312 net.cpp:425] inception_4c/relu_pool_proj <- inception_4c/pool_proj
I0403 19:37:08.914088 25312 net.cpp:386] inception_4c/relu_pool_proj -> inception_4c/pool_proj (in-place)
I0403 19:37:08.914278 25312 net.cpp:141] Setting up inception_4c/relu_pool_proj
I0403 19:37:08.914309 25312 net.cpp:148] Top shape: 24 64 14 14 (301056)
I0403 19:37:08.914324 25312 net.cpp:156] Memory required for data: 1063013664
I0403 19:37:08.914340 25312 layer_factory.hpp:77] Creating layer inception_4c/output
I0403 19:37:08.914362 25312 net.cpp:91] Creating Layer inception_4c/output
I0403 19:37:08.914383 25312 net.cpp:425] inception_4c/output <- inception_4c/1x1
I0403 19:37:08.914403 25312 net.cpp:425] inception_4c/output <- inception_4c/3x3
I0403 19:37:08.914419 25312 net.cpp:425] inception_4c/output <- inception_4c/5x5
I0403 19:37:08.914436 25312 net.cpp:425] inception_4c/output <- inception_4c/pool_proj
I0403 19:37:08.914453 25312 net.cpp:399] inception_4c/output -> inception_4c/output
I0403 19:37:08.914502 25312 net.cpp:141] Setting up inception_4c/output
I0403 19:37:08.914532 25312 net.cpp:148] Top shape: 24 512 14 14 (2408448)
I0403 19:37:08.914548 25312 net.cpp:156] Memory required for data: 1072647456
I0403 19:37:08.914564 25312 layer_factory.hpp:77] Creating layer inception_4c/output_inception_4c/output_0_split
I0403 19:37:08.914582 25312 net.cpp:91] Creating Layer inception_4c/output_inception_4c/output_0_split
I0403 19:37:08.914599 25312 net.cpp:425] inception_4c/output_inception_4c/output_0_split <- inception_4c/output
I0403 19:37:08.914620 25312 net.cpp:399] inception_4c/output_inception_4c/output_0_split -> inception_4c/output_inception_4c/output_0_split_0
I0403 19:37:08.914644 25312 net.cpp:399] inception_4c/output_inception_4c/output_0_split -> inception_4c/output_inception_4c/output_0_split_1
I0403 19:37:08.914666 25312 net.cpp:399] inception_4c/output_inception_4c/output_0_split -> inception_4c/output_inception_4c/output_0_split_2
I0403 19:37:08.914688 25312 net.cpp:399] inception_4c/output_inception_4c/output_0_split -> inception_4c/output_inception_4c/output_0_split_3
I0403 19:37:08.914777 25312 net.cpp:141] Setting up inception_4c/output_inception_4c/output_0_split
I0403 19:37:08.914808 25312 net.cpp:148] Top shape: 24 512 14 14 (2408448)
I0403 19:37:08.914825 25312 net.cpp:148] Top shape: 24 512 14 14 (2408448)
I0403 19:37:08.914842 25312 net.cpp:148] Top shape: 24 512 14 14 (2408448)
I0403 19:37:08.914860 25312 net.cpp:148] Top shape: 24 512 14 14 (2408448)
I0403 19:37:08.914875 25312 net.cpp:156] Memory required for data: 1111182624
I0403 19:37:08.914890 25312 layer_factory.hpp:77] Creating layer inception_4d/1x1
I0403 19:37:08.914911 25312 net.cpp:91] Creating Layer inception_4d/1x1
I0403 19:37:08.914928 25312 net.cpp:425] inception_4d/1x1 <- inception_4c/output_inception_4c/output_0_split_0
I0403 19:37:08.914949 25312 net.cpp:399] inception_4d/1x1 -> inception_4d/1x1
I0403 19:37:08.916331 25312 net.cpp:141] Setting up inception_4d/1x1
I0403 19:37:08.916363 25312 net.cpp:148] Top shape: 24 112 14 14 (526848)
I0403 19:37:08.916379 25312 net.cpp:156] Memory required for data: 1113290016
I0403 19:37:08.916399 25312 layer_factory.hpp:77] Creating layer inception_4d/relu_1x1
I0403 19:37:08.916416 25312 net.cpp:91] Creating Layer inception_4d/relu_1x1
I0403 19:37:08.916434 25312 net.cpp:425] inception_4d/relu_1x1 <- inception_4d/1x1
I0403 19:37:08.916455 25312 net.cpp:386] inception_4d/relu_1x1 -> inception_4d/1x1 (in-place)
I0403 19:37:08.916637 25312 net.cpp:141] Setting up inception_4d/relu_1x1
I0403 19:37:08.916664 25312 net.cpp:148] Top shape: 24 112 14 14 (526848)
I0403 19:37:08.916681 25312 net.cpp:156] Memory required for data: 1115397408
I0403 19:37:08.916695 25312 layer_factory.hpp:77] Creating layer inception_4d/3x3_reduce
I0403 19:37:08.916733 25312 net.cpp:91] Creating Layer inception_4d/3x3_reduce
I0403 19:37:08.916754 25312 net.cpp:425] inception_4d/3x3_reduce <- inception_4c/output_inception_4c/output_0_split_1
I0403 19:37:08.916774 25312 net.cpp:399] inception_4d/3x3_reduce -> inception_4d/3x3_reduce
I0403 19:37:08.918246 25312 net.cpp:141] Setting up inception_4d/3x3_reduce
I0403 19:37:08.918282 25312 net.cpp:148] Top shape: 24 144 14 14 (677376)
I0403 19:37:08.918299 25312 net.cpp:156] Memory required for data: 1118106912
I0403 19:37:08.918318 25312 layer_factory.hpp:77] Creating layer inception_4d/relu_3x3_reduce
I0403 19:37:08.918339 25312 net.cpp:91] Creating Layer inception_4d/relu_3x3_reduce
I0403 19:37:08.918355 25312 net.cpp:425] inception_4d/relu_3x3_reduce <- inception_4d/3x3_reduce
I0403 19:37:08.918372 25312 net.cpp:386] inception_4d/relu_3x3_reduce -> inception_4d/3x3_reduce (in-place)
I0403 19:37:08.918649 25312 net.cpp:141] Setting up inception_4d/relu_3x3_reduce
I0403 19:37:08.918679 25312 net.cpp:148] Top shape: 24 144 14 14 (677376)
I0403 19:37:08.918695 25312 net.cpp:156] Memory required for data: 1120816416
I0403 19:37:08.918710 25312 layer_factory.hpp:77] Creating layer inception_4d/3x3
I0403 19:37:08.918733 25312 net.cpp:91] Creating Layer inception_4d/3x3
I0403 19:37:08.918751 25312 net.cpp:425] inception_4d/3x3 <- inception_4d/3x3_reduce
I0403 19:37:08.918769 25312 net.cpp:399] inception_4d/3x3 -> inception_4d/3x3
I0403 19:37:08.922992 25312 net.cpp:141] Setting up inception_4d/3x3
I0403 19:37:08.923022 25312 net.cpp:148] Top shape: 24 288 14 14 (1354752)
I0403 19:37:08.923038 25312 net.cpp:156] Memory required for data: 1126235424
I0403 19:37:08.923056 25312 layer_factory.hpp:77] Creating layer inception_4d/relu_3x3
I0403 19:37:08.923075 25312 net.cpp:91] Creating Layer inception_4d/relu_3x3
I0403 19:37:08.923092 25312 net.cpp:425] inception_4d/relu_3x3 <- inception_4d/3x3
I0403 19:37:08.923110 25312 net.cpp:386] inception_4d/relu_3x3 -> inception_4d/3x3 (in-place)
I0403 19:37:08.923298 25312 net.cpp:141] Setting up inception_4d/relu_3x3
I0403 19:37:08.923323 25312 net.cpp:148] Top shape: 24 288 14 14 (1354752)
I0403 19:37:08.923339 25312 net.cpp:156] Memory required for data: 1131654432
I0403 19:37:08.923355 25312 layer_factory.hpp:77] Creating layer inception_4d/5x5_reduce
I0403 19:37:08.923378 25312 net.cpp:91] Creating Layer inception_4d/5x5_reduce
I0403 19:37:08.923398 25312 net.cpp:425] inception_4d/5x5_reduce <- inception_4c/output_inception_4c/output_0_split_2
I0403 19:37:08.923418 25312 net.cpp:399] inception_4d/5x5_reduce -> inception_4d/5x5_reduce
I0403 19:37:08.924594 25312 net.cpp:141] Setting up inception_4d/5x5_reduce
I0403 19:37:08.924623 25312 net.cpp:148] Top shape: 24 32 14 14 (150528)
I0403 19:37:08.924640 25312 net.cpp:156] Memory required for data: 1132256544
I0403 19:37:08.924659 25312 layer_factory.hpp:77] Creating layer inception_4d/relu_5x5_reduce
I0403 19:37:08.924675 25312 net.cpp:91] Creating Layer inception_4d/relu_5x5_reduce
I0403 19:37:08.924691 25312 net.cpp:425] inception_4d/relu_5x5_reduce <- inception_4d/5x5_reduce
I0403 19:37:08.924710 25312 net.cpp:386] inception_4d/relu_5x5_reduce -> inception_4d/5x5_reduce (in-place)
I0403 19:37:08.924893 25312 net.cpp:141] Setting up inception_4d/relu_5x5_reduce
I0403 19:37:08.924918 25312 net.cpp:148] Top shape: 24 32 14 14 (150528)
I0403 19:37:08.924933 25312 net.cpp:156] Memory required for data: 1132858656
I0403 19:37:08.924947 25312 layer_factory.hpp:77] Creating layer inception_4d/5x5
I0403 19:37:08.924968 25312 net.cpp:91] Creating Layer inception_4d/5x5
I0403 19:37:08.924986 25312 net.cpp:425] inception_4d/5x5 <- inception_4d/5x5_reduce
I0403 19:37:08.925007 25312 net.cpp:399] inception_4d/5x5 -> inception_4d/5x5
I0403 19:37:08.926431 25312 net.cpp:141] Setting up inception_4d/5x5
I0403 19:37:08.926458 25312 net.cpp:148] Top shape: 24 64 14 14 (301056)
I0403 19:37:08.926473 25312 net.cpp:156] Memory required for data: 1134062880
I0403 19:37:08.926491 25312 layer_factory.hpp:77] Creating layer inception_4d/relu_5x5
I0403 19:37:08.926525 25312 net.cpp:91] Creating Layer inception_4d/relu_5x5
I0403 19:37:08.926543 25312 net.cpp:425] inception_4d/relu_5x5 <- inception_4d/5x5
I0403 19:37:08.926561 25312 net.cpp:386] inception_4d/relu_5x5 -> inception_4d/5x5 (in-place)
I0403 19:37:08.926851 25312 net.cpp:141] Setting up inception_4d/relu_5x5
I0403 19:37:08.926877 25312 net.cpp:148] Top shape: 24 64 14 14 (301056)
I0403 19:37:08.926892 25312 net.cpp:156] Memory required for data: 1135267104
I0403 19:37:08.926905 25312 layer_factory.hpp:77] Creating layer inception_4d/pool
I0403 19:37:08.926924 25312 net.cpp:91] Creating Layer inception_4d/pool
I0403 19:37:08.926942 25312 net.cpp:425] inception_4d/pool <- inception_4c/output_inception_4c/output_0_split_3
I0403 19:37:08.926960 25312 net.cpp:399] inception_4d/pool -> inception_4d/pool
I0403 19:37:08.927026 25312 net.cpp:141] Setting up inception_4d/pool
I0403 19:37:08.927052 25312 net.cpp:148] Top shape: 24 512 14 14 (2408448)
I0403 19:37:08.927065 25312 net.cpp:156] Memory required for data: 1144900896
I0403 19:37:08.927079 25312 layer_factory.hpp:77] Creating layer inception_4d/pool_proj
I0403 19:37:08.927100 25312 net.cpp:91] Creating Layer inception_4d/pool_proj
I0403 19:37:08.927119 25312 net.cpp:425] inception_4d/pool_proj <- inception_4d/pool
I0403 19:37:08.927140 25312 net.cpp:399] inception_4d/pool_proj -> inception_4d/pool_proj
I0403 19:37:08.928874 25312 net.cpp:141] Setting up inception_4d/pool_proj
I0403 19:37:08.928902 25312 net.cpp:148] Top shape: 24 64 14 14 (301056)
I0403 19:37:08.928918 25312 net.cpp:156] Memory required for data: 1146105120
I0403 19:37:08.928936 25312 layer_factory.hpp:77] Creating layer inception_4d/relu_pool_proj
I0403 19:37:08.928953 25312 net.cpp:91] Creating Layer inception_4d/relu_pool_proj
I0403 19:37:08.928971 25312 net.cpp:425] inception_4d/relu_pool_proj <- inception_4d/pool_proj
I0403 19:37:08.928988 25312 net.cpp:386] inception_4d/relu_pool_proj -> inception_4d/pool_proj (in-place)
I0403 19:37:08.929169 25312 net.cpp:141] Setting up inception_4d/relu_pool_proj
I0403 19:37:08.929194 25312 net.cpp:148] Top shape: 24 64 14 14 (301056)
I0403 19:37:08.929209 25312 net.cpp:156] Memory required for data: 1147309344
I0403 19:37:08.929224 25312 layer_factory.hpp:77] Creating layer inception_4d/output
I0403 19:37:08.929242 25312 net.cpp:91] Creating Layer inception_4d/output
I0403 19:37:08.929265 25312 net.cpp:425] inception_4d/output <- inception_4d/1x1
I0403 19:37:08.929283 25312 net.cpp:425] inception_4d/output <- inception_4d/3x3
I0403 19:37:08.929298 25312 net.cpp:425] inception_4d/output <- inception_4d/5x5
I0403 19:37:08.929313 25312 net.cpp:425] inception_4d/output <- inception_4d/pool_proj
I0403 19:37:08.929330 25312 net.cpp:399] inception_4d/output -> inception_4d/output
I0403 19:37:08.929378 25312 net.cpp:141] Setting up inception_4d/output
I0403 19:37:08.929402 25312 net.cpp:148] Top shape: 24 528 14 14 (2483712)
I0403 19:37:08.929417 25312 net.cpp:156] Memory required for data: 1157244192
I0403 19:37:08.929431 25312 layer_factory.hpp:77] Creating layer inception_4d/output_inception_4d/output_0_split
I0403 19:37:08.929448 25312 net.cpp:91] Creating Layer inception_4d/output_inception_4d/output_0_split
I0403 19:37:08.929463 25312 net.cpp:425] inception_4d/output_inception_4d/output_0_split <- inception_4d/output
I0403 19:37:08.929483 25312 net.cpp:399] inception_4d/output_inception_4d/output_0_split -> inception_4d/output_inception_4d/output_0_split_0
I0403 19:37:08.929504 25312 net.cpp:399] inception_4d/output_inception_4d/output_0_split -> inception_4d/output_inception_4d/output_0_split_1
I0403 19:37:08.929525 25312 net.cpp:399] inception_4d/output_inception_4d/output_0_split -> inception_4d/output_inception_4d/output_0_split_2
I0403 19:37:08.929546 25312 net.cpp:399] inception_4d/output_inception_4d/output_0_split -> inception_4d/output_inception_4d/output_0_split_3
I0403 19:37:08.929566 25312 net.cpp:399] inception_4d/output_inception_4d/output_0_split -> inception_4d/output_inception_4d/output_0_split_4
I0403 19:37:08.929666 25312 net.cpp:141] Setting up inception_4d/output_inception_4d/output_0_split
I0403 19:37:08.929703 25312 net.cpp:148] Top shape: 24 528 14 14 (2483712)
I0403 19:37:08.929723 25312 net.cpp:148] Top shape: 24 528 14 14 (2483712)
I0403 19:37:08.929738 25312 net.cpp:148] Top shape: 24 528 14 14 (2483712)
I0403 19:37:08.929754 25312 net.cpp:148] Top shape: 24 528 14 14 (2483712)
I0403 19:37:08.929769 25312 net.cpp:148] Top shape: 24 528 14 14 (2483712)
I0403 19:37:08.929780 25312 net.cpp:156] Memory required for data: 1206918432
I0403 19:37:08.929795 25312 layer_factory.hpp:77] Creating layer loss2/ave_pool
I0403 19:37:08.929811 25312 net.cpp:91] Creating Layer loss2/ave_pool
I0403 19:37:08.929827 25312 net.cpp:425] loss2/ave_pool <- inception_4d/output_inception_4d/output_0_split_0
I0403 19:37:08.929847 25312 net.cpp:399] loss2/ave_pool -> loss2/ave_pool
I0403 19:37:08.930153 25312 net.cpp:141] Setting up loss2/ave_pool
I0403 19:37:08.930179 25312 net.cpp:148] Top shape: 24 528 4 4 (202752)
I0403 19:37:08.930194 25312 net.cpp:156] Memory required for data: 1207729440
I0403 19:37:08.930209 25312 layer_factory.hpp:77] Creating layer loss2/conv
I0403 19:37:08.930232 25312 net.cpp:91] Creating Layer loss2/conv
I0403 19:37:08.930249 25312 net.cpp:425] loss2/conv <- loss2/ave_pool
I0403 19:37:08.930276 25312 net.cpp:399] loss2/conv -> loss2/conv
I0403 19:37:08.932140 25312 net.cpp:141] Setting up loss2/conv
I0403 19:37:08.932169 25312 net.cpp:148] Top shape: 24 128 4 4 (49152)
I0403 19:37:08.932184 25312 net.cpp:156] Memory required for data: 1207926048
I0403 19:37:08.932201 25312 layer_factory.hpp:77] Creating layer loss2/relu_conv
I0403 19:37:08.932222 25312 net.cpp:91] Creating Layer loss2/relu_conv
I0403 19:37:08.932238 25312 net.cpp:425] loss2/relu_conv <- loss2/conv
I0403 19:37:08.932260 25312 net.cpp:386] loss2/relu_conv -> loss2/conv (in-place)
I0403 19:37:08.932540 25312 net.cpp:141] Setting up loss2/relu_conv
I0403 19:37:08.932565 25312 net.cpp:148] Top shape: 24 128 4 4 (49152)
I0403 19:37:08.932580 25312 net.cpp:156] Memory required for data: 1208122656
I0403 19:37:08.932595 25312 layer_factory.hpp:77] Creating layer loss2/fc
I0403 19:37:08.932615 25312 net.cpp:91] Creating Layer loss2/fc
I0403 19:37:08.932632 25312 net.cpp:425] loss2/fc <- loss2/conv
I0403 19:37:08.932651 25312 net.cpp:399] loss2/fc -> loss2/fc
I0403 19:37:08.950342 25312 net.cpp:141] Setting up loss2/fc
I0403 19:37:08.950383 25312 net.cpp:148] Top shape: 24 1024 (24576)
I0403 19:37:08.950399 25312 net.cpp:156] Memory required for data: 1208220960
I0403 19:37:08.950418 25312 layer_factory.hpp:77] Creating layer loss2/relu_fc
I0403 19:37:08.950438 25312 net.cpp:91] Creating Layer loss2/relu_fc
I0403 19:37:08.950455 25312 net.cpp:425] loss2/relu_fc <- loss2/fc
I0403 19:37:08.950475 25312 net.cpp:386] loss2/relu_fc -> loss2/fc (in-place)
I0403 19:37:08.950779 25312 net.cpp:141] Setting up loss2/relu_fc
I0403 19:37:08.950806 25312 net.cpp:148] Top shape: 24 1024 (24576)
I0403 19:37:08.950821 25312 net.cpp:156] Memory required for data: 1208319264
I0403 19:37:08.950837 25312 layer_factory.hpp:77] Creating layer loss2/drop_fc
I0403 19:37:08.950855 25312 net.cpp:91] Creating Layer loss2/drop_fc
I0403 19:37:08.950871 25312 net.cpp:425] loss2/drop_fc <- loss2/fc
I0403 19:37:08.950892 25312 net.cpp:386] loss2/drop_fc -> loss2/fc (in-place)
I0403 19:37:08.950944 25312 net.cpp:141] Setting up loss2/drop_fc
I0403 19:37:08.950971 25312 net.cpp:148] Top shape: 24 1024 (24576)
I0403 19:37:08.950989 25312 net.cpp:156] Memory required for data: 1208417568
I0403 19:37:08.951004 25312 layer_factory.hpp:77] Creating layer loss2/classifier_plantvillage
I0403 19:37:08.951022 25312 net.cpp:91] Creating Layer loss2/classifier_plantvillage
I0403 19:37:08.951038 25312 net.cpp:425] loss2/classifier_plantvillage <- loss2/fc
I0403 19:37:08.951061 25312 net.cpp:399] loss2/classifier_plantvillage -> loss2/classifier_plantvillage
I0403 19:37:08.951468 25312 net.cpp:141] Setting up loss2/classifier_plantvillage
I0403 19:37:08.951496 25312 net.cpp:148] Top shape: 24 38 (912)
I0403 19:37:08.951529 25312 net.cpp:156] Memory required for data: 1208421216
I0403 19:37:08.951550 25312 layer_factory.hpp:77] Creating layer loss2/classifier_plantvillage_loss2/classifier_plantvillage_0_split
I0403 19:37:08.951567 25312 net.cpp:91] Creating Layer loss2/classifier_plantvillage_loss2/classifier_plantvillage_0_split
I0403 19:37:08.951584 25312 net.cpp:425] loss2/classifier_plantvillage_loss2/classifier_plantvillage_0_split <- loss2/classifier_plantvillage
I0403 19:37:08.951602 25312 net.cpp:399] loss2/classifier_plantvillage_loss2/classifier_plantvillage_0_split -> loss2/classifier_plantvillage_loss2/classifier_plantvillage_0_split_0
I0403 19:37:08.951622 25312 net.cpp:399] loss2/classifier_plantvillage_loss2/classifier_plantvillage_0_split -> loss2/classifier_plantvillage_loss2/classifier_plantvillage_0_split_1
I0403 19:37:08.951643 25312 net.cpp:399] loss2/classifier_plantvillage_loss2/classifier_plantvillage_0_split -> loss2/classifier_plantvillage_loss2/classifier_plantvillage_0_split_2
I0403 19:37:08.951724 25312 net.cpp:141] Setting up loss2/classifier_plantvillage_loss2/classifier_plantvillage_0_split
I0403 19:37:08.951747 25312 net.cpp:148] Top shape: 24 38 (912)
I0403 19:37:08.951764 25312 net.cpp:148] Top shape: 24 38 (912)
I0403 19:37:08.951781 25312 net.cpp:148] Top shape: 24 38 (912)
I0403 19:37:08.951793 25312 net.cpp:156] Memory required for data: 1208432160
I0403 19:37:08.951807 25312 layer_factory.hpp:77] Creating layer inception_4e/1x1
I0403 19:37:08.951828 25312 net.cpp:91] Creating Layer inception_4e/1x1
I0403 19:37:08.951844 25312 net.cpp:425] inception_4e/1x1 <- inception_4d/output_inception_4d/output_0_split_1
I0403 19:37:08.951866 25312 net.cpp:399] inception_4e/1x1 -> inception_4e/1x1
I0403 19:37:08.953717 25312 net.cpp:141] Setting up inception_4e/1x1
I0403 19:37:08.953747 25312 net.cpp:148] Top shape: 24 256 14 14 (1204224)
I0403 19:37:08.953763 25312 net.cpp:156] Memory required for data: 1213249056
I0403 19:37:08.953781 25312 layer_factory.hpp:77] Creating layer inception_4e/relu_1x1
I0403 19:37:08.953801 25312 net.cpp:91] Creating Layer inception_4e/relu_1x1
I0403 19:37:08.953819 25312 net.cpp:425] inception_4e/relu_1x1 <- inception_4e/1x1
I0403 19:37:08.953838 25312 net.cpp:386] inception_4e/relu_1x1 -> inception_4e/1x1 (in-place)
I0403 19:37:08.954138 25312 net.cpp:141] Setting up inception_4e/relu_1x1
I0403 19:37:08.954164 25312 net.cpp:148] Top shape: 24 256 14 14 (1204224)
I0403 19:37:08.954180 25312 net.cpp:156] Memory required for data: 1218065952
I0403 19:37:08.954195 25312 layer_factory.hpp:77] Creating layer inception_4e/3x3_reduce
I0403 19:37:08.954222 25312 net.cpp:91] Creating Layer inception_4e/3x3_reduce
I0403 19:37:08.954242 25312 net.cpp:425] inception_4e/3x3_reduce <- inception_4d/output_inception_4d/output_0_split_2
I0403 19:37:08.954272 25312 net.cpp:399] inception_4e/3x3_reduce -> inception_4e/3x3_reduce
I0403 19:37:08.956398 25312 net.cpp:141] Setting up inception_4e/3x3_reduce
I0403 19:37:08.956428 25312 net.cpp:148] Top shape: 24 160 14 14 (752640)
I0403 19:37:08.956444 25312 net.cpp:156] Memory required for data: 1221076512
I0403 19:37:08.956461 25312 layer_factory.hpp:77] Creating layer inception_4e/relu_3x3_reduce
I0403 19:37:08.956481 25312 net.cpp:91] Creating Layer inception_4e/relu_3x3_reduce
I0403 19:37:08.956499 25312 net.cpp:425] inception_4e/relu_3x3_reduce <- inception_4e/3x3_reduce
I0403 19:37:08.956516 25312 net.cpp:386] inception_4e/relu_3x3_reduce -> inception_4e/3x3_reduce (in-place)
I0403 19:37:08.956701 25312 net.cpp:141] Setting up inception_4e/relu_3x3_reduce
I0403 19:37:08.956725 25312 net.cpp:148] Top shape: 24 160 14 14 (752640)
I0403 19:37:08.956740 25312 net.cpp:156] Memory required for data: 1224087072
I0403 19:37:08.956755 25312 layer_factory.hpp:77] Creating layer inception_4e/3x3
I0403 19:37:08.956779 25312 net.cpp:91] Creating Layer inception_4e/3x3
I0403 19:37:08.956795 25312 net.cpp:425] inception_4e/3x3 <- inception_4e/3x3_reduce
I0403 19:37:08.956814 25312 net.cpp:399] inception_4e/3x3 -> inception_4e/3x3
I0403 19:37:08.961886 25312 net.cpp:141] Setting up inception_4e/3x3
I0403 19:37:08.961930 25312 net.cpp:148] Top shape: 24 320 14 14 (1505280)
I0403 19:37:08.961947 25312 net.cpp:156] Memory required for data: 1230108192
I0403 19:37:08.961966 25312 layer_factory.hpp:77] Creating layer inception_4e/relu_3x3
I0403 19:37:08.961984 25312 net.cpp:91] Creating Layer inception_4e/relu_3x3
I0403 19:37:08.962000 25312 net.cpp:425] inception_4e/relu_3x3 <- inception_4e/3x3
I0403 19:37:08.962019 25312 net.cpp:386] inception_4e/relu_3x3 -> inception_4e/3x3 (in-place)
I0403 19:37:08.962316 25312 net.cpp:141] Setting up inception_4e/relu_3x3
I0403 19:37:08.962345 25312 net.cpp:148] Top shape: 24 320 14 14 (1505280)
I0403 19:37:08.962362 25312 net.cpp:156] Memory required for data: 1236129312
I0403 19:37:08.962376 25312 layer_factory.hpp:77] Creating layer inception_4e/5x5_reduce
I0403 19:37:08.962399 25312 net.cpp:91] Creating Layer inception_4e/5x5_reduce
I0403 19:37:08.962417 25312 net.cpp:425] inception_4e/5x5_reduce <- inception_4d/output_inception_4d/output_0_split_3
I0403 19:37:08.962436 25312 net.cpp:399] inception_4e/5x5_reduce -> inception_4e/5x5_reduce
I0403 19:37:08.963495 25312 net.cpp:141] Setting up inception_4e/5x5_reduce
I0403 19:37:08.963522 25312 net.cpp:148] Top shape: 24 32 14 14 (150528)
I0403 19:37:08.963538 25312 net.cpp:156] Memory required for data: 1236731424
I0403 19:37:08.963556 25312 layer_factory.hpp:77] Creating layer inception_4e/relu_5x5_reduce
I0403 19:37:08.963575 25312 net.cpp:91] Creating Layer inception_4e/relu_5x5_reduce
I0403 19:37:08.963593 25312 net.cpp:425] inception_4e/relu_5x5_reduce <- inception_4e/5x5_reduce
I0403 19:37:08.963609 25312 net.cpp:386] inception_4e/relu_5x5_reduce -> inception_4e/5x5_reduce (in-place)
I0403 19:37:08.963906 25312 net.cpp:141] Setting up inception_4e/relu_5x5_reduce
I0403 19:37:08.963932 25312 net.cpp:148] Top shape: 24 32 14 14 (150528)
I0403 19:37:08.963948 25312 net.cpp:156] Memory required for data: 1237333536
I0403 19:37:08.963961 25312 layer_factory.hpp:77] Creating layer inception_4e/5x5
I0403 19:37:08.964001 25312 net.cpp:91] Creating Layer inception_4e/5x5
I0403 19:37:08.964021 25312 net.cpp:425] inception_4e/5x5 <- inception_4e/5x5_reduce
I0403 19:37:08.964043 25312 net.cpp:399] inception_4e/5x5 -> inception_4e/5x5
I0403 19:37:08.965848 25312 net.cpp:141] Setting up inception_4e/5x5
I0403 19:37:08.965876 25312 net.cpp:148] Top shape: 24 128 14 14 (602112)
I0403 19:37:08.965893 25312 net.cpp:156] Memory required for data: 1239741984
I0403 19:37:08.965911 25312 layer_factory.hpp:77] Creating layer inception_4e/relu_5x5
I0403 19:37:08.965929 25312 net.cpp:91] Creating Layer inception_4e/relu_5x5
I0403 19:37:08.965945 25312 net.cpp:425] inception_4e/relu_5x5 <- inception_4e/5x5
I0403 19:37:08.965965 25312 net.cpp:386] inception_4e/relu_5x5 -> inception_4e/5x5 (in-place)
I0403 19:37:08.966161 25312 net.cpp:141] Setting up inception_4e/relu_5x5
I0403 19:37:08.966187 25312 net.cpp:148] Top shape: 24 128 14 14 (602112)
I0403 19:37:08.966202 25312 net.cpp:156] Memory required for data: 1242150432
I0403 19:37:08.966215 25312 layer_factory.hpp:77] Creating layer inception_4e/pool
I0403 19:37:08.966236 25312 net.cpp:91] Creating Layer inception_4e/pool
I0403 19:37:08.966259 25312 net.cpp:425] inception_4e/pool <- inception_4d/output_inception_4d/output_0_split_4
I0403 19:37:08.966279 25312 net.cpp:399] inception_4e/pool -> inception_4e/pool
I0403 19:37:08.966351 25312 net.cpp:141] Setting up inception_4e/pool
I0403 19:37:08.966377 25312 net.cpp:148] Top shape: 24 528 14 14 (2483712)
I0403 19:37:08.966392 25312 net.cpp:156] Memory required for data: 1252085280
I0403 19:37:08.966405 25312 layer_factory.hpp:77] Creating layer inception_4e/pool_proj
I0403 19:37:08.966428 25312 net.cpp:91] Creating Layer inception_4e/pool_proj
I0403 19:37:08.966445 25312 net.cpp:425] inception_4e/pool_proj <- inception_4e/pool
I0403 19:37:08.966465 25312 net.cpp:399] inception_4e/pool_proj -> inception_4e/pool_proj
I0403 19:37:08.967950 25312 net.cpp:141] Setting up inception_4e/pool_proj
I0403 19:37:08.967989 25312 net.cpp:148] Top shape: 24 128 14 14 (602112)
I0403 19:37:08.968005 25312 net.cpp:156] Memory required for data: 1254493728
I0403 19:37:08.968024 25312 layer_factory.hpp:77] Creating layer inception_4e/relu_pool_proj
I0403 19:37:08.968042 25312 net.cpp:91] Creating Layer inception_4e/relu_pool_proj
I0403 19:37:08.968058 25312 net.cpp:425] inception_4e/relu_pool_proj <- inception_4e/pool_proj
I0403 19:37:08.968077 25312 net.cpp:386] inception_4e/relu_pool_proj -> inception_4e/pool_proj (in-place)
I0403 19:37:08.968379 25312 net.cpp:141] Setting up inception_4e/relu_pool_proj
I0403 19:37:08.968405 25312 net.cpp:148] Top shape: 24 128 14 14 (602112)
I0403 19:37:08.968420 25312 net.cpp:156] Memory required for data: 1256902176
I0403 19:37:08.968436 25312 layer_factory.hpp:77] Creating layer inception_4e/output
I0403 19:37:08.968452 25312 net.cpp:91] Creating Layer inception_4e/output
I0403 19:37:08.968468 25312 net.cpp:425] inception_4e/output <- inception_4e/1x1
I0403 19:37:08.968484 25312 net.cpp:425] inception_4e/output <- inception_4e/3x3
I0403 19:37:08.968502 25312 net.cpp:425] inception_4e/output <- inception_4e/5x5
I0403 19:37:08.968518 25312 net.cpp:425] inception_4e/output <- inception_4e/pool_proj
I0403 19:37:08.968538 25312 net.cpp:399] inception_4e/output -> inception_4e/output
I0403 19:37:08.968590 25312 net.cpp:141] Setting up inception_4e/output
I0403 19:37:08.968616 25312 net.cpp:148] Top shape: 24 832 14 14 (3913728)
I0403 19:37:08.968631 25312 net.cpp:156] Memory required for data: 1272557088
I0403 19:37:08.968647 25312 layer_factory.hpp:77] Creating layer pool4/3x3_s2
I0403 19:37:08.968663 25312 net.cpp:91] Creating Layer pool4/3x3_s2
I0403 19:37:08.968679 25312 net.cpp:425] pool4/3x3_s2 <- inception_4e/output
I0403 19:37:08.968698 25312 net.cpp:399] pool4/3x3_s2 -> pool4/3x3_s2
I0403 19:37:08.968765 25312 net.cpp:141] Setting up pool4/3x3_s2
I0403 19:37:08.968787 25312 net.cpp:148] Top shape: 24 832 7 7 (978432)
I0403 19:37:08.968801 25312 net.cpp:156] Memory required for data: 1276470816
I0403 19:37:08.968816 25312 layer_factory.hpp:77] Creating layer pool4/3x3_s2_pool4/3x3_s2_0_split
I0403 19:37:08.968832 25312 net.cpp:91] Creating Layer pool4/3x3_s2_pool4/3x3_s2_0_split
I0403 19:37:08.968847 25312 net.cpp:425] pool4/3x3_s2_pool4/3x3_s2_0_split <- pool4/3x3_s2
I0403 19:37:08.968866 25312 net.cpp:399] pool4/3x3_s2_pool4/3x3_s2_0_split -> pool4/3x3_s2_pool4/3x3_s2_0_split_0
I0403 19:37:08.968888 25312 net.cpp:399] pool4/3x3_s2_pool4/3x3_s2_0_split -> pool4/3x3_s2_pool4/3x3_s2_0_split_1
I0403 19:37:08.968907 25312 net.cpp:399] pool4/3x3_s2_pool4/3x3_s2_0_split -> pool4/3x3_s2_pool4/3x3_s2_0_split_2
I0403 19:37:08.968930 25312 net.cpp:399] pool4/3x3_s2_pool4/3x3_s2_0_split -> pool4/3x3_s2_pool4/3x3_s2_0_split_3
I0403 19:37:08.969020 25312 net.cpp:141] Setting up pool4/3x3_s2_pool4/3x3_s2_0_split
I0403 19:37:08.969045 25312 net.cpp:148] Top shape: 24 832 7 7 (978432)
I0403 19:37:08.969061 25312 net.cpp:148] Top shape: 24 832 7 7 (978432)
I0403 19:37:08.969076 25312 net.cpp:148] Top shape: 24 832 7 7 (978432)
I0403 19:37:08.969091 25312 net.cpp:148] Top shape: 24 832 7 7 (978432)
I0403 19:37:08.969105 25312 net.cpp:156] Memory required for data: 1292125728
I0403 19:37:08.969120 25312 layer_factory.hpp:77] Creating layer inception_5a/1x1
I0403 19:37:08.969141 25312 net.cpp:91] Creating Layer inception_5a/1x1
I0403 19:37:08.969158 25312 net.cpp:425] inception_5a/1x1 <- pool4/3x3_s2_pool4/3x3_s2_0_split_0
I0403 19:37:08.969179 25312 net.cpp:399] inception_5a/1x1 -> inception_5a/1x1
I0403 19:37:08.972002 25312 net.cpp:141] Setting up inception_5a/1x1
I0403 19:37:08.972033 25312 net.cpp:148] Top shape: 24 256 7 7 (301056)
I0403 19:37:08.972048 25312 net.cpp:156] Memory required for data: 1293329952
I0403 19:37:08.972069 25312 layer_factory.hpp:77] Creating layer inception_5a/relu_1x1
I0403 19:37:08.972090 25312 net.cpp:91] Creating Layer inception_5a/relu_1x1
I0403 19:37:08.972105 25312 net.cpp:425] inception_5a/relu_1x1 <- inception_5a/1x1
I0403 19:37:08.972123 25312 net.cpp:386] inception_5a/relu_1x1 -> inception_5a/1x1 (in-place)
I0403 19:37:08.972448 25312 net.cpp:141] Setting up inception_5a/relu_1x1
I0403 19:37:08.972475 25312 net.cpp:148] Top shape: 24 256 7 7 (301056)
I0403 19:37:08.972489 25312 net.cpp:156] Memory required for data: 1294534176
I0403 19:37:08.972503 25312 layer_factory.hpp:77] Creating layer inception_5a/3x3_reduce
I0403 19:37:08.972525 25312 net.cpp:91] Creating Layer inception_5a/3x3_reduce
I0403 19:37:08.972553 25312 net.cpp:425] inception_5a/3x3_reduce <- pool4/3x3_s2_pool4/3x3_s2_0_split_1
I0403 19:37:08.972574 25312 net.cpp:399] inception_5a/3x3_reduce -> inception_5a/3x3_reduce
I0403 19:37:08.975026 25312 net.cpp:141] Setting up inception_5a/3x3_reduce
I0403 19:37:08.975057 25312 net.cpp:148] Top shape: 24 160 7 7 (188160)
I0403 19:37:08.975074 25312 net.cpp:156] Memory required for data: 1295286816
I0403 19:37:08.975092 25312 layer_factory.hpp:77] Creating layer inception_5a/relu_3x3_reduce
I0403 19:37:08.975109 25312 net.cpp:91] Creating Layer inception_5a/relu_3x3_reduce
I0403 19:37:08.975126 25312 net.cpp:425] inception_5a/relu_3x3_reduce <- inception_5a/3x3_reduce
I0403 19:37:08.975144 25312 net.cpp:386] inception_5a/relu_3x3_reduce -> inception_5a/3x3_reduce (in-place)
I0403 19:37:08.975337 25312 net.cpp:141] Setting up inception_5a/relu_3x3_reduce
I0403 19:37:08.975361 25312 net.cpp:148] Top shape: 24 160 7 7 (188160)
I0403 19:37:08.975375 25312 net.cpp:156] Memory required for data: 1296039456
I0403 19:37:08.975390 25312 layer_factory.hpp:77] Creating layer inception_5a/3x3
I0403 19:37:08.975414 25312 net.cpp:91] Creating Layer inception_5a/3x3
I0403 19:37:08.975430 25312 net.cpp:425] inception_5a/3x3 <- inception_5a/3x3_reduce
I0403 19:37:08.975451 25312 net.cpp:399] inception_5a/3x3 -> inception_5a/3x3
I0403 19:37:08.980352 25312 net.cpp:141] Setting up inception_5a/3x3
I0403 19:37:08.980381 25312 net.cpp:148] Top shape: 24 320 7 7 (376320)
I0403 19:37:08.980397 25312 net.cpp:156] Memory required for data: 1297544736
I0403 19:37:08.980415 25312 layer_factory.hpp:77] Creating layer inception_5a/relu_3x3
I0403 19:37:08.980435 25312 net.cpp:91] Creating Layer inception_5a/relu_3x3
I0403 19:37:08.980453 25312 net.cpp:425] inception_5a/relu_3x3 <- inception_5a/3x3
I0403 19:37:08.980469 25312 net.cpp:386] inception_5a/relu_3x3 -> inception_5a/3x3 (in-place)
I0403 19:37:08.980754 25312 net.cpp:141] Setting up inception_5a/relu_3x3
I0403 19:37:08.980780 25312 net.cpp:148] Top shape: 24 320 7 7 (376320)
I0403 19:37:08.980795 25312 net.cpp:156] Memory required for data: 1299050016
I0403 19:37:08.980809 25312 layer_factory.hpp:77] Creating layer inception_5a/5x5_reduce
I0403 19:37:08.980831 25312 net.cpp:91] Creating Layer inception_5a/5x5_reduce
I0403 19:37:08.980849 25312 net.cpp:425] inception_5a/5x5_reduce <- pool4/3x3_s2_pool4/3x3_s2_0_split_2
I0403 19:37:08.980870 25312 net.cpp:399] inception_5a/5x5_reduce -> inception_5a/5x5_reduce
I0403 19:37:08.982025 25312 net.cpp:141] Setting up inception_5a/5x5_reduce
I0403 19:37:08.982058 25312 net.cpp:148] Top shape: 24 32 7 7 (37632)
I0403 19:37:08.982074 25312 net.cpp:156] Memory required for data: 1299200544
I0403 19:37:08.982092 25312 layer_factory.hpp:77] Creating layer inception_5a/relu_5x5_reduce
I0403 19:37:08.982110 25312 net.cpp:91] Creating Layer inception_5a/relu_5x5_reduce
I0403 19:37:08.982125 25312 net.cpp:425] inception_5a/relu_5x5_reduce <- inception_5a/5x5_reduce
I0403 19:37:08.982143 25312 net.cpp:386] inception_5a/relu_5x5_reduce -> inception_5a/5x5_reduce (in-place)
I0403 19:37:08.982442 25312 net.cpp:141] Setting up inception_5a/relu_5x5_reduce
I0403 19:37:08.982467 25312 net.cpp:148] Top shape: 24 32 7 7 (37632)
I0403 19:37:08.982482 25312 net.cpp:156] Memory required for data: 1299351072
I0403 19:37:08.982496 25312 layer_factory.hpp:77] Creating layer inception_5a/5x5
I0403 19:37:08.982519 25312 net.cpp:91] Creating Layer inception_5a/5x5
I0403 19:37:08.982537 25312 net.cpp:425] inception_5a/5x5 <- inception_5a/5x5_reduce
I0403 19:37:08.982558 25312 net.cpp:399] inception_5a/5x5 -> inception_5a/5x5
I0403 19:37:08.984246 25312 net.cpp:141] Setting up inception_5a/5x5
I0403 19:37:08.984295 25312 net.cpp:148] Top shape: 24 128 7 7 (150528)
I0403 19:37:08.984311 25312 net.cpp:156] Memory required for data: 1299953184
I0403 19:37:08.984329 25312 layer_factory.hpp:77] Creating layer inception_5a/relu_5x5
I0403 19:37:08.984347 25312 net.cpp:91] Creating Layer inception_5a/relu_5x5
I0403 19:37:08.984364 25312 net.cpp:425] inception_5a/relu_5x5 <- inception_5a/5x5
I0403 19:37:08.984382 25312 net.cpp:386] inception_5a/relu_5x5 -> inception_5a/5x5 (in-place)
I0403 19:37:08.984571 25312 net.cpp:141] Setting up inception_5a/relu_5x5
I0403 19:37:08.984596 25312 net.cpp:148] Top shape: 24 128 7 7 (150528)
I0403 19:37:08.984611 25312 net.cpp:156] Memory required for data: 1300555296
I0403 19:37:08.984625 25312 layer_factory.hpp:77] Creating layer inception_5a/pool
I0403 19:37:08.984645 25312 net.cpp:91] Creating Layer inception_5a/pool
I0403 19:37:08.984661 25312 net.cpp:425] inception_5a/pool <- pool4/3x3_s2_pool4/3x3_s2_0_split_3
I0403 19:37:08.984678 25312 net.cpp:399] inception_5a/pool -> inception_5a/pool
I0403 19:37:08.984748 25312 net.cpp:141] Setting up inception_5a/pool
I0403 19:37:08.984772 25312 net.cpp:148] Top shape: 24 832 7 7 (978432)
I0403 19:37:08.984786 25312 net.cpp:156] Memory required for data: 1304469024
I0403 19:37:08.984802 25312 layer_factory.hpp:77] Creating layer inception_5a/pool_proj
I0403 19:37:08.984823 25312 net.cpp:91] Creating Layer inception_5a/pool_proj
I0403 19:37:08.984841 25312 net.cpp:425] inception_5a/pool_proj <- inception_5a/pool
I0403 19:37:08.984863 25312 net.cpp:399] inception_5a/pool_proj -> inception_5a/pool_proj
I0403 19:37:08.987083 25312 net.cpp:141] Setting up inception_5a/pool_proj
I0403 19:37:08.987112 25312 net.cpp:148] Top shape: 24 128 7 7 (150528)
I0403 19:37:08.987128 25312 net.cpp:156] Memory required for data: 1305071136
I0403 19:37:08.987145 25312 layer_factory.hpp:77] Creating layer inception_5a/relu_pool_proj
I0403 19:37:08.987164 25312 net.cpp:91] Creating Layer inception_5a/relu_pool_proj
I0403 19:37:08.987179 25312 net.cpp:425] inception_5a/relu_pool_proj <- inception_5a/pool_proj
I0403 19:37:08.987200 25312 net.cpp:386] inception_5a/relu_pool_proj -> inception_5a/pool_proj (in-place)
I0403 19:37:08.987493 25312 net.cpp:141] Setting up inception_5a/relu_pool_proj
I0403 19:37:08.987519 25312 net.cpp:148] Top shape: 24 128 7 7 (150528)
I0403 19:37:08.987534 25312 net.cpp:156] Memory required for data: 1305673248
I0403 19:37:08.987547 25312 layer_factory.hpp:77] Creating layer inception_5a/output
I0403 19:37:08.987565 25312 net.cpp:91] Creating Layer inception_5a/output
I0403 19:37:08.987579 25312 net.cpp:425] inception_5a/output <- inception_5a/1x1
I0403 19:37:08.987596 25312 net.cpp:425] inception_5a/output <- inception_5a/3x3
I0403 19:37:08.987612 25312 net.cpp:425] inception_5a/output <- inception_5a/5x5
I0403 19:37:08.987628 25312 net.cpp:425] inception_5a/output <- inception_5a/pool_proj
I0403 19:37:08.987648 25312 net.cpp:399] inception_5a/output -> inception_5a/output
I0403 19:37:08.987696 25312 net.cpp:141] Setting up inception_5a/output
I0403 19:37:08.987722 25312 net.cpp:148] Top shape: 24 832 7 7 (978432)
I0403 19:37:08.987737 25312 net.cpp:156] Memory required for data: 1309586976
I0403 19:37:08.987752 25312 layer_factory.hpp:77] Creating layer inception_5a/output_inception_5a/output_0_split
I0403 19:37:08.987768 25312 net.cpp:91] Creating Layer inception_5a/output_inception_5a/output_0_split
I0403 19:37:08.987783 25312 net.cpp:425] inception_5a/output_inception_5a/output_0_split <- inception_5a/output
I0403 19:37:08.987800 25312 net.cpp:399] inception_5a/output_inception_5a/output_0_split -> inception_5a/output_inception_5a/output_0_split_0
I0403 19:37:08.987824 25312 net.cpp:399] inception_5a/output_inception_5a/output_0_split -> inception_5a/output_inception_5a/output_0_split_1
I0403 19:37:08.987844 25312 net.cpp:399] inception_5a/output_inception_5a/output_0_split -> inception_5a/output_inception_5a/output_0_split_2
I0403 19:37:08.987864 25312 net.cpp:399] inception_5a/output_inception_5a/output_0_split -> inception_5a/output_inception_5a/output_0_split_3
I0403 19:37:08.987974 25312 net.cpp:141] Setting up inception_5a/output_inception_5a/output_0_split
I0403 19:37:08.987998 25312 net.cpp:148] Top shape: 24 832 7 7 (978432)
I0403 19:37:08.988013 25312 net.cpp:148] Top shape: 24 832 7 7 (978432)
I0403 19:37:08.988029 25312 net.cpp:148] Top shape: 24 832 7 7 (978432)
I0403 19:37:08.988044 25312 net.cpp:148] Top shape: 24 832 7 7 (978432)
I0403 19:37:08.988057 25312 net.cpp:156] Memory required for data: 1325241888
I0403 19:37:08.988071 25312 layer_factory.hpp:77] Creating layer inception_5b/1x1
I0403 19:37:08.988092 25312 net.cpp:91] Creating Layer inception_5b/1x1
I0403 19:37:08.988111 25312 net.cpp:425] inception_5b/1x1 <- inception_5a/output_inception_5a/output_0_split_0
I0403 19:37:08.988131 25312 net.cpp:399] inception_5b/1x1 -> inception_5b/1x1
I0403 19:37:08.991789 25312 net.cpp:141] Setting up inception_5b/1x1
I0403 19:37:08.991821 25312 net.cpp:148] Top shape: 24 384 7 7 (451584)
I0403 19:37:08.991837 25312 net.cpp:156] Memory required for data: 1327048224
I0403 19:37:08.991855 25312 layer_factory.hpp:77] Creating layer inception_5b/relu_1x1
I0403 19:37:08.991871 25312 net.cpp:91] Creating Layer inception_5b/relu_1x1
I0403 19:37:08.991888 25312 net.cpp:425] inception_5b/relu_1x1 <- inception_5b/1x1
I0403 19:37:08.991905 25312 net.cpp:386] inception_5b/relu_1x1 -> inception_5b/1x1 (in-place)
I0403 19:37:08.992207 25312 net.cpp:141] Setting up inception_5b/relu_1x1
I0403 19:37:08.992233 25312 net.cpp:148] Top shape: 24 384 7 7 (451584)
I0403 19:37:08.992249 25312 net.cpp:156] Memory required for data: 1328854560
I0403 19:37:08.992269 25312 layer_factory.hpp:77] Creating layer inception_5b/3x3_reduce
I0403 19:37:08.992291 25312 net.cpp:91] Creating Layer inception_5b/3x3_reduce
I0403 19:37:08.992310 25312 net.cpp:425] inception_5b/3x3_reduce <- inception_5a/output_inception_5a/output_0_split_1
I0403 19:37:08.992331 25312 net.cpp:399] inception_5b/3x3_reduce -> inception_5b/3x3_reduce
I0403 19:37:08.994881 25312 net.cpp:141] Setting up inception_5b/3x3_reduce
I0403 19:37:08.994912 25312 net.cpp:148] Top shape: 24 192 7 7 (225792)
I0403 19:37:08.994930 25312 net.cpp:156] Memory required for data: 1329757728
I0403 19:37:08.994947 25312 layer_factory.hpp:77] Creating layer inception_5b/relu_3x3_reduce
I0403 19:37:08.994964 25312 net.cpp:91] Creating Layer inception_5b/relu_3x3_reduce
I0403 19:37:08.994981 25312 net.cpp:425] inception_5b/relu_3x3_reduce <- inception_5b/3x3_reduce
I0403 19:37:08.994999 25312 net.cpp:386] inception_5b/relu_3x3_reduce -> inception_5b/3x3_reduce (in-place)
I0403 19:37:08.995188 25312 net.cpp:141] Setting up inception_5b/relu_3x3_reduce
I0403 19:37:08.995214 25312 net.cpp:148] Top shape: 24 192 7 7 (225792)
I0403 19:37:08.995234 25312 net.cpp:156] Memory required for data: 1330660896
I0403 19:37:08.995247 25312 layer_factory.hpp:77] Creating layer inception_5b/3x3
I0403 19:37:08.995275 25312 net.cpp:91] Creating Layer inception_5b/3x3
I0403 19:37:08.995293 25312 net.cpp:425] inception_5b/3x3 <- inception_5b/3x3_reduce
I0403 19:37:08.995316 25312 net.cpp:399] inception_5b/3x3 -> inception_5b/3x3
I0403 19:37:09.001781 25312 net.cpp:141] Setting up inception_5b/3x3
I0403 19:37:09.001809 25312 net.cpp:148] Top shape: 24 384 7 7 (451584)
I0403 19:37:09.001824 25312 net.cpp:156] Memory required for data: 1332467232
I0403 19:37:09.001843 25312 layer_factory.hpp:77] Creating layer inception_5b/relu_3x3
I0403 19:37:09.001862 25312 net.cpp:91] Creating Layer inception_5b/relu_3x3
I0403 19:37:09.001878 25312 net.cpp:425] inception_5b/relu_3x3 <- inception_5b/3x3
I0403 19:37:09.001898 25312 net.cpp:386] inception_5b/relu_3x3 -> inception_5b/3x3 (in-place)
I0403 19:37:09.002182 25312 net.cpp:141] Setting up inception_5b/relu_3x3
I0403 19:37:09.002207 25312 net.cpp:148] Top shape: 24 384 7 7 (451584)
I0403 19:37:09.002223 25312 net.cpp:156] Memory required for data: 1334273568
I0403 19:37:09.002236 25312 layer_factory.hpp:77] Creating layer inception_5b/5x5_reduce
I0403 19:37:09.002279 25312 net.cpp:91] Creating Layer inception_5b/5x5_reduce
I0403 19:37:09.002298 25312 net.cpp:425] inception_5b/5x5_reduce <- inception_5a/output_inception_5a/output_0_split_2
I0403 19:37:09.002321 25312 net.cpp:399] inception_5b/5x5_reduce -> inception_5b/5x5_reduce
I0403 19:37:09.003547 25312 net.cpp:141] Setting up inception_5b/5x5_reduce
I0403 19:37:09.003574 25312 net.cpp:148] Top shape: 24 48 7 7 (56448)
I0403 19:37:09.003589 25312 net.cpp:156] Memory required for data: 1334499360
I0403 19:37:09.003608 25312 layer_factory.hpp:77] Creating layer inception_5b/relu_5x5_reduce
I0403 19:37:09.003626 25312 net.cpp:91] Creating Layer inception_5b/relu_5x5_reduce
I0403 19:37:09.003643 25312 net.cpp:425] inception_5b/relu_5x5_reduce <- inception_5b/5x5_reduce
I0403 19:37:09.003662 25312 net.cpp:386] inception_5b/relu_5x5_reduce -> inception_5b/5x5_reduce (in-place)
I0403 19:37:09.004024 25312 net.cpp:141] Setting up inception_5b/relu_5x5_reduce
I0403 19:37:09.004050 25312 net.cpp:148] Top shape: 24 48 7 7 (56448)
I0403 19:37:09.004065 25312 net.cpp:156] Memory required for data: 1334725152
I0403 19:37:09.004079 25312 layer_factory.hpp:77] Creating layer inception_5b/5x5
I0403 19:37:09.004099 25312 net.cpp:91] Creating Layer inception_5b/5x5
I0403 19:37:09.004115 25312 net.cpp:425] inception_5b/5x5 <- inception_5b/5x5_reduce
I0403 19:37:09.004132 25312 net.cpp:399] inception_5b/5x5 -> inception_5b/5x5
I0403 19:37:09.006098 25312 net.cpp:141] Setting up inception_5b/5x5
I0403 19:37:09.006125 25312 net.cpp:148] Top shape: 24 128 7 7 (150528)
I0403 19:37:09.006141 25312 net.cpp:156] Memory required for data: 1335327264
I0403 19:37:09.006160 25312 layer_factory.hpp:77] Creating layer inception_5b/relu_5x5
I0403 19:37:09.006178 25312 net.cpp:91] Creating Layer inception_5b/relu_5x5
I0403 19:37:09.006196 25312 net.cpp:425] inception_5b/relu_5x5 <- inception_5b/5x5
I0403 19:37:09.006212 25312 net.cpp:386] inception_5b/relu_5x5 -> inception_5b/5x5 (in-place)
I0403 19:37:09.006408 25312 net.cpp:141] Setting up inception_5b/relu_5x5
I0403 19:37:09.006433 25312 net.cpp:148] Top shape: 24 128 7 7 (150528)
I0403 19:37:09.006448 25312 net.cpp:156] Memory required for data: 1335929376
I0403 19:37:09.006464 25312 layer_factory.hpp:77] Creating layer inception_5b/pool
I0403 19:37:09.006484 25312 net.cpp:91] Creating Layer inception_5b/pool
I0403 19:37:09.006500 25312 net.cpp:425] inception_5b/pool <- inception_5a/output_inception_5a/output_0_split_3
I0403 19:37:09.006518 25312 net.cpp:399] inception_5b/pool -> inception_5b/pool
I0403 19:37:09.006588 25312 net.cpp:141] Setting up inception_5b/pool
I0403 19:37:09.006613 25312 net.cpp:148] Top shape: 24 832 7 7 (978432)
I0403 19:37:09.006626 25312 net.cpp:156] Memory required for data: 1339843104
I0403 19:37:09.006641 25312 layer_factory.hpp:77] Creating layer inception_5b/pool_proj
I0403 19:37:09.006664 25312 net.cpp:91] Creating Layer inception_5b/pool_proj
I0403 19:37:09.006681 25312 net.cpp:425] inception_5b/pool_proj <- inception_5b/pool
I0403 19:37:09.006701 25312 net.cpp:399] inception_5b/pool_proj -> inception_5b/pool_proj
I0403 19:37:09.008932 25312 net.cpp:141] Setting up inception_5b/pool_proj
I0403 19:37:09.008960 25312 net.cpp:148] Top shape: 24 128 7 7 (150528)
I0403 19:37:09.008975 25312 net.cpp:156] Memory required for data: 1340445216
I0403 19:37:09.008992 25312 layer_factory.hpp:77] Creating layer inception_5b/relu_pool_proj
I0403 19:37:09.009011 25312 net.cpp:91] Creating Layer inception_5b/relu_pool_proj
I0403 19:37:09.009027 25312 net.cpp:425] inception_5b/relu_pool_proj <- inception_5b/pool_proj
I0403 19:37:09.009045 25312 net.cpp:386] inception_5b/relu_pool_proj -> inception_5b/pool_proj (in-place)
I0403 19:37:09.009336 25312 net.cpp:141] Setting up inception_5b/relu_pool_proj
I0403 19:37:09.009362 25312 net.cpp:148] Top shape: 24 128 7 7 (150528)
I0403 19:37:09.009377 25312 net.cpp:156] Memory required for data: 1341047328
I0403 19:37:09.009392 25312 layer_factory.hpp:77] Creating layer inception_5b/output
I0403 19:37:09.009408 25312 net.cpp:91] Creating Layer inception_5b/output
I0403 19:37:09.009438 25312 net.cpp:425] inception_5b/output <- inception_5b/1x1
I0403 19:37:09.009457 25312 net.cpp:425] inception_5b/output <- inception_5b/3x3
I0403 19:37:09.009474 25312 net.cpp:425] inception_5b/output <- inception_5b/5x5
I0403 19:37:09.009490 25312 net.cpp:425] inception_5b/output <- inception_5b/pool_proj
I0403 19:37:09.009510 25312 net.cpp:399] inception_5b/output -> inception_5b/output
I0403 19:37:09.009560 25312 net.cpp:141] Setting up inception_5b/output
I0403 19:37:09.009587 25312 net.cpp:148] Top shape: 24 1024 7 7 (1204224)
I0403 19:37:09.009603 25312 net.cpp:156] Memory required for data: 1345864224
I0403 19:37:09.009618 25312 layer_factory.hpp:77] Creating layer pool5/7x7_s1
I0403 19:37:09.009634 25312 net.cpp:91] Creating Layer pool5/7x7_s1
I0403 19:37:09.009649 25312 net.cpp:425] pool5/7x7_s1 <- inception_5b/output
I0403 19:37:09.009666 25312 net.cpp:399] pool5/7x7_s1 -> pool5/7x7_s1
I0403 19:37:09.009877 25312 net.cpp:141] Setting up pool5/7x7_s1
I0403 19:37:09.009902 25312 net.cpp:148] Top shape: 24 1024 1 1 (24576)
I0403 19:37:09.009917 25312 net.cpp:156] Memory required for data: 1345962528
I0403 19:37:09.009932 25312 layer_factory.hpp:77] Creating layer pool5/drop_7x7_s1
I0403 19:37:09.009949 25312 net.cpp:91] Creating Layer pool5/drop_7x7_s1
I0403 19:37:09.009964 25312 net.cpp:425] pool5/drop_7x7_s1 <- pool5/7x7_s1
I0403 19:37:09.009984 25312 net.cpp:386] pool5/drop_7x7_s1 -> pool5/7x7_s1 (in-place)
I0403 19:37:09.010033 25312 net.cpp:141] Setting up pool5/drop_7x7_s1
I0403 19:37:09.010059 25312 net.cpp:148] Top shape: 24 1024 1 1 (24576)
I0403 19:37:09.010073 25312 net.cpp:156] Memory required for data: 1346060832
I0403 19:37:09.010088 25312 layer_factory.hpp:77] Creating layer loss3/classifier_plantvillage
I0403 19:37:09.010107 25312 net.cpp:91] Creating Layer loss3/classifier_plantvillage
I0403 19:37:09.010123 25312 net.cpp:425] loss3/classifier_plantvillage <- pool5/7x7_s1
I0403 19:37:09.010143 25312 net.cpp:399] loss3/classifier_plantvillage -> loss3/classifier_plantvillage
I0403 19:37:09.010565 25312 net.cpp:141] Setting up loss3/classifier_plantvillage
I0403 19:37:09.010589 25312 net.cpp:148] Top shape: 24 38 (912)
I0403 19:37:09.010604 25312 net.cpp:156] Memory required for data: 1346064480
I0403 19:37:09.010620 25312 layer_factory.hpp:77] Creating layer loss3/classifier_plantvillage_loss3/classifier_plantvillage_0_split
I0403 19:37:09.010642 25312 net.cpp:91] Creating Layer loss3/classifier_plantvillage_loss3/classifier_plantvillage_0_split
I0403 19:37:09.010658 25312 net.cpp:425] loss3/classifier_plantvillage_loss3/classifier_plantvillage_0_split <- loss3/classifier_plantvillage
I0403 19:37:09.010678 25312 net.cpp:399] loss3/classifier_plantvillage_loss3/classifier_plantvillage_0_split -> loss3/classifier_plantvillage_loss3/classifier_plantvillage_0_split_0
I0403 19:37:09.010700 25312 net.cpp:399] loss3/classifier_plantvillage_loss3/classifier_plantvillage_0_split -> loss3/classifier_plantvillage_loss3/classifier_plantvillage_0_split_1
I0403 19:37:09.010720 25312 net.cpp:399] loss3/classifier_plantvillage_loss3/classifier_plantvillage_0_split -> loss3/classifier_plantvillage_loss3/classifier_plantvillage_0_split_2
I0403 19:37:09.010740 25312 net.cpp:399] loss3/classifier_plantvillage_loss3/classifier_plantvillage_0_split -> loss3/classifier_plantvillage_loss3/classifier_plantvillage_0_split_3
I0403 19:37:09.010838 25312 net.cpp:141] Setting up loss3/classifier_plantvillage_loss3/classifier_plantvillage_0_split
I0403 19:37:09.010862 25312 net.cpp:148] Top shape: 24 38 (912)
I0403 19:37:09.010879 25312 net.cpp:148] Top shape: 24 38 (912)
I0403 19:37:09.010895 25312 net.cpp:148] Top shape: 24 38 (912)
I0403 19:37:09.010908 25312 net.cpp:148] Top shape: 24 38 (912)
I0403 19:37:09.010922 25312 net.cpp:156] Memory required for data: 1346079072
I0403 19:37:09.010936 25312 layer_factory.hpp:77] Creating layer loss1/loss
I0403 19:37:09.010959 25312 net.cpp:91] Creating Layer loss1/loss
I0403 19:37:09.010977 25312 net.cpp:425] loss1/loss <- loss1/classifier_plantvillage_loss1/classifier_plantvillage_0_split_0
I0403 19:37:09.011006 25312 net.cpp:425] loss1/loss <- label_data_1_split_0
…
