…
I0403 19:46:31.875350 25856 net.cpp:313] The NetState phase (1) differed from the phase (0) specified by a rule in layer data
I0403 19:46:31.876557 25856 net.cpp:49] Initializing net from parameters: 
state {
  phase: TEST
}
layer {
  name: "data"
  type: "Data"
  top: "data"
  top: "label"
  include {
    phase: TEST
  }
  transform_param {
    mirror: false
    crop_size: 224
    mean_file: "/home/mohanty/data/final_dataset/lmdb/grayscale-80-20/mean.binaryproto"
  }
  data_param {
    source: "/home/mohanty/data/final_dataset/lmdb/grayscale-80-20/test_db"
    batch_size: 24
    backend: LMDB
  }
}
layer {
  name: "conv1/7x7_s2"
  type: "Convolution"
  bottom: "data"
  top: "conv1/7x7_s2"
  param {
    lr_mult: 1
    decay_mult: 1
  }
  param {
    lr_mult: 2
    decay_mult: 0
  }
  convolution_param {
    num_output: 64
    pad: 3
    kernel_size: 7
    stride: 2
    weight_filler {
      type: "xavier"
      std: 0.1
    }
    bias_filler {
      type: "constant"
      value: 0.2
    }
  }
}
layer {
  name: "conv1/relu_7x7"
  type: "ReLU"
  bottom: "conv1/7x7_s2"
  top: "conv1/7x7_s2"
}
layer {
  name: "pool1/3x3_s2"
  type: "Pooling"
  bottom: "conv1/7x7_s2"
  top: "pool1/3x3_s2"
  pooling_param {
    pool: MAX
    kernel_size: 3
    stride: 2
  }
}
layer {
  name: "pool1/norm1"
  type: "LRN"
  bottom: "pool1/3x3_s2"
  top: "pool1/norm1"
  lrn_param {
    local_size: 5
    alpha: 0.0001
    beta: 0.75
  }
}
layer {
  name: "conv2/3x3_reduce"
  type: "Convolution"
  bottom: "pool1/norm1"
  top: "conv2/3x3_reduce"
  param {
    lr_mult: 1
    decay_mult: 1
  }
  param {
    lr_mult: 2
    decay_mult: 0
  }
  convolution_param {
    num_output: 64
    kernel_size: 1
    weight_filler {
      type: "xavier"
      std: 0.1
    }
    bias_filler {
      type: "constant"
      value: 0.2
    }
  }
}
layer {
  name: "conv2/relu_3x3_reduce"
  type: "ReLU"
  bottom: "conv2/3x3_reduce"
  top: "conv2/3x3_reduce"
}
layer {
  name: "conv2/3x3"
  type: "Convolution"
  bottom: "conv2/3x3_reduce"
  top: "conv2/3x3"
  param {
    lr_mult: 1
    decay_mult: 1
  }
  param {
    lr_mult: 2
    decay_mult: 0
  }
  convolution_param {
    num_output: 192
    pad: 1
    kernel_size: 3
    weight_filler {
      type: "xavier"
      std: 0.03
    }
    bias_filler {
      type: "constant"
      value: 0.2
    }
  }
}
layer {
  name: "conv2/relu_3x3"
  type: "ReLU"
  bottom: "conv2/3x3"
  top: "conv2/3x3"
}
layer {
  name: "conv2/norm2"
  type: "LRN"
  bottom: "conv2/3x3"
  top: "conv2/norm2"
  lrn_param {
    local_size: 5
    alpha: 0.0001
    beta: 0.75
  }
}
layer {
  name: "pool2/3x3_s2"
  type: "Pooling"
  bottom: "conv2/norm2"
  top: "pool2/3x3_s2"
  pooling_param {
    pool: MAX
    kernel_size: 3
    stride: 2
  }
}
layer {
  name: "inception_3a/1x1"
  type: "Convolution"
  bottom: "pool2/3x3_s2"
  top: "inception_3a/1x1"
  param {
    lr_mult: 1
    decay_mult: 1
  }
  param {
    lr_mult: 2
    decay_mult: 0
  }
  convolution_param {
    num_output: 64
    kernel_size: 1
    weight_filler {
      type: "xavier"
      std: 0.03
    }
    bias_filler {
      type: "constant"
      value: 0.2
    }
  }
}
layer {
  name: "inception_3a/relu_1x1"
  type: "ReLU"
  bottom: "inception_3a/1x1"
  top: "inception_3a/1x1"
}
layer {
  name: "inception_3a/3x3_reduce"
  type: "Convolution"
  bottom: "pool2/3x3_s2"
  top: "inception_3a/3x3_reduce"
  param {
    lr_mult: 1
    decay_mult: 1
  }
  param {
    lr_mult: 2
    decay_mult: 0
  }
  convolution_param {
    num_output: 96
    kernel_size: 1
    weight_filler {
      type: "xavier"
      std: 0.09
    }
    bias_filler {
      type: "constant"
      value: 0.2
    }
  }
}
layer {
  name: "inception_3a/relu_3x3_reduce"
  type: "ReLU"
  bottom: "inception_3a/3x3_reduce"
  top: "inception_3a/3x3_reduce"
}
layer {
  name: "inception_3a/3x3"
  type: "Convolution"
  bottom: "inception_3a/3x3_reduce"
  top: "inception_3a/3x3"
  param {
    lr_mult: 1
    decay_mult: 1
  }
  param {
    lr_mult: 2
    decay_mult: 0
  }
  convolution_param {
    num_output: 128
    pad: 1
    kernel_size: 3
    weight_filler {
      type: "xavier"
      std: 0.03
    }
    bias_filler {
      type: "constant"
      value: 0.2
    }
  }
}
layer {
  name: "inception_3a/relu_3x3"
  type: "ReLU"
  bottom: "inception_3a/3x3"
  top: "inception_3a/3x3"
}
layer {
  name: "inception_3a/5x5_reduce"
  type: "Convolution"
  bottom: "pool2/3x3_s2"
  top: "inception_3a/5x5_reduce"
  param {
    lr_mult: 1
    decay_mult: 1
  }
  param {
    lr_mult: 2
    decay_mult: 0
  }
  convolution_param {
    num_output: 16
    kernel_size: 1
    weight_filler {
      type: "xavier"
      std: 0.2
    }
    bias_filler {
      type: "constant"
      value: 0.2
    }
  }
}
layer {
  name: "inception_3a/relu_5x5_reduce"
  type: "ReLU"
  bottom: "inception_3a/5x5_reduce"
  top: "inception_3a/5x5_reduce"
}
layer {
  name: "inception_3a/5x5"
  type: "Convolution"
  bottom: "inception_3a/5x5_reduce"
  top: "inception_3a/5x5"
  param {
    lr_mult: 1
    decay_mult: 1
  }
  param {
    lr_mult: 2
    decay_mult: 0
  }
  convolution_param {
    num_output: 32
    pad: 2
    kernel_size: 5
    weight_filler {
      type: "xavier"
      std: 0.03
    }
    bias_filler {
      type: "constant"
      value: 0.2
    }
  }
}
layer {
  name: "inception_3a/relu_5x5"
  type: "ReLU"
  bottom: "inception_3a/5x5"
  top: "inception_3a/5x5"
}
layer {
  name: "inception_3a/pool"
  type: "Pooling"
  bottom: "pool2/3x3_s2"
  top: "inception_3a/pool"
  pooling_param {
    pool: MAX
    kernel_size: 3
    stride: 1
    pad: 1
  }
}
layer {
  name: "inception_3a/pool_proj"
  type: "Convolution"
  bottom: "inception_3a/pool"
  top: "inception_3a/pool_proj"
  param {
    lr_mult: 1
    decay_mult: 1
  }
  param {
    lr_mult: 2
    decay_mult: 0
  }
  convolution_param {
    num_output: 32
    kernel_size: 1
    weight_filler {
      type: "xavier"
      std: 0.1
    }
    bias_filler {
      type: "constant"
      value: 0.2
    }
  }
}
layer {
  name: "inception_3a/relu_pool_proj"
  type: "ReLU"
  bottom: "inception_3a/pool_proj"
  top: "inception_3a/pool_proj"
}
layer {
  name: "inception_3a/output"
  type: "Concat"
  bottom: "inception_3a/1x1"
  bottom: "inception_3a/3x3"
  bottom: "inception_3a/5x5"
  bottom: "inception_3a/pool_proj"
  top: "inception_3a/output"
}
layer {
  name: "inception_3b/1x1"
  type: "Convolution"
  bottom: "inception_3a/output"
  top: "inception_3b/1x1"
  param {
    lr_mult: 1
    decay_mult: 1
  }
  param {
    lr_mult: 2
    decay_mult: 0
  }
  convolution_param {
    num_output: 128
    kernel_size: 1
    weight_filler {
      type: "xavier"
      std: 0.03
    }
    bias_filler {
      type: "constant"
      value: 0.2
    }
  }
}
layer {
  name: "inception_3b/relu_1x1"
  type: "ReLU"
  bottom: "inception_3b/1x1"
  top: "inception_3b/1x1"
}
layer {
  name: "inception_3b/3x3_reduce"
  type: "Convolution"
  bottom: "inception_3a/output"
  top: "inception_3b/3x3_reduce"
  param {
    lr_mult: 1
    decay_mult: 1
  }
  param {
    lr_mult: 2
    decay_mult: 0
  }
  convolution_param {
    num_output: 128
    kernel_size: 1
    weight_filler {
      type: "xavier"
      std: 0.09
    }
    bias_filler {
      type: "constant"
      value: 0.2
    }
  }
}
layer {
  name: "inception_3b/relu_3x3_reduce"
  type: "ReLU"
  bottom: "inception_3b/3x3_reduce"
  top: "inception_3b/3x3_reduce"
}
layer {
  name: "inception_3b/3x3"
  type: "Convolution"
  bottom: "inception_3b/3x3_reduce"
  top: "inception_3b/3x3"
  param {
    lr_mult: 1
    decay_mult: 1
  }
  param {
    lr_mult: 2
    decay_mult: 0
  }
  convolution_param {
    num_output: 192
    pad: 1
    kernel_size: 3
    weight_filler {
      type: "xavier"
      std: 0.03
    }
    bias_filler {
      type: "constant"
      value: 0.2
    }
  }
}
layer {
  name: "inception_3b/relu_3x3"
  type: "ReLU"
  bottom: "inception_3b/3x3"
  top: "inception_3b/3x3"
}
layer {
  name: "inception_3b/5x5_reduce"
  type: "Convolution"
  bottom: "inception_3a/output"
  top: "inception_3b/5x5_reduce"
  param {
    lr_mult: 1
    decay_mult: 1
  }
  param {
    lr_mult: 2
    decay_mult: 0
  }
  convolution_param {
    num_output: 32
    kernel_size: 1
    weight_filler {
      type: "xavier"
      std: 0.2
    }
    bias_filler {
      type: "constant"
      value: 0.2
    }
  }
}
layer {
  name: "inception_3b/relu_5x5_reduce"
  type: "ReLU"
  bottom: "inception_3b/5x5_reduce"
  top: "inception_3b/5x5_reduce"
}
layer {
  name: "inception_3b/5x5"
  type: "Convolution"
  bottom: "inception_3b/5x5_reduce"
  top: "inception_3b/5x5"
  param {
    lr_mult: 1
    decay_mult: 1
  }
  param {
    lr_mult: 2
    decay_mult: 0
  }
  convolution_param {
    num_output: 96
    pad: 2
    kernel_size: 5
    weight_filler {
      type: "xavier"
      std: 0.03
    }
    bias_filler {
      type: "constant"
      value: 0.2
    }
  }
}
layer {
  name: "inception_3b/relu_5x5"
  type: "ReLU"
  bottom: "inception_3b/5x5"
  top: "inception_3b/5x5"
}
layer {
  name: "inception_3b/pool"
  type: "Pooling"
  bottom: "inception_3a/output"
  top: "inception_3b/pool"
  pooling_param {
    pool: MAX
    kernel_size: 3
    stride: 1
    pad: 1
  }
}
layer {
  name: "inception_3b/pool_proj"
  type: "Convolution"
  bottom: "inception_3b/pool"
  top: "inception_3b/pool_proj"
  param {
    lr_mult: 1
    decay_mult: 1
  }
  param {
    lr_mult: 2
    decay_mult: 0
  }
  convolution_param {
    num_output: 64
    kernel_size: 1
    weight_filler {
      type: "xavier"
      std: 0.1
    }
    bias_filler {
      type: "constant"
      value: 0.2
    }
  }
}
layer {
  name: "inception_3b/relu_pool_proj"
  type: "ReLU"
  bottom: "inception_3b/pool_proj"
  top: "inception_3b/pool_proj"
}
layer {
  name: "inception_3b/output"
  type: "Concat"
  bottom: "inception_3b/1x1"
  bottom: "inception_3b/3x3"
  bottom: "inception_3b/5x5"
  bottom: "inception_3b/pool_proj"
  top: "inception_3b/output"
}
layer {
  name: "pool3/3x3_s2"
  type: "Pooling"
  bottom: "inception_3b/output"
  top: "pool3/3x3_s2"
  pooling_param {
    pool: MAX
    kernel_size: 3
    stride: 2
  }
}
layer {
  name: "inception_4a/1x1"
  type: "Convolution"
  bottom: "pool3/3x3_s2"
  top: "inception_4a/1x1"
  param {
    lr_mult: 1
    decay_mult: 1
  }
  param {
    lr_mult: 2
    decay_mult: 0
  }
  convolution_param {
    num_output: 192
    kernel_size: 1
    weight_filler {
      type: "xavier"
      std: 0.03
    }
    bias_filler {
      type: "constant"
      value: 0.2
    }
  }
}
layer {
  name: "inception_4a/relu_1x1"
  type: "ReLU"
  bottom: "inception_4a/1x1"
  top: "inception_4a/1x1"
}
layer {
  name: "inception_4a/3x3_reduce"
  type: "Convolution"
  bottom: "pool3/3x3_s2"
  top: "inception_4a/3x3_reduce"
  param {
    lr_mult: 1
    decay_mult: 1
  }
  param {
    lr_mult: 2
    decay_mult: 0
  }
  convolution_param {
    num_output: 96
    kernel_size: 1
    weight_filler {
      type: "xavier"
      std: 0.09
    }
    bias_filler {
      type: "constant"
      value: 0.2
    }
  }
}
layer {
  name: "inception_4a/relu_3x3_reduce"
  type: "ReLU"
  bottom: "inception_4a/3x3_reduce"
  top: "inception_4a/3x3_reduce"
}
layer {
  name: "inception_4a/3x3"
  type: "Convolution"
  bottom: "inception_4a/3x3_reduce"
  top: "inception_4a/3x3"
  param {
    lr_mult: 1
    decay_mult: 1
  }
  param {
    lr_mult: 2
    decay_mult: 0
  }
  convolution_param {
    num_output: 208
    pad: 1
    kernel_size: 3
    weight_filler {
      type: "xavier"
      std: 0.03
    }
    bias_filler {
      type: "constant"
      value: 0.2
    }
  }
}
layer {
  name: "inception_4a/relu_3x3"
  type: "ReLU"
  bottom: "inception_4a/3x3"
  top: "inception_4a/3x3"
}
layer {
  name: "inception_4a/5x5_reduce"
  type: "Convolution"
  bottom: "pool3/3x3_s2"
  top: "inception_4a/5x5_reduce"
  param {
    lr_mult: 1
    decay_mult: 1
  }
  param {
    lr_mult: 2
    decay_mult: 0
  }
  convolution_param {
    num_output: 16
    kernel_size: 1
    weight_filler {
      type: "xavier"
      std: 0.2
    }
    bias_filler {
      type: "constant"
      value: 0.2
    }
  }
}
layer {
  name: "inception_4a/relu_5x5_reduce"
  type: "ReLU"
  bottom: "inception_4a/5x5_reduce"
  top: "inception_4a/5x5_reduce"
}
layer {
  name: "inception_4a/5x5"
  type: "Convolution"
  bottom: "inception_4a/5x5_reduce"
  top: "inception_4a/5x5"
  param {
    lr_mult: 1
    decay_mult: 1
  }
  param {
    lr_mult: 2
    decay_mult: 0
  }
  convolution_param {
    num_output: 48
    pad: 2
    kernel_size: 5
    weight_filler {
      type: "xavier"
      std: 0.03
    }
    bias_filler {
      type: "constant"
      value: 0.2
    }
  }
}
layer {
  name: "inception_4a/relu_5x5"
  type: "ReLU"
  bottom: "inception_4a/5x5"
  top: "inception_4a/5x5"
}
layer {
  name: "inception_4a/pool"
  type: "Pooling"
  bottom: "pool3/3x3_s2"
  top: "inception_4a/pool"
  pooling_param {
    pool: MAX
    kernel_size: 3
    stride: 1
    pad: 1
  }
}
layer {
  name: "inception_4a/pool_proj"
  type: "Convolution"
  bottom: "inception_4a/pool"
  top: "inception_4a/pool_proj"
  param {
    lr_mult: 1
    decay_mult: 1
  }
  param {
    lr_mult: 2
    decay_mult: 0
  }
  convolution_param {
    num_output: 64
    kernel_size: 1
    weight_filler {
      type: "xavier"
      std: 0.1
    }
    bias_filler {
      type: "constant"
      value: 0.2
    }
  }
}
layer {
  name: "inception_4a/relu_pool_proj"
  type: "ReLU"
  bottom: "inception_4a/pool_proj"
  top: "inception_4a/pool_proj"
}
layer {
  name: "inception_4a/output"
  type: "Concat"
  bottom: "inception_4a/1x1"
  bottom: "inception_4a/3x3"
  bottom: "inception_4a/5x5"
  bottom: "inception_4a/pool_proj"
  top: "inception_4a/output"
}
layer {
  name: "loss1/ave_pool"
  type: "Pooling"
  bottom: "inception_4a/output"
  top: "loss1/ave_pool"
  pooling_param {
    pool: AVE
    kernel_size: 5
    stride: 3
  }
}
layer {
  name: "loss1/conv"
  type: "Convolution"
  bottom: "loss1/ave_pool"
  top: "loss1/conv"
  param {
    lr_mult: 1
    decay_mult: 1
  }
  param {
    lr_mult: 2
    decay_mult: 0
  }
  convolution_param {
    num_output: 128
    kernel_size: 1
    weight_filler {
      type: "xavier"
      std: 0.08
    }
    bias_filler {
      type: "constant"
      value: 0.2
    }
  }
}
layer {
  name: "loss1/relu_conv"
  type: "ReLU"
  bottom: "loss1/conv"
  top: "loss1/conv"
}
layer {
  name: "loss1/fc"
  type: "InnerProduct"
  bottom: "loss1/conv"
  top: "loss1/fc"
  param {
    lr_mult: 1
    decay_mult: 1
  }
  param {
    lr_mult: 2
    decay_mult: 0
  }
  inner_product_param {
    num_output: 1024
    weight_filler {
      type: "xavier"
      std: 0.02
    }
    bias_filler {
      type: "constant"
      value: 0.2
    }
  }
}
layer {
  name: "loss1/relu_fc"
  type: "ReLU"
  bottom: "loss1/fc"
  top: "loss1/fc"
}
layer {
  name: "loss1/drop_fc"
  type: "Dropout"
  bottom: "loss1/fc"
  top: "loss1/fc"
  dropout_param {
    dropout_ratio: 0.7
  }
}
layer {
  name: "loss1/classifier_plantvillage"
  type: "InnerProduct"
  bottom: "loss1/fc"
  top: "loss1/classifier_plantvillage"
  param {
    lr_mult: 1
    decay_mult: 1
  }
  param {
    lr_mult: 2
    decay_mult: 0
  }
  inner_product_param {
    num_output: 38
    weight_filler {
      type: "xavier"
      std: 0.0009765625
    }
    bias_filler {
      type: "constant"
      value: 0
    }
  }
}
layer {
  name: "inception_4b/1x1"
  type: "Convolution"
  bottom: "inception_4a/output"
  top: "inception_4b/1x1"
  param {
    lr_mult: 1
    decay_mult: 1
  }
  param {
    lr_mult: 2
    decay_mult: 0
  }
  convolution_param {
    num_output: 160
    kernel_size: 1
    weight_filler {
      type: "xavier"
      std: 0.03
    }
    bias_filler {
      type: "constant"
      value: 0.2
    }
  }
}
layer {
  name: "inception_4b/relu_1x1"
  type: "ReLU"
  bottom: "inception_4b/1x1"
  top: "inception_4b/1x1"
}
layer {
  name: "inception_4b/3x3_reduce"
  type: "Convolution"
  bottom: "inception_4a/output"
  top: "inception_4b/3x3_reduce"
  param {
    lr_mult: 1
    decay_mult: 1
  }
  param {
    lr_mult: 2
    decay_mult: 0
  }
  convolution_param {
    num_output: 112
    kernel_size: 1
    weight_filler {
      type: "xavier"
      std: 0.09
    }
    bias_filler {
      type: "constant"
      value: 0.2
    }
  }
}
layer {
  name: "inception_4b/relu_3x3_reduce"
  type: "ReLU"
  bottom: "inception_4b/3x3_reduce"
  top: "inception_4b/3x3_reduce"
}
layer {
  name: "inception_4b/3x3"
  type: "Convolution"
  bottom: "inception_4b/3x3_reduce"
  top: "inception_4b/3x3"
  param {
    lr_mult: 1
    decay_mult: 1
  }
  param {
    lr_mult: 2
    decay_mult: 0
  }
  convolution_param {
    num_output: 224
    pad: 1
    kernel_size: 3
    weight_filler {
      type: "xavier"
      std: 0.03
    }
    bias_filler {
      type: "constant"
      value: 0.2
    }
  }
}
layer {
  name: "inception_4b/relu_3x3"
  type: "ReLU"
  bottom: "inception_4b/3x3"
  top: "inception_4b/3x3"
}
layer {
  name: "inception_4b/5x5_reduce"
  type: "Convolution"
  bottom: "inception_4a/output"
  top: "inception_4b/5x5_reduce"
  param {
    lr_mult: 1
    decay_mult: 1
  }
  param {
    lr_mult: 2
    decay_mult: 0
  }
  convolution_param {
    num_output: 24
    kernel_size: 1
    weight_filler {
      type: "xavier"
      std: 0.2
    }
    bias_filler {
      type: "constant"
      value: 0.2
    }
  }
}
layer {
  name: "inception_4b/relu_5x5_reduce"
  type: "ReLU"
  bottom: "inception_4b/5x5_reduce"
  top: "inception_4b/5x5_reduce"
}
layer {
  name: "inception_4b/5x5"
  type: "Convolution"
  bottom: "inception_4b/5x5_reduce"
  top: "inception_4b/5x5"
  param {
    lr_mult: 1
    decay_mult: 1
  }
  param {
    lr_mult: 2
    decay_mult: 0
  }
  convolution_param {
    num_output: 64
    pad: 2
    kernel_size: 5
    weight_filler {
      type: "xavier"
      std: 0.03
    }
    bias_filler {
      type: "constant"
      value: 0.2
    }
  }
}
layer {
  name: "inception_4b/relu_5x5"
  type: "ReLU"
  bottom: "inception_4b/5x5"
  top: "inception_4b/5x5"
}
layer {
  name: "inception_4b/pool"
  type: "Pooling"
  bottom: "inception_4a/output"
  top: "inception_4b/pool"
  pooling_param {
    pool: MAX
    kernel_size: 3
    stride: 1
    pad: 1
  }
}
layer {
  name: "inception_4b/pool_proj"
  type: "Convolution"
  bottom: "inception_4b/pool"
  top: "inception_4b/pool_proj"
  param {
    lr_mult: 1
    decay_mult: 1
  }
  param {
    lr_mult: 2
    decay_mult: 0
  }
  convolution_param {
    num_output: 64
    kernel_size: 1
    weight_filler {
      type: "xavier"
      std: 0.1
    }
    bias_filler {
      type: "constant"
      value: 0.2
    }
  }
}
layer {
  name: "inception_4b/relu_pool_proj"
  type: "ReLU"
  bottom: "inception_4b/pool_proj"
  top: "inception_4b/pool_proj"
}
layer {
  name: "inception_4b/output"
  type: "Concat"
  bottom: "inception_4b/1x1"
  bottom: "inception_4b/3x3"
  bottom: "inception_4b/5x5"
  bottom: "inception_4b/pool_proj"
  top: "inception_4b/output"
}
layer {
  name: "inception_4c/1x1"
  type: "Convolution"
  bottom: "inception_4b/output"
  top: "inception_4c/1x1"
  param {
    lr_mult: 1
    decay_mult: 1
  }
  param {
    lr_mult: 2
    decay_mult: 0
  }
  convolution_param {
    num_output: 128
    kernel_size: 1
    weight_filler {
      type: "xavier"
      std: 0.03
    }
    bias_filler {
      type: "constant"
      value: 0.2
    }
  }
}
layer {
  name: "inception_4c/relu_1x1"
  type: "ReLU"
  bottom: "inception_4c/1x1"
  top: "inception_4c/1x1"
}
layer {
  name: "inception_4c/3x3_reduce"
  type: "Convolution"
  bottom: "inception_4b/output"
  top: "inception_4c/3x3_reduce"
  param {
    lr_mult: 1
    decay_mult: 1
  }
  param {
    lr_mult: 2
    decay_mult: 0
  }
  convolution_param {
    num_output: 128
    kernel_size: 1
    weight_filler {
      type: "xavier"
      std: 0.09
    }
    bias_filler {
      type: "constant"
      value: 0.2
    }
  }
}
layer {
  name: "inception_4c/relu_3x3_reduce"
  type: "ReLU"
  bottom: "inception_4c/3x3_reduce"
  top: "inception_4c/3x3_reduce"
}
layer {
  name: "inception_4c/3x3"
  type: "Convolution"
  bottom: "inception_4c/3x3_reduce"
  top: "inception_4c/3x3"
  param {
    lr_mult: 1
    decay_mult: 1
  }
  param {
    lr_mult: 2
    decay_mult: 0
  }
  convolution_param {
    num_output: 256
    pad: 1
    kernel_size: 3
    weight_filler {
      type: "xavier"
      std: 0.03
    }
    bias_filler {
      type: "constant"
      value: 0.2
    }
  }
}
layer {
  name: "inception_4c/relu_3x3"
  type: "ReLU"
  bottom: "inception_4c/3x3"
  top: "inception_4c/3x3"
}
layer {
  name: "inception_4c/5x5_reduce"
  type: "Convolution"
  bottom: "inception_4b/output"
  top: "inception_4c/5x5_reduce"
  param {
    lr_mult: 1
    decay_mult: 1
  }
  param {
    lr_mult: 2
    decay_mult: 0
  }
  convolution_param {
    num_output: 24
    kernel_size: 1
    weight_filler {
      type: "xavier"
      std: 0.2
    }
    bias_filler {
      type: "constant"
      value: 0.2
    }
  }
}
layer {
  name: "inception_4c/relu_5x5_reduce"
  type: "ReLU"
  bottom: "inception_4c/5x5_reduce"
  top: "inception_4c/5x5_reduce"
}
layer {
  name: "inception_4c/5x5"
  type: "Convolution"
  bottom: "inception_4c/5x5_reduce"
  top: "inception_4c/5x5"
  param {
    lr_mult: 1
    decay_mult: 1
  }
  param {
    lr_mult: 2
    decay_mult: 0
  }
  convolution_param {
    num_output: 64
    pad: 2
    kernel_size: 5
    weight_filler {
      type: "xavier"
      std: 0.03
    }
    bias_filler {
      type: "constant"
      value: 0.2
    }
  }
}
layer {
  name: "inception_4c/relu_5x5"
  type: "ReLU"
  bottom: "inception_4c/5x5"
  top: "inception_4c/5x5"
}
layer {
  name: "inception_4c/pool"
  type: "Pooling"
  bottom: "inception_4b/output"
  top: "inception_4c/pool"
  pooling_param {
    pool: MAX
    kernel_size: 3
    stride: 1
    pad: 1
  }
}
layer {
  name: "inception_4c/pool_proj"
  type: "Convolution"
  bottom: "inception_4c/pool"
  top: "inception_4c/pool_proj"
  param {
    lr_mult: 1
    decay_mult: 1
  }
  param {
    lr_mult: 2
    decay_mult: 0
  }
  convolution_param {
    num_output: 64
    kernel_size: 1
    weight_filler {
      type: "xavier"
      std: 0.1
    }
    bias_filler {
      type: "constant"
      value: 0.2
    }
  }
}
layer {
  name: "inception_4c/relu_pool_proj"
  type: "ReLU"
  bottom: "inception_4c/pool_proj"
  top: "inception_4c/pool_proj"
}
layer {
  name: "inception_4c/output"
  type: "Concat"
  bottom: "inception_4c/1x1"
  bottom: "inception_4c/3x3"
  bottom: "inception_4c/5x5"
  bottom: "inception_4c/pool_proj"
  top: "inception_4c/output"
}
layer {
  name: "inception_4d/1x1"
  type: "Convolution"
  bottom: "inception_4c/output"
  top: "inception_4d/1x1"
  param {
    lr_mult: 1
    decay_mult: 1
  }
  param {
    lr_mult: 2
    decay_mult: 0
  }
  convolution_param {
    num_output: 112
    kernel_size: 1
    weight_filler {
      type: "xavier"
      std: 0.03
    }
    bias_filler {
      type: "constant"
      value: 0.2
    }
  }
}
layer {
  name: "inception_4d/relu_1x1"
  type: "ReLU"
  bottom: "inception_4d/1x1"
  top: "inception_4d/1x1"
}
layer {
  name: "inception_4d/3x3_reduce"
  type: "Convolution"
  bottom: "inception_4c/output"
  top: "inception_4d/3x3_reduce"
  param {
    lr_mult: 1
    decay_mult: 1
  }
  param {
    lr_mult: 2
    decay_mult: 0
  }
  convolution_param {
    num_output: 144
    kernel_size: 1
    weight_filler {
      type: "xavier"
      std: 0.09
    }
    bias_filler {
      type: "constant"
      value: 0.2
    }
  }
}
layer {
  name: "inception_4d/relu_3x3_reduce"
  type: "ReLU"
  bottom: "inception_4d/3x3_reduce"
  top: "inception_4d/3x3_reduce"
}
layer {
  name: "inception_4d/3x3"
  type: "Convolution"
  bottom: "inception_4d/3x3_reduce"
  top: "inception_4d/3x3"
  param {
    lr_mult: 1
    decay_mult: 1
  }
  param {
    lr_mult: 2
    decay_mult: 0
  }
  convolution_param {
    num_output: 288
    pad: 1
    kernel_size: 3
    weight_filler {
      type: "xavier"
      std: 0.03
    }
    bias_filler {
      type: "constant"
      value: 0.2
    }
  }
}
layer {
  name: "inception_4d/relu_3x3"
  type: "ReLU"
  bottom: "inception_4d/3x3"
  top: "inception_4d/3x3"
}
layer {
  name: "inception_4d/5x5_reduce"
  type: "Convolution"
  bottom: "inception_4c/output"
  top: "inception_4d/5x5_reduce"
  param {
    lr_mult: 1
    decay_mult: 1
  }
  param {
    lr_mult: 2
    decay_mult: 0
  }
  convolution_param {
    num_output: 32
    kernel_size: 1
    weight_filler {
      type: "xavier"
      std: 0.2
    }
    bias_filler {
      type: "constant"
      value: 0.2
    }
  }
}
layer {
  name: "inception_4d/relu_5x5_reduce"
  type: "ReLU"
  bottom: "inception_4d/5x5_reduce"
  top: "inception_4d/5x5_reduce"
}
layer {
  name: "inception_4d/5x5"
  type: "Convolution"
  bottom: "inception_4d/5x5_reduce"
  top: "inception_4d/5x5"
  param {
    lr_mult: 1
    decay_mult: 1
  }
  param {
    lr_mult: 2
    decay_mult: 0
  }
  convolution_param {
    num_output: 64
    pad: 2
    kernel_size: 5
    weight_filler {
      type: "xavier"
      std: 0.03
    }
    bias_filler {
      type: "constant"
      value: 0.2
    }
  }
}
layer {
  name: "inception_4d/relu_5x5"
  type: "ReLU"
  bottom: "inception_4d/5x5"
  top: "inception_4d/5x5"
}
layer {
  name: "inception_4d/pool"
  type: "Pooling"
  bottom: "inception_4c/output"
  top: "inception_4d/pool"
  pooling_param {
    pool: MAX
    kernel_size: 3
    stride: 1
    pad: 1
  }
}
layer {
  name: "inception_4d/pool_proj"
  type: "Convolution"
  bottom: "inception_4d/pool"
  top: "inception_4d/pool_proj"
  param {
    lr_mult: 1
    decay_mult: 1
  }
  param {
    lr_mult: 2
    decay_mult: 0
  }
  convolution_param {
    num_output: 64
    kernel_size: 1
    weight_filler {
      type: "xavier"
      std: 0.1
    }
    bias_filler {
      type: "constant"
      value: 0.2
    }
  }
}
layer {
  name: "inception_4d/relu_pool_proj"
  type: "ReLU"
  bottom: "inception_4d/pool_proj"
  top: "inception_4d/pool_proj"
}
layer {
  name: "inception_4d/output"
  type: "Concat"
  bottom: "inception_4d/1x1"
  bottom: "inception_4d/3x3"
  bottom: "inception_4d/5x5"
  bottom: "inception_4d/pool_proj"
  top: "inception_4d/output"
}
layer {
  name: "loss2/ave_pool"
  type: "Pooling"
  bottom: "inception_4d/output"
  top: "loss2/ave_pool"
  pooling_param {
    pool: AVE
    kernel_size: 5
    stride: 3
  }
}
layer {
  name: "loss2/conv"
  type: "Convolution"
  bottom: "loss2/ave_pool"
  top: "loss2/conv"
  param {
    lr_mult: 1
    decay_mult: 1
  }
  param {
    lr_mult: 2
    decay_mult: 0
  }
  convolution_param {
    num_output: 128
    kernel_size: 1
    weight_filler {
      type: "xavier"
      std: 0.08
    }
    bias_filler {
      type: "constant"
      value: 0.2
    }
  }
}
layer {
  name: "loss2/relu_conv"
  type: "ReLU"
  bottom: "loss2/conv"
  top: "loss2/conv"
}
layer {
  name: "loss2/fc"
  type: "InnerProduct"
  bottom: "loss2/conv"
  top: "loss2/fc"
  param {
    lr_mult: 1
    decay_mult: 1
  }
  param {
    lr_mult: 2
    decay_mult: 0
  }
  inner_product_param {
    num_output: 1024
    weight_filler {
      type: "xavier"
      std: 0.02
    }
    bias_filler {
      type: "constant"
      value: 0.2
    }
  }
}
layer {
  name: "loss2/relu_fc"
  type: "ReLU"
  bottom: "loss2/fc"
  top: "loss2/fc"
}
layer {
  name: "loss2/drop_fc"
  type: "Dropout"
  bottom: "loss2/fc"
  top: "loss2/fc"
  dropout_param {
    dropout_ratio: 0.7
  }
}
layer {
  name: "loss2/classifier_plantvillage"
  type: "InnerProduct"
  bottom: "loss2/fc"
  top: "loss2/classifier_plantvillage"
  param {
    lr_mult: 1
    decay_mult: 1
  }
  param {
    lr_mult: 2
    decay_mult: 0
  }
  inner_product_param {
    num_output: 38
    weight_filler {
      type: "xavier"
      std: 0.0009765625
    }
    bias_filler {
      type: "constant"
      value: 0
    }
  }
}
layer {
  name: "inception_4e/1x1"
  type: "Convolution"
  bottom: "inception_4d/output"
  top: "inception_4e/1x1"
  param {
    lr_mult: 1
    decay_mult: 1
  }
  param {
    lr_mult: 2
    decay_mult: 0
  }
  convolution_param {
    num_output: 256
    kernel_size: 1
    weight_filler {
      type: "xavier"
      std: 0.03
    }
    bias_filler {
      type: "constant"
      value: 0.2
    }
  }
}
layer {
  name: "inception_4e/relu_1x1"
  type: "ReLU"
  bottom: "inception_4e/1x1"
  top: "inception_4e/1x1"
}
layer {
  name: "inception_4e/3x3_reduce"
  type: "Convolution"
  bottom: "inception_4d/output"
  top: "inception_4e/3x3_reduce"
  param {
    lr_mult: 1
    decay_mult: 1
  }
  param {
    lr_mult: 2
    decay_mult: 0
  }
  convolution_param {
    num_output: 160
    kernel_size: 1
    weight_filler {
      type: "xavier"
      std: 0.09
    }
    bias_filler {
      type: "constant"
      value: 0.2
    }
  }
}
layer {
  name: "inception_4e/relu_3x3_reduce"
  type: "ReLU"
  bottom: "inception_4e/3x3_reduce"
  top: "inception_4e/3x3_reduce"
}
layer {
  name: "inception_4e/3x3"
  type: "Convolution"
  bottom: "inception_4e/3x3_reduce"
  top: "inception_4e/3x3"
  param {
    lr_mult: 1
    decay_mult: 1
  }
  param {
    lr_mult: 2
    decay_mult: 0
  }
  convolution_param {
    num_output: 320
    pad: 1
    kernel_size: 3
    weight_filler {
      type: "xavier"
      std: 0.03
    }
    bias_filler {
      type: "constant"
      value: 0.2
    }
  }
}
layer {
  name: "inception_4e/relu_3x3"
  type: "ReLU"
  bottom: "inception_4e/3x3"
  top: "inception_4e/3x3"
}
layer {
  name: "inception_4e/5x5_reduce"
  type: "Convolution"
  bottom: "inception_4d/output"
  top: "inception_4e/5x5_reduce"
  param {
    lr_mult: 1
    decay_mult: 1
  }
  param {
    lr_mult: 2
    decay_mult: 0
  }
  convolution_param {
    num_output: 32
    kernel_size: 1
    weight_filler {
      type: "xavier"
      std: 0.2
    }
    bias_filler {
      type: "constant"
      value: 0.2
    }
  }
}
layer {
  name: "inception_4e/relu_5x5_reduce"
  type: "ReLU"
  bottom: "inception_4e/5x5_reduce"
  top: "inception_4e/5x5_reduce"
}
layer {
  name: "inception_4e/5x5"
  type: "Convolution"
  bottom: "inception_4e/5x5_reduce"
  top: "inception_4e/
I0403 19:46:31.878281 25856 layer_factory.hpp:77] Creating layer data
I0403 19:46:31.878902 25856 net.cpp:91] Creating Layer data
I0403 19:46:31.878939 25856 net.cpp:399] data -> data
I0403 19:46:31.879009 25856 net.cpp:399] data -> label
I0403 19:46:31.879055 25856 data_transformer.cpp:25] Loading mean file from: /home/mohanty/data/final_dataset/lmdb/grayscale-80-20/mean.binaryproto
I0403 19:46:31.880249 25860 db_lmdb.cpp:38] Opened lmdb /home/mohanty/data/final_dataset/lmdb/grayscale-80-20/test_db
I0403 19:46:31.892932 25856 data_layer.cpp:41] output data size: 24,3,224,224
I0403 19:46:31.919358 25856 net.cpp:141] Setting up data
I0403 19:46:31.919455 25856 net.cpp:148] Top shape: 24 3 224 224 (3612672)
I0403 19:46:31.919478 25856 net.cpp:148] Top shape: 24 (24)
I0403 19:46:31.919493 25856 net.cpp:156] Memory required for data: 14450784
I0403 19:46:31.919524 25856 layer_factory.hpp:77] Creating layer label_data_1_split
I0403 19:46:31.919554 25856 net.cpp:91] Creating Layer label_data_1_split
I0403 19:46:31.919574 25856 net.cpp:425] label_data_1_split <- label
I0403 19:46:31.919610 25856 net.cpp:399] label_data_1_split -> label_data_1_split_0
I0403 19:46:31.919642 25856 net.cpp:399] label_data_1_split -> label_data_1_split_1
I0403 19:46:31.919666 25856 net.cpp:399] label_data_1_split -> label_data_1_split_2
I0403 19:46:31.919687 25856 net.cpp:399] label_data_1_split -> label_data_1_split_3
I0403 19:46:31.919708 25856 net.cpp:399] label_data_1_split -> label_data_1_split_4
I0403 19:46:31.919728 25856 net.cpp:399] label_data_1_split -> label_data_1_split_5
I0403 19:46:31.919749 25856 net.cpp:399] label_data_1_split -> label_data_1_split_6
I0403 19:46:31.919770 25856 net.cpp:399] label_data_1_split -> label_data_1_split_7
I0403 19:46:31.919791 25856 net.cpp:399] label_data_1_split -> label_data_1_split_8
I0403 19:46:31.919811 25856 net.cpp:399] label_data_1_split -> label_data_1_split_9
I0403 19:46:31.919920 25856 net.cpp:141] Setting up label_data_1_split
I0403 19:46:31.919945 25856 net.cpp:148] Top shape: 24 (24)
I0403 19:46:31.919961 25856 net.cpp:148] Top shape: 24 (24)
I0403 19:46:31.919977 25856 net.cpp:148] Top shape: 24 (24)
I0403 19:46:31.919992 25856 net.cpp:148] Top shape: 24 (24)
I0403 19:46:31.920007 25856 net.cpp:148] Top shape: 24 (24)
I0403 19:46:31.920022 25856 net.cpp:148] Top shape: 24 (24)
I0403 19:46:31.920035 25856 net.cpp:148] Top shape: 24 (24)
I0403 19:46:31.920049 25856 net.cpp:148] Top shape: 24 (24)
I0403 19:46:31.920065 25856 net.cpp:148] Top shape: 24 (24)
I0403 19:46:31.920083 25856 net.cpp:148] Top shape: 24 (24)
I0403 19:46:31.920135 25856 net.cpp:156] Memory required for data: 14451744
I0403 19:46:31.920152 25856 layer_factory.hpp:77] Creating layer conv1/7x7_s2
I0403 19:46:31.920191 25856 net.cpp:91] Creating Layer conv1/7x7_s2
I0403 19:46:31.920210 25856 net.cpp:425] conv1/7x7_s2 <- data
I0403 19:46:31.920229 25856 net.cpp:399] conv1/7x7_s2 -> conv1/7x7_s2
I0403 19:46:32.064064 25856 net.cpp:141] Setting up conv1/7x7_s2
I0403 19:46:32.064178 25856 net.cpp:148] Top shape: 24 64 112 112 (19267584)
I0403 19:46:32.064198 25856 net.cpp:156] Memory required for data: 91522080
I0403 19:46:32.064239 25856 layer_factory.hpp:77] Creating layer conv1/relu_7x7
I0403 19:46:32.064283 25856 net.cpp:91] Creating Layer conv1/relu_7x7
I0403 19:46:32.064308 25856 net.cpp:425] conv1/relu_7x7 <- conv1/7x7_s2
I0403 19:46:32.064330 25856 net.cpp:386] conv1/relu_7x7 -> conv1/7x7_s2 (in-place)
I0403 19:46:32.064587 25856 net.cpp:141] Setting up conv1/relu_7x7
I0403 19:46:32.064617 25856 net.cpp:148] Top shape: 24 64 112 112 (19267584)
I0403 19:46:32.064633 25856 net.cpp:156] Memory required for data: 168592416
I0403 19:46:32.064651 25856 layer_factory.hpp:77] Creating layer pool1/3x3_s2
I0403 19:46:32.064678 25856 net.cpp:91] Creating Layer pool1/3x3_s2
I0403 19:46:32.064698 25856 net.cpp:425] pool1/3x3_s2 <- conv1/7x7_s2
I0403 19:46:32.064718 25856 net.cpp:399] pool1/3x3_s2 -> pool1/3x3_s2
I0403 19:46:32.064800 25856 net.cpp:141] Setting up pool1/3x3_s2
I0403 19:46:32.064827 25856 net.cpp:148] Top shape: 24 64 56 56 (4816896)
I0403 19:46:32.064843 25856 net.cpp:156] Memory required for data: 187860000
I0403 19:46:32.064858 25856 layer_factory.hpp:77] Creating layer pool1/norm1
I0403 19:46:32.064888 25856 net.cpp:91] Creating Layer pool1/norm1
I0403 19:46:32.064908 25856 net.cpp:425] pool1/norm1 <- pool1/3x3_s2
I0403 19:46:32.064925 25856 net.cpp:399] pool1/norm1 -> pool1/norm1
I0403 19:46:32.065208 25856 net.cpp:141] Setting up pool1/norm1
I0403 19:46:32.065237 25856 net.cpp:148] Top shape: 24 64 56 56 (4816896)
I0403 19:46:32.065258 25856 net.cpp:156] Memory required for data: 207127584
I0403 19:46:32.065279 25856 layer_factory.hpp:77] Creating layer conv2/3x3_reduce
I0403 19:46:32.065310 25856 net.cpp:91] Creating Layer conv2/3x3_reduce
I0403 19:46:32.065330 25856 net.cpp:425] conv2/3x3_reduce <- pool1/norm1
I0403 19:46:32.065349 25856 net.cpp:399] conv2/3x3_reduce -> conv2/3x3_reduce
I0403 19:46:32.066668 25856 net.cpp:141] Setting up conv2/3x3_reduce
I0403 19:46:32.066700 25856 net.cpp:148] Top shape: 24 64 56 56 (4816896)
I0403 19:46:32.066720 25856 net.cpp:156] Memory required for data: 226395168
I0403 19:46:32.066741 25856 layer_factory.hpp:77] Creating layer conv2/relu_3x3_reduce
I0403 19:46:32.066762 25856 net.cpp:91] Creating Layer conv2/relu_3x3_reduce
I0403 19:46:32.066781 25856 net.cpp:425] conv2/relu_3x3_reduce <- conv2/3x3_reduce
I0403 19:46:32.066800 25856 net.cpp:386] conv2/relu_3x3_reduce -> conv2/3x3_reduce (in-place)
I0403 19:46:32.067047 25856 net.cpp:141] Setting up conv2/relu_3x3_reduce
I0403 19:46:32.067076 25856 net.cpp:148] Top shape: 24 64 56 56 (4816896)
I0403 19:46:32.067095 25856 net.cpp:156] Memory required for data: 245662752
I0403 19:46:32.067111 25856 layer_factory.hpp:77] Creating layer conv2/3x3
I0403 19:46:32.067136 25856 net.cpp:91] Creating Layer conv2/3x3
I0403 19:46:32.067155 25856 net.cpp:425] conv2/3x3 <- conv2/3x3_reduce
I0403 19:46:32.067173 25856 net.cpp:399] conv2/3x3 -> conv2/3x3
I0403 19:46:32.069370 25856 net.cpp:141] Setting up conv2/3x3
I0403 19:46:32.069406 25856 net.cpp:148] Top shape: 24 192 56 56 (14450688)
I0403 19:46:32.069424 25856 net.cpp:156] Memory required for data: 303465504
I0403 19:46:32.069447 25856 layer_factory.hpp:77] Creating layer conv2/relu_3x3
I0403 19:46:32.069468 25856 net.cpp:91] Creating Layer conv2/relu_3x3
I0403 19:46:32.069486 25856 net.cpp:425] conv2/relu_3x3 <- conv2/3x3
I0403 19:46:32.069504 25856 net.cpp:386] conv2/relu_3x3 -> conv2/3x3 (in-place)
I0403 19:46:32.069666 25856 net.cpp:141] Setting up conv2/relu_3x3
I0403 19:46:32.069695 25856 net.cpp:148] Top shape: 24 192 56 56 (14450688)
I0403 19:46:32.069746 25856 net.cpp:156] Memory required for data: 361268256
I0403 19:46:32.069763 25856 layer_factory.hpp:77] Creating layer conv2/norm2
I0403 19:46:32.069783 25856 net.cpp:91] Creating Layer conv2/norm2
I0403 19:46:32.069800 25856 net.cpp:425] conv2/norm2 <- conv2/3x3
I0403 19:46:32.069821 25856 net.cpp:399] conv2/norm2 -> conv2/norm2
I0403 19:46:32.070102 25856 net.cpp:141] Setting up conv2/norm2
I0403 19:46:32.070132 25856 net.cpp:148] Top shape: 24 192 56 56 (14450688)
I0403 19:46:32.070150 25856 net.cpp:156] Memory required for data: 419071008
I0403 19:46:32.070166 25856 layer_factory.hpp:77] Creating layer pool2/3x3_s2
I0403 19:46:32.070188 25856 net.cpp:91] Creating Layer pool2/3x3_s2
I0403 19:46:32.070202 25856 net.cpp:425] pool2/3x3_s2 <- conv2/norm2
I0403 19:46:32.070221 25856 net.cpp:399] pool2/3x3_s2 -> pool2/3x3_s2
I0403 19:46:32.070276 25856 net.cpp:141] Setting up pool2/3x3_s2
I0403 19:46:32.070303 25856 net.cpp:148] Top shape: 24 192 28 28 (3612672)
I0403 19:46:32.070320 25856 net.cpp:156] Memory required for data: 433521696
I0403 19:46:32.070336 25856 layer_factory.hpp:77] Creating layer pool2/3x3_s2_pool2/3x3_s2_0_split
I0403 19:46:32.070354 25856 net.cpp:91] Creating Layer pool2/3x3_s2_pool2/3x3_s2_0_split
I0403 19:46:32.070372 25856 net.cpp:425] pool2/3x3_s2_pool2/3x3_s2_0_split <- pool2/3x3_s2
I0403 19:46:32.070390 25856 net.cpp:399] pool2/3x3_s2_pool2/3x3_s2_0_split -> pool2/3x3_s2_pool2/3x3_s2_0_split_0
I0403 19:46:32.070410 25856 net.cpp:399] pool2/3x3_s2_pool2/3x3_s2_0_split -> pool2/3x3_s2_pool2/3x3_s2_0_split_1
I0403 19:46:32.070431 25856 net.cpp:399] pool2/3x3_s2_pool2/3x3_s2_0_split -> pool2/3x3_s2_pool2/3x3_s2_0_split_2
I0403 19:46:32.070453 25856 net.cpp:399] pool2/3x3_s2_pool2/3x3_s2_0_split -> pool2/3x3_s2_pool2/3x3_s2_0_split_3
I0403 19:46:32.070519 25856 net.cpp:141] Setting up pool2/3x3_s2_pool2/3x3_s2_0_split
I0403 19:46:32.070547 25856 net.cpp:148] Top shape: 24 192 28 28 (3612672)
I0403 19:46:32.070565 25856 net.cpp:148] Top shape: 24 192 28 28 (3612672)
I0403 19:46:32.070583 25856 net.cpp:148] Top shape: 24 192 28 28 (3612672)
I0403 19:46:32.070598 25856 net.cpp:148] Top shape: 24 192 28 28 (3612672)
I0403 19:46:32.070614 25856 net.cpp:156] Memory required for data: 491324448
I0403 19:46:32.070631 25856 layer_factory.hpp:77] Creating layer inception_3a/1x1
I0403 19:46:32.070650 25856 net.cpp:91] Creating Layer inception_3a/1x1
I0403 19:46:32.070669 25856 net.cpp:425] inception_3a/1x1 <- pool2/3x3_s2_pool2/3x3_s2_0_split_0
I0403 19:46:32.070690 25856 net.cpp:399] inception_3a/1x1 -> inception_3a/1x1
I0403 19:46:32.072154 25856 net.cpp:141] Setting up inception_3a/1x1
I0403 19:46:32.072185 25856 net.cpp:148] Top shape: 24 64 28 28 (1204224)
I0403 19:46:32.072204 25856 net.cpp:156] Memory required for data: 496141344
I0403 19:46:32.072227 25856 layer_factory.hpp:77] Creating layer inception_3a/relu_1x1
I0403 19:46:32.072247 25856 net.cpp:91] Creating Layer inception_3a/relu_1x1
I0403 19:46:32.072273 25856 net.cpp:425] inception_3a/relu_1x1 <- inception_3a/1x1
I0403 19:46:32.072293 25856 net.cpp:386] inception_3a/relu_1x1 -> inception_3a/1x1 (in-place)
I0403 19:46:32.072451 25856 net.cpp:141] Setting up inception_3a/relu_1x1
I0403 19:46:32.072479 25856 net.cpp:148] Top shape: 24 64 28 28 (1204224)
I0403 19:46:32.072496 25856 net.cpp:156] Memory required for data: 500958240
I0403 19:46:32.072513 25856 layer_factory.hpp:77] Creating layer inception_3a/3x3_reduce
I0403 19:46:32.072538 25856 net.cpp:91] Creating Layer inception_3a/3x3_reduce
I0403 19:46:32.072557 25856 net.cpp:425] inception_3a/3x3_reduce <- pool2/3x3_s2_pool2/3x3_s2_0_split_1
I0403 19:46:32.072578 25856 net.cpp:399] inception_3a/3x3_reduce -> inception_3a/3x3_reduce
I0403 19:46:32.074244 25856 net.cpp:141] Setting up inception_3a/3x3_reduce
I0403 19:46:32.074291 25856 net.cpp:148] Top shape: 24 96 28 28 (1806336)
I0403 19:46:32.074311 25856 net.cpp:156] Memory required for data: 508183584
I0403 19:46:32.074336 25856 layer_factory.hpp:77] Creating layer inception_3a/relu_3x3_reduce
I0403 19:46:32.074373 25856 net.cpp:91] Creating Layer inception_3a/relu_3x3_reduce
I0403 19:46:32.074394 25856 net.cpp:425] inception_3a/relu_3x3_reduce <- inception_3a/3x3_reduce
I0403 19:46:32.074416 25856 net.cpp:386] inception_3a/relu_3x3_reduce -> inception_3a/3x3_reduce (in-place)
I0403 19:46:32.074599 25856 net.cpp:141] Setting up inception_3a/relu_3x3_reduce
I0403 19:46:32.074630 25856 net.cpp:148] Top shape: 24 96 28 28 (1806336)
I0403 19:46:32.074659 25856 net.cpp:156] Memory required for data: 515408928
I0403 19:46:32.074676 25856 layer_factory.hpp:77] Creating layer inception_3a/3x3
I0403 19:46:32.074697 25856 net.cpp:91] Creating Layer inception_3a/3x3
I0403 19:46:32.074714 25856 net.cpp:425] inception_3a/3x3 <- inception_3a/3x3_reduce
I0403 19:46:32.074736 25856 net.cpp:399] inception_3a/3x3 -> inception_3a/3x3
I0403 19:46:32.076376 25856 net.cpp:141] Setting up inception_3a/3x3
I0403 19:46:32.076411 25856 net.cpp:148] Top shape: 24 128 28 28 (2408448)
I0403 19:46:32.076431 25856 net.cpp:156] Memory required for data: 525042720
I0403 19:46:32.076450 25856 layer_factory.hpp:77] Creating layer inception_3a/relu_3x3
I0403 19:46:32.076470 25856 net.cpp:91] Creating Layer inception_3a/relu_3x3
I0403 19:46:32.076488 25856 net.cpp:425] inception_3a/relu_3x3 <- inception_3a/3x3
I0403 19:46:32.076508 25856 net.cpp:386] inception_3a/relu_3x3 -> inception_3a/3x3 (in-place)
I0403 19:46:32.076781 25856 net.cpp:141] Setting up inception_3a/relu_3x3
I0403 19:46:32.076813 25856 net.cpp:148] Top shape: 24 128 28 28 (2408448)
I0403 19:46:32.076833 25856 net.cpp:156] Memory required for data: 534676512
I0403 19:46:32.076848 25856 layer_factory.hpp:77] Creating layer inception_3a/5x5_reduce
I0403 19:46:32.076870 25856 net.cpp:91] Creating Layer inception_3a/5x5_reduce
I0403 19:46:32.076890 25856 net.cpp:425] inception_3a/5x5_reduce <- pool2/3x3_s2_pool2/3x3_s2_0_split_2
I0403 19:46:32.076913 25856 net.cpp:399] inception_3a/5x5_reduce -> inception_3a/5x5_reduce
I0403 19:46:32.077857 25856 net.cpp:141] Setting up inception_3a/5x5_reduce
I0403 19:46:32.077888 25856 net.cpp:148] Top shape: 24 16 28 28 (301056)
I0403 19:46:32.077906 25856 net.cpp:156] Memory required for data: 535880736
I0403 19:46:32.077924 25856 layer_factory.hpp:77] Creating layer inception_3a/relu_5x5_reduce
I0403 19:46:32.077945 25856 net.cpp:91] Creating Layer inception_3a/relu_5x5_reduce
I0403 19:46:32.077965 25856 net.cpp:425] inception_3a/relu_5x5_reduce <- inception_3a/5x5_reduce
I0403 19:46:32.077983 25856 net.cpp:386] inception_3a/relu_5x5_reduce -> inception_3a/5x5_reduce (in-place)
I0403 19:46:32.078260 25856 net.cpp:141] Setting up inception_3a/relu_5x5_reduce
I0403 19:46:32.078289 25856 net.cpp:148] Top shape: 24 16 28 28 (301056)
I0403 19:46:32.078306 25856 net.cpp:156] Memory required for data: 537084960
I0403 19:46:32.078322 25856 layer_factory.hpp:77] Creating layer inception_3a/5x5
I0403 19:46:32.078346 25856 net.cpp:91] Creating Layer inception_3a/5x5
I0403 19:46:32.078366 25856 net.cpp:425] inception_3a/5x5 <- inception_3a/5x5_reduce
I0403 19:46:32.078390 25856 net.cpp:399] inception_3a/5x5 -> inception_3a/5x5
I0403 19:46:32.079385 25856 net.cpp:141] Setting up inception_3a/5x5
I0403 19:46:32.079418 25856 net.cpp:148] Top shape: 24 32 28 28 (602112)
I0403 19:46:32.079437 25856 net.cpp:156] Memory required for data: 539493408
I0403 19:46:32.079457 25856 layer_factory.hpp:77] Creating layer inception_3a/relu_5x5
I0403 19:46:32.079476 25856 net.cpp:91] Creating Layer inception_3a/relu_5x5
I0403 19:46:32.079494 25856 net.cpp:425] inception_3a/relu_5x5 <- inception_3a/5x5
I0403 19:46:32.079517 25856 net.cpp:386] inception_3a/relu_5x5 -> inception_3a/5x5 (in-place)
I0403 19:46:32.079691 25856 net.cpp:141] Setting up inception_3a/relu_5x5
I0403 19:46:32.079720 25856 net.cpp:148] Top shape: 24 32 28 28 (602112)
I0403 19:46:32.079735 25856 net.cpp:156] Memory required for data: 541901856
I0403 19:46:32.079751 25856 layer_factory.hpp:77] Creating layer inception_3a/pool
I0403 19:46:32.079771 25856 net.cpp:91] Creating Layer inception_3a/pool
I0403 19:46:32.079805 25856 net.cpp:425] inception_3a/pool <- pool2/3x3_s2_pool2/3x3_s2_0_split_3
I0403 19:46:32.079829 25856 net.cpp:399] inception_3a/pool -> inception_3a/pool
I0403 19:46:32.079890 25856 net.cpp:141] Setting up inception_3a/pool
I0403 19:46:32.079916 25856 net.cpp:148] Top shape: 24 192 28 28 (3612672)
I0403 19:46:32.079932 25856 net.cpp:156] Memory required for data: 556352544
I0403 19:46:32.079947 25856 layer_factory.hpp:77] Creating layer inception_3a/pool_proj
I0403 19:46:32.079973 25856 net.cpp:91] Creating Layer inception_3a/pool_proj
I0403 19:46:32.079991 25856 net.cpp:425] inception_3a/pool_proj <- inception_3a/pool
I0403 19:46:32.080010 25856 net.cpp:399] inception_3a/pool_proj -> inception_3a/pool_proj
I0403 19:46:32.080963 25856 net.cpp:141] Setting up inception_3a/pool_proj
I0403 19:46:32.080993 25856 net.cpp:148] Top shape: 24 32 28 28 (602112)
I0403 19:46:32.081009 25856 net.cpp:156] Memory required for data: 558760992
I0403 19:46:32.081034 25856 layer_factory.hpp:77] Creating layer inception_3a/relu_pool_proj
I0403 19:46:32.081058 25856 net.cpp:91] Creating Layer inception_3a/relu_pool_proj
I0403 19:46:32.081076 25856 net.cpp:425] inception_3a/relu_pool_proj <- inception_3a/pool_proj
I0403 19:46:32.081094 25856 net.cpp:386] inception_3a/relu_pool_proj -> inception_3a/pool_proj (in-place)
I0403 19:46:32.081369 25856 net.cpp:141] Setting up inception_3a/relu_pool_proj
I0403 19:46:32.081399 25856 net.cpp:148] Top shape: 24 32 28 28 (602112)
I0403 19:46:32.081418 25856 net.cpp:156] Memory required for data: 561169440
I0403 19:46:32.081435 25856 layer_factory.hpp:77] Creating layer inception_3a/output
I0403 19:46:32.081455 25856 net.cpp:91] Creating Layer inception_3a/output
I0403 19:46:32.081472 25856 net.cpp:425] inception_3a/output <- inception_3a/1x1
I0403 19:46:32.081490 25856 net.cpp:425] inception_3a/output <- inception_3a/3x3
I0403 19:46:32.081507 25856 net.cpp:425] inception_3a/output <- inception_3a/5x5
I0403 19:46:32.081524 25856 net.cpp:425] inception_3a/output <- inception_3a/pool_proj
I0403 19:46:32.081547 25856 net.cpp:399] inception_3a/output -> inception_3a/output
I0403 19:46:32.081595 25856 net.cpp:141] Setting up inception_3a/output
I0403 19:46:32.081622 25856 net.cpp:148] Top shape: 24 256 28 28 (4816896)
I0403 19:46:32.081639 25856 net.cpp:156] Memory required for data: 580437024
I0403 19:46:32.081653 25856 layer_factory.hpp:77] Creating layer inception_3a/output_inception_3a/output_0_split
I0403 19:46:32.081675 25856 net.cpp:91] Creating Layer inception_3a/output_inception_3a/output_0_split
I0403 19:46:32.081694 25856 net.cpp:425] inception_3a/output_inception_3a/output_0_split <- inception_3a/output
I0403 19:46:32.081713 25856 net.cpp:399] inception_3a/output_inception_3a/output_0_split -> inception_3a/output_inception_3a/output_0_split_0
I0403 19:46:32.081740 25856 net.cpp:399] inception_3a/output_inception_3a/output_0_split -> inception_3a/output_inception_3a/output_0_split_1
I0403 19:46:32.081766 25856 net.cpp:399] inception_3a/output_inception_3a/output_0_split -> inception_3a/output_inception_3a/output_0_split_2
I0403 19:46:32.081790 25856 net.cpp:399] inception_3a/output_inception_3a/output_0_split -> inception_3a/output_inception_3a/output_0_split_3
I0403 19:46:32.081863 25856 net.cpp:141] Setting up inception_3a/output_inception_3a/output_0_split
I0403 19:46:32.081890 25856 net.cpp:148] Top shape: 24 256 28 28 (4816896)
I0403 19:46:32.081909 25856 net.cpp:148] Top shape: 24 256 28 28 (4816896)
I0403 19:46:32.081926 25856 net.cpp:148] Top shape: 24 256 28 28 (4816896)
I0403 19:46:32.081940 25856 net.cpp:148] Top shape: 24 256 28 28 (4816896)
I0403 19:46:32.081954 25856 net.cpp:156] Memory required for data: 657507360
I0403 19:46:32.081969 25856 layer_factory.hpp:77] Creating layer inception_3b/1x1
I0403 19:46:32.081992 25856 net.cpp:91] Creating Layer inception_3b/1x1
I0403 19:46:32.082010 25856 net.cpp:425] inception_3b/1x1 <- inception_3a/output_inception_3a/output_0_split_0
I0403 19:46:32.082031 25856 net.cpp:399] inception_3b/1x1 -> inception_3b/1x1
I0403 19:46:32.083151 25856 net.cpp:141] Setting up inception_3b/1x1
I0403 19:46:32.083195 25856 net.cpp:148] Top shape: 24 128 28 28 (2408448)
I0403 19:46:32.083215 25856 net.cpp:156] Memory required for data: 667141152
I0403 19:46:32.083235 25856 layer_factory.hpp:77] Creating layer inception_3b/relu_1x1
I0403 19:46:32.083252 25856 net.cpp:91] Creating Layer inception_3b/relu_1x1
I0403 19:46:32.083276 25856 net.cpp:425] inception_3b/relu_1x1 <- inception_3b/1x1
I0403 19:46:32.083293 25856 net.cpp:386] inception_3b/relu_1x1 -> inception_3b/1x1 (in-place)
I0403 19:46:32.083469 25856 net.cpp:141] Setting up inception_3b/relu_1x1
I0403 19:46:32.083497 25856 net.cpp:148] Top shape: 24 128 28 28 (2408448)
I0403 19:46:32.083511 25856 net.cpp:156] Memory required for data: 676774944
I0403 19:46:32.083528 25856 layer_factory.hpp:77] Creating layer inception_3b/3x3_reduce
I0403 19:46:32.083552 25856 net.cpp:91] Creating Layer inception_3b/3x3_reduce
I0403 19:46:32.083571 25856 net.cpp:425] inception_3b/3x3_reduce <- inception_3a/output_inception_3a/output_0_split_1
I0403 19:46:32.083593 25856 net.cpp:399] inception_3b/3x3_reduce -> inception_3b/3x3_reduce
I0403 19:46:32.084718 25856 net.cpp:141] Setting up inception_3b/3x3_reduce
I0403 19:46:32.084750 25856 net.cpp:148] Top shape: 24 128 28 28 (2408448)
I0403 19:46:32.084767 25856 net.cpp:156] Memory required for data: 686408736
I0403 19:46:32.084787 25856 layer_factory.hpp:77] Creating layer inception_3b/relu_3x3_reduce
I0403 19:46:32.084810 25856 net.cpp:91] Creating Layer inception_3b/relu_3x3_reduce
I0403 19:46:32.084828 25856 net.cpp:425] inception_3b/relu_3x3_reduce <- inception_3b/3x3_reduce
I0403 19:46:32.084847 25856 net.cpp:386] inception_3b/relu_3x3_reduce -> inception_3b/3x3_reduce (in-place)
I0403 19:46:32.085023 25856 net.cpp:141] Setting up inception_3b/relu_3x3_reduce
I0403 19:46:32.085049 25856 net.cpp:148] Top shape: 24 128 28 28 (2408448)
I0403 19:46:32.085067 25856 net.cpp:156] Memory required for data: 696042528
I0403 19:46:32.085083 25856 layer_factory.hpp:77] Creating layer inception_3b/3x3
I0403 19:46:32.085110 25856 net.cpp:91] Creating Layer inception_3b/3x3
I0403 19:46:32.085131 25856 net.cpp:425] inception_3b/3x3 <- inception_3b/3x3_reduce
I0403 19:46:32.085150 25856 net.cpp:399] inception_3b/3x3 -> inception_3b/3x3
I0403 19:46:32.088017 25856 net.cpp:141] Setting up inception_3b/3x3
I0403 19:46:32.088052 25856 net.cpp:148] Top shape: 24 192 28 28 (3612672)
I0403 19:46:32.088073 25856 net.cpp:156] Memory required for data: 710493216
I0403 19:46:32.088091 25856 layer_factory.hpp:77] Creating layer inception_3b/relu_3x3
I0403 19:46:32.088110 25856 net.cpp:91] Creating Layer inception_3b/relu_3x3
I0403 19:46:32.088129 25856 net.cpp:425] inception_3b/relu_3x3 <- inception_3b/3x3
I0403 19:46:32.088148 25856 net.cpp:386] inception_3b/relu_3x3 -> inception_3b/3x3 (in-place)
I0403 19:46:32.088449 25856 net.cpp:141] Setting up inception_3b/relu_3x3
I0403 19:46:32.088480 25856 net.cpp:148] Top shape: 24 192 28 28 (3612672)
I0403 19:46:32.088500 25856 net.cpp:156] Memory required for data: 724943904
I0403 19:46:32.088516 25856 layer_factory.hpp:77] Creating layer inception_3b/5x5_reduce
I0403 19:46:32.088541 25856 net.cpp:91] Creating Layer inception_3b/5x5_reduce
I0403 19:46:32.088572 25856 net.cpp:425] inception_3b/5x5_reduce <- inception_3a/output_inception_3a/output_0_split_2
I0403 19:46:32.088594 25856 net.cpp:399] inception_3b/5x5_reduce -> inception_3b/5x5_reduce
I0403 19:46:32.089578 25856 net.cpp:141] Setting up inception_3b/5x5_reduce
I0403 19:46:32.089612 25856 net.cpp:148] Top shape: 24 32 28 28 (602112)
I0403 19:46:32.089632 25856 net.cpp:156] Memory required for data: 727352352
I0403 19:46:32.089651 25856 layer_factory.hpp:77] Creating layer inception_3b/relu_5x5_reduce
I0403 19:46:32.089670 25856 net.cpp:91] Creating Layer inception_3b/relu_5x5_reduce
I0403 19:46:32.089689 25856 net.cpp:425] inception_3b/relu_5x5_reduce <- inception_3b/5x5_reduce
I0403 19:46:32.089709 25856 net.cpp:386] inception_3b/relu_5x5_reduce -> inception_3b/5x5_reduce (in-place)
I0403 19:46:32.089900 25856 net.cpp:141] Setting up inception_3b/relu_5x5_reduce
I0403 19:46:32.089927 25856 net.cpp:148] Top shape: 24 32 28 28 (602112)
I0403 19:46:32.089944 25856 net.cpp:156] Memory required for data: 729760800
I0403 19:46:32.089961 25856 layer_factory.hpp:77] Creating layer inception_3b/5x5
I0403 19:46:32.089983 25856 net.cpp:91] Creating Layer inception_3b/5x5
I0403 19:46:32.090004 25856 net.cpp:425] inception_3b/5x5 <- inception_3b/5x5_reduce
I0403 19:46:32.090026 25856 net.cpp:399] inception_3b/5x5 -> inception_3b/5x5
I0403 19:46:32.091970 25856 net.cpp:141] Setting up inception_3b/5x5
I0403 19:46:32.092005 25856 net.cpp:148] Top shape: 24 96 28 28 (1806336)
I0403 19:46:32.092021 25856 net.cpp:156] Memory required for data: 736986144
I0403 19:46:32.092041 25856 layer_factory.hpp:77] Creating layer inception_3b/relu_5x5
I0403 19:46:32.092063 25856 net.cpp:91] Creating Layer inception_3b/relu_5x5
I0403 19:46:32.092082 25856 net.cpp:425] inception_3b/relu_5x5 <- inception_3b/5x5
I0403 19:46:32.092099 25856 net.cpp:386] inception_3b/relu_5x5 -> inception_3b/5x5 (in-place)
I0403 19:46:32.092296 25856 net.cpp:141] Setting up inception_3b/relu_5x5
I0403 19:46:32.092324 25856 net.cpp:148] Top shape: 24 96 28 28 (1806336)
I0403 19:46:32.092339 25856 net.cpp:156] Memory required for data: 744211488
I0403 19:46:32.092355 25856 layer_factory.hpp:77] Creating layer inception_3b/pool
I0403 19:46:32.092375 25856 net.cpp:91] Creating Layer inception_3b/pool
I0403 19:46:32.092391 25856 net.cpp:425] inception_3b/pool <- inception_3a/output_inception_3a/output_0_split_3
I0403 19:46:32.092409 25856 net.cpp:399] inception_3b/pool -> inception_3b/pool
I0403 19:46:32.092465 25856 net.cpp:141] Setting up inception_3b/pool
I0403 19:46:32.092491 25856 net.cpp:148] Top shape: 24 256 28 28 (4816896)
I0403 19:46:32.092509 25856 net.cpp:156] Memory required for data: 763479072
I0403 19:46:32.092524 25856 layer_factory.hpp:77] Creating layer inception_3b/pool_proj
I0403 19:46:32.092550 25856 net.cpp:91] Creating Layer inception_3b/pool_proj
I0403 19:46:32.092569 25856 net.cpp:425] inception_3b/pool_proj <- inception_3b/pool
I0403 19:46:32.092591 25856 net.cpp:399] inception_3b/pool_proj -> inception_3b/pool_proj
I0403 19:46:32.093636 25856 net.cpp:141] Setting up inception_3b/pool_proj
I0403 19:46:32.093667 25856 net.cpp:148] Top shape: 24 64 28 28 (1204224)
I0403 19:46:32.093684 25856 net.cpp:156] Memory required for data: 768295968
I0403 19:46:32.093704 25856 layer_factory.hpp:77] Creating layer inception_3b/relu_pool_proj
I0403 19:46:32.093727 25856 net.cpp:91] Creating Layer inception_3b/relu_pool_proj
I0403 19:46:32.093746 25856 net.cpp:425] inception_3b/relu_pool_proj <- inception_3b/pool_proj
I0403 19:46:32.093765 25856 net.cpp:386] inception_3b/relu_pool_proj -> inception_3b/pool_proj (in-place)
I0403 19:46:32.094135 25856 net.cpp:141] Setting up inception_3b/relu_pool_proj
I0403 19:46:32.094163 25856 net.cpp:148] Top shape: 24 64 28 28 (1204224)
I0403 19:46:32.094182 25856 net.cpp:156] Memory required for data: 773112864
I0403 19:46:32.094197 25856 layer_factory.hpp:77] Creating layer inception_3b/output
I0403 19:46:32.094215 25856 net.cpp:91] Creating Layer inception_3b/output
I0403 19:46:32.094233 25856 net.cpp:425] inception_3b/output <- inception_3b/1x1
I0403 19:46:32.094251 25856 net.cpp:425] inception_3b/output <- inception_3b/3x3
I0403 19:46:32.094283 25856 net.cpp:425] inception_3b/output <- inception_3b/5x5
I0403 19:46:32.094302 25856 net.cpp:425] inception_3b/output <- inception_3b/pool_proj
I0403 19:46:32.094324 25856 net.cpp:399] inception_3b/output -> inception_3b/output
I0403 19:46:32.094372 25856 net.cpp:141] Setting up inception_3b/output
I0403 19:46:32.094399 25856 net.cpp:148] Top shape: 24 480 28 28 (9031680)
I0403 19:46:32.094418 25856 net.cpp:156] Memory required for data: 809239584
I0403 19:46:32.094434 25856 layer_factory.hpp:77] Creating layer pool3/3x3_s2
I0403 19:46:32.094452 25856 net.cpp:91] Creating Layer pool3/3x3_s2
I0403 19:46:32.094467 25856 net.cpp:425] pool3/3x3_s2 <- inception_3b/output
I0403 19:46:32.094503 25856 net.cpp:399] pool3/3x3_s2 -> pool3/3x3_s2
I0403 19:46:32.094565 25856 net.cpp:141] Setting up pool3/3x3_s2
I0403 19:46:32.094591 25856 net.cpp:148] Top shape: 24 480 14 14 (2257920)
I0403 19:46:32.094607 25856 net.cpp:156] Memory required for data: 818271264
I0403 19:46:32.094624 25856 layer_factory.hpp:77] Creating layer pool3/3x3_s2_pool3/3x3_s2_0_split
I0403 19:46:32.094645 25856 net.cpp:91] Creating Layer pool3/3x3_s2_pool3/3x3_s2_0_split
I0403 19:46:32.094662 25856 net.cpp:425] pool3/3x3_s2_pool3/3x3_s2_0_split <- pool3/3x3_s2
I0403 19:46:32.094681 25856 net.cpp:399] pool3/3x3_s2_pool3/3x3_s2_0_split -> pool3/3x3_s2_pool3/3x3_s2_0_split_0
I0403 19:46:32.094701 25856 net.cpp:399] pool3/3x3_s2_pool3/3x3_s2_0_split -> pool3/3x3_s2_pool3/3x3_s2_0_split_1
I0403 19:46:32.094722 25856 net.cpp:399] pool3/3x3_s2_pool3/3x3_s2_0_split -> pool3/3x3_s2_pool3/3x3_s2_0_split_2
I0403 19:46:32.094744 25856 net.cpp:399] pool3/3x3_s2_pool3/3x3_s2_0_split -> pool3/3x3_s2_pool3/3x3_s2_0_split_3
I0403 19:46:32.094825 25856 net.cpp:141] Setting up pool3/3x3_s2_pool3/3x3_s2_0_split
I0403 19:46:32.094851 25856 net.cpp:148] Top shape: 24 480 14 14 (2257920)
I0403 19:46:32.094867 25856 net.cpp:148] Top shape: 24 480 14 14 (2257920)
I0403 19:46:32.094882 25856 net.cpp:148] Top shape: 24 480 14 14 (2257920)
I0403 19:46:32.094897 25856 net.cpp:148] Top shape: 24 480 14 14 (2257920)
I0403 19:46:32.094913 25856 net.cpp:156] Memory required for data: 854397984
I0403 19:46:32.094928 25856 layer_factory.hpp:77] Creating layer inception_4a/1x1
I0403 19:46:32.094951 25856 net.cpp:91] Creating Layer inception_4a/1x1
I0403 19:46:32.094970 25856 net.cpp:425] inception_4a/1x1 <- pool3/3x3_s2_pool3/3x3_s2_0_split_0
I0403 19:46:32.094992 25856 net.cpp:399] inception_4a/1x1 -> inception_4a/1x1
I0403 19:46:32.096560 25856 net.cpp:141] Setting up inception_4a/1x1
I0403 19:46:32.096593 25856 net.cpp:148] Top shape: 24 192 14 14 (903168)
I0403 19:46:32.096612 25856 net.cpp:156] Memory required for data: 858010656
I0403 19:46:32.096632 25856 layer_factory.hpp:77] Creating layer inception_4a/relu_1x1
I0403 19:46:32.096653 25856 net.cpp:91] Creating Layer inception_4a/relu_1x1
I0403 19:46:32.096673 25856 net.cpp:425] inception_4a/relu_1x1 <- inception_4a/1x1
I0403 19:46:32.096693 25856 net.cpp:386] inception_4a/relu_1x1 -> inception_4a/1x1 (in-place)
I0403 19:46:32.096871 25856 net.cpp:141] Setting up inception_4a/relu_1x1
I0403 19:46:32.096906 25856 net.cpp:148] Top shape: 24 192 14 14 (903168)
I0403 19:46:32.096925 25856 net.cpp:156] Memory required for data: 861623328
I0403 19:46:32.096940 25856 layer_factory.hpp:77] Creating layer inception_4a/3x3_reduce
I0403 19:46:32.096966 25856 net.cpp:91] Creating Layer inception_4a/3x3_reduce
I0403 19:46:32.096985 25856 net.cpp:425] inception_4a/3x3_reduce <- pool3/3x3_s2_pool3/3x3_s2_0_split_1
I0403 19:46:32.097007 25856 net.cpp:399] inception_4a/3x3_reduce -> inception_4a/3x3_reduce
I0403 19:46:32.098275 25856 net.cpp:141] Setting up inception_4a/3x3_reduce
I0403 19:46:32.098309 25856 net.cpp:148] Top shape: 24 96 14 14 (451584)
I0403 19:46:32.098327 25856 net.cpp:156] Memory required for data: 863429664
I0403 19:46:32.098353 25856 layer_factory.hpp:77] Creating layer inception_4a/relu_3x3_reduce
I0403 19:46:32.098376 25856 net.cpp:91] Creating Layer inception_4a/relu_3x3_reduce
I0403 19:46:32.098394 25856 net.cpp:425] inception_4a/relu_3x3_reduce <- inception_4a/3x3_reduce
I0403 19:46:32.098417 25856 net.cpp:386] inception_4a/relu_3x3_reduce -> inception_4a/3x3_reduce (in-place)
I0403 19:46:32.098593 25856 net.cpp:141] Setting up inception_4a/relu_3x3_reduce
I0403 19:46:32.098628 25856 net.cpp:148] Top shape: 24 96 14 14 (451584)
I0403 19:46:32.098646 25856 net.cpp:156] Memory required for data: 865236000
I0403 19:46:32.098662 25856 layer_factory.hpp:77] Creating layer inception_4a/3x3
I0403 19:46:32.098683 25856 net.cpp:91] Creating Layer inception_4a/3x3
I0403 19:46:32.098702 25856 net.cpp:425] inception_4a/3x3 <- inception_4a/3x3_reduce
I0403 19:46:32.098726 25856 net.cpp:399] inception_4a/3x3 -> inception_4a/3x3
I0403 19:46:32.101413 25856 net.cpp:141] Setting up inception_4a/3x3
I0403 19:46:32.101452 25856 net.cpp:148] Top shape: 24 208 14 14 (978432)
I0403 19:46:32.101474 25856 net.cpp:156] Memory required for data: 869149728
I0403 19:46:32.101493 25856 layer_factory.hpp:77] Creating layer inception_4a/relu_3x3
I0403 19:46:32.101513 25856 net.cpp:91] Creating Layer inception_4a/relu_3x3
I0403 19:46:32.101533 25856 net.cpp:425] inception_4a/relu_3x3 <- inception_4a/3x3
I0403 19:46:32.101554 25856 net.cpp:386] inception_4a/relu_3x3 -> inception_4a/3x3 (in-place)
I0403 19:46:32.101830 25856 net.cpp:141] Setting up inception_4a/relu_3x3
I0403 19:46:32.101863 25856 net.cpp:148] Top shape: 24 208 14 14 (978432)
I0403 19:46:32.101882 25856 net.cpp:156] Memory required for data: 873063456
I0403 19:46:32.101897 25856 layer_factory.hpp:77] Creating layer inception_4a/5x5_reduce
I0403 19:46:32.101922 25856 net.cpp:91] Creating Layer inception_4a/5x5_reduce
I0403 19:46:32.101941 25856 net.cpp:425] inception_4a/5x5_reduce <- pool3/3x3_s2_pool3/3x3_s2_0_split_2
I0403 19:46:32.101961 25856 net.cpp:399] inception_4a/5x5_reduce -> inception_4a/5x5_reduce
I0403 19:46:32.102979 25856 net.cpp:141] Setting up inception_4a/5x5_reduce
I0403 19:46:32.103014 25856 net.cpp:148] Top shape: 24 16 14 14 (75264)
I0403 19:46:32.103032 25856 net.cpp:156] Memory required for data: 873364512
I0403 19:46:32.103052 25856 layer_factory.hpp:77] Creating layer inception_4a/relu_5x5_reduce
I0403 19:46:32.103071 25856 net.cpp:91] Creating Layer inception_4a/relu_5x5_reduce
I0403 19:46:32.103091 25856 net.cpp:425] inception_4a/relu_5x5_reduce <- inception_4a/5x5_reduce
I0403 19:46:32.103114 25856 net.cpp:386] inception_4a/relu_5x5_reduce -> inception_4a/5x5_reduce (in-place)
I0403 19:46:32.103302 25856 net.cpp:141] Setting up inception_4a/relu_5x5_reduce
I0403 19:46:32.103332 25856 net.cpp:148] Top shape: 24 16 14 14 (75264)
I0403 19:46:32.103349 25856 net.cpp:156] Memory required for data: 873665568
I0403 19:46:32.103365 25856 layer_factory.hpp:77] Creating layer inception_4a/5x5
I0403 19:46:32.103389 25856 net.cpp:91] Creating Layer inception_4a/5x5
I0403 19:46:32.103410 25856 net.cpp:425] inception_4a/5x5 <- inception_4a/5x5_reduce
I0403 19:46:32.103433 25856 net.cpp:399] inception_4a/5x5 -> inception_4a/5x5
I0403 19:46:32.104540 25856 net.cpp:141] Setting up inception_4a/5x5
I0403 19:46:32.104573 25856 net.cpp:148] Top shape: 24 48 14 14 (225792)
I0403 19:46:32.104590 25856 net.cpp:156] Memory required for data: 874568736
I0403 19:46:32.104609 25856 layer_factory.hpp:77] Creating layer inception_4a/relu_5x5
I0403 19:46:32.104632 25856 net.cpp:91] Creating Layer inception_4a/relu_5x5
I0403 19:46:32.104655 25856 net.cpp:425] inception_4a/relu_5x5 <- inception_4a/5x5
I0403 19:46:32.104674 25856 net.cpp:386] inception_4a/relu_5x5 -> inception_4a/5x5 (in-place)
I0403 19:46:32.104856 25856 net.cpp:141] Setting up inception_4a/relu_5x5
I0403 19:46:32.104887 25856 net.cpp:148] Top shape: 24 48 14 14 (225792)
I0403 19:46:32.104902 25856 net.cpp:156] Memory required for data: 875471904
I0403 19:46:32.104919 25856 layer_factory.hpp:77] Creating layer inception_4a/pool
I0403 19:46:32.104943 25856 net.cpp:91] Creating Layer inception_4a/pool
I0403 19:46:32.104964 25856 net.cpp:425] inception_4a/pool <- pool3/3x3_s2_pool3/3x3_s2_0_split_3
I0403 19:46:32.104984 25856 net.cpp:399] inception_4a/pool -> inception_4a/pool
I0403 19:46:32.105048 25856 net.cpp:141] Setting up inception_4a/pool
I0403 19:46:32.105075 25856 net.cpp:148] Top shape: 24 480 14 14 (2257920)
I0403 19:46:32.105092 25856 net.cpp:156] Memory required for data: 884503584
I0403 19:46:32.105108 25856 layer_factory.hpp:77] Creating layer inception_4a/pool_proj
I0403 19:46:32.105132 25856 net.cpp:91] Creating Layer inception_4a/pool_proj
I0403 19:46:32.105152 25856 net.cpp:425] inception_4a/pool_proj <- inception_4a/pool
I0403 19:46:32.105175 25856 net.cpp:399] inception_4a/pool_proj -> inception_4a/pool_proj
I0403 19:46:32.106364 25856 net.cpp:141] Setting up inception_4a/pool_proj
I0403 19:46:32.106395 25856 net.cpp:148] Top shape: 24 64 14 14 (301056)
I0403 19:46:32.106428 25856 net.cpp:156] Memory required for data: 885707808
I0403 19:46:32.106452 25856 layer_factory.hpp:77] Creating layer inception_4a/relu_pool_proj
I0403 19:46:32.106477 25856 net.cpp:91] Creating Layer inception_4a/relu_pool_proj
I0403 19:46:32.106497 25856 net.cpp:425] inception_4a/relu_pool_proj <- inception_4a/pool_proj
I0403 19:46:32.106514 25856 net.cpp:386] inception_4a/relu_pool_proj -> inception_4a/pool_proj (in-place)
I0403 19:46:32.106799 25856 net.cpp:141] Setting up inception_4a/relu_pool_proj
I0403 19:46:32.106829 25856 net.cpp:148] Top shape: 24 64 14 14 (301056)
I0403 19:46:32.106848 25856 net.cpp:156] Memory required for data: 886912032
I0403 19:46:32.106863 25856 layer_factory.hpp:77] Creating layer inception_4a/output
I0403 19:46:32.106884 25856 net.cpp:91] Creating Layer inception_4a/output
I0403 19:46:32.106901 25856 net.cpp:425] inception_4a/output <- inception_4a/1x1
I0403 19:46:32.106920 25856 net.cpp:425] inception_4a/output <- inception_4a/3x3
I0403 19:46:32.106938 25856 net.cpp:425] inception_4a/output <- inception_4a/5x5
I0403 19:46:32.106956 25856 net.cpp:425] inception_4a/output <- inception_4a/pool_proj
I0403 19:46:32.106974 25856 net.cpp:399] inception_4a/output -> inception_4a/output
I0403 19:46:32.107022 25856 net.cpp:141] Setting up inception_4a/output
I0403 19:46:32.107048 25856 net.cpp:148] Top shape: 24 512 14 14 (2408448)
I0403 19:46:32.107064 25856 net.cpp:156] Memory required for data: 896545824
I0403 19:46:32.107079 25856 layer_factory.hpp:77] Creating layer inception_4a/output_inception_4a/output_0_split
I0403 19:46:32.107100 25856 net.cpp:91] Creating Layer inception_4a/output_inception_4a/output_0_split
I0403 19:46:32.107115 25856 net.cpp:425] inception_4a/output_inception_4a/output_0_split <- inception_4a/output
I0403 19:46:32.107136 25856 net.cpp:399] inception_4a/output_inception_4a/output_0_split -> inception_4a/output_inception_4a/output_0_split_0
I0403 19:46:32.107158 25856 net.cpp:399] inception_4a/output_inception_4a/output_0_split -> inception_4a/output_inception_4a/output_0_split_1
I0403 19:46:32.107182 25856 net.cpp:399] inception_4a/output_inception_4a/output_0_split -> inception_4a/output_inception_4a/output_0_split_2
I0403 19:46:32.107203 25856 net.cpp:399] inception_4a/output_inception_4a/output_0_split -> inception_4a/output_inception_4a/output_0_split_3
I0403 19:46:32.107226 25856 net.cpp:399] inception_4a/output_inception_4a/output_0_split -> inception_4a/output_inception_4a/output_0_split_4
I0403 19:46:32.107324 25856 net.cpp:141] Setting up inception_4a/output_inception_4a/output_0_split
I0403 19:46:32.107353 25856 net.cpp:148] Top shape: 24 512 14 14 (2408448)
I0403 19:46:32.107377 25856 net.cpp:148] Top shape: 24 512 14 14 (2408448)
I0403 19:46:32.107398 25856 net.cpp:148] Top shape: 24 512 14 14 (2408448)
I0403 19:46:32.107414 25856 net.cpp:148] Top shape: 24 512 14 14 (2408448)
I0403 19:46:32.107431 25856 net.cpp:148] Top shape: 24 512 14 14 (2408448)
I0403 19:46:32.107446 25856 net.cpp:156] Memory required for data: 944714784
I0403 19:46:32.107460 25856 layer_factory.hpp:77] Creating layer loss1/ave_pool
I0403 19:46:32.107478 25856 net.cpp:91] Creating Layer loss1/ave_pool
I0403 19:46:32.107497 25856 net.cpp:425] loss1/ave_pool <- inception_4a/output_inception_4a/output_0_split_0
I0403 19:46:32.107518 25856 net.cpp:399] loss1/ave_pool -> loss1/ave_pool
I0403 19:46:32.107733 25856 net.cpp:141] Setting up loss1/ave_pool
I0403 19:46:32.107761 25856 net.cpp:148] Top shape: 24 512 4 4 (196608)
I0403 19:46:32.107779 25856 net.cpp:156] Memory required for data: 945501216
I0403 19:46:32.107795 25856 layer_factory.hpp:77] Creating layer loss1/conv
I0403 19:46:32.107820 25856 net.cpp:91] Creating Layer loss1/conv
I0403 19:46:32.107841 25856 net.cpp:425] loss1/conv <- loss1/ave_pool
I0403 19:46:32.107863 25856 net.cpp:399] loss1/conv -> loss1/conv
I0403 19:46:32.109266 25856 net.cpp:141] Setting up loss1/conv
I0403 19:46:32.109300 25856 net.cpp:148] Top shape: 24 128 4 4 (49152)
I0403 19:46:32.109333 25856 net.cpp:156] Memory required for data: 945697824
I0403 19:46:32.109354 25856 layer_factory.hpp:77] Creating layer loss1/relu_conv
I0403 19:46:32.109375 25856 net.cpp:91] Creating Layer loss1/relu_conv
I0403 19:46:32.109392 25856 net.cpp:425] loss1/relu_conv <- loss1/conv
I0403 19:46:32.109413 25856 net.cpp:386] loss1/relu_conv -> loss1/conv (in-place)
I0403 19:46:32.109695 25856 net.cpp:141] Setting up loss1/relu_conv
I0403 19:46:32.109727 25856 net.cpp:148] Top shape: 24 128 4 4 (49152)
I0403 19:46:32.109745 25856 net.cpp:156] Memory required for data: 945894432
I0403 19:46:32.109761 25856 layer_factory.hpp:77] Creating layer loss1/fc
I0403 19:46:32.109788 25856 net.cpp:91] Creating Layer loss1/fc
I0403 19:46:32.109808 25856 net.cpp:425] loss1/fc <- loss1/conv
I0403 19:46:32.109833 25856 net.cpp:399] loss1/fc -> loss1/fc
I0403 19:46:32.127429 25856 net.cpp:141] Setting up loss1/fc
I0403 19:46:32.127462 25856 net.cpp:148] Top shape: 24 1024 (24576)
I0403 19:46:32.127480 25856 net.cpp:156] Memory required for data: 945992736
I0403 19:46:32.127499 25856 layer_factory.hpp:77] Creating layer loss1/relu_fc
I0403 19:46:32.127523 25856 net.cpp:91] Creating Layer loss1/relu_fc
I0403 19:46:32.127543 25856 net.cpp:425] loss1/relu_fc <- loss1/fc
I0403 19:46:32.127562 25856 net.cpp:386] loss1/relu_fc -> loss1/fc (in-place)
I0403 19:46:32.127739 25856 net.cpp:141] Setting up loss1/relu_fc
I0403 19:46:32.127768 25856 net.cpp:148] Top shape: 24 1024 (24576)
I0403 19:46:32.127784 25856 net.cpp:156] Memory required for data: 946091040
I0403 19:46:32.127799 25856 layer_factory.hpp:77] Creating layer loss1/drop_fc
I0403 19:46:32.127825 25856 net.cpp:91] Creating Layer loss1/drop_fc
I0403 19:46:32.127843 25856 net.cpp:425] loss1/drop_fc <- loss1/fc
I0403 19:46:32.127861 25856 net.cpp:386] loss1/drop_fc -> loss1/fc (in-place)
I0403 19:46:32.127917 25856 net.cpp:141] Setting up loss1/drop_fc
I0403 19:46:32.127940 25856 net.cpp:148] Top shape: 24 1024 (24576)
I0403 19:46:32.127955 25856 net.cpp:156] Memory required for data: 946189344
I0403 19:46:32.127971 25856 layer_factory.hpp:77] Creating layer loss1/classifier_plantvillage
I0403 19:46:32.127991 25856 net.cpp:91] Creating Layer loss1/classifier_plantvillage
I0403 19:46:32.128007 25856 net.cpp:425] loss1/classifier_plantvillage <- loss1/fc
I0403 19:46:32.128028 25856 net.cpp:399] loss1/classifier_plantvillage -> loss1/classifier_plantvillage
I0403 19:46:32.128891 25856 net.cpp:141] Setting up loss1/classifier_plantvillage
I0403 19:46:32.128921 25856 net.cpp:148] Top shape: 24 38 (912)
I0403 19:46:32.128937 25856 net.cpp:156] Memory required for data: 946192992
I0403 19:46:32.128954 25856 layer_factory.hpp:77] Creating layer loss1/classifier_plantvillage_loss1/classifier_plantvillage_0_split
I0403 19:46:32.128974 25856 net.cpp:91] Creating Layer loss1/classifier_plantvillage_loss1/classifier_plantvillage_0_split
I0403 19:46:32.128991 25856 net.cpp:425] loss1/classifier_plantvillage_loss1/classifier_plantvillage_0_split <- loss1/classifier_plantvillage
I0403 19:46:32.129009 25856 net.cpp:399] loss1/classifier_plantvillage_loss1/classifier_plantvillage_0_split -> loss1/classifier_plantvillage_loss1/classifier_plantvillage_0_split_0
I0403 19:46:32.129029 25856 net.cpp:399] loss1/classifier_plantvillage_loss1/classifier_plantvillage_0_split -> loss1/classifier_plantvillage_loss1/classifier_plantvillage_0_split_1
I0403 19:46:32.129055 25856 net.cpp:399] loss1/classifier_plantvillage_loss1/classifier_plantvillage_0_split -> loss1/classifier_plantvillage_loss1/classifier_plantvillage_0_split_2
I0403 19:46:32.129122 25856 net.cpp:141] Setting up loss1/classifier_plantvillage_loss1/classifier_plantvillage_0_split
I0403 19:46:32.129147 25856 net.cpp:148] Top shape: 24 38 (912)
I0403 19:46:32.129163 25856 net.cpp:148] Top shape: 24 38 (912)
I0403 19:46:32.129176 25856 net.cpp:148] Top shape: 24 38 (912)
I0403 19:46:32.129189 25856 net.cpp:156] Memory required for data: 946203936
I0403 19:46:32.129204 25856 layer_factory.hpp:77] Creating layer inception_4b/1x1
I0403 19:46:32.129226 25856 net.cpp:91] Creating Layer inception_4b/1x1
I0403 19:46:32.129266 25856 net.cpp:425] inception_4b/1x1 <- inception_4a/output_inception_4a/output_0_split_1
I0403 19:46:32.129288 25856 net.cpp:399] inception_4b/1x1 -> inception_4b/1x1
I0403 19:46:32.130853 25856 net.cpp:141] Setting up inception_4b/1x1
I0403 19:46:32.130884 25856 net.cpp:148] Top shape: 24 160 14 14 (752640)
I0403 19:46:32.130902 25856 net.cpp:156] Memory required for data: 949214496
I0403 19:46:32.130920 25856 layer_factory.hpp:77] Creating layer inception_4b/relu_1x1
I0403 19:46:32.130939 25856 net.cpp:91] Creating Layer inception_4b/relu_1x1
I0403 19:46:32.130955 25856 net.cpp:425] inception_4b/relu_1x1 <- inception_4b/1x1
I0403 19:46:32.130976 25856 net.cpp:386] inception_4b/relu_1x1 -> inception_4b/1x1 (in-place)
I0403 19:46:32.131155 25856 net.cpp:141] Setting up inception_4b/relu_1x1
I0403 19:46:32.131181 25856 net.cpp:148] Top shape: 24 160 14 14 (752640)
I0403 19:46:32.131196 25856 net.cpp:156] Memory required for data: 952225056
I0403 19:46:32.131211 25856 layer_factory.hpp:77] Creating layer inception_4b/3x3_reduce
I0403 19:46:32.131235 25856 net.cpp:91] Creating Layer inception_4b/3x3_reduce
I0403 19:46:32.131259 25856 net.cpp:425] inception_4b/3x3_reduce <- inception_4a/output_inception_4a/output_0_split_2
I0403 19:46:32.131283 25856 net.cpp:399] inception_4b/3x3_reduce -> inception_4b/3x3_reduce
I0403 19:46:32.132596 25856 net.cpp:141] Setting up inception_4b/3x3_reduce
I0403 19:46:32.132623 25856 net.cpp:148] Top shape: 24 112 14 14 (526848)
I0403 19:46:32.132639 25856 net.cpp:156] Memory required for data: 954332448
I0403 19:46:32.132658 25856 layer_factory.hpp:77] Creating layer inception_4b/relu_3x3_reduce
I0403 19:46:32.132675 25856 net.cpp:91] Creating Layer inception_4b/relu_3x3_reduce
I0403 19:46:32.132690 25856 net.cpp:425] inception_4b/relu_3x3_reduce <- inception_4b/3x3_reduce
I0403 19:46:32.132709 25856 net.cpp:386] inception_4b/relu_3x3_reduce -> inception_4b/3x3_reduce (in-place)
I0403 19:46:32.132994 25856 net.cpp:141] Setting up inception_4b/relu_3x3_reduce
I0403 19:46:32.133023 25856 net.cpp:148] Top shape: 24 112 14 14 (526848)
I0403 19:46:32.133039 25856 net.cpp:156] Memory required for data: 956439840
I0403 19:46:32.133055 25856 layer_factory.hpp:77] Creating layer inception_4b/3x3
I0403 19:46:32.133079 25856 net.cpp:91] Creating Layer inception_4b/3x3
I0403 19:46:32.133096 25856 net.cpp:425] inception_4b/3x3 <- inception_4b/3x3_reduce
I0403 19:46:32.133119 25856 net.cpp:399] inception_4b/3x3 -> inception_4b/3x3
I0403 19:46:32.136054 25856 net.cpp:141] Setting up inception_4b/3x3
I0403 19:46:32.136087 25856 net.cpp:148] Top shape: 24 224 14 14 (1053696)
I0403 19:46:32.136106 25856 net.cpp:156] Memory required for data: 960654624
I0403 19:46:32.136126 25856 layer_factory.hpp:77] Creating layer inception_4b/relu_3x3
I0403 19:46:32.136148 25856 net.cpp:91] Creating Layer inception_4b/relu_3x3
I0403 19:46:32.136169 25856 net.cpp:425] inception_4b/relu_3x3 <- inception_4b/3x3
I0403 19:46:32.136188 25856 net.cpp:386] inception_4b/relu_3x3 -> inception_4b/3x3 (in-place)
I0403 19:46:32.136371 25856 net.cpp:141] Setting up inception_4b/relu_3x3
I0403 19:46:32.136404 25856 net.cpp:148] Top shape: 24 224 14 14 (1053696)
I0403 19:46:32.136421 25856 net.cpp:156] Memory required for data: 964869408
I0403 19:46:32.136437 25856 layer_factory.hpp:77] Creating layer inception_4b/5x5_reduce
I0403 19:46:32.136461 25856 net.cpp:91] Creating Layer inception_4b/5x5_reduce
I0403 19:46:32.136482 25856 net.cpp:425] inception_4b/5x5_reduce <- inception_4a/output_inception_4a/output_0_split_3
I0403 19:46:32.136502 25856 net.cpp:399] inception_4b/5x5_reduce -> inception_4b/5x5_reduce
I0403 19:46:32.137574 25856 net.cpp:141] Setting up inception_4b/5x5_reduce
I0403 19:46:32.137605 25856 net.cpp:148] Top shape: 24 24 14 14 (112896)
I0403 19:46:32.137622 25856 net.cpp:156] Memory required for data: 965320992
I0403 19:46:32.137642 25856 layer_factory.hpp:77] Creating layer inception_4b/relu_5x5_reduce
I0403 19:46:32.137661 25856 net.cpp:91] Creating Layer inception_4b/relu_5x5_reduce
I0403 19:46:32.137696 25856 net.cpp:425] inception_4b/relu_5x5_reduce <- inception_4b/5x5_reduce
I0403 19:46:32.137717 25856 net.cpp:386] inception_4b/relu_5x5_reduce -> inception_4b/5x5_reduce (in-place)
I0403 19:46:32.137898 25856 net.cpp:141] Setting up inception_4b/relu_5x5_reduce
I0403 19:46:32.137928 25856 net.cpp:148] Top shape: 24 24 14 14 (112896)
I0403 19:46:32.137944 25856 net.cpp:156] Memory required for data: 965772576
I0403 19:46:32.137960 25856 layer_factory.hpp:77] Creating layer inception_4b/5x5
I0403 19:46:32.137982 25856 net.cpp:91] Creating Layer inception_4b/5x5
I0403 19:46:32.138003 25856 net.cpp:425] inception_4b/5x5 <- inception_4b/5x5_reduce
I0403 19:46:32.138025 25856 net.cpp:399] inception_4b/5x5 -> inception_4b/5x5
I0403 19:46:32.139224 25856 net.cpp:141] Setting up inception_4b/5x5
I0403 19:46:32.139262 25856 net.cpp:148] Top shape: 24 64 14 14 (301056)
I0403 19:46:32.139282 25856 net.cpp:156] Memory required for data: 966976800
I0403 19:46:32.139302 25856 layer_factory.hpp:77] Creating layer inception_4b/relu_5x5
I0403 19:46:32.139320 25856 net.cpp:91] Creating Layer inception_4b/relu_5x5
I0403 19:46:32.139340 25856 net.cpp:425] inception_4b/relu_5x5 <- inception_4b/5x5
I0403 19:46:32.139361 25856 net.cpp:386] inception_4b/relu_5x5 -> inception_4b/5x5 (in-place)
I0403 19:46:32.139638 25856 net.cpp:141] Setting up inception_4b/relu_5x5
I0403 19:46:32.139672 25856 net.cpp:148] Top shape: 24 64 14 14 (301056)
I0403 19:46:32.139689 25856 net.cpp:156] Memory required for data: 968181024
I0403 19:46:32.139706 25856 layer_factory.hpp:77] Creating layer inception_4b/pool
I0403 19:46:32.139724 25856 net.cpp:91] Creating Layer inception_4b/pool
I0403 19:46:32.139741 25856 net.cpp:425] inception_4b/pool <- inception_4a/output_inception_4a/output_0_split_4
I0403 19:46:32.139765 25856 net.cpp:399] inception_4b/pool -> inception_4b/pool
I0403 19:46:32.139828 25856 net.cpp:141] Setting up inception_4b/pool
I0403 19:46:32.139858 25856 net.cpp:148] Top shape: 24 512 14 14 (2408448)
I0403 19:46:32.139874 25856 net.cpp:156] Memory required for data: 977814816
I0403 19:46:32.139890 25856 layer_factory.hpp:77] Creating layer inception_4b/pool_proj
I0403 19:46:32.139914 25856 net.cpp:91] Creating Layer inception_4b/pool_proj
I0403 19:46:32.139933 25856 net.cpp:425] inception_4b/pool_proj <- inception_4b/pool
I0403 19:46:32.139953 25856 net.cpp:399] inception_4b/pool_proj -> inception_4b/pool_proj
I0403 19:46:32.141130 25856 net.cpp:141] Setting up inception_4b/pool_proj
I0403 19:46:32.141165 25856 net.cpp:148] Top shape: 24 64 14 14 (301056)
I0403 19:46:32.141183 25856 net.cpp:156] Memory required for data: 979019040
I0403 19:46:32.141203 25856 layer_factory.hpp:77] Creating layer inception_4b/relu_pool_proj
I0403 19:46:32.141223 25856 net.cpp:91] Creating Layer inception_4b/relu_pool_proj
I0403 19:46:32.141242 25856 net.cpp:425] inception_4b/relu_pool_proj <- inception_4b/pool_proj
I0403 19:46:32.141266 25856 net.cpp:386] inception_4b/relu_pool_proj -> inception_4b/pool_proj (in-place)
I0403 19:46:32.141448 25856 net.cpp:141] Setting up inception_4b/relu_pool_proj
I0403 19:46:32.141474 25856 net.cpp:148] Top shape: 24 64 14 14 (301056)
I0403 19:46:32.141490 25856 net.cpp:156] Memory required for data: 980223264
I0403 19:46:32.141505 25856 layer_factory.hpp:77] Creating layer inception_4b/output
I0403 19:46:32.141523 25856 net.cpp:91] Creating Layer inception_4b/output
I0403 19:46:32.141538 25856 net.cpp:425] inception_4b/output <- inception_4b/1x1
I0403 19:46:32.141556 25856 net.cpp:425] inception_4b/output <- inception_4b/3x3
I0403 19:46:32.141572 25856 net.cpp:425] inception_4b/output <- inception_4b/5x5
I0403 19:46:32.141589 25856 net.cpp:425] inception_4b/output <- inception_4b/pool_proj
I0403 19:46:32.141610 25856 net.cpp:399] inception_4b/output -> inception_4b/output
I0403 19:46:32.141659 25856 net.cpp:141] Setting up inception_4b/output
I0403 19:46:32.141685 25856 net.cpp:148] Top shape: 24 512 14 14 (2408448)
I0403 19:46:32.141702 25856 net.cpp:156] Memory required for data: 989857056
I0403 19:46:32.141732 25856 layer_factory.hpp:77] Creating layer inception_4b/output_inception_4b/output_0_split
I0403 19:46:32.141752 25856 net.cpp:91] Creating Layer inception_4b/output_inception_4b/output_0_split
I0403 19:46:32.141770 25856 net.cpp:425] inception_4b/output_inception_4b/output_0_split <- inception_4b/output
I0403 19:46:32.141790 25856 net.cpp:399] inception_4b/output_inception_4b/output_0_split -> inception_4b/output_inception_4b/output_0_split_0
I0403 19:46:32.141813 25856 net.cpp:399] inception_4b/output_inception_4b/output_0_split -> inception_4b/output_inception_4b/output_0_split_1
I0403 19:46:32.141834 25856 net.cpp:399] inception_4b/output_inception_4b/output_0_split -> inception_4b/output_inception_4b/output_0_split_2
I0403 19:46:32.141855 25856 net.cpp:399] inception_4b/output_inception_4b/output_0_split -> inception_4b/output_inception_4b/output_0_split_3
I0403 19:46:32.141943 25856 net.cpp:141] Setting up inception_4b/output_inception_4b/output_0_split
I0403 19:46:32.141970 25856 net.cpp:148] Top shape: 24 512 14 14 (2408448)
I0403 19:46:32.141986 25856 net.cpp:148] Top shape: 24 512 14 14 (2408448)
I0403 19:46:32.142002 25856 net.cpp:148] Top shape: 24 512 14 14 (2408448)
I0403 19:46:32.142017 25856 net.cpp:148] Top shape: 24 512 14 14 (2408448)
I0403 19:46:32.142032 25856 net.cpp:156] Memory required for data: 1028392224
I0403 19:46:32.142048 25856 layer_factory.hpp:77] Creating layer inception_4c/1x1
I0403 19:46:32.142072 25856 net.cpp:91] Creating Layer inception_4c/1x1
I0403 19:46:32.142091 25856 net.cpp:425] inception_4c/1x1 <- inception_4b/output_inception_4b/output_0_split_0
I0403 19:46:32.142110 25856 net.cpp:399] inception_4c/1x1 -> inception_4c/1x1
I0403 19:46:32.143501 25856 net.cpp:141] Setting up inception_4c/1x1
I0403 19:46:32.143535 25856 net.cpp:148] Top shape: 24 128 14 14 (602112)
I0403 19:46:32.143551 25856 net.cpp:156] Memory required for data: 1030800672
I0403 19:46:32.143571 25856 layer_factory.hpp:77] Creating layer inception_4c/relu_1x1
I0403 19:46:32.143594 25856 net.cpp:91] Creating Layer inception_4c/relu_1x1
I0403 19:46:32.143612 25856 net.cpp:425] inception_4c/relu_1x1 <- inception_4c/1x1
I0403 19:46:32.143630 25856 net.cpp:386] inception_4c/relu_1x1 -> inception_4c/1x1 (in-place)
I0403 19:46:32.143807 25856 net.cpp:141] Setting up inception_4c/relu_1x1
I0403 19:46:32.143841 25856 net.cpp:148] Top shape: 24 128 14 14 (602112)
I0403 19:46:32.143858 25856 net.cpp:156] Memory required for data: 1033209120
I0403 19:46:32.143875 25856 layer_factory.hpp:77] Creating layer inception_4c/3x3_reduce
I0403 19:46:32.143898 25856 net.cpp:91] Creating Layer inception_4c/3x3_reduce
I0403 19:46:32.143918 25856 net.cpp:425] inception_4c/3x3_reduce <- inception_4b/output_inception_4b/output_0_split_1
I0403 19:46:32.143937 25856 net.cpp:399] inception_4c/3x3_reduce -> inception_4c/3x3_reduce
I0403 19:46:32.145846 25856 net.cpp:141] Setting up inception_4c/3x3_reduce
I0403 19:46:32.145881 25856 net.cpp:148] Top shape: 24 128 14 14 (602112)
I0403 19:46:32.145901 25856 net.cpp:156] Memory required for data: 1035617568
I0403 19:46:32.145921 25856 layer_factory.hpp:77] Creating layer inception_4c/relu_3x3_reduce
I0403 19:46:32.145941 25856 net.cpp:91] Creating Layer inception_4c/relu_3x3_reduce
I0403 19:46:32.145957 25856 net.cpp:425] inception_4c/relu_3x3_reduce <- inception_4c/3x3_reduce
I0403 19:46:32.145974 25856 net.cpp:386] inception_4c/relu_3x3_reduce -> inception_4c/3x3_reduce (in-place)
I0403 19:46:32.146255 25856 net.cpp:141] Setting up inception_4c/relu_3x3_reduce
I0403 19:46:32.146291 25856 net.cpp:148] Top shape: 24 128 14 14 (602112)
I0403 19:46:32.146308 25856 net.cpp:156] Memory required for data: 1038026016
I0403 19:46:32.146323 25856 layer_factory.hpp:77] Creating layer inception_4c/3x3
I0403 19:46:32.146347 25856 net.cpp:91] Creating Layer inception_4c/3x3
I0403 19:46:32.146368 25856 net.cpp:425] inception_4c/3x3 <- inception_4c/3x3_reduce
I0403 19:46:32.146387 25856 net.cpp:399] inception_4c/3x3 -> inception_4c/3x3
I0403 19:46:32.149910 25856 net.cpp:141] Setting up inception_4c/3x3
I0403 19:46:32.149957 25856 net.cpp:148] Top shape: 24 256 14 14 (1204224)
I0403 19:46:32.149976 25856 net.cpp:156] Memory required for data: 1042842912
I0403 19:46:32.150010 25856 layer_factory.hpp:77] Creating layer inception_4c/relu_3x3
I0403 19:46:32.150033 25856 net.cpp:91] Creating Layer inception_4c/relu_3x3
I0403 19:46:32.150051 25856 net.cpp:425] inception_4c/relu_3x3 <- inception_4c/3x3
I0403 19:46:32.150074 25856 net.cpp:386] inception_4c/relu_3x3 -> inception_4c/3x3 (in-place)
I0403 19:46:32.150259 25856 net.cpp:141] Setting up inception_4c/relu_3x3
I0403 19:46:32.150290 25856 net.cpp:148] Top shape: 24 256 14 14 (1204224)
I0403 19:46:32.150307 25856 net.cpp:156] Memory required for data: 1047659808
I0403 19:46:32.150322 25856 layer_factory.hpp:77] Creating layer inception_4c/5x5_reduce
I0403 19:46:32.150346 25856 net.cpp:91] Creating Layer inception_4c/5x5_reduce
I0403 19:46:32.150368 25856 net.cpp:425] inception_4c/5x5_reduce <- inception_4b/output_inception_4b/output_0_split_2
I0403 19:46:32.150393 25856 net.cpp:399] inception_4c/5x5_reduce -> inception_4c/5x5_reduce
I0403 19:46:32.151471 25856 net.cpp:141] Setting up inception_4c/5x5_reduce
I0403 19:46:32.151501 25856 net.cpp:148] Top shape: 24 24 14 14 (112896)
I0403 19:46:32.151518 25856 net.cpp:156] Memory required for data: 1048111392
I0403 19:46:32.151536 25856 layer_factory.hpp:77] Creating layer inception_4c/relu_5x5_reduce
I0403 19:46:32.151556 25856 net.cpp:91] Creating Layer inception_4c/relu_5x5_reduce
I0403 19:46:32.151576 25856 net.cpp:425] inception_4c/relu_5x5_reduce <- inception_4c/5x5_reduce
I0403 19:46:32.151597 25856 net.cpp:386] inception_4c/relu_5x5_reduce -> inception_4c/5x5_reduce (in-place)
I0403 19:46:32.151782 25856 net.cpp:141] Setting up inception_4c/relu_5x5_reduce
I0403 19:46:32.151810 25856 net.cpp:148] Top shape: 24 24 14 14 (112896)
I0403 19:46:32.151828 25856 net.cpp:156] Memory required for data: 1048562976
I0403 19:46:32.151844 25856 layer_factory.hpp:77] Creating layer inception_4c/5x5
I0403 19:46:32.151866 25856 net.cpp:91] Creating Layer inception_4c/5x5
I0403 19:46:32.151887 25856 net.cpp:425] inception_4c/5x5 <- inception_4c/5x5_reduce
I0403 19:46:32.151911 25856 net.cpp:399] inception_4c/5x5 -> inception_4c/5x5
I0403 19:46:32.153127 25856 net.cpp:141] Setting up inception_4c/5x5
I0403 19:46:32.153159 25856 net.cpp:148] Top shape: 24 64 14 14 (301056)
I0403 19:46:32.153177 25856 net.cpp:156] Memory required for data: 1049767200
I0403 19:46:32.153197 25856 layer_factory.hpp:77] Creating layer inception_4c/relu_5x5
I0403 19:46:32.153218 25856 net.cpp:91] Creating Layer inception_4c/relu_5x5
I0403 19:46:32.153237 25856 net.cpp:425] inception_4c/relu_5x5 <- inception_4c/5x5
I0403 19:46:32.153259 25856 net.cpp:386] inception_4c/relu_5x5 -> inception_4c/5x5 (in-place)
I0403 19:46:32.153544 25856 net.cpp:141] Setting up inception_4c/relu_5x5
I0403 19:46:32.153574 25856 net.cpp:148] Top shape: 24 64 14 14 (301056)
I0403 19:46:32.153592 25856 net.cpp:156] Memory required for data: 1050971424
I0403 19:46:32.153609 25856 layer_factory.hpp:77] Creating layer inception_4c/pool
I0403 19:46:32.153628 25856 net.cpp:91] Creating Layer inception_4c/pool
I0403 19:46:32.153645 25856 net.cpp:425] inception_4c/pool <- inception_4b/output_inception_4b/output_0_split_3
I0403 19:46:32.153667 25856 net.cpp:399] inception_4c/pool -> inception_4c/pool
I0403 19:46:32.153735 25856 net.cpp:141] Setting up inception_4c/pool
I0403 19:46:32.153764 25856 net.cpp:148] Top shape: 24 512 14 14 (2408448)
I0403 19:46:32.153779 25856 net.cpp:156] Memory required for data: 1060605216
I0403 19:46:32.153795 25856 layer_factory.hpp:77] Creating layer inception_4c/pool_proj
I0403 19:46:32.153820 25856 net.cpp:91] Creating Layer inception_4c/pool_proj
I0403 19:46:32.153839 25856 net.cpp:425] inception_4c/pool_proj <- inception_4c/pool
I0403 19:46:32.153861 25856 net.cpp:399] inception_4c/pool_proj -> inception_4c/pool_proj
I0403 19:46:32.155061 25856 net.cpp:141] Setting up inception_4c/pool_proj
I0403 19:46:32.155094 25856 net.cpp:148] Top shape: 24 64 14 14 (301056)
I0403 19:46:32.155127 25856 net.cpp:156] Memory required for data: 1061809440
I0403 19:46:32.155149 25856 layer_factory.hpp:77] Creating layer inception_4c/relu_pool_proj
I0403 19:46:32.155169 25856 net.cpp:91] Creating Layer inception_4c/relu_pool_proj
I0403 19:46:32.155187 25856 net.cpp:425] inception_4c/relu_pool_proj <- inception_4c/pool_proj
I0403 19:46:32.155207 25856 net.cpp:386] inception_4c/relu_pool_proj -> inception_4c/pool_proj (in-place)
I0403 19:46:32.155405 25856 net.cpp:141] Setting up inception_4c/relu_pool_proj
I0403 19:46:32.155431 25856 net.cpp:148] Top shape: 24 64 14 14 (301056)
I0403 19:46:32.155444 25856 net.cpp:156] Memory required for data: 1063013664
I0403 19:46:32.155458 25856 layer_factory.hpp:77] Creating layer inception_4c/output
I0403 19:46:32.155475 25856 net.cpp:91] Creating Layer inception_4c/output
I0403 19:46:32.155490 25856 net.cpp:425] inception_4c/output <- inception_4c/1x1
I0403 19:46:32.155506 25856 net.cpp:425] inception_4c/output <- inception_4c/3x3
I0403 19:46:32.155521 25856 net.cpp:425] inception_4c/output <- inception_4c/5x5
I0403 19:46:32.155537 25856 net.cpp:425] inception_4c/output <- inception_4c/pool_proj
I0403 19:46:32.155556 25856 net.cpp:399] inception_4c/output -> inception_4c/output
I0403 19:46:32.155602 25856 net.cpp:141] Setting up inception_4c/output
I0403 19:46:32.155627 25856 net.cpp:148] Top shape: 24 512 14 14 (2408448)
I0403 19:46:32.155652 25856 net.cpp:156] Memory required for data: 1072647456
I0403 19:46:32.155668 25856 layer_factory.hpp:77] Creating layer inception_4c/output_inception_4c/output_0_split
I0403 19:46:32.155684 25856 net.cpp:91] Creating Layer inception_4c/output_inception_4c/output_0_split
I0403 19:46:32.155699 25856 net.cpp:425] inception_4c/output_inception_4c/output_0_split <- inception_4c/output
I0403 19:46:32.155719 25856 net.cpp:399] inception_4c/output_inception_4c/output_0_split -> inception_4c/output_inception_4c/output_0_split_0
I0403 19:46:32.155741 25856 net.cpp:399] inception_4c/output_inception_4c/output_0_split -> inception_4c/output_inception_4c/output_0_split_1
I0403 19:46:32.155761 25856 net.cpp:399] inception_4c/output_inception_4c/output_0_split -> inception_4c/output_inception_4c/output_0_split_2
I0403 19:46:32.155783 25856 net.cpp:399] inception_4c/output_inception_4c/output_0_split -> inception_4c/output_inception_4c/output_0_split_3
I0403 19:46:32.155870 25856 net.cpp:141] Setting up inception_4c/output_inception_4c/output_0_split
I0403 19:46:32.155894 25856 net.cpp:148] Top shape: 24 512 14 14 (2408448)
I0403 19:46:32.155910 25856 net.cpp:148] Top shape: 24 512 14 14 (2408448)
I0403 19:46:32.155926 25856 net.cpp:148] Top shape: 24 512 14 14 (2408448)
I0403 19:46:32.155942 25856 net.cpp:148] Top shape: 24 512 14 14 (2408448)
I0403 19:46:32.155956 25856 net.cpp:156] Memory required for data: 1111182624
I0403 19:46:32.155972 25856 layer_factory.hpp:77] Creating layer inception_4d/1x1
I0403 19:46:32.155994 25856 net.cpp:91] Creating Layer inception_4d/1x1
I0403 19:46:32.156013 25856 net.cpp:425] inception_4d/1x1 <- inception_4c/output_inception_4c/output_0_split_0
I0403 19:46:32.156031 25856 net.cpp:399] inception_4d/1x1 -> inception_4d/1x1
I0403 19:46:32.157384 25856 net.cpp:141] Setting up inception_4d/1x1
I0403 19:46:32.157413 25856 net.cpp:148] Top shape: 24 112 14 14 (526848)
I0403 19:46:32.157431 25856 net.cpp:156] Memory required for data: 1113290016
I0403 19:46:32.157449 25856 layer_factory.hpp:77] Creating layer inception_4d/relu_1x1
I0403 19:46:32.157469 25856 net.cpp:91] Creating Layer inception_4d/relu_1x1
I0403 19:46:32.157488 25856 net.cpp:425] inception_4d/relu_1x1 <- inception_4d/1x1
I0403 19:46:32.157507 25856 net.cpp:386] inception_4d/relu_1x1 -> inception_4d/1x1 (in-place)
I0403 19:46:32.157691 25856 net.cpp:141] Setting up inception_4d/relu_1x1
I0403 19:46:32.157719 25856 net.cpp:148] Top shape: 24 112 14 14 (526848)
I0403 19:46:32.157735 25856 net.cpp:156] Memory required for data: 1115397408
I0403 19:46:32.157752 25856 layer_factory.hpp:77] Creating layer inception_4d/3x3_reduce
I0403 19:46:32.157788 25856 net.cpp:91] Creating Layer inception_4d/3x3_reduce
I0403 19:46:32.157809 25856 net.cpp:425] inception_4d/3x3_reduce <- inception_4c/output_inception_4c/output_0_split_1
I0403 19:46:32.157831 25856 net.cpp:399] inception_4d/3x3_reduce -> inception_4d/3x3_reduce
I0403 19:46:32.159309 25856 net.cpp:141] Setting up inception_4d/3x3_reduce
I0403 19:46:32.159337 25856 net.cpp:148] Top shape: 24 144 14 14 (677376)
I0403 19:46:32.159353 25856 net.cpp:156] Memory required for data: 1118106912
I0403 19:46:32.159371 25856 layer_factory.hpp:77] Creating layer inception_4d/relu_3x3_reduce
I0403 19:46:32.159392 25856 net.cpp:91] Creating Layer inception_4d/relu_3x3_reduce
I0403 19:46:32.159411 25856 net.cpp:425] inception_4d/relu_3x3_reduce <- inception_4d/3x3_reduce
I0403 19:46:32.159428 25856 net.cpp:386] inception_4d/relu_3x3_reduce -> inception_4d/3x3_reduce (in-place)
I0403 19:46:32.159715 25856 net.cpp:141] Setting up inception_4d/relu_3x3_reduce
I0403 19:46:32.159742 25856 net.cpp:148] Top shape: 24 144 14 14 (677376)
I0403 19:46:32.159759 25856 net.cpp:156] Memory required for data: 1120816416
I0403 19:46:32.159772 25856 layer_factory.hpp:77] Creating layer inception_4d/3x3
I0403 19:46:32.159795 25856 net.cpp:91] Creating Layer inception_4d/3x3
I0403 19:46:32.159813 25856 net.cpp:425] inception_4d/3x3 <- inception_4d/3x3_reduce
I0403 19:46:32.159835 25856 net.cpp:399] inception_4d/3x3 -> inception_4d/3x3
I0403 19:46:32.164041 25856 net.cpp:141] Setting up inception_4d/3x3
I0403 19:46:32.164072 25856 net.cpp:148] Top shape: 24 288 14 14 (1354752)
I0403 19:46:32.164090 25856 net.cpp:156] Memory required for data: 1126235424
I0403 19:46:32.164109 25856 layer_factory.hpp:77] Creating layer inception_4d/relu_3x3
I0403 19:46:32.164127 25856 net.cpp:91] Creating Layer inception_4d/relu_3x3
I0403 19:46:32.164145 25856 net.cpp:425] inception_4d/relu_3x3 <- inception_4d/3x3
I0403 19:46:32.164163 25856 net.cpp:386] inception_4d/relu_3x3 -> inception_4d/3x3 (in-place)
I0403 19:46:32.164360 25856 net.cpp:141] Setting up inception_4d/relu_3x3
I0403 19:46:32.164387 25856 net.cpp:148] Top shape: 24 288 14 14 (1354752)
I0403 19:46:32.164405 25856 net.cpp:156] Memory required for data: 1131654432
I0403 19:46:32.164420 25856 layer_factory.hpp:77] Creating layer inception_4d/5x5_reduce
I0403 19:46:32.164443 25856 net.cpp:91] Creating Layer inception_4d/5x5_reduce
I0403 19:46:32.164459 25856 net.cpp:425] inception_4d/5x5_reduce <- inception_4c/output_inception_4c/output_0_split_2
I0403 19:46:32.164482 25856 net.cpp:399] inception_4d/5x5_reduce -> inception_4d/5x5_reduce
I0403 19:46:32.165612 25856 net.cpp:141] Setting up inception_4d/5x5_reduce
I0403 19:46:32.165639 25856 net.cpp:148] Top shape: 24 32 14 14 (150528)
I0403 19:46:32.165654 25856 net.cpp:156] Memory required for data: 1132256544
I0403 19:46:32.165671 25856 layer_factory.hpp:77] Creating layer inception_4d/relu_5x5_reduce
I0403 19:46:32.165691 25856 net.cpp:91] Creating Layer inception_4d/relu_5x5_reduce
I0403 19:46:32.165709 25856 net.cpp:425] inception_4d/relu_5x5_reduce <- inception_4d/5x5_reduce
I0403 19:46:32.165725 25856 net.cpp:386] inception_4d/relu_5x5_reduce -> inception_4d/5x5_reduce (in-place)
I0403 19:46:32.165909 25856 net.cpp:141] Setting up inception_4d/relu_5x5_reduce
I0403 19:46:32.165932 25856 net.cpp:148] Top shape: 24 32 14 14 (150528)
I0403 19:46:32.165946 25856 net.cpp:156] Memory required for data: 1132858656
I0403 19:46:32.165961 25856 layer_factory.hpp:77] Creating layer inception_4d/5x5
I0403 19:46:32.165982 25856 net.cpp:91] Creating Layer inception_4d/5x5
I0403 19:46:32.165998 25856 net.cpp:425] inception_4d/5x5 <- inception_4d/5x5_reduce
I0403 19:46:32.166019 25856 net.cpp:399] inception_4d/5x5 -> inception_4d/5x5
I0403 19:46:32.167445 25856 net.cpp:141] Setting up inception_4d/5x5
I0403 19:46:32.167472 25856 net.cpp:148] Top shape: 24 64 14 14 (301056)
I0403 19:46:32.167489 25856 net.cpp:156] Memory required for data: 1134062880
I0403 19:46:32.167506 25856 layer_factory.hpp:77] Creating layer inception_4d/relu_5x5
I0403 19:46:32.167537 25856 net.cpp:91] Creating Layer inception_4d/relu_5x5
I0403 19:46:32.167554 25856 net.cpp:425] inception_4d/relu_5x5 <- inception_4d/5x5
I0403 19:46:32.167573 25856 net.cpp:386] inception_4d/relu_5x5 -> inception_4d/5x5 (in-place)
I0403 19:46:32.167865 25856 net.cpp:141] Setting up inception_4d/relu_5x5
I0403 19:46:32.167889 25856 net.cpp:148] Top shape: 24 64 14 14 (301056)
I0403 19:46:32.167904 25856 net.cpp:156] Memory required for data: 1135267104
I0403 19:46:32.167918 25856 layer_factory.hpp:77] Creating layer inception_4d/pool
I0403 19:46:32.167935 25856 net.cpp:91] Creating Layer inception_4d/pool
I0403 19:46:32.167951 25856 net.cpp:425] inception_4d/pool <- inception_4c/output_inception_4c/output_0_split_3
I0403 19:46:32.167970 25856 net.cpp:399] inception_4d/pool -> inception_4d/pool
I0403 19:46:32.168036 25856 net.cpp:141] Setting up inception_4d/pool
I0403 19:46:32.168061 25856 net.cpp:148] Top shape: 24 512 14 14 (2408448)
I0403 19:46:32.168073 25856 net.cpp:156] Memory required for data: 1144900896
I0403 19:46:32.168088 25856 layer_factory.hpp:77] Creating layer inception_4d/pool_proj
I0403 19:46:32.168110 25856 net.cpp:91] Creating Layer inception_4d/pool_proj
I0403 19:46:32.168128 25856 net.cpp:425] inception_4d/pool_proj <- inception_4d/pool
I0403 19:46:32.168146 25856 net.cpp:399] inception_4d/pool_proj -> inception_4d/pool_proj
I0403 19:46:32.169855 25856 net.cpp:141] Setting up inception_4d/pool_proj
I0403 19:46:32.169885 25856 net.cpp:148] Top shape: 24 64 14 14 (301056)
I0403 19:46:32.169901 25856 net.cpp:156] Memory required for data: 1146105120
I0403 19:46:32.169919 25856 layer_factory.hpp:77] Creating layer inception_4d/relu_pool_proj
I0403 19:46:32.169937 25856 net.cpp:91] Creating Layer inception_4d/relu_pool_proj
I0403 19:46:32.169953 25856 net.cpp:425] inception_4d/relu_pool_proj <- inception_4d/pool_proj
I0403 19:46:32.169970 25856 net.cpp:386] inception_4d/relu_pool_proj -> inception_4d/pool_proj (in-place)
I0403 19:46:32.170150 25856 net.cpp:141] Setting up inception_4d/relu_pool_proj
I0403 19:46:32.170176 25856 net.cpp:148] Top shape: 24 64 14 14 (301056)
I0403 19:46:32.170192 25856 net.cpp:156] Memory required for data: 1147309344
I0403 19:46:32.170207 25856 layer_factory.hpp:77] Creating layer inception_4d/output
I0403 19:46:32.170222 25856 net.cpp:91] Creating Layer inception_4d/output
I0403 19:46:32.170238 25856 net.cpp:425] inception_4d/output <- inception_4d/1x1
I0403 19:46:32.170259 25856 net.cpp:425] inception_4d/output <- inception_4d/3x3
I0403 19:46:32.170277 25856 net.cpp:425] inception_4d/output <- inception_4d/5x5
I0403 19:46:32.170294 25856 net.cpp:425] inception_4d/output <- inception_4d/pool_proj
I0403 19:46:32.170311 25856 net.cpp:399] inception_4d/output -> inception_4d/output
I0403 19:46:32.170358 25856 net.cpp:141] Setting up inception_4d/output
I0403 19:46:32.170382 25856 net.cpp:148] Top shape: 24 528 14 14 (2483712)
I0403 19:46:32.170395 25856 net.cpp:156] Memory required for data: 1157244192
I0403 19:46:32.170409 25856 layer_factory.hpp:77] Creating layer inception_4d/output_inception_4d/output_0_split
I0403 19:46:32.170428 25856 net.cpp:91] Creating Layer inception_4d/output_inception_4d/output_0_split
I0403 19:46:32.170445 25856 net.cpp:425] inception_4d/output_inception_4d/output_0_split <- inception_4d/output
I0403 19:46:32.170462 25856 net.cpp:399] inception_4d/output_inception_4d/output_0_split -> inception_4d/output_inception_4d/output_0_split_0
I0403 19:46:32.170486 25856 net.cpp:399] inception_4d/output_inception_4d/output_0_split -> inception_4d/output_inception_4d/output_0_split_1
I0403 19:46:32.170507 25856 net.cpp:399] inception_4d/output_inception_4d/output_0_split -> inception_4d/output_inception_4d/output_0_split_2
I0403 19:46:32.170528 25856 net.cpp:399] inception_4d/output_inception_4d/output_0_split -> inception_4d/output_inception_4d/output_0_split_3
I0403 19:46:32.170548 25856 net.cpp:399] inception_4d/output_inception_4d/output_0_split -> inception_4d/output_inception_4d/output_0_split_4
I0403 19:46:32.170646 25856 net.cpp:141] Setting up inception_4d/output_inception_4d/output_0_split
I0403 19:46:32.170681 25856 net.cpp:148] Top shape: 24 528 14 14 (2483712)
I0403 19:46:32.170697 25856 net.cpp:148] Top shape: 24 528 14 14 (2483712)
I0403 19:46:32.170712 25856 net.cpp:148] Top shape: 24 528 14 14 (2483712)
I0403 19:46:32.170727 25856 net.cpp:148] Top shape: 24 528 14 14 (2483712)
I0403 19:46:32.170742 25856 net.cpp:148] Top shape: 24 528 14 14 (2483712)
I0403 19:46:32.170755 25856 net.cpp:156] Memory required for data: 1206918432
I0403 19:46:32.170768 25856 layer_factory.hpp:77] Creating layer loss2/ave_pool
I0403 19:46:32.170788 25856 net.cpp:91] Creating Layer loss2/ave_pool
I0403 19:46:32.170804 25856 net.cpp:425] loss2/ave_pool <- inception_4d/output_inception_4d/output_0_split_0
I0403 19:46:32.170822 25856 net.cpp:399] loss2/ave_pool -> loss2/ave_pool
I0403 19:46:32.171129 25856 net.cpp:141] Setting up loss2/ave_pool
I0403 19:46:32.171156 25856 net.cpp:148] Top shape: 24 528 4 4 (202752)
I0403 19:46:32.171172 25856 net.cpp:156] Memory required for data: 1207729440
I0403 19:46:32.171187 25856 layer_factory.hpp:77] Creating layer loss2/conv
I0403 19:46:32.171208 25856 net.cpp:91] Creating Layer loss2/conv
I0403 19:46:32.171227 25856 net.cpp:425] loss2/conv <- loss2/ave_pool
I0403 19:46:32.171246 25856 net.cpp:399] loss2/conv -> loss2/conv
I0403 19:46:32.173081 25856 net.cpp:141] Setting up loss2/conv
I0403 19:46:32.173108 25856 net.cpp:148] Top shape: 24 128 4 4 (49152)
I0403 19:46:32.173123 25856 net.cpp:156] Memory required for data: 1207926048
I0403 19:46:32.173141 25856 layer_factory.hpp:77] Creating layer loss2/relu_conv
I0403 19:46:32.173161 25856 net.cpp:91] Creating Layer loss2/relu_conv
I0403 19:46:32.173179 25856 net.cpp:425] loss2/relu_conv <- loss2/conv
I0403 19:46:32.173195 25856 net.cpp:386] loss2/relu_conv -> loss2/conv (in-place)
I0403 19:46:32.184340 25856 net.cpp:141] Setting up loss2/relu_conv
I0403 19:46:32.184368 25856 net.cpp:148] Top shape: 24 128 4 4 (49152)
I0403 19:46:32.184386 25856 net.cpp:156] Memory required for data: 1208122656
I0403 19:46:32.184401 25856 layer_factory.hpp:77] Creating layer loss2/fc
I0403 19:46:32.184423 25856 net.cpp:91] Creating Layer loss2/fc
I0403 19:46:32.184442 25856 net.cpp:425] loss2/fc <- loss2/conv
I0403 19:46:32.184463 25856 net.cpp:399] loss2/fc -> loss2/fc
I0403 19:46:32.205819 25856 net.cpp:141] Setting up loss2/fc
I0403 19:46:32.205858 25856 net.cpp:148] Top shape: 24 1024 (24576)
I0403 19:46:32.205875 25856 net.cpp:156] Memory required for data: 1208220960
I0403 19:46:32.205895 25856 layer_factory.hpp:77] Creating layer loss2/relu_fc
I0403 19:46:32.205919 25856 net.cpp:91] Creating Layer loss2/relu_fc
I0403 19:46:32.205937 25856 net.cpp:425] loss2/relu_fc <- loss2/fc
I0403 19:46:32.205957 25856 net.cpp:386] loss2/relu_fc -> loss2/fc (in-place)
I0403 19:46:32.206241 25856 net.cpp:141] Setting up loss2/relu_fc
I0403 19:46:32.206279 25856 net.cpp:148] Top shape: 24 1024 (24576)
I0403 19:46:32.206298 25856 net.cpp:156] Memory required for data: 1208319264
I0403 19:46:32.206315 25856 layer_factory.hpp:77] Creating layer loss2/drop_fc
I0403 19:46:32.206331 25856 net.cpp:91] Creating Layer loss2/drop_fc
I0403 19:46:32.206348 25856 net.cpp:425] loss2/drop_fc <- loss2/fc
I0403 19:46:32.206369 25856 net.cpp:386] loss2/drop_fc -> loss2/fc (in-place)
I0403 19:46:32.206420 25856 net.cpp:141] Setting up loss2/drop_fc
I0403 19:46:32.206447 25856 net.cpp:148] Top shape: 24 1024 (24576)
I0403 19:46:32.206462 25856 net.cpp:156] Memory required for data: 1208417568
I0403 19:46:32.206478 25856 layer_factory.hpp:77] Creating layer loss2/classifier_plantvillage
I0403 19:46:32.206499 25856 net.cpp:91] Creating Layer loss2/classifier_plantvillage
I0403 19:46:32.206519 25856 net.cpp:425] loss2/classifier_plantvillage <- loss2/fc
I0403 19:46:32.206540 25856 net.cpp:399] loss2/classifier_plantvillage -> loss2/classifier_plantvillage
I0403 19:46:32.206931 25856 net.cpp:141] Setting up loss2/classifier_plantvillage
I0403 19:46:32.206962 25856 net.cpp:148] Top shape: 24 38 (912)
I0403 19:46:32.206995 25856 net.cpp:156] Memory required for data: 1208421216
I0403 19:46:32.207015 25856 layer_factory.hpp:77] Creating layer loss2/classifier_plantvillage_loss2/classifier_plantvillage_0_split
I0403 19:46:32.207036 25856 net.cpp:91] Creating Layer loss2/classifier_plantvillage_loss2/classifier_plantvillage_0_split
I0403 19:46:32.207059 25856 net.cpp:425] loss2/classifier_plantvillage_loss2/classifier_plantvillage_0_split <- loss2/classifier_plantvillage
I0403 19:46:32.207079 25856 net.cpp:399] loss2/classifier_plantvillage_loss2/classifier_plantvillage_0_split -> loss2/classifier_plantvillage_loss2/classifier_plantvillage_0_split_0
I0403 19:46:32.207103 25856 net.cpp:399] loss2/classifier_plantvillage_loss2/classifier_plantvillage_0_split -> loss2/classifier_plantvillage_loss2/classifier_plantvillage_0_split_1
I0403 19:46:32.207124 25856 net.cpp:399] loss2/classifier_plantvillage_loss2/classifier_plantvillage_0_split -> loss2/classifier_plantvillage_loss2/classifier_plantvillage_0_split_2
I0403 19:46:32.207201 25856 net.cpp:141] Setting up loss2/classifier_plantvillage_loss2/classifier_plantvillage_0_split
I0403 19:46:32.207231 25856 net.cpp:148] Top shape: 24 38 (912)
I0403 19:46:32.207252 25856 net.cpp:148] Top shape: 24 38 (912)
I0403 19:46:32.207273 25856 net.cpp:148] Top shape: 24 38 (912)
I0403 19:46:32.207289 25856 net.cpp:156] Memory required for data: 1208432160
I0403 19:46:32.207304 25856 layer_factory.hpp:77] Creating layer inception_4e/1x1
I0403 19:46:32.207325 25856 net.cpp:91] Creating Layer inception_4e/1x1
I0403 19:46:32.207343 25856 net.cpp:425] inception_4e/1x1 <- inception_4d/output_inception_4d/output_0_split_1
I0403 19:46:32.207365 25856 net.cpp:399] inception_4e/1x1 -> inception_4e/1x1
I0403 19:46:32.209125 25856 net.cpp:141] Setting up inception_4e/1x1
I0403 19:46:32.209157 25856 net.cpp:148] Top shape: 24 256 14 14 (1204224)
I0403 19:46:32.209175 25856 net.cpp:156] Memory required for data: 1213249056
I0403 19:46:32.209192 25856 layer_factory.hpp:77] Creating layer inception_4e/relu_1x1
I0403 19:46:32.209211 25856 net.cpp:91] Creating Layer inception_4e/relu_1x1
I0403 19:46:32.209228 25856 net.cpp:425] inception_4e/relu_1x1 <- inception_4e/1x1
I0403 19:46:32.209249 25856 net.cpp:386] inception_4e/relu_1x1 -> inception_4e/1x1 (in-place)
I0403 19:46:32.209547 25856 net.cpp:141] Setting up inception_4e/relu_1x1
I0403 19:46:32.209578 25856 net.cpp:148] Top shape: 24 256 14 14 (1204224)
I0403 19:46:32.209595 25856 net.cpp:156] Memory required for data: 1218065952
I0403 19:46:32.209610 25856 layer_factory.hpp:77] Creating layer inception_4e/3x3_reduce
I0403 19:46:32.209632 25856 net.cpp:91] Creating Layer inception_4e/3x3_reduce
I0403 19:46:32.209652 25856 net.cpp:425] inception_4e/3x3_reduce <- inception_4d/output_inception_4d/output_0_split_2
I0403 19:46:32.209676 25856 net.cpp:399] inception_4e/3x3_reduce -> inception_4e/3x3_reduce
I0403 19:46:32.211802 25856 net.cpp:141] Setting up inception_4e/3x3_reduce
I0403 19:46:32.211838 25856 net.cpp:148] Top shape: 24 160 14 14 (752640)
I0403 19:46:32.211858 25856 net.cpp:156] Memory required for data: 1221076512
I0403 19:46:32.211877 25856 layer_factory.hpp:77] Creating layer inception_4e/relu_3x3_reduce
I0403 19:46:32.211895 25856 net.cpp:91] Creating Layer inception_4e/relu_3x3_reduce
I0403 19:46:32.211912 25856 net.cpp:425] inception_4e/relu_3x3_reduce <- inception_4e/3x3_reduce
I0403 19:46:32.211935 25856 net.cpp:386] inception_4e/relu_3x3_reduce -> inception_4e/3x3_reduce (in-place)
I0403 19:46:32.212121 25856 net.cpp:141] Setting up inception_4e/relu_3x3_reduce
I0403 19:46:32.212151 25856 net.cpp:148] Top shape: 24 160 14 14 (752640)
I0403 19:46:32.212167 25856 net.cpp:156] Memory required for data: 1224087072
I0403 19:46:32.212182 25856 layer_factory.hpp:77] Creating layer inception_4e/3x3
I0403 19:46:32.212205 25856 net.cpp:91] Creating Layer inception_4e/3x3
I0403 19:46:32.212225 25856 net.cpp:425] inception_4e/3x3 <- inception_4e/3x3_reduce
I0403 19:46:32.212249 25856 net.cpp:399] inception_4e/3x3 -> inception_4e/3x3
I0403 19:46:32.217262 25856 net.cpp:141] Setting up inception_4e/3x3
I0403 19:46:32.217305 25856 net.cpp:148] Top shape: 24 320 14 14 (1505280)
I0403 19:46:32.217324 25856 net.cpp:156] Memory required for data: 1230108192
I0403 19:46:32.217342 25856 layer_factory.hpp:77] Creating layer inception_4e/relu_3x3
I0403 19:46:32.217365 25856 net.cpp:91] Creating Layer inception_4e/relu_3x3
I0403 19:46:32.217386 25856 net.cpp:425] inception_4e/relu_3x3 <- inception_4e/3x3
I0403 19:46:32.217406 25856 net.cpp:386] inception_4e/relu_3x3 -> inception_4e/3x3 (in-place)
I0403 19:46:32.217694 25856 net.cpp:141] Setting up inception_4e/relu_3x3
I0403 19:46:32.217721 25856 net.cpp:148] Top shape: 24 320 14 14 (1505280)
I0403 19:46:32.217737 25856 net.cpp:156] Memory required for data: 1236129312
I0403 19:46:32.217752 25856 layer_factory.hpp:77] Creating layer inception_4e/5x5_reduce
I0403 19:46:32.217780 25856 net.cpp:91] Creating Layer inception_4e/5x5_reduce
I0403 19:46:32.217802 25856 net.cpp:425] inception_4e/5x5_reduce <- inception_4d/output_inception_4d/output_0_split_3
I0403 19:46:32.217823 25856 net.cpp:399] inception_4e/5x5_reduce -> inception_4e/5x5_reduce
I0403 19:46:32.218857 25856 net.cpp:141] Setting up inception_4e/5x5_reduce
I0403 19:46:32.218888 25856 net.cpp:148] Top shape: 24 32 14 14 (150528)
I0403 19:46:32.218905 25856 net.cpp:156] Memory required for data: 1236731424
I0403 19:46:32.218924 25856 layer_factory.hpp:77] Creating layer inception_4e/relu_5x5_reduce
I0403 19:46:32.218942 25856 net.cpp:91] Creating Layer inception_4e/relu_5x5_reduce
I0403 19:46:32.218961 25856 net.cpp:425] inception_4e/relu_5x5_reduce <- inception_4e/5x5_reduce
I0403 19:46:32.218981 25856 net.cpp:386] inception_4e/relu_5x5_reduce -> inception_4e/5x5_reduce (in-place)
I0403 19:46:32.219279 25856 net.cpp:141] Setting up inception_4e/relu_5x5_reduce
I0403 19:46:32.219319 25856 net.cpp:148] Top shape: 24 32 14 14 (150528)
I0403 19:46:32.219336 25856 net.cpp:156] Memory required for data: 1237333536
I0403 19:46:32.219354 25856 layer_factory.hpp:77] Creating layer inception_4e/5x5
I0403 19:46:32.219394 25856 net.cpp:91] Creating Layer inception_4e/5x5
I0403 19:46:32.219416 25856 net.cpp:425] inception_4e/5x5 <- inception_4e/5x5_reduce
I0403 19:46:32.219439 25856 net.cpp:399] inception_4e/5x5 -> inception_4e/5x5
I0403 19:46:32.221328 25856 net.cpp:141] Setting up inception_4e/5x5
I0403 19:46:32.221366 25856 net.cpp:148] Top shape: 24 128 14 14 (602112)
I0403 19:46:32.221386 25856 net.cpp:156] Memory required for data: 1239741984
I0403 19:46:32.221407 25856 layer_factory.hpp:77] Creating layer inception_4e/relu_5x5
I0403 19:46:32.221427 25856 net.cpp:91] Creating Layer inception_4e/relu_5x5
I0403 19:46:32.221444 25856 net.cpp:425] inception_4e/relu_5x5 <- inception_4e/5x5
I0403 19:46:32.221463 25856 net.cpp:386] inception_4e/relu_5x5 -> inception_4e/5x5 (in-place)
I0403 19:46:32.221673 25856 net.cpp:141] Setting up inception_4e/relu_5x5
I0403 19:46:32.221703 25856 net.cpp:148] Top shape: 24 128 14 14 (602112)
I0403 19:46:32.221720 25856 net.cpp:156] Memory required for data: 1242150432
I0403 19:46:32.221736 25856 layer_factory.hpp:77] Creating layer inception_4e/pool
I0403 19:46:32.221755 25856 net.cpp:91] Creating Layer inception_4e/pool
I0403 19:46:32.221772 25856 net.cpp:425] inception_4e/pool <- inception_4d/output_inception_4d/output_0_split_4
I0403 19:46:32.221794 25856 net.cpp:399] inception_4e/pool -> inception_4e/pool
I0403 19:46:32.221880 25856 net.cpp:141] Setting up inception_4e/pool
I0403 19:46:32.221910 25856 net.cpp:148] Top shape: 24 528 14 14 (2483712)
I0403 19:46:32.221927 25856 net.cpp:156] Memory required for data: 1252085280
I0403 19:46:32.221943 25856 layer_factory.hpp:77] Creating layer inception_4e/pool_proj
I0403 19:46:32.221966 25856 net.cpp:91] Creating Layer inception_4e/pool_proj
I0403 19:46:32.221988 25856 net.cpp:425] inception_4e/pool_proj <- inception_4e/pool
I0403 19:46:32.222009 25856 net.cpp:399] inception_4e/pool_proj -> inception_4e/pool_proj
I0403 19:46:32.223526 25856 net.cpp:141] Setting up inception_4e/pool_proj
I0403 19:46:32.223572 25856 net.cpp:148] Top shape: 24 128 14 14 (602112)
I0403 19:46:32.223590 25856 net.cpp:156] Memory required for data: 1254493728
I0403 19:46:32.223610 25856 layer_factory.hpp:77] Creating layer inception_4e/relu_pool_proj
I0403 19:46:32.223630 25856 net.cpp:91] Creating Layer inception_4e/relu_pool_proj
I0403 19:46:32.223649 25856 net.cpp:425] inception_4e/relu_pool_proj <- inception_4e/pool_proj
I0403 19:46:32.223669 25856 net.cpp:386] inception_4e/relu_pool_proj -> inception_4e/pool_proj (in-place)
I0403 19:46:32.223963 25856 net.cpp:141] Setting up inception_4e/relu_pool_proj
I0403 19:46:32.223995 25856 net.cpp:148] Top shape: 24 128 14 14 (602112)
I0403 19:46:32.224015 25856 net.cpp:156] Memory required for data: 1256902176
I0403 19:46:32.224032 25856 layer_factory.hpp:77] Creating layer inception_4e/output
I0403 19:46:32.224050 25856 net.cpp:91] Creating Layer inception_4e/output
I0403 19:46:32.224068 25856 net.cpp:425] inception_4e/output <- inception_4e/1x1
I0403 19:46:32.224086 25856 net.cpp:425] inception_4e/output <- inception_4e/3x3
I0403 19:46:32.224103 25856 net.cpp:425] inception_4e/output <- inception_4e/5x5
I0403 19:46:32.224119 25856 net.cpp:425] inception_4e/output <- inception_4e/pool_proj
I0403 19:46:32.224138 25856 net.cpp:399] inception_4e/output -> inception_4e/output
I0403 19:46:32.224190 25856 net.cpp:141] Setting up inception_4e/output
I0403 19:46:32.224220 25856 net.cpp:148] Top shape: 24 832 14 14 (3913728)
I0403 19:46:32.224238 25856 net.cpp:156] Memory required for data: 1272557088
I0403 19:46:32.224267 25856 layer_factory.hpp:77] Creating layer pool4/3x3_s2
I0403 19:46:32.224292 25856 net.cpp:91] Creating Layer pool4/3x3_s2
I0403 19:46:32.224313 25856 net.cpp:425] pool4/3x3_s2 <- inception_4e/output
I0403 19:46:32.224340 25856 net.cpp:399] pool4/3x3_s2 -> pool4/3x3_s2
I0403 19:46:32.224411 25856 net.cpp:141] Setting up pool4/3x3_s2
I0403 19:46:32.224436 25856 net.cpp:148] Top shape: 24 832 7 7 (978432)
I0403 19:46:32.224453 25856 net.cpp:156] Memory required for data: 1276470816
I0403 19:46:32.224468 25856 layer_factory.hpp:77] Creating layer pool4/3x3_s2_pool4/3x3_s2_0_split
I0403 19:46:32.224488 25856 net.cpp:91] Creating Layer pool4/3x3_s2_pool4/3x3_s2_0_split
I0403 19:46:32.224505 25856 net.cpp:425] pool4/3x3_s2_pool4/3x3_s2_0_split <- pool4/3x3_s2
I0403 19:46:32.224527 25856 net.cpp:399] pool4/3x3_s2_pool4/3x3_s2_0_split -> pool4/3x3_s2_pool4/3x3_s2_0_split_0
I0403 19:46:32.224552 25856 net.cpp:399] pool4/3x3_s2_pool4/3x3_s2_0_split -> pool4/3x3_s2_pool4/3x3_s2_0_split_1
I0403 19:46:32.224575 25856 net.cpp:399] pool4/3x3_s2_pool4/3x3_s2_0_split -> pool4/3x3_s2_pool4/3x3_s2_0_split_2
I0403 19:46:32.224597 25856 net.cpp:399] pool4/3x3_s2_pool4/3x3_s2_0_split -> pool4/3x3_s2_pool4/3x3_s2_0_split_3
I0403 19:46:32.224688 25856 net.cpp:141] Setting up pool4/3x3_s2_pool4/3x3_s2_0_split
I0403 19:46:32.224716 25856 net.cpp:148] Top shape: 24 832 7 7 (978432)
I0403 19:46:32.224735 25856 net.cpp:148] Top shape: 24 832 7 7 (978432)
I0403 19:46:32.224752 25856 net.cpp:148] Top shape: 24 832 7 7 (978432)
I0403 19:46:32.224771 25856 net.cpp:148] Top shape: 24 832 7 7 (978432)
I0403 19:46:32.224787 25856 net.cpp:156] Memory required for data: 1292125728
I0403 19:46:32.224802 25856 layer_factory.hpp:77] Creating layer inception_5a/1x1
I0403 19:46:32.224825 25856 net.cpp:91] Creating Layer inception_5a/1x1
I0403 19:46:32.224845 25856 net.cpp:425] inception_5a/1x1 <- pool4/3x3_s2_pool4/3x3_s2_0_split_0
I0403 19:46:32.224866 25856 net.cpp:399] inception_5a/1x1 -> inception_5a/1x1
I0403 19:46:32.227888 25856 net.cpp:141] Setting up inception_5a/1x1
I0403 19:46:32.227922 25856 net.cpp:148] Top shape: 24 256 7 7 (301056)
I0403 19:46:32.227942 25856 net.cpp:156] Memory required for data: 1293329952
I0403 19:46:32.227962 25856 layer_factory.hpp:77] Creating layer inception_5a/relu_1x1
I0403 19:46:32.227982 25856 net.cpp:91] Creating Layer inception_5a/relu_1x1
I0403 19:46:32.227999 25856 net.cpp:425] inception_5a/relu_1x1 <- inception_5a/1x1
I0403 19:46:32.228021 25856 net.cpp:386] inception_5a/relu_1x1 -> inception_5a/1x1 (in-place)
I0403 19:46:32.228337 25856 net.cpp:141] Setting up inception_5a/relu_1x1
I0403 19:46:32.228370 25856 net.cpp:148] Top shape: 24 256 7 7 (301056)
I0403 19:46:32.228387 25856 net.cpp:156] Memory required for data: 1294534176
I0403 19:46:32.228404 25856 layer_factory.hpp:77] Creating layer inception_5a/3x3_reduce
I0403 19:46:32.228426 25856 net.cpp:91] Creating Layer inception_5a/3x3_reduce
I0403 19:46:32.228447 25856 net.cpp:425] inception_5a/3x3_reduce <- pool4/3x3_s2_pool4/3x3_s2_0_split_1
I0403 19:46:32.228471 25856 net.cpp:399] inception_5a/3x3_reduce -> inception_5a/3x3_reduce
I0403 19:46:32.230974 25856 net.cpp:141] Setting up inception_5a/3x3_reduce
I0403 19:46:32.231004 25856 net.cpp:148] Top shape: 24 160 7 7 (188160)
I0403 19:46:32.231022 25856 net.cpp:156] Memory required for data: 1295286816
I0403 19:46:32.231040 25856 layer_factory.hpp:77] Creating layer inception_5a/relu_3x3_reduce
I0403 19:46:32.231061 25856 net.cpp:91] Creating Layer inception_5a/relu_3x3_reduce
I0403 19:46:32.231082 25856 net.cpp:425] inception_5a/relu_3x3_reduce <- inception_5a/3x3_reduce
I0403 19:46:32.231101 25856 net.cpp:386] inception_5a/relu_3x3_reduce -> inception_5a/3x3_reduce (in-place)
I0403 19:46:32.231287 25856 net.cpp:141] Setting up inception_5a/relu_3x3_reduce
I0403 19:46:32.231317 25856 net.cpp:148] Top shape: 24 160 7 7 (188160)
I0403 19:46:32.231334 25856 net.cpp:156] Memory required for data: 1296039456
I0403 19:46:32.231351 25856 layer_factory.hpp:77] Creating layer inception_5a/3x3
I0403 19:46:32.231374 25856 net.cpp:91] Creating Layer inception_5a/3x3
I0403 19:46:32.231395 25856 net.cpp:425] inception_5a/3x3 <- inception_5a/3x3_reduce
I0403 19:46:32.231413 25856 net.cpp:399] inception_5a/3x3 -> inception_5a/3x3
I0403 19:46:32.236397 25856 net.cpp:141] Setting up inception_5a/3x3
I0403 19:46:32.236430 25856 net.cpp:148] Top shape: 24 320 7 7 (376320)
I0403 19:46:32.236448 25856 net.cpp:156] Memory required for data: 1297544736
I0403 19:46:32.236467 25856 layer_factory.hpp:77] Creating layer inception_5a/relu_3x3
I0403 19:46:32.236486 25856 net.cpp:91] Creating Layer inception_5a/relu_3x3
I0403 19:46:32.236505 25856 net.cpp:425] inception_5a/relu_3x3 <- inception_5a/3x3
I0403 19:46:32.236524 25856 net.cpp:386] inception_5a/relu_3x3 -> inception_5a/3x3 (in-place)
I0403 19:46:32.236807 25856 net.cpp:141] Setting up inception_5a/relu_3x3
I0403 19:46:32.236837 25856 net.cpp:148] Top shape: 24 320 7 7 (376320)
I0403 19:46:32.236855 25856 net.cpp:156] Memory required for data: 1299050016
I0403 19:46:32.236871 25856 layer_factory.hpp:77] Creating layer inception_5a/5x5_reduce
I0403 19:46:32.236894 25856 net.cpp:91] Creating Layer inception_5a/5x5_reduce
I0403 19:46:32.236914 25856 net.cpp:425] inception_5a/5x5_reduce <- pool4/3x3_s2_pool4/3x3_s2_0_split_2
I0403 19:46:32.236937 25856 net.cpp:399] inception_5a/5x5_reduce -> inception_5a/5x5_reduce
I0403 19:46:32.238067 25856 net.cpp:141] Setting up inception_5a/5x5_reduce
I0403 19:46:32.238100 25856 net.cpp:148] Top shape: 24 32 7 7 (37632)
I0403 19:46:32.238118 25856 net.cpp:156] Memory required for data: 1299200544
I0403 19:46:32.238138 25856 layer_factory.hpp:77] Creating layer inception_5a/relu_5x5_reduce
I0403 19:46:32.238158 25856 net.cpp:91] Creating Layer inception_5a/relu_5x5_reduce
I0403 19:46:32.238180 25856 net.cpp:425] inception_5a/relu_5x5_reduce <- inception_5a/5x5_reduce
I0403 19:46:32.238199 25856 net.cpp:386] inception_5a/relu_5x5_reduce -> inception_5a/5x5_reduce (in-place)
I0403 19:46:32.238492 25856 net.cpp:141] Setting up inception_5a/relu_5x5_reduce
I0403 19:46:32.238519 25856 net.cpp:148] Top shape: 24 32 7 7 (37632)
I0403 19:46:32.238538 25856 net.cpp:156] Memory required for data: 1299351072
I0403 19:46:32.238553 25856 layer_factory.hpp:77] Creating layer inception_5a/5x5
I0403 19:46:32.238574 25856 net.cpp:91] Creating Layer inception_5a/5x5
I0403 19:46:32.238593 25856 net.cpp:425] inception_5a/5x5 <- inception_5a/5x5_reduce
I0403 19:46:32.238615 25856 net.cpp:399] inception_5a/5x5 -> inception_5a/5x5
I0403 19:46:32.240296 25856 net.cpp:141] Setting up inception_5a/5x5
I0403 19:46:32.240339 25856 net.cpp:148] Top shape: 24 128 7 7 (150528)
I0403 19:46:32.240358 25856 net.cpp:156] Memory required for data: 1299953184
I0403 19:46:32.240376 25856 layer_factory.hpp:77] Creating layer inception_5a/relu_5x5
I0403 19:46:32.240396 25856 net.cpp:91] Creating Layer inception_5a/relu_5x5
I0403 19:46:32.240414 25856 net.cpp:425] inception_5a/relu_5x5 <- inception_5a/5x5
I0403 19:46:32.240437 25856 net.cpp:386] inception_5a/relu_5x5 -> inception_5a/5x5 (in-place)
I0403 19:46:32.240623 25856 net.cpp:141] Setting up inception_5a/relu_5x5
I0403 19:46:32.240650 25856 net.cpp:148] Top shape: 24 128 7 7 (150528)
I0403 19:46:32.240667 25856 net.cpp:156] Memory required for data: 1300555296
I0403 19:46:32.240681 25856 layer_factory.hpp:77] Creating layer inception_5a/pool
I0403 19:46:32.240700 25856 net.cpp:91] Creating Layer inception_5a/pool
I0403 19:46:32.240720 25856 net.cpp:425] inception_5a/pool <- pool4/3x3_s2_pool4/3x3_s2_0_split_3
I0403 19:46:32.240741 25856 net.cpp:399] inception_5a/pool -> inception_5a/pool
I0403 19:46:32.240810 25856 net.cpp:141] Setting up inception_5a/pool
I0403 19:46:32.240838 25856 net.cpp:148] Top shape: 24 832 7 7 (978432)
I0403 19:46:32.240855 25856 net.cpp:156] Memory required for data: 1304469024
I0403 19:46:32.240869 25856 layer_factory.hpp:77] Creating layer inception_5a/pool_proj
I0403 19:46:32.240892 25856 net.cpp:91] Creating Layer inception_5a/pool_proj
I0403 19:46:32.240913 25856 net.cpp:425] inception_5a/pool_proj <- inception_5a/pool
I0403 19:46:32.240934 25856 net.cpp:399] inception_5a/pool_proj -> inception_5a/pool_proj
I0403 19:46:32.243136 25856 net.cpp:141] Setting up inception_5a/pool_proj
I0403 19:46:32.243166 25856 net.cpp:148] Top shape: 24 128 7 7 (150528)
I0403 19:46:32.243182 25856 net.cpp:156] Memory required for data: 1305071136
I0403 19:46:32.243203 25856 layer_factory.hpp:77] Creating layer inception_5a/relu_pool_proj
I0403 19:46:32.243223 25856 net.cpp:91] Creating Layer inception_5a/relu_pool_proj
I0403 19:46:32.243242 25856 net.cpp:425] inception_5a/relu_pool_proj <- inception_5a/pool_proj
I0403 19:46:32.243264 25856 net.cpp:386] inception_5a/relu_pool_proj -> inception_5a/pool_proj (in-place)
I0403 19:46:32.243548 25856 net.cpp:141] Setting up inception_5a/relu_pool_proj
I0403 19:46:32.243579 25856 net.cpp:148] Top shape: 24 128 7 7 (150528)
I0403 19:46:32.243597 25856 net.cpp:156] Memory required for data: 1305673248
I0403 19:46:32.243613 25856 layer_factory.hpp:77] Creating layer inception_5a/output
I0403 19:46:32.243630 25856 net.cpp:91] Creating Layer inception_5a/output
I0403 19:46:32.243649 25856 net.cpp:425] inception_5a/output <- inception_5a/1x1
I0403 19:46:32.243666 25856 net.cpp:425] inception_5a/output <- inception_5a/3x3
I0403 19:46:32.243682 25856 net.cpp:425] inception_5a/output <- inception_5a/5x5
I0403 19:46:32.243700 25856 net.cpp:425] inception_5a/output <- inception_5a/pool_proj
I0403 19:46:32.243717 25856 net.cpp:399] inception_5a/output -> inception_5a/output
I0403 19:46:32.243769 25856 net.cpp:141] Setting up inception_5a/output
I0403 19:46:32.243793 25856 net.cpp:148] Top shape: 24 832 7 7 (978432)
I0403 19:46:32.243810 25856 net.cpp:156] Memory required for data: 1309586976
I0403 19:46:32.243826 25856 layer_factory.hpp:77] Creating layer inception_5a/output_inception_5a/output_0_split
I0403 19:46:32.243844 25856 net.cpp:91] Creating Layer inception_5a/output_inception_5a/output_0_split
I0403 19:46:32.243860 25856 net.cpp:425] inception_5a/output_inception_5a/output_0_split <- inception_5a/output
I0403 19:46:32.243881 25856 net.cpp:399] inception_5a/output_inception_5a/output_0_split -> inception_5a/output_inception_5a/output_0_split_0
I0403 19:46:32.243903 25856 net.cpp:399] inception_5a/output_inception_5a/output_0_split -> inception_5a/output_inception_5a/output_0_split_1
I0403 19:46:32.243926 25856 net.cpp:399] inception_5a/output_inception_5a/output_0_split -> inception_5a/output_inception_5a/output_0_split_2
I0403 19:46:32.243948 25856 net.cpp:399] inception_5a/output_inception_5a/output_0_split -> inception_5a/output_inception_5a/output_0_split_3
I0403 19:46:32.244062 25856 net.cpp:141] Setting up inception_5a/output_inception_5a/output_0_split
I0403 19:46:32.244088 25856 net.cpp:148] Top shape: 24 832 7 7 (978432)
I0403 19:46:32.244105 25856 net.cpp:148] Top shape: 24 832 7 7 (978432)
I0403 19:46:32.244122 25856 net.cpp:148] Top shape: 24 832 7 7 (978432)
I0403 19:46:32.244139 25856 net.cpp:148] Top shape: 24 832 7 7 (978432)
I0403 19:46:32.244154 25856 net.cpp:156] Memory required for data: 1325241888
I0403 19:46:32.244168 25856 layer_factory.hpp:77] Creating layer inception_5b/1x1
I0403 19:46:32.244191 25856 net.cpp:91] Creating Layer inception_5b/1x1
I0403 19:46:32.244211 25856 net.cpp:425] inception_5b/1x1 <- inception_5a/output_inception_5a/output_0_split_0
I0403 19:46:32.244233 25856 net.cpp:399] inception_5b/1x1 -> inception_5b/1x1
I0403 19:46:32.247901 25856 net.cpp:141] Setting up inception_5b/1x1
I0403 19:46:32.247932 25856 net.cpp:148] Top shape: 24 384 7 7 (451584)
I0403 19:46:32.247949 25856 net.cpp:156] Memory required for data: 1327048224
I0403 19:46:32.247968 25856 layer_factory.hpp:77] Creating layer inception_5b/relu_1x1
I0403 19:46:32.247992 25856 net.cpp:91] Creating Layer inception_5b/relu_1x1
I0403 19:46:32.248011 25856 net.cpp:425] inception_5b/relu_1x1 <- inception_5b/1x1
I0403 19:46:32.248031 25856 net.cpp:386] inception_5b/relu_1x1 -> inception_5b/1x1 (in-place)
I0403 19:46:32.248330 25856 net.cpp:141] Setting up inception_5b/relu_1x1
I0403 19:46:32.248358 25856 net.cpp:148] Top shape: 24 384 7 7 (451584)
I0403 19:46:32.248374 25856 net.cpp:156] Memory required for data: 1328854560
I0403 19:46:32.248389 25856 layer_factory.hpp:77] Creating layer inception_5b/3x3_reduce
I0403 19:46:32.248412 25856 net.cpp:91] Creating Layer inception_5b/3x3_reduce
I0403 19:46:32.248431 25856 net.cpp:425] inception_5b/3x3_reduce <- inception_5a/output_inception_5a/output_0_split_1
I0403 19:46:32.248453 25856 net.cpp:399] inception_5b/3x3_reduce -> inception_5b/3x3_reduce
I0403 19:46:32.251026 25856 net.cpp:141] Setting up inception_5b/3x3_reduce
I0403 19:46:32.251057 25856 net.cpp:148] Top shape: 24 192 7 7 (225792)
I0403 19:46:32.251073 25856 net.cpp:156] Memory required for data: 1329757728
I0403 19:46:32.251093 25856 layer_factory.hpp:77] Creating layer inception_5b/relu_3x3_reduce
I0403 19:46:32.251113 25856 net.cpp:91] Creating Layer inception_5b/relu_3x3_reduce
I0403 19:46:32.251132 25856 net.cpp:425] inception_5b/relu_3x3_reduce <- inception_5b/3x3_reduce
I0403 19:46:32.251150 25856 net.cpp:386] inception_5b/relu_3x3_reduce -> inception_5b/3x3_reduce (in-place)
I0403 19:46:32.251340 25856 net.cpp:141] Setting up inception_5b/relu_3x3_reduce
I0403 19:46:32.251379 25856 net.cpp:148] Top shape: 24 192 7 7 (225792)
I0403 19:46:32.251396 25856 net.cpp:156] Memory required for data: 1330660896
I0403 19:46:32.251412 25856 layer_factory.hpp:77] Creating layer inception_5b/3x3
I0403 19:46:32.251435 25856 net.cpp:91] Creating Layer inception_5b/3x3
I0403 19:46:32.251456 25856 net.cpp:425] inception_5b/3x3 <- inception_5b/3x3_reduce
I0403 19:46:32.251478 25856 net.cpp:399] inception_5b/3x3 -> inception_5b/3x3
I0403 19:46:32.258097 25856 net.cpp:141] Setting up inception_5b/3x3
I0403 19:46:32.258131 25856 net.cpp:148] Top shape: 24 384 7 7 (451584)
I0403 19:46:32.258150 25856 net.cpp:156] Memory required for data: 1332467232
I0403 19:46:32.258169 25856 layer_factory.hpp:77] Creating layer inception_5b/relu_3x3
I0403 19:46:32.258189 25856 net.cpp:91] Creating Layer inception_5b/relu_3x3
I0403 19:46:32.258208 25856 net.cpp:425] inception_5b/relu_3x3 <- inception_5b/3x3
I0403 19:46:32.258230 25856 net.cpp:386] inception_5b/relu_3x3 -> inception_5b/3x3 (in-place)
I0403 19:46:32.258528 25856 net.cpp:141] Setting up inception_5b/relu_3x3
I0403 19:46:32.258560 25856 net.cpp:148] Top shape: 24 384 7 7 (451584)
I0403 19:46:32.258579 25856 net.cpp:156] Memory required for data: 1334273568
I0403 19:46:32.258594 25856 layer_factory.hpp:77] Creating layer inception_5b/5x5_reduce
I0403 19:46:32.258635 25856 net.cpp:91] Creating Layer inception_5b/5x5_reduce
I0403 19:46:32.258656 25856 net.cpp:425] inception_5b/5x5_reduce <- inception_5a/output_inception_5a/output_0_split_2
I0403 19:46:32.258677 25856 net.cpp:399] inception_5b/5x5_reduce -> inception_5b/5x5_reduce
I0403 19:46:32.259915 25856 net.cpp:141] Setting up inception_5b/5x5_reduce
I0403 19:46:32.259949 25856 net.cpp:148] Top shape: 24 48 7 7 (56448)
I0403 19:46:32.259970 25856 net.cpp:156] Memory required for data: 1334499360
I0403 19:46:32.259990 25856 layer_factory.hpp:77] Creating layer inception_5b/relu_5x5_reduce
I0403 19:46:32.260010 25856 net.cpp:91] Creating Layer inception_5b/relu_5x5_reduce
I0403 19:46:32.260030 25856 net.cpp:425] inception_5b/relu_5x5_reduce <- inception_5b/5x5_reduce
I0403 19:46:32.260048 25856 net.cpp:386] inception_5b/relu_5x5_reduce -> inception_5b/5x5_reduce (in-place)
I0403 19:46:32.260418 25856 net.cpp:141] Setting up inception_5b/relu_5x5_reduce
I0403 19:46:32.260449 25856 net.cpp:148] Top shape: 24 48 7 7 (56448)
I0403 19:46:32.260468 25856 net.cpp:156] Memory required for data: 1334725152
I0403 19:46:32.260484 25856 layer_factory.hpp:77] Creating layer inception_5b/5x5
I0403 19:46:32.260505 25856 net.cpp:91] Creating Layer inception_5b/5x5
I0403 19:46:32.260527 25856 net.cpp:425] inception_5b/5x5 <- inception_5b/5x5_reduce
I0403 19:46:32.260547 25856 net.cpp:399] inception_5b/5x5 -> inception_5b/5x5
I0403 19:46:32.262534 25856 net.cpp:141] Setting up inception_5b/5x5
I0403 19:46:32.262567 25856 net.cpp:148] Top shape: 24 128 7 7 (150528)
I0403 19:46:32.262586 25856 net.cpp:156] Memory required for data: 1335327264
I0403 19:46:32.262605 25856 layer_factory.hpp:77] Creating layer inception_5b/relu_5x5
I0403 19:46:32.262626 25856 net.cpp:91] Creating Layer inception_5b/relu_5x5
I0403 19:46:32.262645 25856 net.cpp:425] inception_5b/relu_5x5 <- inception_5b/5x5
I0403 19:46:32.262666 25856 net.cpp:386] inception_5b/relu_5x5 -> inception_5b/5x5 (in-place)
I0403 19:46:32.262857 25856 net.cpp:141] Setting up inception_5b/relu_5x5
I0403 19:46:32.262886 25856 net.cpp:148] Top shape: 24 128 7 7 (150528)
I0403 19:46:32.262902 25856 net.cpp:156] Memory required for data: 1335929376
I0403 19:46:32.262918 25856 layer_factory.hpp:77] Creating layer inception_5b/pool
I0403 19:46:32.262940 25856 net.cpp:91] Creating Layer inception_5b/pool
I0403 19:46:32.262958 25856 net.cpp:425] inception_5b/pool <- inception_5a/output_inception_5a/output_0_split_3
I0403 19:46:32.262981 25856 net.cpp:399] inception_5b/pool -> inception_5b/pool
I0403 19:46:32.263056 25856 net.cpp:141] Setting up inception_5b/pool
I0403 19:46:32.263083 25856 net.cpp:148] Top shape: 24 832 7 7 (978432)
I0403 19:46:32.263099 25856 net.cpp:156] Memory required for data: 1339843104
I0403 19:46:32.263113 25856 layer_factory.hpp:77] Creating layer inception_5b/pool_proj
I0403 19:46:32.263139 25856 net.cpp:91] Creating Layer inception_5b/pool_proj
I0403 19:46:32.263159 25856 net.cpp:425] inception_5b/pool_proj <- inception_5b/pool
I0403 19:46:32.263181 25856 net.cpp:399] inception_5b/pool_proj -> inception_5b/pool_proj
I0403 19:46:32.265455 25856 net.cpp:141] Setting up inception_5b/pool_proj
I0403 19:46:32.265493 25856 net.cpp:148] Top shape: 24 128 7 7 (150528)
I0403 19:46:32.265513 25856 net.cpp:156] Memory required for data: 1340445216
I0403 19:46:32.265532 25856 layer_factory.hpp:77] Creating layer inception_5b/relu_pool_proj
I0403 19:46:32.265552 25856 net.cpp:91] Creating Layer inception_5b/relu_pool_proj
I0403 19:46:32.265571 25856 net.cpp:425] inception_5b/relu_pool_proj <- inception_5b/pool_proj
I0403 19:46:32.265589 25856 net.cpp:386] inception_5b/relu_pool_proj -> inception_5b/pool_proj (in-place)
I0403 19:46:32.265877 25856 net.cpp:141] Setting up inception_5b/relu_pool_proj
I0403 19:46:32.265909 25856 net.cpp:148] Top shape: 24 128 7 7 (150528)
I0403 19:46:32.265929 25856 net.cpp:156] Memory required for data: 1341047328
I0403 19:46:32.265945 25856 layer_factory.hpp:77] Creating layer inception_5b/output
I0403 19:46:32.265964 25856 net.cpp:91] Creating Layer inception_5b/output
I0403 19:46:32.265995 25856 net.cpp:425] inception_5b/output <- inception_5b/1x1
I0403 19:46:32.266015 25856 net.cpp:425] inception_5b/output <- inception_5b/3x3
I0403 19:46:32.266031 25856 net.cpp:425] inception_5b/output <- inception_5b/5x5
I0403 19:46:32.266050 25856 net.cpp:425] inception_5b/output <- inception_5b/pool_proj
I0403 19:46:32.266069 25856 net.cpp:399] inception_5b/output -> inception_5b/output
I0403 19:46:32.266124 25856 net.cpp:141] Setting up inception_5b/output
I0403 19:46:32.266151 25856 net.cpp:148] Top shape: 24 1024 7 7 (1204224)
I0403 19:46:32.266168 25856 net.cpp:156] Memory required for data: 1345864224
I0403 19:46:32.266185 25856 layer_factory.hpp:77] Creating layer pool5/7x7_s1
I0403 19:46:32.266204 25856 net.cpp:91] Creating Layer pool5/7x7_s1
I0403 19:46:32.266225 25856 net.cpp:425] pool5/7x7_s1 <- inception_5b/output
I0403 19:46:32.266243 25856 net.cpp:399] pool5/7x7_s1 -> pool5/7x7_s1
I0403 19:46:32.266461 25856 net.cpp:141] Setting up pool5/7x7_s1
I0403 19:46:32.266490 25856 net.cpp:148] Top shape: 24 1024 1 1 (24576)
I0403 19:46:32.266506 25856 net.cpp:156] Memory required for data: 1345962528
I0403 19:46:32.266523 25856 layer_factory.hpp:77] Creating layer pool5/drop_7x7_s1
I0403 19:46:32.266541 25856 net.cpp:91] Creating Layer pool5/drop_7x7_s1
I0403 19:46:32.266558 25856 net.cpp:425] pool5/drop_7x7_s1 <- pool5/7x7_s1
I0403 19:46:32.266578 25856 net.cpp:386] pool5/drop_7x7_s1 -> pool5/7x7_s1 (in-place)
I0403 19:46:32.266629 25856 net.cpp:141] Setting up pool5/drop_7x7_s1
I0403 19:46:32.266656 25856 net.cpp:148] Top shape: 24 1024 1 1 (24576)
I0403 19:46:32.266674 25856 net.cpp:156] Memory required for data: 1346060832
I0403 19:46:32.266690 25856 layer_factory.hpp:77] Creating layer loss3/classifier_plantvillage
I0403 19:46:32.266713 25856 net.cpp:91] Creating Layer loss3/classifier_plantvillage
I0403 19:46:32.266731 25856 net.cpp:425] loss3/classifier_plantvillage <- pool5/7x7_s1
I0403 19:46:32.266752 25856 net.cpp:399] loss3/classifier_plantvillage -> loss3/classifier_plantvillage
I0403 19:46:32.267174 25856 net.cpp:141] Setting up loss3/classifier_plantvillage
I0403 19:46:32.267204 25856 net.cpp:148] Top shape: 24 38 (912)
I0403 19:46:32.267220 25856 net.cpp:156] Memory required for data: 1346064480
I0403 19:46:32.267240 25856 layer_factory.hpp:77] Creating layer loss3/classifier_plantvillage_loss3/classifier_plantvillage_0_split
I0403 19:46:32.267263 25856 net.cpp:91] Creating Layer loss3/classifier_plantvillage_loss3/classifier_plantvillage_0_split
I0403 19:46:32.267282 25856 net.cpp:425] loss3/classifier_plantvillage_loss3/classifier_plantvillage_0_split <- loss3/classifier_plantvillage
I0403 19:46:32.267305 25856 net.cpp:399] loss3/classifier_plantvillage_loss3/classifier_plantvillage_0_split -> loss3/classifier_plantvillage_loss3/classifier_plantvillage_0_split_0
I0403 19:46:32.267330 25856 net.cpp:399] loss3/classifier_plantvillage_loss3/classifier_plantvillage_0_split -> loss3/classifier_plantvillage_loss3/classifier_plantvillage_0_split_1
I0403 19:46:32.267354 25856 net.cpp:399] loss3/classifier_plantvillage_loss3/classifier_plantvillage_0_split -> loss3/classifier_plantvillage_loss3/classifier_plantvillage_0_split_2
I0403 19:46:32.267379 25856 net.cpp:399] loss3/classifier_plantvillage_loss3/classifier_plantvillage_0_split -> loss3/classifier_plantvillage_loss3/classifier_plantvillage_0_split_3
I0403 19:46:32.267482 25856 net.cpp:141] Setting up loss3/classifier_plantvillage_loss3/classifier_plantvillage_0_split
I0403 19:46:32.267510 25856 net.cpp:148] Top shape: 24 38 (912)
I0403 19:46:32.267527 25856 net.cpp:148] Top shape: 24 38 (912)
I0403 19:46:32.267544 25856 net.cpp:148] Top shape: 24 38 (912)
I0403 19:46:32.267560 25856 net.cpp:148] Top shape: 24 38 (912)
I0403 19:46:32.267573 25856 net.cpp:156] Memory required for data: 1346079072
I0403 19:46:32.267588 25856 layer_factory.hpp:77] Creating layer loss1/loss
I0403 19:46:32.267612 25856 net.cpp:91] Creating Layer loss1/loss
I0403 19:46:32.267630 25856 net.cpp:425] loss1/loss <- loss1/classifier_plantvillage_loss1/classifier_plantvillage_0_split_0
I0403 19:46:32.267665 25856 net.cpp:425] loss1/loss <- label_data_1_split_0
…
