…
I0403 19:42:12.314950 25607 net.cpp:313] The NetState phase (1) differed from the phase (0) specified by a rule in layer data
I0403 19:42:12.316300 25607 net.cpp:49] Initializing net from parameters: 
state {
  phase: TEST
}
layer {
  name: "data"
  type: "Data"
  top: "data"
  top: "label"
  include {
    phase: TEST
  }
  transform_param {
    mirror: false
    crop_size: 224
    mean_file: "/home/mohanty/data/final_dataset/lmdb/grayscale-80-20/mean.binaryproto"
  }
  data_param {
    source: "/home/mohanty/data/final_dataset/lmdb/grayscale-80-20/test_db"
    batch_size: 24
    backend: LMDB
  }
}
layer {
  name: "conv1/7x7_s2"
  type: "Convolution"
  bottom: "data"
  top: "conv1/7x7_s2"
  param {
    lr_mult: 1
    decay_mult: 1
  }
  param {
    lr_mult: 2
    decay_mult: 0
  }
  convolution_param {
    num_output: 64
    pad: 3
    kernel_size: 7
    stride: 2
    weight_filler {
      type: "xavier"
      std: 0.1
    }
    bias_filler {
      type: "constant"
      value: 0.2
    }
  }
}
layer {
  name: "conv1/relu_7x7"
  type: "ReLU"
  bottom: "conv1/7x7_s2"
  top: "conv1/7x7_s2"
}
layer {
  name: "pool1/3x3_s2"
  type: "Pooling"
  bottom: "conv1/7x7_s2"
  top: "pool1/3x3_s2"
  pooling_param {
    pool: MAX
    kernel_size: 3
    stride: 2
  }
}
layer {
  name: "pool1/norm1"
  type: "LRN"
  bottom: "pool1/3x3_s2"
  top: "pool1/norm1"
  lrn_param {
    local_size: 5
    alpha: 0.0001
    beta: 0.75
  }
}
layer {
  name: "conv2/3x3_reduce"
  type: "Convolution"
  bottom: "pool1/norm1"
  top: "conv2/3x3_reduce"
  param {
    lr_mult: 1
    decay_mult: 1
  }
  param {
    lr_mult: 2
    decay_mult: 0
  }
  convolution_param {
    num_output: 64
    kernel_size: 1
    weight_filler {
      type: "xavier"
      std: 0.1
    }
    bias_filler {
      type: "constant"
      value: 0.2
    }
  }
}
layer {
  name: "conv2/relu_3x3_reduce"
  type: "ReLU"
  bottom: "conv2/3x3_reduce"
  top: "conv2/3x3_reduce"
}
layer {
  name: "conv2/3x3"
  type: "Convolution"
  bottom: "conv2/3x3_reduce"
  top: "conv2/3x3"
  param {
    lr_mult: 1
    decay_mult: 1
  }
  param {
    lr_mult: 2
    decay_mult: 0
  }
  convolution_param {
    num_output: 192
    pad: 1
    kernel_size: 3
    weight_filler {
      type: "xavier"
      std: 0.03
    }
    bias_filler {
      type: "constant"
      value: 0.2
    }
  }
}
layer {
  name: "conv2/relu_3x3"
  type: "ReLU"
  bottom: "conv2/3x3"
  top: "conv2/3x3"
}
layer {
  name: "conv2/norm2"
  type: "LRN"
  bottom: "conv2/3x3"
  top: "conv2/norm2"
  lrn_param {
    local_size: 5
    alpha: 0.0001
    beta: 0.75
  }
}
layer {
  name: "pool2/3x3_s2"
  type: "Pooling"
  bottom: "conv2/norm2"
  top: "pool2/3x3_s2"
  pooling_param {
    pool: MAX
    kernel_size: 3
    stride: 2
  }
}
layer {
  name: "inception_3a/1x1"
  type: "Convolution"
  bottom: "pool2/3x3_s2"
  top: "inception_3a/1x1"
  param {
    lr_mult: 1
    decay_mult: 1
  }
  param {
    lr_mult: 2
    decay_mult: 0
  }
  convolution_param {
    num_output: 64
    kernel_size: 1
    weight_filler {
      type: "xavier"
      std: 0.03
    }
    bias_filler {
      type: "constant"
      value: 0.2
    }
  }
}
layer {
  name: "inception_3a/relu_1x1"
  type: "ReLU"
  bottom: "inception_3a/1x1"
  top: "inception_3a/1x1"
}
layer {
  name: "inception_3a/3x3_reduce"
  type: "Convolution"
  bottom: "pool2/3x3_s2"
  top: "inception_3a/3x3_reduce"
  param {
    lr_mult: 1
    decay_mult: 1
  }
  param {
    lr_mult: 2
    decay_mult: 0
  }
  convolution_param {
    num_output: 96
    kernel_size: 1
    weight_filler {
      type: "xavier"
      std: 0.09
    }
    bias_filler {
      type: "constant"
      value: 0.2
    }
  }
}
layer {
  name: "inception_3a/relu_3x3_reduce"
  type: "ReLU"
  bottom: "inception_3a/3x3_reduce"
  top: "inception_3a/3x3_reduce"
}
layer {
  name: "inception_3a/3x3"
  type: "Convolution"
  bottom: "inception_3a/3x3_reduce"
  top: "inception_3a/3x3"
  param {
    lr_mult: 1
    decay_mult: 1
  }
  param {
    lr_mult: 2
    decay_mult: 0
  }
  convolution_param {
    num_output: 128
    pad: 1
    kernel_size: 3
    weight_filler {
      type: "xavier"
      std: 0.03
    }
    bias_filler {
      type: "constant"
      value: 0.2
    }
  }
}
layer {
  name: "inception_3a/relu_3x3"
  type: "ReLU"
  bottom: "inception_3a/3x3"
  top: "inception_3a/3x3"
}
layer {
  name: "inception_3a/5x5_reduce"
  type: "Convolution"
  bottom: "pool2/3x3_s2"
  top: "inception_3a/5x5_reduce"
  param {
    lr_mult: 1
    decay_mult: 1
  }
  param {
    lr_mult: 2
    decay_mult: 0
  }
  convolution_param {
    num_output: 16
    kernel_size: 1
    weight_filler {
      type: "xavier"
      std: 0.2
    }
    bias_filler {
      type: "constant"
      value: 0.2
    }
  }
}
layer {
  name: "inception_3a/relu_5x5_reduce"
  type: "ReLU"
  bottom: "inception_3a/5x5_reduce"
  top: "inception_3a/5x5_reduce"
}
layer {
  name: "inception_3a/5x5"
  type: "Convolution"
  bottom: "inception_3a/5x5_reduce"
  top: "inception_3a/5x5"
  param {
    lr_mult: 1
    decay_mult: 1
  }
  param {
    lr_mult: 2
    decay_mult: 0
  }
  convolution_param {
    num_output: 32
    pad: 2
    kernel_size: 5
    weight_filler {
      type: "xavier"
      std: 0.03
    }
    bias_filler {
      type: "constant"
      value: 0.2
    }
  }
}
layer {
  name: "inception_3a/relu_5x5"
  type: "ReLU"
  bottom: "inception_3a/5x5"
  top: "inception_3a/5x5"
}
layer {
  name: "inception_3a/pool"
  type: "Pooling"
  bottom: "pool2/3x3_s2"
  top: "inception_3a/pool"
  pooling_param {
    pool: MAX
    kernel_size: 3
    stride: 1
    pad: 1
  }
}
layer {
  name: "inception_3a/pool_proj"
  type: "Convolution"
  bottom: "inception_3a/pool"
  top: "inception_3a/pool_proj"
  param {
    lr_mult: 1
    decay_mult: 1
  }
  param {
    lr_mult: 2
    decay_mult: 0
  }
  convolution_param {
    num_output: 32
    kernel_size: 1
    weight_filler {
      type: "xavier"
      std: 0.1
    }
    bias_filler {
      type: "constant"
      value: 0.2
    }
  }
}
layer {
  name: "inception_3a/relu_pool_proj"
  type: "ReLU"
  bottom: "inception_3a/pool_proj"
  top: "inception_3a/pool_proj"
}
layer {
  name: "inception_3a/output"
  type: "Concat"
  bottom: "inception_3a/1x1"
  bottom: "inception_3a/3x3"
  bottom: "inception_3a/5x5"
  bottom: "inception_3a/pool_proj"
  top: "inception_3a/output"
}
layer {
  name: "inception_3b/1x1"
  type: "Convolution"
  bottom: "inception_3a/output"
  top: "inception_3b/1x1"
  param {
    lr_mult: 1
    decay_mult: 1
  }
  param {
    lr_mult: 2
    decay_mult: 0
  }
  convolution_param {
    num_output: 128
    kernel_size: 1
    weight_filler {
      type: "xavier"
      std: 0.03
    }
    bias_filler {
      type: "constant"
      value: 0.2
    }
  }
}
layer {
  name: "inception_3b/relu_1x1"
  type: "ReLU"
  bottom: "inception_3b/1x1"
  top: "inception_3b/1x1"
}
layer {
  name: "inception_3b/3x3_reduce"
  type: "Convolution"
  bottom: "inception_3a/output"
  top: "inception_3b/3x3_reduce"
  param {
    lr_mult: 1
    decay_mult: 1
  }
  param {
    lr_mult: 2
    decay_mult: 0
  }
  convolution_param {
    num_output: 128
    kernel_size: 1
    weight_filler {
      type: "xavier"
      std: 0.09
    }
    bias_filler {
      type: "constant"
      value: 0.2
    }
  }
}
layer {
  name: "inception_3b/relu_3x3_reduce"
  type: "ReLU"
  bottom: "inception_3b/3x3_reduce"
  top: "inception_3b/3x3_reduce"
}
layer {
  name: "inception_3b/3x3"
  type: "Convolution"
  bottom: "inception_3b/3x3_reduce"
  top: "inception_3b/3x3"
  param {
    lr_mult: 1
    decay_mult: 1
  }
  param {
    lr_mult: 2
    decay_mult: 0
  }
  convolution_param {
    num_output: 192
    pad: 1
    kernel_size: 3
    weight_filler {
      type: "xavier"
      std: 0.03
    }
    bias_filler {
      type: "constant"
      value: 0.2
    }
  }
}
layer {
  name: "inception_3b/relu_3x3"
  type: "ReLU"
  bottom: "inception_3b/3x3"
  top: "inception_3b/3x3"
}
layer {
  name: "inception_3b/5x5_reduce"
  type: "Convolution"
  bottom: "inception_3a/output"
  top: "inception_3b/5x5_reduce"
  param {
    lr_mult: 1
    decay_mult: 1
  }
  param {
    lr_mult: 2
    decay_mult: 0
  }
  convolution_param {
    num_output: 32
    kernel_size: 1
    weight_filler {
      type: "xavier"
      std: 0.2
    }
    bias_filler {
      type: "constant"
      value: 0.2
    }
  }
}
layer {
  name: "inception_3b/relu_5x5_reduce"
  type: "ReLU"
  bottom: "inception_3b/5x5_reduce"
  top: "inception_3b/5x5_reduce"
}
layer {
  name: "inception_3b/5x5"
  type: "Convolution"
  bottom: "inception_3b/5x5_reduce"
  top: "inception_3b/5x5"
  param {
    lr_mult: 1
    decay_mult: 1
  }
  param {
    lr_mult: 2
    decay_mult: 0
  }
  convolution_param {
    num_output: 96
    pad: 2
    kernel_size: 5
    weight_filler {
      type: "xavier"
      std: 0.03
    }
    bias_filler {
      type: "constant"
      value: 0.2
    }
  }
}
layer {
  name: "inception_3b/relu_5x5"
  type: "ReLU"
  bottom: "inception_3b/5x5"
  top: "inception_3b/5x5"
}
layer {
  name: "inception_3b/pool"
  type: "Pooling"
  bottom: "inception_3a/output"
  top: "inception_3b/pool"
  pooling_param {
    pool: MAX
    kernel_size: 3
    stride: 1
    pad: 1
  }
}
layer {
  name: "inception_3b/pool_proj"
  type: "Convolution"
  bottom: "inception_3b/pool"
  top: "inception_3b/pool_proj"
  param {
    lr_mult: 1
    decay_mult: 1
  }
  param {
    lr_mult: 2
    decay_mult: 0
  }
  convolution_param {
    num_output: 64
    kernel_size: 1
    weight_filler {
      type: "xavier"
      std: 0.1
    }
    bias_filler {
      type: "constant"
      value: 0.2
    }
  }
}
layer {
  name: "inception_3b/relu_pool_proj"
  type: "ReLU"
  bottom: "inception_3b/pool_proj"
  top: "inception_3b/pool_proj"
}
layer {
  name: "inception_3b/output"
  type: "Concat"
  bottom: "inception_3b/1x1"
  bottom: "inception_3b/3x3"
  bottom: "inception_3b/5x5"
  bottom: "inception_3b/pool_proj"
  top: "inception_3b/output"
}
layer {
  name: "pool3/3x3_s2"
  type: "Pooling"
  bottom: "inception_3b/output"
  top: "pool3/3x3_s2"
  pooling_param {
    pool: MAX
    kernel_size: 3
    stride: 2
  }
}
layer {
  name: "inception_4a/1x1"
  type: "Convolution"
  bottom: "pool3/3x3_s2"
  top: "inception_4a/1x1"
  param {
    lr_mult: 1
    decay_mult: 1
  }
  param {
    lr_mult: 2
    decay_mult: 0
  }
  convolution_param {
    num_output: 192
    kernel_size: 1
    weight_filler {
      type: "xavier"
      std: 0.03
    }
    bias_filler {
      type: "constant"
      value: 0.2
    }
  }
}
layer {
  name: "inception_4a/relu_1x1"
  type: "ReLU"
  bottom: "inception_4a/1x1"
  top: "inception_4a/1x1"
}
layer {
  name: "inception_4a/3x3_reduce"
  type: "Convolution"
  bottom: "pool3/3x3_s2"
  top: "inception_4a/3x3_reduce"
  param {
    lr_mult: 1
    decay_mult: 1
  }
  param {
    lr_mult: 2
    decay_mult: 0
  }
  convolution_param {
    num_output: 96
    kernel_size: 1
    weight_filler {
      type: "xavier"
      std: 0.09
    }
    bias_filler {
      type: "constant"
      value: 0.2
    }
  }
}
layer {
  name: "inception_4a/relu_3x3_reduce"
  type: "ReLU"
  bottom: "inception_4a/3x3_reduce"
  top: "inception_4a/3x3_reduce"
}
layer {
  name: "inception_4a/3x3"
  type: "Convolution"
  bottom: "inception_4a/3x3_reduce"
  top: "inception_4a/3x3"
  param {
    lr_mult: 1
    decay_mult: 1
  }
  param {
    lr_mult: 2
    decay_mult: 0
  }
  convolution_param {
    num_output: 208
    pad: 1
    kernel_size: 3
    weight_filler {
      type: "xavier"
      std: 0.03
    }
    bias_filler {
      type: "constant"
      value: 0.2
    }
  }
}
layer {
  name: "inception_4a/relu_3x3"
  type: "ReLU"
  bottom: "inception_4a/3x3"
  top: "inception_4a/3x3"
}
layer {
  name: "inception_4a/5x5_reduce"
  type: "Convolution"
  bottom: "pool3/3x3_s2"
  top: "inception_4a/5x5_reduce"
  param {
    lr_mult: 1
    decay_mult: 1
  }
  param {
    lr_mult: 2
    decay_mult: 0
  }
  convolution_param {
    num_output: 16
    kernel_size: 1
    weight_filler {
      type: "xavier"
      std: 0.2
    }
    bias_filler {
      type: "constant"
      value: 0.2
    }
  }
}
layer {
  name: "inception_4a/relu_5x5_reduce"
  type: "ReLU"
  bottom: "inception_4a/5x5_reduce"
  top: "inception_4a/5x5_reduce"
}
layer {
  name: "inception_4a/5x5"
  type: "Convolution"
  bottom: "inception_4a/5x5_reduce"
  top: "inception_4a/5x5"
  param {
    lr_mult: 1
    decay_mult: 1
  }
  param {
    lr_mult: 2
    decay_mult: 0
  }
  convolution_param {
    num_output: 48
    pad: 2
    kernel_size: 5
    weight_filler {
      type: "xavier"
      std: 0.03
    }
    bias_filler {
      type: "constant"
      value: 0.2
    }
  }
}
layer {
  name: "inception_4a/relu_5x5"
  type: "ReLU"
  bottom: "inception_4a/5x5"
  top: "inception_4a/5x5"
}
layer {
  name: "inception_4a/pool"
  type: "Pooling"
  bottom: "pool3/3x3_s2"
  top: "inception_4a/pool"
  pooling_param {
    pool: MAX
    kernel_size: 3
    stride: 1
    pad: 1
  }
}
layer {
  name: "inception_4a/pool_proj"
  type: "Convolution"
  bottom: "inception_4a/pool"
  top: "inception_4a/pool_proj"
  param {
    lr_mult: 1
    decay_mult: 1
  }
  param {
    lr_mult: 2
    decay_mult: 0
  }
  convolution_param {
    num_output: 64
    kernel_size: 1
    weight_filler {
      type: "xavier"
      std: 0.1
    }
    bias_filler {
      type: "constant"
      value: 0.2
    }
  }
}
layer {
  name: "inception_4a/relu_pool_proj"
  type: "ReLU"
  bottom: "inception_4a/pool_proj"
  top: "inception_4a/pool_proj"
}
layer {
  name: "inception_4a/output"
  type: "Concat"
  bottom: "inception_4a/1x1"
  bottom: "inception_4a/3x3"
  bottom: "inception_4a/5x5"
  bottom: "inception_4a/pool_proj"
  top: "inception_4a/output"
}
layer {
  name: "loss1/ave_pool"
  type: "Pooling"
  bottom: "inception_4a/output"
  top: "loss1/ave_pool"
  pooling_param {
    pool: AVE
    kernel_size: 5
    stride: 3
  }
}
layer {
  name: "loss1/conv"
  type: "Convolution"
  bottom: "loss1/ave_pool"
  top: "loss1/conv"
  param {
    lr_mult: 1
    decay_mult: 1
  }
  param {
    lr_mult: 2
    decay_mult: 0
  }
  convolution_param {
    num_output: 128
    kernel_size: 1
    weight_filler {
      type: "xavier"
      std: 0.08
    }
    bias_filler {
      type: "constant"
      value: 0.2
    }
  }
}
layer {
  name: "loss1/relu_conv"
  type: "ReLU"
  bottom: "loss1/conv"
  top: "loss1/conv"
}
layer {
  name: "loss1/fc"
  type: "InnerProduct"
  bottom: "loss1/conv"
  top: "loss1/fc"
  param {
    lr_mult: 1
    decay_mult: 1
  }
  param {
    lr_mult: 2
    decay_mult: 0
  }
  inner_product_param {
    num_output: 1024
    weight_filler {
      type: "xavier"
      std: 0.02
    }
    bias_filler {
      type: "constant"
      value: 0.2
    }
  }
}
layer {
  name: "loss1/relu_fc"
  type: "ReLU"
  bottom: "loss1/fc"
  top: "loss1/fc"
}
layer {
  name: "loss1/drop_fc"
  type: "Dropout"
  bottom: "loss1/fc"
  top: "loss1/fc"
  dropout_param {
    dropout_ratio: 0.7
  }
}
layer {
  name: "loss1/classifier_plantvillage"
  type: "InnerProduct"
  bottom: "loss1/fc"
  top: "loss1/classifier_plantvillage"
  param {
    lr_mult: 1
    decay_mult: 1
  }
  param {
    lr_mult: 2
    decay_mult: 0
  }
  inner_product_param {
    num_output: 38
    weight_filler {
      type: "xavier"
      std: 0.0009765625
    }
    bias_filler {
      type: "constant"
      value: 0
    }
  }
}
layer {
  name: "inception_4b/1x1"
  type: "Convolution"
  bottom: "inception_4a/output"
  top: "inception_4b/1x1"
  param {
    lr_mult: 1
    decay_mult: 1
  }
  param {
    lr_mult: 2
    decay_mult: 0
  }
  convolution_param {
    num_output: 160
    kernel_size: 1
    weight_filler {
      type: "xavier"
      std: 0.03
    }
    bias_filler {
      type: "constant"
      value: 0.2
    }
  }
}
layer {
  name: "inception_4b/relu_1x1"
  type: "ReLU"
  bottom: "inception_4b/1x1"
  top: "inception_4b/1x1"
}
layer {
  name: "inception_4b/3x3_reduce"
  type: "Convolution"
  bottom: "inception_4a/output"
  top: "inception_4b/3x3_reduce"
  param {
    lr_mult: 1
    decay_mult: 1
  }
  param {
    lr_mult: 2
    decay_mult: 0
  }
  convolution_param {
    num_output: 112
    kernel_size: 1
    weight_filler {
      type: "xavier"
      std: 0.09
    }
    bias_filler {
      type: "constant"
      value: 0.2
    }
  }
}
layer {
  name: "inception_4b/relu_3x3_reduce"
  type: "ReLU"
  bottom: "inception_4b/3x3_reduce"
  top: "inception_4b/3x3_reduce"
}
layer {
  name: "inception_4b/3x3"
  type: "Convolution"
  bottom: "inception_4b/3x3_reduce"
  top: "inception_4b/3x3"
  param {
    lr_mult: 1
    decay_mult: 1
  }
  param {
    lr_mult: 2
    decay_mult: 0
  }
  convolution_param {
    num_output: 224
    pad: 1
    kernel_size: 3
    weight_filler {
      type: "xavier"
      std: 0.03
    }
    bias_filler {
      type: "constant"
      value: 0.2
    }
  }
}
layer {
  name: "inception_4b/relu_3x3"
  type: "ReLU"
  bottom: "inception_4b/3x3"
  top: "inception_4b/3x3"
}
layer {
  name: "inception_4b/5x5_reduce"
  type: "Convolution"
  bottom: "inception_4a/output"
  top: "inception_4b/5x5_reduce"
  param {
    lr_mult: 1
    decay_mult: 1
  }
  param {
    lr_mult: 2
    decay_mult: 0
  }
  convolution_param {
    num_output: 24
    kernel_size: 1
    weight_filler {
      type: "xavier"
      std: 0.2
    }
    bias_filler {
      type: "constant"
      value: 0.2
    }
  }
}
layer {
  name: "inception_4b/relu_5x5_reduce"
  type: "ReLU"
  bottom: "inception_4b/5x5_reduce"
  top: "inception_4b/5x5_reduce"
}
layer {
  name: "inception_4b/5x5"
  type: "Convolution"
  bottom: "inception_4b/5x5_reduce"
  top: "inception_4b/5x5"
  param {
    lr_mult: 1
    decay_mult: 1
  }
  param {
    lr_mult: 2
    decay_mult: 0
  }
  convolution_param {
    num_output: 64
    pad: 2
    kernel_size: 5
    weight_filler {
      type: "xavier"
      std: 0.03
    }
    bias_filler {
      type: "constant"
      value: 0.2
    }
  }
}
layer {
  name: "inception_4b/relu_5x5"
  type: "ReLU"
  bottom: "inception_4b/5x5"
  top: "inception_4b/5x5"
}
layer {
  name: "inception_4b/pool"
  type: "Pooling"
  bottom: "inception_4a/output"
  top: "inception_4b/pool"
  pooling_param {
    pool: MAX
    kernel_size: 3
    stride: 1
    pad: 1
  }
}
layer {
  name: "inception_4b/pool_proj"
  type: "Convolution"
  bottom: "inception_4b/pool"
  top: "inception_4b/pool_proj"
  param {
    lr_mult: 1
    decay_mult: 1
  }
  param {
    lr_mult: 2
    decay_mult: 0
  }
  convolution_param {
    num_output: 64
    kernel_size: 1
    weight_filler {
      type: "xavier"
      std: 0.1
    }
    bias_filler {
      type: "constant"
      value: 0.2
    }
  }
}
layer {
  name: "inception_4b/relu_pool_proj"
  type: "ReLU"
  bottom: "inception_4b/pool_proj"
  top: "inception_4b/pool_proj"
}
layer {
  name: "inception_4b/output"
  type: "Concat"
  bottom: "inception_4b/1x1"
  bottom: "inception_4b/3x3"
  bottom: "inception_4b/5x5"
  bottom: "inception_4b/pool_proj"
  top: "inception_4b/output"
}
layer {
  name: "inception_4c/1x1"
  type: "Convolution"
  bottom: "inception_4b/output"
  top: "inception_4c/1x1"
  param {
    lr_mult: 1
    decay_mult: 1
  }
  param {
    lr_mult: 2
    decay_mult: 0
  }
  convolution_param {
    num_output: 128
    kernel_size: 1
    weight_filler {
      type: "xavier"
      std: 0.03
    }
    bias_filler {
      type: "constant"
      value: 0.2
    }
  }
}
layer {
  name: "inception_4c/relu_1x1"
  type: "ReLU"
  bottom: "inception_4c/1x1"
  top: "inception_4c/1x1"
}
layer {
  name: "inception_4c/3x3_reduce"
  type: "Convolution"
  bottom: "inception_4b/output"
  top: "inception_4c/3x3_reduce"
  param {
    lr_mult: 1
    decay_mult: 1
  }
  param {
    lr_mult: 2
    decay_mult: 0
  }
  convolution_param {
    num_output: 128
    kernel_size: 1
    weight_filler {
      type: "xavier"
      std: 0.09
    }
    bias_filler {
      type: "constant"
      value: 0.2
    }
  }
}
layer {
  name: "inception_4c/relu_3x3_reduce"
  type: "ReLU"
  bottom: "inception_4c/3x3_reduce"
  top: "inception_4c/3x3_reduce"
}
layer {
  name: "inception_4c/3x3"
  type: "Convolution"
  bottom: "inception_4c/3x3_reduce"
  top: "inception_4c/3x3"
  param {
    lr_mult: 1
    decay_mult: 1
  }
  param {
    lr_mult: 2
    decay_mult: 0
  }
  convolution_param {
    num_output: 256
    pad: 1
    kernel_size: 3
    weight_filler {
      type: "xavier"
      std: 0.03
    }
    bias_filler {
      type: "constant"
      value: 0.2
    }
  }
}
layer {
  name: "inception_4c/relu_3x3"
  type: "ReLU"
  bottom: "inception_4c/3x3"
  top: "inception_4c/3x3"
}
layer {
  name: "inception_4c/5x5_reduce"
  type: "Convolution"
  bottom: "inception_4b/output"
  top: "inception_4c/5x5_reduce"
  param {
    lr_mult: 1
    decay_mult: 1
  }
  param {
    lr_mult: 2
    decay_mult: 0
  }
  convolution_param {
    num_output: 24
    kernel_size: 1
    weight_filler {
      type: "xavier"
      std: 0.2
    }
    bias_filler {
      type: "constant"
      value: 0.2
    }
  }
}
layer {
  name: "inception_4c/relu_5x5_reduce"
  type: "ReLU"
  bottom: "inception_4c/5x5_reduce"
  top: "inception_4c/5x5_reduce"
}
layer {
  name: "inception_4c/5x5"
  type: "Convolution"
  bottom: "inception_4c/5x5_reduce"
  top: "inception_4c/5x5"
  param {
    lr_mult: 1
    decay_mult: 1
  }
  param {
    lr_mult: 2
    decay_mult: 0
  }
  convolution_param {
    num_output: 64
    pad: 2
    kernel_size: 5
    weight_filler {
      type: "xavier"
      std: 0.03
    }
    bias_filler {
      type: "constant"
      value: 0.2
    }
  }
}
layer {
  name: "inception_4c/relu_5x5"
  type: "ReLU"
  bottom: "inception_4c/5x5"
  top: "inception_4c/5x5"
}
layer {
  name: "inception_4c/pool"
  type: "Pooling"
  bottom: "inception_4b/output"
  top: "inception_4c/pool"
  pooling_param {
    pool: MAX
    kernel_size: 3
    stride: 1
    pad: 1
  }
}
layer {
  name: "inception_4c/pool_proj"
  type: "Convolution"
  bottom: "inception_4c/pool"
  top: "inception_4c/pool_proj"
  param {
    lr_mult: 1
    decay_mult: 1
  }
  param {
    lr_mult: 2
    decay_mult: 0
  }
  convolution_param {
    num_output: 64
    kernel_size: 1
    weight_filler {
      type: "xavier"
      std: 0.1
    }
    bias_filler {
      type: "constant"
      value: 0.2
    }
  }
}
layer {
  name: "inception_4c/relu_pool_proj"
  type: "ReLU"
  bottom: "inception_4c/pool_proj"
  top: "inception_4c/pool_proj"
}
layer {
  name: "inception_4c/output"
  type: "Concat"
  bottom: "inception_4c/1x1"
  bottom: "inception_4c/3x3"
  bottom: "inception_4c/5x5"
  bottom: "inception_4c/pool_proj"
  top: "inception_4c/output"
}
layer {
  name: "inception_4d/1x1"
  type: "Convolution"
  bottom: "inception_4c/output"
  top: "inception_4d/1x1"
  param {
    lr_mult: 1
    decay_mult: 1
  }
  param {
    lr_mult: 2
    decay_mult: 0
  }
  convolution_param {
    num_output: 112
    kernel_size: 1
    weight_filler {
      type: "xavier"
      std: 0.03
    }
    bias_filler {
      type: "constant"
      value: 0.2
    }
  }
}
layer {
  name: "inception_4d/relu_1x1"
  type: "ReLU"
  bottom: "inception_4d/1x1"
  top: "inception_4d/1x1"
}
layer {
  name: "inception_4d/3x3_reduce"
  type: "Convolution"
  bottom: "inception_4c/output"
  top: "inception_4d/3x3_reduce"
  param {
    lr_mult: 1
    decay_mult: 1
  }
  param {
    lr_mult: 2
    decay_mult: 0
  }
  convolution_param {
    num_output: 144
    kernel_size: 1
    weight_filler {
      type: "xavier"
      std: 0.09
    }
    bias_filler {
      type: "constant"
      value: 0.2
    }
  }
}
layer {
  name: "inception_4d/relu_3x3_reduce"
  type: "ReLU"
  bottom: "inception_4d/3x3_reduce"
  top: "inception_4d/3x3_reduce"
}
layer {
  name: "inception_4d/3x3"
  type: "Convolution"
  bottom: "inception_4d/3x3_reduce"
  top: "inception_4d/3x3"
  param {
    lr_mult: 1
    decay_mult: 1
  }
  param {
    lr_mult: 2
    decay_mult: 0
  }
  convolution_param {
    num_output: 288
    pad: 1
    kernel_size: 3
    weight_filler {
      type: "xavier"
      std: 0.03
    }
    bias_filler {
      type: "constant"
      value: 0.2
    }
  }
}
layer {
  name: "inception_4d/relu_3x3"
  type: "ReLU"
  bottom: "inception_4d/3x3"
  top: "inception_4d/3x3"
}
layer {
  name: "inception_4d/5x5_reduce"
  type: "Convolution"
  bottom: "inception_4c/output"
  top: "inception_4d/5x5_reduce"
  param {
    lr_mult: 1
    decay_mult: 1
  }
  param {
    lr_mult: 2
    decay_mult: 0
  }
  convolution_param {
    num_output: 32
    kernel_size: 1
    weight_filler {
      type: "xavier"
      std: 0.2
    }
    bias_filler {
      type: "constant"
      value: 0.2
    }
  }
}
layer {
  name: "inception_4d/relu_5x5_reduce"
  type: "ReLU"
  bottom: "inception_4d/5x5_reduce"
  top: "inception_4d/5x5_reduce"
}
layer {
  name: "inception_4d/5x5"
  type: "Convolution"
  bottom: "inception_4d/5x5_reduce"
  top: "inception_4d/5x5"
  param {
    lr_mult: 1
    decay_mult: 1
  }
  param {
    lr_mult: 2
    decay_mult: 0
  }
  convolution_param {
    num_output: 64
    pad: 2
    kernel_size: 5
    weight_filler {
      type: "xavier"
      std: 0.03
    }
    bias_filler {
      type: "constant"
      value: 0.2
    }
  }
}
layer {
  name: "inception_4d/relu_5x5"
  type: "ReLU"
  bottom: "inception_4d/5x5"
  top: "inception_4d/5x5"
}
layer {
  name: "inception_4d/pool"
  type: "Pooling"
  bottom: "inception_4c/output"
  top: "inception_4d/pool"
  pooling_param {
    pool: MAX
    kernel_size: 3
    stride: 1
    pad: 1
  }
}
layer {
  name: "inception_4d/pool_proj"
  type: "Convolution"
  bottom: "inception_4d/pool"
  top: "inception_4d/pool_proj"
  param {
    lr_mult: 1
    decay_mult: 1
  }
  param {
    lr_mult: 2
    decay_mult: 0
  }
  convolution_param {
    num_output: 64
    kernel_size: 1
    weight_filler {
      type: "xavier"
      std: 0.1
    }
    bias_filler {
      type: "constant"
      value: 0.2
    }
  }
}
layer {
  name: "inception_4d/relu_pool_proj"
  type: "ReLU"
  bottom: "inception_4d/pool_proj"
  top: "inception_4d/pool_proj"
}
layer {
  name: "inception_4d/output"
  type: "Concat"
  bottom: "inception_4d/1x1"
  bottom: "inception_4d/3x3"
  bottom: "inception_4d/5x5"
  bottom: "inception_4d/pool_proj"
  top: "inception_4d/output"
}
layer {
  name: "loss2/ave_pool"
  type: "Pooling"
  bottom: "inception_4d/output"
  top: "loss2/ave_pool"
  pooling_param {
    pool: AVE
    kernel_size: 5
    stride: 3
  }
}
layer {
  name: "loss2/conv"
  type: "Convolution"
  bottom: "loss2/ave_pool"
  top: "loss2/conv"
  param {
    lr_mult: 1
    decay_mult: 1
  }
  param {
    lr_mult: 2
    decay_mult: 0
  }
  convolution_param {
    num_output: 128
    kernel_size: 1
    weight_filler {
      type: "xavier"
      std: 0.08
    }
    bias_filler {
      type: "constant"
      value: 0.2
    }
  }
}
layer {
  name: "loss2/relu_conv"
  type: "ReLU"
  bottom: "loss2/conv"
  top: "loss2/conv"
}
layer {
  name: "loss2/fc"
  type: "InnerProduct"
  bottom: "loss2/conv"
  top: "loss2/fc"
  param {
    lr_mult: 1
    decay_mult: 1
  }
  param {
    lr_mult: 2
    decay_mult: 0
  }
  inner_product_param {
    num_output: 1024
    weight_filler {
      type: "xavier"
      std: 0.02
    }
    bias_filler {
      type: "constant"
      value: 0.2
    }
  }
}
layer {
  name: "loss2/relu_fc"
  type: "ReLU"
  bottom: "loss2/fc"
  top: "loss2/fc"
}
layer {
  name: "loss2/drop_fc"
  type: "Dropout"
  bottom: "loss2/fc"
  top: "loss2/fc"
  dropout_param {
    dropout_ratio: 0.7
  }
}
layer {
  name: "loss2/classifier_plantvillage"
  type: "InnerProduct"
  bottom: "loss2/fc"
  top: "loss2/classifier_plantvillage"
  param {
    lr_mult: 1
    decay_mult: 1
  }
  param {
    lr_mult: 2
    decay_mult: 0
  }
  inner_product_param {
    num_output: 38
    weight_filler {
      type: "xavier"
      std: 0.0009765625
    }
    bias_filler {
      type: "constant"
      value: 0
    }
  }
}
layer {
  name: "inception_4e/1x1"
  type: "Convolution"
  bottom: "inception_4d/output"
  top: "inception_4e/1x1"
  param {
    lr_mult: 1
    decay_mult: 1
  }
  param {
    lr_mult: 2
    decay_mult: 0
  }
  convolution_param {
    num_output: 256
    kernel_size: 1
    weight_filler {
      type: "xavier"
      std: 0.03
    }
    bias_filler {
      type: "constant"
      value: 0.2
    }
  }
}
layer {
  name: "inception_4e/relu_1x1"
  type: "ReLU"
  bottom: "inception_4e/1x1"
  top: "inception_4e/1x1"
}
layer {
  name: "inception_4e/3x3_reduce"
  type: "Convolution"
  bottom: "inception_4d/output"
  top: "inception_4e/3x3_reduce"
  param {
    lr_mult: 1
    decay_mult: 1
  }
  param {
    lr_mult: 2
    decay_mult: 0
  }
  convolution_param {
    num_output: 160
    kernel_size: 1
    weight_filler {
      type: "xavier"
      std: 0.09
    }
    bias_filler {
      type: "constant"
      value: 0.2
    }
  }
}
layer {
  name: "inception_4e/relu_3x3_reduce"
  type: "ReLU"
  bottom: "inception_4e/3x3_reduce"
  top: "inception_4e/3x3_reduce"
}
layer {
  name: "inception_4e/3x3"
  type: "Convolution"
  bottom: "inception_4e/3x3_reduce"
  top: "inception_4e/3x3"
  param {
    lr_mult: 1
    decay_mult: 1
  }
  param {
    lr_mult: 2
    decay_mult: 0
  }
  convolution_param {
    num_output: 320
    pad: 1
    kernel_size: 3
    weight_filler {
      type: "xavier"
      std: 0.03
    }
    bias_filler {
      type: "constant"
      value: 0.2
    }
  }
}
layer {
  name: "inception_4e/relu_3x3"
  type: "ReLU"
  bottom: "inception_4e/3x3"
  top: "inception_4e/3x3"
}
layer {
  name: "inception_4e/5x5_reduce"
  type: "Convolution"
  bottom: "inception_4d/output"
  top: "inception_4e/5x5_reduce"
  param {
    lr_mult: 1
    decay_mult: 1
  }
  param {
    lr_mult: 2
    decay_mult: 0
  }
  convolution_param {
    num_output: 32
    kernel_size: 1
    weight_filler {
      type: "xavier"
      std: 0.2
    }
    bias_filler {
      type: "constant"
      value: 0.2
    }
  }
}
layer {
  name: "inception_4e/relu_5x5_reduce"
  type: "ReLU"
  bottom: "inception_4e/5x5_reduce"
  top: "inception_4e/5x5_reduce"
}
layer {
  name: "inception_4e/5x5"
  type: "Convolution"
  bottom: "inception_4e/5x5_reduce"
  top: "inception_4e/
I0403 19:42:12.318030 25607 layer_factory.hpp:77] Creating layer data
I0403 19:42:12.318699 25607 net.cpp:91] Creating Layer data
I0403 19:42:12.318737 25607 net.cpp:399] data -> data
I0403 19:42:12.318809 25607 net.cpp:399] data -> label
I0403 19:42:12.318856 25607 data_transformer.cpp:25] Loading mean file from: /home/mohanty/data/final_dataset/lmdb/grayscale-80-20/mean.binaryproto
I0403 19:42:12.320046 25610 db_lmdb.cpp:38] Opened lmdb /home/mohanty/data/final_dataset/lmdb/grayscale-80-20/test_db
I0403 19:42:12.333483 25607 data_layer.cpp:41] output data size: 24,3,224,224
I0403 19:42:12.362725 25607 net.cpp:141] Setting up data
I0403 19:42:12.362833 25607 net.cpp:148] Top shape: 24 3 224 224 (3612672)
I0403 19:42:12.362859 25607 net.cpp:148] Top shape: 24 (24)
I0403 19:42:12.362875 25607 net.cpp:156] Memory required for data: 14450784
I0403 19:42:12.362908 25607 layer_factory.hpp:77] Creating layer label_data_1_split
I0403 19:42:12.362942 25607 net.cpp:91] Creating Layer label_data_1_split
I0403 19:42:12.362962 25607 net.cpp:425] label_data_1_split <- label
I0403 19:42:12.363003 25607 net.cpp:399] label_data_1_split -> label_data_1_split_0
I0403 19:42:12.363039 25607 net.cpp:399] label_data_1_split -> label_data_1_split_1
I0403 19:42:12.363060 25607 net.cpp:399] label_data_1_split -> label_data_1_split_2
I0403 19:42:12.363082 25607 net.cpp:399] label_data_1_split -> label_data_1_split_3
I0403 19:42:12.363104 25607 net.cpp:399] label_data_1_split -> label_data_1_split_4
I0403 19:42:12.363126 25607 net.cpp:399] label_data_1_split -> label_data_1_split_5
I0403 19:42:12.363147 25607 net.cpp:399] label_data_1_split -> label_data_1_split_6
I0403 19:42:12.363170 25607 net.cpp:399] label_data_1_split -> label_data_1_split_7
I0403 19:42:12.363193 25607 net.cpp:399] label_data_1_split -> label_data_1_split_8
I0403 19:42:12.363214 25607 net.cpp:399] label_data_1_split -> label_data_1_split_9
I0403 19:42:12.363340 25607 net.cpp:141] Setting up label_data_1_split
I0403 19:42:12.363369 25607 net.cpp:148] Top shape: 24 (24)
I0403 19:42:12.363389 25607 net.cpp:148] Top shape: 24 (24)
I0403 19:42:12.363406 25607 net.cpp:148] Top shape: 24 (24)
I0403 19:42:12.363423 25607 net.cpp:148] Top shape: 24 (24)
I0403 19:42:12.363440 25607 net.cpp:148] Top shape: 24 (24)
I0403 19:42:12.363456 25607 net.cpp:148] Top shape: 24 (24)
I0403 19:42:12.363471 25607 net.cpp:148] Top shape: 24 (24)
I0403 19:42:12.363488 25607 net.cpp:148] Top shape: 24 (24)
I0403 19:42:12.363507 25607 net.cpp:148] Top shape: 24 (24)
I0403 19:42:12.363525 25607 net.cpp:148] Top shape: 24 (24)
I0403 19:42:12.363574 25607 net.cpp:156] Memory required for data: 14451744
I0403 19:42:12.363590 25607 layer_factory.hpp:77] Creating layer conv1/7x7_s2
I0403 19:42:12.363631 25607 net.cpp:91] Creating Layer conv1/7x7_s2
I0403 19:42:12.363651 25607 net.cpp:425] conv1/7x7_s2 <- data
I0403 19:42:12.363673 25607 net.cpp:399] conv1/7x7_s2 -> conv1/7x7_s2
I0403 19:42:12.511802 25607 net.cpp:141] Setting up conv1/7x7_s2
I0403 19:42:12.511919 25607 net.cpp:148] Top shape: 24 64 112 112 (19267584)
I0403 19:42:12.511940 25607 net.cpp:156] Memory required for data: 91522080
I0403 19:42:12.511981 25607 layer_factory.hpp:77] Creating layer conv1/relu_7x7
I0403 19:42:12.512013 25607 net.cpp:91] Creating Layer conv1/relu_7x7
I0403 19:42:12.512037 25607 net.cpp:425] conv1/relu_7x7 <- conv1/7x7_s2
I0403 19:42:12.512060 25607 net.cpp:386] conv1/relu_7x7 -> conv1/7x7_s2 (in-place)
I0403 19:42:12.512361 25607 net.cpp:141] Setting up conv1/relu_7x7
I0403 19:42:12.512392 25607 net.cpp:148] Top shape: 24 64 112 112 (19267584)
I0403 19:42:12.512408 25607 net.cpp:156] Memory required for data: 168592416
I0403 19:42:12.512425 25607 layer_factory.hpp:77] Creating layer pool1/3x3_s2
I0403 19:42:12.512454 25607 net.cpp:91] Creating Layer pool1/3x3_s2
I0403 19:42:12.512475 25607 net.cpp:425] pool1/3x3_s2 <- conv1/7x7_s2
I0403 19:42:12.512497 25607 net.cpp:399] pool1/3x3_s2 -> pool1/3x3_s2
I0403 19:42:12.512596 25607 net.cpp:141] Setting up pool1/3x3_s2
I0403 19:42:12.512624 25607 net.cpp:148] Top shape: 24 64 56 56 (4816896)
I0403 19:42:12.512641 25607 net.cpp:156] Memory required for data: 187860000
I0403 19:42:12.512657 25607 layer_factory.hpp:77] Creating layer pool1/norm1
I0403 19:42:12.512689 25607 net.cpp:91] Creating Layer pool1/norm1
I0403 19:42:12.512709 25607 net.cpp:425] pool1/norm1 <- pool1/3x3_s2
I0403 19:42:12.512730 25607 net.cpp:399] pool1/norm1 -> pool1/norm1
I0403 19:42:12.513043 25607 net.cpp:141] Setting up pool1/norm1
I0403 19:42:12.513074 25607 net.cpp:148] Top shape: 24 64 56 56 (4816896)
I0403 19:42:12.513092 25607 net.cpp:156] Memory required for data: 207127584
I0403 19:42:12.513108 25607 layer_factory.hpp:77] Creating layer conv2/3x3_reduce
I0403 19:42:12.513140 25607 net.cpp:91] Creating Layer conv2/3x3_reduce
I0403 19:42:12.513159 25607 net.cpp:425] conv2/3x3_reduce <- pool1/norm1
I0403 19:42:12.513181 25607 net.cpp:399] conv2/3x3_reduce -> conv2/3x3_reduce
I0403 19:42:12.514613 25607 net.cpp:141] Setting up conv2/3x3_reduce
I0403 19:42:12.514648 25607 net.cpp:148] Top shape: 24 64 56 56 (4816896)
I0403 19:42:12.514667 25607 net.cpp:156] Memory required for data: 226395168
I0403 19:42:12.514690 25607 layer_factory.hpp:77] Creating layer conv2/relu_3x3_reduce
I0403 19:42:12.514711 25607 net.cpp:91] Creating Layer conv2/relu_3x3_reduce
I0403 19:42:12.514729 25607 net.cpp:425] conv2/relu_3x3_reduce <- conv2/3x3_reduce
I0403 19:42:12.514749 25607 net.cpp:386] conv2/relu_3x3_reduce -> conv2/3x3_reduce (in-place)
I0403 19:42:12.515014 25607 net.cpp:141] Setting up conv2/relu_3x3_reduce
I0403 19:42:12.515046 25607 net.cpp:148] Top shape: 24 64 56 56 (4816896)
I0403 19:42:12.515064 25607 net.cpp:156] Memory required for data: 245662752
I0403 19:42:12.515082 25607 layer_factory.hpp:77] Creating layer conv2/3x3
I0403 19:42:12.515110 25607 net.cpp:91] Creating Layer conv2/3x3
I0403 19:42:12.515130 25607 net.cpp:425] conv2/3x3 <- conv2/3x3_reduce
I0403 19:42:12.515151 25607 net.cpp:399] conv2/3x3 -> conv2/3x3
I0403 19:42:12.517508 25607 net.cpp:141] Setting up conv2/3x3
I0403 19:42:12.517545 25607 net.cpp:148] Top shape: 24 192 56 56 (14450688)
I0403 19:42:12.517565 25607 net.cpp:156] Memory required for data: 303465504
I0403 19:42:12.517587 25607 layer_factory.hpp:77] Creating layer conv2/relu_3x3
I0403 19:42:12.517611 25607 net.cpp:91] Creating Layer conv2/relu_3x3
I0403 19:42:12.517630 25607 net.cpp:425] conv2/relu_3x3 <- conv2/3x3
I0403 19:42:12.517649 25607 net.cpp:386] conv2/relu_3x3 -> conv2/3x3 (in-place)
I0403 19:42:12.517822 25607 net.cpp:141] Setting up conv2/relu_3x3
I0403 19:42:12.517853 25607 net.cpp:148] Top shape: 24 192 56 56 (14450688)
I0403 19:42:12.517901 25607 net.cpp:156] Memory required for data: 361268256
I0403 19:42:12.517918 25607 layer_factory.hpp:77] Creating layer conv2/norm2
I0403 19:42:12.517942 25607 net.cpp:91] Creating Layer conv2/norm2
I0403 19:42:12.517963 25607 net.cpp:425] conv2/norm2 <- conv2/3x3
I0403 19:42:12.517982 25607 net.cpp:399] conv2/norm2 -> conv2/norm2
I0403 19:42:12.518280 25607 net.cpp:141] Setting up conv2/norm2
I0403 19:42:12.518316 25607 net.cpp:148] Top shape: 24 192 56 56 (14450688)
I0403 19:42:12.518334 25607 net.cpp:156] Memory required for data: 419071008
I0403 19:42:12.518350 25607 layer_factory.hpp:77] Creating layer pool2/3x3_s2
I0403 19:42:12.518371 25607 net.cpp:91] Creating Layer pool2/3x3_s2
I0403 19:42:12.518389 25607 net.cpp:425] pool2/3x3_s2 <- conv2/norm2
I0403 19:42:12.518409 25607 net.cpp:399] pool2/3x3_s2 -> pool2/3x3_s2
I0403 19:42:12.518467 25607 net.cpp:141] Setting up pool2/3x3_s2
I0403 19:42:12.518494 25607 net.cpp:148] Top shape: 24 192 28 28 (3612672)
I0403 19:42:12.518510 25607 net.cpp:156] Memory required for data: 433521696
I0403 19:42:12.518527 25607 layer_factory.hpp:77] Creating layer pool2/3x3_s2_pool2/3x3_s2_0_split
I0403 19:42:12.518546 25607 net.cpp:91] Creating Layer pool2/3x3_s2_pool2/3x3_s2_0_split
I0403 19:42:12.518561 25607 net.cpp:425] pool2/3x3_s2_pool2/3x3_s2_0_split <- pool2/3x3_s2
I0403 19:42:12.518584 25607 net.cpp:399] pool2/3x3_s2_pool2/3x3_s2_0_split -> pool2/3x3_s2_pool2/3x3_s2_0_split_0
I0403 19:42:12.518606 25607 net.cpp:399] pool2/3x3_s2_pool2/3x3_s2_0_split -> pool2/3x3_s2_pool2/3x3_s2_0_split_1
I0403 19:42:12.518631 25607 net.cpp:399] pool2/3x3_s2_pool2/3x3_s2_0_split -> pool2/3x3_s2_pool2/3x3_s2_0_split_2
I0403 19:42:12.518652 25607 net.cpp:399] pool2/3x3_s2_pool2/3x3_s2_0_split -> pool2/3x3_s2_pool2/3x3_s2_0_split_3
I0403 19:42:12.518723 25607 net.cpp:141] Setting up pool2/3x3_s2_pool2/3x3_s2_0_split
I0403 19:42:12.518753 25607 net.cpp:148] Top shape: 24 192 28 28 (3612672)
I0403 19:42:12.518774 25607 net.cpp:148] Top shape: 24 192 28 28 (3612672)
I0403 19:42:12.518790 25607 net.cpp:148] Top shape: 24 192 28 28 (3612672)
I0403 19:42:12.518807 25607 net.cpp:148] Top shape: 24 192 28 28 (3612672)
I0403 19:42:12.518823 25607 net.cpp:156] Memory required for data: 491324448
I0403 19:42:12.518841 25607 layer_factory.hpp:77] Creating layer inception_3a/1x1
I0403 19:42:12.518864 25607 net.cpp:91] Creating Layer inception_3a/1x1
I0403 19:42:12.518884 25607 net.cpp:425] inception_3a/1x1 <- pool2/3x3_s2_pool2/3x3_s2_0_split_0
I0403 19:42:12.518903 25607 net.cpp:399] inception_3a/1x1 -> inception_3a/1x1
I0403 19:42:12.520437 25607 net.cpp:141] Setting up inception_3a/1x1
I0403 19:42:12.520468 25607 net.cpp:148] Top shape: 24 64 28 28 (1204224)
I0403 19:42:12.520488 25607 net.cpp:156] Memory required for data: 496141344
I0403 19:42:12.520510 25607 layer_factory.hpp:77] Creating layer inception_3a/relu_1x1
I0403 19:42:12.520532 25607 net.cpp:91] Creating Layer inception_3a/relu_1x1
I0403 19:42:12.520552 25607 net.cpp:425] inception_3a/relu_1x1 <- inception_3a/1x1
I0403 19:42:12.520571 25607 net.cpp:386] inception_3a/relu_1x1 -> inception_3a/1x1 (in-place)
I0403 19:42:12.520743 25607 net.cpp:141] Setting up inception_3a/relu_1x1
I0403 19:42:12.520773 25607 net.cpp:148] Top shape: 24 64 28 28 (1204224)
I0403 19:42:12.520790 25607 net.cpp:156] Memory required for data: 500958240
I0403 19:42:12.520807 25607 layer_factory.hpp:77] Creating layer inception_3a/3x3_reduce
I0403 19:42:12.520831 25607 net.cpp:91] Creating Layer inception_3a/3x3_reduce
I0403 19:42:12.520853 25607 net.cpp:425] inception_3a/3x3_reduce <- pool2/3x3_s2_pool2/3x3_s2_0_split_1
I0403 19:42:12.520874 25607 net.cpp:399] inception_3a/3x3_reduce -> inception_3a/3x3_reduce
I0403 19:42:12.522547 25607 net.cpp:141] Setting up inception_3a/3x3_reduce
I0403 19:42:12.522583 25607 net.cpp:148] Top shape: 24 96 28 28 (1806336)
I0403 19:42:12.522605 25607 net.cpp:156] Memory required for data: 508183584
I0403 19:42:12.522626 25607 layer_factory.hpp:77] Creating layer inception_3a/relu_3x3_reduce
I0403 19:42:12.522663 25607 net.cpp:91] Creating Layer inception_3a/relu_3x3_reduce
I0403 19:42:12.522686 25607 net.cpp:425] inception_3a/relu_3x3_reduce <- inception_3a/3x3_reduce
I0403 19:42:12.522706 25607 net.cpp:386] inception_3a/relu_3x3_reduce -> inception_3a/3x3_reduce (in-place)
I0403 19:42:12.522886 25607 net.cpp:141] Setting up inception_3a/relu_3x3_reduce
I0403 19:42:12.522917 25607 net.cpp:148] Top shape: 24 96 28 28 (1806336)
I0403 19:42:12.522933 25607 net.cpp:156] Memory required for data: 515408928
I0403 19:42:12.522949 25607 layer_factory.hpp:77] Creating layer inception_3a/3x3
I0403 19:42:12.522974 25607 net.cpp:91] Creating Layer inception_3a/3x3
I0403 19:42:12.522992 25607 net.cpp:425] inception_3a/3x3 <- inception_3a/3x3_reduce
I0403 19:42:12.523016 25607 net.cpp:399] inception_3a/3x3 -> inception_3a/3x3
I0403 19:42:12.524667 25607 net.cpp:141] Setting up inception_3a/3x3
I0403 19:42:12.524699 25607 net.cpp:148] Top shape: 24 128 28 28 (2408448)
I0403 19:42:12.524718 25607 net.cpp:156] Memory required for data: 525042720
I0403 19:42:12.524737 25607 layer_factory.hpp:77] Creating layer inception_3a/relu_3x3
I0403 19:42:12.524756 25607 net.cpp:91] Creating Layer inception_3a/relu_3x3
I0403 19:42:12.524775 25607 net.cpp:425] inception_3a/relu_3x3 <- inception_3a/3x3
I0403 19:42:12.524797 25607 net.cpp:386] inception_3a/relu_3x3 -> inception_3a/3x3 (in-place)
I0403 19:42:12.525074 25607 net.cpp:141] Setting up inception_3a/relu_3x3
I0403 19:42:12.525107 25607 net.cpp:148] Top shape: 24 128 28 28 (2408448)
I0403 19:42:12.525125 25607 net.cpp:156] Memory required for data: 534676512
I0403 19:42:12.525141 25607 layer_factory.hpp:77] Creating layer inception_3a/5x5_reduce
I0403 19:42:12.525164 25607 net.cpp:91] Creating Layer inception_3a/5x5_reduce
I0403 19:42:12.525185 25607 net.cpp:425] inception_3a/5x5_reduce <- pool2/3x3_s2_pool2/3x3_s2_0_split_2
I0403 19:42:12.525207 25607 net.cpp:399] inception_3a/5x5_reduce -> inception_3a/5x5_reduce
I0403 19:42:12.526161 25607 net.cpp:141] Setting up inception_3a/5x5_reduce
I0403 19:42:12.526196 25607 net.cpp:148] Top shape: 24 16 28 28 (301056)
I0403 19:42:12.526216 25607 net.cpp:156] Memory required for data: 535880736
I0403 19:42:12.526235 25607 layer_factory.hpp:77] Creating layer inception_3a/relu_5x5_reduce
I0403 19:42:12.526254 25607 net.cpp:91] Creating Layer inception_3a/relu_5x5_reduce
I0403 19:42:12.526276 25607 net.cpp:425] inception_3a/relu_5x5_reduce <- inception_3a/5x5_reduce
I0403 19:42:12.526309 25607 net.cpp:386] inception_3a/relu_5x5_reduce -> inception_3a/5x5_reduce (in-place)
I0403 19:42:12.526588 25607 net.cpp:141] Setting up inception_3a/relu_5x5_reduce
I0403 19:42:12.526619 25607 net.cpp:148] Top shape: 24 16 28 28 (301056)
I0403 19:42:12.526636 25607 net.cpp:156] Memory required for data: 537084960
I0403 19:42:12.526653 25607 layer_factory.hpp:77] Creating layer inception_3a/5x5
I0403 19:42:12.526677 25607 net.cpp:91] Creating Layer inception_3a/5x5
I0403 19:42:12.526698 25607 net.cpp:425] inception_3a/5x5 <- inception_3a/5x5_reduce
I0403 19:42:12.526720 25607 net.cpp:399] inception_3a/5x5 -> inception_3a/5x5
I0403 19:42:12.527729 25607 net.cpp:141] Setting up inception_3a/5x5
I0403 19:42:12.527760 25607 net.cpp:148] Top shape: 24 32 28 28 (602112)
I0403 19:42:12.527779 25607 net.cpp:156] Memory required for data: 539493408
I0403 19:42:12.527802 25607 layer_factory.hpp:77] Creating layer inception_3a/relu_5x5
I0403 19:42:12.527822 25607 net.cpp:91] Creating Layer inception_3a/relu_5x5
I0403 19:42:12.527839 25607 net.cpp:425] inception_3a/relu_5x5 <- inception_3a/5x5
I0403 19:42:12.527859 25607 net.cpp:386] inception_3a/relu_5x5 -> inception_3a/5x5 (in-place)
I0403 19:42:12.528034 25607 net.cpp:141] Setting up inception_3a/relu_5x5
I0403 19:42:12.528064 25607 net.cpp:148] Top shape: 24 32 28 28 (602112)
I0403 19:42:12.528080 25607 net.cpp:156] Memory required for data: 541901856
I0403 19:42:12.528097 25607 layer_factory.hpp:77] Creating layer inception_3a/pool
I0403 19:42:12.528118 25607 net.cpp:91] Creating Layer inception_3a/pool
I0403 19:42:12.528151 25607 net.cpp:425] inception_3a/pool <- pool2/3x3_s2_pool2/3x3_s2_0_split_3
I0403 19:42:12.528174 25607 net.cpp:399] inception_3a/pool -> inception_3a/pool
I0403 19:42:12.528234 25607 net.cpp:141] Setting up inception_3a/pool
I0403 19:42:12.528262 25607 net.cpp:148] Top shape: 24 192 28 28 (3612672)
I0403 19:42:12.528280 25607 net.cpp:156] Memory required for data: 556352544
I0403 19:42:12.528303 25607 layer_factory.hpp:77] Creating layer inception_3a/pool_proj
I0403 19:42:12.528331 25607 net.cpp:91] Creating Layer inception_3a/pool_proj
I0403 19:42:12.528349 25607 net.cpp:425] inception_3a/pool_proj <- inception_3a/pool
I0403 19:42:12.528369 25607 net.cpp:399] inception_3a/pool_proj -> inception_3a/pool_proj
I0403 19:42:12.529322 25607 net.cpp:141] Setting up inception_3a/pool_proj
I0403 19:42:12.529356 25607 net.cpp:148] Top shape: 24 32 28 28 (602112)
I0403 19:42:12.529376 25607 net.cpp:156] Memory required for data: 558760992
I0403 19:42:12.529400 25607 layer_factory.hpp:77] Creating layer inception_3a/relu_pool_proj
I0403 19:42:12.529422 25607 net.cpp:91] Creating Layer inception_3a/relu_pool_proj
I0403 19:42:12.529440 25607 net.cpp:425] inception_3a/relu_pool_proj <- inception_3a/pool_proj
I0403 19:42:12.529460 25607 net.cpp:386] inception_3a/relu_pool_proj -> inception_3a/pool_proj (in-place)
I0403 19:42:12.529732 25607 net.cpp:141] Setting up inception_3a/relu_pool_proj
I0403 19:42:12.529767 25607 net.cpp:148] Top shape: 24 32 28 28 (602112)
I0403 19:42:12.529786 25607 net.cpp:156] Memory required for data: 561169440
I0403 19:42:12.529803 25607 layer_factory.hpp:77] Creating layer inception_3a/output
I0403 19:42:12.529824 25607 net.cpp:91] Creating Layer inception_3a/output
I0403 19:42:12.529842 25607 net.cpp:425] inception_3a/output <- inception_3a/1x1
I0403 19:42:12.529861 25607 net.cpp:425] inception_3a/output <- inception_3a/3x3
I0403 19:42:12.529880 25607 net.cpp:425] inception_3a/output <- inception_3a/5x5
I0403 19:42:12.529896 25607 net.cpp:425] inception_3a/output <- inception_3a/pool_proj
I0403 19:42:12.529917 25607 net.cpp:399] inception_3a/output -> inception_3a/output
I0403 19:42:12.529968 25607 net.cpp:141] Setting up inception_3a/output
I0403 19:42:12.529995 25607 net.cpp:148] Top shape: 24 256 28 28 (4816896)
I0403 19:42:12.530010 25607 net.cpp:156] Memory required for data: 580437024
I0403 19:42:12.530027 25607 layer_factory.hpp:77] Creating layer inception_3a/output_inception_3a/output_0_split
I0403 19:42:12.530048 25607 net.cpp:91] Creating Layer inception_3a/output_inception_3a/output_0_split
I0403 19:42:12.530066 25607 net.cpp:425] inception_3a/output_inception_3a/output_0_split <- inception_3a/output
I0403 19:42:12.530083 25607 net.cpp:399] inception_3a/output_inception_3a/output_0_split -> inception_3a/output_inception_3a/output_0_split_0
I0403 19:42:12.530102 25607 net.cpp:399] inception_3a/output_inception_3a/output_0_split -> inception_3a/output_inception_3a/output_0_split_1
I0403 19:42:12.530129 25607 net.cpp:399] inception_3a/output_inception_3a/output_0_split -> inception_3a/output_inception_3a/output_0_split_2
I0403 19:42:12.530153 25607 net.cpp:399] inception_3a/output_inception_3a/output_0_split -> inception_3a/output_inception_3a/output_0_split_3
I0403 19:42:12.530227 25607 net.cpp:141] Setting up inception_3a/output_inception_3a/output_0_split
I0403 19:42:12.530254 25607 net.cpp:148] Top shape: 24 256 28 28 (4816896)
I0403 19:42:12.530277 25607 net.cpp:148] Top shape: 24 256 28 28 (4816896)
I0403 19:42:12.530299 25607 net.cpp:148] Top shape: 24 256 28 28 (4816896)
I0403 19:42:12.530318 25607 net.cpp:148] Top shape: 24 256 28 28 (4816896)
I0403 19:42:12.530333 25607 net.cpp:156] Memory required for data: 657507360
I0403 19:42:12.530349 25607 layer_factory.hpp:77] Creating layer inception_3b/1x1
I0403 19:42:12.530370 25607 net.cpp:91] Creating Layer inception_3b/1x1
I0403 19:42:12.530390 25607 net.cpp:425] inception_3b/1x1 <- inception_3a/output_inception_3a/output_0_split_0
I0403 19:42:12.530408 25607 net.cpp:399] inception_3b/1x1 -> inception_3b/1x1
I0403 19:42:12.531527 25607 net.cpp:141] Setting up inception_3b/1x1
I0403 19:42:12.531572 25607 net.cpp:148] Top shape: 24 128 28 28 (2408448)
I0403 19:42:12.531591 25607 net.cpp:156] Memory required for data: 667141152
I0403 19:42:12.531612 25607 layer_factory.hpp:77] Creating layer inception_3b/relu_1x1
I0403 19:42:12.531635 25607 net.cpp:91] Creating Layer inception_3b/relu_1x1
I0403 19:42:12.531656 25607 net.cpp:425] inception_3b/relu_1x1 <- inception_3b/1x1
I0403 19:42:12.531673 25607 net.cpp:386] inception_3b/relu_1x1 -> inception_3b/1x1 (in-place)
I0403 19:42:12.531852 25607 net.cpp:141] Setting up inception_3b/relu_1x1
I0403 19:42:12.531884 25607 net.cpp:148] Top shape: 24 128 28 28 (2408448)
I0403 19:42:12.531904 25607 net.cpp:156] Memory required for data: 676774944
I0403 19:42:12.531919 25607 layer_factory.hpp:77] Creating layer inception_3b/3x3_reduce
I0403 19:42:12.531944 25607 net.cpp:91] Creating Layer inception_3b/3x3_reduce
I0403 19:42:12.531962 25607 net.cpp:425] inception_3b/3x3_reduce <- inception_3a/output_inception_3a/output_0_split_1
I0403 19:42:12.531982 25607 net.cpp:399] inception_3b/3x3_reduce -> inception_3b/3x3_reduce
I0403 19:42:12.533109 25607 net.cpp:141] Setting up inception_3b/3x3_reduce
I0403 19:42:12.533143 25607 net.cpp:148] Top shape: 24 128 28 28 (2408448)
I0403 19:42:12.533157 25607 net.cpp:156] Memory required for data: 686408736
I0403 19:42:12.533176 25607 layer_factory.hpp:77] Creating layer inception_3b/relu_3x3_reduce
I0403 19:42:12.533197 25607 net.cpp:91] Creating Layer inception_3b/relu_3x3_reduce
I0403 19:42:12.533218 25607 net.cpp:425] inception_3b/relu_3x3_reduce <- inception_3b/3x3_reduce
I0403 19:42:12.533237 25607 net.cpp:386] inception_3b/relu_3x3_reduce -> inception_3b/3x3_reduce (in-place)
I0403 19:42:12.533416 25607 net.cpp:141] Setting up inception_3b/relu_3x3_reduce
I0403 19:42:12.533449 25607 net.cpp:148] Top shape: 24 128 28 28 (2408448)
I0403 19:42:12.533468 25607 net.cpp:156] Memory required for data: 696042528
I0403 19:42:12.533483 25607 layer_factory.hpp:77] Creating layer inception_3b/3x3
I0403 19:42:12.533509 25607 net.cpp:91] Creating Layer inception_3b/3x3
I0403 19:42:12.533530 25607 net.cpp:425] inception_3b/3x3 <- inception_3b/3x3_reduce
I0403 19:42:12.533553 25607 net.cpp:399] inception_3b/3x3 -> inception_3b/3x3
I0403 19:42:12.536463 25607 net.cpp:141] Setting up inception_3b/3x3
I0403 19:42:12.536497 25607 net.cpp:148] Top shape: 24 192 28 28 (3612672)
I0403 19:42:12.536520 25607 net.cpp:156] Memory required for data: 710493216
I0403 19:42:12.536540 25607 layer_factory.hpp:77] Creating layer inception_3b/relu_3x3
I0403 19:42:12.536559 25607 net.cpp:91] Creating Layer inception_3b/relu_3x3
I0403 19:42:12.536577 25607 net.cpp:425] inception_3b/relu_3x3 <- inception_3b/3x3
I0403 19:42:12.536599 25607 net.cpp:386] inception_3b/relu_3x3 -> inception_3b/3x3 (in-place)
I0403 19:42:12.536873 25607 net.cpp:141] Setting up inception_3b/relu_3x3
I0403 19:42:12.536909 25607 net.cpp:148] Top shape: 24 192 28 28 (3612672)
I0403 19:42:12.536926 25607 net.cpp:156] Memory required for data: 724943904
I0403 19:42:12.536943 25607 layer_factory.hpp:77] Creating layer inception_3b/5x5_reduce
I0403 19:42:12.536967 25607 net.cpp:91] Creating Layer inception_3b/5x5_reduce
I0403 19:42:12.536989 25607 net.cpp:425] inception_3b/5x5_reduce <- inception_3a/output_inception_3a/output_0_split_2
I0403 19:42:12.537011 25607 net.cpp:399] inception_3b/5x5_reduce -> inception_3b/5x5_reduce
I0403 19:42:12.538005 25607 net.cpp:141] Setting up inception_3b/5x5_reduce
I0403 19:42:12.538039 25607 net.cpp:148] Top shape: 24 32 28 28 (602112)
I0403 19:42:12.538060 25607 net.cpp:156] Memory required for data: 727352352
I0403 19:42:12.538079 25607 layer_factory.hpp:77] Creating layer inception_3b/relu_5x5_reduce
I0403 19:42:12.538100 25607 net.cpp:91] Creating Layer inception_3b/relu_5x5_reduce
I0403 19:42:12.538120 25607 net.cpp:425] inception_3b/relu_5x5_reduce <- inception_3b/5x5_reduce
I0403 19:42:12.538141 25607 net.cpp:386] inception_3b/relu_5x5_reduce -> inception_3b/5x5_reduce (in-place)
I0403 19:42:12.538337 25607 net.cpp:141] Setting up inception_3b/relu_5x5_reduce
I0403 19:42:12.538367 25607 net.cpp:148] Top shape: 24 32 28 28 (602112)
I0403 19:42:12.538383 25607 net.cpp:156] Memory required for data: 729760800
I0403 19:42:12.538399 25607 layer_factory.hpp:77] Creating layer inception_3b/5x5
I0403 19:42:12.538424 25607 net.cpp:91] Creating Layer inception_3b/5x5
I0403 19:42:12.538442 25607 net.cpp:425] inception_3b/5x5 <- inception_3b/5x5_reduce
I0403 19:42:12.538466 25607 net.cpp:399] inception_3b/5x5 -> inception_3b/5x5
I0403 19:42:12.540451 25607 net.cpp:141] Setting up inception_3b/5x5
I0403 19:42:12.540483 25607 net.cpp:148] Top shape: 24 96 28 28 (1806336)
I0403 19:42:12.540500 25607 net.cpp:156] Memory required for data: 736986144
I0403 19:42:12.540519 25607 layer_factory.hpp:77] Creating layer inception_3b/relu_5x5
I0403 19:42:12.540540 25607 net.cpp:91] Creating Layer inception_3b/relu_5x5
I0403 19:42:12.540560 25607 net.cpp:425] inception_3b/relu_5x5 <- inception_3b/5x5
I0403 19:42:12.540578 25607 net.cpp:386] inception_3b/relu_5x5 -> inception_3b/5x5 (in-place)
I0403 19:42:12.540771 25607 net.cpp:141] Setting up inception_3b/relu_5x5
I0403 19:42:12.540798 25607 net.cpp:148] Top shape: 24 96 28 28 (1806336)
I0403 19:42:12.540815 25607 net.cpp:156] Memory required for data: 744211488
I0403 19:42:12.540832 25607 layer_factory.hpp:77] Creating layer inception_3b/pool
I0403 19:42:12.540850 25607 net.cpp:91] Creating Layer inception_3b/pool
I0403 19:42:12.540868 25607 net.cpp:425] inception_3b/pool <- inception_3a/output_inception_3a/output_0_split_3
I0403 19:42:12.540887 25607 net.cpp:399] inception_3b/pool -> inception_3b/pool
I0403 19:42:12.540945 25607 net.cpp:141] Setting up inception_3b/pool
I0403 19:42:12.540971 25607 net.cpp:148] Top shape: 24 256 28 28 (4816896)
I0403 19:42:12.540985 25607 net.cpp:156] Memory required for data: 763479072
I0403 19:42:12.541002 25607 layer_factory.hpp:77] Creating layer inception_3b/pool_proj
I0403 19:42:12.541025 25607 net.cpp:91] Creating Layer inception_3b/pool_proj
I0403 19:42:12.541046 25607 net.cpp:425] inception_3b/pool_proj <- inception_3b/pool
I0403 19:42:12.541065 25607 net.cpp:399] inception_3b/pool_proj -> inception_3b/pool_proj
I0403 19:42:12.542126 25607 net.cpp:141] Setting up inception_3b/pool_proj
I0403 19:42:12.542158 25607 net.cpp:148] Top shape: 24 64 28 28 (1204224)
I0403 19:42:12.542177 25607 net.cpp:156] Memory required for data: 768295968
I0403 19:42:12.542197 25607 layer_factory.hpp:77] Creating layer inception_3b/relu_pool_proj
I0403 19:42:12.542217 25607 net.cpp:91] Creating Layer inception_3b/relu_pool_proj
I0403 19:42:12.542237 25607 net.cpp:425] inception_3b/relu_pool_proj <- inception_3b/pool_proj
I0403 19:42:12.542256 25607 net.cpp:386] inception_3b/relu_pool_proj -> inception_3b/pool_proj (in-place)
I0403 19:42:12.542650 25607 net.cpp:141] Setting up inception_3b/relu_pool_proj
I0403 19:42:12.542681 25607 net.cpp:148] Top shape: 24 64 28 28 (1204224)
I0403 19:42:12.542700 25607 net.cpp:156] Memory required for data: 773112864
I0403 19:42:12.542716 25607 layer_factory.hpp:77] Creating layer inception_3b/output
I0403 19:42:12.542733 25607 net.cpp:91] Creating Layer inception_3b/output
I0403 19:42:12.542750 25607 net.cpp:425] inception_3b/output <- inception_3b/1x1
I0403 19:42:12.542768 25607 net.cpp:425] inception_3b/output <- inception_3b/3x3
I0403 19:42:12.542788 25607 net.cpp:425] inception_3b/output <- inception_3b/5x5
I0403 19:42:12.542805 25607 net.cpp:425] inception_3b/output <- inception_3b/pool_proj
I0403 19:42:12.542826 25607 net.cpp:399] inception_3b/output -> inception_3b/output
I0403 19:42:12.542870 25607 net.cpp:141] Setting up inception_3b/output
I0403 19:42:12.542897 25607 net.cpp:148] Top shape: 24 480 28 28 (9031680)
I0403 19:42:12.542913 25607 net.cpp:156] Memory required for data: 809239584
I0403 19:42:12.542929 25607 layer_factory.hpp:77] Creating layer pool3/3x3_s2
I0403 19:42:12.542951 25607 net.cpp:91] Creating Layer pool3/3x3_s2
I0403 19:42:12.542971 25607 net.cpp:425] pool3/3x3_s2 <- inception_3b/output
I0403 19:42:12.543006 25607 net.cpp:399] pool3/3x3_s2 -> pool3/3x3_s2
I0403 19:42:12.543071 25607 net.cpp:141] Setting up pool3/3x3_s2
I0403 19:42:12.543097 25607 net.cpp:148] Top shape: 24 480 14 14 (2257920)
I0403 19:42:12.543115 25607 net.cpp:156] Memory required for data: 818271264
I0403 19:42:12.543131 25607 layer_factory.hpp:77] Creating layer pool3/3x3_s2_pool3/3x3_s2_0_split
I0403 19:42:12.543151 25607 net.cpp:91] Creating Layer pool3/3x3_s2_pool3/3x3_s2_0_split
I0403 19:42:12.543169 25607 net.cpp:425] pool3/3x3_s2_pool3/3x3_s2_0_split <- pool3/3x3_s2
I0403 19:42:12.543186 25607 net.cpp:399] pool3/3x3_s2_pool3/3x3_s2_0_split -> pool3/3x3_s2_pool3/3x3_s2_0_split_0
I0403 19:42:12.543205 25607 net.cpp:399] pool3/3x3_s2_pool3/3x3_s2_0_split -> pool3/3x3_s2_pool3/3x3_s2_0_split_1
I0403 19:42:12.543226 25607 net.cpp:399] pool3/3x3_s2_pool3/3x3_s2_0_split -> pool3/3x3_s2_pool3/3x3_s2_0_split_2
I0403 19:42:12.543247 25607 net.cpp:399] pool3/3x3_s2_pool3/3x3_s2_0_split -> pool3/3x3_s2_pool3/3x3_s2_0_split_3
I0403 19:42:12.543329 25607 net.cpp:141] Setting up pool3/3x3_s2_pool3/3x3_s2_0_split
I0403 19:42:12.543355 25607 net.cpp:148] Top shape: 24 480 14 14 (2257920)
I0403 19:42:12.543373 25607 net.cpp:148] Top shape: 24 480 14 14 (2257920)
I0403 19:42:12.543390 25607 net.cpp:148] Top shape: 24 480 14 14 (2257920)
I0403 19:42:12.543406 25607 net.cpp:148] Top shape: 24 480 14 14 (2257920)
I0403 19:42:12.543422 25607 net.cpp:156] Memory required for data: 854397984
I0403 19:42:12.543438 25607 layer_factory.hpp:77] Creating layer inception_4a/1x1
I0403 19:42:12.543459 25607 net.cpp:91] Creating Layer inception_4a/1x1
I0403 19:42:12.543479 25607 net.cpp:425] inception_4a/1x1 <- pool3/3x3_s2_pool3/3x3_s2_0_split_0
I0403 19:42:12.543500 25607 net.cpp:399] inception_4a/1x1 -> inception_4a/1x1
I0403 19:42:12.545061 25607 net.cpp:141] Setting up inception_4a/1x1
I0403 19:42:12.545090 25607 net.cpp:148] Top shape: 24 192 14 14 (903168)
I0403 19:42:12.545109 25607 net.cpp:156] Memory required for data: 858010656
I0403 19:42:12.545128 25607 layer_factory.hpp:77] Creating layer inception_4a/relu_1x1
I0403 19:42:12.545150 25607 net.cpp:91] Creating Layer inception_4a/relu_1x1
I0403 19:42:12.545171 25607 net.cpp:425] inception_4a/relu_1x1 <- inception_4a/1x1
I0403 19:42:12.545189 25607 net.cpp:386] inception_4a/relu_1x1 -> inception_4a/1x1 (in-place)
I0403 19:42:12.545370 25607 net.cpp:141] Setting up inception_4a/relu_1x1
I0403 19:42:12.545402 25607 net.cpp:148] Top shape: 24 192 14 14 (903168)
I0403 19:42:12.545418 25607 net.cpp:156] Memory required for data: 861623328
I0403 19:42:12.545433 25607 layer_factory.hpp:77] Creating layer inception_4a/3x3_reduce
I0403 19:42:12.545454 25607 net.cpp:91] Creating Layer inception_4a/3x3_reduce
I0403 19:42:12.545472 25607 net.cpp:425] inception_4a/3x3_reduce <- pool3/3x3_s2_pool3/3x3_s2_0_split_1
I0403 19:42:12.545495 25607 net.cpp:399] inception_4a/3x3_reduce -> inception_4a/3x3_reduce
I0403 19:42:12.546761 25607 net.cpp:141] Setting up inception_4a/3x3_reduce
I0403 19:42:12.546792 25607 net.cpp:148] Top shape: 24 96 14 14 (451584)
I0403 19:42:12.546809 25607 net.cpp:156] Memory required for data: 863429664
I0403 19:42:12.546835 25607 layer_factory.hpp:77] Creating layer inception_4a/relu_3x3_reduce
I0403 19:42:12.546859 25607 net.cpp:91] Creating Layer inception_4a/relu_3x3_reduce
I0403 19:42:12.546876 25607 net.cpp:425] inception_4a/relu_3x3_reduce <- inception_4a/3x3_reduce
I0403 19:42:12.546896 25607 net.cpp:386] inception_4a/relu_3x3_reduce -> inception_4a/3x3_reduce (in-place)
I0403 19:42:12.547070 25607 net.cpp:141] Setting up inception_4a/relu_3x3_reduce
I0403 19:42:12.547098 25607 net.cpp:148] Top shape: 24 96 14 14 (451584)
I0403 19:42:12.547113 25607 net.cpp:156] Memory required for data: 865236000
I0403 19:42:12.547127 25607 layer_factory.hpp:77] Creating layer inception_4a/3x3
I0403 19:42:12.547149 25607 net.cpp:91] Creating Layer inception_4a/3x3
I0403 19:42:12.547168 25607 net.cpp:425] inception_4a/3x3 <- inception_4a/3x3_reduce
I0403 19:42:12.547190 25607 net.cpp:399] inception_4a/3x3 -> inception_4a/3x3
I0403 19:42:12.549834 25607 net.cpp:141] Setting up inception_4a/3x3
I0403 19:42:12.549865 25607 net.cpp:148] Top shape: 24 208 14 14 (978432)
I0403 19:42:12.549882 25607 net.cpp:156] Memory required for data: 869149728
I0403 19:42:12.549902 25607 layer_factory.hpp:77] Creating layer inception_4a/relu_3x3
I0403 19:42:12.549924 25607 net.cpp:91] Creating Layer inception_4a/relu_3x3
I0403 19:42:12.549944 25607 net.cpp:425] inception_4a/relu_3x3 <- inception_4a/3x3
I0403 19:42:12.549964 25607 net.cpp:386] inception_4a/relu_3x3 -> inception_4a/3x3 (in-place)
I0403 19:42:12.550238 25607 net.cpp:141] Setting up inception_4a/relu_3x3
I0403 19:42:12.550268 25607 net.cpp:148] Top shape: 24 208 14 14 (978432)
I0403 19:42:12.550289 25607 net.cpp:156] Memory required for data: 873063456
I0403 19:42:12.550308 25607 layer_factory.hpp:77] Creating layer inception_4a/5x5_reduce
I0403 19:42:12.550333 25607 net.cpp:91] Creating Layer inception_4a/5x5_reduce
I0403 19:42:12.550354 25607 net.cpp:425] inception_4a/5x5_reduce <- pool3/3x3_s2_pool3/3x3_s2_0_split_2
I0403 19:42:12.550374 25607 net.cpp:399] inception_4a/5x5_reduce -> inception_4a/5x5_reduce
I0403 19:42:12.551383 25607 net.cpp:141] Setting up inception_4a/5x5_reduce
I0403 19:42:12.551414 25607 net.cpp:148] Top shape: 24 16 14 14 (75264)
I0403 19:42:12.551434 25607 net.cpp:156] Memory required for data: 873364512
I0403 19:42:12.551455 25607 layer_factory.hpp:77] Creating layer inception_4a/relu_5x5_reduce
I0403 19:42:12.551476 25607 net.cpp:91] Creating Layer inception_4a/relu_5x5_reduce
I0403 19:42:12.551496 25607 net.cpp:425] inception_4a/relu_5x5_reduce <- inception_4a/5x5_reduce
I0403 19:42:12.551513 25607 net.cpp:386] inception_4a/relu_5x5_reduce -> inception_4a/5x5_reduce (in-place)
I0403 19:42:12.551693 25607 net.cpp:141] Setting up inception_4a/relu_5x5_reduce
I0403 19:42:12.551722 25607 net.cpp:148] Top shape: 24 16 14 14 (75264)
I0403 19:42:12.551736 25607 net.cpp:156] Memory required for data: 873665568
I0403 19:42:12.551753 25607 layer_factory.hpp:77] Creating layer inception_4a/5x5
I0403 19:42:12.551776 25607 net.cpp:91] Creating Layer inception_4a/5x5
I0403 19:42:12.551795 25607 net.cpp:425] inception_4a/5x5 <- inception_4a/5x5_reduce
I0403 19:42:12.551817 25607 net.cpp:399] inception_4a/5x5 -> inception_4a/5x5
I0403 19:42:12.552889 25607 net.cpp:141] Setting up inception_4a/5x5
I0403 19:42:12.552920 25607 net.cpp:148] Top shape: 24 48 14 14 (225792)
I0403 19:42:12.552937 25607 net.cpp:156] Memory required for data: 874568736
I0403 19:42:12.552955 25607 layer_factory.hpp:77] Creating layer inception_4a/relu_5x5
I0403 19:42:12.552973 25607 net.cpp:91] Creating Layer inception_4a/relu_5x5
I0403 19:42:12.552990 25607 net.cpp:425] inception_4a/relu_5x5 <- inception_4a/5x5
I0403 19:42:12.553011 25607 net.cpp:386] inception_4a/relu_5x5 -> inception_4a/5x5 (in-place)
I0403 19:42:12.553186 25607 net.cpp:141] Setting up inception_4a/relu_5x5
I0403 19:42:12.553215 25607 net.cpp:148] Top shape: 24 48 14 14 (225792)
I0403 19:42:12.553231 25607 net.cpp:156] Memory required for data: 875471904
I0403 19:42:12.553246 25607 layer_factory.hpp:77] Creating layer inception_4a/pool
I0403 19:42:12.553270 25607 net.cpp:91] Creating Layer inception_4a/pool
I0403 19:42:12.553294 25607 net.cpp:425] inception_4a/pool <- pool3/3x3_s2_pool3/3x3_s2_0_split_3
I0403 19:42:12.553318 25607 net.cpp:399] inception_4a/pool -> inception_4a/pool
I0403 19:42:12.553380 25607 net.cpp:141] Setting up inception_4a/pool
I0403 19:42:12.553407 25607 net.cpp:148] Top shape: 24 480 14 14 (2257920)
I0403 19:42:12.553423 25607 net.cpp:156] Memory required for data: 884503584
I0403 19:42:12.553439 25607 layer_factory.hpp:77] Creating layer inception_4a/pool_proj
I0403 19:42:12.553462 25607 net.cpp:91] Creating Layer inception_4a/pool_proj
I0403 19:42:12.553480 25607 net.cpp:425] inception_4a/pool_proj <- inception_4a/pool
I0403 19:42:12.553501 25607 net.cpp:399] inception_4a/pool_proj -> inception_4a/pool_proj
I0403 19:42:12.554667 25607 net.cpp:141] Setting up inception_4a/pool_proj
I0403 19:42:12.554699 25607 net.cpp:148] Top shape: 24 64 14 14 (301056)
I0403 19:42:12.554733 25607 net.cpp:156] Memory required for data: 885707808
I0403 19:42:12.554754 25607 layer_factory.hpp:77] Creating layer inception_4a/relu_pool_proj
I0403 19:42:12.554777 25607 net.cpp:91] Creating Layer inception_4a/relu_pool_proj
I0403 19:42:12.554795 25607 net.cpp:425] inception_4a/relu_pool_proj <- inception_4a/pool_proj
I0403 19:42:12.554814 25607 net.cpp:386] inception_4a/relu_pool_proj -> inception_4a/pool_proj (in-place)
I0403 19:42:12.555096 25607 net.cpp:141] Setting up inception_4a/relu_pool_proj
I0403 19:42:12.555124 25607 net.cpp:148] Top shape: 24 64 14 14 (301056)
I0403 19:42:12.555140 25607 net.cpp:156] Memory required for data: 886912032
I0403 19:42:12.555156 25607 layer_factory.hpp:77] Creating layer inception_4a/output
I0403 19:42:12.555176 25607 net.cpp:91] Creating Layer inception_4a/output
I0403 19:42:12.555191 25607 net.cpp:425] inception_4a/output <- inception_4a/1x1
I0403 19:42:12.555209 25607 net.cpp:425] inception_4a/output <- inception_4a/3x3
I0403 19:42:12.555230 25607 net.cpp:425] inception_4a/output <- inception_4a/5x5
I0403 19:42:12.555248 25607 net.cpp:425] inception_4a/output <- inception_4a/pool_proj
I0403 19:42:12.555266 25607 net.cpp:399] inception_4a/output -> inception_4a/output
I0403 19:42:12.555315 25607 net.cpp:141] Setting up inception_4a/output
I0403 19:42:12.555343 25607 net.cpp:148] Top shape: 24 512 14 14 (2408448)
I0403 19:42:12.555361 25607 net.cpp:156] Memory required for data: 896545824
I0403 19:42:12.555377 25607 layer_factory.hpp:77] Creating layer inception_4a/output_inception_4a/output_0_split
I0403 19:42:12.555395 25607 net.cpp:91] Creating Layer inception_4a/output_inception_4a/output_0_split
I0403 19:42:12.555411 25607 net.cpp:425] inception_4a/output_inception_4a/output_0_split <- inception_4a/output
I0403 19:42:12.555433 25607 net.cpp:399] inception_4a/output_inception_4a/output_0_split -> inception_4a/output_inception_4a/output_0_split_0
I0403 19:42:12.555455 25607 net.cpp:399] inception_4a/output_inception_4a/output_0_split -> inception_4a/output_inception_4a/output_0_split_1
I0403 19:42:12.555477 25607 net.cpp:399] inception_4a/output_inception_4a/output_0_split -> inception_4a/output_inception_4a/output_0_split_2
I0403 19:42:12.555500 25607 net.cpp:399] inception_4a/output_inception_4a/output_0_split -> inception_4a/output_inception_4a/output_0_split_3
I0403 19:42:12.555519 25607 net.cpp:399] inception_4a/output_inception_4a/output_0_split -> inception_4a/output_inception_4a/output_0_split_4
I0403 19:42:12.555611 25607 net.cpp:141] Setting up inception_4a/output_inception_4a/output_0_split
I0403 19:42:12.555635 25607 net.cpp:148] Top shape: 24 512 14 14 (2408448)
I0403 19:42:12.555655 25607 net.cpp:148] Top shape: 24 512 14 14 (2408448)
I0403 19:42:12.555673 25607 net.cpp:148] Top shape: 24 512 14 14 (2408448)
I0403 19:42:12.555691 25607 net.cpp:148] Top shape: 24 512 14 14 (2408448)
I0403 19:42:12.555707 25607 net.cpp:148] Top shape: 24 512 14 14 (2408448)
I0403 19:42:12.555723 25607 net.cpp:156] Memory required for data: 944714784
I0403 19:42:12.555738 25607 layer_factory.hpp:77] Creating layer loss1/ave_pool
I0403 19:42:12.555757 25607 net.cpp:91] Creating Layer loss1/ave_pool
I0403 19:42:12.555773 25607 net.cpp:425] loss1/ave_pool <- inception_4a/output_inception_4a/output_0_split_0
I0403 19:42:12.555794 25607 net.cpp:399] loss1/ave_pool -> loss1/ave_pool
I0403 19:42:12.556001 25607 net.cpp:141] Setting up loss1/ave_pool
I0403 19:42:12.556030 25607 net.cpp:148] Top shape: 24 512 4 4 (196608)
I0403 19:42:12.556046 25607 net.cpp:156] Memory required for data: 945501216
I0403 19:42:12.556061 25607 layer_factory.hpp:77] Creating layer loss1/conv
I0403 19:42:12.556083 25607 net.cpp:91] Creating Layer loss1/conv
I0403 19:42:12.556103 25607 net.cpp:425] loss1/conv <- loss1/ave_pool
I0403 19:42:12.556125 25607 net.cpp:399] loss1/conv -> loss1/conv
I0403 19:42:12.557524 25607 net.cpp:141] Setting up loss1/conv
I0403 19:42:12.557555 25607 net.cpp:148] Top shape: 24 128 4 4 (49152)
I0403 19:42:12.557586 25607 net.cpp:156] Memory required for data: 945697824
I0403 19:42:12.557606 25607 layer_factory.hpp:77] Creating layer loss1/relu_conv
I0403 19:42:12.557627 25607 net.cpp:91] Creating Layer loss1/relu_conv
I0403 19:42:12.557646 25607 net.cpp:425] loss1/relu_conv <- loss1/conv
I0403 19:42:12.557665 25607 net.cpp:386] loss1/relu_conv -> loss1/conv (in-place)
I0403 19:42:12.557948 25607 net.cpp:141] Setting up loss1/relu_conv
I0403 19:42:12.557976 25607 net.cpp:148] Top shape: 24 128 4 4 (49152)
I0403 19:42:12.557993 25607 net.cpp:156] Memory required for data: 945894432
I0403 19:42:12.558008 25607 layer_factory.hpp:77] Creating layer loss1/fc
I0403 19:42:12.558038 25607 net.cpp:91] Creating Layer loss1/fc
I0403 19:42:12.558059 25607 net.cpp:425] loss1/fc <- loss1/conv
I0403 19:42:12.558080 25607 net.cpp:399] loss1/fc -> loss1/fc
I0403 19:42:12.575470 25607 net.cpp:141] Setting up loss1/fc
I0403 19:42:12.575505 25607 net.cpp:148] Top shape: 24 1024 (24576)
I0403 19:42:12.575521 25607 net.cpp:156] Memory required for data: 945992736
I0403 19:42:12.575541 25607 layer_factory.hpp:77] Creating layer loss1/relu_fc
I0403 19:42:12.575562 25607 net.cpp:91] Creating Layer loss1/relu_fc
I0403 19:42:12.575579 25607 net.cpp:425] loss1/relu_fc <- loss1/fc
I0403 19:42:12.575599 25607 net.cpp:386] loss1/relu_fc -> loss1/fc (in-place)
I0403 19:42:12.575776 25607 net.cpp:141] Setting up loss1/relu_fc
I0403 19:42:12.575809 25607 net.cpp:148] Top shape: 24 1024 (24576)
I0403 19:42:12.575826 25607 net.cpp:156] Memory required for data: 946091040
I0403 19:42:12.575842 25607 layer_factory.hpp:77] Creating layer loss1/drop_fc
I0403 19:42:12.575870 25607 net.cpp:91] Creating Layer loss1/drop_fc
I0403 19:42:12.575887 25607 net.cpp:425] loss1/drop_fc <- loss1/fc
I0403 19:42:12.575907 25607 net.cpp:386] loss1/drop_fc -> loss1/fc (in-place)
I0403 19:42:12.575963 25607 net.cpp:141] Setting up loss1/drop_fc
I0403 19:42:12.575990 25607 net.cpp:148] Top shape: 24 1024 (24576)
I0403 19:42:12.576006 25607 net.cpp:156] Memory required for data: 946189344
I0403 19:42:12.576023 25607 layer_factory.hpp:77] Creating layer loss1/classifier_plantvillage
I0403 19:42:12.576041 25607 net.cpp:91] Creating Layer loss1/classifier_plantvillage
I0403 19:42:12.576056 25607 net.cpp:425] loss1/classifier_plantvillage <- loss1/fc
I0403 19:42:12.576081 25607 net.cpp:399] loss1/classifier_plantvillage -> loss1/classifier_plantvillage
I0403 19:42:12.576982 25607 net.cpp:141] Setting up loss1/classifier_plantvillage
I0403 19:42:12.577013 25607 net.cpp:148] Top shape: 24 38 (912)
I0403 19:42:12.577029 25607 net.cpp:156] Memory required for data: 946192992
I0403 19:42:12.577047 25607 layer_factory.hpp:77] Creating layer loss1/classifier_plantvillage_loss1/classifier_plantvillage_0_split
I0403 19:42:12.577069 25607 net.cpp:91] Creating Layer loss1/classifier_plantvillage_loss1/classifier_plantvillage_0_split
I0403 19:42:12.577088 25607 net.cpp:425] loss1/classifier_plantvillage_loss1/classifier_plantvillage_0_split <- loss1/classifier_plantvillage
I0403 19:42:12.577107 25607 net.cpp:399] loss1/classifier_plantvillage_loss1/classifier_plantvillage_0_split -> loss1/classifier_plantvillage_loss1/classifier_plantvillage_0_split_0
I0403 19:42:12.577126 25607 net.cpp:399] loss1/classifier_plantvillage_loss1/classifier_plantvillage_0_split -> loss1/classifier_plantvillage_loss1/classifier_plantvillage_0_split_1
I0403 19:42:12.577149 25607 net.cpp:399] loss1/classifier_plantvillage_loss1/classifier_plantvillage_0_split -> loss1/classifier_plantvillage_loss1/classifier_plantvillage_0_split_2
I0403 19:42:12.577217 25607 net.cpp:141] Setting up loss1/classifier_plantvillage_loss1/classifier_plantvillage_0_split
I0403 19:42:12.577245 25607 net.cpp:148] Top shape: 24 38 (912)
I0403 19:42:12.577263 25607 net.cpp:148] Top shape: 24 38 (912)
I0403 19:42:12.577280 25607 net.cpp:148] Top shape: 24 38 (912)
I0403 19:42:12.577298 25607 net.cpp:156] Memory required for data: 946203936
I0403 19:42:12.577316 25607 layer_factory.hpp:77] Creating layer inception_4b/1x1
I0403 19:42:12.577340 25607 net.cpp:91] Creating Layer inception_4b/1x1
I0403 19:42:12.577373 25607 net.cpp:425] inception_4b/1x1 <- inception_4a/output_inception_4a/output_0_split_1
I0403 19:42:12.577395 25607 net.cpp:399] inception_4b/1x1 -> inception_4b/1x1
I0403 19:42:12.578965 25607 net.cpp:141] Setting up inception_4b/1x1
I0403 19:42:12.578995 25607 net.cpp:148] Top shape: 24 160 14 14 (752640)
I0403 19:42:12.579012 25607 net.cpp:156] Memory required for data: 949214496
I0403 19:42:12.579031 25607 layer_factory.hpp:77] Creating layer inception_4b/relu_1x1
I0403 19:42:12.579051 25607 net.cpp:91] Creating Layer inception_4b/relu_1x1
I0403 19:42:12.579068 25607 net.cpp:425] inception_4b/relu_1x1 <- inception_4b/1x1
I0403 19:42:12.579087 25607 net.cpp:386] inception_4b/relu_1x1 -> inception_4b/1x1 (in-place)
I0403 19:42:12.579262 25607 net.cpp:141] Setting up inception_4b/relu_1x1
I0403 19:42:12.579293 25607 net.cpp:148] Top shape: 24 160 14 14 (752640)
I0403 19:42:12.579311 25607 net.cpp:156] Memory required for data: 952225056
I0403 19:42:12.579327 25607 layer_factory.hpp:77] Creating layer inception_4b/3x3_reduce
I0403 19:42:12.579352 25607 net.cpp:91] Creating Layer inception_4b/3x3_reduce
I0403 19:42:12.579371 25607 net.cpp:425] inception_4b/3x3_reduce <- inception_4a/output_inception_4a/output_0_split_2
I0403 19:42:12.579394 25607 net.cpp:399] inception_4b/3x3_reduce -> inception_4b/3x3_reduce
I0403 19:42:12.580704 25607 net.cpp:141] Setting up inception_4b/3x3_reduce
I0403 19:42:12.580735 25607 net.cpp:148] Top shape: 24 112 14 14 (526848)
I0403 19:42:12.580754 25607 net.cpp:156] Memory required for data: 954332448
I0403 19:42:12.580771 25607 layer_factory.hpp:77] Creating layer inception_4b/relu_3x3_reduce
I0403 19:42:12.580790 25607 net.cpp:91] Creating Layer inception_4b/relu_3x3_reduce
I0403 19:42:12.580807 25607 net.cpp:425] inception_4b/relu_3x3_reduce <- inception_4b/3x3_reduce
I0403 19:42:12.580827 25607 net.cpp:386] inception_4b/relu_3x3_reduce -> inception_4b/3x3_reduce (in-place)
I0403 19:42:12.581101 25607 net.cpp:141] Setting up inception_4b/relu_3x3_reduce
I0403 19:42:12.581131 25607 net.cpp:148] Top shape: 24 112 14 14 (526848)
I0403 19:42:12.581147 25607 net.cpp:156] Memory required for data: 956439840
I0403 19:42:12.581162 25607 layer_factory.hpp:77] Creating layer inception_4b/3x3
I0403 19:42:12.581184 25607 net.cpp:91] Creating Layer inception_4b/3x3
I0403 19:42:12.581204 25607 net.cpp:425] inception_4b/3x3 <- inception_4b/3x3_reduce
I0403 19:42:12.581228 25607 net.cpp:399] inception_4b/3x3 -> inception_4b/3x3
I0403 19:42:12.584127 25607 net.cpp:141] Setting up inception_4b/3x3
I0403 19:42:12.584157 25607 net.cpp:148] Top shape: 24 224 14 14 (1053696)
I0403 19:42:12.584174 25607 net.cpp:156] Memory required for data: 960654624
I0403 19:42:12.584193 25607 layer_factory.hpp:77] Creating layer inception_4b/relu_3x3
I0403 19:42:12.584214 25607 net.cpp:91] Creating Layer inception_4b/relu_3x3
I0403 19:42:12.584233 25607 net.cpp:425] inception_4b/relu_3x3 <- inception_4b/3x3
I0403 19:42:12.584264 25607 net.cpp:386] inception_4b/relu_3x3 -> inception_4b/3x3 (in-place)
I0403 19:42:12.584458 25607 net.cpp:141] Setting up inception_4b/relu_3x3
I0403 19:42:12.584491 25607 net.cpp:148] Top shape: 24 224 14 14 (1053696)
I0403 19:42:12.584511 25607 net.cpp:156] Memory required for data: 964869408
I0403 19:42:12.584527 25607 layer_factory.hpp:77] Creating layer inception_4b/5x5_reduce
I0403 19:42:12.584549 25607 net.cpp:91] Creating Layer inception_4b/5x5_reduce
I0403 19:42:12.584568 25607 net.cpp:425] inception_4b/5x5_reduce <- inception_4a/output_inception_4a/output_0_split_3
I0403 19:42:12.584588 25607 net.cpp:399] inception_4b/5x5_reduce -> inception_4b/5x5_reduce
I0403 19:42:12.585731 25607 net.cpp:141] Setting up inception_4b/5x5_reduce
I0403 19:42:12.585762 25607 net.cpp:148] Top shape: 24 24 14 14 (112896)
I0403 19:42:12.585778 25607 net.cpp:156] Memory required for data: 965320992
I0403 19:42:12.585796 25607 layer_factory.hpp:77] Creating layer inception_4b/relu_5x5_reduce
I0403 19:42:12.585813 25607 net.cpp:91] Creating Layer inception_4b/relu_5x5_reduce
I0403 19:42:12.585844 25607 net.cpp:425] inception_4b/relu_5x5_reduce <- inception_4b/5x5_reduce
I0403 19:42:12.585865 25607 net.cpp:386] inception_4b/relu_5x5_reduce -> inception_4b/5x5_reduce (in-place)
I0403 19:42:12.586047 25607 net.cpp:141] Setting up inception_4b/relu_5x5_reduce
I0403 19:42:12.586072 25607 net.cpp:148] Top shape: 24 24 14 14 (112896)
I0403 19:42:12.586087 25607 net.cpp:156] Memory required for data: 965772576
I0403 19:42:12.586102 25607 layer_factory.hpp:77] Creating layer inception_4b/5x5
I0403 19:42:12.586124 25607 net.cpp:91] Creating Layer inception_4b/5x5
I0403 19:42:12.586143 25607 net.cpp:425] inception_4b/5x5 <- inception_4b/5x5_reduce
I0403 19:42:12.586163 25607 net.cpp:399] inception_4b/5x5 -> inception_4b/5x5
I0403 19:42:12.587359 25607 net.cpp:141] Setting up inception_4b/5x5
I0403 19:42:12.587388 25607 net.cpp:148] Top shape: 24 64 14 14 (301056)
I0403 19:42:12.587404 25607 net.cpp:156] Memory required for data: 966976800
I0403 19:42:12.587421 25607 layer_factory.hpp:77] Creating layer inception_4b/relu_5x5
I0403 19:42:12.587442 25607 net.cpp:91] Creating Layer inception_4b/relu_5x5
I0403 19:42:12.587460 25607 net.cpp:425] inception_4b/relu_5x5 <- inception_4b/5x5
I0403 19:42:12.587477 25607 net.cpp:386] inception_4b/relu_5x5 -> inception_4b/5x5 (in-place)
I0403 19:42:12.587752 25607 net.cpp:141] Setting up inception_4b/relu_5x5
I0403 19:42:12.587779 25607 net.cpp:148] Top shape: 24 64 14 14 (301056)
I0403 19:42:12.587795 25607 net.cpp:156] Memory required for data: 968181024
I0403 19:42:12.587810 25607 layer_factory.hpp:77] Creating layer inception_4b/pool
I0403 19:42:12.587833 25607 net.cpp:91] Creating Layer inception_4b/pool
I0403 19:42:12.587852 25607 net.cpp:425] inception_4b/pool <- inception_4a/output_inception_4a/output_0_split_4
I0403 19:42:12.587870 25607 net.cpp:399] inception_4b/pool -> inception_4b/pool
I0403 19:42:12.587935 25607 net.cpp:141] Setting up inception_4b/pool
I0403 19:42:12.587960 25607 net.cpp:148] Top shape: 24 512 14 14 (2408448)
I0403 19:42:12.587975 25607 net.cpp:156] Memory required for data: 977814816
I0403 19:42:12.587990 25607 layer_factory.hpp:77] Creating layer inception_4b/pool_proj
I0403 19:42:12.588011 25607 net.cpp:91] Creating Layer inception_4b/pool_proj
I0403 19:42:12.588028 25607 net.cpp:425] inception_4b/pool_proj <- inception_4b/pool
I0403 19:42:12.588049 25607 net.cpp:399] inception_4b/pool_proj -> inception_4b/pool_proj
I0403 19:42:12.589221 25607 net.cpp:141] Setting up inception_4b/pool_proj
I0403 19:42:12.589252 25607 net.cpp:148] Top shape: 24 64 14 14 (301056)
I0403 19:42:12.589270 25607 net.cpp:156] Memory required for data: 979019040
I0403 19:42:12.589294 25607 layer_factory.hpp:77] Creating layer inception_4b/relu_pool_proj
I0403 19:42:12.589314 25607 net.cpp:91] Creating Layer inception_4b/relu_pool_proj
I0403 19:42:12.589331 25607 net.cpp:425] inception_4b/relu_pool_proj <- inception_4b/pool_proj
I0403 19:42:12.589350 25607 net.cpp:386] inception_4b/relu_pool_proj -> inception_4b/pool_proj (in-place)
I0403 19:42:12.589527 25607 net.cpp:141] Setting up inception_4b/relu_pool_proj
I0403 19:42:12.589555 25607 net.cpp:148] Top shape: 24 64 14 14 (301056)
I0403 19:42:12.589570 25607 net.cpp:156] Memory required for data: 980223264
I0403 19:42:12.589584 25607 layer_factory.hpp:77] Creating layer inception_4b/output
I0403 19:42:12.589601 25607 net.cpp:91] Creating Layer inception_4b/output
I0403 19:42:12.589617 25607 net.cpp:425] inception_4b/output <- inception_4b/1x1
I0403 19:42:12.589633 25607 net.cpp:425] inception_4b/output <- inception_4b/3x3
I0403 19:42:12.589648 25607 net.cpp:425] inception_4b/output <- inception_4b/5x5
I0403 19:42:12.589665 25607 net.cpp:425] inception_4b/output <- inception_4b/pool_proj
I0403 19:42:12.589684 25607 net.cpp:399] inception_4b/output -> inception_4b/output
I0403 19:42:12.589727 25607 net.cpp:141] Setting up inception_4b/output
I0403 19:42:12.589753 25607 net.cpp:148] Top shape: 24 512 14 14 (2408448)
I0403 19:42:12.589769 25607 net.cpp:156] Memory required for data: 989857056
I0403 19:42:12.589798 25607 layer_factory.hpp:77] Creating layer inception_4b/output_inception_4b/output_0_split
I0403 19:42:12.589818 25607 net.cpp:91] Creating Layer inception_4b/output_inception_4b/output_0_split
I0403 19:42:12.589833 25607 net.cpp:425] inception_4b/output_inception_4b/output_0_split <- inception_4b/output
I0403 19:42:12.589849 25607 net.cpp:399] inception_4b/output_inception_4b/output_0_split -> inception_4b/output_inception_4b/output_0_split_0
I0403 19:42:12.589870 25607 net.cpp:399] inception_4b/output_inception_4b/output_0_split -> inception_4b/output_inception_4b/output_0_split_1
I0403 19:42:12.589892 25607 net.cpp:399] inception_4b/output_inception_4b/output_0_split -> inception_4b/output_inception_4b/output_0_split_2
I0403 19:42:12.589913 25607 net.cpp:399] inception_4b/output_inception_4b/output_0_split -> inception_4b/output_inception_4b/output_0_split_3
I0403 19:42:12.589998 25607 net.cpp:141] Setting up inception_4b/output_inception_4b/output_0_split
I0403 19:42:12.590023 25607 net.cpp:148] Top shape: 24 512 14 14 (2408448)
I0403 19:42:12.590040 25607 net.cpp:148] Top shape: 24 512 14 14 (2408448)
I0403 19:42:12.590055 25607 net.cpp:148] Top shape: 24 512 14 14 (2408448)
I0403 19:42:12.590070 25607 net.cpp:148] Top shape: 24 512 14 14 (2408448)
I0403 19:42:12.590083 25607 net.cpp:156] Memory required for data: 1028392224
I0403 19:42:12.590096 25607 layer_factory.hpp:77] Creating layer inception_4c/1x1
I0403 19:42:12.590119 25607 net.cpp:91] Creating Layer inception_4c/1x1
I0403 19:42:12.590139 25607 net.cpp:425] inception_4c/1x1 <- inception_4b/output_inception_4b/output_0_split_0
I0403 19:42:12.590158 25607 net.cpp:399] inception_4c/1x1 -> inception_4c/1x1
I0403 19:42:12.591557 25607 net.cpp:141] Setting up inception_4c/1x1
I0403 19:42:12.591585 25607 net.cpp:148] Top shape: 24 128 14 14 (602112)
I0403 19:42:12.591601 25607 net.cpp:156] Memory required for data: 1030800672
I0403 19:42:12.591619 25607 layer_factory.hpp:77] Creating layer inception_4c/relu_1x1
I0403 19:42:12.591636 25607 net.cpp:91] Creating Layer inception_4c/relu_1x1
I0403 19:42:12.591652 25607 net.cpp:425] inception_4c/relu_1x1 <- inception_4c/1x1
I0403 19:42:12.591672 25607 net.cpp:386] inception_4c/relu_1x1 -> inception_4c/1x1 (in-place)
I0403 19:42:12.591850 25607 net.cpp:141] Setting up inception_4c/relu_1x1
I0403 19:42:12.591876 25607 net.cpp:148] Top shape: 24 128 14 14 (602112)
I0403 19:42:12.591891 25607 net.cpp:156] Memory required for data: 1033209120
I0403 19:42:12.591904 25607 layer_factory.hpp:77] Creating layer inception_4c/3x3_reduce
I0403 19:42:12.591927 25607 net.cpp:91] Creating Layer inception_4c/3x3_reduce
I0403 19:42:12.591944 25607 net.cpp:425] inception_4c/3x3_reduce <- inception_4b/output_inception_4b/output_0_split_1
I0403 19:42:12.591965 25607 net.cpp:399] inception_4c/3x3_reduce -> inception_4c/3x3_reduce
I0403 19:42:12.593876 25607 net.cpp:141] Setting up inception_4c/3x3_reduce
I0403 19:42:12.593907 25607 net.cpp:148] Top shape: 24 128 14 14 (602112)
I0403 19:42:12.593925 25607 net.cpp:156] Memory required for data: 1035617568
I0403 19:42:12.593943 25607 layer_factory.hpp:77] Creating layer inception_4c/relu_3x3_reduce
I0403 19:42:12.593961 25607 net.cpp:91] Creating Layer inception_4c/relu_3x3_reduce
I0403 19:42:12.593976 25607 net.cpp:425] inception_4c/relu_3x3_reduce <- inception_4c/3x3_reduce
I0403 19:42:12.593993 25607 net.cpp:386] inception_4c/relu_3x3_reduce -> inception_4c/3x3_reduce (in-place)
I0403 19:42:12.594271 25607 net.cpp:141] Setting up inception_4c/relu_3x3_reduce
I0403 19:42:12.594312 25607 net.cpp:148] Top shape: 24 128 14 14 (602112)
I0403 19:42:12.594331 25607 net.cpp:156] Memory required for data: 1038026016
I0403 19:42:12.594347 25607 layer_factory.hpp:77] Creating layer inception_4c/3x3
I0403 19:42:12.594367 25607 net.cpp:91] Creating Layer inception_4c/3x3
I0403 19:42:12.594383 25607 net.cpp:425] inception_4c/3x3 <- inception_4c/3x3_reduce
I0403 19:42:12.594406 25607 net.cpp:399] inception_4c/3x3 -> inception_4c/3x3
I0403 19:42:12.597875 25607 net.cpp:141] Setting up inception_4c/3x3
I0403 19:42:12.597918 25607 net.cpp:148] Top shape: 24 256 14 14 (1204224)
I0403 19:42:12.597934 25607 net.cpp:156] Memory required for data: 1042842912
I0403 19:42:12.597965 25607 layer_factory.hpp:77] Creating layer inception_4c/relu_3x3
I0403 19:42:12.597985 25607 net.cpp:91] Creating Layer inception_4c/relu_3x3
I0403 19:42:12.598001 25607 net.cpp:425] inception_4c/relu_3x3 <- inception_4c/3x3
I0403 19:42:12.598019 25607 net.cpp:386] inception_4c/relu_3x3 -> inception_4c/3x3 (in-place)
I0403 19:42:12.598193 25607 net.cpp:141] Setting up inception_4c/relu_3x3
I0403 19:42:12.598220 25607 net.cpp:148] Top shape: 24 256 14 14 (1204224)
I0403 19:42:12.598235 25607 net.cpp:156] Memory required for data: 1047659808
I0403 19:42:12.598248 25607 layer_factory.hpp:77] Creating layer inception_4c/5x5_reduce
I0403 19:42:12.598270 25607 net.cpp:91] Creating Layer inception_4c/5x5_reduce
I0403 19:42:12.598292 25607 net.cpp:425] inception_4c/5x5_reduce <- inception_4b/output_inception_4b/output_0_split_2
I0403 19:42:12.598314 25607 net.cpp:399] inception_4c/5x5_reduce -> inception_4c/5x5_reduce
I0403 19:42:12.599380 25607 net.cpp:141] Setting up inception_4c/5x5_reduce
I0403 19:42:12.599409 25607 net.cpp:148] Top shape: 24 24 14 14 (112896)
I0403 19:42:12.599424 25607 net.cpp:156] Memory required for data: 1048111392
I0403 19:42:12.599442 25607 layer_factory.hpp:77] Creating layer inception_4c/relu_5x5_reduce
I0403 19:42:12.599460 25607 net.cpp:91] Creating Layer inception_4c/relu_5x5_reduce
I0403 19:42:12.599477 25607 net.cpp:425] inception_4c/relu_5x5_reduce <- inception_4c/5x5_reduce
I0403 19:42:12.599493 25607 net.cpp:386] inception_4c/relu_5x5_reduce -> inception_4c/5x5_reduce (in-place)
I0403 19:42:12.599673 25607 net.cpp:141] Setting up inception_4c/relu_5x5_reduce
I0403 19:42:12.599696 25607 net.cpp:148] Top shape: 24 24 14 14 (112896)
I0403 19:42:12.599710 25607 net.cpp:156] Memory required for data: 1048562976
I0403 19:42:12.599725 25607 layer_factory.hpp:77] Creating layer inception_4c/5x5
I0403 19:42:12.599746 25607 net.cpp:91] Creating Layer inception_4c/5x5
I0403 19:42:12.599763 25607 net.cpp:425] inception_4c/5x5 <- inception_4c/5x5_reduce
I0403 19:42:12.599783 25607 net.cpp:399] inception_4c/5x5 -> inception_4c/5x5
I0403 19:42:12.600986 25607 net.cpp:141] Setting up inception_4c/5x5
I0403 19:42:12.601012 25607 net.cpp:148] Top shape: 24 64 14 14 (301056)
I0403 19:42:12.601027 25607 net.cpp:156] Memory required for data: 1049767200
I0403 19:42:12.601044 25607 layer_factory.hpp:77] Creating layer inception_4c/relu_5x5
I0403 19:42:12.601061 25607 net.cpp:91] Creating Layer inception_4c/relu_5x5
I0403 19:42:12.601076 25607 net.cpp:425] inception_4c/relu_5x5 <- inception_4c/5x5
I0403 19:42:12.601094 25607 net.cpp:386] inception_4c/relu_5x5 -> inception_4c/5x5 (in-place)
I0403 19:42:12.601382 25607 net.cpp:141] Setting up inception_4c/relu_5x5
I0403 19:42:12.601408 25607 net.cpp:148] Top shape: 24 64 14 14 (301056)
I0403 19:42:12.601423 25607 net.cpp:156] Memory required for data: 1050971424
I0403 19:42:12.601438 25607 layer_factory.hpp:77] Creating layer inception_4c/pool
I0403 19:42:12.601454 25607 net.cpp:91] Creating Layer inception_4c/pool
I0403 19:42:12.601469 25607 net.cpp:425] inception_4c/pool <- inception_4b/output_inception_4b/output_0_split_3
I0403 19:42:12.601487 25607 net.cpp:399] inception_4c/pool -> inception_4c/pool
I0403 19:42:12.601552 25607 net.cpp:141] Setting up inception_4c/pool
I0403 19:42:12.601575 25607 net.cpp:148] Top shape: 24 512 14 14 (2408448)
I0403 19:42:12.601589 25607 net.cpp:156] Memory required for data: 1060605216
I0403 19:42:12.601603 25607 layer_factory.hpp:77] Creating layer inception_4c/pool_proj
I0403 19:42:12.601624 25607 net.cpp:91] Creating Layer inception_4c/pool_proj
I0403 19:42:12.601641 25607 net.cpp:425] inception_4c/pool_proj <- inception_4c/pool
I0403 19:42:12.601660 25607 net.cpp:399] inception_4c/pool_proj -> inception_4c/pool_proj
I0403 19:42:12.602852 25607 net.cpp:141] Setting up inception_4c/pool_proj
I0403 19:42:12.602885 25607 net.cpp:148] Top shape: 24 64 14 14 (301056)
I0403 19:42:12.602913 25607 net.cpp:156] Memory required for data: 1061809440
I0403 19:42:12.602932 25607 layer_factory.hpp:77] Creating layer inception_4c/relu_pool_proj
I0403 19:42:12.602949 25607 net.cpp:91] Creating Layer inception_4c/relu_pool_proj
I0403 19:42:12.602965 25607 net.cpp:425] inception_4c/relu_pool_proj <- inception_4c/pool_proj
I0403 19:42:12.602983 25607 net.cpp:386] inception_4c/relu_pool_proj -> inception_4c/pool_proj (in-place)
I0403 19:42:12.603163 25607 net.cpp:141] Setting up inception_4c/relu_pool_proj
I0403 19:42:12.603186 25607 net.cpp:148] Top shape: 24 64 14 14 (301056)
I0403 19:42:12.603200 25607 net.cpp:156] Memory required for data: 1063013664
I0403 19:42:12.603214 25607 layer_factory.hpp:77] Creating layer inception_4c/output
I0403 19:42:12.603230 25607 net.cpp:91] Creating Layer inception_4c/output
I0403 19:42:12.603246 25607 net.cpp:425] inception_4c/output <- inception_4c/1x1
I0403 19:42:12.603261 25607 net.cpp:425] inception_4c/output <- inception_4c/3x3
I0403 19:42:12.603276 25607 net.cpp:425] inception_4c/output <- inception_4c/5x5
I0403 19:42:12.603296 25607 net.cpp:425] inception_4c/output <- inception_4c/pool_proj
I0403 19:42:12.603317 25607 net.cpp:399] inception_4c/output -> inception_4c/output
I0403 19:42:12.603363 25607 net.cpp:141] Setting up inception_4c/output
I0403 19:42:12.603389 25607 net.cpp:148] Top shape: 24 512 14 14 (2408448)
I0403 19:42:12.603404 25607 net.cpp:156] Memory required for data: 1072647456
I0403 19:42:12.603418 25607 layer_factory.hpp:77] Creating layer inception_4c/output_inception_4c/output_0_split
I0403 19:42:12.603435 25607 net.cpp:91] Creating Layer inception_4c/output_inception_4c/output_0_split
I0403 19:42:12.603448 25607 net.cpp:425] inception_4c/output_inception_4c/output_0_split <- inception_4c/output
I0403 19:42:12.603464 25607 net.cpp:399] inception_4c/output_inception_4c/output_0_split -> inception_4c/output_inception_4c/output_0_split_0
I0403 19:42:12.603483 25607 net.cpp:399] inception_4c/output_inception_4c/output_0_split -> inception_4c/output_inception_4c/output_0_split_1
I0403 19:42:12.603505 25607 net.cpp:399] inception_4c/output_inception_4c/output_0_split -> inception_4c/output_inception_4c/output_0_split_2
I0403 19:42:12.603528 25607 net.cpp:399] inception_4c/output_inception_4c/output_0_split -> inception_4c/output_inception_4c/output_0_split_3
I0403 19:42:12.603613 25607 net.cpp:141] Setting up inception_4c/output_inception_4c/output_0_split
I0403 19:42:12.603636 25607 net.cpp:148] Top shape: 24 512 14 14 (2408448)
I0403 19:42:12.603651 25607 net.cpp:148] Top shape: 24 512 14 14 (2408448)
I0403 19:42:12.603665 25607 net.cpp:148] Top shape: 24 512 14 14 (2408448)
I0403 19:42:12.603679 25607 net.cpp:148] Top shape: 24 512 14 14 (2408448)
I0403 19:42:12.603693 25607 net.cpp:156] Memory required for data: 1111182624
I0403 19:42:12.603708 25607 layer_factory.hpp:77] Creating layer inception_4d/1x1
I0403 19:42:12.603727 25607 net.cpp:91] Creating Layer inception_4d/1x1
I0403 19:42:12.603744 25607 net.cpp:425] inception_4d/1x1 <- inception_4c/output_inception_4c/output_0_split_0
I0403 19:42:12.603765 25607 net.cpp:399] inception_4d/1x1 -> inception_4d/1x1
I0403 19:42:12.605114 25607 net.cpp:141] Setting up inception_4d/1x1
I0403 19:42:12.605142 25607 net.cpp:148] Top shape: 24 112 14 14 (526848)
I0403 19:42:12.605157 25607 net.cpp:156] Memory required for data: 1113290016
I0403 19:42:12.605175 25607 layer_factory.hpp:77] Creating layer inception_4d/relu_1x1
I0403 19:42:12.605193 25607 net.cpp:91] Creating Layer inception_4d/relu_1x1
I0403 19:42:12.605209 25607 net.cpp:425] inception_4d/relu_1x1 <- inception_4d/1x1
I0403 19:42:12.605226 25607 net.cpp:386] inception_4d/relu_1x1 -> inception_4d/1x1 (in-place)
I0403 19:42:12.605412 25607 net.cpp:141] Setting up inception_4d/relu_1x1
I0403 19:42:12.605437 25607 net.cpp:148] Top shape: 24 112 14 14 (526848)
I0403 19:42:12.605453 25607 net.cpp:156] Memory required for data: 1115397408
I0403 19:42:12.605468 25607 layer_factory.hpp:77] Creating layer inception_4d/3x3_reduce
I0403 19:42:12.605502 25607 net.cpp:91] Creating Layer inception_4d/3x3_reduce
I0403 19:42:12.605520 25607 net.cpp:425] inception_4d/3x3_reduce <- inception_4c/output_inception_4c/output_0_split_1
I0403 19:42:12.605540 25607 net.cpp:399] inception_4d/3x3_reduce -> inception_4d/3x3_reduce
I0403 19:42:12.607018 25607 net.cpp:141] Setting up inception_4d/3x3_reduce
I0403 19:42:12.607045 25607 net.cpp:148] Top shape: 24 144 14 14 (677376)
I0403 19:42:12.607060 25607 net.cpp:156] Memory required for data: 1118106912
I0403 19:42:12.607079 25607 layer_factory.hpp:77] Creating layer inception_4d/relu_3x3_reduce
I0403 19:42:12.607097 25607 net.cpp:91] Creating Layer inception_4d/relu_3x3_reduce
I0403 19:42:12.607115 25607 net.cpp:425] inception_4d/relu_3x3_reduce <- inception_4d/3x3_reduce
I0403 19:42:12.607131 25607 net.cpp:386] inception_4d/relu_3x3_reduce -> inception_4d/3x3_reduce (in-place)
I0403 19:42:12.607416 25607 net.cpp:141] Setting up inception_4d/relu_3x3_reduce
I0403 19:42:12.607441 25607 net.cpp:148] Top shape: 24 144 14 14 (677376)
I0403 19:42:12.607456 25607 net.cpp:156] Memory required for data: 1120816416
I0403 19:42:12.607470 25607 layer_factory.hpp:77] Creating layer inception_4d/3x3
I0403 19:42:12.607492 25607 net.cpp:91] Creating Layer inception_4d/3x3
I0403 19:42:12.607509 25607 net.cpp:425] inception_4d/3x3 <- inception_4d/3x3_reduce
I0403 19:42:12.607529 25607 net.cpp:399] inception_4d/3x3 -> inception_4d/3x3
I0403 19:42:12.611654 25607 net.cpp:141] Setting up inception_4d/3x3
I0403 19:42:12.611682 25607 net.cpp:148] Top shape: 24 288 14 14 (1354752)
I0403 19:42:12.611697 25607 net.cpp:156] Memory required for data: 1126235424
I0403 19:42:12.611714 25607 layer_factory.hpp:77] Creating layer inception_4d/relu_3x3
I0403 19:42:12.611733 25607 net.cpp:91] Creating Layer inception_4d/relu_3x3
I0403 19:42:12.611750 25607 net.cpp:425] inception_4d/relu_3x3 <- inception_4d/3x3
I0403 19:42:12.611768 25607 net.cpp:386] inception_4d/relu_3x3 -> inception_4d/3x3 (in-place)
I0403 19:42:12.611945 25607 net.cpp:141] Setting up inception_4d/relu_3x3
I0403 19:42:12.611973 25607 net.cpp:148] Top shape: 24 288 14 14 (1354752)
I0403 19:42:12.611987 25607 net.cpp:156] Memory required for data: 1131654432
I0403 19:42:12.612001 25607 layer_factory.hpp:77] Creating layer inception_4d/5x5_reduce
I0403 19:42:12.612022 25607 net.cpp:91] Creating Layer inception_4d/5x5_reduce
I0403 19:42:12.612040 25607 net.cpp:425] inception_4d/5x5_reduce <- inception_4c/output_inception_4c/output_0_split_2
I0403 19:42:12.612057 25607 net.cpp:399] inception_4d/5x5_reduce -> inception_4d/5x5_reduce
I0403 19:42:12.613214 25607 net.cpp:141] Setting up inception_4d/5x5_reduce
I0403 19:42:12.613242 25607 net.cpp:148] Top shape: 24 32 14 14 (150528)
I0403 19:42:12.613257 25607 net.cpp:156] Memory required for data: 1132256544
I0403 19:42:12.613276 25607 layer_factory.hpp:77] Creating layer inception_4d/relu_5x5_reduce
I0403 19:42:12.613301 25607 net.cpp:91] Creating Layer inception_4d/relu_5x5_reduce
I0403 19:42:12.613319 25607 net.cpp:425] inception_4d/relu_5x5_reduce <- inception_4d/5x5_reduce
I0403 19:42:12.613337 25607 net.cpp:386] inception_4d/relu_5x5_reduce -> inception_4d/5x5_reduce (in-place)
I0403 19:42:12.613519 25607 net.cpp:141] Setting up inception_4d/relu_5x5_reduce
I0403 19:42:12.613548 25607 net.cpp:148] Top shape: 24 32 14 14 (150528)
I0403 19:42:12.613564 25607 net.cpp:156] Memory required for data: 1132858656
I0403 19:42:12.613579 25607 layer_factory.hpp:77] Creating layer inception_4d/5x5
I0403 19:42:12.613600 25607 net.cpp:91] Creating Layer inception_4d/5x5
I0403 19:42:12.613617 25607 net.cpp:425] inception_4d/5x5 <- inception_4d/5x5_reduce
I0403 19:42:12.613636 25607 net.cpp:399] inception_4d/5x5 -> inception_4d/5x5
I0403 19:42:12.615069 25607 net.cpp:141] Setting up inception_4d/5x5
I0403 19:42:12.615097 25607 net.cpp:148] Top shape: 24 64 14 14 (301056)
I0403 19:42:12.615113 25607 net.cpp:156] Memory required for data: 1134062880
I0403 19:42:12.615130 25607 layer_factory.hpp:77] Creating layer inception_4d/relu_5x5
I0403 19:42:12.615162 25607 net.cpp:91] Creating Layer inception_4d/relu_5x5
I0403 19:42:12.615180 25607 net.cpp:425] inception_4d/relu_5x5 <- inception_4d/5x5
I0403 19:42:12.615198 25607 net.cpp:386] inception_4d/relu_5x5 -> inception_4d/5x5 (in-place)
I0403 19:42:12.615501 25607 net.cpp:141] Setting up inception_4d/relu_5x5
I0403 19:42:12.615527 25607 net.cpp:148] Top shape: 24 64 14 14 (301056)
I0403 19:42:12.615543 25607 net.cpp:156] Memory required for data: 1135267104
I0403 19:42:12.615557 25607 layer_factory.hpp:77] Creating layer inception_4d/pool
I0403 19:42:12.615576 25607 net.cpp:91] Creating Layer inception_4d/pool
I0403 19:42:12.615592 25607 net.cpp:425] inception_4d/pool <- inception_4c/output_inception_4c/output_0_split_3
I0403 19:42:12.615612 25607 net.cpp:399] inception_4d/pool -> inception_4d/pool
I0403 19:42:12.615679 25607 net.cpp:141] Setting up inception_4d/pool
I0403 19:42:12.615702 25607 net.cpp:148] Top shape: 24 512 14 14 (2408448)
I0403 19:42:12.615717 25607 net.cpp:156] Memory required for data: 1144900896
I0403 19:42:12.615731 25607 layer_factory.hpp:77] Creating layer inception_4d/pool_proj
I0403 19:42:12.615754 25607 net.cpp:91] Creating Layer inception_4d/pool_proj
I0403 19:42:12.615772 25607 net.cpp:425] inception_4d/pool_proj <- inception_4d/pool
I0403 19:42:12.615790 25607 net.cpp:399] inception_4d/pool_proj -> inception_4d/pool_proj
I0403 19:42:12.617569 25607 net.cpp:141] Setting up inception_4d/pool_proj
I0403 19:42:12.617600 25607 net.cpp:148] Top shape: 24 64 14 14 (301056)
I0403 19:42:12.617615 25607 net.cpp:156] Memory required for data: 1146105120
I0403 19:42:12.617632 25607 layer_factory.hpp:77] Creating layer inception_4d/relu_pool_proj
I0403 19:42:12.617655 25607 net.cpp:91] Creating Layer inception_4d/relu_pool_proj
I0403 19:42:12.617673 25607 net.cpp:425] inception_4d/relu_pool_proj <- inception_4d/pool_proj
I0403 19:42:12.617691 25607 net.cpp:386] inception_4d/relu_pool_proj -> inception_4d/pool_proj (in-place)
I0403 19:42:12.617874 25607 net.cpp:141] Setting up inception_4d/relu_pool_proj
I0403 19:42:12.617900 25607 net.cpp:148] Top shape: 24 64 14 14 (301056)
I0403 19:42:12.617916 25607 net.cpp:156] Memory required for data: 1147309344
I0403 19:42:12.617930 25607 layer_factory.hpp:77] Creating layer inception_4d/output
I0403 19:42:12.617947 25607 net.cpp:91] Creating Layer inception_4d/output
I0403 19:42:12.617964 25607 net.cpp:425] inception_4d/output <- inception_4d/1x1
I0403 19:42:12.617980 25607 net.cpp:425] inception_4d/output <- inception_4d/3x3
I0403 19:42:12.617995 25607 net.cpp:425] inception_4d/output <- inception_4d/5x5
I0403 19:42:12.618010 25607 net.cpp:425] inception_4d/output <- inception_4d/pool_proj
I0403 19:42:12.618028 25607 net.cpp:399] inception_4d/output -> inception_4d/output
I0403 19:42:12.618074 25607 net.cpp:141] Setting up inception_4d/output
I0403 19:42:12.618098 25607 net.cpp:148] Top shape: 24 528 14 14 (2483712)
I0403 19:42:12.618113 25607 net.cpp:156] Memory required for data: 1157244192
I0403 19:42:12.618126 25607 layer_factory.hpp:77] Creating layer inception_4d/output_inception_4d/output_0_split
I0403 19:42:12.618145 25607 net.cpp:91] Creating Layer inception_4d/output_inception_4d/output_0_split
I0403 19:42:12.618161 25607 net.cpp:425] inception_4d/output_inception_4d/output_0_split <- inception_4d/output
I0403 19:42:12.618180 25607 net.cpp:399] inception_4d/output_inception_4d/output_0_split -> inception_4d/output_inception_4d/output_0_split_0
I0403 19:42:12.618199 25607 net.cpp:399] inception_4d/output_inception_4d/output_0_split -> inception_4d/output_inception_4d/output_0_split_1
I0403 19:42:12.618224 25607 net.cpp:399] inception_4d/output_inception_4d/output_0_split -> inception_4d/output_inception_4d/output_0_split_2
I0403 19:42:12.618244 25607 net.cpp:399] inception_4d/output_inception_4d/output_0_split -> inception_4d/output_inception_4d/output_0_split_3
I0403 19:42:12.618263 25607 net.cpp:399] inception_4d/output_inception_4d/output_0_split -> inception_4d/output_inception_4d/output_0_split_4
I0403 19:42:12.618366 25607 net.cpp:141] Setting up inception_4d/output_inception_4d/output_0_split
I0403 19:42:12.618403 25607 net.cpp:148] Top shape: 24 528 14 14 (2483712)
I0403 19:42:12.618420 25607 net.cpp:148] Top shape: 24 528 14 14 (2483712)
I0403 19:42:12.618437 25607 net.cpp:148] Top shape: 24 528 14 14 (2483712)
I0403 19:42:12.618451 25607 net.cpp:148] Top shape: 24 528 14 14 (2483712)
I0403 19:42:12.618465 25607 net.cpp:148] Top shape: 24 528 14 14 (2483712)
I0403 19:42:12.618479 25607 net.cpp:156] Memory required for data: 1206918432
I0403 19:42:12.618492 25607 layer_factory.hpp:77] Creating layer loss2/ave_pool
I0403 19:42:12.618512 25607 net.cpp:91] Creating Layer loss2/ave_pool
I0403 19:42:12.618530 25607 net.cpp:425] loss2/ave_pool <- inception_4d/output_inception_4d/output_0_split_0
I0403 19:42:12.618548 25607 net.cpp:399] loss2/ave_pool -> loss2/ave_pool
I0403 19:42:12.618857 25607 net.cpp:141] Setting up loss2/ave_pool
I0403 19:42:12.618883 25607 net.cpp:148] Top shape: 24 528 4 4 (202752)
I0403 19:42:12.618897 25607 net.cpp:156] Memory required for data: 1207729440
I0403 19:42:12.618912 25607 layer_factory.hpp:77] Creating layer loss2/conv
I0403 19:42:12.618934 25607 net.cpp:91] Creating Layer loss2/conv
I0403 19:42:12.618952 25607 net.cpp:425] loss2/conv <- loss2/ave_pool
I0403 19:42:12.618971 25607 net.cpp:399] loss2/conv -> loss2/conv
I0403 19:42:12.620859 25607 net.cpp:141] Setting up loss2/conv
I0403 19:42:12.620890 25607 net.cpp:148] Top shape: 24 128 4 4 (49152)
I0403 19:42:12.620906 25607 net.cpp:156] Memory required for data: 1207926048
I0403 19:42:12.620925 25607 layer_factory.hpp:77] Creating layer loss2/relu_conv
I0403 19:42:12.620942 25607 net.cpp:91] Creating Layer loss2/relu_conv
I0403 19:42:12.620959 25607 net.cpp:425] loss2/relu_conv <- loss2/conv
I0403 19:42:12.620977 25607 net.cpp:386] loss2/relu_conv -> loss2/conv (in-place)
I0403 19:42:12.621255 25607 net.cpp:141] Setting up loss2/relu_conv
I0403 19:42:12.621284 25607 net.cpp:148] Top shape: 24 128 4 4 (49152)
I0403 19:42:12.621306 25607 net.cpp:156] Memory required for data: 1208122656
I0403 19:42:12.621322 25607 layer_factory.hpp:77] Creating layer loss2/fc
I0403 19:42:12.621340 25607 net.cpp:91] Creating Layer loss2/fc
I0403 19:42:12.621356 25607 net.cpp:425] loss2/fc <- loss2/conv
I0403 19:42:12.621377 25607 net.cpp:399] loss2/fc -> loss2/fc
I0403 19:42:12.638715 25607 net.cpp:141] Setting up loss2/fc
I0403 19:42:12.638747 25607 net.cpp:148] Top shape: 24 1024 (24576)
I0403 19:42:12.638763 25607 net.cpp:156] Memory required for data: 1208220960
I0403 19:42:12.638782 25607 layer_factory.hpp:77] Creating layer loss2/relu_fc
I0403 19:42:12.638800 25607 net.cpp:91] Creating Layer loss2/relu_fc
I0403 19:42:12.638818 25607 net.cpp:425] loss2/relu_fc <- loss2/fc
I0403 19:42:12.638834 25607 net.cpp:386] loss2/relu_fc -> loss2/fc (in-place)
I0403 19:42:12.639124 25607 net.cpp:141] Setting up loss2/relu_fc
I0403 19:42:12.639149 25607 net.cpp:148] Top shape: 24 1024 (24576)
I0403 19:42:12.639164 25607 net.cpp:156] Memory required for data: 1208319264
I0403 19:42:12.639178 25607 layer_factory.hpp:77] Creating layer loss2/drop_fc
I0403 19:42:12.639197 25607 net.cpp:91] Creating Layer loss2/drop_fc
I0403 19:42:12.639214 25607 net.cpp:425] loss2/drop_fc <- loss2/fc
I0403 19:42:12.639230 25607 net.cpp:386] loss2/drop_fc -> loss2/fc (in-place)
I0403 19:42:12.639282 25607 net.cpp:141] Setting up loss2/drop_fc
I0403 19:42:12.639309 25607 net.cpp:148] Top shape: 24 1024 (24576)
I0403 19:42:12.639323 25607 net.cpp:156] Memory required for data: 1208417568
I0403 19:42:12.639336 25607 layer_factory.hpp:77] Creating layer loss2/classifier_plantvillage
I0403 19:42:12.639356 25607 net.cpp:91] Creating Layer loss2/classifier_plantvillage
I0403 19:42:12.639372 25607 net.cpp:425] loss2/classifier_plantvillage <- loss2/fc
I0403 19:42:12.639390 25607 net.cpp:399] loss2/classifier_plantvillage -> loss2/classifier_plantvillage
I0403 19:42:12.639781 25607 net.cpp:141] Setting up loss2/classifier_plantvillage
I0403 19:42:12.639806 25607 net.cpp:148] Top shape: 24 38 (912)
I0403 19:42:12.639837 25607 net.cpp:156] Memory required for data: 1208421216
I0403 19:42:12.639854 25607 layer_factory.hpp:77] Creating layer loss2/classifier_plantvillage_loss2/classifier_plantvillage_0_split
I0403 19:42:12.639871 25607 net.cpp:91] Creating Layer loss2/classifier_plantvillage_loss2/classifier_plantvillage_0_split
I0403 19:42:12.639888 25607 net.cpp:425] loss2/classifier_plantvillage_loss2/classifier_plantvillage_0_split <- loss2/classifier_plantvillage
I0403 19:42:12.639919 25607 net.cpp:399] loss2/classifier_plantvillage_loss2/classifier_plantvillage_0_split -> loss2/classifier_plantvillage_loss2/classifier_plantvillage_0_split_0
I0403 19:42:12.639940 25607 net.cpp:399] loss2/classifier_plantvillage_loss2/classifier_plantvillage_0_split -> loss2/classifier_plantvillage_loss2/classifier_plantvillage_0_split_1
I0403 19:42:12.639961 25607 net.cpp:399] loss2/classifier_plantvillage_loss2/classifier_plantvillage_0_split -> loss2/classifier_plantvillage_loss2/classifier_plantvillage_0_split_2
I0403 19:42:12.640038 25607 net.cpp:141] Setting up loss2/classifier_plantvillage_loss2/classifier_plantvillage_0_split
I0403 19:42:12.640064 25607 net.cpp:148] Top shape: 24 38 (912)
I0403 19:42:12.640079 25607 net.cpp:148] Top shape: 24 38 (912)
I0403 19:42:12.640095 25607 net.cpp:148] Top shape: 24 38 (912)
I0403 19:42:12.640108 25607 net.cpp:156] Memory required for data: 1208432160
I0403 19:42:12.640122 25607 layer_factory.hpp:77] Creating layer inception_4e/1x1
I0403 19:42:12.640141 25607 net.cpp:91] Creating Layer inception_4e/1x1
I0403 19:42:12.640157 25607 net.cpp:425] inception_4e/1x1 <- inception_4d/output_inception_4d/output_0_split_1
I0403 19:42:12.640177 25607 net.cpp:399] inception_4e/1x1 -> inception_4e/1x1
I0403 19:42:12.641962 25607 net.cpp:141] Setting up inception_4e/1x1
I0403 19:42:12.641988 25607 net.cpp:148] Top shape: 24 256 14 14 (1204224)
I0403 19:42:12.642004 25607 net.cpp:156] Memory required for data: 1213249056
I0403 19:42:12.642020 25607 layer_factory.hpp:77] Creating layer inception_4e/relu_1x1
I0403 19:42:12.642037 25607 net.cpp:91] Creating Layer inception_4e/relu_1x1
I0403 19:42:12.642053 25607 net.cpp:425] inception_4e/relu_1x1 <- inception_4e/1x1
I0403 19:42:12.642071 25607 net.cpp:386] inception_4e/relu_1x1 -> inception_4e/1x1 (in-place)
I0403 19:42:12.642364 25607 net.cpp:141] Setting up inception_4e/relu_1x1
I0403 19:42:12.642390 25607 net.cpp:148] Top shape: 24 256 14 14 (1204224)
I0403 19:42:12.642405 25607 net.cpp:156] Memory required for data: 1218065952
I0403 19:42:12.642419 25607 layer_factory.hpp:77] Creating layer inception_4e/3x3_reduce
I0403 19:42:12.642441 25607 net.cpp:91] Creating Layer inception_4e/3x3_reduce
I0403 19:42:12.642457 25607 net.cpp:425] inception_4e/3x3_reduce <- inception_4d/output_inception_4d/output_0_split_2
I0403 19:42:12.642479 25607 net.cpp:399] inception_4e/3x3_reduce -> inception_4e/3x3_reduce
I0403 19:42:12.644598 25607 net.cpp:141] Setting up inception_4e/3x3_reduce
I0403 19:42:12.644630 25607 net.cpp:148] Top shape: 24 160 14 14 (752640)
I0403 19:42:12.644647 25607 net.cpp:156] Memory required for data: 1221076512
I0403 19:42:12.644665 25607 layer_factory.hpp:77] Creating layer inception_4e/relu_3x3_reduce
I0403 19:42:12.644682 25607 net.cpp:91] Creating Layer inception_4e/relu_3x3_reduce
I0403 19:42:12.644700 25607 net.cpp:425] inception_4e/relu_3x3_reduce <- inception_4e/3x3_reduce
I0403 19:42:12.644718 25607 net.cpp:386] inception_4e/relu_3x3_reduce -> inception_4e/3x3_reduce (in-place)
I0403 19:42:12.644902 25607 net.cpp:141] Setting up inception_4e/relu_3x3_reduce
I0403 19:42:12.644927 25607 net.cpp:148] Top shape: 24 160 14 14 (752640)
I0403 19:42:12.644942 25607 net.cpp:156] Memory required for data: 1224087072
I0403 19:42:12.644955 25607 layer_factory.hpp:77] Creating layer inception_4e/3x3
I0403 19:42:12.644976 25607 net.cpp:91] Creating Layer inception_4e/3x3
I0403 19:42:12.644994 25607 net.cpp:425] inception_4e/3x3 <- inception_4e/3x3_reduce
I0403 19:42:12.645015 25607 net.cpp:399] inception_4e/3x3 -> inception_4e/3x3
I0403 19:42:12.649941 25607 net.cpp:141] Setting up inception_4e/3x3
I0403 19:42:12.649982 25607 net.cpp:148] Top shape: 24 320 14 14 (1505280)
I0403 19:42:12.649998 25607 net.cpp:156] Memory required for data: 1230108192
I0403 19:42:12.650015 25607 layer_factory.hpp:77] Creating layer inception_4e/relu_3x3
I0403 19:42:12.650032 25607 net.cpp:91] Creating Layer inception_4e/relu_3x3
I0403 19:42:12.650048 25607 net.cpp:425] inception_4e/relu_3x3 <- inception_4e/3x3
I0403 19:42:12.650068 25607 net.cpp:386] inception_4e/relu_3x3 -> inception_4e/3x3 (in-place)
I0403 19:42:12.650365 25607 net.cpp:141] Setting up inception_4e/relu_3x3
I0403 19:42:12.650393 25607 net.cpp:148] Top shape: 24 320 14 14 (1505280)
I0403 19:42:12.650408 25607 net.cpp:156] Memory required for data: 1236129312
I0403 19:42:12.650423 25607 layer_factory.hpp:77] Creating layer inception_4e/5x5_reduce
I0403 19:42:12.650445 25607 net.cpp:91] Creating Layer inception_4e/5x5_reduce
I0403 19:42:12.650465 25607 net.cpp:425] inception_4e/5x5_reduce <- inception_4d/output_inception_4d/output_0_split_3
I0403 19:42:12.650486 25607 net.cpp:399] inception_4e/5x5_reduce -> inception_4e/5x5_reduce
I0403 19:42:12.651542 25607 net.cpp:141] Setting up inception_4e/5x5_reduce
I0403 19:42:12.651571 25607 net.cpp:148] Top shape: 24 32 14 14 (150528)
I0403 19:42:12.651587 25607 net.cpp:156] Memory required for data: 1236731424
I0403 19:42:12.651607 25607 layer_factory.hpp:77] Creating layer inception_4e/relu_5x5_reduce
I0403 19:42:12.651624 25607 net.cpp:91] Creating Layer inception_4e/relu_5x5_reduce
I0403 19:42:12.651640 25607 net.cpp:425] inception_4e/relu_5x5_reduce <- inception_4e/5x5_reduce
I0403 19:42:12.651659 25607 net.cpp:386] inception_4e/relu_5x5_reduce -> inception_4e/5x5_reduce (in-place)
I0403 19:42:12.651948 25607 net.cpp:141] Setting up inception_4e/relu_5x5_reduce
I0403 19:42:12.651974 25607 net.cpp:148] Top shape: 24 32 14 14 (150528)
I0403 19:42:12.651989 25607 net.cpp:156] Memory required for data: 1237333536
I0403 19:42:12.652004 25607 layer_factory.hpp:77] Creating layer inception_4e/5x5
I0403 19:42:12.652042 25607 net.cpp:91] Creating Layer inception_4e/5x5
I0403 19:42:12.652062 25607 net.cpp:425] inception_4e/5x5 <- inception_4e/5x5_reduce
I0403 19:42:12.652081 25607 net.cpp:399] inception_4e/5x5 -> inception_4e/5x5
I0403 19:42:12.653870 25607 net.cpp:141] Setting up inception_4e/5x5
I0403 19:42:12.653900 25607 net.cpp:148] Top shape: 24 128 14 14 (602112)
I0403 19:42:12.653918 25607 net.cpp:156] Memory required for data: 1239741984
I0403 19:42:12.653934 25607 layer_factory.hpp:77] Creating layer inception_4e/relu_5x5
I0403 19:42:12.653952 25607 net.cpp:91] Creating Layer inception_4e/relu_5x5
I0403 19:42:12.653969 25607 net.cpp:425] inception_4e/relu_5x5 <- inception_4e/5x5
I0403 19:42:12.653985 25607 net.cpp:386] inception_4e/relu_5x5 -> inception_4e/5x5 (in-place)
I0403 19:42:12.654177 25607 net.cpp:141] Setting up inception_4e/relu_5x5
I0403 19:42:12.654204 25607 net.cpp:148] Top shape: 24 128 14 14 (602112)
I0403 19:42:12.654220 25607 net.cpp:156] Memory required for data: 1242150432
I0403 19:42:12.654235 25607 layer_factory.hpp:77] Creating layer inception_4e/pool
I0403 19:42:12.654253 25607 net.cpp:91] Creating Layer inception_4e/pool
I0403 19:42:12.654268 25607 net.cpp:425] inception_4e/pool <- inception_4d/output_inception_4d/output_0_split_4
I0403 19:42:12.654297 25607 net.cpp:399] inception_4e/pool -> inception_4e/pool
I0403 19:42:12.654371 25607 net.cpp:141] Setting up inception_4e/pool
I0403 19:42:12.654397 25607 net.cpp:148] Top shape: 24 528 14 14 (2483712)
I0403 19:42:12.654413 25607 net.cpp:156] Memory required for data: 1252085280
I0403 19:42:12.654428 25607 layer_factory.hpp:77] Creating layer inception_4e/pool_proj
I0403 19:42:12.654448 25607 net.cpp:91] Creating Layer inception_4e/pool_proj
I0403 19:42:12.654466 25607 net.cpp:425] inception_4e/pool_proj <- inception_4e/pool
I0403 19:42:12.654485 25607 net.cpp:399] inception_4e/pool_proj -> inception_4e/pool_proj
I0403 19:42:12.655952 25607 net.cpp:141] Setting up inception_4e/pool_proj
I0403 19:42:12.655992 25607 net.cpp:148] Top shape: 24 128 14 14 (602112)
I0403 19:42:12.656008 25607 net.cpp:156] Memory required for data: 1254493728
I0403 19:42:12.656025 25607 layer_factory.hpp:77] Creating layer inception_4e/relu_pool_proj
I0403 19:42:12.656075 25607 net.cpp:91] Creating Layer inception_4e/relu_pool_proj
I0403 19:42:12.656093 25607 net.cpp:425] inception_4e/relu_pool_proj <- inception_4e/pool_proj
I0403 19:42:12.656111 25607 net.cpp:386] inception_4e/relu_pool_proj -> inception_4e/pool_proj (in-place)
I0403 19:42:12.656419 25607 net.cpp:141] Setting up inception_4e/relu_pool_proj
I0403 19:42:12.656445 25607 net.cpp:148] Top shape: 24 128 14 14 (602112)
I0403 19:42:12.656461 25607 net.cpp:156] Memory required for data: 1256902176
I0403 19:42:12.656474 25607 layer_factory.hpp:77] Creating layer inception_4e/output
I0403 19:42:12.656493 25607 net.cpp:91] Creating Layer inception_4e/output
I0403 19:42:12.656510 25607 net.cpp:425] inception_4e/output <- inception_4e/1x1
I0403 19:42:12.656527 25607 net.cpp:425] inception_4e/output <- inception_4e/3x3
I0403 19:42:12.656541 25607 net.cpp:425] inception_4e/output <- inception_4e/5x5
I0403 19:42:12.656558 25607 net.cpp:425] inception_4e/output <- inception_4e/pool_proj
I0403 19:42:12.656574 25607 net.cpp:399] inception_4e/output -> inception_4e/output
I0403 19:42:12.656626 25607 net.cpp:141] Setting up inception_4e/output
I0403 19:42:12.656651 25607 net.cpp:148] Top shape: 24 832 14 14 (3913728)
I0403 19:42:12.656664 25607 net.cpp:156] Memory required for data: 1272557088
I0403 19:42:12.656678 25607 layer_factory.hpp:77] Creating layer pool4/3x3_s2
I0403 19:42:12.656694 25607 net.cpp:91] Creating Layer pool4/3x3_s2
I0403 19:42:12.656710 25607 net.cpp:425] pool4/3x3_s2 <- inception_4e/output
I0403 19:42:12.656730 25607 net.cpp:399] pool4/3x3_s2 -> pool4/3x3_s2
I0403 19:42:12.656800 25607 net.cpp:141] Setting up pool4/3x3_s2
I0403 19:42:12.656823 25607 net.cpp:148] Top shape: 24 832 7 7 (978432)
I0403 19:42:12.656837 25607 net.cpp:156] Memory required for data: 1276470816
I0403 19:42:12.656852 25607 layer_factory.hpp:77] Creating layer pool4/3x3_s2_pool4/3x3_s2_0_split
I0403 19:42:12.656867 25607 net.cpp:91] Creating Layer pool4/3x3_s2_pool4/3x3_s2_0_split
I0403 19:42:12.656883 25607 net.cpp:425] pool4/3x3_s2_pool4/3x3_s2_0_split <- pool4/3x3_s2
I0403 19:42:12.656905 25607 net.cpp:399] pool4/3x3_s2_pool4/3x3_s2_0_split -> pool4/3x3_s2_pool4/3x3_s2_0_split_0
I0403 19:42:12.656926 25607 net.cpp:399] pool4/3x3_s2_pool4/3x3_s2_0_split -> pool4/3x3_s2_pool4/3x3_s2_0_split_1
I0403 19:42:12.656946 25607 net.cpp:399] pool4/3x3_s2_pool4/3x3_s2_0_split -> pool4/3x3_s2_pool4/3x3_s2_0_split_2
I0403 19:42:12.656965 25607 net.cpp:399] pool4/3x3_s2_pool4/3x3_s2_0_split -> pool4/3x3_s2_pool4/3x3_s2_0_split_3
I0403 19:42:12.657055 25607 net.cpp:141] Setting up pool4/3x3_s2_pool4/3x3_s2_0_split
I0403 19:42:12.657079 25607 net.cpp:148] Top shape: 24 832 7 7 (978432)
I0403 19:42:12.657095 25607 net.cpp:148] Top shape: 24 832 7 7 (978432)
I0403 19:42:12.657110 25607 net.cpp:148] Top shape: 24 832 7 7 (978432)
I0403 19:42:12.657125 25607 net.cpp:148] Top shape: 24 832 7 7 (978432)
I0403 19:42:12.657137 25607 net.cpp:156] Memory required for data: 1292125728
I0403 19:42:12.657151 25607 layer_factory.hpp:77] Creating layer inception_5a/1x1
I0403 19:42:12.657176 25607 net.cpp:91] Creating Layer inception_5a/1x1
I0403 19:42:12.657192 25607 net.cpp:425] inception_5a/1x1 <- pool4/3x3_s2_pool4/3x3_s2_0_split_0
I0403 19:42:12.657212 25607 net.cpp:399] inception_5a/1x1 -> inception_5a/1x1
I0403 19:42:12.660019 25607 net.cpp:141] Setting up inception_5a/1x1
I0403 19:42:12.660051 25607 net.cpp:148] Top shape: 24 256 7 7 (301056)
I0403 19:42:12.660068 25607 net.cpp:156] Memory required for data: 1293329952
I0403 19:42:12.660086 25607 layer_factory.hpp:77] Creating layer inception_5a/relu_1x1
I0403 19:42:12.660104 25607 net.cpp:91] Creating Layer inception_5a/relu_1x1
I0403 19:42:12.660121 25607 net.cpp:425] inception_5a/relu_1x1 <- inception_5a/1x1
I0403 19:42:12.660140 25607 net.cpp:386] inception_5a/relu_1x1 -> inception_5a/1x1 (in-place)
I0403 19:42:12.660451 25607 net.cpp:141] Setting up inception_5a/relu_1x1
I0403 19:42:12.660480 25607 net.cpp:148] Top shape: 24 256 7 7 (301056)
I0403 19:42:12.660496 25607 net.cpp:156] Memory required for data: 1294534176
I0403 19:42:12.660511 25607 layer_factory.hpp:77] Creating layer inception_5a/3x3_reduce
I0403 19:42:12.660532 25607 net.cpp:91] Creating Layer inception_5a/3x3_reduce
I0403 19:42:12.660552 25607 net.cpp:425] inception_5a/3x3_reduce <- pool4/3x3_s2_pool4/3x3_s2_0_split_1
I0403 19:42:12.660569 25607 net.cpp:399] inception_5a/3x3_reduce -> inception_5a/3x3_reduce
I0403 19:42:12.663000 25607 net.cpp:141] Setting up inception_5a/3x3_reduce
I0403 19:42:12.663030 25607 net.cpp:148] Top shape: 24 160 7 7 (188160)
I0403 19:42:12.663045 25607 net.cpp:156] Memory required for data: 1295286816
I0403 19:42:12.663064 25607 layer_factory.hpp:77] Creating layer inception_5a/relu_3x3_reduce
I0403 19:42:12.663084 25607 net.cpp:91] Creating Layer inception_5a/relu_3x3_reduce
I0403 19:42:12.663100 25607 net.cpp:425] inception_5a/relu_3x3_reduce <- inception_5a/3x3_reduce
I0403 19:42:12.663116 25607 net.cpp:386] inception_5a/relu_3x3_reduce -> inception_5a/3x3_reduce (in-place)
I0403 19:42:12.663306 25607 net.cpp:141] Setting up inception_5a/relu_3x3_reduce
I0403 19:42:12.663331 25607 net.cpp:148] Top shape: 24 160 7 7 (188160)
I0403 19:42:12.663347 25607 net.cpp:156] Memory required for data: 1296039456
I0403 19:42:12.663362 25607 layer_factory.hpp:77] Creating layer inception_5a/3x3
I0403 19:42:12.663385 25607 net.cpp:91] Creating Layer inception_5a/3x3
I0403 19:42:12.663403 25607 net.cpp:425] inception_5a/3x3 <- inception_5a/3x3_reduce
I0403 19:42:12.663420 25607 net.cpp:399] inception_5a/3x3 -> inception_5a/3x3
I0403 19:42:12.668440 25607 net.cpp:141] Setting up inception_5a/3x3
I0403 19:42:12.668473 25607 net.cpp:148] Top shape: 24 320 7 7 (376320)
I0403 19:42:12.668489 25607 net.cpp:156] Memory required for data: 1297544736
I0403 19:42:12.668508 25607 layer_factory.hpp:77] Creating layer inception_5a/relu_3x3
I0403 19:42:12.668524 25607 net.cpp:91] Creating Layer inception_5a/relu_3x3
I0403 19:42:12.668540 25607 net.cpp:425] inception_5a/relu_3x3 <- inception_5a/3x3
I0403 19:42:12.668556 25607 net.cpp:386] inception_5a/relu_3x3 -> inception_5a/3x3 (in-place)
I0403 19:42:12.668843 25607 net.cpp:141] Setting up inception_5a/relu_3x3
I0403 19:42:12.668872 25607 net.cpp:148] Top shape: 24 320 7 7 (376320)
I0403 19:42:12.668889 25607 net.cpp:156] Memory required for data: 1299050016
I0403 19:42:12.668903 25607 layer_factory.hpp:77] Creating layer inception_5a/5x5_reduce
I0403 19:42:12.668925 25607 net.cpp:91] Creating Layer inception_5a/5x5_reduce
I0403 19:42:12.668942 25607 net.cpp:425] inception_5a/5x5_reduce <- pool4/3x3_s2_pool4/3x3_s2_0_split_2
I0403 19:42:12.668962 25607 net.cpp:399] inception_5a/5x5_reduce -> inception_5a/5x5_reduce
I0403 19:42:12.670112 25607 net.cpp:141] Setting up inception_5a/5x5_reduce
I0403 19:42:12.670143 25607 net.cpp:148] Top shape: 24 32 7 7 (37632)
I0403 19:42:12.670159 25607 net.cpp:156] Memory required for data: 1299200544
I0403 19:42:12.670177 25607 layer_factory.hpp:77] Creating layer inception_5a/relu_5x5_reduce
I0403 19:42:12.670195 25607 net.cpp:91] Creating Layer inception_5a/relu_5x5_reduce
I0403 19:42:12.670212 25607 net.cpp:425] inception_5a/relu_5x5_reduce <- inception_5a/5x5_reduce
I0403 19:42:12.670230 25607 net.cpp:386] inception_5a/relu_5x5_reduce -> inception_5a/5x5_reduce (in-place)
I0403 19:42:12.670523 25607 net.cpp:141] Setting up inception_5a/relu_5x5_reduce
I0403 19:42:12.670552 25607 net.cpp:148] Top shape: 24 32 7 7 (37632)
I0403 19:42:12.670567 25607 net.cpp:156] Memory required for data: 1299351072
I0403 19:42:12.670581 25607 layer_factory.hpp:77] Creating layer inception_5a/5x5
I0403 19:42:12.670603 25607 net.cpp:91] Creating Layer inception_5a/5x5
I0403 19:42:12.670620 25607 net.cpp:425] inception_5a/5x5 <- inception_5a/5x5_reduce
I0403 19:42:12.670644 25607 net.cpp:399] inception_5a/5x5 -> inception_5a/5x5
I0403 19:42:12.672335 25607 net.cpp:141] Setting up inception_5a/5x5
I0403 19:42:12.672376 25607 net.cpp:148] Top shape: 24 128 7 7 (150528)
I0403 19:42:12.672394 25607 net.cpp:156] Memory required for data: 1299953184
I0403 19:42:12.672411 25607 layer_factory.hpp:77] Creating layer inception_5a/relu_5x5
I0403 19:42:12.672430 25607 net.cpp:91] Creating Layer inception_5a/relu_5x5
I0403 19:42:12.672446 25607 net.cpp:425] inception_5a/relu_5x5 <- inception_5a/5x5
I0403 19:42:12.672464 25607 net.cpp:386] inception_5a/relu_5x5 -> inception_5a/5x5 (in-place)
I0403 19:42:12.672655 25607 net.cpp:141] Setting up inception_5a/relu_5x5
I0403 19:42:12.672680 25607 net.cpp:148] Top shape: 24 128 7 7 (150528)
I0403 19:42:12.672694 25607 net.cpp:156] Memory required for data: 1300555296
I0403 19:42:12.672709 25607 layer_factory.hpp:77] Creating layer inception_5a/pool
I0403 19:42:12.672726 25607 net.cpp:91] Creating Layer inception_5a/pool
I0403 19:42:12.672744 25607 net.cpp:425] inception_5a/pool <- pool4/3x3_s2_pool4/3x3_s2_0_split_3
I0403 19:42:12.672763 25607 net.cpp:399] inception_5a/pool -> inception_5a/pool
I0403 19:42:12.672832 25607 net.cpp:141] Setting up inception_5a/pool
I0403 19:42:12.672858 25607 net.cpp:148] Top shape: 24 832 7 7 (978432)
I0403 19:42:12.672873 25607 net.cpp:156] Memory required for data: 1304469024
I0403 19:42:12.672888 25607 layer_factory.hpp:77] Creating layer inception_5a/pool_proj
I0403 19:42:12.672909 25607 net.cpp:91] Creating Layer inception_5a/pool_proj
I0403 19:42:12.672924 25607 net.cpp:425] inception_5a/pool_proj <- inception_5a/pool
I0403 19:42:12.672942 25607 net.cpp:399] inception_5a/pool_proj -> inception_5a/pool_proj
I0403 19:42:12.675194 25607 net.cpp:141] Setting up inception_5a/pool_proj
I0403 19:42:12.675225 25607 net.cpp:148] Top shape: 24 128 7 7 (150528)
I0403 19:42:12.675240 25607 net.cpp:156] Memory required for data: 1305071136
I0403 19:42:12.675257 25607 layer_factory.hpp:77] Creating layer inception_5a/relu_pool_proj
I0403 19:42:12.675276 25607 net.cpp:91] Creating Layer inception_5a/relu_pool_proj
I0403 19:42:12.675300 25607 net.cpp:425] inception_5a/relu_pool_proj <- inception_5a/pool_proj
I0403 19:42:12.675319 25607 net.cpp:386] inception_5a/relu_pool_proj -> inception_5a/pool_proj (in-place)
I0403 19:42:12.675619 25607 net.cpp:141] Setting up inception_5a/relu_pool_proj
I0403 19:42:12.675645 25607 net.cpp:148] Top shape: 24 128 7 7 (150528)
I0403 19:42:12.675660 25607 net.cpp:156] Memory required for data: 1305673248
I0403 19:42:12.675675 25607 layer_factory.hpp:77] Creating layer inception_5a/output
I0403 19:42:12.675694 25607 net.cpp:91] Creating Layer inception_5a/output
I0403 19:42:12.675710 25607 net.cpp:425] inception_5a/output <- inception_5a/1x1
I0403 19:42:12.675726 25607 net.cpp:425] inception_5a/output <- inception_5a/3x3
I0403 19:42:12.675741 25607 net.cpp:425] inception_5a/output <- inception_5a/5x5
I0403 19:42:12.675757 25607 net.cpp:425] inception_5a/output <- inception_5a/pool_proj
I0403 19:42:12.675775 25607 net.cpp:399] inception_5a/output -> inception_5a/output
I0403 19:42:12.675824 25607 net.cpp:141] Setting up inception_5a/output
I0403 19:42:12.675848 25607 net.cpp:148] Top shape: 24 832 7 7 (978432)
I0403 19:42:12.675861 25607 net.cpp:156] Memory required for data: 1309586976
I0403 19:42:12.675875 25607 layer_factory.hpp:77] Creating layer inception_5a/output_inception_5a/output_0_split
I0403 19:42:12.675892 25607 net.cpp:91] Creating Layer inception_5a/output_inception_5a/output_0_split
I0403 19:42:12.675907 25607 net.cpp:425] inception_5a/output_inception_5a/output_0_split <- inception_5a/output
I0403 19:42:12.675927 25607 net.cpp:399] inception_5a/output_inception_5a/output_0_split -> inception_5a/output_inception_5a/output_0_split_0
I0403 19:42:12.675948 25607 net.cpp:399] inception_5a/output_inception_5a/output_0_split -> inception_5a/output_inception_5a/output_0_split_1
I0403 19:42:12.675969 25607 net.cpp:399] inception_5a/output_inception_5a/output_0_split -> inception_5a/output_inception_5a/output_0_split_2
I0403 19:42:12.675989 25607 net.cpp:399] inception_5a/output_inception_5a/output_0_split -> inception_5a/output_inception_5a/output_0_split_3
I0403 19:42:12.676101 25607 net.cpp:141] Setting up inception_5a/output_inception_5a/output_0_split
I0403 19:42:12.676128 25607 net.cpp:148] Top shape: 24 832 7 7 (978432)
I0403 19:42:12.676146 25607 net.cpp:148] Top shape: 24 832 7 7 (978432)
I0403 19:42:12.676161 25607 net.cpp:148] Top shape: 24 832 7 7 (978432)
I0403 19:42:12.676174 25607 net.cpp:148] Top shape: 24 832 7 7 (978432)
I0403 19:42:12.676187 25607 net.cpp:156] Memory required for data: 1325241888
I0403 19:42:12.676201 25607 layer_factory.hpp:77] Creating layer inception_5b/1x1
I0403 19:42:12.676223 25607 net.cpp:91] Creating Layer inception_5b/1x1
I0403 19:42:12.676239 25607 net.cpp:425] inception_5b/1x1 <- inception_5a/output_inception_5a/output_0_split_0
I0403 19:42:12.676257 25607 net.cpp:399] inception_5b/1x1 -> inception_5b/1x1
I0403 19:42:12.679954 25607 net.cpp:141] Setting up inception_5b/1x1
I0403 19:42:12.679983 25607 net.cpp:148] Top shape: 24 384 7 7 (451584)
I0403 19:42:12.679998 25607 net.cpp:156] Memory required for data: 1327048224
I0403 19:42:12.680017 25607 layer_factory.hpp:77] Creating layer inception_5b/relu_1x1
I0403 19:42:12.680037 25607 net.cpp:91] Creating Layer inception_5b/relu_1x1
I0403 19:42:12.680054 25607 net.cpp:425] inception_5b/relu_1x1 <- inception_5b/1x1
I0403 19:42:12.680071 25607 net.cpp:386] inception_5b/relu_1x1 -> inception_5b/1x1 (in-place)
I0403 19:42:12.680371 25607 net.cpp:141] Setting up inception_5b/relu_1x1
I0403 19:42:12.680399 25607 net.cpp:148] Top shape: 24 384 7 7 (451584)
I0403 19:42:12.680414 25607 net.cpp:156] Memory required for data: 1328854560
I0403 19:42:12.680429 25607 layer_factory.hpp:77] Creating layer inception_5b/3x3_reduce
I0403 19:42:12.680450 25607 net.cpp:91] Creating Layer inception_5b/3x3_reduce
I0403 19:42:12.680467 25607 net.cpp:425] inception_5b/3x3_reduce <- inception_5a/output_inception_5a/output_0_split_1
I0403 19:42:12.680488 25607 net.cpp:399] inception_5b/3x3_reduce -> inception_5b/3x3_reduce
I0403 19:42:12.683192 25607 net.cpp:141] Setting up inception_5b/3x3_reduce
I0403 19:42:12.683223 25607 net.cpp:148] Top shape: 24 192 7 7 (225792)
I0403 19:42:12.683239 25607 net.cpp:156] Memory required for data: 1329757728
I0403 19:42:12.683259 25607 layer_factory.hpp:77] Creating layer inception_5b/relu_3x3_reduce
I0403 19:42:12.683296 25607 net.cpp:91] Creating Layer inception_5b/relu_3x3_reduce
I0403 19:42:12.683315 25607 net.cpp:425] inception_5b/relu_3x3_reduce <- inception_5b/3x3_reduce
I0403 19:42:12.683334 25607 net.cpp:386] inception_5b/relu_3x3_reduce -> inception_5b/3x3_reduce (in-place)
I0403 19:42:12.683529 25607 net.cpp:141] Setting up inception_5b/relu_3x3_reduce
I0403 19:42:12.683558 25607 net.cpp:148] Top shape: 24 192 7 7 (225792)
I0403 19:42:12.683575 25607 net.cpp:156] Memory required for data: 1330660896
I0403 19:42:12.683590 25607 layer_factory.hpp:77] Creating layer inception_5b/3x3
I0403 19:42:12.683612 25607 net.cpp:91] Creating Layer inception_5b/3x3
I0403 19:42:12.683632 25607 net.cpp:425] inception_5b/3x3 <- inception_5b/3x3_reduce
I0403 19:42:12.683651 25607 net.cpp:399] inception_5b/3x3 -> inception_5b/3x3
I0403 19:42:12.690444 25607 net.cpp:141] Setting up inception_5b/3x3
I0403 19:42:12.690476 25607 net.cpp:148] Top shape: 24 384 7 7 (451584)
I0403 19:42:12.690493 25607 net.cpp:156] Memory required for data: 1332467232
I0403 19:42:12.690513 25607 layer_factory.hpp:77] Creating layer inception_5b/relu_3x3
I0403 19:42:12.690541 25607 net.cpp:91] Creating Layer inception_5b/relu_3x3
I0403 19:42:12.690559 25607 net.cpp:425] inception_5b/relu_3x3 <- inception_5b/3x3
I0403 19:42:12.690577 25607 net.cpp:386] inception_5b/relu_3x3 -> inception_5b/3x3 (in-place)
I0403 19:42:12.690937 25607 net.cpp:141] Setting up inception_5b/relu_3x3
I0403 19:42:12.690968 25607 net.cpp:148] Top shape: 24 384 7 7 (451584)
I0403 19:42:12.690985 25607 net.cpp:156] Memory required for data: 1334273568
I0403 19:42:12.691004 25607 layer_factory.hpp:77] Creating layer inception_5b/5x5_reduce
I0403 19:42:12.691058 25607 net.cpp:91] Creating Layer inception_5b/5x5_reduce
I0403 19:42:12.691082 25607 net.cpp:425] inception_5b/5x5_reduce <- inception_5a/output_inception_5a/output_0_split_2
I0403 19:42:12.691107 25607 net.cpp:399] inception_5b/5x5_reduce -> inception_5b/5x5_reduce
I0403 19:42:12.692548 25607 net.cpp:141] Setting up inception_5b/5x5_reduce
I0403 19:42:12.692577 25607 net.cpp:148] Top shape: 24 48 7 7 (56448)
I0403 19:42:12.692595 25607 net.cpp:156] Memory required for data: 1334499360
I0403 19:42:12.692613 25607 layer_factory.hpp:77] Creating layer inception_5b/relu_5x5_reduce
I0403 19:42:12.692636 25607 net.cpp:91] Creating Layer inception_5b/relu_5x5_reduce
I0403 19:42:12.692653 25607 net.cpp:425] inception_5b/relu_5x5_reduce <- inception_5b/5x5_reduce
I0403 19:42:12.692672 25607 net.cpp:386] inception_5b/relu_5x5_reduce -> inception_5b/5x5_reduce (in-place)
I0403 19:42:12.693073 25607 net.cpp:141] Setting up inception_5b/relu_5x5_reduce
I0403 19:42:12.693100 25607 net.cpp:148] Top shape: 24 48 7 7 (56448)
I0403 19:42:12.693116 25607 net.cpp:156] Memory required for data: 1334725152
I0403 19:42:12.693132 25607 layer_factory.hpp:77] Creating layer inception_5b/5x5
I0403 19:42:12.693153 25607 net.cpp:91] Creating Layer inception_5b/5x5
I0403 19:42:12.693172 25607 net.cpp:425] inception_5b/5x5 <- inception_5b/5x5_reduce
I0403 19:42:12.693192 25607 net.cpp:399] inception_5b/5x5 -> inception_5b/5x5
I0403 19:42:12.695407 25607 net.cpp:141] Setting up inception_5b/5x5
I0403 19:42:12.695441 25607 net.cpp:148] Top shape: 24 128 7 7 (150528)
I0403 19:42:12.695458 25607 net.cpp:156] Memory required for data: 1335327264
I0403 19:42:12.695477 25607 layer_factory.hpp:77] Creating layer inception_5b/relu_5x5
I0403 19:42:12.695497 25607 net.cpp:91] Creating Layer inception_5b/relu_5x5
I0403 19:42:12.695514 25607 net.cpp:425] inception_5b/relu_5x5 <- inception_5b/5x5
I0403 19:42:12.695534 25607 net.cpp:386] inception_5b/relu_5x5 -> inception_5b/5x5 (in-place)
I0403 19:42:12.695749 25607 net.cpp:141] Setting up inception_5b/relu_5x5
I0403 19:42:12.695775 25607 net.cpp:148] Top shape: 24 128 7 7 (150528)
I0403 19:42:12.695790 25607 net.cpp:156] Memory required for data: 1335929376
I0403 19:42:12.695804 25607 layer_factory.hpp:77] Creating layer inception_5b/pool
I0403 19:42:12.695822 25607 net.cpp:91] Creating Layer inception_5b/pool
I0403 19:42:12.695838 25607 net.cpp:425] inception_5b/pool <- inception_5a/output_inception_5a/output_0_split_3
I0403 19:42:12.695859 25607 net.cpp:399] inception_5b/pool -> inception_5b/pool
I0403 19:42:12.695937 25607 net.cpp:141] Setting up inception_5b/pool
I0403 19:42:12.695961 25607 net.cpp:148] Top shape: 24 832 7 7 (978432)
I0403 19:42:12.695976 25607 net.cpp:156] Memory required for data: 1339843104
I0403 19:42:12.695991 25607 layer_factory.hpp:77] Creating layer inception_5b/pool_proj
I0403 19:42:12.696015 25607 net.cpp:91] Creating Layer inception_5b/pool_proj
I0403 19:42:12.696033 25607 net.cpp:425] inception_5b/pool_proj <- inception_5b/pool
I0403 19:42:12.696053 25607 net.cpp:399] inception_5b/pool_proj -> inception_5b/pool_proj
I0403 19:42:12.698432 25607 net.cpp:141] Setting up inception_5b/pool_proj
I0403 19:42:12.698470 25607 net.cpp:148] Top shape: 24 128 7 7 (150528)
I0403 19:42:12.698488 25607 net.cpp:156] Memory required for data: 1340445216
I0403 19:42:12.698508 25607 layer_factory.hpp:77] Creating layer inception_5b/relu_pool_proj
I0403 19:42:12.698525 25607 net.cpp:91] Creating Layer inception_5b/relu_pool_proj
I0403 19:42:12.698542 25607 net.cpp:425] inception_5b/relu_pool_proj <- inception_5b/pool_proj
I0403 19:42:12.698560 25607 net.cpp:386] inception_5b/relu_pool_proj -> inception_5b/pool_proj (in-place)
I0403 19:42:12.698868 25607 net.cpp:141] Setting up inception_5b/relu_pool_proj
I0403 19:42:12.698899 25607 net.cpp:148] Top shape: 24 128 7 7 (150528)
I0403 19:42:12.698915 25607 net.cpp:156] Memory required for data: 1341047328
I0403 19:42:12.698930 25607 layer_factory.hpp:77] Creating layer inception_5b/output
I0403 19:42:12.698946 25607 net.cpp:91] Creating Layer inception_5b/output
I0403 19:42:12.698978 25607 net.cpp:425] inception_5b/output <- inception_5b/1x1
I0403 19:42:12.698997 25607 net.cpp:425] inception_5b/output <- inception_5b/3x3
I0403 19:42:12.699013 25607 net.cpp:425] inception_5b/output <- inception_5b/5x5
I0403 19:42:12.699029 25607 net.cpp:425] inception_5b/output <- inception_5b/pool_proj
I0403 19:42:12.699045 25607 net.cpp:399] inception_5b/output -> inception_5b/output
I0403 19:42:12.699100 25607 net.cpp:141] Setting up inception_5b/output
I0403 19:42:12.699126 25607 net.cpp:148] Top shape: 24 1024 7 7 (1204224)
I0403 19:42:12.699141 25607 net.cpp:156] Memory required for data: 1345864224
I0403 19:42:12.699156 25607 layer_factory.hpp:77] Creating layer pool5/7x7_s1
I0403 19:42:12.699175 25607 net.cpp:91] Creating Layer pool5/7x7_s1
I0403 19:42:12.699193 25607 net.cpp:425] pool5/7x7_s1 <- inception_5b/output
I0403 19:42:12.699210 25607 net.cpp:399] pool5/7x7_s1 -> pool5/7x7_s1
I0403 19:42:12.699442 25607 net.cpp:141] Setting up pool5/7x7_s1
I0403 19:42:12.699471 25607 net.cpp:148] Top shape: 24 1024 1 1 (24576)
I0403 19:42:12.699488 25607 net.cpp:156] Memory required for data: 1345962528
I0403 19:42:12.699503 25607 layer_factory.hpp:77] Creating layer pool5/drop_7x7_s1
I0403 19:42:12.699522 25607 net.cpp:91] Creating Layer pool5/drop_7x7_s1
I0403 19:42:12.699537 25607 net.cpp:425] pool5/drop_7x7_s1 <- pool5/7x7_s1
I0403 19:42:12.699555 25607 net.cpp:386] pool5/drop_7x7_s1 -> pool5/7x7_s1 (in-place)
I0403 19:42:12.699609 25607 net.cpp:141] Setting up pool5/drop_7x7_s1
I0403 19:42:12.699633 25607 net.cpp:148] Top shape: 24 1024 1 1 (24576)
I0403 19:42:12.699650 25607 net.cpp:156] Memory required for data: 1346060832
I0403 19:42:12.699663 25607 layer_factory.hpp:77] Creating layer loss3/classifier_plantvillage
I0403 19:42:12.699686 25607 net.cpp:91] Creating Layer loss3/classifier_plantvillage
I0403 19:42:12.699702 25607 net.cpp:425] loss3/classifier_plantvillage <- pool5/7x7_s1
I0403 19:42:12.699723 25607 net.cpp:399] loss3/classifier_plantvillage -> loss3/classifier_plantvillage
I0403 19:42:12.700168 25607 net.cpp:141] Setting up loss3/classifier_plantvillage
I0403 19:42:12.700194 25607 net.cpp:148] Top shape: 24 38 (912)
I0403 19:42:12.700209 25607 net.cpp:156] Memory required for data: 1346064480
I0403 19:42:12.700227 25607 layer_factory.hpp:77] Creating layer loss3/classifier_plantvillage_loss3/classifier_plantvillage_0_split
I0403 19:42:12.700244 25607 net.cpp:91] Creating Layer loss3/classifier_plantvillage_loss3/classifier_plantvillage_0_split
I0403 19:42:12.700263 25607 net.cpp:425] loss3/classifier_plantvillage_loss3/classifier_plantvillage_0_split <- loss3/classifier_plantvillage
I0403 19:42:12.700284 25607 net.cpp:399] loss3/classifier_plantvillage_loss3/classifier_plantvillage_0_split -> loss3/classifier_plantvillage_loss3/classifier_plantvillage_0_split_0
I0403 19:42:12.700314 25607 net.cpp:399] loss3/classifier_plantvillage_loss3/classifier_plantvillage_0_split -> loss3/classifier_plantvillage_loss3/classifier_plantvillage_0_split_1
I0403 19:42:12.700335 25607 net.cpp:399] loss3/classifier_plantvillage_loss3/classifier_plantvillage_0_split -> loss3/classifier_plantvillage_loss3/classifier_plantvillage_0_split_2
I0403 19:42:12.700356 25607 net.cpp:399] loss3/classifier_plantvillage_loss3/classifier_plantvillage_0_split -> loss3/classifier_plantvillage_loss3/classifier_plantvillage_0_split_3
I0403 19:42:12.700461 25607 net.cpp:141] Setting up loss3/classifier_plantvillage_loss3/classifier_plantvillage_0_split
I0403 19:42:12.700489 25607 net.cpp:148] Top shape: 24 38 (912)
I0403 19:42:12.700506 25607 net.cpp:148] Top shape: 24 38 (912)
I0403 19:42:12.700522 25607 net.cpp:148] Top shape: 24 38 (912)
I0403 19:42:12.700537 25607 net.cpp:148] Top shape: 24 38 (912)
I0403 19:42:12.700551 25607 net.cpp:156] Memory required for data: 1346079072
I0403 19:42:12.700565 25607 layer_factory.hpp:77] Creating layer loss1/loss
I0403 19:42:12.700589 25607 net.cpp:91] Creating Layer loss1/loss
I0403 19:42:12.700608 25607 net.cpp:425] loss1/loss <- loss1/classifier_plantvillage_loss1/classifier_plantvillage_0_split_0
I0403 19:42:12.700639 25607 net.cpp:425] loss1/loss <- label_data_1_split_0
…
