…
I0403 19:34:58.604576 25178 net.cpp:313] The NetState phase (1) differed from the phase (0) specified by a rule in layer data
I0403 19:34:58.605765 25178 net.cpp:49] Initializing net from parameters: 
state {
  phase: TEST
}
layer {
  name: "data"
  type: "Data"
  top: "data"
  top: "label"
  include {
    phase: TEST
  }
  transform_param {
    mirror: false
    crop_size: 224
    mean_file: "/home/mohanty/data/final_dataset/lmdb/grayscale-80-20/mean.binaryproto"
  }
  data_param {
    source: "/home/mohanty/data/final_dataset/lmdb/grayscale-80-20/test_db"
    batch_size: 24
    backend: LMDB
  }
}
layer {
  name: "conv1/7x7_s2"
  type: "Convolution"
  bottom: "data"
  top: "conv1/7x7_s2"
  param {
    lr_mult: 1
    decay_mult: 1
  }
  param {
    lr_mult: 2
    decay_mult: 0
  }
  convolution_param {
    num_output: 64
    pad: 3
    kernel_size: 7
    stride: 2
    weight_filler {
      type: "xavier"
      std: 0.1
    }
    bias_filler {
      type: "constant"
      value: 0.2
    }
  }
}
layer {
  name: "conv1/relu_7x7"
  type: "ReLU"
  bottom: "conv1/7x7_s2"
  top: "conv1/7x7_s2"
}
layer {
  name: "pool1/3x3_s2"
  type: "Pooling"
  bottom: "conv1/7x7_s2"
  top: "pool1/3x3_s2"
  pooling_param {
    pool: MAX
    kernel_size: 3
    stride: 2
  }
}
layer {
  name: "pool1/norm1"
  type: "LRN"
  bottom: "pool1/3x3_s2"
  top: "pool1/norm1"
  lrn_param {
    local_size: 5
    alpha: 0.0001
    beta: 0.75
  }
}
layer {
  name: "conv2/3x3_reduce"
  type: "Convolution"
  bottom: "pool1/norm1"
  top: "conv2/3x3_reduce"
  param {
    lr_mult: 1
    decay_mult: 1
  }
  param {
    lr_mult: 2
    decay_mult: 0
  }
  convolution_param {
    num_output: 64
    kernel_size: 1
    weight_filler {
      type: "xavier"
      std: 0.1
    }
    bias_filler {
      type: "constant"
      value: 0.2
    }
  }
}
layer {
  name: "conv2/relu_3x3_reduce"
  type: "ReLU"
  bottom: "conv2/3x3_reduce"
  top: "conv2/3x3_reduce"
}
layer {
  name: "conv2/3x3"
  type: "Convolution"
  bottom: "conv2/3x3_reduce"
  top: "conv2/3x3"
  param {
    lr_mult: 1
    decay_mult: 1
  }
  param {
    lr_mult: 2
    decay_mult: 0
  }
  convolution_param {
    num_output: 192
    pad: 1
    kernel_size: 3
    weight_filler {
      type: "xavier"
      std: 0.03
    }
    bias_filler {
      type: "constant"
      value: 0.2
    }
  }
}
layer {
  name: "conv2/relu_3x3"
  type: "ReLU"
  bottom: "conv2/3x3"
  top: "conv2/3x3"
}
layer {
  name: "conv2/norm2"
  type: "LRN"
  bottom: "conv2/3x3"
  top: "conv2/norm2"
  lrn_param {
    local_size: 5
    alpha: 0.0001
    beta: 0.75
  }
}
layer {
  name: "pool2/3x3_s2"
  type: "Pooling"
  bottom: "conv2/norm2"
  top: "pool2/3x3_s2"
  pooling_param {
    pool: MAX
    kernel_size: 3
    stride: 2
  }
}
layer {
  name: "inception_3a/1x1"
  type: "Convolution"
  bottom: "pool2/3x3_s2"
  top: "inception_3a/1x1"
  param {
    lr_mult: 1
    decay_mult: 1
  }
  param {
    lr_mult: 2
    decay_mult: 0
  }
  convolution_param {
    num_output: 64
    kernel_size: 1
    weight_filler {
      type: "xavier"
      std: 0.03
    }
    bias_filler {
      type: "constant"
      value: 0.2
    }
  }
}
layer {
  name: "inception_3a/relu_1x1"
  type: "ReLU"
  bottom: "inception_3a/1x1"
  top: "inception_3a/1x1"
}
layer {
  name: "inception_3a/3x3_reduce"
  type: "Convolution"
  bottom: "pool2/3x3_s2"
  top: "inception_3a/3x3_reduce"
  param {
    lr_mult: 1
    decay_mult: 1
  }
  param {
    lr_mult: 2
    decay_mult: 0
  }
  convolution_param {
    num_output: 96
    kernel_size: 1
    weight_filler {
      type: "xavier"
      std: 0.09
    }
    bias_filler {
      type: "constant"
      value: 0.2
    }
  }
}
layer {
  name: "inception_3a/relu_3x3_reduce"
  type: "ReLU"
  bottom: "inception_3a/3x3_reduce"
  top: "inception_3a/3x3_reduce"
}
layer {
  name: "inception_3a/3x3"
  type: "Convolution"
  bottom: "inception_3a/3x3_reduce"
  top: "inception_3a/3x3"
  param {
    lr_mult: 1
    decay_mult: 1
  }
  param {
    lr_mult: 2
    decay_mult: 0
  }
  convolution_param {
    num_output: 128
    pad: 1
    kernel_size: 3
    weight_filler {
      type: "xavier"
      std: 0.03
    }
    bias_filler {
      type: "constant"
      value: 0.2
    }
  }
}
layer {
  name: "inception_3a/relu_3x3"
  type: "ReLU"
  bottom: "inception_3a/3x3"
  top: "inception_3a/3x3"
}
layer {
  name: "inception_3a/5x5_reduce"
  type: "Convolution"
  bottom: "pool2/3x3_s2"
  top: "inception_3a/5x5_reduce"
  param {
    lr_mult: 1
    decay_mult: 1
  }
  param {
    lr_mult: 2
    decay_mult: 0
  }
  convolution_param {
    num_output: 16
    kernel_size: 1
    weight_filler {
      type: "xavier"
      std: 0.2
    }
    bias_filler {
      type: "constant"
      value: 0.2
    }
  }
}
layer {
  name: "inception_3a/relu_5x5_reduce"
  type: "ReLU"
  bottom: "inception_3a/5x5_reduce"
  top: "inception_3a/5x5_reduce"
}
layer {
  name: "inception_3a/5x5"
  type: "Convolution"
  bottom: "inception_3a/5x5_reduce"
  top: "inception_3a/5x5"
  param {
    lr_mult: 1
    decay_mult: 1
  }
  param {
    lr_mult: 2
    decay_mult: 0
  }
  convolution_param {
    num_output: 32
    pad: 2
    kernel_size: 5
    weight_filler {
      type: "xavier"
      std: 0.03
    }
    bias_filler {
      type: "constant"
      value: 0.2
    }
  }
}
layer {
  name: "inception_3a/relu_5x5"
  type: "ReLU"
  bottom: "inception_3a/5x5"
  top: "inception_3a/5x5"
}
layer {
  name: "inception_3a/pool"
  type: "Pooling"
  bottom: "pool2/3x3_s2"
  top: "inception_3a/pool"
  pooling_param {
    pool: MAX
    kernel_size: 3
    stride: 1
    pad: 1
  }
}
layer {
  name: "inception_3a/pool_proj"
  type: "Convolution"
  bottom: "inception_3a/pool"
  top: "inception_3a/pool_proj"
  param {
    lr_mult: 1
    decay_mult: 1
  }
  param {
    lr_mult: 2
    decay_mult: 0
  }
  convolution_param {
    num_output: 32
    kernel_size: 1
    weight_filler {
      type: "xavier"
      std: 0.1
    }
    bias_filler {
      type: "constant"
      value: 0.2
    }
  }
}
layer {
  name: "inception_3a/relu_pool_proj"
  type: "ReLU"
  bottom: "inception_3a/pool_proj"
  top: "inception_3a/pool_proj"
}
layer {
  name: "inception_3a/output"
  type: "Concat"
  bottom: "inception_3a/1x1"
  bottom: "inception_3a/3x3"
  bottom: "inception_3a/5x5"
  bottom: "inception_3a/pool_proj"
  top: "inception_3a/output"
}
layer {
  name: "inception_3b/1x1"
  type: "Convolution"
  bottom: "inception_3a/output"
  top: "inception_3b/1x1"
  param {
    lr_mult: 1
    decay_mult: 1
  }
  param {
    lr_mult: 2
    decay_mult: 0
  }
  convolution_param {
    num_output: 128
    kernel_size: 1
    weight_filler {
      type: "xavier"
      std: 0.03
    }
    bias_filler {
      type: "constant"
      value: 0.2
    }
  }
}
layer {
  name: "inception_3b/relu_1x1"
  type: "ReLU"
  bottom: "inception_3b/1x1"
  top: "inception_3b/1x1"
}
layer {
  name: "inception_3b/3x3_reduce"
  type: "Convolution"
  bottom: "inception_3a/output"
  top: "inception_3b/3x3_reduce"
  param {
    lr_mult: 1
    decay_mult: 1
  }
  param {
    lr_mult: 2
    decay_mult: 0
  }
  convolution_param {
    num_output: 128
    kernel_size: 1
    weight_filler {
      type: "xavier"
      std: 0.09
    }
    bias_filler {
      type: "constant"
      value: 0.2
    }
  }
}
layer {
  name: "inception_3b/relu_3x3_reduce"
  type: "ReLU"
  bottom: "inception_3b/3x3_reduce"
  top: "inception_3b/3x3_reduce"
}
layer {
  name: "inception_3b/3x3"
  type: "Convolution"
  bottom: "inception_3b/3x3_reduce"
  top: "inception_3b/3x3"
  param {
    lr_mult: 1
    decay_mult: 1
  }
  param {
    lr_mult: 2
    decay_mult: 0
  }
  convolution_param {
    num_output: 192
    pad: 1
    kernel_size: 3
    weight_filler {
      type: "xavier"
      std: 0.03
    }
    bias_filler {
      type: "constant"
      value: 0.2
    }
  }
}
layer {
  name: "inception_3b/relu_3x3"
  type: "ReLU"
  bottom: "inception_3b/3x3"
  top: "inception_3b/3x3"
}
layer {
  name: "inception_3b/5x5_reduce"
  type: "Convolution"
  bottom: "inception_3a/output"
  top: "inception_3b/5x5_reduce"
  param {
    lr_mult: 1
    decay_mult: 1
  }
  param {
    lr_mult: 2
    decay_mult: 0
  }
  convolution_param {
    num_output: 32
    kernel_size: 1
    weight_filler {
      type: "xavier"
      std: 0.2
    }
    bias_filler {
      type: "constant"
      value: 0.2
    }
  }
}
layer {
  name: "inception_3b/relu_5x5_reduce"
  type: "ReLU"
  bottom: "inception_3b/5x5_reduce"
  top: "inception_3b/5x5_reduce"
}
layer {
  name: "inception_3b/5x5"
  type: "Convolution"
  bottom: "inception_3b/5x5_reduce"
  top: "inception_3b/5x5"
  param {
    lr_mult: 1
    decay_mult: 1
  }
  param {
    lr_mult: 2
    decay_mult: 0
  }
  convolution_param {
    num_output: 96
    pad: 2
    kernel_size: 5
    weight_filler {
      type: "xavier"
      std: 0.03
    }
    bias_filler {
      type: "constant"
      value: 0.2
    }
  }
}
layer {
  name: "inception_3b/relu_5x5"
  type: "ReLU"
  bottom: "inception_3b/5x5"
  top: "inception_3b/5x5"
}
layer {
  name: "inception_3b/pool"
  type: "Pooling"
  bottom: "inception_3a/output"
  top: "inception_3b/pool"
  pooling_param {
    pool: MAX
    kernel_size: 3
    stride: 1
    pad: 1
  }
}
layer {
  name: "inception_3b/pool_proj"
  type: "Convolution"
  bottom: "inception_3b/pool"
  top: "inception_3b/pool_proj"
  param {
    lr_mult: 1
    decay_mult: 1
  }
  param {
    lr_mult: 2
    decay_mult: 0
  }
  convolution_param {
    num_output: 64
    kernel_size: 1
    weight_filler {
      type: "xavier"
      std: 0.1
    }
    bias_filler {
      type: "constant"
      value: 0.2
    }
  }
}
layer {
  name: "inception_3b/relu_pool_proj"
  type: "ReLU"
  bottom: "inception_3b/pool_proj"
  top: "inception_3b/pool_proj"
}
layer {
  name: "inception_3b/output"
  type: "Concat"
  bottom: "inception_3b/1x1"
  bottom: "inception_3b/3x3"
  bottom: "inception_3b/5x5"
  bottom: "inception_3b/pool_proj"
  top: "inception_3b/output"
}
layer {
  name: "pool3/3x3_s2"
  type: "Pooling"
  bottom: "inception_3b/output"
  top: "pool3/3x3_s2"
  pooling_param {
    pool: MAX
    kernel_size: 3
    stride: 2
  }
}
layer {
  name: "inception_4a/1x1"
  type: "Convolution"
  bottom: "pool3/3x3_s2"
  top: "inception_4a/1x1"
  param {
    lr_mult: 1
    decay_mult: 1
  }
  param {
    lr_mult: 2
    decay_mult: 0
  }
  convolution_param {
    num_output: 192
    kernel_size: 1
    weight_filler {
      type: "xavier"
      std: 0.03
    }
    bias_filler {
      type: "constant"
      value: 0.2
    }
  }
}
layer {
  name: "inception_4a/relu_1x1"
  type: "ReLU"
  bottom: "inception_4a/1x1"
  top: "inception_4a/1x1"
}
layer {
  name: "inception_4a/3x3_reduce"
  type: "Convolution"
  bottom: "pool3/3x3_s2"
  top: "inception_4a/3x3_reduce"
  param {
    lr_mult: 1
    decay_mult: 1
  }
  param {
    lr_mult: 2
    decay_mult: 0
  }
  convolution_param {
    num_output: 96
    kernel_size: 1
    weight_filler {
      type: "xavier"
      std: 0.09
    }
    bias_filler {
      type: "constant"
      value: 0.2
    }
  }
}
layer {
  name: "inception_4a/relu_3x3_reduce"
  type: "ReLU"
  bottom: "inception_4a/3x3_reduce"
  top: "inception_4a/3x3_reduce"
}
layer {
  name: "inception_4a/3x3"
  type: "Convolution"
  bottom: "inception_4a/3x3_reduce"
  top: "inception_4a/3x3"
  param {
    lr_mult: 1
    decay_mult: 1
  }
  param {
    lr_mult: 2
    decay_mult: 0
  }
  convolution_param {
    num_output: 208
    pad: 1
    kernel_size: 3
    weight_filler {
      type: "xavier"
      std: 0.03
    }
    bias_filler {
      type: "constant"
      value: 0.2
    }
  }
}
layer {
  name: "inception_4a/relu_3x3"
  type: "ReLU"
  bottom: "inception_4a/3x3"
  top: "inception_4a/3x3"
}
layer {
  name: "inception_4a/5x5_reduce"
  type: "Convolution"
  bottom: "pool3/3x3_s2"
  top: "inception_4a/5x5_reduce"
  param {
    lr_mult: 1
    decay_mult: 1
  }
  param {
    lr_mult: 2
    decay_mult: 0
  }
  convolution_param {
    num_output: 16
    kernel_size: 1
    weight_filler {
      type: "xavier"
      std: 0.2
    }
    bias_filler {
      type: "constant"
      value: 0.2
    }
  }
}
layer {
  name: "inception_4a/relu_5x5_reduce"
  type: "ReLU"
  bottom: "inception_4a/5x5_reduce"
  top: "inception_4a/5x5_reduce"
}
layer {
  name: "inception_4a/5x5"
  type: "Convolution"
  bottom: "inception_4a/5x5_reduce"
  top: "inception_4a/5x5"
  param {
    lr_mult: 1
    decay_mult: 1
  }
  param {
    lr_mult: 2
    decay_mult: 0
  }
  convolution_param {
    num_output: 48
    pad: 2
    kernel_size: 5
    weight_filler {
      type: "xavier"
      std: 0.03
    }
    bias_filler {
      type: "constant"
      value: 0.2
    }
  }
}
layer {
  name: "inception_4a/relu_5x5"
  type: "ReLU"
  bottom: "inception_4a/5x5"
  top: "inception_4a/5x5"
}
layer {
  name: "inception_4a/pool"
  type: "Pooling"
  bottom: "pool3/3x3_s2"
  top: "inception_4a/pool"
  pooling_param {
    pool: MAX
    kernel_size: 3
    stride: 1
    pad: 1
  }
}
layer {
  name: "inception_4a/pool_proj"
  type: "Convolution"
  bottom: "inception_4a/pool"
  top: "inception_4a/pool_proj"
  param {
    lr_mult: 1
    decay_mult: 1
  }
  param {
    lr_mult: 2
    decay_mult: 0
  }
  convolution_param {
    num_output: 64
    kernel_size: 1
    weight_filler {
      type: "xavier"
      std: 0.1
    }
    bias_filler {
      type: "constant"
      value: 0.2
    }
  }
}
layer {
  name: "inception_4a/relu_pool_proj"
  type: "ReLU"
  bottom: "inception_4a/pool_proj"
  top: "inception_4a/pool_proj"
}
layer {
  name: "inception_4a/output"
  type: "Concat"
  bottom: "inception_4a/1x1"
  bottom: "inception_4a/3x3"
  bottom: "inception_4a/5x5"
  bottom: "inception_4a/pool_proj"
  top: "inception_4a/output"
}
layer {
  name: "loss1/ave_pool"
  type: "Pooling"
  bottom: "inception_4a/output"
  top: "loss1/ave_pool"
  pooling_param {
    pool: AVE
    kernel_size: 5
    stride: 3
  }
}
layer {
  name: "loss1/conv"
  type: "Convolution"
  bottom: "loss1/ave_pool"
  top: "loss1/conv"
  param {
    lr_mult: 1
    decay_mult: 1
  }
  param {
    lr_mult: 2
    decay_mult: 0
  }
  convolution_param {
    num_output: 128
    kernel_size: 1
    weight_filler {
      type: "xavier"
      std: 0.08
    }
    bias_filler {
      type: "constant"
      value: 0.2
    }
  }
}
layer {
  name: "loss1/relu_conv"
  type: "ReLU"
  bottom: "loss1/conv"
  top: "loss1/conv"
}
layer {
  name: "loss1/fc"
  type: "InnerProduct"
  bottom: "loss1/conv"
  top: "loss1/fc"
  param {
    lr_mult: 1
    decay_mult: 1
  }
  param {
    lr_mult: 2
    decay_mult: 0
  }
  inner_product_param {
    num_output: 1024
    weight_filler {
      type: "xavier"
      std: 0.02
    }
    bias_filler {
      type: "constant"
      value: 0.2
    }
  }
}
layer {
  name: "loss1/relu_fc"
  type: "ReLU"
  bottom: "loss1/fc"
  top: "loss1/fc"
}
layer {
  name: "loss1/drop_fc"
  type: "Dropout"
  bottom: "loss1/fc"
  top: "loss1/fc"
  dropout_param {
    dropout_ratio: 0.7
  }
}
layer {
  name: "loss1/classifier_plantvillage"
  type: "InnerProduct"
  bottom: "loss1/fc"
  top: "loss1/classifier_plantvillage"
  param {
    lr_mult: 1
    decay_mult: 1
  }
  param {
    lr_mult: 2
    decay_mult: 0
  }
  inner_product_param {
    num_output: 38
    weight_filler {
      type: "xavier"
      std: 0.0009765625
    }
    bias_filler {
      type: "constant"
      value: 0
    }
  }
}
layer {
  name: "inception_4b/1x1"
  type: "Convolution"
  bottom: "inception_4a/output"
  top: "inception_4b/1x1"
  param {
    lr_mult: 1
    decay_mult: 1
  }
  param {
    lr_mult: 2
    decay_mult: 0
  }
  convolution_param {
    num_output: 160
    kernel_size: 1
    weight_filler {
      type: "xavier"
      std: 0.03
    }
    bias_filler {
      type: "constant"
      value: 0.2
    }
  }
}
layer {
  name: "inception_4b/relu_1x1"
  type: "ReLU"
  bottom: "inception_4b/1x1"
  top: "inception_4b/1x1"
}
layer {
  name: "inception_4b/3x3_reduce"
  type: "Convolution"
  bottom: "inception_4a/output"
  top: "inception_4b/3x3_reduce"
  param {
    lr_mult: 1
    decay_mult: 1
  }
  param {
    lr_mult: 2
    decay_mult: 0
  }
  convolution_param {
    num_output: 112
    kernel_size: 1
    weight_filler {
      type: "xavier"
      std: 0.09
    }
    bias_filler {
      type: "constant"
      value: 0.2
    }
  }
}
layer {
  name: "inception_4b/relu_3x3_reduce"
  type: "ReLU"
  bottom: "inception_4b/3x3_reduce"
  top: "inception_4b/3x3_reduce"
}
layer {
  name: "inception_4b/3x3"
  type: "Convolution"
  bottom: "inception_4b/3x3_reduce"
  top: "inception_4b/3x3"
  param {
    lr_mult: 1
    decay_mult: 1
  }
  param {
    lr_mult: 2
    decay_mult: 0
  }
  convolution_param {
    num_output: 224
    pad: 1
    kernel_size: 3
    weight_filler {
      type: "xavier"
      std: 0.03
    }
    bias_filler {
      type: "constant"
      value: 0.2
    }
  }
}
layer {
  name: "inception_4b/relu_3x3"
  type: "ReLU"
  bottom: "inception_4b/3x3"
  top: "inception_4b/3x3"
}
layer {
  name: "inception_4b/5x5_reduce"
  type: "Convolution"
  bottom: "inception_4a/output"
  top: "inception_4b/5x5_reduce"
  param {
    lr_mult: 1
    decay_mult: 1
  }
  param {
    lr_mult: 2
    decay_mult: 0
  }
  convolution_param {
    num_output: 24
    kernel_size: 1
    weight_filler {
      type: "xavier"
      std: 0.2
    }
    bias_filler {
      type: "constant"
      value: 0.2
    }
  }
}
layer {
  name: "inception_4b/relu_5x5_reduce"
  type: "ReLU"
  bottom: "inception_4b/5x5_reduce"
  top: "inception_4b/5x5_reduce"
}
layer {
  name: "inception_4b/5x5"
  type: "Convolution"
  bottom: "inception_4b/5x5_reduce"
  top: "inception_4b/5x5"
  param {
    lr_mult: 1
    decay_mult: 1
  }
  param {
    lr_mult: 2
    decay_mult: 0
  }
  convolution_param {
    num_output: 64
    pad: 2
    kernel_size: 5
    weight_filler {
      type: "xavier"
      std: 0.03
    }
    bias_filler {
      type: "constant"
      value: 0.2
    }
  }
}
layer {
  name: "inception_4b/relu_5x5"
  type: "ReLU"
  bottom: "inception_4b/5x5"
  top: "inception_4b/5x5"
}
layer {
  name: "inception_4b/pool"
  type: "Pooling"
  bottom: "inception_4a/output"
  top: "inception_4b/pool"
  pooling_param {
    pool: MAX
    kernel_size: 3
    stride: 1
    pad: 1
  }
}
layer {
  name: "inception_4b/pool_proj"
  type: "Convolution"
  bottom: "inception_4b/pool"
  top: "inception_4b/pool_proj"
  param {
    lr_mult: 1
    decay_mult: 1
  }
  param {
    lr_mult: 2
    decay_mult: 0
  }
  convolution_param {
    num_output: 64
    kernel_size: 1
    weight_filler {
      type: "xavier"
      std: 0.1
    }
    bias_filler {
      type: "constant"
      value: 0.2
    }
  }
}
layer {
  name: "inception_4b/relu_pool_proj"
  type: "ReLU"
  bottom: "inception_4b/pool_proj"
  top: "inception_4b/pool_proj"
}
layer {
  name: "inception_4b/output"
  type: "Concat"
  bottom: "inception_4b/1x1"
  bottom: "inception_4b/3x3"
  bottom: "inception_4b/5x5"
  bottom: "inception_4b/pool_proj"
  top: "inception_4b/output"
}
layer {
  name: "inception_4c/1x1"
  type: "Convolution"
  bottom: "inception_4b/output"
  top: "inception_4c/1x1"
  param {
    lr_mult: 1
    decay_mult: 1
  }
  param {
    lr_mult: 2
    decay_mult: 0
  }
  convolution_param {
    num_output: 128
    kernel_size: 1
    weight_filler {
      type: "xavier"
      std: 0.03
    }
    bias_filler {
      type: "constant"
      value: 0.2
    }
  }
}
layer {
  name: "inception_4c/relu_1x1"
  type: "ReLU"
  bottom: "inception_4c/1x1"
  top: "inception_4c/1x1"
}
layer {
  name: "inception_4c/3x3_reduce"
  type: "Convolution"
  bottom: "inception_4b/output"
  top: "inception_4c/3x3_reduce"
  param {
    lr_mult: 1
    decay_mult: 1
  }
  param {
    lr_mult: 2
    decay_mult: 0
  }
  convolution_param {
    num_output: 128
    kernel_size: 1
    weight_filler {
      type: "xavier"
      std: 0.09
    }
    bias_filler {
      type: "constant"
      value: 0.2
    }
  }
}
layer {
  name: "inception_4c/relu_3x3_reduce"
  type: "ReLU"
  bottom: "inception_4c/3x3_reduce"
  top: "inception_4c/3x3_reduce"
}
layer {
  name: "inception_4c/3x3"
  type: "Convolution"
  bottom: "inception_4c/3x3_reduce"
  top: "inception_4c/3x3"
  param {
    lr_mult: 1
    decay_mult: 1
  }
  param {
    lr_mult: 2
    decay_mult: 0
  }
  convolution_param {
    num_output: 256
    pad: 1
    kernel_size: 3
    weight_filler {
      type: "xavier"
      std: 0.03
    }
    bias_filler {
      type: "constant"
      value: 0.2
    }
  }
}
layer {
  name: "inception_4c/relu_3x3"
  type: "ReLU"
  bottom: "inception_4c/3x3"
  top: "inception_4c/3x3"
}
layer {
  name: "inception_4c/5x5_reduce"
  type: "Convolution"
  bottom: "inception_4b/output"
  top: "inception_4c/5x5_reduce"
  param {
    lr_mult: 1
    decay_mult: 1
  }
  param {
    lr_mult: 2
    decay_mult: 0
  }
  convolution_param {
    num_output: 24
    kernel_size: 1
    weight_filler {
      type: "xavier"
      std: 0.2
    }
    bias_filler {
      type: "constant"
      value: 0.2
    }
  }
}
layer {
  name: "inception_4c/relu_5x5_reduce"
  type: "ReLU"
  bottom: "inception_4c/5x5_reduce"
  top: "inception_4c/5x5_reduce"
}
layer {
  name: "inception_4c/5x5"
  type: "Convolution"
  bottom: "inception_4c/5x5_reduce"
  top: "inception_4c/5x5"
  param {
    lr_mult: 1
    decay_mult: 1
  }
  param {
    lr_mult: 2
    decay_mult: 0
  }
  convolution_param {
    num_output: 64
    pad: 2
    kernel_size: 5
    weight_filler {
      type: "xavier"
      std: 0.03
    }
    bias_filler {
      type: "constant"
      value: 0.2
    }
  }
}
layer {
  name: "inception_4c/relu_5x5"
  type: "ReLU"
  bottom: "inception_4c/5x5"
  top: "inception_4c/5x5"
}
layer {
  name: "inception_4c/pool"
  type: "Pooling"
  bottom: "inception_4b/output"
  top: "inception_4c/pool"
  pooling_param {
    pool: MAX
    kernel_size: 3
    stride: 1
    pad: 1
  }
}
layer {
  name: "inception_4c/pool_proj"
  type: "Convolution"
  bottom: "inception_4c/pool"
  top: "inception_4c/pool_proj"
  param {
    lr_mult: 1
    decay_mult: 1
  }
  param {
    lr_mult: 2
    decay_mult: 0
  }
  convolution_param {
    num_output: 64
    kernel_size: 1
    weight_filler {
      type: "xavier"
      std: 0.1
    }
    bias_filler {
      type: "constant"
      value: 0.2
    }
  }
}
layer {
  name: "inception_4c/relu_pool_proj"
  type: "ReLU"
  bottom: "inception_4c/pool_proj"
  top: "inception_4c/pool_proj"
}
layer {
  name: "inception_4c/output"
  type: "Concat"
  bottom: "inception_4c/1x1"
  bottom: "inception_4c/3x3"
  bottom: "inception_4c/5x5"
  bottom: "inception_4c/pool_proj"
  top: "inception_4c/output"
}
layer {
  name: "inception_4d/1x1"
  type: "Convolution"
  bottom: "inception_4c/output"
  top: "inception_4d/1x1"
  param {
    lr_mult: 1
    decay_mult: 1
  }
  param {
    lr_mult: 2
    decay_mult: 0
  }
  convolution_param {
    num_output: 112
    kernel_size: 1
    weight_filler {
      type: "xavier"
      std: 0.03
    }
    bias_filler {
      type: "constant"
      value: 0.2
    }
  }
}
layer {
  name: "inception_4d/relu_1x1"
  type: "ReLU"
  bottom: "inception_4d/1x1"
  top: "inception_4d/1x1"
}
layer {
  name: "inception_4d/3x3_reduce"
  type: "Convolution"
  bottom: "inception_4c/output"
  top: "inception_4d/3x3_reduce"
  param {
    lr_mult: 1
    decay_mult: 1
  }
  param {
    lr_mult: 2
    decay_mult: 0
  }
  convolution_param {
    num_output: 144
    kernel_size: 1
    weight_filler {
      type: "xavier"
      std: 0.09
    }
    bias_filler {
      type: "constant"
      value: 0.2
    }
  }
}
layer {
  name: "inception_4d/relu_3x3_reduce"
  type: "ReLU"
  bottom: "inception_4d/3x3_reduce"
  top: "inception_4d/3x3_reduce"
}
layer {
  name: "inception_4d/3x3"
  type: "Convolution"
  bottom: "inception_4d/3x3_reduce"
  top: "inception_4d/3x3"
  param {
    lr_mult: 1
    decay_mult: 1
  }
  param {
    lr_mult: 2
    decay_mult: 0
  }
  convolution_param {
    num_output: 288
    pad: 1
    kernel_size: 3
    weight_filler {
      type: "xavier"
      std: 0.03
    }
    bias_filler {
      type: "constant"
      value: 0.2
    }
  }
}
layer {
  name: "inception_4d/relu_3x3"
  type: "ReLU"
  bottom: "inception_4d/3x3"
  top: "inception_4d/3x3"
}
layer {
  name: "inception_4d/5x5_reduce"
  type: "Convolution"
  bottom: "inception_4c/output"
  top: "inception_4d/5x5_reduce"
  param {
    lr_mult: 1
    decay_mult: 1
  }
  param {
    lr_mult: 2
    decay_mult: 0
  }
  convolution_param {
    num_output: 32
    kernel_size: 1
    weight_filler {
      type: "xavier"
      std: 0.2
    }
    bias_filler {
      type: "constant"
      value: 0.2
    }
  }
}
layer {
  name: "inception_4d/relu_5x5_reduce"
  type: "ReLU"
  bottom: "inception_4d/5x5_reduce"
  top: "inception_4d/5x5_reduce"
}
layer {
  name: "inception_4d/5x5"
  type: "Convolution"
  bottom: "inception_4d/5x5_reduce"
  top: "inception_4d/5x5"
  param {
    lr_mult: 1
    decay_mult: 1
  }
  param {
    lr_mult: 2
    decay_mult: 0
  }
  convolution_param {
    num_output: 64
    pad: 2
    kernel_size: 5
    weight_filler {
      type: "xavier"
      std: 0.03
    }
    bias_filler {
      type: "constant"
      value: 0.2
    }
  }
}
layer {
  name: "inception_4d/relu_5x5"
  type: "ReLU"
  bottom: "inception_4d/5x5"
  top: "inception_4d/5x5"
}
layer {
  name: "inception_4d/pool"
  type: "Pooling"
  bottom: "inception_4c/output"
  top: "inception_4d/pool"
  pooling_param {
    pool: MAX
    kernel_size: 3
    stride: 1
    pad: 1
  }
}
layer {
  name: "inception_4d/pool_proj"
  type: "Convolution"
  bottom: "inception_4d/pool"
  top: "inception_4d/pool_proj"
  param {
    lr_mult: 1
    decay_mult: 1
  }
  param {
    lr_mult: 2
    decay_mult: 0
  }
  convolution_param {
    num_output: 64
    kernel_size: 1
    weight_filler {
      type: "xavier"
      std: 0.1
    }
    bias_filler {
      type: "constant"
      value: 0.2
    }
  }
}
layer {
  name: "inception_4d/relu_pool_proj"
  type: "ReLU"
  bottom: "inception_4d/pool_proj"
  top: "inception_4d/pool_proj"
}
layer {
  name: "inception_4d/output"
  type: "Concat"
  bottom: "inception_4d/1x1"
  bottom: "inception_4d/3x3"
  bottom: "inception_4d/5x5"
  bottom: "inception_4d/pool_proj"
  top: "inception_4d/output"
}
layer {
  name: "loss2/ave_pool"
  type: "Pooling"
  bottom: "inception_4d/output"
  top: "loss2/ave_pool"
  pooling_param {
    pool: AVE
    kernel_size: 5
    stride: 3
  }
}
layer {
  name: "loss2/conv"
  type: "Convolution"
  bottom: "loss2/ave_pool"
  top: "loss2/conv"
  param {
    lr_mult: 1
    decay_mult: 1
  }
  param {
    lr_mult: 2
    decay_mult: 0
  }
  convolution_param {
    num_output: 128
    kernel_size: 1
    weight_filler {
      type: "xavier"
      std: 0.08
    }
    bias_filler {
      type: "constant"
      value: 0.2
    }
  }
}
layer {
  name: "loss2/relu_conv"
  type: "ReLU"
  bottom: "loss2/conv"
  top: "loss2/conv"
}
layer {
  name: "loss2/fc"
  type: "InnerProduct"
  bottom: "loss2/conv"
  top: "loss2/fc"
  param {
    lr_mult: 1
    decay_mult: 1
  }
  param {
    lr_mult: 2
    decay_mult: 0
  }
  inner_product_param {
    num_output: 1024
    weight_filler {
      type: "xavier"
      std: 0.02
    }
    bias_filler {
      type: "constant"
      value: 0.2
    }
  }
}
layer {
  name: "loss2/relu_fc"
  type: "ReLU"
  bottom: "loss2/fc"
  top: "loss2/fc"
}
layer {
  name: "loss2/drop_fc"
  type: "Dropout"
  bottom: "loss2/fc"
  top: "loss2/fc"
  dropout_param {
    dropout_ratio: 0.7
  }
}
layer {
  name: "loss2/classifier_plantvillage"
  type: "InnerProduct"
  bottom: "loss2/fc"
  top: "loss2/classifier_plantvillage"
  param {
    lr_mult: 1
    decay_mult: 1
  }
  param {
    lr_mult: 2
    decay_mult: 0
  }
  inner_product_param {
    num_output: 38
    weight_filler {
      type: "xavier"
      std: 0.0009765625
    }
    bias_filler {
      type: "constant"
      value: 0
    }
  }
}
layer {
  name: "inception_4e/1x1"
  type: "Convolution"
  bottom: "inception_4d/output"
  top: "inception_4e/1x1"
  param {
    lr_mult: 1
    decay_mult: 1
  }
  param {
    lr_mult: 2
    decay_mult: 0
  }
  convolution_param {
    num_output: 256
    kernel_size: 1
    weight_filler {
      type: "xavier"
      std: 0.03
    }
    bias_filler {
      type: "constant"
      value: 0.2
    }
  }
}
layer {
  name: "inception_4e/relu_1x1"
  type: "ReLU"
  bottom: "inception_4e/1x1"
  top: "inception_4e/1x1"
}
layer {
  name: "inception_4e/3x3_reduce"
  type: "Convolution"
  bottom: "inception_4d/output"
  top: "inception_4e/3x3_reduce"
  param {
    lr_mult: 1
    decay_mult: 1
  }
  param {
    lr_mult: 2
    decay_mult: 0
  }
  convolution_param {
    num_output: 160
    kernel_size: 1
    weight_filler {
      type: "xavier"
      std: 0.09
    }
    bias_filler {
      type: "constant"
      value: 0.2
    }
  }
}
layer {
  name: "inception_4e/relu_3x3_reduce"
  type: "ReLU"
  bottom: "inception_4e/3x3_reduce"
  top: "inception_4e/3x3_reduce"
}
layer {
  name: "inception_4e/3x3"
  type: "Convolution"
  bottom: "inception_4e/3x3_reduce"
  top: "inception_4e/3x3"
  param {
    lr_mult: 1
    decay_mult: 1
  }
  param {
    lr_mult: 2
    decay_mult: 0
  }
  convolution_param {
    num_output: 320
    pad: 1
    kernel_size: 3
    weight_filler {
      type: "xavier"
      std: 0.03
    }
    bias_filler {
      type: "constant"
      value: 0.2
    }
  }
}
layer {
  name: "inception_4e/relu_3x3"
  type: "ReLU"
  bottom: "inception_4e/3x3"
  top: "inception_4e/3x3"
}
layer {
  name: "inception_4e/5x5_reduce"
  type: "Convolution"
  bottom: "inception_4d/output"
  top: "inception_4e/5x5_reduce"
  param {
    lr_mult: 1
    decay_mult: 1
  }
  param {
    lr_mult: 2
    decay_mult: 0
  }
  convolution_param {
    num_output: 32
    kernel_size: 1
    weight_filler {
      type: "xavier"
      std: 0.2
    }
    bias_filler {
      type: "constant"
      value: 0.2
    }
  }
}
layer {
  name: "inception_4e/relu_5x5_reduce"
  type: "ReLU"
  bottom: "inception_4e/5x5_reduce"
  top: "inception_4e/5x5_reduce"
}
layer {
  name: "inception_4e/5x5"
  type: "Convolution"
  bottom: "inception_4e/5x5_reduce"
  top: "inception_4e/
I0403 19:34:58.607470 25178 layer_factory.hpp:77] Creating layer data
I0403 19:34:58.608096 25178 net.cpp:91] Creating Layer data
I0403 19:34:58.608131 25178 net.cpp:399] data -> data
I0403 19:34:58.608202 25178 net.cpp:399] data -> label
I0403 19:34:58.608248 25178 data_transformer.cpp:25] Loading mean file from: /home/mohanty/data/final_dataset/lmdb/grayscale-80-20/mean.binaryproto
I0403 19:34:58.609413 25181 db_lmdb.cpp:38] Opened lmdb /home/mohanty/data/final_dataset/lmdb/grayscale-80-20/test_db
I0403 19:34:58.622632 25178 data_layer.cpp:41] output data size: 24,3,224,224
I0403 19:34:58.651474 25178 net.cpp:141] Setting up data
I0403 19:34:58.651599 25178 net.cpp:148] Top shape: 24 3 224 224 (3612672)
I0403 19:34:58.651625 25178 net.cpp:148] Top shape: 24 (24)
I0403 19:34:58.651643 25178 net.cpp:156] Memory required for data: 14450784
I0403 19:34:58.651679 25178 layer_factory.hpp:77] Creating layer label_data_1_split
I0403 19:34:58.651712 25178 net.cpp:91] Creating Layer label_data_1_split
I0403 19:34:58.651736 25178 net.cpp:425] label_data_1_split <- label
I0403 19:34:58.651777 25178 net.cpp:399] label_data_1_split -> label_data_1_split_0
I0403 19:34:58.651811 25178 net.cpp:399] label_data_1_split -> label_data_1_split_1
I0403 19:34:58.651837 25178 net.cpp:399] label_data_1_split -> label_data_1_split_2
I0403 19:34:58.651860 25178 net.cpp:399] label_data_1_split -> label_data_1_split_3
I0403 19:34:58.651882 25178 net.cpp:399] label_data_1_split -> label_data_1_split_4
I0403 19:34:58.651906 25178 net.cpp:399] label_data_1_split -> label_data_1_split_5
I0403 19:34:58.651931 25178 net.cpp:399] label_data_1_split -> label_data_1_split_6
I0403 19:34:58.651953 25178 net.cpp:399] label_data_1_split -> label_data_1_split_7
I0403 19:34:58.651975 25178 net.cpp:399] label_data_1_split -> label_data_1_split_8
I0403 19:34:58.651998 25178 net.cpp:399] label_data_1_split -> label_data_1_split_9
I0403 19:34:58.652117 25178 net.cpp:141] Setting up label_data_1_split
I0403 19:34:58.652143 25178 net.cpp:148] Top shape: 24 (24)
I0403 19:34:58.652163 25178 net.cpp:148] Top shape: 24 (24)
I0403 19:34:58.652181 25178 net.cpp:148] Top shape: 24 (24)
I0403 19:34:58.652199 25178 net.cpp:148] Top shape: 24 (24)
I0403 19:34:58.652216 25178 net.cpp:148] Top shape: 24 (24)
I0403 19:34:58.652235 25178 net.cpp:148] Top shape: 24 (24)
I0403 19:34:58.652251 25178 net.cpp:148] Top shape: 24 (24)
I0403 19:34:58.652278 25178 net.cpp:148] Top shape: 24 (24)
I0403 19:34:58.652309 25178 net.cpp:148] Top shape: 24 (24)
I0403 19:34:58.652328 25178 net.cpp:148] Top shape: 24 (24)
I0403 19:34:58.652379 25178 net.cpp:156] Memory required for data: 14451744
I0403 19:34:58.652398 25178 layer_factory.hpp:77] Creating layer conv1/7x7_s2
I0403 19:34:58.652441 25178 net.cpp:91] Creating Layer conv1/7x7_s2
I0403 19:34:58.652463 25178 net.cpp:425] conv1/7x7_s2 <- data
I0403 19:34:58.652485 25178 net.cpp:399] conv1/7x7_s2 -> conv1/7x7_s2
I0403 19:34:58.792050 25178 net.cpp:141] Setting up conv1/7x7_s2
I0403 19:34:58.792163 25178 net.cpp:148] Top shape: 24 64 112 112 (19267584)
I0403 19:34:58.792184 25178 net.cpp:156] Memory required for data: 91522080
I0403 19:34:58.792224 25178 layer_factory.hpp:77] Creating layer conv1/relu_7x7
I0403 19:34:58.792263 25178 net.cpp:91] Creating Layer conv1/relu_7x7
I0403 19:34:58.792285 25178 net.cpp:425] conv1/relu_7x7 <- conv1/7x7_s2
I0403 19:34:58.792306 25178 net.cpp:386] conv1/relu_7x7 -> conv1/7x7_s2 (in-place)
I0403 19:34:58.792562 25178 net.cpp:141] Setting up conv1/relu_7x7
I0403 19:34:58.792592 25178 net.cpp:148] Top shape: 24 64 112 112 (19267584)
I0403 19:34:58.792613 25178 net.cpp:156] Memory required for data: 168592416
I0403 19:34:58.792632 25178 layer_factory.hpp:77] Creating layer pool1/3x3_s2
I0403 19:34:58.792665 25178 net.cpp:91] Creating Layer pool1/3x3_s2
I0403 19:34:58.792683 25178 net.cpp:425] pool1/3x3_s2 <- conv1/7x7_s2
I0403 19:34:58.792703 25178 net.cpp:399] pool1/3x3_s2 -> pool1/3x3_s2
I0403 19:34:58.792784 25178 net.cpp:141] Setting up pool1/3x3_s2
I0403 19:34:58.792811 25178 net.cpp:148] Top shape: 24 64 56 56 (4816896)
I0403 19:34:58.792830 25178 net.cpp:156] Memory required for data: 187860000
I0403 19:34:58.792846 25178 layer_factory.hpp:77] Creating layer pool1/norm1
I0403 19:34:58.792875 25178 net.cpp:91] Creating Layer pool1/norm1
I0403 19:34:58.792893 25178 net.cpp:425] pool1/norm1 <- pool1/3x3_s2
I0403 19:34:58.792912 25178 net.cpp:399] pool1/norm1 -> pool1/norm1
I0403 19:34:58.793190 25178 net.cpp:141] Setting up pool1/norm1
I0403 19:34:58.793220 25178 net.cpp:148] Top shape: 24 64 56 56 (4816896)
I0403 19:34:58.793241 25178 net.cpp:156] Memory required for data: 207127584
I0403 19:34:58.793262 25178 layer_factory.hpp:77] Creating layer conv2/3x3_reduce
I0403 19:34:58.793293 25178 net.cpp:91] Creating Layer conv2/3x3_reduce
I0403 19:34:58.793311 25178 net.cpp:425] conv2/3x3_reduce <- pool1/norm1
I0403 19:34:58.793331 25178 net.cpp:399] conv2/3x3_reduce -> conv2/3x3_reduce
I0403 19:34:58.794654 25178 net.cpp:141] Setting up conv2/3x3_reduce
I0403 19:34:58.794687 25178 net.cpp:148] Top shape: 24 64 56 56 (4816896)
I0403 19:34:58.794706 25178 net.cpp:156] Memory required for data: 226395168
I0403 19:34:58.794728 25178 layer_factory.hpp:77] Creating layer conv2/relu_3x3_reduce
I0403 19:34:58.794750 25178 net.cpp:91] Creating Layer conv2/relu_3x3_reduce
I0403 19:34:58.794770 25178 net.cpp:425] conv2/relu_3x3_reduce <- conv2/3x3_reduce
I0403 19:34:58.794790 25178 net.cpp:386] conv2/relu_3x3_reduce -> conv2/3x3_reduce (in-place)
I0403 19:34:58.795030 25178 net.cpp:141] Setting up conv2/relu_3x3_reduce
I0403 19:34:58.795058 25178 net.cpp:148] Top shape: 24 64 56 56 (4816896)
I0403 19:34:58.795074 25178 net.cpp:156] Memory required for data: 245662752
I0403 19:34:58.795091 25178 layer_factory.hpp:77] Creating layer conv2/3x3
I0403 19:34:58.795115 25178 net.cpp:91] Creating Layer conv2/3x3
I0403 19:34:58.795135 25178 net.cpp:425] conv2/3x3 <- conv2/3x3_reduce
I0403 19:34:58.795153 25178 net.cpp:399] conv2/3x3 -> conv2/3x3
I0403 19:34:58.797343 25178 net.cpp:141] Setting up conv2/3x3
I0403 19:34:58.797374 25178 net.cpp:148] Top shape: 24 192 56 56 (14450688)
I0403 19:34:58.797392 25178 net.cpp:156] Memory required for data: 303465504
I0403 19:34:58.797415 25178 layer_factory.hpp:77] Creating layer conv2/relu_3x3
I0403 19:34:58.797432 25178 net.cpp:91] Creating Layer conv2/relu_3x3
I0403 19:34:58.797453 25178 net.cpp:425] conv2/relu_3x3 <- conv2/3x3
I0403 19:34:58.797472 25178 net.cpp:386] conv2/relu_3x3 -> conv2/3x3 (in-place)
I0403 19:34:58.797633 25178 net.cpp:141] Setting up conv2/relu_3x3
I0403 19:34:58.797662 25178 net.cpp:148] Top shape: 24 192 56 56 (14450688)
I0403 19:34:58.797714 25178 net.cpp:156] Memory required for data: 361268256
I0403 19:34:58.797731 25178 layer_factory.hpp:77] Creating layer conv2/norm2
I0403 19:34:58.797749 25178 net.cpp:91] Creating Layer conv2/norm2
I0403 19:34:58.797767 25178 net.cpp:425] conv2/norm2 <- conv2/3x3
I0403 19:34:58.797785 25178 net.cpp:399] conv2/norm2 -> conv2/norm2
I0403 19:34:58.798060 25178 net.cpp:141] Setting up conv2/norm2
I0403 19:34:58.798092 25178 net.cpp:148] Top shape: 24 192 56 56 (14450688)
I0403 19:34:58.798110 25178 net.cpp:156] Memory required for data: 419071008
I0403 19:34:58.798125 25178 layer_factory.hpp:77] Creating layer pool2/3x3_s2
I0403 19:34:58.798143 25178 net.cpp:91] Creating Layer pool2/3x3_s2
I0403 19:34:58.798162 25178 net.cpp:425] pool2/3x3_s2 <- conv2/norm2
I0403 19:34:58.798182 25178 net.cpp:399] pool2/3x3_s2 -> pool2/3x3_s2
I0403 19:34:58.798231 25178 net.cpp:141] Setting up pool2/3x3_s2
I0403 19:34:58.798264 25178 net.cpp:148] Top shape: 24 192 28 28 (3612672)
I0403 19:34:58.798281 25178 net.cpp:156] Memory required for data: 433521696
I0403 19:34:58.798298 25178 layer_factory.hpp:77] Creating layer pool2/3x3_s2_pool2/3x3_s2_0_split
I0403 19:34:58.798317 25178 net.cpp:91] Creating Layer pool2/3x3_s2_pool2/3x3_s2_0_split
I0403 19:34:58.798334 25178 net.cpp:425] pool2/3x3_s2_pool2/3x3_s2_0_split <- pool2/3x3_s2
I0403 19:34:58.798352 25178 net.cpp:399] pool2/3x3_s2_pool2/3x3_s2_0_split -> pool2/3x3_s2_pool2/3x3_s2_0_split_0
I0403 19:34:58.798372 25178 net.cpp:399] pool2/3x3_s2_pool2/3x3_s2_0_split -> pool2/3x3_s2_pool2/3x3_s2_0_split_1
I0403 19:34:58.798394 25178 net.cpp:399] pool2/3x3_s2_pool2/3x3_s2_0_split -> pool2/3x3_s2_pool2/3x3_s2_0_split_2
I0403 19:34:58.798416 25178 net.cpp:399] pool2/3x3_s2_pool2/3x3_s2_0_split -> pool2/3x3_s2_pool2/3x3_s2_0_split_3
I0403 19:34:58.798480 25178 net.cpp:141] Setting up pool2/3x3_s2_pool2/3x3_s2_0_split
I0403 19:34:58.798509 25178 net.cpp:148] Top shape: 24 192 28 28 (3612672)
I0403 19:34:58.798528 25178 net.cpp:148] Top shape: 24 192 28 28 (3612672)
I0403 19:34:58.798547 25178 net.cpp:148] Top shape: 24 192 28 28 (3612672)
I0403 19:34:58.798563 25178 net.cpp:148] Top shape: 24 192 28 28 (3612672)
I0403 19:34:58.798578 25178 net.cpp:156] Memory required for data: 491324448
I0403 19:34:58.798593 25178 layer_factory.hpp:77] Creating layer inception_3a/1x1
I0403 19:34:58.798614 25178 net.cpp:91] Creating Layer inception_3a/1x1
I0403 19:34:58.798634 25178 net.cpp:425] inception_3a/1x1 <- pool2/3x3_s2_pool2/3x3_s2_0_split_0
I0403 19:34:58.798655 25178 net.cpp:399] inception_3a/1x1 -> inception_3a/1x1
I0403 19:34:58.800140 25178 net.cpp:141] Setting up inception_3a/1x1
I0403 19:34:58.800173 25178 net.cpp:148] Top shape: 24 64 28 28 (1204224)
I0403 19:34:58.800190 25178 net.cpp:156] Memory required for data: 496141344
I0403 19:34:58.800209 25178 layer_factory.hpp:77] Creating layer inception_3a/relu_1x1
I0403 19:34:58.800230 25178 net.cpp:91] Creating Layer inception_3a/relu_1x1
I0403 19:34:58.800248 25178 net.cpp:425] inception_3a/relu_1x1 <- inception_3a/1x1
I0403 19:34:58.800272 25178 net.cpp:386] inception_3a/relu_1x1 -> inception_3a/1x1 (in-place)
I0403 19:34:58.800431 25178 net.cpp:141] Setting up inception_3a/relu_1x1
I0403 19:34:58.800460 25178 net.cpp:148] Top shape: 24 64 28 28 (1204224)
I0403 19:34:58.800477 25178 net.cpp:156] Memory required for data: 500958240
I0403 19:34:58.800492 25178 layer_factory.hpp:77] Creating layer inception_3a/3x3_reduce
I0403 19:34:58.800513 25178 net.cpp:91] Creating Layer inception_3a/3x3_reduce
I0403 19:34:58.800531 25178 net.cpp:425] inception_3a/3x3_reduce <- pool2/3x3_s2_pool2/3x3_s2_0_split_1
I0403 19:34:58.800551 25178 net.cpp:399] inception_3a/3x3_reduce -> inception_3a/3x3_reduce
I0403 19:34:58.802108 25178 net.cpp:141] Setting up inception_3a/3x3_reduce
I0403 19:34:58.802139 25178 net.cpp:148] Top shape: 24 96 28 28 (1806336)
I0403 19:34:58.802155 25178 net.cpp:156] Memory required for data: 508183584
I0403 19:34:58.802177 25178 layer_factory.hpp:77] Creating layer inception_3a/relu_3x3_reduce
I0403 19:34:58.802218 25178 net.cpp:91] Creating Layer inception_3a/relu_3x3_reduce
I0403 19:34:58.802239 25178 net.cpp:425] inception_3a/relu_3x3_reduce <- inception_3a/3x3_reduce
I0403 19:34:58.802263 25178 net.cpp:386] inception_3a/relu_3x3_reduce -> inception_3a/3x3_reduce (in-place)
I0403 19:34:58.802446 25178 net.cpp:141] Setting up inception_3a/relu_3x3_reduce
I0403 19:34:58.802474 25178 net.cpp:148] Top shape: 24 96 28 28 (1806336)
I0403 19:34:58.802491 25178 net.cpp:156] Memory required for data: 515408928
I0403 19:34:58.802507 25178 layer_factory.hpp:77] Creating layer inception_3a/3x3
I0403 19:34:58.802531 25178 net.cpp:91] Creating Layer inception_3a/3x3
I0403 19:34:58.802551 25178 net.cpp:425] inception_3a/3x3 <- inception_3a/3x3_reduce
I0403 19:34:58.802573 25178 net.cpp:399] inception_3a/3x3 -> inception_3a/3x3
I0403 19:34:58.804155 25178 net.cpp:141] Setting up inception_3a/3x3
I0403 19:34:58.804188 25178 net.cpp:148] Top shape: 24 128 28 28 (2408448)
I0403 19:34:58.804204 25178 net.cpp:156] Memory required for data: 525042720
I0403 19:34:58.804224 25178 layer_factory.hpp:77] Creating layer inception_3a/relu_3x3
I0403 19:34:58.804244 25178 net.cpp:91] Creating Layer inception_3a/relu_3x3
I0403 19:34:58.804277 25178 net.cpp:425] inception_3a/relu_3x3 <- inception_3a/3x3
I0403 19:34:58.804301 25178 net.cpp:386] inception_3a/relu_3x3 -> inception_3a/3x3 (in-place)
I0403 19:34:58.804564 25178 net.cpp:141] Setting up inception_3a/relu_3x3
I0403 19:34:58.804594 25178 net.cpp:148] Top shape: 24 128 28 28 (2408448)
I0403 19:34:58.804611 25178 net.cpp:156] Memory required for data: 534676512
I0403 19:34:58.804627 25178 layer_factory.hpp:77] Creating layer inception_3a/5x5_reduce
I0403 19:34:58.804651 25178 net.cpp:91] Creating Layer inception_3a/5x5_reduce
I0403 19:34:58.804672 25178 net.cpp:425] inception_3a/5x5_reduce <- pool2/3x3_s2_pool2/3x3_s2_0_split_2
I0403 19:34:58.804693 25178 net.cpp:399] inception_3a/5x5_reduce -> inception_3a/5x5_reduce
I0403 19:34:58.805629 25178 net.cpp:141] Setting up inception_3a/5x5_reduce
I0403 19:34:58.805660 25178 net.cpp:148] Top shape: 24 16 28 28 (301056)
I0403 19:34:58.805676 25178 net.cpp:156] Memory required for data: 535880736
I0403 19:34:58.805697 25178 layer_factory.hpp:77] Creating layer inception_3a/relu_5x5_reduce
I0403 19:34:58.805721 25178 net.cpp:91] Creating Layer inception_3a/relu_5x5_reduce
I0403 19:34:58.805742 25178 net.cpp:425] inception_3a/relu_5x5_reduce <- inception_3a/5x5_reduce
I0403 19:34:58.805760 25178 net.cpp:386] inception_3a/relu_5x5_reduce -> inception_3a/5x5_reduce (in-place)
I0403 19:34:58.806027 25178 net.cpp:141] Setting up inception_3a/relu_5x5_reduce
I0403 19:34:58.806062 25178 net.cpp:148] Top shape: 24 16 28 28 (301056)
I0403 19:34:58.806080 25178 net.cpp:156] Memory required for data: 537084960
I0403 19:34:58.806097 25178 layer_factory.hpp:77] Creating layer inception_3a/5x5
I0403 19:34:58.806121 25178 net.cpp:91] Creating Layer inception_3a/5x5
I0403 19:34:58.806141 25178 net.cpp:425] inception_3a/5x5 <- inception_3a/5x5_reduce
I0403 19:34:58.806160 25178 net.cpp:399] inception_3a/5x5 -> inception_3a/5x5
I0403 19:34:58.807139 25178 net.cpp:141] Setting up inception_3a/5x5
I0403 19:34:58.807170 25178 net.cpp:148] Top shape: 24 32 28 28 (602112)
I0403 19:34:58.807188 25178 net.cpp:156] Memory required for data: 539493408
I0403 19:34:58.807209 25178 layer_factory.hpp:77] Creating layer inception_3a/relu_5x5
I0403 19:34:58.807231 25178 net.cpp:91] Creating Layer inception_3a/relu_5x5
I0403 19:34:58.807251 25178 net.cpp:425] inception_3a/relu_5x5 <- inception_3a/5x5
I0403 19:34:58.807276 25178 net.cpp:386] inception_3a/relu_5x5 -> inception_3a/5x5 (in-place)
I0403 19:34:58.807446 25178 net.cpp:141] Setting up inception_3a/relu_5x5
I0403 19:34:58.807474 25178 net.cpp:148] Top shape: 24 32 28 28 (602112)
I0403 19:34:58.807492 25178 net.cpp:156] Memory required for data: 541901856
I0403 19:34:58.807509 25178 layer_factory.hpp:77] Creating layer inception_3a/pool
I0403 19:34:58.807529 25178 net.cpp:91] Creating Layer inception_3a/pool
I0403 19:34:58.807561 25178 net.cpp:425] inception_3a/pool <- pool2/3x3_s2_pool2/3x3_s2_0_split_3
I0403 19:34:58.807582 25178 net.cpp:399] inception_3a/pool -> inception_3a/pool
I0403 19:34:58.807646 25178 net.cpp:141] Setting up inception_3a/pool
I0403 19:34:58.807675 25178 net.cpp:148] Top shape: 24 192 28 28 (3612672)
I0403 19:34:58.807692 25178 net.cpp:156] Memory required for data: 556352544
I0403 19:34:58.807708 25178 layer_factory.hpp:77] Creating layer inception_3a/pool_proj
I0403 19:34:58.807734 25178 net.cpp:91] Creating Layer inception_3a/pool_proj
I0403 19:34:58.807754 25178 net.cpp:425] inception_3a/pool_proj <- inception_3a/pool
I0403 19:34:58.807778 25178 net.cpp:399] inception_3a/pool_proj -> inception_3a/pool_proj
I0403 19:34:58.808769 25178 net.cpp:141] Setting up inception_3a/pool_proj
I0403 19:34:58.808804 25178 net.cpp:148] Top shape: 24 32 28 28 (602112)
I0403 19:34:58.808822 25178 net.cpp:156] Memory required for data: 558760992
I0403 19:34:58.808847 25178 layer_factory.hpp:77] Creating layer inception_3a/relu_pool_proj
I0403 19:34:58.808871 25178 net.cpp:91] Creating Layer inception_3a/relu_pool_proj
I0403 19:34:58.808892 25178 net.cpp:425] inception_3a/relu_pool_proj <- inception_3a/pool_proj
I0403 19:34:58.808912 25178 net.cpp:386] inception_3a/relu_pool_proj -> inception_3a/pool_proj (in-place)
I0403 19:34:58.809190 25178 net.cpp:141] Setting up inception_3a/relu_pool_proj
I0403 19:34:58.809221 25178 net.cpp:148] Top shape: 24 32 28 28 (602112)
I0403 19:34:58.809237 25178 net.cpp:156] Memory required for data: 561169440
I0403 19:34:58.809253 25178 layer_factory.hpp:77] Creating layer inception_3a/output
I0403 19:34:58.809281 25178 net.cpp:91] Creating Layer inception_3a/output
I0403 19:34:58.809304 25178 net.cpp:425] inception_3a/output <- inception_3a/1x1
I0403 19:34:58.809324 25178 net.cpp:425] inception_3a/output <- inception_3a/3x3
I0403 19:34:58.809343 25178 net.cpp:425] inception_3a/output <- inception_3a/5x5
I0403 19:34:58.809361 25178 net.cpp:425] inception_3a/output <- inception_3a/pool_proj
I0403 19:34:58.809379 25178 net.cpp:399] inception_3a/output -> inception_3a/output
I0403 19:34:58.809428 25178 net.cpp:141] Setting up inception_3a/output
I0403 19:34:58.809458 25178 net.cpp:148] Top shape: 24 256 28 28 (4816896)
I0403 19:34:58.809476 25178 net.cpp:156] Memory required for data: 580437024
I0403 19:34:58.809494 25178 layer_factory.hpp:77] Creating layer inception_3a/output_inception_3a/output_0_split
I0403 19:34:58.809514 25178 net.cpp:91] Creating Layer inception_3a/output_inception_3a/output_0_split
I0403 19:34:58.809531 25178 net.cpp:425] inception_3a/output_inception_3a/output_0_split <- inception_3a/output
I0403 19:34:58.809552 25178 net.cpp:399] inception_3a/output_inception_3a/output_0_split -> inception_3a/output_inception_3a/output_0_split_0
I0403 19:34:58.809574 25178 net.cpp:399] inception_3a/output_inception_3a/output_0_split -> inception_3a/output_inception_3a/output_0_split_1
I0403 19:34:58.809599 25178 net.cpp:399] inception_3a/output_inception_3a/output_0_split -> inception_3a/output_inception_3a/output_0_split_2
I0403 19:34:58.809623 25178 net.cpp:399] inception_3a/output_inception_3a/output_0_split -> inception_3a/output_inception_3a/output_0_split_3
I0403 19:34:58.809702 25178 net.cpp:141] Setting up inception_3a/output_inception_3a/output_0_split
I0403 19:34:58.809732 25178 net.cpp:148] Top shape: 24 256 28 28 (4816896)
I0403 19:34:58.809751 25178 net.cpp:148] Top shape: 24 256 28 28 (4816896)
I0403 19:34:58.809768 25178 net.cpp:148] Top shape: 24 256 28 28 (4816896)
I0403 19:34:58.809785 25178 net.cpp:148] Top shape: 24 256 28 28 (4816896)
I0403 19:34:58.809801 25178 net.cpp:156] Memory required for data: 657507360
I0403 19:34:58.809818 25178 layer_factory.hpp:77] Creating layer inception_3b/1x1
I0403 19:34:58.809844 25178 net.cpp:91] Creating Layer inception_3b/1x1
I0403 19:34:58.809864 25178 net.cpp:425] inception_3b/1x1 <- inception_3a/output_inception_3a/output_0_split_0
I0403 19:34:58.809887 25178 net.cpp:399] inception_3b/1x1 -> inception_3b/1x1
I0403 19:34:58.811028 25178 net.cpp:141] Setting up inception_3b/1x1
I0403 19:34:58.811071 25178 net.cpp:148] Top shape: 24 128 28 28 (2408448)
I0403 19:34:58.811091 25178 net.cpp:156] Memory required for data: 667141152
I0403 19:34:58.811112 25178 layer_factory.hpp:77] Creating layer inception_3b/relu_1x1
I0403 19:34:58.811132 25178 net.cpp:91] Creating Layer inception_3b/relu_1x1
I0403 19:34:58.811151 25178 net.cpp:425] inception_3b/relu_1x1 <- inception_3b/1x1
I0403 19:34:58.811172 25178 net.cpp:386] inception_3b/relu_1x1 -> inception_3b/1x1 (in-place)
I0403 19:34:58.811357 25178 net.cpp:141] Setting up inception_3b/relu_1x1
I0403 19:34:58.811386 25178 net.cpp:148] Top shape: 24 128 28 28 (2408448)
I0403 19:34:58.811403 25178 net.cpp:156] Memory required for data: 676774944
I0403 19:34:58.811421 25178 layer_factory.hpp:77] Creating layer inception_3b/3x3_reduce
I0403 19:34:58.811445 25178 net.cpp:91] Creating Layer inception_3b/3x3_reduce
I0403 19:34:58.811467 25178 net.cpp:425] inception_3b/3x3_reduce <- inception_3a/output_inception_3a/output_0_split_1
I0403 19:34:58.811491 25178 net.cpp:399] inception_3b/3x3_reduce -> inception_3b/3x3_reduce
I0403 19:34:58.812664 25178 net.cpp:141] Setting up inception_3b/3x3_reduce
I0403 19:34:58.812701 25178 net.cpp:148] Top shape: 24 128 28 28 (2408448)
I0403 19:34:58.812721 25178 net.cpp:156] Memory required for data: 686408736
I0403 19:34:58.812741 25178 layer_factory.hpp:77] Creating layer inception_3b/relu_3x3_reduce
I0403 19:34:58.812762 25178 net.cpp:91] Creating Layer inception_3b/relu_3x3_reduce
I0403 19:34:58.812779 25178 net.cpp:425] inception_3b/relu_3x3_reduce <- inception_3b/3x3_reduce
I0403 19:34:58.812801 25178 net.cpp:386] inception_3b/relu_3x3_reduce -> inception_3b/3x3_reduce (in-place)
I0403 19:34:58.812976 25178 net.cpp:141] Setting up inception_3b/relu_3x3_reduce
I0403 19:34:58.813007 25178 net.cpp:148] Top shape: 24 128 28 28 (2408448)
I0403 19:34:58.813024 25178 net.cpp:156] Memory required for data: 696042528
I0403 19:34:58.813040 25178 layer_factory.hpp:77] Creating layer inception_3b/3x3
I0403 19:34:58.813066 25178 net.cpp:91] Creating Layer inception_3b/3x3
I0403 19:34:58.813087 25178 net.cpp:425] inception_3b/3x3 <- inception_3b/3x3_reduce
I0403 19:34:58.813108 25178 net.cpp:399] inception_3b/3x3 -> inception_3b/3x3
I0403 19:34:58.816054 25178 net.cpp:141] Setting up inception_3b/3x3
I0403 19:34:58.816087 25178 net.cpp:148] Top shape: 24 192 28 28 (3612672)
I0403 19:34:58.816104 25178 net.cpp:156] Memory required for data: 710493216
I0403 19:34:58.816123 25178 layer_factory.hpp:77] Creating layer inception_3b/relu_3x3
I0403 19:34:58.816146 25178 net.cpp:91] Creating Layer inception_3b/relu_3x3
I0403 19:34:58.816169 25178 net.cpp:425] inception_3b/relu_3x3 <- inception_3b/3x3
I0403 19:34:58.816189 25178 net.cpp:386] inception_3b/relu_3x3 -> inception_3b/3x3 (in-place)
I0403 19:34:58.816507 25178 net.cpp:141] Setting up inception_3b/relu_3x3
I0403 19:34:58.816541 25178 net.cpp:148] Top shape: 24 192 28 28 (3612672)
I0403 19:34:58.816572 25178 net.cpp:156] Memory required for data: 724943904
I0403 19:34:58.816591 25178 layer_factory.hpp:77] Creating layer inception_3b/5x5_reduce
I0403 19:34:58.816615 25178 net.cpp:91] Creating Layer inception_3b/5x5_reduce
I0403 19:34:58.816637 25178 net.cpp:425] inception_3b/5x5_reduce <- inception_3a/output_inception_3a/output_0_split_2
I0403 19:34:58.816674 25178 net.cpp:399] inception_3b/5x5_reduce -> inception_3b/5x5_reduce
I0403 19:34:58.817734 25178 net.cpp:141] Setting up inception_3b/5x5_reduce
I0403 19:34:58.817769 25178 net.cpp:148] Top shape: 24 32 28 28 (602112)
I0403 19:34:58.817785 25178 net.cpp:156] Memory required for data: 727352352
I0403 19:34:58.817805 25178 layer_factory.hpp:77] Creating layer inception_3b/relu_5x5_reduce
I0403 19:34:58.817829 25178 net.cpp:91] Creating Layer inception_3b/relu_5x5_reduce
I0403 19:34:58.817849 25178 net.cpp:425] inception_3b/relu_5x5_reduce <- inception_3b/5x5_reduce
I0403 19:34:58.817867 25178 net.cpp:386] inception_3b/relu_5x5_reduce -> inception_3b/5x5_reduce (in-place)
I0403 19:34:58.818054 25178 net.cpp:141] Setting up inception_3b/relu_5x5_reduce
I0403 19:34:58.818084 25178 net.cpp:148] Top shape: 24 32 28 28 (602112)
I0403 19:34:58.818099 25178 net.cpp:156] Memory required for data: 729760800
I0403 19:34:58.818116 25178 layer_factory.hpp:77] Creating layer inception_3b/5x5
I0403 19:34:58.818142 25178 net.cpp:91] Creating Layer inception_3b/5x5
I0403 19:34:58.818161 25178 net.cpp:425] inception_3b/5x5 <- inception_3b/5x5_reduce
I0403 19:34:58.818182 25178 net.cpp:399] inception_3b/5x5 -> inception_3b/5x5
I0403 19:34:58.820108 25178 net.cpp:141] Setting up inception_3b/5x5
I0403 19:34:58.820143 25178 net.cpp:148] Top shape: 24 96 28 28 (1806336)
I0403 19:34:58.820165 25178 net.cpp:156] Memory required for data: 736986144
I0403 19:34:58.820186 25178 layer_factory.hpp:77] Creating layer inception_3b/relu_5x5
I0403 19:34:58.820207 25178 net.cpp:91] Creating Layer inception_3b/relu_5x5
I0403 19:34:58.820226 25178 net.cpp:425] inception_3b/relu_5x5 <- inception_3b/5x5
I0403 19:34:58.820246 25178 net.cpp:386] inception_3b/relu_5x5 -> inception_3b/5x5 (in-place)
I0403 19:34:58.820453 25178 net.cpp:141] Setting up inception_3b/relu_5x5
I0403 19:34:58.820485 25178 net.cpp:148] Top shape: 24 96 28 28 (1806336)
I0403 19:34:58.820507 25178 net.cpp:156] Memory required for data: 744211488
I0403 19:34:58.820525 25178 layer_factory.hpp:77] Creating layer inception_3b/pool
I0403 19:34:58.820544 25178 net.cpp:91] Creating Layer inception_3b/pool
I0403 19:34:58.820562 25178 net.cpp:425] inception_3b/pool <- inception_3a/output_inception_3a/output_0_split_3
I0403 19:34:58.820581 25178 net.cpp:399] inception_3b/pool -> inception_3b/pool
I0403 19:34:58.820657 25178 net.cpp:141] Setting up inception_3b/pool
I0403 19:34:58.820685 25178 net.cpp:148] Top shape: 24 256 28 28 (4816896)
I0403 19:34:58.820703 25178 net.cpp:156] Memory required for data: 763479072
I0403 19:34:58.820719 25178 layer_factory.hpp:77] Creating layer inception_3b/pool_proj
I0403 19:34:58.820740 25178 net.cpp:91] Creating Layer inception_3b/pool_proj
I0403 19:34:58.820761 25178 net.cpp:425] inception_3b/pool_proj <- inception_3b/pool
I0403 19:34:58.820785 25178 net.cpp:399] inception_3b/pool_proj -> inception_3b/pool_proj
I0403 19:34:58.821812 25178 net.cpp:141] Setting up inception_3b/pool_proj
I0403 19:34:58.821846 25178 net.cpp:148] Top shape: 24 64 28 28 (1204224)
I0403 19:34:58.821862 25178 net.cpp:156] Memory required for data: 768295968
I0403 19:34:58.821882 25178 layer_factory.hpp:77] Creating layer inception_3b/relu_pool_proj
I0403 19:34:58.821904 25178 net.cpp:91] Creating Layer inception_3b/relu_pool_proj
I0403 19:34:58.821923 25178 net.cpp:425] inception_3b/relu_pool_proj <- inception_3b/pool_proj
I0403 19:34:58.821943 25178 net.cpp:386] inception_3b/relu_pool_proj -> inception_3b/pool_proj (in-place)
I0403 19:34:58.822317 25178 net.cpp:141] Setting up inception_3b/relu_pool_proj
I0403 19:34:58.822350 25178 net.cpp:148] Top shape: 24 64 28 28 (1204224)
I0403 19:34:58.822367 25178 net.cpp:156] Memory required for data: 773112864
I0403 19:34:58.822383 25178 layer_factory.hpp:77] Creating layer inception_3b/output
I0403 19:34:58.822404 25178 net.cpp:91] Creating Layer inception_3b/output
I0403 19:34:58.822424 25178 net.cpp:425] inception_3b/output <- inception_3b/1x1
I0403 19:34:58.822445 25178 net.cpp:425] inception_3b/output <- inception_3b/3x3
I0403 19:34:58.822463 25178 net.cpp:425] inception_3b/output <- inception_3b/5x5
I0403 19:34:58.822479 25178 net.cpp:425] inception_3b/output <- inception_3b/pool_proj
I0403 19:34:58.822497 25178 net.cpp:399] inception_3b/output -> inception_3b/output
I0403 19:34:58.822543 25178 net.cpp:141] Setting up inception_3b/output
I0403 19:34:58.822571 25178 net.cpp:148] Top shape: 24 480 28 28 (9031680)
I0403 19:34:58.822588 25178 net.cpp:156] Memory required for data: 809239584
I0403 19:34:58.822604 25178 layer_factory.hpp:77] Creating layer pool3/3x3_s2
I0403 19:34:58.822623 25178 net.cpp:91] Creating Layer pool3/3x3_s2
I0403 19:34:58.822640 25178 net.cpp:425] pool3/3x3_s2 <- inception_3b/output
I0403 19:34:58.822679 25178 net.cpp:399] pool3/3x3_s2 -> pool3/3x3_s2
I0403 19:34:58.822739 25178 net.cpp:141] Setting up pool3/3x3_s2
I0403 19:34:58.822769 25178 net.cpp:148] Top shape: 24 480 14 14 (2257920)
I0403 19:34:58.822788 25178 net.cpp:156] Memory required for data: 818271264
I0403 19:34:58.822803 25178 layer_factory.hpp:77] Creating layer pool3/3x3_s2_pool3/3x3_s2_0_split
I0403 19:34:58.822821 25178 net.cpp:91] Creating Layer pool3/3x3_s2_pool3/3x3_s2_0_split
I0403 19:34:58.822836 25178 net.cpp:425] pool3/3x3_s2_pool3/3x3_s2_0_split <- pool3/3x3_s2
I0403 19:34:58.822855 25178 net.cpp:399] pool3/3x3_s2_pool3/3x3_s2_0_split -> pool3/3x3_s2_pool3/3x3_s2_0_split_0
I0403 19:34:58.822878 25178 net.cpp:399] pool3/3x3_s2_pool3/3x3_s2_0_split -> pool3/3x3_s2_pool3/3x3_s2_0_split_1
I0403 19:34:58.822902 25178 net.cpp:399] pool3/3x3_s2_pool3/3x3_s2_0_split -> pool3/3x3_s2_pool3/3x3_s2_0_split_2
I0403 19:34:58.822923 25178 net.cpp:399] pool3/3x3_s2_pool3/3x3_s2_0_split -> pool3/3x3_s2_pool3/3x3_s2_0_split_3
I0403 19:34:58.822999 25178 net.cpp:141] Setting up pool3/3x3_s2_pool3/3x3_s2_0_split
I0403 19:34:58.823029 25178 net.cpp:148] Top shape: 24 480 14 14 (2257920)
I0403 19:34:58.823060 25178 net.cpp:148] Top shape: 24 480 14 14 (2257920)
I0403 19:34:58.823078 25178 net.cpp:148] Top shape: 24 480 14 14 (2257920)
I0403 19:34:58.823096 25178 net.cpp:148] Top shape: 24 480 14 14 (2257920)
I0403 19:34:58.823112 25178 net.cpp:156] Memory required for data: 854397984
I0403 19:34:58.823127 25178 layer_factory.hpp:77] Creating layer inception_4a/1x1
I0403 19:34:58.823151 25178 net.cpp:91] Creating Layer inception_4a/1x1
I0403 19:34:58.823171 25178 net.cpp:425] inception_4a/1x1 <- pool3/3x3_s2_pool3/3x3_s2_0_split_0
I0403 19:34:58.823192 25178 net.cpp:399] inception_4a/1x1 -> inception_4a/1x1
I0403 19:34:58.824780 25178 net.cpp:141] Setting up inception_4a/1x1
I0403 19:34:58.824816 25178 net.cpp:148] Top shape: 24 192 14 14 (903168)
I0403 19:34:58.824836 25178 net.cpp:156] Memory required for data: 858010656
I0403 19:34:58.824856 25178 layer_factory.hpp:77] Creating layer inception_4a/relu_1x1
I0403 19:34:58.824875 25178 net.cpp:91] Creating Layer inception_4a/relu_1x1
I0403 19:34:58.824892 25178 net.cpp:425] inception_4a/relu_1x1 <- inception_4a/1x1
I0403 19:34:58.824913 25178 net.cpp:386] inception_4a/relu_1x1 -> inception_4a/1x1 (in-place)
I0403 19:34:58.825086 25178 net.cpp:141] Setting up inception_4a/relu_1x1
I0403 19:34:58.825117 25178 net.cpp:148] Top shape: 24 192 14 14 (903168)
I0403 19:34:58.825134 25178 net.cpp:156] Memory required for data: 861623328
I0403 19:34:58.825150 25178 layer_factory.hpp:77] Creating layer inception_4a/3x3_reduce
I0403 19:34:58.825173 25178 net.cpp:91] Creating Layer inception_4a/3x3_reduce
I0403 19:34:58.825193 25178 net.cpp:425] inception_4a/3x3_reduce <- pool3/3x3_s2_pool3/3x3_s2_0_split_1
I0403 19:34:58.825217 25178 net.cpp:399] inception_4a/3x3_reduce -> inception_4a/3x3_reduce
I0403 19:34:58.826508 25178 net.cpp:141] Setting up inception_4a/3x3_reduce
I0403 19:34:58.826539 25178 net.cpp:148] Top shape: 24 96 14 14 (451584)
I0403 19:34:58.826556 25178 net.cpp:156] Memory required for data: 863429664
I0403 19:34:58.826578 25178 layer_factory.hpp:77] Creating layer inception_4a/relu_3x3_reduce
I0403 19:34:58.826602 25178 net.cpp:91] Creating Layer inception_4a/relu_3x3_reduce
I0403 19:34:58.826623 25178 net.cpp:425] inception_4a/relu_3x3_reduce <- inception_4a/3x3_reduce
I0403 19:34:58.826642 25178 net.cpp:386] inception_4a/relu_3x3_reduce -> inception_4a/3x3_reduce (in-place)
I0403 19:34:58.826812 25178 net.cpp:141] Setting up inception_4a/relu_3x3_reduce
I0403 19:34:58.826841 25178 net.cpp:148] Top shape: 24 96 14 14 (451584)
I0403 19:34:58.826856 25178 net.cpp:156] Memory required for data: 865236000
I0403 19:34:58.826872 25178 layer_factory.hpp:77] Creating layer inception_4a/3x3
I0403 19:34:58.826895 25178 net.cpp:91] Creating Layer inception_4a/3x3
I0403 19:34:58.826915 25178 net.cpp:425] inception_4a/3x3 <- inception_4a/3x3_reduce
I0403 19:34:58.826937 25178 net.cpp:399] inception_4a/3x3 -> inception_4a/3x3
I0403 19:34:58.829476 25178 net.cpp:141] Setting up inception_4a/3x3
I0403 19:34:58.829507 25178 net.cpp:148] Top shape: 24 208 14 14 (978432)
I0403 19:34:58.829537 25178 net.cpp:156] Memory required for data: 869149728
I0403 19:34:58.829556 25178 layer_factory.hpp:77] Creating layer inception_4a/relu_3x3
I0403 19:34:58.829577 25178 net.cpp:91] Creating Layer inception_4a/relu_3x3
I0403 19:34:58.829608 25178 net.cpp:425] inception_4a/relu_3x3 <- inception_4a/3x3
I0403 19:34:58.829630 25178 net.cpp:386] inception_4a/relu_3x3 -> inception_4a/3x3 (in-place)
I0403 19:34:58.829918 25178 net.cpp:141] Setting up inception_4a/relu_3x3
I0403 19:34:58.829949 25178 net.cpp:148] Top shape: 24 208 14 14 (978432)
I0403 19:34:58.829967 25178 net.cpp:156] Memory required for data: 873063456
I0403 19:34:58.829982 25178 layer_factory.hpp:77] Creating layer inception_4a/5x5_reduce
I0403 19:34:58.830005 25178 net.cpp:91] Creating Layer inception_4a/5x5_reduce
I0403 19:34:58.830025 25178 net.cpp:425] inception_4a/5x5_reduce <- pool3/3x3_s2_pool3/3x3_s2_0_split_2
I0403 19:34:58.830050 25178 net.cpp:399] inception_4a/5x5_reduce -> inception_4a/5x5_reduce
I0403 19:34:58.831007 25178 net.cpp:141] Setting up inception_4a/5x5_reduce
I0403 19:34:58.831039 25178 net.cpp:148] Top shape: 24 16 14 14 (75264)
I0403 19:34:58.831056 25178 net.cpp:156] Memory required for data: 873364512
I0403 19:34:58.831075 25178 layer_factory.hpp:77] Creating layer inception_4a/relu_5x5_reduce
I0403 19:34:58.831096 25178 net.cpp:91] Creating Layer inception_4a/relu_5x5_reduce
I0403 19:34:58.831116 25178 net.cpp:425] inception_4a/relu_5x5_reduce <- inception_4a/5x5_reduce
I0403 19:34:58.831135 25178 net.cpp:386] inception_4a/relu_5x5_reduce -> inception_4a/5x5_reduce (in-place)
I0403 19:34:58.831308 25178 net.cpp:141] Setting up inception_4a/relu_5x5_reduce
I0403 19:34:58.831336 25178 net.cpp:148] Top shape: 24 16 14 14 (75264)
I0403 19:34:58.831351 25178 net.cpp:156] Memory required for data: 873665568
I0403 19:34:58.831367 25178 layer_factory.hpp:77] Creating layer inception_4a/5x5
I0403 19:34:58.831390 25178 net.cpp:91] Creating Layer inception_4a/5x5
I0403 19:34:58.831411 25178 net.cpp:425] inception_4a/5x5 <- inception_4a/5x5_reduce
I0403 19:34:58.831430 25178 net.cpp:399] inception_4a/5x5 -> inception_4a/5x5
I0403 19:34:58.832444 25178 net.cpp:141] Setting up inception_4a/5x5
I0403 19:34:58.832474 25178 net.cpp:148] Top shape: 24 48 14 14 (225792)
I0403 19:34:58.832491 25178 net.cpp:156] Memory required for data: 874568736
I0403 19:34:58.832511 25178 layer_factory.hpp:77] Creating layer inception_4a/relu_5x5
I0403 19:34:58.832535 25178 net.cpp:91] Creating Layer inception_4a/relu_5x5
I0403 19:34:58.832556 25178 net.cpp:425] inception_4a/relu_5x5 <- inception_4a/5x5
I0403 19:34:58.832576 25178 net.cpp:386] inception_4a/relu_5x5 -> inception_4a/5x5 (in-place)
I0403 19:34:58.832743 25178 net.cpp:141] Setting up inception_4a/relu_5x5
I0403 19:34:58.832775 25178 net.cpp:148] Top shape: 24 48 14 14 (225792)
I0403 19:34:58.832794 25178 net.cpp:156] Memory required for data: 875471904
I0403 19:34:58.832811 25178 layer_factory.hpp:77] Creating layer inception_4a/pool
I0403 19:34:58.832830 25178 net.cpp:91] Creating Layer inception_4a/pool
I0403 19:34:58.832849 25178 net.cpp:425] inception_4a/pool <- pool3/3x3_s2_pool3/3x3_s2_0_split_3
I0403 19:34:58.832870 25178 net.cpp:399] inception_4a/pool -> inception_4a/pool
I0403 19:34:58.832928 25178 net.cpp:141] Setting up inception_4a/pool
I0403 19:34:58.832954 25178 net.cpp:148] Top shape: 24 480 14 14 (2257920)
I0403 19:34:58.832970 25178 net.cpp:156] Memory required for data: 884503584
I0403 19:34:58.832988 25178 layer_factory.hpp:77] Creating layer inception_4a/pool_proj
I0403 19:34:58.833009 25178 net.cpp:91] Creating Layer inception_4a/pool_proj
I0403 19:34:58.833026 25178 net.cpp:425] inception_4a/pool_proj <- inception_4a/pool
I0403 19:34:58.833047 25178 net.cpp:399] inception_4a/pool_proj -> inception_4a/pool_proj
I0403 19:34:58.834158 25178 net.cpp:141] Setting up inception_4a/pool_proj
I0403 19:34:58.834194 25178 net.cpp:148] Top shape: 24 64 14 14 (301056)
I0403 19:34:58.834242 25178 net.cpp:156] Memory required for data: 885707808
I0403 19:34:58.834275 25178 layer_factory.hpp:77] Creating layer inception_4a/relu_pool_proj
I0403 19:34:58.834297 25178 net.cpp:91] Creating Layer inception_4a/relu_pool_proj
I0403 19:34:58.834316 25178 net.cpp:425] inception_4a/relu_pool_proj <- inception_4a/pool_proj
I0403 19:34:58.834333 25178 net.cpp:386] inception_4a/relu_pool_proj -> inception_4a/pool_proj (in-place)
I0403 19:34:58.834600 25178 net.cpp:141] Setting up inception_4a/relu_pool_proj
I0403 19:34:58.834635 25178 net.cpp:148] Top shape: 24 64 14 14 (301056)
I0403 19:34:58.834655 25178 net.cpp:156] Memory required for data: 886912032
I0403 19:34:58.834669 25178 layer_factory.hpp:77] Creating layer inception_4a/output
I0403 19:34:58.834686 25178 net.cpp:91] Creating Layer inception_4a/output
I0403 19:34:58.834702 25178 net.cpp:425] inception_4a/output <- inception_4a/1x1
I0403 19:34:58.834722 25178 net.cpp:425] inception_4a/output <- inception_4a/3x3
I0403 19:34:58.834740 25178 net.cpp:425] inception_4a/output <- inception_4a/5x5
I0403 19:34:58.834759 25178 net.cpp:425] inception_4a/output <- inception_4a/pool_proj
I0403 19:34:58.834777 25178 net.cpp:399] inception_4a/output -> inception_4a/output
I0403 19:34:58.834825 25178 net.cpp:141] Setting up inception_4a/output
I0403 19:34:58.834851 25178 net.cpp:148] Top shape: 24 512 14 14 (2408448)
I0403 19:34:58.834867 25178 net.cpp:156] Memory required for data: 896545824
I0403 19:34:58.834883 25178 layer_factory.hpp:77] Creating layer inception_4a/output_inception_4a/output_0_split
I0403 19:34:58.834906 25178 net.cpp:91] Creating Layer inception_4a/output_inception_4a/output_0_split
I0403 19:34:58.834924 25178 net.cpp:425] inception_4a/output_inception_4a/output_0_split <- inception_4a/output
I0403 19:34:58.834942 25178 net.cpp:399] inception_4a/output_inception_4a/output_0_split -> inception_4a/output_inception_4a/output_0_split_0
I0403 19:34:58.834964 25178 net.cpp:399] inception_4a/output_inception_4a/output_0_split -> inception_4a/output_inception_4a/output_0_split_1
I0403 19:34:58.834985 25178 net.cpp:399] inception_4a/output_inception_4a/output_0_split -> inception_4a/output_inception_4a/output_0_split_2
I0403 19:34:58.835006 25178 net.cpp:399] inception_4a/output_inception_4a/output_0_split -> inception_4a/output_inception_4a/output_0_split_3
I0403 19:34:58.835032 25178 net.cpp:399] inception_4a/output_inception_4a/output_0_split -> inception_4a/output_inception_4a/output_0_split_4
I0403 19:34:58.835125 25178 net.cpp:141] Setting up inception_4a/output_inception_4a/output_0_split
I0403 19:34:58.835153 25178 net.cpp:148] Top shape: 24 512 14 14 (2408448)
I0403 19:34:58.835171 25178 net.cpp:148] Top shape: 24 512 14 14 (2408448)
I0403 19:34:58.835188 25178 net.cpp:148] Top shape: 24 512 14 14 (2408448)
I0403 19:34:58.835206 25178 net.cpp:148] Top shape: 24 512 14 14 (2408448)
I0403 19:34:58.835222 25178 net.cpp:148] Top shape: 24 512 14 14 (2408448)
I0403 19:34:58.835237 25178 net.cpp:156] Memory required for data: 944714784
I0403 19:34:58.835253 25178 layer_factory.hpp:77] Creating layer loss1/ave_pool
I0403 19:34:58.835279 25178 net.cpp:91] Creating Layer loss1/ave_pool
I0403 19:34:58.835299 25178 net.cpp:425] loss1/ave_pool <- inception_4a/output_inception_4a/output_0_split_0
I0403 19:34:58.835319 25178 net.cpp:399] loss1/ave_pool -> loss1/ave_pool
I0403 19:34:58.835520 25178 net.cpp:141] Setting up loss1/ave_pool
I0403 19:34:58.835551 25178 net.cpp:148] Top shape: 24 512 4 4 (196608)
I0403 19:34:58.835569 25178 net.cpp:156] Memory required for data: 945501216
I0403 19:34:58.835584 25178 layer_factory.hpp:77] Creating layer loss1/conv
I0403 19:34:58.835607 25178 net.cpp:91] Creating Layer loss1/conv
I0403 19:34:58.835626 25178 net.cpp:425] loss1/conv <- loss1/ave_pool
I0403 19:34:58.835646 25178 net.cpp:399] loss1/conv -> loss1/conv
I0403 19:34:58.836971 25178 net.cpp:141] Setting up loss1/conv
I0403 19:34:58.837004 25178 net.cpp:148] Top shape: 24 128 4 4 (49152)
I0403 19:34:58.837038 25178 net.cpp:156] Memory required for data: 945697824
I0403 19:34:58.837060 25178 layer_factory.hpp:77] Creating layer loss1/relu_conv
I0403 19:34:58.837080 25178 net.cpp:91] Creating Layer loss1/relu_conv
I0403 19:34:58.837102 25178 net.cpp:425] loss1/relu_conv <- loss1/conv
I0403 19:34:58.837122 25178 net.cpp:386] loss1/relu_conv -> loss1/conv (in-place)
I0403 19:34:58.837389 25178 net.cpp:141] Setting up loss1/relu_conv
I0403 19:34:58.837419 25178 net.cpp:148] Top shape: 24 128 4 4 (49152)
I0403 19:34:58.837437 25178 net.cpp:156] Memory required for data: 945894432
I0403 19:34:58.837453 25178 layer_factory.hpp:77] Creating layer loss1/fc
I0403 19:34:58.837481 25178 net.cpp:91] Creating Layer loss1/fc
I0403 19:34:58.837504 25178 net.cpp:425] loss1/fc <- loss1/conv
I0403 19:34:58.837525 25178 net.cpp:399] loss1/fc -> loss1/fc
I0403 19:34:58.854557 25178 net.cpp:141] Setting up loss1/fc
I0403 19:34:58.854590 25178 net.cpp:148] Top shape: 24 1024 (24576)
I0403 19:34:58.854609 25178 net.cpp:156] Memory required for data: 945992736
I0403 19:34:58.854627 25178 layer_factory.hpp:77] Creating layer loss1/relu_fc
I0403 19:34:58.854650 25178 net.cpp:91] Creating Layer loss1/relu_fc
I0403 19:34:58.854671 25178 net.cpp:425] loss1/relu_fc <- loss1/fc
I0403 19:34:58.854692 25178 net.cpp:386] loss1/relu_fc -> loss1/fc (in-place)
I0403 19:34:58.854876 25178 net.cpp:141] Setting up loss1/relu_fc
I0403 19:34:58.854904 25178 net.cpp:148] Top shape: 24 1024 (24576)
I0403 19:34:58.854920 25178 net.cpp:156] Memory required for data: 946091040
I0403 19:34:58.854935 25178 layer_factory.hpp:77] Creating layer loss1/drop_fc
I0403 19:34:58.854964 25178 net.cpp:91] Creating Layer loss1/drop_fc
I0403 19:34:58.854984 25178 net.cpp:425] loss1/drop_fc <- loss1/fc
I0403 19:34:58.855005 25178 net.cpp:386] loss1/drop_fc -> loss1/fc (in-place)
I0403 19:34:58.855058 25178 net.cpp:141] Setting up loss1/drop_fc
I0403 19:34:58.855085 25178 net.cpp:148] Top shape: 24 1024 (24576)
I0403 19:34:58.855101 25178 net.cpp:156] Memory required for data: 946189344
I0403 19:34:58.855118 25178 layer_factory.hpp:77] Creating layer loss1/classifier_plantvillage
I0403 19:34:58.855140 25178 net.cpp:91] Creating Layer loss1/classifier_plantvillage
I0403 19:34:58.855160 25178 net.cpp:425] loss1/classifier_plantvillage <- loss1/fc
I0403 19:34:58.855180 25178 net.cpp:399] loss1/classifier_plantvillage -> loss1/classifier_plantvillage
I0403 19:34:58.856132 25178 net.cpp:141] Setting up loss1/classifier_plantvillage
I0403 19:34:58.856163 25178 net.cpp:148] Top shape: 24 38 (912)
I0403 19:34:58.856181 25178 net.cpp:156] Memory required for data: 946192992
I0403 19:34:58.856201 25178 layer_factory.hpp:77] Creating layer loss1/classifier_plantvillage_loss1/classifier_plantvillage_0_split
I0403 19:34:58.856221 25178 net.cpp:91] Creating Layer loss1/classifier_plantvillage_loss1/classifier_plantvillage_0_split
I0403 19:34:58.856238 25178 net.cpp:425] loss1/classifier_plantvillage_loss1/classifier_plantvillage_0_split <- loss1/classifier_plantvillage
I0403 19:34:58.856266 25178 net.cpp:399] loss1/classifier_plantvillage_loss1/classifier_plantvillage_0_split -> loss1/classifier_plantvillage_loss1/classifier_plantvillage_0_split_0
I0403 19:34:58.856290 25178 net.cpp:399] loss1/classifier_plantvillage_loss1/classifier_plantvillage_0_split -> loss1/classifier_plantvillage_loss1/classifier_plantvillage_0_split_1
I0403 19:34:58.856312 25178 net.cpp:399] loss1/classifier_plantvillage_loss1/classifier_plantvillage_0_split -> loss1/classifier_plantvillage_loss1/classifier_plantvillage_0_split_2
I0403 19:34:58.856382 25178 net.cpp:141] Setting up loss1/classifier_plantvillage_loss1/classifier_plantvillage_0_split
I0403 19:34:58.856411 25178 net.cpp:148] Top shape: 24 38 (912)
I0403 19:34:58.856429 25178 net.cpp:148] Top shape: 24 38 (912)
I0403 19:34:58.856444 25178 net.cpp:148] Top shape: 24 38 (912)
I0403 19:34:58.856458 25178 net.cpp:156] Memory required for data: 946203936
I0403 19:34:58.856473 25178 layer_factory.hpp:77] Creating layer inception_4b/1x1
I0403 19:34:58.856497 25178 net.cpp:91] Creating Layer inception_4b/1x1
I0403 19:34:58.856533 25178 net.cpp:425] inception_4b/1x1 <- inception_4a/output_inception_4a/output_0_split_1
I0403 19:34:58.856555 25178 net.cpp:399] inception_4b/1x1 -> inception_4b/1x1
I0403 19:34:58.858142 25178 net.cpp:141] Setting up inception_4b/1x1
I0403 19:34:58.858173 25178 net.cpp:148] Top shape: 24 160 14 14 (752640)
I0403 19:34:58.858189 25178 net.cpp:156] Memory required for data: 949214496
I0403 19:34:58.858209 25178 layer_factory.hpp:77] Creating layer inception_4b/relu_1x1
I0403 19:34:58.858233 25178 net.cpp:91] Creating Layer inception_4b/relu_1x1
I0403 19:34:58.858253 25178 net.cpp:425] inception_4b/relu_1x1 <- inception_4b/1x1
I0403 19:34:58.858278 25178 net.cpp:386] inception_4b/relu_1x1 -> inception_4b/1x1 (in-place)
I0403 19:34:58.858455 25178 net.cpp:141] Setting up inception_4b/relu_1x1
I0403 19:34:58.858485 25178 net.cpp:148] Top shape: 24 160 14 14 (752640)
I0403 19:34:58.858501 25178 net.cpp:156] Memory required for data: 952225056
I0403 19:34:58.858518 25178 layer_factory.hpp:77] Creating layer inception_4b/3x3_reduce
I0403 19:34:58.858542 25178 net.cpp:91] Creating Layer inception_4b/3x3_reduce
I0403 19:34:58.858561 25178 net.cpp:425] inception_4b/3x3_reduce <- inception_4a/output_inception_4a/output_0_split_2
I0403 19:34:58.858583 25178 net.cpp:399] inception_4b/3x3_reduce -> inception_4b/3x3_reduce
I0403 19:34:58.859923 25178 net.cpp:141] Setting up inception_4b/3x3_reduce
I0403 19:34:58.859953 25178 net.cpp:148] Top shape: 24 112 14 14 (526848)
I0403 19:34:58.859972 25178 net.cpp:156] Memory required for data: 954332448
I0403 19:34:58.859992 25178 layer_factory.hpp:77] Creating layer inception_4b/relu_3x3_reduce
I0403 19:34:58.860015 25178 net.cpp:91] Creating Layer inception_4b/relu_3x3_reduce
I0403 19:34:58.860033 25178 net.cpp:425] inception_4b/relu_3x3_reduce <- inception_4b/3x3_reduce
I0403 19:34:58.860051 25178 net.cpp:386] inception_4b/relu_3x3_reduce -> inception_4b/3x3_reduce (in-place)
I0403 19:34:58.860333 25178 net.cpp:141] Setting up inception_4b/relu_3x3_reduce
I0403 19:34:58.860365 25178 net.cpp:148] Top shape: 24 112 14 14 (526848)
I0403 19:34:58.860381 25178 net.cpp:156] Memory required for data: 956439840
I0403 19:34:58.860397 25178 layer_factory.hpp:77] Creating layer inception_4b/3x3
I0403 19:34:58.860421 25178 net.cpp:91] Creating Layer inception_4b/3x3
I0403 19:34:58.860440 25178 net.cpp:425] inception_4b/3x3 <- inception_4b/3x3_reduce
I0403 19:34:58.860463 25178 net.cpp:399] inception_4b/3x3 -> inception_4b/3x3
I0403 19:34:58.863418 25178 net.cpp:141] Setting up inception_4b/3x3
I0403 19:34:58.863453 25178 net.cpp:148] Top shape: 24 224 14 14 (1053696)
I0403 19:34:58.863474 25178 net.cpp:156] Memory required for data: 960654624
I0403 19:34:58.863495 25178 layer_factory.hpp:77] Creating layer inception_4b/relu_3x3
I0403 19:34:58.863515 25178 net.cpp:91] Creating Layer inception_4b/relu_3x3
I0403 19:34:58.863533 25178 net.cpp:425] inception_4b/relu_3x3 <- inception_4b/3x3
I0403 19:34:58.863555 25178 net.cpp:386] inception_4b/relu_3x3 -> inception_4b/3x3 (in-place)
I0403 19:34:58.863749 25178 net.cpp:141] Setting up inception_4b/relu_3x3
I0403 19:34:58.863777 25178 net.cpp:148] Top shape: 24 224 14 14 (1053696)
I0403 19:34:58.863795 25178 net.cpp:156] Memory required for data: 964869408
I0403 19:34:58.863809 25178 layer_factory.hpp:77] Creating layer inception_4b/5x5_reduce
I0403 19:34:58.863832 25178 net.cpp:91] Creating Layer inception_4b/5x5_reduce
I0403 19:34:58.863852 25178 net.cpp:425] inception_4b/5x5_reduce <- inception_4a/output_inception_4a/output_0_split_3
I0403 19:34:58.863878 25178 net.cpp:399] inception_4b/5x5_reduce -> inception_4b/5x5_reduce
I0403 19:34:58.864944 25178 net.cpp:141] Setting up inception_4b/5x5_reduce
I0403 19:34:58.864974 25178 net.cpp:148] Top shape: 24 24 14 14 (112896)
I0403 19:34:58.864991 25178 net.cpp:156] Memory required for data: 965320992
I0403 19:34:58.865010 25178 layer_factory.hpp:77] Creating layer inception_4b/relu_5x5_reduce
I0403 19:34:58.865034 25178 net.cpp:91] Creating Layer inception_4b/relu_5x5_reduce
I0403 19:34:58.865067 25178 net.cpp:425] inception_4b/relu_5x5_reduce <- inception_4b/5x5_reduce
I0403 19:34:58.865089 25178 net.cpp:386] inception_4b/relu_5x5_reduce -> inception_4b/5x5_reduce (in-place)
I0403 19:34:58.865272 25178 net.cpp:141] Setting up inception_4b/relu_5x5_reduce
I0403 19:34:58.865304 25178 net.cpp:148] Top shape: 24 24 14 14 (112896)
I0403 19:34:58.865322 25178 net.cpp:156] Memory required for data: 965772576
I0403 19:34:58.865339 25178 layer_factory.hpp:77] Creating layer inception_4b/5x5
I0403 19:34:58.865360 25178 net.cpp:91] Creating Layer inception_4b/5x5
I0403 19:34:58.865381 25178 net.cpp:425] inception_4b/5x5 <- inception_4b/5x5_reduce
I0403 19:34:58.865404 25178 net.cpp:399] inception_4b/5x5 -> inception_4b/5x5
I0403 19:34:58.866602 25178 net.cpp:141] Setting up inception_4b/5x5
I0403 19:34:58.866633 25178 net.cpp:148] Top shape: 24 64 14 14 (301056)
I0403 19:34:58.866650 25178 net.cpp:156] Memory required for data: 966976800
I0403 19:34:58.866669 25178 layer_factory.hpp:77] Creating layer inception_4b/relu_5x5
I0403 19:34:58.866691 25178 net.cpp:91] Creating Layer inception_4b/relu_5x5
I0403 19:34:58.866713 25178 net.cpp:425] inception_4b/relu_5x5 <- inception_4b/5x5
I0403 19:34:58.866734 25178 net.cpp:386] inception_4b/relu_5x5 -> inception_4b/5x5 (in-place)
I0403 19:34:58.867012 25178 net.cpp:141] Setting up inception_4b/relu_5x5
I0403 19:34:58.867040 25178 net.cpp:148] Top shape: 24 64 14 14 (301056)
I0403 19:34:58.867058 25178 net.cpp:156] Memory required for data: 968181024
I0403 19:34:58.867074 25178 layer_factory.hpp:77] Creating layer inception_4b/pool
I0403 19:34:58.867094 25178 net.cpp:91] Creating Layer inception_4b/pool
I0403 19:34:58.867110 25178 net.cpp:425] inception_4b/pool <- inception_4a/output_inception_4a/output_0_split_4
I0403 19:34:58.867132 25178 net.cpp:399] inception_4b/pool -> inception_4b/pool
I0403 19:34:58.867198 25178 net.cpp:141] Setting up inception_4b/pool
I0403 19:34:58.867226 25178 net.cpp:148] Top shape: 24 512 14 14 (2408448)
I0403 19:34:58.867243 25178 net.cpp:156] Memory required for data: 977814816
I0403 19:34:58.867264 25178 layer_factory.hpp:77] Creating layer inception_4b/pool_proj
I0403 19:34:58.867290 25178 net.cpp:91] Creating Layer inception_4b/pool_proj
I0403 19:34:58.867312 25178 net.cpp:425] inception_4b/pool_proj <- inception_4b/pool
I0403 19:34:58.867336 25178 net.cpp:399] inception_4b/pool_proj -> inception_4b/pool_proj
I0403 19:34:58.868538 25178 net.cpp:141] Setting up inception_4b/pool_proj
I0403 19:34:58.868567 25178 net.cpp:148] Top shape: 24 64 14 14 (301056)
I0403 19:34:58.868587 25178 net.cpp:156] Memory required for data: 979019040
I0403 19:34:58.868607 25178 layer_factory.hpp:77] Creating layer inception_4b/relu_pool_proj
I0403 19:34:58.868628 25178 net.cpp:91] Creating Layer inception_4b/relu_pool_proj
I0403 19:34:58.868649 25178 net.cpp:425] inception_4b/relu_pool_proj <- inception_4b/pool_proj
I0403 19:34:58.868667 25178 net.cpp:386] inception_4b/relu_pool_proj -> inception_4b/pool_proj (in-place)
I0403 19:34:58.868847 25178 net.cpp:141] Setting up inception_4b/relu_pool_proj
I0403 19:34:58.868878 25178 net.cpp:148] Top shape: 24 64 14 14 (301056)
I0403 19:34:58.868896 25178 net.cpp:156] Memory required for data: 980223264
I0403 19:34:58.868914 25178 layer_factory.hpp:77] Creating layer inception_4b/output
I0403 19:34:58.868935 25178 net.cpp:91] Creating Layer inception_4b/output
I0403 19:34:58.868953 25178 net.cpp:425] inception_4b/output <- inception_4b/1x1
I0403 19:34:58.868970 25178 net.cpp:425] inception_4b/output <- inception_4b/3x3
I0403 19:34:58.868988 25178 net.cpp:425] inception_4b/output <- inception_4b/5x5
I0403 19:34:58.869006 25178 net.cpp:425] inception_4b/output <- inception_4b/pool_proj
I0403 19:34:58.869025 25178 net.cpp:399] inception_4b/output -> inception_4b/output
I0403 19:34:58.869072 25178 net.cpp:141] Setting up inception_4b/output
I0403 19:34:58.869101 25178 net.cpp:148] Top shape: 24 512 14 14 (2408448)
I0403 19:34:58.869118 25178 net.cpp:156] Memory required for data: 989857056
I0403 19:34:58.869150 25178 layer_factory.hpp:77] Creating layer inception_4b/output_inception_4b/output_0_split
I0403 19:34:58.869171 25178 net.cpp:91] Creating Layer inception_4b/output_inception_4b/output_0_split
I0403 19:34:58.869191 25178 net.cpp:425] inception_4b/output_inception_4b/output_0_split <- inception_4b/output
I0403 19:34:58.869211 25178 net.cpp:399] inception_4b/output_inception_4b/output_0_split -> inception_4b/output_inception_4b/output_0_split_0
I0403 19:34:58.869233 25178 net.cpp:399] inception_4b/output_inception_4b/output_0_split -> inception_4b/output_inception_4b/output_0_split_1
I0403 19:34:58.869259 25178 net.cpp:399] inception_4b/output_inception_4b/output_0_split -> inception_4b/output_inception_4b/output_0_split_2
I0403 19:34:58.869284 25178 net.cpp:399] inception_4b/output_inception_4b/output_0_split -> inception_4b/output_inception_4b/output_0_split_3
I0403 19:34:58.869374 25178 net.cpp:141] Setting up inception_4b/output_inception_4b/output_0_split
I0403 19:34:58.869400 25178 net.cpp:148] Top shape: 24 512 14 14 (2408448)
I0403 19:34:58.869420 25178 net.cpp:148] Top shape: 24 512 14 14 (2408448)
I0403 19:34:58.869436 25178 net.cpp:148] Top shape: 24 512 14 14 (2408448)
I0403 19:34:58.869451 25178 net.cpp:148] Top shape: 24 512 14 14 (2408448)
I0403 19:34:58.869467 25178 net.cpp:156] Memory required for data: 1028392224
I0403 19:34:58.869483 25178 layer_factory.hpp:77] Creating layer inception_4c/1x1
I0403 19:34:58.869508 25178 net.cpp:91] Creating Layer inception_4c/1x1
I0403 19:34:58.869526 25178 net.cpp:425] inception_4c/1x1 <- inception_4b/output_inception_4b/output_0_split_0
I0403 19:34:58.869547 25178 net.cpp:399] inception_4c/1x1 -> inception_4c/1x1
I0403 19:34:58.870954 25178 net.cpp:141] Setting up inception_4c/1x1
I0403 19:34:58.870985 25178 net.cpp:148] Top shape: 24 128 14 14 (602112)
I0403 19:34:58.871003 25178 net.cpp:156] Memory required for data: 1030800672
I0403 19:34:58.871021 25178 layer_factory.hpp:77] Creating layer inception_4c/relu_1x1
I0403 19:34:58.871044 25178 net.cpp:91] Creating Layer inception_4c/relu_1x1
I0403 19:34:58.871064 25178 net.cpp:425] inception_4c/relu_1x1 <- inception_4c/1x1
I0403 19:34:58.871083 25178 net.cpp:386] inception_4c/relu_1x1 -> inception_4c/1x1 (in-place)
I0403 19:34:58.871270 25178 net.cpp:141] Setting up inception_4c/relu_1x1
I0403 19:34:58.871297 25178 net.cpp:148] Top shape: 24 128 14 14 (602112)
I0403 19:34:58.871315 25178 net.cpp:156] Memory required for data: 1033209120
I0403 19:34:58.871331 25178 layer_factory.hpp:77] Creating layer inception_4c/3x3_reduce
I0403 19:34:58.871356 25178 net.cpp:91] Creating Layer inception_4c/3x3_reduce
I0403 19:34:58.871387 25178 net.cpp:425] inception_4c/3x3_reduce <- inception_4b/output_inception_4b/output_0_split_1
I0403 19:34:58.871412 25178 net.cpp:399] inception_4c/3x3_reduce -> inception_4c/3x3_reduce
I0403 19:34:58.873376 25178 net.cpp:141] Setting up inception_4c/3x3_reduce
I0403 19:34:58.873420 25178 net.cpp:148] Top shape: 24 128 14 14 (602112)
I0403 19:34:58.873447 25178 net.cpp:156] Memory required for data: 1035617568
I0403 19:34:58.873468 25178 layer_factory.hpp:77] Creating layer inception_4c/relu_3x3_reduce
I0403 19:34:58.873488 25178 net.cpp:91] Creating Layer inception_4c/relu_3x3_reduce
I0403 19:34:58.873507 25178 net.cpp:425] inception_4c/relu_3x3_reduce <- inception_4c/3x3_reduce
I0403 19:34:58.873528 25178 net.cpp:386] inception_4c/relu_3x3_reduce -> inception_4c/3x3_reduce (in-place)
I0403 19:34:58.873801 25178 net.cpp:141] Setting up inception_4c/relu_3x3_reduce
I0403 19:34:58.873831 25178 net.cpp:148] Top shape: 24 128 14 14 (602112)
I0403 19:34:58.873850 25178 net.cpp:156] Memory required for data: 1038026016
I0403 19:34:58.873867 25178 layer_factory.hpp:77] Creating layer inception_4c/3x3
I0403 19:34:58.873889 25178 net.cpp:91] Creating Layer inception_4c/3x3
I0403 19:34:58.873909 25178 net.cpp:425] inception_4c/3x3 <- inception_4c/3x3_reduce
I0403 19:34:58.873932 25178 net.cpp:399] inception_4c/3x3 -> inception_4c/3x3
I0403 19:34:58.877364 25178 net.cpp:141] Setting up inception_4c/3x3
I0403 19:34:58.877408 25178 net.cpp:148] Top shape: 24 256 14 14 (1204224)
I0403 19:34:58.877427 25178 net.cpp:156] Memory required for data: 1042842912
I0403 19:34:58.877461 25178 layer_factory.hpp:77] Creating layer inception_4c/relu_3x3
I0403 19:34:58.877486 25178 net.cpp:91] Creating Layer inception_4c/relu_3x3
I0403 19:34:58.877504 25178 net.cpp:425] inception_4c/relu_3x3 <- inception_4c/3x3
I0403 19:34:58.877524 25178 net.cpp:386] inception_4c/relu_3x3 -> inception_4c/3x3 (in-place)
I0403 19:34:58.877699 25178 net.cpp:141] Setting up inception_4c/relu_3x3
I0403 19:34:58.877728 25178 net.cpp:148] Top shape: 24 256 14 14 (1204224)
I0403 19:34:58.877745 25178 net.cpp:156] Memory required for data: 1047659808
I0403 19:34:58.877761 25178 layer_factory.hpp:77] Creating layer inception_4c/5x5_reduce
I0403 19:34:58.877785 25178 net.cpp:91] Creating Layer inception_4c/5x5_reduce
I0403 19:34:58.877806 25178 net.cpp:425] inception_4c/5x5_reduce <- inception_4b/output_inception_4b/output_0_split_2
I0403 19:34:58.877830 25178 net.cpp:399] inception_4c/5x5_reduce -> inception_4c/5x5_reduce
I0403 19:34:58.878865 25178 net.cpp:141] Setting up inception_4c/5x5_reduce
I0403 19:34:58.878896 25178 net.cpp:148] Top shape: 24 24 14 14 (112896)
I0403 19:34:58.878913 25178 net.cpp:156] Memory required for data: 1048111392
I0403 19:34:58.878932 25178 layer_factory.hpp:77] Creating layer inception_4c/relu_5x5_reduce
I0403 19:34:58.878957 25178 net.cpp:91] Creating Layer inception_4c/relu_5x5_reduce
I0403 19:34:58.878976 25178 net.cpp:425] inception_4c/relu_5x5_reduce <- inception_4c/5x5_reduce
I0403 19:34:58.878994 25178 net.cpp:386] inception_4c/relu_5x5_reduce -> inception_4c/5x5_reduce (in-place)
I0403 19:34:58.879171 25178 net.cpp:141] Setting up inception_4c/relu_5x5_reduce
I0403 19:34:58.879200 25178 net.cpp:148] Top shape: 24 24 14 14 (112896)
I0403 19:34:58.879220 25178 net.cpp:156] Memory required for data: 1048562976
I0403 19:34:58.879236 25178 layer_factory.hpp:77] Creating layer inception_4c/5x5
I0403 19:34:58.879261 25178 net.cpp:91] Creating Layer inception_4c/5x5
I0403 19:34:58.879281 25178 net.cpp:425] inception_4c/5x5 <- inception_4c/5x5_reduce
I0403 19:34:58.879304 25178 net.cpp:399] inception_4c/5x5 -> inception_4c/5x5
I0403 19:34:58.880489 25178 net.cpp:141] Setting up inception_4c/5x5
I0403 19:34:58.880518 25178 net.cpp:148] Top shape: 24 64 14 14 (301056)
I0403 19:34:58.880535 25178 net.cpp:156] Memory required for data: 1049767200
I0403 19:34:58.880554 25178 layer_factory.hpp:77] Creating layer inception_4c/relu_5x5
I0403 19:34:58.880574 25178 net.cpp:91] Creating Layer inception_4c/relu_5x5
I0403 19:34:58.880592 25178 net.cpp:425] inception_4c/relu_5x5 <- inception_4c/5x5
I0403 19:34:58.880610 25178 net.cpp:386] inception_4c/relu_5x5 -> inception_4c/5x5 (in-place)
I0403 19:34:58.880884 25178 net.cpp:141] Setting up inception_4c/relu_5x5
I0403 19:34:58.880913 25178 net.cpp:148] Top shape: 24 64 14 14 (301056)
I0403 19:34:58.880929 25178 net.cpp:156] Memory required for data: 1050971424
I0403 19:34:58.880945 25178 layer_factory.hpp:77] Creating layer inception_4c/pool
I0403 19:34:58.880964 25178 net.cpp:91] Creating Layer inception_4c/pool
I0403 19:34:58.880983 25178 net.cpp:425] inception_4c/pool <- inception_4b/output_inception_4b/output_0_split_3
I0403 19:34:58.881003 25178 net.cpp:399] inception_4c/pool -> inception_4c/pool
I0403 19:34:58.881069 25178 net.cpp:141] Setting up inception_4c/pool
I0403 19:34:58.881098 25178 net.cpp:148] Top shape: 24 512 14 14 (2408448)
I0403 19:34:58.881115 25178 net.cpp:156] Memory required for data: 1060605216
I0403 19:34:58.881131 25178 layer_factory.hpp:77] Creating layer inception_4c/pool_proj
I0403 19:34:58.881155 25178 net.cpp:91] Creating Layer inception_4c/pool_proj
I0403 19:34:58.881173 25178 net.cpp:425] inception_4c/pool_proj <- inception_4c/pool
I0403 19:34:58.881194 25178 net.cpp:399] inception_4c/pool_proj -> inception_4c/pool_proj
I0403 19:34:58.882362 25178 net.cpp:141] Setting up inception_4c/pool_proj
I0403 19:34:58.882395 25178 net.cpp:148] Top shape: 24 64 14 14 (301056)
I0403 19:34:58.882427 25178 net.cpp:156] Memory required for data: 1061809440
I0403 19:34:58.882447 25178 layer_factory.hpp:77] Creating layer inception_4c/relu_pool_proj
I0403 19:34:58.882470 25178 net.cpp:91] Creating Layer inception_4c/relu_pool_proj
I0403 19:34:58.882489 25178 net.cpp:425] inception_4c/relu_pool_proj <- inception_4c/pool_proj
I0403 19:34:58.882508 25178 net.cpp:386] inception_4c/relu_pool_proj -> inception_4c/pool_proj (in-place)
I0403 19:34:58.882686 25178 net.cpp:141] Setting up inception_4c/relu_pool_proj
I0403 19:34:58.882714 25178 net.cpp:148] Top shape: 24 64 14 14 (301056)
I0403 19:34:58.882731 25178 net.cpp:156] Memory required for data: 1063013664
I0403 19:34:58.882747 25178 layer_factory.hpp:77] Creating layer inception_4c/output
I0403 19:34:58.882768 25178 net.cpp:91] Creating Layer inception_4c/output
I0403 19:34:58.882786 25178 net.cpp:425] inception_4c/output <- inception_4c/1x1
I0403 19:34:58.882804 25178 net.cpp:425] inception_4c/output <- inception_4c/3x3
I0403 19:34:58.882822 25178 net.cpp:425] inception_4c/output <- inception_4c/5x5
I0403 19:34:58.882839 25178 net.cpp:425] inception_4c/output <- inception_4c/pool_proj
I0403 19:34:58.882858 25178 net.cpp:399] inception_4c/output -> inception_4c/output
I0403 19:34:58.882904 25178 net.cpp:141] Setting up inception_4c/output
I0403 19:34:58.882932 25178 net.cpp:148] Top shape: 24 512 14 14 (2408448)
I0403 19:34:58.882951 25178 net.cpp:156] Memory required for data: 1072647456
I0403 19:34:58.882966 25178 layer_factory.hpp:77] Creating layer inception_4c/output_inception_4c/output_0_split
I0403 19:34:58.882982 25178 net.cpp:91] Creating Layer inception_4c/output_inception_4c/output_0_split
I0403 19:34:58.882997 25178 net.cpp:425] inception_4c/output_inception_4c/output_0_split <- inception_4c/output
I0403 19:34:58.883018 25178 net.cpp:399] inception_4c/output_inception_4c/output_0_split -> inception_4c/output_inception_4c/output_0_split_0
I0403 19:34:58.883041 25178 net.cpp:399] inception_4c/output_inception_4c/output_0_split -> inception_4c/output_inception_4c/output_0_split_1
I0403 19:34:58.883064 25178 net.cpp:399] inception_4c/output_inception_4c/output_0_split -> inception_4c/output_inception_4c/output_0_split_2
I0403 19:34:58.883086 25178 net.cpp:399] inception_4c/output_inception_4c/output_0_split -> inception_4c/output_inception_4c/output_0_split_3
I0403 19:34:58.883173 25178 net.cpp:141] Setting up inception_4c/output_inception_4c/output_0_split
I0403 19:34:58.883203 25178 net.cpp:148] Top shape: 24 512 14 14 (2408448)
I0403 19:34:58.883222 25178 net.cpp:148] Top shape: 24 512 14 14 (2408448)
I0403 19:34:58.883239 25178 net.cpp:148] Top shape: 24 512 14 14 (2408448)
I0403 19:34:58.883260 25178 net.cpp:148] Top shape: 24 512 14 14 (2408448)
I0403 19:34:58.883280 25178 net.cpp:156] Memory required for data: 1111182624
I0403 19:34:58.883296 25178 layer_factory.hpp:77] Creating layer inception_4d/1x1
I0403 19:34:58.883319 25178 net.cpp:91] Creating Layer inception_4d/1x1
I0403 19:34:58.883338 25178 net.cpp:425] inception_4d/1x1 <- inception_4c/output_inception_4c/output_0_split_0
I0403 19:34:58.883359 25178 net.cpp:399] inception_4d/1x1 -> inception_4d/1x1
I0403 19:34:58.884685 25178 net.cpp:141] Setting up inception_4d/1x1
I0403 19:34:58.884719 25178 net.cpp:148] Top shape: 24 112 14 14 (526848)
I0403 19:34:58.884740 25178 net.cpp:156] Memory required for data: 1113290016
I0403 19:34:58.884758 25178 layer_factory.hpp:77] Creating layer inception_4d/relu_1x1
I0403 19:34:58.884778 25178 net.cpp:91] Creating Layer inception_4d/relu_1x1
I0403 19:34:58.884795 25178 net.cpp:425] inception_4d/relu_1x1 <- inception_4d/1x1
I0403 19:34:58.884815 25178 net.cpp:386] inception_4d/relu_1x1 -> inception_4d/1x1 (in-place)
I0403 19:34:58.884994 25178 net.cpp:141] Setting up inception_4d/relu_1x1
I0403 19:34:58.885022 25178 net.cpp:148] Top shape: 24 112 14 14 (526848)
I0403 19:34:58.885037 25178 net.cpp:156] Memory required for data: 1115397408
I0403 19:34:58.885053 25178 layer_factory.hpp:77] Creating layer inception_4d/3x3_reduce
I0403 19:34:58.885092 25178 net.cpp:91] Creating Layer inception_4d/3x3_reduce
I0403 19:34:58.885114 25178 net.cpp:425] inception_4d/3x3_reduce <- inception_4c/output_inception_4c/output_0_split_1
I0403 19:34:58.885138 25178 net.cpp:399] inception_4d/3x3_reduce -> inception_4d/3x3_reduce
I0403 19:34:58.886581 25178 net.cpp:141] Setting up inception_4d/3x3_reduce
I0403 19:34:58.886616 25178 net.cpp:148] Top shape: 24 144 14 14 (677376)
I0403 19:34:58.886634 25178 net.cpp:156] Memory required for data: 1118106912
I0403 19:34:58.886654 25178 layer_factory.hpp:77] Creating layer inception_4d/relu_3x3_reduce
I0403 19:34:58.886673 25178 net.cpp:91] Creating Layer inception_4d/relu_3x3_reduce
I0403 19:34:58.886693 25178 net.cpp:425] inception_4d/relu_3x3_reduce <- inception_4d/3x3_reduce
I0403 19:34:58.886713 25178 net.cpp:386] inception_4d/relu_3x3_reduce -> inception_4d/3x3_reduce (in-place)
I0403 19:34:58.886993 25178 net.cpp:141] Setting up inception_4d/relu_3x3_reduce
I0403 19:34:58.887025 25178 net.cpp:148] Top shape: 24 144 14 14 (677376)
I0403 19:34:58.887045 25178 net.cpp:156] Memory required for data: 1120816416
I0403 19:34:58.887061 25178 layer_factory.hpp:77] Creating layer inception_4d/3x3
I0403 19:34:58.887085 25178 net.cpp:91] Creating Layer inception_4d/3x3
I0403 19:34:58.887106 25178 net.cpp:425] inception_4d/3x3 <- inception_4d/3x3_reduce
I0403 19:34:58.887127 25178 net.cpp:399] inception_4d/3x3 -> inception_4d/3x3
I0403 19:34:58.891203 25178 net.cpp:141] Setting up inception_4d/3x3
I0403 19:34:58.891234 25178 net.cpp:148] Top shape: 24 288 14 14 (1354752)
I0403 19:34:58.891271 25178 net.cpp:156] Memory required for data: 1126235424
I0403 19:34:58.891293 25178 layer_factory.hpp:77] Creating layer inception_4d/relu_3x3
I0403 19:34:58.891312 25178 net.cpp:91] Creating Layer inception_4d/relu_3x3
I0403 19:34:58.891333 25178 net.cpp:425] inception_4d/relu_3x3 <- inception_4d/3x3
I0403 19:34:58.891355 25178 net.cpp:386] inception_4d/relu_3x3 -> inception_4d/3x3 (in-place)
I0403 19:34:58.891537 25178 net.cpp:141] Setting up inception_4d/relu_3x3
I0403 19:34:58.891566 25178 net.cpp:148] Top shape: 24 288 14 14 (1354752)
I0403 19:34:58.891582 25178 net.cpp:156] Memory required for data: 1131654432
I0403 19:34:58.891599 25178 layer_factory.hpp:77] Creating layer inception_4d/5x5_reduce
I0403 19:34:58.891621 25178 net.cpp:91] Creating Layer inception_4d/5x5_reduce
I0403 19:34:58.891641 25178 net.cpp:425] inception_4d/5x5_reduce <- inception_4c/output_inception_4c/output_0_split_2
I0403 19:34:58.891664 25178 net.cpp:399] inception_4d/5x5_reduce -> inception_4d/5x5_reduce
I0403 19:34:58.892822 25178 net.cpp:141] Setting up inception_4d/5x5_reduce
I0403 19:34:58.892856 25178 net.cpp:148] Top shape: 24 32 14 14 (150528)
I0403 19:34:58.892876 25178 net.cpp:156] Memory required for data: 1132256544
I0403 19:34:58.892896 25178 layer_factory.hpp:77] Creating layer inception_4d/relu_5x5_reduce
I0403 19:34:58.892918 25178 net.cpp:91] Creating Layer inception_4d/relu_5x5_reduce
I0403 19:34:58.892937 25178 net.cpp:425] inception_4d/relu_5x5_reduce <- inception_4d/5x5_reduce
I0403 19:34:58.892957 25178 net.cpp:386] inception_4d/relu_5x5_reduce -> inception_4d/5x5_reduce (in-place)
I0403 19:34:58.893141 25178 net.cpp:141] Setting up inception_4d/relu_5x5_reduce
I0403 19:34:58.893169 25178 net.cpp:148] Top shape: 24 32 14 14 (150528)
I0403 19:34:58.893187 25178 net.cpp:156] Memory required for data: 1132858656
I0403 19:34:58.893203 25178 layer_factory.hpp:77] Creating layer inception_4d/5x5
I0403 19:34:58.893226 25178 net.cpp:91] Creating Layer inception_4d/5x5
I0403 19:34:58.893246 25178 net.cpp:425] inception_4d/5x5 <- inception_4d/5x5_reduce
I0403 19:34:58.893290 25178 net.cpp:399] inception_4d/5x5 -> inception_4d/5x5
I0403 19:34:58.894758 25178 net.cpp:141] Setting up inception_4d/5x5
I0403 19:34:58.894789 25178 net.cpp:148] Top shape: 24 64 14 14 (301056)
I0403 19:34:58.894809 25178 net.cpp:156] Memory required for data: 1134062880
I0403 19:34:58.894832 25178 layer_factory.hpp:77] Creating layer inception_4d/relu_5x5
I0403 19:34:58.894870 25178 net.cpp:91] Creating Layer inception_4d/relu_5x5
I0403 19:34:58.894891 25178 net.cpp:425] inception_4d/relu_5x5 <- inception_4d/5x5
I0403 19:34:58.894911 25178 net.cpp:386] inception_4d/relu_5x5 -> inception_4d/5x5 (in-place)
I0403 19:34:58.895205 25178 net.cpp:141] Setting up inception_4d/relu_5x5
I0403 19:34:58.895234 25178 net.cpp:148] Top shape: 24 64 14 14 (301056)
I0403 19:34:58.895253 25178 net.cpp:156] Memory required for data: 1135267104
I0403 19:34:58.895277 25178 layer_factory.hpp:77] Creating layer inception_4d/pool
I0403 19:34:58.895299 25178 net.cpp:91] Creating Layer inception_4d/pool
I0403 19:34:58.895320 25178 net.cpp:425] inception_4d/pool <- inception_4c/output_inception_4c/output_0_split_3
I0403 19:34:58.895340 25178 net.cpp:399] inception_4d/pool -> inception_4d/pool
I0403 19:34:58.895411 25178 net.cpp:141] Setting up inception_4d/pool
I0403 19:34:58.895437 25178 net.cpp:148] Top shape: 24 512 14 14 (2408448)
I0403 19:34:58.895452 25178 net.cpp:156] Memory required for data: 1144900896
I0403 19:34:58.895467 25178 layer_factory.hpp:77] Creating layer inception_4d/pool_proj
I0403 19:34:58.895491 25178 net.cpp:91] Creating Layer inception_4d/pool_proj
I0403 19:34:58.895512 25178 net.cpp:425] inception_4d/pool_proj <- inception_4d/pool
I0403 19:34:58.895535 25178 net.cpp:399] inception_4d/pool_proj -> inception_4d/pool_proj
I0403 19:34:58.897312 25178 net.cpp:141] Setting up inception_4d/pool_proj
I0403 19:34:58.897343 25178 net.cpp:148] Top shape: 24 64 14 14 (301056)
I0403 19:34:58.897373 25178 net.cpp:156] Memory required for data: 1146105120
I0403 19:34:58.897393 25178 layer_factory.hpp:77] Creating layer inception_4d/relu_pool_proj
I0403 19:34:58.897415 25178 net.cpp:91] Creating Layer inception_4d/relu_pool_proj
I0403 19:34:58.897434 25178 net.cpp:425] inception_4d/relu_pool_proj <- inception_4d/pool_proj
I0403 19:34:58.897459 25178 net.cpp:386] inception_4d/relu_pool_proj -> inception_4d/pool_proj (in-place)
I0403 19:34:58.897662 25178 net.cpp:141] Setting up inception_4d/relu_pool_proj
I0403 19:34:58.897692 25178 net.cpp:148] Top shape: 24 64 14 14 (301056)
I0403 19:34:58.897709 25178 net.cpp:156] Memory required for data: 1147309344
I0403 19:34:58.897725 25178 layer_factory.hpp:77] Creating layer inception_4d/output
I0403 19:34:58.897747 25178 net.cpp:91] Creating Layer inception_4d/output
I0403 19:34:58.897766 25178 net.cpp:425] inception_4d/output <- inception_4d/1x1
I0403 19:34:58.897784 25178 net.cpp:425] inception_4d/output <- inception_4d/3x3
I0403 19:34:58.897801 25178 net.cpp:425] inception_4d/output <- inception_4d/5x5
I0403 19:34:58.897819 25178 net.cpp:425] inception_4d/output <- inception_4d/pool_proj
I0403 19:34:58.897836 25178 net.cpp:399] inception_4d/output -> inception_4d/output
I0403 19:34:58.897883 25178 net.cpp:141] Setting up inception_4d/output
I0403 19:34:58.897914 25178 net.cpp:148] Top shape: 24 528 14 14 (2483712)
I0403 19:34:58.897935 25178 net.cpp:156] Memory required for data: 1157244192
I0403 19:34:58.897951 25178 layer_factory.hpp:77] Creating layer inception_4d/output_inception_4d/output_0_split
I0403 19:34:58.897969 25178 net.cpp:91] Creating Layer inception_4d/output_inception_4d/output_0_split
I0403 19:34:58.897985 25178 net.cpp:425] inception_4d/output_inception_4d/output_0_split <- inception_4d/output
I0403 19:34:58.898006 25178 net.cpp:399] inception_4d/output_inception_4d/output_0_split -> inception_4d/output_inception_4d/output_0_split_0
I0403 19:34:58.898032 25178 net.cpp:399] inception_4d/output_inception_4d/output_0_split -> inception_4d/output_inception_4d/output_0_split_1
I0403 19:34:58.898056 25178 net.cpp:399] inception_4d/output_inception_4d/output_0_split -> inception_4d/output_inception_4d/output_0_split_2
I0403 19:34:58.898078 25178 net.cpp:399] inception_4d/output_inception_4d/output_0_split -> inception_4d/output_inception_4d/output_0_split_3
I0403 19:34:58.898099 25178 net.cpp:399] inception_4d/output_inception_4d/output_0_split -> inception_4d/output_inception_4d/output_0_split_4
I0403 19:34:58.898202 25178 net.cpp:141] Setting up inception_4d/output_inception_4d/output_0_split
I0403 19:34:58.898243 25178 net.cpp:148] Top shape: 24 528 14 14 (2483712)
I0403 19:34:58.898272 25178 net.cpp:148] Top shape: 24 528 14 14 (2483712)
I0403 19:34:58.898294 25178 net.cpp:148] Top shape: 24 528 14 14 (2483712)
I0403 19:34:58.898313 25178 net.cpp:148] Top shape: 24 528 14 14 (2483712)
I0403 19:34:58.898330 25178 net.cpp:148] Top shape: 24 528 14 14 (2483712)
I0403 19:34:58.898345 25178 net.cpp:156] Memory required for data: 1206918432
I0403 19:34:58.898361 25178 layer_factory.hpp:77] Creating layer loss2/ave_pool
I0403 19:34:58.898380 25178 net.cpp:91] Creating Layer loss2/ave_pool
I0403 19:34:58.898401 25178 net.cpp:425] loss2/ave_pool <- inception_4d/output_inception_4d/output_0_split_0
I0403 19:34:58.898424 25178 net.cpp:399] loss2/ave_pool -> loss2/ave_pool
I0403 19:34:58.898736 25178 net.cpp:141] Setting up loss2/ave_pool
I0403 19:34:58.898763 25178 net.cpp:148] Top shape: 24 528 4 4 (202752)
I0403 19:34:58.898782 25178 net.cpp:156] Memory required for data: 1207729440
I0403 19:34:58.898797 25178 layer_factory.hpp:77] Creating layer loss2/conv
I0403 19:34:58.898821 25178 net.cpp:91] Creating Layer loss2/conv
I0403 19:34:58.898843 25178 net.cpp:425] loss2/conv <- loss2/ave_pool
I0403 19:34:58.898862 25178 net.cpp:399] loss2/conv -> loss2/conv
I0403 19:34:58.900746 25178 net.cpp:141] Setting up loss2/conv
I0403 19:34:58.900780 25178 net.cpp:148] Top shape: 24 128 4 4 (49152)
I0403 19:34:58.900799 25178 net.cpp:156] Memory required for data: 1207926048
I0403 19:34:58.900820 25178 layer_factory.hpp:77] Creating layer loss2/relu_conv
I0403 19:34:58.900843 25178 net.cpp:91] Creating Layer loss2/relu_conv
I0403 19:34:58.900864 25178 net.cpp:425] loss2/relu_conv <- loss2/conv
I0403 19:34:58.900882 25178 net.cpp:386] loss2/relu_conv -> loss2/conv (in-place)
I0403 19:34:58.901166 25178 net.cpp:141] Setting up loss2/relu_conv
I0403 19:34:58.901196 25178 net.cpp:148] Top shape: 24 128 4 4 (49152)
I0403 19:34:58.901211 25178 net.cpp:156] Memory required for data: 1208122656
I0403 19:34:58.901229 25178 layer_factory.hpp:77] Creating layer loss2/fc
I0403 19:34:58.901252 25178 net.cpp:91] Creating Layer loss2/fc
I0403 19:34:58.901278 25178 net.cpp:425] loss2/fc <- loss2/conv
I0403 19:34:58.901299 25178 net.cpp:399] loss2/fc -> loss2/fc
I0403 19:34:58.918596 25178 net.cpp:141] Setting up loss2/fc
I0403 19:34:58.918632 25178 net.cpp:148] Top shape: 24 1024 (24576)
I0403 19:34:58.918649 25178 net.cpp:156] Memory required for data: 1208220960
I0403 19:34:58.918671 25178 layer_factory.hpp:77] Creating layer loss2/relu_fc
I0403 19:34:58.918690 25178 net.cpp:91] Creating Layer loss2/relu_fc
I0403 19:34:58.918709 25178 net.cpp:425] loss2/relu_fc <- loss2/fc
I0403 19:34:58.918730 25178 net.cpp:386] loss2/relu_fc -> loss2/fc (in-place)
I0403 19:34:58.919019 25178 net.cpp:141] Setting up loss2/relu_fc
I0403 19:34:58.919047 25178 net.cpp:148] Top shape: 24 1024 (24576)
I0403 19:34:58.919064 25178 net.cpp:156] Memory required for data: 1208319264
I0403 19:34:58.919081 25178 layer_factory.hpp:77] Creating layer loss2/drop_fc
I0403 19:34:58.919100 25178 net.cpp:91] Creating Layer loss2/drop_fc
I0403 19:34:58.919116 25178 net.cpp:425] loss2/drop_fc <- loss2/fc
I0403 19:34:58.919137 25178 net.cpp:386] loss2/drop_fc -> loss2/fc (in-place)
I0403 19:34:58.919186 25178 net.cpp:141] Setting up loss2/drop_fc
I0403 19:34:58.919219 25178 net.cpp:148] Top shape: 24 1024 (24576)
I0403 19:34:58.919236 25178 net.cpp:156] Memory required for data: 1208417568
I0403 19:34:58.919253 25178 layer_factory.hpp:77] Creating layer loss2/classifier_plantvillage
I0403 19:34:58.919281 25178 net.cpp:91] Creating Layer loss2/classifier_plantvillage
I0403 19:34:58.919299 25178 net.cpp:425] loss2/classifier_plantvillage <- loss2/fc
I0403 19:34:58.919322 25178 net.cpp:399] loss2/classifier_plantvillage -> loss2/classifier_plantvillage
I0403 19:34:58.919709 25178 net.cpp:141] Setting up loss2/classifier_plantvillage
I0403 19:34:58.919741 25178 net.cpp:148] Top shape: 24 38 (912)
I0403 19:34:58.919776 25178 net.cpp:156] Memory required for data: 1208421216
I0403 19:34:58.919798 25178 layer_factory.hpp:77] Creating layer loss2/classifier_plantvillage_loss2/classifier_plantvillage_0_split
I0403 19:34:58.919817 25178 net.cpp:91] Creating Layer loss2/classifier_plantvillage_loss2/classifier_plantvillage_0_split
I0403 19:34:58.919833 25178 net.cpp:425] loss2/classifier_plantvillage_loss2/classifier_plantvillage_0_split <- loss2/classifier_plantvillage
I0403 19:34:58.919854 25178 net.cpp:399] loss2/classifier_plantvillage_loss2/classifier_plantvillage_0_split -> loss2/classifier_plantvillage_loss2/classifier_plantvillage_0_split_0
I0403 19:34:58.919878 25178 net.cpp:399] loss2/classifier_plantvillage_loss2/classifier_plantvillage_0_split -> loss2/classifier_plantvillage_loss2/classifier_plantvillage_0_split_1
I0403 19:34:58.919901 25178 net.cpp:399] loss2/classifier_plantvillage_loss2/classifier_plantvillage_0_split -> loss2/classifier_plantvillage_loss2/classifier_plantvillage_0_split_2
I0403 19:34:58.919976 25178 net.cpp:141] Setting up loss2/classifier_plantvillage_loss2/classifier_plantvillage_0_split
I0403 19:34:58.920002 25178 net.cpp:148] Top shape: 24 38 (912)
I0403 19:34:58.920018 25178 net.cpp:148] Top shape: 24 38 (912)
I0403 19:34:58.920035 25178 net.cpp:148] Top shape: 24 38 (912)
I0403 19:34:58.920050 25178 net.cpp:156] Memory required for data: 1208432160
I0403 19:34:58.920064 25178 layer_factory.hpp:77] Creating layer inception_4e/1x1
I0403 19:34:58.920084 25178 net.cpp:91] Creating Layer inception_4e/1x1
I0403 19:34:58.920104 25178 net.cpp:425] inception_4e/1x1 <- inception_4d/output_inception_4d/output_0_split_1
I0403 19:34:58.920125 25178 net.cpp:399] inception_4e/1x1 -> inception_4e/1x1
I0403 19:34:58.921862 25178 net.cpp:141] Setting up inception_4e/1x1
I0403 19:34:58.921892 25178 net.cpp:148] Top shape: 24 256 14 14 (1204224)
I0403 19:34:58.921911 25178 net.cpp:156] Memory required for data: 1213249056
I0403 19:34:58.921932 25178 layer_factory.hpp:77] Creating layer inception_4e/relu_1x1
I0403 19:34:58.921954 25178 net.cpp:91] Creating Layer inception_4e/relu_1x1
I0403 19:34:58.921974 25178 net.cpp:425] inception_4e/relu_1x1 <- inception_4e/1x1
I0403 19:34:58.921993 25178 net.cpp:386] inception_4e/relu_1x1 -> inception_4e/1x1 (in-place)
I0403 19:34:58.922281 25178 net.cpp:141] Setting up inception_4e/relu_1x1
I0403 19:34:58.922308 25178 net.cpp:148] Top shape: 24 256 14 14 (1204224)
I0403 19:34:58.922324 25178 net.cpp:156] Memory required for data: 1218065952
I0403 19:34:58.922338 25178 layer_factory.hpp:77] Creating layer inception_4e/3x3_reduce
I0403 19:34:58.922361 25178 net.cpp:91] Creating Layer inception_4e/3x3_reduce
I0403 19:34:58.922382 25178 net.cpp:425] inception_4e/3x3_reduce <- inception_4d/output_inception_4d/output_0_split_2
I0403 19:34:58.922404 25178 net.cpp:399] inception_4e/3x3_reduce -> inception_4e/3x3_reduce
I0403 19:34:58.924541 25178 net.cpp:141] Setting up inception_4e/3x3_reduce
I0403 19:34:58.924572 25178 net.cpp:148] Top shape: 24 160 14 14 (752640)
I0403 19:34:58.924589 25178 net.cpp:156] Memory required for data: 1221076512
I0403 19:34:58.924607 25178 layer_factory.hpp:77] Creating layer inception_4e/relu_3x3_reduce
I0403 19:34:58.924629 25178 net.cpp:91] Creating Layer inception_4e/relu_3x3_reduce
I0403 19:34:58.924649 25178 net.cpp:425] inception_4e/relu_3x3_reduce <- inception_4e/3x3_reduce
I0403 19:34:58.924669 25178 net.cpp:386] inception_4e/relu_3x3_reduce -> inception_4e/3x3_reduce (in-place)
I0403 19:34:58.924852 25178 net.cpp:141] Setting up inception_4e/relu_3x3_reduce
I0403 19:34:58.924880 25178 net.cpp:148] Top shape: 24 160 14 14 (752640)
I0403 19:34:58.924897 25178 net.cpp:156] Memory required for data: 1224087072
I0403 19:34:58.924914 25178 layer_factory.hpp:77] Creating layer inception_4e/3x3
I0403 19:34:58.924938 25178 net.cpp:91] Creating Layer inception_4e/3x3
I0403 19:34:58.924957 25178 net.cpp:425] inception_4e/3x3 <- inception_4e/3x3_reduce
I0403 19:34:58.924978 25178 net.cpp:399] inception_4e/3x3 -> inception_4e/3x3
I0403 19:34:58.929782 25178 net.cpp:141] Setting up inception_4e/3x3
I0403 19:34:58.929828 25178 net.cpp:148] Top shape: 24 320 14 14 (1505280)
I0403 19:34:58.929847 25178 net.cpp:156] Memory required for data: 1230108192
I0403 19:34:58.929867 25178 layer_factory.hpp:77] Creating layer inception_4e/relu_3x3
I0403 19:34:58.929888 25178 net.cpp:91] Creating Layer inception_4e/relu_3x3
I0403 19:34:58.929908 25178 net.cpp:425] inception_4e/relu_3x3 <- inception_4e/3x3
I0403 19:34:58.929929 25178 net.cpp:386] inception_4e/relu_3x3 -> inception_4e/3x3 (in-place)
I0403 19:34:58.930222 25178 net.cpp:141] Setting up inception_4e/relu_3x3
I0403 19:34:58.930253 25178 net.cpp:148] Top shape: 24 320 14 14 (1505280)
I0403 19:34:58.930275 25178 net.cpp:156] Memory required for data: 1236129312
I0403 19:34:58.930292 25178 layer_factory.hpp:77] Creating layer inception_4e/5x5_reduce
I0403 19:34:58.930317 25178 net.cpp:91] Creating Layer inception_4e/5x5_reduce
I0403 19:34:58.930338 25178 net.cpp:425] inception_4e/5x5_reduce <- inception_4d/output_inception_4d/output_0_split_3
I0403 19:34:58.930358 25178 net.cpp:399] inception_4e/5x5_reduce -> inception_4e/5x5_reduce
I0403 19:34:58.931393 25178 net.cpp:141] Setting up inception_4e/5x5_reduce
I0403 19:34:58.931424 25178 net.cpp:148] Top shape: 24 32 14 14 (150528)
I0403 19:34:58.931439 25178 net.cpp:156] Memory required for data: 1236731424
I0403 19:34:58.931459 25178 layer_factory.hpp:77] Creating layer inception_4e/relu_5x5_reduce
I0403 19:34:58.931481 25178 net.cpp:91] Creating Layer inception_4e/relu_5x5_reduce
I0403 19:34:58.931500 25178 net.cpp:425] inception_4e/relu_5x5_reduce <- inception_4e/5x5_reduce
I0403 19:34:58.931519 25178 net.cpp:386] inception_4e/relu_5x5_reduce -> inception_4e/5x5_reduce (in-place)
I0403 19:34:58.931807 25178 net.cpp:141] Setting up inception_4e/relu_5x5_reduce
I0403 19:34:58.931835 25178 net.cpp:148] Top shape: 24 32 14 14 (150528)
I0403 19:34:58.931854 25178 net.cpp:156] Memory required for data: 1237333536
I0403 19:34:58.931869 25178 layer_factory.hpp:77] Creating layer inception_4e/5x5
I0403 19:34:58.931910 25178 net.cpp:91] Creating Layer inception_4e/5x5
I0403 19:34:58.931931 25178 net.cpp:425] inception_4e/5x5 <- inception_4e/5x5_reduce
I0403 19:34:58.931953 25178 net.cpp:399] inception_4e/5x5 -> inception_4e/5x5
I0403 19:34:58.933711 25178 net.cpp:141] Setting up inception_4e/5x5
I0403 19:34:58.933742 25178 net.cpp:148] Top shape: 24 128 14 14 (602112)
I0403 19:34:58.933759 25178 net.cpp:156] Memory required for data: 1239741984
I0403 19:34:58.933779 25178 layer_factory.hpp:77] Creating layer inception_4e/relu_5x5
I0403 19:34:58.933799 25178 net.cpp:91] Creating Layer inception_4e/relu_5x5
I0403 19:34:58.933816 25178 net.cpp:425] inception_4e/relu_5x5 <- inception_4e/5x5
I0403 19:34:58.933837 25178 net.cpp:386] inception_4e/relu_5x5 -> inception_4e/5x5 (in-place)
I0403 19:34:58.934028 25178 net.cpp:141] Setting up inception_4e/relu_5x5
I0403 19:34:58.934058 25178 net.cpp:148] Top shape: 24 128 14 14 (602112)
I0403 19:34:58.934074 25178 net.cpp:156] Memory required for data: 1242150432
I0403 19:34:58.934090 25178 layer_factory.hpp:77] Creating layer inception_4e/pool
I0403 19:34:58.934111 25178 net.cpp:91] Creating Layer inception_4e/pool
I0403 19:34:58.934131 25178 net.cpp:425] inception_4e/pool <- inception_4d/output_inception_4d/output_0_split_4
I0403 19:34:58.934150 25178 net.cpp:399] inception_4e/pool -> inception_4e/pool
I0403 19:34:58.934223 25178 net.cpp:141] Setting up inception_4e/pool
I0403 19:34:58.934250 25178 net.cpp:148] Top shape: 24 528 14 14 (2483712)
I0403 19:34:58.934279 25178 net.cpp:156] Memory required for data: 1252085280
I0403 19:34:58.934298 25178 layer_factory.hpp:77] Creating layer inception_4e/pool_proj
I0403 19:34:58.934321 25178 net.cpp:91] Creating Layer inception_4e/pool_proj
I0403 19:34:58.934340 25178 net.cpp:425] inception_4e/pool_proj <- inception_4e/pool
I0403 19:34:58.934363 25178 net.cpp:399] inception_4e/pool_proj -> inception_4e/pool_proj
I0403 19:34:58.935801 25178 net.cpp:141] Setting up inception_4e/pool_proj
I0403 19:34:58.935842 25178 net.cpp:148] Top shape: 24 128 14 14 (602112)
I0403 19:34:58.935861 25178 net.cpp:156] Memory required for data: 1254493728
I0403 19:34:58.935881 25178 layer_factory.hpp:77] Creating layer inception_4e/relu_pool_proj
I0403 19:34:58.935899 25178 net.cpp:91] Creating Layer inception_4e/relu_pool_proj
I0403 19:34:58.935917 25178 net.cpp:425] inception_4e/relu_pool_proj <- inception_4e/pool_proj
I0403 19:34:58.935940 25178 net.cpp:386] inception_4e/relu_pool_proj -> inception_4e/pool_proj (in-place)
I0403 19:34:58.936218 25178 net.cpp:141] Setting up inception_4e/relu_pool_proj
I0403 19:34:58.936245 25178 net.cpp:148] Top shape: 24 128 14 14 (602112)
I0403 19:34:58.936269 25178 net.cpp:156] Memory required for data: 1256902176
I0403 19:34:58.936287 25178 layer_factory.hpp:77] Creating layer inception_4e/output
I0403 19:34:58.936307 25178 net.cpp:91] Creating Layer inception_4e/output
I0403 19:34:58.936326 25178 net.cpp:425] inception_4e/output <- inception_4e/1x1
I0403 19:34:58.936345 25178 net.cpp:425] inception_4e/output <- inception_4e/3x3
I0403 19:34:58.936362 25178 net.cpp:425] inception_4e/output <- inception_4e/5x5
I0403 19:34:58.936378 25178 net.cpp:425] inception_4e/output <- inception_4e/pool_proj
I0403 19:34:58.936398 25178 net.cpp:399] inception_4e/output -> inception_4e/output
I0403 19:34:58.936450 25178 net.cpp:141] Setting up inception_4e/output
I0403 19:34:58.936482 25178 net.cpp:148] Top shape: 24 832 14 14 (3913728)
I0403 19:34:58.936501 25178 net.cpp:156] Memory required for data: 1272557088
I0403 19:34:58.936517 25178 layer_factory.hpp:77] Creating layer pool4/3x3_s2
I0403 19:34:58.936532 25178 net.cpp:91] Creating Layer pool4/3x3_s2
I0403 19:34:58.936549 25178 net.cpp:425] pool4/3x3_s2 <- inception_4e/output
I0403 19:34:58.936568 25178 net.cpp:399] pool4/3x3_s2 -> pool4/3x3_s2
I0403 19:34:58.936636 25178 net.cpp:141] Setting up pool4/3x3_s2
I0403 19:34:58.936667 25178 net.cpp:148] Top shape: 24 832 7 7 (978432)
I0403 19:34:58.936682 25178 net.cpp:156] Memory required for data: 1276470816
I0403 19:34:58.936698 25178 layer_factory.hpp:77] Creating layer pool4/3x3_s2_pool4/3x3_s2_0_split
I0403 19:34:58.936717 25178 net.cpp:91] Creating Layer pool4/3x3_s2_pool4/3x3_s2_0_split
I0403 19:34:58.936733 25178 net.cpp:425] pool4/3x3_s2_pool4/3x3_s2_0_split <- pool4/3x3_s2
I0403 19:34:58.936753 25178 net.cpp:399] pool4/3x3_s2_pool4/3x3_s2_0_split -> pool4/3x3_s2_pool4/3x3_s2_0_split_0
I0403 19:34:58.936775 25178 net.cpp:399] pool4/3x3_s2_pool4/3x3_s2_0_split -> pool4/3x3_s2_pool4/3x3_s2_0_split_1
I0403 19:34:58.936799 25178 net.cpp:399] pool4/3x3_s2_pool4/3x3_s2_0_split -> pool4/3x3_s2_pool4/3x3_s2_0_split_2
I0403 19:34:58.936820 25178 net.cpp:399] pool4/3x3_s2_pool4/3x3_s2_0_split -> pool4/3x3_s2_pool4/3x3_s2_0_split_3
I0403 19:34:58.936911 25178 net.cpp:141] Setting up pool4/3x3_s2_pool4/3x3_s2_0_split
I0403 19:34:58.936938 25178 net.cpp:148] Top shape: 24 832 7 7 (978432)
I0403 19:34:58.936955 25178 net.cpp:148] Top shape: 24 832 7 7 (978432)
I0403 19:34:58.936972 25178 net.cpp:148] Top shape: 24 832 7 7 (978432)
I0403 19:34:58.936988 25178 net.cpp:148] Top shape: 24 832 7 7 (978432)
I0403 19:34:58.937005 25178 net.cpp:156] Memory required for data: 1292125728
I0403 19:34:58.937018 25178 layer_factory.hpp:77] Creating layer inception_5a/1x1
I0403 19:34:58.937044 25178 net.cpp:91] Creating Layer inception_5a/1x1
I0403 19:34:58.937063 25178 net.cpp:425] inception_5a/1x1 <- pool4/3x3_s2_pool4/3x3_s2_0_split_0
I0403 19:34:58.937088 25178 net.cpp:399] inception_5a/1x1 -> inception_5a/1x1
I0403 19:34:58.939821 25178 net.cpp:141] Setting up inception_5a/1x1
I0403 19:34:58.939851 25178 net.cpp:148] Top shape: 24 256 7 7 (301056)
I0403 19:34:58.939868 25178 net.cpp:156] Memory required for data: 1293329952
I0403 19:34:58.939888 25178 layer_factory.hpp:77] Creating layer inception_5a/relu_1x1
I0403 19:34:58.939911 25178 net.cpp:91] Creating Layer inception_5a/relu_1x1
I0403 19:34:58.939930 25178 net.cpp:425] inception_5a/relu_1x1 <- inception_5a/1x1
I0403 19:34:58.939950 25178 net.cpp:386] inception_5a/relu_1x1 -> inception_5a/1x1 (in-place)
I0403 19:34:58.940253 25178 net.cpp:141] Setting up inception_5a/relu_1x1
I0403 19:34:58.940286 25178 net.cpp:148] Top shape: 24 256 7 7 (301056)
I0403 19:34:58.940304 25178 net.cpp:156] Memory required for data: 1294534176
I0403 19:34:58.940321 25178 layer_factory.hpp:77] Creating layer inception_5a/3x3_reduce
I0403 19:34:58.940346 25178 net.cpp:91] Creating Layer inception_5a/3x3_reduce
I0403 19:34:58.940366 25178 net.cpp:425] inception_5a/3x3_reduce <- pool4/3x3_s2_pool4/3x3_s2_0_split_1
I0403 19:34:58.940388 25178 net.cpp:399] inception_5a/3x3_reduce -> inception_5a/3x3_reduce
I0403 19:34:58.942752 25178 net.cpp:141] Setting up inception_5a/3x3_reduce
I0403 19:34:58.942787 25178 net.cpp:148] Top shape: 24 160 7 7 (188160)
I0403 19:34:58.942807 25178 net.cpp:156] Memory required for data: 1295286816
I0403 19:34:58.942826 25178 layer_factory.hpp:77] Creating layer inception_5a/relu_3x3_reduce
I0403 19:34:58.942847 25178 net.cpp:91] Creating Layer inception_5a/relu_3x3_reduce
I0403 19:34:58.942865 25178 net.cpp:425] inception_5a/relu_3x3_reduce <- inception_5a/3x3_reduce
I0403 19:34:58.942885 25178 net.cpp:386] inception_5a/relu_3x3_reduce -> inception_5a/3x3_reduce (in-place)
I0403 19:34:58.943068 25178 net.cpp:141] Setting up inception_5a/relu_3x3_reduce
I0403 19:34:58.943094 25178 net.cpp:148] Top shape: 24 160 7 7 (188160)
I0403 19:34:58.943110 25178 net.cpp:156] Memory required for data: 1296039456
I0403 19:34:58.943126 25178 layer_factory.hpp:77] Creating layer inception_5a/3x3
I0403 19:34:58.943150 25178 net.cpp:91] Creating Layer inception_5a/3x3
I0403 19:34:58.943169 25178 net.cpp:425] inception_5a/3x3 <- inception_5a/3x3_reduce
I0403 19:34:58.943192 25178 net.cpp:399] inception_5a/3x3 -> inception_5a/3x3
I0403 19:34:58.948107 25178 net.cpp:141] Setting up inception_5a/3x3
I0403 19:34:58.948138 25178 net.cpp:148] Top shape: 24 320 7 7 (376320)
I0403 19:34:58.948156 25178 net.cpp:156] Memory required for data: 1297544736
I0403 19:34:58.948176 25178 layer_factory.hpp:77] Creating layer inception_5a/relu_3x3
I0403 19:34:58.948196 25178 net.cpp:91] Creating Layer inception_5a/relu_3x3
I0403 19:34:58.948215 25178 net.cpp:425] inception_5a/relu_3x3 <- inception_5a/3x3
I0403 19:34:58.948235 25178 net.cpp:386] inception_5a/relu_3x3 -> inception_5a/3x3 (in-place)
I0403 19:34:58.948521 25178 net.cpp:141] Setting up inception_5a/relu_3x3
I0403 19:34:58.948550 25178 net.cpp:148] Top shape: 24 320 7 7 (376320)
I0403 19:34:58.948567 25178 net.cpp:156] Memory required for data: 1299050016
I0403 19:34:58.948585 25178 layer_factory.hpp:77] Creating layer inception_5a/5x5_reduce
I0403 19:34:58.948606 25178 net.cpp:91] Creating Layer inception_5a/5x5_reduce
I0403 19:34:58.948624 25178 net.cpp:425] inception_5a/5x5_reduce <- pool4/3x3_s2_pool4/3x3_s2_0_split_2
I0403 19:34:58.948647 25178 net.cpp:399] inception_5a/5x5_reduce -> inception_5a/5x5_reduce
I0403 19:34:58.949780 25178 net.cpp:141] Setting up inception_5a/5x5_reduce
I0403 19:34:58.949815 25178 net.cpp:148] Top shape: 24 32 7 7 (37632)
I0403 19:34:58.949833 25178 net.cpp:156] Memory required for data: 1299200544
I0403 19:34:58.949853 25178 layer_factory.hpp:77] Creating layer inception_5a/relu_5x5_reduce
I0403 19:34:58.949870 25178 net.cpp:91] Creating Layer inception_5a/relu_5x5_reduce
I0403 19:34:58.949888 25178 net.cpp:425] inception_5a/relu_5x5_reduce <- inception_5a/5x5_reduce
I0403 19:34:58.949906 25178 net.cpp:386] inception_5a/relu_5x5_reduce -> inception_5a/5x5_reduce (in-place)
I0403 19:34:58.950197 25178 net.cpp:141] Setting up inception_5a/relu_5x5_reduce
I0403 19:34:58.950227 25178 net.cpp:148] Top shape: 24 32 7 7 (37632)
I0403 19:34:58.950248 25178 net.cpp:156] Memory required for data: 1299351072
I0403 19:34:58.950286 25178 layer_factory.hpp:77] Creating layer inception_5a/5x5
I0403 19:34:58.950312 25178 net.cpp:91] Creating Layer inception_5a/5x5
I0403 19:34:58.950335 25178 net.cpp:425] inception_5a/5x5 <- inception_5a/5x5_reduce
I0403 19:34:58.950356 25178 net.cpp:399] inception_5a/5x5 -> inception_5a/5x5
I0403 19:34:58.952047 25178 net.cpp:141] Setting up inception_5a/5x5
I0403 19:34:58.952090 25178 net.cpp:148] Top shape: 24 128 7 7 (150528)
I0403 19:34:58.952108 25178 net.cpp:156] Memory required for data: 1299953184
I0403 19:34:58.952126 25178 layer_factory.hpp:77] Creating layer inception_5a/relu_5x5
I0403 19:34:58.952145 25178 net.cpp:91] Creating Layer inception_5a/relu_5x5
I0403 19:34:58.952163 25178 net.cpp:425] inception_5a/relu_5x5 <- inception_5a/5x5
I0403 19:34:58.952188 25178 net.cpp:386] inception_5a/relu_5x5 -> inception_5a/5x5 (in-place)
I0403 19:34:58.952389 25178 net.cpp:141] Setting up inception_5a/relu_5x5
I0403 19:34:58.952416 25178 net.cpp:148] Top shape: 24 128 7 7 (150528)
I0403 19:34:58.952433 25178 net.cpp:156] Memory required for data: 1300555296
I0403 19:34:58.952450 25178 layer_factory.hpp:77] Creating layer inception_5a/pool
I0403 19:34:58.952471 25178 net.cpp:91] Creating Layer inception_5a/pool
I0403 19:34:58.952492 25178 net.cpp:425] inception_5a/pool <- pool4/3x3_s2_pool4/3x3_s2_0_split_3
I0403 19:34:58.952514 25178 net.cpp:399] inception_5a/pool -> inception_5a/pool
I0403 19:34:58.952585 25178 net.cpp:141] Setting up inception_5a/pool
I0403 19:34:58.952611 25178 net.cpp:148] Top shape: 24 832 7 7 (978432)
I0403 19:34:58.952627 25178 net.cpp:156] Memory required for data: 1304469024
I0403 19:34:58.952642 25178 layer_factory.hpp:77] Creating layer inception_5a/pool_proj
I0403 19:34:58.952668 25178 net.cpp:91] Creating Layer inception_5a/pool_proj
I0403 19:34:58.952689 25178 net.cpp:425] inception_5a/pool_proj <- inception_5a/pool
I0403 19:34:58.952711 25178 net.cpp:399] inception_5a/pool_proj -> inception_5a/pool_proj
I0403 19:34:58.954980 25178 net.cpp:141] Setting up inception_5a/pool_proj
I0403 19:34:58.955013 25178 net.cpp:148] Top shape: 24 128 7 7 (150528)
I0403 19:34:58.955030 25178 net.cpp:156] Memory required for data: 1305071136
I0403 19:34:58.955050 25178 layer_factory.hpp:77] Creating layer inception_5a/relu_pool_proj
I0403 19:34:58.955072 25178 net.cpp:91] Creating Layer inception_5a/relu_pool_proj
I0403 19:34:58.955092 25178 net.cpp:425] inception_5a/relu_pool_proj <- inception_5a/pool_proj
I0403 19:34:58.955114 25178 net.cpp:386] inception_5a/relu_pool_proj -> inception_5a/pool_proj (in-place)
I0403 19:34:58.955412 25178 net.cpp:141] Setting up inception_5a/relu_pool_proj
I0403 19:34:58.955442 25178 net.cpp:148] Top shape: 24 128 7 7 (150528)
I0403 19:34:58.955458 25178 net.cpp:156] Memory required for data: 1305673248
I0403 19:34:58.955476 25178 layer_factory.hpp:77] Creating layer inception_5a/output
I0403 19:34:58.955495 25178 net.cpp:91] Creating Layer inception_5a/output
I0403 19:34:58.955514 25178 net.cpp:425] inception_5a/output <- inception_5a/1x1
I0403 19:34:58.955533 25178 net.cpp:425] inception_5a/output <- inception_5a/3x3
I0403 19:34:58.955550 25178 net.cpp:425] inception_5a/output <- inception_5a/5x5
I0403 19:34:58.955567 25178 net.cpp:425] inception_5a/output <- inception_5a/pool_proj
I0403 19:34:58.955590 25178 net.cpp:399] inception_5a/output -> inception_5a/output
I0403 19:34:58.955643 25178 net.cpp:141] Setting up inception_5a/output
I0403 19:34:58.955674 25178 net.cpp:148] Top shape: 24 832 7 7 (978432)
I0403 19:34:58.955693 25178 net.cpp:156] Memory required for data: 1309586976
I0403 19:34:58.955709 25178 layer_factory.hpp:77] Creating layer inception_5a/output_inception_5a/output_0_split
I0403 19:34:58.955727 25178 net.cpp:91] Creating Layer inception_5a/output_inception_5a/output_0_split
I0403 19:34:58.955747 25178 net.cpp:425] inception_5a/output_inception_5a/output_0_split <- inception_5a/output
I0403 19:34:58.955767 25178 net.cpp:399] inception_5a/output_inception_5a/output_0_split -> inception_5a/output_inception_5a/output_0_split_0
I0403 19:34:58.955795 25178 net.cpp:399] inception_5a/output_inception_5a/output_0_split -> inception_5a/output_inception_5a/output_0_split_1
I0403 19:34:58.955817 25178 net.cpp:399] inception_5a/output_inception_5a/output_0_split -> inception_5a/output_inception_5a/output_0_split_2
I0403 19:34:58.955839 25178 net.cpp:399] inception_5a/output_inception_5a/output_0_split -> inception_5a/output_inception_5a/output_0_split_3
I0403 19:34:58.955952 25178 net.cpp:141] Setting up inception_5a/output_inception_5a/output_0_split
I0403 19:34:58.955979 25178 net.cpp:148] Top shape: 24 832 7 7 (978432)
I0403 19:34:58.955998 25178 net.cpp:148] Top shape: 24 832 7 7 (978432)
I0403 19:34:58.956017 25178 net.cpp:148] Top shape: 24 832 7 7 (978432)
I0403 19:34:58.956037 25178 net.cpp:148] Top shape: 24 832 7 7 (978432)
I0403 19:34:58.956051 25178 net.cpp:156] Memory required for data: 1325241888
I0403 19:34:58.956068 25178 layer_factory.hpp:77] Creating layer inception_5b/1x1
I0403 19:34:58.956090 25178 net.cpp:91] Creating Layer inception_5b/1x1
I0403 19:34:58.956111 25178 net.cpp:425] inception_5b/1x1 <- inception_5a/output_inception_5a/output_0_split_0
I0403 19:34:58.956135 25178 net.cpp:399] inception_5b/1x1 -> inception_5b/1x1
I0403 19:34:58.959846 25178 net.cpp:141] Setting up inception_5b/1x1
I0403 19:34:58.959882 25178 net.cpp:148] Top shape: 24 384 7 7 (451584)
I0403 19:34:58.959899 25178 net.cpp:156] Memory required for data: 1327048224
I0403 19:34:58.959919 25178 layer_factory.hpp:77] Creating layer inception_5b/relu_1x1
I0403 19:34:58.959940 25178 net.cpp:91] Creating Layer inception_5b/relu_1x1
I0403 19:34:58.959959 25178 net.cpp:425] inception_5b/relu_1x1 <- inception_5b/1x1
I0403 19:34:58.959982 25178 net.cpp:386] inception_5b/relu_1x1 -> inception_5b/1x1 (in-place)
I0403 19:34:58.960290 25178 net.cpp:141] Setting up inception_5b/relu_1x1
I0403 19:34:58.960324 25178 net.cpp:148] Top shape: 24 384 7 7 (451584)
I0403 19:34:58.960340 25178 net.cpp:156] Memory required for data: 1328854560
I0403 19:34:58.960357 25178 layer_factory.hpp:77] Creating layer inception_5b/3x3_reduce
I0403 19:34:58.960381 25178 net.cpp:91] Creating Layer inception_5b/3x3_reduce
I0403 19:34:58.960402 25178 net.cpp:425] inception_5b/3x3_reduce <- inception_5a/output_inception_5a/output_0_split_1
I0403 19:34:58.960427 25178 net.cpp:399] inception_5b/3x3_reduce -> inception_5b/3x3_reduce
I0403 19:34:58.963083 25178 net.cpp:141] Setting up inception_5b/3x3_reduce
I0403 19:34:58.963120 25178 net.cpp:148] Top shape: 24 192 7 7 (225792)
I0403 19:34:58.963138 25178 net.cpp:156] Memory required for data: 1329757728
I0403 19:34:58.963160 25178 layer_factory.hpp:77] Creating layer inception_5b/relu_3x3_reduce
I0403 19:34:58.963178 25178 net.cpp:91] Creating Layer inception_5b/relu_3x3_reduce
I0403 19:34:58.963197 25178 net.cpp:425] inception_5b/relu_3x3_reduce <- inception_5b/3x3_reduce
I0403 19:34:58.963218 25178 net.cpp:386] inception_5b/relu_3x3_reduce -> inception_5b/3x3_reduce (in-place)
I0403 19:34:58.963413 25178 net.cpp:141] Setting up inception_5b/relu_3x3_reduce
I0403 19:34:58.963441 25178 net.cpp:148] Top shape: 24 192 7 7 (225792)
I0403 19:34:58.963459 25178 net.cpp:156] Memory required for data: 1330660896
I0403 19:34:58.963476 25178 layer_factory.hpp:77] Creating layer inception_5b/3x3
I0403 19:34:58.963498 25178 net.cpp:91] Creating Layer inception_5b/3x3
I0403 19:34:58.963517 25178 net.cpp:425] inception_5b/3x3 <- inception_5b/3x3_reduce
I0403 19:34:58.963542 25178 net.cpp:399] inception_5b/3x3 -> inception_5b/3x3
I0403 19:34:58.970198 25178 net.cpp:141] Setting up inception_5b/3x3
I0403 19:34:58.970229 25178 net.cpp:148] Top shape: 24 384 7 7 (451584)
I0403 19:34:58.970247 25178 net.cpp:156] Memory required for data: 1332467232
I0403 19:34:58.970274 25178 layer_factory.hpp:77] Creating layer inception_5b/relu_3x3
I0403 19:34:58.970296 25178 net.cpp:91] Creating Layer inception_5b/relu_3x3
I0403 19:34:58.970314 25178 net.cpp:425] inception_5b/relu_3x3 <- inception_5b/3x3
I0403 19:34:58.970337 25178 net.cpp:386] inception_5b/relu_3x3 -> inception_5b/3x3 (in-place)
I0403 19:34:58.970623 25178 net.cpp:141] Setting up inception_5b/relu_3x3
I0403 19:34:58.970655 25178 net.cpp:148] Top shape: 24 384 7 7 (451584)
I0403 19:34:58.970672 25178 net.cpp:156] Memory required for data: 1334273568
I0403 19:34:58.970688 25178 layer_factory.hpp:77] Creating layer inception_5b/5x5_reduce
I0403 19:34:58.970727 25178 net.cpp:91] Creating Layer inception_5b/5x5_reduce
I0403 19:34:58.970749 25178 net.cpp:425] inception_5b/5x5_reduce <- inception_5a/output_inception_5a/output_0_split_2
I0403 19:34:58.970773 25178 net.cpp:399] inception_5b/5x5_reduce -> inception_5b/5x5_reduce
I0403 19:34:58.972003 25178 net.cpp:141] Setting up inception_5b/5x5_reduce
I0403 19:34:58.972033 25178 net.cpp:148] Top shape: 24 48 7 7 (56448)
I0403 19:34:58.972049 25178 net.cpp:156] Memory required for data: 1334499360
I0403 19:34:58.972069 25178 layer_factory.hpp:77] Creating layer inception_5b/relu_5x5_reduce
I0403 19:34:58.972089 25178 net.cpp:91] Creating Layer inception_5b/relu_5x5_reduce
I0403 19:34:58.972106 25178 net.cpp:425] inception_5b/relu_5x5_reduce <- inception_5b/5x5_reduce
I0403 19:34:58.972128 25178 net.cpp:386] inception_5b/relu_5x5_reduce -> inception_5b/5x5_reduce (in-place)
I0403 19:34:58.972497 25178 net.cpp:141] Setting up inception_5b/relu_5x5_reduce
I0403 19:34:58.972527 25178 net.cpp:148] Top shape: 24 48 7 7 (56448)
I0403 19:34:58.972544 25178 net.cpp:156] Memory required for data: 1334725152
I0403 19:34:58.972560 25178 layer_factory.hpp:77] Creating layer inception_5b/5x5
I0403 19:34:58.972581 25178 net.cpp:91] Creating Layer inception_5b/5x5
I0403 19:34:58.972602 25178 net.cpp:425] inception_5b/5x5 <- inception_5b/5x5_reduce
I0403 19:34:58.972623 25178 net.cpp:399] inception_5b/5x5 -> inception_5b/5x5
I0403 19:34:58.974588 25178 net.cpp:141] Setting up inception_5b/5x5
I0403 19:34:58.974620 25178 net.cpp:148] Top shape: 24 128 7 7 (150528)
I0403 19:34:58.974638 25178 net.cpp:156] Memory required for data: 1335327264
I0403 19:34:58.974658 25178 layer_factory.hpp:77] Creating layer inception_5b/relu_5x5
I0403 19:34:58.974680 25178 net.cpp:91] Creating Layer inception_5b/relu_5x5
I0403 19:34:58.974701 25178 net.cpp:425] inception_5b/relu_5x5 <- inception_5b/5x5
I0403 19:34:58.974719 25178 net.cpp:386] inception_5b/relu_5x5 -> inception_5b/5x5 (in-place)
I0403 19:34:58.974910 25178 net.cpp:141] Setting up inception_5b/relu_5x5
I0403 19:34:58.974937 25178 net.cpp:148] Top shape: 24 128 7 7 (150528)
I0403 19:34:58.974956 25178 net.cpp:156] Memory required for data: 1335929376
I0403 19:34:58.974969 25178 layer_factory.hpp:77] Creating layer inception_5b/pool
I0403 19:34:58.974992 25178 net.cpp:91] Creating Layer inception_5b/pool
I0403 19:34:58.975011 25178 net.cpp:425] inception_5b/pool <- inception_5a/output_inception_5a/output_0_split_3
I0403 19:34:58.975030 25178 net.cpp:399] inception_5b/pool -> inception_5b/pool
I0403 19:34:58.975102 25178 net.cpp:141] Setting up inception_5b/pool
I0403 19:34:58.975128 25178 net.cpp:148] Top shape: 24 832 7 7 (978432)
I0403 19:34:58.975144 25178 net.cpp:156] Memory required for data: 1339843104
I0403 19:34:58.975162 25178 layer_factory.hpp:77] Creating layer inception_5b/pool_proj
I0403 19:34:58.975184 25178 net.cpp:91] Creating Layer inception_5b/pool_proj
I0403 19:34:58.975204 25178 net.cpp:425] inception_5b/pool_proj <- inception_5b/pool
I0403 19:34:58.975227 25178 net.cpp:399] inception_5b/pool_proj -> inception_5b/pool_proj
I0403 19:34:58.977470 25178 net.cpp:141] Setting up inception_5b/pool_proj
I0403 19:34:58.977504 25178 net.cpp:148] Top shape: 24 128 7 7 (150528)
I0403 19:34:58.977521 25178 net.cpp:156] Memory required for data: 1340445216
I0403 19:34:58.977543 25178 layer_factory.hpp:77] Creating layer inception_5b/relu_pool_proj
I0403 19:34:58.977562 25178 net.cpp:91] Creating Layer inception_5b/relu_pool_proj
I0403 19:34:58.977579 25178 net.cpp:425] inception_5b/relu_pool_proj <- inception_5b/pool_proj
I0403 19:34:58.977601 25178 net.cpp:386] inception_5b/relu_pool_proj -> inception_5b/pool_proj (in-place)
I0403 19:34:58.977895 25178 net.cpp:141] Setting up inception_5b/relu_pool_proj
I0403 19:34:58.977926 25178 net.cpp:148] Top shape: 24 128 7 7 (150528)
I0403 19:34:58.977943 25178 net.cpp:156] Memory required for data: 1341047328
I0403 19:34:58.977959 25178 layer_factory.hpp:77] Creating layer inception_5b/output
I0403 19:34:58.977977 25178 net.cpp:91] Creating Layer inception_5b/output
I0403 19:34:58.978009 25178 net.cpp:425] inception_5b/output <- inception_5b/1x1
I0403 19:34:58.978030 25178 net.cpp:425] inception_5b/output <- inception_5b/3x3
I0403 19:34:58.978049 25178 net.cpp:425] inception_5b/output <- inception_5b/5x5
I0403 19:34:58.978068 25178 net.cpp:425] inception_5b/output <- inception_5b/pool_proj
I0403 19:34:58.978091 25178 net.cpp:399] inception_5b/output -> inception_5b/output
I0403 19:34:58.978143 25178 net.cpp:141] Setting up inception_5b/output
I0403 19:34:58.978174 25178 net.cpp:148] Top shape: 24 1024 7 7 (1204224)
I0403 19:34:58.978194 25178 net.cpp:156] Memory required for data: 1345864224
I0403 19:34:58.978210 25178 layer_factory.hpp:77] Creating layer pool5/7x7_s1
I0403 19:34:58.978229 25178 net.cpp:91] Creating Layer pool5/7x7_s1
I0403 19:34:58.978248 25178 net.cpp:425] pool5/7x7_s1 <- inception_5b/output
I0403 19:34:58.978276 25178 net.cpp:399] pool5/7x7_s1 -> pool5/7x7_s1
I0403 19:34:58.978490 25178 net.cpp:141] Setting up pool5/7x7_s1
I0403 19:34:58.978518 25178 net.cpp:148] Top shape: 24 1024 1 1 (24576)
I0403 19:34:58.978533 25178 net.cpp:156] Memory required for data: 1345962528
I0403 19:34:58.978549 25178 layer_factory.hpp:77] Creating layer pool5/drop_7x7_s1
I0403 19:34:58.978569 25178 net.cpp:91] Creating Layer pool5/drop_7x7_s1
I0403 19:34:58.978586 25178 net.cpp:425] pool5/drop_7x7_s1 <- pool5/7x7_s1
I0403 19:34:58.978607 25178 net.cpp:386] pool5/drop_7x7_s1 -> pool5/7x7_s1 (in-place)
I0403 19:34:58.978659 25178 net.cpp:141] Setting up pool5/drop_7x7_s1
I0403 19:34:58.978688 25178 net.cpp:148] Top shape: 24 1024 1 1 (24576)
I0403 19:34:58.978705 25178 net.cpp:156] Memory required for data: 1346060832
I0403 19:34:58.978721 25178 layer_factory.hpp:77] Creating layer loss3/classifier_plantvillage
I0403 19:34:58.978742 25178 net.cpp:91] Creating Layer loss3/classifier_plantvillage
I0403 19:34:58.978757 25178 net.cpp:425] loss3/classifier_plantvillage <- pool5/7x7_s1
I0403 19:34:58.978777 25178 net.cpp:399] loss3/classifier_plantvillage -> loss3/classifier_plantvillage
I0403 19:34:58.979190 25178 net.cpp:141] Setting up loss3/classifier_plantvillage
I0403 19:34:58.979219 25178 net.cpp:148] Top shape: 24 38 (912)
I0403 19:34:58.979236 25178 net.cpp:156] Memory required for data: 1346064480
I0403 19:34:58.979259 25178 layer_factory.hpp:77] Creating layer loss3/classifier_plantvillage_loss3/classifier_plantvillage_0_split
I0403 19:34:58.979285 25178 net.cpp:91] Creating Layer loss3/classifier_plantvillage_loss3/classifier_plantvillage_0_split
I0403 19:34:58.979305 25178 net.cpp:425] loss3/classifier_plantvillage_loss3/classifier_plantvillage_0_split <- loss3/classifier_plantvillage
I0403 19:34:58.979324 25178 net.cpp:399] loss3/classifier_plantvillage_loss3/classifier_plantvillage_0_split -> loss3/classifier_plantvillage_loss3/classifier_plantvillage_0_split_0
I0403 19:34:58.979348 25178 net.cpp:399] loss3/classifier_plantvillage_loss3/classifier_plantvillage_0_split -> loss3/classifier_plantvillage_loss3/classifier_plantvillage_0_split_1
I0403 19:34:58.979372 25178 net.cpp:399] loss3/classifier_plantvillage_loss3/classifier_plantvillage_0_split -> loss3/classifier_plantvillage_loss3/classifier_plantvillage_0_split_2
I0403 19:34:58.979393 25178 net.cpp:399] loss3/classifier_plantvillage_loss3/classifier_plantvillage_0_split -> loss3/classifier_plantvillage_loss3/classifier_plantvillage_0_split_3
I0403 19:34:58.979490 25178 net.cpp:141] Setting up loss3/classifier_plantvillage_loss3/classifier_plantvillage_0_split
I0403 19:34:58.979517 25178 net.cpp:148] Top shape: 24 38 (912)
I0403 19:34:58.979534 25178 net.cpp:148] Top shape: 24 38 (912)
I0403 19:34:58.979552 25178 net.cpp:148] Top shape: 24 38 (912)
I0403 19:34:58.979568 25178 net.cpp:148] Top shape: 24 38 (912)
I0403 19:34:58.979583 25178 net.cpp:156] Memory required for data: 1346079072
I0403 19:34:58.979598 25178 layer_factory.hpp:77] Creating layer loss1/loss
I0403 19:34:58.979621 25178 net.cpp:91] Creating Layer loss1/loss
I0403 19:34:58.979641 25178 net.cpp:425] loss1/loss <- loss1/classifier_plantvillage_loss1/classifier_plantvillage_0_split_0
I0403 19:34:58.979674 25178 net.cpp:425] loss1/loss <- label_data_1_split_0
…
