…
I0403 19:48:41.786224 25977 net.cpp:313] The NetState phase (1) differed from the phase (0) specified by a rule in layer data
I0403 19:48:41.787377 25977 net.cpp:49] Initializing net from parameters: 
state {
  phase: TEST
}
layer {
  name: "data"
  type: "Data"
  top: "data"
  top: "label"
  include {
    phase: TEST
  }
  transform_param {
    mirror: false
    crop_size: 224
    mean_file: "/home/mohanty/data/final_dataset/lmdb/grayscale-80-20/mean.binaryproto"
  }
  data_param {
    source: "/home/mohanty/data/final_dataset/lmdb/grayscale-80-20/test_db"
    batch_size: 24
    backend: LMDB
  }
}
layer {
  name: "conv1/7x7_s2"
  type: "Convolution"
  bottom: "data"
  top: "conv1/7x7_s2"
  param {
    lr_mult: 1
    decay_mult: 1
  }
  param {
    lr_mult: 2
    decay_mult: 0
  }
  convolution_param {
    num_output: 64
    pad: 3
    kernel_size: 7
    stride: 2
    weight_filler {
      type: "xavier"
      std: 0.1
    }
    bias_filler {
      type: "constant"
      value: 0.2
    }
  }
}
layer {
  name: "conv1/relu_7x7"
  type: "ReLU"
  bottom: "conv1/7x7_s2"
  top: "conv1/7x7_s2"
}
layer {
  name: "pool1/3x3_s2"
  type: "Pooling"
  bottom: "conv1/7x7_s2"
  top: "pool1/3x3_s2"
  pooling_param {
    pool: MAX
    kernel_size: 3
    stride: 2
  }
}
layer {
  name: "pool1/norm1"
  type: "LRN"
  bottom: "pool1/3x3_s2"
  top: "pool1/norm1"
  lrn_param {
    local_size: 5
    alpha: 0.0001
    beta: 0.75
  }
}
layer {
  name: "conv2/3x3_reduce"
  type: "Convolution"
  bottom: "pool1/norm1"
  top: "conv2/3x3_reduce"
  param {
    lr_mult: 1
    decay_mult: 1
  }
  param {
    lr_mult: 2
    decay_mult: 0
  }
  convolution_param {
    num_output: 64
    kernel_size: 1
    weight_filler {
      type: "xavier"
      std: 0.1
    }
    bias_filler {
      type: "constant"
      value: 0.2
    }
  }
}
layer {
  name: "conv2/relu_3x3_reduce"
  type: "ReLU"
  bottom: "conv2/3x3_reduce"
  top: "conv2/3x3_reduce"
}
layer {
  name: "conv2/3x3"
  type: "Convolution"
  bottom: "conv2/3x3_reduce"
  top: "conv2/3x3"
  param {
    lr_mult: 1
    decay_mult: 1
  }
  param {
    lr_mult: 2
    decay_mult: 0
  }
  convolution_param {
    num_output: 192
    pad: 1
    kernel_size: 3
    weight_filler {
      type: "xavier"
      std: 0.03
    }
    bias_filler {
      type: "constant"
      value: 0.2
    }
  }
}
layer {
  name: "conv2/relu_3x3"
  type: "ReLU"
  bottom: "conv2/3x3"
  top: "conv2/3x3"
}
layer {
  name: "conv2/norm2"
  type: "LRN"
  bottom: "conv2/3x3"
  top: "conv2/norm2"
  lrn_param {
    local_size: 5
    alpha: 0.0001
    beta: 0.75
  }
}
layer {
  name: "pool2/3x3_s2"
  type: "Pooling"
  bottom: "conv2/norm2"
  top: "pool2/3x3_s2"
  pooling_param {
    pool: MAX
    kernel_size: 3
    stride: 2
  }
}
layer {
  name: "inception_3a/1x1"
  type: "Convolution"
  bottom: "pool2/3x3_s2"
  top: "inception_3a/1x1"
  param {
    lr_mult: 1
    decay_mult: 1
  }
  param {
    lr_mult: 2
    decay_mult: 0
  }
  convolution_param {
    num_output: 64
    kernel_size: 1
    weight_filler {
      type: "xavier"
      std: 0.03
    }
    bias_filler {
      type: "constant"
      value: 0.2
    }
  }
}
layer {
  name: "inception_3a/relu_1x1"
  type: "ReLU"
  bottom: "inception_3a/1x1"
  top: "inception_3a/1x1"
}
layer {
  name: "inception_3a/3x3_reduce"
  type: "Convolution"
  bottom: "pool2/3x3_s2"
  top: "inception_3a/3x3_reduce"
  param {
    lr_mult: 1
    decay_mult: 1
  }
  param {
    lr_mult: 2
    decay_mult: 0
  }
  convolution_param {
    num_output: 96
    kernel_size: 1
    weight_filler {
      type: "xavier"
      std: 0.09
    }
    bias_filler {
      type: "constant"
      value: 0.2
    }
  }
}
layer {
  name: "inception_3a/relu_3x3_reduce"
  type: "ReLU"
  bottom: "inception_3a/3x3_reduce"
  top: "inception_3a/3x3_reduce"
}
layer {
  name: "inception_3a/3x3"
  type: "Convolution"
  bottom: "inception_3a/3x3_reduce"
  top: "inception_3a/3x3"
  param {
    lr_mult: 1
    decay_mult: 1
  }
  param {
    lr_mult: 2
    decay_mult: 0
  }
  convolution_param {
    num_output: 128
    pad: 1
    kernel_size: 3
    weight_filler {
      type: "xavier"
      std: 0.03
    }
    bias_filler {
      type: "constant"
      value: 0.2
    }
  }
}
layer {
  name: "inception_3a/relu_3x3"
  type: "ReLU"
  bottom: "inception_3a/3x3"
  top: "inception_3a/3x3"
}
layer {
  name: "inception_3a/5x5_reduce"
  type: "Convolution"
  bottom: "pool2/3x3_s2"
  top: "inception_3a/5x5_reduce"
  param {
    lr_mult: 1
    decay_mult: 1
  }
  param {
    lr_mult: 2
    decay_mult: 0
  }
  convolution_param {
    num_output: 16
    kernel_size: 1
    weight_filler {
      type: "xavier"
      std: 0.2
    }
    bias_filler {
      type: "constant"
      value: 0.2
    }
  }
}
layer {
  name: "inception_3a/relu_5x5_reduce"
  type: "ReLU"
  bottom: "inception_3a/5x5_reduce"
  top: "inception_3a/5x5_reduce"
}
layer {
  name: "inception_3a/5x5"
  type: "Convolution"
  bottom: "inception_3a/5x5_reduce"
  top: "inception_3a/5x5"
  param {
    lr_mult: 1
    decay_mult: 1
  }
  param {
    lr_mult: 2
    decay_mult: 0
  }
  convolution_param {
    num_output: 32
    pad: 2
    kernel_size: 5
    weight_filler {
      type: "xavier"
      std: 0.03
    }
    bias_filler {
      type: "constant"
      value: 0.2
    }
  }
}
layer {
  name: "inception_3a/relu_5x5"
  type: "ReLU"
  bottom: "inception_3a/5x5"
  top: "inception_3a/5x5"
}
layer {
  name: "inception_3a/pool"
  type: "Pooling"
  bottom: "pool2/3x3_s2"
  top: "inception_3a/pool"
  pooling_param {
    pool: MAX
    kernel_size: 3
    stride: 1
    pad: 1
  }
}
layer {
  name: "inception_3a/pool_proj"
  type: "Convolution"
  bottom: "inception_3a/pool"
  top: "inception_3a/pool_proj"
  param {
    lr_mult: 1
    decay_mult: 1
  }
  param {
    lr_mult: 2
    decay_mult: 0
  }
  convolution_param {
    num_output: 32
    kernel_size: 1
    weight_filler {
      type: "xavier"
      std: 0.1
    }
    bias_filler {
      type: "constant"
      value: 0.2
    }
  }
}
layer {
  name: "inception_3a/relu_pool_proj"
  type: "ReLU"
  bottom: "inception_3a/pool_proj"
  top: "inception_3a/pool_proj"
}
layer {
  name: "inception_3a/output"
  type: "Concat"
  bottom: "inception_3a/1x1"
  bottom: "inception_3a/3x3"
  bottom: "inception_3a/5x5"
  bottom: "inception_3a/pool_proj"
  top: "inception_3a/output"
}
layer {
  name: "inception_3b/1x1"
  type: "Convolution"
  bottom: "inception_3a/output"
  top: "inception_3b/1x1"
  param {
    lr_mult: 1
    decay_mult: 1
  }
  param {
    lr_mult: 2
    decay_mult: 0
  }
  convolution_param {
    num_output: 128
    kernel_size: 1
    weight_filler {
      type: "xavier"
      std: 0.03
    }
    bias_filler {
      type: "constant"
      value: 0.2
    }
  }
}
layer {
  name: "inception_3b/relu_1x1"
  type: "ReLU"
  bottom: "inception_3b/1x1"
  top: "inception_3b/1x1"
}
layer {
  name: "inception_3b/3x3_reduce"
  type: "Convolution"
  bottom: "inception_3a/output"
  top: "inception_3b/3x3_reduce"
  param {
    lr_mult: 1
    decay_mult: 1
  }
  param {
    lr_mult: 2
    decay_mult: 0
  }
  convolution_param {
    num_output: 128
    kernel_size: 1
    weight_filler {
      type: "xavier"
      std: 0.09
    }
    bias_filler {
      type: "constant"
      value: 0.2
    }
  }
}
layer {
  name: "inception_3b/relu_3x3_reduce"
  type: "ReLU"
  bottom: "inception_3b/3x3_reduce"
  top: "inception_3b/3x3_reduce"
}
layer {
  name: "inception_3b/3x3"
  type: "Convolution"
  bottom: "inception_3b/3x3_reduce"
  top: "inception_3b/3x3"
  param {
    lr_mult: 1
    decay_mult: 1
  }
  param {
    lr_mult: 2
    decay_mult: 0
  }
  convolution_param {
    num_output: 192
    pad: 1
    kernel_size: 3
    weight_filler {
      type: "xavier"
      std: 0.03
    }
    bias_filler {
      type: "constant"
      value: 0.2
    }
  }
}
layer {
  name: "inception_3b/relu_3x3"
  type: "ReLU"
  bottom: "inception_3b/3x3"
  top: "inception_3b/3x3"
}
layer {
  name: "inception_3b/5x5_reduce"
  type: "Convolution"
  bottom: "inception_3a/output"
  top: "inception_3b/5x5_reduce"
  param {
    lr_mult: 1
    decay_mult: 1
  }
  param {
    lr_mult: 2
    decay_mult: 0
  }
  convolution_param {
    num_output: 32
    kernel_size: 1
    weight_filler {
      type: "xavier"
      std: 0.2
    }
    bias_filler {
      type: "constant"
      value: 0.2
    }
  }
}
layer {
  name: "inception_3b/relu_5x5_reduce"
  type: "ReLU"
  bottom: "inception_3b/5x5_reduce"
  top: "inception_3b/5x5_reduce"
}
layer {
  name: "inception_3b/5x5"
  type: "Convolution"
  bottom: "inception_3b/5x5_reduce"
  top: "inception_3b/5x5"
  param {
    lr_mult: 1
    decay_mult: 1
  }
  param {
    lr_mult: 2
    decay_mult: 0
  }
  convolution_param {
    num_output: 96
    pad: 2
    kernel_size: 5
    weight_filler {
      type: "xavier"
      std: 0.03
    }
    bias_filler {
      type: "constant"
      value: 0.2
    }
  }
}
layer {
  name: "inception_3b/relu_5x5"
  type: "ReLU"
  bottom: "inception_3b/5x5"
  top: "inception_3b/5x5"
}
layer {
  name: "inception_3b/pool"
  type: "Pooling"
  bottom: "inception_3a/output"
  top: "inception_3b/pool"
  pooling_param {
    pool: MAX
    kernel_size: 3
    stride: 1
    pad: 1
  }
}
layer {
  name: "inception_3b/pool_proj"
  type: "Convolution"
  bottom: "inception_3b/pool"
  top: "inception_3b/pool_proj"
  param {
    lr_mult: 1
    decay_mult: 1
  }
  param {
    lr_mult: 2
    decay_mult: 0
  }
  convolution_param {
    num_output: 64
    kernel_size: 1
    weight_filler {
      type: "xavier"
      std: 0.1
    }
    bias_filler {
      type: "constant"
      value: 0.2
    }
  }
}
layer {
  name: "inception_3b/relu_pool_proj"
  type: "ReLU"
  bottom: "inception_3b/pool_proj"
  top: "inception_3b/pool_proj"
}
layer {
  name: "inception_3b/output"
  type: "Concat"
  bottom: "inception_3b/1x1"
  bottom: "inception_3b/3x3"
  bottom: "inception_3b/5x5"
  bottom: "inception_3b/pool_proj"
  top: "inception_3b/output"
}
layer {
  name: "pool3/3x3_s2"
  type: "Pooling"
  bottom: "inception_3b/output"
  top: "pool3/3x3_s2"
  pooling_param {
    pool: MAX
    kernel_size: 3
    stride: 2
  }
}
layer {
  name: "inception_4a/1x1"
  type: "Convolution"
  bottom: "pool3/3x3_s2"
  top: "inception_4a/1x1"
  param {
    lr_mult: 1
    decay_mult: 1
  }
  param {
    lr_mult: 2
    decay_mult: 0
  }
  convolution_param {
    num_output: 192
    kernel_size: 1
    weight_filler {
      type: "xavier"
      std: 0.03
    }
    bias_filler {
      type: "constant"
      value: 0.2
    }
  }
}
layer {
  name: "inception_4a/relu_1x1"
  type: "ReLU"
  bottom: "inception_4a/1x1"
  top: "inception_4a/1x1"
}
layer {
  name: "inception_4a/3x3_reduce"
  type: "Convolution"
  bottom: "pool3/3x3_s2"
  top: "inception_4a/3x3_reduce"
  param {
    lr_mult: 1
    decay_mult: 1
  }
  param {
    lr_mult: 2
    decay_mult: 0
  }
  convolution_param {
    num_output: 96
    kernel_size: 1
    weight_filler {
      type: "xavier"
      std: 0.09
    }
    bias_filler {
      type: "constant"
      value: 0.2
    }
  }
}
layer {
  name: "inception_4a/relu_3x3_reduce"
  type: "ReLU"
  bottom: "inception_4a/3x3_reduce"
  top: "inception_4a/3x3_reduce"
}
layer {
  name: "inception_4a/3x3"
  type: "Convolution"
  bottom: "inception_4a/3x3_reduce"
  top: "inception_4a/3x3"
  param {
    lr_mult: 1
    decay_mult: 1
  }
  param {
    lr_mult: 2
    decay_mult: 0
  }
  convolution_param {
    num_output: 208
    pad: 1
    kernel_size: 3
    weight_filler {
      type: "xavier"
      std: 0.03
    }
    bias_filler {
      type: "constant"
      value: 0.2
    }
  }
}
layer {
  name: "inception_4a/relu_3x3"
  type: "ReLU"
  bottom: "inception_4a/3x3"
  top: "inception_4a/3x3"
}
layer {
  name: "inception_4a/5x5_reduce"
  type: "Convolution"
  bottom: "pool3/3x3_s2"
  top: "inception_4a/5x5_reduce"
  param {
    lr_mult: 1
    decay_mult: 1
  }
  param {
    lr_mult: 2
    decay_mult: 0
  }
  convolution_param {
    num_output: 16
    kernel_size: 1
    weight_filler {
      type: "xavier"
      std: 0.2
    }
    bias_filler {
      type: "constant"
      value: 0.2
    }
  }
}
layer {
  name: "inception_4a/relu_5x5_reduce"
  type: "ReLU"
  bottom: "inception_4a/5x5_reduce"
  top: "inception_4a/5x5_reduce"
}
layer {
  name: "inception_4a/5x5"
  type: "Convolution"
  bottom: "inception_4a/5x5_reduce"
  top: "inception_4a/5x5"
  param {
    lr_mult: 1
    decay_mult: 1
  }
  param {
    lr_mult: 2
    decay_mult: 0
  }
  convolution_param {
    num_output: 48
    pad: 2
    kernel_size: 5
    weight_filler {
      type: "xavier"
      std: 0.03
    }
    bias_filler {
      type: "constant"
      value: 0.2
    }
  }
}
layer {
  name: "inception_4a/relu_5x5"
  type: "ReLU"
  bottom: "inception_4a/5x5"
  top: "inception_4a/5x5"
}
layer {
  name: "inception_4a/pool"
  type: "Pooling"
  bottom: "pool3/3x3_s2"
  top: "inception_4a/pool"
  pooling_param {
    pool: MAX
    kernel_size: 3
    stride: 1
    pad: 1
  }
}
layer {
  name: "inception_4a/pool_proj"
  type: "Convolution"
  bottom: "inception_4a/pool"
  top: "inception_4a/pool_proj"
  param {
    lr_mult: 1
    decay_mult: 1
  }
  param {
    lr_mult: 2
    decay_mult: 0
  }
  convolution_param {
    num_output: 64
    kernel_size: 1
    weight_filler {
      type: "xavier"
      std: 0.1
    }
    bias_filler {
      type: "constant"
      value: 0.2
    }
  }
}
layer {
  name: "inception_4a/relu_pool_proj"
  type: "ReLU"
  bottom: "inception_4a/pool_proj"
  top: "inception_4a/pool_proj"
}
layer {
  name: "inception_4a/output"
  type: "Concat"
  bottom: "inception_4a/1x1"
  bottom: "inception_4a/3x3"
  bottom: "inception_4a/5x5"
  bottom: "inception_4a/pool_proj"
  top: "inception_4a/output"
}
layer {
  name: "loss1/ave_pool"
  type: "Pooling"
  bottom: "inception_4a/output"
  top: "loss1/ave_pool"
  pooling_param {
    pool: AVE
    kernel_size: 5
    stride: 3
  }
}
layer {
  name: "loss1/conv"
  type: "Convolution"
  bottom: "loss1/ave_pool"
  top: "loss1/conv"
  param {
    lr_mult: 1
    decay_mult: 1
  }
  param {
    lr_mult: 2
    decay_mult: 0
  }
  convolution_param {
    num_output: 128
    kernel_size: 1
    weight_filler {
      type: "xavier"
      std: 0.08
    }
    bias_filler {
      type: "constant"
      value: 0.2
    }
  }
}
layer {
  name: "loss1/relu_conv"
  type: "ReLU"
  bottom: "loss1/conv"
  top: "loss1/conv"
}
layer {
  name: "loss1/fc"
  type: "InnerProduct"
  bottom: "loss1/conv"
  top: "loss1/fc"
  param {
    lr_mult: 1
    decay_mult: 1
  }
  param {
    lr_mult: 2
    decay_mult: 0
  }
  inner_product_param {
    num_output: 1024
    weight_filler {
      type: "xavier"
      std: 0.02
    }
    bias_filler {
      type: "constant"
      value: 0.2
    }
  }
}
layer {
  name: "loss1/relu_fc"
  type: "ReLU"
  bottom: "loss1/fc"
  top: "loss1/fc"
}
layer {
  name: "loss1/drop_fc"
  type: "Dropout"
  bottom: "loss1/fc"
  top: "loss1/fc"
  dropout_param {
    dropout_ratio: 0.7
  }
}
layer {
  name: "loss1/classifier_plantvillage"
  type: "InnerProduct"
  bottom: "loss1/fc"
  top: "loss1/classifier_plantvillage"
  param {
    lr_mult: 1
    decay_mult: 1
  }
  param {
    lr_mult: 2
    decay_mult: 0
  }
  inner_product_param {
    num_output: 38
    weight_filler {
      type: "xavier"
      std: 0.0009765625
    }
    bias_filler {
      type: "constant"
      value: 0
    }
  }
}
layer {
  name: "inception_4b/1x1"
  type: "Convolution"
  bottom: "inception_4a/output"
  top: "inception_4b/1x1"
  param {
    lr_mult: 1
    decay_mult: 1
  }
  param {
    lr_mult: 2
    decay_mult: 0
  }
  convolution_param {
    num_output: 160
    kernel_size: 1
    weight_filler {
      type: "xavier"
      std: 0.03
    }
    bias_filler {
      type: "constant"
      value: 0.2
    }
  }
}
layer {
  name: "inception_4b/relu_1x1"
  type: "ReLU"
  bottom: "inception_4b/1x1"
  top: "inception_4b/1x1"
}
layer {
  name: "inception_4b/3x3_reduce"
  type: "Convolution"
  bottom: "inception_4a/output"
  top: "inception_4b/3x3_reduce"
  param {
    lr_mult: 1
    decay_mult: 1
  }
  param {
    lr_mult: 2
    decay_mult: 0
  }
  convolution_param {
    num_output: 112
    kernel_size: 1
    weight_filler {
      type: "xavier"
      std: 0.09
    }
    bias_filler {
      type: "constant"
      value: 0.2
    }
  }
}
layer {
  name: "inception_4b/relu_3x3_reduce"
  type: "ReLU"
  bottom: "inception_4b/3x3_reduce"
  top: "inception_4b/3x3_reduce"
}
layer {
  name: "inception_4b/3x3"
  type: "Convolution"
  bottom: "inception_4b/3x3_reduce"
  top: "inception_4b/3x3"
  param {
    lr_mult: 1
    decay_mult: 1
  }
  param {
    lr_mult: 2
    decay_mult: 0
  }
  convolution_param {
    num_output: 224
    pad: 1
    kernel_size: 3
    weight_filler {
      type: "xavier"
      std: 0.03
    }
    bias_filler {
      type: "constant"
      value: 0.2
    }
  }
}
layer {
  name: "inception_4b/relu_3x3"
  type: "ReLU"
  bottom: "inception_4b/3x3"
  top: "inception_4b/3x3"
}
layer {
  name: "inception_4b/5x5_reduce"
  type: "Convolution"
  bottom: "inception_4a/output"
  top: "inception_4b/5x5_reduce"
  param {
    lr_mult: 1
    decay_mult: 1
  }
  param {
    lr_mult: 2
    decay_mult: 0
  }
  convolution_param {
    num_output: 24
    kernel_size: 1
    weight_filler {
      type: "xavier"
      std: 0.2
    }
    bias_filler {
      type: "constant"
      value: 0.2
    }
  }
}
layer {
  name: "inception_4b/relu_5x5_reduce"
  type: "ReLU"
  bottom: "inception_4b/5x5_reduce"
  top: "inception_4b/5x5_reduce"
}
layer {
  name: "inception_4b/5x5"
  type: "Convolution"
  bottom: "inception_4b/5x5_reduce"
  top: "inception_4b/5x5"
  param {
    lr_mult: 1
    decay_mult: 1
  }
  param {
    lr_mult: 2
    decay_mult: 0
  }
  convolution_param {
    num_output: 64
    pad: 2
    kernel_size: 5
    weight_filler {
      type: "xavier"
      std: 0.03
    }
    bias_filler {
      type: "constant"
      value: 0.2
    }
  }
}
layer {
  name: "inception_4b/relu_5x5"
  type: "ReLU"
  bottom: "inception_4b/5x5"
  top: "inception_4b/5x5"
}
layer {
  name: "inception_4b/pool"
  type: "Pooling"
  bottom: "inception_4a/output"
  top: "inception_4b/pool"
  pooling_param {
    pool: MAX
    kernel_size: 3
    stride: 1
    pad: 1
  }
}
layer {
  name: "inception_4b/pool_proj"
  type: "Convolution"
  bottom: "inception_4b/pool"
  top: "inception_4b/pool_proj"
  param {
    lr_mult: 1
    decay_mult: 1
  }
  param {
    lr_mult: 2
    decay_mult: 0
  }
  convolution_param {
    num_output: 64
    kernel_size: 1
    weight_filler {
      type: "xavier"
      std: 0.1
    }
    bias_filler {
      type: "constant"
      value: 0.2
    }
  }
}
layer {
  name: "inception_4b/relu_pool_proj"
  type: "ReLU"
  bottom: "inception_4b/pool_proj"
  top: "inception_4b/pool_proj"
}
layer {
  name: "inception_4b/output"
  type: "Concat"
  bottom: "inception_4b/1x1"
  bottom: "inception_4b/3x3"
  bottom: "inception_4b/5x5"
  bottom: "inception_4b/pool_proj"
  top: "inception_4b/output"
}
layer {
  name: "inception_4c/1x1"
  type: "Convolution"
  bottom: "inception_4b/output"
  top: "inception_4c/1x1"
  param {
    lr_mult: 1
    decay_mult: 1
  }
  param {
    lr_mult: 2
    decay_mult: 0
  }
  convolution_param {
    num_output: 128
    kernel_size: 1
    weight_filler {
      type: "xavier"
      std: 0.03
    }
    bias_filler {
      type: "constant"
      value: 0.2
    }
  }
}
layer {
  name: "inception_4c/relu_1x1"
  type: "ReLU"
  bottom: "inception_4c/1x1"
  top: "inception_4c/1x1"
}
layer {
  name: "inception_4c/3x3_reduce"
  type: "Convolution"
  bottom: "inception_4b/output"
  top: "inception_4c/3x3_reduce"
  param {
    lr_mult: 1
    decay_mult: 1
  }
  param {
    lr_mult: 2
    decay_mult: 0
  }
  convolution_param {
    num_output: 128
    kernel_size: 1
    weight_filler {
      type: "xavier"
      std: 0.09
    }
    bias_filler {
      type: "constant"
      value: 0.2
    }
  }
}
layer {
  name: "inception_4c/relu_3x3_reduce"
  type: "ReLU"
  bottom: "inception_4c/3x3_reduce"
  top: "inception_4c/3x3_reduce"
}
layer {
  name: "inception_4c/3x3"
  type: "Convolution"
  bottom: "inception_4c/3x3_reduce"
  top: "inception_4c/3x3"
  param {
    lr_mult: 1
    decay_mult: 1
  }
  param {
    lr_mult: 2
    decay_mult: 0
  }
  convolution_param {
    num_output: 256
    pad: 1
    kernel_size: 3
    weight_filler {
      type: "xavier"
      std: 0.03
    }
    bias_filler {
      type: "constant"
      value: 0.2
    }
  }
}
layer {
  name: "inception_4c/relu_3x3"
  type: "ReLU"
  bottom: "inception_4c/3x3"
  top: "inception_4c/3x3"
}
layer {
  name: "inception_4c/5x5_reduce"
  type: "Convolution"
  bottom: "inception_4b/output"
  top: "inception_4c/5x5_reduce"
  param {
    lr_mult: 1
    decay_mult: 1
  }
  param {
    lr_mult: 2
    decay_mult: 0
  }
  convolution_param {
    num_output: 24
    kernel_size: 1
    weight_filler {
      type: "xavier"
      std: 0.2
    }
    bias_filler {
      type: "constant"
      value: 0.2
    }
  }
}
layer {
  name: "inception_4c/relu_5x5_reduce"
  type: "ReLU"
  bottom: "inception_4c/5x5_reduce"
  top: "inception_4c/5x5_reduce"
}
layer {
  name: "inception_4c/5x5"
  type: "Convolution"
  bottom: "inception_4c/5x5_reduce"
  top: "inception_4c/5x5"
  param {
    lr_mult: 1
    decay_mult: 1
  }
  param {
    lr_mult: 2
    decay_mult: 0
  }
  convolution_param {
    num_output: 64
    pad: 2
    kernel_size: 5
    weight_filler {
      type: "xavier"
      std: 0.03
    }
    bias_filler {
      type: "constant"
      value: 0.2
    }
  }
}
layer {
  name: "inception_4c/relu_5x5"
  type: "ReLU"
  bottom: "inception_4c/5x5"
  top: "inception_4c/5x5"
}
layer {
  name: "inception_4c/pool"
  type: "Pooling"
  bottom: "inception_4b/output"
  top: "inception_4c/pool"
  pooling_param {
    pool: MAX
    kernel_size: 3
    stride: 1
    pad: 1
  }
}
layer {
  name: "inception_4c/pool_proj"
  type: "Convolution"
  bottom: "inception_4c/pool"
  top: "inception_4c/pool_proj"
  param {
    lr_mult: 1
    decay_mult: 1
  }
  param {
    lr_mult: 2
    decay_mult: 0
  }
  convolution_param {
    num_output: 64
    kernel_size: 1
    weight_filler {
      type: "xavier"
      std: 0.1
    }
    bias_filler {
      type: "constant"
      value: 0.2
    }
  }
}
layer {
  name: "inception_4c/relu_pool_proj"
  type: "ReLU"
  bottom: "inception_4c/pool_proj"
  top: "inception_4c/pool_proj"
}
layer {
  name: "inception_4c/output"
  type: "Concat"
  bottom: "inception_4c/1x1"
  bottom: "inception_4c/3x3"
  bottom: "inception_4c/5x5"
  bottom: "inception_4c/pool_proj"
  top: "inception_4c/output"
}
layer {
  name: "inception_4d/1x1"
  type: "Convolution"
  bottom: "inception_4c/output"
  top: "inception_4d/1x1"
  param {
    lr_mult: 1
    decay_mult: 1
  }
  param {
    lr_mult: 2
    decay_mult: 0
  }
  convolution_param {
    num_output: 112
    kernel_size: 1
    weight_filler {
      type: "xavier"
      std: 0.03
    }
    bias_filler {
      type: "constant"
      value: 0.2
    }
  }
}
layer {
  name: "inception_4d/relu_1x1"
  type: "ReLU"
  bottom: "inception_4d/1x1"
  top: "inception_4d/1x1"
}
layer {
  name: "inception_4d/3x3_reduce"
  type: "Convolution"
  bottom: "inception_4c/output"
  top: "inception_4d/3x3_reduce"
  param {
    lr_mult: 1
    decay_mult: 1
  }
  param {
    lr_mult: 2
    decay_mult: 0
  }
  convolution_param {
    num_output: 144
    kernel_size: 1
    weight_filler {
      type: "xavier"
      std: 0.09
    }
    bias_filler {
      type: "constant"
      value: 0.2
    }
  }
}
layer {
  name: "inception_4d/relu_3x3_reduce"
  type: "ReLU"
  bottom: "inception_4d/3x3_reduce"
  top: "inception_4d/3x3_reduce"
}
layer {
  name: "inception_4d/3x3"
  type: "Convolution"
  bottom: "inception_4d/3x3_reduce"
  top: "inception_4d/3x3"
  param {
    lr_mult: 1
    decay_mult: 1
  }
  param {
    lr_mult: 2
    decay_mult: 0
  }
  convolution_param {
    num_output: 288
    pad: 1
    kernel_size: 3
    weight_filler {
      type: "xavier"
      std: 0.03
    }
    bias_filler {
      type: "constant"
      value: 0.2
    }
  }
}
layer {
  name: "inception_4d/relu_3x3"
  type: "ReLU"
  bottom: "inception_4d/3x3"
  top: "inception_4d/3x3"
}
layer {
  name: "inception_4d/5x5_reduce"
  type: "Convolution"
  bottom: "inception_4c/output"
  top: "inception_4d/5x5_reduce"
  param {
    lr_mult: 1
    decay_mult: 1
  }
  param {
    lr_mult: 2
    decay_mult: 0
  }
  convolution_param {
    num_output: 32
    kernel_size: 1
    weight_filler {
      type: "xavier"
      std: 0.2
    }
    bias_filler {
      type: "constant"
      value: 0.2
    }
  }
}
layer {
  name: "inception_4d/relu_5x5_reduce"
  type: "ReLU"
  bottom: "inception_4d/5x5_reduce"
  top: "inception_4d/5x5_reduce"
}
layer {
  name: "inception_4d/5x5"
  type: "Convolution"
  bottom: "inception_4d/5x5_reduce"
  top: "inception_4d/5x5"
  param {
    lr_mult: 1
    decay_mult: 1
  }
  param {
    lr_mult: 2
    decay_mult: 0
  }
  convolution_param {
    num_output: 64
    pad: 2
    kernel_size: 5
    weight_filler {
      type: "xavier"
      std: 0.03
    }
    bias_filler {
      type: "constant"
      value: 0.2
    }
  }
}
layer {
  name: "inception_4d/relu_5x5"
  type: "ReLU"
  bottom: "inception_4d/5x5"
  top: "inception_4d/5x5"
}
layer {
  name: "inception_4d/pool"
  type: "Pooling"
  bottom: "inception_4c/output"
  top: "inception_4d/pool"
  pooling_param {
    pool: MAX
    kernel_size: 3
    stride: 1
    pad: 1
  }
}
layer {
  name: "inception_4d/pool_proj"
  type: "Convolution"
  bottom: "inception_4d/pool"
  top: "inception_4d/pool_proj"
  param {
    lr_mult: 1
    decay_mult: 1
  }
  param {
    lr_mult: 2
    decay_mult: 0
  }
  convolution_param {
    num_output: 64
    kernel_size: 1
    weight_filler {
      type: "xavier"
      std: 0.1
    }
    bias_filler {
      type: "constant"
      value: 0.2
    }
  }
}
layer {
  name: "inception_4d/relu_pool_proj"
  type: "ReLU"
  bottom: "inception_4d/pool_proj"
  top: "inception_4d/pool_proj"
}
layer {
  name: "inception_4d/output"
  type: "Concat"
  bottom: "inception_4d/1x1"
  bottom: "inception_4d/3x3"
  bottom: "inception_4d/5x5"
  bottom: "inception_4d/pool_proj"
  top: "inception_4d/output"
}
layer {
  name: "loss2/ave_pool"
  type: "Pooling"
  bottom: "inception_4d/output"
  top: "loss2/ave_pool"
  pooling_param {
    pool: AVE
    kernel_size: 5
    stride: 3
  }
}
layer {
  name: "loss2/conv"
  type: "Convolution"
  bottom: "loss2/ave_pool"
  top: "loss2/conv"
  param {
    lr_mult: 1
    decay_mult: 1
  }
  param {
    lr_mult: 2
    decay_mult: 0
  }
  convolution_param {
    num_output: 128
    kernel_size: 1
    weight_filler {
      type: "xavier"
      std: 0.08
    }
    bias_filler {
      type: "constant"
      value: 0.2
    }
  }
}
layer {
  name: "loss2/relu_conv"
  type: "ReLU"
  bottom: "loss2/conv"
  top: "loss2/conv"
}
layer {
  name: "loss2/fc"
  type: "InnerProduct"
  bottom: "loss2/conv"
  top: "loss2/fc"
  param {
    lr_mult: 1
    decay_mult: 1
  }
  param {
    lr_mult: 2
    decay_mult: 0
  }
  inner_product_param {
    num_output: 1024
    weight_filler {
      type: "xavier"
      std: 0.02
    }
    bias_filler {
      type: "constant"
      value: 0.2
    }
  }
}
layer {
  name: "loss2/relu_fc"
  type: "ReLU"
  bottom: "loss2/fc"
  top: "loss2/fc"
}
layer {
  name: "loss2/drop_fc"
  type: "Dropout"
  bottom: "loss2/fc"
  top: "loss2/fc"
  dropout_param {
    dropout_ratio: 0.7
  }
}
layer {
  name: "loss2/classifier_plantvillage"
  type: "InnerProduct"
  bottom: "loss2/fc"
  top: "loss2/classifier_plantvillage"
  param {
    lr_mult: 1
    decay_mult: 1
  }
  param {
    lr_mult: 2
    decay_mult: 0
  }
  inner_product_param {
    num_output: 38
    weight_filler {
      type: "xavier"
      std: 0.0009765625
    }
    bias_filler {
      type: "constant"
      value: 0
    }
  }
}
layer {
  name: "inception_4e/1x1"
  type: "Convolution"
  bottom: "inception_4d/output"
  top: "inception_4e/1x1"
  param {
    lr_mult: 1
    decay_mult: 1
  }
  param {
    lr_mult: 2
    decay_mult: 0
  }
  convolution_param {
    num_output: 256
    kernel_size: 1
    weight_filler {
      type: "xavier"
      std: 0.03
    }
    bias_filler {
      type: "constant"
      value: 0.2
    }
  }
}
layer {
  name: "inception_4e/relu_1x1"
  type: "ReLU"
  bottom: "inception_4e/1x1"
  top: "inception_4e/1x1"
}
layer {
  name: "inception_4e/3x3_reduce"
  type: "Convolution"
  bottom: "inception_4d/output"
  top: "inception_4e/3x3_reduce"
  param {
    lr_mult: 1
    decay_mult: 1
  }
  param {
    lr_mult: 2
    decay_mult: 0
  }
  convolution_param {
    num_output: 160
    kernel_size: 1
    weight_filler {
      type: "xavier"
      std: 0.09
    }
    bias_filler {
      type: "constant"
      value: 0.2
    }
  }
}
layer {
  name: "inception_4e/relu_3x3_reduce"
  type: "ReLU"
  bottom: "inception_4e/3x3_reduce"
  top: "inception_4e/3x3_reduce"
}
layer {
  name: "inception_4e/3x3"
  type: "Convolution"
  bottom: "inception_4e/3x3_reduce"
  top: "inception_4e/3x3"
  param {
    lr_mult: 1
    decay_mult: 1
  }
  param {
    lr_mult: 2
    decay_mult: 0
  }
  convolution_param {
    num_output: 320
    pad: 1
    kernel_size: 3
    weight_filler {
      type: "xavier"
      std: 0.03
    }
    bias_filler {
      type: "constant"
      value: 0.2
    }
  }
}
layer {
  name: "inception_4e/relu_3x3"
  type: "ReLU"
  bottom: "inception_4e/3x3"
  top: "inception_4e/3x3"
}
layer {
  name: "inception_4e/5x5_reduce"
  type: "Convolution"
  bottom: "inception_4d/output"
  top: "inception_4e/5x5_reduce"
  param {
    lr_mult: 1
    decay_mult: 1
  }
  param {
    lr_mult: 2
    decay_mult: 0
  }
  convolution_param {
    num_output: 32
    kernel_size: 1
    weight_filler {
      type: "xavier"
      std: 0.2
    }
    bias_filler {
      type: "constant"
      value: 0.2
    }
  }
}
layer {
  name: "inception_4e/relu_5x5_reduce"
  type: "ReLU"
  bottom: "inception_4e/5x5_reduce"
  top: "inception_4e/5x5_reduce"
}
layer {
  name: "inception_4e/5x5"
  type: "Convolution"
  bottom: "inception_4e/5x5_reduce"
  top: "inception_4e/
I0403 19:48:41.789240 25977 layer_factory.hpp:77] Creating layer data
I0403 19:48:41.789849 25977 net.cpp:91] Creating Layer data
I0403 19:48:41.789888 25977 net.cpp:399] data -> data
I0403 19:48:41.789961 25977 net.cpp:399] data -> label
I0403 19:48:41.790005 25977 data_transformer.cpp:25] Loading mean file from: /home/mohanty/data/final_dataset/lmdb/grayscale-80-20/mean.binaryproto
I0403 19:48:41.791175 25979 db_lmdb.cpp:38] Opened lmdb /home/mohanty/data/final_dataset/lmdb/grayscale-80-20/test_db
I0403 19:48:41.804127 25977 data_layer.cpp:41] output data size: 24,3,224,224
I0403 19:48:41.832129 25977 net.cpp:141] Setting up data
I0403 19:48:41.832240 25977 net.cpp:148] Top shape: 24 3 224 224 (3612672)
I0403 19:48:41.832264 25977 net.cpp:148] Top shape: 24 (24)
I0403 19:48:41.832281 25977 net.cpp:156] Memory required for data: 14450784
I0403 19:48:41.832320 25977 layer_factory.hpp:77] Creating layer label_data_1_split
I0403 19:48:41.832355 25977 net.cpp:91] Creating Layer label_data_1_split
I0403 19:48:41.832376 25977 net.cpp:425] label_data_1_split <- label
I0403 19:48:41.832413 25977 net.cpp:399] label_data_1_split -> label_data_1_split_0
I0403 19:48:41.832448 25977 net.cpp:399] label_data_1_split -> label_data_1_split_1
I0403 19:48:41.832471 25977 net.cpp:399] label_data_1_split -> label_data_1_split_2
I0403 19:48:41.832494 25977 net.cpp:399] label_data_1_split -> label_data_1_split_3
I0403 19:48:41.832515 25977 net.cpp:399] label_data_1_split -> label_data_1_split_4
I0403 19:48:41.832536 25977 net.cpp:399] label_data_1_split -> label_data_1_split_5
I0403 19:48:41.832559 25977 net.cpp:399] label_data_1_split -> label_data_1_split_6
I0403 19:48:41.832584 25977 net.cpp:399] label_data_1_split -> label_data_1_split_7
I0403 19:48:41.832607 25977 net.cpp:399] label_data_1_split -> label_data_1_split_8
I0403 19:48:41.832629 25977 net.cpp:399] label_data_1_split -> label_data_1_split_9
I0403 19:48:41.832744 25977 net.cpp:141] Setting up label_data_1_split
I0403 19:48:41.832769 25977 net.cpp:148] Top shape: 24 (24)
I0403 19:48:41.832788 25977 net.cpp:148] Top shape: 24 (24)
I0403 19:48:41.832804 25977 net.cpp:148] Top shape: 24 (24)
I0403 19:48:41.832821 25977 net.cpp:148] Top shape: 24 (24)
I0403 19:48:41.832839 25977 net.cpp:148] Top shape: 24 (24)
I0403 19:48:41.832852 25977 net.cpp:148] Top shape: 24 (24)
I0403 19:48:41.832870 25977 net.cpp:148] Top shape: 24 (24)
I0403 19:48:41.832886 25977 net.cpp:148] Top shape: 24 (24)
I0403 19:48:41.832904 25977 net.cpp:148] Top shape: 24 (24)
I0403 19:48:41.832923 25977 net.cpp:148] Top shape: 24 (24)
I0403 19:48:41.832970 25977 net.cpp:156] Memory required for data: 14451744
I0403 19:48:41.832986 25977 layer_factory.hpp:77] Creating layer conv1/7x7_s2
I0403 19:48:41.833024 25977 net.cpp:91] Creating Layer conv1/7x7_s2
I0403 19:48:41.833045 25977 net.cpp:425] conv1/7x7_s2 <- data
I0403 19:48:41.833065 25977 net.cpp:399] conv1/7x7_s2 -> conv1/7x7_s2
I0403 19:48:41.971935 25977 net.cpp:141] Setting up conv1/7x7_s2
I0403 19:48:41.972035 25977 net.cpp:148] Top shape: 24 64 112 112 (19267584)
I0403 19:48:41.972055 25977 net.cpp:156] Memory required for data: 91522080
I0403 19:48:41.972095 25977 layer_factory.hpp:77] Creating layer conv1/relu_7x7
I0403 19:48:41.972128 25977 net.cpp:91] Creating Layer conv1/relu_7x7
I0403 19:48:41.972151 25977 net.cpp:425] conv1/relu_7x7 <- conv1/7x7_s2
I0403 19:48:41.972172 25977 net.cpp:386] conv1/relu_7x7 -> conv1/7x7_s2 (in-place)
I0403 19:48:41.972429 25977 net.cpp:141] Setting up conv1/relu_7x7
I0403 19:48:41.972458 25977 net.cpp:148] Top shape: 24 64 112 112 (19267584)
I0403 19:48:41.972476 25977 net.cpp:156] Memory required for data: 168592416
I0403 19:48:41.972489 25977 layer_factory.hpp:77] Creating layer pool1/3x3_s2
I0403 19:48:41.972519 25977 net.cpp:91] Creating Layer pool1/3x3_s2
I0403 19:48:41.972539 25977 net.cpp:425] pool1/3x3_s2 <- conv1/7x7_s2
I0403 19:48:41.972559 25977 net.cpp:399] pool1/3x3_s2 -> pool1/3x3_s2
I0403 19:48:41.972640 25977 net.cpp:141] Setting up pool1/3x3_s2
I0403 19:48:41.972667 25977 net.cpp:148] Top shape: 24 64 56 56 (4816896)
I0403 19:48:41.972684 25977 net.cpp:156] Memory required for data: 187860000
I0403 19:48:41.972699 25977 layer_factory.hpp:77] Creating layer pool1/norm1
I0403 19:48:41.972726 25977 net.cpp:91] Creating Layer pool1/norm1
I0403 19:48:41.972748 25977 net.cpp:425] pool1/norm1 <- pool1/3x3_s2
I0403 19:48:41.972766 25977 net.cpp:399] pool1/norm1 -> pool1/norm1
I0403 19:48:41.973048 25977 net.cpp:141] Setting up pool1/norm1
I0403 19:48:41.973110 25977 net.cpp:148] Top shape: 24 64 56 56 (4816896)
I0403 19:48:41.973134 25977 net.cpp:156] Memory required for data: 207127584
I0403 19:48:41.973150 25977 layer_factory.hpp:77] Creating layer conv2/3x3_reduce
I0403 19:48:41.973178 25977 net.cpp:91] Creating Layer conv2/3x3_reduce
I0403 19:48:41.973196 25977 net.cpp:425] conv2/3x3_reduce <- pool1/norm1
I0403 19:48:41.973215 25977 net.cpp:399] conv2/3x3_reduce -> conv2/3x3_reduce
I0403 19:48:41.974522 25977 net.cpp:141] Setting up conv2/3x3_reduce
I0403 19:48:41.974553 25977 net.cpp:148] Top shape: 24 64 56 56 (4816896)
I0403 19:48:41.974571 25977 net.cpp:156] Memory required for data: 226395168
I0403 19:48:41.974596 25977 layer_factory.hpp:77] Creating layer conv2/relu_3x3_reduce
I0403 19:48:41.974659 25977 net.cpp:91] Creating Layer conv2/relu_3x3_reduce
I0403 19:48:41.974679 25977 net.cpp:425] conv2/relu_3x3_reduce <- conv2/3x3_reduce
I0403 19:48:41.974699 25977 net.cpp:386] conv2/relu_3x3_reduce -> conv2/3x3_reduce (in-place)
I0403 19:48:41.974941 25977 net.cpp:141] Setting up conv2/relu_3x3_reduce
I0403 19:48:41.974972 25977 net.cpp:148] Top shape: 24 64 56 56 (4816896)
I0403 19:48:41.974987 25977 net.cpp:156] Memory required for data: 245662752
I0403 19:48:41.975004 25977 layer_factory.hpp:77] Creating layer conv2/3x3
I0403 19:48:41.975025 25977 net.cpp:91] Creating Layer conv2/3x3
I0403 19:48:41.975044 25977 net.cpp:425] conv2/3x3 <- conv2/3x3_reduce
I0403 19:48:41.975060 25977 net.cpp:399] conv2/3x3 -> conv2/3x3
I0403 19:48:41.977217 25977 net.cpp:141] Setting up conv2/3x3
I0403 19:48:41.977252 25977 net.cpp:148] Top shape: 24 192 56 56 (14450688)
I0403 19:48:41.977269 25977 net.cpp:156] Memory required for data: 303465504
I0403 19:48:41.977295 25977 layer_factory.hpp:77] Creating layer conv2/relu_3x3
I0403 19:48:41.977319 25977 net.cpp:91] Creating Layer conv2/relu_3x3
I0403 19:48:41.977340 25977 net.cpp:425] conv2/relu_3x3 <- conv2/3x3
I0403 19:48:41.977357 25977 net.cpp:386] conv2/relu_3x3 -> conv2/3x3 (in-place)
I0403 19:48:41.977522 25977 net.cpp:141] Setting up conv2/relu_3x3
I0403 19:48:41.977552 25977 net.cpp:148] Top shape: 24 192 56 56 (14450688)
I0403 19:48:41.977602 25977 net.cpp:156] Memory required for data: 361268256
I0403 19:48:41.977619 25977 layer_factory.hpp:77] Creating layer conv2/norm2
I0403 19:48:41.977639 25977 net.cpp:91] Creating Layer conv2/norm2
I0403 19:48:41.977655 25977 net.cpp:425] conv2/norm2 <- conv2/3x3
I0403 19:48:41.977675 25977 net.cpp:399] conv2/norm2 -> conv2/norm2
I0403 19:48:41.977968 25977 net.cpp:141] Setting up conv2/norm2
I0403 19:48:41.977996 25977 net.cpp:148] Top shape: 24 192 56 56 (14450688)
I0403 19:48:41.978013 25977 net.cpp:156] Memory required for data: 419071008
I0403 19:48:41.978029 25977 layer_factory.hpp:77] Creating layer pool2/3x3_s2
I0403 19:48:41.978049 25977 net.cpp:91] Creating Layer pool2/3x3_s2
I0403 19:48:41.978065 25977 net.cpp:425] pool2/3x3_s2 <- conv2/norm2
I0403 19:48:41.978083 25977 net.cpp:399] pool2/3x3_s2 -> pool2/3x3_s2
I0403 19:48:41.978137 25977 net.cpp:141] Setting up pool2/3x3_s2
I0403 19:48:41.978165 25977 net.cpp:148] Top shape: 24 192 28 28 (3612672)
I0403 19:48:41.978180 25977 net.cpp:156] Memory required for data: 433521696
I0403 19:48:41.978196 25977 layer_factory.hpp:77] Creating layer pool2/3x3_s2_pool2/3x3_s2_0_split
I0403 19:48:41.978215 25977 net.cpp:91] Creating Layer pool2/3x3_s2_pool2/3x3_s2_0_split
I0403 19:48:41.978232 25977 net.cpp:425] pool2/3x3_s2_pool2/3x3_s2_0_split <- pool2/3x3_s2
I0403 19:48:41.978252 25977 net.cpp:399] pool2/3x3_s2_pool2/3x3_s2_0_split -> pool2/3x3_s2_pool2/3x3_s2_0_split_0
I0403 19:48:41.978276 25977 net.cpp:399] pool2/3x3_s2_pool2/3x3_s2_0_split -> pool2/3x3_s2_pool2/3x3_s2_0_split_1
I0403 19:48:41.978305 25977 net.cpp:399] pool2/3x3_s2_pool2/3x3_s2_0_split -> pool2/3x3_s2_pool2/3x3_s2_0_split_2
I0403 19:48:41.978329 25977 net.cpp:399] pool2/3x3_s2_pool2/3x3_s2_0_split -> pool2/3x3_s2_pool2/3x3_s2_0_split_3
I0403 19:48:41.978395 25977 net.cpp:141] Setting up pool2/3x3_s2_pool2/3x3_s2_0_split
I0403 19:48:41.978425 25977 net.cpp:148] Top shape: 24 192 28 28 (3612672)
I0403 19:48:41.978445 25977 net.cpp:148] Top shape: 24 192 28 28 (3612672)
I0403 19:48:41.978461 25977 net.cpp:148] Top shape: 24 192 28 28 (3612672)
I0403 19:48:41.978478 25977 net.cpp:148] Top shape: 24 192 28 28 (3612672)
I0403 19:48:41.978493 25977 net.cpp:156] Memory required for data: 491324448
I0403 19:48:41.978509 25977 layer_factory.hpp:77] Creating layer inception_3a/1x1
I0403 19:48:41.978533 25977 net.cpp:91] Creating Layer inception_3a/1x1
I0403 19:48:41.978554 25977 net.cpp:425] inception_3a/1x1 <- pool2/3x3_s2_pool2/3x3_s2_0_split_0
I0403 19:48:41.978574 25977 net.cpp:399] inception_3a/1x1 -> inception_3a/1x1
I0403 19:48:41.980038 25977 net.cpp:141] Setting up inception_3a/1x1
I0403 19:48:41.980070 25977 net.cpp:148] Top shape: 24 64 28 28 (1204224)
I0403 19:48:41.980087 25977 net.cpp:156] Memory required for data: 496141344
I0403 19:48:41.980106 25977 layer_factory.hpp:77] Creating layer inception_3a/relu_1x1
I0403 19:48:41.980129 25977 net.cpp:91] Creating Layer inception_3a/relu_1x1
I0403 19:48:41.980147 25977 net.cpp:425] inception_3a/relu_1x1 <- inception_3a/1x1
I0403 19:48:41.980165 25977 net.cpp:386] inception_3a/relu_1x1 -> inception_3a/1x1 (in-place)
I0403 19:48:41.980351 25977 net.cpp:141] Setting up inception_3a/relu_1x1
I0403 19:48:41.980382 25977 net.cpp:148] Top shape: 24 64 28 28 (1204224)
I0403 19:48:41.980402 25977 net.cpp:156] Memory required for data: 500958240
I0403 19:48:41.980418 25977 layer_factory.hpp:77] Creating layer inception_3a/3x3_reduce
I0403 19:48:41.980443 25977 net.cpp:91] Creating Layer inception_3a/3x3_reduce
I0403 19:48:41.980463 25977 net.cpp:425] inception_3a/3x3_reduce <- pool2/3x3_s2_pool2/3x3_s2_0_split_1
I0403 19:48:41.980482 25977 net.cpp:399] inception_3a/3x3_reduce -> inception_3a/3x3_reduce
I0403 19:48:41.982111 25977 net.cpp:141] Setting up inception_3a/3x3_reduce
I0403 19:48:41.982144 25977 net.cpp:148] Top shape: 24 96 28 28 (1806336)
I0403 19:48:41.982162 25977 net.cpp:156] Memory required for data: 508183584
I0403 19:48:41.982185 25977 layer_factory.hpp:77] Creating layer inception_3a/relu_3x3_reduce
I0403 19:48:41.982224 25977 net.cpp:91] Creating Layer inception_3a/relu_3x3_reduce
I0403 19:48:41.982245 25977 net.cpp:425] inception_3a/relu_3x3_reduce <- inception_3a/3x3_reduce
I0403 19:48:41.982266 25977 net.cpp:386] inception_3a/relu_3x3_reduce -> inception_3a/3x3_reduce (in-place)
I0403 19:48:41.982450 25977 net.cpp:141] Setting up inception_3a/relu_3x3_reduce
I0403 19:48:41.982478 25977 net.cpp:148] Top shape: 24 96 28 28 (1806336)
I0403 19:48:41.982494 25977 net.cpp:156] Memory required for data: 515408928
I0403 19:48:41.982511 25977 layer_factory.hpp:77] Creating layer inception_3a/3x3
I0403 19:48:41.982533 25977 net.cpp:91] Creating Layer inception_3a/3x3
I0403 19:48:41.982553 25977 net.cpp:425] inception_3a/3x3 <- inception_3a/3x3_reduce
I0403 19:48:41.982575 25977 net.cpp:399] inception_3a/3x3 -> inception_3a/3x3
I0403 19:48:41.984325 25977 net.cpp:141] Setting up inception_3a/3x3
I0403 19:48:41.984361 25977 net.cpp:148] Top shape: 24 128 28 28 (2408448)
I0403 19:48:41.984380 25977 net.cpp:156] Memory required for data: 525042720
I0403 19:48:41.984400 25977 layer_factory.hpp:77] Creating layer inception_3a/relu_3x3
I0403 19:48:41.984421 25977 net.cpp:91] Creating Layer inception_3a/relu_3x3
I0403 19:48:41.984437 25977 net.cpp:425] inception_3a/relu_3x3 <- inception_3a/3x3
I0403 19:48:41.984457 25977 net.cpp:386] inception_3a/relu_3x3 -> inception_3a/3x3 (in-place)
I0403 19:48:41.984745 25977 net.cpp:141] Setting up inception_3a/relu_3x3
I0403 19:48:41.984778 25977 net.cpp:148] Top shape: 24 128 28 28 (2408448)
I0403 19:48:41.984797 25977 net.cpp:156] Memory required for data: 534676512
I0403 19:48:41.984812 25977 layer_factory.hpp:77] Creating layer inception_3a/5x5_reduce
I0403 19:48:41.984836 25977 net.cpp:91] Creating Layer inception_3a/5x5_reduce
I0403 19:48:41.984856 25977 net.cpp:425] inception_3a/5x5_reduce <- pool2/3x3_s2_pool2/3x3_s2_0_split_2
I0403 19:48:41.984879 25977 net.cpp:399] inception_3a/5x5_reduce -> inception_3a/5x5_reduce
I0403 19:48:41.985957 25977 net.cpp:141] Setting up inception_3a/5x5_reduce
I0403 19:48:41.985991 25977 net.cpp:148] Top shape: 24 16 28 28 (301056)
I0403 19:48:41.986009 25977 net.cpp:156] Memory required for data: 535880736
I0403 19:48:41.986029 25977 layer_factory.hpp:77] Creating layer inception_3a/relu_5x5_reduce
I0403 19:48:41.986050 25977 net.cpp:91] Creating Layer inception_3a/relu_5x5_reduce
I0403 19:48:41.986066 25977 net.cpp:425] inception_3a/relu_5x5_reduce <- inception_3a/5x5_reduce
I0403 19:48:41.986086 25977 net.cpp:386] inception_3a/relu_5x5_reduce -> inception_3a/5x5_reduce (in-place)
I0403 19:48:41.986369 25977 net.cpp:141] Setting up inception_3a/relu_5x5_reduce
I0403 19:48:41.986402 25977 net.cpp:148] Top shape: 24 16 28 28 (301056)
I0403 19:48:41.986418 25977 net.cpp:156] Memory required for data: 537084960
I0403 19:48:41.986434 25977 layer_factory.hpp:77] Creating layer inception_3a/5x5
I0403 19:48:41.986459 25977 net.cpp:91] Creating Layer inception_3a/5x5
I0403 19:48:41.986477 25977 net.cpp:425] inception_3a/5x5 <- inception_3a/5x5_reduce
I0403 19:48:41.986500 25977 net.cpp:399] inception_3a/5x5 -> inception_3a/5x5
I0403 19:48:41.987512 25977 net.cpp:141] Setting up inception_3a/5x5
I0403 19:48:41.987545 25977 net.cpp:148] Top shape: 24 32 28 28 (602112)
I0403 19:48:41.987562 25977 net.cpp:156] Memory required for data: 539493408
I0403 19:48:41.987582 25977 layer_factory.hpp:77] Creating layer inception_3a/relu_5x5
I0403 19:48:41.987606 25977 net.cpp:91] Creating Layer inception_3a/relu_5x5
I0403 19:48:41.987624 25977 net.cpp:425] inception_3a/relu_5x5 <- inception_3a/5x5
I0403 19:48:41.987643 25977 net.cpp:386] inception_3a/relu_5x5 -> inception_3a/5x5 (in-place)
I0403 19:48:41.987828 25977 net.cpp:141] Setting up inception_3a/relu_5x5
I0403 19:48:41.987859 25977 net.cpp:148] Top shape: 24 32 28 28 (602112)
I0403 19:48:41.987876 25977 net.cpp:156] Memory required for data: 541901856
I0403 19:48:41.987893 25977 layer_factory.hpp:77] Creating layer inception_3a/pool
I0403 19:48:41.987912 25977 net.cpp:91] Creating Layer inception_3a/pool
I0403 19:48:41.987943 25977 net.cpp:425] inception_3a/pool <- pool2/3x3_s2_pool2/3x3_s2_0_split_3
I0403 19:48:41.987967 25977 net.cpp:399] inception_3a/pool -> inception_3a/pool
I0403 19:48:41.988028 25977 net.cpp:141] Setting up inception_3a/pool
I0403 19:48:41.988056 25977 net.cpp:148] Top shape: 24 192 28 28 (3612672)
I0403 19:48:41.988073 25977 net.cpp:156] Memory required for data: 556352544
I0403 19:48:41.988090 25977 layer_factory.hpp:77] Creating layer inception_3a/pool_proj
I0403 19:48:41.988113 25977 net.cpp:91] Creating Layer inception_3a/pool_proj
I0403 19:48:41.988132 25977 net.cpp:425] inception_3a/pool_proj <- inception_3a/pool
I0403 19:48:41.988155 25977 net.cpp:399] inception_3a/pool_proj -> inception_3a/pool_proj
I0403 19:48:41.989115 25977 net.cpp:141] Setting up inception_3a/pool_proj
I0403 19:48:41.989150 25977 net.cpp:148] Top shape: 24 32 28 28 (602112)
I0403 19:48:41.989166 25977 net.cpp:156] Memory required for data: 558760992
I0403 19:48:41.989192 25977 layer_factory.hpp:77] Creating layer inception_3a/relu_pool_proj
I0403 19:48:41.989213 25977 net.cpp:91] Creating Layer inception_3a/relu_pool_proj
I0403 19:48:41.989233 25977 net.cpp:425] inception_3a/relu_pool_proj <- inception_3a/pool_proj
I0403 19:48:41.989250 25977 net.cpp:386] inception_3a/relu_pool_proj -> inception_3a/pool_proj (in-place)
I0403 19:48:41.989536 25977 net.cpp:141] Setting up inception_3a/relu_pool_proj
I0403 19:48:41.989570 25977 net.cpp:148] Top shape: 24 32 28 28 (602112)
I0403 19:48:41.989589 25977 net.cpp:156] Memory required for data: 561169440
I0403 19:48:41.989604 25977 layer_factory.hpp:77] Creating layer inception_3a/output
I0403 19:48:41.989625 25977 net.cpp:91] Creating Layer inception_3a/output
I0403 19:48:41.989642 25977 net.cpp:425] inception_3a/output <- inception_3a/1x1
I0403 19:48:41.989661 25977 net.cpp:425] inception_3a/output <- inception_3a/3x3
I0403 19:48:41.989692 25977 net.cpp:425] inception_3a/output <- inception_3a/5x5
I0403 19:48:41.989707 25977 net.cpp:425] inception_3a/output <- inception_3a/pool_proj
I0403 19:48:41.989724 25977 net.cpp:399] inception_3a/output -> inception_3a/output
I0403 19:48:41.989774 25977 net.cpp:141] Setting up inception_3a/output
I0403 19:48:41.989802 25977 net.cpp:148] Top shape: 24 256 28 28 (4816896)
I0403 19:48:41.989819 25977 net.cpp:156] Memory required for data: 580437024
I0403 19:48:41.989835 25977 layer_factory.hpp:77] Creating layer inception_3a/output_inception_3a/output_0_split
I0403 19:48:41.989856 25977 net.cpp:91] Creating Layer inception_3a/output_inception_3a/output_0_split
I0403 19:48:41.989876 25977 net.cpp:425] inception_3a/output_inception_3a/output_0_split <- inception_3a/output
I0403 19:48:41.989895 25977 net.cpp:399] inception_3a/output_inception_3a/output_0_split -> inception_3a/output_inception_3a/output_0_split_0
I0403 19:48:41.989917 25977 net.cpp:399] inception_3a/output_inception_3a/output_0_split -> inception_3a/output_inception_3a/output_0_split_1
I0403 19:48:41.989943 25977 net.cpp:399] inception_3a/output_inception_3a/output_0_split -> inception_3a/output_inception_3a/output_0_split_2
I0403 19:48:41.989969 25977 net.cpp:399] inception_3a/output_inception_3a/output_0_split -> inception_3a/output_inception_3a/output_0_split_3
I0403 19:48:41.990046 25977 net.cpp:141] Setting up inception_3a/output_inception_3a/output_0_split
I0403 19:48:41.990072 25977 net.cpp:148] Top shape: 24 256 28 28 (4816896)
I0403 19:48:41.990090 25977 net.cpp:148] Top shape: 24 256 28 28 (4816896)
I0403 19:48:41.990105 25977 net.cpp:148] Top shape: 24 256 28 28 (4816896)
I0403 19:48:41.990121 25977 net.cpp:148] Top shape: 24 256 28 28 (4816896)
I0403 19:48:41.990135 25977 net.cpp:156] Memory required for data: 657507360
I0403 19:48:41.990152 25977 layer_factory.hpp:77] Creating layer inception_3b/1x1
I0403 19:48:41.990175 25977 net.cpp:91] Creating Layer inception_3b/1x1
I0403 19:48:41.990196 25977 net.cpp:425] inception_3b/1x1 <- inception_3a/output_inception_3a/output_0_split_0
I0403 19:48:41.990218 25977 net.cpp:399] inception_3b/1x1 -> inception_3b/1x1
I0403 19:48:41.991350 25977 net.cpp:141] Setting up inception_3b/1x1
I0403 19:48:41.991396 25977 net.cpp:148] Top shape: 24 128 28 28 (2408448)
I0403 19:48:41.991416 25977 net.cpp:156] Memory required for data: 667141152
I0403 19:48:41.991437 25977 layer_factory.hpp:77] Creating layer inception_3b/relu_1x1
I0403 19:48:41.991458 25977 net.cpp:91] Creating Layer inception_3b/relu_1x1
I0403 19:48:41.991477 25977 net.cpp:425] inception_3b/relu_1x1 <- inception_3b/1x1
I0403 19:48:41.991497 25977 net.cpp:386] inception_3b/relu_1x1 -> inception_3b/1x1 (in-place)
I0403 19:48:41.991665 25977 net.cpp:141] Setting up inception_3b/relu_1x1
I0403 19:48:41.991700 25977 net.cpp:148] Top shape: 24 128 28 28 (2408448)
I0403 19:48:41.991717 25977 net.cpp:156] Memory required for data: 676774944
I0403 19:48:41.991734 25977 layer_factory.hpp:77] Creating layer inception_3b/3x3_reduce
I0403 19:48:41.991756 25977 net.cpp:91] Creating Layer inception_3b/3x3_reduce
I0403 19:48:41.991776 25977 net.cpp:425] inception_3b/3x3_reduce <- inception_3a/output_inception_3a/output_0_split_1
I0403 19:48:41.991796 25977 net.cpp:399] inception_3b/3x3_reduce -> inception_3b/3x3_reduce
I0403 19:48:41.992895 25977 net.cpp:141] Setting up inception_3b/3x3_reduce
I0403 19:48:41.992928 25977 net.cpp:148] Top shape: 24 128 28 28 (2408448)
I0403 19:48:41.992944 25977 net.cpp:156] Memory required for data: 686408736
I0403 19:48:41.992962 25977 layer_factory.hpp:77] Creating layer inception_3b/relu_3x3_reduce
I0403 19:48:41.992985 25977 net.cpp:91] Creating Layer inception_3b/relu_3x3_reduce
I0403 19:48:41.993003 25977 net.cpp:425] inception_3b/relu_3x3_reduce <- inception_3b/3x3_reduce
I0403 19:48:41.993022 25977 net.cpp:386] inception_3b/relu_3x3_reduce -> inception_3b/3x3_reduce (in-place)
I0403 19:48:41.993188 25977 net.cpp:141] Setting up inception_3b/relu_3x3_reduce
I0403 19:48:41.993221 25977 net.cpp:148] Top shape: 24 128 28 28 (2408448)
I0403 19:48:41.993237 25977 net.cpp:156] Memory required for data: 696042528
I0403 19:48:41.993252 25977 layer_factory.hpp:77] Creating layer inception_3b/3x3
I0403 19:48:41.993279 25977 net.cpp:91] Creating Layer inception_3b/3x3
I0403 19:48:41.993305 25977 net.cpp:425] inception_3b/3x3 <- inception_3b/3x3_reduce
I0403 19:48:41.993330 25977 net.cpp:399] inception_3b/3x3 -> inception_3b/3x3
I0403 19:48:41.996223 25977 net.cpp:141] Setting up inception_3b/3x3
I0403 19:48:41.996261 25977 net.cpp:148] Top shape: 24 192 28 28 (3612672)
I0403 19:48:41.996279 25977 net.cpp:156] Memory required for data: 710493216
I0403 19:48:41.996307 25977 layer_factory.hpp:77] Creating layer inception_3b/relu_3x3
I0403 19:48:41.996328 25977 net.cpp:91] Creating Layer inception_3b/relu_3x3
I0403 19:48:41.996347 25977 net.cpp:425] inception_3b/relu_3x3 <- inception_3b/3x3
I0403 19:48:41.996367 25977 net.cpp:386] inception_3b/relu_3x3 -> inception_3b/3x3 (in-place)
I0403 19:48:41.996634 25977 net.cpp:141] Setting up inception_3b/relu_3x3
I0403 19:48:41.996667 25977 net.cpp:148] Top shape: 24 192 28 28 (3612672)
I0403 19:48:41.996686 25977 net.cpp:156] Memory required for data: 724943904
I0403 19:48:41.996703 25977 layer_factory.hpp:77] Creating layer inception_3b/5x5_reduce
I0403 19:48:41.996727 25977 net.cpp:91] Creating Layer inception_3b/5x5_reduce
I0403 19:48:41.996747 25977 net.cpp:425] inception_3b/5x5_reduce <- inception_3a/output_inception_3a/output_0_split_2
I0403 19:48:41.996769 25977 net.cpp:399] inception_3b/5x5_reduce -> inception_3b/5x5_reduce
I0403 19:48:41.997788 25977 net.cpp:141] Setting up inception_3b/5x5_reduce
I0403 19:48:41.997822 25977 net.cpp:148] Top shape: 24 32 28 28 (602112)
I0403 19:48:41.997841 25977 net.cpp:156] Memory required for data: 727352352
I0403 19:48:41.997862 25977 layer_factory.hpp:77] Creating layer inception_3b/relu_5x5_reduce
I0403 19:48:41.997882 25977 net.cpp:91] Creating Layer inception_3b/relu_5x5_reduce
I0403 19:48:41.997900 25977 net.cpp:425] inception_3b/relu_5x5_reduce <- inception_3b/5x5_reduce
I0403 19:48:41.997918 25977 net.cpp:386] inception_3b/relu_5x5_reduce -> inception_3b/5x5_reduce (in-place)
I0403 19:48:41.998103 25977 net.cpp:141] Setting up inception_3b/relu_5x5_reduce
I0403 19:48:41.998134 25977 net.cpp:148] Top shape: 24 32 28 28 (602112)
I0403 19:48:41.998152 25977 net.cpp:156] Memory required for data: 729760800
I0403 19:48:41.998169 25977 layer_factory.hpp:77] Creating layer inception_3b/5x5
I0403 19:48:41.998196 25977 net.cpp:91] Creating Layer inception_3b/5x5
I0403 19:48:41.998216 25977 net.cpp:425] inception_3b/5x5 <- inception_3b/5x5_reduce
I0403 19:48:41.998237 25977 net.cpp:399] inception_3b/5x5 -> inception_3b/5x5
I0403 19:48:42.000152 25977 net.cpp:141] Setting up inception_3b/5x5
I0403 19:48:42.000183 25977 net.cpp:148] Top shape: 24 96 28 28 (1806336)
I0403 19:48:42.000201 25977 net.cpp:156] Memory required for data: 736986144
I0403 19:48:42.000221 25977 layer_factory.hpp:77] Creating layer inception_3b/relu_5x5
I0403 19:48:42.000241 25977 net.cpp:91] Creating Layer inception_3b/relu_5x5
I0403 19:48:42.000258 25977 net.cpp:425] inception_3b/relu_5x5 <- inception_3b/5x5
I0403 19:48:42.000277 25977 net.cpp:386] inception_3b/relu_5x5 -> inception_3b/5x5 (in-place)
I0403 19:48:42.000468 25977 net.cpp:141] Setting up inception_3b/relu_5x5
I0403 19:48:42.000497 25977 net.cpp:148] Top shape: 24 96 28 28 (1806336)
I0403 19:48:42.000514 25977 net.cpp:156] Memory required for data: 744211488
I0403 19:48:42.000531 25977 layer_factory.hpp:77] Creating layer inception_3b/pool
I0403 19:48:42.000550 25977 net.cpp:91] Creating Layer inception_3b/pool
I0403 19:48:42.000566 25977 net.cpp:425] inception_3b/pool <- inception_3a/output_inception_3a/output_0_split_3
I0403 19:48:42.000584 25977 net.cpp:399] inception_3b/pool -> inception_3b/pool
I0403 19:48:42.000640 25977 net.cpp:141] Setting up inception_3b/pool
I0403 19:48:42.000670 25977 net.cpp:148] Top shape: 24 256 28 28 (4816896)
I0403 19:48:42.000684 25977 net.cpp:156] Memory required for data: 763479072
I0403 19:48:42.000699 25977 layer_factory.hpp:77] Creating layer inception_3b/pool_proj
I0403 19:48:42.000721 25977 net.cpp:91] Creating Layer inception_3b/pool_proj
I0403 19:48:42.000740 25977 net.cpp:425] inception_3b/pool_proj <- inception_3b/pool
I0403 19:48:42.000761 25977 net.cpp:399] inception_3b/pool_proj -> inception_3b/pool_proj
I0403 19:48:42.001754 25977 net.cpp:141] Setting up inception_3b/pool_proj
I0403 19:48:42.001787 25977 net.cpp:148] Top shape: 24 64 28 28 (1204224)
I0403 19:48:42.001806 25977 net.cpp:156] Memory required for data: 768295968
I0403 19:48:42.001824 25977 layer_factory.hpp:77] Creating layer inception_3b/relu_pool_proj
I0403 19:48:42.001843 25977 net.cpp:91] Creating Layer inception_3b/relu_pool_proj
I0403 19:48:42.001858 25977 net.cpp:425] inception_3b/relu_pool_proj <- inception_3b/pool_proj
I0403 19:48:42.001880 25977 net.cpp:386] inception_3b/relu_pool_proj -> inception_3b/pool_proj (in-place)
I0403 19:48:42.002229 25977 net.cpp:141] Setting up inception_3b/relu_pool_proj
I0403 19:48:42.002262 25977 net.cpp:148] Top shape: 24 64 28 28 (1204224)
I0403 19:48:42.002281 25977 net.cpp:156] Memory required for data: 773112864
I0403 19:48:42.002302 25977 layer_factory.hpp:77] Creating layer inception_3b/output
I0403 19:48:42.002322 25977 net.cpp:91] Creating Layer inception_3b/output
I0403 19:48:42.002338 25977 net.cpp:425] inception_3b/output <- inception_3b/1x1
I0403 19:48:42.002357 25977 net.cpp:425] inception_3b/output <- inception_3b/3x3
I0403 19:48:42.002374 25977 net.cpp:425] inception_3b/output <- inception_3b/5x5
I0403 19:48:42.002390 25977 net.cpp:425] inception_3b/output <- inception_3b/pool_proj
I0403 19:48:42.002408 25977 net.cpp:399] inception_3b/output -> inception_3b/output
I0403 19:48:42.002455 25977 net.cpp:141] Setting up inception_3b/output
I0403 19:48:42.002481 25977 net.cpp:148] Top shape: 24 480 28 28 (9031680)
I0403 19:48:42.002497 25977 net.cpp:156] Memory required for data: 809239584
I0403 19:48:42.002514 25977 layer_factory.hpp:77] Creating layer pool3/3x3_s2
I0403 19:48:42.002535 25977 net.cpp:91] Creating Layer pool3/3x3_s2
I0403 19:48:42.002554 25977 net.cpp:425] pool3/3x3_s2 <- inception_3b/output
I0403 19:48:42.002591 25977 net.cpp:399] pool3/3x3_s2 -> pool3/3x3_s2
I0403 19:48:42.002651 25977 net.cpp:141] Setting up pool3/3x3_s2
I0403 19:48:42.002678 25977 net.cpp:148] Top shape: 24 480 14 14 (2257920)
I0403 19:48:42.002696 25977 net.cpp:156] Memory required for data: 818271264
I0403 19:48:42.002712 25977 layer_factory.hpp:77] Creating layer pool3/3x3_s2_pool3/3x3_s2_0_split
I0403 19:48:42.002730 25977 net.cpp:91] Creating Layer pool3/3x3_s2_pool3/3x3_s2_0_split
I0403 19:48:42.002745 25977 net.cpp:425] pool3/3x3_s2_pool3/3x3_s2_0_split <- pool3/3x3_s2
I0403 19:48:42.002766 25977 net.cpp:399] pool3/3x3_s2_pool3/3x3_s2_0_split -> pool3/3x3_s2_pool3/3x3_s2_0_split_0
I0403 19:48:42.002789 25977 net.cpp:399] pool3/3x3_s2_pool3/3x3_s2_0_split -> pool3/3x3_s2_pool3/3x3_s2_0_split_1
I0403 19:48:42.002815 25977 net.cpp:399] pool3/3x3_s2_pool3/3x3_s2_0_split -> pool3/3x3_s2_pool3/3x3_s2_0_split_2
I0403 19:48:42.002837 25977 net.cpp:399] pool3/3x3_s2_pool3/3x3_s2_0_split -> pool3/3x3_s2_pool3/3x3_s2_0_split_3
I0403 19:48:42.002912 25977 net.cpp:141] Setting up pool3/3x3_s2_pool3/3x3_s2_0_split
I0403 19:48:42.002943 25977 net.cpp:148] Top shape: 24 480 14 14 (2257920)
I0403 19:48:42.002961 25977 net.cpp:148] Top shape: 24 480 14 14 (2257920)
I0403 19:48:42.002977 25977 net.cpp:148] Top shape: 24 480 14 14 (2257920)
I0403 19:48:42.002993 25977 net.cpp:148] Top shape: 24 480 14 14 (2257920)
I0403 19:48:42.003008 25977 net.cpp:156] Memory required for data: 854397984
I0403 19:48:42.003023 25977 layer_factory.hpp:77] Creating layer inception_4a/1x1
I0403 19:48:42.003044 25977 net.cpp:91] Creating Layer inception_4a/1x1
I0403 19:48:42.003064 25977 net.cpp:425] inception_4a/1x1 <- pool3/3x3_s2_pool3/3x3_s2_0_split_0
I0403 19:48:42.003084 25977 net.cpp:399] inception_4a/1x1 -> inception_4a/1x1
I0403 19:48:42.004565 25977 net.cpp:141] Setting up inception_4a/1x1
I0403 19:48:42.004596 25977 net.cpp:148] Top shape: 24 192 14 14 (903168)
I0403 19:48:42.004613 25977 net.cpp:156] Memory required for data: 858010656
I0403 19:48:42.004632 25977 layer_factory.hpp:77] Creating layer inception_4a/relu_1x1
I0403 19:48:42.004650 25977 net.cpp:91] Creating Layer inception_4a/relu_1x1
I0403 19:48:42.004673 25977 net.cpp:425] inception_4a/relu_1x1 <- inception_4a/1x1
I0403 19:48:42.004691 25977 net.cpp:386] inception_4a/relu_1x1 -> inception_4a/1x1 (in-place)
I0403 19:48:42.004858 25977 net.cpp:141] Setting up inception_4a/relu_1x1
I0403 19:48:42.004887 25977 net.cpp:148] Top shape: 24 192 14 14 (903168)
I0403 19:48:42.004902 25977 net.cpp:156] Memory required for data: 861623328
I0403 19:48:42.004917 25977 layer_factory.hpp:77] Creating layer inception_4a/3x3_reduce
I0403 19:48:42.004940 25977 net.cpp:91] Creating Layer inception_4a/3x3_reduce
I0403 19:48:42.004959 25977 net.cpp:425] inception_4a/3x3_reduce <- pool3/3x3_s2_pool3/3x3_s2_0_split_1
I0403 19:48:42.004984 25977 net.cpp:399] inception_4a/3x3_reduce -> inception_4a/3x3_reduce
I0403 19:48:42.006181 25977 net.cpp:141] Setting up inception_4a/3x3_reduce
I0403 19:48:42.006213 25977 net.cpp:148] Top shape: 24 96 14 14 (451584)
I0403 19:48:42.006230 25977 net.cpp:156] Memory required for data: 863429664
I0403 19:48:42.006254 25977 layer_factory.hpp:77] Creating layer inception_4a/relu_3x3_reduce
I0403 19:48:42.006276 25977 net.cpp:91] Creating Layer inception_4a/relu_3x3_reduce
I0403 19:48:42.006300 25977 net.cpp:425] inception_4a/relu_3x3_reduce <- inception_4a/3x3_reduce
I0403 19:48:42.006324 25977 net.cpp:386] inception_4a/relu_3x3_reduce -> inception_4a/3x3_reduce (in-place)
I0403 19:48:42.006492 25977 net.cpp:141] Setting up inception_4a/relu_3x3_reduce
I0403 19:48:42.006518 25977 net.cpp:148] Top shape: 24 96 14 14 (451584)
I0403 19:48:42.006534 25977 net.cpp:156] Memory required for data: 865236000
I0403 19:48:42.006549 25977 layer_factory.hpp:77] Creating layer inception_4a/3x3
I0403 19:48:42.006572 25977 net.cpp:91] Creating Layer inception_4a/3x3
I0403 19:48:42.006592 25977 net.cpp:425] inception_4a/3x3 <- inception_4a/3x3_reduce
I0403 19:48:42.006614 25977 net.cpp:399] inception_4a/3x3 -> inception_4a/3x3
I0403 19:48:42.009160 25977 net.cpp:141] Setting up inception_4a/3x3
I0403 19:48:42.009192 25977 net.cpp:148] Top shape: 24 208 14 14 (978432)
I0403 19:48:42.009208 25977 net.cpp:156] Memory required for data: 869149728
I0403 19:48:42.009228 25977 layer_factory.hpp:77] Creating layer inception_4a/relu_3x3
I0403 19:48:42.009251 25977 net.cpp:91] Creating Layer inception_4a/relu_3x3
I0403 19:48:42.009271 25977 net.cpp:425] inception_4a/relu_3x3 <- inception_4a/3x3
I0403 19:48:42.009296 25977 net.cpp:386] inception_4a/relu_3x3 -> inception_4a/3x3 (in-place)
I0403 19:48:42.009568 25977 net.cpp:141] Setting up inception_4a/relu_3x3
I0403 19:48:42.009596 25977 net.cpp:148] Top shape: 24 208 14 14 (978432)
I0403 19:48:42.009613 25977 net.cpp:156] Memory required for data: 873063456
I0403 19:48:42.009627 25977 layer_factory.hpp:77] Creating layer inception_4a/5x5_reduce
I0403 19:48:42.009650 25977 net.cpp:91] Creating Layer inception_4a/5x5_reduce
I0403 19:48:42.009668 25977 net.cpp:425] inception_4a/5x5_reduce <- pool3/3x3_s2_pool3/3x3_s2_0_split_2
I0403 19:48:42.009690 25977 net.cpp:399] inception_4a/5x5_reduce -> inception_4a/5x5_reduce
I0403 19:48:42.010654 25977 net.cpp:141] Setting up inception_4a/5x5_reduce
I0403 19:48:42.010685 25977 net.cpp:148] Top shape: 24 16 14 14 (75264)
I0403 19:48:42.010702 25977 net.cpp:156] Memory required for data: 873364512
I0403 19:48:42.010721 25977 layer_factory.hpp:77] Creating layer inception_4a/relu_5x5_reduce
I0403 19:48:42.010742 25977 net.cpp:91] Creating Layer inception_4a/relu_5x5_reduce
I0403 19:48:42.010761 25977 net.cpp:425] inception_4a/relu_5x5_reduce <- inception_4a/5x5_reduce
I0403 19:48:42.010776 25977 net.cpp:386] inception_4a/relu_5x5_reduce -> inception_4a/5x5_reduce (in-place)
I0403 19:48:42.010948 25977 net.cpp:141] Setting up inception_4a/relu_5x5_reduce
I0403 19:48:42.010980 25977 net.cpp:148] Top shape: 24 16 14 14 (75264)
I0403 19:48:42.010998 25977 net.cpp:156] Memory required for data: 873665568
I0403 19:48:42.011014 25977 layer_factory.hpp:77] Creating layer inception_4a/5x5
I0403 19:48:42.011037 25977 net.cpp:91] Creating Layer inception_4a/5x5
I0403 19:48:42.011057 25977 net.cpp:425] inception_4a/5x5 <- inception_4a/5x5_reduce
I0403 19:48:42.011077 25977 net.cpp:399] inception_4a/5x5 -> inception_4a/5x5
I0403 19:48:42.012106 25977 net.cpp:141] Setting up inception_4a/5x5
I0403 19:48:42.012136 25977 net.cpp:148] Top shape: 24 48 14 14 (225792)
I0403 19:48:42.012153 25977 net.cpp:156] Memory required for data: 874568736
I0403 19:48:42.012172 25977 layer_factory.hpp:77] Creating layer inception_4a/relu_5x5
I0403 19:48:42.012189 25977 net.cpp:91] Creating Layer inception_4a/relu_5x5
I0403 19:48:42.012205 25977 net.cpp:425] inception_4a/relu_5x5 <- inception_4a/5x5
I0403 19:48:42.012226 25977 net.cpp:386] inception_4a/relu_5x5 -> inception_4a/5x5 (in-place)
I0403 19:48:42.012408 25977 net.cpp:141] Setting up inception_4a/relu_5x5
I0403 19:48:42.012439 25977 net.cpp:148] Top shape: 24 48 14 14 (225792)
I0403 19:48:42.012454 25977 net.cpp:156] Memory required for data: 875471904
I0403 19:48:42.012468 25977 layer_factory.hpp:77] Creating layer inception_4a/pool
I0403 19:48:42.012486 25977 net.cpp:91] Creating Layer inception_4a/pool
I0403 19:48:42.012507 25977 net.cpp:425] inception_4a/pool <- pool3/3x3_s2_pool3/3x3_s2_0_split_3
I0403 19:48:42.012526 25977 net.cpp:399] inception_4a/pool -> inception_4a/pool
I0403 19:48:42.012588 25977 net.cpp:141] Setting up inception_4a/pool
I0403 19:48:42.012619 25977 net.cpp:148] Top shape: 24 480 14 14 (2257920)
I0403 19:48:42.012634 25977 net.cpp:156] Memory required for data: 884503584
I0403 19:48:42.012648 25977 layer_factory.hpp:77] Creating layer inception_4a/pool_proj
I0403 19:48:42.012670 25977 net.cpp:91] Creating Layer inception_4a/pool_proj
I0403 19:48:42.012691 25977 net.cpp:425] inception_4a/pool_proj <- inception_4a/pool
I0403 19:48:42.012712 25977 net.cpp:399] inception_4a/pool_proj -> inception_4a/pool_proj
I0403 19:48:42.013838 25977 net.cpp:141] Setting up inception_4a/pool_proj
I0403 19:48:42.013866 25977 net.cpp:148] Top shape: 24 64 14 14 (301056)
I0403 19:48:42.013900 25977 net.cpp:156] Memory required for data: 885707808
I0403 19:48:42.013921 25977 layer_factory.hpp:77] Creating layer inception_4a/relu_pool_proj
I0403 19:48:42.013942 25977 net.cpp:91] Creating Layer inception_4a/relu_pool_proj
I0403 19:48:42.013959 25977 net.cpp:425] inception_4a/relu_pool_proj <- inception_4a/pool_proj
I0403 19:48:42.013983 25977 net.cpp:386] inception_4a/relu_pool_proj -> inception_4a/pool_proj (in-place)
I0403 19:48:42.014257 25977 net.cpp:141] Setting up inception_4a/relu_pool_proj
I0403 19:48:42.014295 25977 net.cpp:148] Top shape: 24 64 14 14 (301056)
I0403 19:48:42.014317 25977 net.cpp:156] Memory required for data: 886912032
I0403 19:48:42.014334 25977 layer_factory.hpp:77] Creating layer inception_4a/output
I0403 19:48:42.014353 25977 net.cpp:91] Creating Layer inception_4a/output
I0403 19:48:42.014371 25977 net.cpp:425] inception_4a/output <- inception_4a/1x1
I0403 19:48:42.014390 25977 net.cpp:425] inception_4a/output <- inception_4a/3x3
I0403 19:48:42.014407 25977 net.cpp:425] inception_4a/output <- inception_4a/5x5
I0403 19:48:42.014422 25977 net.cpp:425] inception_4a/output <- inception_4a/pool_proj
I0403 19:48:42.014442 25977 net.cpp:399] inception_4a/output -> inception_4a/output
I0403 19:48:42.014488 25977 net.cpp:141] Setting up inception_4a/output
I0403 19:48:42.014520 25977 net.cpp:148] Top shape: 24 512 14 14 (2408448)
I0403 19:48:42.014539 25977 net.cpp:156] Memory required for data: 896545824
I0403 19:48:42.014555 25977 layer_factory.hpp:77] Creating layer inception_4a/output_inception_4a/output_0_split
I0403 19:48:42.014575 25977 net.cpp:91] Creating Layer inception_4a/output_inception_4a/output_0_split
I0403 19:48:42.014591 25977 net.cpp:425] inception_4a/output_inception_4a/output_0_split <- inception_4a/output
I0403 19:48:42.014611 25977 net.cpp:399] inception_4a/output_inception_4a/output_0_split -> inception_4a/output_inception_4a/output_0_split_0
I0403 19:48:42.014634 25977 net.cpp:399] inception_4a/output_inception_4a/output_0_split -> inception_4a/output_inception_4a/output_0_split_1
I0403 19:48:42.014660 25977 net.cpp:399] inception_4a/output_inception_4a/output_0_split -> inception_4a/output_inception_4a/output_0_split_2
I0403 19:48:42.014685 25977 net.cpp:399] inception_4a/output_inception_4a/output_0_split -> inception_4a/output_inception_4a/output_0_split_3
I0403 19:48:42.014706 25977 net.cpp:399] inception_4a/output_inception_4a/output_0_split -> inception_4a/output_inception_4a/output_0_split_4
I0403 19:48:42.014798 25977 net.cpp:141] Setting up inception_4a/output_inception_4a/output_0_split
I0403 19:48:42.014827 25977 net.cpp:148] Top shape: 24 512 14 14 (2408448)
I0403 19:48:42.014844 25977 net.cpp:148] Top shape: 24 512 14 14 (2408448)
I0403 19:48:42.014868 25977 net.cpp:148] Top shape: 24 512 14 14 (2408448)
I0403 19:48:42.014884 25977 net.cpp:148] Top shape: 24 512 14 14 (2408448)
I0403 19:48:42.014901 25977 net.cpp:148] Top shape: 24 512 14 14 (2408448)
I0403 19:48:42.014914 25977 net.cpp:156] Memory required for data: 944714784
I0403 19:48:42.014927 25977 layer_factory.hpp:77] Creating layer loss1/ave_pool
I0403 19:48:42.014947 25977 net.cpp:91] Creating Layer loss1/ave_pool
I0403 19:48:42.014964 25977 net.cpp:425] loss1/ave_pool <- inception_4a/output_inception_4a/output_0_split_0
I0403 19:48:42.014983 25977 net.cpp:399] loss1/ave_pool -> loss1/ave_pool
I0403 19:48:42.015195 25977 net.cpp:141] Setting up loss1/ave_pool
I0403 19:48:42.015223 25977 net.cpp:148] Top shape: 24 512 4 4 (196608)
I0403 19:48:42.015240 25977 net.cpp:156] Memory required for data: 945501216
I0403 19:48:42.015255 25977 layer_factory.hpp:77] Creating layer loss1/conv
I0403 19:48:42.015280 25977 net.cpp:91] Creating Layer loss1/conv
I0403 19:48:42.015306 25977 net.cpp:425] loss1/conv <- loss1/ave_pool
I0403 19:48:42.015328 25977 net.cpp:399] loss1/conv -> loss1/conv
I0403 19:48:42.016691 25977 net.cpp:141] Setting up loss1/conv
I0403 19:48:42.016723 25977 net.cpp:148] Top shape: 24 128 4 4 (49152)
I0403 19:48:42.016755 25977 net.cpp:156] Memory required for data: 945697824
I0403 19:48:42.016777 25977 layer_factory.hpp:77] Creating layer loss1/relu_conv
I0403 19:48:42.016799 25977 net.cpp:91] Creating Layer loss1/relu_conv
I0403 19:48:42.016820 25977 net.cpp:425] loss1/relu_conv <- loss1/conv
I0403 19:48:42.016839 25977 net.cpp:386] loss1/relu_conv -> loss1/conv (in-place)
I0403 19:48:42.017110 25977 net.cpp:141] Setting up loss1/relu_conv
I0403 19:48:42.017139 25977 net.cpp:148] Top shape: 24 128 4 4 (49152)
I0403 19:48:42.017155 25977 net.cpp:156] Memory required for data: 945894432
I0403 19:48:42.017173 25977 layer_factory.hpp:77] Creating layer loss1/fc
I0403 19:48:42.017201 25977 net.cpp:91] Creating Layer loss1/fc
I0403 19:48:42.017221 25977 net.cpp:425] loss1/fc <- loss1/conv
I0403 19:48:42.017241 25977 net.cpp:399] loss1/fc -> loss1/fc
I0403 19:48:42.034667 25977 net.cpp:141] Setting up loss1/fc
I0403 19:48:42.034709 25977 net.cpp:148] Top shape: 24 1024 (24576)
I0403 19:48:42.034725 25977 net.cpp:156] Memory required for data: 945992736
I0403 19:48:42.034745 25977 layer_factory.hpp:77] Creating layer loss1/relu_fc
I0403 19:48:42.034765 25977 net.cpp:91] Creating Layer loss1/relu_fc
I0403 19:48:42.034781 25977 net.cpp:425] loss1/relu_fc <- loss1/fc
I0403 19:48:42.034801 25977 net.cpp:386] loss1/relu_fc -> loss1/fc (in-place)
I0403 19:48:42.034987 25977 net.cpp:141] Setting up loss1/relu_fc
I0403 19:48:42.035015 25977 net.cpp:148] Top shape: 24 1024 (24576)
I0403 19:48:42.035032 25977 net.cpp:156] Memory required for data: 946091040
I0403 19:48:42.035048 25977 layer_factory.hpp:77] Creating layer loss1/drop_fc
I0403 19:48:42.035079 25977 net.cpp:91] Creating Layer loss1/drop_fc
I0403 19:48:42.035097 25977 net.cpp:425] loss1/drop_fc <- loss1/fc
I0403 19:48:42.035116 25977 net.cpp:386] loss1/drop_fc -> loss1/fc (in-place)
I0403 19:48:42.035169 25977 net.cpp:141] Setting up loss1/drop_fc
I0403 19:48:42.035199 25977 net.cpp:148] Top shape: 24 1024 (24576)
I0403 19:48:42.035218 25977 net.cpp:156] Memory required for data: 946189344
I0403 19:48:42.035234 25977 layer_factory.hpp:77] Creating layer loss1/classifier_plantvillage
I0403 19:48:42.035254 25977 net.cpp:91] Creating Layer loss1/classifier_plantvillage
I0403 19:48:42.035269 25977 net.cpp:425] loss1/classifier_plantvillage <- loss1/fc
I0403 19:48:42.035295 25977 net.cpp:399] loss1/classifier_plantvillage -> loss1/classifier_plantvillage
I0403 19:48:42.036175 25977 net.cpp:141] Setting up loss1/classifier_plantvillage
I0403 19:48:42.036207 25977 net.cpp:148] Top shape: 24 38 (912)
I0403 19:48:42.036224 25977 net.cpp:156] Memory required for data: 946192992
I0403 19:48:42.036242 25977 layer_factory.hpp:77] Creating layer loss1/classifier_plantvillage_loss1/classifier_plantvillage_0_split
I0403 19:48:42.036264 25977 net.cpp:91] Creating Layer loss1/classifier_plantvillage_loss1/classifier_plantvillage_0_split
I0403 19:48:42.036283 25977 net.cpp:425] loss1/classifier_plantvillage_loss1/classifier_plantvillage_0_split <- loss1/classifier_plantvillage
I0403 19:48:42.036309 25977 net.cpp:399] loss1/classifier_plantvillage_loss1/classifier_plantvillage_0_split -> loss1/classifier_plantvillage_loss1/classifier_plantvillage_0_split_0
I0403 19:48:42.036332 25977 net.cpp:399] loss1/classifier_plantvillage_loss1/classifier_plantvillage_0_split -> loss1/classifier_plantvillage_loss1/classifier_plantvillage_0_split_1
I0403 19:48:42.036356 25977 net.cpp:399] loss1/classifier_plantvillage_loss1/classifier_plantvillage_0_split -> loss1/classifier_plantvillage_loss1/classifier_plantvillage_0_split_2
I0403 19:48:42.036422 25977 net.cpp:141] Setting up loss1/classifier_plantvillage_loss1/classifier_plantvillage_0_split
I0403 19:48:42.036450 25977 net.cpp:148] Top shape: 24 38 (912)
I0403 19:48:42.036470 25977 net.cpp:148] Top shape: 24 38 (912)
I0403 19:48:42.036485 25977 net.cpp:148] Top shape: 24 38 (912)
I0403 19:48:42.036499 25977 net.cpp:156] Memory required for data: 946203936
I0403 19:48:42.036514 25977 layer_factory.hpp:77] Creating layer inception_4b/1x1
I0403 19:48:42.036532 25977 net.cpp:91] Creating Layer inception_4b/1x1
I0403 19:48:42.036568 25977 net.cpp:425] inception_4b/1x1 <- inception_4a/output_inception_4a/output_0_split_1
I0403 19:48:42.036591 25977 net.cpp:399] inception_4b/1x1 -> inception_4b/1x1
I0403 19:48:42.038131 25977 net.cpp:141] Setting up inception_4b/1x1
I0403 19:48:42.038161 25977 net.cpp:148] Top shape: 24 160 14 14 (752640)
I0403 19:48:42.038178 25977 net.cpp:156] Memory required for data: 949214496
I0403 19:48:42.038198 25977 layer_factory.hpp:77] Creating layer inception_4b/relu_1x1
I0403 19:48:42.038218 25977 net.cpp:91] Creating Layer inception_4b/relu_1x1
I0403 19:48:42.038236 25977 net.cpp:425] inception_4b/relu_1x1 <- inception_4b/1x1
I0403 19:48:42.038254 25977 net.cpp:386] inception_4b/relu_1x1 -> inception_4b/1x1 (in-place)
I0403 19:48:42.038429 25977 net.cpp:141] Setting up inception_4b/relu_1x1
I0403 19:48:42.038460 25977 net.cpp:148] Top shape: 24 160 14 14 (752640)
I0403 19:48:42.038478 25977 net.cpp:156] Memory required for data: 952225056
I0403 19:48:42.038493 25977 layer_factory.hpp:77] Creating layer inception_4b/3x3_reduce
I0403 19:48:42.038516 25977 net.cpp:91] Creating Layer inception_4b/3x3_reduce
I0403 19:48:42.038534 25977 net.cpp:425] inception_4b/3x3_reduce <- inception_4a/output_inception_4a/output_0_split_2
I0403 19:48:42.038554 25977 net.cpp:399] inception_4b/3x3_reduce -> inception_4b/3x3_reduce
I0403 19:48:42.039839 25977 net.cpp:141] Setting up inception_4b/3x3_reduce
I0403 19:48:42.039873 25977 net.cpp:148] Top shape: 24 112 14 14 (526848)
I0403 19:48:42.039893 25977 net.cpp:156] Memory required for data: 954332448
I0403 19:48:42.039912 25977 layer_factory.hpp:77] Creating layer inception_4b/relu_3x3_reduce
I0403 19:48:42.039930 25977 net.cpp:91] Creating Layer inception_4b/relu_3x3_reduce
I0403 19:48:42.039947 25977 net.cpp:425] inception_4b/relu_3x3_reduce <- inception_4b/3x3_reduce
I0403 19:48:42.039968 25977 net.cpp:386] inception_4b/relu_3x3_reduce -> inception_4b/3x3_reduce (in-place)
I0403 19:48:42.040242 25977 net.cpp:141] Setting up inception_4b/relu_3x3_reduce
I0403 19:48:42.040272 25977 net.cpp:148] Top shape: 24 112 14 14 (526848)
I0403 19:48:42.040295 25977 net.cpp:156] Memory required for data: 956439840
I0403 19:48:42.040313 25977 layer_factory.hpp:77] Creating layer inception_4b/3x3
I0403 19:48:42.040338 25977 net.cpp:91] Creating Layer inception_4b/3x3
I0403 19:48:42.040356 25977 net.cpp:425] inception_4b/3x3 <- inception_4b/3x3_reduce
I0403 19:48:42.040376 25977 net.cpp:399] inception_4b/3x3 -> inception_4b/3x3
I0403 19:48:42.043200 25977 net.cpp:141] Setting up inception_4b/3x3
I0403 19:48:42.043231 25977 net.cpp:148] Top shape: 24 224 14 14 (1053696)
I0403 19:48:42.043248 25977 net.cpp:156] Memory required for data: 960654624
I0403 19:48:42.043268 25977 layer_factory.hpp:77] Creating layer inception_4b/relu_3x3
I0403 19:48:42.043293 25977 net.cpp:91] Creating Layer inception_4b/relu_3x3
I0403 19:48:42.043315 25977 net.cpp:425] inception_4b/relu_3x3 <- inception_4b/3x3
I0403 19:48:42.043335 25977 net.cpp:386] inception_4b/relu_3x3 -> inception_4b/3x3 (in-place)
I0403 19:48:42.043510 25977 net.cpp:141] Setting up inception_4b/relu_3x3
I0403 19:48:42.043535 25977 net.cpp:148] Top shape: 24 224 14 14 (1053696)
I0403 19:48:42.043551 25977 net.cpp:156] Memory required for data: 964869408
I0403 19:48:42.043567 25977 layer_factory.hpp:77] Creating layer inception_4b/5x5_reduce
I0403 19:48:42.043591 25977 net.cpp:91] Creating Layer inception_4b/5x5_reduce
I0403 19:48:42.043612 25977 net.cpp:425] inception_4b/5x5_reduce <- inception_4a/output_inception_4a/output_0_split_3
I0403 19:48:42.043637 25977 net.cpp:399] inception_4b/5x5_reduce -> inception_4b/5x5_reduce
I0403 19:48:42.044702 25977 net.cpp:141] Setting up inception_4b/5x5_reduce
I0403 19:48:42.044731 25977 net.cpp:148] Top shape: 24 24 14 14 (112896)
I0403 19:48:42.044749 25977 net.cpp:156] Memory required for data: 965320992
I0403 19:48:42.044770 25977 layer_factory.hpp:77] Creating layer inception_4b/relu_5x5_reduce
I0403 19:48:42.044801 25977 net.cpp:91] Creating Layer inception_4b/relu_5x5_reduce
I0403 19:48:42.044834 25977 net.cpp:425] inception_4b/relu_5x5_reduce <- inception_4b/5x5_reduce
I0403 19:48:42.044864 25977 net.cpp:386] inception_4b/relu_5x5_reduce -> inception_4b/5x5_reduce (in-place)
I0403 19:48:42.045043 25977 net.cpp:141] Setting up inception_4b/relu_5x5_reduce
I0403 19:48:42.045071 25977 net.cpp:148] Top shape: 24 24 14 14 (112896)
I0403 19:48:42.045089 25977 net.cpp:156] Memory required for data: 965772576
I0403 19:48:42.045105 25977 layer_factory.hpp:77] Creating layer inception_4b/5x5
I0403 19:48:42.045130 25977 net.cpp:91] Creating Layer inception_4b/5x5
I0403 19:48:42.045148 25977 net.cpp:425] inception_4b/5x5 <- inception_4b/5x5_reduce
I0403 19:48:42.045171 25977 net.cpp:399] inception_4b/5x5 -> inception_4b/5x5
I0403 19:48:42.046355 25977 net.cpp:141] Setting up inception_4b/5x5
I0403 19:48:42.046383 25977 net.cpp:148] Top shape: 24 64 14 14 (301056)
I0403 19:48:42.046401 25977 net.cpp:156] Memory required for data: 966976800
I0403 19:48:42.046421 25977 layer_factory.hpp:77] Creating layer inception_4b/relu_5x5
I0403 19:48:42.046442 25977 net.cpp:91] Creating Layer inception_4b/relu_5x5
I0403 19:48:42.046459 25977 net.cpp:425] inception_4b/relu_5x5 <- inception_4b/5x5
I0403 19:48:42.046478 25977 net.cpp:386] inception_4b/relu_5x5 -> inception_4b/5x5 (in-place)
I0403 19:48:42.046749 25977 net.cpp:141] Setting up inception_4b/relu_5x5
I0403 19:48:42.046779 25977 net.cpp:148] Top shape: 24 64 14 14 (301056)
I0403 19:48:42.046795 25977 net.cpp:156] Memory required for data: 968181024
I0403 19:48:42.046813 25977 layer_factory.hpp:77] Creating layer inception_4b/pool
I0403 19:48:42.046836 25977 net.cpp:91] Creating Layer inception_4b/pool
I0403 19:48:42.046856 25977 net.cpp:425] inception_4b/pool <- inception_4a/output_inception_4a/output_0_split_4
I0403 19:48:42.046875 25977 net.cpp:399] inception_4b/pool -> inception_4b/pool
I0403 19:48:42.046941 25977 net.cpp:141] Setting up inception_4b/pool
I0403 19:48:42.046967 25977 net.cpp:148] Top shape: 24 512 14 14 (2408448)
I0403 19:48:42.046982 25977 net.cpp:156] Memory required for data: 977814816
I0403 19:48:42.046998 25977 layer_factory.hpp:77] Creating layer inception_4b/pool_proj
I0403 19:48:42.047020 25977 net.cpp:91] Creating Layer inception_4b/pool_proj
I0403 19:48:42.047040 25977 net.cpp:425] inception_4b/pool_proj <- inception_4b/pool
I0403 19:48:42.047061 25977 net.cpp:399] inception_4b/pool_proj -> inception_4b/pool_proj
I0403 19:48:42.048202 25977 net.cpp:141] Setting up inception_4b/pool_proj
I0403 19:48:42.048235 25977 net.cpp:148] Top shape: 24 64 14 14 (301056)
I0403 19:48:42.048255 25977 net.cpp:156] Memory required for data: 979019040
I0403 19:48:42.048274 25977 layer_factory.hpp:77] Creating layer inception_4b/relu_pool_proj
I0403 19:48:42.048298 25977 net.cpp:91] Creating Layer inception_4b/relu_pool_proj
I0403 19:48:42.048321 25977 net.cpp:425] inception_4b/relu_pool_proj <- inception_4b/pool_proj
I0403 19:48:42.048339 25977 net.cpp:386] inception_4b/relu_pool_proj -> inception_4b/pool_proj (in-place)
I0403 19:48:42.048516 25977 net.cpp:141] Setting up inception_4b/relu_pool_proj
I0403 19:48:42.048547 25977 net.cpp:148] Top shape: 24 64 14 14 (301056)
I0403 19:48:42.048564 25977 net.cpp:156] Memory required for data: 980223264
I0403 19:48:42.048579 25977 layer_factory.hpp:77] Creating layer inception_4b/output
I0403 19:48:42.048596 25977 net.cpp:91] Creating Layer inception_4b/output
I0403 19:48:42.048612 25977 net.cpp:425] inception_4b/output <- inception_4b/1x1
I0403 19:48:42.048630 25977 net.cpp:425] inception_4b/output <- inception_4b/3x3
I0403 19:48:42.048648 25977 net.cpp:425] inception_4b/output <- inception_4b/5x5
I0403 19:48:42.048665 25977 net.cpp:425] inception_4b/output <- inception_4b/pool_proj
I0403 19:48:42.048682 25977 net.cpp:399] inception_4b/output -> inception_4b/output
I0403 19:48:42.048728 25977 net.cpp:141] Setting up inception_4b/output
I0403 19:48:42.048756 25977 net.cpp:148] Top shape: 24 512 14 14 (2408448)
I0403 19:48:42.048774 25977 net.cpp:156] Memory required for data: 989857056
I0403 19:48:42.048804 25977 layer_factory.hpp:77] Creating layer inception_4b/output_inception_4b/output_0_split
I0403 19:48:42.048827 25977 net.cpp:91] Creating Layer inception_4b/output_inception_4b/output_0_split
I0403 19:48:42.048846 25977 net.cpp:425] inception_4b/output_inception_4b/output_0_split <- inception_4b/output
I0403 19:48:42.048864 25977 net.cpp:399] inception_4b/output_inception_4b/output_0_split -> inception_4b/output_inception_4b/output_0_split_0
I0403 19:48:42.048887 25977 net.cpp:399] inception_4b/output_inception_4b/output_0_split -> inception_4b/output_inception_4b/output_0_split_1
I0403 19:48:42.048913 25977 net.cpp:399] inception_4b/output_inception_4b/output_0_split -> inception_4b/output_inception_4b/output_0_split_2
I0403 19:48:42.048936 25977 net.cpp:399] inception_4b/output_inception_4b/output_0_split -> inception_4b/output_inception_4b/output_0_split_3
I0403 19:48:42.049020 25977 net.cpp:141] Setting up inception_4b/output_inception_4b/output_0_split
I0403 19:48:42.049047 25977 net.cpp:148] Top shape: 24 512 14 14 (2408448)
I0403 19:48:42.049065 25977 net.cpp:148] Top shape: 24 512 14 14 (2408448)
I0403 19:48:42.049082 25977 net.cpp:148] Top shape: 24 512 14 14 (2408448)
I0403 19:48:42.049098 25977 net.cpp:148] Top shape: 24 512 14 14 (2408448)
I0403 19:48:42.049110 25977 net.cpp:156] Memory required for data: 1028392224
I0403 19:48:42.049126 25977 layer_factory.hpp:77] Creating layer inception_4c/1x1
I0403 19:48:42.049149 25977 net.cpp:91] Creating Layer inception_4c/1x1
I0403 19:48:42.049170 25977 net.cpp:425] inception_4c/1x1 <- inception_4b/output_inception_4b/output_0_split_0
I0403 19:48:42.049190 25977 net.cpp:399] inception_4c/1x1 -> inception_4c/1x1
I0403 19:48:42.050551 25977 net.cpp:141] Setting up inception_4c/1x1
I0403 19:48:42.050587 25977 net.cpp:148] Top shape: 24 128 14 14 (602112)
I0403 19:48:42.050607 25977 net.cpp:156] Memory required for data: 1030800672
I0403 19:48:42.050626 25977 layer_factory.hpp:77] Creating layer inception_4c/relu_1x1
I0403 19:48:42.050643 25977 net.cpp:91] Creating Layer inception_4c/relu_1x1
I0403 19:48:42.050660 25977 net.cpp:425] inception_4c/relu_1x1 <- inception_4c/1x1
I0403 19:48:42.050680 25977 net.cpp:386] inception_4c/relu_1x1 -> inception_4c/1x1 (in-place)
I0403 19:48:42.050855 25977 net.cpp:141] Setting up inception_4c/relu_1x1
I0403 19:48:42.050881 25977 net.cpp:148] Top shape: 24 128 14 14 (602112)
I0403 19:48:42.050899 25977 net.cpp:156] Memory required for data: 1033209120
I0403 19:48:42.050914 25977 layer_factory.hpp:77] Creating layer inception_4c/3x3_reduce
I0403 19:48:42.050936 25977 net.cpp:91] Creating Layer inception_4c/3x3_reduce
I0403 19:48:42.050956 25977 net.cpp:425] inception_4c/3x3_reduce <- inception_4b/output_inception_4b/output_0_split_1
I0403 19:48:42.050979 25977 net.cpp:399] inception_4c/3x3_reduce -> inception_4c/3x3_reduce
I0403 19:48:42.052842 25977 net.cpp:141] Setting up inception_4c/3x3_reduce
I0403 19:48:42.052873 25977 net.cpp:148] Top shape: 24 128 14 14 (602112)
I0403 19:48:42.052891 25977 net.cpp:156] Memory required for data: 1035617568
I0403 19:48:42.052909 25977 layer_factory.hpp:77] Creating layer inception_4c/relu_3x3_reduce
I0403 19:48:42.052932 25977 net.cpp:91] Creating Layer inception_4c/relu_3x3_reduce
I0403 19:48:42.052952 25977 net.cpp:425] inception_4c/relu_3x3_reduce <- inception_4c/3x3_reduce
I0403 19:48:42.052971 25977 net.cpp:386] inception_4c/relu_3x3_reduce -> inception_4c/3x3_reduce (in-place)
I0403 19:48:42.053248 25977 net.cpp:141] Setting up inception_4c/relu_3x3_reduce
I0403 19:48:42.053280 25977 net.cpp:148] Top shape: 24 128 14 14 (602112)
I0403 19:48:42.053303 25977 net.cpp:156] Memory required for data: 1038026016
I0403 19:48:42.053320 25977 layer_factory.hpp:77] Creating layer inception_4c/3x3
I0403 19:48:42.053344 25977 net.cpp:91] Creating Layer inception_4c/3x3
I0403 19:48:42.053366 25977 net.cpp:425] inception_4c/3x3 <- inception_4c/3x3_reduce
I0403 19:48:42.053390 25977 net.cpp:399] inception_4c/3x3 -> inception_4c/3x3
I0403 19:48:42.056807 25977 net.cpp:141] Setting up inception_4c/3x3
I0403 19:48:42.056849 25977 net.cpp:148] Top shape: 24 256 14 14 (1204224)
I0403 19:48:42.056867 25977 net.cpp:156] Memory required for data: 1042842912
I0403 19:48:42.056900 25977 layer_factory.hpp:77] Creating layer inception_4c/relu_3x3
I0403 19:48:42.056923 25977 net.cpp:91] Creating Layer inception_4c/relu_3x3
I0403 19:48:42.056942 25977 net.cpp:425] inception_4c/relu_3x3 <- inception_4c/3x3
I0403 19:48:42.056959 25977 net.cpp:386] inception_4c/relu_3x3 -> inception_4c/3x3 (in-place)
I0403 19:48:42.057132 25977 net.cpp:141] Setting up inception_4c/relu_3x3
I0403 19:48:42.057159 25977 net.cpp:148] Top shape: 24 256 14 14 (1204224)
I0403 19:48:42.057174 25977 net.cpp:156] Memory required for data: 1047659808
I0403 19:48:42.057189 25977 layer_factory.hpp:77] Creating layer inception_4c/5x5_reduce
I0403 19:48:42.057219 25977 net.cpp:91] Creating Layer inception_4c/5x5_reduce
I0403 19:48:42.057237 25977 net.cpp:425] inception_4c/5x5_reduce <- inception_4b/output_inception_4b/output_0_split_2
I0403 19:48:42.057256 25977 net.cpp:399] inception_4c/5x5_reduce -> inception_4c/5x5_reduce
I0403 19:48:42.058298 25977 net.cpp:141] Setting up inception_4c/5x5_reduce
I0403 19:48:42.058331 25977 net.cpp:148] Top shape: 24 24 14 14 (112896)
I0403 19:48:42.058349 25977 net.cpp:156] Memory required for data: 1048111392
I0403 19:48:42.058368 25977 layer_factory.hpp:77] Creating layer inception_4c/relu_5x5_reduce
I0403 19:48:42.058390 25977 net.cpp:91] Creating Layer inception_4c/relu_5x5_reduce
I0403 19:48:42.058411 25977 net.cpp:425] inception_4c/relu_5x5_reduce <- inception_4c/5x5_reduce
I0403 19:48:42.058430 25977 net.cpp:386] inception_4c/relu_5x5_reduce -> inception_4c/5x5_reduce (in-place)
I0403 19:48:42.058607 25977 net.cpp:141] Setting up inception_4c/relu_5x5_reduce
I0403 19:48:42.058634 25977 net.cpp:148] Top shape: 24 24 14 14 (112896)
I0403 19:48:42.058650 25977 net.cpp:156] Memory required for data: 1048562976
I0403 19:48:42.058665 25977 layer_factory.hpp:77] Creating layer inception_4c/5x5
I0403 19:48:42.058688 25977 net.cpp:91] Creating Layer inception_4c/5x5
I0403 19:48:42.058708 25977 net.cpp:425] inception_4c/5x5 <- inception_4c/5x5_reduce
I0403 19:48:42.058730 25977 net.cpp:399] inception_4c/5x5 -> inception_4c/5x5
I0403 19:48:42.059911 25977 net.cpp:141] Setting up inception_4c/5x5
I0403 19:48:42.059943 25977 net.cpp:148] Top shape: 24 64 14 14 (301056)
I0403 19:48:42.059965 25977 net.cpp:156] Memory required for data: 1049767200
I0403 19:48:42.059985 25977 layer_factory.hpp:77] Creating layer inception_4c/relu_5x5
I0403 19:48:42.060003 25977 net.cpp:91] Creating Layer inception_4c/relu_5x5
I0403 19:48:42.060021 25977 net.cpp:425] inception_4c/relu_5x5 <- inception_4c/5x5
I0403 19:48:42.060042 25977 net.cpp:386] inception_4c/relu_5x5 -> inception_4c/5x5 (in-place)
I0403 19:48:42.060322 25977 net.cpp:141] Setting up inception_4c/relu_5x5
I0403 19:48:42.060353 25977 net.cpp:148] Top shape: 24 64 14 14 (301056)
I0403 19:48:42.060372 25977 net.cpp:156] Memory required for data: 1050971424
I0403 19:48:42.060387 25977 layer_factory.hpp:77] Creating layer inception_4c/pool
I0403 19:48:42.060406 25977 net.cpp:91] Creating Layer inception_4c/pool
I0403 19:48:42.060423 25977 net.cpp:425] inception_4c/pool <- inception_4b/output_inception_4b/output_0_split_3
I0403 19:48:42.060444 25977 net.cpp:399] inception_4c/pool -> inception_4c/pool
I0403 19:48:42.060509 25977 net.cpp:141] Setting up inception_4c/pool
I0403 19:48:42.060540 25977 net.cpp:148] Top shape: 24 512 14 14 (2408448)
I0403 19:48:42.060559 25977 net.cpp:156] Memory required for data: 1060605216
I0403 19:48:42.060575 25977 layer_factory.hpp:77] Creating layer inception_4c/pool_proj
I0403 19:48:42.060595 25977 net.cpp:91] Creating Layer inception_4c/pool_proj
I0403 19:48:42.060612 25977 net.cpp:425] inception_4c/pool_proj <- inception_4c/pool
I0403 19:48:42.060634 25977 net.cpp:399] inception_4c/pool_proj -> inception_4c/pool_proj
I0403 19:48:42.061796 25977 net.cpp:141] Setting up inception_4c/pool_proj
I0403 19:48:42.061828 25977 net.cpp:148] Top shape: 24 64 14 14 (301056)
I0403 19:48:42.061861 25977 net.cpp:156] Memory required for data: 1061809440
I0403 19:48:42.061882 25977 layer_factory.hpp:77] Creating layer inception_4c/relu_pool_proj
I0403 19:48:42.061905 25977 net.cpp:91] Creating Layer inception_4c/relu_pool_proj
I0403 19:48:42.061924 25977 net.cpp:425] inception_4c/relu_pool_proj <- inception_4c/pool_proj
I0403 19:48:42.061944 25977 net.cpp:386] inception_4c/relu_pool_proj -> inception_4c/pool_proj (in-place)
I0403 19:48:42.062121 25977 net.cpp:141] Setting up inception_4c/relu_pool_proj
I0403 19:48:42.062151 25977 net.cpp:148] Top shape: 24 64 14 14 (301056)
I0403 19:48:42.062170 25977 net.cpp:156] Memory required for data: 1063013664
I0403 19:48:42.062186 25977 layer_factory.hpp:77] Creating layer inception_4c/output
I0403 19:48:42.062204 25977 net.cpp:91] Creating Layer inception_4c/output
I0403 19:48:42.062222 25977 net.cpp:425] inception_4c/output <- inception_4c/1x1
I0403 19:48:42.062237 25977 net.cpp:425] inception_4c/output <- inception_4c/3x3
I0403 19:48:42.062252 25977 net.cpp:425] inception_4c/output <- inception_4c/5x5
I0403 19:48:42.062268 25977 net.cpp:425] inception_4c/output <- inception_4c/pool_proj
I0403 19:48:42.062306 25977 net.cpp:399] inception_4c/output -> inception_4c/output
I0403 19:48:42.062358 25977 net.cpp:141] Setting up inception_4c/output
I0403 19:48:42.062384 25977 net.cpp:148] Top shape: 24 512 14 14 (2408448)
I0403 19:48:42.062402 25977 net.cpp:156] Memory required for data: 1072647456
I0403 19:48:42.062417 25977 layer_factory.hpp:77] Creating layer inception_4c/output_inception_4c/output_0_split
I0403 19:48:42.062436 25977 net.cpp:91] Creating Layer inception_4c/output_inception_4c/output_0_split
I0403 19:48:42.062454 25977 net.cpp:425] inception_4c/output_inception_4c/output_0_split <- inception_4c/output
I0403 19:48:42.062474 25977 net.cpp:399] inception_4c/output_inception_4c/output_0_split -> inception_4c/output_inception_4c/output_0_split_0
I0403 19:48:42.062495 25977 net.cpp:399] inception_4c/output_inception_4c/output_0_split -> inception_4c/output_inception_4c/output_0_split_1
I0403 19:48:42.062521 25977 net.cpp:399] inception_4c/output_inception_4c/output_0_split -> inception_4c/output_inception_4c/output_0_split_2
I0403 19:48:42.062546 25977 net.cpp:399] inception_4c/output_inception_4c/output_0_split -> inception_4c/output_inception_4c/output_0_split_3
I0403 19:48:42.062631 25977 net.cpp:141] Setting up inception_4c/output_inception_4c/output_0_split
I0403 19:48:42.062660 25977 net.cpp:148] Top shape: 24 512 14 14 (2408448)
I0403 19:48:42.062679 25977 net.cpp:148] Top shape: 24 512 14 14 (2408448)
I0403 19:48:42.062695 25977 net.cpp:148] Top shape: 24 512 14 14 (2408448)
I0403 19:48:42.062712 25977 net.cpp:148] Top shape: 24 512 14 14 (2408448)
I0403 19:48:42.062724 25977 net.cpp:156] Memory required for data: 1111182624
I0403 19:48:42.062741 25977 layer_factory.hpp:77] Creating layer inception_4d/1x1
I0403 19:48:42.062762 25977 net.cpp:91] Creating Layer inception_4d/1x1
I0403 19:48:42.062783 25977 net.cpp:425] inception_4d/1x1 <- inception_4c/output_inception_4c/output_0_split_0
I0403 19:48:42.062806 25977 net.cpp:399] inception_4d/1x1 -> inception_4d/1x1
I0403 19:48:42.064158 25977 net.cpp:141] Setting up inception_4d/1x1
I0403 19:48:42.064188 25977 net.cpp:148] Top shape: 24 112 14 14 (526848)
I0403 19:48:42.064206 25977 net.cpp:156] Memory required for data: 1113290016
I0403 19:48:42.064226 25977 layer_factory.hpp:77] Creating layer inception_4d/relu_1x1
I0403 19:48:42.064249 25977 net.cpp:91] Creating Layer inception_4d/relu_1x1
I0403 19:48:42.064268 25977 net.cpp:425] inception_4d/relu_1x1 <- inception_4d/1x1
I0403 19:48:42.064298 25977 net.cpp:386] inception_4d/relu_1x1 -> inception_4d/1x1 (in-place)
I0403 19:48:42.064484 25977 net.cpp:141] Setting up inception_4d/relu_1x1
I0403 19:48:42.064512 25977 net.cpp:148] Top shape: 24 112 14 14 (526848)
I0403 19:48:42.064528 25977 net.cpp:156] Memory required for data: 1115397408
I0403 19:48:42.064543 25977 layer_factory.hpp:77] Creating layer inception_4d/3x3_reduce
I0403 19:48:42.064585 25977 net.cpp:91] Creating Layer inception_4d/3x3_reduce
I0403 19:48:42.064607 25977 net.cpp:425] inception_4d/3x3_reduce <- inception_4c/output_inception_4c/output_0_split_1
I0403 19:48:42.064628 25977 net.cpp:399] inception_4d/3x3_reduce -> inception_4d/3x3_reduce
I0403 19:48:42.066093 25977 net.cpp:141] Setting up inception_4d/3x3_reduce
I0403 19:48:42.066124 25977 net.cpp:148] Top shape: 24 144 14 14 (677376)
I0403 19:48:42.066141 25977 net.cpp:156] Memory required for data: 1118106912
I0403 19:48:42.066160 25977 layer_factory.hpp:77] Creating layer inception_4d/relu_3x3_reduce
I0403 19:48:42.066180 25977 net.cpp:91] Creating Layer inception_4d/relu_3x3_reduce
I0403 19:48:42.066198 25977 net.cpp:425] inception_4d/relu_3x3_reduce <- inception_4d/3x3_reduce
I0403 19:48:42.066220 25977 net.cpp:386] inception_4d/relu_3x3_reduce -> inception_4d/3x3_reduce (in-place)
I0403 19:48:42.066509 25977 net.cpp:141] Setting up inception_4d/relu_3x3_reduce
I0403 19:48:42.066541 25977 net.cpp:148] Top shape: 24 144 14 14 (677376)
I0403 19:48:42.066558 25977 net.cpp:156] Memory required for data: 1120816416
I0403 19:48:42.066575 25977 layer_factory.hpp:77] Creating layer inception_4d/3x3
I0403 19:48:42.066598 25977 net.cpp:91] Creating Layer inception_4d/3x3
I0403 19:48:42.066618 25977 net.cpp:425] inception_4d/3x3 <- inception_4d/3x3_reduce
I0403 19:48:42.066640 25977 net.cpp:399] inception_4d/3x3 -> inception_4d/3x3
I0403 19:48:42.070832 25977 net.cpp:141] Setting up inception_4d/3x3
I0403 19:48:42.070864 25977 net.cpp:148] Top shape: 24 288 14 14 (1354752)
I0403 19:48:42.070881 25977 net.cpp:156] Memory required for data: 1126235424
I0403 19:48:42.070899 25977 layer_factory.hpp:77] Creating layer inception_4d/relu_3x3
I0403 19:48:42.070920 25977 net.cpp:91] Creating Layer inception_4d/relu_3x3
I0403 19:48:42.070940 25977 net.cpp:425] inception_4d/relu_3x3 <- inception_4d/3x3
I0403 19:48:42.070958 25977 net.cpp:386] inception_4d/relu_3x3 -> inception_4d/3x3 (in-place)
I0403 19:48:42.071136 25977 net.cpp:141] Setting up inception_4d/relu_3x3
I0403 19:48:42.071167 25977 net.cpp:148] Top shape: 24 288 14 14 (1354752)
I0403 19:48:42.071185 25977 net.cpp:156] Memory required for data: 1131654432
I0403 19:48:42.071202 25977 layer_factory.hpp:77] Creating layer inception_4d/5x5_reduce
I0403 19:48:42.071225 25977 net.cpp:91] Creating Layer inception_4d/5x5_reduce
I0403 19:48:42.071246 25977 net.cpp:425] inception_4d/5x5_reduce <- inception_4c/output_inception_4c/output_0_split_2
I0403 19:48:42.071267 25977 net.cpp:399] inception_4d/5x5_reduce -> inception_4d/5x5_reduce
I0403 19:48:42.072397 25977 net.cpp:141] Setting up inception_4d/5x5_reduce
I0403 19:48:42.072428 25977 net.cpp:148] Top shape: 24 32 14 14 (150528)
I0403 19:48:42.072448 25977 net.cpp:156] Memory required for data: 1132256544
I0403 19:48:42.072466 25977 layer_factory.hpp:77] Creating layer inception_4d/relu_5x5_reduce
I0403 19:48:42.072489 25977 net.cpp:91] Creating Layer inception_4d/relu_5x5_reduce
I0403 19:48:42.072510 25977 net.cpp:425] inception_4d/relu_5x5_reduce <- inception_4d/5x5_reduce
I0403 19:48:42.072528 25977 net.cpp:386] inception_4d/relu_5x5_reduce -> inception_4d/5x5_reduce (in-place)
I0403 19:48:42.072715 25977 net.cpp:141] Setting up inception_4d/relu_5x5_reduce
I0403 19:48:42.072743 25977 net.cpp:148] Top shape: 24 32 14 14 (150528)
I0403 19:48:42.072762 25977 net.cpp:156] Memory required for data: 1132858656
I0403 19:48:42.072777 25977 layer_factory.hpp:77] Creating layer inception_4d/5x5
I0403 19:48:42.072800 25977 net.cpp:91] Creating Layer inception_4d/5x5
I0403 19:48:42.072821 25977 net.cpp:425] inception_4d/5x5 <- inception_4d/5x5_reduce
I0403 19:48:42.072841 25977 net.cpp:399] inception_4d/5x5 -> inception_4d/5x5
I0403 19:48:42.074262 25977 net.cpp:141] Setting up inception_4d/5x5
I0403 19:48:42.074303 25977 net.cpp:148] Top shape: 24 64 14 14 (301056)
I0403 19:48:42.074326 25977 net.cpp:156] Memory required for data: 1134062880
I0403 19:48:42.074348 25977 layer_factory.hpp:77] Creating layer inception_4d/relu_5x5
I0403 19:48:42.074383 25977 net.cpp:91] Creating Layer inception_4d/relu_5x5
I0403 19:48:42.074404 25977 net.cpp:425] inception_4d/relu_5x5 <- inception_4d/5x5
I0403 19:48:42.074424 25977 net.cpp:386] inception_4d/relu_5x5 -> inception_4d/5x5 (in-place)
I0403 19:48:42.074722 25977 net.cpp:141] Setting up inception_4d/relu_5x5
I0403 19:48:42.074753 25977 net.cpp:148] Top shape: 24 64 14 14 (301056)
I0403 19:48:42.074771 25977 net.cpp:156] Memory required for data: 1135267104
I0403 19:48:42.074787 25977 layer_factory.hpp:77] Creating layer inception_4d/pool
I0403 19:48:42.074805 25977 net.cpp:91] Creating Layer inception_4d/pool
I0403 19:48:42.074825 25977 net.cpp:425] inception_4d/pool <- inception_4c/output_inception_4c/output_0_split_3
I0403 19:48:42.074847 25977 net.cpp:399] inception_4d/pool -> inception_4d/pool
I0403 19:48:42.074915 25977 net.cpp:141] Setting up inception_4d/pool
I0403 19:48:42.074945 25977 net.cpp:148] Top shape: 24 512 14 14 (2408448)
I0403 19:48:42.074961 25977 net.cpp:156] Memory required for data: 1144900896
I0403 19:48:42.074976 25977 layer_factory.hpp:77] Creating layer inception_4d/pool_proj
I0403 19:48:42.075001 25977 net.cpp:91] Creating Layer inception_4d/pool_proj
I0403 19:48:42.075019 25977 net.cpp:425] inception_4d/pool_proj <- inception_4d/pool
I0403 19:48:42.075042 25977 net.cpp:399] inception_4d/pool_proj -> inception_4d/pool_proj
I0403 19:48:42.076789 25977 net.cpp:141] Setting up inception_4d/pool_proj
I0403 19:48:42.076823 25977 net.cpp:148] Top shape: 24 64 14 14 (301056)
I0403 19:48:42.076840 25977 net.cpp:156] Memory required for data: 1146105120
I0403 19:48:42.076859 25977 layer_factory.hpp:77] Creating layer inception_4d/relu_pool_proj
I0403 19:48:42.076882 25977 net.cpp:91] Creating Layer inception_4d/relu_pool_proj
I0403 19:48:42.076905 25977 net.cpp:425] inception_4d/relu_pool_proj <- inception_4d/pool_proj
I0403 19:48:42.076925 25977 net.cpp:386] inception_4d/relu_pool_proj -> inception_4d/pool_proj (in-place)
I0403 19:48:42.077106 25977 net.cpp:141] Setting up inception_4d/relu_pool_proj
I0403 19:48:42.077137 25977 net.cpp:148] Top shape: 24 64 14 14 (301056)
I0403 19:48:42.077155 25977 net.cpp:156] Memory required for data: 1147309344
I0403 19:48:42.077173 25977 layer_factory.hpp:77] Creating layer inception_4d/output
I0403 19:48:42.077191 25977 net.cpp:91] Creating Layer inception_4d/output
I0403 19:48:42.077208 25977 net.cpp:425] inception_4d/output <- inception_4d/1x1
I0403 19:48:42.077226 25977 net.cpp:425] inception_4d/output <- inception_4d/3x3
I0403 19:48:42.077244 25977 net.cpp:425] inception_4d/output <- inception_4d/5x5
I0403 19:48:42.077261 25977 net.cpp:425] inception_4d/output <- inception_4d/pool_proj
I0403 19:48:42.077280 25977 net.cpp:399] inception_4d/output -> inception_4d/output
I0403 19:48:42.077338 25977 net.cpp:141] Setting up inception_4d/output
I0403 19:48:42.077365 25977 net.cpp:148] Top shape: 24 528 14 14 (2483712)
I0403 19:48:42.077383 25977 net.cpp:156] Memory required for data: 1157244192
I0403 19:48:42.077397 25977 layer_factory.hpp:77] Creating layer inception_4d/output_inception_4d/output_0_split
I0403 19:48:42.077419 25977 net.cpp:91] Creating Layer inception_4d/output_inception_4d/output_0_split
I0403 19:48:42.077436 25977 net.cpp:425] inception_4d/output_inception_4d/output_0_split <- inception_4d/output
I0403 19:48:42.077457 25977 net.cpp:399] inception_4d/output_inception_4d/output_0_split -> inception_4d/output_inception_4d/output_0_split_0
I0403 19:48:42.077479 25977 net.cpp:399] inception_4d/output_inception_4d/output_0_split -> inception_4d/output_inception_4d/output_0_split_1
I0403 19:48:42.077504 25977 net.cpp:399] inception_4d/output_inception_4d/output_0_split -> inception_4d/output_inception_4d/output_0_split_2
I0403 19:48:42.077527 25977 net.cpp:399] inception_4d/output_inception_4d/output_0_split -> inception_4d/output_inception_4d/output_0_split_3
I0403 19:48:42.077551 25977 net.cpp:399] inception_4d/output_inception_4d/output_0_split -> inception_4d/output_inception_4d/output_0_split_4
I0403 19:48:42.077657 25977 net.cpp:141] Setting up inception_4d/output_inception_4d/output_0_split
I0403 19:48:42.077698 25977 net.cpp:148] Top shape: 24 528 14 14 (2483712)
I0403 19:48:42.077718 25977 net.cpp:148] Top shape: 24 528 14 14 (2483712)
I0403 19:48:42.077734 25977 net.cpp:148] Top shape: 24 528 14 14 (2483712)
I0403 19:48:42.077751 25977 net.cpp:148] Top shape: 24 528 14 14 (2483712)
I0403 19:48:42.077766 25977 net.cpp:148] Top shape: 24 528 14 14 (2483712)
I0403 19:48:42.077780 25977 net.cpp:156] Memory required for data: 1206918432
I0403 19:48:42.077796 25977 layer_factory.hpp:77] Creating layer loss2/ave_pool
I0403 19:48:42.077814 25977 net.cpp:91] Creating Layer loss2/ave_pool
I0403 19:48:42.077833 25977 net.cpp:425] loss2/ave_pool <- inception_4d/output_inception_4d/output_0_split_0
I0403 19:48:42.077857 25977 net.cpp:399] loss2/ave_pool -> loss2/ave_pool
I0403 19:48:42.078163 25977 net.cpp:141] Setting up loss2/ave_pool
I0403 19:48:42.078193 25977 net.cpp:148] Top shape: 24 528 4 4 (202752)
I0403 19:48:42.078212 25977 net.cpp:156] Memory required for data: 1207729440
I0403 19:48:42.078228 25977 layer_factory.hpp:77] Creating layer loss2/conv
I0403 19:48:42.078250 25977 net.cpp:91] Creating Layer loss2/conv
I0403 19:48:42.078271 25977 net.cpp:425] loss2/conv <- loss2/ave_pool
I0403 19:48:42.078299 25977 net.cpp:399] loss2/conv -> loss2/conv
I0403 19:48:42.080201 25977 net.cpp:141] Setting up loss2/conv
I0403 19:48:42.080237 25977 net.cpp:148] Top shape: 24 128 4 4 (49152)
I0403 19:48:42.080257 25977 net.cpp:156] Memory required for data: 1207926048
I0403 19:48:42.080276 25977 layer_factory.hpp:77] Creating layer loss2/relu_conv
I0403 19:48:42.080301 25977 net.cpp:91] Creating Layer loss2/relu_conv
I0403 19:48:42.080320 25977 net.cpp:425] loss2/relu_conv <- loss2/conv
I0403 19:48:42.080338 25977 net.cpp:386] loss2/relu_conv -> loss2/conv (in-place)
I0403 19:48:42.080610 25977 net.cpp:141] Setting up loss2/relu_conv
I0403 19:48:42.080641 25977 net.cpp:148] Top shape: 24 128 4 4 (49152)
I0403 19:48:42.080660 25977 net.cpp:156] Memory required for data: 1208122656
I0403 19:48:42.080677 25977 layer_factory.hpp:77] Creating layer loss2/fc
I0403 19:48:42.080696 25977 net.cpp:91] Creating Layer loss2/fc
I0403 19:48:42.080713 25977 net.cpp:425] loss2/fc <- loss2/conv
I0403 19:48:42.080734 25977 net.cpp:399] loss2/fc -> loss2/fc
I0403 19:48:42.097689 25977 net.cpp:141] Setting up loss2/fc
I0403 19:48:42.097728 25977 net.cpp:148] Top shape: 24 1024 (24576)
I0403 19:48:42.097745 25977 net.cpp:156] Memory required for data: 1208220960
I0403 19:48:42.097764 25977 layer_factory.hpp:77] Creating layer loss2/relu_fc
I0403 19:48:42.097785 25977 net.cpp:91] Creating Layer loss2/relu_fc
I0403 19:48:42.097805 25977 net.cpp:425] loss2/relu_fc <- loss2/fc
I0403 19:48:42.097825 25977 net.cpp:386] loss2/relu_fc -> loss2/fc (in-place)
I0403 19:48:42.098119 25977 net.cpp:141] Setting up loss2/relu_fc
I0403 19:48:42.098147 25977 net.cpp:148] Top shape: 24 1024 (24576)
I0403 19:48:42.098165 25977 net.cpp:156] Memory required for data: 1208319264
I0403 19:48:42.098181 25977 layer_factory.hpp:77] Creating layer loss2/drop_fc
I0403 19:48:42.098201 25977 net.cpp:91] Creating Layer loss2/drop_fc
I0403 19:48:42.098219 25977 net.cpp:425] loss2/drop_fc <- loss2/fc
I0403 19:48:42.098238 25977 net.cpp:386] loss2/drop_fc -> loss2/fc (in-place)
I0403 19:48:42.098295 25977 net.cpp:141] Setting up loss2/drop_fc
I0403 19:48:42.098323 25977 net.cpp:148] Top shape: 24 1024 (24576)
I0403 19:48:42.098340 25977 net.cpp:156] Memory required for data: 1208417568
I0403 19:48:42.098356 25977 layer_factory.hpp:77] Creating layer loss2/classifier_plantvillage
I0403 19:48:42.098374 25977 net.cpp:91] Creating Layer loss2/classifier_plantvillage
I0403 19:48:42.098397 25977 net.cpp:425] loss2/classifier_plantvillage <- loss2/fc
I0403 19:48:42.098417 25977 net.cpp:399] loss2/classifier_plantvillage -> loss2/classifier_plantvillage
I0403 19:48:42.098798 25977 net.cpp:141] Setting up loss2/classifier_plantvillage
I0403 19:48:42.098822 25977 net.cpp:148] Top shape: 24 38 (912)
I0403 19:48:42.098856 25977 net.cpp:156] Memory required for data: 1208421216
I0403 19:48:42.098875 25977 layer_factory.hpp:77] Creating layer loss2/classifier_plantvillage_loss2/classifier_plantvillage_0_split
I0403 19:48:42.098896 25977 net.cpp:91] Creating Layer loss2/classifier_plantvillage_loss2/classifier_plantvillage_0_split
I0403 19:48:42.098914 25977 net.cpp:425] loss2/classifier_plantvillage_loss2/classifier_plantvillage_0_split <- loss2/classifier_plantvillage
I0403 19:48:42.098937 25977 net.cpp:399] loss2/classifier_plantvillage_loss2/classifier_plantvillage_0_split -> loss2/classifier_plantvillage_loss2/classifier_plantvillage_0_split_0
I0403 19:48:42.098959 25977 net.cpp:399] loss2/classifier_plantvillage_loss2/classifier_plantvillage_0_split -> loss2/classifier_plantvillage_loss2/classifier_plantvillage_0_split_1
I0403 19:48:42.098983 25977 net.cpp:399] loss2/classifier_plantvillage_loss2/classifier_plantvillage_0_split -> loss2/classifier_plantvillage_loss2/classifier_plantvillage_0_split_2
I0403 19:48:42.099059 25977 net.cpp:141] Setting up loss2/classifier_plantvillage_loss2/classifier_plantvillage_0_split
I0403 19:48:42.099086 25977 net.cpp:148] Top shape: 24 38 (912)
I0403 19:48:42.099104 25977 net.cpp:148] Top shape: 24 38 (912)
I0403 19:48:42.099120 25977 net.cpp:148] Top shape: 24 38 (912)
I0403 19:48:42.099134 25977 net.cpp:156] Memory required for data: 1208432160
I0403 19:48:42.099149 25977 layer_factory.hpp:77] Creating layer inception_4e/1x1
I0403 19:48:42.099171 25977 net.cpp:91] Creating Layer inception_4e/1x1
I0403 19:48:42.099190 25977 net.cpp:425] inception_4e/1x1 <- inception_4d/output_inception_4d/output_0_split_1
I0403 19:48:42.099212 25977 net.cpp:399] inception_4e/1x1 -> inception_4e/1x1
I0403 19:48:42.100950 25977 net.cpp:141] Setting up inception_4e/1x1
I0403 19:48:42.100982 25977 net.cpp:148] Top shape: 24 256 14 14 (1204224)
I0403 19:48:42.101001 25977 net.cpp:156] Memory required for data: 1213249056
I0403 19:48:42.101018 25977 layer_factory.hpp:77] Creating layer inception_4e/relu_1x1
I0403 19:48:42.101037 25977 net.cpp:91] Creating Layer inception_4e/relu_1x1
I0403 19:48:42.101055 25977 net.cpp:425] inception_4e/relu_1x1 <- inception_4e/1x1
I0403 19:48:42.101076 25977 net.cpp:386] inception_4e/relu_1x1 -> inception_4e/1x1 (in-place)
I0403 19:48:42.101366 25977 net.cpp:141] Setting up inception_4e/relu_1x1
I0403 19:48:42.101395 25977 net.cpp:148] Top shape: 24 256 14 14 (1204224)
I0403 19:48:42.101413 25977 net.cpp:156] Memory required for data: 1218065952
I0403 19:48:42.101429 25977 layer_factory.hpp:77] Creating layer inception_4e/3x3_reduce
I0403 19:48:42.101454 25977 net.cpp:91] Creating Layer inception_4e/3x3_reduce
I0403 19:48:42.101474 25977 net.cpp:425] inception_4e/3x3_reduce <- inception_4d/output_inception_4d/output_0_split_2
I0403 19:48:42.101492 25977 net.cpp:399] inception_4e/3x3_reduce -> inception_4e/3x3_reduce
I0403 19:48:42.103528 25977 net.cpp:141] Setting up inception_4e/3x3_reduce
I0403 19:48:42.103561 25977 net.cpp:148] Top shape: 24 160 14 14 (752640)
I0403 19:48:42.103579 25977 net.cpp:156] Memory required for data: 1221076512
I0403 19:48:42.103597 25977 layer_factory.hpp:77] Creating layer inception_4e/relu_3x3_reduce
I0403 19:48:42.103616 25977 net.cpp:91] Creating Layer inception_4e/relu_3x3_reduce
I0403 19:48:42.103634 25977 net.cpp:425] inception_4e/relu_3x3_reduce <- inception_4e/3x3_reduce
I0403 19:48:42.103653 25977 net.cpp:386] inception_4e/relu_3x3_reduce -> inception_4e/3x3_reduce (in-place)
I0403 19:48:42.103834 25977 net.cpp:141] Setting up inception_4e/relu_3x3_reduce
I0403 19:48:42.103863 25977 net.cpp:148] Top shape: 24 160 14 14 (752640)
I0403 19:48:42.103879 25977 net.cpp:156] Memory required for data: 1224087072
I0403 19:48:42.103894 25977 layer_factory.hpp:77] Creating layer inception_4e/3x3
I0403 19:48:42.103917 25977 net.cpp:91] Creating Layer inception_4e/3x3
I0403 19:48:42.103936 25977 net.cpp:425] inception_4e/3x3 <- inception_4e/3x3_reduce
I0403 19:48:42.103958 25977 net.cpp:399] inception_4e/3x3 -> inception_4e/3x3
I0403 19:48:42.108769 25977 net.cpp:141] Setting up inception_4e/3x3
I0403 19:48:42.108811 25977 net.cpp:148] Top shape: 24 320 14 14 (1505280)
I0403 19:48:42.108830 25977 net.cpp:156] Memory required for data: 1230108192
I0403 19:48:42.108850 25977 layer_factory.hpp:77] Creating layer inception_4e/relu_3x3
I0403 19:48:42.108867 25977 net.cpp:91] Creating Layer inception_4e/relu_3x3
I0403 19:48:42.108885 25977 net.cpp:425] inception_4e/relu_3x3 <- inception_4e/3x3
I0403 19:48:42.108906 25977 net.cpp:386] inception_4e/relu_3x3 -> inception_4e/3x3 (in-place)
I0403 19:48:42.109190 25977 net.cpp:141] Setting up inception_4e/relu_3x3
I0403 19:48:42.109218 25977 net.cpp:148] Top shape: 24 320 14 14 (1505280)
I0403 19:48:42.109236 25977 net.cpp:156] Memory required for data: 1236129312
I0403 19:48:42.109251 25977 layer_factory.hpp:77] Creating layer inception_4e/5x5_reduce
I0403 19:48:42.109272 25977 net.cpp:91] Creating Layer inception_4e/5x5_reduce
I0403 19:48:42.109295 25977 net.cpp:425] inception_4e/5x5_reduce <- inception_4d/output_inception_4d/output_0_split_3
I0403 19:48:42.109319 25977 net.cpp:399] inception_4e/5x5_reduce -> inception_4e/5x5_reduce
I0403 19:48:42.110350 25977 net.cpp:141] Setting up inception_4e/5x5_reduce
I0403 19:48:42.110383 25977 net.cpp:148] Top shape: 24 32 14 14 (150528)
I0403 19:48:42.110402 25977 net.cpp:156] Memory required for data: 1236731424
I0403 19:48:42.110422 25977 layer_factory.hpp:77] Creating layer inception_4e/relu_5x5_reduce
I0403 19:48:42.110440 25977 net.cpp:91] Creating Layer inception_4e/relu_5x5_reduce
I0403 19:48:42.110458 25977 net.cpp:425] inception_4e/relu_5x5_reduce <- inception_4e/5x5_reduce
I0403 19:48:42.110478 25977 net.cpp:386] inception_4e/relu_5x5_reduce -> inception_4e/5x5_reduce (in-place)
I0403 19:48:42.110764 25977 net.cpp:141] Setting up inception_4e/relu_5x5_reduce
I0403 19:48:42.110795 25977 net.cpp:148] Top shape: 24 32 14 14 (150528)
I0403 19:48:42.110812 25977 net.cpp:156] Memory required for data: 1237333536
I0403 19:48:42.110828 25977 layer_factory.hpp:77] Creating layer inception_4e/5x5
I0403 19:48:42.110870 25977 net.cpp:91] Creating Layer inception_4e/5x5
I0403 19:48:42.110893 25977 net.cpp:425] inception_4e/5x5 <- inception_4e/5x5_reduce
I0403 19:48:42.110913 25977 net.cpp:399] inception_4e/5x5 -> inception_4e/5x5
I0403 19:48:42.112650 25977 net.cpp:141] Setting up inception_4e/5x5
I0403 19:48:42.112679 25977 net.cpp:148] Top shape: 24 128 14 14 (602112)
I0403 19:48:42.112697 25977 net.cpp:156] Memory required for data: 1239741984
I0403 19:48:42.112716 25977 layer_factory.hpp:77] Creating layer inception_4e/relu_5x5
I0403 19:48:42.112738 25977 net.cpp:91] Creating Layer inception_4e/relu_5x5
I0403 19:48:42.112757 25977 net.cpp:425] inception_4e/relu_5x5 <- inception_4e/5x5
I0403 19:48:42.112774 25977 net.cpp:386] inception_4e/relu_5x5 -> inception_4e/5x5 (in-place)
I0403 19:48:42.112963 25977 net.cpp:141] Setting up inception_4e/relu_5x5
I0403 19:48:42.112993 25977 net.cpp:148] Top shape: 24 128 14 14 (602112)
I0403 19:48:42.113010 25977 net.cpp:156] Memory required for data: 1242150432
I0403 19:48:42.113025 25977 layer_factory.hpp:77] Creating layer inception_4e/pool
I0403 19:48:42.113044 25977 net.cpp:91] Creating Layer inception_4e/pool
I0403 19:48:42.113062 25977 net.cpp:425] inception_4e/pool <- inception_4d/output_inception_4d/output_0_split_4
I0403 19:48:42.113085 25977 net.cpp:399] inception_4e/pool -> inception_4e/pool
I0403 19:48:42.113154 25977 net.cpp:141] Setting up inception_4e/pool
I0403 19:48:42.113180 25977 net.cpp:148] Top shape: 24 528 14 14 (2483712)
I0403 19:48:42.113196 25977 net.cpp:156] Memory required for data: 1252085280
I0403 19:48:42.113211 25977 layer_factory.hpp:77] Creating layer inception_4e/pool_proj
I0403 19:48:42.113234 25977 net.cpp:91] Creating Layer inception_4e/pool_proj
I0403 19:48:42.113255 25977 net.cpp:425] inception_4e/pool_proj <- inception_4e/pool
I0403 19:48:42.113273 25977 net.cpp:399] inception_4e/pool_proj -> inception_4e/pool_proj
I0403 19:48:42.114723 25977 net.cpp:141] Setting up inception_4e/pool_proj
I0403 19:48:42.114763 25977 net.cpp:148] Top shape: 24 128 14 14 (602112)
I0403 19:48:42.114783 25977 net.cpp:156] Memory required for data: 1254493728
I0403 19:48:42.114801 25977 layer_factory.hpp:77] Creating layer inception_4e/relu_pool_proj
I0403 19:48:42.114825 25977 net.cpp:91] Creating Layer inception_4e/relu_pool_proj
I0403 19:48:42.114842 25977 net.cpp:425] inception_4e/relu_pool_proj <- inception_4e/pool_proj
I0403 19:48:42.114861 25977 net.cpp:386] inception_4e/relu_pool_proj -> inception_4e/pool_proj (in-place)
I0403 19:48:42.115140 25977 net.cpp:141] Setting up inception_4e/relu_pool_proj
I0403 19:48:42.115170 25977 net.cpp:148] Top shape: 24 128 14 14 (602112)
I0403 19:48:42.115185 25977 net.cpp:156] Memory required for data: 1256902176
I0403 19:48:42.115200 25977 layer_factory.hpp:77] Creating layer inception_4e/output
I0403 19:48:42.115218 25977 net.cpp:91] Creating Layer inception_4e/output
I0403 19:48:42.115236 25977 net.cpp:425] inception_4e/output <- inception_4e/1x1
I0403 19:48:42.115255 25977 net.cpp:425] inception_4e/output <- inception_4e/3x3
I0403 19:48:42.115274 25977 net.cpp:425] inception_4e/output <- inception_4e/5x5
I0403 19:48:42.115298 25977 net.cpp:425] inception_4e/output <- inception_4e/pool_proj
I0403 19:48:42.115320 25977 net.cpp:399] inception_4e/output -> inception_4e/output
I0403 19:48:42.115378 25977 net.cpp:141] Setting up inception_4e/output
I0403 19:48:42.115404 25977 net.cpp:148] Top shape: 24 832 14 14 (3913728)
I0403 19:48:42.115422 25977 net.cpp:156] Memory required for data: 1272557088
I0403 19:48:42.115437 25977 layer_factory.hpp:77] Creating layer pool4/3x3_s2
I0403 19:48:42.115454 25977 net.cpp:91] Creating Layer pool4/3x3_s2
I0403 19:48:42.115473 25977 net.cpp:425] pool4/3x3_s2 <- inception_4e/output
I0403 19:48:42.115499 25977 net.cpp:399] pool4/3x3_s2 -> pool4/3x3_s2
I0403 19:48:42.115567 25977 net.cpp:141] Setting up pool4/3x3_s2
I0403 19:48:42.115594 25977 net.cpp:148] Top shape: 24 832 7 7 (978432)
I0403 19:48:42.115610 25977 net.cpp:156] Memory required for data: 1276470816
I0403 19:48:42.115625 25977 layer_factory.hpp:77] Creating layer pool4/3x3_s2_pool4/3x3_s2_0_split
I0403 19:48:42.115646 25977 net.cpp:91] Creating Layer pool4/3x3_s2_pool4/3x3_s2_0_split
I0403 19:48:42.115666 25977 net.cpp:425] pool4/3x3_s2_pool4/3x3_s2_0_split <- pool4/3x3_s2
I0403 19:48:42.115686 25977 net.cpp:399] pool4/3x3_s2_pool4/3x3_s2_0_split -> pool4/3x3_s2_pool4/3x3_s2_0_split_0
I0403 19:48:42.115711 25977 net.cpp:399] pool4/3x3_s2_pool4/3x3_s2_0_split -> pool4/3x3_s2_pool4/3x3_s2_0_split_1
I0403 19:48:42.115734 25977 net.cpp:399] pool4/3x3_s2_pool4/3x3_s2_0_split -> pool4/3x3_s2_pool4/3x3_s2_0_split_2
I0403 19:48:42.115754 25977 net.cpp:399] pool4/3x3_s2_pool4/3x3_s2_0_split -> pool4/3x3_s2_pool4/3x3_s2_0_split_3
I0403 19:48:42.115844 25977 net.cpp:141] Setting up pool4/3x3_s2_pool4/3x3_s2_0_split
I0403 19:48:42.115874 25977 net.cpp:148] Top shape: 24 832 7 7 (978432)
I0403 19:48:42.115891 25977 net.cpp:148] Top shape: 24 832 7 7 (978432)
I0403 19:48:42.115906 25977 net.cpp:148] Top shape: 24 832 7 7 (978432)
I0403 19:48:42.115921 25977 net.cpp:148] Top shape: 24 832 7 7 (978432)
I0403 19:48:42.115934 25977 net.cpp:156] Memory required for data: 1292125728
I0403 19:48:42.115949 25977 layer_factory.hpp:77] Creating layer inception_5a/1x1
I0403 19:48:42.115972 25977 net.cpp:91] Creating Layer inception_5a/1x1
I0403 19:48:42.115990 25977 net.cpp:425] inception_5a/1x1 <- pool4/3x3_s2_pool4/3x3_s2_0_split_0
I0403 19:48:42.116011 25977 net.cpp:399] inception_5a/1x1 -> inception_5a/1x1
I0403 19:48:42.118834 25977 net.cpp:141] Setting up inception_5a/1x1
I0403 19:48:42.118870 25977 net.cpp:148] Top shape: 24 256 7 7 (301056)
I0403 19:48:42.118887 25977 net.cpp:156] Memory required for data: 1293329952
I0403 19:48:42.118907 25977 layer_factory.hpp:77] Creating layer inception_5a/relu_1x1
I0403 19:48:42.118927 25977 net.cpp:91] Creating Layer inception_5a/relu_1x1
I0403 19:48:42.118947 25977 net.cpp:425] inception_5a/relu_1x1 <- inception_5a/1x1
I0403 19:48:42.118965 25977 net.cpp:386] inception_5a/relu_1x1 -> inception_5a/1x1 (in-place)
I0403 19:48:42.119269 25977 net.cpp:141] Setting up inception_5a/relu_1x1
I0403 19:48:42.119307 25977 net.cpp:148] Top shape: 24 256 7 7 (301056)
I0403 19:48:42.119326 25977 net.cpp:156] Memory required for data: 1294534176
I0403 19:48:42.119343 25977 layer_factory.hpp:77] Creating layer inception_5a/3x3_reduce
I0403 19:48:42.119366 25977 net.cpp:91] Creating Layer inception_5a/3x3_reduce
I0403 19:48:42.119384 25977 net.cpp:425] inception_5a/3x3_reduce <- pool4/3x3_s2_pool4/3x3_s2_0_split_1
I0403 19:48:42.119405 25977 net.cpp:399] inception_5a/3x3_reduce -> inception_5a/3x3_reduce
I0403 19:48:42.121858 25977 net.cpp:141] Setting up inception_5a/3x3_reduce
I0403 19:48:42.121891 25977 net.cpp:148] Top shape: 24 160 7 7 (188160)
I0403 19:48:42.121909 25977 net.cpp:156] Memory required for data: 1295286816
I0403 19:48:42.121930 25977 layer_factory.hpp:77] Creating layer inception_5a/relu_3x3_reduce
I0403 19:48:42.121948 25977 net.cpp:91] Creating Layer inception_5a/relu_3x3_reduce
I0403 19:48:42.121963 25977 net.cpp:425] inception_5a/relu_3x3_reduce <- inception_5a/3x3_reduce
I0403 19:48:42.121984 25977 net.cpp:386] inception_5a/relu_3x3_reduce -> inception_5a/3x3_reduce (in-place)
I0403 19:48:42.122169 25977 net.cpp:141] Setting up inception_5a/relu_3x3_reduce
I0403 19:48:42.122200 25977 net.cpp:148] Top shape: 24 160 7 7 (188160)
I0403 19:48:42.122216 25977 net.cpp:156] Memory required for data: 1296039456
I0403 19:48:42.122233 25977 layer_factory.hpp:77] Creating layer inception_5a/3x3
I0403 19:48:42.122258 25977 net.cpp:91] Creating Layer inception_5a/3x3
I0403 19:48:42.122278 25977 net.cpp:425] inception_5a/3x3 <- inception_5a/3x3_reduce
I0403 19:48:42.122308 25977 net.cpp:399] inception_5a/3x3 -> inception_5a/3x3
I0403 19:48:42.127254 25977 net.cpp:141] Setting up inception_5a/3x3
I0403 19:48:42.127293 25977 net.cpp:148] Top shape: 24 320 7 7 (376320)
I0403 19:48:42.127315 25977 net.cpp:156] Memory required for data: 1297544736
I0403 19:48:42.127336 25977 layer_factory.hpp:77] Creating layer inception_5a/relu_3x3
I0403 19:48:42.127358 25977 net.cpp:91] Creating Layer inception_5a/relu_3x3
I0403 19:48:42.127378 25977 net.cpp:425] inception_5a/relu_3x3 <- inception_5a/3x3
I0403 19:48:42.127398 25977 net.cpp:386] inception_5a/relu_3x3 -> inception_5a/3x3 (in-place)
I0403 19:48:42.127689 25977 net.cpp:141] Setting up inception_5a/relu_3x3
I0403 19:48:42.127720 25977 net.cpp:148] Top shape: 24 320 7 7 (376320)
I0403 19:48:42.127738 25977 net.cpp:156] Memory required for data: 1299050016
I0403 19:48:42.127753 25977 layer_factory.hpp:77] Creating layer inception_5a/5x5_reduce
I0403 19:48:42.127777 25977 net.cpp:91] Creating Layer inception_5a/5x5_reduce
I0403 19:48:42.127797 25977 net.cpp:425] inception_5a/5x5_reduce <- pool4/3x3_s2_pool4/3x3_s2_0_split_2
I0403 19:48:42.127817 25977 net.cpp:399] inception_5a/5x5_reduce -> inception_5a/5x5_reduce
I0403 19:48:42.128976 25977 net.cpp:141] Setting up inception_5a/5x5_reduce
I0403 19:48:42.129011 25977 net.cpp:148] Top shape: 24 32 7 7 (37632)
I0403 19:48:42.129031 25977 net.cpp:156] Memory required for data: 1299200544
I0403 19:48:42.129050 25977 layer_factory.hpp:77] Creating layer inception_5a/relu_5x5_reduce
I0403 19:48:42.129071 25977 net.cpp:91] Creating Layer inception_5a/relu_5x5_reduce
I0403 19:48:42.129089 25977 net.cpp:425] inception_5a/relu_5x5_reduce <- inception_5a/5x5_reduce
I0403 19:48:42.129108 25977 net.cpp:386] inception_5a/relu_5x5_reduce -> inception_5a/5x5_reduce (in-place)
I0403 19:48:42.129413 25977 net.cpp:141] Setting up inception_5a/relu_5x5_reduce
I0403 19:48:42.129447 25977 net.cpp:148] Top shape: 24 32 7 7 (37632)
I0403 19:48:42.129465 25977 net.cpp:156] Memory required for data: 1299351072
I0403 19:48:42.129480 25977 layer_factory.hpp:77] Creating layer inception_5a/5x5
I0403 19:48:42.129504 25977 net.cpp:91] Creating Layer inception_5a/5x5
I0403 19:48:42.129525 25977 net.cpp:425] inception_5a/5x5 <- inception_5a/5x5_reduce
I0403 19:48:42.129547 25977 net.cpp:399] inception_5a/5x5 -> inception_5a/5x5
I0403 19:48:42.131230 25977 net.cpp:141] Setting up inception_5a/5x5
I0403 19:48:42.131275 25977 net.cpp:148] Top shape: 24 128 7 7 (150528)
I0403 19:48:42.131300 25977 net.cpp:156] Memory required for data: 1299953184
I0403 19:48:42.131322 25977 layer_factory.hpp:77] Creating layer inception_5a/relu_5x5
I0403 19:48:42.131345 25977 net.cpp:91] Creating Layer inception_5a/relu_5x5
I0403 19:48:42.131366 25977 net.cpp:425] inception_5a/relu_5x5 <- inception_5a/5x5
I0403 19:48:42.131387 25977 net.cpp:386] inception_5a/relu_5x5 -> inception_5a/5x5 (in-place)
I0403 19:48:42.131577 25977 net.cpp:141] Setting up inception_5a/relu_5x5
I0403 19:48:42.131608 25977 net.cpp:148] Top shape: 24 128 7 7 (150528)
I0403 19:48:42.131626 25977 net.cpp:156] Memory required for data: 1300555296
I0403 19:48:42.131642 25977 layer_factory.hpp:77] Creating layer inception_5a/pool
I0403 19:48:42.131660 25977 net.cpp:91] Creating Layer inception_5a/pool
I0403 19:48:42.131680 25977 net.cpp:425] inception_5a/pool <- pool4/3x3_s2_pool4/3x3_s2_0_split_3
I0403 19:48:42.131701 25977 net.cpp:399] inception_5a/pool -> inception_5a/pool
I0403 19:48:42.131773 25977 net.cpp:141] Setting up inception_5a/pool
I0403 19:48:42.131817 25977 net.cpp:148] Top shape: 24 832 7 7 (978432)
I0403 19:48:42.131834 25977 net.cpp:156] Memory required for data: 1304469024
I0403 19:48:42.131851 25977 layer_factory.hpp:77] Creating layer inception_5a/pool_proj
I0403 19:48:42.131877 25977 net.cpp:91] Creating Layer inception_5a/pool_proj
I0403 19:48:42.131897 25977 net.cpp:425] inception_5a/pool_proj <- inception_5a/pool
I0403 19:48:42.131918 25977 net.cpp:399] inception_5a/pool_proj -> inception_5a/pool_proj
I0403 19:48:42.134212 25977 net.cpp:141] Setting up inception_5a/pool_proj
I0403 19:48:42.134246 25977 net.cpp:148] Top shape: 24 128 7 7 (150528)
I0403 19:48:42.134276 25977 net.cpp:156] Memory required for data: 1305071136
I0403 19:48:42.134308 25977 layer_factory.hpp:77] Creating layer inception_5a/relu_pool_proj
I0403 19:48:42.134335 25977 net.cpp:91] Creating Layer inception_5a/relu_pool_proj
I0403 19:48:42.134353 25977 net.cpp:425] inception_5a/relu_pool_proj <- inception_5a/pool_proj
I0403 19:48:42.134372 25977 net.cpp:386] inception_5a/relu_pool_proj -> inception_5a/pool_proj (in-place)
I0403 19:48:42.134654 25977 net.cpp:141] Setting up inception_5a/relu_pool_proj
I0403 19:48:42.134683 25977 net.cpp:148] Top shape: 24 128 7 7 (150528)
I0403 19:48:42.134702 25977 net.cpp:156] Memory required for data: 1305673248
I0403 19:48:42.134717 25977 layer_factory.hpp:77] Creating layer inception_5a/output
I0403 19:48:42.134737 25977 net.cpp:91] Creating Layer inception_5a/output
I0403 19:48:42.134754 25977 net.cpp:425] inception_5a/output <- inception_5a/1x1
I0403 19:48:42.134771 25977 net.cpp:425] inception_5a/output <- inception_5a/3x3
I0403 19:48:42.134790 25977 net.cpp:425] inception_5a/output <- inception_5a/5x5
I0403 19:48:42.134807 25977 net.cpp:425] inception_5a/output <- inception_5a/pool_proj
I0403 19:48:42.134825 25977 net.cpp:399] inception_5a/output -> inception_5a/output
I0403 19:48:42.134876 25977 net.cpp:141] Setting up inception_5a/output
I0403 19:48:42.134902 25977 net.cpp:148] Top shape: 24 832 7 7 (978432)
I0403 19:48:42.134918 25977 net.cpp:156] Memory required for data: 1309586976
I0403 19:48:42.134932 25977 layer_factory.hpp:77] Creating layer inception_5a/output_inception_5a/output_0_split
I0403 19:48:42.134949 25977 net.cpp:91] Creating Layer inception_5a/output_inception_5a/output_0_split
I0403 19:48:42.134966 25977 net.cpp:425] inception_5a/output_inception_5a/output_0_split <- inception_5a/output
I0403 19:48:42.134987 25977 net.cpp:399] inception_5a/output_inception_5a/output_0_split -> inception_5a/output_inception_5a/output_0_split_0
I0403 19:48:42.135011 25977 net.cpp:399] inception_5a/output_inception_5a/output_0_split -> inception_5a/output_inception_5a/output_0_split_1
I0403 19:48:42.135033 25977 net.cpp:399] inception_5a/output_inception_5a/output_0_split -> inception_5a/output_inception_5a/output_0_split_2
I0403 19:48:42.135056 25977 net.cpp:399] inception_5a/output_inception_5a/output_0_split -> inception_5a/output_inception_5a/output_0_split_3
I0403 19:48:42.135167 25977 net.cpp:141] Setting up inception_5a/output_inception_5a/output_0_split
I0403 19:48:42.135200 25977 net.cpp:148] Top shape: 24 832 7 7 (978432)
I0403 19:48:42.135220 25977 net.cpp:148] Top shape: 24 832 7 7 (978432)
I0403 19:48:42.135236 25977 net.cpp:148] Top shape: 24 832 7 7 (978432)
I0403 19:48:42.135252 25977 net.cpp:148] Top shape: 24 832 7 7 (978432)
I0403 19:48:42.135267 25977 net.cpp:156] Memory required for data: 1325241888
I0403 19:48:42.135282 25977 layer_factory.hpp:77] Creating layer inception_5b/1x1
I0403 19:48:42.135309 25977 net.cpp:91] Creating Layer inception_5b/1x1
I0403 19:48:42.135331 25977 net.cpp:425] inception_5b/1x1 <- inception_5a/output_inception_5a/output_0_split_0
I0403 19:48:42.135350 25977 net.cpp:399] inception_5b/1x1 -> inception_5b/1x1
I0403 19:48:42.138942 25977 net.cpp:141] Setting up inception_5b/1x1
I0403 19:48:42.138973 25977 net.cpp:148] Top shape: 24 384 7 7 (451584)
I0403 19:48:42.138993 25977 net.cpp:156] Memory required for data: 1327048224
I0403 19:48:42.139013 25977 layer_factory.hpp:77] Creating layer inception_5b/relu_1x1
I0403 19:48:42.139032 25977 net.cpp:91] Creating Layer inception_5b/relu_1x1
I0403 19:48:42.139048 25977 net.cpp:425] inception_5b/relu_1x1 <- inception_5b/1x1
I0403 19:48:42.139068 25977 net.cpp:386] inception_5b/relu_1x1 -> inception_5b/1x1 (in-place)
I0403 19:48:42.139369 25977 net.cpp:141] Setting up inception_5b/relu_1x1
I0403 19:48:42.139400 25977 net.cpp:148] Top shape: 24 384 7 7 (451584)
I0403 19:48:42.139417 25977 net.cpp:156] Memory required for data: 1328854560
I0403 19:48:42.139436 25977 layer_factory.hpp:77] Creating layer inception_5b/3x3_reduce
I0403 19:48:42.139461 25977 net.cpp:91] Creating Layer inception_5b/3x3_reduce
I0403 19:48:42.139478 25977 net.cpp:425] inception_5b/3x3_reduce <- inception_5a/output_inception_5a/output_0_split_1
I0403 19:48:42.139503 25977 net.cpp:399] inception_5b/3x3_reduce -> inception_5b/3x3_reduce
I0403 19:48:42.142056 25977 net.cpp:141] Setting up inception_5b/3x3_reduce
I0403 19:48:42.142091 25977 net.cpp:148] Top shape: 24 192 7 7 (225792)
I0403 19:48:42.142107 25977 net.cpp:156] Memory required for data: 1329757728
I0403 19:48:42.142127 25977 layer_factory.hpp:77] Creating layer inception_5b/relu_3x3_reduce
I0403 19:48:42.142148 25977 net.cpp:91] Creating Layer inception_5b/relu_3x3_reduce
I0403 19:48:42.142168 25977 net.cpp:425] inception_5b/relu_3x3_reduce <- inception_5b/3x3_reduce
I0403 19:48:42.142187 25977 net.cpp:386] inception_5b/relu_3x3_reduce -> inception_5b/3x3_reduce (in-place)
I0403 19:48:42.142376 25977 net.cpp:141] Setting up inception_5b/relu_3x3_reduce
I0403 19:48:42.142405 25977 net.cpp:148] Top shape: 24 192 7 7 (225792)
I0403 19:48:42.142419 25977 net.cpp:156] Memory required for data: 1330660896
I0403 19:48:42.142433 25977 layer_factory.hpp:77] Creating layer inception_5b/3x3
I0403 19:48:42.142457 25977 net.cpp:91] Creating Layer inception_5b/3x3
I0403 19:48:42.142477 25977 net.cpp:425] inception_5b/3x3 <- inception_5b/3x3_reduce
I0403 19:48:42.142498 25977 net.cpp:399] inception_5b/3x3 -> inception_5b/3x3
I0403 19:48:42.148970 25977 net.cpp:141] Setting up inception_5b/3x3
I0403 19:48:42.149003 25977 net.cpp:148] Top shape: 24 384 7 7 (451584)
I0403 19:48:42.149020 25977 net.cpp:156] Memory required for data: 1332467232
I0403 19:48:42.149037 25977 layer_factory.hpp:77] Creating layer inception_5b/relu_3x3
I0403 19:48:42.149060 25977 net.cpp:91] Creating Layer inception_5b/relu_3x3
I0403 19:48:42.149080 25977 net.cpp:425] inception_5b/relu_3x3 <- inception_5b/3x3
I0403 19:48:42.149099 25977 net.cpp:386] inception_5b/relu_3x3 -> inception_5b/3x3 (in-place)
I0403 19:48:42.149391 25977 net.cpp:141] Setting up inception_5b/relu_3x3
I0403 19:48:42.149418 25977 net.cpp:148] Top shape: 24 384 7 7 (451584)
I0403 19:48:42.149433 25977 net.cpp:156] Memory required for data: 1334273568
I0403 19:48:42.149448 25977 layer_factory.hpp:77] Creating layer inception_5b/5x5_reduce
I0403 19:48:42.149487 25977 net.cpp:91] Creating Layer inception_5b/5x5_reduce
I0403 19:48:42.149510 25977 net.cpp:425] inception_5b/5x5_reduce <- inception_5a/output_inception_5a/output_0_split_2
I0403 19:48:42.149533 25977 net.cpp:399] inception_5b/5x5_reduce -> inception_5b/5x5_reduce
I0403 19:48:42.150748 25977 net.cpp:141] Setting up inception_5b/5x5_reduce
I0403 19:48:42.150780 25977 net.cpp:148] Top shape: 24 48 7 7 (56448)
I0403 19:48:42.150799 25977 net.cpp:156] Memory required for data: 1334499360
I0403 19:48:42.150815 25977 layer_factory.hpp:77] Creating layer inception_5b/relu_5x5_reduce
I0403 19:48:42.150835 25977 net.cpp:91] Creating Layer inception_5b/relu_5x5_reduce
I0403 19:48:42.150856 25977 net.cpp:425] inception_5b/relu_5x5_reduce <- inception_5b/5x5_reduce
I0403 19:48:42.150876 25977 net.cpp:386] inception_5b/relu_5x5_reduce -> inception_5b/5x5_reduce (in-place)
I0403 19:48:42.151234 25977 net.cpp:141] Setting up inception_5b/relu_5x5_reduce
I0403 19:48:42.151265 25977 net.cpp:148] Top shape: 24 48 7 7 (56448)
I0403 19:48:42.151283 25977 net.cpp:156] Memory required for data: 1334725152
I0403 19:48:42.151304 25977 layer_factory.hpp:77] Creating layer inception_5b/5x5
I0403 19:48:42.151327 25977 net.cpp:91] Creating Layer inception_5b/5x5
I0403 19:48:42.151345 25977 net.cpp:425] inception_5b/5x5 <- inception_5b/5x5_reduce
I0403 19:48:42.151363 25977 net.cpp:399] inception_5b/5x5 -> inception_5b/5x5
I0403 19:48:42.153313 25977 net.cpp:141] Setting up inception_5b/5x5
I0403 19:48:42.153344 25977 net.cpp:148] Top shape: 24 128 7 7 (150528)
I0403 19:48:42.153365 25977 net.cpp:156] Memory required for data: 1335327264
I0403 19:48:42.153383 25977 layer_factory.hpp:77] Creating layer inception_5b/relu_5x5
I0403 19:48:42.153403 25977 net.cpp:91] Creating Layer inception_5b/relu_5x5
I0403 19:48:42.153420 25977 net.cpp:425] inception_5b/relu_5x5 <- inception_5b/5x5
I0403 19:48:42.153439 25977 net.cpp:386] inception_5b/relu_5x5 -> inception_5b/5x5 (in-place)
I0403 19:48:42.153625 25977 net.cpp:141] Setting up inception_5b/relu_5x5
I0403 19:48:42.153656 25977 net.cpp:148] Top shape: 24 128 7 7 (150528)
I0403 19:48:42.153673 25977 net.cpp:156] Memory required for data: 1335929376
I0403 19:48:42.153688 25977 layer_factory.hpp:77] Creating layer inception_5b/pool
I0403 19:48:42.153705 25977 net.cpp:91] Creating Layer inception_5b/pool
I0403 19:48:42.153723 25977 net.cpp:425] inception_5b/pool <- inception_5a/output_inception_5a/output_0_split_3
I0403 19:48:42.153745 25977 net.cpp:399] inception_5b/pool -> inception_5b/pool
I0403 19:48:42.153816 25977 net.cpp:141] Setting up inception_5b/pool
I0403 19:48:42.153846 25977 net.cpp:148] Top shape: 24 832 7 7 (978432)
I0403 19:48:42.153862 25977 net.cpp:156] Memory required for data: 1339843104
I0403 19:48:42.153878 25977 layer_factory.hpp:77] Creating layer inception_5b/pool_proj
I0403 19:48:42.153897 25977 net.cpp:91] Creating Layer inception_5b/pool_proj
I0403 19:48:42.153913 25977 net.cpp:425] inception_5b/pool_proj <- inception_5b/pool
I0403 19:48:42.153935 25977 net.cpp:399] inception_5b/pool_proj -> inception_5b/pool_proj
I0403 19:48:42.156158 25977 net.cpp:141] Setting up inception_5b/pool_proj
I0403 19:48:42.156189 25977 net.cpp:148] Top shape: 24 128 7 7 (150528)
I0403 19:48:42.156208 25977 net.cpp:156] Memory required for data: 1340445216
I0403 19:48:42.156226 25977 layer_factory.hpp:77] Creating layer inception_5b/relu_pool_proj
I0403 19:48:42.156250 25977 net.cpp:91] Creating Layer inception_5b/relu_pool_proj
I0403 19:48:42.156270 25977 net.cpp:425] inception_5b/relu_pool_proj <- inception_5b/pool_proj
I0403 19:48:42.156292 25977 net.cpp:386] inception_5b/relu_pool_proj -> inception_5b/pool_proj (in-place)
I0403 19:48:42.156582 25977 net.cpp:141] Setting up inception_5b/relu_pool_proj
I0403 19:48:42.156610 25977 net.cpp:148] Top shape: 24 128 7 7 (150528)
I0403 19:48:42.156626 25977 net.cpp:156] Memory required for data: 1341047328
I0403 19:48:42.156641 25977 layer_factory.hpp:77] Creating layer inception_5b/output
I0403 19:48:42.156661 25977 net.cpp:91] Creating Layer inception_5b/output
I0403 19:48:42.156692 25977 net.cpp:425] inception_5b/output <- inception_5b/1x1
I0403 19:48:42.156711 25977 net.cpp:425] inception_5b/output <- inception_5b/3x3
I0403 19:48:42.156730 25977 net.cpp:425] inception_5b/output <- inception_5b/5x5
I0403 19:48:42.156746 25977 net.cpp:425] inception_5b/output <- inception_5b/pool_proj
I0403 19:48:42.156764 25977 net.cpp:399] inception_5b/output -> inception_5b/output
I0403 19:48:42.156819 25977 net.cpp:141] Setting up inception_5b/output
I0403 19:48:42.156847 25977 net.cpp:148] Top shape: 24 1024 7 7 (1204224)
I0403 19:48:42.156864 25977 net.cpp:156] Memory required for data: 1345864224
I0403 19:48:42.156883 25977 layer_factory.hpp:77] Creating layer pool5/7x7_s1
I0403 19:48:42.156901 25977 net.cpp:91] Creating Layer pool5/7x7_s1
I0403 19:48:42.156919 25977 net.cpp:425] pool5/7x7_s1 <- inception_5b/output
I0403 19:48:42.156939 25977 net.cpp:399] pool5/7x7_s1 -> pool5/7x7_s1
I0403 19:48:42.157153 25977 net.cpp:141] Setting up pool5/7x7_s1
I0403 19:48:42.157182 25977 net.cpp:148] Top shape: 24 1024 1 1 (24576)
I0403 19:48:42.157199 25977 net.cpp:156] Memory required for data: 1345962528
I0403 19:48:42.157215 25977 layer_factory.hpp:77] Creating layer pool5/drop_7x7_s1
I0403 19:48:42.157233 25977 net.cpp:91] Creating Layer pool5/drop_7x7_s1
I0403 19:48:42.157251 25977 net.cpp:425] pool5/drop_7x7_s1 <- pool5/7x7_s1
I0403 19:48:42.157270 25977 net.cpp:386] pool5/drop_7x7_s1 -> pool5/7x7_s1 (in-place)
I0403 19:48:42.157330 25977 net.cpp:141] Setting up pool5/drop_7x7_s1
I0403 19:48:42.157356 25977 net.cpp:148] Top shape: 24 1024 1 1 (24576)
I0403 19:48:42.157372 25977 net.cpp:156] Memory required for data: 1346060832
I0403 19:48:42.157387 25977 layer_factory.hpp:77] Creating layer loss3/classifier_plantvillage
I0403 19:48:42.157408 25977 net.cpp:91] Creating Layer loss3/classifier_plantvillage
I0403 19:48:42.157426 25977 net.cpp:425] loss3/classifier_plantvillage <- pool5/7x7_s1
I0403 19:48:42.157449 25977 net.cpp:399] loss3/classifier_plantvillage -> loss3/classifier_plantvillage
I0403 19:48:42.157866 25977 net.cpp:141] Setting up loss3/classifier_plantvillage
I0403 19:48:42.157892 25977 net.cpp:148] Top shape: 24 38 (912)
I0403 19:48:42.157907 25977 net.cpp:156] Memory required for data: 1346064480
I0403 19:48:42.157925 25977 layer_factory.hpp:77] Creating layer loss3/classifier_plantvillage_loss3/classifier_plantvillage_0_split
I0403 19:48:42.157943 25977 net.cpp:91] Creating Layer loss3/classifier_plantvillage_loss3/classifier_plantvillage_0_split
I0403 19:48:42.157961 25977 net.cpp:425] loss3/classifier_plantvillage_loss3/classifier_plantvillage_0_split <- loss3/classifier_plantvillage
I0403 19:48:42.157984 25977 net.cpp:399] loss3/classifier_plantvillage_loss3/classifier_plantvillage_0_split -> loss3/classifier_plantvillage_loss3/classifier_plantvillage_0_split_0
I0403 19:48:42.158006 25977 net.cpp:399] loss3/classifier_plantvillage_loss3/classifier_plantvillage_0_split -> loss3/classifier_plantvillage_loss3/classifier_plantvillage_0_split_1
I0403 19:48:42.158030 25977 net.cpp:399] loss3/classifier_plantvillage_loss3/classifier_plantvillage_0_split -> loss3/classifier_plantvillage_loss3/classifier_plantvillage_0_split_2
I0403 19:48:42.158051 25977 net.cpp:399] loss3/classifier_plantvillage_loss3/classifier_plantvillage_0_split -> loss3/classifier_plantvillage_loss3/classifier_plantvillage_0_split_3
I0403 19:48:42.158149 25977 net.cpp:141] Setting up loss3/classifier_plantvillage_loss3/classifier_plantvillage_0_split
I0403 19:48:42.158174 25977 net.cpp:148] Top shape: 24 38 (912)
I0403 19:48:42.158190 25977 net.cpp:148] Top shape: 24 38 (912)
I0403 19:48:42.158206 25977 net.cpp:148] Top shape: 24 38 (912)
I0403 19:48:42.158224 25977 net.cpp:148] Top shape: 24 38 (912)
I0403 19:48:42.158237 25977 net.cpp:156] Memory required for data: 1346079072
I0403 19:48:42.158252 25977 layer_factory.hpp:77] Creating layer loss1/loss
I0403 19:48:42.158275 25977 net.cpp:91] Creating Layer loss1/loss
I0403 19:48:42.158303 25977 net.cpp:425] loss1/loss <- loss1/classifier_plantvillage_loss1/classifier_plantvillage_0_split_0
I0403 19:48:42.158339 25977 net.cpp:425] loss1/loss <- label_data_1_split_0
…
