…
I0403 19:32:05.543826 25015 net.cpp:313] The NetState phase (1) differed from the phase (0) specified by a rule in layer data
I0403 19:32:05.545332 25015 net.cpp:49] Initializing net from parameters: 
state {
  phase: TEST
}
layer {
  name: "data"
  type: "Data"
  top: "data"
  top: "label"
  include {
    phase: TEST
  }
  transform_param {
    mirror: false
    crop_size: 224
    mean_file: "/home/mohanty/data/final_dataset/lmdb/grayscale-80-20/mean.binaryproto"
  }
  data_param {
    source: "/home/mohanty/data/final_dataset/lmdb/grayscale-80-20/test_db"
    batch_size: 24
    backend: LMDB
  }
}
layer {
  name: "conv1/7x7_s2"
  type: "Convolution"
  bottom: "data"
  top: "conv1/7x7_s2"
  param {
    lr_mult: 1
    decay_mult: 1
  }
  param {
    lr_mult: 2
    decay_mult: 0
  }
  convolution_param {
    num_output: 64
    pad: 3
    kernel_size: 7
    stride: 2
    weight_filler {
      type: "xavier"
      std: 0.1
    }
    bias_filler {
      type: "constant"
      value: 0.2
    }
  }
}
layer {
  name: "conv1/relu_7x7"
  type: "ReLU"
  bottom: "conv1/7x7_s2"
  top: "conv1/7x7_s2"
}
layer {
  name: "pool1/3x3_s2"
  type: "Pooling"
  bottom: "conv1/7x7_s2"
  top: "pool1/3x3_s2"
  pooling_param {
    pool: MAX
    kernel_size: 3
    stride: 2
  }
}
layer {
  name: "pool1/norm1"
  type: "LRN"
  bottom: "pool1/3x3_s2"
  top: "pool1/norm1"
  lrn_param {
    local_size: 5
    alpha: 0.0001
    beta: 0.75
  }
}
layer {
  name: "conv2/3x3_reduce"
  type: "Convolution"
  bottom: "pool1/norm1"
  top: "conv2/3x3_reduce"
  param {
    lr_mult: 1
    decay_mult: 1
  }
  param {
    lr_mult: 2
    decay_mult: 0
  }
  convolution_param {
    num_output: 64
    kernel_size: 1
    weight_filler {
      type: "xavier"
      std: 0.1
    }
    bias_filler {
      type: "constant"
      value: 0.2
    }
  }
}
layer {
  name: "conv2/relu_3x3_reduce"
  type: "ReLU"
  bottom: "conv2/3x3_reduce"
  top: "conv2/3x3_reduce"
}
layer {
  name: "conv2/3x3"
  type: "Convolution"
  bottom: "conv2/3x3_reduce"
  top: "conv2/3x3"
  param {
    lr_mult: 1
    decay_mult: 1
  }
  param {
    lr_mult: 2
    decay_mult: 0
  }
  convolution_param {
    num_output: 192
    pad: 1
    kernel_size: 3
    weight_filler {
      type: "xavier"
      std: 0.03
    }
    bias_filler {
      type: "constant"
      value: 0.2
    }
  }
}
layer {
  name: "conv2/relu_3x3"
  type: "ReLU"
  bottom: "conv2/3x3"
  top: "conv2/3x3"
}
layer {
  name: "conv2/norm2"
  type: "LRN"
  bottom: "conv2/3x3"
  top: "conv2/norm2"
  lrn_param {
    local_size: 5
    alpha: 0.0001
    beta: 0.75
  }
}
layer {
  name: "pool2/3x3_s2"
  type: "Pooling"
  bottom: "conv2/norm2"
  top: "pool2/3x3_s2"
  pooling_param {
    pool: MAX
    kernel_size: 3
    stride: 2
  }
}
layer {
  name: "inception_3a/1x1"
  type: "Convolution"
  bottom: "pool2/3x3_s2"
  top: "inception_3a/1x1"
  param {
    lr_mult: 1
    decay_mult: 1
  }
  param {
    lr_mult: 2
    decay_mult: 0
  }
  convolution_param {
    num_output: 64
    kernel_size: 1
    weight_filler {
      type: "xavier"
      std: 0.03
    }
    bias_filler {
      type: "constant"
      value: 0.2
    }
  }
}
layer {
  name: "inception_3a/relu_1x1"
  type: "ReLU"
  bottom: "inception_3a/1x1"
  top: "inception_3a/1x1"
}
layer {
  name: "inception_3a/3x3_reduce"
  type: "Convolution"
  bottom: "pool2/3x3_s2"
  top: "inception_3a/3x3_reduce"
  param {
    lr_mult: 1
    decay_mult: 1
  }
  param {
    lr_mult: 2
    decay_mult: 0
  }
  convolution_param {
    num_output: 96
    kernel_size: 1
    weight_filler {
      type: "xavier"
      std: 0.09
    }
    bias_filler {
      type: "constant"
      value: 0.2
    }
  }
}
layer {
  name: "inception_3a/relu_3x3_reduce"
  type: "ReLU"
  bottom: "inception_3a/3x3_reduce"
  top: "inception_3a/3x3_reduce"
}
layer {
  name: "inception_3a/3x3"
  type: "Convolution"
  bottom: "inception_3a/3x3_reduce"
  top: "inception_3a/3x3"
  param {
    lr_mult: 1
    decay_mult: 1
  }
  param {
    lr_mult: 2
    decay_mult: 0
  }
  convolution_param {
    num_output: 128
    pad: 1
    kernel_size: 3
    weight_filler {
      type: "xavier"
      std: 0.03
    }
    bias_filler {
      type: "constant"
      value: 0.2
    }
  }
}
layer {
  name: "inception_3a/relu_3x3"
  type: "ReLU"
  bottom: "inception_3a/3x3"
  top: "inception_3a/3x3"
}
layer {
  name: "inception_3a/5x5_reduce"
  type: "Convolution"
  bottom: "pool2/3x3_s2"
  top: "inception_3a/5x5_reduce"
  param {
    lr_mult: 1
    decay_mult: 1
  }
  param {
    lr_mult: 2
    decay_mult: 0
  }
  convolution_param {
    num_output: 16
    kernel_size: 1
    weight_filler {
      type: "xavier"
      std: 0.2
    }
    bias_filler {
      type: "constant"
      value: 0.2
    }
  }
}
layer {
  name: "inception_3a/relu_5x5_reduce"
  type: "ReLU"
  bottom: "inception_3a/5x5_reduce"
  top: "inception_3a/5x5_reduce"
}
layer {
  name: "inception_3a/5x5"
  type: "Convolution"
  bottom: "inception_3a/5x5_reduce"
  top: "inception_3a/5x5"
  param {
    lr_mult: 1
    decay_mult: 1
  }
  param {
    lr_mult: 2
    decay_mult: 0
  }
  convolution_param {
    num_output: 32
    pad: 2
    kernel_size: 5
    weight_filler {
      type: "xavier"
      std: 0.03
    }
    bias_filler {
      type: "constant"
      value: 0.2
    }
  }
}
layer {
  name: "inception_3a/relu_5x5"
  type: "ReLU"
  bottom: "inception_3a/5x5"
  top: "inception_3a/5x5"
}
layer {
  name: "inception_3a/pool"
  type: "Pooling"
  bottom: "pool2/3x3_s2"
  top: "inception_3a/pool"
  pooling_param {
    pool: MAX
    kernel_size: 3
    stride: 1
    pad: 1
  }
}
layer {
  name: "inception_3a/pool_proj"
  type: "Convolution"
  bottom: "inception_3a/pool"
  top: "inception_3a/pool_proj"
  param {
    lr_mult: 1
    decay_mult: 1
  }
  param {
    lr_mult: 2
    decay_mult: 0
  }
  convolution_param {
    num_output: 32
    kernel_size: 1
    weight_filler {
      type: "xavier"
      std: 0.1
    }
    bias_filler {
      type: "constant"
      value: 0.2
    }
  }
}
layer {
  name: "inception_3a/relu_pool_proj"
  type: "ReLU"
  bottom: "inception_3a/pool_proj"
  top: "inception_3a/pool_proj"
}
layer {
  name: "inception_3a/output"
  type: "Concat"
  bottom: "inception_3a/1x1"
  bottom: "inception_3a/3x3"
  bottom: "inception_3a/5x5"
  bottom: "inception_3a/pool_proj"
  top: "inception_3a/output"
}
layer {
  name: "inception_3b/1x1"
  type: "Convolution"
  bottom: "inception_3a/output"
  top: "inception_3b/1x1"
  param {
    lr_mult: 1
    decay_mult: 1
  }
  param {
    lr_mult: 2
    decay_mult: 0
  }
  convolution_param {
    num_output: 128
    kernel_size: 1
    weight_filler {
      type: "xavier"
      std: 0.03
    }
    bias_filler {
      type: "constant"
      value: 0.2
    }
  }
}
layer {
  name: "inception_3b/relu_1x1"
  type: "ReLU"
  bottom: "inception_3b/1x1"
  top: "inception_3b/1x1"
}
layer {
  name: "inception_3b/3x3_reduce"
  type: "Convolution"
  bottom: "inception_3a/output"
  top: "inception_3b/3x3_reduce"
  param {
    lr_mult: 1
    decay_mult: 1
  }
  param {
    lr_mult: 2
    decay_mult: 0
  }
  convolution_param {
    num_output: 128
    kernel_size: 1
    weight_filler {
      type: "xavier"
      std: 0.09
    }
    bias_filler {
      type: "constant"
      value: 0.2
    }
  }
}
layer {
  name: "inception_3b/relu_3x3_reduce"
  type: "ReLU"
  bottom: "inception_3b/3x3_reduce"
  top: "inception_3b/3x3_reduce"
}
layer {
  name: "inception_3b/3x3"
  type: "Convolution"
  bottom: "inception_3b/3x3_reduce"
  top: "inception_3b/3x3"
  param {
    lr_mult: 1
    decay_mult: 1
  }
  param {
    lr_mult: 2
    decay_mult: 0
  }
  convolution_param {
    num_output: 192
    pad: 1
    kernel_size: 3
    weight_filler {
      type: "xavier"
      std: 0.03
    }
    bias_filler {
      type: "constant"
      value: 0.2
    }
  }
}
layer {
  name: "inception_3b/relu_3x3"
  type: "ReLU"
  bottom: "inception_3b/3x3"
  top: "inception_3b/3x3"
}
layer {
  name: "inception_3b/5x5_reduce"
  type: "Convolution"
  bottom: "inception_3a/output"
  top: "inception_3b/5x5_reduce"
  param {
    lr_mult: 1
    decay_mult: 1
  }
  param {
    lr_mult: 2
    decay_mult: 0
  }
  convolution_param {
    num_output: 32
    kernel_size: 1
    weight_filler {
      type: "xavier"
      std: 0.2
    }
    bias_filler {
      type: "constant"
      value: 0.2
    }
  }
}
layer {
  name: "inception_3b/relu_5x5_reduce"
  type: "ReLU"
  bottom: "inception_3b/5x5_reduce"
  top: "inception_3b/5x5_reduce"
}
layer {
  name: "inception_3b/5x5"
  type: "Convolution"
  bottom: "inception_3b/5x5_reduce"
  top: "inception_3b/5x5"
  param {
    lr_mult: 1
    decay_mult: 1
  }
  param {
    lr_mult: 2
    decay_mult: 0
  }
  convolution_param {
    num_output: 96
    pad: 2
    kernel_size: 5
    weight_filler {
      type: "xavier"
      std: 0.03
    }
    bias_filler {
      type: "constant"
      value: 0.2
    }
  }
}
layer {
  name: "inception_3b/relu_5x5"
  type: "ReLU"
  bottom: "inception_3b/5x5"
  top: "inception_3b/5x5"
}
layer {
  name: "inception_3b/pool"
  type: "Pooling"
  bottom: "inception_3a/output"
  top: "inception_3b/pool"
  pooling_param {
    pool: MAX
    kernel_size: 3
    stride: 1
    pad: 1
  }
}
layer {
  name: "inception_3b/pool_proj"
  type: "Convolution"
  bottom: "inception_3b/pool"
  top: "inception_3b/pool_proj"
  param {
    lr_mult: 1
    decay_mult: 1
  }
  param {
    lr_mult: 2
    decay_mult: 0
  }
  convolution_param {
    num_output: 64
    kernel_size: 1
    weight_filler {
      type: "xavier"
      std: 0.1
    }
    bias_filler {
      type: "constant"
      value: 0.2
    }
  }
}
layer {
  name: "inception_3b/relu_pool_proj"
  type: "ReLU"
  bottom: "inception_3b/pool_proj"
  top: "inception_3b/pool_proj"
}
layer {
  name: "inception_3b/output"
  type: "Concat"
  bottom: "inception_3b/1x1"
  bottom: "inception_3b/3x3"
  bottom: "inception_3b/5x5"
  bottom: "inception_3b/pool_proj"
  top: "inception_3b/output"
}
layer {
  name: "pool3/3x3_s2"
  type: "Pooling"
  bottom: "inception_3b/output"
  top: "pool3/3x3_s2"
  pooling_param {
    pool: MAX
    kernel_size: 3
    stride: 2
  }
}
layer {
  name: "inception_4a/1x1"
  type: "Convolution"
  bottom: "pool3/3x3_s2"
  top: "inception_4a/1x1"
  param {
    lr_mult: 1
    decay_mult: 1
  }
  param {
    lr_mult: 2
    decay_mult: 0
  }
  convolution_param {
    num_output: 192
    kernel_size: 1
    weight_filler {
      type: "xavier"
      std: 0.03
    }
    bias_filler {
      type: "constant"
      value: 0.2
    }
  }
}
layer {
  name: "inception_4a/relu_1x1"
  type: "ReLU"
  bottom: "inception_4a/1x1"
  top: "inception_4a/1x1"
}
layer {
  name: "inception_4a/3x3_reduce"
  type: "Convolution"
  bottom: "pool3/3x3_s2"
  top: "inception_4a/3x3_reduce"
  param {
    lr_mult: 1
    decay_mult: 1
  }
  param {
    lr_mult: 2
    decay_mult: 0
  }
  convolution_param {
    num_output: 96
    kernel_size: 1
    weight_filler {
      type: "xavier"
      std: 0.09
    }
    bias_filler {
      type: "constant"
      value: 0.2
    }
  }
}
layer {
  name: "inception_4a/relu_3x3_reduce"
  type: "ReLU"
  bottom: "inception_4a/3x3_reduce"
  top: "inception_4a/3x3_reduce"
}
layer {
  name: "inception_4a/3x3"
  type: "Convolution"
  bottom: "inception_4a/3x3_reduce"
  top: "inception_4a/3x3"
  param {
    lr_mult: 1
    decay_mult: 1
  }
  param {
    lr_mult: 2
    decay_mult: 0
  }
  convolution_param {
    num_output: 208
    pad: 1
    kernel_size: 3
    weight_filler {
      type: "xavier"
      std: 0.03
    }
    bias_filler {
      type: "constant"
      value: 0.2
    }
  }
}
layer {
  name: "inception_4a/relu_3x3"
  type: "ReLU"
  bottom: "inception_4a/3x3"
  top: "inception_4a/3x3"
}
layer {
  name: "inception_4a/5x5_reduce"
  type: "Convolution"
  bottom: "pool3/3x3_s2"
  top: "inception_4a/5x5_reduce"
  param {
    lr_mult: 1
    decay_mult: 1
  }
  param {
    lr_mult: 2
    decay_mult: 0
  }
  convolution_param {
    num_output: 16
    kernel_size: 1
    weight_filler {
      type: "xavier"
      std: 0.2
    }
    bias_filler {
      type: "constant"
      value: 0.2
    }
  }
}
layer {
  name: "inception_4a/relu_5x5_reduce"
  type: "ReLU"
  bottom: "inception_4a/5x5_reduce"
  top: "inception_4a/5x5_reduce"
}
layer {
  name: "inception_4a/5x5"
  type: "Convolution"
  bottom: "inception_4a/5x5_reduce"
  top: "inception_4a/5x5"
  param {
    lr_mult: 1
    decay_mult: 1
  }
  param {
    lr_mult: 2
    decay_mult: 0
  }
  convolution_param {
    num_output: 48
    pad: 2
    kernel_size: 5
    weight_filler {
      type: "xavier"
      std: 0.03
    }
    bias_filler {
      type: "constant"
      value: 0.2
    }
  }
}
layer {
  name: "inception_4a/relu_5x5"
  type: "ReLU"
  bottom: "inception_4a/5x5"
  top: "inception_4a/5x5"
}
layer {
  name: "inception_4a/pool"
  type: "Pooling"
  bottom: "pool3/3x3_s2"
  top: "inception_4a/pool"
  pooling_param {
    pool: MAX
    kernel_size: 3
    stride: 1
    pad: 1
  }
}
layer {
  name: "inception_4a/pool_proj"
  type: "Convolution"
  bottom: "inception_4a/pool"
  top: "inception_4a/pool_proj"
  param {
    lr_mult: 1
    decay_mult: 1
  }
  param {
    lr_mult: 2
    decay_mult: 0
  }
  convolution_param {
    num_output: 64
    kernel_size: 1
    weight_filler {
      type: "xavier"
      std: 0.1
    }
    bias_filler {
      type: "constant"
      value: 0.2
    }
  }
}
layer {
  name: "inception_4a/relu_pool_proj"
  type: "ReLU"
  bottom: "inception_4a/pool_proj"
  top: "inception_4a/pool_proj"
}
layer {
  name: "inception_4a/output"
  type: "Concat"
  bottom: "inception_4a/1x1"
  bottom: "inception_4a/3x3"
  bottom: "inception_4a/5x5"
  bottom: "inception_4a/pool_proj"
  top: "inception_4a/output"
}
layer {
  name: "loss1/ave_pool"
  type: "Pooling"
  bottom: "inception_4a/output"
  top: "loss1/ave_pool"
  pooling_param {
    pool: AVE
    kernel_size: 5
    stride: 3
  }
}
layer {
  name: "loss1/conv"
  type: "Convolution"
  bottom: "loss1/ave_pool"
  top: "loss1/conv"
  param {
    lr_mult: 1
    decay_mult: 1
  }
  param {
    lr_mult: 2
    decay_mult: 0
  }
  convolution_param {
    num_output: 128
    kernel_size: 1
    weight_filler {
      type: "xavier"
      std: 0.08
    }
    bias_filler {
      type: "constant"
      value: 0.2
    }
  }
}
layer {
  name: "loss1/relu_conv"
  type: "ReLU"
  bottom: "loss1/conv"
  top: "loss1/conv"
}
layer {
  name: "loss1/fc"
  type: "InnerProduct"
  bottom: "loss1/conv"
  top: "loss1/fc"
  param {
    lr_mult: 1
    decay_mult: 1
  }
  param {
    lr_mult: 2
    decay_mult: 0
  }
  inner_product_param {
    num_output: 1024
    weight_filler {
      type: "xavier"
      std: 0.02
    }
    bias_filler {
      type: "constant"
      value: 0.2
    }
  }
}
layer {
  name: "loss1/relu_fc"
  type: "ReLU"
  bottom: "loss1/fc"
  top: "loss1/fc"
}
layer {
  name: "loss1/drop_fc"
  type: "Dropout"
  bottom: "loss1/fc"
  top: "loss1/fc"
  dropout_param {
    dropout_ratio: 0.7
  }
}
layer {
  name: "loss1/classifier_plantvillage"
  type: "InnerProduct"
  bottom: "loss1/fc"
  top: "loss1/classifier_plantvillage"
  param {
    lr_mult: 1
    decay_mult: 1
  }
  param {
    lr_mult: 2
    decay_mult: 0
  }
  inner_product_param {
    num_output: 38
    weight_filler {
      type: "xavier"
      std: 0.0009765625
    }
    bias_filler {
      type: "constant"
      value: 0
    }
  }
}
layer {
  name: "inception_4b/1x1"
  type: "Convolution"
  bottom: "inception_4a/output"
  top: "inception_4b/1x1"
  param {
    lr_mult: 1
    decay_mult: 1
  }
  param {
    lr_mult: 2
    decay_mult: 0
  }
  convolution_param {
    num_output: 160
    kernel_size: 1
    weight_filler {
      type: "xavier"
      std: 0.03
    }
    bias_filler {
      type: "constant"
      value: 0.2
    }
  }
}
layer {
  name: "inception_4b/relu_1x1"
  type: "ReLU"
  bottom: "inception_4b/1x1"
  top: "inception_4b/1x1"
}
layer {
  name: "inception_4b/3x3_reduce"
  type: "Convolution"
  bottom: "inception_4a/output"
  top: "inception_4b/3x3_reduce"
  param {
    lr_mult: 1
    decay_mult: 1
  }
  param {
    lr_mult: 2
    decay_mult: 0
  }
  convolution_param {
    num_output: 112
    kernel_size: 1
    weight_filler {
      type: "xavier"
      std: 0.09
    }
    bias_filler {
      type: "constant"
      value: 0.2
    }
  }
}
layer {
  name: "inception_4b/relu_3x3_reduce"
  type: "ReLU"
  bottom: "inception_4b/3x3_reduce"
  top: "inception_4b/3x3_reduce"
}
layer {
  name: "inception_4b/3x3"
  type: "Convolution"
  bottom: "inception_4b/3x3_reduce"
  top: "inception_4b/3x3"
  param {
    lr_mult: 1
    decay_mult: 1
  }
  param {
    lr_mult: 2
    decay_mult: 0
  }
  convolution_param {
    num_output: 224
    pad: 1
    kernel_size: 3
    weight_filler {
      type: "xavier"
      std: 0.03
    }
    bias_filler {
      type: "constant"
      value: 0.2
    }
  }
}
layer {
  name: "inception_4b/relu_3x3"
  type: "ReLU"
  bottom: "inception_4b/3x3"
  top: "inception_4b/3x3"
}
layer {
  name: "inception_4b/5x5_reduce"
  type: "Convolution"
  bottom: "inception_4a/output"
  top: "inception_4b/5x5_reduce"
  param {
    lr_mult: 1
    decay_mult: 1
  }
  param {
    lr_mult: 2
    decay_mult: 0
  }
  convolution_param {
    num_output: 24
    kernel_size: 1
    weight_filler {
      type: "xavier"
      std: 0.2
    }
    bias_filler {
      type: "constant"
      value: 0.2
    }
  }
}
layer {
  name: "inception_4b/relu_5x5_reduce"
  type: "ReLU"
  bottom: "inception_4b/5x5_reduce"
  top: "inception_4b/5x5_reduce"
}
layer {
  name: "inception_4b/5x5"
  type: "Convolution"
  bottom: "inception_4b/5x5_reduce"
  top: "inception_4b/5x5"
  param {
    lr_mult: 1
    decay_mult: 1
  }
  param {
    lr_mult: 2
    decay_mult: 0
  }
  convolution_param {
    num_output: 64
    pad: 2
    kernel_size: 5
    weight_filler {
      type: "xavier"
      std: 0.03
    }
    bias_filler {
      type: "constant"
      value: 0.2
    }
  }
}
layer {
  name: "inception_4b/relu_5x5"
  type: "ReLU"
  bottom: "inception_4b/5x5"
  top: "inception_4b/5x5"
}
layer {
  name: "inception_4b/pool"
  type: "Pooling"
  bottom: "inception_4a/output"
  top: "inception_4b/pool"
  pooling_param {
    pool: MAX
    kernel_size: 3
    stride: 1
    pad: 1
  }
}
layer {
  name: "inception_4b/pool_proj"
  type: "Convolution"
  bottom: "inception_4b/pool"
  top: "inception_4b/pool_proj"
  param {
    lr_mult: 1
    decay_mult: 1
  }
  param {
    lr_mult: 2
    decay_mult: 0
  }
  convolution_param {
    num_output: 64
    kernel_size: 1
    weight_filler {
      type: "xavier"
      std: 0.1
    }
    bias_filler {
      type: "constant"
      value: 0.2
    }
  }
}
layer {
  name: "inception_4b/relu_pool_proj"
  type: "ReLU"
  bottom: "inception_4b/pool_proj"
  top: "inception_4b/pool_proj"
}
layer {
  name: "inception_4b/output"
  type: "Concat"
  bottom: "inception_4b/1x1"
  bottom: "inception_4b/3x3"
  bottom: "inception_4b/5x5"
  bottom: "inception_4b/pool_proj"
  top: "inception_4b/output"
}
layer {
  name: "inception_4c/1x1"
  type: "Convolution"
  bottom: "inception_4b/output"
  top: "inception_4c/1x1"
  param {
    lr_mult: 1
    decay_mult: 1
  }
  param {
    lr_mult: 2
    decay_mult: 0
  }
  convolution_param {
    num_output: 128
    kernel_size: 1
    weight_filler {
      type: "xavier"
      std: 0.03
    }
    bias_filler {
      type: "constant"
      value: 0.2
    }
  }
}
layer {
  name: "inception_4c/relu_1x1"
  type: "ReLU"
  bottom: "inception_4c/1x1"
  top: "inception_4c/1x1"
}
layer {
  name: "inception_4c/3x3_reduce"
  type: "Convolution"
  bottom: "inception_4b/output"
  top: "inception_4c/3x3_reduce"
  param {
    lr_mult: 1
    decay_mult: 1
  }
  param {
    lr_mult: 2
    decay_mult: 0
  }
  convolution_param {
    num_output: 128
    kernel_size: 1
    weight_filler {
      type: "xavier"
      std: 0.09
    }
    bias_filler {
      type: "constant"
      value: 0.2
    }
  }
}
layer {
  name: "inception_4c/relu_3x3_reduce"
  type: "ReLU"
  bottom: "inception_4c/3x3_reduce"
  top: "inception_4c/3x3_reduce"
}
layer {
  name: "inception_4c/3x3"
  type: "Convolution"
  bottom: "inception_4c/3x3_reduce"
  top: "inception_4c/3x3"
  param {
    lr_mult: 1
    decay_mult: 1
  }
  param {
    lr_mult: 2
    decay_mult: 0
  }
  convolution_param {
    num_output: 256
    pad: 1
    kernel_size: 3
    weight_filler {
      type: "xavier"
      std: 0.03
    }
    bias_filler {
      type: "constant"
      value: 0.2
    }
  }
}
layer {
  name: "inception_4c/relu_3x3"
  type: "ReLU"
  bottom: "inception_4c/3x3"
  top: "inception_4c/3x3"
}
layer {
  name: "inception_4c/5x5_reduce"
  type: "Convolution"
  bottom: "inception_4b/output"
  top: "inception_4c/5x5_reduce"
  param {
    lr_mult: 1
    decay_mult: 1
  }
  param {
    lr_mult: 2
    decay_mult: 0
  }
  convolution_param {
    num_output: 24
    kernel_size: 1
    weight_filler {
      type: "xavier"
      std: 0.2
    }
    bias_filler {
      type: "constant"
      value: 0.2
    }
  }
}
layer {
  name: "inception_4c/relu_5x5_reduce"
  type: "ReLU"
  bottom: "inception_4c/5x5_reduce"
  top: "inception_4c/5x5_reduce"
}
layer {
  name: "inception_4c/5x5"
  type: "Convolution"
  bottom: "inception_4c/5x5_reduce"
  top: "inception_4c/5x5"
  param {
    lr_mult: 1
    decay_mult: 1
  }
  param {
    lr_mult: 2
    decay_mult: 0
  }
  convolution_param {
    num_output: 64
    pad: 2
    kernel_size: 5
    weight_filler {
      type: "xavier"
      std: 0.03
    }
    bias_filler {
      type: "constant"
      value: 0.2
    }
  }
}
layer {
  name: "inception_4c/relu_5x5"
  type: "ReLU"
  bottom: "inception_4c/5x5"
  top: "inception_4c/5x5"
}
layer {
  name: "inception_4c/pool"
  type: "Pooling"
  bottom: "inception_4b/output"
  top: "inception_4c/pool"
  pooling_param {
    pool: MAX
    kernel_size: 3
    stride: 1
    pad: 1
  }
}
layer {
  name: "inception_4c/pool_proj"
  type: "Convolution"
  bottom: "inception_4c/pool"
  top: "inception_4c/pool_proj"
  param {
    lr_mult: 1
    decay_mult: 1
  }
  param {
    lr_mult: 2
    decay_mult: 0
  }
  convolution_param {
    num_output: 64
    kernel_size: 1
    weight_filler {
      type: "xavier"
      std: 0.1
    }
    bias_filler {
      type: "constant"
      value: 0.2
    }
  }
}
layer {
  name: "inception_4c/relu_pool_proj"
  type: "ReLU"
  bottom: "inception_4c/pool_proj"
  top: "inception_4c/pool_proj"
}
layer {
  name: "inception_4c/output"
  type: "Concat"
  bottom: "inception_4c/1x1"
  bottom: "inception_4c/3x3"
  bottom: "inception_4c/5x5"
  bottom: "inception_4c/pool_proj"
  top: "inception_4c/output"
}
layer {
  name: "inception_4d/1x1"
  type: "Convolution"
  bottom: "inception_4c/output"
  top: "inception_4d/1x1"
  param {
    lr_mult: 1
    decay_mult: 1
  }
  param {
    lr_mult: 2
    decay_mult: 0
  }
  convolution_param {
    num_output: 112
    kernel_size: 1
    weight_filler {
      type: "xavier"
      std: 0.03
    }
    bias_filler {
      type: "constant"
      value: 0.2
    }
  }
}
layer {
  name: "inception_4d/relu_1x1"
  type: "ReLU"
  bottom: "inception_4d/1x1"
  top: "inception_4d/1x1"
}
layer {
  name: "inception_4d/3x3_reduce"
  type: "Convolution"
  bottom: "inception_4c/output"
  top: "inception_4d/3x3_reduce"
  param {
    lr_mult: 1
    decay_mult: 1
  }
  param {
    lr_mult: 2
    decay_mult: 0
  }
  convolution_param {
    num_output: 144
    kernel_size: 1
    weight_filler {
      type: "xavier"
      std: 0.09
    }
    bias_filler {
      type: "constant"
      value: 0.2
    }
  }
}
layer {
  name: "inception_4d/relu_3x3_reduce"
  type: "ReLU"
  bottom: "inception_4d/3x3_reduce"
  top: "inception_4d/3x3_reduce"
}
layer {
  name: "inception_4d/3x3"
  type: "Convolution"
  bottom: "inception_4d/3x3_reduce"
  top: "inception_4d/3x3"
  param {
    lr_mult: 1
    decay_mult: 1
  }
  param {
    lr_mult: 2
    decay_mult: 0
  }
  convolution_param {
    num_output: 288
    pad: 1
    kernel_size: 3
    weight_filler {
      type: "xavier"
      std: 0.03
    }
    bias_filler {
      type: "constant"
      value: 0.2
    }
  }
}
layer {
  name: "inception_4d/relu_3x3"
  type: "ReLU"
  bottom: "inception_4d/3x3"
  top: "inception_4d/3x3"
}
layer {
  name: "inception_4d/5x5_reduce"
  type: "Convolution"
  bottom: "inception_4c/output"
  top: "inception_4d/5x5_reduce"
  param {
    lr_mult: 1
    decay_mult: 1
  }
  param {
    lr_mult: 2
    decay_mult: 0
  }
  convolution_param {
    num_output: 32
    kernel_size: 1
    weight_filler {
      type: "xavier"
      std: 0.2
    }
    bias_filler {
      type: "constant"
      value: 0.2
    }
  }
}
layer {
  name: "inception_4d/relu_5x5_reduce"
  type: "ReLU"
  bottom: "inception_4d/5x5_reduce"
  top: "inception_4d/5x5_reduce"
}
layer {
  name: "inception_4d/5x5"
  type: "Convolution"
  bottom: "inception_4d/5x5_reduce"
  top: "inception_4d/5x5"
  param {
    lr_mult: 1
    decay_mult: 1
  }
  param {
    lr_mult: 2
    decay_mult: 0
  }
  convolution_param {
    num_output: 64
    pad: 2
    kernel_size: 5
    weight_filler {
      type: "xavier"
      std: 0.03
    }
    bias_filler {
      type: "constant"
      value: 0.2
    }
  }
}
layer {
  name: "inception_4d/relu_5x5"
  type: "ReLU"
  bottom: "inception_4d/5x5"
  top: "inception_4d/5x5"
}
layer {
  name: "inception_4d/pool"
  type: "Pooling"
  bottom: "inception_4c/output"
  top: "inception_4d/pool"
  pooling_param {
    pool: MAX
    kernel_size: 3
    stride: 1
    pad: 1
  }
}
layer {
  name: "inception_4d/pool_proj"
  type: "Convolution"
  bottom: "inception_4d/pool"
  top: "inception_4d/pool_proj"
  param {
    lr_mult: 1
    decay_mult: 1
  }
  param {
    lr_mult: 2
    decay_mult: 0
  }
  convolution_param {
    num_output: 64
    kernel_size: 1
    weight_filler {
      type: "xavier"
      std: 0.1
    }
    bias_filler {
      type: "constant"
      value: 0.2
    }
  }
}
layer {
  name: "inception_4d/relu_pool_proj"
  type: "ReLU"
  bottom: "inception_4d/pool_proj"
  top: "inception_4d/pool_proj"
}
layer {
  name: "inception_4d/output"
  type: "Concat"
  bottom: "inception_4d/1x1"
  bottom: "inception_4d/3x3"
  bottom: "inception_4d/5x5"
  bottom: "inception_4d/pool_proj"
  top: "inception_4d/output"
}
layer {
  name: "loss2/ave_pool"
  type: "Pooling"
  bottom: "inception_4d/output"
  top: "loss2/ave_pool"
  pooling_param {
    pool: AVE
    kernel_size: 5
    stride: 3
  }
}
layer {
  name: "loss2/conv"
  type: "Convolution"
  bottom: "loss2/ave_pool"
  top: "loss2/conv"
  param {
    lr_mult: 1
    decay_mult: 1
  }
  param {
    lr_mult: 2
    decay_mult: 0
  }
  convolution_param {
    num_output: 128
    kernel_size: 1
    weight_filler {
      type: "xavier"
      std: 0.08
    }
    bias_filler {
      type: "constant"
      value: 0.2
    }
  }
}
layer {
  name: "loss2/relu_conv"
  type: "ReLU"
  bottom: "loss2/conv"
  top: "loss2/conv"
}
layer {
  name: "loss2/fc"
  type: "InnerProduct"
  bottom: "loss2/conv"
  top: "loss2/fc"
  param {
    lr_mult: 1
    decay_mult: 1
  }
  param {
    lr_mult: 2
    decay_mult: 0
  }
  inner_product_param {
    num_output: 1024
    weight_filler {
      type: "xavier"
      std: 0.02
    }
    bias_filler {
      type: "constant"
      value: 0.2
    }
  }
}
layer {
  name: "loss2/relu_fc"
  type: "ReLU"
  bottom: "loss2/fc"
  top: "loss2/fc"
}
layer {
  name: "loss2/drop_fc"
  type: "Dropout"
  bottom: "loss2/fc"
  top: "loss2/fc"
  dropout_param {
    dropout_ratio: 0.7
  }
}
layer {
  name: "loss2/classifier_plantvillage"
  type: "InnerProduct"
  bottom: "loss2/fc"
  top: "loss2/classifier_plantvillage"
  param {
    lr_mult: 1
    decay_mult: 1
  }
  param {
    lr_mult: 2
    decay_mult: 0
  }
  inner_product_param {
    num_output: 38
    weight_filler {
      type: "xavier"
      std: 0.0009765625
    }
    bias_filler {
      type: "constant"
      value: 0
    }
  }
}
layer {
  name: "inception_4e/1x1"
  type: "Convolution"
  bottom: "inception_4d/output"
  top: "inception_4e/1x1"
  param {
    lr_mult: 1
    decay_mult: 1
  }
  param {
    lr_mult: 2
    decay_mult: 0
  }
  convolution_param {
    num_output: 256
    kernel_size: 1
    weight_filler {
      type: "xavier"
      std: 0.03
    }
    bias_filler {
      type: "constant"
      value: 0.2
    }
  }
}
layer {
  name: "inception_4e/relu_1x1"
  type: "ReLU"
  bottom: "inception_4e/1x1"
  top: "inception_4e/1x1"
}
layer {
  name: "inception_4e/3x3_reduce"
  type: "Convolution"
  bottom: "inception_4d/output"
  top: "inception_4e/3x3_reduce"
  param {
    lr_mult: 1
    decay_mult: 1
  }
  param {
    lr_mult: 2
    decay_mult: 0
  }
  convolution_param {
    num_output: 160
    kernel_size: 1
    weight_filler {
      type: "xavier"
      std: 0.09
    }
    bias_filler {
      type: "constant"
      value: 0.2
    }
  }
}
layer {
  name: "inception_4e/relu_3x3_reduce"
  type: "ReLU"
  bottom: "inception_4e/3x3_reduce"
  top: "inception_4e/3x3_reduce"
}
layer {
  name: "inception_4e/3x3"
  type: "Convolution"
  bottom: "inception_4e/3x3_reduce"
  top: "inception_4e/3x3"
  param {
    lr_mult: 1
    decay_mult: 1
  }
  param {
    lr_mult: 2
    decay_mult: 0
  }
  convolution_param {
    num_output: 320
    pad: 1
    kernel_size: 3
    weight_filler {
      type: "xavier"
      std: 0.03
    }
    bias_filler {
      type: "constant"
      value: 0.2
    }
  }
}
layer {
  name: "inception_4e/relu_3x3"
  type: "ReLU"
  bottom: "inception_4e/3x3"
  top: "inception_4e/3x3"
}
layer {
  name: "inception_4e/5x5_reduce"
  type: "Convolution"
  bottom: "inception_4d/output"
  top: "inception_4e/5x5_reduce"
  param {
    lr_mult: 1
    decay_mult: 1
  }
  param {
    lr_mult: 2
    decay_mult: 0
  }
  convolution_param {
    num_output: 32
    kernel_size: 1
    weight_filler {
      type: "xavier"
      std: 0.2
    }
    bias_filler {
      type: "constant"
      value: 0.2
    }
  }
}
layer {
  name: "inception_4e/relu_5x5_reduce"
  type: "ReLU"
  bottom: "inception_4e/5x5_reduce"
  top: "inception_4e/5x5_reduce"
}
layer {
  name: "inception_4e/5x5"
  type: "Convolution"
  bottom: "inception_4e/5x5_reduce"
  top: "inception_4e/
I0403 19:32:05.546748 25015 layer_factory.hpp:77] Creating layer data
I0403 19:32:05.547385 25015 net.cpp:91] Creating Layer data
I0403 19:32:05.547422 25015 net.cpp:399] data -> data
I0403 19:32:05.547492 25015 net.cpp:399] data -> label
I0403 19:32:05.547536 25015 data_transformer.cpp:25] Loading mean file from: /home/mohanty/data/final_dataset/lmdb/grayscale-80-20/mean.binaryproto
I0403 19:32:05.548588 25017 db_lmdb.cpp:38] Opened lmdb /home/mohanty/data/final_dataset/lmdb/grayscale-80-20/test_db
I0403 19:32:05.561421 25015 data_layer.cpp:41] output data size: 24,3,224,224
I0403 19:32:05.589586 25015 net.cpp:141] Setting up data
I0403 19:32:05.589689 25015 net.cpp:148] Top shape: 24 3 224 224 (3612672)
I0403 19:32:05.589715 25015 net.cpp:148] Top shape: 24 (24)
I0403 19:32:05.589732 25015 net.cpp:156] Memory required for data: 14450784
I0403 19:32:05.589766 25015 layer_factory.hpp:77] Creating layer label_data_1_split
I0403 19:32:05.589800 25015 net.cpp:91] Creating Layer label_data_1_split
I0403 19:32:05.589819 25015 net.cpp:425] label_data_1_split <- label
I0403 19:32:05.589856 25015 net.cpp:399] label_data_1_split -> label_data_1_split_0
I0403 19:32:05.589890 25015 net.cpp:399] label_data_1_split -> label_data_1_split_1
I0403 19:32:05.589915 25015 net.cpp:399] label_data_1_split -> label_data_1_split_2
I0403 19:32:05.589937 25015 net.cpp:399] label_data_1_split -> label_data_1_split_3
I0403 19:32:05.589959 25015 net.cpp:399] label_data_1_split -> label_data_1_split_4
I0403 19:32:05.589980 25015 net.cpp:399] label_data_1_split -> label_data_1_split_5
I0403 19:32:05.589999 25015 net.cpp:399] label_data_1_split -> label_data_1_split_6
I0403 19:32:05.590020 25015 net.cpp:399] label_data_1_split -> label_data_1_split_7
I0403 19:32:05.590041 25015 net.cpp:399] label_data_1_split -> label_data_1_split_8
I0403 19:32:05.590064 25015 net.cpp:399] label_data_1_split -> label_data_1_split_9
I0403 19:32:05.590181 25015 net.cpp:141] Setting up label_data_1_split
I0403 19:32:05.590209 25015 net.cpp:148] Top shape: 24 (24)
I0403 19:32:05.590229 25015 net.cpp:148] Top shape: 24 (24)
I0403 19:32:05.590246 25015 net.cpp:148] Top shape: 24 (24)
I0403 19:32:05.590273 25015 net.cpp:148] Top shape: 24 (24)
I0403 19:32:05.590308 25015 net.cpp:148] Top shape: 24 (24)
I0403 19:32:05.590344 25015 net.cpp:148] Top shape: 24 (24)
I0403 19:32:05.590363 25015 net.cpp:148] Top shape: 24 (24)
I0403 19:32:05.590380 25015 net.cpp:148] Top shape: 24 (24)
I0403 19:32:05.590400 25015 net.cpp:148] Top shape: 24 (24)
I0403 19:32:05.590420 25015 net.cpp:148] Top shape: 24 (24)
I0403 19:32:05.590471 25015 net.cpp:156] Memory required for data: 14451744
I0403 19:32:05.590490 25015 layer_factory.hpp:77] Creating layer conv1/7x7_s2
I0403 19:32:05.590531 25015 net.cpp:91] Creating Layer conv1/7x7_s2
I0403 19:32:05.590553 25015 net.cpp:425] conv1/7x7_s2 <- data
I0403 19:32:05.590587 25015 net.cpp:399] conv1/7x7_s2 -> conv1/7x7_s2
I0403 19:32:05.732138 25015 net.cpp:141] Setting up conv1/7x7_s2
I0403 19:32:05.732255 25015 net.cpp:148] Top shape: 24 64 112 112 (19267584)
I0403 19:32:05.732275 25015 net.cpp:156] Memory required for data: 91522080
I0403 19:32:05.732336 25015 layer_factory.hpp:77] Creating layer conv1/relu_7x7
I0403 19:32:05.732370 25015 net.cpp:91] Creating Layer conv1/relu_7x7
I0403 19:32:05.732393 25015 net.cpp:425] conv1/relu_7x7 <- conv1/7x7_s2
I0403 19:32:05.732417 25015 net.cpp:386] conv1/relu_7x7 -> conv1/7x7_s2 (in-place)
I0403 19:32:05.732688 25015 net.cpp:141] Setting up conv1/relu_7x7
I0403 19:32:05.732717 25015 net.cpp:148] Top shape: 24 64 112 112 (19267584)
I0403 19:32:05.732734 25015 net.cpp:156] Memory required for data: 168592416
I0403 19:32:05.732750 25015 layer_factory.hpp:77] Creating layer pool1/3x3_s2
I0403 19:32:05.732781 25015 net.cpp:91] Creating Layer pool1/3x3_s2
I0403 19:32:05.732801 25015 net.cpp:425] pool1/3x3_s2 <- conv1/7x7_s2
I0403 19:32:05.732820 25015 net.cpp:399] pool1/3x3_s2 -> pool1/3x3_s2
I0403 19:32:05.732902 25015 net.cpp:141] Setting up pool1/3x3_s2
I0403 19:32:05.732929 25015 net.cpp:148] Top shape: 24 64 56 56 (4816896)
I0403 19:32:05.732946 25015 net.cpp:156] Memory required for data: 187860000
I0403 19:32:05.732961 25015 layer_factory.hpp:77] Creating layer pool1/norm1
I0403 19:32:05.732990 25015 net.cpp:91] Creating Layer pool1/norm1
I0403 19:32:05.733012 25015 net.cpp:425] pool1/norm1 <- pool1/3x3_s2
I0403 19:32:05.733031 25015 net.cpp:399] pool1/norm1 -> pool1/norm1
I0403 19:32:05.733321 25015 net.cpp:141] Setting up pool1/norm1
I0403 19:32:05.733350 25015 net.cpp:148] Top shape: 24 64 56 56 (4816896)
I0403 19:32:05.733369 25015 net.cpp:156] Memory required for data: 207127584
I0403 19:32:05.733388 25015 layer_factory.hpp:77] Creating layer conv2/3x3_reduce
I0403 19:32:05.733422 25015 net.cpp:91] Creating Layer conv2/3x3_reduce
I0403 19:32:05.733441 25015 net.cpp:425] conv2/3x3_reduce <- pool1/norm1
I0403 19:32:05.733464 25015 net.cpp:399] conv2/3x3_reduce -> conv2/3x3_reduce
I0403 19:32:05.734834 25015 net.cpp:141] Setting up conv2/3x3_reduce
I0403 19:32:05.734866 25015 net.cpp:148] Top shape: 24 64 56 56 (4816896)
I0403 19:32:05.734885 25015 net.cpp:156] Memory required for data: 226395168
I0403 19:32:05.734910 25015 layer_factory.hpp:77] Creating layer conv2/relu_3x3_reduce
I0403 19:32:05.734930 25015 net.cpp:91] Creating Layer conv2/relu_3x3_reduce
I0403 19:32:05.734948 25015 net.cpp:425] conv2/relu_3x3_reduce <- conv2/3x3_reduce
I0403 19:32:05.734966 25015 net.cpp:386] conv2/relu_3x3_reduce -> conv2/3x3_reduce (in-place)
I0403 19:32:05.735209 25015 net.cpp:141] Setting up conv2/relu_3x3_reduce
I0403 19:32:05.735240 25015 net.cpp:148] Top shape: 24 64 56 56 (4816896)
I0403 19:32:05.735257 25015 net.cpp:156] Memory required for data: 245662752
I0403 19:32:05.735273 25015 layer_factory.hpp:77] Creating layer conv2/3x3
I0403 19:32:05.735299 25015 net.cpp:91] Creating Layer conv2/3x3
I0403 19:32:05.735321 25015 net.cpp:425] conv2/3x3 <- conv2/3x3_reduce
I0403 19:32:05.735342 25015 net.cpp:399] conv2/3x3 -> conv2/3x3
I0403 19:32:05.737529 25015 net.cpp:141] Setting up conv2/3x3
I0403 19:32:05.737561 25015 net.cpp:148] Top shape: 24 192 56 56 (14450688)
I0403 19:32:05.737581 25015 net.cpp:156] Memory required for data: 303465504
I0403 19:32:05.737604 25015 layer_factory.hpp:77] Creating layer conv2/relu_3x3
I0403 19:32:05.737627 25015 net.cpp:91] Creating Layer conv2/relu_3x3
I0403 19:32:05.737643 25015 net.cpp:425] conv2/relu_3x3 <- conv2/3x3
I0403 19:32:05.737660 25015 net.cpp:386] conv2/relu_3x3 -> conv2/3x3 (in-place)
I0403 19:32:05.737823 25015 net.cpp:141] Setting up conv2/relu_3x3
I0403 19:32:05.737854 25015 net.cpp:148] Top shape: 24 192 56 56 (14450688)
I0403 19:32:05.737905 25015 net.cpp:156] Memory required for data: 361268256
I0403 19:32:05.737922 25015 layer_factory.hpp:77] Creating layer conv2/norm2
I0403 19:32:05.737942 25015 net.cpp:91] Creating Layer conv2/norm2
I0403 19:32:05.737959 25015 net.cpp:425] conv2/norm2 <- conv2/3x3
I0403 19:32:05.737978 25015 net.cpp:399] conv2/norm2 -> conv2/norm2
I0403 19:32:05.738271 25015 net.cpp:141] Setting up conv2/norm2
I0403 19:32:05.738312 25015 net.cpp:148] Top shape: 24 192 56 56 (14450688)
I0403 19:32:05.738332 25015 net.cpp:156] Memory required for data: 419071008
I0403 19:32:05.738348 25015 layer_factory.hpp:77] Creating layer pool2/3x3_s2
I0403 19:32:05.738368 25015 net.cpp:91] Creating Layer pool2/3x3_s2
I0403 19:32:05.738384 25015 net.cpp:425] pool2/3x3_s2 <- conv2/norm2
I0403 19:32:05.738406 25015 net.cpp:399] pool2/3x3_s2 -> pool2/3x3_s2
I0403 19:32:05.738461 25015 net.cpp:141] Setting up pool2/3x3_s2
I0403 19:32:05.738492 25015 net.cpp:148] Top shape: 24 192 28 28 (3612672)
I0403 19:32:05.738509 25015 net.cpp:156] Memory required for data: 433521696
I0403 19:32:05.738525 25015 layer_factory.hpp:77] Creating layer pool2/3x3_s2_pool2/3x3_s2_0_split
I0403 19:32:05.738543 25015 net.cpp:91] Creating Layer pool2/3x3_s2_pool2/3x3_s2_0_split
I0403 19:32:05.738560 25015 net.cpp:425] pool2/3x3_s2_pool2/3x3_s2_0_split <- pool2/3x3_s2
I0403 19:32:05.738579 25015 net.cpp:399] pool2/3x3_s2_pool2/3x3_s2_0_split -> pool2/3x3_s2_pool2/3x3_s2_0_split_0
I0403 19:32:05.738600 25015 net.cpp:399] pool2/3x3_s2_pool2/3x3_s2_0_split -> pool2/3x3_s2_pool2/3x3_s2_0_split_1
I0403 19:32:05.738625 25015 net.cpp:399] pool2/3x3_s2_pool2/3x3_s2_0_split -> pool2/3x3_s2_pool2/3x3_s2_0_split_2
I0403 19:32:05.738648 25015 net.cpp:399] pool2/3x3_s2_pool2/3x3_s2_0_split -> pool2/3x3_s2_pool2/3x3_s2_0_split_3
I0403 19:32:05.738720 25015 net.cpp:141] Setting up pool2/3x3_s2_pool2/3x3_s2_0_split
I0403 19:32:05.738750 25015 net.cpp:148] Top shape: 24 192 28 28 (3612672)
I0403 19:32:05.738770 25015 net.cpp:148] Top shape: 24 192 28 28 (3612672)
I0403 19:32:05.738787 25015 net.cpp:148] Top shape: 24 192 28 28 (3612672)
I0403 19:32:05.738804 25015 net.cpp:148] Top shape: 24 192 28 28 (3612672)
I0403 19:32:05.738818 25015 net.cpp:156] Memory required for data: 491324448
I0403 19:32:05.738833 25015 layer_factory.hpp:77] Creating layer inception_3a/1x1
I0403 19:32:05.738858 25015 net.cpp:91] Creating Layer inception_3a/1x1
I0403 19:32:05.738878 25015 net.cpp:425] inception_3a/1x1 <- pool2/3x3_s2_pool2/3x3_s2_0_split_0
I0403 19:32:05.738903 25015 net.cpp:399] inception_3a/1x1 -> inception_3a/1x1
I0403 19:32:05.740444 25015 net.cpp:141] Setting up inception_3a/1x1
I0403 19:32:05.740478 25015 net.cpp:148] Top shape: 24 64 28 28 (1204224)
I0403 19:32:05.740499 25015 net.cpp:156] Memory required for data: 496141344
I0403 19:32:05.740519 25015 layer_factory.hpp:77] Creating layer inception_3a/relu_1x1
I0403 19:32:05.740538 25015 net.cpp:91] Creating Layer inception_3a/relu_1x1
I0403 19:32:05.740557 25015 net.cpp:425] inception_3a/relu_1x1 <- inception_3a/1x1
I0403 19:32:05.740579 25015 net.cpp:386] inception_3a/relu_1x1 -> inception_3a/1x1 (in-place)
I0403 19:32:05.740751 25015 net.cpp:141] Setting up inception_3a/relu_1x1
I0403 19:32:05.740780 25015 net.cpp:148] Top shape: 24 64 28 28 (1204224)
I0403 19:32:05.740798 25015 net.cpp:156] Memory required for data: 500958240
I0403 19:32:05.740815 25015 layer_factory.hpp:77] Creating layer inception_3a/3x3_reduce
I0403 19:32:05.740840 25015 net.cpp:91] Creating Layer inception_3a/3x3_reduce
I0403 19:32:05.740860 25015 net.cpp:425] inception_3a/3x3_reduce <- pool2/3x3_s2_pool2/3x3_s2_0_split_1
I0403 19:32:05.740885 25015 net.cpp:399] inception_3a/3x3_reduce -> inception_3a/3x3_reduce
I0403 19:32:05.742568 25015 net.cpp:141] Setting up inception_3a/3x3_reduce
I0403 19:32:05.742601 25015 net.cpp:148] Top shape: 24 96 28 28 (1806336)
I0403 19:32:05.742619 25015 net.cpp:156] Memory required for data: 508183584
I0403 19:32:05.742641 25015 layer_factory.hpp:77] Creating layer inception_3a/relu_3x3_reduce
I0403 19:32:05.742681 25015 net.cpp:91] Creating Layer inception_3a/relu_3x3_reduce
I0403 19:32:05.742704 25015 net.cpp:425] inception_3a/relu_3x3_reduce <- inception_3a/3x3_reduce
I0403 19:32:05.742724 25015 net.cpp:386] inception_3a/relu_3x3_reduce -> inception_3a/3x3_reduce (in-place)
I0403 19:32:05.742895 25015 net.cpp:141] Setting up inception_3a/relu_3x3_reduce
I0403 19:32:05.742925 25015 net.cpp:148] Top shape: 24 96 28 28 (1806336)
I0403 19:32:05.742944 25015 net.cpp:156] Memory required for data: 515408928
I0403 19:32:05.742960 25015 layer_factory.hpp:77] Creating layer inception_3a/3x3
I0403 19:32:05.742986 25015 net.cpp:91] Creating Layer inception_3a/3x3
I0403 19:32:05.743005 25015 net.cpp:425] inception_3a/3x3 <- inception_3a/3x3_reduce
I0403 19:32:05.743027 25015 net.cpp:399] inception_3a/3x3 -> inception_3a/3x3
I0403 19:32:05.744617 25015 net.cpp:141] Setting up inception_3a/3x3
I0403 19:32:05.744652 25015 net.cpp:148] Top shape: 24 128 28 28 (2408448)
I0403 19:32:05.744669 25015 net.cpp:156] Memory required for data: 525042720
I0403 19:32:05.744689 25015 layer_factory.hpp:77] Creating layer inception_3a/relu_3x3
I0403 19:32:05.744711 25015 net.cpp:91] Creating Layer inception_3a/relu_3x3
I0403 19:32:05.744732 25015 net.cpp:425] inception_3a/relu_3x3 <- inception_3a/3x3
I0403 19:32:05.744750 25015 net.cpp:386] inception_3a/relu_3x3 -> inception_3a/3x3 (in-place)
I0403 19:32:05.745017 25015 net.cpp:141] Setting up inception_3a/relu_3x3
I0403 19:32:05.745046 25015 net.cpp:148] Top shape: 24 128 28 28 (2408448)
I0403 19:32:05.745062 25015 net.cpp:156] Memory required for data: 534676512
I0403 19:32:05.745079 25015 layer_factory.hpp:77] Creating layer inception_3a/5x5_reduce
I0403 19:32:05.745101 25015 net.cpp:91] Creating Layer inception_3a/5x5_reduce
I0403 19:32:05.745121 25015 net.cpp:425] inception_3a/5x5_reduce <- pool2/3x3_s2_pool2/3x3_s2_0_split_2
I0403 19:32:05.745144 25015 net.cpp:399] inception_3a/5x5_reduce -> inception_3a/5x5_reduce
I0403 19:32:05.746075 25015 net.cpp:141] Setting up inception_3a/5x5_reduce
I0403 19:32:05.746106 25015 net.cpp:148] Top shape: 24 16 28 28 (301056)
I0403 19:32:05.746124 25015 net.cpp:156] Memory required for data: 535880736
I0403 19:32:05.746145 25015 layer_factory.hpp:77] Creating layer inception_3a/relu_5x5_reduce
I0403 19:32:05.746165 25015 net.cpp:91] Creating Layer inception_3a/relu_5x5_reduce
I0403 19:32:05.746183 25015 net.cpp:425] inception_3a/relu_5x5_reduce <- inception_3a/5x5_reduce
I0403 19:32:05.746202 25015 net.cpp:386] inception_3a/relu_5x5_reduce -> inception_3a/5x5_reduce (in-place)
I0403 19:32:05.746492 25015 net.cpp:141] Setting up inception_3a/relu_5x5_reduce
I0403 19:32:05.746523 25015 net.cpp:148] Top shape: 24 16 28 28 (301056)
I0403 19:32:05.746539 25015 net.cpp:156] Memory required for data: 537084960
I0403 19:32:05.746557 25015 layer_factory.hpp:77] Creating layer inception_3a/5x5
I0403 19:32:05.746582 25015 net.cpp:91] Creating Layer inception_3a/5x5
I0403 19:32:05.746603 25015 net.cpp:425] inception_3a/5x5 <- inception_3a/5x5_reduce
I0403 19:32:05.746624 25015 net.cpp:399] inception_3a/5x5 -> inception_3a/5x5
I0403 19:32:05.747616 25015 net.cpp:141] Setting up inception_3a/5x5
I0403 19:32:05.747648 25015 net.cpp:148] Top shape: 24 32 28 28 (602112)
I0403 19:32:05.747666 25015 net.cpp:156] Memory required for data: 539493408
I0403 19:32:05.747686 25015 layer_factory.hpp:77] Creating layer inception_3a/relu_5x5
I0403 19:32:05.747706 25015 net.cpp:91] Creating Layer inception_3a/relu_5x5
I0403 19:32:05.747723 25015 net.cpp:425] inception_3a/relu_5x5 <- inception_3a/5x5
I0403 19:32:05.747745 25015 net.cpp:386] inception_3a/relu_5x5 -> inception_3a/5x5 (in-place)
I0403 19:32:05.747915 25015 net.cpp:141] Setting up inception_3a/relu_5x5
I0403 19:32:05.747946 25015 net.cpp:148] Top shape: 24 32 28 28 (602112)
I0403 19:32:05.747963 25015 net.cpp:156] Memory required for data: 541901856
I0403 19:32:05.747977 25015 layer_factory.hpp:77] Creating layer inception_3a/pool
I0403 19:32:05.747999 25015 net.cpp:91] Creating Layer inception_3a/pool
I0403 19:32:05.748031 25015 net.cpp:425] inception_3a/pool <- pool2/3x3_s2_pool2/3x3_s2_0_split_3
I0403 19:32:05.748052 25015 net.cpp:399] inception_3a/pool -> inception_3a/pool
I0403 19:32:05.748113 25015 net.cpp:141] Setting up inception_3a/pool
I0403 19:32:05.748142 25015 net.cpp:148] Top shape: 24 192 28 28 (3612672)
I0403 19:32:05.748157 25015 net.cpp:156] Memory required for data: 556352544
I0403 19:32:05.748172 25015 layer_factory.hpp:77] Creating layer inception_3a/pool_proj
I0403 19:32:05.748196 25015 net.cpp:91] Creating Layer inception_3a/pool_proj
I0403 19:32:05.748215 25015 net.cpp:425] inception_3a/pool_proj <- inception_3a/pool
I0403 19:32:05.748239 25015 net.cpp:399] inception_3a/pool_proj -> inception_3a/pool_proj
I0403 19:32:05.749167 25015 net.cpp:141] Setting up inception_3a/pool_proj
I0403 19:32:05.749202 25015 net.cpp:148] Top shape: 24 32 28 28 (602112)
I0403 19:32:05.749220 25015 net.cpp:156] Memory required for data: 558760992
I0403 19:32:05.749243 25015 layer_factory.hpp:77] Creating layer inception_3a/relu_pool_proj
I0403 19:32:05.749269 25015 net.cpp:91] Creating Layer inception_3a/relu_pool_proj
I0403 19:32:05.749291 25015 net.cpp:425] inception_3a/relu_pool_proj <- inception_3a/pool_proj
I0403 19:32:05.749315 25015 net.cpp:386] inception_3a/relu_pool_proj -> inception_3a/pool_proj (in-place)
I0403 19:32:05.749583 25015 net.cpp:141] Setting up inception_3a/relu_pool_proj
I0403 19:32:05.749611 25015 net.cpp:148] Top shape: 24 32 28 28 (602112)
I0403 19:32:05.749629 25015 net.cpp:156] Memory required for data: 561169440
I0403 19:32:05.749644 25015 layer_factory.hpp:77] Creating layer inception_3a/output
I0403 19:32:05.749663 25015 net.cpp:91] Creating Layer inception_3a/output
I0403 19:32:05.749680 25015 net.cpp:425] inception_3a/output <- inception_3a/1x1
I0403 19:32:05.749697 25015 net.cpp:425] inception_3a/output <- inception_3a/3x3
I0403 19:32:05.749712 25015 net.cpp:425] inception_3a/output <- inception_3a/5x5
I0403 19:32:05.749728 25015 net.cpp:425] inception_3a/output <- inception_3a/pool_proj
I0403 19:32:05.749749 25015 net.cpp:399] inception_3a/output -> inception_3a/output
I0403 19:32:05.749799 25015 net.cpp:141] Setting up inception_3a/output
I0403 19:32:05.749830 25015 net.cpp:148] Top shape: 24 256 28 28 (4816896)
I0403 19:32:05.749846 25015 net.cpp:156] Memory required for data: 580437024
I0403 19:32:05.749864 25015 layer_factory.hpp:77] Creating layer inception_3a/output_inception_3a/output_0_split
I0403 19:32:05.749882 25015 net.cpp:91] Creating Layer inception_3a/output_inception_3a/output_0_split
I0403 19:32:05.749899 25015 net.cpp:425] inception_3a/output_inception_3a/output_0_split <- inception_3a/output
I0403 19:32:05.749919 25015 net.cpp:399] inception_3a/output_inception_3a/output_0_split -> inception_3a/output_inception_3a/output_0_split_0
I0403 19:32:05.749943 25015 net.cpp:399] inception_3a/output_inception_3a/output_0_split -> inception_3a/output_inception_3a/output_0_split_1
I0403 19:32:05.749966 25015 net.cpp:399] inception_3a/output_inception_3a/output_0_split -> inception_3a/output_inception_3a/output_0_split_2
I0403 19:32:05.749989 25015 net.cpp:399] inception_3a/output_inception_3a/output_0_split -> inception_3a/output_inception_3a/output_0_split_3
I0403 19:32:05.750063 25015 net.cpp:141] Setting up inception_3a/output_inception_3a/output_0_split
I0403 19:32:05.750090 25015 net.cpp:148] Top shape: 24 256 28 28 (4816896)
I0403 19:32:05.750108 25015 net.cpp:148] Top shape: 24 256 28 28 (4816896)
I0403 19:32:05.750125 25015 net.cpp:148] Top shape: 24 256 28 28 (4816896)
I0403 19:32:05.750141 25015 net.cpp:148] Top shape: 24 256 28 28 (4816896)
I0403 19:32:05.750157 25015 net.cpp:156] Memory required for data: 657507360
I0403 19:32:05.750174 25015 layer_factory.hpp:77] Creating layer inception_3b/1x1
I0403 19:32:05.750196 25015 net.cpp:91] Creating Layer inception_3b/1x1
I0403 19:32:05.750217 25015 net.cpp:425] inception_3b/1x1 <- inception_3a/output_inception_3a/output_0_split_0
I0403 19:32:05.750241 25015 net.cpp:399] inception_3b/1x1 -> inception_3b/1x1
I0403 19:32:05.751348 25015 net.cpp:141] Setting up inception_3b/1x1
I0403 19:32:05.751391 25015 net.cpp:148] Top shape: 24 128 28 28 (2408448)
I0403 19:32:05.751410 25015 net.cpp:156] Memory required for data: 667141152
I0403 19:32:05.751428 25015 layer_factory.hpp:77] Creating layer inception_3b/relu_1x1
I0403 19:32:05.751448 25015 net.cpp:91] Creating Layer inception_3b/relu_1x1
I0403 19:32:05.751466 25015 net.cpp:425] inception_3b/relu_1x1 <- inception_3b/1x1
I0403 19:32:05.751489 25015 net.cpp:386] inception_3b/relu_1x1 -> inception_3b/1x1 (in-place)
I0403 19:32:05.751674 25015 net.cpp:141] Setting up inception_3b/relu_1x1
I0403 19:32:05.751703 25015 net.cpp:148] Top shape: 24 128 28 28 (2408448)
I0403 19:32:05.751719 25015 net.cpp:156] Memory required for data: 676774944
I0403 19:32:05.751736 25015 layer_factory.hpp:77] Creating layer inception_3b/3x3_reduce
I0403 19:32:05.751760 25015 net.cpp:91] Creating Layer inception_3b/3x3_reduce
I0403 19:32:05.751780 25015 net.cpp:425] inception_3b/3x3_reduce <- inception_3a/output_inception_3a/output_0_split_1
I0403 19:32:05.751806 25015 net.cpp:399] inception_3b/3x3_reduce -> inception_3b/3x3_reduce
I0403 19:32:05.752910 25015 net.cpp:141] Setting up inception_3b/3x3_reduce
I0403 19:32:05.752941 25015 net.cpp:148] Top shape: 24 128 28 28 (2408448)
I0403 19:32:05.752959 25015 net.cpp:156] Memory required for data: 686408736
I0403 19:32:05.752976 25015 layer_factory.hpp:77] Creating layer inception_3b/relu_3x3_reduce
I0403 19:32:05.752996 25015 net.cpp:91] Creating Layer inception_3b/relu_3x3_reduce
I0403 19:32:05.753015 25015 net.cpp:425] inception_3b/relu_3x3_reduce <- inception_3b/3x3_reduce
I0403 19:32:05.753036 25015 net.cpp:386] inception_3b/relu_3x3_reduce -> inception_3b/3x3_reduce (in-place)
I0403 19:32:05.753204 25015 net.cpp:141] Setting up inception_3b/relu_3x3_reduce
I0403 19:32:05.753232 25015 net.cpp:148] Top shape: 24 128 28 28 (2408448)
I0403 19:32:05.753247 25015 net.cpp:156] Memory required for data: 696042528
I0403 19:32:05.753262 25015 layer_factory.hpp:77] Creating layer inception_3b/3x3
I0403 19:32:05.753294 25015 net.cpp:91] Creating Layer inception_3b/3x3
I0403 19:32:05.753315 25015 net.cpp:425] inception_3b/3x3 <- inception_3b/3x3_reduce
I0403 19:32:05.753335 25015 net.cpp:399] inception_3b/3x3 -> inception_3b/3x3
I0403 19:32:05.756193 25015 net.cpp:141] Setting up inception_3b/3x3
I0403 19:32:05.756223 25015 net.cpp:148] Top shape: 24 192 28 28 (3612672)
I0403 19:32:05.756239 25015 net.cpp:156] Memory required for data: 710493216
I0403 19:32:05.756258 25015 layer_factory.hpp:77] Creating layer inception_3b/relu_3x3
I0403 19:32:05.756278 25015 net.cpp:91] Creating Layer inception_3b/relu_3x3
I0403 19:32:05.756304 25015 net.cpp:425] inception_3b/relu_3x3 <- inception_3b/3x3
I0403 19:32:05.756322 25015 net.cpp:386] inception_3b/relu_3x3 -> inception_3b/3x3 (in-place)
I0403 19:32:05.756592 25015 net.cpp:141] Setting up inception_3b/relu_3x3
I0403 19:32:05.756620 25015 net.cpp:148] Top shape: 24 192 28 28 (3612672)
I0403 19:32:05.756638 25015 net.cpp:156] Memory required for data: 724943904
I0403 19:32:05.756654 25015 layer_factory.hpp:77] Creating layer inception_3b/5x5_reduce
I0403 19:32:05.756678 25015 net.cpp:91] Creating Layer inception_3b/5x5_reduce
I0403 19:32:05.756698 25015 net.cpp:425] inception_3b/5x5_reduce <- inception_3a/output_inception_3a/output_0_split_2
I0403 19:32:05.756721 25015 net.cpp:399] inception_3b/5x5_reduce -> inception_3b/5x5_reduce
I0403 19:32:05.757678 25015 net.cpp:141] Setting up inception_3b/5x5_reduce
I0403 19:32:05.757707 25015 net.cpp:148] Top shape: 24 32 28 28 (602112)
I0403 19:32:05.757725 25015 net.cpp:156] Memory required for data: 727352352
I0403 19:32:05.757743 25015 layer_factory.hpp:77] Creating layer inception_3b/relu_5x5_reduce
I0403 19:32:05.757762 25015 net.cpp:91] Creating Layer inception_3b/relu_5x5_reduce
I0403 19:32:05.757779 25015 net.cpp:425] inception_3b/relu_5x5_reduce <- inception_3b/5x5_reduce
I0403 19:32:05.757799 25015 net.cpp:386] inception_3b/relu_5x5_reduce -> inception_3b/5x5_reduce (in-place)
I0403 19:32:05.757984 25015 net.cpp:141] Setting up inception_3b/relu_5x5_reduce
I0403 19:32:05.758011 25015 net.cpp:148] Top shape: 24 32 28 28 (602112)
I0403 19:32:05.758028 25015 net.cpp:156] Memory required for data: 729760800
I0403 19:32:05.758044 25015 layer_factory.hpp:77] Creating layer inception_3b/5x5
I0403 19:32:05.758065 25015 net.cpp:91] Creating Layer inception_3b/5x5
I0403 19:32:05.758085 25015 net.cpp:425] inception_3b/5x5 <- inception_3b/5x5_reduce
I0403 19:32:05.758106 25015 net.cpp:399] inception_3b/5x5 -> inception_3b/5x5
I0403 19:32:05.760022 25015 net.cpp:141] Setting up inception_3b/5x5
I0403 19:32:05.760054 25015 net.cpp:148] Top shape: 24 96 28 28 (1806336)
I0403 19:32:05.760071 25015 net.cpp:156] Memory required for data: 736986144
I0403 19:32:05.760089 25015 layer_factory.hpp:77] Creating layer inception_3b/relu_5x5
I0403 19:32:05.760107 25015 net.cpp:91] Creating Layer inception_3b/relu_5x5
I0403 19:32:05.760124 25015 net.cpp:425] inception_3b/relu_5x5 <- inception_3b/5x5
I0403 19:32:05.760144 25015 net.cpp:386] inception_3b/relu_5x5 -> inception_3b/5x5 (in-place)
I0403 19:32:05.760334 25015 net.cpp:141] Setting up inception_3b/relu_5x5
I0403 19:32:05.760362 25015 net.cpp:148] Top shape: 24 96 28 28 (1806336)
I0403 19:32:05.760378 25015 net.cpp:156] Memory required for data: 744211488
I0403 19:32:05.760393 25015 layer_factory.hpp:77] Creating layer inception_3b/pool
I0403 19:32:05.760411 25015 net.cpp:91] Creating Layer inception_3b/pool
I0403 19:32:05.760427 25015 net.cpp:425] inception_3b/pool <- inception_3a/output_inception_3a/output_0_split_3
I0403 19:32:05.760447 25015 net.cpp:399] inception_3b/pool -> inception_3b/pool
I0403 19:32:05.760504 25015 net.cpp:141] Setting up inception_3b/pool
I0403 19:32:05.760527 25015 net.cpp:148] Top shape: 24 256 28 28 (4816896)
I0403 19:32:05.760543 25015 net.cpp:156] Memory required for data: 763479072
I0403 19:32:05.760557 25015 layer_factory.hpp:77] Creating layer inception_3b/pool_proj
I0403 19:32:05.760581 25015 net.cpp:91] Creating Layer inception_3b/pool_proj
I0403 19:32:05.760599 25015 net.cpp:425] inception_3b/pool_proj <- inception_3b/pool
I0403 19:32:05.760622 25015 net.cpp:399] inception_3b/pool_proj -> inception_3b/pool_proj
I0403 19:32:05.761637 25015 net.cpp:141] Setting up inception_3b/pool_proj
I0403 19:32:05.761669 25015 net.cpp:148] Top shape: 24 64 28 28 (1204224)
I0403 19:32:05.761688 25015 net.cpp:156] Memory required for data: 768295968
I0403 19:32:05.761706 25015 layer_factory.hpp:77] Creating layer inception_3b/relu_pool_proj
I0403 19:32:05.761726 25015 net.cpp:91] Creating Layer inception_3b/relu_pool_proj
I0403 19:32:05.761744 25015 net.cpp:425] inception_3b/relu_pool_proj <- inception_3b/pool_proj
I0403 19:32:05.761762 25015 net.cpp:386] inception_3b/relu_pool_proj -> inception_3b/pool_proj (in-place)
I0403 19:32:05.762130 25015 net.cpp:141] Setting up inception_3b/relu_pool_proj
I0403 19:32:05.762156 25015 net.cpp:148] Top shape: 24 64 28 28 (1204224)
I0403 19:32:05.762171 25015 net.cpp:156] Memory required for data: 773112864
I0403 19:32:05.762187 25015 layer_factory.hpp:77] Creating layer inception_3b/output
I0403 19:32:05.762207 25015 net.cpp:91] Creating Layer inception_3b/output
I0403 19:32:05.762223 25015 net.cpp:425] inception_3b/output <- inception_3b/1x1
I0403 19:32:05.762240 25015 net.cpp:425] inception_3b/output <- inception_3b/3x3
I0403 19:32:05.762256 25015 net.cpp:425] inception_3b/output <- inception_3b/5x5
I0403 19:32:05.762274 25015 net.cpp:425] inception_3b/output <- inception_3b/pool_proj
I0403 19:32:05.762295 25015 net.cpp:399] inception_3b/output -> inception_3b/output
I0403 19:32:05.762342 25015 net.cpp:141] Setting up inception_3b/output
I0403 19:32:05.762370 25015 net.cpp:148] Top shape: 24 480 28 28 (9031680)
I0403 19:32:05.762385 25015 net.cpp:156] Memory required for data: 809239584
I0403 19:32:05.762401 25015 layer_factory.hpp:77] Creating layer pool3/3x3_s2
I0403 19:32:05.762418 25015 net.cpp:91] Creating Layer pool3/3x3_s2
I0403 19:32:05.762434 25015 net.cpp:425] pool3/3x3_s2 <- inception_3b/output
I0403 19:32:05.762471 25015 net.cpp:399] pool3/3x3_s2 -> pool3/3x3_s2
I0403 19:32:05.762531 25015 net.cpp:141] Setting up pool3/3x3_s2
I0403 19:32:05.762557 25015 net.cpp:148] Top shape: 24 480 14 14 (2257920)
I0403 19:32:05.762573 25015 net.cpp:156] Memory required for data: 818271264
I0403 19:32:05.762588 25015 layer_factory.hpp:77] Creating layer pool3/3x3_s2_pool3/3x3_s2_0_split
I0403 19:32:05.762608 25015 net.cpp:91] Creating Layer pool3/3x3_s2_pool3/3x3_s2_0_split
I0403 19:32:05.762624 25015 net.cpp:425] pool3/3x3_s2_pool3/3x3_s2_0_split <- pool3/3x3_s2
I0403 19:32:05.762645 25015 net.cpp:399] pool3/3x3_s2_pool3/3x3_s2_0_split -> pool3/3x3_s2_pool3/3x3_s2_0_split_0
I0403 19:32:05.762663 25015 net.cpp:399] pool3/3x3_s2_pool3/3x3_s2_0_split -> pool3/3x3_s2_pool3/3x3_s2_0_split_1
I0403 19:32:05.762683 25015 net.cpp:399] pool3/3x3_s2_pool3/3x3_s2_0_split -> pool3/3x3_s2_pool3/3x3_s2_0_split_2
I0403 19:32:05.762702 25015 net.cpp:399] pool3/3x3_s2_pool3/3x3_s2_0_split -> pool3/3x3_s2_pool3/3x3_s2_0_split_3
I0403 19:32:05.762776 25015 net.cpp:141] Setting up pool3/3x3_s2_pool3/3x3_s2_0_split
I0403 19:32:05.762801 25015 net.cpp:148] Top shape: 24 480 14 14 (2257920)
I0403 19:32:05.762822 25015 net.cpp:148] Top shape: 24 480 14 14 (2257920)
I0403 19:32:05.762838 25015 net.cpp:148] Top shape: 24 480 14 14 (2257920)
I0403 19:32:05.762855 25015 net.cpp:148] Top shape: 24 480 14 14 (2257920)
I0403 19:32:05.762869 25015 net.cpp:156] Memory required for data: 854397984
I0403 19:32:05.762883 25015 layer_factory.hpp:77] Creating layer inception_4a/1x1
I0403 19:32:05.762904 25015 net.cpp:91] Creating Layer inception_4a/1x1
I0403 19:32:05.762924 25015 net.cpp:425] inception_4a/1x1 <- pool3/3x3_s2_pool3/3x3_s2_0_split_0
I0403 19:32:05.762946 25015 net.cpp:399] inception_4a/1x1 -> inception_4a/1x1
I0403 19:32:05.764499 25015 net.cpp:141] Setting up inception_4a/1x1
I0403 19:32:05.764533 25015 net.cpp:148] Top shape: 24 192 14 14 (903168)
I0403 19:32:05.764550 25015 net.cpp:156] Memory required for data: 858010656
I0403 19:32:05.764570 25015 layer_factory.hpp:77] Creating layer inception_4a/relu_1x1
I0403 19:32:05.764590 25015 net.cpp:91] Creating Layer inception_4a/relu_1x1
I0403 19:32:05.764607 25015 net.cpp:425] inception_4a/relu_1x1 <- inception_4a/1x1
I0403 19:32:05.764626 25015 net.cpp:386] inception_4a/relu_1x1 -> inception_4a/1x1 (in-place)
I0403 19:32:05.764796 25015 net.cpp:141] Setting up inception_4a/relu_1x1
I0403 19:32:05.764822 25015 net.cpp:148] Top shape: 24 192 14 14 (903168)
I0403 19:32:05.764838 25015 net.cpp:156] Memory required for data: 861623328
I0403 19:32:05.764853 25015 layer_factory.hpp:77] Creating layer inception_4a/3x3_reduce
I0403 19:32:05.764876 25015 net.cpp:91] Creating Layer inception_4a/3x3_reduce
I0403 19:32:05.764895 25015 net.cpp:425] inception_4a/3x3_reduce <- pool3/3x3_s2_pool3/3x3_s2_0_split_1
I0403 19:32:05.764919 25015 net.cpp:399] inception_4a/3x3_reduce -> inception_4a/3x3_reduce
I0403 19:32:05.766139 25015 net.cpp:141] Setting up inception_4a/3x3_reduce
I0403 19:32:05.766170 25015 net.cpp:148] Top shape: 24 96 14 14 (451584)
I0403 19:32:05.766185 25015 net.cpp:156] Memory required for data: 863429664
I0403 19:32:05.766212 25015 layer_factory.hpp:77] Creating layer inception_4a/relu_3x3_reduce
I0403 19:32:05.766234 25015 net.cpp:91] Creating Layer inception_4a/relu_3x3_reduce
I0403 19:32:05.766252 25015 net.cpp:425] inception_4a/relu_3x3_reduce <- inception_4a/3x3_reduce
I0403 19:32:05.766270 25015 net.cpp:386] inception_4a/relu_3x3_reduce -> inception_4a/3x3_reduce (in-place)
I0403 19:32:05.766443 25015 net.cpp:141] Setting up inception_4a/relu_3x3_reduce
I0403 19:32:05.766472 25015 net.cpp:148] Top shape: 24 96 14 14 (451584)
I0403 19:32:05.766490 25015 net.cpp:156] Memory required for data: 865236000
I0403 19:32:05.766506 25015 layer_factory.hpp:77] Creating layer inception_4a/3x3
I0403 19:32:05.766531 25015 net.cpp:91] Creating Layer inception_4a/3x3
I0403 19:32:05.766549 25015 net.cpp:425] inception_4a/3x3 <- inception_4a/3x3_reduce
I0403 19:32:05.766568 25015 net.cpp:399] inception_4a/3x3 -> inception_4a/3x3
I0403 19:32:05.769155 25015 net.cpp:141] Setting up inception_4a/3x3
I0403 19:32:05.769183 25015 net.cpp:148] Top shape: 24 208 14 14 (978432)
I0403 19:32:05.769199 25015 net.cpp:156] Memory required for data: 869149728
I0403 19:32:05.769218 25015 layer_factory.hpp:77] Creating layer inception_4a/relu_3x3
I0403 19:32:05.769237 25015 net.cpp:91] Creating Layer inception_4a/relu_3x3
I0403 19:32:05.769254 25015 net.cpp:425] inception_4a/relu_3x3 <- inception_4a/3x3
I0403 19:32:05.769273 25015 net.cpp:386] inception_4a/relu_3x3 -> inception_4a/3x3 (in-place)
I0403 19:32:05.769547 25015 net.cpp:141] Setting up inception_4a/relu_3x3
I0403 19:32:05.769575 25015 net.cpp:148] Top shape: 24 208 14 14 (978432)
I0403 19:32:05.769592 25015 net.cpp:156] Memory required for data: 873063456
I0403 19:32:05.769608 25015 layer_factory.hpp:77] Creating layer inception_4a/5x5_reduce
I0403 19:32:05.769629 25015 net.cpp:91] Creating Layer inception_4a/5x5_reduce
I0403 19:32:05.769647 25015 net.cpp:425] inception_4a/5x5_reduce <- pool3/3x3_s2_pool3/3x3_s2_0_split_2
I0403 19:32:05.769671 25015 net.cpp:399] inception_4a/5x5_reduce -> inception_4a/5x5_reduce
I0403 19:32:05.770663 25015 net.cpp:141] Setting up inception_4a/5x5_reduce
I0403 19:32:05.770694 25015 net.cpp:148] Top shape: 24 16 14 14 (75264)
I0403 19:32:05.770712 25015 net.cpp:156] Memory required for data: 873364512
I0403 19:32:05.770732 25015 layer_factory.hpp:77] Creating layer inception_4a/relu_5x5_reduce
I0403 19:32:05.770751 25015 net.cpp:91] Creating Layer inception_4a/relu_5x5_reduce
I0403 19:32:05.770767 25015 net.cpp:425] inception_4a/relu_5x5_reduce <- inception_4a/5x5_reduce
I0403 19:32:05.770787 25015 net.cpp:386] inception_4a/relu_5x5_reduce -> inception_4a/5x5_reduce (in-place)
I0403 19:32:05.770957 25015 net.cpp:141] Setting up inception_4a/relu_5x5_reduce
I0403 19:32:05.770985 25015 net.cpp:148] Top shape: 24 16 14 14 (75264)
I0403 19:32:05.771001 25015 net.cpp:156] Memory required for data: 873665568
I0403 19:32:05.771018 25015 layer_factory.hpp:77] Creating layer inception_4a/5x5
I0403 19:32:05.771039 25015 net.cpp:91] Creating Layer inception_4a/5x5
I0403 19:32:05.771059 25015 net.cpp:425] inception_4a/5x5 <- inception_4a/5x5_reduce
I0403 19:32:05.771080 25015 net.cpp:399] inception_4a/5x5 -> inception_4a/5x5
I0403 19:32:05.772177 25015 net.cpp:141] Setting up inception_4a/5x5
I0403 19:32:05.772207 25015 net.cpp:148] Top shape: 24 48 14 14 (225792)
I0403 19:32:05.772225 25015 net.cpp:156] Memory required for data: 874568736
I0403 19:32:05.772243 25015 layer_factory.hpp:77] Creating layer inception_4a/relu_5x5
I0403 19:32:05.772264 25015 net.cpp:91] Creating Layer inception_4a/relu_5x5
I0403 19:32:05.772284 25015 net.cpp:425] inception_4a/relu_5x5 <- inception_4a/5x5
I0403 19:32:05.772311 25015 net.cpp:386] inception_4a/relu_5x5 -> inception_4a/5x5 (in-place)
I0403 19:32:05.772500 25015 net.cpp:141] Setting up inception_4a/relu_5x5
I0403 19:32:05.772528 25015 net.cpp:148] Top shape: 24 48 14 14 (225792)
I0403 19:32:05.772547 25015 net.cpp:156] Memory required for data: 875471904
I0403 19:32:05.772562 25015 layer_factory.hpp:77] Creating layer inception_4a/pool
I0403 19:32:05.772580 25015 net.cpp:91] Creating Layer inception_4a/pool
I0403 19:32:05.772598 25015 net.cpp:425] inception_4a/pool <- pool3/3x3_s2_pool3/3x3_s2_0_split_3
I0403 19:32:05.772621 25015 net.cpp:399] inception_4a/pool -> inception_4a/pool
I0403 19:32:05.772681 25015 net.cpp:141] Setting up inception_4a/pool
I0403 19:32:05.772707 25015 net.cpp:148] Top shape: 24 480 14 14 (2257920)
I0403 19:32:05.772722 25015 net.cpp:156] Memory required for data: 884503584
I0403 19:32:05.772737 25015 layer_factory.hpp:77] Creating layer inception_4a/pool_proj
I0403 19:32:05.772768 25015 net.cpp:91] Creating Layer inception_4a/pool_proj
I0403 19:32:05.772789 25015 net.cpp:425] inception_4a/pool_proj <- inception_4a/pool
I0403 19:32:05.772809 25015 net.cpp:399] inception_4a/pool_proj -> inception_4a/pool_proj
I0403 19:32:05.773934 25015 net.cpp:141] Setting up inception_4a/pool_proj
I0403 19:32:05.773962 25015 net.cpp:148] Top shape: 24 64 14 14 (301056)
I0403 19:32:05.773993 25015 net.cpp:156] Memory required for data: 885707808
I0403 19:32:05.774013 25015 layer_factory.hpp:77] Creating layer inception_4a/relu_pool_proj
I0403 19:32:05.774036 25015 net.cpp:91] Creating Layer inception_4a/relu_pool_proj
I0403 19:32:05.774055 25015 net.cpp:425] inception_4a/relu_pool_proj <- inception_4a/pool_proj
I0403 19:32:05.774075 25015 net.cpp:386] inception_4a/relu_pool_proj -> inception_4a/pool_proj (in-place)
I0403 19:32:05.774369 25015 net.cpp:141] Setting up inception_4a/relu_pool_proj
I0403 19:32:05.774399 25015 net.cpp:148] Top shape: 24 64 14 14 (301056)
I0403 19:32:05.774415 25015 net.cpp:156] Memory required for data: 886912032
I0403 19:32:05.774430 25015 layer_factory.hpp:77] Creating layer inception_4a/output
I0403 19:32:05.774452 25015 net.cpp:91] Creating Layer inception_4a/output
I0403 19:32:05.774482 25015 net.cpp:425] inception_4a/output <- inception_4a/1x1
I0403 19:32:05.774498 25015 net.cpp:425] inception_4a/output <- inception_4a/3x3
I0403 19:32:05.774513 25015 net.cpp:425] inception_4a/output <- inception_4a/5x5
I0403 19:32:05.774528 25015 net.cpp:425] inception_4a/output <- inception_4a/pool_proj
I0403 19:32:05.774547 25015 net.cpp:399] inception_4a/output -> inception_4a/output
I0403 19:32:05.774592 25015 net.cpp:141] Setting up inception_4a/output
I0403 19:32:05.774617 25015 net.cpp:148] Top shape: 24 512 14 14 (2408448)
I0403 19:32:05.774632 25015 net.cpp:156] Memory required for data: 896545824
I0403 19:32:05.774647 25015 layer_factory.hpp:77] Creating layer inception_4a/output_inception_4a/output_0_split
I0403 19:32:05.774664 25015 net.cpp:91] Creating Layer inception_4a/output_inception_4a/output_0_split
I0403 19:32:05.774679 25015 net.cpp:425] inception_4a/output_inception_4a/output_0_split <- inception_4a/output
I0403 19:32:05.774700 25015 net.cpp:399] inception_4a/output_inception_4a/output_0_split -> inception_4a/output_inception_4a/output_0_split_0
I0403 19:32:05.774721 25015 net.cpp:399] inception_4a/output_inception_4a/output_0_split -> inception_4a/output_inception_4a/output_0_split_1
I0403 19:32:05.774744 25015 net.cpp:399] inception_4a/output_inception_4a/output_0_split -> inception_4a/output_inception_4a/output_0_split_2
I0403 19:32:05.774767 25015 net.cpp:399] inception_4a/output_inception_4a/output_0_split -> inception_4a/output_inception_4a/output_0_split_3
I0403 19:32:05.774788 25015 net.cpp:399] inception_4a/output_inception_4a/output_0_split -> inception_4a/output_inception_4a/output_0_split_4
I0403 19:32:05.774878 25015 net.cpp:141] Setting up inception_4a/output_inception_4a/output_0_split
I0403 19:32:05.774904 25015 net.cpp:148] Top shape: 24 512 14 14 (2408448)
I0403 19:32:05.774920 25015 net.cpp:148] Top shape: 24 512 14 14 (2408448)
I0403 19:32:05.774936 25015 net.cpp:148] Top shape: 24 512 14 14 (2408448)
I0403 19:32:05.774952 25015 net.cpp:148] Top shape: 24 512 14 14 (2408448)
I0403 19:32:05.774967 25015 net.cpp:148] Top shape: 24 512 14 14 (2408448)
I0403 19:32:05.774979 25015 net.cpp:156] Memory required for data: 944714784
I0403 19:32:05.774996 25015 layer_factory.hpp:77] Creating layer loss1/ave_pool
I0403 19:32:05.775013 25015 net.cpp:91] Creating Layer loss1/ave_pool
I0403 19:32:05.775030 25015 net.cpp:425] loss1/ave_pool <- inception_4a/output_inception_4a/output_0_split_0
I0403 19:32:05.775049 25015 net.cpp:399] loss1/ave_pool -> loss1/ave_pool
I0403 19:32:05.775250 25015 net.cpp:141] Setting up loss1/ave_pool
I0403 19:32:05.775279 25015 net.cpp:148] Top shape: 24 512 4 4 (196608)
I0403 19:32:05.775305 25015 net.cpp:156] Memory required for data: 945501216
I0403 19:32:05.775323 25015 layer_factory.hpp:77] Creating layer loss1/conv
I0403 19:32:05.775348 25015 net.cpp:91] Creating Layer loss1/conv
I0403 19:32:05.775367 25015 net.cpp:425] loss1/conv <- loss1/ave_pool
I0403 19:32:05.775388 25015 net.cpp:399] loss1/conv -> loss1/conv
I0403 19:32:05.776705 25015 net.cpp:141] Setting up loss1/conv
I0403 19:32:05.776737 25015 net.cpp:148] Top shape: 24 128 4 4 (49152)
I0403 19:32:05.776770 25015 net.cpp:156] Memory required for data: 945697824
I0403 19:32:05.776789 25015 layer_factory.hpp:77] Creating layer loss1/relu_conv
I0403 19:32:05.776806 25015 net.cpp:91] Creating Layer loss1/relu_conv
I0403 19:32:05.776823 25015 net.cpp:425] loss1/relu_conv <- loss1/conv
I0403 19:32:05.776841 25015 net.cpp:386] loss1/relu_conv -> loss1/conv (in-place)
I0403 19:32:05.777108 25015 net.cpp:141] Setting up loss1/relu_conv
I0403 19:32:05.777139 25015 net.cpp:148] Top shape: 24 128 4 4 (49152)
I0403 19:32:05.777156 25015 net.cpp:156] Memory required for data: 945894432
I0403 19:32:05.777171 25015 layer_factory.hpp:77] Creating layer loss1/fc
I0403 19:32:05.777196 25015 net.cpp:91] Creating Layer loss1/fc
I0403 19:32:05.777215 25015 net.cpp:425] loss1/fc <- loss1/conv
I0403 19:32:05.777236 25015 net.cpp:399] loss1/fc -> loss1/fc
I0403 19:32:05.794212 25015 net.cpp:141] Setting up loss1/fc
I0403 19:32:05.794250 25015 net.cpp:148] Top shape: 24 1024 (24576)
I0403 19:32:05.794266 25015 net.cpp:156] Memory required for data: 945992736
I0403 19:32:05.794293 25015 layer_factory.hpp:77] Creating layer loss1/relu_fc
I0403 19:32:05.794315 25015 net.cpp:91] Creating Layer loss1/relu_fc
I0403 19:32:05.794333 25015 net.cpp:425] loss1/relu_fc <- loss1/fc
I0403 19:32:05.794351 25015 net.cpp:386] loss1/relu_fc -> loss1/fc (in-place)
I0403 19:32:05.794528 25015 net.cpp:141] Setting up loss1/relu_fc
I0403 19:32:05.794555 25015 net.cpp:148] Top shape: 24 1024 (24576)
I0403 19:32:05.794571 25015 net.cpp:156] Memory required for data: 946091040
I0403 19:32:05.794586 25015 layer_factory.hpp:77] Creating layer loss1/drop_fc
I0403 19:32:05.794613 25015 net.cpp:91] Creating Layer loss1/drop_fc
I0403 19:32:05.794631 25015 net.cpp:425] loss1/drop_fc <- loss1/fc
I0403 19:32:05.794652 25015 net.cpp:386] loss1/drop_fc -> loss1/fc (in-place)
I0403 19:32:05.794709 25015 net.cpp:141] Setting up loss1/drop_fc
I0403 19:32:05.794734 25015 net.cpp:148] Top shape: 24 1024 (24576)
I0403 19:32:05.794754 25015 net.cpp:156] Memory required for data: 946189344
I0403 19:32:05.794769 25015 layer_factory.hpp:77] Creating layer loss1/classifier_plantvillage
I0403 19:32:05.794792 25015 net.cpp:91] Creating Layer loss1/classifier_plantvillage
I0403 19:32:05.794811 25015 net.cpp:425] loss1/classifier_plantvillage <- loss1/fc
I0403 19:32:05.794831 25015 net.cpp:399] loss1/classifier_plantvillage -> loss1/classifier_plantvillage
I0403 19:32:05.795739 25015 net.cpp:141] Setting up loss1/classifier_plantvillage
I0403 19:32:05.795784 25015 net.cpp:148] Top shape: 24 38 (912)
I0403 19:32:05.795802 25015 net.cpp:156] Memory required for data: 946192992
I0403 19:32:05.795820 25015 layer_factory.hpp:77] Creating layer loss1/classifier_plantvillage_loss1/classifier_plantvillage_0_split
I0403 19:32:05.795841 25015 net.cpp:91] Creating Layer loss1/classifier_plantvillage_loss1/classifier_plantvillage_0_split
I0403 19:32:05.795860 25015 net.cpp:425] loss1/classifier_plantvillage_loss1/classifier_plantvillage_0_split <- loss1/classifier_plantvillage
I0403 19:32:05.795878 25015 net.cpp:399] loss1/classifier_plantvillage_loss1/classifier_plantvillage_0_split -> loss1/classifier_plantvillage_loss1/classifier_plantvillage_0_split_0
I0403 19:32:05.795900 25015 net.cpp:399] loss1/classifier_plantvillage_loss1/classifier_plantvillage_0_split -> loss1/classifier_plantvillage_loss1/classifier_plantvillage_0_split_1
I0403 19:32:05.795924 25015 net.cpp:399] loss1/classifier_plantvillage_loss1/classifier_plantvillage_0_split -> loss1/classifier_plantvillage_loss1/classifier_plantvillage_0_split_2
I0403 19:32:05.796002 25015 net.cpp:141] Setting up loss1/classifier_plantvillage_loss1/classifier_plantvillage_0_split
I0403 19:32:05.796030 25015 net.cpp:148] Top shape: 24 38 (912)
I0403 19:32:05.796047 25015 net.cpp:148] Top shape: 24 38 (912)
I0403 19:32:05.796077 25015 net.cpp:148] Top shape: 24 38 (912)
I0403 19:32:05.796092 25015 net.cpp:156] Memory required for data: 946203936
I0403 19:32:05.796108 25015 layer_factory.hpp:77] Creating layer inception_4b/1x1
I0403 19:32:05.796128 25015 net.cpp:91] Creating Layer inception_4b/1x1
I0403 19:32:05.796164 25015 net.cpp:425] inception_4b/1x1 <- inception_4a/output_inception_4a/output_0_split_1
I0403 19:32:05.796186 25015 net.cpp:399] inception_4b/1x1 -> inception_4b/1x1
I0403 19:32:05.797724 25015 net.cpp:141] Setting up inception_4b/1x1
I0403 19:32:05.797755 25015 net.cpp:148] Top shape: 24 160 14 14 (752640)
I0403 19:32:05.797771 25015 net.cpp:156] Memory required for data: 949214496
I0403 19:32:05.797790 25015 layer_factory.hpp:77] Creating layer inception_4b/relu_1x1
I0403 19:32:05.797808 25015 net.cpp:91] Creating Layer inception_4b/relu_1x1
I0403 19:32:05.797827 25015 net.cpp:425] inception_4b/relu_1x1 <- inception_4b/1x1
I0403 19:32:05.797847 25015 net.cpp:386] inception_4b/relu_1x1 -> inception_4b/1x1 (in-place)
I0403 19:32:05.798017 25015 net.cpp:141] Setting up inception_4b/relu_1x1
I0403 19:32:05.798045 25015 net.cpp:148] Top shape: 24 160 14 14 (752640)
I0403 19:32:05.798063 25015 net.cpp:156] Memory required for data: 952225056
I0403 19:32:05.798077 25015 layer_factory.hpp:77] Creating layer inception_4b/3x3_reduce
I0403 19:32:05.798099 25015 net.cpp:91] Creating Layer inception_4b/3x3_reduce
I0403 19:32:05.798117 25015 net.cpp:425] inception_4b/3x3_reduce <- inception_4a/output_inception_4a/output_0_split_2
I0403 19:32:05.798143 25015 net.cpp:399] inception_4b/3x3_reduce -> inception_4b/3x3_reduce
I0403 19:32:05.799443 25015 net.cpp:141] Setting up inception_4b/3x3_reduce
I0403 19:32:05.799474 25015 net.cpp:148] Top shape: 24 112 14 14 (526848)
I0403 19:32:05.799492 25015 net.cpp:156] Memory required for data: 954332448
I0403 19:32:05.799511 25015 layer_factory.hpp:77] Creating layer inception_4b/relu_3x3_reduce
I0403 19:32:05.799535 25015 net.cpp:91] Creating Layer inception_4b/relu_3x3_reduce
I0403 19:32:05.799556 25015 net.cpp:425] inception_4b/relu_3x3_reduce <- inception_4b/3x3_reduce
I0403 19:32:05.799576 25015 net.cpp:386] inception_4b/relu_3x3_reduce -> inception_4b/3x3_reduce (in-place)
I0403 19:32:05.799890 25015 net.cpp:141] Setting up inception_4b/relu_3x3_reduce
I0403 19:32:05.799918 25015 net.cpp:148] Top shape: 24 112 14 14 (526848)
I0403 19:32:05.799947 25015 net.cpp:156] Memory required for data: 956439840
I0403 19:32:05.799963 25015 layer_factory.hpp:77] Creating layer inception_4b/3x3
I0403 19:32:05.799988 25015 net.cpp:91] Creating Layer inception_4b/3x3
I0403 19:32:05.800009 25015 net.cpp:425] inception_4b/3x3 <- inception_4b/3x3_reduce
I0403 19:32:05.800029 25015 net.cpp:399] inception_4b/3x3 -> inception_4b/3x3
I0403 19:32:05.802884 25015 net.cpp:141] Setting up inception_4b/3x3
I0403 19:32:05.802918 25015 net.cpp:148] Top shape: 24 224 14 14 (1053696)
I0403 19:32:05.802937 25015 net.cpp:156] Memory required for data: 960654624
I0403 19:32:05.802956 25015 layer_factory.hpp:77] Creating layer inception_4b/relu_3x3
I0403 19:32:05.802978 25015 net.cpp:91] Creating Layer inception_4b/relu_3x3
I0403 19:32:05.802994 25015 net.cpp:425] inception_4b/relu_3x3 <- inception_4b/3x3
I0403 19:32:05.803011 25015 net.cpp:386] inception_4b/relu_3x3 -> inception_4b/3x3 (in-place)
I0403 19:32:05.803187 25015 net.cpp:141] Setting up inception_4b/relu_3x3
I0403 19:32:05.803215 25015 net.cpp:148] Top shape: 24 224 14 14 (1053696)
I0403 19:32:05.803231 25015 net.cpp:156] Memory required for data: 964869408
I0403 19:32:05.803247 25015 layer_factory.hpp:77] Creating layer inception_4b/5x5_reduce
I0403 19:32:05.803269 25015 net.cpp:91] Creating Layer inception_4b/5x5_reduce
I0403 19:32:05.803293 25015 net.cpp:425] inception_4b/5x5_reduce <- inception_4a/output_inception_4a/output_0_split_3
I0403 19:32:05.803319 25015 net.cpp:399] inception_4b/5x5_reduce -> inception_4b/5x5_reduce
I0403 19:32:05.804385 25015 net.cpp:141] Setting up inception_4b/5x5_reduce
I0403 19:32:05.804414 25015 net.cpp:148] Top shape: 24 24 14 14 (112896)
I0403 19:32:05.804431 25015 net.cpp:156] Memory required for data: 965320992
I0403 19:32:05.804452 25015 layer_factory.hpp:77] Creating layer inception_4b/relu_5x5_reduce
I0403 19:32:05.804473 25015 net.cpp:91] Creating Layer inception_4b/relu_5x5_reduce
I0403 19:32:05.804505 25015 net.cpp:425] inception_4b/relu_5x5_reduce <- inception_4b/5x5_reduce
I0403 19:32:05.804524 25015 net.cpp:386] inception_4b/relu_5x5_reduce -> inception_4b/5x5_reduce (in-place)
I0403 19:32:05.804711 25015 net.cpp:141] Setting up inception_4b/relu_5x5_reduce
I0403 19:32:05.804736 25015 net.cpp:148] Top shape: 24 24 14 14 (112896)
I0403 19:32:05.804751 25015 net.cpp:156] Memory required for data: 965772576
I0403 19:32:05.804767 25015 layer_factory.hpp:77] Creating layer inception_4b/5x5
I0403 19:32:05.804790 25015 net.cpp:91] Creating Layer inception_4b/5x5
I0403 19:32:05.804808 25015 net.cpp:425] inception_4b/5x5 <- inception_4b/5x5_reduce
I0403 19:32:05.804827 25015 net.cpp:399] inception_4b/5x5 -> inception_4b/5x5
I0403 19:32:05.805979 25015 net.cpp:141] Setting up inception_4b/5x5
I0403 19:32:05.806008 25015 net.cpp:148] Top shape: 24 64 14 14 (301056)
I0403 19:32:05.806025 25015 net.cpp:156] Memory required for data: 966976800
I0403 19:32:05.806042 25015 layer_factory.hpp:77] Creating layer inception_4b/relu_5x5
I0403 19:32:05.806059 25015 net.cpp:91] Creating Layer inception_4b/relu_5x5
I0403 19:32:05.806076 25015 net.cpp:425] inception_4b/relu_5x5 <- inception_4b/5x5
I0403 19:32:05.806094 25015 net.cpp:386] inception_4b/relu_5x5 -> inception_4b/5x5 (in-place)
I0403 19:32:05.806370 25015 net.cpp:141] Setting up inception_4b/relu_5x5
I0403 19:32:05.806398 25015 net.cpp:148] Top shape: 24 64 14 14 (301056)
I0403 19:32:05.806414 25015 net.cpp:156] Memory required for data: 968181024
I0403 19:32:05.806429 25015 layer_factory.hpp:77] Creating layer inception_4b/pool
I0403 19:32:05.806447 25015 net.cpp:91] Creating Layer inception_4b/pool
I0403 19:32:05.806463 25015 net.cpp:425] inception_4b/pool <- inception_4a/output_inception_4a/output_0_split_4
I0403 19:32:05.806486 25015 net.cpp:399] inception_4b/pool -> inception_4b/pool
I0403 19:32:05.806550 25015 net.cpp:141] Setting up inception_4b/pool
I0403 19:32:05.806574 25015 net.cpp:148] Top shape: 24 512 14 14 (2408448)
I0403 19:32:05.806588 25015 net.cpp:156] Memory required for data: 977814816
I0403 19:32:05.806602 25015 layer_factory.hpp:77] Creating layer inception_4b/pool_proj
I0403 19:32:05.806625 25015 net.cpp:91] Creating Layer inception_4b/pool_proj
I0403 19:32:05.806643 25015 net.cpp:425] inception_4b/pool_proj <- inception_4b/pool
I0403 19:32:05.806663 25015 net.cpp:399] inception_4b/pool_proj -> inception_4b/pool_proj
I0403 19:32:05.807808 25015 net.cpp:141] Setting up inception_4b/pool_proj
I0403 19:32:05.807837 25015 net.cpp:148] Top shape: 24 64 14 14 (301056)
I0403 19:32:05.807854 25015 net.cpp:156] Memory required for data: 979019040
I0403 19:32:05.807874 25015 layer_factory.hpp:77] Creating layer inception_4b/relu_pool_proj
I0403 19:32:05.807894 25015 net.cpp:91] Creating Layer inception_4b/relu_pool_proj
I0403 19:32:05.807914 25015 net.cpp:425] inception_4b/relu_pool_proj <- inception_4b/pool_proj
I0403 19:32:05.807945 25015 net.cpp:386] inception_4b/relu_pool_proj -> inception_4b/pool_proj (in-place)
I0403 19:32:05.808115 25015 net.cpp:141] Setting up inception_4b/relu_pool_proj
I0403 19:32:05.808140 25015 net.cpp:148] Top shape: 24 64 14 14 (301056)
I0403 19:32:05.808159 25015 net.cpp:156] Memory required for data: 980223264
I0403 19:32:05.808174 25015 layer_factory.hpp:77] Creating layer inception_4b/output
I0403 19:32:05.808192 25015 net.cpp:91] Creating Layer inception_4b/output
I0403 19:32:05.808208 25015 net.cpp:425] inception_4b/output <- inception_4b/1x1
I0403 19:32:05.808226 25015 net.cpp:425] inception_4b/output <- inception_4b/3x3
I0403 19:32:05.808241 25015 net.cpp:425] inception_4b/output <- inception_4b/5x5
I0403 19:32:05.808256 25015 net.cpp:425] inception_4b/output <- inception_4b/pool_proj
I0403 19:32:05.808274 25015 net.cpp:399] inception_4b/output -> inception_4b/output
I0403 19:32:05.808326 25015 net.cpp:141] Setting up inception_4b/output
I0403 19:32:05.808351 25015 net.cpp:148] Top shape: 24 512 14 14 (2408448)
I0403 19:32:05.808367 25015 net.cpp:156] Memory required for data: 989857056
I0403 19:32:05.808394 25015 layer_factory.hpp:77] Creating layer inception_4b/output_inception_4b/output_0_split
I0403 19:32:05.808413 25015 net.cpp:91] Creating Layer inception_4b/output_inception_4b/output_0_split
I0403 19:32:05.808428 25015 net.cpp:425] inception_4b/output_inception_4b/output_0_split <- inception_4b/output
I0403 19:32:05.808447 25015 net.cpp:399] inception_4b/output_inception_4b/output_0_split -> inception_4b/output_inception_4b/output_0_split_0
I0403 19:32:05.808470 25015 net.cpp:399] inception_4b/output_inception_4b/output_0_split -> inception_4b/output_inception_4b/output_0_split_1
I0403 19:32:05.808491 25015 net.cpp:399] inception_4b/output_inception_4b/output_0_split -> inception_4b/output_inception_4b/output_0_split_2
I0403 19:32:05.808511 25015 net.cpp:399] inception_4b/output_inception_4b/output_0_split -> inception_4b/output_inception_4b/output_0_split_3
I0403 19:32:05.808590 25015 net.cpp:141] Setting up inception_4b/output_inception_4b/output_0_split
I0403 19:32:05.808614 25015 net.cpp:148] Top shape: 24 512 14 14 (2408448)
I0403 19:32:05.808630 25015 net.cpp:148] Top shape: 24 512 14 14 (2408448)
I0403 19:32:05.808647 25015 net.cpp:148] Top shape: 24 512 14 14 (2408448)
I0403 19:32:05.808665 25015 net.cpp:148] Top shape: 24 512 14 14 (2408448)
I0403 19:32:05.808678 25015 net.cpp:156] Memory required for data: 1028392224
I0403 19:32:05.808692 25015 layer_factory.hpp:77] Creating layer inception_4c/1x1
I0403 19:32:05.808714 25015 net.cpp:91] Creating Layer inception_4c/1x1
I0403 19:32:05.808734 25015 net.cpp:425] inception_4c/1x1 <- inception_4b/output_inception_4b/output_0_split_0
I0403 19:32:05.808755 25015 net.cpp:399] inception_4c/1x1 -> inception_4c/1x1
I0403 19:32:05.810103 25015 net.cpp:141] Setting up inception_4c/1x1
I0403 19:32:05.810135 25015 net.cpp:148] Top shape: 24 128 14 14 (602112)
I0403 19:32:05.810153 25015 net.cpp:156] Memory required for data: 1030800672
I0403 19:32:05.810173 25015 layer_factory.hpp:77] Creating layer inception_4c/relu_1x1
I0403 19:32:05.810191 25015 net.cpp:91] Creating Layer inception_4c/relu_1x1
I0403 19:32:05.810207 25015 net.cpp:425] inception_4c/relu_1x1 <- inception_4c/1x1
I0403 19:32:05.810225 25015 net.cpp:386] inception_4c/relu_1x1 -> inception_4c/1x1 (in-place)
I0403 19:32:05.810406 25015 net.cpp:141] Setting up inception_4c/relu_1x1
I0403 19:32:05.810433 25015 net.cpp:148] Top shape: 24 128 14 14 (602112)
I0403 19:32:05.810451 25015 net.cpp:156] Memory required for data: 1033209120
I0403 19:32:05.810467 25015 layer_factory.hpp:77] Creating layer inception_4c/3x3_reduce
I0403 19:32:05.810487 25015 net.cpp:91] Creating Layer inception_4c/3x3_reduce
I0403 19:32:05.810506 25015 net.cpp:425] inception_4c/3x3_reduce <- inception_4b/output_inception_4b/output_0_split_1
I0403 19:32:05.810528 25015 net.cpp:399] inception_4c/3x3_reduce -> inception_4c/3x3_reduce
I0403 19:32:05.812377 25015 net.cpp:141] Setting up inception_4c/3x3_reduce
I0403 19:32:05.812407 25015 net.cpp:148] Top shape: 24 128 14 14 (602112)
I0403 19:32:05.812422 25015 net.cpp:156] Memory required for data: 1035617568
I0403 19:32:05.812440 25015 layer_factory.hpp:77] Creating layer inception_4c/relu_3x3_reduce
I0403 19:32:05.812458 25015 net.cpp:91] Creating Layer inception_4c/relu_3x3_reduce
I0403 19:32:05.812479 25015 net.cpp:425] inception_4c/relu_3x3_reduce <- inception_4c/3x3_reduce
I0403 19:32:05.812495 25015 net.cpp:386] inception_4c/relu_3x3_reduce -> inception_4c/3x3_reduce (in-place)
I0403 19:32:05.812768 25015 net.cpp:141] Setting up inception_4c/relu_3x3_reduce
I0403 19:32:05.812795 25015 net.cpp:148] Top shape: 24 128 14 14 (602112)
I0403 19:32:05.812810 25015 net.cpp:156] Memory required for data: 1038026016
I0403 19:32:05.812826 25015 layer_factory.hpp:77] Creating layer inception_4c/3x3
I0403 19:32:05.812850 25015 net.cpp:91] Creating Layer inception_4c/3x3
I0403 19:32:05.812866 25015 net.cpp:425] inception_4c/3x3 <- inception_4c/3x3_reduce
I0403 19:32:05.812887 25015 net.cpp:399] inception_4c/3x3 -> inception_4c/3x3
I0403 19:32:05.816305 25015 net.cpp:141] Setting up inception_4c/3x3
I0403 19:32:05.816346 25015 net.cpp:148] Top shape: 24 256 14 14 (1204224)
I0403 19:32:05.816365 25015 net.cpp:156] Memory required for data: 1042842912
I0403 19:32:05.816398 25015 layer_factory.hpp:77] Creating layer inception_4c/relu_3x3
I0403 19:32:05.816418 25015 net.cpp:91] Creating Layer inception_4c/relu_3x3
I0403 19:32:05.816436 25015 net.cpp:425] inception_4c/relu_3x3 <- inception_4c/3x3
I0403 19:32:05.816454 25015 net.cpp:386] inception_4c/relu_3x3 -> inception_4c/3x3 (in-place)
I0403 19:32:05.816627 25015 net.cpp:141] Setting up inception_4c/relu_3x3
I0403 19:32:05.816653 25015 net.cpp:148] Top shape: 24 256 14 14 (1204224)
I0403 19:32:05.816668 25015 net.cpp:156] Memory required for data: 1047659808
I0403 19:32:05.816684 25015 layer_factory.hpp:77] Creating layer inception_4c/5x5_reduce
I0403 19:32:05.816706 25015 net.cpp:91] Creating Layer inception_4c/5x5_reduce
I0403 19:32:05.816725 25015 net.cpp:425] inception_4c/5x5_reduce <- inception_4b/output_inception_4b/output_0_split_2
I0403 19:32:05.816746 25015 net.cpp:399] inception_4c/5x5_reduce -> inception_4c/5x5_reduce
I0403 19:32:05.817783 25015 net.cpp:141] Setting up inception_4c/5x5_reduce
I0403 19:32:05.817816 25015 net.cpp:148] Top shape: 24 24 14 14 (112896)
I0403 19:32:05.817831 25015 net.cpp:156] Memory required for data: 1048111392
I0403 19:32:05.817849 25015 layer_factory.hpp:77] Creating layer inception_4c/relu_5x5_reduce
I0403 19:32:05.817869 25015 net.cpp:91] Creating Layer inception_4c/relu_5x5_reduce
I0403 19:32:05.817886 25015 net.cpp:425] inception_4c/relu_5x5_reduce <- inception_4c/5x5_reduce
I0403 19:32:05.817903 25015 net.cpp:386] inception_4c/relu_5x5_reduce -> inception_4c/5x5_reduce (in-place)
I0403 19:32:05.818078 25015 net.cpp:141] Setting up inception_4c/relu_5x5_reduce
I0403 19:32:05.818104 25015 net.cpp:148] Top shape: 24 24 14 14 (112896)
I0403 19:32:05.818120 25015 net.cpp:156] Memory required for data: 1048562976
I0403 19:32:05.818136 25015 layer_factory.hpp:77] Creating layer inception_4c/5x5
I0403 19:32:05.818159 25015 net.cpp:91] Creating Layer inception_4c/5x5
I0403 19:32:05.818178 25015 net.cpp:425] inception_4c/5x5 <- inception_4c/5x5_reduce
I0403 19:32:05.818198 25015 net.cpp:399] inception_4c/5x5 -> inception_4c/5x5
I0403 19:32:05.819380 25015 net.cpp:141] Setting up inception_4c/5x5
I0403 19:32:05.819408 25015 net.cpp:148] Top shape: 24 64 14 14 (301056)
I0403 19:32:05.819425 25015 net.cpp:156] Memory required for data: 1049767200
I0403 19:32:05.819443 25015 layer_factory.hpp:77] Creating layer inception_4c/relu_5x5
I0403 19:32:05.819465 25015 net.cpp:91] Creating Layer inception_4c/relu_5x5
I0403 19:32:05.819483 25015 net.cpp:425] inception_4c/relu_5x5 <- inception_4c/5x5
I0403 19:32:05.819500 25015 net.cpp:386] inception_4c/relu_5x5 -> inception_4c/5x5 (in-place)
I0403 19:32:05.819792 25015 net.cpp:141] Setting up inception_4c/relu_5x5
I0403 19:32:05.819818 25015 net.cpp:148] Top shape: 24 64 14 14 (301056)
I0403 19:32:05.819838 25015 net.cpp:156] Memory required for data: 1050971424
I0403 19:32:05.819854 25015 layer_factory.hpp:77] Creating layer inception_4c/pool
I0403 19:32:05.819871 25015 net.cpp:91] Creating Layer inception_4c/pool
I0403 19:32:05.819888 25015 net.cpp:425] inception_4c/pool <- inception_4b/output_inception_4b/output_0_split_3
I0403 19:32:05.819907 25015 net.cpp:399] inception_4c/pool -> inception_4c/pool
I0403 19:32:05.819982 25015 net.cpp:141] Setting up inception_4c/pool
I0403 19:32:05.820005 25015 net.cpp:148] Top shape: 24 512 14 14 (2408448)
I0403 19:32:05.820019 25015 net.cpp:156] Memory required for data: 1060605216
I0403 19:32:05.820034 25015 layer_factory.hpp:77] Creating layer inception_4c/pool_proj
I0403 19:32:05.820056 25015 net.cpp:91] Creating Layer inception_4c/pool_proj
I0403 19:32:05.820075 25015 net.cpp:425] inception_4c/pool_proj <- inception_4c/pool
I0403 19:32:05.820096 25015 net.cpp:399] inception_4c/pool_proj -> inception_4c/pool_proj
I0403 19:32:05.821277 25015 net.cpp:141] Setting up inception_4c/pool_proj
I0403 19:32:05.821311 25015 net.cpp:148] Top shape: 24 64 14 14 (301056)
I0403 19:32:05.821343 25015 net.cpp:156] Memory required for data: 1061809440
I0403 19:32:05.821363 25015 layer_factory.hpp:77] Creating layer inception_4c/relu_pool_proj
I0403 19:32:05.821384 25015 net.cpp:91] Creating Layer inception_4c/relu_pool_proj
I0403 19:32:05.821401 25015 net.cpp:425] inception_4c/relu_pool_proj <- inception_4c/pool_proj
I0403 19:32:05.821422 25015 net.cpp:386] inception_4c/relu_pool_proj -> inception_4c/pool_proj (in-place)
I0403 19:32:05.821595 25015 net.cpp:141] Setting up inception_4c/relu_pool_proj
I0403 19:32:05.821621 25015 net.cpp:148] Top shape: 24 64 14 14 (301056)
I0403 19:32:05.821637 25015 net.cpp:156] Memory required for data: 1063013664
I0403 19:32:05.821653 25015 layer_factory.hpp:77] Creating layer inception_4c/output
I0403 19:32:05.821673 25015 net.cpp:91] Creating Layer inception_4c/output
I0403 19:32:05.821689 25015 net.cpp:425] inception_4c/output <- inception_4c/1x1
I0403 19:32:05.821704 25015 net.cpp:425] inception_4c/output <- inception_4c/3x3
I0403 19:32:05.821722 25015 net.cpp:425] inception_4c/output <- inception_4c/5x5
I0403 19:32:05.821738 25015 net.cpp:425] inception_4c/output <- inception_4c/pool_proj
I0403 19:32:05.821754 25015 net.cpp:399] inception_4c/output -> inception_4c/output
I0403 19:32:05.821800 25015 net.cpp:141] Setting up inception_4c/output
I0403 19:32:05.821825 25015 net.cpp:148] Top shape: 24 512 14 14 (2408448)
I0403 19:32:05.821840 25015 net.cpp:156] Memory required for data: 1072647456
I0403 19:32:05.821854 25015 layer_factory.hpp:77] Creating layer inception_4c/output_inception_4c/output_0_split
I0403 19:32:05.821871 25015 net.cpp:91] Creating Layer inception_4c/output_inception_4c/output_0_split
I0403 19:32:05.821887 25015 net.cpp:425] inception_4c/output_inception_4c/output_0_split <- inception_4c/output
I0403 19:32:05.821908 25015 net.cpp:399] inception_4c/output_inception_4c/output_0_split -> inception_4c/output_inception_4c/output_0_split_0
I0403 19:32:05.821928 25015 net.cpp:399] inception_4c/output_inception_4c/output_0_split -> inception_4c/output_inception_4c/output_0_split_1
I0403 19:32:05.821949 25015 net.cpp:399] inception_4c/output_inception_4c/output_0_split -> inception_4c/output_inception_4c/output_0_split_2
I0403 19:32:05.821969 25015 net.cpp:399] inception_4c/output_inception_4c/output_0_split -> inception_4c/output_inception_4c/output_0_split_3
I0403 19:32:05.822051 25015 net.cpp:141] Setting up inception_4c/output_inception_4c/output_0_split
I0403 19:32:05.822073 25015 net.cpp:148] Top shape: 24 512 14 14 (2408448)
I0403 19:32:05.822089 25015 net.cpp:148] Top shape: 24 512 14 14 (2408448)
I0403 19:32:05.822103 25015 net.cpp:148] Top shape: 24 512 14 14 (2408448)
I0403 19:32:05.822118 25015 net.cpp:148] Top shape: 24 512 14 14 (2408448)
I0403 19:32:05.822132 25015 net.cpp:156] Memory required for data: 1111182624
I0403 19:32:05.822146 25015 layer_factory.hpp:77] Creating layer inception_4d/1x1
I0403 19:32:05.822170 25015 net.cpp:91] Creating Layer inception_4d/1x1
I0403 19:32:05.822187 25015 net.cpp:425] inception_4d/1x1 <- inception_4c/output_inception_4c/output_0_split_0
I0403 19:32:05.822207 25015 net.cpp:399] inception_4d/1x1 -> inception_4d/1x1
I0403 19:32:05.823544 25015 net.cpp:141] Setting up inception_4d/1x1
I0403 19:32:05.823580 25015 net.cpp:148] Top shape: 24 112 14 14 (526848)
I0403 19:32:05.823598 25015 net.cpp:156] Memory required for data: 1113290016
I0403 19:32:05.823617 25015 layer_factory.hpp:77] Creating layer inception_4d/relu_1x1
I0403 19:32:05.823637 25015 net.cpp:91] Creating Layer inception_4d/relu_1x1
I0403 19:32:05.823653 25015 net.cpp:425] inception_4d/relu_1x1 <- inception_4d/1x1
I0403 19:32:05.823673 25015 net.cpp:386] inception_4d/relu_1x1 -> inception_4d/1x1 (in-place)
I0403 19:32:05.823849 25015 net.cpp:141] Setting up inception_4d/relu_1x1
I0403 19:32:05.823878 25015 net.cpp:148] Top shape: 24 112 14 14 (526848)
I0403 19:32:05.823892 25015 net.cpp:156] Memory required for data: 1115397408
I0403 19:32:05.823909 25015 layer_factory.hpp:77] Creating layer inception_4d/3x3_reduce
I0403 19:32:05.823946 25015 net.cpp:91] Creating Layer inception_4d/3x3_reduce
I0403 19:32:05.823966 25015 net.cpp:425] inception_4d/3x3_reduce <- inception_4c/output_inception_4c/output_0_split_1
I0403 19:32:05.823989 25015 net.cpp:399] inception_4d/3x3_reduce -> inception_4d/3x3_reduce
I0403 19:32:05.825428 25015 net.cpp:141] Setting up inception_4d/3x3_reduce
I0403 19:32:05.825458 25015 net.cpp:148] Top shape: 24 144 14 14 (677376)
I0403 19:32:05.825474 25015 net.cpp:156] Memory required for data: 1118106912
I0403 19:32:05.825495 25015 layer_factory.hpp:77] Creating layer inception_4d/relu_3x3_reduce
I0403 19:32:05.825516 25015 net.cpp:91] Creating Layer inception_4d/relu_3x3_reduce
I0403 19:32:05.825536 25015 net.cpp:425] inception_4d/relu_3x3_reduce <- inception_4d/3x3_reduce
I0403 19:32:05.825554 25015 net.cpp:386] inception_4d/relu_3x3_reduce -> inception_4d/3x3_reduce (in-place)
I0403 19:32:05.825829 25015 net.cpp:141] Setting up inception_4d/relu_3x3_reduce
I0403 19:32:05.825860 25015 net.cpp:148] Top shape: 24 144 14 14 (677376)
I0403 19:32:05.825876 25015 net.cpp:156] Memory required for data: 1120816416
I0403 19:32:05.825892 25015 layer_factory.hpp:77] Creating layer inception_4d/3x3
I0403 19:32:05.825916 25015 net.cpp:91] Creating Layer inception_4d/3x3
I0403 19:32:05.825934 25015 net.cpp:425] inception_4d/3x3 <- inception_4d/3x3_reduce
I0403 19:32:05.825954 25015 net.cpp:399] inception_4d/3x3 -> inception_4d/3x3
I0403 19:32:05.830003 25015 net.cpp:141] Setting up inception_4d/3x3
I0403 19:32:05.830037 25015 net.cpp:148] Top shape: 24 288 14 14 (1354752)
I0403 19:32:05.830056 25015 net.cpp:156] Memory required for data: 1126235424
I0403 19:32:05.830076 25015 layer_factory.hpp:77] Creating layer inception_4d/relu_3x3
I0403 19:32:05.830095 25015 net.cpp:91] Creating Layer inception_4d/relu_3x3
I0403 19:32:05.830111 25015 net.cpp:425] inception_4d/relu_3x3 <- inception_4d/3x3
I0403 19:32:05.830133 25015 net.cpp:386] inception_4d/relu_3x3 -> inception_4d/3x3 (in-place)
I0403 19:32:05.830312 25015 net.cpp:141] Setting up inception_4d/relu_3x3
I0403 19:32:05.830341 25015 net.cpp:148] Top shape: 24 288 14 14 (1354752)
I0403 19:32:05.830358 25015 net.cpp:156] Memory required for data: 1131654432
I0403 19:32:05.830370 25015 layer_factory.hpp:77] Creating layer inception_4d/5x5_reduce
I0403 19:32:05.830392 25015 net.cpp:91] Creating Layer inception_4d/5x5_reduce
I0403 19:32:05.830411 25015 net.cpp:425] inception_4d/5x5_reduce <- inception_4c/output_inception_4c/output_0_split_2
I0403 19:32:05.830435 25015 net.cpp:399] inception_4d/5x5_reduce -> inception_4d/5x5_reduce
I0403 19:32:05.831531 25015 net.cpp:141] Setting up inception_4d/5x5_reduce
I0403 19:32:05.831562 25015 net.cpp:148] Top shape: 24 32 14 14 (150528)
I0403 19:32:05.831579 25015 net.cpp:156] Memory required for data: 1132256544
I0403 19:32:05.831598 25015 layer_factory.hpp:77] Creating layer inception_4d/relu_5x5_reduce
I0403 19:32:05.831616 25015 net.cpp:91] Creating Layer inception_4d/relu_5x5_reduce
I0403 19:32:05.831634 25015 net.cpp:425] inception_4d/relu_5x5_reduce <- inception_4d/5x5_reduce
I0403 19:32:05.831655 25015 net.cpp:386] inception_4d/relu_5x5_reduce -> inception_4d/5x5_reduce (in-place)
I0403 19:32:05.831836 25015 net.cpp:141] Setting up inception_4d/relu_5x5_reduce
I0403 19:32:05.831866 25015 net.cpp:148] Top shape: 24 32 14 14 (150528)
I0403 19:32:05.831882 25015 net.cpp:156] Memory required for data: 1132858656
I0403 19:32:05.831897 25015 layer_factory.hpp:77] Creating layer inception_4d/5x5
I0403 19:32:05.831918 25015 net.cpp:91] Creating Layer inception_4d/5x5
I0403 19:32:05.831939 25015 net.cpp:425] inception_4d/5x5 <- inception_4d/5x5_reduce
I0403 19:32:05.831960 25015 net.cpp:399] inception_4d/5x5 -> inception_4d/5x5
I0403 19:32:05.833384 25015 net.cpp:141] Setting up inception_4d/5x5
I0403 19:32:05.833411 25015 net.cpp:148] Top shape: 24 64 14 14 (301056)
I0403 19:32:05.833427 25015 net.cpp:156] Memory required for data: 1134062880
I0403 19:32:05.833446 25015 layer_factory.hpp:77] Creating layer inception_4d/relu_5x5
I0403 19:32:05.833479 25015 net.cpp:91] Creating Layer inception_4d/relu_5x5
I0403 19:32:05.833498 25015 net.cpp:425] inception_4d/relu_5x5 <- inception_4d/5x5
I0403 19:32:05.833516 25015 net.cpp:386] inception_4d/relu_5x5 -> inception_4d/5x5 (in-place)
I0403 19:32:05.833802 25015 net.cpp:141] Setting up inception_4d/relu_5x5
I0403 19:32:05.833828 25015 net.cpp:148] Top shape: 24 64 14 14 (301056)
I0403 19:32:05.833844 25015 net.cpp:156] Memory required for data: 1135267104
I0403 19:32:05.833858 25015 layer_factory.hpp:77] Creating layer inception_4d/pool
I0403 19:32:05.833878 25015 net.cpp:91] Creating Layer inception_4d/pool
I0403 19:32:05.833895 25015 net.cpp:425] inception_4d/pool <- inception_4c/output_inception_4c/output_0_split_3
I0403 19:32:05.833914 25015 net.cpp:399] inception_4d/pool -> inception_4d/pool
I0403 19:32:05.833977 25015 net.cpp:141] Setting up inception_4d/pool
I0403 19:32:05.834002 25015 net.cpp:148] Top shape: 24 512 14 14 (2408448)
I0403 19:32:05.834017 25015 net.cpp:156] Memory required for data: 1144900896
I0403 19:32:05.834030 25015 layer_factory.hpp:77] Creating layer inception_4d/pool_proj
I0403 19:32:05.834053 25015 net.cpp:91] Creating Layer inception_4d/pool_proj
I0403 19:32:05.834069 25015 net.cpp:425] inception_4d/pool_proj <- inception_4d/pool
I0403 19:32:05.834090 25015 net.cpp:399] inception_4d/pool_proj -> inception_4d/pool_proj
I0403 19:32:05.835785 25015 net.cpp:141] Setting up inception_4d/pool_proj
I0403 19:32:05.835818 25015 net.cpp:148] Top shape: 24 64 14 14 (301056)
I0403 19:32:05.835834 25015 net.cpp:156] Memory required for data: 1146105120
I0403 19:32:05.835851 25015 layer_factory.hpp:77] Creating layer inception_4d/relu_pool_proj
I0403 19:32:05.835867 25015 net.cpp:91] Creating Layer inception_4d/relu_pool_proj
I0403 19:32:05.835883 25015 net.cpp:425] inception_4d/relu_pool_proj <- inception_4d/pool_proj
I0403 19:32:05.835901 25015 net.cpp:386] inception_4d/relu_pool_proj -> inception_4d/pool_proj (in-place)
I0403 19:32:05.836076 25015 net.cpp:141] Setting up inception_4d/relu_pool_proj
I0403 19:32:05.836099 25015 net.cpp:148] Top shape: 24 64 14 14 (301056)
I0403 19:32:05.836114 25015 net.cpp:156] Memory required for data: 1147309344
I0403 19:32:05.836128 25015 layer_factory.hpp:77] Creating layer inception_4d/output
I0403 19:32:05.836143 25015 net.cpp:91] Creating Layer inception_4d/output
I0403 19:32:05.836158 25015 net.cpp:425] inception_4d/output <- inception_4d/1x1
I0403 19:32:05.836174 25015 net.cpp:425] inception_4d/output <- inception_4d/3x3
I0403 19:32:05.836189 25015 net.cpp:425] inception_4d/output <- inception_4d/5x5
I0403 19:32:05.836204 25015 net.cpp:425] inception_4d/output <- inception_4d/pool_proj
I0403 19:32:05.836221 25015 net.cpp:399] inception_4d/output -> inception_4d/output
I0403 19:32:05.836268 25015 net.cpp:141] Setting up inception_4d/output
I0403 19:32:05.836295 25015 net.cpp:148] Top shape: 24 528 14 14 (2483712)
I0403 19:32:05.836310 25015 net.cpp:156] Memory required for data: 1157244192
I0403 19:32:05.836324 25015 layer_factory.hpp:77] Creating layer inception_4d/output_inception_4d/output_0_split
I0403 19:32:05.836341 25015 net.cpp:91] Creating Layer inception_4d/output_inception_4d/output_0_split
I0403 19:32:05.836355 25015 net.cpp:425] inception_4d/output_inception_4d/output_0_split <- inception_4d/output
I0403 19:32:05.836375 25015 net.cpp:399] inception_4d/output_inception_4d/output_0_split -> inception_4d/output_inception_4d/output_0_split_0
I0403 19:32:05.836396 25015 net.cpp:399] inception_4d/output_inception_4d/output_0_split -> inception_4d/output_inception_4d/output_0_split_1
I0403 19:32:05.836416 25015 net.cpp:399] inception_4d/output_inception_4d/output_0_split -> inception_4d/output_inception_4d/output_0_split_2
I0403 19:32:05.836436 25015 net.cpp:399] inception_4d/output_inception_4d/output_0_split -> inception_4d/output_inception_4d/output_0_split_3
I0403 19:32:05.836454 25015 net.cpp:399] inception_4d/output_inception_4d/output_0_split -> inception_4d/output_inception_4d/output_0_split_4
I0403 19:32:05.836551 25015 net.cpp:141] Setting up inception_4d/output_inception_4d/output_0_split
I0403 19:32:05.836588 25015 net.cpp:148] Top shape: 24 528 14 14 (2483712)
I0403 19:32:05.836606 25015 net.cpp:148] Top shape: 24 528 14 14 (2483712)
I0403 19:32:05.836621 25015 net.cpp:148] Top shape: 24 528 14 14 (2483712)
I0403 19:32:05.836635 25015 net.cpp:148] Top shape: 24 528 14 14 (2483712)
I0403 19:32:05.836663 25015 net.cpp:148] Top shape: 24 528 14 14 (2483712)
I0403 19:32:05.836675 25015 net.cpp:156] Memory required for data: 1206918432
I0403 19:32:05.836689 25015 layer_factory.hpp:77] Creating layer loss2/ave_pool
I0403 19:32:05.836706 25015 net.cpp:91] Creating Layer loss2/ave_pool
I0403 19:32:05.836722 25015 net.cpp:425] loss2/ave_pool <- inception_4d/output_inception_4d/output_0_split_0
I0403 19:32:05.836742 25015 net.cpp:399] loss2/ave_pool -> loss2/ave_pool
I0403 19:32:05.837054 25015 net.cpp:141] Setting up loss2/ave_pool
I0403 19:32:05.837080 25015 net.cpp:148] Top shape: 24 528 4 4 (202752)
I0403 19:32:05.837096 25015 net.cpp:156] Memory required for data: 1207729440
I0403 19:32:05.837111 25015 layer_factory.hpp:77] Creating layer loss2/conv
I0403 19:32:05.837131 25015 net.cpp:91] Creating Layer loss2/conv
I0403 19:32:05.837148 25015 net.cpp:425] loss2/conv <- loss2/ave_pool
I0403 19:32:05.837168 25015 net.cpp:399] loss2/conv -> loss2/conv
I0403 19:32:05.838949 25015 net.cpp:141] Setting up loss2/conv
I0403 19:32:05.838976 25015 net.cpp:148] Top shape: 24 128 4 4 (49152)
I0403 19:32:05.838991 25015 net.cpp:156] Memory required for data: 1207926048
I0403 19:32:05.839007 25015 layer_factory.hpp:77] Creating layer loss2/relu_conv
I0403 19:32:05.839027 25015 net.cpp:91] Creating Layer loss2/relu_conv
I0403 19:32:05.839043 25015 net.cpp:425] loss2/relu_conv <- loss2/conv
I0403 19:32:05.839059 25015 net.cpp:386] loss2/relu_conv -> loss2/conv (in-place)
I0403 19:32:05.839337 25015 net.cpp:141] Setting up loss2/relu_conv
I0403 19:32:05.839362 25015 net.cpp:148] Top shape: 24 128 4 4 (49152)
I0403 19:32:05.839376 25015 net.cpp:156] Memory required for data: 1208122656
I0403 19:32:05.839390 25015 layer_factory.hpp:77] Creating layer loss2/fc
I0403 19:32:05.839411 25015 net.cpp:91] Creating Layer loss2/fc
I0403 19:32:05.839426 25015 net.cpp:425] loss2/fc <- loss2/conv
I0403 19:32:05.839447 25015 net.cpp:399] loss2/fc -> loss2/fc
I0403 19:32:05.856295 25015 net.cpp:141] Setting up loss2/fc
I0403 19:32:05.856329 25015 net.cpp:148] Top shape: 24 1024 (24576)
I0403 19:32:05.856344 25015 net.cpp:156] Memory required for data: 1208220960
I0403 19:32:05.856362 25015 layer_factory.hpp:77] Creating layer loss2/relu_fc
I0403 19:32:05.856379 25015 net.cpp:91] Creating Layer loss2/relu_fc
I0403 19:32:05.856396 25015 net.cpp:425] loss2/relu_fc <- loss2/fc
I0403 19:32:05.856415 25015 net.cpp:386] loss2/relu_fc -> loss2/fc (in-place)
I0403 19:32:05.856695 25015 net.cpp:141] Setting up loss2/relu_fc
I0403 19:32:05.856720 25015 net.cpp:148] Top shape: 24 1024 (24576)
I0403 19:32:05.856735 25015 net.cpp:156] Memory required for data: 1208319264
I0403 19:32:05.856750 25015 layer_factory.hpp:77] Creating layer loss2/drop_fc
I0403 19:32:05.856767 25015 net.cpp:91] Creating Layer loss2/drop_fc
I0403 19:32:05.856782 25015 net.cpp:425] loss2/drop_fc <- loss2/fc
I0403 19:32:05.856801 25015 net.cpp:386] loss2/drop_fc -> loss2/fc (in-place)
I0403 19:32:05.856848 25015 net.cpp:141] Setting up loss2/drop_fc
I0403 19:32:05.856875 25015 net.cpp:148] Top shape: 24 1024 (24576)
I0403 19:32:05.856890 25015 net.cpp:156] Memory required for data: 1208417568
I0403 19:32:05.856904 25015 layer_factory.hpp:77] Creating layer loss2/classifier_plantvillage
I0403 19:32:05.856921 25015 net.cpp:91] Creating Layer loss2/classifier_plantvillage
I0403 19:32:05.856936 25015 net.cpp:425] loss2/classifier_plantvillage <- loss2/fc
I0403 19:32:05.856957 25015 net.cpp:399] loss2/classifier_plantvillage -> loss2/classifier_plantvillage
I0403 19:32:05.857343 25015 net.cpp:141] Setting up loss2/classifier_plantvillage
I0403 19:32:05.857367 25015 net.cpp:148] Top shape: 24 38 (912)
I0403 19:32:05.857398 25015 net.cpp:156] Memory required for data: 1208421216
I0403 19:32:05.857415 25015 layer_factory.hpp:77] Creating layer loss2/classifier_plantvillage_loss2/classifier_plantvillage_0_split
I0403 19:32:05.857435 25015 net.cpp:91] Creating Layer loss2/classifier_plantvillage_loss2/classifier_plantvillage_0_split
I0403 19:32:05.857451 25015 net.cpp:425] loss2/classifier_plantvillage_loss2/classifier_plantvillage_0_split <- loss2/classifier_plantvillage
I0403 19:32:05.857468 25015 net.cpp:399] loss2/classifier_plantvillage_loss2/classifier_plantvillage_0_split -> loss2/classifier_plantvillage_loss2/classifier_plantvillage_0_split_0
I0403 19:32:05.857486 25015 net.cpp:399] loss2/classifier_plantvillage_loss2/classifier_plantvillage_0_split -> loss2/classifier_plantvillage_loss2/classifier_plantvillage_0_split_1
I0403 19:32:05.857511 25015 net.cpp:399] loss2/classifier_plantvillage_loss2/classifier_plantvillage_0_split -> loss2/classifier_plantvillage_loss2/classifier_plantvillage_0_split_2
I0403 19:32:05.857584 25015 net.cpp:141] Setting up loss2/classifier_plantvillage_loss2/classifier_plantvillage_0_split
I0403 19:32:05.857607 25015 net.cpp:148] Top shape: 24 38 (912)
I0403 19:32:05.857622 25015 net.cpp:148] Top shape: 24 38 (912)
I0403 19:32:05.857636 25015 net.cpp:148] Top shape: 24 38 (912)
I0403 19:32:05.857650 25015 net.cpp:156] Memory required for data: 1208432160
I0403 19:32:05.857663 25015 layer_factory.hpp:77] Creating layer inception_4e/1x1
I0403 19:32:05.857684 25015 net.cpp:91] Creating Layer inception_4e/1x1
I0403 19:32:05.857702 25015 net.cpp:425] inception_4e/1x1 <- inception_4d/output_inception_4d/output_0_split_1
I0403 19:32:05.857719 25015 net.cpp:399] inception_4e/1x1 -> inception_4e/1x1
I0403 19:32:05.859434 25015 net.cpp:141] Setting up inception_4e/1x1
I0403 19:32:05.859462 25015 net.cpp:148] Top shape: 24 256 14 14 (1204224)
I0403 19:32:05.859477 25015 net.cpp:156] Memory required for data: 1213249056
I0403 19:32:05.859494 25015 layer_factory.hpp:77] Creating layer inception_4e/relu_1x1
I0403 19:32:05.859514 25015 net.cpp:91] Creating Layer inception_4e/relu_1x1
I0403 19:32:05.859532 25015 net.cpp:425] inception_4e/relu_1x1 <- inception_4e/1x1
I0403 19:32:05.859549 25015 net.cpp:386] inception_4e/relu_1x1 -> inception_4e/1x1 (in-place)
I0403 19:32:05.859829 25015 net.cpp:141] Setting up inception_4e/relu_1x1
I0403 19:32:05.859855 25015 net.cpp:148] Top shape: 24 256 14 14 (1204224)
I0403 19:32:05.859869 25015 net.cpp:156] Memory required for data: 1218065952
I0403 19:32:05.859884 25015 layer_factory.hpp:77] Creating layer inception_4e/3x3_reduce
I0403 19:32:05.859905 25015 net.cpp:91] Creating Layer inception_4e/3x3_reduce
I0403 19:32:05.859922 25015 net.cpp:425] inception_4e/3x3_reduce <- inception_4d/output_inception_4d/output_0_split_2
I0403 19:32:05.859942 25015 net.cpp:399] inception_4e/3x3_reduce -> inception_4e/3x3_reduce
I0403 19:32:05.861994 25015 net.cpp:141] Setting up inception_4e/3x3_reduce
I0403 19:32:05.862020 25015 net.cpp:148] Top shape: 24 160 14 14 (752640)
I0403 19:32:05.862036 25015 net.cpp:156] Memory required for data: 1221076512
I0403 19:32:05.862054 25015 layer_factory.hpp:77] Creating layer inception_4e/relu_3x3_reduce
I0403 19:32:05.862073 25015 net.cpp:91] Creating Layer inception_4e/relu_3x3_reduce
I0403 19:32:05.862089 25015 net.cpp:425] inception_4e/relu_3x3_reduce <- inception_4e/3x3_reduce
I0403 19:32:05.862107 25015 net.cpp:386] inception_4e/relu_3x3_reduce -> inception_4e/3x3_reduce (in-place)
I0403 19:32:05.862284 25015 net.cpp:141] Setting up inception_4e/relu_3x3_reduce
I0403 19:32:05.862316 25015 net.cpp:148] Top shape: 24 160 14 14 (752640)
I0403 19:32:05.862334 25015 net.cpp:156] Memory required for data: 1224087072
I0403 19:32:05.862347 25015 layer_factory.hpp:77] Creating layer inception_4e/3x3
I0403 19:32:05.862370 25015 net.cpp:91] Creating Layer inception_4e/3x3
I0403 19:32:05.862386 25015 net.cpp:425] inception_4e/3x3 <- inception_4e/3x3_reduce
I0403 19:32:05.862404 25015 net.cpp:399] inception_4e/3x3 -> inception_4e/3x3
I0403 19:32:05.867194 25015 net.cpp:141] Setting up inception_4e/3x3
I0403 19:32:05.867236 25015 net.cpp:148] Top shape: 24 320 14 14 (1505280)
I0403 19:32:05.867254 25015 net.cpp:156] Memory required for data: 1230108192
I0403 19:32:05.867272 25015 layer_factory.hpp:77] Creating layer inception_4e/relu_3x3
I0403 19:32:05.867293 25015 net.cpp:91] Creating Layer inception_4e/relu_3x3
I0403 19:32:05.867311 25015 net.cpp:425] inception_4e/relu_3x3 <- inception_4e/3x3
I0403 19:32:05.867327 25015 net.cpp:386] inception_4e/relu_3x3 -> inception_4e/3x3 (in-place)
I0403 19:32:05.867614 25015 net.cpp:141] Setting up inception_4e/relu_3x3
I0403 19:32:05.867641 25015 net.cpp:148] Top shape: 24 320 14 14 (1505280)
I0403 19:32:05.867656 25015 net.cpp:156] Memory required for data: 1236129312
I0403 19:32:05.867669 25015 layer_factory.hpp:77] Creating layer inception_4e/5x5_reduce
I0403 19:32:05.867692 25015 net.cpp:91] Creating Layer inception_4e/5x5_reduce
I0403 19:32:05.867710 25015 net.cpp:425] inception_4e/5x5_reduce <- inception_4d/output_inception_4d/output_0_split_3
I0403 19:32:05.867732 25015 net.cpp:399] inception_4e/5x5_reduce -> inception_4e/5x5_reduce
I0403 19:32:05.868739 25015 net.cpp:141] Setting up inception_4e/5x5_reduce
I0403 19:32:05.868767 25015 net.cpp:148] Top shape: 24 32 14 14 (150528)
I0403 19:32:05.868782 25015 net.cpp:156] Memory required for data: 1236731424
I0403 19:32:05.868799 25015 layer_factory.hpp:77] Creating layer inception_4e/relu_5x5_reduce
I0403 19:32:05.868819 25015 net.cpp:91] Creating Layer inception_4e/relu_5x5_reduce
I0403 19:32:05.868835 25015 net.cpp:425] inception_4e/relu_5x5_reduce <- inception_4e/5x5_reduce
I0403 19:32:05.868852 25015 net.cpp:386] inception_4e/relu_5x5_reduce -> inception_4e/5x5_reduce (in-place)
I0403 19:32:05.869134 25015 net.cpp:141] Setting up inception_4e/relu_5x5_reduce
I0403 19:32:05.869160 25015 net.cpp:148] Top shape: 24 32 14 14 (150528)
I0403 19:32:05.869174 25015 net.cpp:156] Memory required for data: 1237333536
I0403 19:32:05.869189 25015 layer_factory.hpp:77] Creating layer inception_4e/5x5
I0403 19:32:05.869227 25015 net.cpp:91] Creating Layer inception_4e/5x5
I0403 19:32:05.869247 25015 net.cpp:425] inception_4e/5x5 <- inception_4e/5x5_reduce
I0403 19:32:05.869266 25015 net.cpp:399] inception_4e/5x5 -> inception_4e/5x5
I0403 19:32:05.871001 25015 net.cpp:141] Setting up inception_4e/5x5
I0403 19:32:05.871027 25015 net.cpp:148] Top shape: 24 128 14 14 (602112)
I0403 19:32:05.871043 25015 net.cpp:156] Memory required for data: 1239741984
I0403 19:32:05.871062 25015 layer_factory.hpp:77] Creating layer inception_4e/relu_5x5
I0403 19:32:05.871078 25015 net.cpp:91] Creating Layer inception_4e/relu_5x5
I0403 19:32:05.871098 25015 net.cpp:425] inception_4e/relu_5x5 <- inception_4e/5x5
I0403 19:32:05.871116 25015 net.cpp:386] inception_4e/relu_5x5 -> inception_4e/5x5 (in-place)
I0403 19:32:05.871309 25015 net.cpp:141] Setting up inception_4e/relu_5x5
I0403 19:32:05.871333 25015 net.cpp:148] Top shape: 24 128 14 14 (602112)
I0403 19:32:05.871348 25015 net.cpp:156] Memory required for data: 1242150432
I0403 19:32:05.871362 25015 layer_factory.hpp:77] Creating layer inception_4e/pool
I0403 19:32:05.871381 25015 net.cpp:91] Creating Layer inception_4e/pool
I0403 19:32:05.871397 25015 net.cpp:425] inception_4e/pool <- inception_4d/output_inception_4d/output_0_split_4
I0403 19:32:05.871417 25015 net.cpp:399] inception_4e/pool -> inception_4e/pool
I0403 19:32:05.871485 25015 net.cpp:141] Setting up inception_4e/pool
I0403 19:32:05.871508 25015 net.cpp:148] Top shape: 24 528 14 14 (2483712)
I0403 19:32:05.871522 25015 net.cpp:156] Memory required for data: 1252085280
I0403 19:32:05.871536 25015 layer_factory.hpp:77] Creating layer inception_4e/pool_proj
I0403 19:32:05.871557 25015 net.cpp:91] Creating Layer inception_4e/pool_proj
I0403 19:32:05.871574 25015 net.cpp:425] inception_4e/pool_proj <- inception_4e/pool
I0403 19:32:05.871594 25015 net.cpp:399] inception_4e/pool_proj -> inception_4e/pool_proj
I0403 19:32:05.873015 25015 net.cpp:141] Setting up inception_4e/pool_proj
I0403 19:32:05.873056 25015 net.cpp:148] Top shape: 24 128 14 14 (602112)
I0403 19:32:05.873073 25015 net.cpp:156] Memory required for data: 1254493728
I0403 19:32:05.873091 25015 layer_factory.hpp:77] Creating layer inception_4e/relu_pool_proj
I0403 19:32:05.873109 25015 net.cpp:91] Creating Layer inception_4e/relu_pool_proj
I0403 19:32:05.873126 25015 net.cpp:425] inception_4e/relu_pool_proj <- inception_4e/pool_proj
I0403 19:32:05.873143 25015 net.cpp:386] inception_4e/relu_pool_proj -> inception_4e/pool_proj (in-place)
I0403 19:32:05.873425 25015 net.cpp:141] Setting up inception_4e/relu_pool_proj
I0403 19:32:05.873452 25015 net.cpp:148] Top shape: 24 128 14 14 (602112)
I0403 19:32:05.873468 25015 net.cpp:156] Memory required for data: 1256902176
I0403 19:32:05.873483 25015 layer_factory.hpp:77] Creating layer inception_4e/output
I0403 19:32:05.873500 25015 net.cpp:91] Creating Layer inception_4e/output
I0403 19:32:05.873514 25015 net.cpp:425] inception_4e/output <- inception_4e/1x1
I0403 19:32:05.873530 25015 net.cpp:425] inception_4e/output <- inception_4e/3x3
I0403 19:32:05.873546 25015 net.cpp:425] inception_4e/output <- inception_4e/5x5
I0403 19:32:05.873563 25015 net.cpp:425] inception_4e/output <- inception_4e/pool_proj
I0403 19:32:05.873581 25015 net.cpp:399] inception_4e/output -> inception_4e/output
I0403 19:32:05.873628 25015 net.cpp:141] Setting up inception_4e/output
I0403 19:32:05.873651 25015 net.cpp:148] Top shape: 24 832 14 14 (3913728)
I0403 19:32:05.873667 25015 net.cpp:156] Memory required for data: 1272557088
I0403 19:32:05.873680 25015 layer_factory.hpp:77] Creating layer pool4/3x3_s2
I0403 19:32:05.873699 25015 net.cpp:91] Creating Layer pool4/3x3_s2
I0403 19:32:05.873715 25015 net.cpp:425] pool4/3x3_s2 <- inception_4e/output
I0403 19:32:05.873733 25015 net.cpp:399] pool4/3x3_s2 -> pool4/3x3_s2
I0403 19:32:05.873800 25015 net.cpp:141] Setting up pool4/3x3_s2
I0403 19:32:05.873823 25015 net.cpp:148] Top shape: 24 832 7 7 (978432)
I0403 19:32:05.873837 25015 net.cpp:156] Memory required for data: 1276470816
I0403 19:32:05.873852 25015 layer_factory.hpp:77] Creating layer pool4/3x3_s2_pool4/3x3_s2_0_split
I0403 19:32:05.873874 25015 net.cpp:91] Creating Layer pool4/3x3_s2_pool4/3x3_s2_0_split
I0403 19:32:05.873890 25015 net.cpp:425] pool4/3x3_s2_pool4/3x3_s2_0_split <- pool4/3x3_s2
I0403 19:32:05.873908 25015 net.cpp:399] pool4/3x3_s2_pool4/3x3_s2_0_split -> pool4/3x3_s2_pool4/3x3_s2_0_split_0
I0403 19:32:05.873927 25015 net.cpp:399] pool4/3x3_s2_pool4/3x3_s2_0_split -> pool4/3x3_s2_pool4/3x3_s2_0_split_1
I0403 19:32:05.873947 25015 net.cpp:399] pool4/3x3_s2_pool4/3x3_s2_0_split -> pool4/3x3_s2_pool4/3x3_s2_0_split_2
I0403 19:32:05.873967 25015 net.cpp:399] pool4/3x3_s2_pool4/3x3_s2_0_split -> pool4/3x3_s2_pool4/3x3_s2_0_split_3
I0403 19:32:05.874054 25015 net.cpp:141] Setting up pool4/3x3_s2_pool4/3x3_s2_0_split
I0403 19:32:05.874078 25015 net.cpp:148] Top shape: 24 832 7 7 (978432)
I0403 19:32:05.874092 25015 net.cpp:148] Top shape: 24 832 7 7 (978432)
I0403 19:32:05.874107 25015 net.cpp:148] Top shape: 24 832 7 7 (978432)
I0403 19:32:05.874122 25015 net.cpp:148] Top shape: 24 832 7 7 (978432)
I0403 19:32:05.874136 25015 net.cpp:156] Memory required for data: 1292125728
I0403 19:32:05.874150 25015 layer_factory.hpp:77] Creating layer inception_5a/1x1
I0403 19:32:05.874171 25015 net.cpp:91] Creating Layer inception_5a/1x1
I0403 19:32:05.874189 25015 net.cpp:425] inception_5a/1x1 <- pool4/3x3_s2_pool4/3x3_s2_0_split_0
I0403 19:32:05.874209 25015 net.cpp:399] inception_5a/1x1 -> inception_5a/1x1
I0403 19:32:05.876989 25015 net.cpp:141] Setting up inception_5a/1x1
I0403 19:32:05.877018 25015 net.cpp:148] Top shape: 24 256 7 7 (301056)
I0403 19:32:05.877034 25015 net.cpp:156] Memory required for data: 1293329952
I0403 19:32:05.877051 25015 layer_factory.hpp:77] Creating layer inception_5a/relu_1x1
I0403 19:32:05.877071 25015 net.cpp:91] Creating Layer inception_5a/relu_1x1
I0403 19:32:05.877087 25015 net.cpp:425] inception_5a/relu_1x1 <- inception_5a/1x1
I0403 19:32:05.877104 25015 net.cpp:386] inception_5a/relu_1x1 -> inception_5a/1x1 (in-place)
I0403 19:32:05.877408 25015 net.cpp:141] Setting up inception_5a/relu_1x1
I0403 19:32:05.877434 25015 net.cpp:148] Top shape: 24 256 7 7 (301056)
I0403 19:32:05.877449 25015 net.cpp:156] Memory required for data: 1294534176
I0403 19:32:05.877465 25015 layer_factory.hpp:77] Creating layer inception_5a/3x3_reduce
I0403 19:32:05.877485 25015 net.cpp:91] Creating Layer inception_5a/3x3_reduce
I0403 19:32:05.877502 25015 net.cpp:425] inception_5a/3x3_reduce <- pool4/3x3_s2_pool4/3x3_s2_0_split_1
I0403 19:32:05.877523 25015 net.cpp:399] inception_5a/3x3_reduce -> inception_5a/3x3_reduce
I0403 19:32:05.879890 25015 net.cpp:141] Setting up inception_5a/3x3_reduce
I0403 19:32:05.879920 25015 net.cpp:148] Top shape: 24 160 7 7 (188160)
I0403 19:32:05.879937 25015 net.cpp:156] Memory required for data: 1295286816
I0403 19:32:05.879956 25015 layer_factory.hpp:77] Creating layer inception_5a/relu_3x3_reduce
I0403 19:32:05.879974 25015 net.cpp:91] Creating Layer inception_5a/relu_3x3_reduce
I0403 19:32:05.879990 25015 net.cpp:425] inception_5a/relu_3x3_reduce <- inception_5a/3x3_reduce
I0403 19:32:05.880009 25015 net.cpp:386] inception_5a/relu_3x3_reduce -> inception_5a/3x3_reduce (in-place)
I0403 19:32:05.880204 25015 net.cpp:141] Setting up inception_5a/relu_3x3_reduce
I0403 19:32:05.880229 25015 net.cpp:148] Top shape: 24 160 7 7 (188160)
I0403 19:32:05.880244 25015 net.cpp:156] Memory required for data: 1296039456
I0403 19:32:05.880257 25015 layer_factory.hpp:77] Creating layer inception_5a/3x3
I0403 19:32:05.880280 25015 net.cpp:91] Creating Layer inception_5a/3x3
I0403 19:32:05.880303 25015 net.cpp:425] inception_5a/3x3 <- inception_5a/3x3_reduce
I0403 19:32:05.880328 25015 net.cpp:399] inception_5a/3x3 -> inception_5a/3x3
I0403 19:32:05.885196 25015 net.cpp:141] Setting up inception_5a/3x3
I0403 19:32:05.885226 25015 net.cpp:148] Top shape: 24 320 7 7 (376320)
I0403 19:32:05.885241 25015 net.cpp:156] Memory required for data: 1297544736
I0403 19:32:05.885258 25015 layer_factory.hpp:77] Creating layer inception_5a/relu_3x3
I0403 19:32:05.885278 25015 net.cpp:91] Creating Layer inception_5a/relu_3x3
I0403 19:32:05.885299 25015 net.cpp:425] inception_5a/relu_3x3 <- inception_5a/3x3
I0403 19:32:05.885318 25015 net.cpp:386] inception_5a/relu_3x3 -> inception_5a/3x3 (in-place)
I0403 19:32:05.885598 25015 net.cpp:141] Setting up inception_5a/relu_3x3
I0403 19:32:05.885623 25015 net.cpp:148] Top shape: 24 320 7 7 (376320)
I0403 19:32:05.885639 25015 net.cpp:156] Memory required for data: 1299050016
I0403 19:32:05.885653 25015 layer_factory.hpp:77] Creating layer inception_5a/5x5_reduce
I0403 19:32:05.885675 25015 net.cpp:91] Creating Layer inception_5a/5x5_reduce
I0403 19:32:05.885694 25015 net.cpp:425] inception_5a/5x5_reduce <- pool4/3x3_s2_pool4/3x3_s2_0_split_2
I0403 19:32:05.885715 25015 net.cpp:399] inception_5a/5x5_reduce -> inception_5a/5x5_reduce
I0403 19:32:05.886832 25015 net.cpp:141] Setting up inception_5a/5x5_reduce
I0403 19:32:05.886860 25015 net.cpp:148] Top shape: 24 32 7 7 (37632)
I0403 19:32:05.886876 25015 net.cpp:156] Memory required for data: 1299200544
I0403 19:32:05.886893 25015 layer_factory.hpp:77] Creating layer inception_5a/relu_5x5_reduce
I0403 19:32:05.886912 25015 net.cpp:91] Creating Layer inception_5a/relu_5x5_reduce
I0403 19:32:05.886929 25015 net.cpp:425] inception_5a/relu_5x5_reduce <- inception_5a/5x5_reduce
I0403 19:32:05.886946 25015 net.cpp:386] inception_5a/relu_5x5_reduce -> inception_5a/5x5_reduce (in-place)
I0403 19:32:05.887233 25015 net.cpp:141] Setting up inception_5a/relu_5x5_reduce
I0403 19:32:05.887258 25015 net.cpp:148] Top shape: 24 32 7 7 (37632)
I0403 19:32:05.887272 25015 net.cpp:156] Memory required for data: 1299351072
I0403 19:32:05.887290 25015 layer_factory.hpp:77] Creating layer inception_5a/5x5
I0403 19:32:05.887315 25015 net.cpp:91] Creating Layer inception_5a/5x5
I0403 19:32:05.887333 25015 net.cpp:425] inception_5a/5x5 <- inception_5a/5x5_reduce
I0403 19:32:05.887353 25015 net.cpp:399] inception_5a/5x5 -> inception_5a/5x5
I0403 19:32:05.888993 25015 net.cpp:141] Setting up inception_5a/5x5
I0403 19:32:05.889031 25015 net.cpp:148] Top shape: 24 128 7 7 (150528)
I0403 19:32:05.889047 25015 net.cpp:156] Memory required for data: 1299953184
I0403 19:32:05.889065 25015 layer_factory.hpp:77] Creating layer inception_5a/relu_5x5
I0403 19:32:05.889086 25015 net.cpp:91] Creating Layer inception_5a/relu_5x5
I0403 19:32:05.889103 25015 net.cpp:425] inception_5a/relu_5x5 <- inception_5a/5x5
I0403 19:32:05.889120 25015 net.cpp:386] inception_5a/relu_5x5 -> inception_5a/5x5 (in-place)
I0403 19:32:05.889309 25015 net.cpp:141] Setting up inception_5a/relu_5x5
I0403 19:32:05.889334 25015 net.cpp:148] Top shape: 24 128 7 7 (150528)
I0403 19:32:05.889349 25015 net.cpp:156] Memory required for data: 1300555296
I0403 19:32:05.889374 25015 layer_factory.hpp:77] Creating layer inception_5a/pool
I0403 19:32:05.889392 25015 net.cpp:91] Creating Layer inception_5a/pool
I0403 19:32:05.889408 25015 net.cpp:425] inception_5a/pool <- pool4/3x3_s2_pool4/3x3_s2_0_split_3
I0403 19:32:05.889425 25015 net.cpp:399] inception_5a/pool -> inception_5a/pool
I0403 19:32:05.889493 25015 net.cpp:141] Setting up inception_5a/pool
I0403 19:32:05.889516 25015 net.cpp:148] Top shape: 24 832 7 7 (978432)
I0403 19:32:05.889530 25015 net.cpp:156] Memory required for data: 1304469024
I0403 19:32:05.889544 25015 layer_factory.hpp:77] Creating layer inception_5a/pool_proj
I0403 19:32:05.889564 25015 net.cpp:91] Creating Layer inception_5a/pool_proj
I0403 19:32:05.889581 25015 net.cpp:425] inception_5a/pool_proj <- inception_5a/pool
I0403 19:32:05.889601 25015 net.cpp:399] inception_5a/pool_proj -> inception_5a/pool_proj
I0403 19:32:05.891844 25015 net.cpp:141] Setting up inception_5a/pool_proj
I0403 19:32:05.891873 25015 net.cpp:148] Top shape: 24 128 7 7 (150528)
I0403 19:32:05.891890 25015 net.cpp:156] Memory required for data: 1305071136
I0403 19:32:05.891906 25015 layer_factory.hpp:77] Creating layer inception_5a/relu_pool_proj
I0403 19:32:05.891924 25015 net.cpp:91] Creating Layer inception_5a/relu_pool_proj
I0403 19:32:05.891940 25015 net.cpp:425] inception_5a/relu_pool_proj <- inception_5a/pool_proj
I0403 19:32:05.891959 25015 net.cpp:386] inception_5a/relu_pool_proj -> inception_5a/pool_proj (in-place)
I0403 19:32:05.892249 25015 net.cpp:141] Setting up inception_5a/relu_pool_proj
I0403 19:32:05.892276 25015 net.cpp:148] Top shape: 24 128 7 7 (150528)
I0403 19:32:05.892297 25015 net.cpp:156] Memory required for data: 1305673248
I0403 19:32:05.892313 25015 layer_factory.hpp:77] Creating layer inception_5a/output
I0403 19:32:05.892329 25015 net.cpp:91] Creating Layer inception_5a/output
I0403 19:32:05.892345 25015 net.cpp:425] inception_5a/output <- inception_5a/1x1
I0403 19:32:05.892364 25015 net.cpp:425] inception_5a/output <- inception_5a/3x3
I0403 19:32:05.892379 25015 net.cpp:425] inception_5a/output <- inception_5a/5x5
I0403 19:32:05.892393 25015 net.cpp:425] inception_5a/output <- inception_5a/pool_proj
I0403 19:32:05.892412 25015 net.cpp:399] inception_5a/output -> inception_5a/output
I0403 19:32:05.892462 25015 net.cpp:141] Setting up inception_5a/output
I0403 19:32:05.892489 25015 net.cpp:148] Top shape: 24 832 7 7 (978432)
I0403 19:32:05.892506 25015 net.cpp:156] Memory required for data: 1309586976
I0403 19:32:05.892521 25015 layer_factory.hpp:77] Creating layer inception_5a/output_inception_5a/output_0_split
I0403 19:32:05.892539 25015 net.cpp:91] Creating Layer inception_5a/output_inception_5a/output_0_split
I0403 19:32:05.892554 25015 net.cpp:425] inception_5a/output_inception_5a/output_0_split <- inception_5a/output
I0403 19:32:05.892570 25015 net.cpp:399] inception_5a/output_inception_5a/output_0_split -> inception_5a/output_inception_5a/output_0_split_0
I0403 19:32:05.892590 25015 net.cpp:399] inception_5a/output_inception_5a/output_0_split -> inception_5a/output_inception_5a/output_0_split_1
I0403 19:32:05.892613 25015 net.cpp:399] inception_5a/output_inception_5a/output_0_split -> inception_5a/output_inception_5a/output_0_split_2
I0403 19:32:05.892637 25015 net.cpp:399] inception_5a/output_inception_5a/output_0_split -> inception_5a/output_inception_5a/output_0_split_3
I0403 19:32:05.892746 25015 net.cpp:141] Setting up inception_5a/output_inception_5a/output_0_split
I0403 19:32:05.892771 25015 net.cpp:148] Top shape: 24 832 7 7 (978432)
I0403 19:32:05.892786 25015 net.cpp:148] Top shape: 24 832 7 7 (978432)
I0403 19:32:05.892802 25015 net.cpp:148] Top shape: 24 832 7 7 (978432)
I0403 19:32:05.892817 25015 net.cpp:148] Top shape: 24 832 7 7 (978432)
I0403 19:32:05.892830 25015 net.cpp:156] Memory required for data: 1325241888
I0403 19:32:05.892844 25015 layer_factory.hpp:77] Creating layer inception_5b/1x1
I0403 19:32:05.892865 25015 net.cpp:91] Creating Layer inception_5b/1x1
I0403 19:32:05.892882 25015 net.cpp:425] inception_5b/1x1 <- inception_5a/output_inception_5a/output_0_split_0
I0403 19:32:05.892902 25015 net.cpp:399] inception_5b/1x1 -> inception_5b/1x1
I0403 19:32:05.896538 25015 net.cpp:141] Setting up inception_5b/1x1
I0403 19:32:05.896569 25015 net.cpp:148] Top shape: 24 384 7 7 (451584)
I0403 19:32:05.896585 25015 net.cpp:156] Memory required for data: 1327048224
I0403 19:32:05.896602 25015 layer_factory.hpp:77] Creating layer inception_5b/relu_1x1
I0403 19:32:05.896618 25015 net.cpp:91] Creating Layer inception_5b/relu_1x1
I0403 19:32:05.896634 25015 net.cpp:425] inception_5b/relu_1x1 <- inception_5b/1x1
I0403 19:32:05.896652 25015 net.cpp:386] inception_5b/relu_1x1 -> inception_5b/1x1 (in-place)
I0403 19:32:05.896940 25015 net.cpp:141] Setting up inception_5b/relu_1x1
I0403 19:32:05.896967 25015 net.cpp:148] Top shape: 24 384 7 7 (451584)
I0403 19:32:05.896983 25015 net.cpp:156] Memory required for data: 1328854560
I0403 19:32:05.896997 25015 layer_factory.hpp:77] Creating layer inception_5b/3x3_reduce
I0403 19:32:05.897017 25015 net.cpp:91] Creating Layer inception_5b/3x3_reduce
I0403 19:32:05.897034 25015 net.cpp:425] inception_5b/3x3_reduce <- inception_5a/output_inception_5a/output_0_split_1
I0403 19:32:05.897053 25015 net.cpp:399] inception_5b/3x3_reduce -> inception_5b/3x3_reduce
I0403 19:32:05.899613 25015 net.cpp:141] Setting up inception_5b/3x3_reduce
I0403 19:32:05.899641 25015 net.cpp:148] Top shape: 24 192 7 7 (225792)
I0403 19:32:05.899657 25015 net.cpp:156] Memory required for data: 1329757728
I0403 19:32:05.899675 25015 layer_factory.hpp:77] Creating layer inception_5b/relu_3x3_reduce
I0403 19:32:05.899693 25015 net.cpp:91] Creating Layer inception_5b/relu_3x3_reduce
I0403 19:32:05.899708 25015 net.cpp:425] inception_5b/relu_3x3_reduce <- inception_5b/3x3_reduce
I0403 19:32:05.899727 25015 net.cpp:386] inception_5b/relu_3x3_reduce -> inception_5b/3x3_reduce (in-place)
I0403 19:32:05.899909 25015 net.cpp:141] Setting up inception_5b/relu_3x3_reduce
I0403 19:32:05.899933 25015 net.cpp:148] Top shape: 24 192 7 7 (225792)
I0403 19:32:05.899947 25015 net.cpp:156] Memory required for data: 1330660896
I0403 19:32:05.899961 25015 layer_factory.hpp:77] Creating layer inception_5b/3x3
I0403 19:32:05.899982 25015 net.cpp:91] Creating Layer inception_5b/3x3
I0403 19:32:05.899999 25015 net.cpp:425] inception_5b/3x3 <- inception_5b/3x3_reduce
I0403 19:32:05.900020 25015 net.cpp:399] inception_5b/3x3 -> inception_5b/3x3
I0403 19:32:05.906487 25015 net.cpp:141] Setting up inception_5b/3x3
I0403 19:32:05.906517 25015 net.cpp:148] Top shape: 24 384 7 7 (451584)
I0403 19:32:05.906533 25015 net.cpp:156] Memory required for data: 1332467232
I0403 19:32:05.906550 25015 layer_factory.hpp:77] Creating layer inception_5b/relu_3x3
I0403 19:32:05.906569 25015 net.cpp:91] Creating Layer inception_5b/relu_3x3
I0403 19:32:05.906584 25015 net.cpp:425] inception_5b/relu_3x3 <- inception_5b/3x3
I0403 19:32:05.906604 25015 net.cpp:386] inception_5b/relu_3x3 -> inception_5b/3x3 (in-place)
I0403 19:32:05.906899 25015 net.cpp:141] Setting up inception_5b/relu_3x3
I0403 19:32:05.906926 25015 net.cpp:148] Top shape: 24 384 7 7 (451584)
I0403 19:32:05.906941 25015 net.cpp:156] Memory required for data: 1334273568
I0403 19:32:05.906955 25015 layer_factory.hpp:77] Creating layer inception_5b/5x5_reduce
I0403 19:32:05.906996 25015 net.cpp:91] Creating Layer inception_5b/5x5_reduce
I0403 19:32:05.907014 25015 net.cpp:425] inception_5b/5x5_reduce <- inception_5a/output_inception_5a/output_0_split_2
I0403 19:32:05.907037 25015 net.cpp:399] inception_5b/5x5_reduce -> inception_5b/5x5_reduce
I0403 19:32:05.908310 25015 net.cpp:141] Setting up inception_5b/5x5_reduce
I0403 19:32:05.908339 25015 net.cpp:148] Top shape: 24 48 7 7 (56448)
I0403 19:32:05.908355 25015 net.cpp:156] Memory required for data: 1334499360
I0403 19:32:05.908372 25015 layer_factory.hpp:77] Creating layer inception_5b/relu_5x5_reduce
I0403 19:32:05.908390 25015 net.cpp:91] Creating Layer inception_5b/relu_5x5_reduce
I0403 19:32:05.908406 25015 net.cpp:425] inception_5b/relu_5x5_reduce <- inception_5b/5x5_reduce
I0403 19:32:05.908424 25015 net.cpp:386] inception_5b/relu_5x5_reduce -> inception_5b/5x5_reduce (in-place)
I0403 19:32:05.908789 25015 net.cpp:141] Setting up inception_5b/relu_5x5_reduce
I0403 19:32:05.908814 25015 net.cpp:148] Top shape: 24 48 7 7 (56448)
I0403 19:32:05.908830 25015 net.cpp:156] Memory required for data: 1334725152
I0403 19:32:05.908844 25015 layer_factory.hpp:77] Creating layer inception_5b/5x5
I0403 19:32:05.908864 25015 net.cpp:91] Creating Layer inception_5b/5x5
I0403 19:32:05.908880 25015 net.cpp:425] inception_5b/5x5 <- inception_5b/5x5_reduce
I0403 19:32:05.908897 25015 net.cpp:399] inception_5b/5x5 -> inception_5b/5x5
I0403 19:32:05.910890 25015 net.cpp:141] Setting up inception_5b/5x5
I0403 19:32:05.910917 25015 net.cpp:148] Top shape: 24 128 7 7 (150528)
I0403 19:32:05.910931 25015 net.cpp:156] Memory required for data: 1335327264
I0403 19:32:05.910949 25015 layer_factory.hpp:77] Creating layer inception_5b/relu_5x5
I0403 19:32:05.910969 25015 net.cpp:91] Creating Layer inception_5b/relu_5x5
I0403 19:32:05.910984 25015 net.cpp:425] inception_5b/relu_5x5 <- inception_5b/5x5
I0403 19:32:05.911001 25015 net.cpp:386] inception_5b/relu_5x5 -> inception_5b/5x5 (in-place)
I0403 19:32:05.911187 25015 net.cpp:141] Setting up inception_5b/relu_5x5
I0403 19:32:05.911211 25015 net.cpp:148] Top shape: 24 128 7 7 (150528)
I0403 19:32:05.911226 25015 net.cpp:156] Memory required for data: 1335929376
I0403 19:32:05.911239 25015 layer_factory.hpp:77] Creating layer inception_5b/pool
I0403 19:32:05.911258 25015 net.cpp:91] Creating Layer inception_5b/pool
I0403 19:32:05.911274 25015 net.cpp:425] inception_5b/pool <- inception_5a/output_inception_5a/output_0_split_3
I0403 19:32:05.911298 25015 net.cpp:399] inception_5b/pool -> inception_5b/pool
I0403 19:32:05.911371 25015 net.cpp:141] Setting up inception_5b/pool
I0403 19:32:05.911394 25015 net.cpp:148] Top shape: 24 832 7 7 (978432)
I0403 19:32:05.911408 25015 net.cpp:156] Memory required for data: 1339843104
I0403 19:32:05.911422 25015 layer_factory.hpp:77] Creating layer inception_5b/pool_proj
I0403 19:32:05.911444 25015 net.cpp:91] Creating Layer inception_5b/pool_proj
I0403 19:32:05.911461 25015 net.cpp:425] inception_5b/pool_proj <- inception_5b/pool
I0403 19:32:05.911483 25015 net.cpp:399] inception_5b/pool_proj -> inception_5b/pool_proj
I0403 19:32:05.913722 25015 net.cpp:141] Setting up inception_5b/pool_proj
I0403 19:32:05.913751 25015 net.cpp:148] Top shape: 24 128 7 7 (150528)
I0403 19:32:05.913766 25015 net.cpp:156] Memory required for data: 1340445216
I0403 19:32:05.913785 25015 layer_factory.hpp:77] Creating layer inception_5b/relu_pool_proj
I0403 19:32:05.913802 25015 net.cpp:91] Creating Layer inception_5b/relu_pool_proj
I0403 19:32:05.913830 25015 net.cpp:425] inception_5b/relu_pool_proj <- inception_5b/pool_proj
I0403 19:32:05.913851 25015 net.cpp:386] inception_5b/relu_pool_proj -> inception_5b/pool_proj (in-place)
I0403 19:32:05.914140 25015 net.cpp:141] Setting up inception_5b/relu_pool_proj
I0403 19:32:05.914166 25015 net.cpp:148] Top shape: 24 128 7 7 (150528)
I0403 19:32:05.914180 25015 net.cpp:156] Memory required for data: 1341047328
I0403 19:32:05.914196 25015 layer_factory.hpp:77] Creating layer inception_5b/output
I0403 19:32:05.914212 25015 net.cpp:91] Creating Layer inception_5b/output
I0403 19:32:05.914242 25015 net.cpp:425] inception_5b/output <- inception_5b/1x1
I0403 19:32:05.914259 25015 net.cpp:425] inception_5b/output <- inception_5b/3x3
I0403 19:32:05.914275 25015 net.cpp:425] inception_5b/output <- inception_5b/5x5
I0403 19:32:05.914304 25015 net.cpp:425] inception_5b/output <- inception_5b/pool_proj
I0403 19:32:05.914326 25015 net.cpp:399] inception_5b/output -> inception_5b/output
I0403 19:32:05.914377 25015 net.cpp:141] Setting up inception_5b/output
I0403 19:32:05.914404 25015 net.cpp:148] Top shape: 24 1024 7 7 (1204224)
I0403 19:32:05.914420 25015 net.cpp:156] Memory required for data: 1345864224
I0403 19:32:05.914434 25015 layer_factory.hpp:77] Creating layer pool5/7x7_s1
I0403 19:32:05.914451 25015 net.cpp:91] Creating Layer pool5/7x7_s1
I0403 19:32:05.914466 25015 net.cpp:425] pool5/7x7_s1 <- inception_5b/output
I0403 19:32:05.914487 25015 net.cpp:399] pool5/7x7_s1 -> pool5/7x7_s1
I0403 19:32:05.914700 25015 net.cpp:141] Setting up pool5/7x7_s1
I0403 19:32:05.914724 25015 net.cpp:148] Top shape: 24 1024 1 1 (24576)
I0403 19:32:05.914739 25015 net.cpp:156] Memory required for data: 1345962528
I0403 19:32:05.914753 25015 layer_factory.hpp:77] Creating layer pool5/drop_7x7_s1
I0403 19:32:05.914772 25015 net.cpp:91] Creating Layer pool5/drop_7x7_s1
I0403 19:32:05.914786 25015 net.cpp:425] pool5/drop_7x7_s1 <- pool5/7x7_s1
I0403 19:32:05.914805 25015 net.cpp:386] pool5/drop_7x7_s1 -> pool5/7x7_s1 (in-place)
I0403 19:32:05.914855 25015 net.cpp:141] Setting up pool5/drop_7x7_s1
I0403 19:32:05.914880 25015 net.cpp:148] Top shape: 24 1024 1 1 (24576)
I0403 19:32:05.914896 25015 net.cpp:156] Memory required for data: 1346060832
I0403 19:32:05.914909 25015 layer_factory.hpp:77] Creating layer loss3/classifier_plantvillage
I0403 19:32:05.914928 25015 net.cpp:91] Creating Layer loss3/classifier_plantvillage
I0403 19:32:05.914944 25015 net.cpp:425] loss3/classifier_plantvillage <- pool5/7x7_s1
I0403 19:32:05.914964 25015 net.cpp:399] loss3/classifier_plantvillage -> loss3/classifier_plantvillage
I0403 19:32:05.915379 25015 net.cpp:141] Setting up loss3/classifier_plantvillage
I0403 19:32:05.915406 25015 net.cpp:148] Top shape: 24 38 (912)
I0403 19:32:05.915421 25015 net.cpp:156] Memory required for data: 1346064480
I0403 19:32:05.915439 25015 layer_factory.hpp:77] Creating layer loss3/classifier_plantvillage_loss3/classifier_plantvillage_0_split
I0403 19:32:05.915457 25015 net.cpp:91] Creating Layer loss3/classifier_plantvillage_loss3/classifier_plantvillage_0_split
I0403 19:32:05.915472 25015 net.cpp:425] loss3/classifier_plantvillage_loss3/classifier_plantvillage_0_split <- loss3/classifier_plantvillage
I0403 19:32:05.915488 25015 net.cpp:399] loss3/classifier_plantvillage_loss3/classifier_plantvillage_0_split -> loss3/classifier_plantvillage_loss3/classifier_plantvillage_0_split_0
I0403 19:32:05.915506 25015 net.cpp:399] loss3/classifier_plantvillage_loss3/classifier_plantvillage_0_split -> loss3/classifier_plantvillage_loss3/classifier_plantvillage_0_split_1
I0403 19:32:05.915529 25015 net.cpp:399] loss3/classifier_plantvillage_loss3/classifier_plantvillage_0_split -> loss3/classifier_plantvillage_loss3/classifier_plantvillage_0_split_2
I0403 19:32:05.915549 25015 net.cpp:399] loss3/classifier_plantvillage_loss3/classifier_plantvillage_0_split -> loss3/classifier_plantvillage_loss3/classifier_plantvillage_0_split_3
I0403 19:32:05.915644 25015 net.cpp:141] Setting up loss3/classifier_plantvillage_loss3/classifier_plantvillage_0_split
I0403 19:32:05.915668 25015 net.cpp:148] Top shape: 24 38 (912)
I0403 19:32:05.915683 25015 net.cpp:148] Top shape: 24 38 (912)
I0403 19:32:05.915696 25015 net.cpp:148] Top shape: 24 38 (912)
I0403 19:32:05.915711 25015 net.cpp:148] Top shape: 24 38 (912)
I0403 19:32:05.915724 25015 net.cpp:156] Memory required for data: 1346079072
I0403 19:32:05.915738 25015 layer_factory.hpp:77] Creating layer loss1/loss
I0403 19:32:05.915763 25015 net.cpp:91] Creating Layer loss1/loss
I0403 19:32:05.915781 25015 net.cpp:425] loss1/loss <- loss1/classifier_plantvillage_loss1/classifier_plantvillage_0_split_0
I0403 19:32:05.915812 25015 net.cpp:425] loss1/loss <- label_data_1_split_0
…
