…
I0403 19:37:51.854604 25353 net.cpp:313] The NetState phase (1) differed from the phase (0) specified by a rule in layer data
I0403 19:37:51.855763 25353 net.cpp:49] Initializing net from parameters: 
state {
  phase: TEST
}
layer {
  name: "data"
  type: "Data"
  top: "data"
  top: "label"
  include {
    phase: TEST
  }
  transform_param {
    mirror: false
    crop_size: 224
    mean_file: "/home/mohanty/data/final_dataset/lmdb/grayscale-80-20/mean.binaryproto"
  }
  data_param {
    source: "/home/mohanty/data/final_dataset/lmdb/grayscale-80-20/test_db"
    batch_size: 24
    backend: LMDB
  }
}
layer {
  name: "conv1/7x7_s2"
  type: "Convolution"
  bottom: "data"
  top: "conv1/7x7_s2"
  param {
    lr_mult: 1
    decay_mult: 1
  }
  param {
    lr_mult: 2
    decay_mult: 0
  }
  convolution_param {
    num_output: 64
    pad: 3
    kernel_size: 7
    stride: 2
    weight_filler {
      type: "xavier"
      std: 0.1
    }
    bias_filler {
      type: "constant"
      value: 0.2
    }
  }
}
layer {
  name: "conv1/relu_7x7"
  type: "ReLU"
  bottom: "conv1/7x7_s2"
  top: "conv1/7x7_s2"
}
layer {
  name: "pool1/3x3_s2"
  type: "Pooling"
  bottom: "conv1/7x7_s2"
  top: "pool1/3x3_s2"
  pooling_param {
    pool: MAX
    kernel_size: 3
    stride: 2
  }
}
layer {
  name: "pool1/norm1"
  type: "LRN"
  bottom: "pool1/3x3_s2"
  top: "pool1/norm1"
  lrn_param {
    local_size: 5
    alpha: 0.0001
    beta: 0.75
  }
}
layer {
  name: "conv2/3x3_reduce"
  type: "Convolution"
  bottom: "pool1/norm1"
  top: "conv2/3x3_reduce"
  param {
    lr_mult: 1
    decay_mult: 1
  }
  param {
    lr_mult: 2
    decay_mult: 0
  }
  convolution_param {
    num_output: 64
    kernel_size: 1
    weight_filler {
      type: "xavier"
      std: 0.1
    }
    bias_filler {
      type: "constant"
      value: 0.2
    }
  }
}
layer {
  name: "conv2/relu_3x3_reduce"
  type: "ReLU"
  bottom: "conv2/3x3_reduce"
  top: "conv2/3x3_reduce"
}
layer {
  name: "conv2/3x3"
  type: "Convolution"
  bottom: "conv2/3x3_reduce"
  top: "conv2/3x3"
  param {
    lr_mult: 1
    decay_mult: 1
  }
  param {
    lr_mult: 2
    decay_mult: 0
  }
  convolution_param {
    num_output: 192
    pad: 1
    kernel_size: 3
    weight_filler {
      type: "xavier"
      std: 0.03
    }
    bias_filler {
      type: "constant"
      value: 0.2
    }
  }
}
layer {
  name: "conv2/relu_3x3"
  type: "ReLU"
  bottom: "conv2/3x3"
  top: "conv2/3x3"
}
layer {
  name: "conv2/norm2"
  type: "LRN"
  bottom: "conv2/3x3"
  top: "conv2/norm2"
  lrn_param {
    local_size: 5
    alpha: 0.0001
    beta: 0.75
  }
}
layer {
  name: "pool2/3x3_s2"
  type: "Pooling"
  bottom: "conv2/norm2"
  top: "pool2/3x3_s2"
  pooling_param {
    pool: MAX
    kernel_size: 3
    stride: 2
  }
}
layer {
  name: "inception_3a/1x1"
  type: "Convolution"
  bottom: "pool2/3x3_s2"
  top: "inception_3a/1x1"
  param {
    lr_mult: 1
    decay_mult: 1
  }
  param {
    lr_mult: 2
    decay_mult: 0
  }
  convolution_param {
    num_output: 64
    kernel_size: 1
    weight_filler {
      type: "xavier"
      std: 0.03
    }
    bias_filler {
      type: "constant"
      value: 0.2
    }
  }
}
layer {
  name: "inception_3a/relu_1x1"
  type: "ReLU"
  bottom: "inception_3a/1x1"
  top: "inception_3a/1x1"
}
layer {
  name: "inception_3a/3x3_reduce"
  type: "Convolution"
  bottom: "pool2/3x3_s2"
  top: "inception_3a/3x3_reduce"
  param {
    lr_mult: 1
    decay_mult: 1
  }
  param {
    lr_mult: 2
    decay_mult: 0
  }
  convolution_param {
    num_output: 96
    kernel_size: 1
    weight_filler {
      type: "xavier"
      std: 0.09
    }
    bias_filler {
      type: "constant"
      value: 0.2
    }
  }
}
layer {
  name: "inception_3a/relu_3x3_reduce"
  type: "ReLU"
  bottom: "inception_3a/3x3_reduce"
  top: "inception_3a/3x3_reduce"
}
layer {
  name: "inception_3a/3x3"
  type: "Convolution"
  bottom: "inception_3a/3x3_reduce"
  top: "inception_3a/3x3"
  param {
    lr_mult: 1
    decay_mult: 1
  }
  param {
    lr_mult: 2
    decay_mult: 0
  }
  convolution_param {
    num_output: 128
    pad: 1
    kernel_size: 3
    weight_filler {
      type: "xavier"
      std: 0.03
    }
    bias_filler {
      type: "constant"
      value: 0.2
    }
  }
}
layer {
  name: "inception_3a/relu_3x3"
  type: "ReLU"
  bottom: "inception_3a/3x3"
  top: "inception_3a/3x3"
}
layer {
  name: "inception_3a/5x5_reduce"
  type: "Convolution"
  bottom: "pool2/3x3_s2"
  top: "inception_3a/5x5_reduce"
  param {
    lr_mult: 1
    decay_mult: 1
  }
  param {
    lr_mult: 2
    decay_mult: 0
  }
  convolution_param {
    num_output: 16
    kernel_size: 1
    weight_filler {
      type: "xavier"
      std: 0.2
    }
    bias_filler {
      type: "constant"
      value: 0.2
    }
  }
}
layer {
  name: "inception_3a/relu_5x5_reduce"
  type: "ReLU"
  bottom: "inception_3a/5x5_reduce"
  top: "inception_3a/5x5_reduce"
}
layer {
  name: "inception_3a/5x5"
  type: "Convolution"
  bottom: "inception_3a/5x5_reduce"
  top: "inception_3a/5x5"
  param {
    lr_mult: 1
    decay_mult: 1
  }
  param {
    lr_mult: 2
    decay_mult: 0
  }
  convolution_param {
    num_output: 32
    pad: 2
    kernel_size: 5
    weight_filler {
      type: "xavier"
      std: 0.03
    }
    bias_filler {
      type: "constant"
      value: 0.2
    }
  }
}
layer {
  name: "inception_3a/relu_5x5"
  type: "ReLU"
  bottom: "inception_3a/5x5"
  top: "inception_3a/5x5"
}
layer {
  name: "inception_3a/pool"
  type: "Pooling"
  bottom: "pool2/3x3_s2"
  top: "inception_3a/pool"
  pooling_param {
    pool: MAX
    kernel_size: 3
    stride: 1
    pad: 1
  }
}
layer {
  name: "inception_3a/pool_proj"
  type: "Convolution"
  bottom: "inception_3a/pool"
  top: "inception_3a/pool_proj"
  param {
    lr_mult: 1
    decay_mult: 1
  }
  param {
    lr_mult: 2
    decay_mult: 0
  }
  convolution_param {
    num_output: 32
    kernel_size: 1
    weight_filler {
      type: "xavier"
      std: 0.1
    }
    bias_filler {
      type: "constant"
      value: 0.2
    }
  }
}
layer {
  name: "inception_3a/relu_pool_proj"
  type: "ReLU"
  bottom: "inception_3a/pool_proj"
  top: "inception_3a/pool_proj"
}
layer {
  name: "inception_3a/output"
  type: "Concat"
  bottom: "inception_3a/1x1"
  bottom: "inception_3a/3x3"
  bottom: "inception_3a/5x5"
  bottom: "inception_3a/pool_proj"
  top: "inception_3a/output"
}
layer {
  name: "inception_3b/1x1"
  type: "Convolution"
  bottom: "inception_3a/output"
  top: "inception_3b/1x1"
  param {
    lr_mult: 1
    decay_mult: 1
  }
  param {
    lr_mult: 2
    decay_mult: 0
  }
  convolution_param {
    num_output: 128
    kernel_size: 1
    weight_filler {
      type: "xavier"
      std: 0.03
    }
    bias_filler {
      type: "constant"
      value: 0.2
    }
  }
}
layer {
  name: "inception_3b/relu_1x1"
  type: "ReLU"
  bottom: "inception_3b/1x1"
  top: "inception_3b/1x1"
}
layer {
  name: "inception_3b/3x3_reduce"
  type: "Convolution"
  bottom: "inception_3a/output"
  top: "inception_3b/3x3_reduce"
  param {
    lr_mult: 1
    decay_mult: 1
  }
  param {
    lr_mult: 2
    decay_mult: 0
  }
  convolution_param {
    num_output: 128
    kernel_size: 1
    weight_filler {
      type: "xavier"
      std: 0.09
    }
    bias_filler {
      type: "constant"
      value: 0.2
    }
  }
}
layer {
  name: "inception_3b/relu_3x3_reduce"
  type: "ReLU"
  bottom: "inception_3b/3x3_reduce"
  top: "inception_3b/3x3_reduce"
}
layer {
  name: "inception_3b/3x3"
  type: "Convolution"
  bottom: "inception_3b/3x3_reduce"
  top: "inception_3b/3x3"
  param {
    lr_mult: 1
    decay_mult: 1
  }
  param {
    lr_mult: 2
    decay_mult: 0
  }
  convolution_param {
    num_output: 192
    pad: 1
    kernel_size: 3
    weight_filler {
      type: "xavier"
      std: 0.03
    }
    bias_filler {
      type: "constant"
      value: 0.2
    }
  }
}
layer {
  name: "inception_3b/relu_3x3"
  type: "ReLU"
  bottom: "inception_3b/3x3"
  top: "inception_3b/3x3"
}
layer {
  name: "inception_3b/5x5_reduce"
  type: "Convolution"
  bottom: "inception_3a/output"
  top: "inception_3b/5x5_reduce"
  param {
    lr_mult: 1
    decay_mult: 1
  }
  param {
    lr_mult: 2
    decay_mult: 0
  }
  convolution_param {
    num_output: 32
    kernel_size: 1
    weight_filler {
      type: "xavier"
      std: 0.2
    }
    bias_filler {
      type: "constant"
      value: 0.2
    }
  }
}
layer {
  name: "inception_3b/relu_5x5_reduce"
  type: "ReLU"
  bottom: "inception_3b/5x5_reduce"
  top: "inception_3b/5x5_reduce"
}
layer {
  name: "inception_3b/5x5"
  type: "Convolution"
  bottom: "inception_3b/5x5_reduce"
  top: "inception_3b/5x5"
  param {
    lr_mult: 1
    decay_mult: 1
  }
  param {
    lr_mult: 2
    decay_mult: 0
  }
  convolution_param {
    num_output: 96
    pad: 2
    kernel_size: 5
    weight_filler {
      type: "xavier"
      std: 0.03
    }
    bias_filler {
      type: "constant"
      value: 0.2
    }
  }
}
layer {
  name: "inception_3b/relu_5x5"
  type: "ReLU"
  bottom: "inception_3b/5x5"
  top: "inception_3b/5x5"
}
layer {
  name: "inception_3b/pool"
  type: "Pooling"
  bottom: "inception_3a/output"
  top: "inception_3b/pool"
  pooling_param {
    pool: MAX
    kernel_size: 3
    stride: 1
    pad: 1
  }
}
layer {
  name: "inception_3b/pool_proj"
  type: "Convolution"
  bottom: "inception_3b/pool"
  top: "inception_3b/pool_proj"
  param {
    lr_mult: 1
    decay_mult: 1
  }
  param {
    lr_mult: 2
    decay_mult: 0
  }
  convolution_param {
    num_output: 64
    kernel_size: 1
    weight_filler {
      type: "xavier"
      std: 0.1
    }
    bias_filler {
      type: "constant"
      value: 0.2
    }
  }
}
layer {
  name: "inception_3b/relu_pool_proj"
  type: "ReLU"
  bottom: "inception_3b/pool_proj"
  top: "inception_3b/pool_proj"
}
layer {
  name: "inception_3b/output"
  type: "Concat"
  bottom: "inception_3b/1x1"
  bottom: "inception_3b/3x3"
  bottom: "inception_3b/5x5"
  bottom: "inception_3b/pool_proj"
  top: "inception_3b/output"
}
layer {
  name: "pool3/3x3_s2"
  type: "Pooling"
  bottom: "inception_3b/output"
  top: "pool3/3x3_s2"
  pooling_param {
    pool: MAX
    kernel_size: 3
    stride: 2
  }
}
layer {
  name: "inception_4a/1x1"
  type: "Convolution"
  bottom: "pool3/3x3_s2"
  top: "inception_4a/1x1"
  param {
    lr_mult: 1
    decay_mult: 1
  }
  param {
    lr_mult: 2
    decay_mult: 0
  }
  convolution_param {
    num_output: 192
    kernel_size: 1
    weight_filler {
      type: "xavier"
      std: 0.03
    }
    bias_filler {
      type: "constant"
      value: 0.2
    }
  }
}
layer {
  name: "inception_4a/relu_1x1"
  type: "ReLU"
  bottom: "inception_4a/1x1"
  top: "inception_4a/1x1"
}
layer {
  name: "inception_4a/3x3_reduce"
  type: "Convolution"
  bottom: "pool3/3x3_s2"
  top: "inception_4a/3x3_reduce"
  param {
    lr_mult: 1
    decay_mult: 1
  }
  param {
    lr_mult: 2
    decay_mult: 0
  }
  convolution_param {
    num_output: 96
    kernel_size: 1
    weight_filler {
      type: "xavier"
      std: 0.09
    }
    bias_filler {
      type: "constant"
      value: 0.2
    }
  }
}
layer {
  name: "inception_4a/relu_3x3_reduce"
  type: "ReLU"
  bottom: "inception_4a/3x3_reduce"
  top: "inception_4a/3x3_reduce"
}
layer {
  name: "inception_4a/3x3"
  type: "Convolution"
  bottom: "inception_4a/3x3_reduce"
  top: "inception_4a/3x3"
  param {
    lr_mult: 1
    decay_mult: 1
  }
  param {
    lr_mult: 2
    decay_mult: 0
  }
  convolution_param {
    num_output: 208
    pad: 1
    kernel_size: 3
    weight_filler {
      type: "xavier"
      std: 0.03
    }
    bias_filler {
      type: "constant"
      value: 0.2
    }
  }
}
layer {
  name: "inception_4a/relu_3x3"
  type: "ReLU"
  bottom: "inception_4a/3x3"
  top: "inception_4a/3x3"
}
layer {
  name: "inception_4a/5x5_reduce"
  type: "Convolution"
  bottom: "pool3/3x3_s2"
  top: "inception_4a/5x5_reduce"
  param {
    lr_mult: 1
    decay_mult: 1
  }
  param {
    lr_mult: 2
    decay_mult: 0
  }
  convolution_param {
    num_output: 16
    kernel_size: 1
    weight_filler {
      type: "xavier"
      std: 0.2
    }
    bias_filler {
      type: "constant"
      value: 0.2
    }
  }
}
layer {
  name: "inception_4a/relu_5x5_reduce"
  type: "ReLU"
  bottom: "inception_4a/5x5_reduce"
  top: "inception_4a/5x5_reduce"
}
layer {
  name: "inception_4a/5x5"
  type: "Convolution"
  bottom: "inception_4a/5x5_reduce"
  top: "inception_4a/5x5"
  param {
    lr_mult: 1
    decay_mult: 1
  }
  param {
    lr_mult: 2
    decay_mult: 0
  }
  convolution_param {
    num_output: 48
    pad: 2
    kernel_size: 5
    weight_filler {
      type: "xavier"
      std: 0.03
    }
    bias_filler {
      type: "constant"
      value: 0.2
    }
  }
}
layer {
  name: "inception_4a/relu_5x5"
  type: "ReLU"
  bottom: "inception_4a/5x5"
  top: "inception_4a/5x5"
}
layer {
  name: "inception_4a/pool"
  type: "Pooling"
  bottom: "pool3/3x3_s2"
  top: "inception_4a/pool"
  pooling_param {
    pool: MAX
    kernel_size: 3
    stride: 1
    pad: 1
  }
}
layer {
  name: "inception_4a/pool_proj"
  type: "Convolution"
  bottom: "inception_4a/pool"
  top: "inception_4a/pool_proj"
  param {
    lr_mult: 1
    decay_mult: 1
  }
  param {
    lr_mult: 2
    decay_mult: 0
  }
  convolution_param {
    num_output: 64
    kernel_size: 1
    weight_filler {
      type: "xavier"
      std: 0.1
    }
    bias_filler {
      type: "constant"
      value: 0.2
    }
  }
}
layer {
  name: "inception_4a/relu_pool_proj"
  type: "ReLU"
  bottom: "inception_4a/pool_proj"
  top: "inception_4a/pool_proj"
}
layer {
  name: "inception_4a/output"
  type: "Concat"
  bottom: "inception_4a/1x1"
  bottom: "inception_4a/3x3"
  bottom: "inception_4a/5x5"
  bottom: "inception_4a/pool_proj"
  top: "inception_4a/output"
}
layer {
  name: "loss1/ave_pool"
  type: "Pooling"
  bottom: "inception_4a/output"
  top: "loss1/ave_pool"
  pooling_param {
    pool: AVE
    kernel_size: 5
    stride: 3
  }
}
layer {
  name: "loss1/conv"
  type: "Convolution"
  bottom: "loss1/ave_pool"
  top: "loss1/conv"
  param {
    lr_mult: 1
    decay_mult: 1
  }
  param {
    lr_mult: 2
    decay_mult: 0
  }
  convolution_param {
    num_output: 128
    kernel_size: 1
    weight_filler {
      type: "xavier"
      std: 0.08
    }
    bias_filler {
      type: "constant"
      value: 0.2
    }
  }
}
layer {
  name: "loss1/relu_conv"
  type: "ReLU"
  bottom: "loss1/conv"
  top: "loss1/conv"
}
layer {
  name: "loss1/fc"
  type: "InnerProduct"
  bottom: "loss1/conv"
  top: "loss1/fc"
  param {
    lr_mult: 1
    decay_mult: 1
  }
  param {
    lr_mult: 2
    decay_mult: 0
  }
  inner_product_param {
    num_output: 1024
    weight_filler {
      type: "xavier"
      std: 0.02
    }
    bias_filler {
      type: "constant"
      value: 0.2
    }
  }
}
layer {
  name: "loss1/relu_fc"
  type: "ReLU"
  bottom: "loss1/fc"
  top: "loss1/fc"
}
layer {
  name: "loss1/drop_fc"
  type: "Dropout"
  bottom: "loss1/fc"
  top: "loss1/fc"
  dropout_param {
    dropout_ratio: 0.7
  }
}
layer {
  name: "loss1/classifier_plantvillage"
  type: "InnerProduct"
  bottom: "loss1/fc"
  top: "loss1/classifier_plantvillage"
  param {
    lr_mult: 1
    decay_mult: 1
  }
  param {
    lr_mult: 2
    decay_mult: 0
  }
  inner_product_param {
    num_output: 38
    weight_filler {
      type: "xavier"
      std: 0.0009765625
    }
    bias_filler {
      type: "constant"
      value: 0
    }
  }
}
layer {
  name: "inception_4b/1x1"
  type: "Convolution"
  bottom: "inception_4a/output"
  top: "inception_4b/1x1"
  param {
    lr_mult: 1
    decay_mult: 1
  }
  param {
    lr_mult: 2
    decay_mult: 0
  }
  convolution_param {
    num_output: 160
    kernel_size: 1
    weight_filler {
      type: "xavier"
      std: 0.03
    }
    bias_filler {
      type: "constant"
      value: 0.2
    }
  }
}
layer {
  name: "inception_4b/relu_1x1"
  type: "ReLU"
  bottom: "inception_4b/1x1"
  top: "inception_4b/1x1"
}
layer {
  name: "inception_4b/3x3_reduce"
  type: "Convolution"
  bottom: "inception_4a/output"
  top: "inception_4b/3x3_reduce"
  param {
    lr_mult: 1
    decay_mult: 1
  }
  param {
    lr_mult: 2
    decay_mult: 0
  }
  convolution_param {
    num_output: 112
    kernel_size: 1
    weight_filler {
      type: "xavier"
      std: 0.09
    }
    bias_filler {
      type: "constant"
      value: 0.2
    }
  }
}
layer {
  name: "inception_4b/relu_3x3_reduce"
  type: "ReLU"
  bottom: "inception_4b/3x3_reduce"
  top: "inception_4b/3x3_reduce"
}
layer {
  name: "inception_4b/3x3"
  type: "Convolution"
  bottom: "inception_4b/3x3_reduce"
  top: "inception_4b/3x3"
  param {
    lr_mult: 1
    decay_mult: 1
  }
  param {
    lr_mult: 2
    decay_mult: 0
  }
  convolution_param {
    num_output: 224
    pad: 1
    kernel_size: 3
    weight_filler {
      type: "xavier"
      std: 0.03
    }
    bias_filler {
      type: "constant"
      value: 0.2
    }
  }
}
layer {
  name: "inception_4b/relu_3x3"
  type: "ReLU"
  bottom: "inception_4b/3x3"
  top: "inception_4b/3x3"
}
layer {
  name: "inception_4b/5x5_reduce"
  type: "Convolution"
  bottom: "inception_4a/output"
  top: "inception_4b/5x5_reduce"
  param {
    lr_mult: 1
    decay_mult: 1
  }
  param {
    lr_mult: 2
    decay_mult: 0
  }
  convolution_param {
    num_output: 24
    kernel_size: 1
    weight_filler {
      type: "xavier"
      std: 0.2
    }
    bias_filler {
      type: "constant"
      value: 0.2
    }
  }
}
layer {
  name: "inception_4b/relu_5x5_reduce"
  type: "ReLU"
  bottom: "inception_4b/5x5_reduce"
  top: "inception_4b/5x5_reduce"
}
layer {
  name: "inception_4b/5x5"
  type: "Convolution"
  bottom: "inception_4b/5x5_reduce"
  top: "inception_4b/5x5"
  param {
    lr_mult: 1
    decay_mult: 1
  }
  param {
    lr_mult: 2
    decay_mult: 0
  }
  convolution_param {
    num_output: 64
    pad: 2
    kernel_size: 5
    weight_filler {
      type: "xavier"
      std: 0.03
    }
    bias_filler {
      type: "constant"
      value: 0.2
    }
  }
}
layer {
  name: "inception_4b/relu_5x5"
  type: "ReLU"
  bottom: "inception_4b/5x5"
  top: "inception_4b/5x5"
}
layer {
  name: "inception_4b/pool"
  type: "Pooling"
  bottom: "inception_4a/output"
  top: "inception_4b/pool"
  pooling_param {
    pool: MAX
    kernel_size: 3
    stride: 1
    pad: 1
  }
}
layer {
  name: "inception_4b/pool_proj"
  type: "Convolution"
  bottom: "inception_4b/pool"
  top: "inception_4b/pool_proj"
  param {
    lr_mult: 1
    decay_mult: 1
  }
  param {
    lr_mult: 2
    decay_mult: 0
  }
  convolution_param {
    num_output: 64
    kernel_size: 1
    weight_filler {
      type: "xavier"
      std: 0.1
    }
    bias_filler {
      type: "constant"
      value: 0.2
    }
  }
}
layer {
  name: "inception_4b/relu_pool_proj"
  type: "ReLU"
  bottom: "inception_4b/pool_proj"
  top: "inception_4b/pool_proj"
}
layer {
  name: "inception_4b/output"
  type: "Concat"
  bottom: "inception_4b/1x1"
  bottom: "inception_4b/3x3"
  bottom: "inception_4b/5x5"
  bottom: "inception_4b/pool_proj"
  top: "inception_4b/output"
}
layer {
  name: "inception_4c/1x1"
  type: "Convolution"
  bottom: "inception_4b/output"
  top: "inception_4c/1x1"
  param {
    lr_mult: 1
    decay_mult: 1
  }
  param {
    lr_mult: 2
    decay_mult: 0
  }
  convolution_param {
    num_output: 128
    kernel_size: 1
    weight_filler {
      type: "xavier"
      std: 0.03
    }
    bias_filler {
      type: "constant"
      value: 0.2
    }
  }
}
layer {
  name: "inception_4c/relu_1x1"
  type: "ReLU"
  bottom: "inception_4c/1x1"
  top: "inception_4c/1x1"
}
layer {
  name: "inception_4c/3x3_reduce"
  type: "Convolution"
  bottom: "inception_4b/output"
  top: "inception_4c/3x3_reduce"
  param {
    lr_mult: 1
    decay_mult: 1
  }
  param {
    lr_mult: 2
    decay_mult: 0
  }
  convolution_param {
    num_output: 128
    kernel_size: 1
    weight_filler {
      type: "xavier"
      std: 0.09
    }
    bias_filler {
      type: "constant"
      value: 0.2
    }
  }
}
layer {
  name: "inception_4c/relu_3x3_reduce"
  type: "ReLU"
  bottom: "inception_4c/3x3_reduce"
  top: "inception_4c/3x3_reduce"
}
layer {
  name: "inception_4c/3x3"
  type: "Convolution"
  bottom: "inception_4c/3x3_reduce"
  top: "inception_4c/3x3"
  param {
    lr_mult: 1
    decay_mult: 1
  }
  param {
    lr_mult: 2
    decay_mult: 0
  }
  convolution_param {
    num_output: 256
    pad: 1
    kernel_size: 3
    weight_filler {
      type: "xavier"
      std: 0.03
    }
    bias_filler {
      type: "constant"
      value: 0.2
    }
  }
}
layer {
  name: "inception_4c/relu_3x3"
  type: "ReLU"
  bottom: "inception_4c/3x3"
  top: "inception_4c/3x3"
}
layer {
  name: "inception_4c/5x5_reduce"
  type: "Convolution"
  bottom: "inception_4b/output"
  top: "inception_4c/5x5_reduce"
  param {
    lr_mult: 1
    decay_mult: 1
  }
  param {
    lr_mult: 2
    decay_mult: 0
  }
  convolution_param {
    num_output: 24
    kernel_size: 1
    weight_filler {
      type: "xavier"
      std: 0.2
    }
    bias_filler {
      type: "constant"
      value: 0.2
    }
  }
}
layer {
  name: "inception_4c/relu_5x5_reduce"
  type: "ReLU"
  bottom: "inception_4c/5x5_reduce"
  top: "inception_4c/5x5_reduce"
}
layer {
  name: "inception_4c/5x5"
  type: "Convolution"
  bottom: "inception_4c/5x5_reduce"
  top: "inception_4c/5x5"
  param {
    lr_mult: 1
    decay_mult: 1
  }
  param {
    lr_mult: 2
    decay_mult: 0
  }
  convolution_param {
    num_output: 64
    pad: 2
    kernel_size: 5
    weight_filler {
      type: "xavier"
      std: 0.03
    }
    bias_filler {
      type: "constant"
      value: 0.2
    }
  }
}
layer {
  name: "inception_4c/relu_5x5"
  type: "ReLU"
  bottom: "inception_4c/5x5"
  top: "inception_4c/5x5"
}
layer {
  name: "inception_4c/pool"
  type: "Pooling"
  bottom: "inception_4b/output"
  top: "inception_4c/pool"
  pooling_param {
    pool: MAX
    kernel_size: 3
    stride: 1
    pad: 1
  }
}
layer {
  name: "inception_4c/pool_proj"
  type: "Convolution"
  bottom: "inception_4c/pool"
  top: "inception_4c/pool_proj"
  param {
    lr_mult: 1
    decay_mult: 1
  }
  param {
    lr_mult: 2
    decay_mult: 0
  }
  convolution_param {
    num_output: 64
    kernel_size: 1
    weight_filler {
      type: "xavier"
      std: 0.1
    }
    bias_filler {
      type: "constant"
      value: 0.2
    }
  }
}
layer {
  name: "inception_4c/relu_pool_proj"
  type: "ReLU"
  bottom: "inception_4c/pool_proj"
  top: "inception_4c/pool_proj"
}
layer {
  name: "inception_4c/output"
  type: "Concat"
  bottom: "inception_4c/1x1"
  bottom: "inception_4c/3x3"
  bottom: "inception_4c/5x5"
  bottom: "inception_4c/pool_proj"
  top: "inception_4c/output"
}
layer {
  name: "inception_4d/1x1"
  type: "Convolution"
  bottom: "inception_4c/output"
  top: "inception_4d/1x1"
  param {
    lr_mult: 1
    decay_mult: 1
  }
  param {
    lr_mult: 2
    decay_mult: 0
  }
  convolution_param {
    num_output: 112
    kernel_size: 1
    weight_filler {
      type: "xavier"
      std: 0.03
    }
    bias_filler {
      type: "constant"
      value: 0.2
    }
  }
}
layer {
  name: "inception_4d/relu_1x1"
  type: "ReLU"
  bottom: "inception_4d/1x1"
  top: "inception_4d/1x1"
}
layer {
  name: "inception_4d/3x3_reduce"
  type: "Convolution"
  bottom: "inception_4c/output"
  top: "inception_4d/3x3_reduce"
  param {
    lr_mult: 1
    decay_mult: 1
  }
  param {
    lr_mult: 2
    decay_mult: 0
  }
  convolution_param {
    num_output: 144
    kernel_size: 1
    weight_filler {
      type: "xavier"
      std: 0.09
    }
    bias_filler {
      type: "constant"
      value: 0.2
    }
  }
}
layer {
  name: "inception_4d/relu_3x3_reduce"
  type: "ReLU"
  bottom: "inception_4d/3x3_reduce"
  top: "inception_4d/3x3_reduce"
}
layer {
  name: "inception_4d/3x3"
  type: "Convolution"
  bottom: "inception_4d/3x3_reduce"
  top: "inception_4d/3x3"
  param {
    lr_mult: 1
    decay_mult: 1
  }
  param {
    lr_mult: 2
    decay_mult: 0
  }
  convolution_param {
    num_output: 288
    pad: 1
    kernel_size: 3
    weight_filler {
      type: "xavier"
      std: 0.03
    }
    bias_filler {
      type: "constant"
      value: 0.2
    }
  }
}
layer {
  name: "inception_4d/relu_3x3"
  type: "ReLU"
  bottom: "inception_4d/3x3"
  top: "inception_4d/3x3"
}
layer {
  name: "inception_4d/5x5_reduce"
  type: "Convolution"
  bottom: "inception_4c/output"
  top: "inception_4d/5x5_reduce"
  param {
    lr_mult: 1
    decay_mult: 1
  }
  param {
    lr_mult: 2
    decay_mult: 0
  }
  convolution_param {
    num_output: 32
    kernel_size: 1
    weight_filler {
      type: "xavier"
      std: 0.2
    }
    bias_filler {
      type: "constant"
      value: 0.2
    }
  }
}
layer {
  name: "inception_4d/relu_5x5_reduce"
  type: "ReLU"
  bottom: "inception_4d/5x5_reduce"
  top: "inception_4d/5x5_reduce"
}
layer {
  name: "inception_4d/5x5"
  type: "Convolution"
  bottom: "inception_4d/5x5_reduce"
  top: "inception_4d/5x5"
  param {
    lr_mult: 1
    decay_mult: 1
  }
  param {
    lr_mult: 2
    decay_mult: 0
  }
  convolution_param {
    num_output: 64
    pad: 2
    kernel_size: 5
    weight_filler {
      type: "xavier"
      std: 0.03
    }
    bias_filler {
      type: "constant"
      value: 0.2
    }
  }
}
layer {
  name: "inception_4d/relu_5x5"
  type: "ReLU"
  bottom: "inception_4d/5x5"
  top: "inception_4d/5x5"
}
layer {
  name: "inception_4d/pool"
  type: "Pooling"
  bottom: "inception_4c/output"
  top: "inception_4d/pool"
  pooling_param {
    pool: MAX
    kernel_size: 3
    stride: 1
    pad: 1
  }
}
layer {
  name: "inception_4d/pool_proj"
  type: "Convolution"
  bottom: "inception_4d/pool"
  top: "inception_4d/pool_proj"
  param {
    lr_mult: 1
    decay_mult: 1
  }
  param {
    lr_mult: 2
    decay_mult: 0
  }
  convolution_param {
    num_output: 64
    kernel_size: 1
    weight_filler {
      type: "xavier"
      std: 0.1
    }
    bias_filler {
      type: "constant"
      value: 0.2
    }
  }
}
layer {
  name: "inception_4d/relu_pool_proj"
  type: "ReLU"
  bottom: "inception_4d/pool_proj"
  top: "inception_4d/pool_proj"
}
layer {
  name: "inception_4d/output"
  type: "Concat"
  bottom: "inception_4d/1x1"
  bottom: "inception_4d/3x3"
  bottom: "inception_4d/5x5"
  bottom: "inception_4d/pool_proj"
  top: "inception_4d/output"
}
layer {
  name: "loss2/ave_pool"
  type: "Pooling"
  bottom: "inception_4d/output"
  top: "loss2/ave_pool"
  pooling_param {
    pool: AVE
    kernel_size: 5
    stride: 3
  }
}
layer {
  name: "loss2/conv"
  type: "Convolution"
  bottom: "loss2/ave_pool"
  top: "loss2/conv"
  param {
    lr_mult: 1
    decay_mult: 1
  }
  param {
    lr_mult: 2
    decay_mult: 0
  }
  convolution_param {
    num_output: 128
    kernel_size: 1
    weight_filler {
      type: "xavier"
      std: 0.08
    }
    bias_filler {
      type: "constant"
      value: 0.2
    }
  }
}
layer {
  name: "loss2/relu_conv"
  type: "ReLU"
  bottom: "loss2/conv"
  top: "loss2/conv"
}
layer {
  name: "loss2/fc"
  type: "InnerProduct"
  bottom: "loss2/conv"
  top: "loss2/fc"
  param {
    lr_mult: 1
    decay_mult: 1
  }
  param {
    lr_mult: 2
    decay_mult: 0
  }
  inner_product_param {
    num_output: 1024
    weight_filler {
      type: "xavier"
      std: 0.02
    }
    bias_filler {
      type: "constant"
      value: 0.2
    }
  }
}
layer {
  name: "loss2/relu_fc"
  type: "ReLU"
  bottom: "loss2/fc"
  top: "loss2/fc"
}
layer {
  name: "loss2/drop_fc"
  type: "Dropout"
  bottom: "loss2/fc"
  top: "loss2/fc"
  dropout_param {
    dropout_ratio: 0.7
  }
}
layer {
  name: "loss2/classifier_plantvillage"
  type: "InnerProduct"
  bottom: "loss2/fc"
  top: "loss2/classifier_plantvillage"
  param {
    lr_mult: 1
    decay_mult: 1
  }
  param {
    lr_mult: 2
    decay_mult: 0
  }
  inner_product_param {
    num_output: 38
    weight_filler {
      type: "xavier"
      std: 0.0009765625
    }
    bias_filler {
      type: "constant"
      value: 0
    }
  }
}
layer {
  name: "inception_4e/1x1"
  type: "Convolution"
  bottom: "inception_4d/output"
  top: "inception_4e/1x1"
  param {
    lr_mult: 1
    decay_mult: 1
  }
  param {
    lr_mult: 2
    decay_mult: 0
  }
  convolution_param {
    num_output: 256
    kernel_size: 1
    weight_filler {
      type: "xavier"
      std: 0.03
    }
    bias_filler {
      type: "constant"
      value: 0.2
    }
  }
}
layer {
  name: "inception_4e/relu_1x1"
  type: "ReLU"
  bottom: "inception_4e/1x1"
  top: "inception_4e/1x1"
}
layer {
  name: "inception_4e/3x3_reduce"
  type: "Convolution"
  bottom: "inception_4d/output"
  top: "inception_4e/3x3_reduce"
  param {
    lr_mult: 1
    decay_mult: 1
  }
  param {
    lr_mult: 2
    decay_mult: 0
  }
  convolution_param {
    num_output: 160
    kernel_size: 1
    weight_filler {
      type: "xavier"
      std: 0.09
    }
    bias_filler {
      type: "constant"
      value: 0.2
    }
  }
}
layer {
  name: "inception_4e/relu_3x3_reduce"
  type: "ReLU"
  bottom: "inception_4e/3x3_reduce"
  top: "inception_4e/3x3_reduce"
}
layer {
  name: "inception_4e/3x3"
  type: "Convolution"
  bottom: "inception_4e/3x3_reduce"
  top: "inception_4e/3x3"
  param {
    lr_mult: 1
    decay_mult: 1
  }
  param {
    lr_mult: 2
    decay_mult: 0
  }
  convolution_param {
    num_output: 320
    pad: 1
    kernel_size: 3
    weight_filler {
      type: "xavier"
      std: 0.03
    }
    bias_filler {
      type: "constant"
      value: 0.2
    }
  }
}
layer {
  name: "inception_4e/relu_3x3"
  type: "ReLU"
  bottom: "inception_4e/3x3"
  top: "inception_4e/3x3"
}
layer {
  name: "inception_4e/5x5_reduce"
  type: "Convolution"
  bottom: "inception_4d/output"
  top: "inception_4e/5x5_reduce"
  param {
    lr_mult: 1
    decay_mult: 1
  }
  param {
    lr_mult: 2
    decay_mult: 0
  }
  convolution_param {
    num_output: 32
    kernel_size: 1
    weight_filler {
      type: "xavier"
      std: 0.2
    }
    bias_filler {
      type: "constant"
      value: 0.2
    }
  }
}
layer {
  name: "inception_4e/relu_5x5_reduce"
  type: "ReLU"
  bottom: "inception_4e/5x5_reduce"
  top: "inception_4e/5x5_reduce"
}
layer {
  name: "inception_4e/5x5"
  type: "Convolution"
  bottom: "inception_4e/5x5_reduce"
  top: "inception_4e/
I0403 19:37:51.857647 25353 layer_factory.hpp:77] Creating layer data
I0403 19:37:51.858265 25353 net.cpp:91] Creating Layer data
I0403 19:37:51.858307 25353 net.cpp:399] data -> data
I0403 19:37:51.858377 25353 net.cpp:399] data -> label
I0403 19:37:51.858422 25353 data_transformer.cpp:25] Loading mean file from: /home/mohanty/data/final_dataset/lmdb/grayscale-80-20/mean.binaryproto
I0403 19:37:51.859340 25355 db_lmdb.cpp:38] Opened lmdb /home/mohanty/data/final_dataset/lmdb/grayscale-80-20/test_db
I0403 19:37:51.872372 25353 data_layer.cpp:41] output data size: 24,3,224,224
I0403 19:37:51.900465 25353 net.cpp:141] Setting up data
I0403 19:37:51.900568 25353 net.cpp:148] Top shape: 24 3 224 224 (3612672)
I0403 19:37:51.900593 25353 net.cpp:148] Top shape: 24 (24)
I0403 19:37:51.900609 25353 net.cpp:156] Memory required for data: 14450784
I0403 19:37:51.900640 25353 layer_factory.hpp:77] Creating layer label_data_1_split
I0403 19:37:51.900673 25353 net.cpp:91] Creating Layer label_data_1_split
I0403 19:37:51.900694 25353 net.cpp:425] label_data_1_split <- label
I0403 19:37:51.900732 25353 net.cpp:399] label_data_1_split -> label_data_1_split_0
I0403 19:37:51.900768 25353 net.cpp:399] label_data_1_split -> label_data_1_split_1
I0403 19:37:51.900790 25353 net.cpp:399] label_data_1_split -> label_data_1_split_2
I0403 19:37:51.900811 25353 net.cpp:399] label_data_1_split -> label_data_1_split_3
I0403 19:37:51.900832 25353 net.cpp:399] label_data_1_split -> label_data_1_split_4
I0403 19:37:51.900853 25353 net.cpp:399] label_data_1_split -> label_data_1_split_5
I0403 19:37:51.900876 25353 net.cpp:399] label_data_1_split -> label_data_1_split_6
I0403 19:37:51.900899 25353 net.cpp:399] label_data_1_split -> label_data_1_split_7
I0403 19:37:51.900920 25353 net.cpp:399] label_data_1_split -> label_data_1_split_8
I0403 19:37:51.900941 25353 net.cpp:399] label_data_1_split -> label_data_1_split_9
I0403 19:37:51.901057 25353 net.cpp:141] Setting up label_data_1_split
I0403 19:37:51.901083 25353 net.cpp:148] Top shape: 24 (24)
I0403 19:37:51.901100 25353 net.cpp:148] Top shape: 24 (24)
I0403 19:37:51.901118 25353 net.cpp:148] Top shape: 24 (24)
I0403 19:37:51.901135 25353 net.cpp:148] Top shape: 24 (24)
I0403 19:37:51.901152 25353 net.cpp:148] Top shape: 24 (24)
I0403 19:37:51.901167 25353 net.cpp:148] Top shape: 24 (24)
I0403 19:37:51.901183 25353 net.cpp:148] Top shape: 24 (24)
I0403 19:37:51.901198 25353 net.cpp:148] Top shape: 24 (24)
I0403 19:37:51.901216 25353 net.cpp:148] Top shape: 24 (24)
I0403 19:37:51.901231 25353 net.cpp:148] Top shape: 24 (24)
I0403 19:37:51.901280 25353 net.cpp:156] Memory required for data: 14451744
I0403 19:37:51.901332 25353 layer_factory.hpp:77] Creating layer conv1/7x7_s2
I0403 19:37:51.901376 25353 net.cpp:91] Creating Layer conv1/7x7_s2
I0403 19:37:51.901396 25353 net.cpp:425] conv1/7x7_s2 <- data
I0403 19:37:51.901418 25353 net.cpp:399] conv1/7x7_s2 -> conv1/7x7_s2
I0403 19:37:52.044312 25353 net.cpp:141] Setting up conv1/7x7_s2
I0403 19:37:52.044428 25353 net.cpp:148] Top shape: 24 64 112 112 (19267584)
I0403 19:37:52.044446 25353 net.cpp:156] Memory required for data: 91522080
I0403 19:37:52.044486 25353 layer_factory.hpp:77] Creating layer conv1/relu_7x7
I0403 19:37:52.044518 25353 net.cpp:91] Creating Layer conv1/relu_7x7
I0403 19:37:52.044538 25353 net.cpp:425] conv1/relu_7x7 <- conv1/7x7_s2
I0403 19:37:52.044559 25353 net.cpp:386] conv1/relu_7x7 -> conv1/7x7_s2 (in-place)
I0403 19:37:52.044811 25353 net.cpp:141] Setting up conv1/relu_7x7
I0403 19:37:52.044842 25353 net.cpp:148] Top shape: 24 64 112 112 (19267584)
I0403 19:37:52.044858 25353 net.cpp:156] Memory required for data: 168592416
I0403 19:37:52.044874 25353 layer_factory.hpp:77] Creating layer pool1/3x3_s2
I0403 19:37:52.044903 25353 net.cpp:91] Creating Layer pool1/3x3_s2
I0403 19:37:52.044922 25353 net.cpp:425] pool1/3x3_s2 <- conv1/7x7_s2
I0403 19:37:52.044940 25353 net.cpp:399] pool1/3x3_s2 -> pool1/3x3_s2
I0403 19:37:52.045020 25353 net.cpp:141] Setting up pool1/3x3_s2
I0403 19:37:52.045047 25353 net.cpp:148] Top shape: 24 64 56 56 (4816896)
I0403 19:37:52.045063 25353 net.cpp:156] Memory required for data: 187860000
I0403 19:37:52.045079 25353 layer_factory.hpp:77] Creating layer pool1/norm1
I0403 19:37:52.045109 25353 net.cpp:91] Creating Layer pool1/norm1
I0403 19:37:52.045128 25353 net.cpp:425] pool1/norm1 <- pool1/3x3_s2
I0403 19:37:52.045145 25353 net.cpp:399] pool1/norm1 -> pool1/norm1
I0403 19:37:52.045429 25353 net.cpp:141] Setting up pool1/norm1
I0403 19:37:52.045459 25353 net.cpp:148] Top shape: 24 64 56 56 (4816896)
I0403 19:37:52.045476 25353 net.cpp:156] Memory required for data: 207127584
I0403 19:37:52.045492 25353 layer_factory.hpp:77] Creating layer conv2/3x3_reduce
I0403 19:37:52.045523 25353 net.cpp:91] Creating Layer conv2/3x3_reduce
I0403 19:37:52.045541 25353 net.cpp:425] conv2/3x3_reduce <- pool1/norm1
I0403 19:37:52.045558 25353 net.cpp:399] conv2/3x3_reduce -> conv2/3x3_reduce
I0403 19:37:52.046900 25353 net.cpp:141] Setting up conv2/3x3_reduce
I0403 19:37:52.046931 25353 net.cpp:148] Top shape: 24 64 56 56 (4816896)
I0403 19:37:52.046947 25353 net.cpp:156] Memory required for data: 226395168
I0403 19:37:52.046969 25353 layer_factory.hpp:77] Creating layer conv2/relu_3x3_reduce
I0403 19:37:52.046991 25353 net.cpp:91] Creating Layer conv2/relu_3x3_reduce
I0403 19:37:52.047013 25353 net.cpp:425] conv2/relu_3x3_reduce <- conv2/3x3_reduce
I0403 19:37:52.047031 25353 net.cpp:386] conv2/relu_3x3_reduce -> conv2/3x3_reduce (in-place)
I0403 19:37:52.047294 25353 net.cpp:141] Setting up conv2/relu_3x3_reduce
I0403 19:37:52.047324 25353 net.cpp:148] Top shape: 24 64 56 56 (4816896)
I0403 19:37:52.047340 25353 net.cpp:156] Memory required for data: 245662752
I0403 19:37:52.047356 25353 layer_factory.hpp:77] Creating layer conv2/3x3
I0403 19:37:52.047384 25353 net.cpp:91] Creating Layer conv2/3x3
I0403 19:37:52.047402 25353 net.cpp:425] conv2/3x3 <- conv2/3x3_reduce
I0403 19:37:52.047422 25353 net.cpp:399] conv2/3x3 -> conv2/3x3
I0403 19:37:52.049635 25353 net.cpp:141] Setting up conv2/3x3
I0403 19:37:52.049669 25353 net.cpp:148] Top shape: 24 192 56 56 (14450688)
I0403 19:37:52.049685 25353 net.cpp:156] Memory required for data: 303465504
I0403 19:37:52.049707 25353 layer_factory.hpp:77] Creating layer conv2/relu_3x3
I0403 19:37:52.049729 25353 net.cpp:91] Creating Layer conv2/relu_3x3
I0403 19:37:52.049749 25353 net.cpp:425] conv2/relu_3x3 <- conv2/3x3
I0403 19:37:52.049770 25353 net.cpp:386] conv2/relu_3x3 -> conv2/3x3 (in-place)
I0403 19:37:52.049943 25353 net.cpp:141] Setting up conv2/relu_3x3
I0403 19:37:52.049973 25353 net.cpp:148] Top shape: 24 192 56 56 (14450688)
I0403 19:37:52.050020 25353 net.cpp:156] Memory required for data: 361268256
I0403 19:37:52.050037 25353 layer_factory.hpp:77] Creating layer conv2/norm2
I0403 19:37:52.050060 25353 net.cpp:91] Creating Layer conv2/norm2
I0403 19:37:52.050079 25353 net.cpp:425] conv2/norm2 <- conv2/3x3
I0403 19:37:52.050097 25353 net.cpp:399] conv2/norm2 -> conv2/norm2
I0403 19:37:52.050397 25353 net.cpp:141] Setting up conv2/norm2
I0403 19:37:52.050428 25353 net.cpp:148] Top shape: 24 192 56 56 (14450688)
I0403 19:37:52.050444 25353 net.cpp:156] Memory required for data: 419071008
I0403 19:37:52.050462 25353 layer_factory.hpp:77] Creating layer pool2/3x3_s2
I0403 19:37:52.050483 25353 net.cpp:91] Creating Layer pool2/3x3_s2
I0403 19:37:52.050503 25353 net.cpp:425] pool2/3x3_s2 <- conv2/norm2
I0403 19:37:52.050521 25353 net.cpp:399] pool2/3x3_s2 -> pool2/3x3_s2
I0403 19:37:52.050573 25353 net.cpp:141] Setting up pool2/3x3_s2
I0403 19:37:52.050603 25353 net.cpp:148] Top shape: 24 192 28 28 (3612672)
I0403 19:37:52.050619 25353 net.cpp:156] Memory required for data: 433521696
I0403 19:37:52.050636 25353 layer_factory.hpp:77] Creating layer pool2/3x3_s2_pool2/3x3_s2_0_split
I0403 19:37:52.050652 25353 net.cpp:91] Creating Layer pool2/3x3_s2_pool2/3x3_s2_0_split
I0403 19:37:52.050668 25353 net.cpp:425] pool2/3x3_s2_pool2/3x3_s2_0_split <- pool2/3x3_s2
I0403 19:37:52.050688 25353 net.cpp:399] pool2/3x3_s2_pool2/3x3_s2_0_split -> pool2/3x3_s2_pool2/3x3_s2_0_split_0
I0403 19:37:52.050710 25353 net.cpp:399] pool2/3x3_s2_pool2/3x3_s2_0_split -> pool2/3x3_s2_pool2/3x3_s2_0_split_1
I0403 19:37:52.050732 25353 net.cpp:399] pool2/3x3_s2_pool2/3x3_s2_0_split -> pool2/3x3_s2_pool2/3x3_s2_0_split_2
I0403 19:37:52.050755 25353 net.cpp:399] pool2/3x3_s2_pool2/3x3_s2_0_split -> pool2/3x3_s2_pool2/3x3_s2_0_split_3
I0403 19:37:52.050823 25353 net.cpp:141] Setting up pool2/3x3_s2_pool2/3x3_s2_0_split
I0403 19:37:52.050853 25353 net.cpp:148] Top shape: 24 192 28 28 (3612672)
I0403 19:37:52.050873 25353 net.cpp:148] Top shape: 24 192 28 28 (3612672)
I0403 19:37:52.050889 25353 net.cpp:148] Top shape: 24 192 28 28 (3612672)
I0403 19:37:52.050904 25353 net.cpp:148] Top shape: 24 192 28 28 (3612672)
I0403 19:37:52.050920 25353 net.cpp:156] Memory required for data: 491324448
I0403 19:37:52.050935 25353 layer_factory.hpp:77] Creating layer inception_3a/1x1
I0403 19:37:52.050956 25353 net.cpp:91] Creating Layer inception_3a/1x1
I0403 19:37:52.050977 25353 net.cpp:425] inception_3a/1x1 <- pool2/3x3_s2_pool2/3x3_s2_0_split_0
I0403 19:37:52.050997 25353 net.cpp:399] inception_3a/1x1 -> inception_3a/1x1
I0403 19:37:52.052520 25353 net.cpp:141] Setting up inception_3a/1x1
I0403 19:37:52.052551 25353 net.cpp:148] Top shape: 24 64 28 28 (1204224)
I0403 19:37:52.052568 25353 net.cpp:156] Memory required for data: 496141344
I0403 19:37:52.052589 25353 layer_factory.hpp:77] Creating layer inception_3a/relu_1x1
I0403 19:37:52.052610 25353 net.cpp:91] Creating Layer inception_3a/relu_1x1
I0403 19:37:52.052629 25353 net.cpp:425] inception_3a/relu_1x1 <- inception_3a/1x1
I0403 19:37:52.052647 25353 net.cpp:386] inception_3a/relu_1x1 -> inception_3a/1x1 (in-place)
I0403 19:37:52.052820 25353 net.cpp:141] Setting up inception_3a/relu_1x1
I0403 19:37:52.052851 25353 net.cpp:148] Top shape: 24 64 28 28 (1204224)
I0403 19:37:52.052868 25353 net.cpp:156] Memory required for data: 500958240
I0403 19:37:52.052886 25353 layer_factory.hpp:77] Creating layer inception_3a/3x3_reduce
I0403 19:37:52.052907 25353 net.cpp:91] Creating Layer inception_3a/3x3_reduce
I0403 19:37:52.052925 25353 net.cpp:425] inception_3a/3x3_reduce <- pool2/3x3_s2_pool2/3x3_s2_0_split_1
I0403 19:37:52.052947 25353 net.cpp:399] inception_3a/3x3_reduce -> inception_3a/3x3_reduce
I0403 19:37:52.054602 25353 net.cpp:141] Setting up inception_3a/3x3_reduce
I0403 19:37:52.054633 25353 net.cpp:148] Top shape: 24 96 28 28 (1806336)
I0403 19:37:52.054651 25353 net.cpp:156] Memory required for data: 508183584
I0403 19:37:52.054674 25353 layer_factory.hpp:77] Creating layer inception_3a/relu_3x3_reduce
I0403 19:37:52.054714 25353 net.cpp:91] Creating Layer inception_3a/relu_3x3_reduce
I0403 19:37:52.054734 25353 net.cpp:425] inception_3a/relu_3x3_reduce <- inception_3a/3x3_reduce
I0403 19:37:52.054754 25353 net.cpp:386] inception_3a/relu_3x3_reduce -> inception_3a/3x3_reduce (in-place)
I0403 19:37:52.054932 25353 net.cpp:141] Setting up inception_3a/relu_3x3_reduce
I0403 19:37:52.054961 25353 net.cpp:148] Top shape: 24 96 28 28 (1806336)
I0403 19:37:52.054980 25353 net.cpp:156] Memory required for data: 515408928
I0403 19:37:52.054993 25353 layer_factory.hpp:77] Creating layer inception_3a/3x3
I0403 19:37:52.055016 25353 net.cpp:91] Creating Layer inception_3a/3x3
I0403 19:37:52.055037 25353 net.cpp:425] inception_3a/3x3 <- inception_3a/3x3_reduce
I0403 19:37:52.055059 25353 net.cpp:399] inception_3a/3x3 -> inception_3a/3x3
I0403 19:37:52.056655 25353 net.cpp:141] Setting up inception_3a/3x3
I0403 19:37:52.056691 25353 net.cpp:148] Top shape: 24 128 28 28 (2408448)
I0403 19:37:52.056711 25353 net.cpp:156] Memory required for data: 525042720
I0403 19:37:52.056730 25353 layer_factory.hpp:77] Creating layer inception_3a/relu_3x3
I0403 19:37:52.056747 25353 net.cpp:91] Creating Layer inception_3a/relu_3x3
I0403 19:37:52.056764 25353 net.cpp:425] inception_3a/relu_3x3 <- inception_3a/3x3
I0403 19:37:52.056782 25353 net.cpp:386] inception_3a/relu_3x3 -> inception_3a/3x3 (in-place)
I0403 19:37:52.057046 25353 net.cpp:141] Setting up inception_3a/relu_3x3
I0403 19:37:52.057080 25353 net.cpp:148] Top shape: 24 128 28 28 (2408448)
I0403 19:37:52.057097 25353 net.cpp:156] Memory required for data: 534676512
I0403 19:37:52.057112 25353 layer_factory.hpp:77] Creating layer inception_3a/5x5_reduce
I0403 19:37:52.057134 25353 net.cpp:91] Creating Layer inception_3a/5x5_reduce
I0403 19:37:52.057153 25353 net.cpp:425] inception_3a/5x5_reduce <- pool2/3x3_s2_pool2/3x3_s2_0_split_2
I0403 19:37:52.057173 25353 net.cpp:399] inception_3a/5x5_reduce -> inception_3a/5x5_reduce
I0403 19:37:52.058099 25353 net.cpp:141] Setting up inception_3a/5x5_reduce
I0403 19:37:52.058133 25353 net.cpp:148] Top shape: 24 16 28 28 (301056)
I0403 19:37:52.058151 25353 net.cpp:156] Memory required for data: 535880736
I0403 19:37:52.058168 25353 layer_factory.hpp:77] Creating layer inception_3a/relu_5x5_reduce
I0403 19:37:52.058187 25353 net.cpp:91] Creating Layer inception_3a/relu_5x5_reduce
I0403 19:37:52.058202 25353 net.cpp:425] inception_3a/relu_5x5_reduce <- inception_3a/5x5_reduce
I0403 19:37:52.058223 25353 net.cpp:386] inception_3a/relu_5x5_reduce -> inception_3a/5x5_reduce (in-place)
I0403 19:37:52.058497 25353 net.cpp:141] Setting up inception_3a/relu_5x5_reduce
I0403 19:37:52.058527 25353 net.cpp:148] Top shape: 24 16 28 28 (301056)
I0403 19:37:52.058543 25353 net.cpp:156] Memory required for data: 537084960
I0403 19:37:52.058558 25353 layer_factory.hpp:77] Creating layer inception_3a/5x5
I0403 19:37:52.058581 25353 net.cpp:91] Creating Layer inception_3a/5x5
I0403 19:37:52.058600 25353 net.cpp:425] inception_3a/5x5 <- inception_3a/5x5_reduce
I0403 19:37:52.058624 25353 net.cpp:399] inception_3a/5x5 -> inception_3a/5x5
I0403 19:37:52.059597 25353 net.cpp:141] Setting up inception_3a/5x5
I0403 19:37:52.059630 25353 net.cpp:148] Top shape: 24 32 28 28 (602112)
I0403 19:37:52.059649 25353 net.cpp:156] Memory required for data: 539493408
I0403 19:37:52.059669 25353 layer_factory.hpp:77] Creating layer inception_3a/relu_5x5
I0403 19:37:52.059689 25353 net.cpp:91] Creating Layer inception_3a/relu_5x5
I0403 19:37:52.059706 25353 net.cpp:425] inception_3a/relu_5x5 <- inception_3a/5x5
I0403 19:37:52.059725 25353 net.cpp:386] inception_3a/relu_5x5 -> inception_3a/5x5 (in-place)
I0403 19:37:52.059895 25353 net.cpp:141] Setting up inception_3a/relu_5x5
I0403 19:37:52.059924 25353 net.cpp:148] Top shape: 24 32 28 28 (602112)
I0403 19:37:52.059940 25353 net.cpp:156] Memory required for data: 541901856
I0403 19:37:52.059957 25353 layer_factory.hpp:77] Creating layer inception_3a/pool
I0403 19:37:52.059975 25353 net.cpp:91] Creating Layer inception_3a/pool
I0403 19:37:52.060008 25353 net.cpp:425] inception_3a/pool <- pool2/3x3_s2_pool2/3x3_s2_0_split_3
I0403 19:37:52.060029 25353 net.cpp:399] inception_3a/pool -> inception_3a/pool
I0403 19:37:52.060087 25353 net.cpp:141] Setting up inception_3a/pool
I0403 19:37:52.060117 25353 net.cpp:148] Top shape: 24 192 28 28 (3612672)
I0403 19:37:52.060133 25353 net.cpp:156] Memory required for data: 556352544
I0403 19:37:52.060148 25353 layer_factory.hpp:77] Creating layer inception_3a/pool_proj
I0403 19:37:52.060168 25353 net.cpp:91] Creating Layer inception_3a/pool_proj
I0403 19:37:52.060185 25353 net.cpp:425] inception_3a/pool_proj <- inception_3a/pool
I0403 19:37:52.060207 25353 net.cpp:399] inception_3a/pool_proj -> inception_3a/pool_proj
I0403 19:37:52.061175 25353 net.cpp:141] Setting up inception_3a/pool_proj
I0403 19:37:52.061209 25353 net.cpp:148] Top shape: 24 32 28 28 (602112)
I0403 19:37:52.061226 25353 net.cpp:156] Memory required for data: 558760992
I0403 19:37:52.061254 25353 layer_factory.hpp:77] Creating layer inception_3a/relu_pool_proj
I0403 19:37:52.061275 25353 net.cpp:91] Creating Layer inception_3a/relu_pool_proj
I0403 19:37:52.061296 25353 net.cpp:425] inception_3a/relu_pool_proj <- inception_3a/pool_proj
I0403 19:37:52.061319 25353 net.cpp:386] inception_3a/relu_pool_proj -> inception_3a/pool_proj (in-place)
I0403 19:37:52.061591 25353 net.cpp:141] Setting up inception_3a/relu_pool_proj
I0403 19:37:52.061627 25353 net.cpp:148] Top shape: 24 32 28 28 (602112)
I0403 19:37:52.061646 25353 net.cpp:156] Memory required for data: 561169440
I0403 19:37:52.061663 25353 layer_factory.hpp:77] Creating layer inception_3a/output
I0403 19:37:52.061682 25353 net.cpp:91] Creating Layer inception_3a/output
I0403 19:37:52.061698 25353 net.cpp:425] inception_3a/output <- inception_3a/1x1
I0403 19:37:52.061717 25353 net.cpp:425] inception_3a/output <- inception_3a/3x3
I0403 19:37:52.061734 25353 net.cpp:425] inception_3a/output <- inception_3a/5x5
I0403 19:37:52.061751 25353 net.cpp:425] inception_3a/output <- inception_3a/pool_proj
I0403 19:37:52.061770 25353 net.cpp:399] inception_3a/output -> inception_3a/output
I0403 19:37:52.061820 25353 net.cpp:141] Setting up inception_3a/output
I0403 19:37:52.061848 25353 net.cpp:148] Top shape: 24 256 28 28 (4816896)
I0403 19:37:52.061866 25353 net.cpp:156] Memory required for data: 580437024
I0403 19:37:52.061880 25353 layer_factory.hpp:77] Creating layer inception_3a/output_inception_3a/output_0_split
I0403 19:37:52.061902 25353 net.cpp:91] Creating Layer inception_3a/output_inception_3a/output_0_split
I0403 19:37:52.061916 25353 net.cpp:425] inception_3a/output_inception_3a/output_0_split <- inception_3a/output
I0403 19:37:52.061938 25353 net.cpp:399] inception_3a/output_inception_3a/output_0_split -> inception_3a/output_inception_3a/output_0_split_0
I0403 19:37:52.061959 25353 net.cpp:399] inception_3a/output_inception_3a/output_0_split -> inception_3a/output_inception_3a/output_0_split_1
I0403 19:37:52.061982 25353 net.cpp:399] inception_3a/output_inception_3a/output_0_split -> inception_3a/output_inception_3a/output_0_split_2
I0403 19:37:52.062008 25353 net.cpp:399] inception_3a/output_inception_3a/output_0_split -> inception_3a/output_inception_3a/output_0_split_3
I0403 19:37:52.062085 25353 net.cpp:141] Setting up inception_3a/output_inception_3a/output_0_split
I0403 19:37:52.062115 25353 net.cpp:148] Top shape: 24 256 28 28 (4816896)
I0403 19:37:52.062134 25353 net.cpp:148] Top shape: 24 256 28 28 (4816896)
I0403 19:37:52.062150 25353 net.cpp:148] Top shape: 24 256 28 28 (4816896)
I0403 19:37:52.062166 25353 net.cpp:148] Top shape: 24 256 28 28 (4816896)
I0403 19:37:52.062181 25353 net.cpp:156] Memory required for data: 657507360
I0403 19:37:52.062196 25353 layer_factory.hpp:77] Creating layer inception_3b/1x1
I0403 19:37:52.062222 25353 net.cpp:91] Creating Layer inception_3b/1x1
I0403 19:37:52.062239 25353 net.cpp:425] inception_3b/1x1 <- inception_3a/output_inception_3a/output_0_split_0
I0403 19:37:52.062259 25353 net.cpp:399] inception_3b/1x1 -> inception_3b/1x1
I0403 19:37:52.063374 25353 net.cpp:141] Setting up inception_3b/1x1
I0403 19:37:52.063417 25353 net.cpp:148] Top shape: 24 128 28 28 (2408448)
I0403 19:37:52.063436 25353 net.cpp:156] Memory required for data: 667141152
I0403 19:37:52.063455 25353 layer_factory.hpp:77] Creating layer inception_3b/relu_1x1
I0403 19:37:52.063478 25353 net.cpp:91] Creating Layer inception_3b/relu_1x1
I0403 19:37:52.063498 25353 net.cpp:425] inception_3b/relu_1x1 <- inception_3b/1x1
I0403 19:37:52.063515 25353 net.cpp:386] inception_3b/relu_1x1 -> inception_3b/1x1 (in-place)
I0403 19:37:52.063686 25353 net.cpp:141] Setting up inception_3b/relu_1x1
I0403 19:37:52.063715 25353 net.cpp:148] Top shape: 24 128 28 28 (2408448)
I0403 19:37:52.063733 25353 net.cpp:156] Memory required for data: 676774944
I0403 19:37:52.063750 25353 layer_factory.hpp:77] Creating layer inception_3b/3x3_reduce
I0403 19:37:52.063772 25353 net.cpp:91] Creating Layer inception_3b/3x3_reduce
I0403 19:37:52.063791 25353 net.cpp:425] inception_3b/3x3_reduce <- inception_3a/output_inception_3a/output_0_split_1
I0403 19:37:52.063812 25353 net.cpp:399] inception_3b/3x3_reduce -> inception_3b/3x3_reduce
I0403 19:37:52.064908 25353 net.cpp:141] Setting up inception_3b/3x3_reduce
I0403 19:37:52.064939 25353 net.cpp:148] Top shape: 24 128 28 28 (2408448)
I0403 19:37:52.064957 25353 net.cpp:156] Memory required for data: 686408736
I0403 19:37:52.064977 25353 layer_factory.hpp:77] Creating layer inception_3b/relu_3x3_reduce
I0403 19:37:52.064998 25353 net.cpp:91] Creating Layer inception_3b/relu_3x3_reduce
I0403 19:37:52.065016 25353 net.cpp:425] inception_3b/relu_3x3_reduce <- inception_3b/3x3_reduce
I0403 19:37:52.065033 25353 net.cpp:386] inception_3b/relu_3x3_reduce -> inception_3b/3x3_reduce (in-place)
I0403 19:37:52.065201 25353 net.cpp:141] Setting up inception_3b/relu_3x3_reduce
I0403 19:37:52.065233 25353 net.cpp:148] Top shape: 24 128 28 28 (2408448)
I0403 19:37:52.065249 25353 net.cpp:156] Memory required for data: 696042528
I0403 19:37:52.065264 25353 layer_factory.hpp:77] Creating layer inception_3b/3x3
I0403 19:37:52.065294 25353 net.cpp:91] Creating Layer inception_3b/3x3
I0403 19:37:52.065315 25353 net.cpp:425] inception_3b/3x3 <- inception_3b/3x3_reduce
I0403 19:37:52.065338 25353 net.cpp:399] inception_3b/3x3 -> inception_3b/3x3
I0403 19:37:52.068188 25353 net.cpp:141] Setting up inception_3b/3x3
I0403 19:37:52.068223 25353 net.cpp:148] Top shape: 24 192 28 28 (3612672)
I0403 19:37:52.068241 25353 net.cpp:156] Memory required for data: 710493216
I0403 19:37:52.068260 25353 layer_factory.hpp:77] Creating layer inception_3b/relu_3x3
I0403 19:37:52.068279 25353 net.cpp:91] Creating Layer inception_3b/relu_3x3
I0403 19:37:52.068302 25353 net.cpp:425] inception_3b/relu_3x3 <- inception_3b/3x3
I0403 19:37:52.068322 25353 net.cpp:386] inception_3b/relu_3x3 -> inception_3b/3x3 (in-place)
I0403 19:37:52.068593 25353 net.cpp:141] Setting up inception_3b/relu_3x3
I0403 19:37:52.068627 25353 net.cpp:148] Top shape: 24 192 28 28 (3612672)
I0403 19:37:52.068645 25353 net.cpp:156] Memory required for data: 724943904
I0403 19:37:52.068660 25353 layer_factory.hpp:77] Creating layer inception_3b/5x5_reduce
I0403 19:37:52.068683 25353 net.cpp:91] Creating Layer inception_3b/5x5_reduce
I0403 19:37:52.068702 25353 net.cpp:425] inception_3b/5x5_reduce <- inception_3a/output_inception_3a/output_0_split_2
I0403 19:37:52.068723 25353 net.cpp:399] inception_3b/5x5_reduce -> inception_3b/5x5_reduce
I0403 19:37:52.069686 25353 net.cpp:141] Setting up inception_3b/5x5_reduce
I0403 19:37:52.069722 25353 net.cpp:148] Top shape: 24 32 28 28 (602112)
I0403 19:37:52.069741 25353 net.cpp:156] Memory required for data: 727352352
I0403 19:37:52.069758 25353 layer_factory.hpp:77] Creating layer inception_3b/relu_5x5_reduce
I0403 19:37:52.069778 25353 net.cpp:91] Creating Layer inception_3b/relu_5x5_reduce
I0403 19:37:52.069797 25353 net.cpp:425] inception_3b/relu_5x5_reduce <- inception_3b/5x5_reduce
I0403 19:37:52.069816 25353 net.cpp:386] inception_3b/relu_5x5_reduce -> inception_3b/5x5_reduce (in-place)
I0403 19:37:52.070008 25353 net.cpp:141] Setting up inception_3b/relu_5x5_reduce
I0403 19:37:52.070039 25353 net.cpp:148] Top shape: 24 32 28 28 (602112)
I0403 19:37:52.070057 25353 net.cpp:156] Memory required for data: 729760800
I0403 19:37:52.070072 25353 layer_factory.hpp:77] Creating layer inception_3b/5x5
I0403 19:37:52.070096 25353 net.cpp:91] Creating Layer inception_3b/5x5
I0403 19:37:52.070116 25353 net.cpp:425] inception_3b/5x5 <- inception_3b/5x5_reduce
I0403 19:37:52.070137 25353 net.cpp:399] inception_3b/5x5 -> inception_3b/5x5
I0403 19:37:52.072055 25353 net.cpp:141] Setting up inception_3b/5x5
I0403 19:37:52.072088 25353 net.cpp:148] Top shape: 24 96 28 28 (1806336)
I0403 19:37:52.072105 25353 net.cpp:156] Memory required for data: 736986144
I0403 19:37:52.072124 25353 layer_factory.hpp:77] Creating layer inception_3b/relu_5x5
I0403 19:37:52.072144 25353 net.cpp:91] Creating Layer inception_3b/relu_5x5
I0403 19:37:52.072162 25353 net.cpp:425] inception_3b/relu_5x5 <- inception_3b/5x5
I0403 19:37:52.072180 25353 net.cpp:386] inception_3b/relu_5x5 -> inception_3b/5x5 (in-place)
I0403 19:37:52.072373 25353 net.cpp:141] Setting up inception_3b/relu_5x5
I0403 19:37:52.072404 25353 net.cpp:148] Top shape: 24 96 28 28 (1806336)
I0403 19:37:52.072420 25353 net.cpp:156] Memory required for data: 744211488
I0403 19:37:52.072435 25353 layer_factory.hpp:77] Creating layer inception_3b/pool
I0403 19:37:52.072455 25353 net.cpp:91] Creating Layer inception_3b/pool
I0403 19:37:52.072473 25353 net.cpp:425] inception_3b/pool <- inception_3a/output_inception_3a/output_0_split_3
I0403 19:37:52.072489 25353 net.cpp:399] inception_3b/pool -> inception_3b/pool
I0403 19:37:52.072543 25353 net.cpp:141] Setting up inception_3b/pool
I0403 19:37:52.072571 25353 net.cpp:148] Top shape: 24 256 28 28 (4816896)
I0403 19:37:52.072587 25353 net.cpp:156] Memory required for data: 763479072
I0403 19:37:52.072602 25353 layer_factory.hpp:77] Creating layer inception_3b/pool_proj
I0403 19:37:52.072628 25353 net.cpp:91] Creating Layer inception_3b/pool_proj
I0403 19:37:52.072646 25353 net.cpp:425] inception_3b/pool_proj <- inception_3b/pool
I0403 19:37:52.072669 25353 net.cpp:399] inception_3b/pool_proj -> inception_3b/pool_proj
I0403 19:37:52.073686 25353 net.cpp:141] Setting up inception_3b/pool_proj
I0403 19:37:52.073719 25353 net.cpp:148] Top shape: 24 64 28 28 (1204224)
I0403 19:37:52.073737 25353 net.cpp:156] Memory required for data: 768295968
I0403 19:37:52.073757 25353 layer_factory.hpp:77] Creating layer inception_3b/relu_pool_proj
I0403 19:37:52.073777 25353 net.cpp:91] Creating Layer inception_3b/relu_pool_proj
I0403 19:37:52.073793 25353 net.cpp:425] inception_3b/relu_pool_proj <- inception_3b/pool_proj
I0403 19:37:52.073814 25353 net.cpp:386] inception_3b/relu_pool_proj -> inception_3b/pool_proj (in-place)
I0403 19:37:52.074177 25353 net.cpp:141] Setting up inception_3b/relu_pool_proj
I0403 19:37:52.074208 25353 net.cpp:148] Top shape: 24 64 28 28 (1204224)
I0403 19:37:52.074225 25353 net.cpp:156] Memory required for data: 773112864
I0403 19:37:52.074242 25353 layer_factory.hpp:77] Creating layer inception_3b/output
I0403 19:37:52.074260 25353 net.cpp:91] Creating Layer inception_3b/output
I0403 19:37:52.074277 25353 net.cpp:425] inception_3b/output <- inception_3b/1x1
I0403 19:37:52.074311 25353 net.cpp:425] inception_3b/output <- inception_3b/3x3
I0403 19:37:52.074331 25353 net.cpp:425] inception_3b/output <- inception_3b/5x5
I0403 19:37:52.074348 25353 net.cpp:425] inception_3b/output <- inception_3b/pool_proj
I0403 19:37:52.074369 25353 net.cpp:399] inception_3b/output -> inception_3b/output
I0403 19:37:52.074412 25353 net.cpp:141] Setting up inception_3b/output
I0403 19:37:52.074445 25353 net.cpp:148] Top shape: 24 480 28 28 (9031680)
I0403 19:37:52.074461 25353 net.cpp:156] Memory required for data: 809239584
I0403 19:37:52.074477 25353 layer_factory.hpp:77] Creating layer pool3/3x3_s2
I0403 19:37:52.074496 25353 net.cpp:91] Creating Layer pool3/3x3_s2
I0403 19:37:52.074513 25353 net.cpp:425] pool3/3x3_s2 <- inception_3b/output
I0403 19:37:52.074545 25353 net.cpp:399] pool3/3x3_s2 -> pool3/3x3_s2
I0403 19:37:52.074607 25353 net.cpp:141] Setting up pool3/3x3_s2
I0403 19:37:52.074637 25353 net.cpp:148] Top shape: 24 480 14 14 (2257920)
I0403 19:37:52.074653 25353 net.cpp:156] Memory required for data: 818271264
I0403 19:37:52.074668 25353 layer_factory.hpp:77] Creating layer pool3/3x3_s2_pool3/3x3_s2_0_split
I0403 19:37:52.074686 25353 net.cpp:91] Creating Layer pool3/3x3_s2_pool3/3x3_s2_0_split
I0403 19:37:52.074700 25353 net.cpp:425] pool3/3x3_s2_pool3/3x3_s2_0_split <- pool3/3x3_s2
I0403 19:37:52.074719 25353 net.cpp:399] pool3/3x3_s2_pool3/3x3_s2_0_split -> pool3/3x3_s2_pool3/3x3_s2_0_split_0
I0403 19:37:52.074741 25353 net.cpp:399] pool3/3x3_s2_pool3/3x3_s2_0_split -> pool3/3x3_s2_pool3/3x3_s2_0_split_1
I0403 19:37:52.074762 25353 net.cpp:399] pool3/3x3_s2_pool3/3x3_s2_0_split -> pool3/3x3_s2_pool3/3x3_s2_0_split_2
I0403 19:37:52.074784 25353 net.cpp:399] pool3/3x3_s2_pool3/3x3_s2_0_split -> pool3/3x3_s2_pool3/3x3_s2_0_split_3
I0403 19:37:52.074862 25353 net.cpp:141] Setting up pool3/3x3_s2_pool3/3x3_s2_0_split
I0403 19:37:52.074888 25353 net.cpp:148] Top shape: 24 480 14 14 (2257920)
I0403 19:37:52.074905 25353 net.cpp:148] Top shape: 24 480 14 14 (2257920)
I0403 19:37:52.074921 25353 net.cpp:148] Top shape: 24 480 14 14 (2257920)
I0403 19:37:52.074935 25353 net.cpp:148] Top shape: 24 480 14 14 (2257920)
I0403 19:37:52.074949 25353 net.cpp:156] Memory required for data: 854397984
I0403 19:37:52.074965 25353 layer_factory.hpp:77] Creating layer inception_4a/1x1
I0403 19:37:52.074986 25353 net.cpp:91] Creating Layer inception_4a/1x1
I0403 19:37:52.075006 25353 net.cpp:425] inception_4a/1x1 <- pool3/3x3_s2_pool3/3x3_s2_0_split_0
I0403 19:37:52.075027 25353 net.cpp:399] inception_4a/1x1 -> inception_4a/1x1
I0403 19:37:52.076545 25353 net.cpp:141] Setting up inception_4a/1x1
I0403 19:37:52.076575 25353 net.cpp:148] Top shape: 24 192 14 14 (903168)
I0403 19:37:52.076592 25353 net.cpp:156] Memory required for data: 858010656
I0403 19:37:52.076611 25353 layer_factory.hpp:77] Creating layer inception_4a/relu_1x1
I0403 19:37:52.076633 25353 net.cpp:91] Creating Layer inception_4a/relu_1x1
I0403 19:37:52.076653 25353 net.cpp:425] inception_4a/relu_1x1 <- inception_4a/1x1
I0403 19:37:52.076673 25353 net.cpp:386] inception_4a/relu_1x1 -> inception_4a/1x1 (in-place)
I0403 19:37:52.076848 25353 net.cpp:141] Setting up inception_4a/relu_1x1
I0403 19:37:52.076877 25353 net.cpp:148] Top shape: 24 192 14 14 (903168)
I0403 19:37:52.076894 25353 net.cpp:156] Memory required for data: 861623328
I0403 19:37:52.076910 25353 layer_factory.hpp:77] Creating layer inception_4a/3x3_reduce
I0403 19:37:52.076935 25353 net.cpp:91] Creating Layer inception_4a/3x3_reduce
I0403 19:37:52.076956 25353 net.cpp:425] inception_4a/3x3_reduce <- pool3/3x3_s2_pool3/3x3_s2_0_split_1
I0403 19:37:52.076977 25353 net.cpp:399] inception_4a/3x3_reduce -> inception_4a/3x3_reduce
I0403 19:37:52.078204 25353 net.cpp:141] Setting up inception_4a/3x3_reduce
I0403 19:37:52.078236 25353 net.cpp:148] Top shape: 24 96 14 14 (451584)
I0403 19:37:52.078253 25353 net.cpp:156] Memory required for data: 863429664
I0403 19:37:52.078294 25353 layer_factory.hpp:77] Creating layer inception_4a/relu_3x3_reduce
I0403 19:37:52.078317 25353 net.cpp:91] Creating Layer inception_4a/relu_3x3_reduce
I0403 19:37:52.078336 25353 net.cpp:425] inception_4a/relu_3x3_reduce <- inception_4a/3x3_reduce
I0403 19:37:52.078356 25353 net.cpp:386] inception_4a/relu_3x3_reduce -> inception_4a/3x3_reduce (in-place)
I0403 19:37:52.078528 25353 net.cpp:141] Setting up inception_4a/relu_3x3_reduce
I0403 19:37:52.078572 25353 net.cpp:148] Top shape: 24 96 14 14 (451584)
I0403 19:37:52.078588 25353 net.cpp:156] Memory required for data: 865236000
I0403 19:37:52.078601 25353 layer_factory.hpp:77] Creating layer inception_4a/3x3
I0403 19:37:52.078624 25353 net.cpp:91] Creating Layer inception_4a/3x3
I0403 19:37:52.078642 25353 net.cpp:425] inception_4a/3x3 <- inception_4a/3x3_reduce
I0403 19:37:52.078665 25353 net.cpp:399] inception_4a/3x3 -> inception_4a/3x3
I0403 19:37:52.081188 25353 net.cpp:141] Setting up inception_4a/3x3
I0403 19:37:52.081223 25353 net.cpp:148] Top shape: 24 208 14 14 (978432)
I0403 19:37:52.081238 25353 net.cpp:156] Memory required for data: 869149728
I0403 19:37:52.081256 25353 layer_factory.hpp:77] Creating layer inception_4a/relu_3x3
I0403 19:37:52.081279 25353 net.cpp:91] Creating Layer inception_4a/relu_3x3
I0403 19:37:52.081305 25353 net.cpp:425] inception_4a/relu_3x3 <- inception_4a/3x3
I0403 19:37:52.081326 25353 net.cpp:386] inception_4a/relu_3x3 -> inception_4a/3x3 (in-place)
I0403 19:37:52.081591 25353 net.cpp:141] Setting up inception_4a/relu_3x3
I0403 19:37:52.081624 25353 net.cpp:148] Top shape: 24 208 14 14 (978432)
I0403 19:37:52.081640 25353 net.cpp:156] Memory required for data: 873063456
I0403 19:37:52.081653 25353 layer_factory.hpp:77] Creating layer inception_4a/5x5_reduce
I0403 19:37:52.081676 25353 net.cpp:91] Creating Layer inception_4a/5x5_reduce
I0403 19:37:52.081696 25353 net.cpp:425] inception_4a/5x5_reduce <- pool3/3x3_s2_pool3/3x3_s2_0_split_2
I0403 19:37:52.081717 25353 net.cpp:399] inception_4a/5x5_reduce -> inception_4a/5x5_reduce
I0403 19:37:52.082684 25353 net.cpp:141] Setting up inception_4a/5x5_reduce
I0403 19:37:52.082718 25353 net.cpp:148] Top shape: 24 16 14 14 (75264)
I0403 19:37:52.082738 25353 net.cpp:156] Memory required for data: 873364512
I0403 19:37:52.082756 25353 layer_factory.hpp:77] Creating layer inception_4a/relu_5x5_reduce
I0403 19:37:52.082775 25353 net.cpp:91] Creating Layer inception_4a/relu_5x5_reduce
I0403 19:37:52.082794 25353 net.cpp:425] inception_4a/relu_5x5_reduce <- inception_4a/5x5_reduce
I0403 19:37:52.082815 25353 net.cpp:386] inception_4a/relu_5x5_reduce -> inception_4a/5x5_reduce (in-place)
I0403 19:37:52.082983 25353 net.cpp:141] Setting up inception_4a/relu_5x5_reduce
I0403 19:37:52.083011 25353 net.cpp:148] Top shape: 24 16 14 14 (75264)
I0403 19:37:52.083029 25353 net.cpp:156] Memory required for data: 873665568
I0403 19:37:52.083045 25353 layer_factory.hpp:77] Creating layer inception_4a/5x5
I0403 19:37:52.083066 25353 net.cpp:91] Creating Layer inception_4a/5x5
I0403 19:37:52.083087 25353 net.cpp:425] inception_4a/5x5 <- inception_4a/5x5_reduce
I0403 19:37:52.083107 25353 net.cpp:399] inception_4a/5x5 -> inception_4a/5x5
I0403 19:37:52.084130 25353 net.cpp:141] Setting up inception_4a/5x5
I0403 19:37:52.084158 25353 net.cpp:148] Top shape: 24 48 14 14 (225792)
I0403 19:37:52.084174 25353 net.cpp:156] Memory required for data: 874568736
I0403 19:37:52.084192 25353 layer_factory.hpp:77] Creating layer inception_4a/relu_5x5
I0403 19:37:52.084210 25353 net.cpp:91] Creating Layer inception_4a/relu_5x5
I0403 19:37:52.084228 25353 net.cpp:425] inception_4a/relu_5x5 <- inception_4a/5x5
I0403 19:37:52.084247 25353 net.cpp:386] inception_4a/relu_5x5 -> inception_4a/5x5 (in-place)
I0403 19:37:52.084431 25353 net.cpp:141] Setting up inception_4a/relu_5x5
I0403 19:37:52.084462 25353 net.cpp:148] Top shape: 24 48 14 14 (225792)
I0403 19:37:52.084478 25353 net.cpp:156] Memory required for data: 875471904
I0403 19:37:52.084493 25353 layer_factory.hpp:77] Creating layer inception_4a/pool
I0403 19:37:52.084514 25353 net.cpp:91] Creating Layer inception_4a/pool
I0403 19:37:52.084532 25353 net.cpp:425] inception_4a/pool <- pool3/3x3_s2_pool3/3x3_s2_0_split_3
I0403 19:37:52.084547 25353 net.cpp:399] inception_4a/pool -> inception_4a/pool
I0403 19:37:52.084606 25353 net.cpp:141] Setting up inception_4a/pool
I0403 19:37:52.084636 25353 net.cpp:148] Top shape: 24 480 14 14 (2257920)
I0403 19:37:52.084651 25353 net.cpp:156] Memory required for data: 884503584
I0403 19:37:52.084666 25353 layer_factory.hpp:77] Creating layer inception_4a/pool_proj
I0403 19:37:52.084688 25353 net.cpp:91] Creating Layer inception_4a/pool_proj
I0403 19:37:52.084707 25353 net.cpp:425] inception_4a/pool_proj <- inception_4a/pool
I0403 19:37:52.084728 25353 net.cpp:399] inception_4a/pool_proj -> inception_4a/pool_proj
I0403 19:37:52.085829 25353 net.cpp:141] Setting up inception_4a/pool_proj
I0403 19:37:52.085863 25353 net.cpp:148] Top shape: 24 64 14 14 (301056)
I0403 19:37:52.085896 25353 net.cpp:156] Memory required for data: 885707808
I0403 19:37:52.085916 25353 layer_factory.hpp:77] Creating layer inception_4a/relu_pool_proj
I0403 19:37:52.085933 25353 net.cpp:91] Creating Layer inception_4a/relu_pool_proj
I0403 19:37:52.085949 25353 net.cpp:425] inception_4a/relu_pool_proj <- inception_4a/pool_proj
I0403 19:37:52.085970 25353 net.cpp:386] inception_4a/relu_pool_proj -> inception_4a/pool_proj (in-place)
I0403 19:37:52.086239 25353 net.cpp:141] Setting up inception_4a/relu_pool_proj
I0403 19:37:52.086269 25353 net.cpp:148] Top shape: 24 64 14 14 (301056)
I0403 19:37:52.086289 25353 net.cpp:156] Memory required for data: 886912032
I0403 19:37:52.086307 25353 layer_factory.hpp:77] Creating layer inception_4a/output
I0403 19:37:52.086326 25353 net.cpp:91] Creating Layer inception_4a/output
I0403 19:37:52.086341 25353 net.cpp:425] inception_4a/output <- inception_4a/1x1
I0403 19:37:52.086359 25353 net.cpp:425] inception_4a/output <- inception_4a/3x3
I0403 19:37:52.086379 25353 net.cpp:425] inception_4a/output <- inception_4a/5x5
I0403 19:37:52.086395 25353 net.cpp:425] inception_4a/output <- inception_4a/pool_proj
I0403 19:37:52.086415 25353 net.cpp:399] inception_4a/output -> inception_4a/output
I0403 19:37:52.086457 25353 net.cpp:141] Setting up inception_4a/output
I0403 19:37:52.086488 25353 net.cpp:148] Top shape: 24 512 14 14 (2408448)
I0403 19:37:52.086503 25353 net.cpp:156] Memory required for data: 896545824
I0403 19:37:52.086519 25353 layer_factory.hpp:77] Creating layer inception_4a/output_inception_4a/output_0_split
I0403 19:37:52.086539 25353 net.cpp:91] Creating Layer inception_4a/output_inception_4a/output_0_split
I0403 19:37:52.086555 25353 net.cpp:425] inception_4a/output_inception_4a/output_0_split <- inception_4a/output
I0403 19:37:52.086573 25353 net.cpp:399] inception_4a/output_inception_4a/output_0_split -> inception_4a/output_inception_4a/output_0_split_0
I0403 19:37:52.086596 25353 net.cpp:399] inception_4a/output_inception_4a/output_0_split -> inception_4a/output_inception_4a/output_0_split_1
I0403 19:37:52.086617 25353 net.cpp:399] inception_4a/output_inception_4a/output_0_split -> inception_4a/output_inception_4a/output_0_split_2
I0403 19:37:52.086640 25353 net.cpp:399] inception_4a/output_inception_4a/output_0_split -> inception_4a/output_inception_4a/output_0_split_3
I0403 19:37:52.086663 25353 net.cpp:399] inception_4a/output_inception_4a/output_0_split -> inception_4a/output_inception_4a/output_0_split_4
I0403 19:37:52.086751 25353 net.cpp:141] Setting up inception_4a/output_inception_4a/output_0_split
I0403 19:37:52.086779 25353 net.cpp:148] Top shape: 24 512 14 14 (2408448)
I0403 19:37:52.086798 25353 net.cpp:148] Top shape: 24 512 14 14 (2408448)
I0403 19:37:52.086814 25353 net.cpp:148] Top shape: 24 512 14 14 (2408448)
I0403 19:37:52.086828 25353 net.cpp:148] Top shape: 24 512 14 14 (2408448)
I0403 19:37:52.086845 25353 net.cpp:148] Top shape: 24 512 14 14 (2408448)
I0403 19:37:52.086860 25353 net.cpp:156] Memory required for data: 944714784
I0403 19:37:52.086874 25353 layer_factory.hpp:77] Creating layer loss1/ave_pool
I0403 19:37:52.086892 25353 net.cpp:91] Creating Layer loss1/ave_pool
I0403 19:37:52.086908 25353 net.cpp:425] loss1/ave_pool <- inception_4a/output_inception_4a/output_0_split_0
I0403 19:37:52.086927 25353 net.cpp:399] loss1/ave_pool -> loss1/ave_pool
I0403 19:37:52.087136 25353 net.cpp:141] Setting up loss1/ave_pool
I0403 19:37:52.087164 25353 net.cpp:148] Top shape: 24 512 4 4 (196608)
I0403 19:37:52.087180 25353 net.cpp:156] Memory required for data: 945501216
I0403 19:37:52.087194 25353 layer_factory.hpp:77] Creating layer loss1/conv
I0403 19:37:52.087216 25353 net.cpp:91] Creating Layer loss1/conv
I0403 19:37:52.087239 25353 net.cpp:425] loss1/conv <- loss1/ave_pool
I0403 19:37:52.087260 25353 net.cpp:399] loss1/conv -> loss1/conv
I0403 19:37:52.088583 25353 net.cpp:141] Setting up loss1/conv
I0403 19:37:52.088616 25353 net.cpp:148] Top shape: 24 128 4 4 (49152)
I0403 19:37:52.088647 25353 net.cpp:156] Memory required for data: 945697824
I0403 19:37:52.088666 25353 layer_factory.hpp:77] Creating layer loss1/relu_conv
I0403 19:37:52.088687 25353 net.cpp:91] Creating Layer loss1/relu_conv
I0403 19:37:52.088706 25353 net.cpp:425] loss1/relu_conv <- loss1/conv
I0403 19:37:52.088726 25353 net.cpp:386] loss1/relu_conv -> loss1/conv (in-place)
I0403 19:37:52.088994 25353 net.cpp:141] Setting up loss1/relu_conv
I0403 19:37:52.089025 25353 net.cpp:148] Top shape: 24 128 4 4 (49152)
I0403 19:37:52.089041 25353 net.cpp:156] Memory required for data: 945894432
I0403 19:37:52.089056 25353 layer_factory.hpp:77] Creating layer loss1/fc
I0403 19:37:52.089085 25353 net.cpp:91] Creating Layer loss1/fc
I0403 19:37:52.089105 25353 net.cpp:425] loss1/fc <- loss1/conv
I0403 19:37:52.089128 25353 net.cpp:399] loss1/fc -> loss1/fc
I0403 19:37:52.106118 25353 net.cpp:141] Setting up loss1/fc
I0403 19:37:52.106154 25353 net.cpp:148] Top shape: 24 1024 (24576)
I0403 19:37:52.106171 25353 net.cpp:156] Memory required for data: 945992736
I0403 19:37:52.106190 25353 layer_factory.hpp:77] Creating layer loss1/relu_fc
I0403 19:37:52.106209 25353 net.cpp:91] Creating Layer loss1/relu_fc
I0403 19:37:52.106226 25353 net.cpp:425] loss1/relu_fc <- loss1/fc
I0403 19:37:52.106246 25353 net.cpp:386] loss1/relu_fc -> loss1/fc (in-place)
I0403 19:37:52.106453 25353 net.cpp:141] Setting up loss1/relu_fc
I0403 19:37:52.106482 25353 net.cpp:148] Top shape: 24 1024 (24576)
I0403 19:37:52.106498 25353 net.cpp:156] Memory required for data: 946091040
I0403 19:37:52.106513 25353 layer_factory.hpp:77] Creating layer loss1/drop_fc
I0403 19:37:52.106541 25353 net.cpp:91] Creating Layer loss1/drop_fc
I0403 19:37:52.106560 25353 net.cpp:425] loss1/drop_fc <- loss1/fc
I0403 19:37:52.106580 25353 net.cpp:386] loss1/drop_fc -> loss1/fc (in-place)
I0403 19:37:52.106634 25353 net.cpp:141] Setting up loss1/drop_fc
I0403 19:37:52.106663 25353 net.cpp:148] Top shape: 24 1024 (24576)
I0403 19:37:52.106679 25353 net.cpp:156] Memory required for data: 946189344
I0403 19:37:52.106695 25353 layer_factory.hpp:77] Creating layer loss1/classifier_plantvillage
I0403 19:37:52.106714 25353 net.cpp:91] Creating Layer loss1/classifier_plantvillage
I0403 19:37:52.106731 25353 net.cpp:425] loss1/classifier_plantvillage <- loss1/fc
I0403 19:37:52.106753 25353 net.cpp:399] loss1/classifier_plantvillage -> loss1/classifier_plantvillage
I0403 19:37:52.107650 25353 net.cpp:141] Setting up loss1/classifier_plantvillage
I0403 19:37:52.107683 25353 net.cpp:148] Top shape: 24 38 (912)
I0403 19:37:52.107702 25353 net.cpp:156] Memory required for data: 946192992
I0403 19:37:52.107720 25353 layer_factory.hpp:77] Creating layer loss1/classifier_plantvillage_loss1/classifier_plantvillage_0_split
I0403 19:37:52.107740 25353 net.cpp:91] Creating Layer loss1/classifier_plantvillage_loss1/classifier_plantvillage_0_split
I0403 19:37:52.107758 25353 net.cpp:425] loss1/classifier_plantvillage_loss1/classifier_plantvillage_0_split <- loss1/classifier_plantvillage
I0403 19:37:52.107776 25353 net.cpp:399] loss1/classifier_plantvillage_loss1/classifier_plantvillage_0_split -> loss1/classifier_plantvillage_loss1/classifier_plantvillage_0_split_0
I0403 19:37:52.107798 25353 net.cpp:399] loss1/classifier_plantvillage_loss1/classifier_plantvillage_0_split -> loss1/classifier_plantvillage_loss1/classifier_plantvillage_0_split_1
I0403 19:37:52.107820 25353 net.cpp:399] loss1/classifier_plantvillage_loss1/classifier_plantvillage_0_split -> loss1/classifier_plantvillage_loss1/classifier_plantvillage_0_split_2
I0403 19:37:52.107888 25353 net.cpp:141] Setting up loss1/classifier_plantvillage_loss1/classifier_plantvillage_0_split
I0403 19:37:52.107913 25353 net.cpp:148] Top shape: 24 38 (912)
I0403 19:37:52.107931 25353 net.cpp:148] Top shape: 24 38 (912)
I0403 19:37:52.107947 25353 net.cpp:148] Top shape: 24 38 (912)
I0403 19:37:52.107962 25353 net.cpp:156] Memory required for data: 946203936
I0403 19:37:52.107978 25353 layer_factory.hpp:77] Creating layer inception_4b/1x1
I0403 19:37:52.108000 25353 net.cpp:91] Creating Layer inception_4b/1x1
I0403 19:37:52.108033 25353 net.cpp:425] inception_4b/1x1 <- inception_4a/output_inception_4a/output_0_split_1
I0403 19:37:52.108058 25353 net.cpp:399] inception_4b/1x1 -> inception_4b/1x1
I0403 19:37:52.109652 25353 net.cpp:141] Setting up inception_4b/1x1
I0403 19:37:52.109683 25353 net.cpp:148] Top shape: 24 160 14 14 (752640)
I0403 19:37:52.109704 25353 net.cpp:156] Memory required for data: 949214496
I0403 19:37:52.109724 25353 layer_factory.hpp:77] Creating layer inception_4b/relu_1x1
I0403 19:37:52.109743 25353 net.cpp:91] Creating Layer inception_4b/relu_1x1
I0403 19:37:52.109760 25353 net.cpp:425] inception_4b/relu_1x1 <- inception_4b/1x1
I0403 19:37:52.109776 25353 net.cpp:386] inception_4b/relu_1x1 -> inception_4b/1x1 (in-place)
I0403 19:37:52.109956 25353 net.cpp:141] Setting up inception_4b/relu_1x1
I0403 19:37:52.109988 25353 net.cpp:148] Top shape: 24 160 14 14 (752640)
I0403 19:37:52.110005 25353 net.cpp:156] Memory required for data: 952225056
I0403 19:37:52.110023 25353 layer_factory.hpp:77] Creating layer inception_4b/3x3_reduce
I0403 19:37:52.110046 25353 net.cpp:91] Creating Layer inception_4b/3x3_reduce
I0403 19:37:52.110067 25353 net.cpp:425] inception_4b/3x3_reduce <- inception_4a/output_inception_4a/output_0_split_2
I0403 19:37:52.110087 25353 net.cpp:399] inception_4b/3x3_reduce -> inception_4b/3x3_reduce
I0403 19:37:52.111403 25353 net.cpp:141] Setting up inception_4b/3x3_reduce
I0403 19:37:52.111438 25353 net.cpp:148] Top shape: 24 112 14 14 (526848)
I0403 19:37:52.111457 25353 net.cpp:156] Memory required for data: 954332448
I0403 19:37:52.111476 25353 layer_factory.hpp:77] Creating layer inception_4b/relu_3x3_reduce
I0403 19:37:52.111497 25353 net.cpp:91] Creating Layer inception_4b/relu_3x3_reduce
I0403 19:37:52.111515 25353 net.cpp:425] inception_4b/relu_3x3_reduce <- inception_4b/3x3_reduce
I0403 19:37:52.111536 25353 net.cpp:386] inception_4b/relu_3x3_reduce -> inception_4b/3x3_reduce (in-place)
I0403 19:37:52.111810 25353 net.cpp:141] Setting up inception_4b/relu_3x3_reduce
I0403 19:37:52.111845 25353 net.cpp:148] Top shape: 24 112 14 14 (526848)
I0403 19:37:52.111861 25353 net.cpp:156] Memory required for data: 956439840
I0403 19:37:52.111876 25353 layer_factory.hpp:77] Creating layer inception_4b/3x3
I0403 19:37:52.111901 25353 net.cpp:91] Creating Layer inception_4b/3x3
I0403 19:37:52.111919 25353 net.cpp:425] inception_4b/3x3 <- inception_4b/3x3_reduce
I0403 19:37:52.111938 25353 net.cpp:399] inception_4b/3x3 -> inception_4b/3x3
I0403 19:37:52.114879 25353 net.cpp:141] Setting up inception_4b/3x3
I0403 19:37:52.114912 25353 net.cpp:148] Top shape: 24 224 14 14 (1053696)
I0403 19:37:52.114929 25353 net.cpp:156] Memory required for data: 960654624
I0403 19:37:52.114946 25353 layer_factory.hpp:77] Creating layer inception_4b/relu_3x3
I0403 19:37:52.114967 25353 net.cpp:91] Creating Layer inception_4b/relu_3x3
I0403 19:37:52.114985 25353 net.cpp:425] inception_4b/relu_3x3 <- inception_4b/3x3
I0403 19:37:52.115005 25353 net.cpp:386] inception_4b/relu_3x3 -> inception_4b/3x3 (in-place)
I0403 19:37:52.115183 25353 net.cpp:141] Setting up inception_4b/relu_3x3
I0403 19:37:52.115212 25353 net.cpp:148] Top shape: 24 224 14 14 (1053696)
I0403 19:37:52.115231 25353 net.cpp:156] Memory required for data: 964869408
I0403 19:37:52.115244 25353 layer_factory.hpp:77] Creating layer inception_4b/5x5_reduce
I0403 19:37:52.115270 25353 net.cpp:91] Creating Layer inception_4b/5x5_reduce
I0403 19:37:52.115294 25353 net.cpp:425] inception_4b/5x5_reduce <- inception_4a/output_inception_4a/output_0_split_3
I0403 19:37:52.115319 25353 net.cpp:399] inception_4b/5x5_reduce -> inception_4b/5x5_reduce
I0403 19:37:52.116389 25353 net.cpp:141] Setting up inception_4b/5x5_reduce
I0403 19:37:52.116421 25353 net.cpp:148] Top shape: 24 24 14 14 (112896)
I0403 19:37:52.116439 25353 net.cpp:156] Memory required for data: 965320992
I0403 19:37:52.116457 25353 layer_factory.hpp:77] Creating layer inception_4b/relu_5x5_reduce
I0403 19:37:52.116477 25353 net.cpp:91] Creating Layer inception_4b/relu_5x5_reduce
I0403 19:37:52.116510 25353 net.cpp:425] inception_4b/relu_5x5_reduce <- inception_4b/5x5_reduce
I0403 19:37:52.116533 25353 net.cpp:386] inception_4b/relu_5x5_reduce -> inception_4b/5x5_reduce (in-place)
I0403 19:37:52.116713 25353 net.cpp:141] Setting up inception_4b/relu_5x5_reduce
I0403 19:37:52.116741 25353 net.cpp:148] Top shape: 24 24 14 14 (112896)
I0403 19:37:52.116756 25353 net.cpp:156] Memory required for data: 965772576
I0403 19:37:52.116771 25353 layer_factory.hpp:77] Creating layer inception_4b/5x5
I0403 19:37:52.116796 25353 net.cpp:91] Creating Layer inception_4b/5x5
I0403 19:37:52.116816 25353 net.cpp:425] inception_4b/5x5 <- inception_4b/5x5_reduce
I0403 19:37:52.116839 25353 net.cpp:399] inception_4b/5x5 -> inception_4b/5x5
I0403 19:37:52.118032 25353 net.cpp:141] Setting up inception_4b/5x5
I0403 19:37:52.118067 25353 net.cpp:148] Top shape: 24 64 14 14 (301056)
I0403 19:37:52.118088 25353 net.cpp:156] Memory required for data: 966976800
I0403 19:37:52.118108 25353 layer_factory.hpp:77] Creating layer inception_4b/relu_5x5
I0403 19:37:52.118127 25353 net.cpp:91] Creating Layer inception_4b/relu_5x5
I0403 19:37:52.118145 25353 net.cpp:425] inception_4b/relu_5x5 <- inception_4b/5x5
I0403 19:37:52.118165 25353 net.cpp:386] inception_4b/relu_5x5 -> inception_4b/5x5 (in-place)
I0403 19:37:52.118449 25353 net.cpp:141] Setting up inception_4b/relu_5x5
I0403 19:37:52.118477 25353 net.cpp:148] Top shape: 24 64 14 14 (301056)
I0403 19:37:52.118499 25353 net.cpp:156] Memory required for data: 968181024
I0403 19:37:52.118515 25353 layer_factory.hpp:77] Creating layer inception_4b/pool
I0403 19:37:52.118536 25353 net.cpp:91] Creating Layer inception_4b/pool
I0403 19:37:52.118553 25353 net.cpp:425] inception_4b/pool <- inception_4a/output_inception_4a/output_0_split_4
I0403 19:37:52.118571 25353 net.cpp:399] inception_4b/pool -> inception_4b/pool
I0403 19:37:52.118638 25353 net.cpp:141] Setting up inception_4b/pool
I0403 19:37:52.118664 25353 net.cpp:148] Top shape: 24 512 14 14 (2408448)
I0403 19:37:52.118680 25353 net.cpp:156] Memory required for data: 977814816
I0403 19:37:52.118696 25353 layer_factory.hpp:77] Creating layer inception_4b/pool_proj
I0403 19:37:52.118721 25353 net.cpp:91] Creating Layer inception_4b/pool_proj
I0403 19:37:52.118741 25353 net.cpp:425] inception_4b/pool_proj <- inception_4b/pool
I0403 19:37:52.118762 25353 net.cpp:399] inception_4b/pool_proj -> inception_4b/pool_proj
I0403 19:37:52.119932 25353 net.cpp:141] Setting up inception_4b/pool_proj
I0403 19:37:52.119967 25353 net.cpp:148] Top shape: 24 64 14 14 (301056)
I0403 19:37:52.119987 25353 net.cpp:156] Memory required for data: 979019040
I0403 19:37:52.120005 25353 layer_factory.hpp:77] Creating layer inception_4b/relu_pool_proj
I0403 19:37:52.120024 25353 net.cpp:91] Creating Layer inception_4b/relu_pool_proj
I0403 19:37:52.120041 25353 net.cpp:425] inception_4b/relu_pool_proj <- inception_4b/pool_proj
I0403 19:37:52.120059 25353 net.cpp:386] inception_4b/relu_pool_proj -> inception_4b/pool_proj (in-place)
I0403 19:37:52.120239 25353 net.cpp:141] Setting up inception_4b/relu_pool_proj
I0403 19:37:52.120267 25353 net.cpp:148] Top shape: 24 64 14 14 (301056)
I0403 19:37:52.120285 25353 net.cpp:156] Memory required for data: 980223264
I0403 19:37:52.120304 25353 layer_factory.hpp:77] Creating layer inception_4b/output
I0403 19:37:52.120322 25353 net.cpp:91] Creating Layer inception_4b/output
I0403 19:37:52.120339 25353 net.cpp:425] inception_4b/output <- inception_4b/1x1
I0403 19:37:52.120357 25353 net.cpp:425] inception_4b/output <- inception_4b/3x3
I0403 19:37:52.120374 25353 net.cpp:425] inception_4b/output <- inception_4b/5x5
I0403 19:37:52.120393 25353 net.cpp:425] inception_4b/output <- inception_4b/pool_proj
I0403 19:37:52.120415 25353 net.cpp:399] inception_4b/output -> inception_4b/output
I0403 19:37:52.120462 25353 net.cpp:141] Setting up inception_4b/output
I0403 19:37:52.120492 25353 net.cpp:148] Top shape: 24 512 14 14 (2408448)
I0403 19:37:52.120510 25353 net.cpp:156] Memory required for data: 989857056
I0403 19:37:52.120543 25353 layer_factory.hpp:77] Creating layer inception_4b/output_inception_4b/output_0_split
I0403 19:37:52.120563 25353 net.cpp:91] Creating Layer inception_4b/output_inception_4b/output_0_split
I0403 19:37:52.120579 25353 net.cpp:425] inception_4b/output_inception_4b/output_0_split <- inception_4b/output
I0403 19:37:52.120597 25353 net.cpp:399] inception_4b/output_inception_4b/output_0_split -> inception_4b/output_inception_4b/output_0_split_0
I0403 19:37:52.120621 25353 net.cpp:399] inception_4b/output_inception_4b/output_0_split -> inception_4b/output_inception_4b/output_0_split_1
I0403 19:37:52.120643 25353 net.cpp:399] inception_4b/output_inception_4b/output_0_split -> inception_4b/output_inception_4b/output_0_split_2
I0403 19:37:52.120663 25353 net.cpp:399] inception_4b/output_inception_4b/output_0_split -> inception_4b/output_inception_4b/output_0_split_3
I0403 19:37:52.120746 25353 net.cpp:141] Setting up inception_4b/output_inception_4b/output_0_split
I0403 19:37:52.120777 25353 net.cpp:148] Top shape: 24 512 14 14 (2408448)
I0403 19:37:52.120793 25353 net.cpp:148] Top shape: 24 512 14 14 (2408448)
I0403 19:37:52.120810 25353 net.cpp:148] Top shape: 24 512 14 14 (2408448)
I0403 19:37:52.120826 25353 net.cpp:148] Top shape: 24 512 14 14 (2408448)
I0403 19:37:52.120841 25353 net.cpp:156] Memory required for data: 1028392224
I0403 19:37:52.120857 25353 layer_factory.hpp:77] Creating layer inception_4c/1x1
I0403 19:37:52.120880 25353 net.cpp:91] Creating Layer inception_4c/1x1
I0403 19:37:52.120898 25353 net.cpp:425] inception_4c/1x1 <- inception_4b/output_inception_4b/output_0_split_0
I0403 19:37:52.120918 25353 net.cpp:399] inception_4c/1x1 -> inception_4c/1x1
I0403 19:37:52.122320 25353 net.cpp:141] Setting up inception_4c/1x1
I0403 19:37:52.122350 25353 net.cpp:148] Top shape: 24 128 14 14 (602112)
I0403 19:37:52.122369 25353 net.cpp:156] Memory required for data: 1030800672
I0403 19:37:52.122388 25353 layer_factory.hpp:77] Creating layer inception_4c/relu_1x1
I0403 19:37:52.122407 25353 net.cpp:91] Creating Layer inception_4c/relu_1x1
I0403 19:37:52.122424 25353 net.cpp:425] inception_4c/relu_1x1 <- inception_4c/1x1
I0403 19:37:52.122443 25353 net.cpp:386] inception_4c/relu_1x1 -> inception_4c/1x1 (in-place)
I0403 19:37:52.122622 25353 net.cpp:141] Setting up inception_4c/relu_1x1
I0403 19:37:52.122649 25353 net.cpp:148] Top shape: 24 128 14 14 (602112)
I0403 19:37:52.122665 25353 net.cpp:156] Memory required for data: 1033209120
I0403 19:37:52.122681 25353 layer_factory.hpp:77] Creating layer inception_4c/3x3_reduce
I0403 19:37:52.122704 25353 net.cpp:91] Creating Layer inception_4c/3x3_reduce
I0403 19:37:52.122722 25353 net.cpp:425] inception_4c/3x3_reduce <- inception_4b/output_inception_4b/output_0_split_1
I0403 19:37:52.122745 25353 net.cpp:399] inception_4c/3x3_reduce -> inception_4c/3x3_reduce
I0403 19:37:52.124688 25353 net.cpp:141] Setting up inception_4c/3x3_reduce
I0403 19:37:52.124721 25353 net.cpp:148] Top shape: 24 128 14 14 (602112)
I0403 19:37:52.124739 25353 net.cpp:156] Memory required for data: 1035617568
I0403 19:37:52.124757 25353 layer_factory.hpp:77] Creating layer inception_4c/relu_3x3_reduce
I0403 19:37:52.124780 25353 net.cpp:91] Creating Layer inception_4c/relu_3x3_reduce
I0403 19:37:52.124801 25353 net.cpp:425] inception_4c/relu_3x3_reduce <- inception_4c/3x3_reduce
I0403 19:37:52.124819 25353 net.cpp:386] inception_4c/relu_3x3_reduce -> inception_4c/3x3_reduce (in-place)
I0403 19:37:52.125093 25353 net.cpp:141] Setting up inception_4c/relu_3x3_reduce
I0403 19:37:52.125121 25353 net.cpp:148] Top shape: 24 128 14 14 (602112)
I0403 19:37:52.125138 25353 net.cpp:156] Memory required for data: 1038026016
I0403 19:37:52.125154 25353 layer_factory.hpp:77] Creating layer inception_4c/3x3
I0403 19:37:52.125179 25353 net.cpp:91] Creating Layer inception_4c/3x3
I0403 19:37:52.125197 25353 net.cpp:425] inception_4c/3x3 <- inception_4c/3x3_reduce
I0403 19:37:52.125216 25353 net.cpp:399] inception_4c/3x3 -> inception_4c/3x3
I0403 19:37:52.128643 25353 net.cpp:141] Setting up inception_4c/3x3
I0403 19:37:52.128690 25353 net.cpp:148] Top shape: 24 256 14 14 (1204224)
I0403 19:37:52.128708 25353 net.cpp:156] Memory required for data: 1042842912
I0403 19:37:52.128741 25353 layer_factory.hpp:77] Creating layer inception_4c/relu_3x3
I0403 19:37:52.128763 25353 net.cpp:91] Creating Layer inception_4c/relu_3x3
I0403 19:37:52.128782 25353 net.cpp:425] inception_4c/relu_3x3 <- inception_4c/3x3
I0403 19:37:52.128800 25353 net.cpp:386] inception_4c/relu_3x3 -> inception_4c/3x3 (in-place)
I0403 19:37:52.128983 25353 net.cpp:141] Setting up inception_4c/relu_3x3
I0403 19:37:52.129012 25353 net.cpp:148] Top shape: 24 256 14 14 (1204224)
I0403 19:37:52.129031 25353 net.cpp:156] Memory required for data: 1047659808
I0403 19:37:52.129046 25353 layer_factory.hpp:77] Creating layer inception_4c/5x5_reduce
I0403 19:37:52.129070 25353 net.cpp:91] Creating Layer inception_4c/5x5_reduce
I0403 19:37:52.129089 25353 net.cpp:425] inception_4c/5x5_reduce <- inception_4b/output_inception_4b/output_0_split_2
I0403 19:37:52.129108 25353 net.cpp:399] inception_4c/5x5_reduce -> inception_4c/5x5_reduce
I0403 19:37:52.130162 25353 net.cpp:141] Setting up inception_4c/5x5_reduce
I0403 19:37:52.130193 25353 net.cpp:148] Top shape: 24 24 14 14 (112896)
I0403 19:37:52.130210 25353 net.cpp:156] Memory required for data: 1048111392
I0403 19:37:52.130231 25353 layer_factory.hpp:77] Creating layer inception_4c/relu_5x5_reduce
I0403 19:37:52.130252 25353 net.cpp:91] Creating Layer inception_4c/relu_5x5_reduce
I0403 19:37:52.130270 25353 net.cpp:425] inception_4c/relu_5x5_reduce <- inception_4c/5x5_reduce
I0403 19:37:52.130293 25353 net.cpp:386] inception_4c/relu_5x5_reduce -> inception_4c/5x5_reduce (in-place)
I0403 19:37:52.130475 25353 net.cpp:141] Setting up inception_4c/relu_5x5_reduce
I0403 19:37:52.130503 25353 net.cpp:148] Top shape: 24 24 14 14 (112896)
I0403 19:37:52.130518 25353 net.cpp:156] Memory required for data: 1048562976
I0403 19:37:52.130534 25353 layer_factory.hpp:77] Creating layer inception_4c/5x5
I0403 19:37:52.130558 25353 net.cpp:91] Creating Layer inception_4c/5x5
I0403 19:37:52.130574 25353 net.cpp:425] inception_4c/5x5 <- inception_4c/5x5_reduce
I0403 19:37:52.130595 25353 net.cpp:399] inception_4c/5x5 -> inception_4c/5x5
I0403 19:37:52.131781 25353 net.cpp:141] Setting up inception_4c/5x5
I0403 19:37:52.131813 25353 net.cpp:148] Top shape: 24 64 14 14 (301056)
I0403 19:37:52.131829 25353 net.cpp:156] Memory required for data: 1049767200
I0403 19:37:52.131849 25353 layer_factory.hpp:77] Creating layer inception_4c/relu_5x5
I0403 19:37:52.131867 25353 net.cpp:91] Creating Layer inception_4c/relu_5x5
I0403 19:37:52.131886 25353 net.cpp:425] inception_4c/relu_5x5 <- inception_4c/5x5
I0403 19:37:52.131906 25353 net.cpp:386] inception_4c/relu_5x5 -> inception_4c/5x5 (in-place)
I0403 19:37:52.132182 25353 net.cpp:141] Setting up inception_4c/relu_5x5
I0403 19:37:52.132212 25353 net.cpp:148] Top shape: 24 64 14 14 (301056)
I0403 19:37:52.132228 25353 net.cpp:156] Memory required for data: 1050971424
I0403 19:37:52.132246 25353 layer_factory.hpp:77] Creating layer inception_4c/pool
I0403 19:37:52.132263 25353 net.cpp:91] Creating Layer inception_4c/pool
I0403 19:37:52.132279 25353 net.cpp:425] inception_4c/pool <- inception_4b/output_inception_4b/output_0_split_3
I0403 19:37:52.132305 25353 net.cpp:399] inception_4c/pool -> inception_4c/pool
I0403 19:37:52.132371 25353 net.cpp:141] Setting up inception_4c/pool
I0403 19:37:52.132402 25353 net.cpp:148] Top shape: 24 512 14 14 (2408448)
I0403 19:37:52.132419 25353 net.cpp:156] Memory required for data: 1060605216
I0403 19:37:52.132436 25353 layer_factory.hpp:77] Creating layer inception_4c/pool_proj
I0403 19:37:52.132458 25353 net.cpp:91] Creating Layer inception_4c/pool_proj
I0403 19:37:52.132479 25353 net.cpp:425] inception_4c/pool_proj <- inception_4c/pool
I0403 19:37:52.132498 25353 net.cpp:399] inception_4c/pool_proj -> inception_4c/pool_proj
I0403 19:37:52.133652 25353 net.cpp:141] Setting up inception_4c/pool_proj
I0403 19:37:52.133688 25353 net.cpp:148] Top shape: 24 64 14 14 (301056)
I0403 19:37:52.133720 25353 net.cpp:156] Memory required for data: 1061809440
I0403 19:37:52.133740 25353 layer_factory.hpp:77] Creating layer inception_4c/relu_pool_proj
I0403 19:37:52.133759 25353 net.cpp:91] Creating Layer inception_4c/relu_pool_proj
I0403 19:37:52.133775 25353 net.cpp:425] inception_4c/relu_pool_proj <- inception_4c/pool_proj
I0403 19:37:52.133792 25353 net.cpp:386] inception_4c/relu_pool_proj -> inception_4c/pool_proj (in-place)
I0403 19:37:52.133971 25353 net.cpp:141] Setting up inception_4c/relu_pool_proj
I0403 19:37:52.133999 25353 net.cpp:148] Top shape: 24 64 14 14 (301056)
I0403 19:37:52.134016 25353 net.cpp:156] Memory required for data: 1063013664
I0403 19:37:52.134029 25353 layer_factory.hpp:77] Creating layer inception_4c/output
I0403 19:37:52.134048 25353 net.cpp:91] Creating Layer inception_4c/output
I0403 19:37:52.134064 25353 net.cpp:425] inception_4c/output <- inception_4c/1x1
I0403 19:37:52.134083 25353 net.cpp:425] inception_4c/output <- inception_4c/3x3
I0403 19:37:52.134098 25353 net.cpp:425] inception_4c/output <- inception_4c/5x5
I0403 19:37:52.134114 25353 net.cpp:425] inception_4c/output <- inception_4c/pool_proj
I0403 19:37:52.134133 25353 net.cpp:399] inception_4c/output -> inception_4c/output
I0403 19:37:52.134179 25353 net.cpp:141] Setting up inception_4c/output
I0403 19:37:52.134207 25353 net.cpp:148] Top shape: 24 512 14 14 (2408448)
I0403 19:37:52.134223 25353 net.cpp:156] Memory required for data: 1072647456
I0403 19:37:52.134238 25353 layer_factory.hpp:77] Creating layer inception_4c/output_inception_4c/output_0_split
I0403 19:37:52.134258 25353 net.cpp:91] Creating Layer inception_4c/output_inception_4c/output_0_split
I0403 19:37:52.134275 25353 net.cpp:425] inception_4c/output_inception_4c/output_0_split <- inception_4c/output
I0403 19:37:52.134305 25353 net.cpp:399] inception_4c/output_inception_4c/output_0_split -> inception_4c/output_inception_4c/output_0_split_0
I0403 19:37:52.134332 25353 net.cpp:399] inception_4c/output_inception_4c/output_0_split -> inception_4c/output_inception_4c/output_0_split_1
I0403 19:37:52.134356 25353 net.cpp:399] inception_4c/output_inception_4c/output_0_split -> inception_4c/output_inception_4c/output_0_split_2
I0403 19:37:52.134378 25353 net.cpp:399] inception_4c/output_inception_4c/output_0_split -> inception_4c/output_inception_4c/output_0_split_3
I0403 19:37:52.134460 25353 net.cpp:141] Setting up inception_4c/output_inception_4c/output_0_split
I0403 19:37:52.134485 25353 net.cpp:148] Top shape: 24 512 14 14 (2408448)
I0403 19:37:52.134503 25353 net.cpp:148] Top shape: 24 512 14 14 (2408448)
I0403 19:37:52.134519 25353 net.cpp:148] Top shape: 24 512 14 14 (2408448)
I0403 19:37:52.134536 25353 net.cpp:148] Top shape: 24 512 14 14 (2408448)
I0403 19:37:52.134549 25353 net.cpp:156] Memory required for data: 1111182624
I0403 19:37:52.134567 25353 layer_factory.hpp:77] Creating layer inception_4d/1x1
I0403 19:37:52.134589 25353 net.cpp:91] Creating Layer inception_4d/1x1
I0403 19:37:52.134609 25353 net.cpp:425] inception_4d/1x1 <- inception_4c/output_inception_4c/output_0_split_0
I0403 19:37:52.134630 25353 net.cpp:399] inception_4d/1x1 -> inception_4d/1x1
I0403 19:37:52.135934 25353 net.cpp:141] Setting up inception_4d/1x1
I0403 19:37:52.135965 25353 net.cpp:148] Top shape: 24 112 14 14 (526848)
I0403 19:37:52.135982 25353 net.cpp:156] Memory required for data: 1113290016
I0403 19:37:52.136003 25353 layer_factory.hpp:77] Creating layer inception_4d/relu_1x1
I0403 19:37:52.136023 25353 net.cpp:91] Creating Layer inception_4d/relu_1x1
I0403 19:37:52.136044 25353 net.cpp:425] inception_4d/relu_1x1 <- inception_4d/1x1
I0403 19:37:52.136062 25353 net.cpp:386] inception_4d/relu_1x1 -> inception_4d/1x1 (in-place)
I0403 19:37:52.136243 25353 net.cpp:141] Setting up inception_4d/relu_1x1
I0403 19:37:52.136272 25353 net.cpp:148] Top shape: 24 112 14 14 (526848)
I0403 19:37:52.136293 25353 net.cpp:156] Memory required for data: 1115397408
I0403 19:37:52.136312 25353 layer_factory.hpp:77] Creating layer inception_4d/3x3_reduce
I0403 19:37:52.136350 25353 net.cpp:91] Creating Layer inception_4d/3x3_reduce
I0403 19:37:52.136371 25353 net.cpp:425] inception_4d/3x3_reduce <- inception_4c/output_inception_4c/output_0_split_1
I0403 19:37:52.136391 25353 net.cpp:399] inception_4d/3x3_reduce -> inception_4d/3x3_reduce
I0403 19:37:52.137819 25353 net.cpp:141] Setting up inception_4d/3x3_reduce
I0403 19:37:52.137850 25353 net.cpp:148] Top shape: 24 144 14 14 (677376)
I0403 19:37:52.137866 25353 net.cpp:156] Memory required for data: 1118106912
I0403 19:37:52.137884 25353 layer_factory.hpp:77] Creating layer inception_4d/relu_3x3_reduce
I0403 19:37:52.137903 25353 net.cpp:91] Creating Layer inception_4d/relu_3x3_reduce
I0403 19:37:52.137919 25353 net.cpp:425] inception_4d/relu_3x3_reduce <- inception_4d/3x3_reduce
I0403 19:37:52.137940 25353 net.cpp:386] inception_4d/relu_3x3_reduce -> inception_4d/3x3_reduce (in-place)
I0403 19:37:52.138217 25353 net.cpp:141] Setting up inception_4d/relu_3x3_reduce
I0403 19:37:52.138249 25353 net.cpp:148] Top shape: 24 144 14 14 (677376)
I0403 19:37:52.138267 25353 net.cpp:156] Memory required for data: 1120816416
I0403 19:37:52.138281 25353 layer_factory.hpp:77] Creating layer inception_4d/3x3
I0403 19:37:52.138310 25353 net.cpp:91] Creating Layer inception_4d/3x3
I0403 19:37:52.138332 25353 net.cpp:425] inception_4d/3x3 <- inception_4d/3x3_reduce
I0403 19:37:52.138355 25353 net.cpp:399] inception_4d/3x3 -> inception_4d/3x3
I0403 19:37:52.142422 25353 net.cpp:141] Setting up inception_4d/3x3
I0403 19:37:52.142455 25353 net.cpp:148] Top shape: 24 288 14 14 (1354752)
I0403 19:37:52.142473 25353 net.cpp:156] Memory required for data: 1126235424
I0403 19:37:52.142491 25353 layer_factory.hpp:77] Creating layer inception_4d/relu_3x3
I0403 19:37:52.142513 25353 net.cpp:91] Creating Layer inception_4d/relu_3x3
I0403 19:37:52.142534 25353 net.cpp:425] inception_4d/relu_3x3 <- inception_4d/3x3
I0403 19:37:52.142551 25353 net.cpp:386] inception_4d/relu_3x3 -> inception_4d/3x3 (in-place)
I0403 19:37:52.142725 25353 net.cpp:141] Setting up inception_4d/relu_3x3
I0403 19:37:52.142755 25353 net.cpp:148] Top shape: 24 288 14 14 (1354752)
I0403 19:37:52.142774 25353 net.cpp:156] Memory required for data: 1131654432
I0403 19:37:52.142789 25353 layer_factory.hpp:77] Creating layer inception_4d/5x5_reduce
I0403 19:37:52.142812 25353 net.cpp:91] Creating Layer inception_4d/5x5_reduce
I0403 19:37:52.142832 25353 net.cpp:425] inception_4d/5x5_reduce <- inception_4c/output_inception_4c/output_0_split_2
I0403 19:37:52.142851 25353 net.cpp:399] inception_4d/5x5_reduce -> inception_4d/5x5_reduce
I0403 19:37:52.143973 25353 net.cpp:141] Setting up inception_4d/5x5_reduce
I0403 19:37:52.144006 25353 net.cpp:148] Top shape: 24 32 14 14 (150528)
I0403 19:37:52.144023 25353 net.cpp:156] Memory required for data: 1132256544
I0403 19:37:52.144042 25353 layer_factory.hpp:77] Creating layer inception_4d/relu_5x5_reduce
I0403 19:37:52.144064 25353 net.cpp:91] Creating Layer inception_4d/relu_5x5_reduce
I0403 19:37:52.144083 25353 net.cpp:425] inception_4d/relu_5x5_reduce <- inception_4d/5x5_reduce
I0403 19:37:52.144101 25353 net.cpp:386] inception_4d/relu_5x5_reduce -> inception_4d/5x5_reduce (in-place)
I0403 19:37:52.144297 25353 net.cpp:141] Setting up inception_4d/relu_5x5_reduce
I0403 19:37:52.144328 25353 net.cpp:148] Top shape: 24 32 14 14 (150528)
I0403 19:37:52.144346 25353 net.cpp:156] Memory required for data: 1132858656
I0403 19:37:52.144363 25353 layer_factory.hpp:77] Creating layer inception_4d/5x5
I0403 19:37:52.144388 25353 net.cpp:91] Creating Layer inception_4d/5x5
I0403 19:37:52.144407 25353 net.cpp:425] inception_4d/5x5 <- inception_4d/5x5_reduce
I0403 19:37:52.144428 25353 net.cpp:399] inception_4d/5x5 -> inception_4d/5x5
I0403 19:37:52.145856 25353 net.cpp:141] Setting up inception_4d/5x5
I0403 19:37:52.145890 25353 net.cpp:148] Top shape: 24 64 14 14 (301056)
I0403 19:37:52.145911 25353 net.cpp:156] Memory required for data: 1134062880
I0403 19:37:52.145930 25353 layer_factory.hpp:77] Creating layer inception_4d/relu_5x5
I0403 19:37:52.145966 25353 net.cpp:91] Creating Layer inception_4d/relu_5x5
I0403 19:37:52.145983 25353 net.cpp:425] inception_4d/relu_5x5 <- inception_4d/5x5
I0403 19:37:52.146005 25353 net.cpp:386] inception_4d/relu_5x5 -> inception_4d/5x5 (in-place)
I0403 19:37:52.146307 25353 net.cpp:141] Setting up inception_4d/relu_5x5
I0403 19:37:52.146342 25353 net.cpp:148] Top shape: 24 64 14 14 (301056)
I0403 19:37:52.146361 25353 net.cpp:156] Memory required for data: 1135267104
I0403 19:37:52.146376 25353 layer_factory.hpp:77] Creating layer inception_4d/pool
I0403 19:37:52.146394 25353 net.cpp:91] Creating Layer inception_4d/pool
I0403 19:37:52.146411 25353 net.cpp:425] inception_4d/pool <- inception_4c/output_inception_4c/output_0_split_3
I0403 19:37:52.146432 25353 net.cpp:399] inception_4d/pool -> inception_4d/pool
I0403 19:37:52.146500 25353 net.cpp:141] Setting up inception_4d/pool
I0403 19:37:52.146528 25353 net.cpp:148] Top shape: 24 512 14 14 (2408448)
I0403 19:37:52.146543 25353 net.cpp:156] Memory required for data: 1144900896
I0403 19:37:52.146556 25353 layer_factory.hpp:77] Creating layer inception_4d/pool_proj
I0403 19:37:52.146579 25353 net.cpp:91] Creating Layer inception_4d/pool_proj
I0403 19:37:52.146600 25353 net.cpp:425] inception_4d/pool_proj <- inception_4d/pool
I0403 19:37:52.146621 25353 net.cpp:399] inception_4d/pool_proj -> inception_4d/pool_proj
I0403 19:37:52.148360 25353 net.cpp:141] Setting up inception_4d/pool_proj
I0403 19:37:52.148392 25353 net.cpp:148] Top shape: 24 64 14 14 (301056)
I0403 19:37:52.148411 25353 net.cpp:156] Memory required for data: 1146105120
I0403 19:37:52.148428 25353 layer_factory.hpp:77] Creating layer inception_4d/relu_pool_proj
I0403 19:37:52.148450 25353 net.cpp:91] Creating Layer inception_4d/relu_pool_proj
I0403 19:37:52.148470 25353 net.cpp:425] inception_4d/relu_pool_proj <- inception_4d/pool_proj
I0403 19:37:52.148489 25353 net.cpp:386] inception_4d/relu_pool_proj -> inception_4d/pool_proj (in-place)
I0403 19:37:52.148674 25353 net.cpp:141] Setting up inception_4d/relu_pool_proj
I0403 19:37:52.148705 25353 net.cpp:148] Top shape: 24 64 14 14 (301056)
I0403 19:37:52.148722 25353 net.cpp:156] Memory required for data: 1147309344
I0403 19:37:52.148739 25353 layer_factory.hpp:77] Creating layer inception_4d/output
I0403 19:37:52.148757 25353 net.cpp:91] Creating Layer inception_4d/output
I0403 19:37:52.148775 25353 net.cpp:425] inception_4d/output <- inception_4d/1x1
I0403 19:37:52.148795 25353 net.cpp:425] inception_4d/output <- inception_4d/3x3
I0403 19:37:52.148813 25353 net.cpp:425] inception_4d/output <- inception_4d/5x5
I0403 19:37:52.148828 25353 net.cpp:425] inception_4d/output <- inception_4d/pool_proj
I0403 19:37:52.148845 25353 net.cpp:399] inception_4d/output -> inception_4d/output
I0403 19:37:52.148895 25353 net.cpp:141] Setting up inception_4d/output
I0403 19:37:52.148924 25353 net.cpp:148] Top shape: 24 528 14 14 (2483712)
I0403 19:37:52.148939 25353 net.cpp:156] Memory required for data: 1157244192
I0403 19:37:52.148954 25353 layer_factory.hpp:77] Creating layer inception_4d/output_inception_4d/output_0_split
I0403 19:37:52.148975 25353 net.cpp:91] Creating Layer inception_4d/output_inception_4d/output_0_split
I0403 19:37:52.148993 25353 net.cpp:425] inception_4d/output_inception_4d/output_0_split <- inception_4d/output
I0403 19:37:52.149013 25353 net.cpp:399] inception_4d/output_inception_4d/output_0_split -> inception_4d/output_inception_4d/output_0_split_0
I0403 19:37:52.149035 25353 net.cpp:399] inception_4d/output_inception_4d/output_0_split -> inception_4d/output_inception_4d/output_0_split_1
I0403 19:37:52.149058 25353 net.cpp:399] inception_4d/output_inception_4d/output_0_split -> inception_4d/output_inception_4d/output_0_split_2
I0403 19:37:52.149083 25353 net.cpp:399] inception_4d/output_inception_4d/output_0_split -> inception_4d/output_inception_4d/output_0_split_3
I0403 19:37:52.149106 25353 net.cpp:399] inception_4d/output_inception_4d/output_0_split -> inception_4d/output_inception_4d/output_0_split_4
I0403 19:37:52.149207 25353 net.cpp:141] Setting up inception_4d/output_inception_4d/output_0_split
I0403 19:37:52.149247 25353 net.cpp:148] Top shape: 24 528 14 14 (2483712)
I0403 19:37:52.149266 25353 net.cpp:148] Top shape: 24 528 14 14 (2483712)
I0403 19:37:52.149291 25353 net.cpp:148] Top shape: 24 528 14 14 (2483712)
I0403 19:37:52.149308 25353 net.cpp:148] Top shape: 24 528 14 14 (2483712)
I0403 19:37:52.149327 25353 net.cpp:148] Top shape: 24 528 14 14 (2483712)
I0403 19:37:52.149343 25353 net.cpp:156] Memory required for data: 1206918432
I0403 19:37:52.149358 25353 layer_factory.hpp:77] Creating layer loss2/ave_pool
I0403 19:37:52.149379 25353 net.cpp:91] Creating Layer loss2/ave_pool
I0403 19:37:52.149399 25353 net.cpp:425] loss2/ave_pool <- inception_4d/output_inception_4d/output_0_split_0
I0403 19:37:52.149420 25353 net.cpp:399] loss2/ave_pool -> loss2/ave_pool
I0403 19:37:52.149727 25353 net.cpp:141] Setting up loss2/ave_pool
I0403 19:37:52.149756 25353 net.cpp:148] Top shape: 24 528 4 4 (202752)
I0403 19:37:52.149773 25353 net.cpp:156] Memory required for data: 1207729440
I0403 19:37:52.149790 25353 layer_factory.hpp:77] Creating layer loss2/conv
I0403 19:37:52.149811 25353 net.cpp:91] Creating Layer loss2/conv
I0403 19:37:52.149830 25353 net.cpp:425] loss2/conv <- loss2/ave_pool
I0403 19:37:52.149855 25353 net.cpp:399] loss2/conv -> loss2/conv
I0403 19:37:52.151717 25353 net.cpp:141] Setting up loss2/conv
I0403 19:37:52.151752 25353 net.cpp:148] Top shape: 24 128 4 4 (49152)
I0403 19:37:52.151770 25353 net.cpp:156] Memory required for data: 1207926048
I0403 19:37:52.151789 25353 layer_factory.hpp:77] Creating layer loss2/relu_conv
I0403 19:37:52.151809 25353 net.cpp:91] Creating Layer loss2/relu_conv
I0403 19:37:52.151828 25353 net.cpp:425] loss2/relu_conv <- loss2/conv
I0403 19:37:52.151847 25353 net.cpp:386] loss2/relu_conv -> loss2/conv (in-place)
I0403 19:37:52.152127 25353 net.cpp:141] Setting up loss2/relu_conv
I0403 19:37:52.152159 25353 net.cpp:148] Top shape: 24 128 4 4 (49152)
I0403 19:37:52.152176 25353 net.cpp:156] Memory required for data: 1208122656
I0403 19:37:52.152192 25353 layer_factory.hpp:77] Creating layer loss2/fc
I0403 19:37:52.152214 25353 net.cpp:91] Creating Layer loss2/fc
I0403 19:37:52.152230 25353 net.cpp:425] loss2/fc <- loss2/conv
I0403 19:37:52.152252 25353 net.cpp:399] loss2/fc -> loss2/fc
I0403 19:37:52.169556 25353 net.cpp:141] Setting up loss2/fc
I0403 19:37:52.169595 25353 net.cpp:148] Top shape: 24 1024 (24576)
I0403 19:37:52.169612 25353 net.cpp:156] Memory required for data: 1208220960
I0403 19:37:52.169632 25353 layer_factory.hpp:77] Creating layer loss2/relu_fc
I0403 19:37:52.169652 25353 net.cpp:91] Creating Layer loss2/relu_fc
I0403 19:37:52.169668 25353 net.cpp:425] loss2/relu_fc <- loss2/fc
I0403 19:37:52.169687 25353 net.cpp:386] loss2/relu_fc -> loss2/fc (in-place)
I0403 19:37:52.169970 25353 net.cpp:141] Setting up loss2/relu_fc
I0403 19:37:52.169998 25353 net.cpp:148] Top shape: 24 1024 (24576)
I0403 19:37:52.170018 25353 net.cpp:156] Memory required for data: 1208319264
I0403 19:37:52.170034 25353 layer_factory.hpp:77] Creating layer loss2/drop_fc
I0403 19:37:52.170053 25353 net.cpp:91] Creating Layer loss2/drop_fc
I0403 19:37:52.170068 25353 net.cpp:425] loss2/drop_fc <- loss2/fc
I0403 19:37:52.170086 25353 net.cpp:386] loss2/drop_fc -> loss2/fc (in-place)
I0403 19:37:52.170137 25353 net.cpp:141] Setting up loss2/drop_fc
I0403 19:37:52.170164 25353 net.cpp:148] Top shape: 24 1024 (24576)
I0403 19:37:52.170179 25353 net.cpp:156] Memory required for data: 1208417568
I0403 19:37:52.170194 25353 layer_factory.hpp:77] Creating layer loss2/classifier_plantvillage
I0403 19:37:52.170214 25353 net.cpp:91] Creating Layer loss2/classifier_plantvillage
I0403 19:37:52.170233 25353 net.cpp:425] loss2/classifier_plantvillage <- loss2/fc
I0403 19:37:52.170251 25353 net.cpp:399] loss2/classifier_plantvillage -> loss2/classifier_plantvillage
I0403 19:37:52.170641 25353 net.cpp:141] Setting up loss2/classifier_plantvillage
I0403 19:37:52.170668 25353 net.cpp:148] Top shape: 24 38 (912)
I0403 19:37:52.170702 25353 net.cpp:156] Memory required for data: 1208421216
I0403 19:37:52.170722 25353 layer_factory.hpp:77] Creating layer loss2/classifier_plantvillage_loss2/classifier_plantvillage_0_split
I0403 19:37:52.170742 25353 net.cpp:91] Creating Layer loss2/classifier_plantvillage_loss2/classifier_plantvillage_0_split
I0403 19:37:52.170759 25353 net.cpp:425] loss2/classifier_plantvillage_loss2/classifier_plantvillage_0_split <- loss2/classifier_plantvillage
I0403 19:37:52.170781 25353 net.cpp:399] loss2/classifier_plantvillage_loss2/classifier_plantvillage_0_split -> loss2/classifier_plantvillage_loss2/classifier_plantvillage_0_split_0
I0403 19:37:52.170806 25353 net.cpp:399] loss2/classifier_plantvillage_loss2/classifier_plantvillage_0_split -> loss2/classifier_plantvillage_loss2/classifier_plantvillage_0_split_1
I0403 19:37:52.170828 25353 net.cpp:399] loss2/classifier_plantvillage_loss2/classifier_plantvillage_0_split -> loss2/classifier_plantvillage_loss2/classifier_plantvillage_0_split_2
I0403 19:37:52.170903 25353 net.cpp:141] Setting up loss2/classifier_plantvillage_loss2/classifier_plantvillage_0_split
I0403 19:37:52.170931 25353 net.cpp:148] Top shape: 24 38 (912)
I0403 19:37:52.170948 25353 net.cpp:148] Top shape: 24 38 (912)
I0403 19:37:52.170965 25353 net.cpp:148] Top shape: 24 38 (912)
I0403 19:37:52.170979 25353 net.cpp:156] Memory required for data: 1208432160
I0403 19:37:52.170995 25353 layer_factory.hpp:77] Creating layer inception_4e/1x1
I0403 19:37:52.171017 25353 net.cpp:91] Creating Layer inception_4e/1x1
I0403 19:37:52.171036 25353 net.cpp:425] inception_4e/1x1 <- inception_4d/output_inception_4d/output_0_split_1
I0403 19:37:52.171054 25353 net.cpp:399] inception_4e/1x1 -> inception_4e/1x1
I0403 19:37:52.172785 25353 net.cpp:141] Setting up inception_4e/1x1
I0403 19:37:52.172816 25353 net.cpp:148] Top shape: 24 256 14 14 (1204224)
I0403 19:37:52.172835 25353 net.cpp:156] Memory required for data: 1213249056
I0403 19:37:52.172853 25353 layer_factory.hpp:77] Creating layer inception_4e/relu_1x1
I0403 19:37:52.172871 25353 net.cpp:91] Creating Layer inception_4e/relu_1x1
I0403 19:37:52.172888 25353 net.cpp:425] inception_4e/relu_1x1 <- inception_4e/1x1
I0403 19:37:52.172909 25353 net.cpp:386] inception_4e/relu_1x1 -> inception_4e/1x1 (in-place)
I0403 19:37:52.173193 25353 net.cpp:141] Setting up inception_4e/relu_1x1
I0403 19:37:52.173224 25353 net.cpp:148] Top shape: 24 256 14 14 (1204224)
I0403 19:37:52.173241 25353 net.cpp:156] Memory required for data: 1218065952
I0403 19:37:52.173257 25353 layer_factory.hpp:77] Creating layer inception_4e/3x3_reduce
I0403 19:37:52.173280 25353 net.cpp:91] Creating Layer inception_4e/3x3_reduce
I0403 19:37:52.173303 25353 net.cpp:425] inception_4e/3x3_reduce <- inception_4d/output_inception_4d/output_0_split_2
I0403 19:37:52.173327 25353 net.cpp:399] inception_4e/3x3_reduce -> inception_4e/3x3_reduce
I0403 19:37:52.175382 25353 net.cpp:141] Setting up inception_4e/3x3_reduce
I0403 19:37:52.175415 25353 net.cpp:148] Top shape: 24 160 14 14 (752640)
I0403 19:37:52.175432 25353 net.cpp:156] Memory required for data: 1221076512
I0403 19:37:52.175451 25353 layer_factory.hpp:77] Creating layer inception_4e/relu_3x3_reduce
I0403 19:37:52.175469 25353 net.cpp:91] Creating Layer inception_4e/relu_3x3_reduce
I0403 19:37:52.175485 25353 net.cpp:425] inception_4e/relu_3x3_reduce <- inception_4e/3x3_reduce
I0403 19:37:52.175504 25353 net.cpp:386] inception_4e/relu_3x3_reduce -> inception_4e/3x3_reduce (in-place)
I0403 19:37:52.175683 25353 net.cpp:141] Setting up inception_4e/relu_3x3_reduce
I0403 19:37:52.175709 25353 net.cpp:148] Top shape: 24 160 14 14 (752640)
I0403 19:37:52.175724 25353 net.cpp:156] Memory required for data: 1224087072
I0403 19:37:52.175739 25353 layer_factory.hpp:77] Creating layer inception_4e/3x3
I0403 19:37:52.175760 25353 net.cpp:91] Creating Layer inception_4e/3x3
I0403 19:37:52.175779 25353 net.cpp:425] inception_4e/3x3 <- inception_4e/3x3_reduce
I0403 19:37:52.175803 25353 net.cpp:399] inception_4e/3x3 -> inception_4e/3x3
I0403 19:37:52.180600 25353 net.cpp:141] Setting up inception_4e/3x3
I0403 19:37:52.180644 25353 net.cpp:148] Top shape: 24 320 14 14 (1505280)
I0403 19:37:52.180663 25353 net.cpp:156] Memory required for data: 1230108192
I0403 19:37:52.180683 25353 layer_factory.hpp:77] Creating layer inception_4e/relu_3x3
I0403 19:37:52.180706 25353 net.cpp:91] Creating Layer inception_4e/relu_3x3
I0403 19:37:52.180724 25353 net.cpp:425] inception_4e/relu_3x3 <- inception_4e/3x3
I0403 19:37:52.180743 25353 net.cpp:386] inception_4e/relu_3x3 -> inception_4e/3x3 (in-place)
I0403 19:37:52.181025 25353 net.cpp:141] Setting up inception_4e/relu_3x3
I0403 19:37:52.181053 25353 net.cpp:148] Top shape: 24 320 14 14 (1505280)
I0403 19:37:52.181068 25353 net.cpp:156] Memory required for data: 1236129312
I0403 19:37:52.181085 25353 layer_factory.hpp:77] Creating layer inception_4e/5x5_reduce
I0403 19:37:52.181108 25353 net.cpp:91] Creating Layer inception_4e/5x5_reduce
I0403 19:37:52.181128 25353 net.cpp:425] inception_4e/5x5_reduce <- inception_4d/output_inception_4d/output_0_split_3
I0403 19:37:52.181149 25353 net.cpp:399] inception_4e/5x5_reduce -> inception_4e/5x5_reduce
I0403 19:37:52.182168 25353 net.cpp:141] Setting up inception_4e/5x5_reduce
I0403 19:37:52.182199 25353 net.cpp:148] Top shape: 24 32 14 14 (150528)
I0403 19:37:52.182217 25353 net.cpp:156] Memory required for data: 1236731424
I0403 19:37:52.182237 25353 layer_factory.hpp:77] Creating layer inception_4e/relu_5x5_reduce
I0403 19:37:52.182255 25353 net.cpp:91] Creating Layer inception_4e/relu_5x5_reduce
I0403 19:37:52.182273 25353 net.cpp:425] inception_4e/relu_5x5_reduce <- inception_4e/5x5_reduce
I0403 19:37:52.182296 25353 net.cpp:386] inception_4e/relu_5x5_reduce -> inception_4e/5x5_reduce (in-place)
I0403 19:37:52.182585 25353 net.cpp:141] Setting up inception_4e/relu_5x5_reduce
I0403 19:37:52.182615 25353 net.cpp:148] Top shape: 24 32 14 14 (150528)
I0403 19:37:52.182634 25353 net.cpp:156] Memory required for data: 1237333536
I0403 19:37:52.182651 25353 layer_factory.hpp:77] Creating layer inception_4e/5x5
I0403 19:37:52.182693 25353 net.cpp:91] Creating Layer inception_4e/5x5
I0403 19:37:52.182714 25353 net.cpp:425] inception_4e/5x5 <- inception_4e/5x5_reduce
I0403 19:37:52.182735 25353 net.cpp:399] inception_4e/5x5 -> inception_4e/5x5
I0403 19:37:52.184475 25353 net.cpp:141] Setting up inception_4e/5x5
I0403 19:37:52.184504 25353 net.cpp:148] Top shape: 24 128 14 14 (602112)
I0403 19:37:52.184523 25353 net.cpp:156] Memory required for data: 1239741984
I0403 19:37:52.184542 25353 layer_factory.hpp:77] Creating layer inception_4e/relu_5x5
I0403 19:37:52.184562 25353 net.cpp:91] Creating Layer inception_4e/relu_5x5
I0403 19:37:52.184581 25353 net.cpp:425] inception_4e/relu_5x5 <- inception_4e/5x5
I0403 19:37:52.184598 25353 net.cpp:386] inception_4e/relu_5x5 -> inception_4e/5x5 (in-place)
I0403 19:37:52.184788 25353 net.cpp:141] Setting up inception_4e/relu_5x5
I0403 19:37:52.184816 25353 net.cpp:148] Top shape: 24 128 14 14 (602112)
I0403 19:37:52.184834 25353 net.cpp:156] Memory required for data: 1242150432
I0403 19:37:52.184846 25353 layer_factory.hpp:77] Creating layer inception_4e/pool
I0403 19:37:52.184864 25353 net.cpp:91] Creating Layer inception_4e/pool
I0403 19:37:52.184881 25353 net.cpp:425] inception_4e/pool <- inception_4d/output_inception_4d/output_0_split_4
I0403 19:37:52.184902 25353 net.cpp:399] inception_4e/pool -> inception_4e/pool
I0403 19:37:52.184972 25353 net.cpp:141] Setting up inception_4e/pool
I0403 19:37:52.184998 25353 net.cpp:148] Top shape: 24 528 14 14 (2483712)
I0403 19:37:52.185014 25353 net.cpp:156] Memory required for data: 1252085280
I0403 19:37:52.185029 25353 layer_factory.hpp:77] Creating layer inception_4e/pool_proj
I0403 19:37:52.185052 25353 net.cpp:91] Creating Layer inception_4e/pool_proj
I0403 19:37:52.185071 25353 net.cpp:425] inception_4e/pool_proj <- inception_4e/pool
I0403 19:37:52.185091 25353 net.cpp:399] inception_4e/pool_proj -> inception_4e/pool_proj
I0403 19:37:52.186513 25353 net.cpp:141] Setting up inception_4e/pool_proj
I0403 19:37:52.186555 25353 net.cpp:148] Top shape: 24 128 14 14 (602112)
I0403 19:37:52.186571 25353 net.cpp:156] Memory required for data: 1254493728
I0403 19:37:52.186589 25353 layer_factory.hpp:77] Creating layer inception_4e/relu_pool_proj
I0403 19:37:52.186609 25353 net.cpp:91] Creating Layer inception_4e/relu_pool_proj
I0403 19:37:52.186630 25353 net.cpp:425] inception_4e/relu_pool_proj <- inception_4e/pool_proj
I0403 19:37:52.186650 25353 net.cpp:386] inception_4e/relu_pool_proj -> inception_4e/pool_proj (in-place)
I0403 19:37:52.186931 25353 net.cpp:141] Setting up inception_4e/relu_pool_proj
I0403 19:37:52.186959 25353 net.cpp:148] Top shape: 24 128 14 14 (602112)
I0403 19:37:52.186975 25353 net.cpp:156] Memory required for data: 1256902176
I0403 19:37:52.186990 25353 layer_factory.hpp:77] Creating layer inception_4e/output
I0403 19:37:52.187011 25353 net.cpp:91] Creating Layer inception_4e/output
I0403 19:37:52.187029 25353 net.cpp:425] inception_4e/output <- inception_4e/1x1
I0403 19:37:52.187047 25353 net.cpp:425] inception_4e/output <- inception_4e/3x3
I0403 19:37:52.187063 25353 net.cpp:425] inception_4e/output <- inception_4e/5x5
I0403 19:37:52.187080 25353 net.cpp:425] inception_4e/output <- inception_4e/pool_proj
I0403 19:37:52.187098 25353 net.cpp:399] inception_4e/output -> inception_4e/output
I0403 19:37:52.187150 25353 net.cpp:141] Setting up inception_4e/output
I0403 19:37:52.187177 25353 net.cpp:148] Top shape: 24 832 14 14 (3913728)
I0403 19:37:52.187192 25353 net.cpp:156] Memory required for data: 1272557088
I0403 19:37:52.187206 25353 layer_factory.hpp:77] Creating layer pool4/3x3_s2
I0403 19:37:52.187224 25353 net.cpp:91] Creating Layer pool4/3x3_s2
I0403 19:37:52.187240 25353 net.cpp:425] pool4/3x3_s2 <- inception_4e/output
I0403 19:37:52.187261 25353 net.cpp:399] pool4/3x3_s2 -> pool4/3x3_s2
I0403 19:37:52.187333 25353 net.cpp:141] Setting up pool4/3x3_s2
I0403 19:37:52.187362 25353 net.cpp:148] Top shape: 24 832 7 7 (978432)
I0403 19:37:52.187377 25353 net.cpp:156] Memory required for data: 1276470816
I0403 19:37:52.187391 25353 layer_factory.hpp:77] Creating layer pool4/3x3_s2_pool4/3x3_s2_0_split
I0403 19:37:52.187410 25353 net.cpp:91] Creating Layer pool4/3x3_s2_pool4/3x3_s2_0_split
I0403 19:37:52.187429 25353 net.cpp:425] pool4/3x3_s2_pool4/3x3_s2_0_split <- pool4/3x3_s2
I0403 19:37:52.187450 25353 net.cpp:399] pool4/3x3_s2_pool4/3x3_s2_0_split -> pool4/3x3_s2_pool4/3x3_s2_0_split_0
I0403 19:37:52.187470 25353 net.cpp:399] pool4/3x3_s2_pool4/3x3_s2_0_split -> pool4/3x3_s2_pool4/3x3_s2_0_split_1
I0403 19:37:52.187494 25353 net.cpp:399] pool4/3x3_s2_pool4/3x3_s2_0_split -> pool4/3x3_s2_pool4/3x3_s2_0_split_2
I0403 19:37:52.187515 25353 net.cpp:399] pool4/3x3_s2_pool4/3x3_s2_0_split -> pool4/3x3_s2_pool4/3x3_s2_0_split_3
I0403 19:37:52.187602 25353 net.cpp:141] Setting up pool4/3x3_s2_pool4/3x3_s2_0_split
I0403 19:37:52.187630 25353 net.cpp:148] Top shape: 24 832 7 7 (978432)
I0403 19:37:52.187650 25353 net.cpp:148] Top shape: 24 832 7 7 (978432)
I0403 19:37:52.187669 25353 net.cpp:148] Top shape: 24 832 7 7 (978432)
I0403 19:37:52.187683 25353 net.cpp:148] Top shape: 24 832 7 7 (978432)
I0403 19:37:52.187696 25353 net.cpp:156] Memory required for data: 1292125728
I0403 19:37:52.187711 25353 layer_factory.hpp:77] Creating layer inception_5a/1x1
I0403 19:37:52.187731 25353 net.cpp:91] Creating Layer inception_5a/1x1
I0403 19:37:52.187750 25353 net.cpp:425] inception_5a/1x1 <- pool4/3x3_s2_pool4/3x3_s2_0_split_0
I0403 19:37:52.187772 25353 net.cpp:399] inception_5a/1x1 -> inception_5a/1x1
I0403 19:37:52.190512 25353 net.cpp:141] Setting up inception_5a/1x1
I0403 19:37:52.190546 25353 net.cpp:148] Top shape: 24 256 7 7 (301056)
I0403 19:37:52.190567 25353 net.cpp:156] Memory required for data: 1293329952
I0403 19:37:52.190584 25353 layer_factory.hpp:77] Creating layer inception_5a/relu_1x1
I0403 19:37:52.190603 25353 net.cpp:91] Creating Layer inception_5a/relu_1x1
I0403 19:37:52.190620 25353 net.cpp:425] inception_5a/relu_1x1 <- inception_5a/1x1
I0403 19:37:52.190639 25353 net.cpp:386] inception_5a/relu_1x1 -> inception_5a/1x1 (in-place)
I0403 19:37:52.190939 25353 net.cpp:141] Setting up inception_5a/relu_1x1
I0403 19:37:52.190970 25353 net.cpp:148] Top shape: 24 256 7 7 (301056)
I0403 19:37:52.190989 25353 net.cpp:156] Memory required for data: 1294534176
I0403 19:37:52.191004 25353 layer_factory.hpp:77] Creating layer inception_5a/3x3_reduce
I0403 19:37:52.191028 25353 net.cpp:91] Creating Layer inception_5a/3x3_reduce
I0403 19:37:52.191050 25353 net.cpp:425] inception_5a/3x3_reduce <- pool4/3x3_s2_pool4/3x3_s2_0_split_1
I0403 19:37:52.191071 25353 net.cpp:399] inception_5a/3x3_reduce -> inception_5a/3x3_reduce
I0403 19:37:52.193431 25353 net.cpp:141] Setting up inception_5a/3x3_reduce
I0403 19:37:52.193464 25353 net.cpp:148] Top shape: 24 160 7 7 (188160)
I0403 19:37:52.193480 25353 net.cpp:156] Memory required for data: 1295286816
I0403 19:37:52.193500 25353 layer_factory.hpp:77] Creating layer inception_5a/relu_3x3_reduce
I0403 19:37:52.193521 25353 net.cpp:91] Creating Layer inception_5a/relu_3x3_reduce
I0403 19:37:52.193542 25353 net.cpp:425] inception_5a/relu_3x3_reduce <- inception_5a/3x3_reduce
I0403 19:37:52.193559 25353 net.cpp:386] inception_5a/relu_3x3_reduce -> inception_5a/3x3_reduce (in-place)
I0403 19:37:52.193740 25353 net.cpp:141] Setting up inception_5a/relu_3x3_reduce
I0403 19:37:52.193771 25353 net.cpp:148] Top shape: 24 160 7 7 (188160)
I0403 19:37:52.193788 25353 net.cpp:156] Memory required for data: 1296039456
I0403 19:37:52.193804 25353 layer_factory.hpp:77] Creating layer inception_5a/3x3
I0403 19:37:52.193826 25353 net.cpp:91] Creating Layer inception_5a/3x3
I0403 19:37:52.193845 25353 net.cpp:425] inception_5a/3x3 <- inception_5a/3x3_reduce
I0403 19:37:52.193864 25353 net.cpp:399] inception_5a/3x3 -> inception_5a/3x3
I0403 19:37:52.198695 25353 net.cpp:141] Setting up inception_5a/3x3
I0403 19:37:52.198727 25353 net.cpp:148] Top shape: 24 320 7 7 (376320)
I0403 19:37:52.198745 25353 net.cpp:156] Memory required for data: 1297544736
I0403 19:37:52.198765 25353 layer_factory.hpp:77] Creating layer inception_5a/relu_3x3
I0403 19:37:52.198786 25353 net.cpp:91] Creating Layer inception_5a/relu_3x3
I0403 19:37:52.198802 25353 net.cpp:425] inception_5a/relu_3x3 <- inception_5a/3x3
I0403 19:37:52.198822 25353 net.cpp:386] inception_5a/relu_3x3 -> inception_5a/3x3 (in-place)
I0403 19:37:52.199105 25353 net.cpp:141] Setting up inception_5a/relu_3x3
I0403 19:37:52.199134 25353 net.cpp:148] Top shape: 24 320 7 7 (376320)
I0403 19:37:52.199151 25353 net.cpp:156] Memory required for data: 1299050016
I0403 19:37:52.199167 25353 layer_factory.hpp:77] Creating layer inception_5a/5x5_reduce
I0403 19:37:52.199193 25353 net.cpp:91] Creating Layer inception_5a/5x5_reduce
I0403 19:37:52.199211 25353 net.cpp:425] inception_5a/5x5_reduce <- pool4/3x3_s2_pool4/3x3_s2_0_split_2
I0403 19:37:52.199232 25353 net.cpp:399] inception_5a/5x5_reduce -> inception_5a/5x5_reduce
I0403 19:37:52.200350 25353 net.cpp:141] Setting up inception_5a/5x5_reduce
I0403 19:37:52.200383 25353 net.cpp:148] Top shape: 24 32 7 7 (37632)
I0403 19:37:52.200403 25353 net.cpp:156] Memory required for data: 1299200544
I0403 19:37:52.200423 25353 layer_factory.hpp:77] Creating layer inception_5a/relu_5x5_reduce
I0403 19:37:52.200443 25353 net.cpp:91] Creating Layer inception_5a/relu_5x5_reduce
I0403 19:37:52.200461 25353 net.cpp:425] inception_5a/relu_5x5_reduce <- inception_5a/5x5_reduce
I0403 19:37:52.200481 25353 net.cpp:386] inception_5a/relu_5x5_reduce -> inception_5a/5x5_reduce (in-place)
I0403 19:37:52.200775 25353 net.cpp:141] Setting up inception_5a/relu_5x5_reduce
I0403 19:37:52.200803 25353 net.cpp:148] Top shape: 24 32 7 7 (37632)
I0403 19:37:52.200820 25353 net.cpp:156] Memory required for data: 1299351072
I0403 19:37:52.200835 25353 layer_factory.hpp:77] Creating layer inception_5a/5x5
I0403 19:37:52.200858 25353 net.cpp:91] Creating Layer inception_5a/5x5
I0403 19:37:52.200880 25353 net.cpp:425] inception_5a/5x5 <- inception_5a/5x5_reduce
I0403 19:37:52.200901 25353 net.cpp:399] inception_5a/5x5 -> inception_5a/5x5
I0403 19:37:52.202589 25353 net.cpp:141] Setting up inception_5a/5x5
I0403 19:37:52.202631 25353 net.cpp:148] Top shape: 24 128 7 7 (150528)
I0403 19:37:52.202649 25353 net.cpp:156] Memory required for data: 1299953184
I0403 19:37:52.202669 25353 layer_factory.hpp:77] Creating layer inception_5a/relu_5x5
I0403 19:37:52.202690 25353 net.cpp:91] Creating Layer inception_5a/relu_5x5
I0403 19:37:52.202708 25353 net.cpp:425] inception_5a/relu_5x5 <- inception_5a/5x5
I0403 19:37:52.202729 25353 net.cpp:386] inception_5a/relu_5x5 -> inception_5a/5x5 (in-place)
I0403 19:37:52.202919 25353 net.cpp:141] Setting up inception_5a/relu_5x5
I0403 19:37:52.202949 25353 net.cpp:148] Top shape: 24 128 7 7 (150528)
I0403 19:37:52.202965 25353 net.cpp:156] Memory required for data: 1300555296
I0403 19:37:52.202980 25353 layer_factory.hpp:77] Creating layer inception_5a/pool
I0403 19:37:52.202998 25353 net.cpp:91] Creating Layer inception_5a/pool
I0403 19:37:52.203017 25353 net.cpp:425] inception_5a/pool <- pool4/3x3_s2_pool4/3x3_s2_0_split_3
I0403 19:37:52.203042 25353 net.cpp:399] inception_5a/pool -> inception_5a/pool
I0403 19:37:52.203114 25353 net.cpp:141] Setting up inception_5a/pool
I0403 19:37:52.203140 25353 net.cpp:148] Top shape: 24 832 7 7 (978432)
I0403 19:37:52.203155 25353 net.cpp:156] Memory required for data: 1304469024
I0403 19:37:52.203171 25353 layer_factory.hpp:77] Creating layer inception_5a/pool_proj
I0403 19:37:52.203197 25353 net.cpp:91] Creating Layer inception_5a/pool_proj
I0403 19:37:52.203229 25353 net.cpp:425] inception_5a/pool_proj <- inception_5a/pool
I0403 19:37:52.203249 25353 net.cpp:399] inception_5a/pool_proj -> inception_5a/pool_proj
I0403 19:37:52.205569 25353 net.cpp:141] Setting up inception_5a/pool_proj
I0403 19:37:52.205605 25353 net.cpp:148] Top shape: 24 128 7 7 (150528)
I0403 19:37:52.205621 25353 net.cpp:156] Memory required for data: 1305071136
I0403 19:37:52.205639 25353 layer_factory.hpp:77] Creating layer inception_5a/relu_pool_proj
I0403 19:37:52.205659 25353 net.cpp:91] Creating Layer inception_5a/relu_pool_proj
I0403 19:37:52.205677 25353 net.cpp:425] inception_5a/relu_pool_proj <- inception_5a/pool_proj
I0403 19:37:52.205696 25353 net.cpp:386] inception_5a/relu_pool_proj -> inception_5a/pool_proj (in-place)
I0403 19:37:52.205989 25353 net.cpp:141] Setting up inception_5a/relu_pool_proj
I0403 19:37:52.206019 25353 net.cpp:148] Top shape: 24 128 7 7 (150528)
I0403 19:37:52.206037 25353 net.cpp:156] Memory required for data: 1305673248
I0403 19:37:52.206053 25353 layer_factory.hpp:77] Creating layer inception_5a/output
I0403 19:37:52.206074 25353 net.cpp:91] Creating Layer inception_5a/output
I0403 19:37:52.206091 25353 net.cpp:425] inception_5a/output <- inception_5a/1x1
I0403 19:37:52.206109 25353 net.cpp:425] inception_5a/output <- inception_5a/3x3
I0403 19:37:52.206125 25353 net.cpp:425] inception_5a/output <- inception_5a/5x5
I0403 19:37:52.206142 25353 net.cpp:425] inception_5a/output <- inception_5a/pool_proj
I0403 19:37:52.206162 25353 net.cpp:399] inception_5a/output -> inception_5a/output
I0403 19:37:52.206214 25353 net.cpp:141] Setting up inception_5a/output
I0403 19:37:52.206241 25353 net.cpp:148] Top shape: 24 832 7 7 (978432)
I0403 19:37:52.206257 25353 net.cpp:156] Memory required for data: 1309586976
I0403 19:37:52.206271 25353 layer_factory.hpp:77] Creating layer inception_5a/output_inception_5a/output_0_split
I0403 19:37:52.206295 25353 net.cpp:91] Creating Layer inception_5a/output_inception_5a/output_0_split
I0403 19:37:52.206315 25353 net.cpp:425] inception_5a/output_inception_5a/output_0_split <- inception_5a/output
I0403 19:37:52.206336 25353 net.cpp:399] inception_5a/output_inception_5a/output_0_split -> inception_5a/output_inception_5a/output_0_split_0
I0403 19:37:52.206357 25353 net.cpp:399] inception_5a/output_inception_5a/output_0_split -> inception_5a/output_inception_5a/output_0_split_1
I0403 19:37:52.206378 25353 net.cpp:399] inception_5a/output_inception_5a/output_0_split -> inception_5a/output_inception_5a/output_0_split_2
I0403 19:37:52.206400 25353 net.cpp:399] inception_5a/output_inception_5a/output_0_split -> inception_5a/output_inception_5a/output_0_split_3
I0403 19:37:52.206513 25353 net.cpp:141] Setting up inception_5a/output_inception_5a/output_0_split
I0403 19:37:52.206542 25353 net.cpp:148] Top shape: 24 832 7 7 (978432)
I0403 19:37:52.206560 25353 net.cpp:148] Top shape: 24 832 7 7 (978432)
I0403 19:37:52.206576 25353 net.cpp:148] Top shape: 24 832 7 7 (978432)
I0403 19:37:52.206591 25353 net.cpp:148] Top shape: 24 832 7 7 (978432)
I0403 19:37:52.206604 25353 net.cpp:156] Memory required for data: 1325241888
I0403 19:37:52.206619 25353 layer_factory.hpp:77] Creating layer inception_5b/1x1
I0403 19:37:52.206643 25353 net.cpp:91] Creating Layer inception_5b/1x1
I0403 19:37:52.206663 25353 net.cpp:425] inception_5b/1x1 <- inception_5a/output_inception_5a/output_0_split_0
I0403 19:37:52.206686 25353 net.cpp:399] inception_5b/1x1 -> inception_5b/1x1
I0403 19:37:52.210377 25353 net.cpp:141] Setting up inception_5b/1x1
I0403 19:37:52.210413 25353 net.cpp:148] Top shape: 24 384 7 7 (451584)
I0403 19:37:52.210430 25353 net.cpp:156] Memory required for data: 1327048224
I0403 19:37:52.210449 25353 layer_factory.hpp:77] Creating layer inception_5b/relu_1x1
I0403 19:37:52.210471 25353 net.cpp:91] Creating Layer inception_5b/relu_1x1
I0403 19:37:52.210492 25353 net.cpp:425] inception_5b/relu_1x1 <- inception_5b/1x1
I0403 19:37:52.210510 25353 net.cpp:386] inception_5b/relu_1x1 -> inception_5b/1x1 (in-place)
I0403 19:37:52.210813 25353 net.cpp:141] Setting up inception_5b/relu_1x1
I0403 19:37:52.210841 25353 net.cpp:148] Top shape: 24 384 7 7 (451584)
I0403 19:37:52.210857 25353 net.cpp:156] Memory required for data: 1328854560
I0403 19:37:52.210873 25353 layer_factory.hpp:77] Creating layer inception_5b/3x3_reduce
I0403 19:37:52.210898 25353 net.cpp:91] Creating Layer inception_5b/3x3_reduce
I0403 19:37:52.210917 25353 net.cpp:425] inception_5b/3x3_reduce <- inception_5a/output_inception_5a/output_0_split_1
I0403 19:37:52.210940 25353 net.cpp:399] inception_5b/3x3_reduce -> inception_5b/3x3_reduce
I0403 19:37:52.213565 25353 net.cpp:141] Setting up inception_5b/3x3_reduce
I0403 19:37:52.213596 25353 net.cpp:148] Top shape: 24 192 7 7 (225792)
I0403 19:37:52.213614 25353 net.cpp:156] Memory required for data: 1329757728
I0403 19:37:52.213635 25353 layer_factory.hpp:77] Creating layer inception_5b/relu_3x3_reduce
I0403 19:37:52.213657 25353 net.cpp:91] Creating Layer inception_5b/relu_3x3_reduce
I0403 19:37:52.213675 25353 net.cpp:425] inception_5b/relu_3x3_reduce <- inception_5b/3x3_reduce
I0403 19:37:52.213696 25353 net.cpp:386] inception_5b/relu_3x3_reduce -> inception_5b/3x3_reduce (in-place)
I0403 19:37:52.213886 25353 net.cpp:141] Setting up inception_5b/relu_3x3_reduce
I0403 19:37:52.213919 25353 net.cpp:148] Top shape: 24 192 7 7 (225792)
I0403 19:37:52.213938 25353 net.cpp:156] Memory required for data: 1330660896
I0403 19:37:52.213953 25353 layer_factory.hpp:77] Creating layer inception_5b/3x3
I0403 19:37:52.213976 25353 net.cpp:91] Creating Layer inception_5b/3x3
I0403 19:37:52.213994 25353 net.cpp:425] inception_5b/3x3 <- inception_5b/3x3_reduce
I0403 19:37:52.214013 25353 net.cpp:399] inception_5b/3x3 -> inception_5b/3x3
I0403 19:37:52.220901 25353 net.cpp:141] Setting up inception_5b/3x3
I0403 19:37:52.220937 25353 net.cpp:148] Top shape: 24 384 7 7 (451584)
I0403 19:37:52.220953 25353 net.cpp:156] Memory required for data: 1332467232
I0403 19:37:52.220973 25353 layer_factory.hpp:77] Creating layer inception_5b/relu_3x3
I0403 19:37:52.220994 25353 net.cpp:91] Creating Layer inception_5b/relu_3x3
I0403 19:37:52.221012 25353 net.cpp:425] inception_5b/relu_3x3 <- inception_5b/3x3
I0403 19:37:52.221030 25353 net.cpp:386] inception_5b/relu_3x3 -> inception_5b/3x3 (in-place)
I0403 19:37:52.221341 25353 net.cpp:141] Setting up inception_5b/relu_3x3
I0403 19:37:52.221374 25353 net.cpp:148] Top shape: 24 384 7 7 (451584)
I0403 19:37:52.221390 25353 net.cpp:156] Memory required for data: 1334273568
I0403 19:37:52.221405 25353 layer_factory.hpp:77] Creating layer inception_5b/5x5_reduce
I0403 19:37:52.221446 25353 net.cpp:91] Creating Layer inception_5b/5x5_reduce
I0403 19:37:52.221467 25353 net.cpp:425] inception_5b/5x5_reduce <- inception_5a/output_inception_5a/output_0_split_2
I0403 19:37:52.221490 25353 net.cpp:399] inception_5b/5x5_reduce -> inception_5b/5x5_reduce
I0403 19:37:52.222754 25353 net.cpp:141] Setting up inception_5b/5x5_reduce
I0403 19:37:52.222784 25353 net.cpp:148] Top shape: 24 48 7 7 (56448)
I0403 19:37:52.222800 25353 net.cpp:156] Memory required for data: 1334499360
I0403 19:37:52.222820 25353 layer_factory.hpp:77] Creating layer inception_5b/relu_5x5_reduce
I0403 19:37:52.222842 25353 net.cpp:91] Creating Layer inception_5b/relu_5x5_reduce
I0403 19:37:52.222862 25353 net.cpp:425] inception_5b/relu_5x5_reduce <- inception_5b/5x5_reduce
I0403 19:37:52.222880 25353 net.cpp:386] inception_5b/relu_5x5_reduce -> inception_5b/5x5_reduce (in-place)
I0403 19:37:52.223255 25353 net.cpp:141] Setting up inception_5b/relu_5x5_reduce
I0403 19:37:52.223292 25353 net.cpp:148] Top shape: 24 48 7 7 (56448)
I0403 19:37:52.223311 25353 net.cpp:156] Memory required for data: 1334725152
I0403 19:37:52.223328 25353 layer_factory.hpp:77] Creating layer inception_5b/5x5
I0403 19:37:52.223350 25353 net.cpp:91] Creating Layer inception_5b/5x5
I0403 19:37:52.223381 25353 net.cpp:425] inception_5b/5x5 <- inception_5b/5x5_reduce
I0403 19:37:52.223400 25353 net.cpp:399] inception_5b/5x5 -> inception_5b/5x5
I0403 19:37:52.225373 25353 net.cpp:141] Setting up inception_5b/5x5
I0403 19:37:52.225406 25353 net.cpp:148] Top shape: 24 128 7 7 (150528)
I0403 19:37:52.225426 25353 net.cpp:156] Memory required for data: 1335327264
I0403 19:37:52.225446 25353 layer_factory.hpp:77] Creating layer inception_5b/relu_5x5
I0403 19:37:52.225466 25353 net.cpp:91] Creating Layer inception_5b/relu_5x5
I0403 19:37:52.225484 25353 net.cpp:425] inception_5b/relu_5x5 <- inception_5b/5x5
I0403 19:37:52.225502 25353 net.cpp:386] inception_5b/relu_5x5 -> inception_5b/5x5 (in-place)
I0403 19:37:52.225706 25353 net.cpp:141] Setting up inception_5b/relu_5x5
I0403 19:37:52.225733 25353 net.cpp:148] Top shape: 24 128 7 7 (150528)
I0403 19:37:52.225749 25353 net.cpp:156] Memory required for data: 1335929376
I0403 19:37:52.225764 25353 layer_factory.hpp:77] Creating layer inception_5b/pool
I0403 19:37:52.225783 25353 net.cpp:91] Creating Layer inception_5b/pool
I0403 19:37:52.225801 25353 net.cpp:425] inception_5b/pool <- inception_5a/output_inception_5a/output_0_split_3
I0403 19:37:52.225821 25353 net.cpp:399] inception_5b/pool -> inception_5b/pool
I0403 19:37:52.225893 25353 net.cpp:141] Setting up inception_5b/pool
I0403 19:37:52.225921 25353 net.cpp:148] Top shape: 24 832 7 7 (978432)
I0403 19:37:52.225939 25353 net.cpp:156] Memory required for data: 1339843104
I0403 19:37:52.225955 25353 layer_factory.hpp:77] Creating layer inception_5b/pool_proj
I0403 19:37:52.225978 25353 net.cpp:91] Creating Layer inception_5b/pool_proj
I0403 19:37:52.225996 25353 net.cpp:425] inception_5b/pool_proj <- inception_5b/pool
I0403 19:37:52.226016 25353 net.cpp:399] inception_5b/pool_proj -> inception_5b/pool_proj
I0403 19:37:52.228278 25353 net.cpp:141] Setting up inception_5b/pool_proj
I0403 19:37:52.228314 25353 net.cpp:148] Top shape: 24 128 7 7 (150528)
I0403 19:37:52.228333 25353 net.cpp:156] Memory required for data: 1340445216
I0403 19:37:52.228353 25353 layer_factory.hpp:77] Creating layer inception_5b/relu_pool_proj
I0403 19:37:52.228374 25353 net.cpp:91] Creating Layer inception_5b/relu_pool_proj
I0403 19:37:52.228391 25353 net.cpp:425] inception_5b/relu_pool_proj <- inception_5b/pool_proj
I0403 19:37:52.228410 25353 net.cpp:386] inception_5b/relu_pool_proj -> inception_5b/pool_proj (in-place)
I0403 19:37:52.228695 25353 net.cpp:141] Setting up inception_5b/relu_pool_proj
I0403 19:37:52.228727 25353 net.cpp:148] Top shape: 24 128 7 7 (150528)
I0403 19:37:52.228744 25353 net.cpp:156] Memory required for data: 1341047328
I0403 19:37:52.228760 25353 layer_factory.hpp:77] Creating layer inception_5b/output
I0403 19:37:52.228777 25353 net.cpp:91] Creating Layer inception_5b/output
I0403 19:37:52.228824 25353 net.cpp:425] inception_5b/output <- inception_5b/1x1
I0403 19:37:52.228844 25353 net.cpp:425] inception_5b/output <- inception_5b/3x3
I0403 19:37:52.228863 25353 net.cpp:425] inception_5b/output <- inception_5b/5x5
I0403 19:37:52.228881 25353 net.cpp:425] inception_5b/output <- inception_5b/pool_proj
I0403 19:37:52.228900 25353 net.cpp:399] inception_5b/output -> inception_5b/output
I0403 19:37:52.228952 25353 net.cpp:141] Setting up inception_5b/output
I0403 19:37:52.228977 25353 net.cpp:148] Top shape: 24 1024 7 7 (1204224)
I0403 19:37:52.228992 25353 net.cpp:156] Memory required for data: 1345864224
I0403 19:37:52.229007 25353 layer_factory.hpp:77] Creating layer pool5/7x7_s1
I0403 19:37:52.229024 25353 net.cpp:91] Creating Layer pool5/7x7_s1
I0403 19:37:52.229041 25353 net.cpp:425] pool5/7x7_s1 <- inception_5b/output
I0403 19:37:52.229061 25353 net.cpp:399] pool5/7x7_s1 -> pool5/7x7_s1
I0403 19:37:52.229290 25353 net.cpp:141] Setting up pool5/7x7_s1
I0403 19:37:52.229321 25353 net.cpp:148] Top shape: 24 1024 1 1 (24576)
I0403 19:37:52.229338 25353 net.cpp:156] Memory required for data: 1345962528
I0403 19:37:52.229356 25353 layer_factory.hpp:77] Creating layer pool5/drop_7x7_s1
I0403 19:37:52.229374 25353 net.cpp:91] Creating Layer pool5/drop_7x7_s1
I0403 19:37:52.229393 25353 net.cpp:425] pool5/drop_7x7_s1 <- pool5/7x7_s1
I0403 19:37:52.229410 25353 net.cpp:386] pool5/drop_7x7_s1 -> pool5/7x7_s1 (in-place)
I0403 19:37:52.229463 25353 net.cpp:141] Setting up pool5/drop_7x7_s1
I0403 19:37:52.229490 25353 net.cpp:148] Top shape: 24 1024 1 1 (24576)
I0403 19:37:52.229506 25353 net.cpp:156] Memory required for data: 1346060832
I0403 19:37:52.229521 25353 layer_factory.hpp:77] Creating layer loss3/classifier_plantvillage
I0403 19:37:52.229544 25353 net.cpp:91] Creating Layer loss3/classifier_plantvillage
I0403 19:37:52.229562 25353 net.cpp:425] loss3/classifier_plantvillage <- pool5/7x7_s1
I0403 19:37:52.229579 25353 net.cpp:399] loss3/classifier_plantvillage -> loss3/classifier_plantvillage
I0403 19:37:52.229990 25353 net.cpp:141] Setting up loss3/classifier_plantvillage
I0403 19:37:52.230020 25353 net.cpp:148] Top shape: 24 38 (912)
I0403 19:37:52.230034 25353 net.cpp:156] Memory required for data: 1346064480
I0403 19:37:52.230053 25353 layer_factory.hpp:77] Creating layer loss3/classifier_plantvillage_loss3/classifier_plantvillage_0_split
I0403 19:37:52.230070 25353 net.cpp:91] Creating Layer loss3/classifier_plantvillage_loss3/classifier_plantvillage_0_split
I0403 19:37:52.230087 25353 net.cpp:425] loss3/classifier_plantvillage_loss3/classifier_plantvillage_0_split <- loss3/classifier_plantvillage
I0403 19:37:52.230109 25353 net.cpp:399] loss3/classifier_plantvillage_loss3/classifier_plantvillage_0_split -> loss3/classifier_plantvillage_loss3/classifier_plantvillage_0_split_0
I0403 19:37:52.230132 25353 net.cpp:399] loss3/classifier_plantvillage_loss3/classifier_plantvillage_0_split -> loss3/classifier_plantvillage_loss3/classifier_plantvillage_0_split_1
I0403 19:37:52.230155 25353 net.cpp:399] loss3/classifier_plantvillage_loss3/classifier_plantvillage_0_split -> loss3/classifier_plantvillage_loss3/classifier_plantvillage_0_split_2
I0403 19:37:52.230177 25353 net.cpp:399] loss3/classifier_plantvillage_loss3/classifier_plantvillage_0_split -> loss3/classifier_plantvillage_loss3/classifier_plantvillage_0_split_3
I0403 19:37:52.230280 25353 net.cpp:141] Setting up loss3/classifier_plantvillage_loss3/classifier_plantvillage_0_split
I0403 19:37:52.230311 25353 net.cpp:148] Top shape: 24 38 (912)
I0403 19:37:52.230330 25353 net.cpp:148] Top shape: 24 38 (912)
I0403 19:37:52.230347 25353 net.cpp:148] Top shape: 24 38 (912)
I0403 19:37:52.230363 25353 net.cpp:148] Top shape: 24 38 (912)
I0403 19:37:52.230376 25353 net.cpp:156] Memory required for data: 1346079072
I0403 19:37:52.230393 25353 layer_factory.hpp:77] Creating layer loss1/loss
I0403 19:37:52.230418 25353 net.cpp:91] Creating Layer loss1/loss
I0403 19:37:52.230438 25353 net.cpp:425] loss1/loss <- loss1/classifier_plantvillage_loss1/classifier_plantvillage_0_split_0
I0403 19:37:52.230473 25353 net.cpp:425] loss1/loss <- label_data_1_split_0
…
