…
I0403 19:29:12.382817 24843 net.cpp:313] The NetState phase (1) differed from the phase (0) specified by a rule in layer data
I0403 19:29:12.383980 24843 net.cpp:49] Initializing net from parameters: 
state {
  phase: TEST
}
layer {
  name: "data"
  type: "Data"
  top: "data"
  top: "label"
  include {
    phase: TEST
  }
  transform_param {
    mirror: false
    crop_size: 224
    mean_file: "/home/mohanty/data/final_dataset/lmdb/grayscale-80-20/mean.binaryproto"
  }
  data_param {
    source: "/home/mohanty/data/final_dataset/lmdb/grayscale-80-20/test_db"
    batch_size: 24
    backend: LMDB
  }
}
layer {
  name: "conv1/7x7_s2"
  type: "Convolution"
  bottom: "data"
  top: "conv1/7x7_s2"
  param {
    lr_mult: 1
    decay_mult: 1
  }
  param {
    lr_mult: 2
    decay_mult: 0
  }
  convolution_param {
    num_output: 64
    pad: 3
    kernel_size: 7
    stride: 2
    weight_filler {
      type: "xavier"
      std: 0.1
    }
    bias_filler {
      type: "constant"
      value: 0.2
    }
  }
}
layer {
  name: "conv1/relu_7x7"
  type: "ReLU"
  bottom: "conv1/7x7_s2"
  top: "conv1/7x7_s2"
}
layer {
  name: "pool1/3x3_s2"
  type: "Pooling"
  bottom: "conv1/7x7_s2"
  top: "pool1/3x3_s2"
  pooling_param {
    pool: MAX
    kernel_size: 3
    stride: 2
  }
}
layer {
  name: "pool1/norm1"
  type: "LRN"
  bottom: "pool1/3x3_s2"
  top: "pool1/norm1"
  lrn_param {
    local_size: 5
    alpha: 0.0001
    beta: 0.75
  }
}
layer {
  name: "conv2/3x3_reduce"
  type: "Convolution"
  bottom: "pool1/norm1"
  top: "conv2/3x3_reduce"
  param {
    lr_mult: 1
    decay_mult: 1
  }
  param {
    lr_mult: 2
    decay_mult: 0
  }
  convolution_param {
    num_output: 64
    kernel_size: 1
    weight_filler {
      type: "xavier"
      std: 0.1
    }
    bias_filler {
      type: "constant"
      value: 0.2
    }
  }
}
layer {
  name: "conv2/relu_3x3_reduce"
  type: "ReLU"
  bottom: "conv2/3x3_reduce"
  top: "conv2/3x3_reduce"
}
layer {
  name: "conv2/3x3"
  type: "Convolution"
  bottom: "conv2/3x3_reduce"
  top: "conv2/3x3"
  param {
    lr_mult: 1
    decay_mult: 1
  }
  param {
    lr_mult: 2
    decay_mult: 0
  }
  convolution_param {
    num_output: 192
    pad: 1
    kernel_size: 3
    weight_filler {
      type: "xavier"
      std: 0.03
    }
    bias_filler {
      type: "constant"
      value: 0.2
    }
  }
}
layer {
  name: "conv2/relu_3x3"
  type: "ReLU"
  bottom: "conv2/3x3"
  top: "conv2/3x3"
}
layer {
  name: "conv2/norm2"
  type: "LRN"
  bottom: "conv2/3x3"
  top: "conv2/norm2"
  lrn_param {
    local_size: 5
    alpha: 0.0001
    beta: 0.75
  }
}
layer {
  name: "pool2/3x3_s2"
  type: "Pooling"
  bottom: "conv2/norm2"
  top: "pool2/3x3_s2"
  pooling_param {
    pool: MAX
    kernel_size: 3
    stride: 2
  }
}
layer {
  name: "inception_3a/1x1"
  type: "Convolution"
  bottom: "pool2/3x3_s2"
  top: "inception_3a/1x1"
  param {
    lr_mult: 1
    decay_mult: 1
  }
  param {
    lr_mult: 2
    decay_mult: 0
  }
  convolution_param {
    num_output: 64
    kernel_size: 1
    weight_filler {
      type: "xavier"
      std: 0.03
    }
    bias_filler {
      type: "constant"
      value: 0.2
    }
  }
}
layer {
  name: "inception_3a/relu_1x1"
  type: "ReLU"
  bottom: "inception_3a/1x1"
  top: "inception_3a/1x1"
}
layer {
  name: "inception_3a/3x3_reduce"
  type: "Convolution"
  bottom: "pool2/3x3_s2"
  top: "inception_3a/3x3_reduce"
  param {
    lr_mult: 1
    decay_mult: 1
  }
  param {
    lr_mult: 2
    decay_mult: 0
  }
  convolution_param {
    num_output: 96
    kernel_size: 1
    weight_filler {
      type: "xavier"
      std: 0.09
    }
    bias_filler {
      type: "constant"
      value: 0.2
    }
  }
}
layer {
  name: "inception_3a/relu_3x3_reduce"
  type: "ReLU"
  bottom: "inception_3a/3x3_reduce"
  top: "inception_3a/3x3_reduce"
}
layer {
  name: "inception_3a/3x3"
  type: "Convolution"
  bottom: "inception_3a/3x3_reduce"
  top: "inception_3a/3x3"
  param {
    lr_mult: 1
    decay_mult: 1
  }
  param {
    lr_mult: 2
    decay_mult: 0
  }
  convolution_param {
    num_output: 128
    pad: 1
    kernel_size: 3
    weight_filler {
      type: "xavier"
      std: 0.03
    }
    bias_filler {
      type: "constant"
      value: 0.2
    }
  }
}
layer {
  name: "inception_3a/relu_3x3"
  type: "ReLU"
  bottom: "inception_3a/3x3"
  top: "inception_3a/3x3"
}
layer {
  name: "inception_3a/5x5_reduce"
  type: "Convolution"
  bottom: "pool2/3x3_s2"
  top: "inception_3a/5x5_reduce"
  param {
    lr_mult: 1
    decay_mult: 1
  }
  param {
    lr_mult: 2
    decay_mult: 0
  }
  convolution_param {
    num_output: 16
    kernel_size: 1
    weight_filler {
      type: "xavier"
      std: 0.2
    }
    bias_filler {
      type: "constant"
      value: 0.2
    }
  }
}
layer {
  name: "inception_3a/relu_5x5_reduce"
  type: "ReLU"
  bottom: "inception_3a/5x5_reduce"
  top: "inception_3a/5x5_reduce"
}
layer {
  name: "inception_3a/5x5"
  type: "Convolution"
  bottom: "inception_3a/5x5_reduce"
  top: "inception_3a/5x5"
  param {
    lr_mult: 1
    decay_mult: 1
  }
  param {
    lr_mult: 2
    decay_mult: 0
  }
  convolution_param {
    num_output: 32
    pad: 2
    kernel_size: 5
    weight_filler {
      type: "xavier"
      std: 0.03
    }
    bias_filler {
      type: "constant"
      value: 0.2
    }
  }
}
layer {
  name: "inception_3a/relu_5x5"
  type: "ReLU"
  bottom: "inception_3a/5x5"
  top: "inception_3a/5x5"
}
layer {
  name: "inception_3a/pool"
  type: "Pooling"
  bottom: "pool2/3x3_s2"
  top: "inception_3a/pool"
  pooling_param {
    pool: MAX
    kernel_size: 3
    stride: 1
    pad: 1
  }
}
layer {
  name: "inception_3a/pool_proj"
  type: "Convolution"
  bottom: "inception_3a/pool"
  top: "inception_3a/pool_proj"
  param {
    lr_mult: 1
    decay_mult: 1
  }
  param {
    lr_mult: 2
    decay_mult: 0
  }
  convolution_param {
    num_output: 32
    kernel_size: 1
    weight_filler {
      type: "xavier"
      std: 0.1
    }
    bias_filler {
      type: "constant"
      value: 0.2
    }
  }
}
layer {
  name: "inception_3a/relu_pool_proj"
  type: "ReLU"
  bottom: "inception_3a/pool_proj"
  top: "inception_3a/pool_proj"
}
layer {
  name: "inception_3a/output"
  type: "Concat"
  bottom: "inception_3a/1x1"
  bottom: "inception_3a/3x3"
  bottom: "inception_3a/5x5"
  bottom: "inception_3a/pool_proj"
  top: "inception_3a/output"
}
layer {
  name: "inception_3b/1x1"
  type: "Convolution"
  bottom: "inception_3a/output"
  top: "inception_3b/1x1"
  param {
    lr_mult: 1
    decay_mult: 1
  }
  param {
    lr_mult: 2
    decay_mult: 0
  }
  convolution_param {
    num_output: 128
    kernel_size: 1
    weight_filler {
      type: "xavier"
      std: 0.03
    }
    bias_filler {
      type: "constant"
      value: 0.2
    }
  }
}
layer {
  name: "inception_3b/relu_1x1"
  type: "ReLU"
  bottom: "inception_3b/1x1"
  top: "inception_3b/1x1"
}
layer {
  name: "inception_3b/3x3_reduce"
  type: "Convolution"
  bottom: "inception_3a/output"
  top: "inception_3b/3x3_reduce"
  param {
    lr_mult: 1
    decay_mult: 1
  }
  param {
    lr_mult: 2
    decay_mult: 0
  }
  convolution_param {
    num_output: 128
    kernel_size: 1
    weight_filler {
      type: "xavier"
      std: 0.09
    }
    bias_filler {
      type: "constant"
      value: 0.2
    }
  }
}
layer {
  name: "inception_3b/relu_3x3_reduce"
  type: "ReLU"
  bottom: "inception_3b/3x3_reduce"
  top: "inception_3b/3x3_reduce"
}
layer {
  name: "inception_3b/3x3"
  type: "Convolution"
  bottom: "inception_3b/3x3_reduce"
  top: "inception_3b/3x3"
  param {
    lr_mult: 1
    decay_mult: 1
  }
  param {
    lr_mult: 2
    decay_mult: 0
  }
  convolution_param {
    num_output: 192
    pad: 1
    kernel_size: 3
    weight_filler {
      type: "xavier"
      std: 0.03
    }
    bias_filler {
      type: "constant"
      value: 0.2
    }
  }
}
layer {
  name: "inception_3b/relu_3x3"
  type: "ReLU"
  bottom: "inception_3b/3x3"
  top: "inception_3b/3x3"
}
layer {
  name: "inception_3b/5x5_reduce"
  type: "Convolution"
  bottom: "inception_3a/output"
  top: "inception_3b/5x5_reduce"
  param {
    lr_mult: 1
    decay_mult: 1
  }
  param {
    lr_mult: 2
    decay_mult: 0
  }
  convolution_param {
    num_output: 32
    kernel_size: 1
    weight_filler {
      type: "xavier"
      std: 0.2
    }
    bias_filler {
      type: "constant"
      value: 0.2
    }
  }
}
layer {
  name: "inception_3b/relu_5x5_reduce"
  type: "ReLU"
  bottom: "inception_3b/5x5_reduce"
  top: "inception_3b/5x5_reduce"
}
layer {
  name: "inception_3b/5x5"
  type: "Convolution"
  bottom: "inception_3b/5x5_reduce"
  top: "inception_3b/5x5"
  param {
    lr_mult: 1
    decay_mult: 1
  }
  param {
    lr_mult: 2
    decay_mult: 0
  }
  convolution_param {
    num_output: 96
    pad: 2
    kernel_size: 5
    weight_filler {
      type: "xavier"
      std: 0.03
    }
    bias_filler {
      type: "constant"
      value: 0.2
    }
  }
}
layer {
  name: "inception_3b/relu_5x5"
  type: "ReLU"
  bottom: "inception_3b/5x5"
  top: "inception_3b/5x5"
}
layer {
  name: "inception_3b/pool"
  type: "Pooling"
  bottom: "inception_3a/output"
  top: "inception_3b/pool"
  pooling_param {
    pool: MAX
    kernel_size: 3
    stride: 1
    pad: 1
  }
}
layer {
  name: "inception_3b/pool_proj"
  type: "Convolution"
  bottom: "inception_3b/pool"
  top: "inception_3b/pool_proj"
  param {
    lr_mult: 1
    decay_mult: 1
  }
  param {
    lr_mult: 2
    decay_mult: 0
  }
  convolution_param {
    num_output: 64
    kernel_size: 1
    weight_filler {
      type: "xavier"
      std: 0.1
    }
    bias_filler {
      type: "constant"
      value: 0.2
    }
  }
}
layer {
  name: "inception_3b/relu_pool_proj"
  type: "ReLU"
  bottom: "inception_3b/pool_proj"
  top: "inception_3b/pool_proj"
}
layer {
  name: "inception_3b/output"
  type: "Concat"
  bottom: "inception_3b/1x1"
  bottom: "inception_3b/3x3"
  bottom: "inception_3b/5x5"
  bottom: "inception_3b/pool_proj"
  top: "inception_3b/output"
}
layer {
  name: "pool3/3x3_s2"
  type: "Pooling"
  bottom: "inception_3b/output"
  top: "pool3/3x3_s2"
  pooling_param {
    pool: MAX
    kernel_size: 3
    stride: 2
  }
}
layer {
  name: "inception_4a/1x1"
  type: "Convolution"
  bottom: "pool3/3x3_s2"
  top: "inception_4a/1x1"
  param {
    lr_mult: 1
    decay_mult: 1
  }
  param {
    lr_mult: 2
    decay_mult: 0
  }
  convolution_param {
    num_output: 192
    kernel_size: 1
    weight_filler {
      type: "xavier"
      std: 0.03
    }
    bias_filler {
      type: "constant"
      value: 0.2
    }
  }
}
layer {
  name: "inception_4a/relu_1x1"
  type: "ReLU"
  bottom: "inception_4a/1x1"
  top: "inception_4a/1x1"
}
layer {
  name: "inception_4a/3x3_reduce"
  type: "Convolution"
  bottom: "pool3/3x3_s2"
  top: "inception_4a/3x3_reduce"
  param {
    lr_mult: 1
    decay_mult: 1
  }
  param {
    lr_mult: 2
    decay_mult: 0
  }
  convolution_param {
    num_output: 96
    kernel_size: 1
    weight_filler {
      type: "xavier"
      std: 0.09
    }
    bias_filler {
      type: "constant"
      value: 0.2
    }
  }
}
layer {
  name: "inception_4a/relu_3x3_reduce"
  type: "ReLU"
  bottom: "inception_4a/3x3_reduce"
  top: "inception_4a/3x3_reduce"
}
layer {
  name: "inception_4a/3x3"
  type: "Convolution"
  bottom: "inception_4a/3x3_reduce"
  top: "inception_4a/3x3"
  param {
    lr_mult: 1
    decay_mult: 1
  }
  param {
    lr_mult: 2
    decay_mult: 0
  }
  convolution_param {
    num_output: 208
    pad: 1
    kernel_size: 3
    weight_filler {
      type: "xavier"
      std: 0.03
    }
    bias_filler {
      type: "constant"
      value: 0.2
    }
  }
}
layer {
  name: "inception_4a/relu_3x3"
  type: "ReLU"
  bottom: "inception_4a/3x3"
  top: "inception_4a/3x3"
}
layer {
  name: "inception_4a/5x5_reduce"
  type: "Convolution"
  bottom: "pool3/3x3_s2"
  top: "inception_4a/5x5_reduce"
  param {
    lr_mult: 1
    decay_mult: 1
  }
  param {
    lr_mult: 2
    decay_mult: 0
  }
  convolution_param {
    num_output: 16
    kernel_size: 1
    weight_filler {
      type: "xavier"
      std: 0.2
    }
    bias_filler {
      type: "constant"
      value: 0.2
    }
  }
}
layer {
  name: "inception_4a/relu_5x5_reduce"
  type: "ReLU"
  bottom: "inception_4a/5x5_reduce"
  top: "inception_4a/5x5_reduce"
}
layer {
  name: "inception_4a/5x5"
  type: "Convolution"
  bottom: "inception_4a/5x5_reduce"
  top: "inception_4a/5x5"
  param {
    lr_mult: 1
    decay_mult: 1
  }
  param {
    lr_mult: 2
    decay_mult: 0
  }
  convolution_param {
    num_output: 48
    pad: 2
    kernel_size: 5
    weight_filler {
      type: "xavier"
      std: 0.03
    }
    bias_filler {
      type: "constant"
      value: 0.2
    }
  }
}
layer {
  name: "inception_4a/relu_5x5"
  type: "ReLU"
  bottom: "inception_4a/5x5"
  top: "inception_4a/5x5"
}
layer {
  name: "inception_4a/pool"
  type: "Pooling"
  bottom: "pool3/3x3_s2"
  top: "inception_4a/pool"
  pooling_param {
    pool: MAX
    kernel_size: 3
    stride: 1
    pad: 1
  }
}
layer {
  name: "inception_4a/pool_proj"
  type: "Convolution"
  bottom: "inception_4a/pool"
  top: "inception_4a/pool_proj"
  param {
    lr_mult: 1
    decay_mult: 1
  }
  param {
    lr_mult: 2
    decay_mult: 0
  }
  convolution_param {
    num_output: 64
    kernel_size: 1
    weight_filler {
      type: "xavier"
      std: 0.1
    }
    bias_filler {
      type: "constant"
      value: 0.2
    }
  }
}
layer {
  name: "inception_4a/relu_pool_proj"
  type: "ReLU"
  bottom: "inception_4a/pool_proj"
  top: "inception_4a/pool_proj"
}
layer {
  name: "inception_4a/output"
  type: "Concat"
  bottom: "inception_4a/1x1"
  bottom: "inception_4a/3x3"
  bottom: "inception_4a/5x5"
  bottom: "inception_4a/pool_proj"
  top: "inception_4a/output"
}
layer {
  name: "loss1/ave_pool"
  type: "Pooling"
  bottom: "inception_4a/output"
  top: "loss1/ave_pool"
  pooling_param {
    pool: AVE
    kernel_size: 5
    stride: 3
  }
}
layer {
  name: "loss1/conv"
  type: "Convolution"
  bottom: "loss1/ave_pool"
  top: "loss1/conv"
  param {
    lr_mult: 1
    decay_mult: 1
  }
  param {
    lr_mult: 2
    decay_mult: 0
  }
  convolution_param {
    num_output: 128
    kernel_size: 1
    weight_filler {
      type: "xavier"
      std: 0.08
    }
    bias_filler {
      type: "constant"
      value: 0.2
    }
  }
}
layer {
  name: "loss1/relu_conv"
  type: "ReLU"
  bottom: "loss1/conv"
  top: "loss1/conv"
}
layer {
  name: "loss1/fc"
  type: "InnerProduct"
  bottom: "loss1/conv"
  top: "loss1/fc"
  param {
    lr_mult: 1
    decay_mult: 1
  }
  param {
    lr_mult: 2
    decay_mult: 0
  }
  inner_product_param {
    num_output: 1024
    weight_filler {
      type: "xavier"
      std: 0.02
    }
    bias_filler {
      type: "constant"
      value: 0.2
    }
  }
}
layer {
  name: "loss1/relu_fc"
  type: "ReLU"
  bottom: "loss1/fc"
  top: "loss1/fc"
}
layer {
  name: "loss1/drop_fc"
  type: "Dropout"
  bottom: "loss1/fc"
  top: "loss1/fc"
  dropout_param {
    dropout_ratio: 0.7
  }
}
layer {
  name: "loss1/classifier_plantvillage"
  type: "InnerProduct"
  bottom: "loss1/fc"
  top: "loss1/classifier_plantvillage"
  param {
    lr_mult: 1
    decay_mult: 1
  }
  param {
    lr_mult: 2
    decay_mult: 0
  }
  inner_product_param {
    num_output: 38
    weight_filler {
      type: "xavier"
      std: 0.0009765625
    }
    bias_filler {
      type: "constant"
      value: 0
    }
  }
}
layer {
  name: "inception_4b/1x1"
  type: "Convolution"
  bottom: "inception_4a/output"
  top: "inception_4b/1x1"
  param {
    lr_mult: 1
    decay_mult: 1
  }
  param {
    lr_mult: 2
    decay_mult: 0
  }
  convolution_param {
    num_output: 160
    kernel_size: 1
    weight_filler {
      type: "xavier"
      std: 0.03
    }
    bias_filler {
      type: "constant"
      value: 0.2
    }
  }
}
layer {
  name: "inception_4b/relu_1x1"
  type: "ReLU"
  bottom: "inception_4b/1x1"
  top: "inception_4b/1x1"
}
layer {
  name: "inception_4b/3x3_reduce"
  type: "Convolution"
  bottom: "inception_4a/output"
  top: "inception_4b/3x3_reduce"
  param {
    lr_mult: 1
    decay_mult: 1
  }
  param {
    lr_mult: 2
    decay_mult: 0
  }
  convolution_param {
    num_output: 112
    kernel_size: 1
    weight_filler {
      type: "xavier"
      std: 0.09
    }
    bias_filler {
      type: "constant"
      value: 0.2
    }
  }
}
layer {
  name: "inception_4b/relu_3x3_reduce"
  type: "ReLU"
  bottom: "inception_4b/3x3_reduce"
  top: "inception_4b/3x3_reduce"
}
layer {
  name: "inception_4b/3x3"
  type: "Convolution"
  bottom: "inception_4b/3x3_reduce"
  top: "inception_4b/3x3"
  param {
    lr_mult: 1
    decay_mult: 1
  }
  param {
    lr_mult: 2
    decay_mult: 0
  }
  convolution_param {
    num_output: 224
    pad: 1
    kernel_size: 3
    weight_filler {
      type: "xavier"
      std: 0.03
    }
    bias_filler {
      type: "constant"
      value: 0.2
    }
  }
}
layer {
  name: "inception_4b/relu_3x3"
  type: "ReLU"
  bottom: "inception_4b/3x3"
  top: "inception_4b/3x3"
}
layer {
  name: "inception_4b/5x5_reduce"
  type: "Convolution"
  bottom: "inception_4a/output"
  top: "inception_4b/5x5_reduce"
  param {
    lr_mult: 1
    decay_mult: 1
  }
  param {
    lr_mult: 2
    decay_mult: 0
  }
  convolution_param {
    num_output: 24
    kernel_size: 1
    weight_filler {
      type: "xavier"
      std: 0.2
    }
    bias_filler {
      type: "constant"
      value: 0.2
    }
  }
}
layer {
  name: "inception_4b/relu_5x5_reduce"
  type: "ReLU"
  bottom: "inception_4b/5x5_reduce"
  top: "inception_4b/5x5_reduce"
}
layer {
  name: "inception_4b/5x5"
  type: "Convolution"
  bottom: "inception_4b/5x5_reduce"
  top: "inception_4b/5x5"
  param {
    lr_mult: 1
    decay_mult: 1
  }
  param {
    lr_mult: 2
    decay_mult: 0
  }
  convolution_param {
    num_output: 64
    pad: 2
    kernel_size: 5
    weight_filler {
      type: "xavier"
      std: 0.03
    }
    bias_filler {
      type: "constant"
      value: 0.2
    }
  }
}
layer {
  name: "inception_4b/relu_5x5"
  type: "ReLU"
  bottom: "inception_4b/5x5"
  top: "inception_4b/5x5"
}
layer {
  name: "inception_4b/pool"
  type: "Pooling"
  bottom: "inception_4a/output"
  top: "inception_4b/pool"
  pooling_param {
    pool: MAX
    kernel_size: 3
    stride: 1
    pad: 1
  }
}
layer {
  name: "inception_4b/pool_proj"
  type: "Convolution"
  bottom: "inception_4b/pool"
  top: "inception_4b/pool_proj"
  param {
    lr_mult: 1
    decay_mult: 1
  }
  param {
    lr_mult: 2
    decay_mult: 0
  }
  convolution_param {
    num_output: 64
    kernel_size: 1
    weight_filler {
      type: "xavier"
      std: 0.1
    }
    bias_filler {
      type: "constant"
      value: 0.2
    }
  }
}
layer {
  name: "inception_4b/relu_pool_proj"
  type: "ReLU"
  bottom: "inception_4b/pool_proj"
  top: "inception_4b/pool_proj"
}
layer {
  name: "inception_4b/output"
  type: "Concat"
  bottom: "inception_4b/1x1"
  bottom: "inception_4b/3x3"
  bottom: "inception_4b/5x5"
  bottom: "inception_4b/pool_proj"
  top: "inception_4b/output"
}
layer {
  name: "inception_4c/1x1"
  type: "Convolution"
  bottom: "inception_4b/output"
  top: "inception_4c/1x1"
  param {
    lr_mult: 1
    decay_mult: 1
  }
  param {
    lr_mult: 2
    decay_mult: 0
  }
  convolution_param {
    num_output: 128
    kernel_size: 1
    weight_filler {
      type: "xavier"
      std: 0.03
    }
    bias_filler {
      type: "constant"
      value: 0.2
    }
  }
}
layer {
  name: "inception_4c/relu_1x1"
  type: "ReLU"
  bottom: "inception_4c/1x1"
  top: "inception_4c/1x1"
}
layer {
  name: "inception_4c/3x3_reduce"
  type: "Convolution"
  bottom: "inception_4b/output"
  top: "inception_4c/3x3_reduce"
  param {
    lr_mult: 1
    decay_mult: 1
  }
  param {
    lr_mult: 2
    decay_mult: 0
  }
  convolution_param {
    num_output: 128
    kernel_size: 1
    weight_filler {
      type: "xavier"
      std: 0.09
    }
    bias_filler {
      type: "constant"
      value: 0.2
    }
  }
}
layer {
  name: "inception_4c/relu_3x3_reduce"
  type: "ReLU"
  bottom: "inception_4c/3x3_reduce"
  top: "inception_4c/3x3_reduce"
}
layer {
  name: "inception_4c/3x3"
  type: "Convolution"
  bottom: "inception_4c/3x3_reduce"
  top: "inception_4c/3x3"
  param {
    lr_mult: 1
    decay_mult: 1
  }
  param {
    lr_mult: 2
    decay_mult: 0
  }
  convolution_param {
    num_output: 256
    pad: 1
    kernel_size: 3
    weight_filler {
      type: "xavier"
      std: 0.03
    }
    bias_filler {
      type: "constant"
      value: 0.2
    }
  }
}
layer {
  name: "inception_4c/relu_3x3"
  type: "ReLU"
  bottom: "inception_4c/3x3"
  top: "inception_4c/3x3"
}
layer {
  name: "inception_4c/5x5_reduce"
  type: "Convolution"
  bottom: "inception_4b/output"
  top: "inception_4c/5x5_reduce"
  param {
    lr_mult: 1
    decay_mult: 1
  }
  param {
    lr_mult: 2
    decay_mult: 0
  }
  convolution_param {
    num_output: 24
    kernel_size: 1
    weight_filler {
      type: "xavier"
      std: 0.2
    }
    bias_filler {
      type: "constant"
      value: 0.2
    }
  }
}
layer {
  name: "inception_4c/relu_5x5_reduce"
  type: "ReLU"
  bottom: "inception_4c/5x5_reduce"
  top: "inception_4c/5x5_reduce"
}
layer {
  name: "inception_4c/5x5"
  type: "Convolution"
  bottom: "inception_4c/5x5_reduce"
  top: "inception_4c/5x5"
  param {
    lr_mult: 1
    decay_mult: 1
  }
  param {
    lr_mult: 2
    decay_mult: 0
  }
  convolution_param {
    num_output: 64
    pad: 2
    kernel_size: 5
    weight_filler {
      type: "xavier"
      std: 0.03
    }
    bias_filler {
      type: "constant"
      value: 0.2
    }
  }
}
layer {
  name: "inception_4c/relu_5x5"
  type: "ReLU"
  bottom: "inception_4c/5x5"
  top: "inception_4c/5x5"
}
layer {
  name: "inception_4c/pool"
  type: "Pooling"
  bottom: "inception_4b/output"
  top: "inception_4c/pool"
  pooling_param {
    pool: MAX
    kernel_size: 3
    stride: 1
    pad: 1
  }
}
layer {
  name: "inception_4c/pool_proj"
  type: "Convolution"
  bottom: "inception_4c/pool"
  top: "inception_4c/pool_proj"
  param {
    lr_mult: 1
    decay_mult: 1
  }
  param {
    lr_mult: 2
    decay_mult: 0
  }
  convolution_param {
    num_output: 64
    kernel_size: 1
    weight_filler {
      type: "xavier"
      std: 0.1
    }
    bias_filler {
      type: "constant"
      value: 0.2
    }
  }
}
layer {
  name: "inception_4c/relu_pool_proj"
  type: "ReLU"
  bottom: "inception_4c/pool_proj"
  top: "inception_4c/pool_proj"
}
layer {
  name: "inception_4c/output"
  type: "Concat"
  bottom: "inception_4c/1x1"
  bottom: "inception_4c/3x3"
  bottom: "inception_4c/5x5"
  bottom: "inception_4c/pool_proj"
  top: "inception_4c/output"
}
layer {
  name: "inception_4d/1x1"
  type: "Convolution"
  bottom: "inception_4c/output"
  top: "inception_4d/1x1"
  param {
    lr_mult: 1
    decay_mult: 1
  }
  param {
    lr_mult: 2
    decay_mult: 0
  }
  convolution_param {
    num_output: 112
    kernel_size: 1
    weight_filler {
      type: "xavier"
      std: 0.03
    }
    bias_filler {
      type: "constant"
      value: 0.2
    }
  }
}
layer {
  name: "inception_4d/relu_1x1"
  type: "ReLU"
  bottom: "inception_4d/1x1"
  top: "inception_4d/1x1"
}
layer {
  name: "inception_4d/3x3_reduce"
  type: "Convolution"
  bottom: "inception_4c/output"
  top: "inception_4d/3x3_reduce"
  param {
    lr_mult: 1
    decay_mult: 1
  }
  param {
    lr_mult: 2
    decay_mult: 0
  }
  convolution_param {
    num_output: 144
    kernel_size: 1
    weight_filler {
      type: "xavier"
      std: 0.09
    }
    bias_filler {
      type: "constant"
      value: 0.2
    }
  }
}
layer {
  name: "inception_4d/relu_3x3_reduce"
  type: "ReLU"
  bottom: "inception_4d/3x3_reduce"
  top: "inception_4d/3x3_reduce"
}
layer {
  name: "inception_4d/3x3"
  type: "Convolution"
  bottom: "inception_4d/3x3_reduce"
  top: "inception_4d/3x3"
  param {
    lr_mult: 1
    decay_mult: 1
  }
  param {
    lr_mult: 2
    decay_mult: 0
  }
  convolution_param {
    num_output: 288
    pad: 1
    kernel_size: 3
    weight_filler {
      type: "xavier"
      std: 0.03
    }
    bias_filler {
      type: "constant"
      value: 0.2
    }
  }
}
layer {
  name: "inception_4d/relu_3x3"
  type: "ReLU"
  bottom: "inception_4d/3x3"
  top: "inception_4d/3x3"
}
layer {
  name: "inception_4d/5x5_reduce"
  type: "Convolution"
  bottom: "inception_4c/output"
  top: "inception_4d/5x5_reduce"
  param {
    lr_mult: 1
    decay_mult: 1
  }
  param {
    lr_mult: 2
    decay_mult: 0
  }
  convolution_param {
    num_output: 32
    kernel_size: 1
    weight_filler {
      type: "xavier"
      std: 0.2
    }
    bias_filler {
      type: "constant"
      value: 0.2
    }
  }
}
layer {
  name: "inception_4d/relu_5x5_reduce"
  type: "ReLU"
  bottom: "inception_4d/5x5_reduce"
  top: "inception_4d/5x5_reduce"
}
layer {
  name: "inception_4d/5x5"
  type: "Convolution"
  bottom: "inception_4d/5x5_reduce"
  top: "inception_4d/5x5"
  param {
    lr_mult: 1
    decay_mult: 1
  }
  param {
    lr_mult: 2
    decay_mult: 0
  }
  convolution_param {
    num_output: 64
    pad: 2
    kernel_size: 5
    weight_filler {
      type: "xavier"
      std: 0.03
    }
    bias_filler {
      type: "constant"
      value: 0.2
    }
  }
}
layer {
  name: "inception_4d/relu_5x5"
  type: "ReLU"
  bottom: "inception_4d/5x5"
  top: "inception_4d/5x5"
}
layer {
  name: "inception_4d/pool"
  type: "Pooling"
  bottom: "inception_4c/output"
  top: "inception_4d/pool"
  pooling_param {
    pool: MAX
    kernel_size: 3
    stride: 1
    pad: 1
  }
}
layer {
  name: "inception_4d/pool_proj"
  type: "Convolution"
  bottom: "inception_4d/pool"
  top: "inception_4d/pool_proj"
  param {
    lr_mult: 1
    decay_mult: 1
  }
  param {
    lr_mult: 2
    decay_mult: 0
  }
  convolution_param {
    num_output: 64
    kernel_size: 1
    weight_filler {
      type: "xavier"
      std: 0.1
    }
    bias_filler {
      type: "constant"
      value: 0.2
    }
  }
}
layer {
  name: "inception_4d/relu_pool_proj"
  type: "ReLU"
  bottom: "inception_4d/pool_proj"
  top: "inception_4d/pool_proj"
}
layer {
  name: "inception_4d/output"
  type: "Concat"
  bottom: "inception_4d/1x1"
  bottom: "inception_4d/3x3"
  bottom: "inception_4d/5x5"
  bottom: "inception_4d/pool_proj"
  top: "inception_4d/output"
}
layer {
  name: "loss2/ave_pool"
  type: "Pooling"
  bottom: "inception_4d/output"
  top: "loss2/ave_pool"
  pooling_param {
    pool: AVE
    kernel_size: 5
    stride: 3
  }
}
layer {
  name: "loss2/conv"
  type: "Convolution"
  bottom: "loss2/ave_pool"
  top: "loss2/conv"
  param {
    lr_mult: 1
    decay_mult: 1
  }
  param {
    lr_mult: 2
    decay_mult: 0
  }
  convolution_param {
    num_output: 128
    kernel_size: 1
    weight_filler {
      type: "xavier"
      std: 0.08
    }
    bias_filler {
      type: "constant"
      value: 0.2
    }
  }
}
layer {
  name: "loss2/relu_conv"
  type: "ReLU"
  bottom: "loss2/conv"
  top: "loss2/conv"
}
layer {
  name: "loss2/fc"
  type: "InnerProduct"
  bottom: "loss2/conv"
  top: "loss2/fc"
  param {
    lr_mult: 1
    decay_mult: 1
  }
  param {
    lr_mult: 2
    decay_mult: 0
  }
  inner_product_param {
    num_output: 1024
    weight_filler {
      type: "xavier"
      std: 0.02
    }
    bias_filler {
      type: "constant"
      value: 0.2
    }
  }
}
layer {
  name: "loss2/relu_fc"
  type: "ReLU"
  bottom: "loss2/fc"
  top: "loss2/fc"
}
layer {
  name: "loss2/drop_fc"
  type: "Dropout"
  bottom: "loss2/fc"
  top: "loss2/fc"
  dropout_param {
    dropout_ratio: 0.7
  }
}
layer {
  name: "loss2/classifier_plantvillage"
  type: "InnerProduct"
  bottom: "loss2/fc"
  top: "loss2/classifier_plantvillage"
  param {
    lr_mult: 1
    decay_mult: 1
  }
  param {
    lr_mult: 2
    decay_mult: 0
  }
  inner_product_param {
    num_output: 38
    weight_filler {
      type: "xavier"
      std: 0.0009765625
    }
    bias_filler {
      type: "constant"
      value: 0
    }
  }
}
layer {
  name: "inception_4e/1x1"
  type: "Convolution"
  bottom: "inception_4d/output"
  top: "inception_4e/1x1"
  param {
    lr_mult: 1
    decay_mult: 1
  }
  param {
    lr_mult: 2
    decay_mult: 0
  }
  convolution_param {
    num_output: 256
    kernel_size: 1
    weight_filler {
      type: "xavier"
      std: 0.03
    }
    bias_filler {
      type: "constant"
      value: 0.2
    }
  }
}
layer {
  name: "inception_4e/relu_1x1"
  type: "ReLU"
  bottom: "inception_4e/1x1"
  top: "inception_4e/1x1"
}
layer {
  name: "inception_4e/3x3_reduce"
  type: "Convolution"
  bottom: "inception_4d/output"
  top: "inception_4e/3x3_reduce"
  param {
    lr_mult: 1
    decay_mult: 1
  }
  param {
    lr_mult: 2
    decay_mult: 0
  }
  convolution_param {
    num_output: 160
    kernel_size: 1
    weight_filler {
      type: "xavier"
      std: 0.09
    }
    bias_filler {
      type: "constant"
      value: 0.2
    }
  }
}
layer {
  name: "inception_4e/relu_3x3_reduce"
  type: "ReLU"
  bottom: "inception_4e/3x3_reduce"
  top: "inception_4e/3x3_reduce"
}
layer {
  name: "inception_4e/3x3"
  type: "Convolution"
  bottom: "inception_4e/3x3_reduce"
  top: "inception_4e/3x3"
  param {
    lr_mult: 1
    decay_mult: 1
  }
  param {
    lr_mult: 2
    decay_mult: 0
  }
  convolution_param {
    num_output: 320
    pad: 1
    kernel_size: 3
    weight_filler {
      type: "xavier"
      std: 0.03
    }
    bias_filler {
      type: "constant"
      value: 0.2
    }
  }
}
layer {
  name: "inception_4e/relu_3x3"
  type: "ReLU"
  bottom: "inception_4e/3x3"
  top: "inception_4e/3x3"
}
layer {
  name: "inception_4e/5x5_reduce"
  type: "Convolution"
  bottom: "inception_4d/output"
  top: "inception_4e/5x5_reduce"
  param {
    lr_mult: 1
    decay_mult: 1
  }
  param {
    lr_mult: 2
    decay_mult: 0
  }
  convolution_param {
    num_output: 32
    kernel_size: 1
    weight_filler {
      type: "xavier"
      std: 0.2
    }
    bias_filler {
      type: "constant"
      value: 0.2
    }
  }
}
layer {
  name: "inception_4e/relu_5x5_reduce"
  type: "ReLU"
  bottom: "inception_4e/5x5_reduce"
  top: "inception_4e/5x5_reduce"
}
layer {
  name: "inception_4e/5x5"
  type: "Convolution"
  bottom: "inception_4e/5x5_reduce"
  top: "inception_4e/
I0403 19:29:12.386976 24843 layer_factory.hpp:77] Creating layer data
I0403 19:29:12.388520 24843 net.cpp:91] Creating Layer data
I0403 19:29:12.388607 24843 net.cpp:399] data -> data
I0403 19:29:12.388744 24843 net.cpp:399] data -> label
I0403 19:29:12.388840 24843 data_transformer.cpp:25] Loading mean file from: /home/mohanty/data/final_dataset/lmdb/grayscale-80-20/mean.binaryproto
I0403 19:29:12.391096 24846 db_lmdb.cpp:38] Opened lmdb /home/mohanty/data/final_dataset/lmdb/grayscale-80-20/test_db
I0403 19:29:12.411711 24843 data_layer.cpp:41] output data size: 24,3,224,224
I0403 19:29:12.440356 24843 net.cpp:141] Setting up data
I0403 19:29:12.440457 24843 net.cpp:148] Top shape: 24 3 224 224 (3612672)
I0403 19:29:12.440485 24843 net.cpp:148] Top shape: 24 (24)
I0403 19:29:12.440501 24843 net.cpp:156] Memory required for data: 14450784
I0403 19:29:12.440536 24843 layer_factory.hpp:77] Creating layer label_data_1_split
I0403 19:29:12.440570 24843 net.cpp:91] Creating Layer label_data_1_split
I0403 19:29:12.440592 24843 net.cpp:425] label_data_1_split <- label
I0403 19:29:12.440630 24843 net.cpp:399] label_data_1_split -> label_data_1_split_0
I0403 19:29:12.440665 24843 net.cpp:399] label_data_1_split -> label_data_1_split_1
I0403 19:29:12.440690 24843 net.cpp:399] label_data_1_split -> label_data_1_split_2
I0403 19:29:12.440712 24843 net.cpp:399] label_data_1_split -> label_data_1_split_3
I0403 19:29:12.440735 24843 net.cpp:399] label_data_1_split -> label_data_1_split_4
I0403 19:29:12.440757 24843 net.cpp:399] label_data_1_split -> label_data_1_split_5
I0403 19:29:12.440778 24843 net.cpp:399] label_data_1_split -> label_data_1_split_6
I0403 19:29:12.440803 24843 net.cpp:399] label_data_1_split -> label_data_1_split_7
I0403 19:29:12.440824 24843 net.cpp:399] label_data_1_split -> label_data_1_split_8
I0403 19:29:12.440845 24843 net.cpp:399] label_data_1_split -> label_data_1_split_9
I0403 19:29:12.440968 24843 net.cpp:141] Setting up label_data_1_split
I0403 19:29:12.440995 24843 net.cpp:148] Top shape: 24 (24)
I0403 19:29:12.441014 24843 net.cpp:148] Top shape: 24 (24)
I0403 19:29:12.441031 24843 net.cpp:148] Top shape: 24 (24)
I0403 19:29:12.441047 24843 net.cpp:148] Top shape: 24 (24)
I0403 19:29:12.441064 24843 net.cpp:148] Top shape: 24 (24)
I0403 19:29:12.441079 24843 net.cpp:148] Top shape: 24 (24)
I0403 19:29:12.441097 24843 net.cpp:148] Top shape: 24 (24)
I0403 19:29:12.441112 24843 net.cpp:148] Top shape: 24 (24)
I0403 19:29:12.441128 24843 net.cpp:148] Top shape: 24 (24)
I0403 19:29:12.441148 24843 net.cpp:148] Top shape: 24 (24)
I0403 19:29:12.441200 24843 net.cpp:156] Memory required for data: 14451744
I0403 19:29:12.441218 24843 layer_factory.hpp:77] Creating layer conv1/7x7_s2
I0403 19:29:12.441259 24843 net.cpp:91] Creating Layer conv1/7x7_s2
I0403 19:29:12.441298 24843 net.cpp:425] conv1/7x7_s2 <- data
I0403 19:29:12.441323 24843 net.cpp:399] conv1/7x7_s2 -> conv1/7x7_s2
I0403 19:29:12.583400 24843 net.cpp:141] Setting up conv1/7x7_s2
I0403 19:29:12.583515 24843 net.cpp:148] Top shape: 24 64 112 112 (19267584)
I0403 19:29:12.583534 24843 net.cpp:156] Memory required for data: 91522080
I0403 19:29:12.583575 24843 layer_factory.hpp:77] Creating layer conv1/relu_7x7
I0403 19:29:12.583607 24843 net.cpp:91] Creating Layer conv1/relu_7x7
I0403 19:29:12.583629 24843 net.cpp:425] conv1/relu_7x7 <- conv1/7x7_s2
I0403 19:29:12.583652 24843 net.cpp:386] conv1/relu_7x7 -> conv1/7x7_s2 (in-place)
I0403 19:29:12.583912 24843 net.cpp:141] Setting up conv1/relu_7x7
I0403 19:29:12.583942 24843 net.cpp:148] Top shape: 24 64 112 112 (19267584)
I0403 19:29:12.583959 24843 net.cpp:156] Memory required for data: 168592416
I0403 19:29:12.583976 24843 layer_factory.hpp:77] Creating layer pool1/3x3_s2
I0403 19:29:12.584007 24843 net.cpp:91] Creating Layer pool1/3x3_s2
I0403 19:29:12.584028 24843 net.cpp:425] pool1/3x3_s2 <- conv1/7x7_s2
I0403 19:29:12.584048 24843 net.cpp:399] pool1/3x3_s2 -> pool1/3x3_s2
I0403 19:29:12.584130 24843 net.cpp:141] Setting up pool1/3x3_s2
I0403 19:29:12.584157 24843 net.cpp:148] Top shape: 24 64 56 56 (4816896)
I0403 19:29:12.584175 24843 net.cpp:156] Memory required for data: 187860000
I0403 19:29:12.584192 24843 layer_factory.hpp:77] Creating layer pool1/norm1
I0403 19:29:12.584221 24843 net.cpp:91] Creating Layer pool1/norm1
I0403 19:29:12.584240 24843 net.cpp:425] pool1/norm1 <- pool1/3x3_s2
I0403 19:29:12.584270 24843 net.cpp:399] pool1/norm1 -> pool1/norm1
I0403 19:29:12.584571 24843 net.cpp:141] Setting up pool1/norm1
I0403 19:29:12.584601 24843 net.cpp:148] Top shape: 24 64 56 56 (4816896)
I0403 19:29:12.584622 24843 net.cpp:156] Memory required for data: 207127584
I0403 19:29:12.584640 24843 layer_factory.hpp:77] Creating layer conv2/3x3_reduce
I0403 19:29:12.584669 24843 net.cpp:91] Creating Layer conv2/3x3_reduce
I0403 19:29:12.584689 24843 net.cpp:425] conv2/3x3_reduce <- pool1/norm1
I0403 19:29:12.584710 24843 net.cpp:399] conv2/3x3_reduce -> conv2/3x3_reduce
I0403 19:29:12.586072 24843 net.cpp:141] Setting up conv2/3x3_reduce
I0403 19:29:12.586103 24843 net.cpp:148] Top shape: 24 64 56 56 (4816896)
I0403 19:29:12.586122 24843 net.cpp:156] Memory required for data: 226395168
I0403 19:29:12.586146 24843 layer_factory.hpp:77] Creating layer conv2/relu_3x3_reduce
I0403 19:29:12.586169 24843 net.cpp:91] Creating Layer conv2/relu_3x3_reduce
I0403 19:29:12.586187 24843 net.cpp:425] conv2/relu_3x3_reduce <- conv2/3x3_reduce
I0403 19:29:12.586206 24843 net.cpp:386] conv2/relu_3x3_reduce -> conv2/3x3_reduce (in-place)
I0403 19:29:12.586463 24843 net.cpp:141] Setting up conv2/relu_3x3_reduce
I0403 19:29:12.586493 24843 net.cpp:148] Top shape: 24 64 56 56 (4816896)
I0403 19:29:12.586511 24843 net.cpp:156] Memory required for data: 245662752
I0403 19:29:12.586529 24843 layer_factory.hpp:77] Creating layer conv2/3x3
I0403 19:29:12.586551 24843 net.cpp:91] Creating Layer conv2/3x3
I0403 19:29:12.586572 24843 net.cpp:425] conv2/3x3 <- conv2/3x3_reduce
I0403 19:29:12.586592 24843 net.cpp:399] conv2/3x3 -> conv2/3x3
I0403 19:29:12.588832 24843 net.cpp:141] Setting up conv2/3x3
I0403 19:29:12.588865 24843 net.cpp:148] Top shape: 24 192 56 56 (14450688)
I0403 19:29:12.588883 24843 net.cpp:156] Memory required for data: 303465504
I0403 19:29:12.588907 24843 layer_factory.hpp:77] Creating layer conv2/relu_3x3
I0403 19:29:12.588928 24843 net.cpp:91] Creating Layer conv2/relu_3x3
I0403 19:29:12.588946 24843 net.cpp:425] conv2/relu_3x3 <- conv2/3x3
I0403 19:29:12.588966 24843 net.cpp:386] conv2/relu_3x3 -> conv2/3x3 (in-place)
I0403 19:29:12.589130 24843 net.cpp:141] Setting up conv2/relu_3x3
I0403 19:29:12.589161 24843 net.cpp:148] Top shape: 24 192 56 56 (14450688)
I0403 19:29:12.589205 24843 net.cpp:156] Memory required for data: 361268256
I0403 19:29:12.589223 24843 layer_factory.hpp:77] Creating layer conv2/norm2
I0403 19:29:12.589244 24843 net.cpp:91] Creating Layer conv2/norm2
I0403 19:29:12.589267 24843 net.cpp:425] conv2/norm2 <- conv2/3x3
I0403 19:29:12.589290 24843 net.cpp:399] conv2/norm2 -> conv2/norm2
I0403 19:29:12.589615 24843 net.cpp:141] Setting up conv2/norm2
I0403 19:29:12.589645 24843 net.cpp:148] Top shape: 24 192 56 56 (14450688)
I0403 19:29:12.589663 24843 net.cpp:156] Memory required for data: 419071008
I0403 19:29:12.589681 24843 layer_factory.hpp:77] Creating layer pool2/3x3_s2
I0403 19:29:12.589707 24843 net.cpp:91] Creating Layer pool2/3x3_s2
I0403 19:29:12.589726 24843 net.cpp:425] pool2/3x3_s2 <- conv2/norm2
I0403 19:29:12.589745 24843 net.cpp:399] pool2/3x3_s2 -> pool2/3x3_s2
I0403 19:29:12.589797 24843 net.cpp:141] Setting up pool2/3x3_s2
I0403 19:29:12.589823 24843 net.cpp:148] Top shape: 24 192 28 28 (3612672)
I0403 19:29:12.589838 24843 net.cpp:156] Memory required for data: 433521696
I0403 19:29:12.589855 24843 layer_factory.hpp:77] Creating layer pool2/3x3_s2_pool2/3x3_s2_0_split
I0403 19:29:12.589879 24843 net.cpp:91] Creating Layer pool2/3x3_s2_pool2/3x3_s2_0_split
I0403 19:29:12.589898 24843 net.cpp:425] pool2/3x3_s2_pool2/3x3_s2_0_split <- pool2/3x3_s2
I0403 19:29:12.589920 24843 net.cpp:399] pool2/3x3_s2_pool2/3x3_s2_0_split -> pool2/3x3_s2_pool2/3x3_s2_0_split_0
I0403 19:29:12.589942 24843 net.cpp:399] pool2/3x3_s2_pool2/3x3_s2_0_split -> pool2/3x3_s2_pool2/3x3_s2_0_split_1
I0403 19:29:12.589965 24843 net.cpp:399] pool2/3x3_s2_pool2/3x3_s2_0_split -> pool2/3x3_s2_pool2/3x3_s2_0_split_2
I0403 19:29:12.589987 24843 net.cpp:399] pool2/3x3_s2_pool2/3x3_s2_0_split -> pool2/3x3_s2_pool2/3x3_s2_0_split_3
I0403 19:29:12.590059 24843 net.cpp:141] Setting up pool2/3x3_s2_pool2/3x3_s2_0_split
I0403 19:29:12.590091 24843 net.cpp:148] Top shape: 24 192 28 28 (3612672)
I0403 19:29:12.590111 24843 net.cpp:148] Top shape: 24 192 28 28 (3612672)
I0403 19:29:12.590128 24843 net.cpp:148] Top shape: 24 192 28 28 (3612672)
I0403 19:29:12.590145 24843 net.cpp:148] Top shape: 24 192 28 28 (3612672)
I0403 19:29:12.590160 24843 net.cpp:156] Memory required for data: 491324448
I0403 19:29:12.590178 24843 layer_factory.hpp:77] Creating layer inception_3a/1x1
I0403 19:29:12.590199 24843 net.cpp:91] Creating Layer inception_3a/1x1
I0403 19:29:12.590217 24843 net.cpp:425] inception_3a/1x1 <- pool2/3x3_s2_pool2/3x3_s2_0_split_0
I0403 19:29:12.590242 24843 net.cpp:399] inception_3a/1x1 -> inception_3a/1x1
I0403 19:29:12.591819 24843 net.cpp:141] Setting up inception_3a/1x1
I0403 19:29:12.591851 24843 net.cpp:148] Top shape: 24 64 28 28 (1204224)
I0403 19:29:12.591869 24843 net.cpp:156] Memory required for data: 496141344
I0403 19:29:12.591891 24843 layer_factory.hpp:77] Creating layer inception_3a/relu_1x1
I0403 19:29:12.591912 24843 net.cpp:91] Creating Layer inception_3a/relu_1x1
I0403 19:29:12.591930 24843 net.cpp:425] inception_3a/relu_1x1 <- inception_3a/1x1
I0403 19:29:12.591949 24843 net.cpp:386] inception_3a/relu_1x1 -> inception_3a/1x1 (in-place)
I0403 19:29:12.592125 24843 net.cpp:141] Setting up inception_3a/relu_1x1
I0403 19:29:12.592156 24843 net.cpp:148] Top shape: 24 64 28 28 (1204224)
I0403 19:29:12.592175 24843 net.cpp:156] Memory required for data: 500958240
I0403 19:29:12.592191 24843 layer_factory.hpp:77] Creating layer inception_3a/3x3_reduce
I0403 19:29:12.592217 24843 net.cpp:91] Creating Layer inception_3a/3x3_reduce
I0403 19:29:12.592238 24843 net.cpp:425] inception_3a/3x3_reduce <- pool2/3x3_s2_pool2/3x3_s2_0_split_1
I0403 19:29:12.592262 24843 net.cpp:399] inception_3a/3x3_reduce -> inception_3a/3x3_reduce
I0403 19:29:12.593994 24843 net.cpp:141] Setting up inception_3a/3x3_reduce
I0403 19:29:12.594029 24843 net.cpp:148] Top shape: 24 96 28 28 (1806336)
I0403 19:29:12.594048 24843 net.cpp:156] Memory required for data: 508183584
I0403 19:29:12.594072 24843 layer_factory.hpp:77] Creating layer inception_3a/relu_3x3_reduce
I0403 19:29:12.594115 24843 net.cpp:91] Creating Layer inception_3a/relu_3x3_reduce
I0403 19:29:12.594137 24843 net.cpp:425] inception_3a/relu_3x3_reduce <- inception_3a/3x3_reduce
I0403 19:29:12.594159 24843 net.cpp:386] inception_3a/relu_3x3_reduce -> inception_3a/3x3_reduce (in-place)
I0403 19:29:12.594355 24843 net.cpp:141] Setting up inception_3a/relu_3x3_reduce
I0403 19:29:12.594386 24843 net.cpp:148] Top shape: 24 96 28 28 (1806336)
I0403 19:29:12.594404 24843 net.cpp:156] Memory required for data: 515408928
I0403 19:29:12.594421 24843 layer_factory.hpp:77] Creating layer inception_3a/3x3
I0403 19:29:12.594445 24843 net.cpp:91] Creating Layer inception_3a/3x3
I0403 19:29:12.594465 24843 net.cpp:425] inception_3a/3x3 <- inception_3a/3x3_reduce
I0403 19:29:12.594487 24843 net.cpp:399] inception_3a/3x3 -> inception_3a/3x3
I0403 19:29:12.596132 24843 net.cpp:141] Setting up inception_3a/3x3
I0403 19:29:12.596165 24843 net.cpp:148] Top shape: 24 128 28 28 (2408448)
I0403 19:29:12.596184 24843 net.cpp:156] Memory required for data: 525042720
I0403 19:29:12.596202 24843 layer_factory.hpp:77] Creating layer inception_3a/relu_3x3
I0403 19:29:12.596225 24843 net.cpp:91] Creating Layer inception_3a/relu_3x3
I0403 19:29:12.596246 24843 net.cpp:425] inception_3a/relu_3x3 <- inception_3a/3x3
I0403 19:29:12.596272 24843 net.cpp:386] inception_3a/relu_3x3 -> inception_3a/3x3 (in-place)
I0403 19:29:12.596552 24843 net.cpp:141] Setting up inception_3a/relu_3x3
I0403 19:29:12.596585 24843 net.cpp:148] Top shape: 24 128 28 28 (2408448)
I0403 19:29:12.596602 24843 net.cpp:156] Memory required for data: 534676512
I0403 19:29:12.596618 24843 layer_factory.hpp:77] Creating layer inception_3a/5x5_reduce
I0403 19:29:12.596640 24843 net.cpp:91] Creating Layer inception_3a/5x5_reduce
I0403 19:29:12.596660 24843 net.cpp:425] inception_3a/5x5_reduce <- pool2/3x3_s2_pool2/3x3_s2_0_split_2
I0403 19:29:12.596683 24843 net.cpp:399] inception_3a/5x5_reduce -> inception_3a/5x5_reduce
I0403 19:29:12.597657 24843 net.cpp:141] Setting up inception_3a/5x5_reduce
I0403 19:29:12.597692 24843 net.cpp:148] Top shape: 24 16 28 28 (301056)
I0403 19:29:12.597710 24843 net.cpp:156] Memory required for data: 535880736
I0403 19:29:12.597731 24843 layer_factory.hpp:77] Creating layer inception_3a/relu_5x5_reduce
I0403 19:29:12.597750 24843 net.cpp:91] Creating Layer inception_3a/relu_5x5_reduce
I0403 19:29:12.597769 24843 net.cpp:425] inception_3a/relu_5x5_reduce <- inception_3a/5x5_reduce
I0403 19:29:12.597790 24843 net.cpp:386] inception_3a/relu_5x5_reduce -> inception_3a/5x5_reduce (in-place)
I0403 19:29:12.598070 24843 net.cpp:141] Setting up inception_3a/relu_5x5_reduce
I0403 19:29:12.598104 24843 net.cpp:148] Top shape: 24 16 28 28 (301056)
I0403 19:29:12.598124 24843 net.cpp:156] Memory required for data: 537084960
I0403 19:29:12.598140 24843 layer_factory.hpp:77] Creating layer inception_3a/5x5
I0403 19:29:12.598162 24843 net.cpp:91] Creating Layer inception_3a/5x5
I0403 19:29:12.598183 24843 net.cpp:425] inception_3a/5x5 <- inception_3a/5x5_reduce
I0403 19:29:12.598208 24843 net.cpp:399] inception_3a/5x5 -> inception_3a/5x5
I0403 19:29:12.599222 24843 net.cpp:141] Setting up inception_3a/5x5
I0403 19:29:12.599253 24843 net.cpp:148] Top shape: 24 32 28 28 (602112)
I0403 19:29:12.599279 24843 net.cpp:156] Memory required for data: 539493408
I0403 19:29:12.599299 24843 layer_factory.hpp:77] Creating layer inception_3a/relu_5x5
I0403 19:29:12.599321 24843 net.cpp:91] Creating Layer inception_3a/relu_5x5
I0403 19:29:12.599344 24843 net.cpp:425] inception_3a/relu_5x5 <- inception_3a/5x5
I0403 19:29:12.599364 24843 net.cpp:386] inception_3a/relu_5x5 -> inception_3a/5x5 (in-place)
I0403 19:29:12.599541 24843 net.cpp:141] Setting up inception_3a/relu_5x5
I0403 19:29:12.599575 24843 net.cpp:148] Top shape: 24 32 28 28 (602112)
I0403 19:29:12.599593 24843 net.cpp:156] Memory required for data: 541901856
I0403 19:29:12.599608 24843 layer_factory.hpp:77] Creating layer inception_3a/pool
I0403 19:29:12.599629 24843 net.cpp:91] Creating Layer inception_3a/pool
I0403 19:29:12.599661 24843 net.cpp:425] inception_3a/pool <- pool2/3x3_s2_pool2/3x3_s2_0_split_3
I0403 19:29:12.599684 24843 net.cpp:399] inception_3a/pool -> inception_3a/pool
I0403 19:29:12.599743 24843 net.cpp:141] Setting up inception_3a/pool
I0403 19:29:12.599771 24843 net.cpp:148] Top shape: 24 192 28 28 (3612672)
I0403 19:29:12.599788 24843 net.cpp:156] Memory required for data: 556352544
I0403 19:29:12.599804 24843 layer_factory.hpp:77] Creating layer inception_3a/pool_proj
I0403 19:29:12.599831 24843 net.cpp:91] Creating Layer inception_3a/pool_proj
I0403 19:29:12.599851 24843 net.cpp:425] inception_3a/pool_proj <- inception_3a/pool
I0403 19:29:12.599875 24843 net.cpp:399] inception_3a/pool_proj -> inception_3a/pool_proj
I0403 19:29:12.600844 24843 net.cpp:141] Setting up inception_3a/pool_proj
I0403 19:29:12.600878 24843 net.cpp:148] Top shape: 24 32 28 28 (602112)
I0403 19:29:12.600895 24843 net.cpp:156] Memory required for data: 558760992
I0403 19:29:12.600922 24843 layer_factory.hpp:77] Creating layer inception_3a/relu_pool_proj
I0403 19:29:12.600944 24843 net.cpp:91] Creating Layer inception_3a/relu_pool_proj
I0403 19:29:12.600965 24843 net.cpp:425] inception_3a/relu_pool_proj <- inception_3a/pool_proj
I0403 19:29:12.600982 24843 net.cpp:386] inception_3a/relu_pool_proj -> inception_3a/pool_proj (in-place)
I0403 19:29:12.601259 24843 net.cpp:141] Setting up inception_3a/relu_pool_proj
I0403 19:29:12.601290 24843 net.cpp:148] Top shape: 24 32 28 28 (602112)
I0403 19:29:12.601307 24843 net.cpp:156] Memory required for data: 561169440
I0403 19:29:12.601325 24843 layer_factory.hpp:77] Creating layer inception_3a/output
I0403 19:29:12.601347 24843 net.cpp:91] Creating Layer inception_3a/output
I0403 19:29:12.601364 24843 net.cpp:425] inception_3a/output <- inception_3a/1x1
I0403 19:29:12.601382 24843 net.cpp:425] inception_3a/output <- inception_3a/3x3
I0403 19:29:12.601399 24843 net.cpp:425] inception_3a/output <- inception_3a/5x5
I0403 19:29:12.601418 24843 net.cpp:425] inception_3a/output <- inception_3a/pool_proj
I0403 19:29:12.601438 24843 net.cpp:399] inception_3a/output -> inception_3a/output
I0403 19:29:12.601488 24843 net.cpp:141] Setting up inception_3a/output
I0403 19:29:12.601516 24843 net.cpp:148] Top shape: 24 256 28 28 (4816896)
I0403 19:29:12.601532 24843 net.cpp:156] Memory required for data: 580437024
I0403 19:29:12.601548 24843 layer_factory.hpp:77] Creating layer inception_3a/output_inception_3a/output_0_split
I0403 19:29:12.601567 24843 net.cpp:91] Creating Layer inception_3a/output_inception_3a/output_0_split
I0403 19:29:12.601584 24843 net.cpp:425] inception_3a/output_inception_3a/output_0_split <- inception_3a/output
I0403 19:29:12.601606 24843 net.cpp:399] inception_3a/output_inception_3a/output_0_split -> inception_3a/output_inception_3a/output_0_split_0
I0403 19:29:12.601630 24843 net.cpp:399] inception_3a/output_inception_3a/output_0_split -> inception_3a/output_inception_3a/output_0_split_1
I0403 19:29:12.601655 24843 net.cpp:399] inception_3a/output_inception_3a/output_0_split -> inception_3a/output_inception_3a/output_0_split_2
I0403 19:29:12.601682 24843 net.cpp:399] inception_3a/output_inception_3a/output_0_split -> inception_3a/output_inception_3a/output_0_split_3
I0403 19:29:12.601761 24843 net.cpp:141] Setting up inception_3a/output_inception_3a/output_0_split
I0403 19:29:12.601791 24843 net.cpp:148] Top shape: 24 256 28 28 (4816896)
I0403 19:29:12.601809 24843 net.cpp:148] Top shape: 24 256 28 28 (4816896)
I0403 19:29:12.601827 24843 net.cpp:148] Top shape: 24 256 28 28 (4816896)
I0403 19:29:12.601842 24843 net.cpp:148] Top shape: 24 256 28 28 (4816896)
I0403 19:29:12.601856 24843 net.cpp:156] Memory required for data: 657507360
I0403 19:29:12.601872 24843 layer_factory.hpp:77] Creating layer inception_3b/1x1
I0403 19:29:12.601897 24843 net.cpp:91] Creating Layer inception_3b/1x1
I0403 19:29:12.601917 24843 net.cpp:425] inception_3b/1x1 <- inception_3a/output_inception_3a/output_0_split_0
I0403 19:29:12.601939 24843 net.cpp:399] inception_3b/1x1 -> inception_3b/1x1
I0403 19:29:12.603071 24843 net.cpp:141] Setting up inception_3b/1x1
I0403 19:29:12.603114 24843 net.cpp:148] Top shape: 24 128 28 28 (2408448)
I0403 19:29:12.603132 24843 net.cpp:156] Memory required for data: 667141152
I0403 19:29:12.603152 24843 layer_factory.hpp:77] Creating layer inception_3b/relu_1x1
I0403 19:29:12.603173 24843 net.cpp:91] Creating Layer inception_3b/relu_1x1
I0403 19:29:12.603195 24843 net.cpp:425] inception_3b/relu_1x1 <- inception_3b/1x1
I0403 19:29:12.603214 24843 net.cpp:386] inception_3b/relu_1x1 -> inception_3b/1x1 (in-place)
I0403 19:29:12.603397 24843 net.cpp:141] Setting up inception_3b/relu_1x1
I0403 19:29:12.603430 24843 net.cpp:148] Top shape: 24 128 28 28 (2408448)
I0403 19:29:12.603446 24843 net.cpp:156] Memory required for data: 676774944
I0403 19:29:12.603462 24843 layer_factory.hpp:77] Creating layer inception_3b/3x3_reduce
I0403 19:29:12.603489 24843 net.cpp:91] Creating Layer inception_3b/3x3_reduce
I0403 19:29:12.603509 24843 net.cpp:425] inception_3b/3x3_reduce <- inception_3a/output_inception_3a/output_0_split_1
I0403 19:29:12.603533 24843 net.cpp:399] inception_3b/3x3_reduce -> inception_3b/3x3_reduce
I0403 19:29:12.604688 24843 net.cpp:141] Setting up inception_3b/3x3_reduce
I0403 19:29:12.604722 24843 net.cpp:148] Top shape: 24 128 28 28 (2408448)
I0403 19:29:12.604740 24843 net.cpp:156] Memory required for data: 686408736
I0403 19:29:12.604760 24843 layer_factory.hpp:77] Creating layer inception_3b/relu_3x3_reduce
I0403 19:29:12.604784 24843 net.cpp:91] Creating Layer inception_3b/relu_3x3_reduce
I0403 19:29:12.604804 24843 net.cpp:425] inception_3b/relu_3x3_reduce <- inception_3b/3x3_reduce
I0403 19:29:12.604823 24843 net.cpp:386] inception_3b/relu_3x3_reduce -> inception_3b/3x3_reduce (in-place)
I0403 19:29:12.604998 24843 net.cpp:141] Setting up inception_3b/relu_3x3_reduce
I0403 19:29:12.605031 24843 net.cpp:148] Top shape: 24 128 28 28 (2408448)
I0403 19:29:12.605047 24843 net.cpp:156] Memory required for data: 696042528
I0403 19:29:12.605064 24843 layer_factory.hpp:77] Creating layer inception_3b/3x3
I0403 19:29:12.605092 24843 net.cpp:91] Creating Layer inception_3b/3x3
I0403 19:29:12.605113 24843 net.cpp:425] inception_3b/3x3 <- inception_3b/3x3_reduce
I0403 19:29:12.605134 24843 net.cpp:399] inception_3b/3x3 -> inception_3b/3x3
I0403 19:29:12.608059 24843 net.cpp:141] Setting up inception_3b/3x3
I0403 19:29:12.608093 24843 net.cpp:148] Top shape: 24 192 28 28 (3612672)
I0403 19:29:12.608113 24843 net.cpp:156] Memory required for data: 710493216
I0403 19:29:12.608134 24843 layer_factory.hpp:77] Creating layer inception_3b/relu_3x3
I0403 19:29:12.608156 24843 net.cpp:91] Creating Layer inception_3b/relu_3x3
I0403 19:29:12.608176 24843 net.cpp:425] inception_3b/relu_3x3 <- inception_3b/3x3
I0403 19:29:12.608196 24843 net.cpp:386] inception_3b/relu_3x3 -> inception_3b/3x3 (in-place)
I0403 19:29:12.608486 24843 net.cpp:141] Setting up inception_3b/relu_3x3
I0403 19:29:12.608517 24843 net.cpp:148] Top shape: 24 192 28 28 (3612672)
I0403 19:29:12.608536 24843 net.cpp:156] Memory required for data: 724943904
I0403 19:29:12.608551 24843 layer_factory.hpp:77] Creating layer inception_3b/5x5_reduce
I0403 19:29:12.608575 24843 net.cpp:91] Creating Layer inception_3b/5x5_reduce
I0403 19:29:12.608597 24843 net.cpp:425] inception_3b/5x5_reduce <- inception_3a/output_inception_3a/output_0_split_2
I0403 19:29:12.608623 24843 net.cpp:399] inception_3b/5x5_reduce -> inception_3b/5x5_reduce
I0403 19:29:12.609616 24843 net.cpp:141] Setting up inception_3b/5x5_reduce
I0403 19:29:12.609645 24843 net.cpp:148] Top shape: 24 32 28 28 (602112)
I0403 19:29:12.609663 24843 net.cpp:156] Memory required for data: 727352352
I0403 19:29:12.609681 24843 layer_factory.hpp:77] Creating layer inception_3b/relu_5x5_reduce
I0403 19:29:12.609706 24843 net.cpp:91] Creating Layer inception_3b/relu_5x5_reduce
I0403 19:29:12.609726 24843 net.cpp:425] inception_3b/relu_5x5_reduce <- inception_3b/5x5_reduce
I0403 19:29:12.609746 24843 net.cpp:386] inception_3b/relu_5x5_reduce -> inception_3b/5x5_reduce (in-place)
I0403 19:29:12.609942 24843 net.cpp:141] Setting up inception_3b/relu_5x5_reduce
I0403 19:29:12.609977 24843 net.cpp:148] Top shape: 24 32 28 28 (602112)
I0403 19:29:12.609994 24843 net.cpp:156] Memory required for data: 729760800
I0403 19:29:12.610010 24843 layer_factory.hpp:77] Creating layer inception_3b/5x5
I0403 19:29:12.610034 24843 net.cpp:91] Creating Layer inception_3b/5x5
I0403 19:29:12.610056 24843 net.cpp:425] inception_3b/5x5 <- inception_3b/5x5_reduce
I0403 19:29:12.610077 24843 net.cpp:399] inception_3b/5x5 -> inception_3b/5x5
I0403 19:29:12.612047 24843 net.cpp:141] Setting up inception_3b/5x5
I0403 19:29:12.612082 24843 net.cpp:148] Top shape: 24 96 28 28 (1806336)
I0403 19:29:12.612102 24843 net.cpp:156] Memory required for data: 736986144
I0403 19:29:12.612120 24843 layer_factory.hpp:77] Creating layer inception_3b/relu_5x5
I0403 19:29:12.612144 24843 net.cpp:91] Creating Layer inception_3b/relu_5x5
I0403 19:29:12.612165 24843 net.cpp:425] inception_3b/relu_5x5 <- inception_3b/5x5
I0403 19:29:12.612185 24843 net.cpp:386] inception_3b/relu_5x5 -> inception_3b/5x5 (in-place)
I0403 19:29:12.612385 24843 net.cpp:141] Setting up inception_3b/relu_5x5
I0403 19:29:12.612416 24843 net.cpp:148] Top shape: 24 96 28 28 (1806336)
I0403 19:29:12.612433 24843 net.cpp:156] Memory required for data: 744211488
I0403 19:29:12.612452 24843 layer_factory.hpp:77] Creating layer inception_3b/pool
I0403 19:29:12.612471 24843 net.cpp:91] Creating Layer inception_3b/pool
I0403 19:29:12.612488 24843 net.cpp:425] inception_3b/pool <- inception_3a/output_inception_3a/output_0_split_3
I0403 19:29:12.612505 24843 net.cpp:399] inception_3b/pool -> inception_3b/pool
I0403 19:29:12.612560 24843 net.cpp:141] Setting up inception_3b/pool
I0403 19:29:12.612589 24843 net.cpp:148] Top shape: 24 256 28 28 (4816896)
I0403 19:29:12.612607 24843 net.cpp:156] Memory required for data: 763479072
I0403 19:29:12.612622 24843 layer_factory.hpp:77] Creating layer inception_3b/pool_proj
I0403 19:29:12.612645 24843 net.cpp:91] Creating Layer inception_3b/pool_proj
I0403 19:29:12.612664 24843 net.cpp:425] inception_3b/pool_proj <- inception_3b/pool
I0403 19:29:12.612687 24843 net.cpp:399] inception_3b/pool_proj -> inception_3b/pool_proj
I0403 19:29:12.613778 24843 net.cpp:141] Setting up inception_3b/pool_proj
I0403 19:29:12.613813 24843 net.cpp:148] Top shape: 24 64 28 28 (1204224)
I0403 19:29:12.613833 24843 net.cpp:156] Memory required for data: 768295968
I0403 19:29:12.613857 24843 layer_factory.hpp:77] Creating layer inception_3b/relu_pool_proj
I0403 19:29:12.613876 24843 net.cpp:91] Creating Layer inception_3b/relu_pool_proj
I0403 19:29:12.613894 24843 net.cpp:425] inception_3b/relu_pool_proj <- inception_3b/pool_proj
I0403 19:29:12.613916 24843 net.cpp:386] inception_3b/relu_pool_proj -> inception_3b/pool_proj (in-place)
I0403 19:29:12.614307 24843 net.cpp:141] Setting up inception_3b/relu_pool_proj
I0403 19:29:12.614341 24843 net.cpp:148] Top shape: 24 64 28 28 (1204224)
I0403 19:29:12.614358 24843 net.cpp:156] Memory required for data: 773112864
I0403 19:29:12.614377 24843 layer_factory.hpp:77] Creating layer inception_3b/output
I0403 19:29:12.614395 24843 net.cpp:91] Creating Layer inception_3b/output
I0403 19:29:12.614410 24843 net.cpp:425] inception_3b/output <- inception_3b/1x1
I0403 19:29:12.614430 24843 net.cpp:425] inception_3b/output <- inception_3b/3x3
I0403 19:29:12.614447 24843 net.cpp:425] inception_3b/output <- inception_3b/5x5
I0403 19:29:12.614465 24843 net.cpp:425] inception_3b/output <- inception_3b/pool_proj
I0403 19:29:12.614485 24843 net.cpp:399] inception_3b/output -> inception_3b/output
I0403 19:29:12.614531 24843 net.cpp:141] Setting up inception_3b/output
I0403 19:29:12.614557 24843 net.cpp:148] Top shape: 24 480 28 28 (9031680)
I0403 19:29:12.614573 24843 net.cpp:156] Memory required for data: 809239584
I0403 19:29:12.614588 24843 layer_factory.hpp:77] Creating layer pool3/3x3_s2
I0403 19:29:12.614624 24843 net.cpp:91] Creating Layer pool3/3x3_s2
I0403 19:29:12.614641 24843 net.cpp:425] pool3/3x3_s2 <- inception_3b/output
I0403 19:29:12.614681 24843 net.cpp:399] pool3/3x3_s2 -> pool3/3x3_s2
I0403 19:29:12.614744 24843 net.cpp:141] Setting up pool3/3x3_s2
I0403 19:29:12.614773 24843 net.cpp:148] Top shape: 24 480 14 14 (2257920)
I0403 19:29:12.614789 24843 net.cpp:156] Memory required for data: 818271264
I0403 19:29:12.614806 24843 layer_factory.hpp:77] Creating layer pool3/3x3_s2_pool3/3x3_s2_0_split
I0403 19:29:12.614825 24843 net.cpp:91] Creating Layer pool3/3x3_s2_pool3/3x3_s2_0_split
I0403 19:29:12.614845 24843 net.cpp:425] pool3/3x3_s2_pool3/3x3_s2_0_split <- pool3/3x3_s2
I0403 19:29:12.614864 24843 net.cpp:399] pool3/3x3_s2_pool3/3x3_s2_0_split -> pool3/3x3_s2_pool3/3x3_s2_0_split_0
I0403 19:29:12.614888 24843 net.cpp:399] pool3/3x3_s2_pool3/3x3_s2_0_split -> pool3/3x3_s2_pool3/3x3_s2_0_split_1
I0403 19:29:12.614922 24843 net.cpp:399] pool3/3x3_s2_pool3/3x3_s2_0_split -> pool3/3x3_s2_pool3/3x3_s2_0_split_2
I0403 19:29:12.614943 24843 net.cpp:399] pool3/3x3_s2_pool3/3x3_s2_0_split -> pool3/3x3_s2_pool3/3x3_s2_0_split_3
I0403 19:29:12.615022 24843 net.cpp:141] Setting up pool3/3x3_s2_pool3/3x3_s2_0_split
I0403 19:29:12.615049 24843 net.cpp:148] Top shape: 24 480 14 14 (2257920)
I0403 19:29:12.615069 24843 net.cpp:148] Top shape: 24 480 14 14 (2257920)
I0403 19:29:12.615087 24843 net.cpp:148] Top shape: 24 480 14 14 (2257920)
I0403 19:29:12.615102 24843 net.cpp:148] Top shape: 24 480 14 14 (2257920)
I0403 19:29:12.615116 24843 net.cpp:156] Memory required for data: 854397984
I0403 19:29:12.615134 24843 layer_factory.hpp:77] Creating layer inception_4a/1x1
I0403 19:29:12.615156 24843 net.cpp:91] Creating Layer inception_4a/1x1
I0403 19:29:12.615176 24843 net.cpp:425] inception_4a/1x1 <- pool3/3x3_s2_pool3/3x3_s2_0_split_0
I0403 19:29:12.615198 24843 net.cpp:399] inception_4a/1x1 -> inception_4a/1x1
I0403 19:29:12.616758 24843 net.cpp:141] Setting up inception_4a/1x1
I0403 19:29:12.616793 24843 net.cpp:148] Top shape: 24 192 14 14 (903168)
I0403 19:29:12.616811 24843 net.cpp:156] Memory required for data: 858010656
I0403 19:29:12.616832 24843 layer_factory.hpp:77] Creating layer inception_4a/relu_1x1
I0403 19:29:12.616852 24843 net.cpp:91] Creating Layer inception_4a/relu_1x1
I0403 19:29:12.616868 24843 net.cpp:425] inception_4a/relu_1x1 <- inception_4a/1x1
I0403 19:29:12.616889 24843 net.cpp:386] inception_4a/relu_1x1 -> inception_4a/1x1 (in-place)
I0403 19:29:12.617069 24843 net.cpp:141] Setting up inception_4a/relu_1x1
I0403 19:29:12.617096 24843 net.cpp:148] Top shape: 24 192 14 14 (903168)
I0403 19:29:12.617115 24843 net.cpp:156] Memory required for data: 861623328
I0403 19:29:12.617130 24843 layer_factory.hpp:77] Creating layer inception_4a/3x3_reduce
I0403 19:29:12.617154 24843 net.cpp:91] Creating Layer inception_4a/3x3_reduce
I0403 19:29:12.617172 24843 net.cpp:425] inception_4a/3x3_reduce <- pool3/3x3_s2_pool3/3x3_s2_0_split_1
I0403 19:29:12.617197 24843 net.cpp:399] inception_4a/3x3_reduce -> inception_4a/3x3_reduce
I0403 19:29:12.618448 24843 net.cpp:141] Setting up inception_4a/3x3_reduce
I0403 19:29:12.618479 24843 net.cpp:148] Top shape: 24 96 14 14 (451584)
I0403 19:29:12.618497 24843 net.cpp:156] Memory required for data: 863429664
I0403 19:29:12.618522 24843 layer_factory.hpp:77] Creating layer inception_4a/relu_3x3_reduce
I0403 19:29:12.618546 24843 net.cpp:91] Creating Layer inception_4a/relu_3x3_reduce
I0403 19:29:12.618566 24843 net.cpp:425] inception_4a/relu_3x3_reduce <- inception_4a/3x3_reduce
I0403 19:29:12.618587 24843 net.cpp:386] inception_4a/relu_3x3_reduce -> inception_4a/3x3_reduce (in-place)
I0403 19:29:12.618779 24843 net.cpp:141] Setting up inception_4a/relu_3x3_reduce
I0403 19:29:12.618808 24843 net.cpp:148] Top shape: 24 96 14 14 (451584)
I0403 19:29:12.618824 24843 net.cpp:156] Memory required for data: 865236000
I0403 19:29:12.618840 24843 layer_factory.hpp:77] Creating layer inception_4a/3x3
I0403 19:29:12.618863 24843 net.cpp:91] Creating Layer inception_4a/3x3
I0403 19:29:12.618885 24843 net.cpp:425] inception_4a/3x3 <- inception_4a/3x3_reduce
I0403 19:29:12.618919 24843 net.cpp:399] inception_4a/3x3 -> inception_4a/3x3
I0403 19:29:12.621570 24843 net.cpp:141] Setting up inception_4a/3x3
I0403 19:29:12.621600 24843 net.cpp:148] Top shape: 24 208 14 14 (978432)
I0403 19:29:12.621619 24843 net.cpp:156] Memory required for data: 869149728
I0403 19:29:12.621639 24843 layer_factory.hpp:77] Creating layer inception_4a/relu_3x3
I0403 19:29:12.621660 24843 net.cpp:91] Creating Layer inception_4a/relu_3x3
I0403 19:29:12.621680 24843 net.cpp:425] inception_4a/relu_3x3 <- inception_4a/3x3
I0403 19:29:12.621700 24843 net.cpp:386] inception_4a/relu_3x3 -> inception_4a/3x3 (in-place)
I0403 19:29:12.621973 24843 net.cpp:141] Setting up inception_4a/relu_3x3
I0403 19:29:12.622004 24843 net.cpp:148] Top shape: 24 208 14 14 (978432)
I0403 19:29:12.622022 24843 net.cpp:156] Memory required for data: 873063456
I0403 19:29:12.622038 24843 layer_factory.hpp:77] Creating layer inception_4a/5x5_reduce
I0403 19:29:12.622062 24843 net.cpp:91] Creating Layer inception_4a/5x5_reduce
I0403 19:29:12.622081 24843 net.cpp:425] inception_4a/5x5_reduce <- pool3/3x3_s2_pool3/3x3_s2_0_split_2
I0403 19:29:12.622103 24843 net.cpp:399] inception_4a/5x5_reduce -> inception_4a/5x5_reduce
I0403 19:29:12.623158 24843 net.cpp:141] Setting up inception_4a/5x5_reduce
I0403 19:29:12.623190 24843 net.cpp:148] Top shape: 24 16 14 14 (75264)
I0403 19:29:12.623208 24843 net.cpp:156] Memory required for data: 873364512
I0403 19:29:12.623227 24843 layer_factory.hpp:77] Creating layer inception_4a/relu_5x5_reduce
I0403 19:29:12.623250 24843 net.cpp:91] Creating Layer inception_4a/relu_5x5_reduce
I0403 19:29:12.623276 24843 net.cpp:425] inception_4a/relu_5x5_reduce <- inception_4a/5x5_reduce
I0403 19:29:12.623296 24843 net.cpp:386] inception_4a/relu_5x5_reduce -> inception_4a/5x5_reduce (in-place)
I0403 19:29:12.623476 24843 net.cpp:141] Setting up inception_4a/relu_5x5_reduce
I0403 19:29:12.623507 24843 net.cpp:148] Top shape: 24 16 14 14 (75264)
I0403 19:29:12.623524 24843 net.cpp:156] Memory required for data: 873665568
I0403 19:29:12.623539 24843 layer_factory.hpp:77] Creating layer inception_4a/5x5
I0403 19:29:12.623564 24843 net.cpp:91] Creating Layer inception_4a/5x5
I0403 19:29:12.623584 24843 net.cpp:425] inception_4a/5x5 <- inception_4a/5x5_reduce
I0403 19:29:12.623605 24843 net.cpp:399] inception_4a/5x5 -> inception_4a/5x5
I0403 19:29:12.624685 24843 net.cpp:141] Setting up inception_4a/5x5
I0403 19:29:12.624716 24843 net.cpp:148] Top shape: 24 48 14 14 (225792)
I0403 19:29:12.624737 24843 net.cpp:156] Memory required for data: 874568736
I0403 19:29:12.624757 24843 layer_factory.hpp:77] Creating layer inception_4a/relu_5x5
I0403 19:29:12.624778 24843 net.cpp:91] Creating Layer inception_4a/relu_5x5
I0403 19:29:12.624794 24843 net.cpp:425] inception_4a/relu_5x5 <- inception_4a/5x5
I0403 19:29:12.624812 24843 net.cpp:386] inception_4a/relu_5x5 -> inception_4a/5x5 (in-place)
I0403 19:29:12.624990 24843 net.cpp:141] Setting up inception_4a/relu_5x5
I0403 19:29:12.625018 24843 net.cpp:148] Top shape: 24 48 14 14 (225792)
I0403 19:29:12.625036 24843 net.cpp:156] Memory required for data: 875471904
I0403 19:29:12.625051 24843 layer_factory.hpp:77] Creating layer inception_4a/pool
I0403 19:29:12.625069 24843 net.cpp:91] Creating Layer inception_4a/pool
I0403 19:29:12.625089 24843 net.cpp:425] inception_4a/pool <- pool3/3x3_s2_pool3/3x3_s2_0_split_3
I0403 19:29:12.625110 24843 net.cpp:399] inception_4a/pool -> inception_4a/pool
I0403 19:29:12.625174 24843 net.cpp:141] Setting up inception_4a/pool
I0403 19:29:12.625203 24843 net.cpp:148] Top shape: 24 480 14 14 (2257920)
I0403 19:29:12.625221 24843 net.cpp:156] Memory required for data: 884503584
I0403 19:29:12.625238 24843 layer_factory.hpp:77] Creating layer inception_4a/pool_proj
I0403 19:29:12.625267 24843 net.cpp:91] Creating Layer inception_4a/pool_proj
I0403 19:29:12.625288 24843 net.cpp:425] inception_4a/pool_proj <- inception_4a/pool
I0403 19:29:12.625308 24843 net.cpp:399] inception_4a/pool_proj -> inception_4a/pool_proj
I0403 19:29:12.626458 24843 net.cpp:141] Setting up inception_4a/pool_proj
I0403 19:29:12.626490 24843 net.cpp:148] Top shape: 24 64 14 14 (301056)
I0403 19:29:12.626538 24843 net.cpp:156] Memory required for data: 885707808
I0403 19:29:12.626559 24843 layer_factory.hpp:77] Creating layer inception_4a/relu_pool_proj
I0403 19:29:12.626580 24843 net.cpp:91] Creating Layer inception_4a/relu_pool_proj
I0403 19:29:12.626649 24843 net.cpp:425] inception_4a/relu_pool_proj <- inception_4a/pool_proj
I0403 19:29:12.626694 24843 net.cpp:386] inception_4a/relu_pool_proj -> inception_4a/pool_proj (in-place)
I0403 19:29:12.627014 24843 net.cpp:141] Setting up inception_4a/relu_pool_proj
I0403 19:29:12.627043 24843 net.cpp:148] Top shape: 24 64 14 14 (301056)
I0403 19:29:12.627061 24843 net.cpp:156] Memory required for data: 886912032
I0403 19:29:12.627077 24843 layer_factory.hpp:77] Creating layer inception_4a/output
I0403 19:29:12.627096 24843 net.cpp:91] Creating Layer inception_4a/output
I0403 19:29:12.627113 24843 net.cpp:425] inception_4a/output <- inception_4a/1x1
I0403 19:29:12.627130 24843 net.cpp:425] inception_4a/output <- inception_4a/3x3
I0403 19:29:12.627148 24843 net.cpp:425] inception_4a/output <- inception_4a/5x5
I0403 19:29:12.627167 24843 net.cpp:425] inception_4a/output <- inception_4a/pool_proj
I0403 19:29:12.627188 24843 net.cpp:399] inception_4a/output -> inception_4a/output
I0403 19:29:12.627233 24843 net.cpp:141] Setting up inception_4a/output
I0403 19:29:12.627264 24843 net.cpp:148] Top shape: 24 512 14 14 (2408448)
I0403 19:29:12.627286 24843 net.cpp:156] Memory required for data: 896545824
I0403 19:29:12.627303 24843 layer_factory.hpp:77] Creating layer inception_4a/output_inception_4a/output_0_split
I0403 19:29:12.627322 24843 net.cpp:91] Creating Layer inception_4a/output_inception_4a/output_0_split
I0403 19:29:12.627341 24843 net.cpp:425] inception_4a/output_inception_4a/output_0_split <- inception_4a/output
I0403 19:29:12.627358 24843 net.cpp:399] inception_4a/output_inception_4a/output_0_split -> inception_4a/output_inception_4a/output_0_split_0
I0403 19:29:12.627379 24843 net.cpp:399] inception_4a/output_inception_4a/output_0_split -> inception_4a/output_inception_4a/output_0_split_1
I0403 19:29:12.627403 24843 net.cpp:399] inception_4a/output_inception_4a/output_0_split -> inception_4a/output_inception_4a/output_0_split_2
I0403 19:29:12.627426 24843 net.cpp:399] inception_4a/output_inception_4a/output_0_split -> inception_4a/output_inception_4a/output_0_split_3
I0403 19:29:12.627451 24843 net.cpp:399] inception_4a/output_inception_4a/output_0_split -> inception_4a/output_inception_4a/output_0_split_4
I0403 19:29:12.627547 24843 net.cpp:141] Setting up inception_4a/output_inception_4a/output_0_split
I0403 19:29:12.627574 24843 net.cpp:148] Top shape: 24 512 14 14 (2408448)
I0403 19:29:12.627593 24843 net.cpp:148] Top shape: 24 512 14 14 (2408448)
I0403 19:29:12.627609 24843 net.cpp:148] Top shape: 24 512 14 14 (2408448)
I0403 19:29:12.627625 24843 net.cpp:148] Top shape: 24 512 14 14 (2408448)
I0403 19:29:12.627642 24843 net.cpp:148] Top shape: 24 512 14 14 (2408448)
I0403 19:29:12.627656 24843 net.cpp:156] Memory required for data: 944714784
I0403 19:29:12.627671 24843 layer_factory.hpp:77] Creating layer loss1/ave_pool
I0403 19:29:12.627693 24843 net.cpp:91] Creating Layer loss1/ave_pool
I0403 19:29:12.627712 24843 net.cpp:425] loss1/ave_pool <- inception_4a/output_inception_4a/output_0_split_0
I0403 19:29:12.627732 24843 net.cpp:399] loss1/ave_pool -> loss1/ave_pool
I0403 19:29:12.627940 24843 net.cpp:141] Setting up loss1/ave_pool
I0403 19:29:12.627970 24843 net.cpp:148] Top shape: 24 512 4 4 (196608)
I0403 19:29:12.627986 24843 net.cpp:156] Memory required for data: 945501216
I0403 19:29:12.628001 24843 layer_factory.hpp:77] Creating layer loss1/conv
I0403 19:29:12.628024 24843 net.cpp:91] Creating Layer loss1/conv
I0403 19:29:12.628044 24843 net.cpp:425] loss1/conv <- loss1/ave_pool
I0403 19:29:12.628067 24843 net.cpp:399] loss1/conv -> loss1/conv
I0403 19:29:12.629528 24843 net.cpp:141] Setting up loss1/conv
I0403 19:29:12.629559 24843 net.cpp:148] Top shape: 24 128 4 4 (49152)
I0403 19:29:12.629595 24843 net.cpp:156] Memory required for data: 945697824
I0403 19:29:12.629616 24843 layer_factory.hpp:77] Creating layer loss1/relu_conv
I0403 19:29:12.629638 24843 net.cpp:91] Creating Layer loss1/relu_conv
I0403 19:29:12.629659 24843 net.cpp:425] loss1/relu_conv <- loss1/conv
I0403 19:29:12.629678 24843 net.cpp:386] loss1/relu_conv -> loss1/conv (in-place)
I0403 19:29:12.629963 24843 net.cpp:141] Setting up loss1/relu_conv
I0403 19:29:12.629992 24843 net.cpp:148] Top shape: 24 128 4 4 (49152)
I0403 19:29:12.630009 24843 net.cpp:156] Memory required for data: 945894432
I0403 19:29:12.630028 24843 layer_factory.hpp:77] Creating layer loss1/fc
I0403 19:29:12.630055 24843 net.cpp:91] Creating Layer loss1/fc
I0403 19:29:12.630076 24843 net.cpp:425] loss1/fc <- loss1/conv
I0403 19:29:12.630097 24843 net.cpp:399] loss1/fc -> loss1/fc
I0403 19:29:12.647744 24843 net.cpp:141] Setting up loss1/fc
I0403 19:29:12.647780 24843 net.cpp:148] Top shape: 24 1024 (24576)
I0403 19:29:12.647797 24843 net.cpp:156] Memory required for data: 945992736
I0403 19:29:12.647817 24843 layer_factory.hpp:77] Creating layer loss1/relu_fc
I0403 19:29:12.647838 24843 net.cpp:91] Creating Layer loss1/relu_fc
I0403 19:29:12.647856 24843 net.cpp:425] loss1/relu_fc <- loss1/fc
I0403 19:29:12.647878 24843 net.cpp:386] loss1/relu_fc -> loss1/fc (in-place)
I0403 19:29:12.648061 24843 net.cpp:141] Setting up loss1/relu_fc
I0403 19:29:12.648093 24843 net.cpp:148] Top shape: 24 1024 (24576)
I0403 19:29:12.648110 24843 net.cpp:156] Memory required for data: 946091040
I0403 19:29:12.648126 24843 layer_factory.hpp:77] Creating layer loss1/drop_fc
I0403 19:29:12.648155 24843 net.cpp:91] Creating Layer loss1/drop_fc
I0403 19:29:12.648176 24843 net.cpp:425] loss1/drop_fc <- loss1/fc
I0403 19:29:12.648195 24843 net.cpp:386] loss1/drop_fc -> loss1/fc (in-place)
I0403 19:29:12.648247 24843 net.cpp:141] Setting up loss1/drop_fc
I0403 19:29:12.648282 24843 net.cpp:148] Top shape: 24 1024 (24576)
I0403 19:29:12.648299 24843 net.cpp:156] Memory required for data: 946189344
I0403 19:29:12.648315 24843 layer_factory.hpp:77] Creating layer loss1/classifier_plantvillage
I0403 19:29:12.648336 24843 net.cpp:91] Creating Layer loss1/classifier_plantvillage
I0403 19:29:12.648352 24843 net.cpp:425] loss1/classifier_plantvillage <- loss1/fc
I0403 19:29:12.648375 24843 net.cpp:399] loss1/classifier_plantvillage -> loss1/classifier_plantvillage
I0403 19:29:12.649273 24843 net.cpp:141] Setting up loss1/classifier_plantvillage
I0403 19:29:12.649305 24843 net.cpp:148] Top shape: 24 38 (912)
I0403 19:29:12.649322 24843 net.cpp:156] Memory required for data: 946192992
I0403 19:29:12.649341 24843 layer_factory.hpp:77] Creating layer loss1/classifier_plantvillage_loss1/classifier_plantvillage_0_split
I0403 19:29:12.649359 24843 net.cpp:91] Creating Layer loss1/classifier_plantvillage_loss1/classifier_plantvillage_0_split
I0403 19:29:12.649376 24843 net.cpp:425] loss1/classifier_plantvillage_loss1/classifier_plantvillage_0_split <- loss1/classifier_plantvillage
I0403 19:29:12.649399 24843 net.cpp:399] loss1/classifier_plantvillage_loss1/classifier_plantvillage_0_split -> loss1/classifier_plantvillage_loss1/classifier_plantvillage_0_split_0
I0403 19:29:12.649421 24843 net.cpp:399] loss1/classifier_plantvillage_loss1/classifier_plantvillage_0_split -> loss1/classifier_plantvillage_loss1/classifier_plantvillage_0_split_1
I0403 19:29:12.649443 24843 net.cpp:399] loss1/classifier_plantvillage_loss1/classifier_plantvillage_0_split -> loss1/classifier_plantvillage_loss1/classifier_plantvillage_0_split_2
I0403 19:29:12.649509 24843 net.cpp:141] Setting up loss1/classifier_plantvillage_loss1/classifier_plantvillage_0_split
I0403 19:29:12.649538 24843 net.cpp:148] Top shape: 24 38 (912)
I0403 19:29:12.649557 24843 net.cpp:148] Top shape: 24 38 (912)
I0403 19:29:12.649574 24843 net.cpp:148] Top shape: 24 38 (912)
I0403 19:29:12.649587 24843 net.cpp:156] Memory required for data: 946203936
I0403 19:29:12.649602 24843 layer_factory.hpp:77] Creating layer inception_4b/1x1
I0403 19:29:12.649624 24843 net.cpp:91] Creating Layer inception_4b/1x1
I0403 19:29:12.649659 24843 net.cpp:425] inception_4b/1x1 <- inception_4a/output_inception_4a/output_0_split_1
I0403 19:29:12.649682 24843 net.cpp:399] inception_4b/1x1 -> inception_4b/1x1
I0403 19:29:12.651267 24843 net.cpp:141] Setting up inception_4b/1x1
I0403 19:29:12.651299 24843 net.cpp:148] Top shape: 24 160 14 14 (752640)
I0403 19:29:12.651319 24843 net.cpp:156] Memory required for data: 949214496
I0403 19:29:12.651338 24843 layer_factory.hpp:77] Creating layer inception_4b/relu_1x1
I0403 19:29:12.651361 24843 net.cpp:91] Creating Layer inception_4b/relu_1x1
I0403 19:29:12.651383 24843 net.cpp:425] inception_4b/relu_1x1 <- inception_4b/1x1
I0403 19:29:12.651401 24843 net.cpp:386] inception_4b/relu_1x1 -> inception_4b/1x1 (in-place)
I0403 19:29:12.651576 24843 net.cpp:141] Setting up inception_4b/relu_1x1
I0403 19:29:12.651607 24843 net.cpp:148] Top shape: 24 160 14 14 (752640)
I0403 19:29:12.651624 24843 net.cpp:156] Memory required for data: 952225056
I0403 19:29:12.651641 24843 layer_factory.hpp:77] Creating layer inception_4b/3x3_reduce
I0403 19:29:12.651666 24843 net.cpp:91] Creating Layer inception_4b/3x3_reduce
I0403 19:29:12.651686 24843 net.cpp:425] inception_4b/3x3_reduce <- inception_4a/output_inception_4a/output_0_split_2
I0403 19:29:12.651706 24843 net.cpp:399] inception_4b/3x3_reduce -> inception_4b/3x3_reduce
I0403 19:29:12.653025 24843 net.cpp:141] Setting up inception_4b/3x3_reduce
I0403 19:29:12.653055 24843 net.cpp:148] Top shape: 24 112 14 14 (526848)
I0403 19:29:12.653072 24843 net.cpp:156] Memory required for data: 954332448
I0403 19:29:12.653093 24843 layer_factory.hpp:77] Creating layer inception_4b/relu_3x3_reduce
I0403 19:29:12.653115 24843 net.cpp:91] Creating Layer inception_4b/relu_3x3_reduce
I0403 19:29:12.653136 24843 net.cpp:425] inception_4b/relu_3x3_reduce <- inception_4b/3x3_reduce
I0403 19:29:12.653154 24843 net.cpp:386] inception_4b/relu_3x3_reduce -> inception_4b/3x3_reduce (in-place)
I0403 19:29:12.653441 24843 net.cpp:141] Setting up inception_4b/relu_3x3_reduce
I0403 19:29:12.653472 24843 net.cpp:148] Top shape: 24 112 14 14 (526848)
I0403 19:29:12.653489 24843 net.cpp:156] Memory required for data: 956439840
I0403 19:29:12.653506 24843 layer_factory.hpp:77] Creating layer inception_4b/3x3
I0403 19:29:12.653528 24843 net.cpp:91] Creating Layer inception_4b/3x3
I0403 19:29:12.653548 24843 net.cpp:425] inception_4b/3x3 <- inception_4b/3x3_reduce
I0403 19:29:12.653568 24843 net.cpp:399] inception_4b/3x3 -> inception_4b/3x3
I0403 19:29:12.656499 24843 net.cpp:141] Setting up inception_4b/3x3
I0403 19:29:12.656533 24843 net.cpp:148] Top shape: 24 224 14 14 (1053696)
I0403 19:29:12.656551 24843 net.cpp:156] Memory required for data: 960654624
I0403 19:29:12.656570 24843 layer_factory.hpp:77] Creating layer inception_4b/relu_3x3
I0403 19:29:12.656589 24843 net.cpp:91] Creating Layer inception_4b/relu_3x3
I0403 19:29:12.656606 24843 net.cpp:425] inception_4b/relu_3x3 <- inception_4b/3x3
I0403 19:29:12.656627 24843 net.cpp:386] inception_4b/relu_3x3 -> inception_4b/3x3 (in-place)
I0403 19:29:12.656802 24843 net.cpp:141] Setting up inception_4b/relu_3x3
I0403 19:29:12.656831 24843 net.cpp:148] Top shape: 24 224 14 14 (1053696)
I0403 19:29:12.656847 24843 net.cpp:156] Memory required for data: 964869408
I0403 19:29:12.656862 24843 layer_factory.hpp:77] Creating layer inception_4b/5x5_reduce
I0403 19:29:12.656884 24843 net.cpp:91] Creating Layer inception_4b/5x5_reduce
I0403 19:29:12.656905 24843 net.cpp:425] inception_4b/5x5_reduce <- inception_4a/output_inception_4a/output_0_split_3
I0403 19:29:12.656929 24843 net.cpp:399] inception_4b/5x5_reduce -> inception_4b/5x5_reduce
I0403 19:29:12.658015 24843 net.cpp:141] Setting up inception_4b/5x5_reduce
I0403 19:29:12.658046 24843 net.cpp:148] Top shape: 24 24 14 14 (112896)
I0403 19:29:12.658063 24843 net.cpp:156] Memory required for data: 965320992
I0403 19:29:12.658082 24843 layer_factory.hpp:77] Creating layer inception_4b/relu_5x5_reduce
I0403 19:29:12.658103 24843 net.cpp:91] Creating Layer inception_4b/relu_5x5_reduce
I0403 19:29:12.658138 24843 net.cpp:425] inception_4b/relu_5x5_reduce <- inception_4b/5x5_reduce
I0403 19:29:12.658159 24843 net.cpp:386] inception_4b/relu_5x5_reduce -> inception_4b/5x5_reduce (in-place)
I0403 19:29:12.658345 24843 net.cpp:141] Setting up inception_4b/relu_5x5_reduce
I0403 19:29:12.658376 24843 net.cpp:148] Top shape: 24 24 14 14 (112896)
I0403 19:29:12.658396 24843 net.cpp:156] Memory required for data: 965772576
I0403 19:29:12.658411 24843 layer_factory.hpp:77] Creating layer inception_4b/5x5
I0403 19:29:12.658434 24843 net.cpp:91] Creating Layer inception_4b/5x5
I0403 19:29:12.658454 24843 net.cpp:425] inception_4b/5x5 <- inception_4b/5x5_reduce
I0403 19:29:12.658476 24843 net.cpp:399] inception_4b/5x5 -> inception_4b/5x5
I0403 19:29:12.659668 24843 net.cpp:141] Setting up inception_4b/5x5
I0403 19:29:12.659698 24843 net.cpp:148] Top shape: 24 64 14 14 (301056)
I0403 19:29:12.659715 24843 net.cpp:156] Memory required for data: 966976800
I0403 19:29:12.659735 24843 layer_factory.hpp:77] Creating layer inception_4b/relu_5x5
I0403 19:29:12.659759 24843 net.cpp:91] Creating Layer inception_4b/relu_5x5
I0403 19:29:12.659776 24843 net.cpp:425] inception_4b/relu_5x5 <- inception_4b/5x5
I0403 19:29:12.659796 24843 net.cpp:386] inception_4b/relu_5x5 -> inception_4b/5x5 (in-place)
I0403 19:29:12.660075 24843 net.cpp:141] Setting up inception_4b/relu_5x5
I0403 19:29:12.660104 24843 net.cpp:148] Top shape: 24 64 14 14 (301056)
I0403 19:29:12.660121 24843 net.cpp:156] Memory required for data: 968181024
I0403 19:29:12.660138 24843 layer_factory.hpp:77] Creating layer inception_4b/pool
I0403 19:29:12.660158 24843 net.cpp:91] Creating Layer inception_4b/pool
I0403 19:29:12.660177 24843 net.cpp:425] inception_4b/pool <- inception_4a/output_inception_4a/output_0_split_4
I0403 19:29:12.660197 24843 net.cpp:399] inception_4b/pool -> inception_4b/pool
I0403 19:29:12.660266 24843 net.cpp:141] Setting up inception_4b/pool
I0403 19:29:12.660293 24843 net.cpp:148] Top shape: 24 512 14 14 (2408448)
I0403 19:29:12.660310 24843 net.cpp:156] Memory required for data: 977814816
I0403 19:29:12.660326 24843 layer_factory.hpp:77] Creating layer inception_4b/pool_proj
I0403 19:29:12.660348 24843 net.cpp:91] Creating Layer inception_4b/pool_proj
I0403 19:29:12.660367 24843 net.cpp:425] inception_4b/pool_proj <- inception_4b/pool
I0403 19:29:12.660387 24843 net.cpp:399] inception_4b/pool_proj -> inception_4b/pool_proj
I0403 19:29:12.661587 24843 net.cpp:141] Setting up inception_4b/pool_proj
I0403 19:29:12.661628 24843 net.cpp:148] Top shape: 24 64 14 14 (301056)
I0403 19:29:12.661654 24843 net.cpp:156] Memory required for data: 979019040
I0403 19:29:12.661674 24843 layer_factory.hpp:77] Creating layer inception_4b/relu_pool_proj
I0403 19:29:12.661695 24843 net.cpp:91] Creating Layer inception_4b/relu_pool_proj
I0403 19:29:12.661713 24843 net.cpp:425] inception_4b/relu_pool_proj <- inception_4b/pool_proj
I0403 19:29:12.661732 24843 net.cpp:386] inception_4b/relu_pool_proj -> inception_4b/pool_proj (in-place)
I0403 19:29:12.661912 24843 net.cpp:141] Setting up inception_4b/relu_pool_proj
I0403 19:29:12.661941 24843 net.cpp:148] Top shape: 24 64 14 14 (301056)
I0403 19:29:12.661957 24843 net.cpp:156] Memory required for data: 980223264
I0403 19:29:12.661972 24843 layer_factory.hpp:77] Creating layer inception_4b/output
I0403 19:29:12.662001 24843 net.cpp:91] Creating Layer inception_4b/output
I0403 19:29:12.662016 24843 net.cpp:425] inception_4b/output <- inception_4b/1x1
I0403 19:29:12.662034 24843 net.cpp:425] inception_4b/output <- inception_4b/3x3
I0403 19:29:12.662052 24843 net.cpp:425] inception_4b/output <- inception_4b/5x5
I0403 19:29:12.662070 24843 net.cpp:425] inception_4b/output <- inception_4b/pool_proj
I0403 19:29:12.662089 24843 net.cpp:399] inception_4b/output -> inception_4b/output
I0403 19:29:12.662135 24843 net.cpp:141] Setting up inception_4b/output
I0403 19:29:12.662160 24843 net.cpp:148] Top shape: 24 512 14 14 (2408448)
I0403 19:29:12.662176 24843 net.cpp:156] Memory required for data: 989857056
I0403 19:29:12.662206 24843 layer_factory.hpp:77] Creating layer inception_4b/output_inception_4b/output_0_split
I0403 19:29:12.662228 24843 net.cpp:91] Creating Layer inception_4b/output_inception_4b/output_0_split
I0403 19:29:12.662245 24843 net.cpp:425] inception_4b/output_inception_4b/output_0_split <- inception_4b/output
I0403 19:29:12.662271 24843 net.cpp:399] inception_4b/output_inception_4b/output_0_split -> inception_4b/output_inception_4b/output_0_split_0
I0403 19:29:12.662293 24843 net.cpp:399] inception_4b/output_inception_4b/output_0_split -> inception_4b/output_inception_4b/output_0_split_1
I0403 19:29:12.662317 24843 net.cpp:399] inception_4b/output_inception_4b/output_0_split -> inception_4b/output_inception_4b/output_0_split_2
I0403 19:29:12.662343 24843 net.cpp:399] inception_4b/output_inception_4b/output_0_split -> inception_4b/output_inception_4b/output_0_split_3
I0403 19:29:12.662428 24843 net.cpp:141] Setting up inception_4b/output_inception_4b/output_0_split
I0403 19:29:12.662467 24843 net.cpp:148] Top shape: 24 512 14 14 (2408448)
I0403 19:29:12.662483 24843 net.cpp:148] Top shape: 24 512 14 14 (2408448)
I0403 19:29:12.662498 24843 net.cpp:148] Top shape: 24 512 14 14 (2408448)
I0403 19:29:12.662513 24843 net.cpp:148] Top shape: 24 512 14 14 (2408448)
I0403 19:29:12.662525 24843 net.cpp:156] Memory required for data: 1028392224
I0403 19:29:12.662540 24843 layer_factory.hpp:77] Creating layer inception_4c/1x1
I0403 19:29:12.662562 24843 net.cpp:91] Creating Layer inception_4c/1x1
I0403 19:29:12.662580 24843 net.cpp:425] inception_4c/1x1 <- inception_4b/output_inception_4b/output_0_split_0
I0403 19:29:12.662603 24843 net.cpp:399] inception_4c/1x1 -> inception_4c/1x1
I0403 19:29:12.664027 24843 net.cpp:141] Setting up inception_4c/1x1
I0403 19:29:12.664059 24843 net.cpp:148] Top shape: 24 128 14 14 (602112)
I0403 19:29:12.664077 24843 net.cpp:156] Memory required for data: 1030800672
I0403 19:29:12.664096 24843 layer_factory.hpp:77] Creating layer inception_4c/relu_1x1
I0403 19:29:12.664114 24843 net.cpp:91] Creating Layer inception_4c/relu_1x1
I0403 19:29:12.664130 24843 net.cpp:425] inception_4c/relu_1x1 <- inception_4c/1x1
I0403 19:29:12.664149 24843 net.cpp:386] inception_4c/relu_1x1 -> inception_4c/1x1 (in-place)
I0403 19:29:12.664342 24843 net.cpp:141] Setting up inception_4c/relu_1x1
I0403 19:29:12.664369 24843 net.cpp:148] Top shape: 24 128 14 14 (602112)
I0403 19:29:12.664384 24843 net.cpp:156] Memory required for data: 1033209120
I0403 19:29:12.664400 24843 layer_factory.hpp:77] Creating layer inception_4c/3x3_reduce
I0403 19:29:12.664422 24843 net.cpp:91] Creating Layer inception_4c/3x3_reduce
I0403 19:29:12.664440 24843 net.cpp:425] inception_4c/3x3_reduce <- inception_4b/output_inception_4b/output_0_split_1
I0403 19:29:12.664461 24843 net.cpp:399] inception_4c/3x3_reduce -> inception_4c/3x3_reduce
I0403 19:29:12.666352 24843 net.cpp:141] Setting up inception_4c/3x3_reduce
I0403 19:29:12.666380 24843 net.cpp:148] Top shape: 24 128 14 14 (602112)
I0403 19:29:12.666395 24843 net.cpp:156] Memory required for data: 1035617568
I0403 19:29:12.666414 24843 layer_factory.hpp:77] Creating layer inception_4c/relu_3x3_reduce
I0403 19:29:12.666435 24843 net.cpp:91] Creating Layer inception_4c/relu_3x3_reduce
I0403 19:29:12.666451 24843 net.cpp:425] inception_4c/relu_3x3_reduce <- inception_4c/3x3_reduce
I0403 19:29:12.666468 24843 net.cpp:386] inception_4c/relu_3x3_reduce -> inception_4c/3x3_reduce (in-place)
I0403 19:29:12.666759 24843 net.cpp:141] Setting up inception_4c/relu_3x3_reduce
I0403 19:29:12.666786 24843 net.cpp:148] Top shape: 24 128 14 14 (602112)
I0403 19:29:12.666801 24843 net.cpp:156] Memory required for data: 1038026016
I0403 19:29:12.666816 24843 layer_factory.hpp:77] Creating layer inception_4c/3x3
I0403 19:29:12.666838 24843 net.cpp:91] Creating Layer inception_4c/3x3
I0403 19:29:12.666857 24843 net.cpp:425] inception_4c/3x3 <- inception_4c/3x3_reduce
I0403 19:29:12.666879 24843 net.cpp:399] inception_4c/3x3 -> inception_4c/3x3
I0403 19:29:12.670392 24843 net.cpp:141] Setting up inception_4c/3x3
I0403 19:29:12.670433 24843 net.cpp:148] Top shape: 24 256 14 14 (1204224)
I0403 19:29:12.670450 24843 net.cpp:156] Memory required for data: 1042842912
I0403 19:29:12.670481 24843 layer_factory.hpp:77] Creating layer inception_4c/relu_3x3
I0403 19:29:12.670503 24843 net.cpp:91] Creating Layer inception_4c/relu_3x3
I0403 19:29:12.670521 24843 net.cpp:425] inception_4c/relu_3x3 <- inception_4c/3x3
I0403 19:29:12.670537 24843 net.cpp:386] inception_4c/relu_3x3 -> inception_4c/3x3 (in-place)
I0403 19:29:12.670730 24843 net.cpp:141] Setting up inception_4c/relu_3x3
I0403 19:29:12.670756 24843 net.cpp:148] Top shape: 24 256 14 14 (1204224)
I0403 19:29:12.670771 24843 net.cpp:156] Memory required for data: 1047659808
I0403 19:29:12.670785 24843 layer_factory.hpp:77] Creating layer inception_4c/5x5_reduce
I0403 19:29:12.670806 24843 net.cpp:91] Creating Layer inception_4c/5x5_reduce
I0403 19:29:12.670827 24843 net.cpp:425] inception_4c/5x5_reduce <- inception_4b/output_inception_4b/output_0_split_2
I0403 19:29:12.670847 24843 net.cpp:399] inception_4c/5x5_reduce -> inception_4c/5x5_reduce
I0403 19:29:12.671916 24843 net.cpp:141] Setting up inception_4c/5x5_reduce
I0403 19:29:12.671942 24843 net.cpp:148] Top shape: 24 24 14 14 (112896)
I0403 19:29:12.671957 24843 net.cpp:156] Memory required for data: 1048111392
I0403 19:29:12.671975 24843 layer_factory.hpp:77] Creating layer inception_4c/relu_5x5_reduce
I0403 19:29:12.671995 24843 net.cpp:91] Creating Layer inception_4c/relu_5x5_reduce
I0403 19:29:12.672013 24843 net.cpp:425] inception_4c/relu_5x5_reduce <- inception_4c/5x5_reduce
I0403 19:29:12.672029 24843 net.cpp:386] inception_4c/relu_5x5_reduce -> inception_4c/5x5_reduce (in-place)
I0403 19:29:12.672212 24843 net.cpp:141] Setting up inception_4c/relu_5x5_reduce
I0403 19:29:12.672240 24843 net.cpp:148] Top shape: 24 24 14 14 (112896)
I0403 19:29:12.672260 24843 net.cpp:156] Memory required for data: 1048562976
I0403 19:29:12.672276 24843 layer_factory.hpp:77] Creating layer inception_4c/5x5
I0403 19:29:12.672297 24843 net.cpp:91] Creating Layer inception_4c/5x5
I0403 19:29:12.672315 24843 net.cpp:425] inception_4c/5x5 <- inception_4c/5x5_reduce
I0403 19:29:12.672334 24843 net.cpp:399] inception_4c/5x5 -> inception_4c/5x5
I0403 19:29:12.673542 24843 net.cpp:141] Setting up inception_4c/5x5
I0403 19:29:12.673570 24843 net.cpp:148] Top shape: 24 64 14 14 (301056)
I0403 19:29:12.673588 24843 net.cpp:156] Memory required for data: 1049767200
I0403 19:29:12.673604 24843 layer_factory.hpp:77] Creating layer inception_4c/relu_5x5
I0403 19:29:12.673622 24843 net.cpp:91] Creating Layer inception_4c/relu_5x5
I0403 19:29:12.673638 24843 net.cpp:425] inception_4c/relu_5x5 <- inception_4c/5x5
I0403 19:29:12.673657 24843 net.cpp:386] inception_4c/relu_5x5 -> inception_4c/5x5 (in-place)
I0403 19:29:12.673938 24843 net.cpp:141] Setting up inception_4c/relu_5x5
I0403 19:29:12.673965 24843 net.cpp:148] Top shape: 24 64 14 14 (301056)
I0403 19:29:12.673980 24843 net.cpp:156] Memory required for data: 1050971424
I0403 19:29:12.673996 24843 layer_factory.hpp:77] Creating layer inception_4c/pool
I0403 19:29:12.674015 24843 net.cpp:91] Creating Layer inception_4c/pool
I0403 19:29:12.674031 24843 net.cpp:425] inception_4c/pool <- inception_4b/output_inception_4b/output_0_split_3
I0403 19:29:12.674051 24843 net.cpp:399] inception_4c/pool -> inception_4c/pool
I0403 19:29:12.674113 24843 net.cpp:141] Setting up inception_4c/pool
I0403 19:29:12.674136 24843 net.cpp:148] Top shape: 24 512 14 14 (2408448)
I0403 19:29:12.674151 24843 net.cpp:156] Memory required for data: 1060605216
I0403 19:29:12.674165 24843 layer_factory.hpp:77] Creating layer inception_4c/pool_proj
I0403 19:29:12.674186 24843 net.cpp:91] Creating Layer inception_4c/pool_proj
I0403 19:29:12.674203 24843 net.cpp:425] inception_4c/pool_proj <- inception_4c/pool
I0403 19:29:12.674223 24843 net.cpp:399] inception_4c/pool_proj -> inception_4c/pool_proj
I0403 19:29:12.675448 24843 net.cpp:141] Setting up inception_4c/pool_proj
I0403 19:29:12.675477 24843 net.cpp:148] Top shape: 24 64 14 14 (301056)
I0403 19:29:12.675505 24843 net.cpp:156] Memory required for data: 1061809440
I0403 19:29:12.675524 24843 layer_factory.hpp:77] Creating layer inception_4c/relu_pool_proj
I0403 19:29:12.675545 24843 net.cpp:91] Creating Layer inception_4c/relu_pool_proj
I0403 19:29:12.675564 24843 net.cpp:425] inception_4c/relu_pool_proj <- inception_4c/pool_proj
I0403 19:29:12.675580 24843 net.cpp:386] inception_4c/relu_pool_proj -> inception_4c/pool_proj (in-place)
I0403 19:29:12.675778 24843 net.cpp:141] Setting up inception_4c/relu_pool_proj
I0403 19:29:12.675806 24843 net.cpp:148] Top shape: 24 64 14 14 (301056)
I0403 19:29:12.675822 24843 net.cpp:156] Memory required for data: 1063013664
I0403 19:29:12.675837 24843 layer_factory.hpp:77] Creating layer inception_4c/output
I0403 19:29:12.675853 24843 net.cpp:91] Creating Layer inception_4c/output
I0403 19:29:12.675868 24843 net.cpp:425] inception_4c/output <- inception_4c/1x1
I0403 19:29:12.675885 24843 net.cpp:425] inception_4c/output <- inception_4c/3x3
I0403 19:29:12.675915 24843 net.cpp:425] inception_4c/output <- inception_4c/5x5
I0403 19:29:12.675930 24843 net.cpp:425] inception_4c/output <- inception_4c/pool_proj
I0403 19:29:12.675946 24843 net.cpp:399] inception_4c/output -> inception_4c/output
I0403 19:29:12.675994 24843 net.cpp:141] Setting up inception_4c/output
I0403 19:29:12.676017 24843 net.cpp:148] Top shape: 24 512 14 14 (2408448)
I0403 19:29:12.676031 24843 net.cpp:156] Memory required for data: 1072647456
I0403 19:29:12.676045 24843 layer_factory.hpp:77] Creating layer inception_4c/output_inception_4c/output_0_split
I0403 19:29:12.676061 24843 net.cpp:91] Creating Layer inception_4c/output_inception_4c/output_0_split
I0403 19:29:12.676076 24843 net.cpp:425] inception_4c/output_inception_4c/output_0_split <- inception_4c/output
I0403 19:29:12.676095 24843 net.cpp:399] inception_4c/output_inception_4c/output_0_split -> inception_4c/output_inception_4c/output_0_split_0
I0403 19:29:12.676116 24843 net.cpp:399] inception_4c/output_inception_4c/output_0_split -> inception_4c/output_inception_4c/output_0_split_1
I0403 19:29:12.676136 24843 net.cpp:399] inception_4c/output_inception_4c/output_0_split -> inception_4c/output_inception_4c/output_0_split_2
I0403 19:29:12.676159 24843 net.cpp:399] inception_4c/output_inception_4c/output_0_split -> inception_4c/output_inception_4c/output_0_split_3
I0403 19:29:12.676244 24843 net.cpp:141] Setting up inception_4c/output_inception_4c/output_0_split
I0403 19:29:12.676272 24843 net.cpp:148] Top shape: 24 512 14 14 (2408448)
I0403 19:29:12.676290 24843 net.cpp:148] Top shape: 24 512 14 14 (2408448)
I0403 19:29:12.676306 24843 net.cpp:148] Top shape: 24 512 14 14 (2408448)
I0403 19:29:12.676319 24843 net.cpp:148] Top shape: 24 512 14 14 (2408448)
I0403 19:29:12.676333 24843 net.cpp:156] Memory required for data: 1111182624
I0403 19:29:12.676347 24843 layer_factory.hpp:77] Creating layer inception_4d/1x1
I0403 19:29:12.676368 24843 net.cpp:91] Creating Layer inception_4d/1x1
I0403 19:29:12.676385 24843 net.cpp:425] inception_4d/1x1 <- inception_4c/output_inception_4c/output_0_split_0
I0403 19:29:12.676406 24843 net.cpp:399] inception_4d/1x1 -> inception_4d/1x1
I0403 19:29:12.677750 24843 net.cpp:141] Setting up inception_4d/1x1
I0403 19:29:12.677778 24843 net.cpp:148] Top shape: 24 112 14 14 (526848)
I0403 19:29:12.677793 24843 net.cpp:156] Memory required for data: 1113290016
I0403 19:29:12.677809 24843 layer_factory.hpp:77] Creating layer inception_4d/relu_1x1
I0403 19:29:12.677826 24843 net.cpp:91] Creating Layer inception_4d/relu_1x1
I0403 19:29:12.677846 24843 net.cpp:425] inception_4d/relu_1x1 <- inception_4d/1x1
I0403 19:29:12.677863 24843 net.cpp:386] inception_4d/relu_1x1 -> inception_4d/1x1 (in-place)
I0403 19:29:12.678043 24843 net.cpp:141] Setting up inception_4d/relu_1x1
I0403 19:29:12.678068 24843 net.cpp:148] Top shape: 24 112 14 14 (526848)
I0403 19:29:12.678083 24843 net.cpp:156] Memory required for data: 1115397408
I0403 19:29:12.678098 24843 layer_factory.hpp:77] Creating layer inception_4d/3x3_reduce
I0403 19:29:12.678134 24843 net.cpp:91] Creating Layer inception_4d/3x3_reduce
I0403 19:29:12.678153 24843 net.cpp:425] inception_4d/3x3_reduce <- inception_4c/output_inception_4c/output_0_split_1
I0403 19:29:12.678174 24843 net.cpp:399] inception_4d/3x3_reduce -> inception_4d/3x3_reduce
I0403 19:29:12.679677 24843 net.cpp:141] Setting up inception_4d/3x3_reduce
I0403 19:29:12.679708 24843 net.cpp:148] Top shape: 24 144 14 14 (677376)
I0403 19:29:12.679723 24843 net.cpp:156] Memory required for data: 1118106912
I0403 19:29:12.679740 24843 layer_factory.hpp:77] Creating layer inception_4d/relu_3x3_reduce
I0403 19:29:12.679759 24843 net.cpp:91] Creating Layer inception_4d/relu_3x3_reduce
I0403 19:29:12.679774 24843 net.cpp:425] inception_4d/relu_3x3_reduce <- inception_4d/3x3_reduce
I0403 19:29:12.679793 24843 net.cpp:386] inception_4d/relu_3x3_reduce -> inception_4d/3x3_reduce (in-place)
I0403 19:29:12.680076 24843 net.cpp:141] Setting up inception_4d/relu_3x3_reduce
I0403 19:29:12.680104 24843 net.cpp:148] Top shape: 24 144 14 14 (677376)
I0403 19:29:12.680119 24843 net.cpp:156] Memory required for data: 1120816416
I0403 19:29:12.680133 24843 layer_factory.hpp:77] Creating layer inception_4d/3x3
I0403 19:29:12.680155 24843 net.cpp:91] Creating Layer inception_4d/3x3
I0403 19:29:12.680171 24843 net.cpp:425] inception_4d/3x3 <- inception_4d/3x3_reduce
I0403 19:29:12.680192 24843 net.cpp:399] inception_4d/3x3 -> inception_4d/3x3
I0403 19:29:12.684449 24843 net.cpp:141] Setting up inception_4d/3x3
I0403 19:29:12.684478 24843 net.cpp:148] Top shape: 24 288 14 14 (1354752)
I0403 19:29:12.684494 24843 net.cpp:156] Memory required for data: 1126235424
I0403 19:29:12.684511 24843 layer_factory.hpp:77] Creating layer inception_4d/relu_3x3
I0403 19:29:12.684530 24843 net.cpp:91] Creating Layer inception_4d/relu_3x3
I0403 19:29:12.684545 24843 net.cpp:425] inception_4d/relu_3x3 <- inception_4d/3x3
I0403 19:29:12.684566 24843 net.cpp:386] inception_4d/relu_3x3 -> inception_4d/3x3 (in-place)
I0403 19:29:12.684759 24843 net.cpp:141] Setting up inception_4d/relu_3x3
I0403 19:29:12.684784 24843 net.cpp:148] Top shape: 24 288 14 14 (1354752)
I0403 19:29:12.684800 24843 net.cpp:156] Memory required for data: 1131654432
I0403 19:29:12.684815 24843 layer_factory.hpp:77] Creating layer inception_4d/5x5_reduce
I0403 19:29:12.684836 24843 net.cpp:91] Creating Layer inception_4d/5x5_reduce
I0403 19:29:12.684855 24843 net.cpp:425] inception_4d/5x5_reduce <- inception_4c/output_inception_4c/output_0_split_2
I0403 19:29:12.684876 24843 net.cpp:399] inception_4d/5x5_reduce -> inception_4d/5x5_reduce
I0403 19:29:12.686045 24843 net.cpp:141] Setting up inception_4d/5x5_reduce
I0403 19:29:12.686074 24843 net.cpp:148] Top shape: 24 32 14 14 (150528)
I0403 19:29:12.686090 24843 net.cpp:156] Memory required for data: 1132256544
I0403 19:29:12.686108 24843 layer_factory.hpp:77] Creating layer inception_4d/relu_5x5_reduce
I0403 19:29:12.686130 24843 net.cpp:91] Creating Layer inception_4d/relu_5x5_reduce
I0403 19:29:12.686147 24843 net.cpp:425] inception_4d/relu_5x5_reduce <- inception_4d/5x5_reduce
I0403 19:29:12.686166 24843 net.cpp:386] inception_4d/relu_5x5_reduce -> inception_4d/5x5_reduce (in-place)
I0403 19:29:12.686369 24843 net.cpp:141] Setting up inception_4d/relu_5x5_reduce
I0403 19:29:12.686395 24843 net.cpp:148] Top shape: 24 32 14 14 (150528)
I0403 19:29:12.686410 24843 net.cpp:156] Memory required for data: 1132858656
I0403 19:29:12.686425 24843 layer_factory.hpp:77] Creating layer inception_4d/5x5
I0403 19:29:12.686449 24843 net.cpp:91] Creating Layer inception_4d/5x5
I0403 19:29:12.686468 24843 net.cpp:425] inception_4d/5x5 <- inception_4d/5x5_reduce
I0403 19:29:12.686488 24843 net.cpp:399] inception_4d/5x5 -> inception_4d/5x5
I0403 19:29:12.687924 24843 net.cpp:141] Setting up inception_4d/5x5
I0403 19:29:12.687952 24843 net.cpp:148] Top shape: 24 64 14 14 (301056)
I0403 19:29:12.687968 24843 net.cpp:156] Memory required for data: 1134062880
I0403 19:29:12.687986 24843 layer_factory.hpp:77] Creating layer inception_4d/relu_5x5
I0403 19:29:12.688020 24843 net.cpp:91] Creating Layer inception_4d/relu_5x5
I0403 19:29:12.688038 24843 net.cpp:425] inception_4d/relu_5x5 <- inception_4d/5x5
I0403 19:29:12.688056 24843 net.cpp:386] inception_4d/relu_5x5 -> inception_4d/5x5 (in-place)
I0403 19:29:12.688355 24843 net.cpp:141] Setting up inception_4d/relu_5x5
I0403 19:29:12.688381 24843 net.cpp:148] Top shape: 24 64 14 14 (301056)
I0403 19:29:12.688397 24843 net.cpp:156] Memory required for data: 1135267104
I0403 19:29:12.688412 24843 layer_factory.hpp:77] Creating layer inception_4d/pool
I0403 19:29:12.688431 24843 net.cpp:91] Creating Layer inception_4d/pool
I0403 19:29:12.688449 24843 net.cpp:425] inception_4d/pool <- inception_4c/output_inception_4c/output_0_split_3
I0403 19:29:12.688467 24843 net.cpp:399] inception_4d/pool -> inception_4d/pool
I0403 19:29:12.688534 24843 net.cpp:141] Setting up inception_4d/pool
I0403 19:29:12.688558 24843 net.cpp:148] Top shape: 24 512 14 14 (2408448)
I0403 19:29:12.688573 24843 net.cpp:156] Memory required for data: 1144900896
I0403 19:29:12.688588 24843 layer_factory.hpp:77] Creating layer inception_4d/pool_proj
I0403 19:29:12.688611 24843 net.cpp:91] Creating Layer inception_4d/pool_proj
I0403 19:29:12.688627 24843 net.cpp:425] inception_4d/pool_proj <- inception_4d/pool
I0403 19:29:12.688648 24843 net.cpp:399] inception_4d/pool_proj -> inception_4d/pool_proj
I0403 19:29:12.690538 24843 net.cpp:141] Setting up inception_4d/pool_proj
I0403 19:29:12.690573 24843 net.cpp:148] Top shape: 24 64 14 14 (301056)
I0403 19:29:12.690593 24843 net.cpp:156] Memory required for data: 1146105120
I0403 19:29:12.690613 24843 layer_factory.hpp:77] Creating layer inception_4d/relu_pool_proj
I0403 19:29:12.690634 24843 net.cpp:91] Creating Layer inception_4d/relu_pool_proj
I0403 19:29:12.690652 24843 net.cpp:425] inception_4d/relu_pool_proj <- inception_4d/pool_proj
I0403 19:29:12.690675 24843 net.cpp:386] inception_4d/relu_pool_proj -> inception_4d/pool_proj (in-place)
I0403 19:29:12.690888 24843 net.cpp:141] Setting up inception_4d/relu_pool_proj
I0403 19:29:12.690917 24843 net.cpp:148] Top shape: 24 64 14 14 (301056)
I0403 19:29:12.690932 24843 net.cpp:156] Memory required for data: 1147309344
I0403 19:29:12.690949 24843 layer_factory.hpp:77] Creating layer inception_4d/output
I0403 19:29:12.690975 24843 net.cpp:91] Creating Layer inception_4d/output
I0403 19:29:12.690999 24843 net.cpp:425] inception_4d/output <- inception_4d/1x1
I0403 19:29:12.691017 24843 net.cpp:425] inception_4d/output <- inception_4d/3x3
I0403 19:29:12.691035 24843 net.cpp:425] inception_4d/output <- inception_4d/5x5
I0403 19:29:12.691051 24843 net.cpp:425] inception_4d/output <- inception_4d/pool_proj
I0403 19:29:12.691073 24843 net.cpp:399] inception_4d/output -> inception_4d/output
I0403 19:29:12.691135 24843 net.cpp:141] Setting up inception_4d/output
I0403 19:29:12.691161 24843 net.cpp:148] Top shape: 24 528 14 14 (2483712)
I0403 19:29:12.691181 24843 net.cpp:156] Memory required for data: 1157244192
I0403 19:29:12.691198 24843 layer_factory.hpp:77] Creating layer inception_4d/output_inception_4d/output_0_split
I0403 19:29:12.691222 24843 net.cpp:91] Creating Layer inception_4d/output_inception_4d/output_0_split
I0403 19:29:12.691241 24843 net.cpp:425] inception_4d/output_inception_4d/output_0_split <- inception_4d/output
I0403 19:29:12.691274 24843 net.cpp:399] inception_4d/output_inception_4d/output_0_split -> inception_4d/output_inception_4d/output_0_split_0
I0403 19:29:12.691303 24843 net.cpp:399] inception_4d/output_inception_4d/output_0_split -> inception_4d/output_inception_4d/output_0_split_1
I0403 19:29:12.691331 24843 net.cpp:399] inception_4d/output_inception_4d/output_0_split -> inception_4d/output_inception_4d/output_0_split_2
I0403 19:29:12.691359 24843 net.cpp:399] inception_4d/output_inception_4d/output_0_split -> inception_4d/output_inception_4d/output_0_split_3
I0403 19:29:12.691385 24843 net.cpp:399] inception_4d/output_inception_4d/output_0_split -> inception_4d/output_inception_4d/output_0_split_4
I0403 19:29:12.691514 24843 net.cpp:141] Setting up inception_4d/output_inception_4d/output_0_split
I0403 19:29:12.691556 24843 net.cpp:148] Top shape: 24 528 14 14 (2483712)
I0403 19:29:12.691579 24843 net.cpp:148] Top shape: 24 528 14 14 (2483712)
I0403 19:29:12.691598 24843 net.cpp:148] Top shape: 24 528 14 14 (2483712)
I0403 19:29:12.691618 24843 net.cpp:148] Top shape: 24 528 14 14 (2483712)
I0403 19:29:12.691637 24843 net.cpp:148] Top shape: 24 528 14 14 (2483712)
I0403 19:29:12.691653 24843 net.cpp:156] Memory required for data: 1206918432
I0403 19:29:12.691673 24843 layer_factory.hpp:77] Creating layer loss2/ave_pool
I0403 19:29:12.691696 24843 net.cpp:91] Creating Layer loss2/ave_pool
I0403 19:29:12.691716 24843 net.cpp:425] loss2/ave_pool <- inception_4d/output_inception_4d/output_0_split_0
I0403 19:29:12.691745 24843 net.cpp:399] loss2/ave_pool -> loss2/ave_pool
I0403 19:29:12.692080 24843 net.cpp:141] Setting up loss2/ave_pool
I0403 19:29:12.692121 24843 net.cpp:148] Top shape: 24 528 4 4 (202752)
I0403 19:29:12.692137 24843 net.cpp:156] Memory required for data: 1207729440
I0403 19:29:12.692154 24843 layer_factory.hpp:77] Creating layer loss2/conv
I0403 19:29:12.692188 24843 net.cpp:91] Creating Layer loss2/conv
I0403 19:29:12.692209 24843 net.cpp:425] loss2/conv <- loss2/ave_pool
I0403 19:29:12.692231 24843 net.cpp:399] loss2/conv -> loss2/conv
I0403 19:29:12.694234 24843 net.cpp:141] Setting up loss2/conv
I0403 19:29:12.694281 24843 net.cpp:148] Top shape: 24 128 4 4 (49152)
I0403 19:29:12.694301 24843 net.cpp:156] Memory required for data: 1207926048
I0403 19:29:12.694321 24843 layer_factory.hpp:77] Creating layer loss2/relu_conv
I0403 19:29:12.694341 24843 net.cpp:91] Creating Layer loss2/relu_conv
I0403 19:29:12.694360 24843 net.cpp:425] loss2/relu_conv <- loss2/conv
I0403 19:29:12.694378 24843 net.cpp:386] loss2/relu_conv -> loss2/conv (in-place)
I0403 19:29:12.694674 24843 net.cpp:141] Setting up loss2/relu_conv
I0403 19:29:12.694705 24843 net.cpp:148] Top shape: 24 128 4 4 (49152)
I0403 19:29:12.694721 24843 net.cpp:156] Memory required for data: 1208122656
I0403 19:29:12.694737 24843 layer_factory.hpp:77] Creating layer loss2/fc
I0403 19:29:12.694757 24843 net.cpp:91] Creating Layer loss2/fc
I0403 19:29:12.694773 24843 net.cpp:425] loss2/fc <- loss2/conv
I0403 19:29:12.694797 24843 net.cpp:399] loss2/fc -> loss2/fc
I0403 19:29:12.712368 24843 net.cpp:141] Setting up loss2/fc
I0403 19:29:12.712404 24843 net.cpp:148] Top shape: 24 1024 (24576)
I0403 19:29:12.712419 24843 net.cpp:156] Memory required for data: 1208220960
I0403 19:29:12.712437 24843 layer_factory.hpp:77] Creating layer loss2/relu_fc
I0403 19:29:12.712457 24843 net.cpp:91] Creating Layer loss2/relu_fc
I0403 19:29:12.712474 24843 net.cpp:425] loss2/relu_fc <- loss2/fc
I0403 19:29:12.712492 24843 net.cpp:386] loss2/relu_fc -> loss2/fc (in-place)
I0403 19:29:12.712785 24843 net.cpp:141] Setting up loss2/relu_fc
I0403 19:29:12.712811 24843 net.cpp:148] Top shape: 24 1024 (24576)
I0403 19:29:12.712826 24843 net.cpp:156] Memory required for data: 1208319264
I0403 19:29:12.712839 24843 layer_factory.hpp:77] Creating layer loss2/drop_fc
I0403 19:29:12.712860 24843 net.cpp:91] Creating Layer loss2/drop_fc
I0403 19:29:12.712877 24843 net.cpp:425] loss2/drop_fc <- loss2/fc
I0403 19:29:12.712894 24843 net.cpp:386] loss2/drop_fc -> loss2/fc (in-place)
I0403 19:29:12.712942 24843 net.cpp:141] Setting up loss2/drop_fc
I0403 19:29:12.712968 24843 net.cpp:148] Top shape: 24 1024 (24576)
I0403 19:29:12.712983 24843 net.cpp:156] Memory required for data: 1208417568
I0403 19:29:12.712999 24843 layer_factory.hpp:77] Creating layer loss2/classifier_plantvillage
I0403 19:29:12.713017 24843 net.cpp:91] Creating Layer loss2/classifier_plantvillage
I0403 19:29:12.713033 24843 net.cpp:425] loss2/classifier_plantvillage <- loss2/fc
I0403 19:29:12.713054 24843 net.cpp:399] loss2/classifier_plantvillage -> loss2/classifier_plantvillage
I0403 19:29:12.713464 24843 net.cpp:141] Setting up loss2/classifier_plantvillage
I0403 19:29:12.713488 24843 net.cpp:148] Top shape: 24 38 (912)
I0403 19:29:12.713521 24843 net.cpp:156] Memory required for data: 1208421216
I0403 19:29:12.713541 24843 layer_factory.hpp:77] Creating layer loss2/classifier_plantvillage_loss2/classifier_plantvillage_0_split
I0403 19:29:12.713557 24843 net.cpp:91] Creating Layer loss2/classifier_plantvillage_loss2/classifier_plantvillage_0_split
I0403 19:29:12.713574 24843 net.cpp:425] loss2/classifier_plantvillage_loss2/classifier_plantvillage_0_split <- loss2/classifier_plantvillage
I0403 19:29:12.713592 24843 net.cpp:399] loss2/classifier_plantvillage_loss2/classifier_plantvillage_0_split -> loss2/classifier_plantvillage_loss2/classifier_plantvillage_0_split_0
I0403 19:29:12.713624 24843 net.cpp:399] loss2/classifier_plantvillage_loss2/classifier_plantvillage_0_split -> loss2/classifier_plantvillage_loss2/classifier_plantvillage_0_split_1
I0403 19:29:12.713657 24843 net.cpp:399] loss2/classifier_plantvillage_loss2/classifier_plantvillage_0_split -> loss2/classifier_plantvillage_loss2/classifier_plantvillage_0_split_2
I0403 19:29:12.713732 24843 net.cpp:141] Setting up loss2/classifier_plantvillage_loss2/classifier_plantvillage_0_split
I0403 19:29:12.713757 24843 net.cpp:148] Top shape: 24 38 (912)
I0403 19:29:12.713773 24843 net.cpp:148] Top shape: 24 38 (912)
I0403 19:29:12.713788 24843 net.cpp:148] Top shape: 24 38 (912)
I0403 19:29:12.713801 24843 net.cpp:156] Memory required for data: 1208432160
I0403 19:29:12.713815 24843 layer_factory.hpp:77] Creating layer inception_4e/1x1
I0403 19:29:12.713838 24843 net.cpp:91] Creating Layer inception_4e/1x1
I0403 19:29:12.713855 24843 net.cpp:425] inception_4e/1x1 <- inception_4d/output_inception_4d/output_0_split_1
I0403 19:29:12.713876 24843 net.cpp:399] inception_4e/1x1 -> inception_4e/1x1
I0403 19:29:12.715637 24843 net.cpp:141] Setting up inception_4e/1x1
I0403 19:29:12.715667 24843 net.cpp:148] Top shape: 24 256 14 14 (1204224)
I0403 19:29:12.715683 24843 net.cpp:156] Memory required for data: 1213249056
I0403 19:29:12.715700 24843 layer_factory.hpp:77] Creating layer inception_4e/relu_1x1
I0403 19:29:12.715718 24843 net.cpp:91] Creating Layer inception_4e/relu_1x1
I0403 19:29:12.715734 24843 net.cpp:425] inception_4e/relu_1x1 <- inception_4e/1x1
I0403 19:29:12.715752 24843 net.cpp:386] inception_4e/relu_1x1 -> inception_4e/1x1 (in-place)
I0403 19:29:12.716033 24843 net.cpp:141] Setting up inception_4e/relu_1x1
I0403 19:29:12.716060 24843 net.cpp:148] Top shape: 24 256 14 14 (1204224)
I0403 19:29:12.716076 24843 net.cpp:156] Memory required for data: 1218065952
I0403 19:29:12.716090 24843 layer_factory.hpp:77] Creating layer inception_4e/3x3_reduce
I0403 19:29:12.716112 24843 net.cpp:91] Creating Layer inception_4e/3x3_reduce
I0403 19:29:12.716130 24843 net.cpp:425] inception_4e/3x3_reduce <- inception_4d/output_inception_4d/output_0_split_2
I0403 19:29:12.716147 24843 net.cpp:399] inception_4e/3x3_reduce -> inception_4e/3x3_reduce
I0403 19:29:12.718245 24843 net.cpp:141] Setting up inception_4e/3x3_reduce
I0403 19:29:12.718278 24843 net.cpp:148] Top shape: 24 160 14 14 (752640)
I0403 19:29:12.718294 24843 net.cpp:156] Memory required for data: 1221076512
I0403 19:29:12.718312 24843 layer_factory.hpp:77] Creating layer inception_4e/relu_3x3_reduce
I0403 19:29:12.718333 24843 net.cpp:91] Creating Layer inception_4e/relu_3x3_reduce
I0403 19:29:12.718348 24843 net.cpp:425] inception_4e/relu_3x3_reduce <- inception_4e/3x3_reduce
I0403 19:29:12.718365 24843 net.cpp:386] inception_4e/relu_3x3_reduce -> inception_4e/3x3_reduce (in-place)
I0403 19:29:12.718544 24843 net.cpp:141] Setting up inception_4e/relu_3x3_reduce
I0403 19:29:12.718570 24843 net.cpp:148] Top shape: 24 160 14 14 (752640)
I0403 19:29:12.718586 24843 net.cpp:156] Memory required for data: 1224087072
I0403 19:29:12.718600 24843 layer_factory.hpp:77] Creating layer inception_4e/3x3
I0403 19:29:12.718633 24843 net.cpp:91] Creating Layer inception_4e/3x3
I0403 19:29:12.718652 24843 net.cpp:425] inception_4e/3x3 <- inception_4e/3x3_reduce
I0403 19:29:12.718669 24843 net.cpp:399] inception_4e/3x3 -> inception_4e/3x3
I0403 19:29:12.723438 24843 net.cpp:141] Setting up inception_4e/3x3
I0403 19:29:12.723477 24843 net.cpp:148] Top shape: 24 320 14 14 (1505280)
I0403 19:29:12.723495 24843 net.cpp:156] Memory required for data: 1230108192
I0403 19:29:12.723512 24843 layer_factory.hpp:77] Creating layer inception_4e/relu_3x3
I0403 19:29:12.723531 24843 net.cpp:91] Creating Layer inception_4e/relu_3x3
I0403 19:29:12.723546 24843 net.cpp:425] inception_4e/relu_3x3 <- inception_4e/3x3
I0403 19:29:12.723565 24843 net.cpp:386] inception_4e/relu_3x3 -> inception_4e/3x3 (in-place)
I0403 19:29:12.723851 24843 net.cpp:141] Setting up inception_4e/relu_3x3
I0403 19:29:12.723877 24843 net.cpp:148] Top shape: 24 320 14 14 (1505280)
I0403 19:29:12.723892 24843 net.cpp:156] Memory required for data: 1236129312
I0403 19:29:12.723906 24843 layer_factory.hpp:77] Creating layer inception_4e/5x5_reduce
I0403 19:29:12.723927 24843 net.cpp:91] Creating Layer inception_4e/5x5_reduce
I0403 19:29:12.723945 24843 net.cpp:425] inception_4e/5x5_reduce <- inception_4d/output_inception_4d/output_0_split_3
I0403 19:29:12.723966 24843 net.cpp:399] inception_4e/5x5_reduce -> inception_4e/5x5_reduce
I0403 19:29:12.724989 24843 net.cpp:141] Setting up inception_4e/5x5_reduce
I0403 19:29:12.725016 24843 net.cpp:148] Top shape: 24 32 14 14 (150528)
I0403 19:29:12.725031 24843 net.cpp:156] Memory required for data: 1236731424
I0403 19:29:12.725049 24843 layer_factory.hpp:77] Creating layer inception_4e/relu_5x5_reduce
I0403 19:29:12.725067 24843 net.cpp:91] Creating Layer inception_4e/relu_5x5_reduce
I0403 19:29:12.725085 24843 net.cpp:425] inception_4e/relu_5x5_reduce <- inception_4e/5x5_reduce
I0403 19:29:12.725101 24843 net.cpp:386] inception_4e/relu_5x5_reduce -> inception_4e/5x5_reduce (in-place)
I0403 19:29:12.725390 24843 net.cpp:141] Setting up inception_4e/relu_5x5_reduce
I0403 19:29:12.725416 24843 net.cpp:148] Top shape: 24 32 14 14 (150528)
I0403 19:29:12.725430 24843 net.cpp:156] Memory required for data: 1237333536
I0403 19:29:12.725445 24843 layer_factory.hpp:77] Creating layer inception_4e/5x5
I0403 19:29:12.725482 24843 net.cpp:91] Creating Layer inception_4e/5x5
I0403 19:29:12.725502 24843 net.cpp:425] inception_4e/5x5 <- inception_4e/5x5_reduce
I0403 19:29:12.725520 24843 net.cpp:399] inception_4e/5x5 -> inception_4e/5x5
I0403 19:29:12.727304 24843 net.cpp:141] Setting up inception_4e/5x5
I0403 19:29:12.727331 24843 net.cpp:148] Top shape: 24 128 14 14 (602112)
I0403 19:29:12.727346 24843 net.cpp:156] Memory required for data: 1239741984
I0403 19:29:12.727365 24843 layer_factory.hpp:77] Creating layer inception_4e/relu_5x5
I0403 19:29:12.727385 24843 net.cpp:91] Creating Layer inception_4e/relu_5x5
I0403 19:29:12.727402 24843 net.cpp:425] inception_4e/relu_5x5 <- inception_4e/5x5
I0403 19:29:12.727418 24843 net.cpp:386] inception_4e/relu_5x5 -> inception_4e/5x5 (in-place)
I0403 19:29:12.727620 24843 net.cpp:141] Setting up inception_4e/relu_5x5
I0403 19:29:12.727648 24843 net.cpp:148] Top shape: 24 128 14 14 (602112)
I0403 19:29:12.727663 24843 net.cpp:156] Memory required for data: 1242150432
I0403 19:29:12.727677 24843 layer_factory.hpp:77] Creating layer inception_4e/pool
I0403 19:29:12.727694 24843 net.cpp:91] Creating Layer inception_4e/pool
I0403 19:29:12.727711 24843 net.cpp:425] inception_4e/pool <- inception_4d/output_inception_4d/output_0_split_4
I0403 19:29:12.727728 24843 net.cpp:399] inception_4e/pool -> inception_4e/pool
I0403 19:29:12.727797 24843 net.cpp:141] Setting up inception_4e/pool
I0403 19:29:12.727821 24843 net.cpp:148] Top shape: 24 528 14 14 (2483712)
I0403 19:29:12.727835 24843 net.cpp:156] Memory required for data: 1252085280
I0403 19:29:12.727849 24843 layer_factory.hpp:77] Creating layer inception_4e/pool_proj
I0403 19:29:12.727871 24843 net.cpp:91] Creating Layer inception_4e/pool_proj
I0403 19:29:12.727888 24843 net.cpp:425] inception_4e/pool_proj <- inception_4e/pool
I0403 19:29:12.727919 24843 net.cpp:399] inception_4e/pool_proj -> inception_4e/pool_proj
I0403 19:29:12.729365 24843 net.cpp:141] Setting up inception_4e/pool_proj
I0403 19:29:12.729403 24843 net.cpp:148] Top shape: 24 128 14 14 (602112)
I0403 19:29:12.729418 24843 net.cpp:156] Memory required for data: 1254493728
I0403 19:29:12.729436 24843 layer_factory.hpp:77] Creating layer inception_4e/relu_pool_proj
I0403 19:29:12.729455 24843 net.cpp:91] Creating Layer inception_4e/relu_pool_proj
I0403 19:29:12.729471 24843 net.cpp:425] inception_4e/relu_pool_proj <- inception_4e/pool_proj
I0403 19:29:12.729487 24843 net.cpp:386] inception_4e/relu_pool_proj -> inception_4e/pool_proj (in-place)
I0403 19:29:12.729766 24843 net.cpp:141] Setting up inception_4e/relu_pool_proj
I0403 19:29:12.729792 24843 net.cpp:148] Top shape: 24 128 14 14 (602112)
I0403 19:29:12.729806 24843 net.cpp:156] Memory required for data: 1256902176
I0403 19:29:12.729820 24843 layer_factory.hpp:77] Creating layer inception_4e/output
I0403 19:29:12.729836 24843 net.cpp:91] Creating Layer inception_4e/output
I0403 19:29:12.729851 24843 net.cpp:425] inception_4e/output <- inception_4e/1x1
I0403 19:29:12.729866 24843 net.cpp:425] inception_4e/output <- inception_4e/3x3
I0403 19:29:12.729882 24843 net.cpp:425] inception_4e/output <- inception_4e/5x5
I0403 19:29:12.729897 24843 net.cpp:425] inception_4e/output <- inception_4e/pool_proj
I0403 19:29:12.729917 24843 net.cpp:399] inception_4e/output -> inception_4e/output
I0403 19:29:12.729966 24843 net.cpp:141] Setting up inception_4e/output
I0403 19:29:12.729989 24843 net.cpp:148] Top shape: 24 832 14 14 (3913728)
I0403 19:29:12.730003 24843 net.cpp:156] Memory required for data: 1272557088
I0403 19:29:12.730017 24843 layer_factory.hpp:77] Creating layer pool4/3x3_s2
I0403 19:29:12.730033 24843 net.cpp:91] Creating Layer pool4/3x3_s2
I0403 19:29:12.730049 24843 net.cpp:425] pool4/3x3_s2 <- inception_4e/output
I0403 19:29:12.730069 24843 net.cpp:399] pool4/3x3_s2 -> pool4/3x3_s2
I0403 19:29:12.730134 24843 net.cpp:141] Setting up pool4/3x3_s2
I0403 19:29:12.730157 24843 net.cpp:148] Top shape: 24 832 7 7 (978432)
I0403 19:29:12.730171 24843 net.cpp:156] Memory required for data: 1276470816
I0403 19:29:12.730185 24843 layer_factory.hpp:77] Creating layer pool4/3x3_s2_pool4/3x3_s2_0_split
I0403 19:29:12.730203 24843 net.cpp:91] Creating Layer pool4/3x3_s2_pool4/3x3_s2_0_split
I0403 19:29:12.730219 24843 net.cpp:425] pool4/3x3_s2_pool4/3x3_s2_0_split <- pool4/3x3_s2
I0403 19:29:12.730237 24843 net.cpp:399] pool4/3x3_s2_pool4/3x3_s2_0_split -> pool4/3x3_s2_pool4/3x3_s2_0_split_0
I0403 19:29:12.730262 24843 net.cpp:399] pool4/3x3_s2_pool4/3x3_s2_0_split -> pool4/3x3_s2_pool4/3x3_s2_0_split_1
I0403 19:29:12.730286 24843 net.cpp:399] pool4/3x3_s2_pool4/3x3_s2_0_split -> pool4/3x3_s2_pool4/3x3_s2_0_split_2
I0403 19:29:12.730306 24843 net.cpp:399] pool4/3x3_s2_pool4/3x3_s2_0_split -> pool4/3x3_s2_pool4/3x3_s2_0_split_3
I0403 19:29:12.730392 24843 net.cpp:141] Setting up pool4/3x3_s2_pool4/3x3_s2_0_split
I0403 19:29:12.730415 24843 net.cpp:148] Top shape: 24 832 7 7 (978432)
I0403 19:29:12.730432 24843 net.cpp:148] Top shape: 24 832 7 7 (978432)
I0403 19:29:12.730445 24843 net.cpp:148] Top shape: 24 832 7 7 (978432)
I0403 19:29:12.730459 24843 net.cpp:148] Top shape: 24 832 7 7 (978432)
I0403 19:29:12.730473 24843 net.cpp:156] Memory required for data: 1292125728
I0403 19:29:12.730486 24843 layer_factory.hpp:77] Creating layer inception_5a/1x1
I0403 19:29:12.730507 24843 net.cpp:91] Creating Layer inception_5a/1x1
I0403 19:29:12.730525 24843 net.cpp:425] inception_5a/1x1 <- pool4/3x3_s2_pool4/3x3_s2_0_split_0
I0403 19:29:12.730545 24843 net.cpp:399] inception_5a/1x1 -> inception_5a/1x1
I0403 19:29:12.733265 24843 net.cpp:141] Setting up inception_5a/1x1
I0403 19:29:12.733294 24843 net.cpp:148] Top shape: 24 256 7 7 (301056)
I0403 19:29:12.733309 24843 net.cpp:156] Memory required for data: 1293329952
I0403 19:29:12.733326 24843 layer_factory.hpp:77] Creating layer inception_5a/relu_1x1
I0403 19:29:12.733346 24843 net.cpp:91] Creating Layer inception_5a/relu_1x1
I0403 19:29:12.733363 24843 net.cpp:425] inception_5a/relu_1x1 <- inception_5a/1x1
I0403 19:29:12.733381 24843 net.cpp:386] inception_5a/relu_1x1 -> inception_5a/1x1 (in-place)
I0403 19:29:12.733690 24843 net.cpp:141] Setting up inception_5a/relu_1x1
I0403 19:29:12.733716 24843 net.cpp:148] Top shape: 24 256 7 7 (301056)
I0403 19:29:12.733731 24843 net.cpp:156] Memory required for data: 1294534176
I0403 19:29:12.733747 24843 layer_factory.hpp:77] Creating layer inception_5a/3x3_reduce
I0403 19:29:12.733767 24843 net.cpp:91] Creating Layer inception_5a/3x3_reduce
I0403 19:29:12.733785 24843 net.cpp:425] inception_5a/3x3_reduce <- pool4/3x3_s2_pool4/3x3_s2_0_split_1
I0403 19:29:12.733805 24843 net.cpp:399] inception_5a/3x3_reduce -> inception_5a/3x3_reduce
I0403 19:29:12.736239 24843 net.cpp:141] Setting up inception_5a/3x3_reduce
I0403 19:29:12.736274 24843 net.cpp:148] Top shape: 24 160 7 7 (188160)
I0403 19:29:12.736291 24843 net.cpp:156] Memory required for data: 1295286816
I0403 19:29:12.736310 24843 layer_factory.hpp:77] Creating layer inception_5a/relu_3x3_reduce
I0403 19:29:12.736326 24843 net.cpp:91] Creating Layer inception_5a/relu_3x3_reduce
I0403 19:29:12.736342 24843 net.cpp:425] inception_5a/relu_3x3_reduce <- inception_5a/3x3_reduce
I0403 19:29:12.736362 24843 net.cpp:386] inception_5a/relu_3x3_reduce -> inception_5a/3x3_reduce (in-place)
I0403 19:29:12.736543 24843 net.cpp:141] Setting up inception_5a/relu_3x3_reduce
I0403 19:29:12.736568 24843 net.cpp:148] Top shape: 24 160 7 7 (188160)
I0403 19:29:12.736582 24843 net.cpp:156] Memory required for data: 1296039456
I0403 19:29:12.736595 24843 layer_factory.hpp:77] Creating layer inception_5a/3x3
I0403 19:29:12.736618 24843 net.cpp:91] Creating Layer inception_5a/3x3
I0403 19:29:12.736634 24843 net.cpp:425] inception_5a/3x3 <- inception_5a/3x3_reduce
I0403 19:29:12.736656 24843 net.cpp:399] inception_5a/3x3 -> inception_5a/3x3
I0403 19:29:12.742055 24843 net.cpp:141] Setting up inception_5a/3x3
I0403 19:29:12.742090 24843 net.cpp:148] Top shape: 24 320 7 7 (376320)
I0403 19:29:12.742107 24843 net.cpp:156] Memory required for data: 1297544736
I0403 19:29:12.742128 24843 layer_factory.hpp:77] Creating layer inception_5a/relu_3x3
I0403 19:29:12.742153 24843 net.cpp:91] Creating Layer inception_5a/relu_3x3
I0403 19:29:12.742172 24843 net.cpp:425] inception_5a/relu_3x3 <- inception_5a/3x3
I0403 19:29:12.742192 24843 net.cpp:386] inception_5a/relu_3x3 -> inception_5a/3x3 (in-place)
I0403 19:29:12.742522 24843 net.cpp:141] Setting up inception_5a/relu_3x3
I0403 19:29:12.742550 24843 net.cpp:148] Top shape: 24 320 7 7 (376320)
I0403 19:29:12.742568 24843 net.cpp:156] Memory required for data: 1299050016
I0403 19:29:12.742583 24843 layer_factory.hpp:77] Creating layer inception_5a/5x5_reduce
I0403 19:29:12.742606 24843 net.cpp:91] Creating Layer inception_5a/5x5_reduce
I0403 19:29:12.742625 24843 net.cpp:425] inception_5a/5x5_reduce <- pool4/3x3_s2_pool4/3x3_s2_0_split_2
I0403 19:29:12.742650 24843 net.cpp:399] inception_5a/5x5_reduce -> inception_5a/5x5_reduce
I0403 19:29:12.743875 24843 net.cpp:141] Setting up inception_5a/5x5_reduce
I0403 19:29:12.743906 24843 net.cpp:148] Top shape: 24 32 7 7 (37632)
I0403 19:29:12.743926 24843 net.cpp:156] Memory required for data: 1299200544
I0403 19:29:12.743944 24843 layer_factory.hpp:77] Creating layer inception_5a/relu_5x5_reduce
I0403 19:29:12.743963 24843 net.cpp:91] Creating Layer inception_5a/relu_5x5_reduce
I0403 19:29:12.743980 24843 net.cpp:425] inception_5a/relu_5x5_reduce <- inception_5a/5x5_reduce
I0403 19:29:12.743999 24843 net.cpp:386] inception_5a/relu_5x5_reduce -> inception_5a/5x5_reduce (in-place)
I0403 19:29:12.744328 24843 net.cpp:141] Setting up inception_5a/relu_5x5_reduce
I0403 19:29:12.744357 24843 net.cpp:148] Top shape: 24 32 7 7 (37632)
I0403 19:29:12.744374 24843 net.cpp:156] Memory required for data: 1299351072
I0403 19:29:12.744390 24843 layer_factory.hpp:77] Creating layer inception_5a/5x5
I0403 19:29:12.744412 24843 net.cpp:91] Creating Layer inception_5a/5x5
I0403 19:29:12.744431 24843 net.cpp:425] inception_5a/5x5 <- inception_5a/5x5_reduce
I0403 19:29:12.744463 24843 net.cpp:399] inception_5a/5x5 -> inception_5a/5x5
I0403 19:29:12.746196 24843 net.cpp:141] Setting up inception_5a/5x5
I0403 19:29:12.746237 24843 net.cpp:148] Top shape: 24 128 7 7 (150528)
I0403 19:29:12.746254 24843 net.cpp:156] Memory required for data: 1299953184
I0403 19:29:12.746279 24843 layer_factory.hpp:77] Creating layer inception_5a/relu_5x5
I0403 19:29:12.746301 24843 net.cpp:91] Creating Layer inception_5a/relu_5x5
I0403 19:29:12.746320 24843 net.cpp:425] inception_5a/relu_5x5 <- inception_5a/5x5
I0403 19:29:12.746337 24843 net.cpp:386] inception_5a/relu_5x5 -> inception_5a/5x5 (in-place)
I0403 19:29:12.746533 24843 net.cpp:141] Setting up inception_5a/relu_5x5
I0403 19:29:12.746562 24843 net.cpp:148] Top shape: 24 128 7 7 (150528)
I0403 19:29:12.746578 24843 net.cpp:156] Memory required for data: 1300555296
I0403 19:29:12.746593 24843 layer_factory.hpp:77] Creating layer inception_5a/pool
I0403 19:29:12.746610 24843 net.cpp:91] Creating Layer inception_5a/pool
I0403 19:29:12.746628 24843 net.cpp:425] inception_5a/pool <- pool4/3x3_s2_pool4/3x3_s2_0_split_3
I0403 19:29:12.746647 24843 net.cpp:399] inception_5a/pool -> inception_5a/pool
I0403 19:29:12.746719 24843 net.cpp:141] Setting up inception_5a/pool
I0403 19:29:12.746744 24843 net.cpp:148] Top shape: 24 832 7 7 (978432)
I0403 19:29:12.746758 24843 net.cpp:156] Memory required for data: 1304469024
I0403 19:29:12.746773 24843 layer_factory.hpp:77] Creating layer inception_5a/pool_proj
I0403 19:29:12.746795 24843 net.cpp:91] Creating Layer inception_5a/pool_proj
I0403 19:29:12.746814 24843 net.cpp:425] inception_5a/pool_proj <- inception_5a/pool
I0403 19:29:12.746835 24843 net.cpp:399] inception_5a/pool_proj -> inception_5a/pool_proj
I0403 19:29:12.749145 24843 net.cpp:141] Setting up inception_5a/pool_proj
I0403 19:29:12.749174 24843 net.cpp:148] Top shape: 24 128 7 7 (150528)
I0403 19:29:12.749191 24843 net.cpp:156] Memory required for data: 1305071136
I0403 19:29:12.749210 24843 layer_factory.hpp:77] Creating layer inception_5a/relu_pool_proj
I0403 19:29:12.749231 24843 net.cpp:91] Creating Layer inception_5a/relu_pool_proj
I0403 19:29:12.749250 24843 net.cpp:425] inception_5a/relu_pool_proj <- inception_5a/pool_proj
I0403 19:29:12.749274 24843 net.cpp:386] inception_5a/relu_pool_proj -> inception_5a/pool_proj (in-place)
I0403 19:29:12.749575 24843 net.cpp:141] Setting up inception_5a/relu_pool_proj
I0403 19:29:12.749603 24843 net.cpp:148] Top shape: 24 128 7 7 (150528)
I0403 19:29:12.749619 24843 net.cpp:156] Memory required for data: 1305673248
I0403 19:29:12.749634 24843 layer_factory.hpp:77] Creating layer inception_5a/output
I0403 19:29:12.749651 24843 net.cpp:91] Creating Layer inception_5a/output
I0403 19:29:12.749668 24843 net.cpp:425] inception_5a/output <- inception_5a/1x1
I0403 19:29:12.749686 24843 net.cpp:425] inception_5a/output <- inception_5a/3x3
I0403 19:29:12.749706 24843 net.cpp:425] inception_5a/output <- inception_5a/5x5
I0403 19:29:12.749723 24843 net.cpp:425] inception_5a/output <- inception_5a/pool_proj
I0403 19:29:12.749742 24843 net.cpp:399] inception_5a/output -> inception_5a/output
I0403 19:29:12.749793 24843 net.cpp:141] Setting up inception_5a/output
I0403 19:29:12.749819 24843 net.cpp:148] Top shape: 24 832 7 7 (978432)
I0403 19:29:12.749835 24843 net.cpp:156] Memory required for data: 1309586976
I0403 19:29:12.749850 24843 layer_factory.hpp:77] Creating layer inception_5a/output_inception_5a/output_0_split
I0403 19:29:12.749867 24843 net.cpp:91] Creating Layer inception_5a/output_inception_5a/output_0_split
I0403 19:29:12.749884 24843 net.cpp:425] inception_5a/output_inception_5a/output_0_split <- inception_5a/output
I0403 19:29:12.749907 24843 net.cpp:399] inception_5a/output_inception_5a/output_0_split -> inception_5a/output_inception_5a/output_0_split_0
I0403 19:29:12.749928 24843 net.cpp:399] inception_5a/output_inception_5a/output_0_split -> inception_5a/output_inception_5a/output_0_split_1
I0403 19:29:12.749950 24843 net.cpp:399] inception_5a/output_inception_5a/output_0_split -> inception_5a/output_inception_5a/output_0_split_2
I0403 19:29:12.749971 24843 net.cpp:399] inception_5a/output_inception_5a/output_0_split -> inception_5a/output_inception_5a/output_0_split_3
I0403 19:29:12.750082 24843 net.cpp:141] Setting up inception_5a/output_inception_5a/output_0_split
I0403 19:29:12.750109 24843 net.cpp:148] Top shape: 24 832 7 7 (978432)
I0403 19:29:12.750128 24843 net.cpp:148] Top shape: 24 832 7 7 (978432)
I0403 19:29:12.750144 24843 net.cpp:148] Top shape: 24 832 7 7 (978432)
I0403 19:29:12.750159 24843 net.cpp:148] Top shape: 24 832 7 7 (978432)
I0403 19:29:12.750174 24843 net.cpp:156] Memory required for data: 1325241888
I0403 19:29:12.750187 24843 layer_factory.hpp:77] Creating layer inception_5b/1x1
I0403 19:29:12.750208 24843 net.cpp:91] Creating Layer inception_5b/1x1
I0403 19:29:12.750227 24843 net.cpp:425] inception_5b/1x1 <- inception_5a/output_inception_5a/output_0_split_0
I0403 19:29:12.750248 24843 net.cpp:399] inception_5b/1x1 -> inception_5b/1x1
I0403 19:29:12.754043 24843 net.cpp:141] Setting up inception_5b/1x1
I0403 19:29:12.754076 24843 net.cpp:148] Top shape: 24 384 7 7 (451584)
I0403 19:29:12.754092 24843 net.cpp:156] Memory required for data: 1327048224
I0403 19:29:12.754111 24843 layer_factory.hpp:77] Creating layer inception_5b/relu_1x1
I0403 19:29:12.754129 24843 net.cpp:91] Creating Layer inception_5b/relu_1x1
I0403 19:29:12.754148 24843 net.cpp:425] inception_5b/relu_1x1 <- inception_5b/1x1
I0403 19:29:12.754168 24843 net.cpp:386] inception_5b/relu_1x1 -> inception_5b/1x1 (in-place)
I0403 19:29:12.754484 24843 net.cpp:141] Setting up inception_5b/relu_1x1
I0403 19:29:12.754513 24843 net.cpp:148] Top shape: 24 384 7 7 (451584)
I0403 19:29:12.754528 24843 net.cpp:156] Memory required for data: 1328854560
I0403 19:29:12.754542 24843 layer_factory.hpp:77] Creating layer inception_5b/3x3_reduce
I0403 19:29:12.754566 24843 net.cpp:91] Creating Layer inception_5b/3x3_reduce
I0403 19:29:12.754585 24843 net.cpp:425] inception_5b/3x3_reduce <- inception_5a/output_inception_5a/output_0_split_1
I0403 19:29:12.754607 24843 net.cpp:399] inception_5b/3x3_reduce -> inception_5b/3x3_reduce
I0403 19:29:12.757323 24843 net.cpp:141] Setting up inception_5b/3x3_reduce
I0403 19:29:12.757354 24843 net.cpp:148] Top shape: 24 192 7 7 (225792)
I0403 19:29:12.757369 24843 net.cpp:156] Memory required for data: 1329757728
I0403 19:29:12.757390 24843 layer_factory.hpp:77] Creating layer inception_5b/relu_3x3_reduce
I0403 19:29:12.757410 24843 net.cpp:91] Creating Layer inception_5b/relu_3x3_reduce
I0403 19:29:12.757427 24843 net.cpp:425] inception_5b/relu_3x3_reduce <- inception_5b/3x3_reduce
I0403 19:29:12.757447 24843 net.cpp:386] inception_5b/relu_3x3_reduce -> inception_5b/3x3_reduce (in-place)
I0403 19:29:12.757638 24843 net.cpp:141] Setting up inception_5b/relu_3x3_reduce
I0403 19:29:12.757664 24843 net.cpp:148] Top shape: 24 192 7 7 (225792)
I0403 19:29:12.757683 24843 net.cpp:156] Memory required for data: 1330660896
I0403 19:29:12.757697 24843 layer_factory.hpp:77] Creating layer inception_5b/3x3
I0403 19:29:12.757719 24843 net.cpp:91] Creating Layer inception_5b/3x3
I0403 19:29:12.757740 24843 net.cpp:425] inception_5b/3x3 <- inception_5b/3x3_reduce
I0403 19:29:12.757761 24843 net.cpp:399] inception_5b/3x3 -> inception_5b/3x3
I0403 19:29:12.764734 24843 net.cpp:141] Setting up inception_5b/3x3
I0403 19:29:12.764763 24843 net.cpp:148] Top shape: 24 384 7 7 (451584)
I0403 19:29:12.764780 24843 net.cpp:156] Memory required for data: 1332467232
I0403 19:29:12.764798 24843 layer_factory.hpp:77] Creating layer inception_5b/relu_3x3
I0403 19:29:12.764819 24843 net.cpp:91] Creating Layer inception_5b/relu_3x3
I0403 19:29:12.764837 24843 net.cpp:425] inception_5b/relu_3x3 <- inception_5b/3x3
I0403 19:29:12.764855 24843 net.cpp:386] inception_5b/relu_3x3 -> inception_5b/3x3 (in-place)
I0403 19:29:12.765149 24843 net.cpp:141] Setting up inception_5b/relu_3x3
I0403 19:29:12.765175 24843 net.cpp:148] Top shape: 24 384 7 7 (451584)
I0403 19:29:12.765190 24843 net.cpp:156] Memory required for data: 1334273568
I0403 19:29:12.765204 24843 layer_factory.hpp:77] Creating layer inception_5b/5x5_reduce
I0403 19:29:12.765244 24843 net.cpp:91] Creating Layer inception_5b/5x5_reduce
I0403 19:29:12.765269 24843 net.cpp:425] inception_5b/5x5_reduce <- inception_5a/output_inception_5a/output_0_split_2
I0403 19:29:12.765292 24843 net.cpp:399] inception_5b/5x5_reduce -> inception_5b/5x5_reduce
I0403 19:29:12.766613 24843 net.cpp:141] Setting up inception_5b/5x5_reduce
I0403 19:29:12.766641 24843 net.cpp:148] Top shape: 24 48 7 7 (56448)
I0403 19:29:12.766656 24843 net.cpp:156] Memory required for data: 1334499360
I0403 19:29:12.766675 24843 layer_factory.hpp:77] Creating layer inception_5b/relu_5x5_reduce
I0403 19:29:12.766698 24843 net.cpp:91] Creating Layer inception_5b/relu_5x5_reduce
I0403 19:29:12.766717 24843 net.cpp:425] inception_5b/relu_5x5_reduce <- inception_5b/5x5_reduce
I0403 19:29:12.766734 24843 net.cpp:386] inception_5b/relu_5x5_reduce -> inception_5b/5x5_reduce (in-place)
I0403 19:29:12.767107 24843 net.cpp:141] Setting up inception_5b/relu_5x5_reduce
I0403 19:29:12.767133 24843 net.cpp:148] Top shape: 24 48 7 7 (56448)
I0403 19:29:12.767148 24843 net.cpp:156] Memory required for data: 1334725152
I0403 19:29:12.767163 24843 layer_factory.hpp:77] Creating layer inception_5b/5x5
I0403 19:29:12.767184 24843 net.cpp:91] Creating Layer inception_5b/5x5
I0403 19:29:12.767202 24843 net.cpp:425] inception_5b/5x5 <- inception_5b/5x5_reduce
I0403 19:29:12.767220 24843 net.cpp:399] inception_5b/5x5 -> inception_5b/5x5
I0403 19:29:12.769448 24843 net.cpp:141] Setting up inception_5b/5x5
I0403 19:29:12.769476 24843 net.cpp:148] Top shape: 24 128 7 7 (150528)
I0403 19:29:12.769492 24843 net.cpp:156] Memory required for data: 1335327264
I0403 19:29:12.769510 24843 layer_factory.hpp:77] Creating layer inception_5b/relu_5x5
I0403 19:29:12.769559 24843 net.cpp:91] Creating Layer inception_5b/relu_5x5
I0403 19:29:12.769582 24843 net.cpp:425] inception_5b/relu_5x5 <- inception_5b/5x5
I0403 19:29:12.769611 24843 net.cpp:386] inception_5b/relu_5x5 -> inception_5b/5x5 (in-place)
I0403 19:29:12.769816 24843 net.cpp:141] Setting up inception_5b/relu_5x5
I0403 19:29:12.769855 24843 net.cpp:148] Top shape: 24 128 7 7 (150528)
I0403 19:29:12.769876 24843 net.cpp:156] Memory required for data: 1335929376
I0403 19:29:12.769896 24843 layer_factory.hpp:77] Creating layer inception_5b/pool
I0403 19:29:12.769915 24843 net.cpp:91] Creating Layer inception_5b/pool
I0403 19:29:12.769932 24843 net.cpp:425] inception_5b/pool <- inception_5a/output_inception_5a/output_0_split_3
I0403 19:29:12.769964 24843 net.cpp:399] inception_5b/pool -> inception_5b/pool
I0403 19:29:12.770040 24843 net.cpp:141] Setting up inception_5b/pool
I0403 19:29:12.770066 24843 net.cpp:148] Top shape: 24 832 7 7 (978432)
I0403 19:29:12.770079 24843 net.cpp:156] Memory required for data: 1339843104
I0403 19:29:12.770094 24843 layer_factory.hpp:77] Creating layer inception_5b/pool_proj
I0403 19:29:12.770117 24843 net.cpp:91] Creating Layer inception_5b/pool_proj
I0403 19:29:12.770135 24843 net.cpp:425] inception_5b/pool_proj <- inception_5b/pool
I0403 19:29:12.770169 24843 net.cpp:399] inception_5b/pool_proj -> inception_5b/pool_proj
I0403 19:29:12.772709 24843 net.cpp:141] Setting up inception_5b/pool_proj
I0403 19:29:12.772739 24843 net.cpp:148] Top shape: 24 128 7 7 (150528)
I0403 19:29:12.772755 24843 net.cpp:156] Memory required for data: 1340445216
I0403 19:29:12.772773 24843 layer_factory.hpp:77] Creating layer inception_5b/relu_pool_proj
I0403 19:29:12.772794 24843 net.cpp:91] Creating Layer inception_5b/relu_pool_proj
I0403 19:29:12.772814 24843 net.cpp:425] inception_5b/relu_pool_proj <- inception_5b/pool_proj
I0403 19:29:12.772830 24843 net.cpp:386] inception_5b/relu_pool_proj -> inception_5b/pool_proj (in-place)
I0403 19:29:12.773164 24843 net.cpp:141] Setting up inception_5b/relu_pool_proj
I0403 19:29:12.773191 24843 net.cpp:148] Top shape: 24 128 7 7 (150528)
I0403 19:29:12.773206 24843 net.cpp:156] Memory required for data: 1341047328
I0403 19:29:12.773223 24843 layer_factory.hpp:77] Creating layer inception_5b/output
I0403 19:29:12.773248 24843 net.cpp:91] Creating Layer inception_5b/output
I0403 19:29:12.773293 24843 net.cpp:425] inception_5b/output <- inception_5b/1x1
I0403 19:29:12.773311 24843 net.cpp:425] inception_5b/output <- inception_5b/3x3
I0403 19:29:12.773329 24843 net.cpp:425] inception_5b/output <- inception_5b/5x5
I0403 19:29:12.773344 24843 net.cpp:425] inception_5b/output <- inception_5b/pool_proj
I0403 19:29:12.773363 24843 net.cpp:399] inception_5b/output -> inception_5b/output
I0403 19:29:12.773417 24843 net.cpp:141] Setting up inception_5b/output
I0403 19:29:12.773442 24843 net.cpp:148] Top shape: 24 1024 7 7 (1204224)
I0403 19:29:12.773458 24843 net.cpp:156] Memory required for data: 1345864224
I0403 19:29:12.773473 24843 layer_factory.hpp:77] Creating layer pool5/7x7_s1
I0403 19:29:12.773489 24843 net.cpp:91] Creating Layer pool5/7x7_s1
I0403 19:29:12.773505 24843 net.cpp:425] pool5/7x7_s1 <- inception_5b/output
I0403 19:29:12.773526 24843 net.cpp:399] pool5/7x7_s1 -> pool5/7x7_s1
I0403 19:29:12.773788 24843 net.cpp:141] Setting up pool5/7x7_s1
I0403 19:29:12.773815 24843 net.cpp:148] Top shape: 24 1024 1 1 (24576)
I0403 19:29:12.773831 24843 net.cpp:156] Memory required for data: 1345962528
I0403 19:29:12.773846 24843 layer_factory.hpp:77] Creating layer pool5/drop_7x7_s1
I0403 19:29:12.773866 24843 net.cpp:91] Creating Layer pool5/drop_7x7_s1
I0403 19:29:12.773885 24843 net.cpp:425] pool5/drop_7x7_s1 <- pool5/7x7_s1
I0403 19:29:12.773915 24843 net.cpp:386] pool5/drop_7x7_s1 -> pool5/7x7_s1 (in-place)
I0403 19:29:12.773967 24843 net.cpp:141] Setting up pool5/drop_7x7_s1
I0403 19:29:12.774003 24843 net.cpp:148] Top shape: 24 1024 1 1 (24576)
I0403 19:29:12.774019 24843 net.cpp:156] Memory required for data: 1346060832
I0403 19:29:12.774037 24843 layer_factory.hpp:77] Creating layer loss3/classifier_plantvillage
I0403 19:29:12.774063 24843 net.cpp:91] Creating Layer loss3/classifier_plantvillage
I0403 19:29:12.774081 24843 net.cpp:425] loss3/classifier_plantvillage <- pool5/7x7_s1
I0403 19:29:12.774103 24843 net.cpp:399] loss3/classifier_plantvillage -> loss3/classifier_plantvillage
I0403 19:29:12.774629 24843 net.cpp:141] Setting up loss3/classifier_plantvillage
I0403 19:29:12.774655 24843 net.cpp:148] Top shape: 24 38 (912)
I0403 19:29:12.774670 24843 net.cpp:156] Memory required for data: 1346064480
I0403 19:29:12.774700 24843 layer_factory.hpp:77] Creating layer loss3/classifier_plantvillage_loss3/classifier_plantvillage_0_split
I0403 19:29:12.774720 24843 net.cpp:91] Creating Layer loss3/classifier_plantvillage_loss3/classifier_plantvillage_0_split
I0403 19:29:12.774735 24843 net.cpp:425] loss3/classifier_plantvillage_loss3/classifier_plantvillage_0_split <- loss3/classifier_plantvillage
I0403 19:29:12.774767 24843 net.cpp:399] loss3/classifier_plantvillage_loss3/classifier_plantvillage_0_split -> loss3/classifier_plantvillage_loss3/classifier_plantvillage_0_split_0
I0403 19:29:12.774791 24843 net.cpp:399] loss3/classifier_plantvillage_loss3/classifier_plantvillage_0_split -> loss3/classifier_plantvillage_loss3/classifier_plantvillage_0_split_1
I0403 19:29:12.774827 24843 net.cpp:399] loss3/classifier_plantvillage_loss3/classifier_plantvillage_0_split -> loss3/classifier_plantvillage_loss3/classifier_plantvillage_0_split_2
I0403 19:29:12.774849 24843 net.cpp:399] loss3/classifier_plantvillage_loss3/classifier_plantvillage_0_split -> loss3/classifier_plantvillage_loss3/classifier_plantvillage_0_split_3
I0403 19:29:12.774960 24843 net.cpp:141] Setting up loss3/classifier_plantvillage_loss3/classifier_plantvillage_0_split
I0403 19:29:12.774984 24843 net.cpp:148] Top shape: 24 38 (912)
I0403 19:29:12.775002 24843 net.cpp:148] Top shape: 24 38 (912)
I0403 19:29:12.775020 24843 net.cpp:148] Top shape: 24 38 (912)
I0403 19:29:12.775048 24843 net.cpp:148] Top shape: 24 38 (912)
I0403 19:29:12.775063 24843 net.cpp:156] Memory required for data: 1346079072
I0403 19:29:12.775085 24843 layer_factory.hpp:77] Creating layer loss1/loss
I0403 19:29:12.775125 24843 net.cpp:91] Creating Layer loss1/loss
I0403 19:29:12.775161 24843 net.cpp:425] loss1/loss <- loss1/classifier_plantvillage_loss1/classifier_plantvillage_0_split_0
I0403 19:29:12.775282 24843 net.cpp:425] loss1/loss <- label_data_1_split_0
…
