…
I0403 19:32:48.757603 25057 net.cpp:313] The NetState phase (1) differed from the phase (0) specified by a rule in layer data
I0403 19:32:48.759115 25057 net.cpp:49] Initializing net from parameters: 
state {
  phase: TEST
}
layer {
  name: "data"
  type: "Data"
  top: "data"
  top: "label"
  include {
    phase: TEST
  }
  transform_param {
    mirror: false
    crop_size: 224
    mean_file: "/home/mohanty/data/final_dataset/lmdb/grayscale-80-20/mean.binaryproto"
  }
  data_param {
    source: "/home/mohanty/data/final_dataset/lmdb/grayscale-80-20/test_db"
    batch_size: 24
    backend: LMDB
  }
}
layer {
  name: "conv1/7x7_s2"
  type: "Convolution"
  bottom: "data"
  top: "conv1/7x7_s2"
  param {
    lr_mult: 1
    decay_mult: 1
  }
  param {
    lr_mult: 2
    decay_mult: 0
  }
  convolution_param {
    num_output: 64
    pad: 3
    kernel_size: 7
    stride: 2
    weight_filler {
      type: "xavier"
      std: 0.1
    }
    bias_filler {
      type: "constant"
      value: 0.2
    }
  }
}
layer {
  name: "conv1/relu_7x7"
  type: "ReLU"
  bottom: "conv1/7x7_s2"
  top: "conv1/7x7_s2"
}
layer {
  name: "pool1/3x3_s2"
  type: "Pooling"
  bottom: "conv1/7x7_s2"
  top: "pool1/3x3_s2"
  pooling_param {
    pool: MAX
    kernel_size: 3
    stride: 2
  }
}
layer {
  name: "pool1/norm1"
  type: "LRN"
  bottom: "pool1/3x3_s2"
  top: "pool1/norm1"
  lrn_param {
    local_size: 5
    alpha: 0.0001
    beta: 0.75
  }
}
layer {
  name: "conv2/3x3_reduce"
  type: "Convolution"
  bottom: "pool1/norm1"
  top: "conv2/3x3_reduce"
  param {
    lr_mult: 1
    decay_mult: 1
  }
  param {
    lr_mult: 2
    decay_mult: 0
  }
  convolution_param {
    num_output: 64
    kernel_size: 1
    weight_filler {
      type: "xavier"
      std: 0.1
    }
    bias_filler {
      type: "constant"
      value: 0.2
    }
  }
}
layer {
  name: "conv2/relu_3x3_reduce"
  type: "ReLU"
  bottom: "conv2/3x3_reduce"
  top: "conv2/3x3_reduce"
}
layer {
  name: "conv2/3x3"
  type: "Convolution"
  bottom: "conv2/3x3_reduce"
  top: "conv2/3x3"
  param {
    lr_mult: 1
    decay_mult: 1
  }
  param {
    lr_mult: 2
    decay_mult: 0
  }
  convolution_param {
    num_output: 192
    pad: 1
    kernel_size: 3
    weight_filler {
      type: "xavier"
      std: 0.03
    }
    bias_filler {
      type: "constant"
      value: 0.2
    }
  }
}
layer {
  name: "conv2/relu_3x3"
  type: "ReLU"
  bottom: "conv2/3x3"
  top: "conv2/3x3"
}
layer {
  name: "conv2/norm2"
  type: "LRN"
  bottom: "conv2/3x3"
  top: "conv2/norm2"
  lrn_param {
    local_size: 5
    alpha: 0.0001
    beta: 0.75
  }
}
layer {
  name: "pool2/3x3_s2"
  type: "Pooling"
  bottom: "conv2/norm2"
  top: "pool2/3x3_s2"
  pooling_param {
    pool: MAX
    kernel_size: 3
    stride: 2
  }
}
layer {
  name: "inception_3a/1x1"
  type: "Convolution"
  bottom: "pool2/3x3_s2"
  top: "inception_3a/1x1"
  param {
    lr_mult: 1
    decay_mult: 1
  }
  param {
    lr_mult: 2
    decay_mult: 0
  }
  convolution_param {
    num_output: 64
    kernel_size: 1
    weight_filler {
      type: "xavier"
      std: 0.03
    }
    bias_filler {
      type: "constant"
      value: 0.2
    }
  }
}
layer {
  name: "inception_3a/relu_1x1"
  type: "ReLU"
  bottom: "inception_3a/1x1"
  top: "inception_3a/1x1"
}
layer {
  name: "inception_3a/3x3_reduce"
  type: "Convolution"
  bottom: "pool2/3x3_s2"
  top: "inception_3a/3x3_reduce"
  param {
    lr_mult: 1
    decay_mult: 1
  }
  param {
    lr_mult: 2
    decay_mult: 0
  }
  convolution_param {
    num_output: 96
    kernel_size: 1
    weight_filler {
      type: "xavier"
      std: 0.09
    }
    bias_filler {
      type: "constant"
      value: 0.2
    }
  }
}
layer {
  name: "inception_3a/relu_3x3_reduce"
  type: "ReLU"
  bottom: "inception_3a/3x3_reduce"
  top: "inception_3a/3x3_reduce"
}
layer {
  name: "inception_3a/3x3"
  type: "Convolution"
  bottom: "inception_3a/3x3_reduce"
  top: "inception_3a/3x3"
  param {
    lr_mult: 1
    decay_mult: 1
  }
  param {
    lr_mult: 2
    decay_mult: 0
  }
  convolution_param {
    num_output: 128
    pad: 1
    kernel_size: 3
    weight_filler {
      type: "xavier"
      std: 0.03
    }
    bias_filler {
      type: "constant"
      value: 0.2
    }
  }
}
layer {
  name: "inception_3a/relu_3x3"
  type: "ReLU"
  bottom: "inception_3a/3x3"
  top: "inception_3a/3x3"
}
layer {
  name: "inception_3a/5x5_reduce"
  type: "Convolution"
  bottom: "pool2/3x3_s2"
  top: "inception_3a/5x5_reduce"
  param {
    lr_mult: 1
    decay_mult: 1
  }
  param {
    lr_mult: 2
    decay_mult: 0
  }
  convolution_param {
    num_output: 16
    kernel_size: 1
    weight_filler {
      type: "xavier"
      std: 0.2
    }
    bias_filler {
      type: "constant"
      value: 0.2
    }
  }
}
layer {
  name: "inception_3a/relu_5x5_reduce"
  type: "ReLU"
  bottom: "inception_3a/5x5_reduce"
  top: "inception_3a/5x5_reduce"
}
layer {
  name: "inception_3a/5x5"
  type: "Convolution"
  bottom: "inception_3a/5x5_reduce"
  top: "inception_3a/5x5"
  param {
    lr_mult: 1
    decay_mult: 1
  }
  param {
    lr_mult: 2
    decay_mult: 0
  }
  convolution_param {
    num_output: 32
    pad: 2
    kernel_size: 5
    weight_filler {
      type: "xavier"
      std: 0.03
    }
    bias_filler {
      type: "constant"
      value: 0.2
    }
  }
}
layer {
  name: "inception_3a/relu_5x5"
  type: "ReLU"
  bottom: "inception_3a/5x5"
  top: "inception_3a/5x5"
}
layer {
  name: "inception_3a/pool"
  type: "Pooling"
  bottom: "pool2/3x3_s2"
  top: "inception_3a/pool"
  pooling_param {
    pool: MAX
    kernel_size: 3
    stride: 1
    pad: 1
  }
}
layer {
  name: "inception_3a/pool_proj"
  type: "Convolution"
  bottom: "inception_3a/pool"
  top: "inception_3a/pool_proj"
  param {
    lr_mult: 1
    decay_mult: 1
  }
  param {
    lr_mult: 2
    decay_mult: 0
  }
  convolution_param {
    num_output: 32
    kernel_size: 1
    weight_filler {
      type: "xavier"
      std: 0.1
    }
    bias_filler {
      type: "constant"
      value: 0.2
    }
  }
}
layer {
  name: "inception_3a/relu_pool_proj"
  type: "ReLU"
  bottom: "inception_3a/pool_proj"
  top: "inception_3a/pool_proj"
}
layer {
  name: "inception_3a/output"
  type: "Concat"
  bottom: "inception_3a/1x1"
  bottom: "inception_3a/3x3"
  bottom: "inception_3a/5x5"
  bottom: "inception_3a/pool_proj"
  top: "inception_3a/output"
}
layer {
  name: "inception_3b/1x1"
  type: "Convolution"
  bottom: "inception_3a/output"
  top: "inception_3b/1x1"
  param {
    lr_mult: 1
    decay_mult: 1
  }
  param {
    lr_mult: 2
    decay_mult: 0
  }
  convolution_param {
    num_output: 128
    kernel_size: 1
    weight_filler {
      type: "xavier"
      std: 0.03
    }
    bias_filler {
      type: "constant"
      value: 0.2
    }
  }
}
layer {
  name: "inception_3b/relu_1x1"
  type: "ReLU"
  bottom: "inception_3b/1x1"
  top: "inception_3b/1x1"
}
layer {
  name: "inception_3b/3x3_reduce"
  type: "Convolution"
  bottom: "inception_3a/output"
  top: "inception_3b/3x3_reduce"
  param {
    lr_mult: 1
    decay_mult: 1
  }
  param {
    lr_mult: 2
    decay_mult: 0
  }
  convolution_param {
    num_output: 128
    kernel_size: 1
    weight_filler {
      type: "xavier"
      std: 0.09
    }
    bias_filler {
      type: "constant"
      value: 0.2
    }
  }
}
layer {
  name: "inception_3b/relu_3x3_reduce"
  type: "ReLU"
  bottom: "inception_3b/3x3_reduce"
  top: "inception_3b/3x3_reduce"
}
layer {
  name: "inception_3b/3x3"
  type: "Convolution"
  bottom: "inception_3b/3x3_reduce"
  top: "inception_3b/3x3"
  param {
    lr_mult: 1
    decay_mult: 1
  }
  param {
    lr_mult: 2
    decay_mult: 0
  }
  convolution_param {
    num_output: 192
    pad: 1
    kernel_size: 3
    weight_filler {
      type: "xavier"
      std: 0.03
    }
    bias_filler {
      type: "constant"
      value: 0.2
    }
  }
}
layer {
  name: "inception_3b/relu_3x3"
  type: "ReLU"
  bottom: "inception_3b/3x3"
  top: "inception_3b/3x3"
}
layer {
  name: "inception_3b/5x5_reduce"
  type: "Convolution"
  bottom: "inception_3a/output"
  top: "inception_3b/5x5_reduce"
  param {
    lr_mult: 1
    decay_mult: 1
  }
  param {
    lr_mult: 2
    decay_mult: 0
  }
  convolution_param {
    num_output: 32
    kernel_size: 1
    weight_filler {
      type: "xavier"
      std: 0.2
    }
    bias_filler {
      type: "constant"
      value: 0.2
    }
  }
}
layer {
  name: "inception_3b/relu_5x5_reduce"
  type: "ReLU"
  bottom: "inception_3b/5x5_reduce"
  top: "inception_3b/5x5_reduce"
}
layer {
  name: "inception_3b/5x5"
  type: "Convolution"
  bottom: "inception_3b/5x5_reduce"
  top: "inception_3b/5x5"
  param {
    lr_mult: 1
    decay_mult: 1
  }
  param {
    lr_mult: 2
    decay_mult: 0
  }
  convolution_param {
    num_output: 96
    pad: 2
    kernel_size: 5
    weight_filler {
      type: "xavier"
      std: 0.03
    }
    bias_filler {
      type: "constant"
      value: 0.2
    }
  }
}
layer {
  name: "inception_3b/relu_5x5"
  type: "ReLU"
  bottom: "inception_3b/5x5"
  top: "inception_3b/5x5"
}
layer {
  name: "inception_3b/pool"
  type: "Pooling"
  bottom: "inception_3a/output"
  top: "inception_3b/pool"
  pooling_param {
    pool: MAX
    kernel_size: 3
    stride: 1
    pad: 1
  }
}
layer {
  name: "inception_3b/pool_proj"
  type: "Convolution"
  bottom: "inception_3b/pool"
  top: "inception_3b/pool_proj"
  param {
    lr_mult: 1
    decay_mult: 1
  }
  param {
    lr_mult: 2
    decay_mult: 0
  }
  convolution_param {
    num_output: 64
    kernel_size: 1
    weight_filler {
      type: "xavier"
      std: 0.1
    }
    bias_filler {
      type: "constant"
      value: 0.2
    }
  }
}
layer {
  name: "inception_3b/relu_pool_proj"
  type: "ReLU"
  bottom: "inception_3b/pool_proj"
  top: "inception_3b/pool_proj"
}
layer {
  name: "inception_3b/output"
  type: "Concat"
  bottom: "inception_3b/1x1"
  bottom: "inception_3b/3x3"
  bottom: "inception_3b/5x5"
  bottom: "inception_3b/pool_proj"
  top: "inception_3b/output"
}
layer {
  name: "pool3/3x3_s2"
  type: "Pooling"
  bottom: "inception_3b/output"
  top: "pool3/3x3_s2"
  pooling_param {
    pool: MAX
    kernel_size: 3
    stride: 2
  }
}
layer {
  name: "inception_4a/1x1"
  type: "Convolution"
  bottom: "pool3/3x3_s2"
  top: "inception_4a/1x1"
  param {
    lr_mult: 1
    decay_mult: 1
  }
  param {
    lr_mult: 2
    decay_mult: 0
  }
  convolution_param {
    num_output: 192
    kernel_size: 1
    weight_filler {
      type: "xavier"
      std: 0.03
    }
    bias_filler {
      type: "constant"
      value: 0.2
    }
  }
}
layer {
  name: "inception_4a/relu_1x1"
  type: "ReLU"
  bottom: "inception_4a/1x1"
  top: "inception_4a/1x1"
}
layer {
  name: "inception_4a/3x3_reduce"
  type: "Convolution"
  bottom: "pool3/3x3_s2"
  top: "inception_4a/3x3_reduce"
  param {
    lr_mult: 1
    decay_mult: 1
  }
  param {
    lr_mult: 2
    decay_mult: 0
  }
  convolution_param {
    num_output: 96
    kernel_size: 1
    weight_filler {
      type: "xavier"
      std: 0.09
    }
    bias_filler {
      type: "constant"
      value: 0.2
    }
  }
}
layer {
  name: "inception_4a/relu_3x3_reduce"
  type: "ReLU"
  bottom: "inception_4a/3x3_reduce"
  top: "inception_4a/3x3_reduce"
}
layer {
  name: "inception_4a/3x3"
  type: "Convolution"
  bottom: "inception_4a/3x3_reduce"
  top: "inception_4a/3x3"
  param {
    lr_mult: 1
    decay_mult: 1
  }
  param {
    lr_mult: 2
    decay_mult: 0
  }
  convolution_param {
    num_output: 208
    pad: 1
    kernel_size: 3
    weight_filler {
      type: "xavier"
      std: 0.03
    }
    bias_filler {
      type: "constant"
      value: 0.2
    }
  }
}
layer {
  name: "inception_4a/relu_3x3"
  type: "ReLU"
  bottom: "inception_4a/3x3"
  top: "inception_4a/3x3"
}
layer {
  name: "inception_4a/5x5_reduce"
  type: "Convolution"
  bottom: "pool3/3x3_s2"
  top: "inception_4a/5x5_reduce"
  param {
    lr_mult: 1
    decay_mult: 1
  }
  param {
    lr_mult: 2
    decay_mult: 0
  }
  convolution_param {
    num_output: 16
    kernel_size: 1
    weight_filler {
      type: "xavier"
      std: 0.2
    }
    bias_filler {
      type: "constant"
      value: 0.2
    }
  }
}
layer {
  name: "inception_4a/relu_5x5_reduce"
  type: "ReLU"
  bottom: "inception_4a/5x5_reduce"
  top: "inception_4a/5x5_reduce"
}
layer {
  name: "inception_4a/5x5"
  type: "Convolution"
  bottom: "inception_4a/5x5_reduce"
  top: "inception_4a/5x5"
  param {
    lr_mult: 1
    decay_mult: 1
  }
  param {
    lr_mult: 2
    decay_mult: 0
  }
  convolution_param {
    num_output: 48
    pad: 2
    kernel_size: 5
    weight_filler {
      type: "xavier"
      std: 0.03
    }
    bias_filler {
      type: "constant"
      value: 0.2
    }
  }
}
layer {
  name: "inception_4a/relu_5x5"
  type: "ReLU"
  bottom: "inception_4a/5x5"
  top: "inception_4a/5x5"
}
layer {
  name: "inception_4a/pool"
  type: "Pooling"
  bottom: "pool3/3x3_s2"
  top: "inception_4a/pool"
  pooling_param {
    pool: MAX
    kernel_size: 3
    stride: 1
    pad: 1
  }
}
layer {
  name: "inception_4a/pool_proj"
  type: "Convolution"
  bottom: "inception_4a/pool"
  top: "inception_4a/pool_proj"
  param {
    lr_mult: 1
    decay_mult: 1
  }
  param {
    lr_mult: 2
    decay_mult: 0
  }
  convolution_param {
    num_output: 64
    kernel_size: 1
    weight_filler {
      type: "xavier"
      std: 0.1
    }
    bias_filler {
      type: "constant"
      value: 0.2
    }
  }
}
layer {
  name: "inception_4a/relu_pool_proj"
  type: "ReLU"
  bottom: "inception_4a/pool_proj"
  top: "inception_4a/pool_proj"
}
layer {
  name: "inception_4a/output"
  type: "Concat"
  bottom: "inception_4a/1x1"
  bottom: "inception_4a/3x3"
  bottom: "inception_4a/5x5"
  bottom: "inception_4a/pool_proj"
  top: "inception_4a/output"
}
layer {
  name: "loss1/ave_pool"
  type: "Pooling"
  bottom: "inception_4a/output"
  top: "loss1/ave_pool"
  pooling_param {
    pool: AVE
    kernel_size: 5
    stride: 3
  }
}
layer {
  name: "loss1/conv"
  type: "Convolution"
  bottom: "loss1/ave_pool"
  top: "loss1/conv"
  param {
    lr_mult: 1
    decay_mult: 1
  }
  param {
    lr_mult: 2
    decay_mult: 0
  }
  convolution_param {
    num_output: 128
    kernel_size: 1
    weight_filler {
      type: "xavier"
      std: 0.08
    }
    bias_filler {
      type: "constant"
      value: 0.2
    }
  }
}
layer {
  name: "loss1/relu_conv"
  type: "ReLU"
  bottom: "loss1/conv"
  top: "loss1/conv"
}
layer {
  name: "loss1/fc"
  type: "InnerProduct"
  bottom: "loss1/conv"
  top: "loss1/fc"
  param {
    lr_mult: 1
    decay_mult: 1
  }
  param {
    lr_mult: 2
    decay_mult: 0
  }
  inner_product_param {
    num_output: 1024
    weight_filler {
      type: "xavier"
      std: 0.02
    }
    bias_filler {
      type: "constant"
      value: 0.2
    }
  }
}
layer {
  name: "loss1/relu_fc"
  type: "ReLU"
  bottom: "loss1/fc"
  top: "loss1/fc"
}
layer {
  name: "loss1/drop_fc"
  type: "Dropout"
  bottom: "loss1/fc"
  top: "loss1/fc"
  dropout_param {
    dropout_ratio: 0.7
  }
}
layer {
  name: "loss1/classifier_plantvillage"
  type: "InnerProduct"
  bottom: "loss1/fc"
  top: "loss1/classifier_plantvillage"
  param {
    lr_mult: 1
    decay_mult: 1
  }
  param {
    lr_mult: 2
    decay_mult: 0
  }
  inner_product_param {
    num_output: 38
    weight_filler {
      type: "xavier"
      std: 0.0009765625
    }
    bias_filler {
      type: "constant"
      value: 0
    }
  }
}
layer {
  name: "inception_4b/1x1"
  type: "Convolution"
  bottom: "inception_4a/output"
  top: "inception_4b/1x1"
  param {
    lr_mult: 1
    decay_mult: 1
  }
  param {
    lr_mult: 2
    decay_mult: 0
  }
  convolution_param {
    num_output: 160
    kernel_size: 1
    weight_filler {
      type: "xavier"
      std: 0.03
    }
    bias_filler {
      type: "constant"
      value: 0.2
    }
  }
}
layer {
  name: "inception_4b/relu_1x1"
  type: "ReLU"
  bottom: "inception_4b/1x1"
  top: "inception_4b/1x1"
}
layer {
  name: "inception_4b/3x3_reduce"
  type: "Convolution"
  bottom: "inception_4a/output"
  top: "inception_4b/3x3_reduce"
  param {
    lr_mult: 1
    decay_mult: 1
  }
  param {
    lr_mult: 2
    decay_mult: 0
  }
  convolution_param {
    num_output: 112
    kernel_size: 1
    weight_filler {
      type: "xavier"
      std: 0.09
    }
    bias_filler {
      type: "constant"
      value: 0.2
    }
  }
}
layer {
  name: "inception_4b/relu_3x3_reduce"
  type: "ReLU"
  bottom: "inception_4b/3x3_reduce"
  top: "inception_4b/3x3_reduce"
}
layer {
  name: "inception_4b/3x3"
  type: "Convolution"
  bottom: "inception_4b/3x3_reduce"
  top: "inception_4b/3x3"
  param {
    lr_mult: 1
    decay_mult: 1
  }
  param {
    lr_mult: 2
    decay_mult: 0
  }
  convolution_param {
    num_output: 224
    pad: 1
    kernel_size: 3
    weight_filler {
      type: "xavier"
      std: 0.03
    }
    bias_filler {
      type: "constant"
      value: 0.2
    }
  }
}
layer {
  name: "inception_4b/relu_3x3"
  type: "ReLU"
  bottom: "inception_4b/3x3"
  top: "inception_4b/3x3"
}
layer {
  name: "inception_4b/5x5_reduce"
  type: "Convolution"
  bottom: "inception_4a/output"
  top: "inception_4b/5x5_reduce"
  param {
    lr_mult: 1
    decay_mult: 1
  }
  param {
    lr_mult: 2
    decay_mult: 0
  }
  convolution_param {
    num_output: 24
    kernel_size: 1
    weight_filler {
      type: "xavier"
      std: 0.2
    }
    bias_filler {
      type: "constant"
      value: 0.2
    }
  }
}
layer {
  name: "inception_4b/relu_5x5_reduce"
  type: "ReLU"
  bottom: "inception_4b/5x5_reduce"
  top: "inception_4b/5x5_reduce"
}
layer {
  name: "inception_4b/5x5"
  type: "Convolution"
  bottom: "inception_4b/5x5_reduce"
  top: "inception_4b/5x5"
  param {
    lr_mult: 1
    decay_mult: 1
  }
  param {
    lr_mult: 2
    decay_mult: 0
  }
  convolution_param {
    num_output: 64
    pad: 2
    kernel_size: 5
    weight_filler {
      type: "xavier"
      std: 0.03
    }
    bias_filler {
      type: "constant"
      value: 0.2
    }
  }
}
layer {
  name: "inception_4b/relu_5x5"
  type: "ReLU"
  bottom: "inception_4b/5x5"
  top: "inception_4b/5x5"
}
layer {
  name: "inception_4b/pool"
  type: "Pooling"
  bottom: "inception_4a/output"
  top: "inception_4b/pool"
  pooling_param {
    pool: MAX
    kernel_size: 3
    stride: 1
    pad: 1
  }
}
layer {
  name: "inception_4b/pool_proj"
  type: "Convolution"
  bottom: "inception_4b/pool"
  top: "inception_4b/pool_proj"
  param {
    lr_mult: 1
    decay_mult: 1
  }
  param {
    lr_mult: 2
    decay_mult: 0
  }
  convolution_param {
    num_output: 64
    kernel_size: 1
    weight_filler {
      type: "xavier"
      std: 0.1
    }
    bias_filler {
      type: "constant"
      value: 0.2
    }
  }
}
layer {
  name: "inception_4b/relu_pool_proj"
  type: "ReLU"
  bottom: "inception_4b/pool_proj"
  top: "inception_4b/pool_proj"
}
layer {
  name: "inception_4b/output"
  type: "Concat"
  bottom: "inception_4b/1x1"
  bottom: "inception_4b/3x3"
  bottom: "inception_4b/5x5"
  bottom: "inception_4b/pool_proj"
  top: "inception_4b/output"
}
layer {
  name: "inception_4c/1x1"
  type: "Convolution"
  bottom: "inception_4b/output"
  top: "inception_4c/1x1"
  param {
    lr_mult: 1
    decay_mult: 1
  }
  param {
    lr_mult: 2
    decay_mult: 0
  }
  convolution_param {
    num_output: 128
    kernel_size: 1
    weight_filler {
      type: "xavier"
      std: 0.03
    }
    bias_filler {
      type: "constant"
      value: 0.2
    }
  }
}
layer {
  name: "inception_4c/relu_1x1"
  type: "ReLU"
  bottom: "inception_4c/1x1"
  top: "inception_4c/1x1"
}
layer {
  name: "inception_4c/3x3_reduce"
  type: "Convolution"
  bottom: "inception_4b/output"
  top: "inception_4c/3x3_reduce"
  param {
    lr_mult: 1
    decay_mult: 1
  }
  param {
    lr_mult: 2
    decay_mult: 0
  }
  convolution_param {
    num_output: 128
    kernel_size: 1
    weight_filler {
      type: "xavier"
      std: 0.09
    }
    bias_filler {
      type: "constant"
      value: 0.2
    }
  }
}
layer {
  name: "inception_4c/relu_3x3_reduce"
  type: "ReLU"
  bottom: "inception_4c/3x3_reduce"
  top: "inception_4c/3x3_reduce"
}
layer {
  name: "inception_4c/3x3"
  type: "Convolution"
  bottom: "inception_4c/3x3_reduce"
  top: "inception_4c/3x3"
  param {
    lr_mult: 1
    decay_mult: 1
  }
  param {
    lr_mult: 2
    decay_mult: 0
  }
  convolution_param {
    num_output: 256
    pad: 1
    kernel_size: 3
    weight_filler {
      type: "xavier"
      std: 0.03
    }
    bias_filler {
      type: "constant"
      value: 0.2
    }
  }
}
layer {
  name: "inception_4c/relu_3x3"
  type: "ReLU"
  bottom: "inception_4c/3x3"
  top: "inception_4c/3x3"
}
layer {
  name: "inception_4c/5x5_reduce"
  type: "Convolution"
  bottom: "inception_4b/output"
  top: "inception_4c/5x5_reduce"
  param {
    lr_mult: 1
    decay_mult: 1
  }
  param {
    lr_mult: 2
    decay_mult: 0
  }
  convolution_param {
    num_output: 24
    kernel_size: 1
    weight_filler {
      type: "xavier"
      std: 0.2
    }
    bias_filler {
      type: "constant"
      value: 0.2
    }
  }
}
layer {
  name: "inception_4c/relu_5x5_reduce"
  type: "ReLU"
  bottom: "inception_4c/5x5_reduce"
  top: "inception_4c/5x5_reduce"
}
layer {
  name: "inception_4c/5x5"
  type: "Convolution"
  bottom: "inception_4c/5x5_reduce"
  top: "inception_4c/5x5"
  param {
    lr_mult: 1
    decay_mult: 1
  }
  param {
    lr_mult: 2
    decay_mult: 0
  }
  convolution_param {
    num_output: 64
    pad: 2
    kernel_size: 5
    weight_filler {
      type: "xavier"
      std: 0.03
    }
    bias_filler {
      type: "constant"
      value: 0.2
    }
  }
}
layer {
  name: "inception_4c/relu_5x5"
  type: "ReLU"
  bottom: "inception_4c/5x5"
  top: "inception_4c/5x5"
}
layer {
  name: "inception_4c/pool"
  type: "Pooling"
  bottom: "inception_4b/output"
  top: "inception_4c/pool"
  pooling_param {
    pool: MAX
    kernel_size: 3
    stride: 1
    pad: 1
  }
}
layer {
  name: "inception_4c/pool_proj"
  type: "Convolution"
  bottom: "inception_4c/pool"
  top: "inception_4c/pool_proj"
  param {
    lr_mult: 1
    decay_mult: 1
  }
  param {
    lr_mult: 2
    decay_mult: 0
  }
  convolution_param {
    num_output: 64
    kernel_size: 1
    weight_filler {
      type: "xavier"
      std: 0.1
    }
    bias_filler {
      type: "constant"
      value: 0.2
    }
  }
}
layer {
  name: "inception_4c/relu_pool_proj"
  type: "ReLU"
  bottom: "inception_4c/pool_proj"
  top: "inception_4c/pool_proj"
}
layer {
  name: "inception_4c/output"
  type: "Concat"
  bottom: "inception_4c/1x1"
  bottom: "inception_4c/3x3"
  bottom: "inception_4c/5x5"
  bottom: "inception_4c/pool_proj"
  top: "inception_4c/output"
}
layer {
  name: "inception_4d/1x1"
  type: "Convolution"
  bottom: "inception_4c/output"
  top: "inception_4d/1x1"
  param {
    lr_mult: 1
    decay_mult: 1
  }
  param {
    lr_mult: 2
    decay_mult: 0
  }
  convolution_param {
    num_output: 112
    kernel_size: 1
    weight_filler {
      type: "xavier"
      std: 0.03
    }
    bias_filler {
      type: "constant"
      value: 0.2
    }
  }
}
layer {
  name: "inception_4d/relu_1x1"
  type: "ReLU"
  bottom: "inception_4d/1x1"
  top: "inception_4d/1x1"
}
layer {
  name: "inception_4d/3x3_reduce"
  type: "Convolution"
  bottom: "inception_4c/output"
  top: "inception_4d/3x3_reduce"
  param {
    lr_mult: 1
    decay_mult: 1
  }
  param {
    lr_mult: 2
    decay_mult: 0
  }
  convolution_param {
    num_output: 144
    kernel_size: 1
    weight_filler {
      type: "xavier"
      std: 0.09
    }
    bias_filler {
      type: "constant"
      value: 0.2
    }
  }
}
layer {
  name: "inception_4d/relu_3x3_reduce"
  type: "ReLU"
  bottom: "inception_4d/3x3_reduce"
  top: "inception_4d/3x3_reduce"
}
layer {
  name: "inception_4d/3x3"
  type: "Convolution"
  bottom: "inception_4d/3x3_reduce"
  top: "inception_4d/3x3"
  param {
    lr_mult: 1
    decay_mult: 1
  }
  param {
    lr_mult: 2
    decay_mult: 0
  }
  convolution_param {
    num_output: 288
    pad: 1
    kernel_size: 3
    weight_filler {
      type: "xavier"
      std: 0.03
    }
    bias_filler {
      type: "constant"
      value: 0.2
    }
  }
}
layer {
  name: "inception_4d/relu_3x3"
  type: "ReLU"
  bottom: "inception_4d/3x3"
  top: "inception_4d/3x3"
}
layer {
  name: "inception_4d/5x5_reduce"
  type: "Convolution"
  bottom: "inception_4c/output"
  top: "inception_4d/5x5_reduce"
  param {
    lr_mult: 1
    decay_mult: 1
  }
  param {
    lr_mult: 2
    decay_mult: 0
  }
  convolution_param {
    num_output: 32
    kernel_size: 1
    weight_filler {
      type: "xavier"
      std: 0.2
    }
    bias_filler {
      type: "constant"
      value: 0.2
    }
  }
}
layer {
  name: "inception_4d/relu_5x5_reduce"
  type: "ReLU"
  bottom: "inception_4d/5x5_reduce"
  top: "inception_4d/5x5_reduce"
}
layer {
  name: "inception_4d/5x5"
  type: "Convolution"
  bottom: "inception_4d/5x5_reduce"
  top: "inception_4d/5x5"
  param {
    lr_mult: 1
    decay_mult: 1
  }
  param {
    lr_mult: 2
    decay_mult: 0
  }
  convolution_param {
    num_output: 64
    pad: 2
    kernel_size: 5
    weight_filler {
      type: "xavier"
      std: 0.03
    }
    bias_filler {
      type: "constant"
      value: 0.2
    }
  }
}
layer {
  name: "inception_4d/relu_5x5"
  type: "ReLU"
  bottom: "inception_4d/5x5"
  top: "inception_4d/5x5"
}
layer {
  name: "inception_4d/pool"
  type: "Pooling"
  bottom: "inception_4c/output"
  top: "inception_4d/pool"
  pooling_param {
    pool: MAX
    kernel_size: 3
    stride: 1
    pad: 1
  }
}
layer {
  name: "inception_4d/pool_proj"
  type: "Convolution"
  bottom: "inception_4d/pool"
  top: "inception_4d/pool_proj"
  param {
    lr_mult: 1
    decay_mult: 1
  }
  param {
    lr_mult: 2
    decay_mult: 0
  }
  convolution_param {
    num_output: 64
    kernel_size: 1
    weight_filler {
      type: "xavier"
      std: 0.1
    }
    bias_filler {
      type: "constant"
      value: 0.2
    }
  }
}
layer {
  name: "inception_4d/relu_pool_proj"
  type: "ReLU"
  bottom: "inception_4d/pool_proj"
  top: "inception_4d/pool_proj"
}
layer {
  name: "inception_4d/output"
  type: "Concat"
  bottom: "inception_4d/1x1"
  bottom: "inception_4d/3x3"
  bottom: "inception_4d/5x5"
  bottom: "inception_4d/pool_proj"
  top: "inception_4d/output"
}
layer {
  name: "loss2/ave_pool"
  type: "Pooling"
  bottom: "inception_4d/output"
  top: "loss2/ave_pool"
  pooling_param {
    pool: AVE
    kernel_size: 5
    stride: 3
  }
}
layer {
  name: "loss2/conv"
  type: "Convolution"
  bottom: "loss2/ave_pool"
  top: "loss2/conv"
  param {
    lr_mult: 1
    decay_mult: 1
  }
  param {
    lr_mult: 2
    decay_mult: 0
  }
  convolution_param {
    num_output: 128
    kernel_size: 1
    weight_filler {
      type: "xavier"
      std: 0.08
    }
    bias_filler {
      type: "constant"
      value: 0.2
    }
  }
}
layer {
  name: "loss2/relu_conv"
  type: "ReLU"
  bottom: "loss2/conv"
  top: "loss2/conv"
}
layer {
  name: "loss2/fc"
  type: "InnerProduct"
  bottom: "loss2/conv"
  top: "loss2/fc"
  param {
    lr_mult: 1
    decay_mult: 1
  }
  param {
    lr_mult: 2
    decay_mult: 0
  }
  inner_product_param {
    num_output: 1024
    weight_filler {
      type: "xavier"
      std: 0.02
    }
    bias_filler {
      type: "constant"
      value: 0.2
    }
  }
}
layer {
  name: "loss2/relu_fc"
  type: "ReLU"
  bottom: "loss2/fc"
  top: "loss2/fc"
}
layer {
  name: "loss2/drop_fc"
  type: "Dropout"
  bottom: "loss2/fc"
  top: "loss2/fc"
  dropout_param {
    dropout_ratio: 0.7
  }
}
layer {
  name: "loss2/classifier_plantvillage"
  type: "InnerProduct"
  bottom: "loss2/fc"
  top: "loss2/classifier_plantvillage"
  param {
    lr_mult: 1
    decay_mult: 1
  }
  param {
    lr_mult: 2
    decay_mult: 0
  }
  inner_product_param {
    num_output: 38
    weight_filler {
      type: "xavier"
      std: 0.0009765625
    }
    bias_filler {
      type: "constant"
      value: 0
    }
  }
}
layer {
  name: "inception_4e/1x1"
  type: "Convolution"
  bottom: "inception_4d/output"
  top: "inception_4e/1x1"
  param {
    lr_mult: 1
    decay_mult: 1
  }
  param {
    lr_mult: 2
    decay_mult: 0
  }
  convolution_param {
    num_output: 256
    kernel_size: 1
    weight_filler {
      type: "xavier"
      std: 0.03
    }
    bias_filler {
      type: "constant"
      value: 0.2
    }
  }
}
layer {
  name: "inception_4e/relu_1x1"
  type: "ReLU"
  bottom: "inception_4e/1x1"
  top: "inception_4e/1x1"
}
layer {
  name: "inception_4e/3x3_reduce"
  type: "Convolution"
  bottom: "inception_4d/output"
  top: "inception_4e/3x3_reduce"
  param {
    lr_mult: 1
    decay_mult: 1
  }
  param {
    lr_mult: 2
    decay_mult: 0
  }
  convolution_param {
    num_output: 160
    kernel_size: 1
    weight_filler {
      type: "xavier"
      std: 0.09
    }
    bias_filler {
      type: "constant"
      value: 0.2
    }
  }
}
layer {
  name: "inception_4e/relu_3x3_reduce"
  type: "ReLU"
  bottom: "inception_4e/3x3_reduce"
  top: "inception_4e/3x3_reduce"
}
layer {
  name: "inception_4e/3x3"
  type: "Convolution"
  bottom: "inception_4e/3x3_reduce"
  top: "inception_4e/3x3"
  param {
    lr_mult: 1
    decay_mult: 1
  }
  param {
    lr_mult: 2
    decay_mult: 0
  }
  convolution_param {
    num_output: 320
    pad: 1
    kernel_size: 3
    weight_filler {
      type: "xavier"
      std: 0.03
    }
    bias_filler {
      type: "constant"
      value: 0.2
    }
  }
}
layer {
  name: "inception_4e/relu_3x3"
  type: "ReLU"
  bottom: "inception_4e/3x3"
  top: "inception_4e/3x3"
}
layer {
  name: "inception_4e/5x5_reduce"
  type: "Convolution"
  bottom: "inception_4d/output"
  top: "inception_4e/5x5_reduce"
  param {
    lr_mult: 1
    decay_mult: 1
  }
  param {
    lr_mult: 2
    decay_mult: 0
  }
  convolution_param {
    num_output: 32
    kernel_size: 1
    weight_filler {
      type: "xavier"
      std: 0.2
    }
    bias_filler {
      type: "constant"
      value: 0.2
    }
  }
}
layer {
  name: "inception_4e/relu_5x5_reduce"
  type: "ReLU"
  bottom: "inception_4e/5x5_reduce"
  top: "inception_4e/5x5_reduce"
}
layer {
  name: "inception_4e/5x5"
  type: "Convolution"
  bottom: "inception_4e/5x5_reduce"
  top: "inception_4e/
I0403 19:32:48.761585 25057 layer_factory.hpp:77] Creating layer data
I0403 19:32:48.762269 25057 net.cpp:91] Creating Layer data
I0403 19:32:48.762317 25057 net.cpp:399] data -> data
I0403 19:32:48.762392 25057 net.cpp:399] data -> label
I0403 19:32:48.762440 25057 data_transformer.cpp:25] Loading mean file from: /home/mohanty/data/final_dataset/lmdb/grayscale-80-20/mean.binaryproto
I0403 19:32:48.763591 25060 db_lmdb.cpp:38] Opened lmdb /home/mohanty/data/final_dataset/lmdb/grayscale-80-20/test_db
I0403 19:32:48.777062 25057 data_layer.cpp:41] output data size: 24,3,224,224
I0403 19:32:48.806953 25057 net.cpp:141] Setting up data
I0403 19:32:48.807059 25057 net.cpp:148] Top shape: 24 3 224 224 (3612672)
I0403 19:32:48.807085 25057 net.cpp:148] Top shape: 24 (24)
I0403 19:32:48.807103 25057 net.cpp:156] Memory required for data: 14450784
I0403 19:32:48.807142 25057 layer_factory.hpp:77] Creating layer label_data_1_split
I0403 19:32:48.807176 25057 net.cpp:91] Creating Layer label_data_1_split
I0403 19:32:48.807199 25057 net.cpp:425] label_data_1_split <- label
I0403 19:32:48.807240 25057 net.cpp:399] label_data_1_split -> label_data_1_split_0
I0403 19:32:48.807277 25057 net.cpp:399] label_data_1_split -> label_data_1_split_1
I0403 19:32:48.807312 25057 net.cpp:399] label_data_1_split -> label_data_1_split_2
I0403 19:32:48.807342 25057 net.cpp:399] label_data_1_split -> label_data_1_split_3
I0403 19:32:48.807365 25057 net.cpp:399] label_data_1_split -> label_data_1_split_4
I0403 19:32:48.807389 25057 net.cpp:399] label_data_1_split -> label_data_1_split_5
I0403 19:32:48.807412 25057 net.cpp:399] label_data_1_split -> label_data_1_split_6
I0403 19:32:48.807435 25057 net.cpp:399] label_data_1_split -> label_data_1_split_7
I0403 19:32:48.807457 25057 net.cpp:399] label_data_1_split -> label_data_1_split_8
I0403 19:32:48.807481 25057 net.cpp:399] label_data_1_split -> label_data_1_split_9
I0403 19:32:48.807606 25057 net.cpp:141] Setting up label_data_1_split
I0403 19:32:48.807634 25057 net.cpp:148] Top shape: 24 (24)
I0403 19:32:48.807654 25057 net.cpp:148] Top shape: 24 (24)
I0403 19:32:48.807673 25057 net.cpp:148] Top shape: 24 (24)
I0403 19:32:48.807692 25057 net.cpp:148] Top shape: 24 (24)
I0403 19:32:48.807709 25057 net.cpp:148] Top shape: 24 (24)
I0403 19:32:48.807726 25057 net.cpp:148] Top shape: 24 (24)
I0403 19:32:48.807744 25057 net.cpp:148] Top shape: 24 (24)
I0403 19:32:48.807762 25057 net.cpp:148] Top shape: 24 (24)
I0403 19:32:48.807778 25057 net.cpp:148] Top shape: 24 (24)
I0403 19:32:48.807798 25057 net.cpp:148] Top shape: 24 (24)
I0403 19:32:48.807853 25057 net.cpp:156] Memory required for data: 14451744
I0403 19:32:48.807873 25057 layer_factory.hpp:77] Creating layer conv1/7x7_s2
I0403 19:32:48.807914 25057 net.cpp:91] Creating Layer conv1/7x7_s2
I0403 19:32:48.807937 25057 net.cpp:425] conv1/7x7_s2 <- data
I0403 19:32:48.807958 25057 net.cpp:399] conv1/7x7_s2 -> conv1/7x7_s2
I0403 19:32:48.954324 25057 net.cpp:141] Setting up conv1/7x7_s2
I0403 19:32:48.954442 25057 net.cpp:148] Top shape: 24 64 112 112 (19267584)
I0403 19:32:48.954462 25057 net.cpp:156] Memory required for data: 91522080
I0403 19:32:48.954504 25057 layer_factory.hpp:77] Creating layer conv1/relu_7x7
I0403 19:32:48.954540 25057 net.cpp:91] Creating Layer conv1/relu_7x7
I0403 19:32:48.954561 25057 net.cpp:425] conv1/relu_7x7 <- conv1/7x7_s2
I0403 19:32:48.954584 25057 net.cpp:386] conv1/relu_7x7 -> conv1/7x7_s2 (in-place)
I0403 19:32:48.954854 25057 net.cpp:141] Setting up conv1/relu_7x7
I0403 19:32:48.954884 25057 net.cpp:148] Top shape: 24 64 112 112 (19267584)
I0403 19:32:48.954903 25057 net.cpp:156] Memory required for data: 168592416
I0403 19:32:48.954921 25057 layer_factory.hpp:77] Creating layer pool1/3x3_s2
I0403 19:32:48.954952 25057 net.cpp:91] Creating Layer pool1/3x3_s2
I0403 19:32:48.954974 25057 net.cpp:425] pool1/3x3_s2 <- conv1/7x7_s2
I0403 19:32:48.954995 25057 net.cpp:399] pool1/3x3_s2 -> pool1/3x3_s2
I0403 19:32:48.955101 25057 net.cpp:141] Setting up pool1/3x3_s2
I0403 19:32:48.955132 25057 net.cpp:148] Top shape: 24 64 56 56 (4816896)
I0403 19:32:48.955152 25057 net.cpp:156] Memory required for data: 187860000
I0403 19:32:48.955169 25057 layer_factory.hpp:77] Creating layer pool1/norm1
I0403 19:32:48.955200 25057 net.cpp:91] Creating Layer pool1/norm1
I0403 19:32:48.955221 25057 net.cpp:425] pool1/norm1 <- pool1/3x3_s2
I0403 19:32:48.955241 25057 net.cpp:399] pool1/norm1 -> pool1/norm1
I0403 19:32:48.955544 25057 net.cpp:141] Setting up pool1/norm1
I0403 19:32:48.955575 25057 net.cpp:148] Top shape: 24 64 56 56 (4816896)
I0403 19:32:48.955595 25057 net.cpp:156] Memory required for data: 207127584
I0403 19:32:48.955611 25057 layer_factory.hpp:77] Creating layer conv2/3x3_reduce
I0403 19:32:48.955643 25057 net.cpp:91] Creating Layer conv2/3x3_reduce
I0403 19:32:48.955662 25057 net.cpp:425] conv2/3x3_reduce <- pool1/norm1
I0403 19:32:48.955683 25057 net.cpp:399] conv2/3x3_reduce -> conv2/3x3_reduce
I0403 19:32:48.957073 25057 net.cpp:141] Setting up conv2/3x3_reduce
I0403 19:32:48.957108 25057 net.cpp:148] Top shape: 24 64 56 56 (4816896)
I0403 19:32:48.957126 25057 net.cpp:156] Memory required for data: 226395168
I0403 19:32:48.957149 25057 layer_factory.hpp:77] Creating layer conv2/relu_3x3_reduce
I0403 19:32:48.957170 25057 net.cpp:91] Creating Layer conv2/relu_3x3_reduce
I0403 19:32:48.957188 25057 net.cpp:425] conv2/relu_3x3_reduce <- conv2/3x3_reduce
I0403 19:32:48.957208 25057 net.cpp:386] conv2/relu_3x3_reduce -> conv2/3x3_reduce (in-place)
I0403 19:32:48.957464 25057 net.cpp:141] Setting up conv2/relu_3x3_reduce
I0403 19:32:48.957495 25057 net.cpp:148] Top shape: 24 64 56 56 (4816896)
I0403 19:32:48.957515 25057 net.cpp:156] Memory required for data: 245662752
I0403 19:32:48.957532 25057 layer_factory.hpp:77] Creating layer conv2/3x3
I0403 19:32:48.957556 25057 net.cpp:91] Creating Layer conv2/3x3
I0403 19:32:48.957576 25057 net.cpp:425] conv2/3x3 <- conv2/3x3_reduce
I0403 19:32:48.957598 25057 net.cpp:399] conv2/3x3 -> conv2/3x3
I0403 19:32:48.959848 25057 net.cpp:141] Setting up conv2/3x3
I0403 19:32:48.959883 25057 net.cpp:148] Top shape: 24 192 56 56 (14450688)
I0403 19:32:48.959903 25057 net.cpp:156] Memory required for data: 303465504
I0403 19:32:48.959925 25057 layer_factory.hpp:77] Creating layer conv2/relu_3x3
I0403 19:32:48.959947 25057 net.cpp:91] Creating Layer conv2/relu_3x3
I0403 19:32:48.959965 25057 net.cpp:425] conv2/relu_3x3 <- conv2/3x3
I0403 19:32:48.959986 25057 net.cpp:386] conv2/relu_3x3 -> conv2/3x3 (in-place)
I0403 19:32:48.960166 25057 net.cpp:141] Setting up conv2/relu_3x3
I0403 19:32:48.960196 25057 net.cpp:148] Top shape: 24 192 56 56 (14450688)
I0403 19:32:48.960247 25057 net.cpp:156] Memory required for data: 361268256
I0403 19:32:48.960273 25057 layer_factory.hpp:77] Creating layer conv2/norm2
I0403 19:32:48.960296 25057 net.cpp:91] Creating Layer conv2/norm2
I0403 19:32:48.960317 25057 net.cpp:425] conv2/norm2 <- conv2/3x3
I0403 19:32:48.960336 25057 net.cpp:399] conv2/norm2 -> conv2/norm2
I0403 19:32:48.960636 25057 net.cpp:141] Setting up conv2/norm2
I0403 19:32:48.960669 25057 net.cpp:148] Top shape: 24 192 56 56 (14450688)
I0403 19:32:48.960686 25057 net.cpp:156] Memory required for data: 419071008
I0403 19:32:48.960703 25057 layer_factory.hpp:77] Creating layer pool2/3x3_s2
I0403 19:32:48.960724 25057 net.cpp:91] Creating Layer pool2/3x3_s2
I0403 19:32:48.960746 25057 net.cpp:425] pool2/3x3_s2 <- conv2/norm2
I0403 19:32:48.960767 25057 net.cpp:399] pool2/3x3_s2 -> pool2/3x3_s2
I0403 19:32:48.960822 25057 net.cpp:141] Setting up pool2/3x3_s2
I0403 19:32:48.960851 25057 net.cpp:148] Top shape: 24 192 28 28 (3612672)
I0403 19:32:48.960870 25057 net.cpp:156] Memory required for data: 433521696
I0403 19:32:48.960887 25057 layer_factory.hpp:77] Creating layer pool2/3x3_s2_pool2/3x3_s2_0_split
I0403 19:32:48.960908 25057 net.cpp:91] Creating Layer pool2/3x3_s2_pool2/3x3_s2_0_split
I0403 19:32:48.960930 25057 net.cpp:425] pool2/3x3_s2_pool2/3x3_s2_0_split <- pool2/3x3_s2
I0403 19:32:48.960949 25057 net.cpp:399] pool2/3x3_s2_pool2/3x3_s2_0_split -> pool2/3x3_s2_pool2/3x3_s2_0_split_0
I0403 19:32:48.960973 25057 net.cpp:399] pool2/3x3_s2_pool2/3x3_s2_0_split -> pool2/3x3_s2_pool2/3x3_s2_0_split_1
I0403 19:32:48.960994 25057 net.cpp:399] pool2/3x3_s2_pool2/3x3_s2_0_split -> pool2/3x3_s2_pool2/3x3_s2_0_split_2
I0403 19:32:48.961017 25057 net.cpp:399] pool2/3x3_s2_pool2/3x3_s2_0_split -> pool2/3x3_s2_pool2/3x3_s2_0_split_3
I0403 19:32:48.961091 25057 net.cpp:141] Setting up pool2/3x3_s2_pool2/3x3_s2_0_split
I0403 19:32:48.961120 25057 net.cpp:148] Top shape: 24 192 28 28 (3612672)
I0403 19:32:48.961140 25057 net.cpp:148] Top shape: 24 192 28 28 (3612672)
I0403 19:32:48.961156 25057 net.cpp:148] Top shape: 24 192 28 28 (3612672)
I0403 19:32:48.961174 25057 net.cpp:148] Top shape: 24 192 28 28 (3612672)
I0403 19:32:48.961189 25057 net.cpp:156] Memory required for data: 491324448
I0403 19:32:48.961205 25057 layer_factory.hpp:77] Creating layer inception_3a/1x1
I0403 19:32:48.961232 25057 net.cpp:91] Creating Layer inception_3a/1x1
I0403 19:32:48.961253 25057 net.cpp:425] inception_3a/1x1 <- pool2/3x3_s2_pool2/3x3_s2_0_split_0
I0403 19:32:48.961285 25057 net.cpp:399] inception_3a/1x1 -> inception_3a/1x1
I0403 19:32:48.962852 25057 net.cpp:141] Setting up inception_3a/1x1
I0403 19:32:48.962888 25057 net.cpp:148] Top shape: 24 64 28 28 (1204224)
I0403 19:32:48.962908 25057 net.cpp:156] Memory required for data: 496141344
I0403 19:32:48.962929 25057 layer_factory.hpp:77] Creating layer inception_3a/relu_1x1
I0403 19:32:48.962949 25057 net.cpp:91] Creating Layer inception_3a/relu_1x1
I0403 19:32:48.962968 25057 net.cpp:425] inception_3a/relu_1x1 <- inception_3a/1x1
I0403 19:32:48.962987 25057 net.cpp:386] inception_3a/relu_1x1 -> inception_3a/1x1 (in-place)
I0403 19:32:48.963165 25057 net.cpp:141] Setting up inception_3a/relu_1x1
I0403 19:32:48.963198 25057 net.cpp:148] Top shape: 24 64 28 28 (1204224)
I0403 19:32:48.963217 25057 net.cpp:156] Memory required for data: 500958240
I0403 19:32:48.963233 25057 layer_factory.hpp:77] Creating layer inception_3a/3x3_reduce
I0403 19:32:48.963263 25057 net.cpp:91] Creating Layer inception_3a/3x3_reduce
I0403 19:32:48.963282 25057 net.cpp:425] inception_3a/3x3_reduce <- pool2/3x3_s2_pool2/3x3_s2_0_split_1
I0403 19:32:48.963305 25057 net.cpp:399] inception_3a/3x3_reduce -> inception_3a/3x3_reduce
I0403 19:32:48.964997 25057 net.cpp:141] Setting up inception_3a/3x3_reduce
I0403 19:32:48.965032 25057 net.cpp:148] Top shape: 24 96 28 28 (1806336)
I0403 19:32:48.965052 25057 net.cpp:156] Memory required for data: 508183584
I0403 19:32:48.965075 25057 layer_factory.hpp:77] Creating layer inception_3a/relu_3x3_reduce
I0403 19:32:48.965118 25057 net.cpp:91] Creating Layer inception_3a/relu_3x3_reduce
I0403 19:32:48.965140 25057 net.cpp:425] inception_3a/relu_3x3_reduce <- inception_3a/3x3_reduce
I0403 19:32:48.965162 25057 net.cpp:386] inception_3a/relu_3x3_reduce -> inception_3a/3x3_reduce (in-place)
I0403 19:32:48.965366 25057 net.cpp:141] Setting up inception_3a/relu_3x3_reduce
I0403 19:32:48.965396 25057 net.cpp:148] Top shape: 24 96 28 28 (1806336)
I0403 19:32:48.965415 25057 net.cpp:156] Memory required for data: 515408928
I0403 19:32:48.965433 25057 layer_factory.hpp:77] Creating layer inception_3a/3x3
I0403 19:32:48.965464 25057 net.cpp:91] Creating Layer inception_3a/3x3
I0403 19:32:48.965486 25057 net.cpp:425] inception_3a/3x3 <- inception_3a/3x3_reduce
I0403 19:32:48.965505 25057 net.cpp:399] inception_3a/3x3 -> inception_3a/3x3
I0403 19:32:48.967155 25057 net.cpp:141] Setting up inception_3a/3x3
I0403 19:32:48.967190 25057 net.cpp:148] Top shape: 24 128 28 28 (2408448)
I0403 19:32:48.967206 25057 net.cpp:156] Memory required for data: 525042720
I0403 19:32:48.967227 25057 layer_factory.hpp:77] Creating layer inception_3a/relu_3x3
I0403 19:32:48.967247 25057 net.cpp:91] Creating Layer inception_3a/relu_3x3
I0403 19:32:48.967272 25057 net.cpp:425] inception_3a/relu_3x3 <- inception_3a/3x3
I0403 19:32:48.967296 25057 net.cpp:386] inception_3a/relu_3x3 -> inception_3a/3x3 (in-place)
I0403 19:32:48.967571 25057 net.cpp:141] Setting up inception_3a/relu_3x3
I0403 19:32:48.967604 25057 net.cpp:148] Top shape: 24 128 28 28 (2408448)
I0403 19:32:48.967624 25057 net.cpp:156] Memory required for data: 534676512
I0403 19:32:48.967641 25057 layer_factory.hpp:77] Creating layer inception_3a/5x5_reduce
I0403 19:32:48.967666 25057 net.cpp:91] Creating Layer inception_3a/5x5_reduce
I0403 19:32:48.967685 25057 net.cpp:425] inception_3a/5x5_reduce <- pool2/3x3_s2_pool2/3x3_s2_0_split_2
I0403 19:32:48.967710 25057 net.cpp:399] inception_3a/5x5_reduce -> inception_3a/5x5_reduce
I0403 19:32:48.968667 25057 net.cpp:141] Setting up inception_3a/5x5_reduce
I0403 19:32:48.968699 25057 net.cpp:148] Top shape: 24 16 28 28 (301056)
I0403 19:32:48.968718 25057 net.cpp:156] Memory required for data: 535880736
I0403 19:32:48.968739 25057 layer_factory.hpp:77] Creating layer inception_3a/relu_5x5_reduce
I0403 19:32:48.968760 25057 net.cpp:91] Creating Layer inception_3a/relu_5x5_reduce
I0403 19:32:48.968780 25057 net.cpp:425] inception_3a/relu_5x5_reduce <- inception_3a/5x5_reduce
I0403 19:32:48.968799 25057 net.cpp:386] inception_3a/relu_5x5_reduce -> inception_3a/5x5_reduce (in-place)
I0403 19:32:48.969074 25057 net.cpp:141] Setting up inception_3a/relu_5x5_reduce
I0403 19:32:48.969105 25057 net.cpp:148] Top shape: 24 16 28 28 (301056)
I0403 19:32:48.969121 25057 net.cpp:156] Memory required for data: 537084960
I0403 19:32:48.969140 25057 layer_factory.hpp:77] Creating layer inception_3a/5x5
I0403 19:32:48.969167 25057 net.cpp:91] Creating Layer inception_3a/5x5
I0403 19:32:48.969189 25057 net.cpp:425] inception_3a/5x5 <- inception_3a/5x5_reduce
I0403 19:32:48.969211 25057 net.cpp:399] inception_3a/5x5 -> inception_3a/5x5
I0403 19:32:48.970245 25057 net.cpp:141] Setting up inception_3a/5x5
I0403 19:32:48.970286 25057 net.cpp:148] Top shape: 24 32 28 28 (602112)
I0403 19:32:48.970307 25057 net.cpp:156] Memory required for data: 539493408
I0403 19:32:48.970331 25057 layer_factory.hpp:77] Creating layer inception_3a/relu_5x5
I0403 19:32:48.970352 25057 net.cpp:91] Creating Layer inception_3a/relu_5x5
I0403 19:32:48.970371 25057 net.cpp:425] inception_3a/relu_5x5 <- inception_3a/5x5
I0403 19:32:48.970392 25057 net.cpp:386] inception_3a/relu_5x5 -> inception_3a/5x5 (in-place)
I0403 19:32:48.970582 25057 net.cpp:141] Setting up inception_3a/relu_5x5
I0403 19:32:48.970612 25057 net.cpp:148] Top shape: 24 32 28 28 (602112)
I0403 19:32:48.970628 25057 net.cpp:156] Memory required for data: 541901856
I0403 19:32:48.970644 25057 layer_factory.hpp:77] Creating layer inception_3a/pool
I0403 19:32:48.970664 25057 net.cpp:91] Creating Layer inception_3a/pool
I0403 19:32:48.970701 25057 net.cpp:425] inception_3a/pool <- pool2/3x3_s2_pool2/3x3_s2_0_split_3
I0403 19:32:48.970726 25057 net.cpp:399] inception_3a/pool -> inception_3a/pool
I0403 19:32:48.970787 25057 net.cpp:141] Setting up inception_3a/pool
I0403 19:32:48.970826 25057 net.cpp:148] Top shape: 24 192 28 28 (3612672)
I0403 19:32:48.970844 25057 net.cpp:156] Memory required for data: 556352544
I0403 19:32:48.970860 25057 layer_factory.hpp:77] Creating layer inception_3a/pool_proj
I0403 19:32:48.970883 25057 net.cpp:91] Creating Layer inception_3a/pool_proj
I0403 19:32:48.970904 25057 net.cpp:425] inception_3a/pool_proj <- inception_3a/pool
I0403 19:32:48.970932 25057 net.cpp:399] inception_3a/pool_proj -> inception_3a/pool_proj
I0403 19:32:48.971880 25057 net.cpp:141] Setting up inception_3a/pool_proj
I0403 19:32:48.971910 25057 net.cpp:148] Top shape: 24 32 28 28 (602112)
I0403 19:32:48.971927 25057 net.cpp:156] Memory required for data: 558760992
I0403 19:32:48.971953 25057 layer_factory.hpp:77] Creating layer inception_3a/relu_pool_proj
I0403 19:32:48.971977 25057 net.cpp:91] Creating Layer inception_3a/relu_pool_proj
I0403 19:32:48.971997 25057 net.cpp:425] inception_3a/relu_pool_proj <- inception_3a/pool_proj
I0403 19:32:48.972020 25057 net.cpp:386] inception_3a/relu_pool_proj -> inception_3a/pool_proj (in-place)
I0403 19:32:48.972300 25057 net.cpp:141] Setting up inception_3a/relu_pool_proj
I0403 19:32:48.972329 25057 net.cpp:148] Top shape: 24 32 28 28 (602112)
I0403 19:32:48.972347 25057 net.cpp:156] Memory required for data: 561169440
I0403 19:32:48.972363 25057 layer_factory.hpp:77] Creating layer inception_3a/output
I0403 19:32:48.972384 25057 net.cpp:91] Creating Layer inception_3a/output
I0403 19:32:48.972403 25057 net.cpp:425] inception_3a/output <- inception_3a/1x1
I0403 19:32:48.972422 25057 net.cpp:425] inception_3a/output <- inception_3a/3x3
I0403 19:32:48.972440 25057 net.cpp:425] inception_3a/output <- inception_3a/5x5
I0403 19:32:48.972458 25057 net.cpp:425] inception_3a/output <- inception_3a/pool_proj
I0403 19:32:48.972482 25057 net.cpp:399] inception_3a/output -> inception_3a/output
I0403 19:32:48.972535 25057 net.cpp:141] Setting up inception_3a/output
I0403 19:32:48.972566 25057 net.cpp:148] Top shape: 24 256 28 28 (4816896)
I0403 19:32:48.972585 25057 net.cpp:156] Memory required for data: 580437024
I0403 19:32:48.972601 25057 layer_factory.hpp:77] Creating layer inception_3a/output_inception_3a/output_0_split
I0403 19:32:48.972621 25057 net.cpp:91] Creating Layer inception_3a/output_inception_3a/output_0_split
I0403 19:32:48.972638 25057 net.cpp:425] inception_3a/output_inception_3a/output_0_split <- inception_3a/output
I0403 19:32:48.972657 25057 net.cpp:399] inception_3a/output_inception_3a/output_0_split -> inception_3a/output_inception_3a/output_0_split_0
I0403 19:32:48.972679 25057 net.cpp:399] inception_3a/output_inception_3a/output_0_split -> inception_3a/output_inception_3a/output_0_split_1
I0403 19:32:48.972708 25057 net.cpp:399] inception_3a/output_inception_3a/output_0_split -> inception_3a/output_inception_3a/output_0_split_2
I0403 19:32:48.972735 25057 net.cpp:399] inception_3a/output_inception_3a/output_0_split -> inception_3a/output_inception_3a/output_0_split_3
I0403 19:32:48.972813 25057 net.cpp:141] Setting up inception_3a/output_inception_3a/output_0_split
I0403 19:32:48.972843 25057 net.cpp:148] Top shape: 24 256 28 28 (4816896)
I0403 19:32:48.972862 25057 net.cpp:148] Top shape: 24 256 28 28 (4816896)
I0403 19:32:48.972882 25057 net.cpp:148] Top shape: 24 256 28 28 (4816896)
I0403 19:32:48.972899 25057 net.cpp:148] Top shape: 24 256 28 28 (4816896)
I0403 19:32:48.972915 25057 net.cpp:156] Memory required for data: 657507360
I0403 19:32:48.972929 25057 layer_factory.hpp:77] Creating layer inception_3b/1x1
I0403 19:32:48.972954 25057 net.cpp:91] Creating Layer inception_3b/1x1
I0403 19:32:48.972975 25057 net.cpp:425] inception_3b/1x1 <- inception_3a/output_inception_3a/output_0_split_0
I0403 19:32:48.972996 25057 net.cpp:399] inception_3b/1x1 -> inception_3b/1x1
I0403 19:32:48.974148 25057 net.cpp:141] Setting up inception_3b/1x1
I0403 19:32:48.974192 25057 net.cpp:148] Top shape: 24 128 28 28 (2408448)
I0403 19:32:48.974212 25057 net.cpp:156] Memory required for data: 667141152
I0403 19:32:48.974231 25057 layer_factory.hpp:77] Creating layer inception_3b/relu_1x1
I0403 19:32:48.974267 25057 net.cpp:91] Creating Layer inception_3b/relu_1x1
I0403 19:32:48.974290 25057 net.cpp:425] inception_3b/relu_1x1 <- inception_3b/1x1
I0403 19:32:48.974313 25057 net.cpp:386] inception_3b/relu_1x1 -> inception_3b/1x1 (in-place)
I0403 19:32:48.974495 25057 net.cpp:141] Setting up inception_3b/relu_1x1
I0403 19:32:48.974536 25057 net.cpp:148] Top shape: 24 128 28 28 (2408448)
I0403 19:32:48.974555 25057 net.cpp:156] Memory required for data: 676774944
I0403 19:32:48.974581 25057 layer_factory.hpp:77] Creating layer inception_3b/3x3_reduce
I0403 19:32:48.974607 25057 net.cpp:91] Creating Layer inception_3b/3x3_reduce
I0403 19:32:48.974629 25057 net.cpp:425] inception_3b/3x3_reduce <- inception_3a/output_inception_3a/output_0_split_1
I0403 19:32:48.974653 25057 net.cpp:399] inception_3b/3x3_reduce -> inception_3b/3x3_reduce
I0403 19:32:48.975777 25057 net.cpp:141] Setting up inception_3b/3x3_reduce
I0403 19:32:48.975811 25057 net.cpp:148] Top shape: 24 128 28 28 (2408448)
I0403 19:32:48.975831 25057 net.cpp:156] Memory required for data: 686408736
I0403 19:32:48.975850 25057 layer_factory.hpp:77] Creating layer inception_3b/relu_3x3_reduce
I0403 19:32:48.975872 25057 net.cpp:91] Creating Layer inception_3b/relu_3x3_reduce
I0403 19:32:48.975890 25057 net.cpp:425] inception_3b/relu_3x3_reduce <- inception_3b/3x3_reduce
I0403 19:32:48.975908 25057 net.cpp:386] inception_3b/relu_3x3_reduce -> inception_3b/3x3_reduce (in-place)
I0403 19:32:48.976079 25057 net.cpp:141] Setting up inception_3b/relu_3x3_reduce
I0403 19:32:48.976111 25057 net.cpp:148] Top shape: 24 128 28 28 (2408448)
I0403 19:32:48.976130 25057 net.cpp:156] Memory required for data: 696042528
I0403 19:32:48.976146 25057 layer_factory.hpp:77] Creating layer inception_3b/3x3
I0403 19:32:48.976173 25057 net.cpp:91] Creating Layer inception_3b/3x3
I0403 19:32:48.976193 25057 net.cpp:425] inception_3b/3x3 <- inception_3b/3x3_reduce
I0403 19:32:48.976217 25057 net.cpp:399] inception_3b/3x3 -> inception_3b/3x3
I0403 19:32:48.979151 25057 net.cpp:141] Setting up inception_3b/3x3
I0403 19:32:48.979183 25057 net.cpp:148] Top shape: 24 192 28 28 (3612672)
I0403 19:32:48.979202 25057 net.cpp:156] Memory required for data: 710493216
I0403 19:32:48.979221 25057 layer_factory.hpp:77] Creating layer inception_3b/relu_3x3
I0403 19:32:48.979240 25057 net.cpp:91] Creating Layer inception_3b/relu_3x3
I0403 19:32:48.979264 25057 net.cpp:425] inception_3b/relu_3x3 <- inception_3b/3x3
I0403 19:32:48.979288 25057 net.cpp:386] inception_3b/relu_3x3 -> inception_3b/3x3 (in-place)
I0403 19:32:48.979563 25057 net.cpp:141] Setting up inception_3b/relu_3x3
I0403 19:32:48.979593 25057 net.cpp:148] Top shape: 24 192 28 28 (3612672)
I0403 19:32:48.979611 25057 net.cpp:156] Memory required for data: 724943904
I0403 19:32:48.979629 25057 layer_factory.hpp:77] Creating layer inception_3b/5x5_reduce
I0403 19:32:48.979652 25057 net.cpp:91] Creating Layer inception_3b/5x5_reduce
I0403 19:32:48.979673 25057 net.cpp:425] inception_3b/5x5_reduce <- inception_3a/output_inception_3a/output_0_split_2
I0403 19:32:48.979698 25057 net.cpp:399] inception_3b/5x5_reduce -> inception_3b/5x5_reduce
I0403 19:32:48.980680 25057 net.cpp:141] Setting up inception_3b/5x5_reduce
I0403 19:32:48.980710 25057 net.cpp:148] Top shape: 24 32 28 28 (602112)
I0403 19:32:48.980727 25057 net.cpp:156] Memory required for data: 727352352
I0403 19:32:48.980748 25057 layer_factory.hpp:77] Creating layer inception_3b/relu_5x5_reduce
I0403 19:32:48.980768 25057 net.cpp:91] Creating Layer inception_3b/relu_5x5_reduce
I0403 19:32:48.980787 25057 net.cpp:425] inception_3b/relu_5x5_reduce <- inception_3b/5x5_reduce
I0403 19:32:48.980808 25057 net.cpp:386] inception_3b/relu_5x5_reduce -> inception_3b/5x5_reduce (in-place)
I0403 19:32:48.981004 25057 net.cpp:141] Setting up inception_3b/relu_5x5_reduce
I0403 19:32:48.981032 25057 net.cpp:148] Top shape: 24 32 28 28 (602112)
I0403 19:32:48.981050 25057 net.cpp:156] Memory required for data: 729760800
I0403 19:32:48.981065 25057 layer_factory.hpp:77] Creating layer inception_3b/5x5
I0403 19:32:48.981089 25057 net.cpp:91] Creating Layer inception_3b/5x5
I0403 19:32:48.981109 25057 net.cpp:425] inception_3b/5x5 <- inception_3b/5x5_reduce
I0403 19:32:48.981132 25057 net.cpp:399] inception_3b/5x5 -> inception_3b/5x5
I0403 19:32:48.983129 25057 net.cpp:141] Setting up inception_3b/5x5
I0403 19:32:48.983165 25057 net.cpp:148] Top shape: 24 96 28 28 (1806336)
I0403 19:32:48.983186 25057 net.cpp:156] Memory required for data: 736986144
I0403 19:32:48.983204 25057 layer_factory.hpp:77] Creating layer inception_3b/relu_5x5
I0403 19:32:48.983225 25057 net.cpp:91] Creating Layer inception_3b/relu_5x5
I0403 19:32:48.983243 25057 net.cpp:425] inception_3b/relu_5x5 <- inception_3b/5x5
I0403 19:32:48.983268 25057 net.cpp:386] inception_3b/relu_5x5 -> inception_3b/5x5 (in-place)
I0403 19:32:48.983464 25057 net.cpp:141] Setting up inception_3b/relu_5x5
I0403 19:32:48.983494 25057 net.cpp:148] Top shape: 24 96 28 28 (1806336)
I0403 19:32:48.983511 25057 net.cpp:156] Memory required for data: 744211488
I0403 19:32:48.983527 25057 layer_factory.hpp:77] Creating layer inception_3b/pool
I0403 19:32:48.983547 25057 net.cpp:91] Creating Layer inception_3b/pool
I0403 19:32:48.983567 25057 net.cpp:425] inception_3b/pool <- inception_3a/output_inception_3a/output_0_split_3
I0403 19:32:48.983587 25057 net.cpp:399] inception_3b/pool -> inception_3b/pool
I0403 19:32:48.983644 25057 net.cpp:141] Setting up inception_3b/pool
I0403 19:32:48.983672 25057 net.cpp:148] Top shape: 24 256 28 28 (4816896)
I0403 19:32:48.983690 25057 net.cpp:156] Memory required for data: 763479072
I0403 19:32:48.983707 25057 layer_factory.hpp:77] Creating layer inception_3b/pool_proj
I0403 19:32:48.983731 25057 net.cpp:91] Creating Layer inception_3b/pool_proj
I0403 19:32:48.983750 25057 net.cpp:425] inception_3b/pool_proj <- inception_3b/pool
I0403 19:32:48.983770 25057 net.cpp:399] inception_3b/pool_proj -> inception_3b/pool_proj
I0403 19:32:48.984822 25057 net.cpp:141] Setting up inception_3b/pool_proj
I0403 19:32:48.984850 25057 net.cpp:148] Top shape: 24 64 28 28 (1204224)
I0403 19:32:48.984869 25057 net.cpp:156] Memory required for data: 768295968
I0403 19:32:48.984889 25057 layer_factory.hpp:77] Creating layer inception_3b/relu_pool_proj
I0403 19:32:48.984911 25057 net.cpp:91] Creating Layer inception_3b/relu_pool_proj
I0403 19:32:48.984931 25057 net.cpp:425] inception_3b/relu_pool_proj <- inception_3b/pool_proj
I0403 19:32:48.984951 25057 net.cpp:386] inception_3b/relu_pool_proj -> inception_3b/pool_proj (in-place)
I0403 19:32:48.985327 25057 net.cpp:141] Setting up inception_3b/relu_pool_proj
I0403 19:32:48.985355 25057 net.cpp:148] Top shape: 24 64 28 28 (1204224)
I0403 19:32:48.985371 25057 net.cpp:156] Memory required for data: 773112864
I0403 19:32:48.985388 25057 layer_factory.hpp:77] Creating layer inception_3b/output
I0403 19:32:48.985409 25057 net.cpp:91] Creating Layer inception_3b/output
I0403 19:32:48.985426 25057 net.cpp:425] inception_3b/output <- inception_3b/1x1
I0403 19:32:48.985445 25057 net.cpp:425] inception_3b/output <- inception_3b/3x3
I0403 19:32:48.985462 25057 net.cpp:425] inception_3b/output <- inception_3b/5x5
I0403 19:32:48.985481 25057 net.cpp:425] inception_3b/output <- inception_3b/pool_proj
I0403 19:32:48.985501 25057 net.cpp:399] inception_3b/output -> inception_3b/output
I0403 19:32:48.985560 25057 net.cpp:141] Setting up inception_3b/output
I0403 19:32:48.985589 25057 net.cpp:148] Top shape: 24 480 28 28 (9031680)
I0403 19:32:48.985610 25057 net.cpp:156] Memory required for data: 809239584
I0403 19:32:48.985627 25057 layer_factory.hpp:77] Creating layer pool3/3x3_s2
I0403 19:32:48.985647 25057 net.cpp:91] Creating Layer pool3/3x3_s2
I0403 19:32:48.985666 25057 net.cpp:425] pool3/3x3_s2 <- inception_3b/output
I0403 19:32:48.985704 25057 net.cpp:399] pool3/3x3_s2 -> pool3/3x3_s2
I0403 19:32:48.985769 25057 net.cpp:141] Setting up pool3/3x3_s2
I0403 19:32:48.985795 25057 net.cpp:148] Top shape: 24 480 14 14 (2257920)
I0403 19:32:48.985826 25057 net.cpp:156] Memory required for data: 818271264
I0403 19:32:48.985841 25057 layer_factory.hpp:77] Creating layer pool3/3x3_s2_pool3/3x3_s2_0_split
I0403 19:32:48.985863 25057 net.cpp:91] Creating Layer pool3/3x3_s2_pool3/3x3_s2_0_split
I0403 19:32:48.985882 25057 net.cpp:425] pool3/3x3_s2_pool3/3x3_s2_0_split <- pool3/3x3_s2
I0403 19:32:48.985900 25057 net.cpp:399] pool3/3x3_s2_pool3/3x3_s2_0_split -> pool3/3x3_s2_pool3/3x3_s2_0_split_0
I0403 19:32:48.985924 25057 net.cpp:399] pool3/3x3_s2_pool3/3x3_s2_0_split -> pool3/3x3_s2_pool3/3x3_s2_0_split_1
I0403 19:32:48.985949 25057 net.cpp:399] pool3/3x3_s2_pool3/3x3_s2_0_split -> pool3/3x3_s2_pool3/3x3_s2_0_split_2
I0403 19:32:48.985970 25057 net.cpp:399] pool3/3x3_s2_pool3/3x3_s2_0_split -> pool3/3x3_s2_pool3/3x3_s2_0_split_3
I0403 19:32:48.986047 25057 net.cpp:141] Setting up pool3/3x3_s2_pool3/3x3_s2_0_split
I0403 19:32:48.986073 25057 net.cpp:148] Top shape: 24 480 14 14 (2257920)
I0403 19:32:48.986090 25057 net.cpp:148] Top shape: 24 480 14 14 (2257920)
I0403 19:32:48.986109 25057 net.cpp:148] Top shape: 24 480 14 14 (2257920)
I0403 19:32:48.986124 25057 net.cpp:148] Top shape: 24 480 14 14 (2257920)
I0403 19:32:48.986140 25057 net.cpp:156] Memory required for data: 854397984
I0403 19:32:48.986155 25057 layer_factory.hpp:77] Creating layer inception_4a/1x1
I0403 19:32:48.986181 25057 net.cpp:91] Creating Layer inception_4a/1x1
I0403 19:32:48.986201 25057 net.cpp:425] inception_4a/1x1 <- pool3/3x3_s2_pool3/3x3_s2_0_split_0
I0403 19:32:48.986224 25057 net.cpp:399] inception_4a/1x1 -> inception_4a/1x1
I0403 19:32:48.987809 25057 net.cpp:141] Setting up inception_4a/1x1
I0403 19:32:48.987841 25057 net.cpp:148] Top shape: 24 192 14 14 (903168)
I0403 19:32:48.987859 25057 net.cpp:156] Memory required for data: 858010656
I0403 19:32:48.987879 25057 layer_factory.hpp:77] Creating layer inception_4a/relu_1x1
I0403 19:32:48.987901 25057 net.cpp:91] Creating Layer inception_4a/relu_1x1
I0403 19:32:48.987921 25057 net.cpp:425] inception_4a/relu_1x1 <- inception_4a/1x1
I0403 19:32:48.987941 25057 net.cpp:386] inception_4a/relu_1x1 -> inception_4a/1x1 (in-place)
I0403 19:32:48.988118 25057 net.cpp:141] Setting up inception_4a/relu_1x1
I0403 19:32:48.988150 25057 net.cpp:148] Top shape: 24 192 14 14 (903168)
I0403 19:32:48.988168 25057 net.cpp:156] Memory required for data: 861623328
I0403 19:32:48.988185 25057 layer_factory.hpp:77] Creating layer inception_4a/3x3_reduce
I0403 19:32:48.988209 25057 net.cpp:91] Creating Layer inception_4a/3x3_reduce
I0403 19:32:48.988229 25057 net.cpp:425] inception_4a/3x3_reduce <- pool3/3x3_s2_pool3/3x3_s2_0_split_1
I0403 19:32:48.988251 25057 net.cpp:399] inception_4a/3x3_reduce -> inception_4a/3x3_reduce
I0403 19:32:48.989509 25057 net.cpp:141] Setting up inception_4a/3x3_reduce
I0403 19:32:48.989552 25057 net.cpp:148] Top shape: 24 96 14 14 (451584)
I0403 19:32:48.989570 25057 net.cpp:156] Memory required for data: 863429664
I0403 19:32:48.989598 25057 layer_factory.hpp:77] Creating layer inception_4a/relu_3x3_reduce
I0403 19:32:48.989621 25057 net.cpp:91] Creating Layer inception_4a/relu_3x3_reduce
I0403 19:32:48.989641 25057 net.cpp:425] inception_4a/relu_3x3_reduce <- inception_4a/3x3_reduce
I0403 19:32:48.989660 25057 net.cpp:386] inception_4a/relu_3x3_reduce -> inception_4a/3x3_reduce (in-place)
I0403 19:32:48.989851 25057 net.cpp:141] Setting up inception_4a/relu_3x3_reduce
I0403 19:32:48.989879 25057 net.cpp:148] Top shape: 24 96 14 14 (451584)
I0403 19:32:48.989897 25057 net.cpp:156] Memory required for data: 865236000
I0403 19:32:48.989914 25057 layer_factory.hpp:77] Creating layer inception_4a/3x3
I0403 19:32:48.989939 25057 net.cpp:91] Creating Layer inception_4a/3x3
I0403 19:32:48.989960 25057 net.cpp:425] inception_4a/3x3 <- inception_4a/3x3_reduce
I0403 19:32:48.989981 25057 net.cpp:399] inception_4a/3x3 -> inception_4a/3x3
I0403 19:32:48.992652 25057 net.cpp:141] Setting up inception_4a/3x3
I0403 19:32:48.992686 25057 net.cpp:148] Top shape: 24 208 14 14 (978432)
I0403 19:32:48.992707 25057 net.cpp:156] Memory required for data: 869149728
I0403 19:32:48.992727 25057 layer_factory.hpp:77] Creating layer inception_4a/relu_3x3
I0403 19:32:48.992748 25057 net.cpp:91] Creating Layer inception_4a/relu_3x3
I0403 19:32:48.992764 25057 net.cpp:425] inception_4a/relu_3x3 <- inception_4a/3x3
I0403 19:32:48.992782 25057 net.cpp:386] inception_4a/relu_3x3 -> inception_4a/3x3 (in-place)
I0403 19:32:48.993060 25057 net.cpp:141] Setting up inception_4a/relu_3x3
I0403 19:32:48.993093 25057 net.cpp:148] Top shape: 24 208 14 14 (978432)
I0403 19:32:48.993111 25057 net.cpp:156] Memory required for data: 873063456
I0403 19:32:48.993127 25057 layer_factory.hpp:77] Creating layer inception_4a/5x5_reduce
I0403 19:32:48.993152 25057 net.cpp:91] Creating Layer inception_4a/5x5_reduce
I0403 19:32:48.993173 25057 net.cpp:425] inception_4a/5x5_reduce <- pool3/3x3_s2_pool3/3x3_s2_0_split_2
I0403 19:32:48.993196 25057 net.cpp:399] inception_4a/5x5_reduce -> inception_4a/5x5_reduce
I0403 19:32:48.994223 25057 net.cpp:141] Setting up inception_4a/5x5_reduce
I0403 19:32:48.994268 25057 net.cpp:148] Top shape: 24 16 14 14 (75264)
I0403 19:32:48.994290 25057 net.cpp:156] Memory required for data: 873364512
I0403 19:32:48.994313 25057 layer_factory.hpp:77] Creating layer inception_4a/relu_5x5_reduce
I0403 19:32:48.994333 25057 net.cpp:91] Creating Layer inception_4a/relu_5x5_reduce
I0403 19:32:48.994351 25057 net.cpp:425] inception_4a/relu_5x5_reduce <- inception_4a/5x5_reduce
I0403 19:32:48.994372 25057 net.cpp:386] inception_4a/relu_5x5_reduce -> inception_4a/5x5_reduce (in-place)
I0403 19:32:48.994550 25057 net.cpp:141] Setting up inception_4a/relu_5x5_reduce
I0403 19:32:48.994580 25057 net.cpp:148] Top shape: 24 16 14 14 (75264)
I0403 19:32:48.994598 25057 net.cpp:156] Memory required for data: 873665568
I0403 19:32:48.994614 25057 layer_factory.hpp:77] Creating layer inception_4a/5x5
I0403 19:32:48.994638 25057 net.cpp:91] Creating Layer inception_4a/5x5
I0403 19:32:48.994659 25057 net.cpp:425] inception_4a/5x5 <- inception_4a/5x5_reduce
I0403 19:32:48.994683 25057 net.cpp:399] inception_4a/5x5 -> inception_4a/5x5
I0403 19:32:48.995766 25057 net.cpp:141] Setting up inception_4a/5x5
I0403 19:32:48.995800 25057 net.cpp:148] Top shape: 24 48 14 14 (225792)
I0403 19:32:48.995818 25057 net.cpp:156] Memory required for data: 874568736
I0403 19:32:48.995837 25057 layer_factory.hpp:77] Creating layer inception_4a/relu_5x5
I0403 19:32:48.995859 25057 net.cpp:91] Creating Layer inception_4a/relu_5x5
I0403 19:32:48.995878 25057 net.cpp:425] inception_4a/relu_5x5 <- inception_4a/5x5
I0403 19:32:48.995901 25057 net.cpp:386] inception_4a/relu_5x5 -> inception_4a/5x5 (in-place)
I0403 19:32:48.996079 25057 net.cpp:141] Setting up inception_4a/relu_5x5
I0403 19:32:48.996110 25057 net.cpp:148] Top shape: 24 48 14 14 (225792)
I0403 19:32:48.996127 25057 net.cpp:156] Memory required for data: 875471904
I0403 19:32:48.996145 25057 layer_factory.hpp:77] Creating layer inception_4a/pool
I0403 19:32:48.996165 25057 net.cpp:91] Creating Layer inception_4a/pool
I0403 19:32:48.996186 25057 net.cpp:425] inception_4a/pool <- pool3/3x3_s2_pool3/3x3_s2_0_split_3
I0403 19:32:48.996207 25057 net.cpp:399] inception_4a/pool -> inception_4a/pool
I0403 19:32:48.996296 25057 net.cpp:141] Setting up inception_4a/pool
I0403 19:32:48.996328 25057 net.cpp:148] Top shape: 24 480 14 14 (2257920)
I0403 19:32:48.996345 25057 net.cpp:156] Memory required for data: 884503584
I0403 19:32:48.996361 25057 layer_factory.hpp:77] Creating layer inception_4a/pool_proj
I0403 19:32:48.996386 25057 net.cpp:91] Creating Layer inception_4a/pool_proj
I0403 19:32:48.996405 25057 net.cpp:425] inception_4a/pool_proj <- inception_4a/pool
I0403 19:32:48.996430 25057 net.cpp:399] inception_4a/pool_proj -> inception_4a/pool_proj
I0403 19:32:48.997609 25057 net.cpp:141] Setting up inception_4a/pool_proj
I0403 19:32:48.997642 25057 net.cpp:148] Top shape: 24 64 14 14 (301056)
I0403 19:32:48.997675 25057 net.cpp:156] Memory required for data: 885707808
I0403 19:32:48.997697 25057 layer_factory.hpp:77] Creating layer inception_4a/relu_pool_proj
I0403 19:32:48.997720 25057 net.cpp:91] Creating Layer inception_4a/relu_pool_proj
I0403 19:32:48.997740 25057 net.cpp:425] inception_4a/relu_pool_proj <- inception_4a/pool_proj
I0403 19:32:48.997759 25057 net.cpp:386] inception_4a/relu_pool_proj -> inception_4a/pool_proj (in-place)
I0403 19:32:48.998039 25057 net.cpp:141] Setting up inception_4a/relu_pool_proj
I0403 19:32:48.998072 25057 net.cpp:148] Top shape: 24 64 14 14 (301056)
I0403 19:32:48.998090 25057 net.cpp:156] Memory required for data: 886912032
I0403 19:32:48.998106 25057 layer_factory.hpp:77] Creating layer inception_4a/output
I0403 19:32:48.998126 25057 net.cpp:91] Creating Layer inception_4a/output
I0403 19:32:48.998142 25057 net.cpp:425] inception_4a/output <- inception_4a/1x1
I0403 19:32:48.998163 25057 net.cpp:425] inception_4a/output <- inception_4a/3x3
I0403 19:32:48.998184 25057 net.cpp:425] inception_4a/output <- inception_4a/5x5
I0403 19:32:48.998203 25057 net.cpp:425] inception_4a/output <- inception_4a/pool_proj
I0403 19:32:48.998222 25057 net.cpp:399] inception_4a/output -> inception_4a/output
I0403 19:32:48.998276 25057 net.cpp:141] Setting up inception_4a/output
I0403 19:32:48.998306 25057 net.cpp:148] Top shape: 24 512 14 14 (2408448)
I0403 19:32:48.998322 25057 net.cpp:156] Memory required for data: 896545824
I0403 19:32:48.998338 25057 layer_factory.hpp:77] Creating layer inception_4a/output_inception_4a/output_0_split
I0403 19:32:48.998358 25057 net.cpp:91] Creating Layer inception_4a/output_inception_4a/output_0_split
I0403 19:32:48.998376 25057 net.cpp:425] inception_4a/output_inception_4a/output_0_split <- inception_4a/output
I0403 19:32:48.998399 25057 net.cpp:399] inception_4a/output_inception_4a/output_0_split -> inception_4a/output_inception_4a/output_0_split_0
I0403 19:32:48.998422 25057 net.cpp:399] inception_4a/output_inception_4a/output_0_split -> inception_4a/output_inception_4a/output_0_split_1
I0403 19:32:48.998445 25057 net.cpp:399] inception_4a/output_inception_4a/output_0_split -> inception_4a/output_inception_4a/output_0_split_2
I0403 19:32:48.998466 25057 net.cpp:399] inception_4a/output_inception_4a/output_0_split -> inception_4a/output_inception_4a/output_0_split_3
I0403 19:32:48.998489 25057 net.cpp:399] inception_4a/output_inception_4a/output_0_split -> inception_4a/output_inception_4a/output_0_split_4
I0403 19:32:48.998585 25057 net.cpp:141] Setting up inception_4a/output_inception_4a/output_0_split
I0403 19:32:48.998613 25057 net.cpp:148] Top shape: 24 512 14 14 (2408448)
I0403 19:32:48.998631 25057 net.cpp:148] Top shape: 24 512 14 14 (2408448)
I0403 19:32:48.998646 25057 net.cpp:148] Top shape: 24 512 14 14 (2408448)
I0403 19:32:48.998663 25057 net.cpp:148] Top shape: 24 512 14 14 (2408448)
I0403 19:32:48.998678 25057 net.cpp:148] Top shape: 24 512 14 14 (2408448)
I0403 19:32:48.998692 25057 net.cpp:156] Memory required for data: 944714784
I0403 19:32:48.998708 25057 layer_factory.hpp:77] Creating layer loss1/ave_pool
I0403 19:32:48.998725 25057 net.cpp:91] Creating Layer loss1/ave_pool
I0403 19:32:48.998741 25057 net.cpp:425] loss1/ave_pool <- inception_4a/output_inception_4a/output_0_split_0
I0403 19:32:48.998762 25057 net.cpp:399] loss1/ave_pool -> loss1/ave_pool
I0403 19:32:48.998972 25057 net.cpp:141] Setting up loss1/ave_pool
I0403 19:32:48.998999 25057 net.cpp:148] Top shape: 24 512 4 4 (196608)
I0403 19:32:48.999016 25057 net.cpp:156] Memory required for data: 945501216
I0403 19:32:48.999032 25057 layer_factory.hpp:77] Creating layer loss1/conv
I0403 19:32:48.999054 25057 net.cpp:91] Creating Layer loss1/conv
I0403 19:32:48.999073 25057 net.cpp:425] loss1/conv <- loss1/ave_pool
I0403 19:32:48.999094 25057 net.cpp:399] loss1/conv -> loss1/conv
I0403 19:32:49.000533 25057 net.cpp:141] Setting up loss1/conv
I0403 19:32:49.000566 25057 net.cpp:148] Top shape: 24 128 4 4 (49152)
I0403 19:32:49.000598 25057 net.cpp:156] Memory required for data: 945697824
I0403 19:32:49.000619 25057 layer_factory.hpp:77] Creating layer loss1/relu_conv
I0403 19:32:49.000639 25057 net.cpp:91] Creating Layer loss1/relu_conv
I0403 19:32:49.000656 25057 net.cpp:425] loss1/relu_conv <- loss1/conv
I0403 19:32:49.000674 25057 net.cpp:386] loss1/relu_conv -> loss1/conv (in-place)
I0403 19:32:49.000962 25057 net.cpp:141] Setting up loss1/relu_conv
I0403 19:32:49.000993 25057 net.cpp:148] Top shape: 24 128 4 4 (49152)
I0403 19:32:49.001010 25057 net.cpp:156] Memory required for data: 945894432
I0403 19:32:49.001026 25057 layer_factory.hpp:77] Creating layer loss1/fc
I0403 19:32:49.001054 25057 net.cpp:91] Creating Layer loss1/fc
I0403 19:32:49.001073 25057 net.cpp:425] loss1/fc <- loss1/conv
I0403 19:32:49.001096 25057 net.cpp:399] loss1/fc -> loss1/fc
I0403 19:32:49.019260 25057 net.cpp:141] Setting up loss1/fc
I0403 19:32:49.019296 25057 net.cpp:148] Top shape: 24 1024 (24576)
I0403 19:32:49.019312 25057 net.cpp:156] Memory required for data: 945992736
I0403 19:32:49.019331 25057 layer_factory.hpp:77] Creating layer loss1/relu_fc
I0403 19:32:49.019353 25057 net.cpp:91] Creating Layer loss1/relu_fc
I0403 19:32:49.019371 25057 net.cpp:425] loss1/relu_fc <- loss1/fc
I0403 19:32:49.019389 25057 net.cpp:386] loss1/relu_fc -> loss1/fc (in-place)
I0403 19:32:49.019577 25057 net.cpp:141] Setting up loss1/relu_fc
I0403 19:32:49.019604 25057 net.cpp:148] Top shape: 24 1024 (24576)
I0403 19:32:49.019621 25057 net.cpp:156] Memory required for data: 946091040
I0403 19:32:49.019636 25057 layer_factory.hpp:77] Creating layer loss1/drop_fc
I0403 19:32:49.019665 25057 net.cpp:91] Creating Layer loss1/drop_fc
I0403 19:32:49.019682 25057 net.cpp:425] loss1/drop_fc <- loss1/fc
I0403 19:32:49.019701 25057 net.cpp:386] loss1/drop_fc -> loss1/fc (in-place)
I0403 19:32:49.019757 25057 net.cpp:141] Setting up loss1/drop_fc
I0403 19:32:49.019781 25057 net.cpp:148] Top shape: 24 1024 (24576)
I0403 19:32:49.019798 25057 net.cpp:156] Memory required for data: 946189344
I0403 19:32:49.019812 25057 layer_factory.hpp:77] Creating layer loss1/classifier_plantvillage
I0403 19:32:49.019834 25057 net.cpp:91] Creating Layer loss1/classifier_plantvillage
I0403 19:32:49.019852 25057 net.cpp:425] loss1/classifier_plantvillage <- loss1/fc
I0403 19:32:49.019871 25057 net.cpp:399] loss1/classifier_plantvillage -> loss1/classifier_plantvillage
I0403 19:32:49.020753 25057 net.cpp:141] Setting up loss1/classifier_plantvillage
I0403 19:32:49.020784 25057 net.cpp:148] Top shape: 24 38 (912)
I0403 19:32:49.020802 25057 net.cpp:156] Memory required for data: 946192992
I0403 19:32:49.020819 25057 layer_factory.hpp:77] Creating layer loss1/classifier_plantvillage_loss1/classifier_plantvillage_0_split
I0403 19:32:49.020838 25057 net.cpp:91] Creating Layer loss1/classifier_plantvillage_loss1/classifier_plantvillage_0_split
I0403 19:32:49.020855 25057 net.cpp:425] loss1/classifier_plantvillage_loss1/classifier_plantvillage_0_split <- loss1/classifier_plantvillage
I0403 19:32:49.020874 25057 net.cpp:399] loss1/classifier_plantvillage_loss1/classifier_plantvillage_0_split -> loss1/classifier_plantvillage_loss1/classifier_plantvillage_0_split_0
I0403 19:32:49.020895 25057 net.cpp:399] loss1/classifier_plantvillage_loss1/classifier_plantvillage_0_split -> loss1/classifier_plantvillage_loss1/classifier_plantvillage_0_split_1
I0403 19:32:49.020915 25057 net.cpp:399] loss1/classifier_plantvillage_loss1/classifier_plantvillage_0_split -> loss1/classifier_plantvillage_loss1/classifier_plantvillage_0_split_2
I0403 19:32:49.020982 25057 net.cpp:141] Setting up loss1/classifier_plantvillage_loss1/classifier_plantvillage_0_split
I0403 19:32:49.021006 25057 net.cpp:148] Top shape: 24 38 (912)
I0403 19:32:49.021023 25057 net.cpp:148] Top shape: 24 38 (912)
I0403 19:32:49.021039 25057 net.cpp:148] Top shape: 24 38 (912)
I0403 19:32:49.021054 25057 net.cpp:156] Memory required for data: 946203936
I0403 19:32:49.021067 25057 layer_factory.hpp:77] Creating layer inception_4b/1x1
I0403 19:32:49.021088 25057 net.cpp:91] Creating Layer inception_4b/1x1
I0403 19:32:49.021122 25057 net.cpp:425] inception_4b/1x1 <- inception_4a/output_inception_4a/output_0_split_1
I0403 19:32:49.021145 25057 net.cpp:399] inception_4b/1x1 -> inception_4b/1x1
I0403 19:32:49.022763 25057 net.cpp:141] Setting up inception_4b/1x1
I0403 19:32:49.022794 25057 net.cpp:148] Top shape: 24 160 14 14 (752640)
I0403 19:32:49.022811 25057 net.cpp:156] Memory required for data: 949214496
I0403 19:32:49.022830 25057 layer_factory.hpp:77] Creating layer inception_4b/relu_1x1
I0403 19:32:49.022848 25057 net.cpp:91] Creating Layer inception_4b/relu_1x1
I0403 19:32:49.022864 25057 net.cpp:425] inception_4b/relu_1x1 <- inception_4b/1x1
I0403 19:32:49.022882 25057 net.cpp:386] inception_4b/relu_1x1 -> inception_4b/1x1 (in-place)
I0403 19:32:49.023064 25057 net.cpp:141] Setting up inception_4b/relu_1x1
I0403 19:32:49.023090 25057 net.cpp:148] Top shape: 24 160 14 14 (752640)
I0403 19:32:49.023105 25057 net.cpp:156] Memory required for data: 952225056
I0403 19:32:49.023120 25057 layer_factory.hpp:77] Creating layer inception_4b/3x3_reduce
I0403 19:32:49.023144 25057 net.cpp:91] Creating Layer inception_4b/3x3_reduce
I0403 19:32:49.023161 25057 net.cpp:425] inception_4b/3x3_reduce <- inception_4a/output_inception_4a/output_0_split_2
I0403 19:32:49.023183 25057 net.cpp:399] inception_4b/3x3_reduce -> inception_4b/3x3_reduce
I0403 19:32:49.024576 25057 net.cpp:141] Setting up inception_4b/3x3_reduce
I0403 19:32:49.024606 25057 net.cpp:148] Top shape: 24 112 14 14 (526848)
I0403 19:32:49.024622 25057 net.cpp:156] Memory required for data: 954332448
I0403 19:32:49.024642 25057 layer_factory.hpp:77] Creating layer inception_4b/relu_3x3_reduce
I0403 19:32:49.024662 25057 net.cpp:91] Creating Layer inception_4b/relu_3x3_reduce
I0403 19:32:49.024682 25057 net.cpp:425] inception_4b/relu_3x3_reduce <- inception_4b/3x3_reduce
I0403 19:32:49.024701 25057 net.cpp:386] inception_4b/relu_3x3_reduce -> inception_4b/3x3_reduce (in-place)
I0403 19:32:49.024982 25057 net.cpp:141] Setting up inception_4b/relu_3x3_reduce
I0403 19:32:49.025009 25057 net.cpp:148] Top shape: 24 112 14 14 (526848)
I0403 19:32:49.025025 25057 net.cpp:156] Memory required for data: 956439840
I0403 19:32:49.025040 25057 layer_factory.hpp:77] Creating layer inception_4b/3x3
I0403 19:32:49.025064 25057 net.cpp:91] Creating Layer inception_4b/3x3
I0403 19:32:49.025084 25057 net.cpp:425] inception_4b/3x3 <- inception_4b/3x3_reduce
I0403 19:32:49.025106 25057 net.cpp:399] inception_4b/3x3 -> inception_4b/3x3
I0403 19:32:49.028095 25057 net.cpp:141] Setting up inception_4b/3x3
I0403 19:32:49.028125 25057 net.cpp:148] Top shape: 24 224 14 14 (1053696)
I0403 19:32:49.028141 25057 net.cpp:156] Memory required for data: 960654624
I0403 19:32:49.028161 25057 layer_factory.hpp:77] Creating layer inception_4b/relu_3x3
I0403 19:32:49.028182 25057 net.cpp:91] Creating Layer inception_4b/relu_3x3
I0403 19:32:49.028200 25057 net.cpp:425] inception_4b/relu_3x3 <- inception_4b/3x3
I0403 19:32:49.028218 25057 net.cpp:386] inception_4b/relu_3x3 -> inception_4b/3x3 (in-place)
I0403 19:32:49.028404 25057 net.cpp:141] Setting up inception_4b/relu_3x3
I0403 19:32:49.028434 25057 net.cpp:148] Top shape: 24 224 14 14 (1053696)
I0403 19:32:49.028451 25057 net.cpp:156] Memory required for data: 964869408
I0403 19:32:49.028467 25057 layer_factory.hpp:77] Creating layer inception_4b/5x5_reduce
I0403 19:32:49.028491 25057 net.cpp:91] Creating Layer inception_4b/5x5_reduce
I0403 19:32:49.028509 25057 net.cpp:425] inception_4b/5x5_reduce <- inception_4a/output_inception_4a/output_0_split_3
I0403 19:32:49.028530 25057 net.cpp:399] inception_4b/5x5_reduce -> inception_4b/5x5_reduce
I0403 19:32:49.029608 25057 net.cpp:141] Setting up inception_4b/5x5_reduce
I0403 19:32:49.029639 25057 net.cpp:148] Top shape: 24 24 14 14 (112896)
I0403 19:32:49.029657 25057 net.cpp:156] Memory required for data: 965320992
I0403 19:32:49.029676 25057 layer_factory.hpp:77] Creating layer inception_4b/relu_5x5_reduce
I0403 19:32:49.029696 25057 net.cpp:91] Creating Layer inception_4b/relu_5x5_reduce
I0403 19:32:49.029728 25057 net.cpp:425] inception_4b/relu_5x5_reduce <- inception_4b/5x5_reduce
I0403 19:32:49.029750 25057 net.cpp:386] inception_4b/relu_5x5_reduce -> inception_4b/5x5_reduce (in-place)
I0403 19:32:49.029935 25057 net.cpp:141] Setting up inception_4b/relu_5x5_reduce
I0403 19:32:49.029963 25057 net.cpp:148] Top shape: 24 24 14 14 (112896)
I0403 19:32:49.029978 25057 net.cpp:156] Memory required for data: 965772576
I0403 19:32:49.029994 25057 layer_factory.hpp:77] Creating layer inception_4b/5x5
I0403 19:32:49.030016 25057 net.cpp:91] Creating Layer inception_4b/5x5
I0403 19:32:49.030035 25057 net.cpp:425] inception_4b/5x5 <- inception_4b/5x5_reduce
I0403 19:32:49.030057 25057 net.cpp:399] inception_4b/5x5 -> inception_4b/5x5
I0403 19:32:49.031286 25057 net.cpp:141] Setting up inception_4b/5x5
I0403 19:32:49.031317 25057 net.cpp:148] Top shape: 24 64 14 14 (301056)
I0403 19:32:49.031334 25057 net.cpp:156] Memory required for data: 966976800
I0403 19:32:49.031353 25057 layer_factory.hpp:77] Creating layer inception_4b/relu_5x5
I0403 19:32:49.031373 25057 net.cpp:91] Creating Layer inception_4b/relu_5x5
I0403 19:32:49.031389 25057 net.cpp:425] inception_4b/relu_5x5 <- inception_4b/5x5
I0403 19:32:49.031407 25057 net.cpp:386] inception_4b/relu_5x5 -> inception_4b/5x5 (in-place)
I0403 19:32:49.031692 25057 net.cpp:141] Setting up inception_4b/relu_5x5
I0403 19:32:49.031721 25057 net.cpp:148] Top shape: 24 64 14 14 (301056)
I0403 19:32:49.031738 25057 net.cpp:156] Memory required for data: 968181024
I0403 19:32:49.031754 25057 layer_factory.hpp:77] Creating layer inception_4b/pool
I0403 19:32:49.031774 25057 net.cpp:91] Creating Layer inception_4b/pool
I0403 19:32:49.031790 25057 net.cpp:425] inception_4b/pool <- inception_4a/output_inception_4a/output_0_split_4
I0403 19:32:49.031813 25057 net.cpp:399] inception_4b/pool -> inception_4b/pool
I0403 19:32:49.031880 25057 net.cpp:141] Setting up inception_4b/pool
I0403 19:32:49.031905 25057 net.cpp:148] Top shape: 24 512 14 14 (2408448)
I0403 19:32:49.031921 25057 net.cpp:156] Memory required for data: 977814816
I0403 19:32:49.031936 25057 layer_factory.hpp:77] Creating layer inception_4b/pool_proj
I0403 19:32:49.031960 25057 net.cpp:91] Creating Layer inception_4b/pool_proj
I0403 19:32:49.031980 25057 net.cpp:425] inception_4b/pool_proj <- inception_4b/pool
I0403 19:32:49.032001 25057 net.cpp:399] inception_4b/pool_proj -> inception_4b/pool_proj
I0403 19:32:49.033195 25057 net.cpp:141] Setting up inception_4b/pool_proj
I0403 19:32:49.033222 25057 net.cpp:148] Top shape: 24 64 14 14 (301056)
I0403 19:32:49.033237 25057 net.cpp:156] Memory required for data: 979019040
I0403 19:32:49.033260 25057 layer_factory.hpp:77] Creating layer inception_4b/relu_pool_proj
I0403 19:32:49.033282 25057 net.cpp:91] Creating Layer inception_4b/relu_pool_proj
I0403 19:32:49.033298 25057 net.cpp:425] inception_4b/relu_pool_proj <- inception_4b/pool_proj
I0403 19:32:49.033319 25057 net.cpp:386] inception_4b/relu_pool_proj -> inception_4b/pool_proj (in-place)
I0403 19:32:49.033496 25057 net.cpp:141] Setting up inception_4b/relu_pool_proj
I0403 19:32:49.033522 25057 net.cpp:148] Top shape: 24 64 14 14 (301056)
I0403 19:32:49.033537 25057 net.cpp:156] Memory required for data: 980223264
I0403 19:32:49.033553 25057 layer_factory.hpp:77] Creating layer inception_4b/output
I0403 19:32:49.033571 25057 net.cpp:91] Creating Layer inception_4b/output
I0403 19:32:49.033589 25057 net.cpp:425] inception_4b/output <- inception_4b/1x1
I0403 19:32:49.033607 25057 net.cpp:425] inception_4b/output <- inception_4b/3x3
I0403 19:32:49.033622 25057 net.cpp:425] inception_4b/output <- inception_4b/5x5
I0403 19:32:49.033638 25057 net.cpp:425] inception_4b/output <- inception_4b/pool_proj
I0403 19:32:49.033656 25057 net.cpp:399] inception_4b/output -> inception_4b/output
I0403 19:32:49.033700 25057 net.cpp:141] Setting up inception_4b/output
I0403 19:32:49.033726 25057 net.cpp:148] Top shape: 24 512 14 14 (2408448)
I0403 19:32:49.033742 25057 net.cpp:156] Memory required for data: 989857056
I0403 19:32:49.033771 25057 layer_factory.hpp:77] Creating layer inception_4b/output_inception_4b/output_0_split
I0403 19:32:49.033790 25057 net.cpp:91] Creating Layer inception_4b/output_inception_4b/output_0_split
I0403 19:32:49.033805 25057 net.cpp:425] inception_4b/output_inception_4b/output_0_split <- inception_4b/output
I0403 19:32:49.033825 25057 net.cpp:399] inception_4b/output_inception_4b/output_0_split -> inception_4b/output_inception_4b/output_0_split_0
I0403 19:32:49.033846 25057 net.cpp:399] inception_4b/output_inception_4b/output_0_split -> inception_4b/output_inception_4b/output_0_split_1
I0403 19:32:49.033867 25057 net.cpp:399] inception_4b/output_inception_4b/output_0_split -> inception_4b/output_inception_4b/output_0_split_2
I0403 19:32:49.033887 25057 net.cpp:399] inception_4b/output_inception_4b/output_0_split -> inception_4b/output_inception_4b/output_0_split_3
I0403 19:32:49.033972 25057 net.cpp:141] Setting up inception_4b/output_inception_4b/output_0_split
I0403 19:32:49.033998 25057 net.cpp:148] Top shape: 24 512 14 14 (2408448)
I0403 19:32:49.034015 25057 net.cpp:148] Top shape: 24 512 14 14 (2408448)
I0403 19:32:49.034032 25057 net.cpp:148] Top shape: 24 512 14 14 (2408448)
I0403 19:32:49.034047 25057 net.cpp:148] Top shape: 24 512 14 14 (2408448)
I0403 19:32:49.034061 25057 net.cpp:156] Memory required for data: 1028392224
I0403 19:32:49.034076 25057 layer_factory.hpp:77] Creating layer inception_4c/1x1
I0403 19:32:49.034099 25057 net.cpp:91] Creating Layer inception_4c/1x1
I0403 19:32:49.034118 25057 net.cpp:425] inception_4c/1x1 <- inception_4b/output_inception_4b/output_0_split_0
I0403 19:32:49.034138 25057 net.cpp:399] inception_4c/1x1 -> inception_4c/1x1
I0403 19:32:49.035542 25057 net.cpp:141] Setting up inception_4c/1x1
I0403 19:32:49.035569 25057 net.cpp:148] Top shape: 24 128 14 14 (602112)
I0403 19:32:49.035585 25057 net.cpp:156] Memory required for data: 1030800672
I0403 19:32:49.035604 25057 layer_factory.hpp:77] Creating layer inception_4c/relu_1x1
I0403 19:32:49.035625 25057 net.cpp:91] Creating Layer inception_4c/relu_1x1
I0403 19:32:49.035642 25057 net.cpp:425] inception_4c/relu_1x1 <- inception_4c/1x1
I0403 19:32:49.035661 25057 net.cpp:386] inception_4c/relu_1x1 -> inception_4c/1x1 (in-place)
I0403 19:32:49.035841 25057 net.cpp:141] Setting up inception_4c/relu_1x1
I0403 19:32:49.035867 25057 net.cpp:148] Top shape: 24 128 14 14 (602112)
I0403 19:32:49.035882 25057 net.cpp:156] Memory required for data: 1033209120
I0403 19:32:49.035897 25057 layer_factory.hpp:77] Creating layer inception_4c/3x3_reduce
I0403 19:32:49.035922 25057 net.cpp:91] Creating Layer inception_4c/3x3_reduce
I0403 19:32:49.035940 25057 net.cpp:425] inception_4c/3x3_reduce <- inception_4b/output_inception_4b/output_0_split_1
I0403 19:32:49.035959 25057 net.cpp:399] inception_4c/3x3_reduce -> inception_4c/3x3_reduce
I0403 19:32:49.037868 25057 net.cpp:141] Setting up inception_4c/3x3_reduce
I0403 19:32:49.037899 25057 net.cpp:148] Top shape: 24 128 14 14 (602112)
I0403 19:32:49.037917 25057 net.cpp:156] Memory required for data: 1035617568
I0403 19:32:49.037936 25057 layer_factory.hpp:77] Creating layer inception_4c/relu_3x3_reduce
I0403 19:32:49.037955 25057 net.cpp:91] Creating Layer inception_4c/relu_3x3_reduce
I0403 19:32:49.037971 25057 net.cpp:425] inception_4c/relu_3x3_reduce <- inception_4c/3x3_reduce
I0403 19:32:49.037992 25057 net.cpp:386] inception_4c/relu_3x3_reduce -> inception_4c/3x3_reduce (in-place)
I0403 19:32:49.038286 25057 net.cpp:141] Setting up inception_4c/relu_3x3_reduce
I0403 19:32:49.038316 25057 net.cpp:148] Top shape: 24 128 14 14 (602112)
I0403 19:32:49.038333 25057 net.cpp:156] Memory required for data: 1038026016
I0403 19:32:49.038349 25057 layer_factory.hpp:77] Creating layer inception_4c/3x3
I0403 19:32:49.038373 25057 net.cpp:91] Creating Layer inception_4c/3x3
I0403 19:32:49.038393 25057 net.cpp:425] inception_4c/3x3 <- inception_4c/3x3_reduce
I0403 19:32:49.038413 25057 net.cpp:399] inception_4c/3x3 -> inception_4c/3x3
I0403 19:32:49.041946 25057 net.cpp:141] Setting up inception_4c/3x3
I0403 19:32:49.041988 25057 net.cpp:148] Top shape: 24 256 14 14 (1204224)
I0403 19:32:49.042006 25057 net.cpp:156] Memory required for data: 1042842912
I0403 19:32:49.042040 25057 layer_factory.hpp:77] Creating layer inception_4c/relu_3x3
I0403 19:32:49.042062 25057 net.cpp:91] Creating Layer inception_4c/relu_3x3
I0403 19:32:49.042078 25057 net.cpp:425] inception_4c/relu_3x3 <- inception_4c/3x3
I0403 19:32:49.042099 25057 net.cpp:386] inception_4c/relu_3x3 -> inception_4c/3x3 (in-place)
I0403 19:32:49.042284 25057 net.cpp:141] Setting up inception_4c/relu_3x3
I0403 19:32:49.042311 25057 net.cpp:148] Top shape: 24 256 14 14 (1204224)
I0403 19:32:49.042328 25057 net.cpp:156] Memory required for data: 1047659808
I0403 19:32:49.042343 25057 layer_factory.hpp:77] Creating layer inception_4c/5x5_reduce
I0403 19:32:49.042367 25057 net.cpp:91] Creating Layer inception_4c/5x5_reduce
I0403 19:32:49.042385 25057 net.cpp:425] inception_4c/5x5_reduce <- inception_4b/output_inception_4b/output_0_split_2
I0403 19:32:49.042407 25057 net.cpp:399] inception_4c/5x5_reduce -> inception_4c/5x5_reduce
I0403 19:32:49.043465 25057 net.cpp:141] Setting up inception_4c/5x5_reduce
I0403 19:32:49.043494 25057 net.cpp:148] Top shape: 24 24 14 14 (112896)
I0403 19:32:49.043512 25057 net.cpp:156] Memory required for data: 1048111392
I0403 19:32:49.043530 25057 layer_factory.hpp:77] Creating layer inception_4c/relu_5x5_reduce
I0403 19:32:49.043548 25057 net.cpp:91] Creating Layer inception_4c/relu_5x5_reduce
I0403 19:32:49.043565 25057 net.cpp:425] inception_4c/relu_5x5_reduce <- inception_4c/5x5_reduce
I0403 19:32:49.043586 25057 net.cpp:386] inception_4c/relu_5x5_reduce -> inception_4c/5x5_reduce (in-place)
I0403 19:32:49.043766 25057 net.cpp:141] Setting up inception_4c/relu_5x5_reduce
I0403 19:32:49.043790 25057 net.cpp:148] Top shape: 24 24 14 14 (112896)
I0403 19:32:49.043805 25057 net.cpp:156] Memory required for data: 1048562976
I0403 19:32:49.043820 25057 layer_factory.hpp:77] Creating layer inception_4c/5x5
I0403 19:32:49.043843 25057 net.cpp:91] Creating Layer inception_4c/5x5
I0403 19:32:49.043860 25057 net.cpp:425] inception_4c/5x5 <- inception_4c/5x5_reduce
I0403 19:32:49.043884 25057 net.cpp:399] inception_4c/5x5 -> inception_4c/5x5
I0403 19:32:49.045096 25057 net.cpp:141] Setting up inception_4c/5x5
I0403 19:32:49.045125 25057 net.cpp:148] Top shape: 24 64 14 14 (301056)
I0403 19:32:49.045141 25057 net.cpp:156] Memory required for data: 1049767200
I0403 19:32:49.045159 25057 layer_factory.hpp:77] Creating layer inception_4c/relu_5x5
I0403 19:32:49.045181 25057 net.cpp:91] Creating Layer inception_4c/relu_5x5
I0403 19:32:49.045197 25057 net.cpp:425] inception_4c/relu_5x5 <- inception_4c/5x5
I0403 19:32:49.045215 25057 net.cpp:386] inception_4c/relu_5x5 -> inception_4c/5x5 (in-place)
I0403 19:32:49.045502 25057 net.cpp:141] Setting up inception_4c/relu_5x5
I0403 19:32:49.045528 25057 net.cpp:148] Top shape: 24 64 14 14 (301056)
I0403 19:32:49.045543 25057 net.cpp:156] Memory required for data: 1050971424
I0403 19:32:49.045558 25057 layer_factory.hpp:77] Creating layer inception_4c/pool
I0403 19:32:49.045578 25057 net.cpp:91] Creating Layer inception_4c/pool
I0403 19:32:49.045596 25057 net.cpp:425] inception_4c/pool <- inception_4b/output_inception_4b/output_0_split_3
I0403 19:32:49.045615 25057 net.cpp:399] inception_4c/pool -> inception_4c/pool
I0403 19:32:49.045680 25057 net.cpp:141] Setting up inception_4c/pool
I0403 19:32:49.045704 25057 net.cpp:148] Top shape: 24 512 14 14 (2408448)
I0403 19:32:49.045719 25057 net.cpp:156] Memory required for data: 1060605216
I0403 19:32:49.045734 25057 layer_factory.hpp:77] Creating layer inception_4c/pool_proj
I0403 19:32:49.045758 25057 net.cpp:91] Creating Layer inception_4c/pool_proj
I0403 19:32:49.045774 25057 net.cpp:425] inception_4c/pool_proj <- inception_4c/pool
I0403 19:32:49.045795 25057 net.cpp:399] inception_4c/pool_proj -> inception_4c/pool_proj
I0403 19:32:49.046982 25057 net.cpp:141] Setting up inception_4c/pool_proj
I0403 19:32:49.047013 25057 net.cpp:148] Top shape: 24 64 14 14 (301056)
I0403 19:32:49.047041 25057 net.cpp:156] Memory required for data: 1061809440
I0403 19:32:49.047061 25057 layer_factory.hpp:77] Creating layer inception_4c/relu_pool_proj
I0403 19:32:49.047080 25057 net.cpp:91] Creating Layer inception_4c/relu_pool_proj
I0403 19:32:49.047096 25057 net.cpp:425] inception_4c/relu_pool_proj <- inception_4c/pool_proj
I0403 19:32:49.047116 25057 net.cpp:386] inception_4c/relu_pool_proj -> inception_4c/pool_proj (in-place)
I0403 19:32:49.047302 25057 net.cpp:141] Setting up inception_4c/relu_pool_proj
I0403 19:32:49.047328 25057 net.cpp:148] Top shape: 24 64 14 14 (301056)
I0403 19:32:49.047344 25057 net.cpp:156] Memory required for data: 1063013664
I0403 19:32:49.047359 25057 layer_factory.hpp:77] Creating layer inception_4c/output
I0403 19:32:49.047375 25057 net.cpp:91] Creating Layer inception_4c/output
I0403 19:32:49.047391 25057 net.cpp:425] inception_4c/output <- inception_4c/1x1
I0403 19:32:49.047408 25057 net.cpp:425] inception_4c/output <- inception_4c/3x3
I0403 19:32:49.047427 25057 net.cpp:425] inception_4c/output <- inception_4c/5x5
I0403 19:32:49.047443 25057 net.cpp:425] inception_4c/output <- inception_4c/pool_proj
I0403 19:32:49.047461 25057 net.cpp:399] inception_4c/output -> inception_4c/output
I0403 19:32:49.047507 25057 net.cpp:141] Setting up inception_4c/output
I0403 19:32:49.047533 25057 net.cpp:148] Top shape: 24 512 14 14 (2408448)
I0403 19:32:49.047549 25057 net.cpp:156] Memory required for data: 1072647456
I0403 19:32:49.047564 25057 layer_factory.hpp:77] Creating layer inception_4c/output_inception_4c/output_0_split
I0403 19:32:49.047581 25057 net.cpp:91] Creating Layer inception_4c/output_inception_4c/output_0_split
I0403 19:32:49.047597 25057 net.cpp:425] inception_4c/output_inception_4c/output_0_split <- inception_4c/output
I0403 19:32:49.047618 25057 net.cpp:399] inception_4c/output_inception_4c/output_0_split -> inception_4c/output_inception_4c/output_0_split_0
I0403 19:32:49.047641 25057 net.cpp:399] inception_4c/output_inception_4c/output_0_split -> inception_4c/output_inception_4c/output_0_split_1
I0403 19:32:49.047662 25057 net.cpp:399] inception_4c/output_inception_4c/output_0_split -> inception_4c/output_inception_4c/output_0_split_2
I0403 19:32:49.047683 25057 net.cpp:399] inception_4c/output_inception_4c/output_0_split -> inception_4c/output_inception_4c/output_0_split_3
I0403 19:32:49.047767 25057 net.cpp:141] Setting up inception_4c/output_inception_4c/output_0_split
I0403 19:32:49.047793 25057 net.cpp:148] Top shape: 24 512 14 14 (2408448)
I0403 19:32:49.047811 25057 net.cpp:148] Top shape: 24 512 14 14 (2408448)
I0403 19:32:49.047827 25057 net.cpp:148] Top shape: 24 512 14 14 (2408448)
I0403 19:32:49.047842 25057 net.cpp:148] Top shape: 24 512 14 14 (2408448)
I0403 19:32:49.047855 25057 net.cpp:156] Memory required for data: 1111182624
I0403 19:32:49.047883 25057 layer_factory.hpp:77] Creating layer inception_4d/1x1
I0403 19:32:49.047904 25057 net.cpp:91] Creating Layer inception_4d/1x1
I0403 19:32:49.047920 25057 net.cpp:425] inception_4d/1x1 <- inception_4c/output_inception_4c/output_0_split_0
I0403 19:32:49.047943 25057 net.cpp:399] inception_4d/1x1 -> inception_4d/1x1
I0403 19:32:49.049309 25057 net.cpp:141] Setting up inception_4d/1x1
I0403 19:32:49.049337 25057 net.cpp:148] Top shape: 24 112 14 14 (526848)
I0403 19:32:49.049353 25057 net.cpp:156] Memory required for data: 1113290016
I0403 19:32:49.049371 25057 layer_factory.hpp:77] Creating layer inception_4d/relu_1x1
I0403 19:32:49.049396 25057 net.cpp:91] Creating Layer inception_4d/relu_1x1
I0403 19:32:49.049413 25057 net.cpp:425] inception_4d/relu_1x1 <- inception_4d/1x1
I0403 19:32:49.049432 25057 net.cpp:386] inception_4d/relu_1x1 -> inception_4d/1x1 (in-place)
I0403 19:32:49.049618 25057 net.cpp:141] Setting up inception_4d/relu_1x1
I0403 19:32:49.049645 25057 net.cpp:148] Top shape: 24 112 14 14 (526848)
I0403 19:32:49.049661 25057 net.cpp:156] Memory required for data: 1115397408
I0403 19:32:49.049676 25057 layer_factory.hpp:77] Creating layer inception_4d/3x3_reduce
I0403 19:32:49.049712 25057 net.cpp:91] Creating Layer inception_4d/3x3_reduce
I0403 19:32:49.049732 25057 net.cpp:425] inception_4d/3x3_reduce <- inception_4c/output_inception_4c/output_0_split_1
I0403 19:32:49.049752 25057 net.cpp:399] inception_4d/3x3_reduce -> inception_4d/3x3_reduce
I0403 19:32:49.051224 25057 net.cpp:141] Setting up inception_4d/3x3_reduce
I0403 19:32:49.051252 25057 net.cpp:148] Top shape: 24 144 14 14 (677376)
I0403 19:32:49.051276 25057 net.cpp:156] Memory required for data: 1118106912
I0403 19:32:49.051296 25057 layer_factory.hpp:77] Creating layer inception_4d/relu_3x3_reduce
I0403 19:32:49.051318 25057 net.cpp:91] Creating Layer inception_4d/relu_3x3_reduce
I0403 19:32:49.051337 25057 net.cpp:425] inception_4d/relu_3x3_reduce <- inception_4d/3x3_reduce
I0403 19:32:49.051357 25057 net.cpp:386] inception_4d/relu_3x3_reduce -> inception_4d/3x3_reduce (in-place)
I0403 19:32:49.051637 25057 net.cpp:141] Setting up inception_4d/relu_3x3_reduce
I0403 19:32:49.051666 25057 net.cpp:148] Top shape: 24 144 14 14 (677376)
I0403 19:32:49.051681 25057 net.cpp:156] Memory required for data: 1120816416
I0403 19:32:49.051697 25057 layer_factory.hpp:77] Creating layer inception_4d/3x3
I0403 19:32:49.051718 25057 net.cpp:91] Creating Layer inception_4d/3x3
I0403 19:32:49.051738 25057 net.cpp:425] inception_4d/3x3 <- inception_4d/3x3_reduce
I0403 19:32:49.051759 25057 net.cpp:399] inception_4d/3x3 -> inception_4d/3x3
I0403 19:32:49.055940 25057 net.cpp:141] Setting up inception_4d/3x3
I0403 19:32:49.055968 25057 net.cpp:148] Top shape: 24 288 14 14 (1354752)
I0403 19:32:49.055984 25057 net.cpp:156] Memory required for data: 1126235424
I0403 19:32:49.056004 25057 layer_factory.hpp:77] Creating layer inception_4d/relu_3x3
I0403 19:32:49.056023 25057 net.cpp:91] Creating Layer inception_4d/relu_3x3
I0403 19:32:49.056041 25057 net.cpp:425] inception_4d/relu_3x3 <- inception_4d/3x3
I0403 19:32:49.056058 25057 net.cpp:386] inception_4d/relu_3x3 -> inception_4d/3x3 (in-place)
I0403 19:32:49.056237 25057 net.cpp:141] Setting up inception_4d/relu_3x3
I0403 19:32:49.056268 25057 net.cpp:148] Top shape: 24 288 14 14 (1354752)
I0403 19:32:49.056285 25057 net.cpp:156] Memory required for data: 1131654432
I0403 19:32:49.056299 25057 layer_factory.hpp:77] Creating layer inception_4d/5x5_reduce
I0403 19:32:49.056321 25057 net.cpp:91] Creating Layer inception_4d/5x5_reduce
I0403 19:32:49.056339 25057 net.cpp:425] inception_4d/5x5_reduce <- inception_4c/output_inception_4c/output_0_split_2
I0403 19:32:49.056363 25057 net.cpp:399] inception_4d/5x5_reduce -> inception_4d/5x5_reduce
I0403 19:32:49.057487 25057 net.cpp:141] Setting up inception_4d/5x5_reduce
I0403 19:32:49.057517 25057 net.cpp:148] Top shape: 24 32 14 14 (150528)
I0403 19:32:49.057533 25057 net.cpp:156] Memory required for data: 1132256544
I0403 19:32:49.057551 25057 layer_factory.hpp:77] Creating layer inception_4d/relu_5x5_reduce
I0403 19:32:49.057570 25057 net.cpp:91] Creating Layer inception_4d/relu_5x5_reduce
I0403 19:32:49.057586 25057 net.cpp:425] inception_4d/relu_5x5_reduce <- inception_4d/5x5_reduce
I0403 19:32:49.057605 25057 net.cpp:386] inception_4d/relu_5x5_reduce -> inception_4d/5x5_reduce (in-place)
I0403 19:32:49.057787 25057 net.cpp:141] Setting up inception_4d/relu_5x5_reduce
I0403 19:32:49.057814 25057 net.cpp:148] Top shape: 24 32 14 14 (150528)
I0403 19:32:49.057831 25057 net.cpp:156] Memory required for data: 1132858656
I0403 19:32:49.057845 25057 layer_factory.hpp:77] Creating layer inception_4d/5x5
I0403 19:32:49.057868 25057 net.cpp:91] Creating Layer inception_4d/5x5
I0403 19:32:49.057885 25057 net.cpp:425] inception_4d/5x5 <- inception_4d/5x5_reduce
I0403 19:32:49.057907 25057 net.cpp:399] inception_4d/5x5 -> inception_4d/5x5
I0403 19:32:49.059322 25057 net.cpp:141] Setting up inception_4d/5x5
I0403 19:32:49.059350 25057 net.cpp:148] Top shape: 24 64 14 14 (301056)
I0403 19:32:49.059365 25057 net.cpp:156] Memory required for data: 1134062880
I0403 19:32:49.059384 25057 layer_factory.hpp:77] Creating layer inception_4d/relu_5x5
I0403 19:32:49.059417 25057 net.cpp:91] Creating Layer inception_4d/relu_5x5
I0403 19:32:49.059438 25057 net.cpp:425] inception_4d/relu_5x5 <- inception_4d/5x5
I0403 19:32:49.059455 25057 net.cpp:386] inception_4d/relu_5x5 -> inception_4d/5x5 (in-place)
I0403 19:32:49.059747 25057 net.cpp:141] Setting up inception_4d/relu_5x5
I0403 19:32:49.059773 25057 net.cpp:148] Top shape: 24 64 14 14 (301056)
I0403 19:32:49.059788 25057 net.cpp:156] Memory required for data: 1135267104
I0403 19:32:49.059803 25057 layer_factory.hpp:77] Creating layer inception_4d/pool
I0403 19:32:49.059821 25057 net.cpp:91] Creating Layer inception_4d/pool
I0403 19:32:49.059837 25057 net.cpp:425] inception_4d/pool <- inception_4c/output_inception_4c/output_0_split_3
I0403 19:32:49.059857 25057 net.cpp:399] inception_4d/pool -> inception_4d/pool
I0403 19:32:49.059936 25057 net.cpp:141] Setting up inception_4d/pool
I0403 19:32:49.059965 25057 net.cpp:148] Top shape: 24 512 14 14 (2408448)
I0403 19:32:49.059983 25057 net.cpp:156] Memory required for data: 1144900896
I0403 19:32:49.059998 25057 layer_factory.hpp:77] Creating layer inception_4d/pool_proj
I0403 19:32:49.060020 25057 net.cpp:91] Creating Layer inception_4d/pool_proj
I0403 19:32:49.060039 25057 net.cpp:425] inception_4d/pool_proj <- inception_4d/pool
I0403 19:32:49.060058 25057 net.cpp:399] inception_4d/pool_proj -> inception_4d/pool_proj
I0403 19:32:49.061770 25057 net.cpp:141] Setting up inception_4d/pool_proj
I0403 19:32:49.061799 25057 net.cpp:148] Top shape: 24 64 14 14 (301056)
I0403 19:32:49.061813 25057 net.cpp:156] Memory required for data: 1146105120
I0403 19:32:49.061831 25057 layer_factory.hpp:77] Creating layer inception_4d/relu_pool_proj
I0403 19:32:49.061851 25057 net.cpp:91] Creating Layer inception_4d/relu_pool_proj
I0403 19:32:49.061869 25057 net.cpp:425] inception_4d/relu_pool_proj <- inception_4d/pool_proj
I0403 19:32:49.061887 25057 net.cpp:386] inception_4d/relu_pool_proj -> inception_4d/pool_proj (in-place)
I0403 19:32:49.062069 25057 net.cpp:141] Setting up inception_4d/relu_pool_proj
I0403 19:32:49.062094 25057 net.cpp:148] Top shape: 24 64 14 14 (301056)
I0403 19:32:49.062108 25057 net.cpp:156] Memory required for data: 1147309344
I0403 19:32:49.062124 25057 layer_factory.hpp:77] Creating layer inception_4d/output
I0403 19:32:49.062139 25057 net.cpp:91] Creating Layer inception_4d/output
I0403 19:32:49.062155 25057 net.cpp:425] inception_4d/output <- inception_4d/1x1
I0403 19:32:49.062171 25057 net.cpp:425] inception_4d/output <- inception_4d/3x3
I0403 19:32:49.062188 25057 net.cpp:425] inception_4d/output <- inception_4d/5x5
I0403 19:32:49.062204 25057 net.cpp:425] inception_4d/output <- inception_4d/pool_proj
I0403 19:32:49.062224 25057 net.cpp:399] inception_4d/output -> inception_4d/output
I0403 19:32:49.062276 25057 net.cpp:141] Setting up inception_4d/output
I0403 19:32:49.062302 25057 net.cpp:148] Top shape: 24 528 14 14 (2483712)
I0403 19:32:49.062319 25057 net.cpp:156] Memory required for data: 1157244192
I0403 19:32:49.062333 25057 layer_factory.hpp:77] Creating layer inception_4d/output_inception_4d/output_0_split
I0403 19:32:49.062351 25057 net.cpp:91] Creating Layer inception_4d/output_inception_4d/output_0_split
I0403 19:32:49.062366 25057 net.cpp:425] inception_4d/output_inception_4d/output_0_split <- inception_4d/output
I0403 19:32:49.062384 25057 net.cpp:399] inception_4d/output_inception_4d/output_0_split -> inception_4d/output_inception_4d/output_0_split_0
I0403 19:32:49.062407 25057 net.cpp:399] inception_4d/output_inception_4d/output_0_split -> inception_4d/output_inception_4d/output_0_split_1
I0403 19:32:49.062429 25057 net.cpp:399] inception_4d/output_inception_4d/output_0_split -> inception_4d/output_inception_4d/output_0_split_2
I0403 19:32:49.062450 25057 net.cpp:399] inception_4d/output_inception_4d/output_0_split -> inception_4d/output_inception_4d/output_0_split_3
I0403 19:32:49.062471 25057 net.cpp:399] inception_4d/output_inception_4d/output_0_split -> inception_4d/output_inception_4d/output_0_split_4
I0403 19:32:49.062572 25057 net.cpp:141] Setting up inception_4d/output_inception_4d/output_0_split
I0403 19:32:49.062609 25057 net.cpp:148] Top shape: 24 528 14 14 (2483712)
I0403 19:32:49.062628 25057 net.cpp:148] Top shape: 24 528 14 14 (2483712)
I0403 19:32:49.062643 25057 net.cpp:148] Top shape: 24 528 14 14 (2483712)
I0403 19:32:49.062659 25057 net.cpp:148] Top shape: 24 528 14 14 (2483712)
I0403 19:32:49.062674 25057 net.cpp:148] Top shape: 24 528 14 14 (2483712)
I0403 19:32:49.062688 25057 net.cpp:156] Memory required for data: 1206918432
I0403 19:32:49.062702 25057 layer_factory.hpp:77] Creating layer loss2/ave_pool
I0403 19:32:49.062723 25057 net.cpp:91] Creating Layer loss2/ave_pool
I0403 19:32:49.062741 25057 net.cpp:425] loss2/ave_pool <- inception_4d/output_inception_4d/output_0_split_0
I0403 19:32:49.062758 25057 net.cpp:399] loss2/ave_pool -> loss2/ave_pool
I0403 19:32:49.063065 25057 net.cpp:141] Setting up loss2/ave_pool
I0403 19:32:49.063091 25057 net.cpp:148] Top shape: 24 528 4 4 (202752)
I0403 19:32:49.063107 25057 net.cpp:156] Memory required for data: 1207729440
I0403 19:32:49.063122 25057 layer_factory.hpp:77] Creating layer loss2/conv
I0403 19:32:49.063145 25057 net.cpp:91] Creating Layer loss2/conv
I0403 19:32:49.063163 25057 net.cpp:425] loss2/conv <- loss2/ave_pool
I0403 19:32:49.063182 25057 net.cpp:399] loss2/conv -> loss2/conv
I0403 19:32:49.065052 25057 net.cpp:141] Setting up loss2/conv
I0403 19:32:49.065080 25057 net.cpp:148] Top shape: 24 128 4 4 (49152)
I0403 19:32:49.065095 25057 net.cpp:156] Memory required for data: 1207926048
I0403 19:32:49.065114 25057 layer_factory.hpp:77] Creating layer loss2/relu_conv
I0403 19:32:49.065131 25057 net.cpp:91] Creating Layer loss2/relu_conv
I0403 19:32:49.065147 25057 net.cpp:425] loss2/relu_conv <- loss2/conv
I0403 19:32:49.065168 25057 net.cpp:386] loss2/relu_conv -> loss2/conv (in-place)
I0403 19:32:49.065450 25057 net.cpp:141] Setting up loss2/relu_conv
I0403 19:32:49.065476 25057 net.cpp:148] Top shape: 24 128 4 4 (49152)
I0403 19:32:49.065491 25057 net.cpp:156] Memory required for data: 1208122656
I0403 19:32:49.065506 25057 layer_factory.hpp:77] Creating layer loss2/fc
I0403 19:32:49.065524 25057 net.cpp:91] Creating Layer loss2/fc
I0403 19:32:49.065541 25057 net.cpp:425] loss2/fc <- loss2/conv
I0403 19:32:49.065562 25057 net.cpp:399] loss2/fc -> loss2/fc
I0403 19:32:49.082871 25057 net.cpp:141] Setting up loss2/fc
I0403 19:32:49.082906 25057 net.cpp:148] Top shape: 24 1024 (24576)
I0403 19:32:49.082921 25057 net.cpp:156] Memory required for data: 1208220960
I0403 19:32:49.082940 25057 layer_factory.hpp:77] Creating layer loss2/relu_fc
I0403 19:32:49.082960 25057 net.cpp:91] Creating Layer loss2/relu_fc
I0403 19:32:49.082978 25057 net.cpp:425] loss2/relu_fc <- loss2/fc
I0403 19:32:49.082994 25057 net.cpp:386] loss2/relu_fc -> loss2/fc (in-place)
I0403 19:32:49.083287 25057 net.cpp:141] Setting up loss2/relu_fc
I0403 19:32:49.083315 25057 net.cpp:148] Top shape: 24 1024 (24576)
I0403 19:32:49.083331 25057 net.cpp:156] Memory required for data: 1208319264
I0403 19:32:49.083346 25057 layer_factory.hpp:77] Creating layer loss2/drop_fc
I0403 19:32:49.083365 25057 net.cpp:91] Creating Layer loss2/drop_fc
I0403 19:32:49.083382 25057 net.cpp:425] loss2/drop_fc <- loss2/fc
I0403 19:32:49.083400 25057 net.cpp:386] loss2/drop_fc -> loss2/fc (in-place)
I0403 19:32:49.083451 25057 net.cpp:141] Setting up loss2/drop_fc
I0403 19:32:49.083475 25057 net.cpp:148] Top shape: 24 1024 (24576)
I0403 19:32:49.083490 25057 net.cpp:156] Memory required for data: 1208417568
I0403 19:32:49.083506 25057 layer_factory.hpp:77] Creating layer loss2/classifier_plantvillage
I0403 19:32:49.083526 25057 net.cpp:91] Creating Layer loss2/classifier_plantvillage
I0403 19:32:49.083544 25057 net.cpp:425] loss2/classifier_plantvillage <- loss2/fc
I0403 19:32:49.083562 25057 net.cpp:399] loss2/classifier_plantvillage -> loss2/classifier_plantvillage
I0403 19:32:49.083955 25057 net.cpp:141] Setting up loss2/classifier_plantvillage
I0403 19:32:49.083981 25057 net.cpp:148] Top shape: 24 38 (912)
I0403 19:32:49.084012 25057 net.cpp:156] Memory required for data: 1208421216
I0403 19:32:49.084033 25057 layer_factory.hpp:77] Creating layer loss2/classifier_plantvillage_loss2/classifier_plantvillage_0_split
I0403 19:32:49.084053 25057 net.cpp:91] Creating Layer loss2/classifier_plantvillage_loss2/classifier_plantvillage_0_split
I0403 19:32:49.084069 25057 net.cpp:425] loss2/classifier_plantvillage_loss2/classifier_plantvillage_0_split <- loss2/classifier_plantvillage
I0403 19:32:49.084089 25057 net.cpp:399] loss2/classifier_plantvillage_loss2/classifier_plantvillage_0_split -> loss2/classifier_plantvillage_loss2/classifier_plantvillage_0_split_0
I0403 19:32:49.084110 25057 net.cpp:399] loss2/classifier_plantvillage_loss2/classifier_plantvillage_0_split -> loss2/classifier_plantvillage_loss2/classifier_plantvillage_0_split_1
I0403 19:32:49.084132 25057 net.cpp:399] loss2/classifier_plantvillage_loss2/classifier_plantvillage_0_split -> loss2/classifier_plantvillage_loss2/classifier_plantvillage_0_split_2
I0403 19:32:49.084213 25057 net.cpp:141] Setting up loss2/classifier_plantvillage_loss2/classifier_plantvillage_0_split
I0403 19:32:49.084236 25057 net.cpp:148] Top shape: 24 38 (912)
I0403 19:32:49.084254 25057 net.cpp:148] Top shape: 24 38 (912)
I0403 19:32:49.084282 25057 net.cpp:148] Top shape: 24 38 (912)
I0403 19:32:49.084297 25057 net.cpp:156] Memory required for data: 1208432160
I0403 19:32:49.084313 25057 layer_factory.hpp:77] Creating layer inception_4e/1x1
I0403 19:32:49.084336 25057 net.cpp:91] Creating Layer inception_4e/1x1
I0403 19:32:49.084353 25057 net.cpp:425] inception_4e/1x1 <- inception_4d/output_inception_4d/output_0_split_1
I0403 19:32:49.084372 25057 net.cpp:399] inception_4e/1x1 -> inception_4e/1x1
I0403 19:32:49.086143 25057 net.cpp:141] Setting up inception_4e/1x1
I0403 19:32:49.086171 25057 net.cpp:148] Top shape: 24 256 14 14 (1204224)
I0403 19:32:49.086187 25057 net.cpp:156] Memory required for data: 1213249056
I0403 19:32:49.086205 25057 layer_factory.hpp:77] Creating layer inception_4e/relu_1x1
I0403 19:32:49.086227 25057 net.cpp:91] Creating Layer inception_4e/relu_1x1
I0403 19:32:49.086244 25057 net.cpp:425] inception_4e/relu_1x1 <- inception_4e/1x1
I0403 19:32:49.086266 25057 net.cpp:386] inception_4e/relu_1x1 -> inception_4e/1x1 (in-place)
I0403 19:32:49.086561 25057 net.cpp:141] Setting up inception_4e/relu_1x1
I0403 19:32:49.086587 25057 net.cpp:148] Top shape: 24 256 14 14 (1204224)
I0403 19:32:49.086603 25057 net.cpp:156] Memory required for data: 1218065952
I0403 19:32:49.086619 25057 layer_factory.hpp:77] Creating layer inception_4e/3x3_reduce
I0403 19:32:49.086642 25057 net.cpp:91] Creating Layer inception_4e/3x3_reduce
I0403 19:32:49.086659 25057 net.cpp:425] inception_4e/3x3_reduce <- inception_4d/output_inception_4d/output_0_split_2
I0403 19:32:49.086681 25057 net.cpp:399] inception_4e/3x3_reduce -> inception_4e/3x3_reduce
I0403 19:32:49.088763 25057 net.cpp:141] Setting up inception_4e/3x3_reduce
I0403 19:32:49.088791 25057 net.cpp:148] Top shape: 24 160 14 14 (752640)
I0403 19:32:49.088809 25057 net.cpp:156] Memory required for data: 1221076512
I0403 19:32:49.088826 25057 layer_factory.hpp:77] Creating layer inception_4e/relu_3x3_reduce
I0403 19:32:49.088845 25057 net.cpp:91] Creating Layer inception_4e/relu_3x3_reduce
I0403 19:32:49.088862 25057 net.cpp:425] inception_4e/relu_3x3_reduce <- inception_4e/3x3_reduce
I0403 19:32:49.088881 25057 net.cpp:386] inception_4e/relu_3x3_reduce -> inception_4e/3x3_reduce (in-place)
I0403 19:32:49.089062 25057 net.cpp:141] Setting up inception_4e/relu_3x3_reduce
I0403 19:32:49.089088 25057 net.cpp:148] Top shape: 24 160 14 14 (752640)
I0403 19:32:49.089104 25057 net.cpp:156] Memory required for data: 1224087072
I0403 19:32:49.089120 25057 layer_factory.hpp:77] Creating layer inception_4e/3x3
I0403 19:32:49.089143 25057 net.cpp:91] Creating Layer inception_4e/3x3
I0403 19:32:49.089161 25057 net.cpp:425] inception_4e/3x3 <- inception_4e/3x3_reduce
I0403 19:32:49.089184 25057 net.cpp:399] inception_4e/3x3 -> inception_4e/3x3
I0403 19:32:49.094194 25057 net.cpp:141] Setting up inception_4e/3x3
I0403 19:32:49.094235 25057 net.cpp:148] Top shape: 24 320 14 14 (1505280)
I0403 19:32:49.094252 25057 net.cpp:156] Memory required for data: 1230108192
I0403 19:32:49.094285 25057 layer_factory.hpp:77] Creating layer inception_4e/relu_3x3
I0403 19:32:49.094308 25057 net.cpp:91] Creating Layer inception_4e/relu_3x3
I0403 19:32:49.094326 25057 net.cpp:425] inception_4e/relu_3x3 <- inception_4e/3x3
I0403 19:32:49.094344 25057 net.cpp:386] inception_4e/relu_3x3 -> inception_4e/3x3 (in-place)
I0403 19:32:49.094637 25057 net.cpp:141] Setting up inception_4e/relu_3x3
I0403 19:32:49.094663 25057 net.cpp:148] Top shape: 24 320 14 14 (1505280)
I0403 19:32:49.094682 25057 net.cpp:156] Memory required for data: 1236129312
I0403 19:32:49.094698 25057 layer_factory.hpp:77] Creating layer inception_4e/5x5_reduce
I0403 19:32:49.094718 25057 net.cpp:91] Creating Layer inception_4e/5x5_reduce
I0403 19:32:49.094737 25057 net.cpp:425] inception_4e/5x5_reduce <- inception_4d/output_inception_4d/output_0_split_3
I0403 19:32:49.094759 25057 net.cpp:399] inception_4e/5x5_reduce -> inception_4e/5x5_reduce
I0403 19:32:49.095809 25057 net.cpp:141] Setting up inception_4e/5x5_reduce
I0403 19:32:49.095837 25057 net.cpp:148] Top shape: 24 32 14 14 (150528)
I0403 19:32:49.095854 25057 net.cpp:156] Memory required for data: 1236731424
I0403 19:32:49.095871 25057 layer_factory.hpp:77] Creating layer inception_4e/relu_5x5_reduce
I0403 19:32:49.095890 25057 net.cpp:91] Creating Layer inception_4e/relu_5x5_reduce
I0403 19:32:49.095909 25057 net.cpp:425] inception_4e/relu_5x5_reduce <- inception_4e/5x5_reduce
I0403 19:32:49.095928 25057 net.cpp:386] inception_4e/relu_5x5_reduce -> inception_4e/5x5_reduce (in-place)
I0403 19:32:49.096221 25057 net.cpp:141] Setting up inception_4e/relu_5x5_reduce
I0403 19:32:49.096247 25057 net.cpp:148] Top shape: 24 32 14 14 (150528)
I0403 19:32:49.096268 25057 net.cpp:156] Memory required for data: 1237333536
I0403 19:32:49.096284 25057 layer_factory.hpp:77] Creating layer inception_4e/5x5
I0403 19:32:49.096328 25057 net.cpp:91] Creating Layer inception_4e/5x5
I0403 19:32:49.096349 25057 net.cpp:425] inception_4e/5x5 <- inception_4e/5x5_reduce
I0403 19:32:49.096369 25057 net.cpp:399] inception_4e/5x5 -> inception_4e/5x5
I0403 19:32:49.098111 25057 net.cpp:141] Setting up inception_4e/5x5
I0403 19:32:49.098140 25057 net.cpp:148] Top shape: 24 128 14 14 (602112)
I0403 19:32:49.098157 25057 net.cpp:156] Memory required for data: 1239741984
I0403 19:32:49.098176 25057 layer_factory.hpp:77] Creating layer inception_4e/relu_5x5
I0403 19:32:49.098196 25057 net.cpp:91] Creating Layer inception_4e/relu_5x5
I0403 19:32:49.098211 25057 net.cpp:425] inception_4e/relu_5x5 <- inception_4e/5x5
I0403 19:32:49.098229 25057 net.cpp:386] inception_4e/relu_5x5 -> inception_4e/5x5 (in-place)
I0403 19:32:49.098423 25057 net.cpp:141] Setting up inception_4e/relu_5x5
I0403 19:32:49.098448 25057 net.cpp:148] Top shape: 24 128 14 14 (602112)
I0403 19:32:49.098462 25057 net.cpp:156] Memory required for data: 1242150432
I0403 19:32:49.098476 25057 layer_factory.hpp:77] Creating layer inception_4e/pool
I0403 19:32:49.098495 25057 net.cpp:91] Creating Layer inception_4e/pool
I0403 19:32:49.098510 25057 net.cpp:425] inception_4e/pool <- inception_4d/output_inception_4d/output_0_split_4
I0403 19:32:49.098529 25057 net.cpp:399] inception_4e/pool -> inception_4e/pool
I0403 19:32:49.098600 25057 net.cpp:141] Setting up inception_4e/pool
I0403 19:32:49.098624 25057 net.cpp:148] Top shape: 24 528 14 14 (2483712)
I0403 19:32:49.098639 25057 net.cpp:156] Memory required for data: 1252085280
I0403 19:32:49.098654 25057 layer_factory.hpp:77] Creating layer inception_4e/pool_proj
I0403 19:32:49.098676 25057 net.cpp:91] Creating Layer inception_4e/pool_proj
I0403 19:32:49.098693 25057 net.cpp:425] inception_4e/pool_proj <- inception_4e/pool
I0403 19:32:49.098712 25057 net.cpp:399] inception_4e/pool_proj -> inception_4e/pool_proj
I0403 19:32:49.100149 25057 net.cpp:141] Setting up inception_4e/pool_proj
I0403 19:32:49.100188 25057 net.cpp:148] Top shape: 24 128 14 14 (602112)
I0403 19:32:49.100204 25057 net.cpp:156] Memory required for data: 1254493728
I0403 19:32:49.100224 25057 layer_factory.hpp:77] Creating layer inception_4e/relu_pool_proj
I0403 19:32:49.100244 25057 net.cpp:91] Creating Layer inception_4e/relu_pool_proj
I0403 19:32:49.100265 25057 net.cpp:425] inception_4e/relu_pool_proj <- inception_4e/pool_proj
I0403 19:32:49.100284 25057 net.cpp:386] inception_4e/relu_pool_proj -> inception_4e/pool_proj (in-place)
I0403 19:32:49.100572 25057 net.cpp:141] Setting up inception_4e/relu_pool_proj
I0403 19:32:49.100600 25057 net.cpp:148] Top shape: 24 128 14 14 (602112)
I0403 19:32:49.100616 25057 net.cpp:156] Memory required for data: 1256902176
I0403 19:32:49.100631 25057 layer_factory.hpp:77] Creating layer inception_4e/output
I0403 19:32:49.100648 25057 net.cpp:91] Creating Layer inception_4e/output
I0403 19:32:49.100664 25057 net.cpp:425] inception_4e/output <- inception_4e/1x1
I0403 19:32:49.100682 25057 net.cpp:425] inception_4e/output <- inception_4e/3x3
I0403 19:32:49.100697 25057 net.cpp:425] inception_4e/output <- inception_4e/5x5
I0403 19:32:49.100713 25057 net.cpp:425] inception_4e/output <- inception_4e/pool_proj
I0403 19:32:49.100730 25057 net.cpp:399] inception_4e/output -> inception_4e/output
I0403 19:32:49.100780 25057 net.cpp:141] Setting up inception_4e/output
I0403 19:32:49.100805 25057 net.cpp:148] Top shape: 24 832 14 14 (3913728)
I0403 19:32:49.100818 25057 net.cpp:156] Memory required for data: 1272557088
I0403 19:32:49.100833 25057 layer_factory.hpp:77] Creating layer pool4/3x3_s2
I0403 19:32:49.100853 25057 net.cpp:91] Creating Layer pool4/3x3_s2
I0403 19:32:49.100870 25057 net.cpp:425] pool4/3x3_s2 <- inception_4e/output
I0403 19:32:49.100888 25057 net.cpp:399] pool4/3x3_s2 -> pool4/3x3_s2
I0403 19:32:49.100955 25057 net.cpp:141] Setting up pool4/3x3_s2
I0403 19:32:49.100978 25057 net.cpp:148] Top shape: 24 832 7 7 (978432)
I0403 19:32:49.100993 25057 net.cpp:156] Memory required for data: 1276470816
I0403 19:32:49.101008 25057 layer_factory.hpp:77] Creating layer pool4/3x3_s2_pool4/3x3_s2_0_split
I0403 19:32:49.101027 25057 net.cpp:91] Creating Layer pool4/3x3_s2_pool4/3x3_s2_0_split
I0403 19:32:49.101042 25057 net.cpp:425] pool4/3x3_s2_pool4/3x3_s2_0_split <- pool4/3x3_s2
I0403 19:32:49.101061 25057 net.cpp:399] pool4/3x3_s2_pool4/3x3_s2_0_split -> pool4/3x3_s2_pool4/3x3_s2_0_split_0
I0403 19:32:49.101081 25057 net.cpp:399] pool4/3x3_s2_pool4/3x3_s2_0_split -> pool4/3x3_s2_pool4/3x3_s2_0_split_1
I0403 19:32:49.101101 25057 net.cpp:399] pool4/3x3_s2_pool4/3x3_s2_0_split -> pool4/3x3_s2_pool4/3x3_s2_0_split_2
I0403 19:32:49.101122 25057 net.cpp:399] pool4/3x3_s2_pool4/3x3_s2_0_split -> pool4/3x3_s2_pool4/3x3_s2_0_split_3
I0403 19:32:49.101208 25057 net.cpp:141] Setting up pool4/3x3_s2_pool4/3x3_s2_0_split
I0403 19:32:49.101234 25057 net.cpp:148] Top shape: 24 832 7 7 (978432)
I0403 19:32:49.101253 25057 net.cpp:148] Top shape: 24 832 7 7 (978432)
I0403 19:32:49.101274 25057 net.cpp:148] Top shape: 24 832 7 7 (978432)
I0403 19:32:49.101290 25057 net.cpp:148] Top shape: 24 832 7 7 (978432)
I0403 19:32:49.101305 25057 net.cpp:156] Memory required for data: 1292125728
I0403 19:32:49.101320 25057 layer_factory.hpp:77] Creating layer inception_5a/1x1
I0403 19:32:49.101341 25057 net.cpp:91] Creating Layer inception_5a/1x1
I0403 19:32:49.101361 25057 net.cpp:425] inception_5a/1x1 <- pool4/3x3_s2_pool4/3x3_s2_0_split_0
I0403 19:32:49.101379 25057 net.cpp:399] inception_5a/1x1 -> inception_5a/1x1
I0403 19:32:49.104110 25057 net.cpp:141] Setting up inception_5a/1x1
I0403 19:32:49.104138 25057 net.cpp:148] Top shape: 24 256 7 7 (301056)
I0403 19:32:49.104156 25057 net.cpp:156] Memory required for data: 1293329952
I0403 19:32:49.104173 25057 layer_factory.hpp:77] Creating layer inception_5a/relu_1x1
I0403 19:32:49.104192 25057 net.cpp:91] Creating Layer inception_5a/relu_1x1
I0403 19:32:49.104207 25057 net.cpp:425] inception_5a/relu_1x1 <- inception_5a/1x1
I0403 19:32:49.104226 25057 net.cpp:386] inception_5a/relu_1x1 -> inception_5a/1x1 (in-place)
I0403 19:32:49.104535 25057 net.cpp:141] Setting up inception_5a/relu_1x1
I0403 19:32:49.104562 25057 net.cpp:148] Top shape: 24 256 7 7 (301056)
I0403 19:32:49.104578 25057 net.cpp:156] Memory required for data: 1294534176
I0403 19:32:49.104591 25057 layer_factory.hpp:77] Creating layer inception_5a/3x3_reduce
I0403 19:32:49.104614 25057 net.cpp:91] Creating Layer inception_5a/3x3_reduce
I0403 19:32:49.104635 25057 net.cpp:425] inception_5a/3x3_reduce <- pool4/3x3_s2_pool4/3x3_s2_0_split_1
I0403 19:32:49.104655 25057 net.cpp:399] inception_5a/3x3_reduce -> inception_5a/3x3_reduce
I0403 19:32:49.107024 25057 net.cpp:141] Setting up inception_5a/3x3_reduce
I0403 19:32:49.107053 25057 net.cpp:148] Top shape: 24 160 7 7 (188160)
I0403 19:32:49.107069 25057 net.cpp:156] Memory required for data: 1295286816
I0403 19:32:49.107087 25057 layer_factory.hpp:77] Creating layer inception_5a/relu_3x3_reduce
I0403 19:32:49.107108 25057 net.cpp:91] Creating Layer inception_5a/relu_3x3_reduce
I0403 19:32:49.107126 25057 net.cpp:425] inception_5a/relu_3x3_reduce <- inception_5a/3x3_reduce
I0403 19:32:49.107144 25057 net.cpp:386] inception_5a/relu_3x3_reduce -> inception_5a/3x3_reduce (in-place)
I0403 19:32:49.107329 25057 net.cpp:141] Setting up inception_5a/relu_3x3_reduce
I0403 19:32:49.107357 25057 net.cpp:148] Top shape: 24 160 7 7 (188160)
I0403 19:32:49.107373 25057 net.cpp:156] Memory required for data: 1296039456
I0403 19:32:49.107388 25057 layer_factory.hpp:77] Creating layer inception_5a/3x3
I0403 19:32:49.107410 25057 net.cpp:91] Creating Layer inception_5a/3x3
I0403 19:32:49.107429 25057 net.cpp:425] inception_5a/3x3 <- inception_5a/3x3_reduce
I0403 19:32:49.107451 25057 net.cpp:399] inception_5a/3x3 -> inception_5a/3x3
I0403 19:32:49.112273 25057 net.cpp:141] Setting up inception_5a/3x3
I0403 19:32:49.112306 25057 net.cpp:148] Top shape: 24 320 7 7 (376320)
I0403 19:32:49.112323 25057 net.cpp:156] Memory required for data: 1297544736
I0403 19:32:49.112341 25057 layer_factory.hpp:77] Creating layer inception_5a/relu_3x3
I0403 19:32:49.112360 25057 net.cpp:91] Creating Layer inception_5a/relu_3x3
I0403 19:32:49.112377 25057 net.cpp:425] inception_5a/relu_3x3 <- inception_5a/3x3
I0403 19:32:49.112397 25057 net.cpp:386] inception_5a/relu_3x3 -> inception_5a/3x3 (in-place)
I0403 19:32:49.112674 25057 net.cpp:141] Setting up inception_5a/relu_3x3
I0403 19:32:49.112704 25057 net.cpp:148] Top shape: 24 320 7 7 (376320)
I0403 19:32:49.112721 25057 net.cpp:156] Memory required for data: 1299050016
I0403 19:32:49.112736 25057 layer_factory.hpp:77] Creating layer inception_5a/5x5_reduce
I0403 19:32:49.112761 25057 net.cpp:91] Creating Layer inception_5a/5x5_reduce
I0403 19:32:49.112779 25057 net.cpp:425] inception_5a/5x5_reduce <- pool4/3x3_s2_pool4/3x3_s2_0_split_2
I0403 19:32:49.112798 25057 net.cpp:399] inception_5a/5x5_reduce -> inception_5a/5x5_reduce
I0403 19:32:49.113916 25057 net.cpp:141] Setting up inception_5a/5x5_reduce
I0403 19:32:49.113948 25057 net.cpp:148] Top shape: 24 32 7 7 (37632)
I0403 19:32:49.113965 25057 net.cpp:156] Memory required for data: 1299200544
I0403 19:32:49.113983 25057 layer_factory.hpp:77] Creating layer inception_5a/relu_5x5_reduce
I0403 19:32:49.114002 25057 net.cpp:91] Creating Layer inception_5a/relu_5x5_reduce
I0403 19:32:49.114019 25057 net.cpp:425] inception_5a/relu_5x5_reduce <- inception_5a/5x5_reduce
I0403 19:32:49.114038 25057 net.cpp:386] inception_5a/relu_5x5_reduce -> inception_5a/5x5_reduce (in-place)
I0403 19:32:49.114343 25057 net.cpp:141] Setting up inception_5a/relu_5x5_reduce
I0403 19:32:49.114370 25057 net.cpp:148] Top shape: 24 32 7 7 (37632)
I0403 19:32:49.114387 25057 net.cpp:156] Memory required for data: 1299351072
I0403 19:32:49.114401 25057 layer_factory.hpp:77] Creating layer inception_5a/5x5
I0403 19:32:49.114424 25057 net.cpp:91] Creating Layer inception_5a/5x5
I0403 19:32:49.114444 25057 net.cpp:425] inception_5a/5x5 <- inception_5a/5x5_reduce
I0403 19:32:49.114466 25057 net.cpp:399] inception_5a/5x5 -> inception_5a/5x5
I0403 19:32:49.116099 25057 net.cpp:141] Setting up inception_5a/5x5
I0403 19:32:49.116138 25057 net.cpp:148] Top shape: 24 128 7 7 (150528)
I0403 19:32:49.116155 25057 net.cpp:156] Memory required for data: 1299953184
I0403 19:32:49.116173 25057 layer_factory.hpp:77] Creating layer inception_5a/relu_5x5
I0403 19:32:49.116191 25057 net.cpp:91] Creating Layer inception_5a/relu_5x5
I0403 19:32:49.116207 25057 net.cpp:425] inception_5a/relu_5x5 <- inception_5a/5x5
I0403 19:32:49.116227 25057 net.cpp:386] inception_5a/relu_5x5 -> inception_5a/5x5 (in-place)
I0403 19:32:49.116411 25057 net.cpp:141] Setting up inception_5a/relu_5x5
I0403 19:32:49.116436 25057 net.cpp:148] Top shape: 24 128 7 7 (150528)
I0403 19:32:49.116451 25057 net.cpp:156] Memory required for data: 1300555296
I0403 19:32:49.116464 25057 layer_factory.hpp:77] Creating layer inception_5a/pool
I0403 19:32:49.116482 25057 net.cpp:91] Creating Layer inception_5a/pool
I0403 19:32:49.116497 25057 net.cpp:425] inception_5a/pool <- pool4/3x3_s2_pool4/3x3_s2_0_split_3
I0403 19:32:49.116518 25057 net.cpp:399] inception_5a/pool -> inception_5a/pool
I0403 19:32:49.116585 25057 net.cpp:141] Setting up inception_5a/pool
I0403 19:32:49.116608 25057 net.cpp:148] Top shape: 24 832 7 7 (978432)
I0403 19:32:49.116623 25057 net.cpp:156] Memory required for data: 1304469024
I0403 19:32:49.116636 25057 layer_factory.hpp:77] Creating layer inception_5a/pool_proj
I0403 19:32:49.116659 25057 net.cpp:91] Creating Layer inception_5a/pool_proj
I0403 19:32:49.116677 25057 net.cpp:425] inception_5a/pool_proj <- inception_5a/pool
I0403 19:32:49.116695 25057 net.cpp:399] inception_5a/pool_proj -> inception_5a/pool_proj
I0403 19:32:49.118863 25057 net.cpp:141] Setting up inception_5a/pool_proj
I0403 19:32:49.118893 25057 net.cpp:148] Top shape: 24 128 7 7 (150528)
I0403 19:32:49.118909 25057 net.cpp:156] Memory required for data: 1305071136
I0403 19:32:49.118927 25057 layer_factory.hpp:77] Creating layer inception_5a/relu_pool_proj
I0403 19:32:49.118945 25057 net.cpp:91] Creating Layer inception_5a/relu_pool_proj
I0403 19:32:49.118962 25057 net.cpp:425] inception_5a/relu_pool_proj <- inception_5a/pool_proj
I0403 19:32:49.118978 25057 net.cpp:386] inception_5a/relu_pool_proj -> inception_5a/pool_proj (in-place)
I0403 19:32:49.119259 25057 net.cpp:141] Setting up inception_5a/relu_pool_proj
I0403 19:32:49.119287 25057 net.cpp:148] Top shape: 24 128 7 7 (150528)
I0403 19:32:49.119303 25057 net.cpp:156] Memory required for data: 1305673248
I0403 19:32:49.119318 25057 layer_factory.hpp:77] Creating layer inception_5a/output
I0403 19:32:49.119334 25057 net.cpp:91] Creating Layer inception_5a/output
I0403 19:32:49.119350 25057 net.cpp:425] inception_5a/output <- inception_5a/1x1
I0403 19:32:49.119366 25057 net.cpp:425] inception_5a/output <- inception_5a/3x3
I0403 19:32:49.119382 25057 net.cpp:425] inception_5a/output <- inception_5a/5x5
I0403 19:32:49.119397 25057 net.cpp:425] inception_5a/output <- inception_5a/pool_proj
I0403 19:32:49.119413 25057 net.cpp:399] inception_5a/output -> inception_5a/output
I0403 19:32:49.119462 25057 net.cpp:141] Setting up inception_5a/output
I0403 19:32:49.119487 25057 net.cpp:148] Top shape: 24 832 7 7 (978432)
I0403 19:32:49.119500 25057 net.cpp:156] Memory required for data: 1309586976
I0403 19:32:49.119514 25057 layer_factory.hpp:77] Creating layer inception_5a/output_inception_5a/output_0_split
I0403 19:32:49.119532 25057 net.cpp:91] Creating Layer inception_5a/output_inception_5a/output_0_split
I0403 19:32:49.119549 25057 net.cpp:425] inception_5a/output_inception_5a/output_0_split <- inception_5a/output
I0403 19:32:49.119566 25057 net.cpp:399] inception_5a/output_inception_5a/output_0_split -> inception_5a/output_inception_5a/output_0_split_0
I0403 19:32:49.119586 25057 net.cpp:399] inception_5a/output_inception_5a/output_0_split -> inception_5a/output_inception_5a/output_0_split_1
I0403 19:32:49.119606 25057 net.cpp:399] inception_5a/output_inception_5a/output_0_split -> inception_5a/output_inception_5a/output_0_split_2
I0403 19:32:49.119627 25057 net.cpp:399] inception_5a/output_inception_5a/output_0_split -> inception_5a/output_inception_5a/output_0_split_3
I0403 19:32:49.119735 25057 net.cpp:141] Setting up inception_5a/output_inception_5a/output_0_split
I0403 19:32:49.119757 25057 net.cpp:148] Top shape: 24 832 7 7 (978432)
I0403 19:32:49.119773 25057 net.cpp:148] Top shape: 24 832 7 7 (978432)
I0403 19:32:49.119788 25057 net.cpp:148] Top shape: 24 832 7 7 (978432)
I0403 19:32:49.119803 25057 net.cpp:148] Top shape: 24 832 7 7 (978432)
I0403 19:32:49.119817 25057 net.cpp:156] Memory required for data: 1325241888
I0403 19:32:49.119830 25057 layer_factory.hpp:77] Creating layer inception_5b/1x1
I0403 19:32:49.119851 25057 net.cpp:91] Creating Layer inception_5b/1x1
I0403 19:32:49.119869 25057 net.cpp:425] inception_5b/1x1 <- inception_5a/output_inception_5a/output_0_split_0
I0403 19:32:49.119890 25057 net.cpp:399] inception_5b/1x1 -> inception_5b/1x1
I0403 19:32:49.123435 25057 net.cpp:141] Setting up inception_5b/1x1
I0403 19:32:49.123463 25057 net.cpp:148] Top shape: 24 384 7 7 (451584)
I0403 19:32:49.123479 25057 net.cpp:156] Memory required for data: 1327048224
I0403 19:32:49.123497 25057 layer_factory.hpp:77] Creating layer inception_5b/relu_1x1
I0403 19:32:49.123517 25057 net.cpp:91] Creating Layer inception_5b/relu_1x1
I0403 19:32:49.123535 25057 net.cpp:425] inception_5b/relu_1x1 <- inception_5b/1x1
I0403 19:32:49.123553 25057 net.cpp:386] inception_5b/relu_1x1 -> inception_5b/1x1 (in-place)
I0403 19:32:49.123843 25057 net.cpp:141] Setting up inception_5b/relu_1x1
I0403 19:32:49.123867 25057 net.cpp:148] Top shape: 24 384 7 7 (451584)
I0403 19:32:49.123883 25057 net.cpp:156] Memory required for data: 1328854560
I0403 19:32:49.123896 25057 layer_factory.hpp:77] Creating layer inception_5b/3x3_reduce
I0403 19:32:49.123920 25057 net.cpp:91] Creating Layer inception_5b/3x3_reduce
I0403 19:32:49.123939 25057 net.cpp:425] inception_5b/3x3_reduce <- inception_5a/output_inception_5a/output_0_split_1
I0403 19:32:49.123958 25057 net.cpp:399] inception_5b/3x3_reduce -> inception_5b/3x3_reduce
I0403 19:32:49.126519 25057 net.cpp:141] Setting up inception_5b/3x3_reduce
I0403 19:32:49.126549 25057 net.cpp:148] Top shape: 24 192 7 7 (225792)
I0403 19:32:49.126566 25057 net.cpp:156] Memory required for data: 1329757728
I0403 19:32:49.126584 25057 layer_factory.hpp:77] Creating layer inception_5b/relu_3x3_reduce
I0403 19:32:49.126601 25057 net.cpp:91] Creating Layer inception_5b/relu_3x3_reduce
I0403 19:32:49.126617 25057 net.cpp:425] inception_5b/relu_3x3_reduce <- inception_5b/3x3_reduce
I0403 19:32:49.126634 25057 net.cpp:386] inception_5b/relu_3x3_reduce -> inception_5b/3x3_reduce (in-place)
I0403 19:32:49.126817 25057 net.cpp:141] Setting up inception_5b/relu_3x3_reduce
I0403 19:32:49.126843 25057 net.cpp:148] Top shape: 24 192 7 7 (225792)
I0403 19:32:49.126858 25057 net.cpp:156] Memory required for data: 1330660896
I0403 19:32:49.126873 25057 layer_factory.hpp:77] Creating layer inception_5b/3x3
I0403 19:32:49.126898 25057 net.cpp:91] Creating Layer inception_5b/3x3
I0403 19:32:49.126914 25057 net.cpp:425] inception_5b/3x3 <- inception_5b/3x3_reduce
I0403 19:32:49.126936 25057 net.cpp:399] inception_5b/3x3 -> inception_5b/3x3
I0403 19:32:49.133316 25057 net.cpp:141] Setting up inception_5b/3x3
I0403 19:32:49.133348 25057 net.cpp:148] Top shape: 24 384 7 7 (451584)
I0403 19:32:49.133365 25057 net.cpp:156] Memory required for data: 1332467232
I0403 19:32:49.133384 25057 layer_factory.hpp:77] Creating layer inception_5b/relu_3x3
I0403 19:32:49.133402 25057 net.cpp:91] Creating Layer inception_5b/relu_3x3
I0403 19:32:49.133419 25057 net.cpp:425] inception_5b/relu_3x3 <- inception_5b/3x3
I0403 19:32:49.133435 25057 net.cpp:386] inception_5b/relu_3x3 -> inception_5b/3x3 (in-place)
I0403 19:32:49.133718 25057 net.cpp:141] Setting up inception_5b/relu_3x3
I0403 19:32:49.133746 25057 net.cpp:148] Top shape: 24 384 7 7 (451584)
I0403 19:32:49.133764 25057 net.cpp:156] Memory required for data: 1334273568
I0403 19:32:49.133779 25057 layer_factory.hpp:77] Creating layer inception_5b/5x5_reduce
I0403 19:32:49.133815 25057 net.cpp:91] Creating Layer inception_5b/5x5_reduce
I0403 19:32:49.133834 25057 net.cpp:425] inception_5b/5x5_reduce <- inception_5a/output_inception_5a/output_0_split_2
I0403 19:32:49.133853 25057 net.cpp:399] inception_5b/5x5_reduce -> inception_5b/5x5_reduce
I0403 19:32:49.135077 25057 net.cpp:141] Setting up inception_5b/5x5_reduce
I0403 19:32:49.135105 25057 net.cpp:148] Top shape: 24 48 7 7 (56448)
I0403 19:32:49.135121 25057 net.cpp:156] Memory required for data: 1334499360
I0403 19:32:49.135141 25057 layer_factory.hpp:77] Creating layer inception_5b/relu_5x5_reduce
I0403 19:32:49.135160 25057 net.cpp:91] Creating Layer inception_5b/relu_5x5_reduce
I0403 19:32:49.135177 25057 net.cpp:425] inception_5b/relu_5x5_reduce <- inception_5b/5x5_reduce
I0403 19:32:49.135195 25057 net.cpp:386] inception_5b/relu_5x5_reduce -> inception_5b/5x5_reduce (in-place)
I0403 19:32:49.135560 25057 net.cpp:141] Setting up inception_5b/relu_5x5_reduce
I0403 19:32:49.135586 25057 net.cpp:148] Top shape: 24 48 7 7 (56448)
I0403 19:32:49.135601 25057 net.cpp:156] Memory required for data: 1334725152
I0403 19:32:49.135617 25057 layer_factory.hpp:77] Creating layer inception_5b/5x5
I0403 19:32:49.135637 25057 net.cpp:91] Creating Layer inception_5b/5x5
I0403 19:32:49.135654 25057 net.cpp:425] inception_5b/5x5 <- inception_5b/5x5_reduce
I0403 19:32:49.135673 25057 net.cpp:399] inception_5b/5x5 -> inception_5b/5x5
I0403 19:32:49.137650 25057 net.cpp:141] Setting up inception_5b/5x5
I0403 19:32:49.137678 25057 net.cpp:148] Top shape: 24 128 7 7 (150528)
I0403 19:32:49.137694 25057 net.cpp:156] Memory required for data: 1335327264
I0403 19:32:49.137712 25057 layer_factory.hpp:77] Creating layer inception_5b/relu_5x5
I0403 19:32:49.137729 25057 net.cpp:91] Creating Layer inception_5b/relu_5x5
I0403 19:32:49.137745 25057 net.cpp:425] inception_5b/relu_5x5 <- inception_5b/5x5
I0403 19:32:49.137765 25057 net.cpp:386] inception_5b/relu_5x5 -> inception_5b/5x5 (in-place)
I0403 19:32:49.137953 25057 net.cpp:141] Setting up inception_5b/relu_5x5
I0403 19:32:49.137976 25057 net.cpp:148] Top shape: 24 128 7 7 (150528)
I0403 19:32:49.137991 25057 net.cpp:156] Memory required for data: 1335929376
I0403 19:32:49.138006 25057 layer_factory.hpp:77] Creating layer inception_5b/pool
I0403 19:32:49.138026 25057 net.cpp:91] Creating Layer inception_5b/pool
I0403 19:32:49.138043 25057 net.cpp:425] inception_5b/pool <- inception_5a/output_inception_5a/output_0_split_3
I0403 19:32:49.138062 25057 net.cpp:399] inception_5b/pool -> inception_5b/pool
I0403 19:32:49.138131 25057 net.cpp:141] Setting up inception_5b/pool
I0403 19:32:49.138154 25057 net.cpp:148] Top shape: 24 832 7 7 (978432)
I0403 19:32:49.138170 25057 net.cpp:156] Memory required for data: 1339843104
I0403 19:32:49.138183 25057 layer_factory.hpp:77] Creating layer inception_5b/pool_proj
I0403 19:32:49.138206 25057 net.cpp:91] Creating Layer inception_5b/pool_proj
I0403 19:32:49.138222 25057 net.cpp:425] inception_5b/pool_proj <- inception_5b/pool
I0403 19:32:49.138244 25057 net.cpp:399] inception_5b/pool_proj -> inception_5b/pool_proj
I0403 19:32:49.140461 25057 net.cpp:141] Setting up inception_5b/pool_proj
I0403 19:32:49.140491 25057 net.cpp:148] Top shape: 24 128 7 7 (150528)
I0403 19:32:49.140509 25057 net.cpp:156] Memory required for data: 1340445216
I0403 19:32:49.140527 25057 layer_factory.hpp:77] Creating layer inception_5b/relu_pool_proj
I0403 19:32:49.140547 25057 net.cpp:91] Creating Layer inception_5b/relu_pool_proj
I0403 19:32:49.140563 25057 net.cpp:425] inception_5b/relu_pool_proj <- inception_5b/pool_proj
I0403 19:32:49.140583 25057 net.cpp:386] inception_5b/relu_pool_proj -> inception_5b/pool_proj (in-place)
I0403 19:32:49.140864 25057 net.cpp:141] Setting up inception_5b/relu_pool_proj
I0403 19:32:49.140892 25057 net.cpp:148] Top shape: 24 128 7 7 (150528)
I0403 19:32:49.140908 25057 net.cpp:156] Memory required for data: 1341047328
I0403 19:32:49.140924 25057 layer_factory.hpp:77] Creating layer inception_5b/output
I0403 19:32:49.140943 25057 net.cpp:91] Creating Layer inception_5b/output
I0403 19:32:49.140971 25057 net.cpp:425] inception_5b/output <- inception_5b/1x1
I0403 19:32:49.140990 25057 net.cpp:425] inception_5b/output <- inception_5b/3x3
I0403 19:32:49.141006 25057 net.cpp:425] inception_5b/output <- inception_5b/5x5
I0403 19:32:49.141022 25057 net.cpp:425] inception_5b/output <- inception_5b/pool_proj
I0403 19:32:49.141041 25057 net.cpp:399] inception_5b/output -> inception_5b/output
I0403 19:32:49.141093 25057 net.cpp:141] Setting up inception_5b/output
I0403 19:32:49.141118 25057 net.cpp:148] Top shape: 24 1024 7 7 (1204224)
I0403 19:32:49.141132 25057 net.cpp:156] Memory required for data: 1345864224
I0403 19:32:49.141147 25057 layer_factory.hpp:77] Creating layer pool5/7x7_s1
I0403 19:32:49.141168 25057 net.cpp:91] Creating Layer pool5/7x7_s1
I0403 19:32:49.141186 25057 net.cpp:425] pool5/7x7_s1 <- inception_5b/output
I0403 19:32:49.141204 25057 net.cpp:399] pool5/7x7_s1 -> pool5/7x7_s1
I0403 19:32:49.141417 25057 net.cpp:141] Setting up pool5/7x7_s1
I0403 19:32:49.141445 25057 net.cpp:148] Top shape: 24 1024 1 1 (24576)
I0403 19:32:49.141461 25057 net.cpp:156] Memory required for data: 1345962528
I0403 19:32:49.141475 25057 layer_factory.hpp:77] Creating layer pool5/drop_7x7_s1
I0403 19:32:49.141494 25057 net.cpp:91] Creating Layer pool5/drop_7x7_s1
I0403 19:32:49.141511 25057 net.cpp:425] pool5/drop_7x7_s1 <- pool5/7x7_s1
I0403 19:32:49.141531 25057 net.cpp:386] pool5/drop_7x7_s1 -> pool5/7x7_s1 (in-place)
I0403 19:32:49.141582 25057 net.cpp:141] Setting up pool5/drop_7x7_s1
I0403 19:32:49.141604 25057 net.cpp:148] Top shape: 24 1024 1 1 (24576)
I0403 19:32:49.141619 25057 net.cpp:156] Memory required for data: 1346060832
I0403 19:32:49.141634 25057 layer_factory.hpp:77] Creating layer loss3/classifier_plantvillage
I0403 19:32:49.141656 25057 net.cpp:91] Creating Layer loss3/classifier_plantvillage
I0403 19:32:49.141674 25057 net.cpp:425] loss3/classifier_plantvillage <- pool5/7x7_s1
I0403 19:32:49.141696 25057 net.cpp:399] loss3/classifier_plantvillage -> loss3/classifier_plantvillage
I0403 19:32:49.142103 25057 net.cpp:141] Setting up loss3/classifier_plantvillage
I0403 19:32:49.142128 25057 net.cpp:148] Top shape: 24 38 (912)
I0403 19:32:49.142143 25057 net.cpp:156] Memory required for data: 1346064480
I0403 19:32:49.142160 25057 layer_factory.hpp:77] Creating layer loss3/classifier_plantvillage_loss3/classifier_plantvillage_0_split
I0403 19:32:49.142180 25057 net.cpp:91] Creating Layer loss3/classifier_plantvillage_loss3/classifier_plantvillage_0_split
I0403 19:32:49.142199 25057 net.cpp:425] loss3/classifier_plantvillage_loss3/classifier_plantvillage_0_split <- loss3/classifier_plantvillage
I0403 19:32:49.142215 25057 net.cpp:399] loss3/classifier_plantvillage_loss3/classifier_plantvillage_0_split -> loss3/classifier_plantvillage_loss3/classifier_plantvillage_0_split_0
I0403 19:32:49.142235 25057 net.cpp:399] loss3/classifier_plantvillage_loss3/classifier_plantvillage_0_split -> loss3/classifier_plantvillage_loss3/classifier_plantvillage_0_split_1
I0403 19:32:49.142258 25057 net.cpp:399] loss3/classifier_plantvillage_loss3/classifier_plantvillage_0_split -> loss3/classifier_plantvillage_loss3/classifier_plantvillage_0_split_2
I0403 19:32:49.142282 25057 net.cpp:399] loss3/classifier_plantvillage_loss3/classifier_plantvillage_0_split -> loss3/classifier_plantvillage_loss3/classifier_plantvillage_0_split_3
I0403 19:32:49.142379 25057 net.cpp:141] Setting up loss3/classifier_plantvillage_loss3/classifier_plantvillage_0_split
I0403 19:32:49.142402 25057 net.cpp:148] Top shape: 24 38 (912)
I0403 19:32:49.142418 25057 net.cpp:148] Top shape: 24 38 (912)
I0403 19:32:49.142433 25057 net.cpp:148] Top shape: 24 38 (912)
I0403 19:32:49.142448 25057 net.cpp:148] Top shape: 24 38 (912)
I0403 19:32:49.142462 25057 net.cpp:156] Memory required for data: 1346079072
I0403 19:32:49.142477 25057 layer_factory.hpp:77] Creating layer loss1/loss
I0403 19:32:49.142500 25057 net.cpp:91] Creating Layer loss1/loss
I0403 19:32:49.142518 25057 net.cpp:425] loss1/loss <- loss1/classifier_plantvillage_loss1/classifier_plantvillage_0_split_0
I0403 19:32:49.142549 25057 net.cpp:425] loss1/loss <- label_data_1_split_0
…
