…
I0403 19:45:05.144598 25770 net.cpp:313] The NetState phase (1) differed from the phase (0) specified by a rule in layer data
I0403 19:45:05.145834 25770 net.cpp:49] Initializing net from parameters: 
state {
  phase: TEST
}
layer {
  name: "data"
  type: "Data"
  top: "data"
  top: "label"
  include {
    phase: TEST
  }
  transform_param {
    mirror: false
    crop_size: 224
    mean_file: "/home/mohanty/data/final_dataset/lmdb/grayscale-80-20/mean.binaryproto"
  }
  data_param {
    source: "/home/mohanty/data/final_dataset/lmdb/grayscale-80-20/test_db"
    batch_size: 24
    backend: LMDB
  }
}
layer {
  name: "conv1/7x7_s2"
  type: "Convolution"
  bottom: "data"
  top: "conv1/7x7_s2"
  param {
    lr_mult: 1
    decay_mult: 1
  }
  param {
    lr_mult: 2
    decay_mult: 0
  }
  convolution_param {
    num_output: 64
    pad: 3
    kernel_size: 7
    stride: 2
    weight_filler {
      type: "xavier"
      std: 0.1
    }
    bias_filler {
      type: "constant"
      value: 0.2
    }
  }
}
layer {
  name: "conv1/relu_7x7"
  type: "ReLU"
  bottom: "conv1/7x7_s2"
  top: "conv1/7x7_s2"
}
layer {
  name: "pool1/3x3_s2"
  type: "Pooling"
  bottom: "conv1/7x7_s2"
  top: "pool1/3x3_s2"
  pooling_param {
    pool: MAX
    kernel_size: 3
    stride: 2
  }
}
layer {
  name: "pool1/norm1"
  type: "LRN"
  bottom: "pool1/3x3_s2"
  top: "pool1/norm1"
  lrn_param {
    local_size: 5
    alpha: 0.0001
    beta: 0.75
  }
}
layer {
  name: "conv2/3x3_reduce"
  type: "Convolution"
  bottom: "pool1/norm1"
  top: "conv2/3x3_reduce"
  param {
    lr_mult: 1
    decay_mult: 1
  }
  param {
    lr_mult: 2
    decay_mult: 0
  }
  convolution_param {
    num_output: 64
    kernel_size: 1
    weight_filler {
      type: "xavier"
      std: 0.1
    }
    bias_filler {
      type: "constant"
      value: 0.2
    }
  }
}
layer {
  name: "conv2/relu_3x3_reduce"
  type: "ReLU"
  bottom: "conv2/3x3_reduce"
  top: "conv2/3x3_reduce"
}
layer {
  name: "conv2/3x3"
  type: "Convolution"
  bottom: "conv2/3x3_reduce"
  top: "conv2/3x3"
  param {
    lr_mult: 1
    decay_mult: 1
  }
  param {
    lr_mult: 2
    decay_mult: 0
  }
  convolution_param {
    num_output: 192
    pad: 1
    kernel_size: 3
    weight_filler {
      type: "xavier"
      std: 0.03
    }
    bias_filler {
      type: "constant"
      value: 0.2
    }
  }
}
layer {
  name: "conv2/relu_3x3"
  type: "ReLU"
  bottom: "conv2/3x3"
  top: "conv2/3x3"
}
layer {
  name: "conv2/norm2"
  type: "LRN"
  bottom: "conv2/3x3"
  top: "conv2/norm2"
  lrn_param {
    local_size: 5
    alpha: 0.0001
    beta: 0.75
  }
}
layer {
  name: "pool2/3x3_s2"
  type: "Pooling"
  bottom: "conv2/norm2"
  top: "pool2/3x3_s2"
  pooling_param {
    pool: MAX
    kernel_size: 3
    stride: 2
  }
}
layer {
  name: "inception_3a/1x1"
  type: "Convolution"
  bottom: "pool2/3x3_s2"
  top: "inception_3a/1x1"
  param {
    lr_mult: 1
    decay_mult: 1
  }
  param {
    lr_mult: 2
    decay_mult: 0
  }
  convolution_param {
    num_output: 64
    kernel_size: 1
    weight_filler {
      type: "xavier"
      std: 0.03
    }
    bias_filler {
      type: "constant"
      value: 0.2
    }
  }
}
layer {
  name: "inception_3a/relu_1x1"
  type: "ReLU"
  bottom: "inception_3a/1x1"
  top: "inception_3a/1x1"
}
layer {
  name: "inception_3a/3x3_reduce"
  type: "Convolution"
  bottom: "pool2/3x3_s2"
  top: "inception_3a/3x3_reduce"
  param {
    lr_mult: 1
    decay_mult: 1
  }
  param {
    lr_mult: 2
    decay_mult: 0
  }
  convolution_param {
    num_output: 96
    kernel_size: 1
    weight_filler {
      type: "xavier"
      std: 0.09
    }
    bias_filler {
      type: "constant"
      value: 0.2
    }
  }
}
layer {
  name: "inception_3a/relu_3x3_reduce"
  type: "ReLU"
  bottom: "inception_3a/3x3_reduce"
  top: "inception_3a/3x3_reduce"
}
layer {
  name: "inception_3a/3x3"
  type: "Convolution"
  bottom: "inception_3a/3x3_reduce"
  top: "inception_3a/3x3"
  param {
    lr_mult: 1
    decay_mult: 1
  }
  param {
    lr_mult: 2
    decay_mult: 0
  }
  convolution_param {
    num_output: 128
    pad: 1
    kernel_size: 3
    weight_filler {
      type: "xavier"
      std: 0.03
    }
    bias_filler {
      type: "constant"
      value: 0.2
    }
  }
}
layer {
  name: "inception_3a/relu_3x3"
  type: "ReLU"
  bottom: "inception_3a/3x3"
  top: "inception_3a/3x3"
}
layer {
  name: "inception_3a/5x5_reduce"
  type: "Convolution"
  bottom: "pool2/3x3_s2"
  top: "inception_3a/5x5_reduce"
  param {
    lr_mult: 1
    decay_mult: 1
  }
  param {
    lr_mult: 2
    decay_mult: 0
  }
  convolution_param {
    num_output: 16
    kernel_size: 1
    weight_filler {
      type: "xavier"
      std: 0.2
    }
    bias_filler {
      type: "constant"
      value: 0.2
    }
  }
}
layer {
  name: "inception_3a/relu_5x5_reduce"
  type: "ReLU"
  bottom: "inception_3a/5x5_reduce"
  top: "inception_3a/5x5_reduce"
}
layer {
  name: "inception_3a/5x5"
  type: "Convolution"
  bottom: "inception_3a/5x5_reduce"
  top: "inception_3a/5x5"
  param {
    lr_mult: 1
    decay_mult: 1
  }
  param {
    lr_mult: 2
    decay_mult: 0
  }
  convolution_param {
    num_output: 32
    pad: 2
    kernel_size: 5
    weight_filler {
      type: "xavier"
      std: 0.03
    }
    bias_filler {
      type: "constant"
      value: 0.2
    }
  }
}
layer {
  name: "inception_3a/relu_5x5"
  type: "ReLU"
  bottom: "inception_3a/5x5"
  top: "inception_3a/5x5"
}
layer {
  name: "inception_3a/pool"
  type: "Pooling"
  bottom: "pool2/3x3_s2"
  top: "inception_3a/pool"
  pooling_param {
    pool: MAX
    kernel_size: 3
    stride: 1
    pad: 1
  }
}
layer {
  name: "inception_3a/pool_proj"
  type: "Convolution"
  bottom: "inception_3a/pool"
  top: "inception_3a/pool_proj"
  param {
    lr_mult: 1
    decay_mult: 1
  }
  param {
    lr_mult: 2
    decay_mult: 0
  }
  convolution_param {
    num_output: 32
    kernel_size: 1
    weight_filler {
      type: "xavier"
      std: 0.1
    }
    bias_filler {
      type: "constant"
      value: 0.2
    }
  }
}
layer {
  name: "inception_3a/relu_pool_proj"
  type: "ReLU"
  bottom: "inception_3a/pool_proj"
  top: "inception_3a/pool_proj"
}
layer {
  name: "inception_3a/output"
  type: "Concat"
  bottom: "inception_3a/1x1"
  bottom: "inception_3a/3x3"
  bottom: "inception_3a/5x5"
  bottom: "inception_3a/pool_proj"
  top: "inception_3a/output"
}
layer {
  name: "inception_3b/1x1"
  type: "Convolution"
  bottom: "inception_3a/output"
  top: "inception_3b/1x1"
  param {
    lr_mult: 1
    decay_mult: 1
  }
  param {
    lr_mult: 2
    decay_mult: 0
  }
  convolution_param {
    num_output: 128
    kernel_size: 1
    weight_filler {
      type: "xavier"
      std: 0.03
    }
    bias_filler {
      type: "constant"
      value: 0.2
    }
  }
}
layer {
  name: "inception_3b/relu_1x1"
  type: "ReLU"
  bottom: "inception_3b/1x1"
  top: "inception_3b/1x1"
}
layer {
  name: "inception_3b/3x3_reduce"
  type: "Convolution"
  bottom: "inception_3a/output"
  top: "inception_3b/3x3_reduce"
  param {
    lr_mult: 1
    decay_mult: 1
  }
  param {
    lr_mult: 2
    decay_mult: 0
  }
  convolution_param {
    num_output: 128
    kernel_size: 1
    weight_filler {
      type: "xavier"
      std: 0.09
    }
    bias_filler {
      type: "constant"
      value: 0.2
    }
  }
}
layer {
  name: "inception_3b/relu_3x3_reduce"
  type: "ReLU"
  bottom: "inception_3b/3x3_reduce"
  top: "inception_3b/3x3_reduce"
}
layer {
  name: "inception_3b/3x3"
  type: "Convolution"
  bottom: "inception_3b/3x3_reduce"
  top: "inception_3b/3x3"
  param {
    lr_mult: 1
    decay_mult: 1
  }
  param {
    lr_mult: 2
    decay_mult: 0
  }
  convolution_param {
    num_output: 192
    pad: 1
    kernel_size: 3
    weight_filler {
      type: "xavier"
      std: 0.03
    }
    bias_filler {
      type: "constant"
      value: 0.2
    }
  }
}
layer {
  name: "inception_3b/relu_3x3"
  type: "ReLU"
  bottom: "inception_3b/3x3"
  top: "inception_3b/3x3"
}
layer {
  name: "inception_3b/5x5_reduce"
  type: "Convolution"
  bottom: "inception_3a/output"
  top: "inception_3b/5x5_reduce"
  param {
    lr_mult: 1
    decay_mult: 1
  }
  param {
    lr_mult: 2
    decay_mult: 0
  }
  convolution_param {
    num_output: 32
    kernel_size: 1
    weight_filler {
      type: "xavier"
      std: 0.2
    }
    bias_filler {
      type: "constant"
      value: 0.2
    }
  }
}
layer {
  name: "inception_3b/relu_5x5_reduce"
  type: "ReLU"
  bottom: "inception_3b/5x5_reduce"
  top: "inception_3b/5x5_reduce"
}
layer {
  name: "inception_3b/5x5"
  type: "Convolution"
  bottom: "inception_3b/5x5_reduce"
  top: "inception_3b/5x5"
  param {
    lr_mult: 1
    decay_mult: 1
  }
  param {
    lr_mult: 2
    decay_mult: 0
  }
  convolution_param {
    num_output: 96
    pad: 2
    kernel_size: 5
    weight_filler {
      type: "xavier"
      std: 0.03
    }
    bias_filler {
      type: "constant"
      value: 0.2
    }
  }
}
layer {
  name: "inception_3b/relu_5x5"
  type: "ReLU"
  bottom: "inception_3b/5x5"
  top: "inception_3b/5x5"
}
layer {
  name: "inception_3b/pool"
  type: "Pooling"
  bottom: "inception_3a/output"
  top: "inception_3b/pool"
  pooling_param {
    pool: MAX
    kernel_size: 3
    stride: 1
    pad: 1
  }
}
layer {
  name: "inception_3b/pool_proj"
  type: "Convolution"
  bottom: "inception_3b/pool"
  top: "inception_3b/pool_proj"
  param {
    lr_mult: 1
    decay_mult: 1
  }
  param {
    lr_mult: 2
    decay_mult: 0
  }
  convolution_param {
    num_output: 64
    kernel_size: 1
    weight_filler {
      type: "xavier"
      std: 0.1
    }
    bias_filler {
      type: "constant"
      value: 0.2
    }
  }
}
layer {
  name: "inception_3b/relu_pool_proj"
  type: "ReLU"
  bottom: "inception_3b/pool_proj"
  top: "inception_3b/pool_proj"
}
layer {
  name: "inception_3b/output"
  type: "Concat"
  bottom: "inception_3b/1x1"
  bottom: "inception_3b/3x3"
  bottom: "inception_3b/5x5"
  bottom: "inception_3b/pool_proj"
  top: "inception_3b/output"
}
layer {
  name: "pool3/3x3_s2"
  type: "Pooling"
  bottom: "inception_3b/output"
  top: "pool3/3x3_s2"
  pooling_param {
    pool: MAX
    kernel_size: 3
    stride: 2
  }
}
layer {
  name: "inception_4a/1x1"
  type: "Convolution"
  bottom: "pool3/3x3_s2"
  top: "inception_4a/1x1"
  param {
    lr_mult: 1
    decay_mult: 1
  }
  param {
    lr_mult: 2
    decay_mult: 0
  }
  convolution_param {
    num_output: 192
    kernel_size: 1
    weight_filler {
      type: "xavier"
      std: 0.03
    }
    bias_filler {
      type: "constant"
      value: 0.2
    }
  }
}
layer {
  name: "inception_4a/relu_1x1"
  type: "ReLU"
  bottom: "inception_4a/1x1"
  top: "inception_4a/1x1"
}
layer {
  name: "inception_4a/3x3_reduce"
  type: "Convolution"
  bottom: "pool3/3x3_s2"
  top: "inception_4a/3x3_reduce"
  param {
    lr_mult: 1
    decay_mult: 1
  }
  param {
    lr_mult: 2
    decay_mult: 0
  }
  convolution_param {
    num_output: 96
    kernel_size: 1
    weight_filler {
      type: "xavier"
      std: 0.09
    }
    bias_filler {
      type: "constant"
      value: 0.2
    }
  }
}
layer {
  name: "inception_4a/relu_3x3_reduce"
  type: "ReLU"
  bottom: "inception_4a/3x3_reduce"
  top: "inception_4a/3x3_reduce"
}
layer {
  name: "inception_4a/3x3"
  type: "Convolution"
  bottom: "inception_4a/3x3_reduce"
  top: "inception_4a/3x3"
  param {
    lr_mult: 1
    decay_mult: 1
  }
  param {
    lr_mult: 2
    decay_mult: 0
  }
  convolution_param {
    num_output: 208
    pad: 1
    kernel_size: 3
    weight_filler {
      type: "xavier"
      std: 0.03
    }
    bias_filler {
      type: "constant"
      value: 0.2
    }
  }
}
layer {
  name: "inception_4a/relu_3x3"
  type: "ReLU"
  bottom: "inception_4a/3x3"
  top: "inception_4a/3x3"
}
layer {
  name: "inception_4a/5x5_reduce"
  type: "Convolution"
  bottom: "pool3/3x3_s2"
  top: "inception_4a/5x5_reduce"
  param {
    lr_mult: 1
    decay_mult: 1
  }
  param {
    lr_mult: 2
    decay_mult: 0
  }
  convolution_param {
    num_output: 16
    kernel_size: 1
    weight_filler {
      type: "xavier"
      std: 0.2
    }
    bias_filler {
      type: "constant"
      value: 0.2
    }
  }
}
layer {
  name: "inception_4a/relu_5x5_reduce"
  type: "ReLU"
  bottom: "inception_4a/5x5_reduce"
  top: "inception_4a/5x5_reduce"
}
layer {
  name: "inception_4a/5x5"
  type: "Convolution"
  bottom: "inception_4a/5x5_reduce"
  top: "inception_4a/5x5"
  param {
    lr_mult: 1
    decay_mult: 1
  }
  param {
    lr_mult: 2
    decay_mult: 0
  }
  convolution_param {
    num_output: 48
    pad: 2
    kernel_size: 5
    weight_filler {
      type: "xavier"
      std: 0.03
    }
    bias_filler {
      type: "constant"
      value: 0.2
    }
  }
}
layer {
  name: "inception_4a/relu_5x5"
  type: "ReLU"
  bottom: "inception_4a/5x5"
  top: "inception_4a/5x5"
}
layer {
  name: "inception_4a/pool"
  type: "Pooling"
  bottom: "pool3/3x3_s2"
  top: "inception_4a/pool"
  pooling_param {
    pool: MAX
    kernel_size: 3
    stride: 1
    pad: 1
  }
}
layer {
  name: "inception_4a/pool_proj"
  type: "Convolution"
  bottom: "inception_4a/pool"
  top: "inception_4a/pool_proj"
  param {
    lr_mult: 1
    decay_mult: 1
  }
  param {
    lr_mult: 2
    decay_mult: 0
  }
  convolution_param {
    num_output: 64
    kernel_size: 1
    weight_filler {
      type: "xavier"
      std: 0.1
    }
    bias_filler {
      type: "constant"
      value: 0.2
    }
  }
}
layer {
  name: "inception_4a/relu_pool_proj"
  type: "ReLU"
  bottom: "inception_4a/pool_proj"
  top: "inception_4a/pool_proj"
}
layer {
  name: "inception_4a/output"
  type: "Concat"
  bottom: "inception_4a/1x1"
  bottom: "inception_4a/3x3"
  bottom: "inception_4a/5x5"
  bottom: "inception_4a/pool_proj"
  top: "inception_4a/output"
}
layer {
  name: "loss1/ave_pool"
  type: "Pooling"
  bottom: "inception_4a/output"
  top: "loss1/ave_pool"
  pooling_param {
    pool: AVE
    kernel_size: 5
    stride: 3
  }
}
layer {
  name: "loss1/conv"
  type: "Convolution"
  bottom: "loss1/ave_pool"
  top: "loss1/conv"
  param {
    lr_mult: 1
    decay_mult: 1
  }
  param {
    lr_mult: 2
    decay_mult: 0
  }
  convolution_param {
    num_output: 128
    kernel_size: 1
    weight_filler {
      type: "xavier"
      std: 0.08
    }
    bias_filler {
      type: "constant"
      value: 0.2
    }
  }
}
layer {
  name: "loss1/relu_conv"
  type: "ReLU"
  bottom: "loss1/conv"
  top: "loss1/conv"
}
layer {
  name: "loss1/fc"
  type: "InnerProduct"
  bottom: "loss1/conv"
  top: "loss1/fc"
  param {
    lr_mult: 1
    decay_mult: 1
  }
  param {
    lr_mult: 2
    decay_mult: 0
  }
  inner_product_param {
    num_output: 1024
    weight_filler {
      type: "xavier"
      std: 0.02
    }
    bias_filler {
      type: "constant"
      value: 0.2
    }
  }
}
layer {
  name: "loss1/relu_fc"
  type: "ReLU"
  bottom: "loss1/fc"
  top: "loss1/fc"
}
layer {
  name: "loss1/drop_fc"
  type: "Dropout"
  bottom: "loss1/fc"
  top: "loss1/fc"
  dropout_param {
    dropout_ratio: 0.7
  }
}
layer {
  name: "loss1/classifier_plantvillage"
  type: "InnerProduct"
  bottom: "loss1/fc"
  top: "loss1/classifier_plantvillage"
  param {
    lr_mult: 1
    decay_mult: 1
  }
  param {
    lr_mult: 2
    decay_mult: 0
  }
  inner_product_param {
    num_output: 38
    weight_filler {
      type: "xavier"
      std: 0.0009765625
    }
    bias_filler {
      type: "constant"
      value: 0
    }
  }
}
layer {
  name: "inception_4b/1x1"
  type: "Convolution"
  bottom: "inception_4a/output"
  top: "inception_4b/1x1"
  param {
    lr_mult: 1
    decay_mult: 1
  }
  param {
    lr_mult: 2
    decay_mult: 0
  }
  convolution_param {
    num_output: 160
    kernel_size: 1
    weight_filler {
      type: "xavier"
      std: 0.03
    }
    bias_filler {
      type: "constant"
      value: 0.2
    }
  }
}
layer {
  name: "inception_4b/relu_1x1"
  type: "ReLU"
  bottom: "inception_4b/1x1"
  top: "inception_4b/1x1"
}
layer {
  name: "inception_4b/3x3_reduce"
  type: "Convolution"
  bottom: "inception_4a/output"
  top: "inception_4b/3x3_reduce"
  param {
    lr_mult: 1
    decay_mult: 1
  }
  param {
    lr_mult: 2
    decay_mult: 0
  }
  convolution_param {
    num_output: 112
    kernel_size: 1
    weight_filler {
      type: "xavier"
      std: 0.09
    }
    bias_filler {
      type: "constant"
      value: 0.2
    }
  }
}
layer {
  name: "inception_4b/relu_3x3_reduce"
  type: "ReLU"
  bottom: "inception_4b/3x3_reduce"
  top: "inception_4b/3x3_reduce"
}
layer {
  name: "inception_4b/3x3"
  type: "Convolution"
  bottom: "inception_4b/3x3_reduce"
  top: "inception_4b/3x3"
  param {
    lr_mult: 1
    decay_mult: 1
  }
  param {
    lr_mult: 2
    decay_mult: 0
  }
  convolution_param {
    num_output: 224
    pad: 1
    kernel_size: 3
    weight_filler {
      type: "xavier"
      std: 0.03
    }
    bias_filler {
      type: "constant"
      value: 0.2
    }
  }
}
layer {
  name: "inception_4b/relu_3x3"
  type: "ReLU"
  bottom: "inception_4b/3x3"
  top: "inception_4b/3x3"
}
layer {
  name: "inception_4b/5x5_reduce"
  type: "Convolution"
  bottom: "inception_4a/output"
  top: "inception_4b/5x5_reduce"
  param {
    lr_mult: 1
    decay_mult: 1
  }
  param {
    lr_mult: 2
    decay_mult: 0
  }
  convolution_param {
    num_output: 24
    kernel_size: 1
    weight_filler {
      type: "xavier"
      std: 0.2
    }
    bias_filler {
      type: "constant"
      value: 0.2
    }
  }
}
layer {
  name: "inception_4b/relu_5x5_reduce"
  type: "ReLU"
  bottom: "inception_4b/5x5_reduce"
  top: "inception_4b/5x5_reduce"
}
layer {
  name: "inception_4b/5x5"
  type: "Convolution"
  bottom: "inception_4b/5x5_reduce"
  top: "inception_4b/5x5"
  param {
    lr_mult: 1
    decay_mult: 1
  }
  param {
    lr_mult: 2
    decay_mult: 0
  }
  convolution_param {
    num_output: 64
    pad: 2
    kernel_size: 5
    weight_filler {
      type: "xavier"
      std: 0.03
    }
    bias_filler {
      type: "constant"
      value: 0.2
    }
  }
}
layer {
  name: "inception_4b/relu_5x5"
  type: "ReLU"
  bottom: "inception_4b/5x5"
  top: "inception_4b/5x5"
}
layer {
  name: "inception_4b/pool"
  type: "Pooling"
  bottom: "inception_4a/output"
  top: "inception_4b/pool"
  pooling_param {
    pool: MAX
    kernel_size: 3
    stride: 1
    pad: 1
  }
}
layer {
  name: "inception_4b/pool_proj"
  type: "Convolution"
  bottom: "inception_4b/pool"
  top: "inception_4b/pool_proj"
  param {
    lr_mult: 1
    decay_mult: 1
  }
  param {
    lr_mult: 2
    decay_mult: 0
  }
  convolution_param {
    num_output: 64
    kernel_size: 1
    weight_filler {
      type: "xavier"
      std: 0.1
    }
    bias_filler {
      type: "constant"
      value: 0.2
    }
  }
}
layer {
  name: "inception_4b/relu_pool_proj"
  type: "ReLU"
  bottom: "inception_4b/pool_proj"
  top: "inception_4b/pool_proj"
}
layer {
  name: "inception_4b/output"
  type: "Concat"
  bottom: "inception_4b/1x1"
  bottom: "inception_4b/3x3"
  bottom: "inception_4b/5x5"
  bottom: "inception_4b/pool_proj"
  top: "inception_4b/output"
}
layer {
  name: "inception_4c/1x1"
  type: "Convolution"
  bottom: "inception_4b/output"
  top: "inception_4c/1x1"
  param {
    lr_mult: 1
    decay_mult: 1
  }
  param {
    lr_mult: 2
    decay_mult: 0
  }
  convolution_param {
    num_output: 128
    kernel_size: 1
    weight_filler {
      type: "xavier"
      std: 0.03
    }
    bias_filler {
      type: "constant"
      value: 0.2
    }
  }
}
layer {
  name: "inception_4c/relu_1x1"
  type: "ReLU"
  bottom: "inception_4c/1x1"
  top: "inception_4c/1x1"
}
layer {
  name: "inception_4c/3x3_reduce"
  type: "Convolution"
  bottom: "inception_4b/output"
  top: "inception_4c/3x3_reduce"
  param {
    lr_mult: 1
    decay_mult: 1
  }
  param {
    lr_mult: 2
    decay_mult: 0
  }
  convolution_param {
    num_output: 128
    kernel_size: 1
    weight_filler {
      type: "xavier"
      std: 0.09
    }
    bias_filler {
      type: "constant"
      value: 0.2
    }
  }
}
layer {
  name: "inception_4c/relu_3x3_reduce"
  type: "ReLU"
  bottom: "inception_4c/3x3_reduce"
  top: "inception_4c/3x3_reduce"
}
layer {
  name: "inception_4c/3x3"
  type: "Convolution"
  bottom: "inception_4c/3x3_reduce"
  top: "inception_4c/3x3"
  param {
    lr_mult: 1
    decay_mult: 1
  }
  param {
    lr_mult: 2
    decay_mult: 0
  }
  convolution_param {
    num_output: 256
    pad: 1
    kernel_size: 3
    weight_filler {
      type: "xavier"
      std: 0.03
    }
    bias_filler {
      type: "constant"
      value: 0.2
    }
  }
}
layer {
  name: "inception_4c/relu_3x3"
  type: "ReLU"
  bottom: "inception_4c/3x3"
  top: "inception_4c/3x3"
}
layer {
  name: "inception_4c/5x5_reduce"
  type: "Convolution"
  bottom: "inception_4b/output"
  top: "inception_4c/5x5_reduce"
  param {
    lr_mult: 1
    decay_mult: 1
  }
  param {
    lr_mult: 2
    decay_mult: 0
  }
  convolution_param {
    num_output: 24
    kernel_size: 1
    weight_filler {
      type: "xavier"
      std: 0.2
    }
    bias_filler {
      type: "constant"
      value: 0.2
    }
  }
}
layer {
  name: "inception_4c/relu_5x5_reduce"
  type: "ReLU"
  bottom: "inception_4c/5x5_reduce"
  top: "inception_4c/5x5_reduce"
}
layer {
  name: "inception_4c/5x5"
  type: "Convolution"
  bottom: "inception_4c/5x5_reduce"
  top: "inception_4c/5x5"
  param {
    lr_mult: 1
    decay_mult: 1
  }
  param {
    lr_mult: 2
    decay_mult: 0
  }
  convolution_param {
    num_output: 64
    pad: 2
    kernel_size: 5
    weight_filler {
      type: "xavier"
      std: 0.03
    }
    bias_filler {
      type: "constant"
      value: 0.2
    }
  }
}
layer {
  name: "inception_4c/relu_5x5"
  type: "ReLU"
  bottom: "inception_4c/5x5"
  top: "inception_4c/5x5"
}
layer {
  name: "inception_4c/pool"
  type: "Pooling"
  bottom: "inception_4b/output"
  top: "inception_4c/pool"
  pooling_param {
    pool: MAX
    kernel_size: 3
    stride: 1
    pad: 1
  }
}
layer {
  name: "inception_4c/pool_proj"
  type: "Convolution"
  bottom: "inception_4c/pool"
  top: "inception_4c/pool_proj"
  param {
    lr_mult: 1
    decay_mult: 1
  }
  param {
    lr_mult: 2
    decay_mult: 0
  }
  convolution_param {
    num_output: 64
    kernel_size: 1
    weight_filler {
      type: "xavier"
      std: 0.1
    }
    bias_filler {
      type: "constant"
      value: 0.2
    }
  }
}
layer {
  name: "inception_4c/relu_pool_proj"
  type: "ReLU"
  bottom: "inception_4c/pool_proj"
  top: "inception_4c/pool_proj"
}
layer {
  name: "inception_4c/output"
  type: "Concat"
  bottom: "inception_4c/1x1"
  bottom: "inception_4c/3x3"
  bottom: "inception_4c/5x5"
  bottom: "inception_4c/pool_proj"
  top: "inception_4c/output"
}
layer {
  name: "inception_4d/1x1"
  type: "Convolution"
  bottom: "inception_4c/output"
  top: "inception_4d/1x1"
  param {
    lr_mult: 1
    decay_mult: 1
  }
  param {
    lr_mult: 2
    decay_mult: 0
  }
  convolution_param {
    num_output: 112
    kernel_size: 1
    weight_filler {
      type: "xavier"
      std: 0.03
    }
    bias_filler {
      type: "constant"
      value: 0.2
    }
  }
}
layer {
  name: "inception_4d/relu_1x1"
  type: "ReLU"
  bottom: "inception_4d/1x1"
  top: "inception_4d/1x1"
}
layer {
  name: "inception_4d/3x3_reduce"
  type: "Convolution"
  bottom: "inception_4c/output"
  top: "inception_4d/3x3_reduce"
  param {
    lr_mult: 1
    decay_mult: 1
  }
  param {
    lr_mult: 2
    decay_mult: 0
  }
  convolution_param {
    num_output: 144
    kernel_size: 1
    weight_filler {
      type: "xavier"
      std: 0.09
    }
    bias_filler {
      type: "constant"
      value: 0.2
    }
  }
}
layer {
  name: "inception_4d/relu_3x3_reduce"
  type: "ReLU"
  bottom: "inception_4d/3x3_reduce"
  top: "inception_4d/3x3_reduce"
}
layer {
  name: "inception_4d/3x3"
  type: "Convolution"
  bottom: "inception_4d/3x3_reduce"
  top: "inception_4d/3x3"
  param {
    lr_mult: 1
    decay_mult: 1
  }
  param {
    lr_mult: 2
    decay_mult: 0
  }
  convolution_param {
    num_output: 288
    pad: 1
    kernel_size: 3
    weight_filler {
      type: "xavier"
      std: 0.03
    }
    bias_filler {
      type: "constant"
      value: 0.2
    }
  }
}
layer {
  name: "inception_4d/relu_3x3"
  type: "ReLU"
  bottom: "inception_4d/3x3"
  top: "inception_4d/3x3"
}
layer {
  name: "inception_4d/5x5_reduce"
  type: "Convolution"
  bottom: "inception_4c/output"
  top: "inception_4d/5x5_reduce"
  param {
    lr_mult: 1
    decay_mult: 1
  }
  param {
    lr_mult: 2
    decay_mult: 0
  }
  convolution_param {
    num_output: 32
    kernel_size: 1
    weight_filler {
      type: "xavier"
      std: 0.2
    }
    bias_filler {
      type: "constant"
      value: 0.2
    }
  }
}
layer {
  name: "inception_4d/relu_5x5_reduce"
  type: "ReLU"
  bottom: "inception_4d/5x5_reduce"
  top: "inception_4d/5x5_reduce"
}
layer {
  name: "inception_4d/5x5"
  type: "Convolution"
  bottom: "inception_4d/5x5_reduce"
  top: "inception_4d/5x5"
  param {
    lr_mult: 1
    decay_mult: 1
  }
  param {
    lr_mult: 2
    decay_mult: 0
  }
  convolution_param {
    num_output: 64
    pad: 2
    kernel_size: 5
    weight_filler {
      type: "xavier"
      std: 0.03
    }
    bias_filler {
      type: "constant"
      value: 0.2
    }
  }
}
layer {
  name: "inception_4d/relu_5x5"
  type: "ReLU"
  bottom: "inception_4d/5x5"
  top: "inception_4d/5x5"
}
layer {
  name: "inception_4d/pool"
  type: "Pooling"
  bottom: "inception_4c/output"
  top: "inception_4d/pool"
  pooling_param {
    pool: MAX
    kernel_size: 3
    stride: 1
    pad: 1
  }
}
layer {
  name: "inception_4d/pool_proj"
  type: "Convolution"
  bottom: "inception_4d/pool"
  top: "inception_4d/pool_proj"
  param {
    lr_mult: 1
    decay_mult: 1
  }
  param {
    lr_mult: 2
    decay_mult: 0
  }
  convolution_param {
    num_output: 64
    kernel_size: 1
    weight_filler {
      type: "xavier"
      std: 0.1
    }
    bias_filler {
      type: "constant"
      value: 0.2
    }
  }
}
layer {
  name: "inception_4d/relu_pool_proj"
  type: "ReLU"
  bottom: "inception_4d/pool_proj"
  top: "inception_4d/pool_proj"
}
layer {
  name: "inception_4d/output"
  type: "Concat"
  bottom: "inception_4d/1x1"
  bottom: "inception_4d/3x3"
  bottom: "inception_4d/5x5"
  bottom: "inception_4d/pool_proj"
  top: "inception_4d/output"
}
layer {
  name: "loss2/ave_pool"
  type: "Pooling"
  bottom: "inception_4d/output"
  top: "loss2/ave_pool"
  pooling_param {
    pool: AVE
    kernel_size: 5
    stride: 3
  }
}
layer {
  name: "loss2/conv"
  type: "Convolution"
  bottom: "loss2/ave_pool"
  top: "loss2/conv"
  param {
    lr_mult: 1
    decay_mult: 1
  }
  param {
    lr_mult: 2
    decay_mult: 0
  }
  convolution_param {
    num_output: 128
    kernel_size: 1
    weight_filler {
      type: "xavier"
      std: 0.08
    }
    bias_filler {
      type: "constant"
      value: 0.2
    }
  }
}
layer {
  name: "loss2/relu_conv"
  type: "ReLU"
  bottom: "loss2/conv"
  top: "loss2/conv"
}
layer {
  name: "loss2/fc"
  type: "InnerProduct"
  bottom: "loss2/conv"
  top: "loss2/fc"
  param {
    lr_mult: 1
    decay_mult: 1
  }
  param {
    lr_mult: 2
    decay_mult: 0
  }
  inner_product_param {
    num_output: 1024
    weight_filler {
      type: "xavier"
      std: 0.02
    }
    bias_filler {
      type: "constant"
      value: 0.2
    }
  }
}
layer {
  name: "loss2/relu_fc"
  type: "ReLU"
  bottom: "loss2/fc"
  top: "loss2/fc"
}
layer {
  name: "loss2/drop_fc"
  type: "Dropout"
  bottom: "loss2/fc"
  top: "loss2/fc"
  dropout_param {
    dropout_ratio: 0.7
  }
}
layer {
  name: "loss2/classifier_plantvillage"
  type: "InnerProduct"
  bottom: "loss2/fc"
  top: "loss2/classifier_plantvillage"
  param {
    lr_mult: 1
    decay_mult: 1
  }
  param {
    lr_mult: 2
    decay_mult: 0
  }
  inner_product_param {
    num_output: 38
    weight_filler {
      type: "xavier"
      std: 0.0009765625
    }
    bias_filler {
      type: "constant"
      value: 0
    }
  }
}
layer {
  name: "inception_4e/1x1"
  type: "Convolution"
  bottom: "inception_4d/output"
  top: "inception_4e/1x1"
  param {
    lr_mult: 1
    decay_mult: 1
  }
  param {
    lr_mult: 2
    decay_mult: 0
  }
  convolution_param {
    num_output: 256
    kernel_size: 1
    weight_filler {
      type: "xavier"
      std: 0.03
    }
    bias_filler {
      type: "constant"
      value: 0.2
    }
  }
}
layer {
  name: "inception_4e/relu_1x1"
  type: "ReLU"
  bottom: "inception_4e/1x1"
  top: "inception_4e/1x1"
}
layer {
  name: "inception_4e/3x3_reduce"
  type: "Convolution"
  bottom: "inception_4d/output"
  top: "inception_4e/3x3_reduce"
  param {
    lr_mult: 1
    decay_mult: 1
  }
  param {
    lr_mult: 2
    decay_mult: 0
  }
  convolution_param {
    num_output: 160
    kernel_size: 1
    weight_filler {
      type: "xavier"
      std: 0.09
    }
    bias_filler {
      type: "constant"
      value: 0.2
    }
  }
}
layer {
  name: "inception_4e/relu_3x3_reduce"
  type: "ReLU"
  bottom: "inception_4e/3x3_reduce"
  top: "inception_4e/3x3_reduce"
}
layer {
  name: "inception_4e/3x3"
  type: "Convolution"
  bottom: "inception_4e/3x3_reduce"
  top: "inception_4e/3x3"
  param {
    lr_mult: 1
    decay_mult: 1
  }
  param {
    lr_mult: 2
    decay_mult: 0
  }
  convolution_param {
    num_output: 320
    pad: 1
    kernel_size: 3
    weight_filler {
      type: "xavier"
      std: 0.03
    }
    bias_filler {
      type: "constant"
      value: 0.2
    }
  }
}
layer {
  name: "inception_4e/relu_3x3"
  type: "ReLU"
  bottom: "inception_4e/3x3"
  top: "inception_4e/3x3"
}
layer {
  name: "inception_4e/5x5_reduce"
  type: "Convolution"
  bottom: "inception_4d/output"
  top: "inception_4e/5x5_reduce"
  param {
    lr_mult: 1
    decay_mult: 1
  }
  param {
    lr_mult: 2
    decay_mult: 0
  }
  convolution_param {
    num_output: 32
    kernel_size: 1
    weight_filler {
      type: "xavier"
      std: 0.2
    }
    bias_filler {
      type: "constant"
      value: 0.2
    }
  }
}
layer {
  name: "inception_4e/relu_5x5_reduce"
  type: "ReLU"
  bottom: "inception_4e/5x5_reduce"
  top: "inception_4e/5x5_reduce"
}
layer {
  name: "inception_4e/5x5"
  type: "Convolution"
  bottom: "inception_4e/5x5_reduce"
  top: "inception_4e/
I0403 19:45:05.147742 25770 layer_factory.hpp:77] Creating layer data
I0403 19:45:05.148368 25770 net.cpp:91] Creating Layer data
I0403 19:45:05.148403 25770 net.cpp:399] data -> data
I0403 19:45:05.148473 25770 net.cpp:399] data -> label
I0403 19:45:05.148519 25770 data_transformer.cpp:25] Loading mean file from: /home/mohanty/data/final_dataset/lmdb/grayscale-80-20/mean.binaryproto
I0403 19:45:05.149644 25773 db_lmdb.cpp:38] Opened lmdb /home/mohanty/data/final_dataset/lmdb/grayscale-80-20/test_db
I0403 19:45:05.162854 25770 data_layer.cpp:41] output data size: 24,3,224,224
I0403 19:45:05.191540 25770 net.cpp:141] Setting up data
I0403 19:45:05.191663 25770 net.cpp:148] Top shape: 24 3 224 224 (3612672)
I0403 19:45:05.191687 25770 net.cpp:148] Top shape: 24 (24)
I0403 19:45:05.191704 25770 net.cpp:156] Memory required for data: 14450784
I0403 19:45:05.191737 25770 layer_factory.hpp:77] Creating layer label_data_1_split
I0403 19:45:05.191772 25770 net.cpp:91] Creating Layer label_data_1_split
I0403 19:45:05.191795 25770 net.cpp:425] label_data_1_split <- label
I0403 19:45:05.191833 25770 net.cpp:399] label_data_1_split -> label_data_1_split_0
I0403 19:45:05.191865 25770 net.cpp:399] label_data_1_split -> label_data_1_split_1
I0403 19:45:05.191889 25770 net.cpp:399] label_data_1_split -> label_data_1_split_2
I0403 19:45:05.191913 25770 net.cpp:399] label_data_1_split -> label_data_1_split_3
I0403 19:45:05.191936 25770 net.cpp:399] label_data_1_split -> label_data_1_split_4
I0403 19:45:05.191959 25770 net.cpp:399] label_data_1_split -> label_data_1_split_5
I0403 19:45:05.191982 25770 net.cpp:399] label_data_1_split -> label_data_1_split_6
I0403 19:45:05.192003 25770 net.cpp:399] label_data_1_split -> label_data_1_split_7
I0403 19:45:05.192025 25770 net.cpp:399] label_data_1_split -> label_data_1_split_8
I0403 19:45:05.192046 25770 net.cpp:399] label_data_1_split -> label_data_1_split_9
I0403 19:45:05.192168 25770 net.cpp:141] Setting up label_data_1_split
I0403 19:45:05.192196 25770 net.cpp:148] Top shape: 24 (24)
I0403 19:45:05.192215 25770 net.cpp:148] Top shape: 24 (24)
I0403 19:45:05.192232 25770 net.cpp:148] Top shape: 24 (24)
I0403 19:45:05.192248 25770 net.cpp:148] Top shape: 24 (24)
I0403 19:45:05.192265 25770 net.cpp:148] Top shape: 24 (24)
I0403 19:45:05.192282 25770 net.cpp:148] Top shape: 24 (24)
I0403 19:45:05.192306 25770 net.cpp:148] Top shape: 24 (24)
I0403 19:45:05.192324 25770 net.cpp:148] Top shape: 24 (24)
I0403 19:45:05.192342 25770 net.cpp:148] Top shape: 24 (24)
I0403 19:45:05.192358 25770 net.cpp:148] Top shape: 24 (24)
I0403 19:45:05.192405 25770 net.cpp:156] Memory required for data: 14451744
I0403 19:45:05.192423 25770 layer_factory.hpp:77] Creating layer conv1/7x7_s2
I0403 19:45:05.192463 25770 net.cpp:91] Creating Layer conv1/7x7_s2
I0403 19:45:05.192483 25770 net.cpp:425] conv1/7x7_s2 <- data
I0403 19:45:05.192504 25770 net.cpp:399] conv1/7x7_s2 -> conv1/7x7_s2
I0403 19:45:05.337260 25770 net.cpp:141] Setting up conv1/7x7_s2
I0403 19:45:05.337375 25770 net.cpp:148] Top shape: 24 64 112 112 (19267584)
I0403 19:45:05.337395 25770 net.cpp:156] Memory required for data: 91522080
I0403 19:45:05.337435 25770 layer_factory.hpp:77] Creating layer conv1/relu_7x7
I0403 19:45:05.337466 25770 net.cpp:91] Creating Layer conv1/relu_7x7
I0403 19:45:05.337487 25770 net.cpp:425] conv1/relu_7x7 <- conv1/7x7_s2
I0403 19:45:05.337509 25770 net.cpp:386] conv1/relu_7x7 -> conv1/7x7_s2 (in-place)
I0403 19:45:05.337771 25770 net.cpp:141] Setting up conv1/relu_7x7
I0403 19:45:05.337800 25770 net.cpp:148] Top shape: 24 64 112 112 (19267584)
I0403 19:45:05.337820 25770 net.cpp:156] Memory required for data: 168592416
I0403 19:45:05.337836 25770 layer_factory.hpp:77] Creating layer pool1/3x3_s2
I0403 19:45:05.337865 25770 net.cpp:91] Creating Layer pool1/3x3_s2
I0403 19:45:05.337885 25770 net.cpp:425] pool1/3x3_s2 <- conv1/7x7_s2
I0403 19:45:05.337908 25770 net.cpp:399] pool1/3x3_s2 -> pool1/3x3_s2
I0403 19:45:05.337987 25770 net.cpp:141] Setting up pool1/3x3_s2
I0403 19:45:05.338014 25770 net.cpp:148] Top shape: 24 64 56 56 (4816896)
I0403 19:45:05.338030 25770 net.cpp:156] Memory required for data: 187860000
I0403 19:45:05.338047 25770 layer_factory.hpp:77] Creating layer pool1/norm1
I0403 19:45:05.338078 25770 net.cpp:91] Creating Layer pool1/norm1
I0403 19:45:05.338098 25770 net.cpp:425] pool1/norm1 <- pool1/3x3_s2
I0403 19:45:05.338117 25770 net.cpp:399] pool1/norm1 -> pool1/norm1
I0403 19:45:05.338418 25770 net.cpp:141] Setting up pool1/norm1
I0403 19:45:05.338449 25770 net.cpp:148] Top shape: 24 64 56 56 (4816896)
I0403 19:45:05.338465 25770 net.cpp:156] Memory required for data: 207127584
I0403 19:45:05.338481 25770 layer_factory.hpp:77] Creating layer conv2/3x3_reduce
I0403 19:45:05.338510 25770 net.cpp:91] Creating Layer conv2/3x3_reduce
I0403 19:45:05.338529 25770 net.cpp:425] conv2/3x3_reduce <- pool1/norm1
I0403 19:45:05.338549 25770 net.cpp:399] conv2/3x3_reduce -> conv2/3x3_reduce
I0403 19:45:05.339879 25770 net.cpp:141] Setting up conv2/3x3_reduce
I0403 19:45:05.339911 25770 net.cpp:148] Top shape: 24 64 56 56 (4816896)
I0403 19:45:05.339931 25770 net.cpp:156] Memory required for data: 226395168
I0403 19:45:05.339953 25770 layer_factory.hpp:77] Creating layer conv2/relu_3x3_reduce
I0403 19:45:05.339973 25770 net.cpp:91] Creating Layer conv2/relu_3x3_reduce
I0403 19:45:05.339990 25770 net.cpp:425] conv2/relu_3x3_reduce <- conv2/3x3_reduce
I0403 19:45:05.340008 25770 net.cpp:386] conv2/relu_3x3_reduce -> conv2/3x3_reduce (in-place)
I0403 19:45:05.340268 25770 net.cpp:141] Setting up conv2/relu_3x3_reduce
I0403 19:45:05.340299 25770 net.cpp:148] Top shape: 24 64 56 56 (4816896)
I0403 19:45:05.340317 25770 net.cpp:156] Memory required for data: 245662752
I0403 19:45:05.340334 25770 layer_factory.hpp:77] Creating layer conv2/3x3
I0403 19:45:05.340358 25770 net.cpp:91] Creating Layer conv2/3x3
I0403 19:45:05.340378 25770 net.cpp:425] conv2/3x3 <- conv2/3x3_reduce
I0403 19:45:05.340397 25770 net.cpp:399] conv2/3x3 -> conv2/3x3
I0403 19:45:05.342661 25770 net.cpp:141] Setting up conv2/3x3
I0403 19:45:05.342695 25770 net.cpp:148] Top shape: 24 192 56 56 (14450688)
I0403 19:45:05.342715 25770 net.cpp:156] Memory required for data: 303465504
I0403 19:45:05.342738 25770 layer_factory.hpp:77] Creating layer conv2/relu_3x3
I0403 19:45:05.342763 25770 net.cpp:91] Creating Layer conv2/relu_3x3
I0403 19:45:05.342782 25770 net.cpp:425] conv2/relu_3x3 <- conv2/3x3
I0403 19:45:05.342802 25770 net.cpp:386] conv2/relu_3x3 -> conv2/3x3 (in-place)
I0403 19:45:05.342977 25770 net.cpp:141] Setting up conv2/relu_3x3
I0403 19:45:05.343009 25770 net.cpp:148] Top shape: 24 192 56 56 (14450688)
I0403 19:45:05.343060 25770 net.cpp:156] Memory required for data: 361268256
I0403 19:45:05.343076 25770 layer_factory.hpp:77] Creating layer conv2/norm2
I0403 19:45:05.343098 25770 net.cpp:91] Creating Layer conv2/norm2
I0403 19:45:05.343117 25770 net.cpp:425] conv2/norm2 <- conv2/3x3
I0403 19:45:05.343139 25770 net.cpp:399] conv2/norm2 -> conv2/norm2
I0403 19:45:05.343446 25770 net.cpp:141] Setting up conv2/norm2
I0403 19:45:05.343479 25770 net.cpp:148] Top shape: 24 192 56 56 (14450688)
I0403 19:45:05.343499 25770 net.cpp:156] Memory required for data: 419071008
I0403 19:45:05.343518 25770 layer_factory.hpp:77] Creating layer pool2/3x3_s2
I0403 19:45:05.343536 25770 net.cpp:91] Creating Layer pool2/3x3_s2
I0403 19:45:05.343554 25770 net.cpp:425] pool2/3x3_s2 <- conv2/norm2
I0403 19:45:05.343577 25770 net.cpp:399] pool2/3x3_s2 -> pool2/3x3_s2
I0403 19:45:05.343636 25770 net.cpp:141] Setting up pool2/3x3_s2
I0403 19:45:05.343667 25770 net.cpp:148] Top shape: 24 192 28 28 (3612672)
I0403 19:45:05.343685 25770 net.cpp:156] Memory required for data: 433521696
I0403 19:45:05.343703 25770 layer_factory.hpp:77] Creating layer pool2/3x3_s2_pool2/3x3_s2_0_split
I0403 19:45:05.343724 25770 net.cpp:91] Creating Layer pool2/3x3_s2_pool2/3x3_s2_0_split
I0403 19:45:05.343740 25770 net.cpp:425] pool2/3x3_s2_pool2/3x3_s2_0_split <- pool2/3x3_s2
I0403 19:45:05.343760 25770 net.cpp:399] pool2/3x3_s2_pool2/3x3_s2_0_split -> pool2/3x3_s2_pool2/3x3_s2_0_split_0
I0403 19:45:05.343783 25770 net.cpp:399] pool2/3x3_s2_pool2/3x3_s2_0_split -> pool2/3x3_s2_pool2/3x3_s2_0_split_1
I0403 19:45:05.343806 25770 net.cpp:399] pool2/3x3_s2_pool2/3x3_s2_0_split -> pool2/3x3_s2_pool2/3x3_s2_0_split_2
I0403 19:45:05.343827 25770 net.cpp:399] pool2/3x3_s2_pool2/3x3_s2_0_split -> pool2/3x3_s2_pool2/3x3_s2_0_split_3
I0403 19:45:05.343900 25770 net.cpp:141] Setting up pool2/3x3_s2_pool2/3x3_s2_0_split
I0403 19:45:05.343930 25770 net.cpp:148] Top shape: 24 192 28 28 (3612672)
I0403 19:45:05.343950 25770 net.cpp:148] Top shape: 24 192 28 28 (3612672)
I0403 19:45:05.343968 25770 net.cpp:148] Top shape: 24 192 28 28 (3612672)
I0403 19:45:05.343986 25770 net.cpp:148] Top shape: 24 192 28 28 (3612672)
I0403 19:45:05.344000 25770 net.cpp:156] Memory required for data: 491324448
I0403 19:45:05.344017 25770 layer_factory.hpp:77] Creating layer inception_3a/1x1
I0403 19:45:05.344040 25770 net.cpp:91] Creating Layer inception_3a/1x1
I0403 19:45:05.344059 25770 net.cpp:425] inception_3a/1x1 <- pool2/3x3_s2_pool2/3x3_s2_0_split_0
I0403 19:45:05.344084 25770 net.cpp:399] inception_3a/1x1 -> inception_3a/1x1
I0403 19:45:05.345626 25770 net.cpp:141] Setting up inception_3a/1x1
I0403 19:45:05.345659 25770 net.cpp:148] Top shape: 24 64 28 28 (1204224)
I0403 19:45:05.345679 25770 net.cpp:156] Memory required for data: 496141344
I0403 19:45:05.345700 25770 layer_factory.hpp:77] Creating layer inception_3a/relu_1x1
I0403 19:45:05.345721 25770 net.cpp:91] Creating Layer inception_3a/relu_1x1
I0403 19:45:05.345739 25770 net.cpp:425] inception_3a/relu_1x1 <- inception_3a/1x1
I0403 19:45:05.345762 25770 net.cpp:386] inception_3a/relu_1x1 -> inception_3a/1x1 (in-place)
I0403 19:45:05.345934 25770 net.cpp:141] Setting up inception_3a/relu_1x1
I0403 19:45:05.345964 25770 net.cpp:148] Top shape: 24 64 28 28 (1204224)
I0403 19:45:05.345983 25770 net.cpp:156] Memory required for data: 500958240
I0403 19:45:05.345999 25770 layer_factory.hpp:77] Creating layer inception_3a/3x3_reduce
I0403 19:45:05.346024 25770 net.cpp:91] Creating Layer inception_3a/3x3_reduce
I0403 19:45:05.346045 25770 net.cpp:425] inception_3a/3x3_reduce <- pool2/3x3_s2_pool2/3x3_s2_0_split_1
I0403 19:45:05.346067 25770 net.cpp:399] inception_3a/3x3_reduce -> inception_3a/3x3_reduce
I0403 19:45:05.347756 25770 net.cpp:141] Setting up inception_3a/3x3_reduce
I0403 19:45:05.347789 25770 net.cpp:148] Top shape: 24 96 28 28 (1806336)
I0403 19:45:05.347810 25770 net.cpp:156] Memory required for data: 508183584
I0403 19:45:05.347832 25770 layer_factory.hpp:77] Creating layer inception_3a/relu_3x3_reduce
I0403 19:45:05.347874 25770 net.cpp:91] Creating Layer inception_3a/relu_3x3_reduce
I0403 19:45:05.347895 25770 net.cpp:425] inception_3a/relu_3x3_reduce <- inception_3a/3x3_reduce
I0403 19:45:05.347916 25770 net.cpp:386] inception_3a/relu_3x3_reduce -> inception_3a/3x3_reduce (in-place)
I0403 19:45:05.348098 25770 net.cpp:141] Setting up inception_3a/relu_3x3_reduce
I0403 19:45:05.348130 25770 net.cpp:148] Top shape: 24 96 28 28 (1806336)
I0403 19:45:05.348150 25770 net.cpp:156] Memory required for data: 515408928
I0403 19:45:05.348167 25770 layer_factory.hpp:77] Creating layer inception_3a/3x3
I0403 19:45:05.348192 25770 net.cpp:91] Creating Layer inception_3a/3x3
I0403 19:45:05.348214 25770 net.cpp:425] inception_3a/3x3 <- inception_3a/3x3_reduce
I0403 19:45:05.348234 25770 net.cpp:399] inception_3a/3x3 -> inception_3a/3x3
I0403 19:45:05.349866 25770 net.cpp:141] Setting up inception_3a/3x3
I0403 19:45:05.349897 25770 net.cpp:148] Top shape: 24 128 28 28 (2408448)
I0403 19:45:05.349916 25770 net.cpp:156] Memory required for data: 525042720
I0403 19:45:05.349936 25770 layer_factory.hpp:77] Creating layer inception_3a/relu_3x3
I0403 19:45:05.349964 25770 net.cpp:91] Creating Layer inception_3a/relu_3x3
I0403 19:45:05.349985 25770 net.cpp:425] inception_3a/relu_3x3 <- inception_3a/3x3
I0403 19:45:05.350006 25770 net.cpp:386] inception_3a/relu_3x3 -> inception_3a/3x3 (in-place)
I0403 19:45:05.350287 25770 net.cpp:141] Setting up inception_3a/relu_3x3
I0403 19:45:05.350317 25770 net.cpp:148] Top shape: 24 128 28 28 (2408448)
I0403 19:45:05.350333 25770 net.cpp:156] Memory required for data: 534676512
I0403 19:45:05.350352 25770 layer_factory.hpp:77] Creating layer inception_3a/5x5_reduce
I0403 19:45:05.350376 25770 net.cpp:91] Creating Layer inception_3a/5x5_reduce
I0403 19:45:05.350396 25770 net.cpp:425] inception_3a/5x5_reduce <- pool2/3x3_s2_pool2/3x3_s2_0_split_2
I0403 19:45:05.350419 25770 net.cpp:399] inception_3a/5x5_reduce -> inception_3a/5x5_reduce
I0403 19:45:05.351374 25770 net.cpp:141] Setting up inception_3a/5x5_reduce
I0403 19:45:05.351405 25770 net.cpp:148] Top shape: 24 16 28 28 (301056)
I0403 19:45:05.351423 25770 net.cpp:156] Memory required for data: 535880736
I0403 19:45:05.351444 25770 layer_factory.hpp:77] Creating layer inception_3a/relu_5x5_reduce
I0403 19:45:05.351469 25770 net.cpp:91] Creating Layer inception_3a/relu_5x5_reduce
I0403 19:45:05.351490 25770 net.cpp:425] inception_3a/relu_5x5_reduce <- inception_3a/5x5_reduce
I0403 19:45:05.351510 25770 net.cpp:386] inception_3a/relu_5x5_reduce -> inception_3a/5x5_reduce (in-place)
I0403 19:45:05.351785 25770 net.cpp:141] Setting up inception_3a/relu_5x5_reduce
I0403 19:45:05.351816 25770 net.cpp:148] Top shape: 24 16 28 28 (301056)
I0403 19:45:05.351835 25770 net.cpp:156] Memory required for data: 537084960
I0403 19:45:05.351853 25770 layer_factory.hpp:77] Creating layer inception_3a/5x5
I0403 19:45:05.351879 25770 net.cpp:91] Creating Layer inception_3a/5x5
I0403 19:45:05.351897 25770 net.cpp:425] inception_3a/5x5 <- inception_3a/5x5_reduce
I0403 19:45:05.351918 25770 net.cpp:399] inception_3a/5x5 -> inception_3a/5x5
I0403 19:45:05.352923 25770 net.cpp:141] Setting up inception_3a/5x5
I0403 19:45:05.352954 25770 net.cpp:148] Top shape: 24 32 28 28 (602112)
I0403 19:45:05.352973 25770 net.cpp:156] Memory required for data: 539493408
I0403 19:45:05.352995 25770 layer_factory.hpp:77] Creating layer inception_3a/relu_5x5
I0403 19:45:05.353016 25770 net.cpp:91] Creating Layer inception_3a/relu_5x5
I0403 19:45:05.353035 25770 net.cpp:425] inception_3a/relu_5x5 <- inception_3a/5x5
I0403 19:45:05.353057 25770 net.cpp:386] inception_3a/relu_5x5 -> inception_3a/5x5 (in-place)
I0403 19:45:05.353236 25770 net.cpp:141] Setting up inception_3a/relu_5x5
I0403 19:45:05.353272 25770 net.cpp:148] Top shape: 24 32 28 28 (602112)
I0403 19:45:05.353291 25770 net.cpp:156] Memory required for data: 541901856
I0403 19:45:05.353307 25770 layer_factory.hpp:77] Creating layer inception_3a/pool
I0403 19:45:05.353329 25770 net.cpp:91] Creating Layer inception_3a/pool
I0403 19:45:05.353363 25770 net.cpp:425] inception_3a/pool <- pool2/3x3_s2_pool2/3x3_s2_0_split_3
I0403 19:45:05.353384 25770 net.cpp:399] inception_3a/pool -> inception_3a/pool
I0403 19:45:05.353446 25770 net.cpp:141] Setting up inception_3a/pool
I0403 19:45:05.353476 25770 net.cpp:148] Top shape: 24 192 28 28 (3612672)
I0403 19:45:05.353492 25770 net.cpp:156] Memory required for data: 556352544
I0403 19:45:05.353508 25770 layer_factory.hpp:77] Creating layer inception_3a/pool_proj
I0403 19:45:05.353531 25770 net.cpp:91] Creating Layer inception_3a/pool_proj
I0403 19:45:05.353552 25770 net.cpp:425] inception_3a/pool_proj <- inception_3a/pool
I0403 19:45:05.353577 25770 net.cpp:399] inception_3a/pool_proj -> inception_3a/pool_proj
I0403 19:45:05.354562 25770 net.cpp:141] Setting up inception_3a/pool_proj
I0403 19:45:05.354595 25770 net.cpp:148] Top shape: 24 32 28 28 (602112)
I0403 19:45:05.354614 25770 net.cpp:156] Memory required for data: 558760992
I0403 19:45:05.354638 25770 layer_factory.hpp:77] Creating layer inception_3a/relu_pool_proj
I0403 19:45:05.354661 25770 net.cpp:91] Creating Layer inception_3a/relu_pool_proj
I0403 19:45:05.354681 25770 net.cpp:425] inception_3a/relu_pool_proj <- inception_3a/pool_proj
I0403 19:45:05.354701 25770 net.cpp:386] inception_3a/relu_pool_proj -> inception_3a/pool_proj (in-place)
I0403 19:45:05.354974 25770 net.cpp:141] Setting up inception_3a/relu_pool_proj
I0403 19:45:05.355002 25770 net.cpp:148] Top shape: 24 32 28 28 (602112)
I0403 19:45:05.355020 25770 net.cpp:156] Memory required for data: 561169440
I0403 19:45:05.355037 25770 layer_factory.hpp:77] Creating layer inception_3a/output
I0403 19:45:05.355057 25770 net.cpp:91] Creating Layer inception_3a/output
I0403 19:45:05.355074 25770 net.cpp:425] inception_3a/output <- inception_3a/1x1
I0403 19:45:05.355093 25770 net.cpp:425] inception_3a/output <- inception_3a/3x3
I0403 19:45:05.355111 25770 net.cpp:425] inception_3a/output <- inception_3a/5x5
I0403 19:45:05.355128 25770 net.cpp:425] inception_3a/output <- inception_3a/pool_proj
I0403 19:45:05.355149 25770 net.cpp:399] inception_3a/output -> inception_3a/output
I0403 19:45:05.355201 25770 net.cpp:141] Setting up inception_3a/output
I0403 19:45:05.355226 25770 net.cpp:148] Top shape: 24 256 28 28 (4816896)
I0403 19:45:05.355242 25770 net.cpp:156] Memory required for data: 580437024
I0403 19:45:05.355264 25770 layer_factory.hpp:77] Creating layer inception_3a/output_inception_3a/output_0_split
I0403 19:45:05.355288 25770 net.cpp:91] Creating Layer inception_3a/output_inception_3a/output_0_split
I0403 19:45:05.355305 25770 net.cpp:425] inception_3a/output_inception_3a/output_0_split <- inception_3a/output
I0403 19:45:05.355327 25770 net.cpp:399] inception_3a/output_inception_3a/output_0_split -> inception_3a/output_inception_3a/output_0_split_0
I0403 19:45:05.355350 25770 net.cpp:399] inception_3a/output_inception_3a/output_0_split -> inception_3a/output_inception_3a/output_0_split_1
I0403 19:45:05.355376 25770 net.cpp:399] inception_3a/output_inception_3a/output_0_split -> inception_3a/output_inception_3a/output_0_split_2
I0403 19:45:05.355399 25770 net.cpp:399] inception_3a/output_inception_3a/output_0_split -> inception_3a/output_inception_3a/output_0_split_3
I0403 19:45:05.355479 25770 net.cpp:141] Setting up inception_3a/output_inception_3a/output_0_split
I0403 19:45:05.355505 25770 net.cpp:148] Top shape: 24 256 28 28 (4816896)
I0403 19:45:05.355532 25770 net.cpp:148] Top shape: 24 256 28 28 (4816896)
I0403 19:45:05.355551 25770 net.cpp:148] Top shape: 24 256 28 28 (4816896)
I0403 19:45:05.355569 25770 net.cpp:148] Top shape: 24 256 28 28 (4816896)
I0403 19:45:05.355587 25770 net.cpp:156] Memory required for data: 657507360
I0403 19:45:05.355602 25770 layer_factory.hpp:77] Creating layer inception_3b/1x1
I0403 19:45:05.355625 25770 net.cpp:91] Creating Layer inception_3b/1x1
I0403 19:45:05.355646 25770 net.cpp:425] inception_3b/1x1 <- inception_3a/output_inception_3a/output_0_split_0
I0403 19:45:05.355669 25770 net.cpp:399] inception_3b/1x1 -> inception_3b/1x1
I0403 19:45:05.356804 25770 net.cpp:141] Setting up inception_3b/1x1
I0403 19:45:05.356849 25770 net.cpp:148] Top shape: 24 128 28 28 (2408448)
I0403 19:45:05.356868 25770 net.cpp:156] Memory required for data: 667141152
I0403 19:45:05.356887 25770 layer_factory.hpp:77] Creating layer inception_3b/relu_1x1
I0403 19:45:05.356906 25770 net.cpp:91] Creating Layer inception_3b/relu_1x1
I0403 19:45:05.356925 25770 net.cpp:425] inception_3b/relu_1x1 <- inception_3b/1x1
I0403 19:45:05.356950 25770 net.cpp:386] inception_3b/relu_1x1 -> inception_3b/1x1 (in-place)
I0403 19:45:05.357121 25770 net.cpp:141] Setting up inception_3b/relu_1x1
I0403 19:45:05.357152 25770 net.cpp:148] Top shape: 24 128 28 28 (2408448)
I0403 19:45:05.357168 25770 net.cpp:156] Memory required for data: 676774944
I0403 19:45:05.357183 25770 layer_factory.hpp:77] Creating layer inception_3b/3x3_reduce
I0403 19:45:05.357205 25770 net.cpp:91] Creating Layer inception_3b/3x3_reduce
I0403 19:45:05.357225 25770 net.cpp:425] inception_3b/3x3_reduce <- inception_3a/output_inception_3a/output_0_split_1
I0403 19:45:05.357249 25770 net.cpp:399] inception_3b/3x3_reduce -> inception_3b/3x3_reduce
I0403 19:45:05.358346 25770 net.cpp:141] Setting up inception_3b/3x3_reduce
I0403 19:45:05.358379 25770 net.cpp:148] Top shape: 24 128 28 28 (2408448)
I0403 19:45:05.358398 25770 net.cpp:156] Memory required for data: 686408736
I0403 19:45:05.358418 25770 layer_factory.hpp:77] Creating layer inception_3b/relu_3x3_reduce
I0403 19:45:05.358438 25770 net.cpp:91] Creating Layer inception_3b/relu_3x3_reduce
I0403 19:45:05.358458 25770 net.cpp:425] inception_3b/relu_3x3_reduce <- inception_3b/3x3_reduce
I0403 19:45:05.358479 25770 net.cpp:386] inception_3b/relu_3x3_reduce -> inception_3b/3x3_reduce (in-place)
I0403 19:45:05.358646 25770 net.cpp:141] Setting up inception_3b/relu_3x3_reduce
I0403 19:45:05.358675 25770 net.cpp:148] Top shape: 24 128 28 28 (2408448)
I0403 19:45:05.358692 25770 net.cpp:156] Memory required for data: 696042528
I0403 19:45:05.358708 25770 layer_factory.hpp:77] Creating layer inception_3b/3x3
I0403 19:45:05.358737 25770 net.cpp:91] Creating Layer inception_3b/3x3
I0403 19:45:05.358759 25770 net.cpp:425] inception_3b/3x3 <- inception_3b/3x3_reduce
I0403 19:45:05.358779 25770 net.cpp:399] inception_3b/3x3 -> inception_3b/3x3
I0403 19:45:05.361616 25770 net.cpp:141] Setting up inception_3b/3x3
I0403 19:45:05.361651 25770 net.cpp:148] Top shape: 24 192 28 28 (3612672)
I0403 19:45:05.361667 25770 net.cpp:156] Memory required for data: 710493216
I0403 19:45:05.361686 25770 layer_factory.hpp:77] Creating layer inception_3b/relu_3x3
I0403 19:45:05.361708 25770 net.cpp:91] Creating Layer inception_3b/relu_3x3
I0403 19:45:05.361728 25770 net.cpp:425] inception_3b/relu_3x3 <- inception_3b/3x3
I0403 19:45:05.361747 25770 net.cpp:386] inception_3b/relu_3x3 -> inception_3b/3x3 (in-place)
I0403 19:45:05.362002 25770 net.cpp:141] Setting up inception_3b/relu_3x3
I0403 19:45:05.362033 25770 net.cpp:148] Top shape: 24 192 28 28 (3612672)
I0403 19:45:05.362049 25770 net.cpp:156] Memory required for data: 724943904
I0403 19:45:05.362066 25770 layer_factory.hpp:77] Creating layer inception_3b/5x5_reduce
I0403 19:45:05.362092 25770 net.cpp:91] Creating Layer inception_3b/5x5_reduce
I0403 19:45:05.362110 25770 net.cpp:425] inception_3b/5x5_reduce <- inception_3a/output_inception_3a/output_0_split_2
I0403 19:45:05.362133 25770 net.cpp:399] inception_3b/5x5_reduce -> inception_3b/5x5_reduce
I0403 19:45:05.363064 25770 net.cpp:141] Setting up inception_3b/5x5_reduce
I0403 19:45:05.363095 25770 net.cpp:148] Top shape: 24 32 28 28 (602112)
I0403 19:45:05.363112 25770 net.cpp:156] Memory required for data: 727352352
I0403 19:45:05.363132 25770 layer_factory.hpp:77] Creating layer inception_3b/relu_5x5_reduce
I0403 19:45:05.363153 25770 net.cpp:91] Creating Layer inception_3b/relu_5x5_reduce
I0403 19:45:05.363173 25770 net.cpp:425] inception_3b/relu_5x5_reduce <- inception_3b/5x5_reduce
I0403 19:45:05.363190 25770 net.cpp:386] inception_3b/relu_5x5_reduce -> inception_3b/5x5_reduce (in-place)
I0403 19:45:05.363375 25770 net.cpp:141] Setting up inception_3b/relu_5x5_reduce
I0403 19:45:05.363407 25770 net.cpp:148] Top shape: 24 32 28 28 (602112)
I0403 19:45:05.363427 25770 net.cpp:156] Memory required for data: 729760800
I0403 19:45:05.363445 25770 layer_factory.hpp:77] Creating layer inception_3b/5x5
I0403 19:45:05.363464 25770 net.cpp:91] Creating Layer inception_3b/5x5
I0403 19:45:05.363481 25770 net.cpp:425] inception_3b/5x5 <- inception_3b/5x5_reduce
I0403 19:45:05.363503 25770 net.cpp:399] inception_3b/5x5 -> inception_3b/5x5
I0403 19:45:05.365428 25770 net.cpp:141] Setting up inception_3b/5x5
I0403 19:45:05.365460 25770 net.cpp:148] Top shape: 24 96 28 28 (1806336)
I0403 19:45:05.365479 25770 net.cpp:156] Memory required for data: 736986144
I0403 19:45:05.365497 25770 layer_factory.hpp:77] Creating layer inception_3b/relu_5x5
I0403 19:45:05.365516 25770 net.cpp:91] Creating Layer inception_3b/relu_5x5
I0403 19:45:05.365533 25770 net.cpp:425] inception_3b/relu_5x5 <- inception_3b/5x5
I0403 19:45:05.365556 25770 net.cpp:386] inception_3b/relu_5x5 -> inception_3b/5x5 (in-place)
I0403 19:45:05.365742 25770 net.cpp:141] Setting up inception_3b/relu_5x5
I0403 19:45:05.365770 25770 net.cpp:148] Top shape: 24 96 28 28 (1806336)
I0403 19:45:05.365789 25770 net.cpp:156] Memory required for data: 744211488
I0403 19:45:05.365804 25770 layer_factory.hpp:77] Creating layer inception_3b/pool
I0403 19:45:05.365823 25770 net.cpp:91] Creating Layer inception_3b/pool
I0403 19:45:05.365844 25770 net.cpp:425] inception_3b/pool <- inception_3a/output_inception_3a/output_0_split_3
I0403 19:45:05.365864 25770 net.cpp:399] inception_3b/pool -> inception_3b/pool
I0403 19:45:05.365922 25770 net.cpp:141] Setting up inception_3b/pool
I0403 19:45:05.365952 25770 net.cpp:148] Top shape: 24 256 28 28 (4816896)
I0403 19:45:05.365968 25770 net.cpp:156] Memory required for data: 763479072
I0403 19:45:05.365985 25770 layer_factory.hpp:77] Creating layer inception_3b/pool_proj
I0403 19:45:05.366008 25770 net.cpp:91] Creating Layer inception_3b/pool_proj
I0403 19:45:05.366027 25770 net.cpp:425] inception_3b/pool_proj <- inception_3b/pool
I0403 19:45:05.366050 25770 net.cpp:399] inception_3b/pool_proj -> inception_3b/pool_proj
I0403 19:45:05.367066 25770 net.cpp:141] Setting up inception_3b/pool_proj
I0403 19:45:05.367101 25770 net.cpp:148] Top shape: 24 64 28 28 (1204224)
I0403 19:45:05.367120 25770 net.cpp:156] Memory required for data: 768295968
I0403 19:45:05.367141 25770 layer_factory.hpp:77] Creating layer inception_3b/relu_pool_proj
I0403 19:45:05.367159 25770 net.cpp:91] Creating Layer inception_3b/relu_pool_proj
I0403 19:45:05.367178 25770 net.cpp:425] inception_3b/relu_pool_proj <- inception_3b/pool_proj
I0403 19:45:05.367197 25770 net.cpp:386] inception_3b/relu_pool_proj -> inception_3b/pool_proj (in-place)
I0403 19:45:05.367568 25770 net.cpp:141] Setting up inception_3b/relu_pool_proj
I0403 19:45:05.367597 25770 net.cpp:148] Top shape: 24 64 28 28 (1204224)
I0403 19:45:05.367614 25770 net.cpp:156] Memory required for data: 773112864
I0403 19:45:05.367630 25770 layer_factory.hpp:77] Creating layer inception_3b/output
I0403 19:45:05.367651 25770 net.cpp:91] Creating Layer inception_3b/output
I0403 19:45:05.367671 25770 net.cpp:425] inception_3b/output <- inception_3b/1x1
I0403 19:45:05.367691 25770 net.cpp:425] inception_3b/output <- inception_3b/3x3
I0403 19:45:05.367708 25770 net.cpp:425] inception_3b/output <- inception_3b/5x5
I0403 19:45:05.367724 25770 net.cpp:425] inception_3b/output <- inception_3b/pool_proj
I0403 19:45:05.367741 25770 net.cpp:399] inception_3b/output -> inception_3b/output
I0403 19:45:05.367787 25770 net.cpp:141] Setting up inception_3b/output
I0403 19:45:05.367815 25770 net.cpp:148] Top shape: 24 480 28 28 (9031680)
I0403 19:45:05.367831 25770 net.cpp:156] Memory required for data: 809239584
I0403 19:45:05.367846 25770 layer_factory.hpp:77] Creating layer pool3/3x3_s2
I0403 19:45:05.367864 25770 net.cpp:91] Creating Layer pool3/3x3_s2
I0403 19:45:05.367883 25770 net.cpp:425] pool3/3x3_s2 <- inception_3b/output
I0403 19:45:05.367921 25770 net.cpp:399] pool3/3x3_s2 -> pool3/3x3_s2
I0403 19:45:05.367982 25770 net.cpp:141] Setting up pool3/3x3_s2
I0403 19:45:05.368010 25770 net.cpp:148] Top shape: 24 480 14 14 (2257920)
I0403 19:45:05.368027 25770 net.cpp:156] Memory required for data: 818271264
I0403 19:45:05.368042 25770 layer_factory.hpp:77] Creating layer pool3/3x3_s2_pool3/3x3_s2_0_split
I0403 19:45:05.368062 25770 net.cpp:91] Creating Layer pool3/3x3_s2_pool3/3x3_s2_0_split
I0403 19:45:05.368079 25770 net.cpp:425] pool3/3x3_s2_pool3/3x3_s2_0_split <- pool3/3x3_s2
I0403 19:45:05.368101 25770 net.cpp:399] pool3/3x3_s2_pool3/3x3_s2_0_split -> pool3/3x3_s2_pool3/3x3_s2_0_split_0
I0403 19:45:05.368121 25770 net.cpp:399] pool3/3x3_s2_pool3/3x3_s2_0_split -> pool3/3x3_s2_pool3/3x3_s2_0_split_1
I0403 19:45:05.368144 25770 net.cpp:399] pool3/3x3_s2_pool3/3x3_s2_0_split -> pool3/3x3_s2_pool3/3x3_s2_0_split_2
I0403 19:45:05.368165 25770 net.cpp:399] pool3/3x3_s2_pool3/3x3_s2_0_split -> pool3/3x3_s2_pool3/3x3_s2_0_split_3
I0403 19:45:05.368238 25770 net.cpp:141] Setting up pool3/3x3_s2_pool3/3x3_s2_0_split
I0403 19:45:05.368274 25770 net.cpp:148] Top shape: 24 480 14 14 (2257920)
I0403 19:45:05.368294 25770 net.cpp:148] Top shape: 24 480 14 14 (2257920)
I0403 19:45:05.368311 25770 net.cpp:148] Top shape: 24 480 14 14 (2257920)
I0403 19:45:05.368329 25770 net.cpp:148] Top shape: 24 480 14 14 (2257920)
I0403 19:45:05.368342 25770 net.cpp:156] Memory required for data: 854397984
I0403 19:45:05.368358 25770 layer_factory.hpp:77] Creating layer inception_4a/1x1
I0403 19:45:05.368378 25770 net.cpp:91] Creating Layer inception_4a/1x1
I0403 19:45:05.368397 25770 net.cpp:425] inception_4a/1x1 <- pool3/3x3_s2_pool3/3x3_s2_0_split_0
I0403 19:45:05.368420 25770 net.cpp:399] inception_4a/1x1 -> inception_4a/1x1
I0403 19:45:05.369945 25770 net.cpp:141] Setting up inception_4a/1x1
I0403 19:45:05.369979 25770 net.cpp:148] Top shape: 24 192 14 14 (903168)
I0403 19:45:05.370000 25770 net.cpp:156] Memory required for data: 858010656
I0403 19:45:05.370020 25770 layer_factory.hpp:77] Creating layer inception_4a/relu_1x1
I0403 19:45:05.370041 25770 net.cpp:91] Creating Layer inception_4a/relu_1x1
I0403 19:45:05.370059 25770 net.cpp:425] inception_4a/relu_1x1 <- inception_4a/1x1
I0403 19:45:05.370079 25770 net.cpp:386] inception_4a/relu_1x1 -> inception_4a/1x1 (in-place)
I0403 19:45:05.370252 25770 net.cpp:141] Setting up inception_4a/relu_1x1
I0403 19:45:05.370286 25770 net.cpp:148] Top shape: 24 192 14 14 (903168)
I0403 19:45:05.370302 25770 net.cpp:156] Memory required for data: 861623328
I0403 19:45:05.370319 25770 layer_factory.hpp:77] Creating layer inception_4a/3x3_reduce
I0403 19:45:05.370343 25770 net.cpp:91] Creating Layer inception_4a/3x3_reduce
I0403 19:45:05.370364 25770 net.cpp:425] inception_4a/3x3_reduce <- pool3/3x3_s2_pool3/3x3_s2_0_split_1
I0403 19:45:05.370386 25770 net.cpp:399] inception_4a/3x3_reduce -> inception_4a/3x3_reduce
I0403 19:45:05.371621 25770 net.cpp:141] Setting up inception_4a/3x3_reduce
I0403 19:45:05.371656 25770 net.cpp:148] Top shape: 24 96 14 14 (451584)
I0403 19:45:05.371676 25770 net.cpp:156] Memory required for data: 863429664
I0403 19:45:05.371702 25770 layer_factory.hpp:77] Creating layer inception_4a/relu_3x3_reduce
I0403 19:45:05.371726 25770 net.cpp:91] Creating Layer inception_4a/relu_3x3_reduce
I0403 19:45:05.371743 25770 net.cpp:425] inception_4a/relu_3x3_reduce <- inception_4a/3x3_reduce
I0403 19:45:05.371763 25770 net.cpp:386] inception_4a/relu_3x3_reduce -> inception_4a/3x3_reduce (in-place)
I0403 19:45:05.371933 25770 net.cpp:141] Setting up inception_4a/relu_3x3_reduce
I0403 19:45:05.371963 25770 net.cpp:148] Top shape: 24 96 14 14 (451584)
I0403 19:45:05.371980 25770 net.cpp:156] Memory required for data: 865236000
I0403 19:45:05.371997 25770 layer_factory.hpp:77] Creating layer inception_4a/3x3
I0403 19:45:05.372022 25770 net.cpp:91] Creating Layer inception_4a/3x3
I0403 19:45:05.372040 25770 net.cpp:425] inception_4a/3x3 <- inception_4a/3x3_reduce
I0403 19:45:05.372059 25770 net.cpp:399] inception_4a/3x3 -> inception_4a/3x3
I0403 19:45:05.374673 25770 net.cpp:141] Setting up inception_4a/3x3
I0403 19:45:05.374707 25770 net.cpp:148] Top shape: 24 208 14 14 (978432)
I0403 19:45:05.374723 25770 net.cpp:156] Memory required for data: 869149728
I0403 19:45:05.374744 25770 layer_factory.hpp:77] Creating layer inception_4a/relu_3x3
I0403 19:45:05.374764 25770 net.cpp:91] Creating Layer inception_4a/relu_3x3
I0403 19:45:05.374784 25770 net.cpp:425] inception_4a/relu_3x3 <- inception_4a/3x3
I0403 19:45:05.374804 25770 net.cpp:386] inception_4a/relu_3x3 -> inception_4a/3x3 (in-place)
I0403 19:45:05.375075 25770 net.cpp:141] Setting up inception_4a/relu_3x3
I0403 19:45:05.375108 25770 net.cpp:148] Top shape: 24 208 14 14 (978432)
I0403 19:45:05.375124 25770 net.cpp:156] Memory required for data: 873063456
I0403 19:45:05.375141 25770 layer_factory.hpp:77] Creating layer inception_4a/5x5_reduce
I0403 19:45:05.375165 25770 net.cpp:91] Creating Layer inception_4a/5x5_reduce
I0403 19:45:05.375183 25770 net.cpp:425] inception_4a/5x5_reduce <- pool3/3x3_s2_pool3/3x3_s2_0_split_2
I0403 19:45:05.375207 25770 net.cpp:399] inception_4a/5x5_reduce -> inception_4a/5x5_reduce
I0403 19:45:05.376188 25770 net.cpp:141] Setting up inception_4a/5x5_reduce
I0403 19:45:05.376222 25770 net.cpp:148] Top shape: 24 16 14 14 (75264)
I0403 19:45:05.376240 25770 net.cpp:156] Memory required for data: 873364512
I0403 19:45:05.376266 25770 layer_factory.hpp:77] Creating layer inception_4a/relu_5x5_reduce
I0403 19:45:05.376287 25770 net.cpp:91] Creating Layer inception_4a/relu_5x5_reduce
I0403 19:45:05.376307 25770 net.cpp:425] inception_4a/relu_5x5_reduce <- inception_4a/5x5_reduce
I0403 19:45:05.376327 25770 net.cpp:386] inception_4a/relu_5x5_reduce -> inception_4a/5x5_reduce (in-place)
I0403 19:45:05.376503 25770 net.cpp:141] Setting up inception_4a/relu_5x5_reduce
I0403 19:45:05.376534 25770 net.cpp:148] Top shape: 24 16 14 14 (75264)
I0403 19:45:05.376551 25770 net.cpp:156] Memory required for data: 873665568
I0403 19:45:05.376569 25770 layer_factory.hpp:77] Creating layer inception_4a/5x5
I0403 19:45:05.376592 25770 net.cpp:91] Creating Layer inception_4a/5x5
I0403 19:45:05.376612 25770 net.cpp:425] inception_4a/5x5 <- inception_4a/5x5_reduce
I0403 19:45:05.376633 25770 net.cpp:399] inception_4a/5x5 -> inception_4a/5x5
I0403 19:45:05.377687 25770 net.cpp:141] Setting up inception_4a/5x5
I0403 19:45:05.377719 25770 net.cpp:148] Top shape: 24 48 14 14 (225792)
I0403 19:45:05.377735 25770 net.cpp:156] Memory required for data: 874568736
I0403 19:45:05.377754 25770 layer_factory.hpp:77] Creating layer inception_4a/relu_5x5
I0403 19:45:05.377776 25770 net.cpp:91] Creating Layer inception_4a/relu_5x5
I0403 19:45:05.377796 25770 net.cpp:425] inception_4a/relu_5x5 <- inception_4a/5x5
I0403 19:45:05.377815 25770 net.cpp:386] inception_4a/relu_5x5 -> inception_4a/5x5 (in-place)
I0403 19:45:05.377993 25770 net.cpp:141] Setting up inception_4a/relu_5x5
I0403 19:45:05.378021 25770 net.cpp:148] Top shape: 24 48 14 14 (225792)
I0403 19:45:05.378038 25770 net.cpp:156] Memory required for data: 875471904
I0403 19:45:05.378052 25770 layer_factory.hpp:77] Creating layer inception_4a/pool
I0403 19:45:05.378072 25770 net.cpp:91] Creating Layer inception_4a/pool
I0403 19:45:05.378088 25770 net.cpp:425] inception_4a/pool <- pool3/3x3_s2_pool3/3x3_s2_0_split_3
I0403 19:45:05.378109 25770 net.cpp:399] inception_4a/pool -> inception_4a/pool
I0403 19:45:05.378173 25770 net.cpp:141] Setting up inception_4a/pool
I0403 19:45:05.378202 25770 net.cpp:148] Top shape: 24 480 14 14 (2257920)
I0403 19:45:05.378221 25770 net.cpp:156] Memory required for data: 884503584
I0403 19:45:05.378234 25770 layer_factory.hpp:77] Creating layer inception_4a/pool_proj
I0403 19:45:05.378263 25770 net.cpp:91] Creating Layer inception_4a/pool_proj
I0403 19:45:05.378286 25770 net.cpp:425] inception_4a/pool_proj <- inception_4a/pool
I0403 19:45:05.378309 25770 net.cpp:399] inception_4a/pool_proj -> inception_4a/pool_proj
I0403 19:45:05.379431 25770 net.cpp:141] Setting up inception_4a/pool_proj
I0403 19:45:05.379467 25770 net.cpp:148] Top shape: 24 64 14 14 (301056)
I0403 19:45:05.379501 25770 net.cpp:156] Memory required for data: 885707808
I0403 19:45:05.379521 25770 layer_factory.hpp:77] Creating layer inception_4a/relu_pool_proj
I0403 19:45:05.379541 25770 net.cpp:91] Creating Layer inception_4a/relu_pool_proj
I0403 19:45:05.379560 25770 net.cpp:425] inception_4a/relu_pool_proj <- inception_4a/pool_proj
I0403 19:45:05.379582 25770 net.cpp:386] inception_4a/relu_pool_proj -> inception_4a/pool_proj (in-place)
I0403 19:45:05.379854 25770 net.cpp:141] Setting up inception_4a/relu_pool_proj
I0403 19:45:05.379889 25770 net.cpp:148] Top shape: 24 64 14 14 (301056)
I0403 19:45:05.379907 25770 net.cpp:156] Memory required for data: 886912032
I0403 19:45:05.379923 25770 layer_factory.hpp:77] Creating layer inception_4a/output
I0403 19:45:05.379943 25770 net.cpp:91] Creating Layer inception_4a/output
I0403 19:45:05.379962 25770 net.cpp:425] inception_4a/output <- inception_4a/1x1
I0403 19:45:05.379981 25770 net.cpp:425] inception_4a/output <- inception_4a/3x3
I0403 19:45:05.379998 25770 net.cpp:425] inception_4a/output <- inception_4a/5x5
I0403 19:45:05.380017 25770 net.cpp:425] inception_4a/output <- inception_4a/pool_proj
I0403 19:45:05.380034 25770 net.cpp:399] inception_4a/output -> inception_4a/output
I0403 19:45:05.380082 25770 net.cpp:141] Setting up inception_4a/output
I0403 19:45:05.380113 25770 net.cpp:148] Top shape: 24 512 14 14 (2408448)
I0403 19:45:05.380128 25770 net.cpp:156] Memory required for data: 896545824
I0403 19:45:05.380142 25770 layer_factory.hpp:77] Creating layer inception_4a/output_inception_4a/output_0_split
I0403 19:45:05.380161 25770 net.cpp:91] Creating Layer inception_4a/output_inception_4a/output_0_split
I0403 19:45:05.380177 25770 net.cpp:425] inception_4a/output_inception_4a/output_0_split <- inception_4a/output
I0403 19:45:05.380199 25770 net.cpp:399] inception_4a/output_inception_4a/output_0_split -> inception_4a/output_inception_4a/output_0_split_0
I0403 19:45:05.380223 25770 net.cpp:399] inception_4a/output_inception_4a/output_0_split -> inception_4a/output_inception_4a/output_0_split_1
I0403 19:45:05.380246 25770 net.cpp:399] inception_4a/output_inception_4a/output_0_split -> inception_4a/output_inception_4a/output_0_split_2
I0403 19:45:05.380278 25770 net.cpp:399] inception_4a/output_inception_4a/output_0_split -> inception_4a/output_inception_4a/output_0_split_3
I0403 19:45:05.380300 25770 net.cpp:399] inception_4a/output_inception_4a/output_0_split -> inception_4a/output_inception_4a/output_0_split_4
I0403 19:45:05.380393 25770 net.cpp:141] Setting up inception_4a/output_inception_4a/output_0_split
I0403 19:45:05.380422 25770 net.cpp:148] Top shape: 24 512 14 14 (2408448)
I0403 19:45:05.380440 25770 net.cpp:148] Top shape: 24 512 14 14 (2408448)
I0403 19:45:05.380457 25770 net.cpp:148] Top shape: 24 512 14 14 (2408448)
I0403 19:45:05.380472 25770 net.cpp:148] Top shape: 24 512 14 14 (2408448)
I0403 19:45:05.380489 25770 net.cpp:148] Top shape: 24 512 14 14 (2408448)
I0403 19:45:05.380504 25770 net.cpp:156] Memory required for data: 944714784
I0403 19:45:05.380520 25770 layer_factory.hpp:77] Creating layer loss1/ave_pool
I0403 19:45:05.380542 25770 net.cpp:91] Creating Layer loss1/ave_pool
I0403 19:45:05.380559 25770 net.cpp:425] loss1/ave_pool <- inception_4a/output_inception_4a/output_0_split_0
I0403 19:45:05.380583 25770 net.cpp:399] loss1/ave_pool -> loss1/ave_pool
I0403 19:45:05.380789 25770 net.cpp:141] Setting up loss1/ave_pool
I0403 19:45:05.380822 25770 net.cpp:148] Top shape: 24 512 4 4 (196608)
I0403 19:45:05.380842 25770 net.cpp:156] Memory required for data: 945501216
I0403 19:45:05.380861 25770 layer_factory.hpp:77] Creating layer loss1/conv
I0403 19:45:05.380887 25770 net.cpp:91] Creating Layer loss1/conv
I0403 19:45:05.380905 25770 net.cpp:425] loss1/conv <- loss1/ave_pool
I0403 19:45:05.380925 25770 net.cpp:399] loss1/conv -> loss1/conv
I0403 19:45:05.382308 25770 net.cpp:141] Setting up loss1/conv
I0403 19:45:05.382339 25770 net.cpp:148] Top shape: 24 128 4 4 (49152)
I0403 19:45:05.382371 25770 net.cpp:156] Memory required for data: 945697824
I0403 19:45:05.382393 25770 layer_factory.hpp:77] Creating layer loss1/relu_conv
I0403 19:45:05.382413 25770 net.cpp:91] Creating Layer loss1/relu_conv
I0403 19:45:05.382434 25770 net.cpp:425] loss1/relu_conv <- loss1/conv
I0403 19:45:05.382453 25770 net.cpp:386] loss1/relu_conv -> loss1/conv (in-place)
I0403 19:45:05.382721 25770 net.cpp:141] Setting up loss1/relu_conv
I0403 19:45:05.382752 25770 net.cpp:148] Top shape: 24 128 4 4 (49152)
I0403 19:45:05.382771 25770 net.cpp:156] Memory required for data: 945894432
I0403 19:45:05.382786 25770 layer_factory.hpp:77] Creating layer loss1/fc
I0403 19:45:05.382813 25770 net.cpp:91] Creating Layer loss1/fc
I0403 19:45:05.382833 25770 net.cpp:425] loss1/fc <- loss1/conv
I0403 19:45:05.382854 25770 net.cpp:399] loss1/fc -> loss1/fc
I0403 19:45:05.399912 25770 net.cpp:141] Setting up loss1/fc
I0403 19:45:05.399950 25770 net.cpp:148] Top shape: 24 1024 (24576)
I0403 19:45:05.399966 25770 net.cpp:156] Memory required for data: 945992736
I0403 19:45:05.399987 25770 layer_factory.hpp:77] Creating layer loss1/relu_fc
I0403 19:45:05.400007 25770 net.cpp:91] Creating Layer loss1/relu_fc
I0403 19:45:05.400025 25770 net.cpp:425] loss1/relu_fc <- loss1/fc
I0403 19:45:05.400043 25770 net.cpp:386] loss1/relu_fc -> loss1/fc (in-place)
I0403 19:45:05.400218 25770 net.cpp:141] Setting up loss1/relu_fc
I0403 19:45:05.400245 25770 net.cpp:148] Top shape: 24 1024 (24576)
I0403 19:45:05.400269 25770 net.cpp:156] Memory required for data: 946091040
I0403 19:45:05.400286 25770 layer_factory.hpp:77] Creating layer loss1/drop_fc
I0403 19:45:05.400320 25770 net.cpp:91] Creating Layer loss1/drop_fc
I0403 19:45:05.400341 25770 net.cpp:425] loss1/drop_fc <- loss1/fc
I0403 19:45:05.400362 25770 net.cpp:386] loss1/drop_fc -> loss1/fc (in-place)
I0403 19:45:05.400416 25770 net.cpp:141] Setting up loss1/drop_fc
I0403 19:45:05.400442 25770 net.cpp:148] Top shape: 24 1024 (24576)
I0403 19:45:05.400459 25770 net.cpp:156] Memory required for data: 946189344
I0403 19:45:05.400475 25770 layer_factory.hpp:77] Creating layer loss1/classifier_plantvillage
I0403 19:45:05.400498 25770 net.cpp:91] Creating Layer loss1/classifier_plantvillage
I0403 19:45:05.400518 25770 net.cpp:425] loss1/classifier_plantvillage <- loss1/fc
I0403 19:45:05.400537 25770 net.cpp:399] loss1/classifier_plantvillage -> loss1/classifier_plantvillage
I0403 19:45:05.401418 25770 net.cpp:141] Setting up loss1/classifier_plantvillage
I0403 19:45:05.401450 25770 net.cpp:148] Top shape: 24 38 (912)
I0403 19:45:05.401469 25770 net.cpp:156] Memory required for data: 946192992
I0403 19:45:05.401489 25770 layer_factory.hpp:77] Creating layer loss1/classifier_plantvillage_loss1/classifier_plantvillage_0_split
I0403 19:45:05.401507 25770 net.cpp:91] Creating Layer loss1/classifier_plantvillage_loss1/classifier_plantvillage_0_split
I0403 19:45:05.401525 25770 net.cpp:425] loss1/classifier_plantvillage_loss1/classifier_plantvillage_0_split <- loss1/classifier_plantvillage
I0403 19:45:05.401546 25770 net.cpp:399] loss1/classifier_plantvillage_loss1/classifier_plantvillage_0_split -> loss1/classifier_plantvillage_loss1/classifier_plantvillage_0_split_0
I0403 19:45:05.401571 25770 net.cpp:399] loss1/classifier_plantvillage_loss1/classifier_plantvillage_0_split -> loss1/classifier_plantvillage_loss1/classifier_plantvillage_0_split_1
I0403 19:45:05.401594 25770 net.cpp:399] loss1/classifier_plantvillage_loss1/classifier_plantvillage_0_split -> loss1/classifier_plantvillage_loss1/classifier_plantvillage_0_split_2
I0403 19:45:05.401660 25770 net.cpp:141] Setting up loss1/classifier_plantvillage_loss1/classifier_plantvillage_0_split
I0403 19:45:05.401685 25770 net.cpp:148] Top shape: 24 38 (912)
I0403 19:45:05.401703 25770 net.cpp:148] Top shape: 24 38 (912)
I0403 19:45:05.401718 25770 net.cpp:148] Top shape: 24 38 (912)
I0403 19:45:05.401734 25770 net.cpp:156] Memory required for data: 946203936
I0403 19:45:05.401751 25770 layer_factory.hpp:77] Creating layer inception_4b/1x1
I0403 19:45:05.401772 25770 net.cpp:91] Creating Layer inception_4b/1x1
I0403 19:45:05.401805 25770 net.cpp:425] inception_4b/1x1 <- inception_4a/output_inception_4a/output_0_split_1
I0403 19:45:05.401829 25770 net.cpp:399] inception_4b/1x1 -> inception_4b/1x1
I0403 19:45:05.403378 25770 net.cpp:141] Setting up inception_4b/1x1
I0403 19:45:05.403408 25770 net.cpp:148] Top shape: 24 160 14 14 (752640)
I0403 19:45:05.403426 25770 net.cpp:156] Memory required for data: 949214496
I0403 19:45:05.403445 25770 layer_factory.hpp:77] Creating layer inception_4b/relu_1x1
I0403 19:45:05.403462 25770 net.cpp:91] Creating Layer inception_4b/relu_1x1
I0403 19:45:05.403481 25770 net.cpp:425] inception_4b/relu_1x1 <- inception_4b/1x1
I0403 19:45:05.403501 25770 net.cpp:386] inception_4b/relu_1x1 -> inception_4b/1x1 (in-place)
I0403 19:45:05.403672 25770 net.cpp:141] Setting up inception_4b/relu_1x1
I0403 19:45:05.403703 25770 net.cpp:148] Top shape: 24 160 14 14 (752640)
I0403 19:45:05.403718 25770 net.cpp:156] Memory required for data: 952225056
I0403 19:45:05.403734 25770 layer_factory.hpp:77] Creating layer inception_4b/3x3_reduce
I0403 19:45:05.403758 25770 net.cpp:91] Creating Layer inception_4b/3x3_reduce
I0403 19:45:05.403779 25770 net.cpp:425] inception_4b/3x3_reduce <- inception_4a/output_inception_4a/output_0_split_2
I0403 19:45:05.403802 25770 net.cpp:399] inception_4b/3x3_reduce -> inception_4b/3x3_reduce
I0403 19:45:05.405087 25770 net.cpp:141] Setting up inception_4b/3x3_reduce
I0403 19:45:05.405118 25770 net.cpp:148] Top shape: 24 112 14 14 (526848)
I0403 19:45:05.405136 25770 net.cpp:156] Memory required for data: 954332448
I0403 19:45:05.405155 25770 layer_factory.hpp:77] Creating layer inception_4b/relu_3x3_reduce
I0403 19:45:05.405177 25770 net.cpp:91] Creating Layer inception_4b/relu_3x3_reduce
I0403 19:45:05.405197 25770 net.cpp:425] inception_4b/relu_3x3_reduce <- inception_4b/3x3_reduce
I0403 19:45:05.405216 25770 net.cpp:386] inception_4b/relu_3x3_reduce -> inception_4b/3x3_reduce (in-place)
I0403 19:45:05.405490 25770 net.cpp:141] Setting up inception_4b/relu_3x3_reduce
I0403 19:45:05.405522 25770 net.cpp:148] Top shape: 24 112 14 14 (526848)
I0403 19:45:05.405539 25770 net.cpp:156] Memory required for data: 956439840
I0403 19:45:05.405555 25770 layer_factory.hpp:77] Creating layer inception_4b/3x3
I0403 19:45:05.405580 25770 net.cpp:91] Creating Layer inception_4b/3x3
I0403 19:45:05.405598 25770 net.cpp:425] inception_4b/3x3 <- inception_4b/3x3_reduce
I0403 19:45:05.405622 25770 net.cpp:399] inception_4b/3x3 -> inception_4b/3x3
I0403 19:45:05.408447 25770 net.cpp:141] Setting up inception_4b/3x3
I0403 19:45:05.408480 25770 net.cpp:148] Top shape: 24 224 14 14 (1053696)
I0403 19:45:05.408499 25770 net.cpp:156] Memory required for data: 960654624
I0403 19:45:05.408519 25770 layer_factory.hpp:77] Creating layer inception_4b/relu_3x3
I0403 19:45:05.408538 25770 net.cpp:91] Creating Layer inception_4b/relu_3x3
I0403 19:45:05.408557 25770 net.cpp:425] inception_4b/relu_3x3 <- inception_4b/3x3
I0403 19:45:05.408576 25770 net.cpp:386] inception_4b/relu_3x3 -> inception_4b/3x3 (in-place)
I0403 19:45:05.408752 25770 net.cpp:141] Setting up inception_4b/relu_3x3
I0403 19:45:05.408778 25770 net.cpp:148] Top shape: 24 224 14 14 (1053696)
I0403 19:45:05.408795 25770 net.cpp:156] Memory required for data: 964869408
I0403 19:45:05.408812 25770 layer_factory.hpp:77] Creating layer inception_4b/5x5_reduce
I0403 19:45:05.408835 25770 net.cpp:91] Creating Layer inception_4b/5x5_reduce
I0403 19:45:05.408855 25770 net.cpp:425] inception_4b/5x5_reduce <- inception_4a/output_inception_4a/output_0_split_3
I0403 19:45:05.408879 25770 net.cpp:399] inception_4b/5x5_reduce -> inception_4b/5x5_reduce
I0403 19:45:05.409909 25770 net.cpp:141] Setting up inception_4b/5x5_reduce
I0403 19:45:05.409939 25770 net.cpp:148] Top shape: 24 24 14 14 (112896)
I0403 19:45:05.409955 25770 net.cpp:156] Memory required for data: 965320992
I0403 19:45:05.409975 25770 layer_factory.hpp:77] Creating layer inception_4b/relu_5x5_reduce
I0403 19:45:05.409997 25770 net.cpp:91] Creating Layer inception_4b/relu_5x5_reduce
I0403 19:45:05.410030 25770 net.cpp:425] inception_4b/relu_5x5_reduce <- inception_4b/5x5_reduce
I0403 19:45:05.410050 25770 net.cpp:386] inception_4b/relu_5x5_reduce -> inception_4b/5x5_reduce (in-place)
I0403 19:45:05.410228 25770 net.cpp:141] Setting up inception_4b/relu_5x5_reduce
I0403 19:45:05.410259 25770 net.cpp:148] Top shape: 24 24 14 14 (112896)
I0403 19:45:05.410276 25770 net.cpp:156] Memory required for data: 965772576
I0403 19:45:05.410293 25770 layer_factory.hpp:77] Creating layer inception_4b/5x5
I0403 19:45:05.410318 25770 net.cpp:91] Creating Layer inception_4b/5x5
I0403 19:45:05.410337 25770 net.cpp:425] inception_4b/5x5 <- inception_4b/5x5_reduce
I0403 19:45:05.410356 25770 net.cpp:399] inception_4b/5x5 -> inception_4b/5x5
I0403 19:45:05.411519 25770 net.cpp:141] Setting up inception_4b/5x5
I0403 19:45:05.411547 25770 net.cpp:148] Top shape: 24 64 14 14 (301056)
I0403 19:45:05.411566 25770 net.cpp:156] Memory required for data: 966976800
I0403 19:45:05.411586 25770 layer_factory.hpp:77] Creating layer inception_4b/relu_5x5
I0403 19:45:05.411604 25770 net.cpp:91] Creating Layer inception_4b/relu_5x5
I0403 19:45:05.411622 25770 net.cpp:425] inception_4b/relu_5x5 <- inception_4b/5x5
I0403 19:45:05.411643 25770 net.cpp:386] inception_4b/relu_5x5 -> inception_4b/5x5 (in-place)
I0403 19:45:05.411917 25770 net.cpp:141] Setting up inception_4b/relu_5x5
I0403 19:45:05.411947 25770 net.cpp:148] Top shape: 24 64 14 14 (301056)
I0403 19:45:05.411963 25770 net.cpp:156] Memory required for data: 968181024
I0403 19:45:05.411980 25770 layer_factory.hpp:77] Creating layer inception_4b/pool
I0403 19:45:05.411999 25770 net.cpp:91] Creating Layer inception_4b/pool
I0403 19:45:05.412015 25770 net.cpp:425] inception_4b/pool <- inception_4a/output_inception_4a/output_0_split_4
I0403 19:45:05.412036 25770 net.cpp:399] inception_4b/pool -> inception_4b/pool
I0403 19:45:05.412102 25770 net.cpp:141] Setting up inception_4b/pool
I0403 19:45:05.412129 25770 net.cpp:148] Top shape: 24 512 14 14 (2408448)
I0403 19:45:05.412145 25770 net.cpp:156] Memory required for data: 977814816
I0403 19:45:05.412161 25770 layer_factory.hpp:77] Creating layer inception_4b/pool_proj
I0403 19:45:05.412185 25770 net.cpp:91] Creating Layer inception_4b/pool_proj
I0403 19:45:05.412205 25770 net.cpp:425] inception_4b/pool_proj <- inception_4b/pool
I0403 19:45:05.412225 25770 net.cpp:399] inception_4b/pool_proj -> inception_4b/pool_proj
I0403 19:45:05.413411 25770 net.cpp:141] Setting up inception_4b/pool_proj
I0403 19:45:05.413444 25770 net.cpp:148] Top shape: 24 64 14 14 (301056)
I0403 19:45:05.413463 25770 net.cpp:156] Memory required for data: 979019040
I0403 19:45:05.413483 25770 layer_factory.hpp:77] Creating layer inception_4b/relu_pool_proj
I0403 19:45:05.413506 25770 net.cpp:91] Creating Layer inception_4b/relu_pool_proj
I0403 19:45:05.413527 25770 net.cpp:425] inception_4b/relu_pool_proj <- inception_4b/pool_proj
I0403 19:45:05.413547 25770 net.cpp:386] inception_4b/relu_pool_proj -> inception_4b/pool_proj (in-place)
I0403 19:45:05.413727 25770 net.cpp:141] Setting up inception_4b/relu_pool_proj
I0403 19:45:05.413756 25770 net.cpp:148] Top shape: 24 64 14 14 (301056)
I0403 19:45:05.413775 25770 net.cpp:156] Memory required for data: 980223264
I0403 19:45:05.413791 25770 layer_factory.hpp:77] Creating layer inception_4b/output
I0403 19:45:05.413810 25770 net.cpp:91] Creating Layer inception_4b/output
I0403 19:45:05.413827 25770 net.cpp:425] inception_4b/output <- inception_4b/1x1
I0403 19:45:05.413847 25770 net.cpp:425] inception_4b/output <- inception_4b/3x3
I0403 19:45:05.413864 25770 net.cpp:425] inception_4b/output <- inception_4b/5x5
I0403 19:45:05.413882 25770 net.cpp:425] inception_4b/output <- inception_4b/pool_proj
I0403 19:45:05.413898 25770 net.cpp:399] inception_4b/output -> inception_4b/output
I0403 19:45:05.413946 25770 net.cpp:141] Setting up inception_4b/output
I0403 19:45:05.413972 25770 net.cpp:148] Top shape: 24 512 14 14 (2408448)
I0403 19:45:05.413990 25770 net.cpp:156] Memory required for data: 989857056
I0403 19:45:05.414022 25770 layer_factory.hpp:77] Creating layer inception_4b/output_inception_4b/output_0_split
I0403 19:45:05.414042 25770 net.cpp:91] Creating Layer inception_4b/output_inception_4b/output_0_split
I0403 19:45:05.414060 25770 net.cpp:425] inception_4b/output_inception_4b/output_0_split <- inception_4b/output
I0403 19:45:05.414082 25770 net.cpp:399] inception_4b/output_inception_4b/output_0_split -> inception_4b/output_inception_4b/output_0_split_0
I0403 19:45:05.414105 25770 net.cpp:399] inception_4b/output_inception_4b/output_0_split -> inception_4b/output_inception_4b/output_0_split_1
I0403 19:45:05.414129 25770 net.cpp:399] inception_4b/output_inception_4b/output_0_split -> inception_4b/output_inception_4b/output_0_split_2
I0403 19:45:05.414150 25770 net.cpp:399] inception_4b/output_inception_4b/output_0_split -> inception_4b/output_inception_4b/output_0_split_3
I0403 19:45:05.414237 25770 net.cpp:141] Setting up inception_4b/output_inception_4b/output_0_split
I0403 19:45:05.414278 25770 net.cpp:148] Top shape: 24 512 14 14 (2408448)
I0403 19:45:05.414299 25770 net.cpp:148] Top shape: 24 512 14 14 (2408448)
I0403 19:45:05.414315 25770 net.cpp:148] Top shape: 24 512 14 14 (2408448)
I0403 19:45:05.414331 25770 net.cpp:148] Top shape: 24 512 14 14 (2408448)
I0403 19:45:05.414346 25770 net.cpp:156] Memory required for data: 1028392224
I0403 19:45:05.414361 25770 layer_factory.hpp:77] Creating layer inception_4c/1x1
I0403 19:45:05.414384 25770 net.cpp:91] Creating Layer inception_4c/1x1
I0403 19:45:05.414404 25770 net.cpp:425] inception_4c/1x1 <- inception_4b/output_inception_4b/output_0_split_0
I0403 19:45:05.414424 25770 net.cpp:399] inception_4c/1x1 -> inception_4c/1x1
I0403 19:45:05.415832 25770 net.cpp:141] Setting up inception_4c/1x1
I0403 19:45:05.415868 25770 net.cpp:148] Top shape: 24 128 14 14 (602112)
I0403 19:45:05.415889 25770 net.cpp:156] Memory required for data: 1030800672
I0403 19:45:05.415906 25770 layer_factory.hpp:77] Creating layer inception_4c/relu_1x1
I0403 19:45:05.415925 25770 net.cpp:91] Creating Layer inception_4c/relu_1x1
I0403 19:45:05.415943 25770 net.cpp:425] inception_4c/relu_1x1 <- inception_4c/1x1
I0403 19:45:05.415962 25770 net.cpp:386] inception_4c/relu_1x1 -> inception_4c/1x1 (in-place)
I0403 19:45:05.416144 25770 net.cpp:141] Setting up inception_4c/relu_1x1
I0403 19:45:05.416177 25770 net.cpp:148] Top shape: 24 128 14 14 (602112)
I0403 19:45:05.416193 25770 net.cpp:156] Memory required for data: 1033209120
I0403 19:45:05.416209 25770 layer_factory.hpp:77] Creating layer inception_4c/3x3_reduce
I0403 19:45:05.416232 25770 net.cpp:91] Creating Layer inception_4c/3x3_reduce
I0403 19:45:05.416254 25770 net.cpp:425] inception_4c/3x3_reduce <- inception_4b/output_inception_4b/output_0_split_1
I0403 19:45:05.416283 25770 net.cpp:399] inception_4c/3x3_reduce -> inception_4c/3x3_reduce
I0403 19:45:05.418200 25770 net.cpp:141] Setting up inception_4c/3x3_reduce
I0403 19:45:05.418232 25770 net.cpp:148] Top shape: 24 128 14 14 (602112)
I0403 19:45:05.418251 25770 net.cpp:156] Memory required for data: 1035617568
I0403 19:45:05.418278 25770 layer_factory.hpp:77] Creating layer inception_4c/relu_3x3_reduce
I0403 19:45:05.418299 25770 net.cpp:91] Creating Layer inception_4c/relu_3x3_reduce
I0403 19:45:05.418320 25770 net.cpp:425] inception_4c/relu_3x3_reduce <- inception_4c/3x3_reduce
I0403 19:45:05.418340 25770 net.cpp:386] inception_4c/relu_3x3_reduce -> inception_4c/3x3_reduce (in-place)
I0403 19:45:05.418620 25770 net.cpp:141] Setting up inception_4c/relu_3x3_reduce
I0403 19:45:05.418651 25770 net.cpp:148] Top shape: 24 128 14 14 (602112)
I0403 19:45:05.418668 25770 net.cpp:156] Memory required for data: 1038026016
I0403 19:45:05.418684 25770 layer_factory.hpp:77] Creating layer inception_4c/3x3
I0403 19:45:05.418709 25770 net.cpp:91] Creating Layer inception_4c/3x3
I0403 19:45:05.418731 25770 net.cpp:425] inception_4c/3x3 <- inception_4c/3x3_reduce
I0403 19:45:05.418756 25770 net.cpp:399] inception_4c/3x3 -> inception_4c/3x3
I0403 19:45:05.422253 25770 net.cpp:141] Setting up inception_4c/3x3
I0403 19:45:05.422302 25770 net.cpp:148] Top shape: 24 256 14 14 (1204224)
I0403 19:45:05.422322 25770 net.cpp:156] Memory required for data: 1042842912
I0403 19:45:05.422355 25770 layer_factory.hpp:77] Creating layer inception_4c/relu_3x3
I0403 19:45:05.422381 25770 net.cpp:91] Creating Layer inception_4c/relu_3x3
I0403 19:45:05.422402 25770 net.cpp:425] inception_4c/relu_3x3 <- inception_4c/3x3
I0403 19:45:05.422421 25770 net.cpp:386] inception_4c/relu_3x3 -> inception_4c/3x3 (in-place)
I0403 19:45:05.422598 25770 net.cpp:141] Setting up inception_4c/relu_3x3
I0403 19:45:05.422626 25770 net.cpp:148] Top shape: 24 256 14 14 (1204224)
I0403 19:45:05.422642 25770 net.cpp:156] Memory required for data: 1047659808
I0403 19:45:05.422659 25770 layer_factory.hpp:77] Creating layer inception_4c/5x5_reduce
I0403 19:45:05.422684 25770 net.cpp:91] Creating Layer inception_4c/5x5_reduce
I0403 19:45:05.422703 25770 net.cpp:425] inception_4c/5x5_reduce <- inception_4b/output_inception_4b/output_0_split_2
I0403 19:45:05.422724 25770 net.cpp:399] inception_4c/5x5_reduce -> inception_4c/5x5_reduce
I0403 19:45:05.423791 25770 net.cpp:141] Setting up inception_4c/5x5_reduce
I0403 19:45:05.423823 25770 net.cpp:148] Top shape: 24 24 14 14 (112896)
I0403 19:45:05.423841 25770 net.cpp:156] Memory required for data: 1048111392
I0403 19:45:05.423863 25770 layer_factory.hpp:77] Creating layer inception_4c/relu_5x5_reduce
I0403 19:45:05.423887 25770 net.cpp:91] Creating Layer inception_4c/relu_5x5_reduce
I0403 19:45:05.423905 25770 net.cpp:425] inception_4c/relu_5x5_reduce <- inception_4c/5x5_reduce
I0403 19:45:05.423925 25770 net.cpp:386] inception_4c/relu_5x5_reduce -> inception_4c/5x5_reduce (in-place)
I0403 19:45:05.424104 25770 net.cpp:141] Setting up inception_4c/relu_5x5_reduce
I0403 19:45:05.424134 25770 net.cpp:148] Top shape: 24 24 14 14 (112896)
I0403 19:45:05.424151 25770 net.cpp:156] Memory required for data: 1048562976
I0403 19:45:05.424166 25770 layer_factory.hpp:77] Creating layer inception_4c/5x5
I0403 19:45:05.424191 25770 net.cpp:91] Creating Layer inception_4c/5x5
I0403 19:45:05.424211 25770 net.cpp:425] inception_4c/5x5 <- inception_4c/5x5_reduce
I0403 19:45:05.424232 25770 net.cpp:399] inception_4c/5x5 -> inception_4c/5x5
I0403 19:45:05.425447 25770 net.cpp:141] Setting up inception_4c/5x5
I0403 19:45:05.425479 25770 net.cpp:148] Top shape: 24 64 14 14 (301056)
I0403 19:45:05.425499 25770 net.cpp:156] Memory required for data: 1049767200
I0403 19:45:05.425518 25770 layer_factory.hpp:77] Creating layer inception_4c/relu_5x5
I0403 19:45:05.425539 25770 net.cpp:91] Creating Layer inception_4c/relu_5x5
I0403 19:45:05.425557 25770 net.cpp:425] inception_4c/relu_5x5 <- inception_4c/5x5
I0403 19:45:05.425576 25770 net.cpp:386] inception_4c/relu_5x5 -> inception_4c/5x5 (in-place)
I0403 19:45:05.425858 25770 net.cpp:141] Setting up inception_4c/relu_5x5
I0403 19:45:05.425889 25770 net.cpp:148] Top shape: 24 64 14 14 (301056)
I0403 19:45:05.425910 25770 net.cpp:156] Memory required for data: 1050971424
I0403 19:45:05.425926 25770 layer_factory.hpp:77] Creating layer inception_4c/pool
I0403 19:45:05.425945 25770 net.cpp:91] Creating Layer inception_4c/pool
I0403 19:45:05.425963 25770 net.cpp:425] inception_4c/pool <- inception_4b/output_inception_4b/output_0_split_3
I0403 19:45:05.425983 25770 net.cpp:399] inception_4c/pool -> inception_4c/pool
I0403 19:45:05.426051 25770 net.cpp:141] Setting up inception_4c/pool
I0403 19:45:05.426079 25770 net.cpp:148] Top shape: 24 512 14 14 (2408448)
I0403 19:45:05.426097 25770 net.cpp:156] Memory required for data: 1060605216
I0403 19:45:05.426113 25770 layer_factory.hpp:77] Creating layer inception_4c/pool_proj
I0403 19:45:05.426136 25770 net.cpp:91] Creating Layer inception_4c/pool_proj
I0403 19:45:05.426156 25770 net.cpp:425] inception_4c/pool_proj <- inception_4c/pool
I0403 19:45:05.426180 25770 net.cpp:399] inception_4c/pool_proj -> inception_4c/pool_proj
I0403 19:45:05.427382 25770 net.cpp:141] Setting up inception_4c/pool_proj
I0403 19:45:05.427412 25770 net.cpp:148] Top shape: 24 64 14 14 (301056)
I0403 19:45:05.427445 25770 net.cpp:156] Memory required for data: 1061809440
I0403 19:45:05.427466 25770 layer_factory.hpp:77] Creating layer inception_4c/relu_pool_proj
I0403 19:45:05.427489 25770 net.cpp:91] Creating Layer inception_4c/relu_pool_proj
I0403 19:45:05.427510 25770 net.cpp:425] inception_4c/relu_pool_proj <- inception_4c/pool_proj
I0403 19:45:05.427528 25770 net.cpp:386] inception_4c/relu_pool_proj -> inception_4c/pool_proj (in-place)
I0403 19:45:05.427709 25770 net.cpp:141] Setting up inception_4c/relu_pool_proj
I0403 19:45:05.427741 25770 net.cpp:148] Top shape: 24 64 14 14 (301056)
I0403 19:45:05.427757 25770 net.cpp:156] Memory required for data: 1063013664
I0403 19:45:05.427772 25770 layer_factory.hpp:77] Creating layer inception_4c/output
I0403 19:45:05.427794 25770 net.cpp:91] Creating Layer inception_4c/output
I0403 19:45:05.427813 25770 net.cpp:425] inception_4c/output <- inception_4c/1x1
I0403 19:45:05.427830 25770 net.cpp:425] inception_4c/output <- inception_4c/3x3
I0403 19:45:05.427848 25770 net.cpp:425] inception_4c/output <- inception_4c/5x5
I0403 19:45:05.427867 25770 net.cpp:425] inception_4c/output <- inception_4c/pool_proj
I0403 19:45:05.427886 25770 net.cpp:399] inception_4c/output -> inception_4c/output
I0403 19:45:05.427937 25770 net.cpp:141] Setting up inception_4c/output
I0403 19:45:05.427968 25770 net.cpp:148] Top shape: 24 512 14 14 (2408448)
I0403 19:45:05.427985 25770 net.cpp:156] Memory required for data: 1072647456
I0403 19:45:05.428000 25770 layer_factory.hpp:77] Creating layer inception_4c/output_inception_4c/output_0_split
I0403 19:45:05.428017 25770 net.cpp:91] Creating Layer inception_4c/output_inception_4c/output_0_split
I0403 19:45:05.428035 25770 net.cpp:425] inception_4c/output_inception_4c/output_0_split <- inception_4c/output
I0403 19:45:05.428056 25770 net.cpp:399] inception_4c/output_inception_4c/output_0_split -> inception_4c/output_inception_4c/output_0_split_0
I0403 19:45:05.428082 25770 net.cpp:399] inception_4c/output_inception_4c/output_0_split -> inception_4c/output_inception_4c/output_0_split_1
I0403 19:45:05.428107 25770 net.cpp:399] inception_4c/output_inception_4c/output_0_split -> inception_4c/output_inception_4c/output_0_split_2
I0403 19:45:05.428128 25770 net.cpp:399] inception_4c/output_inception_4c/output_0_split -> inception_4c/output_inception_4c/output_0_split_3
I0403 19:45:05.428213 25770 net.cpp:141] Setting up inception_4c/output_inception_4c/output_0_split
I0403 19:45:05.428239 25770 net.cpp:148] Top shape: 24 512 14 14 (2408448)
I0403 19:45:05.428261 25770 net.cpp:148] Top shape: 24 512 14 14 (2408448)
I0403 19:45:05.428282 25770 net.cpp:148] Top shape: 24 512 14 14 (2408448)
I0403 19:45:05.428300 25770 net.cpp:148] Top shape: 24 512 14 14 (2408448)
I0403 19:45:05.428314 25770 net.cpp:156] Memory required for data: 1111182624
I0403 19:45:05.428329 25770 layer_factory.hpp:77] Creating layer inception_4d/1x1
I0403 19:45:05.428355 25770 net.cpp:91] Creating Layer inception_4d/1x1
I0403 19:45:05.428376 25770 net.cpp:425] inception_4d/1x1 <- inception_4c/output_inception_4c/output_0_split_0
I0403 19:45:05.428400 25770 net.cpp:399] inception_4d/1x1 -> inception_4d/1x1
I0403 19:45:05.429757 25770 net.cpp:141] Setting up inception_4d/1x1
I0403 19:45:05.429791 25770 net.cpp:148] Top shape: 24 112 14 14 (526848)
I0403 19:45:05.429821 25770 net.cpp:156] Memory required for data: 1113290016
I0403 19:45:05.429848 25770 layer_factory.hpp:77] Creating layer inception_4d/relu_1x1
I0403 19:45:05.429870 25770 net.cpp:91] Creating Layer inception_4d/relu_1x1
I0403 19:45:05.429888 25770 net.cpp:425] inception_4d/relu_1x1 <- inception_4d/1x1
I0403 19:45:05.429919 25770 net.cpp:386] inception_4d/relu_1x1 -> inception_4d/1x1 (in-place)
I0403 19:45:05.430097 25770 net.cpp:141] Setting up inception_4d/relu_1x1
I0403 19:45:05.430124 25770 net.cpp:148] Top shape: 24 112 14 14 (526848)
I0403 19:45:05.430141 25770 net.cpp:156] Memory required for data: 1115397408
I0403 19:45:05.430155 25770 layer_factory.hpp:77] Creating layer inception_4d/3x3_reduce
I0403 19:45:05.430194 25770 net.cpp:91] Creating Layer inception_4d/3x3_reduce
I0403 19:45:05.430217 25770 net.cpp:425] inception_4d/3x3_reduce <- inception_4c/output_inception_4c/output_0_split_1
I0403 19:45:05.430240 25770 net.cpp:399] inception_4d/3x3_reduce -> inception_4d/3x3_reduce
I0403 19:45:05.431677 25770 net.cpp:141] Setting up inception_4d/3x3_reduce
I0403 19:45:05.431707 25770 net.cpp:148] Top shape: 24 144 14 14 (677376)
I0403 19:45:05.431725 25770 net.cpp:156] Memory required for data: 1118106912
I0403 19:45:05.431745 25770 layer_factory.hpp:77] Creating layer inception_4d/relu_3x3_reduce
I0403 19:45:05.431767 25770 net.cpp:91] Creating Layer inception_4d/relu_3x3_reduce
I0403 19:45:05.431787 25770 net.cpp:425] inception_4d/relu_3x3_reduce <- inception_4d/3x3_reduce
I0403 19:45:05.431805 25770 net.cpp:386] inception_4d/relu_3x3_reduce -> inception_4d/3x3_reduce (in-place)
I0403 19:45:05.432082 25770 net.cpp:141] Setting up inception_4d/relu_3x3_reduce
I0403 19:45:05.432111 25770 net.cpp:148] Top shape: 24 144 14 14 (677376)
I0403 19:45:05.432128 25770 net.cpp:156] Memory required for data: 1120816416
I0403 19:45:05.432144 25770 layer_factory.hpp:77] Creating layer inception_4d/3x3
I0403 19:45:05.432169 25770 net.cpp:91] Creating Layer inception_4d/3x3
I0403 19:45:05.432188 25770 net.cpp:425] inception_4d/3x3 <- inception_4d/3x3_reduce
I0403 19:45:05.432209 25770 net.cpp:399] inception_4d/3x3 -> inception_4d/3x3
I0403 19:45:05.436367 25770 net.cpp:141] Setting up inception_4d/3x3
I0403 19:45:05.436400 25770 net.cpp:148] Top shape: 24 288 14 14 (1354752)
I0403 19:45:05.436419 25770 net.cpp:156] Memory required for data: 1126235424
I0403 19:45:05.436439 25770 layer_factory.hpp:77] Creating layer inception_4d/relu_3x3
I0403 19:45:05.436458 25770 net.cpp:91] Creating Layer inception_4d/relu_3x3
I0403 19:45:05.436475 25770 net.cpp:425] inception_4d/relu_3x3 <- inception_4d/3x3
I0403 19:45:05.436496 25770 net.cpp:386] inception_4d/relu_3x3 -> inception_4d/3x3 (in-place)
I0403 19:45:05.436672 25770 net.cpp:141] Setting up inception_4d/relu_3x3
I0403 19:45:05.436702 25770 net.cpp:148] Top shape: 24 288 14 14 (1354752)
I0403 19:45:05.436719 25770 net.cpp:156] Memory required for data: 1131654432
I0403 19:45:05.436736 25770 layer_factory.hpp:77] Creating layer inception_4d/5x5_reduce
I0403 19:45:05.436760 25770 net.cpp:91] Creating Layer inception_4d/5x5_reduce
I0403 19:45:05.436781 25770 net.cpp:425] inception_4d/5x5_reduce <- inception_4c/output_inception_4c/output_0_split_2
I0403 19:45:05.436803 25770 net.cpp:399] inception_4d/5x5_reduce -> inception_4d/5x5_reduce
I0403 19:45:05.437894 25770 net.cpp:141] Setting up inception_4d/5x5_reduce
I0403 19:45:05.437927 25770 net.cpp:148] Top shape: 24 32 14 14 (150528)
I0403 19:45:05.437944 25770 net.cpp:156] Memory required for data: 1132256544
I0403 19:45:05.437963 25770 layer_factory.hpp:77] Creating layer inception_4d/relu_5x5_reduce
I0403 19:45:05.437980 25770 net.cpp:91] Creating Layer inception_4d/relu_5x5_reduce
I0403 19:45:05.437996 25770 net.cpp:425] inception_4d/relu_5x5_reduce <- inception_4d/5x5_reduce
I0403 19:45:05.438017 25770 net.cpp:386] inception_4d/relu_5x5_reduce -> inception_4d/5x5_reduce (in-place)
I0403 19:45:05.438199 25770 net.cpp:141] Setting up inception_4d/relu_5x5_reduce
I0403 19:45:05.438230 25770 net.cpp:148] Top shape: 24 32 14 14 (150528)
I0403 19:45:05.438246 25770 net.cpp:156] Memory required for data: 1132858656
I0403 19:45:05.438266 25770 layer_factory.hpp:77] Creating layer inception_4d/5x5
I0403 19:45:05.438292 25770 net.cpp:91] Creating Layer inception_4d/5x5
I0403 19:45:05.438311 25770 net.cpp:425] inception_4d/5x5 <- inception_4d/5x5_reduce
I0403 19:45:05.438333 25770 net.cpp:399] inception_4d/5x5 -> inception_4d/5x5
I0403 19:45:05.439710 25770 net.cpp:141] Setting up inception_4d/5x5
I0403 19:45:05.439739 25770 net.cpp:148] Top shape: 24 64 14 14 (301056)
I0403 19:45:05.439757 25770 net.cpp:156] Memory required for data: 1134062880
I0403 19:45:05.439779 25770 layer_factory.hpp:77] Creating layer inception_4d/relu_5x5
I0403 19:45:05.439815 25770 net.cpp:91] Creating Layer inception_4d/relu_5x5
I0403 19:45:05.439836 25770 net.cpp:425] inception_4d/relu_5x5 <- inception_4d/5x5
I0403 19:45:05.439856 25770 net.cpp:386] inception_4d/relu_5x5 -> inception_4d/5x5 (in-place)
I0403 19:45:05.440143 25770 net.cpp:141] Setting up inception_4d/relu_5x5
I0403 19:45:05.440174 25770 net.cpp:148] Top shape: 24 64 14 14 (301056)
I0403 19:45:05.440193 25770 net.cpp:156] Memory required for data: 1135267104
I0403 19:45:05.440208 25770 layer_factory.hpp:77] Creating layer inception_4d/pool
I0403 19:45:05.440229 25770 net.cpp:91] Creating Layer inception_4d/pool
I0403 19:45:05.440249 25770 net.cpp:425] inception_4d/pool <- inception_4c/output_inception_4c/output_0_split_3
I0403 19:45:05.440277 25770 net.cpp:399] inception_4d/pool -> inception_4d/pool
I0403 19:45:05.440346 25770 net.cpp:141] Setting up inception_4d/pool
I0403 19:45:05.440374 25770 net.cpp:148] Top shape: 24 512 14 14 (2408448)
I0403 19:45:05.440389 25770 net.cpp:156] Memory required for data: 1144900896
I0403 19:45:05.440405 25770 layer_factory.hpp:77] Creating layer inception_4d/pool_proj
I0403 19:45:05.440428 25770 net.cpp:91] Creating Layer inception_4d/pool_proj
I0403 19:45:05.440449 25770 net.cpp:425] inception_4d/pool_proj <- inception_4d/pool
I0403 19:45:05.440471 25770 net.cpp:399] inception_4d/pool_proj -> inception_4d/pool_proj
I0403 19:45:05.442163 25770 net.cpp:141] Setting up inception_4d/pool_proj
I0403 19:45:05.442195 25770 net.cpp:148] Top shape: 24 64 14 14 (301056)
I0403 19:45:05.442214 25770 net.cpp:156] Memory required for data: 1146105120
I0403 19:45:05.442234 25770 layer_factory.hpp:77] Creating layer inception_4d/relu_pool_proj
I0403 19:45:05.442253 25770 net.cpp:91] Creating Layer inception_4d/relu_pool_proj
I0403 19:45:05.442279 25770 net.cpp:425] inception_4d/relu_pool_proj <- inception_4d/pool_proj
I0403 19:45:05.442302 25770 net.cpp:386] inception_4d/relu_pool_proj -> inception_4d/pool_proj (in-place)
I0403 19:45:05.442482 25770 net.cpp:141] Setting up inception_4d/relu_pool_proj
I0403 19:45:05.442512 25770 net.cpp:148] Top shape: 24 64 14 14 (301056)
I0403 19:45:05.442528 25770 net.cpp:156] Memory required for data: 1147309344
I0403 19:45:05.442543 25770 layer_factory.hpp:77] Creating layer inception_4d/output
I0403 19:45:05.442562 25770 net.cpp:91] Creating Layer inception_4d/output
I0403 19:45:05.442579 25770 net.cpp:425] inception_4d/output <- inception_4d/1x1
I0403 19:45:05.442594 25770 net.cpp:425] inception_4d/output <- inception_4d/3x3
I0403 19:45:05.442612 25770 net.cpp:425] inception_4d/output <- inception_4d/5x5
I0403 19:45:05.442631 25770 net.cpp:425] inception_4d/output <- inception_4d/pool_proj
I0403 19:45:05.442652 25770 net.cpp:399] inception_4d/output -> inception_4d/output
I0403 19:45:05.442703 25770 net.cpp:141] Setting up inception_4d/output
I0403 19:45:05.442730 25770 net.cpp:148] Top shape: 24 528 14 14 (2483712)
I0403 19:45:05.442747 25770 net.cpp:156] Memory required for data: 1157244192
I0403 19:45:05.442764 25770 layer_factory.hpp:77] Creating layer inception_4d/output_inception_4d/output_0_split
I0403 19:45:05.442781 25770 net.cpp:91] Creating Layer inception_4d/output_inception_4d/output_0_split
I0403 19:45:05.442798 25770 net.cpp:425] inception_4d/output_inception_4d/output_0_split <- inception_4d/output
I0403 19:45:05.442821 25770 net.cpp:399] inception_4d/output_inception_4d/output_0_split -> inception_4d/output_inception_4d/output_0_split_0
I0403 19:45:05.442844 25770 net.cpp:399] inception_4d/output_inception_4d/output_0_split -> inception_4d/output_inception_4d/output_0_split_1
I0403 19:45:05.442867 25770 net.cpp:399] inception_4d/output_inception_4d/output_0_split -> inception_4d/output_inception_4d/output_0_split_2
I0403 19:45:05.442888 25770 net.cpp:399] inception_4d/output_inception_4d/output_0_split -> inception_4d/output_inception_4d/output_0_split_3
I0403 19:45:05.442910 25770 net.cpp:399] inception_4d/output_inception_4d/output_0_split -> inception_4d/output_inception_4d/output_0_split_4
I0403 19:45:05.443009 25770 net.cpp:141] Setting up inception_4d/output_inception_4d/output_0_split
I0403 19:45:05.443051 25770 net.cpp:148] Top shape: 24 528 14 14 (2483712)
I0403 19:45:05.443074 25770 net.cpp:148] Top shape: 24 528 14 14 (2483712)
I0403 19:45:05.443091 25770 net.cpp:148] Top shape: 24 528 14 14 (2483712)
I0403 19:45:05.443106 25770 net.cpp:148] Top shape: 24 528 14 14 (2483712)
I0403 19:45:05.443122 25770 net.cpp:148] Top shape: 24 528 14 14 (2483712)
I0403 19:45:05.443136 25770 net.cpp:156] Memory required for data: 1206918432
I0403 19:45:05.443152 25770 layer_factory.hpp:77] Creating layer loss2/ave_pool
I0403 19:45:05.443172 25770 net.cpp:91] Creating Layer loss2/ave_pool
I0403 19:45:05.443191 25770 net.cpp:425] loss2/ave_pool <- inception_4d/output_inception_4d/output_0_split_0
I0403 19:45:05.443212 25770 net.cpp:399] loss2/ave_pool -> loss2/ave_pool
I0403 19:45:05.443517 25770 net.cpp:141] Setting up loss2/ave_pool
I0403 19:45:05.443544 25770 net.cpp:148] Top shape: 24 528 4 4 (202752)
I0403 19:45:05.443563 25770 net.cpp:156] Memory required for data: 1207729440
I0403 19:45:05.443580 25770 layer_factory.hpp:77] Creating layer loss2/conv
I0403 19:45:05.443603 25770 net.cpp:91] Creating Layer loss2/conv
I0403 19:45:05.443620 25770 net.cpp:425] loss2/conv <- loss2/ave_pool
I0403 19:45:05.443644 25770 net.cpp:399] loss2/conv -> loss2/conv
I0403 19:45:05.445485 25770 net.cpp:141] Setting up loss2/conv
I0403 19:45:05.445516 25770 net.cpp:148] Top shape: 24 128 4 4 (49152)
I0403 19:45:05.445535 25770 net.cpp:156] Memory required for data: 1207926048
I0403 19:45:05.445555 25770 layer_factory.hpp:77] Creating layer loss2/relu_conv
I0403 19:45:05.445577 25770 net.cpp:91] Creating Layer loss2/relu_conv
I0403 19:45:05.445597 25770 net.cpp:425] loss2/relu_conv <- loss2/conv
I0403 19:45:05.445616 25770 net.cpp:386] loss2/relu_conv -> loss2/conv (in-place)
I0403 19:45:05.445895 25770 net.cpp:141] Setting up loss2/relu_conv
I0403 19:45:05.445929 25770 net.cpp:148] Top shape: 24 128 4 4 (49152)
I0403 19:45:05.445945 25770 net.cpp:156] Memory required for data: 1208122656
I0403 19:45:05.445962 25770 layer_factory.hpp:77] Creating layer loss2/fc
I0403 19:45:05.445986 25770 net.cpp:91] Creating Layer loss2/fc
I0403 19:45:05.446005 25770 net.cpp:425] loss2/fc <- loss2/conv
I0403 19:45:05.446027 25770 net.cpp:399] loss2/fc -> loss2/fc
I0403 19:45:05.463493 25770 net.cpp:141] Setting up loss2/fc
I0403 19:45:05.463533 25770 net.cpp:148] Top shape: 24 1024 (24576)
I0403 19:45:05.463549 25770 net.cpp:156] Memory required for data: 1208220960
I0403 19:45:05.463568 25770 layer_factory.hpp:77] Creating layer loss2/relu_fc
I0403 19:45:05.463588 25770 net.cpp:91] Creating Layer loss2/relu_fc
I0403 19:45:05.463606 25770 net.cpp:425] loss2/relu_fc <- loss2/fc
I0403 19:45:05.463629 25770 net.cpp:386] loss2/relu_fc -> loss2/fc (in-place)
I0403 19:45:05.463917 25770 net.cpp:141] Setting up loss2/relu_fc
I0403 19:45:05.463944 25770 net.cpp:148] Top shape: 24 1024 (24576)
I0403 19:45:05.463961 25770 net.cpp:156] Memory required for data: 1208319264
I0403 19:45:05.463978 25770 layer_factory.hpp:77] Creating layer loss2/drop_fc
I0403 19:45:05.463996 25770 net.cpp:91] Creating Layer loss2/drop_fc
I0403 19:45:05.464015 25770 net.cpp:425] loss2/drop_fc <- loss2/fc
I0403 19:45:05.464036 25770 net.cpp:386] loss2/drop_fc -> loss2/fc (in-place)
I0403 19:45:05.464087 25770 net.cpp:141] Setting up loss2/drop_fc
I0403 19:45:05.464117 25770 net.cpp:148] Top shape: 24 1024 (24576)
I0403 19:45:05.464134 25770 net.cpp:156] Memory required for data: 1208417568
I0403 19:45:05.464151 25770 layer_factory.hpp:77] Creating layer loss2/classifier_plantvillage
I0403 19:45:05.464169 25770 net.cpp:91] Creating Layer loss2/classifier_plantvillage
I0403 19:45:05.464190 25770 net.cpp:425] loss2/classifier_plantvillage <- loss2/fc
I0403 19:45:05.464213 25770 net.cpp:399] loss2/classifier_plantvillage -> loss2/classifier_plantvillage
I0403 19:45:05.464609 25770 net.cpp:141] Setting up loss2/classifier_plantvillage
I0403 19:45:05.464640 25770 net.cpp:148] Top shape: 24 38 (912)
I0403 19:45:05.464673 25770 net.cpp:156] Memory required for data: 1208421216
I0403 19:45:05.464692 25770 layer_factory.hpp:77] Creating layer loss2/classifier_plantvillage_loss2/classifier_plantvillage_0_split
I0403 19:45:05.464716 25770 net.cpp:91] Creating Layer loss2/classifier_plantvillage_loss2/classifier_plantvillage_0_split
I0403 19:45:05.464735 25770 net.cpp:425] loss2/classifier_plantvillage_loss2/classifier_plantvillage_0_split <- loss2/classifier_plantvillage
I0403 19:45:05.464752 25770 net.cpp:399] loss2/classifier_plantvillage_loss2/classifier_plantvillage_0_split -> loss2/classifier_plantvillage_loss2/classifier_plantvillage_0_split_0
I0403 19:45:05.464771 25770 net.cpp:399] loss2/classifier_plantvillage_loss2/classifier_plantvillage_0_split -> loss2/classifier_plantvillage_loss2/classifier_plantvillage_0_split_1
I0403 19:45:05.464798 25770 net.cpp:399] loss2/classifier_plantvillage_loss2/classifier_plantvillage_0_split -> loss2/classifier_plantvillage_loss2/classifier_plantvillage_0_split_2
I0403 19:45:05.464872 25770 net.cpp:141] Setting up loss2/classifier_plantvillage_loss2/classifier_plantvillage_0_split
I0403 19:45:05.464900 25770 net.cpp:148] Top shape: 24 38 (912)
I0403 19:45:05.464917 25770 net.cpp:148] Top shape: 24 38 (912)
I0403 19:45:05.464932 25770 net.cpp:148] Top shape: 24 38 (912)
I0403 19:45:05.464947 25770 net.cpp:156] Memory required for data: 1208432160
I0403 19:45:05.464962 25770 layer_factory.hpp:77] Creating layer inception_4e/1x1
I0403 19:45:05.464987 25770 net.cpp:91] Creating Layer inception_4e/1x1
I0403 19:45:05.465005 25770 net.cpp:425] inception_4e/1x1 <- inception_4d/output_inception_4d/output_0_split_1
I0403 19:45:05.465026 25770 net.cpp:399] inception_4e/1x1 -> inception_4e/1x1
I0403 19:45:05.466753 25770 net.cpp:141] Setting up inception_4e/1x1
I0403 19:45:05.466783 25770 net.cpp:148] Top shape: 24 256 14 14 (1204224)
I0403 19:45:05.466800 25770 net.cpp:156] Memory required for data: 1213249056
I0403 19:45:05.466820 25770 layer_factory.hpp:77] Creating layer inception_4e/relu_1x1
I0403 19:45:05.466840 25770 net.cpp:91] Creating Layer inception_4e/relu_1x1
I0403 19:45:05.466861 25770 net.cpp:425] inception_4e/relu_1x1 <- inception_4e/1x1
I0403 19:45:05.466881 25770 net.cpp:386] inception_4e/relu_1x1 -> inception_4e/1x1 (in-place)
I0403 19:45:05.467164 25770 net.cpp:141] Setting up inception_4e/relu_1x1
I0403 19:45:05.467192 25770 net.cpp:148] Top shape: 24 256 14 14 (1204224)
I0403 19:45:05.467208 25770 net.cpp:156] Memory required for data: 1218065952
I0403 19:45:05.467224 25770 layer_factory.hpp:77] Creating layer inception_4e/3x3_reduce
I0403 19:45:05.467248 25770 net.cpp:91] Creating Layer inception_4e/3x3_reduce
I0403 19:45:05.467275 25770 net.cpp:425] inception_4e/3x3_reduce <- inception_4d/output_inception_4d/output_0_split_2
I0403 19:45:05.467298 25770 net.cpp:399] inception_4e/3x3_reduce -> inception_4e/3x3_reduce
I0403 19:45:05.469333 25770 net.cpp:141] Setting up inception_4e/3x3_reduce
I0403 19:45:05.469364 25770 net.cpp:148] Top shape: 24 160 14 14 (752640)
I0403 19:45:05.469384 25770 net.cpp:156] Memory required for data: 1221076512
I0403 19:45:05.469404 25770 layer_factory.hpp:77] Creating layer inception_4e/relu_3x3_reduce
I0403 19:45:05.469427 25770 net.cpp:91] Creating Layer inception_4e/relu_3x3_reduce
I0403 19:45:05.469447 25770 net.cpp:425] inception_4e/relu_3x3_reduce <- inception_4e/3x3_reduce
I0403 19:45:05.469467 25770 net.cpp:386] inception_4e/relu_3x3_reduce -> inception_4e/3x3_reduce (in-place)
I0403 19:45:05.469645 25770 net.cpp:141] Setting up inception_4e/relu_3x3_reduce
I0403 19:45:05.469674 25770 net.cpp:148] Top shape: 24 160 14 14 (752640)
I0403 19:45:05.469691 25770 net.cpp:156] Memory required for data: 1224087072
I0403 19:45:05.469708 25770 layer_factory.hpp:77] Creating layer inception_4e/3x3
I0403 19:45:05.469732 25770 net.cpp:91] Creating Layer inception_4e/3x3
I0403 19:45:05.469750 25770 net.cpp:425] inception_4e/3x3 <- inception_4e/3x3_reduce
I0403 19:45:05.469769 25770 net.cpp:399] inception_4e/3x3 -> inception_4e/3x3
I0403 19:45:05.474620 25770 net.cpp:141] Setting up inception_4e/3x3
I0403 19:45:05.474665 25770 net.cpp:148] Top shape: 24 320 14 14 (1505280)
I0403 19:45:05.474684 25770 net.cpp:156] Memory required for data: 1230108192
I0403 19:45:05.474705 25770 layer_factory.hpp:77] Creating layer inception_4e/relu_3x3
I0403 19:45:05.474725 25770 net.cpp:91] Creating Layer inception_4e/relu_3x3
I0403 19:45:05.474745 25770 net.cpp:425] inception_4e/relu_3x3 <- inception_4e/3x3
I0403 19:45:05.474763 25770 net.cpp:386] inception_4e/relu_3x3 -> inception_4e/3x3 (in-place)
I0403 19:45:05.475057 25770 net.cpp:141] Setting up inception_4e/relu_3x3
I0403 19:45:05.475085 25770 net.cpp:148] Top shape: 24 320 14 14 (1505280)
I0403 19:45:05.475101 25770 net.cpp:156] Memory required for data: 1236129312
I0403 19:45:05.475117 25770 layer_factory.hpp:77] Creating layer inception_4e/5x5_reduce
I0403 19:45:05.475142 25770 net.cpp:91] Creating Layer inception_4e/5x5_reduce
I0403 19:45:05.475160 25770 net.cpp:425] inception_4e/5x5_reduce <- inception_4d/output_inception_4d/output_0_split_3
I0403 19:45:05.475183 25770 net.cpp:399] inception_4e/5x5_reduce -> inception_4e/5x5_reduce
I0403 19:45:05.476210 25770 net.cpp:141] Setting up inception_4e/5x5_reduce
I0403 19:45:05.476243 25770 net.cpp:148] Top shape: 24 32 14 14 (150528)
I0403 19:45:05.476266 25770 net.cpp:156] Memory required for data: 1236731424
I0403 19:45:05.476287 25770 layer_factory.hpp:77] Creating layer inception_4e/relu_5x5_reduce
I0403 19:45:05.476310 25770 net.cpp:91] Creating Layer inception_4e/relu_5x5_reduce
I0403 19:45:05.476330 25770 net.cpp:425] inception_4e/relu_5x5_reduce <- inception_4e/5x5_reduce
I0403 19:45:05.476347 25770 net.cpp:386] inception_4e/relu_5x5_reduce -> inception_4e/5x5_reduce (in-place)
I0403 19:45:05.476639 25770 net.cpp:141] Setting up inception_4e/relu_5x5_reduce
I0403 19:45:05.476665 25770 net.cpp:148] Top shape: 24 32 14 14 (150528)
I0403 19:45:05.476685 25770 net.cpp:156] Memory required for data: 1237333536
I0403 19:45:05.476698 25770 layer_factory.hpp:77] Creating layer inception_4e/5x5
I0403 19:45:05.476739 25770 net.cpp:91] Creating Layer inception_4e/5x5
I0403 19:45:05.476761 25770 net.cpp:425] inception_4e/5x5 <- inception_4e/5x5_reduce
I0403 19:45:05.476783 25770 net.cpp:399] inception_4e/5x5 -> inception_4e/5x5
I0403 19:45:05.478534 25770 net.cpp:141] Setting up inception_4e/5x5
I0403 19:45:05.478564 25770 net.cpp:148] Top shape: 24 128 14 14 (602112)
I0403 19:45:05.478580 25770 net.cpp:156] Memory required for data: 1239741984
I0403 19:45:05.478600 25770 layer_factory.hpp:77] Creating layer inception_4e/relu_5x5
I0403 19:45:05.478622 25770 net.cpp:91] Creating Layer inception_4e/relu_5x5
I0403 19:45:05.478641 25770 net.cpp:425] inception_4e/relu_5x5 <- inception_4e/5x5
I0403 19:45:05.478662 25770 net.cpp:386] inception_4e/relu_5x5 -> inception_4e/5x5 (in-place)
I0403 19:45:05.478849 25770 net.cpp:141] Setting up inception_4e/relu_5x5
I0403 19:45:05.478878 25770 net.cpp:148] Top shape: 24 128 14 14 (602112)
I0403 19:45:05.478894 25770 net.cpp:156] Memory required for data: 1242150432
I0403 19:45:05.478910 25770 layer_factory.hpp:77] Creating layer inception_4e/pool
I0403 19:45:05.478932 25770 net.cpp:91] Creating Layer inception_4e/pool
I0403 19:45:05.478951 25770 net.cpp:425] inception_4e/pool <- inception_4d/output_inception_4d/output_0_split_4
I0403 19:45:05.478971 25770 net.cpp:399] inception_4e/pool -> inception_4e/pool
I0403 19:45:05.479043 25770 net.cpp:141] Setting up inception_4e/pool
I0403 19:45:05.479073 25770 net.cpp:148] Top shape: 24 528 14 14 (2483712)
I0403 19:45:05.479089 25770 net.cpp:156] Memory required for data: 1252085280
I0403 19:45:05.479104 25770 layer_factory.hpp:77] Creating layer inception_4e/pool_proj
I0403 19:45:05.479127 25770 net.cpp:91] Creating Layer inception_4e/pool_proj
I0403 19:45:05.479146 25770 net.cpp:425] inception_4e/pool_proj <- inception_4e/pool
I0403 19:45:05.479166 25770 net.cpp:399] inception_4e/pool_proj -> inception_4e/pool_proj
I0403 19:45:05.480593 25770 net.cpp:141] Setting up inception_4e/pool_proj
I0403 19:45:05.480634 25770 net.cpp:148] Top shape: 24 128 14 14 (602112)
I0403 19:45:05.480654 25770 net.cpp:156] Memory required for data: 1254493728
I0403 19:45:05.480671 25770 layer_factory.hpp:77] Creating layer inception_4e/relu_pool_proj
I0403 19:45:05.480692 25770 net.cpp:91] Creating Layer inception_4e/relu_pool_proj
I0403 19:45:05.480710 25770 net.cpp:425] inception_4e/relu_pool_proj <- inception_4e/pool_proj
I0403 19:45:05.480731 25770 net.cpp:386] inception_4e/relu_pool_proj -> inception_4e/pool_proj (in-place)
I0403 19:45:05.481010 25770 net.cpp:141] Setting up inception_4e/relu_pool_proj
I0403 19:45:05.481039 25770 net.cpp:148] Top shape: 24 128 14 14 (602112)
I0403 19:45:05.481055 25770 net.cpp:156] Memory required for data: 1256902176
I0403 19:45:05.481072 25770 layer_factory.hpp:77] Creating layer inception_4e/output
I0403 19:45:05.481091 25770 net.cpp:91] Creating Layer inception_4e/output
I0403 19:45:05.481108 25770 net.cpp:425] inception_4e/output <- inception_4e/1x1
I0403 19:45:05.481127 25770 net.cpp:425] inception_4e/output <- inception_4e/3x3
I0403 19:45:05.481144 25770 net.cpp:425] inception_4e/output <- inception_4e/5x5
I0403 19:45:05.481161 25770 net.cpp:425] inception_4e/output <- inception_4e/pool_proj
I0403 19:45:05.481184 25770 net.cpp:399] inception_4e/output -> inception_4e/output
I0403 19:45:05.481233 25770 net.cpp:141] Setting up inception_4e/output
I0403 19:45:05.481266 25770 net.cpp:148] Top shape: 24 832 14 14 (3913728)
I0403 19:45:05.481286 25770 net.cpp:156] Memory required for data: 1272557088
I0403 19:45:05.481302 25770 layer_factory.hpp:77] Creating layer pool4/3x3_s2
I0403 19:45:05.481323 25770 net.cpp:91] Creating Layer pool4/3x3_s2
I0403 19:45:05.481343 25770 net.cpp:425] pool4/3x3_s2 <- inception_4e/output
I0403 19:45:05.481364 25770 net.cpp:399] pool4/3x3_s2 -> pool4/3x3_s2
I0403 19:45:05.481436 25770 net.cpp:141] Setting up pool4/3x3_s2
I0403 19:45:05.481463 25770 net.cpp:148] Top shape: 24 832 7 7 (978432)
I0403 19:45:05.481479 25770 net.cpp:156] Memory required for data: 1276470816
I0403 19:45:05.481495 25770 layer_factory.hpp:77] Creating layer pool4/3x3_s2_pool4/3x3_s2_0_split
I0403 19:45:05.481516 25770 net.cpp:91] Creating Layer pool4/3x3_s2_pool4/3x3_s2_0_split
I0403 19:45:05.481534 25770 net.cpp:425] pool4/3x3_s2_pool4/3x3_s2_0_split <- pool4/3x3_s2
I0403 19:45:05.481551 25770 net.cpp:399] pool4/3x3_s2_pool4/3x3_s2_0_split -> pool4/3x3_s2_pool4/3x3_s2_0_split_0
I0403 19:45:05.481571 25770 net.cpp:399] pool4/3x3_s2_pool4/3x3_s2_0_split -> pool4/3x3_s2_pool4/3x3_s2_0_split_1
I0403 19:45:05.481593 25770 net.cpp:399] pool4/3x3_s2_pool4/3x3_s2_0_split -> pool4/3x3_s2_pool4/3x3_s2_0_split_2
I0403 19:45:05.481616 25770 net.cpp:399] pool4/3x3_s2_pool4/3x3_s2_0_split -> pool4/3x3_s2_pool4/3x3_s2_0_split_3
I0403 19:45:05.481705 25770 net.cpp:141] Setting up pool4/3x3_s2_pool4/3x3_s2_0_split
I0403 19:45:05.481734 25770 net.cpp:148] Top shape: 24 832 7 7 (978432)
I0403 19:45:05.481752 25770 net.cpp:148] Top shape: 24 832 7 7 (978432)
I0403 19:45:05.481770 25770 net.cpp:148] Top shape: 24 832 7 7 (978432)
I0403 19:45:05.481786 25770 net.cpp:148] Top shape: 24 832 7 7 (978432)
I0403 19:45:05.481801 25770 net.cpp:156] Memory required for data: 1292125728
I0403 19:45:05.481815 25770 layer_factory.hpp:77] Creating layer inception_5a/1x1
I0403 19:45:05.481839 25770 net.cpp:91] Creating Layer inception_5a/1x1
I0403 19:45:05.481858 25770 net.cpp:425] inception_5a/1x1 <- pool4/3x3_s2_pool4/3x3_s2_0_split_0
I0403 19:45:05.481879 25770 net.cpp:399] inception_5a/1x1 -> inception_5a/1x1
I0403 19:45:05.484616 25770 net.cpp:141] Setting up inception_5a/1x1
I0403 19:45:05.484645 25770 net.cpp:148] Top shape: 24 256 7 7 (301056)
I0403 19:45:05.484665 25770 net.cpp:156] Memory required for data: 1293329952
I0403 19:45:05.484685 25770 layer_factory.hpp:77] Creating layer inception_5a/relu_1x1
I0403 19:45:05.484706 25770 net.cpp:91] Creating Layer inception_5a/relu_1x1
I0403 19:45:05.484727 25770 net.cpp:425] inception_5a/relu_1x1 <- inception_5a/1x1
I0403 19:45:05.484745 25770 net.cpp:386] inception_5a/relu_1x1 -> inception_5a/1x1 (in-place)
I0403 19:45:05.485043 25770 net.cpp:141] Setting up inception_5a/relu_1x1
I0403 19:45:05.485072 25770 net.cpp:148] Top shape: 24 256 7 7 (301056)
I0403 19:45:05.485090 25770 net.cpp:156] Memory required for data: 1294534176
I0403 19:45:05.485105 25770 layer_factory.hpp:77] Creating layer inception_5a/3x3_reduce
I0403 19:45:05.485129 25770 net.cpp:91] Creating Layer inception_5a/3x3_reduce
I0403 19:45:05.485147 25770 net.cpp:425] inception_5a/3x3_reduce <- pool4/3x3_s2_pool4/3x3_s2_0_split_1
I0403 19:45:05.485169 25770 net.cpp:399] inception_5a/3x3_reduce -> inception_5a/3x3_reduce
I0403 19:45:05.487529 25770 net.cpp:141] Setting up inception_5a/3x3_reduce
I0403 19:45:05.487562 25770 net.cpp:148] Top shape: 24 160 7 7 (188160)
I0403 19:45:05.487581 25770 net.cpp:156] Memory required for data: 1295286816
I0403 19:45:05.487602 25770 layer_factory.hpp:77] Creating layer inception_5a/relu_3x3_reduce
I0403 19:45:05.487622 25770 net.cpp:91] Creating Layer inception_5a/relu_3x3_reduce
I0403 19:45:05.487638 25770 net.cpp:425] inception_5a/relu_3x3_reduce <- inception_5a/3x3_reduce
I0403 19:45:05.487659 25770 net.cpp:386] inception_5a/relu_3x3_reduce -> inception_5a/3x3_reduce (in-place)
I0403 19:45:05.487843 25770 net.cpp:141] Setting up inception_5a/relu_3x3_reduce
I0403 19:45:05.487871 25770 net.cpp:148] Top shape: 24 160 7 7 (188160)
I0403 19:45:05.487887 25770 net.cpp:156] Memory required for data: 1296039456
I0403 19:45:05.487905 25770 layer_factory.hpp:77] Creating layer inception_5a/3x3
I0403 19:45:05.487926 25770 net.cpp:91] Creating Layer inception_5a/3x3
I0403 19:45:05.487946 25770 net.cpp:425] inception_5a/3x3 <- inception_5a/3x3_reduce
I0403 19:45:05.487970 25770 net.cpp:399] inception_5a/3x3 -> inception_5a/3x3
I0403 19:45:05.492846 25770 net.cpp:141] Setting up inception_5a/3x3
I0403 19:45:05.492879 25770 net.cpp:148] Top shape: 24 320 7 7 (376320)
I0403 19:45:05.492897 25770 net.cpp:156] Memory required for data: 1297544736
I0403 19:45:05.492918 25770 layer_factory.hpp:77] Creating layer inception_5a/relu_3x3
I0403 19:45:05.492938 25770 net.cpp:91] Creating Layer inception_5a/relu_3x3
I0403 19:45:05.492959 25770 net.cpp:425] inception_5a/relu_3x3 <- inception_5a/3x3
I0403 19:45:05.492977 25770 net.cpp:386] inception_5a/relu_3x3 -> inception_5a/3x3 (in-place)
I0403 19:45:05.493270 25770 net.cpp:141] Setting up inception_5a/relu_3x3
I0403 19:45:05.493299 25770 net.cpp:148] Top shape: 24 320 7 7 (376320)
I0403 19:45:05.493316 25770 net.cpp:156] Memory required for data: 1299050016
I0403 19:45:05.493331 25770 layer_factory.hpp:77] Creating layer inception_5a/5x5_reduce
I0403 19:45:05.493355 25770 net.cpp:91] Creating Layer inception_5a/5x5_reduce
I0403 19:45:05.493374 25770 net.cpp:425] inception_5a/5x5_reduce <- pool4/3x3_s2_pool4/3x3_s2_0_split_2
I0403 19:45:05.493397 25770 net.cpp:399] inception_5a/5x5_reduce -> inception_5a/5x5_reduce
I0403 19:45:05.494720 25770 net.cpp:141] Setting up inception_5a/5x5_reduce
I0403 19:45:05.494753 25770 net.cpp:148] Top shape: 24 32 7 7 (37632)
I0403 19:45:05.494771 25770 net.cpp:156] Memory required for data: 1299200544
I0403 19:45:05.494789 25770 layer_factory.hpp:77] Creating layer inception_5a/relu_5x5_reduce
I0403 19:45:05.494812 25770 net.cpp:91] Creating Layer inception_5a/relu_5x5_reduce
I0403 19:45:05.494832 25770 net.cpp:425] inception_5a/relu_5x5_reduce <- inception_5a/5x5_reduce
I0403 19:45:05.494850 25770 net.cpp:386] inception_5a/relu_5x5_reduce -> inception_5a/5x5_reduce (in-place)
I0403 19:45:05.495141 25770 net.cpp:141] Setting up inception_5a/relu_5x5_reduce
I0403 19:45:05.495169 25770 net.cpp:148] Top shape: 24 32 7 7 (37632)
I0403 19:45:05.495187 25770 net.cpp:156] Memory required for data: 1299351072
I0403 19:45:05.495203 25770 layer_factory.hpp:77] Creating layer inception_5a/5x5
I0403 19:45:05.495229 25770 net.cpp:91] Creating Layer inception_5a/5x5
I0403 19:45:05.495251 25770 net.cpp:425] inception_5a/5x5 <- inception_5a/5x5_reduce
I0403 19:45:05.495278 25770 net.cpp:399] inception_5a/5x5 -> inception_5a/5x5
I0403 19:45:05.496920 25770 net.cpp:141] Setting up inception_5a/5x5
I0403 19:45:05.496961 25770 net.cpp:148] Top shape: 24 128 7 7 (150528)
I0403 19:45:05.496980 25770 net.cpp:156] Memory required for data: 1299953184
I0403 19:45:05.497000 25770 layer_factory.hpp:77] Creating layer inception_5a/relu_5x5
I0403 19:45:05.497023 25770 net.cpp:91] Creating Layer inception_5a/relu_5x5
I0403 19:45:05.497045 25770 net.cpp:425] inception_5a/relu_5x5 <- inception_5a/5x5
I0403 19:45:05.497063 25770 net.cpp:386] inception_5a/relu_5x5 -> inception_5a/5x5 (in-place)
I0403 19:45:05.497247 25770 net.cpp:141] Setting up inception_5a/relu_5x5
I0403 19:45:05.497279 25770 net.cpp:148] Top shape: 24 128 7 7 (150528)
I0403 19:45:05.497295 25770 net.cpp:156] Memory required for data: 1300555296
I0403 19:45:05.497313 25770 layer_factory.hpp:77] Creating layer inception_5a/pool
I0403 19:45:05.497334 25770 net.cpp:91] Creating Layer inception_5a/pool
I0403 19:45:05.497354 25770 net.cpp:425] inception_5a/pool <- pool4/3x3_s2_pool4/3x3_s2_0_split_3
I0403 19:45:05.497371 25770 net.cpp:399] inception_5a/pool -> inception_5a/pool
I0403 19:45:05.497440 25770 net.cpp:141] Setting up inception_5a/pool
I0403 19:45:05.497467 25770 net.cpp:148] Top shape: 24 832 7 7 (978432)
I0403 19:45:05.497484 25770 net.cpp:156] Memory required for data: 1304469024
I0403 19:45:05.497500 25770 layer_factory.hpp:77] Creating layer inception_5a/pool_proj
I0403 19:45:05.497522 25770 net.cpp:91] Creating Layer inception_5a/pool_proj
I0403 19:45:05.497541 25770 net.cpp:425] inception_5a/pool_proj <- inception_5a/pool
I0403 19:45:05.497563 25770 net.cpp:399] inception_5a/pool_proj -> inception_5a/pool_proj
I0403 19:45:05.499760 25770 net.cpp:141] Setting up inception_5a/pool_proj
I0403 19:45:05.499793 25770 net.cpp:148] Top shape: 24 128 7 7 (150528)
I0403 19:45:05.499812 25770 net.cpp:156] Memory required for data: 1305071136
I0403 19:45:05.499831 25770 layer_factory.hpp:77] Creating layer inception_5a/relu_pool_proj
I0403 19:45:05.499851 25770 net.cpp:91] Creating Layer inception_5a/relu_pool_proj
I0403 19:45:05.499869 25770 net.cpp:425] inception_5a/relu_pool_proj <- inception_5a/pool_proj
I0403 19:45:05.499891 25770 net.cpp:386] inception_5a/relu_pool_proj -> inception_5a/pool_proj (in-place)
I0403 19:45:05.500179 25770 net.cpp:141] Setting up inception_5a/relu_pool_proj
I0403 19:45:05.500206 25770 net.cpp:148] Top shape: 24 128 7 7 (150528)
I0403 19:45:05.500223 25770 net.cpp:156] Memory required for data: 1305673248
I0403 19:45:05.500239 25770 layer_factory.hpp:77] Creating layer inception_5a/output
I0403 19:45:05.500258 25770 net.cpp:91] Creating Layer inception_5a/output
I0403 19:45:05.500278 25770 net.cpp:425] inception_5a/output <- inception_5a/1x1
I0403 19:45:05.500295 25770 net.cpp:425] inception_5a/output <- inception_5a/3x3
I0403 19:45:05.500314 25770 net.cpp:425] inception_5a/output <- inception_5a/5x5
I0403 19:45:05.500332 25770 net.cpp:425] inception_5a/output <- inception_5a/pool_proj
I0403 19:45:05.500352 25770 net.cpp:399] inception_5a/output -> inception_5a/output
I0403 19:45:05.500401 25770 net.cpp:141] Setting up inception_5a/output
I0403 19:45:05.500432 25770 net.cpp:148] Top shape: 24 832 7 7 (978432)
I0403 19:45:05.500449 25770 net.cpp:156] Memory required for data: 1309586976
I0403 19:45:05.500465 25770 layer_factory.hpp:77] Creating layer inception_5a/output_inception_5a/output_0_split
I0403 19:45:05.500484 25770 net.cpp:91] Creating Layer inception_5a/output_inception_5a/output_0_split
I0403 19:45:05.500502 25770 net.cpp:425] inception_5a/output_inception_5a/output_0_split <- inception_5a/output
I0403 19:45:05.500519 25770 net.cpp:399] inception_5a/output_inception_5a/output_0_split -> inception_5a/output_inception_5a/output_0_split_0
I0403 19:45:05.500540 25770 net.cpp:399] inception_5a/output_inception_5a/output_0_split -> inception_5a/output_inception_5a/output_0_split_1
I0403 19:45:05.500566 25770 net.cpp:399] inception_5a/output_inception_5a/output_0_split -> inception_5a/output_inception_5a/output_0_split_2
I0403 19:45:05.500589 25770 net.cpp:399] inception_5a/output_inception_5a/output_0_split -> inception_5a/output_inception_5a/output_0_split_3
I0403 19:45:05.500701 25770 net.cpp:141] Setting up inception_5a/output_inception_5a/output_0_split
I0403 19:45:05.500726 25770 net.cpp:148] Top shape: 24 832 7 7 (978432)
I0403 19:45:05.500744 25770 net.cpp:148] Top shape: 24 832 7 7 (978432)
I0403 19:45:05.500761 25770 net.cpp:148] Top shape: 24 832 7 7 (978432)
I0403 19:45:05.500777 25770 net.cpp:148] Top shape: 24 832 7 7 (978432)
I0403 19:45:05.500792 25770 net.cpp:156] Memory required for data: 1325241888
I0403 19:45:05.500809 25770 layer_factory.hpp:77] Creating layer inception_5b/1x1
I0403 19:45:05.500833 25770 net.cpp:91] Creating Layer inception_5b/1x1
I0403 19:45:05.500852 25770 net.cpp:425] inception_5b/1x1 <- inception_5a/output_inception_5a/output_0_split_0
I0403 19:45:05.500874 25770 net.cpp:399] inception_5b/1x1 -> inception_5b/1x1
I0403 19:45:05.504469 25770 net.cpp:141] Setting up inception_5b/1x1
I0403 19:45:05.504503 25770 net.cpp:148] Top shape: 24 384 7 7 (451584)
I0403 19:45:05.504523 25770 net.cpp:156] Memory required for data: 1327048224
I0403 19:45:05.504545 25770 layer_factory.hpp:77] Creating layer inception_5b/relu_1x1
I0403 19:45:05.504565 25770 net.cpp:91] Creating Layer inception_5b/relu_1x1
I0403 19:45:05.504585 25770 net.cpp:425] inception_5b/relu_1x1 <- inception_5b/1x1
I0403 19:45:05.504606 25770 net.cpp:386] inception_5b/relu_1x1 -> inception_5b/1x1 (in-place)
I0403 19:45:05.504899 25770 net.cpp:141] Setting up inception_5b/relu_1x1
I0403 19:45:05.504931 25770 net.cpp:148] Top shape: 24 384 7 7 (451584)
I0403 19:45:05.504951 25770 net.cpp:156] Memory required for data: 1328854560
I0403 19:45:05.504966 25770 layer_factory.hpp:77] Creating layer inception_5b/3x3_reduce
I0403 19:45:05.504989 25770 net.cpp:91] Creating Layer inception_5b/3x3_reduce
I0403 19:45:05.505010 25770 net.cpp:425] inception_5b/3x3_reduce <- inception_5a/output_inception_5a/output_0_split_1
I0403 19:45:05.505030 25770 net.cpp:399] inception_5b/3x3_reduce -> inception_5b/3x3_reduce
I0403 19:45:05.507597 25770 net.cpp:141] Setting up inception_5b/3x3_reduce
I0403 19:45:05.507632 25770 net.cpp:148] Top shape: 24 192 7 7 (225792)
I0403 19:45:05.507650 25770 net.cpp:156] Memory required for data: 1329757728
I0403 19:45:05.507669 25770 layer_factory.hpp:77] Creating layer inception_5b/relu_3x3_reduce
I0403 19:45:05.507688 25770 net.cpp:91] Creating Layer inception_5b/relu_3x3_reduce
I0403 19:45:05.507707 25770 net.cpp:425] inception_5b/relu_3x3_reduce <- inception_5b/3x3_reduce
I0403 19:45:05.507727 25770 net.cpp:386] inception_5b/relu_3x3_reduce -> inception_5b/3x3_reduce (in-place)
I0403 19:45:05.507912 25770 net.cpp:141] Setting up inception_5b/relu_3x3_reduce
I0403 19:45:05.507941 25770 net.cpp:148] Top shape: 24 192 7 7 (225792)
I0403 19:45:05.507957 25770 net.cpp:156] Memory required for data: 1330660896
I0403 19:45:05.507972 25770 layer_factory.hpp:77] Creating layer inception_5b/3x3
I0403 19:45:05.507997 25770 net.cpp:91] Creating Layer inception_5b/3x3
I0403 19:45:05.508016 25770 net.cpp:425] inception_5b/3x3 <- inception_5b/3x3_reduce
I0403 19:45:05.508043 25770 net.cpp:399] inception_5b/3x3 -> inception_5b/3x3
I0403 19:45:05.514681 25770 net.cpp:141] Setting up inception_5b/3x3
I0403 19:45:05.514714 25770 net.cpp:148] Top shape: 24 384 7 7 (451584)
I0403 19:45:05.514732 25770 net.cpp:156] Memory required for data: 1332467232
I0403 19:45:05.514753 25770 layer_factory.hpp:77] Creating layer inception_5b/relu_3x3
I0403 19:45:05.514773 25770 net.cpp:91] Creating Layer inception_5b/relu_3x3
I0403 19:45:05.514793 25770 net.cpp:425] inception_5b/relu_3x3 <- inception_5b/3x3
I0403 19:45:05.514816 25770 net.cpp:386] inception_5b/relu_3x3 -> inception_5b/3x3 (in-place)
I0403 19:45:05.515115 25770 net.cpp:141] Setting up inception_5b/relu_3x3
I0403 19:45:05.515146 25770 net.cpp:148] Top shape: 24 384 7 7 (451584)
I0403 19:45:05.515162 25770 net.cpp:156] Memory required for data: 1334273568
I0403 19:45:05.515178 25770 layer_factory.hpp:77] Creating layer inception_5b/5x5_reduce
I0403 19:45:05.515219 25770 net.cpp:91] Creating Layer inception_5b/5x5_reduce
I0403 19:45:05.515242 25770 net.cpp:425] inception_5b/5x5_reduce <- inception_5a/output_inception_5a/output_0_split_2
I0403 19:45:05.515275 25770 net.cpp:399] inception_5b/5x5_reduce -> inception_5b/5x5_reduce
I0403 19:45:05.516523 25770 net.cpp:141] Setting up inception_5b/5x5_reduce
I0403 19:45:05.516553 25770 net.cpp:148] Top shape: 24 48 7 7 (56448)
I0403 19:45:05.516572 25770 net.cpp:156] Memory required for data: 1334499360
I0403 19:45:05.516592 25770 layer_factory.hpp:77] Creating layer inception_5b/relu_5x5_reduce
I0403 19:45:05.516614 25770 net.cpp:91] Creating Layer inception_5b/relu_5x5_reduce
I0403 19:45:05.516634 25770 net.cpp:425] inception_5b/relu_5x5_reduce <- inception_5b/5x5_reduce
I0403 19:45:05.516657 25770 net.cpp:386] inception_5b/relu_5x5_reduce -> inception_5b/5x5_reduce (in-place)
I0403 19:45:05.517026 25770 net.cpp:141] Setting up inception_5b/relu_5x5_reduce
I0403 19:45:05.517057 25770 net.cpp:148] Top shape: 24 48 7 7 (56448)
I0403 19:45:05.517074 25770 net.cpp:156] Memory required for data: 1334725152
I0403 19:45:05.517091 25770 layer_factory.hpp:77] Creating layer inception_5b/5x5
I0403 19:45:05.517113 25770 net.cpp:91] Creating Layer inception_5b/5x5
I0403 19:45:05.517132 25770 net.cpp:425] inception_5b/5x5 <- inception_5b/5x5_reduce
I0403 19:45:05.517151 25770 net.cpp:399] inception_5b/5x5 -> inception_5b/5x5
I0403 19:45:05.519152 25770 net.cpp:141] Setting up inception_5b/5x5
I0403 19:45:05.519181 25770 net.cpp:148] Top shape: 24 128 7 7 (150528)
I0403 19:45:05.519201 25770 net.cpp:156] Memory required for data: 1335327264
I0403 19:45:05.519222 25770 layer_factory.hpp:77] Creating layer inception_5b/relu_5x5
I0403 19:45:05.519245 25770 net.cpp:91] Creating Layer inception_5b/relu_5x5
I0403 19:45:05.519273 25770 net.cpp:425] inception_5b/relu_5x5 <- inception_5b/5x5
I0403 19:45:05.519294 25770 net.cpp:386] inception_5b/relu_5x5 -> inception_5b/5x5 (in-place)
I0403 19:45:05.519487 25770 net.cpp:141] Setting up inception_5b/relu_5x5
I0403 19:45:05.519517 25770 net.cpp:148] Top shape: 24 128 7 7 (150528)
I0403 19:45:05.519538 25770 net.cpp:156] Memory required for data: 1335929376
I0403 19:45:05.519556 25770 layer_factory.hpp:77] Creating layer inception_5b/pool
I0403 19:45:05.519573 25770 net.cpp:91] Creating Layer inception_5b/pool
I0403 19:45:05.519590 25770 net.cpp:425] inception_5b/pool <- inception_5a/output_inception_5a/output_0_split_3
I0403 19:45:05.519609 25770 net.cpp:399] inception_5b/pool -> inception_5b/pool
I0403 19:45:05.519683 25770 net.cpp:141] Setting up inception_5b/pool
I0403 19:45:05.519712 25770 net.cpp:148] Top shape: 24 832 7 7 (978432)
I0403 19:45:05.519729 25770 net.cpp:156] Memory required for data: 1339843104
I0403 19:45:05.519747 25770 layer_factory.hpp:77] Creating layer inception_5b/pool_proj
I0403 19:45:05.519769 25770 net.cpp:91] Creating Layer inception_5b/pool_proj
I0403 19:45:05.519790 25770 net.cpp:425] inception_5b/pool_proj <- inception_5b/pool
I0403 19:45:05.519811 25770 net.cpp:399] inception_5b/pool_proj -> inception_5b/pool_proj
I0403 19:45:05.522107 25770 net.cpp:141] Setting up inception_5b/pool_proj
I0403 19:45:05.522140 25770 net.cpp:148] Top shape: 24 128 7 7 (150528)
I0403 19:45:05.522157 25770 net.cpp:156] Memory required for data: 1340445216
I0403 19:45:05.522176 25770 layer_factory.hpp:77] Creating layer inception_5b/relu_pool_proj
I0403 19:45:05.522195 25770 net.cpp:91] Creating Layer inception_5b/relu_pool_proj
I0403 19:45:05.522218 25770 net.cpp:425] inception_5b/relu_pool_proj <- inception_5b/pool_proj
I0403 19:45:05.522238 25770 net.cpp:386] inception_5b/relu_pool_proj -> inception_5b/pool_proj (in-place)
I0403 19:45:05.522543 25770 net.cpp:141] Setting up inception_5b/relu_pool_proj
I0403 19:45:05.522572 25770 net.cpp:148] Top shape: 24 128 7 7 (150528)
I0403 19:45:05.522589 25770 net.cpp:156] Memory required for data: 1341047328
I0403 19:45:05.522606 25770 layer_factory.hpp:77] Creating layer inception_5b/output
I0403 19:45:05.522624 25770 net.cpp:91] Creating Layer inception_5b/output
I0403 19:45:05.522658 25770 net.cpp:425] inception_5b/output <- inception_5b/1x1
I0403 19:45:05.522678 25770 net.cpp:425] inception_5b/output <- inception_5b/3x3
I0403 19:45:05.522696 25770 net.cpp:425] inception_5b/output <- inception_5b/5x5
I0403 19:45:05.522712 25770 net.cpp:425] inception_5b/output <- inception_5b/pool_proj
I0403 19:45:05.522733 25770 net.cpp:399] inception_5b/output -> inception_5b/output
I0403 19:45:05.522788 25770 net.cpp:141] Setting up inception_5b/output
I0403 19:45:05.522819 25770 net.cpp:148] Top shape: 24 1024 7 7 (1204224)
I0403 19:45:05.522838 25770 net.cpp:156] Memory required for data: 1345864224
I0403 19:45:05.522856 25770 layer_factory.hpp:77] Creating layer pool5/7x7_s1
I0403 19:45:05.522874 25770 net.cpp:91] Creating Layer pool5/7x7_s1
I0403 19:45:05.522891 25770 net.cpp:425] pool5/7x7_s1 <- inception_5b/output
I0403 19:45:05.522914 25770 net.cpp:399] pool5/7x7_s1 -> pool5/7x7_s1
I0403 19:45:05.523129 25770 net.cpp:141] Setting up pool5/7x7_s1
I0403 19:45:05.523159 25770 net.cpp:148] Top shape: 24 1024 1 1 (24576)
I0403 19:45:05.523175 25770 net.cpp:156] Memory required for data: 1345962528
I0403 19:45:05.523192 25770 layer_factory.hpp:77] Creating layer pool5/drop_7x7_s1
I0403 19:45:05.523211 25770 net.cpp:91] Creating Layer pool5/drop_7x7_s1
I0403 19:45:05.523228 25770 net.cpp:425] pool5/drop_7x7_s1 <- pool5/7x7_s1
I0403 19:45:05.523249 25770 net.cpp:386] pool5/drop_7x7_s1 -> pool5/7x7_s1 (in-place)
I0403 19:45:05.523306 25770 net.cpp:141] Setting up pool5/drop_7x7_s1
I0403 19:45:05.523337 25770 net.cpp:148] Top shape: 24 1024 1 1 (24576)
I0403 19:45:05.523355 25770 net.cpp:156] Memory required for data: 1346060832
I0403 19:45:05.523370 25770 layer_factory.hpp:77] Creating layer loss3/classifier_plantvillage
I0403 19:45:05.523389 25770 net.cpp:91] Creating Layer loss3/classifier_plantvillage
I0403 19:45:05.523408 25770 net.cpp:425] loss3/classifier_plantvillage <- pool5/7x7_s1
I0403 19:45:05.523430 25770 net.cpp:399] loss3/classifier_plantvillage -> loss3/classifier_plantvillage
I0403 19:45:05.523851 25770 net.cpp:141] Setting up loss3/classifier_plantvillage
I0403 19:45:05.523882 25770 net.cpp:148] Top shape: 24 38 (912)
I0403 19:45:05.523900 25770 net.cpp:156] Memory required for data: 1346064480
I0403 19:45:05.523917 25770 layer_factory.hpp:77] Creating layer loss3/classifier_plantvillage_loss3/classifier_plantvillage_0_split
I0403 19:45:05.523938 25770 net.cpp:91] Creating Layer loss3/classifier_plantvillage_loss3/classifier_plantvillage_0_split
I0403 19:45:05.523957 25770 net.cpp:425] loss3/classifier_plantvillage_loss3/classifier_plantvillage_0_split <- loss3/classifier_plantvillage
I0403 19:45:05.523977 25770 net.cpp:399] loss3/classifier_plantvillage_loss3/classifier_plantvillage_0_split -> loss3/classifier_plantvillage_loss3/classifier_plantvillage_0_split_0
I0403 19:45:05.524001 25770 net.cpp:399] loss3/classifier_plantvillage_loss3/classifier_plantvillage_0_split -> loss3/classifier_plantvillage_loss3/classifier_plantvillage_0_split_1
I0403 19:45:05.524027 25770 net.cpp:399] loss3/classifier_plantvillage_loss3/classifier_plantvillage_0_split -> loss3/classifier_plantvillage_loss3/classifier_plantvillage_0_split_2
I0403 19:45:05.524051 25770 net.cpp:399] loss3/classifier_plantvillage_loss3/classifier_plantvillage_0_split -> loss3/classifier_plantvillage_loss3/classifier_plantvillage_0_split_3
I0403 19:45:05.524155 25770 net.cpp:141] Setting up loss3/classifier_plantvillage_loss3/classifier_plantvillage_0_split
I0403 19:45:05.524183 25770 net.cpp:148] Top shape: 24 38 (912)
I0403 19:45:05.524200 25770 net.cpp:148] Top shape: 24 38 (912)
I0403 19:45:05.524219 25770 net.cpp:148] Top shape: 24 38 (912)
I0403 19:45:05.524235 25770 net.cpp:148] Top shape: 24 38 (912)
I0403 19:45:05.524248 25770 net.cpp:156] Memory required for data: 1346079072
I0403 19:45:05.524278 25770 layer_factory.hpp:77] Creating layer loss1/loss
I0403 19:45:05.524308 25770 net.cpp:91] Creating Layer loss1/loss
I0403 19:45:05.524329 25770 net.cpp:425] loss1/loss <- loss1/classifier_plantvillage_loss1/classifier_plantvillage_0_split_0
I0403 19:45:05.524364 25770 net.cpp:425] loss1/loss <- label_data_1_split_0
…
