…
I0403 19:42:55.625579 25648 net.cpp:313] The NetState phase (1) differed from the phase (0) specified by a rule in layer data
I0403 19:42:55.626868 25648 net.cpp:49] Initializing net from parameters: 
state {
  phase: TEST
}
layer {
  name: "data"
  type: "Data"
  top: "data"
  top: "label"
  include {
    phase: TEST
  }
  transform_param {
    mirror: false
    crop_size: 224
    mean_file: "/home/mohanty/data/final_dataset/lmdb/grayscale-80-20/mean.binaryproto"
  }
  data_param {
    source: "/home/mohanty/data/final_dataset/lmdb/grayscale-80-20/test_db"
    batch_size: 24
    backend: LMDB
  }
}
layer {
  name: "conv1/7x7_s2"
  type: "Convolution"
  bottom: "data"
  top: "conv1/7x7_s2"
  param {
    lr_mult: 1
    decay_mult: 1
  }
  param {
    lr_mult: 2
    decay_mult: 0
  }
  convolution_param {
    num_output: 64
    pad: 3
    kernel_size: 7
    stride: 2
    weight_filler {
      type: "xavier"
      std: 0.1
    }
    bias_filler {
      type: "constant"
      value: 0.2
    }
  }
}
layer {
  name: "conv1/relu_7x7"
  type: "ReLU"
  bottom: "conv1/7x7_s2"
  top: "conv1/7x7_s2"
}
layer {
  name: "pool1/3x3_s2"
  type: "Pooling"
  bottom: "conv1/7x7_s2"
  top: "pool1/3x3_s2"
  pooling_param {
    pool: MAX
    kernel_size: 3
    stride: 2
  }
}
layer {
  name: "pool1/norm1"
  type: "LRN"
  bottom: "pool1/3x3_s2"
  top: "pool1/norm1"
  lrn_param {
    local_size: 5
    alpha: 0.0001
    beta: 0.75
  }
}
layer {
  name: "conv2/3x3_reduce"
  type: "Convolution"
  bottom: "pool1/norm1"
  top: "conv2/3x3_reduce"
  param {
    lr_mult: 1
    decay_mult: 1
  }
  param {
    lr_mult: 2
    decay_mult: 0
  }
  convolution_param {
    num_output: 64
    kernel_size: 1
    weight_filler {
      type: "xavier"
      std: 0.1
    }
    bias_filler {
      type: "constant"
      value: 0.2
    }
  }
}
layer {
  name: "conv2/relu_3x3_reduce"
  type: "ReLU"
  bottom: "conv2/3x3_reduce"
  top: "conv2/3x3_reduce"
}
layer {
  name: "conv2/3x3"
  type: "Convolution"
  bottom: "conv2/3x3_reduce"
  top: "conv2/3x3"
  param {
    lr_mult: 1
    decay_mult: 1
  }
  param {
    lr_mult: 2
    decay_mult: 0
  }
  convolution_param {
    num_output: 192
    pad: 1
    kernel_size: 3
    weight_filler {
      type: "xavier"
      std: 0.03
    }
    bias_filler {
      type: "constant"
      value: 0.2
    }
  }
}
layer {
  name: "conv2/relu_3x3"
  type: "ReLU"
  bottom: "conv2/3x3"
  top: "conv2/3x3"
}
layer {
  name: "conv2/norm2"
  type: "LRN"
  bottom: "conv2/3x3"
  top: "conv2/norm2"
  lrn_param {
    local_size: 5
    alpha: 0.0001
    beta: 0.75
  }
}
layer {
  name: "pool2/3x3_s2"
  type: "Pooling"
  bottom: "conv2/norm2"
  top: "pool2/3x3_s2"
  pooling_param {
    pool: MAX
    kernel_size: 3
    stride: 2
  }
}
layer {
  name: "inception_3a/1x1"
  type: "Convolution"
  bottom: "pool2/3x3_s2"
  top: "inception_3a/1x1"
  param {
    lr_mult: 1
    decay_mult: 1
  }
  param {
    lr_mult: 2
    decay_mult: 0
  }
  convolution_param {
    num_output: 64
    kernel_size: 1
    weight_filler {
      type: "xavier"
      std: 0.03
    }
    bias_filler {
      type: "constant"
      value: 0.2
    }
  }
}
layer {
  name: "inception_3a/relu_1x1"
  type: "ReLU"
  bottom: "inception_3a/1x1"
  top: "inception_3a/1x1"
}
layer {
  name: "inception_3a/3x3_reduce"
  type: "Convolution"
  bottom: "pool2/3x3_s2"
  top: "inception_3a/3x3_reduce"
  param {
    lr_mult: 1
    decay_mult: 1
  }
  param {
    lr_mult: 2
    decay_mult: 0
  }
  convolution_param {
    num_output: 96
    kernel_size: 1
    weight_filler {
      type: "xavier"
      std: 0.09
    }
    bias_filler {
      type: "constant"
      value: 0.2
    }
  }
}
layer {
  name: "inception_3a/relu_3x3_reduce"
  type: "ReLU"
  bottom: "inception_3a/3x3_reduce"
  top: "inception_3a/3x3_reduce"
}
layer {
  name: "inception_3a/3x3"
  type: "Convolution"
  bottom: "inception_3a/3x3_reduce"
  top: "inception_3a/3x3"
  param {
    lr_mult: 1
    decay_mult: 1
  }
  param {
    lr_mult: 2
    decay_mult: 0
  }
  convolution_param {
    num_output: 128
    pad: 1
    kernel_size: 3
    weight_filler {
      type: "xavier"
      std: 0.03
    }
    bias_filler {
      type: "constant"
      value: 0.2
    }
  }
}
layer {
  name: "inception_3a/relu_3x3"
  type: "ReLU"
  bottom: "inception_3a/3x3"
  top: "inception_3a/3x3"
}
layer {
  name: "inception_3a/5x5_reduce"
  type: "Convolution"
  bottom: "pool2/3x3_s2"
  top: "inception_3a/5x5_reduce"
  param {
    lr_mult: 1
    decay_mult: 1
  }
  param {
    lr_mult: 2
    decay_mult: 0
  }
  convolution_param {
    num_output: 16
    kernel_size: 1
    weight_filler {
      type: "xavier"
      std: 0.2
    }
    bias_filler {
      type: "constant"
      value: 0.2
    }
  }
}
layer {
  name: "inception_3a/relu_5x5_reduce"
  type: "ReLU"
  bottom: "inception_3a/5x5_reduce"
  top: "inception_3a/5x5_reduce"
}
layer {
  name: "inception_3a/5x5"
  type: "Convolution"
  bottom: "inception_3a/5x5_reduce"
  top: "inception_3a/5x5"
  param {
    lr_mult: 1
    decay_mult: 1
  }
  param {
    lr_mult: 2
    decay_mult: 0
  }
  convolution_param {
    num_output: 32
    pad: 2
    kernel_size: 5
    weight_filler {
      type: "xavier"
      std: 0.03
    }
    bias_filler {
      type: "constant"
      value: 0.2
    }
  }
}
layer {
  name: "inception_3a/relu_5x5"
  type: "ReLU"
  bottom: "inception_3a/5x5"
  top: "inception_3a/5x5"
}
layer {
  name: "inception_3a/pool"
  type: "Pooling"
  bottom: "pool2/3x3_s2"
  top: "inception_3a/pool"
  pooling_param {
    pool: MAX
    kernel_size: 3
    stride: 1
    pad: 1
  }
}
layer {
  name: "inception_3a/pool_proj"
  type: "Convolution"
  bottom: "inception_3a/pool"
  top: "inception_3a/pool_proj"
  param {
    lr_mult: 1
    decay_mult: 1
  }
  param {
    lr_mult: 2
    decay_mult: 0
  }
  convolution_param {
    num_output: 32
    kernel_size: 1
    weight_filler {
      type: "xavier"
      std: 0.1
    }
    bias_filler {
      type: "constant"
      value: 0.2
    }
  }
}
layer {
  name: "inception_3a/relu_pool_proj"
  type: "ReLU"
  bottom: "inception_3a/pool_proj"
  top: "inception_3a/pool_proj"
}
layer {
  name: "inception_3a/output"
  type: "Concat"
  bottom: "inception_3a/1x1"
  bottom: "inception_3a/3x3"
  bottom: "inception_3a/5x5"
  bottom: "inception_3a/pool_proj"
  top: "inception_3a/output"
}
layer {
  name: "inception_3b/1x1"
  type: "Convolution"
  bottom: "inception_3a/output"
  top: "inception_3b/1x1"
  param {
    lr_mult: 1
    decay_mult: 1
  }
  param {
    lr_mult: 2
    decay_mult: 0
  }
  convolution_param {
    num_output: 128
    kernel_size: 1
    weight_filler {
      type: "xavier"
      std: 0.03
    }
    bias_filler {
      type: "constant"
      value: 0.2
    }
  }
}
layer {
  name: "inception_3b/relu_1x1"
  type: "ReLU"
  bottom: "inception_3b/1x1"
  top: "inception_3b/1x1"
}
layer {
  name: "inception_3b/3x3_reduce"
  type: "Convolution"
  bottom: "inception_3a/output"
  top: "inception_3b/3x3_reduce"
  param {
    lr_mult: 1
    decay_mult: 1
  }
  param {
    lr_mult: 2
    decay_mult: 0
  }
  convolution_param {
    num_output: 128
    kernel_size: 1
    weight_filler {
      type: "xavier"
      std: 0.09
    }
    bias_filler {
      type: "constant"
      value: 0.2
    }
  }
}
layer {
  name: "inception_3b/relu_3x3_reduce"
  type: "ReLU"
  bottom: "inception_3b/3x3_reduce"
  top: "inception_3b/3x3_reduce"
}
layer {
  name: "inception_3b/3x3"
  type: "Convolution"
  bottom: "inception_3b/3x3_reduce"
  top: "inception_3b/3x3"
  param {
    lr_mult: 1
    decay_mult: 1
  }
  param {
    lr_mult: 2
    decay_mult: 0
  }
  convolution_param {
    num_output: 192
    pad: 1
    kernel_size: 3
    weight_filler {
      type: "xavier"
      std: 0.03
    }
    bias_filler {
      type: "constant"
      value: 0.2
    }
  }
}
layer {
  name: "inception_3b/relu_3x3"
  type: "ReLU"
  bottom: "inception_3b/3x3"
  top: "inception_3b/3x3"
}
layer {
  name: "inception_3b/5x5_reduce"
  type: "Convolution"
  bottom: "inception_3a/output"
  top: "inception_3b/5x5_reduce"
  param {
    lr_mult: 1
    decay_mult: 1
  }
  param {
    lr_mult: 2
    decay_mult: 0
  }
  convolution_param {
    num_output: 32
    kernel_size: 1
    weight_filler {
      type: "xavier"
      std: 0.2
    }
    bias_filler {
      type: "constant"
      value: 0.2
    }
  }
}
layer {
  name: "inception_3b/relu_5x5_reduce"
  type: "ReLU"
  bottom: "inception_3b/5x5_reduce"
  top: "inception_3b/5x5_reduce"
}
layer {
  name: "inception_3b/5x5"
  type: "Convolution"
  bottom: "inception_3b/5x5_reduce"
  top: "inception_3b/5x5"
  param {
    lr_mult: 1
    decay_mult: 1
  }
  param {
    lr_mult: 2
    decay_mult: 0
  }
  convolution_param {
    num_output: 96
    pad: 2
    kernel_size: 5
    weight_filler {
      type: "xavier"
      std: 0.03
    }
    bias_filler {
      type: "constant"
      value: 0.2
    }
  }
}
layer {
  name: "inception_3b/relu_5x5"
  type: "ReLU"
  bottom: "inception_3b/5x5"
  top: "inception_3b/5x5"
}
layer {
  name: "inception_3b/pool"
  type: "Pooling"
  bottom: "inception_3a/output"
  top: "inception_3b/pool"
  pooling_param {
    pool: MAX
    kernel_size: 3
    stride: 1
    pad: 1
  }
}
layer {
  name: "inception_3b/pool_proj"
  type: "Convolution"
  bottom: "inception_3b/pool"
  top: "inception_3b/pool_proj"
  param {
    lr_mult: 1
    decay_mult: 1
  }
  param {
    lr_mult: 2
    decay_mult: 0
  }
  convolution_param {
    num_output: 64
    kernel_size: 1
    weight_filler {
      type: "xavier"
      std: 0.1
    }
    bias_filler {
      type: "constant"
      value: 0.2
    }
  }
}
layer {
  name: "inception_3b/relu_pool_proj"
  type: "ReLU"
  bottom: "inception_3b/pool_proj"
  top: "inception_3b/pool_proj"
}
layer {
  name: "inception_3b/output"
  type: "Concat"
  bottom: "inception_3b/1x1"
  bottom: "inception_3b/3x3"
  bottom: "inception_3b/5x5"
  bottom: "inception_3b/pool_proj"
  top: "inception_3b/output"
}
layer {
  name: "pool3/3x3_s2"
  type: "Pooling"
  bottom: "inception_3b/output"
  top: "pool3/3x3_s2"
  pooling_param {
    pool: MAX
    kernel_size: 3
    stride: 2
  }
}
layer {
  name: "inception_4a/1x1"
  type: "Convolution"
  bottom: "pool3/3x3_s2"
  top: "inception_4a/1x1"
  param {
    lr_mult: 1
    decay_mult: 1
  }
  param {
    lr_mult: 2
    decay_mult: 0
  }
  convolution_param {
    num_output: 192
    kernel_size: 1
    weight_filler {
      type: "xavier"
      std: 0.03
    }
    bias_filler {
      type: "constant"
      value: 0.2
    }
  }
}
layer {
  name: "inception_4a/relu_1x1"
  type: "ReLU"
  bottom: "inception_4a/1x1"
  top: "inception_4a/1x1"
}
layer {
  name: "inception_4a/3x3_reduce"
  type: "Convolution"
  bottom: "pool3/3x3_s2"
  top: "inception_4a/3x3_reduce"
  param {
    lr_mult: 1
    decay_mult: 1
  }
  param {
    lr_mult: 2
    decay_mult: 0
  }
  convolution_param {
    num_output: 96
    kernel_size: 1
    weight_filler {
      type: "xavier"
      std: 0.09
    }
    bias_filler {
      type: "constant"
      value: 0.2
    }
  }
}
layer {
  name: "inception_4a/relu_3x3_reduce"
  type: "ReLU"
  bottom: "inception_4a/3x3_reduce"
  top: "inception_4a/3x3_reduce"
}
layer {
  name: "inception_4a/3x3"
  type: "Convolution"
  bottom: "inception_4a/3x3_reduce"
  top: "inception_4a/3x3"
  param {
    lr_mult: 1
    decay_mult: 1
  }
  param {
    lr_mult: 2
    decay_mult: 0
  }
  convolution_param {
    num_output: 208
    pad: 1
    kernel_size: 3
    weight_filler {
      type: "xavier"
      std: 0.03
    }
    bias_filler {
      type: "constant"
      value: 0.2
    }
  }
}
layer {
  name: "inception_4a/relu_3x3"
  type: "ReLU"
  bottom: "inception_4a/3x3"
  top: "inception_4a/3x3"
}
layer {
  name: "inception_4a/5x5_reduce"
  type: "Convolution"
  bottom: "pool3/3x3_s2"
  top: "inception_4a/5x5_reduce"
  param {
    lr_mult: 1
    decay_mult: 1
  }
  param {
    lr_mult: 2
    decay_mult: 0
  }
  convolution_param {
    num_output: 16
    kernel_size: 1
    weight_filler {
      type: "xavier"
      std: 0.2
    }
    bias_filler {
      type: "constant"
      value: 0.2
    }
  }
}
layer {
  name: "inception_4a/relu_5x5_reduce"
  type: "ReLU"
  bottom: "inception_4a/5x5_reduce"
  top: "inception_4a/5x5_reduce"
}
layer {
  name: "inception_4a/5x5"
  type: "Convolution"
  bottom: "inception_4a/5x5_reduce"
  top: "inception_4a/5x5"
  param {
    lr_mult: 1
    decay_mult: 1
  }
  param {
    lr_mult: 2
    decay_mult: 0
  }
  convolution_param {
    num_output: 48
    pad: 2
    kernel_size: 5
    weight_filler {
      type: "xavier"
      std: 0.03
    }
    bias_filler {
      type: "constant"
      value: 0.2
    }
  }
}
layer {
  name: "inception_4a/relu_5x5"
  type: "ReLU"
  bottom: "inception_4a/5x5"
  top: "inception_4a/5x5"
}
layer {
  name: "inception_4a/pool"
  type: "Pooling"
  bottom: "pool3/3x3_s2"
  top: "inception_4a/pool"
  pooling_param {
    pool: MAX
    kernel_size: 3
    stride: 1
    pad: 1
  }
}
layer {
  name: "inception_4a/pool_proj"
  type: "Convolution"
  bottom: "inception_4a/pool"
  top: "inception_4a/pool_proj"
  param {
    lr_mult: 1
    decay_mult: 1
  }
  param {
    lr_mult: 2
    decay_mult: 0
  }
  convolution_param {
    num_output: 64
    kernel_size: 1
    weight_filler {
      type: "xavier"
      std: 0.1
    }
    bias_filler {
      type: "constant"
      value: 0.2
    }
  }
}
layer {
  name: "inception_4a/relu_pool_proj"
  type: "ReLU"
  bottom: "inception_4a/pool_proj"
  top: "inception_4a/pool_proj"
}
layer {
  name: "inception_4a/output"
  type: "Concat"
  bottom: "inception_4a/1x1"
  bottom: "inception_4a/3x3"
  bottom: "inception_4a/5x5"
  bottom: "inception_4a/pool_proj"
  top: "inception_4a/output"
}
layer {
  name: "loss1/ave_pool"
  type: "Pooling"
  bottom: "inception_4a/output"
  top: "loss1/ave_pool"
  pooling_param {
    pool: AVE
    kernel_size: 5
    stride: 3
  }
}
layer {
  name: "loss1/conv"
  type: "Convolution"
  bottom: "loss1/ave_pool"
  top: "loss1/conv"
  param {
    lr_mult: 1
    decay_mult: 1
  }
  param {
    lr_mult: 2
    decay_mult: 0
  }
  convolution_param {
    num_output: 128
    kernel_size: 1
    weight_filler {
      type: "xavier"
      std: 0.08
    }
    bias_filler {
      type: "constant"
      value: 0.2
    }
  }
}
layer {
  name: "loss1/relu_conv"
  type: "ReLU"
  bottom: "loss1/conv"
  top: "loss1/conv"
}
layer {
  name: "loss1/fc"
  type: "InnerProduct"
  bottom: "loss1/conv"
  top: "loss1/fc"
  param {
    lr_mult: 1
    decay_mult: 1
  }
  param {
    lr_mult: 2
    decay_mult: 0
  }
  inner_product_param {
    num_output: 1024
    weight_filler {
      type: "xavier"
      std: 0.02
    }
    bias_filler {
      type: "constant"
      value: 0.2
    }
  }
}
layer {
  name: "loss1/relu_fc"
  type: "ReLU"
  bottom: "loss1/fc"
  top: "loss1/fc"
}
layer {
  name: "loss1/drop_fc"
  type: "Dropout"
  bottom: "loss1/fc"
  top: "loss1/fc"
  dropout_param {
    dropout_ratio: 0.7
  }
}
layer {
  name: "loss1/classifier_plantvillage"
  type: "InnerProduct"
  bottom: "loss1/fc"
  top: "loss1/classifier_plantvillage"
  param {
    lr_mult: 1
    decay_mult: 1
  }
  param {
    lr_mult: 2
    decay_mult: 0
  }
  inner_product_param {
    num_output: 38
    weight_filler {
      type: "xavier"
      std: 0.0009765625
    }
    bias_filler {
      type: "constant"
      value: 0
    }
  }
}
layer {
  name: "inception_4b/1x1"
  type: "Convolution"
  bottom: "inception_4a/output"
  top: "inception_4b/1x1"
  param {
    lr_mult: 1
    decay_mult: 1
  }
  param {
    lr_mult: 2
    decay_mult: 0
  }
  convolution_param {
    num_output: 160
    kernel_size: 1
    weight_filler {
      type: "xavier"
      std: 0.03
    }
    bias_filler {
      type: "constant"
      value: 0.2
    }
  }
}
layer {
  name: "inception_4b/relu_1x1"
  type: "ReLU"
  bottom: "inception_4b/1x1"
  top: "inception_4b/1x1"
}
layer {
  name: "inception_4b/3x3_reduce"
  type: "Convolution"
  bottom: "inception_4a/output"
  top: "inception_4b/3x3_reduce"
  param {
    lr_mult: 1
    decay_mult: 1
  }
  param {
    lr_mult: 2
    decay_mult: 0
  }
  convolution_param {
    num_output: 112
    kernel_size: 1
    weight_filler {
      type: "xavier"
      std: 0.09
    }
    bias_filler {
      type: "constant"
      value: 0.2
    }
  }
}
layer {
  name: "inception_4b/relu_3x3_reduce"
  type: "ReLU"
  bottom: "inception_4b/3x3_reduce"
  top: "inception_4b/3x3_reduce"
}
layer {
  name: "inception_4b/3x3"
  type: "Convolution"
  bottom: "inception_4b/3x3_reduce"
  top: "inception_4b/3x3"
  param {
    lr_mult: 1
    decay_mult: 1
  }
  param {
    lr_mult: 2
    decay_mult: 0
  }
  convolution_param {
    num_output: 224
    pad: 1
    kernel_size: 3
    weight_filler {
      type: "xavier"
      std: 0.03
    }
    bias_filler {
      type: "constant"
      value: 0.2
    }
  }
}
layer {
  name: "inception_4b/relu_3x3"
  type: "ReLU"
  bottom: "inception_4b/3x3"
  top: "inception_4b/3x3"
}
layer {
  name: "inception_4b/5x5_reduce"
  type: "Convolution"
  bottom: "inception_4a/output"
  top: "inception_4b/5x5_reduce"
  param {
    lr_mult: 1
    decay_mult: 1
  }
  param {
    lr_mult: 2
    decay_mult: 0
  }
  convolution_param {
    num_output: 24
    kernel_size: 1
    weight_filler {
      type: "xavier"
      std: 0.2
    }
    bias_filler {
      type: "constant"
      value: 0.2
    }
  }
}
layer {
  name: "inception_4b/relu_5x5_reduce"
  type: "ReLU"
  bottom: "inception_4b/5x5_reduce"
  top: "inception_4b/5x5_reduce"
}
layer {
  name: "inception_4b/5x5"
  type: "Convolution"
  bottom: "inception_4b/5x5_reduce"
  top: "inception_4b/5x5"
  param {
    lr_mult: 1
    decay_mult: 1
  }
  param {
    lr_mult: 2
    decay_mult: 0
  }
  convolution_param {
    num_output: 64
    pad: 2
    kernel_size: 5
    weight_filler {
      type: "xavier"
      std: 0.03
    }
    bias_filler {
      type: "constant"
      value: 0.2
    }
  }
}
layer {
  name: "inception_4b/relu_5x5"
  type: "ReLU"
  bottom: "inception_4b/5x5"
  top: "inception_4b/5x5"
}
layer {
  name: "inception_4b/pool"
  type: "Pooling"
  bottom: "inception_4a/output"
  top: "inception_4b/pool"
  pooling_param {
    pool: MAX
    kernel_size: 3
    stride: 1
    pad: 1
  }
}
layer {
  name: "inception_4b/pool_proj"
  type: "Convolution"
  bottom: "inception_4b/pool"
  top: "inception_4b/pool_proj"
  param {
    lr_mult: 1
    decay_mult: 1
  }
  param {
    lr_mult: 2
    decay_mult: 0
  }
  convolution_param {
    num_output: 64
    kernel_size: 1
    weight_filler {
      type: "xavier"
      std: 0.1
    }
    bias_filler {
      type: "constant"
      value: 0.2
    }
  }
}
layer {
  name: "inception_4b/relu_pool_proj"
  type: "ReLU"
  bottom: "inception_4b/pool_proj"
  top: "inception_4b/pool_proj"
}
layer {
  name: "inception_4b/output"
  type: "Concat"
  bottom: "inception_4b/1x1"
  bottom: "inception_4b/3x3"
  bottom: "inception_4b/5x5"
  bottom: "inception_4b/pool_proj"
  top: "inception_4b/output"
}
layer {
  name: "inception_4c/1x1"
  type: "Convolution"
  bottom: "inception_4b/output"
  top: "inception_4c/1x1"
  param {
    lr_mult: 1
    decay_mult: 1
  }
  param {
    lr_mult: 2
    decay_mult: 0
  }
  convolution_param {
    num_output: 128
    kernel_size: 1
    weight_filler {
      type: "xavier"
      std: 0.03
    }
    bias_filler {
      type: "constant"
      value: 0.2
    }
  }
}
layer {
  name: "inception_4c/relu_1x1"
  type: "ReLU"
  bottom: "inception_4c/1x1"
  top: "inception_4c/1x1"
}
layer {
  name: "inception_4c/3x3_reduce"
  type: "Convolution"
  bottom: "inception_4b/output"
  top: "inception_4c/3x3_reduce"
  param {
    lr_mult: 1
    decay_mult: 1
  }
  param {
    lr_mult: 2
    decay_mult: 0
  }
  convolution_param {
    num_output: 128
    kernel_size: 1
    weight_filler {
      type: "xavier"
      std: 0.09
    }
    bias_filler {
      type: "constant"
      value: 0.2
    }
  }
}
layer {
  name: "inception_4c/relu_3x3_reduce"
  type: "ReLU"
  bottom: "inception_4c/3x3_reduce"
  top: "inception_4c/3x3_reduce"
}
layer {
  name: "inception_4c/3x3"
  type: "Convolution"
  bottom: "inception_4c/3x3_reduce"
  top: "inception_4c/3x3"
  param {
    lr_mult: 1
    decay_mult: 1
  }
  param {
    lr_mult: 2
    decay_mult: 0
  }
  convolution_param {
    num_output: 256
    pad: 1
    kernel_size: 3
    weight_filler {
      type: "xavier"
      std: 0.03
    }
    bias_filler {
      type: "constant"
      value: 0.2
    }
  }
}
layer {
  name: "inception_4c/relu_3x3"
  type: "ReLU"
  bottom: "inception_4c/3x3"
  top: "inception_4c/3x3"
}
layer {
  name: "inception_4c/5x5_reduce"
  type: "Convolution"
  bottom: "inception_4b/output"
  top: "inception_4c/5x5_reduce"
  param {
    lr_mult: 1
    decay_mult: 1
  }
  param {
    lr_mult: 2
    decay_mult: 0
  }
  convolution_param {
    num_output: 24
    kernel_size: 1
    weight_filler {
      type: "xavier"
      std: 0.2
    }
    bias_filler {
      type: "constant"
      value: 0.2
    }
  }
}
layer {
  name: "inception_4c/relu_5x5_reduce"
  type: "ReLU"
  bottom: "inception_4c/5x5_reduce"
  top: "inception_4c/5x5_reduce"
}
layer {
  name: "inception_4c/5x5"
  type: "Convolution"
  bottom: "inception_4c/5x5_reduce"
  top: "inception_4c/5x5"
  param {
    lr_mult: 1
    decay_mult: 1
  }
  param {
    lr_mult: 2
    decay_mult: 0
  }
  convolution_param {
    num_output: 64
    pad: 2
    kernel_size: 5
    weight_filler {
      type: "xavier"
      std: 0.03
    }
    bias_filler {
      type: "constant"
      value: 0.2
    }
  }
}
layer {
  name: "inception_4c/relu_5x5"
  type: "ReLU"
  bottom: "inception_4c/5x5"
  top: "inception_4c/5x5"
}
layer {
  name: "inception_4c/pool"
  type: "Pooling"
  bottom: "inception_4b/output"
  top: "inception_4c/pool"
  pooling_param {
    pool: MAX
    kernel_size: 3
    stride: 1
    pad: 1
  }
}
layer {
  name: "inception_4c/pool_proj"
  type: "Convolution"
  bottom: "inception_4c/pool"
  top: "inception_4c/pool_proj"
  param {
    lr_mult: 1
    decay_mult: 1
  }
  param {
    lr_mult: 2
    decay_mult: 0
  }
  convolution_param {
    num_output: 64
    kernel_size: 1
    weight_filler {
      type: "xavier"
      std: 0.1
    }
    bias_filler {
      type: "constant"
      value: 0.2
    }
  }
}
layer {
  name: "inception_4c/relu_pool_proj"
  type: "ReLU"
  bottom: "inception_4c/pool_proj"
  top: "inception_4c/pool_proj"
}
layer {
  name: "inception_4c/output"
  type: "Concat"
  bottom: "inception_4c/1x1"
  bottom: "inception_4c/3x3"
  bottom: "inception_4c/5x5"
  bottom: "inception_4c/pool_proj"
  top: "inception_4c/output"
}
layer {
  name: "inception_4d/1x1"
  type: "Convolution"
  bottom: "inception_4c/output"
  top: "inception_4d/1x1"
  param {
    lr_mult: 1
    decay_mult: 1
  }
  param {
    lr_mult: 2
    decay_mult: 0
  }
  convolution_param {
    num_output: 112
    kernel_size: 1
    weight_filler {
      type: "xavier"
      std: 0.03
    }
    bias_filler {
      type: "constant"
      value: 0.2
    }
  }
}
layer {
  name: "inception_4d/relu_1x1"
  type: "ReLU"
  bottom: "inception_4d/1x1"
  top: "inception_4d/1x1"
}
layer {
  name: "inception_4d/3x3_reduce"
  type: "Convolution"
  bottom: "inception_4c/output"
  top: "inception_4d/3x3_reduce"
  param {
    lr_mult: 1
    decay_mult: 1
  }
  param {
    lr_mult: 2
    decay_mult: 0
  }
  convolution_param {
    num_output: 144
    kernel_size: 1
    weight_filler {
      type: "xavier"
      std: 0.09
    }
    bias_filler {
      type: "constant"
      value: 0.2
    }
  }
}
layer {
  name: "inception_4d/relu_3x3_reduce"
  type: "ReLU"
  bottom: "inception_4d/3x3_reduce"
  top: "inception_4d/3x3_reduce"
}
layer {
  name: "inception_4d/3x3"
  type: "Convolution"
  bottom: "inception_4d/3x3_reduce"
  top: "inception_4d/3x3"
  param {
    lr_mult: 1
    decay_mult: 1
  }
  param {
    lr_mult: 2
    decay_mult: 0
  }
  convolution_param {
    num_output: 288
    pad: 1
    kernel_size: 3
    weight_filler {
      type: "xavier"
      std: 0.03
    }
    bias_filler {
      type: "constant"
      value: 0.2
    }
  }
}
layer {
  name: "inception_4d/relu_3x3"
  type: "ReLU"
  bottom: "inception_4d/3x3"
  top: "inception_4d/3x3"
}
layer {
  name: "inception_4d/5x5_reduce"
  type: "Convolution"
  bottom: "inception_4c/output"
  top: "inception_4d/5x5_reduce"
  param {
    lr_mult: 1
    decay_mult: 1
  }
  param {
    lr_mult: 2
    decay_mult: 0
  }
  convolution_param {
    num_output: 32
    kernel_size: 1
    weight_filler {
      type: "xavier"
      std: 0.2
    }
    bias_filler {
      type: "constant"
      value: 0.2
    }
  }
}
layer {
  name: "inception_4d/relu_5x5_reduce"
  type: "ReLU"
  bottom: "inception_4d/5x5_reduce"
  top: "inception_4d/5x5_reduce"
}
layer {
  name: "inception_4d/5x5"
  type: "Convolution"
  bottom: "inception_4d/5x5_reduce"
  top: "inception_4d/5x5"
  param {
    lr_mult: 1
    decay_mult: 1
  }
  param {
    lr_mult: 2
    decay_mult: 0
  }
  convolution_param {
    num_output: 64
    pad: 2
    kernel_size: 5
    weight_filler {
      type: "xavier"
      std: 0.03
    }
    bias_filler {
      type: "constant"
      value: 0.2
    }
  }
}
layer {
  name: "inception_4d/relu_5x5"
  type: "ReLU"
  bottom: "inception_4d/5x5"
  top: "inception_4d/5x5"
}
layer {
  name: "inception_4d/pool"
  type: "Pooling"
  bottom: "inception_4c/output"
  top: "inception_4d/pool"
  pooling_param {
    pool: MAX
    kernel_size: 3
    stride: 1
    pad: 1
  }
}
layer {
  name: "inception_4d/pool_proj"
  type: "Convolution"
  bottom: "inception_4d/pool"
  top: "inception_4d/pool_proj"
  param {
    lr_mult: 1
    decay_mult: 1
  }
  param {
    lr_mult: 2
    decay_mult: 0
  }
  convolution_param {
    num_output: 64
    kernel_size: 1
    weight_filler {
      type: "xavier"
      std: 0.1
    }
    bias_filler {
      type: "constant"
      value: 0.2
    }
  }
}
layer {
  name: "inception_4d/relu_pool_proj"
  type: "ReLU"
  bottom: "inception_4d/pool_proj"
  top: "inception_4d/pool_proj"
}
layer {
  name: "inception_4d/output"
  type: "Concat"
  bottom: "inception_4d/1x1"
  bottom: "inception_4d/3x3"
  bottom: "inception_4d/5x5"
  bottom: "inception_4d/pool_proj"
  top: "inception_4d/output"
}
layer {
  name: "loss2/ave_pool"
  type: "Pooling"
  bottom: "inception_4d/output"
  top: "loss2/ave_pool"
  pooling_param {
    pool: AVE
    kernel_size: 5
    stride: 3
  }
}
layer {
  name: "loss2/conv"
  type: "Convolution"
  bottom: "loss2/ave_pool"
  top: "loss2/conv"
  param {
    lr_mult: 1
    decay_mult: 1
  }
  param {
    lr_mult: 2
    decay_mult: 0
  }
  convolution_param {
    num_output: 128
    kernel_size: 1
    weight_filler {
      type: "xavier"
      std: 0.08
    }
    bias_filler {
      type: "constant"
      value: 0.2
    }
  }
}
layer {
  name: "loss2/relu_conv"
  type: "ReLU"
  bottom: "loss2/conv"
  top: "loss2/conv"
}
layer {
  name: "loss2/fc"
  type: "InnerProduct"
  bottom: "loss2/conv"
  top: "loss2/fc"
  param {
    lr_mult: 1
    decay_mult: 1
  }
  param {
    lr_mult: 2
    decay_mult: 0
  }
  inner_product_param {
    num_output: 1024
    weight_filler {
      type: "xavier"
      std: 0.02
    }
    bias_filler {
      type: "constant"
      value: 0.2
    }
  }
}
layer {
  name: "loss2/relu_fc"
  type: "ReLU"
  bottom: "loss2/fc"
  top: "loss2/fc"
}
layer {
  name: "loss2/drop_fc"
  type: "Dropout"
  bottom: "loss2/fc"
  top: "loss2/fc"
  dropout_param {
    dropout_ratio: 0.7
  }
}
layer {
  name: "loss2/classifier_plantvillage"
  type: "InnerProduct"
  bottom: "loss2/fc"
  top: "loss2/classifier_plantvillage"
  param {
    lr_mult: 1
    decay_mult: 1
  }
  param {
    lr_mult: 2
    decay_mult: 0
  }
  inner_product_param {
    num_output: 38
    weight_filler {
      type: "xavier"
      std: 0.0009765625
    }
    bias_filler {
      type: "constant"
      value: 0
    }
  }
}
layer {
  name: "inception_4e/1x1"
  type: "Convolution"
  bottom: "inception_4d/output"
  top: "inception_4e/1x1"
  param {
    lr_mult: 1
    decay_mult: 1
  }
  param {
    lr_mult: 2
    decay_mult: 0
  }
  convolution_param {
    num_output: 256
    kernel_size: 1
    weight_filler {
      type: "xavier"
      std: 0.03
    }
    bias_filler {
      type: "constant"
      value: 0.2
    }
  }
}
layer {
  name: "inception_4e/relu_1x1"
  type: "ReLU"
  bottom: "inception_4e/1x1"
  top: "inception_4e/1x1"
}
layer {
  name: "inception_4e/3x3_reduce"
  type: "Convolution"
  bottom: "inception_4d/output"
  top: "inception_4e/3x3_reduce"
  param {
    lr_mult: 1
    decay_mult: 1
  }
  param {
    lr_mult: 2
    decay_mult: 0
  }
  convolution_param {
    num_output: 160
    kernel_size: 1
    weight_filler {
      type: "xavier"
      std: 0.09
    }
    bias_filler {
      type: "constant"
      value: 0.2
    }
  }
}
layer {
  name: "inception_4e/relu_3x3_reduce"
  type: "ReLU"
  bottom: "inception_4e/3x3_reduce"
  top: "inception_4e/3x3_reduce"
}
layer {
  name: "inception_4e/3x3"
  type: "Convolution"
  bottom: "inception_4e/3x3_reduce"
  top: "inception_4e/3x3"
  param {
    lr_mult: 1
    decay_mult: 1
  }
  param {
    lr_mult: 2
    decay_mult: 0
  }
  convolution_param {
    num_output: 320
    pad: 1
    kernel_size: 3
    weight_filler {
      type: "xavier"
      std: 0.03
    }
    bias_filler {
      type: "constant"
      value: 0.2
    }
  }
}
layer {
  name: "inception_4e/relu_3x3"
  type: "ReLU"
  bottom: "inception_4e/3x3"
  top: "inception_4e/3x3"
}
layer {
  name: "inception_4e/5x5_reduce"
  type: "Convolution"
  bottom: "inception_4d/output"
  top: "inception_4e/5x5_reduce"
  param {
    lr_mult: 1
    decay_mult: 1
  }
  param {
    lr_mult: 2
    decay_mult: 0
  }
  convolution_param {
    num_output: 32
    kernel_size: 1
    weight_filler {
      type: "xavier"
      std: 0.2
    }
    bias_filler {
      type: "constant"
      value: 0.2
    }
  }
}
layer {
  name: "inception_4e/relu_5x5_reduce"
  type: "ReLU"
  bottom: "inception_4e/5x5_reduce"
  top: "inception_4e/5x5_reduce"
}
layer {
  name: "inception_4e/5x5"
  type: "Convolution"
  bottom: "inception_4e/5x5_reduce"
  top: "inception_4e/
I0403 19:42:55.628576 25648 layer_factory.hpp:77] Creating layer data
I0403 19:42:55.629204 25648 net.cpp:91] Creating Layer data
I0403 19:42:55.629236 25648 net.cpp:399] data -> data
I0403 19:42:55.629312 25648 net.cpp:399] data -> label
I0403 19:42:55.629359 25648 data_transformer.cpp:25] Loading mean file from: /home/mohanty/data/final_dataset/lmdb/grayscale-80-20/mean.binaryproto
I0403 19:42:55.642240 25650 db_lmdb.cpp:38] Opened lmdb /home/mohanty/data/final_dataset/lmdb/grayscale-80-20/test_db
I0403 19:42:55.649458 25648 data_layer.cpp:41] output data size: 24,3,224,224
I0403 19:42:55.677731 25648 net.cpp:141] Setting up data
I0403 19:42:55.677834 25648 net.cpp:148] Top shape: 24 3 224 224 (3612672)
I0403 19:42:55.677858 25648 net.cpp:148] Top shape: 24 (24)
I0403 19:42:55.677875 25648 net.cpp:156] Memory required for data: 14450784
I0403 19:42:55.677911 25648 layer_factory.hpp:77] Creating layer label_data_1_split
I0403 19:42:55.677945 25648 net.cpp:91] Creating Layer label_data_1_split
I0403 19:42:55.677964 25648 net.cpp:425] label_data_1_split <- label
I0403 19:42:55.678004 25648 net.cpp:399] label_data_1_split -> label_data_1_split_0
I0403 19:42:55.678038 25648 net.cpp:399] label_data_1_split -> label_data_1_split_1
I0403 19:42:55.678061 25648 net.cpp:399] label_data_1_split -> label_data_1_split_2
I0403 19:42:55.678084 25648 net.cpp:399] label_data_1_split -> label_data_1_split_3
I0403 19:42:55.678107 25648 net.cpp:399] label_data_1_split -> label_data_1_split_4
I0403 19:42:55.678128 25648 net.cpp:399] label_data_1_split -> label_data_1_split_5
I0403 19:42:55.678148 25648 net.cpp:399] label_data_1_split -> label_data_1_split_6
I0403 19:42:55.678167 25648 net.cpp:399] label_data_1_split -> label_data_1_split_7
I0403 19:42:55.678187 25648 net.cpp:399] label_data_1_split -> label_data_1_split_8
I0403 19:42:55.678207 25648 net.cpp:399] label_data_1_split -> label_data_1_split_9
I0403 19:42:55.678333 25648 net.cpp:141] Setting up label_data_1_split
I0403 19:42:55.678360 25648 net.cpp:148] Top shape: 24 (24)
I0403 19:42:55.678378 25648 net.cpp:148] Top shape: 24 (24)
I0403 19:42:55.678395 25648 net.cpp:148] Top shape: 24 (24)
I0403 19:42:55.678411 25648 net.cpp:148] Top shape: 24 (24)
I0403 19:42:55.678427 25648 net.cpp:148] Top shape: 24 (24)
I0403 19:42:55.678444 25648 net.cpp:148] Top shape: 24 (24)
I0403 19:42:55.678462 25648 net.cpp:148] Top shape: 24 (24)
I0403 19:42:55.678478 25648 net.cpp:148] Top shape: 24 (24)
I0403 19:42:55.678493 25648 net.cpp:148] Top shape: 24 (24)
I0403 19:42:55.678514 25648 net.cpp:148] Top shape: 24 (24)
I0403 19:42:55.678562 25648 net.cpp:156] Memory required for data: 14451744
I0403 19:42:55.678580 25648 layer_factory.hpp:77] Creating layer conv1/7x7_s2
I0403 19:42:55.678619 25648 net.cpp:91] Creating Layer conv1/7x7_s2
I0403 19:42:55.678642 25648 net.cpp:425] conv1/7x7_s2 <- data
I0403 19:42:55.678663 25648 net.cpp:399] conv1/7x7_s2 -> conv1/7x7_s2
I0403 19:42:55.817862 25648 net.cpp:141] Setting up conv1/7x7_s2
I0403 19:42:55.817975 25648 net.cpp:148] Top shape: 24 64 112 112 (19267584)
I0403 19:42:55.817993 25648 net.cpp:156] Memory required for data: 91522080
I0403 19:42:55.818032 25648 layer_factory.hpp:77] Creating layer conv1/relu_7x7
I0403 19:42:55.818066 25648 net.cpp:91] Creating Layer conv1/relu_7x7
I0403 19:42:55.818089 25648 net.cpp:425] conv1/relu_7x7 <- conv1/7x7_s2
I0403 19:42:55.818111 25648 net.cpp:386] conv1/relu_7x7 -> conv1/7x7_s2 (in-place)
I0403 19:42:55.818367 25648 net.cpp:141] Setting up conv1/relu_7x7
I0403 19:42:55.818395 25648 net.cpp:148] Top shape: 24 64 112 112 (19267584)
I0403 19:42:55.818413 25648 net.cpp:156] Memory required for data: 168592416
I0403 19:42:55.818428 25648 layer_factory.hpp:77] Creating layer pool1/3x3_s2
I0403 19:42:55.818456 25648 net.cpp:91] Creating Layer pool1/3x3_s2
I0403 19:42:55.818477 25648 net.cpp:425] pool1/3x3_s2 <- conv1/7x7_s2
I0403 19:42:55.818548 25648 net.cpp:399] pool1/3x3_s2 -> pool1/3x3_s2
I0403 19:42:55.818639 25648 net.cpp:141] Setting up pool1/3x3_s2
I0403 19:42:55.818665 25648 net.cpp:148] Top shape: 24 64 56 56 (4816896)
I0403 19:42:55.818683 25648 net.cpp:156] Memory required for data: 187860000
I0403 19:42:55.818699 25648 layer_factory.hpp:77] Creating layer pool1/norm1
I0403 19:42:55.818728 25648 net.cpp:91] Creating Layer pool1/norm1
I0403 19:42:55.818747 25648 net.cpp:425] pool1/norm1 <- pool1/3x3_s2
I0403 19:42:55.818766 25648 net.cpp:399] pool1/norm1 -> pool1/norm1
I0403 19:42:55.819049 25648 net.cpp:141] Setting up pool1/norm1
I0403 19:42:55.819078 25648 net.cpp:148] Top shape: 24 64 56 56 (4816896)
I0403 19:42:55.819097 25648 net.cpp:156] Memory required for data: 207127584
I0403 19:42:55.819113 25648 layer_factory.hpp:77] Creating layer conv2/3x3_reduce
I0403 19:42:55.819142 25648 net.cpp:91] Creating Layer conv2/3x3_reduce
I0403 19:42:55.819164 25648 net.cpp:425] conv2/3x3_reduce <- pool1/norm1
I0403 19:42:55.819185 25648 net.cpp:399] conv2/3x3_reduce -> conv2/3x3_reduce
I0403 19:42:55.820587 25648 net.cpp:141] Setting up conv2/3x3_reduce
I0403 19:42:55.820621 25648 net.cpp:148] Top shape: 24 64 56 56 (4816896)
I0403 19:42:55.820638 25648 net.cpp:156] Memory required for data: 226395168
I0403 19:42:55.820662 25648 layer_factory.hpp:77] Creating layer conv2/relu_3x3_reduce
I0403 19:42:55.820683 25648 net.cpp:91] Creating Layer conv2/relu_3x3_reduce
I0403 19:42:55.820699 25648 net.cpp:425] conv2/relu_3x3_reduce <- conv2/3x3_reduce
I0403 19:42:55.820724 25648 net.cpp:386] conv2/relu_3x3_reduce -> conv2/3x3_reduce (in-place)
I0403 19:42:55.820996 25648 net.cpp:141] Setting up conv2/relu_3x3_reduce
I0403 19:42:55.821029 25648 net.cpp:148] Top shape: 24 64 56 56 (4816896)
I0403 19:42:55.821048 25648 net.cpp:156] Memory required for data: 245662752
I0403 19:42:55.821064 25648 layer_factory.hpp:77] Creating layer conv2/3x3
I0403 19:42:55.821090 25648 net.cpp:91] Creating Layer conv2/3x3
I0403 19:42:55.821111 25648 net.cpp:425] conv2/3x3 <- conv2/3x3_reduce
I0403 19:42:55.821135 25648 net.cpp:399] conv2/3x3 -> conv2/3x3
I0403 19:42:55.823467 25648 net.cpp:141] Setting up conv2/3x3
I0403 19:42:55.823498 25648 net.cpp:148] Top shape: 24 192 56 56 (14450688)
I0403 19:42:55.823518 25648 net.cpp:156] Memory required for data: 303465504
I0403 19:42:55.823540 25648 layer_factory.hpp:77] Creating layer conv2/relu_3x3
I0403 19:42:55.823561 25648 net.cpp:91] Creating Layer conv2/relu_3x3
I0403 19:42:55.823578 25648 net.cpp:425] conv2/relu_3x3 <- conv2/3x3
I0403 19:42:55.823599 25648 net.cpp:386] conv2/relu_3x3 -> conv2/3x3 (in-place)
I0403 19:42:55.823776 25648 net.cpp:141] Setting up conv2/relu_3x3
I0403 19:42:55.823807 25648 net.cpp:148] Top shape: 24 192 56 56 (14450688)
I0403 19:42:55.823863 25648 net.cpp:156] Memory required for data: 361268256
I0403 19:42:55.823879 25648 layer_factory.hpp:77] Creating layer conv2/norm2
I0403 19:42:55.823901 25648 net.cpp:91] Creating Layer conv2/norm2
I0403 19:42:55.823918 25648 net.cpp:425] conv2/norm2 <- conv2/3x3
I0403 19:42:55.823940 25648 net.cpp:399] conv2/norm2 -> conv2/norm2
I0403 19:42:55.824237 25648 net.cpp:141] Setting up conv2/norm2
I0403 19:42:55.824283 25648 net.cpp:148] Top shape: 24 192 56 56 (14450688)
I0403 19:42:55.824306 25648 net.cpp:156] Memory required for data: 419071008
I0403 19:42:55.824321 25648 layer_factory.hpp:77] Creating layer pool2/3x3_s2
I0403 19:42:55.824340 25648 net.cpp:91] Creating Layer pool2/3x3_s2
I0403 19:42:55.824358 25648 net.cpp:425] pool2/3x3_s2 <- conv2/norm2
I0403 19:42:55.824378 25648 net.cpp:399] pool2/3x3_s2 -> pool2/3x3_s2
I0403 19:42:55.824432 25648 net.cpp:141] Setting up pool2/3x3_s2
I0403 19:42:55.824461 25648 net.cpp:148] Top shape: 24 192 28 28 (3612672)
I0403 19:42:55.824476 25648 net.cpp:156] Memory required for data: 433521696
I0403 19:42:55.824493 25648 layer_factory.hpp:77] Creating layer pool2/3x3_s2_pool2/3x3_s2_0_split
I0403 19:42:55.824517 25648 net.cpp:91] Creating Layer pool2/3x3_s2_pool2/3x3_s2_0_split
I0403 19:42:55.824533 25648 net.cpp:425] pool2/3x3_s2_pool2/3x3_s2_0_split <- pool2/3x3_s2
I0403 19:42:55.824553 25648 net.cpp:399] pool2/3x3_s2_pool2/3x3_s2_0_split -> pool2/3x3_s2_pool2/3x3_s2_0_split_0
I0403 19:42:55.824575 25648 net.cpp:399] pool2/3x3_s2_pool2/3x3_s2_0_split -> pool2/3x3_s2_pool2/3x3_s2_0_split_1
I0403 19:42:55.824600 25648 net.cpp:399] pool2/3x3_s2_pool2/3x3_s2_0_split -> pool2/3x3_s2_pool2/3x3_s2_0_split_2
I0403 19:42:55.824622 25648 net.cpp:399] pool2/3x3_s2_pool2/3x3_s2_0_split -> pool2/3x3_s2_pool2/3x3_s2_0_split_3
I0403 19:42:55.824695 25648 net.cpp:141] Setting up pool2/3x3_s2_pool2/3x3_s2_0_split
I0403 19:42:55.824723 25648 net.cpp:148] Top shape: 24 192 28 28 (3612672)
I0403 19:42:55.824741 25648 net.cpp:148] Top shape: 24 192 28 28 (3612672)
I0403 19:42:55.824760 25648 net.cpp:148] Top shape: 24 192 28 28 (3612672)
I0403 19:42:55.824776 25648 net.cpp:148] Top shape: 24 192 28 28 (3612672)
I0403 19:42:55.824792 25648 net.cpp:156] Memory required for data: 491324448
I0403 19:42:55.824808 25648 layer_factory.hpp:77] Creating layer inception_3a/1x1
I0403 19:42:55.824831 25648 net.cpp:91] Creating Layer inception_3a/1x1
I0403 19:42:55.824849 25648 net.cpp:425] inception_3a/1x1 <- pool2/3x3_s2_pool2/3x3_s2_0_split_0
I0403 19:42:55.824873 25648 net.cpp:399] inception_3a/1x1 -> inception_3a/1x1
I0403 19:42:55.826409 25648 net.cpp:141] Setting up inception_3a/1x1
I0403 19:42:55.826442 25648 net.cpp:148] Top shape: 24 64 28 28 (1204224)
I0403 19:42:55.826462 25648 net.cpp:156] Memory required for data: 496141344
I0403 19:42:55.826484 25648 layer_factory.hpp:77] Creating layer inception_3a/relu_1x1
I0403 19:42:55.826505 25648 net.cpp:91] Creating Layer inception_3a/relu_1x1
I0403 19:42:55.826524 25648 net.cpp:425] inception_3a/relu_1x1 <- inception_3a/1x1
I0403 19:42:55.826548 25648 net.cpp:386] inception_3a/relu_1x1 -> inception_3a/1x1 (in-place)
I0403 19:42:55.826721 25648 net.cpp:141] Setting up inception_3a/relu_1x1
I0403 19:42:55.826752 25648 net.cpp:148] Top shape: 24 64 28 28 (1204224)
I0403 19:42:55.826769 25648 net.cpp:156] Memory required for data: 500958240
I0403 19:42:55.826786 25648 layer_factory.hpp:77] Creating layer inception_3a/3x3_reduce
I0403 19:42:55.826809 25648 net.cpp:91] Creating Layer inception_3a/3x3_reduce
I0403 19:42:55.826830 25648 net.cpp:425] inception_3a/3x3_reduce <- pool2/3x3_s2_pool2/3x3_s2_0_split_1
I0403 19:42:55.826853 25648 net.cpp:399] inception_3a/3x3_reduce -> inception_3a/3x3_reduce
I0403 19:42:55.828526 25648 net.cpp:141] Setting up inception_3a/3x3_reduce
I0403 19:42:55.828562 25648 net.cpp:148] Top shape: 24 96 28 28 (1806336)
I0403 19:42:55.828578 25648 net.cpp:156] Memory required for data: 508183584
I0403 19:42:55.828600 25648 layer_factory.hpp:77] Creating layer inception_3a/relu_3x3_reduce
I0403 19:42:55.828644 25648 net.cpp:91] Creating Layer inception_3a/relu_3x3_reduce
I0403 19:42:55.828663 25648 net.cpp:425] inception_3a/relu_3x3_reduce <- inception_3a/3x3_reduce
I0403 19:42:55.828685 25648 net.cpp:386] inception_3a/relu_3x3_reduce -> inception_3a/3x3_reduce (in-place)
I0403 19:42:55.828866 25648 net.cpp:141] Setting up inception_3a/relu_3x3_reduce
I0403 19:42:55.828901 25648 net.cpp:148] Top shape: 24 96 28 28 (1806336)
I0403 19:42:55.828919 25648 net.cpp:156] Memory required for data: 515408928
I0403 19:42:55.828934 25648 layer_factory.hpp:77] Creating layer inception_3a/3x3
I0403 19:42:55.828959 25648 net.cpp:91] Creating Layer inception_3a/3x3
I0403 19:42:55.828980 25648 net.cpp:425] inception_3a/3x3 <- inception_3a/3x3_reduce
I0403 19:42:55.829001 25648 net.cpp:399] inception_3a/3x3 -> inception_3a/3x3
I0403 19:42:55.830628 25648 net.cpp:141] Setting up inception_3a/3x3
I0403 19:42:55.830659 25648 net.cpp:148] Top shape: 24 128 28 28 (2408448)
I0403 19:42:55.830677 25648 net.cpp:156] Memory required for data: 525042720
I0403 19:42:55.830696 25648 layer_factory.hpp:77] Creating layer inception_3a/relu_3x3
I0403 19:42:55.830720 25648 net.cpp:91] Creating Layer inception_3a/relu_3x3
I0403 19:42:55.830740 25648 net.cpp:425] inception_3a/relu_3x3 <- inception_3a/3x3
I0403 19:42:55.830760 25648 net.cpp:386] inception_3a/relu_3x3 -> inception_3a/3x3 (in-place)
I0403 19:42:55.831025 25648 net.cpp:141] Setting up inception_3a/relu_3x3
I0403 19:42:55.831054 25648 net.cpp:148] Top shape: 24 128 28 28 (2408448)
I0403 19:42:55.831071 25648 net.cpp:156] Memory required for data: 534676512
I0403 19:42:55.831089 25648 layer_factory.hpp:77] Creating layer inception_3a/5x5_reduce
I0403 19:42:55.831112 25648 net.cpp:91] Creating Layer inception_3a/5x5_reduce
I0403 19:42:55.831130 25648 net.cpp:425] inception_3a/5x5_reduce <- pool2/3x3_s2_pool2/3x3_s2_0_split_2
I0403 19:42:55.831151 25648 net.cpp:399] inception_3a/5x5_reduce -> inception_3a/5x5_reduce
I0403 19:42:55.832098 25648 net.cpp:141] Setting up inception_3a/5x5_reduce
I0403 19:42:55.832132 25648 net.cpp:148] Top shape: 24 16 28 28 (301056)
I0403 19:42:55.832149 25648 net.cpp:156] Memory required for data: 535880736
I0403 19:42:55.832170 25648 layer_factory.hpp:77] Creating layer inception_3a/relu_5x5_reduce
I0403 19:42:55.832192 25648 net.cpp:91] Creating Layer inception_3a/relu_5x5_reduce
I0403 19:42:55.832211 25648 net.cpp:425] inception_3a/relu_5x5_reduce <- inception_3a/5x5_reduce
I0403 19:42:55.832228 25648 net.cpp:386] inception_3a/relu_5x5_reduce -> inception_3a/5x5_reduce (in-place)
I0403 19:42:55.832505 25648 net.cpp:141] Setting up inception_3a/relu_5x5_reduce
I0403 19:42:55.832537 25648 net.cpp:148] Top shape: 24 16 28 28 (301056)
I0403 19:42:55.832556 25648 net.cpp:156] Memory required for data: 537084960
I0403 19:42:55.832572 25648 layer_factory.hpp:77] Creating layer inception_3a/5x5
I0403 19:42:55.832599 25648 net.cpp:91] Creating Layer inception_3a/5x5
I0403 19:42:55.832620 25648 net.cpp:425] inception_3a/5x5 <- inception_3a/5x5_reduce
I0403 19:42:55.832643 25648 net.cpp:399] inception_3a/5x5 -> inception_3a/5x5
I0403 19:42:55.833644 25648 net.cpp:141] Setting up inception_3a/5x5
I0403 19:42:55.833679 25648 net.cpp:148] Top shape: 24 32 28 28 (602112)
I0403 19:42:55.833698 25648 net.cpp:156] Memory required for data: 539493408
I0403 19:42:55.833717 25648 layer_factory.hpp:77] Creating layer inception_3a/relu_5x5
I0403 19:42:55.833735 25648 net.cpp:91] Creating Layer inception_3a/relu_5x5
I0403 19:42:55.833752 25648 net.cpp:425] inception_3a/relu_5x5 <- inception_3a/5x5
I0403 19:42:55.833772 25648 net.cpp:386] inception_3a/relu_5x5 -> inception_3a/5x5 (in-place)
I0403 19:42:55.833943 25648 net.cpp:141] Setting up inception_3a/relu_5x5
I0403 19:42:55.833973 25648 net.cpp:148] Top shape: 24 32 28 28 (602112)
I0403 19:42:55.833991 25648 net.cpp:156] Memory required for data: 541901856
I0403 19:42:55.834007 25648 layer_factory.hpp:77] Creating layer inception_3a/pool
I0403 19:42:55.834029 25648 net.cpp:91] Creating Layer inception_3a/pool
I0403 19:42:55.834063 25648 net.cpp:425] inception_3a/pool <- pool2/3x3_s2_pool2/3x3_s2_0_split_3
I0403 19:42:55.834084 25648 net.cpp:399] inception_3a/pool -> inception_3a/pool
I0403 19:42:55.834146 25648 net.cpp:141] Setting up inception_3a/pool
I0403 19:42:55.834177 25648 net.cpp:148] Top shape: 24 192 28 28 (3612672)
I0403 19:42:55.834193 25648 net.cpp:156] Memory required for data: 556352544
I0403 19:42:55.834210 25648 layer_factory.hpp:77] Creating layer inception_3a/pool_proj
I0403 19:42:55.834233 25648 net.cpp:91] Creating Layer inception_3a/pool_proj
I0403 19:42:55.834254 25648 net.cpp:425] inception_3a/pool_proj <- inception_3a/pool
I0403 19:42:55.834292 25648 net.cpp:399] inception_3a/pool_proj -> inception_3a/pool_proj
I0403 19:42:55.835240 25648 net.cpp:141] Setting up inception_3a/pool_proj
I0403 19:42:55.835281 25648 net.cpp:148] Top shape: 24 32 28 28 (602112)
I0403 19:42:55.835301 25648 net.cpp:156] Memory required for data: 558760992
I0403 19:42:55.835325 25648 layer_factory.hpp:77] Creating layer inception_3a/relu_pool_proj
I0403 19:42:55.835347 25648 net.cpp:91] Creating Layer inception_3a/relu_pool_proj
I0403 19:42:55.835366 25648 net.cpp:425] inception_3a/relu_pool_proj <- inception_3a/pool_proj
I0403 19:42:55.835384 25648 net.cpp:386] inception_3a/relu_pool_proj -> inception_3a/pool_proj (in-place)
I0403 19:42:55.835659 25648 net.cpp:141] Setting up inception_3a/relu_pool_proj
I0403 19:42:55.835690 25648 net.cpp:148] Top shape: 24 32 28 28 (602112)
I0403 19:42:55.835710 25648 net.cpp:156] Memory required for data: 561169440
I0403 19:42:55.835726 25648 layer_factory.hpp:77] Creating layer inception_3a/output
I0403 19:42:55.835747 25648 net.cpp:91] Creating Layer inception_3a/output
I0403 19:42:55.835764 25648 net.cpp:425] inception_3a/output <- inception_3a/1x1
I0403 19:42:55.835782 25648 net.cpp:425] inception_3a/output <- inception_3a/3x3
I0403 19:42:55.835798 25648 net.cpp:425] inception_3a/output <- inception_3a/5x5
I0403 19:42:55.835813 25648 net.cpp:425] inception_3a/output <- inception_3a/pool_proj
I0403 19:42:55.835834 25648 net.cpp:399] inception_3a/output -> inception_3a/output
I0403 19:42:55.835886 25648 net.cpp:141] Setting up inception_3a/output
I0403 19:42:55.835913 25648 net.cpp:148] Top shape: 24 256 28 28 (4816896)
I0403 19:42:55.835932 25648 net.cpp:156] Memory required for data: 580437024
I0403 19:42:55.835950 25648 layer_factory.hpp:77] Creating layer inception_3a/output_inception_3a/output_0_split
I0403 19:42:55.835968 25648 net.cpp:91] Creating Layer inception_3a/output_inception_3a/output_0_split
I0403 19:42:55.835986 25648 net.cpp:425] inception_3a/output_inception_3a/output_0_split <- inception_3a/output
I0403 19:42:55.836009 25648 net.cpp:399] inception_3a/output_inception_3a/output_0_split -> inception_3a/output_inception_3a/output_0_split_0
I0403 19:42:55.836032 25648 net.cpp:399] inception_3a/output_inception_3a/output_0_split -> inception_3a/output_inception_3a/output_0_split_1
I0403 19:42:55.836057 25648 net.cpp:399] inception_3a/output_inception_3a/output_0_split -> inception_3a/output_inception_3a/output_0_split_2
I0403 19:42:55.836081 25648 net.cpp:399] inception_3a/output_inception_3a/output_0_split -> inception_3a/output_inception_3a/output_0_split_3
I0403 19:42:55.836156 25648 net.cpp:141] Setting up inception_3a/output_inception_3a/output_0_split
I0403 19:42:55.836181 25648 net.cpp:148] Top shape: 24 256 28 28 (4816896)
I0403 19:42:55.836200 25648 net.cpp:148] Top shape: 24 256 28 28 (4816896)
I0403 19:42:55.836216 25648 net.cpp:148] Top shape: 24 256 28 28 (4816896)
I0403 19:42:55.836235 25648 net.cpp:148] Top shape: 24 256 28 28 (4816896)
I0403 19:42:55.836249 25648 net.cpp:156] Memory required for data: 657507360
I0403 19:42:55.836272 25648 layer_factory.hpp:77] Creating layer inception_3b/1x1
I0403 19:42:55.836295 25648 net.cpp:91] Creating Layer inception_3b/1x1
I0403 19:42:55.836315 25648 net.cpp:425] inception_3b/1x1 <- inception_3a/output_inception_3a/output_0_split_0
I0403 19:42:55.836338 25648 net.cpp:399] inception_3b/1x1 -> inception_3b/1x1
I0403 19:42:55.837465 25648 net.cpp:141] Setting up inception_3b/1x1
I0403 19:42:55.837510 25648 net.cpp:148] Top shape: 24 128 28 28 (2408448)
I0403 19:42:55.837532 25648 net.cpp:156] Memory required for data: 667141152
I0403 19:42:55.837553 25648 layer_factory.hpp:77] Creating layer inception_3b/relu_1x1
I0403 19:42:55.837573 25648 net.cpp:91] Creating Layer inception_3b/relu_1x1
I0403 19:42:55.837590 25648 net.cpp:425] inception_3b/relu_1x1 <- inception_3b/1x1
I0403 19:42:55.837611 25648 net.cpp:386] inception_3b/relu_1x1 -> inception_3b/1x1 (in-place)
I0403 19:42:55.837787 25648 net.cpp:141] Setting up inception_3b/relu_1x1
I0403 19:42:55.837816 25648 net.cpp:148] Top shape: 24 128 28 28 (2408448)
I0403 19:42:55.837833 25648 net.cpp:156] Memory required for data: 676774944
I0403 19:42:55.837848 25648 layer_factory.hpp:77] Creating layer inception_3b/3x3_reduce
I0403 19:42:55.837872 25648 net.cpp:91] Creating Layer inception_3b/3x3_reduce
I0403 19:42:55.837893 25648 net.cpp:425] inception_3b/3x3_reduce <- inception_3a/output_inception_3a/output_0_split_1
I0403 19:42:55.837915 25648 net.cpp:399] inception_3b/3x3_reduce -> inception_3b/3x3_reduce
I0403 19:42:55.839026 25648 net.cpp:141] Setting up inception_3b/3x3_reduce
I0403 19:42:55.839062 25648 net.cpp:148] Top shape: 24 128 28 28 (2408448)
I0403 19:42:55.839082 25648 net.cpp:156] Memory required for data: 686408736
I0403 19:42:55.839102 25648 layer_factory.hpp:77] Creating layer inception_3b/relu_3x3_reduce
I0403 19:42:55.839120 25648 net.cpp:91] Creating Layer inception_3b/relu_3x3_reduce
I0403 19:42:55.839139 25648 net.cpp:425] inception_3b/relu_3x3_reduce <- inception_3b/3x3_reduce
I0403 19:42:55.839161 25648 net.cpp:386] inception_3b/relu_3x3_reduce -> inception_3b/3x3_reduce (in-place)
I0403 19:42:55.839335 25648 net.cpp:141] Setting up inception_3b/relu_3x3_reduce
I0403 19:42:55.839361 25648 net.cpp:148] Top shape: 24 128 28 28 (2408448)
I0403 19:42:55.839378 25648 net.cpp:156] Memory required for data: 696042528
I0403 19:42:55.839395 25648 layer_factory.hpp:77] Creating layer inception_3b/3x3
I0403 19:42:55.839421 25648 net.cpp:91] Creating Layer inception_3b/3x3
I0403 19:42:55.839443 25648 net.cpp:425] inception_3b/3x3 <- inception_3b/3x3_reduce
I0403 19:42:55.839463 25648 net.cpp:399] inception_3b/3x3 -> inception_3b/3x3
I0403 19:42:55.842265 25648 net.cpp:141] Setting up inception_3b/3x3
I0403 19:42:55.842296 25648 net.cpp:148] Top shape: 24 192 28 28 (3612672)
I0403 19:42:55.842314 25648 net.cpp:156] Memory required for data: 710493216
I0403 19:42:55.842334 25648 layer_factory.hpp:77] Creating layer inception_3b/relu_3x3
I0403 19:42:55.842356 25648 net.cpp:91] Creating Layer inception_3b/relu_3x3
I0403 19:42:55.842376 25648 net.cpp:425] inception_3b/relu_3x3 <- inception_3b/3x3
I0403 19:42:55.842396 25648 net.cpp:386] inception_3b/relu_3x3 -> inception_3b/3x3 (in-place)
I0403 19:42:55.842658 25648 net.cpp:141] Setting up inception_3b/relu_3x3
I0403 19:42:55.842686 25648 net.cpp:148] Top shape: 24 192 28 28 (3612672)
I0403 19:42:55.842702 25648 net.cpp:156] Memory required for data: 724943904
I0403 19:42:55.842718 25648 layer_factory.hpp:77] Creating layer inception_3b/5x5_reduce
I0403 19:42:55.842744 25648 net.cpp:91] Creating Layer inception_3b/5x5_reduce
I0403 19:42:55.842762 25648 net.cpp:425] inception_3b/5x5_reduce <- inception_3a/output_inception_3a/output_0_split_2
I0403 19:42:55.842785 25648 net.cpp:399] inception_3b/5x5_reduce -> inception_3b/5x5_reduce
I0403 19:42:55.843741 25648 net.cpp:141] Setting up inception_3b/5x5_reduce
I0403 19:42:55.843775 25648 net.cpp:148] Top shape: 24 32 28 28 (602112)
I0403 19:42:55.843792 25648 net.cpp:156] Memory required for data: 727352352
I0403 19:42:55.843812 25648 layer_factory.hpp:77] Creating layer inception_3b/relu_5x5_reduce
I0403 19:42:55.843830 25648 net.cpp:91] Creating Layer inception_3b/relu_5x5_reduce
I0403 19:42:55.843850 25648 net.cpp:425] inception_3b/relu_5x5_reduce <- inception_3b/5x5_reduce
I0403 19:42:55.843870 25648 net.cpp:386] inception_3b/relu_5x5_reduce -> inception_3b/5x5_reduce (in-place)
I0403 19:42:55.844063 25648 net.cpp:141] Setting up inception_3b/relu_5x5_reduce
I0403 19:42:55.844092 25648 net.cpp:148] Top shape: 24 32 28 28 (602112)
I0403 19:42:55.844108 25648 net.cpp:156] Memory required for data: 729760800
I0403 19:42:55.844125 25648 layer_factory.hpp:77] Creating layer inception_3b/5x5
I0403 19:42:55.844148 25648 net.cpp:91] Creating Layer inception_3b/5x5
I0403 19:42:55.844166 25648 net.cpp:425] inception_3b/5x5 <- inception_3b/5x5_reduce
I0403 19:42:55.844189 25648 net.cpp:399] inception_3b/5x5 -> inception_3b/5x5
I0403 19:42:55.846104 25648 net.cpp:141] Setting up inception_3b/5x5
I0403 19:42:55.846138 25648 net.cpp:148] Top shape: 24 96 28 28 (1806336)
I0403 19:42:55.846158 25648 net.cpp:156] Memory required for data: 736986144
I0403 19:42:55.846179 25648 layer_factory.hpp:77] Creating layer inception_3b/relu_5x5
I0403 19:42:55.846199 25648 net.cpp:91] Creating Layer inception_3b/relu_5x5
I0403 19:42:55.846217 25648 net.cpp:425] inception_3b/relu_5x5 <- inception_3b/5x5
I0403 19:42:55.846237 25648 net.cpp:386] inception_3b/relu_5x5 -> inception_3b/5x5 (in-place)
I0403 19:42:55.846432 25648 net.cpp:141] Setting up inception_3b/relu_5x5
I0403 19:42:55.846462 25648 net.cpp:148] Top shape: 24 96 28 28 (1806336)
I0403 19:42:55.846478 25648 net.cpp:156] Memory required for data: 744211488
I0403 19:42:55.846493 25648 layer_factory.hpp:77] Creating layer inception_3b/pool
I0403 19:42:55.846510 25648 net.cpp:91] Creating Layer inception_3b/pool
I0403 19:42:55.846529 25648 net.cpp:425] inception_3b/pool <- inception_3a/output_inception_3a/output_0_split_3
I0403 19:42:55.846547 25648 net.cpp:399] inception_3b/pool -> inception_3b/pool
I0403 19:42:55.846602 25648 net.cpp:141] Setting up inception_3b/pool
I0403 19:42:55.846632 25648 net.cpp:148] Top shape: 24 256 28 28 (4816896)
I0403 19:42:55.846647 25648 net.cpp:156] Memory required for data: 763479072
I0403 19:42:55.846663 25648 layer_factory.hpp:77] Creating layer inception_3b/pool_proj
I0403 19:42:55.846689 25648 net.cpp:91] Creating Layer inception_3b/pool_proj
I0403 19:42:55.846709 25648 net.cpp:425] inception_3b/pool_proj <- inception_3b/pool
I0403 19:42:55.846731 25648 net.cpp:399] inception_3b/pool_proj -> inception_3b/pool_proj
I0403 19:42:55.847740 25648 net.cpp:141] Setting up inception_3b/pool_proj
I0403 19:42:55.847774 25648 net.cpp:148] Top shape: 24 64 28 28 (1204224)
I0403 19:42:55.847790 25648 net.cpp:156] Memory required for data: 768295968
I0403 19:42:55.847810 25648 layer_factory.hpp:77] Creating layer inception_3b/relu_pool_proj
I0403 19:42:55.847831 25648 net.cpp:91] Creating Layer inception_3b/relu_pool_proj
I0403 19:42:55.847851 25648 net.cpp:425] inception_3b/relu_pool_proj <- inception_3b/pool_proj
I0403 19:42:55.847872 25648 net.cpp:386] inception_3b/relu_pool_proj -> inception_3b/pool_proj (in-place)
I0403 19:42:55.848232 25648 net.cpp:141] Setting up inception_3b/relu_pool_proj
I0403 19:42:55.848263 25648 net.cpp:148] Top shape: 24 64 28 28 (1204224)
I0403 19:42:55.848284 25648 net.cpp:156] Memory required for data: 773112864
I0403 19:42:55.848299 25648 layer_factory.hpp:77] Creating layer inception_3b/output
I0403 19:42:55.848321 25648 net.cpp:91] Creating Layer inception_3b/output
I0403 19:42:55.848340 25648 net.cpp:425] inception_3b/output <- inception_3b/1x1
I0403 19:42:55.848358 25648 net.cpp:425] inception_3b/output <- inception_3b/3x3
I0403 19:42:55.848374 25648 net.cpp:425] inception_3b/output <- inception_3b/5x5
I0403 19:42:55.848390 25648 net.cpp:425] inception_3b/output <- inception_3b/pool_proj
I0403 19:42:55.848409 25648 net.cpp:399] inception_3b/output -> inception_3b/output
I0403 19:42:55.848454 25648 net.cpp:141] Setting up inception_3b/output
I0403 19:42:55.848485 25648 net.cpp:148] Top shape: 24 480 28 28 (9031680)
I0403 19:42:55.848502 25648 net.cpp:156] Memory required for data: 809239584
I0403 19:42:55.848518 25648 layer_factory.hpp:77] Creating layer pool3/3x3_s2
I0403 19:42:55.848536 25648 net.cpp:91] Creating Layer pool3/3x3_s2
I0403 19:42:55.848552 25648 net.cpp:425] pool3/3x3_s2 <- inception_3b/output
I0403 19:42:55.848590 25648 net.cpp:399] pool3/3x3_s2 -> pool3/3x3_s2
I0403 19:42:55.848651 25648 net.cpp:141] Setting up pool3/3x3_s2
I0403 19:42:55.848683 25648 net.cpp:148] Top shape: 24 480 14 14 (2257920)
I0403 19:42:55.848701 25648 net.cpp:156] Memory required for data: 818271264
I0403 19:42:55.848717 25648 layer_factory.hpp:77] Creating layer pool3/3x3_s2_pool3/3x3_s2_0_split
I0403 19:42:55.848737 25648 net.cpp:91] Creating Layer pool3/3x3_s2_pool3/3x3_s2_0_split
I0403 19:42:55.848752 25648 net.cpp:425] pool3/3x3_s2_pool3/3x3_s2_0_split <- pool3/3x3_s2
I0403 19:42:55.848770 25648 net.cpp:399] pool3/3x3_s2_pool3/3x3_s2_0_split -> pool3/3x3_s2_pool3/3x3_s2_0_split_0
I0403 19:42:55.848789 25648 net.cpp:399] pool3/3x3_s2_pool3/3x3_s2_0_split -> pool3/3x3_s2_pool3/3x3_s2_0_split_1
I0403 19:42:55.848814 25648 net.cpp:399] pool3/3x3_s2_pool3/3x3_s2_0_split -> pool3/3x3_s2_pool3/3x3_s2_0_split_2
I0403 19:42:55.848834 25648 net.cpp:399] pool3/3x3_s2_pool3/3x3_s2_0_split -> pool3/3x3_s2_pool3/3x3_s2_0_split_3
I0403 19:42:55.848908 25648 net.cpp:141] Setting up pool3/3x3_s2_pool3/3x3_s2_0_split
I0403 19:42:55.848935 25648 net.cpp:148] Top shape: 24 480 14 14 (2257920)
I0403 19:42:55.848953 25648 net.cpp:148] Top shape: 24 480 14 14 (2257920)
I0403 19:42:55.848971 25648 net.cpp:148] Top shape: 24 480 14 14 (2257920)
I0403 19:42:55.848987 25648 net.cpp:148] Top shape: 24 480 14 14 (2257920)
I0403 19:42:55.849002 25648 net.cpp:156] Memory required for data: 854397984
I0403 19:42:55.849017 25648 layer_factory.hpp:77] Creating layer inception_4a/1x1
I0403 19:42:55.849042 25648 net.cpp:91] Creating Layer inception_4a/1x1
I0403 19:42:55.849062 25648 net.cpp:425] inception_4a/1x1 <- pool3/3x3_s2_pool3/3x3_s2_0_split_0
I0403 19:42:55.849086 25648 net.cpp:399] inception_4a/1x1 -> inception_4a/1x1
I0403 19:42:55.850661 25648 net.cpp:141] Setting up inception_4a/1x1
I0403 19:42:55.850693 25648 net.cpp:148] Top shape: 24 192 14 14 (903168)
I0403 19:42:55.850710 25648 net.cpp:156] Memory required for data: 858010656
I0403 19:42:55.850729 25648 layer_factory.hpp:77] Creating layer inception_4a/relu_1x1
I0403 19:42:55.850751 25648 net.cpp:91] Creating Layer inception_4a/relu_1x1
I0403 19:42:55.850770 25648 net.cpp:425] inception_4a/relu_1x1 <- inception_4a/1x1
I0403 19:42:55.850790 25648 net.cpp:386] inception_4a/relu_1x1 -> inception_4a/1x1 (in-place)
I0403 19:42:55.850970 25648 net.cpp:141] Setting up inception_4a/relu_1x1
I0403 19:42:55.850998 25648 net.cpp:148] Top shape: 24 192 14 14 (903168)
I0403 19:42:55.851013 25648 net.cpp:156] Memory required for data: 861623328
I0403 19:42:55.851032 25648 layer_factory.hpp:77] Creating layer inception_4a/3x3_reduce
I0403 19:42:55.851054 25648 net.cpp:91] Creating Layer inception_4a/3x3_reduce
I0403 19:42:55.851074 25648 net.cpp:425] inception_4a/3x3_reduce <- pool3/3x3_s2_pool3/3x3_s2_0_split_1
I0403 19:42:55.851099 25648 net.cpp:399] inception_4a/3x3_reduce -> inception_4a/3x3_reduce
I0403 19:42:55.852360 25648 net.cpp:141] Setting up inception_4a/3x3_reduce
I0403 19:42:55.852391 25648 net.cpp:148] Top shape: 24 96 14 14 (451584)
I0403 19:42:55.852414 25648 net.cpp:156] Memory required for data: 863429664
I0403 19:42:55.852438 25648 layer_factory.hpp:77] Creating layer inception_4a/relu_3x3_reduce
I0403 19:42:55.852463 25648 net.cpp:91] Creating Layer inception_4a/relu_3x3_reduce
I0403 19:42:55.852484 25648 net.cpp:425] inception_4a/relu_3x3_reduce <- inception_4a/3x3_reduce
I0403 19:42:55.852506 25648 net.cpp:386] inception_4a/relu_3x3_reduce -> inception_4a/3x3_reduce (in-place)
I0403 19:42:55.852682 25648 net.cpp:141] Setting up inception_4a/relu_3x3_reduce
I0403 19:42:55.852713 25648 net.cpp:148] Top shape: 24 96 14 14 (451584)
I0403 19:42:55.852733 25648 net.cpp:156] Memory required for data: 865236000
I0403 19:42:55.852748 25648 layer_factory.hpp:77] Creating layer inception_4a/3x3
I0403 19:42:55.852773 25648 net.cpp:91] Creating Layer inception_4a/3x3
I0403 19:42:55.852792 25648 net.cpp:425] inception_4a/3x3 <- inception_4a/3x3_reduce
I0403 19:42:55.852814 25648 net.cpp:399] inception_4a/3x3 -> inception_4a/3x3
I0403 19:42:55.855500 25648 net.cpp:141] Setting up inception_4a/3x3
I0403 19:42:55.855537 25648 net.cpp:148] Top shape: 24 208 14 14 (978432)
I0403 19:42:55.855556 25648 net.cpp:156] Memory required for data: 869149728
I0403 19:42:55.855577 25648 layer_factory.hpp:77] Creating layer inception_4a/relu_3x3
I0403 19:42:55.855598 25648 net.cpp:91] Creating Layer inception_4a/relu_3x3
I0403 19:42:55.855617 25648 net.cpp:425] inception_4a/relu_3x3 <- inception_4a/3x3
I0403 19:42:55.855635 25648 net.cpp:386] inception_4a/relu_3x3 -> inception_4a/3x3 (in-place)
I0403 19:42:55.855906 25648 net.cpp:141] Setting up inception_4a/relu_3x3
I0403 19:42:55.855939 25648 net.cpp:148] Top shape: 24 208 14 14 (978432)
I0403 19:42:55.855958 25648 net.cpp:156] Memory required for data: 873063456
I0403 19:42:55.855975 25648 layer_factory.hpp:77] Creating layer inception_4a/5x5_reduce
I0403 19:42:55.856003 25648 net.cpp:91] Creating Layer inception_4a/5x5_reduce
I0403 19:42:55.856020 25648 net.cpp:425] inception_4a/5x5_reduce <- pool3/3x3_s2_pool3/3x3_s2_0_split_2
I0403 19:42:55.856041 25648 net.cpp:399] inception_4a/5x5_reduce -> inception_4a/5x5_reduce
I0403 19:42:55.857069 25648 net.cpp:141] Setting up inception_4a/5x5_reduce
I0403 19:42:55.857102 25648 net.cpp:148] Top shape: 24 16 14 14 (75264)
I0403 19:42:55.857120 25648 net.cpp:156] Memory required for data: 873364512
I0403 19:42:55.857141 25648 layer_factory.hpp:77] Creating layer inception_4a/relu_5x5_reduce
I0403 19:42:55.857157 25648 net.cpp:91] Creating Layer inception_4a/relu_5x5_reduce
I0403 19:42:55.857174 25648 net.cpp:425] inception_4a/relu_5x5_reduce <- inception_4a/5x5_reduce
I0403 19:42:55.857197 25648 net.cpp:386] inception_4a/relu_5x5_reduce -> inception_4a/5x5_reduce (in-place)
I0403 19:42:55.857379 25648 net.cpp:141] Setting up inception_4a/relu_5x5_reduce
I0403 19:42:55.857411 25648 net.cpp:148] Top shape: 24 16 14 14 (75264)
I0403 19:42:55.857429 25648 net.cpp:156] Memory required for data: 873665568
I0403 19:42:55.857445 25648 layer_factory.hpp:77] Creating layer inception_4a/5x5
I0403 19:42:55.857481 25648 net.cpp:91] Creating Layer inception_4a/5x5
I0403 19:42:55.857501 25648 net.cpp:425] inception_4a/5x5 <- inception_4a/5x5_reduce
I0403 19:42:55.857523 25648 net.cpp:399] inception_4a/5x5 -> inception_4a/5x5
I0403 19:42:55.858561 25648 net.cpp:141] Setting up inception_4a/5x5
I0403 19:42:55.858593 25648 net.cpp:148] Top shape: 24 48 14 14 (225792)
I0403 19:42:55.858610 25648 net.cpp:156] Memory required for data: 874568736
I0403 19:42:55.858633 25648 layer_factory.hpp:77] Creating layer inception_4a/relu_5x5
I0403 19:42:55.858655 25648 net.cpp:91] Creating Layer inception_4a/relu_5x5
I0403 19:42:55.858675 25648 net.cpp:425] inception_4a/relu_5x5 <- inception_4a/5x5
I0403 19:42:55.858693 25648 net.cpp:386] inception_4a/relu_5x5 -> inception_4a/5x5 (in-place)
I0403 19:42:55.858868 25648 net.cpp:141] Setting up inception_4a/relu_5x5
I0403 19:42:55.858901 25648 net.cpp:148] Top shape: 24 48 14 14 (225792)
I0403 19:42:55.858919 25648 net.cpp:156] Memory required for data: 875471904
I0403 19:42:55.858935 25648 layer_factory.hpp:77] Creating layer inception_4a/pool
I0403 19:42:55.858953 25648 net.cpp:91] Creating Layer inception_4a/pool
I0403 19:42:55.858970 25648 net.cpp:425] inception_4a/pool <- pool3/3x3_s2_pool3/3x3_s2_0_split_3
I0403 19:42:55.858992 25648 net.cpp:399] inception_4a/pool -> inception_4a/pool
I0403 19:42:55.859052 25648 net.cpp:141] Setting up inception_4a/pool
I0403 19:42:55.859081 25648 net.cpp:148] Top shape: 24 480 14 14 (2257920)
I0403 19:42:55.859096 25648 net.cpp:156] Memory required for data: 884503584
I0403 19:42:55.859110 25648 layer_factory.hpp:77] Creating layer inception_4a/pool_proj
I0403 19:42:55.859133 25648 net.cpp:91] Creating Layer inception_4a/pool_proj
I0403 19:42:55.859153 25648 net.cpp:425] inception_4a/pool_proj <- inception_4a/pool
I0403 19:42:55.859176 25648 net.cpp:399] inception_4a/pool_proj -> inception_4a/pool_proj
I0403 19:42:55.860296 25648 net.cpp:141] Setting up inception_4a/pool_proj
I0403 19:42:55.860328 25648 net.cpp:148] Top shape: 24 64 14 14 (301056)
I0403 19:42:55.860364 25648 net.cpp:156] Memory required for data: 885707808
I0403 19:42:55.860385 25648 layer_factory.hpp:77] Creating layer inception_4a/relu_pool_proj
I0403 19:42:55.860404 25648 net.cpp:91] Creating Layer inception_4a/relu_pool_proj
I0403 19:42:55.860424 25648 net.cpp:425] inception_4a/relu_pool_proj <- inception_4a/pool_proj
I0403 19:42:55.860445 25648 net.cpp:386] inception_4a/relu_pool_proj -> inception_4a/pool_proj (in-place)
I0403 19:42:55.860715 25648 net.cpp:141] Setting up inception_4a/relu_pool_proj
I0403 19:42:55.860744 25648 net.cpp:148] Top shape: 24 64 14 14 (301056)
I0403 19:42:55.860765 25648 net.cpp:156] Memory required for data: 886912032
I0403 19:42:55.860781 25648 layer_factory.hpp:77] Creating layer inception_4a/output
I0403 19:42:55.860800 25648 net.cpp:91] Creating Layer inception_4a/output
I0403 19:42:55.860817 25648 net.cpp:425] inception_4a/output <- inception_4a/1x1
I0403 19:42:55.860833 25648 net.cpp:425] inception_4a/output <- inception_4a/3x3
I0403 19:42:55.860851 25648 net.cpp:425] inception_4a/output <- inception_4a/5x5
I0403 19:42:55.860867 25648 net.cpp:425] inception_4a/output <- inception_4a/pool_proj
I0403 19:42:55.860887 25648 net.cpp:399] inception_4a/output -> inception_4a/output
I0403 19:42:55.860934 25648 net.cpp:141] Setting up inception_4a/output
I0403 19:42:55.860963 25648 net.cpp:148] Top shape: 24 512 14 14 (2408448)
I0403 19:42:55.860978 25648 net.cpp:156] Memory required for data: 896545824
I0403 19:42:55.860994 25648 layer_factory.hpp:77] Creating layer inception_4a/output_inception_4a/output_0_split
I0403 19:42:55.861013 25648 net.cpp:91] Creating Layer inception_4a/output_inception_4a/output_0_split
I0403 19:42:55.861035 25648 net.cpp:425] inception_4a/output_inception_4a/output_0_split <- inception_4a/output
I0403 19:42:55.861054 25648 net.cpp:399] inception_4a/output_inception_4a/output_0_split -> inception_4a/output_inception_4a/output_0_split_0
I0403 19:42:55.861078 25648 net.cpp:399] inception_4a/output_inception_4a/output_0_split -> inception_4a/output_inception_4a/output_0_split_1
I0403 19:42:55.861102 25648 net.cpp:399] inception_4a/output_inception_4a/output_0_split -> inception_4a/output_inception_4a/output_0_split_2
I0403 19:42:55.861126 25648 net.cpp:399] inception_4a/output_inception_4a/output_0_split -> inception_4a/output_inception_4a/output_0_split_3
I0403 19:42:55.861147 25648 net.cpp:399] inception_4a/output_inception_4a/output_0_split -> inception_4a/output_inception_4a/output_0_split_4
I0403 19:42:55.861243 25648 net.cpp:141] Setting up inception_4a/output_inception_4a/output_0_split
I0403 19:42:55.861279 25648 net.cpp:148] Top shape: 24 512 14 14 (2408448)
I0403 19:42:55.861297 25648 net.cpp:148] Top shape: 24 512 14 14 (2408448)
I0403 19:42:55.861315 25648 net.cpp:148] Top shape: 24 512 14 14 (2408448)
I0403 19:42:55.861331 25648 net.cpp:148] Top shape: 24 512 14 14 (2408448)
I0403 19:42:55.861347 25648 net.cpp:148] Top shape: 24 512 14 14 (2408448)
I0403 19:42:55.861361 25648 net.cpp:156] Memory required for data: 944714784
I0403 19:42:55.861377 25648 layer_factory.hpp:77] Creating layer loss1/ave_pool
I0403 19:42:55.861397 25648 net.cpp:91] Creating Layer loss1/ave_pool
I0403 19:42:55.861415 25648 net.cpp:425] loss1/ave_pool <- inception_4a/output_inception_4a/output_0_split_0
I0403 19:42:55.861439 25648 net.cpp:399] loss1/ave_pool -> loss1/ave_pool
I0403 19:42:55.861649 25648 net.cpp:141] Setting up loss1/ave_pool
I0403 19:42:55.861680 25648 net.cpp:148] Top shape: 24 512 4 4 (196608)
I0403 19:42:55.861698 25648 net.cpp:156] Memory required for data: 945501216
I0403 19:42:55.861714 25648 layer_factory.hpp:77] Creating layer loss1/conv
I0403 19:42:55.861737 25648 net.cpp:91] Creating Layer loss1/conv
I0403 19:42:55.861752 25648 net.cpp:425] loss1/conv <- loss1/ave_pool
I0403 19:42:55.861773 25648 net.cpp:399] loss1/conv -> loss1/conv
I0403 19:42:55.863132 25648 net.cpp:141] Setting up loss1/conv
I0403 19:42:55.863168 25648 net.cpp:148] Top shape: 24 128 4 4 (49152)
I0403 19:42:55.863198 25648 net.cpp:156] Memory required for data: 945697824
I0403 19:42:55.863220 25648 layer_factory.hpp:77] Creating layer loss1/relu_conv
I0403 19:42:55.863240 25648 net.cpp:91] Creating Layer loss1/relu_conv
I0403 19:42:55.863262 25648 net.cpp:425] loss1/relu_conv <- loss1/conv
I0403 19:42:55.863284 25648 net.cpp:386] loss1/relu_conv -> loss1/conv (in-place)
I0403 19:42:55.863555 25648 net.cpp:141] Setting up loss1/relu_conv
I0403 19:42:55.863590 25648 net.cpp:148] Top shape: 24 128 4 4 (49152)
I0403 19:42:55.863610 25648 net.cpp:156] Memory required for data: 945894432
I0403 19:42:55.863627 25648 layer_factory.hpp:77] Creating layer loss1/fc
I0403 19:42:55.863654 25648 net.cpp:91] Creating Layer loss1/fc
I0403 19:42:55.863673 25648 net.cpp:425] loss1/fc <- loss1/conv
I0403 19:42:55.863697 25648 net.cpp:399] loss1/fc -> loss1/fc
I0403 19:42:55.880775 25648 net.cpp:141] Setting up loss1/fc
I0403 19:42:55.880823 25648 net.cpp:148] Top shape: 24 1024 (24576)
I0403 19:42:55.880841 25648 net.cpp:156] Memory required for data: 945992736
I0403 19:42:55.880861 25648 layer_factory.hpp:77] Creating layer loss1/relu_fc
I0403 19:42:55.880882 25648 net.cpp:91] Creating Layer loss1/relu_fc
I0403 19:42:55.880899 25648 net.cpp:425] loss1/relu_fc <- loss1/fc
I0403 19:42:55.880918 25648 net.cpp:386] loss1/relu_fc -> loss1/fc (in-place)
I0403 19:42:55.881093 25648 net.cpp:141] Setting up loss1/relu_fc
I0403 19:42:55.881122 25648 net.cpp:148] Top shape: 24 1024 (24576)
I0403 19:42:55.881139 25648 net.cpp:156] Memory required for data: 946091040
I0403 19:42:55.881155 25648 layer_factory.hpp:77] Creating layer loss1/drop_fc
I0403 19:42:55.881181 25648 net.cpp:91] Creating Layer loss1/drop_fc
I0403 19:42:55.881201 25648 net.cpp:425] loss1/drop_fc <- loss1/fc
I0403 19:42:55.881222 25648 net.cpp:386] loss1/drop_fc -> loss1/fc (in-place)
I0403 19:42:55.881280 25648 net.cpp:141] Setting up loss1/drop_fc
I0403 19:42:55.881306 25648 net.cpp:148] Top shape: 24 1024 (24576)
I0403 19:42:55.881325 25648 net.cpp:156] Memory required for data: 946189344
I0403 19:42:55.881340 25648 layer_factory.hpp:77] Creating layer loss1/classifier_plantvillage
I0403 19:42:55.881363 25648 net.cpp:91] Creating Layer loss1/classifier_plantvillage
I0403 19:42:55.881382 25648 net.cpp:425] loss1/classifier_plantvillage <- loss1/fc
I0403 19:42:55.881402 25648 net.cpp:399] loss1/classifier_plantvillage -> loss1/classifier_plantvillage
I0403 19:42:55.882292 25648 net.cpp:141] Setting up loss1/classifier_plantvillage
I0403 19:42:55.882323 25648 net.cpp:148] Top shape: 24 38 (912)
I0403 19:42:55.882341 25648 net.cpp:156] Memory required for data: 946192992
I0403 19:42:55.882359 25648 layer_factory.hpp:77] Creating layer loss1/classifier_plantvillage_loss1/classifier_plantvillage_0_split
I0403 19:42:55.882377 25648 net.cpp:91] Creating Layer loss1/classifier_plantvillage_loss1/classifier_plantvillage_0_split
I0403 19:42:55.882395 25648 net.cpp:425] loss1/classifier_plantvillage_loss1/classifier_plantvillage_0_split <- loss1/classifier_plantvillage
I0403 19:42:55.882416 25648 net.cpp:399] loss1/classifier_plantvillage_loss1/classifier_plantvillage_0_split -> loss1/classifier_plantvillage_loss1/classifier_plantvillage_0_split_0
I0403 19:42:55.882441 25648 net.cpp:399] loss1/classifier_plantvillage_loss1/classifier_plantvillage_0_split -> loss1/classifier_plantvillage_loss1/classifier_plantvillage_0_split_1
I0403 19:42:55.882463 25648 net.cpp:399] loss1/classifier_plantvillage_loss1/classifier_plantvillage_0_split -> loss1/classifier_plantvillage_loss1/classifier_plantvillage_0_split_2
I0403 19:42:55.882526 25648 net.cpp:141] Setting up loss1/classifier_plantvillage_loss1/classifier_plantvillage_0_split
I0403 19:42:55.882552 25648 net.cpp:148] Top shape: 24 38 (912)
I0403 19:42:55.882568 25648 net.cpp:148] Top shape: 24 38 (912)
I0403 19:42:55.882586 25648 net.cpp:148] Top shape: 24 38 (912)
I0403 19:42:55.882601 25648 net.cpp:156] Memory required for data: 946203936
I0403 19:42:55.882617 25648 layer_factory.hpp:77] Creating layer inception_4b/1x1
I0403 19:42:55.882640 25648 net.cpp:91] Creating Layer inception_4b/1x1
I0403 19:42:55.882674 25648 net.cpp:425] inception_4b/1x1 <- inception_4a/output_inception_4a/output_0_split_1
I0403 19:42:55.882695 25648 net.cpp:399] inception_4b/1x1 -> inception_4b/1x1
I0403 19:42:55.884294 25648 net.cpp:141] Setting up inception_4b/1x1
I0403 19:42:55.884325 25648 net.cpp:148] Top shape: 24 160 14 14 (752640)
I0403 19:42:55.884344 25648 net.cpp:156] Memory required for data: 949214496
I0403 19:42:55.884362 25648 layer_factory.hpp:77] Creating layer inception_4b/relu_1x1
I0403 19:42:55.884380 25648 net.cpp:91] Creating Layer inception_4b/relu_1x1
I0403 19:42:55.884397 25648 net.cpp:425] inception_4b/relu_1x1 <- inception_4b/1x1
I0403 19:42:55.884418 25648 net.cpp:386] inception_4b/relu_1x1 -> inception_4b/1x1 (in-place)
I0403 19:42:55.884593 25648 net.cpp:141] Setting up inception_4b/relu_1x1
I0403 19:42:55.884620 25648 net.cpp:148] Top shape: 24 160 14 14 (752640)
I0403 19:42:55.884635 25648 net.cpp:156] Memory required for data: 952225056
I0403 19:42:55.884649 25648 layer_factory.hpp:77] Creating layer inception_4b/3x3_reduce
I0403 19:42:55.884675 25648 net.cpp:91] Creating Layer inception_4b/3x3_reduce
I0403 19:42:55.884696 25648 net.cpp:425] inception_4b/3x3_reduce <- inception_4a/output_inception_4a/output_0_split_2
I0403 19:42:55.884717 25648 net.cpp:399] inception_4b/3x3_reduce -> inception_4b/3x3_reduce
I0403 19:42:55.885989 25648 net.cpp:141] Setting up inception_4b/3x3_reduce
I0403 19:42:55.886020 25648 net.cpp:148] Top shape: 24 112 14 14 (526848)
I0403 19:42:55.886037 25648 net.cpp:156] Memory required for data: 954332448
I0403 19:42:55.886056 25648 layer_factory.hpp:77] Creating layer inception_4b/relu_3x3_reduce
I0403 19:42:55.886077 25648 net.cpp:91] Creating Layer inception_4b/relu_3x3_reduce
I0403 19:42:55.886096 25648 net.cpp:425] inception_4b/relu_3x3_reduce <- inception_4b/3x3_reduce
I0403 19:42:55.886116 25648 net.cpp:386] inception_4b/relu_3x3_reduce -> inception_4b/3x3_reduce (in-place)
I0403 19:42:55.886389 25648 net.cpp:141] Setting up inception_4b/relu_3x3_reduce
I0403 19:42:55.886418 25648 net.cpp:148] Top shape: 24 112 14 14 (526848)
I0403 19:42:55.886435 25648 net.cpp:156] Memory required for data: 956439840
I0403 19:42:55.886451 25648 layer_factory.hpp:77] Creating layer inception_4b/3x3
I0403 19:42:55.886473 25648 net.cpp:91] Creating Layer inception_4b/3x3
I0403 19:42:55.886492 25648 net.cpp:425] inception_4b/3x3 <- inception_4b/3x3_reduce
I0403 19:42:55.886517 25648 net.cpp:399] inception_4b/3x3 -> inception_4b/3x3
I0403 19:42:55.889341 25648 net.cpp:141] Setting up inception_4b/3x3
I0403 19:42:55.889372 25648 net.cpp:148] Top shape: 24 224 14 14 (1053696)
I0403 19:42:55.889389 25648 net.cpp:156] Memory required for data: 960654624
I0403 19:42:55.889410 25648 layer_factory.hpp:77] Creating layer inception_4b/relu_3x3
I0403 19:42:55.889433 25648 net.cpp:91] Creating Layer inception_4b/relu_3x3
I0403 19:42:55.889452 25648 net.cpp:425] inception_4b/relu_3x3 <- inception_4b/3x3
I0403 19:42:55.889472 25648 net.cpp:386] inception_4b/relu_3x3 -> inception_4b/3x3 (in-place)
I0403 19:42:55.889645 25648 net.cpp:141] Setting up inception_4b/relu_3x3
I0403 19:42:55.889672 25648 net.cpp:148] Top shape: 24 224 14 14 (1053696)
I0403 19:42:55.889688 25648 net.cpp:156] Memory required for data: 964869408
I0403 19:42:55.889704 25648 layer_factory.hpp:77] Creating layer inception_4b/5x5_reduce
I0403 19:42:55.889726 25648 net.cpp:91] Creating Layer inception_4b/5x5_reduce
I0403 19:42:55.889744 25648 net.cpp:425] inception_4b/5x5_reduce <- inception_4a/output_inception_4a/output_0_split_3
I0403 19:42:55.889767 25648 net.cpp:399] inception_4b/5x5_reduce -> inception_4b/5x5_reduce
I0403 19:42:55.890792 25648 net.cpp:141] Setting up inception_4b/5x5_reduce
I0403 19:42:55.890821 25648 net.cpp:148] Top shape: 24 24 14 14 (112896)
I0403 19:42:55.890838 25648 net.cpp:156] Memory required for data: 965320992
I0403 19:42:55.890858 25648 layer_factory.hpp:77] Creating layer inception_4b/relu_5x5_reduce
I0403 19:42:55.890877 25648 net.cpp:91] Creating Layer inception_4b/relu_5x5_reduce
I0403 19:42:55.890909 25648 net.cpp:425] inception_4b/relu_5x5_reduce <- inception_4b/5x5_reduce
I0403 19:42:55.890930 25648 net.cpp:386] inception_4b/relu_5x5_reduce -> inception_4b/5x5_reduce (in-place)
I0403 19:42:55.891108 25648 net.cpp:141] Setting up inception_4b/relu_5x5_reduce
I0403 19:42:55.891136 25648 net.cpp:148] Top shape: 24 24 14 14 (112896)
I0403 19:42:55.891152 25648 net.cpp:156] Memory required for data: 965772576
I0403 19:42:55.891168 25648 layer_factory.hpp:77] Creating layer inception_4b/5x5
I0403 19:42:55.891194 25648 net.cpp:91] Creating Layer inception_4b/5x5
I0403 19:42:55.891213 25648 net.cpp:425] inception_4b/5x5 <- inception_4b/5x5_reduce
I0403 19:42:55.891235 25648 net.cpp:399] inception_4b/5x5 -> inception_4b/5x5
I0403 19:42:55.892405 25648 net.cpp:141] Setting up inception_4b/5x5
I0403 19:42:55.892436 25648 net.cpp:148] Top shape: 24 64 14 14 (301056)
I0403 19:42:55.892455 25648 net.cpp:156] Memory required for data: 966976800
I0403 19:42:55.892477 25648 layer_factory.hpp:77] Creating layer inception_4b/relu_5x5
I0403 19:42:55.892496 25648 net.cpp:91] Creating Layer inception_4b/relu_5x5
I0403 19:42:55.892515 25648 net.cpp:425] inception_4b/relu_5x5 <- inception_4b/5x5
I0403 19:42:55.892534 25648 net.cpp:386] inception_4b/relu_5x5 -> inception_4b/5x5 (in-place)
I0403 19:42:55.892804 25648 net.cpp:141] Setting up inception_4b/relu_5x5
I0403 19:42:55.892834 25648 net.cpp:148] Top shape: 24 64 14 14 (301056)
I0403 19:42:55.892853 25648 net.cpp:156] Memory required for data: 968181024
I0403 19:42:55.892869 25648 layer_factory.hpp:77] Creating layer inception_4b/pool
I0403 19:42:55.892889 25648 net.cpp:91] Creating Layer inception_4b/pool
I0403 19:42:55.892906 25648 net.cpp:425] inception_4b/pool <- inception_4a/output_inception_4a/output_0_split_4
I0403 19:42:55.892930 25648 net.cpp:399] inception_4b/pool -> inception_4b/pool
I0403 19:42:55.892992 25648 net.cpp:141] Setting up inception_4b/pool
I0403 19:42:55.893019 25648 net.cpp:148] Top shape: 24 512 14 14 (2408448)
I0403 19:42:55.893035 25648 net.cpp:156] Memory required for data: 977814816
I0403 19:42:55.893050 25648 layer_factory.hpp:77] Creating layer inception_4b/pool_proj
I0403 19:42:55.893074 25648 net.cpp:91] Creating Layer inception_4b/pool_proj
I0403 19:42:55.893095 25648 net.cpp:425] inception_4b/pool_proj <- inception_4b/pool
I0403 19:42:55.893115 25648 net.cpp:399] inception_4b/pool_proj -> inception_4b/pool_proj
I0403 19:42:55.894266 25648 net.cpp:141] Setting up inception_4b/pool_proj
I0403 19:42:55.894297 25648 net.cpp:148] Top shape: 24 64 14 14 (301056)
I0403 19:42:55.894315 25648 net.cpp:156] Memory required for data: 979019040
I0403 19:42:55.894335 25648 layer_factory.hpp:77] Creating layer inception_4b/relu_pool_proj
I0403 19:42:55.894356 25648 net.cpp:91] Creating Layer inception_4b/relu_pool_proj
I0403 19:42:55.894376 25648 net.cpp:425] inception_4b/relu_pool_proj <- inception_4b/pool_proj
I0403 19:42:55.894395 25648 net.cpp:386] inception_4b/relu_pool_proj -> inception_4b/pool_proj (in-place)
I0403 19:42:55.894568 25648 net.cpp:141] Setting up inception_4b/relu_pool_proj
I0403 19:42:55.894595 25648 net.cpp:148] Top shape: 24 64 14 14 (301056)
I0403 19:42:55.894611 25648 net.cpp:156] Memory required for data: 980223264
I0403 19:42:55.894626 25648 layer_factory.hpp:77] Creating layer inception_4b/output
I0403 19:42:55.894646 25648 net.cpp:91] Creating Layer inception_4b/output
I0403 19:42:55.894665 25648 net.cpp:425] inception_4b/output <- inception_4b/1x1
I0403 19:42:55.894685 25648 net.cpp:425] inception_4b/output <- inception_4b/3x3
I0403 19:42:55.894702 25648 net.cpp:425] inception_4b/output <- inception_4b/5x5
I0403 19:42:55.894719 25648 net.cpp:425] inception_4b/output <- inception_4b/pool_proj
I0403 19:42:55.894737 25648 net.cpp:399] inception_4b/output -> inception_4b/output
I0403 19:42:55.894783 25648 net.cpp:141] Setting up inception_4b/output
I0403 19:42:55.894812 25648 net.cpp:148] Top shape: 24 512 14 14 (2408448)
I0403 19:42:55.894829 25648 net.cpp:156] Memory required for data: 989857056
I0403 19:42:55.894860 25648 layer_factory.hpp:77] Creating layer inception_4b/output_inception_4b/output_0_split
I0403 19:42:55.894881 25648 net.cpp:91] Creating Layer inception_4b/output_inception_4b/output_0_split
I0403 19:42:55.894897 25648 net.cpp:425] inception_4b/output_inception_4b/output_0_split <- inception_4b/output
I0403 19:42:55.894920 25648 net.cpp:399] inception_4b/output_inception_4b/output_0_split -> inception_4b/output_inception_4b/output_0_split_0
I0403 19:42:55.894944 25648 net.cpp:399] inception_4b/output_inception_4b/output_0_split -> inception_4b/output_inception_4b/output_0_split_1
I0403 19:42:55.894968 25648 net.cpp:399] inception_4b/output_inception_4b/output_0_split -> inception_4b/output_inception_4b/output_0_split_2
I0403 19:42:55.894989 25648 net.cpp:399] inception_4b/output_inception_4b/output_0_split -> inception_4b/output_inception_4b/output_0_split_3
I0403 19:42:55.895071 25648 net.cpp:141] Setting up inception_4b/output_inception_4b/output_0_split
I0403 19:42:55.895100 25648 net.cpp:148] Top shape: 24 512 14 14 (2408448)
I0403 19:42:55.895118 25648 net.cpp:148] Top shape: 24 512 14 14 (2408448)
I0403 19:42:55.895136 25648 net.cpp:148] Top shape: 24 512 14 14 (2408448)
I0403 19:42:55.895154 25648 net.cpp:148] Top shape: 24 512 14 14 (2408448)
I0403 19:42:55.895170 25648 net.cpp:156] Memory required for data: 1028392224
I0403 19:42:55.895185 25648 layer_factory.hpp:77] Creating layer inception_4c/1x1
I0403 19:42:55.895208 25648 net.cpp:91] Creating Layer inception_4c/1x1
I0403 19:42:55.895226 25648 net.cpp:425] inception_4c/1x1 <- inception_4b/output_inception_4b/output_0_split_0
I0403 19:42:55.895246 25648 net.cpp:399] inception_4c/1x1 -> inception_4c/1x1
I0403 19:42:55.896623 25648 net.cpp:141] Setting up inception_4c/1x1
I0403 19:42:55.896654 25648 net.cpp:148] Top shape: 24 128 14 14 (602112)
I0403 19:42:55.896672 25648 net.cpp:156] Memory required for data: 1030800672
I0403 19:42:55.896690 25648 layer_factory.hpp:77] Creating layer inception_4c/relu_1x1
I0403 19:42:55.896713 25648 net.cpp:91] Creating Layer inception_4c/relu_1x1
I0403 19:42:55.896731 25648 net.cpp:425] inception_4c/relu_1x1 <- inception_4c/1x1
I0403 19:42:55.896750 25648 net.cpp:386] inception_4c/relu_1x1 -> inception_4c/1x1 (in-place)
I0403 19:42:55.896925 25648 net.cpp:141] Setting up inception_4c/relu_1x1
I0403 19:42:55.896955 25648 net.cpp:148] Top shape: 24 128 14 14 (602112)
I0403 19:42:55.896973 25648 net.cpp:156] Memory required for data: 1033209120
I0403 19:42:55.896991 25648 layer_factory.hpp:77] Creating layer inception_4c/3x3_reduce
I0403 19:42:55.897012 25648 net.cpp:91] Creating Layer inception_4c/3x3_reduce
I0403 19:42:55.897032 25648 net.cpp:425] inception_4c/3x3_reduce <- inception_4b/output_inception_4b/output_0_split_1
I0403 19:42:55.897056 25648 net.cpp:399] inception_4c/3x3_reduce -> inception_4c/3x3_reduce
I0403 19:42:55.898993 25648 net.cpp:141] Setting up inception_4c/3x3_reduce
I0403 19:42:55.899024 25648 net.cpp:148] Top shape: 24 128 14 14 (602112)
I0403 19:42:55.899041 25648 net.cpp:156] Memory required for data: 1035617568
I0403 19:42:55.899060 25648 layer_factory.hpp:77] Creating layer inception_4c/relu_3x3_reduce
I0403 19:42:55.899080 25648 net.cpp:91] Creating Layer inception_4c/relu_3x3_reduce
I0403 19:42:55.899101 25648 net.cpp:425] inception_4c/relu_3x3_reduce <- inception_4c/3x3_reduce
I0403 19:42:55.899122 25648 net.cpp:386] inception_4c/relu_3x3_reduce -> inception_4c/3x3_reduce (in-place)
I0403 19:42:55.899412 25648 net.cpp:141] Setting up inception_4c/relu_3x3_reduce
I0403 19:42:55.899441 25648 net.cpp:148] Top shape: 24 128 14 14 (602112)
I0403 19:42:55.899456 25648 net.cpp:156] Memory required for data: 1038026016
I0403 19:42:55.899472 25648 layer_factory.hpp:77] Creating layer inception_4c/3x3
I0403 19:42:55.899497 25648 net.cpp:91] Creating Layer inception_4c/3x3
I0403 19:42:55.899519 25648 net.cpp:425] inception_4c/3x3 <- inception_4c/3x3_reduce
I0403 19:42:55.899540 25648 net.cpp:399] inception_4c/3x3 -> inception_4c/3x3
I0403 19:42:55.903045 25648 net.cpp:141] Setting up inception_4c/3x3
I0403 19:42:55.903087 25648 net.cpp:148] Top shape: 24 256 14 14 (1204224)
I0403 19:42:55.903105 25648 net.cpp:156] Memory required for data: 1042842912
I0403 19:42:55.903142 25648 layer_factory.hpp:77] Creating layer inception_4c/relu_3x3
I0403 19:42:55.903164 25648 net.cpp:91] Creating Layer inception_4c/relu_3x3
I0403 19:42:55.903187 25648 net.cpp:425] inception_4c/relu_3x3 <- inception_4c/3x3
I0403 19:42:55.903204 25648 net.cpp:386] inception_4c/relu_3x3 -> inception_4c/3x3 (in-place)
I0403 19:42:55.903389 25648 net.cpp:141] Setting up inception_4c/relu_3x3
I0403 19:42:55.903419 25648 net.cpp:148] Top shape: 24 256 14 14 (1204224)
I0403 19:42:55.903435 25648 net.cpp:156] Memory required for data: 1047659808
I0403 19:42:55.903452 25648 layer_factory.hpp:77] Creating layer inception_4c/5x5_reduce
I0403 19:42:55.903478 25648 net.cpp:91] Creating Layer inception_4c/5x5_reduce
I0403 19:42:55.903498 25648 net.cpp:425] inception_4c/5x5_reduce <- inception_4b/output_inception_4b/output_0_split_2
I0403 19:42:55.903522 25648 net.cpp:399] inception_4c/5x5_reduce -> inception_4c/5x5_reduce
I0403 19:42:55.904590 25648 net.cpp:141] Setting up inception_4c/5x5_reduce
I0403 19:42:55.904621 25648 net.cpp:148] Top shape: 24 24 14 14 (112896)
I0403 19:42:55.904640 25648 net.cpp:156] Memory required for data: 1048111392
I0403 19:42:55.904660 25648 layer_factory.hpp:77] Creating layer inception_4c/relu_5x5_reduce
I0403 19:42:55.904680 25648 net.cpp:91] Creating Layer inception_4c/relu_5x5_reduce
I0403 19:42:55.904697 25648 net.cpp:425] inception_4c/relu_5x5_reduce <- inception_4c/5x5_reduce
I0403 19:42:55.904718 25648 net.cpp:386] inception_4c/relu_5x5_reduce -> inception_4c/5x5_reduce (in-place)
I0403 19:42:55.904901 25648 net.cpp:141] Setting up inception_4c/relu_5x5_reduce
I0403 19:42:55.904928 25648 net.cpp:148] Top shape: 24 24 14 14 (112896)
I0403 19:42:55.904947 25648 net.cpp:156] Memory required for data: 1048562976
I0403 19:42:55.904963 25648 layer_factory.hpp:77] Creating layer inception_4c/5x5
I0403 19:42:55.904984 25648 net.cpp:91] Creating Layer inception_4c/5x5
I0403 19:42:55.905005 25648 net.cpp:425] inception_4c/5x5 <- inception_4c/5x5_reduce
I0403 19:42:55.905027 25648 net.cpp:399] inception_4c/5x5 -> inception_4c/5x5
I0403 19:42:55.906240 25648 net.cpp:141] Setting up inception_4c/5x5
I0403 19:42:55.906275 25648 net.cpp:148] Top shape: 24 64 14 14 (301056)
I0403 19:42:55.906296 25648 net.cpp:156] Memory required for data: 1049767200
I0403 19:42:55.906313 25648 layer_factory.hpp:77] Creating layer inception_4c/relu_5x5
I0403 19:42:55.906337 25648 net.cpp:91] Creating Layer inception_4c/relu_5x5
I0403 19:42:55.906355 25648 net.cpp:425] inception_4c/relu_5x5 <- inception_4c/5x5
I0403 19:42:55.906376 25648 net.cpp:386] inception_4c/relu_5x5 -> inception_4c/5x5 (in-place)
I0403 19:42:55.906662 25648 net.cpp:141] Setting up inception_4c/relu_5x5
I0403 19:42:55.906692 25648 net.cpp:148] Top shape: 24 64 14 14 (301056)
I0403 19:42:55.906708 25648 net.cpp:156] Memory required for data: 1050971424
I0403 19:42:55.906724 25648 layer_factory.hpp:77] Creating layer inception_4c/pool
I0403 19:42:55.906744 25648 net.cpp:91] Creating Layer inception_4c/pool
I0403 19:42:55.906764 25648 net.cpp:425] inception_4c/pool <- inception_4b/output_inception_4b/output_0_split_3
I0403 19:42:55.906785 25648 net.cpp:399] inception_4c/pool -> inception_4c/pool
I0403 19:42:55.906853 25648 net.cpp:141] Setting up inception_4c/pool
I0403 19:42:55.906882 25648 net.cpp:148] Top shape: 24 512 14 14 (2408448)
I0403 19:42:55.906898 25648 net.cpp:156] Memory required for data: 1060605216
I0403 19:42:55.906913 25648 layer_factory.hpp:77] Creating layer inception_4c/pool_proj
I0403 19:42:55.906934 25648 net.cpp:91] Creating Layer inception_4c/pool_proj
I0403 19:42:55.906954 25648 net.cpp:425] inception_4c/pool_proj <- inception_4c/pool
I0403 19:42:55.906977 25648 net.cpp:399] inception_4c/pool_proj -> inception_4c/pool_proj
I0403 19:42:55.908166 25648 net.cpp:141] Setting up inception_4c/pool_proj
I0403 19:42:55.908200 25648 net.cpp:148] Top shape: 24 64 14 14 (301056)
I0403 19:42:55.908231 25648 net.cpp:156] Memory required for data: 1061809440
I0403 19:42:55.908252 25648 layer_factory.hpp:77] Creating layer inception_4c/relu_pool_proj
I0403 19:42:55.908278 25648 net.cpp:91] Creating Layer inception_4c/relu_pool_proj
I0403 19:42:55.908301 25648 net.cpp:425] inception_4c/relu_pool_proj <- inception_4c/pool_proj
I0403 19:42:55.908319 25648 net.cpp:386] inception_4c/relu_pool_proj -> inception_4c/pool_proj (in-place)
I0403 19:42:55.908500 25648 net.cpp:141] Setting up inception_4c/relu_pool_proj
I0403 19:42:55.908529 25648 net.cpp:148] Top shape: 24 64 14 14 (301056)
I0403 19:42:55.908545 25648 net.cpp:156] Memory required for data: 1063013664
I0403 19:42:55.908561 25648 layer_factory.hpp:77] Creating layer inception_4c/output
I0403 19:42:55.908581 25648 net.cpp:91] Creating Layer inception_4c/output
I0403 19:42:55.908599 25648 net.cpp:425] inception_4c/output <- inception_4c/1x1
I0403 19:42:55.908617 25648 net.cpp:425] inception_4c/output <- inception_4c/3x3
I0403 19:42:55.908632 25648 net.cpp:425] inception_4c/output <- inception_4c/5x5
I0403 19:42:55.908649 25648 net.cpp:425] inception_4c/output <- inception_4c/pool_proj
I0403 19:42:55.908669 25648 net.cpp:399] inception_4c/output -> inception_4c/output
I0403 19:42:55.908720 25648 net.cpp:141] Setting up inception_4c/output
I0403 19:42:55.908746 25648 net.cpp:148] Top shape: 24 512 14 14 (2408448)
I0403 19:42:55.908762 25648 net.cpp:156] Memory required for data: 1072647456
I0403 19:42:55.908778 25648 layer_factory.hpp:77] Creating layer inception_4c/output_inception_4c/output_0_split
I0403 19:42:55.908795 25648 net.cpp:91] Creating Layer inception_4c/output_inception_4c/output_0_split
I0403 19:42:55.908813 25648 net.cpp:425] inception_4c/output_inception_4c/output_0_split <- inception_4c/output
I0403 19:42:55.908834 25648 net.cpp:399] inception_4c/output_inception_4c/output_0_split -> inception_4c/output_inception_4c/output_0_split_0
I0403 19:42:55.908859 25648 net.cpp:399] inception_4c/output_inception_4c/output_0_split -> inception_4c/output_inception_4c/output_0_split_1
I0403 19:42:55.908879 25648 net.cpp:399] inception_4c/output_inception_4c/output_0_split -> inception_4c/output_inception_4c/output_0_split_2
I0403 19:42:55.908900 25648 net.cpp:399] inception_4c/output_inception_4c/output_0_split -> inception_4c/output_inception_4c/output_0_split_3
I0403 19:42:55.908987 25648 net.cpp:141] Setting up inception_4c/output_inception_4c/output_0_split
I0403 19:42:55.909015 25648 net.cpp:148] Top shape: 24 512 14 14 (2408448)
I0403 19:42:55.909036 25648 net.cpp:148] Top shape: 24 512 14 14 (2408448)
I0403 19:42:55.909054 25648 net.cpp:148] Top shape: 24 512 14 14 (2408448)
I0403 19:42:55.909070 25648 net.cpp:148] Top shape: 24 512 14 14 (2408448)
I0403 19:42:55.909085 25648 net.cpp:156] Memory required for data: 1111182624
I0403 19:42:55.909101 25648 layer_factory.hpp:77] Creating layer inception_4d/1x1
I0403 19:42:55.909123 25648 net.cpp:91] Creating Layer inception_4d/1x1
I0403 19:42:55.909143 25648 net.cpp:425] inception_4d/1x1 <- inception_4c/output_inception_4c/output_0_split_0
I0403 19:42:55.909163 25648 net.cpp:399] inception_4d/1x1 -> inception_4d/1x1
I0403 19:42:55.910512 25648 net.cpp:141] Setting up inception_4d/1x1
I0403 19:42:55.910545 25648 net.cpp:148] Top shape: 24 112 14 14 (526848)
I0403 19:42:55.910564 25648 net.cpp:156] Memory required for data: 1113290016
I0403 19:42:55.910584 25648 layer_factory.hpp:77] Creating layer inception_4d/relu_1x1
I0403 19:42:55.910605 25648 net.cpp:91] Creating Layer inception_4d/relu_1x1
I0403 19:42:55.910625 25648 net.cpp:425] inception_4d/relu_1x1 <- inception_4d/1x1
I0403 19:42:55.910648 25648 net.cpp:386] inception_4d/relu_1x1 -> inception_4d/1x1 (in-place)
I0403 19:42:55.910830 25648 net.cpp:141] Setting up inception_4d/relu_1x1
I0403 19:42:55.910859 25648 net.cpp:148] Top shape: 24 112 14 14 (526848)
I0403 19:42:55.910876 25648 net.cpp:156] Memory required for data: 1115397408
I0403 19:42:55.910892 25648 layer_factory.hpp:77] Creating layer inception_4d/3x3_reduce
I0403 19:42:55.910931 25648 net.cpp:91] Creating Layer inception_4d/3x3_reduce
I0403 19:42:55.910954 25648 net.cpp:425] inception_4d/3x3_reduce <- inception_4c/output_inception_4c/output_0_split_1
I0403 19:42:55.910976 25648 net.cpp:399] inception_4d/3x3_reduce -> inception_4d/3x3_reduce
I0403 19:42:55.912463 25648 net.cpp:141] Setting up inception_4d/3x3_reduce
I0403 19:42:55.912494 25648 net.cpp:148] Top shape: 24 144 14 14 (677376)
I0403 19:42:55.912510 25648 net.cpp:156] Memory required for data: 1118106912
I0403 19:42:55.912530 25648 layer_factory.hpp:77] Creating layer inception_4d/relu_3x3_reduce
I0403 19:42:55.912550 25648 net.cpp:91] Creating Layer inception_4d/relu_3x3_reduce
I0403 19:42:55.912569 25648 net.cpp:425] inception_4d/relu_3x3_reduce <- inception_4d/3x3_reduce
I0403 19:42:55.912587 25648 net.cpp:386] inception_4d/relu_3x3_reduce -> inception_4d/3x3_reduce (in-place)
I0403 19:42:55.912866 25648 net.cpp:141] Setting up inception_4d/relu_3x3_reduce
I0403 19:42:55.912895 25648 net.cpp:148] Top shape: 24 144 14 14 (677376)
I0403 19:42:55.912912 25648 net.cpp:156] Memory required for data: 1120816416
I0403 19:42:55.912930 25648 layer_factory.hpp:77] Creating layer inception_4d/3x3
I0403 19:42:55.912953 25648 net.cpp:91] Creating Layer inception_4d/3x3
I0403 19:42:55.912973 25648 net.cpp:425] inception_4d/3x3 <- inception_4d/3x3_reduce
I0403 19:42:55.912997 25648 net.cpp:399] inception_4d/3x3 -> inception_4d/3x3
I0403 19:42:55.917161 25648 net.cpp:141] Setting up inception_4d/3x3
I0403 19:42:55.917196 25648 net.cpp:148] Top shape: 24 288 14 14 (1354752)
I0403 19:42:55.917213 25648 net.cpp:156] Memory required for data: 1126235424
I0403 19:42:55.917233 25648 layer_factory.hpp:77] Creating layer inception_4d/relu_3x3
I0403 19:42:55.917258 25648 net.cpp:91] Creating Layer inception_4d/relu_3x3
I0403 19:42:55.917276 25648 net.cpp:425] inception_4d/relu_3x3 <- inception_4d/3x3
I0403 19:42:55.917299 25648 net.cpp:386] inception_4d/relu_3x3 -> inception_4d/3x3 (in-place)
I0403 19:42:55.917477 25648 net.cpp:141] Setting up inception_4d/relu_3x3
I0403 19:42:55.917507 25648 net.cpp:148] Top shape: 24 288 14 14 (1354752)
I0403 19:42:55.917523 25648 net.cpp:156] Memory required for data: 1131654432
I0403 19:42:55.917541 25648 layer_factory.hpp:77] Creating layer inception_4d/5x5_reduce
I0403 19:42:55.917565 25648 net.cpp:91] Creating Layer inception_4d/5x5_reduce
I0403 19:42:55.917585 25648 net.cpp:425] inception_4d/5x5_reduce <- inception_4c/output_inception_4c/output_0_split_2
I0403 19:42:55.917608 25648 net.cpp:399] inception_4d/5x5_reduce -> inception_4d/5x5_reduce
I0403 19:42:55.918692 25648 net.cpp:141] Setting up inception_4d/5x5_reduce
I0403 19:42:55.918728 25648 net.cpp:148] Top shape: 24 32 14 14 (150528)
I0403 19:42:55.918747 25648 net.cpp:156] Memory required for data: 1132256544
I0403 19:42:55.918766 25648 layer_factory.hpp:77] Creating layer inception_4d/relu_5x5_reduce
I0403 19:42:55.918784 25648 net.cpp:91] Creating Layer inception_4d/relu_5x5_reduce
I0403 19:42:55.918802 25648 net.cpp:425] inception_4d/relu_5x5_reduce <- inception_4d/5x5_reduce
I0403 19:42:55.918823 25648 net.cpp:386] inception_4d/relu_5x5_reduce -> inception_4d/5x5_reduce (in-place)
I0403 19:42:55.919003 25648 net.cpp:141] Setting up inception_4d/relu_5x5_reduce
I0403 19:42:55.919033 25648 net.cpp:148] Top shape: 24 32 14 14 (150528)
I0403 19:42:55.919047 25648 net.cpp:156] Memory required for data: 1132858656
I0403 19:42:55.919062 25648 layer_factory.hpp:77] Creating layer inception_4d/5x5
I0403 19:42:55.919085 25648 net.cpp:91] Creating Layer inception_4d/5x5
I0403 19:42:55.919103 25648 net.cpp:425] inception_4d/5x5 <- inception_4d/5x5_reduce
I0403 19:42:55.919126 25648 net.cpp:399] inception_4d/5x5 -> inception_4d/5x5
I0403 19:42:55.920505 25648 net.cpp:141] Setting up inception_4d/5x5
I0403 19:42:55.920536 25648 net.cpp:148] Top shape: 24 64 14 14 (301056)
I0403 19:42:55.920552 25648 net.cpp:156] Memory required for data: 1134062880
I0403 19:42:55.920573 25648 layer_factory.hpp:77] Creating layer inception_4d/relu_5x5
I0403 19:42:55.920611 25648 net.cpp:91] Creating Layer inception_4d/relu_5x5
I0403 19:42:55.920632 25648 net.cpp:425] inception_4d/relu_5x5 <- inception_4d/5x5
I0403 19:42:55.920652 25648 net.cpp:386] inception_4d/relu_5x5 -> inception_4d/5x5 (in-place)
I0403 19:42:55.920938 25648 net.cpp:141] Setting up inception_4d/relu_5x5
I0403 19:42:55.920964 25648 net.cpp:148] Top shape: 24 64 14 14 (301056)
I0403 19:42:55.920981 25648 net.cpp:156] Memory required for data: 1135267104
I0403 19:42:55.920997 25648 layer_factory.hpp:77] Creating layer inception_4d/pool
I0403 19:42:55.921016 25648 net.cpp:91] Creating Layer inception_4d/pool
I0403 19:42:55.921036 25648 net.cpp:425] inception_4d/pool <- inception_4c/output_inception_4c/output_0_split_3
I0403 19:42:55.921057 25648 net.cpp:399] inception_4d/pool -> inception_4d/pool
I0403 19:42:55.921126 25648 net.cpp:141] Setting up inception_4d/pool
I0403 19:42:55.921154 25648 net.cpp:148] Top shape: 24 512 14 14 (2408448)
I0403 19:42:55.921172 25648 net.cpp:156] Memory required for data: 1144900896
I0403 19:42:55.921190 25648 layer_factory.hpp:77] Creating layer inception_4d/pool_proj
I0403 19:42:55.921213 25648 net.cpp:91] Creating Layer inception_4d/pool_proj
I0403 19:42:55.921232 25648 net.cpp:425] inception_4d/pool_proj <- inception_4d/pool
I0403 19:42:55.921259 25648 net.cpp:399] inception_4d/pool_proj -> inception_4d/pool_proj
I0403 19:42:55.922950 25648 net.cpp:141] Setting up inception_4d/pool_proj
I0403 19:42:55.922986 25648 net.cpp:148] Top shape: 24 64 14 14 (301056)
I0403 19:42:55.923003 25648 net.cpp:156] Memory required for data: 1146105120
I0403 19:42:55.923023 25648 layer_factory.hpp:77] Creating layer inception_4d/relu_pool_proj
I0403 19:42:55.923043 25648 net.cpp:91] Creating Layer inception_4d/relu_pool_proj
I0403 19:42:55.923064 25648 net.cpp:425] inception_4d/relu_pool_proj <- inception_4d/pool_proj
I0403 19:42:55.923084 25648 net.cpp:386] inception_4d/relu_pool_proj -> inception_4d/pool_proj (in-place)
I0403 19:42:55.923267 25648 net.cpp:141] Setting up inception_4d/relu_pool_proj
I0403 19:42:55.923297 25648 net.cpp:148] Top shape: 24 64 14 14 (301056)
I0403 19:42:55.923316 25648 net.cpp:156] Memory required for data: 1147309344
I0403 19:42:55.923331 25648 layer_factory.hpp:77] Creating layer inception_4d/output
I0403 19:42:55.923351 25648 net.cpp:91] Creating Layer inception_4d/output
I0403 19:42:55.923365 25648 net.cpp:425] inception_4d/output <- inception_4d/1x1
I0403 19:42:55.923383 25648 net.cpp:425] inception_4d/output <- inception_4d/3x3
I0403 19:42:55.923399 25648 net.cpp:425] inception_4d/output <- inception_4d/5x5
I0403 19:42:55.923418 25648 net.cpp:425] inception_4d/output <- inception_4d/pool_proj
I0403 19:42:55.923439 25648 net.cpp:399] inception_4d/output -> inception_4d/output
I0403 19:42:55.923486 25648 net.cpp:141] Setting up inception_4d/output
I0403 19:42:55.923516 25648 net.cpp:148] Top shape: 24 528 14 14 (2483712)
I0403 19:42:55.923537 25648 net.cpp:156] Memory required for data: 1157244192
I0403 19:42:55.923552 25648 layer_factory.hpp:77] Creating layer inception_4d/output_inception_4d/output_0_split
I0403 19:42:55.923571 25648 net.cpp:91] Creating Layer inception_4d/output_inception_4d/output_0_split
I0403 19:42:55.923588 25648 net.cpp:425] inception_4d/output_inception_4d/output_0_split <- inception_4d/output
I0403 19:42:55.923610 25648 net.cpp:399] inception_4d/output_inception_4d/output_0_split -> inception_4d/output_inception_4d/output_0_split_0
I0403 19:42:55.923634 25648 net.cpp:399] inception_4d/output_inception_4d/output_0_split -> inception_4d/output_inception_4d/output_0_split_1
I0403 19:42:55.923655 25648 net.cpp:399] inception_4d/output_inception_4d/output_0_split -> inception_4d/output_inception_4d/output_0_split_2
I0403 19:42:55.923678 25648 net.cpp:399] inception_4d/output_inception_4d/output_0_split -> inception_4d/output_inception_4d/output_0_split_3
I0403 19:42:55.923698 25648 net.cpp:399] inception_4d/output_inception_4d/output_0_split -> inception_4d/output_inception_4d/output_0_split_4
I0403 19:42:55.923800 25648 net.cpp:141] Setting up inception_4d/output_inception_4d/output_0_split
I0403 19:42:55.923840 25648 net.cpp:148] Top shape: 24 528 14 14 (2483712)
I0403 19:42:55.923861 25648 net.cpp:148] Top shape: 24 528 14 14 (2483712)
I0403 19:42:55.923879 25648 net.cpp:148] Top shape: 24 528 14 14 (2483712)
I0403 19:42:55.923897 25648 net.cpp:148] Top shape: 24 528 14 14 (2483712)
I0403 19:42:55.923913 25648 net.cpp:148] Top shape: 24 528 14 14 (2483712)
I0403 19:42:55.923928 25648 net.cpp:156] Memory required for data: 1206918432
I0403 19:42:55.923943 25648 layer_factory.hpp:77] Creating layer loss2/ave_pool
I0403 19:42:55.923961 25648 net.cpp:91] Creating Layer loss2/ave_pool
I0403 19:42:55.923976 25648 net.cpp:425] loss2/ave_pool <- inception_4d/output_inception_4d/output_0_split_0
I0403 19:42:55.923996 25648 net.cpp:399] loss2/ave_pool -> loss2/ave_pool
I0403 19:42:55.924306 25648 net.cpp:141] Setting up loss2/ave_pool
I0403 19:42:55.924337 25648 net.cpp:148] Top shape: 24 528 4 4 (202752)
I0403 19:42:55.924353 25648 net.cpp:156] Memory required for data: 1207729440
I0403 19:42:55.924370 25648 layer_factory.hpp:77] Creating layer loss2/conv
I0403 19:42:55.924393 25648 net.cpp:91] Creating Layer loss2/conv
I0403 19:42:55.924414 25648 net.cpp:425] loss2/conv <- loss2/ave_pool
I0403 19:42:55.924437 25648 net.cpp:399] loss2/conv -> loss2/conv
I0403 19:42:55.926247 25648 net.cpp:141] Setting up loss2/conv
I0403 19:42:55.926285 25648 net.cpp:148] Top shape: 24 128 4 4 (49152)
I0403 19:42:55.926302 25648 net.cpp:156] Memory required for data: 1207926048
I0403 19:42:55.926321 25648 layer_factory.hpp:77] Creating layer loss2/relu_conv
I0403 19:42:55.926342 25648 net.cpp:91] Creating Layer loss2/relu_conv
I0403 19:42:55.926360 25648 net.cpp:425] loss2/relu_conv <- loss2/conv
I0403 19:42:55.926378 25648 net.cpp:386] loss2/relu_conv -> loss2/conv (in-place)
I0403 19:42:55.926656 25648 net.cpp:141] Setting up loss2/relu_conv
I0403 19:42:55.926684 25648 net.cpp:148] Top shape: 24 128 4 4 (49152)
I0403 19:42:55.926699 25648 net.cpp:156] Memory required for data: 1208122656
I0403 19:42:55.926715 25648 layer_factory.hpp:77] Creating layer loss2/fc
I0403 19:42:55.926736 25648 net.cpp:91] Creating Layer loss2/fc
I0403 19:42:55.926755 25648 net.cpp:425] loss2/fc <- loss2/conv
I0403 19:42:55.926774 25648 net.cpp:399] loss2/fc -> loss2/fc
I0403 19:42:55.943712 25648 net.cpp:141] Setting up loss2/fc
I0403 19:42:55.943749 25648 net.cpp:148] Top shape: 24 1024 (24576)
I0403 19:42:55.943765 25648 net.cpp:156] Memory required for data: 1208220960
I0403 19:42:55.943783 25648 layer_factory.hpp:77] Creating layer loss2/relu_fc
I0403 19:42:55.943804 25648 net.cpp:91] Creating Layer loss2/relu_fc
I0403 19:42:55.943821 25648 net.cpp:425] loss2/relu_fc <- loss2/fc
I0403 19:42:55.943842 25648 net.cpp:386] loss2/relu_fc -> loss2/fc (in-place)
I0403 19:42:55.944131 25648 net.cpp:141] Setting up loss2/relu_fc
I0403 19:42:55.944164 25648 net.cpp:148] Top shape: 24 1024 (24576)
I0403 19:42:55.944182 25648 net.cpp:156] Memory required for data: 1208319264
I0403 19:42:55.944197 25648 layer_factory.hpp:77] Creating layer loss2/drop_fc
I0403 19:42:55.944217 25648 net.cpp:91] Creating Layer loss2/drop_fc
I0403 19:42:55.944236 25648 net.cpp:425] loss2/drop_fc <- loss2/fc
I0403 19:42:55.944267 25648 net.cpp:386] loss2/drop_fc -> loss2/fc (in-place)
I0403 19:42:55.944319 25648 net.cpp:141] Setting up loss2/drop_fc
I0403 19:42:55.944344 25648 net.cpp:148] Top shape: 24 1024 (24576)
I0403 19:42:55.944360 25648 net.cpp:156] Memory required for data: 1208417568
I0403 19:42:55.944375 25648 layer_factory.hpp:77] Creating layer loss2/classifier_plantvillage
I0403 19:42:55.944396 25648 net.cpp:91] Creating Layer loss2/classifier_plantvillage
I0403 19:42:55.944414 25648 net.cpp:425] loss2/classifier_plantvillage <- loss2/fc
I0403 19:42:55.944438 25648 net.cpp:399] loss2/classifier_plantvillage -> loss2/classifier_plantvillage
I0403 19:42:55.944816 25648 net.cpp:141] Setting up loss2/classifier_plantvillage
I0403 19:42:55.944844 25648 net.cpp:148] Top shape: 24 38 (912)
I0403 19:42:55.944877 25648 net.cpp:156] Memory required for data: 1208421216
I0403 19:42:55.944897 25648 layer_factory.hpp:77] Creating layer loss2/classifier_plantvillage_loss2/classifier_plantvillage_0_split
I0403 19:42:55.944919 25648 net.cpp:91] Creating Layer loss2/classifier_plantvillage_loss2/classifier_plantvillage_0_split
I0403 19:42:55.944937 25648 net.cpp:425] loss2/classifier_plantvillage_loss2/classifier_plantvillage_0_split <- loss2/classifier_plantvillage
I0403 19:42:55.944955 25648 net.cpp:399] loss2/classifier_plantvillage_loss2/classifier_plantvillage_0_split -> loss2/classifier_plantvillage_loss2/classifier_plantvillage_0_split_0
I0403 19:42:55.944974 25648 net.cpp:399] loss2/classifier_plantvillage_loss2/classifier_plantvillage_0_split -> loss2/classifier_plantvillage_loss2/classifier_plantvillage_0_split_1
I0403 19:42:55.944998 25648 net.cpp:399] loss2/classifier_plantvillage_loss2/classifier_plantvillage_0_split -> loss2/classifier_plantvillage_loss2/classifier_plantvillage_0_split_2
I0403 19:42:55.945075 25648 net.cpp:141] Setting up loss2/classifier_plantvillage_loss2/classifier_plantvillage_0_split
I0403 19:42:55.945102 25648 net.cpp:148] Top shape: 24 38 (912)
I0403 19:42:55.945119 25648 net.cpp:148] Top shape: 24 38 (912)
I0403 19:42:55.945134 25648 net.cpp:148] Top shape: 24 38 (912)
I0403 19:42:55.945148 25648 net.cpp:156] Memory required for data: 1208432160
I0403 19:42:55.945163 25648 layer_factory.hpp:77] Creating layer inception_4e/1x1
I0403 19:42:55.945184 25648 net.cpp:91] Creating Layer inception_4e/1x1
I0403 19:42:55.945204 25648 net.cpp:425] inception_4e/1x1 <- inception_4d/output_inception_4d/output_0_split_1
I0403 19:42:55.945226 25648 net.cpp:399] inception_4e/1x1 -> inception_4e/1x1
I0403 19:42:55.946951 25648 net.cpp:141] Setting up inception_4e/1x1
I0403 19:42:55.946981 25648 net.cpp:148] Top shape: 24 256 14 14 (1204224)
I0403 19:42:55.946998 25648 net.cpp:156] Memory required for data: 1213249056
I0403 19:42:55.947017 25648 layer_factory.hpp:77] Creating layer inception_4e/relu_1x1
I0403 19:42:55.947039 25648 net.cpp:91] Creating Layer inception_4e/relu_1x1
I0403 19:42:55.947060 25648 net.cpp:425] inception_4e/relu_1x1 <- inception_4e/1x1
I0403 19:42:55.947078 25648 net.cpp:386] inception_4e/relu_1x1 -> inception_4e/1x1 (in-place)
I0403 19:42:55.947365 25648 net.cpp:141] Setting up inception_4e/relu_1x1
I0403 19:42:55.947393 25648 net.cpp:148] Top shape: 24 256 14 14 (1204224)
I0403 19:42:55.947408 25648 net.cpp:156] Memory required for data: 1218065952
I0403 19:42:55.947427 25648 layer_factory.hpp:77] Creating layer inception_4e/3x3_reduce
I0403 19:42:55.947449 25648 net.cpp:91] Creating Layer inception_4e/3x3_reduce
I0403 19:42:55.947468 25648 net.cpp:425] inception_4e/3x3_reduce <- inception_4d/output_inception_4d/output_0_split_2
I0403 19:42:55.947489 25648 net.cpp:399] inception_4e/3x3_reduce -> inception_4e/3x3_reduce
I0403 19:42:55.949520 25648 net.cpp:141] Setting up inception_4e/3x3_reduce
I0403 19:42:55.949550 25648 net.cpp:148] Top shape: 24 160 14 14 (752640)
I0403 19:42:55.949568 25648 net.cpp:156] Memory required for data: 1221076512
I0403 19:42:55.949589 25648 layer_factory.hpp:77] Creating layer inception_4e/relu_3x3_reduce
I0403 19:42:55.949610 25648 net.cpp:91] Creating Layer inception_4e/relu_3x3_reduce
I0403 19:42:55.949630 25648 net.cpp:425] inception_4e/relu_3x3_reduce <- inception_4e/3x3_reduce
I0403 19:42:55.949648 25648 net.cpp:386] inception_4e/relu_3x3_reduce -> inception_4e/3x3_reduce (in-place)
I0403 19:42:55.949825 25648 net.cpp:141] Setting up inception_4e/relu_3x3_reduce
I0403 19:42:55.949853 25648 net.cpp:148] Top shape: 24 160 14 14 (752640)
I0403 19:42:55.949869 25648 net.cpp:156] Memory required for data: 1224087072
I0403 19:42:55.949884 25648 layer_factory.hpp:77] Creating layer inception_4e/3x3
I0403 19:42:55.949909 25648 net.cpp:91] Creating Layer inception_4e/3x3
I0403 19:42:55.949929 25648 net.cpp:425] inception_4e/3x3 <- inception_4e/3x3_reduce
I0403 19:42:55.949949 25648 net.cpp:399] inception_4e/3x3 -> inception_4e/3x3
I0403 19:42:55.954885 25648 net.cpp:141] Setting up inception_4e/3x3
I0403 19:42:55.954931 25648 net.cpp:148] Top shape: 24 320 14 14 (1505280)
I0403 19:42:55.954952 25648 net.cpp:156] Memory required for data: 1230108192
I0403 19:42:55.954972 25648 layer_factory.hpp:77] Creating layer inception_4e/relu_3x3
I0403 19:42:55.954994 25648 net.cpp:91] Creating Layer inception_4e/relu_3x3
I0403 19:42:55.955013 25648 net.cpp:425] inception_4e/relu_3x3 <- inception_4e/3x3
I0403 19:42:55.955031 25648 net.cpp:386] inception_4e/relu_3x3 -> inception_4e/3x3 (in-place)
I0403 19:42:55.955330 25648 net.cpp:141] Setting up inception_4e/relu_3x3
I0403 19:42:55.955363 25648 net.cpp:148] Top shape: 24 320 14 14 (1505280)
I0403 19:42:55.955380 25648 net.cpp:156] Memory required for data: 1236129312
I0403 19:42:55.955397 25648 layer_factory.hpp:77] Creating layer inception_4e/5x5_reduce
I0403 19:42:55.955421 25648 net.cpp:91] Creating Layer inception_4e/5x5_reduce
I0403 19:42:55.955443 25648 net.cpp:425] inception_4e/5x5_reduce <- inception_4d/output_inception_4d/output_0_split_3
I0403 19:42:55.955463 25648 net.cpp:399] inception_4e/5x5_reduce -> inception_4e/5x5_reduce
I0403 19:42:55.956514 25648 net.cpp:141] Setting up inception_4e/5x5_reduce
I0403 19:42:55.956545 25648 net.cpp:148] Top shape: 24 32 14 14 (150528)
I0403 19:42:55.956562 25648 net.cpp:156] Memory required for data: 1236731424
I0403 19:42:55.956580 25648 layer_factory.hpp:77] Creating layer inception_4e/relu_5x5_reduce
I0403 19:42:55.956604 25648 net.cpp:91] Creating Layer inception_4e/relu_5x5_reduce
I0403 19:42:55.956622 25648 net.cpp:425] inception_4e/relu_5x5_reduce <- inception_4e/5x5_reduce
I0403 19:42:55.956642 25648 net.cpp:386] inception_4e/relu_5x5_reduce -> inception_4e/5x5_reduce (in-place)
I0403 19:42:55.956943 25648 net.cpp:141] Setting up inception_4e/relu_5x5_reduce
I0403 19:42:55.956974 25648 net.cpp:148] Top shape: 24 32 14 14 (150528)
I0403 19:42:55.956990 25648 net.cpp:156] Memory required for data: 1237333536
I0403 19:42:55.957005 25648 layer_factory.hpp:77] Creating layer inception_4e/5x5
I0403 19:42:55.957046 25648 net.cpp:91] Creating Layer inception_4e/5x5
I0403 19:42:55.957068 25648 net.cpp:425] inception_4e/5x5 <- inception_4e/5x5_reduce
I0403 19:42:55.957092 25648 net.cpp:399] inception_4e/5x5 -> inception_4e/5x5
I0403 19:42:55.958952 25648 net.cpp:141] Setting up inception_4e/5x5
I0403 19:42:55.958982 25648 net.cpp:148] Top shape: 24 128 14 14 (602112)
I0403 19:42:55.958999 25648 net.cpp:156] Memory required for data: 1239741984
I0403 19:42:55.959020 25648 layer_factory.hpp:77] Creating layer inception_4e/relu_5x5
I0403 19:42:55.959040 25648 net.cpp:91] Creating Layer inception_4e/relu_5x5
I0403 19:42:55.959059 25648 net.cpp:425] inception_4e/relu_5x5 <- inception_4e/5x5
I0403 19:42:55.959079 25648 net.cpp:386] inception_4e/relu_5x5 -> inception_4e/5x5 (in-place)
I0403 19:42:55.959280 25648 net.cpp:141] Setting up inception_4e/relu_5x5
I0403 19:42:55.959307 25648 net.cpp:148] Top shape: 24 128 14 14 (602112)
I0403 19:42:55.959323 25648 net.cpp:156] Memory required for data: 1242150432
I0403 19:42:55.959339 25648 layer_factory.hpp:77] Creating layer inception_4e/pool
I0403 19:42:55.959360 25648 net.cpp:91] Creating Layer inception_4e/pool
I0403 19:42:55.959383 25648 net.cpp:425] inception_4e/pool <- inception_4d/output_inception_4d/output_0_split_4
I0403 19:42:55.959399 25648 net.cpp:399] inception_4e/pool -> inception_4e/pool
I0403 19:42:55.959470 25648 net.cpp:141] Setting up inception_4e/pool
I0403 19:42:55.959497 25648 net.cpp:148] Top shape: 24 528 14 14 (2483712)
I0403 19:42:55.959513 25648 net.cpp:156] Memory required for data: 1252085280
I0403 19:42:55.959530 25648 layer_factory.hpp:77] Creating layer inception_4e/pool_proj
I0403 19:42:55.959554 25648 net.cpp:91] Creating Layer inception_4e/pool_proj
I0403 19:42:55.959575 25648 net.cpp:425] inception_4e/pool_proj <- inception_4e/pool
I0403 19:42:55.959596 25648 net.cpp:399] inception_4e/pool_proj -> inception_4e/pool_proj
I0403 19:42:55.961071 25648 net.cpp:141] Setting up inception_4e/pool_proj
I0403 19:42:55.961114 25648 net.cpp:148] Top shape: 24 128 14 14 (602112)
I0403 19:42:55.961132 25648 net.cpp:156] Memory required for data: 1254493728
I0403 19:42:55.961153 25648 layer_factory.hpp:77] Creating layer inception_4e/relu_pool_proj
I0403 19:42:55.961172 25648 net.cpp:91] Creating Layer inception_4e/relu_pool_proj
I0403 19:42:55.961191 25648 net.cpp:425] inception_4e/relu_pool_proj <- inception_4e/pool_proj
I0403 19:42:55.961212 25648 net.cpp:386] inception_4e/relu_pool_proj -> inception_4e/pool_proj (in-place)
I0403 19:42:55.961504 25648 net.cpp:141] Setting up inception_4e/relu_pool_proj
I0403 19:42:55.961534 25648 net.cpp:148] Top shape: 24 128 14 14 (602112)
I0403 19:42:55.961551 25648 net.cpp:156] Memory required for data: 1256902176
I0403 19:42:55.961568 25648 layer_factory.hpp:77] Creating layer inception_4e/output
I0403 19:42:55.961586 25648 net.cpp:91] Creating Layer inception_4e/output
I0403 19:42:55.961601 25648 net.cpp:425] inception_4e/output <- inception_4e/1x1
I0403 19:42:55.961621 25648 net.cpp:425] inception_4e/output <- inception_4e/3x3
I0403 19:42:55.961637 25648 net.cpp:425] inception_4e/output <- inception_4e/5x5
I0403 19:42:55.961654 25648 net.cpp:425] inception_4e/output <- inception_4e/pool_proj
I0403 19:42:55.961673 25648 net.cpp:399] inception_4e/output -> inception_4e/output
I0403 19:42:55.961726 25648 net.cpp:141] Setting up inception_4e/output
I0403 19:42:55.961752 25648 net.cpp:148] Top shape: 24 832 14 14 (3913728)
I0403 19:42:55.961769 25648 net.cpp:156] Memory required for data: 1272557088
I0403 19:42:55.961784 25648 layer_factory.hpp:77] Creating layer pool4/3x3_s2
I0403 19:42:55.961804 25648 net.cpp:91] Creating Layer pool4/3x3_s2
I0403 19:42:55.961823 25648 net.cpp:425] pool4/3x3_s2 <- inception_4e/output
I0403 19:42:55.961843 25648 net.cpp:399] pool4/3x3_s2 -> pool4/3x3_s2
I0403 19:42:55.961910 25648 net.cpp:141] Setting up pool4/3x3_s2
I0403 19:42:55.961935 25648 net.cpp:148] Top shape: 24 832 7 7 (978432)
I0403 19:42:55.961951 25648 net.cpp:156] Memory required for data: 1276470816
I0403 19:42:55.961966 25648 layer_factory.hpp:77] Creating layer pool4/3x3_s2_pool4/3x3_s2_0_split
I0403 19:42:55.961987 25648 net.cpp:91] Creating Layer pool4/3x3_s2_pool4/3x3_s2_0_split
I0403 19:42:55.962003 25648 net.cpp:425] pool4/3x3_s2_pool4/3x3_s2_0_split <- pool4/3x3_s2
I0403 19:42:55.962023 25648 net.cpp:399] pool4/3x3_s2_pool4/3x3_s2_0_split -> pool4/3x3_s2_pool4/3x3_s2_0_split_0
I0403 19:42:55.962044 25648 net.cpp:399] pool4/3x3_s2_pool4/3x3_s2_0_split -> pool4/3x3_s2_pool4/3x3_s2_0_split_1
I0403 19:42:55.962066 25648 net.cpp:399] pool4/3x3_s2_pool4/3x3_s2_0_split -> pool4/3x3_s2_pool4/3x3_s2_0_split_2
I0403 19:42:55.962087 25648 net.cpp:399] pool4/3x3_s2_pool4/3x3_s2_0_split -> pool4/3x3_s2_pool4/3x3_s2_0_split_3
I0403 19:42:55.962180 25648 net.cpp:141] Setting up pool4/3x3_s2_pool4/3x3_s2_0_split
I0403 19:42:55.962208 25648 net.cpp:148] Top shape: 24 832 7 7 (978432)
I0403 19:42:55.962227 25648 net.cpp:148] Top shape: 24 832 7 7 (978432)
I0403 19:42:55.962244 25648 net.cpp:148] Top shape: 24 832 7 7 (978432)
I0403 19:42:55.962267 25648 net.cpp:148] Top shape: 24 832 7 7 (978432)
I0403 19:42:55.962283 25648 net.cpp:156] Memory required for data: 1292125728
I0403 19:42:55.962301 25648 layer_factory.hpp:77] Creating layer inception_5a/1x1
I0403 19:42:55.962324 25648 net.cpp:91] Creating Layer inception_5a/1x1
I0403 19:42:55.962344 25648 net.cpp:425] inception_5a/1x1 <- pool4/3x3_s2_pool4/3x3_s2_0_split_0
I0403 19:42:55.962368 25648 net.cpp:399] inception_5a/1x1 -> inception_5a/1x1
I0403 19:42:55.965173 25648 net.cpp:141] Setting up inception_5a/1x1
I0403 19:42:55.965204 25648 net.cpp:148] Top shape: 24 256 7 7 (301056)
I0403 19:42:55.965222 25648 net.cpp:156] Memory required for data: 1293329952
I0403 19:42:55.965241 25648 layer_factory.hpp:77] Creating layer inception_5a/relu_1x1
I0403 19:42:55.965266 25648 net.cpp:91] Creating Layer inception_5a/relu_1x1
I0403 19:42:55.965287 25648 net.cpp:425] inception_5a/relu_1x1 <- inception_5a/1x1
I0403 19:42:55.965306 25648 net.cpp:386] inception_5a/relu_1x1 -> inception_5a/1x1 (in-place)
I0403 19:42:55.965672 25648 net.cpp:141] Setting up inception_5a/relu_1x1
I0403 19:42:55.965699 25648 net.cpp:148] Top shape: 24 256 7 7 (301056)
I0403 19:42:55.965718 25648 net.cpp:156] Memory required for data: 1294534176
I0403 19:42:55.965734 25648 layer_factory.hpp:77] Creating layer inception_5a/3x3_reduce
I0403 19:42:55.965757 25648 net.cpp:91] Creating Layer inception_5a/3x3_reduce
I0403 19:42:55.965776 25648 net.cpp:425] inception_5a/3x3_reduce <- pool4/3x3_s2_pool4/3x3_s2_0_split_1
I0403 19:42:55.965800 25648 net.cpp:399] inception_5a/3x3_reduce -> inception_5a/3x3_reduce
I0403 19:42:55.968252 25648 net.cpp:141] Setting up inception_5a/3x3_reduce
I0403 19:42:55.968292 25648 net.cpp:148] Top shape: 24 160 7 7 (188160)
I0403 19:42:55.968312 25648 net.cpp:156] Memory required for data: 1295286816
I0403 19:42:55.968333 25648 layer_factory.hpp:77] Creating layer inception_5a/relu_3x3_reduce
I0403 19:42:55.968353 25648 net.cpp:91] Creating Layer inception_5a/relu_3x3_reduce
I0403 19:42:55.968369 25648 net.cpp:425] inception_5a/relu_3x3_reduce <- inception_5a/3x3_reduce
I0403 19:42:55.968386 25648 net.cpp:386] inception_5a/relu_3x3_reduce -> inception_5a/3x3_reduce (in-place)
I0403 19:42:55.968570 25648 net.cpp:141] Setting up inception_5a/relu_3x3_reduce
I0403 19:42:55.968600 25648 net.cpp:148] Top shape: 24 160 7 7 (188160)
I0403 19:42:55.968617 25648 net.cpp:156] Memory required for data: 1296039456
I0403 19:42:55.968632 25648 layer_factory.hpp:77] Creating layer inception_5a/3x3
I0403 19:42:55.968654 25648 net.cpp:91] Creating Layer inception_5a/3x3
I0403 19:42:55.968673 25648 net.cpp:425] inception_5a/3x3 <- inception_5a/3x3_reduce
I0403 19:42:55.968696 25648 net.cpp:399] inception_5a/3x3 -> inception_5a/3x3
I0403 19:42:55.973521 25648 net.cpp:141] Setting up inception_5a/3x3
I0403 19:42:55.973553 25648 net.cpp:148] Top shape: 24 320 7 7 (376320)
I0403 19:42:55.973572 25648 net.cpp:156] Memory required for data: 1297544736
I0403 19:42:55.973589 25648 layer_factory.hpp:77] Creating layer inception_5a/relu_3x3
I0403 19:42:55.973608 25648 net.cpp:91] Creating Layer inception_5a/relu_3x3
I0403 19:42:55.973625 25648 net.cpp:425] inception_5a/relu_3x3 <- inception_5a/3x3
I0403 19:42:55.973646 25648 net.cpp:386] inception_5a/relu_3x3 -> inception_5a/3x3 (in-place)
I0403 19:42:55.973933 25648 net.cpp:141] Setting up inception_5a/relu_3x3
I0403 19:42:55.973965 25648 net.cpp:148] Top shape: 24 320 7 7 (376320)
I0403 19:42:55.973984 25648 net.cpp:156] Memory required for data: 1299050016
I0403 19:42:55.973997 25648 layer_factory.hpp:77] Creating layer inception_5a/5x5_reduce
I0403 19:42:55.974021 25648 net.cpp:91] Creating Layer inception_5a/5x5_reduce
I0403 19:42:55.974041 25648 net.cpp:425] inception_5a/5x5_reduce <- pool4/3x3_s2_pool4/3x3_s2_0_split_2
I0403 19:42:55.974066 25648 net.cpp:399] inception_5a/5x5_reduce -> inception_5a/5x5_reduce
I0403 19:42:55.975200 25648 net.cpp:141] Setting up inception_5a/5x5_reduce
I0403 19:42:55.975231 25648 net.cpp:148] Top shape: 24 32 7 7 (37632)
I0403 19:42:55.975249 25648 net.cpp:156] Memory required for data: 1299200544
I0403 19:42:55.975273 25648 layer_factory.hpp:77] Creating layer inception_5a/relu_5x5_reduce
I0403 19:42:55.975297 25648 net.cpp:91] Creating Layer inception_5a/relu_5x5_reduce
I0403 19:42:55.975318 25648 net.cpp:425] inception_5a/relu_5x5_reduce <- inception_5a/5x5_reduce
I0403 19:42:55.975337 25648 net.cpp:386] inception_5a/relu_5x5_reduce -> inception_5a/5x5_reduce (in-place)
I0403 19:42:55.975625 25648 net.cpp:141] Setting up inception_5a/relu_5x5_reduce
I0403 19:42:55.975656 25648 net.cpp:148] Top shape: 24 32 7 7 (37632)
I0403 19:42:55.975672 25648 net.cpp:156] Memory required for data: 1299351072
I0403 19:42:55.975688 25648 layer_factory.hpp:77] Creating layer inception_5a/5x5
I0403 19:42:55.975711 25648 net.cpp:91] Creating Layer inception_5a/5x5
I0403 19:42:55.975730 25648 net.cpp:425] inception_5a/5x5 <- inception_5a/5x5_reduce
I0403 19:42:55.975751 25648 net.cpp:399] inception_5a/5x5 -> inception_5a/5x5
I0403 19:42:55.977388 25648 net.cpp:141] Setting up inception_5a/5x5
I0403 19:42:55.977430 25648 net.cpp:148] Top shape: 24 128 7 7 (150528)
I0403 19:42:55.977447 25648 net.cpp:156] Memory required for data: 1299953184
I0403 19:42:55.977468 25648 layer_factory.hpp:77] Creating layer inception_5a/relu_5x5
I0403 19:42:55.977485 25648 net.cpp:91] Creating Layer inception_5a/relu_5x5
I0403 19:42:55.977504 25648 net.cpp:425] inception_5a/relu_5x5 <- inception_5a/5x5
I0403 19:42:55.977524 25648 net.cpp:386] inception_5a/relu_5x5 -> inception_5a/5x5 (in-place)
I0403 19:42:55.977710 25648 net.cpp:141] Setting up inception_5a/relu_5x5
I0403 19:42:55.977741 25648 net.cpp:148] Top shape: 24 128 7 7 (150528)
I0403 19:42:55.977756 25648 net.cpp:156] Memory required for data: 1300555296
I0403 19:42:55.977773 25648 layer_factory.hpp:77] Creating layer inception_5a/pool
I0403 19:42:55.977794 25648 net.cpp:91] Creating Layer inception_5a/pool
I0403 19:42:55.977813 25648 net.cpp:425] inception_5a/pool <- pool4/3x3_s2_pool4/3x3_s2_0_split_3
I0403 19:42:55.977831 25648 net.cpp:399] inception_5a/pool -> inception_5a/pool
I0403 19:42:55.977902 25648 net.cpp:141] Setting up inception_5a/pool
I0403 19:42:55.977931 25648 net.cpp:148] Top shape: 24 832 7 7 (978432)
I0403 19:42:55.977947 25648 net.cpp:156] Memory required for data: 1304469024
I0403 19:42:55.977963 25648 layer_factory.hpp:77] Creating layer inception_5a/pool_proj
I0403 19:42:55.977987 25648 net.cpp:91] Creating Layer inception_5a/pool_proj
I0403 19:42:55.978004 25648 net.cpp:425] inception_5a/pool_proj <- inception_5a/pool
I0403 19:42:55.978025 25648 net.cpp:399] inception_5a/pool_proj -> inception_5a/pool_proj
I0403 19:42:55.980211 25648 net.cpp:141] Setting up inception_5a/pool_proj
I0403 19:42:55.980247 25648 net.cpp:148] Top shape: 24 128 7 7 (150528)
I0403 19:42:55.980270 25648 net.cpp:156] Memory required for data: 1305071136
I0403 19:42:55.980290 25648 layer_factory.hpp:77] Creating layer inception_5a/relu_pool_proj
I0403 19:42:55.980309 25648 net.cpp:91] Creating Layer inception_5a/relu_pool_proj
I0403 19:42:55.980325 25648 net.cpp:425] inception_5a/relu_pool_proj <- inception_5a/pool_proj
I0403 19:42:55.980345 25648 net.cpp:386] inception_5a/relu_pool_proj -> inception_5a/pool_proj (in-place)
I0403 19:42:55.980640 25648 net.cpp:141] Setting up inception_5a/relu_pool_proj
I0403 19:42:55.980671 25648 net.cpp:148] Top shape: 24 128 7 7 (150528)
I0403 19:42:55.980690 25648 net.cpp:156] Memory required for data: 1305673248
I0403 19:42:55.980705 25648 layer_factory.hpp:77] Creating layer inception_5a/output
I0403 19:42:55.980723 25648 net.cpp:91] Creating Layer inception_5a/output
I0403 19:42:55.980741 25648 net.cpp:425] inception_5a/output <- inception_5a/1x1
I0403 19:42:55.980761 25648 net.cpp:425] inception_5a/output <- inception_5a/3x3
I0403 19:42:55.980777 25648 net.cpp:425] inception_5a/output <- inception_5a/5x5
I0403 19:42:55.980794 25648 net.cpp:425] inception_5a/output <- inception_5a/pool_proj
I0403 19:42:55.980813 25648 net.cpp:399] inception_5a/output -> inception_5a/output
I0403 19:42:55.980864 25648 net.cpp:141] Setting up inception_5a/output
I0403 19:42:55.980892 25648 net.cpp:148] Top shape: 24 832 7 7 (978432)
I0403 19:42:55.980909 25648 net.cpp:156] Memory required for data: 1309586976
I0403 19:42:55.980926 25648 layer_factory.hpp:77] Creating layer inception_5a/output_inception_5a/output_0_split
I0403 19:42:55.980948 25648 net.cpp:91] Creating Layer inception_5a/output_inception_5a/output_0_split
I0403 19:42:55.980969 25648 net.cpp:425] inception_5a/output_inception_5a/output_0_split <- inception_5a/output
I0403 19:42:55.980988 25648 net.cpp:399] inception_5a/output_inception_5a/output_0_split -> inception_5a/output_inception_5a/output_0_split_0
I0403 19:42:55.981010 25648 net.cpp:399] inception_5a/output_inception_5a/output_0_split -> inception_5a/output_inception_5a/output_0_split_1
I0403 19:42:55.981036 25648 net.cpp:399] inception_5a/output_inception_5a/output_0_split -> inception_5a/output_inception_5a/output_0_split_2
I0403 19:42:55.981061 25648 net.cpp:399] inception_5a/output_inception_5a/output_0_split -> inception_5a/output_inception_5a/output_0_split_3
I0403 19:42:55.981171 25648 net.cpp:141] Setting up inception_5a/output_inception_5a/output_0_split
I0403 19:42:55.981199 25648 net.cpp:148] Top shape: 24 832 7 7 (978432)
I0403 19:42:55.981217 25648 net.cpp:148] Top shape: 24 832 7 7 (978432)
I0403 19:42:55.981232 25648 net.cpp:148] Top shape: 24 832 7 7 (978432)
I0403 19:42:55.981248 25648 net.cpp:148] Top shape: 24 832 7 7 (978432)
I0403 19:42:55.981272 25648 net.cpp:156] Memory required for data: 1325241888
I0403 19:42:55.981289 25648 layer_factory.hpp:77] Creating layer inception_5b/1x1
I0403 19:42:55.981313 25648 net.cpp:91] Creating Layer inception_5b/1x1
I0403 19:42:55.981333 25648 net.cpp:425] inception_5b/1x1 <- inception_5a/output_inception_5a/output_0_split_0
I0403 19:42:55.981355 25648 net.cpp:399] inception_5b/1x1 -> inception_5b/1x1
I0403 19:42:55.985049 25648 net.cpp:141] Setting up inception_5b/1x1
I0403 19:42:55.985085 25648 net.cpp:148] Top shape: 24 384 7 7 (451584)
I0403 19:42:55.985105 25648 net.cpp:156] Memory required for data: 1327048224
I0403 19:42:55.985126 25648 layer_factory.hpp:77] Creating layer inception_5b/relu_1x1
I0403 19:42:55.985146 25648 net.cpp:91] Creating Layer inception_5b/relu_1x1
I0403 19:42:55.985163 25648 net.cpp:425] inception_5b/relu_1x1 <- inception_5b/1x1
I0403 19:42:55.985180 25648 net.cpp:386] inception_5b/relu_1x1 -> inception_5b/1x1 (in-place)
I0403 19:42:55.985486 25648 net.cpp:141] Setting up inception_5b/relu_1x1
I0403 19:42:55.985519 25648 net.cpp:148] Top shape: 24 384 7 7 (451584)
I0403 19:42:55.985539 25648 net.cpp:156] Memory required for data: 1328854560
I0403 19:42:55.985555 25648 layer_factory.hpp:77] Creating layer inception_5b/3x3_reduce
I0403 19:42:55.985579 25648 net.cpp:91] Creating Layer inception_5b/3x3_reduce
I0403 19:42:55.985599 25648 net.cpp:425] inception_5b/3x3_reduce <- inception_5a/output_inception_5a/output_0_split_1
I0403 19:42:55.985620 25648 net.cpp:399] inception_5b/3x3_reduce -> inception_5b/3x3_reduce
I0403 19:42:55.988252 25648 net.cpp:141] Setting up inception_5b/3x3_reduce
I0403 19:42:55.988291 25648 net.cpp:148] Top shape: 24 192 7 7 (225792)
I0403 19:42:55.988312 25648 net.cpp:156] Memory required for data: 1329757728
I0403 19:42:55.988330 25648 layer_factory.hpp:77] Creating layer inception_5b/relu_3x3_reduce
I0403 19:42:55.988350 25648 net.cpp:91] Creating Layer inception_5b/relu_3x3_reduce
I0403 19:42:55.988368 25648 net.cpp:425] inception_5b/relu_3x3_reduce <- inception_5b/3x3_reduce
I0403 19:42:55.988390 25648 net.cpp:386] inception_5b/relu_3x3_reduce -> inception_5b/3x3_reduce (in-place)
I0403 19:42:55.988581 25648 net.cpp:141] Setting up inception_5b/relu_3x3_reduce
I0403 19:42:55.988610 25648 net.cpp:148] Top shape: 24 192 7 7 (225792)
I0403 19:42:55.988627 25648 net.cpp:156] Memory required for data: 1330660896
I0403 19:42:55.988642 25648 layer_factory.hpp:77] Creating layer inception_5b/3x3
I0403 19:42:55.988668 25648 net.cpp:91] Creating Layer inception_5b/3x3
I0403 19:42:55.988690 25648 net.cpp:425] inception_5b/3x3 <- inception_5b/3x3_reduce
I0403 19:42:55.988714 25648 net.cpp:399] inception_5b/3x3 -> inception_5b/3x3
I0403 19:42:55.995344 25648 net.cpp:141] Setting up inception_5b/3x3
I0403 19:42:55.995379 25648 net.cpp:148] Top shape: 24 384 7 7 (451584)
I0403 19:42:55.995400 25648 net.cpp:156] Memory required for data: 1332467232
I0403 19:42:55.995420 25648 layer_factory.hpp:77] Creating layer inception_5b/relu_3x3
I0403 19:42:55.995441 25648 net.cpp:91] Creating Layer inception_5b/relu_3x3
I0403 19:42:55.995460 25648 net.cpp:425] inception_5b/relu_3x3 <- inception_5b/3x3
I0403 19:42:55.995482 25648 net.cpp:386] inception_5b/relu_3x3 -> inception_5b/3x3 (in-place)
I0403 19:42:55.995774 25648 net.cpp:141] Setting up inception_5b/relu_3x3
I0403 19:42:55.995803 25648 net.cpp:148] Top shape: 24 384 7 7 (451584)
I0403 19:42:55.995823 25648 net.cpp:156] Memory required for data: 1334273568
I0403 19:42:55.995841 25648 layer_factory.hpp:77] Creating layer inception_5b/5x5_reduce
I0403 19:42:55.995880 25648 net.cpp:91] Creating Layer inception_5b/5x5_reduce
I0403 19:42:55.995903 25648 net.cpp:425] inception_5b/5x5_reduce <- inception_5a/output_inception_5a/output_0_split_2
I0403 19:42:55.995923 25648 net.cpp:399] inception_5b/5x5_reduce -> inception_5b/5x5_reduce
I0403 19:42:55.997175 25648 net.cpp:141] Setting up inception_5b/5x5_reduce
I0403 19:42:55.997208 25648 net.cpp:148] Top shape: 24 48 7 7 (56448)
I0403 19:42:55.997225 25648 net.cpp:156] Memory required for data: 1334499360
I0403 19:42:55.997246 25648 layer_factory.hpp:77] Creating layer inception_5b/relu_5x5_reduce
I0403 19:42:55.997269 25648 net.cpp:91] Creating Layer inception_5b/relu_5x5_reduce
I0403 19:42:55.997290 25648 net.cpp:425] inception_5b/relu_5x5_reduce <- inception_5b/5x5_reduce
I0403 19:42:55.997311 25648 net.cpp:386] inception_5b/relu_5x5_reduce -> inception_5b/5x5_reduce (in-place)
I0403 19:42:55.997683 25648 net.cpp:141] Setting up inception_5b/relu_5x5_reduce
I0403 19:42:55.997714 25648 net.cpp:148] Top shape: 24 48 7 7 (56448)
I0403 19:42:55.997732 25648 net.cpp:156] Memory required for data: 1334725152
I0403 19:42:55.997750 25648 layer_factory.hpp:77] Creating layer inception_5b/5x5
I0403 19:42:55.997771 25648 net.cpp:91] Creating Layer inception_5b/5x5
I0403 19:42:55.997789 25648 net.cpp:425] inception_5b/5x5 <- inception_5b/5x5_reduce
I0403 19:42:55.997808 25648 net.cpp:399] inception_5b/5x5 -> inception_5b/5x5
I0403 19:42:55.999822 25648 net.cpp:141] Setting up inception_5b/5x5
I0403 19:42:55.999853 25648 net.cpp:148] Top shape: 24 128 7 7 (150528)
I0403 19:42:55.999872 25648 net.cpp:156] Memory required for data: 1335327264
I0403 19:42:55.999891 25648 layer_factory.hpp:77] Creating layer inception_5b/relu_5x5
I0403 19:42:55.999912 25648 net.cpp:91] Creating Layer inception_5b/relu_5x5
I0403 19:42:55.999933 25648 net.cpp:425] inception_5b/relu_5x5 <- inception_5b/5x5
I0403 19:42:55.999950 25648 net.cpp:386] inception_5b/relu_5x5 -> inception_5b/5x5 (in-place)
I0403 19:42:56.000143 25648 net.cpp:141] Setting up inception_5b/relu_5x5
I0403 19:42:56.000171 25648 net.cpp:148] Top shape: 24 128 7 7 (150528)
I0403 19:42:56.000188 25648 net.cpp:156] Memory required for data: 1335929376
I0403 19:42:56.000205 25648 layer_factory.hpp:77] Creating layer inception_5b/pool
I0403 19:42:56.000227 25648 net.cpp:91] Creating Layer inception_5b/pool
I0403 19:42:56.000247 25648 net.cpp:425] inception_5b/pool <- inception_5a/output_inception_5a/output_0_split_3
I0403 19:42:56.000273 25648 net.cpp:399] inception_5b/pool -> inception_5b/pool
I0403 19:42:56.000352 25648 net.cpp:141] Setting up inception_5b/pool
I0403 19:42:56.000380 25648 net.cpp:148] Top shape: 24 832 7 7 (978432)
I0403 19:42:56.000397 25648 net.cpp:156] Memory required for data: 1339843104
I0403 19:42:56.000412 25648 layer_factory.hpp:77] Creating layer inception_5b/pool_proj
I0403 19:42:56.000435 25648 net.cpp:91] Creating Layer inception_5b/pool_proj
I0403 19:42:56.000454 25648 net.cpp:425] inception_5b/pool_proj <- inception_5b/pool
I0403 19:42:56.000478 25648 net.cpp:399] inception_5b/pool_proj -> inception_5b/pool_proj
I0403 19:42:56.002766 25648 net.cpp:141] Setting up inception_5b/pool_proj
I0403 19:42:56.002797 25648 net.cpp:148] Top shape: 24 128 7 7 (150528)
I0403 19:42:56.002815 25648 net.cpp:156] Memory required for data: 1340445216
I0403 19:42:56.002835 25648 layer_factory.hpp:77] Creating layer inception_5b/relu_pool_proj
I0403 19:42:56.002854 25648 net.cpp:91] Creating Layer inception_5b/relu_pool_proj
I0403 19:42:56.002872 25648 net.cpp:425] inception_5b/relu_pool_proj <- inception_5b/pool_proj
I0403 19:42:56.002894 25648 net.cpp:386] inception_5b/relu_pool_proj -> inception_5b/pool_proj (in-place)
I0403 19:42:56.003190 25648 net.cpp:141] Setting up inception_5b/relu_pool_proj
I0403 19:42:56.003218 25648 net.cpp:148] Top shape: 24 128 7 7 (150528)
I0403 19:42:56.003234 25648 net.cpp:156] Memory required for data: 1341047328
I0403 19:42:56.003250 25648 layer_factory.hpp:77] Creating layer inception_5b/output
I0403 19:42:56.003276 25648 net.cpp:91] Creating Layer inception_5b/output
I0403 19:42:56.003311 25648 net.cpp:425] inception_5b/output <- inception_5b/1x1
I0403 19:42:56.003331 25648 net.cpp:425] inception_5b/output <- inception_5b/3x3
I0403 19:42:56.003348 25648 net.cpp:425] inception_5b/output <- inception_5b/5x5
I0403 19:42:56.003365 25648 net.cpp:425] inception_5b/output <- inception_5b/pool_proj
I0403 19:42:56.003386 25648 net.cpp:399] inception_5b/output -> inception_5b/output
I0403 19:42:56.003438 25648 net.cpp:141] Setting up inception_5b/output
I0403 19:42:56.003471 25648 net.cpp:148] Top shape: 24 1024 7 7 (1204224)
I0403 19:42:56.003491 25648 net.cpp:156] Memory required for data: 1345864224
I0403 19:42:56.003506 25648 layer_factory.hpp:77] Creating layer pool5/7x7_s1
I0403 19:42:56.003525 25648 net.cpp:91] Creating Layer pool5/7x7_s1
I0403 19:42:56.003541 25648 net.cpp:425] pool5/7x7_s1 <- inception_5b/output
I0403 19:42:56.003561 25648 net.cpp:399] pool5/7x7_s1 -> pool5/7x7_s1
I0403 19:42:56.003778 25648 net.cpp:141] Setting up pool5/7x7_s1
I0403 19:42:56.003808 25648 net.cpp:148] Top shape: 24 1024 1 1 (24576)
I0403 19:42:56.003823 25648 net.cpp:156] Memory required for data: 1345962528
I0403 19:42:56.003837 25648 layer_factory.hpp:77] Creating layer pool5/drop_7x7_s1
I0403 19:42:56.003857 25648 net.cpp:91] Creating Layer pool5/drop_7x7_s1
I0403 19:42:56.003875 25648 net.cpp:425] pool5/drop_7x7_s1 <- pool5/7x7_s1
I0403 19:42:56.003895 25648 net.cpp:386] pool5/drop_7x7_s1 -> pool5/7x7_s1 (in-place)
I0403 19:42:56.003949 25648 net.cpp:141] Setting up pool5/drop_7x7_s1
I0403 19:42:56.003979 25648 net.cpp:148] Top shape: 24 1024 1 1 (24576)
I0403 19:42:56.003996 25648 net.cpp:156] Memory required for data: 1346060832
I0403 19:42:56.004011 25648 layer_factory.hpp:77] Creating layer loss3/classifier_plantvillage
I0403 19:42:56.004031 25648 net.cpp:91] Creating Layer loss3/classifier_plantvillage
I0403 19:42:56.004050 25648 net.cpp:425] loss3/classifier_plantvillage <- pool5/7x7_s1
I0403 19:42:56.004076 25648 net.cpp:399] loss3/classifier_plantvillage -> loss3/classifier_plantvillage
I0403 19:42:56.004529 25648 net.cpp:141] Setting up loss3/classifier_plantvillage
I0403 19:42:56.004559 25648 net.cpp:148] Top shape: 24 38 (912)
I0403 19:42:56.004576 25648 net.cpp:156] Memory required for data: 1346064480
I0403 19:42:56.004595 25648 layer_factory.hpp:77] Creating layer loss3/classifier_plantvillage_loss3/classifier_plantvillage_0_split
I0403 19:42:56.004621 25648 net.cpp:91] Creating Layer loss3/classifier_plantvillage_loss3/classifier_plantvillage_0_split
I0403 19:42:56.004642 25648 net.cpp:425] loss3/classifier_plantvillage_loss3/classifier_plantvillage_0_split <- loss3/classifier_plantvillage
I0403 19:42:56.004662 25648 net.cpp:399] loss3/classifier_plantvillage_loss3/classifier_plantvillage_0_split -> loss3/classifier_plantvillage_loss3/classifier_plantvillage_0_split_0
I0403 19:42:56.004683 25648 net.cpp:399] loss3/classifier_plantvillage_loss3/classifier_plantvillage_0_split -> loss3/classifier_plantvillage_loss3/classifier_plantvillage_0_split_1
I0403 19:42:56.004710 25648 net.cpp:399] loss3/classifier_plantvillage_loss3/classifier_plantvillage_0_split -> loss3/classifier_plantvillage_loss3/classifier_plantvillage_0_split_2
I0403 19:42:56.004732 25648 net.cpp:399] loss3/classifier_plantvillage_loss3/classifier_plantvillage_0_split -> loss3/classifier_plantvillage_loss3/classifier_plantvillage_0_split_3
I0403 19:42:56.004837 25648 net.cpp:141] Setting up loss3/classifier_plantvillage_loss3/classifier_plantvillage_0_split
I0403 19:42:56.004863 25648 net.cpp:148] Top shape: 24 38 (912)
I0403 19:42:56.004883 25648 net.cpp:148] Top shape: 24 38 (912)
I0403 19:42:56.004899 25648 net.cpp:148] Top shape: 24 38 (912)
I0403 19:42:56.004916 25648 net.cpp:148] Top shape: 24 38 (912)
I0403 19:42:56.004931 25648 net.cpp:156] Memory required for data: 1346079072
I0403 19:42:56.004947 25648 layer_factory.hpp:77] Creating layer loss1/loss
I0403 19:42:56.004972 25648 net.cpp:91] Creating Layer loss1/loss
I0403 19:42:56.004992 25648 net.cpp:425] loss1/loss <- loss1/classifier_plantvillage_loss1/classifier_plantvillage_0_split_0
I0403 19:42:56.005026 25648 net.cpp:425] loss1/loss <- label_data_1_split_0
…
