…
I0403 19:49:25.086242 26018 net.cpp:313] The NetState phase (1) differed from the phase (0) specified by a rule in layer data
I0403 19:49:25.087492 26018 net.cpp:49] Initializing net from parameters: 
state {
  phase: TEST
}
layer {
  name: "data"
  type: "Data"
  top: "data"
  top: "label"
  include {
    phase: TEST
  }
  transform_param {
    mirror: false
    crop_size: 224
    mean_file: "/home/mohanty/data/final_dataset/lmdb/grayscale-80-20/mean.binaryproto"
  }
  data_param {
    source: "/home/mohanty/data/final_dataset/lmdb/grayscale-80-20/test_db"
    batch_size: 24
    backend: LMDB
  }
}
layer {
  name: "conv1/7x7_s2"
  type: "Convolution"
  bottom: "data"
  top: "conv1/7x7_s2"
  param {
    lr_mult: 1
    decay_mult: 1
  }
  param {
    lr_mult: 2
    decay_mult: 0
  }
  convolution_param {
    num_output: 64
    pad: 3
    kernel_size: 7
    stride: 2
    weight_filler {
      type: "xavier"
      std: 0.1
    }
    bias_filler {
      type: "constant"
      value: 0.2
    }
  }
}
layer {
  name: "conv1/relu_7x7"
  type: "ReLU"
  bottom: "conv1/7x7_s2"
  top: "conv1/7x7_s2"
}
layer {
  name: "pool1/3x3_s2"
  type: "Pooling"
  bottom: "conv1/7x7_s2"
  top: "pool1/3x3_s2"
  pooling_param {
    pool: MAX
    kernel_size: 3
    stride: 2
  }
}
layer {
  name: "pool1/norm1"
  type: "LRN"
  bottom: "pool1/3x3_s2"
  top: "pool1/norm1"
  lrn_param {
    local_size: 5
    alpha: 0.0001
    beta: 0.75
  }
}
layer {
  name: "conv2/3x3_reduce"
  type: "Convolution"
  bottom: "pool1/norm1"
  top: "conv2/3x3_reduce"
  param {
    lr_mult: 1
    decay_mult: 1
  }
  param {
    lr_mult: 2
    decay_mult: 0
  }
  convolution_param {
    num_output: 64
    kernel_size: 1
    weight_filler {
      type: "xavier"
      std: 0.1
    }
    bias_filler {
      type: "constant"
      value: 0.2
    }
  }
}
layer {
  name: "conv2/relu_3x3_reduce"
  type: "ReLU"
  bottom: "conv2/3x3_reduce"
  top: "conv2/3x3_reduce"
}
layer {
  name: "conv2/3x3"
  type: "Convolution"
  bottom: "conv2/3x3_reduce"
  top: "conv2/3x3"
  param {
    lr_mult: 1
    decay_mult: 1
  }
  param {
    lr_mult: 2
    decay_mult: 0
  }
  convolution_param {
    num_output: 192
    pad: 1
    kernel_size: 3
    weight_filler {
      type: "xavier"
      std: 0.03
    }
    bias_filler {
      type: "constant"
      value: 0.2
    }
  }
}
layer {
  name: "conv2/relu_3x3"
  type: "ReLU"
  bottom: "conv2/3x3"
  top: "conv2/3x3"
}
layer {
  name: "conv2/norm2"
  type: "LRN"
  bottom: "conv2/3x3"
  top: "conv2/norm2"
  lrn_param {
    local_size: 5
    alpha: 0.0001
    beta: 0.75
  }
}
layer {
  name: "pool2/3x3_s2"
  type: "Pooling"
  bottom: "conv2/norm2"
  top: "pool2/3x3_s2"
  pooling_param {
    pool: MAX
    kernel_size: 3
    stride: 2
  }
}
layer {
  name: "inception_3a/1x1"
  type: "Convolution"
  bottom: "pool2/3x3_s2"
  top: "inception_3a/1x1"
  param {
    lr_mult: 1
    decay_mult: 1
  }
  param {
    lr_mult: 2
    decay_mult: 0
  }
  convolution_param {
    num_output: 64
    kernel_size: 1
    weight_filler {
      type: "xavier"
      std: 0.03
    }
    bias_filler {
      type: "constant"
      value: 0.2
    }
  }
}
layer {
  name: "inception_3a/relu_1x1"
  type: "ReLU"
  bottom: "inception_3a/1x1"
  top: "inception_3a/1x1"
}
layer {
  name: "inception_3a/3x3_reduce"
  type: "Convolution"
  bottom: "pool2/3x3_s2"
  top: "inception_3a/3x3_reduce"
  param {
    lr_mult: 1
    decay_mult: 1
  }
  param {
    lr_mult: 2
    decay_mult: 0
  }
  convolution_param {
    num_output: 96
    kernel_size: 1
    weight_filler {
      type: "xavier"
      std: 0.09
    }
    bias_filler {
      type: "constant"
      value: 0.2
    }
  }
}
layer {
  name: "inception_3a/relu_3x3_reduce"
  type: "ReLU"
  bottom: "inception_3a/3x3_reduce"
  top: "inception_3a/3x3_reduce"
}
layer {
  name: "inception_3a/3x3"
  type: "Convolution"
  bottom: "inception_3a/3x3_reduce"
  top: "inception_3a/3x3"
  param {
    lr_mult: 1
    decay_mult: 1
  }
  param {
    lr_mult: 2
    decay_mult: 0
  }
  convolution_param {
    num_output: 128
    pad: 1
    kernel_size: 3
    weight_filler {
      type: "xavier"
      std: 0.03
    }
    bias_filler {
      type: "constant"
      value: 0.2
    }
  }
}
layer {
  name: "inception_3a/relu_3x3"
  type: "ReLU"
  bottom: "inception_3a/3x3"
  top: "inception_3a/3x3"
}
layer {
  name: "inception_3a/5x5_reduce"
  type: "Convolution"
  bottom: "pool2/3x3_s2"
  top: "inception_3a/5x5_reduce"
  param {
    lr_mult: 1
    decay_mult: 1
  }
  param {
    lr_mult: 2
    decay_mult: 0
  }
  convolution_param {
    num_output: 16
    kernel_size: 1
    weight_filler {
      type: "xavier"
      std: 0.2
    }
    bias_filler {
      type: "constant"
      value: 0.2
    }
  }
}
layer {
  name: "inception_3a/relu_5x5_reduce"
  type: "ReLU"
  bottom: "inception_3a/5x5_reduce"
  top: "inception_3a/5x5_reduce"
}
layer {
  name: "inception_3a/5x5"
  type: "Convolution"
  bottom: "inception_3a/5x5_reduce"
  top: "inception_3a/5x5"
  param {
    lr_mult: 1
    decay_mult: 1
  }
  param {
    lr_mult: 2
    decay_mult: 0
  }
  convolution_param {
    num_output: 32
    pad: 2
    kernel_size: 5
    weight_filler {
      type: "xavier"
      std: 0.03
    }
    bias_filler {
      type: "constant"
      value: 0.2
    }
  }
}
layer {
  name: "inception_3a/relu_5x5"
  type: "ReLU"
  bottom: "inception_3a/5x5"
  top: "inception_3a/5x5"
}
layer {
  name: "inception_3a/pool"
  type: "Pooling"
  bottom: "pool2/3x3_s2"
  top: "inception_3a/pool"
  pooling_param {
    pool: MAX
    kernel_size: 3
    stride: 1
    pad: 1
  }
}
layer {
  name: "inception_3a/pool_proj"
  type: "Convolution"
  bottom: "inception_3a/pool"
  top: "inception_3a/pool_proj"
  param {
    lr_mult: 1
    decay_mult: 1
  }
  param {
    lr_mult: 2
    decay_mult: 0
  }
  convolution_param {
    num_output: 32
    kernel_size: 1
    weight_filler {
      type: "xavier"
      std: 0.1
    }
    bias_filler {
      type: "constant"
      value: 0.2
    }
  }
}
layer {
  name: "inception_3a/relu_pool_proj"
  type: "ReLU"
  bottom: "inception_3a/pool_proj"
  top: "inception_3a/pool_proj"
}
layer {
  name: "inception_3a/output"
  type: "Concat"
  bottom: "inception_3a/1x1"
  bottom: "inception_3a/3x3"
  bottom: "inception_3a/5x5"
  bottom: "inception_3a/pool_proj"
  top: "inception_3a/output"
}
layer {
  name: "inception_3b/1x1"
  type: "Convolution"
  bottom: "inception_3a/output"
  top: "inception_3b/1x1"
  param {
    lr_mult: 1
    decay_mult: 1
  }
  param {
    lr_mult: 2
    decay_mult: 0
  }
  convolution_param {
    num_output: 128
    kernel_size: 1
    weight_filler {
      type: "xavier"
      std: 0.03
    }
    bias_filler {
      type: "constant"
      value: 0.2
    }
  }
}
layer {
  name: "inception_3b/relu_1x1"
  type: "ReLU"
  bottom: "inception_3b/1x1"
  top: "inception_3b/1x1"
}
layer {
  name: "inception_3b/3x3_reduce"
  type: "Convolution"
  bottom: "inception_3a/output"
  top: "inception_3b/3x3_reduce"
  param {
    lr_mult: 1
    decay_mult: 1
  }
  param {
    lr_mult: 2
    decay_mult: 0
  }
  convolution_param {
    num_output: 128
    kernel_size: 1
    weight_filler {
      type: "xavier"
      std: 0.09
    }
    bias_filler {
      type: "constant"
      value: 0.2
    }
  }
}
layer {
  name: "inception_3b/relu_3x3_reduce"
  type: "ReLU"
  bottom: "inception_3b/3x3_reduce"
  top: "inception_3b/3x3_reduce"
}
layer {
  name: "inception_3b/3x3"
  type: "Convolution"
  bottom: "inception_3b/3x3_reduce"
  top: "inception_3b/3x3"
  param {
    lr_mult: 1
    decay_mult: 1
  }
  param {
    lr_mult: 2
    decay_mult: 0
  }
  convolution_param {
    num_output: 192
    pad: 1
    kernel_size: 3
    weight_filler {
      type: "xavier"
      std: 0.03
    }
    bias_filler {
      type: "constant"
      value: 0.2
    }
  }
}
layer {
  name: "inception_3b/relu_3x3"
  type: "ReLU"
  bottom: "inception_3b/3x3"
  top: "inception_3b/3x3"
}
layer {
  name: "inception_3b/5x5_reduce"
  type: "Convolution"
  bottom: "inception_3a/output"
  top: "inception_3b/5x5_reduce"
  param {
    lr_mult: 1
    decay_mult: 1
  }
  param {
    lr_mult: 2
    decay_mult: 0
  }
  convolution_param {
    num_output: 32
    kernel_size: 1
    weight_filler {
      type: "xavier"
      std: 0.2
    }
    bias_filler {
      type: "constant"
      value: 0.2
    }
  }
}
layer {
  name: "inception_3b/relu_5x5_reduce"
  type: "ReLU"
  bottom: "inception_3b/5x5_reduce"
  top: "inception_3b/5x5_reduce"
}
layer {
  name: "inception_3b/5x5"
  type: "Convolution"
  bottom: "inception_3b/5x5_reduce"
  top: "inception_3b/5x5"
  param {
    lr_mult: 1
    decay_mult: 1
  }
  param {
    lr_mult: 2
    decay_mult: 0
  }
  convolution_param {
    num_output: 96
    pad: 2
    kernel_size: 5
    weight_filler {
      type: "xavier"
      std: 0.03
    }
    bias_filler {
      type: "constant"
      value: 0.2
    }
  }
}
layer {
  name: "inception_3b/relu_5x5"
  type: "ReLU"
  bottom: "inception_3b/5x5"
  top: "inception_3b/5x5"
}
layer {
  name: "inception_3b/pool"
  type: "Pooling"
  bottom: "inception_3a/output"
  top: "inception_3b/pool"
  pooling_param {
    pool: MAX
    kernel_size: 3
    stride: 1
    pad: 1
  }
}
layer {
  name: "inception_3b/pool_proj"
  type: "Convolution"
  bottom: "inception_3b/pool"
  top: "inception_3b/pool_proj"
  param {
    lr_mult: 1
    decay_mult: 1
  }
  param {
    lr_mult: 2
    decay_mult: 0
  }
  convolution_param {
    num_output: 64
    kernel_size: 1
    weight_filler {
      type: "xavier"
      std: 0.1
    }
    bias_filler {
      type: "constant"
      value: 0.2
    }
  }
}
layer {
  name: "inception_3b/relu_pool_proj"
  type: "ReLU"
  bottom: "inception_3b/pool_proj"
  top: "inception_3b/pool_proj"
}
layer {
  name: "inception_3b/output"
  type: "Concat"
  bottom: "inception_3b/1x1"
  bottom: "inception_3b/3x3"
  bottom: "inception_3b/5x5"
  bottom: "inception_3b/pool_proj"
  top: "inception_3b/output"
}
layer {
  name: "pool3/3x3_s2"
  type: "Pooling"
  bottom: "inception_3b/output"
  top: "pool3/3x3_s2"
  pooling_param {
    pool: MAX
    kernel_size: 3
    stride: 2
  }
}
layer {
  name: "inception_4a/1x1"
  type: "Convolution"
  bottom: "pool3/3x3_s2"
  top: "inception_4a/1x1"
  param {
    lr_mult: 1
    decay_mult: 1
  }
  param {
    lr_mult: 2
    decay_mult: 0
  }
  convolution_param {
    num_output: 192
    kernel_size: 1
    weight_filler {
      type: "xavier"
      std: 0.03
    }
    bias_filler {
      type: "constant"
      value: 0.2
    }
  }
}
layer {
  name: "inception_4a/relu_1x1"
  type: "ReLU"
  bottom: "inception_4a/1x1"
  top: "inception_4a/1x1"
}
layer {
  name: "inception_4a/3x3_reduce"
  type: "Convolution"
  bottom: "pool3/3x3_s2"
  top: "inception_4a/3x3_reduce"
  param {
    lr_mult: 1
    decay_mult: 1
  }
  param {
    lr_mult: 2
    decay_mult: 0
  }
  convolution_param {
    num_output: 96
    kernel_size: 1
    weight_filler {
      type: "xavier"
      std: 0.09
    }
    bias_filler {
      type: "constant"
      value: 0.2
    }
  }
}
layer {
  name: "inception_4a/relu_3x3_reduce"
  type: "ReLU"
  bottom: "inception_4a/3x3_reduce"
  top: "inception_4a/3x3_reduce"
}
layer {
  name: "inception_4a/3x3"
  type: "Convolution"
  bottom: "inception_4a/3x3_reduce"
  top: "inception_4a/3x3"
  param {
    lr_mult: 1
    decay_mult: 1
  }
  param {
    lr_mult: 2
    decay_mult: 0
  }
  convolution_param {
    num_output: 208
    pad: 1
    kernel_size: 3
    weight_filler {
      type: "xavier"
      std: 0.03
    }
    bias_filler {
      type: "constant"
      value: 0.2
    }
  }
}
layer {
  name: "inception_4a/relu_3x3"
  type: "ReLU"
  bottom: "inception_4a/3x3"
  top: "inception_4a/3x3"
}
layer {
  name: "inception_4a/5x5_reduce"
  type: "Convolution"
  bottom: "pool3/3x3_s2"
  top: "inception_4a/5x5_reduce"
  param {
    lr_mult: 1
    decay_mult: 1
  }
  param {
    lr_mult: 2
    decay_mult: 0
  }
  convolution_param {
    num_output: 16
    kernel_size: 1
    weight_filler {
      type: "xavier"
      std: 0.2
    }
    bias_filler {
      type: "constant"
      value: 0.2
    }
  }
}
layer {
  name: "inception_4a/relu_5x5_reduce"
  type: "ReLU"
  bottom: "inception_4a/5x5_reduce"
  top: "inception_4a/5x5_reduce"
}
layer {
  name: "inception_4a/5x5"
  type: "Convolution"
  bottom: "inception_4a/5x5_reduce"
  top: "inception_4a/5x5"
  param {
    lr_mult: 1
    decay_mult: 1
  }
  param {
    lr_mult: 2
    decay_mult: 0
  }
  convolution_param {
    num_output: 48
    pad: 2
    kernel_size: 5
    weight_filler {
      type: "xavier"
      std: 0.03
    }
    bias_filler {
      type: "constant"
      value: 0.2
    }
  }
}
layer {
  name: "inception_4a/relu_5x5"
  type: "ReLU"
  bottom: "inception_4a/5x5"
  top: "inception_4a/5x5"
}
layer {
  name: "inception_4a/pool"
  type: "Pooling"
  bottom: "pool3/3x3_s2"
  top: "inception_4a/pool"
  pooling_param {
    pool: MAX
    kernel_size: 3
    stride: 1
    pad: 1
  }
}
layer {
  name: "inception_4a/pool_proj"
  type: "Convolution"
  bottom: "inception_4a/pool"
  top: "inception_4a/pool_proj"
  param {
    lr_mult: 1
    decay_mult: 1
  }
  param {
    lr_mult: 2
    decay_mult: 0
  }
  convolution_param {
    num_output: 64
    kernel_size: 1
    weight_filler {
      type: "xavier"
      std: 0.1
    }
    bias_filler {
      type: "constant"
      value: 0.2
    }
  }
}
layer {
  name: "inception_4a/relu_pool_proj"
  type: "ReLU"
  bottom: "inception_4a/pool_proj"
  top: "inception_4a/pool_proj"
}
layer {
  name: "inception_4a/output"
  type: "Concat"
  bottom: "inception_4a/1x1"
  bottom: "inception_4a/3x3"
  bottom: "inception_4a/5x5"
  bottom: "inception_4a/pool_proj"
  top: "inception_4a/output"
}
layer {
  name: "loss1/ave_pool"
  type: "Pooling"
  bottom: "inception_4a/output"
  top: "loss1/ave_pool"
  pooling_param {
    pool: AVE
    kernel_size: 5
    stride: 3
  }
}
layer {
  name: "loss1/conv"
  type: "Convolution"
  bottom: "loss1/ave_pool"
  top: "loss1/conv"
  param {
    lr_mult: 1
    decay_mult: 1
  }
  param {
    lr_mult: 2
    decay_mult: 0
  }
  convolution_param {
    num_output: 128
    kernel_size: 1
    weight_filler {
      type: "xavier"
      std: 0.08
    }
    bias_filler {
      type: "constant"
      value: 0.2
    }
  }
}
layer {
  name: "loss1/relu_conv"
  type: "ReLU"
  bottom: "loss1/conv"
  top: "loss1/conv"
}
layer {
  name: "loss1/fc"
  type: "InnerProduct"
  bottom: "loss1/conv"
  top: "loss1/fc"
  param {
    lr_mult: 1
    decay_mult: 1
  }
  param {
    lr_mult: 2
    decay_mult: 0
  }
  inner_product_param {
    num_output: 1024
    weight_filler {
      type: "xavier"
      std: 0.02
    }
    bias_filler {
      type: "constant"
      value: 0.2
    }
  }
}
layer {
  name: "loss1/relu_fc"
  type: "ReLU"
  bottom: "loss1/fc"
  top: "loss1/fc"
}
layer {
  name: "loss1/drop_fc"
  type: "Dropout"
  bottom: "loss1/fc"
  top: "loss1/fc"
  dropout_param {
    dropout_ratio: 0.7
  }
}
layer {
  name: "loss1/classifier_plantvillage"
  type: "InnerProduct"
  bottom: "loss1/fc"
  top: "loss1/classifier_plantvillage"
  param {
    lr_mult: 1
    decay_mult: 1
  }
  param {
    lr_mult: 2
    decay_mult: 0
  }
  inner_product_param {
    num_output: 38
    weight_filler {
      type: "xavier"
      std: 0.0009765625
    }
    bias_filler {
      type: "constant"
      value: 0
    }
  }
}
layer {
  name: "inception_4b/1x1"
  type: "Convolution"
  bottom: "inception_4a/output"
  top: "inception_4b/1x1"
  param {
    lr_mult: 1
    decay_mult: 1
  }
  param {
    lr_mult: 2
    decay_mult: 0
  }
  convolution_param {
    num_output: 160
    kernel_size: 1
    weight_filler {
      type: "xavier"
      std: 0.03
    }
    bias_filler {
      type: "constant"
      value: 0.2
    }
  }
}
layer {
  name: "inception_4b/relu_1x1"
  type: "ReLU"
  bottom: "inception_4b/1x1"
  top: "inception_4b/1x1"
}
layer {
  name: "inception_4b/3x3_reduce"
  type: "Convolution"
  bottom: "inception_4a/output"
  top: "inception_4b/3x3_reduce"
  param {
    lr_mult: 1
    decay_mult: 1
  }
  param {
    lr_mult: 2
    decay_mult: 0
  }
  convolution_param {
    num_output: 112
    kernel_size: 1
    weight_filler {
      type: "xavier"
      std: 0.09
    }
    bias_filler {
      type: "constant"
      value: 0.2
    }
  }
}
layer {
  name: "inception_4b/relu_3x3_reduce"
  type: "ReLU"
  bottom: "inception_4b/3x3_reduce"
  top: "inception_4b/3x3_reduce"
}
layer {
  name: "inception_4b/3x3"
  type: "Convolution"
  bottom: "inception_4b/3x3_reduce"
  top: "inception_4b/3x3"
  param {
    lr_mult: 1
    decay_mult: 1
  }
  param {
    lr_mult: 2
    decay_mult: 0
  }
  convolution_param {
    num_output: 224
    pad: 1
    kernel_size: 3
    weight_filler {
      type: "xavier"
      std: 0.03
    }
    bias_filler {
      type: "constant"
      value: 0.2
    }
  }
}
layer {
  name: "inception_4b/relu_3x3"
  type: "ReLU"
  bottom: "inception_4b/3x3"
  top: "inception_4b/3x3"
}
layer {
  name: "inception_4b/5x5_reduce"
  type: "Convolution"
  bottom: "inception_4a/output"
  top: "inception_4b/5x5_reduce"
  param {
    lr_mult: 1
    decay_mult: 1
  }
  param {
    lr_mult: 2
    decay_mult: 0
  }
  convolution_param {
    num_output: 24
    kernel_size: 1
    weight_filler {
      type: "xavier"
      std: 0.2
    }
    bias_filler {
      type: "constant"
      value: 0.2
    }
  }
}
layer {
  name: "inception_4b/relu_5x5_reduce"
  type: "ReLU"
  bottom: "inception_4b/5x5_reduce"
  top: "inception_4b/5x5_reduce"
}
layer {
  name: "inception_4b/5x5"
  type: "Convolution"
  bottom: "inception_4b/5x5_reduce"
  top: "inception_4b/5x5"
  param {
    lr_mult: 1
    decay_mult: 1
  }
  param {
    lr_mult: 2
    decay_mult: 0
  }
  convolution_param {
    num_output: 64
    pad: 2
    kernel_size: 5
    weight_filler {
      type: "xavier"
      std: 0.03
    }
    bias_filler {
      type: "constant"
      value: 0.2
    }
  }
}
layer {
  name: "inception_4b/relu_5x5"
  type: "ReLU"
  bottom: "inception_4b/5x5"
  top: "inception_4b/5x5"
}
layer {
  name: "inception_4b/pool"
  type: "Pooling"
  bottom: "inception_4a/output"
  top: "inception_4b/pool"
  pooling_param {
    pool: MAX
    kernel_size: 3
    stride: 1
    pad: 1
  }
}
layer {
  name: "inception_4b/pool_proj"
  type: "Convolution"
  bottom: "inception_4b/pool"
  top: "inception_4b/pool_proj"
  param {
    lr_mult: 1
    decay_mult: 1
  }
  param {
    lr_mult: 2
    decay_mult: 0
  }
  convolution_param {
    num_output: 64
    kernel_size: 1
    weight_filler {
      type: "xavier"
      std: 0.1
    }
    bias_filler {
      type: "constant"
      value: 0.2
    }
  }
}
layer {
  name: "inception_4b/relu_pool_proj"
  type: "ReLU"
  bottom: "inception_4b/pool_proj"
  top: "inception_4b/pool_proj"
}
layer {
  name: "inception_4b/output"
  type: "Concat"
  bottom: "inception_4b/1x1"
  bottom: "inception_4b/3x3"
  bottom: "inception_4b/5x5"
  bottom: "inception_4b/pool_proj"
  top: "inception_4b/output"
}
layer {
  name: "inception_4c/1x1"
  type: "Convolution"
  bottom: "inception_4b/output"
  top: "inception_4c/1x1"
  param {
    lr_mult: 1
    decay_mult: 1
  }
  param {
    lr_mult: 2
    decay_mult: 0
  }
  convolution_param {
    num_output: 128
    kernel_size: 1
    weight_filler {
      type: "xavier"
      std: 0.03
    }
    bias_filler {
      type: "constant"
      value: 0.2
    }
  }
}
layer {
  name: "inception_4c/relu_1x1"
  type: "ReLU"
  bottom: "inception_4c/1x1"
  top: "inception_4c/1x1"
}
layer {
  name: "inception_4c/3x3_reduce"
  type: "Convolution"
  bottom: "inception_4b/output"
  top: "inception_4c/3x3_reduce"
  param {
    lr_mult: 1
    decay_mult: 1
  }
  param {
    lr_mult: 2
    decay_mult: 0
  }
  convolution_param {
    num_output: 128
    kernel_size: 1
    weight_filler {
      type: "xavier"
      std: 0.09
    }
    bias_filler {
      type: "constant"
      value: 0.2
    }
  }
}
layer {
  name: "inception_4c/relu_3x3_reduce"
  type: "ReLU"
  bottom: "inception_4c/3x3_reduce"
  top: "inception_4c/3x3_reduce"
}
layer {
  name: "inception_4c/3x3"
  type: "Convolution"
  bottom: "inception_4c/3x3_reduce"
  top: "inception_4c/3x3"
  param {
    lr_mult: 1
    decay_mult: 1
  }
  param {
    lr_mult: 2
    decay_mult: 0
  }
  convolution_param {
    num_output: 256
    pad: 1
    kernel_size: 3
    weight_filler {
      type: "xavier"
      std: 0.03
    }
    bias_filler {
      type: "constant"
      value: 0.2
    }
  }
}
layer {
  name: "inception_4c/relu_3x3"
  type: "ReLU"
  bottom: "inception_4c/3x3"
  top: "inception_4c/3x3"
}
layer {
  name: "inception_4c/5x5_reduce"
  type: "Convolution"
  bottom: "inception_4b/output"
  top: "inception_4c/5x5_reduce"
  param {
    lr_mult: 1
    decay_mult: 1
  }
  param {
    lr_mult: 2
    decay_mult: 0
  }
  convolution_param {
    num_output: 24
    kernel_size: 1
    weight_filler {
      type: "xavier"
      std: 0.2
    }
    bias_filler {
      type: "constant"
      value: 0.2
    }
  }
}
layer {
  name: "inception_4c/relu_5x5_reduce"
  type: "ReLU"
  bottom: "inception_4c/5x5_reduce"
  top: "inception_4c/5x5_reduce"
}
layer {
  name: "inception_4c/5x5"
  type: "Convolution"
  bottom: "inception_4c/5x5_reduce"
  top: "inception_4c/5x5"
  param {
    lr_mult: 1
    decay_mult: 1
  }
  param {
    lr_mult: 2
    decay_mult: 0
  }
  convolution_param {
    num_output: 64
    pad: 2
    kernel_size: 5
    weight_filler {
      type: "xavier"
      std: 0.03
    }
    bias_filler {
      type: "constant"
      value: 0.2
    }
  }
}
layer {
  name: "inception_4c/relu_5x5"
  type: "ReLU"
  bottom: "inception_4c/5x5"
  top: "inception_4c/5x5"
}
layer {
  name: "inception_4c/pool"
  type: "Pooling"
  bottom: "inception_4b/output"
  top: "inception_4c/pool"
  pooling_param {
    pool: MAX
    kernel_size: 3
    stride: 1
    pad: 1
  }
}
layer {
  name: "inception_4c/pool_proj"
  type: "Convolution"
  bottom: "inception_4c/pool"
  top: "inception_4c/pool_proj"
  param {
    lr_mult: 1
    decay_mult: 1
  }
  param {
    lr_mult: 2
    decay_mult: 0
  }
  convolution_param {
    num_output: 64
    kernel_size: 1
    weight_filler {
      type: "xavier"
      std: 0.1
    }
    bias_filler {
      type: "constant"
      value: 0.2
    }
  }
}
layer {
  name: "inception_4c/relu_pool_proj"
  type: "ReLU"
  bottom: "inception_4c/pool_proj"
  top: "inception_4c/pool_proj"
}
layer {
  name: "inception_4c/output"
  type: "Concat"
  bottom: "inception_4c/1x1"
  bottom: "inception_4c/3x3"
  bottom: "inception_4c/5x5"
  bottom: "inception_4c/pool_proj"
  top: "inception_4c/output"
}
layer {
  name: "inception_4d/1x1"
  type: "Convolution"
  bottom: "inception_4c/output"
  top: "inception_4d/1x1"
  param {
    lr_mult: 1
    decay_mult: 1
  }
  param {
    lr_mult: 2
    decay_mult: 0
  }
  convolution_param {
    num_output: 112
    kernel_size: 1
    weight_filler {
      type: "xavier"
      std: 0.03
    }
    bias_filler {
      type: "constant"
      value: 0.2
    }
  }
}
layer {
  name: "inception_4d/relu_1x1"
  type: "ReLU"
  bottom: "inception_4d/1x1"
  top: "inception_4d/1x1"
}
layer {
  name: "inception_4d/3x3_reduce"
  type: "Convolution"
  bottom: "inception_4c/output"
  top: "inception_4d/3x3_reduce"
  param {
    lr_mult: 1
    decay_mult: 1
  }
  param {
    lr_mult: 2
    decay_mult: 0
  }
  convolution_param {
    num_output: 144
    kernel_size: 1
    weight_filler {
      type: "xavier"
      std: 0.09
    }
    bias_filler {
      type: "constant"
      value: 0.2
    }
  }
}
layer {
  name: "inception_4d/relu_3x3_reduce"
  type: "ReLU"
  bottom: "inception_4d/3x3_reduce"
  top: "inception_4d/3x3_reduce"
}
layer {
  name: "inception_4d/3x3"
  type: "Convolution"
  bottom: "inception_4d/3x3_reduce"
  top: "inception_4d/3x3"
  param {
    lr_mult: 1
    decay_mult: 1
  }
  param {
    lr_mult: 2
    decay_mult: 0
  }
  convolution_param {
    num_output: 288
    pad: 1
    kernel_size: 3
    weight_filler {
      type: "xavier"
      std: 0.03
    }
    bias_filler {
      type: "constant"
      value: 0.2
    }
  }
}
layer {
  name: "inception_4d/relu_3x3"
  type: "ReLU"
  bottom: "inception_4d/3x3"
  top: "inception_4d/3x3"
}
layer {
  name: "inception_4d/5x5_reduce"
  type: "Convolution"
  bottom: "inception_4c/output"
  top: "inception_4d/5x5_reduce"
  param {
    lr_mult: 1
    decay_mult: 1
  }
  param {
    lr_mult: 2
    decay_mult: 0
  }
  convolution_param {
    num_output: 32
    kernel_size: 1
    weight_filler {
      type: "xavier"
      std: 0.2
    }
    bias_filler {
      type: "constant"
      value: 0.2
    }
  }
}
layer {
  name: "inception_4d/relu_5x5_reduce"
  type: "ReLU"
  bottom: "inception_4d/5x5_reduce"
  top: "inception_4d/5x5_reduce"
}
layer {
  name: "inception_4d/5x5"
  type: "Convolution"
  bottom: "inception_4d/5x5_reduce"
  top: "inception_4d/5x5"
  param {
    lr_mult: 1
    decay_mult: 1
  }
  param {
    lr_mult: 2
    decay_mult: 0
  }
  convolution_param {
    num_output: 64
    pad: 2
    kernel_size: 5
    weight_filler {
      type: "xavier"
      std: 0.03
    }
    bias_filler {
      type: "constant"
      value: 0.2
    }
  }
}
layer {
  name: "inception_4d/relu_5x5"
  type: "ReLU"
  bottom: "inception_4d/5x5"
  top: "inception_4d/5x5"
}
layer {
  name: "inception_4d/pool"
  type: "Pooling"
  bottom: "inception_4c/output"
  top: "inception_4d/pool"
  pooling_param {
    pool: MAX
    kernel_size: 3
    stride: 1
    pad: 1
  }
}
layer {
  name: "inception_4d/pool_proj"
  type: "Convolution"
  bottom: "inception_4d/pool"
  top: "inception_4d/pool_proj"
  param {
    lr_mult: 1
    decay_mult: 1
  }
  param {
    lr_mult: 2
    decay_mult: 0
  }
  convolution_param {
    num_output: 64
    kernel_size: 1
    weight_filler {
      type: "xavier"
      std: 0.1
    }
    bias_filler {
      type: "constant"
      value: 0.2
    }
  }
}
layer {
  name: "inception_4d/relu_pool_proj"
  type: "ReLU"
  bottom: "inception_4d/pool_proj"
  top: "inception_4d/pool_proj"
}
layer {
  name: "inception_4d/output"
  type: "Concat"
  bottom: "inception_4d/1x1"
  bottom: "inception_4d/3x3"
  bottom: "inception_4d/5x5"
  bottom: "inception_4d/pool_proj"
  top: "inception_4d/output"
}
layer {
  name: "loss2/ave_pool"
  type: "Pooling"
  bottom: "inception_4d/output"
  top: "loss2/ave_pool"
  pooling_param {
    pool: AVE
    kernel_size: 5
    stride: 3
  }
}
layer {
  name: "loss2/conv"
  type: "Convolution"
  bottom: "loss2/ave_pool"
  top: "loss2/conv"
  param {
    lr_mult: 1
    decay_mult: 1
  }
  param {
    lr_mult: 2
    decay_mult: 0
  }
  convolution_param {
    num_output: 128
    kernel_size: 1
    weight_filler {
      type: "xavier"
      std: 0.08
    }
    bias_filler {
      type: "constant"
      value: 0.2
    }
  }
}
layer {
  name: "loss2/relu_conv"
  type: "ReLU"
  bottom: "loss2/conv"
  top: "loss2/conv"
}
layer {
  name: "loss2/fc"
  type: "InnerProduct"
  bottom: "loss2/conv"
  top: "loss2/fc"
  param {
    lr_mult: 1
    decay_mult: 1
  }
  param {
    lr_mult: 2
    decay_mult: 0
  }
  inner_product_param {
    num_output: 1024
    weight_filler {
      type: "xavier"
      std: 0.02
    }
    bias_filler {
      type: "constant"
      value: 0.2
    }
  }
}
layer {
  name: "loss2/relu_fc"
  type: "ReLU"
  bottom: "loss2/fc"
  top: "loss2/fc"
}
layer {
  name: "loss2/drop_fc"
  type: "Dropout"
  bottom: "loss2/fc"
  top: "loss2/fc"
  dropout_param {
    dropout_ratio: 0.7
  }
}
layer {
  name: "loss2/classifier_plantvillage"
  type: "InnerProduct"
  bottom: "loss2/fc"
  top: "loss2/classifier_plantvillage"
  param {
    lr_mult: 1
    decay_mult: 1
  }
  param {
    lr_mult: 2
    decay_mult: 0
  }
  inner_product_param {
    num_output: 38
    weight_filler {
      type: "xavier"
      std: 0.0009765625
    }
    bias_filler {
      type: "constant"
      value: 0
    }
  }
}
layer {
  name: "inception_4e/1x1"
  type: "Convolution"
  bottom: "inception_4d/output"
  top: "inception_4e/1x1"
  param {
    lr_mult: 1
    decay_mult: 1
  }
  param {
    lr_mult: 2
    decay_mult: 0
  }
  convolution_param {
    num_output: 256
    kernel_size: 1
    weight_filler {
      type: "xavier"
      std: 0.03
    }
    bias_filler {
      type: "constant"
      value: 0.2
    }
  }
}
layer {
  name: "inception_4e/relu_1x1"
  type: "ReLU"
  bottom: "inception_4e/1x1"
  top: "inception_4e/1x1"
}
layer {
  name: "inception_4e/3x3_reduce"
  type: "Convolution"
  bottom: "inception_4d/output"
  top: "inception_4e/3x3_reduce"
  param {
    lr_mult: 1
    decay_mult: 1
  }
  param {
    lr_mult: 2
    decay_mult: 0
  }
  convolution_param {
    num_output: 160
    kernel_size: 1
    weight_filler {
      type: "xavier"
      std: 0.09
    }
    bias_filler {
      type: "constant"
      value: 0.2
    }
  }
}
layer {
  name: "inception_4e/relu_3x3_reduce"
  type: "ReLU"
  bottom: "inception_4e/3x3_reduce"
  top: "inception_4e/3x3_reduce"
}
layer {
  name: "inception_4e/3x3"
  type: "Convolution"
  bottom: "inception_4e/3x3_reduce"
  top: "inception_4e/3x3"
  param {
    lr_mult: 1
    decay_mult: 1
  }
  param {
    lr_mult: 2
    decay_mult: 0
  }
  convolution_param {
    num_output: 320
    pad: 1
    kernel_size: 3
    weight_filler {
      type: "xavier"
      std: 0.03
    }
    bias_filler {
      type: "constant"
      value: 0.2
    }
  }
}
layer {
  name: "inception_4e/relu_3x3"
  type: "ReLU"
  bottom: "inception_4e/3x3"
  top: "inception_4e/3x3"
}
layer {
  name: "inception_4e/5x5_reduce"
  type: "Convolution"
  bottom: "inception_4d/output"
  top: "inception_4e/5x5_reduce"
  param {
    lr_mult: 1
    decay_mult: 1
  }
  param {
    lr_mult: 2
    decay_mult: 0
  }
  convolution_param {
    num_output: 32
    kernel_size: 1
    weight_filler {
      type: "xavier"
      std: 0.2
    }
    bias_filler {
      type: "constant"
      value: 0.2
    }
  }
}
layer {
  name: "inception_4e/relu_5x5_reduce"
  type: "ReLU"
  bottom: "inception_4e/5x5_reduce"
  top: "inception_4e/5x5_reduce"
}
layer {
  name: "inception_4e/5x5"
  type: "Convolution"
  bottom: "inception_4e/5x5_reduce"
  top: "inception_4e/
I0403 19:49:25.088899 26018 layer_factory.hpp:77] Creating layer data
I0403 19:49:25.089546 26018 net.cpp:91] Creating Layer data
I0403 19:49:25.089582 26018 net.cpp:399] data -> data
I0403 19:49:25.089654 26018 net.cpp:399] data -> label
I0403 19:49:25.089701 26018 data_transformer.cpp:25] Loading mean file from: /home/mohanty/data/final_dataset/lmdb/grayscale-80-20/mean.binaryproto
I0403 19:49:25.091056 26020 db_lmdb.cpp:38] Opened lmdb /home/mohanty/data/final_dataset/lmdb/grayscale-80-20/test_db
I0403 19:49:25.105836 26018 data_layer.cpp:41] output data size: 24,3,224,224
I0403 19:49:25.134905 26018 net.cpp:141] Setting up data
I0403 19:49:25.135017 26018 net.cpp:148] Top shape: 24 3 224 224 (3612672)
I0403 19:49:25.135042 26018 net.cpp:148] Top shape: 24 (24)
I0403 19:49:25.135059 26018 net.cpp:156] Memory required for data: 14450784
I0403 19:49:25.135094 26018 layer_factory.hpp:77] Creating layer label_data_1_split
I0403 19:49:25.135128 26018 net.cpp:91] Creating Layer label_data_1_split
I0403 19:49:25.135150 26018 net.cpp:425] label_data_1_split <- label
I0403 19:49:25.135190 26018 net.cpp:399] label_data_1_split -> label_data_1_split_0
I0403 19:49:25.135223 26018 net.cpp:399] label_data_1_split -> label_data_1_split_1
I0403 19:49:25.135247 26018 net.cpp:399] label_data_1_split -> label_data_1_split_2
I0403 19:49:25.135269 26018 net.cpp:399] label_data_1_split -> label_data_1_split_3
I0403 19:49:25.135295 26018 net.cpp:399] label_data_1_split -> label_data_1_split_4
I0403 19:49:25.135321 26018 net.cpp:399] label_data_1_split -> label_data_1_split_5
I0403 19:49:25.135344 26018 net.cpp:399] label_data_1_split -> label_data_1_split_6
I0403 19:49:25.135367 26018 net.cpp:399] label_data_1_split -> label_data_1_split_7
I0403 19:49:25.135388 26018 net.cpp:399] label_data_1_split -> label_data_1_split_8
I0403 19:49:25.135409 26018 net.cpp:399] label_data_1_split -> label_data_1_split_9
I0403 19:49:25.135530 26018 net.cpp:141] Setting up label_data_1_split
I0403 19:49:25.135557 26018 net.cpp:148] Top shape: 24 (24)
I0403 19:49:25.135577 26018 net.cpp:148] Top shape: 24 (24)
I0403 19:49:25.135594 26018 net.cpp:148] Top shape: 24 (24)
I0403 19:49:25.135612 26018 net.cpp:148] Top shape: 24 (24)
I0403 19:49:25.135627 26018 net.cpp:148] Top shape: 24 (24)
I0403 19:49:25.135643 26018 net.cpp:148] Top shape: 24 (24)
I0403 19:49:25.135661 26018 net.cpp:148] Top shape: 24 (24)
I0403 19:49:25.135682 26018 net.cpp:148] Top shape: 24 (24)
I0403 19:49:25.135699 26018 net.cpp:148] Top shape: 24 (24)
I0403 19:49:25.135715 26018 net.cpp:148] Top shape: 24 (24)
I0403 19:49:25.135763 26018 net.cpp:156] Memory required for data: 14451744
I0403 19:49:25.135782 26018 layer_factory.hpp:77] Creating layer conv1/7x7_s2
I0403 19:49:25.135821 26018 net.cpp:91] Creating Layer conv1/7x7_s2
I0403 19:49:25.135843 26018 net.cpp:425] conv1/7x7_s2 <- data
I0403 19:49:25.135865 26018 net.cpp:399] conv1/7x7_s2 -> conv1/7x7_s2
I0403 19:49:25.282384 26018 net.cpp:141] Setting up conv1/7x7_s2
I0403 19:49:25.282505 26018 net.cpp:148] Top shape: 24 64 112 112 (19267584)
I0403 19:49:25.282524 26018 net.cpp:156] Memory required for data: 91522080
I0403 19:49:25.282567 26018 layer_factory.hpp:77] Creating layer conv1/relu_7x7
I0403 19:49:25.282600 26018 net.cpp:91] Creating Layer conv1/relu_7x7
I0403 19:49:25.282624 26018 net.cpp:425] conv1/relu_7x7 <- conv1/7x7_s2
I0403 19:49:25.282644 26018 net.cpp:386] conv1/relu_7x7 -> conv1/7x7_s2 (in-place)
I0403 19:49:25.282950 26018 net.cpp:141] Setting up conv1/relu_7x7
I0403 19:49:25.282981 26018 net.cpp:148] Top shape: 24 64 112 112 (19267584)
I0403 19:49:25.282999 26018 net.cpp:156] Memory required for data: 168592416
I0403 19:49:25.283015 26018 layer_factory.hpp:77] Creating layer pool1/3x3_s2
I0403 19:49:25.283046 26018 net.cpp:91] Creating Layer pool1/3x3_s2
I0403 19:49:25.283067 26018 net.cpp:425] pool1/3x3_s2 <- conv1/7x7_s2
I0403 19:49:25.283087 26018 net.cpp:399] pool1/3x3_s2 -> pool1/3x3_s2
I0403 19:49:25.283170 26018 net.cpp:141] Setting up pool1/3x3_s2
I0403 19:49:25.283200 26018 net.cpp:148] Top shape: 24 64 56 56 (4816896)
I0403 19:49:25.283216 26018 net.cpp:156] Memory required for data: 187860000
I0403 19:49:25.283232 26018 layer_factory.hpp:77] Creating layer pool1/norm1
I0403 19:49:25.283260 26018 net.cpp:91] Creating Layer pool1/norm1
I0403 19:49:25.283282 26018 net.cpp:425] pool1/norm1 <- pool1/3x3_s2
I0403 19:49:25.283308 26018 net.cpp:399] pool1/norm1 -> pool1/norm1
I0403 19:49:25.283596 26018 net.cpp:141] Setting up pool1/norm1
I0403 19:49:25.283627 26018 net.cpp:148] Top shape: 24 64 56 56 (4816896)
I0403 19:49:25.283643 26018 net.cpp:156] Memory required for data: 207127584
I0403 19:49:25.283659 26018 layer_factory.hpp:77] Creating layer conv2/3x3_reduce
I0403 19:49:25.283689 26018 net.cpp:91] Creating Layer conv2/3x3_reduce
I0403 19:49:25.283707 26018 net.cpp:425] conv2/3x3_reduce <- pool1/norm1
I0403 19:49:25.283727 26018 net.cpp:399] conv2/3x3_reduce -> conv2/3x3_reduce
I0403 19:49:25.285096 26018 net.cpp:141] Setting up conv2/3x3_reduce
I0403 19:49:25.285128 26018 net.cpp:148] Top shape: 24 64 56 56 (4816896)
I0403 19:49:25.285148 26018 net.cpp:156] Memory required for data: 226395168
I0403 19:49:25.285169 26018 layer_factory.hpp:77] Creating layer conv2/relu_3x3_reduce
I0403 19:49:25.285188 26018 net.cpp:91] Creating Layer conv2/relu_3x3_reduce
I0403 19:49:25.285207 26018 net.cpp:425] conv2/relu_3x3_reduce <- conv2/3x3_reduce
I0403 19:49:25.285225 26018 net.cpp:386] conv2/relu_3x3_reduce -> conv2/3x3_reduce (in-place)
I0403 19:49:25.285475 26018 net.cpp:141] Setting up conv2/relu_3x3_reduce
I0403 19:49:25.285503 26018 net.cpp:148] Top shape: 24 64 56 56 (4816896)
I0403 19:49:25.285521 26018 net.cpp:156] Memory required for data: 245662752
I0403 19:49:25.285537 26018 layer_factory.hpp:77] Creating layer conv2/3x3
I0403 19:49:25.285560 26018 net.cpp:91] Creating Layer conv2/3x3
I0403 19:49:25.285581 26018 net.cpp:425] conv2/3x3 <- conv2/3x3_reduce
I0403 19:49:25.285603 26018 net.cpp:399] conv2/3x3 -> conv2/3x3
I0403 19:49:25.287854 26018 net.cpp:141] Setting up conv2/3x3
I0403 19:49:25.287888 26018 net.cpp:148] Top shape: 24 192 56 56 (14450688)
I0403 19:49:25.287907 26018 net.cpp:156] Memory required for data: 303465504
I0403 19:49:25.287930 26018 layer_factory.hpp:77] Creating layer conv2/relu_3x3
I0403 19:49:25.287952 26018 net.cpp:91] Creating Layer conv2/relu_3x3
I0403 19:49:25.287969 26018 net.cpp:425] conv2/relu_3x3 <- conv2/3x3
I0403 19:49:25.287987 26018 net.cpp:386] conv2/relu_3x3 -> conv2/3x3 (in-place)
I0403 19:49:25.288146 26018 net.cpp:141] Setting up conv2/relu_3x3
I0403 19:49:25.288174 26018 net.cpp:148] Top shape: 24 192 56 56 (14450688)
I0403 19:49:25.288224 26018 net.cpp:156] Memory required for data: 361268256
I0403 19:49:25.288244 26018 layer_factory.hpp:77] Creating layer conv2/norm2
I0403 19:49:25.288264 26018 net.cpp:91] Creating Layer conv2/norm2
I0403 19:49:25.288280 26018 net.cpp:425] conv2/norm2 <- conv2/3x3
I0403 19:49:25.288303 26018 net.cpp:399] conv2/norm2 -> conv2/norm2
I0403 19:49:25.288585 26018 net.cpp:141] Setting up conv2/norm2
I0403 19:49:25.288619 26018 net.cpp:148] Top shape: 24 192 56 56 (14450688)
I0403 19:49:25.288635 26018 net.cpp:156] Memory required for data: 419071008
I0403 19:49:25.288652 26018 layer_factory.hpp:77] Creating layer pool2/3x3_s2
I0403 19:49:25.288672 26018 net.cpp:91] Creating Layer pool2/3x3_s2
I0403 19:49:25.288689 26018 net.cpp:425] pool2/3x3_s2 <- conv2/norm2
I0403 19:49:25.288709 26018 net.cpp:399] pool2/3x3_s2 -> pool2/3x3_s2
I0403 19:49:25.288759 26018 net.cpp:141] Setting up pool2/3x3_s2
I0403 19:49:25.288789 26018 net.cpp:148] Top shape: 24 192 28 28 (3612672)
I0403 19:49:25.288807 26018 net.cpp:156] Memory required for data: 433521696
I0403 19:49:25.288825 26018 layer_factory.hpp:77] Creating layer pool2/3x3_s2_pool2/3x3_s2_0_split
I0403 19:49:25.288843 26018 net.cpp:91] Creating Layer pool2/3x3_s2_pool2/3x3_s2_0_split
I0403 19:49:25.288859 26018 net.cpp:425] pool2/3x3_s2_pool2/3x3_s2_0_split <- pool2/3x3_s2
I0403 19:49:25.288878 26018 net.cpp:399] pool2/3x3_s2_pool2/3x3_s2_0_split -> pool2/3x3_s2_pool2/3x3_s2_0_split_0
I0403 19:49:25.288898 26018 net.cpp:399] pool2/3x3_s2_pool2/3x3_s2_0_split -> pool2/3x3_s2_pool2/3x3_s2_0_split_1
I0403 19:49:25.288920 26018 net.cpp:399] pool2/3x3_s2_pool2/3x3_s2_0_split -> pool2/3x3_s2_pool2/3x3_s2_0_split_2
I0403 19:49:25.288943 26018 net.cpp:399] pool2/3x3_s2_pool2/3x3_s2_0_split -> pool2/3x3_s2_pool2/3x3_s2_0_split_3
I0403 19:49:25.289008 26018 net.cpp:141] Setting up pool2/3x3_s2_pool2/3x3_s2_0_split
I0403 19:49:25.289036 26018 net.cpp:148] Top shape: 24 192 28 28 (3612672)
I0403 19:49:25.289053 26018 net.cpp:148] Top shape: 24 192 28 28 (3612672)
I0403 19:49:25.289069 26018 net.cpp:148] Top shape: 24 192 28 28 (3612672)
I0403 19:49:25.289084 26018 net.cpp:148] Top shape: 24 192 28 28 (3612672)
I0403 19:49:25.289099 26018 net.cpp:156] Memory required for data: 491324448
I0403 19:49:25.289115 26018 layer_factory.hpp:77] Creating layer inception_3a/1x1
I0403 19:49:25.289137 26018 net.cpp:91] Creating Layer inception_3a/1x1
I0403 19:49:25.289155 26018 net.cpp:425] inception_3a/1x1 <- pool2/3x3_s2_pool2/3x3_s2_0_split_0
I0403 19:49:25.289175 26018 net.cpp:399] inception_3a/1x1 -> inception_3a/1x1
I0403 19:49:25.290673 26018 net.cpp:141] Setting up inception_3a/1x1
I0403 19:49:25.290706 26018 net.cpp:148] Top shape: 24 64 28 28 (1204224)
I0403 19:49:25.290724 26018 net.cpp:156] Memory required for data: 496141344
I0403 19:49:25.290742 26018 layer_factory.hpp:77] Creating layer inception_3a/relu_1x1
I0403 19:49:25.290766 26018 net.cpp:91] Creating Layer inception_3a/relu_1x1
I0403 19:49:25.290786 26018 net.cpp:425] inception_3a/relu_1x1 <- inception_3a/1x1
I0403 19:49:25.290807 26018 net.cpp:386] inception_3a/relu_1x1 -> inception_3a/1x1 (in-place)
I0403 19:49:25.290980 26018 net.cpp:141] Setting up inception_3a/relu_1x1
I0403 19:49:25.291014 26018 net.cpp:148] Top shape: 24 64 28 28 (1204224)
I0403 19:49:25.291033 26018 net.cpp:156] Memory required for data: 500958240
I0403 19:49:25.291048 26018 layer_factory.hpp:77] Creating layer inception_3a/3x3_reduce
I0403 19:49:25.291072 26018 net.cpp:91] Creating Layer inception_3a/3x3_reduce
I0403 19:49:25.291091 26018 net.cpp:425] inception_3a/3x3_reduce <- pool2/3x3_s2_pool2/3x3_s2_0_split_1
I0403 19:49:25.291112 26018 net.cpp:399] inception_3a/3x3_reduce -> inception_3a/3x3_reduce
I0403 19:49:25.292784 26018 net.cpp:141] Setting up inception_3a/3x3_reduce
I0403 19:49:25.292819 26018 net.cpp:148] Top shape: 24 96 28 28 (1806336)
I0403 19:49:25.292837 26018 net.cpp:156] Memory required for data: 508183584
I0403 19:49:25.292860 26018 layer_factory.hpp:77] Creating layer inception_3a/relu_3x3_reduce
I0403 19:49:25.292901 26018 net.cpp:91] Creating Layer inception_3a/relu_3x3_reduce
I0403 19:49:25.292923 26018 net.cpp:425] inception_3a/relu_3x3_reduce <- inception_3a/3x3_reduce
I0403 19:49:25.292946 26018 net.cpp:386] inception_3a/relu_3x3_reduce -> inception_3a/3x3_reduce (in-place)
I0403 19:49:25.293128 26018 net.cpp:141] Setting up inception_3a/relu_3x3_reduce
I0403 19:49:25.293159 26018 net.cpp:148] Top shape: 24 96 28 28 (1806336)
I0403 19:49:25.293174 26018 net.cpp:156] Memory required for data: 515408928
I0403 19:49:25.293190 26018 layer_factory.hpp:77] Creating layer inception_3a/3x3
I0403 19:49:25.293215 26018 net.cpp:91] Creating Layer inception_3a/3x3
I0403 19:49:25.293234 26018 net.cpp:425] inception_3a/3x3 <- inception_3a/3x3_reduce
I0403 19:49:25.293258 26018 net.cpp:399] inception_3a/3x3 -> inception_3a/3x3
I0403 19:49:25.294903 26018 net.cpp:141] Setting up inception_3a/3x3
I0403 19:49:25.294940 26018 net.cpp:148] Top shape: 24 128 28 28 (2408448)
I0403 19:49:25.294960 26018 net.cpp:156] Memory required for data: 525042720
I0403 19:49:25.294981 26018 layer_factory.hpp:77] Creating layer inception_3a/relu_3x3
I0403 19:49:25.295001 26018 net.cpp:91] Creating Layer inception_3a/relu_3x3
I0403 19:49:25.295019 26018 net.cpp:425] inception_3a/relu_3x3 <- inception_3a/3x3
I0403 19:49:25.295038 26018 net.cpp:386] inception_3a/relu_3x3 -> inception_3a/3x3 (in-place)
I0403 19:49:25.295322 26018 net.cpp:141] Setting up inception_3a/relu_3x3
I0403 19:49:25.295356 26018 net.cpp:148] Top shape: 24 128 28 28 (2408448)
I0403 19:49:25.295375 26018 net.cpp:156] Memory required for data: 534676512
I0403 19:49:25.295392 26018 layer_factory.hpp:77] Creating layer inception_3a/5x5_reduce
I0403 19:49:25.295416 26018 net.cpp:91] Creating Layer inception_3a/5x5_reduce
I0403 19:49:25.295438 26018 net.cpp:425] inception_3a/5x5_reduce <- pool2/3x3_s2_pool2/3x3_s2_0_split_2
I0403 19:49:25.295459 26018 net.cpp:399] inception_3a/5x5_reduce -> inception_3a/5x5_reduce
I0403 19:49:25.296422 26018 net.cpp:141] Setting up inception_3a/5x5_reduce
I0403 19:49:25.296458 26018 net.cpp:148] Top shape: 24 16 28 28 (301056)
I0403 19:49:25.296478 26018 net.cpp:156] Memory required for data: 535880736
I0403 19:49:25.296499 26018 layer_factory.hpp:77] Creating layer inception_3a/relu_5x5_reduce
I0403 19:49:25.296519 26018 net.cpp:91] Creating Layer inception_3a/relu_5x5_reduce
I0403 19:49:25.296536 26018 net.cpp:425] inception_3a/relu_5x5_reduce <- inception_3a/5x5_reduce
I0403 19:49:25.296560 26018 net.cpp:386] inception_3a/relu_5x5_reduce -> inception_3a/5x5_reduce (in-place)
I0403 19:49:25.296838 26018 net.cpp:141] Setting up inception_3a/relu_5x5_reduce
I0403 19:49:25.296871 26018 net.cpp:148] Top shape: 24 16 28 28 (301056)
I0403 19:49:25.296890 26018 net.cpp:156] Memory required for data: 537084960
I0403 19:49:25.296906 26018 layer_factory.hpp:77] Creating layer inception_3a/5x5
I0403 19:49:25.296932 26018 net.cpp:91] Creating Layer inception_3a/5x5
I0403 19:49:25.296952 26018 net.cpp:425] inception_3a/5x5 <- inception_3a/5x5_reduce
I0403 19:49:25.296974 26018 net.cpp:399] inception_3a/5x5 -> inception_3a/5x5
I0403 19:49:25.297976 26018 net.cpp:141] Setting up inception_3a/5x5
I0403 19:49:25.298009 26018 net.cpp:148] Top shape: 24 32 28 28 (602112)
I0403 19:49:25.298029 26018 net.cpp:156] Memory required for data: 539493408
I0403 19:49:25.298049 26018 layer_factory.hpp:77] Creating layer inception_3a/relu_5x5
I0403 19:49:25.298070 26018 net.cpp:91] Creating Layer inception_3a/relu_5x5
I0403 19:49:25.298089 26018 net.cpp:425] inception_3a/relu_5x5 <- inception_3a/5x5
I0403 19:49:25.298107 26018 net.cpp:386] inception_3a/relu_5x5 -> inception_3a/5x5 (in-place)
I0403 19:49:25.298281 26018 net.cpp:141] Setting up inception_3a/relu_5x5
I0403 19:49:25.298318 26018 net.cpp:148] Top shape: 24 32 28 28 (602112)
I0403 19:49:25.298337 26018 net.cpp:156] Memory required for data: 541901856
I0403 19:49:25.298354 26018 layer_factory.hpp:77] Creating layer inception_3a/pool
I0403 19:49:25.298373 26018 net.cpp:91] Creating Layer inception_3a/pool
I0403 19:49:25.298408 26018 net.cpp:425] inception_3a/pool <- pool2/3x3_s2_pool2/3x3_s2_0_split_3
I0403 19:49:25.298430 26018 net.cpp:399] inception_3a/pool -> inception_3a/pool
I0403 19:49:25.298491 26018 net.cpp:141] Setting up inception_3a/pool
I0403 19:49:25.298521 26018 net.cpp:148] Top shape: 24 192 28 28 (3612672)
I0403 19:49:25.298539 26018 net.cpp:156] Memory required for data: 556352544
I0403 19:49:25.298557 26018 layer_factory.hpp:77] Creating layer inception_3a/pool_proj
I0403 19:49:25.298578 26018 net.cpp:91] Creating Layer inception_3a/pool_proj
I0403 19:49:25.298596 26018 net.cpp:425] inception_3a/pool_proj <- inception_3a/pool
I0403 19:49:25.298620 26018 net.cpp:399] inception_3a/pool_proj -> inception_3a/pool_proj
I0403 19:49:25.299564 26018 net.cpp:141] Setting up inception_3a/pool_proj
I0403 19:49:25.299599 26018 net.cpp:148] Top shape: 24 32 28 28 (602112)
I0403 19:49:25.299618 26018 net.cpp:156] Memory required for data: 558760992
I0403 19:49:25.299646 26018 layer_factory.hpp:77] Creating layer inception_3a/relu_pool_proj
I0403 19:49:25.299670 26018 net.cpp:91] Creating Layer inception_3a/relu_pool_proj
I0403 19:49:25.299690 26018 net.cpp:425] inception_3a/relu_pool_proj <- inception_3a/pool_proj
I0403 19:49:25.299711 26018 net.cpp:386] inception_3a/relu_pool_proj -> inception_3a/pool_proj (in-place)
I0403 19:49:25.299980 26018 net.cpp:141] Setting up inception_3a/relu_pool_proj
I0403 19:49:25.300014 26018 net.cpp:148] Top shape: 24 32 28 28 (602112)
I0403 19:49:25.300031 26018 net.cpp:156] Memory required for data: 561169440
I0403 19:49:25.300046 26018 layer_factory.hpp:77] Creating layer inception_3a/output
I0403 19:49:25.300067 26018 net.cpp:91] Creating Layer inception_3a/output
I0403 19:49:25.300084 26018 net.cpp:425] inception_3a/output <- inception_3a/1x1
I0403 19:49:25.300103 26018 net.cpp:425] inception_3a/output <- inception_3a/3x3
I0403 19:49:25.300122 26018 net.cpp:425] inception_3a/output <- inception_3a/5x5
I0403 19:49:25.300139 26018 net.cpp:425] inception_3a/output <- inception_3a/pool_proj
I0403 19:49:25.300156 26018 net.cpp:399] inception_3a/output -> inception_3a/output
I0403 19:49:25.300207 26018 net.cpp:141] Setting up inception_3a/output
I0403 19:49:25.300235 26018 net.cpp:148] Top shape: 24 256 28 28 (4816896)
I0403 19:49:25.300251 26018 net.cpp:156] Memory required for data: 580437024
I0403 19:49:25.300266 26018 layer_factory.hpp:77] Creating layer inception_3a/output_inception_3a/output_0_split
I0403 19:49:25.300290 26018 net.cpp:91] Creating Layer inception_3a/output_inception_3a/output_0_split
I0403 19:49:25.300310 26018 net.cpp:425] inception_3a/output_inception_3a/output_0_split <- inception_3a/output
I0403 19:49:25.300329 26018 net.cpp:399] inception_3a/output_inception_3a/output_0_split -> inception_3a/output_inception_3a/output_0_split_0
I0403 19:49:25.300351 26018 net.cpp:399] inception_3a/output_inception_3a/output_0_split -> inception_3a/output_inception_3a/output_0_split_1
I0403 19:49:25.300380 26018 net.cpp:399] inception_3a/output_inception_3a/output_0_split -> inception_3a/output_inception_3a/output_0_split_2
I0403 19:49:25.300405 26018 net.cpp:399] inception_3a/output_inception_3a/output_0_split -> inception_3a/output_inception_3a/output_0_split_3
I0403 19:49:25.300484 26018 net.cpp:141] Setting up inception_3a/output_inception_3a/output_0_split
I0403 19:49:25.300513 26018 net.cpp:148] Top shape: 24 256 28 28 (4816896)
I0403 19:49:25.300531 26018 net.cpp:148] Top shape: 24 256 28 28 (4816896)
I0403 19:49:25.300547 26018 net.cpp:148] Top shape: 24 256 28 28 (4816896)
I0403 19:49:25.300564 26018 net.cpp:148] Top shape: 24 256 28 28 (4816896)
I0403 19:49:25.300576 26018 net.cpp:156] Memory required for data: 657507360
I0403 19:49:25.300593 26018 layer_factory.hpp:77] Creating layer inception_3b/1x1
I0403 19:49:25.300623 26018 net.cpp:91] Creating Layer inception_3b/1x1
I0403 19:49:25.300644 26018 net.cpp:425] inception_3b/1x1 <- inception_3a/output_inception_3a/output_0_split_0
I0403 19:49:25.300664 26018 net.cpp:399] inception_3b/1x1 -> inception_3b/1x1
I0403 19:49:25.301784 26018 net.cpp:141] Setting up inception_3b/1x1
I0403 19:49:25.301828 26018 net.cpp:148] Top shape: 24 128 28 28 (2408448)
I0403 19:49:25.301847 26018 net.cpp:156] Memory required for data: 667141152
I0403 19:49:25.301867 26018 layer_factory.hpp:77] Creating layer inception_3b/relu_1x1
I0403 19:49:25.301888 26018 net.cpp:91] Creating Layer inception_3b/relu_1x1
I0403 19:49:25.301908 26018 net.cpp:425] inception_3b/relu_1x1 <- inception_3b/1x1
I0403 19:49:25.301928 26018 net.cpp:386] inception_3b/relu_1x1 -> inception_3b/1x1 (in-place)
I0403 19:49:25.302099 26018 net.cpp:141] Setting up inception_3b/relu_1x1
I0403 19:49:25.302134 26018 net.cpp:148] Top shape: 24 128 28 28 (2408448)
I0403 19:49:25.302153 26018 net.cpp:156] Memory required for data: 676774944
I0403 19:49:25.302170 26018 layer_factory.hpp:77] Creating layer inception_3b/3x3_reduce
I0403 19:49:25.302191 26018 net.cpp:91] Creating Layer inception_3b/3x3_reduce
I0403 19:49:25.302212 26018 net.cpp:425] inception_3b/3x3_reduce <- inception_3a/output_inception_3a/output_0_split_1
I0403 19:49:25.302233 26018 net.cpp:399] inception_3b/3x3_reduce -> inception_3b/3x3_reduce
I0403 19:49:25.303356 26018 net.cpp:141] Setting up inception_3b/3x3_reduce
I0403 19:49:25.303390 26018 net.cpp:148] Top shape: 24 128 28 28 (2408448)
I0403 19:49:25.303409 26018 net.cpp:156] Memory required for data: 686408736
I0403 19:49:25.303429 26018 layer_factory.hpp:77] Creating layer inception_3b/relu_3x3_reduce
I0403 19:49:25.303453 26018 net.cpp:91] Creating Layer inception_3b/relu_3x3_reduce
I0403 19:49:25.303473 26018 net.cpp:425] inception_3b/relu_3x3_reduce <- inception_3b/3x3_reduce
I0403 19:49:25.303494 26018 net.cpp:386] inception_3b/relu_3x3_reduce -> inception_3b/3x3_reduce (in-place)
I0403 19:49:25.303665 26018 net.cpp:141] Setting up inception_3b/relu_3x3_reduce
I0403 19:49:25.303697 26018 net.cpp:148] Top shape: 24 128 28 28 (2408448)
I0403 19:49:25.303715 26018 net.cpp:156] Memory required for data: 696042528
I0403 19:49:25.303733 26018 layer_factory.hpp:77] Creating layer inception_3b/3x3
I0403 19:49:25.303760 26018 net.cpp:91] Creating Layer inception_3b/3x3
I0403 19:49:25.303779 26018 net.cpp:425] inception_3b/3x3 <- inception_3b/3x3_reduce
I0403 19:49:25.303805 26018 net.cpp:399] inception_3b/3x3 -> inception_3b/3x3
I0403 19:49:25.306704 26018 net.cpp:141] Setting up inception_3b/3x3
I0403 19:49:25.306742 26018 net.cpp:148] Top shape: 24 192 28 28 (3612672)
I0403 19:49:25.306761 26018 net.cpp:156] Memory required for data: 710493216
I0403 19:49:25.306780 26018 layer_factory.hpp:77] Creating layer inception_3b/relu_3x3
I0403 19:49:25.306800 26018 net.cpp:91] Creating Layer inception_3b/relu_3x3
I0403 19:49:25.306819 26018 net.cpp:425] inception_3b/relu_3x3 <- inception_3b/3x3
I0403 19:49:25.306839 26018 net.cpp:386] inception_3b/relu_3x3 -> inception_3b/3x3 (in-place)
I0403 19:49:25.307113 26018 net.cpp:141] Setting up inception_3b/relu_3x3
I0403 19:49:25.307147 26018 net.cpp:148] Top shape: 24 192 28 28 (3612672)
I0403 19:49:25.307163 26018 net.cpp:156] Memory required for data: 724943904
I0403 19:49:25.307180 26018 layer_factory.hpp:77] Creating layer inception_3b/5x5_reduce
I0403 19:49:25.307204 26018 net.cpp:91] Creating Layer inception_3b/5x5_reduce
I0403 19:49:25.307226 26018 net.cpp:425] inception_3b/5x5_reduce <- inception_3a/output_inception_3a/output_0_split_2
I0403 19:49:25.307246 26018 net.cpp:399] inception_3b/5x5_reduce -> inception_3b/5x5_reduce
I0403 19:49:25.308220 26018 net.cpp:141] Setting up inception_3b/5x5_reduce
I0403 19:49:25.308256 26018 net.cpp:148] Top shape: 24 32 28 28 (602112)
I0403 19:49:25.308277 26018 net.cpp:156] Memory required for data: 727352352
I0403 19:49:25.308306 26018 layer_factory.hpp:77] Creating layer inception_3b/relu_5x5_reduce
I0403 19:49:25.308327 26018 net.cpp:91] Creating Layer inception_3b/relu_5x5_reduce
I0403 19:49:25.308346 26018 net.cpp:425] inception_3b/relu_5x5_reduce <- inception_3b/5x5_reduce
I0403 19:49:25.308364 26018 net.cpp:386] inception_3b/relu_5x5_reduce -> inception_3b/5x5_reduce (in-place)
I0403 19:49:25.308557 26018 net.cpp:141] Setting up inception_3b/relu_5x5_reduce
I0403 19:49:25.308594 26018 net.cpp:148] Top shape: 24 32 28 28 (602112)
I0403 19:49:25.308611 26018 net.cpp:156] Memory required for data: 729760800
I0403 19:49:25.308629 26018 layer_factory.hpp:77] Creating layer inception_3b/5x5
I0403 19:49:25.308651 26018 net.cpp:91] Creating Layer inception_3b/5x5
I0403 19:49:25.308671 26018 net.cpp:425] inception_3b/5x5 <- inception_3b/5x5_reduce
I0403 19:49:25.308693 26018 net.cpp:399] inception_3b/5x5 -> inception_3b/5x5
I0403 19:49:25.310667 26018 net.cpp:141] Setting up inception_3b/5x5
I0403 19:49:25.310701 26018 net.cpp:148] Top shape: 24 96 28 28 (1806336)
I0403 19:49:25.310720 26018 net.cpp:156] Memory required for data: 736986144
I0403 19:49:25.310741 26018 layer_factory.hpp:77] Creating layer inception_3b/relu_5x5
I0403 19:49:25.310765 26018 net.cpp:91] Creating Layer inception_3b/relu_5x5
I0403 19:49:25.310781 26018 net.cpp:425] inception_3b/relu_5x5 <- inception_3b/5x5
I0403 19:49:25.310801 26018 net.cpp:386] inception_3b/relu_5x5 -> inception_3b/5x5 (in-place)
I0403 19:49:25.310992 26018 net.cpp:141] Setting up inception_3b/relu_5x5
I0403 19:49:25.311022 26018 net.cpp:148] Top shape: 24 96 28 28 (1806336)
I0403 19:49:25.311039 26018 net.cpp:156] Memory required for data: 744211488
I0403 19:49:25.311055 26018 layer_factory.hpp:77] Creating layer inception_3b/pool
I0403 19:49:25.311075 26018 net.cpp:91] Creating Layer inception_3b/pool
I0403 19:49:25.311091 26018 net.cpp:425] inception_3b/pool <- inception_3a/output_inception_3a/output_0_split_3
I0403 19:49:25.311111 26018 net.cpp:399] inception_3b/pool -> inception_3b/pool
I0403 19:49:25.311169 26018 net.cpp:141] Setting up inception_3b/pool
I0403 19:49:25.311199 26018 net.cpp:148] Top shape: 24 256 28 28 (4816896)
I0403 19:49:25.311215 26018 net.cpp:156] Memory required for data: 763479072
I0403 19:49:25.311231 26018 layer_factory.hpp:77] Creating layer inception_3b/pool_proj
I0403 19:49:25.311255 26018 net.cpp:91] Creating Layer inception_3b/pool_proj
I0403 19:49:25.311275 26018 net.cpp:425] inception_3b/pool_proj <- inception_3b/pool
I0403 19:49:25.311308 26018 net.cpp:399] inception_3b/pool_proj -> inception_3b/pool_proj
I0403 19:49:25.312361 26018 net.cpp:141] Setting up inception_3b/pool_proj
I0403 19:49:25.312393 26018 net.cpp:148] Top shape: 24 64 28 28 (1204224)
I0403 19:49:25.312412 26018 net.cpp:156] Memory required for data: 768295968
I0403 19:49:25.312432 26018 layer_factory.hpp:77] Creating layer inception_3b/relu_pool_proj
I0403 19:49:25.312453 26018 net.cpp:91] Creating Layer inception_3b/relu_pool_proj
I0403 19:49:25.312471 26018 net.cpp:425] inception_3b/relu_pool_proj <- inception_3b/pool_proj
I0403 19:49:25.312495 26018 net.cpp:386] inception_3b/relu_pool_proj -> inception_3b/pool_proj (in-place)
I0403 19:49:25.312867 26018 net.cpp:141] Setting up inception_3b/relu_pool_proj
I0403 19:49:25.312896 26018 net.cpp:148] Top shape: 24 64 28 28 (1204224)
I0403 19:49:25.312912 26018 net.cpp:156] Memory required for data: 773112864
I0403 19:49:25.312929 26018 layer_factory.hpp:77] Creating layer inception_3b/output
I0403 19:49:25.312947 26018 net.cpp:91] Creating Layer inception_3b/output
I0403 19:49:25.312966 26018 net.cpp:425] inception_3b/output <- inception_3b/1x1
I0403 19:49:25.312983 26018 net.cpp:425] inception_3b/output <- inception_3b/3x3
I0403 19:49:25.313000 26018 net.cpp:425] inception_3b/output <- inception_3b/5x5
I0403 19:49:25.313017 26018 net.cpp:425] inception_3b/output <- inception_3b/pool_proj
I0403 19:49:25.313036 26018 net.cpp:399] inception_3b/output -> inception_3b/output
I0403 19:49:25.313082 26018 net.cpp:141] Setting up inception_3b/output
I0403 19:49:25.313114 26018 net.cpp:148] Top shape: 24 480 28 28 (9031680)
I0403 19:49:25.313133 26018 net.cpp:156] Memory required for data: 809239584
I0403 19:49:25.313150 26018 layer_factory.hpp:77] Creating layer pool3/3x3_s2
I0403 19:49:25.313170 26018 net.cpp:91] Creating Layer pool3/3x3_s2
I0403 19:49:25.313187 26018 net.cpp:425] pool3/3x3_s2 <- inception_3b/output
I0403 19:49:25.313225 26018 net.cpp:399] pool3/3x3_s2 -> pool3/3x3_s2
I0403 19:49:25.313290 26018 net.cpp:141] Setting up pool3/3x3_s2
I0403 19:49:25.313318 26018 net.cpp:148] Top shape: 24 480 14 14 (2257920)
I0403 19:49:25.313335 26018 net.cpp:156] Memory required for data: 818271264
I0403 19:49:25.313351 26018 layer_factory.hpp:77] Creating layer pool3/3x3_s2_pool3/3x3_s2_0_split
I0403 19:49:25.313370 26018 net.cpp:91] Creating Layer pool3/3x3_s2_pool3/3x3_s2_0_split
I0403 19:49:25.313387 26018 net.cpp:425] pool3/3x3_s2_pool3/3x3_s2_0_split <- pool3/3x3_s2
I0403 19:49:25.313408 26018 net.cpp:399] pool3/3x3_s2_pool3/3x3_s2_0_split -> pool3/3x3_s2_pool3/3x3_s2_0_split_0
I0403 19:49:25.313433 26018 net.cpp:399] pool3/3x3_s2_pool3/3x3_s2_0_split -> pool3/3x3_s2_pool3/3x3_s2_0_split_1
I0403 19:49:25.313457 26018 net.cpp:399] pool3/3x3_s2_pool3/3x3_s2_0_split -> pool3/3x3_s2_pool3/3x3_s2_0_split_2
I0403 19:49:25.313477 26018 net.cpp:399] pool3/3x3_s2_pool3/3x3_s2_0_split -> pool3/3x3_s2_pool3/3x3_s2_0_split_3
I0403 19:49:25.313556 26018 net.cpp:141] Setting up pool3/3x3_s2_pool3/3x3_s2_0_split
I0403 19:49:25.313585 26018 net.cpp:148] Top shape: 24 480 14 14 (2257920)
I0403 19:49:25.313602 26018 net.cpp:148] Top shape: 24 480 14 14 (2257920)
I0403 19:49:25.313618 26018 net.cpp:148] Top shape: 24 480 14 14 (2257920)
I0403 19:49:25.313637 26018 net.cpp:148] Top shape: 24 480 14 14 (2257920)
I0403 19:49:25.313650 26018 net.cpp:156] Memory required for data: 854397984
I0403 19:49:25.313668 26018 layer_factory.hpp:77] Creating layer inception_4a/1x1
I0403 19:49:25.313694 26018 net.cpp:91] Creating Layer inception_4a/1x1
I0403 19:49:25.313714 26018 net.cpp:425] inception_4a/1x1 <- pool3/3x3_s2_pool3/3x3_s2_0_split_0
I0403 19:49:25.313737 26018 net.cpp:399] inception_4a/1x1 -> inception_4a/1x1
I0403 19:49:25.315312 26018 net.cpp:141] Setting up inception_4a/1x1
I0403 19:49:25.315345 26018 net.cpp:148] Top shape: 24 192 14 14 (903168)
I0403 19:49:25.315361 26018 net.cpp:156] Memory required for data: 858010656
I0403 19:49:25.315382 26018 layer_factory.hpp:77] Creating layer inception_4a/relu_1x1
I0403 19:49:25.315403 26018 net.cpp:91] Creating Layer inception_4a/relu_1x1
I0403 19:49:25.315423 26018 net.cpp:425] inception_4a/relu_1x1 <- inception_4a/1x1
I0403 19:49:25.315443 26018 net.cpp:386] inception_4a/relu_1x1 -> inception_4a/1x1 (in-place)
I0403 19:49:25.315613 26018 net.cpp:141] Setting up inception_4a/relu_1x1
I0403 19:49:25.315644 26018 net.cpp:148] Top shape: 24 192 14 14 (903168)
I0403 19:49:25.315659 26018 net.cpp:156] Memory required for data: 861623328
I0403 19:49:25.315675 26018 layer_factory.hpp:77] Creating layer inception_4a/3x3_reduce
I0403 19:49:25.315701 26018 net.cpp:91] Creating Layer inception_4a/3x3_reduce
I0403 19:49:25.315722 26018 net.cpp:425] inception_4a/3x3_reduce <- pool3/3x3_s2_pool3/3x3_s2_0_split_1
I0403 19:49:25.315743 26018 net.cpp:399] inception_4a/3x3_reduce -> inception_4a/3x3_reduce
I0403 19:49:25.316961 26018 net.cpp:141] Setting up inception_4a/3x3_reduce
I0403 19:49:25.316993 26018 net.cpp:148] Top shape: 24 96 14 14 (451584)
I0403 19:49:25.317011 26018 net.cpp:156] Memory required for data: 863429664
I0403 19:49:25.317036 26018 layer_factory.hpp:77] Creating layer inception_4a/relu_3x3_reduce
I0403 19:49:25.317060 26018 net.cpp:91] Creating Layer inception_4a/relu_3x3_reduce
I0403 19:49:25.317080 26018 net.cpp:425] inception_4a/relu_3x3_reduce <- inception_4a/3x3_reduce
I0403 19:49:25.317101 26018 net.cpp:386] inception_4a/relu_3x3_reduce -> inception_4a/3x3_reduce (in-place)
I0403 19:49:25.317270 26018 net.cpp:141] Setting up inception_4a/relu_3x3_reduce
I0403 19:49:25.317306 26018 net.cpp:148] Top shape: 24 96 14 14 (451584)
I0403 19:49:25.317322 26018 net.cpp:156] Memory required for data: 865236000
I0403 19:49:25.317338 26018 layer_factory.hpp:77] Creating layer inception_4a/3x3
I0403 19:49:25.317361 26018 net.cpp:91] Creating Layer inception_4a/3x3
I0403 19:49:25.317383 26018 net.cpp:425] inception_4a/3x3 <- inception_4a/3x3_reduce
I0403 19:49:25.317404 26018 net.cpp:399] inception_4a/3x3 -> inception_4a/3x3
I0403 19:49:25.319993 26018 net.cpp:141] Setting up inception_4a/3x3
I0403 19:49:25.320024 26018 net.cpp:148] Top shape: 24 208 14 14 (978432)
I0403 19:49:25.320041 26018 net.cpp:156] Memory required for data: 869149728
I0403 19:49:25.320060 26018 layer_factory.hpp:77] Creating layer inception_4a/relu_3x3
I0403 19:49:25.320082 26018 net.cpp:91] Creating Layer inception_4a/relu_3x3
I0403 19:49:25.320102 26018 net.cpp:425] inception_4a/relu_3x3 <- inception_4a/3x3
I0403 19:49:25.320122 26018 net.cpp:386] inception_4a/relu_3x3 -> inception_4a/3x3 (in-place)
I0403 19:49:25.320395 26018 net.cpp:141] Setting up inception_4a/relu_3x3
I0403 19:49:25.320425 26018 net.cpp:148] Top shape: 24 208 14 14 (978432)
I0403 19:49:25.320441 26018 net.cpp:156] Memory required for data: 873063456
I0403 19:49:25.320456 26018 layer_factory.hpp:77] Creating layer inception_4a/5x5_reduce
I0403 19:49:25.320482 26018 net.cpp:91] Creating Layer inception_4a/5x5_reduce
I0403 19:49:25.320502 26018 net.cpp:425] inception_4a/5x5_reduce <- pool3/3x3_s2_pool3/3x3_s2_0_split_2
I0403 19:49:25.320524 26018 net.cpp:399] inception_4a/5x5_reduce -> inception_4a/5x5_reduce
I0403 19:49:25.321499 26018 net.cpp:141] Setting up inception_4a/5x5_reduce
I0403 19:49:25.321537 26018 net.cpp:148] Top shape: 24 16 14 14 (75264)
I0403 19:49:25.321569 26018 net.cpp:156] Memory required for data: 873364512
I0403 19:49:25.321588 26018 layer_factory.hpp:77] Creating layer inception_4a/relu_5x5_reduce
I0403 19:49:25.321607 26018 net.cpp:91] Creating Layer inception_4a/relu_5x5_reduce
I0403 19:49:25.321624 26018 net.cpp:425] inception_4a/relu_5x5_reduce <- inception_4a/5x5_reduce
I0403 19:49:25.321640 26018 net.cpp:386] inception_4a/relu_5x5_reduce -> inception_4a/5x5_reduce (in-place)
I0403 19:49:25.321810 26018 net.cpp:141] Setting up inception_4a/relu_5x5_reduce
I0403 19:49:25.321841 26018 net.cpp:148] Top shape: 24 16 14 14 (75264)
I0403 19:49:25.321859 26018 net.cpp:156] Memory required for data: 873665568
I0403 19:49:25.321876 26018 layer_factory.hpp:77] Creating layer inception_4a/5x5
I0403 19:49:25.321897 26018 net.cpp:91] Creating Layer inception_4a/5x5
I0403 19:49:25.321916 26018 net.cpp:425] inception_4a/5x5 <- inception_4a/5x5_reduce
I0403 19:49:25.321934 26018 net.cpp:399] inception_4a/5x5 -> inception_4a/5x5
I0403 19:49:25.322978 26018 net.cpp:141] Setting up inception_4a/5x5
I0403 19:49:25.323009 26018 net.cpp:148] Top shape: 24 48 14 14 (225792)
I0403 19:49:25.323026 26018 net.cpp:156] Memory required for data: 874568736
I0403 19:49:25.323046 26018 layer_factory.hpp:77] Creating layer inception_4a/relu_5x5
I0403 19:49:25.323065 26018 net.cpp:91] Creating Layer inception_4a/relu_5x5
I0403 19:49:25.323082 26018 net.cpp:425] inception_4a/relu_5x5 <- inception_4a/5x5
I0403 19:49:25.323102 26018 net.cpp:386] inception_4a/relu_5x5 -> inception_4a/5x5 (in-place)
I0403 19:49:25.323278 26018 net.cpp:141] Setting up inception_4a/relu_5x5
I0403 19:49:25.323312 26018 net.cpp:148] Top shape: 24 48 14 14 (225792)
I0403 19:49:25.323328 26018 net.cpp:156] Memory required for data: 875471904
I0403 19:49:25.323345 26018 layer_factory.hpp:77] Creating layer inception_4a/pool
I0403 19:49:25.323367 26018 net.cpp:91] Creating Layer inception_4a/pool
I0403 19:49:25.323385 26018 net.cpp:425] inception_4a/pool <- pool3/3x3_s2_pool3/3x3_s2_0_split_3
I0403 19:49:25.323403 26018 net.cpp:399] inception_4a/pool -> inception_4a/pool
I0403 19:49:25.323467 26018 net.cpp:141] Setting up inception_4a/pool
I0403 19:49:25.323498 26018 net.cpp:148] Top shape: 24 480 14 14 (2257920)
I0403 19:49:25.323513 26018 net.cpp:156] Memory required for data: 884503584
I0403 19:49:25.323529 26018 layer_factory.hpp:77] Creating layer inception_4a/pool_proj
I0403 19:49:25.323552 26018 net.cpp:91] Creating Layer inception_4a/pool_proj
I0403 19:49:25.323571 26018 net.cpp:425] inception_4a/pool_proj <- inception_4a/pool
I0403 19:49:25.323595 26018 net.cpp:399] inception_4a/pool_proj -> inception_4a/pool_proj
I0403 19:49:25.324724 26018 net.cpp:141] Setting up inception_4a/pool_proj
I0403 19:49:25.324756 26018 net.cpp:148] Top shape: 24 64 14 14 (301056)
I0403 19:49:25.324791 26018 net.cpp:156] Memory required for data: 885707808
I0403 19:49:25.324812 26018 layer_factory.hpp:77] Creating layer inception_4a/relu_pool_proj
I0403 19:49:25.324832 26018 net.cpp:91] Creating Layer inception_4a/relu_pool_proj
I0403 19:49:25.324851 26018 net.cpp:425] inception_4a/relu_pool_proj <- inception_4a/pool_proj
I0403 19:49:25.324872 26018 net.cpp:386] inception_4a/relu_pool_proj -> inception_4a/pool_proj (in-place)
I0403 19:49:25.325153 26018 net.cpp:141] Setting up inception_4a/relu_pool_proj
I0403 19:49:25.325186 26018 net.cpp:148] Top shape: 24 64 14 14 (301056)
I0403 19:49:25.325201 26018 net.cpp:156] Memory required for data: 886912032
I0403 19:49:25.325217 26018 layer_factory.hpp:77] Creating layer inception_4a/output
I0403 19:49:25.325237 26018 net.cpp:91] Creating Layer inception_4a/output
I0403 19:49:25.325253 26018 net.cpp:425] inception_4a/output <- inception_4a/1x1
I0403 19:49:25.325271 26018 net.cpp:425] inception_4a/output <- inception_4a/3x3
I0403 19:49:25.325291 26018 net.cpp:425] inception_4a/output <- inception_4a/5x5
I0403 19:49:25.325310 26018 net.cpp:425] inception_4a/output <- inception_4a/pool_proj
I0403 19:49:25.325331 26018 net.cpp:399] inception_4a/output -> inception_4a/output
I0403 19:49:25.325379 26018 net.cpp:141] Setting up inception_4a/output
I0403 19:49:25.325412 26018 net.cpp:148] Top shape: 24 512 14 14 (2408448)
I0403 19:49:25.325433 26018 net.cpp:156] Memory required for data: 896545824
I0403 19:49:25.325449 26018 layer_factory.hpp:77] Creating layer inception_4a/output_inception_4a/output_0_split
I0403 19:49:25.325469 26018 net.cpp:91] Creating Layer inception_4a/output_inception_4a/output_0_split
I0403 19:49:25.325487 26018 net.cpp:425] inception_4a/output_inception_4a/output_0_split <- inception_4a/output
I0403 19:49:25.325508 26018 net.cpp:399] inception_4a/output_inception_4a/output_0_split -> inception_4a/output_inception_4a/output_0_split_0
I0403 19:49:25.325531 26018 net.cpp:399] inception_4a/output_inception_4a/output_0_split -> inception_4a/output_inception_4a/output_0_split_1
I0403 19:49:25.325556 26018 net.cpp:399] inception_4a/output_inception_4a/output_0_split -> inception_4a/output_inception_4a/output_0_split_2
I0403 19:49:25.325579 26018 net.cpp:399] inception_4a/output_inception_4a/output_0_split -> inception_4a/output_inception_4a/output_0_split_3
I0403 19:49:25.325600 26018 net.cpp:399] inception_4a/output_inception_4a/output_0_split -> inception_4a/output_inception_4a/output_0_split_4
I0403 19:49:25.325690 26018 net.cpp:141] Setting up inception_4a/output_inception_4a/output_0_split
I0403 19:49:25.325719 26018 net.cpp:148] Top shape: 24 512 14 14 (2408448)
I0403 19:49:25.325737 26018 net.cpp:148] Top shape: 24 512 14 14 (2408448)
I0403 19:49:25.325753 26018 net.cpp:148] Top shape: 24 512 14 14 (2408448)
I0403 19:49:25.325769 26018 net.cpp:148] Top shape: 24 512 14 14 (2408448)
I0403 19:49:25.325783 26018 net.cpp:148] Top shape: 24 512 14 14 (2408448)
I0403 19:49:25.325796 26018 net.cpp:156] Memory required for data: 944714784
I0403 19:49:25.325811 26018 layer_factory.hpp:77] Creating layer loss1/ave_pool
I0403 19:49:25.325830 26018 net.cpp:91] Creating Layer loss1/ave_pool
I0403 19:49:25.325847 26018 net.cpp:425] loss1/ave_pool <- inception_4a/output_inception_4a/output_0_split_0
I0403 19:49:25.325866 26018 net.cpp:399] loss1/ave_pool -> loss1/ave_pool
I0403 19:49:25.326077 26018 net.cpp:141] Setting up loss1/ave_pool
I0403 19:49:25.326107 26018 net.cpp:148] Top shape: 24 512 4 4 (196608)
I0403 19:49:25.326122 26018 net.cpp:156] Memory required for data: 945501216
I0403 19:49:25.326138 26018 layer_factory.hpp:77] Creating layer loss1/conv
I0403 19:49:25.326162 26018 net.cpp:91] Creating Layer loss1/conv
I0403 19:49:25.326184 26018 net.cpp:425] loss1/conv <- loss1/ave_pool
I0403 19:49:25.326207 26018 net.cpp:399] loss1/conv -> loss1/conv
I0403 19:49:25.327576 26018 net.cpp:141] Setting up loss1/conv
I0403 19:49:25.327608 26018 net.cpp:148] Top shape: 24 128 4 4 (49152)
I0403 19:49:25.327639 26018 net.cpp:156] Memory required for data: 945697824
I0403 19:49:25.327661 26018 layer_factory.hpp:77] Creating layer loss1/relu_conv
I0403 19:49:25.327684 26018 net.cpp:91] Creating Layer loss1/relu_conv
I0403 19:49:25.327705 26018 net.cpp:425] loss1/relu_conv <- loss1/conv
I0403 19:49:25.327723 26018 net.cpp:386] loss1/relu_conv -> loss1/conv (in-place)
I0403 19:49:25.327994 26018 net.cpp:141] Setting up loss1/relu_conv
I0403 19:49:25.328025 26018 net.cpp:148] Top shape: 24 128 4 4 (49152)
I0403 19:49:25.328040 26018 net.cpp:156] Memory required for data: 945894432
I0403 19:49:25.328058 26018 layer_factory.hpp:77] Creating layer loss1/fc
I0403 19:49:25.328088 26018 net.cpp:91] Creating Layer loss1/fc
I0403 19:49:25.328107 26018 net.cpp:425] loss1/fc <- loss1/conv
I0403 19:49:25.328126 26018 net.cpp:399] loss1/fc -> loss1/fc
I0403 19:49:25.345469 26018 net.cpp:141] Setting up loss1/fc
I0403 19:49:25.345509 26018 net.cpp:148] Top shape: 24 1024 (24576)
I0403 19:49:25.345525 26018 net.cpp:156] Memory required for data: 945992736
I0403 19:49:25.345546 26018 layer_factory.hpp:77] Creating layer loss1/relu_fc
I0403 19:49:25.345567 26018 net.cpp:91] Creating Layer loss1/relu_fc
I0403 19:49:25.345583 26018 net.cpp:425] loss1/relu_fc <- loss1/fc
I0403 19:49:25.345602 26018 net.cpp:386] loss1/relu_fc -> loss1/fc (in-place)
I0403 19:49:25.345787 26018 net.cpp:141] Setting up loss1/relu_fc
I0403 19:49:25.345814 26018 net.cpp:148] Top shape: 24 1024 (24576)
I0403 19:49:25.345830 26018 net.cpp:156] Memory required for data: 946091040
I0403 19:49:25.345846 26018 layer_factory.hpp:77] Creating layer loss1/drop_fc
I0403 19:49:25.345877 26018 net.cpp:91] Creating Layer loss1/drop_fc
I0403 19:49:25.345897 26018 net.cpp:425] loss1/drop_fc <- loss1/fc
I0403 19:49:25.345916 26018 net.cpp:386] loss1/drop_fc -> loss1/fc (in-place)
I0403 19:49:25.345969 26018 net.cpp:141] Setting up loss1/drop_fc
I0403 19:49:25.345999 26018 net.cpp:148] Top shape: 24 1024 (24576)
I0403 19:49:25.346017 26018 net.cpp:156] Memory required for data: 946189344
I0403 19:49:25.346034 26018 layer_factory.hpp:77] Creating layer loss1/classifier_plantvillage
I0403 19:49:25.346053 26018 net.cpp:91] Creating Layer loss1/classifier_plantvillage
I0403 19:49:25.346071 26018 net.cpp:425] loss1/classifier_plantvillage <- loss1/fc
I0403 19:49:25.346091 26018 net.cpp:399] loss1/classifier_plantvillage -> loss1/classifier_plantvillage
I0403 19:49:25.346971 26018 net.cpp:141] Setting up loss1/classifier_plantvillage
I0403 19:49:25.347003 26018 net.cpp:148] Top shape: 24 38 (912)
I0403 19:49:25.347021 26018 net.cpp:156] Memory required for data: 946192992
I0403 19:49:25.347039 26018 layer_factory.hpp:77] Creating layer loss1/classifier_plantvillage_loss1/classifier_plantvillage_0_split
I0403 19:49:25.347061 26018 net.cpp:91] Creating Layer loss1/classifier_plantvillage_loss1/classifier_plantvillage_0_split
I0403 19:49:25.347080 26018 net.cpp:425] loss1/classifier_plantvillage_loss1/classifier_plantvillage_0_split <- loss1/classifier_plantvillage
I0403 19:49:25.347100 26018 net.cpp:399] loss1/classifier_plantvillage_loss1/classifier_plantvillage_0_split -> loss1/classifier_plantvillage_loss1/classifier_plantvillage_0_split_0
I0403 19:49:25.347123 26018 net.cpp:399] loss1/classifier_plantvillage_loss1/classifier_plantvillage_0_split -> loss1/classifier_plantvillage_loss1/classifier_plantvillage_0_split_1
I0403 19:49:25.347146 26018 net.cpp:399] loss1/classifier_plantvillage_loss1/classifier_plantvillage_0_split -> loss1/classifier_plantvillage_loss1/classifier_plantvillage_0_split_2
I0403 19:49:25.347211 26018 net.cpp:141] Setting up loss1/classifier_plantvillage_loss1/classifier_plantvillage_0_split
I0403 19:49:25.347235 26018 net.cpp:148] Top shape: 24 38 (912)
I0403 19:49:25.347254 26018 net.cpp:148] Top shape: 24 38 (912)
I0403 19:49:25.347270 26018 net.cpp:148] Top shape: 24 38 (912)
I0403 19:49:25.347283 26018 net.cpp:156] Memory required for data: 946203936
I0403 19:49:25.347307 26018 layer_factory.hpp:77] Creating layer inception_4b/1x1
I0403 19:49:25.347331 26018 net.cpp:91] Creating Layer inception_4b/1x1
I0403 19:49:25.347365 26018 net.cpp:425] inception_4b/1x1 <- inception_4a/output_inception_4a/output_0_split_1
I0403 19:49:25.347389 26018 net.cpp:399] inception_4b/1x1 -> inception_4b/1x1
I0403 19:49:25.348920 26018 net.cpp:141] Setting up inception_4b/1x1
I0403 19:49:25.348951 26018 net.cpp:148] Top shape: 24 160 14 14 (752640)
I0403 19:49:25.348970 26018 net.cpp:156] Memory required for data: 949214496
I0403 19:49:25.348990 26018 layer_factory.hpp:77] Creating layer inception_4b/relu_1x1
I0403 19:49:25.349014 26018 net.cpp:91] Creating Layer inception_4b/relu_1x1
I0403 19:49:25.349030 26018 net.cpp:425] inception_4b/relu_1x1 <- inception_4b/1x1
I0403 19:49:25.349050 26018 net.cpp:386] inception_4b/relu_1x1 -> inception_4b/1x1 (in-place)
I0403 19:49:25.349225 26018 net.cpp:141] Setting up inception_4b/relu_1x1
I0403 19:49:25.349256 26018 net.cpp:148] Top shape: 24 160 14 14 (752640)
I0403 19:49:25.349273 26018 net.cpp:156] Memory required for data: 952225056
I0403 19:49:25.349294 26018 layer_factory.hpp:77] Creating layer inception_4b/3x3_reduce
I0403 19:49:25.349318 26018 net.cpp:91] Creating Layer inception_4b/3x3_reduce
I0403 19:49:25.349339 26018 net.cpp:425] inception_4b/3x3_reduce <- inception_4a/output_inception_4a/output_0_split_2
I0403 19:49:25.349359 26018 net.cpp:399] inception_4b/3x3_reduce -> inception_4b/3x3_reduce
I0403 19:49:25.350625 26018 net.cpp:141] Setting up inception_4b/3x3_reduce
I0403 19:49:25.350658 26018 net.cpp:148] Top shape: 24 112 14 14 (526848)
I0403 19:49:25.350677 26018 net.cpp:156] Memory required for data: 954332448
I0403 19:49:25.350697 26018 layer_factory.hpp:77] Creating layer inception_4b/relu_3x3_reduce
I0403 19:49:25.350715 26018 net.cpp:91] Creating Layer inception_4b/relu_3x3_reduce
I0403 19:49:25.350733 26018 net.cpp:425] inception_4b/relu_3x3_reduce <- inception_4b/3x3_reduce
I0403 19:49:25.350754 26018 net.cpp:386] inception_4b/relu_3x3_reduce -> inception_4b/3x3_reduce (in-place)
I0403 19:49:25.351022 26018 net.cpp:141] Setting up inception_4b/relu_3x3_reduce
I0403 19:49:25.351052 26018 net.cpp:148] Top shape: 24 112 14 14 (526848)
I0403 19:49:25.351068 26018 net.cpp:156] Memory required for data: 956439840
I0403 19:49:25.351085 26018 layer_factory.hpp:77] Creating layer inception_4b/3x3
I0403 19:49:25.351109 26018 net.cpp:91] Creating Layer inception_4b/3x3
I0403 19:49:25.351126 26018 net.cpp:425] inception_4b/3x3 <- inception_4b/3x3_reduce
I0403 19:49:25.351146 26018 net.cpp:399] inception_4b/3x3 -> inception_4b/3x3
I0403 19:49:25.353983 26018 net.cpp:141] Setting up inception_4b/3x3
I0403 19:49:25.354015 26018 net.cpp:148] Top shape: 24 224 14 14 (1053696)
I0403 19:49:25.354032 26018 net.cpp:156] Memory required for data: 960654624
I0403 19:49:25.354053 26018 layer_factory.hpp:77] Creating layer inception_4b/relu_3x3
I0403 19:49:25.354074 26018 net.cpp:91] Creating Layer inception_4b/relu_3x3
I0403 19:49:25.354094 26018 net.cpp:425] inception_4b/relu_3x3 <- inception_4b/3x3
I0403 19:49:25.354115 26018 net.cpp:386] inception_4b/relu_3x3 -> inception_4b/3x3 (in-place)
I0403 19:49:25.354300 26018 net.cpp:141] Setting up inception_4b/relu_3x3
I0403 19:49:25.354327 26018 net.cpp:148] Top shape: 24 224 14 14 (1053696)
I0403 19:49:25.354343 26018 net.cpp:156] Memory required for data: 964869408
I0403 19:49:25.354359 26018 layer_factory.hpp:77] Creating layer inception_4b/5x5_reduce
I0403 19:49:25.354385 26018 net.cpp:91] Creating Layer inception_4b/5x5_reduce
I0403 19:49:25.354408 26018 net.cpp:425] inception_4b/5x5_reduce <- inception_4a/output_inception_4a/output_0_split_3
I0403 19:49:25.354428 26018 net.cpp:399] inception_4b/5x5_reduce -> inception_4b/5x5_reduce
I0403 19:49:25.355456 26018 net.cpp:141] Setting up inception_4b/5x5_reduce
I0403 19:49:25.355489 26018 net.cpp:148] Top shape: 24 24 14 14 (112896)
I0403 19:49:25.355507 26018 net.cpp:156] Memory required for data: 965320992
I0403 19:49:25.355527 26018 layer_factory.hpp:77] Creating layer inception_4b/relu_5x5_reduce
I0403 19:49:25.355548 26018 net.cpp:91] Creating Layer inception_4b/relu_5x5_reduce
I0403 19:49:25.355583 26018 net.cpp:425] inception_4b/relu_5x5_reduce <- inception_4b/5x5_reduce
I0403 19:49:25.355604 26018 net.cpp:386] inception_4b/relu_5x5_reduce -> inception_4b/5x5_reduce (in-place)
I0403 19:49:25.355779 26018 net.cpp:141] Setting up inception_4b/relu_5x5_reduce
I0403 19:49:25.355806 26018 net.cpp:148] Top shape: 24 24 14 14 (112896)
I0403 19:49:25.355821 26018 net.cpp:156] Memory required for data: 965772576
I0403 19:49:25.355837 26018 layer_factory.hpp:77] Creating layer inception_4b/5x5
I0403 19:49:25.355861 26018 net.cpp:91] Creating Layer inception_4b/5x5
I0403 19:49:25.355880 26018 net.cpp:425] inception_4b/5x5 <- inception_4b/5x5_reduce
I0403 19:49:25.355901 26018 net.cpp:399] inception_4b/5x5 -> inception_4b/5x5
I0403 19:49:25.357066 26018 net.cpp:141] Setting up inception_4b/5x5
I0403 19:49:25.357098 26018 net.cpp:148] Top shape: 24 64 14 14 (301056)
I0403 19:49:25.357118 26018 net.cpp:156] Memory required for data: 966976800
I0403 19:49:25.357138 26018 layer_factory.hpp:77] Creating layer inception_4b/relu_5x5
I0403 19:49:25.357158 26018 net.cpp:91] Creating Layer inception_4b/relu_5x5
I0403 19:49:25.357177 26018 net.cpp:425] inception_4b/relu_5x5 <- inception_4b/5x5
I0403 19:49:25.357195 26018 net.cpp:386] inception_4b/relu_5x5 -> inception_4b/5x5 (in-place)
I0403 19:49:25.357493 26018 net.cpp:141] Setting up inception_4b/relu_5x5
I0403 19:49:25.357523 26018 net.cpp:148] Top shape: 24 64 14 14 (301056)
I0403 19:49:25.357543 26018 net.cpp:156] Memory required for data: 968181024
I0403 19:49:25.357560 26018 layer_factory.hpp:77] Creating layer inception_4b/pool
I0403 19:49:25.357591 26018 net.cpp:91] Creating Layer inception_4b/pool
I0403 19:49:25.357609 26018 net.cpp:425] inception_4b/pool <- inception_4a/output_inception_4a/output_0_split_4
I0403 19:49:25.357628 26018 net.cpp:399] inception_4b/pool -> inception_4b/pool
I0403 19:49:25.357693 26018 net.cpp:141] Setting up inception_4b/pool
I0403 19:49:25.357722 26018 net.cpp:148] Top shape: 24 512 14 14 (2408448)
I0403 19:49:25.357738 26018 net.cpp:156] Memory required for data: 977814816
I0403 19:49:25.357753 26018 layer_factory.hpp:77] Creating layer inception_4b/pool_proj
I0403 19:49:25.357774 26018 net.cpp:91] Creating Layer inception_4b/pool_proj
I0403 19:49:25.357794 26018 net.cpp:425] inception_4b/pool_proj <- inception_4b/pool
I0403 19:49:25.357815 26018 net.cpp:399] inception_4b/pool_proj -> inception_4b/pool_proj
I0403 19:49:25.358955 26018 net.cpp:141] Setting up inception_4b/pool_proj
I0403 19:49:25.358989 26018 net.cpp:148] Top shape: 24 64 14 14 (301056)
I0403 19:49:25.359007 26018 net.cpp:156] Memory required for data: 979019040
I0403 19:49:25.359026 26018 layer_factory.hpp:77] Creating layer inception_4b/relu_pool_proj
I0403 19:49:25.359045 26018 net.cpp:91] Creating Layer inception_4b/relu_pool_proj
I0403 19:49:25.359061 26018 net.cpp:425] inception_4b/relu_pool_proj <- inception_4b/pool_proj
I0403 19:49:25.359078 26018 net.cpp:386] inception_4b/relu_pool_proj -> inception_4b/pool_proj (in-place)
I0403 19:49:25.359256 26018 net.cpp:141] Setting up inception_4b/relu_pool_proj
I0403 19:49:25.359282 26018 net.cpp:148] Top shape: 24 64 14 14 (301056)
I0403 19:49:25.359304 26018 net.cpp:156] Memory required for data: 980223264
I0403 19:49:25.359320 26018 layer_factory.hpp:77] Creating layer inception_4b/output
I0403 19:49:25.359338 26018 net.cpp:91] Creating Layer inception_4b/output
I0403 19:49:25.359355 26018 net.cpp:425] inception_4b/output <- inception_4b/1x1
I0403 19:49:25.359375 26018 net.cpp:425] inception_4b/output <- inception_4b/3x3
I0403 19:49:25.359391 26018 net.cpp:425] inception_4b/output <- inception_4b/5x5
I0403 19:49:25.359407 26018 net.cpp:425] inception_4b/output <- inception_4b/pool_proj
I0403 19:49:25.359426 26018 net.cpp:399] inception_4b/output -> inception_4b/output
I0403 19:49:25.359470 26018 net.cpp:141] Setting up inception_4b/output
I0403 19:49:25.359500 26018 net.cpp:148] Top shape: 24 512 14 14 (2408448)
I0403 19:49:25.359516 26018 net.cpp:156] Memory required for data: 989857056
I0403 19:49:25.359549 26018 layer_factory.hpp:77] Creating layer inception_4b/output_inception_4b/output_0_split
I0403 19:49:25.359570 26018 net.cpp:91] Creating Layer inception_4b/output_inception_4b/output_0_split
I0403 19:49:25.359587 26018 net.cpp:425] inception_4b/output_inception_4b/output_0_split <- inception_4b/output
I0403 19:49:25.359606 26018 net.cpp:399] inception_4b/output_inception_4b/output_0_split -> inception_4b/output_inception_4b/output_0_split_0
I0403 19:49:25.359629 26018 net.cpp:399] inception_4b/output_inception_4b/output_0_split -> inception_4b/output_inception_4b/output_0_split_1
I0403 19:49:25.359653 26018 net.cpp:399] inception_4b/output_inception_4b/output_0_split -> inception_4b/output_inception_4b/output_0_split_2
I0403 19:49:25.359678 26018 net.cpp:399] inception_4b/output_inception_4b/output_0_split -> inception_4b/output_inception_4b/output_0_split_3
I0403 19:49:25.359760 26018 net.cpp:141] Setting up inception_4b/output_inception_4b/output_0_split
I0403 19:49:25.359791 26018 net.cpp:148] Top shape: 24 512 14 14 (2408448)
I0403 19:49:25.359807 26018 net.cpp:148] Top shape: 24 512 14 14 (2408448)
I0403 19:49:25.359822 26018 net.cpp:148] Top shape: 24 512 14 14 (2408448)
I0403 19:49:25.359838 26018 net.cpp:148] Top shape: 24 512 14 14 (2408448)
I0403 19:49:25.359851 26018 net.cpp:156] Memory required for data: 1028392224
I0403 19:49:25.359868 26018 layer_factory.hpp:77] Creating layer inception_4c/1x1
I0403 19:49:25.359890 26018 net.cpp:91] Creating Layer inception_4c/1x1
I0403 19:49:25.359907 26018 net.cpp:425] inception_4c/1x1 <- inception_4b/output_inception_4b/output_0_split_0
I0403 19:49:25.359930 26018 net.cpp:399] inception_4c/1x1 -> inception_4c/1x1
I0403 19:49:25.361290 26018 net.cpp:141] Setting up inception_4c/1x1
I0403 19:49:25.361320 26018 net.cpp:148] Top shape: 24 128 14 14 (602112)
I0403 19:49:25.361337 26018 net.cpp:156] Memory required for data: 1030800672
I0403 19:49:25.361356 26018 layer_factory.hpp:77] Creating layer inception_4c/relu_1x1
I0403 19:49:25.361374 26018 net.cpp:91] Creating Layer inception_4c/relu_1x1
I0403 19:49:25.361398 26018 net.cpp:425] inception_4c/relu_1x1 <- inception_4c/1x1
I0403 19:49:25.361416 26018 net.cpp:386] inception_4c/relu_1x1 -> inception_4c/1x1 (in-place)
I0403 19:49:25.361590 26018 net.cpp:141] Setting up inception_4c/relu_1x1
I0403 19:49:25.361620 26018 net.cpp:148] Top shape: 24 128 14 14 (602112)
I0403 19:49:25.361636 26018 net.cpp:156] Memory required for data: 1033209120
I0403 19:49:25.361651 26018 layer_factory.hpp:77] Creating layer inception_4c/3x3_reduce
I0403 19:49:25.361673 26018 net.cpp:91] Creating Layer inception_4c/3x3_reduce
I0403 19:49:25.361693 26018 net.cpp:425] inception_4c/3x3_reduce <- inception_4b/output_inception_4b/output_0_split_1
I0403 19:49:25.361716 26018 net.cpp:399] inception_4c/3x3_reduce -> inception_4c/3x3_reduce
I0403 19:49:25.363586 26018 net.cpp:141] Setting up inception_4c/3x3_reduce
I0403 19:49:25.363616 26018 net.cpp:148] Top shape: 24 128 14 14 (602112)
I0403 19:49:25.363636 26018 net.cpp:156] Memory required for data: 1035617568
I0403 19:49:25.363652 26018 layer_factory.hpp:77] Creating layer inception_4c/relu_3x3_reduce
I0403 19:49:25.363673 26018 net.cpp:91] Creating Layer inception_4c/relu_3x3_reduce
I0403 19:49:25.363693 26018 net.cpp:425] inception_4c/relu_3x3_reduce <- inception_4c/3x3_reduce
I0403 19:49:25.363713 26018 net.cpp:386] inception_4c/relu_3x3_reduce -> inception_4c/3x3_reduce (in-place)
I0403 19:49:25.363987 26018 net.cpp:141] Setting up inception_4c/relu_3x3_reduce
I0403 19:49:25.364017 26018 net.cpp:148] Top shape: 24 128 14 14 (602112)
I0403 19:49:25.364033 26018 net.cpp:156] Memory required for data: 1038026016
I0403 19:49:25.364048 26018 layer_factory.hpp:77] Creating layer inception_4c/3x3
I0403 19:49:25.364074 26018 net.cpp:91] Creating Layer inception_4c/3x3
I0403 19:49:25.364095 26018 net.cpp:425] inception_4c/3x3 <- inception_4c/3x3_reduce
I0403 19:49:25.364115 26018 net.cpp:399] inception_4c/3x3 -> inception_4c/3x3
I0403 19:49:25.367563 26018 net.cpp:141] Setting up inception_4c/3x3
I0403 19:49:25.367606 26018 net.cpp:148] Top shape: 24 256 14 14 (1204224)
I0403 19:49:25.367625 26018 net.cpp:156] Memory required for data: 1042842912
I0403 19:49:25.367658 26018 layer_factory.hpp:77] Creating layer inception_4c/relu_3x3
I0403 19:49:25.367682 26018 net.cpp:91] Creating Layer inception_4c/relu_3x3
I0403 19:49:25.367702 26018 net.cpp:425] inception_4c/relu_3x3 <- inception_4c/3x3
I0403 19:49:25.367718 26018 net.cpp:386] inception_4c/relu_3x3 -> inception_4c/3x3 (in-place)
I0403 19:49:25.367892 26018 net.cpp:141] Setting up inception_4c/relu_3x3
I0403 19:49:25.367923 26018 net.cpp:148] Top shape: 24 256 14 14 (1204224)
I0403 19:49:25.367938 26018 net.cpp:156] Memory required for data: 1047659808
I0403 19:49:25.367954 26018 layer_factory.hpp:77] Creating layer inception_4c/5x5_reduce
I0403 19:49:25.367979 26018 net.cpp:91] Creating Layer inception_4c/5x5_reduce
I0403 19:49:25.367997 26018 net.cpp:425] inception_4c/5x5_reduce <- inception_4b/output_inception_4b/output_0_split_2
I0403 19:49:25.368017 26018 net.cpp:399] inception_4c/5x5_reduce -> inception_4c/5x5_reduce
I0403 19:49:25.369048 26018 net.cpp:141] Setting up inception_4c/5x5_reduce
I0403 19:49:25.369081 26018 net.cpp:148] Top shape: 24 24 14 14 (112896)
I0403 19:49:25.369099 26018 net.cpp:156] Memory required for data: 1048111392
I0403 19:49:25.369119 26018 layer_factory.hpp:77] Creating layer inception_4c/relu_5x5_reduce
I0403 19:49:25.369141 26018 net.cpp:91] Creating Layer inception_4c/relu_5x5_reduce
I0403 19:49:25.369159 26018 net.cpp:425] inception_4c/relu_5x5_reduce <- inception_4c/5x5_reduce
I0403 19:49:25.369179 26018 net.cpp:386] inception_4c/relu_5x5_reduce -> inception_4c/5x5_reduce (in-place)
I0403 19:49:25.369364 26018 net.cpp:141] Setting up inception_4c/relu_5x5_reduce
I0403 19:49:25.369391 26018 net.cpp:148] Top shape: 24 24 14 14 (112896)
I0403 19:49:25.369408 26018 net.cpp:156] Memory required for data: 1048562976
I0403 19:49:25.369426 26018 layer_factory.hpp:77] Creating layer inception_4c/5x5
I0403 19:49:25.369447 26018 net.cpp:91] Creating Layer inception_4c/5x5
I0403 19:49:25.369467 26018 net.cpp:425] inception_4c/5x5 <- inception_4c/5x5_reduce
I0403 19:49:25.369489 26018 net.cpp:399] inception_4c/5x5 -> inception_4c/5x5
I0403 19:49:25.370664 26018 net.cpp:141] Setting up inception_4c/5x5
I0403 19:49:25.370697 26018 net.cpp:148] Top shape: 24 64 14 14 (301056)
I0403 19:49:25.370714 26018 net.cpp:156] Memory required for data: 1049767200
I0403 19:49:25.370734 26018 layer_factory.hpp:77] Creating layer inception_4c/relu_5x5
I0403 19:49:25.370755 26018 net.cpp:91] Creating Layer inception_4c/relu_5x5
I0403 19:49:25.370771 26018 net.cpp:425] inception_4c/relu_5x5 <- inception_4c/5x5
I0403 19:49:25.370791 26018 net.cpp:386] inception_4c/relu_5x5 -> inception_4c/5x5 (in-place)
I0403 19:49:25.371068 26018 net.cpp:141] Setting up inception_4c/relu_5x5
I0403 19:49:25.371098 26018 net.cpp:148] Top shape: 24 64 14 14 (301056)
I0403 19:49:25.371114 26018 net.cpp:156] Memory required for data: 1050971424
I0403 19:49:25.371129 26018 layer_factory.hpp:77] Creating layer inception_4c/pool
I0403 19:49:25.371146 26018 net.cpp:91] Creating Layer inception_4c/pool
I0403 19:49:25.371165 26018 net.cpp:425] inception_4c/pool <- inception_4b/output_inception_4b/output_0_split_3
I0403 19:49:25.371186 26018 net.cpp:399] inception_4c/pool -> inception_4c/pool
I0403 19:49:25.371251 26018 net.cpp:141] Setting up inception_4c/pool
I0403 19:49:25.371282 26018 net.cpp:148] Top shape: 24 512 14 14 (2408448)
I0403 19:49:25.371320 26018 net.cpp:156] Memory required for data: 1060605216
I0403 19:49:25.371336 26018 layer_factory.hpp:77] Creating layer inception_4c/pool_proj
I0403 19:49:25.371359 26018 net.cpp:91] Creating Layer inception_4c/pool_proj
I0403 19:49:25.371379 26018 net.cpp:425] inception_4c/pool_proj <- inception_4c/pool
I0403 19:49:25.371399 26018 net.cpp:399] inception_4c/pool_proj -> inception_4c/pool_proj
I0403 19:49:25.372596 26018 net.cpp:141] Setting up inception_4c/pool_proj
I0403 19:49:25.372633 26018 net.cpp:148] Top shape: 24 64 14 14 (301056)
I0403 19:49:25.372665 26018 net.cpp:156] Memory required for data: 1061809440
I0403 19:49:25.372686 26018 layer_factory.hpp:77] Creating layer inception_4c/relu_pool_proj
I0403 19:49:25.372706 26018 net.cpp:91] Creating Layer inception_4c/relu_pool_proj
I0403 19:49:25.372725 26018 net.cpp:425] inception_4c/relu_pool_proj <- inception_4c/pool_proj
I0403 19:49:25.372743 26018 net.cpp:386] inception_4c/relu_pool_proj -> inception_4c/pool_proj (in-place)
I0403 19:49:25.372923 26018 net.cpp:141] Setting up inception_4c/relu_pool_proj
I0403 19:49:25.372952 26018 net.cpp:148] Top shape: 24 64 14 14 (301056)
I0403 19:49:25.372969 26018 net.cpp:156] Memory required for data: 1063013664
I0403 19:49:25.372985 26018 layer_factory.hpp:77] Creating layer inception_4c/output
I0403 19:49:25.373005 26018 net.cpp:91] Creating Layer inception_4c/output
I0403 19:49:25.373023 26018 net.cpp:425] inception_4c/output <- inception_4c/1x1
I0403 19:49:25.373039 26018 net.cpp:425] inception_4c/output <- inception_4c/3x3
I0403 19:49:25.373056 26018 net.cpp:425] inception_4c/output <- inception_4c/5x5
I0403 19:49:25.373073 26018 net.cpp:425] inception_4c/output <- inception_4c/pool_proj
I0403 19:49:25.373093 26018 net.cpp:399] inception_4c/output -> inception_4c/output
I0403 19:49:25.373142 26018 net.cpp:141] Setting up inception_4c/output
I0403 19:49:25.373170 26018 net.cpp:148] Top shape: 24 512 14 14 (2408448)
I0403 19:49:25.373188 26018 net.cpp:156] Memory required for data: 1072647456
I0403 19:49:25.373204 26018 layer_factory.hpp:77] Creating layer inception_4c/output_inception_4c/output_0_split
I0403 19:49:25.373224 26018 net.cpp:91] Creating Layer inception_4c/output_inception_4c/output_0_split
I0403 19:49:25.373244 26018 net.cpp:425] inception_4c/output_inception_4c/output_0_split <- inception_4c/output
I0403 19:49:25.373263 26018 net.cpp:399] inception_4c/output_inception_4c/output_0_split -> inception_4c/output_inception_4c/output_0_split_0
I0403 19:49:25.373292 26018 net.cpp:399] inception_4c/output_inception_4c/output_0_split -> inception_4c/output_inception_4c/output_0_split_1
I0403 19:49:25.373319 26018 net.cpp:399] inception_4c/output_inception_4c/output_0_split -> inception_4c/output_inception_4c/output_0_split_2
I0403 19:49:25.373343 26018 net.cpp:399] inception_4c/output_inception_4c/output_0_split -> inception_4c/output_inception_4c/output_0_split_3
I0403 19:49:25.373430 26018 net.cpp:141] Setting up inception_4c/output_inception_4c/output_0_split
I0403 19:49:25.373456 26018 net.cpp:148] Top shape: 24 512 14 14 (2408448)
I0403 19:49:25.373473 26018 net.cpp:148] Top shape: 24 512 14 14 (2408448)
I0403 19:49:25.373489 26018 net.cpp:148] Top shape: 24 512 14 14 (2408448)
I0403 19:49:25.373507 26018 net.cpp:148] Top shape: 24 512 14 14 (2408448)
I0403 19:49:25.373519 26018 net.cpp:156] Memory required for data: 1111182624
I0403 19:49:25.373534 26018 layer_factory.hpp:77] Creating layer inception_4d/1x1
I0403 19:49:25.373558 26018 net.cpp:91] Creating Layer inception_4d/1x1
I0403 19:49:25.373577 26018 net.cpp:425] inception_4d/1x1 <- inception_4c/output_inception_4c/output_0_split_0
I0403 19:49:25.373601 26018 net.cpp:399] inception_4d/1x1 -> inception_4d/1x1
I0403 19:49:25.374950 26018 net.cpp:141] Setting up inception_4d/1x1
I0403 19:49:25.374981 26018 net.cpp:148] Top shape: 24 112 14 14 (526848)
I0403 19:49:25.374999 26018 net.cpp:156] Memory required for data: 1113290016
I0403 19:49:25.375017 26018 layer_factory.hpp:77] Creating layer inception_4d/relu_1x1
I0403 19:49:25.375038 26018 net.cpp:91] Creating Layer inception_4d/relu_1x1
I0403 19:49:25.375059 26018 net.cpp:425] inception_4d/relu_1x1 <- inception_4d/1x1
I0403 19:49:25.375080 26018 net.cpp:386] inception_4d/relu_1x1 -> inception_4d/1x1 (in-place)
I0403 19:49:25.375263 26018 net.cpp:141] Setting up inception_4d/relu_1x1
I0403 19:49:25.375296 26018 net.cpp:148] Top shape: 24 112 14 14 (526848)
I0403 19:49:25.375315 26018 net.cpp:156] Memory required for data: 1115397408
I0403 19:49:25.375331 26018 layer_factory.hpp:77] Creating layer inception_4d/3x3_reduce
I0403 19:49:25.375373 26018 net.cpp:91] Creating Layer inception_4d/3x3_reduce
I0403 19:49:25.375396 26018 net.cpp:425] inception_4d/3x3_reduce <- inception_4c/output_inception_4c/output_0_split_1
I0403 19:49:25.375418 26018 net.cpp:399] inception_4d/3x3_reduce -> inception_4d/3x3_reduce
I0403 19:49:25.376885 26018 net.cpp:141] Setting up inception_4d/3x3_reduce
I0403 19:49:25.376915 26018 net.cpp:148] Top shape: 24 144 14 14 (677376)
I0403 19:49:25.376934 26018 net.cpp:156] Memory required for data: 1118106912
I0403 19:49:25.376952 26018 layer_factory.hpp:77] Creating layer inception_4d/relu_3x3_reduce
I0403 19:49:25.376972 26018 net.cpp:91] Creating Layer inception_4d/relu_3x3_reduce
I0403 19:49:25.376991 26018 net.cpp:425] inception_4d/relu_3x3_reduce <- inception_4d/3x3_reduce
I0403 19:49:25.377012 26018 net.cpp:386] inception_4d/relu_3x3_reduce -> inception_4d/3x3_reduce (in-place)
I0403 19:49:25.377302 26018 net.cpp:141] Setting up inception_4d/relu_3x3_reduce
I0403 19:49:25.377334 26018 net.cpp:148] Top shape: 24 144 14 14 (677376)
I0403 19:49:25.377351 26018 net.cpp:156] Memory required for data: 1120816416
I0403 19:49:25.377367 26018 layer_factory.hpp:77] Creating layer inception_4d/3x3
I0403 19:49:25.377391 26018 net.cpp:91] Creating Layer inception_4d/3x3
I0403 19:49:25.377410 26018 net.cpp:425] inception_4d/3x3 <- inception_4d/3x3_reduce
I0403 19:49:25.377432 26018 net.cpp:399] inception_4d/3x3 -> inception_4d/3x3
I0403 19:49:25.381618 26018 net.cpp:141] Setting up inception_4d/3x3
I0403 19:49:25.381649 26018 net.cpp:148] Top shape: 24 288 14 14 (1354752)
I0403 19:49:25.381666 26018 net.cpp:156] Memory required for data: 1126235424
I0403 19:49:25.381685 26018 layer_factory.hpp:77] Creating layer inception_4d/relu_3x3
I0403 19:49:25.381710 26018 net.cpp:91] Creating Layer inception_4d/relu_3x3
I0403 19:49:25.381728 26018 net.cpp:425] inception_4d/relu_3x3 <- inception_4d/3x3
I0403 19:49:25.381747 26018 net.cpp:386] inception_4d/relu_3x3 -> inception_4d/3x3 (in-place)
I0403 19:49:25.381927 26018 net.cpp:141] Setting up inception_4d/relu_3x3
I0403 19:49:25.381961 26018 net.cpp:148] Top shape: 24 288 14 14 (1354752)
I0403 19:49:25.381980 26018 net.cpp:156] Memory required for data: 1131654432
I0403 19:49:25.381996 26018 layer_factory.hpp:77] Creating layer inception_4d/5x5_reduce
I0403 19:49:25.382021 26018 net.cpp:91] Creating Layer inception_4d/5x5_reduce
I0403 19:49:25.382040 26018 net.cpp:425] inception_4d/5x5_reduce <- inception_4c/output_inception_4c/output_0_split_2
I0403 19:49:25.382062 26018 net.cpp:399] inception_4d/5x5_reduce -> inception_4d/5x5_reduce
I0403 19:49:25.383178 26018 net.cpp:141] Setting up inception_4d/5x5_reduce
I0403 19:49:25.383213 26018 net.cpp:148] Top shape: 24 32 14 14 (150528)
I0403 19:49:25.383230 26018 net.cpp:156] Memory required for data: 1132256544
I0403 19:49:25.383263 26018 layer_factory.hpp:77] Creating layer inception_4d/relu_5x5_reduce
I0403 19:49:25.383290 26018 net.cpp:91] Creating Layer inception_4d/relu_5x5_reduce
I0403 19:49:25.383311 26018 net.cpp:425] inception_4d/relu_5x5_reduce <- inception_4d/5x5_reduce
I0403 19:49:25.383332 26018 net.cpp:386] inception_4d/relu_5x5_reduce -> inception_4d/5x5_reduce (in-place)
I0403 19:49:25.383524 26018 net.cpp:141] Setting up inception_4d/relu_5x5_reduce
I0403 19:49:25.383568 26018 net.cpp:148] Top shape: 24 32 14 14 (150528)
I0403 19:49:25.383585 26018 net.cpp:156] Memory required for data: 1132858656
I0403 19:49:25.383601 26018 layer_factory.hpp:77] Creating layer inception_4d/5x5
I0403 19:49:25.383623 26018 net.cpp:91] Creating Layer inception_4d/5x5
I0403 19:49:25.383646 26018 net.cpp:425] inception_4d/5x5 <- inception_4d/5x5_reduce
I0403 19:49:25.383666 26018 net.cpp:399] inception_4d/5x5 -> inception_4d/5x5
I0403 19:49:25.385099 26018 net.cpp:141] Setting up inception_4d/5x5
I0403 19:49:25.385133 26018 net.cpp:148] Top shape: 24 64 14 14 (301056)
I0403 19:49:25.385152 26018 net.cpp:156] Memory required for data: 1134062880
I0403 19:49:25.385171 26018 layer_factory.hpp:77] Creating layer inception_4d/relu_5x5
I0403 19:49:25.385207 26018 net.cpp:91] Creating Layer inception_4d/relu_5x5
I0403 19:49:25.385227 26018 net.cpp:425] inception_4d/relu_5x5 <- inception_4d/5x5
I0403 19:49:25.385262 26018 net.cpp:386] inception_4d/relu_5x5 -> inception_4d/5x5 (in-place)
I0403 19:49:25.385583 26018 net.cpp:141] Setting up inception_4d/relu_5x5
I0403 19:49:25.385614 26018 net.cpp:148] Top shape: 24 64 14 14 (301056)
I0403 19:49:25.385634 26018 net.cpp:156] Memory required for data: 1135267104
I0403 19:49:25.385649 26018 layer_factory.hpp:77] Creating layer inception_4d/pool
I0403 19:49:25.385668 26018 net.cpp:91] Creating Layer inception_4d/pool
I0403 19:49:25.385687 26018 net.cpp:425] inception_4d/pool <- inception_4c/output_inception_4c/output_0_split_3
I0403 19:49:25.385710 26018 net.cpp:399] inception_4d/pool -> inception_4d/pool
I0403 19:49:25.385776 26018 net.cpp:141] Setting up inception_4d/pool
I0403 19:49:25.385802 26018 net.cpp:148] Top shape: 24 512 14 14 (2408448)
I0403 19:49:25.385818 26018 net.cpp:156] Memory required for data: 1144900896
I0403 19:49:25.385833 26018 layer_factory.hpp:77] Creating layer inception_4d/pool_proj
I0403 19:49:25.385856 26018 net.cpp:91] Creating Layer inception_4d/pool_proj
I0403 19:49:25.385877 26018 net.cpp:425] inception_4d/pool_proj <- inception_4d/pool
I0403 19:49:25.385900 26018 net.cpp:399] inception_4d/pool_proj -> inception_4d/pool_proj
I0403 19:49:25.387658 26018 net.cpp:141] Setting up inception_4d/pool_proj
I0403 19:49:25.387691 26018 net.cpp:148] Top shape: 24 64 14 14 (301056)
I0403 19:49:25.387707 26018 net.cpp:156] Memory required for data: 1146105120
I0403 19:49:25.387725 26018 layer_factory.hpp:77] Creating layer inception_4d/relu_pool_proj
I0403 19:49:25.387748 26018 net.cpp:91] Creating Layer inception_4d/relu_pool_proj
I0403 19:49:25.387768 26018 net.cpp:425] inception_4d/relu_pool_proj <- inception_4d/pool_proj
I0403 19:49:25.387786 26018 net.cpp:386] inception_4d/relu_pool_proj -> inception_4d/pool_proj (in-place)
I0403 19:49:25.387969 26018 net.cpp:141] Setting up inception_4d/relu_pool_proj
I0403 19:49:25.388002 26018 net.cpp:148] Top shape: 24 64 14 14 (301056)
I0403 19:49:25.388018 26018 net.cpp:156] Memory required for data: 1147309344
I0403 19:49:25.388034 26018 layer_factory.hpp:77] Creating layer inception_4d/output
I0403 19:49:25.388053 26018 net.cpp:91] Creating Layer inception_4d/output
I0403 19:49:25.388070 26018 net.cpp:425] inception_4d/output <- inception_4d/1x1
I0403 19:49:25.388087 26018 net.cpp:425] inception_4d/output <- inception_4d/3x3
I0403 19:49:25.388104 26018 net.cpp:425] inception_4d/output <- inception_4d/5x5
I0403 19:49:25.388123 26018 net.cpp:425] inception_4d/output <- inception_4d/pool_proj
I0403 19:49:25.388140 26018 net.cpp:399] inception_4d/output -> inception_4d/output
I0403 19:49:25.388190 26018 net.cpp:141] Setting up inception_4d/output
I0403 19:49:25.388216 26018 net.cpp:148] Top shape: 24 528 14 14 (2483712)
I0403 19:49:25.388231 26018 net.cpp:156] Memory required for data: 1157244192
I0403 19:49:25.388245 26018 layer_factory.hpp:77] Creating layer inception_4d/output_inception_4d/output_0_split
I0403 19:49:25.388267 26018 net.cpp:91] Creating Layer inception_4d/output_inception_4d/output_0_split
I0403 19:49:25.388291 26018 net.cpp:425] inception_4d/output_inception_4d/output_0_split <- inception_4d/output
I0403 19:49:25.388315 26018 net.cpp:399] inception_4d/output_inception_4d/output_0_split -> inception_4d/output_inception_4d/output_0_split_0
I0403 19:49:25.388340 26018 net.cpp:399] inception_4d/output_inception_4d/output_0_split -> inception_4d/output_inception_4d/output_0_split_1
I0403 19:49:25.388363 26018 net.cpp:399] inception_4d/output_inception_4d/output_0_split -> inception_4d/output_inception_4d/output_0_split_2
I0403 19:49:25.388386 26018 net.cpp:399] inception_4d/output_inception_4d/output_0_split -> inception_4d/output_inception_4d/output_0_split_3
I0403 19:49:25.388411 26018 net.cpp:399] inception_4d/output_inception_4d/output_0_split -> inception_4d/output_inception_4d/output_0_split_4
I0403 19:49:25.388537 26018 net.cpp:141] Setting up inception_4d/output_inception_4d/output_0_split
I0403 19:49:25.388577 26018 net.cpp:148] Top shape: 24 528 14 14 (2483712)
I0403 19:49:25.388597 26018 net.cpp:148] Top shape: 24 528 14 14 (2483712)
I0403 19:49:25.388612 26018 net.cpp:148] Top shape: 24 528 14 14 (2483712)
I0403 19:49:25.388627 26018 net.cpp:148] Top shape: 24 528 14 14 (2483712)
I0403 19:49:25.388641 26018 net.cpp:148] Top shape: 24 528 14 14 (2483712)
I0403 19:49:25.388655 26018 net.cpp:156] Memory required for data: 1206918432
I0403 19:49:25.388672 26018 layer_factory.hpp:77] Creating layer loss2/ave_pool
I0403 19:49:25.388695 26018 net.cpp:91] Creating Layer loss2/ave_pool
I0403 19:49:25.388713 26018 net.cpp:425] loss2/ave_pool <- inception_4d/output_inception_4d/output_0_split_0
I0403 19:49:25.388734 26018 net.cpp:399] loss2/ave_pool -> loss2/ave_pool
I0403 19:49:25.389045 26018 net.cpp:141] Setting up loss2/ave_pool
I0403 19:49:25.389075 26018 net.cpp:148] Top shape: 24 528 4 4 (202752)
I0403 19:49:25.389092 26018 net.cpp:156] Memory required for data: 1207729440
I0403 19:49:25.389108 26018 layer_factory.hpp:77] Creating layer loss2/conv
I0403 19:49:25.389132 26018 net.cpp:91] Creating Layer loss2/conv
I0403 19:49:25.389153 26018 net.cpp:425] loss2/conv <- loss2/ave_pool
I0403 19:49:25.389176 26018 net.cpp:399] loss2/conv -> loss2/conv
I0403 19:49:25.390998 26018 net.cpp:141] Setting up loss2/conv
I0403 19:49:25.391033 26018 net.cpp:148] Top shape: 24 128 4 4 (49152)
I0403 19:49:25.391050 26018 net.cpp:156] Memory required for data: 1207926048
I0403 19:49:25.391068 26018 layer_factory.hpp:77] Creating layer loss2/relu_conv
I0403 19:49:25.391089 26018 net.cpp:91] Creating Layer loss2/relu_conv
I0403 19:49:25.391105 26018 net.cpp:425] loss2/relu_conv <- loss2/conv
I0403 19:49:25.391126 26018 net.cpp:386] loss2/relu_conv -> loss2/conv (in-place)
I0403 19:49:25.391402 26018 net.cpp:141] Setting up loss2/relu_conv
I0403 19:49:25.391435 26018 net.cpp:148] Top shape: 24 128 4 4 (49152)
I0403 19:49:25.391451 26018 net.cpp:156] Memory required for data: 1208122656
I0403 19:49:25.391469 26018 layer_factory.hpp:77] Creating layer loss2/fc
I0403 19:49:25.391487 26018 net.cpp:91] Creating Layer loss2/fc
I0403 19:49:25.391505 26018 net.cpp:425] loss2/fc <- loss2/conv
I0403 19:49:25.391525 26018 net.cpp:399] loss2/fc -> loss2/fc
I0403 19:49:25.408481 26018 net.cpp:141] Setting up loss2/fc
I0403 19:49:25.408521 26018 net.cpp:148] Top shape: 24 1024 (24576)
I0403 19:49:25.408540 26018 net.cpp:156] Memory required for data: 1208220960
I0403 19:49:25.408558 26018 layer_factory.hpp:77] Creating layer loss2/relu_fc
I0403 19:49:25.408578 26018 net.cpp:91] Creating Layer loss2/relu_fc
I0403 19:49:25.408596 26018 net.cpp:425] loss2/relu_fc <- loss2/fc
I0403 19:49:25.408617 26018 net.cpp:386] loss2/relu_fc -> loss2/fc (in-place)
I0403 19:49:25.408903 26018 net.cpp:141] Setting up loss2/relu_fc
I0403 19:49:25.408931 26018 net.cpp:148] Top shape: 24 1024 (24576)
I0403 19:49:25.408949 26018 net.cpp:156] Memory required for data: 1208319264
I0403 19:49:25.408965 26018 layer_factory.hpp:77] Creating layer loss2/drop_fc
I0403 19:49:25.408984 26018 net.cpp:91] Creating Layer loss2/drop_fc
I0403 19:49:25.409001 26018 net.cpp:425] loss2/drop_fc <- loss2/fc
I0403 19:49:25.409020 26018 net.cpp:386] loss2/drop_fc -> loss2/fc (in-place)
I0403 19:49:25.409072 26018 net.cpp:141] Setting up loss2/drop_fc
I0403 19:49:25.409098 26018 net.cpp:148] Top shape: 24 1024 (24576)
I0403 19:49:25.409113 26018 net.cpp:156] Memory required for data: 1208417568
I0403 19:49:25.409129 26018 layer_factory.hpp:77] Creating layer loss2/classifier_plantvillage
I0403 19:49:25.409150 26018 net.cpp:91] Creating Layer loss2/classifier_plantvillage
I0403 19:49:25.409168 26018 net.cpp:425] loss2/classifier_plantvillage <- loss2/fc
I0403 19:49:25.409188 26018 net.cpp:399] loss2/classifier_plantvillage -> loss2/classifier_plantvillage
I0403 19:49:25.409575 26018 net.cpp:141] Setting up loss2/classifier_plantvillage
I0403 19:49:25.409602 26018 net.cpp:148] Top shape: 24 38 (912)
I0403 19:49:25.409636 26018 net.cpp:156] Memory required for data: 1208421216
I0403 19:49:25.409654 26018 layer_factory.hpp:77] Creating layer loss2/classifier_plantvillage_loss2/classifier_plantvillage_0_split
I0403 19:49:25.409675 26018 net.cpp:91] Creating Layer loss2/classifier_plantvillage_loss2/classifier_plantvillage_0_split
I0403 19:49:25.409693 26018 net.cpp:425] loss2/classifier_plantvillage_loss2/classifier_plantvillage_0_split <- loss2/classifier_plantvillage
I0403 19:49:25.409714 26018 net.cpp:399] loss2/classifier_plantvillage_loss2/classifier_plantvillage_0_split -> loss2/classifier_plantvillage_loss2/classifier_plantvillage_0_split_0
I0403 19:49:25.409736 26018 net.cpp:399] loss2/classifier_plantvillage_loss2/classifier_plantvillage_0_split -> loss2/classifier_plantvillage_loss2/classifier_plantvillage_0_split_1
I0403 19:49:25.409759 26018 net.cpp:399] loss2/classifier_plantvillage_loss2/classifier_plantvillage_0_split -> loss2/classifier_plantvillage_loss2/classifier_plantvillage_0_split_2
I0403 19:49:25.409837 26018 net.cpp:141] Setting up loss2/classifier_plantvillage_loss2/classifier_plantvillage_0_split
I0403 19:49:25.409868 26018 net.cpp:148] Top shape: 24 38 (912)
I0403 19:49:25.409888 26018 net.cpp:148] Top shape: 24 38 (912)
I0403 19:49:25.409904 26018 net.cpp:148] Top shape: 24 38 (912)
I0403 19:49:25.409917 26018 net.cpp:156] Memory required for data: 1208432160
I0403 19:49:25.409932 26018 layer_factory.hpp:77] Creating layer inception_4e/1x1
I0403 19:49:25.409956 26018 net.cpp:91] Creating Layer inception_4e/1x1
I0403 19:49:25.409975 26018 net.cpp:425] inception_4e/1x1 <- inception_4d/output_inception_4d/output_0_split_1
I0403 19:49:25.409994 26018 net.cpp:399] inception_4e/1x1 -> inception_4e/1x1
I0403 19:49:25.411721 26018 net.cpp:141] Setting up inception_4e/1x1
I0403 19:49:25.411753 26018 net.cpp:148] Top shape: 24 256 14 14 (1204224)
I0403 19:49:25.411770 26018 net.cpp:156] Memory required for data: 1213249056
I0403 19:49:25.411790 26018 layer_factory.hpp:77] Creating layer inception_4e/relu_1x1
I0403 19:49:25.411809 26018 net.cpp:91] Creating Layer inception_4e/relu_1x1
I0403 19:49:25.411828 26018 net.cpp:425] inception_4e/relu_1x1 <- inception_4e/1x1
I0403 19:49:25.411849 26018 net.cpp:386] inception_4e/relu_1x1 -> inception_4e/1x1 (in-place)
I0403 19:49:25.412130 26018 net.cpp:141] Setting up inception_4e/relu_1x1
I0403 19:49:25.412163 26018 net.cpp:148] Top shape: 24 256 14 14 (1204224)
I0403 19:49:25.412180 26018 net.cpp:156] Memory required for data: 1218065952
I0403 19:49:25.412196 26018 layer_factory.hpp:77] Creating layer inception_4e/3x3_reduce
I0403 19:49:25.412220 26018 net.cpp:91] Creating Layer inception_4e/3x3_reduce
I0403 19:49:25.412241 26018 net.cpp:425] inception_4e/3x3_reduce <- inception_4d/output_inception_4d/output_0_split_2
I0403 19:49:25.412262 26018 net.cpp:399] inception_4e/3x3_reduce -> inception_4e/3x3_reduce
I0403 19:49:25.414305 26018 net.cpp:141] Setting up inception_4e/3x3_reduce
I0403 19:49:25.414340 26018 net.cpp:148] Top shape: 24 160 14 14 (752640)
I0403 19:49:25.414357 26018 net.cpp:156] Memory required for data: 1221076512
I0403 19:49:25.414376 26018 layer_factory.hpp:77] Creating layer inception_4e/relu_3x3_reduce
I0403 19:49:25.414397 26018 net.cpp:91] Creating Layer inception_4e/relu_3x3_reduce
I0403 19:49:25.414415 26018 net.cpp:425] inception_4e/relu_3x3_reduce <- inception_4e/3x3_reduce
I0403 19:49:25.414433 26018 net.cpp:386] inception_4e/relu_3x3_reduce -> inception_4e/3x3_reduce (in-place)
I0403 19:49:25.414613 26018 net.cpp:141] Setting up inception_4e/relu_3x3_reduce
I0403 19:49:25.414639 26018 net.cpp:148] Top shape: 24 160 14 14 (752640)
I0403 19:49:25.414655 26018 net.cpp:156] Memory required for data: 1224087072
I0403 19:49:25.414671 26018 layer_factory.hpp:77] Creating layer inception_4e/3x3
I0403 19:49:25.414693 26018 net.cpp:91] Creating Layer inception_4e/3x3
I0403 19:49:25.414711 26018 net.cpp:425] inception_4e/3x3 <- inception_4e/3x3_reduce
I0403 19:49:25.414733 26018 net.cpp:399] inception_4e/3x3 -> inception_4e/3x3
I0403 19:49:25.419543 26018 net.cpp:141] Setting up inception_4e/3x3
I0403 19:49:25.419585 26018 net.cpp:148] Top shape: 24 320 14 14 (1505280)
I0403 19:49:25.419603 26018 net.cpp:156] Memory required for data: 1230108192
I0403 19:49:25.419623 26018 layer_factory.hpp:77] Creating layer inception_4e/relu_3x3
I0403 19:49:25.419646 26018 net.cpp:91] Creating Layer inception_4e/relu_3x3
I0403 19:49:25.419667 26018 net.cpp:425] inception_4e/relu_3x3 <- inception_4e/3x3
I0403 19:49:25.419687 26018 net.cpp:386] inception_4e/relu_3x3 -> inception_4e/3x3 (in-place)
I0403 19:49:25.419971 26018 net.cpp:141] Setting up inception_4e/relu_3x3
I0403 19:49:25.420001 26018 net.cpp:148] Top shape: 24 320 14 14 (1505280)
I0403 19:49:25.420017 26018 net.cpp:156] Memory required for data: 1236129312
I0403 19:49:25.420033 26018 layer_factory.hpp:77] Creating layer inception_4e/5x5_reduce
I0403 19:49:25.420056 26018 net.cpp:91] Creating Layer inception_4e/5x5_reduce
I0403 19:49:25.420074 26018 net.cpp:425] inception_4e/5x5_reduce <- inception_4d/output_inception_4d/output_0_split_3
I0403 19:49:25.420096 26018 net.cpp:399] inception_4e/5x5_reduce -> inception_4e/5x5_reduce
I0403 19:49:25.421123 26018 net.cpp:141] Setting up inception_4e/5x5_reduce
I0403 19:49:25.421157 26018 net.cpp:148] Top shape: 24 32 14 14 (150528)
I0403 19:49:25.421175 26018 net.cpp:156] Memory required for data: 1236731424
I0403 19:49:25.421195 26018 layer_factory.hpp:77] Creating layer inception_4e/relu_5x5_reduce
I0403 19:49:25.421213 26018 net.cpp:91] Creating Layer inception_4e/relu_5x5_reduce
I0403 19:49:25.421231 26018 net.cpp:425] inception_4e/relu_5x5_reduce <- inception_4e/5x5_reduce
I0403 19:49:25.421249 26018 net.cpp:386] inception_4e/relu_5x5_reduce -> inception_4e/5x5_reduce (in-place)
I0403 19:49:25.421553 26018 net.cpp:141] Setting up inception_4e/relu_5x5_reduce
I0403 19:49:25.421584 26018 net.cpp:148] Top shape: 24 32 14 14 (150528)
I0403 19:49:25.421604 26018 net.cpp:156] Memory required for data: 1237333536
I0403 19:49:25.421620 26018 layer_factory.hpp:77] Creating layer inception_4e/5x5
I0403 19:49:25.421665 26018 net.cpp:91] Creating Layer inception_4e/5x5
I0403 19:49:25.421700 26018 net.cpp:425] inception_4e/5x5 <- inception_4e/5x5_reduce
I0403 19:49:25.421720 26018 net.cpp:399] inception_4e/5x5 -> inception_4e/5x5
I0403 19:49:25.423455 26018 net.cpp:141] Setting up inception_4e/5x5
I0403 19:49:25.423485 26018 net.cpp:148] Top shape: 24 128 14 14 (602112)
I0403 19:49:25.423503 26018 net.cpp:156] Memory required for data: 1239741984
I0403 19:49:25.423522 26018 layer_factory.hpp:77] Creating layer inception_4e/relu_5x5
I0403 19:49:25.423547 26018 net.cpp:91] Creating Layer inception_4e/relu_5x5
I0403 19:49:25.423565 26018 net.cpp:425] inception_4e/relu_5x5 <- inception_4e/5x5
I0403 19:49:25.423585 26018 net.cpp:386] inception_4e/relu_5x5 -> inception_4e/5x5 (in-place)
I0403 19:49:25.423774 26018 net.cpp:141] Setting up inception_4e/relu_5x5
I0403 19:49:25.423801 26018 net.cpp:148] Top shape: 24 128 14 14 (602112)
I0403 19:49:25.423817 26018 net.cpp:156] Memory required for data: 1242150432
I0403 19:49:25.423832 26018 layer_factory.hpp:77] Creating layer inception_4e/pool
I0403 19:49:25.423853 26018 net.cpp:91] Creating Layer inception_4e/pool
I0403 19:49:25.423869 26018 net.cpp:425] inception_4e/pool <- inception_4d/output_inception_4d/output_0_split_4
I0403 19:49:25.423892 26018 net.cpp:399] inception_4e/pool -> inception_4e/pool
I0403 19:49:25.423960 26018 net.cpp:141] Setting up inception_4e/pool
I0403 19:49:25.423990 26018 net.cpp:148] Top shape: 24 528 14 14 (2483712)
I0403 19:49:25.424005 26018 net.cpp:156] Memory required for data: 1252085280
I0403 19:49:25.424020 26018 layer_factory.hpp:77] Creating layer inception_4e/pool_proj
I0403 19:49:25.424043 26018 net.cpp:91] Creating Layer inception_4e/pool_proj
I0403 19:49:25.424062 26018 net.cpp:425] inception_4e/pool_proj <- inception_4e/pool
I0403 19:49:25.424080 26018 net.cpp:399] inception_4e/pool_proj -> inception_4e/pool_proj
I0403 19:49:25.425560 26018 net.cpp:141] Setting up inception_4e/pool_proj
I0403 19:49:25.425601 26018 net.cpp:148] Top shape: 24 128 14 14 (602112)
I0403 19:49:25.425621 26018 net.cpp:156] Memory required for data: 1254493728
I0403 19:49:25.425639 26018 layer_factory.hpp:77] Creating layer inception_4e/relu_pool_proj
I0403 19:49:25.425662 26018 net.cpp:91] Creating Layer inception_4e/relu_pool_proj
I0403 19:49:25.425681 26018 net.cpp:425] inception_4e/relu_pool_proj <- inception_4e/pool_proj
I0403 19:49:25.425700 26018 net.cpp:386] inception_4e/relu_pool_proj -> inception_4e/pool_proj (in-place)
I0403 19:49:25.425984 26018 net.cpp:141] Setting up inception_4e/relu_pool_proj
I0403 19:49:25.426013 26018 net.cpp:148] Top shape: 24 128 14 14 (602112)
I0403 19:49:25.426030 26018 net.cpp:156] Memory required for data: 1256902176
I0403 19:49:25.426048 26018 layer_factory.hpp:77] Creating layer inception_4e/output
I0403 19:49:25.426070 26018 net.cpp:91] Creating Layer inception_4e/output
I0403 19:49:25.426090 26018 net.cpp:425] inception_4e/output <- inception_4e/1x1
I0403 19:49:25.426105 26018 net.cpp:425] inception_4e/output <- inception_4e/3x3
I0403 19:49:25.426125 26018 net.cpp:425] inception_4e/output <- inception_4e/5x5
I0403 19:49:25.426141 26018 net.cpp:425] inception_4e/output <- inception_4e/pool_proj
I0403 19:49:25.426158 26018 net.cpp:399] inception_4e/output -> inception_4e/output
I0403 19:49:25.426210 26018 net.cpp:141] Setting up inception_4e/output
I0403 19:49:25.426237 26018 net.cpp:148] Top shape: 24 832 14 14 (3913728)
I0403 19:49:25.426252 26018 net.cpp:156] Memory required for data: 1272557088
I0403 19:49:25.426267 26018 layer_factory.hpp:77] Creating layer pool4/3x3_s2
I0403 19:49:25.426290 26018 net.cpp:91] Creating Layer pool4/3x3_s2
I0403 19:49:25.426311 26018 net.cpp:425] pool4/3x3_s2 <- inception_4e/output
I0403 19:49:25.426337 26018 net.cpp:399] pool4/3x3_s2 -> pool4/3x3_s2
I0403 19:49:25.426404 26018 net.cpp:141] Setting up pool4/3x3_s2
I0403 19:49:25.426432 26018 net.cpp:148] Top shape: 24 832 7 7 (978432)
I0403 19:49:25.426448 26018 net.cpp:156] Memory required for data: 1276470816
I0403 19:49:25.426463 26018 layer_factory.hpp:77] Creating layer pool4/3x3_s2_pool4/3x3_s2_0_split
I0403 19:49:25.426486 26018 net.cpp:91] Creating Layer pool4/3x3_s2_pool4/3x3_s2_0_split
I0403 19:49:25.426503 26018 net.cpp:425] pool4/3x3_s2_pool4/3x3_s2_0_split <- pool4/3x3_s2
I0403 19:49:25.426525 26018 net.cpp:399] pool4/3x3_s2_pool4/3x3_s2_0_split -> pool4/3x3_s2_pool4/3x3_s2_0_split_0
I0403 19:49:25.426548 26018 net.cpp:399] pool4/3x3_s2_pool4/3x3_s2_0_split -> pool4/3x3_s2_pool4/3x3_s2_0_split_1
I0403 19:49:25.426569 26018 net.cpp:399] pool4/3x3_s2_pool4/3x3_s2_0_split -> pool4/3x3_s2_pool4/3x3_s2_0_split_2
I0403 19:49:25.426591 26018 net.cpp:399] pool4/3x3_s2_pool4/3x3_s2_0_split -> pool4/3x3_s2_pool4/3x3_s2_0_split_3
I0403 19:49:25.426681 26018 net.cpp:141] Setting up pool4/3x3_s2_pool4/3x3_s2_0_split
I0403 19:49:25.426707 26018 net.cpp:148] Top shape: 24 832 7 7 (978432)
I0403 19:49:25.426724 26018 net.cpp:148] Top shape: 24 832 7 7 (978432)
I0403 19:49:25.426740 26018 net.cpp:148] Top shape: 24 832 7 7 (978432)
I0403 19:49:25.426756 26018 net.cpp:148] Top shape: 24 832 7 7 (978432)
I0403 19:49:25.426769 26018 net.cpp:156] Memory required for data: 1292125728
I0403 19:49:25.426785 26018 layer_factory.hpp:77] Creating layer inception_5a/1x1
I0403 19:49:25.426807 26018 net.cpp:91] Creating Layer inception_5a/1x1
I0403 19:49:25.426828 26018 net.cpp:425] inception_5a/1x1 <- pool4/3x3_s2_pool4/3x3_s2_0_split_0
I0403 19:49:25.426849 26018 net.cpp:399] inception_5a/1x1 -> inception_5a/1x1
I0403 19:49:25.429666 26018 net.cpp:141] Setting up inception_5a/1x1
I0403 19:49:25.429702 26018 net.cpp:148] Top shape: 24 256 7 7 (301056)
I0403 19:49:25.429719 26018 net.cpp:156] Memory required for data: 1293329952
I0403 19:49:25.429739 26018 layer_factory.hpp:77] Creating layer inception_5a/relu_1x1
I0403 19:49:25.429760 26018 net.cpp:91] Creating Layer inception_5a/relu_1x1
I0403 19:49:25.429777 26018 net.cpp:425] inception_5a/relu_1x1 <- inception_5a/1x1
I0403 19:49:25.429797 26018 net.cpp:386] inception_5a/relu_1x1 -> inception_5a/1x1 (in-place)
I0403 19:49:25.430111 26018 net.cpp:141] Setting up inception_5a/relu_1x1
I0403 19:49:25.430142 26018 net.cpp:148] Top shape: 24 256 7 7 (301056)
I0403 19:49:25.430160 26018 net.cpp:156] Memory required for data: 1294534176
I0403 19:49:25.430176 26018 layer_factory.hpp:77] Creating layer inception_5a/3x3_reduce
I0403 19:49:25.430200 26018 net.cpp:91] Creating Layer inception_5a/3x3_reduce
I0403 19:49:25.430223 26018 net.cpp:425] inception_5a/3x3_reduce <- pool4/3x3_s2_pool4/3x3_s2_0_split_1
I0403 19:49:25.430243 26018 net.cpp:399] inception_5a/3x3_reduce -> inception_5a/3x3_reduce
I0403 19:49:25.432687 26018 net.cpp:141] Setting up inception_5a/3x3_reduce
I0403 19:49:25.432723 26018 net.cpp:148] Top shape: 24 160 7 7 (188160)
I0403 19:49:25.432740 26018 net.cpp:156] Memory required for data: 1295286816
I0403 19:49:25.432760 26018 layer_factory.hpp:77] Creating layer inception_5a/relu_3x3_reduce
I0403 19:49:25.432782 26018 net.cpp:91] Creating Layer inception_5a/relu_3x3_reduce
I0403 19:49:25.432799 26018 net.cpp:425] inception_5a/relu_3x3_reduce <- inception_5a/3x3_reduce
I0403 19:49:25.432818 26018 net.cpp:386] inception_5a/relu_3x3_reduce -> inception_5a/3x3_reduce (in-place)
I0403 19:49:25.433003 26018 net.cpp:141] Setting up inception_5a/relu_3x3_reduce
I0403 19:49:25.433034 26018 net.cpp:148] Top shape: 24 160 7 7 (188160)
I0403 19:49:25.433053 26018 net.cpp:156] Memory required for data: 1296039456
I0403 19:49:25.433069 26018 layer_factory.hpp:77] Creating layer inception_5a/3x3
I0403 19:49:25.433090 26018 net.cpp:91] Creating Layer inception_5a/3x3
I0403 19:49:25.433107 26018 net.cpp:425] inception_5a/3x3 <- inception_5a/3x3_reduce
I0403 19:49:25.433130 26018 net.cpp:399] inception_5a/3x3 -> inception_5a/3x3
I0403 19:49:25.438092 26018 net.cpp:141] Setting up inception_5a/3x3
I0403 19:49:25.438127 26018 net.cpp:148] Top shape: 24 320 7 7 (376320)
I0403 19:49:25.438145 26018 net.cpp:156] Memory required for data: 1297544736
I0403 19:49:25.438163 26018 layer_factory.hpp:77] Creating layer inception_5a/relu_3x3
I0403 19:49:25.438187 26018 net.cpp:91] Creating Layer inception_5a/relu_3x3
I0403 19:49:25.438206 26018 net.cpp:425] inception_5a/relu_3x3 <- inception_5a/3x3
I0403 19:49:25.438225 26018 net.cpp:386] inception_5a/relu_3x3 -> inception_5a/3x3 (in-place)
I0403 19:49:25.438522 26018 net.cpp:141] Setting up inception_5a/relu_3x3
I0403 19:49:25.438552 26018 net.cpp:148] Top shape: 24 320 7 7 (376320)
I0403 19:49:25.438570 26018 net.cpp:156] Memory required for data: 1299050016
I0403 19:49:25.438583 26018 layer_factory.hpp:77] Creating layer inception_5a/5x5_reduce
I0403 19:49:25.438609 26018 net.cpp:91] Creating Layer inception_5a/5x5_reduce
I0403 19:49:25.438632 26018 net.cpp:425] inception_5a/5x5_reduce <- pool4/3x3_s2_pool4/3x3_s2_0_split_2
I0403 19:49:25.438652 26018 net.cpp:399] inception_5a/5x5_reduce -> inception_5a/5x5_reduce
I0403 19:49:25.439800 26018 net.cpp:141] Setting up inception_5a/5x5_reduce
I0403 19:49:25.439836 26018 net.cpp:148] Top shape: 24 32 7 7 (37632)
I0403 19:49:25.439856 26018 net.cpp:156] Memory required for data: 1299200544
I0403 19:49:25.439874 26018 layer_factory.hpp:77] Creating layer inception_5a/relu_5x5_reduce
I0403 19:49:25.439893 26018 net.cpp:91] Creating Layer inception_5a/relu_5x5_reduce
I0403 19:49:25.439913 26018 net.cpp:425] inception_5a/relu_5x5_reduce <- inception_5a/5x5_reduce
I0403 19:49:25.439934 26018 net.cpp:386] inception_5a/relu_5x5_reduce -> inception_5a/5x5_reduce (in-place)
I0403 19:49:25.440227 26018 net.cpp:141] Setting up inception_5a/relu_5x5_reduce
I0403 19:49:25.440258 26018 net.cpp:148] Top shape: 24 32 7 7 (37632)
I0403 19:49:25.440275 26018 net.cpp:156] Memory required for data: 1299351072
I0403 19:49:25.440295 26018 layer_factory.hpp:77] Creating layer inception_5a/5x5
I0403 19:49:25.440321 26018 net.cpp:91] Creating Layer inception_5a/5x5
I0403 19:49:25.440343 26018 net.cpp:425] inception_5a/5x5 <- inception_5a/5x5_reduce
I0403 19:49:25.440368 26018 net.cpp:399] inception_5a/5x5 -> inception_5a/5x5
I0403 19:49:25.442077 26018 net.cpp:141] Setting up inception_5a/5x5
I0403 19:49:25.442121 26018 net.cpp:148] Top shape: 24 128 7 7 (150528)
I0403 19:49:25.442137 26018 net.cpp:156] Memory required for data: 1299953184
I0403 19:49:25.442157 26018 layer_factory.hpp:77] Creating layer inception_5a/relu_5x5
I0403 19:49:25.442179 26018 net.cpp:91] Creating Layer inception_5a/relu_5x5
I0403 19:49:25.442199 26018 net.cpp:425] inception_5a/relu_5x5 <- inception_5a/5x5
I0403 19:49:25.442216 26018 net.cpp:386] inception_5a/relu_5x5 -> inception_5a/5x5 (in-place)
I0403 19:49:25.442406 26018 net.cpp:141] Setting up inception_5a/relu_5x5
I0403 19:49:25.442437 26018 net.cpp:148] Top shape: 24 128 7 7 (150528)
I0403 19:49:25.442452 26018 net.cpp:156] Memory required for data: 1300555296
I0403 19:49:25.442469 26018 layer_factory.hpp:77] Creating layer inception_5a/pool
I0403 19:49:25.442488 26018 net.cpp:91] Creating Layer inception_5a/pool
I0403 19:49:25.442504 26018 net.cpp:425] inception_5a/pool <- pool4/3x3_s2_pool4/3x3_s2_0_split_3
I0403 19:49:25.442524 26018 net.cpp:399] inception_5a/pool -> inception_5a/pool
I0403 19:49:25.442595 26018 net.cpp:141] Setting up inception_5a/pool
I0403 19:49:25.442623 26018 net.cpp:148] Top shape: 24 832 7 7 (978432)
I0403 19:49:25.442641 26018 net.cpp:156] Memory required for data: 1304469024
I0403 19:49:25.442656 26018 layer_factory.hpp:77] Creating layer inception_5a/pool_proj
I0403 19:49:25.442679 26018 net.cpp:91] Creating Layer inception_5a/pool_proj
I0403 19:49:25.442698 26018 net.cpp:425] inception_5a/pool_proj <- inception_5a/pool
I0403 19:49:25.442718 26018 net.cpp:399] inception_5a/pool_proj -> inception_5a/pool_proj
I0403 19:49:25.444926 26018 net.cpp:141] Setting up inception_5a/pool_proj
I0403 19:49:25.444959 26018 net.cpp:148] Top shape: 24 128 7 7 (150528)
I0403 19:49:25.444978 26018 net.cpp:156] Memory required for data: 1305071136
I0403 19:49:25.444998 26018 layer_factory.hpp:77] Creating layer inception_5a/relu_pool_proj
I0403 19:49:25.445019 26018 net.cpp:91] Creating Layer inception_5a/relu_pool_proj
I0403 19:49:25.445036 26018 net.cpp:425] inception_5a/relu_pool_proj <- inception_5a/pool_proj
I0403 19:49:25.445055 26018 net.cpp:386] inception_5a/relu_pool_proj -> inception_5a/pool_proj (in-place)
I0403 19:49:25.445350 26018 net.cpp:141] Setting up inception_5a/relu_pool_proj
I0403 19:49:25.445382 26018 net.cpp:148] Top shape: 24 128 7 7 (150528)
I0403 19:49:25.445400 26018 net.cpp:156] Memory required for data: 1305673248
I0403 19:49:25.445416 26018 layer_factory.hpp:77] Creating layer inception_5a/output
I0403 19:49:25.445436 26018 net.cpp:91] Creating Layer inception_5a/output
I0403 19:49:25.445454 26018 net.cpp:425] inception_5a/output <- inception_5a/1x1
I0403 19:49:25.445472 26018 net.cpp:425] inception_5a/output <- inception_5a/3x3
I0403 19:49:25.445489 26018 net.cpp:425] inception_5a/output <- inception_5a/5x5
I0403 19:49:25.445508 26018 net.cpp:425] inception_5a/output <- inception_5a/pool_proj
I0403 19:49:25.445526 26018 net.cpp:399] inception_5a/output -> inception_5a/output
I0403 19:49:25.445579 26018 net.cpp:141] Setting up inception_5a/output
I0403 19:49:25.445608 26018 net.cpp:148] Top shape: 24 832 7 7 (978432)
I0403 19:49:25.445622 26018 net.cpp:156] Memory required for data: 1309586976
I0403 19:49:25.445639 26018 layer_factory.hpp:77] Creating layer inception_5a/output_inception_5a/output_0_split
I0403 19:49:25.445657 26018 net.cpp:91] Creating Layer inception_5a/output_inception_5a/output_0_split
I0403 19:49:25.445672 26018 net.cpp:425] inception_5a/output_inception_5a/output_0_split <- inception_5a/output
I0403 19:49:25.445693 26018 net.cpp:399] inception_5a/output_inception_5a/output_0_split -> inception_5a/output_inception_5a/output_0_split_0
I0403 19:49:25.445715 26018 net.cpp:399] inception_5a/output_inception_5a/output_0_split -> inception_5a/output_inception_5a/output_0_split_1
I0403 19:49:25.445739 26018 net.cpp:399] inception_5a/output_inception_5a/output_0_split -> inception_5a/output_inception_5a/output_0_split_2
I0403 19:49:25.445761 26018 net.cpp:399] inception_5a/output_inception_5a/output_0_split -> inception_5a/output_inception_5a/output_0_split_3
I0403 19:49:25.445870 26018 net.cpp:141] Setting up inception_5a/output_inception_5a/output_0_split
I0403 19:49:25.445901 26018 net.cpp:148] Top shape: 24 832 7 7 (978432)
I0403 19:49:25.445919 26018 net.cpp:148] Top shape: 24 832 7 7 (978432)
I0403 19:49:25.445932 26018 net.cpp:148] Top shape: 24 832 7 7 (978432)
I0403 19:49:25.445946 26018 net.cpp:148] Top shape: 24 832 7 7 (978432)
I0403 19:49:25.445960 26018 net.cpp:156] Memory required for data: 1325241888
I0403 19:49:25.445976 26018 layer_factory.hpp:77] Creating layer inception_5b/1x1
I0403 19:49:25.446001 26018 net.cpp:91] Creating Layer inception_5b/1x1
I0403 19:49:25.446020 26018 net.cpp:425] inception_5b/1x1 <- inception_5a/output_inception_5a/output_0_split_0
I0403 19:49:25.446043 26018 net.cpp:399] inception_5b/1x1 -> inception_5b/1x1
I0403 19:49:25.449645 26018 net.cpp:141] Setting up inception_5b/1x1
I0403 19:49:25.449676 26018 net.cpp:148] Top shape: 24 384 7 7 (451584)
I0403 19:49:25.449694 26018 net.cpp:156] Memory required for data: 1327048224
I0403 19:49:25.449712 26018 layer_factory.hpp:77] Creating layer inception_5b/relu_1x1
I0403 19:49:25.449733 26018 net.cpp:91] Creating Layer inception_5b/relu_1x1
I0403 19:49:25.449750 26018 net.cpp:425] inception_5b/relu_1x1 <- inception_5b/1x1
I0403 19:49:25.449767 26018 net.cpp:386] inception_5b/relu_1x1 -> inception_5b/1x1 (in-place)
I0403 19:49:25.450062 26018 net.cpp:141] Setting up inception_5b/relu_1x1
I0403 19:49:25.450089 26018 net.cpp:148] Top shape: 24 384 7 7 (451584)
I0403 19:49:25.450108 26018 net.cpp:156] Memory required for data: 1328854560
I0403 19:49:25.450124 26018 layer_factory.hpp:77] Creating layer inception_5b/3x3_reduce
I0403 19:49:25.450147 26018 net.cpp:91] Creating Layer inception_5b/3x3_reduce
I0403 19:49:25.450170 26018 net.cpp:425] inception_5b/3x3_reduce <- inception_5a/output_inception_5a/output_0_split_1
I0403 19:49:25.450193 26018 net.cpp:399] inception_5b/3x3_reduce -> inception_5b/3x3_reduce
I0403 19:49:25.452756 26018 net.cpp:141] Setting up inception_5b/3x3_reduce
I0403 19:49:25.452791 26018 net.cpp:148] Top shape: 24 192 7 7 (225792)
I0403 19:49:25.452808 26018 net.cpp:156] Memory required for data: 1329757728
I0403 19:49:25.452827 26018 layer_factory.hpp:77] Creating layer inception_5b/relu_3x3_reduce
I0403 19:49:25.452847 26018 net.cpp:91] Creating Layer inception_5b/relu_3x3_reduce
I0403 19:49:25.452867 26018 net.cpp:425] inception_5b/relu_3x3_reduce <- inception_5b/3x3_reduce
I0403 19:49:25.452885 26018 net.cpp:386] inception_5b/relu_3x3_reduce -> inception_5b/3x3_reduce (in-place)
I0403 19:49:25.453071 26018 net.cpp:141] Setting up inception_5b/relu_3x3_reduce
I0403 19:49:25.453102 26018 net.cpp:148] Top shape: 24 192 7 7 (225792)
I0403 19:49:25.453119 26018 net.cpp:156] Memory required for data: 1330660896
I0403 19:49:25.453135 26018 layer_factory.hpp:77] Creating layer inception_5b/3x3
I0403 19:49:25.453157 26018 net.cpp:91] Creating Layer inception_5b/3x3
I0403 19:49:25.453176 26018 net.cpp:425] inception_5b/3x3 <- inception_5b/3x3_reduce
I0403 19:49:25.453197 26018 net.cpp:399] inception_5b/3x3 -> inception_5b/3x3
I0403 19:49:25.459676 26018 net.cpp:141] Setting up inception_5b/3x3
I0403 19:49:25.459708 26018 net.cpp:148] Top shape: 24 384 7 7 (451584)
I0403 19:49:25.459723 26018 net.cpp:156] Memory required for data: 1332467232
I0403 19:49:25.459743 26018 layer_factory.hpp:77] Creating layer inception_5b/relu_3x3
I0403 19:49:25.459764 26018 net.cpp:91] Creating Layer inception_5b/relu_3x3
I0403 19:49:25.459784 26018 net.cpp:425] inception_5b/relu_3x3 <- inception_5b/3x3
I0403 19:49:25.459801 26018 net.cpp:386] inception_5b/relu_3x3 -> inception_5b/3x3 (in-place)
I0403 19:49:25.460091 26018 net.cpp:141] Setting up inception_5b/relu_3x3
I0403 19:49:25.460120 26018 net.cpp:148] Top shape: 24 384 7 7 (451584)
I0403 19:49:25.460136 26018 net.cpp:156] Memory required for data: 1334273568
I0403 19:49:25.460152 26018 layer_factory.hpp:77] Creating layer inception_5b/5x5_reduce
I0403 19:49:25.460192 26018 net.cpp:91] Creating Layer inception_5b/5x5_reduce
I0403 19:49:25.460216 26018 net.cpp:425] inception_5b/5x5_reduce <- inception_5a/output_inception_5a/output_0_split_2
I0403 19:49:25.460238 26018 net.cpp:399] inception_5b/5x5_reduce -> inception_5b/5x5_reduce
I0403 19:49:25.461464 26018 net.cpp:141] Setting up inception_5b/5x5_reduce
I0403 19:49:25.461493 26018 net.cpp:148] Top shape: 24 48 7 7 (56448)
I0403 19:49:25.461510 26018 net.cpp:156] Memory required for data: 1334499360
I0403 19:49:25.461529 26018 layer_factory.hpp:77] Creating layer inception_5b/relu_5x5_reduce
I0403 19:49:25.461552 26018 net.cpp:91] Creating Layer inception_5b/relu_5x5_reduce
I0403 19:49:25.461571 26018 net.cpp:425] inception_5b/relu_5x5_reduce <- inception_5b/5x5_reduce
I0403 19:49:25.461591 26018 net.cpp:386] inception_5b/relu_5x5_reduce -> inception_5b/5x5_reduce (in-place)
I0403 19:49:25.461954 26018 net.cpp:141] Setting up inception_5b/relu_5x5_reduce
I0403 19:49:25.461983 26018 net.cpp:148] Top shape: 24 48 7 7 (56448)
I0403 19:49:25.461999 26018 net.cpp:156] Memory required for data: 1334725152
I0403 19:49:25.462015 26018 layer_factory.hpp:77] Creating layer inception_5b/5x5
I0403 19:49:25.462038 26018 net.cpp:91] Creating Layer inception_5b/5x5
I0403 19:49:25.462056 26018 net.cpp:425] inception_5b/5x5 <- inception_5b/5x5_reduce
I0403 19:49:25.462075 26018 net.cpp:399] inception_5b/5x5 -> inception_5b/5x5
I0403 19:49:25.464037 26018 net.cpp:141] Setting up inception_5b/5x5
I0403 19:49:25.464069 26018 net.cpp:148] Top shape: 24 128 7 7 (150528)
I0403 19:49:25.464088 26018 net.cpp:156] Memory required for data: 1335327264
I0403 19:49:25.464107 26018 layer_factory.hpp:77] Creating layer inception_5b/relu_5x5
I0403 19:49:25.464125 26018 net.cpp:91] Creating Layer inception_5b/relu_5x5
I0403 19:49:25.464143 26018 net.cpp:425] inception_5b/relu_5x5 <- inception_5b/5x5
I0403 19:49:25.464160 26018 net.cpp:386] inception_5b/relu_5x5 -> inception_5b/5x5 (in-place)
I0403 19:49:25.464361 26018 net.cpp:141] Setting up inception_5b/relu_5x5
I0403 19:49:25.464392 26018 net.cpp:148] Top shape: 24 128 7 7 (150528)
I0403 19:49:25.464408 26018 net.cpp:156] Memory required for data: 1335929376
I0403 19:49:25.464424 26018 layer_factory.hpp:77] Creating layer inception_5b/pool
I0403 19:49:25.464442 26018 net.cpp:91] Creating Layer inception_5b/pool
I0403 19:49:25.464459 26018 net.cpp:425] inception_5b/pool <- inception_5a/output_inception_5a/output_0_split_3
I0403 19:49:25.464480 26018 net.cpp:399] inception_5b/pool -> inception_5b/pool
I0403 19:49:25.464551 26018 net.cpp:141] Setting up inception_5b/pool
I0403 19:49:25.464581 26018 net.cpp:148] Top shape: 24 832 7 7 (978432)
I0403 19:49:25.464599 26018 net.cpp:156] Memory required for data: 1339843104
I0403 19:49:25.464615 26018 layer_factory.hpp:77] Creating layer inception_5b/pool_proj
I0403 19:49:25.464637 26018 net.cpp:91] Creating Layer inception_5b/pool_proj
I0403 19:49:25.464658 26018 net.cpp:425] inception_5b/pool_proj <- inception_5b/pool
I0403 19:49:25.464676 26018 net.cpp:399] inception_5b/pool_proj -> inception_5b/pool_proj
I0403 19:49:25.466907 26018 net.cpp:141] Setting up inception_5b/pool_proj
I0403 19:49:25.466939 26018 net.cpp:148] Top shape: 24 128 7 7 (150528)
I0403 19:49:25.466958 26018 net.cpp:156] Memory required for data: 1340445216
I0403 19:49:25.466976 26018 layer_factory.hpp:77] Creating layer inception_5b/relu_pool_proj
I0403 19:49:25.466997 26018 net.cpp:91] Creating Layer inception_5b/relu_pool_proj
I0403 19:49:25.467017 26018 net.cpp:425] inception_5b/relu_pool_proj <- inception_5b/pool_proj
I0403 19:49:25.467036 26018 net.cpp:386] inception_5b/relu_pool_proj -> inception_5b/pool_proj (in-place)
I0403 19:49:25.467329 26018 net.cpp:141] Setting up inception_5b/relu_pool_proj
I0403 19:49:25.467357 26018 net.cpp:148] Top shape: 24 128 7 7 (150528)
I0403 19:49:25.467372 26018 net.cpp:156] Memory required for data: 1341047328
I0403 19:49:25.467387 26018 layer_factory.hpp:77] Creating layer inception_5b/output
I0403 19:49:25.467408 26018 net.cpp:91] Creating Layer inception_5b/output
I0403 19:49:25.467440 26018 net.cpp:425] inception_5b/output <- inception_5b/1x1
I0403 19:49:25.467460 26018 net.cpp:425] inception_5b/output <- inception_5b/3x3
I0403 19:49:25.467478 26018 net.cpp:425] inception_5b/output <- inception_5b/5x5
I0403 19:49:25.467494 26018 net.cpp:425] inception_5b/output <- inception_5b/pool_proj
I0403 19:49:25.467512 26018 net.cpp:399] inception_5b/output -> inception_5b/output
I0403 19:49:25.467566 26018 net.cpp:141] Setting up inception_5b/output
I0403 19:49:25.467597 26018 net.cpp:148] Top shape: 24 1024 7 7 (1204224)
I0403 19:49:25.467613 26018 net.cpp:156] Memory required for data: 1345864224
I0403 19:49:25.467629 26018 layer_factory.hpp:77] Creating layer pool5/7x7_s1
I0403 19:49:25.467646 26018 net.cpp:91] Creating Layer pool5/7x7_s1
I0403 19:49:25.467664 26018 net.cpp:425] pool5/7x7_s1 <- inception_5b/output
I0403 19:49:25.467684 26018 net.cpp:399] pool5/7x7_s1 -> pool5/7x7_s1
I0403 19:49:25.467895 26018 net.cpp:141] Setting up pool5/7x7_s1
I0403 19:49:25.467926 26018 net.cpp:148] Top shape: 24 1024 1 1 (24576)
I0403 19:49:25.467946 26018 net.cpp:156] Memory required for data: 1345962528
I0403 19:49:25.467962 26018 layer_factory.hpp:77] Creating layer pool5/drop_7x7_s1
I0403 19:49:25.467978 26018 net.cpp:91] Creating Layer pool5/drop_7x7_s1
I0403 19:49:25.467995 26018 net.cpp:425] pool5/drop_7x7_s1 <- pool5/7x7_s1
I0403 19:49:25.468014 26018 net.cpp:386] pool5/drop_7x7_s1 -> pool5/7x7_s1 (in-place)
I0403 19:49:25.468066 26018 net.cpp:141] Setting up pool5/drop_7x7_s1
I0403 19:49:25.468096 26018 net.cpp:148] Top shape: 24 1024 1 1 (24576)
I0403 19:49:25.468111 26018 net.cpp:156] Memory required for data: 1346060832
I0403 19:49:25.468127 26018 layer_factory.hpp:77] Creating layer loss3/classifier_plantvillage
I0403 19:49:25.468150 26018 net.cpp:91] Creating Layer loss3/classifier_plantvillage
I0403 19:49:25.468171 26018 net.cpp:425] loss3/classifier_plantvillage <- pool5/7x7_s1
I0403 19:49:25.468192 26018 net.cpp:399] loss3/classifier_plantvillage -> loss3/classifier_plantvillage
I0403 19:49:25.468606 26018 net.cpp:141] Setting up loss3/classifier_plantvillage
I0403 19:49:25.468634 26018 net.cpp:148] Top shape: 24 38 (912)
I0403 19:49:25.468650 26018 net.cpp:156] Memory required for data: 1346064480
I0403 19:49:25.468668 26018 layer_factory.hpp:77] Creating layer loss3/classifier_plantvillage_loss3/classifier_plantvillage_0_split
I0403 19:49:25.468688 26018 net.cpp:91] Creating Layer loss3/classifier_plantvillage_loss3/classifier_plantvillage_0_split
I0403 19:49:25.468705 26018 net.cpp:425] loss3/classifier_plantvillage_loss3/classifier_plantvillage_0_split <- loss3/classifier_plantvillage
I0403 19:49:25.468729 26018 net.cpp:399] loss3/classifier_plantvillage_loss3/classifier_plantvillage_0_split -> loss3/classifier_plantvillage_loss3/classifier_plantvillage_0_split_0
I0403 19:49:25.468754 26018 net.cpp:399] loss3/classifier_plantvillage_loss3/classifier_plantvillage_0_split -> loss3/classifier_plantvillage_loss3/classifier_plantvillage_0_split_1
I0403 19:49:25.468775 26018 net.cpp:399] loss3/classifier_plantvillage_loss3/classifier_plantvillage_0_split -> loss3/classifier_plantvillage_loss3/classifier_plantvillage_0_split_2
I0403 19:49:25.468797 26018 net.cpp:399] loss3/classifier_plantvillage_loss3/classifier_plantvillage_0_split -> loss3/classifier_plantvillage_loss3/classifier_plantvillage_0_split_3
I0403 19:49:25.468897 26018 net.cpp:141] Setting up loss3/classifier_plantvillage_loss3/classifier_plantvillage_0_split
I0403 19:49:25.468925 26018 net.cpp:148] Top shape: 24 38 (912)
I0403 19:49:25.468942 26018 net.cpp:148] Top shape: 24 38 (912)
I0403 19:49:25.468958 26018 net.cpp:148] Top shape: 24 38 (912)
I0403 19:49:25.468973 26018 net.cpp:148] Top shape: 24 38 (912)
I0403 19:49:25.468986 26018 net.cpp:156] Memory required for data: 1346079072
I0403 19:49:25.469002 26018 layer_factory.hpp:77] Creating layer loss1/loss
I0403 19:49:25.469025 26018 net.cpp:91] Creating Layer loss1/loss
I0403 19:49:25.469045 26018 net.cpp:425] loss1/loss <- loss1/classifier_plantvillage_loss1/classifier_plantvillage_0_split_0
I0403 19:49:25.469080 26018 net.cpp:425] loss1/loss <- label_data_1_split_0
…
