…
I0403 19:29:55.625150 24884 net.cpp:313] The NetState phase (1) differed from the phase (0) specified by a rule in layer data
I0403 19:29:55.626382 24884 net.cpp:49] Initializing net from parameters: 
state {
  phase: TEST
}
layer {
  name: "data"
  type: "Data"
  top: "data"
  top: "label"
  include {
    phase: TEST
  }
  transform_param {
    mirror: false
    crop_size: 224
    mean_file: "/home/mohanty/data/final_dataset/lmdb/grayscale-80-20/mean.binaryproto"
  }
  data_param {
    source: "/home/mohanty/data/final_dataset/lmdb/grayscale-80-20/test_db"
    batch_size: 24
    backend: LMDB
  }
}
layer {
  name: "conv1/7x7_s2"
  type: "Convolution"
  bottom: "data"
  top: "conv1/7x7_s2"
  param {
    lr_mult: 1
    decay_mult: 1
  }
  param {
    lr_mult: 2
    decay_mult: 0
  }
  convolution_param {
    num_output: 64
    pad: 3
    kernel_size: 7
    stride: 2
    weight_filler {
      type: "xavier"
      std: 0.1
    }
    bias_filler {
      type: "constant"
      value: 0.2
    }
  }
}
layer {
  name: "conv1/relu_7x7"
  type: "ReLU"
  bottom: "conv1/7x7_s2"
  top: "conv1/7x7_s2"
}
layer {
  name: "pool1/3x3_s2"
  type: "Pooling"
  bottom: "conv1/7x7_s2"
  top: "pool1/3x3_s2"
  pooling_param {
    pool: MAX
    kernel_size: 3
    stride: 2
  }
}
layer {
  name: "pool1/norm1"
  type: "LRN"
  bottom: "pool1/3x3_s2"
  top: "pool1/norm1"
  lrn_param {
    local_size: 5
    alpha: 0.0001
    beta: 0.75
  }
}
layer {
  name: "conv2/3x3_reduce"
  type: "Convolution"
  bottom: "pool1/norm1"
  top: "conv2/3x3_reduce"
  param {
    lr_mult: 1
    decay_mult: 1
  }
  param {
    lr_mult: 2
    decay_mult: 0
  }
  convolution_param {
    num_output: 64
    kernel_size: 1
    weight_filler {
      type: "xavier"
      std: 0.1
    }
    bias_filler {
      type: "constant"
      value: 0.2
    }
  }
}
layer {
  name: "conv2/relu_3x3_reduce"
  type: "ReLU"
  bottom: "conv2/3x3_reduce"
  top: "conv2/3x3_reduce"
}
layer {
  name: "conv2/3x3"
  type: "Convolution"
  bottom: "conv2/3x3_reduce"
  top: "conv2/3x3"
  param {
    lr_mult: 1
    decay_mult: 1
  }
  param {
    lr_mult: 2
    decay_mult: 0
  }
  convolution_param {
    num_output: 192
    pad: 1
    kernel_size: 3
    weight_filler {
      type: "xavier"
      std: 0.03
    }
    bias_filler {
      type: "constant"
      value: 0.2
    }
  }
}
layer {
  name: "conv2/relu_3x3"
  type: "ReLU"
  bottom: "conv2/3x3"
  top: "conv2/3x3"
}
layer {
  name: "conv2/norm2"
  type: "LRN"
  bottom: "conv2/3x3"
  top: "conv2/norm2"
  lrn_param {
    local_size: 5
    alpha: 0.0001
    beta: 0.75
  }
}
layer {
  name: "pool2/3x3_s2"
  type: "Pooling"
  bottom: "conv2/norm2"
  top: "pool2/3x3_s2"
  pooling_param {
    pool: MAX
    kernel_size: 3
    stride: 2
  }
}
layer {
  name: "inception_3a/1x1"
  type: "Convolution"
  bottom: "pool2/3x3_s2"
  top: "inception_3a/1x1"
  param {
    lr_mult: 1
    decay_mult: 1
  }
  param {
    lr_mult: 2
    decay_mult: 0
  }
  convolution_param {
    num_output: 64
    kernel_size: 1
    weight_filler {
      type: "xavier"
      std: 0.03
    }
    bias_filler {
      type: "constant"
      value: 0.2
    }
  }
}
layer {
  name: "inception_3a/relu_1x1"
  type: "ReLU"
  bottom: "inception_3a/1x1"
  top: "inception_3a/1x1"
}
layer {
  name: "inception_3a/3x3_reduce"
  type: "Convolution"
  bottom: "pool2/3x3_s2"
  top: "inception_3a/3x3_reduce"
  param {
    lr_mult: 1
    decay_mult: 1
  }
  param {
    lr_mult: 2
    decay_mult: 0
  }
  convolution_param {
    num_output: 96
    kernel_size: 1
    weight_filler {
      type: "xavier"
      std: 0.09
    }
    bias_filler {
      type: "constant"
      value: 0.2
    }
  }
}
layer {
  name: "inception_3a/relu_3x3_reduce"
  type: "ReLU"
  bottom: "inception_3a/3x3_reduce"
  top: "inception_3a/3x3_reduce"
}
layer {
  name: "inception_3a/3x3"
  type: "Convolution"
  bottom: "inception_3a/3x3_reduce"
  top: "inception_3a/3x3"
  param {
    lr_mult: 1
    decay_mult: 1
  }
  param {
    lr_mult: 2
    decay_mult: 0
  }
  convolution_param {
    num_output: 128
    pad: 1
    kernel_size: 3
    weight_filler {
      type: "xavier"
      std: 0.03
    }
    bias_filler {
      type: "constant"
      value: 0.2
    }
  }
}
layer {
  name: "inception_3a/relu_3x3"
  type: "ReLU"
  bottom: "inception_3a/3x3"
  top: "inception_3a/3x3"
}
layer {
  name: "inception_3a/5x5_reduce"
  type: "Convolution"
  bottom: "pool2/3x3_s2"
  top: "inception_3a/5x5_reduce"
  param {
    lr_mult: 1
    decay_mult: 1
  }
  param {
    lr_mult: 2
    decay_mult: 0
  }
  convolution_param {
    num_output: 16
    kernel_size: 1
    weight_filler {
      type: "xavier"
      std: 0.2
    }
    bias_filler {
      type: "constant"
      value: 0.2
    }
  }
}
layer {
  name: "inception_3a/relu_5x5_reduce"
  type: "ReLU"
  bottom: "inception_3a/5x5_reduce"
  top: "inception_3a/5x5_reduce"
}
layer {
  name: "inception_3a/5x5"
  type: "Convolution"
  bottom: "inception_3a/5x5_reduce"
  top: "inception_3a/5x5"
  param {
    lr_mult: 1
    decay_mult: 1
  }
  param {
    lr_mult: 2
    decay_mult: 0
  }
  convolution_param {
    num_output: 32
    pad: 2
    kernel_size: 5
    weight_filler {
      type: "xavier"
      std: 0.03
    }
    bias_filler {
      type: "constant"
      value: 0.2
    }
  }
}
layer {
  name: "inception_3a/relu_5x5"
  type: "ReLU"
  bottom: "inception_3a/5x5"
  top: "inception_3a/5x5"
}
layer {
  name: "inception_3a/pool"
  type: "Pooling"
  bottom: "pool2/3x3_s2"
  top: "inception_3a/pool"
  pooling_param {
    pool: MAX
    kernel_size: 3
    stride: 1
    pad: 1
  }
}
layer {
  name: "inception_3a/pool_proj"
  type: "Convolution"
  bottom: "inception_3a/pool"
  top: "inception_3a/pool_proj"
  param {
    lr_mult: 1
    decay_mult: 1
  }
  param {
    lr_mult: 2
    decay_mult: 0
  }
  convolution_param {
    num_output: 32
    kernel_size: 1
    weight_filler {
      type: "xavier"
      std: 0.1
    }
    bias_filler {
      type: "constant"
      value: 0.2
    }
  }
}
layer {
  name: "inception_3a/relu_pool_proj"
  type: "ReLU"
  bottom: "inception_3a/pool_proj"
  top: "inception_3a/pool_proj"
}
layer {
  name: "inception_3a/output"
  type: "Concat"
  bottom: "inception_3a/1x1"
  bottom: "inception_3a/3x3"
  bottom: "inception_3a/5x5"
  bottom: "inception_3a/pool_proj"
  top: "inception_3a/output"
}
layer {
  name: "inception_3b/1x1"
  type: "Convolution"
  bottom: "inception_3a/output"
  top: "inception_3b/1x1"
  param {
    lr_mult: 1
    decay_mult: 1
  }
  param {
    lr_mult: 2
    decay_mult: 0
  }
  convolution_param {
    num_output: 128
    kernel_size: 1
    weight_filler {
      type: "xavier"
      std: 0.03
    }
    bias_filler {
      type: "constant"
      value: 0.2
    }
  }
}
layer {
  name: "inception_3b/relu_1x1"
  type: "ReLU"
  bottom: "inception_3b/1x1"
  top: "inception_3b/1x1"
}
layer {
  name: "inception_3b/3x3_reduce"
  type: "Convolution"
  bottom: "inception_3a/output"
  top: "inception_3b/3x3_reduce"
  param {
    lr_mult: 1
    decay_mult: 1
  }
  param {
    lr_mult: 2
    decay_mult: 0
  }
  convolution_param {
    num_output: 128
    kernel_size: 1
    weight_filler {
      type: "xavier"
      std: 0.09
    }
    bias_filler {
      type: "constant"
      value: 0.2
    }
  }
}
layer {
  name: "inception_3b/relu_3x3_reduce"
  type: "ReLU"
  bottom: "inception_3b/3x3_reduce"
  top: "inception_3b/3x3_reduce"
}
layer {
  name: "inception_3b/3x3"
  type: "Convolution"
  bottom: "inception_3b/3x3_reduce"
  top: "inception_3b/3x3"
  param {
    lr_mult: 1
    decay_mult: 1
  }
  param {
    lr_mult: 2
    decay_mult: 0
  }
  convolution_param {
    num_output: 192
    pad: 1
    kernel_size: 3
    weight_filler {
      type: "xavier"
      std: 0.03
    }
    bias_filler {
      type: "constant"
      value: 0.2
    }
  }
}
layer {
  name: "inception_3b/relu_3x3"
  type: "ReLU"
  bottom: "inception_3b/3x3"
  top: "inception_3b/3x3"
}
layer {
  name: "inception_3b/5x5_reduce"
  type: "Convolution"
  bottom: "inception_3a/output"
  top: "inception_3b/5x5_reduce"
  param {
    lr_mult: 1
    decay_mult: 1
  }
  param {
    lr_mult: 2
    decay_mult: 0
  }
  convolution_param {
    num_output: 32
    kernel_size: 1
    weight_filler {
      type: "xavier"
      std: 0.2
    }
    bias_filler {
      type: "constant"
      value: 0.2
    }
  }
}
layer {
  name: "inception_3b/relu_5x5_reduce"
  type: "ReLU"
  bottom: "inception_3b/5x5_reduce"
  top: "inception_3b/5x5_reduce"
}
layer {
  name: "inception_3b/5x5"
  type: "Convolution"
  bottom: "inception_3b/5x5_reduce"
  top: "inception_3b/5x5"
  param {
    lr_mult: 1
    decay_mult: 1
  }
  param {
    lr_mult: 2
    decay_mult: 0
  }
  convolution_param {
    num_output: 96
    pad: 2
    kernel_size: 5
    weight_filler {
      type: "xavier"
      std: 0.03
    }
    bias_filler {
      type: "constant"
      value: 0.2
    }
  }
}
layer {
  name: "inception_3b/relu_5x5"
  type: "ReLU"
  bottom: "inception_3b/5x5"
  top: "inception_3b/5x5"
}
layer {
  name: "inception_3b/pool"
  type: "Pooling"
  bottom: "inception_3a/output"
  top: "inception_3b/pool"
  pooling_param {
    pool: MAX
    kernel_size: 3
    stride: 1
    pad: 1
  }
}
layer {
  name: "inception_3b/pool_proj"
  type: "Convolution"
  bottom: "inception_3b/pool"
  top: "inception_3b/pool_proj"
  param {
    lr_mult: 1
    decay_mult: 1
  }
  param {
    lr_mult: 2
    decay_mult: 0
  }
  convolution_param {
    num_output: 64
    kernel_size: 1
    weight_filler {
      type: "xavier"
      std: 0.1
    }
    bias_filler {
      type: "constant"
      value: 0.2
    }
  }
}
layer {
  name: "inception_3b/relu_pool_proj"
  type: "ReLU"
  bottom: "inception_3b/pool_proj"
  top: "inception_3b/pool_proj"
}
layer {
  name: "inception_3b/output"
  type: "Concat"
  bottom: "inception_3b/1x1"
  bottom: "inception_3b/3x3"
  bottom: "inception_3b/5x5"
  bottom: "inception_3b/pool_proj"
  top: "inception_3b/output"
}
layer {
  name: "pool3/3x3_s2"
  type: "Pooling"
  bottom: "inception_3b/output"
  top: "pool3/3x3_s2"
  pooling_param {
    pool: MAX
    kernel_size: 3
    stride: 2
  }
}
layer {
  name: "inception_4a/1x1"
  type: "Convolution"
  bottom: "pool3/3x3_s2"
  top: "inception_4a/1x1"
  param {
    lr_mult: 1
    decay_mult: 1
  }
  param {
    lr_mult: 2
    decay_mult: 0
  }
  convolution_param {
    num_output: 192
    kernel_size: 1
    weight_filler {
      type: "xavier"
      std: 0.03
    }
    bias_filler {
      type: "constant"
      value: 0.2
    }
  }
}
layer {
  name: "inception_4a/relu_1x1"
  type: "ReLU"
  bottom: "inception_4a/1x1"
  top: "inception_4a/1x1"
}
layer {
  name: "inception_4a/3x3_reduce"
  type: "Convolution"
  bottom: "pool3/3x3_s2"
  top: "inception_4a/3x3_reduce"
  param {
    lr_mult: 1
    decay_mult: 1
  }
  param {
    lr_mult: 2
    decay_mult: 0
  }
  convolution_param {
    num_output: 96
    kernel_size: 1
    weight_filler {
      type: "xavier"
      std: 0.09
    }
    bias_filler {
      type: "constant"
      value: 0.2
    }
  }
}
layer {
  name: "inception_4a/relu_3x3_reduce"
  type: "ReLU"
  bottom: "inception_4a/3x3_reduce"
  top: "inception_4a/3x3_reduce"
}
layer {
  name: "inception_4a/3x3"
  type: "Convolution"
  bottom: "inception_4a/3x3_reduce"
  top: "inception_4a/3x3"
  param {
    lr_mult: 1
    decay_mult: 1
  }
  param {
    lr_mult: 2
    decay_mult: 0
  }
  convolution_param {
    num_output: 208
    pad: 1
    kernel_size: 3
    weight_filler {
      type: "xavier"
      std: 0.03
    }
    bias_filler {
      type: "constant"
      value: 0.2
    }
  }
}
layer {
  name: "inception_4a/relu_3x3"
  type: "ReLU"
  bottom: "inception_4a/3x3"
  top: "inception_4a/3x3"
}
layer {
  name: "inception_4a/5x5_reduce"
  type: "Convolution"
  bottom: "pool3/3x3_s2"
  top: "inception_4a/5x5_reduce"
  param {
    lr_mult: 1
    decay_mult: 1
  }
  param {
    lr_mult: 2
    decay_mult: 0
  }
  convolution_param {
    num_output: 16
    kernel_size: 1
    weight_filler {
      type: "xavier"
      std: 0.2
    }
    bias_filler {
      type: "constant"
      value: 0.2
    }
  }
}
layer {
  name: "inception_4a/relu_5x5_reduce"
  type: "ReLU"
  bottom: "inception_4a/5x5_reduce"
  top: "inception_4a/5x5_reduce"
}
layer {
  name: "inception_4a/5x5"
  type: "Convolution"
  bottom: "inception_4a/5x5_reduce"
  top: "inception_4a/5x5"
  param {
    lr_mult: 1
    decay_mult: 1
  }
  param {
    lr_mult: 2
    decay_mult: 0
  }
  convolution_param {
    num_output: 48
    pad: 2
    kernel_size: 5
    weight_filler {
      type: "xavier"
      std: 0.03
    }
    bias_filler {
      type: "constant"
      value: 0.2
    }
  }
}
layer {
  name: "inception_4a/relu_5x5"
  type: "ReLU"
  bottom: "inception_4a/5x5"
  top: "inception_4a/5x5"
}
layer {
  name: "inception_4a/pool"
  type: "Pooling"
  bottom: "pool3/3x3_s2"
  top: "inception_4a/pool"
  pooling_param {
    pool: MAX
    kernel_size: 3
    stride: 1
    pad: 1
  }
}
layer {
  name: "inception_4a/pool_proj"
  type: "Convolution"
  bottom: "inception_4a/pool"
  top: "inception_4a/pool_proj"
  param {
    lr_mult: 1
    decay_mult: 1
  }
  param {
    lr_mult: 2
    decay_mult: 0
  }
  convolution_param {
    num_output: 64
    kernel_size: 1
    weight_filler {
      type: "xavier"
      std: 0.1
    }
    bias_filler {
      type: "constant"
      value: 0.2
    }
  }
}
layer {
  name: "inception_4a/relu_pool_proj"
  type: "ReLU"
  bottom: "inception_4a/pool_proj"
  top: "inception_4a/pool_proj"
}
layer {
  name: "inception_4a/output"
  type: "Concat"
  bottom: "inception_4a/1x1"
  bottom: "inception_4a/3x3"
  bottom: "inception_4a/5x5"
  bottom: "inception_4a/pool_proj"
  top: "inception_4a/output"
}
layer {
  name: "loss1/ave_pool"
  type: "Pooling"
  bottom: "inception_4a/output"
  top: "loss1/ave_pool"
  pooling_param {
    pool: AVE
    kernel_size: 5
    stride: 3
  }
}
layer {
  name: "loss1/conv"
  type: "Convolution"
  bottom: "loss1/ave_pool"
  top: "loss1/conv"
  param {
    lr_mult: 1
    decay_mult: 1
  }
  param {
    lr_mult: 2
    decay_mult: 0
  }
  convolution_param {
    num_output: 128
    kernel_size: 1
    weight_filler {
      type: "xavier"
      std: 0.08
    }
    bias_filler {
      type: "constant"
      value: 0.2
    }
  }
}
layer {
  name: "loss1/relu_conv"
  type: "ReLU"
  bottom: "loss1/conv"
  top: "loss1/conv"
}
layer {
  name: "loss1/fc"
  type: "InnerProduct"
  bottom: "loss1/conv"
  top: "loss1/fc"
  param {
    lr_mult: 1
    decay_mult: 1
  }
  param {
    lr_mult: 2
    decay_mult: 0
  }
  inner_product_param {
    num_output: 1024
    weight_filler {
      type: "xavier"
      std: 0.02
    }
    bias_filler {
      type: "constant"
      value: 0.2
    }
  }
}
layer {
  name: "loss1/relu_fc"
  type: "ReLU"
  bottom: "loss1/fc"
  top: "loss1/fc"
}
layer {
  name: "loss1/drop_fc"
  type: "Dropout"
  bottom: "loss1/fc"
  top: "loss1/fc"
  dropout_param {
    dropout_ratio: 0.7
  }
}
layer {
  name: "loss1/classifier_plantvillage"
  type: "InnerProduct"
  bottom: "loss1/fc"
  top: "loss1/classifier_plantvillage"
  param {
    lr_mult: 1
    decay_mult: 1
  }
  param {
    lr_mult: 2
    decay_mult: 0
  }
  inner_product_param {
    num_output: 38
    weight_filler {
      type: "xavier"
      std: 0.0009765625
    }
    bias_filler {
      type: "constant"
      value: 0
    }
  }
}
layer {
  name: "inception_4b/1x1"
  type: "Convolution"
  bottom: "inception_4a/output"
  top: "inception_4b/1x1"
  param {
    lr_mult: 1
    decay_mult: 1
  }
  param {
    lr_mult: 2
    decay_mult: 0
  }
  convolution_param {
    num_output: 160
    kernel_size: 1
    weight_filler {
      type: "xavier"
      std: 0.03
    }
    bias_filler {
      type: "constant"
      value: 0.2
    }
  }
}
layer {
  name: "inception_4b/relu_1x1"
  type: "ReLU"
  bottom: "inception_4b/1x1"
  top: "inception_4b/1x1"
}
layer {
  name: "inception_4b/3x3_reduce"
  type: "Convolution"
  bottom: "inception_4a/output"
  top: "inception_4b/3x3_reduce"
  param {
    lr_mult: 1
    decay_mult: 1
  }
  param {
    lr_mult: 2
    decay_mult: 0
  }
  convolution_param {
    num_output: 112
    kernel_size: 1
    weight_filler {
      type: "xavier"
      std: 0.09
    }
    bias_filler {
      type: "constant"
      value: 0.2
    }
  }
}
layer {
  name: "inception_4b/relu_3x3_reduce"
  type: "ReLU"
  bottom: "inception_4b/3x3_reduce"
  top: "inception_4b/3x3_reduce"
}
layer {
  name: "inception_4b/3x3"
  type: "Convolution"
  bottom: "inception_4b/3x3_reduce"
  top: "inception_4b/3x3"
  param {
    lr_mult: 1
    decay_mult: 1
  }
  param {
    lr_mult: 2
    decay_mult: 0
  }
  convolution_param {
    num_output: 224
    pad: 1
    kernel_size: 3
    weight_filler {
      type: "xavier"
      std: 0.03
    }
    bias_filler {
      type: "constant"
      value: 0.2
    }
  }
}
layer {
  name: "inception_4b/relu_3x3"
  type: "ReLU"
  bottom: "inception_4b/3x3"
  top: "inception_4b/3x3"
}
layer {
  name: "inception_4b/5x5_reduce"
  type: "Convolution"
  bottom: "inception_4a/output"
  top: "inception_4b/5x5_reduce"
  param {
    lr_mult: 1
    decay_mult: 1
  }
  param {
    lr_mult: 2
    decay_mult: 0
  }
  convolution_param {
    num_output: 24
    kernel_size: 1
    weight_filler {
      type: "xavier"
      std: 0.2
    }
    bias_filler {
      type: "constant"
      value: 0.2
    }
  }
}
layer {
  name: "inception_4b/relu_5x5_reduce"
  type: "ReLU"
  bottom: "inception_4b/5x5_reduce"
  top: "inception_4b/5x5_reduce"
}
layer {
  name: "inception_4b/5x5"
  type: "Convolution"
  bottom: "inception_4b/5x5_reduce"
  top: "inception_4b/5x5"
  param {
    lr_mult: 1
    decay_mult: 1
  }
  param {
    lr_mult: 2
    decay_mult: 0
  }
  convolution_param {
    num_output: 64
    pad: 2
    kernel_size: 5
    weight_filler {
      type: "xavier"
      std: 0.03
    }
    bias_filler {
      type: "constant"
      value: 0.2
    }
  }
}
layer {
  name: "inception_4b/relu_5x5"
  type: "ReLU"
  bottom: "inception_4b/5x5"
  top: "inception_4b/5x5"
}
layer {
  name: "inception_4b/pool"
  type: "Pooling"
  bottom: "inception_4a/output"
  top: "inception_4b/pool"
  pooling_param {
    pool: MAX
    kernel_size: 3
    stride: 1
    pad: 1
  }
}
layer {
  name: "inception_4b/pool_proj"
  type: "Convolution"
  bottom: "inception_4b/pool"
  top: "inception_4b/pool_proj"
  param {
    lr_mult: 1
    decay_mult: 1
  }
  param {
    lr_mult: 2
    decay_mult: 0
  }
  convolution_param {
    num_output: 64
    kernel_size: 1
    weight_filler {
      type: "xavier"
      std: 0.1
    }
    bias_filler {
      type: "constant"
      value: 0.2
    }
  }
}
layer {
  name: "inception_4b/relu_pool_proj"
  type: "ReLU"
  bottom: "inception_4b/pool_proj"
  top: "inception_4b/pool_proj"
}
layer {
  name: "inception_4b/output"
  type: "Concat"
  bottom: "inception_4b/1x1"
  bottom: "inception_4b/3x3"
  bottom: "inception_4b/5x5"
  bottom: "inception_4b/pool_proj"
  top: "inception_4b/output"
}
layer {
  name: "inception_4c/1x1"
  type: "Convolution"
  bottom: "inception_4b/output"
  top: "inception_4c/1x1"
  param {
    lr_mult: 1
    decay_mult: 1
  }
  param {
    lr_mult: 2
    decay_mult: 0
  }
  convolution_param {
    num_output: 128
    kernel_size: 1
    weight_filler {
      type: "xavier"
      std: 0.03
    }
    bias_filler {
      type: "constant"
      value: 0.2
    }
  }
}
layer {
  name: "inception_4c/relu_1x1"
  type: "ReLU"
  bottom: "inception_4c/1x1"
  top: "inception_4c/1x1"
}
layer {
  name: "inception_4c/3x3_reduce"
  type: "Convolution"
  bottom: "inception_4b/output"
  top: "inception_4c/3x3_reduce"
  param {
    lr_mult: 1
    decay_mult: 1
  }
  param {
    lr_mult: 2
    decay_mult: 0
  }
  convolution_param {
    num_output: 128
    kernel_size: 1
    weight_filler {
      type: "xavier"
      std: 0.09
    }
    bias_filler {
      type: "constant"
      value: 0.2
    }
  }
}
layer {
  name: "inception_4c/relu_3x3_reduce"
  type: "ReLU"
  bottom: "inception_4c/3x3_reduce"
  top: "inception_4c/3x3_reduce"
}
layer {
  name: "inception_4c/3x3"
  type: "Convolution"
  bottom: "inception_4c/3x3_reduce"
  top: "inception_4c/3x3"
  param {
    lr_mult: 1
    decay_mult: 1
  }
  param {
    lr_mult: 2
    decay_mult: 0
  }
  convolution_param {
    num_output: 256
    pad: 1
    kernel_size: 3
    weight_filler {
      type: "xavier"
      std: 0.03
    }
    bias_filler {
      type: "constant"
      value: 0.2
    }
  }
}
layer {
  name: "inception_4c/relu_3x3"
  type: "ReLU"
  bottom: "inception_4c/3x3"
  top: "inception_4c/3x3"
}
layer {
  name: "inception_4c/5x5_reduce"
  type: "Convolution"
  bottom: "inception_4b/output"
  top: "inception_4c/5x5_reduce"
  param {
    lr_mult: 1
    decay_mult: 1
  }
  param {
    lr_mult: 2
    decay_mult: 0
  }
  convolution_param {
    num_output: 24
    kernel_size: 1
    weight_filler {
      type: "xavier"
      std: 0.2
    }
    bias_filler {
      type: "constant"
      value: 0.2
    }
  }
}
layer {
  name: "inception_4c/relu_5x5_reduce"
  type: "ReLU"
  bottom: "inception_4c/5x5_reduce"
  top: "inception_4c/5x5_reduce"
}
layer {
  name: "inception_4c/5x5"
  type: "Convolution"
  bottom: "inception_4c/5x5_reduce"
  top: "inception_4c/5x5"
  param {
    lr_mult: 1
    decay_mult: 1
  }
  param {
    lr_mult: 2
    decay_mult: 0
  }
  convolution_param {
    num_output: 64
    pad: 2
    kernel_size: 5
    weight_filler {
      type: "xavier"
      std: 0.03
    }
    bias_filler {
      type: "constant"
      value: 0.2
    }
  }
}
layer {
  name: "inception_4c/relu_5x5"
  type: "ReLU"
  bottom: "inception_4c/5x5"
  top: "inception_4c/5x5"
}
layer {
  name: "inception_4c/pool"
  type: "Pooling"
  bottom: "inception_4b/output"
  top: "inception_4c/pool"
  pooling_param {
    pool: MAX
    kernel_size: 3
    stride: 1
    pad: 1
  }
}
layer {
  name: "inception_4c/pool_proj"
  type: "Convolution"
  bottom: "inception_4c/pool"
  top: "inception_4c/pool_proj"
  param {
    lr_mult: 1
    decay_mult: 1
  }
  param {
    lr_mult: 2
    decay_mult: 0
  }
  convolution_param {
    num_output: 64
    kernel_size: 1
    weight_filler {
      type: "xavier"
      std: 0.1
    }
    bias_filler {
      type: "constant"
      value: 0.2
    }
  }
}
layer {
  name: "inception_4c/relu_pool_proj"
  type: "ReLU"
  bottom: "inception_4c/pool_proj"
  top: "inception_4c/pool_proj"
}
layer {
  name: "inception_4c/output"
  type: "Concat"
  bottom: "inception_4c/1x1"
  bottom: "inception_4c/3x3"
  bottom: "inception_4c/5x5"
  bottom: "inception_4c/pool_proj"
  top: "inception_4c/output"
}
layer {
  name: "inception_4d/1x1"
  type: "Convolution"
  bottom: "inception_4c/output"
  top: "inception_4d/1x1"
  param {
    lr_mult: 1
    decay_mult: 1
  }
  param {
    lr_mult: 2
    decay_mult: 0
  }
  convolution_param {
    num_output: 112
    kernel_size: 1
    weight_filler {
      type: "xavier"
      std: 0.03
    }
    bias_filler {
      type: "constant"
      value: 0.2
    }
  }
}
layer {
  name: "inception_4d/relu_1x1"
  type: "ReLU"
  bottom: "inception_4d/1x1"
  top: "inception_4d/1x1"
}
layer {
  name: "inception_4d/3x3_reduce"
  type: "Convolution"
  bottom: "inception_4c/output"
  top: "inception_4d/3x3_reduce"
  param {
    lr_mult: 1
    decay_mult: 1
  }
  param {
    lr_mult: 2
    decay_mult: 0
  }
  convolution_param {
    num_output: 144
    kernel_size: 1
    weight_filler {
      type: "xavier"
      std: 0.09
    }
    bias_filler {
      type: "constant"
      value: 0.2
    }
  }
}
layer {
  name: "inception_4d/relu_3x3_reduce"
  type: "ReLU"
  bottom: "inception_4d/3x3_reduce"
  top: "inception_4d/3x3_reduce"
}
layer {
  name: "inception_4d/3x3"
  type: "Convolution"
  bottom: "inception_4d/3x3_reduce"
  top: "inception_4d/3x3"
  param {
    lr_mult: 1
    decay_mult: 1
  }
  param {
    lr_mult: 2
    decay_mult: 0
  }
  convolution_param {
    num_output: 288
    pad: 1
    kernel_size: 3
    weight_filler {
      type: "xavier"
      std: 0.03
    }
    bias_filler {
      type: "constant"
      value: 0.2
    }
  }
}
layer {
  name: "inception_4d/relu_3x3"
  type: "ReLU"
  bottom: "inception_4d/3x3"
  top: "inception_4d/3x3"
}
layer {
  name: "inception_4d/5x5_reduce"
  type: "Convolution"
  bottom: "inception_4c/output"
  top: "inception_4d/5x5_reduce"
  param {
    lr_mult: 1
    decay_mult: 1
  }
  param {
    lr_mult: 2
    decay_mult: 0
  }
  convolution_param {
    num_output: 32
    kernel_size: 1
    weight_filler {
      type: "xavier"
      std: 0.2
    }
    bias_filler {
      type: "constant"
      value: 0.2
    }
  }
}
layer {
  name: "inception_4d/relu_5x5_reduce"
  type: "ReLU"
  bottom: "inception_4d/5x5_reduce"
  top: "inception_4d/5x5_reduce"
}
layer {
  name: "inception_4d/5x5"
  type: "Convolution"
  bottom: "inception_4d/5x5_reduce"
  top: "inception_4d/5x5"
  param {
    lr_mult: 1
    decay_mult: 1
  }
  param {
    lr_mult: 2
    decay_mult: 0
  }
  convolution_param {
    num_output: 64
    pad: 2
    kernel_size: 5
    weight_filler {
      type: "xavier"
      std: 0.03
    }
    bias_filler {
      type: "constant"
      value: 0.2
    }
  }
}
layer {
  name: "inception_4d/relu_5x5"
  type: "ReLU"
  bottom: "inception_4d/5x5"
  top: "inception_4d/5x5"
}
layer {
  name: "inception_4d/pool"
  type: "Pooling"
  bottom: "inception_4c/output"
  top: "inception_4d/pool"
  pooling_param {
    pool: MAX
    kernel_size: 3
    stride: 1
    pad: 1
  }
}
layer {
  name: "inception_4d/pool_proj"
  type: "Convolution"
  bottom: "inception_4d/pool"
  top: "inception_4d/pool_proj"
  param {
    lr_mult: 1
    decay_mult: 1
  }
  param {
    lr_mult: 2
    decay_mult: 0
  }
  convolution_param {
    num_output: 64
    kernel_size: 1
    weight_filler {
      type: "xavier"
      std: 0.1
    }
    bias_filler {
      type: "constant"
      value: 0.2
    }
  }
}
layer {
  name: "inception_4d/relu_pool_proj"
  type: "ReLU"
  bottom: "inception_4d/pool_proj"
  top: "inception_4d/pool_proj"
}
layer {
  name: "inception_4d/output"
  type: "Concat"
  bottom: "inception_4d/1x1"
  bottom: "inception_4d/3x3"
  bottom: "inception_4d/5x5"
  bottom: "inception_4d/pool_proj"
  top: "inception_4d/output"
}
layer {
  name: "loss2/ave_pool"
  type: "Pooling"
  bottom: "inception_4d/output"
  top: "loss2/ave_pool"
  pooling_param {
    pool: AVE
    kernel_size: 5
    stride: 3
  }
}
layer {
  name: "loss2/conv"
  type: "Convolution"
  bottom: "loss2/ave_pool"
  top: "loss2/conv"
  param {
    lr_mult: 1
    decay_mult: 1
  }
  param {
    lr_mult: 2
    decay_mult: 0
  }
  convolution_param {
    num_output: 128
    kernel_size: 1
    weight_filler {
      type: "xavier"
      std: 0.08
    }
    bias_filler {
      type: "constant"
      value: 0.2
    }
  }
}
layer {
  name: "loss2/relu_conv"
  type: "ReLU"
  bottom: "loss2/conv"
  top: "loss2/conv"
}
layer {
  name: "loss2/fc"
  type: "InnerProduct"
  bottom: "loss2/conv"
  top: "loss2/fc"
  param {
    lr_mult: 1
    decay_mult: 1
  }
  param {
    lr_mult: 2
    decay_mult: 0
  }
  inner_product_param {
    num_output: 1024
    weight_filler {
      type: "xavier"
      std: 0.02
    }
    bias_filler {
      type: "constant"
      value: 0.2
    }
  }
}
layer {
  name: "loss2/relu_fc"
  type: "ReLU"
  bottom: "loss2/fc"
  top: "loss2/fc"
}
layer {
  name: "loss2/drop_fc"
  type: "Dropout"
  bottom: "loss2/fc"
  top: "loss2/fc"
  dropout_param {
    dropout_ratio: 0.7
  }
}
layer {
  name: "loss2/classifier_plantvillage"
  type: "InnerProduct"
  bottom: "loss2/fc"
  top: "loss2/classifier_plantvillage"
  param {
    lr_mult: 1
    decay_mult: 1
  }
  param {
    lr_mult: 2
    decay_mult: 0
  }
  inner_product_param {
    num_output: 38
    weight_filler {
      type: "xavier"
      std: 0.0009765625
    }
    bias_filler {
      type: "constant"
      value: 0
    }
  }
}
layer {
  name: "inception_4e/1x1"
  type: "Convolution"
  bottom: "inception_4d/output"
  top: "inception_4e/1x1"
  param {
    lr_mult: 1
    decay_mult: 1
  }
  param {
    lr_mult: 2
    decay_mult: 0
  }
  convolution_param {
    num_output: 256
    kernel_size: 1
    weight_filler {
      type: "xavier"
      std: 0.03
    }
    bias_filler {
      type: "constant"
      value: 0.2
    }
  }
}
layer {
  name: "inception_4e/relu_1x1"
  type: "ReLU"
  bottom: "inception_4e/1x1"
  top: "inception_4e/1x1"
}
layer {
  name: "inception_4e/3x3_reduce"
  type: "Convolution"
  bottom: "inception_4d/output"
  top: "inception_4e/3x3_reduce"
  param {
    lr_mult: 1
    decay_mult: 1
  }
  param {
    lr_mult: 2
    decay_mult: 0
  }
  convolution_param {
    num_output: 160
    kernel_size: 1
    weight_filler {
      type: "xavier"
      std: 0.09
    }
    bias_filler {
      type: "constant"
      value: 0.2
    }
  }
}
layer {
  name: "inception_4e/relu_3x3_reduce"
  type: "ReLU"
  bottom: "inception_4e/3x3_reduce"
  top: "inception_4e/3x3_reduce"
}
layer {
  name: "inception_4e/3x3"
  type: "Convolution"
  bottom: "inception_4e/3x3_reduce"
  top: "inception_4e/3x3"
  param {
    lr_mult: 1
    decay_mult: 1
  }
  param {
    lr_mult: 2
    decay_mult: 0
  }
  convolution_param {
    num_output: 320
    pad: 1
    kernel_size: 3
    weight_filler {
      type: "xavier"
      std: 0.03
    }
    bias_filler {
      type: "constant"
      value: 0.2
    }
  }
}
layer {
  name: "inception_4e/relu_3x3"
  type: "ReLU"
  bottom: "inception_4e/3x3"
  top: "inception_4e/3x3"
}
layer {
  name: "inception_4e/5x5_reduce"
  type: "Convolution"
  bottom: "inception_4d/output"
  top: "inception_4e/5x5_reduce"
  param {
    lr_mult: 1
    decay_mult: 1
  }
  param {
    lr_mult: 2
    decay_mult: 0
  }
  convolution_param {
    num_output: 32
    kernel_size: 1
    weight_filler {
      type: "xavier"
      std: 0.2
    }
    bias_filler {
      type: "constant"
      value: 0.2
    }
  }
}
layer {
  name: "inception_4e/relu_5x5_reduce"
  type: "ReLU"
  bottom: "inception_4e/5x5_reduce"
  top: "inception_4e/5x5_reduce"
}
layer {
  name: "inception_4e/5x5"
  type: "Convolution"
  bottom: "inception_4e/5x5_reduce"
  top: "inception_4e/
I0403 19:29:55.628056 24884 layer_factory.hpp:77] Creating layer data
I0403 19:29:55.628705 24884 net.cpp:91] Creating Layer data
I0403 19:29:55.628742 24884 net.cpp:399] data -> data
I0403 19:29:55.628815 24884 net.cpp:399] data -> label
I0403 19:29:55.628861 24884 data_transformer.cpp:25] Loading mean file from: /home/mohanty/data/final_dataset/lmdb/grayscale-80-20/mean.binaryproto
I0403 19:29:55.629850 24886 db_lmdb.cpp:38] Opened lmdb /home/mohanty/data/final_dataset/lmdb/grayscale-80-20/test_db
I0403 19:29:55.642561 24884 data_layer.cpp:41] output data size: 24,3,224,224
I0403 19:29:55.669636 24884 net.cpp:141] Setting up data
I0403 19:29:55.669745 24884 net.cpp:148] Top shape: 24 3 224 224 (3612672)
I0403 19:29:55.669770 24884 net.cpp:148] Top shape: 24 (24)
I0403 19:29:55.669786 24884 net.cpp:156] Memory required for data: 14450784
I0403 19:29:55.669823 24884 layer_factory.hpp:77] Creating layer label_data_1_split
I0403 19:29:55.669858 24884 net.cpp:91] Creating Layer label_data_1_split
I0403 19:29:55.669880 24884 net.cpp:425] label_data_1_split <- label
I0403 19:29:55.669916 24884 net.cpp:399] label_data_1_split -> label_data_1_split_0
I0403 19:29:55.669950 24884 net.cpp:399] label_data_1_split -> label_data_1_split_1
I0403 19:29:55.669973 24884 net.cpp:399] label_data_1_split -> label_data_1_split_2
I0403 19:29:55.669997 24884 net.cpp:399] label_data_1_split -> label_data_1_split_3
I0403 19:29:55.670018 24884 net.cpp:399] label_data_1_split -> label_data_1_split_4
I0403 19:29:55.670040 24884 net.cpp:399] label_data_1_split -> label_data_1_split_5
I0403 19:29:55.670061 24884 net.cpp:399] label_data_1_split -> label_data_1_split_6
I0403 19:29:55.670083 24884 net.cpp:399] label_data_1_split -> label_data_1_split_7
I0403 19:29:55.670102 24884 net.cpp:399] label_data_1_split -> label_data_1_split_8
I0403 19:29:55.670123 24884 net.cpp:399] label_data_1_split -> label_data_1_split_9
I0403 19:29:55.670241 24884 net.cpp:141] Setting up label_data_1_split
I0403 19:29:55.670269 24884 net.cpp:148] Top shape: 24 (24)
I0403 19:29:55.670290 24884 net.cpp:148] Top shape: 24 (24)
I0403 19:29:55.670308 24884 net.cpp:148] Top shape: 24 (24)
I0403 19:29:55.670326 24884 net.cpp:148] Top shape: 24 (24)
I0403 19:29:55.670341 24884 net.cpp:148] Top shape: 24 (24)
I0403 19:29:55.670357 24884 net.cpp:148] Top shape: 24 (24)
I0403 19:29:55.670372 24884 net.cpp:148] Top shape: 24 (24)
I0403 19:29:55.670385 24884 net.cpp:148] Top shape: 24 (24)
I0403 19:29:55.670402 24884 net.cpp:148] Top shape: 24 (24)
I0403 19:29:55.670419 24884 net.cpp:148] Top shape: 24 (24)
I0403 19:29:55.670469 24884 net.cpp:156] Memory required for data: 14451744
I0403 19:29:55.670485 24884 layer_factory.hpp:77] Creating layer conv1/7x7_s2
I0403 19:29:55.670524 24884 net.cpp:91] Creating Layer conv1/7x7_s2
I0403 19:29:55.670543 24884 net.cpp:425] conv1/7x7_s2 <- data
I0403 19:29:55.670564 24884 net.cpp:399] conv1/7x7_s2 -> conv1/7x7_s2
I0403 19:29:55.810773 24884 net.cpp:141] Setting up conv1/7x7_s2
I0403 19:29:55.810888 24884 net.cpp:148] Top shape: 24 64 112 112 (19267584)
I0403 19:29:55.810906 24884 net.cpp:156] Memory required for data: 91522080
I0403 19:29:55.810945 24884 layer_factory.hpp:77] Creating layer conv1/relu_7x7
I0403 19:29:55.810977 24884 net.cpp:91] Creating Layer conv1/relu_7x7
I0403 19:29:55.810999 24884 net.cpp:425] conv1/relu_7x7 <- conv1/7x7_s2
I0403 19:29:55.811022 24884 net.cpp:386] conv1/relu_7x7 -> conv1/7x7_s2 (in-place)
I0403 19:29:55.811308 24884 net.cpp:141] Setting up conv1/relu_7x7
I0403 19:29:55.811337 24884 net.cpp:148] Top shape: 24 64 112 112 (19267584)
I0403 19:29:55.811355 24884 net.cpp:156] Memory required for data: 168592416
I0403 19:29:55.811372 24884 layer_factory.hpp:77] Creating layer pool1/3x3_s2
I0403 19:29:55.811400 24884 net.cpp:91] Creating Layer pool1/3x3_s2
I0403 19:29:55.811419 24884 net.cpp:425] pool1/3x3_s2 <- conv1/7x7_s2
I0403 19:29:55.811439 24884 net.cpp:399] pool1/3x3_s2 -> pool1/3x3_s2
I0403 19:29:55.811518 24884 net.cpp:141] Setting up pool1/3x3_s2
I0403 19:29:55.811543 24884 net.cpp:148] Top shape: 24 64 56 56 (4816896)
I0403 19:29:55.811558 24884 net.cpp:156] Memory required for data: 187860000
I0403 19:29:55.811571 24884 layer_factory.hpp:77] Creating layer pool1/norm1
I0403 19:29:55.811599 24884 net.cpp:91] Creating Layer pool1/norm1
I0403 19:29:55.811617 24884 net.cpp:425] pool1/norm1 <- pool1/3x3_s2
I0403 19:29:55.811637 24884 net.cpp:399] pool1/norm1 -> pool1/norm1
I0403 19:29:55.811913 24884 net.cpp:141] Setting up pool1/norm1
I0403 19:29:55.811940 24884 net.cpp:148] Top shape: 24 64 56 56 (4816896)
I0403 19:29:55.811956 24884 net.cpp:156] Memory required for data: 207127584
I0403 19:29:55.811971 24884 layer_factory.hpp:77] Creating layer conv2/3x3_reduce
I0403 19:29:55.812000 24884 net.cpp:91] Creating Layer conv2/3x3_reduce
I0403 19:29:55.812018 24884 net.cpp:425] conv2/3x3_reduce <- pool1/norm1
I0403 19:29:55.812037 24884 net.cpp:399] conv2/3x3_reduce -> conv2/3x3_reduce
I0403 19:29:55.813417 24884 net.cpp:141] Setting up conv2/3x3_reduce
I0403 19:29:55.813453 24884 net.cpp:148] Top shape: 24 64 56 56 (4816896)
I0403 19:29:55.813473 24884 net.cpp:156] Memory required for data: 226395168
I0403 19:29:55.813495 24884 layer_factory.hpp:77] Creating layer conv2/relu_3x3_reduce
I0403 19:29:55.813515 24884 net.cpp:91] Creating Layer conv2/relu_3x3_reduce
I0403 19:29:55.813532 24884 net.cpp:425] conv2/relu_3x3_reduce <- conv2/3x3_reduce
I0403 19:29:55.813555 24884 net.cpp:386] conv2/relu_3x3_reduce -> conv2/3x3_reduce (in-place)
I0403 19:29:55.813813 24884 net.cpp:141] Setting up conv2/relu_3x3_reduce
I0403 19:29:55.813845 24884 net.cpp:148] Top shape: 24 64 56 56 (4816896)
I0403 19:29:55.813863 24884 net.cpp:156] Memory required for data: 245662752
I0403 19:29:55.813879 24884 layer_factory.hpp:77] Creating layer conv2/3x3
I0403 19:29:55.813905 24884 net.cpp:91] Creating Layer conv2/3x3
I0403 19:29:55.813925 24884 net.cpp:425] conv2/3x3 <- conv2/3x3_reduce
I0403 19:29:55.813943 24884 net.cpp:399] conv2/3x3 -> conv2/3x3
I0403 19:29:55.816159 24884 net.cpp:141] Setting up conv2/3x3
I0403 19:29:55.816192 24884 net.cpp:148] Top shape: 24 192 56 56 (14450688)
I0403 19:29:55.816210 24884 net.cpp:156] Memory required for data: 303465504
I0403 19:29:55.816232 24884 layer_factory.hpp:77] Creating layer conv2/relu_3x3
I0403 19:29:55.816251 24884 net.cpp:91] Creating Layer conv2/relu_3x3
I0403 19:29:55.816268 24884 net.cpp:425] conv2/relu_3x3 <- conv2/3x3
I0403 19:29:55.816292 24884 net.cpp:386] conv2/relu_3x3 -> conv2/3x3 (in-place)
I0403 19:29:55.816465 24884 net.cpp:141] Setting up conv2/relu_3x3
I0403 19:29:55.816494 24884 net.cpp:148] Top shape: 24 192 56 56 (14450688)
I0403 19:29:55.816541 24884 net.cpp:156] Memory required for data: 361268256
I0403 19:29:55.816560 24884 layer_factory.hpp:77] Creating layer conv2/norm2
I0403 19:29:55.816579 24884 net.cpp:91] Creating Layer conv2/norm2
I0403 19:29:55.816596 24884 net.cpp:425] conv2/norm2 <- conv2/3x3
I0403 19:29:55.816615 24884 net.cpp:399] conv2/norm2 -> conv2/norm2
I0403 19:29:55.816910 24884 net.cpp:141] Setting up conv2/norm2
I0403 19:29:55.816939 24884 net.cpp:148] Top shape: 24 192 56 56 (14450688)
I0403 19:29:55.816956 24884 net.cpp:156] Memory required for data: 419071008
I0403 19:29:55.816973 24884 layer_factory.hpp:77] Creating layer pool2/3x3_s2
I0403 19:29:55.816993 24884 net.cpp:91] Creating Layer pool2/3x3_s2
I0403 19:29:55.817010 24884 net.cpp:425] pool2/3x3_s2 <- conv2/norm2
I0403 19:29:55.817028 24884 net.cpp:399] pool2/3x3_s2 -> pool2/3x3_s2
I0403 19:29:55.817081 24884 net.cpp:141] Setting up pool2/3x3_s2
I0403 19:29:55.817106 24884 net.cpp:148] Top shape: 24 192 28 28 (3612672)
I0403 19:29:55.817121 24884 net.cpp:156] Memory required for data: 433521696
I0403 19:29:55.817133 24884 layer_factory.hpp:77] Creating layer pool2/3x3_s2_pool2/3x3_s2_0_split
I0403 19:29:55.817150 24884 net.cpp:91] Creating Layer pool2/3x3_s2_pool2/3x3_s2_0_split
I0403 19:29:55.817167 24884 net.cpp:425] pool2/3x3_s2_pool2/3x3_s2_0_split <- pool2/3x3_s2
I0403 19:29:55.817185 24884 net.cpp:399] pool2/3x3_s2_pool2/3x3_s2_0_split -> pool2/3x3_s2_pool2/3x3_s2_0_split_0
I0403 19:29:55.817206 24884 net.cpp:399] pool2/3x3_s2_pool2/3x3_s2_0_split -> pool2/3x3_s2_pool2/3x3_s2_0_split_1
I0403 19:29:55.817227 24884 net.cpp:399] pool2/3x3_s2_pool2/3x3_s2_0_split -> pool2/3x3_s2_pool2/3x3_s2_0_split_2
I0403 19:29:55.817246 24884 net.cpp:399] pool2/3x3_s2_pool2/3x3_s2_0_split -> pool2/3x3_s2_pool2/3x3_s2_0_split_3
I0403 19:29:55.817319 24884 net.cpp:141] Setting up pool2/3x3_s2_pool2/3x3_s2_0_split
I0403 19:29:55.817345 24884 net.cpp:148] Top shape: 24 192 28 28 (3612672)
I0403 19:29:55.817363 24884 net.cpp:148] Top shape: 24 192 28 28 (3612672)
I0403 19:29:55.817378 24884 net.cpp:148] Top shape: 24 192 28 28 (3612672)
I0403 19:29:55.817394 24884 net.cpp:148] Top shape: 24 192 28 28 (3612672)
I0403 19:29:55.817409 24884 net.cpp:156] Memory required for data: 491324448
I0403 19:29:55.817423 24884 layer_factory.hpp:77] Creating layer inception_3a/1x1
I0403 19:29:55.817445 24884 net.cpp:91] Creating Layer inception_3a/1x1
I0403 19:29:55.817466 24884 net.cpp:425] inception_3a/1x1 <- pool2/3x3_s2_pool2/3x3_s2_0_split_0
I0403 19:29:55.817487 24884 net.cpp:399] inception_3a/1x1 -> inception_3a/1x1
I0403 19:29:55.818944 24884 net.cpp:141] Setting up inception_3a/1x1
I0403 19:29:55.818976 24884 net.cpp:148] Top shape: 24 64 28 28 (1204224)
I0403 19:29:55.818994 24884 net.cpp:156] Memory required for data: 496141344
I0403 19:29:55.819013 24884 layer_factory.hpp:77] Creating layer inception_3a/relu_1x1
I0403 19:29:55.819032 24884 net.cpp:91] Creating Layer inception_3a/relu_1x1
I0403 19:29:55.819048 24884 net.cpp:425] inception_3a/relu_1x1 <- inception_3a/1x1
I0403 19:29:55.819067 24884 net.cpp:386] inception_3a/relu_1x1 -> inception_3a/1x1 (in-place)
I0403 19:29:55.819236 24884 net.cpp:141] Setting up inception_3a/relu_1x1
I0403 19:29:55.819262 24884 net.cpp:148] Top shape: 24 64 28 28 (1204224)
I0403 19:29:55.819278 24884 net.cpp:156] Memory required for data: 500958240
I0403 19:29:55.819299 24884 layer_factory.hpp:77] Creating layer inception_3a/3x3_reduce
I0403 19:29:55.819324 24884 net.cpp:91] Creating Layer inception_3a/3x3_reduce
I0403 19:29:55.819342 24884 net.cpp:425] inception_3a/3x3_reduce <- pool2/3x3_s2_pool2/3x3_s2_0_split_1
I0403 19:29:55.819365 24884 net.cpp:399] inception_3a/3x3_reduce -> inception_3a/3x3_reduce
I0403 19:29:55.820948 24884 net.cpp:141] Setting up inception_3a/3x3_reduce
I0403 19:29:55.820982 24884 net.cpp:148] Top shape: 24 96 28 28 (1806336)
I0403 19:29:55.821001 24884 net.cpp:156] Memory required for data: 508183584
I0403 19:29:55.821022 24884 layer_factory.hpp:77] Creating layer inception_3a/relu_3x3_reduce
I0403 19:29:55.821058 24884 net.cpp:91] Creating Layer inception_3a/relu_3x3_reduce
I0403 19:29:55.821081 24884 net.cpp:425] inception_3a/relu_3x3_reduce <- inception_3a/3x3_reduce
I0403 19:29:55.821100 24884 net.cpp:386] inception_3a/relu_3x3_reduce -> inception_3a/3x3_reduce (in-place)
I0403 19:29:55.821274 24884 net.cpp:141] Setting up inception_3a/relu_3x3_reduce
I0403 19:29:55.821306 24884 net.cpp:148] Top shape: 24 96 28 28 (1806336)
I0403 19:29:55.821323 24884 net.cpp:156] Memory required for data: 515408928
I0403 19:29:55.821338 24884 layer_factory.hpp:77] Creating layer inception_3a/3x3
I0403 19:29:55.821362 24884 net.cpp:91] Creating Layer inception_3a/3x3
I0403 19:29:55.821380 24884 net.cpp:425] inception_3a/3x3 <- inception_3a/3x3_reduce
I0403 19:29:55.821399 24884 net.cpp:399] inception_3a/3x3 -> inception_3a/3x3
I0403 19:29:55.822967 24884 net.cpp:141] Setting up inception_3a/3x3
I0403 19:29:55.822994 24884 net.cpp:148] Top shape: 24 128 28 28 (2408448)
I0403 19:29:55.823012 24884 net.cpp:156] Memory required for data: 525042720
I0403 19:29:55.823029 24884 layer_factory.hpp:77] Creating layer inception_3a/relu_3x3
I0403 19:29:55.823048 24884 net.cpp:91] Creating Layer inception_3a/relu_3x3
I0403 19:29:55.823065 24884 net.cpp:425] inception_3a/relu_3x3 <- inception_3a/3x3
I0403 19:29:55.823086 24884 net.cpp:386] inception_3a/relu_3x3 -> inception_3a/3x3 (in-place)
I0403 19:29:55.823349 24884 net.cpp:141] Setting up inception_3a/relu_3x3
I0403 19:29:55.823376 24884 net.cpp:148] Top shape: 24 128 28 28 (2408448)
I0403 19:29:55.823392 24884 net.cpp:156] Memory required for data: 534676512
I0403 19:29:55.823407 24884 layer_factory.hpp:77] Creating layer inception_3a/5x5_reduce
I0403 19:29:55.823431 24884 net.cpp:91] Creating Layer inception_3a/5x5_reduce
I0403 19:29:55.823448 24884 net.cpp:425] inception_3a/5x5_reduce <- pool2/3x3_s2_pool2/3x3_s2_0_split_2
I0403 19:29:55.823472 24884 net.cpp:399] inception_3a/5x5_reduce -> inception_3a/5x5_reduce
I0403 19:29:55.824391 24884 net.cpp:141] Setting up inception_3a/5x5_reduce
I0403 19:29:55.824420 24884 net.cpp:148] Top shape: 24 16 28 28 (301056)
I0403 19:29:55.824436 24884 net.cpp:156] Memory required for data: 535880736
I0403 19:29:55.824455 24884 layer_factory.hpp:77] Creating layer inception_3a/relu_5x5_reduce
I0403 19:29:55.824475 24884 net.cpp:91] Creating Layer inception_3a/relu_5x5_reduce
I0403 19:29:55.824491 24884 net.cpp:425] inception_3a/relu_5x5_reduce <- inception_3a/5x5_reduce
I0403 19:29:55.824509 24884 net.cpp:386] inception_3a/relu_5x5_reduce -> inception_3a/5x5_reduce (in-place)
I0403 19:29:55.824775 24884 net.cpp:141] Setting up inception_3a/relu_5x5_reduce
I0403 19:29:55.824802 24884 net.cpp:148] Top shape: 24 16 28 28 (301056)
I0403 19:29:55.824817 24884 net.cpp:156] Memory required for data: 537084960
I0403 19:29:55.824833 24884 layer_factory.hpp:77] Creating layer inception_3a/5x5
I0403 19:29:55.824856 24884 net.cpp:91] Creating Layer inception_3a/5x5
I0403 19:29:55.824874 24884 net.cpp:425] inception_3a/5x5 <- inception_3a/5x5_reduce
I0403 19:29:55.824894 24884 net.cpp:399] inception_3a/5x5 -> inception_3a/5x5
I0403 19:29:55.825861 24884 net.cpp:141] Setting up inception_3a/5x5
I0403 19:29:55.825896 24884 net.cpp:148] Top shape: 24 32 28 28 (602112)
I0403 19:29:55.825913 24884 net.cpp:156] Memory required for data: 539493408
I0403 19:29:55.825933 24884 layer_factory.hpp:77] Creating layer inception_3a/relu_5x5
I0403 19:29:55.825952 24884 net.cpp:91] Creating Layer inception_3a/relu_5x5
I0403 19:29:55.825966 24884 net.cpp:425] inception_3a/relu_5x5 <- inception_3a/5x5
I0403 19:29:55.825984 24884 net.cpp:386] inception_3a/relu_5x5 -> inception_3a/5x5 (in-place)
I0403 19:29:55.826150 24884 net.cpp:141] Setting up inception_3a/relu_5x5
I0403 19:29:55.826176 24884 net.cpp:148] Top shape: 24 32 28 28 (602112)
I0403 19:29:55.826191 24884 net.cpp:156] Memory required for data: 541901856
I0403 19:29:55.826206 24884 layer_factory.hpp:77] Creating layer inception_3a/pool
I0403 19:29:55.826225 24884 net.cpp:91] Creating Layer inception_3a/pool
I0403 19:29:55.826256 24884 net.cpp:425] inception_3a/pool <- pool2/3x3_s2_pool2/3x3_s2_0_split_3
I0403 19:29:55.826277 24884 net.cpp:399] inception_3a/pool -> inception_3a/pool
I0403 19:29:55.826341 24884 net.cpp:141] Setting up inception_3a/pool
I0403 19:29:55.826369 24884 net.cpp:148] Top shape: 24 192 28 28 (3612672)
I0403 19:29:55.826385 24884 net.cpp:156] Memory required for data: 556352544
I0403 19:29:55.826400 24884 layer_factory.hpp:77] Creating layer inception_3a/pool_proj
I0403 19:29:55.826421 24884 net.cpp:91] Creating Layer inception_3a/pool_proj
I0403 19:29:55.826442 24884 net.cpp:425] inception_3a/pool_proj <- inception_3a/pool
I0403 19:29:55.826463 24884 net.cpp:399] inception_3a/pool_proj -> inception_3a/pool_proj
I0403 19:29:55.827385 24884 net.cpp:141] Setting up inception_3a/pool_proj
I0403 19:29:55.827415 24884 net.cpp:148] Top shape: 24 32 28 28 (602112)
I0403 19:29:55.827433 24884 net.cpp:156] Memory required for data: 558760992
I0403 19:29:55.827460 24884 layer_factory.hpp:77] Creating layer inception_3a/relu_pool_proj
I0403 19:29:55.827482 24884 net.cpp:91] Creating Layer inception_3a/relu_pool_proj
I0403 19:29:55.827498 24884 net.cpp:425] inception_3a/relu_pool_proj <- inception_3a/pool_proj
I0403 19:29:55.827519 24884 net.cpp:386] inception_3a/relu_pool_proj -> inception_3a/pool_proj (in-place)
I0403 19:29:55.827783 24884 net.cpp:141] Setting up inception_3a/relu_pool_proj
I0403 19:29:55.827812 24884 net.cpp:148] Top shape: 24 32 28 28 (602112)
I0403 19:29:55.827828 24884 net.cpp:156] Memory required for data: 561169440
I0403 19:29:55.827843 24884 layer_factory.hpp:77] Creating layer inception_3a/output
I0403 19:29:55.827862 24884 net.cpp:91] Creating Layer inception_3a/output
I0403 19:29:55.827877 24884 net.cpp:425] inception_3a/output <- inception_3a/1x1
I0403 19:29:55.827896 24884 net.cpp:425] inception_3a/output <- inception_3a/3x3
I0403 19:29:55.827911 24884 net.cpp:425] inception_3a/output <- inception_3a/5x5
I0403 19:29:55.827925 24884 net.cpp:425] inception_3a/output <- inception_3a/pool_proj
I0403 19:29:55.827944 24884 net.cpp:399] inception_3a/output -> inception_3a/output
I0403 19:29:55.827991 24884 net.cpp:141] Setting up inception_3a/output
I0403 19:29:55.828016 24884 net.cpp:148] Top shape: 24 256 28 28 (4816896)
I0403 19:29:55.828034 24884 net.cpp:156] Memory required for data: 580437024
I0403 19:29:55.828050 24884 layer_factory.hpp:77] Creating layer inception_3a/output_inception_3a/output_0_split
I0403 19:29:55.828069 24884 net.cpp:91] Creating Layer inception_3a/output_inception_3a/output_0_split
I0403 19:29:55.828085 24884 net.cpp:425] inception_3a/output_inception_3a/output_0_split <- inception_3a/output
I0403 19:29:55.828102 24884 net.cpp:399] inception_3a/output_inception_3a/output_0_split -> inception_3a/output_inception_3a/output_0_split_0
I0403 19:29:55.828121 24884 net.cpp:399] inception_3a/output_inception_3a/output_0_split -> inception_3a/output_inception_3a/output_0_split_1
I0403 19:29:55.828146 24884 net.cpp:399] inception_3a/output_inception_3a/output_0_split -> inception_3a/output_inception_3a/output_0_split_2
I0403 19:29:55.828171 24884 net.cpp:399] inception_3a/output_inception_3a/output_0_split -> inception_3a/output_inception_3a/output_0_split_3
I0403 19:29:55.828245 24884 net.cpp:141] Setting up inception_3a/output_inception_3a/output_0_split
I0403 19:29:55.828270 24884 net.cpp:148] Top shape: 24 256 28 28 (4816896)
I0403 19:29:55.828292 24884 net.cpp:148] Top shape: 24 256 28 28 (4816896)
I0403 19:29:55.828311 24884 net.cpp:148] Top shape: 24 256 28 28 (4816896)
I0403 19:29:55.828327 24884 net.cpp:148] Top shape: 24 256 28 28 (4816896)
I0403 19:29:55.828342 24884 net.cpp:156] Memory required for data: 657507360
I0403 19:29:55.828358 24884 layer_factory.hpp:77] Creating layer inception_3b/1x1
I0403 19:29:55.828383 24884 net.cpp:91] Creating Layer inception_3b/1x1
I0403 19:29:55.828400 24884 net.cpp:425] inception_3b/1x1 <- inception_3a/output_inception_3a/output_0_split_0
I0403 19:29:55.828419 24884 net.cpp:399] inception_3b/1x1 -> inception_3b/1x1
I0403 19:29:55.829499 24884 net.cpp:141] Setting up inception_3b/1x1
I0403 19:29:55.829537 24884 net.cpp:148] Top shape: 24 128 28 28 (2408448)
I0403 19:29:55.829555 24884 net.cpp:156] Memory required for data: 667141152
I0403 19:29:55.829572 24884 layer_factory.hpp:77] Creating layer inception_3b/relu_1x1
I0403 19:29:55.829592 24884 net.cpp:91] Creating Layer inception_3b/relu_1x1
I0403 19:29:55.829609 24884 net.cpp:425] inception_3b/relu_1x1 <- inception_3b/1x1
I0403 19:29:55.829627 24884 net.cpp:386] inception_3b/relu_1x1 -> inception_3b/1x1 (in-place)
I0403 19:29:55.829797 24884 net.cpp:141] Setting up inception_3b/relu_1x1
I0403 19:29:55.829823 24884 net.cpp:148] Top shape: 24 128 28 28 (2408448)
I0403 19:29:55.829838 24884 net.cpp:156] Memory required for data: 676774944
I0403 19:29:55.829854 24884 layer_factory.hpp:77] Creating layer inception_3b/3x3_reduce
I0403 19:29:55.829875 24884 net.cpp:91] Creating Layer inception_3b/3x3_reduce
I0403 19:29:55.829895 24884 net.cpp:425] inception_3b/3x3_reduce <- inception_3a/output_inception_3a/output_0_split_1
I0403 19:29:55.829917 24884 net.cpp:399] inception_3b/3x3_reduce -> inception_3b/3x3_reduce
I0403 19:29:55.831001 24884 net.cpp:141] Setting up inception_3b/3x3_reduce
I0403 19:29:55.831033 24884 net.cpp:148] Top shape: 24 128 28 28 (2408448)
I0403 19:29:55.831051 24884 net.cpp:156] Memory required for data: 686408736
I0403 19:29:55.831070 24884 layer_factory.hpp:77] Creating layer inception_3b/relu_3x3_reduce
I0403 19:29:55.831089 24884 net.cpp:91] Creating Layer inception_3b/relu_3x3_reduce
I0403 19:29:55.831106 24884 net.cpp:425] inception_3b/relu_3x3_reduce <- inception_3b/3x3_reduce
I0403 19:29:55.831123 24884 net.cpp:386] inception_3b/relu_3x3_reduce -> inception_3b/3x3_reduce (in-place)
I0403 19:29:55.831295 24884 net.cpp:141] Setting up inception_3b/relu_3x3_reduce
I0403 19:29:55.831324 24884 net.cpp:148] Top shape: 24 128 28 28 (2408448)
I0403 19:29:55.831341 24884 net.cpp:156] Memory required for data: 696042528
I0403 19:29:55.831356 24884 layer_factory.hpp:77] Creating layer inception_3b/3x3
I0403 19:29:55.831380 24884 net.cpp:91] Creating Layer inception_3b/3x3
I0403 19:29:55.831400 24884 net.cpp:425] inception_3b/3x3 <- inception_3b/3x3_reduce
I0403 19:29:55.831423 24884 net.cpp:399] inception_3b/3x3 -> inception_3b/3x3
I0403 19:29:55.834175 24884 net.cpp:141] Setting up inception_3b/3x3
I0403 19:29:55.834204 24884 net.cpp:148] Top shape: 24 192 28 28 (3612672)
I0403 19:29:55.834220 24884 net.cpp:156] Memory required for data: 710493216
I0403 19:29:55.834238 24884 layer_factory.hpp:77] Creating layer inception_3b/relu_3x3
I0403 19:29:55.834256 24884 net.cpp:91] Creating Layer inception_3b/relu_3x3
I0403 19:29:55.834275 24884 net.cpp:425] inception_3b/relu_3x3 <- inception_3b/3x3
I0403 19:29:55.834307 24884 net.cpp:386] inception_3b/relu_3x3 -> inception_3b/3x3 (in-place)
I0403 19:29:55.834571 24884 net.cpp:141] Setting up inception_3b/relu_3x3
I0403 19:29:55.834599 24884 net.cpp:148] Top shape: 24 192 28 28 (3612672)
I0403 19:29:55.834614 24884 net.cpp:156] Memory required for data: 724943904
I0403 19:29:55.834627 24884 layer_factory.hpp:77] Creating layer inception_3b/5x5_reduce
I0403 19:29:55.834650 24884 net.cpp:91] Creating Layer inception_3b/5x5_reduce
I0403 19:29:55.834667 24884 net.cpp:425] inception_3b/5x5_reduce <- inception_3a/output_inception_3a/output_0_split_2
I0403 19:29:55.834689 24884 net.cpp:399] inception_3b/5x5_reduce -> inception_3b/5x5_reduce
I0403 19:29:55.835613 24884 net.cpp:141] Setting up inception_3b/5x5_reduce
I0403 19:29:55.835644 24884 net.cpp:148] Top shape: 24 32 28 28 (602112)
I0403 19:29:55.835660 24884 net.cpp:156] Memory required for data: 727352352
I0403 19:29:55.835680 24884 layer_factory.hpp:77] Creating layer inception_3b/relu_5x5_reduce
I0403 19:29:55.835698 24884 net.cpp:91] Creating Layer inception_3b/relu_5x5_reduce
I0403 19:29:55.835712 24884 net.cpp:425] inception_3b/relu_5x5_reduce <- inception_3b/5x5_reduce
I0403 19:29:55.835731 24884 net.cpp:386] inception_3b/relu_5x5_reduce -> inception_3b/5x5_reduce (in-place)
I0403 19:29:55.835912 24884 net.cpp:141] Setting up inception_3b/relu_5x5_reduce
I0403 19:29:55.835938 24884 net.cpp:148] Top shape: 24 32 28 28 (602112)
I0403 19:29:55.835953 24884 net.cpp:156] Memory required for data: 729760800
I0403 19:29:55.835968 24884 layer_factory.hpp:77] Creating layer inception_3b/5x5
I0403 19:29:55.835993 24884 net.cpp:91] Creating Layer inception_3b/5x5
I0403 19:29:55.836012 24884 net.cpp:425] inception_3b/5x5 <- inception_3b/5x5_reduce
I0403 19:29:55.836032 24884 net.cpp:399] inception_3b/5x5 -> inception_3b/5x5
I0403 19:29:55.837924 24884 net.cpp:141] Setting up inception_3b/5x5
I0403 19:29:55.837954 24884 net.cpp:148] Top shape: 24 96 28 28 (1806336)
I0403 19:29:55.837977 24884 net.cpp:156] Memory required for data: 736986144
I0403 19:29:55.837996 24884 layer_factory.hpp:77] Creating layer inception_3b/relu_5x5
I0403 19:29:55.838016 24884 net.cpp:91] Creating Layer inception_3b/relu_5x5
I0403 19:29:55.838033 24884 net.cpp:425] inception_3b/relu_5x5 <- inception_3b/5x5
I0403 19:29:55.838049 24884 net.cpp:386] inception_3b/relu_5x5 -> inception_3b/5x5 (in-place)
I0403 19:29:55.838229 24884 net.cpp:141] Setting up inception_3b/relu_5x5
I0403 19:29:55.838260 24884 net.cpp:148] Top shape: 24 96 28 28 (1806336)
I0403 19:29:55.838275 24884 net.cpp:156] Memory required for data: 744211488
I0403 19:29:55.838294 24884 layer_factory.hpp:77] Creating layer inception_3b/pool
I0403 19:29:55.838313 24884 net.cpp:91] Creating Layer inception_3b/pool
I0403 19:29:55.838330 24884 net.cpp:425] inception_3b/pool <- inception_3a/output_inception_3a/output_0_split_3
I0403 19:29:55.838348 24884 net.cpp:399] inception_3b/pool -> inception_3b/pool
I0403 19:29:55.838403 24884 net.cpp:141] Setting up inception_3b/pool
I0403 19:29:55.838434 24884 net.cpp:148] Top shape: 24 256 28 28 (4816896)
I0403 19:29:55.838451 24884 net.cpp:156] Memory required for data: 763479072
I0403 19:29:55.838465 24884 layer_factory.hpp:77] Creating layer inception_3b/pool_proj
I0403 19:29:55.838485 24884 net.cpp:91] Creating Layer inception_3b/pool_proj
I0403 19:29:55.838501 24884 net.cpp:425] inception_3b/pool_proj <- inception_3b/pool
I0403 19:29:55.838523 24884 net.cpp:399] inception_3b/pool_proj -> inception_3b/pool_proj
I0403 19:29:55.839516 24884 net.cpp:141] Setting up inception_3b/pool_proj
I0403 19:29:55.839545 24884 net.cpp:148] Top shape: 24 64 28 28 (1204224)
I0403 19:29:55.839562 24884 net.cpp:156] Memory required for data: 768295968
I0403 19:29:55.839581 24884 layer_factory.hpp:77] Creating layer inception_3b/relu_pool_proj
I0403 19:29:55.839601 24884 net.cpp:91] Creating Layer inception_3b/relu_pool_proj
I0403 19:29:55.839619 24884 net.cpp:425] inception_3b/relu_pool_proj <- inception_3b/pool_proj
I0403 19:29:55.839637 24884 net.cpp:386] inception_3b/relu_pool_proj -> inception_3b/pool_proj (in-place)
I0403 19:29:55.839990 24884 net.cpp:141] Setting up inception_3b/relu_pool_proj
I0403 19:29:55.840019 24884 net.cpp:148] Top shape: 24 64 28 28 (1204224)
I0403 19:29:55.840035 24884 net.cpp:156] Memory required for data: 773112864
I0403 19:29:55.840049 24884 layer_factory.hpp:77] Creating layer inception_3b/output
I0403 19:29:55.840066 24884 net.cpp:91] Creating Layer inception_3b/output
I0403 19:29:55.840083 24884 net.cpp:425] inception_3b/output <- inception_3b/1x1
I0403 19:29:55.840102 24884 net.cpp:425] inception_3b/output <- inception_3b/3x3
I0403 19:29:55.840119 24884 net.cpp:425] inception_3b/output <- inception_3b/5x5
I0403 19:29:55.840133 24884 net.cpp:425] inception_3b/output <- inception_3b/pool_proj
I0403 19:29:55.840152 24884 net.cpp:399] inception_3b/output -> inception_3b/output
I0403 19:29:55.840196 24884 net.cpp:141] Setting up inception_3b/output
I0403 19:29:55.840224 24884 net.cpp:148] Top shape: 24 480 28 28 (9031680)
I0403 19:29:55.840242 24884 net.cpp:156] Memory required for data: 809239584
I0403 19:29:55.840257 24884 layer_factory.hpp:77] Creating layer pool3/3x3_s2
I0403 19:29:55.840276 24884 net.cpp:91] Creating Layer pool3/3x3_s2
I0403 19:29:55.840301 24884 net.cpp:425] pool3/3x3_s2 <- inception_3b/output
I0403 19:29:55.840342 24884 net.cpp:399] pool3/3x3_s2 -> pool3/3x3_s2
I0403 19:29:55.840399 24884 net.cpp:141] Setting up pool3/3x3_s2
I0403 19:29:55.840427 24884 net.cpp:148] Top shape: 24 480 14 14 (2257920)
I0403 19:29:55.840442 24884 net.cpp:156] Memory required for data: 818271264
I0403 19:29:55.840456 24884 layer_factory.hpp:77] Creating layer pool3/3x3_s2_pool3/3x3_s2_0_split
I0403 19:29:55.840476 24884 net.cpp:91] Creating Layer pool3/3x3_s2_pool3/3x3_s2_0_split
I0403 19:29:55.840492 24884 net.cpp:425] pool3/3x3_s2_pool3/3x3_s2_0_split <- pool3/3x3_s2
I0403 19:29:55.840510 24884 net.cpp:399] pool3/3x3_s2_pool3/3x3_s2_0_split -> pool3/3x3_s2_pool3/3x3_s2_0_split_0
I0403 19:29:55.840529 24884 net.cpp:399] pool3/3x3_s2_pool3/3x3_s2_0_split -> pool3/3x3_s2_pool3/3x3_s2_0_split_1
I0403 19:29:55.840548 24884 net.cpp:399] pool3/3x3_s2_pool3/3x3_s2_0_split -> pool3/3x3_s2_pool3/3x3_s2_0_split_2
I0403 19:29:55.840569 24884 net.cpp:399] pool3/3x3_s2_pool3/3x3_s2_0_split -> pool3/3x3_s2_pool3/3x3_s2_0_split_3
I0403 19:29:55.840641 24884 net.cpp:141] Setting up pool3/3x3_s2_pool3/3x3_s2_0_split
I0403 19:29:55.840668 24884 net.cpp:148] Top shape: 24 480 14 14 (2257920)
I0403 19:29:55.840683 24884 net.cpp:148] Top shape: 24 480 14 14 (2257920)
I0403 19:29:55.840698 24884 net.cpp:148] Top shape: 24 480 14 14 (2257920)
I0403 19:29:55.840715 24884 net.cpp:148] Top shape: 24 480 14 14 (2257920)
I0403 19:29:55.840731 24884 net.cpp:156] Memory required for data: 854397984
I0403 19:29:55.840746 24884 layer_factory.hpp:77] Creating layer inception_4a/1x1
I0403 19:29:55.840767 24884 net.cpp:91] Creating Layer inception_4a/1x1
I0403 19:29:55.840786 24884 net.cpp:425] inception_4a/1x1 <- pool3/3x3_s2_pool3/3x3_s2_0_split_0
I0403 19:29:55.840807 24884 net.cpp:399] inception_4a/1x1 -> inception_4a/1x1
I0403 19:29:55.842272 24884 net.cpp:141] Setting up inception_4a/1x1
I0403 19:29:55.842304 24884 net.cpp:148] Top shape: 24 192 14 14 (903168)
I0403 19:29:55.842322 24884 net.cpp:156] Memory required for data: 858010656
I0403 19:29:55.842341 24884 layer_factory.hpp:77] Creating layer inception_4a/relu_1x1
I0403 19:29:55.842361 24884 net.cpp:91] Creating Layer inception_4a/relu_1x1
I0403 19:29:55.842380 24884 net.cpp:425] inception_4a/relu_1x1 <- inception_4a/1x1
I0403 19:29:55.842397 24884 net.cpp:386] inception_4a/relu_1x1 -> inception_4a/1x1 (in-place)
I0403 19:29:55.842561 24884 net.cpp:141] Setting up inception_4a/relu_1x1
I0403 19:29:55.842589 24884 net.cpp:148] Top shape: 24 192 14 14 (903168)
I0403 19:29:55.842604 24884 net.cpp:156] Memory required for data: 861623328
I0403 19:29:55.842618 24884 layer_factory.hpp:77] Creating layer inception_4a/3x3_reduce
I0403 19:29:55.842640 24884 net.cpp:91] Creating Layer inception_4a/3x3_reduce
I0403 19:29:55.842658 24884 net.cpp:425] inception_4a/3x3_reduce <- pool3/3x3_s2_pool3/3x3_s2_0_split_1
I0403 19:29:55.842676 24884 net.cpp:399] inception_4a/3x3_reduce -> inception_4a/3x3_reduce
I0403 19:29:55.843855 24884 net.cpp:141] Setting up inception_4a/3x3_reduce
I0403 19:29:55.843885 24884 net.cpp:148] Top shape: 24 96 14 14 (451584)
I0403 19:29:55.843901 24884 net.cpp:156] Memory required for data: 863429664
I0403 19:29:55.843924 24884 layer_factory.hpp:77] Creating layer inception_4a/relu_3x3_reduce
I0403 19:29:55.843946 24884 net.cpp:91] Creating Layer inception_4a/relu_3x3_reduce
I0403 19:29:55.843966 24884 net.cpp:425] inception_4a/relu_3x3_reduce <- inception_4a/3x3_reduce
I0403 19:29:55.843984 24884 net.cpp:386] inception_4a/relu_3x3_reduce -> inception_4a/3x3_reduce (in-place)
I0403 19:29:55.844149 24884 net.cpp:141] Setting up inception_4a/relu_3x3_reduce
I0403 19:29:55.844175 24884 net.cpp:148] Top shape: 24 96 14 14 (451584)
I0403 19:29:55.844190 24884 net.cpp:156] Memory required for data: 865236000
I0403 19:29:55.844205 24884 layer_factory.hpp:77] Creating layer inception_4a/3x3
I0403 19:29:55.844229 24884 net.cpp:91] Creating Layer inception_4a/3x3
I0403 19:29:55.844247 24884 net.cpp:425] inception_4a/3x3 <- inception_4a/3x3_reduce
I0403 19:29:55.844266 24884 net.cpp:399] inception_4a/3x3 -> inception_4a/3x3
I0403 19:29:55.846799 24884 net.cpp:141] Setting up inception_4a/3x3
I0403 19:29:55.846832 24884 net.cpp:148] Top shape: 24 208 14 14 (978432)
I0403 19:29:55.846849 24884 net.cpp:156] Memory required for data: 869149728
I0403 19:29:55.846868 24884 layer_factory.hpp:77] Creating layer inception_4a/relu_3x3
I0403 19:29:55.846887 24884 net.cpp:91] Creating Layer inception_4a/relu_3x3
I0403 19:29:55.846904 24884 net.cpp:425] inception_4a/relu_3x3 <- inception_4a/3x3
I0403 19:29:55.846921 24884 net.cpp:386] inception_4a/relu_3x3 -> inception_4a/3x3 (in-place)
I0403 19:29:55.847187 24884 net.cpp:141] Setting up inception_4a/relu_3x3
I0403 19:29:55.847218 24884 net.cpp:148] Top shape: 24 208 14 14 (978432)
I0403 19:29:55.847234 24884 net.cpp:156] Memory required for data: 873063456
I0403 19:29:55.847249 24884 layer_factory.hpp:77] Creating layer inception_4a/5x5_reduce
I0403 19:29:55.847271 24884 net.cpp:91] Creating Layer inception_4a/5x5_reduce
I0403 19:29:55.847295 24884 net.cpp:425] inception_4a/5x5_reduce <- pool3/3x3_s2_pool3/3x3_s2_0_split_2
I0403 19:29:55.847316 24884 net.cpp:399] inception_4a/5x5_reduce -> inception_4a/5x5_reduce
I0403 19:29:55.848273 24884 net.cpp:141] Setting up inception_4a/5x5_reduce
I0403 19:29:55.848309 24884 net.cpp:148] Top shape: 24 16 14 14 (75264)
I0403 19:29:55.848328 24884 net.cpp:156] Memory required for data: 873364512
I0403 19:29:55.848346 24884 layer_factory.hpp:77] Creating layer inception_4a/relu_5x5_reduce
I0403 19:29:55.848363 24884 net.cpp:91] Creating Layer inception_4a/relu_5x5_reduce
I0403 19:29:55.848381 24884 net.cpp:425] inception_4a/relu_5x5_reduce <- inception_4a/5x5_reduce
I0403 19:29:55.848397 24884 net.cpp:386] inception_4a/relu_5x5_reduce -> inception_4a/5x5_reduce (in-place)
I0403 19:29:55.848570 24884 net.cpp:141] Setting up inception_4a/relu_5x5_reduce
I0403 19:29:55.848598 24884 net.cpp:148] Top shape: 24 16 14 14 (75264)
I0403 19:29:55.848613 24884 net.cpp:156] Memory required for data: 873665568
I0403 19:29:55.848629 24884 layer_factory.hpp:77] Creating layer inception_4a/5x5
I0403 19:29:55.848652 24884 net.cpp:91] Creating Layer inception_4a/5x5
I0403 19:29:55.848670 24884 net.cpp:425] inception_4a/5x5 <- inception_4a/5x5_reduce
I0403 19:29:55.848691 24884 net.cpp:399] inception_4a/5x5 -> inception_4a/5x5
I0403 19:29:55.849700 24884 net.cpp:141] Setting up inception_4a/5x5
I0403 19:29:55.849731 24884 net.cpp:148] Top shape: 24 48 14 14 (225792)
I0403 19:29:55.849748 24884 net.cpp:156] Memory required for data: 874568736
I0403 19:29:55.849766 24884 layer_factory.hpp:77] Creating layer inception_4a/relu_5x5
I0403 19:29:55.849786 24884 net.cpp:91] Creating Layer inception_4a/relu_5x5
I0403 19:29:55.849802 24884 net.cpp:425] inception_4a/relu_5x5 <- inception_4a/5x5
I0403 19:29:55.849822 24884 net.cpp:386] inception_4a/relu_5x5 -> inception_4a/5x5 (in-place)
I0403 19:29:55.849989 24884 net.cpp:141] Setting up inception_4a/relu_5x5
I0403 19:29:55.850016 24884 net.cpp:148] Top shape: 24 48 14 14 (225792)
I0403 19:29:55.850031 24884 net.cpp:156] Memory required for data: 875471904
I0403 19:29:55.850047 24884 layer_factory.hpp:77] Creating layer inception_4a/pool
I0403 19:29:55.850065 24884 net.cpp:91] Creating Layer inception_4a/pool
I0403 19:29:55.850082 24884 net.cpp:425] inception_4a/pool <- pool3/3x3_s2_pool3/3x3_s2_0_split_3
I0403 19:29:55.850100 24884 net.cpp:399] inception_4a/pool -> inception_4a/pool
I0403 19:29:55.850159 24884 net.cpp:141] Setting up inception_4a/pool
I0403 19:29:55.850184 24884 net.cpp:148] Top shape: 24 480 14 14 (2257920)
I0403 19:29:55.850198 24884 net.cpp:156] Memory required for data: 884503584
I0403 19:29:55.850213 24884 layer_factory.hpp:77] Creating layer inception_4a/pool_proj
I0403 19:29:55.850234 24884 net.cpp:91] Creating Layer inception_4a/pool_proj
I0403 19:29:55.850250 24884 net.cpp:425] inception_4a/pool_proj <- inception_4a/pool
I0403 19:29:55.850271 24884 net.cpp:399] inception_4a/pool_proj -> inception_4a/pool_proj
I0403 19:29:55.851361 24884 net.cpp:141] Setting up inception_4a/pool_proj
I0403 19:29:55.851393 24884 net.cpp:148] Top shape: 24 64 14 14 (301056)
I0403 19:29:55.851424 24884 net.cpp:156] Memory required for data: 885707808
I0403 19:29:55.851444 24884 layer_factory.hpp:77] Creating layer inception_4a/relu_pool_proj
I0403 19:29:55.851465 24884 net.cpp:91] Creating Layer inception_4a/relu_pool_proj
I0403 19:29:55.851485 24884 net.cpp:425] inception_4a/relu_pool_proj <- inception_4a/pool_proj
I0403 19:29:55.851502 24884 net.cpp:386] inception_4a/relu_pool_proj -> inception_4a/pool_proj (in-place)
I0403 19:29:55.851769 24884 net.cpp:141] Setting up inception_4a/relu_pool_proj
I0403 19:29:55.851796 24884 net.cpp:148] Top shape: 24 64 14 14 (301056)
I0403 19:29:55.851812 24884 net.cpp:156] Memory required for data: 886912032
I0403 19:29:55.851826 24884 layer_factory.hpp:77] Creating layer inception_4a/output
I0403 19:29:55.851845 24884 net.cpp:91] Creating Layer inception_4a/output
I0403 19:29:55.851861 24884 net.cpp:425] inception_4a/output <- inception_4a/1x1
I0403 19:29:55.851876 24884 net.cpp:425] inception_4a/output <- inception_4a/3x3
I0403 19:29:55.851892 24884 net.cpp:425] inception_4a/output <- inception_4a/5x5
I0403 19:29:55.851907 24884 net.cpp:425] inception_4a/output <- inception_4a/pool_proj
I0403 19:29:55.851927 24884 net.cpp:399] inception_4a/output -> inception_4a/output
I0403 19:29:55.851971 24884 net.cpp:141] Setting up inception_4a/output
I0403 19:29:55.851997 24884 net.cpp:148] Top shape: 24 512 14 14 (2408448)
I0403 19:29:55.852011 24884 net.cpp:156] Memory required for data: 896545824
I0403 19:29:55.852027 24884 layer_factory.hpp:77] Creating layer inception_4a/output_inception_4a/output_0_split
I0403 19:29:55.852044 24884 net.cpp:91] Creating Layer inception_4a/output_inception_4a/output_0_split
I0403 19:29:55.852058 24884 net.cpp:425] inception_4a/output_inception_4a/output_0_split <- inception_4a/output
I0403 19:29:55.852079 24884 net.cpp:399] inception_4a/output_inception_4a/output_0_split -> inception_4a/output_inception_4a/output_0_split_0
I0403 19:29:55.852102 24884 net.cpp:399] inception_4a/output_inception_4a/output_0_split -> inception_4a/output_inception_4a/output_0_split_1
I0403 19:29:55.852123 24884 net.cpp:399] inception_4a/output_inception_4a/output_0_split -> inception_4a/output_inception_4a/output_0_split_2
I0403 19:29:55.852143 24884 net.cpp:399] inception_4a/output_inception_4a/output_0_split -> inception_4a/output_inception_4a/output_0_split_3
I0403 19:29:55.852161 24884 net.cpp:399] inception_4a/output_inception_4a/output_0_split -> inception_4a/output_inception_4a/output_0_split_4
I0403 19:29:55.852246 24884 net.cpp:141] Setting up inception_4a/output_inception_4a/output_0_split
I0403 19:29:55.852272 24884 net.cpp:148] Top shape: 24 512 14 14 (2408448)
I0403 19:29:55.852293 24884 net.cpp:148] Top shape: 24 512 14 14 (2408448)
I0403 19:29:55.852313 24884 net.cpp:148] Top shape: 24 512 14 14 (2408448)
I0403 19:29:55.852330 24884 net.cpp:148] Top shape: 24 512 14 14 (2408448)
I0403 19:29:55.852344 24884 net.cpp:148] Top shape: 24 512 14 14 (2408448)
I0403 19:29:55.852358 24884 net.cpp:156] Memory required for data: 944714784
I0403 19:29:55.852371 24884 layer_factory.hpp:77] Creating layer loss1/ave_pool
I0403 19:29:55.852390 24884 net.cpp:91] Creating Layer loss1/ave_pool
I0403 19:29:55.852406 24884 net.cpp:425] loss1/ave_pool <- inception_4a/output_inception_4a/output_0_split_0
I0403 19:29:55.852424 24884 net.cpp:399] loss1/ave_pool -> loss1/ave_pool
I0403 19:29:55.852623 24884 net.cpp:141] Setting up loss1/ave_pool
I0403 19:29:55.852650 24884 net.cpp:148] Top shape: 24 512 4 4 (196608)
I0403 19:29:55.852664 24884 net.cpp:156] Memory required for data: 945501216
I0403 19:29:55.852679 24884 layer_factory.hpp:77] Creating layer loss1/conv
I0403 19:29:55.852701 24884 net.cpp:91] Creating Layer loss1/conv
I0403 19:29:55.852718 24884 net.cpp:425] loss1/conv <- loss1/ave_pool
I0403 19:29:55.852740 24884 net.cpp:399] loss1/conv -> loss1/conv
I0403 19:29:55.854048 24884 net.cpp:141] Setting up loss1/conv
I0403 19:29:55.854082 24884 net.cpp:148] Top shape: 24 128 4 4 (49152)
I0403 19:29:55.854112 24884 net.cpp:156] Memory required for data: 945697824
I0403 19:29:55.854131 24884 layer_factory.hpp:77] Creating layer loss1/relu_conv
I0403 19:29:55.854151 24884 net.cpp:91] Creating Layer loss1/relu_conv
I0403 19:29:55.854167 24884 net.cpp:425] loss1/relu_conv <- loss1/conv
I0403 19:29:55.854184 24884 net.cpp:386] loss1/relu_conv -> loss1/conv (in-place)
I0403 19:29:55.854460 24884 net.cpp:141] Setting up loss1/relu_conv
I0403 19:29:55.854490 24884 net.cpp:148] Top shape: 24 128 4 4 (49152)
I0403 19:29:55.854506 24884 net.cpp:156] Memory required for data: 945894432
I0403 19:29:55.854522 24884 layer_factory.hpp:77] Creating layer loss1/fc
I0403 19:29:55.854548 24884 net.cpp:91] Creating Layer loss1/fc
I0403 19:29:55.854567 24884 net.cpp:425] loss1/fc <- loss1/conv
I0403 19:29:55.854593 24884 net.cpp:399] loss1/fc -> loss1/fc
I0403 19:29:55.871449 24884 net.cpp:141] Setting up loss1/fc
I0403 19:29:55.871485 24884 net.cpp:148] Top shape: 24 1024 (24576)
I0403 19:29:55.871503 24884 net.cpp:156] Memory required for data: 945992736
I0403 19:29:55.871522 24884 layer_factory.hpp:77] Creating layer loss1/relu_fc
I0403 19:29:55.871546 24884 net.cpp:91] Creating Layer loss1/relu_fc
I0403 19:29:55.871564 24884 net.cpp:425] loss1/relu_fc <- loss1/fc
I0403 19:29:55.871582 24884 net.cpp:386] loss1/relu_fc -> loss1/fc (in-place)
I0403 19:29:55.871759 24884 net.cpp:141] Setting up loss1/relu_fc
I0403 19:29:55.871788 24884 net.cpp:148] Top shape: 24 1024 (24576)
I0403 19:29:55.871806 24884 net.cpp:156] Memory required for data: 946091040
I0403 19:29:55.871822 24884 layer_factory.hpp:77] Creating layer loss1/drop_fc
I0403 19:29:55.871848 24884 net.cpp:91] Creating Layer loss1/drop_fc
I0403 19:29:55.871868 24884 net.cpp:425] loss1/drop_fc <- loss1/fc
I0403 19:29:55.871886 24884 net.cpp:386] loss1/drop_fc -> loss1/fc (in-place)
I0403 19:29:55.871940 24884 net.cpp:141] Setting up loss1/drop_fc
I0403 19:29:55.871966 24884 net.cpp:148] Top shape: 24 1024 (24576)
I0403 19:29:55.871984 24884 net.cpp:156] Memory required for data: 946189344
I0403 19:29:55.871999 24884 layer_factory.hpp:77] Creating layer loss1/classifier_plantvillage
I0403 19:29:55.872021 24884 net.cpp:91] Creating Layer loss1/classifier_plantvillage
I0403 19:29:55.872040 24884 net.cpp:425] loss1/classifier_plantvillage <- loss1/fc
I0403 19:29:55.872057 24884 net.cpp:399] loss1/classifier_plantvillage -> loss1/classifier_plantvillage
I0403 19:29:55.872941 24884 net.cpp:141] Setting up loss1/classifier_plantvillage
I0403 19:29:55.872974 24884 net.cpp:148] Top shape: 24 38 (912)
I0403 19:29:55.872992 24884 net.cpp:156] Memory required for data: 946192992
I0403 19:29:55.873009 24884 layer_factory.hpp:77] Creating layer loss1/classifier_plantvillage_loss1/classifier_plantvillage_0_split
I0403 19:29:55.873028 24884 net.cpp:91] Creating Layer loss1/classifier_plantvillage_loss1/classifier_plantvillage_0_split
I0403 19:29:55.873045 24884 net.cpp:425] loss1/classifier_plantvillage_loss1/classifier_plantvillage_0_split <- loss1/classifier_plantvillage
I0403 19:29:55.873064 24884 net.cpp:399] loss1/classifier_plantvillage_loss1/classifier_plantvillage_0_split -> loss1/classifier_plantvillage_loss1/classifier_plantvillage_0_split_0
I0403 19:29:55.873085 24884 net.cpp:399] loss1/classifier_plantvillage_loss1/classifier_plantvillage_0_split -> loss1/classifier_plantvillage_loss1/classifier_plantvillage_0_split_1
I0403 19:29:55.873106 24884 net.cpp:399] loss1/classifier_plantvillage_loss1/classifier_plantvillage_0_split -> loss1/classifier_plantvillage_loss1/classifier_plantvillage_0_split_2
I0403 19:29:55.873168 24884 net.cpp:141] Setting up loss1/classifier_plantvillage_loss1/classifier_plantvillage_0_split
I0403 19:29:55.873193 24884 net.cpp:148] Top shape: 24 38 (912)
I0403 19:29:55.873210 24884 net.cpp:148] Top shape: 24 38 (912)
I0403 19:29:55.873225 24884 net.cpp:148] Top shape: 24 38 (912)
I0403 19:29:55.873240 24884 net.cpp:156] Memory required for data: 946203936
I0403 19:29:55.873256 24884 layer_factory.hpp:77] Creating layer inception_4b/1x1
I0403 19:29:55.873280 24884 net.cpp:91] Creating Layer inception_4b/1x1
I0403 19:29:55.873317 24884 net.cpp:425] inception_4b/1x1 <- inception_4a/output_inception_4a/output_0_split_1
I0403 19:29:55.873340 24884 net.cpp:399] inception_4b/1x1 -> inception_4b/1x1
I0403 19:29:55.874876 24884 net.cpp:141] Setting up inception_4b/1x1
I0403 19:29:55.874909 24884 net.cpp:148] Top shape: 24 160 14 14 (752640)
I0403 19:29:55.874928 24884 net.cpp:156] Memory required for data: 949214496
I0403 19:29:55.874946 24884 layer_factory.hpp:77] Creating layer inception_4b/relu_1x1
I0403 19:29:55.874964 24884 net.cpp:91] Creating Layer inception_4b/relu_1x1
I0403 19:29:55.874979 24884 net.cpp:425] inception_4b/relu_1x1 <- inception_4b/1x1
I0403 19:29:55.874997 24884 net.cpp:386] inception_4b/relu_1x1 -> inception_4b/1x1 (in-place)
I0403 19:29:55.875170 24884 net.cpp:141] Setting up inception_4b/relu_1x1
I0403 19:29:55.875198 24884 net.cpp:148] Top shape: 24 160 14 14 (752640)
I0403 19:29:55.875213 24884 net.cpp:156] Memory required for data: 952225056
I0403 19:29:55.875226 24884 layer_factory.hpp:77] Creating layer inception_4b/3x3_reduce
I0403 19:29:55.875248 24884 net.cpp:91] Creating Layer inception_4b/3x3_reduce
I0403 19:29:55.875267 24884 net.cpp:425] inception_4b/3x3_reduce <- inception_4a/output_inception_4a/output_0_split_2
I0403 19:29:55.875291 24884 net.cpp:399] inception_4b/3x3_reduce -> inception_4b/3x3_reduce
I0403 19:29:55.876572 24884 net.cpp:141] Setting up inception_4b/3x3_reduce
I0403 19:29:55.876601 24884 net.cpp:148] Top shape: 24 112 14 14 (526848)
I0403 19:29:55.876617 24884 net.cpp:156] Memory required for data: 954332448
I0403 19:29:55.876636 24884 layer_factory.hpp:77] Creating layer inception_4b/relu_3x3_reduce
I0403 19:29:55.876654 24884 net.cpp:91] Creating Layer inception_4b/relu_3x3_reduce
I0403 19:29:55.876672 24884 net.cpp:425] inception_4b/relu_3x3_reduce <- inception_4b/3x3_reduce
I0403 19:29:55.876691 24884 net.cpp:386] inception_4b/relu_3x3_reduce -> inception_4b/3x3_reduce (in-place)
I0403 19:29:55.876967 24884 net.cpp:141] Setting up inception_4b/relu_3x3_reduce
I0403 19:29:55.876998 24884 net.cpp:148] Top shape: 24 112 14 14 (526848)
I0403 19:29:55.877013 24884 net.cpp:156] Memory required for data: 956439840
I0403 19:29:55.877029 24884 layer_factory.hpp:77] Creating layer inception_4b/3x3
I0403 19:29:55.877051 24884 net.cpp:91] Creating Layer inception_4b/3x3
I0403 19:29:55.877070 24884 net.cpp:425] inception_4b/3x3 <- inception_4b/3x3_reduce
I0403 19:29:55.877092 24884 net.cpp:399] inception_4b/3x3 -> inception_4b/3x3
I0403 19:29:55.879922 24884 net.cpp:141] Setting up inception_4b/3x3
I0403 19:29:55.879954 24884 net.cpp:148] Top shape: 24 224 14 14 (1053696)
I0403 19:29:55.879971 24884 net.cpp:156] Memory required for data: 960654624
I0403 19:29:55.879988 24884 layer_factory.hpp:77] Creating layer inception_4b/relu_3x3
I0403 19:29:55.880010 24884 net.cpp:91] Creating Layer inception_4b/relu_3x3
I0403 19:29:55.880029 24884 net.cpp:425] inception_4b/relu_3x3 <- inception_4b/3x3
I0403 19:29:55.880048 24884 net.cpp:386] inception_4b/relu_3x3 -> inception_4b/3x3 (in-place)
I0403 19:29:55.880221 24884 net.cpp:141] Setting up inception_4b/relu_3x3
I0403 19:29:55.880252 24884 net.cpp:148] Top shape: 24 224 14 14 (1053696)
I0403 19:29:55.880270 24884 net.cpp:156] Memory required for data: 964869408
I0403 19:29:55.880285 24884 layer_factory.hpp:77] Creating layer inception_4b/5x5_reduce
I0403 19:29:55.880312 24884 net.cpp:91] Creating Layer inception_4b/5x5_reduce
I0403 19:29:55.880333 24884 net.cpp:425] inception_4b/5x5_reduce <- inception_4a/output_inception_4a/output_0_split_3
I0403 19:29:55.880352 24884 net.cpp:399] inception_4b/5x5_reduce -> inception_4b/5x5_reduce
I0403 19:29:55.881374 24884 net.cpp:141] Setting up inception_4b/5x5_reduce
I0403 19:29:55.881407 24884 net.cpp:148] Top shape: 24 24 14 14 (112896)
I0403 19:29:55.881425 24884 net.cpp:156] Memory required for data: 965320992
I0403 19:29:55.881444 24884 layer_factory.hpp:77] Creating layer inception_4b/relu_5x5_reduce
I0403 19:29:55.881464 24884 net.cpp:91] Creating Layer inception_4b/relu_5x5_reduce
I0403 19:29:55.881496 24884 net.cpp:425] inception_4b/relu_5x5_reduce <- inception_4b/5x5_reduce
I0403 19:29:55.881520 24884 net.cpp:386] inception_4b/relu_5x5_reduce -> inception_4b/5x5_reduce (in-place)
I0403 19:29:55.881693 24884 net.cpp:141] Setting up inception_4b/relu_5x5_reduce
I0403 19:29:55.881722 24884 net.cpp:148] Top shape: 24 24 14 14 (112896)
I0403 19:29:55.881737 24884 net.cpp:156] Memory required for data: 965772576
I0403 19:29:55.881752 24884 layer_factory.hpp:77] Creating layer inception_4b/5x5
I0403 19:29:55.881774 24884 net.cpp:91] Creating Layer inception_4b/5x5
I0403 19:29:55.881793 24884 net.cpp:425] inception_4b/5x5 <- inception_4b/5x5_reduce
I0403 19:29:55.881814 24884 net.cpp:399] inception_4b/5x5 -> inception_4b/5x5
I0403 19:29:55.882961 24884 net.cpp:141] Setting up inception_4b/5x5
I0403 19:29:55.882992 24884 net.cpp:148] Top shape: 24 64 14 14 (301056)
I0403 19:29:55.883010 24884 net.cpp:156] Memory required for data: 966976800
I0403 19:29:55.883028 24884 layer_factory.hpp:77] Creating layer inception_4b/relu_5x5
I0403 19:29:55.883046 24884 net.cpp:91] Creating Layer inception_4b/relu_5x5
I0403 19:29:55.883061 24884 net.cpp:425] inception_4b/relu_5x5 <- inception_4b/5x5
I0403 19:29:55.883079 24884 net.cpp:386] inception_4b/relu_5x5 -> inception_4b/5x5 (in-place)
I0403 19:29:55.883352 24884 net.cpp:141] Setting up inception_4b/relu_5x5
I0403 19:29:55.883383 24884 net.cpp:148] Top shape: 24 64 14 14 (301056)
I0403 19:29:55.883399 24884 net.cpp:156] Memory required for data: 968181024
I0403 19:29:55.883414 24884 layer_factory.hpp:77] Creating layer inception_4b/pool
I0403 19:29:55.883431 24884 net.cpp:91] Creating Layer inception_4b/pool
I0403 19:29:55.883447 24884 net.cpp:425] inception_4b/pool <- inception_4a/output_inception_4a/output_0_split_4
I0403 19:29:55.883469 24884 net.cpp:399] inception_4b/pool -> inception_4b/pool
I0403 19:29:55.883535 24884 net.cpp:141] Setting up inception_4b/pool
I0403 19:29:55.883563 24884 net.cpp:148] Top shape: 24 512 14 14 (2408448)
I0403 19:29:55.883576 24884 net.cpp:156] Memory required for data: 977814816
I0403 19:29:55.883591 24884 layer_factory.hpp:77] Creating layer inception_4b/pool_proj
I0403 19:29:55.883613 24884 net.cpp:91] Creating Layer inception_4b/pool_proj
I0403 19:29:55.883631 24884 net.cpp:425] inception_4b/pool_proj <- inception_4b/pool
I0403 19:29:55.883652 24884 net.cpp:399] inception_4b/pool_proj -> inception_4b/pool_proj
I0403 19:29:55.884788 24884 net.cpp:141] Setting up inception_4b/pool_proj
I0403 19:29:55.884819 24884 net.cpp:148] Top shape: 24 64 14 14 (301056)
I0403 19:29:55.884835 24884 net.cpp:156] Memory required for data: 979019040
I0403 19:29:55.884852 24884 layer_factory.hpp:77] Creating layer inception_4b/relu_pool_proj
I0403 19:29:55.884871 24884 net.cpp:91] Creating Layer inception_4b/relu_pool_proj
I0403 19:29:55.884887 24884 net.cpp:425] inception_4b/relu_pool_proj <- inception_4b/pool_proj
I0403 19:29:55.884909 24884 net.cpp:386] inception_4b/relu_pool_proj -> inception_4b/pool_proj (in-place)
I0403 19:29:55.885083 24884 net.cpp:141] Setting up inception_4b/relu_pool_proj
I0403 19:29:55.885112 24884 net.cpp:148] Top shape: 24 64 14 14 (301056)
I0403 19:29:55.885126 24884 net.cpp:156] Memory required for data: 980223264
I0403 19:29:55.885141 24884 layer_factory.hpp:77] Creating layer inception_4b/output
I0403 19:29:55.885159 24884 net.cpp:91] Creating Layer inception_4b/output
I0403 19:29:55.885175 24884 net.cpp:425] inception_4b/output <- inception_4b/1x1
I0403 19:29:55.885193 24884 net.cpp:425] inception_4b/output <- inception_4b/3x3
I0403 19:29:55.885215 24884 net.cpp:425] inception_4b/output <- inception_4b/5x5
I0403 19:29:55.885231 24884 net.cpp:425] inception_4b/output <- inception_4b/pool_proj
I0403 19:29:55.885246 24884 net.cpp:399] inception_4b/output -> inception_4b/output
I0403 19:29:55.885294 24884 net.cpp:141] Setting up inception_4b/output
I0403 19:29:55.885324 24884 net.cpp:148] Top shape: 24 512 14 14 (2408448)
I0403 19:29:55.885342 24884 net.cpp:156] Memory required for data: 989857056
I0403 19:29:55.885373 24884 layer_factory.hpp:77] Creating layer inception_4b/output_inception_4b/output_0_split
I0403 19:29:55.885390 24884 net.cpp:91] Creating Layer inception_4b/output_inception_4b/output_0_split
I0403 19:29:55.885406 24884 net.cpp:425] inception_4b/output_inception_4b/output_0_split <- inception_4b/output
I0403 19:29:55.885426 24884 net.cpp:399] inception_4b/output_inception_4b/output_0_split -> inception_4b/output_inception_4b/output_0_split_0
I0403 19:29:55.885447 24884 net.cpp:399] inception_4b/output_inception_4b/output_0_split -> inception_4b/output_inception_4b/output_0_split_1
I0403 19:29:55.885469 24884 net.cpp:399] inception_4b/output_inception_4b/output_0_split -> inception_4b/output_inception_4b/output_0_split_2
I0403 19:29:55.885490 24884 net.cpp:399] inception_4b/output_inception_4b/output_0_split -> inception_4b/output_inception_4b/output_0_split_3
I0403 19:29:55.885565 24884 net.cpp:141] Setting up inception_4b/output_inception_4b/output_0_split
I0403 19:29:55.885592 24884 net.cpp:148] Top shape: 24 512 14 14 (2408448)
I0403 19:29:55.885609 24884 net.cpp:148] Top shape: 24 512 14 14 (2408448)
I0403 19:29:55.885625 24884 net.cpp:148] Top shape: 24 512 14 14 (2408448)
I0403 19:29:55.885642 24884 net.cpp:148] Top shape: 24 512 14 14 (2408448)
I0403 19:29:55.885658 24884 net.cpp:156] Memory required for data: 1028392224
I0403 19:29:55.885671 24884 layer_factory.hpp:77] Creating layer inception_4c/1x1
I0403 19:29:55.885694 24884 net.cpp:91] Creating Layer inception_4c/1x1
I0403 19:29:55.885713 24884 net.cpp:425] inception_4c/1x1 <- inception_4b/output_inception_4b/output_0_split_0
I0403 19:29:55.885731 24884 net.cpp:399] inception_4c/1x1 -> inception_4c/1x1
I0403 19:29:55.887085 24884 net.cpp:141] Setting up inception_4c/1x1
I0403 19:29:55.887116 24884 net.cpp:148] Top shape: 24 128 14 14 (602112)
I0403 19:29:55.887133 24884 net.cpp:156] Memory required for data: 1030800672
I0403 19:29:55.887150 24884 layer_factory.hpp:77] Creating layer inception_4c/relu_1x1
I0403 19:29:55.887171 24884 net.cpp:91] Creating Layer inception_4c/relu_1x1
I0403 19:29:55.887188 24884 net.cpp:425] inception_4c/relu_1x1 <- inception_4c/1x1
I0403 19:29:55.887207 24884 net.cpp:386] inception_4c/relu_1x1 -> inception_4c/1x1 (in-place)
I0403 19:29:55.887385 24884 net.cpp:141] Setting up inception_4c/relu_1x1
I0403 19:29:55.887415 24884 net.cpp:148] Top shape: 24 128 14 14 (602112)
I0403 19:29:55.887428 24884 net.cpp:156] Memory required for data: 1033209120
I0403 19:29:55.887441 24884 layer_factory.hpp:77] Creating layer inception_4c/3x3_reduce
I0403 19:29:55.887465 24884 net.cpp:91] Creating Layer inception_4c/3x3_reduce
I0403 19:29:55.887480 24884 net.cpp:425] inception_4c/3x3_reduce <- inception_4b/output_inception_4b/output_0_split_1
I0403 19:29:55.887500 24884 net.cpp:399] inception_4c/3x3_reduce -> inception_4c/3x3_reduce
I0403 19:29:55.889349 24884 net.cpp:141] Setting up inception_4c/3x3_reduce
I0403 19:29:55.889380 24884 net.cpp:148] Top shape: 24 128 14 14 (602112)
I0403 19:29:55.889396 24884 net.cpp:156] Memory required for data: 1035617568
I0403 19:29:55.889413 24884 layer_factory.hpp:77] Creating layer inception_4c/relu_3x3_reduce
I0403 19:29:55.889431 24884 net.cpp:91] Creating Layer inception_4c/relu_3x3_reduce
I0403 19:29:55.889448 24884 net.cpp:425] inception_4c/relu_3x3_reduce <- inception_4c/3x3_reduce
I0403 19:29:55.889467 24884 net.cpp:386] inception_4c/relu_3x3_reduce -> inception_4c/3x3_reduce (in-place)
I0403 19:29:55.889734 24884 net.cpp:141] Setting up inception_4c/relu_3x3_reduce
I0403 19:29:55.889762 24884 net.cpp:148] Top shape: 24 128 14 14 (602112)
I0403 19:29:55.889780 24884 net.cpp:156] Memory required for data: 1038026016
I0403 19:29:55.889794 24884 layer_factory.hpp:77] Creating layer inception_4c/3x3
I0403 19:29:55.889817 24884 net.cpp:91] Creating Layer inception_4c/3x3
I0403 19:29:55.889834 24884 net.cpp:425] inception_4c/3x3 <- inception_4c/3x3_reduce
I0403 19:29:55.889853 24884 net.cpp:399] inception_4c/3x3 -> inception_4c/3x3
I0403 19:29:55.893302 24884 net.cpp:141] Setting up inception_4c/3x3
I0403 19:29:55.893347 24884 net.cpp:148] Top shape: 24 256 14 14 (1204224)
I0403 19:29:55.893363 24884 net.cpp:156] Memory required for data: 1042842912
I0403 19:29:55.893396 24884 layer_factory.hpp:77] Creating layer inception_4c/relu_3x3
I0403 19:29:55.893417 24884 net.cpp:91] Creating Layer inception_4c/relu_3x3
I0403 19:29:55.893434 24884 net.cpp:425] inception_4c/relu_3x3 <- inception_4c/3x3
I0403 19:29:55.893451 24884 net.cpp:386] inception_4c/relu_3x3 -> inception_4c/3x3 (in-place)
I0403 19:29:55.893627 24884 net.cpp:141] Setting up inception_4c/relu_3x3
I0403 19:29:55.893656 24884 net.cpp:148] Top shape: 24 256 14 14 (1204224)
I0403 19:29:55.893671 24884 net.cpp:156] Memory required for data: 1047659808
I0403 19:29:55.893685 24884 layer_factory.hpp:77] Creating layer inception_4c/5x5_reduce
I0403 19:29:55.893708 24884 net.cpp:91] Creating Layer inception_4c/5x5_reduce
I0403 19:29:55.893726 24884 net.cpp:425] inception_4c/5x5_reduce <- inception_4b/output_inception_4b/output_0_split_2
I0403 19:29:55.893745 24884 net.cpp:399] inception_4c/5x5_reduce -> inception_4c/5x5_reduce
I0403 19:29:55.894804 24884 net.cpp:141] Setting up inception_4c/5x5_reduce
I0403 19:29:55.894831 24884 net.cpp:148] Top shape: 24 24 14 14 (112896)
I0403 19:29:55.894847 24884 net.cpp:156] Memory required for data: 1048111392
I0403 19:29:55.894865 24884 layer_factory.hpp:77] Creating layer inception_4c/relu_5x5_reduce
I0403 19:29:55.894881 24884 net.cpp:91] Creating Layer inception_4c/relu_5x5_reduce
I0403 19:29:55.894896 24884 net.cpp:425] inception_4c/relu_5x5_reduce <- inception_4c/5x5_reduce
I0403 19:29:55.894913 24884 net.cpp:386] inception_4c/relu_5x5_reduce -> inception_4c/5x5_reduce (in-place)
I0403 19:29:55.895087 24884 net.cpp:141] Setting up inception_4c/relu_5x5_reduce
I0403 19:29:55.895110 24884 net.cpp:148] Top shape: 24 24 14 14 (112896)
I0403 19:29:55.895123 24884 net.cpp:156] Memory required for data: 1048562976
I0403 19:29:55.895138 24884 layer_factory.hpp:77] Creating layer inception_4c/5x5
I0403 19:29:55.895158 24884 net.cpp:91] Creating Layer inception_4c/5x5
I0403 19:29:55.895174 24884 net.cpp:425] inception_4c/5x5 <- inception_4c/5x5_reduce
I0403 19:29:55.895192 24884 net.cpp:399] inception_4c/5x5 -> inception_4c/5x5
I0403 19:29:55.896361 24884 net.cpp:141] Setting up inception_4c/5x5
I0403 19:29:55.896387 24884 net.cpp:148] Top shape: 24 64 14 14 (301056)
I0403 19:29:55.896402 24884 net.cpp:156] Memory required for data: 1049767200
I0403 19:29:55.896420 24884 layer_factory.hpp:77] Creating layer inception_4c/relu_5x5
I0403 19:29:55.896437 24884 net.cpp:91] Creating Layer inception_4c/relu_5x5
I0403 19:29:55.896455 24884 net.cpp:425] inception_4c/relu_5x5 <- inception_4c/5x5
I0403 19:29:55.896471 24884 net.cpp:386] inception_4c/relu_5x5 -> inception_4c/5x5 (in-place)
I0403 19:29:55.896739 24884 net.cpp:141] Setting up inception_4c/relu_5x5
I0403 19:29:55.896764 24884 net.cpp:148] Top shape: 24 64 14 14 (301056)
I0403 19:29:55.896778 24884 net.cpp:156] Memory required for data: 1050971424
I0403 19:29:55.896791 24884 layer_factory.hpp:77] Creating layer inception_4c/pool
I0403 19:29:55.896811 24884 net.cpp:91] Creating Layer inception_4c/pool
I0403 19:29:55.896826 24884 net.cpp:425] inception_4c/pool <- inception_4b/output_inception_4b/output_0_split_3
I0403 19:29:55.896842 24884 net.cpp:399] inception_4c/pool -> inception_4c/pool
I0403 19:29:55.896903 24884 net.cpp:141] Setting up inception_4c/pool
I0403 19:29:55.896926 24884 net.cpp:148] Top shape: 24 512 14 14 (2408448)
I0403 19:29:55.896940 24884 net.cpp:156] Memory required for data: 1060605216
I0403 19:29:55.896952 24884 layer_factory.hpp:77] Creating layer inception_4c/pool_proj
I0403 19:29:55.896973 24884 net.cpp:91] Creating Layer inception_4c/pool_proj
I0403 19:29:55.896991 24884 net.cpp:425] inception_4c/pool_proj <- inception_4c/pool
I0403 19:29:55.897011 24884 net.cpp:399] inception_4c/pool_proj -> inception_4c/pool_proj
I0403 19:29:55.898154 24884 net.cpp:141] Setting up inception_4c/pool_proj
I0403 19:29:55.898182 24884 net.cpp:148] Top shape: 24 64 14 14 (301056)
I0403 19:29:55.898211 24884 net.cpp:156] Memory required for data: 1061809440
I0403 19:29:55.898228 24884 layer_factory.hpp:77] Creating layer inception_4c/relu_pool_proj
I0403 19:29:55.898246 24884 net.cpp:91] Creating Layer inception_4c/relu_pool_proj
I0403 19:29:55.898262 24884 net.cpp:425] inception_4c/relu_pool_proj <- inception_4c/pool_proj
I0403 19:29:55.898279 24884 net.cpp:386] inception_4c/relu_pool_proj -> inception_4c/pool_proj (in-place)
I0403 19:29:55.898460 24884 net.cpp:141] Setting up inception_4c/relu_pool_proj
I0403 19:29:55.898484 24884 net.cpp:148] Top shape: 24 64 14 14 (301056)
I0403 19:29:55.898497 24884 net.cpp:156] Memory required for data: 1063013664
I0403 19:29:55.898511 24884 layer_factory.hpp:77] Creating layer inception_4c/output
I0403 19:29:55.898526 24884 net.cpp:91] Creating Layer inception_4c/output
I0403 19:29:55.898541 24884 net.cpp:425] inception_4c/output <- inception_4c/1x1
I0403 19:29:55.898556 24884 net.cpp:425] inception_4c/output <- inception_4c/3x3
I0403 19:29:55.898571 24884 net.cpp:425] inception_4c/output <- inception_4c/5x5
I0403 19:29:55.898586 24884 net.cpp:425] inception_4c/output <- inception_4c/pool_proj
I0403 19:29:55.898602 24884 net.cpp:399] inception_4c/output -> inception_4c/output
I0403 19:29:55.898645 24884 net.cpp:141] Setting up inception_4c/output
I0403 19:29:55.898670 24884 net.cpp:148] Top shape: 24 512 14 14 (2408448)
I0403 19:29:55.898684 24884 net.cpp:156] Memory required for data: 1072647456
I0403 19:29:55.898699 24884 layer_factory.hpp:77] Creating layer inception_4c/output_inception_4c/output_0_split
I0403 19:29:55.898713 24884 net.cpp:91] Creating Layer inception_4c/output_inception_4c/output_0_split
I0403 19:29:55.898727 24884 net.cpp:425] inception_4c/output_inception_4c/output_0_split <- inception_4c/output
I0403 19:29:55.898746 24884 net.cpp:399] inception_4c/output_inception_4c/output_0_split -> inception_4c/output_inception_4c/output_0_split_0
I0403 19:29:55.898766 24884 net.cpp:399] inception_4c/output_inception_4c/output_0_split -> inception_4c/output_inception_4c/output_0_split_1
I0403 19:29:55.898785 24884 net.cpp:399] inception_4c/output_inception_4c/output_0_split -> inception_4c/output_inception_4c/output_0_split_2
I0403 19:29:55.898803 24884 net.cpp:399] inception_4c/output_inception_4c/output_0_split -> inception_4c/output_inception_4c/output_0_split_3
I0403 19:29:55.898881 24884 net.cpp:141] Setting up inception_4c/output_inception_4c/output_0_split
I0403 19:29:55.898906 24884 net.cpp:148] Top shape: 24 512 14 14 (2408448)
I0403 19:29:55.898921 24884 net.cpp:148] Top shape: 24 512 14 14 (2408448)
I0403 19:29:55.898936 24884 net.cpp:148] Top shape: 24 512 14 14 (2408448)
I0403 19:29:55.898949 24884 net.cpp:148] Top shape: 24 512 14 14 (2408448)
I0403 19:29:55.898962 24884 net.cpp:156] Memory required for data: 1111182624
I0403 19:29:55.898974 24884 layer_factory.hpp:77] Creating layer inception_4d/1x1
I0403 19:29:55.898993 24884 net.cpp:91] Creating Layer inception_4d/1x1
I0403 19:29:55.899008 24884 net.cpp:425] inception_4d/1x1 <- inception_4c/output_inception_4c/output_0_split_0
I0403 19:29:55.899027 24884 net.cpp:399] inception_4d/1x1 -> inception_4d/1x1
I0403 19:29:55.900323 24884 net.cpp:141] Setting up inception_4d/1x1
I0403 19:29:55.900349 24884 net.cpp:148] Top shape: 24 112 14 14 (526848)
I0403 19:29:55.900364 24884 net.cpp:156] Memory required for data: 1113290016
I0403 19:29:55.900382 24884 layer_factory.hpp:77] Creating layer inception_4d/relu_1x1
I0403 19:29:55.900400 24884 net.cpp:91] Creating Layer inception_4d/relu_1x1
I0403 19:29:55.900416 24884 net.cpp:425] inception_4d/relu_1x1 <- inception_4d/1x1
I0403 19:29:55.900434 24884 net.cpp:386] inception_4d/relu_1x1 -> inception_4d/1x1 (in-place)
I0403 19:29:55.900606 24884 net.cpp:141] Setting up inception_4d/relu_1x1
I0403 19:29:55.900630 24884 net.cpp:148] Top shape: 24 112 14 14 (526848)
I0403 19:29:55.900645 24884 net.cpp:156] Memory required for data: 1115397408
I0403 19:29:55.900660 24884 layer_factory.hpp:77] Creating layer inception_4d/3x3_reduce
I0403 19:29:55.900693 24884 net.cpp:91] Creating Layer inception_4d/3x3_reduce
I0403 19:29:55.900712 24884 net.cpp:425] inception_4d/3x3_reduce <- inception_4c/output_inception_4c/output_0_split_1
I0403 19:29:55.900729 24884 net.cpp:399] inception_4d/3x3_reduce -> inception_4d/3x3_reduce
I0403 19:29:55.902138 24884 net.cpp:141] Setting up inception_4d/3x3_reduce
I0403 19:29:55.902164 24884 net.cpp:148] Top shape: 24 144 14 14 (677376)
I0403 19:29:55.902179 24884 net.cpp:156] Memory required for data: 1118106912
I0403 19:29:55.902196 24884 layer_factory.hpp:77] Creating layer inception_4d/relu_3x3_reduce
I0403 19:29:55.902215 24884 net.cpp:91] Creating Layer inception_4d/relu_3x3_reduce
I0403 19:29:55.902231 24884 net.cpp:425] inception_4d/relu_3x3_reduce <- inception_4d/3x3_reduce
I0403 19:29:55.902247 24884 net.cpp:386] inception_4d/relu_3x3_reduce -> inception_4d/3x3_reduce (in-place)
I0403 19:29:55.902523 24884 net.cpp:141] Setting up inception_4d/relu_3x3_reduce
I0403 19:29:55.902549 24884 net.cpp:148] Top shape: 24 144 14 14 (677376)
I0403 19:29:55.902564 24884 net.cpp:156] Memory required for data: 1120816416
I0403 19:29:55.902577 24884 layer_factory.hpp:77] Creating layer inception_4d/3x3
I0403 19:29:55.902598 24884 net.cpp:91] Creating Layer inception_4d/3x3
I0403 19:29:55.902616 24884 net.cpp:425] inception_4d/3x3 <- inception_4d/3x3_reduce
I0403 19:29:55.902634 24884 net.cpp:399] inception_4d/3x3 -> inception_4d/3x3
I0403 19:29:55.906651 24884 net.cpp:141] Setting up inception_4d/3x3
I0403 19:29:55.906678 24884 net.cpp:148] Top shape: 24 288 14 14 (1354752)
I0403 19:29:55.906693 24884 net.cpp:156] Memory required for data: 1126235424
I0403 19:29:55.906710 24884 layer_factory.hpp:77] Creating layer inception_4d/relu_3x3
I0403 19:29:55.906731 24884 net.cpp:91] Creating Layer inception_4d/relu_3x3
I0403 19:29:55.906747 24884 net.cpp:425] inception_4d/relu_3x3 <- inception_4d/3x3
I0403 19:29:55.906764 24884 net.cpp:386] inception_4d/relu_3x3 -> inception_4d/3x3 (in-place)
I0403 19:29:55.906937 24884 net.cpp:141] Setting up inception_4d/relu_3x3
I0403 19:29:55.906960 24884 net.cpp:148] Top shape: 24 288 14 14 (1354752)
I0403 19:29:55.906975 24884 net.cpp:156] Memory required for data: 1131654432
I0403 19:29:55.906988 24884 layer_factory.hpp:77] Creating layer inception_4d/5x5_reduce
I0403 19:29:55.907008 24884 net.cpp:91] Creating Layer inception_4d/5x5_reduce
I0403 19:29:55.907024 24884 net.cpp:425] inception_4d/5x5_reduce <- inception_4c/output_inception_4c/output_0_split_2
I0403 19:29:55.907044 24884 net.cpp:399] inception_4d/5x5_reduce -> inception_4d/5x5_reduce
I0403 19:29:55.908126 24884 net.cpp:141] Setting up inception_4d/5x5_reduce
I0403 19:29:55.908155 24884 net.cpp:148] Top shape: 24 32 14 14 (150528)
I0403 19:29:55.908170 24884 net.cpp:156] Memory required for data: 1132256544
I0403 19:29:55.908188 24884 layer_factory.hpp:77] Creating layer inception_4d/relu_5x5_reduce
I0403 19:29:55.908205 24884 net.cpp:91] Creating Layer inception_4d/relu_5x5_reduce
I0403 19:29:55.908221 24884 net.cpp:425] inception_4d/relu_5x5_reduce <- inception_4d/5x5_reduce
I0403 19:29:55.908236 24884 net.cpp:386] inception_4d/relu_5x5_reduce -> inception_4d/5x5_reduce (in-place)
I0403 19:29:55.908418 24884 net.cpp:141] Setting up inception_4d/relu_5x5_reduce
I0403 19:29:55.908444 24884 net.cpp:148] Top shape: 24 32 14 14 (150528)
I0403 19:29:55.908458 24884 net.cpp:156] Memory required for data: 1132858656
I0403 19:29:55.908473 24884 layer_factory.hpp:77] Creating layer inception_4d/5x5
I0403 19:29:55.908493 24884 net.cpp:91] Creating Layer inception_4d/5x5
I0403 19:29:55.908510 24884 net.cpp:425] inception_4d/5x5 <- inception_4d/5x5_reduce
I0403 19:29:55.908527 24884 net.cpp:399] inception_4d/5x5 -> inception_4d/5x5
I0403 19:29:55.909909 24884 net.cpp:141] Setting up inception_4d/5x5
I0403 19:29:55.909935 24884 net.cpp:148] Top shape: 24 64 14 14 (301056)
I0403 19:29:55.909950 24884 net.cpp:156] Memory required for data: 1134062880
I0403 19:29:55.909968 24884 layer_factory.hpp:77] Creating layer inception_4d/relu_5x5
I0403 19:29:55.910017 24884 net.cpp:91] Creating Layer inception_4d/relu_5x5
I0403 19:29:55.910034 24884 net.cpp:425] inception_4d/relu_5x5 <- inception_4d/5x5
I0403 19:29:55.910054 24884 net.cpp:386] inception_4d/relu_5x5 -> inception_4d/5x5 (in-place)
I0403 19:29:55.910380 24884 net.cpp:141] Setting up inception_4d/relu_5x5
I0403 19:29:55.910406 24884 net.cpp:148] Top shape: 24 64 14 14 (301056)
I0403 19:29:55.910420 24884 net.cpp:156] Memory required for data: 1135267104
I0403 19:29:55.910434 24884 layer_factory.hpp:77] Creating layer inception_4d/pool
I0403 19:29:55.910464 24884 net.cpp:91] Creating Layer inception_4d/pool
I0403 19:29:55.910478 24884 net.cpp:425] inception_4d/pool <- inception_4c/output_inception_4c/output_0_split_3
I0403 19:29:55.910497 24884 net.cpp:399] inception_4d/pool -> inception_4d/pool
I0403 19:29:55.910559 24884 net.cpp:141] Setting up inception_4d/pool
I0403 19:29:55.910584 24884 net.cpp:148] Top shape: 24 512 14 14 (2408448)
I0403 19:29:55.910598 24884 net.cpp:156] Memory required for data: 1144900896
I0403 19:29:55.910612 24884 layer_factory.hpp:77] Creating layer inception_4d/pool_proj
I0403 19:29:55.910632 24884 net.cpp:91] Creating Layer inception_4d/pool_proj
I0403 19:29:55.910648 24884 net.cpp:425] inception_4d/pool_proj <- inception_4d/pool
I0403 19:29:55.910665 24884 net.cpp:399] inception_4d/pool_proj -> inception_4d/pool_proj
I0403 19:29:55.912330 24884 net.cpp:141] Setting up inception_4d/pool_proj
I0403 19:29:55.912359 24884 net.cpp:148] Top shape: 24 64 14 14 (301056)
I0403 19:29:55.912387 24884 net.cpp:156] Memory required for data: 1146105120
I0403 19:29:55.912403 24884 layer_factory.hpp:77] Creating layer inception_4d/relu_pool_proj
I0403 19:29:55.912423 24884 net.cpp:91] Creating Layer inception_4d/relu_pool_proj
I0403 19:29:55.912439 24884 net.cpp:425] inception_4d/relu_pool_proj <- inception_4d/pool_proj
I0403 19:29:55.912456 24884 net.cpp:386] inception_4d/relu_pool_proj -> inception_4d/pool_proj (in-place)
I0403 19:29:55.912629 24884 net.cpp:141] Setting up inception_4d/relu_pool_proj
I0403 19:29:55.912653 24884 net.cpp:148] Top shape: 24 64 14 14 (301056)
I0403 19:29:55.912679 24884 net.cpp:156] Memory required for data: 1147309344
I0403 19:29:55.912693 24884 layer_factory.hpp:77] Creating layer inception_4d/output
I0403 19:29:55.912710 24884 net.cpp:91] Creating Layer inception_4d/output
I0403 19:29:55.912724 24884 net.cpp:425] inception_4d/output <- inception_4d/1x1
I0403 19:29:55.912739 24884 net.cpp:425] inception_4d/output <- inception_4d/3x3
I0403 19:29:55.912755 24884 net.cpp:425] inception_4d/output <- inception_4d/5x5
I0403 19:29:55.912770 24884 net.cpp:425] inception_4d/output <- inception_4d/pool_proj
I0403 19:29:55.912791 24884 net.cpp:399] inception_4d/output -> inception_4d/output
I0403 19:29:55.912835 24884 net.cpp:141] Setting up inception_4d/output
I0403 19:29:55.912860 24884 net.cpp:148] Top shape: 24 528 14 14 (2483712)
I0403 19:29:55.912875 24884 net.cpp:156] Memory required for data: 1157244192
I0403 19:29:55.912889 24884 layer_factory.hpp:77] Creating layer inception_4d/output_inception_4d/output_0_split
I0403 19:29:55.912905 24884 net.cpp:91] Creating Layer inception_4d/output_inception_4d/output_0_split
I0403 19:29:55.912921 24884 net.cpp:425] inception_4d/output_inception_4d/output_0_split <- inception_4d/output
I0403 19:29:55.912938 24884 net.cpp:399] inception_4d/output_inception_4d/output_0_split -> inception_4d/output_inception_4d/output_0_split_0
I0403 19:29:55.912969 24884 net.cpp:399] inception_4d/output_inception_4d/output_0_split -> inception_4d/output_inception_4d/output_0_split_1
I0403 19:29:55.912991 24884 net.cpp:399] inception_4d/output_inception_4d/output_0_split -> inception_4d/output_inception_4d/output_0_split_2
I0403 19:29:55.913012 24884 net.cpp:399] inception_4d/output_inception_4d/output_0_split -> inception_4d/output_inception_4d/output_0_split_3
I0403 19:29:55.913030 24884 net.cpp:399] inception_4d/output_inception_4d/output_0_split -> inception_4d/output_inception_4d/output_0_split_4
I0403 19:29:55.913125 24884 net.cpp:141] Setting up inception_4d/output_inception_4d/output_0_split
I0403 19:29:55.913172 24884 net.cpp:148] Top shape: 24 528 14 14 (2483712)
I0403 19:29:55.913188 24884 net.cpp:148] Top shape: 24 528 14 14 (2483712)
I0403 19:29:55.913214 24884 net.cpp:148] Top shape: 24 528 14 14 (2483712)
I0403 19:29:55.913229 24884 net.cpp:148] Top shape: 24 528 14 14 (2483712)
I0403 19:29:55.913244 24884 net.cpp:148] Top shape: 24 528 14 14 (2483712)
I0403 19:29:55.913257 24884 net.cpp:156] Memory required for data: 1206918432
I0403 19:29:55.913272 24884 layer_factory.hpp:77] Creating layer loss2/ave_pool
I0403 19:29:55.913296 24884 net.cpp:91] Creating Layer loss2/ave_pool
I0403 19:29:55.913316 24884 net.cpp:425] loss2/ave_pool <- inception_4d/output_inception_4d/output_0_split_0
I0403 19:29:55.913333 24884 net.cpp:399] loss2/ave_pool -> loss2/ave_pool
I0403 19:29:55.913642 24884 net.cpp:141] Setting up loss2/ave_pool
I0403 19:29:55.913668 24884 net.cpp:148] Top shape: 24 528 4 4 (202752)
I0403 19:29:55.913682 24884 net.cpp:156] Memory required for data: 1207729440
I0403 19:29:55.913697 24884 layer_factory.hpp:77] Creating layer loss2/conv
I0403 19:29:55.913719 24884 net.cpp:91] Creating Layer loss2/conv
I0403 19:29:55.913736 24884 net.cpp:425] loss2/conv <- loss2/ave_pool
I0403 19:29:55.913754 24884 net.cpp:399] loss2/conv -> loss2/conv
I0403 19:29:55.915571 24884 net.cpp:141] Setting up loss2/conv
I0403 19:29:55.915601 24884 net.cpp:148] Top shape: 24 128 4 4 (49152)
I0403 19:29:55.915616 24884 net.cpp:156] Memory required for data: 1207926048
I0403 19:29:55.915633 24884 layer_factory.hpp:77] Creating layer loss2/relu_conv
I0403 19:29:55.915650 24884 net.cpp:91] Creating Layer loss2/relu_conv
I0403 19:29:55.915666 24884 net.cpp:425] loss2/relu_conv <- loss2/conv
I0403 19:29:55.915684 24884 net.cpp:386] loss2/relu_conv -> loss2/conv (in-place)
I0403 19:29:55.915956 24884 net.cpp:141] Setting up loss2/relu_conv
I0403 19:29:55.915982 24884 net.cpp:148] Top shape: 24 128 4 4 (49152)
I0403 19:29:55.915997 24884 net.cpp:156] Memory required for data: 1208122656
I0403 19:29:55.916010 24884 layer_factory.hpp:77] Creating layer loss2/fc
I0403 19:29:55.916028 24884 net.cpp:91] Creating Layer loss2/fc
I0403 19:29:55.916043 24884 net.cpp:425] loss2/fc <- loss2/conv
I0403 19:29:55.916064 24884 net.cpp:399] loss2/fc -> loss2/fc
I0403 19:29:55.933025 24884 net.cpp:141] Setting up loss2/fc
I0403 19:29:55.933060 24884 net.cpp:148] Top shape: 24 1024 (24576)
I0403 19:29:55.933075 24884 net.cpp:156] Memory required for data: 1208220960
I0403 19:29:55.933094 24884 layer_factory.hpp:77] Creating layer loss2/relu_fc
I0403 19:29:55.933111 24884 net.cpp:91] Creating Layer loss2/relu_fc
I0403 19:29:55.933127 24884 net.cpp:425] loss2/relu_fc <- loss2/fc
I0403 19:29:55.933145 24884 net.cpp:386] loss2/relu_fc -> loss2/fc (in-place)
I0403 19:29:55.933444 24884 net.cpp:141] Setting up loss2/relu_fc
I0403 19:29:55.933471 24884 net.cpp:148] Top shape: 24 1024 (24576)
I0403 19:29:55.933486 24884 net.cpp:156] Memory required for data: 1208319264
I0403 19:29:55.933501 24884 layer_factory.hpp:77] Creating layer loss2/drop_fc
I0403 19:29:55.933517 24884 net.cpp:91] Creating Layer loss2/drop_fc
I0403 19:29:55.933532 24884 net.cpp:425] loss2/drop_fc <- loss2/fc
I0403 19:29:55.933549 24884 net.cpp:386] loss2/drop_fc -> loss2/fc (in-place)
I0403 19:29:55.933598 24884 net.cpp:141] Setting up loss2/drop_fc
I0403 19:29:55.933619 24884 net.cpp:148] Top shape: 24 1024 (24576)
I0403 19:29:55.933634 24884 net.cpp:156] Memory required for data: 1208417568
I0403 19:29:55.933647 24884 layer_factory.hpp:77] Creating layer loss2/classifier_plantvillage
I0403 19:29:55.933667 24884 net.cpp:91] Creating Layer loss2/classifier_plantvillage
I0403 19:29:55.933683 24884 net.cpp:425] loss2/classifier_plantvillage <- loss2/fc
I0403 19:29:55.933701 24884 net.cpp:399] loss2/classifier_plantvillage -> loss2/classifier_plantvillage
I0403 19:29:55.934078 24884 net.cpp:141] Setting up loss2/classifier_plantvillage
I0403 19:29:55.934103 24884 net.cpp:148] Top shape: 24 38 (912)
I0403 19:29:55.934133 24884 net.cpp:156] Memory required for data: 1208421216
I0403 19:29:55.934150 24884 layer_factory.hpp:77] Creating layer loss2/classifier_plantvillage_loss2/classifier_plantvillage_0_split
I0403 19:29:55.934168 24884 net.cpp:91] Creating Layer loss2/classifier_plantvillage_loss2/classifier_plantvillage_0_split
I0403 19:29:55.934185 24884 net.cpp:425] loss2/classifier_plantvillage_loss2/classifier_plantvillage_0_split <- loss2/classifier_plantvillage
I0403 19:29:55.934204 24884 net.cpp:399] loss2/classifier_plantvillage_loss2/classifier_plantvillage_0_split -> loss2/classifier_plantvillage_loss2/classifier_plantvillage_0_split_0
I0403 19:29:55.934224 24884 net.cpp:399] loss2/classifier_plantvillage_loss2/classifier_plantvillage_0_split -> loss2/classifier_plantvillage_loss2/classifier_plantvillage_0_split_1
I0403 19:29:55.934244 24884 net.cpp:399] loss2/classifier_plantvillage_loss2/classifier_plantvillage_0_split -> loss2/classifier_plantvillage_loss2/classifier_plantvillage_0_split_2
I0403 19:29:55.934331 24884 net.cpp:141] Setting up loss2/classifier_plantvillage_loss2/classifier_plantvillage_0_split
I0403 19:29:55.934355 24884 net.cpp:148] Top shape: 24 38 (912)
I0403 19:29:55.934371 24884 net.cpp:148] Top shape: 24 38 (912)
I0403 19:29:55.934386 24884 net.cpp:148] Top shape: 24 38 (912)
I0403 19:29:55.934398 24884 net.cpp:156] Memory required for data: 1208432160
I0403 19:29:55.934412 24884 layer_factory.hpp:77] Creating layer inception_4e/1x1
I0403 19:29:55.934432 24884 net.cpp:91] Creating Layer inception_4e/1x1
I0403 19:29:55.934449 24884 net.cpp:425] inception_4e/1x1 <- inception_4d/output_inception_4d/output_0_split_1
I0403 19:29:55.934468 24884 net.cpp:399] inception_4e/1x1 -> inception_4e/1x1
I0403 19:29:55.936183 24884 net.cpp:141] Setting up inception_4e/1x1
I0403 19:29:55.936210 24884 net.cpp:148] Top shape: 24 256 14 14 (1204224)
I0403 19:29:55.936225 24884 net.cpp:156] Memory required for data: 1213249056
I0403 19:29:55.936242 24884 layer_factory.hpp:77] Creating layer inception_4e/relu_1x1
I0403 19:29:55.936264 24884 net.cpp:91] Creating Layer inception_4e/relu_1x1
I0403 19:29:55.936278 24884 net.cpp:425] inception_4e/relu_1x1 <- inception_4e/1x1
I0403 19:29:55.936302 24884 net.cpp:386] inception_4e/relu_1x1 -> inception_4e/1x1 (in-place)
I0403 19:29:55.936590 24884 net.cpp:141] Setting up inception_4e/relu_1x1
I0403 19:29:55.936616 24884 net.cpp:148] Top shape: 24 256 14 14 (1204224)
I0403 19:29:55.936630 24884 net.cpp:156] Memory required for data: 1218065952
I0403 19:29:55.936645 24884 layer_factory.hpp:77] Creating layer inception_4e/3x3_reduce
I0403 19:29:55.936666 24884 net.cpp:91] Creating Layer inception_4e/3x3_reduce
I0403 19:29:55.936682 24884 net.cpp:425] inception_4e/3x3_reduce <- inception_4d/output_inception_4d/output_0_split_2
I0403 19:29:55.936702 24884 net.cpp:399] inception_4e/3x3_reduce -> inception_4e/3x3_reduce
I0403 19:29:55.938742 24884 net.cpp:141] Setting up inception_4e/3x3_reduce
I0403 19:29:55.938773 24884 net.cpp:148] Top shape: 24 160 14 14 (752640)
I0403 19:29:55.938788 24884 net.cpp:156] Memory required for data: 1221076512
I0403 19:29:55.938807 24884 layer_factory.hpp:77] Creating layer inception_4e/relu_3x3_reduce
I0403 19:29:55.938823 24884 net.cpp:91] Creating Layer inception_4e/relu_3x3_reduce
I0403 19:29:55.938838 24884 net.cpp:425] inception_4e/relu_3x3_reduce <- inception_4e/3x3_reduce
I0403 19:29:55.938856 24884 net.cpp:386] inception_4e/relu_3x3_reduce -> inception_4e/3x3_reduce (in-place)
I0403 19:29:55.939033 24884 net.cpp:141] Setting up inception_4e/relu_3x3_reduce
I0403 19:29:55.939056 24884 net.cpp:148] Top shape: 24 160 14 14 (752640)
I0403 19:29:55.939072 24884 net.cpp:156] Memory required for data: 1224087072
I0403 19:29:55.939086 24884 layer_factory.hpp:77] Creating layer inception_4e/3x3
I0403 19:29:55.939108 24884 net.cpp:91] Creating Layer inception_4e/3x3
I0403 19:29:55.939126 24884 net.cpp:425] inception_4e/3x3 <- inception_4e/3x3_reduce
I0403 19:29:55.939146 24884 net.cpp:399] inception_4e/3x3 -> inception_4e/3x3
I0403 19:29:55.943919 24884 net.cpp:141] Setting up inception_4e/3x3
I0403 19:29:55.943959 24884 net.cpp:148] Top shape: 24 320 14 14 (1505280)
I0403 19:29:55.943977 24884 net.cpp:156] Memory required for data: 1230108192
I0403 19:29:55.943995 24884 layer_factory.hpp:77] Creating layer inception_4e/relu_3x3
I0403 19:29:55.944015 24884 net.cpp:91] Creating Layer inception_4e/relu_3x3
I0403 19:29:55.944032 24884 net.cpp:425] inception_4e/relu_3x3 <- inception_4e/3x3
I0403 19:29:55.944049 24884 net.cpp:386] inception_4e/relu_3x3 -> inception_4e/3x3 (in-place)
I0403 19:29:55.944347 24884 net.cpp:141] Setting up inception_4e/relu_3x3
I0403 19:29:55.944375 24884 net.cpp:148] Top shape: 24 320 14 14 (1505280)
I0403 19:29:55.944393 24884 net.cpp:156] Memory required for data: 1236129312
I0403 19:29:55.944408 24884 layer_factory.hpp:77] Creating layer inception_4e/5x5_reduce
I0403 19:29:55.944428 24884 net.cpp:91] Creating Layer inception_4e/5x5_reduce
I0403 19:29:55.944444 24884 net.cpp:425] inception_4e/5x5_reduce <- inception_4d/output_inception_4d/output_0_split_3
I0403 19:29:55.944466 24884 net.cpp:399] inception_4e/5x5_reduce -> inception_4e/5x5_reduce
I0403 19:29:55.945475 24884 net.cpp:141] Setting up inception_4e/5x5_reduce
I0403 19:29:55.945502 24884 net.cpp:148] Top shape: 24 32 14 14 (150528)
I0403 19:29:55.945516 24884 net.cpp:156] Memory required for data: 1236731424
I0403 19:29:55.945533 24884 layer_factory.hpp:77] Creating layer inception_4e/relu_5x5_reduce
I0403 19:29:55.945549 24884 net.cpp:91] Creating Layer inception_4e/relu_5x5_reduce
I0403 19:29:55.945564 24884 net.cpp:425] inception_4e/relu_5x5_reduce <- inception_4e/5x5_reduce
I0403 19:29:55.945583 24884 net.cpp:386] inception_4e/relu_5x5_reduce -> inception_4e/5x5_reduce (in-place)
I0403 19:29:55.945864 24884 net.cpp:141] Setting up inception_4e/relu_5x5_reduce
I0403 19:29:55.945889 24884 net.cpp:148] Top shape: 24 32 14 14 (150528)
I0403 19:29:55.945904 24884 net.cpp:156] Memory required for data: 1237333536
I0403 19:29:55.945916 24884 layer_factory.hpp:77] Creating layer inception_4e/5x5
I0403 19:29:55.945955 24884 net.cpp:91] Creating Layer inception_4e/5x5
I0403 19:29:55.945972 24884 net.cpp:425] inception_4e/5x5 <- inception_4e/5x5_reduce
I0403 19:29:55.945991 24884 net.cpp:399] inception_4e/5x5 -> inception_4e/5x5
I0403 19:29:55.947710 24884 net.cpp:141] Setting up inception_4e/5x5
I0403 19:29:55.947738 24884 net.cpp:148] Top shape: 24 128 14 14 (602112)
I0403 19:29:55.947753 24884 net.cpp:156] Memory required for data: 1239741984
I0403 19:29:55.947772 24884 layer_factory.hpp:77] Creating layer inception_4e/relu_5x5
I0403 19:29:55.947788 24884 net.cpp:91] Creating Layer inception_4e/relu_5x5
I0403 19:29:55.947803 24884 net.cpp:425] inception_4e/relu_5x5 <- inception_4e/5x5
I0403 19:29:55.947823 24884 net.cpp:386] inception_4e/relu_5x5 -> inception_4e/5x5 (in-place)
I0403 19:29:55.948009 24884 net.cpp:141] Setting up inception_4e/relu_5x5
I0403 19:29:55.948032 24884 net.cpp:148] Top shape: 24 128 14 14 (602112)
I0403 19:29:55.948046 24884 net.cpp:156] Memory required for data: 1242150432
I0403 19:29:55.948060 24884 layer_factory.hpp:77] Creating layer inception_4e/pool
I0403 19:29:55.948076 24884 net.cpp:91] Creating Layer inception_4e/pool
I0403 19:29:55.948091 24884 net.cpp:425] inception_4e/pool <- inception_4d/output_inception_4d/output_0_split_4
I0403 19:29:55.948109 24884 net.cpp:399] inception_4e/pool -> inception_4e/pool
I0403 19:29:55.948175 24884 net.cpp:141] Setting up inception_4e/pool
I0403 19:29:55.948199 24884 net.cpp:148] Top shape: 24 528 14 14 (2483712)
I0403 19:29:55.948211 24884 net.cpp:156] Memory required for data: 1252085280
I0403 19:29:55.948225 24884 layer_factory.hpp:77] Creating layer inception_4e/pool_proj
I0403 19:29:55.948246 24884 net.cpp:91] Creating Layer inception_4e/pool_proj
I0403 19:29:55.948263 24884 net.cpp:425] inception_4e/pool_proj <- inception_4e/pool
I0403 19:29:55.948281 24884 net.cpp:399] inception_4e/pool_proj -> inception_4e/pool_proj
I0403 19:29:55.949688 24884 net.cpp:141] Setting up inception_4e/pool_proj
I0403 19:29:55.949725 24884 net.cpp:148] Top shape: 24 128 14 14 (602112)
I0403 19:29:55.949740 24884 net.cpp:156] Memory required for data: 1254493728
I0403 19:29:55.949758 24884 layer_factory.hpp:77] Creating layer inception_4e/relu_pool_proj
I0403 19:29:55.949776 24884 net.cpp:91] Creating Layer inception_4e/relu_pool_proj
I0403 19:29:55.949793 24884 net.cpp:425] inception_4e/relu_pool_proj <- inception_4e/pool_proj
I0403 19:29:55.949810 24884 net.cpp:386] inception_4e/relu_pool_proj -> inception_4e/pool_proj (in-place)
I0403 19:29:55.950083 24884 net.cpp:141] Setting up inception_4e/relu_pool_proj
I0403 19:29:55.950109 24884 net.cpp:148] Top shape: 24 128 14 14 (602112)
I0403 19:29:55.950121 24884 net.cpp:156] Memory required for data: 1256902176
I0403 19:29:55.950135 24884 layer_factory.hpp:77] Creating layer inception_4e/output
I0403 19:29:55.950155 24884 net.cpp:91] Creating Layer inception_4e/output
I0403 19:29:55.950168 24884 net.cpp:425] inception_4e/output <- inception_4e/1x1
I0403 19:29:55.950184 24884 net.cpp:425] inception_4e/output <- inception_4e/3x3
I0403 19:29:55.950198 24884 net.cpp:425] inception_4e/output <- inception_4e/5x5
I0403 19:29:55.950213 24884 net.cpp:425] inception_4e/output <- inception_4e/pool_proj
I0403 19:29:55.950229 24884 net.cpp:399] inception_4e/output -> inception_4e/output
I0403 19:29:55.950276 24884 net.cpp:141] Setting up inception_4e/output
I0403 19:29:55.950304 24884 net.cpp:148] Top shape: 24 832 14 14 (3913728)
I0403 19:29:55.950319 24884 net.cpp:156] Memory required for data: 1272557088
I0403 19:29:55.950331 24884 layer_factory.hpp:77] Creating layer pool4/3x3_s2
I0403 19:29:55.950347 24884 net.cpp:91] Creating Layer pool4/3x3_s2
I0403 19:29:55.950363 24884 net.cpp:425] pool4/3x3_s2 <- inception_4e/output
I0403 19:29:55.950382 24884 net.cpp:399] pool4/3x3_s2 -> pool4/3x3_s2
I0403 19:29:55.950446 24884 net.cpp:141] Setting up pool4/3x3_s2
I0403 19:29:55.950469 24884 net.cpp:148] Top shape: 24 832 7 7 (978432)
I0403 19:29:55.950482 24884 net.cpp:156] Memory required for data: 1276470816
I0403 19:29:55.950495 24884 layer_factory.hpp:77] Creating layer pool4/3x3_s2_pool4/3x3_s2_0_split
I0403 19:29:55.950511 24884 net.cpp:91] Creating Layer pool4/3x3_s2_pool4/3x3_s2_0_split
I0403 19:29:55.950526 24884 net.cpp:425] pool4/3x3_s2_pool4/3x3_s2_0_split <- pool4/3x3_s2
I0403 19:29:55.950544 24884 net.cpp:399] pool4/3x3_s2_pool4/3x3_s2_0_split -> pool4/3x3_s2_pool4/3x3_s2_0_split_0
I0403 19:29:55.950563 24884 net.cpp:399] pool4/3x3_s2_pool4/3x3_s2_0_split -> pool4/3x3_s2_pool4/3x3_s2_0_split_1
I0403 19:29:55.950582 24884 net.cpp:399] pool4/3x3_s2_pool4/3x3_s2_0_split -> pool4/3x3_s2_pool4/3x3_s2_0_split_2
I0403 19:29:55.950601 24884 net.cpp:399] pool4/3x3_s2_pool4/3x3_s2_0_split -> pool4/3x3_s2_pool4/3x3_s2_0_split_3
I0403 19:29:55.950683 24884 net.cpp:141] Setting up pool4/3x3_s2_pool4/3x3_s2_0_split
I0403 19:29:55.950708 24884 net.cpp:148] Top shape: 24 832 7 7 (978432)
I0403 19:29:55.950724 24884 net.cpp:148] Top shape: 24 832 7 7 (978432)
I0403 19:29:55.950738 24884 net.cpp:148] Top shape: 24 832 7 7 (978432)
I0403 19:29:55.950752 24884 net.cpp:148] Top shape: 24 832 7 7 (978432)
I0403 19:29:55.950764 24884 net.cpp:156] Memory required for data: 1292125728
I0403 19:29:55.950778 24884 layer_factory.hpp:77] Creating layer inception_5a/1x1
I0403 19:29:55.950799 24884 net.cpp:91] Creating Layer inception_5a/1x1
I0403 19:29:55.950816 24884 net.cpp:425] inception_5a/1x1 <- pool4/3x3_s2_pool4/3x3_s2_0_split_0
I0403 19:29:55.950834 24884 net.cpp:399] inception_5a/1x1 -> inception_5a/1x1
I0403 19:29:55.953529 24884 net.cpp:141] Setting up inception_5a/1x1
I0403 19:29:55.953557 24884 net.cpp:148] Top shape: 24 256 7 7 (301056)
I0403 19:29:55.953572 24884 net.cpp:156] Memory required for data: 1293329952
I0403 19:29:55.953589 24884 layer_factory.hpp:77] Creating layer inception_5a/relu_1x1
I0403 19:29:55.953606 24884 net.cpp:91] Creating Layer inception_5a/relu_1x1
I0403 19:29:55.953621 24884 net.cpp:425] inception_5a/relu_1x1 <- inception_5a/1x1
I0403 19:29:55.953639 24884 net.cpp:386] inception_5a/relu_1x1 -> inception_5a/1x1 (in-place)
I0403 19:29:55.953938 24884 net.cpp:141] Setting up inception_5a/relu_1x1
I0403 19:29:55.953963 24884 net.cpp:148] Top shape: 24 256 7 7 (301056)
I0403 19:29:55.953976 24884 net.cpp:156] Memory required for data: 1294534176
I0403 19:29:55.953991 24884 layer_factory.hpp:77] Creating layer inception_5a/3x3_reduce
I0403 19:29:55.954011 24884 net.cpp:91] Creating Layer inception_5a/3x3_reduce
I0403 19:29:55.954028 24884 net.cpp:425] inception_5a/3x3_reduce <- pool4/3x3_s2_pool4/3x3_s2_0_split_1
I0403 19:29:55.954048 24884 net.cpp:399] inception_5a/3x3_reduce -> inception_5a/3x3_reduce
I0403 19:29:55.956369 24884 net.cpp:141] Setting up inception_5a/3x3_reduce
I0403 19:29:55.956398 24884 net.cpp:148] Top shape: 24 160 7 7 (188160)
I0403 19:29:55.956413 24884 net.cpp:156] Memory required for data: 1295286816
I0403 19:29:55.956429 24884 layer_factory.hpp:77] Creating layer inception_5a/relu_3x3_reduce
I0403 19:29:55.956449 24884 net.cpp:91] Creating Layer inception_5a/relu_3x3_reduce
I0403 19:29:55.956465 24884 net.cpp:425] inception_5a/relu_3x3_reduce <- inception_5a/3x3_reduce
I0403 19:29:55.956481 24884 net.cpp:386] inception_5a/relu_3x3_reduce -> inception_5a/3x3_reduce (in-place)
I0403 19:29:55.956660 24884 net.cpp:141] Setting up inception_5a/relu_3x3_reduce
I0403 19:29:55.956686 24884 net.cpp:148] Top shape: 24 160 7 7 (188160)
I0403 19:29:55.956701 24884 net.cpp:156] Memory required for data: 1296039456
I0403 19:29:55.956714 24884 layer_factory.hpp:77] Creating layer inception_5a/3x3
I0403 19:29:55.956737 24884 net.cpp:91] Creating Layer inception_5a/3x3
I0403 19:29:55.956753 24884 net.cpp:425] inception_5a/3x3 <- inception_5a/3x3_reduce
I0403 19:29:55.956770 24884 net.cpp:399] inception_5a/3x3 -> inception_5a/3x3
I0403 19:29:55.961524 24884 net.cpp:141] Setting up inception_5a/3x3
I0403 19:29:55.961556 24884 net.cpp:148] Top shape: 24 320 7 7 (376320)
I0403 19:29:55.961572 24884 net.cpp:156] Memory required for data: 1297544736
I0403 19:29:55.961590 24884 layer_factory.hpp:77] Creating layer inception_5a/relu_3x3
I0403 19:29:55.961606 24884 net.cpp:91] Creating Layer inception_5a/relu_3x3
I0403 19:29:55.961621 24884 net.cpp:425] inception_5a/relu_3x3 <- inception_5a/3x3
I0403 19:29:55.961639 24884 net.cpp:386] inception_5a/relu_3x3 -> inception_5a/3x3 (in-place)
I0403 19:29:55.961917 24884 net.cpp:141] Setting up inception_5a/relu_3x3
I0403 19:29:55.961944 24884 net.cpp:148] Top shape: 24 320 7 7 (376320)
I0403 19:29:55.961961 24884 net.cpp:156] Memory required for data: 1299050016
I0403 19:29:55.961973 24884 layer_factory.hpp:77] Creating layer inception_5a/5x5_reduce
I0403 19:29:55.961995 24884 net.cpp:91] Creating Layer inception_5a/5x5_reduce
I0403 19:29:55.962012 24884 net.cpp:425] inception_5a/5x5_reduce <- pool4/3x3_s2_pool4/3x3_s2_0_split_2
I0403 19:29:55.962029 24884 net.cpp:399] inception_5a/5x5_reduce -> inception_5a/5x5_reduce
I0403 19:29:55.963155 24884 net.cpp:141] Setting up inception_5a/5x5_reduce
I0403 19:29:55.963187 24884 net.cpp:148] Top shape: 24 32 7 7 (37632)
I0403 19:29:55.963204 24884 net.cpp:156] Memory required for data: 1299200544
I0403 19:29:55.963222 24884 layer_factory.hpp:77] Creating layer inception_5a/relu_5x5_reduce
I0403 19:29:55.963240 24884 net.cpp:91] Creating Layer inception_5a/relu_5x5_reduce
I0403 19:29:55.963256 24884 net.cpp:425] inception_5a/relu_5x5_reduce <- inception_5a/5x5_reduce
I0403 19:29:55.963276 24884 net.cpp:386] inception_5a/relu_5x5_reduce -> inception_5a/5x5_reduce (in-place)
I0403 19:29:55.963584 24884 net.cpp:141] Setting up inception_5a/relu_5x5_reduce
I0403 19:29:55.963609 24884 net.cpp:148] Top shape: 24 32 7 7 (37632)
I0403 19:29:55.963624 24884 net.cpp:156] Memory required for data: 1299351072
I0403 19:29:55.963639 24884 layer_factory.hpp:77] Creating layer inception_5a/5x5
I0403 19:29:55.963660 24884 net.cpp:91] Creating Layer inception_5a/5x5
I0403 19:29:55.963677 24884 net.cpp:425] inception_5a/5x5 <- inception_5a/5x5_reduce
I0403 19:29:55.963697 24884 net.cpp:399] inception_5a/5x5 -> inception_5a/5x5
I0403 19:29:55.965337 24884 net.cpp:141] Setting up inception_5a/5x5
I0403 19:29:55.965378 24884 net.cpp:148] Top shape: 24 128 7 7 (150528)
I0403 19:29:55.965394 24884 net.cpp:156] Memory required for data: 1299953184
I0403 19:29:55.965412 24884 layer_factory.hpp:77] Creating layer inception_5a/relu_5x5
I0403 19:29:55.965428 24884 net.cpp:91] Creating Layer inception_5a/relu_5x5
I0403 19:29:55.965445 24884 net.cpp:425] inception_5a/relu_5x5 <- inception_5a/5x5
I0403 19:29:55.965462 24884 net.cpp:386] inception_5a/relu_5x5 -> inception_5a/5x5 (in-place)
I0403 19:29:55.965646 24884 net.cpp:141] Setting up inception_5a/relu_5x5
I0403 19:29:55.965670 24884 net.cpp:148] Top shape: 24 128 7 7 (150528)
I0403 19:29:55.965684 24884 net.cpp:156] Memory required for data: 1300555296
I0403 19:29:55.965698 24884 layer_factory.hpp:77] Creating layer inception_5a/pool
I0403 19:29:55.965715 24884 net.cpp:91] Creating Layer inception_5a/pool
I0403 19:29:55.965729 24884 net.cpp:425] inception_5a/pool <- pool4/3x3_s2_pool4/3x3_s2_0_split_3
I0403 19:29:55.965749 24884 net.cpp:399] inception_5a/pool -> inception_5a/pool
I0403 19:29:55.965818 24884 net.cpp:141] Setting up inception_5a/pool
I0403 19:29:55.965842 24884 net.cpp:148] Top shape: 24 832 7 7 (978432)
I0403 19:29:55.965855 24884 net.cpp:156] Memory required for data: 1304469024
I0403 19:29:55.965869 24884 layer_factory.hpp:77] Creating layer inception_5a/pool_proj
I0403 19:29:55.965893 24884 net.cpp:91] Creating Layer inception_5a/pool_proj
I0403 19:29:55.965909 24884 net.cpp:425] inception_5a/pool_proj <- inception_5a/pool
I0403 19:29:55.965925 24884 net.cpp:399] inception_5a/pool_proj -> inception_5a/pool_proj
I0403 19:29:55.968132 24884 net.cpp:141] Setting up inception_5a/pool_proj
I0403 19:29:55.968163 24884 net.cpp:148] Top shape: 24 128 7 7 (150528)
I0403 19:29:55.968179 24884 net.cpp:156] Memory required for data: 1305071136
I0403 19:29:55.968197 24884 layer_factory.hpp:77] Creating layer inception_5a/relu_pool_proj
I0403 19:29:55.968214 24884 net.cpp:91] Creating Layer inception_5a/relu_pool_proj
I0403 19:29:55.968230 24884 net.cpp:425] inception_5a/relu_pool_proj <- inception_5a/pool_proj
I0403 19:29:55.968245 24884 net.cpp:386] inception_5a/relu_pool_proj -> inception_5a/pool_proj (in-place)
I0403 19:29:55.968531 24884 net.cpp:141] Setting up inception_5a/relu_pool_proj
I0403 19:29:55.968559 24884 net.cpp:148] Top shape: 24 128 7 7 (150528)
I0403 19:29:55.968575 24884 net.cpp:156] Memory required for data: 1305673248
I0403 19:29:55.968588 24884 layer_factory.hpp:77] Creating layer inception_5a/output
I0403 19:29:55.968605 24884 net.cpp:91] Creating Layer inception_5a/output
I0403 19:29:55.968619 24884 net.cpp:425] inception_5a/output <- inception_5a/1x1
I0403 19:29:55.968634 24884 net.cpp:425] inception_5a/output <- inception_5a/3x3
I0403 19:29:55.968649 24884 net.cpp:425] inception_5a/output <- inception_5a/5x5
I0403 19:29:55.968665 24884 net.cpp:425] inception_5a/output <- inception_5a/pool_proj
I0403 19:29:55.968682 24884 net.cpp:399] inception_5a/output -> inception_5a/output
I0403 19:29:55.968729 24884 net.cpp:141] Setting up inception_5a/output
I0403 19:29:55.968751 24884 net.cpp:148] Top shape: 24 832 7 7 (978432)
I0403 19:29:55.968765 24884 net.cpp:156] Memory required for data: 1309586976
I0403 19:29:55.968780 24884 layer_factory.hpp:77] Creating layer inception_5a/output_inception_5a/output_0_split
I0403 19:29:55.968797 24884 net.cpp:91] Creating Layer inception_5a/output_inception_5a/output_0_split
I0403 19:29:55.968813 24884 net.cpp:425] inception_5a/output_inception_5a/output_0_split <- inception_5a/output
I0403 19:29:55.968829 24884 net.cpp:399] inception_5a/output_inception_5a/output_0_split -> inception_5a/output_inception_5a/output_0_split_0
I0403 19:29:55.968848 24884 net.cpp:399] inception_5a/output_inception_5a/output_0_split -> inception_5a/output_inception_5a/output_0_split_1
I0403 19:29:55.968868 24884 net.cpp:399] inception_5a/output_inception_5a/output_0_split -> inception_5a/output_inception_5a/output_0_split_2
I0403 19:29:55.968886 24884 net.cpp:399] inception_5a/output_inception_5a/output_0_split -> inception_5a/output_inception_5a/output_0_split_3
I0403 19:29:55.968997 24884 net.cpp:141] Setting up inception_5a/output_inception_5a/output_0_split
I0403 19:29:55.969020 24884 net.cpp:148] Top shape: 24 832 7 7 (978432)
I0403 19:29:55.969035 24884 net.cpp:148] Top shape: 24 832 7 7 (978432)
I0403 19:29:55.969048 24884 net.cpp:148] Top shape: 24 832 7 7 (978432)
I0403 19:29:55.969063 24884 net.cpp:148] Top shape: 24 832 7 7 (978432)
I0403 19:29:55.969075 24884 net.cpp:156] Memory required for data: 1325241888
I0403 19:29:55.969089 24884 layer_factory.hpp:77] Creating layer inception_5b/1x1
I0403 19:29:55.969110 24884 net.cpp:91] Creating Layer inception_5b/1x1
I0403 19:29:55.969126 24884 net.cpp:425] inception_5b/1x1 <- inception_5a/output_inception_5a/output_0_split_0
I0403 19:29:55.969146 24884 net.cpp:399] inception_5b/1x1 -> inception_5b/1x1
I0403 19:29:55.972740 24884 net.cpp:141] Setting up inception_5b/1x1
I0403 19:29:55.972769 24884 net.cpp:148] Top shape: 24 384 7 7 (451584)
I0403 19:29:55.972784 24884 net.cpp:156] Memory required for data: 1327048224
I0403 19:29:55.972802 24884 layer_factory.hpp:77] Creating layer inception_5b/relu_1x1
I0403 19:29:55.972821 24884 net.cpp:91] Creating Layer inception_5b/relu_1x1
I0403 19:29:55.972838 24884 net.cpp:425] inception_5b/relu_1x1 <- inception_5b/1x1
I0403 19:29:55.972856 24884 net.cpp:386] inception_5b/relu_1x1 -> inception_5b/1x1 (in-place)
I0403 19:29:55.973145 24884 net.cpp:141] Setting up inception_5b/relu_1x1
I0403 19:29:55.973170 24884 net.cpp:148] Top shape: 24 384 7 7 (451584)
I0403 19:29:55.973184 24884 net.cpp:156] Memory required for data: 1328854560
I0403 19:29:55.973198 24884 layer_factory.hpp:77] Creating layer inception_5b/3x3_reduce
I0403 19:29:55.973219 24884 net.cpp:91] Creating Layer inception_5b/3x3_reduce
I0403 19:29:55.973240 24884 net.cpp:425] inception_5b/3x3_reduce <- inception_5a/output_inception_5a/output_0_split_1
I0403 19:29:55.973258 24884 net.cpp:399] inception_5b/3x3_reduce -> inception_5b/3x3_reduce
I0403 19:29:55.975814 24884 net.cpp:141] Setting up inception_5b/3x3_reduce
I0403 19:29:55.975848 24884 net.cpp:148] Top shape: 24 192 7 7 (225792)
I0403 19:29:55.975865 24884 net.cpp:156] Memory required for data: 1329757728
I0403 19:29:55.975883 24884 layer_factory.hpp:77] Creating layer inception_5b/relu_3x3_reduce
I0403 19:29:55.975899 24884 net.cpp:91] Creating Layer inception_5b/relu_3x3_reduce
I0403 19:29:55.975915 24884 net.cpp:425] inception_5b/relu_3x3_reduce <- inception_5b/3x3_reduce
I0403 19:29:55.975931 24884 net.cpp:386] inception_5b/relu_3x3_reduce -> inception_5b/3x3_reduce (in-place)
I0403 19:29:55.976114 24884 net.cpp:141] Setting up inception_5b/relu_3x3_reduce
I0403 19:29:55.976140 24884 net.cpp:148] Top shape: 24 192 7 7 (225792)
I0403 19:29:55.976155 24884 net.cpp:156] Memory required for data: 1330660896
I0403 19:29:55.976169 24884 layer_factory.hpp:77] Creating layer inception_5b/3x3
I0403 19:29:55.976191 24884 net.cpp:91] Creating Layer inception_5b/3x3
I0403 19:29:55.976207 24884 net.cpp:425] inception_5b/3x3 <- inception_5b/3x3_reduce
I0403 19:29:55.976225 24884 net.cpp:399] inception_5b/3x3 -> inception_5b/3x3
I0403 19:29:55.982794 24884 net.cpp:141] Setting up inception_5b/3x3
I0403 19:29:55.982823 24884 net.cpp:148] Top shape: 24 384 7 7 (451584)
I0403 19:29:55.982841 24884 net.cpp:156] Memory required for data: 1332467232
I0403 19:29:55.982857 24884 layer_factory.hpp:77] Creating layer inception_5b/relu_3x3
I0403 19:29:55.982874 24884 net.cpp:91] Creating Layer inception_5b/relu_3x3
I0403 19:29:55.982892 24884 net.cpp:425] inception_5b/relu_3x3 <- inception_5b/3x3
I0403 19:29:55.982908 24884 net.cpp:386] inception_5b/relu_3x3 -> inception_5b/3x3 (in-place)
I0403 19:29:55.983194 24884 net.cpp:141] Setting up inception_5b/relu_3x3
I0403 19:29:55.983222 24884 net.cpp:148] Top shape: 24 384 7 7 (451584)
I0403 19:29:55.983237 24884 net.cpp:156] Memory required for data: 1334273568
I0403 19:29:55.983250 24884 layer_factory.hpp:77] Creating layer inception_5b/5x5_reduce
I0403 19:29:55.983290 24884 net.cpp:91] Creating Layer inception_5b/5x5_reduce
I0403 19:29:55.983310 24884 net.cpp:425] inception_5b/5x5_reduce <- inception_5a/output_inception_5a/output_0_split_2
I0403 19:29:55.983330 24884 net.cpp:399] inception_5b/5x5_reduce -> inception_5b/5x5_reduce
I0403 19:29:55.984549 24884 net.cpp:141] Setting up inception_5b/5x5_reduce
I0403 19:29:55.984575 24884 net.cpp:148] Top shape: 24 48 7 7 (56448)
I0403 19:29:55.984591 24884 net.cpp:156] Memory required for data: 1334499360
I0403 19:29:55.984608 24884 layer_factory.hpp:77] Creating layer inception_5b/relu_5x5_reduce
I0403 19:29:55.984628 24884 net.cpp:91] Creating Layer inception_5b/relu_5x5_reduce
I0403 19:29:55.984645 24884 net.cpp:425] inception_5b/relu_5x5_reduce <- inception_5b/5x5_reduce
I0403 19:29:55.984663 24884 net.cpp:386] inception_5b/relu_5x5_reduce -> inception_5b/5x5_reduce (in-place)
I0403 19:29:55.985029 24884 net.cpp:141] Setting up inception_5b/relu_5x5_reduce
I0403 19:29:55.985055 24884 net.cpp:148] Top shape: 24 48 7 7 (56448)
I0403 19:29:55.985069 24884 net.cpp:156] Memory required for data: 1334725152
I0403 19:29:55.985085 24884 layer_factory.hpp:77] Creating layer inception_5b/5x5
I0403 19:29:55.985103 24884 net.cpp:91] Creating Layer inception_5b/5x5
I0403 19:29:55.985119 24884 net.cpp:425] inception_5b/5x5 <- inception_5b/5x5_reduce
I0403 19:29:55.985137 24884 net.cpp:399] inception_5b/5x5 -> inception_5b/5x5
I0403 19:29:55.987076 24884 net.cpp:141] Setting up inception_5b/5x5
I0403 19:29:55.987103 24884 net.cpp:148] Top shape: 24 128 7 7 (150528)
I0403 19:29:55.987118 24884 net.cpp:156] Memory required for data: 1335327264
I0403 19:29:55.987136 24884 layer_factory.hpp:77] Creating layer inception_5b/relu_5x5
I0403 19:29:55.987154 24884 net.cpp:91] Creating Layer inception_5b/relu_5x5
I0403 19:29:55.987169 24884 net.cpp:425] inception_5b/relu_5x5 <- inception_5b/5x5
I0403 19:29:55.987186 24884 net.cpp:386] inception_5b/relu_5x5 -> inception_5b/5x5 (in-place)
I0403 19:29:55.987381 24884 net.cpp:141] Setting up inception_5b/relu_5x5
I0403 19:29:55.987406 24884 net.cpp:148] Top shape: 24 128 7 7 (150528)
I0403 19:29:55.987419 24884 net.cpp:156] Memory required for data: 1335929376
I0403 19:29:55.987433 24884 layer_factory.hpp:77] Creating layer inception_5b/pool
I0403 19:29:55.987452 24884 net.cpp:91] Creating Layer inception_5b/pool
I0403 19:29:55.987468 24884 net.cpp:425] inception_5b/pool <- inception_5a/output_inception_5a/output_0_split_3
I0403 19:29:55.987485 24884 net.cpp:399] inception_5b/pool -> inception_5b/pool
I0403 19:29:55.987555 24884 net.cpp:141] Setting up inception_5b/pool
I0403 19:29:55.987579 24884 net.cpp:148] Top shape: 24 832 7 7 (978432)
I0403 19:29:55.987592 24884 net.cpp:156] Memory required for data: 1339843104
I0403 19:29:55.987606 24884 layer_factory.hpp:77] Creating layer inception_5b/pool_proj
I0403 19:29:55.987627 24884 net.cpp:91] Creating Layer inception_5b/pool_proj
I0403 19:29:55.987645 24884 net.cpp:425] inception_5b/pool_proj <- inception_5b/pool
I0403 19:29:55.987665 24884 net.cpp:399] inception_5b/pool_proj -> inception_5b/pool_proj
I0403 19:29:55.989864 24884 net.cpp:141] Setting up inception_5b/pool_proj
I0403 19:29:55.989895 24884 net.cpp:148] Top shape: 24 128 7 7 (150528)
I0403 19:29:55.989912 24884 net.cpp:156] Memory required for data: 1340445216
I0403 19:29:55.989929 24884 layer_factory.hpp:77] Creating layer inception_5b/relu_pool_proj
I0403 19:29:55.989948 24884 net.cpp:91] Creating Layer inception_5b/relu_pool_proj
I0403 19:29:55.989964 24884 net.cpp:425] inception_5b/relu_pool_proj <- inception_5b/pool_proj
I0403 19:29:55.989982 24884 net.cpp:386] inception_5b/relu_pool_proj -> inception_5b/pool_proj (in-place)
I0403 19:29:55.990264 24884 net.cpp:141] Setting up inception_5b/relu_pool_proj
I0403 19:29:55.990296 24884 net.cpp:148] Top shape: 24 128 7 7 (150528)
I0403 19:29:55.990314 24884 net.cpp:156] Memory required for data: 1341047328
I0403 19:29:55.990327 24884 layer_factory.hpp:77] Creating layer inception_5b/output
I0403 19:29:55.990344 24884 net.cpp:91] Creating Layer inception_5b/output
I0403 19:29:55.990373 24884 net.cpp:425] inception_5b/output <- inception_5b/1x1
I0403 19:29:55.990391 24884 net.cpp:425] inception_5b/output <- inception_5b/3x3
I0403 19:29:55.990406 24884 net.cpp:425] inception_5b/output <- inception_5b/5x5
I0403 19:29:55.990420 24884 net.cpp:425] inception_5b/output <- inception_5b/pool_proj
I0403 19:29:55.990437 24884 net.cpp:399] inception_5b/output -> inception_5b/output
I0403 19:29:55.990488 24884 net.cpp:141] Setting up inception_5b/output
I0403 19:29:55.990510 24884 net.cpp:148] Top shape: 24 1024 7 7 (1204224)
I0403 19:29:55.990525 24884 net.cpp:156] Memory required for data: 1345864224
I0403 19:29:55.990540 24884 layer_factory.hpp:77] Creating layer pool5/7x7_s1
I0403 19:29:55.990558 24884 net.cpp:91] Creating Layer pool5/7x7_s1
I0403 19:29:55.990574 24884 net.cpp:425] pool5/7x7_s1 <- inception_5b/output
I0403 19:29:55.990592 24884 net.cpp:399] pool5/7x7_s1 -> pool5/7x7_s1
I0403 19:29:55.990800 24884 net.cpp:141] Setting up pool5/7x7_s1
I0403 19:29:55.990828 24884 net.cpp:148] Top shape: 24 1024 1 1 (24576)
I0403 19:29:55.990844 24884 net.cpp:156] Memory required for data: 1345962528
I0403 19:29:55.990859 24884 layer_factory.hpp:77] Creating layer pool5/drop_7x7_s1
I0403 19:29:55.990875 24884 net.cpp:91] Creating Layer pool5/drop_7x7_s1
I0403 19:29:55.990890 24884 net.cpp:425] pool5/drop_7x7_s1 <- pool5/7x7_s1
I0403 19:29:55.990908 24884 net.cpp:386] pool5/drop_7x7_s1 -> pool5/7x7_s1 (in-place)
I0403 19:29:55.990957 24884 net.cpp:141] Setting up pool5/drop_7x7_s1
I0403 19:29:55.990979 24884 net.cpp:148] Top shape: 24 1024 1 1 (24576)
I0403 19:29:55.990993 24884 net.cpp:156] Memory required for data: 1346060832
I0403 19:29:55.991006 24884 layer_factory.hpp:77] Creating layer loss3/classifier_plantvillage
I0403 19:29:55.991026 24884 net.cpp:91] Creating Layer loss3/classifier_plantvillage
I0403 19:29:55.991042 24884 net.cpp:425] loss3/classifier_plantvillage <- pool5/7x7_s1
I0403 19:29:55.991061 24884 net.cpp:399] loss3/classifier_plantvillage -> loss3/classifier_plantvillage
I0403 19:29:55.991469 24884 net.cpp:141] Setting up loss3/classifier_plantvillage
I0403 19:29:55.991493 24884 net.cpp:148] Top shape: 24 38 (912)
I0403 19:29:55.991506 24884 net.cpp:156] Memory required for data: 1346064480
I0403 19:29:55.991523 24884 layer_factory.hpp:77] Creating layer loss3/classifier_plantvillage_loss3/classifier_plantvillage_0_split
I0403 19:29:55.991544 24884 net.cpp:91] Creating Layer loss3/classifier_plantvillage_loss3/classifier_plantvillage_0_split
I0403 19:29:55.991559 24884 net.cpp:425] loss3/classifier_plantvillage_loss3/classifier_plantvillage_0_split <- loss3/classifier_plantvillage
I0403 19:29:55.991577 24884 net.cpp:399] loss3/classifier_plantvillage_loss3/classifier_plantvillage_0_split -> loss3/classifier_plantvillage_loss3/classifier_plantvillage_0_split_0
I0403 19:29:55.991600 24884 net.cpp:399] loss3/classifier_plantvillage_loss3/classifier_plantvillage_0_split -> loss3/classifier_plantvillage_loss3/classifier_plantvillage_0_split_1
I0403 19:29:55.991619 24884 net.cpp:399] loss3/classifier_plantvillage_loss3/classifier_plantvillage_0_split -> loss3/classifier_plantvillage_loss3/classifier_plantvillage_0_split_2
I0403 19:29:55.991639 24884 net.cpp:399] loss3/classifier_plantvillage_loss3/classifier_plantvillage_0_split -> loss3/classifier_plantvillage_loss3/classifier_plantvillage_0_split_3
I0403 19:29:55.991734 24884 net.cpp:141] Setting up loss3/classifier_plantvillage_loss3/classifier_plantvillage_0_split
I0403 19:29:55.991757 24884 net.cpp:148] Top shape: 24 38 (912)
I0403 19:29:55.991772 24884 net.cpp:148] Top shape: 24 38 (912)
I0403 19:29:55.991788 24884 net.cpp:148] Top shape: 24 38 (912)
I0403 19:29:55.991803 24884 net.cpp:148] Top shape: 24 38 (912)
I0403 19:29:55.991816 24884 net.cpp:156] Memory required for data: 1346079072
I0403 19:29:55.991829 24884 layer_factory.hpp:77] Creating layer loss1/loss
I0403 19:29:55.991853 24884 net.cpp:91] Creating Layer loss1/loss
I0403 19:29:55.991869 24884 net.cpp:425] loss1/loss <- loss1/classifier_plantvillage_loss1/classifier_plantvillage_0_split_0
I0403 19:29:55.991900 24884 net.cpp:425] loss1/loss <- label_data_1_split_0
…
