…
I0403 19:45:48.586016 25808 net.cpp:313] The NetState phase (1) differed from the phase (0) specified by a rule in layer data
I0403 19:45:48.587162 25808 net.cpp:49] Initializing net from parameters: 
state {
  phase: TEST
}
layer {
  name: "data"
  type: "Data"
  top: "data"
  top: "label"
  include {
    phase: TEST
  }
  transform_param {
    mirror: false
    crop_size: 224
    mean_file: "/home/mohanty/data/final_dataset/lmdb/grayscale-80-20/mean.binaryproto"
  }
  data_param {
    source: "/home/mohanty/data/final_dataset/lmdb/grayscale-80-20/test_db"
    batch_size: 24
    backend: LMDB
  }
}
layer {
  name: "conv1/7x7_s2"
  type: "Convolution"
  bottom: "data"
  top: "conv1/7x7_s2"
  param {
    lr_mult: 1
    decay_mult: 1
  }
  param {
    lr_mult: 2
    decay_mult: 0
  }
  convolution_param {
    num_output: 64
    pad: 3
    kernel_size: 7
    stride: 2
    weight_filler {
      type: "xavier"
      std: 0.1
    }
    bias_filler {
      type: "constant"
      value: 0.2
    }
  }
}
layer {
  name: "conv1/relu_7x7"
  type: "ReLU"
  bottom: "conv1/7x7_s2"
  top: "conv1/7x7_s2"
}
layer {
  name: "pool1/3x3_s2"
  type: "Pooling"
  bottom: "conv1/7x7_s2"
  top: "pool1/3x3_s2"
  pooling_param {
    pool: MAX
    kernel_size: 3
    stride: 2
  }
}
layer {
  name: "pool1/norm1"
  type: "LRN"
  bottom: "pool1/3x3_s2"
  top: "pool1/norm1"
  lrn_param {
    local_size: 5
    alpha: 0.0001
    beta: 0.75
  }
}
layer {
  name: "conv2/3x3_reduce"
  type: "Convolution"
  bottom: "pool1/norm1"
  top: "conv2/3x3_reduce"
  param {
    lr_mult: 1
    decay_mult: 1
  }
  param {
    lr_mult: 2
    decay_mult: 0
  }
  convolution_param {
    num_output: 64
    kernel_size: 1
    weight_filler {
      type: "xavier"
      std: 0.1
    }
    bias_filler {
      type: "constant"
      value: 0.2
    }
  }
}
layer {
  name: "conv2/relu_3x3_reduce"
  type: "ReLU"
  bottom: "conv2/3x3_reduce"
  top: "conv2/3x3_reduce"
}
layer {
  name: "conv2/3x3"
  type: "Convolution"
  bottom: "conv2/3x3_reduce"
  top: "conv2/3x3"
  param {
    lr_mult: 1
    decay_mult: 1
  }
  param {
    lr_mult: 2
    decay_mult: 0
  }
  convolution_param {
    num_output: 192
    pad: 1
    kernel_size: 3
    weight_filler {
      type: "xavier"
      std: 0.03
    }
    bias_filler {
      type: "constant"
      value: 0.2
    }
  }
}
layer {
  name: "conv2/relu_3x3"
  type: "ReLU"
  bottom: "conv2/3x3"
  top: "conv2/3x3"
}
layer {
  name: "conv2/norm2"
  type: "LRN"
  bottom: "conv2/3x3"
  top: "conv2/norm2"
  lrn_param {
    local_size: 5
    alpha: 0.0001
    beta: 0.75
  }
}
layer {
  name: "pool2/3x3_s2"
  type: "Pooling"
  bottom: "conv2/norm2"
  top: "pool2/3x3_s2"
  pooling_param {
    pool: MAX
    kernel_size: 3
    stride: 2
  }
}
layer {
  name: "inception_3a/1x1"
  type: "Convolution"
  bottom: "pool2/3x3_s2"
  top: "inception_3a/1x1"
  param {
    lr_mult: 1
    decay_mult: 1
  }
  param {
    lr_mult: 2
    decay_mult: 0
  }
  convolution_param {
    num_output: 64
    kernel_size: 1
    weight_filler {
      type: "xavier"
      std: 0.03
    }
    bias_filler {
      type: "constant"
      value: 0.2
    }
  }
}
layer {
  name: "inception_3a/relu_1x1"
  type: "ReLU"
  bottom: "inception_3a/1x1"
  top: "inception_3a/1x1"
}
layer {
  name: "inception_3a/3x3_reduce"
  type: "Convolution"
  bottom: "pool2/3x3_s2"
  top: "inception_3a/3x3_reduce"
  param {
    lr_mult: 1
    decay_mult: 1
  }
  param {
    lr_mult: 2
    decay_mult: 0
  }
  convolution_param {
    num_output: 96
    kernel_size: 1
    weight_filler {
      type: "xavier"
      std: 0.09
    }
    bias_filler {
      type: "constant"
      value: 0.2
    }
  }
}
layer {
  name: "inception_3a/relu_3x3_reduce"
  type: "ReLU"
  bottom: "inception_3a/3x3_reduce"
  top: "inception_3a/3x3_reduce"
}
layer {
  name: "inception_3a/3x3"
  type: "Convolution"
  bottom: "inception_3a/3x3_reduce"
  top: "inception_3a/3x3"
  param {
    lr_mult: 1
    decay_mult: 1
  }
  param {
    lr_mult: 2
    decay_mult: 0
  }
  convolution_param {
    num_output: 128
    pad: 1
    kernel_size: 3
    weight_filler {
      type: "xavier"
      std: 0.03
    }
    bias_filler {
      type: "constant"
      value: 0.2
    }
  }
}
layer {
  name: "inception_3a/relu_3x3"
  type: "ReLU"
  bottom: "inception_3a/3x3"
  top: "inception_3a/3x3"
}
layer {
  name: "inception_3a/5x5_reduce"
  type: "Convolution"
  bottom: "pool2/3x3_s2"
  top: "inception_3a/5x5_reduce"
  param {
    lr_mult: 1
    decay_mult: 1
  }
  param {
    lr_mult: 2
    decay_mult: 0
  }
  convolution_param {
    num_output: 16
    kernel_size: 1
    weight_filler {
      type: "xavier"
      std: 0.2
    }
    bias_filler {
      type: "constant"
      value: 0.2
    }
  }
}
layer {
  name: "inception_3a/relu_5x5_reduce"
  type: "ReLU"
  bottom: "inception_3a/5x5_reduce"
  top: "inception_3a/5x5_reduce"
}
layer {
  name: "inception_3a/5x5"
  type: "Convolution"
  bottom: "inception_3a/5x5_reduce"
  top: "inception_3a/5x5"
  param {
    lr_mult: 1
    decay_mult: 1
  }
  param {
    lr_mult: 2
    decay_mult: 0
  }
  convolution_param {
    num_output: 32
    pad: 2
    kernel_size: 5
    weight_filler {
      type: "xavier"
      std: 0.03
    }
    bias_filler {
      type: "constant"
      value: 0.2
    }
  }
}
layer {
  name: "inception_3a/relu_5x5"
  type: "ReLU"
  bottom: "inception_3a/5x5"
  top: "inception_3a/5x5"
}
layer {
  name: "inception_3a/pool"
  type: "Pooling"
  bottom: "pool2/3x3_s2"
  top: "inception_3a/pool"
  pooling_param {
    pool: MAX
    kernel_size: 3
    stride: 1
    pad: 1
  }
}
layer {
  name: "inception_3a/pool_proj"
  type: "Convolution"
  bottom: "inception_3a/pool"
  top: "inception_3a/pool_proj"
  param {
    lr_mult: 1
    decay_mult: 1
  }
  param {
    lr_mult: 2
    decay_mult: 0
  }
  convolution_param {
    num_output: 32
    kernel_size: 1
    weight_filler {
      type: "xavier"
      std: 0.1
    }
    bias_filler {
      type: "constant"
      value: 0.2
    }
  }
}
layer {
  name: "inception_3a/relu_pool_proj"
  type: "ReLU"
  bottom: "inception_3a/pool_proj"
  top: "inception_3a/pool_proj"
}
layer {
  name: "inception_3a/output"
  type: "Concat"
  bottom: "inception_3a/1x1"
  bottom: "inception_3a/3x3"
  bottom: "inception_3a/5x5"
  bottom: "inception_3a/pool_proj"
  top: "inception_3a/output"
}
layer {
  name: "inception_3b/1x1"
  type: "Convolution"
  bottom: "inception_3a/output"
  top: "inception_3b/1x1"
  param {
    lr_mult: 1
    decay_mult: 1
  }
  param {
    lr_mult: 2
    decay_mult: 0
  }
  convolution_param {
    num_output: 128
    kernel_size: 1
    weight_filler {
      type: "xavier"
      std: 0.03
    }
    bias_filler {
      type: "constant"
      value: 0.2
    }
  }
}
layer {
  name: "inception_3b/relu_1x1"
  type: "ReLU"
  bottom: "inception_3b/1x1"
  top: "inception_3b/1x1"
}
layer {
  name: "inception_3b/3x3_reduce"
  type: "Convolution"
  bottom: "inception_3a/output"
  top: "inception_3b/3x3_reduce"
  param {
    lr_mult: 1
    decay_mult: 1
  }
  param {
    lr_mult: 2
    decay_mult: 0
  }
  convolution_param {
    num_output: 128
    kernel_size: 1
    weight_filler {
      type: "xavier"
      std: 0.09
    }
    bias_filler {
      type: "constant"
      value: 0.2
    }
  }
}
layer {
  name: "inception_3b/relu_3x3_reduce"
  type: "ReLU"
  bottom: "inception_3b/3x3_reduce"
  top: "inception_3b/3x3_reduce"
}
layer {
  name: "inception_3b/3x3"
  type: "Convolution"
  bottom: "inception_3b/3x3_reduce"
  top: "inception_3b/3x3"
  param {
    lr_mult: 1
    decay_mult: 1
  }
  param {
    lr_mult: 2
    decay_mult: 0
  }
  convolution_param {
    num_output: 192
    pad: 1
    kernel_size: 3
    weight_filler {
      type: "xavier"
      std: 0.03
    }
    bias_filler {
      type: "constant"
      value: 0.2
    }
  }
}
layer {
  name: "inception_3b/relu_3x3"
  type: "ReLU"
  bottom: "inception_3b/3x3"
  top: "inception_3b/3x3"
}
layer {
  name: "inception_3b/5x5_reduce"
  type: "Convolution"
  bottom: "inception_3a/output"
  top: "inception_3b/5x5_reduce"
  param {
    lr_mult: 1
    decay_mult: 1
  }
  param {
    lr_mult: 2
    decay_mult: 0
  }
  convolution_param {
    num_output: 32
    kernel_size: 1
    weight_filler {
      type: "xavier"
      std: 0.2
    }
    bias_filler {
      type: "constant"
      value: 0.2
    }
  }
}
layer {
  name: "inception_3b/relu_5x5_reduce"
  type: "ReLU"
  bottom: "inception_3b/5x5_reduce"
  top: "inception_3b/5x5_reduce"
}
layer {
  name: "inception_3b/5x5"
  type: "Convolution"
  bottom: "inception_3b/5x5_reduce"
  top: "inception_3b/5x5"
  param {
    lr_mult: 1
    decay_mult: 1
  }
  param {
    lr_mult: 2
    decay_mult: 0
  }
  convolution_param {
    num_output: 96
    pad: 2
    kernel_size: 5
    weight_filler {
      type: "xavier"
      std: 0.03
    }
    bias_filler {
      type: "constant"
      value: 0.2
    }
  }
}
layer {
  name: "inception_3b/relu_5x5"
  type: "ReLU"
  bottom: "inception_3b/5x5"
  top: "inception_3b/5x5"
}
layer {
  name: "inception_3b/pool"
  type: "Pooling"
  bottom: "inception_3a/output"
  top: "inception_3b/pool"
  pooling_param {
    pool: MAX
    kernel_size: 3
    stride: 1
    pad: 1
  }
}
layer {
  name: "inception_3b/pool_proj"
  type: "Convolution"
  bottom: "inception_3b/pool"
  top: "inception_3b/pool_proj"
  param {
    lr_mult: 1
    decay_mult: 1
  }
  param {
    lr_mult: 2
    decay_mult: 0
  }
  convolution_param {
    num_output: 64
    kernel_size: 1
    weight_filler {
      type: "xavier"
      std: 0.1
    }
    bias_filler {
      type: "constant"
      value: 0.2
    }
  }
}
layer {
  name: "inception_3b/relu_pool_proj"
  type: "ReLU"
  bottom: "inception_3b/pool_proj"
  top: "inception_3b/pool_proj"
}
layer {
  name: "inception_3b/output"
  type: "Concat"
  bottom: "inception_3b/1x1"
  bottom: "inception_3b/3x3"
  bottom: "inception_3b/5x5"
  bottom: "inception_3b/pool_proj"
  top: "inception_3b/output"
}
layer {
  name: "pool3/3x3_s2"
  type: "Pooling"
  bottom: "inception_3b/output"
  top: "pool3/3x3_s2"
  pooling_param {
    pool: MAX
    kernel_size: 3
    stride: 2
  }
}
layer {
  name: "inception_4a/1x1"
  type: "Convolution"
  bottom: "pool3/3x3_s2"
  top: "inception_4a/1x1"
  param {
    lr_mult: 1
    decay_mult: 1
  }
  param {
    lr_mult: 2
    decay_mult: 0
  }
  convolution_param {
    num_output: 192
    kernel_size: 1
    weight_filler {
      type: "xavier"
      std: 0.03
    }
    bias_filler {
      type: "constant"
      value: 0.2
    }
  }
}
layer {
  name: "inception_4a/relu_1x1"
  type: "ReLU"
  bottom: "inception_4a/1x1"
  top: "inception_4a/1x1"
}
layer {
  name: "inception_4a/3x3_reduce"
  type: "Convolution"
  bottom: "pool3/3x3_s2"
  top: "inception_4a/3x3_reduce"
  param {
    lr_mult: 1
    decay_mult: 1
  }
  param {
    lr_mult: 2
    decay_mult: 0
  }
  convolution_param {
    num_output: 96
    kernel_size: 1
    weight_filler {
      type: "xavier"
      std: 0.09
    }
    bias_filler {
      type: "constant"
      value: 0.2
    }
  }
}
layer {
  name: "inception_4a/relu_3x3_reduce"
  type: "ReLU"
  bottom: "inception_4a/3x3_reduce"
  top: "inception_4a/3x3_reduce"
}
layer {
  name: "inception_4a/3x3"
  type: "Convolution"
  bottom: "inception_4a/3x3_reduce"
  top: "inception_4a/3x3"
  param {
    lr_mult: 1
    decay_mult: 1
  }
  param {
    lr_mult: 2
    decay_mult: 0
  }
  convolution_param {
    num_output: 208
    pad: 1
    kernel_size: 3
    weight_filler {
      type: "xavier"
      std: 0.03
    }
    bias_filler {
      type: "constant"
      value: 0.2
    }
  }
}
layer {
  name: "inception_4a/relu_3x3"
  type: "ReLU"
  bottom: "inception_4a/3x3"
  top: "inception_4a/3x3"
}
layer {
  name: "inception_4a/5x5_reduce"
  type: "Convolution"
  bottom: "pool3/3x3_s2"
  top: "inception_4a/5x5_reduce"
  param {
    lr_mult: 1
    decay_mult: 1
  }
  param {
    lr_mult: 2
    decay_mult: 0
  }
  convolution_param {
    num_output: 16
    kernel_size: 1
    weight_filler {
      type: "xavier"
      std: 0.2
    }
    bias_filler {
      type: "constant"
      value: 0.2
    }
  }
}
layer {
  name: "inception_4a/relu_5x5_reduce"
  type: "ReLU"
  bottom: "inception_4a/5x5_reduce"
  top: "inception_4a/5x5_reduce"
}
layer {
  name: "inception_4a/5x5"
  type: "Convolution"
  bottom: "inception_4a/5x5_reduce"
  top: "inception_4a/5x5"
  param {
    lr_mult: 1
    decay_mult: 1
  }
  param {
    lr_mult: 2
    decay_mult: 0
  }
  convolution_param {
    num_output: 48
    pad: 2
    kernel_size: 5
    weight_filler {
      type: "xavier"
      std: 0.03
    }
    bias_filler {
      type: "constant"
      value: 0.2
    }
  }
}
layer {
  name: "inception_4a/relu_5x5"
  type: "ReLU"
  bottom: "inception_4a/5x5"
  top: "inception_4a/5x5"
}
layer {
  name: "inception_4a/pool"
  type: "Pooling"
  bottom: "pool3/3x3_s2"
  top: "inception_4a/pool"
  pooling_param {
    pool: MAX
    kernel_size: 3
    stride: 1
    pad: 1
  }
}
layer {
  name: "inception_4a/pool_proj"
  type: "Convolution"
  bottom: "inception_4a/pool"
  top: "inception_4a/pool_proj"
  param {
    lr_mult: 1
    decay_mult: 1
  }
  param {
    lr_mult: 2
    decay_mult: 0
  }
  convolution_param {
    num_output: 64
    kernel_size: 1
    weight_filler {
      type: "xavier"
      std: 0.1
    }
    bias_filler {
      type: "constant"
      value: 0.2
    }
  }
}
layer {
  name: "inception_4a/relu_pool_proj"
  type: "ReLU"
  bottom: "inception_4a/pool_proj"
  top: "inception_4a/pool_proj"
}
layer {
  name: "inception_4a/output"
  type: "Concat"
  bottom: "inception_4a/1x1"
  bottom: "inception_4a/3x3"
  bottom: "inception_4a/5x5"
  bottom: "inception_4a/pool_proj"
  top: "inception_4a/output"
}
layer {
  name: "loss1/ave_pool"
  type: "Pooling"
  bottom: "inception_4a/output"
  top: "loss1/ave_pool"
  pooling_param {
    pool: AVE
    kernel_size: 5
    stride: 3
  }
}
layer {
  name: "loss1/conv"
  type: "Convolution"
  bottom: "loss1/ave_pool"
  top: "loss1/conv"
  param {
    lr_mult: 1
    decay_mult: 1
  }
  param {
    lr_mult: 2
    decay_mult: 0
  }
  convolution_param {
    num_output: 128
    kernel_size: 1
    weight_filler {
      type: "xavier"
      std: 0.08
    }
    bias_filler {
      type: "constant"
      value: 0.2
    }
  }
}
layer {
  name: "loss1/relu_conv"
  type: "ReLU"
  bottom: "loss1/conv"
  top: "loss1/conv"
}
layer {
  name: "loss1/fc"
  type: "InnerProduct"
  bottom: "loss1/conv"
  top: "loss1/fc"
  param {
    lr_mult: 1
    decay_mult: 1
  }
  param {
    lr_mult: 2
    decay_mult: 0
  }
  inner_product_param {
    num_output: 1024
    weight_filler {
      type: "xavier"
      std: 0.02
    }
    bias_filler {
      type: "constant"
      value: 0.2
    }
  }
}
layer {
  name: "loss1/relu_fc"
  type: "ReLU"
  bottom: "loss1/fc"
  top: "loss1/fc"
}
layer {
  name: "loss1/drop_fc"
  type: "Dropout"
  bottom: "loss1/fc"
  top: "loss1/fc"
  dropout_param {
    dropout_ratio: 0.7
  }
}
layer {
  name: "loss1/classifier_plantvillage"
  type: "InnerProduct"
  bottom: "loss1/fc"
  top: "loss1/classifier_plantvillage"
  param {
    lr_mult: 1
    decay_mult: 1
  }
  param {
    lr_mult: 2
    decay_mult: 0
  }
  inner_product_param {
    num_output: 38
    weight_filler {
      type: "xavier"
      std: 0.0009765625
    }
    bias_filler {
      type: "constant"
      value: 0
    }
  }
}
layer {
  name: "inception_4b/1x1"
  type: "Convolution"
  bottom: "inception_4a/output"
  top: "inception_4b/1x1"
  param {
    lr_mult: 1
    decay_mult: 1
  }
  param {
    lr_mult: 2
    decay_mult: 0
  }
  convolution_param {
    num_output: 160
    kernel_size: 1
    weight_filler {
      type: "xavier"
      std: 0.03
    }
    bias_filler {
      type: "constant"
      value: 0.2
    }
  }
}
layer {
  name: "inception_4b/relu_1x1"
  type: "ReLU"
  bottom: "inception_4b/1x1"
  top: "inception_4b/1x1"
}
layer {
  name: "inception_4b/3x3_reduce"
  type: "Convolution"
  bottom: "inception_4a/output"
  top: "inception_4b/3x3_reduce"
  param {
    lr_mult: 1
    decay_mult: 1
  }
  param {
    lr_mult: 2
    decay_mult: 0
  }
  convolution_param {
    num_output: 112
    kernel_size: 1
    weight_filler {
      type: "xavier"
      std: 0.09
    }
    bias_filler {
      type: "constant"
      value: 0.2
    }
  }
}
layer {
  name: "inception_4b/relu_3x3_reduce"
  type: "ReLU"
  bottom: "inception_4b/3x3_reduce"
  top: "inception_4b/3x3_reduce"
}
layer {
  name: "inception_4b/3x3"
  type: "Convolution"
  bottom: "inception_4b/3x3_reduce"
  top: "inception_4b/3x3"
  param {
    lr_mult: 1
    decay_mult: 1
  }
  param {
    lr_mult: 2
    decay_mult: 0
  }
  convolution_param {
    num_output: 224
    pad: 1
    kernel_size: 3
    weight_filler {
      type: "xavier"
      std: 0.03
    }
    bias_filler {
      type: "constant"
      value: 0.2
    }
  }
}
layer {
  name: "inception_4b/relu_3x3"
  type: "ReLU"
  bottom: "inception_4b/3x3"
  top: "inception_4b/3x3"
}
layer {
  name: "inception_4b/5x5_reduce"
  type: "Convolution"
  bottom: "inception_4a/output"
  top: "inception_4b/5x5_reduce"
  param {
    lr_mult: 1
    decay_mult: 1
  }
  param {
    lr_mult: 2
    decay_mult: 0
  }
  convolution_param {
    num_output: 24
    kernel_size: 1
    weight_filler {
      type: "xavier"
      std: 0.2
    }
    bias_filler {
      type: "constant"
      value: 0.2
    }
  }
}
layer {
  name: "inception_4b/relu_5x5_reduce"
  type: "ReLU"
  bottom: "inception_4b/5x5_reduce"
  top: "inception_4b/5x5_reduce"
}
layer {
  name: "inception_4b/5x5"
  type: "Convolution"
  bottom: "inception_4b/5x5_reduce"
  top: "inception_4b/5x5"
  param {
    lr_mult: 1
    decay_mult: 1
  }
  param {
    lr_mult: 2
    decay_mult: 0
  }
  convolution_param {
    num_output: 64
    pad: 2
    kernel_size: 5
    weight_filler {
      type: "xavier"
      std: 0.03
    }
    bias_filler {
      type: "constant"
      value: 0.2
    }
  }
}
layer {
  name: "inception_4b/relu_5x5"
  type: "ReLU"
  bottom: "inception_4b/5x5"
  top: "inception_4b/5x5"
}
layer {
  name: "inception_4b/pool"
  type: "Pooling"
  bottom: "inception_4a/output"
  top: "inception_4b/pool"
  pooling_param {
    pool: MAX
    kernel_size: 3
    stride: 1
    pad: 1
  }
}
layer {
  name: "inception_4b/pool_proj"
  type: "Convolution"
  bottom: "inception_4b/pool"
  top: "inception_4b/pool_proj"
  param {
    lr_mult: 1
    decay_mult: 1
  }
  param {
    lr_mult: 2
    decay_mult: 0
  }
  convolution_param {
    num_output: 64
    kernel_size: 1
    weight_filler {
      type: "xavier"
      std: 0.1
    }
    bias_filler {
      type: "constant"
      value: 0.2
    }
  }
}
layer {
  name: "inception_4b/relu_pool_proj"
  type: "ReLU"
  bottom: "inception_4b/pool_proj"
  top: "inception_4b/pool_proj"
}
layer {
  name: "inception_4b/output"
  type: "Concat"
  bottom: "inception_4b/1x1"
  bottom: "inception_4b/3x3"
  bottom: "inception_4b/5x5"
  bottom: "inception_4b/pool_proj"
  top: "inception_4b/output"
}
layer {
  name: "inception_4c/1x1"
  type: "Convolution"
  bottom: "inception_4b/output"
  top: "inception_4c/1x1"
  param {
    lr_mult: 1
    decay_mult: 1
  }
  param {
    lr_mult: 2
    decay_mult: 0
  }
  convolution_param {
    num_output: 128
    kernel_size: 1
    weight_filler {
      type: "xavier"
      std: 0.03
    }
    bias_filler {
      type: "constant"
      value: 0.2
    }
  }
}
layer {
  name: "inception_4c/relu_1x1"
  type: "ReLU"
  bottom: "inception_4c/1x1"
  top: "inception_4c/1x1"
}
layer {
  name: "inception_4c/3x3_reduce"
  type: "Convolution"
  bottom: "inception_4b/output"
  top: "inception_4c/3x3_reduce"
  param {
    lr_mult: 1
    decay_mult: 1
  }
  param {
    lr_mult: 2
    decay_mult: 0
  }
  convolution_param {
    num_output: 128
    kernel_size: 1
    weight_filler {
      type: "xavier"
      std: 0.09
    }
    bias_filler {
      type: "constant"
      value: 0.2
    }
  }
}
layer {
  name: "inception_4c/relu_3x3_reduce"
  type: "ReLU"
  bottom: "inception_4c/3x3_reduce"
  top: "inception_4c/3x3_reduce"
}
layer {
  name: "inception_4c/3x3"
  type: "Convolution"
  bottom: "inception_4c/3x3_reduce"
  top: "inception_4c/3x3"
  param {
    lr_mult: 1
    decay_mult: 1
  }
  param {
    lr_mult: 2
    decay_mult: 0
  }
  convolution_param {
    num_output: 256
    pad: 1
    kernel_size: 3
    weight_filler {
      type: "xavier"
      std: 0.03
    }
    bias_filler {
      type: "constant"
      value: 0.2
    }
  }
}
layer {
  name: "inception_4c/relu_3x3"
  type: "ReLU"
  bottom: "inception_4c/3x3"
  top: "inception_4c/3x3"
}
layer {
  name: "inception_4c/5x5_reduce"
  type: "Convolution"
  bottom: "inception_4b/output"
  top: "inception_4c/5x5_reduce"
  param {
    lr_mult: 1
    decay_mult: 1
  }
  param {
    lr_mult: 2
    decay_mult: 0
  }
  convolution_param {
    num_output: 24
    kernel_size: 1
    weight_filler {
      type: "xavier"
      std: 0.2
    }
    bias_filler {
      type: "constant"
      value: 0.2
    }
  }
}
layer {
  name: "inception_4c/relu_5x5_reduce"
  type: "ReLU"
  bottom: "inception_4c/5x5_reduce"
  top: "inception_4c/5x5_reduce"
}
layer {
  name: "inception_4c/5x5"
  type: "Convolution"
  bottom: "inception_4c/5x5_reduce"
  top: "inception_4c/5x5"
  param {
    lr_mult: 1
    decay_mult: 1
  }
  param {
    lr_mult: 2
    decay_mult: 0
  }
  convolution_param {
    num_output: 64
    pad: 2
    kernel_size: 5
    weight_filler {
      type: "xavier"
      std: 0.03
    }
    bias_filler {
      type: "constant"
      value: 0.2
    }
  }
}
layer {
  name: "inception_4c/relu_5x5"
  type: "ReLU"
  bottom: "inception_4c/5x5"
  top: "inception_4c/5x5"
}
layer {
  name: "inception_4c/pool"
  type: "Pooling"
  bottom: "inception_4b/output"
  top: "inception_4c/pool"
  pooling_param {
    pool: MAX
    kernel_size: 3
    stride: 1
    pad: 1
  }
}
layer {
  name: "inception_4c/pool_proj"
  type: "Convolution"
  bottom: "inception_4c/pool"
  top: "inception_4c/pool_proj"
  param {
    lr_mult: 1
    decay_mult: 1
  }
  param {
    lr_mult: 2
    decay_mult: 0
  }
  convolution_param {
    num_output: 64
    kernel_size: 1
    weight_filler {
      type: "xavier"
      std: 0.1
    }
    bias_filler {
      type: "constant"
      value: 0.2
    }
  }
}
layer {
  name: "inception_4c/relu_pool_proj"
  type: "ReLU"
  bottom: "inception_4c/pool_proj"
  top: "inception_4c/pool_proj"
}
layer {
  name: "inception_4c/output"
  type: "Concat"
  bottom: "inception_4c/1x1"
  bottom: "inception_4c/3x3"
  bottom: "inception_4c/5x5"
  bottom: "inception_4c/pool_proj"
  top: "inception_4c/output"
}
layer {
  name: "inception_4d/1x1"
  type: "Convolution"
  bottom: "inception_4c/output"
  top: "inception_4d/1x1"
  param {
    lr_mult: 1
    decay_mult: 1
  }
  param {
    lr_mult: 2
    decay_mult: 0
  }
  convolution_param {
    num_output: 112
    kernel_size: 1
    weight_filler {
      type: "xavier"
      std: 0.03
    }
    bias_filler {
      type: "constant"
      value: 0.2
    }
  }
}
layer {
  name: "inception_4d/relu_1x1"
  type: "ReLU"
  bottom: "inception_4d/1x1"
  top: "inception_4d/1x1"
}
layer {
  name: "inception_4d/3x3_reduce"
  type: "Convolution"
  bottom: "inception_4c/output"
  top: "inception_4d/3x3_reduce"
  param {
    lr_mult: 1
    decay_mult: 1
  }
  param {
    lr_mult: 2
    decay_mult: 0
  }
  convolution_param {
    num_output: 144
    kernel_size: 1
    weight_filler {
      type: "xavier"
      std: 0.09
    }
    bias_filler {
      type: "constant"
      value: 0.2
    }
  }
}
layer {
  name: "inception_4d/relu_3x3_reduce"
  type: "ReLU"
  bottom: "inception_4d/3x3_reduce"
  top: "inception_4d/3x3_reduce"
}
layer {
  name: "inception_4d/3x3"
  type: "Convolution"
  bottom: "inception_4d/3x3_reduce"
  top: "inception_4d/3x3"
  param {
    lr_mult: 1
    decay_mult: 1
  }
  param {
    lr_mult: 2
    decay_mult: 0
  }
  convolution_param {
    num_output: 288
    pad: 1
    kernel_size: 3
    weight_filler {
      type: "xavier"
      std: 0.03
    }
    bias_filler {
      type: "constant"
      value: 0.2
    }
  }
}
layer {
  name: "inception_4d/relu_3x3"
  type: "ReLU"
  bottom: "inception_4d/3x3"
  top: "inception_4d/3x3"
}
layer {
  name: "inception_4d/5x5_reduce"
  type: "Convolution"
  bottom: "inception_4c/output"
  top: "inception_4d/5x5_reduce"
  param {
    lr_mult: 1
    decay_mult: 1
  }
  param {
    lr_mult: 2
    decay_mult: 0
  }
  convolution_param {
    num_output: 32
    kernel_size: 1
    weight_filler {
      type: "xavier"
      std: 0.2
    }
    bias_filler {
      type: "constant"
      value: 0.2
    }
  }
}
layer {
  name: "inception_4d/relu_5x5_reduce"
  type: "ReLU"
  bottom: "inception_4d/5x5_reduce"
  top: "inception_4d/5x5_reduce"
}
layer {
  name: "inception_4d/5x5"
  type: "Convolution"
  bottom: "inception_4d/5x5_reduce"
  top: "inception_4d/5x5"
  param {
    lr_mult: 1
    decay_mult: 1
  }
  param {
    lr_mult: 2
    decay_mult: 0
  }
  convolution_param {
    num_output: 64
    pad: 2
    kernel_size: 5
    weight_filler {
      type: "xavier"
      std: 0.03
    }
    bias_filler {
      type: "constant"
      value: 0.2
    }
  }
}
layer {
  name: "inception_4d/relu_5x5"
  type: "ReLU"
  bottom: "inception_4d/5x5"
  top: "inception_4d/5x5"
}
layer {
  name: "inception_4d/pool"
  type: "Pooling"
  bottom: "inception_4c/output"
  top: "inception_4d/pool"
  pooling_param {
    pool: MAX
    kernel_size: 3
    stride: 1
    pad: 1
  }
}
layer {
  name: "inception_4d/pool_proj"
  type: "Convolution"
  bottom: "inception_4d/pool"
  top: "inception_4d/pool_proj"
  param {
    lr_mult: 1
    decay_mult: 1
  }
  param {
    lr_mult: 2
    decay_mult: 0
  }
  convolution_param {
    num_output: 64
    kernel_size: 1
    weight_filler {
      type: "xavier"
      std: 0.1
    }
    bias_filler {
      type: "constant"
      value: 0.2
    }
  }
}
layer {
  name: "inception_4d/relu_pool_proj"
  type: "ReLU"
  bottom: "inception_4d/pool_proj"
  top: "inception_4d/pool_proj"
}
layer {
  name: "inception_4d/output"
  type: "Concat"
  bottom: "inception_4d/1x1"
  bottom: "inception_4d/3x3"
  bottom: "inception_4d/5x5"
  bottom: "inception_4d/pool_proj"
  top: "inception_4d/output"
}
layer {
  name: "loss2/ave_pool"
  type: "Pooling"
  bottom: "inception_4d/output"
  top: "loss2/ave_pool"
  pooling_param {
    pool: AVE
    kernel_size: 5
    stride: 3
  }
}
layer {
  name: "loss2/conv"
  type: "Convolution"
  bottom: "loss2/ave_pool"
  top: "loss2/conv"
  param {
    lr_mult: 1
    decay_mult: 1
  }
  param {
    lr_mult: 2
    decay_mult: 0
  }
  convolution_param {
    num_output: 128
    kernel_size: 1
    weight_filler {
      type: "xavier"
      std: 0.08
    }
    bias_filler {
      type: "constant"
      value: 0.2
    }
  }
}
layer {
  name: "loss2/relu_conv"
  type: "ReLU"
  bottom: "loss2/conv"
  top: "loss2/conv"
}
layer {
  name: "loss2/fc"
  type: "InnerProduct"
  bottom: "loss2/conv"
  top: "loss2/fc"
  param {
    lr_mult: 1
    decay_mult: 1
  }
  param {
    lr_mult: 2
    decay_mult: 0
  }
  inner_product_param {
    num_output: 1024
    weight_filler {
      type: "xavier"
      std: 0.02
    }
    bias_filler {
      type: "constant"
      value: 0.2
    }
  }
}
layer {
  name: "loss2/relu_fc"
  type: "ReLU"
  bottom: "loss2/fc"
  top: "loss2/fc"
}
layer {
  name: "loss2/drop_fc"
  type: "Dropout"
  bottom: "loss2/fc"
  top: "loss2/fc"
  dropout_param {
    dropout_ratio: 0.7
  }
}
layer {
  name: "loss2/classifier_plantvillage"
  type: "InnerProduct"
  bottom: "loss2/fc"
  top: "loss2/classifier_plantvillage"
  param {
    lr_mult: 1
    decay_mult: 1
  }
  param {
    lr_mult: 2
    decay_mult: 0
  }
  inner_product_param {
    num_output: 38
    weight_filler {
      type: "xavier"
      std: 0.0009765625
    }
    bias_filler {
      type: "constant"
      value: 0
    }
  }
}
layer {
  name: "inception_4e/1x1"
  type: "Convolution"
  bottom: "inception_4d/output"
  top: "inception_4e/1x1"
  param {
    lr_mult: 1
    decay_mult: 1
  }
  param {
    lr_mult: 2
    decay_mult: 0
  }
  convolution_param {
    num_output: 256
    kernel_size: 1
    weight_filler {
      type: "xavier"
      std: 0.03
    }
    bias_filler {
      type: "constant"
      value: 0.2
    }
  }
}
layer {
  name: "inception_4e/relu_1x1"
  type: "ReLU"
  bottom: "inception_4e/1x1"
  top: "inception_4e/1x1"
}
layer {
  name: "inception_4e/3x3_reduce"
  type: "Convolution"
  bottom: "inception_4d/output"
  top: "inception_4e/3x3_reduce"
  param {
    lr_mult: 1
    decay_mult: 1
  }
  param {
    lr_mult: 2
    decay_mult: 0
  }
  convolution_param {
    num_output: 160
    kernel_size: 1
    weight_filler {
      type: "xavier"
      std: 0.09
    }
    bias_filler {
      type: "constant"
      value: 0.2
    }
  }
}
layer {
  name: "inception_4e/relu_3x3_reduce"
  type: "ReLU"
  bottom: "inception_4e/3x3_reduce"
  top: "inception_4e/3x3_reduce"
}
layer {
  name: "inception_4e/3x3"
  type: "Convolution"
  bottom: "inception_4e/3x3_reduce"
  top: "inception_4e/3x3"
  param {
    lr_mult: 1
    decay_mult: 1
  }
  param {
    lr_mult: 2
    decay_mult: 0
  }
  convolution_param {
    num_output: 320
    pad: 1
    kernel_size: 3
    weight_filler {
      type: "xavier"
      std: 0.03
    }
    bias_filler {
      type: "constant"
      value: 0.2
    }
  }
}
layer {
  name: "inception_4e/relu_3x3"
  type: "ReLU"
  bottom: "inception_4e/3x3"
  top: "inception_4e/3x3"
}
layer {
  name: "inception_4e/5x5_reduce"
  type: "Convolution"
  bottom: "inception_4d/output"
  top: "inception_4e/5x5_reduce"
  param {
    lr_mult: 1
    decay_mult: 1
  }
  param {
    lr_mult: 2
    decay_mult: 0
  }
  convolution_param {
    num_output: 32
    kernel_size: 1
    weight_filler {
      type: "xavier"
      std: 0.2
    }
    bias_filler {
      type: "constant"
      value: 0.2
    }
  }
}
layer {
  name: "inception_4e/relu_5x5_reduce"
  type: "ReLU"
  bottom: "inception_4e/5x5_reduce"
  top: "inception_4e/5x5_reduce"
}
layer {
  name: "inception_4e/5x5"
  type: "Convolution"
  bottom: "inception_4e/5x5_reduce"
  top: "inception_4e/
I0403 19:45:48.589012 25808 layer_factory.hpp:77] Creating layer data
I0403 19:45:48.589630 25808 net.cpp:91] Creating Layer data
I0403 19:45:48.589665 25808 net.cpp:399] data -> data
I0403 19:45:48.589733 25808 net.cpp:399] data -> label
I0403 19:45:48.589779 25808 data_transformer.cpp:25] Loading mean file from: /home/mohanty/data/final_dataset/lmdb/grayscale-80-20/mean.binaryproto
I0403 19:45:48.590986 25811 db_lmdb.cpp:38] Opened lmdb /home/mohanty/data/final_dataset/lmdb/grayscale-80-20/test_db
I0403 19:45:48.603823 25808 data_layer.cpp:41] output data size: 24,3,224,224
I0403 19:45:48.631809 25808 net.cpp:141] Setting up data
I0403 19:45:48.631916 25808 net.cpp:148] Top shape: 24 3 224 224 (3612672)
I0403 19:45:48.631939 25808 net.cpp:148] Top shape: 24 (24)
I0403 19:45:48.631955 25808 net.cpp:156] Memory required for data: 14450784
I0403 19:45:48.631989 25808 layer_factory.hpp:77] Creating layer label_data_1_split
I0403 19:45:48.632022 25808 net.cpp:91] Creating Layer label_data_1_split
I0403 19:45:48.632043 25808 net.cpp:425] label_data_1_split <- label
I0403 19:45:48.632081 25808 net.cpp:399] label_data_1_split -> label_data_1_split_0
I0403 19:45:48.632114 25808 net.cpp:399] label_data_1_split -> label_data_1_split_1
I0403 19:45:48.632136 25808 net.cpp:399] label_data_1_split -> label_data_1_split_2
I0403 19:45:48.632158 25808 net.cpp:399] label_data_1_split -> label_data_1_split_3
I0403 19:45:48.632179 25808 net.cpp:399] label_data_1_split -> label_data_1_split_4
I0403 19:45:48.632200 25808 net.cpp:399] label_data_1_split -> label_data_1_split_5
I0403 19:45:48.632220 25808 net.cpp:399] label_data_1_split -> label_data_1_split_6
I0403 19:45:48.632241 25808 net.cpp:399] label_data_1_split -> label_data_1_split_7
I0403 19:45:48.632262 25808 net.cpp:399] label_data_1_split -> label_data_1_split_8
I0403 19:45:48.632282 25808 net.cpp:399] label_data_1_split -> label_data_1_split_9
I0403 19:45:48.632398 25808 net.cpp:141] Setting up label_data_1_split
I0403 19:45:48.632426 25808 net.cpp:148] Top shape: 24 (24)
I0403 19:45:48.632444 25808 net.cpp:148] Top shape: 24 (24)
I0403 19:45:48.632462 25808 net.cpp:148] Top shape: 24 (24)
I0403 19:45:48.632477 25808 net.cpp:148] Top shape: 24 (24)
I0403 19:45:48.632491 25808 net.cpp:148] Top shape: 24 (24)
I0403 19:45:48.632508 25808 net.cpp:148] Top shape: 24 (24)
I0403 19:45:48.632522 25808 net.cpp:148] Top shape: 24 (24)
I0403 19:45:48.632539 25808 net.cpp:148] Top shape: 24 (24)
I0403 19:45:48.632556 25808 net.cpp:148] Top shape: 24 (24)
I0403 19:45:48.632575 25808 net.cpp:148] Top shape: 24 (24)
I0403 19:45:48.632624 25808 net.cpp:156] Memory required for data: 14451744
I0403 19:45:48.632642 25808 layer_factory.hpp:77] Creating layer conv1/7x7_s2
I0403 19:45:48.632679 25808 net.cpp:91] Creating Layer conv1/7x7_s2
I0403 19:45:48.632699 25808 net.cpp:425] conv1/7x7_s2 <- data
I0403 19:45:48.632719 25808 net.cpp:399] conv1/7x7_s2 -> conv1/7x7_s2
I0403 19:45:48.771914 25808 net.cpp:141] Setting up conv1/7x7_s2
I0403 19:45:48.772018 25808 net.cpp:148] Top shape: 24 64 112 112 (19267584)
I0403 19:45:48.772042 25808 net.cpp:156] Memory required for data: 91522080
I0403 19:45:48.772083 25808 layer_factory.hpp:77] Creating layer conv1/relu_7x7
I0403 19:45:48.772119 25808 net.cpp:91] Creating Layer conv1/relu_7x7
I0403 19:45:48.772143 25808 net.cpp:425] conv1/relu_7x7 <- conv1/7x7_s2
I0403 19:45:48.772171 25808 net.cpp:386] conv1/relu_7x7 -> conv1/7x7_s2 (in-place)
I0403 19:45:48.772460 25808 net.cpp:141] Setting up conv1/relu_7x7
I0403 19:45:48.772495 25808 net.cpp:148] Top shape: 24 64 112 112 (19267584)
I0403 19:45:48.772516 25808 net.cpp:156] Memory required for data: 168592416
I0403 19:45:48.772533 25808 layer_factory.hpp:77] Creating layer pool1/3x3_s2
I0403 19:45:48.772563 25808 net.cpp:91] Creating Layer pool1/3x3_s2
I0403 19:45:48.772583 25808 net.cpp:425] pool1/3x3_s2 <- conv1/7x7_s2
I0403 19:45:48.772606 25808 net.cpp:399] pool1/3x3_s2 -> pool1/3x3_s2
I0403 19:45:48.772696 25808 net.cpp:141] Setting up pool1/3x3_s2
I0403 19:45:48.772730 25808 net.cpp:148] Top shape: 24 64 56 56 (4816896)
I0403 19:45:48.772750 25808 net.cpp:156] Memory required for data: 187860000
I0403 19:45:48.772768 25808 layer_factory.hpp:77] Creating layer pool1/norm1
I0403 19:45:48.772799 25808 net.cpp:91] Creating Layer pool1/norm1
I0403 19:45:48.772827 25808 net.cpp:425] pool1/norm1 <- pool1/3x3_s2
I0403 19:45:48.772850 25808 net.cpp:399] pool1/norm1 -> pool1/norm1
I0403 19:45:48.773175 25808 net.cpp:141] Setting up pool1/norm1
I0403 19:45:48.773295 25808 net.cpp:148] Top shape: 24 64 56 56 (4816896)
I0403 19:45:48.773378 25808 net.cpp:156] Memory required for data: 207127584
I0403 19:45:48.773402 25808 layer_factory.hpp:77] Creating layer conv2/3x3_reduce
I0403 19:45:48.773463 25808 net.cpp:91] Creating Layer conv2/3x3_reduce
I0403 19:45:48.773517 25808 net.cpp:425] conv2/3x3_reduce <- pool1/norm1
I0403 19:45:48.773555 25808 net.cpp:399] conv2/3x3_reduce -> conv2/3x3_reduce
I0403 19:45:48.775070 25808 net.cpp:141] Setting up conv2/3x3_reduce
I0403 19:45:48.775110 25808 net.cpp:148] Top shape: 24 64 56 56 (4816896)
I0403 19:45:48.775130 25808 net.cpp:156] Memory required for data: 226395168
I0403 19:45:48.775156 25808 layer_factory.hpp:77] Creating layer conv2/relu_3x3_reduce
I0403 19:45:48.775182 25808 net.cpp:91] Creating Layer conv2/relu_3x3_reduce
I0403 19:45:48.775203 25808 net.cpp:425] conv2/relu_3x3_reduce <- conv2/3x3_reduce
I0403 19:45:48.775224 25808 net.cpp:386] conv2/relu_3x3_reduce -> conv2/3x3_reduce (in-place)
I0403 19:45:48.775514 25808 net.cpp:141] Setting up conv2/relu_3x3_reduce
I0403 19:45:48.775553 25808 net.cpp:148] Top shape: 24 64 56 56 (4816896)
I0403 19:45:48.775583 25808 net.cpp:156] Memory required for data: 245662752
I0403 19:45:48.775600 25808 layer_factory.hpp:77] Creating layer conv2/3x3
I0403 19:45:48.775629 25808 net.cpp:91] Creating Layer conv2/3x3
I0403 19:45:48.775651 25808 net.cpp:425] conv2/3x3 <- conv2/3x3_reduce
I0403 19:45:48.775673 25808 net.cpp:399] conv2/3x3 -> conv2/3x3
I0403 19:45:48.778141 25808 net.cpp:141] Setting up conv2/3x3
I0403 19:45:48.778177 25808 net.cpp:148] Top shape: 24 192 56 56 (14450688)
I0403 19:45:48.778198 25808 net.cpp:156] Memory required for data: 303465504
I0403 19:45:48.778221 25808 layer_factory.hpp:77] Creating layer conv2/relu_3x3
I0403 19:45:48.778245 25808 net.cpp:91] Creating Layer conv2/relu_3x3
I0403 19:45:48.778267 25808 net.cpp:425] conv2/relu_3x3 <- conv2/3x3
I0403 19:45:48.778291 25808 net.cpp:386] conv2/relu_3x3 -> conv2/3x3 (in-place)
I0403 19:45:48.778478 25808 net.cpp:141] Setting up conv2/relu_3x3
I0403 19:45:48.778511 25808 net.cpp:148] Top shape: 24 192 56 56 (14450688)
I0403 19:45:48.778563 25808 net.cpp:156] Memory required for data: 361268256
I0403 19:45:48.778581 25808 layer_factory.hpp:77] Creating layer conv2/norm2
I0403 19:45:48.778602 25808 net.cpp:91] Creating Layer conv2/norm2
I0403 19:45:48.778620 25808 net.cpp:425] conv2/norm2 <- conv2/3x3
I0403 19:45:48.778645 25808 net.cpp:399] conv2/norm2 -> conv2/norm2
I0403 19:45:48.778962 25808 net.cpp:141] Setting up conv2/norm2
I0403 19:45:48.778996 25808 net.cpp:148] Top shape: 24 192 56 56 (14450688)
I0403 19:45:48.779012 25808 net.cpp:156] Memory required for data: 419071008
I0403 19:45:48.779029 25808 layer_factory.hpp:77] Creating layer pool2/3x3_s2
I0403 19:45:48.779049 25808 net.cpp:91] Creating Layer pool2/3x3_s2
I0403 19:45:48.779067 25808 net.cpp:425] pool2/3x3_s2 <- conv2/norm2
I0403 19:45:48.779091 25808 net.cpp:399] pool2/3x3_s2 -> pool2/3x3_s2
I0403 19:45:48.779150 25808 net.cpp:141] Setting up pool2/3x3_s2
I0403 19:45:48.779181 25808 net.cpp:148] Top shape: 24 192 28 28 (3612672)
I0403 19:45:48.779197 25808 net.cpp:156] Memory required for data: 433521696
I0403 19:45:48.779214 25808 layer_factory.hpp:77] Creating layer pool2/3x3_s2_pool2/3x3_s2_0_split
I0403 19:45:48.779234 25808 net.cpp:91] Creating Layer pool2/3x3_s2_pool2/3x3_s2_0_split
I0403 19:45:48.779253 25808 net.cpp:425] pool2/3x3_s2_pool2/3x3_s2_0_split <- pool2/3x3_s2
I0403 19:45:48.779275 25808 net.cpp:399] pool2/3x3_s2_pool2/3x3_s2_0_split -> pool2/3x3_s2_pool2/3x3_s2_0_split_0
I0403 19:45:48.779306 25808 net.cpp:399] pool2/3x3_s2_pool2/3x3_s2_0_split -> pool2/3x3_s2_pool2/3x3_s2_0_split_1
I0403 19:45:48.779332 25808 net.cpp:399] pool2/3x3_s2_pool2/3x3_s2_0_split -> pool2/3x3_s2_pool2/3x3_s2_0_split_2
I0403 19:45:48.779356 25808 net.cpp:399] pool2/3x3_s2_pool2/3x3_s2_0_split -> pool2/3x3_s2_pool2/3x3_s2_0_split_3
I0403 19:45:48.779430 25808 net.cpp:141] Setting up pool2/3x3_s2_pool2/3x3_s2_0_split
I0403 19:45:48.779464 25808 net.cpp:148] Top shape: 24 192 28 28 (3612672)
I0403 19:45:48.779484 25808 net.cpp:148] Top shape: 24 192 28 28 (3612672)
I0403 19:45:48.779502 25808 net.cpp:148] Top shape: 24 192 28 28 (3612672)
I0403 19:45:48.779520 25808 net.cpp:148] Top shape: 24 192 28 28 (3612672)
I0403 19:45:48.779534 25808 net.cpp:156] Memory required for data: 491324448
I0403 19:45:48.779551 25808 layer_factory.hpp:77] Creating layer inception_3a/1x1
I0403 19:45:48.779577 25808 net.cpp:91] Creating Layer inception_3a/1x1
I0403 19:45:48.779598 25808 net.cpp:425] inception_3a/1x1 <- pool2/3x3_s2_pool2/3x3_s2_0_split_0
I0403 19:45:48.779618 25808 net.cpp:399] inception_3a/1x1 -> inception_3a/1x1
I0403 19:45:48.781227 25808 net.cpp:141] Setting up inception_3a/1x1
I0403 19:45:48.781261 25808 net.cpp:148] Top shape: 24 64 28 28 (1204224)
I0403 19:45:48.781280 25808 net.cpp:156] Memory required for data: 496141344
I0403 19:45:48.781307 25808 layer_factory.hpp:77] Creating layer inception_3a/relu_1x1
I0403 19:45:48.781332 25808 net.cpp:91] Creating Layer inception_3a/relu_1x1
I0403 19:45:48.781353 25808 net.cpp:425] inception_3a/relu_1x1 <- inception_3a/1x1
I0403 19:45:48.781373 25808 net.cpp:386] inception_3a/relu_1x1 -> inception_3a/1x1 (in-place)
I0403 19:45:48.781553 25808 net.cpp:141] Setting up inception_3a/relu_1x1
I0403 19:45:48.781585 25808 net.cpp:148] Top shape: 24 64 28 28 (1204224)
I0403 19:45:48.781605 25808 net.cpp:156] Memory required for data: 500958240
I0403 19:45:48.781622 25808 layer_factory.hpp:77] Creating layer inception_3a/3x3_reduce
I0403 19:45:48.781652 25808 net.cpp:91] Creating Layer inception_3a/3x3_reduce
I0403 19:45:48.781675 25808 net.cpp:425] inception_3a/3x3_reduce <- pool2/3x3_s2_pool2/3x3_s2_0_split_1
I0403 19:45:48.781698 25808 net.cpp:399] inception_3a/3x3_reduce -> inception_3a/3x3_reduce
I0403 19:45:48.783439 25808 net.cpp:141] Setting up inception_3a/3x3_reduce
I0403 19:45:48.783473 25808 net.cpp:148] Top shape: 24 96 28 28 (1806336)
I0403 19:45:48.783493 25808 net.cpp:156] Memory required for data: 508183584
I0403 19:45:48.783519 25808 layer_factory.hpp:77] Creating layer inception_3a/relu_3x3_reduce
I0403 19:45:48.783561 25808 net.cpp:91] Creating Layer inception_3a/relu_3x3_reduce
I0403 19:45:48.783583 25808 net.cpp:425] inception_3a/relu_3x3_reduce <- inception_3a/3x3_reduce
I0403 19:45:48.783606 25808 net.cpp:386] inception_3a/relu_3x3_reduce -> inception_3a/3x3_reduce (in-place)
I0403 19:45:48.783799 25808 net.cpp:141] Setting up inception_3a/relu_3x3_reduce
I0403 19:45:48.783833 25808 net.cpp:148] Top shape: 24 96 28 28 (1806336)
I0403 19:45:48.783849 25808 net.cpp:156] Memory required for data: 515408928
I0403 19:45:48.783866 25808 layer_factory.hpp:77] Creating layer inception_3a/3x3
I0403 19:45:48.783891 25808 net.cpp:91] Creating Layer inception_3a/3x3
I0403 19:45:48.783912 25808 net.cpp:425] inception_3a/3x3 <- inception_3a/3x3_reduce
I0403 19:45:48.783938 25808 net.cpp:399] inception_3a/3x3 -> inception_3a/3x3
I0403 19:45:48.785682 25808 net.cpp:141] Setting up inception_3a/3x3
I0403 19:45:48.785717 25808 net.cpp:148] Top shape: 24 128 28 28 (2408448)
I0403 19:45:48.785737 25808 net.cpp:156] Memory required for data: 525042720
I0403 19:45:48.785758 25808 layer_factory.hpp:77] Creating layer inception_3a/relu_3x3
I0403 19:45:48.785779 25808 net.cpp:91] Creating Layer inception_3a/relu_3x3
I0403 19:45:48.785796 25808 net.cpp:425] inception_3a/relu_3x3 <- inception_3a/3x3
I0403 19:45:48.785817 25808 net.cpp:386] inception_3a/relu_3x3 -> inception_3a/3x3 (in-place)
I0403 19:45:48.786108 25808 net.cpp:141] Setting up inception_3a/relu_3x3
I0403 19:45:48.786144 25808 net.cpp:148] Top shape: 24 128 28 28 (2408448)
I0403 19:45:48.786164 25808 net.cpp:156] Memory required for data: 534676512
I0403 19:45:48.786183 25808 layer_factory.hpp:77] Creating layer inception_3a/5x5_reduce
I0403 19:45:48.786208 25808 net.cpp:91] Creating Layer inception_3a/5x5_reduce
I0403 19:45:48.786229 25808 net.cpp:425] inception_3a/5x5_reduce <- pool2/3x3_s2_pool2/3x3_s2_0_split_2
I0403 19:45:48.786252 25808 net.cpp:399] inception_3a/5x5_reduce -> inception_3a/5x5_reduce
I0403 19:45:48.787257 25808 net.cpp:141] Setting up inception_3a/5x5_reduce
I0403 19:45:48.787295 25808 net.cpp:148] Top shape: 24 16 28 28 (301056)
I0403 19:45:48.787318 25808 net.cpp:156] Memory required for data: 535880736
I0403 19:45:48.787340 25808 layer_factory.hpp:77] Creating layer inception_3a/relu_5x5_reduce
I0403 19:45:48.787360 25808 net.cpp:91] Creating Layer inception_3a/relu_5x5_reduce
I0403 19:45:48.787380 25808 net.cpp:425] inception_3a/relu_5x5_reduce <- inception_3a/5x5_reduce
I0403 19:45:48.787402 25808 net.cpp:386] inception_3a/relu_5x5_reduce -> inception_3a/5x5_reduce (in-place)
I0403 19:45:48.787709 25808 net.cpp:141] Setting up inception_3a/relu_5x5_reduce
I0403 19:45:48.787739 25808 net.cpp:148] Top shape: 24 16 28 28 (301056)
I0403 19:45:48.787757 25808 net.cpp:156] Memory required for data: 537084960
I0403 19:45:48.787773 25808 layer_factory.hpp:77] Creating layer inception_3a/5x5
I0403 19:45:48.787798 25808 net.cpp:91] Creating Layer inception_3a/5x5
I0403 19:45:48.787817 25808 net.cpp:425] inception_3a/5x5 <- inception_3a/5x5_reduce
I0403 19:45:48.787842 25808 net.cpp:399] inception_3a/5x5 -> inception_3a/5x5
I0403 19:45:48.788915 25808 net.cpp:141] Setting up inception_3a/5x5
I0403 19:45:48.788946 25808 net.cpp:148] Top shape: 24 32 28 28 (602112)
I0403 19:45:48.788964 25808 net.cpp:156] Memory required for data: 539493408
I0403 19:45:48.788985 25808 layer_factory.hpp:77] Creating layer inception_3a/relu_5x5
I0403 19:45:48.789007 25808 net.cpp:91] Creating Layer inception_3a/relu_5x5
I0403 19:45:48.789027 25808 net.cpp:425] inception_3a/relu_5x5 <- inception_3a/5x5
I0403 19:45:48.789047 25808 net.cpp:386] inception_3a/relu_5x5 -> inception_3a/5x5 (in-place)
I0403 19:45:48.789225 25808 net.cpp:141] Setting up inception_3a/relu_5x5
I0403 19:45:48.789258 25808 net.cpp:148] Top shape: 24 32 28 28 (602112)
I0403 19:45:48.789274 25808 net.cpp:156] Memory required for data: 541901856
I0403 19:45:48.789301 25808 layer_factory.hpp:77] Creating layer inception_3a/pool
I0403 19:45:48.789321 25808 net.cpp:91] Creating Layer inception_3a/pool
I0403 19:45:48.789356 25808 net.cpp:425] inception_3a/pool <- pool2/3x3_s2_pool2/3x3_s2_0_split_3
I0403 19:45:48.789381 25808 net.cpp:399] inception_3a/pool -> inception_3a/pool
I0403 19:45:48.789443 25808 net.cpp:141] Setting up inception_3a/pool
I0403 19:45:48.789470 25808 net.cpp:148] Top shape: 24 192 28 28 (3612672)
I0403 19:45:48.789487 25808 net.cpp:156] Memory required for data: 556352544
I0403 19:45:48.789505 25808 layer_factory.hpp:77] Creating layer inception_3a/pool_proj
I0403 19:45:48.789530 25808 net.cpp:91] Creating Layer inception_3a/pool_proj
I0403 19:45:48.789549 25808 net.cpp:425] inception_3a/pool_proj <- inception_3a/pool
I0403 19:45:48.789573 25808 net.cpp:399] inception_3a/pool_proj -> inception_3a/pool_proj
I0403 19:45:48.790567 25808 net.cpp:141] Setting up inception_3a/pool_proj
I0403 19:45:48.790599 25808 net.cpp:148] Top shape: 24 32 28 28 (602112)
I0403 19:45:48.790617 25808 net.cpp:156] Memory required for data: 558760992
I0403 19:45:48.790644 25808 layer_factory.hpp:77] Creating layer inception_3a/relu_pool_proj
I0403 19:45:48.790668 25808 net.cpp:91] Creating Layer inception_3a/relu_pool_proj
I0403 19:45:48.790686 25808 net.cpp:425] inception_3a/relu_pool_proj <- inception_3a/pool_proj
I0403 19:45:48.790706 25808 net.cpp:386] inception_3a/relu_pool_proj -> inception_3a/pool_proj (in-place)
I0403 19:45:48.790992 25808 net.cpp:141] Setting up inception_3a/relu_pool_proj
I0403 19:45:48.791029 25808 net.cpp:148] Top shape: 24 32 28 28 (602112)
I0403 19:45:48.791049 25808 net.cpp:156] Memory required for data: 561169440
I0403 19:45:48.791064 25808 layer_factory.hpp:77] Creating layer inception_3a/output
I0403 19:45:48.791085 25808 net.cpp:91] Creating Layer inception_3a/output
I0403 19:45:48.791101 25808 net.cpp:425] inception_3a/output <- inception_3a/1x1
I0403 19:45:48.791120 25808 net.cpp:425] inception_3a/output <- inception_3a/3x3
I0403 19:45:48.791138 25808 net.cpp:425] inception_3a/output <- inception_3a/5x5
I0403 19:45:48.791157 25808 net.cpp:425] inception_3a/output <- inception_3a/pool_proj
I0403 19:45:48.791175 25808 net.cpp:399] inception_3a/output -> inception_3a/output
I0403 19:45:48.791229 25808 net.cpp:141] Setting up inception_3a/output
I0403 19:45:48.791260 25808 net.cpp:148] Top shape: 24 256 28 28 (4816896)
I0403 19:45:48.791275 25808 net.cpp:156] Memory required for data: 580437024
I0403 19:45:48.791301 25808 layer_factory.hpp:77] Creating layer inception_3a/output_inception_3a/output_0_split
I0403 19:45:48.791322 25808 net.cpp:91] Creating Layer inception_3a/output_inception_3a/output_0_split
I0403 19:45:48.791343 25808 net.cpp:425] inception_3a/output_inception_3a/output_0_split <- inception_3a/output
I0403 19:45:48.791363 25808 net.cpp:399] inception_3a/output_inception_3a/output_0_split -> inception_3a/output_inception_3a/output_0_split_0
I0403 19:45:48.791383 25808 net.cpp:399] inception_3a/output_inception_3a/output_0_split -> inception_3a/output_inception_3a/output_0_split_1
I0403 19:45:48.791411 25808 net.cpp:399] inception_3a/output_inception_3a/output_0_split -> inception_3a/output_inception_3a/output_0_split_2
I0403 19:45:48.791436 25808 net.cpp:399] inception_3a/output_inception_3a/output_0_split -> inception_3a/output_inception_3a/output_0_split_3
I0403 19:45:48.791514 25808 net.cpp:141] Setting up inception_3a/output_inception_3a/output_0_split
I0403 19:45:48.791543 25808 net.cpp:148] Top shape: 24 256 28 28 (4816896)
I0403 19:45:48.791561 25808 net.cpp:148] Top shape: 24 256 28 28 (4816896)
I0403 19:45:48.791579 25808 net.cpp:148] Top shape: 24 256 28 28 (4816896)
I0403 19:45:48.791595 25808 net.cpp:148] Top shape: 24 256 28 28 (4816896)
I0403 19:45:48.791611 25808 net.cpp:156] Memory required for data: 657507360
I0403 19:45:48.791626 25808 layer_factory.hpp:77] Creating layer inception_3b/1x1
I0403 19:45:48.791651 25808 net.cpp:91] Creating Layer inception_3b/1x1
I0403 19:45:48.791669 25808 net.cpp:425] inception_3b/1x1 <- inception_3a/output_inception_3a/output_0_split_0
I0403 19:45:48.791692 25808 net.cpp:399] inception_3b/1x1 -> inception_3b/1x1
I0403 19:45:48.792896 25808 net.cpp:141] Setting up inception_3b/1x1
I0403 19:45:48.792944 25808 net.cpp:148] Top shape: 24 128 28 28 (2408448)
I0403 19:45:48.792964 25808 net.cpp:156] Memory required for data: 667141152
I0403 19:45:48.792989 25808 layer_factory.hpp:77] Creating layer inception_3b/relu_1x1
I0403 19:45:48.793011 25808 net.cpp:91] Creating Layer inception_3b/relu_1x1
I0403 19:45:48.793041 25808 net.cpp:425] inception_3b/relu_1x1 <- inception_3b/1x1
I0403 19:45:48.793061 25808 net.cpp:386] inception_3b/relu_1x1 -> inception_3b/1x1 (in-place)
I0403 19:45:48.793241 25808 net.cpp:141] Setting up inception_3b/relu_1x1
I0403 19:45:48.793275 25808 net.cpp:148] Top shape: 24 128 28 28 (2408448)
I0403 19:45:48.793301 25808 net.cpp:156] Memory required for data: 676774944
I0403 19:45:48.793319 25808 layer_factory.hpp:77] Creating layer inception_3b/3x3_reduce
I0403 19:45:48.793344 25808 net.cpp:91] Creating Layer inception_3b/3x3_reduce
I0403 19:45:48.793362 25808 net.cpp:425] inception_3b/3x3_reduce <- inception_3a/output_inception_3a/output_0_split_1
I0403 19:45:48.793382 25808 net.cpp:399] inception_3b/3x3_reduce -> inception_3b/3x3_reduce
I0403 19:45:48.794543 25808 net.cpp:141] Setting up inception_3b/3x3_reduce
I0403 19:45:48.794575 25808 net.cpp:148] Top shape: 24 128 28 28 (2408448)
I0403 19:45:48.794594 25808 net.cpp:156] Memory required for data: 686408736
I0403 19:45:48.794612 25808 layer_factory.hpp:77] Creating layer inception_3b/relu_3x3_reduce
I0403 19:45:48.794634 25808 net.cpp:91] Creating Layer inception_3b/relu_3x3_reduce
I0403 19:45:48.794657 25808 net.cpp:425] inception_3b/relu_3x3_reduce <- inception_3b/3x3_reduce
I0403 19:45:48.794677 25808 net.cpp:386] inception_3b/relu_3x3_reduce -> inception_3b/3x3_reduce (in-place)
I0403 19:45:48.794858 25808 net.cpp:141] Setting up inception_3b/relu_3x3_reduce
I0403 19:45:48.794888 25808 net.cpp:148] Top shape: 24 128 28 28 (2408448)
I0403 19:45:48.794905 25808 net.cpp:156] Memory required for data: 696042528
I0403 19:45:48.794922 25808 layer_factory.hpp:77] Creating layer inception_3b/3x3
I0403 19:45:48.794951 25808 net.cpp:91] Creating Layer inception_3b/3x3
I0403 19:45:48.794973 25808 net.cpp:425] inception_3b/3x3 <- inception_3b/3x3_reduce
I0403 19:45:48.794998 25808 net.cpp:399] inception_3b/3x3 -> inception_3b/3x3
I0403 19:45:48.798007 25808 net.cpp:141] Setting up inception_3b/3x3
I0403 19:45:48.798043 25808 net.cpp:148] Top shape: 24 192 28 28 (3612672)
I0403 19:45:48.798063 25808 net.cpp:156] Memory required for data: 710493216
I0403 19:45:48.798082 25808 layer_factory.hpp:77] Creating layer inception_3b/relu_3x3
I0403 19:45:48.798104 25808 net.cpp:91] Creating Layer inception_3b/relu_3x3
I0403 19:45:48.798122 25808 net.cpp:425] inception_3b/relu_3x3 <- inception_3b/3x3
I0403 19:45:48.798141 25808 net.cpp:386] inception_3b/relu_3x3 -> inception_3b/3x3 (in-place)
I0403 19:45:48.798429 25808 net.cpp:141] Setting up inception_3b/relu_3x3
I0403 19:45:48.798465 25808 net.cpp:148] Top shape: 24 192 28 28 (3612672)
I0403 19:45:48.798486 25808 net.cpp:156] Memory required for data: 724943904
I0403 19:45:48.798502 25808 layer_factory.hpp:77] Creating layer inception_3b/5x5_reduce
I0403 19:45:48.798527 25808 net.cpp:91] Creating Layer inception_3b/5x5_reduce
I0403 19:45:48.798550 25808 net.cpp:425] inception_3b/5x5_reduce <- inception_3a/output_inception_3a/output_0_split_2
I0403 19:45:48.798573 25808 net.cpp:399] inception_3b/5x5_reduce -> inception_3b/5x5_reduce
I0403 19:45:48.799588 25808 net.cpp:141] Setting up inception_3b/5x5_reduce
I0403 19:45:48.799621 25808 net.cpp:148] Top shape: 24 32 28 28 (602112)
I0403 19:45:48.799646 25808 net.cpp:156] Memory required for data: 727352352
I0403 19:45:48.799669 25808 layer_factory.hpp:77] Creating layer inception_3b/relu_5x5_reduce
I0403 19:45:48.799690 25808 net.cpp:91] Creating Layer inception_3b/relu_5x5_reduce
I0403 19:45:48.799710 25808 net.cpp:425] inception_3b/relu_5x5_reduce <- inception_3b/5x5_reduce
I0403 19:45:48.799731 25808 net.cpp:386] inception_3b/relu_5x5_reduce -> inception_3b/5x5_reduce (in-place)
I0403 19:45:48.799943 25808 net.cpp:141] Setting up inception_3b/relu_5x5_reduce
I0403 19:45:48.799976 25808 net.cpp:148] Top shape: 24 32 28 28 (602112)
I0403 19:45:48.799994 25808 net.cpp:156] Memory required for data: 729760800
I0403 19:45:48.800011 25808 layer_factory.hpp:77] Creating layer inception_3b/5x5
I0403 19:45:48.800036 25808 net.cpp:91] Creating Layer inception_3b/5x5
I0403 19:45:48.800055 25808 net.cpp:425] inception_3b/5x5 <- inception_3b/5x5_reduce
I0403 19:45:48.800076 25808 net.cpp:399] inception_3b/5x5 -> inception_3b/5x5
I0403 19:45:48.802088 25808 net.cpp:141] Setting up inception_3b/5x5
I0403 19:45:48.802124 25808 net.cpp:148] Top shape: 24 96 28 28 (1806336)
I0403 19:45:48.802141 25808 net.cpp:156] Memory required for data: 736986144
I0403 19:45:48.802162 25808 layer_factory.hpp:77] Creating layer inception_3b/relu_5x5
I0403 19:45:48.802186 25808 net.cpp:91] Creating Layer inception_3b/relu_5x5
I0403 19:45:48.802203 25808 net.cpp:425] inception_3b/relu_5x5 <- inception_3b/5x5
I0403 19:45:48.802223 25808 net.cpp:386] inception_3b/relu_5x5 -> inception_3b/5x5 (in-place)
I0403 19:45:48.802433 25808 net.cpp:141] Setting up inception_3b/relu_5x5
I0403 19:45:48.802464 25808 net.cpp:148] Top shape: 24 96 28 28 (1806336)
I0403 19:45:48.802484 25808 net.cpp:156] Memory required for data: 744211488
I0403 19:45:48.802500 25808 layer_factory.hpp:77] Creating layer inception_3b/pool
I0403 19:45:48.802520 25808 net.cpp:91] Creating Layer inception_3b/pool
I0403 19:45:48.802536 25808 net.cpp:425] inception_3b/pool <- inception_3a/output_inception_3a/output_0_split_3
I0403 19:45:48.802556 25808 net.cpp:399] inception_3b/pool -> inception_3b/pool
I0403 19:45:48.802613 25808 net.cpp:141] Setting up inception_3b/pool
I0403 19:45:48.802644 25808 net.cpp:148] Top shape: 24 256 28 28 (4816896)
I0403 19:45:48.802661 25808 net.cpp:156] Memory required for data: 763479072
I0403 19:45:48.802676 25808 layer_factory.hpp:77] Creating layer inception_3b/pool_proj
I0403 19:45:48.802701 25808 net.cpp:91] Creating Layer inception_3b/pool_proj
I0403 19:45:48.802721 25808 net.cpp:425] inception_3b/pool_proj <- inception_3b/pool
I0403 19:45:48.802743 25808 net.cpp:399] inception_3b/pool_proj -> inception_3b/pool_proj
I0403 19:45:48.803823 25808 net.cpp:141] Setting up inception_3b/pool_proj
I0403 19:45:48.803860 25808 net.cpp:148] Top shape: 24 64 28 28 (1204224)
I0403 19:45:48.803880 25808 net.cpp:156] Memory required for data: 768295968
I0403 19:45:48.803900 25808 layer_factory.hpp:77] Creating layer inception_3b/relu_pool_proj
I0403 19:45:48.803921 25808 net.cpp:91] Creating Layer inception_3b/relu_pool_proj
I0403 19:45:48.803939 25808 net.cpp:425] inception_3b/relu_pool_proj <- inception_3b/pool_proj
I0403 19:45:48.803961 25808 net.cpp:386] inception_3b/relu_pool_proj -> inception_3b/pool_proj (in-place)
I0403 19:45:48.804361 25808 net.cpp:141] Setting up inception_3b/relu_pool_proj
I0403 19:45:48.804399 25808 net.cpp:148] Top shape: 24 64 28 28 (1204224)
I0403 19:45:48.804416 25808 net.cpp:156] Memory required for data: 773112864
I0403 19:45:48.804431 25808 layer_factory.hpp:77] Creating layer inception_3b/output
I0403 19:45:48.804450 25808 net.cpp:91] Creating Layer inception_3b/output
I0403 19:45:48.804467 25808 net.cpp:425] inception_3b/output <- inception_3b/1x1
I0403 19:45:48.804486 25808 net.cpp:425] inception_3b/output <- inception_3b/3x3
I0403 19:45:48.804504 25808 net.cpp:425] inception_3b/output <- inception_3b/5x5
I0403 19:45:48.804522 25808 net.cpp:425] inception_3b/output <- inception_3b/pool_proj
I0403 19:45:48.804540 25808 net.cpp:399] inception_3b/output -> inception_3b/output
I0403 19:45:48.804587 25808 net.cpp:141] Setting up inception_3b/output
I0403 19:45:48.804616 25808 net.cpp:148] Top shape: 24 480 28 28 (9031680)
I0403 19:45:48.804632 25808 net.cpp:156] Memory required for data: 809239584
I0403 19:45:48.804649 25808 layer_factory.hpp:77] Creating layer pool3/3x3_s2
I0403 19:45:48.804672 25808 net.cpp:91] Creating Layer pool3/3x3_s2
I0403 19:45:48.804692 25808 net.cpp:425] pool3/3x3_s2 <- inception_3b/output
I0403 19:45:48.804730 25808 net.cpp:399] pool3/3x3_s2 -> pool3/3x3_s2
I0403 19:45:48.804796 25808 net.cpp:141] Setting up pool3/3x3_s2
I0403 19:45:48.804824 25808 net.cpp:148] Top shape: 24 480 14 14 (2257920)
I0403 19:45:48.804841 25808 net.cpp:156] Memory required for data: 818271264
I0403 19:45:48.804858 25808 layer_factory.hpp:77] Creating layer pool3/3x3_s2_pool3/3x3_s2_0_split
I0403 19:45:48.804877 25808 net.cpp:91] Creating Layer pool3/3x3_s2_pool3/3x3_s2_0_split
I0403 19:45:48.804893 25808 net.cpp:425] pool3/3x3_s2_pool3/3x3_s2_0_split <- pool3/3x3_s2
I0403 19:45:48.804915 25808 net.cpp:399] pool3/3x3_s2_pool3/3x3_s2_0_split -> pool3/3x3_s2_pool3/3x3_s2_0_split_0
I0403 19:45:48.804939 25808 net.cpp:399] pool3/3x3_s2_pool3/3x3_s2_0_split -> pool3/3x3_s2_pool3/3x3_s2_0_split_1
I0403 19:45:48.804961 25808 net.cpp:399] pool3/3x3_s2_pool3/3x3_s2_0_split -> pool3/3x3_s2_pool3/3x3_s2_0_split_2
I0403 19:45:48.804983 25808 net.cpp:399] pool3/3x3_s2_pool3/3x3_s2_0_split -> pool3/3x3_s2_pool3/3x3_s2_0_split_3
I0403 19:45:48.805064 25808 net.cpp:141] Setting up pool3/3x3_s2_pool3/3x3_s2_0_split
I0403 19:45:48.805097 25808 net.cpp:148] Top shape: 24 480 14 14 (2257920)
I0403 19:45:48.805117 25808 net.cpp:148] Top shape: 24 480 14 14 (2257920)
I0403 19:45:48.805135 25808 net.cpp:148] Top shape: 24 480 14 14 (2257920)
I0403 19:45:48.805152 25808 net.cpp:148] Top shape: 24 480 14 14 (2257920)
I0403 19:45:48.805168 25808 net.cpp:156] Memory required for data: 854397984
I0403 19:45:48.805186 25808 layer_factory.hpp:77] Creating layer inception_4a/1x1
I0403 19:45:48.805208 25808 net.cpp:91] Creating Layer inception_4a/1x1
I0403 19:45:48.805227 25808 net.cpp:425] inception_4a/1x1 <- pool3/3x3_s2_pool3/3x3_s2_0_split_0
I0403 19:45:48.805248 25808 net.cpp:399] inception_4a/1x1 -> inception_4a/1x1
I0403 19:45:48.806879 25808 net.cpp:141] Setting up inception_4a/1x1
I0403 19:45:48.806911 25808 net.cpp:148] Top shape: 24 192 14 14 (903168)
I0403 19:45:48.806931 25808 net.cpp:156] Memory required for data: 858010656
I0403 19:45:48.806952 25808 layer_factory.hpp:77] Creating layer inception_4a/relu_1x1
I0403 19:45:48.806987 25808 net.cpp:91] Creating Layer inception_4a/relu_1x1
I0403 19:45:48.807009 25808 net.cpp:425] inception_4a/relu_1x1 <- inception_4a/1x1
I0403 19:45:48.807029 25808 net.cpp:386] inception_4a/relu_1x1 -> inception_4a/1x1 (in-place)
I0403 19:45:48.807209 25808 net.cpp:141] Setting up inception_4a/relu_1x1
I0403 19:45:48.807240 25808 net.cpp:148] Top shape: 24 192 14 14 (903168)
I0403 19:45:48.807256 25808 net.cpp:156] Memory required for data: 861623328
I0403 19:45:48.807274 25808 layer_factory.hpp:77] Creating layer inception_4a/3x3_reduce
I0403 19:45:48.807306 25808 net.cpp:91] Creating Layer inception_4a/3x3_reduce
I0403 19:45:48.807327 25808 net.cpp:425] inception_4a/3x3_reduce <- pool3/3x3_s2_pool3/3x3_s2_0_split_1
I0403 19:45:48.807350 25808 net.cpp:399] inception_4a/3x3_reduce -> inception_4a/3x3_reduce
I0403 19:45:48.808717 25808 net.cpp:141] Setting up inception_4a/3x3_reduce
I0403 19:45:48.808750 25808 net.cpp:148] Top shape: 24 96 14 14 (451584)
I0403 19:45:48.808768 25808 net.cpp:156] Memory required for data: 863429664
I0403 19:45:48.808794 25808 layer_factory.hpp:77] Creating layer inception_4a/relu_3x3_reduce
I0403 19:45:48.808816 25808 net.cpp:91] Creating Layer inception_4a/relu_3x3_reduce
I0403 19:45:48.808835 25808 net.cpp:425] inception_4a/relu_3x3_reduce <- inception_4a/3x3_reduce
I0403 19:45:48.808857 25808 net.cpp:386] inception_4a/relu_3x3_reduce -> inception_4a/3x3_reduce (in-place)
I0403 19:45:48.809042 25808 net.cpp:141] Setting up inception_4a/relu_3x3_reduce
I0403 19:45:48.809072 25808 net.cpp:148] Top shape: 24 96 14 14 (451584)
I0403 19:45:48.809087 25808 net.cpp:156] Memory required for data: 865236000
I0403 19:45:48.809104 25808 layer_factory.hpp:77] Creating layer inception_4a/3x3
I0403 19:45:48.809129 25808 net.cpp:91] Creating Layer inception_4a/3x3
I0403 19:45:48.809149 25808 net.cpp:425] inception_4a/3x3 <- inception_4a/3x3_reduce
I0403 19:45:48.809175 25808 net.cpp:399] inception_4a/3x3 -> inception_4a/3x3
I0403 19:45:48.811964 25808 net.cpp:141] Setting up inception_4a/3x3
I0403 19:45:48.812000 25808 net.cpp:148] Top shape: 24 208 14 14 (978432)
I0403 19:45:48.812018 25808 net.cpp:156] Memory required for data: 869149728
I0403 19:45:48.812041 25808 layer_factory.hpp:77] Creating layer inception_4a/relu_3x3
I0403 19:45:48.812064 25808 net.cpp:91] Creating Layer inception_4a/relu_3x3
I0403 19:45:48.812083 25808 net.cpp:425] inception_4a/relu_3x3 <- inception_4a/3x3
I0403 19:45:48.812103 25808 net.cpp:386] inception_4a/relu_3x3 -> inception_4a/3x3 (in-place)
I0403 19:45:48.812391 25808 net.cpp:141] Setting up inception_4a/relu_3x3
I0403 19:45:48.812423 25808 net.cpp:148] Top shape: 24 208 14 14 (978432)
I0403 19:45:48.812441 25808 net.cpp:156] Memory required for data: 873063456
I0403 19:45:48.812458 25808 layer_factory.hpp:77] Creating layer inception_4a/5x5_reduce
I0403 19:45:48.812484 25808 net.cpp:91] Creating Layer inception_4a/5x5_reduce
I0403 19:45:48.812507 25808 net.cpp:425] inception_4a/5x5_reduce <- pool3/3x3_s2_pool3/3x3_s2_0_split_2
I0403 19:45:48.812530 25808 net.cpp:399] inception_4a/5x5_reduce -> inception_4a/5x5_reduce
I0403 19:45:48.813576 25808 net.cpp:141] Setting up inception_4a/5x5_reduce
I0403 19:45:48.813611 25808 net.cpp:148] Top shape: 24 16 14 14 (75264)
I0403 19:45:48.813628 25808 net.cpp:156] Memory required for data: 873364512
I0403 19:45:48.813649 25808 layer_factory.hpp:77] Creating layer inception_4a/relu_5x5_reduce
I0403 19:45:48.813674 25808 net.cpp:91] Creating Layer inception_4a/relu_5x5_reduce
I0403 19:45:48.813695 25808 net.cpp:425] inception_4a/relu_5x5_reduce <- inception_4a/5x5_reduce
I0403 19:45:48.813717 25808 net.cpp:386] inception_4a/relu_5x5_reduce -> inception_4a/5x5_reduce (in-place)
I0403 19:45:48.813901 25808 net.cpp:141] Setting up inception_4a/relu_5x5_reduce
I0403 19:45:48.813938 25808 net.cpp:148] Top shape: 24 16 14 14 (75264)
I0403 19:45:48.813958 25808 net.cpp:156] Memory required for data: 873665568
I0403 19:45:48.813976 25808 layer_factory.hpp:77] Creating layer inception_4a/5x5
I0403 19:45:48.814002 25808 net.cpp:91] Creating Layer inception_4a/5x5
I0403 19:45:48.814020 25808 net.cpp:425] inception_4a/5x5 <- inception_4a/5x5_reduce
I0403 19:45:48.814040 25808 net.cpp:399] inception_4a/5x5 -> inception_4a/5x5
I0403 19:45:48.815182 25808 net.cpp:141] Setting up inception_4a/5x5
I0403 19:45:48.815217 25808 net.cpp:148] Top shape: 24 48 14 14 (225792)
I0403 19:45:48.815248 25808 net.cpp:156] Memory required for data: 874568736
I0403 19:45:48.815270 25808 layer_factory.hpp:77] Creating layer inception_4a/relu_5x5
I0403 19:45:48.815296 25808 net.cpp:91] Creating Layer inception_4a/relu_5x5
I0403 19:45:48.815317 25808 net.cpp:425] inception_4a/relu_5x5 <- inception_4a/5x5
I0403 19:45:48.815341 25808 net.cpp:386] inception_4a/relu_5x5 -> inception_4a/5x5 (in-place)
I0403 19:45:48.815532 25808 net.cpp:141] Setting up inception_4a/relu_5x5
I0403 19:45:48.815565 25808 net.cpp:148] Top shape: 24 48 14 14 (225792)
I0403 19:45:48.815584 25808 net.cpp:156] Memory required for data: 875471904
I0403 19:45:48.815603 25808 layer_factory.hpp:77] Creating layer inception_4a/pool
I0403 19:45:48.815623 25808 net.cpp:91] Creating Layer inception_4a/pool
I0403 19:45:48.815655 25808 net.cpp:425] inception_4a/pool <- pool3/3x3_s2_pool3/3x3_s2_0_split_3
I0403 19:45:48.815675 25808 net.cpp:399] inception_4a/pool -> inception_4a/pool
I0403 19:45:48.815739 25808 net.cpp:141] Setting up inception_4a/pool
I0403 19:45:48.815768 25808 net.cpp:148] Top shape: 24 480 14 14 (2257920)
I0403 19:45:48.815783 25808 net.cpp:156] Memory required for data: 884503584
I0403 19:45:48.815799 25808 layer_factory.hpp:77] Creating layer inception_4a/pool_proj
I0403 19:45:48.815824 25808 net.cpp:91] Creating Layer inception_4a/pool_proj
I0403 19:45:48.815843 25808 net.cpp:425] inception_4a/pool_proj <- inception_4a/pool
I0403 19:45:48.815866 25808 net.cpp:399] inception_4a/pool_proj -> inception_4a/pool_proj
I0403 19:45:48.817090 25808 net.cpp:141] Setting up inception_4a/pool_proj
I0403 19:45:48.817122 25808 net.cpp:148] Top shape: 24 64 14 14 (301056)
I0403 19:45:48.817160 25808 net.cpp:156] Memory required for data: 885707808
I0403 19:45:48.817183 25808 layer_factory.hpp:77] Creating layer inception_4a/relu_pool_proj
I0403 19:45:48.817203 25808 net.cpp:91] Creating Layer inception_4a/relu_pool_proj
I0403 19:45:48.817220 25808 net.cpp:425] inception_4a/relu_pool_proj <- inception_4a/pool_proj
I0403 19:45:48.817255 25808 net.cpp:386] inception_4a/relu_pool_proj -> inception_4a/pool_proj (in-place)
I0403 19:45:48.817558 25808 net.cpp:141] Setting up inception_4a/relu_pool_proj
I0403 19:45:48.817603 25808 net.cpp:148] Top shape: 24 64 14 14 (301056)
I0403 19:45:48.817620 25808 net.cpp:156] Memory required for data: 886912032
I0403 19:45:48.817636 25808 layer_factory.hpp:77] Creating layer inception_4a/output
I0403 19:45:48.817656 25808 net.cpp:91] Creating Layer inception_4a/output
I0403 19:45:48.817673 25808 net.cpp:425] inception_4a/output <- inception_4a/1x1
I0403 19:45:48.817692 25808 net.cpp:425] inception_4a/output <- inception_4a/3x3
I0403 19:45:48.817709 25808 net.cpp:425] inception_4a/output <- inception_4a/5x5
I0403 19:45:48.817728 25808 net.cpp:425] inception_4a/output <- inception_4a/pool_proj
I0403 19:45:48.817749 25808 net.cpp:399] inception_4a/output -> inception_4a/output
I0403 19:45:48.817797 25808 net.cpp:141] Setting up inception_4a/output
I0403 19:45:48.817828 25808 net.cpp:148] Top shape: 24 512 14 14 (2408448)
I0403 19:45:48.817847 25808 net.cpp:156] Memory required for data: 896545824
I0403 19:45:48.817864 25808 layer_factory.hpp:77] Creating layer inception_4a/output_inception_4a/output_0_split
I0403 19:45:48.817884 25808 net.cpp:91] Creating Layer inception_4a/output_inception_4a/output_0_split
I0403 19:45:48.817900 25808 net.cpp:425] inception_4a/output_inception_4a/output_0_split <- inception_4a/output
I0403 19:45:48.817919 25808 net.cpp:399] inception_4a/output_inception_4a/output_0_split -> inception_4a/output_inception_4a/output_0_split_0
I0403 19:45:48.817945 25808 net.cpp:399] inception_4a/output_inception_4a/output_0_split -> inception_4a/output_inception_4a/output_0_split_1
I0403 19:45:48.817970 25808 net.cpp:399] inception_4a/output_inception_4a/output_0_split -> inception_4a/output_inception_4a/output_0_split_2
I0403 19:45:48.817993 25808 net.cpp:399] inception_4a/output_inception_4a/output_0_split -> inception_4a/output_inception_4a/output_0_split_3
I0403 19:45:48.818016 25808 net.cpp:399] inception_4a/output_inception_4a/output_0_split -> inception_4a/output_inception_4a/output_0_split_4
I0403 19:45:48.818109 25808 net.cpp:141] Setting up inception_4a/output_inception_4a/output_0_split
I0403 19:45:48.818138 25808 net.cpp:148] Top shape: 24 512 14 14 (2408448)
I0403 19:45:48.818157 25808 net.cpp:148] Top shape: 24 512 14 14 (2408448)
I0403 19:45:48.818178 25808 net.cpp:148] Top shape: 24 512 14 14 (2408448)
I0403 19:45:48.818197 25808 net.cpp:148] Top shape: 24 512 14 14 (2408448)
I0403 19:45:48.818213 25808 net.cpp:148] Top shape: 24 512 14 14 (2408448)
I0403 19:45:48.818230 25808 net.cpp:156] Memory required for data: 944714784
I0403 19:45:48.818245 25808 layer_factory.hpp:77] Creating layer loss1/ave_pool
I0403 19:45:48.818266 25808 net.cpp:91] Creating Layer loss1/ave_pool
I0403 19:45:48.818284 25808 net.cpp:425] loss1/ave_pool <- inception_4a/output_inception_4a/output_0_split_0
I0403 19:45:48.818311 25808 net.cpp:399] loss1/ave_pool -> loss1/ave_pool
I0403 19:45:48.818532 25808 net.cpp:141] Setting up loss1/ave_pool
I0403 19:45:48.818562 25808 net.cpp:148] Top shape: 24 512 4 4 (196608)
I0403 19:45:48.818580 25808 net.cpp:156] Memory required for data: 945501216
I0403 19:45:48.818596 25808 layer_factory.hpp:77] Creating layer loss1/conv
I0403 19:45:48.818621 25808 net.cpp:91] Creating Layer loss1/conv
I0403 19:45:48.818641 25808 net.cpp:425] loss1/conv <- loss1/ave_pool
I0403 19:45:48.818665 25808 net.cpp:399] loss1/conv -> loss1/conv
I0403 19:45:48.820133 25808 net.cpp:141] Setting up loss1/conv
I0403 19:45:48.820166 25808 net.cpp:148] Top shape: 24 128 4 4 (49152)
I0403 19:45:48.820201 25808 net.cpp:156] Memory required for data: 945697824
I0403 19:45:48.820224 25808 layer_factory.hpp:77] Creating layer loss1/relu_conv
I0403 19:45:48.820247 25808 net.cpp:91] Creating Layer loss1/relu_conv
I0403 19:45:48.820267 25808 net.cpp:425] loss1/relu_conv <- loss1/conv
I0403 19:45:48.820293 25808 net.cpp:386] loss1/relu_conv -> loss1/conv (in-place)
I0403 19:45:48.820606 25808 net.cpp:141] Setting up loss1/relu_conv
I0403 19:45:48.820639 25808 net.cpp:148] Top shape: 24 128 4 4 (49152)
I0403 19:45:48.820669 25808 net.cpp:156] Memory required for data: 945894432
I0403 19:45:48.820688 25808 layer_factory.hpp:77] Creating layer loss1/fc
I0403 19:45:48.820719 25808 net.cpp:91] Creating Layer loss1/fc
I0403 19:45:48.820739 25808 net.cpp:425] loss1/fc <- loss1/conv
I0403 19:45:48.820760 25808 net.cpp:399] loss1/fc -> loss1/fc
I0403 19:45:48.838948 25808 net.cpp:141] Setting up loss1/fc
I0403 19:45:48.838989 25808 net.cpp:148] Top shape: 24 1024 (24576)
I0403 19:45:48.839010 25808 net.cpp:156] Memory required for data: 945992736
I0403 19:45:48.839046 25808 layer_factory.hpp:77] Creating layer loss1/relu_fc
I0403 19:45:48.839067 25808 net.cpp:91] Creating Layer loss1/relu_fc
I0403 19:45:48.839087 25808 net.cpp:425] loss1/relu_fc <- loss1/fc
I0403 19:45:48.839107 25808 net.cpp:386] loss1/relu_fc -> loss1/fc (in-place)
I0403 19:45:48.839306 25808 net.cpp:141] Setting up loss1/relu_fc
I0403 19:45:48.839347 25808 net.cpp:148] Top shape: 24 1024 (24576)
I0403 19:45:48.839365 25808 net.cpp:156] Memory required for data: 946091040
I0403 19:45:48.839381 25808 layer_factory.hpp:77] Creating layer loss1/drop_fc
I0403 19:45:48.839413 25808 net.cpp:91] Creating Layer loss1/drop_fc
I0403 19:45:48.839434 25808 net.cpp:425] loss1/drop_fc <- loss1/fc
I0403 19:45:48.839452 25808 net.cpp:386] loss1/drop_fc -> loss1/fc (in-place)
I0403 19:45:48.839509 25808 net.cpp:141] Setting up loss1/drop_fc
I0403 19:45:48.839540 25808 net.cpp:148] Top shape: 24 1024 (24576)
I0403 19:45:48.839558 25808 net.cpp:156] Memory required for data: 946189344
I0403 19:45:48.839576 25808 layer_factory.hpp:77] Creating layer loss1/classifier_plantvillage
I0403 19:45:48.839594 25808 net.cpp:91] Creating Layer loss1/classifier_plantvillage
I0403 19:45:48.839612 25808 net.cpp:425] loss1/classifier_plantvillage <- loss1/fc
I0403 19:45:48.839633 25808 net.cpp:399] loss1/classifier_plantvillage -> loss1/classifier_plantvillage
I0403 19:45:48.840558 25808 net.cpp:141] Setting up loss1/classifier_plantvillage
I0403 19:45:48.840590 25808 net.cpp:148] Top shape: 24 38 (912)
I0403 19:45:48.840607 25808 net.cpp:156] Memory required for data: 946192992
I0403 19:45:48.840627 25808 layer_factory.hpp:77] Creating layer loss1/classifier_plantvillage_loss1/classifier_plantvillage_0_split
I0403 19:45:48.840648 25808 net.cpp:91] Creating Layer loss1/classifier_plantvillage_loss1/classifier_plantvillage_0_split
I0403 19:45:48.840667 25808 net.cpp:425] loss1/classifier_plantvillage_loss1/classifier_plantvillage_0_split <- loss1/classifier_plantvillage
I0403 19:45:48.840687 25808 net.cpp:399] loss1/classifier_plantvillage_loss1/classifier_plantvillage_0_split -> loss1/classifier_plantvillage_loss1/classifier_plantvillage_0_split_0
I0403 19:45:48.840708 25808 net.cpp:399] loss1/classifier_plantvillage_loss1/classifier_plantvillage_0_split -> loss1/classifier_plantvillage_loss1/classifier_plantvillage_0_split_1
I0403 19:45:48.840731 25808 net.cpp:399] loss1/classifier_plantvillage_loss1/classifier_plantvillage_0_split -> loss1/classifier_plantvillage_loss1/classifier_plantvillage_0_split_2
I0403 19:45:48.840800 25808 net.cpp:141] Setting up loss1/classifier_plantvillage_loss1/classifier_plantvillage_0_split
I0403 19:45:48.840831 25808 net.cpp:148] Top shape: 24 38 (912)
I0403 19:45:48.840852 25808 net.cpp:148] Top shape: 24 38 (912)
I0403 19:45:48.840868 25808 net.cpp:148] Top shape: 24 38 (912)
I0403 19:45:48.840883 25808 net.cpp:156] Memory required for data: 946203936
I0403 19:45:48.840899 25808 layer_factory.hpp:77] Creating layer inception_4b/1x1
I0403 19:45:48.840922 25808 net.cpp:91] Creating Layer inception_4b/1x1
I0403 19:45:48.840958 25808 net.cpp:425] inception_4b/1x1 <- inception_4a/output_inception_4a/output_0_split_1
I0403 19:45:48.840983 25808 net.cpp:399] inception_4b/1x1 -> inception_4b/1x1
I0403 19:45:48.842604 25808 net.cpp:141] Setting up inception_4b/1x1
I0403 19:45:48.842636 25808 net.cpp:148] Top shape: 24 160 14 14 (752640)
I0403 19:45:48.842654 25808 net.cpp:156] Memory required for data: 949214496
I0403 19:45:48.842675 25808 layer_factory.hpp:77] Creating layer inception_4b/relu_1x1
I0403 19:45:48.842695 25808 net.cpp:91] Creating Layer inception_4b/relu_1x1
I0403 19:45:48.842715 25808 net.cpp:425] inception_4b/relu_1x1 <- inception_4b/1x1
I0403 19:45:48.842735 25808 net.cpp:386] inception_4b/relu_1x1 -> inception_4b/1x1 (in-place)
I0403 19:45:48.842913 25808 net.cpp:141] Setting up inception_4b/relu_1x1
I0403 19:45:48.842943 25808 net.cpp:148] Top shape: 24 160 14 14 (752640)
I0403 19:45:48.842962 25808 net.cpp:156] Memory required for data: 952225056
I0403 19:45:48.842979 25808 layer_factory.hpp:77] Creating layer inception_4b/3x3_reduce
I0403 19:45:48.843003 25808 net.cpp:91] Creating Layer inception_4b/3x3_reduce
I0403 19:45:48.843022 25808 net.cpp:425] inception_4b/3x3_reduce <- inception_4a/output_inception_4a/output_0_split_2
I0403 19:45:48.843042 25808 net.cpp:399] inception_4b/3x3_reduce -> inception_4b/3x3_reduce
I0403 19:45:48.844398 25808 net.cpp:141] Setting up inception_4b/3x3_reduce
I0403 19:45:48.844434 25808 net.cpp:148] Top shape: 24 112 14 14 (526848)
I0403 19:45:48.844454 25808 net.cpp:156] Memory required for data: 954332448
I0403 19:45:48.844475 25808 layer_factory.hpp:77] Creating layer inception_4b/relu_3x3_reduce
I0403 19:45:48.844492 25808 net.cpp:91] Creating Layer inception_4b/relu_3x3_reduce
I0403 19:45:48.844509 25808 net.cpp:425] inception_4b/relu_3x3_reduce <- inception_4b/3x3_reduce
I0403 19:45:48.844530 25808 net.cpp:386] inception_4b/relu_3x3_reduce -> inception_4b/3x3_reduce (in-place)
I0403 19:45:48.844808 25808 net.cpp:141] Setting up inception_4b/relu_3x3_reduce
I0403 19:45:48.844843 25808 net.cpp:148] Top shape: 24 112 14 14 (526848)
I0403 19:45:48.844862 25808 net.cpp:156] Memory required for data: 956439840
I0403 19:45:48.844879 25808 layer_factory.hpp:77] Creating layer inception_4b/3x3
I0403 19:45:48.844902 25808 net.cpp:91] Creating Layer inception_4b/3x3
I0403 19:45:48.844923 25808 net.cpp:425] inception_4b/3x3 <- inception_4b/3x3_reduce
I0403 19:45:48.844944 25808 net.cpp:399] inception_4b/3x3 -> inception_4b/3x3
I0403 19:45:48.847926 25808 net.cpp:141] Setting up inception_4b/3x3
I0403 19:45:48.847959 25808 net.cpp:148] Top shape: 24 224 14 14 (1053696)
I0403 19:45:48.847977 25808 net.cpp:156] Memory required for data: 960654624
I0403 19:45:48.847997 25808 layer_factory.hpp:77] Creating layer inception_4b/relu_3x3
I0403 19:45:48.848019 25808 net.cpp:91] Creating Layer inception_4b/relu_3x3
I0403 19:45:48.848038 25808 net.cpp:425] inception_4b/relu_3x3 <- inception_4b/3x3
I0403 19:45:48.848058 25808 net.cpp:386] inception_4b/relu_3x3 -> inception_4b/3x3 (in-place)
I0403 19:45:48.848237 25808 net.cpp:141] Setting up inception_4b/relu_3x3
I0403 19:45:48.848268 25808 net.cpp:148] Top shape: 24 224 14 14 (1053696)
I0403 19:45:48.848285 25808 net.cpp:156] Memory required for data: 964869408
I0403 19:45:48.848309 25808 layer_factory.hpp:77] Creating layer inception_4b/5x5_reduce
I0403 19:45:48.848333 25808 net.cpp:91] Creating Layer inception_4b/5x5_reduce
I0403 19:45:48.848354 25808 net.cpp:425] inception_4b/5x5_reduce <- inception_4a/output_inception_4a/output_0_split_3
I0403 19:45:48.848381 25808 net.cpp:399] inception_4b/5x5_reduce -> inception_4b/5x5_reduce
I0403 19:45:48.849468 25808 net.cpp:141] Setting up inception_4b/5x5_reduce
I0403 19:45:48.849499 25808 net.cpp:148] Top shape: 24 24 14 14 (112896)
I0403 19:45:48.849517 25808 net.cpp:156] Memory required for data: 965320992
I0403 19:45:48.849539 25808 layer_factory.hpp:77] Creating layer inception_4b/relu_5x5_reduce
I0403 19:45:48.849561 25808 net.cpp:91] Creating Layer inception_4b/relu_5x5_reduce
I0403 19:45:48.849596 25808 net.cpp:425] inception_4b/relu_5x5_reduce <- inception_4b/5x5_reduce
I0403 19:45:48.849617 25808 net.cpp:386] inception_4b/relu_5x5_reduce -> inception_4b/5x5_reduce (in-place)
I0403 19:45:48.849807 25808 net.cpp:141] Setting up inception_4b/relu_5x5_reduce
I0403 19:45:48.849839 25808 net.cpp:148] Top shape: 24 24 14 14 (112896)
I0403 19:45:48.849855 25808 net.cpp:156] Memory required for data: 965772576
I0403 19:45:48.849871 25808 layer_factory.hpp:77] Creating layer inception_4b/5x5
I0403 19:45:48.849896 25808 net.cpp:91] Creating Layer inception_4b/5x5
I0403 19:45:48.849918 25808 net.cpp:425] inception_4b/5x5 <- inception_4b/5x5_reduce
I0403 19:45:48.849941 25808 net.cpp:399] inception_4b/5x5 -> inception_4b/5x5
I0403 19:45:48.851171 25808 net.cpp:141] Setting up inception_4b/5x5
I0403 19:45:48.851202 25808 net.cpp:148] Top shape: 24 64 14 14 (301056)
I0403 19:45:48.851218 25808 net.cpp:156] Memory required for data: 966976800
I0403 19:45:48.851238 25808 layer_factory.hpp:77] Creating layer inception_4b/relu_5x5
I0403 19:45:48.851263 25808 net.cpp:91] Creating Layer inception_4b/relu_5x5
I0403 19:45:48.851282 25808 net.cpp:425] inception_4b/relu_5x5 <- inception_4b/5x5
I0403 19:45:48.851305 25808 net.cpp:386] inception_4b/relu_5x5 -> inception_4b/5x5 (in-place)
I0403 19:45:48.851595 25808 net.cpp:141] Setting up inception_4b/relu_5x5
I0403 19:45:48.851625 25808 net.cpp:148] Top shape: 24 64 14 14 (301056)
I0403 19:45:48.851641 25808 net.cpp:156] Memory required for data: 968181024
I0403 19:45:48.851660 25808 layer_factory.hpp:77] Creating layer inception_4b/pool
I0403 19:45:48.851681 25808 net.cpp:91] Creating Layer inception_4b/pool
I0403 19:45:48.851701 25808 net.cpp:425] inception_4b/pool <- inception_4a/output_inception_4a/output_0_split_4
I0403 19:45:48.851721 25808 net.cpp:399] inception_4b/pool -> inception_4b/pool
I0403 19:45:48.851788 25808 net.cpp:141] Setting up inception_4b/pool
I0403 19:45:48.851816 25808 net.cpp:148] Top shape: 24 512 14 14 (2408448)
I0403 19:45:48.851833 25808 net.cpp:156] Memory required for data: 977814816
I0403 19:45:48.851850 25808 layer_factory.hpp:77] Creating layer inception_4b/pool_proj
I0403 19:45:48.851874 25808 net.cpp:91] Creating Layer inception_4b/pool_proj
I0403 19:45:48.851893 25808 net.cpp:425] inception_4b/pool_proj <- inception_4b/pool
I0403 19:45:48.851917 25808 net.cpp:399] inception_4b/pool_proj -> inception_4b/pool_proj
I0403 19:45:48.853116 25808 net.cpp:141] Setting up inception_4b/pool_proj
I0403 19:45:48.853152 25808 net.cpp:148] Top shape: 24 64 14 14 (301056)
I0403 19:45:48.853173 25808 net.cpp:156] Memory required for data: 979019040
I0403 19:45:48.853193 25808 layer_factory.hpp:77] Creating layer inception_4b/relu_pool_proj
I0403 19:45:48.853212 25808 net.cpp:91] Creating Layer inception_4b/relu_pool_proj
I0403 19:45:48.853231 25808 net.cpp:425] inception_4b/relu_pool_proj <- inception_4b/pool_proj
I0403 19:45:48.853250 25808 net.cpp:386] inception_4b/relu_pool_proj -> inception_4b/pool_proj (in-place)
I0403 19:45:48.853436 25808 net.cpp:141] Setting up inception_4b/relu_pool_proj
I0403 19:45:48.853468 25808 net.cpp:148] Top shape: 24 64 14 14 (301056)
I0403 19:45:48.853487 25808 net.cpp:156] Memory required for data: 980223264
I0403 19:45:48.853504 25808 layer_factory.hpp:77] Creating layer inception_4b/output
I0403 19:45:48.853523 25808 net.cpp:91] Creating Layer inception_4b/output
I0403 19:45:48.853538 25808 net.cpp:425] inception_4b/output <- inception_4b/1x1
I0403 19:45:48.853559 25808 net.cpp:425] inception_4b/output <- inception_4b/3x3
I0403 19:45:48.853575 25808 net.cpp:425] inception_4b/output <- inception_4b/5x5
I0403 19:45:48.853592 25808 net.cpp:425] inception_4b/output <- inception_4b/pool_proj
I0403 19:45:48.853617 25808 net.cpp:399] inception_4b/output -> inception_4b/output
I0403 19:45:48.853667 25808 net.cpp:141] Setting up inception_4b/output
I0403 19:45:48.853694 25808 net.cpp:148] Top shape: 24 512 14 14 (2408448)
I0403 19:45:48.853710 25808 net.cpp:156] Memory required for data: 989857056
I0403 19:45:48.853744 25808 layer_factory.hpp:77] Creating layer inception_4b/output_inception_4b/output_0_split
I0403 19:45:48.853767 25808 net.cpp:91] Creating Layer inception_4b/output_inception_4b/output_0_split
I0403 19:45:48.853786 25808 net.cpp:425] inception_4b/output_inception_4b/output_0_split <- inception_4b/output
I0403 19:45:48.853806 25808 net.cpp:399] inception_4b/output_inception_4b/output_0_split -> inception_4b/output_inception_4b/output_0_split_0
I0403 19:45:48.853827 25808 net.cpp:399] inception_4b/output_inception_4b/output_0_split -> inception_4b/output_inception_4b/output_0_split_1
I0403 19:45:48.853854 25808 net.cpp:399] inception_4b/output_inception_4b/output_0_split -> inception_4b/output_inception_4b/output_0_split_2
I0403 19:45:48.853878 25808 net.cpp:399] inception_4b/output_inception_4b/output_0_split -> inception_4b/output_inception_4b/output_0_split_3
I0403 19:45:48.853966 25808 net.cpp:141] Setting up inception_4b/output_inception_4b/output_0_split
I0403 19:45:48.853996 25808 net.cpp:148] Top shape: 24 512 14 14 (2408448)
I0403 19:45:48.854014 25808 net.cpp:148] Top shape: 24 512 14 14 (2408448)
I0403 19:45:48.854032 25808 net.cpp:148] Top shape: 24 512 14 14 (2408448)
I0403 19:45:48.854048 25808 net.cpp:148] Top shape: 24 512 14 14 (2408448)
I0403 19:45:48.854063 25808 net.cpp:156] Memory required for data: 1028392224
I0403 19:45:48.854080 25808 layer_factory.hpp:77] Creating layer inception_4c/1x1
I0403 19:45:48.854102 25808 net.cpp:91] Creating Layer inception_4c/1x1
I0403 19:45:48.854122 25808 net.cpp:425] inception_4c/1x1 <- inception_4b/output_inception_4b/output_0_split_0
I0403 19:45:48.854146 25808 net.cpp:399] inception_4c/1x1 -> inception_4c/1x1
I0403 19:45:48.855589 25808 net.cpp:141] Setting up inception_4c/1x1
I0403 19:45:48.855626 25808 net.cpp:148] Top shape: 24 128 14 14 (602112)
I0403 19:45:48.855648 25808 net.cpp:156] Memory required for data: 1030800672
I0403 19:45:48.855669 25808 layer_factory.hpp:77] Creating layer inception_4c/relu_1x1
I0403 19:45:48.855690 25808 net.cpp:91] Creating Layer inception_4c/relu_1x1
I0403 19:45:48.855706 25808 net.cpp:425] inception_4c/relu_1x1 <- inception_4c/1x1
I0403 19:45:48.855727 25808 net.cpp:386] inception_4c/relu_1x1 -> inception_4c/1x1 (in-place)
I0403 19:45:48.855911 25808 net.cpp:141] Setting up inception_4c/relu_1x1
I0403 19:45:48.855942 25808 net.cpp:148] Top shape: 24 128 14 14 (602112)
I0403 19:45:48.855959 25808 net.cpp:156] Memory required for data: 1033209120
I0403 19:45:48.855978 25808 layer_factory.hpp:77] Creating layer inception_4c/3x3_reduce
I0403 19:45:48.856001 25808 net.cpp:91] Creating Layer inception_4c/3x3_reduce
I0403 19:45:48.856022 25808 net.cpp:425] inception_4c/3x3_reduce <- inception_4b/output_inception_4b/output_0_split_1
I0403 19:45:48.856045 25808 net.cpp:399] inception_4c/3x3_reduce -> inception_4c/3x3_reduce
I0403 19:45:48.858000 25808 net.cpp:141] Setting up inception_4c/3x3_reduce
I0403 19:45:48.858032 25808 net.cpp:148] Top shape: 24 128 14 14 (602112)
I0403 19:45:48.858052 25808 net.cpp:156] Memory required for data: 1035617568
I0403 19:45:48.858072 25808 layer_factory.hpp:77] Creating layer inception_4c/relu_3x3_reduce
I0403 19:45:48.858095 25808 net.cpp:91] Creating Layer inception_4c/relu_3x3_reduce
I0403 19:45:48.858116 25808 net.cpp:425] inception_4c/relu_3x3_reduce <- inception_4c/3x3_reduce
I0403 19:45:48.858135 25808 net.cpp:386] inception_4c/relu_3x3_reduce -> inception_4c/3x3_reduce (in-place)
I0403 19:45:48.858460 25808 net.cpp:141] Setting up inception_4c/relu_3x3_reduce
I0403 19:45:48.858492 25808 net.cpp:148] Top shape: 24 128 14 14 (602112)
I0403 19:45:48.858510 25808 net.cpp:156] Memory required for data: 1038026016
I0403 19:45:48.858526 25808 layer_factory.hpp:77] Creating layer inception_4c/3x3
I0403 19:45:48.858552 25808 net.cpp:91] Creating Layer inception_4c/3x3
I0403 19:45:48.858574 25808 net.cpp:425] inception_4c/3x3 <- inception_4c/3x3_reduce
I0403 19:45:48.858600 25808 net.cpp:399] inception_4c/3x3 -> inception_4c/3x3
I0403 19:45:48.862368 25808 net.cpp:141] Setting up inception_4c/3x3
I0403 19:45:48.862418 25808 net.cpp:148] Top shape: 24 256 14 14 (1204224)
I0403 19:45:48.862438 25808 net.cpp:156] Memory required for data: 1042842912
I0403 19:45:48.862475 25808 layer_factory.hpp:77] Creating layer inception_4c/relu_3x3
I0403 19:45:48.862504 25808 net.cpp:91] Creating Layer inception_4c/relu_3x3
I0403 19:45:48.862522 25808 net.cpp:425] inception_4c/relu_3x3 <- inception_4c/3x3
I0403 19:45:48.862545 25808 net.cpp:386] inception_4c/relu_3x3 -> inception_4c/3x3 (in-place)
I0403 19:45:48.862751 25808 net.cpp:141] Setting up inception_4c/relu_3x3
I0403 19:45:48.862779 25808 net.cpp:148] Top shape: 24 256 14 14 (1204224)
I0403 19:45:48.862795 25808 net.cpp:156] Memory required for data: 1047659808
I0403 19:45:48.862812 25808 layer_factory.hpp:77] Creating layer inception_4c/5x5_reduce
I0403 19:45:48.862839 25808 net.cpp:91] Creating Layer inception_4c/5x5_reduce
I0403 19:45:48.862861 25808 net.cpp:425] inception_4c/5x5_reduce <- inception_4b/output_inception_4b/output_0_split_2
I0403 19:45:48.862884 25808 net.cpp:399] inception_4c/5x5_reduce -> inception_4c/5x5_reduce
I0403 19:45:48.864008 25808 net.cpp:141] Setting up inception_4c/5x5_reduce
I0403 19:45:48.864042 25808 net.cpp:148] Top shape: 24 24 14 14 (112896)
I0403 19:45:48.864060 25808 net.cpp:156] Memory required for data: 1048111392
I0403 19:45:48.864081 25808 layer_factory.hpp:77] Creating layer inception_4c/relu_5x5_reduce
I0403 19:45:48.864104 25808 net.cpp:91] Creating Layer inception_4c/relu_5x5_reduce
I0403 19:45:48.864125 25808 net.cpp:425] inception_4c/relu_5x5_reduce <- inception_4c/5x5_reduce
I0403 19:45:48.864143 25808 net.cpp:386] inception_4c/relu_5x5_reduce -> inception_4c/5x5_reduce (in-place)
I0403 19:45:48.864347 25808 net.cpp:141] Setting up inception_4c/relu_5x5_reduce
I0403 19:45:48.864377 25808 net.cpp:148] Top shape: 24 24 14 14 (112896)
I0403 19:45:48.864394 25808 net.cpp:156] Memory required for data: 1048562976
I0403 19:45:48.864413 25808 layer_factory.hpp:77] Creating layer inception_4c/5x5
I0403 19:45:48.864439 25808 net.cpp:91] Creating Layer inception_4c/5x5
I0403 19:45:48.864461 25808 net.cpp:425] inception_4c/5x5 <- inception_4c/5x5_reduce
I0403 19:45:48.864485 25808 net.cpp:399] inception_4c/5x5 -> inception_4c/5x5
I0403 19:45:48.865768 25808 net.cpp:141] Setting up inception_4c/5x5
I0403 19:45:48.865803 25808 net.cpp:148] Top shape: 24 64 14 14 (301056)
I0403 19:45:48.865825 25808 net.cpp:156] Memory required for data: 1049767200
I0403 19:45:48.865846 25808 layer_factory.hpp:77] Creating layer inception_4c/relu_5x5
I0403 19:45:48.865866 25808 net.cpp:91] Creating Layer inception_4c/relu_5x5
I0403 19:45:48.865883 25808 net.cpp:425] inception_4c/relu_5x5 <- inception_4c/5x5
I0403 19:45:48.865908 25808 net.cpp:386] inception_4c/relu_5x5 -> inception_4c/5x5 (in-place)
I0403 19:45:48.866211 25808 net.cpp:141] Setting up inception_4c/relu_5x5
I0403 19:45:48.866243 25808 net.cpp:148] Top shape: 24 64 14 14 (301056)
I0403 19:45:48.866263 25808 net.cpp:156] Memory required for data: 1050971424
I0403 19:45:48.866281 25808 layer_factory.hpp:77] Creating layer inception_4c/pool
I0403 19:45:48.866307 25808 net.cpp:91] Creating Layer inception_4c/pool
I0403 19:45:48.866327 25808 net.cpp:425] inception_4c/pool <- inception_4b/output_inception_4b/output_0_split_3
I0403 19:45:48.866349 25808 net.cpp:399] inception_4c/pool -> inception_4c/pool
I0403 19:45:48.866435 25808 net.cpp:141] Setting up inception_4c/pool
I0403 19:45:48.866467 25808 net.cpp:148] Top shape: 24 512 14 14 (2408448)
I0403 19:45:48.866487 25808 net.cpp:156] Memory required for data: 1060605216
I0403 19:45:48.866503 25808 layer_factory.hpp:77] Creating layer inception_4c/pool_proj
I0403 19:45:48.866525 25808 net.cpp:91] Creating Layer inception_4c/pool_proj
I0403 19:45:48.866546 25808 net.cpp:425] inception_4c/pool_proj <- inception_4c/pool
I0403 19:45:48.866571 25808 net.cpp:399] inception_4c/pool_proj -> inception_4c/pool_proj
I0403 19:45:48.867841 25808 net.cpp:141] Setting up inception_4c/pool_proj
I0403 19:45:48.867873 25808 net.cpp:148] Top shape: 24 64 14 14 (301056)
I0403 19:45:48.867908 25808 net.cpp:156] Memory required for data: 1061809440
I0403 19:45:48.867928 25808 layer_factory.hpp:77] Creating layer inception_4c/relu_pool_proj
I0403 19:45:48.867956 25808 net.cpp:91] Creating Layer inception_4c/relu_pool_proj
I0403 19:45:48.867975 25808 net.cpp:425] inception_4c/relu_pool_proj <- inception_4c/pool_proj
I0403 19:45:48.867996 25808 net.cpp:386] inception_4c/relu_pool_proj -> inception_4c/pool_proj (in-place)
I0403 19:45:48.868188 25808 net.cpp:141] Setting up inception_4c/relu_pool_proj
I0403 19:45:48.868223 25808 net.cpp:148] Top shape: 24 64 14 14 (301056)
I0403 19:45:48.868242 25808 net.cpp:156] Memory required for data: 1063013664
I0403 19:45:48.868258 25808 layer_factory.hpp:77] Creating layer inception_4c/output
I0403 19:45:48.868278 25808 net.cpp:91] Creating Layer inception_4c/output
I0403 19:45:48.868304 25808 net.cpp:425] inception_4c/output <- inception_4c/1x1
I0403 19:45:48.868324 25808 net.cpp:425] inception_4c/output <- inception_4c/3x3
I0403 19:45:48.868342 25808 net.cpp:425] inception_4c/output <- inception_4c/5x5
I0403 19:45:48.868372 25808 net.cpp:425] inception_4c/output <- inception_4c/pool_proj
I0403 19:45:48.868396 25808 net.cpp:399] inception_4c/output -> inception_4c/output
I0403 19:45:48.868445 25808 net.cpp:141] Setting up inception_4c/output
I0403 19:45:48.868475 25808 net.cpp:148] Top shape: 24 512 14 14 (2408448)
I0403 19:45:48.868494 25808 net.cpp:156] Memory required for data: 1072647456
I0403 19:45:48.868511 25808 layer_factory.hpp:77] Creating layer inception_4c/output_inception_4c/output_0_split
I0403 19:45:48.868533 25808 net.cpp:91] Creating Layer inception_4c/output_inception_4c/output_0_split
I0403 19:45:48.868552 25808 net.cpp:425] inception_4c/output_inception_4c/output_0_split <- inception_4c/output
I0403 19:45:48.868571 25808 net.cpp:399] inception_4c/output_inception_4c/output_0_split -> inception_4c/output_inception_4c/output_0_split_0
I0403 19:45:48.868595 25808 net.cpp:399] inception_4c/output_inception_4c/output_0_split -> inception_4c/output_inception_4c/output_0_split_1
I0403 19:45:48.868623 25808 net.cpp:399] inception_4c/output_inception_4c/output_0_split -> inception_4c/output_inception_4c/output_0_split_2
I0403 19:45:48.868659 25808 net.cpp:399] inception_4c/output_inception_4c/output_0_split -> inception_4c/output_inception_4c/output_0_split_3
I0403 19:45:48.868748 25808 net.cpp:141] Setting up inception_4c/output_inception_4c/output_0_split
I0403 19:45:48.868777 25808 net.cpp:148] Top shape: 24 512 14 14 (2408448)
I0403 19:45:48.868796 25808 net.cpp:148] Top shape: 24 512 14 14 (2408448)
I0403 19:45:48.868814 25808 net.cpp:148] Top shape: 24 512 14 14 (2408448)
I0403 19:45:48.868830 25808 net.cpp:148] Top shape: 24 512 14 14 (2408448)
I0403 19:45:48.868846 25808 net.cpp:156] Memory required for data: 1111182624
I0403 19:45:48.868863 25808 layer_factory.hpp:77] Creating layer inception_4d/1x1
I0403 19:45:48.868886 25808 net.cpp:91] Creating Layer inception_4d/1x1
I0403 19:45:48.868906 25808 net.cpp:425] inception_4d/1x1 <- inception_4c/output_inception_4c/output_0_split_0
I0403 19:45:48.868933 25808 net.cpp:399] inception_4d/1x1 -> inception_4d/1x1
I0403 19:45:48.870367 25808 net.cpp:141] Setting up inception_4d/1x1
I0403 19:45:48.870399 25808 net.cpp:148] Top shape: 24 112 14 14 (526848)
I0403 19:45:48.870419 25808 net.cpp:156] Memory required for data: 1113290016
I0403 19:45:48.870440 25808 layer_factory.hpp:77] Creating layer inception_4d/relu_1x1
I0403 19:45:48.870463 25808 net.cpp:91] Creating Layer inception_4d/relu_1x1
I0403 19:45:48.870484 25808 net.cpp:425] inception_4d/relu_1x1 <- inception_4d/1x1
I0403 19:45:48.870504 25808 net.cpp:386] inception_4d/relu_1x1 -> inception_4d/1x1 (in-place)
I0403 19:45:48.870712 25808 net.cpp:141] Setting up inception_4d/relu_1x1
I0403 19:45:48.870741 25808 net.cpp:148] Top shape: 24 112 14 14 (526848)
I0403 19:45:48.870757 25808 net.cpp:156] Memory required for data: 1115397408
I0403 19:45:48.870774 25808 layer_factory.hpp:77] Creating layer inception_4d/3x3_reduce
I0403 19:45:48.870816 25808 net.cpp:91] Creating Layer inception_4d/3x3_reduce
I0403 19:45:48.870837 25808 net.cpp:425] inception_4d/3x3_reduce <- inception_4c/output_inception_4c/output_0_split_1
I0403 19:45:48.870860 25808 net.cpp:399] inception_4d/3x3_reduce -> inception_4d/3x3_reduce
I0403 19:45:48.872413 25808 net.cpp:141] Setting up inception_4d/3x3_reduce
I0403 19:45:48.872448 25808 net.cpp:148] Top shape: 24 144 14 14 (677376)
I0403 19:45:48.872467 25808 net.cpp:156] Memory required for data: 1118106912
I0403 19:45:48.872486 25808 layer_factory.hpp:77] Creating layer inception_4d/relu_3x3_reduce
I0403 19:45:48.872506 25808 net.cpp:91] Creating Layer inception_4d/relu_3x3_reduce
I0403 19:45:48.872526 25808 net.cpp:425] inception_4d/relu_3x3_reduce <- inception_4d/3x3_reduce
I0403 19:45:48.872550 25808 net.cpp:386] inception_4d/relu_3x3_reduce -> inception_4d/3x3_reduce (in-place)
I0403 19:45:48.872844 25808 net.cpp:141] Setting up inception_4d/relu_3x3_reduce
I0403 19:45:48.872876 25808 net.cpp:148] Top shape: 24 144 14 14 (677376)
I0403 19:45:48.872895 25808 net.cpp:156] Memory required for data: 1120816416
I0403 19:45:48.872911 25808 layer_factory.hpp:77] Creating layer inception_4d/3x3
I0403 19:45:48.872937 25808 net.cpp:91] Creating Layer inception_4d/3x3
I0403 19:45:48.872961 25808 net.cpp:425] inception_4d/3x3 <- inception_4d/3x3_reduce
I0403 19:45:48.872983 25808 net.cpp:399] inception_4d/3x3 -> inception_4d/3x3
I0403 19:45:48.877477 25808 net.cpp:141] Setting up inception_4d/3x3
I0403 19:45:48.877512 25808 net.cpp:148] Top shape: 24 288 14 14 (1354752)
I0403 19:45:48.877531 25808 net.cpp:156] Memory required for data: 1126235424
I0403 19:45:48.877552 25808 layer_factory.hpp:77] Creating layer inception_4d/relu_3x3
I0403 19:45:48.877576 25808 net.cpp:91] Creating Layer inception_4d/relu_3x3
I0403 19:45:48.877598 25808 net.cpp:425] inception_4d/relu_3x3 <- inception_4d/3x3
I0403 19:45:48.877615 25808 net.cpp:386] inception_4d/relu_3x3 -> inception_4d/3x3 (in-place)
I0403 19:45:48.877799 25808 net.cpp:141] Setting up inception_4d/relu_3x3
I0403 19:45:48.877832 25808 net.cpp:148] Top shape: 24 288 14 14 (1354752)
I0403 19:45:48.877851 25808 net.cpp:156] Memory required for data: 1131654432
I0403 19:45:48.877867 25808 layer_factory.hpp:77] Creating layer inception_4d/5x5_reduce
I0403 19:45:48.877892 25808 net.cpp:91] Creating Layer inception_4d/5x5_reduce
I0403 19:45:48.877912 25808 net.cpp:425] inception_4d/5x5_reduce <- inception_4c/output_inception_4c/output_0_split_2
I0403 19:45:48.877933 25808 net.cpp:399] inception_4d/5x5_reduce -> inception_4d/5x5_reduce
I0403 19:45:48.879084 25808 net.cpp:141] Setting up inception_4d/5x5_reduce
I0403 19:45:48.879117 25808 net.cpp:148] Top shape: 24 32 14 14 (150528)
I0403 19:45:48.879134 25808 net.cpp:156] Memory required for data: 1132256544
I0403 19:45:48.879153 25808 layer_factory.hpp:77] Creating layer inception_4d/relu_5x5_reduce
I0403 19:45:48.879176 25808 net.cpp:91] Creating Layer inception_4d/relu_5x5_reduce
I0403 19:45:48.879194 25808 net.cpp:425] inception_4d/relu_5x5_reduce <- inception_4d/5x5_reduce
I0403 19:45:48.879214 25808 net.cpp:386] inception_4d/relu_5x5_reduce -> inception_4d/5x5_reduce (in-place)
I0403 19:45:48.879408 25808 net.cpp:141] Setting up inception_4d/relu_5x5_reduce
I0403 19:45:48.879437 25808 net.cpp:148] Top shape: 24 32 14 14 (150528)
I0403 19:45:48.879456 25808 net.cpp:156] Memory required for data: 1132858656
I0403 19:45:48.879473 25808 layer_factory.hpp:77] Creating layer inception_4d/5x5
I0403 19:45:48.879499 25808 net.cpp:91] Creating Layer inception_4d/5x5
I0403 19:45:48.879518 25808 net.cpp:425] inception_4d/5x5 <- inception_4d/5x5_reduce
I0403 19:45:48.879539 25808 net.cpp:399] inception_4d/5x5 -> inception_4d/5x5
I0403 19:45:48.880993 25808 net.cpp:141] Setting up inception_4d/5x5
I0403 19:45:48.881027 25808 net.cpp:148] Top shape: 24 64 14 14 (301056)
I0403 19:45:48.881047 25808 net.cpp:156] Memory required for data: 1134062880
I0403 19:45:48.881067 25808 layer_factory.hpp:77] Creating layer inception_4d/relu_5x5
I0403 19:45:48.881103 25808 net.cpp:91] Creating Layer inception_4d/relu_5x5
I0403 19:45:48.881122 25808 net.cpp:425] inception_4d/relu_5x5 <- inception_4d/5x5
I0403 19:45:48.881145 25808 net.cpp:386] inception_4d/relu_5x5 -> inception_4d/5x5 (in-place)
I0403 19:45:48.881456 25808 net.cpp:141] Setting up inception_4d/relu_5x5
I0403 19:45:48.881494 25808 net.cpp:148] Top shape: 24 64 14 14 (301056)
I0403 19:45:48.881513 25808 net.cpp:156] Memory required for data: 1135267104
I0403 19:45:48.881530 25808 layer_factory.hpp:77] Creating layer inception_4d/pool
I0403 19:45:48.881547 25808 net.cpp:91] Creating Layer inception_4d/pool
I0403 19:45:48.881566 25808 net.cpp:425] inception_4d/pool <- inception_4c/output_inception_4c/output_0_split_3
I0403 19:45:48.881589 25808 net.cpp:399] inception_4d/pool -> inception_4d/pool
I0403 19:45:48.881655 25808 net.cpp:141] Setting up inception_4d/pool
I0403 19:45:48.881685 25808 net.cpp:148] Top shape: 24 512 14 14 (2408448)
I0403 19:45:48.881700 25808 net.cpp:156] Memory required for data: 1144900896
I0403 19:45:48.881716 25808 layer_factory.hpp:77] Creating layer inception_4d/pool_proj
I0403 19:45:48.881738 25808 net.cpp:91] Creating Layer inception_4d/pool_proj
I0403 19:45:48.881758 25808 net.cpp:425] inception_4d/pool_proj <- inception_4d/pool
I0403 19:45:48.881783 25808 net.cpp:399] inception_4d/pool_proj -> inception_4d/pool_proj
I0403 19:45:48.883560 25808 net.cpp:141] Setting up inception_4d/pool_proj
I0403 19:45:48.883594 25808 net.cpp:148] Top shape: 24 64 14 14 (301056)
I0403 19:45:48.883611 25808 net.cpp:156] Memory required for data: 1146105120
I0403 19:45:48.883630 25808 layer_factory.hpp:77] Creating layer inception_4d/relu_pool_proj
I0403 19:45:48.883653 25808 net.cpp:91] Creating Layer inception_4d/relu_pool_proj
I0403 19:45:48.883674 25808 net.cpp:425] inception_4d/relu_pool_proj <- inception_4d/pool_proj
I0403 19:45:48.883693 25808 net.cpp:386] inception_4d/relu_pool_proj -> inception_4d/pool_proj (in-place)
I0403 19:45:48.883878 25808 net.cpp:141] Setting up inception_4d/relu_pool_proj
I0403 19:45:48.883910 25808 net.cpp:148] Top shape: 24 64 14 14 (301056)
I0403 19:45:48.883929 25808 net.cpp:156] Memory required for data: 1147309344
I0403 19:45:48.883945 25808 layer_factory.hpp:77] Creating layer inception_4d/output
I0403 19:45:48.883965 25808 net.cpp:91] Creating Layer inception_4d/output
I0403 19:45:48.883983 25808 net.cpp:425] inception_4d/output <- inception_4d/1x1
I0403 19:45:48.884001 25808 net.cpp:425] inception_4d/output <- inception_4d/3x3
I0403 19:45:48.884017 25808 net.cpp:425] inception_4d/output <- inception_4d/5x5
I0403 19:45:48.884034 25808 net.cpp:425] inception_4d/output <- inception_4d/pool_proj
I0403 19:45:48.884053 25808 net.cpp:399] inception_4d/output -> inception_4d/output
I0403 19:45:48.884104 25808 net.cpp:141] Setting up inception_4d/output
I0403 19:45:48.884133 25808 net.cpp:148] Top shape: 24 528 14 14 (2483712)
I0403 19:45:48.884150 25808 net.cpp:156] Memory required for data: 1157244192
I0403 19:45:48.884163 25808 layer_factory.hpp:77] Creating layer inception_4d/output_inception_4d/output_0_split
I0403 19:45:48.884184 25808 net.cpp:91] Creating Layer inception_4d/output_inception_4d/output_0_split
I0403 19:45:48.884203 25808 net.cpp:425] inception_4d/output_inception_4d/output_0_split <- inception_4d/output
I0403 19:45:48.884222 25808 net.cpp:399] inception_4d/output_inception_4d/output_0_split -> inception_4d/output_inception_4d/output_0_split_0
I0403 19:45:48.884243 25808 net.cpp:399] inception_4d/output_inception_4d/output_0_split -> inception_4d/output_inception_4d/output_0_split_1
I0403 19:45:48.884268 25808 net.cpp:399] inception_4d/output_inception_4d/output_0_split -> inception_4d/output_inception_4d/output_0_split_2
I0403 19:45:48.884300 25808 net.cpp:399] inception_4d/output_inception_4d/output_0_split -> inception_4d/output_inception_4d/output_0_split_3
I0403 19:45:48.884330 25808 net.cpp:399] inception_4d/output_inception_4d/output_0_split -> inception_4d/output_inception_4d/output_0_split_4
I0403 19:45:48.884439 25808 net.cpp:141] Setting up inception_4d/output_inception_4d/output_0_split
I0403 19:45:48.884482 25808 net.cpp:148] Top shape: 24 528 14 14 (2483712)
I0403 19:45:48.884501 25808 net.cpp:148] Top shape: 24 528 14 14 (2483712)
I0403 19:45:48.884519 25808 net.cpp:148] Top shape: 24 528 14 14 (2483712)
I0403 19:45:48.884536 25808 net.cpp:148] Top shape: 24 528 14 14 (2483712)
I0403 19:45:48.884552 25808 net.cpp:148] Top shape: 24 528 14 14 (2483712)
I0403 19:45:48.884568 25808 net.cpp:156] Memory required for data: 1206918432
I0403 19:45:48.884585 25808 layer_factory.hpp:77] Creating layer loss2/ave_pool
I0403 19:45:48.884605 25808 net.cpp:91] Creating Layer loss2/ave_pool
I0403 19:45:48.884625 25808 net.cpp:425] loss2/ave_pool <- inception_4d/output_inception_4d/output_0_split_0
I0403 19:45:48.884649 25808 net.cpp:399] loss2/ave_pool -> loss2/ave_pool
I0403 19:45:48.884963 25808 net.cpp:141] Setting up loss2/ave_pool
I0403 19:45:48.884992 25808 net.cpp:148] Top shape: 24 528 4 4 (202752)
I0403 19:45:48.885010 25808 net.cpp:156] Memory required for data: 1207729440
I0403 19:45:48.885027 25808 layer_factory.hpp:77] Creating layer loss2/conv
I0403 19:45:48.885052 25808 net.cpp:91] Creating Layer loss2/conv
I0403 19:45:48.885071 25808 net.cpp:425] loss2/conv <- loss2/ave_pool
I0403 19:45:48.885093 25808 net.cpp:399] loss2/conv -> loss2/conv
I0403 19:45:48.887012 25808 net.cpp:141] Setting up loss2/conv
I0403 19:45:48.887047 25808 net.cpp:148] Top shape: 24 128 4 4 (49152)
I0403 19:45:48.887065 25808 net.cpp:156] Memory required for data: 1207926048
I0403 19:45:48.887085 25808 layer_factory.hpp:77] Creating layer loss2/relu_conv
I0403 19:45:48.887106 25808 net.cpp:91] Creating Layer loss2/relu_conv
I0403 19:45:48.887125 25808 net.cpp:425] loss2/relu_conv <- loss2/conv
I0403 19:45:48.887143 25808 net.cpp:386] loss2/relu_conv -> loss2/conv (in-place)
I0403 19:45:48.887434 25808 net.cpp:141] Setting up loss2/relu_conv
I0403 19:45:48.887468 25808 net.cpp:148] Top shape: 24 128 4 4 (49152)
I0403 19:45:48.887488 25808 net.cpp:156] Memory required for data: 1208122656
I0403 19:45:48.887506 25808 layer_factory.hpp:77] Creating layer loss2/fc
I0403 19:45:48.887526 25808 net.cpp:91] Creating Layer loss2/fc
I0403 19:45:48.887544 25808 net.cpp:425] loss2/fc <- loss2/conv
I0403 19:45:48.887567 25808 net.cpp:399] loss2/fc -> loss2/fc
I0403 19:45:48.905509 25808 net.cpp:141] Setting up loss2/fc
I0403 19:45:48.905545 25808 net.cpp:148] Top shape: 24 1024 (24576)
I0403 19:45:48.905565 25808 net.cpp:156] Memory required for data: 1208220960
I0403 19:45:48.905586 25808 layer_factory.hpp:77] Creating layer loss2/relu_fc
I0403 19:45:48.905608 25808 net.cpp:91] Creating Layer loss2/relu_fc
I0403 19:45:48.905629 25808 net.cpp:425] loss2/relu_fc <- loss2/fc
I0403 19:45:48.905647 25808 net.cpp:386] loss2/relu_fc -> loss2/fc (in-place)
I0403 19:45:48.905946 25808 net.cpp:141] Setting up loss2/relu_fc
I0403 19:45:48.905975 25808 net.cpp:148] Top shape: 24 1024 (24576)
I0403 19:45:48.905993 25808 net.cpp:156] Memory required for data: 1208319264
I0403 19:45:48.906008 25808 layer_factory.hpp:77] Creating layer loss2/drop_fc
I0403 19:45:48.906030 25808 net.cpp:91] Creating Layer loss2/drop_fc
I0403 19:45:48.906049 25808 net.cpp:425] loss2/drop_fc <- loss2/fc
I0403 19:45:48.906069 25808 net.cpp:386] loss2/drop_fc -> loss2/fc (in-place)
I0403 19:45:48.906123 25808 net.cpp:141] Setting up loss2/drop_fc
I0403 19:45:48.906150 25808 net.cpp:148] Top shape: 24 1024 (24576)
I0403 19:45:48.906167 25808 net.cpp:156] Memory required for data: 1208417568
I0403 19:45:48.906183 25808 layer_factory.hpp:77] Creating layer loss2/classifier_plantvillage
I0403 19:45:48.906203 25808 net.cpp:91] Creating Layer loss2/classifier_plantvillage
I0403 19:45:48.906224 25808 net.cpp:425] loss2/classifier_plantvillage <- loss2/fc
I0403 19:45:48.906245 25808 net.cpp:399] loss2/classifier_plantvillage -> loss2/classifier_plantvillage
I0403 19:45:48.906656 25808 net.cpp:141] Setting up loss2/classifier_plantvillage
I0403 19:45:48.906685 25808 net.cpp:148] Top shape: 24 38 (912)
I0403 19:45:48.906720 25808 net.cpp:156] Memory required for data: 1208421216
I0403 19:45:48.906741 25808 layer_factory.hpp:77] Creating layer loss2/classifier_plantvillage_loss2/classifier_plantvillage_0_split
I0403 19:45:48.906761 25808 net.cpp:91] Creating Layer loss2/classifier_plantvillage_loss2/classifier_plantvillage_0_split
I0403 19:45:48.906781 25808 net.cpp:425] loss2/classifier_plantvillage_loss2/classifier_plantvillage_0_split <- loss2/classifier_plantvillage
I0403 19:45:48.906803 25808 net.cpp:399] loss2/classifier_plantvillage_loss2/classifier_plantvillage_0_split -> loss2/classifier_plantvillage_loss2/classifier_plantvillage_0_split_0
I0403 19:45:48.906826 25808 net.cpp:399] loss2/classifier_plantvillage_loss2/classifier_plantvillage_0_split -> loss2/classifier_plantvillage_loss2/classifier_plantvillage_0_split_1
I0403 19:45:48.906848 25808 net.cpp:399] loss2/classifier_plantvillage_loss2/classifier_plantvillage_0_split -> loss2/classifier_plantvillage_loss2/classifier_plantvillage_0_split_2
I0403 19:45:48.906929 25808 net.cpp:141] Setting up loss2/classifier_plantvillage_loss2/classifier_plantvillage_0_split
I0403 19:45:48.906957 25808 net.cpp:148] Top shape: 24 38 (912)
I0403 19:45:48.906977 25808 net.cpp:148] Top shape: 24 38 (912)
I0403 19:45:48.906994 25808 net.cpp:148] Top shape: 24 38 (912)
I0403 19:45:48.907008 25808 net.cpp:156] Memory required for data: 1208432160
I0403 19:45:48.907024 25808 layer_factory.hpp:77] Creating layer inception_4e/1x1
I0403 19:45:48.907047 25808 net.cpp:91] Creating Layer inception_4e/1x1
I0403 19:45:48.907068 25808 net.cpp:425] inception_4e/1x1 <- inception_4d/output_inception_4d/output_0_split_1
I0403 19:45:48.907088 25808 net.cpp:399] inception_4e/1x1 -> inception_4e/1x1
I0403 19:45:48.908908 25808 net.cpp:141] Setting up inception_4e/1x1
I0403 19:45:48.908944 25808 net.cpp:148] Top shape: 24 256 14 14 (1204224)
I0403 19:45:48.908965 25808 net.cpp:156] Memory required for data: 1213249056
I0403 19:45:48.908985 25808 layer_factory.hpp:77] Creating layer inception_4e/relu_1x1
I0403 19:45:48.909004 25808 net.cpp:91] Creating Layer inception_4e/relu_1x1
I0403 19:45:48.909023 25808 net.cpp:425] inception_4e/relu_1x1 <- inception_4e/1x1
I0403 19:45:48.909044 25808 net.cpp:386] inception_4e/relu_1x1 -> inception_4e/1x1 (in-place)
I0403 19:45:48.909351 25808 net.cpp:141] Setting up inception_4e/relu_1x1
I0403 19:45:48.909382 25808 net.cpp:148] Top shape: 24 256 14 14 (1204224)
I0403 19:45:48.909401 25808 net.cpp:156] Memory required for data: 1218065952
I0403 19:45:48.909415 25808 layer_factory.hpp:77] Creating layer inception_4e/3x3_reduce
I0403 19:45:48.909440 25808 net.cpp:91] Creating Layer inception_4e/3x3_reduce
I0403 19:45:48.909461 25808 net.cpp:425] inception_4e/3x3_reduce <- inception_4d/output_inception_4d/output_0_split_2
I0403 19:45:48.909482 25808 net.cpp:399] inception_4e/3x3_reduce -> inception_4e/3x3_reduce
I0403 19:45:48.911638 25808 net.cpp:141] Setting up inception_4e/3x3_reduce
I0403 19:45:48.911675 25808 net.cpp:148] Top shape: 24 160 14 14 (752640)
I0403 19:45:48.911695 25808 net.cpp:156] Memory required for data: 1221076512
I0403 19:45:48.911715 25808 layer_factory.hpp:77] Creating layer inception_4e/relu_3x3_reduce
I0403 19:45:48.911736 25808 net.cpp:91] Creating Layer inception_4e/relu_3x3_reduce
I0403 19:45:48.911756 25808 net.cpp:425] inception_4e/relu_3x3_reduce <- inception_4e/3x3_reduce
I0403 19:45:48.911774 25808 net.cpp:386] inception_4e/relu_3x3_reduce -> inception_4e/3x3_reduce (in-place)
I0403 19:45:48.911965 25808 net.cpp:141] Setting up inception_4e/relu_3x3_reduce
I0403 19:45:48.911993 25808 net.cpp:148] Top shape: 24 160 14 14 (752640)
I0403 19:45:48.912010 25808 net.cpp:156] Memory required for data: 1224087072
I0403 19:45:48.912027 25808 layer_factory.hpp:77] Creating layer inception_4e/3x3
I0403 19:45:48.912051 25808 net.cpp:91] Creating Layer inception_4e/3x3
I0403 19:45:48.912070 25808 net.cpp:425] inception_4e/3x3 <- inception_4e/3x3_reduce
I0403 19:45:48.912096 25808 net.cpp:399] inception_4e/3x3 -> inception_4e/3x3
I0403 19:45:48.917160 25808 net.cpp:141] Setting up inception_4e/3x3
I0403 19:45:48.917203 25808 net.cpp:148] Top shape: 24 320 14 14 (1505280)
I0403 19:45:48.917223 25808 net.cpp:156] Memory required for data: 1230108192
I0403 19:45:48.917245 25808 layer_factory.hpp:77] Creating layer inception_4e/relu_3x3
I0403 19:45:48.917266 25808 net.cpp:91] Creating Layer inception_4e/relu_3x3
I0403 19:45:48.917294 25808 net.cpp:425] inception_4e/relu_3x3 <- inception_4e/3x3
I0403 19:45:48.917331 25808 net.cpp:386] inception_4e/relu_3x3 -> inception_4e/3x3 (in-place)
I0403 19:45:48.917660 25808 net.cpp:141] Setting up inception_4e/relu_3x3
I0403 19:45:48.917704 25808 net.cpp:148] Top shape: 24 320 14 14 (1505280)
I0403 19:45:48.917721 25808 net.cpp:156] Memory required for data: 1236129312
I0403 19:45:48.917738 25808 layer_factory.hpp:77] Creating layer inception_4e/5x5_reduce
I0403 19:45:48.917763 25808 net.cpp:91] Creating Layer inception_4e/5x5_reduce
I0403 19:45:48.917783 25808 net.cpp:425] inception_4e/5x5_reduce <- inception_4d/output_inception_4d/output_0_split_3
I0403 19:45:48.917807 25808 net.cpp:399] inception_4e/5x5_reduce -> inception_4e/5x5_reduce
I0403 19:45:48.918915 25808 net.cpp:141] Setting up inception_4e/5x5_reduce
I0403 19:45:48.918956 25808 net.cpp:148] Top shape: 24 32 14 14 (150528)
I0403 19:45:48.918977 25808 net.cpp:156] Memory required for data: 1236731424
I0403 19:45:48.918999 25808 layer_factory.hpp:77] Creating layer inception_4e/relu_5x5_reduce
I0403 19:45:48.919020 25808 net.cpp:91] Creating Layer inception_4e/relu_5x5_reduce
I0403 19:45:48.919039 25808 net.cpp:425] inception_4e/relu_5x5_reduce <- inception_4e/5x5_reduce
I0403 19:45:48.919059 25808 net.cpp:386] inception_4e/relu_5x5_reduce -> inception_4e/5x5_reduce (in-place)
I0403 19:45:48.919368 25808 net.cpp:141] Setting up inception_4e/relu_5x5_reduce
I0403 19:45:48.919404 25808 net.cpp:148] Top shape: 24 32 14 14 (150528)
I0403 19:45:48.919422 25808 net.cpp:156] Memory required for data: 1237333536
I0403 19:45:48.919440 25808 layer_factory.hpp:77] Creating layer inception_4e/5x5
I0403 19:45:48.919486 25808 net.cpp:91] Creating Layer inception_4e/5x5
I0403 19:45:48.919507 25808 net.cpp:425] inception_4e/5x5 <- inception_4e/5x5_reduce
I0403 19:45:48.919528 25808 net.cpp:399] inception_4e/5x5 -> inception_4e/5x5
I0403 19:45:48.921424 25808 net.cpp:141] Setting up inception_4e/5x5
I0403 19:45:48.921458 25808 net.cpp:148] Top shape: 24 128 14 14 (602112)
I0403 19:45:48.921476 25808 net.cpp:156] Memory required for data: 1239741984
I0403 19:45:48.921497 25808 layer_factory.hpp:77] Creating layer inception_4e/relu_5x5
I0403 19:45:48.921520 25808 net.cpp:91] Creating Layer inception_4e/relu_5x5
I0403 19:45:48.921541 25808 net.cpp:425] inception_4e/relu_5x5 <- inception_4e/5x5
I0403 19:45:48.921562 25808 net.cpp:386] inception_4e/relu_5x5 -> inception_4e/5x5 (in-place)
I0403 19:45:48.921778 25808 net.cpp:141] Setting up inception_4e/relu_5x5
I0403 19:45:48.921813 25808 net.cpp:148] Top shape: 24 128 14 14 (602112)
I0403 19:45:48.921833 25808 net.cpp:156] Memory required for data: 1242150432
I0403 19:45:48.921849 25808 layer_factory.hpp:77] Creating layer inception_4e/pool
I0403 19:45:48.921869 25808 net.cpp:91] Creating Layer inception_4e/pool
I0403 19:45:48.921886 25808 net.cpp:425] inception_4e/pool <- inception_4d/output_inception_4d/output_0_split_4
I0403 19:45:48.921911 25808 net.cpp:399] inception_4e/pool -> inception_4e/pool
I0403 19:45:48.921988 25808 net.cpp:141] Setting up inception_4e/pool
I0403 19:45:48.922015 25808 net.cpp:148] Top shape: 24 528 14 14 (2483712)
I0403 19:45:48.922034 25808 net.cpp:156] Memory required for data: 1252085280
I0403 19:45:48.922050 25808 layer_factory.hpp:77] Creating layer inception_4e/pool_proj
I0403 19:45:48.922075 25808 net.cpp:91] Creating Layer inception_4e/pool_proj
I0403 19:45:48.922099 25808 net.cpp:425] inception_4e/pool_proj <- inception_4e/pool
I0403 19:45:48.922122 25808 net.cpp:399] inception_4e/pool_proj -> inception_4e/pool_proj
I0403 19:45:48.923671 25808 net.cpp:141] Setting up inception_4e/pool_proj
I0403 19:45:48.923717 25808 net.cpp:148] Top shape: 24 128 14 14 (602112)
I0403 19:45:48.923737 25808 net.cpp:156] Memory required for data: 1254493728
I0403 19:45:48.923758 25808 layer_factory.hpp:77] Creating layer inception_4e/relu_pool_proj
I0403 19:45:48.923784 25808 net.cpp:91] Creating Layer inception_4e/relu_pool_proj
I0403 19:45:48.923805 25808 net.cpp:425] inception_4e/relu_pool_proj <- inception_4e/pool_proj
I0403 19:45:48.923826 25808 net.cpp:386] inception_4e/relu_pool_proj -> inception_4e/pool_proj (in-place)
I0403 19:45:48.924134 25808 net.cpp:141] Setting up inception_4e/relu_pool_proj
I0403 19:45:48.924165 25808 net.cpp:148] Top shape: 24 128 14 14 (602112)
I0403 19:45:48.924183 25808 net.cpp:156] Memory required for data: 1256902176
I0403 19:45:48.924201 25808 layer_factory.hpp:77] Creating layer inception_4e/output
I0403 19:45:48.924219 25808 net.cpp:91] Creating Layer inception_4e/output
I0403 19:45:48.924237 25808 net.cpp:425] inception_4e/output <- inception_4e/1x1
I0403 19:45:48.924259 25808 net.cpp:425] inception_4e/output <- inception_4e/3x3
I0403 19:45:48.924279 25808 net.cpp:425] inception_4e/output <- inception_4e/5x5
I0403 19:45:48.924314 25808 net.cpp:425] inception_4e/output <- inception_4e/pool_proj
I0403 19:45:48.924336 25808 net.cpp:399] inception_4e/output -> inception_4e/output
I0403 19:45:48.924407 25808 net.cpp:141] Setting up inception_4e/output
I0403 19:45:48.924438 25808 net.cpp:148] Top shape: 24 832 14 14 (3913728)
I0403 19:45:48.924453 25808 net.cpp:156] Memory required for data: 1272557088
I0403 19:45:48.924470 25808 layer_factory.hpp:77] Creating layer pool4/3x3_s2
I0403 19:45:48.924489 25808 net.cpp:91] Creating Layer pool4/3x3_s2
I0403 19:45:48.924507 25808 net.cpp:425] pool4/3x3_s2 <- inception_4e/output
I0403 19:45:48.924531 25808 net.cpp:399] pool4/3x3_s2 -> pool4/3x3_s2
I0403 19:45:48.924604 25808 net.cpp:141] Setting up pool4/3x3_s2
I0403 19:45:48.924635 25808 net.cpp:148] Top shape: 24 832 7 7 (978432)
I0403 19:45:48.924664 25808 net.cpp:156] Memory required for data: 1276470816
I0403 19:45:48.924680 25808 layer_factory.hpp:77] Creating layer pool4/3x3_s2_pool4/3x3_s2_0_split
I0403 19:45:48.924703 25808 net.cpp:91] Creating Layer pool4/3x3_s2_pool4/3x3_s2_0_split
I0403 19:45:48.924723 25808 net.cpp:425] pool4/3x3_s2_pool4/3x3_s2_0_split <- pool4/3x3_s2
I0403 19:45:48.924746 25808 net.cpp:399] pool4/3x3_s2_pool4/3x3_s2_0_split -> pool4/3x3_s2_pool4/3x3_s2_0_split_0
I0403 19:45:48.924772 25808 net.cpp:399] pool4/3x3_s2_pool4/3x3_s2_0_split -> pool4/3x3_s2_pool4/3x3_s2_0_split_1
I0403 19:45:48.924795 25808 net.cpp:399] pool4/3x3_s2_pool4/3x3_s2_0_split -> pool4/3x3_s2_pool4/3x3_s2_0_split_2
I0403 19:45:48.924818 25808 net.cpp:399] pool4/3x3_s2_pool4/3x3_s2_0_split -> pool4/3x3_s2_pool4/3x3_s2_0_split_3
I0403 19:45:48.924914 25808 net.cpp:141] Setting up pool4/3x3_s2_pool4/3x3_s2_0_split
I0403 19:45:48.924945 25808 net.cpp:148] Top shape: 24 832 7 7 (978432)
I0403 19:45:48.924964 25808 net.cpp:148] Top shape: 24 832 7 7 (978432)
I0403 19:45:48.924979 25808 net.cpp:148] Top shape: 24 832 7 7 (978432)
I0403 19:45:48.924995 25808 net.cpp:148] Top shape: 24 832 7 7 (978432)
I0403 19:45:48.925009 25808 net.cpp:156] Memory required for data: 1292125728
I0403 19:45:48.925024 25808 layer_factory.hpp:77] Creating layer inception_5a/1x1
I0403 19:45:48.925048 25808 net.cpp:91] Creating Layer inception_5a/1x1
I0403 19:45:48.925071 25808 net.cpp:425] inception_5a/1x1 <- pool4/3x3_s2_pool4/3x3_s2_0_split_0
I0403 19:45:48.925096 25808 net.cpp:399] inception_5a/1x1 -> inception_5a/1x1
I0403 19:45:48.928102 25808 net.cpp:141] Setting up inception_5a/1x1
I0403 19:45:48.928138 25808 net.cpp:148] Top shape: 24 256 7 7 (301056)
I0403 19:45:48.928158 25808 net.cpp:156] Memory required for data: 1293329952
I0403 19:45:48.928177 25808 layer_factory.hpp:77] Creating layer inception_5a/relu_1x1
I0403 19:45:48.928199 25808 net.cpp:91] Creating Layer inception_5a/relu_1x1
I0403 19:45:48.928218 25808 net.cpp:425] inception_5a/relu_1x1 <- inception_5a/1x1
I0403 19:45:48.928238 25808 net.cpp:386] inception_5a/relu_1x1 -> inception_5a/1x1 (in-place)
I0403 19:45:48.928567 25808 net.cpp:141] Setting up inception_5a/relu_1x1
I0403 19:45:48.928601 25808 net.cpp:148] Top shape: 24 256 7 7 (301056)
I0403 19:45:48.928622 25808 net.cpp:156] Memory required for data: 1294534176
I0403 19:45:48.928639 25808 layer_factory.hpp:77] Creating layer inception_5a/3x3_reduce
I0403 19:45:48.928663 25808 net.cpp:91] Creating Layer inception_5a/3x3_reduce
I0403 19:45:48.928685 25808 net.cpp:425] inception_5a/3x3_reduce <- pool4/3x3_s2_pool4/3x3_s2_0_split_1
I0403 19:45:48.928709 25808 net.cpp:399] inception_5a/3x3_reduce -> inception_5a/3x3_reduce
I0403 19:45:48.931293 25808 net.cpp:141] Setting up inception_5a/3x3_reduce
I0403 19:45:48.931329 25808 net.cpp:148] Top shape: 24 160 7 7 (188160)
I0403 19:45:48.931345 25808 net.cpp:156] Memory required for data: 1295286816
I0403 19:45:48.931366 25808 layer_factory.hpp:77] Creating layer inception_5a/relu_3x3_reduce
I0403 19:45:48.931388 25808 net.cpp:91] Creating Layer inception_5a/relu_3x3_reduce
I0403 19:45:48.931406 25808 net.cpp:425] inception_5a/relu_3x3_reduce <- inception_5a/3x3_reduce
I0403 19:45:48.931427 25808 net.cpp:386] inception_5a/relu_3x3_reduce -> inception_5a/3x3_reduce (in-place)
I0403 19:45:48.931625 25808 net.cpp:141] Setting up inception_5a/relu_3x3_reduce
I0403 19:45:48.931658 25808 net.cpp:148] Top shape: 24 160 7 7 (188160)
I0403 19:45:48.931674 25808 net.cpp:156] Memory required for data: 1296039456
I0403 19:45:48.931692 25808 layer_factory.hpp:77] Creating layer inception_5a/3x3
I0403 19:45:48.931716 25808 net.cpp:91] Creating Layer inception_5a/3x3
I0403 19:45:48.931735 25808 net.cpp:425] inception_5a/3x3 <- inception_5a/3x3_reduce
I0403 19:45:48.931759 25808 net.cpp:399] inception_5a/3x3 -> inception_5a/3x3
I0403 19:45:48.937042 25808 net.cpp:141] Setting up inception_5a/3x3
I0403 19:45:48.937077 25808 net.cpp:148] Top shape: 24 320 7 7 (376320)
I0403 19:45:48.937095 25808 net.cpp:156] Memory required for data: 1297544736
I0403 19:45:48.937116 25808 layer_factory.hpp:77] Creating layer inception_5a/relu_3x3
I0403 19:45:48.937139 25808 net.cpp:91] Creating Layer inception_5a/relu_3x3
I0403 19:45:48.937158 25808 net.cpp:425] inception_5a/relu_3x3 <- inception_5a/3x3
I0403 19:45:48.937177 25808 net.cpp:386] inception_5a/relu_3x3 -> inception_5a/3x3 (in-place)
I0403 19:45:48.937477 25808 net.cpp:141] Setting up inception_5a/relu_3x3
I0403 19:45:48.937511 25808 net.cpp:148] Top shape: 24 320 7 7 (376320)
I0403 19:45:48.937528 25808 net.cpp:156] Memory required for data: 1299050016
I0403 19:45:48.937546 25808 layer_factory.hpp:77] Creating layer inception_5a/5x5_reduce
I0403 19:45:48.937572 25808 net.cpp:91] Creating Layer inception_5a/5x5_reduce
I0403 19:45:48.937593 25808 net.cpp:425] inception_5a/5x5_reduce <- pool4/3x3_s2_pool4/3x3_s2_0_split_2
I0403 19:45:48.937614 25808 net.cpp:399] inception_5a/5x5_reduce -> inception_5a/5x5_reduce
I0403 19:45:48.938859 25808 net.cpp:141] Setting up inception_5a/5x5_reduce
I0403 19:45:48.938895 25808 net.cpp:148] Top shape: 24 32 7 7 (37632)
I0403 19:45:48.938915 25808 net.cpp:156] Memory required for data: 1299200544
I0403 19:45:48.938936 25808 layer_factory.hpp:77] Creating layer inception_5a/relu_5x5_reduce
I0403 19:45:48.938956 25808 net.cpp:91] Creating Layer inception_5a/relu_5x5_reduce
I0403 19:45:48.938974 25808 net.cpp:425] inception_5a/relu_5x5_reduce <- inception_5a/5x5_reduce
I0403 19:45:48.938994 25808 net.cpp:386] inception_5a/relu_5x5_reduce -> inception_5a/5x5_reduce (in-place)
I0403 19:45:48.939323 25808 net.cpp:141] Setting up inception_5a/relu_5x5_reduce
I0403 19:45:48.939358 25808 net.cpp:148] Top shape: 24 32 7 7 (37632)
I0403 19:45:48.939376 25808 net.cpp:156] Memory required for data: 1299351072
I0403 19:45:48.939394 25808 layer_factory.hpp:77] Creating layer inception_5a/5x5
I0403 19:45:48.939419 25808 net.cpp:91] Creating Layer inception_5a/5x5
I0403 19:45:48.939451 25808 net.cpp:425] inception_5a/5x5 <- inception_5a/5x5_reduce
I0403 19:45:48.939472 25808 net.cpp:399] inception_5a/5x5 -> inception_5a/5x5
I0403 19:45:48.941211 25808 net.cpp:141] Setting up inception_5a/5x5
I0403 19:45:48.941256 25808 net.cpp:148] Top shape: 24 128 7 7 (150528)
I0403 19:45:48.941274 25808 net.cpp:156] Memory required for data: 1299953184
I0403 19:45:48.941298 25808 layer_factory.hpp:77] Creating layer inception_5a/relu_5x5
I0403 19:45:48.941323 25808 net.cpp:91] Creating Layer inception_5a/relu_5x5
I0403 19:45:48.941344 25808 net.cpp:425] inception_5a/relu_5x5 <- inception_5a/5x5
I0403 19:45:48.941362 25808 net.cpp:386] inception_5a/relu_5x5 -> inception_5a/5x5 (in-place)
I0403 19:45:48.941556 25808 net.cpp:141] Setting up inception_5a/relu_5x5
I0403 19:45:48.941591 25808 net.cpp:148] Top shape: 24 128 7 7 (150528)
I0403 19:45:48.941608 25808 net.cpp:156] Memory required for data: 1300555296
I0403 19:45:48.941624 25808 layer_factory.hpp:77] Creating layer inception_5a/pool
I0403 19:45:48.941644 25808 net.cpp:91] Creating Layer inception_5a/pool
I0403 19:45:48.941663 25808 net.cpp:425] inception_5a/pool <- pool4/3x3_s2_pool4/3x3_s2_0_split_3
I0403 19:45:48.941684 25808 net.cpp:399] inception_5a/pool -> inception_5a/pool
I0403 19:45:48.941761 25808 net.cpp:141] Setting up inception_5a/pool
I0403 19:45:48.941792 25808 net.cpp:148] Top shape: 24 832 7 7 (978432)
I0403 19:45:48.941807 25808 net.cpp:156] Memory required for data: 1304469024
I0403 19:45:48.941823 25808 layer_factory.hpp:77] Creating layer inception_5a/pool_proj
I0403 19:45:48.941850 25808 net.cpp:91] Creating Layer inception_5a/pool_proj
I0403 19:45:48.941867 25808 net.cpp:425] inception_5a/pool_proj <- inception_5a/pool
I0403 19:45:48.941889 25808 net.cpp:399] inception_5a/pool_proj -> inception_5a/pool_proj
I0403 19:45:48.944205 25808 net.cpp:141] Setting up inception_5a/pool_proj
I0403 19:45:48.944250 25808 net.cpp:148] Top shape: 24 128 7 7 (150528)
I0403 19:45:48.944269 25808 net.cpp:156] Memory required for data: 1305071136
I0403 19:45:48.944300 25808 layer_factory.hpp:77] Creating layer inception_5a/relu_pool_proj
I0403 19:45:48.944327 25808 net.cpp:91] Creating Layer inception_5a/relu_pool_proj
I0403 19:45:48.944349 25808 net.cpp:425] inception_5a/relu_pool_proj <- inception_5a/pool_proj
I0403 19:45:48.944368 25808 net.cpp:386] inception_5a/relu_pool_proj -> inception_5a/pool_proj (in-place)
I0403 19:45:48.944682 25808 net.cpp:141] Setting up inception_5a/relu_pool_proj
I0403 19:45:48.944712 25808 net.cpp:148] Top shape: 24 128 7 7 (150528)
I0403 19:45:48.944730 25808 net.cpp:156] Memory required for data: 1305673248
I0403 19:45:48.944748 25808 layer_factory.hpp:77] Creating layer inception_5a/output
I0403 19:45:48.944768 25808 net.cpp:91] Creating Layer inception_5a/output
I0403 19:45:48.944787 25808 net.cpp:425] inception_5a/output <- inception_5a/1x1
I0403 19:45:48.944804 25808 net.cpp:425] inception_5a/output <- inception_5a/3x3
I0403 19:45:48.944823 25808 net.cpp:425] inception_5a/output <- inception_5a/5x5
I0403 19:45:48.944840 25808 net.cpp:425] inception_5a/output <- inception_5a/pool_proj
I0403 19:45:48.944859 25808 net.cpp:399] inception_5a/output -> inception_5a/output
I0403 19:45:48.944913 25808 net.cpp:141] Setting up inception_5a/output
I0403 19:45:48.944941 25808 net.cpp:148] Top shape: 24 832 7 7 (978432)
I0403 19:45:48.944957 25808 net.cpp:156] Memory required for data: 1309586976
I0403 19:45:48.944972 25808 layer_factory.hpp:77] Creating layer inception_5a/output_inception_5a/output_0_split
I0403 19:45:48.944993 25808 net.cpp:91] Creating Layer inception_5a/output_inception_5a/output_0_split
I0403 19:45:48.945010 25808 net.cpp:425] inception_5a/output_inception_5a/output_0_split <- inception_5a/output
I0403 19:45:48.945034 25808 net.cpp:399] inception_5a/output_inception_5a/output_0_split -> inception_5a/output_inception_5a/output_0_split_0
I0403 19:45:48.945055 25808 net.cpp:399] inception_5a/output_inception_5a/output_0_split -> inception_5a/output_inception_5a/output_0_split_1
I0403 19:45:48.945078 25808 net.cpp:399] inception_5a/output_inception_5a/output_0_split -> inception_5a/output_inception_5a/output_0_split_2
I0403 19:45:48.945099 25808 net.cpp:399] inception_5a/output_inception_5a/output_0_split -> inception_5a/output_inception_5a/output_0_split_3
I0403 19:45:48.945219 25808 net.cpp:141] Setting up inception_5a/output_inception_5a/output_0_split
I0403 19:45:48.945251 25808 net.cpp:148] Top shape: 24 832 7 7 (978432)
I0403 19:45:48.945271 25808 net.cpp:148] Top shape: 24 832 7 7 (978432)
I0403 19:45:48.945293 25808 net.cpp:148] Top shape: 24 832 7 7 (978432)
I0403 19:45:48.945310 25808 net.cpp:148] Top shape: 24 832 7 7 (978432)
I0403 19:45:48.945327 25808 net.cpp:156] Memory required for data: 1325241888
I0403 19:45:48.945343 25808 layer_factory.hpp:77] Creating layer inception_5b/1x1
I0403 19:45:48.945368 25808 net.cpp:91] Creating Layer inception_5b/1x1
I0403 19:45:48.945387 25808 net.cpp:425] inception_5b/1x1 <- inception_5a/output_inception_5a/output_0_split_0
I0403 19:45:48.945408 25808 net.cpp:399] inception_5b/1x1 -> inception_5b/1x1
I0403 19:45:48.949194 25808 net.cpp:141] Setting up inception_5b/1x1
I0403 19:45:48.949228 25808 net.cpp:148] Top shape: 24 384 7 7 (451584)
I0403 19:45:48.949244 25808 net.cpp:156] Memory required for data: 1327048224
I0403 19:45:48.949265 25808 layer_factory.hpp:77] Creating layer inception_5b/relu_1x1
I0403 19:45:48.949290 25808 net.cpp:91] Creating Layer inception_5b/relu_1x1
I0403 19:45:48.949311 25808 net.cpp:425] inception_5b/relu_1x1 <- inception_5b/1x1
I0403 19:45:48.949332 25808 net.cpp:386] inception_5b/relu_1x1 -> inception_5b/1x1 (in-place)
I0403 19:45:48.949640 25808 net.cpp:141] Setting up inception_5b/relu_1x1
I0403 19:45:48.949667 25808 net.cpp:148] Top shape: 24 384 7 7 (451584)
I0403 19:45:48.949684 25808 net.cpp:156] Memory required for data: 1328854560
I0403 19:45:48.949700 25808 layer_factory.hpp:77] Creating layer inception_5b/3x3_reduce
I0403 19:45:48.949724 25808 net.cpp:91] Creating Layer inception_5b/3x3_reduce
I0403 19:45:48.949743 25808 net.cpp:425] inception_5b/3x3_reduce <- inception_5a/output_inception_5a/output_0_split_1
I0403 19:45:48.949769 25808 net.cpp:399] inception_5b/3x3_reduce -> inception_5b/3x3_reduce
I0403 19:45:48.952469 25808 net.cpp:141] Setting up inception_5b/3x3_reduce
I0403 19:45:48.952503 25808 net.cpp:148] Top shape: 24 192 7 7 (225792)
I0403 19:45:48.952523 25808 net.cpp:156] Memory required for data: 1329757728
I0403 19:45:48.952543 25808 layer_factory.hpp:77] Creating layer inception_5b/relu_3x3_reduce
I0403 19:45:48.952566 25808 net.cpp:91] Creating Layer inception_5b/relu_3x3_reduce
I0403 19:45:48.952586 25808 net.cpp:425] inception_5b/relu_3x3_reduce <- inception_5b/3x3_reduce
I0403 19:45:48.952605 25808 net.cpp:386] inception_5b/relu_3x3_reduce -> inception_5b/3x3_reduce (in-place)
I0403 19:45:48.952800 25808 net.cpp:141] Setting up inception_5b/relu_3x3_reduce
I0403 19:45:48.952831 25808 net.cpp:148] Top shape: 24 192 7 7 (225792)
I0403 19:45:48.952847 25808 net.cpp:156] Memory required for data: 1330660896
I0403 19:45:48.952862 25808 layer_factory.hpp:77] Creating layer inception_5b/3x3
I0403 19:45:48.952886 25808 net.cpp:91] Creating Layer inception_5b/3x3
I0403 19:45:48.952906 25808 net.cpp:425] inception_5b/3x3 <- inception_5b/3x3_reduce
I0403 19:45:48.952929 25808 net.cpp:399] inception_5b/3x3 -> inception_5b/3x3
I0403 19:45:48.959658 25808 net.cpp:141] Setting up inception_5b/3x3
I0403 19:45:48.959691 25808 net.cpp:148] Top shape: 24 384 7 7 (451584)
I0403 19:45:48.959708 25808 net.cpp:156] Memory required for data: 1332467232
I0403 19:45:48.959728 25808 layer_factory.hpp:77] Creating layer inception_5b/relu_3x3
I0403 19:45:48.959748 25808 net.cpp:91] Creating Layer inception_5b/relu_3x3
I0403 19:45:48.959767 25808 net.cpp:425] inception_5b/relu_3x3 <- inception_5b/3x3
I0403 19:45:48.959787 25808 net.cpp:386] inception_5b/relu_3x3 -> inception_5b/3x3 (in-place)
I0403 19:45:48.960079 25808 net.cpp:141] Setting up inception_5b/relu_3x3
I0403 19:45:48.960110 25808 net.cpp:148] Top shape: 24 384 7 7 (451584)
I0403 19:45:48.960125 25808 net.cpp:156] Memory required for data: 1334273568
I0403 19:45:48.960141 25808 layer_factory.hpp:77] Creating layer inception_5b/5x5_reduce
I0403 19:45:48.960181 25808 net.cpp:91] Creating Layer inception_5b/5x5_reduce
I0403 19:45:48.960202 25808 net.cpp:425] inception_5b/5x5_reduce <- inception_5a/output_inception_5a/output_0_split_2
I0403 19:45:48.960227 25808 net.cpp:399] inception_5b/5x5_reduce -> inception_5b/5x5_reduce
I0403 19:45:48.961478 25808 net.cpp:141] Setting up inception_5b/5x5_reduce
I0403 19:45:48.961510 25808 net.cpp:148] Top shape: 24 48 7 7 (56448)
I0403 19:45:48.961526 25808 net.cpp:156] Memory required for data: 1334499360
I0403 19:45:48.961545 25808 layer_factory.hpp:77] Creating layer inception_5b/relu_5x5_reduce
I0403 19:45:48.961567 25808 net.cpp:91] Creating Layer inception_5b/relu_5x5_reduce
I0403 19:45:48.961588 25808 net.cpp:425] inception_5b/relu_5x5_reduce <- inception_5b/5x5_reduce
I0403 19:45:48.961608 25808 net.cpp:386] inception_5b/relu_5x5_reduce -> inception_5b/5x5_reduce (in-place)
I0403 19:45:48.961972 25808 net.cpp:141] Setting up inception_5b/relu_5x5_reduce
I0403 19:45:48.962003 25808 net.cpp:148] Top shape: 24 48 7 7 (56448)
I0403 19:45:48.962020 25808 net.cpp:156] Memory required for data: 1334725152
I0403 19:45:48.962036 25808 layer_factory.hpp:77] Creating layer inception_5b/5x5
I0403 19:45:48.962059 25808 net.cpp:91] Creating Layer inception_5b/5x5
I0403 19:45:48.962080 25808 net.cpp:425] inception_5b/5x5 <- inception_5b/5x5_reduce
I0403 19:45:48.962098 25808 net.cpp:399] inception_5b/5x5 -> inception_5b/5x5
I0403 19:45:48.964095 25808 net.cpp:141] Setting up inception_5b/5x5
I0403 19:45:48.964126 25808 net.cpp:148] Top shape: 24 128 7 7 (150528)
I0403 19:45:48.964146 25808 net.cpp:156] Memory required for data: 1335327264
I0403 19:45:48.964166 25808 layer_factory.hpp:77] Creating layer inception_5b/relu_5x5
I0403 19:45:48.964186 25808 net.cpp:91] Creating Layer inception_5b/relu_5x5
I0403 19:45:48.964206 25808 net.cpp:425] inception_5b/relu_5x5 <- inception_5b/5x5
I0403 19:45:48.964224 25808 net.cpp:386] inception_5b/relu_5x5 -> inception_5b/5x5 (in-place)
I0403 19:45:48.964428 25808 net.cpp:141] Setting up inception_5b/relu_5x5
I0403 19:45:48.964458 25808 net.cpp:148] Top shape: 24 128 7 7 (150528)
I0403 19:45:48.964476 25808 net.cpp:156] Memory required for data: 1335929376
I0403 19:45:48.964493 25808 layer_factory.hpp:77] Creating layer inception_5b/pool
I0403 19:45:48.964512 25808 net.cpp:91] Creating Layer inception_5b/pool
I0403 19:45:48.964531 25808 net.cpp:425] inception_5b/pool <- inception_5a/output_inception_5a/output_0_split_3
I0403 19:45:48.964553 25808 net.cpp:399] inception_5b/pool -> inception_5b/pool
I0403 19:45:48.964627 25808 net.cpp:141] Setting up inception_5b/pool
I0403 19:45:48.964658 25808 net.cpp:148] Top shape: 24 832 7 7 (978432)
I0403 19:45:48.964676 25808 net.cpp:156] Memory required for data: 1339843104
I0403 19:45:48.964692 25808 layer_factory.hpp:77] Creating layer inception_5b/pool_proj
I0403 19:45:48.964715 25808 net.cpp:91] Creating Layer inception_5b/pool_proj
I0403 19:45:48.964733 25808 net.cpp:425] inception_5b/pool_proj <- inception_5b/pool
I0403 19:45:48.964758 25808 net.cpp:399] inception_5b/pool_proj -> inception_5b/pool_proj
I0403 19:45:48.967034 25808 net.cpp:141] Setting up inception_5b/pool_proj
I0403 19:45:48.967067 25808 net.cpp:148] Top shape: 24 128 7 7 (150528)
I0403 19:45:48.967087 25808 net.cpp:156] Memory required for data: 1340445216
I0403 19:45:48.967105 25808 layer_factory.hpp:77] Creating layer inception_5b/relu_pool_proj
I0403 19:45:48.967126 25808 net.cpp:91] Creating Layer inception_5b/relu_pool_proj
I0403 19:45:48.967147 25808 net.cpp:425] inception_5b/relu_pool_proj <- inception_5b/pool_proj
I0403 19:45:48.967166 25808 net.cpp:386] inception_5b/relu_pool_proj -> inception_5b/pool_proj (in-place)
I0403 19:45:48.967465 25808 net.cpp:141] Setting up inception_5b/relu_pool_proj
I0403 19:45:48.967496 25808 net.cpp:148] Top shape: 24 128 7 7 (150528)
I0403 19:45:48.967515 25808 net.cpp:156] Memory required for data: 1341047328
I0403 19:45:48.967530 25808 layer_factory.hpp:77] Creating layer inception_5b/output
I0403 19:45:48.967551 25808 net.cpp:91] Creating Layer inception_5b/output
I0403 19:45:48.967584 25808 net.cpp:425] inception_5b/output <- inception_5b/1x1
I0403 19:45:48.967604 25808 net.cpp:425] inception_5b/output <- inception_5b/3x3
I0403 19:45:48.967624 25808 net.cpp:425] inception_5b/output <- inception_5b/5x5
I0403 19:45:48.967643 25808 net.cpp:425] inception_5b/output <- inception_5b/pool_proj
I0403 19:45:48.967659 25808 net.cpp:399] inception_5b/output -> inception_5b/output
I0403 19:45:48.967712 25808 net.cpp:141] Setting up inception_5b/output
I0403 19:45:48.967741 25808 net.cpp:148] Top shape: 24 1024 7 7 (1204224)
I0403 19:45:48.967757 25808 net.cpp:156] Memory required for data: 1345864224
I0403 19:45:48.967773 25808 layer_factory.hpp:77] Creating layer pool5/7x7_s1
I0403 19:45:48.967790 25808 net.cpp:91] Creating Layer pool5/7x7_s1
I0403 19:45:48.967808 25808 net.cpp:425] pool5/7x7_s1 <- inception_5b/output
I0403 19:45:48.967828 25808 net.cpp:399] pool5/7x7_s1 -> pool5/7x7_s1
I0403 19:45:48.968046 25808 net.cpp:141] Setting up pool5/7x7_s1
I0403 19:45:48.968077 25808 net.cpp:148] Top shape: 24 1024 1 1 (24576)
I0403 19:45:48.968096 25808 net.cpp:156] Memory required for data: 1345962528
I0403 19:45:48.968112 25808 layer_factory.hpp:77] Creating layer pool5/drop_7x7_s1
I0403 19:45:48.968137 25808 net.cpp:91] Creating Layer pool5/drop_7x7_s1
I0403 19:45:48.968155 25808 net.cpp:425] pool5/drop_7x7_s1 <- pool5/7x7_s1
I0403 19:45:48.968174 25808 net.cpp:386] pool5/drop_7x7_s1 -> pool5/7x7_s1 (in-place)
I0403 19:45:48.968228 25808 net.cpp:141] Setting up pool5/drop_7x7_s1
I0403 19:45:48.968257 25808 net.cpp:148] Top shape: 24 1024 1 1 (24576)
I0403 19:45:48.968274 25808 net.cpp:156] Memory required for data: 1346060832
I0403 19:45:48.968310 25808 layer_factory.hpp:77] Creating layer loss3/classifier_plantvillage
I0403 19:45:48.968333 25808 net.cpp:91] Creating Layer loss3/classifier_plantvillage
I0403 19:45:48.968353 25808 net.cpp:425] loss3/classifier_plantvillage <- pool5/7x7_s1
I0403 19:45:48.968374 25808 net.cpp:399] loss3/classifier_plantvillage -> loss3/classifier_plantvillage
I0403 19:45:48.968812 25808 net.cpp:141] Setting up loss3/classifier_plantvillage
I0403 19:45:48.968842 25808 net.cpp:148] Top shape: 24 38 (912)
I0403 19:45:48.968859 25808 net.cpp:156] Memory required for data: 1346064480
I0403 19:45:48.968878 25808 layer_factory.hpp:77] Creating layer loss3/classifier_plantvillage_loss3/classifier_plantvillage_0_split
I0403 19:45:48.968899 25808 net.cpp:91] Creating Layer loss3/classifier_plantvillage_loss3/classifier_plantvillage_0_split
I0403 19:45:48.968915 25808 net.cpp:425] loss3/classifier_plantvillage_loss3/classifier_plantvillage_0_split <- loss3/classifier_plantvillage
I0403 19:45:48.968937 25808 net.cpp:399] loss3/classifier_plantvillage_loss3/classifier_plantvillage_0_split -> loss3/classifier_plantvillage_loss3/classifier_plantvillage_0_split_0
I0403 19:45:48.968961 25808 net.cpp:399] loss3/classifier_plantvillage_loss3/classifier_plantvillage_0_split -> loss3/classifier_plantvillage_loss3/classifier_plantvillage_0_split_1
I0403 19:45:48.968984 25808 net.cpp:399] loss3/classifier_plantvillage_loss3/classifier_plantvillage_0_split -> loss3/classifier_plantvillage_loss3/classifier_plantvillage_0_split_2
I0403 19:45:48.969007 25808 net.cpp:399] loss3/classifier_plantvillage_loss3/classifier_plantvillage_0_split -> loss3/classifier_plantvillage_loss3/classifier_plantvillage_0_split_3
I0403 19:45:48.969111 25808 net.cpp:141] Setting up loss3/classifier_plantvillage_loss3/classifier_plantvillage_0_split
I0403 19:45:48.969141 25808 net.cpp:148] Top shape: 24 38 (912)
I0403 19:45:48.969159 25808 net.cpp:148] Top shape: 24 38 (912)
I0403 19:45:48.969177 25808 net.cpp:148] Top shape: 24 38 (912)
I0403 19:45:48.969192 25808 net.cpp:148] Top shape: 24 38 (912)
I0403 19:45:48.969207 25808 net.cpp:156] Memory required for data: 1346079072
I0403 19:45:48.969220 25808 layer_factory.hpp:77] Creating layer loss1/loss
I0403 19:45:48.969247 25808 net.cpp:91] Creating Layer loss1/loss
I0403 19:45:48.969266 25808 net.cpp:425] loss1/loss <- loss1/classifier_plantvillage_loss1/classifier_plantvillage_0_split_0
I0403 19:45:48.969305 25808 net.cpp:425] loss1/loss <- label_data_1_split_0
…
