…
I0403 19:43:38.455166 25687 net.cpp:313] The NetState phase (1) differed from the phase (0) specified by a rule in layer data
I0403 19:43:38.456369 25687 net.cpp:49] Initializing net from parameters: 
state {
  phase: TEST
}
layer {
  name: "data"
  type: "Data"
  top: "data"
  top: "label"
  include {
    phase: TEST
  }
  transform_param {
    mirror: false
    crop_size: 224
    mean_file: "/home/mohanty/data/final_dataset/lmdb/grayscale-80-20/mean.binaryproto"
  }
  data_param {
    source: "/home/mohanty/data/final_dataset/lmdb/grayscale-80-20/test_db"
    batch_size: 24
    backend: LMDB
  }
}
layer {
  name: "conv1/7x7_s2"
  type: "Convolution"
  bottom: "data"
  top: "conv1/7x7_s2"
  param {
    lr_mult: 1
    decay_mult: 1
  }
  param {
    lr_mult: 2
    decay_mult: 0
  }
  convolution_param {
    num_output: 64
    pad: 3
    kernel_size: 7
    stride: 2
    weight_filler {
      type: "xavier"
      std: 0.1
    }
    bias_filler {
      type: "constant"
      value: 0.2
    }
  }
}
layer {
  name: "conv1/relu_7x7"
  type: "ReLU"
  bottom: "conv1/7x7_s2"
  top: "conv1/7x7_s2"
}
layer {
  name: "pool1/3x3_s2"
  type: "Pooling"
  bottom: "conv1/7x7_s2"
  top: "pool1/3x3_s2"
  pooling_param {
    pool: MAX
    kernel_size: 3
    stride: 2
  }
}
layer {
  name: "pool1/norm1"
  type: "LRN"
  bottom: "pool1/3x3_s2"
  top: "pool1/norm1"
  lrn_param {
    local_size: 5
    alpha: 0.0001
    beta: 0.75
  }
}
layer {
  name: "conv2/3x3_reduce"
  type: "Convolution"
  bottom: "pool1/norm1"
  top: "conv2/3x3_reduce"
  param {
    lr_mult: 1
    decay_mult: 1
  }
  param {
    lr_mult: 2
    decay_mult: 0
  }
  convolution_param {
    num_output: 64
    kernel_size: 1
    weight_filler {
      type: "xavier"
      std: 0.1
    }
    bias_filler {
      type: "constant"
      value: 0.2
    }
  }
}
layer {
  name: "conv2/relu_3x3_reduce"
  type: "ReLU"
  bottom: "conv2/3x3_reduce"
  top: "conv2/3x3_reduce"
}
layer {
  name: "conv2/3x3"
  type: "Convolution"
  bottom: "conv2/3x3_reduce"
  top: "conv2/3x3"
  param {
    lr_mult: 1
    decay_mult: 1
  }
  param {
    lr_mult: 2
    decay_mult: 0
  }
  convolution_param {
    num_output: 192
    pad: 1
    kernel_size: 3
    weight_filler {
      type: "xavier"
      std: 0.03
    }
    bias_filler {
      type: "constant"
      value: 0.2
    }
  }
}
layer {
  name: "conv2/relu_3x3"
  type: "ReLU"
  bottom: "conv2/3x3"
  top: "conv2/3x3"
}
layer {
  name: "conv2/norm2"
  type: "LRN"
  bottom: "conv2/3x3"
  top: "conv2/norm2"
  lrn_param {
    local_size: 5
    alpha: 0.0001
    beta: 0.75
  }
}
layer {
  name: "pool2/3x3_s2"
  type: "Pooling"
  bottom: "conv2/norm2"
  top: "pool2/3x3_s2"
  pooling_param {
    pool: MAX
    kernel_size: 3
    stride: 2
  }
}
layer {
  name: "inception_3a/1x1"
  type: "Convolution"
  bottom: "pool2/3x3_s2"
  top: "inception_3a/1x1"
  param {
    lr_mult: 1
    decay_mult: 1
  }
  param {
    lr_mult: 2
    decay_mult: 0
  }
  convolution_param {
    num_output: 64
    kernel_size: 1
    weight_filler {
      type: "xavier"
      std: 0.03
    }
    bias_filler {
      type: "constant"
      value: 0.2
    }
  }
}
layer {
  name: "inception_3a/relu_1x1"
  type: "ReLU"
  bottom: "inception_3a/1x1"
  top: "inception_3a/1x1"
}
layer {
  name: "inception_3a/3x3_reduce"
  type: "Convolution"
  bottom: "pool2/3x3_s2"
  top: "inception_3a/3x3_reduce"
  param {
    lr_mult: 1
    decay_mult: 1
  }
  param {
    lr_mult: 2
    decay_mult: 0
  }
  convolution_param {
    num_output: 96
    kernel_size: 1
    weight_filler {
      type: "xavier"
      std: 0.09
    }
    bias_filler {
      type: "constant"
      value: 0.2
    }
  }
}
layer {
  name: "inception_3a/relu_3x3_reduce"
  type: "ReLU"
  bottom: "inception_3a/3x3_reduce"
  top: "inception_3a/3x3_reduce"
}
layer {
  name: "inception_3a/3x3"
  type: "Convolution"
  bottom: "inception_3a/3x3_reduce"
  top: "inception_3a/3x3"
  param {
    lr_mult: 1
    decay_mult: 1
  }
  param {
    lr_mult: 2
    decay_mult: 0
  }
  convolution_param {
    num_output: 128
    pad: 1
    kernel_size: 3
    weight_filler {
      type: "xavier"
      std: 0.03
    }
    bias_filler {
      type: "constant"
      value: 0.2
    }
  }
}
layer {
  name: "inception_3a/relu_3x3"
  type: "ReLU"
  bottom: "inception_3a/3x3"
  top: "inception_3a/3x3"
}
layer {
  name: "inception_3a/5x5_reduce"
  type: "Convolution"
  bottom: "pool2/3x3_s2"
  top: "inception_3a/5x5_reduce"
  param {
    lr_mult: 1
    decay_mult: 1
  }
  param {
    lr_mult: 2
    decay_mult: 0
  }
  convolution_param {
    num_output: 16
    kernel_size: 1
    weight_filler {
      type: "xavier"
      std: 0.2
    }
    bias_filler {
      type: "constant"
      value: 0.2
    }
  }
}
layer {
  name: "inception_3a/relu_5x5_reduce"
  type: "ReLU"
  bottom: "inception_3a/5x5_reduce"
  top: "inception_3a/5x5_reduce"
}
layer {
  name: "inception_3a/5x5"
  type: "Convolution"
  bottom: "inception_3a/5x5_reduce"
  top: "inception_3a/5x5"
  param {
    lr_mult: 1
    decay_mult: 1
  }
  param {
    lr_mult: 2
    decay_mult: 0
  }
  convolution_param {
    num_output: 32
    pad: 2
    kernel_size: 5
    weight_filler {
      type: "xavier"
      std: 0.03
    }
    bias_filler {
      type: "constant"
      value: 0.2
    }
  }
}
layer {
  name: "inception_3a/relu_5x5"
  type: "ReLU"
  bottom: "inception_3a/5x5"
  top: "inception_3a/5x5"
}
layer {
  name: "inception_3a/pool"
  type: "Pooling"
  bottom: "pool2/3x3_s2"
  top: "inception_3a/pool"
  pooling_param {
    pool: MAX
    kernel_size: 3
    stride: 1
    pad: 1
  }
}
layer {
  name: "inception_3a/pool_proj"
  type: "Convolution"
  bottom: "inception_3a/pool"
  top: "inception_3a/pool_proj"
  param {
    lr_mult: 1
    decay_mult: 1
  }
  param {
    lr_mult: 2
    decay_mult: 0
  }
  convolution_param {
    num_output: 32
    kernel_size: 1
    weight_filler {
      type: "xavier"
      std: 0.1
    }
    bias_filler {
      type: "constant"
      value: 0.2
    }
  }
}
layer {
  name: "inception_3a/relu_pool_proj"
  type: "ReLU"
  bottom: "inception_3a/pool_proj"
  top: "inception_3a/pool_proj"
}
layer {
  name: "inception_3a/output"
  type: "Concat"
  bottom: "inception_3a/1x1"
  bottom: "inception_3a/3x3"
  bottom: "inception_3a/5x5"
  bottom: "inception_3a/pool_proj"
  top: "inception_3a/output"
}
layer {
  name: "inception_3b/1x1"
  type: "Convolution"
  bottom: "inception_3a/output"
  top: "inception_3b/1x1"
  param {
    lr_mult: 1
    decay_mult: 1
  }
  param {
    lr_mult: 2
    decay_mult: 0
  }
  convolution_param {
    num_output: 128
    kernel_size: 1
    weight_filler {
      type: "xavier"
      std: 0.03
    }
    bias_filler {
      type: "constant"
      value: 0.2
    }
  }
}
layer {
  name: "inception_3b/relu_1x1"
  type: "ReLU"
  bottom: "inception_3b/1x1"
  top: "inception_3b/1x1"
}
layer {
  name: "inception_3b/3x3_reduce"
  type: "Convolution"
  bottom: "inception_3a/output"
  top: "inception_3b/3x3_reduce"
  param {
    lr_mult: 1
    decay_mult: 1
  }
  param {
    lr_mult: 2
    decay_mult: 0
  }
  convolution_param {
    num_output: 128
    kernel_size: 1
    weight_filler {
      type: "xavier"
      std: 0.09
    }
    bias_filler {
      type: "constant"
      value: 0.2
    }
  }
}
layer {
  name: "inception_3b/relu_3x3_reduce"
  type: "ReLU"
  bottom: "inception_3b/3x3_reduce"
  top: "inception_3b/3x3_reduce"
}
layer {
  name: "inception_3b/3x3"
  type: "Convolution"
  bottom: "inception_3b/3x3_reduce"
  top: "inception_3b/3x3"
  param {
    lr_mult: 1
    decay_mult: 1
  }
  param {
    lr_mult: 2
    decay_mult: 0
  }
  convolution_param {
    num_output: 192
    pad: 1
    kernel_size: 3
    weight_filler {
      type: "xavier"
      std: 0.03
    }
    bias_filler {
      type: "constant"
      value: 0.2
    }
  }
}
layer {
  name: "inception_3b/relu_3x3"
  type: "ReLU"
  bottom: "inception_3b/3x3"
  top: "inception_3b/3x3"
}
layer {
  name: "inception_3b/5x5_reduce"
  type: "Convolution"
  bottom: "inception_3a/output"
  top: "inception_3b/5x5_reduce"
  param {
    lr_mult: 1
    decay_mult: 1
  }
  param {
    lr_mult: 2
    decay_mult: 0
  }
  convolution_param {
    num_output: 32
    kernel_size: 1
    weight_filler {
      type: "xavier"
      std: 0.2
    }
    bias_filler {
      type: "constant"
      value: 0.2
    }
  }
}
layer {
  name: "inception_3b/relu_5x5_reduce"
  type: "ReLU"
  bottom: "inception_3b/5x5_reduce"
  top: "inception_3b/5x5_reduce"
}
layer {
  name: "inception_3b/5x5"
  type: "Convolution"
  bottom: "inception_3b/5x5_reduce"
  top: "inception_3b/5x5"
  param {
    lr_mult: 1
    decay_mult: 1
  }
  param {
    lr_mult: 2
    decay_mult: 0
  }
  convolution_param {
    num_output: 96
    pad: 2
    kernel_size: 5
    weight_filler {
      type: "xavier"
      std: 0.03
    }
    bias_filler {
      type: "constant"
      value: 0.2
    }
  }
}
layer {
  name: "inception_3b/relu_5x5"
  type: "ReLU"
  bottom: "inception_3b/5x5"
  top: "inception_3b/5x5"
}
layer {
  name: "inception_3b/pool"
  type: "Pooling"
  bottom: "inception_3a/output"
  top: "inception_3b/pool"
  pooling_param {
    pool: MAX
    kernel_size: 3
    stride: 1
    pad: 1
  }
}
layer {
  name: "inception_3b/pool_proj"
  type: "Convolution"
  bottom: "inception_3b/pool"
  top: "inception_3b/pool_proj"
  param {
    lr_mult: 1
    decay_mult: 1
  }
  param {
    lr_mult: 2
    decay_mult: 0
  }
  convolution_param {
    num_output: 64
    kernel_size: 1
    weight_filler {
      type: "xavier"
      std: 0.1
    }
    bias_filler {
      type: "constant"
      value: 0.2
    }
  }
}
layer {
  name: "inception_3b/relu_pool_proj"
  type: "ReLU"
  bottom: "inception_3b/pool_proj"
  top: "inception_3b/pool_proj"
}
layer {
  name: "inception_3b/output"
  type: "Concat"
  bottom: "inception_3b/1x1"
  bottom: "inception_3b/3x3"
  bottom: "inception_3b/5x5"
  bottom: "inception_3b/pool_proj"
  top: "inception_3b/output"
}
layer {
  name: "pool3/3x3_s2"
  type: "Pooling"
  bottom: "inception_3b/output"
  top: "pool3/3x3_s2"
  pooling_param {
    pool: MAX
    kernel_size: 3
    stride: 2
  }
}
layer {
  name: "inception_4a/1x1"
  type: "Convolution"
  bottom: "pool3/3x3_s2"
  top: "inception_4a/1x1"
  param {
    lr_mult: 1
    decay_mult: 1
  }
  param {
    lr_mult: 2
    decay_mult: 0
  }
  convolution_param {
    num_output: 192
    kernel_size: 1
    weight_filler {
      type: "xavier"
      std: 0.03
    }
    bias_filler {
      type: "constant"
      value: 0.2
    }
  }
}
layer {
  name: "inception_4a/relu_1x1"
  type: "ReLU"
  bottom: "inception_4a/1x1"
  top: "inception_4a/1x1"
}
layer {
  name: "inception_4a/3x3_reduce"
  type: "Convolution"
  bottom: "pool3/3x3_s2"
  top: "inception_4a/3x3_reduce"
  param {
    lr_mult: 1
    decay_mult: 1
  }
  param {
    lr_mult: 2
    decay_mult: 0
  }
  convolution_param {
    num_output: 96
    kernel_size: 1
    weight_filler {
      type: "xavier"
      std: 0.09
    }
    bias_filler {
      type: "constant"
      value: 0.2
    }
  }
}
layer {
  name: "inception_4a/relu_3x3_reduce"
  type: "ReLU"
  bottom: "inception_4a/3x3_reduce"
  top: "inception_4a/3x3_reduce"
}
layer {
  name: "inception_4a/3x3"
  type: "Convolution"
  bottom: "inception_4a/3x3_reduce"
  top: "inception_4a/3x3"
  param {
    lr_mult: 1
    decay_mult: 1
  }
  param {
    lr_mult: 2
    decay_mult: 0
  }
  convolution_param {
    num_output: 208
    pad: 1
    kernel_size: 3
    weight_filler {
      type: "xavier"
      std: 0.03
    }
    bias_filler {
      type: "constant"
      value: 0.2
    }
  }
}
layer {
  name: "inception_4a/relu_3x3"
  type: "ReLU"
  bottom: "inception_4a/3x3"
  top: "inception_4a/3x3"
}
layer {
  name: "inception_4a/5x5_reduce"
  type: "Convolution"
  bottom: "pool3/3x3_s2"
  top: "inception_4a/5x5_reduce"
  param {
    lr_mult: 1
    decay_mult: 1
  }
  param {
    lr_mult: 2
    decay_mult: 0
  }
  convolution_param {
    num_output: 16
    kernel_size: 1
    weight_filler {
      type: "xavier"
      std: 0.2
    }
    bias_filler {
      type: "constant"
      value: 0.2
    }
  }
}
layer {
  name: "inception_4a/relu_5x5_reduce"
  type: "ReLU"
  bottom: "inception_4a/5x5_reduce"
  top: "inception_4a/5x5_reduce"
}
layer {
  name: "inception_4a/5x5"
  type: "Convolution"
  bottom: "inception_4a/5x5_reduce"
  top: "inception_4a/5x5"
  param {
    lr_mult: 1
    decay_mult: 1
  }
  param {
    lr_mult: 2
    decay_mult: 0
  }
  convolution_param {
    num_output: 48
    pad: 2
    kernel_size: 5
    weight_filler {
      type: "xavier"
      std: 0.03
    }
    bias_filler {
      type: "constant"
      value: 0.2
    }
  }
}
layer {
  name: "inception_4a/relu_5x5"
  type: "ReLU"
  bottom: "inception_4a/5x5"
  top: "inception_4a/5x5"
}
layer {
  name: "inception_4a/pool"
  type: "Pooling"
  bottom: "pool3/3x3_s2"
  top: "inception_4a/pool"
  pooling_param {
    pool: MAX
    kernel_size: 3
    stride: 1
    pad: 1
  }
}
layer {
  name: "inception_4a/pool_proj"
  type: "Convolution"
  bottom: "inception_4a/pool"
  top: "inception_4a/pool_proj"
  param {
    lr_mult: 1
    decay_mult: 1
  }
  param {
    lr_mult: 2
    decay_mult: 0
  }
  convolution_param {
    num_output: 64
    kernel_size: 1
    weight_filler {
      type: "xavier"
      std: 0.1
    }
    bias_filler {
      type: "constant"
      value: 0.2
    }
  }
}
layer {
  name: "inception_4a/relu_pool_proj"
  type: "ReLU"
  bottom: "inception_4a/pool_proj"
  top: "inception_4a/pool_proj"
}
layer {
  name: "inception_4a/output"
  type: "Concat"
  bottom: "inception_4a/1x1"
  bottom: "inception_4a/3x3"
  bottom: "inception_4a/5x5"
  bottom: "inception_4a/pool_proj"
  top: "inception_4a/output"
}
layer {
  name: "loss1/ave_pool"
  type: "Pooling"
  bottom: "inception_4a/output"
  top: "loss1/ave_pool"
  pooling_param {
    pool: AVE
    kernel_size: 5
    stride: 3
  }
}
layer {
  name: "loss1/conv"
  type: "Convolution"
  bottom: "loss1/ave_pool"
  top: "loss1/conv"
  param {
    lr_mult: 1
    decay_mult: 1
  }
  param {
    lr_mult: 2
    decay_mult: 0
  }
  convolution_param {
    num_output: 128
    kernel_size: 1
    weight_filler {
      type: "xavier"
      std: 0.08
    }
    bias_filler {
      type: "constant"
      value: 0.2
    }
  }
}
layer {
  name: "loss1/relu_conv"
  type: "ReLU"
  bottom: "loss1/conv"
  top: "loss1/conv"
}
layer {
  name: "loss1/fc"
  type: "InnerProduct"
  bottom: "loss1/conv"
  top: "loss1/fc"
  param {
    lr_mult: 1
    decay_mult: 1
  }
  param {
    lr_mult: 2
    decay_mult: 0
  }
  inner_product_param {
    num_output: 1024
    weight_filler {
      type: "xavier"
      std: 0.02
    }
    bias_filler {
      type: "constant"
      value: 0.2
    }
  }
}
layer {
  name: "loss1/relu_fc"
  type: "ReLU"
  bottom: "loss1/fc"
  top: "loss1/fc"
}
layer {
  name: "loss1/drop_fc"
  type: "Dropout"
  bottom: "loss1/fc"
  top: "loss1/fc"
  dropout_param {
    dropout_ratio: 0.7
  }
}
layer {
  name: "loss1/classifier_plantvillage"
  type: "InnerProduct"
  bottom: "loss1/fc"
  top: "loss1/classifier_plantvillage"
  param {
    lr_mult: 1
    decay_mult: 1
  }
  param {
    lr_mult: 2
    decay_mult: 0
  }
  inner_product_param {
    num_output: 38
    weight_filler {
      type: "xavier"
      std: 0.0009765625
    }
    bias_filler {
      type: "constant"
      value: 0
    }
  }
}
layer {
  name: "inception_4b/1x1"
  type: "Convolution"
  bottom: "inception_4a/output"
  top: "inception_4b/1x1"
  param {
    lr_mult: 1
    decay_mult: 1
  }
  param {
    lr_mult: 2
    decay_mult: 0
  }
  convolution_param {
    num_output: 160
    kernel_size: 1
    weight_filler {
      type: "xavier"
      std: 0.03
    }
    bias_filler {
      type: "constant"
      value: 0.2
    }
  }
}
layer {
  name: "inception_4b/relu_1x1"
  type: "ReLU"
  bottom: "inception_4b/1x1"
  top: "inception_4b/1x1"
}
layer {
  name: "inception_4b/3x3_reduce"
  type: "Convolution"
  bottom: "inception_4a/output"
  top: "inception_4b/3x3_reduce"
  param {
    lr_mult: 1
    decay_mult: 1
  }
  param {
    lr_mult: 2
    decay_mult: 0
  }
  convolution_param {
    num_output: 112
    kernel_size: 1
    weight_filler {
      type: "xavier"
      std: 0.09
    }
    bias_filler {
      type: "constant"
      value: 0.2
    }
  }
}
layer {
  name: "inception_4b/relu_3x3_reduce"
  type: "ReLU"
  bottom: "inception_4b/3x3_reduce"
  top: "inception_4b/3x3_reduce"
}
layer {
  name: "inception_4b/3x3"
  type: "Convolution"
  bottom: "inception_4b/3x3_reduce"
  top: "inception_4b/3x3"
  param {
    lr_mult: 1
    decay_mult: 1
  }
  param {
    lr_mult: 2
    decay_mult: 0
  }
  convolution_param {
    num_output: 224
    pad: 1
    kernel_size: 3
    weight_filler {
      type: "xavier"
      std: 0.03
    }
    bias_filler {
      type: "constant"
      value: 0.2
    }
  }
}
layer {
  name: "inception_4b/relu_3x3"
  type: "ReLU"
  bottom: "inception_4b/3x3"
  top: "inception_4b/3x3"
}
layer {
  name: "inception_4b/5x5_reduce"
  type: "Convolution"
  bottom: "inception_4a/output"
  top: "inception_4b/5x5_reduce"
  param {
    lr_mult: 1
    decay_mult: 1
  }
  param {
    lr_mult: 2
    decay_mult: 0
  }
  convolution_param {
    num_output: 24
    kernel_size: 1
    weight_filler {
      type: "xavier"
      std: 0.2
    }
    bias_filler {
      type: "constant"
      value: 0.2
    }
  }
}
layer {
  name: "inception_4b/relu_5x5_reduce"
  type: "ReLU"
  bottom: "inception_4b/5x5_reduce"
  top: "inception_4b/5x5_reduce"
}
layer {
  name: "inception_4b/5x5"
  type: "Convolution"
  bottom: "inception_4b/5x5_reduce"
  top: "inception_4b/5x5"
  param {
    lr_mult: 1
    decay_mult: 1
  }
  param {
    lr_mult: 2
    decay_mult: 0
  }
  convolution_param {
    num_output: 64
    pad: 2
    kernel_size: 5
    weight_filler {
      type: "xavier"
      std: 0.03
    }
    bias_filler {
      type: "constant"
      value: 0.2
    }
  }
}
layer {
  name: "inception_4b/relu_5x5"
  type: "ReLU"
  bottom: "inception_4b/5x5"
  top: "inception_4b/5x5"
}
layer {
  name: "inception_4b/pool"
  type: "Pooling"
  bottom: "inception_4a/output"
  top: "inception_4b/pool"
  pooling_param {
    pool: MAX
    kernel_size: 3
    stride: 1
    pad: 1
  }
}
layer {
  name: "inception_4b/pool_proj"
  type: "Convolution"
  bottom: "inception_4b/pool"
  top: "inception_4b/pool_proj"
  param {
    lr_mult: 1
    decay_mult: 1
  }
  param {
    lr_mult: 2
    decay_mult: 0
  }
  convolution_param {
    num_output: 64
    kernel_size: 1
    weight_filler {
      type: "xavier"
      std: 0.1
    }
    bias_filler {
      type: "constant"
      value: 0.2
    }
  }
}
layer {
  name: "inception_4b/relu_pool_proj"
  type: "ReLU"
  bottom: "inception_4b/pool_proj"
  top: "inception_4b/pool_proj"
}
layer {
  name: "inception_4b/output"
  type: "Concat"
  bottom: "inception_4b/1x1"
  bottom: "inception_4b/3x3"
  bottom: "inception_4b/5x5"
  bottom: "inception_4b/pool_proj"
  top: "inception_4b/output"
}
layer {
  name: "inception_4c/1x1"
  type: "Convolution"
  bottom: "inception_4b/output"
  top: "inception_4c/1x1"
  param {
    lr_mult: 1
    decay_mult: 1
  }
  param {
    lr_mult: 2
    decay_mult: 0
  }
  convolution_param {
    num_output: 128
    kernel_size: 1
    weight_filler {
      type: "xavier"
      std: 0.03
    }
    bias_filler {
      type: "constant"
      value: 0.2
    }
  }
}
layer {
  name: "inception_4c/relu_1x1"
  type: "ReLU"
  bottom: "inception_4c/1x1"
  top: "inception_4c/1x1"
}
layer {
  name: "inception_4c/3x3_reduce"
  type: "Convolution"
  bottom: "inception_4b/output"
  top: "inception_4c/3x3_reduce"
  param {
    lr_mult: 1
    decay_mult: 1
  }
  param {
    lr_mult: 2
    decay_mult: 0
  }
  convolution_param {
    num_output: 128
    kernel_size: 1
    weight_filler {
      type: "xavier"
      std: 0.09
    }
    bias_filler {
      type: "constant"
      value: 0.2
    }
  }
}
layer {
  name: "inception_4c/relu_3x3_reduce"
  type: "ReLU"
  bottom: "inception_4c/3x3_reduce"
  top: "inception_4c/3x3_reduce"
}
layer {
  name: "inception_4c/3x3"
  type: "Convolution"
  bottom: "inception_4c/3x3_reduce"
  top: "inception_4c/3x3"
  param {
    lr_mult: 1
    decay_mult: 1
  }
  param {
    lr_mult: 2
    decay_mult: 0
  }
  convolution_param {
    num_output: 256
    pad: 1
    kernel_size: 3
    weight_filler {
      type: "xavier"
      std: 0.03
    }
    bias_filler {
      type: "constant"
      value: 0.2
    }
  }
}
layer {
  name: "inception_4c/relu_3x3"
  type: "ReLU"
  bottom: "inception_4c/3x3"
  top: "inception_4c/3x3"
}
layer {
  name: "inception_4c/5x5_reduce"
  type: "Convolution"
  bottom: "inception_4b/output"
  top: "inception_4c/5x5_reduce"
  param {
    lr_mult: 1
    decay_mult: 1
  }
  param {
    lr_mult: 2
    decay_mult: 0
  }
  convolution_param {
    num_output: 24
    kernel_size: 1
    weight_filler {
      type: "xavier"
      std: 0.2
    }
    bias_filler {
      type: "constant"
      value: 0.2
    }
  }
}
layer {
  name: "inception_4c/relu_5x5_reduce"
  type: "ReLU"
  bottom: "inception_4c/5x5_reduce"
  top: "inception_4c/5x5_reduce"
}
layer {
  name: "inception_4c/5x5"
  type: "Convolution"
  bottom: "inception_4c/5x5_reduce"
  top: "inception_4c/5x5"
  param {
    lr_mult: 1
    decay_mult: 1
  }
  param {
    lr_mult: 2
    decay_mult: 0
  }
  convolution_param {
    num_output: 64
    pad: 2
    kernel_size: 5
    weight_filler {
      type: "xavier"
      std: 0.03
    }
    bias_filler {
      type: "constant"
      value: 0.2
    }
  }
}
layer {
  name: "inception_4c/relu_5x5"
  type: "ReLU"
  bottom: "inception_4c/5x5"
  top: "inception_4c/5x5"
}
layer {
  name: "inception_4c/pool"
  type: "Pooling"
  bottom: "inception_4b/output"
  top: "inception_4c/pool"
  pooling_param {
    pool: MAX
    kernel_size: 3
    stride: 1
    pad: 1
  }
}
layer {
  name: "inception_4c/pool_proj"
  type: "Convolution"
  bottom: "inception_4c/pool"
  top: "inception_4c/pool_proj"
  param {
    lr_mult: 1
    decay_mult: 1
  }
  param {
    lr_mult: 2
    decay_mult: 0
  }
  convolution_param {
    num_output: 64
    kernel_size: 1
    weight_filler {
      type: "xavier"
      std: 0.1
    }
    bias_filler {
      type: "constant"
      value: 0.2
    }
  }
}
layer {
  name: "inception_4c/relu_pool_proj"
  type: "ReLU"
  bottom: "inception_4c/pool_proj"
  top: "inception_4c/pool_proj"
}
layer {
  name: "inception_4c/output"
  type: "Concat"
  bottom: "inception_4c/1x1"
  bottom: "inception_4c/3x3"
  bottom: "inception_4c/5x5"
  bottom: "inception_4c/pool_proj"
  top: "inception_4c/output"
}
layer {
  name: "inception_4d/1x1"
  type: "Convolution"
  bottom: "inception_4c/output"
  top: "inception_4d/1x1"
  param {
    lr_mult: 1
    decay_mult: 1
  }
  param {
    lr_mult: 2
    decay_mult: 0
  }
  convolution_param {
    num_output: 112
    kernel_size: 1
    weight_filler {
      type: "xavier"
      std: 0.03
    }
    bias_filler {
      type: "constant"
      value: 0.2
    }
  }
}
layer {
  name: "inception_4d/relu_1x1"
  type: "ReLU"
  bottom: "inception_4d/1x1"
  top: "inception_4d/1x1"
}
layer {
  name: "inception_4d/3x3_reduce"
  type: "Convolution"
  bottom: "inception_4c/output"
  top: "inception_4d/3x3_reduce"
  param {
    lr_mult: 1
    decay_mult: 1
  }
  param {
    lr_mult: 2
    decay_mult: 0
  }
  convolution_param {
    num_output: 144
    kernel_size: 1
    weight_filler {
      type: "xavier"
      std: 0.09
    }
    bias_filler {
      type: "constant"
      value: 0.2
    }
  }
}
layer {
  name: "inception_4d/relu_3x3_reduce"
  type: "ReLU"
  bottom: "inception_4d/3x3_reduce"
  top: "inception_4d/3x3_reduce"
}
layer {
  name: "inception_4d/3x3"
  type: "Convolution"
  bottom: "inception_4d/3x3_reduce"
  top: "inception_4d/3x3"
  param {
    lr_mult: 1
    decay_mult: 1
  }
  param {
    lr_mult: 2
    decay_mult: 0
  }
  convolution_param {
    num_output: 288
    pad: 1
    kernel_size: 3
    weight_filler {
      type: "xavier"
      std: 0.03
    }
    bias_filler {
      type: "constant"
      value: 0.2
    }
  }
}
layer {
  name: "inception_4d/relu_3x3"
  type: "ReLU"
  bottom: "inception_4d/3x3"
  top: "inception_4d/3x3"
}
layer {
  name: "inception_4d/5x5_reduce"
  type: "Convolution"
  bottom: "inception_4c/output"
  top: "inception_4d/5x5_reduce"
  param {
    lr_mult: 1
    decay_mult: 1
  }
  param {
    lr_mult: 2
    decay_mult: 0
  }
  convolution_param {
    num_output: 32
    kernel_size: 1
    weight_filler {
      type: "xavier"
      std: 0.2
    }
    bias_filler {
      type: "constant"
      value: 0.2
    }
  }
}
layer {
  name: "inception_4d/relu_5x5_reduce"
  type: "ReLU"
  bottom: "inception_4d/5x5_reduce"
  top: "inception_4d/5x5_reduce"
}
layer {
  name: "inception_4d/5x5"
  type: "Convolution"
  bottom: "inception_4d/5x5_reduce"
  top: "inception_4d/5x5"
  param {
    lr_mult: 1
    decay_mult: 1
  }
  param {
    lr_mult: 2
    decay_mult: 0
  }
  convolution_param {
    num_output: 64
    pad: 2
    kernel_size: 5
    weight_filler {
      type: "xavier"
      std: 0.03
    }
    bias_filler {
      type: "constant"
      value: 0.2
    }
  }
}
layer {
  name: "inception_4d/relu_5x5"
  type: "ReLU"
  bottom: "inception_4d/5x5"
  top: "inception_4d/5x5"
}
layer {
  name: "inception_4d/pool"
  type: "Pooling"
  bottom: "inception_4c/output"
  top: "inception_4d/pool"
  pooling_param {
    pool: MAX
    kernel_size: 3
    stride: 1
    pad: 1
  }
}
layer {
  name: "inception_4d/pool_proj"
  type: "Convolution"
  bottom: "inception_4d/pool"
  top: "inception_4d/pool_proj"
  param {
    lr_mult: 1
    decay_mult: 1
  }
  param {
    lr_mult: 2
    decay_mult: 0
  }
  convolution_param {
    num_output: 64
    kernel_size: 1
    weight_filler {
      type: "xavier"
      std: 0.1
    }
    bias_filler {
      type: "constant"
      value: 0.2
    }
  }
}
layer {
  name: "inception_4d/relu_pool_proj"
  type: "ReLU"
  bottom: "inception_4d/pool_proj"
  top: "inception_4d/pool_proj"
}
layer {
  name: "inception_4d/output"
  type: "Concat"
  bottom: "inception_4d/1x1"
  bottom: "inception_4d/3x3"
  bottom: "inception_4d/5x5"
  bottom: "inception_4d/pool_proj"
  top: "inception_4d/output"
}
layer {
  name: "loss2/ave_pool"
  type: "Pooling"
  bottom: "inception_4d/output"
  top: "loss2/ave_pool"
  pooling_param {
    pool: AVE
    kernel_size: 5
    stride: 3
  }
}
layer {
  name: "loss2/conv"
  type: "Convolution"
  bottom: "loss2/ave_pool"
  top: "loss2/conv"
  param {
    lr_mult: 1
    decay_mult: 1
  }
  param {
    lr_mult: 2
    decay_mult: 0
  }
  convolution_param {
    num_output: 128
    kernel_size: 1
    weight_filler {
      type: "xavier"
      std: 0.08
    }
    bias_filler {
      type: "constant"
      value: 0.2
    }
  }
}
layer {
  name: "loss2/relu_conv"
  type: "ReLU"
  bottom: "loss2/conv"
  top: "loss2/conv"
}
layer {
  name: "loss2/fc"
  type: "InnerProduct"
  bottom: "loss2/conv"
  top: "loss2/fc"
  param {
    lr_mult: 1
    decay_mult: 1
  }
  param {
    lr_mult: 2
    decay_mult: 0
  }
  inner_product_param {
    num_output: 1024
    weight_filler {
      type: "xavier"
      std: 0.02
    }
    bias_filler {
      type: "constant"
      value: 0.2
    }
  }
}
layer {
  name: "loss2/relu_fc"
  type: "ReLU"
  bottom: "loss2/fc"
  top: "loss2/fc"
}
layer {
  name: "loss2/drop_fc"
  type: "Dropout"
  bottom: "loss2/fc"
  top: "loss2/fc"
  dropout_param {
    dropout_ratio: 0.7
  }
}
layer {
  name: "loss2/classifier_plantvillage"
  type: "InnerProduct"
  bottom: "loss2/fc"
  top: "loss2/classifier_plantvillage"
  param {
    lr_mult: 1
    decay_mult: 1
  }
  param {
    lr_mult: 2
    decay_mult: 0
  }
  inner_product_param {
    num_output: 38
    weight_filler {
      type: "xavier"
      std: 0.0009765625
    }
    bias_filler {
      type: "constant"
      value: 0
    }
  }
}
layer {
  name: "inception_4e/1x1"
  type: "Convolution"
  bottom: "inception_4d/output"
  top: "inception_4e/1x1"
  param {
    lr_mult: 1
    decay_mult: 1
  }
  param {
    lr_mult: 2
    decay_mult: 0
  }
  convolution_param {
    num_output: 256
    kernel_size: 1
    weight_filler {
      type: "xavier"
      std: 0.03
    }
    bias_filler {
      type: "constant"
      value: 0.2
    }
  }
}
layer {
  name: "inception_4e/relu_1x1"
  type: "ReLU"
  bottom: "inception_4e/1x1"
  top: "inception_4e/1x1"
}
layer {
  name: "inception_4e/3x3_reduce"
  type: "Convolution"
  bottom: "inception_4d/output"
  top: "inception_4e/3x3_reduce"
  param {
    lr_mult: 1
    decay_mult: 1
  }
  param {
    lr_mult: 2
    decay_mult: 0
  }
  convolution_param {
    num_output: 160
    kernel_size: 1
    weight_filler {
      type: "xavier"
      std: 0.09
    }
    bias_filler {
      type: "constant"
      value: 0.2
    }
  }
}
layer {
  name: "inception_4e/relu_3x3_reduce"
  type: "ReLU"
  bottom: "inception_4e/3x3_reduce"
  top: "inception_4e/3x3_reduce"
}
layer {
  name: "inception_4e/3x3"
  type: "Convolution"
  bottom: "inception_4e/3x3_reduce"
  top: "inception_4e/3x3"
  param {
    lr_mult: 1
    decay_mult: 1
  }
  param {
    lr_mult: 2
    decay_mult: 0
  }
  convolution_param {
    num_output: 320
    pad: 1
    kernel_size: 3
    weight_filler {
      type: "xavier"
      std: 0.03
    }
    bias_filler {
      type: "constant"
      value: 0.2
    }
  }
}
layer {
  name: "inception_4e/relu_3x3"
  type: "ReLU"
  bottom: "inception_4e/3x3"
  top: "inception_4e/3x3"
}
layer {
  name: "inception_4e/5x5_reduce"
  type: "Convolution"
  bottom: "inception_4d/output"
  top: "inception_4e/5x5_reduce"
  param {
    lr_mult: 1
    decay_mult: 1
  }
  param {
    lr_mult: 2
    decay_mult: 0
  }
  convolution_param {
    num_output: 32
    kernel_size: 1
    weight_filler {
      type: "xavier"
      std: 0.2
    }
    bias_filler {
      type: "constant"
      value: 0.2
    }
  }
}
layer {
  name: "inception_4e/relu_5x5_reduce"
  type: "ReLU"
  bottom: "inception_4e/5x5_reduce"
  top: "inception_4e/5x5_reduce"
}
layer {
  name: "inception_4e/5x5"
  type: "Convolution"
  bottom: "inception_4e/5x5_reduce"
  top: "inception_4e/
I0403 19:43:38.457736 25687 layer_factory.hpp:77] Creating layer data
I0403 19:43:38.458382 25687 net.cpp:91] Creating Layer data
I0403 19:43:38.458417 25687 net.cpp:399] data -> data
I0403 19:43:38.458490 25687 net.cpp:399] data -> label
I0403 19:43:38.458539 25687 data_transformer.cpp:25] Loading mean file from: /home/mohanty/data/final_dataset/lmdb/grayscale-80-20/mean.binaryproto
I0403 19:43:38.459708 25689 db_lmdb.cpp:38] Opened lmdb /home/mohanty/data/final_dataset/lmdb/grayscale-80-20/test_db
I0403 19:43:38.472870 25687 data_layer.cpp:41] output data size: 24,3,224,224
I0403 19:43:38.501891 25687 net.cpp:141] Setting up data
I0403 19:43:38.502005 25687 net.cpp:148] Top shape: 24 3 224 224 (3612672)
I0403 19:43:38.502030 25687 net.cpp:148] Top shape: 24 (24)
I0403 19:43:38.502049 25687 net.cpp:156] Memory required for data: 14450784
I0403 19:43:38.502085 25687 layer_factory.hpp:77] Creating layer label_data_1_split
I0403 19:43:38.502118 25687 net.cpp:91] Creating Layer label_data_1_split
I0403 19:43:38.502138 25687 net.cpp:425] label_data_1_split <- label
I0403 19:43:38.502178 25687 net.cpp:399] label_data_1_split -> label_data_1_split_0
I0403 19:43:38.502213 25687 net.cpp:399] label_data_1_split -> label_data_1_split_1
I0403 19:43:38.502238 25687 net.cpp:399] label_data_1_split -> label_data_1_split_2
I0403 19:43:38.502264 25687 net.cpp:399] label_data_1_split -> label_data_1_split_3
I0403 19:43:38.502290 25687 net.cpp:399] label_data_1_split -> label_data_1_split_4
I0403 19:43:38.502315 25687 net.cpp:399] label_data_1_split -> label_data_1_split_5
I0403 19:43:38.502337 25687 net.cpp:399] label_data_1_split -> label_data_1_split_6
I0403 19:43:38.502362 25687 net.cpp:399] label_data_1_split -> label_data_1_split_7
I0403 19:43:38.502385 25687 net.cpp:399] label_data_1_split -> label_data_1_split_8
I0403 19:43:38.502410 25687 net.cpp:399] label_data_1_split -> label_data_1_split_9
I0403 19:43:38.502531 25687 net.cpp:141] Setting up label_data_1_split
I0403 19:43:38.502558 25687 net.cpp:148] Top shape: 24 (24)
I0403 19:43:38.502578 25687 net.cpp:148] Top shape: 24 (24)
I0403 19:43:38.502594 25687 net.cpp:148] Top shape: 24 (24)
I0403 19:43:38.502610 25687 net.cpp:148] Top shape: 24 (24)
I0403 19:43:38.502626 25687 net.cpp:148] Top shape: 24 (24)
I0403 19:43:38.502643 25687 net.cpp:148] Top shape: 24 (24)
I0403 19:43:38.502662 25687 net.cpp:148] Top shape: 24 (24)
I0403 19:43:38.502681 25687 net.cpp:148] Top shape: 24 (24)
I0403 19:43:38.502698 25687 net.cpp:148] Top shape: 24 (24)
I0403 19:43:38.502714 25687 net.cpp:148] Top shape: 24 (24)
I0403 19:43:38.502763 25687 net.cpp:156] Memory required for data: 14451744
I0403 19:43:38.502781 25687 layer_factory.hpp:77] Creating layer conv1/7x7_s2
I0403 19:43:38.502822 25687 net.cpp:91] Creating Layer conv1/7x7_s2
I0403 19:43:38.502842 25687 net.cpp:425] conv1/7x7_s2 <- data
I0403 19:43:38.502864 25687 net.cpp:399] conv1/7x7_s2 -> conv1/7x7_s2
I0403 19:43:38.646085 25687 net.cpp:141] Setting up conv1/7x7_s2
I0403 19:43:38.646199 25687 net.cpp:148] Top shape: 24 64 112 112 (19267584)
I0403 19:43:38.646221 25687 net.cpp:156] Memory required for data: 91522080
I0403 19:43:38.646262 25687 layer_factory.hpp:77] Creating layer conv1/relu_7x7
I0403 19:43:38.646302 25687 net.cpp:91] Creating Layer conv1/relu_7x7
I0403 19:43:38.646328 25687 net.cpp:425] conv1/relu_7x7 <- conv1/7x7_s2
I0403 19:43:38.646350 25687 net.cpp:386] conv1/relu_7x7 -> conv1/7x7_s2 (in-place)
I0403 19:43:38.646610 25687 net.cpp:141] Setting up conv1/relu_7x7
I0403 19:43:38.646641 25687 net.cpp:148] Top shape: 24 64 112 112 (19267584)
I0403 19:43:38.646659 25687 net.cpp:156] Memory required for data: 168592416
I0403 19:43:38.646734 25687 layer_factory.hpp:77] Creating layer pool1/3x3_s2
I0403 19:43:38.646773 25687 net.cpp:91] Creating Layer pool1/3x3_s2
I0403 19:43:38.646795 25687 net.cpp:425] pool1/3x3_s2 <- conv1/7x7_s2
I0403 19:43:38.646816 25687 net.cpp:399] pool1/3x3_s2 -> pool1/3x3_s2
I0403 19:43:38.646899 25687 net.cpp:141] Setting up pool1/3x3_s2
I0403 19:43:38.646927 25687 net.cpp:148] Top shape: 24 64 56 56 (4816896)
I0403 19:43:38.646944 25687 net.cpp:156] Memory required for data: 187860000
I0403 19:43:38.646961 25687 layer_factory.hpp:77] Creating layer pool1/norm1
I0403 19:43:38.646989 25687 net.cpp:91] Creating Layer pool1/norm1
I0403 19:43:38.647009 25687 net.cpp:425] pool1/norm1 <- pool1/3x3_s2
I0403 19:43:38.647030 25687 net.cpp:399] pool1/norm1 -> pool1/norm1
I0403 19:43:38.647325 25687 net.cpp:141] Setting up pool1/norm1
I0403 19:43:38.647356 25687 net.cpp:148] Top shape: 24 64 56 56 (4816896)
I0403 19:43:38.647373 25687 net.cpp:156] Memory required for data: 207127584
I0403 19:43:38.647390 25687 layer_factory.hpp:77] Creating layer conv2/3x3_reduce
I0403 19:43:38.647419 25687 net.cpp:91] Creating Layer conv2/3x3_reduce
I0403 19:43:38.647440 25687 net.cpp:425] conv2/3x3_reduce <- pool1/norm1
I0403 19:43:38.647462 25687 net.cpp:399] conv2/3x3_reduce -> conv2/3x3_reduce
I0403 19:43:38.648893 25687 net.cpp:141] Setting up conv2/3x3_reduce
I0403 19:43:38.648926 25687 net.cpp:148] Top shape: 24 64 56 56 (4816896)
I0403 19:43:38.648943 25687 net.cpp:156] Memory required for data: 226395168
I0403 19:43:38.648967 25687 layer_factory.hpp:77] Creating layer conv2/relu_3x3_reduce
I0403 19:43:38.648988 25687 net.cpp:91] Creating Layer conv2/relu_3x3_reduce
I0403 19:43:38.649006 25687 net.cpp:425] conv2/relu_3x3_reduce <- conv2/3x3_reduce
I0403 19:43:38.649025 25687 net.cpp:386] conv2/relu_3x3_reduce -> conv2/3x3_reduce (in-place)
I0403 19:43:38.649299 25687 net.cpp:141] Setting up conv2/relu_3x3_reduce
I0403 19:43:38.649328 25687 net.cpp:148] Top shape: 24 64 56 56 (4816896)
I0403 19:43:38.649348 25687 net.cpp:156] Memory required for data: 245662752
I0403 19:43:38.649364 25687 layer_factory.hpp:77] Creating layer conv2/3x3
I0403 19:43:38.649390 25687 net.cpp:91] Creating Layer conv2/3x3
I0403 19:43:38.649412 25687 net.cpp:425] conv2/3x3 <- conv2/3x3_reduce
I0403 19:43:38.649435 25687 net.cpp:399] conv2/3x3 -> conv2/3x3
I0403 19:43:38.651774 25687 net.cpp:141] Setting up conv2/3x3
I0403 19:43:38.651808 25687 net.cpp:148] Top shape: 24 192 56 56 (14450688)
I0403 19:43:38.651829 25687 net.cpp:156] Memory required for data: 303465504
I0403 19:43:38.651852 25687 layer_factory.hpp:77] Creating layer conv2/relu_3x3
I0403 19:43:38.651875 25687 net.cpp:91] Creating Layer conv2/relu_3x3
I0403 19:43:38.651895 25687 net.cpp:425] conv2/relu_3x3 <- conv2/3x3
I0403 19:43:38.651916 25687 net.cpp:386] conv2/relu_3x3 -> conv2/3x3 (in-place)
I0403 19:43:38.652093 25687 net.cpp:141] Setting up conv2/relu_3x3
I0403 19:43:38.652124 25687 net.cpp:148] Top shape: 24 192 56 56 (14450688)
I0403 19:43:38.652175 25687 net.cpp:156] Memory required for data: 361268256
I0403 19:43:38.652194 25687 layer_factory.hpp:77] Creating layer conv2/norm2
I0403 19:43:38.652217 25687 net.cpp:91] Creating Layer conv2/norm2
I0403 19:43:38.652240 25687 net.cpp:425] conv2/norm2 <- conv2/3x3
I0403 19:43:38.652259 25687 net.cpp:399] conv2/norm2 -> conv2/norm2
I0403 19:43:38.652570 25687 net.cpp:141] Setting up conv2/norm2
I0403 19:43:38.652602 25687 net.cpp:148] Top shape: 24 192 56 56 (14450688)
I0403 19:43:38.652619 25687 net.cpp:156] Memory required for data: 419071008
I0403 19:43:38.652637 25687 layer_factory.hpp:77] Creating layer pool2/3x3_s2
I0403 19:43:38.652660 25687 net.cpp:91] Creating Layer pool2/3x3_s2
I0403 19:43:38.652681 25687 net.cpp:425] pool2/3x3_s2 <- conv2/norm2
I0403 19:43:38.652704 25687 net.cpp:399] pool2/3x3_s2 -> pool2/3x3_s2
I0403 19:43:38.652758 25687 net.cpp:141] Setting up pool2/3x3_s2
I0403 19:43:38.652786 25687 net.cpp:148] Top shape: 24 192 28 28 (3612672)
I0403 19:43:38.652801 25687 net.cpp:156] Memory required for data: 433521696
I0403 19:43:38.652817 25687 layer_factory.hpp:77] Creating layer pool2/3x3_s2_pool2/3x3_s2_0_split
I0403 19:43:38.652837 25687 net.cpp:91] Creating Layer pool2/3x3_s2_pool2/3x3_s2_0_split
I0403 19:43:38.652854 25687 net.cpp:425] pool2/3x3_s2_pool2/3x3_s2_0_split <- pool2/3x3_s2
I0403 19:43:38.652874 25687 net.cpp:399] pool2/3x3_s2_pool2/3x3_s2_0_split -> pool2/3x3_s2_pool2/3x3_s2_0_split_0
I0403 19:43:38.652899 25687 net.cpp:399] pool2/3x3_s2_pool2/3x3_s2_0_split -> pool2/3x3_s2_pool2/3x3_s2_0_split_1
I0403 19:43:38.652920 25687 net.cpp:399] pool2/3x3_s2_pool2/3x3_s2_0_split -> pool2/3x3_s2_pool2/3x3_s2_0_split_2
I0403 19:43:38.652942 25687 net.cpp:399] pool2/3x3_s2_pool2/3x3_s2_0_split -> pool2/3x3_s2_pool2/3x3_s2_0_split_3
I0403 19:43:38.653013 25687 net.cpp:141] Setting up pool2/3x3_s2_pool2/3x3_s2_0_split
I0403 19:43:38.653044 25687 net.cpp:148] Top shape: 24 192 28 28 (3612672)
I0403 19:43:38.653064 25687 net.cpp:148] Top shape: 24 192 28 28 (3612672)
I0403 19:43:38.653082 25687 net.cpp:148] Top shape: 24 192 28 28 (3612672)
I0403 19:43:38.653097 25687 net.cpp:148] Top shape: 24 192 28 28 (3612672)
I0403 19:43:38.653113 25687 net.cpp:156] Memory required for data: 491324448
I0403 19:43:38.653131 25687 layer_factory.hpp:77] Creating layer inception_3a/1x1
I0403 19:43:38.653154 25687 net.cpp:91] Creating Layer inception_3a/1x1
I0403 19:43:38.653175 25687 net.cpp:425] inception_3a/1x1 <- pool2/3x3_s2_pool2/3x3_s2_0_split_0
I0403 19:43:38.653195 25687 net.cpp:399] inception_3a/1x1 -> inception_3a/1x1
I0403 19:43:38.654863 25687 net.cpp:141] Setting up inception_3a/1x1
I0403 19:43:38.654897 25687 net.cpp:148] Top shape: 24 64 28 28 (1204224)
I0403 19:43:38.654917 25687 net.cpp:156] Memory required for data: 496141344
I0403 19:43:38.654937 25687 layer_factory.hpp:77] Creating layer inception_3a/relu_1x1
I0403 19:43:38.654961 25687 net.cpp:91] Creating Layer inception_3a/relu_1x1
I0403 19:43:38.654981 25687 net.cpp:425] inception_3a/relu_1x1 <- inception_3a/1x1
I0403 19:43:38.655000 25687 net.cpp:386] inception_3a/relu_1x1 -> inception_3a/1x1 (in-place)
I0403 19:43:38.655185 25687 net.cpp:141] Setting up inception_3a/relu_1x1
I0403 19:43:38.655217 25687 net.cpp:148] Top shape: 24 64 28 28 (1204224)
I0403 19:43:38.655236 25687 net.cpp:156] Memory required for data: 500958240
I0403 19:43:38.655253 25687 layer_factory.hpp:77] Creating layer inception_3a/3x3_reduce
I0403 19:43:38.655278 25687 net.cpp:91] Creating Layer inception_3a/3x3_reduce
I0403 19:43:38.655306 25687 net.cpp:425] inception_3a/3x3_reduce <- pool2/3x3_s2_pool2/3x3_s2_0_split_1
I0403 19:43:38.655329 25687 net.cpp:399] inception_3a/3x3_reduce -> inception_3a/3x3_reduce
I0403 19:43:38.657059 25687 net.cpp:141] Setting up inception_3a/3x3_reduce
I0403 19:43:38.657094 25687 net.cpp:148] Top shape: 24 96 28 28 (1806336)
I0403 19:43:38.657112 25687 net.cpp:156] Memory required for data: 508183584
I0403 19:43:38.657136 25687 layer_factory.hpp:77] Creating layer inception_3a/relu_3x3_reduce
I0403 19:43:38.657179 25687 net.cpp:91] Creating Layer inception_3a/relu_3x3_reduce
I0403 19:43:38.657203 25687 net.cpp:425] inception_3a/relu_3x3_reduce <- inception_3a/3x3_reduce
I0403 19:43:38.657227 25687 net.cpp:386] inception_3a/relu_3x3_reduce -> inception_3a/3x3_reduce (in-place)
I0403 19:43:38.657423 25687 net.cpp:141] Setting up inception_3a/relu_3x3_reduce
I0403 19:43:38.657455 25687 net.cpp:148] Top shape: 24 96 28 28 (1806336)
I0403 19:43:38.657474 25687 net.cpp:156] Memory required for data: 515408928
I0403 19:43:38.657491 25687 layer_factory.hpp:77] Creating layer inception_3a/3x3
I0403 19:43:38.657516 25687 net.cpp:91] Creating Layer inception_3a/3x3
I0403 19:43:38.657536 25687 net.cpp:425] inception_3a/3x3 <- inception_3a/3x3_reduce
I0403 19:43:38.657559 25687 net.cpp:399] inception_3a/3x3 -> inception_3a/3x3
I0403 19:43:38.659242 25687 net.cpp:141] Setting up inception_3a/3x3
I0403 19:43:38.659277 25687 net.cpp:148] Top shape: 24 128 28 28 (2408448)
I0403 19:43:38.659302 25687 net.cpp:156] Memory required for data: 525042720
I0403 19:43:38.659327 25687 layer_factory.hpp:77] Creating layer inception_3a/relu_3x3
I0403 19:43:38.659350 25687 net.cpp:91] Creating Layer inception_3a/relu_3x3
I0403 19:43:38.659368 25687 net.cpp:425] inception_3a/relu_3x3 <- inception_3a/3x3
I0403 19:43:38.659386 25687 net.cpp:386] inception_3a/relu_3x3 -> inception_3a/3x3 (in-place)
I0403 19:43:38.659668 25687 net.cpp:141] Setting up inception_3a/relu_3x3
I0403 19:43:38.659700 25687 net.cpp:148] Top shape: 24 128 28 28 (2408448)
I0403 19:43:38.659721 25687 net.cpp:156] Memory required for data: 534676512
I0403 19:43:38.659737 25687 layer_factory.hpp:77] Creating layer inception_3a/5x5_reduce
I0403 19:43:38.659764 25687 net.cpp:91] Creating Layer inception_3a/5x5_reduce
I0403 19:43:38.659785 25687 net.cpp:425] inception_3a/5x5_reduce <- pool2/3x3_s2_pool2/3x3_s2_0_split_2
I0403 19:43:38.659806 25687 net.cpp:399] inception_3a/5x5_reduce -> inception_3a/5x5_reduce
I0403 19:43:38.660787 25687 net.cpp:141] Setting up inception_3a/5x5_reduce
I0403 19:43:38.660823 25687 net.cpp:148] Top shape: 24 16 28 28 (301056)
I0403 19:43:38.660842 25687 net.cpp:156] Memory required for data: 535880736
I0403 19:43:38.660864 25687 layer_factory.hpp:77] Creating layer inception_3a/relu_5x5_reduce
I0403 19:43:38.660884 25687 net.cpp:91] Creating Layer inception_3a/relu_5x5_reduce
I0403 19:43:38.660903 25687 net.cpp:425] inception_3a/relu_5x5_reduce <- inception_3a/5x5_reduce
I0403 19:43:38.660925 25687 net.cpp:386] inception_3a/relu_5x5_reduce -> inception_3a/5x5_reduce (in-place)
I0403 19:43:38.661214 25687 net.cpp:141] Setting up inception_3a/relu_5x5_reduce
I0403 19:43:38.661247 25687 net.cpp:148] Top shape: 24 16 28 28 (301056)
I0403 19:43:38.661265 25687 net.cpp:156] Memory required for data: 537084960
I0403 19:43:38.661283 25687 layer_factory.hpp:77] Creating layer inception_3a/5x5
I0403 19:43:38.661314 25687 net.cpp:91] Creating Layer inception_3a/5x5
I0403 19:43:38.661335 25687 net.cpp:425] inception_3a/5x5 <- inception_3a/5x5_reduce
I0403 19:43:38.661360 25687 net.cpp:399] inception_3a/5x5 -> inception_3a/5x5
I0403 19:43:38.662390 25687 net.cpp:141] Setting up inception_3a/5x5
I0403 19:43:38.662425 25687 net.cpp:148] Top shape: 24 32 28 28 (602112)
I0403 19:43:38.662444 25687 net.cpp:156] Memory required for data: 539493408
I0403 19:43:38.662464 25687 layer_factory.hpp:77] Creating layer inception_3a/relu_5x5
I0403 19:43:38.662485 25687 net.cpp:91] Creating Layer inception_3a/relu_5x5
I0403 19:43:38.662504 25687 net.cpp:425] inception_3a/relu_5x5 <- inception_3a/5x5
I0403 19:43:38.662525 25687 net.cpp:386] inception_3a/relu_5x5 -> inception_3a/5x5 (in-place)
I0403 19:43:38.662703 25687 net.cpp:141] Setting up inception_3a/relu_5x5
I0403 19:43:38.662737 25687 net.cpp:148] Top shape: 24 32 28 28 (602112)
I0403 19:43:38.662757 25687 net.cpp:156] Memory required for data: 541901856
I0403 19:43:38.662773 25687 layer_factory.hpp:77] Creating layer inception_3a/pool
I0403 19:43:38.662793 25687 net.cpp:91] Creating Layer inception_3a/pool
I0403 19:43:38.662828 25687 net.cpp:425] inception_3a/pool <- pool2/3x3_s2_pool2/3x3_s2_0_split_3
I0403 19:43:38.662853 25687 net.cpp:399] inception_3a/pool -> inception_3a/pool
I0403 19:43:38.662914 25687 net.cpp:141] Setting up inception_3a/pool
I0403 19:43:38.662946 25687 net.cpp:148] Top shape: 24 192 28 28 (3612672)
I0403 19:43:38.662966 25687 net.cpp:156] Memory required for data: 556352544
I0403 19:43:38.662982 25687 layer_factory.hpp:77] Creating layer inception_3a/pool_proj
I0403 19:43:38.663009 25687 net.cpp:91] Creating Layer inception_3a/pool_proj
I0403 19:43:38.663030 25687 net.cpp:425] inception_3a/pool_proj <- inception_3a/pool
I0403 19:43:38.663053 25687 net.cpp:399] inception_3a/pool_proj -> inception_3a/pool_proj
I0403 19:43:38.664029 25687 net.cpp:141] Setting up inception_3a/pool_proj
I0403 19:43:38.664062 25687 net.cpp:148] Top shape: 24 32 28 28 (602112)
I0403 19:43:38.664080 25687 net.cpp:156] Memory required for data: 558760992
I0403 19:43:38.664106 25687 layer_factory.hpp:77] Creating layer inception_3a/relu_pool_proj
I0403 19:43:38.664131 25687 net.cpp:91] Creating Layer inception_3a/relu_pool_proj
I0403 19:43:38.664152 25687 net.cpp:425] inception_3a/relu_pool_proj <- inception_3a/pool_proj
I0403 19:43:38.664173 25687 net.cpp:386] inception_3a/relu_pool_proj -> inception_3a/pool_proj (in-place)
I0403 19:43:38.664466 25687 net.cpp:141] Setting up inception_3a/relu_pool_proj
I0403 19:43:38.664505 25687 net.cpp:148] Top shape: 24 32 28 28 (602112)
I0403 19:43:38.664525 25687 net.cpp:156] Memory required for data: 561169440
I0403 19:43:38.664541 25687 layer_factory.hpp:77] Creating layer inception_3a/output
I0403 19:43:38.664562 25687 net.cpp:91] Creating Layer inception_3a/output
I0403 19:43:38.664577 25687 net.cpp:425] inception_3a/output <- inception_3a/1x1
I0403 19:43:38.664595 25687 net.cpp:425] inception_3a/output <- inception_3a/3x3
I0403 19:43:38.664613 25687 net.cpp:425] inception_3a/output <- inception_3a/5x5
I0403 19:43:38.664633 25687 net.cpp:425] inception_3a/output <- inception_3a/pool_proj
I0403 19:43:38.664650 25687 net.cpp:399] inception_3a/output -> inception_3a/output
I0403 19:43:38.664705 25687 net.cpp:141] Setting up inception_3a/output
I0403 19:43:38.664736 25687 net.cpp:148] Top shape: 24 256 28 28 (4816896)
I0403 19:43:38.664753 25687 net.cpp:156] Memory required for data: 580437024
I0403 19:43:38.664769 25687 layer_factory.hpp:77] Creating layer inception_3a/output_inception_3a/output_0_split
I0403 19:43:38.664790 25687 net.cpp:91] Creating Layer inception_3a/output_inception_3a/output_0_split
I0403 19:43:38.664810 25687 net.cpp:425] inception_3a/output_inception_3a/output_0_split <- inception_3a/output
I0403 19:43:38.664830 25687 net.cpp:399] inception_3a/output_inception_3a/output_0_split -> inception_3a/output_inception_3a/output_0_split_0
I0403 19:43:38.664855 25687 net.cpp:399] inception_3a/output_inception_3a/output_0_split -> inception_3a/output_inception_3a/output_0_split_1
I0403 19:43:38.664882 25687 net.cpp:399] inception_3a/output_inception_3a/output_0_split -> inception_3a/output_inception_3a/output_0_split_2
I0403 19:43:38.664908 25687 net.cpp:399] inception_3a/output_inception_3a/output_0_split -> inception_3a/output_inception_3a/output_0_split_3
I0403 19:43:38.664988 25687 net.cpp:141] Setting up inception_3a/output_inception_3a/output_0_split
I0403 19:43:38.665019 25687 net.cpp:148] Top shape: 24 256 28 28 (4816896)
I0403 19:43:38.665038 25687 net.cpp:148] Top shape: 24 256 28 28 (4816896)
I0403 19:43:38.665057 25687 net.cpp:148] Top shape: 24 256 28 28 (4816896)
I0403 19:43:38.665076 25687 net.cpp:148] Top shape: 24 256 28 28 (4816896)
I0403 19:43:38.665092 25687 net.cpp:156] Memory required for data: 657507360
I0403 19:43:38.665109 25687 layer_factory.hpp:77] Creating layer inception_3b/1x1
I0403 19:43:38.665135 25687 net.cpp:91] Creating Layer inception_3b/1x1
I0403 19:43:38.665155 25687 net.cpp:425] inception_3b/1x1 <- inception_3a/output_inception_3a/output_0_split_0
I0403 19:43:38.665177 25687 net.cpp:399] inception_3b/1x1 -> inception_3b/1x1
I0403 19:43:38.666388 25687 net.cpp:141] Setting up inception_3b/1x1
I0403 19:43:38.666435 25687 net.cpp:148] Top shape: 24 128 28 28 (2408448)
I0403 19:43:38.666455 25687 net.cpp:156] Memory required for data: 667141152
I0403 19:43:38.666476 25687 layer_factory.hpp:77] Creating layer inception_3b/relu_1x1
I0403 19:43:38.666501 25687 net.cpp:91] Creating Layer inception_3b/relu_1x1
I0403 19:43:38.666524 25687 net.cpp:425] inception_3b/relu_1x1 <- inception_3b/1x1
I0403 19:43:38.666546 25687 net.cpp:386] inception_3b/relu_1x1 -> inception_3b/1x1 (in-place)
I0403 19:43:38.666741 25687 net.cpp:141] Setting up inception_3b/relu_1x1
I0403 19:43:38.666775 25687 net.cpp:148] Top shape: 24 128 28 28 (2408448)
I0403 19:43:38.666796 25687 net.cpp:156] Memory required for data: 676774944
I0403 19:43:38.666813 25687 layer_factory.hpp:77] Creating layer inception_3b/3x3_reduce
I0403 19:43:38.666838 25687 net.cpp:91] Creating Layer inception_3b/3x3_reduce
I0403 19:43:38.666860 25687 net.cpp:425] inception_3b/3x3_reduce <- inception_3a/output_inception_3a/output_0_split_1
I0403 19:43:38.666882 25687 net.cpp:399] inception_3b/3x3_reduce -> inception_3b/3x3_reduce
I0403 19:43:38.668030 25687 net.cpp:141] Setting up inception_3b/3x3_reduce
I0403 19:43:38.668063 25687 net.cpp:148] Top shape: 24 128 28 28 (2408448)
I0403 19:43:38.668081 25687 net.cpp:156] Memory required for data: 686408736
I0403 19:43:38.668102 25687 layer_factory.hpp:77] Creating layer inception_3b/relu_3x3_reduce
I0403 19:43:38.668126 25687 net.cpp:91] Creating Layer inception_3b/relu_3x3_reduce
I0403 19:43:38.668148 25687 net.cpp:425] inception_3b/relu_3x3_reduce <- inception_3b/3x3_reduce
I0403 19:43:38.668169 25687 net.cpp:386] inception_3b/relu_3x3_reduce -> inception_3b/3x3_reduce (in-place)
I0403 19:43:38.668354 25687 net.cpp:141] Setting up inception_3b/relu_3x3_reduce
I0403 19:43:38.668385 25687 net.cpp:148] Top shape: 24 128 28 28 (2408448)
I0403 19:43:38.668406 25687 net.cpp:156] Memory required for data: 696042528
I0403 19:43:38.668422 25687 layer_factory.hpp:77] Creating layer inception_3b/3x3
I0403 19:43:38.668450 25687 net.cpp:91] Creating Layer inception_3b/3x3
I0403 19:43:38.668470 25687 net.cpp:425] inception_3b/3x3 <- inception_3b/3x3_reduce
I0403 19:43:38.668496 25687 net.cpp:399] inception_3b/3x3 -> inception_3b/3x3
I0403 19:43:38.671483 25687 net.cpp:141] Setting up inception_3b/3x3
I0403 19:43:38.671521 25687 net.cpp:148] Top shape: 24 192 28 28 (3612672)
I0403 19:43:38.671542 25687 net.cpp:156] Memory required for data: 710493216
I0403 19:43:38.671566 25687 layer_factory.hpp:77] Creating layer inception_3b/relu_3x3
I0403 19:43:38.671587 25687 net.cpp:91] Creating Layer inception_3b/relu_3x3
I0403 19:43:38.671607 25687 net.cpp:425] inception_3b/relu_3x3 <- inception_3b/3x3
I0403 19:43:38.671627 25687 net.cpp:386] inception_3b/relu_3x3 -> inception_3b/3x3 (in-place)
I0403 19:43:38.671914 25687 net.cpp:141] Setting up inception_3b/relu_3x3
I0403 19:43:38.671949 25687 net.cpp:148] Top shape: 24 192 28 28 (3612672)
I0403 19:43:38.671970 25687 net.cpp:156] Memory required for data: 724943904
I0403 19:43:38.671989 25687 layer_factory.hpp:77] Creating layer inception_3b/5x5_reduce
I0403 19:43:38.672014 25687 net.cpp:91] Creating Layer inception_3b/5x5_reduce
I0403 19:43:38.672049 25687 net.cpp:425] inception_3b/5x5_reduce <- inception_3a/output_inception_3a/output_0_split_2
I0403 19:43:38.672071 25687 net.cpp:399] inception_3b/5x5_reduce -> inception_3b/5x5_reduce
I0403 19:43:38.673055 25687 net.cpp:141] Setting up inception_3b/5x5_reduce
I0403 19:43:38.673092 25687 net.cpp:148] Top shape: 24 32 28 28 (602112)
I0403 19:43:38.673111 25687 net.cpp:156] Memory required for data: 727352352
I0403 19:43:38.673131 25687 layer_factory.hpp:77] Creating layer inception_3b/relu_5x5_reduce
I0403 19:43:38.673151 25687 net.cpp:91] Creating Layer inception_3b/relu_5x5_reduce
I0403 19:43:38.673169 25687 net.cpp:425] inception_3b/relu_5x5_reduce <- inception_3b/5x5_reduce
I0403 19:43:38.673188 25687 net.cpp:386] inception_3b/relu_5x5_reduce -> inception_3b/5x5_reduce (in-place)
I0403 19:43:38.673390 25687 net.cpp:141] Setting up inception_3b/relu_5x5_reduce
I0403 19:43:38.673420 25687 net.cpp:148] Top shape: 24 32 28 28 (602112)
I0403 19:43:38.673439 25687 net.cpp:156] Memory required for data: 729760800
I0403 19:43:38.673454 25687 layer_factory.hpp:77] Creating layer inception_3b/5x5
I0403 19:43:38.673476 25687 net.cpp:91] Creating Layer inception_3b/5x5
I0403 19:43:38.673497 25687 net.cpp:425] inception_3b/5x5 <- inception_3b/5x5_reduce
I0403 19:43:38.673521 25687 net.cpp:399] inception_3b/5x5 -> inception_3b/5x5
I0403 19:43:38.675456 25687 net.cpp:141] Setting up inception_3b/5x5
I0403 19:43:38.675489 25687 net.cpp:148] Top shape: 24 96 28 28 (1806336)
I0403 19:43:38.675506 25687 net.cpp:156] Memory required for data: 736986144
I0403 19:43:38.675525 25687 layer_factory.hpp:77] Creating layer inception_3b/relu_5x5
I0403 19:43:38.675547 25687 net.cpp:91] Creating Layer inception_3b/relu_5x5
I0403 19:43:38.675568 25687 net.cpp:425] inception_3b/relu_5x5 <- inception_3b/5x5
I0403 19:43:38.675587 25687 net.cpp:386] inception_3b/relu_5x5 -> inception_3b/5x5 (in-place)
I0403 19:43:38.675776 25687 net.cpp:141] Setting up inception_3b/relu_5x5
I0403 19:43:38.675806 25687 net.cpp:148] Top shape: 24 96 28 28 (1806336)
I0403 19:43:38.675824 25687 net.cpp:156] Memory required for data: 744211488
I0403 19:43:38.675839 25687 layer_factory.hpp:77] Creating layer inception_3b/pool
I0403 19:43:38.675859 25687 net.cpp:91] Creating Layer inception_3b/pool
I0403 19:43:38.675878 25687 net.cpp:425] inception_3b/pool <- inception_3a/output_inception_3a/output_0_split_3
I0403 19:43:38.675897 25687 net.cpp:399] inception_3b/pool -> inception_3b/pool
I0403 19:43:38.675953 25687 net.cpp:141] Setting up inception_3b/pool
I0403 19:43:38.675983 25687 net.cpp:148] Top shape: 24 256 28 28 (4816896)
I0403 19:43:38.676000 25687 net.cpp:156] Memory required for data: 763479072
I0403 19:43:38.676017 25687 layer_factory.hpp:77] Creating layer inception_3b/pool_proj
I0403 19:43:38.676041 25687 net.cpp:91] Creating Layer inception_3b/pool_proj
I0403 19:43:38.676060 25687 net.cpp:425] inception_3b/pool_proj <- inception_3b/pool
I0403 19:43:38.676082 25687 net.cpp:399] inception_3b/pool_proj -> inception_3b/pool_proj
I0403 19:43:38.677101 25687 net.cpp:141] Setting up inception_3b/pool_proj
I0403 19:43:38.677135 25687 net.cpp:148] Top shape: 24 64 28 28 (1204224)
I0403 19:43:38.677153 25687 net.cpp:156] Memory required for data: 768295968
I0403 19:43:38.677172 25687 layer_factory.hpp:77] Creating layer inception_3b/relu_pool_proj
I0403 19:43:38.677194 25687 net.cpp:91] Creating Layer inception_3b/relu_pool_proj
I0403 19:43:38.677218 25687 net.cpp:425] inception_3b/relu_pool_proj <- inception_3b/pool_proj
I0403 19:43:38.677237 25687 net.cpp:386] inception_3b/relu_pool_proj -> inception_3b/pool_proj (in-place)
I0403 19:43:38.677605 25687 net.cpp:141] Setting up inception_3b/relu_pool_proj
I0403 19:43:38.677639 25687 net.cpp:148] Top shape: 24 64 28 28 (1204224)
I0403 19:43:38.677654 25687 net.cpp:156] Memory required for data: 773112864
I0403 19:43:38.677670 25687 layer_factory.hpp:77] Creating layer inception_3b/output
I0403 19:43:38.677687 25687 net.cpp:91] Creating Layer inception_3b/output
I0403 19:43:38.677706 25687 net.cpp:425] inception_3b/output <- inception_3b/1x1
I0403 19:43:38.677722 25687 net.cpp:425] inception_3b/output <- inception_3b/3x3
I0403 19:43:38.677738 25687 net.cpp:425] inception_3b/output <- inception_3b/5x5
I0403 19:43:38.677757 25687 net.cpp:425] inception_3b/output <- inception_3b/pool_proj
I0403 19:43:38.677777 25687 net.cpp:399] inception_3b/output -> inception_3b/output
I0403 19:43:38.677824 25687 net.cpp:141] Setting up inception_3b/output
I0403 19:43:38.677853 25687 net.cpp:148] Top shape: 24 480 28 28 (9031680)
I0403 19:43:38.677871 25687 net.cpp:156] Memory required for data: 809239584
I0403 19:43:38.677887 25687 layer_factory.hpp:77] Creating layer pool3/3x3_s2
I0403 19:43:38.677906 25687 net.cpp:91] Creating Layer pool3/3x3_s2
I0403 19:43:38.677923 25687 net.cpp:425] pool3/3x3_s2 <- inception_3b/output
I0403 19:43:38.677960 25687 net.cpp:399] pool3/3x3_s2 -> pool3/3x3_s2
I0403 19:43:38.678020 25687 net.cpp:141] Setting up pool3/3x3_s2
I0403 19:43:38.678050 25687 net.cpp:148] Top shape: 24 480 14 14 (2257920)
I0403 19:43:38.678066 25687 net.cpp:156] Memory required for data: 818271264
I0403 19:43:38.678082 25687 layer_factory.hpp:77] Creating layer pool3/3x3_s2_pool3/3x3_s2_0_split
I0403 19:43:38.678102 25687 net.cpp:91] Creating Layer pool3/3x3_s2_pool3/3x3_s2_0_split
I0403 19:43:38.678122 25687 net.cpp:425] pool3/3x3_s2_pool3/3x3_s2_0_split <- pool3/3x3_s2
I0403 19:43:38.678143 25687 net.cpp:399] pool3/3x3_s2_pool3/3x3_s2_0_split -> pool3/3x3_s2_pool3/3x3_s2_0_split_0
I0403 19:43:38.678164 25687 net.cpp:399] pool3/3x3_s2_pool3/3x3_s2_0_split -> pool3/3x3_s2_pool3/3x3_s2_0_split_1
I0403 19:43:38.678187 25687 net.cpp:399] pool3/3x3_s2_pool3/3x3_s2_0_split -> pool3/3x3_s2_pool3/3x3_s2_0_split_2
I0403 19:43:38.678210 25687 net.cpp:399] pool3/3x3_s2_pool3/3x3_s2_0_split -> pool3/3x3_s2_pool3/3x3_s2_0_split_3
I0403 19:43:38.678294 25687 net.cpp:141] Setting up pool3/3x3_s2_pool3/3x3_s2_0_split
I0403 19:43:38.678324 25687 net.cpp:148] Top shape: 24 480 14 14 (2257920)
I0403 19:43:38.678344 25687 net.cpp:148] Top shape: 24 480 14 14 (2257920)
I0403 19:43:38.678359 25687 net.cpp:148] Top shape: 24 480 14 14 (2257920)
I0403 19:43:38.678375 25687 net.cpp:148] Top shape: 24 480 14 14 (2257920)
I0403 19:43:38.678388 25687 net.cpp:156] Memory required for data: 854397984
I0403 19:43:38.678406 25687 layer_factory.hpp:77] Creating layer inception_4a/1x1
I0403 19:43:38.678429 25687 net.cpp:91] Creating Layer inception_4a/1x1
I0403 19:43:38.678452 25687 net.cpp:425] inception_4a/1x1 <- pool3/3x3_s2_pool3/3x3_s2_0_split_0
I0403 19:43:38.678475 25687 net.cpp:399] inception_4a/1x1 -> inception_4a/1x1
I0403 19:43:38.679987 25687 net.cpp:141] Setting up inception_4a/1x1
I0403 19:43:38.680017 25687 net.cpp:148] Top shape: 24 192 14 14 (903168)
I0403 19:43:38.680037 25687 net.cpp:156] Memory required for data: 858010656
I0403 19:43:38.680057 25687 layer_factory.hpp:77] Creating layer inception_4a/relu_1x1
I0403 19:43:38.680083 25687 net.cpp:91] Creating Layer inception_4a/relu_1x1
I0403 19:43:38.680104 25687 net.cpp:425] inception_4a/relu_1x1 <- inception_4a/1x1
I0403 19:43:38.680122 25687 net.cpp:386] inception_4a/relu_1x1 -> inception_4a/1x1 (in-place)
I0403 19:43:38.680295 25687 net.cpp:141] Setting up inception_4a/relu_1x1
I0403 19:43:38.680325 25687 net.cpp:148] Top shape: 24 192 14 14 (903168)
I0403 19:43:38.680341 25687 net.cpp:156] Memory required for data: 861623328
I0403 19:43:38.680358 25687 layer_factory.hpp:77] Creating layer inception_4a/3x3_reduce
I0403 19:43:38.680385 25687 net.cpp:91] Creating Layer inception_4a/3x3_reduce
I0403 19:43:38.680405 25687 net.cpp:425] inception_4a/3x3_reduce <- pool3/3x3_s2_pool3/3x3_s2_0_split_1
I0403 19:43:38.680426 25687 net.cpp:399] inception_4a/3x3_reduce -> inception_4a/3x3_reduce
I0403 19:43:38.681651 25687 net.cpp:141] Setting up inception_4a/3x3_reduce
I0403 19:43:38.681685 25687 net.cpp:148] Top shape: 24 96 14 14 (451584)
I0403 19:43:38.681704 25687 net.cpp:156] Memory required for data: 863429664
I0403 19:43:38.681730 25687 layer_factory.hpp:77] Creating layer inception_4a/relu_3x3_reduce
I0403 19:43:38.681751 25687 net.cpp:91] Creating Layer inception_4a/relu_3x3_reduce
I0403 19:43:38.681771 25687 net.cpp:425] inception_4a/relu_3x3_reduce <- inception_4a/3x3_reduce
I0403 19:43:38.681792 25687 net.cpp:386] inception_4a/relu_3x3_reduce -> inception_4a/3x3_reduce (in-place)
I0403 19:43:38.681963 25687 net.cpp:141] Setting up inception_4a/relu_3x3_reduce
I0403 19:43:38.681994 25687 net.cpp:148] Top shape: 24 96 14 14 (451584)
I0403 19:43:38.682013 25687 net.cpp:156] Memory required for data: 865236000
I0403 19:43:38.682029 25687 layer_factory.hpp:77] Creating layer inception_4a/3x3
I0403 19:43:38.682054 25687 net.cpp:91] Creating Layer inception_4a/3x3
I0403 19:43:38.682073 25687 net.cpp:425] inception_4a/3x3 <- inception_4a/3x3_reduce
I0403 19:43:38.682096 25687 net.cpp:399] inception_4a/3x3 -> inception_4a/3x3
I0403 19:43:38.684741 25687 net.cpp:141] Setting up inception_4a/3x3
I0403 19:43:38.684775 25687 net.cpp:148] Top shape: 24 208 14 14 (978432)
I0403 19:43:38.684794 25687 net.cpp:156] Memory required for data: 869149728
I0403 19:43:38.684814 25687 layer_factory.hpp:77] Creating layer inception_4a/relu_3x3
I0403 19:43:38.684837 25687 net.cpp:91] Creating Layer inception_4a/relu_3x3
I0403 19:43:38.684859 25687 net.cpp:425] inception_4a/relu_3x3 <- inception_4a/3x3
I0403 19:43:38.684876 25687 net.cpp:386] inception_4a/relu_3x3 -> inception_4a/3x3 (in-place)
I0403 19:43:38.685147 25687 net.cpp:141] Setting up inception_4a/relu_3x3
I0403 19:43:38.685175 25687 net.cpp:148] Top shape: 24 208 14 14 (978432)
I0403 19:43:38.685194 25687 net.cpp:156] Memory required for data: 873063456
I0403 19:43:38.685210 25687 layer_factory.hpp:77] Creating layer inception_4a/5x5_reduce
I0403 19:43:38.685233 25687 net.cpp:91] Creating Layer inception_4a/5x5_reduce
I0403 19:43:38.685256 25687 net.cpp:425] inception_4a/5x5_reduce <- pool3/3x3_s2_pool3/3x3_s2_0_split_2
I0403 19:43:38.685278 25687 net.cpp:399] inception_4a/5x5_reduce -> inception_4a/5x5_reduce
I0403 19:43:38.686269 25687 net.cpp:141] Setting up inception_4a/5x5_reduce
I0403 19:43:38.686306 25687 net.cpp:148] Top shape: 24 16 14 14 (75264)
I0403 19:43:38.686326 25687 net.cpp:156] Memory required for data: 873364512
I0403 19:43:38.686345 25687 layer_factory.hpp:77] Creating layer inception_4a/relu_5x5_reduce
I0403 19:43:38.686364 25687 net.cpp:91] Creating Layer inception_4a/relu_5x5_reduce
I0403 19:43:38.686384 25687 net.cpp:425] inception_4a/relu_5x5_reduce <- inception_4a/5x5_reduce
I0403 19:43:38.686403 25687 net.cpp:386] inception_4a/relu_5x5_reduce -> inception_4a/5x5_reduce (in-place)
I0403 19:43:38.686594 25687 net.cpp:141] Setting up inception_4a/relu_5x5_reduce
I0403 19:43:38.686625 25687 net.cpp:148] Top shape: 24 16 14 14 (75264)
I0403 19:43:38.686642 25687 net.cpp:156] Memory required for data: 873665568
I0403 19:43:38.686658 25687 layer_factory.hpp:77] Creating layer inception_4a/5x5
I0403 19:43:38.686681 25687 net.cpp:91] Creating Layer inception_4a/5x5
I0403 19:43:38.686700 25687 net.cpp:425] inception_4a/5x5 <- inception_4a/5x5_reduce
I0403 19:43:38.686724 25687 net.cpp:399] inception_4a/5x5 -> inception_4a/5x5
I0403 19:43:38.687783 25687 net.cpp:141] Setting up inception_4a/5x5
I0403 19:43:38.687816 25687 net.cpp:148] Top shape: 24 48 14 14 (225792)
I0403 19:43:38.687832 25687 net.cpp:156] Memory required for data: 874568736
I0403 19:43:38.687851 25687 layer_factory.hpp:77] Creating layer inception_4a/relu_5x5
I0403 19:43:38.687871 25687 net.cpp:91] Creating Layer inception_4a/relu_5x5
I0403 19:43:38.687890 25687 net.cpp:425] inception_4a/relu_5x5 <- inception_4a/5x5
I0403 19:43:38.687911 25687 net.cpp:386] inception_4a/relu_5x5 -> inception_4a/5x5 (in-place)
I0403 19:43:38.688083 25687 net.cpp:141] Setting up inception_4a/relu_5x5
I0403 19:43:38.688113 25687 net.cpp:148] Top shape: 24 48 14 14 (225792)
I0403 19:43:38.688130 25687 net.cpp:156] Memory required for data: 875471904
I0403 19:43:38.688146 25687 layer_factory.hpp:77] Creating layer inception_4a/pool
I0403 19:43:38.688168 25687 net.cpp:91] Creating Layer inception_4a/pool
I0403 19:43:38.688187 25687 net.cpp:425] inception_4a/pool <- pool3/3x3_s2_pool3/3x3_s2_0_split_3
I0403 19:43:38.688206 25687 net.cpp:399] inception_4a/pool -> inception_4a/pool
I0403 19:43:38.688268 25687 net.cpp:141] Setting up inception_4a/pool
I0403 19:43:38.688305 25687 net.cpp:148] Top shape: 24 480 14 14 (2257920)
I0403 19:43:38.688324 25687 net.cpp:156] Memory required for data: 884503584
I0403 19:43:38.688340 25687 layer_factory.hpp:77] Creating layer inception_4a/pool_proj
I0403 19:43:38.688364 25687 net.cpp:91] Creating Layer inception_4a/pool_proj
I0403 19:43:38.688385 25687 net.cpp:425] inception_4a/pool_proj <- inception_4a/pool
I0403 19:43:38.688405 25687 net.cpp:399] inception_4a/pool_proj -> inception_4a/pool_proj
I0403 19:43:38.689555 25687 net.cpp:141] Setting up inception_4a/pool_proj
I0403 19:43:38.689589 25687 net.cpp:148] Top shape: 24 64 14 14 (301056)
I0403 19:43:38.689623 25687 net.cpp:156] Memory required for data: 885707808
I0403 19:43:38.689646 25687 layer_factory.hpp:77] Creating layer inception_4a/relu_pool_proj
I0403 19:43:38.689666 25687 net.cpp:91] Creating Layer inception_4a/relu_pool_proj
I0403 19:43:38.689684 25687 net.cpp:425] inception_4a/relu_pool_proj <- inception_4a/pool_proj
I0403 19:43:38.689707 25687 net.cpp:386] inception_4a/relu_pool_proj -> inception_4a/pool_proj (in-place)
I0403 19:43:38.689998 25687 net.cpp:141] Setting up inception_4a/relu_pool_proj
I0403 19:43:38.690027 25687 net.cpp:148] Top shape: 24 64 14 14 (301056)
I0403 19:43:38.690044 25687 net.cpp:156] Memory required for data: 886912032
I0403 19:43:38.690062 25687 layer_factory.hpp:77] Creating layer inception_4a/output
I0403 19:43:38.690080 25687 net.cpp:91] Creating Layer inception_4a/output
I0403 19:43:38.690096 25687 net.cpp:425] inception_4a/output <- inception_4a/1x1
I0403 19:43:38.690112 25687 net.cpp:425] inception_4a/output <- inception_4a/3x3
I0403 19:43:38.690129 25687 net.cpp:425] inception_4a/output <- inception_4a/5x5
I0403 19:43:38.690147 25687 net.cpp:425] inception_4a/output <- inception_4a/pool_proj
I0403 19:43:38.690168 25687 net.cpp:399] inception_4a/output -> inception_4a/output
I0403 19:43:38.690214 25687 net.cpp:141] Setting up inception_4a/output
I0403 19:43:38.690246 25687 net.cpp:148] Top shape: 24 512 14 14 (2408448)
I0403 19:43:38.690263 25687 net.cpp:156] Memory required for data: 896545824
I0403 19:43:38.690279 25687 layer_factory.hpp:77] Creating layer inception_4a/output_inception_4a/output_0_split
I0403 19:43:38.690304 25687 net.cpp:91] Creating Layer inception_4a/output_inception_4a/output_0_split
I0403 19:43:38.690325 25687 net.cpp:425] inception_4a/output_inception_4a/output_0_split <- inception_4a/output
I0403 19:43:38.690349 25687 net.cpp:399] inception_4a/output_inception_4a/output_0_split -> inception_4a/output_inception_4a/output_0_split_0
I0403 19:43:38.690373 25687 net.cpp:399] inception_4a/output_inception_4a/output_0_split -> inception_4a/output_inception_4a/output_0_split_1
I0403 19:43:38.690398 25687 net.cpp:399] inception_4a/output_inception_4a/output_0_split -> inception_4a/output_inception_4a/output_0_split_2
I0403 19:43:38.690420 25687 net.cpp:399] inception_4a/output_inception_4a/output_0_split -> inception_4a/output_inception_4a/output_0_split_3
I0403 19:43:38.690443 25687 net.cpp:399] inception_4a/output_inception_4a/output_0_split -> inception_4a/output_inception_4a/output_0_split_4
I0403 19:43:38.690538 25687 net.cpp:141] Setting up inception_4a/output_inception_4a/output_0_split
I0403 19:43:38.690569 25687 net.cpp:148] Top shape: 24 512 14 14 (2408448)
I0403 19:43:38.690592 25687 net.cpp:148] Top shape: 24 512 14 14 (2408448)
I0403 19:43:38.690608 25687 net.cpp:148] Top shape: 24 512 14 14 (2408448)
I0403 19:43:38.690624 25687 net.cpp:148] Top shape: 24 512 14 14 (2408448)
I0403 19:43:38.690639 25687 net.cpp:148] Top shape: 24 512 14 14 (2408448)
I0403 19:43:38.690654 25687 net.cpp:156] Memory required for data: 944714784
I0403 19:43:38.690671 25687 layer_factory.hpp:77] Creating layer loss1/ave_pool
I0403 19:43:38.690691 25687 net.cpp:91] Creating Layer loss1/ave_pool
I0403 19:43:38.690708 25687 net.cpp:425] loss1/ave_pool <- inception_4a/output_inception_4a/output_0_split_0
I0403 19:43:38.690728 25687 net.cpp:399] loss1/ave_pool -> loss1/ave_pool
I0403 19:43:38.690937 25687 net.cpp:141] Setting up loss1/ave_pool
I0403 19:43:38.690964 25687 net.cpp:148] Top shape: 24 512 4 4 (196608)
I0403 19:43:38.690982 25687 net.cpp:156] Memory required for data: 945501216
I0403 19:43:38.690999 25687 layer_factory.hpp:77] Creating layer loss1/conv
I0403 19:43:38.691021 25687 net.cpp:91] Creating Layer loss1/conv
I0403 19:43:38.691040 25687 net.cpp:425] loss1/conv <- loss1/ave_pool
I0403 19:43:38.691062 25687 net.cpp:399] loss1/conv -> loss1/conv
I0403 19:43:38.692437 25687 net.cpp:141] Setting up loss1/conv
I0403 19:43:38.692473 25687 net.cpp:148] Top shape: 24 128 4 4 (49152)
I0403 19:43:38.692508 25687 net.cpp:156] Memory required for data: 945697824
I0403 19:43:38.692529 25687 layer_factory.hpp:77] Creating layer loss1/relu_conv
I0403 19:43:38.692553 25687 net.cpp:91] Creating Layer loss1/relu_conv
I0403 19:43:38.692574 25687 net.cpp:425] loss1/relu_conv <- loss1/conv
I0403 19:43:38.692605 25687 net.cpp:386] loss1/relu_conv -> loss1/conv (in-place)
I0403 19:43:38.692874 25687 net.cpp:141] Setting up loss1/relu_conv
I0403 19:43:38.692905 25687 net.cpp:148] Top shape: 24 128 4 4 (49152)
I0403 19:43:38.692921 25687 net.cpp:156] Memory required for data: 945894432
I0403 19:43:38.692939 25687 layer_factory.hpp:77] Creating layer loss1/fc
I0403 19:43:38.692970 25687 net.cpp:91] Creating Layer loss1/fc
I0403 19:43:38.692991 25687 net.cpp:425] loss1/fc <- loss1/conv
I0403 19:43:38.693013 25687 net.cpp:399] loss1/fc -> loss1/fc
I0403 19:43:38.710566 25687 net.cpp:141] Setting up loss1/fc
I0403 19:43:38.710600 25687 net.cpp:148] Top shape: 24 1024 (24576)
I0403 19:43:38.710618 25687 net.cpp:156] Memory required for data: 945992736
I0403 19:43:38.710636 25687 layer_factory.hpp:77] Creating layer loss1/relu_fc
I0403 19:43:38.710656 25687 net.cpp:91] Creating Layer loss1/relu_fc
I0403 19:43:38.710681 25687 net.cpp:425] loss1/relu_fc <- loss1/fc
I0403 19:43:38.710700 25687 net.cpp:386] loss1/relu_fc -> loss1/fc (in-place)
I0403 19:43:38.710887 25687 net.cpp:141] Setting up loss1/relu_fc
I0403 19:43:38.710916 25687 net.cpp:148] Top shape: 24 1024 (24576)
I0403 19:43:38.710932 25687 net.cpp:156] Memory required for data: 946091040
I0403 19:43:38.710947 25687 layer_factory.hpp:77] Creating layer loss1/drop_fc
I0403 19:43:38.710976 25687 net.cpp:91] Creating Layer loss1/drop_fc
I0403 19:43:38.710996 25687 net.cpp:425] loss1/drop_fc <- loss1/fc
I0403 19:43:38.711017 25687 net.cpp:386] loss1/drop_fc -> loss1/fc (in-place)
I0403 19:43:38.711074 25687 net.cpp:141] Setting up loss1/drop_fc
I0403 19:43:38.711105 25687 net.cpp:148] Top shape: 24 1024 (24576)
I0403 19:43:38.711124 25687 net.cpp:156] Memory required for data: 946189344
I0403 19:43:38.711141 25687 layer_factory.hpp:77] Creating layer loss1/classifier_plantvillage
I0403 19:43:38.711161 25687 net.cpp:91] Creating Layer loss1/classifier_plantvillage
I0403 19:43:38.711179 25687 net.cpp:425] loss1/classifier_plantvillage <- loss1/fc
I0403 19:43:38.711201 25687 net.cpp:399] loss1/classifier_plantvillage -> loss1/classifier_plantvillage
I0403 19:43:38.712100 25687 net.cpp:141] Setting up loss1/classifier_plantvillage
I0403 19:43:38.712131 25687 net.cpp:148] Top shape: 24 38 (912)
I0403 19:43:38.712148 25687 net.cpp:156] Memory required for data: 946192992
I0403 19:43:38.712168 25687 layer_factory.hpp:77] Creating layer loss1/classifier_plantvillage_loss1/classifier_plantvillage_0_split
I0403 19:43:38.712193 25687 net.cpp:91] Creating Layer loss1/classifier_plantvillage_loss1/classifier_plantvillage_0_split
I0403 19:43:38.712213 25687 net.cpp:425] loss1/classifier_plantvillage_loss1/classifier_plantvillage_0_split <- loss1/classifier_plantvillage
I0403 19:43:38.712232 25687 net.cpp:399] loss1/classifier_plantvillage_loss1/classifier_plantvillage_0_split -> loss1/classifier_plantvillage_loss1/classifier_plantvillage_0_split_0
I0403 19:43:38.712254 25687 net.cpp:399] loss1/classifier_plantvillage_loss1/classifier_plantvillage_0_split -> loss1/classifier_plantvillage_loss1/classifier_plantvillage_0_split_1
I0403 19:43:38.712275 25687 net.cpp:399] loss1/classifier_plantvillage_loss1/classifier_plantvillage_0_split -> loss1/classifier_plantvillage_loss1/classifier_plantvillage_0_split_2
I0403 19:43:38.712348 25687 net.cpp:141] Setting up loss1/classifier_plantvillage_loss1/classifier_plantvillage_0_split
I0403 19:43:38.712375 25687 net.cpp:148] Top shape: 24 38 (912)
I0403 19:43:38.712393 25687 net.cpp:148] Top shape: 24 38 (912)
I0403 19:43:38.712409 25687 net.cpp:148] Top shape: 24 38 (912)
I0403 19:43:38.712424 25687 net.cpp:156] Memory required for data: 946203936
I0403 19:43:38.712440 25687 layer_factory.hpp:77] Creating layer inception_4b/1x1
I0403 19:43:38.712461 25687 net.cpp:91] Creating Layer inception_4b/1x1
I0403 19:43:38.712499 25687 net.cpp:425] inception_4b/1x1 <- inception_4a/output_inception_4a/output_0_split_1
I0403 19:43:38.712524 25687 net.cpp:399] inception_4b/1x1 -> inception_4b/1x1
I0403 19:43:38.714095 25687 net.cpp:141] Setting up inception_4b/1x1
I0403 19:43:38.714133 25687 net.cpp:148] Top shape: 24 160 14 14 (752640)
I0403 19:43:38.714153 25687 net.cpp:156] Memory required for data: 949214496
I0403 19:43:38.714171 25687 layer_factory.hpp:77] Creating layer inception_4b/relu_1x1
I0403 19:43:38.714190 25687 net.cpp:91] Creating Layer inception_4b/relu_1x1
I0403 19:43:38.714210 25687 net.cpp:425] inception_4b/relu_1x1 <- inception_4b/1x1
I0403 19:43:38.714231 25687 net.cpp:386] inception_4b/relu_1x1 -> inception_4b/1x1 (in-place)
I0403 19:43:38.714419 25687 net.cpp:141] Setting up inception_4b/relu_1x1
I0403 19:43:38.714450 25687 net.cpp:148] Top shape: 24 160 14 14 (752640)
I0403 19:43:38.714468 25687 net.cpp:156] Memory required for data: 952225056
I0403 19:43:38.714484 25687 layer_factory.hpp:77] Creating layer inception_4b/3x3_reduce
I0403 19:43:38.714509 25687 net.cpp:91] Creating Layer inception_4b/3x3_reduce
I0403 19:43:38.714529 25687 net.cpp:425] inception_4b/3x3_reduce <- inception_4a/output_inception_4a/output_0_split_2
I0403 19:43:38.714550 25687 net.cpp:399] inception_4b/3x3_reduce -> inception_4b/3x3_reduce
I0403 19:43:38.715894 25687 net.cpp:141] Setting up inception_4b/3x3_reduce
I0403 19:43:38.715927 25687 net.cpp:148] Top shape: 24 112 14 14 (526848)
I0403 19:43:38.715947 25687 net.cpp:156] Memory required for data: 954332448
I0403 19:43:38.715967 25687 layer_factory.hpp:77] Creating layer inception_4b/relu_3x3_reduce
I0403 19:43:38.715989 25687 net.cpp:91] Creating Layer inception_4b/relu_3x3_reduce
I0403 19:43:38.716008 25687 net.cpp:425] inception_4b/relu_3x3_reduce <- inception_4b/3x3_reduce
I0403 19:43:38.716030 25687 net.cpp:386] inception_4b/relu_3x3_reduce -> inception_4b/3x3_reduce (in-place)
I0403 19:43:38.716305 25687 net.cpp:141] Setting up inception_4b/relu_3x3_reduce
I0403 19:43:38.716336 25687 net.cpp:148] Top shape: 24 112 14 14 (526848)
I0403 19:43:38.716354 25687 net.cpp:156] Memory required for data: 956439840
I0403 19:43:38.716370 25687 layer_factory.hpp:77] Creating layer inception_4b/3x3
I0403 19:43:38.716394 25687 net.cpp:91] Creating Layer inception_4b/3x3
I0403 19:43:38.716413 25687 net.cpp:425] inception_4b/3x3 <- inception_4b/3x3_reduce
I0403 19:43:38.716434 25687 net.cpp:399] inception_4b/3x3 -> inception_4b/3x3
I0403 19:43:38.719259 25687 net.cpp:141] Setting up inception_4b/3x3
I0403 19:43:38.719296 25687 net.cpp:148] Top shape: 24 224 14 14 (1053696)
I0403 19:43:38.719317 25687 net.cpp:156] Memory required for data: 960654624
I0403 19:43:38.719338 25687 layer_factory.hpp:77] Creating layer inception_4b/relu_3x3
I0403 19:43:38.719362 25687 net.cpp:91] Creating Layer inception_4b/relu_3x3
I0403 19:43:38.719379 25687 net.cpp:425] inception_4b/relu_3x3 <- inception_4b/3x3
I0403 19:43:38.719398 25687 net.cpp:386] inception_4b/relu_3x3 -> inception_4b/3x3 (in-place)
I0403 19:43:38.719570 25687 net.cpp:141] Setting up inception_4b/relu_3x3
I0403 19:43:38.719599 25687 net.cpp:148] Top shape: 24 224 14 14 (1053696)
I0403 19:43:38.719615 25687 net.cpp:156] Memory required for data: 964869408
I0403 19:43:38.719632 25687 layer_factory.hpp:77] Creating layer inception_4b/5x5_reduce
I0403 19:43:38.719656 25687 net.cpp:91] Creating Layer inception_4b/5x5_reduce
I0403 19:43:38.719676 25687 net.cpp:425] inception_4b/5x5_reduce <- inception_4a/output_inception_4a/output_0_split_3
I0403 19:43:38.719696 25687 net.cpp:399] inception_4b/5x5_reduce -> inception_4b/5x5_reduce
I0403 19:43:38.720716 25687 net.cpp:141] Setting up inception_4b/5x5_reduce
I0403 19:43:38.720749 25687 net.cpp:148] Top shape: 24 24 14 14 (112896)
I0403 19:43:38.720769 25687 net.cpp:156] Memory required for data: 965320992
I0403 19:43:38.720788 25687 layer_factory.hpp:77] Creating layer inception_4b/relu_5x5_reduce
I0403 19:43:38.720808 25687 net.cpp:91] Creating Layer inception_4b/relu_5x5_reduce
I0403 19:43:38.720841 25687 net.cpp:425] inception_4b/relu_5x5_reduce <- inception_4b/5x5_reduce
I0403 19:43:38.720862 25687 net.cpp:386] inception_4b/relu_5x5_reduce -> inception_4b/5x5_reduce (in-place)
I0403 19:43:38.721037 25687 net.cpp:141] Setting up inception_4b/relu_5x5_reduce
I0403 19:43:38.721068 25687 net.cpp:148] Top shape: 24 24 14 14 (112896)
I0403 19:43:38.721086 25687 net.cpp:156] Memory required for data: 965772576
I0403 19:43:38.721101 25687 layer_factory.hpp:77] Creating layer inception_4b/5x5
I0403 19:43:38.721124 25687 net.cpp:91] Creating Layer inception_4b/5x5
I0403 19:43:38.721144 25687 net.cpp:425] inception_4b/5x5 <- inception_4b/5x5_reduce
I0403 19:43:38.721169 25687 net.cpp:399] inception_4b/5x5 -> inception_4b/5x5
I0403 19:43:38.722332 25687 net.cpp:141] Setting up inception_4b/5x5
I0403 19:43:38.722364 25687 net.cpp:148] Top shape: 24 64 14 14 (301056)
I0403 19:43:38.722383 25687 net.cpp:156] Memory required for data: 966976800
I0403 19:43:38.722401 25687 layer_factory.hpp:77] Creating layer inception_4b/relu_5x5
I0403 19:43:38.722421 25687 net.cpp:91] Creating Layer inception_4b/relu_5x5
I0403 19:43:38.722440 25687 net.cpp:425] inception_4b/relu_5x5 <- inception_4b/5x5
I0403 19:43:38.722458 25687 net.cpp:386] inception_4b/relu_5x5 -> inception_4b/5x5 (in-place)
I0403 19:43:38.722728 25687 net.cpp:141] Setting up inception_4b/relu_5x5
I0403 19:43:38.722757 25687 net.cpp:148] Top shape: 24 64 14 14 (301056)
I0403 19:43:38.722777 25687 net.cpp:156] Memory required for data: 968181024
I0403 19:43:38.722795 25687 layer_factory.hpp:77] Creating layer inception_4b/pool
I0403 19:43:38.722815 25687 net.cpp:91] Creating Layer inception_4b/pool
I0403 19:43:38.722833 25687 net.cpp:425] inception_4b/pool <- inception_4a/output_inception_4a/output_0_split_4
I0403 19:43:38.722853 25687 net.cpp:399] inception_4b/pool -> inception_4b/pool
I0403 19:43:38.722921 25687 net.cpp:141] Setting up inception_4b/pool
I0403 19:43:38.722947 25687 net.cpp:148] Top shape: 24 512 14 14 (2408448)
I0403 19:43:38.722965 25687 net.cpp:156] Memory required for data: 977814816
I0403 19:43:38.722980 25687 layer_factory.hpp:77] Creating layer inception_4b/pool_proj
I0403 19:43:38.723004 25687 net.cpp:91] Creating Layer inception_4b/pool_proj
I0403 19:43:38.723024 25687 net.cpp:425] inception_4b/pool_proj <- inception_4b/pool
I0403 19:43:38.723045 25687 net.cpp:399] inception_4b/pool_proj -> inception_4b/pool_proj
I0403 19:43:38.724177 25687 net.cpp:141] Setting up inception_4b/pool_proj
I0403 19:43:38.724210 25687 net.cpp:148] Top shape: 24 64 14 14 (301056)
I0403 19:43:38.724228 25687 net.cpp:156] Memory required for data: 979019040
I0403 19:43:38.724248 25687 layer_factory.hpp:77] Creating layer inception_4b/relu_pool_proj
I0403 19:43:38.724269 25687 net.cpp:91] Creating Layer inception_4b/relu_pool_proj
I0403 19:43:38.724298 25687 net.cpp:425] inception_4b/relu_pool_proj <- inception_4b/pool_proj
I0403 19:43:38.724320 25687 net.cpp:386] inception_4b/relu_pool_proj -> inception_4b/pool_proj (in-place)
I0403 19:43:38.724496 25687 net.cpp:141] Setting up inception_4b/relu_pool_proj
I0403 19:43:38.724524 25687 net.cpp:148] Top shape: 24 64 14 14 (301056)
I0403 19:43:38.724539 25687 net.cpp:156] Memory required for data: 980223264
I0403 19:43:38.724553 25687 layer_factory.hpp:77] Creating layer inception_4b/output
I0403 19:43:38.724571 25687 net.cpp:91] Creating Layer inception_4b/output
I0403 19:43:38.724587 25687 net.cpp:425] inception_4b/output <- inception_4b/1x1
I0403 19:43:38.724606 25687 net.cpp:425] inception_4b/output <- inception_4b/3x3
I0403 19:43:38.724622 25687 net.cpp:425] inception_4b/output <- inception_4b/5x5
I0403 19:43:38.724639 25687 net.cpp:425] inception_4b/output <- inception_4b/pool_proj
I0403 19:43:38.724660 25687 net.cpp:399] inception_4b/output -> inception_4b/output
I0403 19:43:38.724707 25687 net.cpp:141] Setting up inception_4b/output
I0403 19:43:38.724737 25687 net.cpp:148] Top shape: 24 512 14 14 (2408448)
I0403 19:43:38.724756 25687 net.cpp:156] Memory required for data: 989857056
I0403 19:43:38.724791 25687 layer_factory.hpp:77] Creating layer inception_4b/output_inception_4b/output_0_split
I0403 19:43:38.724810 25687 net.cpp:91] Creating Layer inception_4b/output_inception_4b/output_0_split
I0403 19:43:38.724829 25687 net.cpp:425] inception_4b/output_inception_4b/output_0_split <- inception_4b/output
I0403 19:43:38.724849 25687 net.cpp:399] inception_4b/output_inception_4b/output_0_split -> inception_4b/output_inception_4b/output_0_split_0
I0403 19:43:38.724875 25687 net.cpp:399] inception_4b/output_inception_4b/output_0_split -> inception_4b/output_inception_4b/output_0_split_1
I0403 19:43:38.724898 25687 net.cpp:399] inception_4b/output_inception_4b/output_0_split -> inception_4b/output_inception_4b/output_0_split_2
I0403 19:43:38.724920 25687 net.cpp:399] inception_4b/output_inception_4b/output_0_split -> inception_4b/output_inception_4b/output_0_split_3
I0403 19:43:38.725003 25687 net.cpp:141] Setting up inception_4b/output_inception_4b/output_0_split
I0403 19:43:38.725031 25687 net.cpp:148] Top shape: 24 512 14 14 (2408448)
I0403 19:43:38.725049 25687 net.cpp:148] Top shape: 24 512 14 14 (2408448)
I0403 19:43:38.725064 25687 net.cpp:148] Top shape: 24 512 14 14 (2408448)
I0403 19:43:38.725080 25687 net.cpp:148] Top shape: 24 512 14 14 (2408448)
I0403 19:43:38.725093 25687 net.cpp:156] Memory required for data: 1028392224
I0403 19:43:38.725111 25687 layer_factory.hpp:77] Creating layer inception_4c/1x1
I0403 19:43:38.725132 25687 net.cpp:91] Creating Layer inception_4c/1x1
I0403 19:43:38.725153 25687 net.cpp:425] inception_4c/1x1 <- inception_4b/output_inception_4b/output_0_split_0
I0403 19:43:38.725178 25687 net.cpp:399] inception_4c/1x1 -> inception_4c/1x1
I0403 19:43:38.726534 25687 net.cpp:141] Setting up inception_4c/1x1
I0403 19:43:38.726564 25687 net.cpp:148] Top shape: 24 128 14 14 (602112)
I0403 19:43:38.726582 25687 net.cpp:156] Memory required for data: 1030800672
I0403 19:43:38.726601 25687 layer_factory.hpp:77] Creating layer inception_4c/relu_1x1
I0403 19:43:38.726624 25687 net.cpp:91] Creating Layer inception_4c/relu_1x1
I0403 19:43:38.726644 25687 net.cpp:425] inception_4c/relu_1x1 <- inception_4c/1x1
I0403 19:43:38.726661 25687 net.cpp:386] inception_4c/relu_1x1 -> inception_4c/1x1 (in-place)
I0403 19:43:38.726831 25687 net.cpp:141] Setting up inception_4c/relu_1x1
I0403 19:43:38.726861 25687 net.cpp:148] Top shape: 24 128 14 14 (602112)
I0403 19:43:38.726876 25687 net.cpp:156] Memory required for data: 1033209120
I0403 19:43:38.726889 25687 layer_factory.hpp:77] Creating layer inception_4c/3x3_reduce
I0403 19:43:38.726913 25687 net.cpp:91] Creating Layer inception_4c/3x3_reduce
I0403 19:43:38.726933 25687 net.cpp:425] inception_4c/3x3_reduce <- inception_4b/output_inception_4b/output_0_split_1
I0403 19:43:38.726954 25687 net.cpp:399] inception_4c/3x3_reduce -> inception_4c/3x3_reduce
I0403 19:43:38.728812 25687 net.cpp:141] Setting up inception_4c/3x3_reduce
I0403 19:43:38.728843 25687 net.cpp:148] Top shape: 24 128 14 14 (602112)
I0403 19:43:38.728860 25687 net.cpp:156] Memory required for data: 1035617568
I0403 19:43:38.728880 25687 layer_factory.hpp:77] Creating layer inception_4c/relu_3x3_reduce
I0403 19:43:38.728904 25687 net.cpp:91] Creating Layer inception_4c/relu_3x3_reduce
I0403 19:43:38.728925 25687 net.cpp:425] inception_4c/relu_3x3_reduce <- inception_4c/3x3_reduce
I0403 19:43:38.728945 25687 net.cpp:386] inception_4c/relu_3x3_reduce -> inception_4c/3x3_reduce (in-place)
I0403 19:43:38.729218 25687 net.cpp:141] Setting up inception_4c/relu_3x3_reduce
I0403 19:43:38.729244 25687 net.cpp:148] Top shape: 24 128 14 14 (602112)
I0403 19:43:38.729264 25687 net.cpp:156] Memory required for data: 1038026016
I0403 19:43:38.729279 25687 layer_factory.hpp:77] Creating layer inception_4c/3x3
I0403 19:43:38.729310 25687 net.cpp:91] Creating Layer inception_4c/3x3
I0403 19:43:38.729333 25687 net.cpp:425] inception_4c/3x3 <- inception_4c/3x3_reduce
I0403 19:43:38.729353 25687 net.cpp:399] inception_4c/3x3 -> inception_4c/3x3
I0403 19:43:38.732769 25687 net.cpp:141] Setting up inception_4c/3x3
I0403 19:43:38.732816 25687 net.cpp:148] Top shape: 24 256 14 14 (1204224)
I0403 19:43:38.732837 25687 net.cpp:156] Memory required for data: 1042842912
I0403 19:43:38.732872 25687 layer_factory.hpp:77] Creating layer inception_4c/relu_3x3
I0403 19:43:38.732893 25687 net.cpp:91] Creating Layer inception_4c/relu_3x3
I0403 19:43:38.732913 25687 net.cpp:425] inception_4c/relu_3x3 <- inception_4c/3x3
I0403 19:43:38.732931 25687 net.cpp:386] inception_4c/relu_3x3 -> inception_4c/3x3 (in-place)
I0403 19:43:38.733106 25687 net.cpp:141] Setting up inception_4c/relu_3x3
I0403 19:43:38.733137 25687 net.cpp:148] Top shape: 24 256 14 14 (1204224)
I0403 19:43:38.733155 25687 net.cpp:156] Memory required for data: 1047659808
I0403 19:43:38.733170 25687 layer_factory.hpp:77] Creating layer inception_4c/5x5_reduce
I0403 19:43:38.733196 25687 net.cpp:91] Creating Layer inception_4c/5x5_reduce
I0403 19:43:38.733217 25687 net.cpp:425] inception_4c/5x5_reduce <- inception_4b/output_inception_4b/output_0_split_2
I0403 19:43:38.733238 25687 net.cpp:399] inception_4c/5x5_reduce -> inception_4c/5x5_reduce
I0403 19:43:38.734282 25687 net.cpp:141] Setting up inception_4c/5x5_reduce
I0403 19:43:38.734323 25687 net.cpp:148] Top shape: 24 24 14 14 (112896)
I0403 19:43:38.734344 25687 net.cpp:156] Memory required for data: 1048111392
I0403 19:43:38.734364 25687 layer_factory.hpp:77] Creating layer inception_4c/relu_5x5_reduce
I0403 19:43:38.734383 25687 net.cpp:91] Creating Layer inception_4c/relu_5x5_reduce
I0403 19:43:38.734401 25687 net.cpp:425] inception_4c/relu_5x5_reduce <- inception_4c/5x5_reduce
I0403 19:43:38.734423 25687 net.cpp:386] inception_4c/relu_5x5_reduce -> inception_4c/5x5_reduce (in-place)
I0403 19:43:38.734601 25687 net.cpp:141] Setting up inception_4c/relu_5x5_reduce
I0403 19:43:38.734629 25687 net.cpp:148] Top shape: 24 24 14 14 (112896)
I0403 19:43:38.734647 25687 net.cpp:156] Memory required for data: 1048562976
I0403 19:43:38.734661 25687 layer_factory.hpp:77] Creating layer inception_4c/5x5
I0403 19:43:38.734684 25687 net.cpp:91] Creating Layer inception_4c/5x5
I0403 19:43:38.734705 25687 net.cpp:425] inception_4c/5x5 <- inception_4c/5x5_reduce
I0403 19:43:38.734730 25687 net.cpp:399] inception_4c/5x5 -> inception_4c/5x5
I0403 19:43:38.735908 25687 net.cpp:141] Setting up inception_4c/5x5
I0403 19:43:38.735939 25687 net.cpp:148] Top shape: 24 64 14 14 (301056)
I0403 19:43:38.735956 25687 net.cpp:156] Memory required for data: 1049767200
I0403 19:43:38.735975 25687 layer_factory.hpp:77] Creating layer inception_4c/relu_5x5
I0403 19:43:38.735996 25687 net.cpp:91] Creating Layer inception_4c/relu_5x5
I0403 19:43:38.736045 25687 net.cpp:425] inception_4c/relu_5x5 <- inception_4c/5x5
I0403 19:43:38.736066 25687 net.cpp:386] inception_4c/relu_5x5 -> inception_4c/5x5 (in-place)
I0403 19:43:38.736378 25687 net.cpp:141] Setting up inception_4c/relu_5x5
I0403 19:43:38.736409 25687 net.cpp:148] Top shape: 24 64 14 14 (301056)
I0403 19:43:38.736428 25687 net.cpp:156] Memory required for data: 1050971424
I0403 19:43:38.736443 25687 layer_factory.hpp:77] Creating layer inception_4c/pool
I0403 19:43:38.736464 25687 net.cpp:91] Creating Layer inception_4c/pool
I0403 19:43:38.736482 25687 net.cpp:425] inception_4c/pool <- inception_4b/output_inception_4b/output_0_split_3
I0403 19:43:38.736505 25687 net.cpp:399] inception_4c/pool -> inception_4c/pool
I0403 19:43:38.736570 25687 net.cpp:141] Setting up inception_4c/pool
I0403 19:43:38.736599 25687 net.cpp:148] Top shape: 24 512 14 14 (2408448)
I0403 19:43:38.736616 25687 net.cpp:156] Memory required for data: 1060605216
I0403 19:43:38.736632 25687 layer_factory.hpp:77] Creating layer inception_4c/pool_proj
I0403 19:43:38.736657 25687 net.cpp:91] Creating Layer inception_4c/pool_proj
I0403 19:43:38.736678 25687 net.cpp:425] inception_4c/pool_proj <- inception_4c/pool
I0403 19:43:38.736697 25687 net.cpp:399] inception_4c/pool_proj -> inception_4c/pool_proj
I0403 19:43:38.737885 25687 net.cpp:141] Setting up inception_4c/pool_proj
I0403 19:43:38.737921 25687 net.cpp:148] Top shape: 24 64 14 14 (301056)
I0403 19:43:38.737954 25687 net.cpp:156] Memory required for data: 1061809440
I0403 19:43:38.737974 25687 layer_factory.hpp:77] Creating layer inception_4c/relu_pool_proj
I0403 19:43:38.737996 25687 net.cpp:91] Creating Layer inception_4c/relu_pool_proj
I0403 19:43:38.738014 25687 net.cpp:425] inception_4c/relu_pool_proj <- inception_4c/pool_proj
I0403 19:43:38.738032 25687 net.cpp:386] inception_4c/relu_pool_proj -> inception_4c/pool_proj (in-place)
I0403 19:43:38.738214 25687 net.cpp:141] Setting up inception_4c/relu_pool_proj
I0403 19:43:38.738245 25687 net.cpp:148] Top shape: 24 64 14 14 (301056)
I0403 19:43:38.738263 25687 net.cpp:156] Memory required for data: 1063013664
I0403 19:43:38.738279 25687 layer_factory.hpp:77] Creating layer inception_4c/output
I0403 19:43:38.738306 25687 net.cpp:91] Creating Layer inception_4c/output
I0403 19:43:38.738325 25687 net.cpp:425] inception_4c/output <- inception_4c/1x1
I0403 19:43:38.738343 25687 net.cpp:425] inception_4c/output <- inception_4c/3x3
I0403 19:43:38.738360 25687 net.cpp:425] inception_4c/output <- inception_4c/5x5
I0403 19:43:38.738378 25687 net.cpp:425] inception_4c/output <- inception_4c/pool_proj
I0403 19:43:38.738399 25687 net.cpp:399] inception_4c/output -> inception_4c/output
I0403 19:43:38.738448 25687 net.cpp:141] Setting up inception_4c/output
I0403 19:43:38.738476 25687 net.cpp:148] Top shape: 24 512 14 14 (2408448)
I0403 19:43:38.738492 25687 net.cpp:156] Memory required for data: 1072647456
I0403 19:43:38.738507 25687 layer_factory.hpp:77] Creating layer inception_4c/output_inception_4c/output_0_split
I0403 19:43:38.738528 25687 net.cpp:91] Creating Layer inception_4c/output_inception_4c/output_0_split
I0403 19:43:38.738548 25687 net.cpp:425] inception_4c/output_inception_4c/output_0_split <- inception_4c/output
I0403 19:43:38.738567 25687 net.cpp:399] inception_4c/output_inception_4c/output_0_split -> inception_4c/output_inception_4c/output_0_split_0
I0403 19:43:38.738590 25687 net.cpp:399] inception_4c/output_inception_4c/output_0_split -> inception_4c/output_inception_4c/output_0_split_1
I0403 19:43:38.738613 25687 net.cpp:399] inception_4c/output_inception_4c/output_0_split -> inception_4c/output_inception_4c/output_0_split_2
I0403 19:43:38.738636 25687 net.cpp:399] inception_4c/output_inception_4c/output_0_split -> inception_4c/output_inception_4c/output_0_split_3
I0403 19:43:38.738723 25687 net.cpp:141] Setting up inception_4c/output_inception_4c/output_0_split
I0403 19:43:38.738750 25687 net.cpp:148] Top shape: 24 512 14 14 (2408448)
I0403 19:43:38.738770 25687 net.cpp:148] Top shape: 24 512 14 14 (2408448)
I0403 19:43:38.738785 25687 net.cpp:148] Top shape: 24 512 14 14 (2408448)
I0403 19:43:38.738802 25687 net.cpp:148] Top shape: 24 512 14 14 (2408448)
I0403 19:43:38.738816 25687 net.cpp:156] Memory required for data: 1111182624
I0403 19:43:38.738832 25687 layer_factory.hpp:77] Creating layer inception_4d/1x1
I0403 19:43:38.738857 25687 net.cpp:91] Creating Layer inception_4d/1x1
I0403 19:43:38.738875 25687 net.cpp:425] inception_4d/1x1 <- inception_4c/output_inception_4c/output_0_split_0
I0403 19:43:38.738898 25687 net.cpp:399] inception_4d/1x1 -> inception_4d/1x1
I0403 19:43:38.740242 25687 net.cpp:141] Setting up inception_4d/1x1
I0403 19:43:38.740273 25687 net.cpp:148] Top shape: 24 112 14 14 (526848)
I0403 19:43:38.740295 25687 net.cpp:156] Memory required for data: 1113290016
I0403 19:43:38.740319 25687 layer_factory.hpp:77] Creating layer inception_4d/relu_1x1
I0403 19:43:38.740341 25687 net.cpp:91] Creating Layer inception_4d/relu_1x1
I0403 19:43:38.740361 25687 net.cpp:425] inception_4d/relu_1x1 <- inception_4d/1x1
I0403 19:43:38.740380 25687 net.cpp:386] inception_4d/relu_1x1 -> inception_4d/1x1 (in-place)
I0403 19:43:38.740564 25687 net.cpp:141] Setting up inception_4d/relu_1x1
I0403 19:43:38.740592 25687 net.cpp:148] Top shape: 24 112 14 14 (526848)
I0403 19:43:38.740612 25687 net.cpp:156] Memory required for data: 1115397408
I0403 19:43:38.740628 25687 layer_factory.hpp:77] Creating layer inception_4d/3x3_reduce
I0403 19:43:38.740666 25687 net.cpp:91] Creating Layer inception_4d/3x3_reduce
I0403 19:43:38.740689 25687 net.cpp:425] inception_4d/3x3_reduce <- inception_4c/output_inception_4c/output_0_split_1
I0403 19:43:38.740710 25687 net.cpp:399] inception_4d/3x3_reduce -> inception_4d/3x3_reduce
I0403 19:43:38.742182 25687 net.cpp:141] Setting up inception_4d/3x3_reduce
I0403 19:43:38.742211 25687 net.cpp:148] Top shape: 24 144 14 14 (677376)
I0403 19:43:38.742230 25687 net.cpp:156] Memory required for data: 1118106912
I0403 19:43:38.742249 25687 layer_factory.hpp:77] Creating layer inception_4d/relu_3x3_reduce
I0403 19:43:38.742267 25687 net.cpp:91] Creating Layer inception_4d/relu_3x3_reduce
I0403 19:43:38.742290 25687 net.cpp:425] inception_4d/relu_3x3_reduce <- inception_4d/3x3_reduce
I0403 19:43:38.742314 25687 net.cpp:386] inception_4d/relu_3x3_reduce -> inception_4d/3x3_reduce (in-place)
I0403 19:43:38.742599 25687 net.cpp:141] Setting up inception_4d/relu_3x3_reduce
I0403 19:43:38.742631 25687 net.cpp:148] Top shape: 24 144 14 14 (677376)
I0403 19:43:38.742650 25687 net.cpp:156] Memory required for data: 1120816416
I0403 19:43:38.742665 25687 layer_factory.hpp:77] Creating layer inception_4d/3x3
I0403 19:43:38.742688 25687 net.cpp:91] Creating Layer inception_4d/3x3
I0403 19:43:38.742708 25687 net.cpp:425] inception_4d/3x3 <- inception_4d/3x3_reduce
I0403 19:43:38.742733 25687 net.cpp:399] inception_4d/3x3 -> inception_4d/3x3
I0403 19:43:38.746933 25687 net.cpp:141] Setting up inception_4d/3x3
I0403 19:43:38.746963 25687 net.cpp:148] Top shape: 24 288 14 14 (1354752)
I0403 19:43:38.746981 25687 net.cpp:156] Memory required for data: 1126235424
I0403 19:43:38.747000 25687 layer_factory.hpp:77] Creating layer inception_4d/relu_3x3
I0403 19:43:38.747023 25687 net.cpp:91] Creating Layer inception_4d/relu_3x3
I0403 19:43:38.747043 25687 net.cpp:425] inception_4d/relu_3x3 <- inception_4d/3x3
I0403 19:43:38.747064 25687 net.cpp:386] inception_4d/relu_3x3 -> inception_4d/3x3 (in-place)
I0403 19:43:38.747248 25687 net.cpp:141] Setting up inception_4d/relu_3x3
I0403 19:43:38.747282 25687 net.cpp:148] Top shape: 24 288 14 14 (1354752)
I0403 19:43:38.747303 25687 net.cpp:156] Memory required for data: 1131654432
I0403 19:43:38.747320 25687 layer_factory.hpp:77] Creating layer inception_4d/5x5_reduce
I0403 19:43:38.747346 25687 net.cpp:91] Creating Layer inception_4d/5x5_reduce
I0403 19:43:38.747366 25687 net.cpp:425] inception_4d/5x5_reduce <- inception_4c/output_inception_4c/output_0_split_2
I0403 19:43:38.747390 25687 net.cpp:399] inception_4d/5x5_reduce -> inception_4d/5x5_reduce
I0403 19:43:38.748510 25687 net.cpp:141] Setting up inception_4d/5x5_reduce
I0403 19:43:38.748544 25687 net.cpp:148] Top shape: 24 32 14 14 (150528)
I0403 19:43:38.748563 25687 net.cpp:156] Memory required for data: 1132256544
I0403 19:43:38.748580 25687 layer_factory.hpp:77] Creating layer inception_4d/relu_5x5_reduce
I0403 19:43:38.748601 25687 net.cpp:91] Creating Layer inception_4d/relu_5x5_reduce
I0403 19:43:38.748622 25687 net.cpp:425] inception_4d/relu_5x5_reduce <- inception_4d/5x5_reduce
I0403 19:43:38.748642 25687 net.cpp:386] inception_4d/relu_5x5_reduce -> inception_4d/5x5_reduce (in-place)
I0403 19:43:38.748828 25687 net.cpp:141] Setting up inception_4d/relu_5x5_reduce
I0403 19:43:38.748860 25687 net.cpp:148] Top shape: 24 32 14 14 (150528)
I0403 19:43:38.748878 25687 net.cpp:156] Memory required for data: 1132858656
I0403 19:43:38.748894 25687 layer_factory.hpp:77] Creating layer inception_4d/5x5
I0403 19:43:38.748919 25687 net.cpp:91] Creating Layer inception_4d/5x5
I0403 19:43:38.748939 25687 net.cpp:425] inception_4d/5x5 <- inception_4d/5x5_reduce
I0403 19:43:38.748960 25687 net.cpp:399] inception_4d/5x5 -> inception_4d/5x5
I0403 19:43:38.750397 25687 net.cpp:141] Setting up inception_4d/5x5
I0403 19:43:38.750430 25687 net.cpp:148] Top shape: 24 64 14 14 (301056)
I0403 19:43:38.750449 25687 net.cpp:156] Memory required for data: 1134062880
I0403 19:43:38.750471 25687 layer_factory.hpp:77] Creating layer inception_4d/relu_5x5
I0403 19:43:38.750509 25687 net.cpp:91] Creating Layer inception_4d/relu_5x5
I0403 19:43:38.750529 25687 net.cpp:425] inception_4d/relu_5x5 <- inception_4d/5x5
I0403 19:43:38.750547 25687 net.cpp:386] inception_4d/relu_5x5 -> inception_4d/5x5 (in-place)
I0403 19:43:38.750838 25687 net.cpp:141] Setting up inception_4d/relu_5x5
I0403 19:43:38.750870 25687 net.cpp:148] Top shape: 24 64 14 14 (301056)
I0403 19:43:38.750888 25687 net.cpp:156] Memory required for data: 1135267104
I0403 19:43:38.750905 25687 layer_factory.hpp:77] Creating layer inception_4d/pool
I0403 19:43:38.750924 25687 net.cpp:91] Creating Layer inception_4d/pool
I0403 19:43:38.750941 25687 net.cpp:425] inception_4d/pool <- inception_4c/output_inception_4c/output_0_split_3
I0403 19:43:38.750962 25687 net.cpp:399] inception_4d/pool -> inception_4d/pool
I0403 19:43:38.751032 25687 net.cpp:141] Setting up inception_4d/pool
I0403 19:43:38.751060 25687 net.cpp:148] Top shape: 24 512 14 14 (2408448)
I0403 19:43:38.751078 25687 net.cpp:156] Memory required for data: 1144900896
I0403 19:43:38.751094 25687 layer_factory.hpp:77] Creating layer inception_4d/pool_proj
I0403 19:43:38.751119 25687 net.cpp:91] Creating Layer inception_4d/pool_proj
I0403 19:43:38.751142 25687 net.cpp:425] inception_4d/pool_proj <- inception_4d/pool
I0403 19:43:38.751163 25687 net.cpp:399] inception_4d/pool_proj -> inception_4d/pool_proj
I0403 19:43:38.752903 25687 net.cpp:141] Setting up inception_4d/pool_proj
I0403 19:43:38.752935 25687 net.cpp:148] Top shape: 24 64 14 14 (301056)
I0403 19:43:38.752954 25687 net.cpp:156] Memory required for data: 1146105120
I0403 19:43:38.752972 25687 layer_factory.hpp:77] Creating layer inception_4d/relu_pool_proj
I0403 19:43:38.752995 25687 net.cpp:91] Creating Layer inception_4d/relu_pool_proj
I0403 19:43:38.753015 25687 net.cpp:425] inception_4d/relu_pool_proj <- inception_4d/pool_proj
I0403 19:43:38.753032 25687 net.cpp:386] inception_4d/relu_pool_proj -> inception_4d/pool_proj (in-place)
I0403 19:43:38.753216 25687 net.cpp:141] Setting up inception_4d/relu_pool_proj
I0403 19:43:38.753247 25687 net.cpp:148] Top shape: 24 64 14 14 (301056)
I0403 19:43:38.753265 25687 net.cpp:156] Memory required for data: 1147309344
I0403 19:43:38.753280 25687 layer_factory.hpp:77] Creating layer inception_4d/output
I0403 19:43:38.753305 25687 net.cpp:91] Creating Layer inception_4d/output
I0403 19:43:38.753324 25687 net.cpp:425] inception_4d/output <- inception_4d/1x1
I0403 19:43:38.753342 25687 net.cpp:425] inception_4d/output <- inception_4d/3x3
I0403 19:43:38.753360 25687 net.cpp:425] inception_4d/output <- inception_4d/5x5
I0403 19:43:38.753381 25687 net.cpp:425] inception_4d/output <- inception_4d/pool_proj
I0403 19:43:38.753398 25687 net.cpp:399] inception_4d/output -> inception_4d/output
I0403 19:43:38.753458 25687 net.cpp:141] Setting up inception_4d/output
I0403 19:43:38.753499 25687 net.cpp:148] Top shape: 24 528 14 14 (2483712)
I0403 19:43:38.753515 25687 net.cpp:156] Memory required for data: 1157244192
I0403 19:43:38.753531 25687 layer_factory.hpp:77] Creating layer inception_4d/output_inception_4d/output_0_split
I0403 19:43:38.753553 25687 net.cpp:91] Creating Layer inception_4d/output_inception_4d/output_0_split
I0403 19:43:38.753569 25687 net.cpp:425] inception_4d/output_inception_4d/output_0_split <- inception_4d/output
I0403 19:43:38.753588 25687 net.cpp:399] inception_4d/output_inception_4d/output_0_split -> inception_4d/output_inception_4d/output_0_split_0
I0403 19:43:38.753609 25687 net.cpp:399] inception_4d/output_inception_4d/output_0_split -> inception_4d/output_inception_4d/output_0_split_1
I0403 19:43:38.753631 25687 net.cpp:399] inception_4d/output_inception_4d/output_0_split -> inception_4d/output_inception_4d/output_0_split_2
I0403 19:43:38.753659 25687 net.cpp:399] inception_4d/output_inception_4d/output_0_split -> inception_4d/output_inception_4d/output_0_split_3
I0403 19:43:38.753684 25687 net.cpp:399] inception_4d/output_inception_4d/output_0_split -> inception_4d/output_inception_4d/output_0_split_4
I0403 19:43:38.753798 25687 net.cpp:141] Setting up inception_4d/output_inception_4d/output_0_split
I0403 19:43:38.753835 25687 net.cpp:148] Top shape: 24 528 14 14 (2483712)
I0403 19:43:38.753855 25687 net.cpp:148] Top shape: 24 528 14 14 (2483712)
I0403 19:43:38.753871 25687 net.cpp:148] Top shape: 24 528 14 14 (2483712)
I0403 19:43:38.753887 25687 net.cpp:148] Top shape: 24 528 14 14 (2483712)
I0403 19:43:38.753903 25687 net.cpp:148] Top shape: 24 528 14 14 (2483712)
I0403 19:43:38.753917 25687 net.cpp:156] Memory required for data: 1206918432
I0403 19:43:38.753933 25687 layer_factory.hpp:77] Creating layer loss2/ave_pool
I0403 19:43:38.753954 25687 net.cpp:91] Creating Layer loss2/ave_pool
I0403 19:43:38.753973 25687 net.cpp:425] loss2/ave_pool <- inception_4d/output_inception_4d/output_0_split_0
I0403 19:43:38.753993 25687 net.cpp:399] loss2/ave_pool -> loss2/ave_pool
I0403 19:43:38.754305 25687 net.cpp:141] Setting up loss2/ave_pool
I0403 19:43:38.754334 25687 net.cpp:148] Top shape: 24 528 4 4 (202752)
I0403 19:43:38.754351 25687 net.cpp:156] Memory required for data: 1207729440
I0403 19:43:38.754367 25687 layer_factory.hpp:77] Creating layer loss2/conv
I0403 19:43:38.754391 25687 net.cpp:91] Creating Layer loss2/conv
I0403 19:43:38.754410 25687 net.cpp:425] loss2/conv <- loss2/ave_pool
I0403 19:43:38.754433 25687 net.cpp:399] loss2/conv -> loss2/conv
I0403 19:43:38.756247 25687 net.cpp:141] Setting up loss2/conv
I0403 19:43:38.756278 25687 net.cpp:148] Top shape: 24 128 4 4 (49152)
I0403 19:43:38.756302 25687 net.cpp:156] Memory required for data: 1207926048
I0403 19:43:38.756322 25687 layer_factory.hpp:77] Creating layer loss2/relu_conv
I0403 19:43:38.756343 25687 net.cpp:91] Creating Layer loss2/relu_conv
I0403 19:43:38.756361 25687 net.cpp:425] loss2/relu_conv <- loss2/conv
I0403 19:43:38.756381 25687 net.cpp:386] loss2/relu_conv -> loss2/conv (in-place)
I0403 19:43:38.756654 25687 net.cpp:141] Setting up loss2/relu_conv
I0403 19:43:38.756682 25687 net.cpp:148] Top shape: 24 128 4 4 (49152)
I0403 19:43:38.756700 25687 net.cpp:156] Memory required for data: 1208122656
I0403 19:43:38.756716 25687 layer_factory.hpp:77] Creating layer loss2/fc
I0403 19:43:38.756736 25687 net.cpp:91] Creating Layer loss2/fc
I0403 19:43:38.756757 25687 net.cpp:425] loss2/fc <- loss2/conv
I0403 19:43:38.756780 25687 net.cpp:399] loss2/fc -> loss2/fc
I0403 19:43:38.773747 25687 net.cpp:141] Setting up loss2/fc
I0403 19:43:38.773787 25687 net.cpp:148] Top shape: 24 1024 (24576)
I0403 19:43:38.773805 25687 net.cpp:156] Memory required for data: 1208220960
I0403 19:43:38.773825 25687 layer_factory.hpp:77] Creating layer loss2/relu_fc
I0403 19:43:38.773846 25687 net.cpp:91] Creating Layer loss2/relu_fc
I0403 19:43:38.773864 25687 net.cpp:425] loss2/relu_fc <- loss2/fc
I0403 19:43:38.773880 25687 net.cpp:386] loss2/relu_fc -> loss2/fc (in-place)
I0403 19:43:38.774163 25687 net.cpp:141] Setting up loss2/relu_fc
I0403 19:43:38.774193 25687 net.cpp:148] Top shape: 24 1024 (24576)
I0403 19:43:38.774210 25687 net.cpp:156] Memory required for data: 1208319264
I0403 19:43:38.774227 25687 layer_factory.hpp:77] Creating layer loss2/drop_fc
I0403 19:43:38.774248 25687 net.cpp:91] Creating Layer loss2/drop_fc
I0403 19:43:38.774266 25687 net.cpp:425] loss2/drop_fc <- loss2/fc
I0403 19:43:38.774283 25687 net.cpp:386] loss2/drop_fc -> loss2/fc (in-place)
I0403 19:43:38.774348 25687 net.cpp:141] Setting up loss2/drop_fc
I0403 19:43:38.774374 25687 net.cpp:148] Top shape: 24 1024 (24576)
I0403 19:43:38.774391 25687 net.cpp:156] Memory required for data: 1208417568
I0403 19:43:38.774407 25687 layer_factory.hpp:77] Creating layer loss2/classifier_plantvillage
I0403 19:43:38.774430 25687 net.cpp:91] Creating Layer loss2/classifier_plantvillage
I0403 19:43:38.774447 25687 net.cpp:425] loss2/classifier_plantvillage <- loss2/fc
I0403 19:43:38.774464 25687 net.cpp:399] loss2/classifier_plantvillage -> loss2/classifier_plantvillage
I0403 19:43:38.774849 25687 net.cpp:141] Setting up loss2/classifier_plantvillage
I0403 19:43:38.774878 25687 net.cpp:148] Top shape: 24 38 (912)
I0403 19:43:38.774911 25687 net.cpp:156] Memory required for data: 1208421216
I0403 19:43:38.774931 25687 layer_factory.hpp:77] Creating layer loss2/classifier_plantvillage_loss2/classifier_plantvillage_0_split
I0403 19:43:38.774950 25687 net.cpp:91] Creating Layer loss2/classifier_plantvillage_loss2/classifier_plantvillage_0_split
I0403 19:43:38.774967 25687 net.cpp:425] loss2/classifier_plantvillage_loss2/classifier_plantvillage_0_split <- loss2/classifier_plantvillage
I0403 19:43:38.774989 25687 net.cpp:399] loss2/classifier_plantvillage_loss2/classifier_plantvillage_0_split -> loss2/classifier_plantvillage_loss2/classifier_plantvillage_0_split_0
I0403 19:43:38.775012 25687 net.cpp:399] loss2/classifier_plantvillage_loss2/classifier_plantvillage_0_split -> loss2/classifier_plantvillage_loss2/classifier_plantvillage_0_split_1
I0403 19:43:38.775035 25687 net.cpp:399] loss2/classifier_plantvillage_loss2/classifier_plantvillage_0_split -> loss2/classifier_plantvillage_loss2/classifier_plantvillage_0_split_2
I0403 19:43:38.775111 25687 net.cpp:141] Setting up loss2/classifier_plantvillage_loss2/classifier_plantvillage_0_split
I0403 19:43:38.775141 25687 net.cpp:148] Top shape: 24 38 (912)
I0403 19:43:38.775159 25687 net.cpp:148] Top shape: 24 38 (912)
I0403 19:43:38.775176 25687 net.cpp:148] Top shape: 24 38 (912)
I0403 19:43:38.775190 25687 net.cpp:156] Memory required for data: 1208432160
I0403 19:43:38.775207 25687 layer_factory.hpp:77] Creating layer inception_4e/1x1
I0403 19:43:38.775230 25687 net.cpp:91] Creating Layer inception_4e/1x1
I0403 19:43:38.775250 25687 net.cpp:425] inception_4e/1x1 <- inception_4d/output_inception_4d/output_0_split_1
I0403 19:43:38.775269 25687 net.cpp:399] inception_4e/1x1 -> inception_4e/1x1
I0403 19:43:38.777007 25687 net.cpp:141] Setting up inception_4e/1x1
I0403 19:43:38.777039 25687 net.cpp:148] Top shape: 24 256 14 14 (1204224)
I0403 19:43:38.777057 25687 net.cpp:156] Memory required for data: 1213249056
I0403 19:43:38.777077 25687 layer_factory.hpp:77] Creating layer inception_4e/relu_1x1
I0403 19:43:38.777096 25687 net.cpp:91] Creating Layer inception_4e/relu_1x1
I0403 19:43:38.777113 25687 net.cpp:425] inception_4e/relu_1x1 <- inception_4e/1x1
I0403 19:43:38.777134 25687 net.cpp:386] inception_4e/relu_1x1 -> inception_4e/1x1 (in-place)
I0403 19:43:38.777447 25687 net.cpp:141] Setting up inception_4e/relu_1x1
I0403 19:43:38.777477 25687 net.cpp:148] Top shape: 24 256 14 14 (1204224)
I0403 19:43:38.777497 25687 net.cpp:156] Memory required for data: 1218065952
I0403 19:43:38.777513 25687 layer_factory.hpp:77] Creating layer inception_4e/3x3_reduce
I0403 19:43:38.777535 25687 net.cpp:91] Creating Layer inception_4e/3x3_reduce
I0403 19:43:38.777554 25687 net.cpp:425] inception_4e/3x3_reduce <- inception_4d/output_inception_4d/output_0_split_2
I0403 19:43:38.777575 25687 net.cpp:399] inception_4e/3x3_reduce -> inception_4e/3x3_reduce
I0403 19:43:38.779656 25687 net.cpp:141] Setting up inception_4e/3x3_reduce
I0403 19:43:38.779691 25687 net.cpp:148] Top shape: 24 160 14 14 (752640)
I0403 19:43:38.779713 25687 net.cpp:156] Memory required for data: 1221076512
I0403 19:43:38.779731 25687 layer_factory.hpp:77] Creating layer inception_4e/relu_3x3_reduce
I0403 19:43:38.779749 25687 net.cpp:91] Creating Layer inception_4e/relu_3x3_reduce
I0403 19:43:38.779767 25687 net.cpp:425] inception_4e/relu_3x3_reduce <- inception_4e/3x3_reduce
I0403 19:43:38.779785 25687 net.cpp:386] inception_4e/relu_3x3_reduce -> inception_4e/3x3_reduce (in-place)
I0403 19:43:38.779968 25687 net.cpp:141] Setting up inception_4e/relu_3x3_reduce
I0403 19:43:38.779996 25687 net.cpp:148] Top shape: 24 160 14 14 (752640)
I0403 19:43:38.780014 25687 net.cpp:156] Memory required for data: 1224087072
I0403 19:43:38.780027 25687 layer_factory.hpp:77] Creating layer inception_4e/3x3
I0403 19:43:38.780048 25687 net.cpp:91] Creating Layer inception_4e/3x3
I0403 19:43:38.780067 25687 net.cpp:425] inception_4e/3x3 <- inception_4e/3x3_reduce
I0403 19:43:38.780089 25687 net.cpp:399] inception_4e/3x3 -> inception_4e/3x3
I0403 19:43:38.784920 25687 net.cpp:141] Setting up inception_4e/3x3
I0403 19:43:38.784962 25687 net.cpp:148] Top shape: 24 320 14 14 (1505280)
I0403 19:43:38.784982 25687 net.cpp:156] Memory required for data: 1230108192
I0403 19:43:38.785001 25687 layer_factory.hpp:77] Creating layer inception_4e/relu_3x3
I0403 19:43:38.785023 25687 net.cpp:91] Creating Layer inception_4e/relu_3x3
I0403 19:43:38.785044 25687 net.cpp:425] inception_4e/relu_3x3 <- inception_4e/3x3
I0403 19:43:38.785063 25687 net.cpp:386] inception_4e/relu_3x3 -> inception_4e/3x3 (in-place)
I0403 19:43:38.785356 25687 net.cpp:141] Setting up inception_4e/relu_3x3
I0403 19:43:38.785383 25687 net.cpp:148] Top shape: 24 320 14 14 (1505280)
I0403 19:43:38.785403 25687 net.cpp:156] Memory required for data: 1236129312
I0403 19:43:38.785416 25687 layer_factory.hpp:77] Creating layer inception_4e/5x5_reduce
I0403 19:43:38.785439 25687 net.cpp:91] Creating Layer inception_4e/5x5_reduce
I0403 19:43:38.785460 25687 net.cpp:425] inception_4e/5x5_reduce <- inception_4d/output_inception_4d/output_0_split_3
I0403 19:43:38.785485 25687 net.cpp:399] inception_4e/5x5_reduce -> inception_4e/5x5_reduce
I0403 19:43:38.786506 25687 net.cpp:141] Setting up inception_4e/5x5_reduce
I0403 19:43:38.786538 25687 net.cpp:148] Top shape: 24 32 14 14 (150528)
I0403 19:43:38.786557 25687 net.cpp:156] Memory required for data: 1236731424
I0403 19:43:38.786576 25687 layer_factory.hpp:77] Creating layer inception_4e/relu_5x5_reduce
I0403 19:43:38.786597 25687 net.cpp:91] Creating Layer inception_4e/relu_5x5_reduce
I0403 19:43:38.786614 25687 net.cpp:425] inception_4e/relu_5x5_reduce <- inception_4e/5x5_reduce
I0403 19:43:38.786635 25687 net.cpp:386] inception_4e/relu_5x5_reduce -> inception_4e/5x5_reduce (in-place)
I0403 19:43:38.786922 25687 net.cpp:141] Setting up inception_4e/relu_5x5_reduce
I0403 19:43:38.786955 25687 net.cpp:148] Top shape: 24 32 14 14 (150528)
I0403 19:43:38.786974 25687 net.cpp:156] Memory required for data: 1237333536
I0403 19:43:38.786990 25687 layer_factory.hpp:77] Creating layer inception_4e/5x5
I0403 19:43:38.787031 25687 net.cpp:91] Creating Layer inception_4e/5x5
I0403 19:43:38.787053 25687 net.cpp:425] inception_4e/5x5 <- inception_4e/5x5_reduce
I0403 19:43:38.787073 25687 net.cpp:399] inception_4e/5x5 -> inception_4e/5x5
I0403 19:43:38.788810 25687 net.cpp:141] Setting up inception_4e/5x5
I0403 19:43:38.788841 25687 net.cpp:148] Top shape: 24 128 14 14 (602112)
I0403 19:43:38.788858 25687 net.cpp:156] Memory required for data: 1239741984
I0403 19:43:38.788877 25687 layer_factory.hpp:77] Creating layer inception_4e/relu_5x5
I0403 19:43:38.788900 25687 net.cpp:91] Creating Layer inception_4e/relu_5x5
I0403 19:43:38.788920 25687 net.cpp:425] inception_4e/relu_5x5 <- inception_4e/5x5
I0403 19:43:38.788938 25687 net.cpp:386] inception_4e/relu_5x5 -> inception_4e/5x5 (in-place)
I0403 19:43:38.789127 25687 net.cpp:141] Setting up inception_4e/relu_5x5
I0403 19:43:38.789156 25687 net.cpp:148] Top shape: 24 128 14 14 (602112)
I0403 19:43:38.789173 25687 net.cpp:156] Memory required for data: 1242150432
I0403 19:43:38.789189 25687 layer_factory.hpp:77] Creating layer inception_4e/pool
I0403 19:43:38.789208 25687 net.cpp:91] Creating Layer inception_4e/pool
I0403 19:43:38.789227 25687 net.cpp:425] inception_4e/pool <- inception_4d/output_inception_4d/output_0_split_4
I0403 19:43:38.789247 25687 net.cpp:399] inception_4e/pool -> inception_4e/pool
I0403 19:43:38.789324 25687 net.cpp:141] Setting up inception_4e/pool
I0403 19:43:38.789351 25687 net.cpp:148] Top shape: 24 528 14 14 (2483712)
I0403 19:43:38.789371 25687 net.cpp:156] Memory required for data: 1252085280
I0403 19:43:38.789386 25687 layer_factory.hpp:77] Creating layer inception_4e/pool_proj
I0403 19:43:38.789409 25687 net.cpp:91] Creating Layer inception_4e/pool_proj
I0403 19:43:38.789430 25687 net.cpp:425] inception_4e/pool_proj <- inception_4e/pool
I0403 19:43:38.789450 25687 net.cpp:399] inception_4e/pool_proj -> inception_4e/pool_proj
I0403 19:43:38.790904 25687 net.cpp:141] Setting up inception_4e/pool_proj
I0403 19:43:38.790946 25687 net.cpp:148] Top shape: 24 128 14 14 (602112)
I0403 19:43:38.790963 25687 net.cpp:156] Memory required for data: 1254493728
I0403 19:43:38.790984 25687 layer_factory.hpp:77] Creating layer inception_4e/relu_pool_proj
I0403 19:43:38.791007 25687 net.cpp:91] Creating Layer inception_4e/relu_pool_proj
I0403 19:43:38.791028 25687 net.cpp:425] inception_4e/relu_pool_proj <- inception_4e/pool_proj
I0403 19:43:38.791046 25687 net.cpp:386] inception_4e/relu_pool_proj -> inception_4e/pool_proj (in-place)
I0403 19:43:38.791354 25687 net.cpp:141] Setting up inception_4e/relu_pool_proj
I0403 19:43:38.791383 25687 net.cpp:148] Top shape: 24 128 14 14 (602112)
I0403 19:43:38.791399 25687 net.cpp:156] Memory required for data: 1256902176
I0403 19:43:38.791414 25687 layer_factory.hpp:77] Creating layer inception_4e/output
I0403 19:43:38.791436 25687 net.cpp:91] Creating Layer inception_4e/output
I0403 19:43:38.791456 25687 net.cpp:425] inception_4e/output <- inception_4e/1x1
I0403 19:43:38.791474 25687 net.cpp:425] inception_4e/output <- inception_4e/3x3
I0403 19:43:38.791492 25687 net.cpp:425] inception_4e/output <- inception_4e/5x5
I0403 19:43:38.791512 25687 net.cpp:425] inception_4e/output <- inception_4e/pool_proj
I0403 19:43:38.791530 25687 net.cpp:399] inception_4e/output -> inception_4e/output
I0403 19:43:38.791584 25687 net.cpp:141] Setting up inception_4e/output
I0403 19:43:38.791611 25687 net.cpp:148] Top shape: 24 832 14 14 (3913728)
I0403 19:43:38.791630 25687 net.cpp:156] Memory required for data: 1272557088
I0403 19:43:38.791646 25687 layer_factory.hpp:77] Creating layer pool4/3x3_s2
I0403 19:43:38.791664 25687 net.cpp:91] Creating Layer pool4/3x3_s2
I0403 19:43:38.791682 25687 net.cpp:425] pool4/3x3_s2 <- inception_4e/output
I0403 19:43:38.791704 25687 net.cpp:399] pool4/3x3_s2 -> pool4/3x3_s2
I0403 19:43:38.791787 25687 net.cpp:141] Setting up pool4/3x3_s2
I0403 19:43:38.791815 25687 net.cpp:148] Top shape: 24 832 7 7 (978432)
I0403 19:43:38.791831 25687 net.cpp:156] Memory required for data: 1276470816
I0403 19:43:38.791847 25687 layer_factory.hpp:77] Creating layer pool4/3x3_s2_pool4/3x3_s2_0_split
I0403 19:43:38.791869 25687 net.cpp:91] Creating Layer pool4/3x3_s2_pool4/3x3_s2_0_split
I0403 19:43:38.791889 25687 net.cpp:425] pool4/3x3_s2_pool4/3x3_s2_0_split <- pool4/3x3_s2
I0403 19:43:38.791910 25687 net.cpp:399] pool4/3x3_s2_pool4/3x3_s2_0_split -> pool4/3x3_s2_pool4/3x3_s2_0_split_0
I0403 19:43:38.791934 25687 net.cpp:399] pool4/3x3_s2_pool4/3x3_s2_0_split -> pool4/3x3_s2_pool4/3x3_s2_0_split_1
I0403 19:43:38.791959 25687 net.cpp:399] pool4/3x3_s2_pool4/3x3_s2_0_split -> pool4/3x3_s2_pool4/3x3_s2_0_split_2
I0403 19:43:38.791981 25687 net.cpp:399] pool4/3x3_s2_pool4/3x3_s2_0_split -> pool4/3x3_s2_pool4/3x3_s2_0_split_3
I0403 19:43:38.792073 25687 net.cpp:141] Setting up pool4/3x3_s2_pool4/3x3_s2_0_split
I0403 19:43:38.792101 25687 net.cpp:148] Top shape: 24 832 7 7 (978432)
I0403 19:43:38.792121 25687 net.cpp:148] Top shape: 24 832 7 7 (978432)
I0403 19:43:38.792140 25687 net.cpp:148] Top shape: 24 832 7 7 (978432)
I0403 19:43:38.792155 25687 net.cpp:148] Top shape: 24 832 7 7 (978432)
I0403 19:43:38.792170 25687 net.cpp:156] Memory required for data: 1292125728
I0403 19:43:38.792184 25687 layer_factory.hpp:77] Creating layer inception_5a/1x1
I0403 19:43:38.792204 25687 net.cpp:91] Creating Layer inception_5a/1x1
I0403 19:43:38.792222 25687 net.cpp:425] inception_5a/1x1 <- pool4/3x3_s2_pool4/3x3_s2_0_split_0
I0403 19:43:38.792245 25687 net.cpp:399] inception_5a/1x1 -> inception_5a/1x1
I0403 19:43:38.795075 25687 net.cpp:141] Setting up inception_5a/1x1
I0403 19:43:38.795112 25687 net.cpp:148] Top shape: 24 256 7 7 (301056)
I0403 19:43:38.795132 25687 net.cpp:156] Memory required for data: 1293329952
I0403 19:43:38.795153 25687 layer_factory.hpp:77] Creating layer inception_5a/relu_1x1
I0403 19:43:38.795173 25687 net.cpp:91] Creating Layer inception_5a/relu_1x1
I0403 19:43:38.795192 25687 net.cpp:425] inception_5a/relu_1x1 <- inception_5a/1x1
I0403 19:43:38.795212 25687 net.cpp:386] inception_5a/relu_1x1 -> inception_5a/1x1 (in-place)
I0403 19:43:38.795534 25687 net.cpp:141] Setting up inception_5a/relu_1x1
I0403 19:43:38.795567 25687 net.cpp:148] Top shape: 24 256 7 7 (301056)
I0403 19:43:38.795585 25687 net.cpp:156] Memory required for data: 1294534176
I0403 19:43:38.795600 25687 layer_factory.hpp:77] Creating layer inception_5a/3x3_reduce
I0403 19:43:38.795625 25687 net.cpp:91] Creating Layer inception_5a/3x3_reduce
I0403 19:43:38.795647 25687 net.cpp:425] inception_5a/3x3_reduce <- pool4/3x3_s2_pool4/3x3_s2_0_split_1
I0403 19:43:38.795670 25687 net.cpp:399] inception_5a/3x3_reduce -> inception_5a/3x3_reduce
I0403 19:43:38.798089 25687 net.cpp:141] Setting up inception_5a/3x3_reduce
I0403 19:43:38.798121 25687 net.cpp:148] Top shape: 24 160 7 7 (188160)
I0403 19:43:38.798141 25687 net.cpp:156] Memory required for data: 1295286816
I0403 19:43:38.798159 25687 layer_factory.hpp:77] Creating layer inception_5a/relu_3x3_reduce
I0403 19:43:38.798182 25687 net.cpp:91] Creating Layer inception_5a/relu_3x3_reduce
I0403 19:43:38.798202 25687 net.cpp:425] inception_5a/relu_3x3_reduce <- inception_5a/3x3_reduce
I0403 19:43:38.798221 25687 net.cpp:386] inception_5a/relu_3x3_reduce -> inception_5a/3x3_reduce (in-place)
I0403 19:43:38.798430 25687 net.cpp:141] Setting up inception_5a/relu_3x3_reduce
I0403 19:43:38.798463 25687 net.cpp:148] Top shape: 24 160 7 7 (188160)
I0403 19:43:38.798481 25687 net.cpp:156] Memory required for data: 1296039456
I0403 19:43:38.798497 25687 layer_factory.hpp:77] Creating layer inception_5a/3x3
I0403 19:43:38.798522 25687 net.cpp:91] Creating Layer inception_5a/3x3
I0403 19:43:38.798544 25687 net.cpp:425] inception_5a/3x3 <- inception_5a/3x3_reduce
I0403 19:43:38.798578 25687 net.cpp:399] inception_5a/3x3 -> inception_5a/3x3
I0403 19:43:38.803577 25687 net.cpp:141] Setting up inception_5a/3x3
I0403 19:43:38.803611 25687 net.cpp:148] Top shape: 24 320 7 7 (376320)
I0403 19:43:38.803629 25687 net.cpp:156] Memory required for data: 1297544736
I0403 19:43:38.803650 25687 layer_factory.hpp:77] Creating layer inception_5a/relu_3x3
I0403 19:43:38.803673 25687 net.cpp:91] Creating Layer inception_5a/relu_3x3
I0403 19:43:38.803695 25687 net.cpp:425] inception_5a/relu_3x3 <- inception_5a/3x3
I0403 19:43:38.803716 25687 net.cpp:386] inception_5a/relu_3x3 -> inception_5a/3x3 (in-place)
I0403 19:43:38.804042 25687 net.cpp:141] Setting up inception_5a/relu_3x3
I0403 19:43:38.804074 25687 net.cpp:148] Top shape: 24 320 7 7 (376320)
I0403 19:43:38.804091 25687 net.cpp:156] Memory required for data: 1299050016
I0403 19:43:38.804106 25687 layer_factory.hpp:77] Creating layer inception_5a/5x5_reduce
I0403 19:43:38.804134 25687 net.cpp:91] Creating Layer inception_5a/5x5_reduce
I0403 19:43:38.804157 25687 net.cpp:425] inception_5a/5x5_reduce <- pool4/3x3_s2_pool4/3x3_s2_0_split_2
I0403 19:43:38.804177 25687 net.cpp:399] inception_5a/5x5_reduce -> inception_5a/5x5_reduce
I0403 19:43:38.805349 25687 net.cpp:141] Setting up inception_5a/5x5_reduce
I0403 19:43:38.805384 25687 net.cpp:148] Top shape: 24 32 7 7 (37632)
I0403 19:43:38.805403 25687 net.cpp:156] Memory required for data: 1299200544
I0403 19:43:38.805423 25687 layer_factory.hpp:77] Creating layer inception_5a/relu_5x5_reduce
I0403 19:43:38.805444 25687 net.cpp:91] Creating Layer inception_5a/relu_5x5_reduce
I0403 19:43:38.805464 25687 net.cpp:425] inception_5a/relu_5x5_reduce <- inception_5a/5x5_reduce
I0403 19:43:38.805485 25687 net.cpp:386] inception_5a/relu_5x5_reduce -> inception_5a/5x5_reduce (in-place)
I0403 19:43:38.805791 25687 net.cpp:141] Setting up inception_5a/relu_5x5_reduce
I0403 19:43:38.805820 25687 net.cpp:148] Top shape: 24 32 7 7 (37632)
I0403 19:43:38.805850 25687 net.cpp:156] Memory required for data: 1299351072
I0403 19:43:38.805867 25687 layer_factory.hpp:77] Creating layer inception_5a/5x5
I0403 19:43:38.805893 25687 net.cpp:91] Creating Layer inception_5a/5x5
I0403 19:43:38.805917 25687 net.cpp:425] inception_5a/5x5 <- inception_5a/5x5_reduce
I0403 19:43:38.805943 25687 net.cpp:399] inception_5a/5x5 -> inception_5a/5x5
I0403 19:43:38.807775 25687 net.cpp:141] Setting up inception_5a/5x5
I0403 19:43:38.807817 25687 net.cpp:148] Top shape: 24 128 7 7 (150528)
I0403 19:43:38.807837 25687 net.cpp:156] Memory required for data: 1299953184
I0403 19:43:38.807857 25687 layer_factory.hpp:77] Creating layer inception_5a/relu_5x5
I0403 19:43:38.807881 25687 net.cpp:91] Creating Layer inception_5a/relu_5x5
I0403 19:43:38.807905 25687 net.cpp:425] inception_5a/relu_5x5 <- inception_5a/5x5
I0403 19:43:38.807924 25687 net.cpp:386] inception_5a/relu_5x5 -> inception_5a/5x5 (in-place)
I0403 19:43:38.808127 25687 net.cpp:141] Setting up inception_5a/relu_5x5
I0403 19:43:38.808156 25687 net.cpp:148] Top shape: 24 128 7 7 (150528)
I0403 19:43:38.808172 25687 net.cpp:156] Memory required for data: 1300555296
I0403 19:43:38.808188 25687 layer_factory.hpp:77] Creating layer inception_5a/pool
I0403 19:43:38.808208 25687 net.cpp:91] Creating Layer inception_5a/pool
I0403 19:43:38.808225 25687 net.cpp:425] inception_5a/pool <- pool4/3x3_s2_pool4/3x3_s2_0_split_3
I0403 19:43:38.808246 25687 net.cpp:399] inception_5a/pool -> inception_5a/pool
I0403 19:43:38.808322 25687 net.cpp:141] Setting up inception_5a/pool
I0403 19:43:38.808351 25687 net.cpp:148] Top shape: 24 832 7 7 (978432)
I0403 19:43:38.808368 25687 net.cpp:156] Memory required for data: 1304469024
I0403 19:43:38.808383 25687 layer_factory.hpp:77] Creating layer inception_5a/pool_proj
I0403 19:43:38.808408 25687 net.cpp:91] Creating Layer inception_5a/pool_proj
I0403 19:43:38.808428 25687 net.cpp:425] inception_5a/pool_proj <- inception_5a/pool
I0403 19:43:38.808449 25687 net.cpp:399] inception_5a/pool_proj -> inception_5a/pool_proj
I0403 19:43:38.810662 25687 net.cpp:141] Setting up inception_5a/pool_proj
I0403 19:43:38.810695 25687 net.cpp:148] Top shape: 24 128 7 7 (150528)
I0403 19:43:38.810714 25687 net.cpp:156] Memory required for data: 1305071136
I0403 19:43:38.810734 25687 layer_factory.hpp:77] Creating layer inception_5a/relu_pool_proj
I0403 19:43:38.810755 25687 net.cpp:91] Creating Layer inception_5a/relu_pool_proj
I0403 19:43:38.810773 25687 net.cpp:425] inception_5a/relu_pool_proj <- inception_5a/pool_proj
I0403 19:43:38.810793 25687 net.cpp:386] inception_5a/relu_pool_proj -> inception_5a/pool_proj (in-place)
I0403 19:43:38.811079 25687 net.cpp:141] Setting up inception_5a/relu_pool_proj
I0403 19:43:38.811110 25687 net.cpp:148] Top shape: 24 128 7 7 (150528)
I0403 19:43:38.811127 25687 net.cpp:156] Memory required for data: 1305673248
I0403 19:43:38.811146 25687 layer_factory.hpp:77] Creating layer inception_5a/output
I0403 19:43:38.811166 25687 net.cpp:91] Creating Layer inception_5a/output
I0403 19:43:38.811184 25687 net.cpp:425] inception_5a/output <- inception_5a/1x1
I0403 19:43:38.811203 25687 net.cpp:425] inception_5a/output <- inception_5a/3x3
I0403 19:43:38.811221 25687 net.cpp:425] inception_5a/output <- inception_5a/5x5
I0403 19:43:38.811239 25687 net.cpp:425] inception_5a/output <- inception_5a/pool_proj
I0403 19:43:38.811259 25687 net.cpp:399] inception_5a/output -> inception_5a/output
I0403 19:43:38.811316 25687 net.cpp:141] Setting up inception_5a/output
I0403 19:43:38.811343 25687 net.cpp:148] Top shape: 24 832 7 7 (978432)
I0403 19:43:38.811359 25687 net.cpp:156] Memory required for data: 1309586976
I0403 19:43:38.811374 25687 layer_factory.hpp:77] Creating layer inception_5a/output_inception_5a/output_0_split
I0403 19:43:38.811394 25687 net.cpp:91] Creating Layer inception_5a/output_inception_5a/output_0_split
I0403 19:43:38.811414 25687 net.cpp:425] inception_5a/output_inception_5a/output_0_split <- inception_5a/output
I0403 19:43:38.811435 25687 net.cpp:399] inception_5a/output_inception_5a/output_0_split -> inception_5a/output_inception_5a/output_0_split_0
I0403 19:43:38.811460 25687 net.cpp:399] inception_5a/output_inception_5a/output_0_split -> inception_5a/output_inception_5a/output_0_split_1
I0403 19:43:38.811482 25687 net.cpp:399] inception_5a/output_inception_5a/output_0_split -> inception_5a/output_inception_5a/output_0_split_2
I0403 19:43:38.811504 25687 net.cpp:399] inception_5a/output_inception_5a/output_0_split -> inception_5a/output_inception_5a/output_0_split_3
I0403 19:43:38.811616 25687 net.cpp:141] Setting up inception_5a/output_inception_5a/output_0_split
I0403 19:43:38.811645 25687 net.cpp:148] Top shape: 24 832 7 7 (978432)
I0403 19:43:38.811662 25687 net.cpp:148] Top shape: 24 832 7 7 (978432)
I0403 19:43:38.811678 25687 net.cpp:148] Top shape: 24 832 7 7 (978432)
I0403 19:43:38.811696 25687 net.cpp:148] Top shape: 24 832 7 7 (978432)
I0403 19:43:38.811710 25687 net.cpp:156] Memory required for data: 1325241888
I0403 19:43:38.811725 25687 layer_factory.hpp:77] Creating layer inception_5b/1x1
I0403 19:43:38.811750 25687 net.cpp:91] Creating Layer inception_5b/1x1
I0403 19:43:38.811772 25687 net.cpp:425] inception_5b/1x1 <- inception_5a/output_inception_5a/output_0_split_0
I0403 19:43:38.811794 25687 net.cpp:399] inception_5b/1x1 -> inception_5b/1x1
I0403 19:43:38.815399 25687 net.cpp:141] Setting up inception_5b/1x1
I0403 19:43:38.815433 25687 net.cpp:148] Top shape: 24 384 7 7 (451584)
I0403 19:43:38.815451 25687 net.cpp:156] Memory required for data: 1327048224
I0403 19:43:38.815474 25687 layer_factory.hpp:77] Creating layer inception_5b/relu_1x1
I0403 19:43:38.815500 25687 net.cpp:91] Creating Layer inception_5b/relu_1x1
I0403 19:43:38.815521 25687 net.cpp:425] inception_5b/relu_1x1 <- inception_5b/1x1
I0403 19:43:38.815539 25687 net.cpp:386] inception_5b/relu_1x1 -> inception_5b/1x1 (in-place)
I0403 19:43:38.815831 25687 net.cpp:141] Setting up inception_5b/relu_1x1
I0403 19:43:38.815861 25687 net.cpp:148] Top shape: 24 384 7 7 (451584)
I0403 19:43:38.815878 25687 net.cpp:156] Memory required for data: 1328854560
I0403 19:43:38.815896 25687 layer_factory.hpp:77] Creating layer inception_5b/3x3_reduce
I0403 19:43:38.815919 25687 net.cpp:91] Creating Layer inception_5b/3x3_reduce
I0403 19:43:38.815939 25687 net.cpp:425] inception_5b/3x3_reduce <- inception_5a/output_inception_5a/output_0_split_1
I0403 19:43:38.815963 25687 net.cpp:399] inception_5b/3x3_reduce -> inception_5b/3x3_reduce
I0403 19:43:38.818519 25687 net.cpp:141] Setting up inception_5b/3x3_reduce
I0403 19:43:38.818552 25687 net.cpp:148] Top shape: 24 192 7 7 (225792)
I0403 19:43:38.818573 25687 net.cpp:156] Memory required for data: 1329757728
I0403 19:43:38.818595 25687 layer_factory.hpp:77] Creating layer inception_5b/relu_3x3_reduce
I0403 19:43:38.818620 25687 net.cpp:91] Creating Layer inception_5b/relu_3x3_reduce
I0403 19:43:38.818641 25687 net.cpp:425] inception_5b/relu_3x3_reduce <- inception_5b/3x3_reduce
I0403 19:43:38.818660 25687 net.cpp:386] inception_5b/relu_3x3_reduce -> inception_5b/3x3_reduce (in-place)
I0403 19:43:38.818848 25687 net.cpp:141] Setting up inception_5b/relu_3x3_reduce
I0403 19:43:38.818881 25687 net.cpp:148] Top shape: 24 192 7 7 (225792)
I0403 19:43:38.818900 25687 net.cpp:156] Memory required for data: 1330660896
I0403 19:43:38.818917 25687 layer_factory.hpp:77] Creating layer inception_5b/3x3
I0403 19:43:38.818938 25687 net.cpp:91] Creating Layer inception_5b/3x3
I0403 19:43:38.818960 25687 net.cpp:425] inception_5b/3x3 <- inception_5b/3x3_reduce
I0403 19:43:38.818982 25687 net.cpp:399] inception_5b/3x3 -> inception_5b/3x3
I0403 19:43:38.825443 25687 net.cpp:141] Setting up inception_5b/3x3
I0403 19:43:38.825475 25687 net.cpp:148] Top shape: 24 384 7 7 (451584)
I0403 19:43:38.825494 25687 net.cpp:156] Memory required for data: 1332467232
I0403 19:43:38.825512 25687 layer_factory.hpp:77] Creating layer inception_5b/relu_3x3
I0403 19:43:38.825536 25687 net.cpp:91] Creating Layer inception_5b/relu_3x3
I0403 19:43:38.825556 25687 net.cpp:425] inception_5b/relu_3x3 <- inception_5b/3x3
I0403 19:43:38.825577 25687 net.cpp:386] inception_5b/relu_3x3 -> inception_5b/3x3 (in-place)
I0403 19:43:38.825862 25687 net.cpp:141] Setting up inception_5b/relu_3x3
I0403 19:43:38.825888 25687 net.cpp:148] Top shape: 24 384 7 7 (451584)
I0403 19:43:38.825906 25687 net.cpp:156] Memory required for data: 1334273568
I0403 19:43:38.825920 25687 layer_factory.hpp:77] Creating layer inception_5b/5x5_reduce
I0403 19:43:38.825960 25687 net.cpp:91] Creating Layer inception_5b/5x5_reduce
I0403 19:43:38.825983 25687 net.cpp:425] inception_5b/5x5_reduce <- inception_5a/output_inception_5a/output_0_split_2
I0403 19:43:38.826009 25687 net.cpp:399] inception_5b/5x5_reduce -> inception_5b/5x5_reduce
I0403 19:43:38.827225 25687 net.cpp:141] Setting up inception_5b/5x5_reduce
I0403 19:43:38.827260 25687 net.cpp:148] Top shape: 24 48 7 7 (56448)
I0403 19:43:38.827277 25687 net.cpp:156] Memory required for data: 1334499360
I0403 19:43:38.827304 25687 layer_factory.hpp:77] Creating layer inception_5b/relu_5x5_reduce
I0403 19:43:38.827329 25687 net.cpp:91] Creating Layer inception_5b/relu_5x5_reduce
I0403 19:43:38.827349 25687 net.cpp:425] inception_5b/relu_5x5_reduce <- inception_5b/5x5_reduce
I0403 19:43:38.827368 25687 net.cpp:386] inception_5b/relu_5x5_reduce -> inception_5b/5x5_reduce (in-place)
I0403 19:43:38.827728 25687 net.cpp:141] Setting up inception_5b/relu_5x5_reduce
I0403 19:43:38.827760 25687 net.cpp:148] Top shape: 24 48 7 7 (56448)
I0403 19:43:38.827776 25687 net.cpp:156] Memory required for data: 1334725152
I0403 19:43:38.827793 25687 layer_factory.hpp:77] Creating layer inception_5b/5x5
I0403 19:43:38.827816 25687 net.cpp:91] Creating Layer inception_5b/5x5
I0403 19:43:38.827836 25687 net.cpp:425] inception_5b/5x5 <- inception_5b/5x5_reduce
I0403 19:43:38.827855 25687 net.cpp:399] inception_5b/5x5 -> inception_5b/5x5
I0403 19:43:38.829805 25687 net.cpp:141] Setting up inception_5b/5x5
I0403 19:43:38.829838 25687 net.cpp:148] Top shape: 24 128 7 7 (150528)
I0403 19:43:38.829857 25687 net.cpp:156] Memory required for data: 1335327264
I0403 19:43:38.829877 25687 layer_factory.hpp:77] Creating layer inception_5b/relu_5x5
I0403 19:43:38.829897 25687 net.cpp:91] Creating Layer inception_5b/relu_5x5
I0403 19:43:38.829916 25687 net.cpp:425] inception_5b/relu_5x5 <- inception_5b/5x5
I0403 19:43:38.829933 25687 net.cpp:386] inception_5b/relu_5x5 -> inception_5b/5x5 (in-place)
I0403 19:43:38.830124 25687 net.cpp:141] Setting up inception_5b/relu_5x5
I0403 19:43:38.830152 25687 net.cpp:148] Top shape: 24 128 7 7 (150528)
I0403 19:43:38.830170 25687 net.cpp:156] Memory required for data: 1335929376
I0403 19:43:38.830188 25687 layer_factory.hpp:77] Creating layer inception_5b/pool
I0403 19:43:38.830204 25687 net.cpp:91] Creating Layer inception_5b/pool
I0403 19:43:38.830219 25687 net.cpp:425] inception_5b/pool <- inception_5a/output_inception_5a/output_0_split_3
I0403 19:43:38.830241 25687 net.cpp:399] inception_5b/pool -> inception_5b/pool
I0403 19:43:38.830319 25687 net.cpp:141] Setting up inception_5b/pool
I0403 19:43:38.830349 25687 net.cpp:148] Top shape: 24 832 7 7 (978432)
I0403 19:43:38.830368 25687 net.cpp:156] Memory required for data: 1339843104
I0403 19:43:38.830382 25687 layer_factory.hpp:77] Creating layer inception_5b/pool_proj
I0403 19:43:38.830404 25687 net.cpp:91] Creating Layer inception_5b/pool_proj
I0403 19:43:38.830425 25687 net.cpp:425] inception_5b/pool_proj <- inception_5b/pool
I0403 19:43:38.830443 25687 net.cpp:399] inception_5b/pool_proj -> inception_5b/pool_proj
I0403 19:43:38.832669 25687 net.cpp:141] Setting up inception_5b/pool_proj
I0403 19:43:38.832702 25687 net.cpp:148] Top shape: 24 128 7 7 (150528)
I0403 19:43:38.832721 25687 net.cpp:156] Memory required for data: 1340445216
I0403 19:43:38.832741 25687 layer_factory.hpp:77] Creating layer inception_5b/relu_pool_proj
I0403 19:43:38.832762 25687 net.cpp:91] Creating Layer inception_5b/relu_pool_proj
I0403 19:43:38.832782 25687 net.cpp:425] inception_5b/relu_pool_proj <- inception_5b/pool_proj
I0403 19:43:38.832803 25687 net.cpp:386] inception_5b/relu_pool_proj -> inception_5b/pool_proj (in-place)
I0403 19:43:38.833091 25687 net.cpp:141] Setting up inception_5b/relu_pool_proj
I0403 19:43:38.833120 25687 net.cpp:148] Top shape: 24 128 7 7 (150528)
I0403 19:43:38.833137 25687 net.cpp:156] Memory required for data: 1341047328
I0403 19:43:38.833153 25687 layer_factory.hpp:77] Creating layer inception_5b/output
I0403 19:43:38.833173 25687 net.cpp:91] Creating Layer inception_5b/output
I0403 19:43:38.833205 25687 net.cpp:425] inception_5b/output <- inception_5b/1x1
I0403 19:43:38.833225 25687 net.cpp:425] inception_5b/output <- inception_5b/3x3
I0403 19:43:38.833257 25687 net.cpp:425] inception_5b/output <- inception_5b/5x5
I0403 19:43:38.833276 25687 net.cpp:425] inception_5b/output <- inception_5b/pool_proj
I0403 19:43:38.833313 25687 net.cpp:399] inception_5b/output -> inception_5b/output
I0403 19:43:38.833372 25687 net.cpp:141] Setting up inception_5b/output
I0403 19:43:38.833405 25687 net.cpp:148] Top shape: 24 1024 7 7 (1204224)
I0403 19:43:38.833425 25687 net.cpp:156] Memory required for data: 1345864224
I0403 19:43:38.833442 25687 layer_factory.hpp:77] Creating layer pool5/7x7_s1
I0403 19:43:38.833461 25687 net.cpp:91] Creating Layer pool5/7x7_s1
I0403 19:43:38.833482 25687 net.cpp:425] pool5/7x7_s1 <- inception_5b/output
I0403 19:43:38.833503 25687 net.cpp:399] pool5/7x7_s1 -> pool5/7x7_s1
I0403 19:43:38.833745 25687 net.cpp:141] Setting up pool5/7x7_s1
I0403 19:43:38.833773 25687 net.cpp:148] Top shape: 24 1024 1 1 (24576)
I0403 19:43:38.833793 25687 net.cpp:156] Memory required for data: 1345962528
I0403 19:43:38.833809 25687 layer_factory.hpp:77] Creating layer pool5/drop_7x7_s1
I0403 19:43:38.833828 25687 net.cpp:91] Creating Layer pool5/drop_7x7_s1
I0403 19:43:38.833845 25687 net.cpp:425] pool5/drop_7x7_s1 <- pool5/7x7_s1
I0403 19:43:38.833863 25687 net.cpp:386] pool5/drop_7x7_s1 -> pool5/7x7_s1 (in-place)
I0403 19:43:38.833916 25687 net.cpp:141] Setting up pool5/drop_7x7_s1
I0403 19:43:38.833945 25687 net.cpp:148] Top shape: 24 1024 1 1 (24576)
I0403 19:43:38.833961 25687 net.cpp:156] Memory required for data: 1346060832
I0403 19:43:38.833977 25687 layer_factory.hpp:77] Creating layer loss3/classifier_plantvillage
I0403 19:43:38.834002 25687 net.cpp:91] Creating Layer loss3/classifier_plantvillage
I0403 19:43:38.834020 25687 net.cpp:425] loss3/classifier_plantvillage <- pool5/7x7_s1
I0403 19:43:38.834041 25687 net.cpp:399] loss3/classifier_plantvillage -> loss3/classifier_plantvillage
I0403 19:43:38.834466 25687 net.cpp:141] Setting up loss3/classifier_plantvillage
I0403 19:43:38.834493 25687 net.cpp:148] Top shape: 24 38 (912)
I0403 19:43:38.834511 25687 net.cpp:156] Memory required for data: 1346064480
I0403 19:43:38.834530 25687 layer_factory.hpp:77] Creating layer loss3/classifier_plantvillage_loss3/classifier_plantvillage_0_split
I0403 19:43:38.834549 25687 net.cpp:91] Creating Layer loss3/classifier_plantvillage_loss3/classifier_plantvillage_0_split
I0403 19:43:38.834568 25687 net.cpp:425] loss3/classifier_plantvillage_loss3/classifier_plantvillage_0_split <- loss3/classifier_plantvillage
I0403 19:43:38.834590 25687 net.cpp:399] loss3/classifier_plantvillage_loss3/classifier_plantvillage_0_split -> loss3/classifier_plantvillage_loss3/classifier_plantvillage_0_split_0
I0403 19:43:38.834611 25687 net.cpp:399] loss3/classifier_plantvillage_loss3/classifier_plantvillage_0_split -> loss3/classifier_plantvillage_loss3/classifier_plantvillage_0_split_1
I0403 19:43:38.834635 25687 net.cpp:399] loss3/classifier_plantvillage_loss3/classifier_plantvillage_0_split -> loss3/classifier_plantvillage_loss3/classifier_plantvillage_0_split_2
I0403 19:43:38.834657 25687 net.cpp:399] loss3/classifier_plantvillage_loss3/classifier_plantvillage_0_split -> loss3/classifier_plantvillage_loss3/classifier_plantvillage_0_split_3
I0403 19:43:38.834755 25687 net.cpp:141] Setting up loss3/classifier_plantvillage_loss3/classifier_plantvillage_0_split
I0403 19:43:38.834781 25687 net.cpp:148] Top shape: 24 38 (912)
I0403 19:43:38.834800 25687 net.cpp:148] Top shape: 24 38 (912)
I0403 19:43:38.834817 25687 net.cpp:148] Top shape: 24 38 (912)
I0403 19:43:38.834832 25687 net.cpp:148] Top shape: 24 38 (912)
I0403 19:43:38.834846 25687 net.cpp:156] Memory required for data: 1346079072
I0403 19:43:38.834859 25687 layer_factory.hpp:77] Creating layer loss1/loss
I0403 19:43:38.834883 25687 net.cpp:91] Creating Layer loss1/loss
I0403 19:43:38.834903 25687 net.cpp:425] loss1/loss <- loss1/classifier_plantvillage_loss1/classifier_plantvillage_0_split_0
I0403 19:43:38.834936 25687 net.cpp:425] loss1/loss <- label_data_1_split_0
…
