…
I0403 19:39:19.252753 25434 net.cpp:313] The NetState phase (1) differed from the phase (0) specified by a rule in layer data
I0403 19:39:19.255066 25434 net.cpp:49] Initializing net from parameters: 
state {
  phase: TEST
}
layer {
  name: "data"
  type: "Data"
  top: "data"
  top: "label"
  include {
    phase: TEST
  }
  transform_param {
    mirror: false
    crop_size: 224
    mean_file: "/home/mohanty/data/final_dataset/lmdb/grayscale-80-20/mean.binaryproto"
  }
  data_param {
    source: "/home/mohanty/data/final_dataset/lmdb/grayscale-80-20/test_db"
    batch_size: 24
    backend: LMDB
  }
}
layer {
  name: "conv1/7x7_s2"
  type: "Convolution"
  bottom: "data"
  top: "conv1/7x7_s2"
  param {
    lr_mult: 1
    decay_mult: 1
  }
  param {
    lr_mult: 2
    decay_mult: 0
  }
  convolution_param {
    num_output: 64
    pad: 3
    kernel_size: 7
    stride: 2
    weight_filler {
      type: "xavier"
      std: 0.1
    }
    bias_filler {
      type: "constant"
      value: 0.2
    }
  }
}
layer {
  name: "conv1/relu_7x7"
  type: "ReLU"
  bottom: "conv1/7x7_s2"
  top: "conv1/7x7_s2"
}
layer {
  name: "pool1/3x3_s2"
  type: "Pooling"
  bottom: "conv1/7x7_s2"
  top: "pool1/3x3_s2"
  pooling_param {
    pool: MAX
    kernel_size: 3
    stride: 2
  }
}
layer {
  name: "pool1/norm1"
  type: "LRN"
  bottom: "pool1/3x3_s2"
  top: "pool1/norm1"
  lrn_param {
    local_size: 5
    alpha: 0.0001
    beta: 0.75
  }
}
layer {
  name: "conv2/3x3_reduce"
  type: "Convolution"
  bottom: "pool1/norm1"
  top: "conv2/3x3_reduce"
  param {
    lr_mult: 1
    decay_mult: 1
  }
  param {
    lr_mult: 2
    decay_mult: 0
  }
  convolution_param {
    num_output: 64
    kernel_size: 1
    weight_filler {
      type: "xavier"
      std: 0.1
    }
    bias_filler {
      type: "constant"
      value: 0.2
    }
  }
}
layer {
  name: "conv2/relu_3x3_reduce"
  type: "ReLU"
  bottom: "conv2/3x3_reduce"
  top: "conv2/3x3_reduce"
}
layer {
  name: "conv2/3x3"
  type: "Convolution"
  bottom: "conv2/3x3_reduce"
  top: "conv2/3x3"
  param {
    lr_mult: 1
    decay_mult: 1
  }
  param {
    lr_mult: 2
    decay_mult: 0
  }
  convolution_param {
    num_output: 192
    pad: 1
    kernel_size: 3
    weight_filler {
      type: "xavier"
      std: 0.03
    }
    bias_filler {
      type: "constant"
      value: 0.2
    }
  }
}
layer {
  name: "conv2/relu_3x3"
  type: "ReLU"
  bottom: "conv2/3x3"
  top: "conv2/3x3"
}
layer {
  name: "conv2/norm2"
  type: "LRN"
  bottom: "conv2/3x3"
  top: "conv2/norm2"
  lrn_param {
    local_size: 5
    alpha: 0.0001
    beta: 0.75
  }
}
layer {
  name: "pool2/3x3_s2"
  type: "Pooling"
  bottom: "conv2/norm2"
  top: "pool2/3x3_s2"
  pooling_param {
    pool: MAX
    kernel_size: 3
    stride: 2
  }
}
layer {
  name: "inception_3a/1x1"
  type: "Convolution"
  bottom: "pool2/3x3_s2"
  top: "inception_3a/1x1"
  param {
    lr_mult: 1
    decay_mult: 1
  }
  param {
    lr_mult: 2
    decay_mult: 0
  }
  convolution_param {
    num_output: 64
    kernel_size: 1
    weight_filler {
      type: "xavier"
      std: 0.03
    }
    bias_filler {
      type: "constant"
      value: 0.2
    }
  }
}
layer {
  name: "inception_3a/relu_1x1"
  type: "ReLU"
  bottom: "inception_3a/1x1"
  top: "inception_3a/1x1"
}
layer {
  name: "inception_3a/3x3_reduce"
  type: "Convolution"
  bottom: "pool2/3x3_s2"
  top: "inception_3a/3x3_reduce"
  param {
    lr_mult: 1
    decay_mult: 1
  }
  param {
    lr_mult: 2
    decay_mult: 0
  }
  convolution_param {
    num_output: 96
    kernel_size: 1
    weight_filler {
      type: "xavier"
      std: 0.09
    }
    bias_filler {
      type: "constant"
      value: 0.2
    }
  }
}
layer {
  name: "inception_3a/relu_3x3_reduce"
  type: "ReLU"
  bottom: "inception_3a/3x3_reduce"
  top: "inception_3a/3x3_reduce"
}
layer {
  name: "inception_3a/3x3"
  type: "Convolution"
  bottom: "inception_3a/3x3_reduce"
  top: "inception_3a/3x3"
  param {
    lr_mult: 1
    decay_mult: 1
  }
  param {
    lr_mult: 2
    decay_mult: 0
  }
  convolution_param {
    num_output: 128
    pad: 1
    kernel_size: 3
    weight_filler {
      type: "xavier"
      std: 0.03
    }
    bias_filler {
      type: "constant"
      value: 0.2
    }
  }
}
layer {
  name: "inception_3a/relu_3x3"
  type: "ReLU"
  bottom: "inception_3a/3x3"
  top: "inception_3a/3x3"
}
layer {
  name: "inception_3a/5x5_reduce"
  type: "Convolution"
  bottom: "pool2/3x3_s2"
  top: "inception_3a/5x5_reduce"
  param {
    lr_mult: 1
    decay_mult: 1
  }
  param {
    lr_mult: 2
    decay_mult: 0
  }
  convolution_param {
    num_output: 16
    kernel_size: 1
    weight_filler {
      type: "xavier"
      std: 0.2
    }
    bias_filler {
      type: "constant"
      value: 0.2
    }
  }
}
layer {
  name: "inception_3a/relu_5x5_reduce"
  type: "ReLU"
  bottom: "inception_3a/5x5_reduce"
  top: "inception_3a/5x5_reduce"
}
layer {
  name: "inception_3a/5x5"
  type: "Convolution"
  bottom: "inception_3a/5x5_reduce"
  top: "inception_3a/5x5"
  param {
    lr_mult: 1
    decay_mult: 1
  }
  param {
    lr_mult: 2
    decay_mult: 0
  }
  convolution_param {
    num_output: 32
    pad: 2
    kernel_size: 5
    weight_filler {
      type: "xavier"
      std: 0.03
    }
    bias_filler {
      type: "constant"
      value: 0.2
    }
  }
}
layer {
  name: "inception_3a/relu_5x5"
  type: "ReLU"
  bottom: "inception_3a/5x5"
  top: "inception_3a/5x5"
}
layer {
  name: "inception_3a/pool"
  type: "Pooling"
  bottom: "pool2/3x3_s2"
  top: "inception_3a/pool"
  pooling_param {
    pool: MAX
    kernel_size: 3
    stride: 1
    pad: 1
  }
}
layer {
  name: "inception_3a/pool_proj"
  type: "Convolution"
  bottom: "inception_3a/pool"
  top: "inception_3a/pool_proj"
  param {
    lr_mult: 1
    decay_mult: 1
  }
  param {
    lr_mult: 2
    decay_mult: 0
  }
  convolution_param {
    num_output: 32
    kernel_size: 1
    weight_filler {
      type: "xavier"
      std: 0.1
    }
    bias_filler {
      type: "constant"
      value: 0.2
    }
  }
}
layer {
  name: "inception_3a/relu_pool_proj"
  type: "ReLU"
  bottom: "inception_3a/pool_proj"
  top: "inception_3a/pool_proj"
}
layer {
  name: "inception_3a/output"
  type: "Concat"
  bottom: "inception_3a/1x1"
  bottom: "inception_3a/3x3"
  bottom: "inception_3a/5x5"
  bottom: "inception_3a/pool_proj"
  top: "inception_3a/output"
}
layer {
  name: "inception_3b/1x1"
  type: "Convolution"
  bottom: "inception_3a/output"
  top: "inception_3b/1x1"
  param {
    lr_mult: 1
    decay_mult: 1
  }
  param {
    lr_mult: 2
    decay_mult: 0
  }
  convolution_param {
    num_output: 128
    kernel_size: 1
    weight_filler {
      type: "xavier"
      std: 0.03
    }
    bias_filler {
      type: "constant"
      value: 0.2
    }
  }
}
layer {
  name: "inception_3b/relu_1x1"
  type: "ReLU"
  bottom: "inception_3b/1x1"
  top: "inception_3b/1x1"
}
layer {
  name: "inception_3b/3x3_reduce"
  type: "Convolution"
  bottom: "inception_3a/output"
  top: "inception_3b/3x3_reduce"
  param {
    lr_mult: 1
    decay_mult: 1
  }
  param {
    lr_mult: 2
    decay_mult: 0
  }
  convolution_param {
    num_output: 128
    kernel_size: 1
    weight_filler {
      type: "xavier"
      std: 0.09
    }
    bias_filler {
      type: "constant"
      value: 0.2
    }
  }
}
layer {
  name: "inception_3b/relu_3x3_reduce"
  type: "ReLU"
  bottom: "inception_3b/3x3_reduce"
  top: "inception_3b/3x3_reduce"
}
layer {
  name: "inception_3b/3x3"
  type: "Convolution"
  bottom: "inception_3b/3x3_reduce"
  top: "inception_3b/3x3"
  param {
    lr_mult: 1
    decay_mult: 1
  }
  param {
    lr_mult: 2
    decay_mult: 0
  }
  convolution_param {
    num_output: 192
    pad: 1
    kernel_size: 3
    weight_filler {
      type: "xavier"
      std: 0.03
    }
    bias_filler {
      type: "constant"
      value: 0.2
    }
  }
}
layer {
  name: "inception_3b/relu_3x3"
  type: "ReLU"
  bottom: "inception_3b/3x3"
  top: "inception_3b/3x3"
}
layer {
  name: "inception_3b/5x5_reduce"
  type: "Convolution"
  bottom: "inception_3a/output"
  top: "inception_3b/5x5_reduce"
  param {
    lr_mult: 1
    decay_mult: 1
  }
  param {
    lr_mult: 2
    decay_mult: 0
  }
  convolution_param {
    num_output: 32
    kernel_size: 1
    weight_filler {
      type: "xavier"
      std: 0.2
    }
    bias_filler {
      type: "constant"
      value: 0.2
    }
  }
}
layer {
  name: "inception_3b/relu_5x5_reduce"
  type: "ReLU"
  bottom: "inception_3b/5x5_reduce"
  top: "inception_3b/5x5_reduce"
}
layer {
  name: "inception_3b/5x5"
  type: "Convolution"
  bottom: "inception_3b/5x5_reduce"
  top: "inception_3b/5x5"
  param {
    lr_mult: 1
    decay_mult: 1
  }
  param {
    lr_mult: 2
    decay_mult: 0
  }
  convolution_param {
    num_output: 96
    pad: 2
    kernel_size: 5
    weight_filler {
      type: "xavier"
      std: 0.03
    }
    bias_filler {
      type: "constant"
      value: 0.2
    }
  }
}
layer {
  name: "inception_3b/relu_5x5"
  type: "ReLU"
  bottom: "inception_3b/5x5"
  top: "inception_3b/5x5"
}
layer {
  name: "inception_3b/pool"
  type: "Pooling"
  bottom: "inception_3a/output"
  top: "inception_3b/pool"
  pooling_param {
    pool: MAX
    kernel_size: 3
    stride: 1
    pad: 1
  }
}
layer {
  name: "inception_3b/pool_proj"
  type: "Convolution"
  bottom: "inception_3b/pool"
  top: "inception_3b/pool_proj"
  param {
    lr_mult: 1
    decay_mult: 1
  }
  param {
    lr_mult: 2
    decay_mult: 0
  }
  convolution_param {
    num_output: 64
    kernel_size: 1
    weight_filler {
      type: "xavier"
      std: 0.1
    }
    bias_filler {
      type: "constant"
      value: 0.2
    }
  }
}
layer {
  name: "inception_3b/relu_pool_proj"
  type: "ReLU"
  bottom: "inception_3b/pool_proj"
  top: "inception_3b/pool_proj"
}
layer {
  name: "inception_3b/output"
  type: "Concat"
  bottom: "inception_3b/1x1"
  bottom: "inception_3b/3x3"
  bottom: "inception_3b/5x5"
  bottom: "inception_3b/pool_proj"
  top: "inception_3b/output"
}
layer {
  name: "pool3/3x3_s2"
  type: "Pooling"
  bottom: "inception_3b/output"
  top: "pool3/3x3_s2"
  pooling_param {
    pool: MAX
    kernel_size: 3
    stride: 2
  }
}
layer {
  name: "inception_4a/1x1"
  type: "Convolution"
  bottom: "pool3/3x3_s2"
  top: "inception_4a/1x1"
  param {
    lr_mult: 1
    decay_mult: 1
  }
  param {
    lr_mult: 2
    decay_mult: 0
  }
  convolution_param {
    num_output: 192
    kernel_size: 1
    weight_filler {
      type: "xavier"
      std: 0.03
    }
    bias_filler {
      type: "constant"
      value: 0.2
    }
  }
}
layer {
  name: "inception_4a/relu_1x1"
  type: "ReLU"
  bottom: "inception_4a/1x1"
  top: "inception_4a/1x1"
}
layer {
  name: "inception_4a/3x3_reduce"
  type: "Convolution"
  bottom: "pool3/3x3_s2"
  top: "inception_4a/3x3_reduce"
  param {
    lr_mult: 1
    decay_mult: 1
  }
  param {
    lr_mult: 2
    decay_mult: 0
  }
  convolution_param {
    num_output: 96
    kernel_size: 1
    weight_filler {
      type: "xavier"
      std: 0.09
    }
    bias_filler {
      type: "constant"
      value: 0.2
    }
  }
}
layer {
  name: "inception_4a/relu_3x3_reduce"
  type: "ReLU"
  bottom: "inception_4a/3x3_reduce"
  top: "inception_4a/3x3_reduce"
}
layer {
  name: "inception_4a/3x3"
  type: "Convolution"
  bottom: "inception_4a/3x3_reduce"
  top: "inception_4a/3x3"
  param {
    lr_mult: 1
    decay_mult: 1
  }
  param {
    lr_mult: 2
    decay_mult: 0
  }
  convolution_param {
    num_output: 208
    pad: 1
    kernel_size: 3
    weight_filler {
      type: "xavier"
      std: 0.03
    }
    bias_filler {
      type: "constant"
      value: 0.2
    }
  }
}
layer {
  name: "inception_4a/relu_3x3"
  type: "ReLU"
  bottom: "inception_4a/3x3"
  top: "inception_4a/3x3"
}
layer {
  name: "inception_4a/5x5_reduce"
  type: "Convolution"
  bottom: "pool3/3x3_s2"
  top: "inception_4a/5x5_reduce"
  param {
    lr_mult: 1
    decay_mult: 1
  }
  param {
    lr_mult: 2
    decay_mult: 0
  }
  convolution_param {
    num_output: 16
    kernel_size: 1
    weight_filler {
      type: "xavier"
      std: 0.2
    }
    bias_filler {
      type: "constant"
      value: 0.2
    }
  }
}
layer {
  name: "inception_4a/relu_5x5_reduce"
  type: "ReLU"
  bottom: "inception_4a/5x5_reduce"
  top: "inception_4a/5x5_reduce"
}
layer {
  name: "inception_4a/5x5"
  type: "Convolution"
  bottom: "inception_4a/5x5_reduce"
  top: "inception_4a/5x5"
  param {
    lr_mult: 1
    decay_mult: 1
  }
  param {
    lr_mult: 2
    decay_mult: 0
  }
  convolution_param {
    num_output: 48
    pad: 2
    kernel_size: 5
    weight_filler {
      type: "xavier"
      std: 0.03
    }
    bias_filler {
      type: "constant"
      value: 0.2
    }
  }
}
layer {
  name: "inception_4a/relu_5x5"
  type: "ReLU"
  bottom: "inception_4a/5x5"
  top: "inception_4a/5x5"
}
layer {
  name: "inception_4a/pool"
  type: "Pooling"
  bottom: "pool3/3x3_s2"
  top: "inception_4a/pool"
  pooling_param {
    pool: MAX
    kernel_size: 3
    stride: 1
    pad: 1
  }
}
layer {
  name: "inception_4a/pool_proj"
  type: "Convolution"
  bottom: "inception_4a/pool"
  top: "inception_4a/pool_proj"
  param {
    lr_mult: 1
    decay_mult: 1
  }
  param {
    lr_mult: 2
    decay_mult: 0
  }
  convolution_param {
    num_output: 64
    kernel_size: 1
    weight_filler {
      type: "xavier"
      std: 0.1
    }
    bias_filler {
      type: "constant"
      value: 0.2
    }
  }
}
layer {
  name: "inception_4a/relu_pool_proj"
  type: "ReLU"
  bottom: "inception_4a/pool_proj"
  top: "inception_4a/pool_proj"
}
layer {
  name: "inception_4a/output"
  type: "Concat"
  bottom: "inception_4a/1x1"
  bottom: "inception_4a/3x3"
  bottom: "inception_4a/5x5"
  bottom: "inception_4a/pool_proj"
  top: "inception_4a/output"
}
layer {
  name: "loss1/ave_pool"
  type: "Pooling"
  bottom: "inception_4a/output"
  top: "loss1/ave_pool"
  pooling_param {
    pool: AVE
    kernel_size: 5
    stride: 3
  }
}
layer {
  name: "loss1/conv"
  type: "Convolution"
  bottom: "loss1/ave_pool"
  top: "loss1/conv"
  param {
    lr_mult: 1
    decay_mult: 1
  }
  param {
    lr_mult: 2
    decay_mult: 0
  }
  convolution_param {
    num_output: 128
    kernel_size: 1
    weight_filler {
      type: "xavier"
      std: 0.08
    }
    bias_filler {
      type: "constant"
      value: 0.2
    }
  }
}
layer {
  name: "loss1/relu_conv"
  type: "ReLU"
  bottom: "loss1/conv"
  top: "loss1/conv"
}
layer {
  name: "loss1/fc"
  type: "InnerProduct"
  bottom: "loss1/conv"
  top: "loss1/fc"
  param {
    lr_mult: 1
    decay_mult: 1
  }
  param {
    lr_mult: 2
    decay_mult: 0
  }
  inner_product_param {
    num_output: 1024
    weight_filler {
      type: "xavier"
      std: 0.02
    }
    bias_filler {
      type: "constant"
      value: 0.2
    }
  }
}
layer {
  name: "loss1/relu_fc"
  type: "ReLU"
  bottom: "loss1/fc"
  top: "loss1/fc"
}
layer {
  name: "loss1/drop_fc"
  type: "Dropout"
  bottom: "loss1/fc"
  top: "loss1/fc"
  dropout_param {
    dropout_ratio: 0.7
  }
}
layer {
  name: "loss1/classifier_plantvillage"
  type: "InnerProduct"
  bottom: "loss1/fc"
  top: "loss1/classifier_plantvillage"
  param {
    lr_mult: 1
    decay_mult: 1
  }
  param {
    lr_mult: 2
    decay_mult: 0
  }
  inner_product_param {
    num_output: 38
    weight_filler {
      type: "xavier"
      std: 0.0009765625
    }
    bias_filler {
      type: "constant"
      value: 0
    }
  }
}
layer {
  name: "inception_4b/1x1"
  type: "Convolution"
  bottom: "inception_4a/output"
  top: "inception_4b/1x1"
  param {
    lr_mult: 1
    decay_mult: 1
  }
  param {
    lr_mult: 2
    decay_mult: 0
  }
  convolution_param {
    num_output: 160
    kernel_size: 1
    weight_filler {
      type: "xavier"
      std: 0.03
    }
    bias_filler {
      type: "constant"
      value: 0.2
    }
  }
}
layer {
  name: "inception_4b/relu_1x1"
  type: "ReLU"
  bottom: "inception_4b/1x1"
  top: "inception_4b/1x1"
}
layer {
  name: "inception_4b/3x3_reduce"
  type: "Convolution"
  bottom: "inception_4a/output"
  top: "inception_4b/3x3_reduce"
  param {
    lr_mult: 1
    decay_mult: 1
  }
  param {
    lr_mult: 2
    decay_mult: 0
  }
  convolution_param {
    num_output: 112
    kernel_size: 1
    weight_filler {
      type: "xavier"
      std: 0.09
    }
    bias_filler {
      type: "constant"
      value: 0.2
    }
  }
}
layer {
  name: "inception_4b/relu_3x3_reduce"
  type: "ReLU"
  bottom: "inception_4b/3x3_reduce"
  top: "inception_4b/3x3_reduce"
}
layer {
  name: "inception_4b/3x3"
  type: "Convolution"
  bottom: "inception_4b/3x3_reduce"
  top: "inception_4b/3x3"
  param {
    lr_mult: 1
    decay_mult: 1
  }
  param {
    lr_mult: 2
    decay_mult: 0
  }
  convolution_param {
    num_output: 224
    pad: 1
    kernel_size: 3
    weight_filler {
      type: "xavier"
      std: 0.03
    }
    bias_filler {
      type: "constant"
      value: 0.2
    }
  }
}
layer {
  name: "inception_4b/relu_3x3"
  type: "ReLU"
  bottom: "inception_4b/3x3"
  top: "inception_4b/3x3"
}
layer {
  name: "inception_4b/5x5_reduce"
  type: "Convolution"
  bottom: "inception_4a/output"
  top: "inception_4b/5x5_reduce"
  param {
    lr_mult: 1
    decay_mult: 1
  }
  param {
    lr_mult: 2
    decay_mult: 0
  }
  convolution_param {
    num_output: 24
    kernel_size: 1
    weight_filler {
      type: "xavier"
      std: 0.2
    }
    bias_filler {
      type: "constant"
      value: 0.2
    }
  }
}
layer {
  name: "inception_4b/relu_5x5_reduce"
  type: "ReLU"
  bottom: "inception_4b/5x5_reduce"
  top: "inception_4b/5x5_reduce"
}
layer {
  name: "inception_4b/5x5"
  type: "Convolution"
  bottom: "inception_4b/5x5_reduce"
  top: "inception_4b/5x5"
  param {
    lr_mult: 1
    decay_mult: 1
  }
  param {
    lr_mult: 2
    decay_mult: 0
  }
  convolution_param {
    num_output: 64
    pad: 2
    kernel_size: 5
    weight_filler {
      type: "xavier"
      std: 0.03
    }
    bias_filler {
      type: "constant"
      value: 0.2
    }
  }
}
layer {
  name: "inception_4b/relu_5x5"
  type: "ReLU"
  bottom: "inception_4b/5x5"
  top: "inception_4b/5x5"
}
layer {
  name: "inception_4b/pool"
  type: "Pooling"
  bottom: "inception_4a/output"
  top: "inception_4b/pool"
  pooling_param {
    pool: MAX
    kernel_size: 3
    stride: 1
    pad: 1
  }
}
layer {
  name: "inception_4b/pool_proj"
  type: "Convolution"
  bottom: "inception_4b/pool"
  top: "inception_4b/pool_proj"
  param {
    lr_mult: 1
    decay_mult: 1
  }
  param {
    lr_mult: 2
    decay_mult: 0
  }
  convolution_param {
    num_output: 64
    kernel_size: 1
    weight_filler {
      type: "xavier"
      std: 0.1
    }
    bias_filler {
      type: "constant"
      value: 0.2
    }
  }
}
layer {
  name: "inception_4b/relu_pool_proj"
  type: "ReLU"
  bottom: "inception_4b/pool_proj"
  top: "inception_4b/pool_proj"
}
layer {
  name: "inception_4b/output"
  type: "Concat"
  bottom: "inception_4b/1x1"
  bottom: "inception_4b/3x3"
  bottom: "inception_4b/5x5"
  bottom: "inception_4b/pool_proj"
  top: "inception_4b/output"
}
layer {
  name: "inception_4c/1x1"
  type: "Convolution"
  bottom: "inception_4b/output"
  top: "inception_4c/1x1"
  param {
    lr_mult: 1
    decay_mult: 1
  }
  param {
    lr_mult: 2
    decay_mult: 0
  }
  convolution_param {
    num_output: 128
    kernel_size: 1
    weight_filler {
      type: "xavier"
      std: 0.03
    }
    bias_filler {
      type: "constant"
      value: 0.2
    }
  }
}
layer {
  name: "inception_4c/relu_1x1"
  type: "ReLU"
  bottom: "inception_4c/1x1"
  top: "inception_4c/1x1"
}
layer {
  name: "inception_4c/3x3_reduce"
  type: "Convolution"
  bottom: "inception_4b/output"
  top: "inception_4c/3x3_reduce"
  param {
    lr_mult: 1
    decay_mult: 1
  }
  param {
    lr_mult: 2
    decay_mult: 0
  }
  convolution_param {
    num_output: 128
    kernel_size: 1
    weight_filler {
      type: "xavier"
      std: 0.09
    }
    bias_filler {
      type: "constant"
      value: 0.2
    }
  }
}
layer {
  name: "inception_4c/relu_3x3_reduce"
  type: "ReLU"
  bottom: "inception_4c/3x3_reduce"
  top: "inception_4c/3x3_reduce"
}
layer {
  name: "inception_4c/3x3"
  type: "Convolution"
  bottom: "inception_4c/3x3_reduce"
  top: "inception_4c/3x3"
  param {
    lr_mult: 1
    decay_mult: 1
  }
  param {
    lr_mult: 2
    decay_mult: 0
  }
  convolution_param {
    num_output: 256
    pad: 1
    kernel_size: 3
    weight_filler {
      type: "xavier"
      std: 0.03
    }
    bias_filler {
      type: "constant"
      value: 0.2
    }
  }
}
layer {
  name: "inception_4c/relu_3x3"
  type: "ReLU"
  bottom: "inception_4c/3x3"
  top: "inception_4c/3x3"
}
layer {
  name: "inception_4c/5x5_reduce"
  type: "Convolution"
  bottom: "inception_4b/output"
  top: "inception_4c/5x5_reduce"
  param {
    lr_mult: 1
    decay_mult: 1
  }
  param {
    lr_mult: 2
    decay_mult: 0
  }
  convolution_param {
    num_output: 24
    kernel_size: 1
    weight_filler {
      type: "xavier"
      std: 0.2
    }
    bias_filler {
      type: "constant"
      value: 0.2
    }
  }
}
layer {
  name: "inception_4c/relu_5x5_reduce"
  type: "ReLU"
  bottom: "inception_4c/5x5_reduce"
  top: "inception_4c/5x5_reduce"
}
layer {
  name: "inception_4c/5x5"
  type: "Convolution"
  bottom: "inception_4c/5x5_reduce"
  top: "inception_4c/5x5"
  param {
    lr_mult: 1
    decay_mult: 1
  }
  param {
    lr_mult: 2
    decay_mult: 0
  }
  convolution_param {
    num_output: 64
    pad: 2
    kernel_size: 5
    weight_filler {
      type: "xavier"
      std: 0.03
    }
    bias_filler {
      type: "constant"
      value: 0.2
    }
  }
}
layer {
  name: "inception_4c/relu_5x5"
  type: "ReLU"
  bottom: "inception_4c/5x5"
  top: "inception_4c/5x5"
}
layer {
  name: "inception_4c/pool"
  type: "Pooling"
  bottom: "inception_4b/output"
  top: "inception_4c/pool"
  pooling_param {
    pool: MAX
    kernel_size: 3
    stride: 1
    pad: 1
  }
}
layer {
  name: "inception_4c/pool_proj"
  type: "Convolution"
  bottom: "inception_4c/pool"
  top: "inception_4c/pool_proj"
  param {
    lr_mult: 1
    decay_mult: 1
  }
  param {
    lr_mult: 2
    decay_mult: 0
  }
  convolution_param {
    num_output: 64
    kernel_size: 1
    weight_filler {
      type: "xavier"
      std: 0.1
    }
    bias_filler {
      type: "constant"
      value: 0.2
    }
  }
}
layer {
  name: "inception_4c/relu_pool_proj"
  type: "ReLU"
  bottom: "inception_4c/pool_proj"
  top: "inception_4c/pool_proj"
}
layer {
  name: "inception_4c/output"
  type: "Concat"
  bottom: "inception_4c/1x1"
  bottom: "inception_4c/3x3"
  bottom: "inception_4c/5x5"
  bottom: "inception_4c/pool_proj"
  top: "inception_4c/output"
}
layer {
  name: "inception_4d/1x1"
  type: "Convolution"
  bottom: "inception_4c/output"
  top: "inception_4d/1x1"
  param {
    lr_mult: 1
    decay_mult: 1
  }
  param {
    lr_mult: 2
    decay_mult: 0
  }
  convolution_param {
    num_output: 112
    kernel_size: 1
    weight_filler {
      type: "xavier"
      std: 0.03
    }
    bias_filler {
      type: "constant"
      value: 0.2
    }
  }
}
layer {
  name: "inception_4d/relu_1x1"
  type: "ReLU"
  bottom: "inception_4d/1x1"
  top: "inception_4d/1x1"
}
layer {
  name: "inception_4d/3x3_reduce"
  type: "Convolution"
  bottom: "inception_4c/output"
  top: "inception_4d/3x3_reduce"
  param {
    lr_mult: 1
    decay_mult: 1
  }
  param {
    lr_mult: 2
    decay_mult: 0
  }
  convolution_param {
    num_output: 144
    kernel_size: 1
    weight_filler {
      type: "xavier"
      std: 0.09
    }
    bias_filler {
      type: "constant"
      value: 0.2
    }
  }
}
layer {
  name: "inception_4d/relu_3x3_reduce"
  type: "ReLU"
  bottom: "inception_4d/3x3_reduce"
  top: "inception_4d/3x3_reduce"
}
layer {
  name: "inception_4d/3x3"
  type: "Convolution"
  bottom: "inception_4d/3x3_reduce"
  top: "inception_4d/3x3"
  param {
    lr_mult: 1
    decay_mult: 1
  }
  param {
    lr_mult: 2
    decay_mult: 0
  }
  convolution_param {
    num_output: 288
    pad: 1
    kernel_size: 3
    weight_filler {
      type: "xavier"
      std: 0.03
    }
    bias_filler {
      type: "constant"
      value: 0.2
    }
  }
}
layer {
  name: "inception_4d/relu_3x3"
  type: "ReLU"
  bottom: "inception_4d/3x3"
  top: "inception_4d/3x3"
}
layer {
  name: "inception_4d/5x5_reduce"
  type: "Convolution"
  bottom: "inception_4c/output"
  top: "inception_4d/5x5_reduce"
  param {
    lr_mult: 1
    decay_mult: 1
  }
  param {
    lr_mult: 2
    decay_mult: 0
  }
  convolution_param {
    num_output: 32
    kernel_size: 1
    weight_filler {
      type: "xavier"
      std: 0.2
    }
    bias_filler {
      type: "constant"
      value: 0.2
    }
  }
}
layer {
  name: "inception_4d/relu_5x5_reduce"
  type: "ReLU"
  bottom: "inception_4d/5x5_reduce"
  top: "inception_4d/5x5_reduce"
}
layer {
  name: "inception_4d/5x5"
  type: "Convolution"
  bottom: "inception_4d/5x5_reduce"
  top: "inception_4d/5x5"
  param {
    lr_mult: 1
    decay_mult: 1
  }
  param {
    lr_mult: 2
    decay_mult: 0
  }
  convolution_param {
    num_output: 64
    pad: 2
    kernel_size: 5
    weight_filler {
      type: "xavier"
      std: 0.03
    }
    bias_filler {
      type: "constant"
      value: 0.2
    }
  }
}
layer {
  name: "inception_4d/relu_5x5"
  type: "ReLU"
  bottom: "inception_4d/5x5"
  top: "inception_4d/5x5"
}
layer {
  name: "inception_4d/pool"
  type: "Pooling"
  bottom: "inception_4c/output"
  top: "inception_4d/pool"
  pooling_param {
    pool: MAX
    kernel_size: 3
    stride: 1
    pad: 1
  }
}
layer {
  name: "inception_4d/pool_proj"
  type: "Convolution"
  bottom: "inception_4d/pool"
  top: "inception_4d/pool_proj"
  param {
    lr_mult: 1
    decay_mult: 1
  }
  param {
    lr_mult: 2
    decay_mult: 0
  }
  convolution_param {
    num_output: 64
    kernel_size: 1
    weight_filler {
      type: "xavier"
      std: 0.1
    }
    bias_filler {
      type: "constant"
      value: 0.2
    }
  }
}
layer {
  name: "inception_4d/relu_pool_proj"
  type: "ReLU"
  bottom: "inception_4d/pool_proj"
  top: "inception_4d/pool_proj"
}
layer {
  name: "inception_4d/output"
  type: "Concat"
  bottom: "inception_4d/1x1"
  bottom: "inception_4d/3x3"
  bottom: "inception_4d/5x5"
  bottom: "inception_4d/pool_proj"
  top: "inception_4d/output"
}
layer {
  name: "loss2/ave_pool"
  type: "Pooling"
  bottom: "inception_4d/output"
  top: "loss2/ave_pool"
  pooling_param {
    pool: AVE
    kernel_size: 5
    stride: 3
  }
}
layer {
  name: "loss2/conv"
  type: "Convolution"
  bottom: "loss2/ave_pool"
  top: "loss2/conv"
  param {
    lr_mult: 1
    decay_mult: 1
  }
  param {
    lr_mult: 2
    decay_mult: 0
  }
  convolution_param {
    num_output: 128
    kernel_size: 1
    weight_filler {
      type: "xavier"
      std: 0.08
    }
    bias_filler {
      type: "constant"
      value: 0.2
    }
  }
}
layer {
  name: "loss2/relu_conv"
  type: "ReLU"
  bottom: "loss2/conv"
  top: "loss2/conv"
}
layer {
  name: "loss2/fc"
  type: "InnerProduct"
  bottom: "loss2/conv"
  top: "loss2/fc"
  param {
    lr_mult: 1
    decay_mult: 1
  }
  param {
    lr_mult: 2
    decay_mult: 0
  }
  inner_product_param {
    num_output: 1024
    weight_filler {
      type: "xavier"
      std: 0.02
    }
    bias_filler {
      type: "constant"
      value: 0.2
    }
  }
}
layer {
  name: "loss2/relu_fc"
  type: "ReLU"
  bottom: "loss2/fc"
  top: "loss2/fc"
}
layer {
  name: "loss2/drop_fc"
  type: "Dropout"
  bottom: "loss2/fc"
  top: "loss2/fc"
  dropout_param {
    dropout_ratio: 0.7
  }
}
layer {
  name: "loss2/classifier_plantvillage"
  type: "InnerProduct"
  bottom: "loss2/fc"
  top: "loss2/classifier_plantvillage"
  param {
    lr_mult: 1
    decay_mult: 1
  }
  param {
    lr_mult: 2
    decay_mult: 0
  }
  inner_product_param {
    num_output: 38
    weight_filler {
      type: "xavier"
      std: 0.0009765625
    }
    bias_filler {
      type: "constant"
      value: 0
    }
  }
}
layer {
  name: "inception_4e/1x1"
  type: "Convolution"
  bottom: "inception_4d/output"
  top: "inception_4e/1x1"
  param {
    lr_mult: 1
    decay_mult: 1
  }
  param {
    lr_mult: 2
    decay_mult: 0
  }
  convolution_param {
    num_output: 256
    kernel_size: 1
    weight_filler {
      type: "xavier"
      std: 0.03
    }
    bias_filler {
      type: "constant"
      value: 0.2
    }
  }
}
layer {
  name: "inception_4e/relu_1x1"
  type: "ReLU"
  bottom: "inception_4e/1x1"
  top: "inception_4e/1x1"
}
layer {
  name: "inception_4e/3x3_reduce"
  type: "Convolution"
  bottom: "inception_4d/output"
  top: "inception_4e/3x3_reduce"
  param {
    lr_mult: 1
    decay_mult: 1
  }
  param {
    lr_mult: 2
    decay_mult: 0
  }
  convolution_param {
    num_output: 160
    kernel_size: 1
    weight_filler {
      type: "xavier"
      std: 0.09
    }
    bias_filler {
      type: "constant"
      value: 0.2
    }
  }
}
layer {
  name: "inception_4e/relu_3x3_reduce"
  type: "ReLU"
  bottom: "inception_4e/3x3_reduce"
  top: "inception_4e/3x3_reduce"
}
layer {
  name: "inception_4e/3x3"
  type: "Convolution"
  bottom: "inception_4e/3x3_reduce"
  top: "inception_4e/3x3"
  param {
    lr_mult: 1
    decay_mult: 1
  }
  param {
    lr_mult: 2
    decay_mult: 0
  }
  convolution_param {
    num_output: 320
    pad: 1
    kernel_size: 3
    weight_filler {
      type: "xavier"
      std: 0.03
    }
    bias_filler {
      type: "constant"
      value: 0.2
    }
  }
}
layer {
  name: "inception_4e/relu_3x3"
  type: "ReLU"
  bottom: "inception_4e/3x3"
  top: "inception_4e/3x3"
}
layer {
  name: "inception_4e/5x5_reduce"
  type: "Convolution"
  bottom: "inception_4d/output"
  top: "inception_4e/5x5_reduce"
  param {
    lr_mult: 1
    decay_mult: 1
  }
  param {
    lr_mult: 2
    decay_mult: 0
  }
  convolution_param {
    num_output: 32
    kernel_size: 1
    weight_filler {
      type: "xavier"
      std: 0.2
    }
    bias_filler {
      type: "constant"
      value: 0.2
    }
  }
}
layer {
  name: "inception_4e/relu_5x5_reduce"
  type: "ReLU"
  bottom: "inception_4e/5x5_reduce"
  top: "inception_4e/5x5_reduce"
}
layer {
  name: "inception_4e/5x5"
  type: "Convolution"
  bottom: "inception_4e/5x5_reduce"
  top: "inception_4e/
I0403 19:39:19.256981 25434 layer_factory.hpp:77] Creating layer data
I0403 19:39:19.257764 25434 net.cpp:91] Creating Layer data
I0403 19:39:19.257805 25434 net.cpp:399] data -> data
I0403 19:39:19.257884 25434 net.cpp:399] data -> label
I0403 19:39:19.257938 25434 data_transformer.cpp:25] Loading mean file from: /home/mohanty/data/final_dataset/lmdb/grayscale-80-20/mean.binaryproto
I0403 19:39:19.259312 25437 db_lmdb.cpp:38] Opened lmdb /home/mohanty/data/final_dataset/lmdb/grayscale-80-20/test_db
I0403 19:39:19.275107 25434 data_layer.cpp:41] output data size: 24,3,224,224
I0403 19:39:19.308145 25434 net.cpp:141] Setting up data
I0403 19:39:19.308272 25434 net.cpp:148] Top shape: 24 3 224 224 (3612672)
I0403 19:39:19.308302 25434 net.cpp:148] Top shape: 24 (24)
I0403 19:39:19.308323 25434 net.cpp:156] Memory required for data: 14450784
I0403 19:39:19.308364 25434 layer_factory.hpp:77] Creating layer label_data_1_split
I0403 19:39:19.308403 25434 net.cpp:91] Creating Layer label_data_1_split
I0403 19:39:19.308429 25434 net.cpp:425] label_data_1_split <- label
I0403 19:39:19.308472 25434 net.cpp:399] label_data_1_split -> label_data_1_split_0
I0403 19:39:19.308513 25434 net.cpp:399] label_data_1_split -> label_data_1_split_1
I0403 19:39:19.308542 25434 net.cpp:399] label_data_1_split -> label_data_1_split_2
I0403 19:39:19.308570 25434 net.cpp:399] label_data_1_split -> label_data_1_split_3
I0403 19:39:19.308596 25434 net.cpp:399] label_data_1_split -> label_data_1_split_4
I0403 19:39:19.308622 25434 net.cpp:399] label_data_1_split -> label_data_1_split_5
I0403 19:39:19.308646 25434 net.cpp:399] label_data_1_split -> label_data_1_split_6
I0403 19:39:19.308673 25434 net.cpp:399] label_data_1_split -> label_data_1_split_7
I0403 19:39:19.308699 25434 net.cpp:399] label_data_1_split -> label_data_1_split_8
I0403 19:39:19.308727 25434 net.cpp:399] label_data_1_split -> label_data_1_split_9
I0403 19:39:19.308872 25434 net.cpp:141] Setting up label_data_1_split
I0403 19:39:19.308902 25434 net.cpp:148] Top shape: 24 (24)
I0403 19:39:19.308924 25434 net.cpp:148] Top shape: 24 (24)
I0403 19:39:19.308943 25434 net.cpp:148] Top shape: 24 (24)
I0403 19:39:19.308964 25434 net.cpp:148] Top shape: 24 (24)
I0403 19:39:19.308982 25434 net.cpp:148] Top shape: 24 (24)
I0403 19:39:19.309000 25434 net.cpp:148] Top shape: 24 (24)
I0403 19:39:19.309018 25434 net.cpp:148] Top shape: 24 (24)
I0403 19:39:19.309036 25434 net.cpp:148] Top shape: 24 (24)
I0403 19:39:19.309056 25434 net.cpp:148] Top shape: 24 (24)
I0403 19:39:19.309074 25434 net.cpp:148] Top shape: 24 (24)
I0403 19:39:19.309136 25434 net.cpp:156] Memory required for data: 14451744
I0403 19:39:19.309159 25434 layer_factory.hpp:77] Creating layer conv1/7x7_s2
I0403 19:39:19.309204 25434 net.cpp:91] Creating Layer conv1/7x7_s2
I0403 19:39:19.309227 25434 net.cpp:425] conv1/7x7_s2 <- data
I0403 19:39:19.309252 25434 net.cpp:399] conv1/7x7_s2 -> conv1/7x7_s2
I0403 19:39:19.480911 25434 net.cpp:141] Setting up conv1/7x7_s2
I0403 19:39:19.481031 25434 net.cpp:148] Top shape: 24 64 112 112 (19267584)
I0403 19:39:19.481055 25434 net.cpp:156] Memory required for data: 91522080
I0403 19:39:19.481098 25434 layer_factory.hpp:77] Creating layer conv1/relu_7x7
I0403 19:39:19.481138 25434 net.cpp:91] Creating Layer conv1/relu_7x7
I0403 19:39:19.481163 25434 net.cpp:425] conv1/relu_7x7 <- conv1/7x7_s2
I0403 19:39:19.481189 25434 net.cpp:386] conv1/relu_7x7 -> conv1/7x7_s2 (in-place)
I0403 19:39:19.481503 25434 net.cpp:141] Setting up conv1/relu_7x7
I0403 19:39:19.481539 25434 net.cpp:148] Top shape: 24 64 112 112 (19267584)
I0403 19:39:19.481559 25434 net.cpp:156] Memory required for data: 168592416
I0403 19:39:19.481577 25434 layer_factory.hpp:77] Creating layer pool1/3x3_s2
I0403 19:39:19.481611 25434 net.cpp:91] Creating Layer pool1/3x3_s2
I0403 19:39:19.481633 25434 net.cpp:425] pool1/3x3_s2 <- conv1/7x7_s2
I0403 19:39:19.481657 25434 net.cpp:399] pool1/3x3_s2 -> pool1/3x3_s2
I0403 19:39:19.481756 25434 net.cpp:141] Setting up pool1/3x3_s2
I0403 19:39:19.481788 25434 net.cpp:148] Top shape: 24 64 56 56 (4816896)
I0403 19:39:19.481808 25434 net.cpp:156] Memory required for data: 187860000
I0403 19:39:19.481827 25434 layer_factory.hpp:77] Creating layer pool1/norm1
I0403 19:39:19.481858 25434 net.cpp:91] Creating Layer pool1/norm1
I0403 19:39:19.481880 25434 net.cpp:425] pool1/norm1 <- pool1/3x3_s2
I0403 19:39:19.481904 25434 net.cpp:399] pool1/norm1 -> pool1/norm1
I0403 19:39:19.482321 25434 net.cpp:141] Setting up pool1/norm1
I0403 19:39:19.482357 25434 net.cpp:148] Top shape: 24 64 56 56 (4816896)
I0403 19:39:19.482380 25434 net.cpp:156] Memory required for data: 207127584
I0403 19:39:19.482400 25434 layer_factory.hpp:77] Creating layer conv2/3x3_reduce
I0403 19:39:19.482434 25434 net.cpp:91] Creating Layer conv2/3x3_reduce
I0403 19:39:19.482455 25434 net.cpp:425] conv2/3x3_reduce <- pool1/norm1
I0403 19:39:19.482480 25434 net.cpp:399] conv2/3x3_reduce -> conv2/3x3_reduce
I0403 19:39:19.484058 25434 net.cpp:141] Setting up conv2/3x3_reduce
I0403 19:39:19.484136 25434 net.cpp:148] Top shape: 24 64 56 56 (4816896)
I0403 19:39:19.484164 25434 net.cpp:156] Memory required for data: 226395168
I0403 19:39:19.484191 25434 layer_factory.hpp:77] Creating layer conv2/relu_3x3_reduce
I0403 19:39:19.484218 25434 net.cpp:91] Creating Layer conv2/relu_3x3_reduce
I0403 19:39:19.484238 25434 net.cpp:425] conv2/relu_3x3_reduce <- conv2/3x3_reduce
I0403 19:39:19.484259 25434 net.cpp:386] conv2/relu_3x3_reduce -> conv2/3x3_reduce (in-place)
I0403 19:39:19.484578 25434 net.cpp:141] Setting up conv2/relu_3x3_reduce
I0403 19:39:19.484616 25434 net.cpp:148] Top shape: 24 64 56 56 (4816896)
I0403 19:39:19.484637 25434 net.cpp:156] Memory required for data: 245662752
I0403 19:39:19.484658 25434 layer_factory.hpp:77] Creating layer conv2/3x3
I0403 19:39:19.484688 25434 net.cpp:91] Creating Layer conv2/3x3
I0403 19:39:19.484710 25434 net.cpp:425] conv2/3x3 <- conv2/3x3_reduce
I0403 19:39:19.484741 25434 net.cpp:399] conv2/3x3 -> conv2/3x3
I0403 19:39:19.487520 25434 net.cpp:141] Setting up conv2/3x3
I0403 19:39:19.487562 25434 net.cpp:148] Top shape: 24 192 56 56 (14450688)
I0403 19:39:19.487586 25434 net.cpp:156] Memory required for data: 303465504
I0403 19:39:19.487613 25434 layer_factory.hpp:77] Creating layer conv2/relu_3x3
I0403 19:39:19.487642 25434 net.cpp:91] Creating Layer conv2/relu_3x3
I0403 19:39:19.487663 25434 net.cpp:425] conv2/relu_3x3 <- conv2/3x3
I0403 19:39:19.487689 25434 net.cpp:386] conv2/relu_3x3 -> conv2/3x3 (in-place)
I0403 19:39:19.487902 25434 net.cpp:141] Setting up conv2/relu_3x3
I0403 19:39:19.487937 25434 net.cpp:148] Top shape: 24 192 56 56 (14450688)
I0403 19:39:19.487988 25434 net.cpp:156] Memory required for data: 361268256
I0403 19:39:19.488009 25434 layer_factory.hpp:77] Creating layer conv2/norm2
I0403 19:39:19.488035 25434 net.cpp:91] Creating Layer conv2/norm2
I0403 19:39:19.488057 25434 net.cpp:425] conv2/norm2 <- conv2/3x3
I0403 19:39:19.488085 25434 net.cpp:399] conv2/norm2 -> conv2/norm2
I0403 19:39:19.488554 25434 net.cpp:141] Setting up conv2/norm2
I0403 19:39:19.488595 25434 net.cpp:148] Top shape: 24 192 56 56 (14450688)
I0403 19:39:19.488617 25434 net.cpp:156] Memory required for data: 419071008
I0403 19:39:19.488638 25434 layer_factory.hpp:77] Creating layer pool2/3x3_s2
I0403 19:39:19.488662 25434 net.cpp:91] Creating Layer pool2/3x3_s2
I0403 19:39:19.488682 25434 net.cpp:425] pool2/3x3_s2 <- conv2/norm2
I0403 19:39:19.488709 25434 net.cpp:399] pool2/3x3_s2 -> pool2/3x3_s2
I0403 19:39:19.488775 25434 net.cpp:141] Setting up pool2/3x3_s2
I0403 19:39:19.488808 25434 net.cpp:148] Top shape: 24 192 28 28 (3612672)
I0403 19:39:19.488827 25434 net.cpp:156] Memory required for data: 433521696
I0403 19:39:19.488845 25434 layer_factory.hpp:77] Creating layer pool2/3x3_s2_pool2/3x3_s2_0_split
I0403 19:39:19.488870 25434 net.cpp:91] Creating Layer pool2/3x3_s2_pool2/3x3_s2_0_split
I0403 19:39:19.488893 25434 net.cpp:425] pool2/3x3_s2_pool2/3x3_s2_0_split <- pool2/3x3_s2
I0403 19:39:19.488915 25434 net.cpp:399] pool2/3x3_s2_pool2/3x3_s2_0_split -> pool2/3x3_s2_pool2/3x3_s2_0_split_0
I0403 19:39:19.488940 25434 net.cpp:399] pool2/3x3_s2_pool2/3x3_s2_0_split -> pool2/3x3_s2_pool2/3x3_s2_0_split_1
I0403 19:39:19.488966 25434 net.cpp:399] pool2/3x3_s2_pool2/3x3_s2_0_split -> pool2/3x3_s2_pool2/3x3_s2_0_split_2
I0403 19:39:19.488996 25434 net.cpp:399] pool2/3x3_s2_pool2/3x3_s2_0_split -> pool2/3x3_s2_pool2/3x3_s2_0_split_3
I0403 19:39:19.489084 25434 net.cpp:141] Setting up pool2/3x3_s2_pool2/3x3_s2_0_split
I0403 19:39:19.489116 25434 net.cpp:148] Top shape: 24 192 28 28 (3612672)
I0403 19:39:19.489137 25434 net.cpp:148] Top shape: 24 192 28 28 (3612672)
I0403 19:39:19.489156 25434 net.cpp:148] Top shape: 24 192 28 28 (3612672)
I0403 19:39:19.489174 25434 net.cpp:148] Top shape: 24 192 28 28 (3612672)
I0403 19:39:19.489190 25434 net.cpp:156] Memory required for data: 491324448
I0403 19:39:19.489209 25434 layer_factory.hpp:77] Creating layer inception_3a/1x1
I0403 19:39:19.489238 25434 net.cpp:91] Creating Layer inception_3a/1x1
I0403 19:39:19.489262 25434 net.cpp:425] inception_3a/1x1 <- pool2/3x3_s2_pool2/3x3_s2_0_split_0
I0403 19:39:19.489294 25434 net.cpp:399] inception_3a/1x1 -> inception_3a/1x1
I0403 19:39:19.491128 25434 net.cpp:141] Setting up inception_3a/1x1
I0403 19:39:19.491168 25434 net.cpp:148] Top shape: 24 64 28 28 (1204224)
I0403 19:39:19.491189 25434 net.cpp:156] Memory required for data: 496141344
I0403 19:39:19.491212 25434 layer_factory.hpp:77] Creating layer inception_3a/relu_1x1
I0403 19:39:19.491238 25434 net.cpp:91] Creating Layer inception_3a/relu_1x1
I0403 19:39:19.491260 25434 net.cpp:425] inception_3a/relu_1x1 <- inception_3a/1x1
I0403 19:39:19.491291 25434 net.cpp:386] inception_3a/relu_1x1 -> inception_3a/1x1 (in-place)
I0403 19:39:19.491510 25434 net.cpp:141] Setting up inception_3a/relu_1x1
I0403 19:39:19.491547 25434 net.cpp:148] Top shape: 24 64 28 28 (1204224)
I0403 19:39:19.491566 25434 net.cpp:156] Memory required for data: 500958240
I0403 19:39:19.491585 25434 layer_factory.hpp:77] Creating layer inception_3a/3x3_reduce
I0403 19:39:19.491613 25434 net.cpp:91] Creating Layer inception_3a/3x3_reduce
I0403 19:39:19.491636 25434 net.cpp:425] inception_3a/3x3_reduce <- pool2/3x3_s2_pool2/3x3_s2_0_split_1
I0403 19:39:19.491662 25434 net.cpp:399] inception_3a/3x3_reduce -> inception_3a/3x3_reduce
I0403 19:39:19.493671 25434 net.cpp:141] Setting up inception_3a/3x3_reduce
I0403 19:39:19.493715 25434 net.cpp:148] Top shape: 24 96 28 28 (1806336)
I0403 19:39:19.493738 25434 net.cpp:156] Memory required for data: 508183584
I0403 19:39:19.493767 25434 layer_factory.hpp:77] Creating layer inception_3a/relu_3x3_reduce
I0403 19:39:19.493814 25434 net.cpp:91] Creating Layer inception_3a/relu_3x3_reduce
I0403 19:39:19.493839 25434 net.cpp:425] inception_3a/relu_3x3_reduce <- inception_3a/3x3_reduce
I0403 19:39:19.493861 25434 net.cpp:386] inception_3a/relu_3x3_reduce -> inception_3a/3x3_reduce (in-place)
I0403 19:39:19.494077 25434 net.cpp:141] Setting up inception_3a/relu_3x3_reduce
I0403 19:39:19.494117 25434 net.cpp:148] Top shape: 24 96 28 28 (1806336)
I0403 19:39:19.494138 25434 net.cpp:156] Memory required for data: 515408928
I0403 19:39:19.494158 25434 layer_factory.hpp:77] Creating layer inception_3a/3x3
I0403 19:39:19.494189 25434 net.cpp:91] Creating Layer inception_3a/3x3
I0403 19:39:19.494210 25434 net.cpp:425] inception_3a/3x3 <- inception_3a/3x3_reduce
I0403 19:39:19.494235 25434 net.cpp:399] inception_3a/3x3 -> inception_3a/3x3
I0403 19:39:19.496230 25434 net.cpp:141] Setting up inception_3a/3x3
I0403 19:39:19.496268 25434 net.cpp:148] Top shape: 24 128 28 28 (2408448)
I0403 19:39:19.496296 25434 net.cpp:156] Memory required for data: 525042720
I0403 19:39:19.496325 25434 layer_factory.hpp:77] Creating layer inception_3a/relu_3x3
I0403 19:39:19.496350 25434 net.cpp:91] Creating Layer inception_3a/relu_3x3
I0403 19:39:19.496369 25434 net.cpp:425] inception_3a/relu_3x3 <- inception_3a/3x3
I0403 19:39:19.496394 25434 net.cpp:386] inception_3a/relu_3x3 -> inception_3a/3x3 (in-place)
I0403 19:39:19.496726 25434 net.cpp:141] Setting up inception_3a/relu_3x3
I0403 19:39:19.496762 25434 net.cpp:148] Top shape: 24 128 28 28 (2408448)
I0403 19:39:19.496783 25434 net.cpp:156] Memory required for data: 534676512
I0403 19:39:19.496803 25434 layer_factory.hpp:77] Creating layer inception_3a/5x5_reduce
I0403 19:39:19.496831 25434 net.cpp:91] Creating Layer inception_3a/5x5_reduce
I0403 19:39:19.496855 25434 net.cpp:425] inception_3a/5x5_reduce <- pool2/3x3_s2_pool2/3x3_s2_0_split_2
I0403 19:39:19.496882 25434 net.cpp:399] inception_3a/5x5_reduce -> inception_3a/5x5_reduce
I0403 19:39:19.498028 25434 net.cpp:141] Setting up inception_3a/5x5_reduce
I0403 19:39:19.498066 25434 net.cpp:148] Top shape: 24 16 28 28 (301056)
I0403 19:39:19.498088 25434 net.cpp:156] Memory required for data: 535880736
I0403 19:39:19.498112 25434 layer_factory.hpp:77] Creating layer inception_3a/relu_5x5_reduce
I0403 19:39:19.498136 25434 net.cpp:91] Creating Layer inception_3a/relu_5x5_reduce
I0403 19:39:19.498158 25434 net.cpp:425] inception_3a/relu_5x5_reduce <- inception_3a/5x5_reduce
I0403 19:39:19.498179 25434 net.cpp:386] inception_3a/relu_5x5_reduce -> inception_3a/5x5_reduce (in-place)
I0403 19:39:19.498519 25434 net.cpp:141] Setting up inception_3a/relu_5x5_reduce
I0403 19:39:19.498558 25434 net.cpp:148] Top shape: 24 16 28 28 (301056)
I0403 19:39:19.498579 25434 net.cpp:156] Memory required for data: 537084960
I0403 19:39:19.498597 25434 layer_factory.hpp:77] Creating layer inception_3a/5x5
I0403 19:39:19.498626 25434 net.cpp:91] Creating Layer inception_3a/5x5
I0403 19:39:19.498649 25434 net.cpp:425] inception_3a/5x5 <- inception_3a/5x5_reduce
I0403 19:39:19.498677 25434 net.cpp:399] inception_3a/5x5 -> inception_3a/5x5
I0403 19:39:19.499898 25434 net.cpp:141] Setting up inception_3a/5x5
I0403 19:39:19.499938 25434 net.cpp:148] Top shape: 24 32 28 28 (602112)
I0403 19:39:19.499960 25434 net.cpp:156] Memory required for data: 539493408
I0403 19:39:19.499984 25434 layer_factory.hpp:77] Creating layer inception_3a/relu_5x5
I0403 19:39:19.500007 25434 net.cpp:91] Creating Layer inception_3a/relu_5x5
I0403 19:39:19.500027 25434 net.cpp:425] inception_3a/relu_5x5 <- inception_3a/5x5
I0403 19:39:19.500056 25434 net.cpp:386] inception_3a/relu_5x5 -> inception_3a/5x5 (in-place)
I0403 19:39:19.500268 25434 net.cpp:141] Setting up inception_3a/relu_5x5
I0403 19:39:19.500310 25434 net.cpp:148] Top shape: 24 32 28 28 (602112)
I0403 19:39:19.500331 25434 net.cpp:156] Memory required for data: 541901856
I0403 19:39:19.500349 25434 layer_factory.hpp:77] Creating layer inception_3a/pool
I0403 19:39:19.500375 25434 net.cpp:91] Creating Layer inception_3a/pool
I0403 19:39:19.500413 25434 net.cpp:425] inception_3a/pool <- pool2/3x3_s2_pool2/3x3_s2_0_split_3
I0403 19:39:19.500440 25434 net.cpp:399] inception_3a/pool -> inception_3a/pool
I0403 19:39:19.500512 25434 net.cpp:141] Setting up inception_3a/pool
I0403 19:39:19.500546 25434 net.cpp:148] Top shape: 24 192 28 28 (3612672)
I0403 19:39:19.500566 25434 net.cpp:156] Memory required for data: 556352544
I0403 19:39:19.500584 25434 layer_factory.hpp:77] Creating layer inception_3a/pool_proj
I0403 19:39:19.500612 25434 net.cpp:91] Creating Layer inception_3a/pool_proj
I0403 19:39:19.500636 25434 net.cpp:425] inception_3a/pool_proj <- inception_3a/pool
I0403 19:39:19.500666 25434 net.cpp:399] inception_3a/pool_proj -> inception_3a/pool_proj
I0403 19:39:19.501817 25434 net.cpp:141] Setting up inception_3a/pool_proj
I0403 19:39:19.501860 25434 net.cpp:148] Top shape: 24 32 28 28 (602112)
I0403 19:39:19.501883 25434 net.cpp:156] Memory required for data: 558760992
I0403 19:39:19.501909 25434 layer_factory.hpp:77] Creating layer inception_3a/relu_pool_proj
I0403 19:39:19.501940 25434 net.cpp:91] Creating Layer inception_3a/relu_pool_proj
I0403 19:39:19.501963 25434 net.cpp:425] inception_3a/relu_pool_proj <- inception_3a/pool_proj
I0403 19:39:19.501986 25434 net.cpp:386] inception_3a/relu_pool_proj -> inception_3a/pool_proj (in-place)
I0403 19:39:19.502312 25434 net.cpp:141] Setting up inception_3a/relu_pool_proj
I0403 19:39:19.502349 25434 net.cpp:148] Top shape: 24 32 28 28 (602112)
I0403 19:39:19.502368 25434 net.cpp:156] Memory required for data: 561169440
I0403 19:39:19.502388 25434 layer_factory.hpp:77] Creating layer inception_3a/output
I0403 19:39:19.502413 25434 net.cpp:91] Creating Layer inception_3a/output
I0403 19:39:19.502432 25434 net.cpp:425] inception_3a/output <- inception_3a/1x1
I0403 19:39:19.502454 25434 net.cpp:425] inception_3a/output <- inception_3a/3x3
I0403 19:39:19.502473 25434 net.cpp:425] inception_3a/output <- inception_3a/5x5
I0403 19:39:19.502492 25434 net.cpp:425] inception_3a/output <- inception_3a/pool_proj
I0403 19:39:19.502517 25434 net.cpp:399] inception_3a/output -> inception_3a/output
I0403 19:39:19.502578 25434 net.cpp:141] Setting up inception_3a/output
I0403 19:39:19.502616 25434 net.cpp:148] Top shape: 24 256 28 28 (4816896)
I0403 19:39:19.502637 25434 net.cpp:156] Memory required for data: 580437024
I0403 19:39:19.502655 25434 layer_factory.hpp:77] Creating layer inception_3a/output_inception_3a/output_0_split
I0403 19:39:19.502677 25434 net.cpp:91] Creating Layer inception_3a/output_inception_3a/output_0_split
I0403 19:39:19.502698 25434 net.cpp:425] inception_3a/output_inception_3a/output_0_split <- inception_3a/output
I0403 19:39:19.502720 25434 net.cpp:399] inception_3a/output_inception_3a/output_0_split -> inception_3a/output_inception_3a/output_0_split_0
I0403 19:39:19.502748 25434 net.cpp:399] inception_3a/output_inception_3a/output_0_split -> inception_3a/output_inception_3a/output_0_split_1
I0403 19:39:19.502779 25434 net.cpp:399] inception_3a/output_inception_3a/output_0_split -> inception_3a/output_inception_3a/output_0_split_2
I0403 19:39:19.502805 25434 net.cpp:399] inception_3a/output_inception_3a/output_0_split -> inception_3a/output_inception_3a/output_0_split_3
I0403 19:39:19.502902 25434 net.cpp:141] Setting up inception_3a/output_inception_3a/output_0_split
I0403 19:39:19.502938 25434 net.cpp:148] Top shape: 24 256 28 28 (4816896)
I0403 19:39:19.502962 25434 net.cpp:148] Top shape: 24 256 28 28 (4816896)
I0403 19:39:19.502984 25434 net.cpp:148] Top shape: 24 256 28 28 (4816896)
I0403 19:39:19.503002 25434 net.cpp:148] Top shape: 24 256 28 28 (4816896)
I0403 19:39:19.503020 25434 net.cpp:156] Memory required for data: 657507360
I0403 19:39:19.503036 25434 layer_factory.hpp:77] Creating layer inception_3b/1x1
I0403 19:39:19.503065 25434 net.cpp:91] Creating Layer inception_3b/1x1
I0403 19:39:19.503087 25434 net.cpp:425] inception_3b/1x1 <- inception_3a/output_inception_3a/output_0_split_0
I0403 19:39:19.503115 25434 net.cpp:399] inception_3b/1x1 -> inception_3b/1x1
I0403 19:39:19.504482 25434 net.cpp:141] Setting up inception_3b/1x1
I0403 19:39:19.504537 25434 net.cpp:148] Top shape: 24 128 28 28 (2408448)
I0403 19:39:19.504561 25434 net.cpp:156] Memory required for data: 667141152
I0403 19:39:19.504585 25434 layer_factory.hpp:77] Creating layer inception_3b/relu_1x1
I0403 19:39:19.504607 25434 net.cpp:91] Creating Layer inception_3b/relu_1x1
I0403 19:39:19.504631 25434 net.cpp:425] inception_3b/relu_1x1 <- inception_3b/1x1
I0403 19:39:19.504658 25434 net.cpp:386] inception_3b/relu_1x1 -> inception_3b/1x1 (in-place)
I0403 19:39:19.504869 25434 net.cpp:141] Setting up inception_3b/relu_1x1
I0403 19:39:19.504905 25434 net.cpp:148] Top shape: 24 128 28 28 (2408448)
I0403 19:39:19.504925 25434 net.cpp:156] Memory required for data: 676774944
I0403 19:39:19.504942 25434 layer_factory.hpp:77] Creating layer inception_3b/3x3_reduce
I0403 19:39:19.504972 25434 net.cpp:91] Creating Layer inception_3b/3x3_reduce
I0403 19:39:19.504997 25434 net.cpp:425] inception_3b/3x3_reduce <- inception_3a/output_inception_3a/output_0_split_1
I0403 19:39:19.505023 25434 net.cpp:399] inception_3b/3x3_reduce -> inception_3b/3x3_reduce
I0403 19:39:19.506388 25434 net.cpp:141] Setting up inception_3b/3x3_reduce
I0403 19:39:19.506431 25434 net.cpp:148] Top shape: 24 128 28 28 (2408448)
I0403 19:39:19.506454 25434 net.cpp:156] Memory required for data: 686408736
I0403 19:39:19.506477 25434 layer_factory.hpp:77] Creating layer inception_3b/relu_3x3_reduce
I0403 19:39:19.506500 25434 net.cpp:91] Creating Layer inception_3b/relu_3x3_reduce
I0403 19:39:19.506522 25434 net.cpp:425] inception_3b/relu_3x3_reduce <- inception_3b/3x3_reduce
I0403 19:39:19.506547 25434 net.cpp:386] inception_3b/relu_3x3_reduce -> inception_3b/3x3_reduce (in-place)
I0403 19:39:19.506758 25434 net.cpp:141] Setting up inception_3b/relu_3x3_reduce
I0403 19:39:19.506794 25434 net.cpp:148] Top shape: 24 128 28 28 (2408448)
I0403 19:39:19.506814 25434 net.cpp:156] Memory required for data: 696042528
I0403 19:39:19.506834 25434 layer_factory.hpp:77] Creating layer inception_3b/3x3
I0403 19:39:19.506867 25434 net.cpp:91] Creating Layer inception_3b/3x3
I0403 19:39:19.506892 25434 net.cpp:425] inception_3b/3x3 <- inception_3b/3x3_reduce
I0403 19:39:19.506916 25434 net.cpp:399] inception_3b/3x3 -> inception_3b/3x3
I0403 19:39:19.510437 25434 net.cpp:141] Setting up inception_3b/3x3
I0403 19:39:19.510478 25434 net.cpp:148] Top shape: 24 192 28 28 (3612672)
I0403 19:39:19.510499 25434 net.cpp:156] Memory required for data: 710493216
I0403 19:39:19.510522 25434 layer_factory.hpp:77] Creating layer inception_3b/relu_3x3
I0403 19:39:19.510545 25434 net.cpp:91] Creating Layer inception_3b/relu_3x3
I0403 19:39:19.510566 25434 net.cpp:425] inception_3b/relu_3x3 <- inception_3b/3x3
I0403 19:39:19.510592 25434 net.cpp:386] inception_3b/relu_3x3 -> inception_3b/3x3 (in-place)
I0403 19:39:19.510922 25434 net.cpp:141] Setting up inception_3b/relu_3x3
I0403 19:39:19.510962 25434 net.cpp:148] Top shape: 24 192 28 28 (3612672)
I0403 19:39:19.510983 25434 net.cpp:156] Memory required for data: 724943904
I0403 19:39:19.511001 25434 layer_factory.hpp:77] Creating layer inception_3b/5x5_reduce
I0403 19:39:19.511029 25434 net.cpp:91] Creating Layer inception_3b/5x5_reduce
I0403 19:39:19.511052 25434 net.cpp:425] inception_3b/5x5_reduce <- inception_3a/output_inception_3a/output_0_split_2
I0403 19:39:19.511081 25434 net.cpp:399] inception_3b/5x5_reduce -> inception_3b/5x5_reduce
I0403 19:39:19.512271 25434 net.cpp:141] Setting up inception_3b/5x5_reduce
I0403 19:39:19.512315 25434 net.cpp:148] Top shape: 24 32 28 28 (602112)
I0403 19:39:19.512337 25434 net.cpp:156] Memory required for data: 727352352
I0403 19:39:19.512362 25434 layer_factory.hpp:77] Creating layer inception_3b/relu_5x5_reduce
I0403 19:39:19.512387 25434 net.cpp:91] Creating Layer inception_3b/relu_5x5_reduce
I0403 19:39:19.512408 25434 net.cpp:425] inception_3b/relu_5x5_reduce <- inception_3b/5x5_reduce
I0403 19:39:19.512433 25434 net.cpp:386] inception_3b/relu_5x5_reduce -> inception_3b/5x5_reduce (in-place)
I0403 19:39:19.512675 25434 net.cpp:141] Setting up inception_3b/relu_5x5_reduce
I0403 19:39:19.512709 25434 net.cpp:148] Top shape: 24 32 28 28 (602112)
I0403 19:39:19.512729 25434 net.cpp:156] Memory required for data: 729760800
I0403 19:39:19.512748 25434 layer_factory.hpp:77] Creating layer inception_3b/5x5
I0403 19:39:19.512776 25434 net.cpp:91] Creating Layer inception_3b/5x5
I0403 19:39:19.512799 25434 net.cpp:425] inception_3b/5x5 <- inception_3b/5x5_reduce
I0403 19:39:19.512826 25434 net.cpp:399] inception_3b/5x5 -> inception_3b/5x5
I0403 19:39:19.515197 25434 net.cpp:141] Setting up inception_3b/5x5
I0403 19:39:19.515241 25434 net.cpp:148] Top shape: 24 96 28 28 (1806336)
I0403 19:39:19.515264 25434 net.cpp:156] Memory required for data: 736986144
I0403 19:39:19.515291 25434 layer_factory.hpp:77] Creating layer inception_3b/relu_5x5
I0403 19:39:19.515319 25434 net.cpp:91] Creating Layer inception_3b/relu_5x5
I0403 19:39:19.515341 25434 net.cpp:425] inception_3b/relu_5x5 <- inception_3b/5x5
I0403 19:39:19.515363 25434 net.cpp:386] inception_3b/relu_5x5 -> inception_3b/5x5 (in-place)
I0403 19:39:19.515597 25434 net.cpp:141] Setting up inception_3b/relu_5x5
I0403 19:39:19.515633 25434 net.cpp:148] Top shape: 24 96 28 28 (1806336)
I0403 19:39:19.515652 25434 net.cpp:156] Memory required for data: 744211488
I0403 19:39:19.515671 25434 layer_factory.hpp:77] Creating layer inception_3b/pool
I0403 19:39:19.515694 25434 net.cpp:91] Creating Layer inception_3b/pool
I0403 19:39:19.515717 25434 net.cpp:425] inception_3b/pool <- inception_3a/output_inception_3a/output_0_split_3
I0403 19:39:19.515739 25434 net.cpp:399] inception_3b/pool -> inception_3b/pool
I0403 19:39:19.515812 25434 net.cpp:141] Setting up inception_3b/pool
I0403 19:39:19.515849 25434 net.cpp:148] Top shape: 24 256 28 28 (4816896)
I0403 19:39:19.515871 25434 net.cpp:156] Memory required for data: 763479072
I0403 19:39:19.515889 25434 layer_factory.hpp:77] Creating layer inception_3b/pool_proj
I0403 19:39:19.515920 25434 net.cpp:91] Creating Layer inception_3b/pool_proj
I0403 19:39:19.515945 25434 net.cpp:425] inception_3b/pool_proj <- inception_3b/pool
I0403 19:39:19.515970 25434 net.cpp:399] inception_3b/pool_proj -> inception_3b/pool_proj
I0403 19:39:19.517261 25434 net.cpp:141] Setting up inception_3b/pool_proj
I0403 19:39:19.517305 25434 net.cpp:148] Top shape: 24 64 28 28 (1204224)
I0403 19:39:19.517328 25434 net.cpp:156] Memory required for data: 768295968
I0403 19:39:19.517350 25434 layer_factory.hpp:77] Creating layer inception_3b/relu_pool_proj
I0403 19:39:19.517375 25434 net.cpp:91] Creating Layer inception_3b/relu_pool_proj
I0403 19:39:19.517400 25434 net.cpp:425] inception_3b/relu_pool_proj <- inception_3b/pool_proj
I0403 19:39:19.517426 25434 net.cpp:386] inception_3b/relu_pool_proj -> inception_3b/pool_proj (in-place)
I0403 19:39:19.517869 25434 net.cpp:141] Setting up inception_3b/relu_pool_proj
I0403 19:39:19.517905 25434 net.cpp:148] Top shape: 24 64 28 28 (1204224)
I0403 19:39:19.517925 25434 net.cpp:156] Memory required for data: 773112864
I0403 19:39:19.517945 25434 layer_factory.hpp:77] Creating layer inception_3b/output
I0403 19:39:19.517966 25434 net.cpp:91] Creating Layer inception_3b/output
I0403 19:39:19.517985 25434 net.cpp:425] inception_3b/output <- inception_3b/1x1
I0403 19:39:19.518007 25434 net.cpp:425] inception_3b/output <- inception_3b/3x3
I0403 19:39:19.518028 25434 net.cpp:425] inception_3b/output <- inception_3b/5x5
I0403 19:39:19.518048 25434 net.cpp:425] inception_3b/output <- inception_3b/pool_proj
I0403 19:39:19.518074 25434 net.cpp:399] inception_3b/output -> inception_3b/output
I0403 19:39:19.518134 25434 net.cpp:141] Setting up inception_3b/output
I0403 19:39:19.518165 25434 net.cpp:148] Top shape: 24 480 28 28 (9031680)
I0403 19:39:19.518184 25434 net.cpp:156] Memory required for data: 809239584
I0403 19:39:19.518203 25434 layer_factory.hpp:77] Creating layer pool3/3x3_s2
I0403 19:39:19.518225 25434 net.cpp:91] Creating Layer pool3/3x3_s2
I0403 19:39:19.518249 25434 net.cpp:425] pool3/3x3_s2 <- inception_3b/output
I0403 19:39:19.518301 25434 net.cpp:399] pool3/3x3_s2 -> pool3/3x3_s2
I0403 19:39:19.518378 25434 net.cpp:141] Setting up pool3/3x3_s2
I0403 19:39:19.518409 25434 net.cpp:148] Top shape: 24 480 14 14 (2257920)
I0403 19:39:19.518429 25434 net.cpp:156] Memory required for data: 818271264
I0403 19:39:19.518445 25434 layer_factory.hpp:77] Creating layer pool3/3x3_s2_pool3/3x3_s2_0_split
I0403 19:39:19.518471 25434 net.cpp:91] Creating Layer pool3/3x3_s2_pool3/3x3_s2_0_split
I0403 19:39:19.518494 25434 net.cpp:425] pool3/3x3_s2_pool3/3x3_s2_0_split <- pool3/3x3_s2
I0403 19:39:19.518517 25434 net.cpp:399] pool3/3x3_s2_pool3/3x3_s2_0_split -> pool3/3x3_s2_pool3/3x3_s2_0_split_0
I0403 19:39:19.518543 25434 net.cpp:399] pool3/3x3_s2_pool3/3x3_s2_0_split -> pool3/3x3_s2_pool3/3x3_s2_0_split_1
I0403 19:39:19.518570 25434 net.cpp:399] pool3/3x3_s2_pool3/3x3_s2_0_split -> pool3/3x3_s2_pool3/3x3_s2_0_split_2
I0403 19:39:19.518595 25434 net.cpp:399] pool3/3x3_s2_pool3/3x3_s2_0_split -> pool3/3x3_s2_pool3/3x3_s2_0_split_3
I0403 19:39:19.518689 25434 net.cpp:141] Setting up pool3/3x3_s2_pool3/3x3_s2_0_split
I0403 19:39:19.518720 25434 net.cpp:148] Top shape: 24 480 14 14 (2257920)
I0403 19:39:19.518743 25434 net.cpp:148] Top shape: 24 480 14 14 (2257920)
I0403 19:39:19.518764 25434 net.cpp:148] Top shape: 24 480 14 14 (2257920)
I0403 19:39:19.518781 25434 net.cpp:148] Top shape: 24 480 14 14 (2257920)
I0403 19:39:19.518797 25434 net.cpp:156] Memory required for data: 854397984
I0403 19:39:19.518815 25434 layer_factory.hpp:77] Creating layer inception_4a/1x1
I0403 19:39:19.518843 25434 net.cpp:91] Creating Layer inception_4a/1x1
I0403 19:39:19.518868 25434 net.cpp:425] inception_4a/1x1 <- pool3/3x3_s2_pool3/3x3_s2_0_split_0
I0403 19:39:19.518895 25434 net.cpp:399] inception_4a/1x1 -> inception_4a/1x1
I0403 19:39:19.520818 25434 net.cpp:141] Setting up inception_4a/1x1
I0403 19:39:19.520856 25434 net.cpp:148] Top shape: 24 192 14 14 (903168)
I0403 19:39:19.520882 25434 net.cpp:156] Memory required for data: 858010656
I0403 19:39:19.520906 25434 layer_factory.hpp:77] Creating layer inception_4a/relu_1x1
I0403 19:39:19.520930 25434 net.cpp:91] Creating Layer inception_4a/relu_1x1
I0403 19:39:19.520951 25434 net.cpp:425] inception_4a/relu_1x1 <- inception_4a/1x1
I0403 19:39:19.520974 25434 net.cpp:386] inception_4a/relu_1x1 -> inception_4a/1x1 (in-place)
I0403 19:39:19.521194 25434 net.cpp:141] Setting up inception_4a/relu_1x1
I0403 19:39:19.521230 25434 net.cpp:148] Top shape: 24 192 14 14 (903168)
I0403 19:39:19.521252 25434 net.cpp:156] Memory required for data: 861623328
I0403 19:39:19.521271 25434 layer_factory.hpp:77] Creating layer inception_4a/3x3_reduce
I0403 19:39:19.521307 25434 net.cpp:91] Creating Layer inception_4a/3x3_reduce
I0403 19:39:19.521334 25434 net.cpp:425] inception_4a/3x3_reduce <- pool3/3x3_s2_pool3/3x3_s2_0_split_1
I0403 19:39:19.521358 25434 net.cpp:399] inception_4a/3x3_reduce -> inception_4a/3x3_reduce
I0403 19:39:19.522899 25434 net.cpp:141] Setting up inception_4a/3x3_reduce
I0403 19:39:19.522936 25434 net.cpp:148] Top shape: 24 96 14 14 (451584)
I0403 19:39:19.522956 25434 net.cpp:156] Memory required for data: 863429664
I0403 19:39:19.522987 25434 layer_factory.hpp:77] Creating layer inception_4a/relu_3x3_reduce
I0403 19:39:19.523015 25434 net.cpp:91] Creating Layer inception_4a/relu_3x3_reduce
I0403 19:39:19.523039 25434 net.cpp:425] inception_4a/relu_3x3_reduce <- inception_4a/3x3_reduce
I0403 19:39:19.523061 25434 net.cpp:386] inception_4a/relu_3x3_reduce -> inception_4a/3x3_reduce (in-place)
I0403 19:39:19.523272 25434 net.cpp:141] Setting up inception_4a/relu_3x3_reduce
I0403 19:39:19.523314 25434 net.cpp:148] Top shape: 24 96 14 14 (451584)
I0403 19:39:19.523336 25434 net.cpp:156] Memory required for data: 865236000
I0403 19:39:19.523356 25434 layer_factory.hpp:77] Creating layer inception_4a/3x3
I0403 19:39:19.523385 25434 net.cpp:91] Creating Layer inception_4a/3x3
I0403 19:39:19.523408 25434 net.cpp:425] inception_4a/3x3 <- inception_4a/3x3_reduce
I0403 19:39:19.523432 25434 net.cpp:399] inception_4a/3x3 -> inception_4a/3x3
I0403 19:39:19.526669 25434 net.cpp:141] Setting up inception_4a/3x3
I0403 19:39:19.526713 25434 net.cpp:148] Top shape: 24 208 14 14 (978432)
I0403 19:39:19.526736 25434 net.cpp:156] Memory required for data: 869149728
I0403 19:39:19.526758 25434 layer_factory.hpp:77] Creating layer inception_4a/relu_3x3
I0403 19:39:19.526782 25434 net.cpp:91] Creating Layer inception_4a/relu_3x3
I0403 19:39:19.526803 25434 net.cpp:425] inception_4a/relu_3x3 <- inception_4a/3x3
I0403 19:39:19.526828 25434 net.cpp:386] inception_4a/relu_3x3 -> inception_4a/3x3 (in-place)
I0403 19:39:19.527160 25434 net.cpp:141] Setting up inception_4a/relu_3x3
I0403 19:39:19.527199 25434 net.cpp:148] Top shape: 24 208 14 14 (978432)
I0403 19:39:19.527221 25434 net.cpp:156] Memory required for data: 873063456
I0403 19:39:19.527240 25434 layer_factory.hpp:77] Creating layer inception_4a/5x5_reduce
I0403 19:39:19.527268 25434 net.cpp:91] Creating Layer inception_4a/5x5_reduce
I0403 19:39:19.527300 25434 net.cpp:425] inception_4a/5x5_reduce <- pool3/3x3_s2_pool3/3x3_s2_0_split_2
I0403 19:39:19.527333 25434 net.cpp:399] inception_4a/5x5_reduce -> inception_4a/5x5_reduce
I0403 19:39:19.528564 25434 net.cpp:141] Setting up inception_4a/5x5_reduce
I0403 19:39:19.528600 25434 net.cpp:148] Top shape: 24 16 14 14 (75264)
I0403 19:39:19.528621 25434 net.cpp:156] Memory required for data: 873364512
I0403 19:39:19.528643 25434 layer_factory.hpp:77] Creating layer inception_4a/relu_5x5_reduce
I0403 19:39:19.528666 25434 net.cpp:91] Creating Layer inception_4a/relu_5x5_reduce
I0403 19:39:19.528687 25434 net.cpp:425] inception_4a/relu_5x5_reduce <- inception_4a/5x5_reduce
I0403 19:39:19.528713 25434 net.cpp:386] inception_4a/relu_5x5_reduce -> inception_4a/5x5_reduce (in-place)
I0403 19:39:19.528930 25434 net.cpp:141] Setting up inception_4a/relu_5x5_reduce
I0403 19:39:19.528964 25434 net.cpp:148] Top shape: 24 16 14 14 (75264)
I0403 19:39:19.528982 25434 net.cpp:156] Memory required for data: 873665568
I0403 19:39:19.529000 25434 layer_factory.hpp:77] Creating layer inception_4a/5x5
I0403 19:39:19.529028 25434 net.cpp:91] Creating Layer inception_4a/5x5
I0403 19:39:19.529052 25434 net.cpp:425] inception_4a/5x5 <- inception_4a/5x5_reduce
I0403 19:39:19.529078 25434 net.cpp:399] inception_4a/5x5 -> inception_4a/5x5
I0403 19:39:19.530392 25434 net.cpp:141] Setting up inception_4a/5x5
I0403 19:39:19.530428 25434 net.cpp:148] Top shape: 24 48 14 14 (225792)
I0403 19:39:19.530449 25434 net.cpp:156] Memory required for data: 874568736
I0403 19:39:19.530472 25434 layer_factory.hpp:77] Creating layer inception_4a/relu_5x5
I0403 19:39:19.530496 25434 net.cpp:91] Creating Layer inception_4a/relu_5x5
I0403 19:39:19.530520 25434 net.cpp:425] inception_4a/relu_5x5 <- inception_4a/5x5
I0403 19:39:19.530542 25434 net.cpp:386] inception_4a/relu_5x5 -> inception_4a/5x5 (in-place)
I0403 19:39:19.530760 25434 net.cpp:141] Setting up inception_4a/relu_5x5
I0403 19:39:19.530796 25434 net.cpp:148] Top shape: 24 48 14 14 (225792)
I0403 19:39:19.530814 25434 net.cpp:156] Memory required for data: 875471904
I0403 19:39:19.530833 25434 layer_factory.hpp:77] Creating layer inception_4a/pool
I0403 19:39:19.530856 25434 net.cpp:91] Creating Layer inception_4a/pool
I0403 19:39:19.530877 25434 net.cpp:425] inception_4a/pool <- pool3/3x3_s2_pool3/3x3_s2_0_split_3
I0403 19:39:19.530901 25434 net.cpp:399] inception_4a/pool -> inception_4a/pool
I0403 19:39:19.530977 25434 net.cpp:141] Setting up inception_4a/pool
I0403 19:39:19.531008 25434 net.cpp:148] Top shape: 24 480 14 14 (2257920)
I0403 19:39:19.531025 25434 net.cpp:156] Memory required for data: 884503584
I0403 19:39:19.531043 25434 layer_factory.hpp:77] Creating layer inception_4a/pool_proj
I0403 19:39:19.531069 25434 net.cpp:91] Creating Layer inception_4a/pool_proj
I0403 19:39:19.531091 25434 net.cpp:425] inception_4a/pool_proj <- inception_4a/pool
I0403 19:39:19.531117 25434 net.cpp:399] inception_4a/pool_proj -> inception_4a/pool_proj
I0403 19:39:19.532531 25434 net.cpp:141] Setting up inception_4a/pool_proj
I0403 19:39:19.532567 25434 net.cpp:148] Top shape: 24 64 14 14 (301056)
I0403 19:39:19.532603 25434 net.cpp:156] Memory required for data: 885707808
I0403 19:39:19.532629 25434 layer_factory.hpp:77] Creating layer inception_4a/relu_pool_proj
I0403 19:39:19.532657 25434 net.cpp:91] Creating Layer inception_4a/relu_pool_proj
I0403 19:39:19.532681 25434 net.cpp:425] inception_4a/relu_pool_proj <- inception_4a/pool_proj
I0403 19:39:19.532704 25434 net.cpp:386] inception_4a/relu_pool_proj -> inception_4a/pool_proj (in-place)
I0403 19:39:19.533040 25434 net.cpp:141] Setting up inception_4a/relu_pool_proj
I0403 19:39:19.533073 25434 net.cpp:148] Top shape: 24 64 14 14 (301056)
I0403 19:39:19.533092 25434 net.cpp:156] Memory required for data: 886912032
I0403 19:39:19.533112 25434 layer_factory.hpp:77] Creating layer inception_4a/output
I0403 19:39:19.533136 25434 net.cpp:91] Creating Layer inception_4a/output
I0403 19:39:19.533157 25434 net.cpp:425] inception_4a/output <- inception_4a/1x1
I0403 19:39:19.533176 25434 net.cpp:425] inception_4a/output <- inception_4a/3x3
I0403 19:39:19.533196 25434 net.cpp:425] inception_4a/output <- inception_4a/5x5
I0403 19:39:19.533216 25434 net.cpp:425] inception_4a/output <- inception_4a/pool_proj
I0403 19:39:19.533237 25434 net.cpp:399] inception_4a/output -> inception_4a/output
I0403 19:39:19.533300 25434 net.cpp:141] Setting up inception_4a/output
I0403 19:39:19.533332 25434 net.cpp:148] Top shape: 24 512 14 14 (2408448)
I0403 19:39:19.533350 25434 net.cpp:156] Memory required for data: 896545824
I0403 19:39:19.533370 25434 layer_factory.hpp:77] Creating layer inception_4a/output_inception_4a/output_0_split
I0403 19:39:19.533390 25434 net.cpp:91] Creating Layer inception_4a/output_inception_4a/output_0_split
I0403 19:39:19.533409 25434 net.cpp:425] inception_4a/output_inception_4a/output_0_split <- inception_4a/output
I0403 19:39:19.533435 25434 net.cpp:399] inception_4a/output_inception_4a/output_0_split -> inception_4a/output_inception_4a/output_0_split_0
I0403 19:39:19.533462 25434 net.cpp:399] inception_4a/output_inception_4a/output_0_split -> inception_4a/output_inception_4a/output_0_split_1
I0403 19:39:19.533488 25434 net.cpp:399] inception_4a/output_inception_4a/output_0_split -> inception_4a/output_inception_4a/output_0_split_2
I0403 19:39:19.533512 25434 net.cpp:399] inception_4a/output_inception_4a/output_0_split -> inception_4a/output_inception_4a/output_0_split_3
I0403 19:39:19.533542 25434 net.cpp:399] inception_4a/output_inception_4a/output_0_split -> inception_4a/output_inception_4a/output_0_split_4
I0403 19:39:19.533655 25434 net.cpp:141] Setting up inception_4a/output_inception_4a/output_0_split
I0403 19:39:19.533686 25434 net.cpp:148] Top shape: 24 512 14 14 (2408448)
I0403 19:39:19.533705 25434 net.cpp:148] Top shape: 24 512 14 14 (2408448)
I0403 19:39:19.533725 25434 net.cpp:148] Top shape: 24 512 14 14 (2408448)
I0403 19:39:19.533743 25434 net.cpp:148] Top shape: 24 512 14 14 (2408448)
I0403 19:39:19.533762 25434 net.cpp:148] Top shape: 24 512 14 14 (2408448)
I0403 19:39:19.533777 25434 net.cpp:156] Memory required for data: 944714784
I0403 19:39:19.533795 25434 layer_factory.hpp:77] Creating layer loss1/ave_pool
I0403 19:39:19.533817 25434 net.cpp:91] Creating Layer loss1/ave_pool
I0403 19:39:19.533836 25434 net.cpp:425] loss1/ave_pool <- inception_4a/output_inception_4a/output_0_split_0
I0403 19:39:19.533859 25434 net.cpp:399] loss1/ave_pool -> loss1/ave_pool
I0403 19:39:19.534116 25434 net.cpp:141] Setting up loss1/ave_pool
I0403 19:39:19.534149 25434 net.cpp:148] Top shape: 24 512 4 4 (196608)
I0403 19:39:19.534168 25434 net.cpp:156] Memory required for data: 945501216
I0403 19:39:19.534188 25434 layer_factory.hpp:77] Creating layer loss1/conv
I0403 19:39:19.534219 25434 net.cpp:91] Creating Layer loss1/conv
I0403 19:39:19.534241 25434 net.cpp:425] loss1/conv <- loss1/ave_pool
I0403 19:39:19.534265 25434 net.cpp:399] loss1/conv -> loss1/conv
I0403 19:39:19.535975 25434 net.cpp:141] Setting up loss1/conv
I0403 19:39:19.536015 25434 net.cpp:148] Top shape: 24 128 4 4 (49152)
I0403 19:39:19.536053 25434 net.cpp:156] Memory required for data: 945697824
I0403 19:39:19.536077 25434 layer_factory.hpp:77] Creating layer loss1/relu_conv
I0403 19:39:19.536100 25434 net.cpp:91] Creating Layer loss1/relu_conv
I0403 19:39:19.536120 25434 net.cpp:425] loss1/relu_conv <- loss1/conv
I0403 19:39:19.536144 25434 net.cpp:386] loss1/relu_conv -> loss1/conv (in-place)
I0403 19:39:19.536492 25434 net.cpp:141] Setting up loss1/relu_conv
I0403 19:39:19.536528 25434 net.cpp:148] Top shape: 24 128 4 4 (49152)
I0403 19:39:19.536548 25434 net.cpp:156] Memory required for data: 945894432
I0403 19:39:19.536567 25434 layer_factory.hpp:77] Creating layer loss1/fc
I0403 19:39:19.536598 25434 net.cpp:91] Creating Layer loss1/fc
I0403 19:39:19.536622 25434 net.cpp:425] loss1/fc <- loss1/conv
I0403 19:39:19.536646 25434 net.cpp:399] loss1/fc -> loss1/fc
I0403 19:39:19.558521 25434 net.cpp:141] Setting up loss1/fc
I0403 19:39:19.558569 25434 net.cpp:148] Top shape: 24 1024 (24576)
I0403 19:39:19.558590 25434 net.cpp:156] Memory required for data: 945992736
I0403 19:39:19.558615 25434 layer_factory.hpp:77] Creating layer loss1/relu_fc
I0403 19:39:19.558640 25434 net.cpp:91] Creating Layer loss1/relu_fc
I0403 19:39:19.558661 25434 net.cpp:425] loss1/relu_fc <- loss1/fc
I0403 19:39:19.558684 25434 net.cpp:386] loss1/relu_fc -> loss1/fc (in-place)
I0403 19:39:19.558920 25434 net.cpp:141] Setting up loss1/relu_fc
I0403 19:39:19.558957 25434 net.cpp:148] Top shape: 24 1024 (24576)
I0403 19:39:19.558979 25434 net.cpp:156] Memory required for data: 946091040
I0403 19:39:19.558998 25434 layer_factory.hpp:77] Creating layer loss1/drop_fc
I0403 19:39:19.559031 25434 net.cpp:91] Creating Layer loss1/drop_fc
I0403 19:39:19.559053 25434 net.cpp:425] loss1/drop_fc <- loss1/fc
I0403 19:39:19.559077 25434 net.cpp:386] loss1/drop_fc -> loss1/fc (in-place)
I0403 19:39:19.559149 25434 net.cpp:141] Setting up loss1/drop_fc
I0403 19:39:19.559180 25434 net.cpp:148] Top shape: 24 1024 (24576)
I0403 19:39:19.559201 25434 net.cpp:156] Memory required for data: 946189344
I0403 19:39:19.559221 25434 layer_factory.hpp:77] Creating layer loss1/classifier_plantvillage
I0403 19:39:19.559247 25434 net.cpp:91] Creating Layer loss1/classifier_plantvillage
I0403 19:39:19.559272 25434 net.cpp:425] loss1/classifier_plantvillage <- loss1/fc
I0403 19:39:19.559303 25434 net.cpp:399] loss1/classifier_plantvillage -> loss1/classifier_plantvillage
I0403 19:39:19.560410 25434 net.cpp:141] Setting up loss1/classifier_plantvillage
I0403 19:39:19.560449 25434 net.cpp:148] Top shape: 24 38 (912)
I0403 19:39:19.560472 25434 net.cpp:156] Memory required for data: 946192992
I0403 19:39:19.560495 25434 layer_factory.hpp:77] Creating layer loss1/classifier_plantvillage_loss1/classifier_plantvillage_0_split
I0403 19:39:19.560518 25434 net.cpp:91] Creating Layer loss1/classifier_plantvillage_loss1/classifier_plantvillage_0_split
I0403 19:39:19.560540 25434 net.cpp:425] loss1/classifier_plantvillage_loss1/classifier_plantvillage_0_split <- loss1/classifier_plantvillage
I0403 19:39:19.560562 25434 net.cpp:399] loss1/classifier_plantvillage_loss1/classifier_plantvillage_0_split -> loss1/classifier_plantvillage_loss1/classifier_plantvillage_0_split_0
I0403 19:39:19.560587 25434 net.cpp:399] loss1/classifier_plantvillage_loss1/classifier_plantvillage_0_split -> loss1/classifier_plantvillage_loss1/classifier_plantvillage_0_split_1
I0403 19:39:19.560616 25434 net.cpp:399] loss1/classifier_plantvillage_loss1/classifier_plantvillage_0_split -> loss1/classifier_plantvillage_loss1/classifier_plantvillage_0_split_2
I0403 19:39:19.560700 25434 net.cpp:141] Setting up loss1/classifier_plantvillage_loss1/classifier_plantvillage_0_split
I0403 19:39:19.560732 25434 net.cpp:148] Top shape: 24 38 (912)
I0403 19:39:19.560753 25434 net.cpp:148] Top shape: 24 38 (912)
I0403 19:39:19.560772 25434 net.cpp:148] Top shape: 24 38 (912)
I0403 19:39:19.560789 25434 net.cpp:156] Memory required for data: 946203936
I0403 19:39:19.560807 25434 layer_factory.hpp:77] Creating layer inception_4b/1x1
I0403 19:39:19.560832 25434 net.cpp:91] Creating Layer inception_4b/1x1
I0403 19:39:19.560874 25434 net.cpp:425] inception_4b/1x1 <- inception_4a/output_inception_4a/output_0_split_1
I0403 19:39:19.560904 25434 net.cpp:399] inception_4b/1x1 -> inception_4b/1x1
I0403 19:39:19.562876 25434 net.cpp:141] Setting up inception_4b/1x1
I0403 19:39:19.562912 25434 net.cpp:148] Top shape: 24 160 14 14 (752640)
I0403 19:39:19.562933 25434 net.cpp:156] Memory required for data: 949214496
I0403 19:39:19.562957 25434 layer_factory.hpp:77] Creating layer inception_4b/relu_1x1
I0403 19:39:19.562979 25434 net.cpp:91] Creating Layer inception_4b/relu_1x1
I0403 19:39:19.563004 25434 net.cpp:425] inception_4b/relu_1x1 <- inception_4b/1x1
I0403 19:39:19.563030 25434 net.cpp:386] inception_4b/relu_1x1 -> inception_4b/1x1 (in-place)
I0403 19:39:19.563251 25434 net.cpp:141] Setting up inception_4b/relu_1x1
I0403 19:39:19.563292 25434 net.cpp:148] Top shape: 24 160 14 14 (752640)
I0403 19:39:19.563313 25434 net.cpp:156] Memory required for data: 952225056
I0403 19:39:19.563333 25434 layer_factory.hpp:77] Creating layer inception_4b/3x3_reduce
I0403 19:39:19.563362 25434 net.cpp:91] Creating Layer inception_4b/3x3_reduce
I0403 19:39:19.563387 25434 net.cpp:425] inception_4b/3x3_reduce <- inception_4a/output_inception_4a/output_0_split_2
I0403 19:39:19.563416 25434 net.cpp:399] inception_4b/3x3_reduce -> inception_4b/3x3_reduce
I0403 19:39:19.565067 25434 net.cpp:141] Setting up inception_4b/3x3_reduce
I0403 19:39:19.565107 25434 net.cpp:148] Top shape: 24 112 14 14 (526848)
I0403 19:39:19.565129 25434 net.cpp:156] Memory required for data: 954332448
I0403 19:39:19.565152 25434 layer_factory.hpp:77] Creating layer inception_4b/relu_3x3_reduce
I0403 19:39:19.565181 25434 net.cpp:91] Creating Layer inception_4b/relu_3x3_reduce
I0403 19:39:19.565204 25434 net.cpp:425] inception_4b/relu_3x3_reduce <- inception_4b/3x3_reduce
I0403 19:39:19.565227 25434 net.cpp:386] inception_4b/relu_3x3_reduce -> inception_4b/3x3_reduce (in-place)
I0403 19:39:19.565574 25434 net.cpp:141] Setting up inception_4b/relu_3x3_reduce
I0403 19:39:19.565611 25434 net.cpp:148] Top shape: 24 112 14 14 (526848)
I0403 19:39:19.565631 25434 net.cpp:156] Memory required for data: 956439840
I0403 19:39:19.565652 25434 layer_factory.hpp:77] Creating layer inception_4b/3x3
I0403 19:39:19.565680 25434 net.cpp:91] Creating Layer inception_4b/3x3
I0403 19:39:19.565702 25434 net.cpp:425] inception_4b/3x3 <- inception_4b/3x3_reduce
I0403 19:39:19.565732 25434 net.cpp:399] inception_4b/3x3 -> inception_4b/3x3
I0403 19:39:19.569375 25434 net.cpp:141] Setting up inception_4b/3x3
I0403 19:39:19.569417 25434 net.cpp:148] Top shape: 24 224 14 14 (1053696)
I0403 19:39:19.569440 25434 net.cpp:156] Memory required for data: 960654624
I0403 19:39:19.569465 25434 layer_factory.hpp:77] Creating layer inception_4b/relu_3x3
I0403 19:39:19.569489 25434 net.cpp:91] Creating Layer inception_4b/relu_3x3
I0403 19:39:19.569510 25434 net.cpp:425] inception_4b/relu_3x3 <- inception_4b/3x3
I0403 19:39:19.569531 25434 net.cpp:386] inception_4b/relu_3x3 -> inception_4b/3x3 (in-place)
I0403 19:39:19.569756 25434 net.cpp:141] Setting up inception_4b/relu_3x3
I0403 19:39:19.569792 25434 net.cpp:148] Top shape: 24 224 14 14 (1053696)
I0403 19:39:19.569813 25434 net.cpp:156] Memory required for data: 964869408
I0403 19:39:19.569831 25434 layer_factory.hpp:77] Creating layer inception_4b/5x5_reduce
I0403 19:39:19.569859 25434 net.cpp:91] Creating Layer inception_4b/5x5_reduce
I0403 19:39:19.569881 25434 net.cpp:425] inception_4b/5x5_reduce <- inception_4a/output_inception_4a/output_0_split_3
I0403 19:39:19.569908 25434 net.cpp:399] inception_4b/5x5_reduce -> inception_4b/5x5_reduce
I0403 19:39:19.571224 25434 net.cpp:141] Setting up inception_4b/5x5_reduce
I0403 19:39:19.571262 25434 net.cpp:148] Top shape: 24 24 14 14 (112896)
I0403 19:39:19.571282 25434 net.cpp:156] Memory required for data: 965320992
I0403 19:39:19.571315 25434 layer_factory.hpp:77] Creating layer inception_4b/relu_5x5_reduce
I0403 19:39:19.571341 25434 net.cpp:91] Creating Layer inception_4b/relu_5x5_reduce
I0403 19:39:19.571384 25434 net.cpp:425] inception_4b/relu_5x5_reduce <- inception_4b/5x5_reduce
I0403 19:39:19.571409 25434 net.cpp:386] inception_4b/relu_5x5_reduce -> inception_4b/5x5_reduce (in-place)
I0403 19:39:19.571635 25434 net.cpp:141] Setting up inception_4b/relu_5x5_reduce
I0403 19:39:19.571668 25434 net.cpp:148] Top shape: 24 24 14 14 (112896)
I0403 19:39:19.571687 25434 net.cpp:156] Memory required for data: 965772576
I0403 19:39:19.571707 25434 layer_factory.hpp:77] Creating layer inception_4b/5x5
I0403 19:39:19.571733 25434 net.cpp:91] Creating Layer inception_4b/5x5
I0403 19:39:19.571758 25434 net.cpp:425] inception_4b/5x5 <- inception_4b/5x5_reduce
I0403 19:39:19.571785 25434 net.cpp:399] inception_4b/5x5 -> inception_4b/5x5
I0403 19:39:19.573266 25434 net.cpp:141] Setting up inception_4b/5x5
I0403 19:39:19.573312 25434 net.cpp:148] Top shape: 24 64 14 14 (301056)
I0403 19:39:19.573336 25434 net.cpp:156] Memory required for data: 966976800
I0403 19:39:19.573361 25434 layer_factory.hpp:77] Creating layer inception_4b/relu_5x5
I0403 19:39:19.573385 25434 net.cpp:91] Creating Layer inception_4b/relu_5x5
I0403 19:39:19.573407 25434 net.cpp:425] inception_4b/relu_5x5 <- inception_4b/5x5
I0403 19:39:19.573433 25434 net.cpp:386] inception_4b/relu_5x5 -> inception_4b/5x5 (in-place)
I0403 19:39:19.573779 25434 net.cpp:141] Setting up inception_4b/relu_5x5
I0403 19:39:19.573817 25434 net.cpp:148] Top shape: 24 64 14 14 (301056)
I0403 19:39:19.573835 25434 net.cpp:156] Memory required for data: 968181024
I0403 19:39:19.573853 25434 layer_factory.hpp:77] Creating layer inception_4b/pool
I0403 19:39:19.573878 25434 net.cpp:91] Creating Layer inception_4b/pool
I0403 19:39:19.573900 25434 net.cpp:425] inception_4b/pool <- inception_4a/output_inception_4a/output_0_split_4
I0403 19:39:19.573931 25434 net.cpp:399] inception_4b/pool -> inception_4b/pool
I0403 19:39:19.574014 25434 net.cpp:141] Setting up inception_4b/pool
I0403 19:39:19.574048 25434 net.cpp:148] Top shape: 24 512 14 14 (2408448)
I0403 19:39:19.574066 25434 net.cpp:156] Memory required for data: 977814816
I0403 19:39:19.574084 25434 layer_factory.hpp:77] Creating layer inception_4b/pool_proj
I0403 19:39:19.574115 25434 net.cpp:91] Creating Layer inception_4b/pool_proj
I0403 19:39:19.574141 25434 net.cpp:425] inception_4b/pool_proj <- inception_4b/pool
I0403 19:39:19.574165 25434 net.cpp:399] inception_4b/pool_proj -> inception_4b/pool_proj
I0403 19:39:19.575659 25434 net.cpp:141] Setting up inception_4b/pool_proj
I0403 19:39:19.575695 25434 net.cpp:148] Top shape: 24 64 14 14 (301056)
I0403 19:39:19.575714 25434 net.cpp:156] Memory required for data: 979019040
I0403 19:39:19.575736 25434 layer_factory.hpp:77] Creating layer inception_4b/relu_pool_proj
I0403 19:39:19.575760 25434 net.cpp:91] Creating Layer inception_4b/relu_pool_proj
I0403 19:39:19.575780 25434 net.cpp:425] inception_4b/relu_pool_proj <- inception_4b/pool_proj
I0403 19:39:19.575804 25434 net.cpp:386] inception_4b/relu_pool_proj -> inception_4b/pool_proj (in-place)
I0403 19:39:19.576025 25434 net.cpp:141] Setting up inception_4b/relu_pool_proj
I0403 19:39:19.576057 25434 net.cpp:148] Top shape: 24 64 14 14 (301056)
I0403 19:39:19.576074 25434 net.cpp:156] Memory required for data: 980223264
I0403 19:39:19.576092 25434 layer_factory.hpp:77] Creating layer inception_4b/output
I0403 19:39:19.576117 25434 net.cpp:91] Creating Layer inception_4b/output
I0403 19:39:19.576138 25434 net.cpp:425] inception_4b/output <- inception_4b/1x1
I0403 19:39:19.576159 25434 net.cpp:425] inception_4b/output <- inception_4b/3x3
I0403 19:39:19.576179 25434 net.cpp:425] inception_4b/output <- inception_4b/5x5
I0403 19:39:19.576197 25434 net.cpp:425] inception_4b/output <- inception_4b/pool_proj
I0403 19:39:19.576218 25434 net.cpp:399] inception_4b/output -> inception_4b/output
I0403 19:39:19.576275 25434 net.cpp:141] Setting up inception_4b/output
I0403 19:39:19.576313 25434 net.cpp:148] Top shape: 24 512 14 14 (2408448)
I0403 19:39:19.576333 25434 net.cpp:156] Memory required for data: 989857056
I0403 19:39:19.576370 25434 layer_factory.hpp:77] Creating layer inception_4b/output_inception_4b/output_0_split
I0403 19:39:19.576393 25434 net.cpp:91] Creating Layer inception_4b/output_inception_4b/output_0_split
I0403 19:39:19.576413 25434 net.cpp:425] inception_4b/output_inception_4b/output_0_split <- inception_4b/output
I0403 19:39:19.576438 25434 net.cpp:399] inception_4b/output_inception_4b/output_0_split -> inception_4b/output_inception_4b/output_0_split_0
I0403 19:39:19.576465 25434 net.cpp:399] inception_4b/output_inception_4b/output_0_split -> inception_4b/output_inception_4b/output_0_split_1
I0403 19:39:19.576490 25434 net.cpp:399] inception_4b/output_inception_4b/output_0_split -> inception_4b/output_inception_4b/output_0_split_2
I0403 19:39:19.576514 25434 net.cpp:399] inception_4b/output_inception_4b/output_0_split -> inception_4b/output_inception_4b/output_0_split_3
I0403 19:39:19.576617 25434 net.cpp:141] Setting up inception_4b/output_inception_4b/output_0_split
I0403 19:39:19.576649 25434 net.cpp:148] Top shape: 24 512 14 14 (2408448)
I0403 19:39:19.576671 25434 net.cpp:148] Top shape: 24 512 14 14 (2408448)
I0403 19:39:19.576690 25434 net.cpp:148] Top shape: 24 512 14 14 (2408448)
I0403 19:39:19.576709 25434 net.cpp:148] Top shape: 24 512 14 14 (2408448)
I0403 19:39:19.576725 25434 net.cpp:156] Memory required for data: 1028392224
I0403 19:39:19.576741 25434 layer_factory.hpp:77] Creating layer inception_4c/1x1
I0403 19:39:19.576768 25434 net.cpp:91] Creating Layer inception_4c/1x1
I0403 19:39:19.576792 25434 net.cpp:425] inception_4c/1x1 <- inception_4b/output_inception_4b/output_0_split_0
I0403 19:39:19.576814 25434 net.cpp:399] inception_4c/1x1 -> inception_4c/1x1
I0403 19:39:19.578570 25434 net.cpp:141] Setting up inception_4c/1x1
I0403 19:39:19.578606 25434 net.cpp:148] Top shape: 24 128 14 14 (602112)
I0403 19:39:19.578626 25434 net.cpp:156] Memory required for data: 1030800672
I0403 19:39:19.578649 25434 layer_factory.hpp:77] Creating layer inception_4c/relu_1x1
I0403 19:39:19.578675 25434 net.cpp:91] Creating Layer inception_4c/relu_1x1
I0403 19:39:19.578696 25434 net.cpp:425] inception_4c/relu_1x1 <- inception_4c/1x1
I0403 19:39:19.578718 25434 net.cpp:386] inception_4c/relu_1x1 -> inception_4c/1x1 (in-place)
I0403 19:39:19.578943 25434 net.cpp:141] Setting up inception_4c/relu_1x1
I0403 19:39:19.578976 25434 net.cpp:148] Top shape: 24 128 14 14 (602112)
I0403 19:39:19.578995 25434 net.cpp:156] Memory required for data: 1033209120
I0403 19:39:19.579015 25434 layer_factory.hpp:77] Creating layer inception_4c/3x3_reduce
I0403 19:39:19.579042 25434 net.cpp:91] Creating Layer inception_4c/3x3_reduce
I0403 19:39:19.579066 25434 net.cpp:425] inception_4c/3x3_reduce <- inception_4b/output_inception_4b/output_0_split_1
I0403 19:39:19.579089 25434 net.cpp:399] inception_4c/3x3_reduce -> inception_4c/3x3_reduce
I0403 19:39:19.581457 25434 net.cpp:141] Setting up inception_4c/3x3_reduce
I0403 19:39:19.581499 25434 net.cpp:148] Top shape: 24 128 14 14 (602112)
I0403 19:39:19.581521 25434 net.cpp:156] Memory required for data: 1035617568
I0403 19:39:19.581543 25434 layer_factory.hpp:77] Creating layer inception_4c/relu_3x3_reduce
I0403 19:39:19.581567 25434 net.cpp:91] Creating Layer inception_4c/relu_3x3_reduce
I0403 19:39:19.581586 25434 net.cpp:425] inception_4c/relu_3x3_reduce <- inception_4c/3x3_reduce
I0403 19:39:19.581610 25434 net.cpp:386] inception_4c/relu_3x3_reduce -> inception_4c/3x3_reduce (in-place)
I0403 19:39:19.581959 25434 net.cpp:141] Setting up inception_4c/relu_3x3_reduce
I0403 19:39:19.581995 25434 net.cpp:148] Top shape: 24 128 14 14 (602112)
I0403 19:39:19.582016 25434 net.cpp:156] Memory required for data: 1038026016
I0403 19:39:19.582036 25434 layer_factory.hpp:77] Creating layer inception_4c/3x3
I0403 19:39:19.582064 25434 net.cpp:91] Creating Layer inception_4c/3x3
I0403 19:39:19.582087 25434 net.cpp:425] inception_4c/3x3 <- inception_4c/3x3_reduce
I0403 19:39:19.582110 25434 net.cpp:399] inception_4c/3x3 -> inception_4c/3x3
I0403 19:39:19.586499 25434 net.cpp:141] Setting up inception_4c/3x3
I0403 19:39:19.586550 25434 net.cpp:148] Top shape: 24 256 14 14 (1204224)
I0403 19:39:19.586570 25434 net.cpp:156] Memory required for data: 1042842912
I0403 19:39:19.586608 25434 layer_factory.hpp:77] Creating layer inception_4c/relu_3x3
I0403 19:39:19.586634 25434 net.cpp:91] Creating Layer inception_4c/relu_3x3
I0403 19:39:19.586653 25434 net.cpp:425] inception_4c/relu_3x3 <- inception_4c/3x3
I0403 19:39:19.586676 25434 net.cpp:386] inception_4c/relu_3x3 -> inception_4c/3x3 (in-place)
I0403 19:39:19.586905 25434 net.cpp:141] Setting up inception_4c/relu_3x3
I0403 19:39:19.586935 25434 net.cpp:148] Top shape: 24 256 14 14 (1204224)
I0403 19:39:19.586953 25434 net.cpp:156] Memory required for data: 1047659808
I0403 19:39:19.586971 25434 layer_factory.hpp:77] Creating layer inception_4c/5x5_reduce
I0403 19:39:19.586997 25434 net.cpp:91] Creating Layer inception_4c/5x5_reduce
I0403 19:39:19.587018 25434 net.cpp:425] inception_4c/5x5_reduce <- inception_4b/output_inception_4b/output_0_split_2
I0403 19:39:19.587044 25434 net.cpp:399] inception_4c/5x5_reduce -> inception_4c/5x5_reduce
I0403 19:39:19.588362 25434 net.cpp:141] Setting up inception_4c/5x5_reduce
I0403 19:39:19.588397 25434 net.cpp:148] Top shape: 24 24 14 14 (112896)
I0403 19:39:19.588416 25434 net.cpp:156] Memory required for data: 1048111392
I0403 19:39:19.588438 25434 layer_factory.hpp:77] Creating layer inception_4c/relu_5x5_reduce
I0403 19:39:19.588459 25434 net.cpp:91] Creating Layer inception_4c/relu_5x5_reduce
I0403 19:39:19.588482 25434 net.cpp:425] inception_4c/relu_5x5_reduce <- inception_4c/5x5_reduce
I0403 19:39:19.588503 25434 net.cpp:386] inception_4c/relu_5x5_reduce -> inception_4c/5x5_reduce (in-place)
I0403 19:39:19.588726 25434 net.cpp:141] Setting up inception_4c/relu_5x5_reduce
I0403 19:39:19.588757 25434 net.cpp:148] Top shape: 24 24 14 14 (112896)
I0403 19:39:19.588773 25434 net.cpp:156] Memory required for data: 1048562976
I0403 19:39:19.588791 25434 layer_factory.hpp:77] Creating layer inception_4c/5x5
I0403 19:39:19.588817 25434 net.cpp:91] Creating Layer inception_4c/5x5
I0403 19:39:19.588838 25434 net.cpp:425] inception_4c/5x5 <- inception_4c/5x5_reduce
I0403 19:39:19.588865 25434 net.cpp:399] inception_4c/5x5 -> inception_4c/5x5
I0403 19:39:19.590368 25434 net.cpp:141] Setting up inception_4c/5x5
I0403 19:39:19.590402 25434 net.cpp:148] Top shape: 24 64 14 14 (301056)
I0403 19:39:19.590420 25434 net.cpp:156] Memory required for data: 1049767200
I0403 19:39:19.590441 25434 layer_factory.hpp:77] Creating layer inception_4c/relu_5x5
I0403 19:39:19.590466 25434 net.cpp:91] Creating Layer inception_4c/relu_5x5
I0403 19:39:19.590487 25434 net.cpp:425] inception_4c/relu_5x5 <- inception_4c/5x5
I0403 19:39:19.590507 25434 net.cpp:386] inception_4c/relu_5x5 -> inception_4c/5x5 (in-place)
I0403 19:39:19.590847 25434 net.cpp:141] Setting up inception_4c/relu_5x5
I0403 19:39:19.590878 25434 net.cpp:148] Top shape: 24 64 14 14 (301056)
I0403 19:39:19.590896 25434 net.cpp:156] Memory required for data: 1050971424
I0403 19:39:19.590914 25434 layer_factory.hpp:77] Creating layer inception_4c/pool
I0403 19:39:19.590940 25434 net.cpp:91] Creating Layer inception_4c/pool
I0403 19:39:19.590962 25434 net.cpp:425] inception_4c/pool <- inception_4b/output_inception_4b/output_0_split_3
I0403 19:39:19.590983 25434 net.cpp:399] inception_4c/pool -> inception_4c/pool
I0403 19:39:19.591063 25434 net.cpp:141] Setting up inception_4c/pool
I0403 19:39:19.591092 25434 net.cpp:148] Top shape: 24 512 14 14 (2408448)
I0403 19:39:19.591109 25434 net.cpp:156] Memory required for data: 1060605216
I0403 19:39:19.591126 25434 layer_factory.hpp:77] Creating layer inception_4c/pool_proj
I0403 19:39:19.591155 25434 net.cpp:91] Creating Layer inception_4c/pool_proj
I0403 19:39:19.591176 25434 net.cpp:425] inception_4c/pool_proj <- inception_4c/pool
I0403 19:39:19.591200 25434 net.cpp:399] inception_4c/pool_proj -> inception_4c/pool_proj
I0403 19:39:19.592690 25434 net.cpp:141] Setting up inception_4c/pool_proj
I0403 19:39:19.592725 25434 net.cpp:148] Top shape: 24 64 14 14 (301056)
I0403 19:39:19.592761 25434 net.cpp:156] Memory required for data: 1061809440
I0403 19:39:19.592784 25434 layer_factory.hpp:77] Creating layer inception_4c/relu_pool_proj
I0403 19:39:19.592805 25434 net.cpp:91] Creating Layer inception_4c/relu_pool_proj
I0403 19:39:19.592825 25434 net.cpp:425] inception_4c/relu_pool_proj <- inception_4c/pool_proj
I0403 19:39:19.592849 25434 net.cpp:386] inception_4c/relu_pool_proj -> inception_4c/pool_proj (in-place)
I0403 19:39:19.593070 25434 net.cpp:141] Setting up inception_4c/relu_pool_proj
I0403 19:39:19.593101 25434 net.cpp:148] Top shape: 24 64 14 14 (301056)
I0403 19:39:19.593118 25434 net.cpp:156] Memory required for data: 1063013664
I0403 19:39:19.593137 25434 layer_factory.hpp:77] Creating layer inception_4c/output
I0403 19:39:19.593159 25434 net.cpp:91] Creating Layer inception_4c/output
I0403 19:39:19.593178 25434 net.cpp:425] inception_4c/output <- inception_4c/1x1
I0403 19:39:19.593197 25434 net.cpp:425] inception_4c/output <- inception_4c/3x3
I0403 19:39:19.593216 25434 net.cpp:425] inception_4c/output <- inception_4c/5x5
I0403 19:39:19.593235 25434 net.cpp:425] inception_4c/output <- inception_4c/pool_proj
I0403 19:39:19.593255 25434 net.cpp:399] inception_4c/output -> inception_4c/output
I0403 19:39:19.593319 25434 net.cpp:141] Setting up inception_4c/output
I0403 19:39:19.593348 25434 net.cpp:148] Top shape: 24 512 14 14 (2408448)
I0403 19:39:19.593364 25434 net.cpp:156] Memory required for data: 1072647456
I0403 19:39:19.593381 25434 layer_factory.hpp:77] Creating layer inception_4c/output_inception_4c/output_0_split
I0403 19:39:19.593402 25434 net.cpp:91] Creating Layer inception_4c/output_inception_4c/output_0_split
I0403 19:39:19.593420 25434 net.cpp:425] inception_4c/output_inception_4c/output_0_split <- inception_4c/output
I0403 19:39:19.593444 25434 net.cpp:399] inception_4c/output_inception_4c/output_0_split -> inception_4c/output_inception_4c/output_0_split_0
I0403 19:39:19.593468 25434 net.cpp:399] inception_4c/output_inception_4c/output_0_split -> inception_4c/output_inception_4c/output_0_split_1
I0403 19:39:19.593492 25434 net.cpp:399] inception_4c/output_inception_4c/output_0_split -> inception_4c/output_inception_4c/output_0_split_2
I0403 19:39:19.593516 25434 net.cpp:399] inception_4c/output_inception_4c/output_0_split -> inception_4c/output_inception_4c/output_0_split_3
I0403 19:39:19.593619 25434 net.cpp:141] Setting up inception_4c/output_inception_4c/output_0_split
I0403 19:39:19.593652 25434 net.cpp:148] Top shape: 24 512 14 14 (2408448)
I0403 19:39:19.593672 25434 net.cpp:148] Top shape: 24 512 14 14 (2408448)
I0403 19:39:19.593690 25434 net.cpp:148] Top shape: 24 512 14 14 (2408448)
I0403 19:39:19.593708 25434 net.cpp:148] Top shape: 24 512 14 14 (2408448)
I0403 19:39:19.593724 25434 net.cpp:156] Memory required for data: 1111182624
I0403 19:39:19.593741 25434 layer_factory.hpp:77] Creating layer inception_4d/1x1
I0403 19:39:19.593767 25434 net.cpp:91] Creating Layer inception_4d/1x1
I0403 19:39:19.593788 25434 net.cpp:425] inception_4d/1x1 <- inception_4c/output_inception_4c/output_0_split_0
I0403 19:39:19.593811 25434 net.cpp:399] inception_4d/1x1 -> inception_4d/1x1
I0403 19:39:19.595507 25434 net.cpp:141] Setting up inception_4d/1x1
I0403 19:39:19.595544 25434 net.cpp:148] Top shape: 24 112 14 14 (526848)
I0403 19:39:19.595563 25434 net.cpp:156] Memory required for data: 1113290016
I0403 19:39:19.595585 25434 layer_factory.hpp:77] Creating layer inception_4d/relu_1x1
I0403 19:39:19.595607 25434 net.cpp:91] Creating Layer inception_4d/relu_1x1
I0403 19:39:19.595626 25434 net.cpp:425] inception_4d/relu_1x1 <- inception_4d/1x1
I0403 19:39:19.595646 25434 net.cpp:386] inception_4d/relu_1x1 -> inception_4d/1x1 (in-place)
I0403 19:39:19.595878 25434 net.cpp:141] Setting up inception_4d/relu_1x1
I0403 19:39:19.595908 25434 net.cpp:148] Top shape: 24 112 14 14 (526848)
I0403 19:39:19.595926 25434 net.cpp:156] Memory required for data: 1115397408
I0403 19:39:19.595943 25434 layer_factory.hpp:77] Creating layer inception_4d/3x3_reduce
I0403 19:39:19.595988 25434 net.cpp:91] Creating Layer inception_4d/3x3_reduce
I0403 19:39:19.596010 25434 net.cpp:425] inception_4d/3x3_reduce <- inception_4c/output_inception_4c/output_0_split_1
I0403 19:39:19.596035 25434 net.cpp:399] inception_4d/3x3_reduce -> inception_4d/3x3_reduce
I0403 19:39:19.597887 25434 net.cpp:141] Setting up inception_4d/3x3_reduce
I0403 19:39:19.597923 25434 net.cpp:148] Top shape: 24 144 14 14 (677376)
I0403 19:39:19.597941 25434 net.cpp:156] Memory required for data: 1118106912
I0403 19:39:19.597964 25434 layer_factory.hpp:77] Creating layer inception_4d/relu_3x3_reduce
I0403 19:39:19.597988 25434 net.cpp:91] Creating Layer inception_4d/relu_3x3_reduce
I0403 19:39:19.598009 25434 net.cpp:425] inception_4d/relu_3x3_reduce <- inception_4d/3x3_reduce
I0403 19:39:19.598029 25434 net.cpp:386] inception_4d/relu_3x3_reduce -> inception_4d/3x3_reduce (in-place)
I0403 19:39:19.598389 25434 net.cpp:141] Setting up inception_4d/relu_3x3_reduce
I0403 19:39:19.598422 25434 net.cpp:148] Top shape: 24 144 14 14 (677376)
I0403 19:39:19.598439 25434 net.cpp:156] Memory required for data: 1120816416
I0403 19:39:19.598458 25434 layer_factory.hpp:77] Creating layer inception_4d/3x3
I0403 19:39:19.598484 25434 net.cpp:91] Creating Layer inception_4d/3x3
I0403 19:39:19.598506 25434 net.cpp:425] inception_4d/3x3 <- inception_4d/3x3_reduce
I0403 19:39:19.598529 25434 net.cpp:399] inception_4d/3x3 -> inception_4d/3x3
I0403 19:39:19.603783 25434 net.cpp:141] Setting up inception_4d/3x3
I0403 19:39:19.603822 25434 net.cpp:148] Top shape: 24 288 14 14 (1354752)
I0403 19:39:19.603842 25434 net.cpp:156] Memory required for data: 1126235424
I0403 19:39:19.603864 25434 layer_factory.hpp:77] Creating layer inception_4d/relu_3x3
I0403 19:39:19.603886 25434 net.cpp:91] Creating Layer inception_4d/relu_3x3
I0403 19:39:19.603906 25434 net.cpp:425] inception_4d/relu_3x3 <- inception_4d/3x3
I0403 19:39:19.603930 25434 net.cpp:386] inception_4d/relu_3x3 -> inception_4d/3x3 (in-place)
I0403 19:39:19.604158 25434 net.cpp:141] Setting up inception_4d/relu_3x3
I0403 19:39:19.604189 25434 net.cpp:148] Top shape: 24 288 14 14 (1354752)
I0403 19:39:19.604207 25434 net.cpp:156] Memory required for data: 1131654432
I0403 19:39:19.604224 25434 layer_factory.hpp:77] Creating layer inception_4d/5x5_reduce
I0403 19:39:19.604252 25434 net.cpp:91] Creating Layer inception_4d/5x5_reduce
I0403 19:39:19.604274 25434 net.cpp:425] inception_4d/5x5_reduce <- inception_4c/output_inception_4c/output_0_split_2
I0403 19:39:19.604315 25434 net.cpp:399] inception_4d/5x5_reduce -> inception_4d/5x5_reduce
I0403 19:39:19.605725 25434 net.cpp:141] Setting up inception_4d/5x5_reduce
I0403 19:39:19.605763 25434 net.cpp:148] Top shape: 24 32 14 14 (150528)
I0403 19:39:19.605783 25434 net.cpp:156] Memory required for data: 1132256544
I0403 19:39:19.605805 25434 layer_factory.hpp:77] Creating layer inception_4d/relu_5x5_reduce
I0403 19:39:19.605828 25434 net.cpp:91] Creating Layer inception_4d/relu_5x5_reduce
I0403 19:39:19.605847 25434 net.cpp:425] inception_4d/relu_5x5_reduce <- inception_4d/5x5_reduce
I0403 19:39:19.605868 25434 net.cpp:386] inception_4d/relu_5x5_reduce -> inception_4d/5x5_reduce (in-place)
I0403 19:39:19.606106 25434 net.cpp:141] Setting up inception_4d/relu_5x5_reduce
I0403 19:39:19.606137 25434 net.cpp:148] Top shape: 24 32 14 14 (150528)
I0403 19:39:19.606155 25434 net.cpp:156] Memory required for data: 1132858656
I0403 19:39:19.606173 25434 layer_factory.hpp:77] Creating layer inception_4d/5x5
I0403 19:39:19.606201 25434 net.cpp:91] Creating Layer inception_4d/5x5
I0403 19:39:19.606223 25434 net.cpp:425] inception_4d/5x5 <- inception_4d/5x5_reduce
I0403 19:39:19.606250 25434 net.cpp:399] inception_4d/5x5 -> inception_4d/5x5
I0403 19:39:19.608022 25434 net.cpp:141] Setting up inception_4d/5x5
I0403 19:39:19.608057 25434 net.cpp:148] Top shape: 24 64 14 14 (301056)
I0403 19:39:19.608077 25434 net.cpp:156] Memory required for data: 1134062880
I0403 19:39:19.608099 25434 layer_factory.hpp:77] Creating layer inception_4d/relu_5x5
I0403 19:39:19.608145 25434 net.cpp:91] Creating Layer inception_4d/relu_5x5
I0403 19:39:19.608168 25434 net.cpp:425] inception_4d/relu_5x5 <- inception_4d/5x5
I0403 19:39:19.608191 25434 net.cpp:386] inception_4d/relu_5x5 -> inception_4d/5x5 (in-place)
I0403 19:39:19.608554 25434 net.cpp:141] Setting up inception_4d/relu_5x5
I0403 19:39:19.608587 25434 net.cpp:148] Top shape: 24 64 14 14 (301056)
I0403 19:39:19.608605 25434 net.cpp:156] Memory required for data: 1135267104
I0403 19:39:19.608623 25434 layer_factory.hpp:77] Creating layer inception_4d/pool
I0403 19:39:19.608649 25434 net.cpp:91] Creating Layer inception_4d/pool
I0403 19:39:19.608669 25434 net.cpp:425] inception_4d/pool <- inception_4c/output_inception_4c/output_0_split_3
I0403 19:39:19.608690 25434 net.cpp:399] inception_4d/pool -> inception_4d/pool
I0403 19:39:19.608774 25434 net.cpp:141] Setting up inception_4d/pool
I0403 19:39:19.608803 25434 net.cpp:148] Top shape: 24 512 14 14 (2408448)
I0403 19:39:19.608821 25434 net.cpp:156] Memory required for data: 1144900896
I0403 19:39:19.608839 25434 layer_factory.hpp:77] Creating layer inception_4d/pool_proj
I0403 19:39:19.608865 25434 net.cpp:91] Creating Layer inception_4d/pool_proj
I0403 19:39:19.608887 25434 net.cpp:425] inception_4d/pool_proj <- inception_4d/pool
I0403 19:39:19.608913 25434 net.cpp:399] inception_4d/pool_proj -> inception_4d/pool_proj
I0403 19:39:19.611071 25434 net.cpp:141] Setting up inception_4d/pool_proj
I0403 19:39:19.611110 25434 net.cpp:148] Top shape: 24 64 14 14 (301056)
I0403 19:39:19.611131 25434 net.cpp:156] Memory required for data: 1146105120
I0403 19:39:19.611155 25434 layer_factory.hpp:77] Creating layer inception_4d/relu_pool_proj
I0403 19:39:19.611176 25434 net.cpp:91] Creating Layer inception_4d/relu_pool_proj
I0403 19:39:19.611196 25434 net.cpp:425] inception_4d/relu_pool_proj <- inception_4d/pool_proj
I0403 19:39:19.611219 25434 net.cpp:386] inception_4d/relu_pool_proj -> inception_4d/pool_proj (in-place)
I0403 19:39:19.611455 25434 net.cpp:141] Setting up inception_4d/relu_pool_proj
I0403 19:39:19.611487 25434 net.cpp:148] Top shape: 24 64 14 14 (301056)
I0403 19:39:19.611505 25434 net.cpp:156] Memory required for data: 1147309344
I0403 19:39:19.611523 25434 layer_factory.hpp:77] Creating layer inception_4d/output
I0403 19:39:19.611543 25434 net.cpp:91] Creating Layer inception_4d/output
I0403 19:39:19.611562 25434 net.cpp:425] inception_4d/output <- inception_4d/1x1
I0403 19:39:19.611582 25434 net.cpp:425] inception_4d/output <- inception_4d/3x3
I0403 19:39:19.611603 25434 net.cpp:425] inception_4d/output <- inception_4d/5x5
I0403 19:39:19.611621 25434 net.cpp:425] inception_4d/output <- inception_4d/pool_proj
I0403 19:39:19.611645 25434 net.cpp:399] inception_4d/output -> inception_4d/output
I0403 19:39:19.611704 25434 net.cpp:141] Setting up inception_4d/output
I0403 19:39:19.611737 25434 net.cpp:148] Top shape: 24 528 14 14 (2483712)
I0403 19:39:19.611757 25434 net.cpp:156] Memory required for data: 1157244192
I0403 19:39:19.611773 25434 layer_factory.hpp:77] Creating layer inception_4d/output_inception_4d/output_0_split
I0403 19:39:19.611795 25434 net.cpp:91] Creating Layer inception_4d/output_inception_4d/output_0_split
I0403 19:39:19.611814 25434 net.cpp:425] inception_4d/output_inception_4d/output_0_split <- inception_4d/output
I0403 19:39:19.611840 25434 net.cpp:399] inception_4d/output_inception_4d/output_0_split -> inception_4d/output_inception_4d/output_0_split_0
I0403 19:39:19.611867 25434 net.cpp:399] inception_4d/output_inception_4d/output_0_split -> inception_4d/output_inception_4d/output_0_split_1
I0403 19:39:19.611892 25434 net.cpp:399] inception_4d/output_inception_4d/output_0_split -> inception_4d/output_inception_4d/output_0_split_2
I0403 19:39:19.611917 25434 net.cpp:399] inception_4d/output_inception_4d/output_0_split -> inception_4d/output_inception_4d/output_0_split_3
I0403 19:39:19.611943 25434 net.cpp:399] inception_4d/output_inception_4d/output_0_split -> inception_4d/output_inception_4d/output_0_split_4
I0403 19:39:19.612067 25434 net.cpp:141] Setting up inception_4d/output_inception_4d/output_0_split
I0403 19:39:19.612115 25434 net.cpp:148] Top shape: 24 528 14 14 (2483712)
I0403 19:39:19.612138 25434 net.cpp:148] Top shape: 24 528 14 14 (2483712)
I0403 19:39:19.612156 25434 net.cpp:148] Top shape: 24 528 14 14 (2483712)
I0403 19:39:19.612174 25434 net.cpp:148] Top shape: 24 528 14 14 (2483712)
I0403 19:39:19.612192 25434 net.cpp:148] Top shape: 24 528 14 14 (2483712)
I0403 19:39:19.612210 25434 net.cpp:156] Memory required for data: 1206918432
I0403 19:39:19.612226 25434 layer_factory.hpp:77] Creating layer loss2/ave_pool
I0403 19:39:19.612248 25434 net.cpp:91] Creating Layer loss2/ave_pool
I0403 19:39:19.612267 25434 net.cpp:425] loss2/ave_pool <- inception_4d/output_inception_4d/output_0_split_0
I0403 19:39:19.612295 25434 net.cpp:399] loss2/ave_pool -> loss2/ave_pool
I0403 19:39:19.612684 25434 net.cpp:141] Setting up loss2/ave_pool
I0403 19:39:19.612720 25434 net.cpp:148] Top shape: 24 528 4 4 (202752)
I0403 19:39:19.612738 25434 net.cpp:156] Memory required for data: 1207729440
I0403 19:39:19.612756 25434 layer_factory.hpp:77] Creating layer loss2/conv
I0403 19:39:19.612788 25434 net.cpp:91] Creating Layer loss2/conv
I0403 19:39:19.612810 25434 net.cpp:425] loss2/conv <- loss2/ave_pool
I0403 19:39:19.612833 25434 net.cpp:399] loss2/conv -> loss2/conv
I0403 19:39:19.615171 25434 net.cpp:141] Setting up loss2/conv
I0403 19:39:19.615207 25434 net.cpp:148] Top shape: 24 128 4 4 (49152)
I0403 19:39:19.615226 25434 net.cpp:156] Memory required for data: 1207926048
I0403 19:39:19.615249 25434 layer_factory.hpp:77] Creating layer loss2/relu_conv
I0403 19:39:19.615273 25434 net.cpp:91] Creating Layer loss2/relu_conv
I0403 19:39:19.615301 25434 net.cpp:425] loss2/relu_conv <- loss2/conv
I0403 19:39:19.615325 25434 net.cpp:386] loss2/relu_conv -> loss2/conv (in-place)
I0403 19:39:19.615669 25434 net.cpp:141] Setting up loss2/relu_conv
I0403 19:39:19.615702 25434 net.cpp:148] Top shape: 24 128 4 4 (49152)
I0403 19:39:19.615720 25434 net.cpp:156] Memory required for data: 1208122656
I0403 19:39:19.615737 25434 layer_factory.hpp:77] Creating layer loss2/fc
I0403 19:39:19.615764 25434 net.cpp:91] Creating Layer loss2/fc
I0403 19:39:19.615785 25434 net.cpp:425] loss2/fc <- loss2/conv
I0403 19:39:19.615808 25434 net.cpp:399] loss2/fc -> loss2/fc
I0403 19:39:19.637867 25434 net.cpp:141] Setting up loss2/fc
I0403 19:39:19.637908 25434 net.cpp:148] Top shape: 24 1024 (24576)
I0403 19:39:19.637928 25434 net.cpp:156] Memory required for data: 1208220960
I0403 19:39:19.637950 25434 layer_factory.hpp:77] Creating layer loss2/relu_fc
I0403 19:39:19.637974 25434 net.cpp:91] Creating Layer loss2/relu_fc
I0403 19:39:19.637994 25434 net.cpp:425] loss2/relu_fc <- loss2/fc
I0403 19:39:19.638018 25434 net.cpp:386] loss2/relu_fc -> loss2/fc (in-place)
I0403 19:39:19.638384 25434 net.cpp:141] Setting up loss2/relu_fc
I0403 19:39:19.638417 25434 net.cpp:148] Top shape: 24 1024 (24576)
I0403 19:39:19.638435 25434 net.cpp:156] Memory required for data: 1208319264
I0403 19:39:19.638453 25434 layer_factory.hpp:77] Creating layer loss2/drop_fc
I0403 19:39:19.638476 25434 net.cpp:91] Creating Layer loss2/drop_fc
I0403 19:39:19.638495 25434 net.cpp:425] loss2/drop_fc <- loss2/fc
I0403 19:39:19.638519 25434 net.cpp:386] loss2/drop_fc -> loss2/fc (in-place)
I0403 19:39:19.638581 25434 net.cpp:141] Setting up loss2/drop_fc
I0403 19:39:19.638612 25434 net.cpp:148] Top shape: 24 1024 (24576)
I0403 19:39:19.638633 25434 net.cpp:156] Memory required for data: 1208417568
I0403 19:39:19.638651 25434 layer_factory.hpp:77] Creating layer loss2/classifier_plantvillage
I0403 19:39:19.638674 25434 net.cpp:91] Creating Layer loss2/classifier_plantvillage
I0403 19:39:19.638692 25434 net.cpp:425] loss2/classifier_plantvillage <- loss2/fc
I0403 19:39:19.638720 25434 net.cpp:399] loss2/classifier_plantvillage -> loss2/classifier_plantvillage
I0403 19:39:19.639214 25434 net.cpp:141] Setting up loss2/classifier_plantvillage
I0403 19:39:19.639245 25434 net.cpp:148] Top shape: 24 38 (912)
I0403 19:39:19.639284 25434 net.cpp:156] Memory required for data: 1208421216
I0403 19:39:19.639319 25434 layer_factory.hpp:77] Creating layer loss2/classifier_plantvillage_loss2/classifier_plantvillage_0_split
I0403 19:39:19.639348 25434 net.cpp:91] Creating Layer loss2/classifier_plantvillage_loss2/classifier_plantvillage_0_split
I0403 19:39:19.639377 25434 net.cpp:425] loss2/classifier_plantvillage_loss2/classifier_plantvillage_0_split <- loss2/classifier_plantvillage
I0403 19:39:19.639399 25434 net.cpp:399] loss2/classifier_plantvillage_loss2/classifier_plantvillage_0_split -> loss2/classifier_plantvillage_loss2/classifier_plantvillage_0_split_0
I0403 19:39:19.639422 25434 net.cpp:399] loss2/classifier_plantvillage_loss2/classifier_plantvillage_0_split -> loss2/classifier_plantvillage_loss2/classifier_plantvillage_0_split_1
I0403 19:39:19.639447 25434 net.cpp:399] loss2/classifier_plantvillage_loss2/classifier_plantvillage_0_split -> loss2/classifier_plantvillage_loss2/classifier_plantvillage_0_split_2
I0403 19:39:19.639547 25434 net.cpp:141] Setting up loss2/classifier_plantvillage_loss2/classifier_plantvillage_0_split
I0403 19:39:19.639586 25434 net.cpp:148] Top shape: 24 38 (912)
I0403 19:39:19.639605 25434 net.cpp:148] Top shape: 24 38 (912)
I0403 19:39:19.639624 25434 net.cpp:148] Top shape: 24 38 (912)
I0403 19:39:19.639642 25434 net.cpp:156] Memory required for data: 1208432160
I0403 19:39:19.639659 25434 layer_factory.hpp:77] Creating layer inception_4e/1x1
I0403 19:39:19.639688 25434 net.cpp:91] Creating Layer inception_4e/1x1
I0403 19:39:19.639711 25434 net.cpp:425] inception_4e/1x1 <- inception_4d/output_inception_4d/output_0_split_1
I0403 19:39:19.639734 25434 net.cpp:399] inception_4e/1x1 -> inception_4e/1x1
I0403 19:39:19.641981 25434 net.cpp:141] Setting up inception_4e/1x1
I0403 19:39:19.642017 25434 net.cpp:148] Top shape: 24 256 14 14 (1204224)
I0403 19:39:19.642036 25434 net.cpp:156] Memory required for data: 1213249056
I0403 19:39:19.642060 25434 layer_factory.hpp:77] Creating layer inception_4e/relu_1x1
I0403 19:39:19.642083 25434 net.cpp:91] Creating Layer inception_4e/relu_1x1
I0403 19:39:19.642104 25434 net.cpp:425] inception_4e/relu_1x1 <- inception_4e/1x1
I0403 19:39:19.642127 25434 net.cpp:386] inception_4e/relu_1x1 -> inception_4e/1x1 (in-place)
I0403 19:39:19.642493 25434 net.cpp:141] Setting up inception_4e/relu_1x1
I0403 19:39:19.642525 25434 net.cpp:148] Top shape: 24 256 14 14 (1204224)
I0403 19:39:19.642545 25434 net.cpp:156] Memory required for data: 1218065952
I0403 19:39:19.642563 25434 layer_factory.hpp:77] Creating layer inception_4e/3x3_reduce
I0403 19:39:19.642590 25434 net.cpp:91] Creating Layer inception_4e/3x3_reduce
I0403 19:39:19.642612 25434 net.cpp:425] inception_4e/3x3_reduce <- inception_4d/output_inception_4d/output_0_split_2
I0403 19:39:19.642638 25434 net.cpp:399] inception_4e/3x3_reduce -> inception_4e/3x3_reduce
I0403 19:39:19.645264 25434 net.cpp:141] Setting up inception_4e/3x3_reduce
I0403 19:39:19.645305 25434 net.cpp:148] Top shape: 24 160 14 14 (752640)
I0403 19:39:19.645326 25434 net.cpp:156] Memory required for data: 1221076512
I0403 19:39:19.645349 25434 layer_factory.hpp:77] Creating layer inception_4e/relu_3x3_reduce
I0403 19:39:19.645370 25434 net.cpp:91] Creating Layer inception_4e/relu_3x3_reduce
I0403 19:39:19.645390 25434 net.cpp:425] inception_4e/relu_3x3_reduce <- inception_4e/3x3_reduce
I0403 19:39:19.645412 25434 net.cpp:386] inception_4e/relu_3x3_reduce -> inception_4e/3x3_reduce (in-place)
I0403 19:39:19.645642 25434 net.cpp:141] Setting up inception_4e/relu_3x3_reduce
I0403 19:39:19.645673 25434 net.cpp:148] Top shape: 24 160 14 14 (752640)
I0403 19:39:19.645690 25434 net.cpp:156] Memory required for data: 1224087072
I0403 19:39:19.645707 25434 layer_factory.hpp:77] Creating layer inception_4e/3x3
I0403 19:39:19.645735 25434 net.cpp:91] Creating Layer inception_4e/3x3
I0403 19:39:19.645756 25434 net.cpp:425] inception_4e/3x3 <- inception_4e/3x3_reduce
I0403 19:39:19.645781 25434 net.cpp:399] inception_4e/3x3 -> inception_4e/3x3
I0403 19:39:19.651939 25434 net.cpp:141] Setting up inception_4e/3x3
I0403 19:39:19.651989 25434 net.cpp:148] Top shape: 24 320 14 14 (1505280)
I0403 19:39:19.652009 25434 net.cpp:156] Memory required for data: 1230108192
I0403 19:39:19.652030 25434 layer_factory.hpp:77] Creating layer inception_4e/relu_3x3
I0403 19:39:19.652056 25434 net.cpp:91] Creating Layer inception_4e/relu_3x3
I0403 19:39:19.652076 25434 net.cpp:425] inception_4e/relu_3x3 <- inception_4e/3x3
I0403 19:39:19.652096 25434 net.cpp:386] inception_4e/relu_3x3 -> inception_4e/3x3 (in-place)
I0403 19:39:19.652464 25434 net.cpp:141] Setting up inception_4e/relu_3x3
I0403 19:39:19.652500 25434 net.cpp:148] Top shape: 24 320 14 14 (1505280)
I0403 19:39:19.652519 25434 net.cpp:156] Memory required for data: 1236129312
I0403 19:39:19.652537 25434 layer_factory.hpp:77] Creating layer inception_4e/5x5_reduce
I0403 19:39:19.652566 25434 net.cpp:91] Creating Layer inception_4e/5x5_reduce
I0403 19:39:19.652587 25434 net.cpp:425] inception_4e/5x5_reduce <- inception_4d/output_inception_4d/output_0_split_3
I0403 19:39:19.652611 25434 net.cpp:399] inception_4e/5x5_reduce -> inception_4e/5x5_reduce
I0403 19:39:19.653923 25434 net.cpp:141] Setting up inception_4e/5x5_reduce
I0403 19:39:19.653957 25434 net.cpp:148] Top shape: 24 32 14 14 (150528)
I0403 19:39:19.653976 25434 net.cpp:156] Memory required for data: 1236731424
I0403 19:39:19.653998 25434 layer_factory.hpp:77] Creating layer inception_4e/relu_5x5_reduce
I0403 19:39:19.654022 25434 net.cpp:91] Creating Layer inception_4e/relu_5x5_reduce
I0403 19:39:19.654043 25434 net.cpp:425] inception_4e/relu_5x5_reduce <- inception_4e/5x5_reduce
I0403 19:39:19.654063 25434 net.cpp:386] inception_4e/relu_5x5_reduce -> inception_4e/5x5_reduce (in-place)
I0403 19:39:19.654438 25434 net.cpp:141] Setting up inception_4e/relu_5x5_reduce
I0403 19:39:19.654470 25434 net.cpp:148] Top shape: 24 32 14 14 (150528)
I0403 19:39:19.654489 25434 net.cpp:156] Memory required for data: 1237333536
I0403 19:39:19.654507 25434 layer_factory.hpp:77] Creating layer inception_4e/5x5
I0403 19:39:19.654552 25434 net.cpp:91] Creating Layer inception_4e/5x5
I0403 19:39:19.654577 25434 net.cpp:425] inception_4e/5x5 <- inception_4e/5x5_reduce
I0403 19:39:19.654600 25434 net.cpp:399] inception_4e/5x5 -> inception_4e/5x5
I0403 19:39:19.656847 25434 net.cpp:141] Setting up inception_4e/5x5
I0403 19:39:19.656883 25434 net.cpp:148] Top shape: 24 128 14 14 (602112)
I0403 19:39:19.656903 25434 net.cpp:156] Memory required for data: 1239741984
I0403 19:39:19.656924 25434 layer_factory.hpp:77] Creating layer inception_4e/relu_5x5
I0403 19:39:19.656947 25434 net.cpp:91] Creating Layer inception_4e/relu_5x5
I0403 19:39:19.656966 25434 net.cpp:425] inception_4e/relu_5x5 <- inception_4e/5x5
I0403 19:39:19.656990 25434 net.cpp:386] inception_4e/relu_5x5 -> inception_4e/5x5 (in-place)
I0403 19:39:19.657228 25434 net.cpp:141] Setting up inception_4e/relu_5x5
I0403 19:39:19.657258 25434 net.cpp:148] Top shape: 24 128 14 14 (602112)
I0403 19:39:19.657276 25434 net.cpp:156] Memory required for data: 1242150432
I0403 19:39:19.657301 25434 layer_factory.hpp:77] Creating layer inception_4e/pool
I0403 19:39:19.657323 25434 net.cpp:91] Creating Layer inception_4e/pool
I0403 19:39:19.657342 25434 net.cpp:425] inception_4e/pool <- inception_4d/output_inception_4d/output_0_split_4
I0403 19:39:19.657367 25434 net.cpp:399] inception_4e/pool -> inception_4e/pool
I0403 19:39:19.657455 25434 net.cpp:141] Setting up inception_4e/pool
I0403 19:39:19.657485 25434 net.cpp:148] Top shape: 24 528 14 14 (2483712)
I0403 19:39:19.657502 25434 net.cpp:156] Memory required for data: 1252085280
I0403 19:39:19.657519 25434 layer_factory.hpp:77] Creating layer inception_4e/pool_proj
I0403 19:39:19.657546 25434 net.cpp:91] Creating Layer inception_4e/pool_proj
I0403 19:39:19.657567 25434 net.cpp:425] inception_4e/pool_proj <- inception_4e/pool
I0403 19:39:19.657591 25434 net.cpp:399] inception_4e/pool_proj -> inception_4e/pool_proj
I0403 19:39:19.659433 25434 net.cpp:141] Setting up inception_4e/pool_proj
I0403 19:39:19.659484 25434 net.cpp:148] Top shape: 24 128 14 14 (602112)
I0403 19:39:19.659505 25434 net.cpp:156] Memory required for data: 1254493728
I0403 19:39:19.659528 25434 layer_factory.hpp:77] Creating layer inception_4e/relu_pool_proj
I0403 19:39:19.659549 25434 net.cpp:91] Creating Layer inception_4e/relu_pool_proj
I0403 19:39:19.659569 25434 net.cpp:425] inception_4e/relu_pool_proj <- inception_4e/pool_proj
I0403 19:39:19.659592 25434 net.cpp:386] inception_4e/relu_pool_proj -> inception_4e/pool_proj (in-place)
I0403 19:39:19.659950 25434 net.cpp:141] Setting up inception_4e/relu_pool_proj
I0403 19:39:19.659986 25434 net.cpp:148] Top shape: 24 128 14 14 (602112)
I0403 19:39:19.660006 25434 net.cpp:156] Memory required for data: 1256902176
I0403 19:39:19.660023 25434 layer_factory.hpp:77] Creating layer inception_4e/output
I0403 19:39:19.660043 25434 net.cpp:91] Creating Layer inception_4e/output
I0403 19:39:19.660063 25434 net.cpp:425] inception_4e/output <- inception_4e/1x1
I0403 19:39:19.660082 25434 net.cpp:425] inception_4e/output <- inception_4e/3x3
I0403 19:39:19.660101 25434 net.cpp:425] inception_4e/output <- inception_4e/5x5
I0403 19:39:19.660120 25434 net.cpp:425] inception_4e/output <- inception_4e/pool_proj
I0403 19:39:19.660143 25434 net.cpp:399] inception_4e/output -> inception_4e/output
I0403 19:39:19.660205 25434 net.cpp:141] Setting up inception_4e/output
I0403 19:39:19.660234 25434 net.cpp:148] Top shape: 24 832 14 14 (3913728)
I0403 19:39:19.660251 25434 net.cpp:156] Memory required for data: 1272557088
I0403 19:39:19.660269 25434 layer_factory.hpp:77] Creating layer pool4/3x3_s2
I0403 19:39:19.660298 25434 net.cpp:91] Creating Layer pool4/3x3_s2
I0403 19:39:19.660320 25434 net.cpp:425] pool4/3x3_s2 <- inception_4e/output
I0403 19:39:19.660343 25434 net.cpp:399] pool4/3x3_s2 -> pool4/3x3_s2
I0403 19:39:19.660429 25434 net.cpp:141] Setting up pool4/3x3_s2
I0403 19:39:19.660457 25434 net.cpp:148] Top shape: 24 832 7 7 (978432)
I0403 19:39:19.660475 25434 net.cpp:156] Memory required for data: 1276470816
I0403 19:39:19.660491 25434 layer_factory.hpp:77] Creating layer pool4/3x3_s2_pool4/3x3_s2_0_split
I0403 19:39:19.660512 25434 net.cpp:91] Creating Layer pool4/3x3_s2_pool4/3x3_s2_0_split
I0403 19:39:19.660531 25434 net.cpp:425] pool4/3x3_s2_pool4/3x3_s2_0_split <- pool4/3x3_s2
I0403 19:39:19.660553 25434 net.cpp:399] pool4/3x3_s2_pool4/3x3_s2_0_split -> pool4/3x3_s2_pool4/3x3_s2_0_split_0
I0403 19:39:19.660579 25434 net.cpp:399] pool4/3x3_s2_pool4/3x3_s2_0_split -> pool4/3x3_s2_pool4/3x3_s2_0_split_1
I0403 19:39:19.660604 25434 net.cpp:399] pool4/3x3_s2_pool4/3x3_s2_0_split -> pool4/3x3_s2_pool4/3x3_s2_0_split_2
I0403 19:39:19.660629 25434 net.cpp:399] pool4/3x3_s2_pool4/3x3_s2_0_split -> pool4/3x3_s2_pool4/3x3_s2_0_split_3
I0403 19:39:19.660740 25434 net.cpp:141] Setting up pool4/3x3_s2_pool4/3x3_s2_0_split
I0403 19:39:19.660769 25434 net.cpp:148] Top shape: 24 832 7 7 (978432)
I0403 19:39:19.660787 25434 net.cpp:148] Top shape: 24 832 7 7 (978432)
I0403 19:39:19.660805 25434 net.cpp:148] Top shape: 24 832 7 7 (978432)
I0403 19:39:19.660823 25434 net.cpp:148] Top shape: 24 832 7 7 (978432)
I0403 19:39:19.660840 25434 net.cpp:156] Memory required for data: 1292125728
I0403 19:39:19.660857 25434 layer_factory.hpp:77] Creating layer inception_5a/1x1
I0403 19:39:19.660883 25434 net.cpp:91] Creating Layer inception_5a/1x1
I0403 19:39:19.660905 25434 net.cpp:425] inception_5a/1x1 <- pool4/3x3_s2_pool4/3x3_s2_0_split_0
I0403 19:39:19.660930 25434 net.cpp:399] inception_5a/1x1 -> inception_5a/1x1
I0403 19:39:19.664422 25434 net.cpp:141] Setting up inception_5a/1x1
I0403 19:39:19.664458 25434 net.cpp:148] Top shape: 24 256 7 7 (301056)
I0403 19:39:19.664476 25434 net.cpp:156] Memory required for data: 1293329952
I0403 19:39:19.664499 25434 layer_factory.hpp:77] Creating layer inception_5a/relu_1x1
I0403 19:39:19.664520 25434 net.cpp:91] Creating Layer inception_5a/relu_1x1
I0403 19:39:19.664540 25434 net.cpp:425] inception_5a/relu_1x1 <- inception_5a/1x1
I0403 19:39:19.664563 25434 net.cpp:386] inception_5a/relu_1x1 -> inception_5a/1x1 (in-place)
I0403 19:39:19.664942 25434 net.cpp:141] Setting up inception_5a/relu_1x1
I0403 19:39:19.664974 25434 net.cpp:148] Top shape: 24 256 7 7 (301056)
I0403 19:39:19.664993 25434 net.cpp:156] Memory required for data: 1294534176
I0403 19:39:19.665010 25434 layer_factory.hpp:77] Creating layer inception_5a/3x3_reduce
I0403 19:39:19.665037 25434 net.cpp:91] Creating Layer inception_5a/3x3_reduce
I0403 19:39:19.665060 25434 net.cpp:425] inception_5a/3x3_reduce <- pool4/3x3_s2_pool4/3x3_s2_0_split_1
I0403 19:39:19.665091 25434 net.cpp:399] inception_5a/3x3_reduce -> inception_5a/3x3_reduce
I0403 19:39:19.668097 25434 net.cpp:141] Setting up inception_5a/3x3_reduce
I0403 19:39:19.668133 25434 net.cpp:148] Top shape: 24 160 7 7 (188160)
I0403 19:39:19.668154 25434 net.cpp:156] Memory required for data: 1295286816
I0403 19:39:19.668179 25434 layer_factory.hpp:77] Creating layer inception_5a/relu_3x3_reduce
I0403 19:39:19.668202 25434 net.cpp:91] Creating Layer inception_5a/relu_3x3_reduce
I0403 19:39:19.668222 25434 net.cpp:425] inception_5a/relu_3x3_reduce <- inception_5a/3x3_reduce
I0403 19:39:19.668242 25434 net.cpp:386] inception_5a/relu_3x3_reduce -> inception_5a/3x3_reduce (in-place)
I0403 19:39:19.668488 25434 net.cpp:141] Setting up inception_5a/relu_3x3_reduce
I0403 19:39:19.668519 25434 net.cpp:148] Top shape: 24 160 7 7 (188160)
I0403 19:39:19.668535 25434 net.cpp:156] Memory required for data: 1296039456
I0403 19:39:19.668553 25434 layer_factory.hpp:77] Creating layer inception_5a/3x3
I0403 19:39:19.668581 25434 net.cpp:91] Creating Layer inception_5a/3x3
I0403 19:39:19.668603 25434 net.cpp:425] inception_5a/3x3 <- inception_5a/3x3_reduce
I0403 19:39:19.668630 25434 net.cpp:399] inception_5a/3x3 -> inception_5a/3x3
I0403 19:39:19.674906 25434 net.cpp:141] Setting up inception_5a/3x3
I0403 19:39:19.674943 25434 net.cpp:148] Top shape: 24 320 7 7 (376320)
I0403 19:39:19.674963 25434 net.cpp:156] Memory required for data: 1297544736
I0403 19:39:19.674984 25434 layer_factory.hpp:77] Creating layer inception_5a/relu_3x3
I0403 19:39:19.675007 25434 net.cpp:91] Creating Layer inception_5a/relu_3x3
I0403 19:39:19.675027 25434 net.cpp:425] inception_5a/relu_3x3 <- inception_5a/3x3
I0403 19:39:19.675052 25434 net.cpp:386] inception_5a/relu_3x3 -> inception_5a/3x3 (in-place)
I0403 19:39:19.675420 25434 net.cpp:141] Setting up inception_5a/relu_3x3
I0403 19:39:19.675453 25434 net.cpp:148] Top shape: 24 320 7 7 (376320)
I0403 19:39:19.675472 25434 net.cpp:156] Memory required for data: 1299050016
I0403 19:39:19.675490 25434 layer_factory.hpp:77] Creating layer inception_5a/5x5_reduce
I0403 19:39:19.675519 25434 net.cpp:91] Creating Layer inception_5a/5x5_reduce
I0403 19:39:19.675542 25434 net.cpp:425] inception_5a/5x5_reduce <- pool4/3x3_s2_pool4/3x3_s2_0_split_2
I0403 19:39:19.675568 25434 net.cpp:399] inception_5a/5x5_reduce -> inception_5a/5x5_reduce
I0403 19:39:19.677019 25434 net.cpp:141] Setting up inception_5a/5x5_reduce
I0403 19:39:19.677055 25434 net.cpp:148] Top shape: 24 32 7 7 (37632)
I0403 19:39:19.677074 25434 net.cpp:156] Memory required for data: 1299200544
I0403 19:39:19.677096 25434 layer_factory.hpp:77] Creating layer inception_5a/relu_5x5_reduce
I0403 19:39:19.677122 25434 net.cpp:91] Creating Layer inception_5a/relu_5x5_reduce
I0403 19:39:19.677145 25434 net.cpp:425] inception_5a/relu_5x5_reduce <- inception_5a/5x5_reduce
I0403 19:39:19.677165 25434 net.cpp:386] inception_5a/relu_5x5_reduce -> inception_5a/5x5_reduce (in-place)
I0403 19:39:19.677538 25434 net.cpp:141] Setting up inception_5a/relu_5x5_reduce
I0403 19:39:19.677572 25434 net.cpp:148] Top shape: 24 32 7 7 (37632)
I0403 19:39:19.677589 25434 net.cpp:156] Memory required for data: 1299351072
I0403 19:39:19.677608 25434 layer_factory.hpp:77] Creating layer inception_5a/5x5
I0403 19:39:19.677635 25434 net.cpp:91] Creating Layer inception_5a/5x5
I0403 19:39:19.677657 25434 net.cpp:425] inception_5a/5x5 <- inception_5a/5x5_reduce
I0403 19:39:19.677683 25434 net.cpp:399] inception_5a/5x5 -> inception_5a/5x5
I0403 19:39:19.679810 25434 net.cpp:141] Setting up inception_5a/5x5
I0403 19:39:19.679858 25434 net.cpp:148] Top shape: 24 128 7 7 (150528)
I0403 19:39:19.679878 25434 net.cpp:156] Memory required for data: 1299953184
I0403 19:39:19.679900 25434 layer_factory.hpp:77] Creating layer inception_5a/relu_5x5
I0403 19:39:19.679922 25434 net.cpp:91] Creating Layer inception_5a/relu_5x5
I0403 19:39:19.679942 25434 net.cpp:425] inception_5a/relu_5x5 <- inception_5a/5x5
I0403 19:39:19.679965 25434 net.cpp:386] inception_5a/relu_5x5 -> inception_5a/5x5 (in-place)
I0403 19:39:19.680200 25434 net.cpp:141] Setting up inception_5a/relu_5x5
I0403 19:39:19.680233 25434 net.cpp:148] Top shape: 24 128 7 7 (150528)
I0403 19:39:19.680250 25434 net.cpp:156] Memory required for data: 1300555296
I0403 19:39:19.680269 25434 layer_factory.hpp:77] Creating layer inception_5a/pool
I0403 19:39:19.680296 25434 net.cpp:91] Creating Layer inception_5a/pool
I0403 19:39:19.680320 25434 net.cpp:425] inception_5a/pool <- pool4/3x3_s2_pool4/3x3_s2_0_split_3
I0403 19:39:19.680341 25434 net.cpp:399] inception_5a/pool -> inception_5a/pool
I0403 19:39:19.680431 25434 net.cpp:141] Setting up inception_5a/pool
I0403 19:39:19.680460 25434 net.cpp:148] Top shape: 24 832 7 7 (978432)
I0403 19:39:19.680477 25434 net.cpp:156] Memory required for data: 1304469024
I0403 19:39:19.680495 25434 layer_factory.hpp:77] Creating layer inception_5a/pool_proj
I0403 19:39:19.680521 25434 net.cpp:91] Creating Layer inception_5a/pool_proj
I0403 19:39:19.680542 25434 net.cpp:425] inception_5a/pool_proj <- inception_5a/pool
I0403 19:39:19.680568 25434 net.cpp:399] inception_5a/pool_proj -> inception_5a/pool_proj
I0403 19:39:19.683378 25434 net.cpp:141] Setting up inception_5a/pool_proj
I0403 19:39:19.683418 25434 net.cpp:148] Top shape: 24 128 7 7 (150528)
I0403 19:39:19.683439 25434 net.cpp:156] Memory required for data: 1305071136
I0403 19:39:19.683460 25434 layer_factory.hpp:77] Creating layer inception_5a/relu_pool_proj
I0403 19:39:19.683482 25434 net.cpp:91] Creating Layer inception_5a/relu_pool_proj
I0403 19:39:19.683502 25434 net.cpp:425] inception_5a/relu_pool_proj <- inception_5a/pool_proj
I0403 19:39:19.683526 25434 net.cpp:386] inception_5a/relu_pool_proj -> inception_5a/pool_proj (in-place)
I0403 19:39:19.683883 25434 net.cpp:141] Setting up inception_5a/relu_pool_proj
I0403 19:39:19.683918 25434 net.cpp:148] Top shape: 24 128 7 7 (150528)
I0403 19:39:19.683936 25434 net.cpp:156] Memory required for data: 1305673248
I0403 19:39:19.683954 25434 layer_factory.hpp:77] Creating layer inception_5a/output
I0403 19:39:19.683975 25434 net.cpp:91] Creating Layer inception_5a/output
I0403 19:39:19.683995 25434 net.cpp:425] inception_5a/output <- inception_5a/1x1
I0403 19:39:19.684015 25434 net.cpp:425] inception_5a/output <- inception_5a/3x3
I0403 19:39:19.684034 25434 net.cpp:425] inception_5a/output <- inception_5a/5x5
I0403 19:39:19.684053 25434 net.cpp:425] inception_5a/output <- inception_5a/pool_proj
I0403 19:39:19.684073 25434 net.cpp:399] inception_5a/output -> inception_5a/output
I0403 19:39:19.684137 25434 net.cpp:141] Setting up inception_5a/output
I0403 19:39:19.684167 25434 net.cpp:148] Top shape: 24 832 7 7 (978432)
I0403 19:39:19.684185 25434 net.cpp:156] Memory required for data: 1309586976
I0403 19:39:19.684203 25434 layer_factory.hpp:77] Creating layer inception_5a/output_inception_5a/output_0_split
I0403 19:39:19.684226 25434 net.cpp:91] Creating Layer inception_5a/output_inception_5a/output_0_split
I0403 19:39:19.684245 25434 net.cpp:425] inception_5a/output_inception_5a/output_0_split <- inception_5a/output
I0403 19:39:19.684267 25434 net.cpp:399] inception_5a/output_inception_5a/output_0_split -> inception_5a/output_inception_5a/output_0_split_0
I0403 19:39:19.684305 25434 net.cpp:399] inception_5a/output_inception_5a/output_0_split -> inception_5a/output_inception_5a/output_0_split_1
I0403 19:39:19.684335 25434 net.cpp:399] inception_5a/output_inception_5a/output_0_split -> inception_5a/output_inception_5a/output_0_split_2
I0403 19:39:19.684363 25434 net.cpp:399] inception_5a/output_inception_5a/output_0_split -> inception_5a/output_inception_5a/output_0_split_3
I0403 19:39:19.684504 25434 net.cpp:141] Setting up inception_5a/output_inception_5a/output_0_split
I0403 19:39:19.684535 25434 net.cpp:148] Top shape: 24 832 7 7 (978432)
I0403 19:39:19.684553 25434 net.cpp:148] Top shape: 24 832 7 7 (978432)
I0403 19:39:19.684572 25434 net.cpp:148] Top shape: 24 832 7 7 (978432)
I0403 19:39:19.684592 25434 net.cpp:148] Top shape: 24 832 7 7 (978432)
I0403 19:39:19.684607 25434 net.cpp:156] Memory required for data: 1325241888
I0403 19:39:19.684624 25434 layer_factory.hpp:77] Creating layer inception_5b/1x1
I0403 19:39:19.684651 25434 net.cpp:91] Creating Layer inception_5b/1x1
I0403 19:39:19.684674 25434 net.cpp:425] inception_5b/1x1 <- inception_5a/output_inception_5a/output_0_split_0
I0403 19:39:19.684700 25434 net.cpp:399] inception_5b/1x1 -> inception_5b/1x1
I0403 19:39:19.689330 25434 net.cpp:141] Setting up inception_5b/1x1
I0403 19:39:19.689369 25434 net.cpp:148] Top shape: 24 384 7 7 (451584)
I0403 19:39:19.689390 25434 net.cpp:156] Memory required for data: 1327048224
I0403 19:39:19.689414 25434 layer_factory.hpp:77] Creating layer inception_5b/relu_1x1
I0403 19:39:19.689436 25434 net.cpp:91] Creating Layer inception_5b/relu_1x1
I0403 19:39:19.689455 25434 net.cpp:425] inception_5b/relu_1x1 <- inception_5b/1x1
I0403 19:39:19.689481 25434 net.cpp:386] inception_5b/relu_1x1 -> inception_5b/1x1 (in-place)
I0403 19:39:19.689856 25434 net.cpp:141] Setting up inception_5b/relu_1x1
I0403 19:39:19.689890 25434 net.cpp:148] Top shape: 24 384 7 7 (451584)
I0403 19:39:19.689910 25434 net.cpp:156] Memory required for data: 1328854560
I0403 19:39:19.689929 25434 layer_factory.hpp:77] Creating layer inception_5b/3x3_reduce
I0403 19:39:19.689955 25434 net.cpp:91] Creating Layer inception_5b/3x3_reduce
I0403 19:39:19.689978 25434 net.cpp:425] inception_5b/3x3_reduce <- inception_5a/output_inception_5a/output_0_split_1
I0403 19:39:19.690003 25434 net.cpp:399] inception_5b/3x3_reduce -> inception_5b/3x3_reduce
I0403 19:39:19.693274 25434 net.cpp:141] Setting up inception_5b/3x3_reduce
I0403 19:39:19.693318 25434 net.cpp:148] Top shape: 24 192 7 7 (225792)
I0403 19:39:19.693339 25434 net.cpp:156] Memory required for data: 1329757728
I0403 19:39:19.693362 25434 layer_factory.hpp:77] Creating layer inception_5b/relu_3x3_reduce
I0403 19:39:19.693385 25434 net.cpp:91] Creating Layer inception_5b/relu_3x3_reduce
I0403 19:39:19.693405 25434 net.cpp:425] inception_5b/relu_3x3_reduce <- inception_5b/3x3_reduce
I0403 19:39:19.693426 25434 net.cpp:386] inception_5b/relu_3x3_reduce -> inception_5b/3x3_reduce (in-place)
I0403 19:39:19.693662 25434 net.cpp:141] Setting up inception_5b/relu_3x3_reduce
I0403 19:39:19.693694 25434 net.cpp:148] Top shape: 24 192 7 7 (225792)
I0403 19:39:19.693711 25434 net.cpp:156] Memory required for data: 1330660896
I0403 19:39:19.693729 25434 layer_factory.hpp:77] Creating layer inception_5b/3x3
I0403 19:39:19.693758 25434 net.cpp:91] Creating Layer inception_5b/3x3
I0403 19:39:19.693778 25434 net.cpp:425] inception_5b/3x3 <- inception_5b/3x3_reduce
I0403 19:39:19.693805 25434 net.cpp:399] inception_5b/3x3 -> inception_5b/3x3
I0403 19:39:19.702208 25434 net.cpp:141] Setting up inception_5b/3x3
I0403 19:39:19.702246 25434 net.cpp:148] Top shape: 24 384 7 7 (451584)
I0403 19:39:19.702265 25434 net.cpp:156] Memory required for data: 1332467232
I0403 19:39:19.702293 25434 layer_factory.hpp:77] Creating layer inception_5b/relu_3x3
I0403 19:39:19.702317 25434 net.cpp:91] Creating Layer inception_5b/relu_3x3
I0403 19:39:19.702338 25434 net.cpp:425] inception_5b/relu_3x3 <- inception_5b/3x3
I0403 19:39:19.702363 25434 net.cpp:386] inception_5b/relu_3x3 -> inception_5b/3x3 (in-place)
I0403 19:39:19.702726 25434 net.cpp:141] Setting up inception_5b/relu_3x3
I0403 19:39:19.702761 25434 net.cpp:148] Top shape: 24 384 7 7 (451584)
I0403 19:39:19.702780 25434 net.cpp:156] Memory required for data: 1334273568
I0403 19:39:19.702798 25434 layer_factory.hpp:77] Creating layer inception_5b/5x5_reduce
I0403 19:39:19.702846 25434 net.cpp:91] Creating Layer inception_5b/5x5_reduce
I0403 19:39:19.702869 25434 net.cpp:425] inception_5b/5x5_reduce <- inception_5a/output_inception_5a/output_0_split_2
I0403 19:39:19.702896 25434 net.cpp:399] inception_5b/5x5_reduce -> inception_5b/5x5_reduce
I0403 19:39:19.704524 25434 net.cpp:141] Setting up inception_5b/5x5_reduce
I0403 19:39:19.704561 25434 net.cpp:148] Top shape: 24 48 7 7 (56448)
I0403 19:39:19.704583 25434 net.cpp:156] Memory required for data: 1334499360
I0403 19:39:19.704605 25434 layer_factory.hpp:77] Creating layer inception_5b/relu_5x5_reduce
I0403 19:39:19.704627 25434 net.cpp:91] Creating Layer inception_5b/relu_5x5_reduce
I0403 19:39:19.704648 25434 net.cpp:425] inception_5b/relu_5x5_reduce <- inception_5b/5x5_reduce
I0403 19:39:19.704674 25434 net.cpp:386] inception_5b/relu_5x5_reduce -> inception_5b/5x5_reduce (in-place)
I0403 19:39:19.705137 25434 net.cpp:141] Setting up inception_5b/relu_5x5_reduce
I0403 19:39:19.705170 25434 net.cpp:148] Top shape: 24 48 7 7 (56448)
I0403 19:39:19.705189 25434 net.cpp:156] Memory required for data: 1334725152
I0403 19:39:19.705207 25434 layer_factory.hpp:77] Creating layer inception_5b/5x5
I0403 19:39:19.705232 25434 net.cpp:91] Creating Layer inception_5b/5x5
I0403 19:39:19.705255 25434 net.cpp:425] inception_5b/5x5 <- inception_5b/5x5_reduce
I0403 19:39:19.705277 25434 net.cpp:399] inception_5b/5x5 -> inception_5b/5x5
I0403 19:39:19.707824 25434 net.cpp:141] Setting up inception_5b/5x5
I0403 19:39:19.707860 25434 net.cpp:148] Top shape: 24 128 7 7 (150528)
I0403 19:39:19.707880 25434 net.cpp:156] Memory required for data: 1335327264
I0403 19:39:19.707901 25434 layer_factory.hpp:77] Creating layer inception_5b/relu_5x5
I0403 19:39:19.707924 25434 net.cpp:91] Creating Layer inception_5b/relu_5x5
I0403 19:39:19.707944 25434 net.cpp:425] inception_5b/relu_5x5 <- inception_5b/5x5
I0403 19:39:19.707969 25434 net.cpp:386] inception_5b/relu_5x5 -> inception_5b/5x5 (in-place)
I0403 19:39:19.708212 25434 net.cpp:141] Setting up inception_5b/relu_5x5
I0403 19:39:19.708243 25434 net.cpp:148] Top shape: 24 128 7 7 (150528)
I0403 19:39:19.708261 25434 net.cpp:156] Memory required for data: 1335929376
I0403 19:39:19.708281 25434 layer_factory.hpp:77] Creating layer inception_5b/pool
I0403 19:39:19.708312 25434 net.cpp:91] Creating Layer inception_5b/pool
I0403 19:39:19.708334 25434 net.cpp:425] inception_5b/pool <- inception_5a/output_inception_5a/output_0_split_3
I0403 19:39:19.708359 25434 net.cpp:399] inception_5b/pool -> inception_5b/pool
I0403 19:39:19.708451 25434 net.cpp:141] Setting up inception_5b/pool
I0403 19:39:19.708482 25434 net.cpp:148] Top shape: 24 832 7 7 (978432)
I0403 19:39:19.708500 25434 net.cpp:156] Memory required for data: 1339843104
I0403 19:39:19.708518 25434 layer_factory.hpp:77] Creating layer inception_5b/pool_proj
I0403 19:39:19.708545 25434 net.cpp:91] Creating Layer inception_5b/pool_proj
I0403 19:39:19.708570 25434 net.cpp:425] inception_5b/pool_proj <- inception_5b/pool
I0403 19:39:19.708596 25434 net.cpp:399] inception_5b/pool_proj -> inception_5b/pool_proj
I0403 19:39:19.711447 25434 net.cpp:141] Setting up inception_5b/pool_proj
I0403 19:39:19.711488 25434 net.cpp:148] Top shape: 24 128 7 7 (150528)
I0403 19:39:19.711508 25434 net.cpp:156] Memory required for data: 1340445216
I0403 19:39:19.711531 25434 layer_factory.hpp:77] Creating layer inception_5b/relu_pool_proj
I0403 19:39:19.711555 25434 net.cpp:91] Creating Layer inception_5b/relu_pool_proj
I0403 19:39:19.711575 25434 net.cpp:425] inception_5b/relu_pool_proj <- inception_5b/pool_proj
I0403 19:39:19.711599 25434 net.cpp:386] inception_5b/relu_pool_proj -> inception_5b/pool_proj (in-place)
I0403 19:39:19.711963 25434 net.cpp:141] Setting up inception_5b/relu_pool_proj
I0403 19:39:19.711999 25434 net.cpp:148] Top shape: 24 128 7 7 (150528)
I0403 19:39:19.712019 25434 net.cpp:156] Memory required for data: 1341047328
I0403 19:39:19.712038 25434 layer_factory.hpp:77] Creating layer inception_5b/output
I0403 19:39:19.712060 25434 net.cpp:91] Creating Layer inception_5b/output
I0403 19:39:19.712100 25434 net.cpp:425] inception_5b/output <- inception_5b/1x1
I0403 19:39:19.712122 25434 net.cpp:425] inception_5b/output <- inception_5b/3x3
I0403 19:39:19.712143 25434 net.cpp:425] inception_5b/output <- inception_5b/5x5
I0403 19:39:19.712163 25434 net.cpp:425] inception_5b/output <- inception_5b/pool_proj
I0403 19:39:19.712189 25434 net.cpp:399] inception_5b/output -> inception_5b/output
I0403 19:39:19.712255 25434 net.cpp:141] Setting up inception_5b/output
I0403 19:39:19.712285 25434 net.cpp:148] Top shape: 24 1024 7 7 (1204224)
I0403 19:39:19.712311 25434 net.cpp:156] Memory required for data: 1345864224
I0403 19:39:19.712329 25434 layer_factory.hpp:77] Creating layer pool5/7x7_s1
I0403 19:39:19.712354 25434 net.cpp:91] Creating Layer pool5/7x7_s1
I0403 19:39:19.712376 25434 net.cpp:425] pool5/7x7_s1 <- inception_5b/output
I0403 19:39:19.712400 25434 net.cpp:399] pool5/7x7_s1 -> pool5/7x7_s1
I0403 19:39:19.712671 25434 net.cpp:141] Setting up pool5/7x7_s1
I0403 19:39:19.712702 25434 net.cpp:148] Top shape: 24 1024 1 1 (24576)
I0403 19:39:19.712720 25434 net.cpp:156] Memory required for data: 1345962528
I0403 19:39:19.712738 25434 layer_factory.hpp:77] Creating layer pool5/drop_7x7_s1
I0403 19:39:19.712761 25434 net.cpp:91] Creating Layer pool5/drop_7x7_s1
I0403 19:39:19.712781 25434 net.cpp:425] pool5/drop_7x7_s1 <- pool5/7x7_s1
I0403 19:39:19.712807 25434 net.cpp:386] pool5/drop_7x7_s1 -> pool5/7x7_s1 (in-place)
I0403 19:39:19.712870 25434 net.cpp:141] Setting up pool5/drop_7x7_s1
I0403 19:39:19.712903 25434 net.cpp:148] Top shape: 24 1024 1 1 (24576)
I0403 19:39:19.712921 25434 net.cpp:156] Memory required for data: 1346060832
I0403 19:39:19.712939 25434 layer_factory.hpp:77] Creating layer loss3/classifier_plantvillage
I0403 19:39:19.712965 25434 net.cpp:91] Creating Layer loss3/classifier_plantvillage
I0403 19:39:19.712985 25434 net.cpp:425] loss3/classifier_plantvillage <- pool5/7x7_s1
I0403 19:39:19.713009 25434 net.cpp:399] loss3/classifier_plantvillage -> loss3/classifier_plantvillage
I0403 19:39:19.713548 25434 net.cpp:141] Setting up loss3/classifier_plantvillage
I0403 19:39:19.713582 25434 net.cpp:148] Top shape: 24 38 (912)
I0403 19:39:19.713603 25434 net.cpp:156] Memory required for data: 1346064480
I0403 19:39:19.713626 25434 layer_factory.hpp:77] Creating layer loss3/classifier_plantvillage_loss3/classifier_plantvillage_0_split
I0403 19:39:19.713649 25434 net.cpp:91] Creating Layer loss3/classifier_plantvillage_loss3/classifier_plantvillage_0_split
I0403 19:39:19.713668 25434 net.cpp:425] loss3/classifier_plantvillage_loss3/classifier_plantvillage_0_split <- loss3/classifier_plantvillage
I0403 19:39:19.713688 25434 net.cpp:399] loss3/classifier_plantvillage_loss3/classifier_plantvillage_0_split -> loss3/classifier_plantvillage_loss3/classifier_plantvillage_0_split_0
I0403 19:39:19.713712 25434 net.cpp:399] loss3/classifier_plantvillage_loss3/classifier_plantvillage_0_split -> loss3/classifier_plantvillage_loss3/classifier_plantvillage_0_split_1
I0403 19:39:19.713737 25434 net.cpp:399] loss3/classifier_plantvillage_loss3/classifier_plantvillage_0_split -> loss3/classifier_plantvillage_loss3/classifier_plantvillage_0_split_2
I0403 19:39:19.713769 25434 net.cpp:399] loss3/classifier_plantvillage_loss3/classifier_plantvillage_0_split -> loss3/classifier_plantvillage_loss3/classifier_plantvillage_0_split_3
I0403 19:39:19.713897 25434 net.cpp:141] Setting up loss3/classifier_plantvillage_loss3/classifier_plantvillage_0_split
I0403 19:39:19.713927 25434 net.cpp:148] Top shape: 24 38 (912)
I0403 19:39:19.713946 25434 net.cpp:148] Top shape: 24 38 (912)
I0403 19:39:19.713964 25434 net.cpp:148] Top shape: 24 38 (912)
I0403 19:39:19.713982 25434 net.cpp:148] Top shape: 24 38 (912)
I0403 19:39:19.713997 25434 net.cpp:156] Memory required for data: 1346079072
I0403 19:39:19.714015 25434 layer_factory.hpp:77] Creating layer loss1/loss
I0403 19:39:19.714043 25434 net.cpp:91] Creating Layer loss1/loss
I0403 19:39:19.714066 25434 net.cpp:425] loss1/loss <- loss1/classifier_plantvillage_loss1/classifier_plantvillage_0_split_0
I0403 19:39:19.714104 25434 net.cpp:425] loss1/loss <- label_data_1_split_0
…
