…
I0403 19:30:38.984025 24927 net.cpp:313] The NetState phase (1) differed from the phase (0) specified by a rule in layer data
I0403 19:30:38.985390 24927 net.cpp:49] Initializing net from parameters: 
state {
  phase: TEST
}
layer {
  name: "data"
  type: "Data"
  top: "data"
  top: "label"
  include {
    phase: TEST
  }
  transform_param {
    mirror: false
    crop_size: 224
    mean_file: "/home/mohanty/data/final_dataset/lmdb/grayscale-80-20/mean.binaryproto"
  }
  data_param {
    source: "/home/mohanty/data/final_dataset/lmdb/grayscale-80-20/test_db"
    batch_size: 24
    backend: LMDB
  }
}
layer {
  name: "conv1/7x7_s2"
  type: "Convolution"
  bottom: "data"
  top: "conv1/7x7_s2"
  param {
    lr_mult: 1
    decay_mult: 1
  }
  param {
    lr_mult: 2
    decay_mult: 0
  }
  convolution_param {
    num_output: 64
    pad: 3
    kernel_size: 7
    stride: 2
    weight_filler {
      type: "xavier"
      std: 0.1
    }
    bias_filler {
      type: "constant"
      value: 0.2
    }
  }
}
layer {
  name: "conv1/relu_7x7"
  type: "ReLU"
  bottom: "conv1/7x7_s2"
  top: "conv1/7x7_s2"
}
layer {
  name: "pool1/3x3_s2"
  type: "Pooling"
  bottom: "conv1/7x7_s2"
  top: "pool1/3x3_s2"
  pooling_param {
    pool: MAX
    kernel_size: 3
    stride: 2
  }
}
layer {
  name: "pool1/norm1"
  type: "LRN"
  bottom: "pool1/3x3_s2"
  top: "pool1/norm1"
  lrn_param {
    local_size: 5
    alpha: 0.0001
    beta: 0.75
  }
}
layer {
  name: "conv2/3x3_reduce"
  type: "Convolution"
  bottom: "pool1/norm1"
  top: "conv2/3x3_reduce"
  param {
    lr_mult: 1
    decay_mult: 1
  }
  param {
    lr_mult: 2
    decay_mult: 0
  }
  convolution_param {
    num_output: 64
    kernel_size: 1
    weight_filler {
      type: "xavier"
      std: 0.1
    }
    bias_filler {
      type: "constant"
      value: 0.2
    }
  }
}
layer {
  name: "conv2/relu_3x3_reduce"
  type: "ReLU"
  bottom: "conv2/3x3_reduce"
  top: "conv2/3x3_reduce"
}
layer {
  name: "conv2/3x3"
  type: "Convolution"
  bottom: "conv2/3x3_reduce"
  top: "conv2/3x3"
  param {
    lr_mult: 1
    decay_mult: 1
  }
  param {
    lr_mult: 2
    decay_mult: 0
  }
  convolution_param {
    num_output: 192
    pad: 1
    kernel_size: 3
    weight_filler {
      type: "xavier"
      std: 0.03
    }
    bias_filler {
      type: "constant"
      value: 0.2
    }
  }
}
layer {
  name: "conv2/relu_3x3"
  type: "ReLU"
  bottom: "conv2/3x3"
  top: "conv2/3x3"
}
layer {
  name: "conv2/norm2"
  type: "LRN"
  bottom: "conv2/3x3"
  top: "conv2/norm2"
  lrn_param {
    local_size: 5
    alpha: 0.0001
    beta: 0.75
  }
}
layer {
  name: "pool2/3x3_s2"
  type: "Pooling"
  bottom: "conv2/norm2"
  top: "pool2/3x3_s2"
  pooling_param {
    pool: MAX
    kernel_size: 3
    stride: 2
  }
}
layer {
  name: "inception_3a/1x1"
  type: "Convolution"
  bottom: "pool2/3x3_s2"
  top: "inception_3a/1x1"
  param {
    lr_mult: 1
    decay_mult: 1
  }
  param {
    lr_mult: 2
    decay_mult: 0
  }
  convolution_param {
    num_output: 64
    kernel_size: 1
    weight_filler {
      type: "xavier"
      std: 0.03
    }
    bias_filler {
      type: "constant"
      value: 0.2
    }
  }
}
layer {
  name: "inception_3a/relu_1x1"
  type: "ReLU"
  bottom: "inception_3a/1x1"
  top: "inception_3a/1x1"
}
layer {
  name: "inception_3a/3x3_reduce"
  type: "Convolution"
  bottom: "pool2/3x3_s2"
  top: "inception_3a/3x3_reduce"
  param {
    lr_mult: 1
    decay_mult: 1
  }
  param {
    lr_mult: 2
    decay_mult: 0
  }
  convolution_param {
    num_output: 96
    kernel_size: 1
    weight_filler {
      type: "xavier"
      std: 0.09
    }
    bias_filler {
      type: "constant"
      value: 0.2
    }
  }
}
layer {
  name: "inception_3a/relu_3x3_reduce"
  type: "ReLU"
  bottom: "inception_3a/3x3_reduce"
  top: "inception_3a/3x3_reduce"
}
layer {
  name: "inception_3a/3x3"
  type: "Convolution"
  bottom: "inception_3a/3x3_reduce"
  top: "inception_3a/3x3"
  param {
    lr_mult: 1
    decay_mult: 1
  }
  param {
    lr_mult: 2
    decay_mult: 0
  }
  convolution_param {
    num_output: 128
    pad: 1
    kernel_size: 3
    weight_filler {
      type: "xavier"
      std: 0.03
    }
    bias_filler {
      type: "constant"
      value: 0.2
    }
  }
}
layer {
  name: "inception_3a/relu_3x3"
  type: "ReLU"
  bottom: "inception_3a/3x3"
  top: "inception_3a/3x3"
}
layer {
  name: "inception_3a/5x5_reduce"
  type: "Convolution"
  bottom: "pool2/3x3_s2"
  top: "inception_3a/5x5_reduce"
  param {
    lr_mult: 1
    decay_mult: 1
  }
  param {
    lr_mult: 2
    decay_mult: 0
  }
  convolution_param {
    num_output: 16
    kernel_size: 1
    weight_filler {
      type: "xavier"
      std: 0.2
    }
    bias_filler {
      type: "constant"
      value: 0.2
    }
  }
}
layer {
  name: "inception_3a/relu_5x5_reduce"
  type: "ReLU"
  bottom: "inception_3a/5x5_reduce"
  top: "inception_3a/5x5_reduce"
}
layer {
  name: "inception_3a/5x5"
  type: "Convolution"
  bottom: "inception_3a/5x5_reduce"
  top: "inception_3a/5x5"
  param {
    lr_mult: 1
    decay_mult: 1
  }
  param {
    lr_mult: 2
    decay_mult: 0
  }
  convolution_param {
    num_output: 32
    pad: 2
    kernel_size: 5
    weight_filler {
      type: "xavier"
      std: 0.03
    }
    bias_filler {
      type: "constant"
      value: 0.2
    }
  }
}
layer {
  name: "inception_3a/relu_5x5"
  type: "ReLU"
  bottom: "inception_3a/5x5"
  top: "inception_3a/5x5"
}
layer {
  name: "inception_3a/pool"
  type: "Pooling"
  bottom: "pool2/3x3_s2"
  top: "inception_3a/pool"
  pooling_param {
    pool: MAX
    kernel_size: 3
    stride: 1
    pad: 1
  }
}
layer {
  name: "inception_3a/pool_proj"
  type: "Convolution"
  bottom: "inception_3a/pool"
  top: "inception_3a/pool_proj"
  param {
    lr_mult: 1
    decay_mult: 1
  }
  param {
    lr_mult: 2
    decay_mult: 0
  }
  convolution_param {
    num_output: 32
    kernel_size: 1
    weight_filler {
      type: "xavier"
      std: 0.1
    }
    bias_filler {
      type: "constant"
      value: 0.2
    }
  }
}
layer {
  name: "inception_3a/relu_pool_proj"
  type: "ReLU"
  bottom: "inception_3a/pool_proj"
  top: "inception_3a/pool_proj"
}
layer {
  name: "inception_3a/output"
  type: "Concat"
  bottom: "inception_3a/1x1"
  bottom: "inception_3a/3x3"
  bottom: "inception_3a/5x5"
  bottom: "inception_3a/pool_proj"
  top: "inception_3a/output"
}
layer {
  name: "inception_3b/1x1"
  type: "Convolution"
  bottom: "inception_3a/output"
  top: "inception_3b/1x1"
  param {
    lr_mult: 1
    decay_mult: 1
  }
  param {
    lr_mult: 2
    decay_mult: 0
  }
  convolution_param {
    num_output: 128
    kernel_size: 1
    weight_filler {
      type: "xavier"
      std: 0.03
    }
    bias_filler {
      type: "constant"
      value: 0.2
    }
  }
}
layer {
  name: "inception_3b/relu_1x1"
  type: "ReLU"
  bottom: "inception_3b/1x1"
  top: "inception_3b/1x1"
}
layer {
  name: "inception_3b/3x3_reduce"
  type: "Convolution"
  bottom: "inception_3a/output"
  top: "inception_3b/3x3_reduce"
  param {
    lr_mult: 1
    decay_mult: 1
  }
  param {
    lr_mult: 2
    decay_mult: 0
  }
  convolution_param {
    num_output: 128
    kernel_size: 1
    weight_filler {
      type: "xavier"
      std: 0.09
    }
    bias_filler {
      type: "constant"
      value: 0.2
    }
  }
}
layer {
  name: "inception_3b/relu_3x3_reduce"
  type: "ReLU"
  bottom: "inception_3b/3x3_reduce"
  top: "inception_3b/3x3_reduce"
}
layer {
  name: "inception_3b/3x3"
  type: "Convolution"
  bottom: "inception_3b/3x3_reduce"
  top: "inception_3b/3x3"
  param {
    lr_mult: 1
    decay_mult: 1
  }
  param {
    lr_mult: 2
    decay_mult: 0
  }
  convolution_param {
    num_output: 192
    pad: 1
    kernel_size: 3
    weight_filler {
      type: "xavier"
      std: 0.03
    }
    bias_filler {
      type: "constant"
      value: 0.2
    }
  }
}
layer {
  name: "inception_3b/relu_3x3"
  type: "ReLU"
  bottom: "inception_3b/3x3"
  top: "inception_3b/3x3"
}
layer {
  name: "inception_3b/5x5_reduce"
  type: "Convolution"
  bottom: "inception_3a/output"
  top: "inception_3b/5x5_reduce"
  param {
    lr_mult: 1
    decay_mult: 1
  }
  param {
    lr_mult: 2
    decay_mult: 0
  }
  convolution_param {
    num_output: 32
    kernel_size: 1
    weight_filler {
      type: "xavier"
      std: 0.2
    }
    bias_filler {
      type: "constant"
      value: 0.2
    }
  }
}
layer {
  name: "inception_3b/relu_5x5_reduce"
  type: "ReLU"
  bottom: "inception_3b/5x5_reduce"
  top: "inception_3b/5x5_reduce"
}
layer {
  name: "inception_3b/5x5"
  type: "Convolution"
  bottom: "inception_3b/5x5_reduce"
  top: "inception_3b/5x5"
  param {
    lr_mult: 1
    decay_mult: 1
  }
  param {
    lr_mult: 2
    decay_mult: 0
  }
  convolution_param {
    num_output: 96
    pad: 2
    kernel_size: 5
    weight_filler {
      type: "xavier"
      std: 0.03
    }
    bias_filler {
      type: "constant"
      value: 0.2
    }
  }
}
layer {
  name: "inception_3b/relu_5x5"
  type: "ReLU"
  bottom: "inception_3b/5x5"
  top: "inception_3b/5x5"
}
layer {
  name: "inception_3b/pool"
  type: "Pooling"
  bottom: "inception_3a/output"
  top: "inception_3b/pool"
  pooling_param {
    pool: MAX
    kernel_size: 3
    stride: 1
    pad: 1
  }
}
layer {
  name: "inception_3b/pool_proj"
  type: "Convolution"
  bottom: "inception_3b/pool"
  top: "inception_3b/pool_proj"
  param {
    lr_mult: 1
    decay_mult: 1
  }
  param {
    lr_mult: 2
    decay_mult: 0
  }
  convolution_param {
    num_output: 64
    kernel_size: 1
    weight_filler {
      type: "xavier"
      std: 0.1
    }
    bias_filler {
      type: "constant"
      value: 0.2
    }
  }
}
layer {
  name: "inception_3b/relu_pool_proj"
  type: "ReLU"
  bottom: "inception_3b/pool_proj"
  top: "inception_3b/pool_proj"
}
layer {
  name: "inception_3b/output"
  type: "Concat"
  bottom: "inception_3b/1x1"
  bottom: "inception_3b/3x3"
  bottom: "inception_3b/5x5"
  bottom: "inception_3b/pool_proj"
  top: "inception_3b/output"
}
layer {
  name: "pool3/3x3_s2"
  type: "Pooling"
  bottom: "inception_3b/output"
  top: "pool3/3x3_s2"
  pooling_param {
    pool: MAX
    kernel_size: 3
    stride: 2
  }
}
layer {
  name: "inception_4a/1x1"
  type: "Convolution"
  bottom: "pool3/3x3_s2"
  top: "inception_4a/1x1"
  param {
    lr_mult: 1
    decay_mult: 1
  }
  param {
    lr_mult: 2
    decay_mult: 0
  }
  convolution_param {
    num_output: 192
    kernel_size: 1
    weight_filler {
      type: "xavier"
      std: 0.03
    }
    bias_filler {
      type: "constant"
      value: 0.2
    }
  }
}
layer {
  name: "inception_4a/relu_1x1"
  type: "ReLU"
  bottom: "inception_4a/1x1"
  top: "inception_4a/1x1"
}
layer {
  name: "inception_4a/3x3_reduce"
  type: "Convolution"
  bottom: "pool3/3x3_s2"
  top: "inception_4a/3x3_reduce"
  param {
    lr_mult: 1
    decay_mult: 1
  }
  param {
    lr_mult: 2
    decay_mult: 0
  }
  convolution_param {
    num_output: 96
    kernel_size: 1
    weight_filler {
      type: "xavier"
      std: 0.09
    }
    bias_filler {
      type: "constant"
      value: 0.2
    }
  }
}
layer {
  name: "inception_4a/relu_3x3_reduce"
  type: "ReLU"
  bottom: "inception_4a/3x3_reduce"
  top: "inception_4a/3x3_reduce"
}
layer {
  name: "inception_4a/3x3"
  type: "Convolution"
  bottom: "inception_4a/3x3_reduce"
  top: "inception_4a/3x3"
  param {
    lr_mult: 1
    decay_mult: 1
  }
  param {
    lr_mult: 2
    decay_mult: 0
  }
  convolution_param {
    num_output: 208
    pad: 1
    kernel_size: 3
    weight_filler {
      type: "xavier"
      std: 0.03
    }
    bias_filler {
      type: "constant"
      value: 0.2
    }
  }
}
layer {
  name: "inception_4a/relu_3x3"
  type: "ReLU"
  bottom: "inception_4a/3x3"
  top: "inception_4a/3x3"
}
layer {
  name: "inception_4a/5x5_reduce"
  type: "Convolution"
  bottom: "pool3/3x3_s2"
  top: "inception_4a/5x5_reduce"
  param {
    lr_mult: 1
    decay_mult: 1
  }
  param {
    lr_mult: 2
    decay_mult: 0
  }
  convolution_param {
    num_output: 16
    kernel_size: 1
    weight_filler {
      type: "xavier"
      std: 0.2
    }
    bias_filler {
      type: "constant"
      value: 0.2
    }
  }
}
layer {
  name: "inception_4a/relu_5x5_reduce"
  type: "ReLU"
  bottom: "inception_4a/5x5_reduce"
  top: "inception_4a/5x5_reduce"
}
layer {
  name: "inception_4a/5x5"
  type: "Convolution"
  bottom: "inception_4a/5x5_reduce"
  top: "inception_4a/5x5"
  param {
    lr_mult: 1
    decay_mult: 1
  }
  param {
    lr_mult: 2
    decay_mult: 0
  }
  convolution_param {
    num_output: 48
    pad: 2
    kernel_size: 5
    weight_filler {
      type: "xavier"
      std: 0.03
    }
    bias_filler {
      type: "constant"
      value: 0.2
    }
  }
}
layer {
  name: "inception_4a/relu_5x5"
  type: "ReLU"
  bottom: "inception_4a/5x5"
  top: "inception_4a/5x5"
}
layer {
  name: "inception_4a/pool"
  type: "Pooling"
  bottom: "pool3/3x3_s2"
  top: "inception_4a/pool"
  pooling_param {
    pool: MAX
    kernel_size: 3
    stride: 1
    pad: 1
  }
}
layer {
  name: "inception_4a/pool_proj"
  type: "Convolution"
  bottom: "inception_4a/pool"
  top: "inception_4a/pool_proj"
  param {
    lr_mult: 1
    decay_mult: 1
  }
  param {
    lr_mult: 2
    decay_mult: 0
  }
  convolution_param {
    num_output: 64
    kernel_size: 1
    weight_filler {
      type: "xavier"
      std: 0.1
    }
    bias_filler {
      type: "constant"
      value: 0.2
    }
  }
}
layer {
  name: "inception_4a/relu_pool_proj"
  type: "ReLU"
  bottom: "inception_4a/pool_proj"
  top: "inception_4a/pool_proj"
}
layer {
  name: "inception_4a/output"
  type: "Concat"
  bottom: "inception_4a/1x1"
  bottom: "inception_4a/3x3"
  bottom: "inception_4a/5x5"
  bottom: "inception_4a/pool_proj"
  top: "inception_4a/output"
}
layer {
  name: "loss1/ave_pool"
  type: "Pooling"
  bottom: "inception_4a/output"
  top: "loss1/ave_pool"
  pooling_param {
    pool: AVE
    kernel_size: 5
    stride: 3
  }
}
layer {
  name: "loss1/conv"
  type: "Convolution"
  bottom: "loss1/ave_pool"
  top: "loss1/conv"
  param {
    lr_mult: 1
    decay_mult: 1
  }
  param {
    lr_mult: 2
    decay_mult: 0
  }
  convolution_param {
    num_output: 128
    kernel_size: 1
    weight_filler {
      type: "xavier"
      std: 0.08
    }
    bias_filler {
      type: "constant"
      value: 0.2
    }
  }
}
layer {
  name: "loss1/relu_conv"
  type: "ReLU"
  bottom: "loss1/conv"
  top: "loss1/conv"
}
layer {
  name: "loss1/fc"
  type: "InnerProduct"
  bottom: "loss1/conv"
  top: "loss1/fc"
  param {
    lr_mult: 1
    decay_mult: 1
  }
  param {
    lr_mult: 2
    decay_mult: 0
  }
  inner_product_param {
    num_output: 1024
    weight_filler {
      type: "xavier"
      std: 0.02
    }
    bias_filler {
      type: "constant"
      value: 0.2
    }
  }
}
layer {
  name: "loss1/relu_fc"
  type: "ReLU"
  bottom: "loss1/fc"
  top: "loss1/fc"
}
layer {
  name: "loss1/drop_fc"
  type: "Dropout"
  bottom: "loss1/fc"
  top: "loss1/fc"
  dropout_param {
    dropout_ratio: 0.7
  }
}
layer {
  name: "loss1/classifier_plantvillage"
  type: "InnerProduct"
  bottom: "loss1/fc"
  top: "loss1/classifier_plantvillage"
  param {
    lr_mult: 1
    decay_mult: 1
  }
  param {
    lr_mult: 2
    decay_mult: 0
  }
  inner_product_param {
    num_output: 38
    weight_filler {
      type: "xavier"
      std: 0.0009765625
    }
    bias_filler {
      type: "constant"
      value: 0
    }
  }
}
layer {
  name: "inception_4b/1x1"
  type: "Convolution"
  bottom: "inception_4a/output"
  top: "inception_4b/1x1"
  param {
    lr_mult: 1
    decay_mult: 1
  }
  param {
    lr_mult: 2
    decay_mult: 0
  }
  convolution_param {
    num_output: 160
    kernel_size: 1
    weight_filler {
      type: "xavier"
      std: 0.03
    }
    bias_filler {
      type: "constant"
      value: 0.2
    }
  }
}
layer {
  name: "inception_4b/relu_1x1"
  type: "ReLU"
  bottom: "inception_4b/1x1"
  top: "inception_4b/1x1"
}
layer {
  name: "inception_4b/3x3_reduce"
  type: "Convolution"
  bottom: "inception_4a/output"
  top: "inception_4b/3x3_reduce"
  param {
    lr_mult: 1
    decay_mult: 1
  }
  param {
    lr_mult: 2
    decay_mult: 0
  }
  convolution_param {
    num_output: 112
    kernel_size: 1
    weight_filler {
      type: "xavier"
      std: 0.09
    }
    bias_filler {
      type: "constant"
      value: 0.2
    }
  }
}
layer {
  name: "inception_4b/relu_3x3_reduce"
  type: "ReLU"
  bottom: "inception_4b/3x3_reduce"
  top: "inception_4b/3x3_reduce"
}
layer {
  name: "inception_4b/3x3"
  type: "Convolution"
  bottom: "inception_4b/3x3_reduce"
  top: "inception_4b/3x3"
  param {
    lr_mult: 1
    decay_mult: 1
  }
  param {
    lr_mult: 2
    decay_mult: 0
  }
  convolution_param {
    num_output: 224
    pad: 1
    kernel_size: 3
    weight_filler {
      type: "xavier"
      std: 0.03
    }
    bias_filler {
      type: "constant"
      value: 0.2
    }
  }
}
layer {
  name: "inception_4b/relu_3x3"
  type: "ReLU"
  bottom: "inception_4b/3x3"
  top: "inception_4b/3x3"
}
layer {
  name: "inception_4b/5x5_reduce"
  type: "Convolution"
  bottom: "inception_4a/output"
  top: "inception_4b/5x5_reduce"
  param {
    lr_mult: 1
    decay_mult: 1
  }
  param {
    lr_mult: 2
    decay_mult: 0
  }
  convolution_param {
    num_output: 24
    kernel_size: 1
    weight_filler {
      type: "xavier"
      std: 0.2
    }
    bias_filler {
      type: "constant"
      value: 0.2
    }
  }
}
layer {
  name: "inception_4b/relu_5x5_reduce"
  type: "ReLU"
  bottom: "inception_4b/5x5_reduce"
  top: "inception_4b/5x5_reduce"
}
layer {
  name: "inception_4b/5x5"
  type: "Convolution"
  bottom: "inception_4b/5x5_reduce"
  top: "inception_4b/5x5"
  param {
    lr_mult: 1
    decay_mult: 1
  }
  param {
    lr_mult: 2
    decay_mult: 0
  }
  convolution_param {
    num_output: 64
    pad: 2
    kernel_size: 5
    weight_filler {
      type: "xavier"
      std: 0.03
    }
    bias_filler {
      type: "constant"
      value: 0.2
    }
  }
}
layer {
  name: "inception_4b/relu_5x5"
  type: "ReLU"
  bottom: "inception_4b/5x5"
  top: "inception_4b/5x5"
}
layer {
  name: "inception_4b/pool"
  type: "Pooling"
  bottom: "inception_4a/output"
  top: "inception_4b/pool"
  pooling_param {
    pool: MAX
    kernel_size: 3
    stride: 1
    pad: 1
  }
}
layer {
  name: "inception_4b/pool_proj"
  type: "Convolution"
  bottom: "inception_4b/pool"
  top: "inception_4b/pool_proj"
  param {
    lr_mult: 1
    decay_mult: 1
  }
  param {
    lr_mult: 2
    decay_mult: 0
  }
  convolution_param {
    num_output: 64
    kernel_size: 1
    weight_filler {
      type: "xavier"
      std: 0.1
    }
    bias_filler {
      type: "constant"
      value: 0.2
    }
  }
}
layer {
  name: "inception_4b/relu_pool_proj"
  type: "ReLU"
  bottom: "inception_4b/pool_proj"
  top: "inception_4b/pool_proj"
}
layer {
  name: "inception_4b/output"
  type: "Concat"
  bottom: "inception_4b/1x1"
  bottom: "inception_4b/3x3"
  bottom: "inception_4b/5x5"
  bottom: "inception_4b/pool_proj"
  top: "inception_4b/output"
}
layer {
  name: "inception_4c/1x1"
  type: "Convolution"
  bottom: "inception_4b/output"
  top: "inception_4c/1x1"
  param {
    lr_mult: 1
    decay_mult: 1
  }
  param {
    lr_mult: 2
    decay_mult: 0
  }
  convolution_param {
    num_output: 128
    kernel_size: 1
    weight_filler {
      type: "xavier"
      std: 0.03
    }
    bias_filler {
      type: "constant"
      value: 0.2
    }
  }
}
layer {
  name: "inception_4c/relu_1x1"
  type: "ReLU"
  bottom: "inception_4c/1x1"
  top: "inception_4c/1x1"
}
layer {
  name: "inception_4c/3x3_reduce"
  type: "Convolution"
  bottom: "inception_4b/output"
  top: "inception_4c/3x3_reduce"
  param {
    lr_mult: 1
    decay_mult: 1
  }
  param {
    lr_mult: 2
    decay_mult: 0
  }
  convolution_param {
    num_output: 128
    kernel_size: 1
    weight_filler {
      type: "xavier"
      std: 0.09
    }
    bias_filler {
      type: "constant"
      value: 0.2
    }
  }
}
layer {
  name: "inception_4c/relu_3x3_reduce"
  type: "ReLU"
  bottom: "inception_4c/3x3_reduce"
  top: "inception_4c/3x3_reduce"
}
layer {
  name: "inception_4c/3x3"
  type: "Convolution"
  bottom: "inception_4c/3x3_reduce"
  top: "inception_4c/3x3"
  param {
    lr_mult: 1
    decay_mult: 1
  }
  param {
    lr_mult: 2
    decay_mult: 0
  }
  convolution_param {
    num_output: 256
    pad: 1
    kernel_size: 3
    weight_filler {
      type: "xavier"
      std: 0.03
    }
    bias_filler {
      type: "constant"
      value: 0.2
    }
  }
}
layer {
  name: "inception_4c/relu_3x3"
  type: "ReLU"
  bottom: "inception_4c/3x3"
  top: "inception_4c/3x3"
}
layer {
  name: "inception_4c/5x5_reduce"
  type: "Convolution"
  bottom: "inception_4b/output"
  top: "inception_4c/5x5_reduce"
  param {
    lr_mult: 1
    decay_mult: 1
  }
  param {
    lr_mult: 2
    decay_mult: 0
  }
  convolution_param {
    num_output: 24
    kernel_size: 1
    weight_filler {
      type: "xavier"
      std: 0.2
    }
    bias_filler {
      type: "constant"
      value: 0.2
    }
  }
}
layer {
  name: "inception_4c/relu_5x5_reduce"
  type: "ReLU"
  bottom: "inception_4c/5x5_reduce"
  top: "inception_4c/5x5_reduce"
}
layer {
  name: "inception_4c/5x5"
  type: "Convolution"
  bottom: "inception_4c/5x5_reduce"
  top: "inception_4c/5x5"
  param {
    lr_mult: 1
    decay_mult: 1
  }
  param {
    lr_mult: 2
    decay_mult: 0
  }
  convolution_param {
    num_output: 64
    pad: 2
    kernel_size: 5
    weight_filler {
      type: "xavier"
      std: 0.03
    }
    bias_filler {
      type: "constant"
      value: 0.2
    }
  }
}
layer {
  name: "inception_4c/relu_5x5"
  type: "ReLU"
  bottom: "inception_4c/5x5"
  top: "inception_4c/5x5"
}
layer {
  name: "inception_4c/pool"
  type: "Pooling"
  bottom: "inception_4b/output"
  top: "inception_4c/pool"
  pooling_param {
    pool: MAX
    kernel_size: 3
    stride: 1
    pad: 1
  }
}
layer {
  name: "inception_4c/pool_proj"
  type: "Convolution"
  bottom: "inception_4c/pool"
  top: "inception_4c/pool_proj"
  param {
    lr_mult: 1
    decay_mult: 1
  }
  param {
    lr_mult: 2
    decay_mult: 0
  }
  convolution_param {
    num_output: 64
    kernel_size: 1
    weight_filler {
      type: "xavier"
      std: 0.1
    }
    bias_filler {
      type: "constant"
      value: 0.2
    }
  }
}
layer {
  name: "inception_4c/relu_pool_proj"
  type: "ReLU"
  bottom: "inception_4c/pool_proj"
  top: "inception_4c/pool_proj"
}
layer {
  name: "inception_4c/output"
  type: "Concat"
  bottom: "inception_4c/1x1"
  bottom: "inception_4c/3x3"
  bottom: "inception_4c/5x5"
  bottom: "inception_4c/pool_proj"
  top: "inception_4c/output"
}
layer {
  name: "inception_4d/1x1"
  type: "Convolution"
  bottom: "inception_4c/output"
  top: "inception_4d/1x1"
  param {
    lr_mult: 1
    decay_mult: 1
  }
  param {
    lr_mult: 2
    decay_mult: 0
  }
  convolution_param {
    num_output: 112
    kernel_size: 1
    weight_filler {
      type: "xavier"
      std: 0.03
    }
    bias_filler {
      type: "constant"
      value: 0.2
    }
  }
}
layer {
  name: "inception_4d/relu_1x1"
  type: "ReLU"
  bottom: "inception_4d/1x1"
  top: "inception_4d/1x1"
}
layer {
  name: "inception_4d/3x3_reduce"
  type: "Convolution"
  bottom: "inception_4c/output"
  top: "inception_4d/3x3_reduce"
  param {
    lr_mult: 1
    decay_mult: 1
  }
  param {
    lr_mult: 2
    decay_mult: 0
  }
  convolution_param {
    num_output: 144
    kernel_size: 1
    weight_filler {
      type: "xavier"
      std: 0.09
    }
    bias_filler {
      type: "constant"
      value: 0.2
    }
  }
}
layer {
  name: "inception_4d/relu_3x3_reduce"
  type: "ReLU"
  bottom: "inception_4d/3x3_reduce"
  top: "inception_4d/3x3_reduce"
}
layer {
  name: "inception_4d/3x3"
  type: "Convolution"
  bottom: "inception_4d/3x3_reduce"
  top: "inception_4d/3x3"
  param {
    lr_mult: 1
    decay_mult: 1
  }
  param {
    lr_mult: 2
    decay_mult: 0
  }
  convolution_param {
    num_output: 288
    pad: 1
    kernel_size: 3
    weight_filler {
      type: "xavier"
      std: 0.03
    }
    bias_filler {
      type: "constant"
      value: 0.2
    }
  }
}
layer {
  name: "inception_4d/relu_3x3"
  type: "ReLU"
  bottom: "inception_4d/3x3"
  top: "inception_4d/3x3"
}
layer {
  name: "inception_4d/5x5_reduce"
  type: "Convolution"
  bottom: "inception_4c/output"
  top: "inception_4d/5x5_reduce"
  param {
    lr_mult: 1
    decay_mult: 1
  }
  param {
    lr_mult: 2
    decay_mult: 0
  }
  convolution_param {
    num_output: 32
    kernel_size: 1
    weight_filler {
      type: "xavier"
      std: 0.2
    }
    bias_filler {
      type: "constant"
      value: 0.2
    }
  }
}
layer {
  name: "inception_4d/relu_5x5_reduce"
  type: "ReLU"
  bottom: "inception_4d/5x5_reduce"
  top: "inception_4d/5x5_reduce"
}
layer {
  name: "inception_4d/5x5"
  type: "Convolution"
  bottom: "inception_4d/5x5_reduce"
  top: "inception_4d/5x5"
  param {
    lr_mult: 1
    decay_mult: 1
  }
  param {
    lr_mult: 2
    decay_mult: 0
  }
  convolution_param {
    num_output: 64
    pad: 2
    kernel_size: 5
    weight_filler {
      type: "xavier"
      std: 0.03
    }
    bias_filler {
      type: "constant"
      value: 0.2
    }
  }
}
layer {
  name: "inception_4d/relu_5x5"
  type: "ReLU"
  bottom: "inception_4d/5x5"
  top: "inception_4d/5x5"
}
layer {
  name: "inception_4d/pool"
  type: "Pooling"
  bottom: "inception_4c/output"
  top: "inception_4d/pool"
  pooling_param {
    pool: MAX
    kernel_size: 3
    stride: 1
    pad: 1
  }
}
layer {
  name: "inception_4d/pool_proj"
  type: "Convolution"
  bottom: "inception_4d/pool"
  top: "inception_4d/pool_proj"
  param {
    lr_mult: 1
    decay_mult: 1
  }
  param {
    lr_mult: 2
    decay_mult: 0
  }
  convolution_param {
    num_output: 64
    kernel_size: 1
    weight_filler {
      type: "xavier"
      std: 0.1
    }
    bias_filler {
      type: "constant"
      value: 0.2
    }
  }
}
layer {
  name: "inception_4d/relu_pool_proj"
  type: "ReLU"
  bottom: "inception_4d/pool_proj"
  top: "inception_4d/pool_proj"
}
layer {
  name: "inception_4d/output"
  type: "Concat"
  bottom: "inception_4d/1x1"
  bottom: "inception_4d/3x3"
  bottom: "inception_4d/5x5"
  bottom: "inception_4d/pool_proj"
  top: "inception_4d/output"
}
layer {
  name: "loss2/ave_pool"
  type: "Pooling"
  bottom: "inception_4d/output"
  top: "loss2/ave_pool"
  pooling_param {
    pool: AVE
    kernel_size: 5
    stride: 3
  }
}
layer {
  name: "loss2/conv"
  type: "Convolution"
  bottom: "loss2/ave_pool"
  top: "loss2/conv"
  param {
    lr_mult: 1
    decay_mult: 1
  }
  param {
    lr_mult: 2
    decay_mult: 0
  }
  convolution_param {
    num_output: 128
    kernel_size: 1
    weight_filler {
      type: "xavier"
      std: 0.08
    }
    bias_filler {
      type: "constant"
      value: 0.2
    }
  }
}
layer {
  name: "loss2/relu_conv"
  type: "ReLU"
  bottom: "loss2/conv"
  top: "loss2/conv"
}
layer {
  name: "loss2/fc"
  type: "InnerProduct"
  bottom: "loss2/conv"
  top: "loss2/fc"
  param {
    lr_mult: 1
    decay_mult: 1
  }
  param {
    lr_mult: 2
    decay_mult: 0
  }
  inner_product_param {
    num_output: 1024
    weight_filler {
      type: "xavier"
      std: 0.02
    }
    bias_filler {
      type: "constant"
      value: 0.2
    }
  }
}
layer {
  name: "loss2/relu_fc"
  type: "ReLU"
  bottom: "loss2/fc"
  top: "loss2/fc"
}
layer {
  name: "loss2/drop_fc"
  type: "Dropout"
  bottom: "loss2/fc"
  top: "loss2/fc"
  dropout_param {
    dropout_ratio: 0.7
  }
}
layer {
  name: "loss2/classifier_plantvillage"
  type: "InnerProduct"
  bottom: "loss2/fc"
  top: "loss2/classifier_plantvillage"
  param {
    lr_mult: 1
    decay_mult: 1
  }
  param {
    lr_mult: 2
    decay_mult: 0
  }
  inner_product_param {
    num_output: 38
    weight_filler {
      type: "xavier"
      std: 0.0009765625
    }
    bias_filler {
      type: "constant"
      value: 0
    }
  }
}
layer {
  name: "inception_4e/1x1"
  type: "Convolution"
  bottom: "inception_4d/output"
  top: "inception_4e/1x1"
  param {
    lr_mult: 1
    decay_mult: 1
  }
  param {
    lr_mult: 2
    decay_mult: 0
  }
  convolution_param {
    num_output: 256
    kernel_size: 1
    weight_filler {
      type: "xavier"
      std: 0.03
    }
    bias_filler {
      type: "constant"
      value: 0.2
    }
  }
}
layer {
  name: "inception_4e/relu_1x1"
  type: "ReLU"
  bottom: "inception_4e/1x1"
  top: "inception_4e/1x1"
}
layer {
  name: "inception_4e/3x3_reduce"
  type: "Convolution"
  bottom: "inception_4d/output"
  top: "inception_4e/3x3_reduce"
  param {
    lr_mult: 1
    decay_mult: 1
  }
  param {
    lr_mult: 2
    decay_mult: 0
  }
  convolution_param {
    num_output: 160
    kernel_size: 1
    weight_filler {
      type: "xavier"
      std: 0.09
    }
    bias_filler {
      type: "constant"
      value: 0.2
    }
  }
}
layer {
  name: "inception_4e/relu_3x3_reduce"
  type: "ReLU"
  bottom: "inception_4e/3x3_reduce"
  top: "inception_4e/3x3_reduce"
}
layer {
  name: "inception_4e/3x3"
  type: "Convolution"
  bottom: "inception_4e/3x3_reduce"
  top: "inception_4e/3x3"
  param {
    lr_mult: 1
    decay_mult: 1
  }
  param {
    lr_mult: 2
    decay_mult: 0
  }
  convolution_param {
    num_output: 320
    pad: 1
    kernel_size: 3
    weight_filler {
      type: "xavier"
      std: 0.03
    }
    bias_filler {
      type: "constant"
      value: 0.2
    }
  }
}
layer {
  name: "inception_4e/relu_3x3"
  type: "ReLU"
  bottom: "inception_4e/3x3"
  top: "inception_4e/3x3"
}
layer {
  name: "inception_4e/5x5_reduce"
  type: "Convolution"
  bottom: "inception_4d/output"
  top: "inception_4e/5x5_reduce"
  param {
    lr_mult: 1
    decay_mult: 1
  }
  param {
    lr_mult: 2
    decay_mult: 0
  }
  convolution_param {
    num_output: 32
    kernel_size: 1
    weight_filler {
      type: "xavier"
      std: 0.2
    }
    bias_filler {
      type: "constant"
      value: 0.2
    }
  }
}
layer {
  name: "inception_4e/relu_5x5_reduce"
  type: "ReLU"
  bottom: "inception_4e/5x5_reduce"
  top: "inception_4e/5x5_reduce"
}
layer {
  name: "inception_4e/5x5"
  type: "Convolution"
  bottom: "inception_4e/5x5_reduce"
  top: "inception_4e/
I0403 19:30:38.987047 24927 layer_factory.hpp:77] Creating layer data
I0403 19:30:38.987658 24927 net.cpp:91] Creating Layer data
I0403 19:30:38.987695 24927 net.cpp:399] data -> data
I0403 19:30:38.987766 24927 net.cpp:399] data -> label
I0403 19:30:38.987810 24927 data_transformer.cpp:25] Loading mean file from: /home/mohanty/data/final_dataset/lmdb/grayscale-80-20/mean.binaryproto
I0403 19:30:38.988807 24930 db_lmdb.cpp:38] Opened lmdb /home/mohanty/data/final_dataset/lmdb/grayscale-80-20/test_db
I0403 19:30:39.001863 24927 data_layer.cpp:41] output data size: 24,3,224,224
I0403 19:30:39.030092 24927 net.cpp:141] Setting up data
I0403 19:30:39.030200 24927 net.cpp:148] Top shape: 24 3 224 224 (3612672)
I0403 19:30:39.030225 24927 net.cpp:148] Top shape: 24 (24)
I0403 19:30:39.030239 24927 net.cpp:156] Memory required for data: 14450784
I0403 19:30:39.030299 24927 layer_factory.hpp:77] Creating layer label_data_1_split
I0403 19:30:39.030352 24927 net.cpp:91] Creating Layer label_data_1_split
I0403 19:30:39.030375 24927 net.cpp:425] label_data_1_split <- label
I0403 19:30:39.030412 24927 net.cpp:399] label_data_1_split -> label_data_1_split_0
I0403 19:30:39.030448 24927 net.cpp:399] label_data_1_split -> label_data_1_split_1
I0403 19:30:39.030472 24927 net.cpp:399] label_data_1_split -> label_data_1_split_2
I0403 19:30:39.030495 24927 net.cpp:399] label_data_1_split -> label_data_1_split_3
I0403 19:30:39.030519 24927 net.cpp:399] label_data_1_split -> label_data_1_split_4
I0403 19:30:39.030542 24927 net.cpp:399] label_data_1_split -> label_data_1_split_5
I0403 19:30:39.030563 24927 net.cpp:399] label_data_1_split -> label_data_1_split_6
I0403 19:30:39.030597 24927 net.cpp:399] label_data_1_split -> label_data_1_split_7
I0403 19:30:39.030619 24927 net.cpp:399] label_data_1_split -> label_data_1_split_8
I0403 19:30:39.030654 24927 net.cpp:399] label_data_1_split -> label_data_1_split_9
I0403 19:30:39.030774 24927 net.cpp:141] Setting up label_data_1_split
I0403 19:30:39.030800 24927 net.cpp:148] Top shape: 24 (24)
I0403 19:30:39.030819 24927 net.cpp:148] Top shape: 24 (24)
I0403 19:30:39.030834 24927 net.cpp:148] Top shape: 24 (24)
I0403 19:30:39.030851 24927 net.cpp:148] Top shape: 24 (24)
I0403 19:30:39.030866 24927 net.cpp:148] Top shape: 24 (24)
I0403 19:30:39.030884 24927 net.cpp:148] Top shape: 24 (24)
I0403 19:30:39.030899 24927 net.cpp:148] Top shape: 24 (24)
I0403 19:30:39.030916 24927 net.cpp:148] Top shape: 24 (24)
I0403 19:30:39.030932 24927 net.cpp:148] Top shape: 24 (24)
I0403 19:30:39.030948 24927 net.cpp:148] Top shape: 24 (24)
I0403 19:30:39.030997 24927 net.cpp:156] Memory required for data: 14451744
I0403 19:30:39.031015 24927 layer_factory.hpp:77] Creating layer conv1/7x7_s2
I0403 19:30:39.031056 24927 net.cpp:91] Creating Layer conv1/7x7_s2
I0403 19:30:39.031077 24927 net.cpp:425] conv1/7x7_s2 <- data
I0403 19:30:39.031097 24927 net.cpp:399] conv1/7x7_s2 -> conv1/7x7_s2
I0403 19:30:39.177927 24927 net.cpp:141] Setting up conv1/7x7_s2
I0403 19:30:39.178045 24927 net.cpp:148] Top shape: 24 64 112 112 (19267584)
I0403 19:30:39.178066 24927 net.cpp:156] Memory required for data: 91522080
I0403 19:30:39.178105 24927 layer_factory.hpp:77] Creating layer conv1/relu_7x7
I0403 19:30:39.178138 24927 net.cpp:91] Creating Layer conv1/relu_7x7
I0403 19:30:39.178159 24927 net.cpp:425] conv1/relu_7x7 <- conv1/7x7_s2
I0403 19:30:39.178184 24927 net.cpp:386] conv1/relu_7x7 -> conv1/7x7_s2 (in-place)
I0403 19:30:39.178478 24927 net.cpp:141] Setting up conv1/relu_7x7
I0403 19:30:39.178509 24927 net.cpp:148] Top shape: 24 64 112 112 (19267584)
I0403 19:30:39.178529 24927 net.cpp:156] Memory required for data: 168592416
I0403 19:30:39.178545 24927 layer_factory.hpp:77] Creating layer pool1/3x3_s2
I0403 19:30:39.178575 24927 net.cpp:91] Creating Layer pool1/3x3_s2
I0403 19:30:39.178594 24927 net.cpp:425] pool1/3x3_s2 <- conv1/7x7_s2
I0403 19:30:39.178617 24927 net.cpp:399] pool1/3x3_s2 -> pool1/3x3_s2
I0403 19:30:39.178705 24927 net.cpp:141] Setting up pool1/3x3_s2
I0403 19:30:39.178735 24927 net.cpp:148] Top shape: 24 64 56 56 (4816896)
I0403 19:30:39.178753 24927 net.cpp:156] Memory required for data: 187860000
I0403 19:30:39.178769 24927 layer_factory.hpp:77] Creating layer pool1/norm1
I0403 19:30:39.178797 24927 net.cpp:91] Creating Layer pool1/norm1
I0403 19:30:39.178817 24927 net.cpp:425] pool1/norm1 <- pool1/3x3_s2
I0403 19:30:39.178841 24927 net.cpp:399] pool1/norm1 -> pool1/norm1
I0403 19:30:39.179148 24927 net.cpp:141] Setting up pool1/norm1
I0403 19:30:39.179178 24927 net.cpp:148] Top shape: 24 64 56 56 (4816896)
I0403 19:30:39.179194 24927 net.cpp:156] Memory required for data: 207127584
I0403 19:30:39.179208 24927 layer_factory.hpp:77] Creating layer conv2/3x3_reduce
I0403 19:30:39.179242 24927 net.cpp:91] Creating Layer conv2/3x3_reduce
I0403 19:30:39.179270 24927 net.cpp:425] conv2/3x3_reduce <- pool1/norm1
I0403 19:30:39.179293 24927 net.cpp:399] conv2/3x3_reduce -> conv2/3x3_reduce
I0403 19:30:39.180706 24927 net.cpp:141] Setting up conv2/3x3_reduce
I0403 19:30:39.180737 24927 net.cpp:148] Top shape: 24 64 56 56 (4816896)
I0403 19:30:39.180755 24927 net.cpp:156] Memory required for data: 226395168
I0403 19:30:39.180779 24927 layer_factory.hpp:77] Creating layer conv2/relu_3x3_reduce
I0403 19:30:39.180804 24927 net.cpp:91] Creating Layer conv2/relu_3x3_reduce
I0403 19:30:39.180824 24927 net.cpp:425] conv2/relu_3x3_reduce <- conv2/3x3_reduce
I0403 19:30:39.180842 24927 net.cpp:386] conv2/relu_3x3_reduce -> conv2/3x3_reduce (in-place)
I0403 19:30:39.181107 24927 net.cpp:141] Setting up conv2/relu_3x3_reduce
I0403 19:30:39.181138 24927 net.cpp:148] Top shape: 24 64 56 56 (4816896)
I0403 19:30:39.181157 24927 net.cpp:156] Memory required for data: 245662752
I0403 19:30:39.181171 24927 layer_factory.hpp:77] Creating layer conv2/3x3
I0403 19:30:39.181200 24927 net.cpp:91] Creating Layer conv2/3x3
I0403 19:30:39.181221 24927 net.cpp:425] conv2/3x3 <- conv2/3x3_reduce
I0403 19:30:39.181242 24927 net.cpp:399] conv2/3x3 -> conv2/3x3
I0403 19:30:39.183528 24927 net.cpp:141] Setting up conv2/3x3
I0403 19:30:39.183562 24927 net.cpp:148] Top shape: 24 192 56 56 (14450688)
I0403 19:30:39.183579 24927 net.cpp:156] Memory required for data: 303465504
I0403 19:30:39.183603 24927 layer_factory.hpp:77] Creating layer conv2/relu_3x3
I0403 19:30:39.183626 24927 net.cpp:91] Creating Layer conv2/relu_3x3
I0403 19:30:39.183645 24927 net.cpp:425] conv2/relu_3x3 <- conv2/3x3
I0403 19:30:39.183665 24927 net.cpp:386] conv2/relu_3x3 -> conv2/3x3 (in-place)
I0403 19:30:39.183840 24927 net.cpp:141] Setting up conv2/relu_3x3
I0403 19:30:39.183871 24927 net.cpp:148] Top shape: 24 192 56 56 (14450688)
I0403 19:30:39.183923 24927 net.cpp:156] Memory required for data: 361268256
I0403 19:30:39.183939 24927 layer_factory.hpp:77] Creating layer conv2/norm2
I0403 19:30:39.183959 24927 net.cpp:91] Creating Layer conv2/norm2
I0403 19:30:39.183976 24927 net.cpp:425] conv2/norm2 <- conv2/3x3
I0403 19:30:39.183997 24927 net.cpp:399] conv2/norm2 -> conv2/norm2
I0403 19:30:39.184314 24927 net.cpp:141] Setting up conv2/norm2
I0403 19:30:39.184345 24927 net.cpp:148] Top shape: 24 192 56 56 (14450688)
I0403 19:30:39.184361 24927 net.cpp:156] Memory required for data: 419071008
I0403 19:30:39.184376 24927 layer_factory.hpp:77] Creating layer pool2/3x3_s2
I0403 19:30:39.184398 24927 net.cpp:91] Creating Layer pool2/3x3_s2
I0403 19:30:39.184418 24927 net.cpp:425] pool2/3x3_s2 <- conv2/norm2
I0403 19:30:39.184437 24927 net.cpp:399] pool2/3x3_s2 -> pool2/3x3_s2
I0403 19:30:39.184495 24927 net.cpp:141] Setting up pool2/3x3_s2
I0403 19:30:39.184522 24927 net.cpp:148] Top shape: 24 192 28 28 (3612672)
I0403 19:30:39.184540 24927 net.cpp:156] Memory required for data: 433521696
I0403 19:30:39.184554 24927 layer_factory.hpp:77] Creating layer pool2/3x3_s2_pool2/3x3_s2_0_split
I0403 19:30:39.184574 24927 net.cpp:91] Creating Layer pool2/3x3_s2_pool2/3x3_s2_0_split
I0403 19:30:39.184592 24927 net.cpp:425] pool2/3x3_s2_pool2/3x3_s2_0_split <- pool2/3x3_s2
I0403 19:30:39.184612 24927 net.cpp:399] pool2/3x3_s2_pool2/3x3_s2_0_split -> pool2/3x3_s2_pool2/3x3_s2_0_split_0
I0403 19:30:39.184635 24927 net.cpp:399] pool2/3x3_s2_pool2/3x3_s2_0_split -> pool2/3x3_s2_pool2/3x3_s2_0_split_1
I0403 19:30:39.184658 24927 net.cpp:399] pool2/3x3_s2_pool2/3x3_s2_0_split -> pool2/3x3_s2_pool2/3x3_s2_0_split_2
I0403 19:30:39.184679 24927 net.cpp:399] pool2/3x3_s2_pool2/3x3_s2_0_split -> pool2/3x3_s2_pool2/3x3_s2_0_split_3
I0403 19:30:39.184749 24927 net.cpp:141] Setting up pool2/3x3_s2_pool2/3x3_s2_0_split
I0403 19:30:39.184780 24927 net.cpp:148] Top shape: 24 192 28 28 (3612672)
I0403 19:30:39.184801 24927 net.cpp:148] Top shape: 24 192 28 28 (3612672)
I0403 19:30:39.184819 24927 net.cpp:148] Top shape: 24 192 28 28 (3612672)
I0403 19:30:39.184835 24927 net.cpp:148] Top shape: 24 192 28 28 (3612672)
I0403 19:30:39.184849 24927 net.cpp:156] Memory required for data: 491324448
I0403 19:30:39.184864 24927 layer_factory.hpp:77] Creating layer inception_3a/1x1
I0403 19:30:39.184886 24927 net.cpp:91] Creating Layer inception_3a/1x1
I0403 19:30:39.184906 24927 net.cpp:425] inception_3a/1x1 <- pool2/3x3_s2_pool2/3x3_s2_0_split_0
I0403 19:30:39.184928 24927 net.cpp:399] inception_3a/1x1 -> inception_3a/1x1
I0403 19:30:39.186465 24927 net.cpp:141] Setting up inception_3a/1x1
I0403 19:30:39.186497 24927 net.cpp:148] Top shape: 24 64 28 28 (1204224)
I0403 19:30:39.186516 24927 net.cpp:156] Memory required for data: 496141344
I0403 19:30:39.186534 24927 layer_factory.hpp:77] Creating layer inception_3a/relu_1x1
I0403 19:30:39.186558 24927 net.cpp:91] Creating Layer inception_3a/relu_1x1
I0403 19:30:39.186578 24927 net.cpp:425] inception_3a/relu_1x1 <- inception_3a/1x1
I0403 19:30:39.186596 24927 net.cpp:386] inception_3a/relu_1x1 -> inception_3a/1x1 (in-place)
I0403 19:30:39.186765 24927 net.cpp:141] Setting up inception_3a/relu_1x1
I0403 19:30:39.186795 24927 net.cpp:148] Top shape: 24 64 28 28 (1204224)
I0403 19:30:39.186815 24927 net.cpp:156] Memory required for data: 500958240
I0403 19:30:39.186830 24927 layer_factory.hpp:77] Creating layer inception_3a/3x3_reduce
I0403 19:30:39.186856 24927 net.cpp:91] Creating Layer inception_3a/3x3_reduce
I0403 19:30:39.186875 24927 net.cpp:425] inception_3a/3x3_reduce <- pool2/3x3_s2_pool2/3x3_s2_0_split_1
I0403 19:30:39.186897 24927 net.cpp:399] inception_3a/3x3_reduce -> inception_3a/3x3_reduce
I0403 19:30:39.188601 24927 net.cpp:141] Setting up inception_3a/3x3_reduce
I0403 19:30:39.188634 24927 net.cpp:148] Top shape: 24 96 28 28 (1806336)
I0403 19:30:39.188653 24927 net.cpp:156] Memory required for data: 508183584
I0403 19:30:39.188675 24927 layer_factory.hpp:77] Creating layer inception_3a/relu_3x3_reduce
I0403 19:30:39.188716 24927 net.cpp:91] Creating Layer inception_3a/relu_3x3_reduce
I0403 19:30:39.188736 24927 net.cpp:425] inception_3a/relu_3x3_reduce <- inception_3a/3x3_reduce
I0403 19:30:39.188760 24927 net.cpp:386] inception_3a/relu_3x3_reduce -> inception_3a/3x3_reduce (in-place)
I0403 19:30:39.188943 24927 net.cpp:141] Setting up inception_3a/relu_3x3_reduce
I0403 19:30:39.188974 24927 net.cpp:148] Top shape: 24 96 28 28 (1806336)
I0403 19:30:39.188990 24927 net.cpp:156] Memory required for data: 515408928
I0403 19:30:39.189007 24927 layer_factory.hpp:77] Creating layer inception_3a/3x3
I0403 19:30:39.189029 24927 net.cpp:91] Creating Layer inception_3a/3x3
I0403 19:30:39.189051 24927 net.cpp:425] inception_3a/3x3 <- inception_3a/3x3_reduce
I0403 19:30:39.189074 24927 net.cpp:399] inception_3a/3x3 -> inception_3a/3x3
I0403 19:30:39.190743 24927 net.cpp:141] Setting up inception_3a/3x3
I0403 19:30:39.190781 24927 net.cpp:148] Top shape: 24 128 28 28 (2408448)
I0403 19:30:39.190803 24927 net.cpp:156] Memory required for data: 525042720
I0403 19:30:39.190822 24927 layer_factory.hpp:77] Creating layer inception_3a/relu_3x3
I0403 19:30:39.190843 24927 net.cpp:91] Creating Layer inception_3a/relu_3x3
I0403 19:30:39.190861 24927 net.cpp:425] inception_3a/relu_3x3 <- inception_3a/3x3
I0403 19:30:39.190881 24927 net.cpp:386] inception_3a/relu_3x3 -> inception_3a/3x3 (in-place)
I0403 19:30:39.191154 24927 net.cpp:141] Setting up inception_3a/relu_3x3
I0403 19:30:39.191187 24927 net.cpp:148] Top shape: 24 128 28 28 (2408448)
I0403 19:30:39.191205 24927 net.cpp:156] Memory required for data: 534676512
I0403 19:30:39.191222 24927 layer_factory.hpp:77] Creating layer inception_3a/5x5_reduce
I0403 19:30:39.191248 24927 net.cpp:91] Creating Layer inception_3a/5x5_reduce
I0403 19:30:39.191274 24927 net.cpp:425] inception_3a/5x5_reduce <- pool2/3x3_s2_pool2/3x3_s2_0_split_2
I0403 19:30:39.191296 24927 net.cpp:399] inception_3a/5x5_reduce -> inception_3a/5x5_reduce
I0403 19:30:39.192289 24927 net.cpp:141] Setting up inception_3a/5x5_reduce
I0403 19:30:39.192324 24927 net.cpp:148] Top shape: 24 16 28 28 (301056)
I0403 19:30:39.192343 24927 net.cpp:156] Memory required for data: 535880736
I0403 19:30:39.192363 24927 layer_factory.hpp:77] Creating layer inception_3a/relu_5x5_reduce
I0403 19:30:39.192383 24927 net.cpp:91] Creating Layer inception_3a/relu_5x5_reduce
I0403 19:30:39.192399 24927 net.cpp:425] inception_3a/relu_5x5_reduce <- inception_3a/5x5_reduce
I0403 19:30:39.192421 24927 net.cpp:386] inception_3a/relu_5x5_reduce -> inception_3a/5x5_reduce (in-place)
I0403 19:30:39.192703 24927 net.cpp:141] Setting up inception_3a/relu_5x5_reduce
I0403 19:30:39.192735 24927 net.cpp:148] Top shape: 24 16 28 28 (301056)
I0403 19:30:39.192754 24927 net.cpp:156] Memory required for data: 537084960
I0403 19:30:39.192770 24927 layer_factory.hpp:77] Creating layer inception_3a/5x5
I0403 19:30:39.192795 24927 net.cpp:91] Creating Layer inception_3a/5x5
I0403 19:30:39.192812 24927 net.cpp:425] inception_3a/5x5 <- inception_3a/5x5_reduce
I0403 19:30:39.192836 24927 net.cpp:399] inception_3a/5x5 -> inception_3a/5x5
I0403 19:30:39.193835 24927 net.cpp:141] Setting up inception_3a/5x5
I0403 19:30:39.193866 24927 net.cpp:148] Top shape: 24 32 28 28 (602112)
I0403 19:30:39.193889 24927 net.cpp:156] Memory required for data: 539493408
I0403 19:30:39.193909 24927 layer_factory.hpp:77] Creating layer inception_3a/relu_5x5
I0403 19:30:39.193928 24927 net.cpp:91] Creating Layer inception_3a/relu_5x5
I0403 19:30:39.193945 24927 net.cpp:425] inception_3a/relu_5x5 <- inception_3a/5x5
I0403 19:30:39.193964 24927 net.cpp:386] inception_3a/relu_5x5 -> inception_3a/5x5 (in-place)
I0403 19:30:39.194134 24927 net.cpp:141] Setting up inception_3a/relu_5x5
I0403 19:30:39.194169 24927 net.cpp:148] Top shape: 24 32 28 28 (602112)
I0403 19:30:39.194187 24927 net.cpp:156] Memory required for data: 541901856
I0403 19:30:39.194203 24927 layer_factory.hpp:77] Creating layer inception_3a/pool
I0403 19:30:39.194221 24927 net.cpp:91] Creating Layer inception_3a/pool
I0403 19:30:39.194252 24927 net.cpp:425] inception_3a/pool <- pool2/3x3_s2_pool2/3x3_s2_0_split_3
I0403 19:30:39.194290 24927 net.cpp:399] inception_3a/pool -> inception_3a/pool
I0403 19:30:39.194352 24927 net.cpp:141] Setting up inception_3a/pool
I0403 19:30:39.194383 24927 net.cpp:148] Top shape: 24 192 28 28 (3612672)
I0403 19:30:39.194401 24927 net.cpp:156] Memory required for data: 556352544
I0403 19:30:39.194416 24927 layer_factory.hpp:77] Creating layer inception_3a/pool_proj
I0403 19:30:39.194438 24927 net.cpp:91] Creating Layer inception_3a/pool_proj
I0403 19:30:39.194456 24927 net.cpp:425] inception_3a/pool_proj <- inception_3a/pool
I0403 19:30:39.194480 24927 net.cpp:399] inception_3a/pool_proj -> inception_3a/pool_proj
I0403 19:30:39.195436 24927 net.cpp:141] Setting up inception_3a/pool_proj
I0403 19:30:39.195466 24927 net.cpp:148] Top shape: 24 32 28 28 (602112)
I0403 19:30:39.195484 24927 net.cpp:156] Memory required for data: 558760992
I0403 19:30:39.195510 24927 layer_factory.hpp:77] Creating layer inception_3a/relu_pool_proj
I0403 19:30:39.195533 24927 net.cpp:91] Creating Layer inception_3a/relu_pool_proj
I0403 19:30:39.195564 24927 net.cpp:425] inception_3a/relu_pool_proj <- inception_3a/pool_proj
I0403 19:30:39.195583 24927 net.cpp:386] inception_3a/relu_pool_proj -> inception_3a/pool_proj (in-place)
I0403 19:30:39.195842 24927 net.cpp:141] Setting up inception_3a/relu_pool_proj
I0403 19:30:39.195875 24927 net.cpp:148] Top shape: 24 32 28 28 (602112)
I0403 19:30:39.195894 24927 net.cpp:156] Memory required for data: 561169440
I0403 19:30:39.195909 24927 layer_factory.hpp:77] Creating layer inception_3a/output
I0403 19:30:39.195927 24927 net.cpp:91] Creating Layer inception_3a/output
I0403 19:30:39.195945 24927 net.cpp:425] inception_3a/output <- inception_3a/1x1
I0403 19:30:39.195963 24927 net.cpp:425] inception_3a/output <- inception_3a/3x3
I0403 19:30:39.195979 24927 net.cpp:425] inception_3a/output <- inception_3a/5x5
I0403 19:30:39.195994 24927 net.cpp:425] inception_3a/output <- inception_3a/pool_proj
I0403 19:30:39.196012 24927 net.cpp:399] inception_3a/output -> inception_3a/output
I0403 19:30:39.196061 24927 net.cpp:141] Setting up inception_3a/output
I0403 19:30:39.196090 24927 net.cpp:148] Top shape: 24 256 28 28 (4816896)
I0403 19:30:39.196106 24927 net.cpp:156] Memory required for data: 580437024
I0403 19:30:39.196121 24927 layer_factory.hpp:77] Creating layer inception_3a/output_inception_3a/output_0_split
I0403 19:30:39.196142 24927 net.cpp:91] Creating Layer inception_3a/output_inception_3a/output_0_split
I0403 19:30:39.196158 24927 net.cpp:425] inception_3a/output_inception_3a/output_0_split <- inception_3a/output
I0403 19:30:39.196176 24927 net.cpp:399] inception_3a/output_inception_3a/output_0_split -> inception_3a/output_inception_3a/output_0_split_0
I0403 19:30:39.196197 24927 net.cpp:399] inception_3a/output_inception_3a/output_0_split -> inception_3a/output_inception_3a/output_0_split_1
I0403 19:30:39.196223 24927 net.cpp:399] inception_3a/output_inception_3a/output_0_split -> inception_3a/output_inception_3a/output_0_split_2
I0403 19:30:39.196249 24927 net.cpp:399] inception_3a/output_inception_3a/output_0_split -> inception_3a/output_inception_3a/output_0_split_3
I0403 19:30:39.196331 24927 net.cpp:141] Setting up inception_3a/output_inception_3a/output_0_split
I0403 19:30:39.196360 24927 net.cpp:148] Top shape: 24 256 28 28 (4816896)
I0403 19:30:39.196378 24927 net.cpp:148] Top shape: 24 256 28 28 (4816896)
I0403 19:30:39.196396 24927 net.cpp:148] Top shape: 24 256 28 28 (4816896)
I0403 19:30:39.196413 24927 net.cpp:148] Top shape: 24 256 28 28 (4816896)
I0403 19:30:39.196429 24927 net.cpp:156] Memory required for data: 657507360
I0403 19:30:39.196444 24927 layer_factory.hpp:77] Creating layer inception_3b/1x1
I0403 19:30:39.196466 24927 net.cpp:91] Creating Layer inception_3b/1x1
I0403 19:30:39.196488 24927 net.cpp:425] inception_3b/1x1 <- inception_3a/output_inception_3a/output_0_split_0
I0403 19:30:39.196508 24927 net.cpp:399] inception_3b/1x1 -> inception_3b/1x1
I0403 19:30:39.197629 24927 net.cpp:141] Setting up inception_3b/1x1
I0403 19:30:39.197671 24927 net.cpp:148] Top shape: 24 128 28 28 (2408448)
I0403 19:30:39.197690 24927 net.cpp:156] Memory required for data: 667141152
I0403 19:30:39.197710 24927 layer_factory.hpp:77] Creating layer inception_3b/relu_1x1
I0403 19:30:39.197736 24927 net.cpp:91] Creating Layer inception_3b/relu_1x1
I0403 19:30:39.197768 24927 net.cpp:425] inception_3b/relu_1x1 <- inception_3b/1x1
I0403 19:30:39.197788 24927 net.cpp:386] inception_3b/relu_1x1 -> inception_3b/1x1 (in-place)
I0403 19:30:39.197975 24927 net.cpp:141] Setting up inception_3b/relu_1x1
I0403 19:30:39.198007 24927 net.cpp:148] Top shape: 24 128 28 28 (2408448)
I0403 19:30:39.198025 24927 net.cpp:156] Memory required for data: 676774944
I0403 19:30:39.198055 24927 layer_factory.hpp:77] Creating layer inception_3b/3x3_reduce
I0403 19:30:39.198077 24927 net.cpp:91] Creating Layer inception_3b/3x3_reduce
I0403 19:30:39.198097 24927 net.cpp:425] inception_3b/3x3_reduce <- inception_3a/output_inception_3a/output_0_split_1
I0403 19:30:39.198117 24927 net.cpp:399] inception_3b/3x3_reduce -> inception_3b/3x3_reduce
I0403 19:30:39.199213 24927 net.cpp:141] Setting up inception_3b/3x3_reduce
I0403 19:30:39.199244 24927 net.cpp:148] Top shape: 24 128 28 28 (2408448)
I0403 19:30:39.199266 24927 net.cpp:156] Memory required for data: 686408736
I0403 19:30:39.199287 24927 layer_factory.hpp:77] Creating layer inception_3b/relu_3x3_reduce
I0403 19:30:39.199311 24927 net.cpp:91] Creating Layer inception_3b/relu_3x3_reduce
I0403 19:30:39.199329 24927 net.cpp:425] inception_3b/relu_3x3_reduce <- inception_3b/3x3_reduce
I0403 19:30:39.199347 24927 net.cpp:386] inception_3b/relu_3x3_reduce -> inception_3b/3x3_reduce (in-place)
I0403 19:30:39.199513 24927 net.cpp:141] Setting up inception_3b/relu_3x3_reduce
I0403 19:30:39.199543 24927 net.cpp:148] Top shape: 24 128 28 28 (2408448)
I0403 19:30:39.199561 24927 net.cpp:156] Memory required for data: 696042528
I0403 19:30:39.199576 24927 layer_factory.hpp:77] Creating layer inception_3b/3x3
I0403 19:30:39.199602 24927 net.cpp:91] Creating Layer inception_3b/3x3
I0403 19:30:39.199625 24927 net.cpp:425] inception_3b/3x3 <- inception_3b/3x3_reduce
I0403 19:30:39.199645 24927 net.cpp:399] inception_3b/3x3 -> inception_3b/3x3
I0403 19:30:39.202494 24927 net.cpp:141] Setting up inception_3b/3x3
I0403 19:30:39.202529 24927 net.cpp:148] Top shape: 24 192 28 28 (3612672)
I0403 19:30:39.202548 24927 net.cpp:156] Memory required for data: 710493216
I0403 19:30:39.202569 24927 layer_factory.hpp:77] Creating layer inception_3b/relu_3x3
I0403 19:30:39.202589 24927 net.cpp:91] Creating Layer inception_3b/relu_3x3
I0403 19:30:39.202606 24927 net.cpp:425] inception_3b/relu_3x3 <- inception_3b/3x3
I0403 19:30:39.202626 24927 net.cpp:386] inception_3b/relu_3x3 -> inception_3b/3x3 (in-place)
I0403 19:30:39.202890 24927 net.cpp:141] Setting up inception_3b/relu_3x3
I0403 19:30:39.202922 24927 net.cpp:148] Top shape: 24 192 28 28 (3612672)
I0403 19:30:39.202939 24927 net.cpp:156] Memory required for data: 724943904
I0403 19:30:39.202955 24927 layer_factory.hpp:77] Creating layer inception_3b/5x5_reduce
I0403 19:30:39.202980 24927 net.cpp:91] Creating Layer inception_3b/5x5_reduce
I0403 19:30:39.202998 24927 net.cpp:425] inception_3b/5x5_reduce <- inception_3a/output_inception_3a/output_0_split_2
I0403 19:30:39.203017 24927 net.cpp:399] inception_3b/5x5_reduce -> inception_3b/5x5_reduce
I0403 19:30:39.203969 24927 net.cpp:141] Setting up inception_3b/5x5_reduce
I0403 19:30:39.204004 24927 net.cpp:148] Top shape: 24 32 28 28 (602112)
I0403 19:30:39.204022 24927 net.cpp:156] Memory required for data: 727352352
I0403 19:30:39.204042 24927 layer_factory.hpp:77] Creating layer inception_3b/relu_5x5_reduce
I0403 19:30:39.204062 24927 net.cpp:91] Creating Layer inception_3b/relu_5x5_reduce
I0403 19:30:39.204078 24927 net.cpp:425] inception_3b/relu_5x5_reduce <- inception_3b/5x5_reduce
I0403 19:30:39.204095 24927 net.cpp:386] inception_3b/relu_5x5_reduce -> inception_3b/5x5_reduce (in-place)
I0403 19:30:39.204294 24927 net.cpp:141] Setting up inception_3b/relu_5x5_reduce
I0403 19:30:39.204325 24927 net.cpp:148] Top shape: 24 32 28 28 (602112)
I0403 19:30:39.204344 24927 net.cpp:156] Memory required for data: 729760800
I0403 19:30:39.204361 24927 layer_factory.hpp:77] Creating layer inception_3b/5x5
I0403 19:30:39.204385 24927 net.cpp:91] Creating Layer inception_3b/5x5
I0403 19:30:39.204402 24927 net.cpp:425] inception_3b/5x5 <- inception_3b/5x5_reduce
I0403 19:30:39.204421 24927 net.cpp:399] inception_3b/5x5 -> inception_3b/5x5
I0403 19:30:39.206347 24927 net.cpp:141] Setting up inception_3b/5x5
I0403 19:30:39.206377 24927 net.cpp:148] Top shape: 24 96 28 28 (1806336)
I0403 19:30:39.206393 24927 net.cpp:156] Memory required for data: 736986144
I0403 19:30:39.206413 24927 layer_factory.hpp:77] Creating layer inception_3b/relu_5x5
I0403 19:30:39.206432 24927 net.cpp:91] Creating Layer inception_3b/relu_5x5
I0403 19:30:39.206450 24927 net.cpp:425] inception_3b/relu_5x5 <- inception_3b/5x5
I0403 19:30:39.206467 24927 net.cpp:386] inception_3b/relu_5x5 -> inception_3b/5x5 (in-place)
I0403 19:30:39.206652 24927 net.cpp:141] Setting up inception_3b/relu_5x5
I0403 19:30:39.206681 24927 net.cpp:148] Top shape: 24 96 28 28 (1806336)
I0403 19:30:39.206694 24927 net.cpp:156] Memory required for data: 744211488
I0403 19:30:39.206709 24927 layer_factory.hpp:77] Creating layer inception_3b/pool
I0403 19:30:39.206727 24927 net.cpp:91] Creating Layer inception_3b/pool
I0403 19:30:39.206743 24927 net.cpp:425] inception_3b/pool <- inception_3a/output_inception_3a/output_0_split_3
I0403 19:30:39.206763 24927 net.cpp:399] inception_3b/pool -> inception_3b/pool
I0403 19:30:39.206816 24927 net.cpp:141] Setting up inception_3b/pool
I0403 19:30:39.206841 24927 net.cpp:148] Top shape: 24 256 28 28 (4816896)
I0403 19:30:39.206856 24927 net.cpp:156] Memory required for data: 763479072
I0403 19:30:39.206868 24927 layer_factory.hpp:77] Creating layer inception_3b/pool_proj
I0403 19:30:39.206892 24927 net.cpp:91] Creating Layer inception_3b/pool_proj
I0403 19:30:39.206909 24927 net.cpp:425] inception_3b/pool_proj <- inception_3b/pool
I0403 19:30:39.206931 24927 net.cpp:399] inception_3b/pool_proj -> inception_3b/pool_proj
I0403 19:30:39.207967 24927 net.cpp:141] Setting up inception_3b/pool_proj
I0403 19:30:39.207996 24927 net.cpp:148] Top shape: 24 64 28 28 (1204224)
I0403 19:30:39.208014 24927 net.cpp:156] Memory required for data: 768295968
I0403 19:30:39.208030 24927 layer_factory.hpp:77] Creating layer inception_3b/relu_pool_proj
I0403 19:30:39.208048 24927 net.cpp:91] Creating Layer inception_3b/relu_pool_proj
I0403 19:30:39.208066 24927 net.cpp:425] inception_3b/relu_pool_proj <- inception_3b/pool_proj
I0403 19:30:39.208087 24927 net.cpp:386] inception_3b/relu_pool_proj -> inception_3b/pool_proj (in-place)
I0403 19:30:39.208479 24927 net.cpp:141] Setting up inception_3b/relu_pool_proj
I0403 19:30:39.208506 24927 net.cpp:148] Top shape: 24 64 28 28 (1204224)
I0403 19:30:39.208521 24927 net.cpp:156] Memory required for data: 773112864
I0403 19:30:39.208535 24927 layer_factory.hpp:77] Creating layer inception_3b/output
I0403 19:30:39.208554 24927 net.cpp:91] Creating Layer inception_3b/output
I0403 19:30:39.208569 24927 net.cpp:425] inception_3b/output <- inception_3b/1x1
I0403 19:30:39.208585 24927 net.cpp:425] inception_3b/output <- inception_3b/3x3
I0403 19:30:39.208600 24927 net.cpp:425] inception_3b/output <- inception_3b/5x5
I0403 19:30:39.208616 24927 net.cpp:425] inception_3b/output <- inception_3b/pool_proj
I0403 19:30:39.208633 24927 net.cpp:399] inception_3b/output -> inception_3b/output
I0403 19:30:39.208676 24927 net.cpp:141] Setting up inception_3b/output
I0403 19:30:39.208701 24927 net.cpp:148] Top shape: 24 480 28 28 (9031680)
I0403 19:30:39.208715 24927 net.cpp:156] Memory required for data: 809239584
I0403 19:30:39.208731 24927 layer_factory.hpp:77] Creating layer pool3/3x3_s2
I0403 19:30:39.208751 24927 net.cpp:91] Creating Layer pool3/3x3_s2
I0403 19:30:39.208770 24927 net.cpp:425] pool3/3x3_s2 <- inception_3b/output
I0403 19:30:39.208801 24927 net.cpp:399] pool3/3x3_s2 -> pool3/3x3_s2
I0403 19:30:39.208860 24927 net.cpp:141] Setting up pool3/3x3_s2
I0403 19:30:39.208884 24927 net.cpp:148] Top shape: 24 480 14 14 (2257920)
I0403 19:30:39.208899 24927 net.cpp:156] Memory required for data: 818271264
I0403 19:30:39.208911 24927 layer_factory.hpp:77] Creating layer pool3/3x3_s2_pool3/3x3_s2_0_split
I0403 19:30:39.208927 24927 net.cpp:91] Creating Layer pool3/3x3_s2_pool3/3x3_s2_0_split
I0403 19:30:39.208943 24927 net.cpp:425] pool3/3x3_s2_pool3/3x3_s2_0_split <- pool3/3x3_s2
I0403 19:30:39.208962 24927 net.cpp:399] pool3/3x3_s2_pool3/3x3_s2_0_split -> pool3/3x3_s2_pool3/3x3_s2_0_split_0
I0403 19:30:39.208982 24927 net.cpp:399] pool3/3x3_s2_pool3/3x3_s2_0_split -> pool3/3x3_s2_pool3/3x3_s2_0_split_1
I0403 19:30:39.209003 24927 net.cpp:399] pool3/3x3_s2_pool3/3x3_s2_0_split -> pool3/3x3_s2_pool3/3x3_s2_0_split_2
I0403 19:30:39.209023 24927 net.cpp:399] pool3/3x3_s2_pool3/3x3_s2_0_split -> pool3/3x3_s2_pool3/3x3_s2_0_split_3
I0403 19:30:39.209095 24927 net.cpp:141] Setting up pool3/3x3_s2_pool3/3x3_s2_0_split
I0403 19:30:39.209122 24927 net.cpp:148] Top shape: 24 480 14 14 (2257920)
I0403 19:30:39.209141 24927 net.cpp:148] Top shape: 24 480 14 14 (2257920)
I0403 19:30:39.209157 24927 net.cpp:148] Top shape: 24 480 14 14 (2257920)
I0403 19:30:39.209172 24927 net.cpp:148] Top shape: 24 480 14 14 (2257920)
I0403 19:30:39.209184 24927 net.cpp:156] Memory required for data: 854397984
I0403 19:30:39.209198 24927 layer_factory.hpp:77] Creating layer inception_4a/1x1
I0403 19:30:39.209219 24927 net.cpp:91] Creating Layer inception_4a/1x1
I0403 19:30:39.209238 24927 net.cpp:425] inception_4a/1x1 <- pool3/3x3_s2_pool3/3x3_s2_0_split_0
I0403 19:30:39.209264 24927 net.cpp:399] inception_4a/1x1 -> inception_4a/1x1
I0403 19:30:39.210758 24927 net.cpp:141] Setting up inception_4a/1x1
I0403 19:30:39.210788 24927 net.cpp:148] Top shape: 24 192 14 14 (903168)
I0403 19:30:39.210804 24927 net.cpp:156] Memory required for data: 858010656
I0403 19:30:39.210821 24927 layer_factory.hpp:77] Creating layer inception_4a/relu_1x1
I0403 19:30:39.210842 24927 net.cpp:91] Creating Layer inception_4a/relu_1x1
I0403 19:30:39.210858 24927 net.cpp:425] inception_4a/relu_1x1 <- inception_4a/1x1
I0403 19:30:39.210876 24927 net.cpp:386] inception_4a/relu_1x1 -> inception_4a/1x1 (in-place)
I0403 19:30:39.211040 24927 net.cpp:141] Setting up inception_4a/relu_1x1
I0403 19:30:39.211066 24927 net.cpp:148] Top shape: 24 192 14 14 (903168)
I0403 19:30:39.211079 24927 net.cpp:156] Memory required for data: 861623328
I0403 19:30:39.211094 24927 layer_factory.hpp:77] Creating layer inception_4a/3x3_reduce
I0403 19:30:39.211117 24927 net.cpp:91] Creating Layer inception_4a/3x3_reduce
I0403 19:30:39.211135 24927 net.cpp:425] inception_4a/3x3_reduce <- pool3/3x3_s2_pool3/3x3_s2_0_split_1
I0403 19:30:39.211156 24927 net.cpp:399] inception_4a/3x3_reduce -> inception_4a/3x3_reduce
I0403 19:30:39.212363 24927 net.cpp:141] Setting up inception_4a/3x3_reduce
I0403 19:30:39.212391 24927 net.cpp:148] Top shape: 24 96 14 14 (451584)
I0403 19:30:39.212407 24927 net.cpp:156] Memory required for data: 863429664
I0403 19:30:39.212432 24927 layer_factory.hpp:77] Creating layer inception_4a/relu_3x3_reduce
I0403 19:30:39.212455 24927 net.cpp:91] Creating Layer inception_4a/relu_3x3_reduce
I0403 19:30:39.212471 24927 net.cpp:425] inception_4a/relu_3x3_reduce <- inception_4a/3x3_reduce
I0403 19:30:39.212493 24927 net.cpp:386] inception_4a/relu_3x3_reduce -> inception_4a/3x3_reduce (in-place)
I0403 19:30:39.212669 24927 net.cpp:141] Setting up inception_4a/relu_3x3_reduce
I0403 19:30:39.212695 24927 net.cpp:148] Top shape: 24 96 14 14 (451584)
I0403 19:30:39.212712 24927 net.cpp:156] Memory required for data: 865236000
I0403 19:30:39.212739 24927 layer_factory.hpp:77] Creating layer inception_4a/3x3
I0403 19:30:39.212761 24927 net.cpp:91] Creating Layer inception_4a/3x3
I0403 19:30:39.212780 24927 net.cpp:425] inception_4a/3x3 <- inception_4a/3x3_reduce
I0403 19:30:39.212802 24927 net.cpp:399] inception_4a/3x3 -> inception_4a/3x3
I0403 19:30:39.215351 24927 net.cpp:141] Setting up inception_4a/3x3
I0403 19:30:39.215381 24927 net.cpp:148] Top shape: 24 208 14 14 (978432)
I0403 19:30:39.215397 24927 net.cpp:156] Memory required for data: 869149728
I0403 19:30:39.215416 24927 layer_factory.hpp:77] Creating layer inception_4a/relu_3x3
I0403 19:30:39.215438 24927 net.cpp:91] Creating Layer inception_4a/relu_3x3
I0403 19:30:39.215456 24927 net.cpp:425] inception_4a/relu_3x3 <- inception_4a/3x3
I0403 19:30:39.215471 24927 net.cpp:386] inception_4a/relu_3x3 -> inception_4a/3x3 (in-place)
I0403 19:30:39.215733 24927 net.cpp:141] Setting up inception_4a/relu_3x3
I0403 19:30:39.215759 24927 net.cpp:148] Top shape: 24 208 14 14 (978432)
I0403 19:30:39.215775 24927 net.cpp:156] Memory required for data: 873063456
I0403 19:30:39.215790 24927 layer_factory.hpp:77] Creating layer inception_4a/5x5_reduce
I0403 19:30:39.215814 24927 net.cpp:91] Creating Layer inception_4a/5x5_reduce
I0403 19:30:39.215832 24927 net.cpp:425] inception_4a/5x5_reduce <- pool3/3x3_s2_pool3/3x3_s2_0_split_2
I0403 19:30:39.215854 24927 net.cpp:399] inception_4a/5x5_reduce -> inception_4a/5x5_reduce
I0403 19:30:39.216805 24927 net.cpp:141] Setting up inception_4a/5x5_reduce
I0403 19:30:39.216835 24927 net.cpp:148] Top shape: 24 16 14 14 (75264)
I0403 19:30:39.216851 24927 net.cpp:156] Memory required for data: 873364512
I0403 19:30:39.216871 24927 layer_factory.hpp:77] Creating layer inception_4a/relu_5x5_reduce
I0403 19:30:39.216893 24927 net.cpp:91] Creating Layer inception_4a/relu_5x5_reduce
I0403 19:30:39.216910 24927 net.cpp:425] inception_4a/relu_5x5_reduce <- inception_4a/5x5_reduce
I0403 19:30:39.216928 24927 net.cpp:386] inception_4a/relu_5x5_reduce -> inception_4a/5x5_reduce (in-place)
I0403 19:30:39.217093 24927 net.cpp:141] Setting up inception_4a/relu_5x5_reduce
I0403 19:30:39.217121 24927 net.cpp:148] Top shape: 24 16 14 14 (75264)
I0403 19:30:39.217139 24927 net.cpp:156] Memory required for data: 873665568
I0403 19:30:39.217154 24927 layer_factory.hpp:77] Creating layer inception_4a/5x5
I0403 19:30:39.217175 24927 net.cpp:91] Creating Layer inception_4a/5x5
I0403 19:30:39.217192 24927 net.cpp:425] inception_4a/5x5 <- inception_4a/5x5_reduce
I0403 19:30:39.217211 24927 net.cpp:399] inception_4a/5x5 -> inception_4a/5x5
I0403 19:30:39.218258 24927 net.cpp:141] Setting up inception_4a/5x5
I0403 19:30:39.218286 24927 net.cpp:148] Top shape: 24 48 14 14 (225792)
I0403 19:30:39.218302 24927 net.cpp:156] Memory required for data: 874568736
I0403 19:30:39.218320 24927 layer_factory.hpp:77] Creating layer inception_4a/relu_5x5
I0403 19:30:39.218338 24927 net.cpp:91] Creating Layer inception_4a/relu_5x5
I0403 19:30:39.218354 24927 net.cpp:425] inception_4a/relu_5x5 <- inception_4a/5x5
I0403 19:30:39.218374 24927 net.cpp:386] inception_4a/relu_5x5 -> inception_4a/5x5 (in-place)
I0403 19:30:39.218544 24927 net.cpp:141] Setting up inception_4a/relu_5x5
I0403 19:30:39.218570 24927 net.cpp:148] Top shape: 24 48 14 14 (225792)
I0403 19:30:39.218585 24927 net.cpp:156] Memory required for data: 875471904
I0403 19:30:39.218597 24927 layer_factory.hpp:77] Creating layer inception_4a/pool
I0403 19:30:39.218618 24927 net.cpp:91] Creating Layer inception_4a/pool
I0403 19:30:39.218636 24927 net.cpp:425] inception_4a/pool <- pool3/3x3_s2_pool3/3x3_s2_0_split_3
I0403 19:30:39.218653 24927 net.cpp:399] inception_4a/pool -> inception_4a/pool
I0403 19:30:39.218713 24927 net.cpp:141] Setting up inception_4a/pool
I0403 19:30:39.218737 24927 net.cpp:148] Top shape: 24 480 14 14 (2257920)
I0403 19:30:39.218751 24927 net.cpp:156] Memory required for data: 884503584
I0403 19:30:39.218765 24927 layer_factory.hpp:77] Creating layer inception_4a/pool_proj
I0403 19:30:39.218786 24927 net.cpp:91] Creating Layer inception_4a/pool_proj
I0403 19:30:39.218806 24927 net.cpp:425] inception_4a/pool_proj <- inception_4a/pool
I0403 19:30:39.218827 24927 net.cpp:399] inception_4a/pool_proj -> inception_4a/pool_proj
I0403 19:30:39.219918 24927 net.cpp:141] Setting up inception_4a/pool_proj
I0403 19:30:39.219946 24927 net.cpp:148] Top shape: 24 64 14 14 (301056)
I0403 19:30:39.219977 24927 net.cpp:156] Memory required for data: 885707808
I0403 19:30:39.219997 24927 layer_factory.hpp:77] Creating layer inception_4a/relu_pool_proj
I0403 19:30:39.220016 24927 net.cpp:91] Creating Layer inception_4a/relu_pool_proj
I0403 19:30:39.220034 24927 net.cpp:425] inception_4a/relu_pool_proj <- inception_4a/pool_proj
I0403 19:30:39.220055 24927 net.cpp:386] inception_4a/relu_pool_proj -> inception_4a/pool_proj (in-place)
I0403 19:30:39.220326 24927 net.cpp:141] Setting up inception_4a/relu_pool_proj
I0403 19:30:39.220353 24927 net.cpp:148] Top shape: 24 64 14 14 (301056)
I0403 19:30:39.220368 24927 net.cpp:156] Memory required for data: 886912032
I0403 19:30:39.220383 24927 layer_factory.hpp:77] Creating layer inception_4a/output
I0403 19:30:39.220402 24927 net.cpp:91] Creating Layer inception_4a/output
I0403 19:30:39.220417 24927 net.cpp:425] inception_4a/output <- inception_4a/1x1
I0403 19:30:39.220432 24927 net.cpp:425] inception_4a/output <- inception_4a/3x3
I0403 19:30:39.220448 24927 net.cpp:425] inception_4a/output <- inception_4a/5x5
I0403 19:30:39.220464 24927 net.cpp:425] inception_4a/output <- inception_4a/pool_proj
I0403 19:30:39.220482 24927 net.cpp:399] inception_4a/output -> inception_4a/output
I0403 19:30:39.220527 24927 net.cpp:141] Setting up inception_4a/output
I0403 19:30:39.220554 24927 net.cpp:148] Top shape: 24 512 14 14 (2408448)
I0403 19:30:39.220569 24927 net.cpp:156] Memory required for data: 896545824
I0403 19:30:39.220583 24927 layer_factory.hpp:77] Creating layer inception_4a/output_inception_4a/output_0_split
I0403 19:30:39.220600 24927 net.cpp:91] Creating Layer inception_4a/output_inception_4a/output_0_split
I0403 19:30:39.220615 24927 net.cpp:425] inception_4a/output_inception_4a/output_0_split <- inception_4a/output
I0403 19:30:39.220634 24927 net.cpp:399] inception_4a/output_inception_4a/output_0_split -> inception_4a/output_inception_4a/output_0_split_0
I0403 19:30:39.220655 24927 net.cpp:399] inception_4a/output_inception_4a/output_0_split -> inception_4a/output_inception_4a/output_0_split_1
I0403 19:30:39.220677 24927 net.cpp:399] inception_4a/output_inception_4a/output_0_split -> inception_4a/output_inception_4a/output_0_split_2
I0403 19:30:39.220697 24927 net.cpp:399] inception_4a/output_inception_4a/output_0_split -> inception_4a/output_inception_4a/output_0_split_3
I0403 19:30:39.220718 24927 net.cpp:399] inception_4a/output_inception_4a/output_0_split -> inception_4a/output_inception_4a/output_0_split_4
I0403 19:30:39.220808 24927 net.cpp:141] Setting up inception_4a/output_inception_4a/output_0_split
I0403 19:30:39.220832 24927 net.cpp:148] Top shape: 24 512 14 14 (2408448)
I0403 19:30:39.220851 24927 net.cpp:148] Top shape: 24 512 14 14 (2408448)
I0403 19:30:39.220867 24927 net.cpp:148] Top shape: 24 512 14 14 (2408448)
I0403 19:30:39.220883 24927 net.cpp:148] Top shape: 24 512 14 14 (2408448)
I0403 19:30:39.220898 24927 net.cpp:148] Top shape: 24 512 14 14 (2408448)
I0403 19:30:39.220911 24927 net.cpp:156] Memory required for data: 944714784
I0403 19:30:39.220927 24927 layer_factory.hpp:77] Creating layer loss1/ave_pool
I0403 19:30:39.220944 24927 net.cpp:91] Creating Layer loss1/ave_pool
I0403 19:30:39.220959 24927 net.cpp:425] loss1/ave_pool <- inception_4a/output_inception_4a/output_0_split_0
I0403 19:30:39.220976 24927 net.cpp:399] loss1/ave_pool -> loss1/ave_pool
I0403 19:30:39.221176 24927 net.cpp:141] Setting up loss1/ave_pool
I0403 19:30:39.221204 24927 net.cpp:148] Top shape: 24 512 4 4 (196608)
I0403 19:30:39.221217 24927 net.cpp:156] Memory required for data: 945501216
I0403 19:30:39.221233 24927 layer_factory.hpp:77] Creating layer loss1/conv
I0403 19:30:39.221254 24927 net.cpp:91] Creating Layer loss1/conv
I0403 19:30:39.221276 24927 net.cpp:425] loss1/conv <- loss1/ave_pool
I0403 19:30:39.221297 24927 net.cpp:399] loss1/conv -> loss1/conv
I0403 19:30:39.222648 24927 net.cpp:141] Setting up loss1/conv
I0403 19:30:39.222676 24927 net.cpp:148] Top shape: 24 128 4 4 (49152)
I0403 19:30:39.222705 24927 net.cpp:156] Memory required for data: 945697824
I0403 19:30:39.222725 24927 layer_factory.hpp:77] Creating layer loss1/relu_conv
I0403 19:30:39.222744 24927 net.cpp:91] Creating Layer loss1/relu_conv
I0403 19:30:39.222760 24927 net.cpp:425] loss1/relu_conv <- loss1/conv
I0403 19:30:39.222777 24927 net.cpp:386] loss1/relu_conv -> loss1/conv (in-place)
I0403 19:30:39.223064 24927 net.cpp:141] Setting up loss1/relu_conv
I0403 19:30:39.223090 24927 net.cpp:148] Top shape: 24 128 4 4 (49152)
I0403 19:30:39.223105 24927 net.cpp:156] Memory required for data: 945894432
I0403 19:30:39.223121 24927 layer_factory.hpp:77] Creating layer loss1/fc
I0403 19:30:39.223148 24927 net.cpp:91] Creating Layer loss1/fc
I0403 19:30:39.223167 24927 net.cpp:425] loss1/fc <- loss1/conv
I0403 19:30:39.223186 24927 net.cpp:399] loss1/fc -> loss1/fc
I0403 19:30:39.240140 24927 net.cpp:141] Setting up loss1/fc
I0403 19:30:39.240177 24927 net.cpp:148] Top shape: 24 1024 (24576)
I0403 19:30:39.240196 24927 net.cpp:156] Memory required for data: 945992736
I0403 19:30:39.240216 24927 layer_factory.hpp:77] Creating layer loss1/relu_fc
I0403 19:30:39.240236 24927 net.cpp:91] Creating Layer loss1/relu_fc
I0403 19:30:39.240252 24927 net.cpp:425] loss1/relu_fc <- loss1/fc
I0403 19:30:39.240278 24927 net.cpp:386] loss1/relu_fc -> loss1/fc (in-place)
I0403 19:30:39.240460 24927 net.cpp:141] Setting up loss1/relu_fc
I0403 19:30:39.240488 24927 net.cpp:148] Top shape: 24 1024 (24576)
I0403 19:30:39.240502 24927 net.cpp:156] Memory required for data: 946091040
I0403 19:30:39.240519 24927 layer_factory.hpp:77] Creating layer loss1/drop_fc
I0403 19:30:39.240547 24927 net.cpp:91] Creating Layer loss1/drop_fc
I0403 19:30:39.240566 24927 net.cpp:425] loss1/drop_fc <- loss1/fc
I0403 19:30:39.240586 24927 net.cpp:386] loss1/drop_fc -> loss1/fc (in-place)
I0403 19:30:39.240639 24927 net.cpp:141] Setting up loss1/drop_fc
I0403 19:30:39.240669 24927 net.cpp:148] Top shape: 24 1024 (24576)
I0403 19:30:39.240685 24927 net.cpp:156] Memory required for data: 946189344
I0403 19:30:39.240700 24927 layer_factory.hpp:77] Creating layer loss1/classifier_plantvillage
I0403 19:30:39.240720 24927 net.cpp:91] Creating Layer loss1/classifier_plantvillage
I0403 19:30:39.240734 24927 net.cpp:425] loss1/classifier_plantvillage <- loss1/fc
I0403 19:30:39.240756 24927 net.cpp:399] loss1/classifier_plantvillage -> loss1/classifier_plantvillage
I0403 19:30:39.241636 24927 net.cpp:141] Setting up loss1/classifier_plantvillage
I0403 19:30:39.241665 24927 net.cpp:148] Top shape: 24 38 (912)
I0403 19:30:39.241682 24927 net.cpp:156] Memory required for data: 946192992
I0403 19:30:39.241698 24927 layer_factory.hpp:77] Creating layer loss1/classifier_plantvillage_loss1/classifier_plantvillage_0_split
I0403 19:30:39.241719 24927 net.cpp:91] Creating Layer loss1/classifier_plantvillage_loss1/classifier_plantvillage_0_split
I0403 19:30:39.241735 24927 net.cpp:425] loss1/classifier_plantvillage_loss1/classifier_plantvillage_0_split <- loss1/classifier_plantvillage
I0403 19:30:39.241755 24927 net.cpp:399] loss1/classifier_plantvillage_loss1/classifier_plantvillage_0_split -> loss1/classifier_plantvillage_loss1/classifier_plantvillage_0_split_0
I0403 19:30:39.241775 24927 net.cpp:399] loss1/classifier_plantvillage_loss1/classifier_plantvillage_0_split -> loss1/classifier_plantvillage_loss1/classifier_plantvillage_0_split_1
I0403 19:30:39.241796 24927 net.cpp:399] loss1/classifier_plantvillage_loss1/classifier_plantvillage_0_split -> loss1/classifier_plantvillage_loss1/classifier_plantvillage_0_split_2
I0403 19:30:39.241861 24927 net.cpp:141] Setting up loss1/classifier_plantvillage_loss1/classifier_plantvillage_0_split
I0403 19:30:39.241886 24927 net.cpp:148] Top shape: 24 38 (912)
I0403 19:30:39.241902 24927 net.cpp:148] Top shape: 24 38 (912)
I0403 19:30:39.241919 24927 net.cpp:148] Top shape: 24 38 (912)
I0403 19:30:39.241933 24927 net.cpp:156] Memory required for data: 946203936
I0403 19:30:39.241948 24927 layer_factory.hpp:77] Creating layer inception_4b/1x1
I0403 19:30:39.241969 24927 net.cpp:91] Creating Layer inception_4b/1x1
I0403 19:30:39.242003 24927 net.cpp:425] inception_4b/1x1 <- inception_4a/output_inception_4a/output_0_split_1
I0403 19:30:39.242025 24927 net.cpp:399] inception_4b/1x1 -> inception_4b/1x1
I0403 19:30:39.243590 24927 net.cpp:141] Setting up inception_4b/1x1
I0403 19:30:39.243618 24927 net.cpp:148] Top shape: 24 160 14 14 (752640)
I0403 19:30:39.243635 24927 net.cpp:156] Memory required for data: 949214496
I0403 19:30:39.243654 24927 layer_factory.hpp:77] Creating layer inception_4b/relu_1x1
I0403 19:30:39.243674 24927 net.cpp:91] Creating Layer inception_4b/relu_1x1
I0403 19:30:39.243690 24927 net.cpp:425] inception_4b/relu_1x1 <- inception_4b/1x1
I0403 19:30:39.243707 24927 net.cpp:386] inception_4b/relu_1x1 -> inception_4b/1x1 (in-place)
I0403 19:30:39.243880 24927 net.cpp:141] Setting up inception_4b/relu_1x1
I0403 19:30:39.243906 24927 net.cpp:148] Top shape: 24 160 14 14 (752640)
I0403 19:30:39.243922 24927 net.cpp:156] Memory required for data: 952225056
I0403 19:30:39.243937 24927 layer_factory.hpp:77] Creating layer inception_4b/3x3_reduce
I0403 19:30:39.243960 24927 net.cpp:91] Creating Layer inception_4b/3x3_reduce
I0403 19:30:39.243978 24927 net.cpp:425] inception_4b/3x3_reduce <- inception_4a/output_inception_4a/output_0_split_2
I0403 19:30:39.243998 24927 net.cpp:399] inception_4b/3x3_reduce -> inception_4b/3x3_reduce
I0403 19:30:39.245271 24927 net.cpp:141] Setting up inception_4b/3x3_reduce
I0403 19:30:39.245301 24927 net.cpp:148] Top shape: 24 112 14 14 (526848)
I0403 19:30:39.245316 24927 net.cpp:156] Memory required for data: 954332448
I0403 19:30:39.245334 24927 layer_factory.hpp:77] Creating layer inception_4b/relu_3x3_reduce
I0403 19:30:39.245350 24927 net.cpp:91] Creating Layer inception_4b/relu_3x3_reduce
I0403 19:30:39.245365 24927 net.cpp:425] inception_4b/relu_3x3_reduce <- inception_4b/3x3_reduce
I0403 19:30:39.245384 24927 net.cpp:386] inception_4b/relu_3x3_reduce -> inception_4b/3x3_reduce (in-place)
I0403 19:30:39.245646 24927 net.cpp:141] Setting up inception_4b/relu_3x3_reduce
I0403 19:30:39.245673 24927 net.cpp:148] Top shape: 24 112 14 14 (526848)
I0403 19:30:39.245689 24927 net.cpp:156] Memory required for data: 956439840
I0403 19:30:39.245702 24927 layer_factory.hpp:77] Creating layer inception_4b/3x3
I0403 19:30:39.245724 24927 net.cpp:91] Creating Layer inception_4b/3x3
I0403 19:30:39.245740 24927 net.cpp:425] inception_4b/3x3 <- inception_4b/3x3_reduce
I0403 19:30:39.245759 24927 net.cpp:399] inception_4b/3x3 -> inception_4b/3x3
I0403 19:30:39.248606 24927 net.cpp:141] Setting up inception_4b/3x3
I0403 19:30:39.248634 24927 net.cpp:148] Top shape: 24 224 14 14 (1053696)
I0403 19:30:39.248649 24927 net.cpp:156] Memory required for data: 960654624
I0403 19:30:39.248667 24927 layer_factory.hpp:77] Creating layer inception_4b/relu_3x3
I0403 19:30:39.248687 24927 net.cpp:91] Creating Layer inception_4b/relu_3x3
I0403 19:30:39.248704 24927 net.cpp:425] inception_4b/relu_3x3 <- inception_4b/3x3
I0403 19:30:39.248721 24927 net.cpp:386] inception_4b/relu_3x3 -> inception_4b/3x3 (in-place)
I0403 19:30:39.248917 24927 net.cpp:141] Setting up inception_4b/relu_3x3
I0403 19:30:39.248942 24927 net.cpp:148] Top shape: 24 224 14 14 (1053696)
I0403 19:30:39.248956 24927 net.cpp:156] Memory required for data: 964869408
I0403 19:30:39.248970 24927 layer_factory.hpp:77] Creating layer inception_4b/5x5_reduce
I0403 19:30:39.248994 24927 net.cpp:91] Creating Layer inception_4b/5x5_reduce
I0403 19:30:39.249011 24927 net.cpp:425] inception_4b/5x5_reduce <- inception_4a/output_inception_4a/output_0_split_3
I0403 19:30:39.249029 24927 net.cpp:399] inception_4b/5x5_reduce -> inception_4b/5x5_reduce
I0403 19:30:39.250128 24927 net.cpp:141] Setting up inception_4b/5x5_reduce
I0403 19:30:39.250154 24927 net.cpp:148] Top shape: 24 24 14 14 (112896)
I0403 19:30:39.250169 24927 net.cpp:156] Memory required for data: 965320992
I0403 19:30:39.250186 24927 layer_factory.hpp:77] Creating layer inception_4b/relu_5x5_reduce
I0403 19:30:39.250205 24927 net.cpp:91] Creating Layer inception_4b/relu_5x5_reduce
I0403 19:30:39.250234 24927 net.cpp:425] inception_4b/relu_5x5_reduce <- inception_4b/5x5_reduce
I0403 19:30:39.250252 24927 net.cpp:386] inception_4b/relu_5x5_reduce -> inception_4b/5x5_reduce (in-place)
I0403 19:30:39.250430 24927 net.cpp:141] Setting up inception_4b/relu_5x5_reduce
I0403 19:30:39.250455 24927 net.cpp:148] Top shape: 24 24 14 14 (112896)
I0403 19:30:39.250469 24927 net.cpp:156] Memory required for data: 965772576
I0403 19:30:39.250483 24927 layer_factory.hpp:77] Creating layer inception_4b/5x5
I0403 19:30:39.250504 24927 net.cpp:91] Creating Layer inception_4b/5x5
I0403 19:30:39.250533 24927 net.cpp:425] inception_4b/5x5 <- inception_4b/5x5_reduce
I0403 19:30:39.250553 24927 net.cpp:399] inception_4b/5x5 -> inception_4b/5x5
I0403 19:30:39.251726 24927 net.cpp:141] Setting up inception_4b/5x5
I0403 19:30:39.251752 24927 net.cpp:148] Top shape: 24 64 14 14 (301056)
I0403 19:30:39.251768 24927 net.cpp:156] Memory required for data: 966976800
I0403 19:30:39.251785 24927 layer_factory.hpp:77] Creating layer inception_4b/relu_5x5
I0403 19:30:39.251806 24927 net.cpp:91] Creating Layer inception_4b/relu_5x5
I0403 19:30:39.251821 24927 net.cpp:425] inception_4b/relu_5x5 <- inception_4b/5x5
I0403 19:30:39.251837 24927 net.cpp:386] inception_4b/relu_5x5 -> inception_4b/5x5 (in-place)
I0403 19:30:39.252107 24927 net.cpp:141] Setting up inception_4b/relu_5x5
I0403 19:30:39.252132 24927 net.cpp:148] Top shape: 24 64 14 14 (301056)
I0403 19:30:39.252146 24927 net.cpp:156] Memory required for data: 968181024
I0403 19:30:39.252161 24927 layer_factory.hpp:77] Creating layer inception_4b/pool
I0403 19:30:39.252178 24927 net.cpp:91] Creating Layer inception_4b/pool
I0403 19:30:39.252194 24927 net.cpp:425] inception_4b/pool <- inception_4a/output_inception_4a/output_0_split_4
I0403 19:30:39.252213 24927 net.cpp:399] inception_4b/pool -> inception_4b/pool
I0403 19:30:39.252281 24927 net.cpp:141] Setting up inception_4b/pool
I0403 19:30:39.252305 24927 net.cpp:148] Top shape: 24 512 14 14 (2408448)
I0403 19:30:39.252318 24927 net.cpp:156] Memory required for data: 977814816
I0403 19:30:39.252331 24927 layer_factory.hpp:77] Creating layer inception_4b/pool_proj
I0403 19:30:39.252352 24927 net.cpp:91] Creating Layer inception_4b/pool_proj
I0403 19:30:39.252369 24927 net.cpp:425] inception_4b/pool_proj <- inception_4b/pool
I0403 19:30:39.252389 24927 net.cpp:399] inception_4b/pool_proj -> inception_4b/pool_proj
I0403 19:30:39.253522 24927 net.cpp:141] Setting up inception_4b/pool_proj
I0403 19:30:39.253551 24927 net.cpp:148] Top shape: 24 64 14 14 (301056)
I0403 19:30:39.253567 24927 net.cpp:156] Memory required for data: 979019040
I0403 19:30:39.253584 24927 layer_factory.hpp:77] Creating layer inception_4b/relu_pool_proj
I0403 19:30:39.253602 24927 net.cpp:91] Creating Layer inception_4b/relu_pool_proj
I0403 19:30:39.253617 24927 net.cpp:425] inception_4b/relu_pool_proj <- inception_4b/pool_proj
I0403 19:30:39.253633 24927 net.cpp:386] inception_4b/relu_pool_proj -> inception_4b/pool_proj (in-place)
I0403 19:30:39.253803 24927 net.cpp:141] Setting up inception_4b/relu_pool_proj
I0403 19:30:39.253826 24927 net.cpp:148] Top shape: 24 64 14 14 (301056)
I0403 19:30:39.253841 24927 net.cpp:156] Memory required for data: 980223264
I0403 19:30:39.253854 24927 layer_factory.hpp:77] Creating layer inception_4b/output
I0403 19:30:39.253870 24927 net.cpp:91] Creating Layer inception_4b/output
I0403 19:30:39.253886 24927 net.cpp:425] inception_4b/output <- inception_4b/1x1
I0403 19:30:39.253901 24927 net.cpp:425] inception_4b/output <- inception_4b/3x3
I0403 19:30:39.253916 24927 net.cpp:425] inception_4b/output <- inception_4b/5x5
I0403 19:30:39.253931 24927 net.cpp:425] inception_4b/output <- inception_4b/pool_proj
I0403 19:30:39.253948 24927 net.cpp:399] inception_4b/output -> inception_4b/output
I0403 19:30:39.253991 24927 net.cpp:141] Setting up inception_4b/output
I0403 19:30:39.254014 24927 net.cpp:148] Top shape: 24 512 14 14 (2408448)
I0403 19:30:39.254027 24927 net.cpp:156] Memory required for data: 989857056
I0403 19:30:39.254055 24927 layer_factory.hpp:77] Creating layer inception_4b/output_inception_4b/output_0_split
I0403 19:30:39.254073 24927 net.cpp:91] Creating Layer inception_4b/output_inception_4b/output_0_split
I0403 19:30:39.254089 24927 net.cpp:425] inception_4b/output_inception_4b/output_0_split <- inception_4b/output
I0403 19:30:39.254106 24927 net.cpp:399] inception_4b/output_inception_4b/output_0_split -> inception_4b/output_inception_4b/output_0_split_0
I0403 19:30:39.254127 24927 net.cpp:399] inception_4b/output_inception_4b/output_0_split -> inception_4b/output_inception_4b/output_0_split_1
I0403 19:30:39.254148 24927 net.cpp:399] inception_4b/output_inception_4b/output_0_split -> inception_4b/output_inception_4b/output_0_split_2
I0403 19:30:39.254168 24927 net.cpp:399] inception_4b/output_inception_4b/output_0_split -> inception_4b/output_inception_4b/output_0_split_3
I0403 19:30:39.254247 24927 net.cpp:141] Setting up inception_4b/output_inception_4b/output_0_split
I0403 19:30:39.254281 24927 net.cpp:148] Top shape: 24 512 14 14 (2408448)
I0403 19:30:39.254297 24927 net.cpp:148] Top shape: 24 512 14 14 (2408448)
I0403 19:30:39.254312 24927 net.cpp:148] Top shape: 24 512 14 14 (2408448)
I0403 19:30:39.254326 24927 net.cpp:148] Top shape: 24 512 14 14 (2408448)
I0403 19:30:39.254339 24927 net.cpp:156] Memory required for data: 1028392224
I0403 19:30:39.254353 24927 layer_factory.hpp:77] Creating layer inception_4c/1x1
I0403 19:30:39.254374 24927 net.cpp:91] Creating Layer inception_4c/1x1
I0403 19:30:39.254390 24927 net.cpp:425] inception_4c/1x1 <- inception_4b/output_inception_4b/output_0_split_0
I0403 19:30:39.254411 24927 net.cpp:399] inception_4c/1x1 -> inception_4c/1x1
I0403 19:30:39.255820 24927 net.cpp:141] Setting up inception_4c/1x1
I0403 19:30:39.255846 24927 net.cpp:148] Top shape: 24 128 14 14 (602112)
I0403 19:30:39.255861 24927 net.cpp:156] Memory required for data: 1030800672
I0403 19:30:39.255877 24927 layer_factory.hpp:77] Creating layer inception_4c/relu_1x1
I0403 19:30:39.255894 24927 net.cpp:91] Creating Layer inception_4c/relu_1x1
I0403 19:30:39.255936 24927 net.cpp:425] inception_4c/relu_1x1 <- inception_4c/1x1
I0403 19:30:39.255954 24927 net.cpp:386] inception_4c/relu_1x1 -> inception_4c/1x1 (in-place)
I0403 19:30:39.256127 24927 net.cpp:141] Setting up inception_4c/relu_1x1
I0403 19:30:39.256151 24927 net.cpp:148] Top shape: 24 128 14 14 (602112)
I0403 19:30:39.256165 24927 net.cpp:156] Memory required for data: 1033209120
I0403 19:30:39.256180 24927 layer_factory.hpp:77] Creating layer inception_4c/3x3_reduce
I0403 19:30:39.256212 24927 net.cpp:91] Creating Layer inception_4c/3x3_reduce
I0403 19:30:39.256229 24927 net.cpp:425] inception_4c/3x3_reduce <- inception_4b/output_inception_4b/output_0_split_1
I0403 19:30:39.256250 24927 net.cpp:399] inception_4c/3x3_reduce -> inception_4c/3x3_reduce
I0403 19:30:39.258069 24927 net.cpp:141] Setting up inception_4c/3x3_reduce
I0403 19:30:39.258095 24927 net.cpp:148] Top shape: 24 128 14 14 (602112)
I0403 19:30:39.258111 24927 net.cpp:156] Memory required for data: 1035617568
I0403 19:30:39.258127 24927 layer_factory.hpp:77] Creating layer inception_4c/relu_3x3_reduce
I0403 19:30:39.258147 24927 net.cpp:91] Creating Layer inception_4c/relu_3x3_reduce
I0403 19:30:39.258162 24927 net.cpp:425] inception_4c/relu_3x3_reduce <- inception_4c/3x3_reduce
I0403 19:30:39.258179 24927 net.cpp:386] inception_4c/relu_3x3_reduce -> inception_4c/3x3_reduce (in-place)
I0403 19:30:39.258456 24927 net.cpp:141] Setting up inception_4c/relu_3x3_reduce
I0403 19:30:39.258481 24927 net.cpp:148] Top shape: 24 128 14 14 (602112)
I0403 19:30:39.258496 24927 net.cpp:156] Memory required for data: 1038026016
I0403 19:30:39.258522 24927 layer_factory.hpp:77] Creating layer inception_4c/3x3
I0403 19:30:39.258543 24927 net.cpp:91] Creating Layer inception_4c/3x3
I0403 19:30:39.258563 24927 net.cpp:425] inception_4c/3x3 <- inception_4c/3x3_reduce
I0403 19:30:39.258581 24927 net.cpp:399] inception_4c/3x3 -> inception_4c/3x3
I0403 19:30:39.262004 24927 net.cpp:141] Setting up inception_4c/3x3
I0403 19:30:39.262047 24927 net.cpp:148] Top shape: 24 256 14 14 (1204224)
I0403 19:30:39.262063 24927 net.cpp:156] Memory required for data: 1042842912
I0403 19:30:39.262094 24927 layer_factory.hpp:77] Creating layer inception_4c/relu_3x3
I0403 19:30:39.262115 24927 net.cpp:91] Creating Layer inception_4c/relu_3x3
I0403 19:30:39.262130 24927 net.cpp:425] inception_4c/relu_3x3 <- inception_4c/3x3
I0403 19:30:39.262146 24927 net.cpp:386] inception_4c/relu_3x3 -> inception_4c/3x3 (in-place)
I0403 19:30:39.262337 24927 net.cpp:141] Setting up inception_4c/relu_3x3
I0403 19:30:39.262363 24927 net.cpp:148] Top shape: 24 256 14 14 (1204224)
I0403 19:30:39.262378 24927 net.cpp:156] Memory required for data: 1047659808
I0403 19:30:39.262392 24927 layer_factory.hpp:77] Creating layer inception_4c/5x5_reduce
I0403 19:30:39.262416 24927 net.cpp:91] Creating Layer inception_4c/5x5_reduce
I0403 19:30:39.262434 24927 net.cpp:425] inception_4c/5x5_reduce <- inception_4b/output_inception_4b/output_0_split_2
I0403 19:30:39.262452 24927 net.cpp:399] inception_4c/5x5_reduce -> inception_4c/5x5_reduce
I0403 19:30:39.263507 24927 net.cpp:141] Setting up inception_4c/5x5_reduce
I0403 19:30:39.263533 24927 net.cpp:148] Top shape: 24 24 14 14 (112896)
I0403 19:30:39.263548 24927 net.cpp:156] Memory required for data: 1048111392
I0403 19:30:39.263564 24927 layer_factory.hpp:77] Creating layer inception_4c/relu_5x5_reduce
I0403 19:30:39.263583 24927 net.cpp:91] Creating Layer inception_4c/relu_5x5_reduce
I0403 19:30:39.263599 24927 net.cpp:425] inception_4c/relu_5x5_reduce <- inception_4c/5x5_reduce
I0403 19:30:39.263615 24927 net.cpp:386] inception_4c/relu_5x5_reduce -> inception_4c/5x5_reduce (in-place)
I0403 19:30:39.263788 24927 net.cpp:141] Setting up inception_4c/relu_5x5_reduce
I0403 19:30:39.263811 24927 net.cpp:148] Top shape: 24 24 14 14 (112896)
I0403 19:30:39.263825 24927 net.cpp:156] Memory required for data: 1048562976
I0403 19:30:39.263839 24927 layer_factory.hpp:77] Creating layer inception_4c/5x5
I0403 19:30:39.263860 24927 net.cpp:91] Creating Layer inception_4c/5x5
I0403 19:30:39.263876 24927 net.cpp:425] inception_4c/5x5 <- inception_4c/5x5_reduce
I0403 19:30:39.263896 24927 net.cpp:399] inception_4c/5x5 -> inception_4c/5x5
I0403 19:30:39.265067 24927 net.cpp:141] Setting up inception_4c/5x5
I0403 19:30:39.265095 24927 net.cpp:148] Top shape: 24 64 14 14 (301056)
I0403 19:30:39.265110 24927 net.cpp:156] Memory required for data: 1049767200
I0403 19:30:39.265128 24927 layer_factory.hpp:77] Creating layer inception_4c/relu_5x5
I0403 19:30:39.265146 24927 net.cpp:91] Creating Layer inception_4c/relu_5x5
I0403 19:30:39.265161 24927 net.cpp:425] inception_4c/relu_5x5 <- inception_4c/5x5
I0403 19:30:39.265180 24927 net.cpp:386] inception_4c/relu_5x5 -> inception_4c/5x5 (in-place)
I0403 19:30:39.265462 24927 net.cpp:141] Setting up inception_4c/relu_5x5
I0403 19:30:39.265487 24927 net.cpp:148] Top shape: 24 64 14 14 (301056)
I0403 19:30:39.265501 24927 net.cpp:156] Memory required for data: 1050971424
I0403 19:30:39.265516 24927 layer_factory.hpp:77] Creating layer inception_4c/pool
I0403 19:30:39.265532 24927 net.cpp:91] Creating Layer inception_4c/pool
I0403 19:30:39.265547 24927 net.cpp:425] inception_4c/pool <- inception_4b/output_inception_4b/output_0_split_3
I0403 19:30:39.265565 24927 net.cpp:399] inception_4c/pool -> inception_4c/pool
I0403 19:30:39.265627 24927 net.cpp:141] Setting up inception_4c/pool
I0403 19:30:39.265652 24927 net.cpp:148] Top shape: 24 512 14 14 (2408448)
I0403 19:30:39.265667 24927 net.cpp:156] Memory required for data: 1060605216
I0403 19:30:39.265689 24927 layer_factory.hpp:77] Creating layer inception_4c/pool_proj
I0403 19:30:39.265713 24927 net.cpp:91] Creating Layer inception_4c/pool_proj
I0403 19:30:39.265739 24927 net.cpp:425] inception_4c/pool_proj <- inception_4c/pool
I0403 19:30:39.265758 24927 net.cpp:399] inception_4c/pool_proj -> inception_4c/pool_proj
I0403 19:30:39.266918 24927 net.cpp:141] Setting up inception_4c/pool_proj
I0403 19:30:39.266948 24927 net.cpp:148] Top shape: 24 64 14 14 (301056)
I0403 19:30:39.266978 24927 net.cpp:156] Memory required for data: 1061809440
I0403 19:30:39.266995 24927 layer_factory.hpp:77] Creating layer inception_4c/relu_pool_proj
I0403 19:30:39.267014 24927 net.cpp:91] Creating Layer inception_4c/relu_pool_proj
I0403 19:30:39.267030 24927 net.cpp:425] inception_4c/relu_pool_proj <- inception_4c/pool_proj
I0403 19:30:39.267046 24927 net.cpp:386] inception_4c/relu_pool_proj -> inception_4c/pool_proj (in-place)
I0403 19:30:39.267220 24927 net.cpp:141] Setting up inception_4c/relu_pool_proj
I0403 19:30:39.267246 24927 net.cpp:148] Top shape: 24 64 14 14 (301056)
I0403 19:30:39.267267 24927 net.cpp:156] Memory required for data: 1063013664
I0403 19:30:39.267282 24927 layer_factory.hpp:77] Creating layer inception_4c/output
I0403 19:30:39.267299 24927 net.cpp:91] Creating Layer inception_4c/output
I0403 19:30:39.267315 24927 net.cpp:425] inception_4c/output <- inception_4c/1x1
I0403 19:30:39.267331 24927 net.cpp:425] inception_4c/output <- inception_4c/3x3
I0403 19:30:39.267346 24927 net.cpp:425] inception_4c/output <- inception_4c/5x5
I0403 19:30:39.267360 24927 net.cpp:425] inception_4c/output <- inception_4c/pool_proj
I0403 19:30:39.267379 24927 net.cpp:399] inception_4c/output -> inception_4c/output
I0403 19:30:39.267423 24927 net.cpp:141] Setting up inception_4c/output
I0403 19:30:39.267446 24927 net.cpp:148] Top shape: 24 512 14 14 (2408448)
I0403 19:30:39.267462 24927 net.cpp:156] Memory required for data: 1072647456
I0403 19:30:39.267474 24927 layer_factory.hpp:77] Creating layer inception_4c/output_inception_4c/output_0_split
I0403 19:30:39.267493 24927 net.cpp:91] Creating Layer inception_4c/output_inception_4c/output_0_split
I0403 19:30:39.267508 24927 net.cpp:425] inception_4c/output_inception_4c/output_0_split <- inception_4c/output
I0403 19:30:39.267525 24927 net.cpp:399] inception_4c/output_inception_4c/output_0_split -> inception_4c/output_inception_4c/output_0_split_0
I0403 19:30:39.267544 24927 net.cpp:399] inception_4c/output_inception_4c/output_0_split -> inception_4c/output_inception_4c/output_0_split_1
I0403 19:30:39.267567 24927 net.cpp:399] inception_4c/output_inception_4c/output_0_split -> inception_4c/output_inception_4c/output_0_split_2
I0403 19:30:39.267587 24927 net.cpp:399] inception_4c/output_inception_4c/output_0_split -> inception_4c/output_inception_4c/output_0_split_3
I0403 19:30:39.267668 24927 net.cpp:141] Setting up inception_4c/output_inception_4c/output_0_split
I0403 19:30:39.267693 24927 net.cpp:148] Top shape: 24 512 14 14 (2408448)
I0403 19:30:39.267707 24927 net.cpp:148] Top shape: 24 512 14 14 (2408448)
I0403 19:30:39.267722 24927 net.cpp:148] Top shape: 24 512 14 14 (2408448)
I0403 19:30:39.267736 24927 net.cpp:148] Top shape: 24 512 14 14 (2408448)
I0403 19:30:39.267748 24927 net.cpp:156] Memory required for data: 1111182624
I0403 19:30:39.267762 24927 layer_factory.hpp:77] Creating layer inception_4d/1x1
I0403 19:30:39.267783 24927 net.cpp:91] Creating Layer inception_4d/1x1
I0403 19:30:39.267801 24927 net.cpp:425] inception_4d/1x1 <- inception_4c/output_inception_4c/output_0_split_0
I0403 19:30:39.267820 24927 net.cpp:399] inception_4d/1x1 -> inception_4d/1x1
I0403 19:30:39.269130 24927 net.cpp:141] Setting up inception_4d/1x1
I0403 19:30:39.269157 24927 net.cpp:148] Top shape: 24 112 14 14 (526848)
I0403 19:30:39.269172 24927 net.cpp:156] Memory required for data: 1113290016
I0403 19:30:39.269191 24927 layer_factory.hpp:77] Creating layer inception_4d/relu_1x1
I0403 19:30:39.269209 24927 net.cpp:91] Creating Layer inception_4d/relu_1x1
I0403 19:30:39.269227 24927 net.cpp:425] inception_4d/relu_1x1 <- inception_4d/1x1
I0403 19:30:39.269243 24927 net.cpp:386] inception_4d/relu_1x1 -> inception_4d/1x1 (in-place)
I0403 19:30:39.269423 24927 net.cpp:141] Setting up inception_4d/relu_1x1
I0403 19:30:39.269448 24927 net.cpp:148] Top shape: 24 112 14 14 (526848)
I0403 19:30:39.269462 24927 net.cpp:156] Memory required for data: 1115397408
I0403 19:30:39.269476 24927 layer_factory.hpp:77] Creating layer inception_4d/3x3_reduce
I0403 19:30:39.269515 24927 net.cpp:91] Creating Layer inception_4d/3x3_reduce
I0403 19:30:39.269533 24927 net.cpp:425] inception_4d/3x3_reduce <- inception_4c/output_inception_4c/output_0_split_1
I0403 19:30:39.269551 24927 net.cpp:399] inception_4d/3x3_reduce -> inception_4d/3x3_reduce
I0403 19:30:39.270982 24927 net.cpp:141] Setting up inception_4d/3x3_reduce
I0403 19:30:39.271008 24927 net.cpp:148] Top shape: 24 144 14 14 (677376)
I0403 19:30:39.271023 24927 net.cpp:156] Memory required for data: 1118106912
I0403 19:30:39.271041 24927 layer_factory.hpp:77] Creating layer inception_4d/relu_3x3_reduce
I0403 19:30:39.271059 24927 net.cpp:91] Creating Layer inception_4d/relu_3x3_reduce
I0403 19:30:39.271075 24927 net.cpp:425] inception_4d/relu_3x3_reduce <- inception_4d/3x3_reduce
I0403 19:30:39.271092 24927 net.cpp:386] inception_4d/relu_3x3_reduce -> inception_4d/3x3_reduce (in-place)
I0403 19:30:39.271370 24927 net.cpp:141] Setting up inception_4d/relu_3x3_reduce
I0403 19:30:39.271395 24927 net.cpp:148] Top shape: 24 144 14 14 (677376)
I0403 19:30:39.271409 24927 net.cpp:156] Memory required for data: 1120816416
I0403 19:30:39.271425 24927 layer_factory.hpp:77] Creating layer inception_4d/3x3
I0403 19:30:39.271445 24927 net.cpp:91] Creating Layer inception_4d/3x3
I0403 19:30:39.271463 24927 net.cpp:425] inception_4d/3x3 <- inception_4d/3x3_reduce
I0403 19:30:39.271483 24927 net.cpp:399] inception_4d/3x3 -> inception_4d/3x3
I0403 19:30:39.275552 24927 net.cpp:141] Setting up inception_4d/3x3
I0403 19:30:39.275581 24927 net.cpp:148] Top shape: 24 288 14 14 (1354752)
I0403 19:30:39.275596 24927 net.cpp:156] Memory required for data: 1126235424
I0403 19:30:39.275614 24927 layer_factory.hpp:77] Creating layer inception_4d/relu_3x3
I0403 19:30:39.275634 24927 net.cpp:91] Creating Layer inception_4d/relu_3x3
I0403 19:30:39.275650 24927 net.cpp:425] inception_4d/relu_3x3 <- inception_4d/3x3
I0403 19:30:39.275666 24927 net.cpp:386] inception_4d/relu_3x3 -> inception_4d/3x3 (in-place)
I0403 19:30:39.275838 24927 net.cpp:141] Setting up inception_4d/relu_3x3
I0403 19:30:39.275866 24927 net.cpp:148] Top shape: 24 288 14 14 (1354752)
I0403 19:30:39.275882 24927 net.cpp:156] Memory required for data: 1131654432
I0403 19:30:39.275897 24927 layer_factory.hpp:77] Creating layer inception_4d/5x5_reduce
I0403 19:30:39.275918 24927 net.cpp:91] Creating Layer inception_4d/5x5_reduce
I0403 19:30:39.275935 24927 net.cpp:425] inception_4d/5x5_reduce <- inception_4c/output_inception_4c/output_0_split_2
I0403 19:30:39.275954 24927 net.cpp:399] inception_4d/5x5_reduce -> inception_4d/5x5_reduce
I0403 19:30:39.277040 24927 net.cpp:141] Setting up inception_4d/5x5_reduce
I0403 19:30:39.277067 24927 net.cpp:148] Top shape: 24 32 14 14 (150528)
I0403 19:30:39.277082 24927 net.cpp:156] Memory required for data: 1132256544
I0403 19:30:39.277099 24927 layer_factory.hpp:77] Creating layer inception_4d/relu_5x5_reduce
I0403 19:30:39.277118 24927 net.cpp:91] Creating Layer inception_4d/relu_5x5_reduce
I0403 19:30:39.277137 24927 net.cpp:425] inception_4d/relu_5x5_reduce <- inception_4d/5x5_reduce
I0403 19:30:39.277153 24927 net.cpp:386] inception_4d/relu_5x5_reduce -> inception_4d/5x5_reduce (in-place)
I0403 19:30:39.277338 24927 net.cpp:141] Setting up inception_4d/relu_5x5_reduce
I0403 19:30:39.277364 24927 net.cpp:148] Top shape: 24 32 14 14 (150528)
I0403 19:30:39.277379 24927 net.cpp:156] Memory required for data: 1132858656
I0403 19:30:39.277393 24927 layer_factory.hpp:77] Creating layer inception_4d/5x5
I0403 19:30:39.277415 24927 net.cpp:91] Creating Layer inception_4d/5x5
I0403 19:30:39.277431 24927 net.cpp:425] inception_4d/5x5 <- inception_4d/5x5_reduce
I0403 19:30:39.277449 24927 net.cpp:399] inception_4d/5x5 -> inception_4d/5x5
I0403 19:30:39.278825 24927 net.cpp:141] Setting up inception_4d/5x5
I0403 19:30:39.278856 24927 net.cpp:148] Top shape: 24 64 14 14 (301056)
I0403 19:30:39.278872 24927 net.cpp:156] Memory required for data: 1134062880
I0403 19:30:39.278889 24927 layer_factory.hpp:77] Creating layer inception_4d/relu_5x5
I0403 19:30:39.278920 24927 net.cpp:91] Creating Layer inception_4d/relu_5x5
I0403 19:30:39.278939 24927 net.cpp:425] inception_4d/relu_5x5 <- inception_4d/5x5
I0403 19:30:39.278959 24927 net.cpp:386] inception_4d/relu_5x5 -> inception_4d/5x5 (in-place)
I0403 19:30:39.279239 24927 net.cpp:141] Setting up inception_4d/relu_5x5
I0403 19:30:39.279271 24927 net.cpp:148] Top shape: 24 64 14 14 (301056)
I0403 19:30:39.279289 24927 net.cpp:156] Memory required for data: 1135267104
I0403 19:30:39.279302 24927 layer_factory.hpp:77] Creating layer inception_4d/pool
I0403 19:30:39.279320 24927 net.cpp:91] Creating Layer inception_4d/pool
I0403 19:30:39.279336 24927 net.cpp:425] inception_4d/pool <- inception_4c/output_inception_4c/output_0_split_3
I0403 19:30:39.279356 24927 net.cpp:399] inception_4d/pool -> inception_4d/pool
I0403 19:30:39.279418 24927 net.cpp:141] Setting up inception_4d/pool
I0403 19:30:39.279443 24927 net.cpp:148] Top shape: 24 512 14 14 (2408448)
I0403 19:30:39.279455 24927 net.cpp:156] Memory required for data: 1144900896
I0403 19:30:39.279469 24927 layer_factory.hpp:77] Creating layer inception_4d/pool_proj
I0403 19:30:39.279491 24927 net.cpp:91] Creating Layer inception_4d/pool_proj
I0403 19:30:39.279508 24927 net.cpp:425] inception_4d/pool_proj <- inception_4d/pool
I0403 19:30:39.279531 24927 net.cpp:399] inception_4d/pool_proj -> inception_4d/pool_proj
I0403 19:30:39.281275 24927 net.cpp:141] Setting up inception_4d/pool_proj
I0403 19:30:39.281302 24927 net.cpp:148] Top shape: 24 64 14 14 (301056)
I0403 19:30:39.281318 24927 net.cpp:156] Memory required for data: 1146105120
I0403 19:30:39.281337 24927 layer_factory.hpp:77] Creating layer inception_4d/relu_pool_proj
I0403 19:30:39.281358 24927 net.cpp:91] Creating Layer inception_4d/relu_pool_proj
I0403 19:30:39.281375 24927 net.cpp:425] inception_4d/relu_pool_proj <- inception_4d/pool_proj
I0403 19:30:39.281394 24927 net.cpp:386] inception_4d/relu_pool_proj -> inception_4d/pool_proj (in-place)
I0403 19:30:39.281568 24927 net.cpp:141] Setting up inception_4d/relu_pool_proj
I0403 19:30:39.281594 24927 net.cpp:148] Top shape: 24 64 14 14 (301056)
I0403 19:30:39.281610 24927 net.cpp:156] Memory required for data: 1147309344
I0403 19:30:39.281625 24927 layer_factory.hpp:77] Creating layer inception_4d/output
I0403 19:30:39.281641 24927 net.cpp:91] Creating Layer inception_4d/output
I0403 19:30:39.281656 24927 net.cpp:425] inception_4d/output <- inception_4d/1x1
I0403 19:30:39.281672 24927 net.cpp:425] inception_4d/output <- inception_4d/3x3
I0403 19:30:39.281688 24927 net.cpp:425] inception_4d/output <- inception_4d/5x5
I0403 19:30:39.281705 24927 net.cpp:425] inception_4d/output <- inception_4d/pool_proj
I0403 19:30:39.281723 24927 net.cpp:399] inception_4d/output -> inception_4d/output
I0403 19:30:39.281769 24927 net.cpp:141] Setting up inception_4d/output
I0403 19:30:39.281792 24927 net.cpp:148] Top shape: 24 528 14 14 (2483712)
I0403 19:30:39.281806 24927 net.cpp:156] Memory required for data: 1157244192
I0403 19:30:39.281821 24927 layer_factory.hpp:77] Creating layer inception_4d/output_inception_4d/output_0_split
I0403 19:30:39.281841 24927 net.cpp:91] Creating Layer inception_4d/output_inception_4d/output_0_split
I0403 19:30:39.281859 24927 net.cpp:425] inception_4d/output_inception_4d/output_0_split <- inception_4d/output
I0403 19:30:39.281877 24927 net.cpp:399] inception_4d/output_inception_4d/output_0_split -> inception_4d/output_inception_4d/output_0_split_0
I0403 19:30:39.281898 24927 net.cpp:399] inception_4d/output_inception_4d/output_0_split -> inception_4d/output_inception_4d/output_0_split_1
I0403 19:30:39.281919 24927 net.cpp:399] inception_4d/output_inception_4d/output_0_split -> inception_4d/output_inception_4d/output_0_split_2
I0403 19:30:39.281941 24927 net.cpp:399] inception_4d/output_inception_4d/output_0_split -> inception_4d/output_inception_4d/output_0_split_3
I0403 19:30:39.281962 24927 net.cpp:399] inception_4d/output_inception_4d/output_0_split -> inception_4d/output_inception_4d/output_0_split_4
I0403 19:30:39.282063 24927 net.cpp:141] Setting up inception_4d/output_inception_4d/output_0_split
I0403 19:30:39.282099 24927 net.cpp:148] Top shape: 24 528 14 14 (2483712)
I0403 19:30:39.282117 24927 net.cpp:148] Top shape: 24 528 14 14 (2483712)
I0403 19:30:39.282132 24927 net.cpp:148] Top shape: 24 528 14 14 (2483712)
I0403 19:30:39.282148 24927 net.cpp:148] Top shape: 24 528 14 14 (2483712)
I0403 19:30:39.282162 24927 net.cpp:148] Top shape: 24 528 14 14 (2483712)
I0403 19:30:39.282176 24927 net.cpp:156] Memory required for data: 1206918432
I0403 19:30:39.282191 24927 layer_factory.hpp:77] Creating layer loss2/ave_pool
I0403 19:30:39.282209 24927 net.cpp:91] Creating Layer loss2/ave_pool
I0403 19:30:39.282225 24927 net.cpp:425] loss2/ave_pool <- inception_4d/output_inception_4d/output_0_split_0
I0403 19:30:39.282243 24927 net.cpp:399] loss2/ave_pool -> loss2/ave_pool
I0403 19:30:39.282552 24927 net.cpp:141] Setting up loss2/ave_pool
I0403 19:30:39.282578 24927 net.cpp:148] Top shape: 24 528 4 4 (202752)
I0403 19:30:39.282594 24927 net.cpp:156] Memory required for data: 1207729440
I0403 19:30:39.282608 24927 layer_factory.hpp:77] Creating layer loss2/conv
I0403 19:30:39.282631 24927 net.cpp:91] Creating Layer loss2/conv
I0403 19:30:39.282649 24927 net.cpp:425] loss2/conv <- loss2/ave_pool
I0403 19:30:39.282670 24927 net.cpp:399] loss2/conv -> loss2/conv
I0403 19:30:39.284512 24927 net.cpp:141] Setting up loss2/conv
I0403 19:30:39.284564 24927 net.cpp:148] Top shape: 24 128 4 4 (49152)
I0403 19:30:39.284580 24927 net.cpp:156] Memory required for data: 1207926048
I0403 19:30:39.284598 24927 layer_factory.hpp:77] Creating layer loss2/relu_conv
I0403 19:30:39.284616 24927 net.cpp:91] Creating Layer loss2/relu_conv
I0403 19:30:39.284631 24927 net.cpp:425] loss2/relu_conv <- loss2/conv
I0403 19:30:39.284649 24927 net.cpp:386] loss2/relu_conv -> loss2/conv (in-place)
I0403 19:30:39.284934 24927 net.cpp:141] Setting up loss2/relu_conv
I0403 19:30:39.284960 24927 net.cpp:148] Top shape: 24 128 4 4 (49152)
I0403 19:30:39.284976 24927 net.cpp:156] Memory required for data: 1208122656
I0403 19:30:39.284989 24927 layer_factory.hpp:77] Creating layer loss2/fc
I0403 19:30:39.285006 24927 net.cpp:91] Creating Layer loss2/fc
I0403 19:30:39.285022 24927 net.cpp:425] loss2/fc <- loss2/conv
I0403 19:30:39.285042 24927 net.cpp:399] loss2/fc -> loss2/fc
I0403 19:30:39.301945 24927 net.cpp:141] Setting up loss2/fc
I0403 19:30:39.301980 24927 net.cpp:148] Top shape: 24 1024 (24576)
I0403 19:30:39.301995 24927 net.cpp:156] Memory required for data: 1208220960
I0403 19:30:39.302012 24927 layer_factory.hpp:77] Creating layer loss2/relu_fc
I0403 19:30:39.302029 24927 net.cpp:91] Creating Layer loss2/relu_fc
I0403 19:30:39.302045 24927 net.cpp:425] loss2/relu_fc <- loss2/fc
I0403 19:30:39.302063 24927 net.cpp:386] loss2/relu_fc -> loss2/fc (in-place)
I0403 19:30:39.302348 24927 net.cpp:141] Setting up loss2/relu_fc
I0403 19:30:39.302373 24927 net.cpp:148] Top shape: 24 1024 (24576)
I0403 19:30:39.302387 24927 net.cpp:156] Memory required for data: 1208319264
I0403 19:30:39.302402 24927 layer_factory.hpp:77] Creating layer loss2/drop_fc
I0403 19:30:39.302420 24927 net.cpp:91] Creating Layer loss2/drop_fc
I0403 19:30:39.302438 24927 net.cpp:425] loss2/drop_fc <- loss2/fc
I0403 19:30:39.302453 24927 net.cpp:386] loss2/drop_fc -> loss2/fc (in-place)
I0403 19:30:39.302501 24927 net.cpp:141] Setting up loss2/drop_fc
I0403 19:30:39.302523 24927 net.cpp:148] Top shape: 24 1024 (24576)
I0403 19:30:39.302537 24927 net.cpp:156] Memory required for data: 1208417568
I0403 19:30:39.302551 24927 layer_factory.hpp:77] Creating layer loss2/classifier_plantvillage
I0403 19:30:39.302569 24927 net.cpp:91] Creating Layer loss2/classifier_plantvillage
I0403 19:30:39.302587 24927 net.cpp:425] loss2/classifier_plantvillage <- loss2/fc
I0403 19:30:39.302604 24927 net.cpp:399] loss2/classifier_plantvillage -> loss2/classifier_plantvillage
I0403 19:30:39.302984 24927 net.cpp:141] Setting up loss2/classifier_plantvillage
I0403 19:30:39.303009 24927 net.cpp:148] Top shape: 24 38 (912)
I0403 19:30:39.303037 24927 net.cpp:156] Memory required for data: 1208421216
I0403 19:30:39.303056 24927 layer_factory.hpp:77] Creating layer loss2/classifier_plantvillage_loss2/classifier_plantvillage_0_split
I0403 19:30:39.303071 24927 net.cpp:91] Creating Layer loss2/classifier_plantvillage_loss2/classifier_plantvillage_0_split
I0403 19:30:39.303086 24927 net.cpp:425] loss2/classifier_plantvillage_loss2/classifier_plantvillage_0_split <- loss2/classifier_plantvillage
I0403 19:30:39.303104 24927 net.cpp:399] loss2/classifier_plantvillage_loss2/classifier_plantvillage_0_split -> loss2/classifier_plantvillage_loss2/classifier_plantvillage_0_split_0
I0403 19:30:39.303125 24927 net.cpp:399] loss2/classifier_plantvillage_loss2/classifier_plantvillage_0_split -> loss2/classifier_plantvillage_loss2/classifier_plantvillage_0_split_1
I0403 19:30:39.303145 24927 net.cpp:399] loss2/classifier_plantvillage_loss2/classifier_plantvillage_0_split -> loss2/classifier_plantvillage_loss2/classifier_plantvillage_0_split_2
I0403 19:30:39.303220 24927 net.cpp:141] Setting up loss2/classifier_plantvillage_loss2/classifier_plantvillage_0_split
I0403 19:30:39.303243 24927 net.cpp:148] Top shape: 24 38 (912)
I0403 19:30:39.303264 24927 net.cpp:148] Top shape: 24 38 (912)
I0403 19:30:39.303280 24927 net.cpp:148] Top shape: 24 38 (912)
I0403 19:30:39.303293 24927 net.cpp:156] Memory required for data: 1208432160
I0403 19:30:39.303306 24927 layer_factory.hpp:77] Creating layer inception_4e/1x1
I0403 19:30:39.303328 24927 net.cpp:91] Creating Layer inception_4e/1x1
I0403 19:30:39.303344 24927 net.cpp:425] inception_4e/1x1 <- inception_4d/output_inception_4d/output_0_split_1
I0403 19:30:39.303362 24927 net.cpp:399] inception_4e/1x1 -> inception_4e/1x1
I0403 19:30:39.305095 24927 net.cpp:141] Setting up inception_4e/1x1
I0403 19:30:39.305125 24927 net.cpp:148] Top shape: 24 256 14 14 (1204224)
I0403 19:30:39.305140 24927 net.cpp:156] Memory required for data: 1213249056
I0403 19:30:39.305158 24927 layer_factory.hpp:77] Creating layer inception_4e/relu_1x1
I0403 19:30:39.305174 24927 net.cpp:91] Creating Layer inception_4e/relu_1x1
I0403 19:30:39.305191 24927 net.cpp:425] inception_4e/relu_1x1 <- inception_4e/1x1
I0403 19:30:39.305209 24927 net.cpp:386] inception_4e/relu_1x1 -> inception_4e/1x1 (in-place)
I0403 19:30:39.305490 24927 net.cpp:141] Setting up inception_4e/relu_1x1
I0403 19:30:39.305518 24927 net.cpp:148] Top shape: 24 256 14 14 (1204224)
I0403 19:30:39.305534 24927 net.cpp:156] Memory required for data: 1218065952
I0403 19:30:39.305548 24927 layer_factory.hpp:77] Creating layer inception_4e/3x3_reduce
I0403 19:30:39.305570 24927 net.cpp:91] Creating Layer inception_4e/3x3_reduce
I0403 19:30:39.305588 24927 net.cpp:425] inception_4e/3x3_reduce <- inception_4d/output_inception_4d/output_0_split_2
I0403 19:30:39.305605 24927 net.cpp:399] inception_4e/3x3_reduce -> inception_4e/3x3_reduce
I0403 19:30:39.307636 24927 net.cpp:141] Setting up inception_4e/3x3_reduce
I0403 19:30:39.307667 24927 net.cpp:148] Top shape: 24 160 14 14 (752640)
I0403 19:30:39.307682 24927 net.cpp:156] Memory required for data: 1221076512
I0403 19:30:39.307699 24927 layer_factory.hpp:77] Creating layer inception_4e/relu_3x3_reduce
I0403 19:30:39.307718 24927 net.cpp:91] Creating Layer inception_4e/relu_3x3_reduce
I0403 19:30:39.307734 24927 net.cpp:425] inception_4e/relu_3x3_reduce <- inception_4e/3x3_reduce
I0403 19:30:39.307750 24927 net.cpp:386] inception_4e/relu_3x3_reduce -> inception_4e/3x3_reduce (in-place)
I0403 19:30:39.307927 24927 net.cpp:141] Setting up inception_4e/relu_3x3_reduce
I0403 19:30:39.307952 24927 net.cpp:148] Top shape: 24 160 14 14 (752640)
I0403 19:30:39.307966 24927 net.cpp:156] Memory required for data: 1224087072
I0403 19:30:39.307981 24927 layer_factory.hpp:77] Creating layer inception_4e/3x3
I0403 19:30:39.308002 24927 net.cpp:91] Creating Layer inception_4e/3x3
I0403 19:30:39.308019 24927 net.cpp:425] inception_4e/3x3 <- inception_4e/3x3_reduce
I0403 19:30:39.308042 24927 net.cpp:399] inception_4e/3x3 -> inception_4e/3x3
I0403 19:30:39.312898 24927 net.cpp:141] Setting up inception_4e/3x3
I0403 19:30:39.312938 24927 net.cpp:148] Top shape: 24 320 14 14 (1505280)
I0403 19:30:39.312954 24927 net.cpp:156] Memory required for data: 1230108192
I0403 19:30:39.312973 24927 layer_factory.hpp:77] Creating layer inception_4e/relu_3x3
I0403 19:30:39.312991 24927 net.cpp:91] Creating Layer inception_4e/relu_3x3
I0403 19:30:39.313007 24927 net.cpp:425] inception_4e/relu_3x3 <- inception_4e/3x3
I0403 19:30:39.313024 24927 net.cpp:386] inception_4e/relu_3x3 -> inception_4e/3x3 (in-place)
I0403 19:30:39.313314 24927 net.cpp:141] Setting up inception_4e/relu_3x3
I0403 19:30:39.313340 24927 net.cpp:148] Top shape: 24 320 14 14 (1505280)
I0403 19:30:39.313355 24927 net.cpp:156] Memory required for data: 1236129312
I0403 19:30:39.313369 24927 layer_factory.hpp:77] Creating layer inception_4e/5x5_reduce
I0403 19:30:39.313390 24927 net.cpp:91] Creating Layer inception_4e/5x5_reduce
I0403 19:30:39.313408 24927 net.cpp:425] inception_4e/5x5_reduce <- inception_4d/output_inception_4d/output_0_split_3
I0403 19:30:39.313429 24927 net.cpp:399] inception_4e/5x5_reduce -> inception_4e/5x5_reduce
I0403 19:30:39.314465 24927 net.cpp:141] Setting up inception_4e/5x5_reduce
I0403 19:30:39.314494 24927 net.cpp:148] Top shape: 24 32 14 14 (150528)
I0403 19:30:39.314510 24927 net.cpp:156] Memory required for data: 1236731424
I0403 19:30:39.314527 24927 layer_factory.hpp:77] Creating layer inception_4e/relu_5x5_reduce
I0403 19:30:39.314544 24927 net.cpp:91] Creating Layer inception_4e/relu_5x5_reduce
I0403 19:30:39.314560 24927 net.cpp:425] inception_4e/relu_5x5_reduce <- inception_4e/5x5_reduce
I0403 19:30:39.314579 24927 net.cpp:386] inception_4e/relu_5x5_reduce -> inception_4e/5x5_reduce (in-place)
I0403 19:30:39.314858 24927 net.cpp:141] Setting up inception_4e/relu_5x5_reduce
I0403 19:30:39.314885 24927 net.cpp:148] Top shape: 24 32 14 14 (150528)
I0403 19:30:39.314901 24927 net.cpp:156] Memory required for data: 1237333536
I0403 19:30:39.314916 24927 layer_factory.hpp:77] Creating layer inception_4e/5x5
I0403 19:30:39.314956 24927 net.cpp:91] Creating Layer inception_4e/5x5
I0403 19:30:39.314976 24927 net.cpp:425] inception_4e/5x5 <- inception_4e/5x5_reduce
I0403 19:30:39.314996 24927 net.cpp:399] inception_4e/5x5 -> inception_4e/5x5
I0403 19:30:39.316730 24927 net.cpp:141] Setting up inception_4e/5x5
I0403 19:30:39.316756 24927 net.cpp:148] Top shape: 24 128 14 14 (602112)
I0403 19:30:39.316771 24927 net.cpp:156] Memory required for data: 1239741984
I0403 19:30:39.316788 24927 layer_factory.hpp:77] Creating layer inception_4e/relu_5x5
I0403 19:30:39.316809 24927 net.cpp:91] Creating Layer inception_4e/relu_5x5
I0403 19:30:39.316826 24927 net.cpp:425] inception_4e/relu_5x5 <- inception_4e/5x5
I0403 19:30:39.316843 24927 net.cpp:386] inception_4e/relu_5x5 -> inception_4e/5x5 (in-place)
I0403 19:30:39.317028 24927 net.cpp:141] Setting up inception_4e/relu_5x5
I0403 19:30:39.317054 24927 net.cpp:148] Top shape: 24 128 14 14 (602112)
I0403 19:30:39.317067 24927 net.cpp:156] Memory required for data: 1242150432
I0403 19:30:39.317081 24927 layer_factory.hpp:77] Creating layer inception_4e/pool
I0403 19:30:39.317098 24927 net.cpp:91] Creating Layer inception_4e/pool
I0403 19:30:39.317113 24927 net.cpp:425] inception_4e/pool <- inception_4d/output_inception_4d/output_0_split_4
I0403 19:30:39.317133 24927 net.cpp:399] inception_4e/pool -> inception_4e/pool
I0403 19:30:39.317200 24927 net.cpp:141] Setting up inception_4e/pool
I0403 19:30:39.317224 24927 net.cpp:148] Top shape: 24 528 14 14 (2483712)
I0403 19:30:39.317237 24927 net.cpp:156] Memory required for data: 1252085280
I0403 19:30:39.317251 24927 layer_factory.hpp:77] Creating layer inception_4e/pool_proj
I0403 19:30:39.317281 24927 net.cpp:91] Creating Layer inception_4e/pool_proj
I0403 19:30:39.317299 24927 net.cpp:425] inception_4e/pool_proj <- inception_4e/pool
I0403 19:30:39.317317 24927 net.cpp:399] inception_4e/pool_proj -> inception_4e/pool_proj
I0403 19:30:39.318737 24927 net.cpp:141] Setting up inception_4e/pool_proj
I0403 19:30:39.318774 24927 net.cpp:148] Top shape: 24 128 14 14 (602112)
I0403 19:30:39.318790 24927 net.cpp:156] Memory required for data: 1254493728
I0403 19:30:39.318809 24927 layer_factory.hpp:77] Creating layer inception_4e/relu_pool_proj
I0403 19:30:39.318828 24927 net.cpp:91] Creating Layer inception_4e/relu_pool_proj
I0403 19:30:39.318845 24927 net.cpp:425] inception_4e/relu_pool_proj <- inception_4e/pool_proj
I0403 19:30:39.318861 24927 net.cpp:386] inception_4e/relu_pool_proj -> inception_4e/pool_proj (in-place)
I0403 19:30:39.319136 24927 net.cpp:141] Setting up inception_4e/relu_pool_proj
I0403 19:30:39.319162 24927 net.cpp:148] Top shape: 24 128 14 14 (602112)
I0403 19:30:39.319177 24927 net.cpp:156] Memory required for data: 1256902176
I0403 19:30:39.319191 24927 layer_factory.hpp:77] Creating layer inception_4e/output
I0403 19:30:39.319211 24927 net.cpp:91] Creating Layer inception_4e/output
I0403 19:30:39.319226 24927 net.cpp:425] inception_4e/output <- inception_4e/1x1
I0403 19:30:39.319242 24927 net.cpp:425] inception_4e/output <- inception_4e/3x3
I0403 19:30:39.319262 24927 net.cpp:425] inception_4e/output <- inception_4e/5x5
I0403 19:30:39.319280 24927 net.cpp:425] inception_4e/output <- inception_4e/pool_proj
I0403 19:30:39.319298 24927 net.cpp:399] inception_4e/output -> inception_4e/output
I0403 19:30:39.319347 24927 net.cpp:141] Setting up inception_4e/output
I0403 19:30:39.319370 24927 net.cpp:148] Top shape: 24 832 14 14 (3913728)
I0403 19:30:39.319385 24927 net.cpp:156] Memory required for data: 1272557088
I0403 19:30:39.319398 24927 layer_factory.hpp:77] Creating layer pool4/3x3_s2
I0403 19:30:39.319416 24927 net.cpp:91] Creating Layer pool4/3x3_s2
I0403 19:30:39.319430 24927 net.cpp:425] pool4/3x3_s2 <- inception_4e/output
I0403 19:30:39.319452 24927 net.cpp:399] pool4/3x3_s2 -> pool4/3x3_s2
I0403 19:30:39.319516 24927 net.cpp:141] Setting up pool4/3x3_s2
I0403 19:30:39.319540 24927 net.cpp:148] Top shape: 24 832 7 7 (978432)
I0403 19:30:39.319553 24927 net.cpp:156] Memory required for data: 1276470816
I0403 19:30:39.319567 24927 layer_factory.hpp:77] Creating layer pool4/3x3_s2_pool4/3x3_s2_0_split
I0403 19:30:39.319587 24927 net.cpp:91] Creating Layer pool4/3x3_s2_pool4/3x3_s2_0_split
I0403 19:30:39.319603 24927 net.cpp:425] pool4/3x3_s2_pool4/3x3_s2_0_split <- pool4/3x3_s2
I0403 19:30:39.319622 24927 net.cpp:399] pool4/3x3_s2_pool4/3x3_s2_0_split -> pool4/3x3_s2_pool4/3x3_s2_0_split_0
I0403 19:30:39.319643 24927 net.cpp:399] pool4/3x3_s2_pool4/3x3_s2_0_split -> pool4/3x3_s2_pool4/3x3_s2_0_split_1
I0403 19:30:39.319661 24927 net.cpp:399] pool4/3x3_s2_pool4/3x3_s2_0_split -> pool4/3x3_s2_pool4/3x3_s2_0_split_2
I0403 19:30:39.319680 24927 net.cpp:399] pool4/3x3_s2_pool4/3x3_s2_0_split -> pool4/3x3_s2_pool4/3x3_s2_0_split_3
I0403 19:30:39.319766 24927 net.cpp:141] Setting up pool4/3x3_s2_pool4/3x3_s2_0_split
I0403 19:30:39.319789 24927 net.cpp:148] Top shape: 24 832 7 7 (978432)
I0403 19:30:39.319804 24927 net.cpp:148] Top shape: 24 832 7 7 (978432)
I0403 19:30:39.319818 24927 net.cpp:148] Top shape: 24 832 7 7 (978432)
I0403 19:30:39.319833 24927 net.cpp:148] Top shape: 24 832 7 7 (978432)
I0403 19:30:39.319846 24927 net.cpp:156] Memory required for data: 1292125728
I0403 19:30:39.319860 24927 layer_factory.hpp:77] Creating layer inception_5a/1x1
I0403 19:30:39.319882 24927 net.cpp:91] Creating Layer inception_5a/1x1
I0403 19:30:39.319900 24927 net.cpp:425] inception_5a/1x1 <- pool4/3x3_s2_pool4/3x3_s2_0_split_0
I0403 19:30:39.319919 24927 net.cpp:399] inception_5a/1x1 -> inception_5a/1x1
I0403 19:30:39.322643 24927 net.cpp:141] Setting up inception_5a/1x1
I0403 19:30:39.322674 24927 net.cpp:148] Top shape: 24 256 7 7 (301056)
I0403 19:30:39.322690 24927 net.cpp:156] Memory required for data: 1293329952
I0403 19:30:39.322707 24927 layer_factory.hpp:77] Creating layer inception_5a/relu_1x1
I0403 19:30:39.322724 24927 net.cpp:91] Creating Layer inception_5a/relu_1x1
I0403 19:30:39.322739 24927 net.cpp:425] inception_5a/relu_1x1 <- inception_5a/1x1
I0403 19:30:39.322754 24927 net.cpp:386] inception_5a/relu_1x1 -> inception_5a/1x1 (in-place)
I0403 19:30:39.323051 24927 net.cpp:141] Setting up inception_5a/relu_1x1
I0403 19:30:39.323079 24927 net.cpp:148] Top shape: 24 256 7 7 (301056)
I0403 19:30:39.323096 24927 net.cpp:156] Memory required for data: 1294534176
I0403 19:30:39.323109 24927 layer_factory.hpp:77] Creating layer inception_5a/3x3_reduce
I0403 19:30:39.323132 24927 net.cpp:91] Creating Layer inception_5a/3x3_reduce
I0403 19:30:39.323149 24927 net.cpp:425] inception_5a/3x3_reduce <- pool4/3x3_s2_pool4/3x3_s2_0_split_1
I0403 19:30:39.323168 24927 net.cpp:399] inception_5a/3x3_reduce -> inception_5a/3x3_reduce
I0403 19:30:39.325525 24927 net.cpp:141] Setting up inception_5a/3x3_reduce
I0403 19:30:39.325552 24927 net.cpp:148] Top shape: 24 160 7 7 (188160)
I0403 19:30:39.325568 24927 net.cpp:156] Memory required for data: 1295286816
I0403 19:30:39.325585 24927 layer_factory.hpp:77] Creating layer inception_5a/relu_3x3_reduce
I0403 19:30:39.325605 24927 net.cpp:91] Creating Layer inception_5a/relu_3x3_reduce
I0403 19:30:39.325623 24927 net.cpp:425] inception_5a/relu_3x3_reduce <- inception_5a/3x3_reduce
I0403 19:30:39.325639 24927 net.cpp:386] inception_5a/relu_3x3_reduce -> inception_5a/3x3_reduce (in-place)
I0403 19:30:39.325815 24927 net.cpp:141] Setting up inception_5a/relu_3x3_reduce
I0403 19:30:39.325842 24927 net.cpp:148] Top shape: 24 160 7 7 (188160)
I0403 19:30:39.325857 24927 net.cpp:156] Memory required for data: 1296039456
I0403 19:30:39.325871 24927 layer_factory.hpp:77] Creating layer inception_5a/3x3
I0403 19:30:39.325891 24927 net.cpp:91] Creating Layer inception_5a/3x3
I0403 19:30:39.325906 24927 net.cpp:425] inception_5a/3x3 <- inception_5a/3x3_reduce
I0403 19:30:39.325927 24927 net.cpp:399] inception_5a/3x3 -> inception_5a/3x3
I0403 19:30:39.330732 24927 net.cpp:141] Setting up inception_5a/3x3
I0403 19:30:39.330760 24927 net.cpp:148] Top shape: 24 320 7 7 (376320)
I0403 19:30:39.330776 24927 net.cpp:156] Memory required for data: 1297544736
I0403 19:30:39.330793 24927 layer_factory.hpp:77] Creating layer inception_5a/relu_3x3
I0403 19:30:39.330813 24927 net.cpp:91] Creating Layer inception_5a/relu_3x3
I0403 19:30:39.330831 24927 net.cpp:425] inception_5a/relu_3x3 <- inception_5a/3x3
I0403 19:30:39.330848 24927 net.cpp:386] inception_5a/relu_3x3 -> inception_5a/3x3 (in-place)
I0403 19:30:39.331126 24927 net.cpp:141] Setting up inception_5a/relu_3x3
I0403 19:30:39.331151 24927 net.cpp:148] Top shape: 24 320 7 7 (376320)
I0403 19:30:39.331166 24927 net.cpp:156] Memory required for data: 1299050016
I0403 19:30:39.331181 24927 layer_factory.hpp:77] Creating layer inception_5a/5x5_reduce
I0403 19:30:39.331204 24927 net.cpp:91] Creating Layer inception_5a/5x5_reduce
I0403 19:30:39.331223 24927 net.cpp:425] inception_5a/5x5_reduce <- pool4/3x3_s2_pool4/3x3_s2_0_split_2
I0403 19:30:39.331243 24927 net.cpp:399] inception_5a/5x5_reduce -> inception_5a/5x5_reduce
I0403 19:30:39.332356 24927 net.cpp:141] Setting up inception_5a/5x5_reduce
I0403 19:30:39.332386 24927 net.cpp:148] Top shape: 24 32 7 7 (37632)
I0403 19:30:39.332402 24927 net.cpp:156] Memory required for data: 1299200544
I0403 19:30:39.332420 24927 layer_factory.hpp:77] Creating layer inception_5a/relu_5x5_reduce
I0403 19:30:39.332438 24927 net.cpp:91] Creating Layer inception_5a/relu_5x5_reduce
I0403 19:30:39.332454 24927 net.cpp:425] inception_5a/relu_5x5_reduce <- inception_5a/5x5_reduce
I0403 19:30:39.332473 24927 net.cpp:386] inception_5a/relu_5x5_reduce -> inception_5a/5x5_reduce (in-place)
I0403 19:30:39.332754 24927 net.cpp:141] Setting up inception_5a/relu_5x5_reduce
I0403 19:30:39.332784 24927 net.cpp:148] Top shape: 24 32 7 7 (37632)
I0403 19:30:39.332799 24927 net.cpp:156] Memory required for data: 1299351072
I0403 19:30:39.332813 24927 layer_factory.hpp:77] Creating layer inception_5a/5x5
I0403 19:30:39.332834 24927 net.cpp:91] Creating Layer inception_5a/5x5
I0403 19:30:39.332852 24927 net.cpp:425] inception_5a/5x5 <- inception_5a/5x5_reduce
I0403 19:30:39.332872 24927 net.cpp:399] inception_5a/5x5 -> inception_5a/5x5
I0403 19:30:39.334511 24927 net.cpp:141] Setting up inception_5a/5x5
I0403 19:30:39.334549 24927 net.cpp:148] Top shape: 24 128 7 7 (150528)
I0403 19:30:39.334564 24927 net.cpp:156] Memory required for data: 1299953184
I0403 19:30:39.334583 24927 layer_factory.hpp:77] Creating layer inception_5a/relu_5x5
I0403 19:30:39.334601 24927 net.cpp:91] Creating Layer inception_5a/relu_5x5
I0403 19:30:39.334619 24927 net.cpp:425] inception_5a/relu_5x5 <- inception_5a/5x5
I0403 19:30:39.334635 24927 net.cpp:386] inception_5a/relu_5x5 -> inception_5a/5x5 (in-place)
I0403 19:30:39.334818 24927 net.cpp:141] Setting up inception_5a/relu_5x5
I0403 19:30:39.334842 24927 net.cpp:148] Top shape: 24 128 7 7 (150528)
I0403 19:30:39.334857 24927 net.cpp:156] Memory required for data: 1300555296
I0403 19:30:39.334872 24927 layer_factory.hpp:77] Creating layer inception_5a/pool
I0403 19:30:39.334888 24927 net.cpp:91] Creating Layer inception_5a/pool
I0403 19:30:39.334903 24927 net.cpp:425] inception_5a/pool <- pool4/3x3_s2_pool4/3x3_s2_0_split_3
I0403 19:30:39.334921 24927 net.cpp:399] inception_5a/pool -> inception_5a/pool
I0403 19:30:39.334990 24927 net.cpp:141] Setting up inception_5a/pool
I0403 19:30:39.335013 24927 net.cpp:148] Top shape: 24 832 7 7 (978432)
I0403 19:30:39.335027 24927 net.cpp:156] Memory required for data: 1304469024
I0403 19:30:39.335041 24927 layer_factory.hpp:77] Creating layer inception_5a/pool_proj
I0403 19:30:39.335063 24927 net.cpp:91] Creating Layer inception_5a/pool_proj
I0403 19:30:39.335080 24927 net.cpp:425] inception_5a/pool_proj <- inception_5a/pool
I0403 19:30:39.335098 24927 net.cpp:399] inception_5a/pool_proj -> inception_5a/pool_proj
I0403 19:30:39.337291 24927 net.cpp:141] Setting up inception_5a/pool_proj
I0403 19:30:39.337321 24927 net.cpp:148] Top shape: 24 128 7 7 (150528)
I0403 19:30:39.337335 24927 net.cpp:156] Memory required for data: 1305071136
I0403 19:30:39.337352 24927 layer_factory.hpp:77] Creating layer inception_5a/relu_pool_proj
I0403 19:30:39.337371 24927 net.cpp:91] Creating Layer inception_5a/relu_pool_proj
I0403 19:30:39.337388 24927 net.cpp:425] inception_5a/relu_pool_proj <- inception_5a/pool_proj
I0403 19:30:39.337405 24927 net.cpp:386] inception_5a/relu_pool_proj -> inception_5a/pool_proj (in-place)
I0403 19:30:39.337689 24927 net.cpp:141] Setting up inception_5a/relu_pool_proj
I0403 19:30:39.337715 24927 net.cpp:148] Top shape: 24 128 7 7 (150528)
I0403 19:30:39.337729 24927 net.cpp:156] Memory required for data: 1305673248
I0403 19:30:39.337743 24927 layer_factory.hpp:77] Creating layer inception_5a/output
I0403 19:30:39.337762 24927 net.cpp:91] Creating Layer inception_5a/output
I0403 19:30:39.337777 24927 net.cpp:425] inception_5a/output <- inception_5a/1x1
I0403 19:30:39.337795 24927 net.cpp:425] inception_5a/output <- inception_5a/3x3
I0403 19:30:39.337810 24927 net.cpp:425] inception_5a/output <- inception_5a/5x5
I0403 19:30:39.337826 24927 net.cpp:425] inception_5a/output <- inception_5a/pool_proj
I0403 19:30:39.337841 24927 net.cpp:399] inception_5a/output -> inception_5a/output
I0403 19:30:39.337889 24927 net.cpp:141] Setting up inception_5a/output
I0403 19:30:39.337913 24927 net.cpp:148] Top shape: 24 832 7 7 (978432)
I0403 19:30:39.337926 24927 net.cpp:156] Memory required for data: 1309586976
I0403 19:30:39.337940 24927 layer_factory.hpp:77] Creating layer inception_5a/output_inception_5a/output_0_split
I0403 19:30:39.337956 24927 net.cpp:91] Creating Layer inception_5a/output_inception_5a/output_0_split
I0403 19:30:39.337971 24927 net.cpp:425] inception_5a/output_inception_5a/output_0_split <- inception_5a/output
I0403 19:30:39.337990 24927 net.cpp:399] inception_5a/output_inception_5a/output_0_split -> inception_5a/output_inception_5a/output_0_split_0
I0403 19:30:39.338011 24927 net.cpp:399] inception_5a/output_inception_5a/output_0_split -> inception_5a/output_inception_5a/output_0_split_1
I0403 19:30:39.338030 24927 net.cpp:399] inception_5a/output_inception_5a/output_0_split -> inception_5a/output_inception_5a/output_0_split_2
I0403 19:30:39.338050 24927 net.cpp:399] inception_5a/output_inception_5a/output_0_split -> inception_5a/output_inception_5a/output_0_split_3
I0403 19:30:39.338158 24927 net.cpp:141] Setting up inception_5a/output_inception_5a/output_0_split
I0403 19:30:39.338184 24927 net.cpp:148] Top shape: 24 832 7 7 (978432)
I0403 19:30:39.338201 24927 net.cpp:148] Top shape: 24 832 7 7 (978432)
I0403 19:30:39.338215 24927 net.cpp:148] Top shape: 24 832 7 7 (978432)
I0403 19:30:39.338229 24927 net.cpp:148] Top shape: 24 832 7 7 (978432)
I0403 19:30:39.338243 24927 net.cpp:156] Memory required for data: 1325241888
I0403 19:30:39.338263 24927 layer_factory.hpp:77] Creating layer inception_5b/1x1
I0403 19:30:39.338289 24927 net.cpp:91] Creating Layer inception_5b/1x1
I0403 19:30:39.338307 24927 net.cpp:425] inception_5b/1x1 <- inception_5a/output_inception_5a/output_0_split_0
I0403 19:30:39.338335 24927 net.cpp:399] inception_5b/1x1 -> inception_5b/1x1
I0403 19:30:39.341969 24927 net.cpp:141] Setting up inception_5b/1x1
I0403 19:30:39.341996 24927 net.cpp:148] Top shape: 24 384 7 7 (451584)
I0403 19:30:39.342012 24927 net.cpp:156] Memory required for data: 1327048224
I0403 19:30:39.342030 24927 layer_factory.hpp:77] Creating layer inception_5b/relu_1x1
I0403 19:30:39.342049 24927 net.cpp:91] Creating Layer inception_5b/relu_1x1
I0403 19:30:39.342068 24927 net.cpp:425] inception_5b/relu_1x1 <- inception_5b/1x1
I0403 19:30:39.342085 24927 net.cpp:386] inception_5b/relu_1x1 -> inception_5b/1x1 (in-place)
I0403 19:30:39.342382 24927 net.cpp:141] Setting up inception_5b/relu_1x1
I0403 19:30:39.342409 24927 net.cpp:148] Top shape: 24 384 7 7 (451584)
I0403 19:30:39.342425 24927 net.cpp:156] Memory required for data: 1328854560
I0403 19:30:39.342439 24927 layer_factory.hpp:77] Creating layer inception_5b/3x3_reduce
I0403 19:30:39.342460 24927 net.cpp:91] Creating Layer inception_5b/3x3_reduce
I0403 19:30:39.342480 24927 net.cpp:425] inception_5b/3x3_reduce <- inception_5a/output_inception_5a/output_0_split_1
I0403 19:30:39.342506 24927 net.cpp:399] inception_5b/3x3_reduce -> inception_5b/3x3_reduce
I0403 19:30:39.345136 24927 net.cpp:141] Setting up inception_5b/3x3_reduce
I0403 19:30:39.345163 24927 net.cpp:148] Top shape: 24 192 7 7 (225792)
I0403 19:30:39.345180 24927 net.cpp:156] Memory required for data: 1329757728
I0403 19:30:39.345196 24927 layer_factory.hpp:77] Creating layer inception_5b/relu_3x3_reduce
I0403 19:30:39.345216 24927 net.cpp:91] Creating Layer inception_5b/relu_3x3_reduce
I0403 19:30:39.345232 24927 net.cpp:425] inception_5b/relu_3x3_reduce <- inception_5b/3x3_reduce
I0403 19:30:39.345248 24927 net.cpp:386] inception_5b/relu_3x3_reduce -> inception_5b/3x3_reduce (in-place)
I0403 19:30:39.345435 24927 net.cpp:141] Setting up inception_5b/relu_3x3_reduce
I0403 19:30:39.345461 24927 net.cpp:148] Top shape: 24 192 7 7 (225792)
I0403 19:30:39.345476 24927 net.cpp:156] Memory required for data: 1330660896
I0403 19:30:39.345491 24927 layer_factory.hpp:77] Creating layer inception_5b/3x3
I0403 19:30:39.345512 24927 net.cpp:91] Creating Layer inception_5b/3x3
I0403 19:30:39.345530 24927 net.cpp:425] inception_5b/3x3 <- inception_5b/3x3_reduce
I0403 19:30:39.345547 24927 net.cpp:399] inception_5b/3x3 -> inception_5b/3x3
I0403 19:30:39.351963 24927 net.cpp:141] Setting up inception_5b/3x3
I0403 19:30:39.351990 24927 net.cpp:148] Top shape: 24 384 7 7 (451584)
I0403 19:30:39.352005 24927 net.cpp:156] Memory required for data: 1332467232
I0403 19:30:39.352022 24927 layer_factory.hpp:77] Creating layer inception_5b/relu_3x3
I0403 19:30:39.352041 24927 net.cpp:91] Creating Layer inception_5b/relu_3x3
I0403 19:30:39.352058 24927 net.cpp:425] inception_5b/relu_3x3 <- inception_5b/3x3
I0403 19:30:39.352075 24927 net.cpp:386] inception_5b/relu_3x3 -> inception_5b/3x3 (in-place)
I0403 19:30:39.352362 24927 net.cpp:141] Setting up inception_5b/relu_3x3
I0403 19:30:39.352387 24927 net.cpp:148] Top shape: 24 384 7 7 (451584)
I0403 19:30:39.352401 24927 net.cpp:156] Memory required for data: 1334273568
I0403 19:30:39.352416 24927 layer_factory.hpp:77] Creating layer inception_5b/5x5_reduce
I0403 19:30:39.352452 24927 net.cpp:91] Creating Layer inception_5b/5x5_reduce
I0403 19:30:39.352470 24927 net.cpp:425] inception_5b/5x5_reduce <- inception_5a/output_inception_5a/output_0_split_2
I0403 19:30:39.352491 24927 net.cpp:399] inception_5b/5x5_reduce -> inception_5b/5x5_reduce
I0403 19:30:39.353700 24927 net.cpp:141] Setting up inception_5b/5x5_reduce
I0403 19:30:39.353726 24927 net.cpp:148] Top shape: 24 48 7 7 (56448)
I0403 19:30:39.353740 24927 net.cpp:156] Memory required for data: 1334499360
I0403 19:30:39.353757 24927 layer_factory.hpp:77] Creating layer inception_5b/relu_5x5_reduce
I0403 19:30:39.353777 24927 net.cpp:91] Creating Layer inception_5b/relu_5x5_reduce
I0403 19:30:39.353793 24927 net.cpp:425] inception_5b/relu_5x5_reduce <- inception_5b/5x5_reduce
I0403 19:30:39.353811 24927 net.cpp:386] inception_5b/relu_5x5_reduce -> inception_5b/5x5_reduce (in-place)
I0403 19:30:39.354163 24927 net.cpp:141] Setting up inception_5b/relu_5x5_reduce
I0403 19:30:39.354188 24927 net.cpp:148] Top shape: 24 48 7 7 (56448)
I0403 19:30:39.354203 24927 net.cpp:156] Memory required for data: 1334725152
I0403 19:30:39.354218 24927 layer_factory.hpp:77] Creating layer inception_5b/5x5
I0403 19:30:39.354236 24927 net.cpp:91] Creating Layer inception_5b/5x5
I0403 19:30:39.354254 24927 net.cpp:425] inception_5b/5x5 <- inception_5b/5x5_reduce
I0403 19:30:39.354285 24927 net.cpp:399] inception_5b/5x5 -> inception_5b/5x5
I0403 19:30:39.356271 24927 net.cpp:141] Setting up inception_5b/5x5
I0403 19:30:39.356298 24927 net.cpp:148] Top shape: 24 128 7 7 (150528)
I0403 19:30:39.356314 24927 net.cpp:156] Memory required for data: 1335327264
I0403 19:30:39.356333 24927 layer_factory.hpp:77] Creating layer inception_5b/relu_5x5
I0403 19:30:39.356349 24927 net.cpp:91] Creating Layer inception_5b/relu_5x5
I0403 19:30:39.356364 24927 net.cpp:425] inception_5b/relu_5x5 <- inception_5b/5x5
I0403 19:30:39.356381 24927 net.cpp:386] inception_5b/relu_5x5 -> inception_5b/5x5 (in-place)
I0403 19:30:39.356565 24927 net.cpp:141] Setting up inception_5b/relu_5x5
I0403 19:30:39.356590 24927 net.cpp:148] Top shape: 24 128 7 7 (150528)
I0403 19:30:39.356606 24927 net.cpp:156] Memory required for data: 1335929376
I0403 19:30:39.356619 24927 layer_factory.hpp:77] Creating layer inception_5b/pool
I0403 19:30:39.356636 24927 net.cpp:91] Creating Layer inception_5b/pool
I0403 19:30:39.356650 24927 net.cpp:425] inception_5b/pool <- inception_5a/output_inception_5a/output_0_split_3
I0403 19:30:39.356669 24927 net.cpp:399] inception_5b/pool -> inception_5b/pool
I0403 19:30:39.356739 24927 net.cpp:141] Setting up inception_5b/pool
I0403 19:30:39.356763 24927 net.cpp:148] Top shape: 24 832 7 7 (978432)
I0403 19:30:39.356778 24927 net.cpp:156] Memory required for data: 1339843104
I0403 19:30:39.356791 24927 layer_factory.hpp:77] Creating layer inception_5b/pool_proj
I0403 19:30:39.356812 24927 net.cpp:91] Creating Layer inception_5b/pool_proj
I0403 19:30:39.356828 24927 net.cpp:425] inception_5b/pool_proj <- inception_5b/pool
I0403 19:30:39.356847 24927 net.cpp:399] inception_5b/pool_proj -> inception_5b/pool_proj
I0403 19:30:39.359068 24927 net.cpp:141] Setting up inception_5b/pool_proj
I0403 19:30:39.359096 24927 net.cpp:148] Top shape: 24 128 7 7 (150528)
I0403 19:30:39.359110 24927 net.cpp:156] Memory required for data: 1340445216
I0403 19:30:39.359127 24927 layer_factory.hpp:77] Creating layer inception_5b/relu_pool_proj
I0403 19:30:39.359145 24927 net.cpp:91] Creating Layer inception_5b/relu_pool_proj
I0403 19:30:39.359163 24927 net.cpp:425] inception_5b/relu_pool_proj <- inception_5b/pool_proj
I0403 19:30:39.359179 24927 net.cpp:386] inception_5b/relu_pool_proj -> inception_5b/pool_proj (in-place)
I0403 19:30:39.359472 24927 net.cpp:141] Setting up inception_5b/relu_pool_proj
I0403 19:30:39.359496 24927 net.cpp:148] Top shape: 24 128 7 7 (150528)
I0403 19:30:39.359510 24927 net.cpp:156] Memory required for data: 1341047328
I0403 19:30:39.359524 24927 layer_factory.hpp:77] Creating layer inception_5b/output
I0403 19:30:39.359544 24927 net.cpp:91] Creating Layer inception_5b/output
I0403 19:30:39.359573 24927 net.cpp:425] inception_5b/output <- inception_5b/1x1
I0403 19:30:39.359589 24927 net.cpp:425] inception_5b/output <- inception_5b/3x3
I0403 19:30:39.359606 24927 net.cpp:425] inception_5b/output <- inception_5b/5x5
I0403 19:30:39.359619 24927 net.cpp:425] inception_5b/output <- inception_5b/pool_proj
I0403 19:30:39.359635 24927 net.cpp:399] inception_5b/output -> inception_5b/output
I0403 19:30:39.359686 24927 net.cpp:141] Setting up inception_5b/output
I0403 19:30:39.359709 24927 net.cpp:148] Top shape: 24 1024 7 7 (1204224)
I0403 19:30:39.359724 24927 net.cpp:156] Memory required for data: 1345864224
I0403 19:30:39.359736 24927 layer_factory.hpp:77] Creating layer pool5/7x7_s1
I0403 19:30:39.359752 24927 net.cpp:91] Creating Layer pool5/7x7_s1
I0403 19:30:39.359767 24927 net.cpp:425] pool5/7x7_s1 <- inception_5b/output
I0403 19:30:39.359786 24927 net.cpp:399] pool5/7x7_s1 -> pool5/7x7_s1
I0403 19:30:39.359992 24927 net.cpp:141] Setting up pool5/7x7_s1
I0403 19:30:39.360016 24927 net.cpp:148] Top shape: 24 1024 1 1 (24576)
I0403 19:30:39.360030 24927 net.cpp:156] Memory required for data: 1345962528
I0403 19:30:39.360044 24927 layer_factory.hpp:77] Creating layer pool5/drop_7x7_s1
I0403 19:30:39.360064 24927 net.cpp:91] Creating Layer pool5/drop_7x7_s1
I0403 19:30:39.360079 24927 net.cpp:425] pool5/drop_7x7_s1 <- pool5/7x7_s1
I0403 19:30:39.360095 24927 net.cpp:386] pool5/drop_7x7_s1 -> pool5/7x7_s1 (in-place)
I0403 19:30:39.360146 24927 net.cpp:141] Setting up pool5/drop_7x7_s1
I0403 19:30:39.360169 24927 net.cpp:148] Top shape: 24 1024 1 1 (24576)
I0403 19:30:39.360183 24927 net.cpp:156] Memory required for data: 1346060832
I0403 19:30:39.360196 24927 layer_factory.hpp:77] Creating layer loss3/classifier_plantvillage
I0403 19:30:39.360216 24927 net.cpp:91] Creating Layer loss3/classifier_plantvillage
I0403 19:30:39.360232 24927 net.cpp:425] loss3/classifier_plantvillage <- pool5/7x7_s1
I0403 19:30:39.360250 24927 net.cpp:399] loss3/classifier_plantvillage -> loss3/classifier_plantvillage
I0403 19:30:39.360661 24927 net.cpp:141] Setting up loss3/classifier_plantvillage
I0403 19:30:39.360685 24927 net.cpp:148] Top shape: 24 38 (912)
I0403 19:30:39.360699 24927 net.cpp:156] Memory required for data: 1346064480
I0403 19:30:39.360716 24927 layer_factory.hpp:77] Creating layer loss3/classifier_plantvillage_loss3/classifier_plantvillage_0_split
I0403 19:30:39.360733 24927 net.cpp:91] Creating Layer loss3/classifier_plantvillage_loss3/classifier_plantvillage_0_split
I0403 19:30:39.360750 24927 net.cpp:425] loss3/classifier_plantvillage_loss3/classifier_plantvillage_0_split <- loss3/classifier_plantvillage
I0403 19:30:39.360770 24927 net.cpp:399] loss3/classifier_plantvillage_loss3/classifier_plantvillage_0_split -> loss3/classifier_plantvillage_loss3/classifier_plantvillage_0_split_0
I0403 19:30:39.360790 24927 net.cpp:399] loss3/classifier_plantvillage_loss3/classifier_plantvillage_0_split -> loss3/classifier_plantvillage_loss3/classifier_plantvillage_0_split_1
I0403 19:30:39.360810 24927 net.cpp:399] loss3/classifier_plantvillage_loss3/classifier_plantvillage_0_split -> loss3/classifier_plantvillage_loss3/classifier_plantvillage_0_split_2
I0403 19:30:39.360828 24927 net.cpp:399] loss3/classifier_plantvillage_loss3/classifier_plantvillage_0_split -> loss3/classifier_plantvillage_loss3/classifier_plantvillage_0_split_3
I0403 19:30:39.360924 24927 net.cpp:141] Setting up loss3/classifier_plantvillage_loss3/classifier_plantvillage_0_split
I0403 19:30:39.360945 24927 net.cpp:148] Top shape: 24 38 (912)
I0403 19:30:39.360960 24927 net.cpp:148] Top shape: 24 38 (912)
I0403 19:30:39.360975 24927 net.cpp:148] Top shape: 24 38 (912)
I0403 19:30:39.360988 24927 net.cpp:148] Top shape: 24 38 (912)
I0403 19:30:39.361001 24927 net.cpp:156] Memory required for data: 1346079072
I0403 19:30:39.361014 24927 layer_factory.hpp:77] Creating layer loss1/loss
I0403 19:30:39.361037 24927 net.cpp:91] Creating Layer loss1/loss
I0403 19:30:39.361054 24927 net.cpp:425] loss1/loss <- loss1/classifier_plantvillage_loss1/classifier_plantvillage_0_split_0
I0403 19:30:39.361083 24927 net.cpp:425] loss1/loss <- label_data_1_split_0
…
