…
I0403 19:40:45.721815 25515 net.cpp:313] The NetState phase (1) differed from the phase (0) specified by a rule in layer data
I0403 19:40:45.724539 25515 net.cpp:49] Initializing net from parameters: 
state {
  phase: TEST
}
layer {
  name: "data"
  type: "Data"
  top: "data"
  top: "label"
  include {
    phase: TEST
  }
  transform_param {
    mirror: false
    crop_size: 224
    mean_file: "/home/mohanty/data/final_dataset/lmdb/grayscale-80-20/mean.binaryproto"
  }
  data_param {
    source: "/home/mohanty/data/final_dataset/lmdb/grayscale-80-20/test_db"
    batch_size: 24
    backend: LMDB
  }
}
layer {
  name: "conv1/7x7_s2"
  type: "Convolution"
  bottom: "data"
  top: "conv1/7x7_s2"
  param {
    lr_mult: 1
    decay_mult: 1
  }
  param {
    lr_mult: 2
    decay_mult: 0
  }
  convolution_param {
    num_output: 64
    pad: 3
    kernel_size: 7
    stride: 2
    weight_filler {
      type: "xavier"
      std: 0.1
    }
    bias_filler {
      type: "constant"
      value: 0.2
    }
  }
}
layer {
  name: "conv1/relu_7x7"
  type: "ReLU"
  bottom: "conv1/7x7_s2"
  top: "conv1/7x7_s2"
}
layer {
  name: "pool1/3x3_s2"
  type: "Pooling"
  bottom: "conv1/7x7_s2"
  top: "pool1/3x3_s2"
  pooling_param {
    pool: MAX
    kernel_size: 3
    stride: 2
  }
}
layer {
  name: "pool1/norm1"
  type: "LRN"
  bottom: "pool1/3x3_s2"
  top: "pool1/norm1"
  lrn_param {
    local_size: 5
    alpha: 0.0001
    beta: 0.75
  }
}
layer {
  name: "conv2/3x3_reduce"
  type: "Convolution"
  bottom: "pool1/norm1"
  top: "conv2/3x3_reduce"
  param {
    lr_mult: 1
    decay_mult: 1
  }
  param {
    lr_mult: 2
    decay_mult: 0
  }
  convolution_param {
    num_output: 64
    kernel_size: 1
    weight_filler {
      type: "xavier"
      std: 0.1
    }
    bias_filler {
      type: "constant"
      value: 0.2
    }
  }
}
layer {
  name: "conv2/relu_3x3_reduce"
  type: "ReLU"
  bottom: "conv2/3x3_reduce"
  top: "conv2/3x3_reduce"
}
layer {
  name: "conv2/3x3"
  type: "Convolution"
  bottom: "conv2/3x3_reduce"
  top: "conv2/3x3"
  param {
    lr_mult: 1
    decay_mult: 1
  }
  param {
    lr_mult: 2
    decay_mult: 0
  }
  convolution_param {
    num_output: 192
    pad: 1
    kernel_size: 3
    weight_filler {
      type: "xavier"
      std: 0.03
    }
    bias_filler {
      type: "constant"
      value: 0.2
    }
  }
}
layer {
  name: "conv2/relu_3x3"
  type: "ReLU"
  bottom: "conv2/3x3"
  top: "conv2/3x3"
}
layer {
  name: "conv2/norm2"
  type: "LRN"
  bottom: "conv2/3x3"
  top: "conv2/norm2"
  lrn_param {
    local_size: 5
    alpha: 0.0001
    beta: 0.75
  }
}
layer {
  name: "pool2/3x3_s2"
  type: "Pooling"
  bottom: "conv2/norm2"
  top: "pool2/3x3_s2"
  pooling_param {
    pool: MAX
    kernel_size: 3
    stride: 2
  }
}
layer {
  name: "inception_3a/1x1"
  type: "Convolution"
  bottom: "pool2/3x3_s2"
  top: "inception_3a/1x1"
  param {
    lr_mult: 1
    decay_mult: 1
  }
  param {
    lr_mult: 2
    decay_mult: 0
  }
  convolution_param {
    num_output: 64
    kernel_size: 1
    weight_filler {
      type: "xavier"
      std: 0.03
    }
    bias_filler {
      type: "constant"
      value: 0.2
    }
  }
}
layer {
  name: "inception_3a/relu_1x1"
  type: "ReLU"
  bottom: "inception_3a/1x1"
  top: "inception_3a/1x1"
}
layer {
  name: "inception_3a/3x3_reduce"
  type: "Convolution"
  bottom: "pool2/3x3_s2"
  top: "inception_3a/3x3_reduce"
  param {
    lr_mult: 1
    decay_mult: 1
  }
  param {
    lr_mult: 2
    decay_mult: 0
  }
  convolution_param {
    num_output: 96
    kernel_size: 1
    weight_filler {
      type: "xavier"
      std: 0.09
    }
    bias_filler {
      type: "constant"
      value: 0.2
    }
  }
}
layer {
  name: "inception_3a/relu_3x3_reduce"
  type: "ReLU"
  bottom: "inception_3a/3x3_reduce"
  top: "inception_3a/3x3_reduce"
}
layer {
  name: "inception_3a/3x3"
  type: "Convolution"
  bottom: "inception_3a/3x3_reduce"
  top: "inception_3a/3x3"
  param {
    lr_mult: 1
    decay_mult: 1
  }
  param {
    lr_mult: 2
    decay_mult: 0
  }
  convolution_param {
    num_output: 128
    pad: 1
    kernel_size: 3
    weight_filler {
      type: "xavier"
      std: 0.03
    }
    bias_filler {
      type: "constant"
      value: 0.2
    }
  }
}
layer {
  name: "inception_3a/relu_3x3"
  type: "ReLU"
  bottom: "inception_3a/3x3"
  top: "inception_3a/3x3"
}
layer {
  name: "inception_3a/5x5_reduce"
  type: "Convolution"
  bottom: "pool2/3x3_s2"
  top: "inception_3a/5x5_reduce"
  param {
    lr_mult: 1
    decay_mult: 1
  }
  param {
    lr_mult: 2
    decay_mult: 0
  }
  convolution_param {
    num_output: 16
    kernel_size: 1
    weight_filler {
      type: "xavier"
      std: 0.2
    }
    bias_filler {
      type: "constant"
      value: 0.2
    }
  }
}
layer {
  name: "inception_3a/relu_5x5_reduce"
  type: "ReLU"
  bottom: "inception_3a/5x5_reduce"
  top: "inception_3a/5x5_reduce"
}
layer {
  name: "inception_3a/5x5"
  type: "Convolution"
  bottom: "inception_3a/5x5_reduce"
  top: "inception_3a/5x5"
  param {
    lr_mult: 1
    decay_mult: 1
  }
  param {
    lr_mult: 2
    decay_mult: 0
  }
  convolution_param {
    num_output: 32
    pad: 2
    kernel_size: 5
    weight_filler {
      type: "xavier"
      std: 0.03
    }
    bias_filler {
      type: "constant"
      value: 0.2
    }
  }
}
layer {
  name: "inception_3a/relu_5x5"
  type: "ReLU"
  bottom: "inception_3a/5x5"
  top: "inception_3a/5x5"
}
layer {
  name: "inception_3a/pool"
  type: "Pooling"
  bottom: "pool2/3x3_s2"
  top: "inception_3a/pool"
  pooling_param {
    pool: MAX
    kernel_size: 3
    stride: 1
    pad: 1
  }
}
layer {
  name: "inception_3a/pool_proj"
  type: "Convolution"
  bottom: "inception_3a/pool"
  top: "inception_3a/pool_proj"
  param {
    lr_mult: 1
    decay_mult: 1
  }
  param {
    lr_mult: 2
    decay_mult: 0
  }
  convolution_param {
    num_output: 32
    kernel_size: 1
    weight_filler {
      type: "xavier"
      std: 0.1
    }
    bias_filler {
      type: "constant"
      value: 0.2
    }
  }
}
layer {
  name: "inception_3a/relu_pool_proj"
  type: "ReLU"
  bottom: "inception_3a/pool_proj"
  top: "inception_3a/pool_proj"
}
layer {
  name: "inception_3a/output"
  type: "Concat"
  bottom: "inception_3a/1x1"
  bottom: "inception_3a/3x3"
  bottom: "inception_3a/5x5"
  bottom: "inception_3a/pool_proj"
  top: "inception_3a/output"
}
layer {
  name: "inception_3b/1x1"
  type: "Convolution"
  bottom: "inception_3a/output"
  top: "inception_3b/1x1"
  param {
    lr_mult: 1
    decay_mult: 1
  }
  param {
    lr_mult: 2
    decay_mult: 0
  }
  convolution_param {
    num_output: 128
    kernel_size: 1
    weight_filler {
      type: "xavier"
      std: 0.03
    }
    bias_filler {
      type: "constant"
      value: 0.2
    }
  }
}
layer {
  name: "inception_3b/relu_1x1"
  type: "ReLU"
  bottom: "inception_3b/1x1"
  top: "inception_3b/1x1"
}
layer {
  name: "inception_3b/3x3_reduce"
  type: "Convolution"
  bottom: "inception_3a/output"
  top: "inception_3b/3x3_reduce"
  param {
    lr_mult: 1
    decay_mult: 1
  }
  param {
    lr_mult: 2
    decay_mult: 0
  }
  convolution_param {
    num_output: 128
    kernel_size: 1
    weight_filler {
      type: "xavier"
      std: 0.09
    }
    bias_filler {
      type: "constant"
      value: 0.2
    }
  }
}
layer {
  name: "inception_3b/relu_3x3_reduce"
  type: "ReLU"
  bottom: "inception_3b/3x3_reduce"
  top: "inception_3b/3x3_reduce"
}
layer {
  name: "inception_3b/3x3"
  type: "Convolution"
  bottom: "inception_3b/3x3_reduce"
  top: "inception_3b/3x3"
  param {
    lr_mult: 1
    decay_mult: 1
  }
  param {
    lr_mult: 2
    decay_mult: 0
  }
  convolution_param {
    num_output: 192
    pad: 1
    kernel_size: 3
    weight_filler {
      type: "xavier"
      std: 0.03
    }
    bias_filler {
      type: "constant"
      value: 0.2
    }
  }
}
layer {
  name: "inception_3b/relu_3x3"
  type: "ReLU"
  bottom: "inception_3b/3x3"
  top: "inception_3b/3x3"
}
layer {
  name: "inception_3b/5x5_reduce"
  type: "Convolution"
  bottom: "inception_3a/output"
  top: "inception_3b/5x5_reduce"
  param {
    lr_mult: 1
    decay_mult: 1
  }
  param {
    lr_mult: 2
    decay_mult: 0
  }
  convolution_param {
    num_output: 32
    kernel_size: 1
    weight_filler {
      type: "xavier"
      std: 0.2
    }
    bias_filler {
      type: "constant"
      value: 0.2
    }
  }
}
layer {
  name: "inception_3b/relu_5x5_reduce"
  type: "ReLU"
  bottom: "inception_3b/5x5_reduce"
  top: "inception_3b/5x5_reduce"
}
layer {
  name: "inception_3b/5x5"
  type: "Convolution"
  bottom: "inception_3b/5x5_reduce"
  top: "inception_3b/5x5"
  param {
    lr_mult: 1
    decay_mult: 1
  }
  param {
    lr_mult: 2
    decay_mult: 0
  }
  convolution_param {
    num_output: 96
    pad: 2
    kernel_size: 5
    weight_filler {
      type: "xavier"
      std: 0.03
    }
    bias_filler {
      type: "constant"
      value: 0.2
    }
  }
}
layer {
  name: "inception_3b/relu_5x5"
  type: "ReLU"
  bottom: "inception_3b/5x5"
  top: "inception_3b/5x5"
}
layer {
  name: "inception_3b/pool"
  type: "Pooling"
  bottom: "inception_3a/output"
  top: "inception_3b/pool"
  pooling_param {
    pool: MAX
    kernel_size: 3
    stride: 1
    pad: 1
  }
}
layer {
  name: "inception_3b/pool_proj"
  type: "Convolution"
  bottom: "inception_3b/pool"
  top: "inception_3b/pool_proj"
  param {
    lr_mult: 1
    decay_mult: 1
  }
  param {
    lr_mult: 2
    decay_mult: 0
  }
  convolution_param {
    num_output: 64
    kernel_size: 1
    weight_filler {
      type: "xavier"
      std: 0.1
    }
    bias_filler {
      type: "constant"
      value: 0.2
    }
  }
}
layer {
  name: "inception_3b/relu_pool_proj"
  type: "ReLU"
  bottom: "inception_3b/pool_proj"
  top: "inception_3b/pool_proj"
}
layer {
  name: "inception_3b/output"
  type: "Concat"
  bottom: "inception_3b/1x1"
  bottom: "inception_3b/3x3"
  bottom: "inception_3b/5x5"
  bottom: "inception_3b/pool_proj"
  top: "inception_3b/output"
}
layer {
  name: "pool3/3x3_s2"
  type: "Pooling"
  bottom: "inception_3b/output"
  top: "pool3/3x3_s2"
  pooling_param {
    pool: MAX
    kernel_size: 3
    stride: 2
  }
}
layer {
  name: "inception_4a/1x1"
  type: "Convolution"
  bottom: "pool3/3x3_s2"
  top: "inception_4a/1x1"
  param {
    lr_mult: 1
    decay_mult: 1
  }
  param {
    lr_mult: 2
    decay_mult: 0
  }
  convolution_param {
    num_output: 192
    kernel_size: 1
    weight_filler {
      type: "xavier"
      std: 0.03
    }
    bias_filler {
      type: "constant"
      value: 0.2
    }
  }
}
layer {
  name: "inception_4a/relu_1x1"
  type: "ReLU"
  bottom: "inception_4a/1x1"
  top: "inception_4a/1x1"
}
layer {
  name: "inception_4a/3x3_reduce"
  type: "Convolution"
  bottom: "pool3/3x3_s2"
  top: "inception_4a/3x3_reduce"
  param {
    lr_mult: 1
    decay_mult: 1
  }
  param {
    lr_mult: 2
    decay_mult: 0
  }
  convolution_param {
    num_output: 96
    kernel_size: 1
    weight_filler {
      type: "xavier"
      std: 0.09
    }
    bias_filler {
      type: "constant"
      value: 0.2
    }
  }
}
layer {
  name: "inception_4a/relu_3x3_reduce"
  type: "ReLU"
  bottom: "inception_4a/3x3_reduce"
  top: "inception_4a/3x3_reduce"
}
layer {
  name: "inception_4a/3x3"
  type: "Convolution"
  bottom: "inception_4a/3x3_reduce"
  top: "inception_4a/3x3"
  param {
    lr_mult: 1
    decay_mult: 1
  }
  param {
    lr_mult: 2
    decay_mult: 0
  }
  convolution_param {
    num_output: 208
    pad: 1
    kernel_size: 3
    weight_filler {
      type: "xavier"
      std: 0.03
    }
    bias_filler {
      type: "constant"
      value: 0.2
    }
  }
}
layer {
  name: "inception_4a/relu_3x3"
  type: "ReLU"
  bottom: "inception_4a/3x3"
  top: "inception_4a/3x3"
}
layer {
  name: "inception_4a/5x5_reduce"
  type: "Convolution"
  bottom: "pool3/3x3_s2"
  top: "inception_4a/5x5_reduce"
  param {
    lr_mult: 1
    decay_mult: 1
  }
  param {
    lr_mult: 2
    decay_mult: 0
  }
  convolution_param {
    num_output: 16
    kernel_size: 1
    weight_filler {
      type: "xavier"
      std: 0.2
    }
    bias_filler {
      type: "constant"
      value: 0.2
    }
  }
}
layer {
  name: "inception_4a/relu_5x5_reduce"
  type: "ReLU"
  bottom: "inception_4a/5x5_reduce"
  top: "inception_4a/5x5_reduce"
}
layer {
  name: "inception_4a/5x5"
  type: "Convolution"
  bottom: "inception_4a/5x5_reduce"
  top: "inception_4a/5x5"
  param {
    lr_mult: 1
    decay_mult: 1
  }
  param {
    lr_mult: 2
    decay_mult: 0
  }
  convolution_param {
    num_output: 48
    pad: 2
    kernel_size: 5
    weight_filler {
      type: "xavier"
      std: 0.03
    }
    bias_filler {
      type: "constant"
      value: 0.2
    }
  }
}
layer {
  name: "inception_4a/relu_5x5"
  type: "ReLU"
  bottom: "inception_4a/5x5"
  top: "inception_4a/5x5"
}
layer {
  name: "inception_4a/pool"
  type: "Pooling"
  bottom: "pool3/3x3_s2"
  top: "inception_4a/pool"
  pooling_param {
    pool: MAX
    kernel_size: 3
    stride: 1
    pad: 1
  }
}
layer {
  name: "inception_4a/pool_proj"
  type: "Convolution"
  bottom: "inception_4a/pool"
  top: "inception_4a/pool_proj"
  param {
    lr_mult: 1
    decay_mult: 1
  }
  param {
    lr_mult: 2
    decay_mult: 0
  }
  convolution_param {
    num_output: 64
    kernel_size: 1
    weight_filler {
      type: "xavier"
      std: 0.1
    }
    bias_filler {
      type: "constant"
      value: 0.2
    }
  }
}
layer {
  name: "inception_4a/relu_pool_proj"
  type: "ReLU"
  bottom: "inception_4a/pool_proj"
  top: "inception_4a/pool_proj"
}
layer {
  name: "inception_4a/output"
  type: "Concat"
  bottom: "inception_4a/1x1"
  bottom: "inception_4a/3x3"
  bottom: "inception_4a/5x5"
  bottom: "inception_4a/pool_proj"
  top: "inception_4a/output"
}
layer {
  name: "loss1/ave_pool"
  type: "Pooling"
  bottom: "inception_4a/output"
  top: "loss1/ave_pool"
  pooling_param {
    pool: AVE
    kernel_size: 5
    stride: 3
  }
}
layer {
  name: "loss1/conv"
  type: "Convolution"
  bottom: "loss1/ave_pool"
  top: "loss1/conv"
  param {
    lr_mult: 1
    decay_mult: 1
  }
  param {
    lr_mult: 2
    decay_mult: 0
  }
  convolution_param {
    num_output: 128
    kernel_size: 1
    weight_filler {
      type: "xavier"
      std: 0.08
    }
    bias_filler {
      type: "constant"
      value: 0.2
    }
  }
}
layer {
  name: "loss1/relu_conv"
  type: "ReLU"
  bottom: "loss1/conv"
  top: "loss1/conv"
}
layer {
  name: "loss1/fc"
  type: "InnerProduct"
  bottom: "loss1/conv"
  top: "loss1/fc"
  param {
    lr_mult: 1
    decay_mult: 1
  }
  param {
    lr_mult: 2
    decay_mult: 0
  }
  inner_product_param {
    num_output: 1024
    weight_filler {
      type: "xavier"
      std: 0.02
    }
    bias_filler {
      type: "constant"
      value: 0.2
    }
  }
}
layer {
  name: "loss1/relu_fc"
  type: "ReLU"
  bottom: "loss1/fc"
  top: "loss1/fc"
}
layer {
  name: "loss1/drop_fc"
  type: "Dropout"
  bottom: "loss1/fc"
  top: "loss1/fc"
  dropout_param {
    dropout_ratio: 0.7
  }
}
layer {
  name: "loss1/classifier_plantvillage"
  type: "InnerProduct"
  bottom: "loss1/fc"
  top: "loss1/classifier_plantvillage"
  param {
    lr_mult: 1
    decay_mult: 1
  }
  param {
    lr_mult: 2
    decay_mult: 0
  }
  inner_product_param {
    num_output: 38
    weight_filler {
      type: "xavier"
      std: 0.0009765625
    }
    bias_filler {
      type: "constant"
      value: 0
    }
  }
}
layer {
  name: "inception_4b/1x1"
  type: "Convolution"
  bottom: "inception_4a/output"
  top: "inception_4b/1x1"
  param {
    lr_mult: 1
    decay_mult: 1
  }
  param {
    lr_mult: 2
    decay_mult: 0
  }
  convolution_param {
    num_output: 160
    kernel_size: 1
    weight_filler {
      type: "xavier"
      std: 0.03
    }
    bias_filler {
      type: "constant"
      value: 0.2
    }
  }
}
layer {
  name: "inception_4b/relu_1x1"
  type: "ReLU"
  bottom: "inception_4b/1x1"
  top: "inception_4b/1x1"
}
layer {
  name: "inception_4b/3x3_reduce"
  type: "Convolution"
  bottom: "inception_4a/output"
  top: "inception_4b/3x3_reduce"
  param {
    lr_mult: 1
    decay_mult: 1
  }
  param {
    lr_mult: 2
    decay_mult: 0
  }
  convolution_param {
    num_output: 112
    kernel_size: 1
    weight_filler {
      type: "xavier"
      std: 0.09
    }
    bias_filler {
      type: "constant"
      value: 0.2
    }
  }
}
layer {
  name: "inception_4b/relu_3x3_reduce"
  type: "ReLU"
  bottom: "inception_4b/3x3_reduce"
  top: "inception_4b/3x3_reduce"
}
layer {
  name: "inception_4b/3x3"
  type: "Convolution"
  bottom: "inception_4b/3x3_reduce"
  top: "inception_4b/3x3"
  param {
    lr_mult: 1
    decay_mult: 1
  }
  param {
    lr_mult: 2
    decay_mult: 0
  }
  convolution_param {
    num_output: 224
    pad: 1
    kernel_size: 3
    weight_filler {
      type: "xavier"
      std: 0.03
    }
    bias_filler {
      type: "constant"
      value: 0.2
    }
  }
}
layer {
  name: "inception_4b/relu_3x3"
  type: "ReLU"
  bottom: "inception_4b/3x3"
  top: "inception_4b/3x3"
}
layer {
  name: "inception_4b/5x5_reduce"
  type: "Convolution"
  bottom: "inception_4a/output"
  top: "inception_4b/5x5_reduce"
  param {
    lr_mult: 1
    decay_mult: 1
  }
  param {
    lr_mult: 2
    decay_mult: 0
  }
  convolution_param {
    num_output: 24
    kernel_size: 1
    weight_filler {
      type: "xavier"
      std: 0.2
    }
    bias_filler {
      type: "constant"
      value: 0.2
    }
  }
}
layer {
  name: "inception_4b/relu_5x5_reduce"
  type: "ReLU"
  bottom: "inception_4b/5x5_reduce"
  top: "inception_4b/5x5_reduce"
}
layer {
  name: "inception_4b/5x5"
  type: "Convolution"
  bottom: "inception_4b/5x5_reduce"
  top: "inception_4b/5x5"
  param {
    lr_mult: 1
    decay_mult: 1
  }
  param {
    lr_mult: 2
    decay_mult: 0
  }
  convolution_param {
    num_output: 64
    pad: 2
    kernel_size: 5
    weight_filler {
      type: "xavier"
      std: 0.03
    }
    bias_filler {
      type: "constant"
      value: 0.2
    }
  }
}
layer {
  name: "inception_4b/relu_5x5"
  type: "ReLU"
  bottom: "inception_4b/5x5"
  top: "inception_4b/5x5"
}
layer {
  name: "inception_4b/pool"
  type: "Pooling"
  bottom: "inception_4a/output"
  top: "inception_4b/pool"
  pooling_param {
    pool: MAX
    kernel_size: 3
    stride: 1
    pad: 1
  }
}
layer {
  name: "inception_4b/pool_proj"
  type: "Convolution"
  bottom: "inception_4b/pool"
  top: "inception_4b/pool_proj"
  param {
    lr_mult: 1
    decay_mult: 1
  }
  param {
    lr_mult: 2
    decay_mult: 0
  }
  convolution_param {
    num_output: 64
    kernel_size: 1
    weight_filler {
      type: "xavier"
      std: 0.1
    }
    bias_filler {
      type: "constant"
      value: 0.2
    }
  }
}
layer {
  name: "inception_4b/relu_pool_proj"
  type: "ReLU"
  bottom: "inception_4b/pool_proj"
  top: "inception_4b/pool_proj"
}
layer {
  name: "inception_4b/output"
  type: "Concat"
  bottom: "inception_4b/1x1"
  bottom: "inception_4b/3x3"
  bottom: "inception_4b/5x5"
  bottom: "inception_4b/pool_proj"
  top: "inception_4b/output"
}
layer {
  name: "inception_4c/1x1"
  type: "Convolution"
  bottom: "inception_4b/output"
  top: "inception_4c/1x1"
  param {
    lr_mult: 1
    decay_mult: 1
  }
  param {
    lr_mult: 2
    decay_mult: 0
  }
  convolution_param {
    num_output: 128
    kernel_size: 1
    weight_filler {
      type: "xavier"
      std: 0.03
    }
    bias_filler {
      type: "constant"
      value: 0.2
    }
  }
}
layer {
  name: "inception_4c/relu_1x1"
  type: "ReLU"
  bottom: "inception_4c/1x1"
  top: "inception_4c/1x1"
}
layer {
  name: "inception_4c/3x3_reduce"
  type: "Convolution"
  bottom: "inception_4b/output"
  top: "inception_4c/3x3_reduce"
  param {
    lr_mult: 1
    decay_mult: 1
  }
  param {
    lr_mult: 2
    decay_mult: 0
  }
  convolution_param {
    num_output: 128
    kernel_size: 1
    weight_filler {
      type: "xavier"
      std: 0.09
    }
    bias_filler {
      type: "constant"
      value: 0.2
    }
  }
}
layer {
  name: "inception_4c/relu_3x3_reduce"
  type: "ReLU"
  bottom: "inception_4c/3x3_reduce"
  top: "inception_4c/3x3_reduce"
}
layer {
  name: "inception_4c/3x3"
  type: "Convolution"
  bottom: "inception_4c/3x3_reduce"
  top: "inception_4c/3x3"
  param {
    lr_mult: 1
    decay_mult: 1
  }
  param {
    lr_mult: 2
    decay_mult: 0
  }
  convolution_param {
    num_output: 256
    pad: 1
    kernel_size: 3
    weight_filler {
      type: "xavier"
      std: 0.03
    }
    bias_filler {
      type: "constant"
      value: 0.2
    }
  }
}
layer {
  name: "inception_4c/relu_3x3"
  type: "ReLU"
  bottom: "inception_4c/3x3"
  top: "inception_4c/3x3"
}
layer {
  name: "inception_4c/5x5_reduce"
  type: "Convolution"
  bottom: "inception_4b/output"
  top: "inception_4c/5x5_reduce"
  param {
    lr_mult: 1
    decay_mult: 1
  }
  param {
    lr_mult: 2
    decay_mult: 0
  }
  convolution_param {
    num_output: 24
    kernel_size: 1
    weight_filler {
      type: "xavier"
      std: 0.2
    }
    bias_filler {
      type: "constant"
      value: 0.2
    }
  }
}
layer {
  name: "inception_4c/relu_5x5_reduce"
  type: "ReLU"
  bottom: "inception_4c/5x5_reduce"
  top: "inception_4c/5x5_reduce"
}
layer {
  name: "inception_4c/5x5"
  type: "Convolution"
  bottom: "inception_4c/5x5_reduce"
  top: "inception_4c/5x5"
  param {
    lr_mult: 1
    decay_mult: 1
  }
  param {
    lr_mult: 2
    decay_mult: 0
  }
  convolution_param {
    num_output: 64
    pad: 2
    kernel_size: 5
    weight_filler {
      type: "xavier"
      std: 0.03
    }
    bias_filler {
      type: "constant"
      value: 0.2
    }
  }
}
layer {
  name: "inception_4c/relu_5x5"
  type: "ReLU"
  bottom: "inception_4c/5x5"
  top: "inception_4c/5x5"
}
layer {
  name: "inception_4c/pool"
  type: "Pooling"
  bottom: "inception_4b/output"
  top: "inception_4c/pool"
  pooling_param {
    pool: MAX
    kernel_size: 3
    stride: 1
    pad: 1
  }
}
layer {
  name: "inception_4c/pool_proj"
  type: "Convolution"
  bottom: "inception_4c/pool"
  top: "inception_4c/pool_proj"
  param {
    lr_mult: 1
    decay_mult: 1
  }
  param {
    lr_mult: 2
    decay_mult: 0
  }
  convolution_param {
    num_output: 64
    kernel_size: 1
    weight_filler {
      type: "xavier"
      std: 0.1
    }
    bias_filler {
      type: "constant"
      value: 0.2
    }
  }
}
layer {
  name: "inception_4c/relu_pool_proj"
  type: "ReLU"
  bottom: "inception_4c/pool_proj"
  top: "inception_4c/pool_proj"
}
layer {
  name: "inception_4c/output"
  type: "Concat"
  bottom: "inception_4c/1x1"
  bottom: "inception_4c/3x3"
  bottom: "inception_4c/5x5"
  bottom: "inception_4c/pool_proj"
  top: "inception_4c/output"
}
layer {
  name: "inception_4d/1x1"
  type: "Convolution"
  bottom: "inception_4c/output"
  top: "inception_4d/1x1"
  param {
    lr_mult: 1
    decay_mult: 1
  }
  param {
    lr_mult: 2
    decay_mult: 0
  }
  convolution_param {
    num_output: 112
    kernel_size: 1
    weight_filler {
      type: "xavier"
      std: 0.03
    }
    bias_filler {
      type: "constant"
      value: 0.2
    }
  }
}
layer {
  name: "inception_4d/relu_1x1"
  type: "ReLU"
  bottom: "inception_4d/1x1"
  top: "inception_4d/1x1"
}
layer {
  name: "inception_4d/3x3_reduce"
  type: "Convolution"
  bottom: "inception_4c/output"
  top: "inception_4d/3x3_reduce"
  param {
    lr_mult: 1
    decay_mult: 1
  }
  param {
    lr_mult: 2
    decay_mult: 0
  }
  convolution_param {
    num_output: 144
    kernel_size: 1
    weight_filler {
      type: "xavier"
      std: 0.09
    }
    bias_filler {
      type: "constant"
      value: 0.2
    }
  }
}
layer {
  name: "inception_4d/relu_3x3_reduce"
  type: "ReLU"
  bottom: "inception_4d/3x3_reduce"
  top: "inception_4d/3x3_reduce"
}
layer {
  name: "inception_4d/3x3"
  type: "Convolution"
  bottom: "inception_4d/3x3_reduce"
  top: "inception_4d/3x3"
  param {
    lr_mult: 1
    decay_mult: 1
  }
  param {
    lr_mult: 2
    decay_mult: 0
  }
  convolution_param {
    num_output: 288
    pad: 1
    kernel_size: 3
    weight_filler {
      type: "xavier"
      std: 0.03
    }
    bias_filler {
      type: "constant"
      value: 0.2
    }
  }
}
layer {
  name: "inception_4d/relu_3x3"
  type: "ReLU"
  bottom: "inception_4d/3x3"
  top: "inception_4d/3x3"
}
layer {
  name: "inception_4d/5x5_reduce"
  type: "Convolution"
  bottom: "inception_4c/output"
  top: "inception_4d/5x5_reduce"
  param {
    lr_mult: 1
    decay_mult: 1
  }
  param {
    lr_mult: 2
    decay_mult: 0
  }
  convolution_param {
    num_output: 32
    kernel_size: 1
    weight_filler {
      type: "xavier"
      std: 0.2
    }
    bias_filler {
      type: "constant"
      value: 0.2
    }
  }
}
layer {
  name: "inception_4d/relu_5x5_reduce"
  type: "ReLU"
  bottom: "inception_4d/5x5_reduce"
  top: "inception_4d/5x5_reduce"
}
layer {
  name: "inception_4d/5x5"
  type: "Convolution"
  bottom: "inception_4d/5x5_reduce"
  top: "inception_4d/5x5"
  param {
    lr_mult: 1
    decay_mult: 1
  }
  param {
    lr_mult: 2
    decay_mult: 0
  }
  convolution_param {
    num_output: 64
    pad: 2
    kernel_size: 5
    weight_filler {
      type: "xavier"
      std: 0.03
    }
    bias_filler {
      type: "constant"
      value: 0.2
    }
  }
}
layer {
  name: "inception_4d/relu_5x5"
  type: "ReLU"
  bottom: "inception_4d/5x5"
  top: "inception_4d/5x5"
}
layer {
  name: "inception_4d/pool"
  type: "Pooling"
  bottom: "inception_4c/output"
  top: "inception_4d/pool"
  pooling_param {
    pool: MAX
    kernel_size: 3
    stride: 1
    pad: 1
  }
}
layer {
  name: "inception_4d/pool_proj"
  type: "Convolution"
  bottom: "inception_4d/pool"
  top: "inception_4d/pool_proj"
  param {
    lr_mult: 1
    decay_mult: 1
  }
  param {
    lr_mult: 2
    decay_mult: 0
  }
  convolution_param {
    num_output: 64
    kernel_size: 1
    weight_filler {
      type: "xavier"
      std: 0.1
    }
    bias_filler {
      type: "constant"
      value: 0.2
    }
  }
}
layer {
  name: "inception_4d/relu_pool_proj"
  type: "ReLU"
  bottom: "inception_4d/pool_proj"
  top: "inception_4d/pool_proj"
}
layer {
  name: "inception_4d/output"
  type: "Concat"
  bottom: "inception_4d/1x1"
  bottom: "inception_4d/3x3"
  bottom: "inception_4d/5x5"
  bottom: "inception_4d/pool_proj"
  top: "inception_4d/output"
}
layer {
  name: "loss2/ave_pool"
  type: "Pooling"
  bottom: "inception_4d/output"
  top: "loss2/ave_pool"
  pooling_param {
    pool: AVE
    kernel_size: 5
    stride: 3
  }
}
layer {
  name: "loss2/conv"
  type: "Convolution"
  bottom: "loss2/ave_pool"
  top: "loss2/conv"
  param {
    lr_mult: 1
    decay_mult: 1
  }
  param {
    lr_mult: 2
    decay_mult: 0
  }
  convolution_param {
    num_output: 128
    kernel_size: 1
    weight_filler {
      type: "xavier"
      std: 0.08
    }
    bias_filler {
      type: "constant"
      value: 0.2
    }
  }
}
layer {
  name: "loss2/relu_conv"
  type: "ReLU"
  bottom: "loss2/conv"
  top: "loss2/conv"
}
layer {
  name: "loss2/fc"
  type: "InnerProduct"
  bottom: "loss2/conv"
  top: "loss2/fc"
  param {
    lr_mult: 1
    decay_mult: 1
  }
  param {
    lr_mult: 2
    decay_mult: 0
  }
  inner_product_param {
    num_output: 1024
    weight_filler {
      type: "xavier"
      std: 0.02
    }
    bias_filler {
      type: "constant"
      value: 0.2
    }
  }
}
layer {
  name: "loss2/relu_fc"
  type: "ReLU"
  bottom: "loss2/fc"
  top: "loss2/fc"
}
layer {
  name: "loss2/drop_fc"
  type: "Dropout"
  bottom: "loss2/fc"
  top: "loss2/fc"
  dropout_param {
    dropout_ratio: 0.7
  }
}
layer {
  name: "loss2/classifier_plantvillage"
  type: "InnerProduct"
  bottom: "loss2/fc"
  top: "loss2/classifier_plantvillage"
  param {
    lr_mult: 1
    decay_mult: 1
  }
  param {
    lr_mult: 2
    decay_mult: 0
  }
  inner_product_param {
    num_output: 38
    weight_filler {
      type: "xavier"
      std: 0.0009765625
    }
    bias_filler {
      type: "constant"
      value: 0
    }
  }
}
layer {
  name: "inception_4e/1x1"
  type: "Convolution"
  bottom: "inception_4d/output"
  top: "inception_4e/1x1"
  param {
    lr_mult: 1
    decay_mult: 1
  }
  param {
    lr_mult: 2
    decay_mult: 0
  }
  convolution_param {
    num_output: 256
    kernel_size: 1
    weight_filler {
      type: "xavier"
      std: 0.03
    }
    bias_filler {
      type: "constant"
      value: 0.2
    }
  }
}
layer {
  name: "inception_4e/relu_1x1"
  type: "ReLU"
  bottom: "inception_4e/1x1"
  top: "inception_4e/1x1"
}
layer {
  name: "inception_4e/3x3_reduce"
  type: "Convolution"
  bottom: "inception_4d/output"
  top: "inception_4e/3x3_reduce"
  param {
    lr_mult: 1
    decay_mult: 1
  }
  param {
    lr_mult: 2
    decay_mult: 0
  }
  convolution_param {
    num_output: 160
    kernel_size: 1
    weight_filler {
      type: "xavier"
      std: 0.09
    }
    bias_filler {
      type: "constant"
      value: 0.2
    }
  }
}
layer {
  name: "inception_4e/relu_3x3_reduce"
  type: "ReLU"
  bottom: "inception_4e/3x3_reduce"
  top: "inception_4e/3x3_reduce"
}
layer {
  name: "inception_4e/3x3"
  type: "Convolution"
  bottom: "inception_4e/3x3_reduce"
  top: "inception_4e/3x3"
  param {
    lr_mult: 1
    decay_mult: 1
  }
  param {
    lr_mult: 2
    decay_mult: 0
  }
  convolution_param {
    num_output: 320
    pad: 1
    kernel_size: 3
    weight_filler {
      type: "xavier"
      std: 0.03
    }
    bias_filler {
      type: "constant"
      value: 0.2
    }
  }
}
layer {
  name: "inception_4e/relu_3x3"
  type: "ReLU"
  bottom: "inception_4e/3x3"
  top: "inception_4e/3x3"
}
layer {
  name: "inception_4e/5x5_reduce"
  type: "Convolution"
  bottom: "inception_4d/output"
  top: "inception_4e/5x5_reduce"
  param {
    lr_mult: 1
    decay_mult: 1
  }
  param {
    lr_mult: 2
    decay_mult: 0
  }
  convolution_param {
    num_output: 32
    kernel_size: 1
    weight_filler {
      type: "xavier"
      std: 0.2
    }
    bias_filler {
      type: "constant"
      value: 0.2
    }
  }
}
layer {
  name: "inception_4e/relu_5x5_reduce"
  type: "ReLU"
  bottom: "inception_4e/5x5_reduce"
  top: "inception_4e/5x5_reduce"
}
layer {
  name: "inception_4e/5x5"
  type: "Convolution"
  bottom: "inception_4e/5x5_reduce"
  top: "inception_4e/
I0403 19:40:45.725872 25515 layer_factory.hpp:77] Creating layer data
I0403 19:40:45.726472 25515 net.cpp:91] Creating Layer data
I0403 19:40:45.726508 25515 net.cpp:399] data -> data
I0403 19:40:45.726577 25515 net.cpp:399] data -> label
I0403 19:40:45.726619 25515 data_transformer.cpp:25] Loading mean file from: /home/mohanty/data/final_dataset/lmdb/grayscale-80-20/mean.binaryproto
I0403 19:40:45.727788 25520 db_lmdb.cpp:38] Opened lmdb /home/mohanty/data/final_dataset/lmdb/grayscale-80-20/test_db
I0403 19:40:45.740433 25515 data_layer.cpp:41] output data size: 24,3,224,224
I0403 19:40:45.768615 25515 net.cpp:141] Setting up data
I0403 19:40:45.768718 25515 net.cpp:148] Top shape: 24 3 224 224 (3612672)
I0403 19:40:45.768744 25515 net.cpp:148] Top shape: 24 (24)
I0403 19:40:45.768760 25515 net.cpp:156] Memory required for data: 14450784
I0403 19:40:45.768795 25515 layer_factory.hpp:77] Creating layer label_data_1_split
I0403 19:40:45.768827 25515 net.cpp:91] Creating Layer label_data_1_split
I0403 19:40:45.768849 25515 net.cpp:425] label_data_1_split <- label
I0403 19:40:45.768887 25515 net.cpp:399] label_data_1_split -> label_data_1_split_0
I0403 19:40:45.768918 25515 net.cpp:399] label_data_1_split -> label_data_1_split_1
I0403 19:40:45.768940 25515 net.cpp:399] label_data_1_split -> label_data_1_split_2
I0403 19:40:45.768962 25515 net.cpp:399] label_data_1_split -> label_data_1_split_3
I0403 19:40:45.768981 25515 net.cpp:399] label_data_1_split -> label_data_1_split_4
I0403 19:40:45.769001 25515 net.cpp:399] label_data_1_split -> label_data_1_split_5
I0403 19:40:45.769023 25515 net.cpp:399] label_data_1_split -> label_data_1_split_6
I0403 19:40:45.769045 25515 net.cpp:399] label_data_1_split -> label_data_1_split_7
I0403 19:40:45.769063 25515 net.cpp:399] label_data_1_split -> label_data_1_split_8
I0403 19:40:45.769084 25515 net.cpp:399] label_data_1_split -> label_data_1_split_9
I0403 19:40:45.769201 25515 net.cpp:141] Setting up label_data_1_split
I0403 19:40:45.769230 25515 net.cpp:148] Top shape: 24 (24)
I0403 19:40:45.769248 25515 net.cpp:148] Top shape: 24 (24)
I0403 19:40:45.769275 25515 net.cpp:148] Top shape: 24 (24)
I0403 19:40:45.769297 25515 net.cpp:148] Top shape: 24 (24)
I0403 19:40:45.769315 25515 net.cpp:148] Top shape: 24 (24)
I0403 19:40:45.769330 25515 net.cpp:148] Top shape: 24 (24)
I0403 19:40:45.769346 25515 net.cpp:148] Top shape: 24 (24)
I0403 19:40:45.769363 25515 net.cpp:148] Top shape: 24 (24)
I0403 19:40:45.769381 25515 net.cpp:148] Top shape: 24 (24)
I0403 19:40:45.769397 25515 net.cpp:148] Top shape: 24 (24)
I0403 19:40:45.769443 25515 net.cpp:156] Memory required for data: 14451744
I0403 19:40:45.769459 25515 layer_factory.hpp:77] Creating layer conv1/7x7_s2
I0403 19:40:45.769498 25515 net.cpp:91] Creating Layer conv1/7x7_s2
I0403 19:40:45.769520 25515 net.cpp:425] conv1/7x7_s2 <- data
I0403 19:40:45.769541 25515 net.cpp:399] conv1/7x7_s2 -> conv1/7x7_s2
I0403 19:40:45.911861 25515 net.cpp:141] Setting up conv1/7x7_s2
I0403 19:40:45.911977 25515 net.cpp:148] Top shape: 24 64 112 112 (19267584)
I0403 19:40:45.911994 25515 net.cpp:156] Memory required for data: 91522080
I0403 19:40:45.912034 25515 layer_factory.hpp:77] Creating layer conv1/relu_7x7
I0403 19:40:45.912065 25515 net.cpp:91] Creating Layer conv1/relu_7x7
I0403 19:40:45.912086 25515 net.cpp:425] conv1/relu_7x7 <- conv1/7x7_s2
I0403 19:40:45.912104 25515 net.cpp:386] conv1/relu_7x7 -> conv1/7x7_s2 (in-place)
I0403 19:40:45.912363 25515 net.cpp:141] Setting up conv1/relu_7x7
I0403 19:40:45.912392 25515 net.cpp:148] Top shape: 24 64 112 112 (19267584)
I0403 19:40:45.912408 25515 net.cpp:156] Memory required for data: 168592416
I0403 19:40:45.912425 25515 layer_factory.hpp:77] Creating layer pool1/3x3_s2
I0403 19:40:45.912453 25515 net.cpp:91] Creating Layer pool1/3x3_s2
I0403 19:40:45.912472 25515 net.cpp:425] pool1/3x3_s2 <- conv1/7x7_s2
I0403 19:40:45.912492 25515 net.cpp:399] pool1/3x3_s2 -> pool1/3x3_s2
I0403 19:40:45.912571 25515 net.cpp:141] Setting up pool1/3x3_s2
I0403 19:40:45.912597 25515 net.cpp:148] Top shape: 24 64 56 56 (4816896)
I0403 19:40:45.912614 25515 net.cpp:156] Memory required for data: 187860000
I0403 19:40:45.912628 25515 layer_factory.hpp:77] Creating layer pool1/norm1
I0403 19:40:45.912655 25515 net.cpp:91] Creating Layer pool1/norm1
I0403 19:40:45.912674 25515 net.cpp:425] pool1/norm1 <- pool1/3x3_s2
I0403 19:40:45.912693 25515 net.cpp:399] pool1/norm1 -> pool1/norm1
I0403 19:40:45.912969 25515 net.cpp:141] Setting up pool1/norm1
I0403 19:40:45.912999 25515 net.cpp:148] Top shape: 24 64 56 56 (4816896)
I0403 19:40:45.913017 25515 net.cpp:156] Memory required for data: 207127584
I0403 19:40:45.913030 25515 layer_factory.hpp:77] Creating layer conv2/3x3_reduce
I0403 19:40:45.913059 25515 net.cpp:91] Creating Layer conv2/3x3_reduce
I0403 19:40:45.913079 25515 net.cpp:425] conv2/3x3_reduce <- pool1/norm1
I0403 19:40:45.913097 25515 net.cpp:399] conv2/3x3_reduce -> conv2/3x3_reduce
I0403 19:40:45.914400 25515 net.cpp:141] Setting up conv2/3x3_reduce
I0403 19:40:45.914430 25515 net.cpp:148] Top shape: 24 64 56 56 (4816896)
I0403 19:40:45.914448 25515 net.cpp:156] Memory required for data: 226395168
I0403 19:40:45.914469 25515 layer_factory.hpp:77] Creating layer conv2/relu_3x3_reduce
I0403 19:40:45.914489 25515 net.cpp:91] Creating Layer conv2/relu_3x3_reduce
I0403 19:40:45.914505 25515 net.cpp:425] conv2/relu_3x3_reduce <- conv2/3x3_reduce
I0403 19:40:45.914521 25515 net.cpp:386] conv2/relu_3x3_reduce -> conv2/3x3_reduce (in-place)
I0403 19:40:45.914758 25515 net.cpp:141] Setting up conv2/relu_3x3_reduce
I0403 19:40:45.914788 25515 net.cpp:148] Top shape: 24 64 56 56 (4816896)
I0403 19:40:45.914805 25515 net.cpp:156] Memory required for data: 245662752
I0403 19:40:45.914821 25515 layer_factory.hpp:77] Creating layer conv2/3x3
I0403 19:40:45.914844 25515 net.cpp:91] Creating Layer conv2/3x3
I0403 19:40:45.914861 25515 net.cpp:425] conv2/3x3 <- conv2/3x3_reduce
I0403 19:40:45.914881 25515 net.cpp:399] conv2/3x3 -> conv2/3x3
I0403 19:40:45.917008 25515 net.cpp:141] Setting up conv2/3x3
I0403 19:40:45.917042 25515 net.cpp:148] Top shape: 24 192 56 56 (14450688)
I0403 19:40:45.917057 25515 net.cpp:156] Memory required for data: 303465504
I0403 19:40:45.917079 25515 layer_factory.hpp:77] Creating layer conv2/relu_3x3
I0403 19:40:45.917101 25515 net.cpp:91] Creating Layer conv2/relu_3x3
I0403 19:40:45.917117 25515 net.cpp:425] conv2/relu_3x3 <- conv2/3x3
I0403 19:40:45.917135 25515 net.cpp:386] conv2/relu_3x3 -> conv2/3x3 (in-place)
I0403 19:40:45.917289 25515 net.cpp:141] Setting up conv2/relu_3x3
I0403 19:40:45.917320 25515 net.cpp:148] Top shape: 24 192 56 56 (14450688)
I0403 19:40:45.917369 25515 net.cpp:156] Memory required for data: 361268256
I0403 19:40:45.917387 25515 layer_factory.hpp:77] Creating layer conv2/norm2
I0403 19:40:45.917407 25515 net.cpp:91] Creating Layer conv2/norm2
I0403 19:40:45.917424 25515 net.cpp:425] conv2/norm2 <- conv2/3x3
I0403 19:40:45.917443 25515 net.cpp:399] conv2/norm2 -> conv2/norm2
I0403 19:40:45.917711 25515 net.cpp:141] Setting up conv2/norm2
I0403 19:40:45.917739 25515 net.cpp:148] Top shape: 24 192 56 56 (14450688)
I0403 19:40:45.917757 25515 net.cpp:156] Memory required for data: 419071008
I0403 19:40:45.917773 25515 layer_factory.hpp:77] Creating layer pool2/3x3_s2
I0403 19:40:45.917791 25515 net.cpp:91] Creating Layer pool2/3x3_s2
I0403 19:40:45.917809 25515 net.cpp:425] pool2/3x3_s2 <- conv2/norm2
I0403 19:40:45.917825 25515 net.cpp:399] pool2/3x3_s2 -> pool2/3x3_s2
I0403 19:40:45.917872 25515 net.cpp:141] Setting up pool2/3x3_s2
I0403 19:40:45.917898 25515 net.cpp:148] Top shape: 24 192 28 28 (3612672)
I0403 19:40:45.917914 25515 net.cpp:156] Memory required for data: 433521696
I0403 19:40:45.917930 25515 layer_factory.hpp:77] Creating layer pool2/3x3_s2_pool2/3x3_s2_0_split
I0403 19:40:45.917948 25515 net.cpp:91] Creating Layer pool2/3x3_s2_pool2/3x3_s2_0_split
I0403 19:40:45.917964 25515 net.cpp:425] pool2/3x3_s2_pool2/3x3_s2_0_split <- pool2/3x3_s2
I0403 19:40:45.917981 25515 net.cpp:399] pool2/3x3_s2_pool2/3x3_s2_0_split -> pool2/3x3_s2_pool2/3x3_s2_0_split_0
I0403 19:40:45.918002 25515 net.cpp:399] pool2/3x3_s2_pool2/3x3_s2_0_split -> pool2/3x3_s2_pool2/3x3_s2_0_split_1
I0403 19:40:45.918025 25515 net.cpp:399] pool2/3x3_s2_pool2/3x3_s2_0_split -> pool2/3x3_s2_pool2/3x3_s2_0_split_2
I0403 19:40:45.918046 25515 net.cpp:399] pool2/3x3_s2_pool2/3x3_s2_0_split -> pool2/3x3_s2_pool2/3x3_s2_0_split_3
I0403 19:40:45.918109 25515 net.cpp:141] Setting up pool2/3x3_s2_pool2/3x3_s2_0_split
I0403 19:40:45.918138 25515 net.cpp:148] Top shape: 24 192 28 28 (3612672)
I0403 19:40:45.918155 25515 net.cpp:148] Top shape: 24 192 28 28 (3612672)
I0403 19:40:45.918172 25515 net.cpp:148] Top shape: 24 192 28 28 (3612672)
I0403 19:40:45.918190 25515 net.cpp:148] Top shape: 24 192 28 28 (3612672)
I0403 19:40:45.918202 25515 net.cpp:156] Memory required for data: 491324448
I0403 19:40:45.918218 25515 layer_factory.hpp:77] Creating layer inception_3a/1x1
I0403 19:40:45.918238 25515 net.cpp:91] Creating Layer inception_3a/1x1
I0403 19:40:45.918272 25515 net.cpp:425] inception_3a/1x1 <- pool2/3x3_s2_pool2/3x3_s2_0_split_0
I0403 19:40:45.918295 25515 net.cpp:399] inception_3a/1x1 -> inception_3a/1x1
I0403 19:40:45.919782 25515 net.cpp:141] Setting up inception_3a/1x1
I0403 19:40:45.919814 25515 net.cpp:148] Top shape: 24 64 28 28 (1204224)
I0403 19:40:45.919829 25515 net.cpp:156] Memory required for data: 496141344
I0403 19:40:45.919849 25515 layer_factory.hpp:77] Creating layer inception_3a/relu_1x1
I0403 19:40:45.919872 25515 net.cpp:91] Creating Layer inception_3a/relu_1x1
I0403 19:40:45.919891 25515 net.cpp:425] inception_3a/relu_1x1 <- inception_3a/1x1
I0403 19:40:45.919909 25515 net.cpp:386] inception_3a/relu_1x1 -> inception_3a/1x1 (in-place)
I0403 19:40:45.920078 25515 net.cpp:141] Setting up inception_3a/relu_1x1
I0403 19:40:45.920110 25515 net.cpp:148] Top shape: 24 64 28 28 (1204224)
I0403 19:40:45.920127 25515 net.cpp:156] Memory required for data: 500958240
I0403 19:40:45.920142 25515 layer_factory.hpp:77] Creating layer inception_3a/3x3_reduce
I0403 19:40:45.920163 25515 net.cpp:91] Creating Layer inception_3a/3x3_reduce
I0403 19:40:45.920186 25515 net.cpp:425] inception_3a/3x3_reduce <- pool2/3x3_s2_pool2/3x3_s2_0_split_1
I0403 19:40:45.920205 25515 net.cpp:399] inception_3a/3x3_reduce -> inception_3a/3x3_reduce
I0403 19:40:45.921825 25515 net.cpp:141] Setting up inception_3a/3x3_reduce
I0403 19:40:45.921860 25515 net.cpp:148] Top shape: 24 96 28 28 (1806336)
I0403 19:40:45.921877 25515 net.cpp:156] Memory required for data: 508183584
I0403 19:40:45.921902 25515 layer_factory.hpp:77] Creating layer inception_3a/relu_3x3_reduce
I0403 19:40:45.921941 25515 net.cpp:91] Creating Layer inception_3a/relu_3x3_reduce
I0403 19:40:45.921962 25515 net.cpp:425] inception_3a/relu_3x3_reduce <- inception_3a/3x3_reduce
I0403 19:40:45.921982 25515 net.cpp:386] inception_3a/relu_3x3_reduce -> inception_3a/3x3_reduce (in-place)
I0403 19:40:45.922163 25515 net.cpp:141] Setting up inception_3a/relu_3x3_reduce
I0403 19:40:45.922190 25515 net.cpp:148] Top shape: 24 96 28 28 (1806336)
I0403 19:40:45.922205 25515 net.cpp:156] Memory required for data: 515408928
I0403 19:40:45.922219 25515 layer_factory.hpp:77] Creating layer inception_3a/3x3
I0403 19:40:45.922242 25515 net.cpp:91] Creating Layer inception_3a/3x3
I0403 19:40:45.922262 25515 net.cpp:425] inception_3a/3x3 <- inception_3a/3x3_reduce
I0403 19:40:45.922291 25515 net.cpp:399] inception_3a/3x3 -> inception_3a/3x3
I0403 19:40:45.923880 25515 net.cpp:141] Setting up inception_3a/3x3
I0403 19:40:45.923913 25515 net.cpp:148] Top shape: 24 128 28 28 (2408448)
I0403 19:40:45.923928 25515 net.cpp:156] Memory required for data: 525042720
I0403 19:40:45.923944 25515 layer_factory.hpp:77] Creating layer inception_3a/relu_3x3
I0403 19:40:45.923965 25515 net.cpp:91] Creating Layer inception_3a/relu_3x3
I0403 19:40:45.923984 25515 net.cpp:425] inception_3a/relu_3x3 <- inception_3a/3x3
I0403 19:40:45.924002 25515 net.cpp:386] inception_3a/relu_3x3 -> inception_3a/3x3 (in-place)
I0403 19:40:45.924268 25515 net.cpp:141] Setting up inception_3a/relu_3x3
I0403 19:40:45.924310 25515 net.cpp:148] Top shape: 24 128 28 28 (2408448)
I0403 19:40:45.924330 25515 net.cpp:156] Memory required for data: 534676512
I0403 19:40:45.924345 25515 layer_factory.hpp:77] Creating layer inception_3a/5x5_reduce
I0403 19:40:45.924368 25515 net.cpp:91] Creating Layer inception_3a/5x5_reduce
I0403 19:40:45.924389 25515 net.cpp:425] inception_3a/5x5_reduce <- pool2/3x3_s2_pool2/3x3_s2_0_split_2
I0403 19:40:45.924410 25515 net.cpp:399] inception_3a/5x5_reduce -> inception_3a/5x5_reduce
I0403 19:40:45.925338 25515 net.cpp:141] Setting up inception_3a/5x5_reduce
I0403 19:40:45.925369 25515 net.cpp:148] Top shape: 24 16 28 28 (301056)
I0403 19:40:45.925387 25515 net.cpp:156] Memory required for data: 535880736
I0403 19:40:45.925405 25515 layer_factory.hpp:77] Creating layer inception_3a/relu_5x5_reduce
I0403 19:40:45.925426 25515 net.cpp:91] Creating Layer inception_3a/relu_5x5_reduce
I0403 19:40:45.925446 25515 net.cpp:425] inception_3a/relu_5x5_reduce <- inception_3a/5x5_reduce
I0403 19:40:45.925465 25515 net.cpp:386] inception_3a/relu_5x5_reduce -> inception_3a/5x5_reduce (in-place)
I0403 19:40:45.925747 25515 net.cpp:141] Setting up inception_3a/relu_5x5_reduce
I0403 19:40:45.925778 25515 net.cpp:148] Top shape: 24 16 28 28 (301056)
I0403 19:40:45.925797 25515 net.cpp:156] Memory required for data: 537084960
I0403 19:40:45.925812 25515 layer_factory.hpp:77] Creating layer inception_3a/5x5
I0403 19:40:45.925835 25515 net.cpp:91] Creating Layer inception_3a/5x5
I0403 19:40:45.925854 25515 net.cpp:425] inception_3a/5x5 <- inception_3a/5x5_reduce
I0403 19:40:45.925873 25515 net.cpp:399] inception_3a/5x5 -> inception_3a/5x5
I0403 19:40:45.926854 25515 net.cpp:141] Setting up inception_3a/5x5
I0403 19:40:45.926884 25515 net.cpp:148] Top shape: 24 32 28 28 (602112)
I0403 19:40:45.926903 25515 net.cpp:156] Memory required for data: 539493408
I0403 19:40:45.926919 25515 layer_factory.hpp:77] Creating layer inception_3a/relu_5x5
I0403 19:40:45.926941 25515 net.cpp:91] Creating Layer inception_3a/relu_5x5
I0403 19:40:45.926957 25515 net.cpp:425] inception_3a/relu_5x5 <- inception_3a/5x5
I0403 19:40:45.926975 25515 net.cpp:386] inception_3a/relu_5x5 -> inception_3a/5x5 (in-place)
I0403 19:40:45.927141 25515 net.cpp:141] Setting up inception_3a/relu_5x5
I0403 19:40:45.927170 25515 net.cpp:148] Top shape: 24 32 28 28 (602112)
I0403 19:40:45.927186 25515 net.cpp:156] Memory required for data: 541901856
I0403 19:40:45.927203 25515 layer_factory.hpp:77] Creating layer inception_3a/pool
I0403 19:40:45.927220 25515 net.cpp:91] Creating Layer inception_3a/pool
I0403 19:40:45.927254 25515 net.cpp:425] inception_3a/pool <- pool2/3x3_s2_pool2/3x3_s2_0_split_3
I0403 19:40:45.927276 25515 net.cpp:399] inception_3a/pool -> inception_3a/pool
I0403 19:40:45.927342 25515 net.cpp:141] Setting up inception_3a/pool
I0403 19:40:45.927369 25515 net.cpp:148] Top shape: 24 192 28 28 (3612672)
I0403 19:40:45.927386 25515 net.cpp:156] Memory required for data: 556352544
I0403 19:40:45.927398 25515 layer_factory.hpp:77] Creating layer inception_3a/pool_proj
I0403 19:40:45.927422 25515 net.cpp:91] Creating Layer inception_3a/pool_proj
I0403 19:40:45.927440 25515 net.cpp:425] inception_3a/pool_proj <- inception_3a/pool
I0403 19:40:45.927461 25515 net.cpp:399] inception_3a/pool_proj -> inception_3a/pool_proj
I0403 19:40:45.928387 25515 net.cpp:141] Setting up inception_3a/pool_proj
I0403 19:40:45.928419 25515 net.cpp:148] Top shape: 24 32 28 28 (602112)
I0403 19:40:45.928436 25515 net.cpp:156] Memory required for data: 558760992
I0403 19:40:45.928458 25515 layer_factory.hpp:77] Creating layer inception_3a/relu_pool_proj
I0403 19:40:45.928483 25515 net.cpp:91] Creating Layer inception_3a/relu_pool_proj
I0403 19:40:45.928503 25515 net.cpp:425] inception_3a/relu_pool_proj <- inception_3a/pool_proj
I0403 19:40:45.928520 25515 net.cpp:386] inception_3a/relu_pool_proj -> inception_3a/pool_proj (in-place)
I0403 19:40:45.928789 25515 net.cpp:141] Setting up inception_3a/relu_pool_proj
I0403 19:40:45.928822 25515 net.cpp:148] Top shape: 24 32 28 28 (602112)
I0403 19:40:45.928838 25515 net.cpp:156] Memory required for data: 561169440
I0403 19:40:45.928853 25515 layer_factory.hpp:77] Creating layer inception_3a/output
I0403 19:40:45.928872 25515 net.cpp:91] Creating Layer inception_3a/output
I0403 19:40:45.928890 25515 net.cpp:425] inception_3a/output <- inception_3a/1x1
I0403 19:40:45.928908 25515 net.cpp:425] inception_3a/output <- inception_3a/3x3
I0403 19:40:45.928926 25515 net.cpp:425] inception_3a/output <- inception_3a/5x5
I0403 19:40:45.928943 25515 net.cpp:425] inception_3a/output <- inception_3a/pool_proj
I0403 19:40:45.928961 25515 net.cpp:399] inception_3a/output -> inception_3a/output
I0403 19:40:45.929010 25515 net.cpp:141] Setting up inception_3a/output
I0403 19:40:45.929038 25515 net.cpp:148] Top shape: 24 256 28 28 (4816896)
I0403 19:40:45.929054 25515 net.cpp:156] Memory required for data: 580437024
I0403 19:40:45.929069 25515 layer_factory.hpp:77] Creating layer inception_3a/output_inception_3a/output_0_split
I0403 19:40:45.929086 25515 net.cpp:91] Creating Layer inception_3a/output_inception_3a/output_0_split
I0403 19:40:45.929102 25515 net.cpp:425] inception_3a/output_inception_3a/output_0_split <- inception_3a/output
I0403 19:40:45.929122 25515 net.cpp:399] inception_3a/output_inception_3a/output_0_split -> inception_3a/output_inception_3a/output_0_split_0
I0403 19:40:45.929147 25515 net.cpp:399] inception_3a/output_inception_3a/output_0_split -> inception_3a/output_inception_3a/output_0_split_1
I0403 19:40:45.929173 25515 net.cpp:399] inception_3a/output_inception_3a/output_0_split -> inception_3a/output_inception_3a/output_0_split_2
I0403 19:40:45.929198 25515 net.cpp:399] inception_3a/output_inception_3a/output_0_split -> inception_3a/output_inception_3a/output_0_split_3
I0403 19:40:45.929271 25515 net.cpp:141] Setting up inception_3a/output_inception_3a/output_0_split
I0403 19:40:45.929316 25515 net.cpp:148] Top shape: 24 256 28 28 (4816896)
I0403 19:40:45.929337 25515 net.cpp:148] Top shape: 24 256 28 28 (4816896)
I0403 19:40:45.929352 25515 net.cpp:148] Top shape: 24 256 28 28 (4816896)
I0403 19:40:45.929368 25515 net.cpp:148] Top shape: 24 256 28 28 (4816896)
I0403 19:40:45.929383 25515 net.cpp:156] Memory required for data: 657507360
I0403 19:40:45.929397 25515 layer_factory.hpp:77] Creating layer inception_3b/1x1
I0403 19:40:45.929422 25515 net.cpp:91] Creating Layer inception_3b/1x1
I0403 19:40:45.929441 25515 net.cpp:425] inception_3b/1x1 <- inception_3a/output_inception_3a/output_0_split_0
I0403 19:40:45.929463 25515 net.cpp:399] inception_3b/1x1 -> inception_3b/1x1
I0403 19:40:45.930604 25515 net.cpp:141] Setting up inception_3b/1x1
I0403 19:40:45.930647 25515 net.cpp:148] Top shape: 24 128 28 28 (2408448)
I0403 19:40:45.930678 25515 net.cpp:156] Memory required for data: 667141152
I0403 19:40:45.930699 25515 layer_factory.hpp:77] Creating layer inception_3b/relu_1x1
I0403 19:40:45.930723 25515 net.cpp:91] Creating Layer inception_3b/relu_1x1
I0403 19:40:45.930742 25515 net.cpp:425] inception_3b/relu_1x1 <- inception_3b/1x1
I0403 19:40:45.930762 25515 net.cpp:386] inception_3b/relu_1x1 -> inception_3b/1x1 (in-place)
I0403 19:40:45.930932 25515 net.cpp:141] Setting up inception_3b/relu_1x1
I0403 19:40:45.930963 25515 net.cpp:148] Top shape: 24 128 28 28 (2408448)
I0403 19:40:45.930980 25515 net.cpp:156] Memory required for data: 676774944
I0403 19:40:45.930997 25515 layer_factory.hpp:77] Creating layer inception_3b/3x3_reduce
I0403 19:40:45.931022 25515 net.cpp:91] Creating Layer inception_3b/3x3_reduce
I0403 19:40:45.931042 25515 net.cpp:425] inception_3b/3x3_reduce <- inception_3a/output_inception_3a/output_0_split_1
I0403 19:40:45.931061 25515 net.cpp:399] inception_3b/3x3_reduce -> inception_3b/3x3_reduce
I0403 19:40:45.932174 25515 net.cpp:141] Setting up inception_3b/3x3_reduce
I0403 19:40:45.932207 25515 net.cpp:148] Top shape: 24 128 28 28 (2408448)
I0403 19:40:45.932224 25515 net.cpp:156] Memory required for data: 686408736
I0403 19:40:45.932245 25515 layer_factory.hpp:77] Creating layer inception_3b/relu_3x3_reduce
I0403 19:40:45.932263 25515 net.cpp:91] Creating Layer inception_3b/relu_3x3_reduce
I0403 19:40:45.932281 25515 net.cpp:425] inception_3b/relu_3x3_reduce <- inception_3b/3x3_reduce
I0403 19:40:45.932309 25515 net.cpp:386] inception_3b/relu_3x3_reduce -> inception_3b/3x3_reduce (in-place)
I0403 19:40:45.932485 25515 net.cpp:141] Setting up inception_3b/relu_3x3_reduce
I0403 19:40:45.932517 25515 net.cpp:148] Top shape: 24 128 28 28 (2408448)
I0403 19:40:45.932531 25515 net.cpp:156] Memory required for data: 696042528
I0403 19:40:45.932546 25515 layer_factory.hpp:77] Creating layer inception_3b/3x3
I0403 19:40:45.932574 25515 net.cpp:91] Creating Layer inception_3b/3x3
I0403 19:40:45.932595 25515 net.cpp:425] inception_3b/3x3 <- inception_3b/3x3_reduce
I0403 19:40:45.932620 25515 net.cpp:399] inception_3b/3x3 -> inception_3b/3x3
I0403 19:40:45.935549 25515 net.cpp:141] Setting up inception_3b/3x3
I0403 19:40:45.935581 25515 net.cpp:148] Top shape: 24 192 28 28 (3612672)
I0403 19:40:45.935600 25515 net.cpp:156] Memory required for data: 710493216
I0403 19:40:45.935617 25515 layer_factory.hpp:77] Creating layer inception_3b/relu_3x3
I0403 19:40:45.935639 25515 net.cpp:91] Creating Layer inception_3b/relu_3x3
I0403 19:40:45.935659 25515 net.cpp:425] inception_3b/relu_3x3 <- inception_3b/3x3
I0403 19:40:45.935679 25515 net.cpp:386] inception_3b/relu_3x3 -> inception_3b/3x3 (in-place)
I0403 19:40:45.935950 25515 net.cpp:141] Setting up inception_3b/relu_3x3
I0403 19:40:45.935979 25515 net.cpp:148] Top shape: 24 192 28 28 (3612672)
I0403 19:40:45.935997 25515 net.cpp:156] Memory required for data: 724943904
I0403 19:40:45.936012 25515 layer_factory.hpp:77] Creating layer inception_3b/5x5_reduce
I0403 19:40:45.936038 25515 net.cpp:91] Creating Layer inception_3b/5x5_reduce
I0403 19:40:45.936060 25515 net.cpp:425] inception_3b/5x5_reduce <- inception_3a/output_inception_3a/output_0_split_2
I0403 19:40:45.936080 25515 net.cpp:399] inception_3b/5x5_reduce -> inception_3b/5x5_reduce
I0403 19:40:45.937052 25515 net.cpp:141] Setting up inception_3b/5x5_reduce
I0403 19:40:45.937086 25515 net.cpp:148] Top shape: 24 32 28 28 (602112)
I0403 19:40:45.937104 25515 net.cpp:156] Memory required for data: 727352352
I0403 19:40:45.937124 25515 layer_factory.hpp:77] Creating layer inception_3b/relu_5x5_reduce
I0403 19:40:45.937147 25515 net.cpp:91] Creating Layer inception_3b/relu_5x5_reduce
I0403 19:40:45.937167 25515 net.cpp:425] inception_3b/relu_5x5_reduce <- inception_3b/5x5_reduce
I0403 19:40:45.937187 25515 net.cpp:386] inception_3b/relu_5x5_reduce -> inception_3b/5x5_reduce (in-place)
I0403 19:40:45.937383 25515 net.cpp:141] Setting up inception_3b/relu_5x5_reduce
I0403 19:40:45.937415 25515 net.cpp:148] Top shape: 24 32 28 28 (602112)
I0403 19:40:45.937433 25515 net.cpp:156] Memory required for data: 729760800
I0403 19:40:45.937448 25515 layer_factory.hpp:77] Creating layer inception_3b/5x5
I0403 19:40:45.937472 25515 net.cpp:91] Creating Layer inception_3b/5x5
I0403 19:40:45.937491 25515 net.cpp:425] inception_3b/5x5 <- inception_3b/5x5_reduce
I0403 19:40:45.937511 25515 net.cpp:399] inception_3b/5x5 -> inception_3b/5x5
I0403 19:40:45.939513 25515 net.cpp:141] Setting up inception_3b/5x5
I0403 19:40:45.939548 25515 net.cpp:148] Top shape: 24 96 28 28 (1806336)
I0403 19:40:45.939566 25515 net.cpp:156] Memory required for data: 736986144
I0403 19:40:45.939585 25515 layer_factory.hpp:77] Creating layer inception_3b/relu_5x5
I0403 19:40:45.939605 25515 net.cpp:91] Creating Layer inception_3b/relu_5x5
I0403 19:40:45.939621 25515 net.cpp:425] inception_3b/relu_5x5 <- inception_3b/5x5
I0403 19:40:45.939641 25515 net.cpp:386] inception_3b/relu_5x5 -> inception_3b/5x5 (in-place)
I0403 19:40:45.939836 25515 net.cpp:141] Setting up inception_3b/relu_5x5
I0403 19:40:45.939867 25515 net.cpp:148] Top shape: 24 96 28 28 (1806336)
I0403 19:40:45.939883 25515 net.cpp:156] Memory required for data: 744211488
I0403 19:40:45.939900 25515 layer_factory.hpp:77] Creating layer inception_3b/pool
I0403 19:40:45.939920 25515 net.cpp:91] Creating Layer inception_3b/pool
I0403 19:40:45.939939 25515 net.cpp:425] inception_3b/pool <- inception_3a/output_inception_3a/output_0_split_3
I0403 19:40:45.939957 25515 net.cpp:399] inception_3b/pool -> inception_3b/pool
I0403 19:40:45.940013 25515 net.cpp:141] Setting up inception_3b/pool
I0403 19:40:45.940043 25515 net.cpp:148] Top shape: 24 256 28 28 (4816896)
I0403 19:40:45.940058 25515 net.cpp:156] Memory required for data: 763479072
I0403 19:40:45.940073 25515 layer_factory.hpp:77] Creating layer inception_3b/pool_proj
I0403 19:40:45.940098 25515 net.cpp:91] Creating Layer inception_3b/pool_proj
I0403 19:40:45.940119 25515 net.cpp:425] inception_3b/pool_proj <- inception_3b/pool
I0403 19:40:45.940141 25515 net.cpp:399] inception_3b/pool_proj -> inception_3b/pool_proj
I0403 19:40:45.941195 25515 net.cpp:141] Setting up inception_3b/pool_proj
I0403 19:40:45.941229 25515 net.cpp:148] Top shape: 24 64 28 28 (1204224)
I0403 19:40:45.941248 25515 net.cpp:156] Memory required for data: 768295968
I0403 19:40:45.941267 25515 layer_factory.hpp:77] Creating layer inception_3b/relu_pool_proj
I0403 19:40:45.941293 25515 net.cpp:91] Creating Layer inception_3b/relu_pool_proj
I0403 19:40:45.941314 25515 net.cpp:425] inception_3b/relu_pool_proj <- inception_3b/pool_proj
I0403 19:40:45.941336 25515 net.cpp:386] inception_3b/relu_pool_proj -> inception_3b/pool_proj (in-place)
I0403 19:40:45.941718 25515 net.cpp:141] Setting up inception_3b/relu_pool_proj
I0403 19:40:45.941753 25515 net.cpp:148] Top shape: 24 64 28 28 (1204224)
I0403 19:40:45.941769 25515 net.cpp:156] Memory required for data: 773112864
I0403 19:40:45.941784 25515 layer_factory.hpp:77] Creating layer inception_3b/output
I0403 19:40:45.941804 25515 net.cpp:91] Creating Layer inception_3b/output
I0403 19:40:45.941823 25515 net.cpp:425] inception_3b/output <- inception_3b/1x1
I0403 19:40:45.941840 25515 net.cpp:425] inception_3b/output <- inception_3b/3x3
I0403 19:40:45.941859 25515 net.cpp:425] inception_3b/output <- inception_3b/5x5
I0403 19:40:45.941874 25515 net.cpp:425] inception_3b/output <- inception_3b/pool_proj
I0403 19:40:45.941892 25515 net.cpp:399] inception_3b/output -> inception_3b/output
I0403 19:40:45.941938 25515 net.cpp:141] Setting up inception_3b/output
I0403 19:40:45.941967 25515 net.cpp:148] Top shape: 24 480 28 28 (9031680)
I0403 19:40:45.941984 25515 net.cpp:156] Memory required for data: 809239584
I0403 19:40:45.942000 25515 layer_factory.hpp:77] Creating layer pool3/3x3_s2
I0403 19:40:45.942023 25515 net.cpp:91] Creating Layer pool3/3x3_s2
I0403 19:40:45.942044 25515 net.cpp:425] pool3/3x3_s2 <- inception_3b/output
I0403 19:40:45.942081 25515 net.cpp:399] pool3/3x3_s2 -> pool3/3x3_s2
I0403 19:40:45.942145 25515 net.cpp:141] Setting up pool3/3x3_s2
I0403 19:40:45.942173 25515 net.cpp:148] Top shape: 24 480 14 14 (2257920)
I0403 19:40:45.942190 25515 net.cpp:156] Memory required for data: 818271264
I0403 19:40:45.942208 25515 layer_factory.hpp:77] Creating layer pool3/3x3_s2_pool3/3x3_s2_0_split
I0403 19:40:45.942225 25515 net.cpp:91] Creating Layer pool3/3x3_s2_pool3/3x3_s2_0_split
I0403 19:40:45.942242 25515 net.cpp:425] pool3/3x3_s2_pool3/3x3_s2_0_split <- pool3/3x3_s2
I0403 19:40:45.942262 25515 net.cpp:399] pool3/3x3_s2_pool3/3x3_s2_0_split -> pool3/3x3_s2_pool3/3x3_s2_0_split_0
I0403 19:40:45.942286 25515 net.cpp:399] pool3/3x3_s2_pool3/3x3_s2_0_split -> pool3/3x3_s2_pool3/3x3_s2_0_split_1
I0403 19:40:45.942315 25515 net.cpp:399] pool3/3x3_s2_pool3/3x3_s2_0_split -> pool3/3x3_s2_pool3/3x3_s2_0_split_2
I0403 19:40:45.942337 25515 net.cpp:399] pool3/3x3_s2_pool3/3x3_s2_0_split -> pool3/3x3_s2_pool3/3x3_s2_0_split_3
I0403 19:40:45.942430 25515 net.cpp:141] Setting up pool3/3x3_s2_pool3/3x3_s2_0_split
I0403 19:40:45.942462 25515 net.cpp:148] Top shape: 24 480 14 14 (2257920)
I0403 19:40:45.942482 25515 net.cpp:148] Top shape: 24 480 14 14 (2257920)
I0403 19:40:45.942499 25515 net.cpp:148] Top shape: 24 480 14 14 (2257920)
I0403 19:40:45.942517 25515 net.cpp:148] Top shape: 24 480 14 14 (2257920)
I0403 19:40:45.942533 25515 net.cpp:156] Memory required for data: 854397984
I0403 19:40:45.942549 25515 layer_factory.hpp:77] Creating layer inception_4a/1x1
I0403 19:40:45.942572 25515 net.cpp:91] Creating Layer inception_4a/1x1
I0403 19:40:45.942595 25515 net.cpp:425] inception_4a/1x1 <- pool3/3x3_s2_pool3/3x3_s2_0_split_0
I0403 19:40:45.942615 25515 net.cpp:399] inception_4a/1x1 -> inception_4a/1x1
I0403 19:40:45.944185 25515 net.cpp:141] Setting up inception_4a/1x1
I0403 19:40:45.944218 25515 net.cpp:148] Top shape: 24 192 14 14 (903168)
I0403 19:40:45.944237 25515 net.cpp:156] Memory required for data: 858010656
I0403 19:40:45.944255 25515 layer_factory.hpp:77] Creating layer inception_4a/relu_1x1
I0403 19:40:45.944275 25515 net.cpp:91] Creating Layer inception_4a/relu_1x1
I0403 19:40:45.944303 25515 net.cpp:425] inception_4a/relu_1x1 <- inception_4a/1x1
I0403 19:40:45.944329 25515 net.cpp:386] inception_4a/relu_1x1 -> inception_4a/1x1 (in-place)
I0403 19:40:45.944507 25515 net.cpp:141] Setting up inception_4a/relu_1x1
I0403 19:40:45.944538 25515 net.cpp:148] Top shape: 24 192 14 14 (903168)
I0403 19:40:45.944553 25515 net.cpp:156] Memory required for data: 861623328
I0403 19:40:45.944567 25515 layer_factory.hpp:77] Creating layer inception_4a/3x3_reduce
I0403 19:40:45.944591 25515 net.cpp:91] Creating Layer inception_4a/3x3_reduce
I0403 19:40:45.944612 25515 net.cpp:425] inception_4a/3x3_reduce <- pool3/3x3_s2_pool3/3x3_s2_0_split_1
I0403 19:40:45.944634 25515 net.cpp:399] inception_4a/3x3_reduce -> inception_4a/3x3_reduce
I0403 19:40:45.945891 25515 net.cpp:141] Setting up inception_4a/3x3_reduce
I0403 19:40:45.945925 25515 net.cpp:148] Top shape: 24 96 14 14 (451584)
I0403 19:40:45.945946 25515 net.cpp:156] Memory required for data: 863429664
I0403 19:40:45.945971 25515 layer_factory.hpp:77] Creating layer inception_4a/relu_3x3_reduce
I0403 19:40:45.945996 25515 net.cpp:91] Creating Layer inception_4a/relu_3x3_reduce
I0403 19:40:45.946014 25515 net.cpp:425] inception_4a/relu_3x3_reduce <- inception_4a/3x3_reduce
I0403 19:40:45.946033 25515 net.cpp:386] inception_4a/relu_3x3_reduce -> inception_4a/3x3_reduce (in-place)
I0403 19:40:45.946208 25515 net.cpp:141] Setting up inception_4a/relu_3x3_reduce
I0403 19:40:45.946239 25515 net.cpp:148] Top shape: 24 96 14 14 (451584)
I0403 19:40:45.946254 25515 net.cpp:156] Memory required for data: 865236000
I0403 19:40:45.946269 25515 layer_factory.hpp:77] Creating layer inception_4a/3x3
I0403 19:40:45.946298 25515 net.cpp:91] Creating Layer inception_4a/3x3
I0403 19:40:45.946321 25515 net.cpp:425] inception_4a/3x3 <- inception_4a/3x3_reduce
I0403 19:40:45.946346 25515 net.cpp:399] inception_4a/3x3 -> inception_4a/3x3
I0403 19:40:45.949004 25515 net.cpp:141] Setting up inception_4a/3x3
I0403 19:40:45.949036 25515 net.cpp:148] Top shape: 24 208 14 14 (978432)
I0403 19:40:45.949053 25515 net.cpp:156] Memory required for data: 869149728
I0403 19:40:45.949069 25515 layer_factory.hpp:77] Creating layer inception_4a/relu_3x3
I0403 19:40:45.949090 25515 net.cpp:91] Creating Layer inception_4a/relu_3x3
I0403 19:40:45.949110 25515 net.cpp:425] inception_4a/relu_3x3 <- inception_4a/3x3
I0403 19:40:45.949128 25515 net.cpp:386] inception_4a/relu_3x3 -> inception_4a/3x3 (in-place)
I0403 19:40:45.949391 25515 net.cpp:141] Setting up inception_4a/relu_3x3
I0403 19:40:45.949419 25515 net.cpp:148] Top shape: 24 208 14 14 (978432)
I0403 19:40:45.949435 25515 net.cpp:156] Memory required for data: 873063456
I0403 19:40:45.949450 25515 layer_factory.hpp:77] Creating layer inception_4a/5x5_reduce
I0403 19:40:45.949478 25515 net.cpp:91] Creating Layer inception_4a/5x5_reduce
I0403 19:40:45.949499 25515 net.cpp:425] inception_4a/5x5_reduce <- pool3/3x3_s2_pool3/3x3_s2_0_split_2
I0403 19:40:45.949520 25515 net.cpp:399] inception_4a/5x5_reduce -> inception_4a/5x5_reduce
I0403 19:40:45.950471 25515 net.cpp:141] Setting up inception_4a/5x5_reduce
I0403 19:40:45.950501 25515 net.cpp:148] Top shape: 24 16 14 14 (75264)
I0403 19:40:45.950516 25515 net.cpp:156] Memory required for data: 873364512
I0403 19:40:45.950533 25515 layer_factory.hpp:77] Creating layer inception_4a/relu_5x5_reduce
I0403 19:40:45.950554 25515 net.cpp:91] Creating Layer inception_4a/relu_5x5_reduce
I0403 19:40:45.950573 25515 net.cpp:425] inception_4a/relu_5x5_reduce <- inception_4a/5x5_reduce
I0403 19:40:45.950592 25515 net.cpp:386] inception_4a/relu_5x5_reduce -> inception_4a/5x5_reduce (in-place)
I0403 19:40:45.950760 25515 net.cpp:141] Setting up inception_4a/relu_5x5_reduce
I0403 19:40:45.950793 25515 net.cpp:148] Top shape: 24 16 14 14 (75264)
I0403 19:40:45.950809 25515 net.cpp:156] Memory required for data: 873665568
I0403 19:40:45.950824 25515 layer_factory.hpp:77] Creating layer inception_4a/5x5
I0403 19:40:45.950845 25515 net.cpp:91] Creating Layer inception_4a/5x5
I0403 19:40:45.950865 25515 net.cpp:425] inception_4a/5x5 <- inception_4a/5x5_reduce
I0403 19:40:45.950882 25515 net.cpp:399] inception_4a/5x5 -> inception_4a/5x5
I0403 19:40:45.951892 25515 net.cpp:141] Setting up inception_4a/5x5
I0403 19:40:45.951925 25515 net.cpp:148] Top shape: 24 48 14 14 (225792)
I0403 19:40:45.951943 25515 net.cpp:156] Memory required for data: 874568736
I0403 19:40:45.951961 25515 layer_factory.hpp:77] Creating layer inception_4a/relu_5x5
I0403 19:40:45.951982 25515 net.cpp:91] Creating Layer inception_4a/relu_5x5
I0403 19:40:45.951997 25515 net.cpp:425] inception_4a/relu_5x5 <- inception_4a/5x5
I0403 19:40:45.952018 25515 net.cpp:386] inception_4a/relu_5x5 -> inception_4a/5x5 (in-place)
I0403 19:40:45.952183 25515 net.cpp:141] Setting up inception_4a/relu_5x5
I0403 19:40:45.952214 25515 net.cpp:148] Top shape: 24 48 14 14 (225792)
I0403 19:40:45.952230 25515 net.cpp:156] Memory required for data: 875471904
I0403 19:40:45.952244 25515 layer_factory.hpp:77] Creating layer inception_4a/pool
I0403 19:40:45.952263 25515 net.cpp:91] Creating Layer inception_4a/pool
I0403 19:40:45.952280 25515 net.cpp:425] inception_4a/pool <- pool3/3x3_s2_pool3/3x3_s2_0_split_3
I0403 19:40:45.952308 25515 net.cpp:399] inception_4a/pool -> inception_4a/pool
I0403 19:40:45.952368 25515 net.cpp:141] Setting up inception_4a/pool
I0403 19:40:45.952396 25515 net.cpp:148] Top shape: 24 480 14 14 (2257920)
I0403 19:40:45.952412 25515 net.cpp:156] Memory required for data: 884503584
I0403 19:40:45.952428 25515 layer_factory.hpp:77] Creating layer inception_4a/pool_proj
I0403 19:40:45.952450 25515 net.cpp:91] Creating Layer inception_4a/pool_proj
I0403 19:40:45.952471 25515 net.cpp:425] inception_4a/pool_proj <- inception_4a/pool
I0403 19:40:45.952489 25515 net.cpp:399] inception_4a/pool_proj -> inception_4a/pool_proj
I0403 19:40:45.953644 25515 net.cpp:141] Setting up inception_4a/pool_proj
I0403 19:40:45.953681 25515 net.cpp:148] Top shape: 24 64 14 14 (301056)
I0403 19:40:45.953717 25515 net.cpp:156] Memory required for data: 885707808
I0403 19:40:45.953737 25515 layer_factory.hpp:77] Creating layer inception_4a/relu_pool_proj
I0403 19:40:45.953754 25515 net.cpp:91] Creating Layer inception_4a/relu_pool_proj
I0403 19:40:45.953771 25515 net.cpp:425] inception_4a/relu_pool_proj <- inception_4a/pool_proj
I0403 19:40:45.953794 25515 net.cpp:386] inception_4a/relu_pool_proj -> inception_4a/pool_proj (in-place)
I0403 19:40:45.954069 25515 net.cpp:141] Setting up inception_4a/relu_pool_proj
I0403 19:40:45.954104 25515 net.cpp:148] Top shape: 24 64 14 14 (301056)
I0403 19:40:45.954121 25515 net.cpp:156] Memory required for data: 886912032
I0403 19:40:45.954136 25515 layer_factory.hpp:77] Creating layer inception_4a/output
I0403 19:40:45.954154 25515 net.cpp:91] Creating Layer inception_4a/output
I0403 19:40:45.954169 25515 net.cpp:425] inception_4a/output <- inception_4a/1x1
I0403 19:40:45.954188 25515 net.cpp:425] inception_4a/output <- inception_4a/3x3
I0403 19:40:45.954205 25515 net.cpp:425] inception_4a/output <- inception_4a/5x5
I0403 19:40:45.954218 25515 net.cpp:425] inception_4a/output <- inception_4a/pool_proj
I0403 19:40:45.954237 25515 net.cpp:399] inception_4a/output -> inception_4a/output
I0403 19:40:45.954283 25515 net.cpp:141] Setting up inception_4a/output
I0403 19:40:45.954324 25515 net.cpp:148] Top shape: 24 512 14 14 (2408448)
I0403 19:40:45.954340 25515 net.cpp:156] Memory required for data: 896545824
I0403 19:40:45.954356 25515 layer_factory.hpp:77] Creating layer inception_4a/output_inception_4a/output_0_split
I0403 19:40:45.954378 25515 net.cpp:91] Creating Layer inception_4a/output_inception_4a/output_0_split
I0403 19:40:45.954396 25515 net.cpp:425] inception_4a/output_inception_4a/output_0_split <- inception_4a/output
I0403 19:40:45.954414 25515 net.cpp:399] inception_4a/output_inception_4a/output_0_split -> inception_4a/output_inception_4a/output_0_split_0
I0403 19:40:45.954438 25515 net.cpp:399] inception_4a/output_inception_4a/output_0_split -> inception_4a/output_inception_4a/output_0_split_1
I0403 19:40:45.954463 25515 net.cpp:399] inception_4a/output_inception_4a/output_0_split -> inception_4a/output_inception_4a/output_0_split_2
I0403 19:40:45.954488 25515 net.cpp:399] inception_4a/output_inception_4a/output_0_split -> inception_4a/output_inception_4a/output_0_split_3
I0403 19:40:45.954509 25515 net.cpp:399] inception_4a/output_inception_4a/output_0_split -> inception_4a/output_inception_4a/output_0_split_4
I0403 19:40:45.954599 25515 net.cpp:141] Setting up inception_4a/output_inception_4a/output_0_split
I0403 19:40:45.954628 25515 net.cpp:148] Top shape: 24 512 14 14 (2408448)
I0403 19:40:45.954644 25515 net.cpp:148] Top shape: 24 512 14 14 (2408448)
I0403 19:40:45.954660 25515 net.cpp:148] Top shape: 24 512 14 14 (2408448)
I0403 19:40:45.954675 25515 net.cpp:148] Top shape: 24 512 14 14 (2408448)
I0403 19:40:45.954691 25515 net.cpp:148] Top shape: 24 512 14 14 (2408448)
I0403 19:40:45.954704 25515 net.cpp:156] Memory required for data: 944714784
I0403 19:40:45.954718 25515 layer_factory.hpp:77] Creating layer loss1/ave_pool
I0403 19:40:45.954738 25515 net.cpp:91] Creating Layer loss1/ave_pool
I0403 19:40:45.954757 25515 net.cpp:425] loss1/ave_pool <- inception_4a/output_inception_4a/output_0_split_0
I0403 19:40:45.954777 25515 net.cpp:399] loss1/ave_pool -> loss1/ave_pool
I0403 19:40:45.954979 25515 net.cpp:141] Setting up loss1/ave_pool
I0403 19:40:45.955008 25515 net.cpp:148] Top shape: 24 512 4 4 (196608)
I0403 19:40:45.955025 25515 net.cpp:156] Memory required for data: 945501216
I0403 19:40:45.955040 25515 layer_factory.hpp:77] Creating layer loss1/conv
I0403 19:40:45.955065 25515 net.cpp:91] Creating Layer loss1/conv
I0403 19:40:45.955083 25515 net.cpp:425] loss1/conv <- loss1/ave_pool
I0403 19:40:45.955103 25515 net.cpp:399] loss1/conv -> loss1/conv
I0403 19:40:45.956468 25515 net.cpp:141] Setting up loss1/conv
I0403 19:40:45.956501 25515 net.cpp:148] Top shape: 24 128 4 4 (49152)
I0403 19:40:45.956532 25515 net.cpp:156] Memory required for data: 945697824
I0403 19:40:45.956552 25515 layer_factory.hpp:77] Creating layer loss1/relu_conv
I0403 19:40:45.956575 25515 net.cpp:91] Creating Layer loss1/relu_conv
I0403 19:40:45.956595 25515 net.cpp:425] loss1/relu_conv <- loss1/conv
I0403 19:40:45.956615 25515 net.cpp:386] loss1/relu_conv -> loss1/conv (in-place)
I0403 19:40:45.956894 25515 net.cpp:141] Setting up loss1/relu_conv
I0403 19:40:45.956926 25515 net.cpp:148] Top shape: 24 128 4 4 (49152)
I0403 19:40:45.956943 25515 net.cpp:156] Memory required for data: 945894432
I0403 19:40:45.956959 25515 layer_factory.hpp:77] Creating layer loss1/fc
I0403 19:40:45.956987 25515 net.cpp:91] Creating Layer loss1/fc
I0403 19:40:45.957007 25515 net.cpp:425] loss1/fc <- loss1/conv
I0403 19:40:45.957026 25515 net.cpp:399] loss1/fc -> loss1/fc
I0403 19:40:45.974206 25515 net.cpp:141] Setting up loss1/fc
I0403 19:40:45.974246 25515 net.cpp:148] Top shape: 24 1024 (24576)
I0403 19:40:45.974261 25515 net.cpp:156] Memory required for data: 945992736
I0403 19:40:45.974279 25515 layer_factory.hpp:77] Creating layer loss1/relu_fc
I0403 19:40:45.974309 25515 net.cpp:91] Creating Layer loss1/relu_fc
I0403 19:40:45.974326 25515 net.cpp:425] loss1/relu_fc <- loss1/fc
I0403 19:40:45.974347 25515 net.cpp:386] loss1/relu_fc -> loss1/fc (in-place)
I0403 19:40:45.974526 25515 net.cpp:141] Setting up loss1/relu_fc
I0403 19:40:45.974555 25515 net.cpp:148] Top shape: 24 1024 (24576)
I0403 19:40:45.974570 25515 net.cpp:156] Memory required for data: 946091040
I0403 19:40:45.974584 25515 layer_factory.hpp:77] Creating layer loss1/drop_fc
I0403 19:40:45.974612 25515 net.cpp:91] Creating Layer loss1/drop_fc
I0403 19:40:45.974632 25515 net.cpp:425] loss1/drop_fc <- loss1/fc
I0403 19:40:45.974653 25515 net.cpp:386] loss1/drop_fc -> loss1/fc (in-place)
I0403 19:40:45.974706 25515 net.cpp:141] Setting up loss1/drop_fc
I0403 19:40:45.974735 25515 net.cpp:148] Top shape: 24 1024 (24576)
I0403 19:40:45.974753 25515 net.cpp:156] Memory required for data: 946189344
I0403 19:40:45.974771 25515 layer_factory.hpp:77] Creating layer loss1/classifier_plantvillage
I0403 19:40:45.974789 25515 net.cpp:91] Creating Layer loss1/classifier_plantvillage
I0403 19:40:45.974804 25515 net.cpp:425] loss1/classifier_plantvillage <- loss1/fc
I0403 19:40:45.974825 25515 net.cpp:399] loss1/classifier_plantvillage -> loss1/classifier_plantvillage
I0403 19:40:45.975711 25515 net.cpp:141] Setting up loss1/classifier_plantvillage
I0403 19:40:45.975740 25515 net.cpp:148] Top shape: 24 38 (912)
I0403 19:40:45.975757 25515 net.cpp:156] Memory required for data: 946192992
I0403 19:40:45.975776 25515 layer_factory.hpp:77] Creating layer loss1/classifier_plantvillage_loss1/classifier_plantvillage_0_split
I0403 19:40:45.975795 25515 net.cpp:91] Creating Layer loss1/classifier_plantvillage_loss1/classifier_plantvillage_0_split
I0403 19:40:45.975810 25515 net.cpp:425] loss1/classifier_plantvillage_loss1/classifier_plantvillage_0_split <- loss1/classifier_plantvillage
I0403 19:40:45.975831 25515 net.cpp:399] loss1/classifier_plantvillage_loss1/classifier_plantvillage_0_split -> loss1/classifier_plantvillage_loss1/classifier_plantvillage_0_split_0
I0403 19:40:45.975852 25515 net.cpp:399] loss1/classifier_plantvillage_loss1/classifier_plantvillage_0_split -> loss1/classifier_plantvillage_loss1/classifier_plantvillage_0_split_1
I0403 19:40:45.975875 25515 net.cpp:399] loss1/classifier_plantvillage_loss1/classifier_plantvillage_0_split -> loss1/classifier_plantvillage_loss1/classifier_plantvillage_0_split_2
I0403 19:40:45.975942 25515 net.cpp:141] Setting up loss1/classifier_plantvillage_loss1/classifier_plantvillage_0_split
I0403 19:40:45.975968 25515 net.cpp:148] Top shape: 24 38 (912)
I0403 19:40:45.975986 25515 net.cpp:148] Top shape: 24 38 (912)
I0403 19:40:45.976001 25515 net.cpp:148] Top shape: 24 38 (912)
I0403 19:40:45.976016 25515 net.cpp:156] Memory required for data: 946203936
I0403 19:40:45.976029 25515 layer_factory.hpp:77] Creating layer inception_4b/1x1
I0403 19:40:45.976055 25515 net.cpp:91] Creating Layer inception_4b/1x1
I0403 19:40:45.976090 25515 net.cpp:425] inception_4b/1x1 <- inception_4a/output_inception_4a/output_0_split_1
I0403 19:40:45.976112 25515 net.cpp:399] inception_4b/1x1 -> inception_4b/1x1
I0403 19:40:45.977735 25515 net.cpp:141] Setting up inception_4b/1x1
I0403 19:40:45.977766 25515 net.cpp:148] Top shape: 24 160 14 14 (752640)
I0403 19:40:45.977783 25515 net.cpp:156] Memory required for data: 949214496
I0403 19:40:45.977802 25515 layer_factory.hpp:77] Creating layer inception_4b/relu_1x1
I0403 19:40:45.977824 25515 net.cpp:91] Creating Layer inception_4b/relu_1x1
I0403 19:40:45.977844 25515 net.cpp:425] inception_4b/relu_1x1 <- inception_4b/1x1
I0403 19:40:45.977864 25515 net.cpp:386] inception_4b/relu_1x1 -> inception_4b/1x1 (in-place)
I0403 19:40:45.978035 25515 net.cpp:141] Setting up inception_4b/relu_1x1
I0403 19:40:45.978066 25515 net.cpp:148] Top shape: 24 160 14 14 (752640)
I0403 19:40:45.978083 25515 net.cpp:156] Memory required for data: 952225056
I0403 19:40:45.978099 25515 layer_factory.hpp:77] Creating layer inception_4b/3x3_reduce
I0403 19:40:45.978121 25515 net.cpp:91] Creating Layer inception_4b/3x3_reduce
I0403 19:40:45.978140 25515 net.cpp:425] inception_4b/3x3_reduce <- inception_4a/output_inception_4a/output_0_split_2
I0403 19:40:45.978159 25515 net.cpp:399] inception_4b/3x3_reduce -> inception_4b/3x3_reduce
I0403 19:40:45.979473 25515 net.cpp:141] Setting up inception_4b/3x3_reduce
I0403 19:40:45.979508 25515 net.cpp:148] Top shape: 24 112 14 14 (526848)
I0403 19:40:45.979529 25515 net.cpp:156] Memory required for data: 954332448
I0403 19:40:45.979548 25515 layer_factory.hpp:77] Creating layer inception_4b/relu_3x3_reduce
I0403 19:40:45.979568 25515 net.cpp:91] Creating Layer inception_4b/relu_3x3_reduce
I0403 19:40:45.979585 25515 net.cpp:425] inception_4b/relu_3x3_reduce <- inception_4b/3x3_reduce
I0403 19:40:45.979603 25515 net.cpp:386] inception_4b/relu_3x3_reduce -> inception_4b/3x3_reduce (in-place)
I0403 19:40:45.979873 25515 net.cpp:141] Setting up inception_4b/relu_3x3_reduce
I0403 19:40:45.979908 25515 net.cpp:148] Top shape: 24 112 14 14 (526848)
I0403 19:40:45.979928 25515 net.cpp:156] Memory required for data: 956439840
I0403 19:40:45.979943 25515 layer_factory.hpp:77] Creating layer inception_4b/3x3
I0403 19:40:45.979967 25515 net.cpp:91] Creating Layer inception_4b/3x3
I0403 19:40:45.979989 25515 net.cpp:425] inception_4b/3x3 <- inception_4b/3x3_reduce
I0403 19:40:45.980008 25515 net.cpp:399] inception_4b/3x3 -> inception_4b/3x3
I0403 19:40:45.982942 25515 net.cpp:141] Setting up inception_4b/3x3
I0403 19:40:45.982974 25515 net.cpp:148] Top shape: 24 224 14 14 (1053696)
I0403 19:40:45.982990 25515 net.cpp:156] Memory required for data: 960654624
I0403 19:40:45.983011 25515 layer_factory.hpp:77] Creating layer inception_4b/relu_3x3
I0403 19:40:45.983029 25515 net.cpp:91] Creating Layer inception_4b/relu_3x3
I0403 19:40:45.983047 25515 net.cpp:425] inception_4b/relu_3x3 <- inception_4b/3x3
I0403 19:40:45.983067 25515 net.cpp:386] inception_4b/relu_3x3 -> inception_4b/3x3 (in-place)
I0403 19:40:45.983242 25515 net.cpp:141] Setting up inception_4b/relu_3x3
I0403 19:40:45.983273 25515 net.cpp:148] Top shape: 24 224 14 14 (1053696)
I0403 19:40:45.983295 25515 net.cpp:156] Memory required for data: 964869408
I0403 19:40:45.983314 25515 layer_factory.hpp:77] Creating layer inception_4b/5x5_reduce
I0403 19:40:45.983338 25515 net.cpp:91] Creating Layer inception_4b/5x5_reduce
I0403 19:40:45.983358 25515 net.cpp:425] inception_4b/5x5_reduce <- inception_4a/output_inception_4a/output_0_split_3
I0403 19:40:45.983381 25515 net.cpp:399] inception_4b/5x5_reduce -> inception_4b/5x5_reduce
I0403 19:40:45.984452 25515 net.cpp:141] Setting up inception_4b/5x5_reduce
I0403 19:40:45.984483 25515 net.cpp:148] Top shape: 24 24 14 14 (112896)
I0403 19:40:45.984501 25515 net.cpp:156] Memory required for data: 965320992
I0403 19:40:45.984520 25515 layer_factory.hpp:77] Creating layer inception_4b/relu_5x5_reduce
I0403 19:40:45.984544 25515 net.cpp:91] Creating Layer inception_4b/relu_5x5_reduce
I0403 19:40:45.984576 25515 net.cpp:425] inception_4b/relu_5x5_reduce <- inception_4b/5x5_reduce
I0403 19:40:45.984598 25515 net.cpp:386] inception_4b/relu_5x5_reduce -> inception_4b/5x5_reduce (in-place)
I0403 19:40:45.984794 25515 net.cpp:141] Setting up inception_4b/relu_5x5_reduce
I0403 19:40:45.984824 25515 net.cpp:148] Top shape: 24 24 14 14 (112896)
I0403 19:40:45.984841 25515 net.cpp:156] Memory required for data: 965772576
I0403 19:40:45.984858 25515 layer_factory.hpp:77] Creating layer inception_4b/5x5
I0403 19:40:45.984880 25515 net.cpp:91] Creating Layer inception_4b/5x5
I0403 19:40:45.984899 25515 net.cpp:425] inception_4b/5x5 <- inception_4b/5x5_reduce
I0403 19:40:45.984918 25515 net.cpp:399] inception_4b/5x5 -> inception_4b/5x5
I0403 19:40:45.986114 25515 net.cpp:141] Setting up inception_4b/5x5
I0403 19:40:45.986145 25515 net.cpp:148] Top shape: 24 64 14 14 (301056)
I0403 19:40:45.986160 25515 net.cpp:156] Memory required for data: 966976800
I0403 19:40:45.986181 25515 layer_factory.hpp:77] Creating layer inception_4b/relu_5x5
I0403 19:40:45.986202 25515 net.cpp:91] Creating Layer inception_4b/relu_5x5
I0403 19:40:45.986220 25515 net.cpp:425] inception_4b/relu_5x5 <- inception_4b/5x5
I0403 19:40:45.986238 25515 net.cpp:386] inception_4b/relu_5x5 -> inception_4b/5x5 (in-place)
I0403 19:40:45.986521 25515 net.cpp:141] Setting up inception_4b/relu_5x5
I0403 19:40:45.986551 25515 net.cpp:148] Top shape: 24 64 14 14 (301056)
I0403 19:40:45.986567 25515 net.cpp:156] Memory required for data: 968181024
I0403 19:40:45.986582 25515 layer_factory.hpp:77] Creating layer inception_4b/pool
I0403 19:40:45.986605 25515 net.cpp:91] Creating Layer inception_4b/pool
I0403 19:40:45.986625 25515 net.cpp:425] inception_4b/pool <- inception_4a/output_inception_4a/output_0_split_4
I0403 19:40:45.986644 25515 net.cpp:399] inception_4b/pool -> inception_4b/pool
I0403 19:40:45.986711 25515 net.cpp:141] Setting up inception_4b/pool
I0403 19:40:45.986737 25515 net.cpp:148] Top shape: 24 512 14 14 (2408448)
I0403 19:40:45.986754 25515 net.cpp:156] Memory required for data: 977814816
I0403 19:40:45.986769 25515 layer_factory.hpp:77] Creating layer inception_4b/pool_proj
I0403 19:40:45.986791 25515 net.cpp:91] Creating Layer inception_4b/pool_proj
I0403 19:40:45.986810 25515 net.cpp:425] inception_4b/pool_proj <- inception_4b/pool
I0403 19:40:45.986832 25515 net.cpp:399] inception_4b/pool_proj -> inception_4b/pool_proj
I0403 19:40:45.987998 25515 net.cpp:141] Setting up inception_4b/pool_proj
I0403 19:40:45.988028 25515 net.cpp:148] Top shape: 24 64 14 14 (301056)
I0403 19:40:45.988046 25515 net.cpp:156] Memory required for data: 979019040
I0403 19:40:45.988065 25515 layer_factory.hpp:77] Creating layer inception_4b/relu_pool_proj
I0403 19:40:45.988086 25515 net.cpp:91] Creating Layer inception_4b/relu_pool_proj
I0403 19:40:45.988106 25515 net.cpp:425] inception_4b/relu_pool_proj <- inception_4b/pool_proj
I0403 19:40:45.988126 25515 net.cpp:386] inception_4b/relu_pool_proj -> inception_4b/pool_proj (in-place)
I0403 19:40:45.988306 25515 net.cpp:141] Setting up inception_4b/relu_pool_proj
I0403 19:40:45.988338 25515 net.cpp:148] Top shape: 24 64 14 14 (301056)
I0403 19:40:45.988369 25515 net.cpp:156] Memory required for data: 980223264
I0403 19:40:45.988385 25515 layer_factory.hpp:77] Creating layer inception_4b/output
I0403 19:40:45.988404 25515 net.cpp:91] Creating Layer inception_4b/output
I0403 19:40:45.988420 25515 net.cpp:425] inception_4b/output <- inception_4b/1x1
I0403 19:40:45.988438 25515 net.cpp:425] inception_4b/output <- inception_4b/3x3
I0403 19:40:45.988456 25515 net.cpp:425] inception_4b/output <- inception_4b/5x5
I0403 19:40:45.988474 25515 net.cpp:425] inception_4b/output <- inception_4b/pool_proj
I0403 19:40:45.988492 25515 net.cpp:399] inception_4b/output -> inception_4b/output
I0403 19:40:45.988540 25515 net.cpp:141] Setting up inception_4b/output
I0403 19:40:45.988569 25515 net.cpp:148] Top shape: 24 512 14 14 (2408448)
I0403 19:40:45.988586 25515 net.cpp:156] Memory required for data: 989857056
I0403 19:40:45.988618 25515 layer_factory.hpp:77] Creating layer inception_4b/output_inception_4b/output_0_split
I0403 19:40:45.988641 25515 net.cpp:91] Creating Layer inception_4b/output_inception_4b/output_0_split
I0403 19:40:45.988668 25515 net.cpp:425] inception_4b/output_inception_4b/output_0_split <- inception_4b/output
I0403 19:40:45.988687 25515 net.cpp:399] inception_4b/output_inception_4b/output_0_split -> inception_4b/output_inception_4b/output_0_split_0
I0403 19:40:45.988710 25515 net.cpp:399] inception_4b/output_inception_4b/output_0_split -> inception_4b/output_inception_4b/output_0_split_1
I0403 19:40:45.988731 25515 net.cpp:399] inception_4b/output_inception_4b/output_0_split -> inception_4b/output_inception_4b/output_0_split_2
I0403 19:40:45.988757 25515 net.cpp:399] inception_4b/output_inception_4b/output_0_split -> inception_4b/output_inception_4b/output_0_split_3
I0403 19:40:45.988845 25515 net.cpp:141] Setting up inception_4b/output_inception_4b/output_0_split
I0403 19:40:45.988874 25515 net.cpp:148] Top shape: 24 512 14 14 (2408448)
I0403 19:40:45.988893 25515 net.cpp:148] Top shape: 24 512 14 14 (2408448)
I0403 19:40:45.988909 25515 net.cpp:148] Top shape: 24 512 14 14 (2408448)
I0403 19:40:45.988924 25515 net.cpp:148] Top shape: 24 512 14 14 (2408448)
I0403 19:40:45.988939 25515 net.cpp:156] Memory required for data: 1028392224
I0403 19:40:45.988955 25515 layer_factory.hpp:77] Creating layer inception_4c/1x1
I0403 19:40:45.988978 25515 net.cpp:91] Creating Layer inception_4c/1x1
I0403 19:40:45.988997 25515 net.cpp:425] inception_4c/1x1 <- inception_4b/output_inception_4b/output_0_split_0
I0403 19:40:45.989019 25515 net.cpp:399] inception_4c/1x1 -> inception_4c/1x1
I0403 19:40:45.990413 25515 net.cpp:141] Setting up inception_4c/1x1
I0403 19:40:45.990447 25515 net.cpp:148] Top shape: 24 128 14 14 (602112)
I0403 19:40:45.990463 25515 net.cpp:156] Memory required for data: 1030800672
I0403 19:40:45.990480 25515 layer_factory.hpp:77] Creating layer inception_4c/relu_1x1
I0403 19:40:45.990499 25515 net.cpp:91] Creating Layer inception_4c/relu_1x1
I0403 19:40:45.990516 25515 net.cpp:425] inception_4c/relu_1x1 <- inception_4c/1x1
I0403 19:40:45.990536 25515 net.cpp:386] inception_4c/relu_1x1 -> inception_4c/1x1 (in-place)
I0403 19:40:45.990713 25515 net.cpp:141] Setting up inception_4c/relu_1x1
I0403 19:40:45.990742 25515 net.cpp:148] Top shape: 24 128 14 14 (602112)
I0403 19:40:45.990758 25515 net.cpp:156] Memory required for data: 1033209120
I0403 19:40:45.990773 25515 layer_factory.hpp:77] Creating layer inception_4c/3x3_reduce
I0403 19:40:45.990797 25515 net.cpp:91] Creating Layer inception_4c/3x3_reduce
I0403 19:40:45.990818 25515 net.cpp:425] inception_4c/3x3_reduce <- inception_4b/output_inception_4b/output_0_split_1
I0403 19:40:45.990841 25515 net.cpp:399] inception_4c/3x3_reduce -> inception_4c/3x3_reduce
I0403 19:40:45.992770 25515 net.cpp:141] Setting up inception_4c/3x3_reduce
I0403 19:40:45.992802 25515 net.cpp:148] Top shape: 24 128 14 14 (602112)
I0403 19:40:45.992820 25515 net.cpp:156] Memory required for data: 1035617568
I0403 19:40:45.992837 25515 layer_factory.hpp:77] Creating layer inception_4c/relu_3x3_reduce
I0403 19:40:45.992859 25515 net.cpp:91] Creating Layer inception_4c/relu_3x3_reduce
I0403 19:40:45.992878 25515 net.cpp:425] inception_4c/relu_3x3_reduce <- inception_4c/3x3_reduce
I0403 19:40:45.992897 25515 net.cpp:386] inception_4c/relu_3x3_reduce -> inception_4c/3x3_reduce (in-place)
I0403 19:40:45.993175 25515 net.cpp:141] Setting up inception_4c/relu_3x3_reduce
I0403 19:40:45.993204 25515 net.cpp:148] Top shape: 24 128 14 14 (602112)
I0403 19:40:45.993219 25515 net.cpp:156] Memory required for data: 1038026016
I0403 19:40:45.993234 25515 layer_factory.hpp:77] Creating layer inception_4c/3x3
I0403 19:40:45.993257 25515 net.cpp:91] Creating Layer inception_4c/3x3
I0403 19:40:45.993278 25515 net.cpp:425] inception_4c/3x3 <- inception_4c/3x3_reduce
I0403 19:40:45.993310 25515 net.cpp:399] inception_4c/3x3 -> inception_4c/3x3
I0403 19:40:45.996781 25515 net.cpp:141] Setting up inception_4c/3x3
I0403 19:40:45.996824 25515 net.cpp:148] Top shape: 24 256 14 14 (1204224)
I0403 19:40:45.996840 25515 net.cpp:156] Memory required for data: 1042842912
I0403 19:40:45.996871 25515 layer_factory.hpp:77] Creating layer inception_4c/relu_3x3
I0403 19:40:45.996897 25515 net.cpp:91] Creating Layer inception_4c/relu_3x3
I0403 19:40:45.996917 25515 net.cpp:425] inception_4c/relu_3x3 <- inception_4c/3x3
I0403 19:40:45.996935 25515 net.cpp:386] inception_4c/relu_3x3 -> inception_4c/3x3 (in-place)
I0403 19:40:45.997105 25515 net.cpp:141] Setting up inception_4c/relu_3x3
I0403 19:40:45.997133 25515 net.cpp:148] Top shape: 24 256 14 14 (1204224)
I0403 19:40:45.997148 25515 net.cpp:156] Memory required for data: 1047659808
I0403 19:40:45.997164 25515 layer_factory.hpp:77] Creating layer inception_4c/5x5_reduce
I0403 19:40:45.997186 25515 net.cpp:91] Creating Layer inception_4c/5x5_reduce
I0403 19:40:45.997205 25515 net.cpp:425] inception_4c/5x5_reduce <- inception_4b/output_inception_4b/output_0_split_2
I0403 19:40:45.997228 25515 net.cpp:399] inception_4c/5x5_reduce -> inception_4c/5x5_reduce
I0403 19:40:45.998255 25515 net.cpp:141] Setting up inception_4c/5x5_reduce
I0403 19:40:45.998284 25515 net.cpp:148] Top shape: 24 24 14 14 (112896)
I0403 19:40:45.998306 25515 net.cpp:156] Memory required for data: 1048111392
I0403 19:40:45.998325 25515 layer_factory.hpp:77] Creating layer inception_4c/relu_5x5_reduce
I0403 19:40:45.998347 25515 net.cpp:91] Creating Layer inception_4c/relu_5x5_reduce
I0403 19:40:45.998363 25515 net.cpp:425] inception_4c/relu_5x5_reduce <- inception_4c/5x5_reduce
I0403 19:40:45.998381 25515 net.cpp:386] inception_4c/relu_5x5_reduce -> inception_4c/5x5_reduce (in-place)
I0403 19:40:45.998554 25515 net.cpp:141] Setting up inception_4c/relu_5x5_reduce
I0403 19:40:45.998584 25515 net.cpp:148] Top shape: 24 24 14 14 (112896)
I0403 19:40:45.998601 25515 net.cpp:156] Memory required for data: 1048562976
I0403 19:40:45.998615 25515 layer_factory.hpp:77] Creating layer inception_4c/5x5
I0403 19:40:45.998641 25515 net.cpp:91] Creating Layer inception_4c/5x5
I0403 19:40:45.998661 25515 net.cpp:425] inception_4c/5x5 <- inception_4c/5x5_reduce
I0403 19:40:45.998680 25515 net.cpp:399] inception_4c/5x5 -> inception_4c/5x5
I0403 19:40:45.999857 25515 net.cpp:141] Setting up inception_4c/5x5
I0403 19:40:45.999891 25515 net.cpp:148] Top shape: 24 64 14 14 (301056)
I0403 19:40:45.999909 25515 net.cpp:156] Memory required for data: 1049767200
I0403 19:40:45.999927 25515 layer_factory.hpp:77] Creating layer inception_4c/relu_5x5
I0403 19:40:45.999945 25515 net.cpp:91] Creating Layer inception_4c/relu_5x5
I0403 19:40:45.999961 25515 net.cpp:425] inception_4c/relu_5x5 <- inception_4c/5x5
I0403 19:40:45.999980 25515 net.cpp:386] inception_4c/relu_5x5 -> inception_4c/5x5 (in-place)
I0403 19:40:46.000268 25515 net.cpp:141] Setting up inception_4c/relu_5x5
I0403 19:40:46.000304 25515 net.cpp:148] Top shape: 24 64 14 14 (301056)
I0403 19:40:46.000324 25515 net.cpp:156] Memory required for data: 1050971424
I0403 19:40:46.000340 25515 layer_factory.hpp:77] Creating layer inception_4c/pool
I0403 19:40:46.000358 25515 net.cpp:91] Creating Layer inception_4c/pool
I0403 19:40:46.000376 25515 net.cpp:425] inception_4c/pool <- inception_4b/output_inception_4b/output_0_split_3
I0403 19:40:46.000397 25515 net.cpp:399] inception_4c/pool -> inception_4c/pool
I0403 19:40:46.000464 25515 net.cpp:141] Setting up inception_4c/pool
I0403 19:40:46.000493 25515 net.cpp:148] Top shape: 24 512 14 14 (2408448)
I0403 19:40:46.000507 25515 net.cpp:156] Memory required for data: 1060605216
I0403 19:40:46.000524 25515 layer_factory.hpp:77] Creating layer inception_4c/pool_proj
I0403 19:40:46.000560 25515 net.cpp:91] Creating Layer inception_4c/pool_proj
I0403 19:40:46.000583 25515 net.cpp:425] inception_4c/pool_proj <- inception_4c/pool
I0403 19:40:46.000603 25515 net.cpp:399] inception_4c/pool_proj -> inception_4c/pool_proj
I0403 19:40:46.001761 25515 net.cpp:141] Setting up inception_4c/pool_proj
I0403 19:40:46.001791 25515 net.cpp:148] Top shape: 24 64 14 14 (301056)
I0403 19:40:46.001821 25515 net.cpp:156] Memory required for data: 1061809440
I0403 19:40:46.001842 25515 layer_factory.hpp:77] Creating layer inception_4c/relu_pool_proj
I0403 19:40:46.001864 25515 net.cpp:91] Creating Layer inception_4c/relu_pool_proj
I0403 19:40:46.001883 25515 net.cpp:425] inception_4c/relu_pool_proj <- inception_4c/pool_proj
I0403 19:40:46.001902 25515 net.cpp:386] inception_4c/relu_pool_proj -> inception_4c/pool_proj (in-place)
I0403 19:40:46.002074 25515 net.cpp:141] Setting up inception_4c/relu_pool_proj
I0403 19:40:46.002100 25515 net.cpp:148] Top shape: 24 64 14 14 (301056)
I0403 19:40:46.002116 25515 net.cpp:156] Memory required for data: 1063013664
I0403 19:40:46.002130 25515 layer_factory.hpp:77] Creating layer inception_4c/output
I0403 19:40:46.002149 25515 net.cpp:91] Creating Layer inception_4c/output
I0403 19:40:46.002166 25515 net.cpp:425] inception_4c/output <- inception_4c/1x1
I0403 19:40:46.002185 25515 net.cpp:425] inception_4c/output <- inception_4c/3x3
I0403 19:40:46.002202 25515 net.cpp:425] inception_4c/output <- inception_4c/5x5
I0403 19:40:46.002219 25515 net.cpp:425] inception_4c/output <- inception_4c/pool_proj
I0403 19:40:46.002238 25515 net.cpp:399] inception_4c/output -> inception_4c/output
I0403 19:40:46.002284 25515 net.cpp:141] Setting up inception_4c/output
I0403 19:40:46.002316 25515 net.cpp:148] Top shape: 24 512 14 14 (2408448)
I0403 19:40:46.002331 25515 net.cpp:156] Memory required for data: 1072647456
I0403 19:40:46.002347 25515 layer_factory.hpp:77] Creating layer inception_4c/output_inception_4c/output_0_split
I0403 19:40:46.002369 25515 net.cpp:91] Creating Layer inception_4c/output_inception_4c/output_0_split
I0403 19:40:46.002389 25515 net.cpp:425] inception_4c/output_inception_4c/output_0_split <- inception_4c/output
I0403 19:40:46.002408 25515 net.cpp:399] inception_4c/output_inception_4c/output_0_split -> inception_4c/output_inception_4c/output_0_split_0
I0403 19:40:46.002427 25515 net.cpp:399] inception_4c/output_inception_4c/output_0_split -> inception_4c/output_inception_4c/output_0_split_1
I0403 19:40:46.002449 25515 net.cpp:399] inception_4c/output_inception_4c/output_0_split -> inception_4c/output_inception_4c/output_0_split_2
I0403 19:40:46.002471 25515 net.cpp:399] inception_4c/output_inception_4c/output_0_split -> inception_4c/output_inception_4c/output_0_split_3
I0403 19:40:46.002557 25515 net.cpp:141] Setting up inception_4c/output_inception_4c/output_0_split
I0403 19:40:46.002583 25515 net.cpp:148] Top shape: 24 512 14 14 (2408448)
I0403 19:40:46.002599 25515 net.cpp:148] Top shape: 24 512 14 14 (2408448)
I0403 19:40:46.002614 25515 net.cpp:148] Top shape: 24 512 14 14 (2408448)
I0403 19:40:46.002631 25515 net.cpp:148] Top shape: 24 512 14 14 (2408448)
I0403 19:40:46.002645 25515 net.cpp:156] Memory required for data: 1111182624
I0403 19:40:46.002660 25515 layer_factory.hpp:77] Creating layer inception_4d/1x1
I0403 19:40:46.002681 25515 net.cpp:91] Creating Layer inception_4d/1x1
I0403 19:40:46.002699 25515 net.cpp:425] inception_4d/1x1 <- inception_4c/output_inception_4c/output_0_split_0
I0403 19:40:46.002722 25515 net.cpp:399] inception_4d/1x1 -> inception_4d/1x1
I0403 19:40:46.004029 25515 net.cpp:141] Setting up inception_4d/1x1
I0403 19:40:46.004057 25515 net.cpp:148] Top shape: 24 112 14 14 (526848)
I0403 19:40:46.004072 25515 net.cpp:156] Memory required for data: 1113290016
I0403 19:40:46.004091 25515 layer_factory.hpp:77] Creating layer inception_4d/relu_1x1
I0403 19:40:46.004109 25515 net.cpp:91] Creating Layer inception_4d/relu_1x1
I0403 19:40:46.004125 25515 net.cpp:425] inception_4d/relu_1x1 <- inception_4d/1x1
I0403 19:40:46.004145 25515 net.cpp:386] inception_4d/relu_1x1 -> inception_4d/1x1 (in-place)
I0403 19:40:46.004335 25515 net.cpp:141] Setting up inception_4d/relu_1x1
I0403 19:40:46.004364 25515 net.cpp:148] Top shape: 24 112 14 14 (526848)
I0403 19:40:46.004380 25515 net.cpp:156] Memory required for data: 1115397408
I0403 19:40:46.004395 25515 layer_factory.hpp:77] Creating layer inception_4d/3x3_reduce
I0403 19:40:46.004432 25515 net.cpp:91] Creating Layer inception_4d/3x3_reduce
I0403 19:40:46.004454 25515 net.cpp:425] inception_4d/3x3_reduce <- inception_4c/output_inception_4c/output_0_split_1
I0403 19:40:46.004477 25515 net.cpp:399] inception_4d/3x3_reduce -> inception_4d/3x3_reduce
I0403 19:40:46.005906 25515 net.cpp:141] Setting up inception_4d/3x3_reduce
I0403 19:40:46.005940 25515 net.cpp:148] Top shape: 24 144 14 14 (677376)
I0403 19:40:46.005960 25515 net.cpp:156] Memory required for data: 1118106912
I0403 19:40:46.005977 25515 layer_factory.hpp:77] Creating layer inception_4d/relu_3x3_reduce
I0403 19:40:46.005997 25515 net.cpp:91] Creating Layer inception_4d/relu_3x3_reduce
I0403 19:40:46.006016 25515 net.cpp:425] inception_4d/relu_3x3_reduce <- inception_4d/3x3_reduce
I0403 19:40:46.006037 25515 net.cpp:386] inception_4d/relu_3x3_reduce -> inception_4d/3x3_reduce (in-place)
I0403 19:40:46.006314 25515 net.cpp:141] Setting up inception_4d/relu_3x3_reduce
I0403 19:40:46.006347 25515 net.cpp:148] Top shape: 24 144 14 14 (677376)
I0403 19:40:46.006363 25515 net.cpp:156] Memory required for data: 1120816416
I0403 19:40:46.006381 25515 layer_factory.hpp:77] Creating layer inception_4d/3x3
I0403 19:40:46.006402 25515 net.cpp:91] Creating Layer inception_4d/3x3
I0403 19:40:46.006418 25515 net.cpp:425] inception_4d/3x3 <- inception_4d/3x3_reduce
I0403 19:40:46.006438 25515 net.cpp:399] inception_4d/3x3 -> inception_4d/3x3
I0403 19:40:46.010596 25515 net.cpp:141] Setting up inception_4d/3x3
I0403 19:40:46.010629 25515 net.cpp:148] Top shape: 24 288 14 14 (1354752)
I0403 19:40:46.010645 25515 net.cpp:156] Memory required for data: 1126235424
I0403 19:40:46.010663 25515 layer_factory.hpp:77] Creating layer inception_4d/relu_3x3
I0403 19:40:46.010684 25515 net.cpp:91] Creating Layer inception_4d/relu_3x3
I0403 19:40:46.010704 25515 net.cpp:425] inception_4d/relu_3x3 <- inception_4d/3x3
I0403 19:40:46.010720 25515 net.cpp:386] inception_4d/relu_3x3 -> inception_4d/3x3 (in-place)
I0403 19:40:46.010895 25515 net.cpp:141] Setting up inception_4d/relu_3x3
I0403 19:40:46.010923 25515 net.cpp:148] Top shape: 24 288 14 14 (1354752)
I0403 19:40:46.010941 25515 net.cpp:156] Memory required for data: 1131654432
I0403 19:40:46.010956 25515 layer_factory.hpp:77] Creating layer inception_4d/5x5_reduce
I0403 19:40:46.010978 25515 net.cpp:91] Creating Layer inception_4d/5x5_reduce
I0403 19:40:46.010998 25515 net.cpp:425] inception_4d/5x5_reduce <- inception_4c/output_inception_4c/output_0_split_2
I0403 19:40:46.011018 25515 net.cpp:399] inception_4d/5x5_reduce -> inception_4d/5x5_reduce
I0403 19:40:46.012102 25515 net.cpp:141] Setting up inception_4d/5x5_reduce
I0403 19:40:46.012131 25515 net.cpp:148] Top shape: 24 32 14 14 (150528)
I0403 19:40:46.012150 25515 net.cpp:156] Memory required for data: 1132256544
I0403 19:40:46.012167 25515 layer_factory.hpp:77] Creating layer inception_4d/relu_5x5_reduce
I0403 19:40:46.012187 25515 net.cpp:91] Creating Layer inception_4d/relu_5x5_reduce
I0403 19:40:46.012203 25515 net.cpp:425] inception_4d/relu_5x5_reduce <- inception_4d/5x5_reduce
I0403 19:40:46.012223 25515 net.cpp:386] inception_4d/relu_5x5_reduce -> inception_4d/5x5_reduce (in-place)
I0403 19:40:46.012408 25515 net.cpp:141] Setting up inception_4d/relu_5x5_reduce
I0403 19:40:46.012437 25515 net.cpp:148] Top shape: 24 32 14 14 (150528)
I0403 19:40:46.012454 25515 net.cpp:156] Memory required for data: 1132858656
I0403 19:40:46.012471 25515 layer_factory.hpp:77] Creating layer inception_4d/5x5
I0403 19:40:46.012493 25515 net.cpp:91] Creating Layer inception_4d/5x5
I0403 19:40:46.012514 25515 net.cpp:425] inception_4d/5x5 <- inception_4d/5x5_reduce
I0403 19:40:46.012536 25515 net.cpp:399] inception_4d/5x5 -> inception_4d/5x5
I0403 19:40:46.013912 25515 net.cpp:141] Setting up inception_4d/5x5
I0403 19:40:46.013944 25515 net.cpp:148] Top shape: 24 64 14 14 (301056)
I0403 19:40:46.013962 25515 net.cpp:156] Memory required for data: 1134062880
I0403 19:40:46.013980 25515 layer_factory.hpp:77] Creating layer inception_4d/relu_5x5
I0403 19:40:46.014014 25515 net.cpp:91] Creating Layer inception_4d/relu_5x5
I0403 19:40:46.014032 25515 net.cpp:425] inception_4d/relu_5x5 <- inception_4d/5x5
I0403 19:40:46.014050 25515 net.cpp:386] inception_4d/relu_5x5 -> inception_4d/5x5 (in-place)
I0403 19:40:46.014355 25515 net.cpp:141] Setting up inception_4d/relu_5x5
I0403 19:40:46.014387 25515 net.cpp:148] Top shape: 24 64 14 14 (301056)
I0403 19:40:46.014406 25515 net.cpp:156] Memory required for data: 1135267104
I0403 19:40:46.014422 25515 layer_factory.hpp:77] Creating layer inception_4d/pool
I0403 19:40:46.014441 25515 net.cpp:91] Creating Layer inception_4d/pool
I0403 19:40:46.014458 25515 net.cpp:425] inception_4d/pool <- inception_4c/output_inception_4c/output_0_split_3
I0403 19:40:46.014478 25515 net.cpp:399] inception_4d/pool -> inception_4d/pool
I0403 19:40:46.014546 25515 net.cpp:141] Setting up inception_4d/pool
I0403 19:40:46.014574 25515 net.cpp:148] Top shape: 24 512 14 14 (2408448)
I0403 19:40:46.014588 25515 net.cpp:156] Memory required for data: 1144900896
I0403 19:40:46.014602 25515 layer_factory.hpp:77] Creating layer inception_4d/pool_proj
I0403 19:40:46.014626 25515 net.cpp:91] Creating Layer inception_4d/pool_proj
I0403 19:40:46.014645 25515 net.cpp:425] inception_4d/pool_proj <- inception_4d/pool
I0403 19:40:46.014668 25515 net.cpp:399] inception_4d/pool_proj -> inception_4d/pool_proj
I0403 19:40:46.016461 25515 net.cpp:141] Setting up inception_4d/pool_proj
I0403 19:40:46.016495 25515 net.cpp:148] Top shape: 24 64 14 14 (301056)
I0403 19:40:46.016513 25515 net.cpp:156] Memory required for data: 1146105120
I0403 19:40:46.016530 25515 layer_factory.hpp:77] Creating layer inception_4d/relu_pool_proj
I0403 19:40:46.016553 25515 net.cpp:91] Creating Layer inception_4d/relu_pool_proj
I0403 19:40:46.016574 25515 net.cpp:425] inception_4d/relu_pool_proj <- inception_4d/pool_proj
I0403 19:40:46.016592 25515 net.cpp:386] inception_4d/relu_pool_proj -> inception_4d/pool_proj (in-place)
I0403 19:40:46.016772 25515 net.cpp:141] Setting up inception_4d/relu_pool_proj
I0403 19:40:46.016800 25515 net.cpp:148] Top shape: 24 64 14 14 (301056)
I0403 19:40:46.016815 25515 net.cpp:156] Memory required for data: 1147309344
I0403 19:40:46.016831 25515 layer_factory.hpp:77] Creating layer inception_4d/output
I0403 19:40:46.016850 25515 net.cpp:91] Creating Layer inception_4d/output
I0403 19:40:46.016868 25515 net.cpp:425] inception_4d/output <- inception_4d/1x1
I0403 19:40:46.016885 25515 net.cpp:425] inception_4d/output <- inception_4d/3x3
I0403 19:40:46.016903 25515 net.cpp:425] inception_4d/output <- inception_4d/5x5
I0403 19:40:46.016921 25515 net.cpp:425] inception_4d/output <- inception_4d/pool_proj
I0403 19:40:46.016937 25515 net.cpp:399] inception_4d/output -> inception_4d/output
I0403 19:40:46.016990 25515 net.cpp:141] Setting up inception_4d/output
I0403 19:40:46.017017 25515 net.cpp:148] Top shape: 24 528 14 14 (2483712)
I0403 19:40:46.017032 25515 net.cpp:156] Memory required for data: 1157244192
I0403 19:40:46.017046 25515 layer_factory.hpp:77] Creating layer inception_4d/output_inception_4d/output_0_split
I0403 19:40:46.017062 25515 net.cpp:91] Creating Layer inception_4d/output_inception_4d/output_0_split
I0403 19:40:46.017078 25515 net.cpp:425] inception_4d/output_inception_4d/output_0_split <- inception_4d/output
I0403 19:40:46.017102 25515 net.cpp:399] inception_4d/output_inception_4d/output_0_split -> inception_4d/output_inception_4d/output_0_split_0
I0403 19:40:46.017127 25515 net.cpp:399] inception_4d/output_inception_4d/output_0_split -> inception_4d/output_inception_4d/output_0_split_1
I0403 19:40:46.017149 25515 net.cpp:399] inception_4d/output_inception_4d/output_0_split -> inception_4d/output_inception_4d/output_0_split_2
I0403 19:40:46.017171 25515 net.cpp:399] inception_4d/output_inception_4d/output_0_split -> inception_4d/output_inception_4d/output_0_split_3
I0403 19:40:46.017196 25515 net.cpp:399] inception_4d/output_inception_4d/output_0_split -> inception_4d/output_inception_4d/output_0_split_4
I0403 19:40:46.017303 25515 net.cpp:141] Setting up inception_4d/output_inception_4d/output_0_split
I0403 19:40:46.017344 25515 net.cpp:148] Top shape: 24 528 14 14 (2483712)
I0403 19:40:46.017364 25515 net.cpp:148] Top shape: 24 528 14 14 (2483712)
I0403 19:40:46.017379 25515 net.cpp:148] Top shape: 24 528 14 14 (2483712)
I0403 19:40:46.017395 25515 net.cpp:148] Top shape: 24 528 14 14 (2483712)
I0403 19:40:46.017410 25515 net.cpp:148] Top shape: 24 528 14 14 (2483712)
I0403 19:40:46.017423 25515 net.cpp:156] Memory required for data: 1206918432
I0403 19:40:46.017439 25515 layer_factory.hpp:77] Creating layer loss2/ave_pool
I0403 19:40:46.017457 25515 net.cpp:91] Creating Layer loss2/ave_pool
I0403 19:40:46.017472 25515 net.cpp:425] loss2/ave_pool <- inception_4d/output_inception_4d/output_0_split_0
I0403 19:40:46.017494 25515 net.cpp:399] loss2/ave_pool -> loss2/ave_pool
I0403 19:40:46.017807 25515 net.cpp:141] Setting up loss2/ave_pool
I0403 19:40:46.017837 25515 net.cpp:148] Top shape: 24 528 4 4 (202752)
I0403 19:40:46.017853 25515 net.cpp:156] Memory required for data: 1207729440
I0403 19:40:46.017866 25515 layer_factory.hpp:77] Creating layer loss2/conv
I0403 19:40:46.017890 25515 net.cpp:91] Creating Layer loss2/conv
I0403 19:40:46.017910 25515 net.cpp:425] loss2/conv <- loss2/ave_pool
I0403 19:40:46.017930 25515 net.cpp:399] loss2/conv -> loss2/conv
I0403 19:40:46.019827 25515 net.cpp:141] Setting up loss2/conv
I0403 19:40:46.019858 25515 net.cpp:148] Top shape: 24 128 4 4 (49152)
I0403 19:40:46.019876 25515 net.cpp:156] Memory required for data: 1207926048
I0403 19:40:46.019896 25515 layer_factory.hpp:77] Creating layer loss2/relu_conv
I0403 19:40:46.019917 25515 net.cpp:91] Creating Layer loss2/relu_conv
I0403 19:40:46.019937 25515 net.cpp:425] loss2/relu_conv <- loss2/conv
I0403 19:40:46.019954 25515 net.cpp:386] loss2/relu_conv -> loss2/conv (in-place)
I0403 19:40:46.020236 25515 net.cpp:141] Setting up loss2/relu_conv
I0403 19:40:46.020267 25515 net.cpp:148] Top shape: 24 128 4 4 (49152)
I0403 19:40:46.020284 25515 net.cpp:156] Memory required for data: 1208122656
I0403 19:40:46.020308 25515 layer_factory.hpp:77] Creating layer loss2/fc
I0403 19:40:46.020330 25515 net.cpp:91] Creating Layer loss2/fc
I0403 19:40:46.020349 25515 net.cpp:425] loss2/fc <- loss2/conv
I0403 19:40:46.020370 25515 net.cpp:399] loss2/fc -> loss2/fc
I0403 19:40:46.037878 25515 net.cpp:141] Setting up loss2/fc
I0403 19:40:46.037915 25515 net.cpp:148] Top shape: 24 1024 (24576)
I0403 19:40:46.037930 25515 net.cpp:156] Memory required for data: 1208220960
I0403 19:40:46.037947 25515 layer_factory.hpp:77] Creating layer loss2/relu_fc
I0403 19:40:46.037966 25515 net.cpp:91] Creating Layer loss2/relu_fc
I0403 19:40:46.037983 25515 net.cpp:425] loss2/relu_fc <- loss2/fc
I0403 19:40:46.038003 25515 net.cpp:386] loss2/relu_fc -> loss2/fc (in-place)
I0403 19:40:46.038296 25515 net.cpp:141] Setting up loss2/relu_fc
I0403 19:40:46.038326 25515 net.cpp:148] Top shape: 24 1024 (24576)
I0403 19:40:46.038344 25515 net.cpp:156] Memory required for data: 1208319264
I0403 19:40:46.038358 25515 layer_factory.hpp:77] Creating layer loss2/drop_fc
I0403 19:40:46.038377 25515 net.cpp:91] Creating Layer loss2/drop_fc
I0403 19:40:46.038393 25515 net.cpp:425] loss2/drop_fc <- loss2/fc
I0403 19:40:46.038414 25515 net.cpp:386] loss2/drop_fc -> loss2/fc (in-place)
I0403 19:40:46.038468 25515 net.cpp:141] Setting up loss2/drop_fc
I0403 19:40:46.038493 25515 net.cpp:148] Top shape: 24 1024 (24576)
I0403 19:40:46.038507 25515 net.cpp:156] Memory required for data: 1208417568
I0403 19:40:46.038522 25515 layer_factory.hpp:77] Creating layer loss2/classifier_plantvillage
I0403 19:40:46.038539 25515 net.cpp:91] Creating Layer loss2/classifier_plantvillage
I0403 19:40:46.038557 25515 net.cpp:425] loss2/classifier_plantvillage <- loss2/fc
I0403 19:40:46.038580 25515 net.cpp:399] loss2/classifier_plantvillage -> loss2/classifier_plantvillage
I0403 19:40:46.038965 25515 net.cpp:141] Setting up loss2/classifier_plantvillage
I0403 19:40:46.038991 25515 net.cpp:148] Top shape: 24 38 (912)
I0403 19:40:46.039026 25515 net.cpp:156] Memory required for data: 1208421216
I0403 19:40:46.039047 25515 layer_factory.hpp:77] Creating layer loss2/classifier_plantvillage_loss2/classifier_plantvillage_0_split
I0403 19:40:46.039067 25515 net.cpp:91] Creating Layer loss2/classifier_plantvillage_loss2/classifier_plantvillage_0_split
I0403 19:40:46.039086 25515 net.cpp:425] loss2/classifier_plantvillage_loss2/classifier_plantvillage_0_split <- loss2/classifier_plantvillage
I0403 19:40:46.039108 25515 net.cpp:399] loss2/classifier_plantvillage_loss2/classifier_plantvillage_0_split -> loss2/classifier_plantvillage_loss2/classifier_plantvillage_0_split_0
I0403 19:40:46.039129 25515 net.cpp:399] loss2/classifier_plantvillage_loss2/classifier_plantvillage_0_split -> loss2/classifier_plantvillage_loss2/classifier_plantvillage_0_split_1
I0403 19:40:46.039152 25515 net.cpp:399] loss2/classifier_plantvillage_loss2/classifier_plantvillage_0_split -> loss2/classifier_plantvillage_loss2/classifier_plantvillage_0_split_2
I0403 19:40:46.039227 25515 net.cpp:141] Setting up loss2/classifier_plantvillage_loss2/classifier_plantvillage_0_split
I0403 19:40:46.039252 25515 net.cpp:148] Top shape: 24 38 (912)
I0403 19:40:46.039269 25515 net.cpp:148] Top shape: 24 38 (912)
I0403 19:40:46.039284 25515 net.cpp:148] Top shape: 24 38 (912)
I0403 19:40:46.039305 25515 net.cpp:156] Memory required for data: 1208432160
I0403 19:40:46.039319 25515 layer_factory.hpp:77] Creating layer inception_4e/1x1
I0403 19:40:46.039345 25515 net.cpp:91] Creating Layer inception_4e/1x1
I0403 19:40:46.039366 25515 net.cpp:425] inception_4e/1x1 <- inception_4d/output_inception_4d/output_0_split_1
I0403 19:40:46.039384 25515 net.cpp:399] inception_4e/1x1 -> inception_4e/1x1
I0403 19:40:46.041100 25515 net.cpp:141] Setting up inception_4e/1x1
I0403 19:40:46.041132 25515 net.cpp:148] Top shape: 24 256 14 14 (1204224)
I0403 19:40:46.041151 25515 net.cpp:156] Memory required for data: 1213249056
I0403 19:40:46.041167 25515 layer_factory.hpp:77] Creating layer inception_4e/relu_1x1
I0403 19:40:46.041187 25515 net.cpp:91] Creating Layer inception_4e/relu_1x1
I0403 19:40:46.041203 25515 net.cpp:425] inception_4e/relu_1x1 <- inception_4e/1x1
I0403 19:40:46.041221 25515 net.cpp:386] inception_4e/relu_1x1 -> inception_4e/1x1 (in-place)
I0403 19:40:46.041508 25515 net.cpp:141] Setting up inception_4e/relu_1x1
I0403 19:40:46.041540 25515 net.cpp:148] Top shape: 24 256 14 14 (1204224)
I0403 19:40:46.041558 25515 net.cpp:156] Memory required for data: 1218065952
I0403 19:40:46.041574 25515 layer_factory.hpp:77] Creating layer inception_4e/3x3_reduce
I0403 19:40:46.041595 25515 net.cpp:91] Creating Layer inception_4e/3x3_reduce
I0403 19:40:46.041615 25515 net.cpp:425] inception_4e/3x3_reduce <- inception_4d/output_inception_4d/output_0_split_2
I0403 19:40:46.041635 25515 net.cpp:399] inception_4e/3x3_reduce -> inception_4e/3x3_reduce
I0403 19:40:46.043753 25515 net.cpp:141] Setting up inception_4e/3x3_reduce
I0403 19:40:46.043787 25515 net.cpp:148] Top shape: 24 160 14 14 (752640)
I0403 19:40:46.043803 25515 net.cpp:156] Memory required for data: 1221076512
I0403 19:40:46.043822 25515 layer_factory.hpp:77] Creating layer inception_4e/relu_3x3_reduce
I0403 19:40:46.043843 25515 net.cpp:91] Creating Layer inception_4e/relu_3x3_reduce
I0403 19:40:46.043862 25515 net.cpp:425] inception_4e/relu_3x3_reduce <- inception_4e/3x3_reduce
I0403 19:40:46.043880 25515 net.cpp:386] inception_4e/relu_3x3_reduce -> inception_4e/3x3_reduce (in-place)
I0403 19:40:46.044057 25515 net.cpp:141] Setting up inception_4e/relu_3x3_reduce
I0403 19:40:46.044087 25515 net.cpp:148] Top shape: 24 160 14 14 (752640)
I0403 19:40:46.044101 25515 net.cpp:156] Memory required for data: 1224087072
I0403 19:40:46.044117 25515 layer_factory.hpp:77] Creating layer inception_4e/3x3
I0403 19:40:46.044142 25515 net.cpp:91] Creating Layer inception_4e/3x3
I0403 19:40:46.044160 25515 net.cpp:425] inception_4e/3x3 <- inception_4e/3x3_reduce
I0403 19:40:46.044181 25515 net.cpp:399] inception_4e/3x3 -> inception_4e/3x3
I0403 19:40:46.048987 25515 net.cpp:141] Setting up inception_4e/3x3
I0403 19:40:46.049028 25515 net.cpp:148] Top shape: 24 320 14 14 (1505280)
I0403 19:40:46.049046 25515 net.cpp:156] Memory required for data: 1230108192
I0403 19:40:46.049065 25515 layer_factory.hpp:77] Creating layer inception_4e/relu_3x3
I0403 19:40:46.049084 25515 net.cpp:91] Creating Layer inception_4e/relu_3x3
I0403 19:40:46.049103 25515 net.cpp:425] inception_4e/relu_3x3 <- inception_4e/3x3
I0403 19:40:46.049123 25515 net.cpp:386] inception_4e/relu_3x3 -> inception_4e/3x3 (in-place)
I0403 19:40:46.049415 25515 net.cpp:141] Setting up inception_4e/relu_3x3
I0403 19:40:46.049445 25515 net.cpp:148] Top shape: 24 320 14 14 (1505280)
I0403 19:40:46.049463 25515 net.cpp:156] Memory required for data: 1236129312
I0403 19:40:46.049476 25515 layer_factory.hpp:77] Creating layer inception_4e/5x5_reduce
I0403 19:40:46.049500 25515 net.cpp:91] Creating Layer inception_4e/5x5_reduce
I0403 19:40:46.049521 25515 net.cpp:425] inception_4e/5x5_reduce <- inception_4d/output_inception_4d/output_0_split_3
I0403 19:40:46.049542 25515 net.cpp:399] inception_4e/5x5_reduce -> inception_4e/5x5_reduce
I0403 19:40:46.050564 25515 net.cpp:141] Setting up inception_4e/5x5_reduce
I0403 19:40:46.050597 25515 net.cpp:148] Top shape: 24 32 14 14 (150528)
I0403 19:40:46.050617 25515 net.cpp:156] Memory required for data: 1236731424
I0403 19:40:46.050637 25515 layer_factory.hpp:77] Creating layer inception_4e/relu_5x5_reduce
I0403 19:40:46.050655 25515 net.cpp:91] Creating Layer inception_4e/relu_5x5_reduce
I0403 19:40:46.050673 25515 net.cpp:425] inception_4e/relu_5x5_reduce <- inception_4e/5x5_reduce
I0403 19:40:46.050690 25515 net.cpp:386] inception_4e/relu_5x5_reduce -> inception_4e/5x5_reduce (in-place)
I0403 19:40:46.050971 25515 net.cpp:141] Setting up inception_4e/relu_5x5_reduce
I0403 19:40:46.051002 25515 net.cpp:148] Top shape: 24 32 14 14 (150528)
I0403 19:40:46.051018 25515 net.cpp:156] Memory required for data: 1237333536
I0403 19:40:46.051034 25515 layer_factory.hpp:77] Creating layer inception_4e/5x5
I0403 19:40:46.051072 25515 net.cpp:91] Creating Layer inception_4e/5x5
I0403 19:40:46.051095 25515 net.cpp:425] inception_4e/5x5 <- inception_4e/5x5_reduce
I0403 19:40:46.051115 25515 net.cpp:399] inception_4e/5x5 -> inception_4e/5x5
I0403 19:40:46.052884 25515 net.cpp:141] Setting up inception_4e/5x5
I0403 19:40:46.052913 25515 net.cpp:148] Top shape: 24 128 14 14 (602112)
I0403 19:40:46.052929 25515 net.cpp:156] Memory required for data: 1239741984
I0403 19:40:46.052947 25515 layer_factory.hpp:77] Creating layer inception_4e/relu_5x5
I0403 19:40:46.052966 25515 net.cpp:91] Creating Layer inception_4e/relu_5x5
I0403 19:40:46.052985 25515 net.cpp:425] inception_4e/relu_5x5 <- inception_4e/5x5
I0403 19:40:46.053004 25515 net.cpp:386] inception_4e/relu_5x5 -> inception_4e/5x5 (in-place)
I0403 19:40:46.053194 25515 net.cpp:141] Setting up inception_4e/relu_5x5
I0403 19:40:46.053222 25515 net.cpp:148] Top shape: 24 128 14 14 (602112)
I0403 19:40:46.053237 25515 net.cpp:156] Memory required for data: 1242150432
I0403 19:40:46.053251 25515 layer_factory.hpp:77] Creating layer inception_4e/pool
I0403 19:40:46.053272 25515 net.cpp:91] Creating Layer inception_4e/pool
I0403 19:40:46.053295 25515 net.cpp:425] inception_4e/pool <- inception_4d/output_inception_4d/output_0_split_4
I0403 19:40:46.053323 25515 net.cpp:399] inception_4e/pool -> inception_4e/pool
I0403 19:40:46.053392 25515 net.cpp:141] Setting up inception_4e/pool
I0403 19:40:46.053419 25515 net.cpp:148] Top shape: 24 528 14 14 (2483712)
I0403 19:40:46.053436 25515 net.cpp:156] Memory required for data: 1252085280
I0403 19:40:46.053449 25515 layer_factory.hpp:77] Creating layer inception_4e/pool_proj
I0403 19:40:46.053472 25515 net.cpp:91] Creating Layer inception_4e/pool_proj
I0403 19:40:46.053490 25515 net.cpp:425] inception_4e/pool_proj <- inception_4e/pool
I0403 19:40:46.053511 25515 net.cpp:399] inception_4e/pool_proj -> inception_4e/pool_proj
I0403 19:40:46.054972 25515 net.cpp:141] Setting up inception_4e/pool_proj
I0403 19:40:46.055013 25515 net.cpp:148] Top shape: 24 128 14 14 (602112)
I0403 19:40:46.055032 25515 net.cpp:156] Memory required for data: 1254493728
I0403 19:40:46.055050 25515 layer_factory.hpp:77] Creating layer inception_4e/relu_pool_proj
I0403 19:40:46.055070 25515 net.cpp:91] Creating Layer inception_4e/relu_pool_proj
I0403 19:40:46.055091 25515 net.cpp:425] inception_4e/relu_pool_proj <- inception_4e/pool_proj
I0403 19:40:46.055109 25515 net.cpp:386] inception_4e/relu_pool_proj -> inception_4e/pool_proj (in-place)
I0403 19:40:46.055394 25515 net.cpp:141] Setting up inception_4e/relu_pool_proj
I0403 19:40:46.055424 25515 net.cpp:148] Top shape: 24 128 14 14 (602112)
I0403 19:40:46.055439 25515 net.cpp:156] Memory required for data: 1256902176
I0403 19:40:46.055454 25515 layer_factory.hpp:77] Creating layer inception_4e/output
I0403 19:40:46.055472 25515 net.cpp:91] Creating Layer inception_4e/output
I0403 19:40:46.055488 25515 net.cpp:425] inception_4e/output <- inception_4e/1x1
I0403 19:40:46.055505 25515 net.cpp:425] inception_4e/output <- inception_4e/3x3
I0403 19:40:46.055522 25515 net.cpp:425] inception_4e/output <- inception_4e/5x5
I0403 19:40:46.055541 25515 net.cpp:425] inception_4e/output <- inception_4e/pool_proj
I0403 19:40:46.055557 25515 net.cpp:399] inception_4e/output -> inception_4e/output
I0403 19:40:46.055606 25515 net.cpp:141] Setting up inception_4e/output
I0403 19:40:46.055636 25515 net.cpp:148] Top shape: 24 832 14 14 (3913728)
I0403 19:40:46.055655 25515 net.cpp:156] Memory required for data: 1272557088
I0403 19:40:46.055668 25515 layer_factory.hpp:77] Creating layer pool4/3x3_s2
I0403 19:40:46.055683 25515 net.cpp:91] Creating Layer pool4/3x3_s2
I0403 19:40:46.055701 25515 net.cpp:425] pool4/3x3_s2 <- inception_4e/output
I0403 19:40:46.055721 25515 net.cpp:399] pool4/3x3_s2 -> pool4/3x3_s2
I0403 19:40:46.055788 25515 net.cpp:141] Setting up pool4/3x3_s2
I0403 19:40:46.055816 25515 net.cpp:148] Top shape: 24 832 7 7 (978432)
I0403 19:40:46.055833 25515 net.cpp:156] Memory required for data: 1276470816
I0403 19:40:46.055846 25515 layer_factory.hpp:77] Creating layer pool4/3x3_s2_pool4/3x3_s2_0_split
I0403 19:40:46.055865 25515 net.cpp:91] Creating Layer pool4/3x3_s2_pool4/3x3_s2_0_split
I0403 19:40:46.055881 25515 net.cpp:425] pool4/3x3_s2_pool4/3x3_s2_0_split <- pool4/3x3_s2
I0403 19:40:46.055899 25515 net.cpp:399] pool4/3x3_s2_pool4/3x3_s2_0_split -> pool4/3x3_s2_pool4/3x3_s2_0_split_0
I0403 19:40:46.055922 25515 net.cpp:399] pool4/3x3_s2_pool4/3x3_s2_0_split -> pool4/3x3_s2_pool4/3x3_s2_0_split_1
I0403 19:40:46.055944 25515 net.cpp:399] pool4/3x3_s2_pool4/3x3_s2_0_split -> pool4/3x3_s2_pool4/3x3_s2_0_split_2
I0403 19:40:46.055966 25515 net.cpp:399] pool4/3x3_s2_pool4/3x3_s2_0_split -> pool4/3x3_s2_pool4/3x3_s2_0_split_3
I0403 19:40:46.056056 25515 net.cpp:141] Setting up pool4/3x3_s2_pool4/3x3_s2_0_split
I0403 19:40:46.056082 25515 net.cpp:148] Top shape: 24 832 7 7 (978432)
I0403 19:40:46.056099 25515 net.cpp:148] Top shape: 24 832 7 7 (978432)
I0403 19:40:46.056114 25515 net.cpp:148] Top shape: 24 832 7 7 (978432)
I0403 19:40:46.056129 25515 net.cpp:148] Top shape: 24 832 7 7 (978432)
I0403 19:40:46.056141 25515 net.cpp:156] Memory required for data: 1292125728
I0403 19:40:46.056155 25515 layer_factory.hpp:77] Creating layer inception_5a/1x1
I0403 19:40:46.056177 25515 net.cpp:91] Creating Layer inception_5a/1x1
I0403 19:40:46.056196 25515 net.cpp:425] inception_5a/1x1 <- pool4/3x3_s2_pool4/3x3_s2_0_split_0
I0403 19:40:46.056217 25515 net.cpp:399] inception_5a/1x1 -> inception_5a/1x1
I0403 19:40:46.058981 25515 net.cpp:141] Setting up inception_5a/1x1
I0403 19:40:46.059011 25515 net.cpp:148] Top shape: 24 256 7 7 (301056)
I0403 19:40:46.059027 25515 net.cpp:156] Memory required for data: 1293329952
I0403 19:40:46.059046 25515 layer_factory.hpp:77] Creating layer inception_5a/relu_1x1
I0403 19:40:46.059067 25515 net.cpp:91] Creating Layer inception_5a/relu_1x1
I0403 19:40:46.059087 25515 net.cpp:425] inception_5a/relu_1x1 <- inception_5a/1x1
I0403 19:40:46.059105 25515 net.cpp:386] inception_5a/relu_1x1 -> inception_5a/1x1 (in-place)
I0403 19:40:46.059414 25515 net.cpp:141] Setting up inception_5a/relu_1x1
I0403 19:40:46.059443 25515 net.cpp:148] Top shape: 24 256 7 7 (301056)
I0403 19:40:46.059458 25515 net.cpp:156] Memory required for data: 1294534176
I0403 19:40:46.059473 25515 layer_factory.hpp:77] Creating layer inception_5a/3x3_reduce
I0403 19:40:46.059496 25515 net.cpp:91] Creating Layer inception_5a/3x3_reduce
I0403 19:40:46.059514 25515 net.cpp:425] inception_5a/3x3_reduce <- pool4/3x3_s2_pool4/3x3_s2_0_split_1
I0403 19:40:46.059537 25515 net.cpp:399] inception_5a/3x3_reduce -> inception_5a/3x3_reduce
I0403 19:40:46.061903 25515 net.cpp:141] Setting up inception_5a/3x3_reduce
I0403 19:40:46.061935 25515 net.cpp:148] Top shape: 24 160 7 7 (188160)
I0403 19:40:46.061951 25515 net.cpp:156] Memory required for data: 1295286816
I0403 19:40:46.061969 25515 layer_factory.hpp:77] Creating layer inception_5a/relu_3x3_reduce
I0403 19:40:46.061986 25515 net.cpp:91] Creating Layer inception_5a/relu_3x3_reduce
I0403 19:40:46.062006 25515 net.cpp:425] inception_5a/relu_3x3_reduce <- inception_5a/3x3_reduce
I0403 19:40:46.062026 25515 net.cpp:386] inception_5a/relu_3x3_reduce -> inception_5a/3x3_reduce (in-place)
I0403 19:40:46.062207 25515 net.cpp:141] Setting up inception_5a/relu_3x3_reduce
I0403 19:40:46.062237 25515 net.cpp:148] Top shape: 24 160 7 7 (188160)
I0403 19:40:46.062252 25515 net.cpp:156] Memory required for data: 1296039456
I0403 19:40:46.062268 25515 layer_factory.hpp:77] Creating layer inception_5a/3x3
I0403 19:40:46.062296 25515 net.cpp:91] Creating Layer inception_5a/3x3
I0403 19:40:46.062317 25515 net.cpp:425] inception_5a/3x3 <- inception_5a/3x3_reduce
I0403 19:40:46.062341 25515 net.cpp:399] inception_5a/3x3 -> inception_5a/3x3
I0403 19:40:46.067262 25515 net.cpp:141] Setting up inception_5a/3x3
I0403 19:40:46.067299 25515 net.cpp:148] Top shape: 24 320 7 7 (376320)
I0403 19:40:46.067319 25515 net.cpp:156] Memory required for data: 1297544736
I0403 19:40:46.067339 25515 layer_factory.hpp:77] Creating layer inception_5a/relu_3x3
I0403 19:40:46.067359 25515 net.cpp:91] Creating Layer inception_5a/relu_3x3
I0403 19:40:46.067378 25515 net.cpp:425] inception_5a/relu_3x3 <- inception_5a/3x3
I0403 19:40:46.067396 25515 net.cpp:386] inception_5a/relu_3x3 -> inception_5a/3x3 (in-place)
I0403 19:40:46.067679 25515 net.cpp:141] Setting up inception_5a/relu_3x3
I0403 19:40:46.067709 25515 net.cpp:148] Top shape: 24 320 7 7 (376320)
I0403 19:40:46.067725 25515 net.cpp:156] Memory required for data: 1299050016
I0403 19:40:46.067741 25515 layer_factory.hpp:77] Creating layer inception_5a/5x5_reduce
I0403 19:40:46.067762 25515 net.cpp:91] Creating Layer inception_5a/5x5_reduce
I0403 19:40:46.067782 25515 net.cpp:425] inception_5a/5x5_reduce <- pool4/3x3_s2_pool4/3x3_s2_0_split_2
I0403 19:40:46.067805 25515 net.cpp:399] inception_5a/5x5_reduce -> inception_5a/5x5_reduce
I0403 19:40:46.068930 25515 net.cpp:141] Setting up inception_5a/5x5_reduce
I0403 19:40:46.068961 25515 net.cpp:148] Top shape: 24 32 7 7 (37632)
I0403 19:40:46.068977 25515 net.cpp:156] Memory required for data: 1299200544
I0403 19:40:46.068995 25515 layer_factory.hpp:77] Creating layer inception_5a/relu_5x5_reduce
I0403 19:40:46.069016 25515 net.cpp:91] Creating Layer inception_5a/relu_5x5_reduce
I0403 19:40:46.069034 25515 net.cpp:425] inception_5a/relu_5x5_reduce <- inception_5a/5x5_reduce
I0403 19:40:46.069052 25515 net.cpp:386] inception_5a/relu_5x5_reduce -> inception_5a/5x5_reduce (in-place)
I0403 19:40:46.069342 25515 net.cpp:141] Setting up inception_5a/relu_5x5_reduce
I0403 19:40:46.069370 25515 net.cpp:148] Top shape: 24 32 7 7 (37632)
I0403 19:40:46.069388 25515 net.cpp:156] Memory required for data: 1299351072
I0403 19:40:46.069403 25515 layer_factory.hpp:77] Creating layer inception_5a/5x5
I0403 19:40:46.069427 25515 net.cpp:91] Creating Layer inception_5a/5x5
I0403 19:40:46.069445 25515 net.cpp:425] inception_5a/5x5 <- inception_5a/5x5_reduce
I0403 19:40:46.069465 25515 net.cpp:399] inception_5a/5x5 -> inception_5a/5x5
I0403 19:40:46.071099 25515 net.cpp:141] Setting up inception_5a/5x5
I0403 19:40:46.071138 25515 net.cpp:148] Top shape: 24 128 7 7 (150528)
I0403 19:40:46.071156 25515 net.cpp:156] Memory required for data: 1299953184
I0403 19:40:46.071176 25515 layer_factory.hpp:77] Creating layer inception_5a/relu_5x5
I0403 19:40:46.071195 25515 net.cpp:91] Creating Layer inception_5a/relu_5x5
I0403 19:40:46.071216 25515 net.cpp:425] inception_5a/relu_5x5 <- inception_5a/5x5
I0403 19:40:46.071235 25515 net.cpp:386] inception_5a/relu_5x5 -> inception_5a/5x5 (in-place)
I0403 19:40:46.071424 25515 net.cpp:141] Setting up inception_5a/relu_5x5
I0403 19:40:46.071454 25515 net.cpp:148] Top shape: 24 128 7 7 (150528)
I0403 19:40:46.071470 25515 net.cpp:156] Memory required for data: 1300555296
I0403 19:40:46.071485 25515 layer_factory.hpp:77] Creating layer inception_5a/pool
I0403 19:40:46.071501 25515 net.cpp:91] Creating Layer inception_5a/pool
I0403 19:40:46.071516 25515 net.cpp:425] inception_5a/pool <- pool4/3x3_s2_pool4/3x3_s2_0_split_3
I0403 19:40:46.071537 25515 net.cpp:399] inception_5a/pool -> inception_5a/pool
I0403 19:40:46.071605 25515 net.cpp:141] Setting up inception_5a/pool
I0403 19:40:46.071633 25515 net.cpp:148] Top shape: 24 832 7 7 (978432)
I0403 19:40:46.071647 25515 net.cpp:156] Memory required for data: 1304469024
I0403 19:40:46.071663 25515 layer_factory.hpp:77] Creating layer inception_5a/pool_proj
I0403 19:40:46.071686 25515 net.cpp:91] Creating Layer inception_5a/pool_proj
I0403 19:40:46.071704 25515 net.cpp:425] inception_5a/pool_proj <- inception_5a/pool
I0403 19:40:46.071725 25515 net.cpp:399] inception_5a/pool_proj -> inception_5a/pool_proj
I0403 19:40:46.073920 25515 net.cpp:141] Setting up inception_5a/pool_proj
I0403 19:40:46.073951 25515 net.cpp:148] Top shape: 24 128 7 7 (150528)
I0403 19:40:46.073968 25515 net.cpp:156] Memory required for data: 1305071136
I0403 19:40:46.073987 25515 layer_factory.hpp:77] Creating layer inception_5a/relu_pool_proj
I0403 19:40:46.074009 25515 net.cpp:91] Creating Layer inception_5a/relu_pool_proj
I0403 19:40:46.074028 25515 net.cpp:425] inception_5a/relu_pool_proj <- inception_5a/pool_proj
I0403 19:40:46.074046 25515 net.cpp:386] inception_5a/relu_pool_proj -> inception_5a/pool_proj (in-place)
I0403 19:40:46.074357 25515 net.cpp:141] Setting up inception_5a/relu_pool_proj
I0403 19:40:46.074398 25515 net.cpp:148] Top shape: 24 128 7 7 (150528)
I0403 19:40:46.074415 25515 net.cpp:156] Memory required for data: 1305673248
I0403 19:40:46.074431 25515 layer_factory.hpp:77] Creating layer inception_5a/output
I0403 19:40:46.074448 25515 net.cpp:91] Creating Layer inception_5a/output
I0403 19:40:46.074465 25515 net.cpp:425] inception_5a/output <- inception_5a/1x1
I0403 19:40:46.074483 25515 net.cpp:425] inception_5a/output <- inception_5a/3x3
I0403 19:40:46.074501 25515 net.cpp:425] inception_5a/output <- inception_5a/5x5
I0403 19:40:46.074519 25515 net.cpp:425] inception_5a/output <- inception_5a/pool_proj
I0403 19:40:46.074540 25515 net.cpp:399] inception_5a/output -> inception_5a/output
I0403 19:40:46.074595 25515 net.cpp:141] Setting up inception_5a/output
I0403 19:40:46.074622 25515 net.cpp:148] Top shape: 24 832 7 7 (978432)
I0403 19:40:46.074638 25515 net.cpp:156] Memory required for data: 1309586976
I0403 19:40:46.074654 25515 layer_factory.hpp:77] Creating layer inception_5a/output_inception_5a/output_0_split
I0403 19:40:46.074686 25515 net.cpp:91] Creating Layer inception_5a/output_inception_5a/output_0_split
I0403 19:40:46.074700 25515 net.cpp:425] inception_5a/output_inception_5a/output_0_split <- inception_5a/output
I0403 19:40:46.074719 25515 net.cpp:399] inception_5a/output_inception_5a/output_0_split -> inception_5a/output_inception_5a/output_0_split_0
I0403 19:40:46.074740 25515 net.cpp:399] inception_5a/output_inception_5a/output_0_split -> inception_5a/output_inception_5a/output_0_split_1
I0403 19:40:46.074762 25515 net.cpp:399] inception_5a/output_inception_5a/output_0_split -> inception_5a/output_inception_5a/output_0_split_2
I0403 19:40:46.074784 25515 net.cpp:399] inception_5a/output_inception_5a/output_0_split -> inception_5a/output_inception_5a/output_0_split_3
I0403 19:40:46.074900 25515 net.cpp:141] Setting up inception_5a/output_inception_5a/output_0_split
I0403 19:40:46.074928 25515 net.cpp:148] Top shape: 24 832 7 7 (978432)
I0403 19:40:46.074945 25515 net.cpp:148] Top shape: 24 832 7 7 (978432)
I0403 19:40:46.074961 25515 net.cpp:148] Top shape: 24 832 7 7 (978432)
I0403 19:40:46.074977 25515 net.cpp:148] Top shape: 24 832 7 7 (978432)
I0403 19:40:46.074991 25515 net.cpp:156] Memory required for data: 1325241888
I0403 19:40:46.075006 25515 layer_factory.hpp:77] Creating layer inception_5b/1x1
I0403 19:40:46.075031 25515 net.cpp:91] Creating Layer inception_5b/1x1
I0403 19:40:46.075048 25515 net.cpp:425] inception_5b/1x1 <- inception_5a/output_inception_5a/output_0_split_0
I0403 19:40:46.075070 25515 net.cpp:399] inception_5b/1x1 -> inception_5b/1x1
I0403 19:40:46.078833 25515 net.cpp:141] Setting up inception_5b/1x1
I0403 19:40:46.078865 25515 net.cpp:148] Top shape: 24 384 7 7 (451584)
I0403 19:40:46.078881 25515 net.cpp:156] Memory required for data: 1327048224
I0403 19:40:46.078901 25515 layer_factory.hpp:77] Creating layer inception_5b/relu_1x1
I0403 19:40:46.078919 25515 net.cpp:91] Creating Layer inception_5b/relu_1x1
I0403 19:40:46.078940 25515 net.cpp:425] inception_5b/relu_1x1 <- inception_5b/1x1
I0403 19:40:46.078959 25515 net.cpp:386] inception_5b/relu_1x1 -> inception_5b/1x1 (in-place)
I0403 19:40:46.079255 25515 net.cpp:141] Setting up inception_5b/relu_1x1
I0403 19:40:46.079284 25515 net.cpp:148] Top shape: 24 384 7 7 (451584)
I0403 19:40:46.079308 25515 net.cpp:156] Memory required for data: 1328854560
I0403 19:40:46.079325 25515 layer_factory.hpp:77] Creating layer inception_5b/3x3_reduce
I0403 19:40:46.079349 25515 net.cpp:91] Creating Layer inception_5b/3x3_reduce
I0403 19:40:46.079367 25515 net.cpp:425] inception_5b/3x3_reduce <- inception_5a/output_inception_5a/output_0_split_1
I0403 19:40:46.079391 25515 net.cpp:399] inception_5b/3x3_reduce -> inception_5b/3x3_reduce
I0403 19:40:46.082051 25515 net.cpp:141] Setting up inception_5b/3x3_reduce
I0403 19:40:46.082083 25515 net.cpp:148] Top shape: 24 192 7 7 (225792)
I0403 19:40:46.082103 25515 net.cpp:156] Memory required for data: 1329757728
I0403 19:40:46.082120 25515 layer_factory.hpp:77] Creating layer inception_5b/relu_3x3_reduce
I0403 19:40:46.082140 25515 net.cpp:91] Creating Layer inception_5b/relu_3x3_reduce
I0403 19:40:46.082159 25515 net.cpp:425] inception_5b/relu_3x3_reduce <- inception_5b/3x3_reduce
I0403 19:40:46.082180 25515 net.cpp:386] inception_5b/relu_3x3_reduce -> inception_5b/3x3_reduce (in-place)
I0403 19:40:46.082388 25515 net.cpp:141] Setting up inception_5b/relu_3x3_reduce
I0403 19:40:46.082419 25515 net.cpp:148] Top shape: 24 192 7 7 (225792)
I0403 19:40:46.082438 25515 net.cpp:156] Memory required for data: 1330660896
I0403 19:40:46.082453 25515 layer_factory.hpp:77] Creating layer inception_5b/3x3
I0403 19:40:46.082475 25515 net.cpp:91] Creating Layer inception_5b/3x3
I0403 19:40:46.082497 25515 net.cpp:425] inception_5b/3x3 <- inception_5b/3x3_reduce
I0403 19:40:46.082520 25515 net.cpp:399] inception_5b/3x3 -> inception_5b/3x3
I0403 19:40:46.089265 25515 net.cpp:141] Setting up inception_5b/3x3
I0403 19:40:46.089301 25515 net.cpp:148] Top shape: 24 384 7 7 (451584)
I0403 19:40:46.089320 25515 net.cpp:156] Memory required for data: 1332467232
I0403 19:40:46.089339 25515 layer_factory.hpp:77] Creating layer inception_5b/relu_3x3
I0403 19:40:46.089361 25515 net.cpp:91] Creating Layer inception_5b/relu_3x3
I0403 19:40:46.089381 25515 net.cpp:425] inception_5b/relu_3x3 <- inception_5b/3x3
I0403 19:40:46.089401 25515 net.cpp:386] inception_5b/relu_3x3 -> inception_5b/3x3 (in-place)
I0403 19:40:46.089697 25515 net.cpp:141] Setting up inception_5b/relu_3x3
I0403 19:40:46.089726 25515 net.cpp:148] Top shape: 24 384 7 7 (451584)
I0403 19:40:46.089741 25515 net.cpp:156] Memory required for data: 1334273568
I0403 19:40:46.089758 25515 layer_factory.hpp:77] Creating layer inception_5b/5x5_reduce
I0403 19:40:46.089797 25515 net.cpp:91] Creating Layer inception_5b/5x5_reduce
I0403 19:40:46.089818 25515 net.cpp:425] inception_5b/5x5_reduce <- inception_5a/output_inception_5a/output_0_split_2
I0403 19:40:46.089843 25515 net.cpp:399] inception_5b/5x5_reduce -> inception_5b/5x5_reduce
I0403 19:40:46.091135 25515 net.cpp:141] Setting up inception_5b/5x5_reduce
I0403 19:40:46.091169 25515 net.cpp:148] Top shape: 24 48 7 7 (56448)
I0403 19:40:46.091187 25515 net.cpp:156] Memory required for data: 1334499360
I0403 19:40:46.091204 25515 layer_factory.hpp:77] Creating layer inception_5b/relu_5x5_reduce
I0403 19:40:46.091228 25515 net.cpp:91] Creating Layer inception_5b/relu_5x5_reduce
I0403 19:40:46.091249 25515 net.cpp:425] inception_5b/relu_5x5_reduce <- inception_5b/5x5_reduce
I0403 19:40:46.091269 25515 net.cpp:386] inception_5b/relu_5x5_reduce -> inception_5b/5x5_reduce (in-place)
I0403 19:40:46.091644 25515 net.cpp:141] Setting up inception_5b/relu_5x5_reduce
I0403 19:40:46.091676 25515 net.cpp:148] Top shape: 24 48 7 7 (56448)
I0403 19:40:46.091694 25515 net.cpp:156] Memory required for data: 1334725152
I0403 19:40:46.091709 25515 layer_factory.hpp:77] Creating layer inception_5b/5x5
I0403 19:40:46.091730 25515 net.cpp:91] Creating Layer inception_5b/5x5
I0403 19:40:46.091747 25515 net.cpp:425] inception_5b/5x5 <- inception_5b/5x5_reduce
I0403 19:40:46.091768 25515 net.cpp:399] inception_5b/5x5 -> inception_5b/5x5
I0403 19:40:46.093785 25515 net.cpp:141] Setting up inception_5b/5x5
I0403 19:40:46.093816 25515 net.cpp:148] Top shape: 24 128 7 7 (150528)
I0403 19:40:46.093832 25515 net.cpp:156] Memory required for data: 1335327264
I0403 19:40:46.093852 25515 layer_factory.hpp:77] Creating layer inception_5b/relu_5x5
I0403 19:40:46.093870 25515 net.cpp:91] Creating Layer inception_5b/relu_5x5
I0403 19:40:46.093890 25515 net.cpp:425] inception_5b/relu_5x5 <- inception_5b/5x5
I0403 19:40:46.093907 25515 net.cpp:386] inception_5b/relu_5x5 -> inception_5b/5x5 (in-place)
I0403 19:40:46.094097 25515 net.cpp:141] Setting up inception_5b/relu_5x5
I0403 19:40:46.094130 25515 net.cpp:148] Top shape: 24 128 7 7 (150528)
I0403 19:40:46.094148 25515 net.cpp:156] Memory required for data: 1335929376
I0403 19:40:46.094164 25515 layer_factory.hpp:77] Creating layer inception_5b/pool
I0403 19:40:46.094182 25515 net.cpp:91] Creating Layer inception_5b/pool
I0403 19:40:46.094198 25515 net.cpp:425] inception_5b/pool <- inception_5a/output_inception_5a/output_0_split_3
I0403 19:40:46.094220 25515 net.cpp:399] inception_5b/pool -> inception_5b/pool
I0403 19:40:46.094302 25515 net.cpp:141] Setting up inception_5b/pool
I0403 19:40:46.094332 25515 net.cpp:148] Top shape: 24 832 7 7 (978432)
I0403 19:40:46.094348 25515 net.cpp:156] Memory required for data: 1339843104
I0403 19:40:46.094364 25515 layer_factory.hpp:77] Creating layer inception_5b/pool_proj
I0403 19:40:46.094388 25515 net.cpp:91] Creating Layer inception_5b/pool_proj
I0403 19:40:46.094409 25515 net.cpp:425] inception_5b/pool_proj <- inception_5b/pool
I0403 19:40:46.094429 25515 net.cpp:399] inception_5b/pool_proj -> inception_5b/pool_proj
I0403 19:40:46.096647 25515 net.cpp:141] Setting up inception_5b/pool_proj
I0403 19:40:46.096680 25515 net.cpp:148] Top shape: 24 128 7 7 (150528)
I0403 19:40:46.096700 25515 net.cpp:156] Memory required for data: 1340445216
I0403 19:40:46.096720 25515 layer_factory.hpp:77] Creating layer inception_5b/relu_pool_proj
I0403 19:40:46.096743 25515 net.cpp:91] Creating Layer inception_5b/relu_pool_proj
I0403 19:40:46.096763 25515 net.cpp:425] inception_5b/relu_pool_proj <- inception_5b/pool_proj
I0403 19:40:46.096781 25515 net.cpp:386] inception_5b/relu_pool_proj -> inception_5b/pool_proj (in-place)
I0403 19:40:46.097066 25515 net.cpp:141] Setting up inception_5b/relu_pool_proj
I0403 19:40:46.097096 25515 net.cpp:148] Top shape: 24 128 7 7 (150528)
I0403 19:40:46.097111 25515 net.cpp:156] Memory required for data: 1341047328
I0403 19:40:46.097126 25515 layer_factory.hpp:77] Creating layer inception_5b/output
I0403 19:40:46.097146 25515 net.cpp:91] Creating Layer inception_5b/output
I0403 19:40:46.097178 25515 net.cpp:425] inception_5b/output <- inception_5b/1x1
I0403 19:40:46.097198 25515 net.cpp:425] inception_5b/output <- inception_5b/3x3
I0403 19:40:46.097218 25515 net.cpp:425] inception_5b/output <- inception_5b/5x5
I0403 19:40:46.097234 25515 net.cpp:425] inception_5b/output <- inception_5b/pool_proj
I0403 19:40:46.097252 25515 net.cpp:399] inception_5b/output -> inception_5b/output
I0403 19:40:46.097306 25515 net.cpp:141] Setting up inception_5b/output
I0403 19:40:46.097337 25515 net.cpp:148] Top shape: 24 1024 7 7 (1204224)
I0403 19:40:46.097352 25515 net.cpp:156] Memory required for data: 1345864224
I0403 19:40:46.097368 25515 layer_factory.hpp:77] Creating layer pool5/7x7_s1
I0403 19:40:46.097388 25515 net.cpp:91] Creating Layer pool5/7x7_s1
I0403 19:40:46.097404 25515 net.cpp:425] pool5/7x7_s1 <- inception_5b/output
I0403 19:40:46.097424 25515 net.cpp:399] pool5/7x7_s1 -> pool5/7x7_s1
I0403 19:40:46.097638 25515 net.cpp:141] Setting up pool5/7x7_s1
I0403 19:40:46.097666 25515 net.cpp:148] Top shape: 24 1024 1 1 (24576)
I0403 19:40:46.097682 25515 net.cpp:156] Memory required for data: 1345962528
I0403 19:40:46.097699 25515 layer_factory.hpp:77] Creating layer pool5/drop_7x7_s1
I0403 19:40:46.097720 25515 net.cpp:91] Creating Layer pool5/drop_7x7_s1
I0403 19:40:46.097738 25515 net.cpp:425] pool5/drop_7x7_s1 <- pool5/7x7_s1
I0403 19:40:46.097757 25515 net.cpp:386] pool5/drop_7x7_s1 -> pool5/7x7_s1 (in-place)
I0403 19:40:46.097808 25515 net.cpp:141] Setting up pool5/drop_7x7_s1
I0403 19:40:46.097834 25515 net.cpp:148] Top shape: 24 1024 1 1 (24576)
I0403 19:40:46.097851 25515 net.cpp:156] Memory required for data: 1346060832
I0403 19:40:46.097867 25515 layer_factory.hpp:77] Creating layer loss3/classifier_plantvillage
I0403 19:40:46.097885 25515 net.cpp:91] Creating Layer loss3/classifier_plantvillage
I0403 19:40:46.097908 25515 net.cpp:425] loss3/classifier_plantvillage <- pool5/7x7_s1
I0403 19:40:46.097925 25515 net.cpp:399] loss3/classifier_plantvillage -> loss3/classifier_plantvillage
I0403 19:40:46.098345 25515 net.cpp:141] Setting up loss3/classifier_plantvillage
I0403 19:40:46.098374 25515 net.cpp:148] Top shape: 24 38 (912)
I0403 19:40:46.098390 25515 net.cpp:156] Memory required for data: 1346064480
I0403 19:40:46.098409 25515 layer_factory.hpp:77] Creating layer loss3/classifier_plantvillage_loss3/classifier_plantvillage_0_split
I0403 19:40:46.098428 25515 net.cpp:91] Creating Layer loss3/classifier_plantvillage_loss3/classifier_plantvillage_0_split
I0403 19:40:46.098444 25515 net.cpp:425] loss3/classifier_plantvillage_loss3/classifier_plantvillage_0_split <- loss3/classifier_plantvillage
I0403 19:40:46.098465 25515 net.cpp:399] loss3/classifier_plantvillage_loss3/classifier_plantvillage_0_split -> loss3/classifier_plantvillage_loss3/classifier_plantvillage_0_split_0
I0403 19:40:46.098489 25515 net.cpp:399] loss3/classifier_plantvillage_loss3/classifier_plantvillage_0_split -> loss3/classifier_plantvillage_loss3/classifier_plantvillage_0_split_1
I0403 19:40:46.098510 25515 net.cpp:399] loss3/classifier_plantvillage_loss3/classifier_plantvillage_0_split -> loss3/classifier_plantvillage_loss3/classifier_plantvillage_0_split_2
I0403 19:40:46.098531 25515 net.cpp:399] loss3/classifier_plantvillage_loss3/classifier_plantvillage_0_split -> loss3/classifier_plantvillage_loss3/classifier_plantvillage_0_split_3
I0403 19:40:46.098631 25515 net.cpp:141] Setting up loss3/classifier_plantvillage_loss3/classifier_plantvillage_0_split
I0403 19:40:46.098659 25515 net.cpp:148] Top shape: 24 38 (912)
I0403 19:40:46.098676 25515 net.cpp:148] Top shape: 24 38 (912)
I0403 19:40:46.098692 25515 net.cpp:148] Top shape: 24 38 (912)
I0403 19:40:46.098707 25515 net.cpp:148] Top shape: 24 38 (912)
I0403 19:40:46.098721 25515 net.cpp:156] Memory required for data: 1346079072
I0403 19:40:46.098734 25515 layer_factory.hpp:77] Creating layer loss1/loss
I0403 19:40:46.098759 25515 net.cpp:91] Creating Layer loss1/loss
I0403 19:40:46.098780 25515 net.cpp:425] loss1/loss <- loss1/classifier_plantvillage_loss1/classifier_plantvillage_0_split_0
I0403 19:40:46.098811 25515 net.cpp:425] loss1/loss <- label_data_1_split_0
…
