…
I0403 19:33:32.092453 25098 net.cpp:313] The NetState phase (1) differed from the phase (0) specified by a rule in layer data
I0403 19:33:32.094754 25098 net.cpp:49] Initializing net from parameters: 
state {
  phase: TEST
}
layer {
  name: "data"
  type: "Data"
  top: "data"
  top: "label"
  include {
    phase: TEST
  }
  transform_param {
    mirror: false
    crop_size: 224
    mean_file: "/home/mohanty/data/final_dataset/lmdb/grayscale-80-20/mean.binaryproto"
  }
  data_param {
    source: "/home/mohanty/data/final_dataset/lmdb/grayscale-80-20/test_db"
    batch_size: 24
    backend: LMDB
  }
}
layer {
  name: "conv1/7x7_s2"
  type: "Convolution"
  bottom: "data"
  top: "conv1/7x7_s2"
  param {
    lr_mult: 1
    decay_mult: 1
  }
  param {
    lr_mult: 2
    decay_mult: 0
  }
  convolution_param {
    num_output: 64
    pad: 3
    kernel_size: 7
    stride: 2
    weight_filler {
      type: "xavier"
      std: 0.1
    }
    bias_filler {
      type: "constant"
      value: 0.2
    }
  }
}
layer {
  name: "conv1/relu_7x7"
  type: "ReLU"
  bottom: "conv1/7x7_s2"
  top: "conv1/7x7_s2"
}
layer {
  name: "pool1/3x3_s2"
  type: "Pooling"
  bottom: "conv1/7x7_s2"
  top: "pool1/3x3_s2"
  pooling_param {
    pool: MAX
    kernel_size: 3
    stride: 2
  }
}
layer {
  name: "pool1/norm1"
  type: "LRN"
  bottom: "pool1/3x3_s2"
  top: "pool1/norm1"
  lrn_param {
    local_size: 5
    alpha: 0.0001
    beta: 0.75
  }
}
layer {
  name: "conv2/3x3_reduce"
  type: "Convolution"
  bottom: "pool1/norm1"
  top: "conv2/3x3_reduce"
  param {
    lr_mult: 1
    decay_mult: 1
  }
  param {
    lr_mult: 2
    decay_mult: 0
  }
  convolution_param {
    num_output: 64
    kernel_size: 1
    weight_filler {
      type: "xavier"
      std: 0.1
    }
    bias_filler {
      type: "constant"
      value: 0.2
    }
  }
}
layer {
  name: "conv2/relu_3x3_reduce"
  type: "ReLU"
  bottom: "conv2/3x3_reduce"
  top: "conv2/3x3_reduce"
}
layer {
  name: "conv2/3x3"
  type: "Convolution"
  bottom: "conv2/3x3_reduce"
  top: "conv2/3x3"
  param {
    lr_mult: 1
    decay_mult: 1
  }
  param {
    lr_mult: 2
    decay_mult: 0
  }
  convolution_param {
    num_output: 192
    pad: 1
    kernel_size: 3
    weight_filler {
      type: "xavier"
      std: 0.03
    }
    bias_filler {
      type: "constant"
      value: 0.2
    }
  }
}
layer {
  name: "conv2/relu_3x3"
  type: "ReLU"
  bottom: "conv2/3x3"
  top: "conv2/3x3"
}
layer {
  name: "conv2/norm2"
  type: "LRN"
  bottom: "conv2/3x3"
  top: "conv2/norm2"
  lrn_param {
    local_size: 5
    alpha: 0.0001
    beta: 0.75
  }
}
layer {
  name: "pool2/3x3_s2"
  type: "Pooling"
  bottom: "conv2/norm2"
  top: "pool2/3x3_s2"
  pooling_param {
    pool: MAX
    kernel_size: 3
    stride: 2
  }
}
layer {
  name: "inception_3a/1x1"
  type: "Convolution"
  bottom: "pool2/3x3_s2"
  top: "inception_3a/1x1"
  param {
    lr_mult: 1
    decay_mult: 1
  }
  param {
    lr_mult: 2
    decay_mult: 0
  }
  convolution_param {
    num_output: 64
    kernel_size: 1
    weight_filler {
      type: "xavier"
      std: 0.03
    }
    bias_filler {
      type: "constant"
      value: 0.2
    }
  }
}
layer {
  name: "inception_3a/relu_1x1"
  type: "ReLU"
  bottom: "inception_3a/1x1"
  top: "inception_3a/1x1"
}
layer {
  name: "inception_3a/3x3_reduce"
  type: "Convolution"
  bottom: "pool2/3x3_s2"
  top: "inception_3a/3x3_reduce"
  param {
    lr_mult: 1
    decay_mult: 1
  }
  param {
    lr_mult: 2
    decay_mult: 0
  }
  convolution_param {
    num_output: 96
    kernel_size: 1
    weight_filler {
      type: "xavier"
      std: 0.09
    }
    bias_filler {
      type: "constant"
      value: 0.2
    }
  }
}
layer {
  name: "inception_3a/relu_3x3_reduce"
  type: "ReLU"
  bottom: "inception_3a/3x3_reduce"
  top: "inception_3a/3x3_reduce"
}
layer {
  name: "inception_3a/3x3"
  type: "Convolution"
  bottom: "inception_3a/3x3_reduce"
  top: "inception_3a/3x3"
  param {
    lr_mult: 1
    decay_mult: 1
  }
  param {
    lr_mult: 2
    decay_mult: 0
  }
  convolution_param {
    num_output: 128
    pad: 1
    kernel_size: 3
    weight_filler {
      type: "xavier"
      std: 0.03
    }
    bias_filler {
      type: "constant"
      value: 0.2
    }
  }
}
layer {
  name: "inception_3a/relu_3x3"
  type: "ReLU"
  bottom: "inception_3a/3x3"
  top: "inception_3a/3x3"
}
layer {
  name: "inception_3a/5x5_reduce"
  type: "Convolution"
  bottom: "pool2/3x3_s2"
  top: "inception_3a/5x5_reduce"
  param {
    lr_mult: 1
    decay_mult: 1
  }
  param {
    lr_mult: 2
    decay_mult: 0
  }
  convolution_param {
    num_output: 16
    kernel_size: 1
    weight_filler {
      type: "xavier"
      std: 0.2
    }
    bias_filler {
      type: "constant"
      value: 0.2
    }
  }
}
layer {
  name: "inception_3a/relu_5x5_reduce"
  type: "ReLU"
  bottom: "inception_3a/5x5_reduce"
  top: "inception_3a/5x5_reduce"
}
layer {
  name: "inception_3a/5x5"
  type: "Convolution"
  bottom: "inception_3a/5x5_reduce"
  top: "inception_3a/5x5"
  param {
    lr_mult: 1
    decay_mult: 1
  }
  param {
    lr_mult: 2
    decay_mult: 0
  }
  convolution_param {
    num_output: 32
    pad: 2
    kernel_size: 5
    weight_filler {
      type: "xavier"
      std: 0.03
    }
    bias_filler {
      type: "constant"
      value: 0.2
    }
  }
}
layer {
  name: "inception_3a/relu_5x5"
  type: "ReLU"
  bottom: "inception_3a/5x5"
  top: "inception_3a/5x5"
}
layer {
  name: "inception_3a/pool"
  type: "Pooling"
  bottom: "pool2/3x3_s2"
  top: "inception_3a/pool"
  pooling_param {
    pool: MAX
    kernel_size: 3
    stride: 1
    pad: 1
  }
}
layer {
  name: "inception_3a/pool_proj"
  type: "Convolution"
  bottom: "inception_3a/pool"
  top: "inception_3a/pool_proj"
  param {
    lr_mult: 1
    decay_mult: 1
  }
  param {
    lr_mult: 2
    decay_mult: 0
  }
  convolution_param {
    num_output: 32
    kernel_size: 1
    weight_filler {
      type: "xavier"
      std: 0.1
    }
    bias_filler {
      type: "constant"
      value: 0.2
    }
  }
}
layer {
  name: "inception_3a/relu_pool_proj"
  type: "ReLU"
  bottom: "inception_3a/pool_proj"
  top: "inception_3a/pool_proj"
}
layer {
  name: "inception_3a/output"
  type: "Concat"
  bottom: "inception_3a/1x1"
  bottom: "inception_3a/3x3"
  bottom: "inception_3a/5x5"
  bottom: "inception_3a/pool_proj"
  top: "inception_3a/output"
}
layer {
  name: "inception_3b/1x1"
  type: "Convolution"
  bottom: "inception_3a/output"
  top: "inception_3b/1x1"
  param {
    lr_mult: 1
    decay_mult: 1
  }
  param {
    lr_mult: 2
    decay_mult: 0
  }
  convolution_param {
    num_output: 128
    kernel_size: 1
    weight_filler {
      type: "xavier"
      std: 0.03
    }
    bias_filler {
      type: "constant"
      value: 0.2
    }
  }
}
layer {
  name: "inception_3b/relu_1x1"
  type: "ReLU"
  bottom: "inception_3b/1x1"
  top: "inception_3b/1x1"
}
layer {
  name: "inception_3b/3x3_reduce"
  type: "Convolution"
  bottom: "inception_3a/output"
  top: "inception_3b/3x3_reduce"
  param {
    lr_mult: 1
    decay_mult: 1
  }
  param {
    lr_mult: 2
    decay_mult: 0
  }
  convolution_param {
    num_output: 128
    kernel_size: 1
    weight_filler {
      type: "xavier"
      std: 0.09
    }
    bias_filler {
      type: "constant"
      value: 0.2
    }
  }
}
layer {
  name: "inception_3b/relu_3x3_reduce"
  type: "ReLU"
  bottom: "inception_3b/3x3_reduce"
  top: "inception_3b/3x3_reduce"
}
layer {
  name: "inception_3b/3x3"
  type: "Convolution"
  bottom: "inception_3b/3x3_reduce"
  top: "inception_3b/3x3"
  param {
    lr_mult: 1
    decay_mult: 1
  }
  param {
    lr_mult: 2
    decay_mult: 0
  }
  convolution_param {
    num_output: 192
    pad: 1
    kernel_size: 3
    weight_filler {
      type: "xavier"
      std: 0.03
    }
    bias_filler {
      type: "constant"
      value: 0.2
    }
  }
}
layer {
  name: "inception_3b/relu_3x3"
  type: "ReLU"
  bottom: "inception_3b/3x3"
  top: "inception_3b/3x3"
}
layer {
  name: "inception_3b/5x5_reduce"
  type: "Convolution"
  bottom: "inception_3a/output"
  top: "inception_3b/5x5_reduce"
  param {
    lr_mult: 1
    decay_mult: 1
  }
  param {
    lr_mult: 2
    decay_mult: 0
  }
  convolution_param {
    num_output: 32
    kernel_size: 1
    weight_filler {
      type: "xavier"
      std: 0.2
    }
    bias_filler {
      type: "constant"
      value: 0.2
    }
  }
}
layer {
  name: "inception_3b/relu_5x5_reduce"
  type: "ReLU"
  bottom: "inception_3b/5x5_reduce"
  top: "inception_3b/5x5_reduce"
}
layer {
  name: "inception_3b/5x5"
  type: "Convolution"
  bottom: "inception_3b/5x5_reduce"
  top: "inception_3b/5x5"
  param {
    lr_mult: 1
    decay_mult: 1
  }
  param {
    lr_mult: 2
    decay_mult: 0
  }
  convolution_param {
    num_output: 96
    pad: 2
    kernel_size: 5
    weight_filler {
      type: "xavier"
      std: 0.03
    }
    bias_filler {
      type: "constant"
      value: 0.2
    }
  }
}
layer {
  name: "inception_3b/relu_5x5"
  type: "ReLU"
  bottom: "inception_3b/5x5"
  top: "inception_3b/5x5"
}
layer {
  name: "inception_3b/pool"
  type: "Pooling"
  bottom: "inception_3a/output"
  top: "inception_3b/pool"
  pooling_param {
    pool: MAX
    kernel_size: 3
    stride: 1
    pad: 1
  }
}
layer {
  name: "inception_3b/pool_proj"
  type: "Convolution"
  bottom: "inception_3b/pool"
  top: "inception_3b/pool_proj"
  param {
    lr_mult: 1
    decay_mult: 1
  }
  param {
    lr_mult: 2
    decay_mult: 0
  }
  convolution_param {
    num_output: 64
    kernel_size: 1
    weight_filler {
      type: "xavier"
      std: 0.1
    }
    bias_filler {
      type: "constant"
      value: 0.2
    }
  }
}
layer {
  name: "inception_3b/relu_pool_proj"
  type: "ReLU"
  bottom: "inception_3b/pool_proj"
  top: "inception_3b/pool_proj"
}
layer {
  name: "inception_3b/output"
  type: "Concat"
  bottom: "inception_3b/1x1"
  bottom: "inception_3b/3x3"
  bottom: "inception_3b/5x5"
  bottom: "inception_3b/pool_proj"
  top: "inception_3b/output"
}
layer {
  name: "pool3/3x3_s2"
  type: "Pooling"
  bottom: "inception_3b/output"
  top: "pool3/3x3_s2"
  pooling_param {
    pool: MAX
    kernel_size: 3
    stride: 2
  }
}
layer {
  name: "inception_4a/1x1"
  type: "Convolution"
  bottom: "pool3/3x3_s2"
  top: "inception_4a/1x1"
  param {
    lr_mult: 1
    decay_mult: 1
  }
  param {
    lr_mult: 2
    decay_mult: 0
  }
  convolution_param {
    num_output: 192
    kernel_size: 1
    weight_filler {
      type: "xavier"
      std: 0.03
    }
    bias_filler {
      type: "constant"
      value: 0.2
    }
  }
}
layer {
  name: "inception_4a/relu_1x1"
  type: "ReLU"
  bottom: "inception_4a/1x1"
  top: "inception_4a/1x1"
}
layer {
  name: "inception_4a/3x3_reduce"
  type: "Convolution"
  bottom: "pool3/3x3_s2"
  top: "inception_4a/3x3_reduce"
  param {
    lr_mult: 1
    decay_mult: 1
  }
  param {
    lr_mult: 2
    decay_mult: 0
  }
  convolution_param {
    num_output: 96
    kernel_size: 1
    weight_filler {
      type: "xavier"
      std: 0.09
    }
    bias_filler {
      type: "constant"
      value: 0.2
    }
  }
}
layer {
  name: "inception_4a/relu_3x3_reduce"
  type: "ReLU"
  bottom: "inception_4a/3x3_reduce"
  top: "inception_4a/3x3_reduce"
}
layer {
  name: "inception_4a/3x3"
  type: "Convolution"
  bottom: "inception_4a/3x3_reduce"
  top: "inception_4a/3x3"
  param {
    lr_mult: 1
    decay_mult: 1
  }
  param {
    lr_mult: 2
    decay_mult: 0
  }
  convolution_param {
    num_output: 208
    pad: 1
    kernel_size: 3
    weight_filler {
      type: "xavier"
      std: 0.03
    }
    bias_filler {
      type: "constant"
      value: 0.2
    }
  }
}
layer {
  name: "inception_4a/relu_3x3"
  type: "ReLU"
  bottom: "inception_4a/3x3"
  top: "inception_4a/3x3"
}
layer {
  name: "inception_4a/5x5_reduce"
  type: "Convolution"
  bottom: "pool3/3x3_s2"
  top: "inception_4a/5x5_reduce"
  param {
    lr_mult: 1
    decay_mult: 1
  }
  param {
    lr_mult: 2
    decay_mult: 0
  }
  convolution_param {
    num_output: 16
    kernel_size: 1
    weight_filler {
      type: "xavier"
      std: 0.2
    }
    bias_filler {
      type: "constant"
      value: 0.2
    }
  }
}
layer {
  name: "inception_4a/relu_5x5_reduce"
  type: "ReLU"
  bottom: "inception_4a/5x5_reduce"
  top: "inception_4a/5x5_reduce"
}
layer {
  name: "inception_4a/5x5"
  type: "Convolution"
  bottom: "inception_4a/5x5_reduce"
  top: "inception_4a/5x5"
  param {
    lr_mult: 1
    decay_mult: 1
  }
  param {
    lr_mult: 2
    decay_mult: 0
  }
  convolution_param {
    num_output: 48
    pad: 2
    kernel_size: 5
    weight_filler {
      type: "xavier"
      std: 0.03
    }
    bias_filler {
      type: "constant"
      value: 0.2
    }
  }
}
layer {
  name: "inception_4a/relu_5x5"
  type: "ReLU"
  bottom: "inception_4a/5x5"
  top: "inception_4a/5x5"
}
layer {
  name: "inception_4a/pool"
  type: "Pooling"
  bottom: "pool3/3x3_s2"
  top: "inception_4a/pool"
  pooling_param {
    pool: MAX
    kernel_size: 3
    stride: 1
    pad: 1
  }
}
layer {
  name: "inception_4a/pool_proj"
  type: "Convolution"
  bottom: "inception_4a/pool"
  top: "inception_4a/pool_proj"
  param {
    lr_mult: 1
    decay_mult: 1
  }
  param {
    lr_mult: 2
    decay_mult: 0
  }
  convolution_param {
    num_output: 64
    kernel_size: 1
    weight_filler {
      type: "xavier"
      std: 0.1
    }
    bias_filler {
      type: "constant"
      value: 0.2
    }
  }
}
layer {
  name: "inception_4a/relu_pool_proj"
  type: "ReLU"
  bottom: "inception_4a/pool_proj"
  top: "inception_4a/pool_proj"
}
layer {
  name: "inception_4a/output"
  type: "Concat"
  bottom: "inception_4a/1x1"
  bottom: "inception_4a/3x3"
  bottom: "inception_4a/5x5"
  bottom: "inception_4a/pool_proj"
  top: "inception_4a/output"
}
layer {
  name: "loss1/ave_pool"
  type: "Pooling"
  bottom: "inception_4a/output"
  top: "loss1/ave_pool"
  pooling_param {
    pool: AVE
    kernel_size: 5
    stride: 3
  }
}
layer {
  name: "loss1/conv"
  type: "Convolution"
  bottom: "loss1/ave_pool"
  top: "loss1/conv"
  param {
    lr_mult: 1
    decay_mult: 1
  }
  param {
    lr_mult: 2
    decay_mult: 0
  }
  convolution_param {
    num_output: 128
    kernel_size: 1
    weight_filler {
      type: "xavier"
      std: 0.08
    }
    bias_filler {
      type: "constant"
      value: 0.2
    }
  }
}
layer {
  name: "loss1/relu_conv"
  type: "ReLU"
  bottom: "loss1/conv"
  top: "loss1/conv"
}
layer {
  name: "loss1/fc"
  type: "InnerProduct"
  bottom: "loss1/conv"
  top: "loss1/fc"
  param {
    lr_mult: 1
    decay_mult: 1
  }
  param {
    lr_mult: 2
    decay_mult: 0
  }
  inner_product_param {
    num_output: 1024
    weight_filler {
      type: "xavier"
      std: 0.02
    }
    bias_filler {
      type: "constant"
      value: 0.2
    }
  }
}
layer {
  name: "loss1/relu_fc"
  type: "ReLU"
  bottom: "loss1/fc"
  top: "loss1/fc"
}
layer {
  name: "loss1/drop_fc"
  type: "Dropout"
  bottom: "loss1/fc"
  top: "loss1/fc"
  dropout_param {
    dropout_ratio: 0.7
  }
}
layer {
  name: "loss1/classifier_plantvillage"
  type: "InnerProduct"
  bottom: "loss1/fc"
  top: "loss1/classifier_plantvillage"
  param {
    lr_mult: 1
    decay_mult: 1
  }
  param {
    lr_mult: 2
    decay_mult: 0
  }
  inner_product_param {
    num_output: 38
    weight_filler {
      type: "xavier"
      std: 0.0009765625
    }
    bias_filler {
      type: "constant"
      value: 0
    }
  }
}
layer {
  name: "inception_4b/1x1"
  type: "Convolution"
  bottom: "inception_4a/output"
  top: "inception_4b/1x1"
  param {
    lr_mult: 1
    decay_mult: 1
  }
  param {
    lr_mult: 2
    decay_mult: 0
  }
  convolution_param {
    num_output: 160
    kernel_size: 1
    weight_filler {
      type: "xavier"
      std: 0.03
    }
    bias_filler {
      type: "constant"
      value: 0.2
    }
  }
}
layer {
  name: "inception_4b/relu_1x1"
  type: "ReLU"
  bottom: "inception_4b/1x1"
  top: "inception_4b/1x1"
}
layer {
  name: "inception_4b/3x3_reduce"
  type: "Convolution"
  bottom: "inception_4a/output"
  top: "inception_4b/3x3_reduce"
  param {
    lr_mult: 1
    decay_mult: 1
  }
  param {
    lr_mult: 2
    decay_mult: 0
  }
  convolution_param {
    num_output: 112
    kernel_size: 1
    weight_filler {
      type: "xavier"
      std: 0.09
    }
    bias_filler {
      type: "constant"
      value: 0.2
    }
  }
}
layer {
  name: "inception_4b/relu_3x3_reduce"
  type: "ReLU"
  bottom: "inception_4b/3x3_reduce"
  top: "inception_4b/3x3_reduce"
}
layer {
  name: "inception_4b/3x3"
  type: "Convolution"
  bottom: "inception_4b/3x3_reduce"
  top: "inception_4b/3x3"
  param {
    lr_mult: 1
    decay_mult: 1
  }
  param {
    lr_mult: 2
    decay_mult: 0
  }
  convolution_param {
    num_output: 224
    pad: 1
    kernel_size: 3
    weight_filler {
      type: "xavier"
      std: 0.03
    }
    bias_filler {
      type: "constant"
      value: 0.2
    }
  }
}
layer {
  name: "inception_4b/relu_3x3"
  type: "ReLU"
  bottom: "inception_4b/3x3"
  top: "inception_4b/3x3"
}
layer {
  name: "inception_4b/5x5_reduce"
  type: "Convolution"
  bottom: "inception_4a/output"
  top: "inception_4b/5x5_reduce"
  param {
    lr_mult: 1
    decay_mult: 1
  }
  param {
    lr_mult: 2
    decay_mult: 0
  }
  convolution_param {
    num_output: 24
    kernel_size: 1
    weight_filler {
      type: "xavier"
      std: 0.2
    }
    bias_filler {
      type: "constant"
      value: 0.2
    }
  }
}
layer {
  name: "inception_4b/relu_5x5_reduce"
  type: "ReLU"
  bottom: "inception_4b/5x5_reduce"
  top: "inception_4b/5x5_reduce"
}
layer {
  name: "inception_4b/5x5"
  type: "Convolution"
  bottom: "inception_4b/5x5_reduce"
  top: "inception_4b/5x5"
  param {
    lr_mult: 1
    decay_mult: 1
  }
  param {
    lr_mult: 2
    decay_mult: 0
  }
  convolution_param {
    num_output: 64
    pad: 2
    kernel_size: 5
    weight_filler {
      type: "xavier"
      std: 0.03
    }
    bias_filler {
      type: "constant"
      value: 0.2
    }
  }
}
layer {
  name: "inception_4b/relu_5x5"
  type: "ReLU"
  bottom: "inception_4b/5x5"
  top: "inception_4b/5x5"
}
layer {
  name: "inception_4b/pool"
  type: "Pooling"
  bottom: "inception_4a/output"
  top: "inception_4b/pool"
  pooling_param {
    pool: MAX
    kernel_size: 3
    stride: 1
    pad: 1
  }
}
layer {
  name: "inception_4b/pool_proj"
  type: "Convolution"
  bottom: "inception_4b/pool"
  top: "inception_4b/pool_proj"
  param {
    lr_mult: 1
    decay_mult: 1
  }
  param {
    lr_mult: 2
    decay_mult: 0
  }
  convolution_param {
    num_output: 64
    kernel_size: 1
    weight_filler {
      type: "xavier"
      std: 0.1
    }
    bias_filler {
      type: "constant"
      value: 0.2
    }
  }
}
layer {
  name: "inception_4b/relu_pool_proj"
  type: "ReLU"
  bottom: "inception_4b/pool_proj"
  top: "inception_4b/pool_proj"
}
layer {
  name: "inception_4b/output"
  type: "Concat"
  bottom: "inception_4b/1x1"
  bottom: "inception_4b/3x3"
  bottom: "inception_4b/5x5"
  bottom: "inception_4b/pool_proj"
  top: "inception_4b/output"
}
layer {
  name: "inception_4c/1x1"
  type: "Convolution"
  bottom: "inception_4b/output"
  top: "inception_4c/1x1"
  param {
    lr_mult: 1
    decay_mult: 1
  }
  param {
    lr_mult: 2
    decay_mult: 0
  }
  convolution_param {
    num_output: 128
    kernel_size: 1
    weight_filler {
      type: "xavier"
      std: 0.03
    }
    bias_filler {
      type: "constant"
      value: 0.2
    }
  }
}
layer {
  name: "inception_4c/relu_1x1"
  type: "ReLU"
  bottom: "inception_4c/1x1"
  top: "inception_4c/1x1"
}
layer {
  name: "inception_4c/3x3_reduce"
  type: "Convolution"
  bottom: "inception_4b/output"
  top: "inception_4c/3x3_reduce"
  param {
    lr_mult: 1
    decay_mult: 1
  }
  param {
    lr_mult: 2
    decay_mult: 0
  }
  convolution_param {
    num_output: 128
    kernel_size: 1
    weight_filler {
      type: "xavier"
      std: 0.09
    }
    bias_filler {
      type: "constant"
      value: 0.2
    }
  }
}
layer {
  name: "inception_4c/relu_3x3_reduce"
  type: "ReLU"
  bottom: "inception_4c/3x3_reduce"
  top: "inception_4c/3x3_reduce"
}
layer {
  name: "inception_4c/3x3"
  type: "Convolution"
  bottom: "inception_4c/3x3_reduce"
  top: "inception_4c/3x3"
  param {
    lr_mult: 1
    decay_mult: 1
  }
  param {
    lr_mult: 2
    decay_mult: 0
  }
  convolution_param {
    num_output: 256
    pad: 1
    kernel_size: 3
    weight_filler {
      type: "xavier"
      std: 0.03
    }
    bias_filler {
      type: "constant"
      value: 0.2
    }
  }
}
layer {
  name: "inception_4c/relu_3x3"
  type: "ReLU"
  bottom: "inception_4c/3x3"
  top: "inception_4c/3x3"
}
layer {
  name: "inception_4c/5x5_reduce"
  type: "Convolution"
  bottom: "inception_4b/output"
  top: "inception_4c/5x5_reduce"
  param {
    lr_mult: 1
    decay_mult: 1
  }
  param {
    lr_mult: 2
    decay_mult: 0
  }
  convolution_param {
    num_output: 24
    kernel_size: 1
    weight_filler {
      type: "xavier"
      std: 0.2
    }
    bias_filler {
      type: "constant"
      value: 0.2
    }
  }
}
layer {
  name: "inception_4c/relu_5x5_reduce"
  type: "ReLU"
  bottom: "inception_4c/5x5_reduce"
  top: "inception_4c/5x5_reduce"
}
layer {
  name: "inception_4c/5x5"
  type: "Convolution"
  bottom: "inception_4c/5x5_reduce"
  top: "inception_4c/5x5"
  param {
    lr_mult: 1
    decay_mult: 1
  }
  param {
    lr_mult: 2
    decay_mult: 0
  }
  convolution_param {
    num_output: 64
    pad: 2
    kernel_size: 5
    weight_filler {
      type: "xavier"
      std: 0.03
    }
    bias_filler {
      type: "constant"
      value: 0.2
    }
  }
}
layer {
  name: "inception_4c/relu_5x5"
  type: "ReLU"
  bottom: "inception_4c/5x5"
  top: "inception_4c/5x5"
}
layer {
  name: "inception_4c/pool"
  type: "Pooling"
  bottom: "inception_4b/output"
  top: "inception_4c/pool"
  pooling_param {
    pool: MAX
    kernel_size: 3
    stride: 1
    pad: 1
  }
}
layer {
  name: "inception_4c/pool_proj"
  type: "Convolution"
  bottom: "inception_4c/pool"
  top: "inception_4c/pool_proj"
  param {
    lr_mult: 1
    decay_mult: 1
  }
  param {
    lr_mult: 2
    decay_mult: 0
  }
  convolution_param {
    num_output: 64
    kernel_size: 1
    weight_filler {
      type: "xavier"
      std: 0.1
    }
    bias_filler {
      type: "constant"
      value: 0.2
    }
  }
}
layer {
  name: "inception_4c/relu_pool_proj"
  type: "ReLU"
  bottom: "inception_4c/pool_proj"
  top: "inception_4c/pool_proj"
}
layer {
  name: "inception_4c/output"
  type: "Concat"
  bottom: "inception_4c/1x1"
  bottom: "inception_4c/3x3"
  bottom: "inception_4c/5x5"
  bottom: "inception_4c/pool_proj"
  top: "inception_4c/output"
}
layer {
  name: "inception_4d/1x1"
  type: "Convolution"
  bottom: "inception_4c/output"
  top: "inception_4d/1x1"
  param {
    lr_mult: 1
    decay_mult: 1
  }
  param {
    lr_mult: 2
    decay_mult: 0
  }
  convolution_param {
    num_output: 112
    kernel_size: 1
    weight_filler {
      type: "xavier"
      std: 0.03
    }
    bias_filler {
      type: "constant"
      value: 0.2
    }
  }
}
layer {
  name: "inception_4d/relu_1x1"
  type: "ReLU"
  bottom: "inception_4d/1x1"
  top: "inception_4d/1x1"
}
layer {
  name: "inception_4d/3x3_reduce"
  type: "Convolution"
  bottom: "inception_4c/output"
  top: "inception_4d/3x3_reduce"
  param {
    lr_mult: 1
    decay_mult: 1
  }
  param {
    lr_mult: 2
    decay_mult: 0
  }
  convolution_param {
    num_output: 144
    kernel_size: 1
    weight_filler {
      type: "xavier"
      std: 0.09
    }
    bias_filler {
      type: "constant"
      value: 0.2
    }
  }
}
layer {
  name: "inception_4d/relu_3x3_reduce"
  type: "ReLU"
  bottom: "inception_4d/3x3_reduce"
  top: "inception_4d/3x3_reduce"
}
layer {
  name: "inception_4d/3x3"
  type: "Convolution"
  bottom: "inception_4d/3x3_reduce"
  top: "inception_4d/3x3"
  param {
    lr_mult: 1
    decay_mult: 1
  }
  param {
    lr_mult: 2
    decay_mult: 0
  }
  convolution_param {
    num_output: 288
    pad: 1
    kernel_size: 3
    weight_filler {
      type: "xavier"
      std: 0.03
    }
    bias_filler {
      type: "constant"
      value: 0.2
    }
  }
}
layer {
  name: "inception_4d/relu_3x3"
  type: "ReLU"
  bottom: "inception_4d/3x3"
  top: "inception_4d/3x3"
}
layer {
  name: "inception_4d/5x5_reduce"
  type: "Convolution"
  bottom: "inception_4c/output"
  top: "inception_4d/5x5_reduce"
  param {
    lr_mult: 1
    decay_mult: 1
  }
  param {
    lr_mult: 2
    decay_mult: 0
  }
  convolution_param {
    num_output: 32
    kernel_size: 1
    weight_filler {
      type: "xavier"
      std: 0.2
    }
    bias_filler {
      type: "constant"
      value: 0.2
    }
  }
}
layer {
  name: "inception_4d/relu_5x5_reduce"
  type: "ReLU"
  bottom: "inception_4d/5x5_reduce"
  top: "inception_4d/5x5_reduce"
}
layer {
  name: "inception_4d/5x5"
  type: "Convolution"
  bottom: "inception_4d/5x5_reduce"
  top: "inception_4d/5x5"
  param {
    lr_mult: 1
    decay_mult: 1
  }
  param {
    lr_mult: 2
    decay_mult: 0
  }
  convolution_param {
    num_output: 64
    pad: 2
    kernel_size: 5
    weight_filler {
      type: "xavier"
      std: 0.03
    }
    bias_filler {
      type: "constant"
      value: 0.2
    }
  }
}
layer {
  name: "inception_4d/relu_5x5"
  type: "ReLU"
  bottom: "inception_4d/5x5"
  top: "inception_4d/5x5"
}
layer {
  name: "inception_4d/pool"
  type: "Pooling"
  bottom: "inception_4c/output"
  top: "inception_4d/pool"
  pooling_param {
    pool: MAX
    kernel_size: 3
    stride: 1
    pad: 1
  }
}
layer {
  name: "inception_4d/pool_proj"
  type: "Convolution"
  bottom: "inception_4d/pool"
  top: "inception_4d/pool_proj"
  param {
    lr_mult: 1
    decay_mult: 1
  }
  param {
    lr_mult: 2
    decay_mult: 0
  }
  convolution_param {
    num_output: 64
    kernel_size: 1
    weight_filler {
      type: "xavier"
      std: 0.1
    }
    bias_filler {
      type: "constant"
      value: 0.2
    }
  }
}
layer {
  name: "inception_4d/relu_pool_proj"
  type: "ReLU"
  bottom: "inception_4d/pool_proj"
  top: "inception_4d/pool_proj"
}
layer {
  name: "inception_4d/output"
  type: "Concat"
  bottom: "inception_4d/1x1"
  bottom: "inception_4d/3x3"
  bottom: "inception_4d/5x5"
  bottom: "inception_4d/pool_proj"
  top: "inception_4d/output"
}
layer {
  name: "loss2/ave_pool"
  type: "Pooling"
  bottom: "inception_4d/output"
  top: "loss2/ave_pool"
  pooling_param {
    pool: AVE
    kernel_size: 5
    stride: 3
  }
}
layer {
  name: "loss2/conv"
  type: "Convolution"
  bottom: "loss2/ave_pool"
  top: "loss2/conv"
  param {
    lr_mult: 1
    decay_mult: 1
  }
  param {
    lr_mult: 2
    decay_mult: 0
  }
  convolution_param {
    num_output: 128
    kernel_size: 1
    weight_filler {
      type: "xavier"
      std: 0.08
    }
    bias_filler {
      type: "constant"
      value: 0.2
    }
  }
}
layer {
  name: "loss2/relu_conv"
  type: "ReLU"
  bottom: "loss2/conv"
  top: "loss2/conv"
}
layer {
  name: "loss2/fc"
  type: "InnerProduct"
  bottom: "loss2/conv"
  top: "loss2/fc"
  param {
    lr_mult: 1
    decay_mult: 1
  }
  param {
    lr_mult: 2
    decay_mult: 0
  }
  inner_product_param {
    num_output: 1024
    weight_filler {
      type: "xavier"
      std: 0.02
    }
    bias_filler {
      type: "constant"
      value: 0.2
    }
  }
}
layer {
  name: "loss2/relu_fc"
  type: "ReLU"
  bottom: "loss2/fc"
  top: "loss2/fc"
}
layer {
  name: "loss2/drop_fc"
  type: "Dropout"
  bottom: "loss2/fc"
  top: "loss2/fc"
  dropout_param {
    dropout_ratio: 0.7
  }
}
layer {
  name: "loss2/classifier_plantvillage"
  type: "InnerProduct"
  bottom: "loss2/fc"
  top: "loss2/classifier_plantvillage"
  param {
    lr_mult: 1
    decay_mult: 1
  }
  param {
    lr_mult: 2
    decay_mult: 0
  }
  inner_product_param {
    num_output: 38
    weight_filler {
      type: "xavier"
      std: 0.0009765625
    }
    bias_filler {
      type: "constant"
      value: 0
    }
  }
}
layer {
  name: "inception_4e/1x1"
  type: "Convolution"
  bottom: "inception_4d/output"
  top: "inception_4e/1x1"
  param {
    lr_mult: 1
    decay_mult: 1
  }
  param {
    lr_mult: 2
    decay_mult: 0
  }
  convolution_param {
    num_output: 256
    kernel_size: 1
    weight_filler {
      type: "xavier"
      std: 0.03
    }
    bias_filler {
      type: "constant"
      value: 0.2
    }
  }
}
layer {
  name: "inception_4e/relu_1x1"
  type: "ReLU"
  bottom: "inception_4e/1x1"
  top: "inception_4e/1x1"
}
layer {
  name: "inception_4e/3x3_reduce"
  type: "Convolution"
  bottom: "inception_4d/output"
  top: "inception_4e/3x3_reduce"
  param {
    lr_mult: 1
    decay_mult: 1
  }
  param {
    lr_mult: 2
    decay_mult: 0
  }
  convolution_param {
    num_output: 160
    kernel_size: 1
    weight_filler {
      type: "xavier"
      std: 0.09
    }
    bias_filler {
      type: "constant"
      value: 0.2
    }
  }
}
layer {
  name: "inception_4e/relu_3x3_reduce"
  type: "ReLU"
  bottom: "inception_4e/3x3_reduce"
  top: "inception_4e/3x3_reduce"
}
layer {
  name: "inception_4e/3x3"
  type: "Convolution"
  bottom: "inception_4e/3x3_reduce"
  top: "inception_4e/3x3"
  param {
    lr_mult: 1
    decay_mult: 1
  }
  param {
    lr_mult: 2
    decay_mult: 0
  }
  convolution_param {
    num_output: 320
    pad: 1
    kernel_size: 3
    weight_filler {
      type: "xavier"
      std: 0.03
    }
    bias_filler {
      type: "constant"
      value: 0.2
    }
  }
}
layer {
  name: "inception_4e/relu_3x3"
  type: "ReLU"
  bottom: "inception_4e/3x3"
  top: "inception_4e/3x3"
}
layer {
  name: "inception_4e/5x5_reduce"
  type: "Convolution"
  bottom: "inception_4d/output"
  top: "inception_4e/5x5_reduce"
  param {
    lr_mult: 1
    decay_mult: 1
  }
  param {
    lr_mult: 2
    decay_mult: 0
  }
  convolution_param {
    num_output: 32
    kernel_size: 1
    weight_filler {
      type: "xavier"
      std: 0.2
    }
    bias_filler {
      type: "constant"
      value: 0.2
    }
  }
}
layer {
  name: "inception_4e/relu_5x5_reduce"
  type: "ReLU"
  bottom: "inception_4e/5x5_reduce"
  top: "inception_4e/5x5_reduce"
}
layer {
  name: "inception_4e/5x5"
  type: "Convolution"
  bottom: "inception_4e/5x5_reduce"
  top: "inception_4e/
I0403 19:33:32.096319 25098 layer_factory.hpp:77] Creating layer data
I0403 19:33:32.096935 25098 net.cpp:91] Creating Layer data
I0403 19:33:32.096971 25098 net.cpp:399] data -> data
I0403 19:33:32.097038 25098 net.cpp:399] data -> label
I0403 19:33:32.097081 25098 data_transformer.cpp:25] Loading mean file from: /home/mohanty/data/final_dataset/lmdb/grayscale-80-20/mean.binaryproto
I0403 19:33:32.098254 25101 db_lmdb.cpp:38] Opened lmdb /home/mohanty/data/final_dataset/lmdb/grayscale-80-20/test_db
I0403 19:33:32.110991 25098 data_layer.cpp:41] output data size: 24,3,224,224
I0403 19:33:32.139062 25098 net.cpp:141] Setting up data
I0403 19:33:32.139173 25098 net.cpp:148] Top shape: 24 3 224 224 (3612672)
I0403 19:33:32.139196 25098 net.cpp:148] Top shape: 24 (24)
I0403 19:33:32.139212 25098 net.cpp:156] Memory required for data: 14450784
I0403 19:33:32.139245 25098 layer_factory.hpp:77] Creating layer label_data_1_split
I0403 19:33:32.139286 25098 net.cpp:91] Creating Layer label_data_1_split
I0403 19:33:32.139322 25098 net.cpp:425] label_data_1_split <- label
I0403 19:33:32.139361 25098 net.cpp:399] label_data_1_split -> label_data_1_split_0
I0403 19:33:32.139397 25098 net.cpp:399] label_data_1_split -> label_data_1_split_1
I0403 19:33:32.139420 25098 net.cpp:399] label_data_1_split -> label_data_1_split_2
I0403 19:33:32.139443 25098 net.cpp:399] label_data_1_split -> label_data_1_split_3
I0403 19:33:32.139466 25098 net.cpp:399] label_data_1_split -> label_data_1_split_4
I0403 19:33:32.139488 25098 net.cpp:399] label_data_1_split -> label_data_1_split_5
I0403 19:33:32.139510 25098 net.cpp:399] label_data_1_split -> label_data_1_split_6
I0403 19:33:32.139533 25098 net.cpp:399] label_data_1_split -> label_data_1_split_7
I0403 19:33:32.139556 25098 net.cpp:399] label_data_1_split -> label_data_1_split_8
I0403 19:33:32.139580 25098 net.cpp:399] label_data_1_split -> label_data_1_split_9
I0403 19:33:32.139755 25098 net.cpp:141] Setting up label_data_1_split
I0403 19:33:32.139781 25098 net.cpp:148] Top shape: 24 (24)
I0403 19:33:32.139799 25098 net.cpp:148] Top shape: 24 (24)
I0403 19:33:32.139817 25098 net.cpp:148] Top shape: 24 (24)
I0403 19:33:32.139834 25098 net.cpp:148] Top shape: 24 (24)
I0403 19:33:32.139850 25098 net.cpp:148] Top shape: 24 (24)
I0403 19:33:32.139865 25098 net.cpp:148] Top shape: 24 (24)
I0403 19:33:32.139880 25098 net.cpp:148] Top shape: 24 (24)
I0403 19:33:32.139896 25098 net.cpp:148] Top shape: 24 (24)
I0403 19:33:32.139914 25098 net.cpp:148] Top shape: 24 (24)
I0403 19:33:32.139931 25098 net.cpp:148] Top shape: 24 (24)
I0403 19:33:32.139978 25098 net.cpp:156] Memory required for data: 14451744
I0403 19:33:32.139996 25098 layer_factory.hpp:77] Creating layer conv1/7x7_s2
I0403 19:33:32.140035 25098 net.cpp:91] Creating Layer conv1/7x7_s2
I0403 19:33:32.140055 25098 net.cpp:425] conv1/7x7_s2 <- data
I0403 19:33:32.140077 25098 net.cpp:399] conv1/7x7_s2 -> conv1/7x7_s2
I0403 19:33:32.280105 25098 net.cpp:141] Setting up conv1/7x7_s2
I0403 19:33:32.280220 25098 net.cpp:148] Top shape: 24 64 112 112 (19267584)
I0403 19:33:32.280239 25098 net.cpp:156] Memory required for data: 91522080
I0403 19:33:32.280287 25098 layer_factory.hpp:77] Creating layer conv1/relu_7x7
I0403 19:33:32.280339 25098 net.cpp:91] Creating Layer conv1/relu_7x7
I0403 19:33:32.280364 25098 net.cpp:425] conv1/relu_7x7 <- conv1/7x7_s2
I0403 19:33:32.280386 25098 net.cpp:386] conv1/relu_7x7 -> conv1/7x7_s2 (in-place)
I0403 19:33:32.280663 25098 net.cpp:141] Setting up conv1/relu_7x7
I0403 19:33:32.280692 25098 net.cpp:148] Top shape: 24 64 112 112 (19267584)
I0403 19:33:32.280709 25098 net.cpp:156] Memory required for data: 168592416
I0403 19:33:32.280725 25098 layer_factory.hpp:77] Creating layer pool1/3x3_s2
I0403 19:33:32.280753 25098 net.cpp:91] Creating Layer pool1/3x3_s2
I0403 19:33:32.280773 25098 net.cpp:425] pool1/3x3_s2 <- conv1/7x7_s2
I0403 19:33:32.280793 25098 net.cpp:399] pool1/3x3_s2 -> pool1/3x3_s2
I0403 19:33:32.280877 25098 net.cpp:141] Setting up pool1/3x3_s2
I0403 19:33:32.280905 25098 net.cpp:148] Top shape: 24 64 56 56 (4816896)
I0403 19:33:32.280921 25098 net.cpp:156] Memory required for data: 187860000
I0403 19:33:32.280936 25098 layer_factory.hpp:77] Creating layer pool1/norm1
I0403 19:33:32.280962 25098 net.cpp:91] Creating Layer pool1/norm1
I0403 19:33:32.280982 25098 net.cpp:425] pool1/norm1 <- pool1/3x3_s2
I0403 19:33:32.281002 25098 net.cpp:399] pool1/norm1 -> pool1/norm1
I0403 19:33:32.281293 25098 net.cpp:141] Setting up pool1/norm1
I0403 19:33:32.281325 25098 net.cpp:148] Top shape: 24 64 56 56 (4816896)
I0403 19:33:32.281342 25098 net.cpp:156] Memory required for data: 207127584
I0403 19:33:32.281355 25098 layer_factory.hpp:77] Creating layer conv2/3x3_reduce
I0403 19:33:32.281384 25098 net.cpp:91] Creating Layer conv2/3x3_reduce
I0403 19:33:32.281404 25098 net.cpp:425] conv2/3x3_reduce <- pool1/norm1
I0403 19:33:32.281424 25098 net.cpp:399] conv2/3x3_reduce -> conv2/3x3_reduce
I0403 19:33:32.282754 25098 net.cpp:141] Setting up conv2/3x3_reduce
I0403 19:33:32.282786 25098 net.cpp:148] Top shape: 24 64 56 56 (4816896)
I0403 19:33:32.282804 25098 net.cpp:156] Memory required for data: 226395168
I0403 19:33:32.282825 25098 layer_factory.hpp:77] Creating layer conv2/relu_3x3_reduce
I0403 19:33:32.282845 25098 net.cpp:91] Creating Layer conv2/relu_3x3_reduce
I0403 19:33:32.282862 25098 net.cpp:425] conv2/relu_3x3_reduce <- conv2/3x3_reduce
I0403 19:33:32.282878 25098 net.cpp:386] conv2/relu_3x3_reduce -> conv2/3x3_reduce (in-place)
I0403 19:33:32.283124 25098 net.cpp:141] Setting up conv2/relu_3x3_reduce
I0403 19:33:32.283157 25098 net.cpp:148] Top shape: 24 64 56 56 (4816896)
I0403 19:33:32.283174 25098 net.cpp:156] Memory required for data: 245662752
I0403 19:33:32.283192 25098 layer_factory.hpp:77] Creating layer conv2/3x3
I0403 19:33:32.283215 25098 net.cpp:91] Creating Layer conv2/3x3
I0403 19:33:32.283234 25098 net.cpp:425] conv2/3x3 <- conv2/3x3_reduce
I0403 19:33:32.283258 25098 net.cpp:399] conv2/3x3 -> conv2/3x3
I0403 19:33:32.285491 25098 net.cpp:141] Setting up conv2/3x3
I0403 19:33:32.285523 25098 net.cpp:148] Top shape: 24 192 56 56 (14450688)
I0403 19:33:32.285542 25098 net.cpp:156] Memory required for data: 303465504
I0403 19:33:32.285564 25098 layer_factory.hpp:77] Creating layer conv2/relu_3x3
I0403 19:33:32.285585 25098 net.cpp:91] Creating Layer conv2/relu_3x3
I0403 19:33:32.285606 25098 net.cpp:425] conv2/relu_3x3 <- conv2/3x3
I0403 19:33:32.285624 25098 net.cpp:386] conv2/relu_3x3 -> conv2/3x3 (in-place)
I0403 19:33:32.285785 25098 net.cpp:141] Setting up conv2/relu_3x3
I0403 19:33:32.285816 25098 net.cpp:148] Top shape: 24 192 56 56 (14450688)
I0403 19:33:32.285867 25098 net.cpp:156] Memory required for data: 361268256
I0403 19:33:32.285884 25098 layer_factory.hpp:77] Creating layer conv2/norm2
I0403 19:33:32.285905 25098 net.cpp:91] Creating Layer conv2/norm2
I0403 19:33:32.285925 25098 net.cpp:425] conv2/norm2 <- conv2/3x3
I0403 19:33:32.285945 25098 net.cpp:399] conv2/norm2 -> conv2/norm2
I0403 19:33:32.286223 25098 net.cpp:141] Setting up conv2/norm2
I0403 19:33:32.286262 25098 net.cpp:148] Top shape: 24 192 56 56 (14450688)
I0403 19:33:32.286283 25098 net.cpp:156] Memory required for data: 419071008
I0403 19:33:32.286300 25098 layer_factory.hpp:77] Creating layer pool2/3x3_s2
I0403 19:33:32.286319 25098 net.cpp:91] Creating Layer pool2/3x3_s2
I0403 19:33:32.286337 25098 net.cpp:425] pool2/3x3_s2 <- conv2/norm2
I0403 19:33:32.286356 25098 net.cpp:399] pool2/3x3_s2 -> pool2/3x3_s2
I0403 19:33:32.286406 25098 net.cpp:141] Setting up pool2/3x3_s2
I0403 19:33:32.286435 25098 net.cpp:148] Top shape: 24 192 28 28 (3612672)
I0403 19:33:32.286451 25098 net.cpp:156] Memory required for data: 433521696
I0403 19:33:32.286468 25098 layer_factory.hpp:77] Creating layer pool2/3x3_s2_pool2/3x3_s2_0_split
I0403 19:33:32.286489 25098 net.cpp:91] Creating Layer pool2/3x3_s2_pool2/3x3_s2_0_split
I0403 19:33:32.286505 25098 net.cpp:425] pool2/3x3_s2_pool2/3x3_s2_0_split <- pool2/3x3_s2
I0403 19:33:32.286525 25098 net.cpp:399] pool2/3x3_s2_pool2/3x3_s2_0_split -> pool2/3x3_s2_pool2/3x3_s2_0_split_0
I0403 19:33:32.286545 25098 net.cpp:399] pool2/3x3_s2_pool2/3x3_s2_0_split -> pool2/3x3_s2_pool2/3x3_s2_0_split_1
I0403 19:33:32.286566 25098 net.cpp:399] pool2/3x3_s2_pool2/3x3_s2_0_split -> pool2/3x3_s2_pool2/3x3_s2_0_split_2
I0403 19:33:32.286589 25098 net.cpp:399] pool2/3x3_s2_pool2/3x3_s2_0_split -> pool2/3x3_s2_pool2/3x3_s2_0_split_3
I0403 19:33:32.286653 25098 net.cpp:141] Setting up pool2/3x3_s2_pool2/3x3_s2_0_split
I0403 19:33:32.286682 25098 net.cpp:148] Top shape: 24 192 28 28 (3612672)
I0403 19:33:32.286700 25098 net.cpp:148] Top shape: 24 192 28 28 (3612672)
I0403 19:33:32.286716 25098 net.cpp:148] Top shape: 24 192 28 28 (3612672)
I0403 19:33:32.286733 25098 net.cpp:148] Top shape: 24 192 28 28 (3612672)
I0403 19:33:32.286749 25098 net.cpp:156] Memory required for data: 491324448
I0403 19:33:32.286767 25098 layer_factory.hpp:77] Creating layer inception_3a/1x1
I0403 19:33:32.286787 25098 net.cpp:91] Creating Layer inception_3a/1x1
I0403 19:33:32.286806 25098 net.cpp:425] inception_3a/1x1 <- pool2/3x3_s2_pool2/3x3_s2_0_split_0
I0403 19:33:32.286826 25098 net.cpp:399] inception_3a/1x1 -> inception_3a/1x1
I0403 19:33:32.288339 25098 net.cpp:141] Setting up inception_3a/1x1
I0403 19:33:32.288372 25098 net.cpp:148] Top shape: 24 64 28 28 (1204224)
I0403 19:33:32.288391 25098 net.cpp:156] Memory required for data: 496141344
I0403 19:33:32.288413 25098 layer_factory.hpp:77] Creating layer inception_3a/relu_1x1
I0403 19:33:32.288431 25098 net.cpp:91] Creating Layer inception_3a/relu_1x1
I0403 19:33:32.288450 25098 net.cpp:425] inception_3a/relu_1x1 <- inception_3a/1x1
I0403 19:33:32.288470 25098 net.cpp:386] inception_3a/relu_1x1 -> inception_3a/1x1 (in-place)
I0403 19:33:32.288643 25098 net.cpp:141] Setting up inception_3a/relu_1x1
I0403 19:33:32.288673 25098 net.cpp:148] Top shape: 24 64 28 28 (1204224)
I0403 19:33:32.288691 25098 net.cpp:156] Memory required for data: 500958240
I0403 19:33:32.288707 25098 layer_factory.hpp:77] Creating layer inception_3a/3x3_reduce
I0403 19:33:32.288730 25098 net.cpp:91] Creating Layer inception_3a/3x3_reduce
I0403 19:33:32.288749 25098 net.cpp:425] inception_3a/3x3_reduce <- pool2/3x3_s2_pool2/3x3_s2_0_split_1
I0403 19:33:32.288771 25098 net.cpp:399] inception_3a/3x3_reduce -> inception_3a/3x3_reduce
I0403 19:33:32.290452 25098 net.cpp:141] Setting up inception_3a/3x3_reduce
I0403 19:33:32.290485 25098 net.cpp:148] Top shape: 24 96 28 28 (1806336)
I0403 19:33:32.290503 25098 net.cpp:156] Memory required for data: 508183584
I0403 19:33:32.290529 25098 layer_factory.hpp:77] Creating layer inception_3a/relu_3x3_reduce
I0403 19:33:32.290570 25098 net.cpp:91] Creating Layer inception_3a/relu_3x3_reduce
I0403 19:33:32.290591 25098 net.cpp:425] inception_3a/relu_3x3_reduce <- inception_3a/3x3_reduce
I0403 19:33:32.290611 25098 net.cpp:386] inception_3a/relu_3x3_reduce -> inception_3a/3x3_reduce (in-place)
I0403 19:33:32.290786 25098 net.cpp:141] Setting up inception_3a/relu_3x3_reduce
I0403 19:33:32.290813 25098 net.cpp:148] Top shape: 24 96 28 28 (1806336)
I0403 19:33:32.290830 25098 net.cpp:156] Memory required for data: 515408928
I0403 19:33:32.290845 25098 layer_factory.hpp:77] Creating layer inception_3a/3x3
I0403 19:33:32.290868 25098 net.cpp:91] Creating Layer inception_3a/3x3
I0403 19:33:32.290886 25098 net.cpp:425] inception_3a/3x3 <- inception_3a/3x3_reduce
I0403 19:33:32.290910 25098 net.cpp:399] inception_3a/3x3 -> inception_3a/3x3
I0403 19:33:32.292496 25098 net.cpp:141] Setting up inception_3a/3x3
I0403 19:33:32.292527 25098 net.cpp:148] Top shape: 24 128 28 28 (2408448)
I0403 19:33:32.292558 25098 net.cpp:156] Memory required for data: 525042720
I0403 19:33:32.292577 25098 layer_factory.hpp:77] Creating layer inception_3a/relu_3x3
I0403 19:33:32.292599 25098 net.cpp:91] Creating Layer inception_3a/relu_3x3
I0403 19:33:32.292619 25098 net.cpp:425] inception_3a/relu_3x3 <- inception_3a/3x3
I0403 19:33:32.292639 25098 net.cpp:386] inception_3a/relu_3x3 -> inception_3a/3x3 (in-place)
I0403 19:33:32.292920 25098 net.cpp:141] Setting up inception_3a/relu_3x3
I0403 19:33:32.292950 25098 net.cpp:148] Top shape: 24 128 28 28 (2408448)
I0403 19:33:32.292968 25098 net.cpp:156] Memory required for data: 534676512
I0403 19:33:32.292984 25098 layer_factory.hpp:77] Creating layer inception_3a/5x5_reduce
I0403 19:33:32.293007 25098 net.cpp:91] Creating Layer inception_3a/5x5_reduce
I0403 19:33:32.293028 25098 net.cpp:425] inception_3a/5x5_reduce <- pool2/3x3_s2_pool2/3x3_s2_0_split_2
I0403 19:33:32.293052 25098 net.cpp:399] inception_3a/5x5_reduce -> inception_3a/5x5_reduce
I0403 19:33:32.293985 25098 net.cpp:141] Setting up inception_3a/5x5_reduce
I0403 19:33:32.294018 25098 net.cpp:148] Top shape: 24 16 28 28 (301056)
I0403 19:33:32.294036 25098 net.cpp:156] Memory required for data: 535880736
I0403 19:33:32.294056 25098 layer_factory.hpp:77] Creating layer inception_3a/relu_5x5_reduce
I0403 19:33:32.294078 25098 net.cpp:91] Creating Layer inception_3a/relu_5x5_reduce
I0403 19:33:32.294097 25098 net.cpp:425] inception_3a/relu_5x5_reduce <- inception_3a/5x5_reduce
I0403 19:33:32.294118 25098 net.cpp:386] inception_3a/relu_5x5_reduce -> inception_3a/5x5_reduce (in-place)
I0403 19:33:32.294396 25098 net.cpp:141] Setting up inception_3a/relu_5x5_reduce
I0403 19:33:32.294428 25098 net.cpp:148] Top shape: 24 16 28 28 (301056)
I0403 19:33:32.294448 25098 net.cpp:156] Memory required for data: 537084960
I0403 19:33:32.294462 25098 layer_factory.hpp:77] Creating layer inception_3a/5x5
I0403 19:33:32.294486 25098 net.cpp:91] Creating Layer inception_3a/5x5
I0403 19:33:32.294504 25098 net.cpp:425] inception_3a/5x5 <- inception_3a/5x5_reduce
I0403 19:33:32.294524 25098 net.cpp:399] inception_3a/5x5 -> inception_3a/5x5
I0403 19:33:32.295500 25098 net.cpp:141] Setting up inception_3a/5x5
I0403 19:33:32.295532 25098 net.cpp:148] Top shape: 24 32 28 28 (602112)
I0403 19:33:32.295550 25098 net.cpp:156] Memory required for data: 539493408
I0403 19:33:32.295569 25098 layer_factory.hpp:77] Creating layer inception_3a/relu_5x5
I0403 19:33:32.295593 25098 net.cpp:91] Creating Layer inception_3a/relu_5x5
I0403 19:33:32.295613 25098 net.cpp:425] inception_3a/relu_5x5 <- inception_3a/5x5
I0403 19:33:32.295632 25098 net.cpp:386] inception_3a/relu_5x5 -> inception_3a/5x5 (in-place)
I0403 19:33:32.295799 25098 net.cpp:141] Setting up inception_3a/relu_5x5
I0403 19:33:32.295830 25098 net.cpp:148] Top shape: 24 32 28 28 (602112)
I0403 19:33:32.295848 25098 net.cpp:156] Memory required for data: 541901856
I0403 19:33:32.295864 25098 layer_factory.hpp:77] Creating layer inception_3a/pool
I0403 19:33:32.295882 25098 net.cpp:91] Creating Layer inception_3a/pool
I0403 19:33:32.295912 25098 net.cpp:425] inception_3a/pool <- pool2/3x3_s2_pool2/3x3_s2_0_split_3
I0403 19:33:32.295934 25098 net.cpp:399] inception_3a/pool -> inception_3a/pool
I0403 19:33:32.295996 25098 net.cpp:141] Setting up inception_3a/pool
I0403 19:33:32.296023 25098 net.cpp:148] Top shape: 24 192 28 28 (3612672)
I0403 19:33:32.296038 25098 net.cpp:156] Memory required for data: 556352544
I0403 19:33:32.296054 25098 layer_factory.hpp:77] Creating layer inception_3a/pool_proj
I0403 19:33:32.296078 25098 net.cpp:91] Creating Layer inception_3a/pool_proj
I0403 19:33:32.296097 25098 net.cpp:425] inception_3a/pool_proj <- inception_3a/pool
I0403 19:33:32.296119 25098 net.cpp:399] inception_3a/pool_proj -> inception_3a/pool_proj
I0403 19:33:32.297082 25098 net.cpp:141] Setting up inception_3a/pool_proj
I0403 19:33:32.297114 25098 net.cpp:148] Top shape: 24 32 28 28 (602112)
I0403 19:33:32.297132 25098 net.cpp:156] Memory required for data: 558760992
I0403 19:33:32.297155 25098 layer_factory.hpp:77] Creating layer inception_3a/relu_pool_proj
I0403 19:33:32.297178 25098 net.cpp:91] Creating Layer inception_3a/relu_pool_proj
I0403 19:33:32.297197 25098 net.cpp:425] inception_3a/relu_pool_proj <- inception_3a/pool_proj
I0403 19:33:32.297216 25098 net.cpp:386] inception_3a/relu_pool_proj -> inception_3a/pool_proj (in-place)
I0403 19:33:32.297487 25098 net.cpp:141] Setting up inception_3a/relu_pool_proj
I0403 19:33:32.297518 25098 net.cpp:148] Top shape: 24 32 28 28 (602112)
I0403 19:33:32.297535 25098 net.cpp:156] Memory required for data: 561169440
I0403 19:33:32.297551 25098 layer_factory.hpp:77] Creating layer inception_3a/output
I0403 19:33:32.297569 25098 net.cpp:91] Creating Layer inception_3a/output
I0403 19:33:32.297585 25098 net.cpp:425] inception_3a/output <- inception_3a/1x1
I0403 19:33:32.297606 25098 net.cpp:425] inception_3a/output <- inception_3a/3x3
I0403 19:33:32.297626 25098 net.cpp:425] inception_3a/output <- inception_3a/5x5
I0403 19:33:32.297643 25098 net.cpp:425] inception_3a/output <- inception_3a/pool_proj
I0403 19:33:32.297662 25098 net.cpp:399] inception_3a/output -> inception_3a/output
I0403 19:33:32.297710 25098 net.cpp:141] Setting up inception_3a/output
I0403 19:33:32.297739 25098 net.cpp:148] Top shape: 24 256 28 28 (4816896)
I0403 19:33:32.297755 25098 net.cpp:156] Memory required for data: 580437024
I0403 19:33:32.297770 25098 layer_factory.hpp:77] Creating layer inception_3a/output_inception_3a/output_0_split
I0403 19:33:32.297788 25098 net.cpp:91] Creating Layer inception_3a/output_inception_3a/output_0_split
I0403 19:33:32.297806 25098 net.cpp:425] inception_3a/output_inception_3a/output_0_split <- inception_3a/output
I0403 19:33:32.297827 25098 net.cpp:399] inception_3a/output_inception_3a/output_0_split -> inception_3a/output_inception_3a/output_0_split_0
I0403 19:33:32.297848 25098 net.cpp:399] inception_3a/output_inception_3a/output_0_split -> inception_3a/output_inception_3a/output_0_split_1
I0403 19:33:32.297873 25098 net.cpp:399] inception_3a/output_inception_3a/output_0_split -> inception_3a/output_inception_3a/output_0_split_2
I0403 19:33:32.297900 25098 net.cpp:399] inception_3a/output_inception_3a/output_0_split -> inception_3a/output_inception_3a/output_0_split_3
I0403 19:33:32.297974 25098 net.cpp:141] Setting up inception_3a/output_inception_3a/output_0_split
I0403 19:33:32.298004 25098 net.cpp:148] Top shape: 24 256 28 28 (4816896)
I0403 19:33:32.298022 25098 net.cpp:148] Top shape: 24 256 28 28 (4816896)
I0403 19:33:32.298038 25098 net.cpp:148] Top shape: 24 256 28 28 (4816896)
I0403 19:33:32.298053 25098 net.cpp:148] Top shape: 24 256 28 28 (4816896)
I0403 19:33:32.298069 25098 net.cpp:156] Memory required for data: 657507360
I0403 19:33:32.298084 25098 layer_factory.hpp:77] Creating layer inception_3b/1x1
I0403 19:33:32.298106 25098 net.cpp:91] Creating Layer inception_3b/1x1
I0403 19:33:32.298125 25098 net.cpp:425] inception_3b/1x1 <- inception_3a/output_inception_3a/output_0_split_0
I0403 19:33:32.298146 25098 net.cpp:399] inception_3b/1x1 -> inception_3b/1x1
I0403 19:33:32.299234 25098 net.cpp:141] Setting up inception_3b/1x1
I0403 19:33:32.299280 25098 net.cpp:148] Top shape: 24 128 28 28 (2408448)
I0403 19:33:32.299299 25098 net.cpp:156] Memory required for data: 667141152
I0403 19:33:32.299319 25098 layer_factory.hpp:77] Creating layer inception_3b/relu_1x1
I0403 19:33:32.299335 25098 net.cpp:91] Creating Layer inception_3b/relu_1x1
I0403 19:33:32.299358 25098 net.cpp:425] inception_3b/relu_1x1 <- inception_3b/1x1
I0403 19:33:32.299376 25098 net.cpp:386] inception_3b/relu_1x1 -> inception_3b/1x1 (in-place)
I0403 19:33:32.299545 25098 net.cpp:141] Setting up inception_3b/relu_1x1
I0403 19:33:32.299574 25098 net.cpp:148] Top shape: 24 128 28 28 (2408448)
I0403 19:33:32.299592 25098 net.cpp:156] Memory required for data: 676774944
I0403 19:33:32.299607 25098 layer_factory.hpp:77] Creating layer inception_3b/3x3_reduce
I0403 19:33:32.299629 25098 net.cpp:91] Creating Layer inception_3b/3x3_reduce
I0403 19:33:32.299646 25098 net.cpp:425] inception_3b/3x3_reduce <- inception_3a/output_inception_3a/output_0_split_1
I0403 19:33:32.299669 25098 net.cpp:399] inception_3b/3x3_reduce -> inception_3b/3x3_reduce
I0403 19:33:32.300756 25098 net.cpp:141] Setting up inception_3b/3x3_reduce
I0403 19:33:32.300789 25098 net.cpp:148] Top shape: 24 128 28 28 (2408448)
I0403 19:33:32.300806 25098 net.cpp:156] Memory required for data: 686408736
I0403 19:33:32.300827 25098 layer_factory.hpp:77] Creating layer inception_3b/relu_3x3_reduce
I0403 19:33:32.300845 25098 net.cpp:91] Creating Layer inception_3b/relu_3x3_reduce
I0403 19:33:32.300863 25098 net.cpp:425] inception_3b/relu_3x3_reduce <- inception_3b/3x3_reduce
I0403 19:33:32.300882 25098 net.cpp:386] inception_3b/relu_3x3_reduce -> inception_3b/3x3_reduce (in-place)
I0403 19:33:32.301048 25098 net.cpp:141] Setting up inception_3b/relu_3x3_reduce
I0403 19:33:32.301075 25098 net.cpp:148] Top shape: 24 128 28 28 (2408448)
I0403 19:33:32.301090 25098 net.cpp:156] Memory required for data: 696042528
I0403 19:33:32.301106 25098 layer_factory.hpp:77] Creating layer inception_3b/3x3
I0403 19:33:32.301133 25098 net.cpp:91] Creating Layer inception_3b/3x3
I0403 19:33:32.301152 25098 net.cpp:425] inception_3b/3x3 <- inception_3b/3x3_reduce
I0403 19:33:32.301173 25098 net.cpp:399] inception_3b/3x3 -> inception_3b/3x3
I0403 19:33:32.304010 25098 net.cpp:141] Setting up inception_3b/3x3
I0403 19:33:32.304044 25098 net.cpp:148] Top shape: 24 192 28 28 (3612672)
I0403 19:33:32.304059 25098 net.cpp:156] Memory required for data: 710493216
I0403 19:33:32.304076 25098 layer_factory.hpp:77] Creating layer inception_3b/relu_3x3
I0403 19:33:32.304100 25098 net.cpp:91] Creating Layer inception_3b/relu_3x3
I0403 19:33:32.304118 25098 net.cpp:425] inception_3b/relu_3x3 <- inception_3b/3x3
I0403 19:33:32.304136 25098 net.cpp:386] inception_3b/relu_3x3 -> inception_3b/3x3 (in-place)
I0403 19:33:32.304436 25098 net.cpp:141] Setting up inception_3b/relu_3x3
I0403 19:33:32.304469 25098 net.cpp:148] Top shape: 24 192 28 28 (3612672)
I0403 19:33:32.304484 25098 net.cpp:156] Memory required for data: 724943904
I0403 19:33:32.304500 25098 layer_factory.hpp:77] Creating layer inception_3b/5x5_reduce
I0403 19:33:32.304525 25098 net.cpp:91] Creating Layer inception_3b/5x5_reduce
I0403 19:33:32.304556 25098 net.cpp:425] inception_3b/5x5_reduce <- inception_3a/output_inception_3a/output_0_split_2
I0403 19:33:32.304581 25098 net.cpp:399] inception_3b/5x5_reduce -> inception_3b/5x5_reduce
I0403 19:33:32.305544 25098 net.cpp:141] Setting up inception_3b/5x5_reduce
I0403 19:33:32.305575 25098 net.cpp:148] Top shape: 24 32 28 28 (602112)
I0403 19:33:32.305594 25098 net.cpp:156] Memory required for data: 727352352
I0403 19:33:32.305611 25098 layer_factory.hpp:77] Creating layer inception_3b/relu_5x5_reduce
I0403 19:33:32.305634 25098 net.cpp:91] Creating Layer inception_3b/relu_5x5_reduce
I0403 19:33:32.305654 25098 net.cpp:425] inception_3b/relu_5x5_reduce <- inception_3b/5x5_reduce
I0403 19:33:32.305672 25098 net.cpp:386] inception_3b/relu_5x5_reduce -> inception_3b/5x5_reduce (in-place)
I0403 19:33:32.305855 25098 net.cpp:141] Setting up inception_3b/relu_5x5_reduce
I0403 19:33:32.305887 25098 net.cpp:148] Top shape: 24 32 28 28 (602112)
I0403 19:33:32.305905 25098 net.cpp:156] Memory required for data: 729760800
I0403 19:33:32.305922 25098 layer_factory.hpp:77] Creating layer inception_3b/5x5
I0403 19:33:32.305944 25098 net.cpp:91] Creating Layer inception_3b/5x5
I0403 19:33:32.305965 25098 net.cpp:425] inception_3b/5x5 <- inception_3b/5x5_reduce
I0403 19:33:32.305984 25098 net.cpp:399] inception_3b/5x5 -> inception_3b/5x5
I0403 19:33:32.307956 25098 net.cpp:141] Setting up inception_3b/5x5
I0403 19:33:32.307988 25098 net.cpp:148] Top shape: 24 96 28 28 (1806336)
I0403 19:33:32.308007 25098 net.cpp:156] Memory required for data: 736986144
I0403 19:33:32.308027 25098 layer_factory.hpp:77] Creating layer inception_3b/relu_5x5
I0403 19:33:32.308048 25098 net.cpp:91] Creating Layer inception_3b/relu_5x5
I0403 19:33:32.308066 25098 net.cpp:425] inception_3b/relu_5x5 <- inception_3b/5x5
I0403 19:33:32.308085 25098 net.cpp:386] inception_3b/relu_5x5 -> inception_3b/5x5 (in-place)
I0403 19:33:32.308276 25098 net.cpp:141] Setting up inception_3b/relu_5x5
I0403 19:33:32.308306 25098 net.cpp:148] Top shape: 24 96 28 28 (1806336)
I0403 19:33:32.308322 25098 net.cpp:156] Memory required for data: 744211488
I0403 19:33:32.308338 25098 layer_factory.hpp:77] Creating layer inception_3b/pool
I0403 19:33:32.308358 25098 net.cpp:91] Creating Layer inception_3b/pool
I0403 19:33:32.308374 25098 net.cpp:425] inception_3b/pool <- inception_3a/output_inception_3a/output_0_split_3
I0403 19:33:32.308393 25098 net.cpp:399] inception_3b/pool -> inception_3b/pool
I0403 19:33:32.308449 25098 net.cpp:141] Setting up inception_3b/pool
I0403 19:33:32.308475 25098 net.cpp:148] Top shape: 24 256 28 28 (4816896)
I0403 19:33:32.308492 25098 net.cpp:156] Memory required for data: 763479072
I0403 19:33:32.308508 25098 layer_factory.hpp:77] Creating layer inception_3b/pool_proj
I0403 19:33:32.308531 25098 net.cpp:91] Creating Layer inception_3b/pool_proj
I0403 19:33:32.308552 25098 net.cpp:425] inception_3b/pool_proj <- inception_3b/pool
I0403 19:33:32.308573 25098 net.cpp:399] inception_3b/pool_proj -> inception_3b/pool_proj
I0403 19:33:32.309587 25098 net.cpp:141] Setting up inception_3b/pool_proj
I0403 19:33:32.309620 25098 net.cpp:148] Top shape: 24 64 28 28 (1204224)
I0403 19:33:32.309639 25098 net.cpp:156] Memory required for data: 768295968
I0403 19:33:32.309659 25098 layer_factory.hpp:77] Creating layer inception_3b/relu_pool_proj
I0403 19:33:32.309677 25098 net.cpp:91] Creating Layer inception_3b/relu_pool_proj
I0403 19:33:32.309696 25098 net.cpp:425] inception_3b/relu_pool_proj <- inception_3b/pool_proj
I0403 19:33:32.309715 25098 net.cpp:386] inception_3b/relu_pool_proj -> inception_3b/pool_proj (in-place)
I0403 19:33:32.310082 25098 net.cpp:141] Setting up inception_3b/relu_pool_proj
I0403 19:33:32.310113 25098 net.cpp:148] Top shape: 24 64 28 28 (1204224)
I0403 19:33:32.310130 25098 net.cpp:156] Memory required for data: 773112864
I0403 19:33:32.310145 25098 layer_factory.hpp:77] Creating layer inception_3b/output
I0403 19:33:32.310166 25098 net.cpp:91] Creating Layer inception_3b/output
I0403 19:33:32.310185 25098 net.cpp:425] inception_3b/output <- inception_3b/1x1
I0403 19:33:32.310201 25098 net.cpp:425] inception_3b/output <- inception_3b/3x3
I0403 19:33:32.310220 25098 net.cpp:425] inception_3b/output <- inception_3b/5x5
I0403 19:33:32.310238 25098 net.cpp:425] inception_3b/output <- inception_3b/pool_proj
I0403 19:33:32.310261 25098 net.cpp:399] inception_3b/output -> inception_3b/output
I0403 19:33:32.310308 25098 net.cpp:141] Setting up inception_3b/output
I0403 19:33:32.310334 25098 net.cpp:148] Top shape: 24 480 28 28 (9031680)
I0403 19:33:32.310351 25098 net.cpp:156] Memory required for data: 809239584
I0403 19:33:32.310367 25098 layer_factory.hpp:77] Creating layer pool3/3x3_s2
I0403 19:33:32.310386 25098 net.cpp:91] Creating Layer pool3/3x3_s2
I0403 19:33:32.310402 25098 net.cpp:425] pool3/3x3_s2 <- inception_3b/output
I0403 19:33:32.310437 25098 net.cpp:399] pool3/3x3_s2 -> pool3/3x3_s2
I0403 19:33:32.310499 25098 net.cpp:141] Setting up pool3/3x3_s2
I0403 19:33:32.310525 25098 net.cpp:148] Top shape: 24 480 14 14 (2257920)
I0403 19:33:32.310542 25098 net.cpp:156] Memory required for data: 818271264
I0403 19:33:32.310559 25098 layer_factory.hpp:77] Creating layer pool3/3x3_s2_pool3/3x3_s2_0_split
I0403 19:33:32.310580 25098 net.cpp:91] Creating Layer pool3/3x3_s2_pool3/3x3_s2_0_split
I0403 19:33:32.310597 25098 net.cpp:425] pool3/3x3_s2_pool3/3x3_s2_0_split <- pool3/3x3_s2
I0403 19:33:32.310616 25098 net.cpp:399] pool3/3x3_s2_pool3/3x3_s2_0_split -> pool3/3x3_s2_pool3/3x3_s2_0_split_0
I0403 19:33:32.310638 25098 net.cpp:399] pool3/3x3_s2_pool3/3x3_s2_0_split -> pool3/3x3_s2_pool3/3x3_s2_0_split_1
I0403 19:33:32.310659 25098 net.cpp:399] pool3/3x3_s2_pool3/3x3_s2_0_split -> pool3/3x3_s2_pool3/3x3_s2_0_split_2
I0403 19:33:32.310680 25098 net.cpp:399] pool3/3x3_s2_pool3/3x3_s2_0_split -> pool3/3x3_s2_pool3/3x3_s2_0_split_3
I0403 19:33:32.310756 25098 net.cpp:141] Setting up pool3/3x3_s2_pool3/3x3_s2_0_split
I0403 19:33:32.310786 25098 net.cpp:148] Top shape: 24 480 14 14 (2257920)
I0403 19:33:32.310804 25098 net.cpp:148] Top shape: 24 480 14 14 (2257920)
I0403 19:33:32.310822 25098 net.cpp:148] Top shape: 24 480 14 14 (2257920)
I0403 19:33:32.310837 25098 net.cpp:148] Top shape: 24 480 14 14 (2257920)
I0403 19:33:32.310853 25098 net.cpp:156] Memory required for data: 854397984
I0403 19:33:32.310868 25098 layer_factory.hpp:77] Creating layer inception_4a/1x1
I0403 19:33:32.310890 25098 net.cpp:91] Creating Layer inception_4a/1x1
I0403 19:33:32.310909 25098 net.cpp:425] inception_4a/1x1 <- pool3/3x3_s2_pool3/3x3_s2_0_split_0
I0403 19:33:32.310930 25098 net.cpp:399] inception_4a/1x1 -> inception_4a/1x1
I0403 19:33:32.312482 25098 net.cpp:141] Setting up inception_4a/1x1
I0403 19:33:32.312515 25098 net.cpp:148] Top shape: 24 192 14 14 (903168)
I0403 19:33:32.312533 25098 net.cpp:156] Memory required for data: 858010656
I0403 19:33:32.312553 25098 layer_factory.hpp:77] Creating layer inception_4a/relu_1x1
I0403 19:33:32.312573 25098 net.cpp:91] Creating Layer inception_4a/relu_1x1
I0403 19:33:32.312592 25098 net.cpp:425] inception_4a/relu_1x1 <- inception_4a/1x1
I0403 19:33:32.312613 25098 net.cpp:386] inception_4a/relu_1x1 -> inception_4a/1x1 (in-place)
I0403 19:33:32.312784 25098 net.cpp:141] Setting up inception_4a/relu_1x1
I0403 19:33:32.312813 25098 net.cpp:148] Top shape: 24 192 14 14 (903168)
I0403 19:33:32.312829 25098 net.cpp:156] Memory required for data: 861623328
I0403 19:33:32.312844 25098 layer_factory.hpp:77] Creating layer inception_4a/3x3_reduce
I0403 19:33:32.312866 25098 net.cpp:91] Creating Layer inception_4a/3x3_reduce
I0403 19:33:32.312885 25098 net.cpp:425] inception_4a/3x3_reduce <- pool3/3x3_s2_pool3/3x3_s2_0_split_1
I0403 19:33:32.312906 25098 net.cpp:399] inception_4a/3x3_reduce -> inception_4a/3x3_reduce
I0403 19:33:32.314126 25098 net.cpp:141] Setting up inception_4a/3x3_reduce
I0403 19:33:32.314159 25098 net.cpp:148] Top shape: 24 96 14 14 (451584)
I0403 19:33:32.314182 25098 net.cpp:156] Memory required for data: 863429664
I0403 19:33:32.314208 25098 layer_factory.hpp:77] Creating layer inception_4a/relu_3x3_reduce
I0403 19:33:32.314229 25098 net.cpp:91] Creating Layer inception_4a/relu_3x3_reduce
I0403 19:33:32.314247 25098 net.cpp:425] inception_4a/relu_3x3_reduce <- inception_4a/3x3_reduce
I0403 19:33:32.314282 25098 net.cpp:386] inception_4a/relu_3x3_reduce -> inception_4a/3x3_reduce (in-place)
I0403 19:33:32.314460 25098 net.cpp:141] Setting up inception_4a/relu_3x3_reduce
I0403 19:33:32.314488 25098 net.cpp:148] Top shape: 24 96 14 14 (451584)
I0403 19:33:32.314505 25098 net.cpp:156] Memory required for data: 865236000
I0403 19:33:32.314522 25098 layer_factory.hpp:77] Creating layer inception_4a/3x3
I0403 19:33:32.314543 25098 net.cpp:91] Creating Layer inception_4a/3x3
I0403 19:33:32.314564 25098 net.cpp:425] inception_4a/3x3 <- inception_4a/3x3_reduce
I0403 19:33:32.314586 25098 net.cpp:399] inception_4a/3x3 -> inception_4a/3x3
I0403 19:33:32.317190 25098 net.cpp:141] Setting up inception_4a/3x3
I0403 19:33:32.317219 25098 net.cpp:148] Top shape: 24 208 14 14 (978432)
I0403 19:33:32.317235 25098 net.cpp:156] Memory required for data: 869149728
I0403 19:33:32.317253 25098 layer_factory.hpp:77] Creating layer inception_4a/relu_3x3
I0403 19:33:32.317281 25098 net.cpp:91] Creating Layer inception_4a/relu_3x3
I0403 19:33:32.317299 25098 net.cpp:425] inception_4a/relu_3x3 <- inception_4a/3x3
I0403 19:33:32.317320 25098 net.cpp:386] inception_4a/relu_3x3 -> inception_4a/3x3 (in-place)
I0403 19:33:32.317585 25098 net.cpp:141] Setting up inception_4a/relu_3x3
I0403 19:33:32.317613 25098 net.cpp:148] Top shape: 24 208 14 14 (978432)
I0403 19:33:32.317630 25098 net.cpp:156] Memory required for data: 873063456
I0403 19:33:32.317646 25098 layer_factory.hpp:77] Creating layer inception_4a/5x5_reduce
I0403 19:33:32.317670 25098 net.cpp:91] Creating Layer inception_4a/5x5_reduce
I0403 19:33:32.317690 25098 net.cpp:425] inception_4a/5x5_reduce <- pool3/3x3_s2_pool3/3x3_s2_0_split_2
I0403 19:33:32.317714 25098 net.cpp:399] inception_4a/5x5_reduce -> inception_4a/5x5_reduce
I0403 19:33:32.318701 25098 net.cpp:141] Setting up inception_4a/5x5_reduce
I0403 19:33:32.318730 25098 net.cpp:148] Top shape: 24 16 14 14 (75264)
I0403 19:33:32.318747 25098 net.cpp:156] Memory required for data: 873364512
I0403 19:33:32.318766 25098 layer_factory.hpp:77] Creating layer inception_4a/relu_5x5_reduce
I0403 19:33:32.318789 25098 net.cpp:91] Creating Layer inception_4a/relu_5x5_reduce
I0403 19:33:32.318809 25098 net.cpp:425] inception_4a/relu_5x5_reduce <- inception_4a/5x5_reduce
I0403 19:33:32.318826 25098 net.cpp:386] inception_4a/relu_5x5_reduce -> inception_4a/5x5_reduce (in-place)
I0403 19:33:32.318994 25098 net.cpp:141] Setting up inception_4a/relu_5x5_reduce
I0403 19:33:32.319023 25098 net.cpp:148] Top shape: 24 16 14 14 (75264)
I0403 19:33:32.319041 25098 net.cpp:156] Memory required for data: 873665568
I0403 19:33:32.319056 25098 layer_factory.hpp:77] Creating layer inception_4a/5x5
I0403 19:33:32.319077 25098 net.cpp:91] Creating Layer inception_4a/5x5
I0403 19:33:32.319097 25098 net.cpp:425] inception_4a/5x5 <- inception_4a/5x5_reduce
I0403 19:33:32.319118 25098 net.cpp:399] inception_4a/5x5 -> inception_4a/5x5
I0403 19:33:32.320197 25098 net.cpp:141] Setting up inception_4a/5x5
I0403 19:33:32.320225 25098 net.cpp:148] Top shape: 24 48 14 14 (225792)
I0403 19:33:32.320245 25098 net.cpp:156] Memory required for data: 874568736
I0403 19:33:32.320272 25098 layer_factory.hpp:77] Creating layer inception_4a/relu_5x5
I0403 19:33:32.320296 25098 net.cpp:91] Creating Layer inception_4a/relu_5x5
I0403 19:33:32.320317 25098 net.cpp:425] inception_4a/relu_5x5 <- inception_4a/5x5
I0403 19:33:32.320335 25098 net.cpp:386] inception_4a/relu_5x5 -> inception_4a/5x5 (in-place)
I0403 19:33:32.320507 25098 net.cpp:141] Setting up inception_4a/relu_5x5
I0403 19:33:32.320534 25098 net.cpp:148] Top shape: 24 48 14 14 (225792)
I0403 19:33:32.320550 25098 net.cpp:156] Memory required for data: 875471904
I0403 19:33:32.320566 25098 layer_factory.hpp:77] Creating layer inception_4a/pool
I0403 19:33:32.320585 25098 net.cpp:91] Creating Layer inception_4a/pool
I0403 19:33:32.320602 25098 net.cpp:425] inception_4a/pool <- pool3/3x3_s2_pool3/3x3_s2_0_split_3
I0403 19:33:32.320623 25098 net.cpp:399] inception_4a/pool -> inception_4a/pool
I0403 19:33:32.320686 25098 net.cpp:141] Setting up inception_4a/pool
I0403 19:33:32.320713 25098 net.cpp:148] Top shape: 24 480 14 14 (2257920)
I0403 19:33:32.320730 25098 net.cpp:156] Memory required for data: 884503584
I0403 19:33:32.320745 25098 layer_factory.hpp:77] Creating layer inception_4a/pool_proj
I0403 19:33:32.320772 25098 net.cpp:91] Creating Layer inception_4a/pool_proj
I0403 19:33:32.320791 25098 net.cpp:425] inception_4a/pool_proj <- inception_4a/pool
I0403 19:33:32.320809 25098 net.cpp:399] inception_4a/pool_proj -> inception_4a/pool_proj
I0403 19:33:32.321923 25098 net.cpp:141] Setting up inception_4a/pool_proj
I0403 19:33:32.321959 25098 net.cpp:148] Top shape: 24 64 14 14 (301056)
I0403 19:33:32.321990 25098 net.cpp:156] Memory required for data: 885707808
I0403 19:33:32.322010 25098 layer_factory.hpp:77] Creating layer inception_4a/relu_pool_proj
I0403 19:33:32.322029 25098 net.cpp:91] Creating Layer inception_4a/relu_pool_proj
I0403 19:33:32.322046 25098 net.cpp:425] inception_4a/relu_pool_proj <- inception_4a/pool_proj
I0403 19:33:32.322067 25098 net.cpp:386] inception_4a/relu_pool_proj -> inception_4a/pool_proj (in-place)
I0403 19:33:32.322341 25098 net.cpp:141] Setting up inception_4a/relu_pool_proj
I0403 19:33:32.322372 25098 net.cpp:148] Top shape: 24 64 14 14 (301056)
I0403 19:33:32.322391 25098 net.cpp:156] Memory required for data: 886912032
I0403 19:33:32.322405 25098 layer_factory.hpp:77] Creating layer inception_4a/output
I0403 19:33:32.322423 25098 net.cpp:91] Creating Layer inception_4a/output
I0403 19:33:32.322440 25098 net.cpp:425] inception_4a/output <- inception_4a/1x1
I0403 19:33:32.322458 25098 net.cpp:425] inception_4a/output <- inception_4a/3x3
I0403 19:33:32.322474 25098 net.cpp:425] inception_4a/output <- inception_4a/5x5
I0403 19:33:32.322492 25098 net.cpp:425] inception_4a/output <- inception_4a/pool_proj
I0403 19:33:32.322510 25098 net.cpp:399] inception_4a/output -> inception_4a/output
I0403 19:33:32.322554 25098 net.cpp:141] Setting up inception_4a/output
I0403 19:33:32.322579 25098 net.cpp:148] Top shape: 24 512 14 14 (2408448)
I0403 19:33:32.322594 25098 net.cpp:156] Memory required for data: 896545824
I0403 19:33:32.322610 25098 layer_factory.hpp:77] Creating layer inception_4a/output_inception_4a/output_0_split
I0403 19:33:32.322630 25098 net.cpp:91] Creating Layer inception_4a/output_inception_4a/output_0_split
I0403 19:33:32.322648 25098 net.cpp:425] inception_4a/output_inception_4a/output_0_split <- inception_4a/output
I0403 19:33:32.322665 25098 net.cpp:399] inception_4a/output_inception_4a/output_0_split -> inception_4a/output_inception_4a/output_0_split_0
I0403 19:33:32.322685 25098 net.cpp:399] inception_4a/output_inception_4a/output_0_split -> inception_4a/output_inception_4a/output_0_split_1
I0403 19:33:32.322710 25098 net.cpp:399] inception_4a/output_inception_4a/output_0_split -> inception_4a/output_inception_4a/output_0_split_2
I0403 19:33:32.322731 25098 net.cpp:399] inception_4a/output_inception_4a/output_0_split -> inception_4a/output_inception_4a/output_0_split_3
I0403 19:33:32.322751 25098 net.cpp:399] inception_4a/output_inception_4a/output_0_split -> inception_4a/output_inception_4a/output_0_split_4
I0403 19:33:32.322844 25098 net.cpp:141] Setting up inception_4a/output_inception_4a/output_0_split
I0403 19:33:32.322867 25098 net.cpp:148] Top shape: 24 512 14 14 (2408448)
I0403 19:33:32.322885 25098 net.cpp:148] Top shape: 24 512 14 14 (2408448)
I0403 19:33:32.322901 25098 net.cpp:148] Top shape: 24 512 14 14 (2408448)
I0403 19:33:32.322917 25098 net.cpp:148] Top shape: 24 512 14 14 (2408448)
I0403 19:33:32.322934 25098 net.cpp:148] Top shape: 24 512 14 14 (2408448)
I0403 19:33:32.322947 25098 net.cpp:156] Memory required for data: 944714784
I0403 19:33:32.322962 25098 layer_factory.hpp:77] Creating layer loss1/ave_pool
I0403 19:33:32.322980 25098 net.cpp:91] Creating Layer loss1/ave_pool
I0403 19:33:32.322999 25098 net.cpp:425] loss1/ave_pool <- inception_4a/output_inception_4a/output_0_split_0
I0403 19:33:32.323019 25098 net.cpp:399] loss1/ave_pool -> loss1/ave_pool
I0403 19:33:32.323222 25098 net.cpp:141] Setting up loss1/ave_pool
I0403 19:33:32.323251 25098 net.cpp:148] Top shape: 24 512 4 4 (196608)
I0403 19:33:32.323276 25098 net.cpp:156] Memory required for data: 945501216
I0403 19:33:32.323292 25098 layer_factory.hpp:77] Creating layer loss1/conv
I0403 19:33:32.323313 25098 net.cpp:91] Creating Layer loss1/conv
I0403 19:33:32.323333 25098 net.cpp:425] loss1/conv <- loss1/ave_pool
I0403 19:33:32.323354 25098 net.cpp:399] loss1/conv -> loss1/conv
I0403 19:33:32.324740 25098 net.cpp:141] Setting up loss1/conv
I0403 19:33:32.324770 25098 net.cpp:148] Top shape: 24 128 4 4 (49152)
I0403 19:33:32.324801 25098 net.cpp:156] Memory required for data: 945697824
I0403 19:33:32.324821 25098 layer_factory.hpp:77] Creating layer loss1/relu_conv
I0403 19:33:32.324841 25098 net.cpp:91] Creating Layer loss1/relu_conv
I0403 19:33:32.324857 25098 net.cpp:425] loss1/relu_conv <- loss1/conv
I0403 19:33:32.324877 25098 net.cpp:386] loss1/relu_conv -> loss1/conv (in-place)
I0403 19:33:32.325145 25098 net.cpp:141] Setting up loss1/relu_conv
I0403 19:33:32.325175 25098 net.cpp:148] Top shape: 24 128 4 4 (49152)
I0403 19:33:32.325191 25098 net.cpp:156] Memory required for data: 945894432
I0403 19:33:32.325206 25098 layer_factory.hpp:77] Creating layer loss1/fc
I0403 19:33:32.325230 25098 net.cpp:91] Creating Layer loss1/fc
I0403 19:33:32.325249 25098 net.cpp:425] loss1/fc <- loss1/conv
I0403 19:33:32.325278 25098 net.cpp:399] loss1/fc -> loss1/fc
I0403 19:33:32.342579 25098 net.cpp:141] Setting up loss1/fc
I0403 19:33:32.342614 25098 net.cpp:148] Top shape: 24 1024 (24576)
I0403 19:33:32.342631 25098 net.cpp:156] Memory required for data: 945992736
I0403 19:33:32.342651 25098 layer_factory.hpp:77] Creating layer loss1/relu_fc
I0403 19:33:32.342671 25098 net.cpp:91] Creating Layer loss1/relu_fc
I0403 19:33:32.342689 25098 net.cpp:425] loss1/relu_fc <- loss1/fc
I0403 19:33:32.342708 25098 net.cpp:386] loss1/relu_fc -> loss1/fc (in-place)
I0403 19:33:32.342907 25098 net.cpp:141] Setting up loss1/relu_fc
I0403 19:33:32.342936 25098 net.cpp:148] Top shape: 24 1024 (24576)
I0403 19:33:32.342952 25098 net.cpp:156] Memory required for data: 946091040
I0403 19:33:32.342967 25098 layer_factory.hpp:77] Creating layer loss1/drop_fc
I0403 19:33:32.342996 25098 net.cpp:91] Creating Layer loss1/drop_fc
I0403 19:33:32.343015 25098 net.cpp:425] loss1/drop_fc <- loss1/fc
I0403 19:33:32.343035 25098 net.cpp:386] loss1/drop_fc -> loss1/fc (in-place)
I0403 19:33:32.343091 25098 net.cpp:141] Setting up loss1/drop_fc
I0403 19:33:32.343119 25098 net.cpp:148] Top shape: 24 1024 (24576)
I0403 19:33:32.343135 25098 net.cpp:156] Memory required for data: 946189344
I0403 19:33:32.343152 25098 layer_factory.hpp:77] Creating layer loss1/classifier_plantvillage
I0403 19:33:32.343175 25098 net.cpp:91] Creating Layer loss1/classifier_plantvillage
I0403 19:33:32.343194 25098 net.cpp:425] loss1/classifier_plantvillage <- loss1/fc
I0403 19:33:32.343214 25098 net.cpp:399] loss1/classifier_plantvillage -> loss1/classifier_plantvillage
I0403 19:33:32.344116 25098 net.cpp:141] Setting up loss1/classifier_plantvillage
I0403 19:33:32.344146 25098 net.cpp:148] Top shape: 24 38 (912)
I0403 19:33:32.344163 25098 net.cpp:156] Memory required for data: 946192992
I0403 19:33:32.344182 25098 layer_factory.hpp:77] Creating layer loss1/classifier_plantvillage_loss1/classifier_plantvillage_0_split
I0403 19:33:32.344199 25098 net.cpp:91] Creating Layer loss1/classifier_plantvillage_loss1/classifier_plantvillage_0_split
I0403 19:33:32.344215 25098 net.cpp:425] loss1/classifier_plantvillage_loss1/classifier_plantvillage_0_split <- loss1/classifier_plantvillage
I0403 19:33:32.344236 25098 net.cpp:399] loss1/classifier_plantvillage_loss1/classifier_plantvillage_0_split -> loss1/classifier_plantvillage_loss1/classifier_plantvillage_0_split_0
I0403 19:33:32.344267 25098 net.cpp:399] loss1/classifier_plantvillage_loss1/classifier_plantvillage_0_split -> loss1/classifier_plantvillage_loss1/classifier_plantvillage_0_split_1
I0403 19:33:32.344293 25098 net.cpp:399] loss1/classifier_plantvillage_loss1/classifier_plantvillage_0_split -> loss1/classifier_plantvillage_loss1/classifier_plantvillage_0_split_2
I0403 19:33:32.344358 25098 net.cpp:141] Setting up loss1/classifier_plantvillage_loss1/classifier_plantvillage_0_split
I0403 19:33:32.344386 25098 net.cpp:148] Top shape: 24 38 (912)
I0403 19:33:32.344403 25098 net.cpp:148] Top shape: 24 38 (912)
I0403 19:33:32.344418 25098 net.cpp:148] Top shape: 24 38 (912)
I0403 19:33:32.344432 25098 net.cpp:156] Memory required for data: 946203936
I0403 19:33:32.344447 25098 layer_factory.hpp:77] Creating layer inception_4b/1x1
I0403 19:33:32.344470 25098 net.cpp:91] Creating Layer inception_4b/1x1
I0403 19:33:32.344503 25098 net.cpp:425] inception_4b/1x1 <- inception_4a/output_inception_4a/output_0_split_1
I0403 19:33:32.344523 25098 net.cpp:399] inception_4b/1x1 -> inception_4b/1x1
I0403 19:33:32.346038 25098 net.cpp:141] Setting up inception_4b/1x1
I0403 19:33:32.346068 25098 net.cpp:148] Top shape: 24 160 14 14 (752640)
I0403 19:33:32.346086 25098 net.cpp:156] Memory required for data: 949214496
I0403 19:33:32.346107 25098 layer_factory.hpp:77] Creating layer inception_4b/relu_1x1
I0403 19:33:32.346127 25098 net.cpp:91] Creating Layer inception_4b/relu_1x1
I0403 19:33:32.346143 25098 net.cpp:425] inception_4b/relu_1x1 <- inception_4b/1x1
I0403 19:33:32.346160 25098 net.cpp:386] inception_4b/relu_1x1 -> inception_4b/1x1 (in-place)
I0403 19:33:32.346334 25098 net.cpp:141] Setting up inception_4b/relu_1x1
I0403 19:33:32.346364 25098 net.cpp:148] Top shape: 24 160 14 14 (752640)
I0403 19:33:32.346381 25098 net.cpp:156] Memory required for data: 952225056
I0403 19:33:32.346396 25098 layer_factory.hpp:77] Creating layer inception_4b/3x3_reduce
I0403 19:33:32.346420 25098 net.cpp:91] Creating Layer inception_4b/3x3_reduce
I0403 19:33:32.346436 25098 net.cpp:425] inception_4b/3x3_reduce <- inception_4a/output_inception_4a/output_0_split_2
I0403 19:33:32.346460 25098 net.cpp:399] inception_4b/3x3_reduce -> inception_4b/3x3_reduce
I0403 19:33:32.347735 25098 net.cpp:141] Setting up inception_4b/3x3_reduce
I0403 19:33:32.347765 25098 net.cpp:148] Top shape: 24 112 14 14 (526848)
I0403 19:33:32.347782 25098 net.cpp:156] Memory required for data: 954332448
I0403 19:33:32.347802 25098 layer_factory.hpp:77] Creating layer inception_4b/relu_3x3_reduce
I0403 19:33:32.347822 25098 net.cpp:91] Creating Layer inception_4b/relu_3x3_reduce
I0403 19:33:32.347841 25098 net.cpp:425] inception_4b/relu_3x3_reduce <- inception_4b/3x3_reduce
I0403 19:33:32.347857 25098 net.cpp:386] inception_4b/relu_3x3_reduce -> inception_4b/3x3_reduce (in-place)
I0403 19:33:32.348134 25098 net.cpp:141] Setting up inception_4b/relu_3x3_reduce
I0403 19:33:32.348161 25098 net.cpp:148] Top shape: 24 112 14 14 (526848)
I0403 19:33:32.348178 25098 net.cpp:156] Memory required for data: 956439840
I0403 19:33:32.348193 25098 layer_factory.hpp:77] Creating layer inception_4b/3x3
I0403 19:33:32.348214 25098 net.cpp:91] Creating Layer inception_4b/3x3
I0403 19:33:32.348233 25098 net.cpp:425] inception_4b/3x3 <- inception_4b/3x3_reduce
I0403 19:33:32.348258 25098 net.cpp:399] inception_4b/3x3 -> inception_4b/3x3
I0403 19:33:32.351086 25098 net.cpp:141] Setting up inception_4b/3x3
I0403 19:33:32.351120 25098 net.cpp:148] Top shape: 24 224 14 14 (1053696)
I0403 19:33:32.351137 25098 net.cpp:156] Memory required for data: 960654624
I0403 19:33:32.351155 25098 layer_factory.hpp:77] Creating layer inception_4b/relu_3x3
I0403 19:33:32.351174 25098 net.cpp:91] Creating Layer inception_4b/relu_3x3
I0403 19:33:32.351191 25098 net.cpp:425] inception_4b/relu_3x3 <- inception_4b/3x3
I0403 19:33:32.351210 25098 net.cpp:386] inception_4b/relu_3x3 -> inception_4b/3x3 (in-place)
I0403 19:33:32.351388 25098 net.cpp:141] Setting up inception_4b/relu_3x3
I0403 19:33:32.351415 25098 net.cpp:148] Top shape: 24 224 14 14 (1053696)
I0403 19:33:32.351431 25098 net.cpp:156] Memory required for data: 964869408
I0403 19:33:32.351446 25098 layer_factory.hpp:77] Creating layer inception_4b/5x5_reduce
I0403 19:33:32.351472 25098 net.cpp:91] Creating Layer inception_4b/5x5_reduce
I0403 19:33:32.351493 25098 net.cpp:425] inception_4b/5x5_reduce <- inception_4a/output_inception_4a/output_0_split_3
I0403 19:33:32.351516 25098 net.cpp:399] inception_4b/5x5_reduce -> inception_4b/5x5_reduce
I0403 19:33:32.352535 25098 net.cpp:141] Setting up inception_4b/5x5_reduce
I0403 19:33:32.352563 25098 net.cpp:148] Top shape: 24 24 14 14 (112896)
I0403 19:33:32.352581 25098 net.cpp:156] Memory required for data: 965320992
I0403 19:33:32.352598 25098 layer_factory.hpp:77] Creating layer inception_4b/relu_5x5_reduce
I0403 19:33:32.352622 25098 net.cpp:91] Creating Layer inception_4b/relu_5x5_reduce
I0403 19:33:32.352653 25098 net.cpp:425] inception_4b/relu_5x5_reduce <- inception_4b/5x5_reduce
I0403 19:33:32.352672 25098 net.cpp:386] inception_4b/relu_5x5_reduce -> inception_4b/5x5_reduce (in-place)
I0403 19:33:32.352845 25098 net.cpp:141] Setting up inception_4b/relu_5x5_reduce
I0403 19:33:32.352871 25098 net.cpp:148] Top shape: 24 24 14 14 (112896)
I0403 19:33:32.352887 25098 net.cpp:156] Memory required for data: 965772576
I0403 19:33:32.352902 25098 layer_factory.hpp:77] Creating layer inception_4b/5x5
I0403 19:33:32.352926 25098 net.cpp:91] Creating Layer inception_4b/5x5
I0403 19:33:32.352946 25098 net.cpp:425] inception_4b/5x5 <- inception_4b/5x5_reduce
I0403 19:33:32.352965 25098 net.cpp:399] inception_4b/5x5 -> inception_4b/5x5
I0403 19:33:32.354115 25098 net.cpp:141] Setting up inception_4b/5x5
I0403 19:33:32.354145 25098 net.cpp:148] Top shape: 24 64 14 14 (301056)
I0403 19:33:32.354161 25098 net.cpp:156] Memory required for data: 966976800
I0403 19:33:32.354181 25098 layer_factory.hpp:77] Creating layer inception_4b/relu_5x5
I0403 19:33:32.354202 25098 net.cpp:91] Creating Layer inception_4b/relu_5x5
I0403 19:33:32.354220 25098 net.cpp:425] inception_4b/relu_5x5 <- inception_4b/5x5
I0403 19:33:32.354238 25098 net.cpp:386] inception_4b/relu_5x5 -> inception_4b/5x5 (in-place)
I0403 19:33:32.354533 25098 net.cpp:141] Setting up inception_4b/relu_5x5
I0403 19:33:32.354560 25098 net.cpp:148] Top shape: 24 64 14 14 (301056)
I0403 19:33:32.354574 25098 net.cpp:156] Memory required for data: 968181024
I0403 19:33:32.354589 25098 layer_factory.hpp:77] Creating layer inception_4b/pool
I0403 19:33:32.354616 25098 net.cpp:91] Creating Layer inception_4b/pool
I0403 19:33:32.354643 25098 net.cpp:425] inception_4b/pool <- inception_4a/output_inception_4a/output_0_split_4
I0403 19:33:32.354663 25098 net.cpp:399] inception_4b/pool -> inception_4b/pool
I0403 19:33:32.354725 25098 net.cpp:141] Setting up inception_4b/pool
I0403 19:33:32.354750 25098 net.cpp:148] Top shape: 24 512 14 14 (2408448)
I0403 19:33:32.354764 25098 net.cpp:156] Memory required for data: 977814816
I0403 19:33:32.354779 25098 layer_factory.hpp:77] Creating layer inception_4b/pool_proj
I0403 19:33:32.354804 25098 net.cpp:91] Creating Layer inception_4b/pool_proj
I0403 19:33:32.354820 25098 net.cpp:425] inception_4b/pool_proj <- inception_4b/pool
I0403 19:33:32.354838 25098 net.cpp:399] inception_4b/pool_proj -> inception_4b/pool_proj
I0403 19:33:32.356001 25098 net.cpp:141] Setting up inception_4b/pool_proj
I0403 19:33:32.356029 25098 net.cpp:148] Top shape: 24 64 14 14 (301056)
I0403 19:33:32.356045 25098 net.cpp:156] Memory required for data: 979019040
I0403 19:33:32.356063 25098 layer_factory.hpp:77] Creating layer inception_4b/relu_pool_proj
I0403 19:33:32.356082 25098 net.cpp:91] Creating Layer inception_4b/relu_pool_proj
I0403 19:33:32.356101 25098 net.cpp:425] inception_4b/relu_pool_proj <- inception_4b/pool_proj
I0403 19:33:32.356117 25098 net.cpp:386] inception_4b/relu_pool_proj -> inception_4b/pool_proj (in-place)
I0403 19:33:32.356292 25098 net.cpp:141] Setting up inception_4b/relu_pool_proj
I0403 19:33:32.356319 25098 net.cpp:148] Top shape: 24 64 14 14 (301056)
I0403 19:33:32.356335 25098 net.cpp:156] Memory required for data: 980223264
I0403 19:33:32.356350 25098 layer_factory.hpp:77] Creating layer inception_4b/output
I0403 19:33:32.356367 25098 net.cpp:91] Creating Layer inception_4b/output
I0403 19:33:32.356384 25098 net.cpp:425] inception_4b/output <- inception_4b/1x1
I0403 19:33:32.356398 25098 net.cpp:425] inception_4b/output <- inception_4b/3x3
I0403 19:33:32.356415 25098 net.cpp:425] inception_4b/output <- inception_4b/5x5
I0403 19:33:32.356431 25098 net.cpp:425] inception_4b/output <- inception_4b/pool_proj
I0403 19:33:32.356447 25098 net.cpp:399] inception_4b/output -> inception_4b/output
I0403 19:33:32.356490 25098 net.cpp:141] Setting up inception_4b/output
I0403 19:33:32.356514 25098 net.cpp:148] Top shape: 24 512 14 14 (2408448)
I0403 19:33:32.356528 25098 net.cpp:156] Memory required for data: 989857056
I0403 19:33:32.356556 25098 layer_factory.hpp:77] Creating layer inception_4b/output_inception_4b/output_0_split
I0403 19:33:32.356577 25098 net.cpp:91] Creating Layer inception_4b/output_inception_4b/output_0_split
I0403 19:33:32.356595 25098 net.cpp:425] inception_4b/output_inception_4b/output_0_split <- inception_4b/output
I0403 19:33:32.356611 25098 net.cpp:399] inception_4b/output_inception_4b/output_0_split -> inception_4b/output_inception_4b/output_0_split_0
I0403 19:33:32.356631 25098 net.cpp:399] inception_4b/output_inception_4b/output_0_split -> inception_4b/output_inception_4b/output_0_split_1
I0403 19:33:32.356652 25098 net.cpp:399] inception_4b/output_inception_4b/output_0_split -> inception_4b/output_inception_4b/output_0_split_2
I0403 19:33:32.356672 25098 net.cpp:399] inception_4b/output_inception_4b/output_0_split -> inception_4b/output_inception_4b/output_0_split_3
I0403 19:33:32.356753 25098 net.cpp:141] Setting up inception_4b/output_inception_4b/output_0_split
I0403 19:33:32.356777 25098 net.cpp:148] Top shape: 24 512 14 14 (2408448)
I0403 19:33:32.356794 25098 net.cpp:148] Top shape: 24 512 14 14 (2408448)
I0403 19:33:32.356809 25098 net.cpp:148] Top shape: 24 512 14 14 (2408448)
I0403 19:33:32.356823 25098 net.cpp:148] Top shape: 24 512 14 14 (2408448)
I0403 19:33:32.356837 25098 net.cpp:156] Memory required for data: 1028392224
I0403 19:33:32.356850 25098 layer_factory.hpp:77] Creating layer inception_4c/1x1
I0403 19:33:32.356870 25098 net.cpp:91] Creating Layer inception_4c/1x1
I0403 19:33:32.356887 25098 net.cpp:425] inception_4c/1x1 <- inception_4b/output_inception_4b/output_0_split_0
I0403 19:33:32.356906 25098 net.cpp:399] inception_4c/1x1 -> inception_4c/1x1
I0403 19:33:32.358253 25098 net.cpp:141] Setting up inception_4c/1x1
I0403 19:33:32.358289 25098 net.cpp:148] Top shape: 24 128 14 14 (602112)
I0403 19:33:32.358305 25098 net.cpp:156] Memory required for data: 1030800672
I0403 19:33:32.358325 25098 layer_factory.hpp:77] Creating layer inception_4c/relu_1x1
I0403 19:33:32.358342 25098 net.cpp:91] Creating Layer inception_4c/relu_1x1
I0403 19:33:32.358357 25098 net.cpp:425] inception_4c/relu_1x1 <- inception_4c/1x1
I0403 19:33:32.358373 25098 net.cpp:386] inception_4c/relu_1x1 -> inception_4c/1x1 (in-place)
I0403 19:33:32.358548 25098 net.cpp:141] Setting up inception_4c/relu_1x1
I0403 19:33:32.358573 25098 net.cpp:148] Top shape: 24 128 14 14 (602112)
I0403 19:33:32.358589 25098 net.cpp:156] Memory required for data: 1033209120
I0403 19:33:32.358605 25098 layer_factory.hpp:77] Creating layer inception_4c/3x3_reduce
I0403 19:33:32.358626 25098 net.cpp:91] Creating Layer inception_4c/3x3_reduce
I0403 19:33:32.358642 25098 net.cpp:425] inception_4c/3x3_reduce <- inception_4b/output_inception_4b/output_0_split_1
I0403 19:33:32.358664 25098 net.cpp:399] inception_4c/3x3_reduce -> inception_4c/3x3_reduce
I0403 19:33:32.360738 25098 net.cpp:141] Setting up inception_4c/3x3_reduce
I0403 19:33:32.360769 25098 net.cpp:148] Top shape: 24 128 14 14 (602112)
I0403 19:33:32.360785 25098 net.cpp:156] Memory required for data: 1035617568
I0403 19:33:32.360803 25098 layer_factory.hpp:77] Creating layer inception_4c/relu_3x3_reduce
I0403 19:33:32.360823 25098 net.cpp:91] Creating Layer inception_4c/relu_3x3_reduce
I0403 19:33:32.360842 25098 net.cpp:425] inception_4c/relu_3x3_reduce <- inception_4c/3x3_reduce
I0403 19:33:32.360859 25098 net.cpp:386] inception_4c/relu_3x3_reduce -> inception_4c/3x3_reduce (in-place)
I0403 19:33:32.361127 25098 net.cpp:141] Setting up inception_4c/relu_3x3_reduce
I0403 19:33:32.361155 25098 net.cpp:148] Top shape: 24 128 14 14 (602112)
I0403 19:33:32.361169 25098 net.cpp:156] Memory required for data: 1038026016
I0403 19:33:32.361183 25098 layer_factory.hpp:77] Creating layer inception_4c/3x3
I0403 19:33:32.361207 25098 net.cpp:91] Creating Layer inception_4c/3x3
I0403 19:33:32.361225 25098 net.cpp:425] inception_4c/3x3 <- inception_4c/3x3_reduce
I0403 19:33:32.361248 25098 net.cpp:399] inception_4c/3x3 -> inception_4c/3x3
I0403 19:33:32.364765 25098 net.cpp:141] Setting up inception_4c/3x3
I0403 19:33:32.364804 25098 net.cpp:148] Top shape: 24 256 14 14 (1204224)
I0403 19:33:32.364820 25098 net.cpp:156] Memory required for data: 1042842912
I0403 19:33:32.364850 25098 layer_factory.hpp:77] Creating layer inception_4c/relu_3x3
I0403 19:33:32.364873 25098 net.cpp:91] Creating Layer inception_4c/relu_3x3
I0403 19:33:32.364889 25098 net.cpp:425] inception_4c/relu_3x3 <- inception_4c/3x3
I0403 19:33:32.364907 25098 net.cpp:386] inception_4c/relu_3x3 -> inception_4c/3x3 (in-place)
I0403 19:33:32.365072 25098 net.cpp:141] Setting up inception_4c/relu_3x3
I0403 19:33:32.365097 25098 net.cpp:148] Top shape: 24 256 14 14 (1204224)
I0403 19:33:32.365110 25098 net.cpp:156] Memory required for data: 1047659808
I0403 19:33:32.365124 25098 layer_factory.hpp:77] Creating layer inception_4c/5x5_reduce
I0403 19:33:32.365144 25098 net.cpp:91] Creating Layer inception_4c/5x5_reduce
I0403 19:33:32.365161 25098 net.cpp:425] inception_4c/5x5_reduce <- inception_4b/output_inception_4b/output_0_split_2
I0403 19:33:32.365182 25098 net.cpp:399] inception_4c/5x5_reduce -> inception_4c/5x5_reduce
I0403 19:33:32.366215 25098 net.cpp:141] Setting up inception_4c/5x5_reduce
I0403 19:33:32.366241 25098 net.cpp:148] Top shape: 24 24 14 14 (112896)
I0403 19:33:32.366262 25098 net.cpp:156] Memory required for data: 1048111392
I0403 19:33:32.366281 25098 layer_factory.hpp:77] Creating layer inception_4c/relu_5x5_reduce
I0403 19:33:32.366302 25098 net.cpp:91] Creating Layer inception_4c/relu_5x5_reduce
I0403 19:33:32.366317 25098 net.cpp:425] inception_4c/relu_5x5_reduce <- inception_4c/5x5_reduce
I0403 19:33:32.366334 25098 net.cpp:386] inception_4c/relu_5x5_reduce -> inception_4c/5x5_reduce (in-place)
I0403 19:33:32.366509 25098 net.cpp:141] Setting up inception_4c/relu_5x5_reduce
I0403 19:33:32.366533 25098 net.cpp:148] Top shape: 24 24 14 14 (112896)
I0403 19:33:32.366547 25098 net.cpp:156] Memory required for data: 1048562976
I0403 19:33:32.366561 25098 layer_factory.hpp:77] Creating layer inception_4c/5x5
I0403 19:33:32.366583 25098 net.cpp:91] Creating Layer inception_4c/5x5
I0403 19:33:32.366600 25098 net.cpp:425] inception_4c/5x5 <- inception_4c/5x5_reduce
I0403 19:33:32.366618 25098 net.cpp:399] inception_4c/5x5 -> inception_4c/5x5
I0403 19:33:32.367805 25098 net.cpp:141] Setting up inception_4c/5x5
I0403 19:33:32.367835 25098 net.cpp:148] Top shape: 24 64 14 14 (301056)
I0403 19:33:32.367851 25098 net.cpp:156] Memory required for data: 1049767200
I0403 19:33:32.367880 25098 layer_factory.hpp:77] Creating layer inception_4c/relu_5x5
I0403 19:33:32.367897 25098 net.cpp:91] Creating Layer inception_4c/relu_5x5
I0403 19:33:32.367913 25098 net.cpp:425] inception_4c/relu_5x5 <- inception_4c/5x5
I0403 19:33:32.367928 25098 net.cpp:386] inception_4c/relu_5x5 -> inception_4c/5x5 (in-place)
I0403 19:33:32.368198 25098 net.cpp:141] Setting up inception_4c/relu_5x5
I0403 19:33:32.368226 25098 net.cpp:148] Top shape: 24 64 14 14 (301056)
I0403 19:33:32.368242 25098 net.cpp:156] Memory required for data: 1050971424
I0403 19:33:32.368260 25098 layer_factory.hpp:77] Creating layer inception_4c/pool
I0403 19:33:32.368278 25098 net.cpp:91] Creating Layer inception_4c/pool
I0403 19:33:32.368294 25098 net.cpp:425] inception_4c/pool <- inception_4b/output_inception_4b/output_0_split_3
I0403 19:33:32.368312 25098 net.cpp:399] inception_4c/pool -> inception_4c/pool
I0403 19:33:32.368376 25098 net.cpp:141] Setting up inception_4c/pool
I0403 19:33:32.368397 25098 net.cpp:148] Top shape: 24 512 14 14 (2408448)
I0403 19:33:32.368412 25098 net.cpp:156] Memory required for data: 1060605216
I0403 19:33:32.368425 25098 layer_factory.hpp:77] Creating layer inception_4c/pool_proj
I0403 19:33:32.368445 25098 net.cpp:91] Creating Layer inception_4c/pool_proj
I0403 19:33:32.368463 25098 net.cpp:425] inception_4c/pool_proj <- inception_4c/pool
I0403 19:33:32.368482 25098 net.cpp:399] inception_4c/pool_proj -> inception_4c/pool_proj
I0403 19:33:32.369626 25098 net.cpp:141] Setting up inception_4c/pool_proj
I0403 19:33:32.369652 25098 net.cpp:148] Top shape: 24 64 14 14 (301056)
I0403 19:33:32.369680 25098 net.cpp:156] Memory required for data: 1061809440
I0403 19:33:32.369699 25098 layer_factory.hpp:77] Creating layer inception_4c/relu_pool_proj
I0403 19:33:32.369719 25098 net.cpp:91] Creating Layer inception_4c/relu_pool_proj
I0403 19:33:32.369735 25098 net.cpp:425] inception_4c/relu_pool_proj <- inception_4c/pool_proj
I0403 19:33:32.369751 25098 net.cpp:386] inception_4c/relu_pool_proj -> inception_4c/pool_proj (in-place)
I0403 19:33:32.369923 25098 net.cpp:141] Setting up inception_4c/relu_pool_proj
I0403 19:33:32.369948 25098 net.cpp:148] Top shape: 24 64 14 14 (301056)
I0403 19:33:32.369964 25098 net.cpp:156] Memory required for data: 1063013664
I0403 19:33:32.369977 25098 layer_factory.hpp:77] Creating layer inception_4c/output
I0403 19:33:32.369993 25098 net.cpp:91] Creating Layer inception_4c/output
I0403 19:33:32.370007 25098 net.cpp:425] inception_4c/output <- inception_4c/1x1
I0403 19:33:32.370023 25098 net.cpp:425] inception_4c/output <- inception_4c/3x3
I0403 19:33:32.370038 25098 net.cpp:425] inception_4c/output <- inception_4c/5x5
I0403 19:33:32.370051 25098 net.cpp:425] inception_4c/output <- inception_4c/pool_proj
I0403 19:33:32.370067 25098 net.cpp:399] inception_4c/output -> inception_4c/output
I0403 19:33:32.370111 25098 net.cpp:141] Setting up inception_4c/output
I0403 19:33:32.370133 25098 net.cpp:148] Top shape: 24 512 14 14 (2408448)
I0403 19:33:32.370147 25098 net.cpp:156] Memory required for data: 1072647456
I0403 19:33:32.370160 25098 layer_factory.hpp:77] Creating layer inception_4c/output_inception_4c/output_0_split
I0403 19:33:32.370177 25098 net.cpp:91] Creating Layer inception_4c/output_inception_4c/output_0_split
I0403 19:33:32.370190 25098 net.cpp:425] inception_4c/output_inception_4c/output_0_split <- inception_4c/output
I0403 19:33:32.370209 25098 net.cpp:399] inception_4c/output_inception_4c/output_0_split -> inception_4c/output_inception_4c/output_0_split_0
I0403 19:33:32.370229 25098 net.cpp:399] inception_4c/output_inception_4c/output_0_split -> inception_4c/output_inception_4c/output_0_split_1
I0403 19:33:32.370247 25098 net.cpp:399] inception_4c/output_inception_4c/output_0_split -> inception_4c/output_inception_4c/output_0_split_2
I0403 19:33:32.370273 25098 net.cpp:399] inception_4c/output_inception_4c/output_0_split -> inception_4c/output_inception_4c/output_0_split_3
I0403 19:33:32.370357 25098 net.cpp:141] Setting up inception_4c/output_inception_4c/output_0_split
I0403 19:33:32.370379 25098 net.cpp:148] Top shape: 24 512 14 14 (2408448)
I0403 19:33:32.370395 25098 net.cpp:148] Top shape: 24 512 14 14 (2408448)
I0403 19:33:32.370409 25098 net.cpp:148] Top shape: 24 512 14 14 (2408448)
I0403 19:33:32.370424 25098 net.cpp:148] Top shape: 24 512 14 14 (2408448)
I0403 19:33:32.370436 25098 net.cpp:156] Memory required for data: 1111182624
I0403 19:33:32.370450 25098 layer_factory.hpp:77] Creating layer inception_4d/1x1
I0403 19:33:32.370471 25098 net.cpp:91] Creating Layer inception_4d/1x1
I0403 19:33:32.370488 25098 net.cpp:425] inception_4d/1x1 <- inception_4c/output_inception_4c/output_0_split_0
I0403 19:33:32.370508 25098 net.cpp:399] inception_4d/1x1 -> inception_4d/1x1
I0403 19:33:32.371827 25098 net.cpp:141] Setting up inception_4d/1x1
I0403 19:33:32.371855 25098 net.cpp:148] Top shape: 24 112 14 14 (526848)
I0403 19:33:32.371882 25098 net.cpp:156] Memory required for data: 1113290016
I0403 19:33:32.371898 25098 layer_factory.hpp:77] Creating layer inception_4d/relu_1x1
I0403 19:33:32.371915 25098 net.cpp:91] Creating Layer inception_4d/relu_1x1
I0403 19:33:32.371932 25098 net.cpp:425] inception_4d/relu_1x1 <- inception_4d/1x1
I0403 19:33:32.371948 25098 net.cpp:386] inception_4d/relu_1x1 -> inception_4d/1x1 (in-place)
I0403 19:33:32.372119 25098 net.cpp:141] Setting up inception_4d/relu_1x1
I0403 19:33:32.372143 25098 net.cpp:148] Top shape: 24 112 14 14 (526848)
I0403 19:33:32.372159 25098 net.cpp:156] Memory required for data: 1115397408
I0403 19:33:32.372172 25098 layer_factory.hpp:77] Creating layer inception_4d/3x3_reduce
I0403 19:33:32.372207 25098 net.cpp:91] Creating Layer inception_4d/3x3_reduce
I0403 19:33:32.372225 25098 net.cpp:425] inception_4d/3x3_reduce <- inception_4c/output_inception_4c/output_0_split_1
I0403 19:33:32.372246 25098 net.cpp:399] inception_4d/3x3_reduce -> inception_4d/3x3_reduce
I0403 19:33:32.373669 25098 net.cpp:141] Setting up inception_4d/3x3_reduce
I0403 19:33:32.373698 25098 net.cpp:148] Top shape: 24 144 14 14 (677376)
I0403 19:33:32.373713 25098 net.cpp:156] Memory required for data: 1118106912
I0403 19:33:32.373731 25098 layer_factory.hpp:77] Creating layer inception_4d/relu_3x3_reduce
I0403 19:33:32.373749 25098 net.cpp:91] Creating Layer inception_4d/relu_3x3_reduce
I0403 19:33:32.373764 25098 net.cpp:425] inception_4d/relu_3x3_reduce <- inception_4d/3x3_reduce
I0403 19:33:32.373785 25098 net.cpp:386] inception_4d/relu_3x3_reduce -> inception_4d/3x3_reduce (in-place)
I0403 19:33:32.374055 25098 net.cpp:141] Setting up inception_4d/relu_3x3_reduce
I0403 19:33:32.374083 25098 net.cpp:148] Top shape: 24 144 14 14 (677376)
I0403 19:33:32.374099 25098 net.cpp:156] Memory required for data: 1120816416
I0403 19:33:32.374112 25098 layer_factory.hpp:77] Creating layer inception_4d/3x3
I0403 19:33:32.374133 25098 net.cpp:91] Creating Layer inception_4d/3x3
I0403 19:33:32.374150 25098 net.cpp:425] inception_4d/3x3 <- inception_4d/3x3_reduce
I0403 19:33:32.374169 25098 net.cpp:399] inception_4d/3x3 -> inception_4d/3x3
I0403 19:33:32.378247 25098 net.cpp:141] Setting up inception_4d/3x3
I0403 19:33:32.378279 25098 net.cpp:148] Top shape: 24 288 14 14 (1354752)
I0403 19:33:32.378296 25098 net.cpp:156] Memory required for data: 1126235424
I0403 19:33:32.378312 25098 layer_factory.hpp:77] Creating layer inception_4d/relu_3x3
I0403 19:33:32.378329 25098 net.cpp:91] Creating Layer inception_4d/relu_3x3
I0403 19:33:32.378345 25098 net.cpp:425] inception_4d/relu_3x3 <- inception_4d/3x3
I0403 19:33:32.378365 25098 net.cpp:386] inception_4d/relu_3x3 -> inception_4d/3x3 (in-place)
I0403 19:33:32.378535 25098 net.cpp:141] Setting up inception_4d/relu_3x3
I0403 19:33:32.378559 25098 net.cpp:148] Top shape: 24 288 14 14 (1354752)
I0403 19:33:32.378573 25098 net.cpp:156] Memory required for data: 1131654432
I0403 19:33:32.378587 25098 layer_factory.hpp:77] Creating layer inception_4d/5x5_reduce
I0403 19:33:32.378608 25098 net.cpp:91] Creating Layer inception_4d/5x5_reduce
I0403 19:33:32.378625 25098 net.cpp:425] inception_4d/5x5_reduce <- inception_4c/output_inception_4c/output_0_split_2
I0403 19:33:32.378646 25098 net.cpp:399] inception_4d/5x5_reduce -> inception_4d/5x5_reduce
I0403 19:33:32.379756 25098 net.cpp:141] Setting up inception_4d/5x5_reduce
I0403 19:33:32.379783 25098 net.cpp:148] Top shape: 24 32 14 14 (150528)
I0403 19:33:32.379798 25098 net.cpp:156] Memory required for data: 1132256544
I0403 19:33:32.379815 25098 layer_factory.hpp:77] Creating layer inception_4d/relu_5x5_reduce
I0403 19:33:32.379833 25098 net.cpp:91] Creating Layer inception_4d/relu_5x5_reduce
I0403 19:33:32.379849 25098 net.cpp:425] inception_4d/relu_5x5_reduce <- inception_4d/5x5_reduce
I0403 19:33:32.379879 25098 net.cpp:386] inception_4d/relu_5x5_reduce -> inception_4d/5x5_reduce (in-place)
I0403 19:33:32.380054 25098 net.cpp:141] Setting up inception_4d/relu_5x5_reduce
I0403 19:33:32.380077 25098 net.cpp:148] Top shape: 24 32 14 14 (150528)
I0403 19:33:32.380091 25098 net.cpp:156] Memory required for data: 1132858656
I0403 19:33:32.380106 25098 layer_factory.hpp:77] Creating layer inception_4d/5x5
I0403 19:33:32.380127 25098 net.cpp:91] Creating Layer inception_4d/5x5
I0403 19:33:32.380143 25098 net.cpp:425] inception_4d/5x5 <- inception_4d/5x5_reduce
I0403 19:33:32.380164 25098 net.cpp:399] inception_4d/5x5 -> inception_4d/5x5
I0403 19:33:32.381609 25098 net.cpp:141] Setting up inception_4d/5x5
I0403 19:33:32.381638 25098 net.cpp:148] Top shape: 24 64 14 14 (301056)
I0403 19:33:32.381654 25098 net.cpp:156] Memory required for data: 1134062880
I0403 19:33:32.381671 25098 layer_factory.hpp:77] Creating layer inception_4d/relu_5x5
I0403 19:33:32.381706 25098 net.cpp:91] Creating Layer inception_4d/relu_5x5
I0403 19:33:32.381724 25098 net.cpp:425] inception_4d/relu_5x5 <- inception_4d/5x5
I0403 19:33:32.381742 25098 net.cpp:386] inception_4d/relu_5x5 -> inception_4d/5x5 (in-place)
I0403 19:33:32.382040 25098 net.cpp:141] Setting up inception_4d/relu_5x5
I0403 19:33:32.382066 25098 net.cpp:148] Top shape: 24 64 14 14 (301056)
I0403 19:33:32.382081 25098 net.cpp:156] Memory required for data: 1135267104
I0403 19:33:32.382094 25098 layer_factory.hpp:77] Creating layer inception_4d/pool
I0403 19:33:32.382113 25098 net.cpp:91] Creating Layer inception_4d/pool
I0403 19:33:32.382129 25098 net.cpp:425] inception_4d/pool <- inception_4c/output_inception_4c/output_0_split_3
I0403 19:33:32.382148 25098 net.cpp:399] inception_4d/pool -> inception_4d/pool
I0403 19:33:32.382212 25098 net.cpp:141] Setting up inception_4d/pool
I0403 19:33:32.382236 25098 net.cpp:148] Top shape: 24 512 14 14 (2408448)
I0403 19:33:32.382251 25098 net.cpp:156] Memory required for data: 1144900896
I0403 19:33:32.382269 25098 layer_factory.hpp:77] Creating layer inception_4d/pool_proj
I0403 19:33:32.382292 25098 net.cpp:91] Creating Layer inception_4d/pool_proj
I0403 19:33:32.382309 25098 net.cpp:425] inception_4d/pool_proj <- inception_4d/pool
I0403 19:33:32.382330 25098 net.cpp:399] inception_4d/pool_proj -> inception_4d/pool_proj
I0403 19:33:32.384016 25098 net.cpp:141] Setting up inception_4d/pool_proj
I0403 19:33:32.384045 25098 net.cpp:148] Top shape: 24 64 14 14 (301056)
I0403 19:33:32.384060 25098 net.cpp:156] Memory required for data: 1146105120
I0403 19:33:32.384078 25098 layer_factory.hpp:77] Creating layer inception_4d/relu_pool_proj
I0403 19:33:32.384095 25098 net.cpp:91] Creating Layer inception_4d/relu_pool_proj
I0403 19:33:32.384111 25098 net.cpp:425] inception_4d/relu_pool_proj <- inception_4d/pool_proj
I0403 19:33:32.384130 25098 net.cpp:386] inception_4d/relu_pool_proj -> inception_4d/pool_proj (in-place)
I0403 19:33:32.384320 25098 net.cpp:141] Setting up inception_4d/relu_pool_proj
I0403 19:33:32.384346 25098 net.cpp:148] Top shape: 24 64 14 14 (301056)
I0403 19:33:32.384361 25098 net.cpp:156] Memory required for data: 1147309344
I0403 19:33:32.384374 25098 layer_factory.hpp:77] Creating layer inception_4d/output
I0403 19:33:32.384390 25098 net.cpp:91] Creating Layer inception_4d/output
I0403 19:33:32.384407 25098 net.cpp:425] inception_4d/output <- inception_4d/1x1
I0403 19:33:32.384425 25098 net.cpp:425] inception_4d/output <- inception_4d/3x3
I0403 19:33:32.384443 25098 net.cpp:425] inception_4d/output <- inception_4d/5x5
I0403 19:33:32.384457 25098 net.cpp:425] inception_4d/output <- inception_4d/pool_proj
I0403 19:33:32.384472 25098 net.cpp:399] inception_4d/output -> inception_4d/output
I0403 19:33:32.384519 25098 net.cpp:141] Setting up inception_4d/output
I0403 19:33:32.384543 25098 net.cpp:148] Top shape: 24 528 14 14 (2483712)
I0403 19:33:32.384557 25098 net.cpp:156] Memory required for data: 1157244192
I0403 19:33:32.384572 25098 layer_factory.hpp:77] Creating layer inception_4d/output_inception_4d/output_0_split
I0403 19:33:32.384588 25098 net.cpp:91] Creating Layer inception_4d/output_inception_4d/output_0_split
I0403 19:33:32.384603 25098 net.cpp:425] inception_4d/output_inception_4d/output_0_split <- inception_4d/output
I0403 19:33:32.384621 25098 net.cpp:399] inception_4d/output_inception_4d/output_0_split -> inception_4d/output_inception_4d/output_0_split_0
I0403 19:33:32.384641 25098 net.cpp:399] inception_4d/output_inception_4d/output_0_split -> inception_4d/output_inception_4d/output_0_split_1
I0403 19:33:32.384662 25098 net.cpp:399] inception_4d/output_inception_4d/output_0_split -> inception_4d/output_inception_4d/output_0_split_2
I0403 19:33:32.384681 25098 net.cpp:399] inception_4d/output_inception_4d/output_0_split -> inception_4d/output_inception_4d/output_0_split_3
I0403 19:33:32.384701 25098 net.cpp:399] inception_4d/output_inception_4d/output_0_split -> inception_4d/output_inception_4d/output_0_split_4
I0403 19:33:32.384800 25098 net.cpp:141] Setting up inception_4d/output_inception_4d/output_0_split
I0403 19:33:32.384835 25098 net.cpp:148] Top shape: 24 528 14 14 (2483712)
I0403 19:33:32.384851 25098 net.cpp:148] Top shape: 24 528 14 14 (2483712)
I0403 19:33:32.384866 25098 net.cpp:148] Top shape: 24 528 14 14 (2483712)
I0403 19:33:32.384881 25098 net.cpp:148] Top shape: 24 528 14 14 (2483712)
I0403 19:33:32.384896 25098 net.cpp:148] Top shape: 24 528 14 14 (2483712)
I0403 19:33:32.384908 25098 net.cpp:156] Memory required for data: 1206918432
I0403 19:33:32.384922 25098 layer_factory.hpp:77] Creating layer loss2/ave_pool
I0403 19:33:32.384938 25098 net.cpp:91] Creating Layer loss2/ave_pool
I0403 19:33:32.384954 25098 net.cpp:425] loss2/ave_pool <- inception_4d/output_inception_4d/output_0_split_0
I0403 19:33:32.384974 25098 net.cpp:399] loss2/ave_pool -> loss2/ave_pool
I0403 19:33:32.385280 25098 net.cpp:141] Setting up loss2/ave_pool
I0403 19:33:32.385305 25098 net.cpp:148] Top shape: 24 528 4 4 (202752)
I0403 19:33:32.385320 25098 net.cpp:156] Memory required for data: 1207729440
I0403 19:33:32.385334 25098 layer_factory.hpp:77] Creating layer loss2/conv
I0403 19:33:32.385355 25098 net.cpp:91] Creating Layer loss2/conv
I0403 19:33:32.385372 25098 net.cpp:425] loss2/conv <- loss2/ave_pool
I0403 19:33:32.385392 25098 net.cpp:399] loss2/conv -> loss2/conv
I0403 19:33:32.387205 25098 net.cpp:141] Setting up loss2/conv
I0403 19:33:32.387233 25098 net.cpp:148] Top shape: 24 128 4 4 (49152)
I0403 19:33:32.387248 25098 net.cpp:156] Memory required for data: 1207926048
I0403 19:33:32.387271 25098 layer_factory.hpp:77] Creating layer loss2/relu_conv
I0403 19:33:32.387293 25098 net.cpp:91] Creating Layer loss2/relu_conv
I0403 19:33:32.387310 25098 net.cpp:425] loss2/relu_conv <- loss2/conv
I0403 19:33:32.387328 25098 net.cpp:386] loss2/relu_conv -> loss2/conv (in-place)
I0403 19:33:32.387595 25098 net.cpp:141] Setting up loss2/relu_conv
I0403 19:33:32.387620 25098 net.cpp:148] Top shape: 24 128 4 4 (49152)
I0403 19:33:32.387635 25098 net.cpp:156] Memory required for data: 1208122656
I0403 19:33:32.387650 25098 layer_factory.hpp:77] Creating layer loss2/fc
I0403 19:33:32.387670 25098 net.cpp:91] Creating Layer loss2/fc
I0403 19:33:32.387686 25098 net.cpp:425] loss2/fc <- loss2/conv
I0403 19:33:32.387706 25098 net.cpp:399] loss2/fc -> loss2/fc
I0403 19:33:32.404631 25098 net.cpp:141] Setting up loss2/fc
I0403 19:33:32.404666 25098 net.cpp:148] Top shape: 24 1024 (24576)
I0403 19:33:32.404682 25098 net.cpp:156] Memory required for data: 1208220960
I0403 19:33:32.404700 25098 layer_factory.hpp:77] Creating layer loss2/relu_fc
I0403 19:33:32.404718 25098 net.cpp:91] Creating Layer loss2/relu_fc
I0403 19:33:32.404733 25098 net.cpp:425] loss2/relu_fc <- loss2/fc
I0403 19:33:32.404752 25098 net.cpp:386] loss2/relu_fc -> loss2/fc (in-place)
I0403 19:33:32.405032 25098 net.cpp:141] Setting up loss2/relu_fc
I0403 19:33:32.405057 25098 net.cpp:148] Top shape: 24 1024 (24576)
I0403 19:33:32.405072 25098 net.cpp:156] Memory required for data: 1208319264
I0403 19:33:32.405087 25098 layer_factory.hpp:77] Creating layer loss2/drop_fc
I0403 19:33:32.405104 25098 net.cpp:91] Creating Layer loss2/drop_fc
I0403 19:33:32.405119 25098 net.cpp:425] loss2/drop_fc <- loss2/fc
I0403 19:33:32.405138 25098 net.cpp:386] loss2/drop_fc -> loss2/fc (in-place)
I0403 19:33:32.405186 25098 net.cpp:141] Setting up loss2/drop_fc
I0403 19:33:32.405212 25098 net.cpp:148] Top shape: 24 1024 (24576)
I0403 19:33:32.405228 25098 net.cpp:156] Memory required for data: 1208417568
I0403 19:33:32.405241 25098 layer_factory.hpp:77] Creating layer loss2/classifier_plantvillage
I0403 19:33:32.405264 25098 net.cpp:91] Creating Layer loss2/classifier_plantvillage
I0403 19:33:32.405284 25098 net.cpp:425] loss2/classifier_plantvillage <- loss2/fc
I0403 19:33:32.405306 25098 net.cpp:399] loss2/classifier_plantvillage -> loss2/classifier_plantvillage
I0403 19:33:32.405733 25098 net.cpp:141] Setting up loss2/classifier_plantvillage
I0403 19:33:32.405758 25098 net.cpp:148] Top shape: 24 38 (912)
I0403 19:33:32.405789 25098 net.cpp:156] Memory required for data: 1208421216
I0403 19:33:32.405808 25098 layer_factory.hpp:77] Creating layer loss2/classifier_plantvillage_loss2/classifier_plantvillage_0_split
I0403 19:33:32.405828 25098 net.cpp:91] Creating Layer loss2/classifier_plantvillage_loss2/classifier_plantvillage_0_split
I0403 19:33:32.405845 25098 net.cpp:425] loss2/classifier_plantvillage_loss2/classifier_plantvillage_0_split <- loss2/classifier_plantvillage
I0403 19:33:32.405863 25098 net.cpp:399] loss2/classifier_plantvillage_loss2/classifier_plantvillage_0_split -> loss2/classifier_plantvillage_loss2/classifier_plantvillage_0_split_0
I0403 19:33:32.405884 25098 net.cpp:399] loss2/classifier_plantvillage_loss2/classifier_plantvillage_0_split -> loss2/classifier_plantvillage_loss2/classifier_plantvillage_0_split_1
I0403 19:33:32.405905 25098 net.cpp:399] loss2/classifier_plantvillage_loss2/classifier_plantvillage_0_split -> loss2/classifier_plantvillage_loss2/classifier_plantvillage_0_split_2
I0403 19:33:32.405978 25098 net.cpp:141] Setting up loss2/classifier_plantvillage_loss2/classifier_plantvillage_0_split
I0403 19:33:32.406002 25098 net.cpp:148] Top shape: 24 38 (912)
I0403 19:33:32.406018 25098 net.cpp:148] Top shape: 24 38 (912)
I0403 19:33:32.406034 25098 net.cpp:148] Top shape: 24 38 (912)
I0403 19:33:32.406049 25098 net.cpp:156] Memory required for data: 1208432160
I0403 19:33:32.406062 25098 layer_factory.hpp:77] Creating layer inception_4e/1x1
I0403 19:33:32.406085 25098 net.cpp:91] Creating Layer inception_4e/1x1
I0403 19:33:32.406102 25098 net.cpp:425] inception_4e/1x1 <- inception_4d/output_inception_4d/output_0_split_1
I0403 19:33:32.406121 25098 net.cpp:399] inception_4e/1x1 -> inception_4e/1x1
I0403 19:33:32.407878 25098 net.cpp:141] Setting up inception_4e/1x1
I0403 19:33:32.407907 25098 net.cpp:148] Top shape: 24 256 14 14 (1204224)
I0403 19:33:32.407927 25098 net.cpp:156] Memory required for data: 1213249056
I0403 19:33:32.407946 25098 layer_factory.hpp:77] Creating layer inception_4e/relu_1x1
I0403 19:33:32.407963 25098 net.cpp:91] Creating Layer inception_4e/relu_1x1
I0403 19:33:32.407979 25098 net.cpp:425] inception_4e/relu_1x1 <- inception_4e/1x1
I0403 19:33:32.407996 25098 net.cpp:386] inception_4e/relu_1x1 -> inception_4e/1x1 (in-place)
I0403 19:33:32.408289 25098 net.cpp:141] Setting up inception_4e/relu_1x1
I0403 19:33:32.408316 25098 net.cpp:148] Top shape: 24 256 14 14 (1204224)
I0403 19:33:32.408335 25098 net.cpp:156] Memory required for data: 1218065952
I0403 19:33:32.408349 25098 layer_factory.hpp:77] Creating layer inception_4e/3x3_reduce
I0403 19:33:32.408368 25098 net.cpp:91] Creating Layer inception_4e/3x3_reduce
I0403 19:33:32.408385 25098 net.cpp:425] inception_4e/3x3_reduce <- inception_4d/output_inception_4d/output_0_split_2
I0403 19:33:32.408406 25098 net.cpp:399] inception_4e/3x3_reduce -> inception_4e/3x3_reduce
I0403 19:33:32.410461 25098 net.cpp:141] Setting up inception_4e/3x3_reduce
I0403 19:33:32.410490 25098 net.cpp:148] Top shape: 24 160 14 14 (752640)
I0403 19:33:32.410506 25098 net.cpp:156] Memory required for data: 1221076512
I0403 19:33:32.410524 25098 layer_factory.hpp:77] Creating layer inception_4e/relu_3x3_reduce
I0403 19:33:32.410544 25098 net.cpp:91] Creating Layer inception_4e/relu_3x3_reduce
I0403 19:33:32.410562 25098 net.cpp:425] inception_4e/relu_3x3_reduce <- inception_4e/3x3_reduce
I0403 19:33:32.410593 25098 net.cpp:386] inception_4e/relu_3x3_reduce -> inception_4e/3x3_reduce (in-place)
I0403 19:33:32.410779 25098 net.cpp:141] Setting up inception_4e/relu_3x3_reduce
I0403 19:33:32.410807 25098 net.cpp:148] Top shape: 24 160 14 14 (752640)
I0403 19:33:32.410823 25098 net.cpp:156] Memory required for data: 1224087072
I0403 19:33:32.410836 25098 layer_factory.hpp:77] Creating layer inception_4e/3x3
I0403 19:33:32.410859 25098 net.cpp:91] Creating Layer inception_4e/3x3
I0403 19:33:32.410887 25098 net.cpp:425] inception_4e/3x3 <- inception_4e/3x3_reduce
I0403 19:33:32.410907 25098 net.cpp:399] inception_4e/3x3 -> inception_4e/3x3
I0403 19:33:32.415745 25098 net.cpp:141] Setting up inception_4e/3x3
I0403 19:33:32.415788 25098 net.cpp:148] Top shape: 24 320 14 14 (1505280)
I0403 19:33:32.415804 25098 net.cpp:156] Memory required for data: 1230108192
I0403 19:33:32.415822 25098 layer_factory.hpp:77] Creating layer inception_4e/relu_3x3
I0403 19:33:32.415839 25098 net.cpp:91] Creating Layer inception_4e/relu_3x3
I0403 19:33:32.415855 25098 net.cpp:425] inception_4e/relu_3x3 <- inception_4e/3x3
I0403 19:33:32.415871 25098 net.cpp:386] inception_4e/relu_3x3 -> inception_4e/3x3 (in-place)
I0403 19:33:32.416159 25098 net.cpp:141] Setting up inception_4e/relu_3x3
I0403 19:33:32.416184 25098 net.cpp:148] Top shape: 24 320 14 14 (1505280)
I0403 19:33:32.416199 25098 net.cpp:156] Memory required for data: 1236129312
I0403 19:33:32.416213 25098 layer_factory.hpp:77] Creating layer inception_4e/5x5_reduce
I0403 19:33:32.416234 25098 net.cpp:91] Creating Layer inception_4e/5x5_reduce
I0403 19:33:32.416251 25098 net.cpp:425] inception_4e/5x5_reduce <- inception_4d/output_inception_4d/output_0_split_3
I0403 19:33:32.416278 25098 net.cpp:399] inception_4e/5x5_reduce -> inception_4e/5x5_reduce
I0403 19:33:32.417294 25098 net.cpp:141] Setting up inception_4e/5x5_reduce
I0403 19:33:32.417320 25098 net.cpp:148] Top shape: 24 32 14 14 (150528)
I0403 19:33:32.417335 25098 net.cpp:156] Memory required for data: 1236731424
I0403 19:33:32.417351 25098 layer_factory.hpp:77] Creating layer inception_4e/relu_5x5_reduce
I0403 19:33:32.417371 25098 net.cpp:91] Creating Layer inception_4e/relu_5x5_reduce
I0403 19:33:32.417387 25098 net.cpp:425] inception_4e/relu_5x5_reduce <- inception_4e/5x5_reduce
I0403 19:33:32.417402 25098 net.cpp:386] inception_4e/relu_5x5_reduce -> inception_4e/5x5_reduce (in-place)
I0403 19:33:32.417682 25098 net.cpp:141] Setting up inception_4e/relu_5x5_reduce
I0403 19:33:32.417707 25098 net.cpp:148] Top shape: 24 32 14 14 (150528)
I0403 19:33:32.417722 25098 net.cpp:156] Memory required for data: 1237333536
I0403 19:33:32.417737 25098 layer_factory.hpp:77] Creating layer inception_4e/5x5
I0403 19:33:32.417774 25098 net.cpp:91] Creating Layer inception_4e/5x5
I0403 19:33:32.417793 25098 net.cpp:425] inception_4e/5x5 <- inception_4e/5x5_reduce
I0403 19:33:32.417811 25098 net.cpp:399] inception_4e/5x5 -> inception_4e/5x5
I0403 19:33:32.419571 25098 net.cpp:141] Setting up inception_4e/5x5
I0403 19:33:32.419597 25098 net.cpp:148] Top shape: 24 128 14 14 (602112)
I0403 19:33:32.419612 25098 net.cpp:156] Memory required for data: 1239741984
I0403 19:33:32.419631 25098 layer_factory.hpp:77] Creating layer inception_4e/relu_5x5
I0403 19:33:32.419649 25098 net.cpp:91] Creating Layer inception_4e/relu_5x5
I0403 19:33:32.419667 25098 net.cpp:425] inception_4e/relu_5x5 <- inception_4e/5x5
I0403 19:33:32.419682 25098 net.cpp:386] inception_4e/relu_5x5 -> inception_4e/5x5 (in-place)
I0403 19:33:32.419869 25098 net.cpp:141] Setting up inception_4e/relu_5x5
I0403 19:33:32.419894 25098 net.cpp:148] Top shape: 24 128 14 14 (602112)
I0403 19:33:32.419909 25098 net.cpp:156] Memory required for data: 1242150432
I0403 19:33:32.419921 25098 layer_factory.hpp:77] Creating layer inception_4e/pool
I0403 19:33:32.419940 25098 net.cpp:91] Creating Layer inception_4e/pool
I0403 19:33:32.419956 25098 net.cpp:425] inception_4e/pool <- inception_4d/output_inception_4d/output_0_split_4
I0403 19:33:32.419973 25098 net.cpp:399] inception_4e/pool -> inception_4e/pool
I0403 19:33:32.420042 25098 net.cpp:141] Setting up inception_4e/pool
I0403 19:33:32.420065 25098 net.cpp:148] Top shape: 24 528 14 14 (2483712)
I0403 19:33:32.420078 25098 net.cpp:156] Memory required for data: 1252085280
I0403 19:33:32.420092 25098 layer_factory.hpp:77] Creating layer inception_4e/pool_proj
I0403 19:33:32.420114 25098 net.cpp:91] Creating Layer inception_4e/pool_proj
I0403 19:33:32.420130 25098 net.cpp:425] inception_4e/pool_proj <- inception_4e/pool
I0403 19:33:32.420150 25098 net.cpp:399] inception_4e/pool_proj -> inception_4e/pool_proj
I0403 19:33:32.421574 25098 net.cpp:141] Setting up inception_4e/pool_proj
I0403 19:33:32.421612 25098 net.cpp:148] Top shape: 24 128 14 14 (602112)
I0403 19:33:32.421627 25098 net.cpp:156] Memory required for data: 1254493728
I0403 19:33:32.421644 25098 layer_factory.hpp:77] Creating layer inception_4e/relu_pool_proj
I0403 19:33:32.421661 25098 net.cpp:91] Creating Layer inception_4e/relu_pool_proj
I0403 19:33:32.421679 25098 net.cpp:425] inception_4e/relu_pool_proj <- inception_4e/pool_proj
I0403 19:33:32.421696 25098 net.cpp:386] inception_4e/relu_pool_proj -> inception_4e/pool_proj (in-place)
I0403 19:33:32.421969 25098 net.cpp:141] Setting up inception_4e/relu_pool_proj
I0403 19:33:32.421994 25098 net.cpp:148] Top shape: 24 128 14 14 (602112)
I0403 19:33:32.422008 25098 net.cpp:156] Memory required for data: 1256902176
I0403 19:33:32.422022 25098 layer_factory.hpp:77] Creating layer inception_4e/output
I0403 19:33:32.422039 25098 net.cpp:91] Creating Layer inception_4e/output
I0403 19:33:32.422054 25098 net.cpp:425] inception_4e/output <- inception_4e/1x1
I0403 19:33:32.422070 25098 net.cpp:425] inception_4e/output <- inception_4e/3x3
I0403 19:33:32.422083 25098 net.cpp:425] inception_4e/output <- inception_4e/5x5
I0403 19:33:32.422098 25098 net.cpp:425] inception_4e/output <- inception_4e/pool_proj
I0403 19:33:32.422116 25098 net.cpp:399] inception_4e/output -> inception_4e/output
I0403 19:33:32.422163 25098 net.cpp:141] Setting up inception_4e/output
I0403 19:33:32.422188 25098 net.cpp:148] Top shape: 24 832 14 14 (3913728)
I0403 19:33:32.422204 25098 net.cpp:156] Memory required for data: 1272557088
I0403 19:33:32.422216 25098 layer_factory.hpp:77] Creating layer pool4/3x3_s2
I0403 19:33:32.422232 25098 net.cpp:91] Creating Layer pool4/3x3_s2
I0403 19:33:32.422247 25098 net.cpp:425] pool4/3x3_s2 <- inception_4e/output
I0403 19:33:32.422274 25098 net.cpp:399] pool4/3x3_s2 -> pool4/3x3_s2
I0403 19:33:32.422339 25098 net.cpp:141] Setting up pool4/3x3_s2
I0403 19:33:32.422361 25098 net.cpp:148] Top shape: 24 832 7 7 (978432)
I0403 19:33:32.422375 25098 net.cpp:156] Memory required for data: 1276470816
I0403 19:33:32.422389 25098 layer_factory.hpp:77] Creating layer pool4/3x3_s2_pool4/3x3_s2_0_split
I0403 19:33:32.422407 25098 net.cpp:91] Creating Layer pool4/3x3_s2_pool4/3x3_s2_0_split
I0403 19:33:32.422422 25098 net.cpp:425] pool4/3x3_s2_pool4/3x3_s2_0_split <- pool4/3x3_s2
I0403 19:33:32.422438 25098 net.cpp:399] pool4/3x3_s2_pool4/3x3_s2_0_split -> pool4/3x3_s2_pool4/3x3_s2_0_split_0
I0403 19:33:32.422457 25098 net.cpp:399] pool4/3x3_s2_pool4/3x3_s2_0_split -> pool4/3x3_s2_pool4/3x3_s2_0_split_1
I0403 19:33:32.422477 25098 net.cpp:399] pool4/3x3_s2_pool4/3x3_s2_0_split -> pool4/3x3_s2_pool4/3x3_s2_0_split_2
I0403 19:33:32.422494 25098 net.cpp:399] pool4/3x3_s2_pool4/3x3_s2_0_split -> pool4/3x3_s2_pool4/3x3_s2_0_split_3
I0403 19:33:32.422595 25098 net.cpp:141] Setting up pool4/3x3_s2_pool4/3x3_s2_0_split
I0403 19:33:32.422618 25098 net.cpp:148] Top shape: 24 832 7 7 (978432)
I0403 19:33:32.422633 25098 net.cpp:148] Top shape: 24 832 7 7 (978432)
I0403 19:33:32.422648 25098 net.cpp:148] Top shape: 24 832 7 7 (978432)
I0403 19:33:32.422663 25098 net.cpp:148] Top shape: 24 832 7 7 (978432)
I0403 19:33:32.422677 25098 net.cpp:156] Memory required for data: 1292125728
I0403 19:33:32.422689 25098 layer_factory.hpp:77] Creating layer inception_5a/1x1
I0403 19:33:32.422710 25098 net.cpp:91] Creating Layer inception_5a/1x1
I0403 19:33:32.422727 25098 net.cpp:425] inception_5a/1x1 <- pool4/3x3_s2_pool4/3x3_s2_0_split_0
I0403 19:33:32.422747 25098 net.cpp:399] inception_5a/1x1 -> inception_5a/1x1
I0403 19:33:32.425469 25098 net.cpp:141] Setting up inception_5a/1x1
I0403 19:33:32.425498 25098 net.cpp:148] Top shape: 24 256 7 7 (301056)
I0403 19:33:32.425513 25098 net.cpp:156] Memory required for data: 1293329952
I0403 19:33:32.425530 25098 layer_factory.hpp:77] Creating layer inception_5a/relu_1x1
I0403 19:33:32.425549 25098 net.cpp:91] Creating Layer inception_5a/relu_1x1
I0403 19:33:32.425565 25098 net.cpp:425] inception_5a/relu_1x1 <- inception_5a/1x1
I0403 19:33:32.425582 25098 net.cpp:386] inception_5a/relu_1x1 -> inception_5a/1x1 (in-place)
I0403 19:33:32.425882 25098 net.cpp:141] Setting up inception_5a/relu_1x1
I0403 19:33:32.425907 25098 net.cpp:148] Top shape: 24 256 7 7 (301056)
I0403 19:33:32.425921 25098 net.cpp:156] Memory required for data: 1294534176
I0403 19:33:32.425935 25098 layer_factory.hpp:77] Creating layer inception_5a/3x3_reduce
I0403 19:33:32.425956 25098 net.cpp:91] Creating Layer inception_5a/3x3_reduce
I0403 19:33:32.425973 25098 net.cpp:425] inception_5a/3x3_reduce <- pool4/3x3_s2_pool4/3x3_s2_0_split_1
I0403 19:33:32.425993 25098 net.cpp:399] inception_5a/3x3_reduce -> inception_5a/3x3_reduce
I0403 19:33:32.428346 25098 net.cpp:141] Setting up inception_5a/3x3_reduce
I0403 19:33:32.428376 25098 net.cpp:148] Top shape: 24 160 7 7 (188160)
I0403 19:33:32.428392 25098 net.cpp:156] Memory required for data: 1295286816
I0403 19:33:32.428411 25098 layer_factory.hpp:77] Creating layer inception_5a/relu_3x3_reduce
I0403 19:33:32.428426 25098 net.cpp:91] Creating Layer inception_5a/relu_3x3_reduce
I0403 19:33:32.428442 25098 net.cpp:425] inception_5a/relu_3x3_reduce <- inception_5a/3x3_reduce
I0403 19:33:32.428460 25098 net.cpp:386] inception_5a/relu_3x3_reduce -> inception_5a/3x3_reduce (in-place)
I0403 19:33:32.428635 25098 net.cpp:141] Setting up inception_5a/relu_3x3_reduce
I0403 19:33:32.428659 25098 net.cpp:148] Top shape: 24 160 7 7 (188160)
I0403 19:33:32.428673 25098 net.cpp:156] Memory required for data: 1296039456
I0403 19:33:32.428686 25098 layer_factory.hpp:77] Creating layer inception_5a/3x3
I0403 19:33:32.428706 25098 net.cpp:91] Creating Layer inception_5a/3x3
I0403 19:33:32.428724 25098 net.cpp:425] inception_5a/3x3 <- inception_5a/3x3_reduce
I0403 19:33:32.428743 25098 net.cpp:399] inception_5a/3x3 -> inception_5a/3x3
I0403 19:33:32.433629 25098 net.cpp:141] Setting up inception_5a/3x3
I0403 19:33:32.433657 25098 net.cpp:148] Top shape: 24 320 7 7 (376320)
I0403 19:33:32.433673 25098 net.cpp:156] Memory required for data: 1297544736
I0403 19:33:32.433691 25098 layer_factory.hpp:77] Creating layer inception_5a/relu_3x3
I0403 19:33:32.433712 25098 net.cpp:91] Creating Layer inception_5a/relu_3x3
I0403 19:33:32.433728 25098 net.cpp:425] inception_5a/relu_3x3 <- inception_5a/3x3
I0403 19:33:32.433744 25098 net.cpp:386] inception_5a/relu_3x3 -> inception_5a/3x3 (in-place)
I0403 19:33:32.434021 25098 net.cpp:141] Setting up inception_5a/relu_3x3
I0403 19:33:32.434047 25098 net.cpp:148] Top shape: 24 320 7 7 (376320)
I0403 19:33:32.434062 25098 net.cpp:156] Memory required for data: 1299050016
I0403 19:33:32.434077 25098 layer_factory.hpp:77] Creating layer inception_5a/5x5_reduce
I0403 19:33:32.434098 25098 net.cpp:91] Creating Layer inception_5a/5x5_reduce
I0403 19:33:32.434114 25098 net.cpp:425] inception_5a/5x5_reduce <- pool4/3x3_s2_pool4/3x3_s2_0_split_2
I0403 19:33:32.434135 25098 net.cpp:399] inception_5a/5x5_reduce -> inception_5a/5x5_reduce
I0403 19:33:32.435268 25098 net.cpp:141] Setting up inception_5a/5x5_reduce
I0403 19:33:32.435297 25098 net.cpp:148] Top shape: 24 32 7 7 (37632)
I0403 19:33:32.435313 25098 net.cpp:156] Memory required for data: 1299200544
I0403 19:33:32.435330 25098 layer_factory.hpp:77] Creating layer inception_5a/relu_5x5_reduce
I0403 19:33:32.435350 25098 net.cpp:91] Creating Layer inception_5a/relu_5x5_reduce
I0403 19:33:32.435367 25098 net.cpp:425] inception_5a/relu_5x5_reduce <- inception_5a/5x5_reduce
I0403 19:33:32.435384 25098 net.cpp:386] inception_5a/relu_5x5_reduce -> inception_5a/5x5_reduce (in-place)
I0403 19:33:32.435667 25098 net.cpp:141] Setting up inception_5a/relu_5x5_reduce
I0403 19:33:32.435693 25098 net.cpp:148] Top shape: 24 32 7 7 (37632)
I0403 19:33:32.435708 25098 net.cpp:156] Memory required for data: 1299351072
I0403 19:33:32.435722 25098 layer_factory.hpp:77] Creating layer inception_5a/5x5
I0403 19:33:32.435744 25098 net.cpp:91] Creating Layer inception_5a/5x5
I0403 19:33:32.435763 25098 net.cpp:425] inception_5a/5x5 <- inception_5a/5x5_reduce
I0403 19:33:32.435781 25098 net.cpp:399] inception_5a/5x5 -> inception_5a/5x5
I0403 19:33:32.437424 25098 net.cpp:141] Setting up inception_5a/5x5
I0403 19:33:32.437463 25098 net.cpp:148] Top shape: 24 128 7 7 (150528)
I0403 19:33:32.437477 25098 net.cpp:156] Memory required for data: 1299953184
I0403 19:33:32.437494 25098 layer_factory.hpp:77] Creating layer inception_5a/relu_5x5
I0403 19:33:32.437515 25098 net.cpp:91] Creating Layer inception_5a/relu_5x5
I0403 19:33:32.437530 25098 net.cpp:425] inception_5a/relu_5x5 <- inception_5a/5x5
I0403 19:33:32.437547 25098 net.cpp:386] inception_5a/relu_5x5 -> inception_5a/5x5 (in-place)
I0403 19:33:32.437727 25098 net.cpp:141] Setting up inception_5a/relu_5x5
I0403 19:33:32.437752 25098 net.cpp:148] Top shape: 24 128 7 7 (150528)
I0403 19:33:32.437767 25098 net.cpp:156] Memory required for data: 1300555296
I0403 19:33:32.437780 25098 layer_factory.hpp:77] Creating layer inception_5a/pool
I0403 19:33:32.437799 25098 net.cpp:91] Creating Layer inception_5a/pool
I0403 19:33:32.437816 25098 net.cpp:425] inception_5a/pool <- pool4/3x3_s2_pool4/3x3_s2_0_split_3
I0403 19:33:32.437834 25098 net.cpp:399] inception_5a/pool -> inception_5a/pool
I0403 19:33:32.437902 25098 net.cpp:141] Setting up inception_5a/pool
I0403 19:33:32.437925 25098 net.cpp:148] Top shape: 24 832 7 7 (978432)
I0403 19:33:32.437939 25098 net.cpp:156] Memory required for data: 1304469024
I0403 19:33:32.437953 25098 layer_factory.hpp:77] Creating layer inception_5a/pool_proj
I0403 19:33:32.437975 25098 net.cpp:91] Creating Layer inception_5a/pool_proj
I0403 19:33:32.437993 25098 net.cpp:425] inception_5a/pool_proj <- inception_5a/pool
I0403 19:33:32.438012 25098 net.cpp:399] inception_5a/pool_proj -> inception_5a/pool_proj
I0403 19:33:32.440242 25098 net.cpp:141] Setting up inception_5a/pool_proj
I0403 19:33:32.440274 25098 net.cpp:148] Top shape: 24 128 7 7 (150528)
I0403 19:33:32.440290 25098 net.cpp:156] Memory required for data: 1305071136
I0403 19:33:32.440307 25098 layer_factory.hpp:77] Creating layer inception_5a/relu_pool_proj
I0403 19:33:32.440325 25098 net.cpp:91] Creating Layer inception_5a/relu_pool_proj
I0403 19:33:32.440340 25098 net.cpp:425] inception_5a/relu_pool_proj <- inception_5a/pool_proj
I0403 19:33:32.440358 25098 net.cpp:386] inception_5a/relu_pool_proj -> inception_5a/pool_proj (in-place)
I0403 19:33:32.440642 25098 net.cpp:141] Setting up inception_5a/relu_pool_proj
I0403 19:33:32.440668 25098 net.cpp:148] Top shape: 24 128 7 7 (150528)
I0403 19:33:32.440683 25098 net.cpp:156] Memory required for data: 1305673248
I0403 19:33:32.440697 25098 layer_factory.hpp:77] Creating layer inception_5a/output
I0403 19:33:32.440713 25098 net.cpp:91] Creating Layer inception_5a/output
I0403 19:33:32.440728 25098 net.cpp:425] inception_5a/output <- inception_5a/1x1
I0403 19:33:32.440743 25098 net.cpp:425] inception_5a/output <- inception_5a/3x3
I0403 19:33:32.440759 25098 net.cpp:425] inception_5a/output <- inception_5a/5x5
I0403 19:33:32.440774 25098 net.cpp:425] inception_5a/output <- inception_5a/pool_proj
I0403 19:33:32.440793 25098 net.cpp:399] inception_5a/output -> inception_5a/output
I0403 19:33:32.440841 25098 net.cpp:141] Setting up inception_5a/output
I0403 19:33:32.440867 25098 net.cpp:148] Top shape: 24 832 7 7 (978432)
I0403 19:33:32.440882 25098 net.cpp:156] Memory required for data: 1309586976
I0403 19:33:32.440896 25098 layer_factory.hpp:77] Creating layer inception_5a/output_inception_5a/output_0_split
I0403 19:33:32.440912 25098 net.cpp:91] Creating Layer inception_5a/output_inception_5a/output_0_split
I0403 19:33:32.440927 25098 net.cpp:425] inception_5a/output_inception_5a/output_0_split <- inception_5a/output
I0403 19:33:32.440944 25098 net.cpp:399] inception_5a/output_inception_5a/output_0_split -> inception_5a/output_inception_5a/output_0_split_0
I0403 19:33:32.440963 25098 net.cpp:399] inception_5a/output_inception_5a/output_0_split -> inception_5a/output_inception_5a/output_0_split_1
I0403 19:33:32.440984 25098 net.cpp:399] inception_5a/output_inception_5a/output_0_split -> inception_5a/output_inception_5a/output_0_split_2
I0403 19:33:32.441005 25098 net.cpp:399] inception_5a/output_inception_5a/output_0_split -> inception_5a/output_inception_5a/output_0_split_3
I0403 19:33:32.441113 25098 net.cpp:141] Setting up inception_5a/output_inception_5a/output_0_split
I0403 19:33:32.441138 25098 net.cpp:148] Top shape: 24 832 7 7 (978432)
I0403 19:33:32.441153 25098 net.cpp:148] Top shape: 24 832 7 7 (978432)
I0403 19:33:32.441166 25098 net.cpp:148] Top shape: 24 832 7 7 (978432)
I0403 19:33:32.441181 25098 net.cpp:148] Top shape: 24 832 7 7 (978432)
I0403 19:33:32.441193 25098 net.cpp:156] Memory required for data: 1325241888
I0403 19:33:32.441206 25098 layer_factory.hpp:77] Creating layer inception_5b/1x1
I0403 19:33:32.441227 25098 net.cpp:91] Creating Layer inception_5b/1x1
I0403 19:33:32.441244 25098 net.cpp:425] inception_5b/1x1 <- inception_5a/output_inception_5a/output_0_split_0
I0403 19:33:32.441272 25098 net.cpp:399] inception_5b/1x1 -> inception_5b/1x1
I0403 19:33:32.444869 25098 net.cpp:141] Setting up inception_5b/1x1
I0403 19:33:32.444901 25098 net.cpp:148] Top shape: 24 384 7 7 (451584)
I0403 19:33:32.444918 25098 net.cpp:156] Memory required for data: 1327048224
I0403 19:33:32.444936 25098 layer_factory.hpp:77] Creating layer inception_5b/relu_1x1
I0403 19:33:32.444952 25098 net.cpp:91] Creating Layer inception_5b/relu_1x1
I0403 19:33:32.444968 25098 net.cpp:425] inception_5b/relu_1x1 <- inception_5b/1x1
I0403 19:33:32.444986 25098 net.cpp:386] inception_5b/relu_1x1 -> inception_5b/1x1 (in-place)
I0403 19:33:32.445279 25098 net.cpp:141] Setting up inception_5b/relu_1x1
I0403 19:33:32.445307 25098 net.cpp:148] Top shape: 24 384 7 7 (451584)
I0403 19:33:32.445322 25098 net.cpp:156] Memory required for data: 1328854560
I0403 19:33:32.445336 25098 layer_factory.hpp:77] Creating layer inception_5b/3x3_reduce
I0403 19:33:32.445358 25098 net.cpp:91] Creating Layer inception_5b/3x3_reduce
I0403 19:33:32.445375 25098 net.cpp:425] inception_5b/3x3_reduce <- inception_5a/output_inception_5a/output_0_split_1
I0403 19:33:32.445392 25098 net.cpp:399] inception_5b/3x3_reduce -> inception_5b/3x3_reduce
I0403 19:33:32.447948 25098 net.cpp:141] Setting up inception_5b/3x3_reduce
I0403 19:33:32.447978 25098 net.cpp:148] Top shape: 24 192 7 7 (225792)
I0403 19:33:32.447993 25098 net.cpp:156] Memory required for data: 1329757728
I0403 19:33:32.448010 25098 layer_factory.hpp:77] Creating layer inception_5b/relu_3x3_reduce
I0403 19:33:32.448027 25098 net.cpp:91] Creating Layer inception_5b/relu_3x3_reduce
I0403 19:33:32.448042 25098 net.cpp:425] inception_5b/relu_3x3_reduce <- inception_5b/3x3_reduce
I0403 19:33:32.448061 25098 net.cpp:386] inception_5b/relu_3x3_reduce -> inception_5b/3x3_reduce (in-place)
I0403 19:33:32.448241 25098 net.cpp:141] Setting up inception_5b/relu_3x3_reduce
I0403 19:33:32.448271 25098 net.cpp:148] Top shape: 24 192 7 7 (225792)
I0403 19:33:32.448287 25098 net.cpp:156] Memory required for data: 1330660896
I0403 19:33:32.448302 25098 layer_factory.hpp:77] Creating layer inception_5b/3x3
I0403 19:33:32.448323 25098 net.cpp:91] Creating Layer inception_5b/3x3
I0403 19:33:32.448339 25098 net.cpp:425] inception_5b/3x3 <- inception_5b/3x3_reduce
I0403 19:33:32.448359 25098 net.cpp:399] inception_5b/3x3 -> inception_5b/3x3
I0403 19:33:32.454813 25098 net.cpp:141] Setting up inception_5b/3x3
I0403 19:33:32.454841 25098 net.cpp:148] Top shape: 24 384 7 7 (451584)
I0403 19:33:32.454856 25098 net.cpp:156] Memory required for data: 1332467232
I0403 19:33:32.454875 25098 layer_factory.hpp:77] Creating layer inception_5b/relu_3x3
I0403 19:33:32.454893 25098 net.cpp:91] Creating Layer inception_5b/relu_3x3
I0403 19:33:32.454910 25098 net.cpp:425] inception_5b/relu_3x3 <- inception_5b/3x3
I0403 19:33:32.454928 25098 net.cpp:386] inception_5b/relu_3x3 -> inception_5b/3x3 (in-place)
I0403 19:33:32.455214 25098 net.cpp:141] Setting up inception_5b/relu_3x3
I0403 19:33:32.455240 25098 net.cpp:148] Top shape: 24 384 7 7 (451584)
I0403 19:33:32.455260 25098 net.cpp:156] Memory required for data: 1334273568
I0403 19:33:32.455277 25098 layer_factory.hpp:77] Creating layer inception_5b/5x5_reduce
I0403 19:33:32.455317 25098 net.cpp:91] Creating Layer inception_5b/5x5_reduce
I0403 19:33:32.455353 25098 net.cpp:425] inception_5b/5x5_reduce <- inception_5a/output_inception_5a/output_0_split_2
I0403 19:33:32.455375 25098 net.cpp:399] inception_5b/5x5_reduce -> inception_5b/5x5_reduce
I0403 19:33:32.456627 25098 net.cpp:141] Setting up inception_5b/5x5_reduce
I0403 19:33:32.456655 25098 net.cpp:148] Top shape: 24 48 7 7 (56448)
I0403 19:33:32.456672 25098 net.cpp:156] Memory required for data: 1334499360
I0403 19:33:32.456691 25098 layer_factory.hpp:77] Creating layer inception_5b/relu_5x5_reduce
I0403 19:33:32.456710 25098 net.cpp:91] Creating Layer inception_5b/relu_5x5_reduce
I0403 19:33:32.456729 25098 net.cpp:425] inception_5b/relu_5x5_reduce <- inception_5b/5x5_reduce
I0403 19:33:32.456748 25098 net.cpp:386] inception_5b/relu_5x5_reduce -> inception_5b/5x5_reduce (in-place)
I0403 19:33:32.457123 25098 net.cpp:141] Setting up inception_5b/relu_5x5_reduce
I0403 19:33:32.457150 25098 net.cpp:148] Top shape: 24 48 7 7 (56448)
I0403 19:33:32.457165 25098 net.cpp:156] Memory required for data: 1334725152
I0403 19:33:32.457180 25098 layer_factory.hpp:77] Creating layer inception_5b/5x5
I0403 19:33:32.457198 25098 net.cpp:91] Creating Layer inception_5b/5x5
I0403 19:33:32.457216 25098 net.cpp:425] inception_5b/5x5 <- inception_5b/5x5_reduce
I0403 19:33:32.457236 25098 net.cpp:399] inception_5b/5x5 -> inception_5b/5x5
I0403 19:33:32.459182 25098 net.cpp:141] Setting up inception_5b/5x5
I0403 19:33:32.459210 25098 net.cpp:148] Top shape: 24 128 7 7 (150528)
I0403 19:33:32.459226 25098 net.cpp:156] Memory required for data: 1335327264
I0403 19:33:32.459244 25098 layer_factory.hpp:77] Creating layer inception_5b/relu_5x5
I0403 19:33:32.459270 25098 net.cpp:91] Creating Layer inception_5b/relu_5x5
I0403 19:33:32.459290 25098 net.cpp:425] inception_5b/relu_5x5 <- inception_5b/5x5
I0403 19:33:32.459307 25098 net.cpp:386] inception_5b/relu_5x5 -> inception_5b/5x5 (in-place)
I0403 19:33:32.459491 25098 net.cpp:141] Setting up inception_5b/relu_5x5
I0403 19:33:32.459519 25098 net.cpp:148] Top shape: 24 128 7 7 (150528)
I0403 19:33:32.459534 25098 net.cpp:156] Memory required for data: 1335929376
I0403 19:33:32.459549 25098 layer_factory.hpp:77] Creating layer inception_5b/pool
I0403 19:33:32.459568 25098 net.cpp:91] Creating Layer inception_5b/pool
I0403 19:33:32.459583 25098 net.cpp:425] inception_5b/pool <- inception_5a/output_inception_5a/output_0_split_3
I0403 19:33:32.459600 25098 net.cpp:399] inception_5b/pool -> inception_5b/pool
I0403 19:33:32.459671 25098 net.cpp:141] Setting up inception_5b/pool
I0403 19:33:32.459694 25098 net.cpp:148] Top shape: 24 832 7 7 (978432)
I0403 19:33:32.459709 25098 net.cpp:156] Memory required for data: 1339843104
I0403 19:33:32.459723 25098 layer_factory.hpp:77] Creating layer inception_5b/pool_proj
I0403 19:33:32.459743 25098 net.cpp:91] Creating Layer inception_5b/pool_proj
I0403 19:33:32.459763 25098 net.cpp:425] inception_5b/pool_proj <- inception_5b/pool
I0403 19:33:32.459782 25098 net.cpp:399] inception_5b/pool_proj -> inception_5b/pool_proj
I0403 19:33:32.462029 25098 net.cpp:141] Setting up inception_5b/pool_proj
I0403 19:33:32.462059 25098 net.cpp:148] Top shape: 24 128 7 7 (150528)
I0403 19:33:32.462075 25098 net.cpp:156] Memory required for data: 1340445216
I0403 19:33:32.462095 25098 layer_factory.hpp:77] Creating layer inception_5b/relu_pool_proj
I0403 19:33:32.462116 25098 net.cpp:91] Creating Layer inception_5b/relu_pool_proj
I0403 19:33:32.462132 25098 net.cpp:425] inception_5b/relu_pool_proj <- inception_5b/pool_proj
I0403 19:33:32.462149 25098 net.cpp:386] inception_5b/relu_pool_proj -> inception_5b/pool_proj (in-place)
I0403 19:33:32.462440 25098 net.cpp:141] Setting up inception_5b/relu_pool_proj
I0403 19:33:32.462467 25098 net.cpp:148] Top shape: 24 128 7 7 (150528)
I0403 19:33:32.462483 25098 net.cpp:156] Memory required for data: 1341047328
I0403 19:33:32.462499 25098 layer_factory.hpp:77] Creating layer inception_5b/output
I0403 19:33:32.462515 25098 net.cpp:91] Creating Layer inception_5b/output
I0403 19:33:32.462545 25098 net.cpp:425] inception_5b/output <- inception_5b/1x1
I0403 19:33:32.462563 25098 net.cpp:425] inception_5b/output <- inception_5b/3x3
I0403 19:33:32.462580 25098 net.cpp:425] inception_5b/output <- inception_5b/5x5
I0403 19:33:32.462597 25098 net.cpp:425] inception_5b/output <- inception_5b/pool_proj
I0403 19:33:32.462616 25098 net.cpp:399] inception_5b/output -> inception_5b/output
I0403 19:33:32.462666 25098 net.cpp:141] Setting up inception_5b/output
I0403 19:33:32.462692 25098 net.cpp:148] Top shape: 24 1024 7 7 (1204224)
I0403 19:33:32.462708 25098 net.cpp:156] Memory required for data: 1345864224
I0403 19:33:32.462723 25098 layer_factory.hpp:77] Creating layer pool5/7x7_s1
I0403 19:33:32.462739 25098 net.cpp:91] Creating Layer pool5/7x7_s1
I0403 19:33:32.462755 25098 net.cpp:425] pool5/7x7_s1 <- inception_5b/output
I0403 19:33:32.462775 25098 net.cpp:399] pool5/7x7_s1 -> pool5/7x7_s1
I0403 19:33:32.462985 25098 net.cpp:141] Setting up pool5/7x7_s1
I0403 19:33:32.463011 25098 net.cpp:148] Top shape: 24 1024 1 1 (24576)
I0403 19:33:32.463026 25098 net.cpp:156] Memory required for data: 1345962528
I0403 19:33:32.463040 25098 layer_factory.hpp:77] Creating layer pool5/drop_7x7_s1
I0403 19:33:32.463060 25098 net.cpp:91] Creating Layer pool5/drop_7x7_s1
I0403 19:33:32.463078 25098 net.cpp:425] pool5/drop_7x7_s1 <- pool5/7x7_s1
I0403 19:33:32.463095 25098 net.cpp:386] pool5/drop_7x7_s1 -> pool5/7x7_s1 (in-place)
I0403 19:33:32.463142 25098 net.cpp:141] Setting up pool5/drop_7x7_s1
I0403 19:33:32.463170 25098 net.cpp:148] Top shape: 24 1024 1 1 (24576)
I0403 19:33:32.463186 25098 net.cpp:156] Memory required for data: 1346060832
I0403 19:33:32.463201 25098 layer_factory.hpp:77] Creating layer loss3/classifier_plantvillage
I0403 19:33:32.463219 25098 net.cpp:91] Creating Layer loss3/classifier_plantvillage
I0403 19:33:32.463235 25098 net.cpp:425] loss3/classifier_plantvillage <- pool5/7x7_s1
I0403 19:33:32.463260 25098 net.cpp:399] loss3/classifier_plantvillage -> loss3/classifier_plantvillage
I0403 19:33:32.463672 25098 net.cpp:141] Setting up loss3/classifier_plantvillage
I0403 19:33:32.463697 25098 net.cpp:148] Top shape: 24 38 (912)
I0403 19:33:32.463712 25098 net.cpp:156] Memory required for data: 1346064480
I0403 19:33:32.463729 25098 layer_factory.hpp:77] Creating layer loss3/classifier_plantvillage_loss3/classifier_plantvillage_0_split
I0403 19:33:32.463747 25098 net.cpp:91] Creating Layer loss3/classifier_plantvillage_loss3/classifier_plantvillage_0_split
I0403 19:33:32.463763 25098 net.cpp:425] loss3/classifier_plantvillage_loss3/classifier_plantvillage_0_split <- loss3/classifier_plantvillage
I0403 19:33:32.463780 25098 net.cpp:399] loss3/classifier_plantvillage_loss3/classifier_plantvillage_0_split -> loss3/classifier_plantvillage_loss3/classifier_plantvillage_0_split_0
I0403 19:33:32.463804 25098 net.cpp:399] loss3/classifier_plantvillage_loss3/classifier_plantvillage_0_split -> loss3/classifier_plantvillage_loss3/classifier_plantvillage_0_split_1
I0403 19:33:32.463826 25098 net.cpp:399] loss3/classifier_plantvillage_loss3/classifier_plantvillage_0_split -> loss3/classifier_plantvillage_loss3/classifier_plantvillage_0_split_2
I0403 19:33:32.463845 25098 net.cpp:399] loss3/classifier_plantvillage_loss3/classifier_plantvillage_0_split -> loss3/classifier_plantvillage_loss3/classifier_plantvillage_0_split_3
I0403 19:33:32.463946 25098 net.cpp:141] Setting up loss3/classifier_plantvillage_loss3/classifier_plantvillage_0_split
I0403 19:33:32.463970 25098 net.cpp:148] Top shape: 24 38 (912)
I0403 19:33:32.463986 25098 net.cpp:148] Top shape: 24 38 (912)
I0403 19:33:32.464001 25098 net.cpp:148] Top shape: 24 38 (912)
I0403 19:33:32.464016 25098 net.cpp:148] Top shape: 24 38 (912)
I0403 19:33:32.464030 25098 net.cpp:156] Memory required for data: 1346079072
I0403 19:33:32.464045 25098 layer_factory.hpp:77] Creating layer loss1/loss
I0403 19:33:32.464069 25098 net.cpp:91] Creating Layer loss1/loss
I0403 19:33:32.464087 25098 net.cpp:425] loss1/loss <- loss1/classifier_plantvillage_loss1/classifier_plantvillage_0_split_0
I0403 19:33:32.464118 25098 net.cpp:425] loss1/loss <- label_data_1_split_0
…
