…
I0403 19:47:15.234592 25897 net.cpp:313] The NetState phase (1) differed from the phase (0) specified by a rule in layer data
I0403 19:47:15.235821 25897 net.cpp:49] Initializing net from parameters: 
state {
  phase: TEST
}
layer {
  name: "data"
  type: "Data"
  top: "data"
  top: "label"
  include {
    phase: TEST
  }
  transform_param {
    mirror: false
    crop_size: 224
    mean_file: "/home/mohanty/data/final_dataset/lmdb/grayscale-80-20/mean.binaryproto"
  }
  data_param {
    source: "/home/mohanty/data/final_dataset/lmdb/grayscale-80-20/test_db"
    batch_size: 24
    backend: LMDB
  }
}
layer {
  name: "conv1/7x7_s2"
  type: "Convolution"
  bottom: "data"
  top: "conv1/7x7_s2"
  param {
    lr_mult: 1
    decay_mult: 1
  }
  param {
    lr_mult: 2
    decay_mult: 0
  }
  convolution_param {
    num_output: 64
    pad: 3
    kernel_size: 7
    stride: 2
    weight_filler {
      type: "xavier"
      std: 0.1
    }
    bias_filler {
      type: "constant"
      value: 0.2
    }
  }
}
layer {
  name: "conv1/relu_7x7"
  type: "ReLU"
  bottom: "conv1/7x7_s2"
  top: "conv1/7x7_s2"
}
layer {
  name: "pool1/3x3_s2"
  type: "Pooling"
  bottom: "conv1/7x7_s2"
  top: "pool1/3x3_s2"
  pooling_param {
    pool: MAX
    kernel_size: 3
    stride: 2
  }
}
layer {
  name: "pool1/norm1"
  type: "LRN"
  bottom: "pool1/3x3_s2"
  top: "pool1/norm1"
  lrn_param {
    local_size: 5
    alpha: 0.0001
    beta: 0.75
  }
}
layer {
  name: "conv2/3x3_reduce"
  type: "Convolution"
  bottom: "pool1/norm1"
  top: "conv2/3x3_reduce"
  param {
    lr_mult: 1
    decay_mult: 1
  }
  param {
    lr_mult: 2
    decay_mult: 0
  }
  convolution_param {
    num_output: 64
    kernel_size: 1
    weight_filler {
      type: "xavier"
      std: 0.1
    }
    bias_filler {
      type: "constant"
      value: 0.2
    }
  }
}
layer {
  name: "conv2/relu_3x3_reduce"
  type: "ReLU"
  bottom: "conv2/3x3_reduce"
  top: "conv2/3x3_reduce"
}
layer {
  name: "conv2/3x3"
  type: "Convolution"
  bottom: "conv2/3x3_reduce"
  top: "conv2/3x3"
  param {
    lr_mult: 1
    decay_mult: 1
  }
  param {
    lr_mult: 2
    decay_mult: 0
  }
  convolution_param {
    num_output: 192
    pad: 1
    kernel_size: 3
    weight_filler {
      type: "xavier"
      std: 0.03
    }
    bias_filler {
      type: "constant"
      value: 0.2
    }
  }
}
layer {
  name: "conv2/relu_3x3"
  type: "ReLU"
  bottom: "conv2/3x3"
  top: "conv2/3x3"
}
layer {
  name: "conv2/norm2"
  type: "LRN"
  bottom: "conv2/3x3"
  top: "conv2/norm2"
  lrn_param {
    local_size: 5
    alpha: 0.0001
    beta: 0.75
  }
}
layer {
  name: "pool2/3x3_s2"
  type: "Pooling"
  bottom: "conv2/norm2"
  top: "pool2/3x3_s2"
  pooling_param {
    pool: MAX
    kernel_size: 3
    stride: 2
  }
}
layer {
  name: "inception_3a/1x1"
  type: "Convolution"
  bottom: "pool2/3x3_s2"
  top: "inception_3a/1x1"
  param {
    lr_mult: 1
    decay_mult: 1
  }
  param {
    lr_mult: 2
    decay_mult: 0
  }
  convolution_param {
    num_output: 64
    kernel_size: 1
    weight_filler {
      type: "xavier"
      std: 0.03
    }
    bias_filler {
      type: "constant"
      value: 0.2
    }
  }
}
layer {
  name: "inception_3a/relu_1x1"
  type: "ReLU"
  bottom: "inception_3a/1x1"
  top: "inception_3a/1x1"
}
layer {
  name: "inception_3a/3x3_reduce"
  type: "Convolution"
  bottom: "pool2/3x3_s2"
  top: "inception_3a/3x3_reduce"
  param {
    lr_mult: 1
    decay_mult: 1
  }
  param {
    lr_mult: 2
    decay_mult: 0
  }
  convolution_param {
    num_output: 96
    kernel_size: 1
    weight_filler {
      type: "xavier"
      std: 0.09
    }
    bias_filler {
      type: "constant"
      value: 0.2
    }
  }
}
layer {
  name: "inception_3a/relu_3x3_reduce"
  type: "ReLU"
  bottom: "inception_3a/3x3_reduce"
  top: "inception_3a/3x3_reduce"
}
layer {
  name: "inception_3a/3x3"
  type: "Convolution"
  bottom: "inception_3a/3x3_reduce"
  top: "inception_3a/3x3"
  param {
    lr_mult: 1
    decay_mult: 1
  }
  param {
    lr_mult: 2
    decay_mult: 0
  }
  convolution_param {
    num_output: 128
    pad: 1
    kernel_size: 3
    weight_filler {
      type: "xavier"
      std: 0.03
    }
    bias_filler {
      type: "constant"
      value: 0.2
    }
  }
}
layer {
  name: "inception_3a/relu_3x3"
  type: "ReLU"
  bottom: "inception_3a/3x3"
  top: "inception_3a/3x3"
}
layer {
  name: "inception_3a/5x5_reduce"
  type: "Convolution"
  bottom: "pool2/3x3_s2"
  top: "inception_3a/5x5_reduce"
  param {
    lr_mult: 1
    decay_mult: 1
  }
  param {
    lr_mult: 2
    decay_mult: 0
  }
  convolution_param {
    num_output: 16
    kernel_size: 1
    weight_filler {
      type: "xavier"
      std: 0.2
    }
    bias_filler {
      type: "constant"
      value: 0.2
    }
  }
}
layer {
  name: "inception_3a/relu_5x5_reduce"
  type: "ReLU"
  bottom: "inception_3a/5x5_reduce"
  top: "inception_3a/5x5_reduce"
}
layer {
  name: "inception_3a/5x5"
  type: "Convolution"
  bottom: "inception_3a/5x5_reduce"
  top: "inception_3a/5x5"
  param {
    lr_mult: 1
    decay_mult: 1
  }
  param {
    lr_mult: 2
    decay_mult: 0
  }
  convolution_param {
    num_output: 32
    pad: 2
    kernel_size: 5
    weight_filler {
      type: "xavier"
      std: 0.03
    }
    bias_filler {
      type: "constant"
      value: 0.2
    }
  }
}
layer {
  name: "inception_3a/relu_5x5"
  type: "ReLU"
  bottom: "inception_3a/5x5"
  top: "inception_3a/5x5"
}
layer {
  name: "inception_3a/pool"
  type: "Pooling"
  bottom: "pool2/3x3_s2"
  top: "inception_3a/pool"
  pooling_param {
    pool: MAX
    kernel_size: 3
    stride: 1
    pad: 1
  }
}
layer {
  name: "inception_3a/pool_proj"
  type: "Convolution"
  bottom: "inception_3a/pool"
  top: "inception_3a/pool_proj"
  param {
    lr_mult: 1
    decay_mult: 1
  }
  param {
    lr_mult: 2
    decay_mult: 0
  }
  convolution_param {
    num_output: 32
    kernel_size: 1
    weight_filler {
      type: "xavier"
      std: 0.1
    }
    bias_filler {
      type: "constant"
      value: 0.2
    }
  }
}
layer {
  name: "inception_3a/relu_pool_proj"
  type: "ReLU"
  bottom: "inception_3a/pool_proj"
  top: "inception_3a/pool_proj"
}
layer {
  name: "inception_3a/output"
  type: "Concat"
  bottom: "inception_3a/1x1"
  bottom: "inception_3a/3x3"
  bottom: "inception_3a/5x5"
  bottom: "inception_3a/pool_proj"
  top: "inception_3a/output"
}
layer {
  name: "inception_3b/1x1"
  type: "Convolution"
  bottom: "inception_3a/output"
  top: "inception_3b/1x1"
  param {
    lr_mult: 1
    decay_mult: 1
  }
  param {
    lr_mult: 2
    decay_mult: 0
  }
  convolution_param {
    num_output: 128
    kernel_size: 1
    weight_filler {
      type: "xavier"
      std: 0.03
    }
    bias_filler {
      type: "constant"
      value: 0.2
    }
  }
}
layer {
  name: "inception_3b/relu_1x1"
  type: "ReLU"
  bottom: "inception_3b/1x1"
  top: "inception_3b/1x1"
}
layer {
  name: "inception_3b/3x3_reduce"
  type: "Convolution"
  bottom: "inception_3a/output"
  top: "inception_3b/3x3_reduce"
  param {
    lr_mult: 1
    decay_mult: 1
  }
  param {
    lr_mult: 2
    decay_mult: 0
  }
  convolution_param {
    num_output: 128
    kernel_size: 1
    weight_filler {
      type: "xavier"
      std: 0.09
    }
    bias_filler {
      type: "constant"
      value: 0.2
    }
  }
}
layer {
  name: "inception_3b/relu_3x3_reduce"
  type: "ReLU"
  bottom: "inception_3b/3x3_reduce"
  top: "inception_3b/3x3_reduce"
}
layer {
  name: "inception_3b/3x3"
  type: "Convolution"
  bottom: "inception_3b/3x3_reduce"
  top: "inception_3b/3x3"
  param {
    lr_mult: 1
    decay_mult: 1
  }
  param {
    lr_mult: 2
    decay_mult: 0
  }
  convolution_param {
    num_output: 192
    pad: 1
    kernel_size: 3
    weight_filler {
      type: "xavier"
      std: 0.03
    }
    bias_filler {
      type: "constant"
      value: 0.2
    }
  }
}
layer {
  name: "inception_3b/relu_3x3"
  type: "ReLU"
  bottom: "inception_3b/3x3"
  top: "inception_3b/3x3"
}
layer {
  name: "inception_3b/5x5_reduce"
  type: "Convolution"
  bottom: "inception_3a/output"
  top: "inception_3b/5x5_reduce"
  param {
    lr_mult: 1
    decay_mult: 1
  }
  param {
    lr_mult: 2
    decay_mult: 0
  }
  convolution_param {
    num_output: 32
    kernel_size: 1
    weight_filler {
      type: "xavier"
      std: 0.2
    }
    bias_filler {
      type: "constant"
      value: 0.2
    }
  }
}
layer {
  name: "inception_3b/relu_5x5_reduce"
  type: "ReLU"
  bottom: "inception_3b/5x5_reduce"
  top: "inception_3b/5x5_reduce"
}
layer {
  name: "inception_3b/5x5"
  type: "Convolution"
  bottom: "inception_3b/5x5_reduce"
  top: "inception_3b/5x5"
  param {
    lr_mult: 1
    decay_mult: 1
  }
  param {
    lr_mult: 2
    decay_mult: 0
  }
  convolution_param {
    num_output: 96
    pad: 2
    kernel_size: 5
    weight_filler {
      type: "xavier"
      std: 0.03
    }
    bias_filler {
      type: "constant"
      value: 0.2
    }
  }
}
layer {
  name: "inception_3b/relu_5x5"
  type: "ReLU"
  bottom: "inception_3b/5x5"
  top: "inception_3b/5x5"
}
layer {
  name: "inception_3b/pool"
  type: "Pooling"
  bottom: "inception_3a/output"
  top: "inception_3b/pool"
  pooling_param {
    pool: MAX
    kernel_size: 3
    stride: 1
    pad: 1
  }
}
layer {
  name: "inception_3b/pool_proj"
  type: "Convolution"
  bottom: "inception_3b/pool"
  top: "inception_3b/pool_proj"
  param {
    lr_mult: 1
    decay_mult: 1
  }
  param {
    lr_mult: 2
    decay_mult: 0
  }
  convolution_param {
    num_output: 64
    kernel_size: 1
    weight_filler {
      type: "xavier"
      std: 0.1
    }
    bias_filler {
      type: "constant"
      value: 0.2
    }
  }
}
layer {
  name: "inception_3b/relu_pool_proj"
  type: "ReLU"
  bottom: "inception_3b/pool_proj"
  top: "inception_3b/pool_proj"
}
layer {
  name: "inception_3b/output"
  type: "Concat"
  bottom: "inception_3b/1x1"
  bottom: "inception_3b/3x3"
  bottom: "inception_3b/5x5"
  bottom: "inception_3b/pool_proj"
  top: "inception_3b/output"
}
layer {
  name: "pool3/3x3_s2"
  type: "Pooling"
  bottom: "inception_3b/output"
  top: "pool3/3x3_s2"
  pooling_param {
    pool: MAX
    kernel_size: 3
    stride: 2
  }
}
layer {
  name: "inception_4a/1x1"
  type: "Convolution"
  bottom: "pool3/3x3_s2"
  top: "inception_4a/1x1"
  param {
    lr_mult: 1
    decay_mult: 1
  }
  param {
    lr_mult: 2
    decay_mult: 0
  }
  convolution_param {
    num_output: 192
    kernel_size: 1
    weight_filler {
      type: "xavier"
      std: 0.03
    }
    bias_filler {
      type: "constant"
      value: 0.2
    }
  }
}
layer {
  name: "inception_4a/relu_1x1"
  type: "ReLU"
  bottom: "inception_4a/1x1"
  top: "inception_4a/1x1"
}
layer {
  name: "inception_4a/3x3_reduce"
  type: "Convolution"
  bottom: "pool3/3x3_s2"
  top: "inception_4a/3x3_reduce"
  param {
    lr_mult: 1
    decay_mult: 1
  }
  param {
    lr_mult: 2
    decay_mult: 0
  }
  convolution_param {
    num_output: 96
    kernel_size: 1
    weight_filler {
      type: "xavier"
      std: 0.09
    }
    bias_filler {
      type: "constant"
      value: 0.2
    }
  }
}
layer {
  name: "inception_4a/relu_3x3_reduce"
  type: "ReLU"
  bottom: "inception_4a/3x3_reduce"
  top: "inception_4a/3x3_reduce"
}
layer {
  name: "inception_4a/3x3"
  type: "Convolution"
  bottom: "inception_4a/3x3_reduce"
  top: "inception_4a/3x3"
  param {
    lr_mult: 1
    decay_mult: 1
  }
  param {
    lr_mult: 2
    decay_mult: 0
  }
  convolution_param {
    num_output: 208
    pad: 1
    kernel_size: 3
    weight_filler {
      type: "xavier"
      std: 0.03
    }
    bias_filler {
      type: "constant"
      value: 0.2
    }
  }
}
layer {
  name: "inception_4a/relu_3x3"
  type: "ReLU"
  bottom: "inception_4a/3x3"
  top: "inception_4a/3x3"
}
layer {
  name: "inception_4a/5x5_reduce"
  type: "Convolution"
  bottom: "pool3/3x3_s2"
  top: "inception_4a/5x5_reduce"
  param {
    lr_mult: 1
    decay_mult: 1
  }
  param {
    lr_mult: 2
    decay_mult: 0
  }
  convolution_param {
    num_output: 16
    kernel_size: 1
    weight_filler {
      type: "xavier"
      std: 0.2
    }
    bias_filler {
      type: "constant"
      value: 0.2
    }
  }
}
layer {
  name: "inception_4a/relu_5x5_reduce"
  type: "ReLU"
  bottom: "inception_4a/5x5_reduce"
  top: "inception_4a/5x5_reduce"
}
layer {
  name: "inception_4a/5x5"
  type: "Convolution"
  bottom: "inception_4a/5x5_reduce"
  top: "inception_4a/5x5"
  param {
    lr_mult: 1
    decay_mult: 1
  }
  param {
    lr_mult: 2
    decay_mult: 0
  }
  convolution_param {
    num_output: 48
    pad: 2
    kernel_size: 5
    weight_filler {
      type: "xavier"
      std: 0.03
    }
    bias_filler {
      type: "constant"
      value: 0.2
    }
  }
}
layer {
  name: "inception_4a/relu_5x5"
  type: "ReLU"
  bottom: "inception_4a/5x5"
  top: "inception_4a/5x5"
}
layer {
  name: "inception_4a/pool"
  type: "Pooling"
  bottom: "pool3/3x3_s2"
  top: "inception_4a/pool"
  pooling_param {
    pool: MAX
    kernel_size: 3
    stride: 1
    pad: 1
  }
}
layer {
  name: "inception_4a/pool_proj"
  type: "Convolution"
  bottom: "inception_4a/pool"
  top: "inception_4a/pool_proj"
  param {
    lr_mult: 1
    decay_mult: 1
  }
  param {
    lr_mult: 2
    decay_mult: 0
  }
  convolution_param {
    num_output: 64
    kernel_size: 1
    weight_filler {
      type: "xavier"
      std: 0.1
    }
    bias_filler {
      type: "constant"
      value: 0.2
    }
  }
}
layer {
  name: "inception_4a/relu_pool_proj"
  type: "ReLU"
  bottom: "inception_4a/pool_proj"
  top: "inception_4a/pool_proj"
}
layer {
  name: "inception_4a/output"
  type: "Concat"
  bottom: "inception_4a/1x1"
  bottom: "inception_4a/3x3"
  bottom: "inception_4a/5x5"
  bottom: "inception_4a/pool_proj"
  top: "inception_4a/output"
}
layer {
  name: "loss1/ave_pool"
  type: "Pooling"
  bottom: "inception_4a/output"
  top: "loss1/ave_pool"
  pooling_param {
    pool: AVE
    kernel_size: 5
    stride: 3
  }
}
layer {
  name: "loss1/conv"
  type: "Convolution"
  bottom: "loss1/ave_pool"
  top: "loss1/conv"
  param {
    lr_mult: 1
    decay_mult: 1
  }
  param {
    lr_mult: 2
    decay_mult: 0
  }
  convolution_param {
    num_output: 128
    kernel_size: 1
    weight_filler {
      type: "xavier"
      std: 0.08
    }
    bias_filler {
      type: "constant"
      value: 0.2
    }
  }
}
layer {
  name: "loss1/relu_conv"
  type: "ReLU"
  bottom: "loss1/conv"
  top: "loss1/conv"
}
layer {
  name: "loss1/fc"
  type: "InnerProduct"
  bottom: "loss1/conv"
  top: "loss1/fc"
  param {
    lr_mult: 1
    decay_mult: 1
  }
  param {
    lr_mult: 2
    decay_mult: 0
  }
  inner_product_param {
    num_output: 1024
    weight_filler {
      type: "xavier"
      std: 0.02
    }
    bias_filler {
      type: "constant"
      value: 0.2
    }
  }
}
layer {
  name: "loss1/relu_fc"
  type: "ReLU"
  bottom: "loss1/fc"
  top: "loss1/fc"
}
layer {
  name: "loss1/drop_fc"
  type: "Dropout"
  bottom: "loss1/fc"
  top: "loss1/fc"
  dropout_param {
    dropout_ratio: 0.7
  }
}
layer {
  name: "loss1/classifier_plantvillage"
  type: "InnerProduct"
  bottom: "loss1/fc"
  top: "loss1/classifier_plantvillage"
  param {
    lr_mult: 1
    decay_mult: 1
  }
  param {
    lr_mult: 2
    decay_mult: 0
  }
  inner_product_param {
    num_output: 38
    weight_filler {
      type: "xavier"
      std: 0.0009765625
    }
    bias_filler {
      type: "constant"
      value: 0
    }
  }
}
layer {
  name: "inception_4b/1x1"
  type: "Convolution"
  bottom: "inception_4a/output"
  top: "inception_4b/1x1"
  param {
    lr_mult: 1
    decay_mult: 1
  }
  param {
    lr_mult: 2
    decay_mult: 0
  }
  convolution_param {
    num_output: 160
    kernel_size: 1
    weight_filler {
      type: "xavier"
      std: 0.03
    }
    bias_filler {
      type: "constant"
      value: 0.2
    }
  }
}
layer {
  name: "inception_4b/relu_1x1"
  type: "ReLU"
  bottom: "inception_4b/1x1"
  top: "inception_4b/1x1"
}
layer {
  name: "inception_4b/3x3_reduce"
  type: "Convolution"
  bottom: "inception_4a/output"
  top: "inception_4b/3x3_reduce"
  param {
    lr_mult: 1
    decay_mult: 1
  }
  param {
    lr_mult: 2
    decay_mult: 0
  }
  convolution_param {
    num_output: 112
    kernel_size: 1
    weight_filler {
      type: "xavier"
      std: 0.09
    }
    bias_filler {
      type: "constant"
      value: 0.2
    }
  }
}
layer {
  name: "inception_4b/relu_3x3_reduce"
  type: "ReLU"
  bottom: "inception_4b/3x3_reduce"
  top: "inception_4b/3x3_reduce"
}
layer {
  name: "inception_4b/3x3"
  type: "Convolution"
  bottom: "inception_4b/3x3_reduce"
  top: "inception_4b/3x3"
  param {
    lr_mult: 1
    decay_mult: 1
  }
  param {
    lr_mult: 2
    decay_mult: 0
  }
  convolution_param {
    num_output: 224
    pad: 1
    kernel_size: 3
    weight_filler {
      type: "xavier"
      std: 0.03
    }
    bias_filler {
      type: "constant"
      value: 0.2
    }
  }
}
layer {
  name: "inception_4b/relu_3x3"
  type: "ReLU"
  bottom: "inception_4b/3x3"
  top: "inception_4b/3x3"
}
layer {
  name: "inception_4b/5x5_reduce"
  type: "Convolution"
  bottom: "inception_4a/output"
  top: "inception_4b/5x5_reduce"
  param {
    lr_mult: 1
    decay_mult: 1
  }
  param {
    lr_mult: 2
    decay_mult: 0
  }
  convolution_param {
    num_output: 24
    kernel_size: 1
    weight_filler {
      type: "xavier"
      std: 0.2
    }
    bias_filler {
      type: "constant"
      value: 0.2
    }
  }
}
layer {
  name: "inception_4b/relu_5x5_reduce"
  type: "ReLU"
  bottom: "inception_4b/5x5_reduce"
  top: "inception_4b/5x5_reduce"
}
layer {
  name: "inception_4b/5x5"
  type: "Convolution"
  bottom: "inception_4b/5x5_reduce"
  top: "inception_4b/5x5"
  param {
    lr_mult: 1
    decay_mult: 1
  }
  param {
    lr_mult: 2
    decay_mult: 0
  }
  convolution_param {
    num_output: 64
    pad: 2
    kernel_size: 5
    weight_filler {
      type: "xavier"
      std: 0.03
    }
    bias_filler {
      type: "constant"
      value: 0.2
    }
  }
}
layer {
  name: "inception_4b/relu_5x5"
  type: "ReLU"
  bottom: "inception_4b/5x5"
  top: "inception_4b/5x5"
}
layer {
  name: "inception_4b/pool"
  type: "Pooling"
  bottom: "inception_4a/output"
  top: "inception_4b/pool"
  pooling_param {
    pool: MAX
    kernel_size: 3
    stride: 1
    pad: 1
  }
}
layer {
  name: "inception_4b/pool_proj"
  type: "Convolution"
  bottom: "inception_4b/pool"
  top: "inception_4b/pool_proj"
  param {
    lr_mult: 1
    decay_mult: 1
  }
  param {
    lr_mult: 2
    decay_mult: 0
  }
  convolution_param {
    num_output: 64
    kernel_size: 1
    weight_filler {
      type: "xavier"
      std: 0.1
    }
    bias_filler {
      type: "constant"
      value: 0.2
    }
  }
}
layer {
  name: "inception_4b/relu_pool_proj"
  type: "ReLU"
  bottom: "inception_4b/pool_proj"
  top: "inception_4b/pool_proj"
}
layer {
  name: "inception_4b/output"
  type: "Concat"
  bottom: "inception_4b/1x1"
  bottom: "inception_4b/3x3"
  bottom: "inception_4b/5x5"
  bottom: "inception_4b/pool_proj"
  top: "inception_4b/output"
}
layer {
  name: "inception_4c/1x1"
  type: "Convolution"
  bottom: "inception_4b/output"
  top: "inception_4c/1x1"
  param {
    lr_mult: 1
    decay_mult: 1
  }
  param {
    lr_mult: 2
    decay_mult: 0
  }
  convolution_param {
    num_output: 128
    kernel_size: 1
    weight_filler {
      type: "xavier"
      std: 0.03
    }
    bias_filler {
      type: "constant"
      value: 0.2
    }
  }
}
layer {
  name: "inception_4c/relu_1x1"
  type: "ReLU"
  bottom: "inception_4c/1x1"
  top: "inception_4c/1x1"
}
layer {
  name: "inception_4c/3x3_reduce"
  type: "Convolution"
  bottom: "inception_4b/output"
  top: "inception_4c/3x3_reduce"
  param {
    lr_mult: 1
    decay_mult: 1
  }
  param {
    lr_mult: 2
    decay_mult: 0
  }
  convolution_param {
    num_output: 128
    kernel_size: 1
    weight_filler {
      type: "xavier"
      std: 0.09
    }
    bias_filler {
      type: "constant"
      value: 0.2
    }
  }
}
layer {
  name: "inception_4c/relu_3x3_reduce"
  type: "ReLU"
  bottom: "inception_4c/3x3_reduce"
  top: "inception_4c/3x3_reduce"
}
layer {
  name: "inception_4c/3x3"
  type: "Convolution"
  bottom: "inception_4c/3x3_reduce"
  top: "inception_4c/3x3"
  param {
    lr_mult: 1
    decay_mult: 1
  }
  param {
    lr_mult: 2
    decay_mult: 0
  }
  convolution_param {
    num_output: 256
    pad: 1
    kernel_size: 3
    weight_filler {
      type: "xavier"
      std: 0.03
    }
    bias_filler {
      type: "constant"
      value: 0.2
    }
  }
}
layer {
  name: "inception_4c/relu_3x3"
  type: "ReLU"
  bottom: "inception_4c/3x3"
  top: "inception_4c/3x3"
}
layer {
  name: "inception_4c/5x5_reduce"
  type: "Convolution"
  bottom: "inception_4b/output"
  top: "inception_4c/5x5_reduce"
  param {
    lr_mult: 1
    decay_mult: 1
  }
  param {
    lr_mult: 2
    decay_mult: 0
  }
  convolution_param {
    num_output: 24
    kernel_size: 1
    weight_filler {
      type: "xavier"
      std: 0.2
    }
    bias_filler {
      type: "constant"
      value: 0.2
    }
  }
}
layer {
  name: "inception_4c/relu_5x5_reduce"
  type: "ReLU"
  bottom: "inception_4c/5x5_reduce"
  top: "inception_4c/5x5_reduce"
}
layer {
  name: "inception_4c/5x5"
  type: "Convolution"
  bottom: "inception_4c/5x5_reduce"
  top: "inception_4c/5x5"
  param {
    lr_mult: 1
    decay_mult: 1
  }
  param {
    lr_mult: 2
    decay_mult: 0
  }
  convolution_param {
    num_output: 64
    pad: 2
    kernel_size: 5
    weight_filler {
      type: "xavier"
      std: 0.03
    }
    bias_filler {
      type: "constant"
      value: 0.2
    }
  }
}
layer {
  name: "inception_4c/relu_5x5"
  type: "ReLU"
  bottom: "inception_4c/5x5"
  top: "inception_4c/5x5"
}
layer {
  name: "inception_4c/pool"
  type: "Pooling"
  bottom: "inception_4b/output"
  top: "inception_4c/pool"
  pooling_param {
    pool: MAX
    kernel_size: 3
    stride: 1
    pad: 1
  }
}
layer {
  name: "inception_4c/pool_proj"
  type: "Convolution"
  bottom: "inception_4c/pool"
  top: "inception_4c/pool_proj"
  param {
    lr_mult: 1
    decay_mult: 1
  }
  param {
    lr_mult: 2
    decay_mult: 0
  }
  convolution_param {
    num_output: 64
    kernel_size: 1
    weight_filler {
      type: "xavier"
      std: 0.1
    }
    bias_filler {
      type: "constant"
      value: 0.2
    }
  }
}
layer {
  name: "inception_4c/relu_pool_proj"
  type: "ReLU"
  bottom: "inception_4c/pool_proj"
  top: "inception_4c/pool_proj"
}
layer {
  name: "inception_4c/output"
  type: "Concat"
  bottom: "inception_4c/1x1"
  bottom: "inception_4c/3x3"
  bottom: "inception_4c/5x5"
  bottom: "inception_4c/pool_proj"
  top: "inception_4c/output"
}
layer {
  name: "inception_4d/1x1"
  type: "Convolution"
  bottom: "inception_4c/output"
  top: "inception_4d/1x1"
  param {
    lr_mult: 1
    decay_mult: 1
  }
  param {
    lr_mult: 2
    decay_mult: 0
  }
  convolution_param {
    num_output: 112
    kernel_size: 1
    weight_filler {
      type: "xavier"
      std: 0.03
    }
    bias_filler {
      type: "constant"
      value: 0.2
    }
  }
}
layer {
  name: "inception_4d/relu_1x1"
  type: "ReLU"
  bottom: "inception_4d/1x1"
  top: "inception_4d/1x1"
}
layer {
  name: "inception_4d/3x3_reduce"
  type: "Convolution"
  bottom: "inception_4c/output"
  top: "inception_4d/3x3_reduce"
  param {
    lr_mult: 1
    decay_mult: 1
  }
  param {
    lr_mult: 2
    decay_mult: 0
  }
  convolution_param {
    num_output: 144
    kernel_size: 1
    weight_filler {
      type: "xavier"
      std: 0.09
    }
    bias_filler {
      type: "constant"
      value: 0.2
    }
  }
}
layer {
  name: "inception_4d/relu_3x3_reduce"
  type: "ReLU"
  bottom: "inception_4d/3x3_reduce"
  top: "inception_4d/3x3_reduce"
}
layer {
  name: "inception_4d/3x3"
  type: "Convolution"
  bottom: "inception_4d/3x3_reduce"
  top: "inception_4d/3x3"
  param {
    lr_mult: 1
    decay_mult: 1
  }
  param {
    lr_mult: 2
    decay_mult: 0
  }
  convolution_param {
    num_output: 288
    pad: 1
    kernel_size: 3
    weight_filler {
      type: "xavier"
      std: 0.03
    }
    bias_filler {
      type: "constant"
      value: 0.2
    }
  }
}
layer {
  name: "inception_4d/relu_3x3"
  type: "ReLU"
  bottom: "inception_4d/3x3"
  top: "inception_4d/3x3"
}
layer {
  name: "inception_4d/5x5_reduce"
  type: "Convolution"
  bottom: "inception_4c/output"
  top: "inception_4d/5x5_reduce"
  param {
    lr_mult: 1
    decay_mult: 1
  }
  param {
    lr_mult: 2
    decay_mult: 0
  }
  convolution_param {
    num_output: 32
    kernel_size: 1
    weight_filler {
      type: "xavier"
      std: 0.2
    }
    bias_filler {
      type: "constant"
      value: 0.2
    }
  }
}
layer {
  name: "inception_4d/relu_5x5_reduce"
  type: "ReLU"
  bottom: "inception_4d/5x5_reduce"
  top: "inception_4d/5x5_reduce"
}
layer {
  name: "inception_4d/5x5"
  type: "Convolution"
  bottom: "inception_4d/5x5_reduce"
  top: "inception_4d/5x5"
  param {
    lr_mult: 1
    decay_mult: 1
  }
  param {
    lr_mult: 2
    decay_mult: 0
  }
  convolution_param {
    num_output: 64
    pad: 2
    kernel_size: 5
    weight_filler {
      type: "xavier"
      std: 0.03
    }
    bias_filler {
      type: "constant"
      value: 0.2
    }
  }
}
layer {
  name: "inception_4d/relu_5x5"
  type: "ReLU"
  bottom: "inception_4d/5x5"
  top: "inception_4d/5x5"
}
layer {
  name: "inception_4d/pool"
  type: "Pooling"
  bottom: "inception_4c/output"
  top: "inception_4d/pool"
  pooling_param {
    pool: MAX
    kernel_size: 3
    stride: 1
    pad: 1
  }
}
layer {
  name: "inception_4d/pool_proj"
  type: "Convolution"
  bottom: "inception_4d/pool"
  top: "inception_4d/pool_proj"
  param {
    lr_mult: 1
    decay_mult: 1
  }
  param {
    lr_mult: 2
    decay_mult: 0
  }
  convolution_param {
    num_output: 64
    kernel_size: 1
    weight_filler {
      type: "xavier"
      std: 0.1
    }
    bias_filler {
      type: "constant"
      value: 0.2
    }
  }
}
layer {
  name: "inception_4d/relu_pool_proj"
  type: "ReLU"
  bottom: "inception_4d/pool_proj"
  top: "inception_4d/pool_proj"
}
layer {
  name: "inception_4d/output"
  type: "Concat"
  bottom: "inception_4d/1x1"
  bottom: "inception_4d/3x3"
  bottom: "inception_4d/5x5"
  bottom: "inception_4d/pool_proj"
  top: "inception_4d/output"
}
layer {
  name: "loss2/ave_pool"
  type: "Pooling"
  bottom: "inception_4d/output"
  top: "loss2/ave_pool"
  pooling_param {
    pool: AVE
    kernel_size: 5
    stride: 3
  }
}
layer {
  name: "loss2/conv"
  type: "Convolution"
  bottom: "loss2/ave_pool"
  top: "loss2/conv"
  param {
    lr_mult: 1
    decay_mult: 1
  }
  param {
    lr_mult: 2
    decay_mult: 0
  }
  convolution_param {
    num_output: 128
    kernel_size: 1
    weight_filler {
      type: "xavier"
      std: 0.08
    }
    bias_filler {
      type: "constant"
      value: 0.2
    }
  }
}
layer {
  name: "loss2/relu_conv"
  type: "ReLU"
  bottom: "loss2/conv"
  top: "loss2/conv"
}
layer {
  name: "loss2/fc"
  type: "InnerProduct"
  bottom: "loss2/conv"
  top: "loss2/fc"
  param {
    lr_mult: 1
    decay_mult: 1
  }
  param {
    lr_mult: 2
    decay_mult: 0
  }
  inner_product_param {
    num_output: 1024
    weight_filler {
      type: "xavier"
      std: 0.02
    }
    bias_filler {
      type: "constant"
      value: 0.2
    }
  }
}
layer {
  name: "loss2/relu_fc"
  type: "ReLU"
  bottom: "loss2/fc"
  top: "loss2/fc"
}
layer {
  name: "loss2/drop_fc"
  type: "Dropout"
  bottom: "loss2/fc"
  top: "loss2/fc"
  dropout_param {
    dropout_ratio: 0.7
  }
}
layer {
  name: "loss2/classifier_plantvillage"
  type: "InnerProduct"
  bottom: "loss2/fc"
  top: "loss2/classifier_plantvillage"
  param {
    lr_mult: 1
    decay_mult: 1
  }
  param {
    lr_mult: 2
    decay_mult: 0
  }
  inner_product_param {
    num_output: 38
    weight_filler {
      type: "xavier"
      std: 0.0009765625
    }
    bias_filler {
      type: "constant"
      value: 0
    }
  }
}
layer {
  name: "inception_4e/1x1"
  type: "Convolution"
  bottom: "inception_4d/output"
  top: "inception_4e/1x1"
  param {
    lr_mult: 1
    decay_mult: 1
  }
  param {
    lr_mult: 2
    decay_mult: 0
  }
  convolution_param {
    num_output: 256
    kernel_size: 1
    weight_filler {
      type: "xavier"
      std: 0.03
    }
    bias_filler {
      type: "constant"
      value: 0.2
    }
  }
}
layer {
  name: "inception_4e/relu_1x1"
  type: "ReLU"
  bottom: "inception_4e/1x1"
  top: "inception_4e/1x1"
}
layer {
  name: "inception_4e/3x3_reduce"
  type: "Convolution"
  bottom: "inception_4d/output"
  top: "inception_4e/3x3_reduce"
  param {
    lr_mult: 1
    decay_mult: 1
  }
  param {
    lr_mult: 2
    decay_mult: 0
  }
  convolution_param {
    num_output: 160
    kernel_size: 1
    weight_filler {
      type: "xavier"
      std: 0.09
    }
    bias_filler {
      type: "constant"
      value: 0.2
    }
  }
}
layer {
  name: "inception_4e/relu_3x3_reduce"
  type: "ReLU"
  bottom: "inception_4e/3x3_reduce"
  top: "inception_4e/3x3_reduce"
}
layer {
  name: "inception_4e/3x3"
  type: "Convolution"
  bottom: "inception_4e/3x3_reduce"
  top: "inception_4e/3x3"
  param {
    lr_mult: 1
    decay_mult: 1
  }
  param {
    lr_mult: 2
    decay_mult: 0
  }
  convolution_param {
    num_output: 320
    pad: 1
    kernel_size: 3
    weight_filler {
      type: "xavier"
      std: 0.03
    }
    bias_filler {
      type: "constant"
      value: 0.2
    }
  }
}
layer {
  name: "inception_4e/relu_3x3"
  type: "ReLU"
  bottom: "inception_4e/3x3"
  top: "inception_4e/3x3"
}
layer {
  name: "inception_4e/5x5_reduce"
  type: "Convolution"
  bottom: "inception_4d/output"
  top: "inception_4e/5x5_reduce"
  param {
    lr_mult: 1
    decay_mult: 1
  }
  param {
    lr_mult: 2
    decay_mult: 0
  }
  convolution_param {
    num_output: 32
    kernel_size: 1
    weight_filler {
      type: "xavier"
      std: 0.2
    }
    bias_filler {
      type: "constant"
      value: 0.2
    }
  }
}
layer {
  name: "inception_4e/relu_5x5_reduce"
  type: "ReLU"
  bottom: "inception_4e/5x5_reduce"
  top: "inception_4e/5x5_reduce"
}
layer {
  name: "inception_4e/5x5"
  type: "Convolution"
  bottom: "inception_4e/5x5_reduce"
  top: "inception_4e/
I0403 19:47:15.237684 25897 layer_factory.hpp:77] Creating layer data
I0403 19:47:15.238351 25897 net.cpp:91] Creating Layer data
I0403 19:47:15.238385 25897 net.cpp:399] data -> data
I0403 19:47:15.238459 25897 net.cpp:399] data -> label
I0403 19:47:15.238504 25897 data_transformer.cpp:25] Loading mean file from: /home/mohanty/data/final_dataset/lmdb/grayscale-80-20/mean.binaryproto
I0403 19:47:15.239497 25902 db_lmdb.cpp:38] Opened lmdb /home/mohanty/data/final_dataset/lmdb/grayscale-80-20/test_db
I0403 19:47:15.252445 25897 data_layer.cpp:41] output data size: 24,3,224,224
I0403 19:47:15.280665 25897 net.cpp:141] Setting up data
I0403 19:47:15.280769 25897 net.cpp:148] Top shape: 24 3 224 224 (3612672)
I0403 19:47:15.280794 25897 net.cpp:148] Top shape: 24 (24)
I0403 19:47:15.280812 25897 net.cpp:156] Memory required for data: 14450784
I0403 19:47:15.280844 25897 layer_factory.hpp:77] Creating layer label_data_1_split
I0403 19:47:15.280879 25897 net.cpp:91] Creating Layer label_data_1_split
I0403 19:47:15.280901 25897 net.cpp:425] label_data_1_split <- label
I0403 19:47:15.280941 25897 net.cpp:399] label_data_1_split -> label_data_1_split_0
I0403 19:47:15.280972 25897 net.cpp:399] label_data_1_split -> label_data_1_split_1
I0403 19:47:15.280994 25897 net.cpp:399] label_data_1_split -> label_data_1_split_2
I0403 19:47:15.281016 25897 net.cpp:399] label_data_1_split -> label_data_1_split_3
I0403 19:47:15.281038 25897 net.cpp:399] label_data_1_split -> label_data_1_split_4
I0403 19:47:15.281062 25897 net.cpp:399] label_data_1_split -> label_data_1_split_5
I0403 19:47:15.281085 25897 net.cpp:399] label_data_1_split -> label_data_1_split_6
I0403 19:47:15.281106 25897 net.cpp:399] label_data_1_split -> label_data_1_split_7
I0403 19:47:15.281127 25897 net.cpp:399] label_data_1_split -> label_data_1_split_8
I0403 19:47:15.281148 25897 net.cpp:399] label_data_1_split -> label_data_1_split_9
I0403 19:47:15.281278 25897 net.cpp:141] Setting up label_data_1_split
I0403 19:47:15.281316 25897 net.cpp:148] Top shape: 24 (24)
I0403 19:47:15.281347 25897 net.cpp:148] Top shape: 24 (24)
I0403 19:47:15.281364 25897 net.cpp:148] Top shape: 24 (24)
I0403 19:47:15.281380 25897 net.cpp:148] Top shape: 24 (24)
I0403 19:47:15.281395 25897 net.cpp:148] Top shape: 24 (24)
I0403 19:47:15.281411 25897 net.cpp:148] Top shape: 24 (24)
I0403 19:47:15.281430 25897 net.cpp:148] Top shape: 24 (24)
I0403 19:47:15.281446 25897 net.cpp:148] Top shape: 24 (24)
I0403 19:47:15.281464 25897 net.cpp:148] Top shape: 24 (24)
I0403 19:47:15.281484 25897 net.cpp:148] Top shape: 24 (24)
I0403 19:47:15.281536 25897 net.cpp:156] Memory required for data: 14451744
I0403 19:47:15.281554 25897 layer_factory.hpp:77] Creating layer conv1/7x7_s2
I0403 19:47:15.281607 25897 net.cpp:91] Creating Layer conv1/7x7_s2
I0403 19:47:15.281630 25897 net.cpp:425] conv1/7x7_s2 <- data
I0403 19:47:15.281661 25897 net.cpp:399] conv1/7x7_s2 -> conv1/7x7_s2
I0403 19:47:15.423504 25897 net.cpp:141] Setting up conv1/7x7_s2
I0403 19:47:15.423610 25897 net.cpp:148] Top shape: 24 64 112 112 (19267584)
I0403 19:47:15.423629 25897 net.cpp:156] Memory required for data: 91522080
I0403 19:47:15.423666 25897 layer_factory.hpp:77] Creating layer conv1/relu_7x7
I0403 19:47:15.423699 25897 net.cpp:91] Creating Layer conv1/relu_7x7
I0403 19:47:15.423720 25897 net.cpp:425] conv1/relu_7x7 <- conv1/7x7_s2
I0403 19:47:15.423741 25897 net.cpp:386] conv1/relu_7x7 -> conv1/7x7_s2 (in-place)
I0403 19:47:15.424002 25897 net.cpp:141] Setting up conv1/relu_7x7
I0403 19:47:15.424032 25897 net.cpp:148] Top shape: 24 64 112 112 (19267584)
I0403 19:47:15.424051 25897 net.cpp:156] Memory required for data: 168592416
I0403 19:47:15.424067 25897 layer_factory.hpp:77] Creating layer pool1/3x3_s2
I0403 19:47:15.424096 25897 net.cpp:91] Creating Layer pool1/3x3_s2
I0403 19:47:15.424116 25897 net.cpp:425] pool1/3x3_s2 <- conv1/7x7_s2
I0403 19:47:15.424136 25897 net.cpp:399] pool1/3x3_s2 -> pool1/3x3_s2
I0403 19:47:15.424219 25897 net.cpp:141] Setting up pool1/3x3_s2
I0403 19:47:15.424245 25897 net.cpp:148] Top shape: 24 64 56 56 (4816896)
I0403 19:47:15.424263 25897 net.cpp:156] Memory required for data: 187860000
I0403 19:47:15.424276 25897 layer_factory.hpp:77] Creating layer pool1/norm1
I0403 19:47:15.424317 25897 net.cpp:91] Creating Layer pool1/norm1
I0403 19:47:15.424340 25897 net.cpp:425] pool1/norm1 <- pool1/3x3_s2
I0403 19:47:15.424360 25897 net.cpp:399] pool1/norm1 -> pool1/norm1
I0403 19:47:15.424733 25897 net.cpp:141] Setting up pool1/norm1
I0403 19:47:15.424764 25897 net.cpp:148] Top shape: 24 64 56 56 (4816896)
I0403 19:47:15.424782 25897 net.cpp:156] Memory required for data: 207127584
I0403 19:47:15.424801 25897 layer_factory.hpp:77] Creating layer conv2/3x3_reduce
I0403 19:47:15.424831 25897 net.cpp:91] Creating Layer conv2/3x3_reduce
I0403 19:47:15.424849 25897 net.cpp:425] conv2/3x3_reduce <- pool1/norm1
I0403 19:47:15.424868 25897 net.cpp:399] conv2/3x3_reduce -> conv2/3x3_reduce
I0403 19:47:15.426189 25897 net.cpp:141] Setting up conv2/3x3_reduce
I0403 19:47:15.426223 25897 net.cpp:148] Top shape: 24 64 56 56 (4816896)
I0403 19:47:15.426240 25897 net.cpp:156] Memory required for data: 226395168
I0403 19:47:15.426261 25897 layer_factory.hpp:77] Creating layer conv2/relu_3x3_reduce
I0403 19:47:15.426283 25897 net.cpp:91] Creating Layer conv2/relu_3x3_reduce
I0403 19:47:15.426307 25897 net.cpp:425] conv2/relu_3x3_reduce <- conv2/3x3_reduce
I0403 19:47:15.426327 25897 net.cpp:386] conv2/relu_3x3_reduce -> conv2/3x3_reduce (in-place)
I0403 19:47:15.426576 25897 net.cpp:141] Setting up conv2/relu_3x3_reduce
I0403 19:47:15.426605 25897 net.cpp:148] Top shape: 24 64 56 56 (4816896)
I0403 19:47:15.426623 25897 net.cpp:156] Memory required for data: 245662752
I0403 19:47:15.426640 25897 layer_factory.hpp:77] Creating layer conv2/3x3
I0403 19:47:15.426663 25897 net.cpp:91] Creating Layer conv2/3x3
I0403 19:47:15.426682 25897 net.cpp:425] conv2/3x3 <- conv2/3x3_reduce
I0403 19:47:15.426702 25897 net.cpp:399] conv2/3x3 -> conv2/3x3
I0403 19:47:15.428946 25897 net.cpp:141] Setting up conv2/3x3
I0403 19:47:15.428978 25897 net.cpp:148] Top shape: 24 192 56 56 (14450688)
I0403 19:47:15.428997 25897 net.cpp:156] Memory required for data: 303465504
I0403 19:47:15.429023 25897 layer_factory.hpp:77] Creating layer conv2/relu_3x3
I0403 19:47:15.429044 25897 net.cpp:91] Creating Layer conv2/relu_3x3
I0403 19:47:15.429062 25897 net.cpp:425] conv2/relu_3x3 <- conv2/3x3
I0403 19:47:15.429078 25897 net.cpp:386] conv2/relu_3x3 -> conv2/3x3 (in-place)
I0403 19:47:15.429252 25897 net.cpp:141] Setting up conv2/relu_3x3
I0403 19:47:15.429285 25897 net.cpp:148] Top shape: 24 192 56 56 (14450688)
I0403 19:47:15.429340 25897 net.cpp:156] Memory required for data: 361268256
I0403 19:47:15.429358 25897 layer_factory.hpp:77] Creating layer conv2/norm2
I0403 19:47:15.429378 25897 net.cpp:91] Creating Layer conv2/norm2
I0403 19:47:15.429394 25897 net.cpp:425] conv2/norm2 <- conv2/3x3
I0403 19:47:15.429416 25897 net.cpp:399] conv2/norm2 -> conv2/norm2
I0403 19:47:15.429718 25897 net.cpp:141] Setting up conv2/norm2
I0403 19:47:15.429749 25897 net.cpp:148] Top shape: 24 192 56 56 (14450688)
I0403 19:47:15.429766 25897 net.cpp:156] Memory required for data: 419071008
I0403 19:47:15.429781 25897 layer_factory.hpp:77] Creating layer pool2/3x3_s2
I0403 19:47:15.429802 25897 net.cpp:91] Creating Layer pool2/3x3_s2
I0403 19:47:15.429819 25897 net.cpp:425] pool2/3x3_s2 <- conv2/norm2
I0403 19:47:15.429841 25897 net.cpp:399] pool2/3x3_s2 -> pool2/3x3_s2
I0403 19:47:15.429896 25897 net.cpp:141] Setting up pool2/3x3_s2
I0403 19:47:15.429927 25897 net.cpp:148] Top shape: 24 192 28 28 (3612672)
I0403 19:47:15.429944 25897 net.cpp:156] Memory required for data: 433521696
I0403 19:47:15.429960 25897 layer_factory.hpp:77] Creating layer pool2/3x3_s2_pool2/3x3_s2_0_split
I0403 19:47:15.429978 25897 net.cpp:91] Creating Layer pool2/3x3_s2_pool2/3x3_s2_0_split
I0403 19:47:15.429996 25897 net.cpp:425] pool2/3x3_s2_pool2/3x3_s2_0_split <- pool2/3x3_s2
I0403 19:47:15.430014 25897 net.cpp:399] pool2/3x3_s2_pool2/3x3_s2_0_split -> pool2/3x3_s2_pool2/3x3_s2_0_split_0
I0403 19:47:15.430037 25897 net.cpp:399] pool2/3x3_s2_pool2/3x3_s2_0_split -> pool2/3x3_s2_pool2/3x3_s2_0_split_1
I0403 19:47:15.430061 25897 net.cpp:399] pool2/3x3_s2_pool2/3x3_s2_0_split -> pool2/3x3_s2_pool2/3x3_s2_0_split_2
I0403 19:47:15.430081 25897 net.cpp:399] pool2/3x3_s2_pool2/3x3_s2_0_split -> pool2/3x3_s2_pool2/3x3_s2_0_split_3
I0403 19:47:15.430155 25897 net.cpp:141] Setting up pool2/3x3_s2_pool2/3x3_s2_0_split
I0403 19:47:15.430184 25897 net.cpp:148] Top shape: 24 192 28 28 (3612672)
I0403 19:47:15.430202 25897 net.cpp:148] Top shape: 24 192 28 28 (3612672)
I0403 19:47:15.430219 25897 net.cpp:148] Top shape: 24 192 28 28 (3612672)
I0403 19:47:15.430235 25897 net.cpp:148] Top shape: 24 192 28 28 (3612672)
I0403 19:47:15.430251 25897 net.cpp:156] Memory required for data: 491324448
I0403 19:47:15.430268 25897 layer_factory.hpp:77] Creating layer inception_3a/1x1
I0403 19:47:15.430296 25897 net.cpp:91] Creating Layer inception_3a/1x1
I0403 19:47:15.430318 25897 net.cpp:425] inception_3a/1x1 <- pool2/3x3_s2_pool2/3x3_s2_0_split_0
I0403 19:47:15.430338 25897 net.cpp:399] inception_3a/1x1 -> inception_3a/1x1
I0403 19:47:15.431866 25897 net.cpp:141] Setting up inception_3a/1x1
I0403 19:47:15.431897 25897 net.cpp:148] Top shape: 24 64 28 28 (1204224)
I0403 19:47:15.431915 25897 net.cpp:156] Memory required for data: 496141344
I0403 19:47:15.431934 25897 layer_factory.hpp:77] Creating layer inception_3a/relu_1x1
I0403 19:47:15.431956 25897 net.cpp:91] Creating Layer inception_3a/relu_1x1
I0403 19:47:15.431975 25897 net.cpp:425] inception_3a/relu_1x1 <- inception_3a/1x1
I0403 19:47:15.431994 25897 net.cpp:386] inception_3a/relu_1x1 -> inception_3a/1x1 (in-place)
I0403 19:47:15.432166 25897 net.cpp:141] Setting up inception_3a/relu_1x1
I0403 19:47:15.432200 25897 net.cpp:148] Top shape: 24 64 28 28 (1204224)
I0403 19:47:15.432219 25897 net.cpp:156] Memory required for data: 500958240
I0403 19:47:15.432235 25897 layer_factory.hpp:77] Creating layer inception_3a/3x3_reduce
I0403 19:47:15.432256 25897 net.cpp:91] Creating Layer inception_3a/3x3_reduce
I0403 19:47:15.432274 25897 net.cpp:425] inception_3a/3x3_reduce <- pool2/3x3_s2_pool2/3x3_s2_0_split_1
I0403 19:47:15.432307 25897 net.cpp:399] inception_3a/3x3_reduce -> inception_3a/3x3_reduce
I0403 19:47:15.433977 25897 net.cpp:141] Setting up inception_3a/3x3_reduce
I0403 19:47:15.434012 25897 net.cpp:148] Top shape: 24 96 28 28 (1806336)
I0403 19:47:15.434031 25897 net.cpp:156] Memory required for data: 508183584
I0403 19:47:15.434056 25897 layer_factory.hpp:77] Creating layer inception_3a/relu_3x3_reduce
I0403 19:47:15.434094 25897 net.cpp:91] Creating Layer inception_3a/relu_3x3_reduce
I0403 19:47:15.434114 25897 net.cpp:425] inception_3a/relu_3x3_reduce <- inception_3a/3x3_reduce
I0403 19:47:15.434134 25897 net.cpp:386] inception_3a/relu_3x3_reduce -> inception_3a/3x3_reduce (in-place)
I0403 19:47:15.434329 25897 net.cpp:141] Setting up inception_3a/relu_3x3_reduce
I0403 19:47:15.434360 25897 net.cpp:148] Top shape: 24 96 28 28 (1806336)
I0403 19:47:15.434377 25897 net.cpp:156] Memory required for data: 515408928
I0403 19:47:15.434391 25897 layer_factory.hpp:77] Creating layer inception_3a/3x3
I0403 19:47:15.434417 25897 net.cpp:91] Creating Layer inception_3a/3x3
I0403 19:47:15.434437 25897 net.cpp:425] inception_3a/3x3 <- inception_3a/3x3_reduce
I0403 19:47:15.434460 25897 net.cpp:399] inception_3a/3x3 -> inception_3a/3x3
I0403 19:47:15.436082 25897 net.cpp:141] Setting up inception_3a/3x3
I0403 19:47:15.436116 25897 net.cpp:148] Top shape: 24 128 28 28 (2408448)
I0403 19:47:15.436134 25897 net.cpp:156] Memory required for data: 525042720
I0403 19:47:15.436152 25897 layer_factory.hpp:77] Creating layer inception_3a/relu_3x3
I0403 19:47:15.436174 25897 net.cpp:91] Creating Layer inception_3a/relu_3x3
I0403 19:47:15.436194 25897 net.cpp:425] inception_3a/relu_3x3 <- inception_3a/3x3
I0403 19:47:15.436214 25897 net.cpp:386] inception_3a/relu_3x3 -> inception_3a/3x3 (in-place)
I0403 19:47:15.436488 25897 net.cpp:141] Setting up inception_3a/relu_3x3
I0403 19:47:15.436520 25897 net.cpp:148] Top shape: 24 128 28 28 (2408448)
I0403 19:47:15.436538 25897 net.cpp:156] Memory required for data: 534676512
I0403 19:47:15.436553 25897 layer_factory.hpp:77] Creating layer inception_3a/5x5_reduce
I0403 19:47:15.436578 25897 net.cpp:91] Creating Layer inception_3a/5x5_reduce
I0403 19:47:15.436601 25897 net.cpp:425] inception_3a/5x5_reduce <- pool2/3x3_s2_pool2/3x3_s2_0_split_2
I0403 19:47:15.436622 25897 net.cpp:399] inception_3a/5x5_reduce -> inception_3a/5x5_reduce
I0403 19:47:15.437587 25897 net.cpp:141] Setting up inception_3a/5x5_reduce
I0403 19:47:15.437618 25897 net.cpp:148] Top shape: 24 16 28 28 (301056)
I0403 19:47:15.437634 25897 net.cpp:156] Memory required for data: 535880736
I0403 19:47:15.437654 25897 layer_factory.hpp:77] Creating layer inception_3a/relu_5x5_reduce
I0403 19:47:15.437675 25897 net.cpp:91] Creating Layer inception_3a/relu_5x5_reduce
I0403 19:47:15.437695 25897 net.cpp:425] inception_3a/relu_5x5_reduce <- inception_3a/5x5_reduce
I0403 19:47:15.437714 25897 net.cpp:386] inception_3a/relu_5x5_reduce -> inception_3a/5x5_reduce (in-place)
I0403 19:47:15.437981 25897 net.cpp:141] Setting up inception_3a/relu_5x5_reduce
I0403 19:47:15.438015 25897 net.cpp:148] Top shape: 24 16 28 28 (301056)
I0403 19:47:15.438032 25897 net.cpp:156] Memory required for data: 537084960
I0403 19:47:15.438050 25897 layer_factory.hpp:77] Creating layer inception_3a/5x5
I0403 19:47:15.438072 25897 net.cpp:91] Creating Layer inception_3a/5x5
I0403 19:47:15.438089 25897 net.cpp:425] inception_3a/5x5 <- inception_3a/5x5_reduce
I0403 19:47:15.438108 25897 net.cpp:399] inception_3a/5x5 -> inception_3a/5x5
I0403 19:47:15.439085 25897 net.cpp:141] Setting up inception_3a/5x5
I0403 19:47:15.439116 25897 net.cpp:148] Top shape: 24 32 28 28 (602112)
I0403 19:47:15.439132 25897 net.cpp:156] Memory required for data: 539493408
I0403 19:47:15.439152 25897 layer_factory.hpp:77] Creating layer inception_3a/relu_5x5
I0403 19:47:15.439173 25897 net.cpp:91] Creating Layer inception_3a/relu_5x5
I0403 19:47:15.439191 25897 net.cpp:425] inception_3a/relu_5x5 <- inception_3a/5x5
I0403 19:47:15.439209 25897 net.cpp:386] inception_3a/relu_5x5 -> inception_3a/5x5 (in-place)
I0403 19:47:15.439381 25897 net.cpp:141] Setting up inception_3a/relu_5x5
I0403 19:47:15.439412 25897 net.cpp:148] Top shape: 24 32 28 28 (602112)
I0403 19:47:15.439430 25897 net.cpp:156] Memory required for data: 541901856
I0403 19:47:15.439447 25897 layer_factory.hpp:77] Creating layer inception_3a/pool
I0403 19:47:15.439466 25897 net.cpp:91] Creating Layer inception_3a/pool
I0403 19:47:15.439498 25897 net.cpp:425] inception_3a/pool <- pool2/3x3_s2_pool2/3x3_s2_0_split_3
I0403 19:47:15.439518 25897 net.cpp:399] inception_3a/pool -> inception_3a/pool
I0403 19:47:15.439580 25897 net.cpp:141] Setting up inception_3a/pool
I0403 19:47:15.439610 25897 net.cpp:148] Top shape: 24 192 28 28 (3612672)
I0403 19:47:15.439626 25897 net.cpp:156] Memory required for data: 556352544
I0403 19:47:15.439643 25897 layer_factory.hpp:77] Creating layer inception_3a/pool_proj
I0403 19:47:15.439668 25897 net.cpp:91] Creating Layer inception_3a/pool_proj
I0403 19:47:15.439689 25897 net.cpp:425] inception_3a/pool_proj <- inception_3a/pool
I0403 19:47:15.439713 25897 net.cpp:399] inception_3a/pool_proj -> inception_3a/pool_proj
I0403 19:47:15.440649 25897 net.cpp:141] Setting up inception_3a/pool_proj
I0403 19:47:15.440680 25897 net.cpp:148] Top shape: 24 32 28 28 (602112)
I0403 19:47:15.440696 25897 net.cpp:156] Memory required for data: 558760992
I0403 19:47:15.440718 25897 layer_factory.hpp:77] Creating layer inception_3a/relu_pool_proj
I0403 19:47:15.440742 25897 net.cpp:91] Creating Layer inception_3a/relu_pool_proj
I0403 19:47:15.440760 25897 net.cpp:425] inception_3a/relu_pool_proj <- inception_3a/pool_proj
I0403 19:47:15.440779 25897 net.cpp:386] inception_3a/relu_pool_proj -> inception_3a/pool_proj (in-place)
I0403 19:47:15.441054 25897 net.cpp:141] Setting up inception_3a/relu_pool_proj
I0403 19:47:15.441087 25897 net.cpp:148] Top shape: 24 32 28 28 (602112)
I0403 19:47:15.441103 25897 net.cpp:156] Memory required for data: 561169440
I0403 19:47:15.441118 25897 layer_factory.hpp:77] Creating layer inception_3a/output
I0403 19:47:15.441138 25897 net.cpp:91] Creating Layer inception_3a/output
I0403 19:47:15.441156 25897 net.cpp:425] inception_3a/output <- inception_3a/1x1
I0403 19:47:15.441174 25897 net.cpp:425] inception_3a/output <- inception_3a/3x3
I0403 19:47:15.441192 25897 net.cpp:425] inception_3a/output <- inception_3a/5x5
I0403 19:47:15.441210 25897 net.cpp:425] inception_3a/output <- inception_3a/pool_proj
I0403 19:47:15.441226 25897 net.cpp:399] inception_3a/output -> inception_3a/output
I0403 19:47:15.441274 25897 net.cpp:141] Setting up inception_3a/output
I0403 19:47:15.441305 25897 net.cpp:148] Top shape: 24 256 28 28 (4816896)
I0403 19:47:15.441323 25897 net.cpp:156] Memory required for data: 580437024
I0403 19:47:15.441337 25897 layer_factory.hpp:77] Creating layer inception_3a/output_inception_3a/output_0_split
I0403 19:47:15.441356 25897 net.cpp:91] Creating Layer inception_3a/output_inception_3a/output_0_split
I0403 19:47:15.441375 25897 net.cpp:425] inception_3a/output_inception_3a/output_0_split <- inception_3a/output
I0403 19:47:15.441395 25897 net.cpp:399] inception_3a/output_inception_3a/output_0_split -> inception_3a/output_inception_3a/output_0_split_0
I0403 19:47:15.441419 25897 net.cpp:399] inception_3a/output_inception_3a/output_0_split -> inception_3a/output_inception_3a/output_0_split_1
I0403 19:47:15.441445 25897 net.cpp:399] inception_3a/output_inception_3a/output_0_split -> inception_3a/output_inception_3a/output_0_split_2
I0403 19:47:15.441471 25897 net.cpp:399] inception_3a/output_inception_3a/output_0_split -> inception_3a/output_inception_3a/output_0_split_3
I0403 19:47:15.441556 25897 net.cpp:141] Setting up inception_3a/output_inception_3a/output_0_split
I0403 19:47:15.441584 25897 net.cpp:148] Top shape: 24 256 28 28 (4816896)
I0403 19:47:15.441602 25897 net.cpp:148] Top shape: 24 256 28 28 (4816896)
I0403 19:47:15.441619 25897 net.cpp:148] Top shape: 24 256 28 28 (4816896)
I0403 19:47:15.441633 25897 net.cpp:148] Top shape: 24 256 28 28 (4816896)
I0403 19:47:15.441648 25897 net.cpp:156] Memory required for data: 657507360
I0403 19:47:15.441664 25897 layer_factory.hpp:77] Creating layer inception_3b/1x1
I0403 19:47:15.441687 25897 net.cpp:91] Creating Layer inception_3b/1x1
I0403 19:47:15.441707 25897 net.cpp:425] inception_3b/1x1 <- inception_3a/output_inception_3a/output_0_split_0
I0403 19:47:15.441730 25897 net.cpp:399] inception_3b/1x1 -> inception_3b/1x1
I0403 19:47:15.442811 25897 net.cpp:141] Setting up inception_3b/1x1
I0403 19:47:15.442852 25897 net.cpp:148] Top shape: 24 128 28 28 (2408448)
I0403 19:47:15.442869 25897 net.cpp:156] Memory required for data: 667141152
I0403 19:47:15.442889 25897 layer_factory.hpp:77] Creating layer inception_3b/relu_1x1
I0403 19:47:15.442911 25897 net.cpp:91] Creating Layer inception_3b/relu_1x1
I0403 19:47:15.442930 25897 net.cpp:425] inception_3b/relu_1x1 <- inception_3b/1x1
I0403 19:47:15.442947 25897 net.cpp:386] inception_3b/relu_1x1 -> inception_3b/1x1 (in-place)
I0403 19:47:15.443114 25897 net.cpp:141] Setting up inception_3b/relu_1x1
I0403 19:47:15.443141 25897 net.cpp:148] Top shape: 24 128 28 28 (2408448)
I0403 19:47:15.443158 25897 net.cpp:156] Memory required for data: 676774944
I0403 19:47:15.443176 25897 layer_factory.hpp:77] Creating layer inception_3b/3x3_reduce
I0403 19:47:15.443199 25897 net.cpp:91] Creating Layer inception_3b/3x3_reduce
I0403 19:47:15.443222 25897 net.cpp:425] inception_3b/3x3_reduce <- inception_3a/output_inception_3a/output_0_split_1
I0403 19:47:15.443240 25897 net.cpp:399] inception_3b/3x3_reduce -> inception_3b/3x3_reduce
I0403 19:47:15.444316 25897 net.cpp:141] Setting up inception_3b/3x3_reduce
I0403 19:47:15.444346 25897 net.cpp:148] Top shape: 24 128 28 28 (2408448)
I0403 19:47:15.444365 25897 net.cpp:156] Memory required for data: 686408736
I0403 19:47:15.444383 25897 layer_factory.hpp:77] Creating layer inception_3b/relu_3x3_reduce
I0403 19:47:15.444401 25897 net.cpp:91] Creating Layer inception_3b/relu_3x3_reduce
I0403 19:47:15.444419 25897 net.cpp:425] inception_3b/relu_3x3_reduce <- inception_3b/3x3_reduce
I0403 19:47:15.444438 25897 net.cpp:386] inception_3b/relu_3x3_reduce -> inception_3b/3x3_reduce (in-place)
I0403 19:47:15.444612 25897 net.cpp:141] Setting up inception_3b/relu_3x3_reduce
I0403 19:47:15.444638 25897 net.cpp:148] Top shape: 24 128 28 28 (2408448)
I0403 19:47:15.444653 25897 net.cpp:156] Memory required for data: 696042528
I0403 19:47:15.444667 25897 layer_factory.hpp:77] Creating layer inception_3b/3x3
I0403 19:47:15.444694 25897 net.cpp:91] Creating Layer inception_3b/3x3
I0403 19:47:15.444712 25897 net.cpp:425] inception_3b/3x3 <- inception_3b/3x3_reduce
I0403 19:47:15.444733 25897 net.cpp:399] inception_3b/3x3 -> inception_3b/3x3
I0403 19:47:15.447468 25897 net.cpp:141] Setting up inception_3b/3x3
I0403 19:47:15.447500 25897 net.cpp:148] Top shape: 24 192 28 28 (3612672)
I0403 19:47:15.447517 25897 net.cpp:156] Memory required for data: 710493216
I0403 19:47:15.447535 25897 layer_factory.hpp:77] Creating layer inception_3b/relu_3x3
I0403 19:47:15.447568 25897 net.cpp:91] Creating Layer inception_3b/relu_3x3
I0403 19:47:15.447587 25897 net.cpp:425] inception_3b/relu_3x3 <- inception_3b/3x3
I0403 19:47:15.447607 25897 net.cpp:386] inception_3b/relu_3x3 -> inception_3b/3x3 (in-place)
I0403 19:47:15.447878 25897 net.cpp:141] Setting up inception_3b/relu_3x3
I0403 19:47:15.447906 25897 net.cpp:148] Top shape: 24 192 28 28 (3612672)
I0403 19:47:15.447921 25897 net.cpp:156] Memory required for data: 724943904
I0403 19:47:15.447937 25897 layer_factory.hpp:77] Creating layer inception_3b/5x5_reduce
I0403 19:47:15.447960 25897 net.cpp:91] Creating Layer inception_3b/5x5_reduce
I0403 19:47:15.447978 25897 net.cpp:425] inception_3b/5x5_reduce <- inception_3a/output_inception_3a/output_0_split_2
I0403 19:47:15.447999 25897 net.cpp:399] inception_3b/5x5_reduce -> inception_3b/5x5_reduce
I0403 19:47:15.448946 25897 net.cpp:141] Setting up inception_3b/5x5_reduce
I0403 19:47:15.448974 25897 net.cpp:148] Top shape: 24 32 28 28 (602112)
I0403 19:47:15.448990 25897 net.cpp:156] Memory required for data: 727352352
I0403 19:47:15.449009 25897 layer_factory.hpp:77] Creating layer inception_3b/relu_5x5_reduce
I0403 19:47:15.449030 25897 net.cpp:91] Creating Layer inception_3b/relu_5x5_reduce
I0403 19:47:15.449049 25897 net.cpp:425] inception_3b/relu_5x5_reduce <- inception_3b/5x5_reduce
I0403 19:47:15.449066 25897 net.cpp:386] inception_3b/relu_5x5_reduce -> inception_3b/5x5_reduce (in-place)
I0403 19:47:15.449259 25897 net.cpp:141] Setting up inception_3b/relu_5x5_reduce
I0403 19:47:15.449292 25897 net.cpp:148] Top shape: 24 32 28 28 (602112)
I0403 19:47:15.449311 25897 net.cpp:156] Memory required for data: 729760800
I0403 19:47:15.449326 25897 layer_factory.hpp:77] Creating layer inception_3b/5x5
I0403 19:47:15.449349 25897 net.cpp:91] Creating Layer inception_3b/5x5
I0403 19:47:15.449368 25897 net.cpp:425] inception_3b/5x5 <- inception_3b/5x5_reduce
I0403 19:47:15.449386 25897 net.cpp:399] inception_3b/5x5 -> inception_3b/5x5
I0403 19:47:15.451223 25897 net.cpp:141] Setting up inception_3b/5x5
I0403 19:47:15.451252 25897 net.cpp:148] Top shape: 24 96 28 28 (1806336)
I0403 19:47:15.451272 25897 net.cpp:156] Memory required for data: 736986144
I0403 19:47:15.451294 25897 layer_factory.hpp:77] Creating layer inception_3b/relu_5x5
I0403 19:47:15.451315 25897 net.cpp:91] Creating Layer inception_3b/relu_5x5
I0403 19:47:15.451333 25897 net.cpp:425] inception_3b/relu_5x5 <- inception_3b/5x5
I0403 19:47:15.451354 25897 net.cpp:386] inception_3b/relu_5x5 -> inception_3b/5x5 (in-place)
I0403 19:47:15.451534 25897 net.cpp:141] Setting up inception_3b/relu_5x5
I0403 19:47:15.451560 25897 net.cpp:148] Top shape: 24 96 28 28 (1806336)
I0403 19:47:15.451575 25897 net.cpp:156] Memory required for data: 744211488
I0403 19:47:15.451591 25897 layer_factory.hpp:77] Creating layer inception_3b/pool
I0403 19:47:15.451609 25897 net.cpp:91] Creating Layer inception_3b/pool
I0403 19:47:15.451625 25897 net.cpp:425] inception_3b/pool <- inception_3a/output_inception_3a/output_0_split_3
I0403 19:47:15.451643 25897 net.cpp:399] inception_3b/pool -> inception_3b/pool
I0403 19:47:15.451696 25897 net.cpp:141] Setting up inception_3b/pool
I0403 19:47:15.451720 25897 net.cpp:148] Top shape: 24 256 28 28 (4816896)
I0403 19:47:15.451736 25897 net.cpp:156] Memory required for data: 763479072
I0403 19:47:15.451750 25897 layer_factory.hpp:77] Creating layer inception_3b/pool_proj
I0403 19:47:15.451773 25897 net.cpp:91] Creating Layer inception_3b/pool_proj
I0403 19:47:15.451792 25897 net.cpp:425] inception_3b/pool_proj <- inception_3b/pool
I0403 19:47:15.451813 25897 net.cpp:399] inception_3b/pool_proj -> inception_3b/pool_proj
I0403 19:47:15.452792 25897 net.cpp:141] Setting up inception_3b/pool_proj
I0403 19:47:15.452822 25897 net.cpp:148] Top shape: 24 64 28 28 (1204224)
I0403 19:47:15.452841 25897 net.cpp:156] Memory required for data: 768295968
I0403 19:47:15.452859 25897 layer_factory.hpp:77] Creating layer inception_3b/relu_pool_proj
I0403 19:47:15.452877 25897 net.cpp:91] Creating Layer inception_3b/relu_pool_proj
I0403 19:47:15.452893 25897 net.cpp:425] inception_3b/relu_pool_proj <- inception_3b/pool_proj
I0403 19:47:15.452913 25897 net.cpp:386] inception_3b/relu_pool_proj -> inception_3b/pool_proj (in-place)
I0403 19:47:15.453266 25897 net.cpp:141] Setting up inception_3b/relu_pool_proj
I0403 19:47:15.453299 25897 net.cpp:148] Top shape: 24 64 28 28 (1204224)
I0403 19:47:15.453317 25897 net.cpp:156] Memory required for data: 773112864
I0403 19:47:15.453332 25897 layer_factory.hpp:77] Creating layer inception_3b/output
I0403 19:47:15.453352 25897 net.cpp:91] Creating Layer inception_3b/output
I0403 19:47:15.453371 25897 net.cpp:425] inception_3b/output <- inception_3b/1x1
I0403 19:47:15.453388 25897 net.cpp:425] inception_3b/output <- inception_3b/3x3
I0403 19:47:15.453405 25897 net.cpp:425] inception_3b/output <- inception_3b/5x5
I0403 19:47:15.453421 25897 net.cpp:425] inception_3b/output <- inception_3b/pool_proj
I0403 19:47:15.453438 25897 net.cpp:399] inception_3b/output -> inception_3b/output
I0403 19:47:15.453482 25897 net.cpp:141] Setting up inception_3b/output
I0403 19:47:15.453507 25897 net.cpp:148] Top shape: 24 480 28 28 (9031680)
I0403 19:47:15.453522 25897 net.cpp:156] Memory required for data: 809239584
I0403 19:47:15.453538 25897 layer_factory.hpp:77] Creating layer pool3/3x3_s2
I0403 19:47:15.453559 25897 net.cpp:91] Creating Layer pool3/3x3_s2
I0403 19:47:15.453577 25897 net.cpp:425] pool3/3x3_s2 <- inception_3b/output
I0403 19:47:15.453610 25897 net.cpp:399] pool3/3x3_s2 -> pool3/3x3_s2
I0403 19:47:15.453670 25897 net.cpp:141] Setting up pool3/3x3_s2
I0403 19:47:15.453694 25897 net.cpp:148] Top shape: 24 480 14 14 (2257920)
I0403 19:47:15.453711 25897 net.cpp:156] Memory required for data: 818271264
I0403 19:47:15.453727 25897 layer_factory.hpp:77] Creating layer pool3/3x3_s2_pool3/3x3_s2_0_split
I0403 19:47:15.453744 25897 net.cpp:91] Creating Layer pool3/3x3_s2_pool3/3x3_s2_0_split
I0403 19:47:15.453760 25897 net.cpp:425] pool3/3x3_s2_pool3/3x3_s2_0_split <- pool3/3x3_s2
I0403 19:47:15.453779 25897 net.cpp:399] pool3/3x3_s2_pool3/3x3_s2_0_split -> pool3/3x3_s2_pool3/3x3_s2_0_split_0
I0403 19:47:15.453800 25897 net.cpp:399] pool3/3x3_s2_pool3/3x3_s2_0_split -> pool3/3x3_s2_pool3/3x3_s2_0_split_1
I0403 19:47:15.453824 25897 net.cpp:399] pool3/3x3_s2_pool3/3x3_s2_0_split -> pool3/3x3_s2_pool3/3x3_s2_0_split_2
I0403 19:47:15.453843 25897 net.cpp:399] pool3/3x3_s2_pool3/3x3_s2_0_split -> pool3/3x3_s2_pool3/3x3_s2_0_split_3
I0403 19:47:15.453913 25897 net.cpp:141] Setting up pool3/3x3_s2_pool3/3x3_s2_0_split
I0403 19:47:15.453940 25897 net.cpp:148] Top shape: 24 480 14 14 (2257920)
I0403 19:47:15.453958 25897 net.cpp:148] Top shape: 24 480 14 14 (2257920)
I0403 19:47:15.453974 25897 net.cpp:148] Top shape: 24 480 14 14 (2257920)
I0403 19:47:15.453989 25897 net.cpp:148] Top shape: 24 480 14 14 (2257920)
I0403 19:47:15.454002 25897 net.cpp:156] Memory required for data: 854397984
I0403 19:47:15.454018 25897 layer_factory.hpp:77] Creating layer inception_4a/1x1
I0403 19:47:15.454040 25897 net.cpp:91] Creating Layer inception_4a/1x1
I0403 19:47:15.454059 25897 net.cpp:425] inception_4a/1x1 <- pool3/3x3_s2_pool3/3x3_s2_0_split_0
I0403 19:47:15.454078 25897 net.cpp:399] inception_4a/1x1 -> inception_4a/1x1
I0403 19:47:15.455559 25897 net.cpp:141] Setting up inception_4a/1x1
I0403 19:47:15.455588 25897 net.cpp:148] Top shape: 24 192 14 14 (903168)
I0403 19:47:15.455605 25897 net.cpp:156] Memory required for data: 858010656
I0403 19:47:15.455622 25897 layer_factory.hpp:77] Creating layer inception_4a/relu_1x1
I0403 19:47:15.455639 25897 net.cpp:91] Creating Layer inception_4a/relu_1x1
I0403 19:47:15.455657 25897 net.cpp:425] inception_4a/relu_1x1 <- inception_4a/1x1
I0403 19:47:15.455677 25897 net.cpp:386] inception_4a/relu_1x1 -> inception_4a/1x1 (in-place)
I0403 19:47:15.455840 25897 net.cpp:141] Setting up inception_4a/relu_1x1
I0403 19:47:15.455868 25897 net.cpp:148] Top shape: 24 192 14 14 (903168)
I0403 19:47:15.455883 25897 net.cpp:156] Memory required for data: 861623328
I0403 19:47:15.455898 25897 layer_factory.hpp:77] Creating layer inception_4a/3x3_reduce
I0403 19:47:15.455919 25897 net.cpp:91] Creating Layer inception_4a/3x3_reduce
I0403 19:47:15.455936 25897 net.cpp:425] inception_4a/3x3_reduce <- pool3/3x3_s2_pool3/3x3_s2_0_split_1
I0403 19:47:15.455958 25897 net.cpp:399] inception_4a/3x3_reduce -> inception_4a/3x3_reduce
I0403 19:47:15.457151 25897 net.cpp:141] Setting up inception_4a/3x3_reduce
I0403 19:47:15.457183 25897 net.cpp:148] Top shape: 24 96 14 14 (451584)
I0403 19:47:15.457202 25897 net.cpp:156] Memory required for data: 863429664
I0403 19:47:15.457226 25897 layer_factory.hpp:77] Creating layer inception_4a/relu_3x3_reduce
I0403 19:47:15.457248 25897 net.cpp:91] Creating Layer inception_4a/relu_3x3_reduce
I0403 19:47:15.457267 25897 net.cpp:425] inception_4a/relu_3x3_reduce <- inception_4a/3x3_reduce
I0403 19:47:15.457283 25897 net.cpp:386] inception_4a/relu_3x3_reduce -> inception_4a/3x3_reduce (in-place)
I0403 19:47:15.457459 25897 net.cpp:141] Setting up inception_4a/relu_3x3_reduce
I0403 19:47:15.457485 25897 net.cpp:148] Top shape: 24 96 14 14 (451584)
I0403 19:47:15.457500 25897 net.cpp:156] Memory required for data: 865236000
I0403 19:47:15.457515 25897 layer_factory.hpp:77] Creating layer inception_4a/3x3
I0403 19:47:15.457537 25897 net.cpp:91] Creating Layer inception_4a/3x3
I0403 19:47:15.457556 25897 net.cpp:425] inception_4a/3x3 <- inception_4a/3x3_reduce
I0403 19:47:15.457576 25897 net.cpp:399] inception_4a/3x3 -> inception_4a/3x3
I0403 19:47:15.460057 25897 net.cpp:141] Setting up inception_4a/3x3
I0403 19:47:15.460088 25897 net.cpp:148] Top shape: 24 208 14 14 (978432)
I0403 19:47:15.460104 25897 net.cpp:156] Memory required for data: 869149728
I0403 19:47:15.460121 25897 layer_factory.hpp:77] Creating layer inception_4a/relu_3x3
I0403 19:47:15.460142 25897 net.cpp:91] Creating Layer inception_4a/relu_3x3
I0403 19:47:15.460161 25897 net.cpp:425] inception_4a/relu_3x3 <- inception_4a/3x3
I0403 19:47:15.460178 25897 net.cpp:386] inception_4a/relu_3x3 -> inception_4a/3x3 (in-place)
I0403 19:47:15.460440 25897 net.cpp:141] Setting up inception_4a/relu_3x3
I0403 19:47:15.460469 25897 net.cpp:148] Top shape: 24 208 14 14 (978432)
I0403 19:47:15.460484 25897 net.cpp:156] Memory required for data: 873063456
I0403 19:47:15.460500 25897 layer_factory.hpp:77] Creating layer inception_4a/5x5_reduce
I0403 19:47:15.460522 25897 net.cpp:91] Creating Layer inception_4a/5x5_reduce
I0403 19:47:15.460539 25897 net.cpp:425] inception_4a/5x5_reduce <- pool3/3x3_s2_pool3/3x3_s2_0_split_2
I0403 19:47:15.460561 25897 net.cpp:399] inception_4a/5x5_reduce -> inception_4a/5x5_reduce
I0403 19:47:15.461511 25897 net.cpp:141] Setting up inception_4a/5x5_reduce
I0403 19:47:15.461539 25897 net.cpp:148] Top shape: 24 16 14 14 (75264)
I0403 19:47:15.461555 25897 net.cpp:156] Memory required for data: 873364512
I0403 19:47:15.461573 25897 layer_factory.hpp:77] Creating layer inception_4a/relu_5x5_reduce
I0403 19:47:15.461593 25897 net.cpp:91] Creating Layer inception_4a/relu_5x5_reduce
I0403 19:47:15.461612 25897 net.cpp:425] inception_4a/relu_5x5_reduce <- inception_4a/5x5_reduce
I0403 19:47:15.461628 25897 net.cpp:386] inception_4a/relu_5x5_reduce -> inception_4a/5x5_reduce (in-place)
I0403 19:47:15.461791 25897 net.cpp:141] Setting up inception_4a/relu_5x5_reduce
I0403 19:47:15.461820 25897 net.cpp:148] Top shape: 24 16 14 14 (75264)
I0403 19:47:15.461836 25897 net.cpp:156] Memory required for data: 873665568
I0403 19:47:15.461851 25897 layer_factory.hpp:77] Creating layer inception_4a/5x5
I0403 19:47:15.461874 25897 net.cpp:91] Creating Layer inception_4a/5x5
I0403 19:47:15.461892 25897 net.cpp:425] inception_4a/5x5 <- inception_4a/5x5_reduce
I0403 19:47:15.461910 25897 net.cpp:399] inception_4a/5x5 -> inception_4a/5x5
I0403 19:47:15.462918 25897 net.cpp:141] Setting up inception_4a/5x5
I0403 19:47:15.462951 25897 net.cpp:148] Top shape: 24 48 14 14 (225792)
I0403 19:47:15.462968 25897 net.cpp:156] Memory required for data: 874568736
I0403 19:47:15.462986 25897 layer_factory.hpp:77] Creating layer inception_4a/relu_5x5
I0403 19:47:15.463006 25897 net.cpp:91] Creating Layer inception_4a/relu_5x5
I0403 19:47:15.463021 25897 net.cpp:425] inception_4a/relu_5x5 <- inception_4a/5x5
I0403 19:47:15.463040 25897 net.cpp:386] inception_4a/relu_5x5 -> inception_4a/5x5 (in-place)
I0403 19:47:15.463207 25897 net.cpp:141] Setting up inception_4a/relu_5x5
I0403 19:47:15.463233 25897 net.cpp:148] Top shape: 24 48 14 14 (225792)
I0403 19:47:15.463249 25897 net.cpp:156] Memory required for data: 875471904
I0403 19:47:15.463264 25897 layer_factory.hpp:77] Creating layer inception_4a/pool
I0403 19:47:15.463282 25897 net.cpp:91] Creating Layer inception_4a/pool
I0403 19:47:15.463306 25897 net.cpp:425] inception_4a/pool <- pool3/3x3_s2_pool3/3x3_s2_0_split_3
I0403 19:47:15.463326 25897 net.cpp:399] inception_4a/pool -> inception_4a/pool
I0403 19:47:15.463384 25897 net.cpp:141] Setting up inception_4a/pool
I0403 19:47:15.463410 25897 net.cpp:148] Top shape: 24 480 14 14 (2257920)
I0403 19:47:15.463425 25897 net.cpp:156] Memory required for data: 884503584
I0403 19:47:15.463438 25897 layer_factory.hpp:77] Creating layer inception_4a/pool_proj
I0403 19:47:15.463461 25897 net.cpp:91] Creating Layer inception_4a/pool_proj
I0403 19:47:15.463479 25897 net.cpp:425] inception_4a/pool_proj <- inception_4a/pool
I0403 19:47:15.463497 25897 net.cpp:399] inception_4a/pool_proj -> inception_4a/pool_proj
I0403 19:47:15.464618 25897 net.cpp:141] Setting up inception_4a/pool_proj
I0403 19:47:15.464648 25897 net.cpp:148] Top shape: 24 64 14 14 (301056)
I0403 19:47:15.464679 25897 net.cpp:156] Memory required for data: 885707808
I0403 19:47:15.464699 25897 layer_factory.hpp:77] Creating layer inception_4a/relu_pool_proj
I0403 19:47:15.464718 25897 net.cpp:91] Creating Layer inception_4a/relu_pool_proj
I0403 19:47:15.464733 25897 net.cpp:425] inception_4a/relu_pool_proj <- inception_4a/pool_proj
I0403 19:47:15.464756 25897 net.cpp:386] inception_4a/relu_pool_proj -> inception_4a/pool_proj (in-place)
I0403 19:47:15.465018 25897 net.cpp:141] Setting up inception_4a/relu_pool_proj
I0403 19:47:15.465045 25897 net.cpp:148] Top shape: 24 64 14 14 (301056)
I0403 19:47:15.465062 25897 net.cpp:156] Memory required for data: 886912032
I0403 19:47:15.465076 25897 layer_factory.hpp:77] Creating layer inception_4a/output
I0403 19:47:15.465093 25897 net.cpp:91] Creating Layer inception_4a/output
I0403 19:47:15.465109 25897 net.cpp:425] inception_4a/output <- inception_4a/1x1
I0403 19:47:15.465126 25897 net.cpp:425] inception_4a/output <- inception_4a/3x3
I0403 19:47:15.465142 25897 net.cpp:425] inception_4a/output <- inception_4a/5x5
I0403 19:47:15.465157 25897 net.cpp:425] inception_4a/output <- inception_4a/pool_proj
I0403 19:47:15.465174 25897 net.cpp:399] inception_4a/output -> inception_4a/output
I0403 19:47:15.465217 25897 net.cpp:141] Setting up inception_4a/output
I0403 19:47:15.465241 25897 net.cpp:148] Top shape: 24 512 14 14 (2408448)
I0403 19:47:15.465256 25897 net.cpp:156] Memory required for data: 896545824
I0403 19:47:15.465271 25897 layer_factory.hpp:77] Creating layer inception_4a/output_inception_4a/output_0_split
I0403 19:47:15.465296 25897 net.cpp:91] Creating Layer inception_4a/output_inception_4a/output_0_split
I0403 19:47:15.465314 25897 net.cpp:425] inception_4a/output_inception_4a/output_0_split <- inception_4a/output
I0403 19:47:15.465333 25897 net.cpp:399] inception_4a/output_inception_4a/output_0_split -> inception_4a/output_inception_4a/output_0_split_0
I0403 19:47:15.465355 25897 net.cpp:399] inception_4a/output_inception_4a/output_0_split -> inception_4a/output_inception_4a/output_0_split_1
I0403 19:47:15.465378 25897 net.cpp:399] inception_4a/output_inception_4a/output_0_split -> inception_4a/output_inception_4a/output_0_split_2
I0403 19:47:15.465399 25897 net.cpp:399] inception_4a/output_inception_4a/output_0_split -> inception_4a/output_inception_4a/output_0_split_3
I0403 19:47:15.465420 25897 net.cpp:399] inception_4a/output_inception_4a/output_0_split -> inception_4a/output_inception_4a/output_0_split_4
I0403 19:47:15.465507 25897 net.cpp:141] Setting up inception_4a/output_inception_4a/output_0_split
I0403 19:47:15.465530 25897 net.cpp:148] Top shape: 24 512 14 14 (2408448)
I0403 19:47:15.465546 25897 net.cpp:148] Top shape: 24 512 14 14 (2408448)
I0403 19:47:15.465561 25897 net.cpp:148] Top shape: 24 512 14 14 (2408448)
I0403 19:47:15.465577 25897 net.cpp:148] Top shape: 24 512 14 14 (2408448)
I0403 19:47:15.465592 25897 net.cpp:148] Top shape: 24 512 14 14 (2408448)
I0403 19:47:15.465605 25897 net.cpp:156] Memory required for data: 944714784
I0403 19:47:15.465620 25897 layer_factory.hpp:77] Creating layer loss1/ave_pool
I0403 19:47:15.465637 25897 net.cpp:91] Creating Layer loss1/ave_pool
I0403 19:47:15.465654 25897 net.cpp:425] loss1/ave_pool <- inception_4a/output_inception_4a/output_0_split_0
I0403 19:47:15.465672 25897 net.cpp:399] loss1/ave_pool -> loss1/ave_pool
I0403 19:47:15.465896 25897 net.cpp:141] Setting up loss1/ave_pool
I0403 19:47:15.465924 25897 net.cpp:148] Top shape: 24 512 4 4 (196608)
I0403 19:47:15.465942 25897 net.cpp:156] Memory required for data: 945501216
I0403 19:47:15.465956 25897 layer_factory.hpp:77] Creating layer loss1/conv
I0403 19:47:15.465978 25897 net.cpp:91] Creating Layer loss1/conv
I0403 19:47:15.465996 25897 net.cpp:425] loss1/conv <- loss1/ave_pool
I0403 19:47:15.466014 25897 net.cpp:399] loss1/conv -> loss1/conv
I0403 19:47:15.467350 25897 net.cpp:141] Setting up loss1/conv
I0403 19:47:15.467381 25897 net.cpp:148] Top shape: 24 128 4 4 (49152)
I0403 19:47:15.467413 25897 net.cpp:156] Memory required for data: 945697824
I0403 19:47:15.467433 25897 layer_factory.hpp:77] Creating layer loss1/relu_conv
I0403 19:47:15.467458 25897 net.cpp:91] Creating Layer loss1/relu_conv
I0403 19:47:15.467475 25897 net.cpp:425] loss1/relu_conv <- loss1/conv
I0403 19:47:15.467492 25897 net.cpp:386] loss1/relu_conv -> loss1/conv (in-place)
I0403 19:47:15.467756 25897 net.cpp:141] Setting up loss1/relu_conv
I0403 19:47:15.467785 25897 net.cpp:148] Top shape: 24 128 4 4 (49152)
I0403 19:47:15.467802 25897 net.cpp:156] Memory required for data: 945894432
I0403 19:47:15.467816 25897 layer_factory.hpp:77] Creating layer loss1/fc
I0403 19:47:15.467846 25897 net.cpp:91] Creating Layer loss1/fc
I0403 19:47:15.467865 25897 net.cpp:425] loss1/fc <- loss1/conv
I0403 19:47:15.467885 25897 net.cpp:399] loss1/fc -> loss1/fc
I0403 19:47:15.484838 25897 net.cpp:141] Setting up loss1/fc
I0403 19:47:15.484874 25897 net.cpp:148] Top shape: 24 1024 (24576)
I0403 19:47:15.484889 25897 net.cpp:156] Memory required for data: 945992736
I0403 19:47:15.484907 25897 layer_factory.hpp:77] Creating layer loss1/relu_fc
I0403 19:47:15.484927 25897 net.cpp:91] Creating Layer loss1/relu_fc
I0403 19:47:15.484946 25897 net.cpp:425] loss1/relu_fc <- loss1/fc
I0403 19:47:15.484964 25897 net.cpp:386] loss1/relu_fc -> loss1/fc (in-place)
I0403 19:47:15.485137 25897 net.cpp:141] Setting up loss1/relu_fc
I0403 19:47:15.485164 25897 net.cpp:148] Top shape: 24 1024 (24576)
I0403 19:47:15.485179 25897 net.cpp:156] Memory required for data: 946091040
I0403 19:47:15.485194 25897 layer_factory.hpp:77] Creating layer loss1/drop_fc
I0403 19:47:15.485220 25897 net.cpp:91] Creating Layer loss1/drop_fc
I0403 19:47:15.485239 25897 net.cpp:425] loss1/drop_fc <- loss1/fc
I0403 19:47:15.485260 25897 net.cpp:386] loss1/drop_fc -> loss1/fc (in-place)
I0403 19:47:15.485316 25897 net.cpp:141] Setting up loss1/drop_fc
I0403 19:47:15.485345 25897 net.cpp:148] Top shape: 24 1024 (24576)
I0403 19:47:15.485362 25897 net.cpp:156] Memory required for data: 946189344
I0403 19:47:15.485378 25897 layer_factory.hpp:77] Creating layer loss1/classifier_plantvillage
I0403 19:47:15.485397 25897 net.cpp:91] Creating Layer loss1/classifier_plantvillage
I0403 19:47:15.485414 25897 net.cpp:425] loss1/classifier_plantvillage <- loss1/fc
I0403 19:47:15.485435 25897 net.cpp:399] loss1/classifier_plantvillage -> loss1/classifier_plantvillage
I0403 19:47:15.486323 25897 net.cpp:141] Setting up loss1/classifier_plantvillage
I0403 19:47:15.486353 25897 net.cpp:148] Top shape: 24 38 (912)
I0403 19:47:15.486371 25897 net.cpp:156] Memory required for data: 946192992
I0403 19:47:15.486387 25897 layer_factory.hpp:77] Creating layer loss1/classifier_plantvillage_loss1/classifier_plantvillage_0_split
I0403 19:47:15.486405 25897 net.cpp:91] Creating Layer loss1/classifier_plantvillage_loss1/classifier_plantvillage_0_split
I0403 19:47:15.486423 25897 net.cpp:425] loss1/classifier_plantvillage_loss1/classifier_plantvillage_0_split <- loss1/classifier_plantvillage
I0403 19:47:15.486441 25897 net.cpp:399] loss1/classifier_plantvillage_loss1/classifier_plantvillage_0_split -> loss1/classifier_plantvillage_loss1/classifier_plantvillage_0_split_0
I0403 19:47:15.486465 25897 net.cpp:399] loss1/classifier_plantvillage_loss1/classifier_plantvillage_0_split -> loss1/classifier_plantvillage_loss1/classifier_plantvillage_0_split_1
I0403 19:47:15.486487 25897 net.cpp:399] loss1/classifier_plantvillage_loss1/classifier_plantvillage_0_split -> loss1/classifier_plantvillage_loss1/classifier_plantvillage_0_split_2
I0403 19:47:15.486554 25897 net.cpp:141] Setting up loss1/classifier_plantvillage_loss1/classifier_plantvillage_0_split
I0403 19:47:15.486580 25897 net.cpp:148] Top shape: 24 38 (912)
I0403 19:47:15.486596 25897 net.cpp:148] Top shape: 24 38 (912)
I0403 19:47:15.486610 25897 net.cpp:148] Top shape: 24 38 (912)
I0403 19:47:15.486624 25897 net.cpp:156] Memory required for data: 946203936
I0403 19:47:15.486636 25897 layer_factory.hpp:77] Creating layer inception_4b/1x1
I0403 19:47:15.486659 25897 net.cpp:91] Creating Layer inception_4b/1x1
I0403 19:47:15.486688 25897 net.cpp:425] inception_4b/1x1 <- inception_4a/output_inception_4a/output_0_split_1
I0403 19:47:15.486707 25897 net.cpp:399] inception_4b/1x1 -> inception_4b/1x1
I0403 19:47:15.488246 25897 net.cpp:141] Setting up inception_4b/1x1
I0403 19:47:15.488275 25897 net.cpp:148] Top shape: 24 160 14 14 (752640)
I0403 19:47:15.488296 25897 net.cpp:156] Memory required for data: 949214496
I0403 19:47:15.488317 25897 layer_factory.hpp:77] Creating layer inception_4b/relu_1x1
I0403 19:47:15.488337 25897 net.cpp:91] Creating Layer inception_4b/relu_1x1
I0403 19:47:15.488354 25897 net.cpp:425] inception_4b/relu_1x1 <- inception_4b/1x1
I0403 19:47:15.488370 25897 net.cpp:386] inception_4b/relu_1x1 -> inception_4b/1x1 (in-place)
I0403 19:47:15.488538 25897 net.cpp:141] Setting up inception_4b/relu_1x1
I0403 19:47:15.488564 25897 net.cpp:148] Top shape: 24 160 14 14 (752640)
I0403 19:47:15.488579 25897 net.cpp:156] Memory required for data: 952225056
I0403 19:47:15.488595 25897 layer_factory.hpp:77] Creating layer inception_4b/3x3_reduce
I0403 19:47:15.488617 25897 net.cpp:91] Creating Layer inception_4b/3x3_reduce
I0403 19:47:15.488636 25897 net.cpp:425] inception_4b/3x3_reduce <- inception_4a/output_inception_4a/output_0_split_2
I0403 19:47:15.488654 25897 net.cpp:399] inception_4b/3x3_reduce -> inception_4b/3x3_reduce
I0403 19:47:15.489915 25897 net.cpp:141] Setting up inception_4b/3x3_reduce
I0403 19:47:15.489943 25897 net.cpp:148] Top shape: 24 112 14 14 (526848)
I0403 19:47:15.489962 25897 net.cpp:156] Memory required for data: 954332448
I0403 19:47:15.489979 25897 layer_factory.hpp:77] Creating layer inception_4b/relu_3x3_reduce
I0403 19:47:15.489996 25897 net.cpp:91] Creating Layer inception_4b/relu_3x3_reduce
I0403 19:47:15.490012 25897 net.cpp:425] inception_4b/relu_3x3_reduce <- inception_4b/3x3_reduce
I0403 19:47:15.490030 25897 net.cpp:386] inception_4b/relu_3x3_reduce -> inception_4b/3x3_reduce (in-place)
I0403 19:47:15.490299 25897 net.cpp:141] Setting up inception_4b/relu_3x3_reduce
I0403 19:47:15.490327 25897 net.cpp:148] Top shape: 24 112 14 14 (526848)
I0403 19:47:15.490345 25897 net.cpp:156] Memory required for data: 956439840
I0403 19:47:15.490360 25897 layer_factory.hpp:77] Creating layer inception_4b/3x3
I0403 19:47:15.490380 25897 net.cpp:91] Creating Layer inception_4b/3x3
I0403 19:47:15.490394 25897 net.cpp:425] inception_4b/3x3 <- inception_4b/3x3_reduce
I0403 19:47:15.490414 25897 net.cpp:399] inception_4b/3x3 -> inception_4b/3x3
I0403 19:47:15.493226 25897 net.cpp:141] Setting up inception_4b/3x3
I0403 19:47:15.493254 25897 net.cpp:148] Top shape: 24 224 14 14 (1053696)
I0403 19:47:15.493270 25897 net.cpp:156] Memory required for data: 960654624
I0403 19:47:15.493291 25897 layer_factory.hpp:77] Creating layer inception_4b/relu_3x3
I0403 19:47:15.493312 25897 net.cpp:91] Creating Layer inception_4b/relu_3x3
I0403 19:47:15.493330 25897 net.cpp:425] inception_4b/relu_3x3 <- inception_4b/3x3
I0403 19:47:15.493348 25897 net.cpp:386] inception_4b/relu_3x3 -> inception_4b/3x3 (in-place)
I0403 19:47:15.493516 25897 net.cpp:141] Setting up inception_4b/relu_3x3
I0403 19:47:15.493541 25897 net.cpp:148] Top shape: 24 224 14 14 (1053696)
I0403 19:47:15.493556 25897 net.cpp:156] Memory required for data: 964869408
I0403 19:47:15.493569 25897 layer_factory.hpp:77] Creating layer inception_4b/5x5_reduce
I0403 19:47:15.493592 25897 net.cpp:91] Creating Layer inception_4b/5x5_reduce
I0403 19:47:15.493608 25897 net.cpp:425] inception_4b/5x5_reduce <- inception_4a/output_inception_4a/output_0_split_3
I0403 19:47:15.493629 25897 net.cpp:399] inception_4b/5x5_reduce -> inception_4b/5x5_reduce
I0403 19:47:15.494653 25897 net.cpp:141] Setting up inception_4b/5x5_reduce
I0403 19:47:15.494680 25897 net.cpp:148] Top shape: 24 24 14 14 (112896)
I0403 19:47:15.494694 25897 net.cpp:156] Memory required for data: 965320992
I0403 19:47:15.494710 25897 layer_factory.hpp:77] Creating layer inception_4b/relu_5x5_reduce
I0403 19:47:15.494730 25897 net.cpp:91] Creating Layer inception_4b/relu_5x5_reduce
I0403 19:47:15.494760 25897 net.cpp:425] inception_4b/relu_5x5_reduce <- inception_4b/5x5_reduce
I0403 19:47:15.494776 25897 net.cpp:386] inception_4b/relu_5x5_reduce -> inception_4b/5x5_reduce (in-place)
I0403 19:47:15.494947 25897 net.cpp:141] Setting up inception_4b/relu_5x5_reduce
I0403 19:47:15.494973 25897 net.cpp:148] Top shape: 24 24 14 14 (112896)
I0403 19:47:15.494987 25897 net.cpp:156] Memory required for data: 965772576
I0403 19:47:15.495002 25897 layer_factory.hpp:77] Creating layer inception_4b/5x5
I0403 19:47:15.495023 25897 net.cpp:91] Creating Layer inception_4b/5x5
I0403 19:47:15.495039 25897 net.cpp:425] inception_4b/5x5 <- inception_4b/5x5_reduce
I0403 19:47:15.495057 25897 net.cpp:399] inception_4b/5x5 -> inception_4b/5x5
I0403 19:47:15.496196 25897 net.cpp:141] Setting up inception_4b/5x5
I0403 19:47:15.496222 25897 net.cpp:148] Top shape: 24 64 14 14 (301056)
I0403 19:47:15.496237 25897 net.cpp:156] Memory required for data: 966976800
I0403 19:47:15.496253 25897 layer_factory.hpp:77] Creating layer inception_4b/relu_5x5
I0403 19:47:15.496273 25897 net.cpp:91] Creating Layer inception_4b/relu_5x5
I0403 19:47:15.496292 25897 net.cpp:425] inception_4b/relu_5x5 <- inception_4b/5x5
I0403 19:47:15.496310 25897 net.cpp:386] inception_4b/relu_5x5 -> inception_4b/5x5 (in-place)
I0403 19:47:15.496574 25897 net.cpp:141] Setting up inception_4b/relu_5x5
I0403 19:47:15.496599 25897 net.cpp:148] Top shape: 24 64 14 14 (301056)
I0403 19:47:15.496613 25897 net.cpp:156] Memory required for data: 968181024
I0403 19:47:15.496628 25897 layer_factory.hpp:77] Creating layer inception_4b/pool
I0403 19:47:15.496645 25897 net.cpp:91] Creating Layer inception_4b/pool
I0403 19:47:15.496660 25897 net.cpp:425] inception_4b/pool <- inception_4a/output_inception_4a/output_0_split_4
I0403 19:47:15.496680 25897 net.cpp:399] inception_4b/pool -> inception_4b/pool
I0403 19:47:15.496739 25897 net.cpp:141] Setting up inception_4b/pool
I0403 19:47:15.496762 25897 net.cpp:148] Top shape: 24 512 14 14 (2408448)
I0403 19:47:15.496775 25897 net.cpp:156] Memory required for data: 977814816
I0403 19:47:15.496788 25897 layer_factory.hpp:77] Creating layer inception_4b/pool_proj
I0403 19:47:15.496809 25897 net.cpp:91] Creating Layer inception_4b/pool_proj
I0403 19:47:15.496825 25897 net.cpp:425] inception_4b/pool_proj <- inception_4b/pool
I0403 19:47:15.496845 25897 net.cpp:399] inception_4b/pool_proj -> inception_4b/pool_proj
I0403 19:47:15.497963 25897 net.cpp:141] Setting up inception_4b/pool_proj
I0403 19:47:15.497989 25897 net.cpp:148] Top shape: 24 64 14 14 (301056)
I0403 19:47:15.498003 25897 net.cpp:156] Memory required for data: 979019040
I0403 19:47:15.498020 25897 layer_factory.hpp:77] Creating layer inception_4b/relu_pool_proj
I0403 19:47:15.498039 25897 net.cpp:91] Creating Layer inception_4b/relu_pool_proj
I0403 19:47:15.498056 25897 net.cpp:425] inception_4b/relu_pool_proj <- inception_4b/pool_proj
I0403 19:47:15.498072 25897 net.cpp:386] inception_4b/relu_pool_proj -> inception_4b/pool_proj (in-place)
I0403 19:47:15.498239 25897 net.cpp:141] Setting up inception_4b/relu_pool_proj
I0403 19:47:15.498265 25897 net.cpp:148] Top shape: 24 64 14 14 (301056)
I0403 19:47:15.498278 25897 net.cpp:156] Memory required for data: 980223264
I0403 19:47:15.498297 25897 layer_factory.hpp:77] Creating layer inception_4b/output
I0403 19:47:15.498314 25897 net.cpp:91] Creating Layer inception_4b/output
I0403 19:47:15.498328 25897 net.cpp:425] inception_4b/output <- inception_4b/1x1
I0403 19:47:15.498343 25897 net.cpp:425] inception_4b/output <- inception_4b/3x3
I0403 19:47:15.498358 25897 net.cpp:425] inception_4b/output <- inception_4b/5x5
I0403 19:47:15.498373 25897 net.cpp:425] inception_4b/output <- inception_4b/pool_proj
I0403 19:47:15.498388 25897 net.cpp:399] inception_4b/output -> inception_4b/output
I0403 19:47:15.498430 25897 net.cpp:141] Setting up inception_4b/output
I0403 19:47:15.498453 25897 net.cpp:148] Top shape: 24 512 14 14 (2408448)
I0403 19:47:15.498467 25897 net.cpp:156] Memory required for data: 989857056
I0403 19:47:15.498494 25897 layer_factory.hpp:77] Creating layer inception_4b/output_inception_4b/output_0_split
I0403 19:47:15.498513 25897 net.cpp:91] Creating Layer inception_4b/output_inception_4b/output_0_split
I0403 19:47:15.498528 25897 net.cpp:425] inception_4b/output_inception_4b/output_0_split <- inception_4b/output
I0403 19:47:15.498544 25897 net.cpp:399] inception_4b/output_inception_4b/output_0_split -> inception_4b/output_inception_4b/output_0_split_0
I0403 19:47:15.498563 25897 net.cpp:399] inception_4b/output_inception_4b/output_0_split -> inception_4b/output_inception_4b/output_0_split_1
I0403 19:47:15.498581 25897 net.cpp:399] inception_4b/output_inception_4b/output_0_split -> inception_4b/output_inception_4b/output_0_split_2
I0403 19:47:15.498601 25897 net.cpp:399] inception_4b/output_inception_4b/output_0_split -> inception_4b/output_inception_4b/output_0_split_3
I0403 19:47:15.498679 25897 net.cpp:141] Setting up inception_4b/output_inception_4b/output_0_split
I0403 19:47:15.498703 25897 net.cpp:148] Top shape: 24 512 14 14 (2408448)
I0403 19:47:15.498716 25897 net.cpp:148] Top shape: 24 512 14 14 (2408448)
I0403 19:47:15.498730 25897 net.cpp:148] Top shape: 24 512 14 14 (2408448)
I0403 19:47:15.498744 25897 net.cpp:148] Top shape: 24 512 14 14 (2408448)
I0403 19:47:15.498756 25897 net.cpp:156] Memory required for data: 1028392224
I0403 19:47:15.498770 25897 layer_factory.hpp:77] Creating layer inception_4c/1x1
I0403 19:47:15.498790 25897 net.cpp:91] Creating Layer inception_4c/1x1
I0403 19:47:15.498807 25897 net.cpp:425] inception_4c/1x1 <- inception_4b/output_inception_4b/output_0_split_0
I0403 19:47:15.498826 25897 net.cpp:399] inception_4c/1x1 -> inception_4c/1x1
I0403 19:47:15.500167 25897 net.cpp:141] Setting up inception_4c/1x1
I0403 19:47:15.500196 25897 net.cpp:148] Top shape: 24 128 14 14 (602112)
I0403 19:47:15.500212 25897 net.cpp:156] Memory required for data: 1030800672
I0403 19:47:15.500229 25897 layer_factory.hpp:77] Creating layer inception_4c/relu_1x1
I0403 19:47:15.500246 25897 net.cpp:91] Creating Layer inception_4c/relu_1x1
I0403 19:47:15.500260 25897 net.cpp:425] inception_4c/relu_1x1 <- inception_4c/1x1
I0403 19:47:15.500278 25897 net.cpp:386] inception_4c/relu_1x1 -> inception_4c/1x1 (in-place)
I0403 19:47:15.500455 25897 net.cpp:141] Setting up inception_4c/relu_1x1
I0403 19:47:15.500479 25897 net.cpp:148] Top shape: 24 128 14 14 (602112)
I0403 19:47:15.500494 25897 net.cpp:156] Memory required for data: 1033209120
I0403 19:47:15.500506 25897 layer_factory.hpp:77] Creating layer inception_4c/3x3_reduce
I0403 19:47:15.500527 25897 net.cpp:91] Creating Layer inception_4c/3x3_reduce
I0403 19:47:15.500543 25897 net.cpp:425] inception_4c/3x3_reduce <- inception_4b/output_inception_4b/output_0_split_1
I0403 19:47:15.500563 25897 net.cpp:399] inception_4c/3x3_reduce -> inception_4c/3x3_reduce
I0403 19:47:15.502374 25897 net.cpp:141] Setting up inception_4c/3x3_reduce
I0403 19:47:15.502401 25897 net.cpp:148] Top shape: 24 128 14 14 (602112)
I0403 19:47:15.502416 25897 net.cpp:156] Memory required for data: 1035617568
I0403 19:47:15.502432 25897 layer_factory.hpp:77] Creating layer inception_4c/relu_3x3_reduce
I0403 19:47:15.502452 25897 net.cpp:91] Creating Layer inception_4c/relu_3x3_reduce
I0403 19:47:15.502467 25897 net.cpp:425] inception_4c/relu_3x3_reduce <- inception_4c/3x3_reduce
I0403 19:47:15.502483 25897 net.cpp:386] inception_4c/relu_3x3_reduce -> inception_4c/3x3_reduce (in-place)
I0403 19:47:15.502748 25897 net.cpp:141] Setting up inception_4c/relu_3x3_reduce
I0403 19:47:15.502773 25897 net.cpp:148] Top shape: 24 128 14 14 (602112)
I0403 19:47:15.502785 25897 net.cpp:156] Memory required for data: 1038026016
I0403 19:47:15.502799 25897 layer_factory.hpp:77] Creating layer inception_4c/3x3
I0403 19:47:15.502820 25897 net.cpp:91] Creating Layer inception_4c/3x3
I0403 19:47:15.502836 25897 net.cpp:425] inception_4c/3x3 <- inception_4c/3x3_reduce
I0403 19:47:15.502856 25897 net.cpp:399] inception_4c/3x3 -> inception_4c/3x3
I0403 19:47:15.506220 25897 net.cpp:141] Setting up inception_4c/3x3
I0403 19:47:15.506259 25897 net.cpp:148] Top shape: 24 256 14 14 (1204224)
I0403 19:47:15.506275 25897 net.cpp:156] Memory required for data: 1042842912
I0403 19:47:15.506309 25897 layer_factory.hpp:77] Creating layer inception_4c/relu_3x3
I0403 19:47:15.506331 25897 net.cpp:91] Creating Layer inception_4c/relu_3x3
I0403 19:47:15.506348 25897 net.cpp:425] inception_4c/relu_3x3 <- inception_4c/3x3
I0403 19:47:15.506364 25897 net.cpp:386] inception_4c/relu_3x3 -> inception_4c/3x3 (in-place)
I0403 19:47:15.506531 25897 net.cpp:141] Setting up inception_4c/relu_3x3
I0403 19:47:15.506554 25897 net.cpp:148] Top shape: 24 256 14 14 (1204224)
I0403 19:47:15.506567 25897 net.cpp:156] Memory required for data: 1047659808
I0403 19:47:15.506582 25897 layer_factory.hpp:77] Creating layer inception_4c/5x5_reduce
I0403 19:47:15.506602 25897 net.cpp:91] Creating Layer inception_4c/5x5_reduce
I0403 19:47:15.506618 25897 net.cpp:425] inception_4c/5x5_reduce <- inception_4b/output_inception_4b/output_0_split_2
I0403 19:47:15.506638 25897 net.cpp:399] inception_4c/5x5_reduce -> inception_4c/5x5_reduce
I0403 19:47:15.507673 25897 net.cpp:141] Setting up inception_4c/5x5_reduce
I0403 19:47:15.507700 25897 net.cpp:148] Top shape: 24 24 14 14 (112896)
I0403 19:47:15.507714 25897 net.cpp:156] Memory required for data: 1048111392
I0403 19:47:15.507732 25897 layer_factory.hpp:77] Creating layer inception_4c/relu_5x5_reduce
I0403 19:47:15.507752 25897 net.cpp:91] Creating Layer inception_4c/relu_5x5_reduce
I0403 19:47:15.507768 25897 net.cpp:425] inception_4c/relu_5x5_reduce <- inception_4c/5x5_reduce
I0403 19:47:15.507784 25897 net.cpp:386] inception_4c/relu_5x5_reduce -> inception_4c/5x5_reduce (in-place)
I0403 19:47:15.507987 25897 net.cpp:141] Setting up inception_4c/relu_5x5_reduce
I0403 19:47:15.508013 25897 net.cpp:148] Top shape: 24 24 14 14 (112896)
I0403 19:47:15.508028 25897 net.cpp:156] Memory required for data: 1048562976
I0403 19:47:15.508043 25897 layer_factory.hpp:77] Creating layer inception_4c/5x5
I0403 19:47:15.508064 25897 net.cpp:91] Creating Layer inception_4c/5x5
I0403 19:47:15.508080 25897 net.cpp:425] inception_4c/5x5 <- inception_4c/5x5_reduce
I0403 19:47:15.508098 25897 net.cpp:399] inception_4c/5x5 -> inception_4c/5x5
I0403 19:47:15.509274 25897 net.cpp:141] Setting up inception_4c/5x5
I0403 19:47:15.509306 25897 net.cpp:148] Top shape: 24 64 14 14 (301056)
I0403 19:47:15.509323 25897 net.cpp:156] Memory required for data: 1049767200
I0403 19:47:15.509340 25897 layer_factory.hpp:77] Creating layer inception_4c/relu_5x5
I0403 19:47:15.509356 25897 net.cpp:91] Creating Layer inception_4c/relu_5x5
I0403 19:47:15.509371 25897 net.cpp:425] inception_4c/relu_5x5 <- inception_4c/5x5
I0403 19:47:15.509387 25897 net.cpp:386] inception_4c/relu_5x5 -> inception_4c/5x5 (in-place)
I0403 19:47:15.509656 25897 net.cpp:141] Setting up inception_4c/relu_5x5
I0403 19:47:15.509683 25897 net.cpp:148] Top shape: 24 64 14 14 (301056)
I0403 19:47:15.509698 25897 net.cpp:156] Memory required for data: 1050971424
I0403 19:47:15.509712 25897 layer_factory.hpp:77] Creating layer inception_4c/pool
I0403 19:47:15.509729 25897 net.cpp:91] Creating Layer inception_4c/pool
I0403 19:47:15.509744 25897 net.cpp:425] inception_4c/pool <- inception_4b/output_inception_4b/output_0_split_3
I0403 19:47:15.509760 25897 net.cpp:399] inception_4c/pool -> inception_4c/pool
I0403 19:47:15.509822 25897 net.cpp:141] Setting up inception_4c/pool
I0403 19:47:15.509845 25897 net.cpp:148] Top shape: 24 512 14 14 (2408448)
I0403 19:47:15.509858 25897 net.cpp:156] Memory required for data: 1060605216
I0403 19:47:15.509871 25897 layer_factory.hpp:77] Creating layer inception_4c/pool_proj
I0403 19:47:15.509892 25897 net.cpp:91] Creating Layer inception_4c/pool_proj
I0403 19:47:15.509908 25897 net.cpp:425] inception_4c/pool_proj <- inception_4c/pool
I0403 19:47:15.509928 25897 net.cpp:399] inception_4c/pool_proj -> inception_4c/pool_proj
I0403 19:47:15.511068 25897 net.cpp:141] Setting up inception_4c/pool_proj
I0403 19:47:15.511096 25897 net.cpp:148] Top shape: 24 64 14 14 (301056)
I0403 19:47:15.511123 25897 net.cpp:156] Memory required for data: 1061809440
I0403 19:47:15.511142 25897 layer_factory.hpp:77] Creating layer inception_4c/relu_pool_proj
I0403 19:47:15.511160 25897 net.cpp:91] Creating Layer inception_4c/relu_pool_proj
I0403 19:47:15.511178 25897 net.cpp:425] inception_4c/relu_pool_proj <- inception_4c/pool_proj
I0403 19:47:15.511194 25897 net.cpp:386] inception_4c/relu_pool_proj -> inception_4c/pool_proj (in-place)
I0403 19:47:15.511376 25897 net.cpp:141] Setting up inception_4c/relu_pool_proj
I0403 19:47:15.511402 25897 net.cpp:148] Top shape: 24 64 14 14 (301056)
I0403 19:47:15.511416 25897 net.cpp:156] Memory required for data: 1063013664
I0403 19:47:15.511430 25897 layer_factory.hpp:77] Creating layer inception_4c/output
I0403 19:47:15.511446 25897 net.cpp:91] Creating Layer inception_4c/output
I0403 19:47:15.511461 25897 net.cpp:425] inception_4c/output <- inception_4c/1x1
I0403 19:47:15.511476 25897 net.cpp:425] inception_4c/output <- inception_4c/3x3
I0403 19:47:15.511490 25897 net.cpp:425] inception_4c/output <- inception_4c/5x5
I0403 19:47:15.511504 25897 net.cpp:425] inception_4c/output <- inception_4c/pool_proj
I0403 19:47:15.511519 25897 net.cpp:399] inception_4c/output -> inception_4c/output
I0403 19:47:15.511564 25897 net.cpp:141] Setting up inception_4c/output
I0403 19:47:15.511586 25897 net.cpp:148] Top shape: 24 512 14 14 (2408448)
I0403 19:47:15.511600 25897 net.cpp:156] Memory required for data: 1072647456
I0403 19:47:15.511612 25897 layer_factory.hpp:77] Creating layer inception_4c/output_inception_4c/output_0_split
I0403 19:47:15.511631 25897 net.cpp:91] Creating Layer inception_4c/output_inception_4c/output_0_split
I0403 19:47:15.511646 25897 net.cpp:425] inception_4c/output_inception_4c/output_0_split <- inception_4c/output
I0403 19:47:15.511662 25897 net.cpp:399] inception_4c/output_inception_4c/output_0_split -> inception_4c/output_inception_4c/output_0_split_0
I0403 19:47:15.511682 25897 net.cpp:399] inception_4c/output_inception_4c/output_0_split -> inception_4c/output_inception_4c/output_0_split_1
I0403 19:47:15.511700 25897 net.cpp:399] inception_4c/output_inception_4c/output_0_split -> inception_4c/output_inception_4c/output_0_split_2
I0403 19:47:15.511718 25897 net.cpp:399] inception_4c/output_inception_4c/output_0_split -> inception_4c/output_inception_4c/output_0_split_3
I0403 19:47:15.511798 25897 net.cpp:141] Setting up inception_4c/output_inception_4c/output_0_split
I0403 19:47:15.511821 25897 net.cpp:148] Top shape: 24 512 14 14 (2408448)
I0403 19:47:15.511836 25897 net.cpp:148] Top shape: 24 512 14 14 (2408448)
I0403 19:47:15.511849 25897 net.cpp:148] Top shape: 24 512 14 14 (2408448)
I0403 19:47:15.511863 25897 net.cpp:148] Top shape: 24 512 14 14 (2408448)
I0403 19:47:15.511875 25897 net.cpp:156] Memory required for data: 1111182624
I0403 19:47:15.511888 25897 layer_factory.hpp:77] Creating layer inception_4d/1x1
I0403 19:47:15.511909 25897 net.cpp:91] Creating Layer inception_4d/1x1
I0403 19:47:15.511924 25897 net.cpp:425] inception_4d/1x1 <- inception_4c/output_inception_4c/output_0_split_0
I0403 19:47:15.511943 25897 net.cpp:399] inception_4d/1x1 -> inception_4d/1x1
I0403 19:47:15.513249 25897 net.cpp:141] Setting up inception_4d/1x1
I0403 19:47:15.513293 25897 net.cpp:148] Top shape: 24 112 14 14 (526848)
I0403 19:47:15.513311 25897 net.cpp:156] Memory required for data: 1113290016
I0403 19:47:15.513329 25897 layer_factory.hpp:77] Creating layer inception_4d/relu_1x1
I0403 19:47:15.513348 25897 net.cpp:91] Creating Layer inception_4d/relu_1x1
I0403 19:47:15.513375 25897 net.cpp:425] inception_4d/relu_1x1 <- inception_4d/1x1
I0403 19:47:15.513393 25897 net.cpp:386] inception_4d/relu_1x1 -> inception_4d/1x1 (in-place)
I0403 19:47:15.513583 25897 net.cpp:141] Setting up inception_4d/relu_1x1
I0403 19:47:15.513607 25897 net.cpp:148] Top shape: 24 112 14 14 (526848)
I0403 19:47:15.513627 25897 net.cpp:156] Memory required for data: 1115397408
I0403 19:47:15.513640 25897 layer_factory.hpp:77] Creating layer inception_4d/3x3_reduce
I0403 19:47:15.513675 25897 net.cpp:91] Creating Layer inception_4d/3x3_reduce
I0403 19:47:15.513695 25897 net.cpp:425] inception_4d/3x3_reduce <- inception_4c/output_inception_4c/output_0_split_1
I0403 19:47:15.513715 25897 net.cpp:399] inception_4d/3x3_reduce -> inception_4d/3x3_reduce
I0403 19:47:15.515157 25897 net.cpp:141] Setting up inception_4d/3x3_reduce
I0403 19:47:15.515185 25897 net.cpp:148] Top shape: 24 144 14 14 (677376)
I0403 19:47:15.515202 25897 net.cpp:156] Memory required for data: 1118106912
I0403 19:47:15.515219 25897 layer_factory.hpp:77] Creating layer inception_4d/relu_3x3_reduce
I0403 19:47:15.515239 25897 net.cpp:91] Creating Layer inception_4d/relu_3x3_reduce
I0403 19:47:15.515254 25897 net.cpp:425] inception_4d/relu_3x3_reduce <- inception_4d/3x3_reduce
I0403 19:47:15.515274 25897 net.cpp:386] inception_4d/relu_3x3_reduce -> inception_4d/3x3_reduce (in-place)
I0403 19:47:15.515558 25897 net.cpp:141] Setting up inception_4d/relu_3x3_reduce
I0403 19:47:15.515586 25897 net.cpp:148] Top shape: 24 144 14 14 (677376)
I0403 19:47:15.515602 25897 net.cpp:156] Memory required for data: 1120816416
I0403 19:47:15.515616 25897 layer_factory.hpp:77] Creating layer inception_4d/3x3
I0403 19:47:15.515638 25897 net.cpp:91] Creating Layer inception_4d/3x3
I0403 19:47:15.515655 25897 net.cpp:425] inception_4d/3x3 <- inception_4d/3x3_reduce
I0403 19:47:15.515671 25897 net.cpp:399] inception_4d/3x3 -> inception_4d/3x3
I0403 19:47:15.519817 25897 net.cpp:141] Setting up inception_4d/3x3
I0403 19:47:15.519845 25897 net.cpp:148] Top shape: 24 288 14 14 (1354752)
I0403 19:47:15.519860 25897 net.cpp:156] Memory required for data: 1126235424
I0403 19:47:15.519877 25897 layer_factory.hpp:77] Creating layer inception_4d/relu_3x3
I0403 19:47:15.519897 25897 net.cpp:91] Creating Layer inception_4d/relu_3x3
I0403 19:47:15.519913 25897 net.cpp:425] inception_4d/relu_3x3 <- inception_4d/3x3
I0403 19:47:15.519929 25897 net.cpp:386] inception_4d/relu_3x3 -> inception_4d/3x3 (in-place)
I0403 19:47:15.520105 25897 net.cpp:141] Setting up inception_4d/relu_3x3
I0403 19:47:15.520129 25897 net.cpp:148] Top shape: 24 288 14 14 (1354752)
I0403 19:47:15.520143 25897 net.cpp:156] Memory required for data: 1131654432
I0403 19:47:15.520158 25897 layer_factory.hpp:77] Creating layer inception_4d/5x5_reduce
I0403 19:47:15.520179 25897 net.cpp:91] Creating Layer inception_4d/5x5_reduce
I0403 19:47:15.520195 25897 net.cpp:425] inception_4d/5x5_reduce <- inception_4c/output_inception_4c/output_0_split_2
I0403 19:47:15.520216 25897 net.cpp:399] inception_4d/5x5_reduce -> inception_4d/5x5_reduce
I0403 19:47:15.521304 25897 net.cpp:141] Setting up inception_4d/5x5_reduce
I0403 19:47:15.521330 25897 net.cpp:148] Top shape: 24 32 14 14 (150528)
I0403 19:47:15.521345 25897 net.cpp:156] Memory required for data: 1132256544
I0403 19:47:15.521363 25897 layer_factory.hpp:77] Creating layer inception_4d/relu_5x5_reduce
I0403 19:47:15.521380 25897 net.cpp:91] Creating Layer inception_4d/relu_5x5_reduce
I0403 19:47:15.521395 25897 net.cpp:425] inception_4d/relu_5x5_reduce <- inception_4d/5x5_reduce
I0403 19:47:15.521414 25897 net.cpp:386] inception_4d/relu_5x5_reduce -> inception_4d/5x5_reduce (in-place)
I0403 19:47:15.521591 25897 net.cpp:141] Setting up inception_4d/relu_5x5_reduce
I0403 19:47:15.521615 25897 net.cpp:148] Top shape: 24 32 14 14 (150528)
I0403 19:47:15.521630 25897 net.cpp:156] Memory required for data: 1132858656
I0403 19:47:15.521644 25897 layer_factory.hpp:77] Creating layer inception_4d/5x5
I0403 19:47:15.521664 25897 net.cpp:91] Creating Layer inception_4d/5x5
I0403 19:47:15.521682 25897 net.cpp:425] inception_4d/5x5 <- inception_4d/5x5_reduce
I0403 19:47:15.521700 25897 net.cpp:399] inception_4d/5x5 -> inception_4d/5x5
I0403 19:47:15.523079 25897 net.cpp:141] Setting up inception_4d/5x5
I0403 19:47:15.523105 25897 net.cpp:148] Top shape: 24 64 14 14 (301056)
I0403 19:47:15.523124 25897 net.cpp:156] Memory required for data: 1134062880
I0403 19:47:15.523143 25897 layer_factory.hpp:77] Creating layer inception_4d/relu_5x5
I0403 19:47:15.523174 25897 net.cpp:91] Creating Layer inception_4d/relu_5x5
I0403 19:47:15.523190 25897 net.cpp:425] inception_4d/relu_5x5 <- inception_4d/5x5
I0403 19:47:15.523206 25897 net.cpp:386] inception_4d/relu_5x5 -> inception_4d/5x5 (in-place)
I0403 19:47:15.523495 25897 net.cpp:141] Setting up inception_4d/relu_5x5
I0403 19:47:15.523521 25897 net.cpp:148] Top shape: 24 64 14 14 (301056)
I0403 19:47:15.523538 25897 net.cpp:156] Memory required for data: 1135267104
I0403 19:47:15.523553 25897 layer_factory.hpp:77] Creating layer inception_4d/pool
I0403 19:47:15.523571 25897 net.cpp:91] Creating Layer inception_4d/pool
I0403 19:47:15.523586 25897 net.cpp:425] inception_4d/pool <- inception_4c/output_inception_4c/output_0_split_3
I0403 19:47:15.523605 25897 net.cpp:399] inception_4d/pool -> inception_4d/pool
I0403 19:47:15.523670 25897 net.cpp:141] Setting up inception_4d/pool
I0403 19:47:15.523694 25897 net.cpp:148] Top shape: 24 512 14 14 (2408448)
I0403 19:47:15.523708 25897 net.cpp:156] Memory required for data: 1144900896
I0403 19:47:15.523720 25897 layer_factory.hpp:77] Creating layer inception_4d/pool_proj
I0403 19:47:15.523741 25897 net.cpp:91] Creating Layer inception_4d/pool_proj
I0403 19:47:15.523758 25897 net.cpp:425] inception_4d/pool_proj <- inception_4d/pool
I0403 19:47:15.523778 25897 net.cpp:399] inception_4d/pool_proj -> inception_4d/pool_proj
I0403 19:47:15.525480 25897 net.cpp:141] Setting up inception_4d/pool_proj
I0403 19:47:15.525509 25897 net.cpp:148] Top shape: 24 64 14 14 (301056)
I0403 19:47:15.525526 25897 net.cpp:156] Memory required for data: 1146105120
I0403 19:47:15.525543 25897 layer_factory.hpp:77] Creating layer inception_4d/relu_pool_proj
I0403 19:47:15.525564 25897 net.cpp:91] Creating Layer inception_4d/relu_pool_proj
I0403 19:47:15.525583 25897 net.cpp:425] inception_4d/relu_pool_proj <- inception_4d/pool_proj
I0403 19:47:15.525600 25897 net.cpp:386] inception_4d/relu_pool_proj -> inception_4d/pool_proj (in-place)
I0403 19:47:15.525775 25897 net.cpp:141] Setting up inception_4d/relu_pool_proj
I0403 19:47:15.525800 25897 net.cpp:148] Top shape: 24 64 14 14 (301056)
I0403 19:47:15.525815 25897 net.cpp:156] Memory required for data: 1147309344
I0403 19:47:15.525828 25897 layer_factory.hpp:77] Creating layer inception_4d/output
I0403 19:47:15.525847 25897 net.cpp:91] Creating Layer inception_4d/output
I0403 19:47:15.525863 25897 net.cpp:425] inception_4d/output <- inception_4d/1x1
I0403 19:47:15.525878 25897 net.cpp:425] inception_4d/output <- inception_4d/3x3
I0403 19:47:15.525893 25897 net.cpp:425] inception_4d/output <- inception_4d/5x5
I0403 19:47:15.525907 25897 net.cpp:425] inception_4d/output <- inception_4d/pool_proj
I0403 19:47:15.525924 25897 net.cpp:399] inception_4d/output -> inception_4d/output
I0403 19:47:15.525972 25897 net.cpp:141] Setting up inception_4d/output
I0403 19:47:15.525995 25897 net.cpp:148] Top shape: 24 528 14 14 (2483712)
I0403 19:47:15.526010 25897 net.cpp:156] Memory required for data: 1157244192
I0403 19:47:15.526023 25897 layer_factory.hpp:77] Creating layer inception_4d/output_inception_4d/output_0_split
I0403 19:47:15.526041 25897 net.cpp:91] Creating Layer inception_4d/output_inception_4d/output_0_split
I0403 19:47:15.526057 25897 net.cpp:425] inception_4d/output_inception_4d/output_0_split <- inception_4d/output
I0403 19:47:15.526075 25897 net.cpp:399] inception_4d/output_inception_4d/output_0_split -> inception_4d/output_inception_4d/output_0_split_0
I0403 19:47:15.526096 25897 net.cpp:399] inception_4d/output_inception_4d/output_0_split -> inception_4d/output_inception_4d/output_0_split_1
I0403 19:47:15.526118 25897 net.cpp:399] inception_4d/output_inception_4d/output_0_split -> inception_4d/output_inception_4d/output_0_split_2
I0403 19:47:15.526137 25897 net.cpp:399] inception_4d/output_inception_4d/output_0_split -> inception_4d/output_inception_4d/output_0_split_3
I0403 19:47:15.526157 25897 net.cpp:399] inception_4d/output_inception_4d/output_0_split -> inception_4d/output_inception_4d/output_0_split_4
I0403 19:47:15.526257 25897 net.cpp:141] Setting up inception_4d/output_inception_4d/output_0_split
I0403 19:47:15.526298 25897 net.cpp:148] Top shape: 24 528 14 14 (2483712)
I0403 19:47:15.526316 25897 net.cpp:148] Top shape: 24 528 14 14 (2483712)
I0403 19:47:15.526331 25897 net.cpp:148] Top shape: 24 528 14 14 (2483712)
I0403 19:47:15.526346 25897 net.cpp:148] Top shape: 24 528 14 14 (2483712)
I0403 19:47:15.526360 25897 net.cpp:148] Top shape: 24 528 14 14 (2483712)
I0403 19:47:15.526372 25897 net.cpp:156] Memory required for data: 1206918432
I0403 19:47:15.526386 25897 layer_factory.hpp:77] Creating layer loss2/ave_pool
I0403 19:47:15.526403 25897 net.cpp:91] Creating Layer loss2/ave_pool
I0403 19:47:15.526417 25897 net.cpp:425] loss2/ave_pool <- inception_4d/output_inception_4d/output_0_split_0
I0403 19:47:15.526437 25897 net.cpp:399] loss2/ave_pool -> loss2/ave_pool
I0403 19:47:15.526732 25897 net.cpp:141] Setting up loss2/ave_pool
I0403 19:47:15.526758 25897 net.cpp:148] Top shape: 24 528 4 4 (202752)
I0403 19:47:15.526774 25897 net.cpp:156] Memory required for data: 1207729440
I0403 19:47:15.526788 25897 layer_factory.hpp:77] Creating layer loss2/conv
I0403 19:47:15.526809 25897 net.cpp:91] Creating Layer loss2/conv
I0403 19:47:15.526826 25897 net.cpp:425] loss2/conv <- loss2/ave_pool
I0403 19:47:15.526847 25897 net.cpp:399] loss2/conv -> loss2/conv
I0403 19:47:15.528651 25897 net.cpp:141] Setting up loss2/conv
I0403 19:47:15.528681 25897 net.cpp:148] Top shape: 24 128 4 4 (49152)
I0403 19:47:15.528695 25897 net.cpp:156] Memory required for data: 1207926048
I0403 19:47:15.528713 25897 layer_factory.hpp:77] Creating layer loss2/relu_conv
I0403 19:47:15.528733 25897 net.cpp:91] Creating Layer loss2/relu_conv
I0403 19:47:15.528751 25897 net.cpp:425] loss2/relu_conv <- loss2/conv
I0403 19:47:15.528769 25897 net.cpp:386] loss2/relu_conv -> loss2/conv (in-place)
I0403 19:47:15.529041 25897 net.cpp:141] Setting up loss2/relu_conv
I0403 19:47:15.529067 25897 net.cpp:148] Top shape: 24 128 4 4 (49152)
I0403 19:47:15.529083 25897 net.cpp:156] Memory required for data: 1208122656
I0403 19:47:15.529096 25897 layer_factory.hpp:77] Creating layer loss2/fc
I0403 19:47:15.529117 25897 net.cpp:91] Creating Layer loss2/fc
I0403 19:47:15.529134 25897 net.cpp:425] loss2/fc <- loss2/conv
I0403 19:47:15.529155 25897 net.cpp:399] loss2/fc -> loss2/fc
I0403 19:47:15.546069 25897 net.cpp:141] Setting up loss2/fc
I0403 19:47:15.546102 25897 net.cpp:148] Top shape: 24 1024 (24576)
I0403 19:47:15.546116 25897 net.cpp:156] Memory required for data: 1208220960
I0403 19:47:15.546133 25897 layer_factory.hpp:77] Creating layer loss2/relu_fc
I0403 19:47:15.546149 25897 net.cpp:91] Creating Layer loss2/relu_fc
I0403 19:47:15.546165 25897 net.cpp:425] loss2/relu_fc <- loss2/fc
I0403 19:47:15.546185 25897 net.cpp:386] loss2/relu_fc -> loss2/fc (in-place)
I0403 19:47:15.546470 25897 net.cpp:141] Setting up loss2/relu_fc
I0403 19:47:15.546495 25897 net.cpp:148] Top shape: 24 1024 (24576)
I0403 19:47:15.546509 25897 net.cpp:156] Memory required for data: 1208319264
I0403 19:47:15.546522 25897 layer_factory.hpp:77] Creating layer loss2/drop_fc
I0403 19:47:15.546540 25897 net.cpp:91] Creating Layer loss2/drop_fc
I0403 19:47:15.546555 25897 net.cpp:425] loss2/drop_fc <- loss2/fc
I0403 19:47:15.546572 25897 net.cpp:386] loss2/drop_fc -> loss2/fc (in-place)
I0403 19:47:15.546622 25897 net.cpp:141] Setting up loss2/drop_fc
I0403 19:47:15.546643 25897 net.cpp:148] Top shape: 24 1024 (24576)
I0403 19:47:15.546658 25897 net.cpp:156] Memory required for data: 1208417568
I0403 19:47:15.546670 25897 layer_factory.hpp:77] Creating layer loss2/classifier_plantvillage
I0403 19:47:15.546687 25897 net.cpp:91] Creating Layer loss2/classifier_plantvillage
I0403 19:47:15.546702 25897 net.cpp:425] loss2/classifier_plantvillage <- loss2/fc
I0403 19:47:15.546723 25897 net.cpp:399] loss2/classifier_plantvillage -> loss2/classifier_plantvillage
I0403 19:47:15.547103 25897 net.cpp:141] Setting up loss2/classifier_plantvillage
I0403 19:47:15.547127 25897 net.cpp:148] Top shape: 24 38 (912)
I0403 19:47:15.547155 25897 net.cpp:156] Memory required for data: 1208421216
I0403 19:47:15.547173 25897 layer_factory.hpp:77] Creating layer loss2/classifier_plantvillage_loss2/classifier_plantvillage_0_split
I0403 19:47:15.547191 25897 net.cpp:91] Creating Layer loss2/classifier_plantvillage_loss2/classifier_plantvillage_0_split
I0403 19:47:15.547209 25897 net.cpp:425] loss2/classifier_plantvillage_loss2/classifier_plantvillage_0_split <- loss2/classifier_plantvillage
I0403 19:47:15.547224 25897 net.cpp:399] loss2/classifier_plantvillage_loss2/classifier_plantvillage_0_split -> loss2/classifier_plantvillage_loss2/classifier_plantvillage_0_split_0
I0403 19:47:15.547246 25897 net.cpp:399] loss2/classifier_plantvillage_loss2/classifier_plantvillage_0_split -> loss2/classifier_plantvillage_loss2/classifier_plantvillage_0_split_1
I0403 19:47:15.547266 25897 net.cpp:399] loss2/classifier_plantvillage_loss2/classifier_plantvillage_0_split -> loss2/classifier_plantvillage_loss2/classifier_plantvillage_0_split_2
I0403 19:47:15.547343 25897 net.cpp:141] Setting up loss2/classifier_plantvillage_loss2/classifier_plantvillage_0_split
I0403 19:47:15.547364 25897 net.cpp:148] Top shape: 24 38 (912)
I0403 19:47:15.547380 25897 net.cpp:148] Top shape: 24 38 (912)
I0403 19:47:15.547394 25897 net.cpp:148] Top shape: 24 38 (912)
I0403 19:47:15.547406 25897 net.cpp:156] Memory required for data: 1208432160
I0403 19:47:15.547418 25897 layer_factory.hpp:77] Creating layer inception_4e/1x1
I0403 19:47:15.547438 25897 net.cpp:91] Creating Layer inception_4e/1x1
I0403 19:47:15.547454 25897 net.cpp:425] inception_4e/1x1 <- inception_4d/output_inception_4d/output_0_split_1
I0403 19:47:15.547472 25897 net.cpp:399] inception_4e/1x1 -> inception_4e/1x1
I0403 19:47:15.549180 25897 net.cpp:141] Setting up inception_4e/1x1
I0403 19:47:15.549208 25897 net.cpp:148] Top shape: 24 256 14 14 (1204224)
I0403 19:47:15.549223 25897 net.cpp:156] Memory required for data: 1213249056
I0403 19:47:15.549240 25897 layer_factory.hpp:77] Creating layer inception_4e/relu_1x1
I0403 19:47:15.549257 25897 net.cpp:91] Creating Layer inception_4e/relu_1x1
I0403 19:47:15.549273 25897 net.cpp:425] inception_4e/relu_1x1 <- inception_4e/1x1
I0403 19:47:15.549293 25897 net.cpp:386] inception_4e/relu_1x1 -> inception_4e/1x1 (in-place)
I0403 19:47:15.549573 25897 net.cpp:141] Setting up inception_4e/relu_1x1
I0403 19:47:15.549602 25897 net.cpp:148] Top shape: 24 256 14 14 (1204224)
I0403 19:47:15.549617 25897 net.cpp:156] Memory required for data: 1218065952
I0403 19:47:15.549629 25897 layer_factory.hpp:77] Creating layer inception_4e/3x3_reduce
I0403 19:47:15.549650 25897 net.cpp:91] Creating Layer inception_4e/3x3_reduce
I0403 19:47:15.549667 25897 net.cpp:425] inception_4e/3x3_reduce <- inception_4d/output_inception_4d/output_0_split_2
I0403 19:47:15.549685 25897 net.cpp:399] inception_4e/3x3_reduce -> inception_4e/3x3_reduce
I0403 19:47:15.551718 25897 net.cpp:141] Setting up inception_4e/3x3_reduce
I0403 19:47:15.551746 25897 net.cpp:148] Top shape: 24 160 14 14 (752640)
I0403 19:47:15.551761 25897 net.cpp:156] Memory required for data: 1221076512
I0403 19:47:15.551779 25897 layer_factory.hpp:77] Creating layer inception_4e/relu_3x3_reduce
I0403 19:47:15.551798 25897 net.cpp:91] Creating Layer inception_4e/relu_3x3_reduce
I0403 19:47:15.551815 25897 net.cpp:425] inception_4e/relu_3x3_reduce <- inception_4e/3x3_reduce
I0403 19:47:15.551832 25897 net.cpp:386] inception_4e/relu_3x3_reduce -> inception_4e/3x3_reduce (in-place)
I0403 19:47:15.552011 25897 net.cpp:141] Setting up inception_4e/relu_3x3_reduce
I0403 19:47:15.552037 25897 net.cpp:148] Top shape: 24 160 14 14 (752640)
I0403 19:47:15.552052 25897 net.cpp:156] Memory required for data: 1224087072
I0403 19:47:15.552065 25897 layer_factory.hpp:77] Creating layer inception_4e/3x3
I0403 19:47:15.552086 25897 net.cpp:91] Creating Layer inception_4e/3x3
I0403 19:47:15.552103 25897 net.cpp:425] inception_4e/3x3 <- inception_4e/3x3_reduce
I0403 19:47:15.552120 25897 net.cpp:399] inception_4e/3x3 -> inception_4e/3x3
I0403 19:47:15.556895 25897 net.cpp:141] Setting up inception_4e/3x3
I0403 19:47:15.556938 25897 net.cpp:148] Top shape: 24 320 14 14 (1505280)
I0403 19:47:15.556954 25897 net.cpp:156] Memory required for data: 1230108192
I0403 19:47:15.556972 25897 layer_factory.hpp:77] Creating layer inception_4e/relu_3x3
I0403 19:47:15.556990 25897 net.cpp:91] Creating Layer inception_4e/relu_3x3
I0403 19:47:15.557005 25897 net.cpp:425] inception_4e/relu_3x3 <- inception_4e/3x3
I0403 19:47:15.557024 25897 net.cpp:386] inception_4e/relu_3x3 -> inception_4e/3x3 (in-place)
I0403 19:47:15.557315 25897 net.cpp:141] Setting up inception_4e/relu_3x3
I0403 19:47:15.557340 25897 net.cpp:148] Top shape: 24 320 14 14 (1505280)
I0403 19:47:15.557355 25897 net.cpp:156] Memory required for data: 1236129312
I0403 19:47:15.557370 25897 layer_factory.hpp:77] Creating layer inception_4e/5x5_reduce
I0403 19:47:15.557391 25897 net.cpp:91] Creating Layer inception_4e/5x5_reduce
I0403 19:47:15.557407 25897 net.cpp:425] inception_4e/5x5_reduce <- inception_4d/output_inception_4d/output_0_split_3
I0403 19:47:15.557428 25897 net.cpp:399] inception_4e/5x5_reduce -> inception_4e/5x5_reduce
I0403 19:47:15.558446 25897 net.cpp:141] Setting up inception_4e/5x5_reduce
I0403 19:47:15.558472 25897 net.cpp:148] Top shape: 24 32 14 14 (150528)
I0403 19:47:15.558487 25897 net.cpp:156] Memory required for data: 1236731424
I0403 19:47:15.558506 25897 layer_factory.hpp:77] Creating layer inception_4e/relu_5x5_reduce
I0403 19:47:15.558526 25897 net.cpp:91] Creating Layer inception_4e/relu_5x5_reduce
I0403 19:47:15.558542 25897 net.cpp:425] inception_4e/relu_5x5_reduce <- inception_4e/5x5_reduce
I0403 19:47:15.558557 25897 net.cpp:386] inception_4e/relu_5x5_reduce -> inception_4e/5x5_reduce (in-place)
I0403 19:47:15.558838 25897 net.cpp:141] Setting up inception_4e/relu_5x5_reduce
I0403 19:47:15.558863 25897 net.cpp:148] Top shape: 24 32 14 14 (150528)
I0403 19:47:15.558878 25897 net.cpp:156] Memory required for data: 1237333536
I0403 19:47:15.558893 25897 layer_factory.hpp:77] Creating layer inception_4e/5x5
I0403 19:47:15.558933 25897 net.cpp:91] Creating Layer inception_4e/5x5
I0403 19:47:15.558953 25897 net.cpp:425] inception_4e/5x5 <- inception_4e/5x5_reduce
I0403 19:47:15.558972 25897 net.cpp:399] inception_4e/5x5 -> inception_4e/5x5
I0403 19:47:15.560722 25897 net.cpp:141] Setting up inception_4e/5x5
I0403 19:47:15.560748 25897 net.cpp:148] Top shape: 24 128 14 14 (602112)
I0403 19:47:15.560765 25897 net.cpp:156] Memory required for data: 1239741984
I0403 19:47:15.560781 25897 layer_factory.hpp:77] Creating layer inception_4e/relu_5x5
I0403 19:47:15.560801 25897 net.cpp:91] Creating Layer inception_4e/relu_5x5
I0403 19:47:15.560818 25897 net.cpp:425] inception_4e/relu_5x5 <- inception_4e/5x5
I0403 19:47:15.560835 25897 net.cpp:386] inception_4e/relu_5x5 -> inception_4e/5x5 (in-place)
I0403 19:47:15.561028 25897 net.cpp:141] Setting up inception_4e/relu_5x5
I0403 19:47:15.561053 25897 net.cpp:148] Top shape: 24 128 14 14 (602112)
I0403 19:47:15.561066 25897 net.cpp:156] Memory required for data: 1242150432
I0403 19:47:15.561079 25897 layer_factory.hpp:77] Creating layer inception_4e/pool
I0403 19:47:15.561100 25897 net.cpp:91] Creating Layer inception_4e/pool
I0403 19:47:15.561115 25897 net.cpp:425] inception_4e/pool <- inception_4d/output_inception_4d/output_0_split_4
I0403 19:47:15.561133 25897 net.cpp:399] inception_4e/pool -> inception_4e/pool
I0403 19:47:15.561202 25897 net.cpp:141] Setting up inception_4e/pool
I0403 19:47:15.561224 25897 net.cpp:148] Top shape: 24 528 14 14 (2483712)
I0403 19:47:15.561239 25897 net.cpp:156] Memory required for data: 1252085280
I0403 19:47:15.561252 25897 layer_factory.hpp:77] Creating layer inception_4e/pool_proj
I0403 19:47:15.561274 25897 net.cpp:91] Creating Layer inception_4e/pool_proj
I0403 19:47:15.561295 25897 net.cpp:425] inception_4e/pool_proj <- inception_4e/pool
I0403 19:47:15.561316 25897 net.cpp:399] inception_4e/pool_proj -> inception_4e/pool_proj
I0403 19:47:15.562747 25897 net.cpp:141] Setting up inception_4e/pool_proj
I0403 19:47:15.562785 25897 net.cpp:148] Top shape: 24 128 14 14 (602112)
I0403 19:47:15.562801 25897 net.cpp:156] Memory required for data: 1254493728
I0403 19:47:15.562819 25897 layer_factory.hpp:77] Creating layer inception_4e/relu_pool_proj
I0403 19:47:15.562839 25897 net.cpp:91] Creating Layer inception_4e/relu_pool_proj
I0403 19:47:15.562856 25897 net.cpp:425] inception_4e/relu_pool_proj <- inception_4e/pool_proj
I0403 19:47:15.562872 25897 net.cpp:386] inception_4e/relu_pool_proj -> inception_4e/pool_proj (in-place)
I0403 19:47:15.563149 25897 net.cpp:141] Setting up inception_4e/relu_pool_proj
I0403 19:47:15.563175 25897 net.cpp:148] Top shape: 24 128 14 14 (602112)
I0403 19:47:15.563189 25897 net.cpp:156] Memory required for data: 1256902176
I0403 19:47:15.563204 25897 layer_factory.hpp:77] Creating layer inception_4e/output
I0403 19:47:15.563220 25897 net.cpp:91] Creating Layer inception_4e/output
I0403 19:47:15.563235 25897 net.cpp:425] inception_4e/output <- inception_4e/1x1
I0403 19:47:15.563249 25897 net.cpp:425] inception_4e/output <- inception_4e/3x3
I0403 19:47:15.563264 25897 net.cpp:425] inception_4e/output <- inception_4e/5x5
I0403 19:47:15.563279 25897 net.cpp:425] inception_4e/output <- inception_4e/pool_proj
I0403 19:47:15.563303 25897 net.cpp:399] inception_4e/output -> inception_4e/output
I0403 19:47:15.563354 25897 net.cpp:141] Setting up inception_4e/output
I0403 19:47:15.563380 25897 net.cpp:148] Top shape: 24 832 14 14 (3913728)
I0403 19:47:15.563395 25897 net.cpp:156] Memory required for data: 1272557088
I0403 19:47:15.563408 25897 layer_factory.hpp:77] Creating layer pool4/3x3_s2
I0403 19:47:15.563424 25897 net.cpp:91] Creating Layer pool4/3x3_s2
I0403 19:47:15.563439 25897 net.cpp:425] pool4/3x3_s2 <- inception_4e/output
I0403 19:47:15.563460 25897 net.cpp:399] pool4/3x3_s2 -> pool4/3x3_s2
I0403 19:47:15.563524 25897 net.cpp:141] Setting up pool4/3x3_s2
I0403 19:47:15.563546 25897 net.cpp:148] Top shape: 24 832 7 7 (978432)
I0403 19:47:15.563560 25897 net.cpp:156] Memory required for data: 1276470816
I0403 19:47:15.563573 25897 layer_factory.hpp:77] Creating layer pool4/3x3_s2_pool4/3x3_s2_0_split
I0403 19:47:15.563592 25897 net.cpp:91] Creating Layer pool4/3x3_s2_pool4/3x3_s2_0_split
I0403 19:47:15.563608 25897 net.cpp:425] pool4/3x3_s2_pool4/3x3_s2_0_split <- pool4/3x3_s2
I0403 19:47:15.563626 25897 net.cpp:399] pool4/3x3_s2_pool4/3x3_s2_0_split -> pool4/3x3_s2_pool4/3x3_s2_0_split_0
I0403 19:47:15.563643 25897 net.cpp:399] pool4/3x3_s2_pool4/3x3_s2_0_split -> pool4/3x3_s2_pool4/3x3_s2_0_split_1
I0403 19:47:15.563663 25897 net.cpp:399] pool4/3x3_s2_pool4/3x3_s2_0_split -> pool4/3x3_s2_pool4/3x3_s2_0_split_2
I0403 19:47:15.563685 25897 net.cpp:399] pool4/3x3_s2_pool4/3x3_s2_0_split -> pool4/3x3_s2_pool4/3x3_s2_0_split_3
I0403 19:47:15.563774 25897 net.cpp:141] Setting up pool4/3x3_s2_pool4/3x3_s2_0_split
I0403 19:47:15.563796 25897 net.cpp:148] Top shape: 24 832 7 7 (978432)
I0403 19:47:15.563812 25897 net.cpp:148] Top shape: 24 832 7 7 (978432)
I0403 19:47:15.563827 25897 net.cpp:148] Top shape: 24 832 7 7 (978432)
I0403 19:47:15.563840 25897 net.cpp:148] Top shape: 24 832 7 7 (978432)
I0403 19:47:15.563853 25897 net.cpp:156] Memory required for data: 1292125728
I0403 19:47:15.563865 25897 layer_factory.hpp:77] Creating layer inception_5a/1x1
I0403 19:47:15.563889 25897 net.cpp:91] Creating Layer inception_5a/1x1
I0403 19:47:15.563905 25897 net.cpp:425] inception_5a/1x1 <- pool4/3x3_s2_pool4/3x3_s2_0_split_0
I0403 19:47:15.563926 25897 net.cpp:399] inception_5a/1x1 -> inception_5a/1x1
I0403 19:47:15.566684 25897 net.cpp:141] Setting up inception_5a/1x1
I0403 19:47:15.566711 25897 net.cpp:148] Top shape: 24 256 7 7 (301056)
I0403 19:47:15.566727 25897 net.cpp:156] Memory required for data: 1293329952
I0403 19:47:15.566745 25897 layer_factory.hpp:77] Creating layer inception_5a/relu_1x1
I0403 19:47:15.566763 25897 net.cpp:91] Creating Layer inception_5a/relu_1x1
I0403 19:47:15.566781 25897 net.cpp:425] inception_5a/relu_1x1 <- inception_5a/1x1
I0403 19:47:15.566797 25897 net.cpp:386] inception_5a/relu_1x1 -> inception_5a/1x1 (in-place)
I0403 19:47:15.567095 25897 net.cpp:141] Setting up inception_5a/relu_1x1
I0403 19:47:15.567121 25897 net.cpp:148] Top shape: 24 256 7 7 (301056)
I0403 19:47:15.567136 25897 net.cpp:156] Memory required for data: 1294534176
I0403 19:47:15.567149 25897 layer_factory.hpp:77] Creating layer inception_5a/3x3_reduce
I0403 19:47:15.567170 25897 net.cpp:91] Creating Layer inception_5a/3x3_reduce
I0403 19:47:15.567186 25897 net.cpp:425] inception_5a/3x3_reduce <- pool4/3x3_s2_pool4/3x3_s2_0_split_1
I0403 19:47:15.567208 25897 net.cpp:399] inception_5a/3x3_reduce -> inception_5a/3x3_reduce
I0403 19:47:15.569563 25897 net.cpp:141] Setting up inception_5a/3x3_reduce
I0403 19:47:15.569592 25897 net.cpp:148] Top shape: 24 160 7 7 (188160)
I0403 19:47:15.569608 25897 net.cpp:156] Memory required for data: 1295286816
I0403 19:47:15.569627 25897 layer_factory.hpp:77] Creating layer inception_5a/relu_3x3_reduce
I0403 19:47:15.569643 25897 net.cpp:91] Creating Layer inception_5a/relu_3x3_reduce
I0403 19:47:15.569658 25897 net.cpp:425] inception_5a/relu_3x3_reduce <- inception_5a/3x3_reduce
I0403 19:47:15.569677 25897 net.cpp:386] inception_5a/relu_3x3_reduce -> inception_5a/3x3_reduce (in-place)
I0403 19:47:15.569855 25897 net.cpp:141] Setting up inception_5a/relu_3x3_reduce
I0403 19:47:15.569880 25897 net.cpp:148] Top shape: 24 160 7 7 (188160)
I0403 19:47:15.569893 25897 net.cpp:156] Memory required for data: 1296039456
I0403 19:47:15.569908 25897 layer_factory.hpp:77] Creating layer inception_5a/3x3
I0403 19:47:15.569928 25897 net.cpp:91] Creating Layer inception_5a/3x3
I0403 19:47:15.569947 25897 net.cpp:425] inception_5a/3x3 <- inception_5a/3x3_reduce
I0403 19:47:15.569967 25897 net.cpp:399] inception_5a/3x3 -> inception_5a/3x3
I0403 19:47:15.574800 25897 net.cpp:141] Setting up inception_5a/3x3
I0403 19:47:15.574827 25897 net.cpp:148] Top shape: 24 320 7 7 (376320)
I0403 19:47:15.574843 25897 net.cpp:156] Memory required for data: 1297544736
I0403 19:47:15.574859 25897 layer_factory.hpp:77] Creating layer inception_5a/relu_3x3
I0403 19:47:15.574882 25897 net.cpp:91] Creating Layer inception_5a/relu_3x3
I0403 19:47:15.574898 25897 net.cpp:425] inception_5a/relu_3x3 <- inception_5a/3x3
I0403 19:47:15.574914 25897 net.cpp:386] inception_5a/relu_3x3 -> inception_5a/3x3 (in-place)
I0403 19:47:15.575196 25897 net.cpp:141] Setting up inception_5a/relu_3x3
I0403 19:47:15.575222 25897 net.cpp:148] Top shape: 24 320 7 7 (376320)
I0403 19:47:15.575237 25897 net.cpp:156] Memory required for data: 1299050016
I0403 19:47:15.575250 25897 layer_factory.hpp:77] Creating layer inception_5a/5x5_reduce
I0403 19:47:15.575270 25897 net.cpp:91] Creating Layer inception_5a/5x5_reduce
I0403 19:47:15.575292 25897 net.cpp:425] inception_5a/5x5_reduce <- pool4/3x3_s2_pool4/3x3_s2_0_split_2
I0403 19:47:15.575314 25897 net.cpp:399] inception_5a/5x5_reduce -> inception_5a/5x5_reduce
I0403 19:47:15.576433 25897 net.cpp:141] Setting up inception_5a/5x5_reduce
I0403 19:47:15.576462 25897 net.cpp:148] Top shape: 24 32 7 7 (37632)
I0403 19:47:15.576475 25897 net.cpp:156] Memory required for data: 1299200544
I0403 19:47:15.576493 25897 layer_factory.hpp:77] Creating layer inception_5a/relu_5x5_reduce
I0403 19:47:15.576513 25897 net.cpp:91] Creating Layer inception_5a/relu_5x5_reduce
I0403 19:47:15.576529 25897 net.cpp:425] inception_5a/relu_5x5_reduce <- inception_5a/5x5_reduce
I0403 19:47:15.576545 25897 net.cpp:386] inception_5a/relu_5x5_reduce -> inception_5a/5x5_reduce (in-place)
I0403 19:47:15.576834 25897 net.cpp:141] Setting up inception_5a/relu_5x5_reduce
I0403 19:47:15.576859 25897 net.cpp:148] Top shape: 24 32 7 7 (37632)
I0403 19:47:15.576874 25897 net.cpp:156] Memory required for data: 1299351072
I0403 19:47:15.576889 25897 layer_factory.hpp:77] Creating layer inception_5a/5x5
I0403 19:47:15.576910 25897 net.cpp:91] Creating Layer inception_5a/5x5
I0403 19:47:15.576927 25897 net.cpp:425] inception_5a/5x5 <- inception_5a/5x5_reduce
I0403 19:47:15.576946 25897 net.cpp:399] inception_5a/5x5 -> inception_5a/5x5
I0403 19:47:15.578580 25897 net.cpp:141] Setting up inception_5a/5x5
I0403 19:47:15.578618 25897 net.cpp:148] Top shape: 24 128 7 7 (150528)
I0403 19:47:15.578634 25897 net.cpp:156] Memory required for data: 1299953184
I0403 19:47:15.578650 25897 layer_factory.hpp:77] Creating layer inception_5a/relu_5x5
I0403 19:47:15.578670 25897 net.cpp:91] Creating Layer inception_5a/relu_5x5
I0403 19:47:15.578686 25897 net.cpp:425] inception_5a/relu_5x5 <- inception_5a/5x5
I0403 19:47:15.578703 25897 net.cpp:386] inception_5a/relu_5x5 -> inception_5a/5x5 (in-place)
I0403 19:47:15.578887 25897 net.cpp:141] Setting up inception_5a/relu_5x5
I0403 19:47:15.578912 25897 net.cpp:148] Top shape: 24 128 7 7 (150528)
I0403 19:47:15.578925 25897 net.cpp:156] Memory required for data: 1300555296
I0403 19:47:15.578939 25897 layer_factory.hpp:77] Creating layer inception_5a/pool
I0403 19:47:15.578958 25897 net.cpp:91] Creating Layer inception_5a/pool
I0403 19:47:15.578974 25897 net.cpp:425] inception_5a/pool <- pool4/3x3_s2_pool4/3x3_s2_0_split_3
I0403 19:47:15.578994 25897 net.cpp:399] inception_5a/pool -> inception_5a/pool
I0403 19:47:15.579059 25897 net.cpp:141] Setting up inception_5a/pool
I0403 19:47:15.579083 25897 net.cpp:148] Top shape: 24 832 7 7 (978432)
I0403 19:47:15.579097 25897 net.cpp:156] Memory required for data: 1304469024
I0403 19:47:15.579110 25897 layer_factory.hpp:77] Creating layer inception_5a/pool_proj
I0403 19:47:15.579131 25897 net.cpp:91] Creating Layer inception_5a/pool_proj
I0403 19:47:15.579147 25897 net.cpp:425] inception_5a/pool_proj <- inception_5a/pool
I0403 19:47:15.579167 25897 net.cpp:399] inception_5a/pool_proj -> inception_5a/pool_proj
I0403 19:47:15.581364 25897 net.cpp:141] Setting up inception_5a/pool_proj
I0403 19:47:15.581393 25897 net.cpp:148] Top shape: 24 128 7 7 (150528)
I0403 19:47:15.581409 25897 net.cpp:156] Memory required for data: 1305071136
I0403 19:47:15.581428 25897 layer_factory.hpp:77] Creating layer inception_5a/relu_pool_proj
I0403 19:47:15.581445 25897 net.cpp:91] Creating Layer inception_5a/relu_pool_proj
I0403 19:47:15.581461 25897 net.cpp:425] inception_5a/relu_pool_proj <- inception_5a/pool_proj
I0403 19:47:15.581480 25897 net.cpp:386] inception_5a/relu_pool_proj -> inception_5a/pool_proj (in-place)
I0403 19:47:15.581763 25897 net.cpp:141] Setting up inception_5a/relu_pool_proj
I0403 19:47:15.581789 25897 net.cpp:148] Top shape: 24 128 7 7 (150528)
I0403 19:47:15.581804 25897 net.cpp:156] Memory required for data: 1305673248
I0403 19:47:15.581818 25897 layer_factory.hpp:77] Creating layer inception_5a/output
I0403 19:47:15.581835 25897 net.cpp:91] Creating Layer inception_5a/output
I0403 19:47:15.581851 25897 net.cpp:425] inception_5a/output <- inception_5a/1x1
I0403 19:47:15.581866 25897 net.cpp:425] inception_5a/output <- inception_5a/3x3
I0403 19:47:15.581882 25897 net.cpp:425] inception_5a/output <- inception_5a/5x5
I0403 19:47:15.581898 25897 net.cpp:425] inception_5a/output <- inception_5a/pool_proj
I0403 19:47:15.581918 25897 net.cpp:399] inception_5a/output -> inception_5a/output
I0403 19:47:15.581966 25897 net.cpp:141] Setting up inception_5a/output
I0403 19:47:15.581993 25897 net.cpp:148] Top shape: 24 832 7 7 (978432)
I0403 19:47:15.582008 25897 net.cpp:156] Memory required for data: 1309586976
I0403 19:47:15.582022 25897 layer_factory.hpp:77] Creating layer inception_5a/output_inception_5a/output_0_split
I0403 19:47:15.582038 25897 net.cpp:91] Creating Layer inception_5a/output_inception_5a/output_0_split
I0403 19:47:15.582054 25897 net.cpp:425] inception_5a/output_inception_5a/output_0_split <- inception_5a/output
I0403 19:47:15.582072 25897 net.cpp:399] inception_5a/output_inception_5a/output_0_split -> inception_5a/output_inception_5a/output_0_split_0
I0403 19:47:15.582094 25897 net.cpp:399] inception_5a/output_inception_5a/output_0_split -> inception_5a/output_inception_5a/output_0_split_1
I0403 19:47:15.582116 25897 net.cpp:399] inception_5a/output_inception_5a/output_0_split -> inception_5a/output_inception_5a/output_0_split_2
I0403 19:47:15.582137 25897 net.cpp:399] inception_5a/output_inception_5a/output_0_split -> inception_5a/output_inception_5a/output_0_split_3
I0403 19:47:15.582247 25897 net.cpp:141] Setting up inception_5a/output_inception_5a/output_0_split
I0403 19:47:15.582270 25897 net.cpp:148] Top shape: 24 832 7 7 (978432)
I0403 19:47:15.582291 25897 net.cpp:148] Top shape: 24 832 7 7 (978432)
I0403 19:47:15.582309 25897 net.cpp:148] Top shape: 24 832 7 7 (978432)
I0403 19:47:15.582324 25897 net.cpp:148] Top shape: 24 832 7 7 (978432)
I0403 19:47:15.582336 25897 net.cpp:156] Memory required for data: 1325241888
I0403 19:47:15.582350 25897 layer_factory.hpp:77] Creating layer inception_5b/1x1
I0403 19:47:15.582375 25897 net.cpp:91] Creating Layer inception_5b/1x1
I0403 19:47:15.582391 25897 net.cpp:425] inception_5b/1x1 <- inception_5a/output_inception_5a/output_0_split_0
I0403 19:47:15.582409 25897 net.cpp:399] inception_5b/1x1 -> inception_5b/1x1
I0403 19:47:15.586001 25897 net.cpp:141] Setting up inception_5b/1x1
I0403 19:47:15.586029 25897 net.cpp:148] Top shape: 24 384 7 7 (451584)
I0403 19:47:15.586043 25897 net.cpp:156] Memory required for data: 1327048224
I0403 19:47:15.586061 25897 layer_factory.hpp:77] Creating layer inception_5b/relu_1x1
I0403 19:47:15.586078 25897 net.cpp:91] Creating Layer inception_5b/relu_1x1
I0403 19:47:15.586093 25897 net.cpp:425] inception_5b/relu_1x1 <- inception_5b/1x1
I0403 19:47:15.586112 25897 net.cpp:386] inception_5b/relu_1x1 -> inception_5b/1x1 (in-place)
I0403 19:47:15.586407 25897 net.cpp:141] Setting up inception_5b/relu_1x1
I0403 19:47:15.586432 25897 net.cpp:148] Top shape: 24 384 7 7 (451584)
I0403 19:47:15.586447 25897 net.cpp:156] Memory required for data: 1328854560
I0403 19:47:15.586460 25897 layer_factory.hpp:77] Creating layer inception_5b/3x3_reduce
I0403 19:47:15.586482 25897 net.cpp:91] Creating Layer inception_5b/3x3_reduce
I0403 19:47:15.586499 25897 net.cpp:425] inception_5b/3x3_reduce <- inception_5a/output_inception_5a/output_0_split_1
I0403 19:47:15.586520 25897 net.cpp:399] inception_5b/3x3_reduce -> inception_5b/3x3_reduce
I0403 19:47:15.589038 25897 net.cpp:141] Setting up inception_5b/3x3_reduce
I0403 19:47:15.589066 25897 net.cpp:148] Top shape: 24 192 7 7 (225792)
I0403 19:47:15.589082 25897 net.cpp:156] Memory required for data: 1329757728
I0403 19:47:15.589098 25897 layer_factory.hpp:77] Creating layer inception_5b/relu_3x3_reduce
I0403 19:47:15.589115 25897 net.cpp:91] Creating Layer inception_5b/relu_3x3_reduce
I0403 19:47:15.589130 25897 net.cpp:425] inception_5b/relu_3x3_reduce <- inception_5b/3x3_reduce
I0403 19:47:15.589149 25897 net.cpp:386] inception_5b/relu_3x3_reduce -> inception_5b/3x3_reduce (in-place)
I0403 19:47:15.589336 25897 net.cpp:141] Setting up inception_5b/relu_3x3_reduce
I0403 19:47:15.589360 25897 net.cpp:148] Top shape: 24 192 7 7 (225792)
I0403 19:47:15.589375 25897 net.cpp:156] Memory required for data: 1330660896
I0403 19:47:15.589387 25897 layer_factory.hpp:77] Creating layer inception_5b/3x3
I0403 19:47:15.589407 25897 net.cpp:91] Creating Layer inception_5b/3x3
I0403 19:47:15.589424 25897 net.cpp:425] inception_5b/3x3 <- inception_5b/3x3_reduce
I0403 19:47:15.589444 25897 net.cpp:399] inception_5b/3x3 -> inception_5b/3x3
I0403 19:47:15.595840 25897 net.cpp:141] Setting up inception_5b/3x3
I0403 19:47:15.595868 25897 net.cpp:148] Top shape: 24 384 7 7 (451584)
I0403 19:47:15.595885 25897 net.cpp:156] Memory required for data: 1332467232
I0403 19:47:15.595901 25897 layer_factory.hpp:77] Creating layer inception_5b/relu_3x3
I0403 19:47:15.595918 25897 net.cpp:91] Creating Layer inception_5b/relu_3x3
I0403 19:47:15.595934 25897 net.cpp:425] inception_5b/relu_3x3 <- inception_5b/3x3
I0403 19:47:15.595952 25897 net.cpp:386] inception_5b/relu_3x3 -> inception_5b/3x3 (in-place)
I0403 19:47:15.596235 25897 net.cpp:141] Setting up inception_5b/relu_3x3
I0403 19:47:15.596259 25897 net.cpp:148] Top shape: 24 384 7 7 (451584)
I0403 19:47:15.596273 25897 net.cpp:156] Memory required for data: 1334273568
I0403 19:47:15.596292 25897 layer_factory.hpp:77] Creating layer inception_5b/5x5_reduce
I0403 19:47:15.596328 25897 net.cpp:91] Creating Layer inception_5b/5x5_reduce
I0403 19:47:15.596346 25897 net.cpp:425] inception_5b/5x5_reduce <- inception_5a/output_inception_5a/output_0_split_2
I0403 19:47:15.596369 25897 net.cpp:399] inception_5b/5x5_reduce -> inception_5b/5x5_reduce
I0403 19:47:15.597578 25897 net.cpp:141] Setting up inception_5b/5x5_reduce
I0403 19:47:15.597604 25897 net.cpp:148] Top shape: 24 48 7 7 (56448)
I0403 19:47:15.597618 25897 net.cpp:156] Memory required for data: 1334499360
I0403 19:47:15.597635 25897 layer_factory.hpp:77] Creating layer inception_5b/relu_5x5_reduce
I0403 19:47:15.597654 25897 net.cpp:91] Creating Layer inception_5b/relu_5x5_reduce
I0403 19:47:15.597671 25897 net.cpp:425] inception_5b/relu_5x5_reduce <- inception_5b/5x5_reduce
I0403 19:47:15.597687 25897 net.cpp:386] inception_5b/relu_5x5_reduce -> inception_5b/5x5_reduce (in-place)
I0403 19:47:15.598038 25897 net.cpp:141] Setting up inception_5b/relu_5x5_reduce
I0403 19:47:15.598064 25897 net.cpp:148] Top shape: 24 48 7 7 (56448)
I0403 19:47:15.598078 25897 net.cpp:156] Memory required for data: 1334725152
I0403 19:47:15.598093 25897 layer_factory.hpp:77] Creating layer inception_5b/5x5
I0403 19:47:15.598111 25897 net.cpp:91] Creating Layer inception_5b/5x5
I0403 19:47:15.598127 25897 net.cpp:425] inception_5b/5x5 <- inception_5b/5x5_reduce
I0403 19:47:15.598145 25897 net.cpp:399] inception_5b/5x5 -> inception_5b/5x5
I0403 19:47:15.600090 25897 net.cpp:141] Setting up inception_5b/5x5
I0403 19:47:15.600116 25897 net.cpp:148] Top shape: 24 128 7 7 (150528)
I0403 19:47:15.600131 25897 net.cpp:156] Memory required for data: 1335327264
I0403 19:47:15.600148 25897 layer_factory.hpp:77] Creating layer inception_5b/relu_5x5
I0403 19:47:15.600167 25897 net.cpp:91] Creating Layer inception_5b/relu_5x5
I0403 19:47:15.600183 25897 net.cpp:425] inception_5b/relu_5x5 <- inception_5b/5x5
I0403 19:47:15.600199 25897 net.cpp:386] inception_5b/relu_5x5 -> inception_5b/5x5 (in-place)
I0403 19:47:15.600390 25897 net.cpp:141] Setting up inception_5b/relu_5x5
I0403 19:47:15.600416 25897 net.cpp:148] Top shape: 24 128 7 7 (150528)
I0403 19:47:15.600432 25897 net.cpp:156] Memory required for data: 1335929376
I0403 19:47:15.600446 25897 layer_factory.hpp:77] Creating layer inception_5b/pool
I0403 19:47:15.600462 25897 net.cpp:91] Creating Layer inception_5b/pool
I0403 19:47:15.600477 25897 net.cpp:425] inception_5b/pool <- inception_5a/output_inception_5a/output_0_split_3
I0403 19:47:15.600494 25897 net.cpp:399] inception_5b/pool -> inception_5b/pool
I0403 19:47:15.600565 25897 net.cpp:141] Setting up inception_5b/pool
I0403 19:47:15.600589 25897 net.cpp:148] Top shape: 24 832 7 7 (978432)
I0403 19:47:15.600601 25897 net.cpp:156] Memory required for data: 1339843104
I0403 19:47:15.600615 25897 layer_factory.hpp:77] Creating layer inception_5b/pool_proj
I0403 19:47:15.600636 25897 net.cpp:91] Creating Layer inception_5b/pool_proj
I0403 19:47:15.600652 25897 net.cpp:425] inception_5b/pool_proj <- inception_5b/pool
I0403 19:47:15.600672 25897 net.cpp:399] inception_5b/pool_proj -> inception_5b/pool_proj
I0403 19:47:15.602843 25897 net.cpp:141] Setting up inception_5b/pool_proj
I0403 19:47:15.602874 25897 net.cpp:148] Top shape: 24 128 7 7 (150528)
I0403 19:47:15.602888 25897 net.cpp:156] Memory required for data: 1340445216
I0403 19:47:15.602905 25897 layer_factory.hpp:77] Creating layer inception_5b/relu_pool_proj
I0403 19:47:15.602924 25897 net.cpp:91] Creating Layer inception_5b/relu_pool_proj
I0403 19:47:15.602941 25897 net.cpp:425] inception_5b/relu_pool_proj <- inception_5b/pool_proj
I0403 19:47:15.602957 25897 net.cpp:386] inception_5b/relu_pool_proj -> inception_5b/pool_proj (in-place)
I0403 19:47:15.603237 25897 net.cpp:141] Setting up inception_5b/relu_pool_proj
I0403 19:47:15.603262 25897 net.cpp:148] Top shape: 24 128 7 7 (150528)
I0403 19:47:15.603277 25897 net.cpp:156] Memory required for data: 1341047328
I0403 19:47:15.603296 25897 layer_factory.hpp:77] Creating layer inception_5b/output
I0403 19:47:15.603314 25897 net.cpp:91] Creating Layer inception_5b/output
I0403 19:47:15.603345 25897 net.cpp:425] inception_5b/output <- inception_5b/1x1
I0403 19:47:15.603366 25897 net.cpp:425] inception_5b/output <- inception_5b/3x3
I0403 19:47:15.603384 25897 net.cpp:425] inception_5b/output <- inception_5b/5x5
I0403 19:47:15.603399 25897 net.cpp:425] inception_5b/output <- inception_5b/pool_proj
I0403 19:47:15.603415 25897 net.cpp:399] inception_5b/output -> inception_5b/output
I0403 19:47:15.603463 25897 net.cpp:141] Setting up inception_5b/output
I0403 19:47:15.603488 25897 net.cpp:148] Top shape: 24 1024 7 7 (1204224)
I0403 19:47:15.603502 25897 net.cpp:156] Memory required for data: 1345864224
I0403 19:47:15.603516 25897 layer_factory.hpp:77] Creating layer pool5/7x7_s1
I0403 19:47:15.603533 25897 net.cpp:91] Creating Layer pool5/7x7_s1
I0403 19:47:15.603548 25897 net.cpp:425] pool5/7x7_s1 <- inception_5b/output
I0403 19:47:15.603565 25897 net.cpp:399] pool5/7x7_s1 -> pool5/7x7_s1
I0403 19:47:15.603803 25897 net.cpp:141] Setting up pool5/7x7_s1
I0403 19:47:15.603828 25897 net.cpp:148] Top shape: 24 1024 1 1 (24576)
I0403 19:47:15.603842 25897 net.cpp:156] Memory required for data: 1345962528
I0403 19:47:15.603857 25897 layer_factory.hpp:77] Creating layer pool5/drop_7x7_s1
I0403 19:47:15.603874 25897 net.cpp:91] Creating Layer pool5/drop_7x7_s1
I0403 19:47:15.603891 25897 net.cpp:425] pool5/drop_7x7_s1 <- pool5/7x7_s1
I0403 19:47:15.603919 25897 net.cpp:386] pool5/drop_7x7_s1 -> pool5/7x7_s1 (in-place)
I0403 19:47:15.603968 25897 net.cpp:141] Setting up pool5/drop_7x7_s1
I0403 19:47:15.603991 25897 net.cpp:148] Top shape: 24 1024 1 1 (24576)
I0403 19:47:15.604004 25897 net.cpp:156] Memory required for data: 1346060832
I0403 19:47:15.604018 25897 layer_factory.hpp:77] Creating layer loss3/classifier_plantvillage
I0403 19:47:15.604037 25897 net.cpp:91] Creating Layer loss3/classifier_plantvillage
I0403 19:47:15.604053 25897 net.cpp:425] loss3/classifier_plantvillage <- pool5/7x7_s1
I0403 19:47:15.604073 25897 net.cpp:399] loss3/classifier_plantvillage -> loss3/classifier_plantvillage
I0403 19:47:15.604492 25897 net.cpp:141] Setting up loss3/classifier_plantvillage
I0403 19:47:15.604517 25897 net.cpp:148] Top shape: 24 38 (912)
I0403 19:47:15.604532 25897 net.cpp:156] Memory required for data: 1346064480
I0403 19:47:15.604548 25897 layer_factory.hpp:77] Creating layer loss3/classifier_plantvillage_loss3/classifier_plantvillage_0_split
I0403 19:47:15.604565 25897 net.cpp:91] Creating Layer loss3/classifier_plantvillage_loss3/classifier_plantvillage_0_split
I0403 19:47:15.604580 25897 net.cpp:425] loss3/classifier_plantvillage_loss3/classifier_plantvillage_0_split <- loss3/classifier_plantvillage
I0403 19:47:15.604601 25897 net.cpp:399] loss3/classifier_plantvillage_loss3/classifier_plantvillage_0_split -> loss3/classifier_plantvillage_loss3/classifier_plantvillage_0_split_0
I0403 19:47:15.604624 25897 net.cpp:399] loss3/classifier_plantvillage_loss3/classifier_plantvillage_0_split -> loss3/classifier_plantvillage_loss3/classifier_plantvillage_0_split_1
I0403 19:47:15.604642 25897 net.cpp:399] loss3/classifier_plantvillage_loss3/classifier_plantvillage_0_split -> loss3/classifier_plantvillage_loss3/classifier_plantvillage_0_split_2
I0403 19:47:15.604661 25897 net.cpp:399] loss3/classifier_plantvillage_loss3/classifier_plantvillage_0_split -> loss3/classifier_plantvillage_loss3/classifier_plantvillage_0_split_3
I0403 19:47:15.604758 25897 net.cpp:141] Setting up loss3/classifier_plantvillage_loss3/classifier_plantvillage_0_split
I0403 19:47:15.604781 25897 net.cpp:148] Top shape: 24 38 (912)
I0403 19:47:15.604796 25897 net.cpp:148] Top shape: 24 38 (912)
I0403 19:47:15.604811 25897 net.cpp:148] Top shape: 24 38 (912)
I0403 19:47:15.604825 25897 net.cpp:148] Top shape: 24 38 (912)
I0403 19:47:15.604837 25897 net.cpp:156] Memory required for data: 1346079072
I0403 19:47:15.604851 25897 layer_factory.hpp:77] Creating layer loss1/loss
I0403 19:47:15.604876 25897 net.cpp:91] Creating Layer loss1/loss
I0403 19:47:15.604893 25897 net.cpp:425] loss1/loss <- loss1/classifier_plantvillage_loss1/classifier_plantvillage_0_split_0
I0403 19:47:15.604923 25897 net.cpp:425] loss1/loss <- label_data_1_split_0
…
