…
I0403 19:38:35.074491 25394 net.cpp:313] The NetState phase (1) differed from the phase (0) specified by a rule in layer data
I0403 19:38:35.075690 25394 net.cpp:49] Initializing net from parameters: 
state {
  phase: TEST
}
layer {
  name: "data"
  type: "Data"
  top: "data"
  top: "label"
  include {
    phase: TEST
  }
  transform_param {
    mirror: false
    crop_size: 224
    mean_file: "/home/mohanty/data/final_dataset/lmdb/grayscale-80-20/mean.binaryproto"
  }
  data_param {
    source: "/home/mohanty/data/final_dataset/lmdb/grayscale-80-20/test_db"
    batch_size: 24
    backend: LMDB
  }
}
layer {
  name: "conv1/7x7_s2"
  type: "Convolution"
  bottom: "data"
  top: "conv1/7x7_s2"
  param {
    lr_mult: 1
    decay_mult: 1
  }
  param {
    lr_mult: 2
    decay_mult: 0
  }
  convolution_param {
    num_output: 64
    pad: 3
    kernel_size: 7
    stride: 2
    weight_filler {
      type: "xavier"
      std: 0.1
    }
    bias_filler {
      type: "constant"
      value: 0.2
    }
  }
}
layer {
  name: "conv1/relu_7x7"
  type: "ReLU"
  bottom: "conv1/7x7_s2"
  top: "conv1/7x7_s2"
}
layer {
  name: "pool1/3x3_s2"
  type: "Pooling"
  bottom: "conv1/7x7_s2"
  top: "pool1/3x3_s2"
  pooling_param {
    pool: MAX
    kernel_size: 3
    stride: 2
  }
}
layer {
  name: "pool1/norm1"
  type: "LRN"
  bottom: "pool1/3x3_s2"
  top: "pool1/norm1"
  lrn_param {
    local_size: 5
    alpha: 0.0001
    beta: 0.75
  }
}
layer {
  name: "conv2/3x3_reduce"
  type: "Convolution"
  bottom: "pool1/norm1"
  top: "conv2/3x3_reduce"
  param {
    lr_mult: 1
    decay_mult: 1
  }
  param {
    lr_mult: 2
    decay_mult: 0
  }
  convolution_param {
    num_output: 64
    kernel_size: 1
    weight_filler {
      type: "xavier"
      std: 0.1
    }
    bias_filler {
      type: "constant"
      value: 0.2
    }
  }
}
layer {
  name: "conv2/relu_3x3_reduce"
  type: "ReLU"
  bottom: "conv2/3x3_reduce"
  top: "conv2/3x3_reduce"
}
layer {
  name: "conv2/3x3"
  type: "Convolution"
  bottom: "conv2/3x3_reduce"
  top: "conv2/3x3"
  param {
    lr_mult: 1
    decay_mult: 1
  }
  param {
    lr_mult: 2
    decay_mult: 0
  }
  convolution_param {
    num_output: 192
    pad: 1
    kernel_size: 3
    weight_filler {
      type: "xavier"
      std: 0.03
    }
    bias_filler {
      type: "constant"
      value: 0.2
    }
  }
}
layer {
  name: "conv2/relu_3x3"
  type: "ReLU"
  bottom: "conv2/3x3"
  top: "conv2/3x3"
}
layer {
  name: "conv2/norm2"
  type: "LRN"
  bottom: "conv2/3x3"
  top: "conv2/norm2"
  lrn_param {
    local_size: 5
    alpha: 0.0001
    beta: 0.75
  }
}
layer {
  name: "pool2/3x3_s2"
  type: "Pooling"
  bottom: "conv2/norm2"
  top: "pool2/3x3_s2"
  pooling_param {
    pool: MAX
    kernel_size: 3
    stride: 2
  }
}
layer {
  name: "inception_3a/1x1"
  type: "Convolution"
  bottom: "pool2/3x3_s2"
  top: "inception_3a/1x1"
  param {
    lr_mult: 1
    decay_mult: 1
  }
  param {
    lr_mult: 2
    decay_mult: 0
  }
  convolution_param {
    num_output: 64
    kernel_size: 1
    weight_filler {
      type: "xavier"
      std: 0.03
    }
    bias_filler {
      type: "constant"
      value: 0.2
    }
  }
}
layer {
  name: "inception_3a/relu_1x1"
  type: "ReLU"
  bottom: "inception_3a/1x1"
  top: "inception_3a/1x1"
}
layer {
  name: "inception_3a/3x3_reduce"
  type: "Convolution"
  bottom: "pool2/3x3_s2"
  top: "inception_3a/3x3_reduce"
  param {
    lr_mult: 1
    decay_mult: 1
  }
  param {
    lr_mult: 2
    decay_mult: 0
  }
  convolution_param {
    num_output: 96
    kernel_size: 1
    weight_filler {
      type: "xavier"
      std: 0.09
    }
    bias_filler {
      type: "constant"
      value: 0.2
    }
  }
}
layer {
  name: "inception_3a/relu_3x3_reduce"
  type: "ReLU"
  bottom: "inception_3a/3x3_reduce"
  top: "inception_3a/3x3_reduce"
}
layer {
  name: "inception_3a/3x3"
  type: "Convolution"
  bottom: "inception_3a/3x3_reduce"
  top: "inception_3a/3x3"
  param {
    lr_mult: 1
    decay_mult: 1
  }
  param {
    lr_mult: 2
    decay_mult: 0
  }
  convolution_param {
    num_output: 128
    pad: 1
    kernel_size: 3
    weight_filler {
      type: "xavier"
      std: 0.03
    }
    bias_filler {
      type: "constant"
      value: 0.2
    }
  }
}
layer {
  name: "inception_3a/relu_3x3"
  type: "ReLU"
  bottom: "inception_3a/3x3"
  top: "inception_3a/3x3"
}
layer {
  name: "inception_3a/5x5_reduce"
  type: "Convolution"
  bottom: "pool2/3x3_s2"
  top: "inception_3a/5x5_reduce"
  param {
    lr_mult: 1
    decay_mult: 1
  }
  param {
    lr_mult: 2
    decay_mult: 0
  }
  convolution_param {
    num_output: 16
    kernel_size: 1
    weight_filler {
      type: "xavier"
      std: 0.2
    }
    bias_filler {
      type: "constant"
      value: 0.2
    }
  }
}
layer {
  name: "inception_3a/relu_5x5_reduce"
  type: "ReLU"
  bottom: "inception_3a/5x5_reduce"
  top: "inception_3a/5x5_reduce"
}
layer {
  name: "inception_3a/5x5"
  type: "Convolution"
  bottom: "inception_3a/5x5_reduce"
  top: "inception_3a/5x5"
  param {
    lr_mult: 1
    decay_mult: 1
  }
  param {
    lr_mult: 2
    decay_mult: 0
  }
  convolution_param {
    num_output: 32
    pad: 2
    kernel_size: 5
    weight_filler {
      type: "xavier"
      std: 0.03
    }
    bias_filler {
      type: "constant"
      value: 0.2
    }
  }
}
layer {
  name: "inception_3a/relu_5x5"
  type: "ReLU"
  bottom: "inception_3a/5x5"
  top: "inception_3a/5x5"
}
layer {
  name: "inception_3a/pool"
  type: "Pooling"
  bottom: "pool2/3x3_s2"
  top: "inception_3a/pool"
  pooling_param {
    pool: MAX
    kernel_size: 3
    stride: 1
    pad: 1
  }
}
layer {
  name: "inception_3a/pool_proj"
  type: "Convolution"
  bottom: "inception_3a/pool"
  top: "inception_3a/pool_proj"
  param {
    lr_mult: 1
    decay_mult: 1
  }
  param {
    lr_mult: 2
    decay_mult: 0
  }
  convolution_param {
    num_output: 32
    kernel_size: 1
    weight_filler {
      type: "xavier"
      std: 0.1
    }
    bias_filler {
      type: "constant"
      value: 0.2
    }
  }
}
layer {
  name: "inception_3a/relu_pool_proj"
  type: "ReLU"
  bottom: "inception_3a/pool_proj"
  top: "inception_3a/pool_proj"
}
layer {
  name: "inception_3a/output"
  type: "Concat"
  bottom: "inception_3a/1x1"
  bottom: "inception_3a/3x3"
  bottom: "inception_3a/5x5"
  bottom: "inception_3a/pool_proj"
  top: "inception_3a/output"
}
layer {
  name: "inception_3b/1x1"
  type: "Convolution"
  bottom: "inception_3a/output"
  top: "inception_3b/1x1"
  param {
    lr_mult: 1
    decay_mult: 1
  }
  param {
    lr_mult: 2
    decay_mult: 0
  }
  convolution_param {
    num_output: 128
    kernel_size: 1
    weight_filler {
      type: "xavier"
      std: 0.03
    }
    bias_filler {
      type: "constant"
      value: 0.2
    }
  }
}
layer {
  name: "inception_3b/relu_1x1"
  type: "ReLU"
  bottom: "inception_3b/1x1"
  top: "inception_3b/1x1"
}
layer {
  name: "inception_3b/3x3_reduce"
  type: "Convolution"
  bottom: "inception_3a/output"
  top: "inception_3b/3x3_reduce"
  param {
    lr_mult: 1
    decay_mult: 1
  }
  param {
    lr_mult: 2
    decay_mult: 0
  }
  convolution_param {
    num_output: 128
    kernel_size: 1
    weight_filler {
      type: "xavier"
      std: 0.09
    }
    bias_filler {
      type: "constant"
      value: 0.2
    }
  }
}
layer {
  name: "inception_3b/relu_3x3_reduce"
  type: "ReLU"
  bottom: "inception_3b/3x3_reduce"
  top: "inception_3b/3x3_reduce"
}
layer {
  name: "inception_3b/3x3"
  type: "Convolution"
  bottom: "inception_3b/3x3_reduce"
  top: "inception_3b/3x3"
  param {
    lr_mult: 1
    decay_mult: 1
  }
  param {
    lr_mult: 2
    decay_mult: 0
  }
  convolution_param {
    num_output: 192
    pad: 1
    kernel_size: 3
    weight_filler {
      type: "xavier"
      std: 0.03
    }
    bias_filler {
      type: "constant"
      value: 0.2
    }
  }
}
layer {
  name: "inception_3b/relu_3x3"
  type: "ReLU"
  bottom: "inception_3b/3x3"
  top: "inception_3b/3x3"
}
layer {
  name: "inception_3b/5x5_reduce"
  type: "Convolution"
  bottom: "inception_3a/output"
  top: "inception_3b/5x5_reduce"
  param {
    lr_mult: 1
    decay_mult: 1
  }
  param {
    lr_mult: 2
    decay_mult: 0
  }
  convolution_param {
    num_output: 32
    kernel_size: 1
    weight_filler {
      type: "xavier"
      std: 0.2
    }
    bias_filler {
      type: "constant"
      value: 0.2
    }
  }
}
layer {
  name: "inception_3b/relu_5x5_reduce"
  type: "ReLU"
  bottom: "inception_3b/5x5_reduce"
  top: "inception_3b/5x5_reduce"
}
layer {
  name: "inception_3b/5x5"
  type: "Convolution"
  bottom: "inception_3b/5x5_reduce"
  top: "inception_3b/5x5"
  param {
    lr_mult: 1
    decay_mult: 1
  }
  param {
    lr_mult: 2
    decay_mult: 0
  }
  convolution_param {
    num_output: 96
    pad: 2
    kernel_size: 5
    weight_filler {
      type: "xavier"
      std: 0.03
    }
    bias_filler {
      type: "constant"
      value: 0.2
    }
  }
}
layer {
  name: "inception_3b/relu_5x5"
  type: "ReLU"
  bottom: "inception_3b/5x5"
  top: "inception_3b/5x5"
}
layer {
  name: "inception_3b/pool"
  type: "Pooling"
  bottom: "inception_3a/output"
  top: "inception_3b/pool"
  pooling_param {
    pool: MAX
    kernel_size: 3
    stride: 1
    pad: 1
  }
}
layer {
  name: "inception_3b/pool_proj"
  type: "Convolution"
  bottom: "inception_3b/pool"
  top: "inception_3b/pool_proj"
  param {
    lr_mult: 1
    decay_mult: 1
  }
  param {
    lr_mult: 2
    decay_mult: 0
  }
  convolution_param {
    num_output: 64
    kernel_size: 1
    weight_filler {
      type: "xavier"
      std: 0.1
    }
    bias_filler {
      type: "constant"
      value: 0.2
    }
  }
}
layer {
  name: "inception_3b/relu_pool_proj"
  type: "ReLU"
  bottom: "inception_3b/pool_proj"
  top: "inception_3b/pool_proj"
}
layer {
  name: "inception_3b/output"
  type: "Concat"
  bottom: "inception_3b/1x1"
  bottom: "inception_3b/3x3"
  bottom: "inception_3b/5x5"
  bottom: "inception_3b/pool_proj"
  top: "inception_3b/output"
}
layer {
  name: "pool3/3x3_s2"
  type: "Pooling"
  bottom: "inception_3b/output"
  top: "pool3/3x3_s2"
  pooling_param {
    pool: MAX
    kernel_size: 3
    stride: 2
  }
}
layer {
  name: "inception_4a/1x1"
  type: "Convolution"
  bottom: "pool3/3x3_s2"
  top: "inception_4a/1x1"
  param {
    lr_mult: 1
    decay_mult: 1
  }
  param {
    lr_mult: 2
    decay_mult: 0
  }
  convolution_param {
    num_output: 192
    kernel_size: 1
    weight_filler {
      type: "xavier"
      std: 0.03
    }
    bias_filler {
      type: "constant"
      value: 0.2
    }
  }
}
layer {
  name: "inception_4a/relu_1x1"
  type: "ReLU"
  bottom: "inception_4a/1x1"
  top: "inception_4a/1x1"
}
layer {
  name: "inception_4a/3x3_reduce"
  type: "Convolution"
  bottom: "pool3/3x3_s2"
  top: "inception_4a/3x3_reduce"
  param {
    lr_mult: 1
    decay_mult: 1
  }
  param {
    lr_mult: 2
    decay_mult: 0
  }
  convolution_param {
    num_output: 96
    kernel_size: 1
    weight_filler {
      type: "xavier"
      std: 0.09
    }
    bias_filler {
      type: "constant"
      value: 0.2
    }
  }
}
layer {
  name: "inception_4a/relu_3x3_reduce"
  type: "ReLU"
  bottom: "inception_4a/3x3_reduce"
  top: "inception_4a/3x3_reduce"
}
layer {
  name: "inception_4a/3x3"
  type: "Convolution"
  bottom: "inception_4a/3x3_reduce"
  top: "inception_4a/3x3"
  param {
    lr_mult: 1
    decay_mult: 1
  }
  param {
    lr_mult: 2
    decay_mult: 0
  }
  convolution_param {
    num_output: 208
    pad: 1
    kernel_size: 3
    weight_filler {
      type: "xavier"
      std: 0.03
    }
    bias_filler {
      type: "constant"
      value: 0.2
    }
  }
}
layer {
  name: "inception_4a/relu_3x3"
  type: "ReLU"
  bottom: "inception_4a/3x3"
  top: "inception_4a/3x3"
}
layer {
  name: "inception_4a/5x5_reduce"
  type: "Convolution"
  bottom: "pool3/3x3_s2"
  top: "inception_4a/5x5_reduce"
  param {
    lr_mult: 1
    decay_mult: 1
  }
  param {
    lr_mult: 2
    decay_mult: 0
  }
  convolution_param {
    num_output: 16
    kernel_size: 1
    weight_filler {
      type: "xavier"
      std: 0.2
    }
    bias_filler {
      type: "constant"
      value: 0.2
    }
  }
}
layer {
  name: "inception_4a/relu_5x5_reduce"
  type: "ReLU"
  bottom: "inception_4a/5x5_reduce"
  top: "inception_4a/5x5_reduce"
}
layer {
  name: "inception_4a/5x5"
  type: "Convolution"
  bottom: "inception_4a/5x5_reduce"
  top: "inception_4a/5x5"
  param {
    lr_mult: 1
    decay_mult: 1
  }
  param {
    lr_mult: 2
    decay_mult: 0
  }
  convolution_param {
    num_output: 48
    pad: 2
    kernel_size: 5
    weight_filler {
      type: "xavier"
      std: 0.03
    }
    bias_filler {
      type: "constant"
      value: 0.2
    }
  }
}
layer {
  name: "inception_4a/relu_5x5"
  type: "ReLU"
  bottom: "inception_4a/5x5"
  top: "inception_4a/5x5"
}
layer {
  name: "inception_4a/pool"
  type: "Pooling"
  bottom: "pool3/3x3_s2"
  top: "inception_4a/pool"
  pooling_param {
    pool: MAX
    kernel_size: 3
    stride: 1
    pad: 1
  }
}
layer {
  name: "inception_4a/pool_proj"
  type: "Convolution"
  bottom: "inception_4a/pool"
  top: "inception_4a/pool_proj"
  param {
    lr_mult: 1
    decay_mult: 1
  }
  param {
    lr_mult: 2
    decay_mult: 0
  }
  convolution_param {
    num_output: 64
    kernel_size: 1
    weight_filler {
      type: "xavier"
      std: 0.1
    }
    bias_filler {
      type: "constant"
      value: 0.2
    }
  }
}
layer {
  name: "inception_4a/relu_pool_proj"
  type: "ReLU"
  bottom: "inception_4a/pool_proj"
  top: "inception_4a/pool_proj"
}
layer {
  name: "inception_4a/output"
  type: "Concat"
  bottom: "inception_4a/1x1"
  bottom: "inception_4a/3x3"
  bottom: "inception_4a/5x5"
  bottom: "inception_4a/pool_proj"
  top: "inception_4a/output"
}
layer {
  name: "loss1/ave_pool"
  type: "Pooling"
  bottom: "inception_4a/output"
  top: "loss1/ave_pool"
  pooling_param {
    pool: AVE
    kernel_size: 5
    stride: 3
  }
}
layer {
  name: "loss1/conv"
  type: "Convolution"
  bottom: "loss1/ave_pool"
  top: "loss1/conv"
  param {
    lr_mult: 1
    decay_mult: 1
  }
  param {
    lr_mult: 2
    decay_mult: 0
  }
  convolution_param {
    num_output: 128
    kernel_size: 1
    weight_filler {
      type: "xavier"
      std: 0.08
    }
    bias_filler {
      type: "constant"
      value: 0.2
    }
  }
}
layer {
  name: "loss1/relu_conv"
  type: "ReLU"
  bottom: "loss1/conv"
  top: "loss1/conv"
}
layer {
  name: "loss1/fc"
  type: "InnerProduct"
  bottom: "loss1/conv"
  top: "loss1/fc"
  param {
    lr_mult: 1
    decay_mult: 1
  }
  param {
    lr_mult: 2
    decay_mult: 0
  }
  inner_product_param {
    num_output: 1024
    weight_filler {
      type: "xavier"
      std: 0.02
    }
    bias_filler {
      type: "constant"
      value: 0.2
    }
  }
}
layer {
  name: "loss1/relu_fc"
  type: "ReLU"
  bottom: "loss1/fc"
  top: "loss1/fc"
}
layer {
  name: "loss1/drop_fc"
  type: "Dropout"
  bottom: "loss1/fc"
  top: "loss1/fc"
  dropout_param {
    dropout_ratio: 0.7
  }
}
layer {
  name: "loss1/classifier_plantvillage"
  type: "InnerProduct"
  bottom: "loss1/fc"
  top: "loss1/classifier_plantvillage"
  param {
    lr_mult: 1
    decay_mult: 1
  }
  param {
    lr_mult: 2
    decay_mult: 0
  }
  inner_product_param {
    num_output: 38
    weight_filler {
      type: "xavier"
      std: 0.0009765625
    }
    bias_filler {
      type: "constant"
      value: 0
    }
  }
}
layer {
  name: "inception_4b/1x1"
  type: "Convolution"
  bottom: "inception_4a/output"
  top: "inception_4b/1x1"
  param {
    lr_mult: 1
    decay_mult: 1
  }
  param {
    lr_mult: 2
    decay_mult: 0
  }
  convolution_param {
    num_output: 160
    kernel_size: 1
    weight_filler {
      type: "xavier"
      std: 0.03
    }
    bias_filler {
      type: "constant"
      value: 0.2
    }
  }
}
layer {
  name: "inception_4b/relu_1x1"
  type: "ReLU"
  bottom: "inception_4b/1x1"
  top: "inception_4b/1x1"
}
layer {
  name: "inception_4b/3x3_reduce"
  type: "Convolution"
  bottom: "inception_4a/output"
  top: "inception_4b/3x3_reduce"
  param {
    lr_mult: 1
    decay_mult: 1
  }
  param {
    lr_mult: 2
    decay_mult: 0
  }
  convolution_param {
    num_output: 112
    kernel_size: 1
    weight_filler {
      type: "xavier"
      std: 0.09
    }
    bias_filler {
      type: "constant"
      value: 0.2
    }
  }
}
layer {
  name: "inception_4b/relu_3x3_reduce"
  type: "ReLU"
  bottom: "inception_4b/3x3_reduce"
  top: "inception_4b/3x3_reduce"
}
layer {
  name: "inception_4b/3x3"
  type: "Convolution"
  bottom: "inception_4b/3x3_reduce"
  top: "inception_4b/3x3"
  param {
    lr_mult: 1
    decay_mult: 1
  }
  param {
    lr_mult: 2
    decay_mult: 0
  }
  convolution_param {
    num_output: 224
    pad: 1
    kernel_size: 3
    weight_filler {
      type: "xavier"
      std: 0.03
    }
    bias_filler {
      type: "constant"
      value: 0.2
    }
  }
}
layer {
  name: "inception_4b/relu_3x3"
  type: "ReLU"
  bottom: "inception_4b/3x3"
  top: "inception_4b/3x3"
}
layer {
  name: "inception_4b/5x5_reduce"
  type: "Convolution"
  bottom: "inception_4a/output"
  top: "inception_4b/5x5_reduce"
  param {
    lr_mult: 1
    decay_mult: 1
  }
  param {
    lr_mult: 2
    decay_mult: 0
  }
  convolution_param {
    num_output: 24
    kernel_size: 1
    weight_filler {
      type: "xavier"
      std: 0.2
    }
    bias_filler {
      type: "constant"
      value: 0.2
    }
  }
}
layer {
  name: "inception_4b/relu_5x5_reduce"
  type: "ReLU"
  bottom: "inception_4b/5x5_reduce"
  top: "inception_4b/5x5_reduce"
}
layer {
  name: "inception_4b/5x5"
  type: "Convolution"
  bottom: "inception_4b/5x5_reduce"
  top: "inception_4b/5x5"
  param {
    lr_mult: 1
    decay_mult: 1
  }
  param {
    lr_mult: 2
    decay_mult: 0
  }
  convolution_param {
    num_output: 64
    pad: 2
    kernel_size: 5
    weight_filler {
      type: "xavier"
      std: 0.03
    }
    bias_filler {
      type: "constant"
      value: 0.2
    }
  }
}
layer {
  name: "inception_4b/relu_5x5"
  type: "ReLU"
  bottom: "inception_4b/5x5"
  top: "inception_4b/5x5"
}
layer {
  name: "inception_4b/pool"
  type: "Pooling"
  bottom: "inception_4a/output"
  top: "inception_4b/pool"
  pooling_param {
    pool: MAX
    kernel_size: 3
    stride: 1
    pad: 1
  }
}
layer {
  name: "inception_4b/pool_proj"
  type: "Convolution"
  bottom: "inception_4b/pool"
  top: "inception_4b/pool_proj"
  param {
    lr_mult: 1
    decay_mult: 1
  }
  param {
    lr_mult: 2
    decay_mult: 0
  }
  convolution_param {
    num_output: 64
    kernel_size: 1
    weight_filler {
      type: "xavier"
      std: 0.1
    }
    bias_filler {
      type: "constant"
      value: 0.2
    }
  }
}
layer {
  name: "inception_4b/relu_pool_proj"
  type: "ReLU"
  bottom: "inception_4b/pool_proj"
  top: "inception_4b/pool_proj"
}
layer {
  name: "inception_4b/output"
  type: "Concat"
  bottom: "inception_4b/1x1"
  bottom: "inception_4b/3x3"
  bottom: "inception_4b/5x5"
  bottom: "inception_4b/pool_proj"
  top: "inception_4b/output"
}
layer {
  name: "inception_4c/1x1"
  type: "Convolution"
  bottom: "inception_4b/output"
  top: "inception_4c/1x1"
  param {
    lr_mult: 1
    decay_mult: 1
  }
  param {
    lr_mult: 2
    decay_mult: 0
  }
  convolution_param {
    num_output: 128
    kernel_size: 1
    weight_filler {
      type: "xavier"
      std: 0.03
    }
    bias_filler {
      type: "constant"
      value: 0.2
    }
  }
}
layer {
  name: "inception_4c/relu_1x1"
  type: "ReLU"
  bottom: "inception_4c/1x1"
  top: "inception_4c/1x1"
}
layer {
  name: "inception_4c/3x3_reduce"
  type: "Convolution"
  bottom: "inception_4b/output"
  top: "inception_4c/3x3_reduce"
  param {
    lr_mult: 1
    decay_mult: 1
  }
  param {
    lr_mult: 2
    decay_mult: 0
  }
  convolution_param {
    num_output: 128
    kernel_size: 1
    weight_filler {
      type: "xavier"
      std: 0.09
    }
    bias_filler {
      type: "constant"
      value: 0.2
    }
  }
}
layer {
  name: "inception_4c/relu_3x3_reduce"
  type: "ReLU"
  bottom: "inception_4c/3x3_reduce"
  top: "inception_4c/3x3_reduce"
}
layer {
  name: "inception_4c/3x3"
  type: "Convolution"
  bottom: "inception_4c/3x3_reduce"
  top: "inception_4c/3x3"
  param {
    lr_mult: 1
    decay_mult: 1
  }
  param {
    lr_mult: 2
    decay_mult: 0
  }
  convolution_param {
    num_output: 256
    pad: 1
    kernel_size: 3
    weight_filler {
      type: "xavier"
      std: 0.03
    }
    bias_filler {
      type: "constant"
      value: 0.2
    }
  }
}
layer {
  name: "inception_4c/relu_3x3"
  type: "ReLU"
  bottom: "inception_4c/3x3"
  top: "inception_4c/3x3"
}
layer {
  name: "inception_4c/5x5_reduce"
  type: "Convolution"
  bottom: "inception_4b/output"
  top: "inception_4c/5x5_reduce"
  param {
    lr_mult: 1
    decay_mult: 1
  }
  param {
    lr_mult: 2
    decay_mult: 0
  }
  convolution_param {
    num_output: 24
    kernel_size: 1
    weight_filler {
      type: "xavier"
      std: 0.2
    }
    bias_filler {
      type: "constant"
      value: 0.2
    }
  }
}
layer {
  name: "inception_4c/relu_5x5_reduce"
  type: "ReLU"
  bottom: "inception_4c/5x5_reduce"
  top: "inception_4c/5x5_reduce"
}
layer {
  name: "inception_4c/5x5"
  type: "Convolution"
  bottom: "inception_4c/5x5_reduce"
  top: "inception_4c/5x5"
  param {
    lr_mult: 1
    decay_mult: 1
  }
  param {
    lr_mult: 2
    decay_mult: 0
  }
  convolution_param {
    num_output: 64
    pad: 2
    kernel_size: 5
    weight_filler {
      type: "xavier"
      std: 0.03
    }
    bias_filler {
      type: "constant"
      value: 0.2
    }
  }
}
layer {
  name: "inception_4c/relu_5x5"
  type: "ReLU"
  bottom: "inception_4c/5x5"
  top: "inception_4c/5x5"
}
layer {
  name: "inception_4c/pool"
  type: "Pooling"
  bottom: "inception_4b/output"
  top: "inception_4c/pool"
  pooling_param {
    pool: MAX
    kernel_size: 3
    stride: 1
    pad: 1
  }
}
layer {
  name: "inception_4c/pool_proj"
  type: "Convolution"
  bottom: "inception_4c/pool"
  top: "inception_4c/pool_proj"
  param {
    lr_mult: 1
    decay_mult: 1
  }
  param {
    lr_mult: 2
    decay_mult: 0
  }
  convolution_param {
    num_output: 64
    kernel_size: 1
    weight_filler {
      type: "xavier"
      std: 0.1
    }
    bias_filler {
      type: "constant"
      value: 0.2
    }
  }
}
layer {
  name: "inception_4c/relu_pool_proj"
  type: "ReLU"
  bottom: "inception_4c/pool_proj"
  top: "inception_4c/pool_proj"
}
layer {
  name: "inception_4c/output"
  type: "Concat"
  bottom: "inception_4c/1x1"
  bottom: "inception_4c/3x3"
  bottom: "inception_4c/5x5"
  bottom: "inception_4c/pool_proj"
  top: "inception_4c/output"
}
layer {
  name: "inception_4d/1x1"
  type: "Convolution"
  bottom: "inception_4c/output"
  top: "inception_4d/1x1"
  param {
    lr_mult: 1
    decay_mult: 1
  }
  param {
    lr_mult: 2
    decay_mult: 0
  }
  convolution_param {
    num_output: 112
    kernel_size: 1
    weight_filler {
      type: "xavier"
      std: 0.03
    }
    bias_filler {
      type: "constant"
      value: 0.2
    }
  }
}
layer {
  name: "inception_4d/relu_1x1"
  type: "ReLU"
  bottom: "inception_4d/1x1"
  top: "inception_4d/1x1"
}
layer {
  name: "inception_4d/3x3_reduce"
  type: "Convolution"
  bottom: "inception_4c/output"
  top: "inception_4d/3x3_reduce"
  param {
    lr_mult: 1
    decay_mult: 1
  }
  param {
    lr_mult: 2
    decay_mult: 0
  }
  convolution_param {
    num_output: 144
    kernel_size: 1
    weight_filler {
      type: "xavier"
      std: 0.09
    }
    bias_filler {
      type: "constant"
      value: 0.2
    }
  }
}
layer {
  name: "inception_4d/relu_3x3_reduce"
  type: "ReLU"
  bottom: "inception_4d/3x3_reduce"
  top: "inception_4d/3x3_reduce"
}
layer {
  name: "inception_4d/3x3"
  type: "Convolution"
  bottom: "inception_4d/3x3_reduce"
  top: "inception_4d/3x3"
  param {
    lr_mult: 1
    decay_mult: 1
  }
  param {
    lr_mult: 2
    decay_mult: 0
  }
  convolution_param {
    num_output: 288
    pad: 1
    kernel_size: 3
    weight_filler {
      type: "xavier"
      std: 0.03
    }
    bias_filler {
      type: "constant"
      value: 0.2
    }
  }
}
layer {
  name: "inception_4d/relu_3x3"
  type: "ReLU"
  bottom: "inception_4d/3x3"
  top: "inception_4d/3x3"
}
layer {
  name: "inception_4d/5x5_reduce"
  type: "Convolution"
  bottom: "inception_4c/output"
  top: "inception_4d/5x5_reduce"
  param {
    lr_mult: 1
    decay_mult: 1
  }
  param {
    lr_mult: 2
    decay_mult: 0
  }
  convolution_param {
    num_output: 32
    kernel_size: 1
    weight_filler {
      type: "xavier"
      std: 0.2
    }
    bias_filler {
      type: "constant"
      value: 0.2
    }
  }
}
layer {
  name: "inception_4d/relu_5x5_reduce"
  type: "ReLU"
  bottom: "inception_4d/5x5_reduce"
  top: "inception_4d/5x5_reduce"
}
layer {
  name: "inception_4d/5x5"
  type: "Convolution"
  bottom: "inception_4d/5x5_reduce"
  top: "inception_4d/5x5"
  param {
    lr_mult: 1
    decay_mult: 1
  }
  param {
    lr_mult: 2
    decay_mult: 0
  }
  convolution_param {
    num_output: 64
    pad: 2
    kernel_size: 5
    weight_filler {
      type: "xavier"
      std: 0.03
    }
    bias_filler {
      type: "constant"
      value: 0.2
    }
  }
}
layer {
  name: "inception_4d/relu_5x5"
  type: "ReLU"
  bottom: "inception_4d/5x5"
  top: "inception_4d/5x5"
}
layer {
  name: "inception_4d/pool"
  type: "Pooling"
  bottom: "inception_4c/output"
  top: "inception_4d/pool"
  pooling_param {
    pool: MAX
    kernel_size: 3
    stride: 1
    pad: 1
  }
}
layer {
  name: "inception_4d/pool_proj"
  type: "Convolution"
  bottom: "inception_4d/pool"
  top: "inception_4d/pool_proj"
  param {
    lr_mult: 1
    decay_mult: 1
  }
  param {
    lr_mult: 2
    decay_mult: 0
  }
  convolution_param {
    num_output: 64
    kernel_size: 1
    weight_filler {
      type: "xavier"
      std: 0.1
    }
    bias_filler {
      type: "constant"
      value: 0.2
    }
  }
}
layer {
  name: "inception_4d/relu_pool_proj"
  type: "ReLU"
  bottom: "inception_4d/pool_proj"
  top: "inception_4d/pool_proj"
}
layer {
  name: "inception_4d/output"
  type: "Concat"
  bottom: "inception_4d/1x1"
  bottom: "inception_4d/3x3"
  bottom: "inception_4d/5x5"
  bottom: "inception_4d/pool_proj"
  top: "inception_4d/output"
}
layer {
  name: "loss2/ave_pool"
  type: "Pooling"
  bottom: "inception_4d/output"
  top: "loss2/ave_pool"
  pooling_param {
    pool: AVE
    kernel_size: 5
    stride: 3
  }
}
layer {
  name: "loss2/conv"
  type: "Convolution"
  bottom: "loss2/ave_pool"
  top: "loss2/conv"
  param {
    lr_mult: 1
    decay_mult: 1
  }
  param {
    lr_mult: 2
    decay_mult: 0
  }
  convolution_param {
    num_output: 128
    kernel_size: 1
    weight_filler {
      type: "xavier"
      std: 0.08
    }
    bias_filler {
      type: "constant"
      value: 0.2
    }
  }
}
layer {
  name: "loss2/relu_conv"
  type: "ReLU"
  bottom: "loss2/conv"
  top: "loss2/conv"
}
layer {
  name: "loss2/fc"
  type: "InnerProduct"
  bottom: "loss2/conv"
  top: "loss2/fc"
  param {
    lr_mult: 1
    decay_mult: 1
  }
  param {
    lr_mult: 2
    decay_mult: 0
  }
  inner_product_param {
    num_output: 1024
    weight_filler {
      type: "xavier"
      std: 0.02
    }
    bias_filler {
      type: "constant"
      value: 0.2
    }
  }
}
layer {
  name: "loss2/relu_fc"
  type: "ReLU"
  bottom: "loss2/fc"
  top: "loss2/fc"
}
layer {
  name: "loss2/drop_fc"
  type: "Dropout"
  bottom: "loss2/fc"
  top: "loss2/fc"
  dropout_param {
    dropout_ratio: 0.7
  }
}
layer {
  name: "loss2/classifier_plantvillage"
  type: "InnerProduct"
  bottom: "loss2/fc"
  top: "loss2/classifier_plantvillage"
  param {
    lr_mult: 1
    decay_mult: 1
  }
  param {
    lr_mult: 2
    decay_mult: 0
  }
  inner_product_param {
    num_output: 38
    weight_filler {
      type: "xavier"
      std: 0.0009765625
    }
    bias_filler {
      type: "constant"
      value: 0
    }
  }
}
layer {
  name: "inception_4e/1x1"
  type: "Convolution"
  bottom: "inception_4d/output"
  top: "inception_4e/1x1"
  param {
    lr_mult: 1
    decay_mult: 1
  }
  param {
    lr_mult: 2
    decay_mult: 0
  }
  convolution_param {
    num_output: 256
    kernel_size: 1
    weight_filler {
      type: "xavier"
      std: 0.03
    }
    bias_filler {
      type: "constant"
      value: 0.2
    }
  }
}
layer {
  name: "inception_4e/relu_1x1"
  type: "ReLU"
  bottom: "inception_4e/1x1"
  top: "inception_4e/1x1"
}
layer {
  name: "inception_4e/3x3_reduce"
  type: "Convolution"
  bottom: "inception_4d/output"
  top: "inception_4e/3x3_reduce"
  param {
    lr_mult: 1
    decay_mult: 1
  }
  param {
    lr_mult: 2
    decay_mult: 0
  }
  convolution_param {
    num_output: 160
    kernel_size: 1
    weight_filler {
      type: "xavier"
      std: 0.09
    }
    bias_filler {
      type: "constant"
      value: 0.2
    }
  }
}
layer {
  name: "inception_4e/relu_3x3_reduce"
  type: "ReLU"
  bottom: "inception_4e/3x3_reduce"
  top: "inception_4e/3x3_reduce"
}
layer {
  name: "inception_4e/3x3"
  type: "Convolution"
  bottom: "inception_4e/3x3_reduce"
  top: "inception_4e/3x3"
  param {
    lr_mult: 1
    decay_mult: 1
  }
  param {
    lr_mult: 2
    decay_mult: 0
  }
  convolution_param {
    num_output: 320
    pad: 1
    kernel_size: 3
    weight_filler {
      type: "xavier"
      std: 0.03
    }
    bias_filler {
      type: "constant"
      value: 0.2
    }
  }
}
layer {
  name: "inception_4e/relu_3x3"
  type: "ReLU"
  bottom: "inception_4e/3x3"
  top: "inception_4e/3x3"
}
layer {
  name: "inception_4e/5x5_reduce"
  type: "Convolution"
  bottom: "inception_4d/output"
  top: "inception_4e/5x5_reduce"
  param {
    lr_mult: 1
    decay_mult: 1
  }
  param {
    lr_mult: 2
    decay_mult: 0
  }
  convolution_param {
    num_output: 32
    kernel_size: 1
    weight_filler {
      type: "xavier"
      std: 0.2
    }
    bias_filler {
      type: "constant"
      value: 0.2
    }
  }
}
layer {
  name: "inception_4e/relu_5x5_reduce"
  type: "ReLU"
  bottom: "inception_4e/5x5_reduce"
  top: "inception_4e/5x5_reduce"
}
layer {
  name: "inception_4e/5x5"
  type: "Convolution"
  bottom: "inception_4e/5x5_reduce"
  top: "inception_4e/
I0403 19:38:35.077318 25394 layer_factory.hpp:77] Creating layer data
I0403 19:38:35.077965 25394 net.cpp:91] Creating Layer data
I0403 19:38:35.078003 25394 net.cpp:399] data -> data
I0403 19:38:35.078075 25394 net.cpp:399] data -> label
I0403 19:38:35.078121 25394 data_transformer.cpp:25] Loading mean file from: /home/mohanty/data/final_dataset/lmdb/grayscale-80-20/mean.binaryproto
I0403 19:38:35.079354 25397 db_lmdb.cpp:38] Opened lmdb /home/mohanty/data/final_dataset/lmdb/grayscale-80-20/test_db
I0403 19:38:35.092524 25394 data_layer.cpp:41] output data size: 24,3,224,224
I0403 19:38:35.120918 25394 net.cpp:141] Setting up data
I0403 19:38:35.121023 25394 net.cpp:148] Top shape: 24 3 224 224 (3612672)
I0403 19:38:35.121048 25394 net.cpp:148] Top shape: 24 (24)
I0403 19:38:35.121067 25394 net.cpp:156] Memory required for data: 14450784
I0403 19:38:35.121100 25394 layer_factory.hpp:77] Creating layer label_data_1_split
I0403 19:38:35.121134 25394 net.cpp:91] Creating Layer label_data_1_split
I0403 19:38:35.121156 25394 net.cpp:425] label_data_1_split <- label
I0403 19:38:35.121196 25394 net.cpp:399] label_data_1_split -> label_data_1_split_0
I0403 19:38:35.121232 25394 net.cpp:399] label_data_1_split -> label_data_1_split_1
I0403 19:38:35.121256 25394 net.cpp:399] label_data_1_split -> label_data_1_split_2
I0403 19:38:35.121311 25394 net.cpp:399] label_data_1_split -> label_data_1_split_3
I0403 19:38:35.121340 25394 net.cpp:399] label_data_1_split -> label_data_1_split_4
I0403 19:38:35.121363 25394 net.cpp:399] label_data_1_split -> label_data_1_split_5
I0403 19:38:35.121386 25394 net.cpp:399] label_data_1_split -> label_data_1_split_6
I0403 19:38:35.121409 25394 net.cpp:399] label_data_1_split -> label_data_1_split_7
I0403 19:38:35.121431 25394 net.cpp:399] label_data_1_split -> label_data_1_split_8
I0403 19:38:35.121454 25394 net.cpp:399] label_data_1_split -> label_data_1_split_9
I0403 19:38:35.121577 25394 net.cpp:141] Setting up label_data_1_split
I0403 19:38:35.121616 25394 net.cpp:148] Top shape: 24 (24)
I0403 19:38:35.121636 25394 net.cpp:148] Top shape: 24 (24)
I0403 19:38:35.121655 25394 net.cpp:148] Top shape: 24 (24)
I0403 19:38:35.121673 25394 net.cpp:148] Top shape: 24 (24)
I0403 19:38:35.121688 25394 net.cpp:148] Top shape: 24 (24)
I0403 19:38:35.121703 25394 net.cpp:148] Top shape: 24 (24)
I0403 19:38:35.121721 25394 net.cpp:148] Top shape: 24 (24)
I0403 19:38:35.121739 25394 net.cpp:148] Top shape: 24 (24)
I0403 19:38:35.121757 25394 net.cpp:148] Top shape: 24 (24)
I0403 19:38:35.121778 25394 net.cpp:148] Top shape: 24 (24)
I0403 19:38:35.121827 25394 net.cpp:156] Memory required for data: 14451744
I0403 19:38:35.121845 25394 layer_factory.hpp:77] Creating layer conv1/7x7_s2
I0403 19:38:35.121883 25394 net.cpp:91] Creating Layer conv1/7x7_s2
I0403 19:38:35.121904 25394 net.cpp:425] conv1/7x7_s2 <- data
I0403 19:38:35.121927 25394 net.cpp:399] conv1/7x7_s2 -> conv1/7x7_s2
I0403 19:38:35.263784 25394 net.cpp:141] Setting up conv1/7x7_s2
I0403 19:38:35.263897 25394 net.cpp:148] Top shape: 24 64 112 112 (19267584)
I0403 19:38:35.263919 25394 net.cpp:156] Memory required for data: 91522080
I0403 19:38:35.263960 25394 layer_factory.hpp:77] Creating layer conv1/relu_7x7
I0403 19:38:35.263995 25394 net.cpp:91] Creating Layer conv1/relu_7x7
I0403 19:38:35.264017 25394 net.cpp:425] conv1/relu_7x7 <- conv1/7x7_s2
I0403 19:38:35.264039 25394 net.cpp:386] conv1/relu_7x7 -> conv1/7x7_s2 (in-place)
I0403 19:38:35.264349 25394 net.cpp:141] Setting up conv1/relu_7x7
I0403 19:38:35.264381 25394 net.cpp:148] Top shape: 24 64 112 112 (19267584)
I0403 19:38:35.264400 25394 net.cpp:156] Memory required for data: 168592416
I0403 19:38:35.264418 25394 layer_factory.hpp:77] Creating layer pool1/3x3_s2
I0403 19:38:35.264451 25394 net.cpp:91] Creating Layer pool1/3x3_s2
I0403 19:38:35.264472 25394 net.cpp:425] pool1/3x3_s2 <- conv1/7x7_s2
I0403 19:38:35.264493 25394 net.cpp:399] pool1/3x3_s2 -> pool1/3x3_s2
I0403 19:38:35.264592 25394 net.cpp:141] Setting up pool1/3x3_s2
I0403 19:38:35.264621 25394 net.cpp:148] Top shape: 24 64 56 56 (4816896)
I0403 19:38:35.264637 25394 net.cpp:156] Memory required for data: 187860000
I0403 19:38:35.264655 25394 layer_factory.hpp:77] Creating layer pool1/norm1
I0403 19:38:35.264683 25394 net.cpp:91] Creating Layer pool1/norm1
I0403 19:38:35.264703 25394 net.cpp:425] pool1/norm1 <- pool1/3x3_s2
I0403 19:38:35.264720 25394 net.cpp:399] pool1/norm1 -> pool1/norm1
I0403 19:38:35.265010 25394 net.cpp:141] Setting up pool1/norm1
I0403 19:38:35.265041 25394 net.cpp:148] Top shape: 24 64 56 56 (4816896)
I0403 19:38:35.265059 25394 net.cpp:156] Memory required for data: 207127584
I0403 19:38:35.265075 25394 layer_factory.hpp:77] Creating layer conv2/3x3_reduce
I0403 19:38:35.265105 25394 net.cpp:91] Creating Layer conv2/3x3_reduce
I0403 19:38:35.265125 25394 net.cpp:425] conv2/3x3_reduce <- pool1/norm1
I0403 19:38:35.265144 25394 net.cpp:399] conv2/3x3_reduce -> conv2/3x3_reduce
I0403 19:38:35.266472 25394 net.cpp:141] Setting up conv2/3x3_reduce
I0403 19:38:35.266505 25394 net.cpp:148] Top shape: 24 64 56 56 (4816896)
I0403 19:38:35.266522 25394 net.cpp:156] Memory required for data: 226395168
I0403 19:38:35.266546 25394 layer_factory.hpp:77] Creating layer conv2/relu_3x3_reduce
I0403 19:38:35.266568 25394 net.cpp:91] Creating Layer conv2/relu_3x3_reduce
I0403 19:38:35.266585 25394 net.cpp:425] conv2/relu_3x3_reduce <- conv2/3x3_reduce
I0403 19:38:35.266603 25394 net.cpp:386] conv2/relu_3x3_reduce -> conv2/3x3_reduce (in-place)
I0403 19:38:35.266840 25394 net.cpp:141] Setting up conv2/relu_3x3_reduce
I0403 19:38:35.266870 25394 net.cpp:148] Top shape: 24 64 56 56 (4816896)
I0403 19:38:35.266886 25394 net.cpp:156] Memory required for data: 245662752
I0403 19:38:35.266904 25394 layer_factory.hpp:77] Creating layer conv2/3x3
I0403 19:38:35.266927 25394 net.cpp:91] Creating Layer conv2/3x3
I0403 19:38:35.266947 25394 net.cpp:425] conv2/3x3 <- conv2/3x3_reduce
I0403 19:38:35.266964 25394 net.cpp:399] conv2/3x3 -> conv2/3x3
I0403 19:38:35.269101 25394 net.cpp:141] Setting up conv2/3x3
I0403 19:38:35.269134 25394 net.cpp:148] Top shape: 24 192 56 56 (14450688)
I0403 19:38:35.269152 25394 net.cpp:156] Memory required for data: 303465504
I0403 19:38:35.269175 25394 layer_factory.hpp:77] Creating layer conv2/relu_3x3
I0403 19:38:35.269196 25394 net.cpp:91] Creating Layer conv2/relu_3x3
I0403 19:38:35.269214 25394 net.cpp:425] conv2/relu_3x3 <- conv2/3x3
I0403 19:38:35.269232 25394 net.cpp:386] conv2/relu_3x3 -> conv2/3x3 (in-place)
I0403 19:38:35.269395 25394 net.cpp:141] Setting up conv2/relu_3x3
I0403 19:38:35.269426 25394 net.cpp:148] Top shape: 24 192 56 56 (14450688)
I0403 19:38:35.269476 25394 net.cpp:156] Memory required for data: 361268256
I0403 19:38:35.269495 25394 layer_factory.hpp:77] Creating layer conv2/norm2
I0403 19:38:35.269515 25394 net.cpp:91] Creating Layer conv2/norm2
I0403 19:38:35.269532 25394 net.cpp:425] conv2/norm2 <- conv2/3x3
I0403 19:38:35.269553 25394 net.cpp:399] conv2/norm2 -> conv2/norm2
I0403 19:38:35.269831 25394 net.cpp:141] Setting up conv2/norm2
I0403 19:38:35.269860 25394 net.cpp:148] Top shape: 24 192 56 56 (14450688)
I0403 19:38:35.269877 25394 net.cpp:156] Memory required for data: 419071008
I0403 19:38:35.269894 25394 layer_factory.hpp:77] Creating layer pool2/3x3_s2
I0403 19:38:35.269915 25394 net.cpp:91] Creating Layer pool2/3x3_s2
I0403 19:38:35.269932 25394 net.cpp:425] pool2/3x3_s2 <- conv2/norm2
I0403 19:38:35.269950 25394 net.cpp:399] pool2/3x3_s2 -> pool2/3x3_s2
I0403 19:38:35.269999 25394 net.cpp:141] Setting up pool2/3x3_s2
I0403 19:38:35.270025 25394 net.cpp:148] Top shape: 24 192 28 28 (3612672)
I0403 19:38:35.270041 25394 net.cpp:156] Memory required for data: 433521696
I0403 19:38:35.270058 25394 layer_factory.hpp:77] Creating layer pool2/3x3_s2_pool2/3x3_s2_0_split
I0403 19:38:35.270079 25394 net.cpp:91] Creating Layer pool2/3x3_s2_pool2/3x3_s2_0_split
I0403 19:38:35.270095 25394 net.cpp:425] pool2/3x3_s2_pool2/3x3_s2_0_split <- pool2/3x3_s2
I0403 19:38:35.270112 25394 net.cpp:399] pool2/3x3_s2_pool2/3x3_s2_0_split -> pool2/3x3_s2_pool2/3x3_s2_0_split_0
I0403 19:38:35.270133 25394 net.cpp:399] pool2/3x3_s2_pool2/3x3_s2_0_split -> pool2/3x3_s2_pool2/3x3_s2_0_split_1
I0403 19:38:35.270154 25394 net.cpp:399] pool2/3x3_s2_pool2/3x3_s2_0_split -> pool2/3x3_s2_pool2/3x3_s2_0_split_2
I0403 19:38:35.270179 25394 net.cpp:399] pool2/3x3_s2_pool2/3x3_s2_0_split -> pool2/3x3_s2_pool2/3x3_s2_0_split_3
I0403 19:38:35.270243 25394 net.cpp:141] Setting up pool2/3x3_s2_pool2/3x3_s2_0_split
I0403 19:38:35.270269 25394 net.cpp:148] Top shape: 24 192 28 28 (3612672)
I0403 19:38:35.270292 25394 net.cpp:148] Top shape: 24 192 28 28 (3612672)
I0403 19:38:35.270311 25394 net.cpp:148] Top shape: 24 192 28 28 (3612672)
I0403 19:38:35.270329 25394 net.cpp:148] Top shape: 24 192 28 28 (3612672)
I0403 19:38:35.270345 25394 net.cpp:156] Memory required for data: 491324448
I0403 19:38:35.270361 25394 layer_factory.hpp:77] Creating layer inception_3a/1x1
I0403 19:38:35.270386 25394 net.cpp:91] Creating Layer inception_3a/1x1
I0403 19:38:35.270406 25394 net.cpp:425] inception_3a/1x1 <- pool2/3x3_s2_pool2/3x3_s2_0_split_0
I0403 19:38:35.270431 25394 net.cpp:399] inception_3a/1x1 -> inception_3a/1x1
I0403 19:38:35.271946 25394 net.cpp:141] Setting up inception_3a/1x1
I0403 19:38:35.271977 25394 net.cpp:148] Top shape: 24 64 28 28 (1204224)
I0403 19:38:35.271996 25394 net.cpp:156] Memory required for data: 496141344
I0403 19:38:35.272017 25394 layer_factory.hpp:77] Creating layer inception_3a/relu_1x1
I0403 19:38:35.272039 25394 net.cpp:91] Creating Layer inception_3a/relu_1x1
I0403 19:38:35.272058 25394 net.cpp:425] inception_3a/relu_1x1 <- inception_3a/1x1
I0403 19:38:35.272078 25394 net.cpp:386] inception_3a/relu_1x1 -> inception_3a/1x1 (in-place)
I0403 19:38:35.272244 25394 net.cpp:141] Setting up inception_3a/relu_1x1
I0403 19:38:35.272275 25394 net.cpp:148] Top shape: 24 64 28 28 (1204224)
I0403 19:38:35.272299 25394 net.cpp:156] Memory required for data: 500958240
I0403 19:38:35.272316 25394 layer_factory.hpp:77] Creating layer inception_3a/3x3_reduce
I0403 19:38:35.272342 25394 net.cpp:91] Creating Layer inception_3a/3x3_reduce
I0403 19:38:35.272363 25394 net.cpp:425] inception_3a/3x3_reduce <- pool2/3x3_s2_pool2/3x3_s2_0_split_1
I0403 19:38:35.272383 25394 net.cpp:399] inception_3a/3x3_reduce -> inception_3a/3x3_reduce
I0403 19:38:35.273973 25394 net.cpp:141] Setting up inception_3a/3x3_reduce
I0403 19:38:35.274004 25394 net.cpp:148] Top shape: 24 96 28 28 (1806336)
I0403 19:38:35.274024 25394 net.cpp:156] Memory required for data: 508183584
I0403 19:38:35.274045 25394 layer_factory.hpp:77] Creating layer inception_3a/relu_3x3_reduce
I0403 19:38:35.274085 25394 net.cpp:91] Creating Layer inception_3a/relu_3x3_reduce
I0403 19:38:35.274103 25394 net.cpp:425] inception_3a/relu_3x3_reduce <- inception_3a/3x3_reduce
I0403 19:38:35.274122 25394 net.cpp:386] inception_3a/relu_3x3_reduce -> inception_3a/3x3_reduce (in-place)
I0403 19:38:35.274304 25394 net.cpp:141] Setting up inception_3a/relu_3x3_reduce
I0403 19:38:35.274333 25394 net.cpp:148] Top shape: 24 96 28 28 (1806336)
I0403 19:38:35.274349 25394 net.cpp:156] Memory required for data: 515408928
I0403 19:38:35.274364 25394 layer_factory.hpp:77] Creating layer inception_3a/3x3
I0403 19:38:35.274387 25394 net.cpp:91] Creating Layer inception_3a/3x3
I0403 19:38:35.274406 25394 net.cpp:425] inception_3a/3x3 <- inception_3a/3x3_reduce
I0403 19:38:35.274428 25394 net.cpp:399] inception_3a/3x3 -> inception_3a/3x3
I0403 19:38:35.275971 25394 net.cpp:141] Setting up inception_3a/3x3
I0403 19:38:35.276006 25394 net.cpp:148] Top shape: 24 128 28 28 (2408448)
I0403 19:38:35.276023 25394 net.cpp:156] Memory required for data: 525042720
I0403 19:38:35.276041 25394 layer_factory.hpp:77] Creating layer inception_3a/relu_3x3
I0403 19:38:35.276062 25394 net.cpp:91] Creating Layer inception_3a/relu_3x3
I0403 19:38:35.276082 25394 net.cpp:425] inception_3a/relu_3x3 <- inception_3a/3x3
I0403 19:38:35.276100 25394 net.cpp:386] inception_3a/relu_3x3 -> inception_3a/3x3 (in-place)
I0403 19:38:35.276362 25394 net.cpp:141] Setting up inception_3a/relu_3x3
I0403 19:38:35.276393 25394 net.cpp:148] Top shape: 24 128 28 28 (2408448)
I0403 19:38:35.276410 25394 net.cpp:156] Memory required for data: 534676512
I0403 19:38:35.276427 25394 layer_factory.hpp:77] Creating layer inception_3a/5x5_reduce
I0403 19:38:35.276450 25394 net.cpp:91] Creating Layer inception_3a/5x5_reduce
I0403 19:38:35.276470 25394 net.cpp:425] inception_3a/5x5_reduce <- pool2/3x3_s2_pool2/3x3_s2_0_split_2
I0403 19:38:35.276494 25394 net.cpp:399] inception_3a/5x5_reduce -> inception_3a/5x5_reduce
I0403 19:38:35.277400 25394 net.cpp:141] Setting up inception_3a/5x5_reduce
I0403 19:38:35.277431 25394 net.cpp:148] Top shape: 24 16 28 28 (301056)
I0403 19:38:35.277451 25394 net.cpp:156] Memory required for data: 535880736
I0403 19:38:35.277472 25394 layer_factory.hpp:77] Creating layer inception_3a/relu_5x5_reduce
I0403 19:38:35.277490 25394 net.cpp:91] Creating Layer inception_3a/relu_5x5_reduce
I0403 19:38:35.277509 25394 net.cpp:425] inception_3a/relu_5x5_reduce <- inception_3a/5x5_reduce
I0403 19:38:35.277529 25394 net.cpp:386] inception_3a/relu_5x5_reduce -> inception_3a/5x5_reduce (in-place)
I0403 19:38:35.277794 25394 net.cpp:141] Setting up inception_3a/relu_5x5_reduce
I0403 19:38:35.277825 25394 net.cpp:148] Top shape: 24 16 28 28 (301056)
I0403 19:38:35.277845 25394 net.cpp:156] Memory required for data: 537084960
I0403 19:38:35.277860 25394 layer_factory.hpp:77] Creating layer inception_3a/5x5
I0403 19:38:35.277884 25394 net.cpp:91] Creating Layer inception_3a/5x5
I0403 19:38:35.277906 25394 net.cpp:425] inception_3a/5x5 <- inception_3a/5x5_reduce
I0403 19:38:35.277926 25394 net.cpp:399] inception_3a/5x5 -> inception_3a/5x5
I0403 19:38:35.278883 25394 net.cpp:141] Setting up inception_3a/5x5
I0403 19:38:35.278914 25394 net.cpp:148] Top shape: 24 32 28 28 (602112)
I0403 19:38:35.278931 25394 net.cpp:156] Memory required for data: 539493408
I0403 19:38:35.278950 25394 layer_factory.hpp:77] Creating layer inception_3a/relu_5x5
I0403 19:38:35.278975 25394 net.cpp:91] Creating Layer inception_3a/relu_5x5
I0403 19:38:35.278995 25394 net.cpp:425] inception_3a/relu_5x5 <- inception_3a/5x5
I0403 19:38:35.279013 25394 net.cpp:386] inception_3a/relu_5x5 -> inception_3a/5x5 (in-place)
I0403 19:38:35.279175 25394 net.cpp:141] Setting up inception_3a/relu_5x5
I0403 19:38:35.279204 25394 net.cpp:148] Top shape: 24 32 28 28 (602112)
I0403 19:38:35.279222 25394 net.cpp:156] Memory required for data: 541901856
I0403 19:38:35.279237 25394 layer_factory.hpp:77] Creating layer inception_3a/pool
I0403 19:38:35.279258 25394 net.cpp:91] Creating Layer inception_3a/pool
I0403 19:38:35.279294 25394 net.cpp:425] inception_3a/pool <- pool2/3x3_s2_pool2/3x3_s2_0_split_3
I0403 19:38:35.279319 25394 net.cpp:399] inception_3a/pool -> inception_3a/pool
I0403 19:38:35.279379 25394 net.cpp:141] Setting up inception_3a/pool
I0403 19:38:35.279408 25394 net.cpp:148] Top shape: 24 192 28 28 (3612672)
I0403 19:38:35.279425 25394 net.cpp:156] Memory required for data: 556352544
I0403 19:38:35.279443 25394 layer_factory.hpp:77] Creating layer inception_3a/pool_proj
I0403 19:38:35.279466 25394 net.cpp:91] Creating Layer inception_3a/pool_proj
I0403 19:38:35.279485 25394 net.cpp:425] inception_3a/pool_proj <- inception_3a/pool
I0403 19:38:35.279507 25394 net.cpp:399] inception_3a/pool_proj -> inception_3a/pool_proj
I0403 19:38:35.280423 25394 net.cpp:141] Setting up inception_3a/pool_proj
I0403 19:38:35.280457 25394 net.cpp:148] Top shape: 24 32 28 28 (602112)
I0403 19:38:35.280477 25394 net.cpp:156] Memory required for data: 558760992
I0403 19:38:35.280501 25394 layer_factory.hpp:77] Creating layer inception_3a/relu_pool_proj
I0403 19:38:35.280524 25394 net.cpp:91] Creating Layer inception_3a/relu_pool_proj
I0403 19:38:35.280541 25394 net.cpp:425] inception_3a/relu_pool_proj <- inception_3a/pool_proj
I0403 19:38:35.280560 25394 net.cpp:386] inception_3a/relu_pool_proj -> inception_3a/pool_proj (in-place)
I0403 19:38:35.280822 25394 net.cpp:141] Setting up inception_3a/relu_pool_proj
I0403 19:38:35.280854 25394 net.cpp:148] Top shape: 24 32 28 28 (602112)
I0403 19:38:35.280872 25394 net.cpp:156] Memory required for data: 561169440
I0403 19:38:35.280889 25394 layer_factory.hpp:77] Creating layer inception_3a/output
I0403 19:38:35.280910 25394 net.cpp:91] Creating Layer inception_3a/output
I0403 19:38:35.280926 25394 net.cpp:425] inception_3a/output <- inception_3a/1x1
I0403 19:38:35.280943 25394 net.cpp:425] inception_3a/output <- inception_3a/3x3
I0403 19:38:35.280961 25394 net.cpp:425] inception_3a/output <- inception_3a/5x5
I0403 19:38:35.280977 25394 net.cpp:425] inception_3a/output <- inception_3a/pool_proj
I0403 19:38:35.280992 25394 net.cpp:399] inception_3a/output -> inception_3a/output
I0403 19:38:35.281041 25394 net.cpp:141] Setting up inception_3a/output
I0403 19:38:35.281071 25394 net.cpp:148] Top shape: 24 256 28 28 (4816896)
I0403 19:38:35.281087 25394 net.cpp:156] Memory required for data: 580437024
I0403 19:38:35.281103 25394 layer_factory.hpp:77] Creating layer inception_3a/output_inception_3a/output_0_split
I0403 19:38:35.281121 25394 net.cpp:91] Creating Layer inception_3a/output_inception_3a/output_0_split
I0403 19:38:35.281137 25394 net.cpp:425] inception_3a/output_inception_3a/output_0_split <- inception_3a/output
I0403 19:38:35.281157 25394 net.cpp:399] inception_3a/output_inception_3a/output_0_split -> inception_3a/output_inception_3a/output_0_split_0
I0403 19:38:35.281177 25394 net.cpp:399] inception_3a/output_inception_3a/output_0_split -> inception_3a/output_inception_3a/output_0_split_1
I0403 19:38:35.281200 25394 net.cpp:399] inception_3a/output_inception_3a/output_0_split -> inception_3a/output_inception_3a/output_0_split_2
I0403 19:38:35.281224 25394 net.cpp:399] inception_3a/output_inception_3a/output_0_split -> inception_3a/output_inception_3a/output_0_split_3
I0403 19:38:35.281302 25394 net.cpp:141] Setting up inception_3a/output_inception_3a/output_0_split
I0403 19:38:35.281332 25394 net.cpp:148] Top shape: 24 256 28 28 (4816896)
I0403 19:38:35.281349 25394 net.cpp:148] Top shape: 24 256 28 28 (4816896)
I0403 19:38:35.281363 25394 net.cpp:148] Top shape: 24 256 28 28 (4816896)
I0403 19:38:35.281379 25394 net.cpp:148] Top shape: 24 256 28 28 (4816896)
I0403 19:38:35.281393 25394 net.cpp:156] Memory required for data: 657507360
I0403 19:38:35.281409 25394 layer_factory.hpp:77] Creating layer inception_3b/1x1
I0403 19:38:35.281432 25394 net.cpp:91] Creating Layer inception_3b/1x1
I0403 19:38:35.281451 25394 net.cpp:425] inception_3b/1x1 <- inception_3a/output_inception_3a/output_0_split_0
I0403 19:38:35.281472 25394 net.cpp:399] inception_3b/1x1 -> inception_3b/1x1
I0403 19:38:35.282534 25394 net.cpp:141] Setting up inception_3b/1x1
I0403 19:38:35.282575 25394 net.cpp:148] Top shape: 24 128 28 28 (2408448)
I0403 19:38:35.282593 25394 net.cpp:156] Memory required for data: 667141152
I0403 19:38:35.282613 25394 layer_factory.hpp:77] Creating layer inception_3b/relu_1x1
I0403 19:38:35.282634 25394 net.cpp:91] Creating Layer inception_3b/relu_1x1
I0403 19:38:35.282652 25394 net.cpp:425] inception_3b/relu_1x1 <- inception_3b/1x1
I0403 19:38:35.282673 25394 net.cpp:386] inception_3b/relu_1x1 -> inception_3b/1x1 (in-place)
I0403 19:38:35.282841 25394 net.cpp:141] Setting up inception_3b/relu_1x1
I0403 19:38:35.282871 25394 net.cpp:148] Top shape: 24 128 28 28 (2408448)
I0403 19:38:35.282888 25394 net.cpp:156] Memory required for data: 676774944
I0403 19:38:35.282904 25394 layer_factory.hpp:77] Creating layer inception_3b/3x3_reduce
I0403 19:38:35.282927 25394 net.cpp:91] Creating Layer inception_3b/3x3_reduce
I0403 19:38:35.282943 25394 net.cpp:425] inception_3b/3x3_reduce <- inception_3a/output_inception_3a/output_0_split_1
I0403 19:38:35.282966 25394 net.cpp:399] inception_3b/3x3_reduce -> inception_3b/3x3_reduce
I0403 19:38:35.284037 25394 net.cpp:141] Setting up inception_3b/3x3_reduce
I0403 19:38:35.284071 25394 net.cpp:148] Top shape: 24 128 28 28 (2408448)
I0403 19:38:35.284090 25394 net.cpp:156] Memory required for data: 686408736
I0403 19:38:35.284109 25394 layer_factory.hpp:77] Creating layer inception_3b/relu_3x3_reduce
I0403 19:38:35.284132 25394 net.cpp:91] Creating Layer inception_3b/relu_3x3_reduce
I0403 19:38:35.284152 25394 net.cpp:425] inception_3b/relu_3x3_reduce <- inception_3b/3x3_reduce
I0403 19:38:35.284169 25394 net.cpp:386] inception_3b/relu_3x3_reduce -> inception_3b/3x3_reduce (in-place)
I0403 19:38:35.284346 25394 net.cpp:141] Setting up inception_3b/relu_3x3_reduce
I0403 19:38:35.284379 25394 net.cpp:148] Top shape: 24 128 28 28 (2408448)
I0403 19:38:35.284395 25394 net.cpp:156] Memory required for data: 696042528
I0403 19:38:35.284412 25394 layer_factory.hpp:77] Creating layer inception_3b/3x3
I0403 19:38:35.284440 25394 net.cpp:91] Creating Layer inception_3b/3x3
I0403 19:38:35.284462 25394 net.cpp:425] inception_3b/3x3 <- inception_3b/3x3_reduce
I0403 19:38:35.284482 25394 net.cpp:399] inception_3b/3x3 -> inception_3b/3x3
I0403 19:38:35.287220 25394 net.cpp:141] Setting up inception_3b/3x3
I0403 19:38:35.287252 25394 net.cpp:148] Top shape: 24 192 28 28 (3612672)
I0403 19:38:35.287269 25394 net.cpp:156] Memory required for data: 710493216
I0403 19:38:35.287293 25394 layer_factory.hpp:77] Creating layer inception_3b/relu_3x3
I0403 19:38:35.287317 25394 net.cpp:91] Creating Layer inception_3b/relu_3x3
I0403 19:38:35.287338 25394 net.cpp:425] inception_3b/relu_3x3 <- inception_3b/3x3
I0403 19:38:35.287356 25394 net.cpp:386] inception_3b/relu_3x3 -> inception_3b/3x3 (in-place)
I0403 19:38:35.287614 25394 net.cpp:141] Setting up inception_3b/relu_3x3
I0403 19:38:35.287645 25394 net.cpp:148] Top shape: 24 192 28 28 (3612672)
I0403 19:38:35.287662 25394 net.cpp:156] Memory required for data: 724943904
I0403 19:38:35.287675 25394 layer_factory.hpp:77] Creating layer inception_3b/5x5_reduce
I0403 19:38:35.287698 25394 net.cpp:91] Creating Layer inception_3b/5x5_reduce
I0403 19:38:35.287719 25394 net.cpp:425] inception_3b/5x5_reduce <- inception_3a/output_inception_3a/output_0_split_2
I0403 19:38:35.287744 25394 net.cpp:399] inception_3b/5x5_reduce -> inception_3b/5x5_reduce
I0403 19:38:35.288676 25394 net.cpp:141] Setting up inception_3b/5x5_reduce
I0403 19:38:35.288712 25394 net.cpp:148] Top shape: 24 32 28 28 (602112)
I0403 19:38:35.288732 25394 net.cpp:156] Memory required for data: 727352352
I0403 19:38:35.288749 25394 layer_factory.hpp:77] Creating layer inception_3b/relu_5x5_reduce
I0403 19:38:35.288771 25394 net.cpp:91] Creating Layer inception_3b/relu_5x5_reduce
I0403 19:38:35.288791 25394 net.cpp:425] inception_3b/relu_5x5_reduce <- inception_3b/5x5_reduce
I0403 19:38:35.288810 25394 net.cpp:386] inception_3b/relu_5x5_reduce -> inception_3b/5x5_reduce (in-place)
I0403 19:38:35.288998 25394 net.cpp:141] Setting up inception_3b/relu_5x5_reduce
I0403 19:38:35.289031 25394 net.cpp:148] Top shape: 24 32 28 28 (602112)
I0403 19:38:35.289049 25394 net.cpp:156] Memory required for data: 729760800
I0403 19:38:35.289063 25394 layer_factory.hpp:77] Creating layer inception_3b/5x5
I0403 19:38:35.289086 25394 net.cpp:91] Creating Layer inception_3b/5x5
I0403 19:38:35.289108 25394 net.cpp:425] inception_3b/5x5 <- inception_3b/5x5_reduce
I0403 19:38:35.289127 25394 net.cpp:399] inception_3b/5x5 -> inception_3b/5x5
I0403 19:38:35.291087 25394 net.cpp:141] Setting up inception_3b/5x5
I0403 19:38:35.291123 25394 net.cpp:148] Top shape: 24 96 28 28 (1806336)
I0403 19:38:35.291141 25394 net.cpp:156] Memory required for data: 736986144
I0403 19:38:35.291162 25394 layer_factory.hpp:77] Creating layer inception_3b/relu_5x5
I0403 19:38:35.291182 25394 net.cpp:91] Creating Layer inception_3b/relu_5x5
I0403 19:38:35.291205 25394 net.cpp:425] inception_3b/relu_5x5 <- inception_3b/5x5
I0403 19:38:35.291224 25394 net.cpp:386] inception_3b/relu_5x5 -> inception_3b/5x5 (in-place)
I0403 19:38:35.291417 25394 net.cpp:141] Setting up inception_3b/relu_5x5
I0403 19:38:35.291450 25394 net.cpp:148] Top shape: 24 96 28 28 (1806336)
I0403 19:38:35.291467 25394 net.cpp:156] Memory required for data: 744211488
I0403 19:38:35.291484 25394 layer_factory.hpp:77] Creating layer inception_3b/pool
I0403 19:38:35.291501 25394 net.cpp:91] Creating Layer inception_3b/pool
I0403 19:38:35.291518 25394 net.cpp:425] inception_3b/pool <- inception_3a/output_inception_3a/output_0_split_3
I0403 19:38:35.291538 25394 net.cpp:399] inception_3b/pool -> inception_3b/pool
I0403 19:38:35.291596 25394 net.cpp:141] Setting up inception_3b/pool
I0403 19:38:35.291625 25394 net.cpp:148] Top shape: 24 256 28 28 (4816896)
I0403 19:38:35.291642 25394 net.cpp:156] Memory required for data: 763479072
I0403 19:38:35.291658 25394 layer_factory.hpp:77] Creating layer inception_3b/pool_proj
I0403 19:38:35.291682 25394 net.cpp:91] Creating Layer inception_3b/pool_proj
I0403 19:38:35.291702 25394 net.cpp:425] inception_3b/pool_proj <- inception_3b/pool
I0403 19:38:35.291723 25394 net.cpp:399] inception_3b/pool_proj -> inception_3b/pool_proj
I0403 19:38:35.292758 25394 net.cpp:141] Setting up inception_3b/pool_proj
I0403 19:38:35.292793 25394 net.cpp:148] Top shape: 24 64 28 28 (1204224)
I0403 19:38:35.292814 25394 net.cpp:156] Memory required for data: 768295968
I0403 19:38:35.292832 25394 layer_factory.hpp:77] Creating layer inception_3b/relu_pool_proj
I0403 19:38:35.292851 25394 net.cpp:91] Creating Layer inception_3b/relu_pool_proj
I0403 19:38:35.292870 25394 net.cpp:425] inception_3b/relu_pool_proj <- inception_3b/pool_proj
I0403 19:38:35.292891 25394 net.cpp:386] inception_3b/relu_pool_proj -> inception_3b/pool_proj (in-place)
I0403 19:38:35.293265 25394 net.cpp:141] Setting up inception_3b/relu_pool_proj
I0403 19:38:35.293303 25394 net.cpp:148] Top shape: 24 64 28 28 (1204224)
I0403 19:38:35.293325 25394 net.cpp:156] Memory required for data: 773112864
I0403 19:38:35.293344 25394 layer_factory.hpp:77] Creating layer inception_3b/output
I0403 19:38:35.293375 25394 net.cpp:91] Creating Layer inception_3b/output
I0403 19:38:35.293393 25394 net.cpp:425] inception_3b/output <- inception_3b/1x1
I0403 19:38:35.293411 25394 net.cpp:425] inception_3b/output <- inception_3b/3x3
I0403 19:38:35.293431 25394 net.cpp:425] inception_3b/output <- inception_3b/5x5
I0403 19:38:35.293450 25394 net.cpp:425] inception_3b/output <- inception_3b/pool_proj
I0403 19:38:35.293469 25394 net.cpp:399] inception_3b/output -> inception_3b/output
I0403 19:38:35.293517 25394 net.cpp:141] Setting up inception_3b/output
I0403 19:38:35.293547 25394 net.cpp:148] Top shape: 24 480 28 28 (9031680)
I0403 19:38:35.293563 25394 net.cpp:156] Memory required for data: 809239584
I0403 19:38:35.293581 25394 layer_factory.hpp:77] Creating layer pool3/3x3_s2
I0403 19:38:35.293601 25394 net.cpp:91] Creating Layer pool3/3x3_s2
I0403 19:38:35.293622 25394 net.cpp:425] pool3/3x3_s2 <- inception_3b/output
I0403 19:38:35.293673 25394 net.cpp:399] pool3/3x3_s2 -> pool3/3x3_s2
I0403 19:38:35.293735 25394 net.cpp:141] Setting up pool3/3x3_s2
I0403 19:38:35.293766 25394 net.cpp:148] Top shape: 24 480 14 14 (2257920)
I0403 19:38:35.293782 25394 net.cpp:156] Memory required for data: 818271264
I0403 19:38:35.293798 25394 layer_factory.hpp:77] Creating layer pool3/3x3_s2_pool3/3x3_s2_0_split
I0403 19:38:35.293815 25394 net.cpp:91] Creating Layer pool3/3x3_s2_pool3/3x3_s2_0_split
I0403 19:38:35.293830 25394 net.cpp:425] pool3/3x3_s2_pool3/3x3_s2_0_split <- pool3/3x3_s2
I0403 19:38:35.293850 25394 net.cpp:399] pool3/3x3_s2_pool3/3x3_s2_0_split -> pool3/3x3_s2_pool3/3x3_s2_0_split_0
I0403 19:38:35.293875 25394 net.cpp:399] pool3/3x3_s2_pool3/3x3_s2_0_split -> pool3/3x3_s2_pool3/3x3_s2_0_split_1
I0403 19:38:35.293896 25394 net.cpp:399] pool3/3x3_s2_pool3/3x3_s2_0_split -> pool3/3x3_s2_pool3/3x3_s2_0_split_2
I0403 19:38:35.293920 25394 net.cpp:399] pool3/3x3_s2_pool3/3x3_s2_0_split -> pool3/3x3_s2_pool3/3x3_s2_0_split_3
I0403 19:38:35.293997 25394 net.cpp:141] Setting up pool3/3x3_s2_pool3/3x3_s2_0_split
I0403 19:38:35.294025 25394 net.cpp:148] Top shape: 24 480 14 14 (2257920)
I0403 19:38:35.294044 25394 net.cpp:148] Top shape: 24 480 14 14 (2257920)
I0403 19:38:35.294061 25394 net.cpp:148] Top shape: 24 480 14 14 (2257920)
I0403 19:38:35.294077 25394 net.cpp:148] Top shape: 24 480 14 14 (2257920)
I0403 19:38:35.294093 25394 net.cpp:156] Memory required for data: 854397984
I0403 19:38:35.294111 25394 layer_factory.hpp:77] Creating layer inception_4a/1x1
I0403 19:38:35.294134 25394 net.cpp:91] Creating Layer inception_4a/1x1
I0403 19:38:35.294152 25394 net.cpp:425] inception_4a/1x1 <- pool3/3x3_s2_pool3/3x3_s2_0_split_0
I0403 19:38:35.294173 25394 net.cpp:399] inception_4a/1x1 -> inception_4a/1x1
I0403 19:38:35.295708 25394 net.cpp:141] Setting up inception_4a/1x1
I0403 19:38:35.295743 25394 net.cpp:148] Top shape: 24 192 14 14 (903168)
I0403 19:38:35.295763 25394 net.cpp:156] Memory required for data: 858010656
I0403 19:38:35.295784 25394 layer_factory.hpp:77] Creating layer inception_4a/relu_1x1
I0403 19:38:35.295804 25394 net.cpp:91] Creating Layer inception_4a/relu_1x1
I0403 19:38:35.295821 25394 net.cpp:425] inception_4a/relu_1x1 <- inception_4a/1x1
I0403 19:38:35.295842 25394 net.cpp:386] inception_4a/relu_1x1 -> inception_4a/1x1 (in-place)
I0403 19:38:35.296021 25394 net.cpp:141] Setting up inception_4a/relu_1x1
I0403 19:38:35.296052 25394 net.cpp:148] Top shape: 24 192 14 14 (903168)
I0403 19:38:35.296071 25394 net.cpp:156] Memory required for data: 861623328
I0403 19:38:35.296087 25394 layer_factory.hpp:77] Creating layer inception_4a/3x3_reduce
I0403 19:38:35.296111 25394 net.cpp:91] Creating Layer inception_4a/3x3_reduce
I0403 19:38:35.296133 25394 net.cpp:425] inception_4a/3x3_reduce <- pool3/3x3_s2_pool3/3x3_s2_0_split_1
I0403 19:38:35.296154 25394 net.cpp:399] inception_4a/3x3_reduce -> inception_4a/3x3_reduce
I0403 19:38:35.297399 25394 net.cpp:141] Setting up inception_4a/3x3_reduce
I0403 19:38:35.297436 25394 net.cpp:148] Top shape: 24 96 14 14 (451584)
I0403 19:38:35.297457 25394 net.cpp:156] Memory required for data: 863429664
I0403 19:38:35.297480 25394 layer_factory.hpp:77] Creating layer inception_4a/relu_3x3_reduce
I0403 19:38:35.297505 25394 net.cpp:91] Creating Layer inception_4a/relu_3x3_reduce
I0403 19:38:35.297525 25394 net.cpp:425] inception_4a/relu_3x3_reduce <- inception_4a/3x3_reduce
I0403 19:38:35.297546 25394 net.cpp:386] inception_4a/relu_3x3_reduce -> inception_4a/3x3_reduce (in-place)
I0403 19:38:35.297739 25394 net.cpp:141] Setting up inception_4a/relu_3x3_reduce
I0403 19:38:35.297768 25394 net.cpp:148] Top shape: 24 96 14 14 (451584)
I0403 19:38:35.297785 25394 net.cpp:156] Memory required for data: 865236000
I0403 19:38:35.297801 25394 layer_factory.hpp:77] Creating layer inception_4a/3x3
I0403 19:38:35.297823 25394 net.cpp:91] Creating Layer inception_4a/3x3
I0403 19:38:35.297844 25394 net.cpp:425] inception_4a/3x3 <- inception_4a/3x3_reduce
I0403 19:38:35.297868 25394 net.cpp:399] inception_4a/3x3 -> inception_4a/3x3
I0403 19:38:35.300504 25394 net.cpp:141] Setting up inception_4a/3x3
I0403 19:38:35.300539 25394 net.cpp:148] Top shape: 24 208 14 14 (978432)
I0403 19:38:35.300557 25394 net.cpp:156] Memory required for data: 869149728
I0403 19:38:35.300575 25394 layer_factory.hpp:77] Creating layer inception_4a/relu_3x3
I0403 19:38:35.300600 25394 net.cpp:91] Creating Layer inception_4a/relu_3x3
I0403 19:38:35.300619 25394 net.cpp:425] inception_4a/relu_3x3 <- inception_4a/3x3
I0403 19:38:35.300639 25394 net.cpp:386] inception_4a/relu_3x3 -> inception_4a/3x3 (in-place)
I0403 19:38:35.300909 25394 net.cpp:141] Setting up inception_4a/relu_3x3
I0403 19:38:35.300940 25394 net.cpp:148] Top shape: 24 208 14 14 (978432)
I0403 19:38:35.300957 25394 net.cpp:156] Memory required for data: 873063456
I0403 19:38:35.300973 25394 layer_factory.hpp:77] Creating layer inception_4a/5x5_reduce
I0403 19:38:35.300998 25394 net.cpp:91] Creating Layer inception_4a/5x5_reduce
I0403 19:38:35.301018 25394 net.cpp:425] inception_4a/5x5_reduce <- pool3/3x3_s2_pool3/3x3_s2_0_split_2
I0403 19:38:35.301043 25394 net.cpp:399] inception_4a/5x5_reduce -> inception_4a/5x5_reduce
I0403 19:38:35.302055 25394 net.cpp:141] Setting up inception_4a/5x5_reduce
I0403 19:38:35.302090 25394 net.cpp:148] Top shape: 24 16 14 14 (75264)
I0403 19:38:35.302109 25394 net.cpp:156] Memory required for data: 873364512
I0403 19:38:35.302127 25394 layer_factory.hpp:77] Creating layer inception_4a/relu_5x5_reduce
I0403 19:38:35.302150 25394 net.cpp:91] Creating Layer inception_4a/relu_5x5_reduce
I0403 19:38:35.302171 25394 net.cpp:425] inception_4a/relu_5x5_reduce <- inception_4a/5x5_reduce
I0403 19:38:35.302189 25394 net.cpp:386] inception_4a/relu_5x5_reduce -> inception_4a/5x5_reduce (in-place)
I0403 19:38:35.302371 25394 net.cpp:141] Setting up inception_4a/relu_5x5_reduce
I0403 19:38:35.302400 25394 net.cpp:148] Top shape: 24 16 14 14 (75264)
I0403 19:38:35.302417 25394 net.cpp:156] Memory required for data: 873665568
I0403 19:38:35.302433 25394 layer_factory.hpp:77] Creating layer inception_4a/5x5
I0403 19:38:35.302459 25394 net.cpp:91] Creating Layer inception_4a/5x5
I0403 19:38:35.302479 25394 net.cpp:425] inception_4a/5x5 <- inception_4a/5x5_reduce
I0403 19:38:35.302501 25394 net.cpp:399] inception_4a/5x5 -> inception_4a/5x5
I0403 19:38:35.303546 25394 net.cpp:141] Setting up inception_4a/5x5
I0403 19:38:35.303580 25394 net.cpp:148] Top shape: 24 48 14 14 (225792)
I0403 19:38:35.303598 25394 net.cpp:156] Memory required for data: 874568736
I0403 19:38:35.303619 25394 layer_factory.hpp:77] Creating layer inception_4a/relu_5x5
I0403 19:38:35.303642 25394 net.cpp:91] Creating Layer inception_4a/relu_5x5
I0403 19:38:35.303658 25394 net.cpp:425] inception_4a/relu_5x5 <- inception_4a/5x5
I0403 19:38:35.303676 25394 net.cpp:386] inception_4a/relu_5x5 -> inception_4a/5x5 (in-place)
I0403 19:38:35.303855 25394 net.cpp:141] Setting up inception_4a/relu_5x5
I0403 19:38:35.303887 25394 net.cpp:148] Top shape: 24 48 14 14 (225792)
I0403 19:38:35.303905 25394 net.cpp:156] Memory required for data: 875471904
I0403 19:38:35.303922 25394 layer_factory.hpp:77] Creating layer inception_4a/pool
I0403 19:38:35.303941 25394 net.cpp:91] Creating Layer inception_4a/pool
I0403 19:38:35.303959 25394 net.cpp:425] inception_4a/pool <- pool3/3x3_s2_pool3/3x3_s2_0_split_3
I0403 19:38:35.303982 25394 net.cpp:399] inception_4a/pool -> inception_4a/pool
I0403 19:38:35.304045 25394 net.cpp:141] Setting up inception_4a/pool
I0403 19:38:35.304078 25394 net.cpp:148] Top shape: 24 480 14 14 (2257920)
I0403 19:38:35.304096 25394 net.cpp:156] Memory required for data: 884503584
I0403 19:38:35.304113 25394 layer_factory.hpp:77] Creating layer inception_4a/pool_proj
I0403 19:38:35.304136 25394 net.cpp:91] Creating Layer inception_4a/pool_proj
I0403 19:38:35.304155 25394 net.cpp:425] inception_4a/pool_proj <- inception_4a/pool
I0403 19:38:35.304174 25394 net.cpp:399] inception_4a/pool_proj -> inception_4a/pool_proj
I0403 19:38:35.305305 25394 net.cpp:141] Setting up inception_4a/pool_proj
I0403 19:38:35.305341 25394 net.cpp:148] Top shape: 24 64 14 14 (301056)
I0403 19:38:35.305392 25394 net.cpp:156] Memory required for data: 885707808
I0403 19:38:35.305413 25394 layer_factory.hpp:77] Creating layer inception_4a/relu_pool_proj
I0403 19:38:35.305433 25394 net.cpp:91] Creating Layer inception_4a/relu_pool_proj
I0403 19:38:35.305452 25394 net.cpp:425] inception_4a/relu_pool_proj <- inception_4a/pool_proj
I0403 19:38:35.305474 25394 net.cpp:386] inception_4a/relu_pool_proj -> inception_4a/pool_proj (in-place)
I0403 19:38:35.305763 25394 net.cpp:141] Setting up inception_4a/relu_pool_proj
I0403 19:38:35.305799 25394 net.cpp:148] Top shape: 24 64 14 14 (301056)
I0403 19:38:35.305816 25394 net.cpp:156] Memory required for data: 886912032
I0403 19:38:35.305830 25394 layer_factory.hpp:77] Creating layer inception_4a/output
I0403 19:38:35.305848 25394 net.cpp:91] Creating Layer inception_4a/output
I0403 19:38:35.305866 25394 net.cpp:425] inception_4a/output <- inception_4a/1x1
I0403 19:38:35.305883 25394 net.cpp:425] inception_4a/output <- inception_4a/3x3
I0403 19:38:35.305903 25394 net.cpp:425] inception_4a/output <- inception_4a/5x5
I0403 19:38:35.305920 25394 net.cpp:425] inception_4a/output <- inception_4a/pool_proj
I0403 19:38:35.305939 25394 net.cpp:399] inception_4a/output -> inception_4a/output
I0403 19:38:35.305985 25394 net.cpp:141] Setting up inception_4a/output
I0403 19:38:35.306015 25394 net.cpp:148] Top shape: 24 512 14 14 (2408448)
I0403 19:38:35.306030 25394 net.cpp:156] Memory required for data: 896545824
I0403 19:38:35.306046 25394 layer_factory.hpp:77] Creating layer inception_4a/output_inception_4a/output_0_split
I0403 19:38:35.306068 25394 net.cpp:91] Creating Layer inception_4a/output_inception_4a/output_0_split
I0403 19:38:35.306087 25394 net.cpp:425] inception_4a/output_inception_4a/output_0_split <- inception_4a/output
I0403 19:38:35.306103 25394 net.cpp:399] inception_4a/output_inception_4a/output_0_split -> inception_4a/output_inception_4a/output_0_split_0
I0403 19:38:35.306126 25394 net.cpp:399] inception_4a/output_inception_4a/output_0_split -> inception_4a/output_inception_4a/output_0_split_1
I0403 19:38:35.306150 25394 net.cpp:399] inception_4a/output_inception_4a/output_0_split -> inception_4a/output_inception_4a/output_0_split_2
I0403 19:38:35.306176 25394 net.cpp:399] inception_4a/output_inception_4a/output_0_split -> inception_4a/output_inception_4a/output_0_split_3
I0403 19:38:35.306201 25394 net.cpp:399] inception_4a/output_inception_4a/output_0_split -> inception_4a/output_inception_4a/output_0_split_4
I0403 19:38:35.306298 25394 net.cpp:141] Setting up inception_4a/output_inception_4a/output_0_split
I0403 19:38:35.306327 25394 net.cpp:148] Top shape: 24 512 14 14 (2408448)
I0403 19:38:35.306347 25394 net.cpp:148] Top shape: 24 512 14 14 (2408448)
I0403 19:38:35.306365 25394 net.cpp:148] Top shape: 24 512 14 14 (2408448)
I0403 19:38:35.306381 25394 net.cpp:148] Top shape: 24 512 14 14 (2408448)
I0403 19:38:35.306397 25394 net.cpp:148] Top shape: 24 512 14 14 (2408448)
I0403 19:38:35.306413 25394 net.cpp:156] Memory required for data: 944714784
I0403 19:38:35.306429 25394 layer_factory.hpp:77] Creating layer loss1/ave_pool
I0403 19:38:35.306452 25394 net.cpp:91] Creating Layer loss1/ave_pool
I0403 19:38:35.306473 25394 net.cpp:425] loss1/ave_pool <- inception_4a/output_inception_4a/output_0_split_0
I0403 19:38:35.306493 25394 net.cpp:399] loss1/ave_pool -> loss1/ave_pool
I0403 19:38:35.306702 25394 net.cpp:141] Setting up loss1/ave_pool
I0403 19:38:35.306732 25394 net.cpp:148] Top shape: 24 512 4 4 (196608)
I0403 19:38:35.306749 25394 net.cpp:156] Memory required for data: 945501216
I0403 19:38:35.306766 25394 layer_factory.hpp:77] Creating layer loss1/conv
I0403 19:38:35.306789 25394 net.cpp:91] Creating Layer loss1/conv
I0403 19:38:35.306810 25394 net.cpp:425] loss1/conv <- loss1/ave_pool
I0403 19:38:35.306833 25394 net.cpp:399] loss1/conv -> loss1/conv
I0403 19:38:35.308226 25394 net.cpp:141] Setting up loss1/conv
I0403 19:38:35.308259 25394 net.cpp:148] Top shape: 24 128 4 4 (49152)
I0403 19:38:35.308295 25394 net.cpp:156] Memory required for data: 945697824
I0403 19:38:35.308320 25394 layer_factory.hpp:77] Creating layer loss1/relu_conv
I0403 19:38:35.308343 25394 net.cpp:91] Creating Layer loss1/relu_conv
I0403 19:38:35.308363 25394 net.cpp:425] loss1/relu_conv <- loss1/conv
I0403 19:38:35.308383 25394 net.cpp:386] loss1/relu_conv -> loss1/conv (in-place)
I0403 19:38:35.308655 25394 net.cpp:141] Setting up loss1/relu_conv
I0403 19:38:35.308687 25394 net.cpp:148] Top shape: 24 128 4 4 (49152)
I0403 19:38:35.308704 25394 net.cpp:156] Memory required for data: 945894432
I0403 19:38:35.308719 25394 layer_factory.hpp:77] Creating layer loss1/fc
I0403 19:38:35.308749 25394 net.cpp:91] Creating Layer loss1/fc
I0403 19:38:35.308770 25394 net.cpp:425] loss1/fc <- loss1/conv
I0403 19:38:35.308792 25394 net.cpp:399] loss1/fc -> loss1/fc
I0403 19:38:35.325830 25394 net.cpp:141] Setting up loss1/fc
I0403 19:38:35.325866 25394 net.cpp:148] Top shape: 24 1024 (24576)
I0403 19:38:35.325884 25394 net.cpp:156] Memory required for data: 945992736
I0403 19:38:35.325902 25394 layer_factory.hpp:77] Creating layer loss1/relu_fc
I0403 19:38:35.325922 25394 net.cpp:91] Creating Layer loss1/relu_fc
I0403 19:38:35.325939 25394 net.cpp:425] loss1/relu_fc <- loss1/fc
I0403 19:38:35.325960 25394 net.cpp:386] loss1/relu_fc -> loss1/fc (in-place)
I0403 19:38:35.326136 25394 net.cpp:141] Setting up loss1/relu_fc
I0403 19:38:35.326164 25394 net.cpp:148] Top shape: 24 1024 (24576)
I0403 19:38:35.326179 25394 net.cpp:156] Memory required for data: 946091040
I0403 19:38:35.326196 25394 layer_factory.hpp:77] Creating layer loss1/drop_fc
I0403 19:38:35.326225 25394 net.cpp:91] Creating Layer loss1/drop_fc
I0403 19:38:35.326246 25394 net.cpp:425] loss1/drop_fc <- loss1/fc
I0403 19:38:35.326266 25394 net.cpp:386] loss1/drop_fc -> loss1/fc (in-place)
I0403 19:38:35.326323 25394 net.cpp:141] Setting up loss1/drop_fc
I0403 19:38:35.326350 25394 net.cpp:148] Top shape: 24 1024 (24576)
I0403 19:38:35.326366 25394 net.cpp:156] Memory required for data: 946189344
I0403 19:38:35.326385 25394 layer_factory.hpp:77] Creating layer loss1/classifier_plantvillage
I0403 19:38:35.326407 25394 net.cpp:91] Creating Layer loss1/classifier_plantvillage
I0403 19:38:35.326426 25394 net.cpp:425] loss1/classifier_plantvillage <- loss1/fc
I0403 19:38:35.326447 25394 net.cpp:399] loss1/classifier_plantvillage -> loss1/classifier_plantvillage
I0403 19:38:35.327327 25394 net.cpp:141] Setting up loss1/classifier_plantvillage
I0403 19:38:35.327356 25394 net.cpp:148] Top shape: 24 38 (912)
I0403 19:38:35.327374 25394 net.cpp:156] Memory required for data: 946192992
I0403 19:38:35.327394 25394 layer_factory.hpp:77] Creating layer loss1/classifier_plantvillage_loss1/classifier_plantvillage_0_split
I0403 19:38:35.327414 25394 net.cpp:91] Creating Layer loss1/classifier_plantvillage_loss1/classifier_plantvillage_0_split
I0403 19:38:35.327430 25394 net.cpp:425] loss1/classifier_plantvillage_loss1/classifier_plantvillage_0_split <- loss1/classifier_plantvillage
I0403 19:38:35.327450 25394 net.cpp:399] loss1/classifier_plantvillage_loss1/classifier_plantvillage_0_split -> loss1/classifier_plantvillage_loss1/classifier_plantvillage_0_split_0
I0403 19:38:35.327473 25394 net.cpp:399] loss1/classifier_plantvillage_loss1/classifier_plantvillage_0_split -> loss1/classifier_plantvillage_loss1/classifier_plantvillage_0_split_1
I0403 19:38:35.327497 25394 net.cpp:399] loss1/classifier_plantvillage_loss1/classifier_plantvillage_0_split -> loss1/classifier_plantvillage_loss1/classifier_plantvillage_0_split_2
I0403 19:38:35.327563 25394 net.cpp:141] Setting up loss1/classifier_plantvillage_loss1/classifier_plantvillage_0_split
I0403 19:38:35.327589 25394 net.cpp:148] Top shape: 24 38 (912)
I0403 19:38:35.327610 25394 net.cpp:148] Top shape: 24 38 (912)
I0403 19:38:35.327625 25394 net.cpp:148] Top shape: 24 38 (912)
I0403 19:38:35.327639 25394 net.cpp:156] Memory required for data: 946203936
I0403 19:38:35.327653 25394 layer_factory.hpp:77] Creating layer inception_4b/1x1
I0403 19:38:35.327674 25394 net.cpp:91] Creating Layer inception_4b/1x1
I0403 19:38:35.327709 25394 net.cpp:425] inception_4b/1x1 <- inception_4a/output_inception_4a/output_0_split_1
I0403 19:38:35.327733 25394 net.cpp:399] inception_4b/1x1 -> inception_4b/1x1
I0403 19:38:35.329267 25394 net.cpp:141] Setting up inception_4b/1x1
I0403 19:38:35.329301 25394 net.cpp:148] Top shape: 24 160 14 14 (752640)
I0403 19:38:35.329320 25394 net.cpp:156] Memory required for data: 949214496
I0403 19:38:35.329341 25394 layer_factory.hpp:77] Creating layer inception_4b/relu_1x1
I0403 19:38:35.329363 25394 net.cpp:91] Creating Layer inception_4b/relu_1x1
I0403 19:38:35.329383 25394 net.cpp:425] inception_4b/relu_1x1 <- inception_4b/1x1
I0403 19:38:35.329403 25394 net.cpp:386] inception_4b/relu_1x1 -> inception_4b/1x1 (in-place)
I0403 19:38:35.329581 25394 net.cpp:141] Setting up inception_4b/relu_1x1
I0403 19:38:35.329610 25394 net.cpp:148] Top shape: 24 160 14 14 (752640)
I0403 19:38:35.329628 25394 net.cpp:156] Memory required for data: 952225056
I0403 19:38:35.329644 25394 layer_factory.hpp:77] Creating layer inception_4b/3x3_reduce
I0403 19:38:35.329668 25394 net.cpp:91] Creating Layer inception_4b/3x3_reduce
I0403 19:38:35.329685 25394 net.cpp:425] inception_4b/3x3_reduce <- inception_4a/output_inception_4a/output_0_split_2
I0403 19:38:35.329705 25394 net.cpp:399] inception_4b/3x3_reduce -> inception_4b/3x3_reduce
I0403 19:38:35.330977 25394 net.cpp:141] Setting up inception_4b/3x3_reduce
I0403 19:38:35.331007 25394 net.cpp:148] Top shape: 24 112 14 14 (526848)
I0403 19:38:35.331025 25394 net.cpp:156] Memory required for data: 954332448
I0403 19:38:35.331044 25394 layer_factory.hpp:77] Creating layer inception_4b/relu_3x3_reduce
I0403 19:38:35.331068 25394 net.cpp:91] Creating Layer inception_4b/relu_3x3_reduce
I0403 19:38:35.331086 25394 net.cpp:425] inception_4b/relu_3x3_reduce <- inception_4b/3x3_reduce
I0403 19:38:35.331104 25394 net.cpp:386] inception_4b/relu_3x3_reduce -> inception_4b/3x3_reduce (in-place)
I0403 19:38:35.331377 25394 net.cpp:141] Setting up inception_4b/relu_3x3_reduce
I0403 19:38:35.331408 25394 net.cpp:148] Top shape: 24 112 14 14 (526848)
I0403 19:38:35.331424 25394 net.cpp:156] Memory required for data: 956439840
I0403 19:38:35.331439 25394 layer_factory.hpp:77] Creating layer inception_4b/3x3
I0403 19:38:35.331465 25394 net.cpp:91] Creating Layer inception_4b/3x3
I0403 19:38:35.331483 25394 net.cpp:425] inception_4b/3x3 <- inception_4b/3x3_reduce
I0403 19:38:35.331504 25394 net.cpp:399] inception_4b/3x3 -> inception_4b/3x3
I0403 19:38:35.334336 25394 net.cpp:141] Setting up inception_4b/3x3
I0403 19:38:35.334368 25394 net.cpp:148] Top shape: 24 224 14 14 (1053696)
I0403 19:38:35.334388 25394 net.cpp:156] Memory required for data: 960654624
I0403 19:38:35.334408 25394 layer_factory.hpp:77] Creating layer inception_4b/relu_3x3
I0403 19:38:35.334426 25394 net.cpp:91] Creating Layer inception_4b/relu_3x3
I0403 19:38:35.334444 25394 net.cpp:425] inception_4b/relu_3x3 <- inception_4b/3x3
I0403 19:38:35.334465 25394 net.cpp:386] inception_4b/relu_3x3 -> inception_4b/3x3 (in-place)
I0403 19:38:35.334641 25394 net.cpp:141] Setting up inception_4b/relu_3x3
I0403 19:38:35.334669 25394 net.cpp:148] Top shape: 24 224 14 14 (1053696)
I0403 19:38:35.334684 25394 net.cpp:156] Memory required for data: 964869408
I0403 19:38:35.334699 25394 layer_factory.hpp:77] Creating layer inception_4b/5x5_reduce
I0403 19:38:35.334723 25394 net.cpp:91] Creating Layer inception_4b/5x5_reduce
I0403 19:38:35.334743 25394 net.cpp:425] inception_4b/5x5_reduce <- inception_4a/output_inception_4a/output_0_split_3
I0403 19:38:35.334769 25394 net.cpp:399] inception_4b/5x5_reduce -> inception_4b/5x5_reduce
I0403 19:38:35.335798 25394 net.cpp:141] Setting up inception_4b/5x5_reduce
I0403 19:38:35.335827 25394 net.cpp:148] Top shape: 24 24 14 14 (112896)
I0403 19:38:35.335844 25394 net.cpp:156] Memory required for data: 965320992
I0403 19:38:35.335865 25394 layer_factory.hpp:77] Creating layer inception_4b/relu_5x5_reduce
I0403 19:38:35.335886 25394 net.cpp:91] Creating Layer inception_4b/relu_5x5_reduce
I0403 19:38:35.335921 25394 net.cpp:425] inception_4b/relu_5x5_reduce <- inception_4b/5x5_reduce
I0403 19:38:35.335942 25394 net.cpp:386] inception_4b/relu_5x5_reduce -> inception_4b/5x5_reduce (in-place)
I0403 19:38:35.336119 25394 net.cpp:141] Setting up inception_4b/relu_5x5_reduce
I0403 19:38:35.336151 25394 net.cpp:148] Top shape: 24 24 14 14 (112896)
I0403 19:38:35.336170 25394 net.cpp:156] Memory required for data: 965772576
I0403 19:38:35.336185 25394 layer_factory.hpp:77] Creating layer inception_4b/5x5
I0403 19:38:35.336210 25394 net.cpp:91] Creating Layer inception_4b/5x5
I0403 19:38:35.336230 25394 net.cpp:425] inception_4b/5x5 <- inception_4b/5x5_reduce
I0403 19:38:35.336251 25394 net.cpp:399] inception_4b/5x5 -> inception_4b/5x5
I0403 19:38:35.337496 25394 net.cpp:141] Setting up inception_4b/5x5
I0403 19:38:35.337527 25394 net.cpp:148] Top shape: 24 64 14 14 (301056)
I0403 19:38:35.337544 25394 net.cpp:156] Memory required for data: 966976800
I0403 19:38:35.337565 25394 layer_factory.hpp:77] Creating layer inception_4b/relu_5x5
I0403 19:38:35.337589 25394 net.cpp:91] Creating Layer inception_4b/relu_5x5
I0403 19:38:35.337610 25394 net.cpp:425] inception_4b/relu_5x5 <- inception_4b/5x5
I0403 19:38:35.337628 25394 net.cpp:386] inception_4b/relu_5x5 -> inception_4b/5x5 (in-place)
I0403 19:38:35.337914 25394 net.cpp:141] Setting up inception_4b/relu_5x5
I0403 19:38:35.337942 25394 net.cpp:148] Top shape: 24 64 14 14 (301056)
I0403 19:38:35.337960 25394 net.cpp:156] Memory required for data: 968181024
I0403 19:38:35.337975 25394 layer_factory.hpp:77] Creating layer inception_4b/pool
I0403 19:38:35.337998 25394 net.cpp:91] Creating Layer inception_4b/pool
I0403 19:38:35.338019 25394 net.cpp:425] inception_4b/pool <- inception_4a/output_inception_4a/output_0_split_4
I0403 19:38:35.338038 25394 net.cpp:399] inception_4b/pool -> inception_4b/pool
I0403 19:38:35.338104 25394 net.cpp:141] Setting up inception_4b/pool
I0403 19:38:35.338134 25394 net.cpp:148] Top shape: 24 512 14 14 (2408448)
I0403 19:38:35.338150 25394 net.cpp:156] Memory required for data: 977814816
I0403 19:38:35.338167 25394 layer_factory.hpp:77] Creating layer inception_4b/pool_proj
I0403 19:38:35.338188 25394 net.cpp:91] Creating Layer inception_4b/pool_proj
I0403 19:38:35.338207 25394 net.cpp:425] inception_4b/pool_proj <- inception_4b/pool
I0403 19:38:35.338230 25394 net.cpp:399] inception_4b/pool_proj -> inception_4b/pool_proj
I0403 19:38:35.339417 25394 net.cpp:141] Setting up inception_4b/pool_proj
I0403 19:38:35.339448 25394 net.cpp:148] Top shape: 24 64 14 14 (301056)
I0403 19:38:35.339467 25394 net.cpp:156] Memory required for data: 979019040
I0403 19:38:35.339486 25394 layer_factory.hpp:77] Creating layer inception_4b/relu_pool_proj
I0403 19:38:35.339509 25394 net.cpp:91] Creating Layer inception_4b/relu_pool_proj
I0403 19:38:35.339529 25394 net.cpp:425] inception_4b/relu_pool_proj <- inception_4b/pool_proj
I0403 19:38:35.339548 25394 net.cpp:386] inception_4b/relu_pool_proj -> inception_4b/pool_proj (in-place)
I0403 19:38:35.339726 25394 net.cpp:141] Setting up inception_4b/relu_pool_proj
I0403 19:38:35.339761 25394 net.cpp:148] Top shape: 24 64 14 14 (301056)
I0403 19:38:35.339778 25394 net.cpp:156] Memory required for data: 980223264
I0403 19:38:35.339794 25394 layer_factory.hpp:77] Creating layer inception_4b/output
I0403 19:38:35.339813 25394 net.cpp:91] Creating Layer inception_4b/output
I0403 19:38:35.339830 25394 net.cpp:425] inception_4b/output <- inception_4b/1x1
I0403 19:38:35.339848 25394 net.cpp:425] inception_4b/output <- inception_4b/3x3
I0403 19:38:35.339866 25394 net.cpp:425] inception_4b/output <- inception_4b/5x5
I0403 19:38:35.339886 25394 net.cpp:425] inception_4b/output <- inception_4b/pool_proj
I0403 19:38:35.339903 25394 net.cpp:399] inception_4b/output -> inception_4b/output
I0403 19:38:35.339952 25394 net.cpp:141] Setting up inception_4b/output
I0403 19:38:35.339982 25394 net.cpp:148] Top shape: 24 512 14 14 (2408448)
I0403 19:38:35.339998 25394 net.cpp:156] Memory required for data: 989857056
I0403 19:38:35.340029 25394 layer_factory.hpp:77] Creating layer inception_4b/output_inception_4b/output_0_split
I0403 19:38:35.340050 25394 net.cpp:91] Creating Layer inception_4b/output_inception_4b/output_0_split
I0403 19:38:35.340068 25394 net.cpp:425] inception_4b/output_inception_4b/output_0_split <- inception_4b/output
I0403 19:38:35.340090 25394 net.cpp:399] inception_4b/output_inception_4b/output_0_split -> inception_4b/output_inception_4b/output_0_split_0
I0403 19:38:35.340114 25394 net.cpp:399] inception_4b/output_inception_4b/output_0_split -> inception_4b/output_inception_4b/output_0_split_1
I0403 19:38:35.340137 25394 net.cpp:399] inception_4b/output_inception_4b/output_0_split -> inception_4b/output_inception_4b/output_0_split_2
I0403 19:38:35.340162 25394 net.cpp:399] inception_4b/output_inception_4b/output_0_split -> inception_4b/output_inception_4b/output_0_split_3
I0403 19:38:35.340251 25394 net.cpp:141] Setting up inception_4b/output_inception_4b/output_0_split
I0403 19:38:35.340278 25394 net.cpp:148] Top shape: 24 512 14 14 (2408448)
I0403 19:38:35.340302 25394 net.cpp:148] Top shape: 24 512 14 14 (2408448)
I0403 19:38:35.340320 25394 net.cpp:148] Top shape: 24 512 14 14 (2408448)
I0403 19:38:35.340337 25394 net.cpp:148] Top shape: 24 512 14 14 (2408448)
I0403 19:38:35.340351 25394 net.cpp:156] Memory required for data: 1028392224
I0403 19:38:35.340380 25394 layer_factory.hpp:77] Creating layer inception_4c/1x1
I0403 19:38:35.340405 25394 net.cpp:91] Creating Layer inception_4c/1x1
I0403 19:38:35.340425 25394 net.cpp:425] inception_4c/1x1 <- inception_4b/output_inception_4b/output_0_split_0
I0403 19:38:35.340447 25394 net.cpp:399] inception_4c/1x1 -> inception_4c/1x1
I0403 19:38:35.341859 25394 net.cpp:141] Setting up inception_4c/1x1
I0403 19:38:35.341894 25394 net.cpp:148] Top shape: 24 128 14 14 (602112)
I0403 19:38:35.341914 25394 net.cpp:156] Memory required for data: 1030800672
I0403 19:38:35.341934 25394 layer_factory.hpp:77] Creating layer inception_4c/relu_1x1
I0403 19:38:35.341954 25394 net.cpp:91] Creating Layer inception_4c/relu_1x1
I0403 19:38:35.341971 25394 net.cpp:425] inception_4c/relu_1x1 <- inception_4c/1x1
I0403 19:38:35.341991 25394 net.cpp:386] inception_4c/relu_1x1 -> inception_4c/1x1 (in-place)
I0403 19:38:35.342173 25394 net.cpp:141] Setting up inception_4c/relu_1x1
I0403 19:38:35.342203 25394 net.cpp:148] Top shape: 24 128 14 14 (602112)
I0403 19:38:35.342221 25394 net.cpp:156] Memory required for data: 1033209120
I0403 19:38:35.342236 25394 layer_factory.hpp:77] Creating layer inception_4c/3x3_reduce
I0403 19:38:35.342260 25394 net.cpp:91] Creating Layer inception_4c/3x3_reduce
I0403 19:38:35.342279 25394 net.cpp:425] inception_4c/3x3_reduce <- inception_4b/output_inception_4b/output_0_split_1
I0403 19:38:35.342308 25394 net.cpp:399] inception_4c/3x3_reduce -> inception_4c/3x3_reduce
I0403 19:38:35.344207 25394 net.cpp:141] Setting up inception_4c/3x3_reduce
I0403 19:38:35.344239 25394 net.cpp:148] Top shape: 24 128 14 14 (602112)
I0403 19:38:35.344259 25394 net.cpp:156] Memory required for data: 1035617568
I0403 19:38:35.344279 25394 layer_factory.hpp:77] Creating layer inception_4c/relu_3x3_reduce
I0403 19:38:35.344315 25394 net.cpp:91] Creating Layer inception_4c/relu_3x3_reduce
I0403 19:38:35.344336 25394 net.cpp:425] inception_4c/relu_3x3_reduce <- inception_4c/3x3_reduce
I0403 19:38:35.344367 25394 net.cpp:386] inception_4c/relu_3x3_reduce -> inception_4c/3x3_reduce (in-place)
I0403 19:38:35.344672 25394 net.cpp:141] Setting up inception_4c/relu_3x3_reduce
I0403 19:38:35.344702 25394 net.cpp:148] Top shape: 24 128 14 14 (602112)
I0403 19:38:35.344719 25394 net.cpp:156] Memory required for data: 1038026016
I0403 19:38:35.344733 25394 layer_factory.hpp:77] Creating layer inception_4c/3x3
I0403 19:38:35.344758 25394 net.cpp:91] Creating Layer inception_4c/3x3
I0403 19:38:35.344779 25394 net.cpp:425] inception_4c/3x3 <- inception_4c/3x3_reduce
I0403 19:38:35.344804 25394 net.cpp:399] inception_4c/3x3 -> inception_4c/3x3
I0403 19:38:35.348314 25394 net.cpp:141] Setting up inception_4c/3x3
I0403 19:38:35.348369 25394 net.cpp:148] Top shape: 24 256 14 14 (1204224)
I0403 19:38:35.348389 25394 net.cpp:156] Memory required for data: 1042842912
I0403 19:38:35.348423 25394 layer_factory.hpp:77] Creating layer inception_4c/relu_3x3
I0403 19:38:35.348448 25394 net.cpp:91] Creating Layer inception_4c/relu_3x3
I0403 19:38:35.348469 25394 net.cpp:425] inception_4c/relu_3x3 <- inception_4c/3x3
I0403 19:38:35.348490 25394 net.cpp:386] inception_4c/relu_3x3 -> inception_4c/3x3 (in-place)
I0403 19:38:35.348692 25394 net.cpp:141] Setting up inception_4c/relu_3x3
I0403 19:38:35.348721 25394 net.cpp:148] Top shape: 24 256 14 14 (1204224)
I0403 19:38:35.348738 25394 net.cpp:156] Memory required for data: 1047659808
I0403 19:38:35.348755 25394 layer_factory.hpp:77] Creating layer inception_4c/5x5_reduce
I0403 19:38:35.348780 25394 net.cpp:91] Creating Layer inception_4c/5x5_reduce
I0403 19:38:35.348803 25394 net.cpp:425] inception_4c/5x5_reduce <- inception_4b/output_inception_4b/output_0_split_2
I0403 19:38:35.348826 25394 net.cpp:399] inception_4c/5x5_reduce -> inception_4c/5x5_reduce
I0403 19:38:35.349889 25394 net.cpp:141] Setting up inception_4c/5x5_reduce
I0403 19:38:35.349920 25394 net.cpp:148] Top shape: 24 24 14 14 (112896)
I0403 19:38:35.349938 25394 net.cpp:156] Memory required for data: 1048111392
I0403 19:38:35.349961 25394 layer_factory.hpp:77] Creating layer inception_4c/relu_5x5_reduce
I0403 19:38:35.349982 25394 net.cpp:91] Creating Layer inception_4c/relu_5x5_reduce
I0403 19:38:35.350003 25394 net.cpp:425] inception_4c/relu_5x5_reduce <- inception_4c/5x5_reduce
I0403 19:38:35.350023 25394 net.cpp:386] inception_4c/relu_5x5_reduce -> inception_4c/5x5_reduce (in-place)
I0403 19:38:35.350204 25394 net.cpp:141] Setting up inception_4c/relu_5x5_reduce
I0403 19:38:35.350234 25394 net.cpp:148] Top shape: 24 24 14 14 (112896)
I0403 19:38:35.350251 25394 net.cpp:156] Memory required for data: 1048562976
I0403 19:38:35.350268 25394 layer_factory.hpp:77] Creating layer inception_4c/5x5
I0403 19:38:35.350298 25394 net.cpp:91] Creating Layer inception_4c/5x5
I0403 19:38:35.350320 25394 net.cpp:425] inception_4c/5x5 <- inception_4c/5x5_reduce
I0403 19:38:35.350340 25394 net.cpp:399] inception_4c/5x5 -> inception_4c/5x5
I0403 19:38:35.351554 25394 net.cpp:141] Setting up inception_4c/5x5
I0403 19:38:35.351588 25394 net.cpp:148] Top shape: 24 64 14 14 (301056)
I0403 19:38:35.351606 25394 net.cpp:156] Memory required for data: 1049767200
I0403 19:38:35.351627 25394 layer_factory.hpp:77] Creating layer inception_4c/relu_5x5
I0403 19:38:35.351646 25394 net.cpp:91] Creating Layer inception_4c/relu_5x5
I0403 19:38:35.351663 25394 net.cpp:425] inception_4c/relu_5x5 <- inception_4c/5x5
I0403 19:38:35.351685 25394 net.cpp:386] inception_4c/relu_5x5 -> inception_4c/5x5 (in-place)
I0403 19:38:35.351970 25394 net.cpp:141] Setting up inception_4c/relu_5x5
I0403 19:38:35.352001 25394 net.cpp:148] Top shape: 24 64 14 14 (301056)
I0403 19:38:35.352018 25394 net.cpp:156] Memory required for data: 1050971424
I0403 19:38:35.352036 25394 layer_factory.hpp:77] Creating layer inception_4c/pool
I0403 19:38:35.352057 25394 net.cpp:91] Creating Layer inception_4c/pool
I0403 19:38:35.352075 25394 net.cpp:425] inception_4c/pool <- inception_4b/output_inception_4b/output_0_split_3
I0403 19:38:35.352098 25394 net.cpp:399] inception_4c/pool -> inception_4c/pool
I0403 19:38:35.352164 25394 net.cpp:141] Setting up inception_4c/pool
I0403 19:38:35.352195 25394 net.cpp:148] Top shape: 24 512 14 14 (2408448)
I0403 19:38:35.352212 25394 net.cpp:156] Memory required for data: 1060605216
I0403 19:38:35.352229 25394 layer_factory.hpp:77] Creating layer inception_4c/pool_proj
I0403 19:38:35.352252 25394 net.cpp:91] Creating Layer inception_4c/pool_proj
I0403 19:38:35.352273 25394 net.cpp:425] inception_4c/pool_proj <- inception_4c/pool
I0403 19:38:35.352301 25394 net.cpp:399] inception_4c/pool_proj -> inception_4c/pool_proj
I0403 19:38:35.353536 25394 net.cpp:141] Setting up inception_4c/pool_proj
I0403 19:38:35.353569 25394 net.cpp:148] Top shape: 24 64 14 14 (301056)
I0403 19:38:35.353602 25394 net.cpp:156] Memory required for data: 1061809440
I0403 19:38:35.353623 25394 layer_factory.hpp:77] Creating layer inception_4c/relu_pool_proj
I0403 19:38:35.353647 25394 net.cpp:91] Creating Layer inception_4c/relu_pool_proj
I0403 19:38:35.353667 25394 net.cpp:425] inception_4c/relu_pool_proj <- inception_4c/pool_proj
I0403 19:38:35.353685 25394 net.cpp:386] inception_4c/relu_pool_proj -> inception_4c/pool_proj (in-place)
I0403 19:38:35.353869 25394 net.cpp:141] Setting up inception_4c/relu_pool_proj
I0403 19:38:35.353900 25394 net.cpp:148] Top shape: 24 64 14 14 (301056)
I0403 19:38:35.353917 25394 net.cpp:156] Memory required for data: 1063013664
I0403 19:38:35.353934 25394 layer_factory.hpp:77] Creating layer inception_4c/output
I0403 19:38:35.353955 25394 net.cpp:91] Creating Layer inception_4c/output
I0403 19:38:35.353986 25394 net.cpp:425] inception_4c/output <- inception_4c/1x1
I0403 19:38:35.354003 25394 net.cpp:425] inception_4c/output <- inception_4c/3x3
I0403 19:38:35.354022 25394 net.cpp:425] inception_4c/output <- inception_4c/5x5
I0403 19:38:35.354051 25394 net.cpp:425] inception_4c/output <- inception_4c/pool_proj
I0403 19:38:35.354071 25394 net.cpp:399] inception_4c/output -> inception_4c/output
I0403 19:38:35.354120 25394 net.cpp:141] Setting up inception_4c/output
I0403 19:38:35.354148 25394 net.cpp:148] Top shape: 24 512 14 14 (2408448)
I0403 19:38:35.354166 25394 net.cpp:156] Memory required for data: 1072647456
I0403 19:38:35.354182 25394 layer_factory.hpp:77] Creating layer inception_4c/output_inception_4c/output_0_split
I0403 19:38:35.354200 25394 net.cpp:91] Creating Layer inception_4c/output_inception_4c/output_0_split
I0403 19:38:35.354217 25394 net.cpp:425] inception_4c/output_inception_4c/output_0_split <- inception_4c/output
I0403 19:38:35.354239 25394 net.cpp:399] inception_4c/output_inception_4c/output_0_split -> inception_4c/output_inception_4c/output_0_split_0
I0403 19:38:35.354264 25394 net.cpp:399] inception_4c/output_inception_4c/output_0_split -> inception_4c/output_inception_4c/output_0_split_1
I0403 19:38:35.354300 25394 net.cpp:399] inception_4c/output_inception_4c/output_0_split -> inception_4c/output_inception_4c/output_0_split_2
I0403 19:38:35.354338 25394 net.cpp:399] inception_4c/output_inception_4c/output_0_split -> inception_4c/output_inception_4c/output_0_split_3
I0403 19:38:35.354429 25394 net.cpp:141] Setting up inception_4c/output_inception_4c/output_0_split
I0403 19:38:35.354456 25394 net.cpp:148] Top shape: 24 512 14 14 (2408448)
I0403 19:38:35.354473 25394 net.cpp:148] Top shape: 24 512 14 14 (2408448)
I0403 19:38:35.354490 25394 net.cpp:148] Top shape: 24 512 14 14 (2408448)
I0403 19:38:35.354507 25394 net.cpp:148] Top shape: 24 512 14 14 (2408448)
I0403 19:38:35.354523 25394 net.cpp:156] Memory required for data: 1111182624
I0403 19:38:35.354540 25394 layer_factory.hpp:77] Creating layer inception_4d/1x1
I0403 19:38:35.354564 25394 net.cpp:91] Creating Layer inception_4d/1x1
I0403 19:38:35.354585 25394 net.cpp:425] inception_4d/1x1 <- inception_4c/output_inception_4c/output_0_split_0
I0403 19:38:35.354606 25394 net.cpp:399] inception_4d/1x1 -> inception_4d/1x1
I0403 19:38:35.355923 25394 net.cpp:141] Setting up inception_4d/1x1
I0403 19:38:35.355954 25394 net.cpp:148] Top shape: 24 112 14 14 (526848)
I0403 19:38:35.355973 25394 net.cpp:156] Memory required for data: 1113290016
I0403 19:38:35.355993 25394 layer_factory.hpp:77] Creating layer inception_4d/relu_1x1
I0403 19:38:35.356012 25394 net.cpp:91] Creating Layer inception_4d/relu_1x1
I0403 19:38:35.356030 25394 net.cpp:425] inception_4d/relu_1x1 <- inception_4d/1x1
I0403 19:38:35.356052 25394 net.cpp:386] inception_4d/relu_1x1 -> inception_4d/1x1 (in-place)
I0403 19:38:35.356235 25394 net.cpp:141] Setting up inception_4d/relu_1x1
I0403 19:38:35.356264 25394 net.cpp:148] Top shape: 24 112 14 14 (526848)
I0403 19:38:35.356281 25394 net.cpp:156] Memory required for data: 1115397408
I0403 19:38:35.356300 25394 layer_factory.hpp:77] Creating layer inception_4d/3x3_reduce
I0403 19:38:35.356341 25394 net.cpp:91] Creating Layer inception_4d/3x3_reduce
I0403 19:38:35.356362 25394 net.cpp:425] inception_4d/3x3_reduce <- inception_4c/output_inception_4c/output_0_split_1
I0403 19:38:35.356386 25394 net.cpp:399] inception_4d/3x3_reduce -> inception_4d/3x3_reduce
I0403 19:38:35.357928 25394 net.cpp:141] Setting up inception_4d/3x3_reduce
I0403 19:38:35.357961 25394 net.cpp:148] Top shape: 24 144 14 14 (677376)
I0403 19:38:35.357980 25394 net.cpp:156] Memory required for data: 1118106912
I0403 19:38:35.358000 25394 layer_factory.hpp:77] Creating layer inception_4d/relu_3x3_reduce
I0403 19:38:35.358018 25394 net.cpp:91] Creating Layer inception_4d/relu_3x3_reduce
I0403 19:38:35.358036 25394 net.cpp:425] inception_4d/relu_3x3_reduce <- inception_4d/3x3_reduce
I0403 19:38:35.358057 25394 net.cpp:386] inception_4d/relu_3x3_reduce -> inception_4d/3x3_reduce (in-place)
I0403 19:38:35.358355 25394 net.cpp:141] Setting up inception_4d/relu_3x3_reduce
I0403 19:38:35.358389 25394 net.cpp:148] Top shape: 24 144 14 14 (677376)
I0403 19:38:35.358407 25394 net.cpp:156] Memory required for data: 1120816416
I0403 19:38:35.358436 25394 layer_factory.hpp:77] Creating layer inception_4d/3x3
I0403 19:38:35.358460 25394 net.cpp:91] Creating Layer inception_4d/3x3
I0403 19:38:35.358482 25394 net.cpp:425] inception_4d/3x3 <- inception_4d/3x3_reduce
I0403 19:38:35.358502 25394 net.cpp:399] inception_4d/3x3 -> inception_4d/3x3
I0403 19:38:35.362700 25394 net.cpp:141] Setting up inception_4d/3x3
I0403 19:38:35.362733 25394 net.cpp:148] Top shape: 24 288 14 14 (1354752)
I0403 19:38:35.362749 25394 net.cpp:156] Memory required for data: 1126235424
I0403 19:38:35.362768 25394 layer_factory.hpp:77] Creating layer inception_4d/relu_3x3
I0403 19:38:35.362788 25394 net.cpp:91] Creating Layer inception_4d/relu_3x3
I0403 19:38:35.362808 25394 net.cpp:425] inception_4d/relu_3x3 <- inception_4d/3x3
I0403 19:38:35.362828 25394 net.cpp:386] inception_4d/relu_3x3 -> inception_4d/3x3 (in-place)
I0403 19:38:35.363006 25394 net.cpp:141] Setting up inception_4d/relu_3x3
I0403 19:38:35.363035 25394 net.cpp:148] Top shape: 24 288 14 14 (1354752)
I0403 19:38:35.363051 25394 net.cpp:156] Memory required for data: 1131654432
I0403 19:38:35.363067 25394 layer_factory.hpp:77] Creating layer inception_4d/5x5_reduce
I0403 19:38:35.363091 25394 net.cpp:91] Creating Layer inception_4d/5x5_reduce
I0403 19:38:35.363111 25394 net.cpp:425] inception_4d/5x5_reduce <- inception_4c/output_inception_4c/output_0_split_2
I0403 19:38:35.363132 25394 net.cpp:399] inception_4d/5x5_reduce -> inception_4d/5x5_reduce
I0403 19:38:35.364259 25394 net.cpp:141] Setting up inception_4d/5x5_reduce
I0403 19:38:35.364300 25394 net.cpp:148] Top shape: 24 32 14 14 (150528)
I0403 19:38:35.364321 25394 net.cpp:156] Memory required for data: 1132256544
I0403 19:38:35.364341 25394 layer_factory.hpp:77] Creating layer inception_4d/relu_5x5_reduce
I0403 19:38:35.364359 25394 net.cpp:91] Creating Layer inception_4d/relu_5x5_reduce
I0403 19:38:35.364382 25394 net.cpp:425] inception_4d/relu_5x5_reduce <- inception_4d/5x5_reduce
I0403 19:38:35.364403 25394 net.cpp:386] inception_4d/relu_5x5_reduce -> inception_4d/5x5_reduce (in-place)
I0403 19:38:35.364583 25394 net.cpp:141] Setting up inception_4d/relu_5x5_reduce
I0403 19:38:35.364614 25394 net.cpp:148] Top shape: 24 32 14 14 (150528)
I0403 19:38:35.364630 25394 net.cpp:156] Memory required for data: 1132858656
I0403 19:38:35.364647 25394 layer_factory.hpp:77] Creating layer inception_4d/5x5
I0403 19:38:35.364668 25394 net.cpp:91] Creating Layer inception_4d/5x5
I0403 19:38:35.364687 25394 net.cpp:425] inception_4d/5x5 <- inception_4d/5x5_reduce
I0403 19:38:35.364709 25394 net.cpp:399] inception_4d/5x5 -> inception_4d/5x5
I0403 19:38:35.366086 25394 net.cpp:141] Setting up inception_4d/5x5
I0403 19:38:35.366117 25394 net.cpp:148] Top shape: 24 64 14 14 (301056)
I0403 19:38:35.366134 25394 net.cpp:156] Memory required for data: 1134062880
I0403 19:38:35.366154 25394 layer_factory.hpp:77] Creating layer inception_4d/relu_5x5
I0403 19:38:35.366191 25394 net.cpp:91] Creating Layer inception_4d/relu_5x5
I0403 19:38:35.366212 25394 net.cpp:425] inception_4d/relu_5x5 <- inception_4d/5x5
I0403 19:38:35.366230 25394 net.cpp:386] inception_4d/relu_5x5 -> inception_4d/5x5 (in-place)
I0403 19:38:35.366524 25394 net.cpp:141] Setting up inception_4d/relu_5x5
I0403 19:38:35.366557 25394 net.cpp:148] Top shape: 24 64 14 14 (301056)
I0403 19:38:35.366575 25394 net.cpp:156] Memory required for data: 1135267104
I0403 19:38:35.366590 25394 layer_factory.hpp:77] Creating layer inception_4d/pool
I0403 19:38:35.366611 25394 net.cpp:91] Creating Layer inception_4d/pool
I0403 19:38:35.366629 25394 net.cpp:425] inception_4d/pool <- inception_4c/output_inception_4c/output_0_split_3
I0403 19:38:35.366649 25394 net.cpp:399] inception_4d/pool -> inception_4d/pool
I0403 19:38:35.366716 25394 net.cpp:141] Setting up inception_4d/pool
I0403 19:38:35.366745 25394 net.cpp:148] Top shape: 24 512 14 14 (2408448)
I0403 19:38:35.366763 25394 net.cpp:156] Memory required for data: 1144900896
I0403 19:38:35.366778 25394 layer_factory.hpp:77] Creating layer inception_4d/pool_proj
I0403 19:38:35.366802 25394 net.cpp:91] Creating Layer inception_4d/pool_proj
I0403 19:38:35.366822 25394 net.cpp:425] inception_4d/pool_proj <- inception_4d/pool
I0403 19:38:35.366845 25394 net.cpp:399] inception_4d/pool_proj -> inception_4d/pool_proj
I0403 19:38:35.368556 25394 net.cpp:141] Setting up inception_4d/pool_proj
I0403 19:38:35.368589 25394 net.cpp:148] Top shape: 24 64 14 14 (301056)
I0403 19:38:35.368608 25394 net.cpp:156] Memory required for data: 1146105120
I0403 19:38:35.368628 25394 layer_factory.hpp:77] Creating layer inception_4d/relu_pool_proj
I0403 19:38:35.368648 25394 net.cpp:91] Creating Layer inception_4d/relu_pool_proj
I0403 19:38:35.368666 25394 net.cpp:425] inception_4d/relu_pool_proj <- inception_4d/pool_proj
I0403 19:38:35.368688 25394 net.cpp:386] inception_4d/relu_pool_proj -> inception_4d/pool_proj (in-place)
I0403 19:38:35.368866 25394 net.cpp:141] Setting up inception_4d/relu_pool_proj
I0403 19:38:35.368896 25394 net.cpp:148] Top shape: 24 64 14 14 (301056)
I0403 19:38:35.368911 25394 net.cpp:156] Memory required for data: 1147309344
I0403 19:38:35.368927 25394 layer_factory.hpp:77] Creating layer inception_4d/output
I0403 19:38:35.368949 25394 net.cpp:91] Creating Layer inception_4d/output
I0403 19:38:35.368971 25394 net.cpp:425] inception_4d/output <- inception_4d/1x1
I0403 19:38:35.368988 25394 net.cpp:425] inception_4d/output <- inception_4d/3x3
I0403 19:38:35.369005 25394 net.cpp:425] inception_4d/output <- inception_4d/5x5
I0403 19:38:35.369021 25394 net.cpp:425] inception_4d/output <- inception_4d/pool_proj
I0403 19:38:35.369038 25394 net.cpp:399] inception_4d/output -> inception_4d/output
I0403 19:38:35.369088 25394 net.cpp:141] Setting up inception_4d/output
I0403 19:38:35.369117 25394 net.cpp:148] Top shape: 24 528 14 14 (2483712)
I0403 19:38:35.369134 25394 net.cpp:156] Memory required for data: 1157244192
I0403 19:38:35.369151 25394 layer_factory.hpp:77] Creating layer inception_4d/output_inception_4d/output_0_split
I0403 19:38:35.369169 25394 net.cpp:91] Creating Layer inception_4d/output_inception_4d/output_0_split
I0403 19:38:35.369186 25394 net.cpp:425] inception_4d/output_inception_4d/output_0_split <- inception_4d/output
I0403 19:38:35.369209 25394 net.cpp:399] inception_4d/output_inception_4d/output_0_split -> inception_4d/output_inception_4d/output_0_split_0
I0403 19:38:35.369233 25394 net.cpp:399] inception_4d/output_inception_4d/output_0_split -> inception_4d/output_inception_4d/output_0_split_1
I0403 19:38:35.369256 25394 net.cpp:399] inception_4d/output_inception_4d/output_0_split -> inception_4d/output_inception_4d/output_0_split_2
I0403 19:38:35.369278 25394 net.cpp:399] inception_4d/output_inception_4d/output_0_split -> inception_4d/output_inception_4d/output_0_split_3
I0403 19:38:35.369308 25394 net.cpp:399] inception_4d/output_inception_4d/output_0_split -> inception_4d/output_inception_4d/output_0_split_4
I0403 19:38:35.369411 25394 net.cpp:141] Setting up inception_4d/output_inception_4d/output_0_split
I0403 19:38:35.369449 25394 net.cpp:148] Top shape: 24 528 14 14 (2483712)
I0403 19:38:35.369472 25394 net.cpp:148] Top shape: 24 528 14 14 (2483712)
I0403 19:38:35.369490 25394 net.cpp:148] Top shape: 24 528 14 14 (2483712)
I0403 19:38:35.369508 25394 net.cpp:148] Top shape: 24 528 14 14 (2483712)
I0403 19:38:35.369523 25394 net.cpp:148] Top shape: 24 528 14 14 (2483712)
I0403 19:38:35.369536 25394 net.cpp:156] Memory required for data: 1206918432
I0403 19:38:35.369551 25394 layer_factory.hpp:77] Creating layer loss2/ave_pool
I0403 19:38:35.369571 25394 net.cpp:91] Creating Layer loss2/ave_pool
I0403 19:38:35.369590 25394 net.cpp:425] loss2/ave_pool <- inception_4d/output_inception_4d/output_0_split_0
I0403 19:38:35.369612 25394 net.cpp:399] loss2/ave_pool -> loss2/ave_pool
I0403 19:38:35.369920 25394 net.cpp:141] Setting up loss2/ave_pool
I0403 19:38:35.369947 25394 net.cpp:148] Top shape: 24 528 4 4 (202752)
I0403 19:38:35.369964 25394 net.cpp:156] Memory required for data: 1207729440
I0403 19:38:35.369982 25394 layer_factory.hpp:77] Creating layer loss2/conv
I0403 19:38:35.370007 25394 net.cpp:91] Creating Layer loss2/conv
I0403 19:38:35.370029 25394 net.cpp:425] loss2/conv <- loss2/ave_pool
I0403 19:38:35.370050 25394 net.cpp:399] loss2/conv -> loss2/conv
I0403 19:38:35.371873 25394 net.cpp:141] Setting up loss2/conv
I0403 19:38:35.371906 25394 net.cpp:148] Top shape: 24 128 4 4 (49152)
I0403 19:38:35.371923 25394 net.cpp:156] Memory required for data: 1207926048
I0403 19:38:35.371942 25394 layer_factory.hpp:77] Creating layer loss2/relu_conv
I0403 19:38:35.371966 25394 net.cpp:91] Creating Layer loss2/relu_conv
I0403 19:38:35.371984 25394 net.cpp:425] loss2/relu_conv <- loss2/conv
I0403 19:38:35.371999 25394 net.cpp:386] loss2/relu_conv -> loss2/conv (in-place)
I0403 19:38:35.372272 25394 net.cpp:141] Setting up loss2/relu_conv
I0403 19:38:35.372321 25394 net.cpp:148] Top shape: 24 128 4 4 (49152)
I0403 19:38:35.372342 25394 net.cpp:156] Memory required for data: 1208122656
I0403 19:38:35.372372 25394 layer_factory.hpp:77] Creating layer loss2/fc
I0403 19:38:35.372395 25394 net.cpp:91] Creating Layer loss2/fc
I0403 19:38:35.372412 25394 net.cpp:425] loss2/fc <- loss2/conv
I0403 19:38:35.372434 25394 net.cpp:399] loss2/fc -> loss2/fc
I0403 19:38:35.390059 25394 net.cpp:141] Setting up loss2/fc
I0403 19:38:35.390096 25394 net.cpp:148] Top shape: 24 1024 (24576)
I0403 19:38:35.390115 25394 net.cpp:156] Memory required for data: 1208220960
I0403 19:38:35.390136 25394 layer_factory.hpp:77] Creating layer loss2/relu_fc
I0403 19:38:35.390156 25394 net.cpp:91] Creating Layer loss2/relu_fc
I0403 19:38:35.390182 25394 net.cpp:425] loss2/relu_fc <- loss2/fc
I0403 19:38:35.390200 25394 net.cpp:386] loss2/relu_fc -> loss2/fc (in-place)
I0403 19:38:35.390496 25394 net.cpp:141] Setting up loss2/relu_fc
I0403 19:38:35.390524 25394 net.cpp:148] Top shape: 24 1024 (24576)
I0403 19:38:35.390540 25394 net.cpp:156] Memory required for data: 1208319264
I0403 19:38:35.390558 25394 layer_factory.hpp:77] Creating layer loss2/drop_fc
I0403 19:38:35.390576 25394 net.cpp:91] Creating Layer loss2/drop_fc
I0403 19:38:35.390596 25394 net.cpp:425] loss2/drop_fc <- loss2/fc
I0403 19:38:35.390615 25394 net.cpp:386] loss2/drop_fc -> loss2/fc (in-place)
I0403 19:38:35.390663 25394 net.cpp:141] Setting up loss2/drop_fc
I0403 19:38:35.390692 25394 net.cpp:148] Top shape: 24 1024 (24576)
I0403 19:38:35.390710 25394 net.cpp:156] Memory required for data: 1208417568
I0403 19:38:35.390727 25394 layer_factory.hpp:77] Creating layer loss2/classifier_plantvillage
I0403 19:38:35.390745 25394 net.cpp:91] Creating Layer loss2/classifier_plantvillage
I0403 19:38:35.390763 25394 net.cpp:425] loss2/classifier_plantvillage <- loss2/fc
I0403 19:38:35.390784 25394 net.cpp:399] loss2/classifier_plantvillage -> loss2/classifier_plantvillage
I0403 19:38:35.391165 25394 net.cpp:141] Setting up loss2/classifier_plantvillage
I0403 19:38:35.391196 25394 net.cpp:148] Top shape: 24 38 (912)
I0403 19:38:35.391229 25394 net.cpp:156] Memory required for data: 1208421216
I0403 19:38:35.391250 25394 layer_factory.hpp:77] Creating layer loss2/classifier_plantvillage_loss2/classifier_plantvillage_0_split
I0403 19:38:35.391270 25394 net.cpp:91] Creating Layer loss2/classifier_plantvillage_loss2/classifier_plantvillage_0_split
I0403 19:38:35.391293 25394 net.cpp:425] loss2/classifier_plantvillage_loss2/classifier_plantvillage_0_split <- loss2/classifier_plantvillage
I0403 19:38:35.391316 25394 net.cpp:399] loss2/classifier_plantvillage_loss2/classifier_plantvillage_0_split -> loss2/classifier_plantvillage_loss2/classifier_plantvillage_0_split_0
I0403 19:38:35.391340 25394 net.cpp:399] loss2/classifier_plantvillage_loss2/classifier_plantvillage_0_split -> loss2/classifier_plantvillage_loss2/classifier_plantvillage_0_split_1
I0403 19:38:35.391363 25394 net.cpp:399] loss2/classifier_plantvillage_loss2/classifier_plantvillage_0_split -> loss2/classifier_plantvillage_loss2/classifier_plantvillage_0_split_2
I0403 19:38:35.391440 25394 net.cpp:141] Setting up loss2/classifier_plantvillage_loss2/classifier_plantvillage_0_split
I0403 19:38:35.391469 25394 net.cpp:148] Top shape: 24 38 (912)
I0403 19:38:35.391486 25394 net.cpp:148] Top shape: 24 38 (912)
I0403 19:38:35.391504 25394 net.cpp:148] Top shape: 24 38 (912)
I0403 19:38:35.391520 25394 net.cpp:156] Memory required for data: 1208432160
I0403 19:38:35.391533 25394 layer_factory.hpp:77] Creating layer inception_4e/1x1
I0403 19:38:35.391556 25394 net.cpp:91] Creating Layer inception_4e/1x1
I0403 19:38:35.391577 25394 net.cpp:425] inception_4e/1x1 <- inception_4d/output_inception_4d/output_0_split_1
I0403 19:38:35.391597 25394 net.cpp:399] inception_4e/1x1 -> inception_4e/1x1
I0403 19:38:35.393326 25394 net.cpp:141] Setting up inception_4e/1x1
I0403 19:38:35.393358 25394 net.cpp:148] Top shape: 24 256 14 14 (1204224)
I0403 19:38:35.393378 25394 net.cpp:156] Memory required for data: 1213249056
I0403 19:38:35.393398 25394 layer_factory.hpp:77] Creating layer inception_4e/relu_1x1
I0403 19:38:35.393417 25394 net.cpp:91] Creating Layer inception_4e/relu_1x1
I0403 19:38:35.393435 25394 net.cpp:425] inception_4e/relu_1x1 <- inception_4e/1x1
I0403 19:38:35.393453 25394 net.cpp:386] inception_4e/relu_1x1 -> inception_4e/1x1 (in-place)
I0403 19:38:35.393735 25394 net.cpp:141] Setting up inception_4e/relu_1x1
I0403 19:38:35.393764 25394 net.cpp:148] Top shape: 24 256 14 14 (1204224)
I0403 19:38:35.393781 25394 net.cpp:156] Memory required for data: 1218065952
I0403 19:38:35.393797 25394 layer_factory.hpp:77] Creating layer inception_4e/3x3_reduce
I0403 19:38:35.393821 25394 net.cpp:91] Creating Layer inception_4e/3x3_reduce
I0403 19:38:35.393841 25394 net.cpp:425] inception_4e/3x3_reduce <- inception_4d/output_inception_4d/output_0_split_2
I0403 19:38:35.393862 25394 net.cpp:399] inception_4e/3x3_reduce -> inception_4e/3x3_reduce
I0403 19:38:35.395896 25394 net.cpp:141] Setting up inception_4e/3x3_reduce
I0403 19:38:35.395927 25394 net.cpp:148] Top shape: 24 160 14 14 (752640)
I0403 19:38:35.395946 25394 net.cpp:156] Memory required for data: 1221076512
I0403 19:38:35.395964 25394 layer_factory.hpp:77] Creating layer inception_4e/relu_3x3_reduce
I0403 19:38:35.395985 25394 net.cpp:91] Creating Layer inception_4e/relu_3x3_reduce
I0403 19:38:35.396006 25394 net.cpp:425] inception_4e/relu_3x3_reduce <- inception_4e/3x3_reduce
I0403 19:38:35.396028 25394 net.cpp:386] inception_4e/relu_3x3_reduce -> inception_4e/3x3_reduce (in-place)
I0403 19:38:35.396205 25394 net.cpp:141] Setting up inception_4e/relu_3x3_reduce
I0403 19:38:35.396234 25394 net.cpp:148] Top shape: 24 160 14 14 (752640)
I0403 19:38:35.396252 25394 net.cpp:156] Memory required for data: 1224087072
I0403 19:38:35.396268 25394 layer_factory.hpp:77] Creating layer inception_4e/3x3
I0403 19:38:35.396296 25394 net.cpp:91] Creating Layer inception_4e/3x3
I0403 19:38:35.396319 25394 net.cpp:425] inception_4e/3x3 <- inception_4e/3x3_reduce
I0403 19:38:35.396339 25394 net.cpp:399] inception_4e/3x3 -> inception_4e/3x3
I0403 19:38:35.401139 25394 net.cpp:141] Setting up inception_4e/3x3
I0403 19:38:35.401183 25394 net.cpp:148] Top shape: 24 320 14 14 (1505280)
I0403 19:38:35.401203 25394 net.cpp:156] Memory required for data: 1230108192
I0403 19:38:35.401224 25394 layer_factory.hpp:77] Creating layer inception_4e/relu_3x3
I0403 19:38:35.401244 25394 net.cpp:91] Creating Layer inception_4e/relu_3x3
I0403 19:38:35.401263 25394 net.cpp:425] inception_4e/relu_3x3 <- inception_4e/3x3
I0403 19:38:35.401284 25394 net.cpp:386] inception_4e/relu_3x3 -> inception_4e/3x3 (in-place)
I0403 19:38:35.401582 25394 net.cpp:141] Setting up inception_4e/relu_3x3
I0403 19:38:35.401612 25394 net.cpp:148] Top shape: 24 320 14 14 (1505280)
I0403 19:38:35.401628 25394 net.cpp:156] Memory required for data: 1236129312
I0403 19:38:35.401645 25394 layer_factory.hpp:77] Creating layer inception_4e/5x5_reduce
I0403 19:38:35.401670 25394 net.cpp:91] Creating Layer inception_4e/5x5_reduce
I0403 19:38:35.401690 25394 net.cpp:425] inception_4e/5x5_reduce <- inception_4d/output_inception_4d/output_0_split_3
I0403 19:38:35.401711 25394 net.cpp:399] inception_4e/5x5_reduce -> inception_4e/5x5_reduce
I0403 19:38:35.402730 25394 net.cpp:141] Setting up inception_4e/5x5_reduce
I0403 19:38:35.402762 25394 net.cpp:148] Top shape: 24 32 14 14 (150528)
I0403 19:38:35.402779 25394 net.cpp:156] Memory required for data: 1236731424
I0403 19:38:35.402799 25394 layer_factory.hpp:77] Creating layer inception_4e/relu_5x5_reduce
I0403 19:38:35.402822 25394 net.cpp:91] Creating Layer inception_4e/relu_5x5_reduce
I0403 19:38:35.402842 25394 net.cpp:425] inception_4e/relu_5x5_reduce <- inception_4e/5x5_reduce
I0403 19:38:35.402861 25394 net.cpp:386] inception_4e/relu_5x5_reduce -> inception_4e/5x5_reduce (in-place)
I0403 19:38:35.403149 25394 net.cpp:141] Setting up inception_4e/relu_5x5_reduce
I0403 19:38:35.403179 25394 net.cpp:148] Top shape: 24 32 14 14 (150528)
I0403 19:38:35.403197 25394 net.cpp:156] Memory required for data: 1237333536
I0403 19:38:35.403213 25394 layer_factory.hpp:77] Creating layer inception_4e/5x5
I0403 19:38:35.403254 25394 net.cpp:91] Creating Layer inception_4e/5x5
I0403 19:38:35.403275 25394 net.cpp:425] inception_4e/5x5 <- inception_4e/5x5_reduce
I0403 19:38:35.403306 25394 net.cpp:399] inception_4e/5x5 -> inception_4e/5x5
I0403 19:38:35.405045 25394 net.cpp:141] Setting up inception_4e/5x5
I0403 19:38:35.405076 25394 net.cpp:148] Top shape: 24 128 14 14 (602112)
I0403 19:38:35.405094 25394 net.cpp:156] Memory required for data: 1239741984
I0403 19:38:35.405114 25394 layer_factory.hpp:77] Creating layer inception_4e/relu_5x5
I0403 19:38:35.405135 25394 net.cpp:91] Creating Layer inception_4e/relu_5x5
I0403 19:38:35.405154 25394 net.cpp:425] inception_4e/relu_5x5 <- inception_4e/5x5
I0403 19:38:35.405174 25394 net.cpp:386] inception_4e/relu_5x5 -> inception_4e/5x5 (in-place)
I0403 19:38:35.405369 25394 net.cpp:141] Setting up inception_4e/relu_5x5
I0403 19:38:35.405400 25394 net.cpp:148] Top shape: 24 128 14 14 (602112)
I0403 19:38:35.405418 25394 net.cpp:156] Memory required for data: 1242150432
I0403 19:38:35.405432 25394 layer_factory.hpp:77] Creating layer inception_4e/pool
I0403 19:38:35.405452 25394 net.cpp:91] Creating Layer inception_4e/pool
I0403 19:38:35.405468 25394 net.cpp:425] inception_4e/pool <- inception_4d/output_inception_4d/output_0_split_4
I0403 19:38:35.405488 25394 net.cpp:399] inception_4e/pool -> inception_4e/pool
I0403 19:38:35.405561 25394 net.cpp:141] Setting up inception_4e/pool
I0403 19:38:35.405588 25394 net.cpp:148] Top shape: 24 528 14 14 (2483712)
I0403 19:38:35.405606 25394 net.cpp:156] Memory required for data: 1252085280
I0403 19:38:35.405619 25394 layer_factory.hpp:77] Creating layer inception_4e/pool_proj
I0403 19:38:35.405642 25394 net.cpp:91] Creating Layer inception_4e/pool_proj
I0403 19:38:35.405660 25394 net.cpp:425] inception_4e/pool_proj <- inception_4e/pool
I0403 19:38:35.405683 25394 net.cpp:399] inception_4e/pool_proj -> inception_4e/pool_proj
I0403 19:38:35.407106 25394 net.cpp:141] Setting up inception_4e/pool_proj
I0403 19:38:35.407146 25394 net.cpp:148] Top shape: 24 128 14 14 (602112)
I0403 19:38:35.407166 25394 net.cpp:156] Memory required for data: 1254493728
I0403 19:38:35.407184 25394 layer_factory.hpp:77] Creating layer inception_4e/relu_pool_proj
I0403 19:38:35.407203 25394 net.cpp:91] Creating Layer inception_4e/relu_pool_proj
I0403 19:38:35.407222 25394 net.cpp:425] inception_4e/relu_pool_proj <- inception_4e/pool_proj
I0403 19:38:35.407243 25394 net.cpp:386] inception_4e/relu_pool_proj -> inception_4e/pool_proj (in-place)
I0403 19:38:35.407531 25394 net.cpp:141] Setting up inception_4e/relu_pool_proj
I0403 19:38:35.407562 25394 net.cpp:148] Top shape: 24 128 14 14 (602112)
I0403 19:38:35.407578 25394 net.cpp:156] Memory required for data: 1256902176
I0403 19:38:35.407595 25394 layer_factory.hpp:77] Creating layer inception_4e/output
I0403 19:38:35.407614 25394 net.cpp:91] Creating Layer inception_4e/output
I0403 19:38:35.407632 25394 net.cpp:425] inception_4e/output <- inception_4e/1x1
I0403 19:38:35.407649 25394 net.cpp:425] inception_4e/output <- inception_4e/3x3
I0403 19:38:35.407666 25394 net.cpp:425] inception_4e/output <- inception_4e/5x5
I0403 19:38:35.407683 25394 net.cpp:425] inception_4e/output <- inception_4e/pool_proj
I0403 19:38:35.407703 25394 net.cpp:399] inception_4e/output -> inception_4e/output
I0403 19:38:35.407755 25394 net.cpp:141] Setting up inception_4e/output
I0403 19:38:35.407788 25394 net.cpp:148] Top shape: 24 832 14 14 (3913728)
I0403 19:38:35.407806 25394 net.cpp:156] Memory required for data: 1272557088
I0403 19:38:35.407824 25394 layer_factory.hpp:77] Creating layer pool4/3x3_s2
I0403 19:38:35.407843 25394 net.cpp:91] Creating Layer pool4/3x3_s2
I0403 19:38:35.407860 25394 net.cpp:425] pool4/3x3_s2 <- inception_4e/output
I0403 19:38:35.407881 25394 net.cpp:399] pool4/3x3_s2 -> pool4/3x3_s2
I0403 19:38:35.407949 25394 net.cpp:141] Setting up pool4/3x3_s2
I0403 19:38:35.407977 25394 net.cpp:148] Top shape: 24 832 7 7 (978432)
I0403 19:38:35.407994 25394 net.cpp:156] Memory required for data: 1276470816
I0403 19:38:35.408010 25394 layer_factory.hpp:77] Creating layer pool4/3x3_s2_pool4/3x3_s2_0_split
I0403 19:38:35.408030 25394 net.cpp:91] Creating Layer pool4/3x3_s2_pool4/3x3_s2_0_split
I0403 19:38:35.408047 25394 net.cpp:425] pool4/3x3_s2_pool4/3x3_s2_0_split <- pool4/3x3_s2
I0403 19:38:35.408066 25394 net.cpp:399] pool4/3x3_s2_pool4/3x3_s2_0_split -> pool4/3x3_s2_pool4/3x3_s2_0_split_0
I0403 19:38:35.408087 25394 net.cpp:399] pool4/3x3_s2_pool4/3x3_s2_0_split -> pool4/3x3_s2_pool4/3x3_s2_0_split_1
I0403 19:38:35.408112 25394 net.cpp:399] pool4/3x3_s2_pool4/3x3_s2_0_split -> pool4/3x3_s2_pool4/3x3_s2_0_split_2
I0403 19:38:35.408133 25394 net.cpp:399] pool4/3x3_s2_pool4/3x3_s2_0_split -> pool4/3x3_s2_pool4/3x3_s2_0_split_3
I0403 19:38:35.408221 25394 net.cpp:141] Setting up pool4/3x3_s2_pool4/3x3_s2_0_split
I0403 19:38:35.408248 25394 net.cpp:148] Top shape: 24 832 7 7 (978432)
I0403 19:38:35.408268 25394 net.cpp:148] Top shape: 24 832 7 7 (978432)
I0403 19:38:35.408289 25394 net.cpp:148] Top shape: 24 832 7 7 (978432)
I0403 19:38:35.408309 25394 net.cpp:148] Top shape: 24 832 7 7 (978432)
I0403 19:38:35.408324 25394 net.cpp:156] Memory required for data: 1292125728
I0403 19:38:35.408337 25394 layer_factory.hpp:77] Creating layer inception_5a/1x1
I0403 19:38:35.408360 25394 net.cpp:91] Creating Layer inception_5a/1x1
I0403 19:38:35.408380 25394 net.cpp:425] inception_5a/1x1 <- pool4/3x3_s2_pool4/3x3_s2_0_split_0
I0403 19:38:35.408404 25394 net.cpp:399] inception_5a/1x1 -> inception_5a/1x1
I0403 19:38:35.411128 25394 net.cpp:141] Setting up inception_5a/1x1
I0403 19:38:35.411160 25394 net.cpp:148] Top shape: 24 256 7 7 (301056)
I0403 19:38:35.411178 25394 net.cpp:156] Memory required for data: 1293329952
I0403 19:38:35.411197 25394 layer_factory.hpp:77] Creating layer inception_5a/relu_1x1
I0403 19:38:35.411219 25394 net.cpp:91] Creating Layer inception_5a/relu_1x1
I0403 19:38:35.411239 25394 net.cpp:425] inception_5a/relu_1x1 <- inception_5a/1x1
I0403 19:38:35.411260 25394 net.cpp:386] inception_5a/relu_1x1 -> inception_5a/1x1 (in-place)
I0403 19:38:35.411566 25394 net.cpp:141] Setting up inception_5a/relu_1x1
I0403 19:38:35.411595 25394 net.cpp:148] Top shape: 24 256 7 7 (301056)
I0403 19:38:35.411612 25394 net.cpp:156] Memory required for data: 1294534176
I0403 19:38:35.411628 25394 layer_factory.hpp:77] Creating layer inception_5a/3x3_reduce
I0403 19:38:35.411654 25394 net.cpp:91] Creating Layer inception_5a/3x3_reduce
I0403 19:38:35.411674 25394 net.cpp:425] inception_5a/3x3_reduce <- pool4/3x3_s2_pool4/3x3_s2_0_split_1
I0403 19:38:35.411697 25394 net.cpp:399] inception_5a/3x3_reduce -> inception_5a/3x3_reduce
I0403 19:38:35.414062 25394 net.cpp:141] Setting up inception_5a/3x3_reduce
I0403 19:38:35.414094 25394 net.cpp:148] Top shape: 24 160 7 7 (188160)
I0403 19:38:35.414113 25394 net.cpp:156] Memory required for data: 1295286816
I0403 19:38:35.414131 25394 layer_factory.hpp:77] Creating layer inception_5a/relu_3x3_reduce
I0403 19:38:35.414154 25394 net.cpp:91] Creating Layer inception_5a/relu_3x3_reduce
I0403 19:38:35.414173 25394 net.cpp:425] inception_5a/relu_3x3_reduce <- inception_5a/3x3_reduce
I0403 19:38:35.414194 25394 net.cpp:386] inception_5a/relu_3x3_reduce -> inception_5a/3x3_reduce (in-place)
I0403 19:38:35.414404 25394 net.cpp:141] Setting up inception_5a/relu_3x3_reduce
I0403 19:38:35.414434 25394 net.cpp:148] Top shape: 24 160 7 7 (188160)
I0403 19:38:35.414450 25394 net.cpp:156] Memory required for data: 1296039456
I0403 19:38:35.414466 25394 layer_factory.hpp:77] Creating layer inception_5a/3x3
I0403 19:38:35.414489 25394 net.cpp:91] Creating Layer inception_5a/3x3
I0403 19:38:35.414510 25394 net.cpp:425] inception_5a/3x3 <- inception_5a/3x3_reduce
I0403 19:38:35.414533 25394 net.cpp:399] inception_5a/3x3 -> inception_5a/3x3
I0403 19:38:35.419412 25394 net.cpp:141] Setting up inception_5a/3x3
I0403 19:38:35.419445 25394 net.cpp:148] Top shape: 24 320 7 7 (376320)
I0403 19:38:35.419462 25394 net.cpp:156] Memory required for data: 1297544736
I0403 19:38:35.419483 25394 layer_factory.hpp:77] Creating layer inception_5a/relu_3x3
I0403 19:38:35.419505 25394 net.cpp:91] Creating Layer inception_5a/relu_3x3
I0403 19:38:35.419525 25394 net.cpp:425] inception_5a/relu_3x3 <- inception_5a/3x3
I0403 19:38:35.419544 25394 net.cpp:386] inception_5a/relu_3x3 -> inception_5a/3x3 (in-place)
I0403 19:38:35.419824 25394 net.cpp:141] Setting up inception_5a/relu_3x3
I0403 19:38:35.419854 25394 net.cpp:148] Top shape: 24 320 7 7 (376320)
I0403 19:38:35.419872 25394 net.cpp:156] Memory required for data: 1299050016
I0403 19:38:35.419888 25394 layer_factory.hpp:77] Creating layer inception_5a/5x5_reduce
I0403 19:38:35.419914 25394 net.cpp:91] Creating Layer inception_5a/5x5_reduce
I0403 19:38:35.419934 25394 net.cpp:425] inception_5a/5x5_reduce <- pool4/3x3_s2_pool4/3x3_s2_0_split_2
I0403 19:38:35.419956 25394 net.cpp:399] inception_5a/5x5_reduce -> inception_5a/5x5_reduce
I0403 19:38:35.421073 25394 net.cpp:141] Setting up inception_5a/5x5_reduce
I0403 19:38:35.421106 25394 net.cpp:148] Top shape: 24 32 7 7 (37632)
I0403 19:38:35.421128 25394 net.cpp:156] Memory required for data: 1299200544
I0403 19:38:35.421146 25394 layer_factory.hpp:77] Creating layer inception_5a/relu_5x5_reduce
I0403 19:38:35.421165 25394 net.cpp:91] Creating Layer inception_5a/relu_5x5_reduce
I0403 19:38:35.421183 25394 net.cpp:425] inception_5a/relu_5x5_reduce <- inception_5a/5x5_reduce
I0403 19:38:35.421202 25394 net.cpp:386] inception_5a/relu_5x5_reduce -> inception_5a/5x5_reduce (in-place)
I0403 19:38:35.421511 25394 net.cpp:141] Setting up inception_5a/relu_5x5_reduce
I0403 19:38:35.421542 25394 net.cpp:148] Top shape: 24 32 7 7 (37632)
I0403 19:38:35.421563 25394 net.cpp:156] Memory required for data: 1299351072
I0403 19:38:35.421581 25394 layer_factory.hpp:77] Creating layer inception_5a/5x5
I0403 19:38:35.421602 25394 net.cpp:91] Creating Layer inception_5a/5x5
I0403 19:38:35.421620 25394 net.cpp:425] inception_5a/5x5 <- inception_5a/5x5_reduce
I0403 19:38:35.421644 25394 net.cpp:399] inception_5a/5x5 -> inception_5a/5x5
I0403 19:38:35.423297 25394 net.cpp:141] Setting up inception_5a/5x5
I0403 19:38:35.423337 25394 net.cpp:148] Top shape: 24 128 7 7 (150528)
I0403 19:38:35.423357 25394 net.cpp:156] Memory required for data: 1299953184
I0403 19:38:35.423377 25394 layer_factory.hpp:77] Creating layer inception_5a/relu_5x5
I0403 19:38:35.423398 25394 net.cpp:91] Creating Layer inception_5a/relu_5x5
I0403 19:38:35.423418 25394 net.cpp:425] inception_5a/relu_5x5 <- inception_5a/5x5
I0403 19:38:35.423439 25394 net.cpp:386] inception_5a/relu_5x5 -> inception_5a/5x5 (in-place)
I0403 19:38:35.423622 25394 net.cpp:141] Setting up inception_5a/relu_5x5
I0403 19:38:35.423650 25394 net.cpp:148] Top shape: 24 128 7 7 (150528)
I0403 19:38:35.423668 25394 net.cpp:156] Memory required for data: 1300555296
I0403 19:38:35.423684 25394 layer_factory.hpp:77] Creating layer inception_5a/pool
I0403 19:38:35.423704 25394 net.cpp:91] Creating Layer inception_5a/pool
I0403 19:38:35.423722 25394 net.cpp:425] inception_5a/pool <- pool4/3x3_s2_pool4/3x3_s2_0_split_3
I0403 19:38:35.423743 25394 net.cpp:399] inception_5a/pool -> inception_5a/pool
I0403 19:38:35.423815 25394 net.cpp:141] Setting up inception_5a/pool
I0403 19:38:35.423842 25394 net.cpp:148] Top shape: 24 832 7 7 (978432)
I0403 19:38:35.423859 25394 net.cpp:156] Memory required for data: 1304469024
I0403 19:38:35.423876 25394 layer_factory.hpp:77] Creating layer inception_5a/pool_proj
I0403 19:38:35.423899 25394 net.cpp:91] Creating Layer inception_5a/pool_proj
I0403 19:38:35.423921 25394 net.cpp:425] inception_5a/pool_proj <- inception_5a/pool
I0403 19:38:35.423943 25394 net.cpp:399] inception_5a/pool_proj -> inception_5a/pool_proj
I0403 19:38:35.426134 25394 net.cpp:141] Setting up inception_5a/pool_proj
I0403 19:38:35.426167 25394 net.cpp:148] Top shape: 24 128 7 7 (150528)
I0403 19:38:35.426183 25394 net.cpp:156] Memory required for data: 1305071136
I0403 19:38:35.426203 25394 layer_factory.hpp:77] Creating layer inception_5a/relu_pool_proj
I0403 19:38:35.426228 25394 net.cpp:91] Creating Layer inception_5a/relu_pool_proj
I0403 19:38:35.426249 25394 net.cpp:425] inception_5a/relu_pool_proj <- inception_5a/pool_proj
I0403 19:38:35.426266 25394 net.cpp:386] inception_5a/relu_pool_proj -> inception_5a/pool_proj (in-place)
I0403 19:38:35.426551 25394 net.cpp:141] Setting up inception_5a/relu_pool_proj
I0403 19:38:35.426580 25394 net.cpp:148] Top shape: 24 128 7 7 (150528)
I0403 19:38:35.426597 25394 net.cpp:156] Memory required for data: 1305673248
I0403 19:38:35.426614 25394 layer_factory.hpp:77] Creating layer inception_5a/output
I0403 19:38:35.426633 25394 net.cpp:91] Creating Layer inception_5a/output
I0403 19:38:35.426651 25394 net.cpp:425] inception_5a/output <- inception_5a/1x1
I0403 19:38:35.426668 25394 net.cpp:425] inception_5a/output <- inception_5a/3x3
I0403 19:38:35.426686 25394 net.cpp:425] inception_5a/output <- inception_5a/5x5
I0403 19:38:35.426703 25394 net.cpp:425] inception_5a/output <- inception_5a/pool_proj
I0403 19:38:35.426724 25394 net.cpp:399] inception_5a/output -> inception_5a/output
I0403 19:38:35.426776 25394 net.cpp:141] Setting up inception_5a/output
I0403 19:38:35.426808 25394 net.cpp:148] Top shape: 24 832 7 7 (978432)
I0403 19:38:35.426827 25394 net.cpp:156] Memory required for data: 1309586976
I0403 19:38:35.426842 25394 layer_factory.hpp:77] Creating layer inception_5a/output_inception_5a/output_0_split
I0403 19:38:35.426859 25394 net.cpp:91] Creating Layer inception_5a/output_inception_5a/output_0_split
I0403 19:38:35.426877 25394 net.cpp:425] inception_5a/output_inception_5a/output_0_split <- inception_5a/output
I0403 19:38:35.426900 25394 net.cpp:399] inception_5a/output_inception_5a/output_0_split -> inception_5a/output_inception_5a/output_0_split_0
I0403 19:38:35.426923 25394 net.cpp:399] inception_5a/output_inception_5a/output_0_split -> inception_5a/output_inception_5a/output_0_split_1
I0403 19:38:35.426944 25394 net.cpp:399] inception_5a/output_inception_5a/output_0_split -> inception_5a/output_inception_5a/output_0_split_2
I0403 19:38:35.426965 25394 net.cpp:399] inception_5a/output_inception_5a/output_0_split -> inception_5a/output_inception_5a/output_0_split_3
I0403 19:38:35.427073 25394 net.cpp:141] Setting up inception_5a/output_inception_5a/output_0_split
I0403 19:38:35.427103 25394 net.cpp:148] Top shape: 24 832 7 7 (978432)
I0403 19:38:35.427121 25394 net.cpp:148] Top shape: 24 832 7 7 (978432)
I0403 19:38:35.427139 25394 net.cpp:148] Top shape: 24 832 7 7 (978432)
I0403 19:38:35.427155 25394 net.cpp:148] Top shape: 24 832 7 7 (978432)
I0403 19:38:35.427170 25394 net.cpp:156] Memory required for data: 1325241888
I0403 19:38:35.427184 25394 layer_factory.hpp:77] Creating layer inception_5b/1x1
I0403 19:38:35.427208 25394 net.cpp:91] Creating Layer inception_5b/1x1
I0403 19:38:35.427229 25394 net.cpp:425] inception_5b/1x1 <- inception_5a/output_inception_5a/output_0_split_0
I0403 19:38:35.427253 25394 net.cpp:399] inception_5b/1x1 -> inception_5b/1x1
I0403 19:38:35.430850 25394 net.cpp:141] Setting up inception_5b/1x1
I0403 19:38:35.430884 25394 net.cpp:148] Top shape: 24 384 7 7 (451584)
I0403 19:38:35.430902 25394 net.cpp:156] Memory required for data: 1327048224
I0403 19:38:35.430922 25394 layer_factory.hpp:77] Creating layer inception_5b/relu_1x1
I0403 19:38:35.430943 25394 net.cpp:91] Creating Layer inception_5b/relu_1x1
I0403 19:38:35.430959 25394 net.cpp:425] inception_5b/relu_1x1 <- inception_5b/1x1
I0403 19:38:35.430980 25394 net.cpp:386] inception_5b/relu_1x1 -> inception_5b/1x1 (in-place)
I0403 19:38:35.431282 25394 net.cpp:141] Setting up inception_5b/relu_1x1
I0403 19:38:35.431314 25394 net.cpp:148] Top shape: 24 384 7 7 (451584)
I0403 19:38:35.431331 25394 net.cpp:156] Memory required for data: 1328854560
I0403 19:38:35.431349 25394 layer_factory.hpp:77] Creating layer inception_5b/3x3_reduce
I0403 19:38:35.431373 25394 net.cpp:91] Creating Layer inception_5b/3x3_reduce
I0403 19:38:35.431392 25394 net.cpp:425] inception_5b/3x3_reduce <- inception_5a/output_inception_5a/output_0_split_1
I0403 19:38:35.431416 25394 net.cpp:399] inception_5b/3x3_reduce -> inception_5b/3x3_reduce
I0403 19:38:35.433966 25394 net.cpp:141] Setting up inception_5b/3x3_reduce
I0403 19:38:35.433998 25394 net.cpp:148] Top shape: 24 192 7 7 (225792)
I0403 19:38:35.434016 25394 net.cpp:156] Memory required for data: 1329757728
I0403 19:38:35.434038 25394 layer_factory.hpp:77] Creating layer inception_5b/relu_3x3_reduce
I0403 19:38:35.434059 25394 net.cpp:91] Creating Layer inception_5b/relu_3x3_reduce
I0403 19:38:35.434080 25394 net.cpp:425] inception_5b/relu_3x3_reduce <- inception_5b/3x3_reduce
I0403 19:38:35.434099 25394 net.cpp:386] inception_5b/relu_3x3_reduce -> inception_5b/3x3_reduce (in-place)
I0403 19:38:35.434298 25394 net.cpp:141] Setting up inception_5b/relu_3x3_reduce
I0403 19:38:35.434337 25394 net.cpp:148] Top shape: 24 192 7 7 (225792)
I0403 19:38:35.434355 25394 net.cpp:156] Memory required for data: 1330660896
I0403 19:38:35.434383 25394 layer_factory.hpp:77] Creating layer inception_5b/3x3
I0403 19:38:35.434406 25394 net.cpp:91] Creating Layer inception_5b/3x3
I0403 19:38:35.434427 25394 net.cpp:425] inception_5b/3x3 <- inception_5b/3x3_reduce
I0403 19:38:35.434450 25394 net.cpp:399] inception_5b/3x3 -> inception_5b/3x3
I0403 19:38:35.441114 25394 net.cpp:141] Setting up inception_5b/3x3
I0403 19:38:35.441148 25394 net.cpp:148] Top shape: 24 384 7 7 (451584)
I0403 19:38:35.441169 25394 net.cpp:156] Memory required for data: 1332467232
I0403 19:38:35.441187 25394 layer_factory.hpp:77] Creating layer inception_5b/relu_3x3
I0403 19:38:35.441210 25394 net.cpp:91] Creating Layer inception_5b/relu_3x3
I0403 19:38:35.441228 25394 net.cpp:425] inception_5b/relu_3x3 <- inception_5b/3x3
I0403 19:38:35.441247 25394 net.cpp:386] inception_5b/relu_3x3 -> inception_5b/3x3 (in-place)
I0403 19:38:35.441547 25394 net.cpp:141] Setting up inception_5b/relu_3x3
I0403 19:38:35.441577 25394 net.cpp:148] Top shape: 24 384 7 7 (451584)
I0403 19:38:35.441594 25394 net.cpp:156] Memory required for data: 1334273568
I0403 19:38:35.441612 25394 layer_factory.hpp:77] Creating layer inception_5b/5x5_reduce
I0403 19:38:35.441651 25394 net.cpp:91] Creating Layer inception_5b/5x5_reduce
I0403 19:38:35.441675 25394 net.cpp:425] inception_5b/5x5_reduce <- inception_5a/output_inception_5a/output_0_split_2
I0403 19:38:35.441699 25394 net.cpp:399] inception_5b/5x5_reduce -> inception_5b/5x5_reduce
I0403 19:38:35.442981 25394 net.cpp:141] Setting up inception_5b/5x5_reduce
I0403 19:38:35.443012 25394 net.cpp:148] Top shape: 24 48 7 7 (56448)
I0403 19:38:35.443032 25394 net.cpp:156] Memory required for data: 1334499360
I0403 19:38:35.443051 25394 layer_factory.hpp:77] Creating layer inception_5b/relu_5x5_reduce
I0403 19:38:35.443070 25394 net.cpp:91] Creating Layer inception_5b/relu_5x5_reduce
I0403 19:38:35.443090 25394 net.cpp:425] inception_5b/relu_5x5_reduce <- inception_5b/5x5_reduce
I0403 19:38:35.443114 25394 net.cpp:386] inception_5b/relu_5x5_reduce -> inception_5b/5x5_reduce (in-place)
I0403 19:38:35.443487 25394 net.cpp:141] Setting up inception_5b/relu_5x5_reduce
I0403 19:38:35.443516 25394 net.cpp:148] Top shape: 24 48 7 7 (56448)
I0403 19:38:35.443533 25394 net.cpp:156] Memory required for data: 1334725152
I0403 19:38:35.443550 25394 layer_factory.hpp:77] Creating layer inception_5b/5x5
I0403 19:38:35.443573 25394 net.cpp:91] Creating Layer inception_5b/5x5
I0403 19:38:35.443594 25394 net.cpp:425] inception_5b/5x5 <- inception_5b/5x5_reduce
I0403 19:38:35.443615 25394 net.cpp:399] inception_5b/5x5 -> inception_5b/5x5
I0403 19:38:35.445639 25394 net.cpp:141] Setting up inception_5b/5x5
I0403 19:38:35.445670 25394 net.cpp:148] Top shape: 24 128 7 7 (150528)
I0403 19:38:35.445689 25394 net.cpp:156] Memory required for data: 1335327264
I0403 19:38:35.445709 25394 layer_factory.hpp:77] Creating layer inception_5b/relu_5x5
I0403 19:38:35.445732 25394 net.cpp:91] Creating Layer inception_5b/relu_5x5
I0403 19:38:35.445754 25394 net.cpp:425] inception_5b/relu_5x5 <- inception_5b/5x5
I0403 19:38:35.445772 25394 net.cpp:386] inception_5b/relu_5x5 -> inception_5b/5x5 (in-place)
I0403 19:38:35.445965 25394 net.cpp:141] Setting up inception_5b/relu_5x5
I0403 19:38:35.445994 25394 net.cpp:148] Top shape: 24 128 7 7 (150528)
I0403 19:38:35.446014 25394 net.cpp:156] Memory required for data: 1335929376
I0403 19:38:35.446030 25394 layer_factory.hpp:77] Creating layer inception_5b/pool
I0403 19:38:35.446050 25394 net.cpp:91] Creating Layer inception_5b/pool
I0403 19:38:35.446069 25394 net.cpp:425] inception_5b/pool <- inception_5a/output_inception_5a/output_0_split_3
I0403 19:38:35.446090 25394 net.cpp:399] inception_5b/pool -> inception_5b/pool
I0403 19:38:35.446164 25394 net.cpp:141] Setting up inception_5b/pool
I0403 19:38:35.446193 25394 net.cpp:148] Top shape: 24 832 7 7 (978432)
I0403 19:38:35.446213 25394 net.cpp:156] Memory required for data: 1339843104
I0403 19:38:35.446228 25394 layer_factory.hpp:77] Creating layer inception_5b/pool_proj
I0403 19:38:35.446252 25394 net.cpp:91] Creating Layer inception_5b/pool_proj
I0403 19:38:35.446271 25394 net.cpp:425] inception_5b/pool_proj <- inception_5b/pool
I0403 19:38:35.446300 25394 net.cpp:399] inception_5b/pool_proj -> inception_5b/pool_proj
I0403 19:38:35.448618 25394 net.cpp:141] Setting up inception_5b/pool_proj
I0403 19:38:35.448652 25394 net.cpp:148] Top shape: 24 128 7 7 (150528)
I0403 19:38:35.448670 25394 net.cpp:156] Memory required for data: 1340445216
I0403 19:38:35.448690 25394 layer_factory.hpp:77] Creating layer inception_5b/relu_pool_proj
I0403 19:38:35.448714 25394 net.cpp:91] Creating Layer inception_5b/relu_pool_proj
I0403 19:38:35.448734 25394 net.cpp:425] inception_5b/relu_pool_proj <- inception_5b/pool_proj
I0403 19:38:35.448752 25394 net.cpp:386] inception_5b/relu_pool_proj -> inception_5b/pool_proj (in-place)
I0403 19:38:35.449045 25394 net.cpp:141] Setting up inception_5b/relu_pool_proj
I0403 19:38:35.449079 25394 net.cpp:148] Top shape: 24 128 7 7 (150528)
I0403 19:38:35.449096 25394 net.cpp:156] Memory required for data: 1341047328
I0403 19:38:35.449113 25394 layer_factory.hpp:77] Creating layer inception_5b/output
I0403 19:38:35.449131 25394 net.cpp:91] Creating Layer inception_5b/output
I0403 19:38:35.449165 25394 net.cpp:425] inception_5b/output <- inception_5b/1x1
I0403 19:38:35.449184 25394 net.cpp:425] inception_5b/output <- inception_5b/3x3
I0403 19:38:35.449203 25394 net.cpp:425] inception_5b/output <- inception_5b/5x5
I0403 19:38:35.449221 25394 net.cpp:425] inception_5b/output <- inception_5b/pool_proj
I0403 19:38:35.449244 25394 net.cpp:399] inception_5b/output -> inception_5b/output
I0403 19:38:35.449300 25394 net.cpp:141] Setting up inception_5b/output
I0403 19:38:35.449333 25394 net.cpp:148] Top shape: 24 1024 7 7 (1204224)
I0403 19:38:35.449349 25394 net.cpp:156] Memory required for data: 1345864224
I0403 19:38:35.449367 25394 layer_factory.hpp:77] Creating layer pool5/7x7_s1
I0403 19:38:35.449386 25394 net.cpp:91] Creating Layer pool5/7x7_s1
I0403 19:38:35.449403 25394 net.cpp:425] pool5/7x7_s1 <- inception_5b/output
I0403 19:38:35.449424 25394 net.cpp:399] pool5/7x7_s1 -> pool5/7x7_s1
I0403 19:38:35.449642 25394 net.cpp:141] Setting up pool5/7x7_s1
I0403 19:38:35.449672 25394 net.cpp:148] Top shape: 24 1024 1 1 (24576)
I0403 19:38:35.449689 25394 net.cpp:156] Memory required for data: 1345962528
I0403 19:38:35.449707 25394 layer_factory.hpp:77] Creating layer pool5/drop_7x7_s1
I0403 19:38:35.449726 25394 net.cpp:91] Creating Layer pool5/drop_7x7_s1
I0403 19:38:35.449743 25394 net.cpp:425] pool5/drop_7x7_s1 <- pool5/7x7_s1
I0403 19:38:35.449764 25394 net.cpp:386] pool5/drop_7x7_s1 -> pool5/7x7_s1 (in-place)
I0403 19:38:35.449820 25394 net.cpp:141] Setting up pool5/drop_7x7_s1
I0403 19:38:35.449847 25394 net.cpp:148] Top shape: 24 1024 1 1 (24576)
I0403 19:38:35.449865 25394 net.cpp:156] Memory required for data: 1346060832
I0403 19:38:35.449882 25394 layer_factory.hpp:77] Creating layer loss3/classifier_plantvillage
I0403 19:38:35.449901 25394 net.cpp:91] Creating Layer loss3/classifier_plantvillage
I0403 19:38:35.449918 25394 net.cpp:425] loss3/classifier_plantvillage <- pool5/7x7_s1
I0403 19:38:35.449939 25394 net.cpp:399] loss3/classifier_plantvillage -> loss3/classifier_plantvillage
I0403 19:38:35.450386 25394 net.cpp:141] Setting up loss3/classifier_plantvillage
I0403 19:38:35.450417 25394 net.cpp:148] Top shape: 24 38 (912)
I0403 19:38:35.450433 25394 net.cpp:156] Memory required for data: 1346064480
I0403 19:38:35.450455 25394 layer_factory.hpp:77] Creating layer loss3/classifier_plantvillage_loss3/classifier_plantvillage_0_split
I0403 19:38:35.450479 25394 net.cpp:91] Creating Layer loss3/classifier_plantvillage_loss3/classifier_plantvillage_0_split
I0403 19:38:35.450500 25394 net.cpp:425] loss3/classifier_plantvillage_loss3/classifier_plantvillage_0_split <- loss3/classifier_plantvillage
I0403 19:38:35.450521 25394 net.cpp:399] loss3/classifier_plantvillage_loss3/classifier_plantvillage_0_split -> loss3/classifier_plantvillage_loss3/classifier_plantvillage_0_split_0
I0403 19:38:35.450547 25394 net.cpp:399] loss3/classifier_plantvillage_loss3/classifier_plantvillage_0_split -> loss3/classifier_plantvillage_loss3/classifier_plantvillage_0_split_1
I0403 19:38:35.450572 25394 net.cpp:399] loss3/classifier_plantvillage_loss3/classifier_plantvillage_0_split -> loss3/classifier_plantvillage_loss3/classifier_plantvillage_0_split_2
I0403 19:38:35.450594 25394 net.cpp:399] loss3/classifier_plantvillage_loss3/classifier_plantvillage_0_split -> loss3/classifier_plantvillage_loss3/classifier_plantvillage_0_split_3
I0403 19:38:35.450708 25394 net.cpp:141] Setting up loss3/classifier_plantvillage_loss3/classifier_plantvillage_0_split
I0403 19:38:35.450736 25394 net.cpp:148] Top shape: 24 38 (912)
I0403 19:38:35.450753 25394 net.cpp:148] Top shape: 24 38 (912)
I0403 19:38:35.450769 25394 net.cpp:148] Top shape: 24 38 (912)
I0403 19:38:35.450786 25394 net.cpp:148] Top shape: 24 38 (912)
I0403 19:38:35.450801 25394 net.cpp:156] Memory required for data: 1346079072
I0403 19:38:35.450817 25394 layer_factory.hpp:77] Creating layer loss1/loss
I0403 19:38:35.450842 25394 net.cpp:91] Creating Layer loss1/loss
I0403 19:38:35.450861 25394 net.cpp:425] loss1/loss <- loss1/classifier_plantvillage_loss1/classifier_plantvillage_0_split_0
I0403 19:38:35.450896 25394 net.cpp:425] loss1/loss <- label_data_1_split_0
…
