…
I0403 19:27:45.574687 24791 net.cpp:313] The NetState phase (1) differed from the phase (0) specified by a rule in layer data
I0403 19:27:45.575969 24791 net.cpp:49] Initializing net from parameters: 
state {
  phase: TEST
}
layer {
  name: "data"
  type: "Data"
  top: "data"
  top: "label"
  include {
    phase: TEST
  }
  transform_param {
    mirror: false
    crop_size: 224
    mean_file: "/home/mohanty/data/final_dataset/lmdb/grayscale-80-20/mean.binaryproto"
  }
  data_param {
    source: "/home/mohanty/data/final_dataset/lmdb/grayscale-80-20/test_db"
    batch_size: 24
    backend: LMDB
  }
}
layer {
  name: "conv1/7x7_s2"
  type: "Convolution"
  bottom: "data"
  top: "conv1/7x7_s2"
  param {
    lr_mult: 1
    decay_mult: 1
  }
  param {
    lr_mult: 2
    decay_mult: 0
  }
  convolution_param {
    num_output: 64
    pad: 3
    kernel_size: 7
    stride: 2
    weight_filler {
      type: "xavier"
      std: 0.1
    }
    bias_filler {
      type: "constant"
      value: 0.2
    }
  }
}
layer {
  name: "conv1/relu_7x7"
  type: "ReLU"
  bottom: "conv1/7x7_s2"
  top: "conv1/7x7_s2"
}
layer {
  name: "pool1/3x3_s2"
  type: "Pooling"
  bottom: "conv1/7x7_s2"
  top: "pool1/3x3_s2"
  pooling_param {
    pool: MAX
    kernel_size: 3
    stride: 2
  }
}
layer {
  name: "pool1/norm1"
  type: "LRN"
  bottom: "pool1/3x3_s2"
  top: "pool1/norm1"
  lrn_param {
    local_size: 5
    alpha: 0.0001
    beta: 0.75
  }
}
layer {
  name: "conv2/3x3_reduce"
  type: "Convolution"
  bottom: "pool1/norm1"
  top: "conv2/3x3_reduce"
  param {
    lr_mult: 1
    decay_mult: 1
  }
  param {
    lr_mult: 2
    decay_mult: 0
  }
  convolution_param {
    num_output: 64
    kernel_size: 1
    weight_filler {
      type: "xavier"
      std: 0.1
    }
    bias_filler {
      type: "constant"
      value: 0.2
    }
  }
}
layer {
  name: "conv2/relu_3x3_reduce"
  type: "ReLU"
  bottom: "conv2/3x3_reduce"
  top: "conv2/3x3_reduce"
}
layer {
  name: "conv2/3x3"
  type: "Convolution"
  bottom: "conv2/3x3_reduce"
  top: "conv2/3x3"
  param {
    lr_mult: 1
    decay_mult: 1
  }
  param {
    lr_mult: 2
    decay_mult: 0
  }
  convolution_param {
    num_output: 192
    pad: 1
    kernel_size: 3
    weight_filler {
      type: "xavier"
      std: 0.03
    }
    bias_filler {
      type: "constant"
      value: 0.2
    }
  }
}
layer {
  name: "conv2/relu_3x3"
  type: "ReLU"
  bottom: "conv2/3x3"
  top: "conv2/3x3"
}
layer {
  name: "conv2/norm2"
  type: "LRN"
  bottom: "conv2/3x3"
  top: "conv2/norm2"
  lrn_param {
    local_size: 5
    alpha: 0.0001
    beta: 0.75
  }
}
layer {
  name: "pool2/3x3_s2"
  type: "Pooling"
  bottom: "conv2/norm2"
  top: "pool2/3x3_s2"
  pooling_param {
    pool: MAX
    kernel_size: 3
    stride: 2
  }
}
layer {
  name: "inception_3a/1x1"
  type: "Convolution"
  bottom: "pool2/3x3_s2"
  top: "inception_3a/1x1"
  param {
    lr_mult: 1
    decay_mult: 1
  }
  param {
    lr_mult: 2
    decay_mult: 0
  }
  convolution_param {
    num_output: 64
    kernel_size: 1
    weight_filler {
      type: "xavier"
      std: 0.03
    }
    bias_filler {
      type: "constant"
      value: 0.2
    }
  }
}
layer {
  name: "inception_3a/relu_1x1"
  type: "ReLU"
  bottom: "inception_3a/1x1"
  top: "inception_3a/1x1"
}
layer {
  name: "inception_3a/3x3_reduce"
  type: "Convolution"
  bottom: "pool2/3x3_s2"
  top: "inception_3a/3x3_reduce"
  param {
    lr_mult: 1
    decay_mult: 1
  }
  param {
    lr_mult: 2
    decay_mult: 0
  }
  convolution_param {
    num_output: 96
    kernel_size: 1
    weight_filler {
      type: "xavier"
      std: 0.09
    }
    bias_filler {
      type: "constant"
      value: 0.2
    }
  }
}
layer {
  name: "inception_3a/relu_3x3_reduce"
  type: "ReLU"
  bottom: "inception_3a/3x3_reduce"
  top: "inception_3a/3x3_reduce"
}
layer {
  name: "inception_3a/3x3"
  type: "Convolution"
  bottom: "inception_3a/3x3_reduce"
  top: "inception_3a/3x3"
  param {
    lr_mult: 1
    decay_mult: 1
  }
  param {
    lr_mult: 2
    decay_mult: 0
  }
  convolution_param {
    num_output: 128
    pad: 1
    kernel_size: 3
    weight_filler {
      type: "xavier"
      std: 0.03
    }
    bias_filler {
      type: "constant"
      value: 0.2
    }
  }
}
layer {
  name: "inception_3a/relu_3x3"
  type: "ReLU"
  bottom: "inception_3a/3x3"
  top: "inception_3a/3x3"
}
layer {
  name: "inception_3a/5x5_reduce"
  type: "Convolution"
  bottom: "pool2/3x3_s2"
  top: "inception_3a/5x5_reduce"
  param {
    lr_mult: 1
    decay_mult: 1
  }
  param {
    lr_mult: 2
    decay_mult: 0
  }
  convolution_param {
    num_output: 16
    kernel_size: 1
    weight_filler {
      type: "xavier"
      std: 0.2
    }
    bias_filler {
      type: "constant"
      value: 0.2
    }
  }
}
layer {
  name: "inception_3a/relu_5x5_reduce"
  type: "ReLU"
  bottom: "inception_3a/5x5_reduce"
  top: "inception_3a/5x5_reduce"
}
layer {
  name: "inception_3a/5x5"
  type: "Convolution"
  bottom: "inception_3a/5x5_reduce"
  top: "inception_3a/5x5"
  param {
    lr_mult: 1
    decay_mult: 1
  }
  param {
    lr_mult: 2
    decay_mult: 0
  }
  convolution_param {
    num_output: 32
    pad: 2
    kernel_size: 5
    weight_filler {
      type: "xavier"
      std: 0.03
    }
    bias_filler {
      type: "constant"
      value: 0.2
    }
  }
}
layer {
  name: "inception_3a/relu_5x5"
  type: "ReLU"
  bottom: "inception_3a/5x5"
  top: "inception_3a/5x5"
}
layer {
  name: "inception_3a/pool"
  type: "Pooling"
  bottom: "pool2/3x3_s2"
  top: "inception_3a/pool"
  pooling_param {
    pool: MAX
    kernel_size: 3
    stride: 1
    pad: 1
  }
}
layer {
  name: "inception_3a/pool_proj"
  type: "Convolution"
  bottom: "inception_3a/pool"
  top: "inception_3a/pool_proj"
  param {
    lr_mult: 1
    decay_mult: 1
  }
  param {
    lr_mult: 2
    decay_mult: 0
  }
  convolution_param {
    num_output: 32
    kernel_size: 1
    weight_filler {
      type: "xavier"
      std: 0.1
    }
    bias_filler {
      type: "constant"
      value: 0.2
    }
  }
}
layer {
  name: "inception_3a/relu_pool_proj"
  type: "ReLU"
  bottom: "inception_3a/pool_proj"
  top: "inception_3a/pool_proj"
}
layer {
  name: "inception_3a/output"
  type: "Concat"
  bottom: "inception_3a/1x1"
  bottom: "inception_3a/3x3"
  bottom: "inception_3a/5x5"
  bottom: "inception_3a/pool_proj"
  top: "inception_3a/output"
}
layer {
  name: "inception_3b/1x1"
  type: "Convolution"
  bottom: "inception_3a/output"
  top: "inception_3b/1x1"
  param {
    lr_mult: 1
    decay_mult: 1
  }
  param {
    lr_mult: 2
    decay_mult: 0
  }
  convolution_param {
    num_output: 128
    kernel_size: 1
    weight_filler {
      type: "xavier"
      std: 0.03
    }
    bias_filler {
      type: "constant"
      value: 0.2
    }
  }
}
layer {
  name: "inception_3b/relu_1x1"
  type: "ReLU"
  bottom: "inception_3b/1x1"
  top: "inception_3b/1x1"
}
layer {
  name: "inception_3b/3x3_reduce"
  type: "Convolution"
  bottom: "inception_3a/output"
  top: "inception_3b/3x3_reduce"
  param {
    lr_mult: 1
    decay_mult: 1
  }
  param {
    lr_mult: 2
    decay_mult: 0
  }
  convolution_param {
    num_output: 128
    kernel_size: 1
    weight_filler {
      type: "xavier"
      std: 0.09
    }
    bias_filler {
      type: "constant"
      value: 0.2
    }
  }
}
layer {
  name: "inception_3b/relu_3x3_reduce"
  type: "ReLU"
  bottom: "inception_3b/3x3_reduce"
  top: "inception_3b/3x3_reduce"
}
layer {
  name: "inception_3b/3x3"
  type: "Convolution"
  bottom: "inception_3b/3x3_reduce"
  top: "inception_3b/3x3"
  param {
    lr_mult: 1
    decay_mult: 1
  }
  param {
    lr_mult: 2
    decay_mult: 0
  }
  convolution_param {
    num_output: 192
    pad: 1
    kernel_size: 3
    weight_filler {
      type: "xavier"
      std: 0.03
    }
    bias_filler {
      type: "constant"
      value: 0.2
    }
  }
}
layer {
  name: "inception_3b/relu_3x3"
  type: "ReLU"
  bottom: "inception_3b/3x3"
  top: "inception_3b/3x3"
}
layer {
  name: "inception_3b/5x5_reduce"
  type: "Convolution"
  bottom: "inception_3a/output"
  top: "inception_3b/5x5_reduce"
  param {
    lr_mult: 1
    decay_mult: 1
  }
  param {
    lr_mult: 2
    decay_mult: 0
  }
  convolution_param {
    num_output: 32
    kernel_size: 1
    weight_filler {
      type: "xavier"
      std: 0.2
    }
    bias_filler {
      type: "constant"
      value: 0.2
    }
  }
}
layer {
  name: "inception_3b/relu_5x5_reduce"
  type: "ReLU"
  bottom: "inception_3b/5x5_reduce"
  top: "inception_3b/5x5_reduce"
}
layer {
  name: "inception_3b/5x5"
  type: "Convolution"
  bottom: "inception_3b/5x5_reduce"
  top: "inception_3b/5x5"
  param {
    lr_mult: 1
    decay_mult: 1
  }
  param {
    lr_mult: 2
    decay_mult: 0
  }
  convolution_param {
    num_output: 96
    pad: 2
    kernel_size: 5
    weight_filler {
      type: "xavier"
      std: 0.03
    }
    bias_filler {
      type: "constant"
      value: 0.2
    }
  }
}
layer {
  name: "inception_3b/relu_5x5"
  type: "ReLU"
  bottom: "inception_3b/5x5"
  top: "inception_3b/5x5"
}
layer {
  name: "inception_3b/pool"
  type: "Pooling"
  bottom: "inception_3a/output"
  top: "inception_3b/pool"
  pooling_param {
    pool: MAX
    kernel_size: 3
    stride: 1
    pad: 1
  }
}
layer {
  name: "inception_3b/pool_proj"
  type: "Convolution"
  bottom: "inception_3b/pool"
  top: "inception_3b/pool_proj"
  param {
    lr_mult: 1
    decay_mult: 1
  }
  param {
    lr_mult: 2
    decay_mult: 0
  }
  convolution_param {
    num_output: 64
    kernel_size: 1
    weight_filler {
      type: "xavier"
      std: 0.1
    }
    bias_filler {
      type: "constant"
      value: 0.2
    }
  }
}
layer {
  name: "inception_3b/relu_pool_proj"
  type: "ReLU"
  bottom: "inception_3b/pool_proj"
  top: "inception_3b/pool_proj"
}
layer {
  name: "inception_3b/output"
  type: "Concat"
  bottom: "inception_3b/1x1"
  bottom: "inception_3b/3x3"
  bottom: "inception_3b/5x5"
  bottom: "inception_3b/pool_proj"
  top: "inception_3b/output"
}
layer {
  name: "pool3/3x3_s2"
  type: "Pooling"
  bottom: "inception_3b/output"
  top: "pool3/3x3_s2"
  pooling_param {
    pool: MAX
    kernel_size: 3
    stride: 2
  }
}
layer {
  name: "inception_4a/1x1"
  type: "Convolution"
  bottom: "pool3/3x3_s2"
  top: "inception_4a/1x1"
  param {
    lr_mult: 1
    decay_mult: 1
  }
  param {
    lr_mult: 2
    decay_mult: 0
  }
  convolution_param {
    num_output: 192
    kernel_size: 1
    weight_filler {
      type: "xavier"
      std: 0.03
    }
    bias_filler {
      type: "constant"
      value: 0.2
    }
  }
}
layer {
  name: "inception_4a/relu_1x1"
  type: "ReLU"
  bottom: "inception_4a/1x1"
  top: "inception_4a/1x1"
}
layer {
  name: "inception_4a/3x3_reduce"
  type: "Convolution"
  bottom: "pool3/3x3_s2"
  top: "inception_4a/3x3_reduce"
  param {
    lr_mult: 1
    decay_mult: 1
  }
  param {
    lr_mult: 2
    decay_mult: 0
  }
  convolution_param {
    num_output: 96
    kernel_size: 1
    weight_filler {
      type: "xavier"
      std: 0.09
    }
    bias_filler {
      type: "constant"
      value: 0.2
    }
  }
}
layer {
  name: "inception_4a/relu_3x3_reduce"
  type: "ReLU"
  bottom: "inception_4a/3x3_reduce"
  top: "inception_4a/3x3_reduce"
}
layer {
  name: "inception_4a/3x3"
  type: "Convolution"
  bottom: "inception_4a/3x3_reduce"
  top: "inception_4a/3x3"
  param {
    lr_mult: 1
    decay_mult: 1
  }
  param {
    lr_mult: 2
    decay_mult: 0
  }
  convolution_param {
    num_output: 208
    pad: 1
    kernel_size: 3
    weight_filler {
      type: "xavier"
      std: 0.03
    }
    bias_filler {
      type: "constant"
      value: 0.2
    }
  }
}
layer {
  name: "inception_4a/relu_3x3"
  type: "ReLU"
  bottom: "inception_4a/3x3"
  top: "inception_4a/3x3"
}
layer {
  name: "inception_4a/5x5_reduce"
  type: "Convolution"
  bottom: "pool3/3x3_s2"
  top: "inception_4a/5x5_reduce"
  param {
    lr_mult: 1
    decay_mult: 1
  }
  param {
    lr_mult: 2
    decay_mult: 0
  }
  convolution_param {
    num_output: 16
    kernel_size: 1
    weight_filler {
      type: "xavier"
      std: 0.2
    }
    bias_filler {
      type: "constant"
      value: 0.2
    }
  }
}
layer {
  name: "inception_4a/relu_5x5_reduce"
  type: "ReLU"
  bottom: "inception_4a/5x5_reduce"
  top: "inception_4a/5x5_reduce"
}
layer {
  name: "inception_4a/5x5"
  type: "Convolution"
  bottom: "inception_4a/5x5_reduce"
  top: "inception_4a/5x5"
  param {
    lr_mult: 1
    decay_mult: 1
  }
  param {
    lr_mult: 2
    decay_mult: 0
  }
  convolution_param {
    num_output: 48
    pad: 2
    kernel_size: 5
    weight_filler {
      type: "xavier"
      std: 0.03
    }
    bias_filler {
      type: "constant"
      value: 0.2
    }
  }
}
layer {
  name: "inception_4a/relu_5x5"
  type: "ReLU"
  bottom: "inception_4a/5x5"
  top: "inception_4a/5x5"
}
layer {
  name: "inception_4a/pool"
  type: "Pooling"
  bottom: "pool3/3x3_s2"
  top: "inception_4a/pool"
  pooling_param {
    pool: MAX
    kernel_size: 3
    stride: 1
    pad: 1
  }
}
layer {
  name: "inception_4a/pool_proj"
  type: "Convolution"
  bottom: "inception_4a/pool"
  top: "inception_4a/pool_proj"
  param {
    lr_mult: 1
    decay_mult: 1
  }
  param {
    lr_mult: 2
    decay_mult: 0
  }
  convolution_param {
    num_output: 64
    kernel_size: 1
    weight_filler {
      type: "xavier"
      std: 0.1
    }
    bias_filler {
      type: "constant"
      value: 0.2
    }
  }
}
layer {
  name: "inception_4a/relu_pool_proj"
  type: "ReLU"
  bottom: "inception_4a/pool_proj"
  top: "inception_4a/pool_proj"
}
layer {
  name: "inception_4a/output"
  type: "Concat"
  bottom: "inception_4a/1x1"
  bottom: "inception_4a/3x3"
  bottom: "inception_4a/5x5"
  bottom: "inception_4a/pool_proj"
  top: "inception_4a/output"
}
layer {
  name: "loss1/ave_pool"
  type: "Pooling"
  bottom: "inception_4a/output"
  top: "loss1/ave_pool"
  pooling_param {
    pool: AVE
    kernel_size: 5
    stride: 3
  }
}
layer {
  name: "loss1/conv"
  type: "Convolution"
  bottom: "loss1/ave_pool"
  top: "loss1/conv"
  param {
    lr_mult: 1
    decay_mult: 1
  }
  param {
    lr_mult: 2
    decay_mult: 0
  }
  convolution_param {
    num_output: 128
    kernel_size: 1
    weight_filler {
      type: "xavier"
      std: 0.08
    }
    bias_filler {
      type: "constant"
      value: 0.2
    }
  }
}
layer {
  name: "loss1/relu_conv"
  type: "ReLU"
  bottom: "loss1/conv"
  top: "loss1/conv"
}
layer {
  name: "loss1/fc"
  type: "InnerProduct"
  bottom: "loss1/conv"
  top: "loss1/fc"
  param {
    lr_mult: 1
    decay_mult: 1
  }
  param {
    lr_mult: 2
    decay_mult: 0
  }
  inner_product_param {
    num_output: 1024
    weight_filler {
      type: "xavier"
      std: 0.02
    }
    bias_filler {
      type: "constant"
      value: 0.2
    }
  }
}
layer {
  name: "loss1/relu_fc"
  type: "ReLU"
  bottom: "loss1/fc"
  top: "loss1/fc"
}
layer {
  name: "loss1/drop_fc"
  type: "Dropout"
  bottom: "loss1/fc"
  top: "loss1/fc"
  dropout_param {
    dropout_ratio: 0.7
  }
}
layer {
  name: "loss1/classifier_plantvillage"
  type: "InnerProduct"
  bottom: "loss1/fc"
  top: "loss1/classifier_plantvillage"
  param {
    lr_mult: 1
    decay_mult: 1
  }
  param {
    lr_mult: 2
    decay_mult: 0
  }
  inner_product_param {
    num_output: 38
    weight_filler {
      type: "xavier"
      std: 0.0009765625
    }
    bias_filler {
      type: "constant"
      value: 0
    }
  }
}
layer {
  name: "inception_4b/1x1"
  type: "Convolution"
  bottom: "inception_4a/output"
  top: "inception_4b/1x1"
  param {
    lr_mult: 1
    decay_mult: 1
  }
  param {
    lr_mult: 2
    decay_mult: 0
  }
  convolution_param {
    num_output: 160
    kernel_size: 1
    weight_filler {
      type: "xavier"
      std: 0.03
    }
    bias_filler {
      type: "constant"
      value: 0.2
    }
  }
}
layer {
  name: "inception_4b/relu_1x1"
  type: "ReLU"
  bottom: "inception_4b/1x1"
  top: "inception_4b/1x1"
}
layer {
  name: "inception_4b/3x3_reduce"
  type: "Convolution"
  bottom: "inception_4a/output"
  top: "inception_4b/3x3_reduce"
  param {
    lr_mult: 1
    decay_mult: 1
  }
  param {
    lr_mult: 2
    decay_mult: 0
  }
  convolution_param {
    num_output: 112
    kernel_size: 1
    weight_filler {
      type: "xavier"
      std: 0.09
    }
    bias_filler {
      type: "constant"
      value: 0.2
    }
  }
}
layer {
  name: "inception_4b/relu_3x3_reduce"
  type: "ReLU"
  bottom: "inception_4b/3x3_reduce"
  top: "inception_4b/3x3_reduce"
}
layer {
  name: "inception_4b/3x3"
  type: "Convolution"
  bottom: "inception_4b/3x3_reduce"
  top: "inception_4b/3x3"
  param {
    lr_mult: 1
    decay_mult: 1
  }
  param {
    lr_mult: 2
    decay_mult: 0
  }
  convolution_param {
    num_output: 224
    pad: 1
    kernel_size: 3
    weight_filler {
      type: "xavier"
      std: 0.03
    }
    bias_filler {
      type: "constant"
      value: 0.2
    }
  }
}
layer {
  name: "inception_4b/relu_3x3"
  type: "ReLU"
  bottom: "inception_4b/3x3"
  top: "inception_4b/3x3"
}
layer {
  name: "inception_4b/5x5_reduce"
  type: "Convolution"
  bottom: "inception_4a/output"
  top: "inception_4b/5x5_reduce"
  param {
    lr_mult: 1
    decay_mult: 1
  }
  param {
    lr_mult: 2
    decay_mult: 0
  }
  convolution_param {
    num_output: 24
    kernel_size: 1
    weight_filler {
      type: "xavier"
      std: 0.2
    }
    bias_filler {
      type: "constant"
      value: 0.2
    }
  }
}
layer {
  name: "inception_4b/relu_5x5_reduce"
  type: "ReLU"
  bottom: "inception_4b/5x5_reduce"
  top: "inception_4b/5x5_reduce"
}
layer {
  name: "inception_4b/5x5"
  type: "Convolution"
  bottom: "inception_4b/5x5_reduce"
  top: "inception_4b/5x5"
  param {
    lr_mult: 1
    decay_mult: 1
  }
  param {
    lr_mult: 2
    decay_mult: 0
  }
  convolution_param {
    num_output: 64
    pad: 2
    kernel_size: 5
    weight_filler {
      type: "xavier"
      std: 0.03
    }
    bias_filler {
      type: "constant"
      value: 0.2
    }
  }
}
layer {
  name: "inception_4b/relu_5x5"
  type: "ReLU"
  bottom: "inception_4b/5x5"
  top: "inception_4b/5x5"
}
layer {
  name: "inception_4b/pool"
  type: "Pooling"
  bottom: "inception_4a/output"
  top: "inception_4b/pool"
  pooling_param {
    pool: MAX
    kernel_size: 3
    stride: 1
    pad: 1
  }
}
layer {
  name: "inception_4b/pool_proj"
  type: "Convolution"
  bottom: "inception_4b/pool"
  top: "inception_4b/pool_proj"
  param {
    lr_mult: 1
    decay_mult: 1
  }
  param {
    lr_mult: 2
    decay_mult: 0
  }
  convolution_param {
    num_output: 64
    kernel_size: 1
    weight_filler {
      type: "xavier"
      std: 0.1
    }
    bias_filler {
      type: "constant"
      value: 0.2
    }
  }
}
layer {
  name: "inception_4b/relu_pool_proj"
  type: "ReLU"
  bottom: "inception_4b/pool_proj"
  top: "inception_4b/pool_proj"
}
layer {
  name: "inception_4b/output"
  type: "Concat"
  bottom: "inception_4b/1x1"
  bottom: "inception_4b/3x3"
  bottom: "inception_4b/5x5"
  bottom: "inception_4b/pool_proj"
  top: "inception_4b/output"
}
layer {
  name: "inception_4c/1x1"
  type: "Convolution"
  bottom: "inception_4b/output"
  top: "inception_4c/1x1"
  param {
    lr_mult: 1
    decay_mult: 1
  }
  param {
    lr_mult: 2
    decay_mult: 0
  }
  convolution_param {
    num_output: 128
    kernel_size: 1
    weight_filler {
      type: "xavier"
      std: 0.03
    }
    bias_filler {
      type: "constant"
      value: 0.2
    }
  }
}
layer {
  name: "inception_4c/relu_1x1"
  type: "ReLU"
  bottom: "inception_4c/1x1"
  top: "inception_4c/1x1"
}
layer {
  name: "inception_4c/3x3_reduce"
  type: "Convolution"
  bottom: "inception_4b/output"
  top: "inception_4c/3x3_reduce"
  param {
    lr_mult: 1
    decay_mult: 1
  }
  param {
    lr_mult: 2
    decay_mult: 0
  }
  convolution_param {
    num_output: 128
    kernel_size: 1
    weight_filler {
      type: "xavier"
      std: 0.09
    }
    bias_filler {
      type: "constant"
      value: 0.2
    }
  }
}
layer {
  name: "inception_4c/relu_3x3_reduce"
  type: "ReLU"
  bottom: "inception_4c/3x3_reduce"
  top: "inception_4c/3x3_reduce"
}
layer {
  name: "inception_4c/3x3"
  type: "Convolution"
  bottom: "inception_4c/3x3_reduce"
  top: "inception_4c/3x3"
  param {
    lr_mult: 1
    decay_mult: 1
  }
  param {
    lr_mult: 2
    decay_mult: 0
  }
  convolution_param {
    num_output: 256
    pad: 1
    kernel_size: 3
    weight_filler {
      type: "xavier"
      std: 0.03
    }
    bias_filler {
      type: "constant"
      value: 0.2
    }
  }
}
layer {
  name: "inception_4c/relu_3x3"
  type: "ReLU"
  bottom: "inception_4c/3x3"
  top: "inception_4c/3x3"
}
layer {
  name: "inception_4c/5x5_reduce"
  type: "Convolution"
  bottom: "inception_4b/output"
  top: "inception_4c/5x5_reduce"
  param {
    lr_mult: 1
    decay_mult: 1
  }
  param {
    lr_mult: 2
    decay_mult: 0
  }
  convolution_param {
    num_output: 24
    kernel_size: 1
    weight_filler {
      type: "xavier"
      std: 0.2
    }
    bias_filler {
      type: "constant"
      value: 0.2
    }
  }
}
layer {
  name: "inception_4c/relu_5x5_reduce"
  type: "ReLU"
  bottom: "inception_4c/5x5_reduce"
  top: "inception_4c/5x5_reduce"
}
layer {
  name: "inception_4c/5x5"
  type: "Convolution"
  bottom: "inception_4c/5x5_reduce"
  top: "inception_4c/5x5"
  param {
    lr_mult: 1
    decay_mult: 1
  }
  param {
    lr_mult: 2
    decay_mult: 0
  }
  convolution_param {
    num_output: 64
    pad: 2
    kernel_size: 5
    weight_filler {
      type: "xavier"
      std: 0.03
    }
    bias_filler {
      type: "constant"
      value: 0.2
    }
  }
}
layer {
  name: "inception_4c/relu_5x5"
  type: "ReLU"
  bottom: "inception_4c/5x5"
  top: "inception_4c/5x5"
}
layer {
  name: "inception_4c/pool"
  type: "Pooling"
  bottom: "inception_4b/output"
  top: "inception_4c/pool"
  pooling_param {
    pool: MAX
    kernel_size: 3
    stride: 1
    pad: 1
  }
}
layer {
  name: "inception_4c/pool_proj"
  type: "Convolution"
  bottom: "inception_4c/pool"
  top: "inception_4c/pool_proj"
  param {
    lr_mult: 1
    decay_mult: 1
  }
  param {
    lr_mult: 2
    decay_mult: 0
  }
  convolution_param {
    num_output: 64
    kernel_size: 1
    weight_filler {
      type: "xavier"
      std: 0.1
    }
    bias_filler {
      type: "constant"
      value: 0.2
    }
  }
}
layer {
  name: "inception_4c/relu_pool_proj"
  type: "ReLU"
  bottom: "inception_4c/pool_proj"
  top: "inception_4c/pool_proj"
}
layer {
  name: "inception_4c/output"
  type: "Concat"
  bottom: "inception_4c/1x1"
  bottom: "inception_4c/3x3"
  bottom: "inception_4c/5x5"
  bottom: "inception_4c/pool_proj"
  top: "inception_4c/output"
}
layer {
  name: "inception_4d/1x1"
  type: "Convolution"
  bottom: "inception_4c/output"
  top: "inception_4d/1x1"
  param {
    lr_mult: 1
    decay_mult: 1
  }
  param {
    lr_mult: 2
    decay_mult: 0
  }
  convolution_param {
    num_output: 112
    kernel_size: 1
    weight_filler {
      type: "xavier"
      std: 0.03
    }
    bias_filler {
      type: "constant"
      value: 0.2
    }
  }
}
layer {
  name: "inception_4d/relu_1x1"
  type: "ReLU"
  bottom: "inception_4d/1x1"
  top: "inception_4d/1x1"
}
layer {
  name: "inception_4d/3x3_reduce"
  type: "Convolution"
  bottom: "inception_4c/output"
  top: "inception_4d/3x3_reduce"
  param {
    lr_mult: 1
    decay_mult: 1
  }
  param {
    lr_mult: 2
    decay_mult: 0
  }
  convolution_param {
    num_output: 144
    kernel_size: 1
    weight_filler {
      type: "xavier"
      std: 0.09
    }
    bias_filler {
      type: "constant"
      value: 0.2
    }
  }
}
layer {
  name: "inception_4d/relu_3x3_reduce"
  type: "ReLU"
  bottom: "inception_4d/3x3_reduce"
  top: "inception_4d/3x3_reduce"
}
layer {
  name: "inception_4d/3x3"
  type: "Convolution"
  bottom: "inception_4d/3x3_reduce"
  top: "inception_4d/3x3"
  param {
    lr_mult: 1
    decay_mult: 1
  }
  param {
    lr_mult: 2
    decay_mult: 0
  }
  convolution_param {
    num_output: 288
    pad: 1
    kernel_size: 3
    weight_filler {
      type: "xavier"
      std: 0.03
    }
    bias_filler {
      type: "constant"
      value: 0.2
    }
  }
}
layer {
  name: "inception_4d/relu_3x3"
  type: "ReLU"
  bottom: "inception_4d/3x3"
  top: "inception_4d/3x3"
}
layer {
  name: "inception_4d/5x5_reduce"
  type: "Convolution"
  bottom: "inception_4c/output"
  top: "inception_4d/5x5_reduce"
  param {
    lr_mult: 1
    decay_mult: 1
  }
  param {
    lr_mult: 2
    decay_mult: 0
  }
  convolution_param {
    num_output: 32
    kernel_size: 1
    weight_filler {
      type: "xavier"
      std: 0.2
    }
    bias_filler {
      type: "constant"
      value: 0.2
    }
  }
}
layer {
  name: "inception_4d/relu_5x5_reduce"
  type: "ReLU"
  bottom: "inception_4d/5x5_reduce"
  top: "inception_4d/5x5_reduce"
}
layer {
  name: "inception_4d/5x5"
  type: "Convolution"
  bottom: "inception_4d/5x5_reduce"
  top: "inception_4d/5x5"
  param {
    lr_mult: 1
    decay_mult: 1
  }
  param {
    lr_mult: 2
    decay_mult: 0
  }
  convolution_param {
    num_output: 64
    pad: 2
    kernel_size: 5
    weight_filler {
      type: "xavier"
      std: 0.03
    }
    bias_filler {
      type: "constant"
      value: 0.2
    }
  }
}
layer {
  name: "inception_4d/relu_5x5"
  type: "ReLU"
  bottom: "inception_4d/5x5"
  top: "inception_4d/5x5"
}
layer {
  name: "inception_4d/pool"
  type: "Pooling"
  bottom: "inception_4c/output"
  top: "inception_4d/pool"
  pooling_param {
    pool: MAX
    kernel_size: 3
    stride: 1
    pad: 1
  }
}
layer {
  name: "inception_4d/pool_proj"
  type: "Convolution"
  bottom: "inception_4d/pool"
  top: "inception_4d/pool_proj"
  param {
    lr_mult: 1
    decay_mult: 1
  }
  param {
    lr_mult: 2
    decay_mult: 0
  }
  convolution_param {
    num_output: 64
    kernel_size: 1
    weight_filler {
      type: "xavier"
      std: 0.1
    }
    bias_filler {
      type: "constant"
      value: 0.2
    }
  }
}
layer {
  name: "inception_4d/relu_pool_proj"
  type: "ReLU"
  bottom: "inception_4d/pool_proj"
  top: "inception_4d/pool_proj"
}
layer {
  name: "inception_4d/output"
  type: "Concat"
  bottom: "inception_4d/1x1"
  bottom: "inception_4d/3x3"
  bottom: "inception_4d/5x5"
  bottom: "inception_4d/pool_proj"
  top: "inception_4d/output"
}
layer {
  name: "loss2/ave_pool"
  type: "Pooling"
  bottom: "inception_4d/output"
  top: "loss2/ave_pool"
  pooling_param {
    pool: AVE
    kernel_size: 5
    stride: 3
  }
}
layer {
  name: "loss2/conv"
  type: "Convolution"
  bottom: "loss2/ave_pool"
  top: "loss2/conv"
  param {
    lr_mult: 1
    decay_mult: 1
  }
  param {
    lr_mult: 2
    decay_mult: 0
  }
  convolution_param {
    num_output: 128
    kernel_size: 1
    weight_filler {
      type: "xavier"
      std: 0.08
    }
    bias_filler {
      type: "constant"
      value: 0.2
    }
  }
}
layer {
  name: "loss2/relu_conv"
  type: "ReLU"
  bottom: "loss2/conv"
  top: "loss2/conv"
}
layer {
  name: "loss2/fc"
  type: "InnerProduct"
  bottom: "loss2/conv"
  top: "loss2/fc"
  param {
    lr_mult: 1
    decay_mult: 1
  }
  param {
    lr_mult: 2
    decay_mult: 0
  }
  inner_product_param {
    num_output: 1024
    weight_filler {
      type: "xavier"
      std: 0.02
    }
    bias_filler {
      type: "constant"
      value: 0.2
    }
  }
}
layer {
  name: "loss2/relu_fc"
  type: "ReLU"
  bottom: "loss2/fc"
  top: "loss2/fc"
}
layer {
  name: "loss2/drop_fc"
  type: "Dropout"
  bottom: "loss2/fc"
  top: "loss2/fc"
  dropout_param {
    dropout_ratio: 0.7
  }
}
layer {
  name: "loss2/classifier_plantvillage"
  type: "InnerProduct"
  bottom: "loss2/fc"
  top: "loss2/classifier_plantvillage"
  param {
    lr_mult: 1
    decay_mult: 1
  }
  param {
    lr_mult: 2
    decay_mult: 0
  }
  inner_product_param {
    num_output: 38
    weight_filler {
      type: "xavier"
      std: 0.0009765625
    }
    bias_filler {
      type: "constant"
      value: 0
    }
  }
}
layer {
  name: "inception_4e/1x1"
  type: "Convolution"
  bottom: "inception_4d/output"
  top: "inception_4e/1x1"
  param {
    lr_mult: 1
    decay_mult: 1
  }
  param {
    lr_mult: 2
    decay_mult: 0
  }
  convolution_param {
    num_output: 256
    kernel_size: 1
    weight_filler {
      type: "xavier"
      std: 0.03
    }
    bias_filler {
      type: "constant"
      value: 0.2
    }
  }
}
layer {
  name: "inception_4e/relu_1x1"
  type: "ReLU"
  bottom: "inception_4e/1x1"
  top: "inception_4e/1x1"
}
layer {
  name: "inception_4e/3x3_reduce"
  type: "Convolution"
  bottom: "inception_4d/output"
  top: "inception_4e/3x3_reduce"
  param {
    lr_mult: 1
    decay_mult: 1
  }
  param {
    lr_mult: 2
    decay_mult: 0
  }
  convolution_param {
    num_output: 160
    kernel_size: 1
    weight_filler {
      type: "xavier"
      std: 0.09
    }
    bias_filler {
      type: "constant"
      value: 0.2
    }
  }
}
layer {
  name: "inception_4e/relu_3x3_reduce"
  type: "ReLU"
  bottom: "inception_4e/3x3_reduce"
  top: "inception_4e/3x3_reduce"
}
layer {
  name: "inception_4e/3x3"
  type: "Convolution"
  bottom: "inception_4e/3x3_reduce"
  top: "inception_4e/3x3"
  param {
    lr_mult: 1
    decay_mult: 1
  }
  param {
    lr_mult: 2
    decay_mult: 0
  }
  convolution_param {
    num_output: 320
    pad: 1
    kernel_size: 3
    weight_filler {
      type: "xavier"
      std: 0.03
    }
    bias_filler {
      type: "constant"
      value: 0.2
    }
  }
}
layer {
  name: "inception_4e/relu_3x3"
  type: "ReLU"
  bottom: "inception_4e/3x3"
  top: "inception_4e/3x3"
}
layer {
  name: "inception_4e/5x5_reduce"
  type: "Convolution"
  bottom: "inception_4d/output"
  top: "inception_4e/5x5_reduce"
  param {
    lr_mult: 1
    decay_mult: 1
  }
  param {
    lr_mult: 2
    decay_mult: 0
  }
  convolution_param {
    num_output: 32
    kernel_size: 1
    weight_filler {
      type: "xavier"
      std: 0.2
    }
    bias_filler {
      type: "constant"
      value: 0.2
    }
  }
}
layer {
  name: "inception_4e/relu_5x5_reduce"
  type: "ReLU"
  bottom: "inception_4e/5x5_reduce"
  top: "inception_4e/5x5_reduce"
}
layer {
  name: "inception_4e/5x5"
  type: "Convolution"
  bottom: "inception_4e/5x5_reduce"
  top: "inception_4e/
I0403 19:27:45.579190 24791 layer_factory.hpp:77] Creating layer data
I0403 19:27:45.579879 24791 net.cpp:91] Creating Layer data
I0403 19:27:45.579913 24791 net.cpp:399] data -> data
I0403 19:27:45.579987 24791 net.cpp:399] data -> label
I0403 19:27:45.580034 24791 data_transformer.cpp:25] Loading mean file from: /home/mohanty/data/final_dataset/lmdb/grayscale-80-20/mean.binaryproto
I0403 19:27:45.674379 24795 db_lmdb.cpp:38] Opened lmdb /home/mohanty/data/final_dataset/lmdb/grayscale-80-20/test_db
I0403 19:27:45.734884 24791 data_layer.cpp:41] output data size: 24,3,224,224
I0403 19:27:45.764685 24791 net.cpp:141] Setting up data
I0403 19:27:45.764798 24791 net.cpp:148] Top shape: 24 3 224 224 (3612672)
I0403 19:27:45.764824 24791 net.cpp:148] Top shape: 24 (24)
I0403 19:27:45.764842 24791 net.cpp:156] Memory required for data: 14450784
I0403 19:27:45.764879 24791 layer_factory.hpp:77] Creating layer label_data_1_split
I0403 19:27:45.764914 24791 net.cpp:91] Creating Layer label_data_1_split
I0403 19:27:45.764935 24791 net.cpp:425] label_data_1_split <- label
I0403 19:27:45.764976 24791 net.cpp:399] label_data_1_split -> label_data_1_split_0
I0403 19:27:45.765010 24791 net.cpp:399] label_data_1_split -> label_data_1_split_1
I0403 19:27:45.765036 24791 net.cpp:399] label_data_1_split -> label_data_1_split_2
I0403 19:27:45.765063 24791 net.cpp:399] label_data_1_split -> label_data_1_split_3
I0403 19:27:45.765084 24791 net.cpp:399] label_data_1_split -> label_data_1_split_4
I0403 19:27:45.765106 24791 net.cpp:399] label_data_1_split -> label_data_1_split_5
I0403 19:27:45.765128 24791 net.cpp:399] label_data_1_split -> label_data_1_split_6
I0403 19:27:45.765149 24791 net.cpp:399] label_data_1_split -> label_data_1_split_7
I0403 19:27:45.765172 24791 net.cpp:399] label_data_1_split -> label_data_1_split_8
I0403 19:27:45.765197 24791 net.cpp:399] label_data_1_split -> label_data_1_split_9
I0403 19:27:45.765329 24791 net.cpp:141] Setting up label_data_1_split
I0403 19:27:45.765357 24791 net.cpp:148] Top shape: 24 (24)
I0403 19:27:45.765377 24791 net.cpp:148] Top shape: 24 (24)
I0403 19:27:45.765393 24791 net.cpp:148] Top shape: 24 (24)
I0403 19:27:45.765409 24791 net.cpp:148] Top shape: 24 (24)
I0403 19:27:45.765427 24791 net.cpp:148] Top shape: 24 (24)
I0403 19:27:45.765445 24791 net.cpp:148] Top shape: 24 (24)
I0403 19:27:45.765461 24791 net.cpp:148] Top shape: 24 (24)
I0403 19:27:45.765477 24791 net.cpp:148] Top shape: 24 (24)
I0403 19:27:45.765492 24791 net.cpp:148] Top shape: 24 (24)
I0403 19:27:45.765513 24791 net.cpp:148] Top shape: 24 (24)
I0403 19:27:45.765563 24791 net.cpp:156] Memory required for data: 14451744
I0403 19:27:45.765583 24791 layer_factory.hpp:77] Creating layer conv1/7x7_s2
I0403 19:27:45.765624 24791 net.cpp:91] Creating Layer conv1/7x7_s2
I0403 19:27:45.765643 24791 net.cpp:425] conv1/7x7_s2 <- data
I0403 19:27:45.765666 24791 net.cpp:399] conv1/7x7_s2 -> conv1/7x7_s2
I0403 19:27:45.953202 24791 net.cpp:141] Setting up conv1/7x7_s2
I0403 19:27:45.953285 24791 net.cpp:148] Top shape: 24 64 112 112 (19267584)
I0403 19:27:45.953307 24791 net.cpp:156] Memory required for data: 91522080
I0403 19:27:45.953351 24791 layer_factory.hpp:77] Creating layer conv1/relu_7x7
I0403 19:27:45.953387 24791 net.cpp:91] Creating Layer conv1/relu_7x7
I0403 19:27:45.953408 24791 net.cpp:425] conv1/relu_7x7 <- conv1/7x7_s2
I0403 19:27:45.953431 24791 net.cpp:386] conv1/relu_7x7 -> conv1/7x7_s2 (in-place)
I0403 19:27:45.953697 24791 net.cpp:141] Setting up conv1/relu_7x7
I0403 19:27:45.953728 24791 net.cpp:148] Top shape: 24 64 112 112 (19267584)
I0403 19:27:45.953747 24791 net.cpp:156] Memory required for data: 168592416
I0403 19:27:45.953761 24791 layer_factory.hpp:77] Creating layer pool1/3x3_s2
I0403 19:27:45.953791 24791 net.cpp:91] Creating Layer pool1/3x3_s2
I0403 19:27:45.953814 24791 net.cpp:425] pool1/3x3_s2 <- conv1/7x7_s2
I0403 19:27:45.953835 24791 net.cpp:399] pool1/3x3_s2 -> pool1/3x3_s2
I0403 19:27:45.953922 24791 net.cpp:141] Setting up pool1/3x3_s2
I0403 19:27:45.953951 24791 net.cpp:148] Top shape: 24 64 56 56 (4816896)
I0403 19:27:45.953969 24791 net.cpp:156] Memory required for data: 187860000
I0403 19:27:45.953985 24791 layer_factory.hpp:77] Creating layer pool1/norm1
I0403 19:27:45.954015 24791 net.cpp:91] Creating Layer pool1/norm1
I0403 19:27:45.954035 24791 net.cpp:425] pool1/norm1 <- pool1/3x3_s2
I0403 19:27:45.954056 24791 net.cpp:399] pool1/norm1 -> pool1/norm1
I0403 19:27:45.954357 24791 net.cpp:141] Setting up pool1/norm1
I0403 19:27:45.954390 24791 net.cpp:148] Top shape: 24 64 56 56 (4816896)
I0403 19:27:45.954407 24791 net.cpp:156] Memory required for data: 207127584
I0403 19:27:45.954423 24791 layer_factory.hpp:77] Creating layer conv2/3x3_reduce
I0403 19:27:45.954452 24791 net.cpp:91] Creating Layer conv2/3x3_reduce
I0403 19:27:45.954473 24791 net.cpp:425] conv2/3x3_reduce <- pool1/norm1
I0403 19:27:45.954495 24791 net.cpp:399] conv2/3x3_reduce -> conv2/3x3_reduce
I0403 19:27:45.955938 24791 net.cpp:141] Setting up conv2/3x3_reduce
I0403 19:27:45.955968 24791 net.cpp:148] Top shape: 24 64 56 56 (4816896)
I0403 19:27:45.955986 24791 net.cpp:156] Memory required for data: 226395168
I0403 19:27:45.956009 24791 layer_factory.hpp:77] Creating layer conv2/relu_3x3_reduce
I0403 19:27:45.956032 24791 net.cpp:91] Creating Layer conv2/relu_3x3_reduce
I0403 19:27:45.956049 24791 net.cpp:425] conv2/relu_3x3_reduce <- conv2/3x3_reduce
I0403 19:27:45.956069 24791 net.cpp:386] conv2/relu_3x3_reduce -> conv2/3x3_reduce (in-place)
I0403 19:27:45.956331 24791 net.cpp:141] Setting up conv2/relu_3x3_reduce
I0403 19:27:45.956362 24791 net.cpp:148] Top shape: 24 64 56 56 (4816896)
I0403 19:27:45.956379 24791 net.cpp:156] Memory required for data: 245662752
I0403 19:27:45.956396 24791 layer_factory.hpp:77] Creating layer conv2/3x3
I0403 19:27:45.956419 24791 net.cpp:91] Creating Layer conv2/3x3
I0403 19:27:45.956439 24791 net.cpp:425] conv2/3x3 <- conv2/3x3_reduce
I0403 19:27:45.956461 24791 net.cpp:399] conv2/3x3 -> conv2/3x3
I0403 19:27:45.958804 24791 net.cpp:141] Setting up conv2/3x3
I0403 19:27:45.958837 24791 net.cpp:148] Top shape: 24 192 56 56 (14450688)
I0403 19:27:45.958856 24791 net.cpp:156] Memory required for data: 303465504
I0403 19:27:45.958878 24791 layer_factory.hpp:77] Creating layer conv2/relu_3x3
I0403 19:27:45.958899 24791 net.cpp:91] Creating Layer conv2/relu_3x3
I0403 19:27:45.958916 24791 net.cpp:425] conv2/relu_3x3 <- conv2/3x3
I0403 19:27:45.958936 24791 net.cpp:386] conv2/relu_3x3 -> conv2/3x3 (in-place)
I0403 19:27:45.959102 24791 net.cpp:141] Setting up conv2/relu_3x3
I0403 19:27:45.959136 24791 net.cpp:148] Top shape: 24 192 56 56 (14450688)
I0403 19:27:45.959185 24791 net.cpp:156] Memory required for data: 361268256
I0403 19:27:45.959205 24791 layer_factory.hpp:77] Creating layer conv2/norm2
I0403 19:27:45.959226 24791 net.cpp:91] Creating Layer conv2/norm2
I0403 19:27:45.959245 24791 net.cpp:425] conv2/norm2 <- conv2/3x3
I0403 19:27:45.959272 24791 net.cpp:399] conv2/norm2 -> conv2/norm2
I0403 19:27:45.959559 24791 net.cpp:141] Setting up conv2/norm2
I0403 19:27:45.959591 24791 net.cpp:148] Top shape: 24 192 56 56 (14450688)
I0403 19:27:45.959609 24791 net.cpp:156] Memory required for data: 419071008
I0403 19:27:45.959625 24791 layer_factory.hpp:77] Creating layer pool2/3x3_s2
I0403 19:27:45.959646 24791 net.cpp:91] Creating Layer pool2/3x3_s2
I0403 19:27:45.959666 24791 net.cpp:425] pool2/3x3_s2 <- conv2/norm2
I0403 19:27:45.959686 24791 net.cpp:399] pool2/3x3_s2 -> pool2/3x3_s2
I0403 19:27:45.959735 24791 net.cpp:141] Setting up pool2/3x3_s2
I0403 19:27:45.959765 24791 net.cpp:148] Top shape: 24 192 28 28 (3612672)
I0403 19:27:45.959782 24791 net.cpp:156] Memory required for data: 433521696
I0403 19:27:45.959800 24791 layer_factory.hpp:77] Creating layer pool2/3x3_s2_pool2/3x3_s2_0_split
I0403 19:27:45.959820 24791 net.cpp:91] Creating Layer pool2/3x3_s2_pool2/3x3_s2_0_split
I0403 19:27:45.959837 24791 net.cpp:425] pool2/3x3_s2_pool2/3x3_s2_0_split <- pool2/3x3_s2
I0403 19:27:45.959856 24791 net.cpp:399] pool2/3x3_s2_pool2/3x3_s2_0_split -> pool2/3x3_s2_pool2/3x3_s2_0_split_0
I0403 19:27:45.959877 24791 net.cpp:399] pool2/3x3_s2_pool2/3x3_s2_0_split -> pool2/3x3_s2_pool2/3x3_s2_0_split_1
I0403 19:27:45.959899 24791 net.cpp:399] pool2/3x3_s2_pool2/3x3_s2_0_split -> pool2/3x3_s2_pool2/3x3_s2_0_split_2
I0403 19:27:45.959920 24791 net.cpp:399] pool2/3x3_s2_pool2/3x3_s2_0_split -> pool2/3x3_s2_pool2/3x3_s2_0_split_3
I0403 19:27:45.959990 24791 net.cpp:141] Setting up pool2/3x3_s2_pool2/3x3_s2_0_split
I0403 19:27:45.960016 24791 net.cpp:148] Top shape: 24 192 28 28 (3612672)
I0403 19:27:45.960036 24791 net.cpp:148] Top shape: 24 192 28 28 (3612672)
I0403 19:27:45.960054 24791 net.cpp:148] Top shape: 24 192 28 28 (3612672)
I0403 19:27:45.960072 24791 net.cpp:148] Top shape: 24 192 28 28 (3612672)
I0403 19:27:45.960088 24791 net.cpp:156] Memory required for data: 491324448
I0403 19:27:45.960104 24791 layer_factory.hpp:77] Creating layer inception_3a/1x1
I0403 19:27:45.960126 24791 net.cpp:91] Creating Layer inception_3a/1x1
I0403 19:27:45.960144 24791 net.cpp:425] inception_3a/1x1 <- pool2/3x3_s2_pool2/3x3_s2_0_split_0
I0403 19:27:45.960165 24791 net.cpp:399] inception_3a/1x1 -> inception_3a/1x1
I0403 19:27:45.961787 24791 net.cpp:141] Setting up inception_3a/1x1
I0403 19:27:45.961818 24791 net.cpp:148] Top shape: 24 64 28 28 (1204224)
I0403 19:27:45.961838 24791 net.cpp:156] Memory required for data: 496141344
I0403 19:27:45.961859 24791 layer_factory.hpp:77] Creating layer inception_3a/relu_1x1
I0403 19:27:45.961879 24791 net.cpp:91] Creating Layer inception_3a/relu_1x1
I0403 19:27:45.961896 24791 net.cpp:425] inception_3a/relu_1x1 <- inception_3a/1x1
I0403 19:27:45.961920 24791 net.cpp:386] inception_3a/relu_1x1 -> inception_3a/1x1 (in-place)
I0403 19:27:45.962098 24791 net.cpp:141] Setting up inception_3a/relu_1x1
I0403 19:27:45.962129 24791 net.cpp:148] Top shape: 24 64 28 28 (1204224)
I0403 19:27:45.962146 24791 net.cpp:156] Memory required for data: 500958240
I0403 19:27:45.962163 24791 layer_factory.hpp:77] Creating layer inception_3a/3x3_reduce
I0403 19:27:45.962188 24791 net.cpp:91] Creating Layer inception_3a/3x3_reduce
I0403 19:27:45.962208 24791 net.cpp:425] inception_3a/3x3_reduce <- pool2/3x3_s2_pool2/3x3_s2_0_split_1
I0403 19:27:45.962232 24791 net.cpp:399] inception_3a/3x3_reduce -> inception_3a/3x3_reduce
I0403 19:27:45.964010 24791 net.cpp:141] Setting up inception_3a/3x3_reduce
I0403 19:27:45.964041 24791 net.cpp:148] Top shape: 24 96 28 28 (1806336)
I0403 19:27:45.964061 24791 net.cpp:156] Memory required for data: 508183584
I0403 19:27:45.964087 24791 layer_factory.hpp:77] Creating layer inception_3a/relu_3x3_reduce
I0403 19:27:45.964128 24791 net.cpp:91] Creating Layer inception_3a/relu_3x3_reduce
I0403 19:27:45.964151 24791 net.cpp:425] inception_3a/relu_3x3_reduce <- inception_3a/3x3_reduce
I0403 19:27:45.964171 24791 net.cpp:386] inception_3a/relu_3x3_reduce -> inception_3a/3x3_reduce (in-place)
I0403 19:27:45.964359 24791 net.cpp:141] Setting up inception_3a/relu_3x3_reduce
I0403 19:27:45.964392 24791 net.cpp:148] Top shape: 24 96 28 28 (1806336)
I0403 19:27:45.964413 24791 net.cpp:156] Memory required for data: 515408928
I0403 19:27:45.964431 24791 layer_factory.hpp:77] Creating layer inception_3a/3x3
I0403 19:27:45.964453 24791 net.cpp:91] Creating Layer inception_3a/3x3
I0403 19:27:45.964475 24791 net.cpp:425] inception_3a/3x3 <- inception_3a/3x3_reduce
I0403 19:27:45.964496 24791 net.cpp:399] inception_3a/3x3 -> inception_3a/3x3
I0403 19:27:45.966179 24791 net.cpp:141] Setting up inception_3a/3x3
I0403 19:27:45.966214 24791 net.cpp:148] Top shape: 24 128 28 28 (2408448)
I0403 19:27:45.966234 24791 net.cpp:156] Memory required for data: 525042720
I0403 19:27:45.966259 24791 layer_factory.hpp:77] Creating layer inception_3a/relu_3x3
I0403 19:27:45.966284 24791 net.cpp:91] Creating Layer inception_3a/relu_3x3
I0403 19:27:45.966305 24791 net.cpp:425] inception_3a/relu_3x3 <- inception_3a/3x3
I0403 19:27:45.966325 24791 net.cpp:386] inception_3a/relu_3x3 -> inception_3a/3x3 (in-place)
I0403 19:27:45.966605 24791 net.cpp:141] Setting up inception_3a/relu_3x3
I0403 19:27:45.966635 24791 net.cpp:148] Top shape: 24 128 28 28 (2408448)
I0403 19:27:45.966652 24791 net.cpp:156] Memory required for data: 534676512
I0403 19:27:45.966670 24791 layer_factory.hpp:77] Creating layer inception_3a/5x5_reduce
I0403 19:27:45.966694 24791 net.cpp:91] Creating Layer inception_3a/5x5_reduce
I0403 19:27:45.966716 24791 net.cpp:425] inception_3a/5x5_reduce <- pool2/3x3_s2_pool2/3x3_s2_0_split_2
I0403 19:27:45.966742 24791 net.cpp:399] inception_3a/5x5_reduce -> inception_3a/5x5_reduce
I0403 19:27:45.967741 24791 net.cpp:141] Setting up inception_3a/5x5_reduce
I0403 19:27:45.967772 24791 net.cpp:148] Top shape: 24 16 28 28 (301056)
I0403 19:27:45.967789 24791 net.cpp:156] Memory required for data: 535880736
I0403 19:27:45.967809 24791 layer_factory.hpp:77] Creating layer inception_3a/relu_5x5_reduce
I0403 19:27:45.967833 24791 net.cpp:91] Creating Layer inception_3a/relu_5x5_reduce
I0403 19:27:45.967855 24791 net.cpp:425] inception_3a/relu_5x5_reduce <- inception_3a/5x5_reduce
I0403 19:27:45.967875 24791 net.cpp:386] inception_3a/relu_5x5_reduce -> inception_3a/5x5_reduce (in-place)
I0403 19:27:45.968158 24791 net.cpp:141] Setting up inception_3a/relu_5x5_reduce
I0403 19:27:45.968189 24791 net.cpp:148] Top shape: 24 16 28 28 (301056)
I0403 19:27:45.968207 24791 net.cpp:156] Memory required for data: 537084960
I0403 19:27:45.968224 24791 layer_factory.hpp:77] Creating layer inception_3a/5x5
I0403 19:27:45.968248 24791 net.cpp:91] Creating Layer inception_3a/5x5
I0403 19:27:45.968274 24791 net.cpp:425] inception_3a/5x5 <- inception_3a/5x5_reduce
I0403 19:27:45.968299 24791 net.cpp:399] inception_3a/5x5 -> inception_3a/5x5
I0403 19:27:45.969367 24791 net.cpp:141] Setting up inception_3a/5x5
I0403 19:27:45.969398 24791 net.cpp:148] Top shape: 24 32 28 28 (602112)
I0403 19:27:45.969419 24791 net.cpp:156] Memory required for data: 539493408
I0403 19:27:45.969439 24791 layer_factory.hpp:77] Creating layer inception_3a/relu_5x5
I0403 19:27:45.969458 24791 net.cpp:91] Creating Layer inception_3a/relu_5x5
I0403 19:27:45.969476 24791 net.cpp:425] inception_3a/relu_5x5 <- inception_3a/5x5
I0403 19:27:45.969499 24791 net.cpp:386] inception_3a/relu_5x5 -> inception_3a/5x5 (in-place)
I0403 19:27:45.969679 24791 net.cpp:141] Setting up inception_3a/relu_5x5
I0403 19:27:45.969709 24791 net.cpp:148] Top shape: 24 32 28 28 (602112)
I0403 19:27:45.969727 24791 net.cpp:156] Memory required for data: 541901856
I0403 19:27:45.969744 24791 layer_factory.hpp:77] Creating layer inception_3a/pool
I0403 19:27:45.969763 24791 net.cpp:91] Creating Layer inception_3a/pool
I0403 19:27:45.969799 24791 net.cpp:425] inception_3a/pool <- pool2/3x3_s2_pool2/3x3_s2_0_split_3
I0403 19:27:45.969825 24791 net.cpp:399] inception_3a/pool -> inception_3a/pool
I0403 19:27:45.969888 24791 net.cpp:141] Setting up inception_3a/pool
I0403 19:27:45.969916 24791 net.cpp:148] Top shape: 24 192 28 28 (3612672)
I0403 19:27:45.969934 24791 net.cpp:156] Memory required for data: 556352544
I0403 19:27:45.969951 24791 layer_factory.hpp:77] Creating layer inception_3a/pool_proj
I0403 19:27:45.969975 24791 net.cpp:91] Creating Layer inception_3a/pool_proj
I0403 19:27:45.969995 24791 net.cpp:425] inception_3a/pool_proj <- inception_3a/pool
I0403 19:27:45.970018 24791 net.cpp:399] inception_3a/pool_proj -> inception_3a/pool_proj
I0403 19:27:45.970994 24791 net.cpp:141] Setting up inception_3a/pool_proj
I0403 19:27:45.971026 24791 net.cpp:148] Top shape: 24 32 28 28 (602112)
I0403 19:27:45.971045 24791 net.cpp:156] Memory required for data: 558760992
I0403 19:27:45.971071 24791 layer_factory.hpp:77] Creating layer inception_3a/relu_pool_proj
I0403 19:27:45.971096 24791 net.cpp:91] Creating Layer inception_3a/relu_pool_proj
I0403 19:27:45.971115 24791 net.cpp:425] inception_3a/relu_pool_proj <- inception_3a/pool_proj
I0403 19:27:45.971134 24791 net.cpp:386] inception_3a/relu_pool_proj -> inception_3a/pool_proj (in-place)
I0403 19:27:45.971418 24791 net.cpp:141] Setting up inception_3a/relu_pool_proj
I0403 19:27:45.971452 24791 net.cpp:148] Top shape: 24 32 28 28 (602112)
I0403 19:27:45.971472 24791 net.cpp:156] Memory required for data: 561169440
I0403 19:27:45.971490 24791 layer_factory.hpp:77] Creating layer inception_3a/output
I0403 19:27:45.971509 24791 net.cpp:91] Creating Layer inception_3a/output
I0403 19:27:45.971525 24791 net.cpp:425] inception_3a/output <- inception_3a/1x1
I0403 19:27:45.971544 24791 net.cpp:425] inception_3a/output <- inception_3a/3x3
I0403 19:27:45.971562 24791 net.cpp:425] inception_3a/output <- inception_3a/5x5
I0403 19:27:45.971580 24791 net.cpp:425] inception_3a/output <- inception_3a/pool_proj
I0403 19:27:45.971602 24791 net.cpp:399] inception_3a/output -> inception_3a/output
I0403 19:27:45.971652 24791 net.cpp:141] Setting up inception_3a/output
I0403 19:27:45.971683 24791 net.cpp:148] Top shape: 24 256 28 28 (4816896)
I0403 19:27:45.971703 24791 net.cpp:156] Memory required for data: 580437024
I0403 19:27:45.971720 24791 layer_factory.hpp:77] Creating layer inception_3a/output_inception_3a/output_0_split
I0403 19:27:45.971738 24791 net.cpp:91] Creating Layer inception_3a/output_inception_3a/output_0_split
I0403 19:27:45.971756 24791 net.cpp:425] inception_3a/output_inception_3a/output_0_split <- inception_3a/output
I0403 19:27:45.971776 24791 net.cpp:399] inception_3a/output_inception_3a/output_0_split -> inception_3a/output_inception_3a/output_0_split_0
I0403 19:27:45.971803 24791 net.cpp:399] inception_3a/output_inception_3a/output_0_split -> inception_3a/output_inception_3a/output_0_split_1
I0403 19:27:45.971827 24791 net.cpp:399] inception_3a/output_inception_3a/output_0_split -> inception_3a/output_inception_3a/output_0_split_2
I0403 19:27:45.971853 24791 net.cpp:399] inception_3a/output_inception_3a/output_0_split -> inception_3a/output_inception_3a/output_0_split_3
I0403 19:27:45.971928 24791 net.cpp:141] Setting up inception_3a/output_inception_3a/output_0_split
I0403 19:27:45.971956 24791 net.cpp:148] Top shape: 24 256 28 28 (4816896)
I0403 19:27:45.971976 24791 net.cpp:148] Top shape: 24 256 28 28 (4816896)
I0403 19:27:45.971994 24791 net.cpp:148] Top shape: 24 256 28 28 (4816896)
I0403 19:27:45.972009 24791 net.cpp:148] Top shape: 24 256 28 28 (4816896)
I0403 19:27:45.972023 24791 net.cpp:156] Memory required for data: 657507360
I0403 19:27:45.972038 24791 layer_factory.hpp:77] Creating layer inception_3b/1x1
I0403 19:27:45.972062 24791 net.cpp:91] Creating Layer inception_3b/1x1
I0403 19:27:45.972084 24791 net.cpp:425] inception_3b/1x1 <- inception_3a/output_inception_3a/output_0_split_0
I0403 19:27:45.972108 24791 net.cpp:399] inception_3b/1x1 -> inception_3b/1x1
I0403 19:27:45.973265 24791 net.cpp:141] Setting up inception_3b/1x1
I0403 19:27:45.973311 24791 net.cpp:148] Top shape: 24 128 28 28 (2408448)
I0403 19:27:45.973332 24791 net.cpp:156] Memory required for data: 667141152
I0403 19:27:45.973351 24791 layer_factory.hpp:77] Creating layer inception_3b/relu_1x1
I0403 19:27:45.973372 24791 net.cpp:91] Creating Layer inception_3b/relu_1x1
I0403 19:27:45.973390 24791 net.cpp:425] inception_3b/relu_1x1 <- inception_3b/1x1
I0403 19:27:45.973410 24791 net.cpp:386] inception_3b/relu_1x1 -> inception_3b/1x1 (in-place)
I0403 19:27:45.973592 24791 net.cpp:141] Setting up inception_3b/relu_1x1
I0403 19:27:45.973623 24791 net.cpp:148] Top shape: 24 128 28 28 (2408448)
I0403 19:27:45.973639 24791 net.cpp:156] Memory required for data: 676774944
I0403 19:27:45.973655 24791 layer_factory.hpp:77] Creating layer inception_3b/3x3_reduce
I0403 19:27:45.973680 24791 net.cpp:91] Creating Layer inception_3b/3x3_reduce
I0403 19:27:45.973701 24791 net.cpp:425] inception_3b/3x3_reduce <- inception_3a/output_inception_3a/output_0_split_1
I0403 19:27:45.973723 24791 net.cpp:399] inception_3b/3x3_reduce -> inception_3b/3x3_reduce
I0403 19:27:45.974856 24791 net.cpp:141] Setting up inception_3b/3x3_reduce
I0403 19:27:45.974890 24791 net.cpp:148] Top shape: 24 128 28 28 (2408448)
I0403 19:27:45.974908 24791 net.cpp:156] Memory required for data: 686408736
I0403 19:27:45.974928 24791 layer_factory.hpp:77] Creating layer inception_3b/relu_3x3_reduce
I0403 19:27:45.974947 24791 net.cpp:91] Creating Layer inception_3b/relu_3x3_reduce
I0403 19:27:45.974963 24791 net.cpp:425] inception_3b/relu_3x3_reduce <- inception_3b/3x3_reduce
I0403 19:27:45.974984 24791 net.cpp:386] inception_3b/relu_3x3_reduce -> inception_3b/3x3_reduce (in-place)
I0403 19:27:45.975157 24791 net.cpp:141] Setting up inception_3b/relu_3x3_reduce
I0403 19:27:45.975184 24791 net.cpp:148] Top shape: 24 128 28 28 (2408448)
I0403 19:27:45.975201 24791 net.cpp:156] Memory required for data: 696042528
I0403 19:27:45.975217 24791 layer_factory.hpp:77] Creating layer inception_3b/3x3
I0403 19:27:45.975245 24791 net.cpp:91] Creating Layer inception_3b/3x3
I0403 19:27:45.975281 24791 net.cpp:425] inception_3b/3x3 <- inception_3b/3x3_reduce
I0403 19:27:45.975306 24791 net.cpp:399] inception_3b/3x3 -> inception_3b/3x3
I0403 19:27:45.978225 24791 net.cpp:141] Setting up inception_3b/3x3
I0403 19:27:45.978260 24791 net.cpp:148] Top shape: 24 192 28 28 (3612672)
I0403 19:27:45.978281 24791 net.cpp:156] Memory required for data: 710493216
I0403 19:27:45.978301 24791 layer_factory.hpp:77] Creating layer inception_3b/relu_3x3
I0403 19:27:45.978320 24791 net.cpp:91] Creating Layer inception_3b/relu_3x3
I0403 19:27:45.978343 24791 net.cpp:425] inception_3b/relu_3x3 <- inception_3b/3x3
I0403 19:27:45.978363 24791 net.cpp:386] inception_3b/relu_3x3 -> inception_3b/3x3 (in-place)
I0403 19:27:45.978636 24791 net.cpp:141] Setting up inception_3b/relu_3x3
I0403 19:27:45.978667 24791 net.cpp:148] Top shape: 24 192 28 28 (3612672)
I0403 19:27:45.978683 24791 net.cpp:156] Memory required for data: 724943904
I0403 19:27:45.978698 24791 layer_factory.hpp:77] Creating layer inception_3b/5x5_reduce
I0403 19:27:45.978724 24791 net.cpp:91] Creating Layer inception_3b/5x5_reduce
I0403 19:27:45.978744 24791 net.cpp:425] inception_3b/5x5_reduce <- inception_3a/output_inception_3a/output_0_split_2
I0403 19:27:45.978767 24791 net.cpp:399] inception_3b/5x5_reduce -> inception_3b/5x5_reduce
I0403 19:27:45.979749 24791 net.cpp:141] Setting up inception_3b/5x5_reduce
I0403 19:27:45.979780 24791 net.cpp:148] Top shape: 24 32 28 28 (602112)
I0403 19:27:45.979799 24791 net.cpp:156] Memory required for data: 727352352
I0403 19:27:45.979817 24791 layer_factory.hpp:77] Creating layer inception_3b/relu_5x5_reduce
I0403 19:27:45.979838 24791 net.cpp:91] Creating Layer inception_3b/relu_5x5_reduce
I0403 19:27:45.979857 24791 net.cpp:425] inception_3b/relu_5x5_reduce <- inception_3b/5x5_reduce
I0403 19:27:45.979879 24791 net.cpp:386] inception_3b/relu_5x5_reduce -> inception_3b/5x5_reduce (in-place)
I0403 19:27:45.980072 24791 net.cpp:141] Setting up inception_3b/relu_5x5_reduce
I0403 19:27:45.980103 24791 net.cpp:148] Top shape: 24 32 28 28 (602112)
I0403 19:27:45.980119 24791 net.cpp:156] Memory required for data: 729760800
I0403 19:27:45.980135 24791 layer_factory.hpp:77] Creating layer inception_3b/5x5
I0403 19:27:45.980159 24791 net.cpp:91] Creating Layer inception_3b/5x5
I0403 19:27:45.980180 24791 net.cpp:425] inception_3b/5x5 <- inception_3b/5x5_reduce
I0403 19:27:45.980208 24791 net.cpp:399] inception_3b/5x5 -> inception_3b/5x5
I0403 19:27:45.982173 24791 net.cpp:141] Setting up inception_3b/5x5
I0403 19:27:45.982213 24791 net.cpp:148] Top shape: 24 96 28 28 (1806336)
I0403 19:27:45.982231 24791 net.cpp:156] Memory required for data: 736986144
I0403 19:27:45.982252 24791 layer_factory.hpp:77] Creating layer inception_3b/relu_5x5
I0403 19:27:45.982280 24791 net.cpp:91] Creating Layer inception_3b/relu_5x5
I0403 19:27:45.982298 24791 net.cpp:425] inception_3b/relu_5x5 <- inception_3b/5x5
I0403 19:27:45.982321 24791 net.cpp:386] inception_3b/relu_5x5 -> inception_3b/5x5 (in-place)
I0403 19:27:45.982511 24791 net.cpp:141] Setting up inception_3b/relu_5x5
I0403 19:27:45.982543 24791 net.cpp:148] Top shape: 24 96 28 28 (1806336)
I0403 19:27:45.982563 24791 net.cpp:156] Memory required for data: 744211488
I0403 19:27:45.982579 24791 layer_factory.hpp:77] Creating layer inception_3b/pool
I0403 19:27:45.982596 24791 net.cpp:91] Creating Layer inception_3b/pool
I0403 19:27:45.982614 24791 net.cpp:425] inception_3b/pool <- inception_3a/output_inception_3a/output_0_split_3
I0403 19:27:45.982633 24791 net.cpp:399] inception_3b/pool -> inception_3b/pool
I0403 19:27:45.982691 24791 net.cpp:141] Setting up inception_3b/pool
I0403 19:27:45.982719 24791 net.cpp:148] Top shape: 24 256 28 28 (4816896)
I0403 19:27:45.982736 24791 net.cpp:156] Memory required for data: 763479072
I0403 19:27:45.982753 24791 layer_factory.hpp:77] Creating layer inception_3b/pool_proj
I0403 19:27:45.982779 24791 net.cpp:91] Creating Layer inception_3b/pool_proj
I0403 19:27:45.982800 24791 net.cpp:425] inception_3b/pool_proj <- inception_3b/pool
I0403 19:27:45.982818 24791 net.cpp:399] inception_3b/pool_proj -> inception_3b/pool_proj
I0403 19:27:45.983903 24791 net.cpp:141] Setting up inception_3b/pool_proj
I0403 19:27:45.983935 24791 net.cpp:148] Top shape: 24 64 28 28 (1204224)
I0403 19:27:45.983952 24791 net.cpp:156] Memory required for data: 768295968
I0403 19:27:45.983973 24791 layer_factory.hpp:77] Creating layer inception_3b/relu_pool_proj
I0403 19:27:45.983994 24791 net.cpp:91] Creating Layer inception_3b/relu_pool_proj
I0403 19:27:45.984015 24791 net.cpp:425] inception_3b/relu_pool_proj <- inception_3b/pool_proj
I0403 19:27:45.984035 24791 net.cpp:386] inception_3b/relu_pool_proj -> inception_3b/pool_proj (in-place)
I0403 19:27:45.984413 24791 net.cpp:141] Setting up inception_3b/relu_pool_proj
I0403 19:27:45.984447 24791 net.cpp:148] Top shape: 24 64 28 28 (1204224)
I0403 19:27:45.984462 24791 net.cpp:156] Memory required for data: 773112864
I0403 19:27:45.984479 24791 layer_factory.hpp:77] Creating layer inception_3b/output
I0403 19:27:45.984503 24791 net.cpp:91] Creating Layer inception_3b/output
I0403 19:27:45.984521 24791 net.cpp:425] inception_3b/output <- inception_3b/1x1
I0403 19:27:45.984539 24791 net.cpp:425] inception_3b/output <- inception_3b/3x3
I0403 19:27:45.984558 24791 net.cpp:425] inception_3b/output <- inception_3b/5x5
I0403 19:27:45.984577 24791 net.cpp:425] inception_3b/output <- inception_3b/pool_proj
I0403 19:27:45.984597 24791 net.cpp:399] inception_3b/output -> inception_3b/output
I0403 19:27:45.984643 24791 net.cpp:141] Setting up inception_3b/output
I0403 19:27:45.984673 24791 net.cpp:148] Top shape: 24 480 28 28 (9031680)
I0403 19:27:45.984693 24791 net.cpp:156] Memory required for data: 809239584
I0403 19:27:45.984709 24791 layer_factory.hpp:77] Creating layer pool3/3x3_s2
I0403 19:27:45.984729 24791 net.cpp:91] Creating Layer pool3/3x3_s2
I0403 19:27:45.984745 24791 net.cpp:425] pool3/3x3_s2 <- inception_3b/output
I0403 19:27:45.984786 24791 net.cpp:399] pool3/3x3_s2 -> pool3/3x3_s2
I0403 19:27:45.984848 24791 net.cpp:141] Setting up pool3/3x3_s2
I0403 19:27:45.984879 24791 net.cpp:148] Top shape: 24 480 14 14 (2257920)
I0403 19:27:45.984895 24791 net.cpp:156] Memory required for data: 818271264
I0403 19:27:45.984911 24791 layer_factory.hpp:77] Creating layer pool3/3x3_s2_pool3/3x3_s2_0_split
I0403 19:27:45.984930 24791 net.cpp:91] Creating Layer pool3/3x3_s2_pool3/3x3_s2_0_split
I0403 19:27:45.984947 24791 net.cpp:425] pool3/3x3_s2_pool3/3x3_s2_0_split <- pool3/3x3_s2
I0403 19:27:45.984966 24791 net.cpp:399] pool3/3x3_s2_pool3/3x3_s2_0_split -> pool3/3x3_s2_pool3/3x3_s2_0_split_0
I0403 19:27:45.984987 24791 net.cpp:399] pool3/3x3_s2_pool3/3x3_s2_0_split -> pool3/3x3_s2_pool3/3x3_s2_0_split_1
I0403 19:27:45.985011 24791 net.cpp:399] pool3/3x3_s2_pool3/3x3_s2_0_split -> pool3/3x3_s2_pool3/3x3_s2_0_split_2
I0403 19:27:45.985033 24791 net.cpp:399] pool3/3x3_s2_pool3/3x3_s2_0_split -> pool3/3x3_s2_pool3/3x3_s2_0_split_3
I0403 19:27:45.985110 24791 net.cpp:141] Setting up pool3/3x3_s2_pool3/3x3_s2_0_split
I0403 19:27:45.985141 24791 net.cpp:148] Top shape: 24 480 14 14 (2257920)
I0403 19:27:45.985158 24791 net.cpp:148] Top shape: 24 480 14 14 (2257920)
I0403 19:27:45.985174 24791 net.cpp:148] Top shape: 24 480 14 14 (2257920)
I0403 19:27:45.985190 24791 net.cpp:148] Top shape: 24 480 14 14 (2257920)
I0403 19:27:45.985205 24791 net.cpp:156] Memory required for data: 854397984
I0403 19:27:45.985220 24791 layer_factory.hpp:77] Creating layer inception_4a/1x1
I0403 19:27:45.985245 24791 net.cpp:91] Creating Layer inception_4a/1x1
I0403 19:27:45.985280 24791 net.cpp:425] inception_4a/1x1 <- pool3/3x3_s2_pool3/3x3_s2_0_split_0
I0403 19:27:45.985307 24791 net.cpp:399] inception_4a/1x1 -> inception_4a/1x1
I0403 19:27:45.986907 24791 net.cpp:141] Setting up inception_4a/1x1
I0403 19:27:45.986935 24791 net.cpp:148] Top shape: 24 192 14 14 (903168)
I0403 19:27:45.986953 24791 net.cpp:156] Memory required for data: 858010656
I0403 19:27:45.986971 24791 layer_factory.hpp:77] Creating layer inception_4a/relu_1x1
I0403 19:27:45.986992 24791 net.cpp:91] Creating Layer inception_4a/relu_1x1
I0403 19:27:45.987013 24791 net.cpp:425] inception_4a/relu_1x1 <- inception_4a/1x1
I0403 19:27:45.987032 24791 net.cpp:386] inception_4a/relu_1x1 -> inception_4a/1x1 (in-place)
I0403 19:27:45.987213 24791 net.cpp:141] Setting up inception_4a/relu_1x1
I0403 19:27:45.987246 24791 net.cpp:148] Top shape: 24 192 14 14 (903168)
I0403 19:27:45.987268 24791 net.cpp:156] Memory required for data: 861623328
I0403 19:27:45.987287 24791 layer_factory.hpp:77] Creating layer inception_4a/3x3_reduce
I0403 19:27:45.987311 24791 net.cpp:91] Creating Layer inception_4a/3x3_reduce
I0403 19:27:45.987332 24791 net.cpp:425] inception_4a/3x3_reduce <- pool3/3x3_s2_pool3/3x3_s2_0_split_1
I0403 19:27:45.987356 24791 net.cpp:399] inception_4a/3x3_reduce -> inception_4a/3x3_reduce
I0403 19:27:45.988637 24791 net.cpp:141] Setting up inception_4a/3x3_reduce
I0403 19:27:45.988669 24791 net.cpp:148] Top shape: 24 96 14 14 (451584)
I0403 19:27:45.988685 24791 net.cpp:156] Memory required for data: 863429664
I0403 19:27:45.988710 24791 layer_factory.hpp:77] Creating layer inception_4a/relu_3x3_reduce
I0403 19:27:45.988736 24791 net.cpp:91] Creating Layer inception_4a/relu_3x3_reduce
I0403 19:27:45.988756 24791 net.cpp:425] inception_4a/relu_3x3_reduce <- inception_4a/3x3_reduce
I0403 19:27:45.988775 24791 net.cpp:386] inception_4a/relu_3x3_reduce -> inception_4a/3x3_reduce (in-place)
I0403 19:27:45.988945 24791 net.cpp:141] Setting up inception_4a/relu_3x3_reduce
I0403 19:27:45.988976 24791 net.cpp:148] Top shape: 24 96 14 14 (451584)
I0403 19:27:45.988994 24791 net.cpp:156] Memory required for data: 865236000
I0403 19:27:45.989011 24791 layer_factory.hpp:77] Creating layer inception_4a/3x3
I0403 19:27:45.989034 24791 net.cpp:91] Creating Layer inception_4a/3x3
I0403 19:27:45.989056 24791 net.cpp:425] inception_4a/3x3 <- inception_4a/3x3_reduce
I0403 19:27:45.989076 24791 net.cpp:399] inception_4a/3x3 -> inception_4a/3x3
I0403 19:27:45.991721 24791 net.cpp:141] Setting up inception_4a/3x3
I0403 19:27:45.991756 24791 net.cpp:148] Top shape: 24 208 14 14 (978432)
I0403 19:27:45.991773 24791 net.cpp:156] Memory required for data: 869149728
I0403 19:27:45.991791 24791 layer_factory.hpp:77] Creating layer inception_4a/relu_3x3
I0403 19:27:45.991811 24791 net.cpp:91] Creating Layer inception_4a/relu_3x3
I0403 19:27:45.991829 24791 net.cpp:425] inception_4a/relu_3x3 <- inception_4a/3x3
I0403 19:27:45.991850 24791 net.cpp:386] inception_4a/relu_3x3 -> inception_4a/3x3 (in-place)
I0403 19:27:45.992125 24791 net.cpp:141] Setting up inception_4a/relu_3x3
I0403 19:27:45.992159 24791 net.cpp:148] Top shape: 24 208 14 14 (978432)
I0403 19:27:45.992178 24791 net.cpp:156] Memory required for data: 873063456
I0403 19:27:45.992194 24791 layer_factory.hpp:77] Creating layer inception_4a/5x5_reduce
I0403 19:27:45.992218 24791 net.cpp:91] Creating Layer inception_4a/5x5_reduce
I0403 19:27:45.992238 24791 net.cpp:425] inception_4a/5x5_reduce <- pool3/3x3_s2_pool3/3x3_s2_0_split_2
I0403 19:27:45.992262 24791 net.cpp:399] inception_4a/5x5_reduce -> inception_4a/5x5_reduce
I0403 19:27:45.993265 24791 net.cpp:141] Setting up inception_4a/5x5_reduce
I0403 19:27:45.993300 24791 net.cpp:148] Top shape: 24 16 14 14 (75264)
I0403 19:27:45.993319 24791 net.cpp:156] Memory required for data: 873364512
I0403 19:27:45.993337 24791 layer_factory.hpp:77] Creating layer inception_4a/relu_5x5_reduce
I0403 19:27:45.993358 24791 net.cpp:91] Creating Layer inception_4a/relu_5x5_reduce
I0403 19:27:45.993376 24791 net.cpp:425] inception_4a/relu_5x5_reduce <- inception_4a/5x5_reduce
I0403 19:27:45.993396 24791 net.cpp:386] inception_4a/relu_5x5_reduce -> inception_4a/5x5_reduce (in-place)
I0403 19:27:45.993571 24791 net.cpp:141] Setting up inception_4a/relu_5x5_reduce
I0403 19:27:45.993599 24791 net.cpp:148] Top shape: 24 16 14 14 (75264)
I0403 19:27:45.993616 24791 net.cpp:156] Memory required for data: 873665568
I0403 19:27:45.993633 24791 layer_factory.hpp:77] Creating layer inception_4a/5x5
I0403 19:27:45.993654 24791 net.cpp:91] Creating Layer inception_4a/5x5
I0403 19:27:45.993672 24791 net.cpp:425] inception_4a/5x5 <- inception_4a/5x5_reduce
I0403 19:27:45.993695 24791 net.cpp:399] inception_4a/5x5 -> inception_4a/5x5
I0403 19:27:45.994760 24791 net.cpp:141] Setting up inception_4a/5x5
I0403 19:27:45.994789 24791 net.cpp:148] Top shape: 24 48 14 14 (225792)
I0403 19:27:45.994807 24791 net.cpp:156] Memory required for data: 874568736
I0403 19:27:45.994825 24791 layer_factory.hpp:77] Creating layer inception_4a/relu_5x5
I0403 19:27:45.994845 24791 net.cpp:91] Creating Layer inception_4a/relu_5x5
I0403 19:27:45.994864 24791 net.cpp:425] inception_4a/relu_5x5 <- inception_4a/5x5
I0403 19:27:45.994884 24791 net.cpp:386] inception_4a/relu_5x5 -> inception_4a/5x5 (in-place)
I0403 19:27:45.995057 24791 net.cpp:141] Setting up inception_4a/relu_5x5
I0403 19:27:45.995088 24791 net.cpp:148] Top shape: 24 48 14 14 (225792)
I0403 19:27:45.995105 24791 net.cpp:156] Memory required for data: 875471904
I0403 19:27:45.995121 24791 layer_factory.hpp:77] Creating layer inception_4a/pool
I0403 19:27:45.995143 24791 net.cpp:91] Creating Layer inception_4a/pool
I0403 19:27:45.995162 24791 net.cpp:425] inception_4a/pool <- pool3/3x3_s2_pool3/3x3_s2_0_split_3
I0403 19:27:45.995184 24791 net.cpp:399] inception_4a/pool -> inception_4a/pool
I0403 19:27:45.995246 24791 net.cpp:141] Setting up inception_4a/pool
I0403 19:27:45.995286 24791 net.cpp:148] Top shape: 24 480 14 14 (2257920)
I0403 19:27:45.995304 24791 net.cpp:156] Memory required for data: 884503584
I0403 19:27:45.995318 24791 layer_factory.hpp:77] Creating layer inception_4a/pool_proj
I0403 19:27:45.995342 24791 net.cpp:91] Creating Layer inception_4a/pool_proj
I0403 19:27:45.995362 24791 net.cpp:425] inception_4a/pool_proj <- inception_4a/pool
I0403 19:27:45.995386 24791 net.cpp:399] inception_4a/pool_proj -> inception_4a/pool_proj
I0403 19:27:45.996510 24791 net.cpp:141] Setting up inception_4a/pool_proj
I0403 19:27:45.996543 24791 net.cpp:148] Top shape: 24 64 14 14 (301056)
I0403 19:27:45.996575 24791 net.cpp:156] Memory required for data: 885707808
I0403 19:27:45.996598 24791 layer_factory.hpp:77] Creating layer inception_4a/relu_pool_proj
I0403 19:27:45.996619 24791 net.cpp:91] Creating Layer inception_4a/relu_pool_proj
I0403 19:27:45.996639 24791 net.cpp:425] inception_4a/relu_pool_proj <- inception_4a/pool_proj
I0403 19:27:45.996657 24791 net.cpp:386] inception_4a/relu_pool_proj -> inception_4a/pool_proj (in-place)
I0403 19:27:45.996928 24791 net.cpp:141] Setting up inception_4a/relu_pool_proj
I0403 19:27:45.996959 24791 net.cpp:148] Top shape: 24 64 14 14 (301056)
I0403 19:27:45.996976 24791 net.cpp:156] Memory required for data: 886912032
I0403 19:27:45.996992 24791 layer_factory.hpp:77] Creating layer inception_4a/output
I0403 19:27:45.997014 24791 net.cpp:91] Creating Layer inception_4a/output
I0403 19:27:45.997031 24791 net.cpp:425] inception_4a/output <- inception_4a/1x1
I0403 19:27:45.997051 24791 net.cpp:425] inception_4a/output <- inception_4a/3x3
I0403 19:27:45.997068 24791 net.cpp:425] inception_4a/output <- inception_4a/5x5
I0403 19:27:45.997087 24791 net.cpp:425] inception_4a/output <- inception_4a/pool_proj
I0403 19:27:45.997105 24791 net.cpp:399] inception_4a/output -> inception_4a/output
I0403 19:27:45.997153 24791 net.cpp:141] Setting up inception_4a/output
I0403 19:27:45.997182 24791 net.cpp:148] Top shape: 24 512 14 14 (2408448)
I0403 19:27:45.997197 24791 net.cpp:156] Memory required for data: 896545824
I0403 19:27:45.997213 24791 layer_factory.hpp:77] Creating layer inception_4a/output_inception_4a/output_0_split
I0403 19:27:45.997232 24791 net.cpp:91] Creating Layer inception_4a/output_inception_4a/output_0_split
I0403 19:27:45.997251 24791 net.cpp:425] inception_4a/output_inception_4a/output_0_split <- inception_4a/output
I0403 19:27:45.997278 24791 net.cpp:399] inception_4a/output_inception_4a/output_0_split -> inception_4a/output_inception_4a/output_0_split_0
I0403 19:27:45.997305 24791 net.cpp:399] inception_4a/output_inception_4a/output_0_split -> inception_4a/output_inception_4a/output_0_split_1
I0403 19:27:45.997326 24791 net.cpp:399] inception_4a/output_inception_4a/output_0_split -> inception_4a/output_inception_4a/output_0_split_2
I0403 19:27:45.997349 24791 net.cpp:399] inception_4a/output_inception_4a/output_0_split -> inception_4a/output_inception_4a/output_0_split_3
I0403 19:27:45.997370 24791 net.cpp:399] inception_4a/output_inception_4a/output_0_split -> inception_4a/output_inception_4a/output_0_split_4
I0403 19:27:45.997467 24791 net.cpp:141] Setting up inception_4a/output_inception_4a/output_0_split
I0403 19:27:45.997498 24791 net.cpp:148] Top shape: 24 512 14 14 (2408448)
I0403 19:27:45.997515 24791 net.cpp:148] Top shape: 24 512 14 14 (2408448)
I0403 19:27:45.997532 24791 net.cpp:148] Top shape: 24 512 14 14 (2408448)
I0403 19:27:45.997548 24791 net.cpp:148] Top shape: 24 512 14 14 (2408448)
I0403 19:27:45.997563 24791 net.cpp:148] Top shape: 24 512 14 14 (2408448)
I0403 19:27:45.997578 24791 net.cpp:156] Memory required for data: 944714784
I0403 19:27:45.997593 24791 layer_factory.hpp:77] Creating layer loss1/ave_pool
I0403 19:27:45.997613 24791 net.cpp:91] Creating Layer loss1/ave_pool
I0403 19:27:45.997632 24791 net.cpp:425] loss1/ave_pool <- inception_4a/output_inception_4a/output_0_split_0
I0403 19:27:45.997654 24791 net.cpp:399] loss1/ave_pool -> loss1/ave_pool
I0403 19:27:45.997862 24791 net.cpp:141] Setting up loss1/ave_pool
I0403 19:27:45.997892 24791 net.cpp:148] Top shape: 24 512 4 4 (196608)
I0403 19:27:45.997907 24791 net.cpp:156] Memory required for data: 945501216
I0403 19:27:45.997925 24791 layer_factory.hpp:77] Creating layer loss1/conv
I0403 19:27:45.997947 24791 net.cpp:91] Creating Layer loss1/conv
I0403 19:27:45.997964 24791 net.cpp:425] loss1/conv <- loss1/ave_pool
I0403 19:27:45.997987 24791 net.cpp:399] loss1/conv -> loss1/conv
I0403 19:27:45.999356 24791 net.cpp:141] Setting up loss1/conv
I0403 19:27:45.999392 24791 net.cpp:148] Top shape: 24 128 4 4 (49152)
I0403 19:27:45.999423 24791 net.cpp:156] Memory required for data: 945697824
I0403 19:27:45.999445 24791 layer_factory.hpp:77] Creating layer loss1/relu_conv
I0403 19:27:45.999467 24791 net.cpp:91] Creating Layer loss1/relu_conv
I0403 19:27:45.999485 24791 net.cpp:425] loss1/relu_conv <- loss1/conv
I0403 19:27:45.999506 24791 net.cpp:386] loss1/relu_conv -> loss1/conv (in-place)
I0403 19:27:45.999774 24791 net.cpp:141] Setting up loss1/relu_conv
I0403 19:27:45.999806 24791 net.cpp:148] Top shape: 24 128 4 4 (49152)
I0403 19:27:45.999825 24791 net.cpp:156] Memory required for data: 945894432
I0403 19:27:45.999841 24791 layer_factory.hpp:77] Creating layer loss1/fc
I0403 19:27:45.999869 24791 net.cpp:91] Creating Layer loss1/fc
I0403 19:27:45.999887 24791 net.cpp:425] loss1/fc <- loss1/conv
I0403 19:27:45.999912 24791 net.cpp:399] loss1/fc -> loss1/fc
I0403 19:27:46.017087 24791 net.cpp:141] Setting up loss1/fc
I0403 19:27:46.017122 24791 net.cpp:148] Top shape: 24 1024 (24576)
I0403 19:27:46.017143 24791 net.cpp:156] Memory required for data: 945992736
I0403 19:27:46.017161 24791 layer_factory.hpp:77] Creating layer loss1/relu_fc
I0403 19:27:46.017182 24791 net.cpp:91] Creating Layer loss1/relu_fc
I0403 19:27:46.017199 24791 net.cpp:425] loss1/relu_fc <- loss1/fc
I0403 19:27:46.017217 24791 net.cpp:386] loss1/relu_fc -> loss1/fc (in-place)
I0403 19:27:46.017400 24791 net.cpp:141] Setting up loss1/relu_fc
I0403 19:27:46.017427 24791 net.cpp:148] Top shape: 24 1024 (24576)
I0403 19:27:46.017444 24791 net.cpp:156] Memory required for data: 946091040
I0403 19:27:46.017459 24791 layer_factory.hpp:77] Creating layer loss1/drop_fc
I0403 19:27:46.017487 24791 net.cpp:91] Creating Layer loss1/drop_fc
I0403 19:27:46.017506 24791 net.cpp:425] loss1/drop_fc <- loss1/fc
I0403 19:27:46.017526 24791 net.cpp:386] loss1/drop_fc -> loss1/fc (in-place)
I0403 19:27:46.017581 24791 net.cpp:141] Setting up loss1/drop_fc
I0403 19:27:46.017608 24791 net.cpp:148] Top shape: 24 1024 (24576)
I0403 19:27:46.017622 24791 net.cpp:156] Memory required for data: 946189344
I0403 19:27:46.017637 24791 layer_factory.hpp:77] Creating layer loss1/classifier_plantvillage
I0403 19:27:46.017658 24791 net.cpp:91] Creating Layer loss1/classifier_plantvillage
I0403 19:27:46.017678 24791 net.cpp:425] loss1/classifier_plantvillage <- loss1/fc
I0403 19:27:46.017698 24791 net.cpp:399] loss1/classifier_plantvillage -> loss1/classifier_plantvillage
I0403 19:27:46.018581 24791 net.cpp:141] Setting up loss1/classifier_plantvillage
I0403 19:27:46.018612 24791 net.cpp:148] Top shape: 24 38 (912)
I0403 19:27:46.018630 24791 net.cpp:156] Memory required for data: 946192992
I0403 19:27:46.018648 24791 layer_factory.hpp:77] Creating layer loss1/classifier_plantvillage_loss1/classifier_plantvillage_0_split
I0403 19:27:46.018669 24791 net.cpp:91] Creating Layer loss1/classifier_plantvillage_loss1/classifier_plantvillage_0_split
I0403 19:27:46.018689 24791 net.cpp:425] loss1/classifier_plantvillage_loss1/classifier_plantvillage_0_split <- loss1/classifier_plantvillage
I0403 19:27:46.018708 24791 net.cpp:399] loss1/classifier_plantvillage_loss1/classifier_plantvillage_0_split -> loss1/classifier_plantvillage_loss1/classifier_plantvillage_0_split_0
I0403 19:27:46.018734 24791 net.cpp:399] loss1/classifier_plantvillage_loss1/classifier_plantvillage_0_split -> loss1/classifier_plantvillage_loss1/classifier_plantvillage_0_split_1
I0403 19:27:46.018757 24791 net.cpp:399] loss1/classifier_plantvillage_loss1/classifier_plantvillage_0_split -> loss1/classifier_plantvillage_loss1/classifier_plantvillage_0_split_2
I0403 19:27:46.018822 24791 net.cpp:141] Setting up loss1/classifier_plantvillage_loss1/classifier_plantvillage_0_split
I0403 19:27:46.018851 24791 net.cpp:148] Top shape: 24 38 (912)
I0403 19:27:46.018867 24791 net.cpp:148] Top shape: 24 38 (912)
I0403 19:27:46.018883 24791 net.cpp:148] Top shape: 24 38 (912)
I0403 19:27:46.018898 24791 net.cpp:156] Memory required for data: 946203936
I0403 19:27:46.018914 24791 layer_factory.hpp:77] Creating layer inception_4b/1x1
I0403 19:27:46.018936 24791 net.cpp:91] Creating Layer inception_4b/1x1
I0403 19:27:46.018970 24791 net.cpp:425] inception_4b/1x1 <- inception_4a/output_inception_4a/output_0_split_1
I0403 19:27:46.018990 24791 net.cpp:399] inception_4b/1x1 -> inception_4b/1x1
I0403 19:27:46.020535 24791 net.cpp:141] Setting up inception_4b/1x1
I0403 19:27:46.020571 24791 net.cpp:148] Top shape: 24 160 14 14 (752640)
I0403 19:27:46.020589 24791 net.cpp:156] Memory required for data: 949214496
I0403 19:27:46.020608 24791 layer_factory.hpp:77] Creating layer inception_4b/relu_1x1
I0403 19:27:46.020627 24791 net.cpp:91] Creating Layer inception_4b/relu_1x1
I0403 19:27:46.020643 24791 net.cpp:425] inception_4b/relu_1x1 <- inception_4b/1x1
I0403 19:27:46.020665 24791 net.cpp:386] inception_4b/relu_1x1 -> inception_4b/1x1 (in-place)
I0403 19:27:46.020838 24791 net.cpp:141] Setting up inception_4b/relu_1x1
I0403 19:27:46.020866 24791 net.cpp:148] Top shape: 24 160 14 14 (752640)
I0403 19:27:46.020882 24791 net.cpp:156] Memory required for data: 952225056
I0403 19:27:46.020898 24791 layer_factory.hpp:77] Creating layer inception_4b/3x3_reduce
I0403 19:27:46.020920 24791 net.cpp:91] Creating Layer inception_4b/3x3_reduce
I0403 19:27:46.020939 24791 net.cpp:425] inception_4b/3x3_reduce <- inception_4a/output_inception_4a/output_0_split_2
I0403 19:27:46.020963 24791 net.cpp:399] inception_4b/3x3_reduce -> inception_4b/3x3_reduce
I0403 19:27:46.022267 24791 net.cpp:141] Setting up inception_4b/3x3_reduce
I0403 19:27:46.022296 24791 net.cpp:148] Top shape: 24 112 14 14 (526848)
I0403 19:27:46.022313 24791 net.cpp:156] Memory required for data: 954332448
I0403 19:27:46.022332 24791 layer_factory.hpp:77] Creating layer inception_4b/relu_3x3_reduce
I0403 19:27:46.022353 24791 net.cpp:91] Creating Layer inception_4b/relu_3x3_reduce
I0403 19:27:46.022372 24791 net.cpp:425] inception_4b/relu_3x3_reduce <- inception_4b/3x3_reduce
I0403 19:27:46.022392 24791 net.cpp:386] inception_4b/relu_3x3_reduce -> inception_4b/3x3_reduce (in-place)
I0403 19:27:46.022657 24791 net.cpp:141] Setting up inception_4b/relu_3x3_reduce
I0403 19:27:46.022688 24791 net.cpp:148] Top shape: 24 112 14 14 (526848)
I0403 19:27:46.022704 24791 net.cpp:156] Memory required for data: 956439840
I0403 19:27:46.022721 24791 layer_factory.hpp:77] Creating layer inception_4b/3x3
I0403 19:27:46.022743 24791 net.cpp:91] Creating Layer inception_4b/3x3
I0403 19:27:46.022763 24791 net.cpp:425] inception_4b/3x3 <- inception_4b/3x3_reduce
I0403 19:27:46.022783 24791 net.cpp:399] inception_4b/3x3 -> inception_4b/3x3
I0403 19:27:46.025652 24791 net.cpp:141] Setting up inception_4b/3x3
I0403 19:27:46.025684 24791 net.cpp:148] Top shape: 24 224 14 14 (1053696)
I0403 19:27:46.025703 24791 net.cpp:156] Memory required for data: 960654624
I0403 19:27:46.025723 24791 layer_factory.hpp:77] Creating layer inception_4b/relu_3x3
I0403 19:27:46.025744 24791 net.cpp:91] Creating Layer inception_4b/relu_3x3
I0403 19:27:46.025763 24791 net.cpp:425] inception_4b/relu_3x3 <- inception_4b/3x3
I0403 19:27:46.025781 24791 net.cpp:386] inception_4b/relu_3x3 -> inception_4b/3x3 (in-place)
I0403 19:27:46.025985 24791 net.cpp:141] Setting up inception_4b/relu_3x3
I0403 19:27:46.026013 24791 net.cpp:148] Top shape: 24 224 14 14 (1053696)
I0403 19:27:46.026036 24791 net.cpp:156] Memory required for data: 964869408
I0403 19:27:46.026052 24791 layer_factory.hpp:77] Creating layer inception_4b/5x5_reduce
I0403 19:27:46.026077 24791 net.cpp:91] Creating Layer inception_4b/5x5_reduce
I0403 19:27:46.026098 24791 net.cpp:425] inception_4b/5x5_reduce <- inception_4a/output_inception_4a/output_0_split_3
I0403 19:27:46.026121 24791 net.cpp:399] inception_4b/5x5_reduce -> inception_4b/5x5_reduce
I0403 19:27:46.027215 24791 net.cpp:141] Setting up inception_4b/5x5_reduce
I0403 19:27:46.027245 24791 net.cpp:148] Top shape: 24 24 14 14 (112896)
I0403 19:27:46.027269 24791 net.cpp:156] Memory required for data: 965320992
I0403 19:27:46.027288 24791 layer_factory.hpp:77] Creating layer inception_4b/relu_5x5_reduce
I0403 19:27:46.027308 24791 net.cpp:91] Creating Layer inception_4b/relu_5x5_reduce
I0403 19:27:46.027341 24791 net.cpp:425] inception_4b/relu_5x5_reduce <- inception_4b/5x5_reduce
I0403 19:27:46.027365 24791 net.cpp:386] inception_4b/relu_5x5_reduce -> inception_4b/5x5_reduce (in-place)
I0403 19:27:46.027541 24791 net.cpp:141] Setting up inception_4b/relu_5x5_reduce
I0403 19:27:46.027570 24791 net.cpp:148] Top shape: 24 24 14 14 (112896)
I0403 19:27:46.027583 24791 net.cpp:156] Memory required for data: 965772576
I0403 19:27:46.027600 24791 layer_factory.hpp:77] Creating layer inception_4b/5x5
I0403 19:27:46.027623 24791 net.cpp:91] Creating Layer inception_4b/5x5
I0403 19:27:46.027642 24791 net.cpp:425] inception_4b/5x5 <- inception_4b/5x5_reduce
I0403 19:27:46.027664 24791 net.cpp:399] inception_4b/5x5 -> inception_4b/5x5
I0403 19:27:46.028825 24791 net.cpp:141] Setting up inception_4b/5x5
I0403 19:27:46.028858 24791 net.cpp:148] Top shape: 24 64 14 14 (301056)
I0403 19:27:46.028875 24791 net.cpp:156] Memory required for data: 966976800
I0403 19:27:46.028895 24791 layer_factory.hpp:77] Creating layer inception_4b/relu_5x5
I0403 19:27:46.028913 24791 net.cpp:91] Creating Layer inception_4b/relu_5x5
I0403 19:27:46.028930 24791 net.cpp:425] inception_4b/relu_5x5 <- inception_4b/5x5
I0403 19:27:46.028950 24791 net.cpp:386] inception_4b/relu_5x5 -> inception_4b/5x5 (in-place)
I0403 19:27:46.029218 24791 net.cpp:141] Setting up inception_4b/relu_5x5
I0403 19:27:46.029252 24791 net.cpp:148] Top shape: 24 64 14 14 (301056)
I0403 19:27:46.029276 24791 net.cpp:156] Memory required for data: 968181024
I0403 19:27:46.029294 24791 layer_factory.hpp:77] Creating layer inception_4b/pool
I0403 19:27:46.029314 24791 net.cpp:91] Creating Layer inception_4b/pool
I0403 19:27:46.029330 24791 net.cpp:425] inception_4b/pool <- inception_4a/output_inception_4a/output_0_split_4
I0403 19:27:46.029351 24791 net.cpp:399] inception_4b/pool -> inception_4b/pool
I0403 19:27:46.029417 24791 net.cpp:141] Setting up inception_4b/pool
I0403 19:27:46.029446 24791 net.cpp:148] Top shape: 24 512 14 14 (2408448)
I0403 19:27:46.029464 24791 net.cpp:156] Memory required for data: 977814816
I0403 19:27:46.029479 24791 layer_factory.hpp:77] Creating layer inception_4b/pool_proj
I0403 19:27:46.029501 24791 net.cpp:91] Creating Layer inception_4b/pool_proj
I0403 19:27:46.029520 24791 net.cpp:425] inception_4b/pool_proj <- inception_4b/pool
I0403 19:27:46.029538 24791 net.cpp:399] inception_4b/pool_proj -> inception_4b/pool_proj
I0403 19:27:46.030702 24791 net.cpp:141] Setting up inception_4b/pool_proj
I0403 19:27:46.030732 24791 net.cpp:148] Top shape: 24 64 14 14 (301056)
I0403 19:27:46.030750 24791 net.cpp:156] Memory required for data: 979019040
I0403 19:27:46.030768 24791 layer_factory.hpp:77] Creating layer inception_4b/relu_pool_proj
I0403 19:27:46.030786 24791 net.cpp:91] Creating Layer inception_4b/relu_pool_proj
I0403 19:27:46.030807 24791 net.cpp:425] inception_4b/relu_pool_proj <- inception_4b/pool_proj
I0403 19:27:46.030825 24791 net.cpp:386] inception_4b/relu_pool_proj -> inception_4b/pool_proj (in-place)
I0403 19:27:46.030997 24791 net.cpp:141] Setting up inception_4b/relu_pool_proj
I0403 19:27:46.031024 24791 net.cpp:148] Top shape: 24 64 14 14 (301056)
I0403 19:27:46.031043 24791 net.cpp:156] Memory required for data: 980223264
I0403 19:27:46.031059 24791 layer_factory.hpp:77] Creating layer inception_4b/output
I0403 19:27:46.031081 24791 net.cpp:91] Creating Layer inception_4b/output
I0403 19:27:46.031101 24791 net.cpp:425] inception_4b/output <- inception_4b/1x1
I0403 19:27:46.031119 24791 net.cpp:425] inception_4b/output <- inception_4b/3x3
I0403 19:27:46.031137 24791 net.cpp:425] inception_4b/output <- inception_4b/5x5
I0403 19:27:46.031153 24791 net.cpp:425] inception_4b/output <- inception_4b/pool_proj
I0403 19:27:46.031172 24791 net.cpp:399] inception_4b/output -> inception_4b/output
I0403 19:27:46.031218 24791 net.cpp:141] Setting up inception_4b/output
I0403 19:27:46.031244 24791 net.cpp:148] Top shape: 24 512 14 14 (2408448)
I0403 19:27:46.031281 24791 net.cpp:156] Memory required for data: 989857056
I0403 19:27:46.031313 24791 layer_factory.hpp:77] Creating layer inception_4b/output_inception_4b/output_0_split
I0403 19:27:46.031334 24791 net.cpp:91] Creating Layer inception_4b/output_inception_4b/output_0_split
I0403 19:27:46.031349 24791 net.cpp:425] inception_4b/output_inception_4b/output_0_split <- inception_4b/output
I0403 19:27:46.031369 24791 net.cpp:399] inception_4b/output_inception_4b/output_0_split -> inception_4b/output_inception_4b/output_0_split_0
I0403 19:27:46.031394 24791 net.cpp:399] inception_4b/output_inception_4b/output_0_split -> inception_4b/output_inception_4b/output_0_split_1
I0403 19:27:46.031416 24791 net.cpp:399] inception_4b/output_inception_4b/output_0_split -> inception_4b/output_inception_4b/output_0_split_2
I0403 19:27:46.031440 24791 net.cpp:399] inception_4b/output_inception_4b/output_0_split -> inception_4b/output_inception_4b/output_0_split_3
I0403 19:27:46.031527 24791 net.cpp:141] Setting up inception_4b/output_inception_4b/output_0_split
I0403 19:27:46.031555 24791 net.cpp:148] Top shape: 24 512 14 14 (2408448)
I0403 19:27:46.031576 24791 net.cpp:148] Top shape: 24 512 14 14 (2408448)
I0403 19:27:46.031592 24791 net.cpp:148] Top shape: 24 512 14 14 (2408448)
I0403 19:27:46.031610 24791 net.cpp:148] Top shape: 24 512 14 14 (2408448)
I0403 19:27:46.031623 24791 net.cpp:156] Memory required for data: 1028392224
I0403 19:27:46.031641 24791 layer_factory.hpp:77] Creating layer inception_4c/1x1
I0403 19:27:46.031663 24791 net.cpp:91] Creating Layer inception_4c/1x1
I0403 19:27:46.031682 24791 net.cpp:425] inception_4c/1x1 <- inception_4b/output_inception_4b/output_0_split_0
I0403 19:27:46.031702 24791 net.cpp:399] inception_4c/1x1 -> inception_4c/1x1
I0403 19:27:46.033094 24791 net.cpp:141] Setting up inception_4c/1x1
I0403 19:27:46.033125 24791 net.cpp:148] Top shape: 24 128 14 14 (602112)
I0403 19:27:46.033144 24791 net.cpp:156] Memory required for data: 1030800672
I0403 19:27:46.033164 24791 layer_factory.hpp:77] Creating layer inception_4c/relu_1x1
I0403 19:27:46.033187 24791 net.cpp:91] Creating Layer inception_4c/relu_1x1
I0403 19:27:46.033207 24791 net.cpp:425] inception_4c/relu_1x1 <- inception_4c/1x1
I0403 19:27:46.033226 24791 net.cpp:386] inception_4c/relu_1x1 -> inception_4c/1x1 (in-place)
I0403 19:27:46.033418 24791 net.cpp:141] Setting up inception_4c/relu_1x1
I0403 19:27:46.033449 24791 net.cpp:148] Top shape: 24 128 14 14 (602112)
I0403 19:27:46.033468 24791 net.cpp:156] Memory required for data: 1033209120
I0403 19:27:46.033484 24791 layer_factory.hpp:77] Creating layer inception_4c/3x3_reduce
I0403 19:27:46.033506 24791 net.cpp:91] Creating Layer inception_4c/3x3_reduce
I0403 19:27:46.033527 24791 net.cpp:425] inception_4c/3x3_reduce <- inception_4b/output_inception_4b/output_0_split_1
I0403 19:27:46.033550 24791 net.cpp:399] inception_4c/3x3_reduce -> inception_4c/3x3_reduce
I0403 19:27:46.035485 24791 net.cpp:141] Setting up inception_4c/3x3_reduce
I0403 19:27:46.035518 24791 net.cpp:148] Top shape: 24 128 14 14 (602112)
I0403 19:27:46.035537 24791 net.cpp:156] Memory required for data: 1035617568
I0403 19:27:46.035555 24791 layer_factory.hpp:77] Creating layer inception_4c/relu_3x3_reduce
I0403 19:27:46.035575 24791 net.cpp:91] Creating Layer inception_4c/relu_3x3_reduce
I0403 19:27:46.035593 24791 net.cpp:425] inception_4c/relu_3x3_reduce <- inception_4c/3x3_reduce
I0403 19:27:46.035616 24791 net.cpp:386] inception_4c/relu_3x3_reduce -> inception_4c/3x3_reduce (in-place)
I0403 19:27:46.035895 24791 net.cpp:141] Setting up inception_4c/relu_3x3_reduce
I0403 19:27:46.035925 24791 net.cpp:148] Top shape: 24 128 14 14 (602112)
I0403 19:27:46.035943 24791 net.cpp:156] Memory required for data: 1038026016
I0403 19:27:46.035959 24791 layer_factory.hpp:77] Creating layer inception_4c/3x3
I0403 19:27:46.035984 24791 net.cpp:91] Creating Layer inception_4c/3x3
I0403 19:27:46.036003 24791 net.cpp:425] inception_4c/3x3 <- inception_4c/3x3_reduce
I0403 19:27:46.036026 24791 net.cpp:399] inception_4c/3x3 -> inception_4c/3x3
I0403 19:27:46.039540 24791 net.cpp:141] Setting up inception_4c/3x3
I0403 19:27:46.039583 24791 net.cpp:148] Top shape: 24 256 14 14 (1204224)
I0403 19:27:46.039603 24791 net.cpp:156] Memory required for data: 1042842912
I0403 19:27:46.039636 24791 layer_factory.hpp:77] Creating layer inception_4c/relu_3x3
I0403 19:27:46.039659 24791 net.cpp:91] Creating Layer inception_4c/relu_3x3
I0403 19:27:46.039679 24791 net.cpp:425] inception_4c/relu_3x3 <- inception_4c/3x3
I0403 19:27:46.039700 24791 net.cpp:386] inception_4c/relu_3x3 -> inception_4c/3x3 (in-place)
I0403 19:27:46.039878 24791 net.cpp:141] Setting up inception_4c/relu_3x3
I0403 19:27:46.039906 24791 net.cpp:148] Top shape: 24 256 14 14 (1204224)
I0403 19:27:46.039922 24791 net.cpp:156] Memory required for data: 1047659808
I0403 19:27:46.039939 24791 layer_factory.hpp:77] Creating layer inception_4c/5x5_reduce
I0403 19:27:46.039964 24791 net.cpp:91] Creating Layer inception_4c/5x5_reduce
I0403 19:27:46.039983 24791 net.cpp:425] inception_4c/5x5_reduce <- inception_4b/output_inception_4b/output_0_split_2
I0403 19:27:46.040004 24791 net.cpp:399] inception_4c/5x5_reduce -> inception_4c/5x5_reduce
I0403 19:27:46.041064 24791 net.cpp:141] Setting up inception_4c/5x5_reduce
I0403 19:27:46.041093 24791 net.cpp:148] Top shape: 24 24 14 14 (112896)
I0403 19:27:46.041112 24791 net.cpp:156] Memory required for data: 1048111392
I0403 19:27:46.041133 24791 layer_factory.hpp:77] Creating layer inception_4c/relu_5x5_reduce
I0403 19:27:46.041153 24791 net.cpp:91] Creating Layer inception_4c/relu_5x5_reduce
I0403 19:27:46.041172 24791 net.cpp:425] inception_4c/relu_5x5_reduce <- inception_4c/5x5_reduce
I0403 19:27:46.041193 24791 net.cpp:386] inception_4c/relu_5x5_reduce -> inception_4c/5x5_reduce (in-place)
I0403 19:27:46.041380 24791 net.cpp:141] Setting up inception_4c/relu_5x5_reduce
I0403 19:27:46.041409 24791 net.cpp:148] Top shape: 24 24 14 14 (112896)
I0403 19:27:46.041426 24791 net.cpp:156] Memory required for data: 1048562976
I0403 19:27:46.041443 24791 layer_factory.hpp:77] Creating layer inception_4c/5x5
I0403 19:27:46.041467 24791 net.cpp:91] Creating Layer inception_4c/5x5
I0403 19:27:46.041487 24791 net.cpp:425] inception_4c/5x5 <- inception_4c/5x5_reduce
I0403 19:27:46.041509 24791 net.cpp:399] inception_4c/5x5 -> inception_4c/5x5
I0403 19:27:46.042719 24791 net.cpp:141] Setting up inception_4c/5x5
I0403 19:27:46.042750 24791 net.cpp:148] Top shape: 24 64 14 14 (301056)
I0403 19:27:46.042767 24791 net.cpp:156] Memory required for data: 1049767200
I0403 19:27:46.042788 24791 layer_factory.hpp:77] Creating layer inception_4c/relu_5x5
I0403 19:27:46.042814 24791 net.cpp:91] Creating Layer inception_4c/relu_5x5
I0403 19:27:46.042834 24791 net.cpp:425] inception_4c/relu_5x5 <- inception_4c/5x5
I0403 19:27:46.042853 24791 net.cpp:386] inception_4c/relu_5x5 -> inception_4c/5x5 (in-place)
I0403 19:27:46.043133 24791 net.cpp:141] Setting up inception_4c/relu_5x5
I0403 19:27:46.043162 24791 net.cpp:148] Top shape: 24 64 14 14 (301056)
I0403 19:27:46.043180 24791 net.cpp:156] Memory required for data: 1050971424
I0403 19:27:46.043195 24791 layer_factory.hpp:77] Creating layer inception_4c/pool
I0403 19:27:46.043215 24791 net.cpp:91] Creating Layer inception_4c/pool
I0403 19:27:46.043234 24791 net.cpp:425] inception_4c/pool <- inception_4b/output_inception_4b/output_0_split_3
I0403 19:27:46.043258 24791 net.cpp:399] inception_4c/pool -> inception_4c/pool
I0403 19:27:46.043331 24791 net.cpp:141] Setting up inception_4c/pool
I0403 19:27:46.043361 24791 net.cpp:148] Top shape: 24 512 14 14 (2408448)
I0403 19:27:46.043377 24791 net.cpp:156] Memory required for data: 1060605216
I0403 19:27:46.043392 24791 layer_factory.hpp:77] Creating layer inception_4c/pool_proj
I0403 19:27:46.043416 24791 net.cpp:91] Creating Layer inception_4c/pool_proj
I0403 19:27:46.043434 24791 net.cpp:425] inception_4c/pool_proj <- inception_4c/pool
I0403 19:27:46.043458 24791 net.cpp:399] inception_4c/pool_proj -> inception_4c/pool_proj
I0403 19:27:46.044653 24791 net.cpp:141] Setting up inception_4c/pool_proj
I0403 19:27:46.044687 24791 net.cpp:148] Top shape: 24 64 14 14 (301056)
I0403 19:27:46.044719 24791 net.cpp:156] Memory required for data: 1061809440
I0403 19:27:46.044741 24791 layer_factory.hpp:77] Creating layer inception_4c/relu_pool_proj
I0403 19:27:46.044759 24791 net.cpp:91] Creating Layer inception_4c/relu_pool_proj
I0403 19:27:46.044778 24791 net.cpp:425] inception_4c/relu_pool_proj <- inception_4c/pool_proj
I0403 19:27:46.044800 24791 net.cpp:386] inception_4c/relu_pool_proj -> inception_4c/pool_proj (in-place)
I0403 19:27:46.044978 24791 net.cpp:141] Setting up inception_4c/relu_pool_proj
I0403 19:27:46.045006 24791 net.cpp:148] Top shape: 24 64 14 14 (301056)
I0403 19:27:46.045023 24791 net.cpp:156] Memory required for data: 1063013664
I0403 19:27:46.045038 24791 layer_factory.hpp:77] Creating layer inception_4c/output
I0403 19:27:46.045056 24791 net.cpp:91] Creating Layer inception_4c/output
I0403 19:27:46.045074 24791 net.cpp:425] inception_4c/output <- inception_4c/1x1
I0403 19:27:46.045094 24791 net.cpp:425] inception_4c/output <- inception_4c/3x3
I0403 19:27:46.045112 24791 net.cpp:425] inception_4c/output <- inception_4c/5x5
I0403 19:27:46.045130 24791 net.cpp:425] inception_4c/output <- inception_4c/pool_proj
I0403 19:27:46.045150 24791 net.cpp:399] inception_4c/output -> inception_4c/output
I0403 19:27:46.045199 24791 net.cpp:141] Setting up inception_4c/output
I0403 19:27:46.045228 24791 net.cpp:148] Top shape: 24 512 14 14 (2408448)
I0403 19:27:46.045244 24791 net.cpp:156] Memory required for data: 1072647456
I0403 19:27:46.045263 24791 layer_factory.hpp:77] Creating layer inception_4c/output_inception_4c/output_0_split
I0403 19:27:46.045280 24791 net.cpp:91] Creating Layer inception_4c/output_inception_4c/output_0_split
I0403 19:27:46.045297 24791 net.cpp:425] inception_4c/output_inception_4c/output_0_split <- inception_4c/output
I0403 19:27:46.045320 24791 net.cpp:399] inception_4c/output_inception_4c/output_0_split -> inception_4c/output_inception_4c/output_0_split_0
I0403 19:27:46.045342 24791 net.cpp:399] inception_4c/output_inception_4c/output_0_split -> inception_4c/output_inception_4c/output_0_split_1
I0403 19:27:46.045366 24791 net.cpp:399] inception_4c/output_inception_4c/output_0_split -> inception_4c/output_inception_4c/output_0_split_2
I0403 19:27:46.045388 24791 net.cpp:399] inception_4c/output_inception_4c/output_0_split -> inception_4c/output_inception_4c/output_0_split_3
I0403 19:27:46.045476 24791 net.cpp:141] Setting up inception_4c/output_inception_4c/output_0_split
I0403 19:27:46.045507 24791 net.cpp:148] Top shape: 24 512 14 14 (2408448)
I0403 19:27:46.045526 24791 net.cpp:148] Top shape: 24 512 14 14 (2408448)
I0403 19:27:46.045544 24791 net.cpp:148] Top shape: 24 512 14 14 (2408448)
I0403 19:27:46.045562 24791 net.cpp:148] Top shape: 24 512 14 14 (2408448)
I0403 19:27:46.045577 24791 net.cpp:156] Memory required for data: 1111182624
I0403 19:27:46.045593 24791 layer_factory.hpp:77] Creating layer inception_4d/1x1
I0403 19:27:46.045616 24791 net.cpp:91] Creating Layer inception_4d/1x1
I0403 19:27:46.045635 24791 net.cpp:425] inception_4d/1x1 <- inception_4c/output_inception_4c/output_0_split_0
I0403 19:27:46.045656 24791 net.cpp:399] inception_4d/1x1 -> inception_4d/1x1
I0403 19:27:46.046991 24791 net.cpp:141] Setting up inception_4d/1x1
I0403 19:27:46.047025 24791 net.cpp:148] Top shape: 24 112 14 14 (526848)
I0403 19:27:46.047045 24791 net.cpp:156] Memory required for data: 1113290016
I0403 19:27:46.047065 24791 layer_factory.hpp:77] Creating layer inception_4d/relu_1x1
I0403 19:27:46.047085 24791 net.cpp:91] Creating Layer inception_4d/relu_1x1
I0403 19:27:46.047103 24791 net.cpp:425] inception_4d/relu_1x1 <- inception_4d/1x1
I0403 19:27:46.047127 24791 net.cpp:386] inception_4d/relu_1x1 -> inception_4d/1x1 (in-place)
I0403 19:27:46.047314 24791 net.cpp:141] Setting up inception_4d/relu_1x1
I0403 19:27:46.047346 24791 net.cpp:148] Top shape: 24 112 14 14 (526848)
I0403 19:27:46.047363 24791 net.cpp:156] Memory required for data: 1115397408
I0403 19:27:46.047377 24791 layer_factory.hpp:77] Creating layer inception_4d/3x3_reduce
I0403 19:27:46.047415 24791 net.cpp:91] Creating Layer inception_4d/3x3_reduce
I0403 19:27:46.047437 24791 net.cpp:425] inception_4d/3x3_reduce <- inception_4c/output_inception_4c/output_0_split_1
I0403 19:27:46.047462 24791 net.cpp:399] inception_4d/3x3_reduce -> inception_4d/3x3_reduce
I0403 19:27:46.048941 24791 net.cpp:141] Setting up inception_4d/3x3_reduce
I0403 19:27:46.048974 24791 net.cpp:148] Top shape: 24 144 14 14 (677376)
I0403 19:27:46.048992 24791 net.cpp:156] Memory required for data: 1118106912
I0403 19:27:46.049012 24791 layer_factory.hpp:77] Creating layer inception_4d/relu_3x3_reduce
I0403 19:27:46.049036 24791 net.cpp:91] Creating Layer inception_4d/relu_3x3_reduce
I0403 19:27:46.049057 24791 net.cpp:425] inception_4d/relu_3x3_reduce <- inception_4d/3x3_reduce
I0403 19:27:46.049075 24791 net.cpp:386] inception_4d/relu_3x3_reduce -> inception_4d/3x3_reduce (in-place)
I0403 19:27:46.049367 24791 net.cpp:141] Setting up inception_4d/relu_3x3_reduce
I0403 19:27:46.049409 24791 net.cpp:148] Top shape: 24 144 14 14 (677376)
I0403 19:27:46.049427 24791 net.cpp:156] Memory required for data: 1120816416
I0403 19:27:46.049442 24791 layer_factory.hpp:77] Creating layer inception_4d/3x3
I0403 19:27:46.049463 24791 net.cpp:91] Creating Layer inception_4d/3x3
I0403 19:27:46.049481 24791 net.cpp:425] inception_4d/3x3 <- inception_4d/3x3_reduce
I0403 19:27:46.049504 24791 net.cpp:399] inception_4d/3x3 -> inception_4d/3x3
I0403 19:27:46.053622 24791 net.cpp:141] Setting up inception_4d/3x3
I0403 19:27:46.053652 24791 net.cpp:148] Top shape: 24 288 14 14 (1354752)
I0403 19:27:46.053669 24791 net.cpp:156] Memory required for data: 1126235424
I0403 19:27:46.053689 24791 layer_factory.hpp:77] Creating layer inception_4d/relu_3x3
I0403 19:27:46.053707 24791 net.cpp:91] Creating Layer inception_4d/relu_3x3
I0403 19:27:46.053725 24791 net.cpp:425] inception_4d/relu_3x3 <- inception_4d/3x3
I0403 19:27:46.053743 24791 net.cpp:386] inception_4d/relu_3x3 -> inception_4d/3x3 (in-place)
I0403 19:27:46.053923 24791 net.cpp:141] Setting up inception_4d/relu_3x3
I0403 19:27:46.053951 24791 net.cpp:148] Top shape: 24 288 14 14 (1354752)
I0403 19:27:46.053967 24791 net.cpp:156] Memory required for data: 1131654432
I0403 19:27:46.053982 24791 layer_factory.hpp:77] Creating layer inception_4d/5x5_reduce
I0403 19:27:46.054004 24791 net.cpp:91] Creating Layer inception_4d/5x5_reduce
I0403 19:27:46.054023 24791 net.cpp:425] inception_4d/5x5_reduce <- inception_4c/output_inception_4c/output_0_split_2
I0403 19:27:46.054049 24791 net.cpp:399] inception_4d/5x5_reduce -> inception_4d/5x5_reduce
I0403 19:27:46.055150 24791 net.cpp:141] Setting up inception_4d/5x5_reduce
I0403 19:27:46.055184 24791 net.cpp:148] Top shape: 24 32 14 14 (150528)
I0403 19:27:46.055204 24791 net.cpp:156] Memory required for data: 1132256544
I0403 19:27:46.055223 24791 layer_factory.hpp:77] Creating layer inception_4d/relu_5x5_reduce
I0403 19:27:46.055243 24791 net.cpp:91] Creating Layer inception_4d/relu_5x5_reduce
I0403 19:27:46.055268 24791 net.cpp:425] inception_4d/relu_5x5_reduce <- inception_4d/5x5_reduce
I0403 19:27:46.055289 24791 net.cpp:386] inception_4d/relu_5x5_reduce -> inception_4d/5x5_reduce (in-place)
I0403 19:27:46.055469 24791 net.cpp:141] Setting up inception_4d/relu_5x5_reduce
I0403 19:27:46.055500 24791 net.cpp:148] Top shape: 24 32 14 14 (150528)
I0403 19:27:46.055516 24791 net.cpp:156] Memory required for data: 1132858656
I0403 19:27:46.055532 24791 layer_factory.hpp:77] Creating layer inception_4d/5x5
I0403 19:27:46.055554 24791 net.cpp:91] Creating Layer inception_4d/5x5
I0403 19:27:46.055573 24791 net.cpp:425] inception_4d/5x5 <- inception_4d/5x5_reduce
I0403 19:27:46.055595 24791 net.cpp:399] inception_4d/5x5 -> inception_4d/5x5
I0403 19:27:46.056977 24791 net.cpp:141] Setting up inception_4d/5x5
I0403 19:27:46.057008 24791 net.cpp:148] Top shape: 24 64 14 14 (301056)
I0403 19:27:46.057024 24791 net.cpp:156] Memory required for data: 1134062880
I0403 19:27:46.057044 24791 layer_factory.hpp:77] Creating layer inception_4d/relu_5x5
I0403 19:27:46.057081 24791 net.cpp:91] Creating Layer inception_4d/relu_5x5
I0403 19:27:46.057102 24791 net.cpp:425] inception_4d/relu_5x5 <- inception_4d/5x5
I0403 19:27:46.057119 24791 net.cpp:386] inception_4d/relu_5x5 -> inception_4d/5x5 (in-place)
I0403 19:27:46.057410 24791 net.cpp:141] Setting up inception_4d/relu_5x5
I0403 19:27:46.057438 24791 net.cpp:148] Top shape: 24 64 14 14 (301056)
I0403 19:27:46.057456 24791 net.cpp:156] Memory required for data: 1135267104
I0403 19:27:46.057472 24791 layer_factory.hpp:77] Creating layer inception_4d/pool
I0403 19:27:46.057488 24791 net.cpp:91] Creating Layer inception_4d/pool
I0403 19:27:46.057504 24791 net.cpp:425] inception_4d/pool <- inception_4c/output_inception_4c/output_0_split_3
I0403 19:27:46.057526 24791 net.cpp:399] inception_4d/pool -> inception_4d/pool
I0403 19:27:46.057593 24791 net.cpp:141] Setting up inception_4d/pool
I0403 19:27:46.057622 24791 net.cpp:148] Top shape: 24 512 14 14 (2408448)
I0403 19:27:46.057638 24791 net.cpp:156] Memory required for data: 1144900896
I0403 19:27:46.057653 24791 layer_factory.hpp:77] Creating layer inception_4d/pool_proj
I0403 19:27:46.057678 24791 net.cpp:91] Creating Layer inception_4d/pool_proj
I0403 19:27:46.057698 24791 net.cpp:425] inception_4d/pool_proj <- inception_4d/pool
I0403 19:27:46.057718 24791 net.cpp:399] inception_4d/pool_proj -> inception_4d/pool_proj
I0403 19:27:46.059418 24791 net.cpp:141] Setting up inception_4d/pool_proj
I0403 19:27:46.059454 24791 net.cpp:148] Top shape: 24 64 14 14 (301056)
I0403 19:27:46.059473 24791 net.cpp:156] Memory required for data: 1146105120
I0403 19:27:46.059492 24791 layer_factory.hpp:77] Creating layer inception_4d/relu_pool_proj
I0403 19:27:46.059509 24791 net.cpp:91] Creating Layer inception_4d/relu_pool_proj
I0403 19:27:46.059527 24791 net.cpp:425] inception_4d/relu_pool_proj <- inception_4d/pool_proj
I0403 19:27:46.059545 24791 net.cpp:386] inception_4d/relu_pool_proj -> inception_4d/pool_proj (in-place)
I0403 19:27:46.059727 24791 net.cpp:141] Setting up inception_4d/relu_pool_proj
I0403 19:27:46.059754 24791 net.cpp:148] Top shape: 24 64 14 14 (301056)
I0403 19:27:46.059772 24791 net.cpp:156] Memory required for data: 1147309344
I0403 19:27:46.059787 24791 layer_factory.hpp:77] Creating layer inception_4d/output
I0403 19:27:46.059803 24791 net.cpp:91] Creating Layer inception_4d/output
I0403 19:27:46.059819 24791 net.cpp:425] inception_4d/output <- inception_4d/1x1
I0403 19:27:46.059839 24791 net.cpp:425] inception_4d/output <- inception_4d/3x3
I0403 19:27:46.059856 24791 net.cpp:425] inception_4d/output <- inception_4d/5x5
I0403 19:27:46.059875 24791 net.cpp:425] inception_4d/output <- inception_4d/pool_proj
I0403 19:27:46.059896 24791 net.cpp:399] inception_4d/output -> inception_4d/output
I0403 19:27:46.059944 24791 net.cpp:141] Setting up inception_4d/output
I0403 19:27:46.059973 24791 net.cpp:148] Top shape: 24 528 14 14 (2483712)
I0403 19:27:46.059990 24791 net.cpp:156] Memory required for data: 1157244192
I0403 19:27:46.060006 24791 layer_factory.hpp:77] Creating layer inception_4d/output_inception_4d/output_0_split
I0403 19:27:46.060024 24791 net.cpp:91] Creating Layer inception_4d/output_inception_4d/output_0_split
I0403 19:27:46.060040 24791 net.cpp:425] inception_4d/output_inception_4d/output_0_split <- inception_4d/output
I0403 19:27:46.060061 24791 net.cpp:399] inception_4d/output_inception_4d/output_0_split -> inception_4d/output_inception_4d/output_0_split_0
I0403 19:27:46.060084 24791 net.cpp:399] inception_4d/output_inception_4d/output_0_split -> inception_4d/output_inception_4d/output_0_split_1
I0403 19:27:46.060107 24791 net.cpp:399] inception_4d/output_inception_4d/output_0_split -> inception_4d/output_inception_4d/output_0_split_2
I0403 19:27:46.060130 24791 net.cpp:399] inception_4d/output_inception_4d/output_0_split -> inception_4d/output_inception_4d/output_0_split_3
I0403 19:27:46.060153 24791 net.cpp:399] inception_4d/output_inception_4d/output_0_split -> inception_4d/output_inception_4d/output_0_split_4
I0403 19:27:46.060253 24791 net.cpp:141] Setting up inception_4d/output_inception_4d/output_0_split
I0403 19:27:46.060293 24791 net.cpp:148] Top shape: 24 528 14 14 (2483712)
I0403 19:27:46.060312 24791 net.cpp:148] Top shape: 24 528 14 14 (2483712)
I0403 19:27:46.060328 24791 net.cpp:148] Top shape: 24 528 14 14 (2483712)
I0403 19:27:46.060344 24791 net.cpp:148] Top shape: 24 528 14 14 (2483712)
I0403 19:27:46.060361 24791 net.cpp:148] Top shape: 24 528 14 14 (2483712)
I0403 19:27:46.060376 24791 net.cpp:156] Memory required for data: 1206918432
I0403 19:27:46.060391 24791 layer_factory.hpp:77] Creating layer loss2/ave_pool
I0403 19:27:46.060412 24791 net.cpp:91] Creating Layer loss2/ave_pool
I0403 19:27:46.060430 24791 net.cpp:425] loss2/ave_pool <- inception_4d/output_inception_4d/output_0_split_0
I0403 19:27:46.060448 24791 net.cpp:399] loss2/ave_pool -> loss2/ave_pool
I0403 19:27:46.060748 24791 net.cpp:141] Setting up loss2/ave_pool
I0403 19:27:46.060780 24791 net.cpp:148] Top shape: 24 528 4 4 (202752)
I0403 19:27:46.060797 24791 net.cpp:156] Memory required for data: 1207729440
I0403 19:27:46.060812 24791 layer_factory.hpp:77] Creating layer loss2/conv
I0403 19:27:46.060834 24791 net.cpp:91] Creating Layer loss2/conv
I0403 19:27:46.060853 24791 net.cpp:425] loss2/conv <- loss2/ave_pool
I0403 19:27:46.060875 24791 net.cpp:399] loss2/conv -> loss2/conv
I0403 19:27:46.062724 24791 net.cpp:141] Setting up loss2/conv
I0403 19:27:46.062754 24791 net.cpp:148] Top shape: 24 128 4 4 (49152)
I0403 19:27:46.062770 24791 net.cpp:156] Memory required for data: 1207926048
I0403 19:27:46.062789 24791 layer_factory.hpp:77] Creating layer loss2/relu_conv
I0403 19:27:46.062811 24791 net.cpp:91] Creating Layer loss2/relu_conv
I0403 19:27:46.062831 24791 net.cpp:425] loss2/relu_conv <- loss2/conv
I0403 19:27:46.062849 24791 net.cpp:386] loss2/relu_conv -> loss2/conv (in-place)
I0403 19:27:46.063122 24791 net.cpp:141] Setting up loss2/relu_conv
I0403 19:27:46.063151 24791 net.cpp:148] Top shape: 24 128 4 4 (49152)
I0403 19:27:46.063169 24791 net.cpp:156] Memory required for data: 1208122656
I0403 19:27:46.063184 24791 layer_factory.hpp:77] Creating layer loss2/fc
I0403 19:27:46.063205 24791 net.cpp:91] Creating Layer loss2/fc
I0403 19:27:46.063223 24791 net.cpp:425] loss2/fc <- loss2/conv
I0403 19:27:46.063242 24791 net.cpp:399] loss2/fc -> loss2/fc
I0403 19:27:46.080338 24791 net.cpp:141] Setting up loss2/fc
I0403 19:27:46.080370 24791 net.cpp:148] Top shape: 24 1024 (24576)
I0403 19:27:46.080389 24791 net.cpp:156] Memory required for data: 1208220960
I0403 19:27:46.080410 24791 layer_factory.hpp:77] Creating layer loss2/relu_fc
I0403 19:27:46.080430 24791 net.cpp:91] Creating Layer loss2/relu_fc
I0403 19:27:46.080446 24791 net.cpp:425] loss2/relu_fc <- loss2/fc
I0403 19:27:46.080468 24791 net.cpp:386] loss2/relu_fc -> loss2/fc (in-place)
I0403 19:27:46.080766 24791 net.cpp:141] Setting up loss2/relu_fc
I0403 19:27:46.080797 24791 net.cpp:148] Top shape: 24 1024 (24576)
I0403 19:27:46.080817 24791 net.cpp:156] Memory required for data: 1208319264
I0403 19:27:46.080833 24791 layer_factory.hpp:77] Creating layer loss2/drop_fc
I0403 19:27:46.080852 24791 net.cpp:91] Creating Layer loss2/drop_fc
I0403 19:27:46.080869 24791 net.cpp:425] loss2/drop_fc <- loss2/fc
I0403 19:27:46.080890 24791 net.cpp:386] loss2/drop_fc -> loss2/fc (in-place)
I0403 19:27:46.080940 24791 net.cpp:141] Setting up loss2/drop_fc
I0403 19:27:46.080967 24791 net.cpp:148] Top shape: 24 1024 (24576)
I0403 19:27:46.080982 24791 net.cpp:156] Memory required for data: 1208417568
I0403 19:27:46.080998 24791 layer_factory.hpp:77] Creating layer loss2/classifier_plantvillage
I0403 19:27:46.081019 24791 net.cpp:91] Creating Layer loss2/classifier_plantvillage
I0403 19:27:46.081038 24791 net.cpp:425] loss2/classifier_plantvillage <- loss2/fc
I0403 19:27:46.081061 24791 net.cpp:399] loss2/classifier_plantvillage -> loss2/classifier_plantvillage
I0403 19:27:46.081473 24791 net.cpp:141] Setting up loss2/classifier_plantvillage
I0403 19:27:46.081502 24791 net.cpp:148] Top shape: 24 38 (912)
I0403 19:27:46.081535 24791 net.cpp:156] Memory required for data: 1208421216
I0403 19:27:46.081557 24791 layer_factory.hpp:77] Creating layer loss2/classifier_plantvillage_loss2/classifier_plantvillage_0_split
I0403 19:27:46.081579 24791 net.cpp:91] Creating Layer loss2/classifier_plantvillage_loss2/classifier_plantvillage_0_split
I0403 19:27:46.081598 24791 net.cpp:425] loss2/classifier_plantvillage_loss2/classifier_plantvillage_0_split <- loss2/classifier_plantvillage
I0403 19:27:46.081619 24791 net.cpp:399] loss2/classifier_plantvillage_loss2/classifier_plantvillage_0_split -> loss2/classifier_plantvillage_loss2/classifier_plantvillage_0_split_0
I0403 19:27:46.081642 24791 net.cpp:399] loss2/classifier_plantvillage_loss2/classifier_plantvillage_0_split -> loss2/classifier_plantvillage_loss2/classifier_plantvillage_0_split_1
I0403 19:27:46.081665 24791 net.cpp:399] loss2/classifier_plantvillage_loss2/classifier_plantvillage_0_split -> loss2/classifier_plantvillage_loss2/classifier_plantvillage_0_split_2
I0403 19:27:46.081743 24791 net.cpp:141] Setting up loss2/classifier_plantvillage_loss2/classifier_plantvillage_0_split
I0403 19:27:46.081769 24791 net.cpp:148] Top shape: 24 38 (912)
I0403 19:27:46.081786 24791 net.cpp:148] Top shape: 24 38 (912)
I0403 19:27:46.081804 24791 net.cpp:148] Top shape: 24 38 (912)
I0403 19:27:46.081818 24791 net.cpp:156] Memory required for data: 1208432160
I0403 19:27:46.081835 24791 layer_factory.hpp:77] Creating layer inception_4e/1x1
I0403 19:27:46.081856 24791 net.cpp:91] Creating Layer inception_4e/1x1
I0403 19:27:46.081876 24791 net.cpp:425] inception_4e/1x1 <- inception_4d/output_inception_4d/output_0_split_1
I0403 19:27:46.081897 24791 net.cpp:399] inception_4e/1x1 -> inception_4e/1x1
I0403 19:27:46.083680 24791 net.cpp:141] Setting up inception_4e/1x1
I0403 19:27:46.083714 24791 net.cpp:148] Top shape: 24 256 14 14 (1204224)
I0403 19:27:46.083729 24791 net.cpp:156] Memory required for data: 1213249056
I0403 19:27:46.083750 24791 layer_factory.hpp:77] Creating layer inception_4e/relu_1x1
I0403 19:27:46.083771 24791 net.cpp:91] Creating Layer inception_4e/relu_1x1
I0403 19:27:46.083791 24791 net.cpp:425] inception_4e/relu_1x1 <- inception_4e/1x1
I0403 19:27:46.083809 24791 net.cpp:386] inception_4e/relu_1x1 -> inception_4e/1x1 (in-place)
I0403 19:27:46.084102 24791 net.cpp:141] Setting up inception_4e/relu_1x1
I0403 19:27:46.084132 24791 net.cpp:148] Top shape: 24 256 14 14 (1204224)
I0403 19:27:46.084149 24791 net.cpp:156] Memory required for data: 1218065952
I0403 19:27:46.084164 24791 layer_factory.hpp:77] Creating layer inception_4e/3x3_reduce
I0403 19:27:46.084188 24791 net.cpp:91] Creating Layer inception_4e/3x3_reduce
I0403 19:27:46.084208 24791 net.cpp:425] inception_4e/3x3_reduce <- inception_4d/output_inception_4d/output_0_split_2
I0403 19:27:46.084233 24791 net.cpp:399] inception_4e/3x3_reduce -> inception_4e/3x3_reduce
I0403 19:27:46.086362 24791 net.cpp:141] Setting up inception_4e/3x3_reduce
I0403 19:27:46.086391 24791 net.cpp:148] Top shape: 24 160 14 14 (752640)
I0403 19:27:46.086408 24791 net.cpp:156] Memory required for data: 1221076512
I0403 19:27:46.086428 24791 layer_factory.hpp:77] Creating layer inception_4e/relu_3x3_reduce
I0403 19:27:46.086449 24791 net.cpp:91] Creating Layer inception_4e/relu_3x3_reduce
I0403 19:27:46.086467 24791 net.cpp:425] inception_4e/relu_3x3_reduce <- inception_4e/3x3_reduce
I0403 19:27:46.086486 24791 net.cpp:386] inception_4e/relu_3x3_reduce -> inception_4e/3x3_reduce (in-place)
I0403 19:27:46.086670 24791 net.cpp:141] Setting up inception_4e/relu_3x3_reduce
I0403 19:27:46.086699 24791 net.cpp:148] Top shape: 24 160 14 14 (752640)
I0403 19:27:46.086715 24791 net.cpp:156] Memory required for data: 1224087072
I0403 19:27:46.086731 24791 layer_factory.hpp:77] Creating layer inception_4e/3x3
I0403 19:27:46.086755 24791 net.cpp:91] Creating Layer inception_4e/3x3
I0403 19:27:46.086778 24791 net.cpp:425] inception_4e/3x3 <- inception_4e/3x3_reduce
I0403 19:27:46.086797 24791 net.cpp:399] inception_4e/3x3 -> inception_4e/3x3
I0403 19:27:46.091754 24791 net.cpp:141] Setting up inception_4e/3x3
I0403 19:27:46.091795 24791 net.cpp:148] Top shape: 24 320 14 14 (1505280)
I0403 19:27:46.091814 24791 net.cpp:156] Memory required for data: 1230108192
I0403 19:27:46.091835 24791 layer_factory.hpp:77] Creating layer inception_4e/relu_3x3
I0403 19:27:46.091856 24791 net.cpp:91] Creating Layer inception_4e/relu_3x3
I0403 19:27:46.091877 24791 net.cpp:425] inception_4e/relu_3x3 <- inception_4e/3x3
I0403 19:27:46.091895 24791 net.cpp:386] inception_4e/relu_3x3 -> inception_4e/3x3 (in-place)
I0403 19:27:46.092193 24791 net.cpp:141] Setting up inception_4e/relu_3x3
I0403 19:27:46.092226 24791 net.cpp:148] Top shape: 24 320 14 14 (1505280)
I0403 19:27:46.092244 24791 net.cpp:156] Memory required for data: 1236129312
I0403 19:27:46.092265 24791 layer_factory.hpp:77] Creating layer inception_4e/5x5_reduce
I0403 19:27:46.092293 24791 net.cpp:91] Creating Layer inception_4e/5x5_reduce
I0403 19:27:46.092314 24791 net.cpp:425] inception_4e/5x5_reduce <- inception_4d/output_inception_4d/output_0_split_3
I0403 19:27:46.092335 24791 net.cpp:399] inception_4e/5x5_reduce -> inception_4e/5x5_reduce
I0403 19:27:46.093405 24791 net.cpp:141] Setting up inception_4e/5x5_reduce
I0403 19:27:46.093436 24791 net.cpp:148] Top shape: 24 32 14 14 (150528)
I0403 19:27:46.093453 24791 net.cpp:156] Memory required for data: 1236731424
I0403 19:27:46.093472 24791 layer_factory.hpp:77] Creating layer inception_4e/relu_5x5_reduce
I0403 19:27:46.093495 24791 net.cpp:91] Creating Layer inception_4e/relu_5x5_reduce
I0403 19:27:46.093514 24791 net.cpp:425] inception_4e/relu_5x5_reduce <- inception_4e/5x5_reduce
I0403 19:27:46.093535 24791 net.cpp:386] inception_4e/relu_5x5_reduce -> inception_4e/5x5_reduce (in-place)
I0403 19:27:46.093842 24791 net.cpp:141] Setting up inception_4e/relu_5x5_reduce
I0403 19:27:46.093871 24791 net.cpp:148] Top shape: 24 32 14 14 (150528)
I0403 19:27:46.093888 24791 net.cpp:156] Memory required for data: 1237333536
I0403 19:27:46.093904 24791 layer_factory.hpp:77] Creating layer inception_4e/5x5
I0403 19:27:46.093945 24791 net.cpp:91] Creating Layer inception_4e/5x5
I0403 19:27:46.093968 24791 net.cpp:425] inception_4e/5x5 <- inception_4e/5x5_reduce
I0403 19:27:46.093991 24791 net.cpp:399] inception_4e/5x5 -> inception_4e/5x5
I0403 19:27:46.095813 24791 net.cpp:141] Setting up inception_4e/5x5
I0403 19:27:46.095844 24791 net.cpp:148] Top shape: 24 128 14 14 (602112)
I0403 19:27:46.095862 24791 net.cpp:156] Memory required for data: 1239741984
I0403 19:27:46.095882 24791 layer_factory.hpp:77] Creating layer inception_4e/relu_5x5
I0403 19:27:46.095903 24791 net.cpp:91] Creating Layer inception_4e/relu_5x5
I0403 19:27:46.095922 24791 net.cpp:425] inception_4e/relu_5x5 <- inception_4e/5x5
I0403 19:27:46.095942 24791 net.cpp:386] inception_4e/relu_5x5 -> inception_4e/5x5 (in-place)
I0403 19:27:46.096138 24791 net.cpp:141] Setting up inception_4e/relu_5x5
I0403 19:27:46.096166 24791 net.cpp:148] Top shape: 24 128 14 14 (602112)
I0403 19:27:46.096182 24791 net.cpp:156] Memory required for data: 1242150432
I0403 19:27:46.096199 24791 layer_factory.hpp:77] Creating layer inception_4e/pool
I0403 19:27:46.096222 24791 net.cpp:91] Creating Layer inception_4e/pool
I0403 19:27:46.096242 24791 net.cpp:425] inception_4e/pool <- inception_4d/output_inception_4d/output_0_split_4
I0403 19:27:46.096266 24791 net.cpp:399] inception_4e/pool -> inception_4e/pool
I0403 19:27:46.096341 24791 net.cpp:141] Setting up inception_4e/pool
I0403 19:27:46.096367 24791 net.cpp:148] Top shape: 24 528 14 14 (2483712)
I0403 19:27:46.096384 24791 net.cpp:156] Memory required for data: 1252085280
I0403 19:27:46.096400 24791 layer_factory.hpp:77] Creating layer inception_4e/pool_proj
I0403 19:27:46.096422 24791 net.cpp:91] Creating Layer inception_4e/pool_proj
I0403 19:27:46.096442 24791 net.cpp:425] inception_4e/pool_proj <- inception_4e/pool
I0403 19:27:46.096465 24791 net.cpp:399] inception_4e/pool_proj -> inception_4e/pool_proj
I0403 19:27:46.097976 24791 net.cpp:141] Setting up inception_4e/pool_proj
I0403 19:27:46.098021 24791 net.cpp:148] Top shape: 24 128 14 14 (602112)
I0403 19:27:46.098040 24791 net.cpp:156] Memory required for data: 1254493728
I0403 19:27:46.098062 24791 layer_factory.hpp:77] Creating layer inception_4e/relu_pool_proj
I0403 19:27:46.098081 24791 net.cpp:91] Creating Layer inception_4e/relu_pool_proj
I0403 19:27:46.098099 24791 net.cpp:425] inception_4e/relu_pool_proj <- inception_4e/pool_proj
I0403 19:27:46.098120 24791 net.cpp:386] inception_4e/relu_pool_proj -> inception_4e/pool_proj (in-place)
I0403 19:27:46.098412 24791 net.cpp:141] Setting up inception_4e/relu_pool_proj
I0403 19:27:46.098443 24791 net.cpp:148] Top shape: 24 128 14 14 (602112)
I0403 19:27:46.098461 24791 net.cpp:156] Memory required for data: 1256902176
I0403 19:27:46.098477 24791 layer_factory.hpp:77] Creating layer inception_4e/output
I0403 19:27:46.098496 24791 net.cpp:91] Creating Layer inception_4e/output
I0403 19:27:46.098513 24791 net.cpp:425] inception_4e/output <- inception_4e/1x1
I0403 19:27:46.098531 24791 net.cpp:425] inception_4e/output <- inception_4e/3x3
I0403 19:27:46.098549 24791 net.cpp:425] inception_4e/output <- inception_4e/5x5
I0403 19:27:46.098568 24791 net.cpp:425] inception_4e/output <- inception_4e/pool_proj
I0403 19:27:46.098584 24791 net.cpp:399] inception_4e/output -> inception_4e/output
I0403 19:27:46.098639 24791 net.cpp:141] Setting up inception_4e/output
I0403 19:27:46.098666 24791 net.cpp:148] Top shape: 24 832 14 14 (3913728)
I0403 19:27:46.098682 24791 net.cpp:156] Memory required for data: 1272557088
I0403 19:27:46.098698 24791 layer_factory.hpp:77] Creating layer pool4/3x3_s2
I0403 19:27:46.098721 24791 net.cpp:91] Creating Layer pool4/3x3_s2
I0403 19:27:46.098737 24791 net.cpp:425] pool4/3x3_s2 <- inception_4e/output
I0403 19:27:46.098757 24791 net.cpp:399] pool4/3x3_s2 -> pool4/3x3_s2
I0403 19:27:46.098825 24791 net.cpp:141] Setting up pool4/3x3_s2
I0403 19:27:46.098853 24791 net.cpp:148] Top shape: 24 832 7 7 (978432)
I0403 19:27:46.098870 24791 net.cpp:156] Memory required for data: 1276470816
I0403 19:27:46.098886 24791 layer_factory.hpp:77] Creating layer pool4/3x3_s2_pool4/3x3_s2_0_split
I0403 19:27:46.098903 24791 net.cpp:91] Creating Layer pool4/3x3_s2_pool4/3x3_s2_0_split
I0403 19:27:46.098920 24791 net.cpp:425] pool4/3x3_s2_pool4/3x3_s2_0_split <- pool4/3x3_s2
I0403 19:27:46.098940 24791 net.cpp:399] pool4/3x3_s2_pool4/3x3_s2_0_split -> pool4/3x3_s2_pool4/3x3_s2_0_split_0
I0403 19:27:46.098963 24791 net.cpp:399] pool4/3x3_s2_pool4/3x3_s2_0_split -> pool4/3x3_s2_pool4/3x3_s2_0_split_1
I0403 19:27:46.098985 24791 net.cpp:399] pool4/3x3_s2_pool4/3x3_s2_0_split -> pool4/3x3_s2_pool4/3x3_s2_0_split_2
I0403 19:27:46.099009 24791 net.cpp:399] pool4/3x3_s2_pool4/3x3_s2_0_split -> pool4/3x3_s2_pool4/3x3_s2_0_split_3
I0403 19:27:46.099104 24791 net.cpp:141] Setting up pool4/3x3_s2_pool4/3x3_s2_0_split
I0403 19:27:46.099134 24791 net.cpp:148] Top shape: 24 832 7 7 (978432)
I0403 19:27:46.099174 24791 net.cpp:148] Top shape: 24 832 7 7 (978432)
I0403 19:27:46.099194 24791 net.cpp:148] Top shape: 24 832 7 7 (978432)
I0403 19:27:46.099208 24791 net.cpp:148] Top shape: 24 832 7 7 (978432)
I0403 19:27:46.099225 24791 net.cpp:156] Memory required for data: 1292125728
I0403 19:27:46.099239 24791 layer_factory.hpp:77] Creating layer inception_5a/1x1
I0403 19:27:46.099268 24791 net.cpp:91] Creating Layer inception_5a/1x1
I0403 19:27:46.099289 24791 net.cpp:425] inception_5a/1x1 <- pool4/3x3_s2_pool4/3x3_s2_0_split_0
I0403 19:27:46.099310 24791 net.cpp:399] inception_5a/1x1 -> inception_5a/1x1
I0403 19:27:46.102080 24791 net.cpp:141] Setting up inception_5a/1x1
I0403 19:27:46.102113 24791 net.cpp:148] Top shape: 24 256 7 7 (301056)
I0403 19:27:46.102129 24791 net.cpp:156] Memory required for data: 1293329952
I0403 19:27:46.102149 24791 layer_factory.hpp:77] Creating layer inception_5a/relu_1x1
I0403 19:27:46.102166 24791 net.cpp:91] Creating Layer inception_5a/relu_1x1
I0403 19:27:46.102188 24791 net.cpp:425] inception_5a/relu_1x1 <- inception_5a/1x1
I0403 19:27:46.102208 24791 net.cpp:386] inception_5a/relu_1x1 -> inception_5a/1x1 (in-place)
I0403 19:27:46.102512 24791 net.cpp:141] Setting up inception_5a/relu_1x1
I0403 19:27:46.102541 24791 net.cpp:148] Top shape: 24 256 7 7 (301056)
I0403 19:27:46.102558 24791 net.cpp:156] Memory required for data: 1294534176
I0403 19:27:46.102573 24791 layer_factory.hpp:77] Creating layer inception_5a/3x3_reduce
I0403 19:27:46.102596 24791 net.cpp:91] Creating Layer inception_5a/3x3_reduce
I0403 19:27:46.102617 24791 net.cpp:425] inception_5a/3x3_reduce <- pool4/3x3_s2_pool4/3x3_s2_0_split_1
I0403 19:27:46.102639 24791 net.cpp:399] inception_5a/3x3_reduce -> inception_5a/3x3_reduce
I0403 19:27:46.105008 24791 net.cpp:141] Setting up inception_5a/3x3_reduce
I0403 19:27:46.105044 24791 net.cpp:148] Top shape: 24 160 7 7 (188160)
I0403 19:27:46.105063 24791 net.cpp:156] Memory required for data: 1295286816
I0403 19:27:46.105083 24791 layer_factory.hpp:77] Creating layer inception_5a/relu_3x3_reduce
I0403 19:27:46.105103 24791 net.cpp:91] Creating Layer inception_5a/relu_3x3_reduce
I0403 19:27:46.105120 24791 net.cpp:425] inception_5a/relu_3x3_reduce <- inception_5a/3x3_reduce
I0403 19:27:46.105139 24791 net.cpp:386] inception_5a/relu_3x3_reduce -> inception_5a/3x3_reduce (in-place)
I0403 19:27:46.105329 24791 net.cpp:141] Setting up inception_5a/relu_3x3_reduce
I0403 19:27:46.105357 24791 net.cpp:148] Top shape: 24 160 7 7 (188160)
I0403 19:27:46.105373 24791 net.cpp:156] Memory required for data: 1296039456
I0403 19:27:46.105389 24791 layer_factory.hpp:77] Creating layer inception_5a/3x3
I0403 19:27:46.105413 24791 net.cpp:91] Creating Layer inception_5a/3x3
I0403 19:27:46.105432 24791 net.cpp:425] inception_5a/3x3 <- inception_5a/3x3_reduce
I0403 19:27:46.105456 24791 net.cpp:399] inception_5a/3x3 -> inception_5a/3x3
I0403 19:27:46.110311 24791 net.cpp:141] Setting up inception_5a/3x3
I0403 19:27:46.110342 24791 net.cpp:148] Top shape: 24 320 7 7 (376320)
I0403 19:27:46.110362 24791 net.cpp:156] Memory required for data: 1297544736
I0403 19:27:46.110381 24791 layer_factory.hpp:77] Creating layer inception_5a/relu_3x3
I0403 19:27:46.110400 24791 net.cpp:91] Creating Layer inception_5a/relu_3x3
I0403 19:27:46.110419 24791 net.cpp:425] inception_5a/relu_3x3 <- inception_5a/3x3
I0403 19:27:46.110438 24791 net.cpp:386] inception_5a/relu_3x3 -> inception_5a/3x3 (in-place)
I0403 19:27:46.110728 24791 net.cpp:141] Setting up inception_5a/relu_3x3
I0403 19:27:46.110755 24791 net.cpp:148] Top shape: 24 320 7 7 (376320)
I0403 19:27:46.110774 24791 net.cpp:156] Memory required for data: 1299050016
I0403 19:27:46.110790 24791 layer_factory.hpp:77] Creating layer inception_5a/5x5_reduce
I0403 19:27:46.110811 24791 net.cpp:91] Creating Layer inception_5a/5x5_reduce
I0403 19:27:46.110831 24791 net.cpp:425] inception_5a/5x5_reduce <- pool4/3x3_s2_pool4/3x3_s2_0_split_2
I0403 19:27:46.110855 24791 net.cpp:399] inception_5a/5x5_reduce -> inception_5a/5x5_reduce
I0403 19:27:46.111987 24791 net.cpp:141] Setting up inception_5a/5x5_reduce
I0403 19:27:46.112020 24791 net.cpp:148] Top shape: 24 32 7 7 (37632)
I0403 19:27:46.112036 24791 net.cpp:156] Memory required for data: 1299200544
I0403 19:27:46.112054 24791 layer_factory.hpp:77] Creating layer inception_5a/relu_5x5_reduce
I0403 19:27:46.112076 24791 net.cpp:91] Creating Layer inception_5a/relu_5x5_reduce
I0403 19:27:46.112094 24791 net.cpp:425] inception_5a/relu_5x5_reduce <- inception_5a/5x5_reduce
I0403 19:27:46.112112 24791 net.cpp:386] inception_5a/relu_5x5_reduce -> inception_5a/5x5_reduce (in-place)
I0403 19:27:46.112408 24791 net.cpp:141] Setting up inception_5a/relu_5x5_reduce
I0403 19:27:46.112440 24791 net.cpp:148] Top shape: 24 32 7 7 (37632)
I0403 19:27:46.112457 24791 net.cpp:156] Memory required for data: 1299351072
I0403 19:27:46.112471 24791 layer_factory.hpp:77] Creating layer inception_5a/5x5
I0403 19:27:46.112493 24791 net.cpp:91] Creating Layer inception_5a/5x5
I0403 19:27:46.112514 24791 net.cpp:425] inception_5a/5x5 <- inception_5a/5x5_reduce
I0403 19:27:46.112537 24791 net.cpp:399] inception_5a/5x5 -> inception_5a/5x5
I0403 19:27:46.114187 24791 net.cpp:141] Setting up inception_5a/5x5
I0403 19:27:46.114228 24791 net.cpp:148] Top shape: 24 128 7 7 (150528)
I0403 19:27:46.114245 24791 net.cpp:156] Memory required for data: 1299953184
I0403 19:27:46.114274 24791 layer_factory.hpp:77] Creating layer inception_5a/relu_5x5
I0403 19:27:46.114297 24791 net.cpp:91] Creating Layer inception_5a/relu_5x5
I0403 19:27:46.114315 24791 net.cpp:425] inception_5a/relu_5x5 <- inception_5a/5x5
I0403 19:27:46.114337 24791 net.cpp:386] inception_5a/relu_5x5 -> inception_5a/5x5 (in-place)
I0403 19:27:46.114526 24791 net.cpp:141] Setting up inception_5a/relu_5x5
I0403 19:27:46.114552 24791 net.cpp:148] Top shape: 24 128 7 7 (150528)
I0403 19:27:46.114569 24791 net.cpp:156] Memory required for data: 1300555296
I0403 19:27:46.114584 24791 layer_factory.hpp:77] Creating layer inception_5a/pool
I0403 19:27:46.114605 24791 net.cpp:91] Creating Layer inception_5a/pool
I0403 19:27:46.114624 24791 net.cpp:425] inception_5a/pool <- pool4/3x3_s2_pool4/3x3_s2_0_split_3
I0403 19:27:46.114642 24791 net.cpp:399] inception_5a/pool -> inception_5a/pool
I0403 19:27:46.114712 24791 net.cpp:141] Setting up inception_5a/pool
I0403 19:27:46.114739 24791 net.cpp:148] Top shape: 24 832 7 7 (978432)
I0403 19:27:46.114755 24791 net.cpp:156] Memory required for data: 1304469024
I0403 19:27:46.114771 24791 layer_factory.hpp:77] Creating layer inception_5a/pool_proj
I0403 19:27:46.114794 24791 net.cpp:91] Creating Layer inception_5a/pool_proj
I0403 19:27:46.114812 24791 net.cpp:425] inception_5a/pool_proj <- inception_5a/pool
I0403 19:27:46.114836 24791 net.cpp:399] inception_5a/pool_proj -> inception_5a/pool_proj
I0403 19:27:46.117038 24791 net.cpp:141] Setting up inception_5a/pool_proj
I0403 19:27:46.117070 24791 net.cpp:148] Top shape: 24 128 7 7 (150528)
I0403 19:27:46.117087 24791 net.cpp:156] Memory required for data: 1305071136
I0403 19:27:46.117107 24791 layer_factory.hpp:77] Creating layer inception_5a/relu_pool_proj
I0403 19:27:46.117126 24791 net.cpp:91] Creating Layer inception_5a/relu_pool_proj
I0403 19:27:46.117143 24791 net.cpp:425] inception_5a/relu_pool_proj <- inception_5a/pool_proj
I0403 19:27:46.117163 24791 net.cpp:386] inception_5a/relu_pool_proj -> inception_5a/pool_proj (in-place)
I0403 19:27:46.117450 24791 net.cpp:141] Setting up inception_5a/relu_pool_proj
I0403 19:27:46.117481 24791 net.cpp:148] Top shape: 24 128 7 7 (150528)
I0403 19:27:46.117499 24791 net.cpp:156] Memory required for data: 1305673248
I0403 19:27:46.117516 24791 layer_factory.hpp:77] Creating layer inception_5a/output
I0403 19:27:46.117534 24791 net.cpp:91] Creating Layer inception_5a/output
I0403 19:27:46.117552 24791 net.cpp:425] inception_5a/output <- inception_5a/1x1
I0403 19:27:46.117569 24791 net.cpp:425] inception_5a/output <- inception_5a/3x3
I0403 19:27:46.117586 24791 net.cpp:425] inception_5a/output <- inception_5a/5x5
I0403 19:27:46.117604 24791 net.cpp:425] inception_5a/output <- inception_5a/pool_proj
I0403 19:27:46.117625 24791 net.cpp:399] inception_5a/output -> inception_5a/output
I0403 19:27:46.117674 24791 net.cpp:141] Setting up inception_5a/output
I0403 19:27:46.117704 24791 net.cpp:148] Top shape: 24 832 7 7 (978432)
I0403 19:27:46.117720 24791 net.cpp:156] Memory required for data: 1309586976
I0403 19:27:46.117734 24791 layer_factory.hpp:77] Creating layer inception_5a/output_inception_5a/output_0_split
I0403 19:27:46.117756 24791 net.cpp:91] Creating Layer inception_5a/output_inception_5a/output_0_split
I0403 19:27:46.117775 24791 net.cpp:425] inception_5a/output_inception_5a/output_0_split <- inception_5a/output
I0403 19:27:46.117795 24791 net.cpp:399] inception_5a/output_inception_5a/output_0_split -> inception_5a/output_inception_5a/output_0_split_0
I0403 19:27:46.117816 24791 net.cpp:399] inception_5a/output_inception_5a/output_0_split -> inception_5a/output_inception_5a/output_0_split_1
I0403 19:27:46.117843 24791 net.cpp:399] inception_5a/output_inception_5a/output_0_split -> inception_5a/output_inception_5a/output_0_split_2
I0403 19:27:46.117867 24791 net.cpp:399] inception_5a/output_inception_5a/output_0_split -> inception_5a/output_inception_5a/output_0_split_3
I0403 19:27:46.117975 24791 net.cpp:141] Setting up inception_5a/output_inception_5a/output_0_split
I0403 19:27:46.118001 24791 net.cpp:148] Top shape: 24 832 7 7 (978432)
I0403 19:27:46.118018 24791 net.cpp:148] Top shape: 24 832 7 7 (978432)
I0403 19:27:46.118033 24791 net.cpp:148] Top shape: 24 832 7 7 (978432)
I0403 19:27:46.118047 24791 net.cpp:148] Top shape: 24 832 7 7 (978432)
I0403 19:27:46.118062 24791 net.cpp:156] Memory required for data: 1325241888
I0403 19:27:46.118075 24791 layer_factory.hpp:77] Creating layer inception_5b/1x1
I0403 19:27:46.118099 24791 net.cpp:91] Creating Layer inception_5b/1x1
I0403 19:27:46.118120 24791 net.cpp:425] inception_5b/1x1 <- inception_5a/output_inception_5a/output_0_split_0
I0403 19:27:46.118141 24791 net.cpp:399] inception_5b/1x1 -> inception_5b/1x1
I0403 19:27:46.121739 24791 net.cpp:141] Setting up inception_5b/1x1
I0403 19:27:46.121773 24791 net.cpp:148] Top shape: 24 384 7 7 (451584)
I0403 19:27:46.121790 24791 net.cpp:156] Memory required for data: 1327048224
I0403 19:27:46.121809 24791 layer_factory.hpp:77] Creating layer inception_5b/relu_1x1
I0403 19:27:46.121829 24791 net.cpp:91] Creating Layer inception_5b/relu_1x1
I0403 19:27:46.121847 24791 net.cpp:425] inception_5b/relu_1x1 <- inception_5b/1x1
I0403 19:27:46.121865 24791 net.cpp:386] inception_5b/relu_1x1 -> inception_5b/1x1 (in-place)
I0403 19:27:46.122156 24791 net.cpp:141] Setting up inception_5b/relu_1x1
I0403 19:27:46.122186 24791 net.cpp:148] Top shape: 24 384 7 7 (451584)
I0403 19:27:46.122205 24791 net.cpp:156] Memory required for data: 1328854560
I0403 19:27:46.122222 24791 layer_factory.hpp:77] Creating layer inception_5b/3x3_reduce
I0403 19:27:46.122246 24791 net.cpp:91] Creating Layer inception_5b/3x3_reduce
I0403 19:27:46.122272 24791 net.cpp:425] inception_5b/3x3_reduce <- inception_5a/output_inception_5a/output_0_split_1
I0403 19:27:46.122294 24791 net.cpp:399] inception_5b/3x3_reduce -> inception_5b/3x3_reduce
I0403 19:27:46.124872 24791 net.cpp:141] Setting up inception_5b/3x3_reduce
I0403 19:27:46.124907 24791 net.cpp:148] Top shape: 24 192 7 7 (225792)
I0403 19:27:46.124933 24791 net.cpp:156] Memory required for data: 1329757728
I0403 19:27:46.124953 24791 layer_factory.hpp:77] Creating layer inception_5b/relu_3x3_reduce
I0403 19:27:46.124972 24791 net.cpp:91] Creating Layer inception_5b/relu_3x3_reduce
I0403 19:27:46.124990 24791 net.cpp:425] inception_5b/relu_3x3_reduce <- inception_5b/3x3_reduce
I0403 19:27:46.125010 24791 net.cpp:386] inception_5b/relu_3x3_reduce -> inception_5b/3x3_reduce (in-place)
I0403 19:27:46.125195 24791 net.cpp:141] Setting up inception_5b/relu_3x3_reduce
I0403 19:27:46.125226 24791 net.cpp:148] Top shape: 24 192 7 7 (225792)
I0403 19:27:46.125241 24791 net.cpp:156] Memory required for data: 1330660896
I0403 19:27:46.125264 24791 layer_factory.hpp:77] Creating layer inception_5b/3x3
I0403 19:27:46.125289 24791 net.cpp:91] Creating Layer inception_5b/3x3
I0403 19:27:46.125309 24791 net.cpp:425] inception_5b/3x3 <- inception_5b/3x3_reduce
I0403 19:27:46.125331 24791 net.cpp:399] inception_5b/3x3 -> inception_5b/3x3
I0403 19:27:46.131820 24791 net.cpp:141] Setting up inception_5b/3x3
I0403 19:27:46.131855 24791 net.cpp:148] Top shape: 24 384 7 7 (451584)
I0403 19:27:46.131873 24791 net.cpp:156] Memory required for data: 1332467232
I0403 19:27:46.131893 24791 layer_factory.hpp:77] Creating layer inception_5b/relu_3x3
I0403 19:27:46.131911 24791 net.cpp:91] Creating Layer inception_5b/relu_3x3
I0403 19:27:46.131929 24791 net.cpp:425] inception_5b/relu_3x3 <- inception_5b/3x3
I0403 19:27:46.131950 24791 net.cpp:386] inception_5b/relu_3x3 -> inception_5b/3x3 (in-place)
I0403 19:27:46.132238 24791 net.cpp:141] Setting up inception_5b/relu_3x3
I0403 19:27:46.132277 24791 net.cpp:148] Top shape: 24 384 7 7 (451584)
I0403 19:27:46.132297 24791 net.cpp:156] Memory required for data: 1334273568
I0403 19:27:46.132313 24791 layer_factory.hpp:77] Creating layer inception_5b/5x5_reduce
I0403 19:27:46.132351 24791 net.cpp:91] Creating Layer inception_5b/5x5_reduce
I0403 19:27:46.132374 24791 net.cpp:425] inception_5b/5x5_reduce <- inception_5a/output_inception_5a/output_0_split_2
I0403 19:27:46.132395 24791 net.cpp:399] inception_5b/5x5_reduce -> inception_5b/5x5_reduce
I0403 19:27:46.133616 24791 net.cpp:141] Setting up inception_5b/5x5_reduce
I0403 19:27:46.133649 24791 net.cpp:148] Top shape: 24 48 7 7 (56448)
I0403 19:27:46.133668 24791 net.cpp:156] Memory required for data: 1334499360
I0403 19:27:46.133687 24791 layer_factory.hpp:77] Creating layer inception_5b/relu_5x5_reduce
I0403 19:27:46.133708 24791 net.cpp:91] Creating Layer inception_5b/relu_5x5_reduce
I0403 19:27:46.133728 24791 net.cpp:425] inception_5b/relu_5x5_reduce <- inception_5b/5x5_reduce
I0403 19:27:46.133750 24791 net.cpp:386] inception_5b/relu_5x5_reduce -> inception_5b/5x5_reduce (in-place)
I0403 19:27:46.134114 24791 net.cpp:141] Setting up inception_5b/relu_5x5_reduce
I0403 19:27:46.134145 24791 net.cpp:148] Top shape: 24 48 7 7 (56448)
I0403 19:27:46.134161 24791 net.cpp:156] Memory required for data: 1334725152
I0403 19:27:46.134177 24791 layer_factory.hpp:77] Creating layer inception_5b/5x5
I0403 19:27:46.134198 24791 net.cpp:91] Creating Layer inception_5b/5x5
I0403 19:27:46.134218 24791 net.cpp:425] inception_5b/5x5 <- inception_5b/5x5_reduce
I0403 19:27:46.134238 24791 net.cpp:399] inception_5b/5x5 -> inception_5b/5x5
I0403 19:27:46.136308 24791 net.cpp:141] Setting up inception_5b/5x5
I0403 19:27:46.136338 24791 net.cpp:148] Top shape: 24 128 7 7 (150528)
I0403 19:27:46.136356 24791 net.cpp:156] Memory required for data: 1335327264
I0403 19:27:46.136376 24791 layer_factory.hpp:77] Creating layer inception_5b/relu_5x5
I0403 19:27:46.136395 24791 net.cpp:91] Creating Layer inception_5b/relu_5x5
I0403 19:27:46.136420 24791 net.cpp:425] inception_5b/relu_5x5 <- inception_5b/5x5
I0403 19:27:46.136438 24791 net.cpp:386] inception_5b/relu_5x5 -> inception_5b/5x5 (in-place)
I0403 19:27:46.136631 24791 net.cpp:141] Setting up inception_5b/relu_5x5
I0403 19:27:46.136661 24791 net.cpp:148] Top shape: 24 128 7 7 (150528)
I0403 19:27:46.136675 24791 net.cpp:156] Memory required for data: 1335929376
I0403 19:27:46.136693 24791 layer_factory.hpp:77] Creating layer inception_5b/pool
I0403 19:27:46.136714 24791 net.cpp:91] Creating Layer inception_5b/pool
I0403 19:27:46.136734 24791 net.cpp:425] inception_5b/pool <- inception_5a/output_inception_5a/output_0_split_3
I0403 19:27:46.136754 24791 net.cpp:399] inception_5b/pool -> inception_5b/pool
I0403 19:27:46.136828 24791 net.cpp:141] Setting up inception_5b/pool
I0403 19:27:46.136855 24791 net.cpp:148] Top shape: 24 832 7 7 (978432)
I0403 19:27:46.136873 24791 net.cpp:156] Memory required for data: 1339843104
I0403 19:27:46.136889 24791 layer_factory.hpp:77] Creating layer inception_5b/pool_proj
I0403 19:27:46.136912 24791 net.cpp:91] Creating Layer inception_5b/pool_proj
I0403 19:27:46.136931 24791 net.cpp:425] inception_5b/pool_proj <- inception_5b/pool
I0403 19:27:46.136953 24791 net.cpp:399] inception_5b/pool_proj -> inception_5b/pool_proj
I0403 19:27:46.139237 24791 net.cpp:141] Setting up inception_5b/pool_proj
I0403 19:27:46.139276 24791 net.cpp:148] Top shape: 24 128 7 7 (150528)
I0403 19:27:46.139295 24791 net.cpp:156] Memory required for data: 1340445216
I0403 19:27:46.139317 24791 layer_factory.hpp:77] Creating layer inception_5b/relu_pool_proj
I0403 19:27:46.139336 24791 net.cpp:91] Creating Layer inception_5b/relu_pool_proj
I0403 19:27:46.139355 24791 net.cpp:425] inception_5b/relu_pool_proj <- inception_5b/pool_proj
I0403 19:27:46.139376 24791 net.cpp:386] inception_5b/relu_pool_proj -> inception_5b/pool_proj (in-place)
I0403 19:27:46.139673 24791 net.cpp:141] Setting up inception_5b/relu_pool_proj
I0403 19:27:46.139703 24791 net.cpp:148] Top shape: 24 128 7 7 (150528)
I0403 19:27:46.139721 24791 net.cpp:156] Memory required for data: 1341047328
I0403 19:27:46.139735 24791 layer_factory.hpp:77] Creating layer inception_5b/output
I0403 19:27:46.139755 24791 net.cpp:91] Creating Layer inception_5b/output
I0403 19:27:46.139788 24791 net.cpp:425] inception_5b/output <- inception_5b/1x1
I0403 19:27:46.139808 24791 net.cpp:425] inception_5b/output <- inception_5b/3x3
I0403 19:27:46.139827 24791 net.cpp:425] inception_5b/output <- inception_5b/5x5
I0403 19:27:46.139847 24791 net.cpp:425] inception_5b/output <- inception_5b/pool_proj
I0403 19:27:46.139870 24791 net.cpp:399] inception_5b/output -> inception_5b/output
I0403 19:27:46.139925 24791 net.cpp:141] Setting up inception_5b/output
I0403 19:27:46.139956 24791 net.cpp:148] Top shape: 24 1024 7 7 (1204224)
I0403 19:27:46.139976 24791 net.cpp:156] Memory required for data: 1345864224
I0403 19:27:46.139992 24791 layer_factory.hpp:77] Creating layer pool5/7x7_s1
I0403 19:27:46.140012 24791 net.cpp:91] Creating Layer pool5/7x7_s1
I0403 19:27:46.140030 24791 net.cpp:425] pool5/7x7_s1 <- inception_5b/output
I0403 19:27:46.140049 24791 net.cpp:399] pool5/7x7_s1 -> pool5/7x7_s1
I0403 19:27:46.140276 24791 net.cpp:141] Setting up pool5/7x7_s1
I0403 19:27:46.140306 24791 net.cpp:148] Top shape: 24 1024 1 1 (24576)
I0403 19:27:46.140324 24791 net.cpp:156] Memory required for data: 1345962528
I0403 19:27:46.140341 24791 layer_factory.hpp:77] Creating layer pool5/drop_7x7_s1
I0403 19:27:46.140360 24791 net.cpp:91] Creating Layer pool5/drop_7x7_s1
I0403 19:27:46.140377 24791 net.cpp:425] pool5/drop_7x7_s1 <- pool5/7x7_s1
I0403 19:27:46.140398 24791 net.cpp:386] pool5/drop_7x7_s1 -> pool5/7x7_s1 (in-place)
I0403 19:27:46.140451 24791 net.cpp:141] Setting up pool5/drop_7x7_s1
I0403 19:27:46.140481 24791 net.cpp:148] Top shape: 24 1024 1 1 (24576)
I0403 19:27:46.140501 24791 net.cpp:156] Memory required for data: 1346060832
I0403 19:27:46.140516 24791 layer_factory.hpp:77] Creating layer loss3/classifier_plantvillage
I0403 19:27:46.140537 24791 net.cpp:91] Creating Layer loss3/classifier_plantvillage
I0403 19:27:46.140557 24791 net.cpp:425] loss3/classifier_plantvillage <- pool5/7x7_s1
I0403 19:27:46.140579 24791 net.cpp:399] loss3/classifier_plantvillage -> loss3/classifier_plantvillage
I0403 19:27:46.141001 24791 net.cpp:141] Setting up loss3/classifier_plantvillage
I0403 19:27:46.141031 24791 net.cpp:148] Top shape: 24 38 (912)
I0403 19:27:46.141048 24791 net.cpp:156] Memory required for data: 1346064480
I0403 19:27:46.141067 24791 layer_factory.hpp:77] Creating layer loss3/classifier_plantvillage_loss3/classifier_plantvillage_0_split
I0403 19:27:46.141089 24791 net.cpp:91] Creating Layer loss3/classifier_plantvillage_loss3/classifier_plantvillage_0_split
I0403 19:27:46.141108 24791 net.cpp:425] loss3/classifier_plantvillage_loss3/classifier_plantvillage_0_split <- loss3/classifier_plantvillage
I0403 19:27:46.141127 24791 net.cpp:399] loss3/classifier_plantvillage_loss3/classifier_plantvillage_0_split -> loss3/classifier_plantvillage_loss3/classifier_plantvillage_0_split_0
I0403 19:27:46.141150 24791 net.cpp:399] loss3/classifier_plantvillage_loss3/classifier_plantvillage_0_split -> loss3/classifier_plantvillage_loss3/classifier_plantvillage_0_split_1
I0403 19:27:46.141177 24791 net.cpp:399] loss3/classifier_plantvillage_loss3/classifier_plantvillage_0_split -> loss3/classifier_plantvillage_loss3/classifier_plantvillage_0_split_2
I0403 19:27:46.141201 24791 net.cpp:399] loss3/classifier_plantvillage_loss3/classifier_plantvillage_0_split -> loss3/classifier_plantvillage_loss3/classifier_plantvillage_0_split_3
I0403 19:27:46.141309 24791 net.cpp:141] Setting up loss3/classifier_plantvillage_loss3/classifier_plantvillage_0_split
I0403 19:27:46.141335 24791 net.cpp:148] Top shape: 24 38 (912)
I0403 19:27:46.141351 24791 net.cpp:148] Top shape: 24 38 (912)
I0403 19:27:46.141369 24791 net.cpp:148] Top shape: 24 38 (912)
I0403 19:27:46.141386 24791 net.cpp:148] Top shape: 24 38 (912)
I0403 19:27:46.141399 24791 net.cpp:156] Memory required for data: 1346079072
I0403 19:27:46.141414 24791 layer_factory.hpp:77] Creating layer loss1/loss
I0403 19:27:46.141439 24791 net.cpp:91] Creating Layer loss1/loss
I0403 19:27:46.141460 24791 net.cpp:425] loss1/loss <- loss1/classifier_plantvillage_loss1/classifier_plantvillage_0_split_0
I0403 19:27:46.141494 24791 net.cpp:425] loss1/loss <- label_data_1_split_0
…
