…
I0403 19:36:25.125735 25271 net.cpp:313] The NetState phase (1) differed from the phase (0) specified by a rule in layer data
I0403 19:36:25.127223 25271 net.cpp:49] Initializing net from parameters: 
state {
  phase: TEST
}
layer {
  name: "data"
  type: "Data"
  top: "data"
  top: "label"
  include {
    phase: TEST
  }
  transform_param {
    mirror: false
    crop_size: 224
    mean_file: "/home/mohanty/data/final_dataset/lmdb/grayscale-80-20/mean.binaryproto"
  }
  data_param {
    source: "/home/mohanty/data/final_dataset/lmdb/grayscale-80-20/test_db"
    batch_size: 24
    backend: LMDB
  }
}
layer {
  name: "conv1/7x7_s2"
  type: "Convolution"
  bottom: "data"
  top: "conv1/7x7_s2"
  param {
    lr_mult: 1
    decay_mult: 1
  }
  param {
    lr_mult: 2
    decay_mult: 0
  }
  convolution_param {
    num_output: 64
    pad: 3
    kernel_size: 7
    stride: 2
    weight_filler {
      type: "xavier"
      std: 0.1
    }
    bias_filler {
      type: "constant"
      value: 0.2
    }
  }
}
layer {
  name: "conv1/relu_7x7"
  type: "ReLU"
  bottom: "conv1/7x7_s2"
  top: "conv1/7x7_s2"
}
layer {
  name: "pool1/3x3_s2"
  type: "Pooling"
  bottom: "conv1/7x7_s2"
  top: "pool1/3x3_s2"
  pooling_param {
    pool: MAX
    kernel_size: 3
    stride: 2
  }
}
layer {
  name: "pool1/norm1"
  type: "LRN"
  bottom: "pool1/3x3_s2"
  top: "pool1/norm1"
  lrn_param {
    local_size: 5
    alpha: 0.0001
    beta: 0.75
  }
}
layer {
  name: "conv2/3x3_reduce"
  type: "Convolution"
  bottom: "pool1/norm1"
  top: "conv2/3x3_reduce"
  param {
    lr_mult: 1
    decay_mult: 1
  }
  param {
    lr_mult: 2
    decay_mult: 0
  }
  convolution_param {
    num_output: 64
    kernel_size: 1
    weight_filler {
      type: "xavier"
      std: 0.1
    }
    bias_filler {
      type: "constant"
      value: 0.2
    }
  }
}
layer {
  name: "conv2/relu_3x3_reduce"
  type: "ReLU"
  bottom: "conv2/3x3_reduce"
  top: "conv2/3x3_reduce"
}
layer {
  name: "conv2/3x3"
  type: "Convolution"
  bottom: "conv2/3x3_reduce"
  top: "conv2/3x3"
  param {
    lr_mult: 1
    decay_mult: 1
  }
  param {
    lr_mult: 2
    decay_mult: 0
  }
  convolution_param {
    num_output: 192
    pad: 1
    kernel_size: 3
    weight_filler {
      type: "xavier"
      std: 0.03
    }
    bias_filler {
      type: "constant"
      value: 0.2
    }
  }
}
layer {
  name: "conv2/relu_3x3"
  type: "ReLU"
  bottom: "conv2/3x3"
  top: "conv2/3x3"
}
layer {
  name: "conv2/norm2"
  type: "LRN"
  bottom: "conv2/3x3"
  top: "conv2/norm2"
  lrn_param {
    local_size: 5
    alpha: 0.0001
    beta: 0.75
  }
}
layer {
  name: "pool2/3x3_s2"
  type: "Pooling"
  bottom: "conv2/norm2"
  top: "pool2/3x3_s2"
  pooling_param {
    pool: MAX
    kernel_size: 3
    stride: 2
  }
}
layer {
  name: "inception_3a/1x1"
  type: "Convolution"
  bottom: "pool2/3x3_s2"
  top: "inception_3a/1x1"
  param {
    lr_mult: 1
    decay_mult: 1
  }
  param {
    lr_mult: 2
    decay_mult: 0
  }
  convolution_param {
    num_output: 64
    kernel_size: 1
    weight_filler {
      type: "xavier"
      std: 0.03
    }
    bias_filler {
      type: "constant"
      value: 0.2
    }
  }
}
layer {
  name: "inception_3a/relu_1x1"
  type: "ReLU"
  bottom: "inception_3a/1x1"
  top: "inception_3a/1x1"
}
layer {
  name: "inception_3a/3x3_reduce"
  type: "Convolution"
  bottom: "pool2/3x3_s2"
  top: "inception_3a/3x3_reduce"
  param {
    lr_mult: 1
    decay_mult: 1
  }
  param {
    lr_mult: 2
    decay_mult: 0
  }
  convolution_param {
    num_output: 96
    kernel_size: 1
    weight_filler {
      type: "xavier"
      std: 0.09
    }
    bias_filler {
      type: "constant"
      value: 0.2
    }
  }
}
layer {
  name: "inception_3a/relu_3x3_reduce"
  type: "ReLU"
  bottom: "inception_3a/3x3_reduce"
  top: "inception_3a/3x3_reduce"
}
layer {
  name: "inception_3a/3x3"
  type: "Convolution"
  bottom: "inception_3a/3x3_reduce"
  top: "inception_3a/3x3"
  param {
    lr_mult: 1
    decay_mult: 1
  }
  param {
    lr_mult: 2
    decay_mult: 0
  }
  convolution_param {
    num_output: 128
    pad: 1
    kernel_size: 3
    weight_filler {
      type: "xavier"
      std: 0.03
    }
    bias_filler {
      type: "constant"
      value: 0.2
    }
  }
}
layer {
  name: "inception_3a/relu_3x3"
  type: "ReLU"
  bottom: "inception_3a/3x3"
  top: "inception_3a/3x3"
}
layer {
  name: "inception_3a/5x5_reduce"
  type: "Convolution"
  bottom: "pool2/3x3_s2"
  top: "inception_3a/5x5_reduce"
  param {
    lr_mult: 1
    decay_mult: 1
  }
  param {
    lr_mult: 2
    decay_mult: 0
  }
  convolution_param {
    num_output: 16
    kernel_size: 1
    weight_filler {
      type: "xavier"
      std: 0.2
    }
    bias_filler {
      type: "constant"
      value: 0.2
    }
  }
}
layer {
  name: "inception_3a/relu_5x5_reduce"
  type: "ReLU"
  bottom: "inception_3a/5x5_reduce"
  top: "inception_3a/5x5_reduce"
}
layer {
  name: "inception_3a/5x5"
  type: "Convolution"
  bottom: "inception_3a/5x5_reduce"
  top: "inception_3a/5x5"
  param {
    lr_mult: 1
    decay_mult: 1
  }
  param {
    lr_mult: 2
    decay_mult: 0
  }
  convolution_param {
    num_output: 32
    pad: 2
    kernel_size: 5
    weight_filler {
      type: "xavier"
      std: 0.03
    }
    bias_filler {
      type: "constant"
      value: 0.2
    }
  }
}
layer {
  name: "inception_3a/relu_5x5"
  type: "ReLU"
  bottom: "inception_3a/5x5"
  top: "inception_3a/5x5"
}
layer {
  name: "inception_3a/pool"
  type: "Pooling"
  bottom: "pool2/3x3_s2"
  top: "inception_3a/pool"
  pooling_param {
    pool: MAX
    kernel_size: 3
    stride: 1
    pad: 1
  }
}
layer {
  name: "inception_3a/pool_proj"
  type: "Convolution"
  bottom: "inception_3a/pool"
  top: "inception_3a/pool_proj"
  param {
    lr_mult: 1
    decay_mult: 1
  }
  param {
    lr_mult: 2
    decay_mult: 0
  }
  convolution_param {
    num_output: 32
    kernel_size: 1
    weight_filler {
      type: "xavier"
      std: 0.1
    }
    bias_filler {
      type: "constant"
      value: 0.2
    }
  }
}
layer {
  name: "inception_3a/relu_pool_proj"
  type: "ReLU"
  bottom: "inception_3a/pool_proj"
  top: "inception_3a/pool_proj"
}
layer {
  name: "inception_3a/output"
  type: "Concat"
  bottom: "inception_3a/1x1"
  bottom: "inception_3a/3x3"
  bottom: "inception_3a/5x5"
  bottom: "inception_3a/pool_proj"
  top: "inception_3a/output"
}
layer {
  name: "inception_3b/1x1"
  type: "Convolution"
  bottom: "inception_3a/output"
  top: "inception_3b/1x1"
  param {
    lr_mult: 1
    decay_mult: 1
  }
  param {
    lr_mult: 2
    decay_mult: 0
  }
  convolution_param {
    num_output: 128
    kernel_size: 1
    weight_filler {
      type: "xavier"
      std: 0.03
    }
    bias_filler {
      type: "constant"
      value: 0.2
    }
  }
}
layer {
  name: "inception_3b/relu_1x1"
  type: "ReLU"
  bottom: "inception_3b/1x1"
  top: "inception_3b/1x1"
}
layer {
  name: "inception_3b/3x3_reduce"
  type: "Convolution"
  bottom: "inception_3a/output"
  top: "inception_3b/3x3_reduce"
  param {
    lr_mult: 1
    decay_mult: 1
  }
  param {
    lr_mult: 2
    decay_mult: 0
  }
  convolution_param {
    num_output: 128
    kernel_size: 1
    weight_filler {
      type: "xavier"
      std: 0.09
    }
    bias_filler {
      type: "constant"
      value: 0.2
    }
  }
}
layer {
  name: "inception_3b/relu_3x3_reduce"
  type: "ReLU"
  bottom: "inception_3b/3x3_reduce"
  top: "inception_3b/3x3_reduce"
}
layer {
  name: "inception_3b/3x3"
  type: "Convolution"
  bottom: "inception_3b/3x3_reduce"
  top: "inception_3b/3x3"
  param {
    lr_mult: 1
    decay_mult: 1
  }
  param {
    lr_mult: 2
    decay_mult: 0
  }
  convolution_param {
    num_output: 192
    pad: 1
    kernel_size: 3
    weight_filler {
      type: "xavier"
      std: 0.03
    }
    bias_filler {
      type: "constant"
      value: 0.2
    }
  }
}
layer {
  name: "inception_3b/relu_3x3"
  type: "ReLU"
  bottom: "inception_3b/3x3"
  top: "inception_3b/3x3"
}
layer {
  name: "inception_3b/5x5_reduce"
  type: "Convolution"
  bottom: "inception_3a/output"
  top: "inception_3b/5x5_reduce"
  param {
    lr_mult: 1
    decay_mult: 1
  }
  param {
    lr_mult: 2
    decay_mult: 0
  }
  convolution_param {
    num_output: 32
    kernel_size: 1
    weight_filler {
      type: "xavier"
      std: 0.2
    }
    bias_filler {
      type: "constant"
      value: 0.2
    }
  }
}
layer {
  name: "inception_3b/relu_5x5_reduce"
  type: "ReLU"
  bottom: "inception_3b/5x5_reduce"
  top: "inception_3b/5x5_reduce"
}
layer {
  name: "inception_3b/5x5"
  type: "Convolution"
  bottom: "inception_3b/5x5_reduce"
  top: "inception_3b/5x5"
  param {
    lr_mult: 1
    decay_mult: 1
  }
  param {
    lr_mult: 2
    decay_mult: 0
  }
  convolution_param {
    num_output: 96
    pad: 2
    kernel_size: 5
    weight_filler {
      type: "xavier"
      std: 0.03
    }
    bias_filler {
      type: "constant"
      value: 0.2
    }
  }
}
layer {
  name: "inception_3b/relu_5x5"
  type: "ReLU"
  bottom: "inception_3b/5x5"
  top: "inception_3b/5x5"
}
layer {
  name: "inception_3b/pool"
  type: "Pooling"
  bottom: "inception_3a/output"
  top: "inception_3b/pool"
  pooling_param {
    pool: MAX
    kernel_size: 3
    stride: 1
    pad: 1
  }
}
layer {
  name: "inception_3b/pool_proj"
  type: "Convolution"
  bottom: "inception_3b/pool"
  top: "inception_3b/pool_proj"
  param {
    lr_mult: 1
    decay_mult: 1
  }
  param {
    lr_mult: 2
    decay_mult: 0
  }
  convolution_param {
    num_output: 64
    kernel_size: 1
    weight_filler {
      type: "xavier"
      std: 0.1
    }
    bias_filler {
      type: "constant"
      value: 0.2
    }
  }
}
layer {
  name: "inception_3b/relu_pool_proj"
  type: "ReLU"
  bottom: "inception_3b/pool_proj"
  top: "inception_3b/pool_proj"
}
layer {
  name: "inception_3b/output"
  type: "Concat"
  bottom: "inception_3b/1x1"
  bottom: "inception_3b/3x3"
  bottom: "inception_3b/5x5"
  bottom: "inception_3b/pool_proj"
  top: "inception_3b/output"
}
layer {
  name: "pool3/3x3_s2"
  type: "Pooling"
  bottom: "inception_3b/output"
  top: "pool3/3x3_s2"
  pooling_param {
    pool: MAX
    kernel_size: 3
    stride: 2
  }
}
layer {
  name: "inception_4a/1x1"
  type: "Convolution"
  bottom: "pool3/3x3_s2"
  top: "inception_4a/1x1"
  param {
    lr_mult: 1
    decay_mult: 1
  }
  param {
    lr_mult: 2
    decay_mult: 0
  }
  convolution_param {
    num_output: 192
    kernel_size: 1
    weight_filler {
      type: "xavier"
      std: 0.03
    }
    bias_filler {
      type: "constant"
      value: 0.2
    }
  }
}
layer {
  name: "inception_4a/relu_1x1"
  type: "ReLU"
  bottom: "inception_4a/1x1"
  top: "inception_4a/1x1"
}
layer {
  name: "inception_4a/3x3_reduce"
  type: "Convolution"
  bottom: "pool3/3x3_s2"
  top: "inception_4a/3x3_reduce"
  param {
    lr_mult: 1
    decay_mult: 1
  }
  param {
    lr_mult: 2
    decay_mult: 0
  }
  convolution_param {
    num_output: 96
    kernel_size: 1
    weight_filler {
      type: "xavier"
      std: 0.09
    }
    bias_filler {
      type: "constant"
      value: 0.2
    }
  }
}
layer {
  name: "inception_4a/relu_3x3_reduce"
  type: "ReLU"
  bottom: "inception_4a/3x3_reduce"
  top: "inception_4a/3x3_reduce"
}
layer {
  name: "inception_4a/3x3"
  type: "Convolution"
  bottom: "inception_4a/3x3_reduce"
  top: "inception_4a/3x3"
  param {
    lr_mult: 1
    decay_mult: 1
  }
  param {
    lr_mult: 2
    decay_mult: 0
  }
  convolution_param {
    num_output: 208
    pad: 1
    kernel_size: 3
    weight_filler {
      type: "xavier"
      std: 0.03
    }
    bias_filler {
      type: "constant"
      value: 0.2
    }
  }
}
layer {
  name: "inception_4a/relu_3x3"
  type: "ReLU"
  bottom: "inception_4a/3x3"
  top: "inception_4a/3x3"
}
layer {
  name: "inception_4a/5x5_reduce"
  type: "Convolution"
  bottom: "pool3/3x3_s2"
  top: "inception_4a/5x5_reduce"
  param {
    lr_mult: 1
    decay_mult: 1
  }
  param {
    lr_mult: 2
    decay_mult: 0
  }
  convolution_param {
    num_output: 16
    kernel_size: 1
    weight_filler {
      type: "xavier"
      std: 0.2
    }
    bias_filler {
      type: "constant"
      value: 0.2
    }
  }
}
layer {
  name: "inception_4a/relu_5x5_reduce"
  type: "ReLU"
  bottom: "inception_4a/5x5_reduce"
  top: "inception_4a/5x5_reduce"
}
layer {
  name: "inception_4a/5x5"
  type: "Convolution"
  bottom: "inception_4a/5x5_reduce"
  top: "inception_4a/5x5"
  param {
    lr_mult: 1
    decay_mult: 1
  }
  param {
    lr_mult: 2
    decay_mult: 0
  }
  convolution_param {
    num_output: 48
    pad: 2
    kernel_size: 5
    weight_filler {
      type: "xavier"
      std: 0.03
    }
    bias_filler {
      type: "constant"
      value: 0.2
    }
  }
}
layer {
  name: "inception_4a/relu_5x5"
  type: "ReLU"
  bottom: "inception_4a/5x5"
  top: "inception_4a/5x5"
}
layer {
  name: "inception_4a/pool"
  type: "Pooling"
  bottom: "pool3/3x3_s2"
  top: "inception_4a/pool"
  pooling_param {
    pool: MAX
    kernel_size: 3
    stride: 1
    pad: 1
  }
}
layer {
  name: "inception_4a/pool_proj"
  type: "Convolution"
  bottom: "inception_4a/pool"
  top: "inception_4a/pool_proj"
  param {
    lr_mult: 1
    decay_mult: 1
  }
  param {
    lr_mult: 2
    decay_mult: 0
  }
  convolution_param {
    num_output: 64
    kernel_size: 1
    weight_filler {
      type: "xavier"
      std: 0.1
    }
    bias_filler {
      type: "constant"
      value: 0.2
    }
  }
}
layer {
  name: "inception_4a/relu_pool_proj"
  type: "ReLU"
  bottom: "inception_4a/pool_proj"
  top: "inception_4a/pool_proj"
}
layer {
  name: "inception_4a/output"
  type: "Concat"
  bottom: "inception_4a/1x1"
  bottom: "inception_4a/3x3"
  bottom: "inception_4a/5x5"
  bottom: "inception_4a/pool_proj"
  top: "inception_4a/output"
}
layer {
  name: "loss1/ave_pool"
  type: "Pooling"
  bottom: "inception_4a/output"
  top: "loss1/ave_pool"
  pooling_param {
    pool: AVE
    kernel_size: 5
    stride: 3
  }
}
layer {
  name: "loss1/conv"
  type: "Convolution"
  bottom: "loss1/ave_pool"
  top: "loss1/conv"
  param {
    lr_mult: 1
    decay_mult: 1
  }
  param {
    lr_mult: 2
    decay_mult: 0
  }
  convolution_param {
    num_output: 128
    kernel_size: 1
    weight_filler {
      type: "xavier"
      std: 0.08
    }
    bias_filler {
      type: "constant"
      value: 0.2
    }
  }
}
layer {
  name: "loss1/relu_conv"
  type: "ReLU"
  bottom: "loss1/conv"
  top: "loss1/conv"
}
layer {
  name: "loss1/fc"
  type: "InnerProduct"
  bottom: "loss1/conv"
  top: "loss1/fc"
  param {
    lr_mult: 1
    decay_mult: 1
  }
  param {
    lr_mult: 2
    decay_mult: 0
  }
  inner_product_param {
    num_output: 1024
    weight_filler {
      type: "xavier"
      std: 0.02
    }
    bias_filler {
      type: "constant"
      value: 0.2
    }
  }
}
layer {
  name: "loss1/relu_fc"
  type: "ReLU"
  bottom: "loss1/fc"
  top: "loss1/fc"
}
layer {
  name: "loss1/drop_fc"
  type: "Dropout"
  bottom: "loss1/fc"
  top: "loss1/fc"
  dropout_param {
    dropout_ratio: 0.7
  }
}
layer {
  name: "loss1/classifier_plantvillage"
  type: "InnerProduct"
  bottom: "loss1/fc"
  top: "loss1/classifier_plantvillage"
  param {
    lr_mult: 1
    decay_mult: 1
  }
  param {
    lr_mult: 2
    decay_mult: 0
  }
  inner_product_param {
    num_output: 38
    weight_filler {
      type: "xavier"
      std: 0.0009765625
    }
    bias_filler {
      type: "constant"
      value: 0
    }
  }
}
layer {
  name: "inception_4b/1x1"
  type: "Convolution"
  bottom: "inception_4a/output"
  top: "inception_4b/1x1"
  param {
    lr_mult: 1
    decay_mult: 1
  }
  param {
    lr_mult: 2
    decay_mult: 0
  }
  convolution_param {
    num_output: 160
    kernel_size: 1
    weight_filler {
      type: "xavier"
      std: 0.03
    }
    bias_filler {
      type: "constant"
      value: 0.2
    }
  }
}
layer {
  name: "inception_4b/relu_1x1"
  type: "ReLU"
  bottom: "inception_4b/1x1"
  top: "inception_4b/1x1"
}
layer {
  name: "inception_4b/3x3_reduce"
  type: "Convolution"
  bottom: "inception_4a/output"
  top: "inception_4b/3x3_reduce"
  param {
    lr_mult: 1
    decay_mult: 1
  }
  param {
    lr_mult: 2
    decay_mult: 0
  }
  convolution_param {
    num_output: 112
    kernel_size: 1
    weight_filler {
      type: "xavier"
      std: 0.09
    }
    bias_filler {
      type: "constant"
      value: 0.2
    }
  }
}
layer {
  name: "inception_4b/relu_3x3_reduce"
  type: "ReLU"
  bottom: "inception_4b/3x3_reduce"
  top: "inception_4b/3x3_reduce"
}
layer {
  name: "inception_4b/3x3"
  type: "Convolution"
  bottom: "inception_4b/3x3_reduce"
  top: "inception_4b/3x3"
  param {
    lr_mult: 1
    decay_mult: 1
  }
  param {
    lr_mult: 2
    decay_mult: 0
  }
  convolution_param {
    num_output: 224
    pad: 1
    kernel_size: 3
    weight_filler {
      type: "xavier"
      std: 0.03
    }
    bias_filler {
      type: "constant"
      value: 0.2
    }
  }
}
layer {
  name: "inception_4b/relu_3x3"
  type: "ReLU"
  bottom: "inception_4b/3x3"
  top: "inception_4b/3x3"
}
layer {
  name: "inception_4b/5x5_reduce"
  type: "Convolution"
  bottom: "inception_4a/output"
  top: "inception_4b/5x5_reduce"
  param {
    lr_mult: 1
    decay_mult: 1
  }
  param {
    lr_mult: 2
    decay_mult: 0
  }
  convolution_param {
    num_output: 24
    kernel_size: 1
    weight_filler {
      type: "xavier"
      std: 0.2
    }
    bias_filler {
      type: "constant"
      value: 0.2
    }
  }
}
layer {
  name: "inception_4b/relu_5x5_reduce"
  type: "ReLU"
  bottom: "inception_4b/5x5_reduce"
  top: "inception_4b/5x5_reduce"
}
layer {
  name: "inception_4b/5x5"
  type: "Convolution"
  bottom: "inception_4b/5x5_reduce"
  top: "inception_4b/5x5"
  param {
    lr_mult: 1
    decay_mult: 1
  }
  param {
    lr_mult: 2
    decay_mult: 0
  }
  convolution_param {
    num_output: 64
    pad: 2
    kernel_size: 5
    weight_filler {
      type: "xavier"
      std: 0.03
    }
    bias_filler {
      type: "constant"
      value: 0.2
    }
  }
}
layer {
  name: "inception_4b/relu_5x5"
  type: "ReLU"
  bottom: "inception_4b/5x5"
  top: "inception_4b/5x5"
}
layer {
  name: "inception_4b/pool"
  type: "Pooling"
  bottom: "inception_4a/output"
  top: "inception_4b/pool"
  pooling_param {
    pool: MAX
    kernel_size: 3
    stride: 1
    pad: 1
  }
}
layer {
  name: "inception_4b/pool_proj"
  type: "Convolution"
  bottom: "inception_4b/pool"
  top: "inception_4b/pool_proj"
  param {
    lr_mult: 1
    decay_mult: 1
  }
  param {
    lr_mult: 2
    decay_mult: 0
  }
  convolution_param {
    num_output: 64
    kernel_size: 1
    weight_filler {
      type: "xavier"
      std: 0.1
    }
    bias_filler {
      type: "constant"
      value: 0.2
    }
  }
}
layer {
  name: "inception_4b/relu_pool_proj"
  type: "ReLU"
  bottom: "inception_4b/pool_proj"
  top: "inception_4b/pool_proj"
}
layer {
  name: "inception_4b/output"
  type: "Concat"
  bottom: "inception_4b/1x1"
  bottom: "inception_4b/3x3"
  bottom: "inception_4b/5x5"
  bottom: "inception_4b/pool_proj"
  top: "inception_4b/output"
}
layer {
  name: "inception_4c/1x1"
  type: "Convolution"
  bottom: "inception_4b/output"
  top: "inception_4c/1x1"
  param {
    lr_mult: 1
    decay_mult: 1
  }
  param {
    lr_mult: 2
    decay_mult: 0
  }
  convolution_param {
    num_output: 128
    kernel_size: 1
    weight_filler {
      type: "xavier"
      std: 0.03
    }
    bias_filler {
      type: "constant"
      value: 0.2
    }
  }
}
layer {
  name: "inception_4c/relu_1x1"
  type: "ReLU"
  bottom: "inception_4c/1x1"
  top: "inception_4c/1x1"
}
layer {
  name: "inception_4c/3x3_reduce"
  type: "Convolution"
  bottom: "inception_4b/output"
  top: "inception_4c/3x3_reduce"
  param {
    lr_mult: 1
    decay_mult: 1
  }
  param {
    lr_mult: 2
    decay_mult: 0
  }
  convolution_param {
    num_output: 128
    kernel_size: 1
    weight_filler {
      type: "xavier"
      std: 0.09
    }
    bias_filler {
      type: "constant"
      value: 0.2
    }
  }
}
layer {
  name: "inception_4c/relu_3x3_reduce"
  type: "ReLU"
  bottom: "inception_4c/3x3_reduce"
  top: "inception_4c/3x3_reduce"
}
layer {
  name: "inception_4c/3x3"
  type: "Convolution"
  bottom: "inception_4c/3x3_reduce"
  top: "inception_4c/3x3"
  param {
    lr_mult: 1
    decay_mult: 1
  }
  param {
    lr_mult: 2
    decay_mult: 0
  }
  convolution_param {
    num_output: 256
    pad: 1
    kernel_size: 3
    weight_filler {
      type: "xavier"
      std: 0.03
    }
    bias_filler {
      type: "constant"
      value: 0.2
    }
  }
}
layer {
  name: "inception_4c/relu_3x3"
  type: "ReLU"
  bottom: "inception_4c/3x3"
  top: "inception_4c/3x3"
}
layer {
  name: "inception_4c/5x5_reduce"
  type: "Convolution"
  bottom: "inception_4b/output"
  top: "inception_4c/5x5_reduce"
  param {
    lr_mult: 1
    decay_mult: 1
  }
  param {
    lr_mult: 2
    decay_mult: 0
  }
  convolution_param {
    num_output: 24
    kernel_size: 1
    weight_filler {
      type: "xavier"
      std: 0.2
    }
    bias_filler {
      type: "constant"
      value: 0.2
    }
  }
}
layer {
  name: "inception_4c/relu_5x5_reduce"
  type: "ReLU"
  bottom: "inception_4c/5x5_reduce"
  top: "inception_4c/5x5_reduce"
}
layer {
  name: "inception_4c/5x5"
  type: "Convolution"
  bottom: "inception_4c/5x5_reduce"
  top: "inception_4c/5x5"
  param {
    lr_mult: 1
    decay_mult: 1
  }
  param {
    lr_mult: 2
    decay_mult: 0
  }
  convolution_param {
    num_output: 64
    pad: 2
    kernel_size: 5
    weight_filler {
      type: "xavier"
      std: 0.03
    }
    bias_filler {
      type: "constant"
      value: 0.2
    }
  }
}
layer {
  name: "inception_4c/relu_5x5"
  type: "ReLU"
  bottom: "inception_4c/5x5"
  top: "inception_4c/5x5"
}
layer {
  name: "inception_4c/pool"
  type: "Pooling"
  bottom: "inception_4b/output"
  top: "inception_4c/pool"
  pooling_param {
    pool: MAX
    kernel_size: 3
    stride: 1
    pad: 1
  }
}
layer {
  name: "inception_4c/pool_proj"
  type: "Convolution"
  bottom: "inception_4c/pool"
  top: "inception_4c/pool_proj"
  param {
    lr_mult: 1
    decay_mult: 1
  }
  param {
    lr_mult: 2
    decay_mult: 0
  }
  convolution_param {
    num_output: 64
    kernel_size: 1
    weight_filler {
      type: "xavier"
      std: 0.1
    }
    bias_filler {
      type: "constant"
      value: 0.2
    }
  }
}
layer {
  name: "inception_4c/relu_pool_proj"
  type: "ReLU"
  bottom: "inception_4c/pool_proj"
  top: "inception_4c/pool_proj"
}
layer {
  name: "inception_4c/output"
  type: "Concat"
  bottom: "inception_4c/1x1"
  bottom: "inception_4c/3x3"
  bottom: "inception_4c/5x5"
  bottom: "inception_4c/pool_proj"
  top: "inception_4c/output"
}
layer {
  name: "inception_4d/1x1"
  type: "Convolution"
  bottom: "inception_4c/output"
  top: "inception_4d/1x1"
  param {
    lr_mult: 1
    decay_mult: 1
  }
  param {
    lr_mult: 2
    decay_mult: 0
  }
  convolution_param {
    num_output: 112
    kernel_size: 1
    weight_filler {
      type: "xavier"
      std: 0.03
    }
    bias_filler {
      type: "constant"
      value: 0.2
    }
  }
}
layer {
  name: "inception_4d/relu_1x1"
  type: "ReLU"
  bottom: "inception_4d/1x1"
  top: "inception_4d/1x1"
}
layer {
  name: "inception_4d/3x3_reduce"
  type: "Convolution"
  bottom: "inception_4c/output"
  top: "inception_4d/3x3_reduce"
  param {
    lr_mult: 1
    decay_mult: 1
  }
  param {
    lr_mult: 2
    decay_mult: 0
  }
  convolution_param {
    num_output: 144
    kernel_size: 1
    weight_filler {
      type: "xavier"
      std: 0.09
    }
    bias_filler {
      type: "constant"
      value: 0.2
    }
  }
}
layer {
  name: "inception_4d/relu_3x3_reduce"
  type: "ReLU"
  bottom: "inception_4d/3x3_reduce"
  top: "inception_4d/3x3_reduce"
}
layer {
  name: "inception_4d/3x3"
  type: "Convolution"
  bottom: "inception_4d/3x3_reduce"
  top: "inception_4d/3x3"
  param {
    lr_mult: 1
    decay_mult: 1
  }
  param {
    lr_mult: 2
    decay_mult: 0
  }
  convolution_param {
    num_output: 288
    pad: 1
    kernel_size: 3
    weight_filler {
      type: "xavier"
      std: 0.03
    }
    bias_filler {
      type: "constant"
      value: 0.2
    }
  }
}
layer {
  name: "inception_4d/relu_3x3"
  type: "ReLU"
  bottom: "inception_4d/3x3"
  top: "inception_4d/3x3"
}
layer {
  name: "inception_4d/5x5_reduce"
  type: "Convolution"
  bottom: "inception_4c/output"
  top: "inception_4d/5x5_reduce"
  param {
    lr_mult: 1
    decay_mult: 1
  }
  param {
    lr_mult: 2
    decay_mult: 0
  }
  convolution_param {
    num_output: 32
    kernel_size: 1
    weight_filler {
      type: "xavier"
      std: 0.2
    }
    bias_filler {
      type: "constant"
      value: 0.2
    }
  }
}
layer {
  name: "inception_4d/relu_5x5_reduce"
  type: "ReLU"
  bottom: "inception_4d/5x5_reduce"
  top: "inception_4d/5x5_reduce"
}
layer {
  name: "inception_4d/5x5"
  type: "Convolution"
  bottom: "inception_4d/5x5_reduce"
  top: "inception_4d/5x5"
  param {
    lr_mult: 1
    decay_mult: 1
  }
  param {
    lr_mult: 2
    decay_mult: 0
  }
  convolution_param {
    num_output: 64
    pad: 2
    kernel_size: 5
    weight_filler {
      type: "xavier"
      std: 0.03
    }
    bias_filler {
      type: "constant"
      value: 0.2
    }
  }
}
layer {
  name: "inception_4d/relu_5x5"
  type: "ReLU"
  bottom: "inception_4d/5x5"
  top: "inception_4d/5x5"
}
layer {
  name: "inception_4d/pool"
  type: "Pooling"
  bottom: "inception_4c/output"
  top: "inception_4d/pool"
  pooling_param {
    pool: MAX
    kernel_size: 3
    stride: 1
    pad: 1
  }
}
layer {
  name: "inception_4d/pool_proj"
  type: "Convolution"
  bottom: "inception_4d/pool"
  top: "inception_4d/pool_proj"
  param {
    lr_mult: 1
    decay_mult: 1
  }
  param {
    lr_mult: 2
    decay_mult: 0
  }
  convolution_param {
    num_output: 64
    kernel_size: 1
    weight_filler {
      type: "xavier"
      std: 0.1
    }
    bias_filler {
      type: "constant"
      value: 0.2
    }
  }
}
layer {
  name: "inception_4d/relu_pool_proj"
  type: "ReLU"
  bottom: "inception_4d/pool_proj"
  top: "inception_4d/pool_proj"
}
layer {
  name: "inception_4d/output"
  type: "Concat"
  bottom: "inception_4d/1x1"
  bottom: "inception_4d/3x3"
  bottom: "inception_4d/5x5"
  bottom: "inception_4d/pool_proj"
  top: "inception_4d/output"
}
layer {
  name: "loss2/ave_pool"
  type: "Pooling"
  bottom: "inception_4d/output"
  top: "loss2/ave_pool"
  pooling_param {
    pool: AVE
    kernel_size: 5
    stride: 3
  }
}
layer {
  name: "loss2/conv"
  type: "Convolution"
  bottom: "loss2/ave_pool"
  top: "loss2/conv"
  param {
    lr_mult: 1
    decay_mult: 1
  }
  param {
    lr_mult: 2
    decay_mult: 0
  }
  convolution_param {
    num_output: 128
    kernel_size: 1
    weight_filler {
      type: "xavier"
      std: 0.08
    }
    bias_filler {
      type: "constant"
      value: 0.2
    }
  }
}
layer {
  name: "loss2/relu_conv"
  type: "ReLU"
  bottom: "loss2/conv"
  top: "loss2/conv"
}
layer {
  name: "loss2/fc"
  type: "InnerProduct"
  bottom: "loss2/conv"
  top: "loss2/fc"
  param {
    lr_mult: 1
    decay_mult: 1
  }
  param {
    lr_mult: 2
    decay_mult: 0
  }
  inner_product_param {
    num_output: 1024
    weight_filler {
      type: "xavier"
      std: 0.02
    }
    bias_filler {
      type: "constant"
      value: 0.2
    }
  }
}
layer {
  name: "loss2/relu_fc"
  type: "ReLU"
  bottom: "loss2/fc"
  top: "loss2/fc"
}
layer {
  name: "loss2/drop_fc"
  type: "Dropout"
  bottom: "loss2/fc"
  top: "loss2/fc"
  dropout_param {
    dropout_ratio: 0.7
  }
}
layer {
  name: "loss2/classifier_plantvillage"
  type: "InnerProduct"
  bottom: "loss2/fc"
  top: "loss2/classifier_plantvillage"
  param {
    lr_mult: 1
    decay_mult: 1
  }
  param {
    lr_mult: 2
    decay_mult: 0
  }
  inner_product_param {
    num_output: 38
    weight_filler {
      type: "xavier"
      std: 0.0009765625
    }
    bias_filler {
      type: "constant"
      value: 0
    }
  }
}
layer {
  name: "inception_4e/1x1"
  type: "Convolution"
  bottom: "inception_4d/output"
  top: "inception_4e/1x1"
  param {
    lr_mult: 1
    decay_mult: 1
  }
  param {
    lr_mult: 2
    decay_mult: 0
  }
  convolution_param {
    num_output: 256
    kernel_size: 1
    weight_filler {
      type: "xavier"
      std: 0.03
    }
    bias_filler {
      type: "constant"
      value: 0.2
    }
  }
}
layer {
  name: "inception_4e/relu_1x1"
  type: "ReLU"
  bottom: "inception_4e/1x1"
  top: "inception_4e/1x1"
}
layer {
  name: "inception_4e/3x3_reduce"
  type: "Convolution"
  bottom: "inception_4d/output"
  top: "inception_4e/3x3_reduce"
  param {
    lr_mult: 1
    decay_mult: 1
  }
  param {
    lr_mult: 2
    decay_mult: 0
  }
  convolution_param {
    num_output: 160
    kernel_size: 1
    weight_filler {
      type: "xavier"
      std: 0.09
    }
    bias_filler {
      type: "constant"
      value: 0.2
    }
  }
}
layer {
  name: "inception_4e/relu_3x3_reduce"
  type: "ReLU"
  bottom: "inception_4e/3x3_reduce"
  top: "inception_4e/3x3_reduce"
}
layer {
  name: "inception_4e/3x3"
  type: "Convolution"
  bottom: "inception_4e/3x3_reduce"
  top: "inception_4e/3x3"
  param {
    lr_mult: 1
    decay_mult: 1
  }
  param {
    lr_mult: 2
    decay_mult: 0
  }
  convolution_param {
    num_output: 320
    pad: 1
    kernel_size: 3
    weight_filler {
      type: "xavier"
      std: 0.03
    }
    bias_filler {
      type: "constant"
      value: 0.2
    }
  }
}
layer {
  name: "inception_4e/relu_3x3"
  type: "ReLU"
  bottom: "inception_4e/3x3"
  top: "inception_4e/3x3"
}
layer {
  name: "inception_4e/5x5_reduce"
  type: "Convolution"
  bottom: "inception_4d/output"
  top: "inception_4e/5x5_reduce"
  param {
    lr_mult: 1
    decay_mult: 1
  }
  param {
    lr_mult: 2
    decay_mult: 0
  }
  convolution_param {
    num_output: 32
    kernel_size: 1
    weight_filler {
      type: "xavier"
      std: 0.2
    }
    bias_filler {
      type: "constant"
      value: 0.2
    }
  }
}
layer {
  name: "inception_4e/relu_5x5_reduce"
  type: "ReLU"
  bottom: "inception_4e/5x5_reduce"
  top: "inception_4e/5x5_reduce"
}
layer {
  name: "inception_4e/5x5"
  type: "Convolution"
  bottom: "inception_4e/5x5_reduce"
  top: "inception_4e/
I0403 19:36:25.129051 25271 layer_factory.hpp:77] Creating layer data
I0403 19:36:25.129798 25271 net.cpp:91] Creating Layer data
I0403 19:36:25.129840 25271 net.cpp:399] data -> data
I0403 19:36:25.129919 25271 net.cpp:399] data -> label
I0403 19:36:25.129969 25271 data_transformer.cpp:25] Loading mean file from: /home/mohanty/data/final_dataset/lmdb/grayscale-80-20/mean.binaryproto
I0403 19:36:25.131384 25274 db_lmdb.cpp:38] Opened lmdb /home/mohanty/data/final_dataset/lmdb/grayscale-80-20/test_db
I0403 19:36:25.146651 25271 data_layer.cpp:41] output data size: 24,3,224,224
I0403 19:36:25.179576 25271 net.cpp:141] Setting up data
I0403 19:36:25.179697 25271 net.cpp:148] Top shape: 24 3 224 224 (3612672)
I0403 19:36:25.179726 25271 net.cpp:148] Top shape: 24 (24)
I0403 19:36:25.179746 25271 net.cpp:156] Memory required for data: 14450784
I0403 19:36:25.179787 25271 layer_factory.hpp:77] Creating layer label_data_1_split
I0403 19:36:25.179824 25271 net.cpp:91] Creating Layer label_data_1_split
I0403 19:36:25.179848 25271 net.cpp:425] label_data_1_split <- label
I0403 19:36:25.179890 25271 net.cpp:399] label_data_1_split -> label_data_1_split_0
I0403 19:36:25.179929 25271 net.cpp:399] label_data_1_split -> label_data_1_split_1
I0403 19:36:25.179956 25271 net.cpp:399] label_data_1_split -> label_data_1_split_2
I0403 19:36:25.179985 25271 net.cpp:399] label_data_1_split -> label_data_1_split_3
I0403 19:36:25.180011 25271 net.cpp:399] label_data_1_split -> label_data_1_split_4
I0403 19:36:25.180034 25271 net.cpp:399] label_data_1_split -> label_data_1_split_5
I0403 19:36:25.180059 25271 net.cpp:399] label_data_1_split -> label_data_1_split_6
I0403 19:36:25.180085 25271 net.cpp:399] label_data_1_split -> label_data_1_split_7
I0403 19:36:25.180111 25271 net.cpp:399] label_data_1_split -> label_data_1_split_8
I0403 19:36:25.180138 25271 net.cpp:399] label_data_1_split -> label_data_1_split_9
I0403 19:36:25.180282 25271 net.cpp:141] Setting up label_data_1_split
I0403 19:36:25.180318 25271 net.cpp:148] Top shape: 24 (24)
I0403 19:36:25.180342 25271 net.cpp:148] Top shape: 24 (24)
I0403 19:36:25.180361 25271 net.cpp:148] Top shape: 24 (24)
I0403 19:36:25.180382 25271 net.cpp:148] Top shape: 24 (24)
I0403 19:36:25.180402 25271 net.cpp:148] Top shape: 24 (24)
I0403 19:36:25.180423 25271 net.cpp:148] Top shape: 24 (24)
I0403 19:36:25.180441 25271 net.cpp:148] Top shape: 24 (24)
I0403 19:36:25.180459 25271 net.cpp:148] Top shape: 24 (24)
I0403 19:36:25.180480 25271 net.cpp:148] Top shape: 24 (24)
I0403 19:36:25.180500 25271 net.cpp:148] Top shape: 24 (24)
I0403 19:36:25.180557 25271 net.cpp:156] Memory required for data: 14451744
I0403 19:36:25.180580 25271 layer_factory.hpp:77] Creating layer conv1/7x7_s2
I0403 19:36:25.180625 25271 net.cpp:91] Creating Layer conv1/7x7_s2
I0403 19:36:25.180649 25271 net.cpp:425] conv1/7x7_s2 <- data
I0403 19:36:25.180673 25271 net.cpp:399] conv1/7x7_s2 -> conv1/7x7_s2
I0403 19:36:25.348882 25271 net.cpp:141] Setting up conv1/7x7_s2
I0403 19:36:25.349009 25271 net.cpp:148] Top shape: 24 64 112 112 (19267584)
I0403 19:36:25.349031 25271 net.cpp:156] Memory required for data: 91522080
I0403 19:36:25.349077 25271 layer_factory.hpp:77] Creating layer conv1/relu_7x7
I0403 19:36:25.349117 25271 net.cpp:91] Creating Layer conv1/relu_7x7
I0403 19:36:25.349143 25271 net.cpp:425] conv1/relu_7x7 <- conv1/7x7_s2
I0403 19:36:25.349169 25271 net.cpp:386] conv1/relu_7x7 -> conv1/7x7_s2 (in-place)
I0403 19:36:25.349489 25271 net.cpp:141] Setting up conv1/relu_7x7
I0403 19:36:25.349524 25271 net.cpp:148] Top shape: 24 64 112 112 (19267584)
I0403 19:36:25.349546 25271 net.cpp:156] Memory required for data: 168592416
I0403 19:36:25.349565 25271 layer_factory.hpp:77] Creating layer pool1/3x3_s2
I0403 19:36:25.349598 25271 net.cpp:91] Creating Layer pool1/3x3_s2
I0403 19:36:25.349622 25271 net.cpp:425] pool1/3x3_s2 <- conv1/7x7_s2
I0403 19:36:25.349645 25271 net.cpp:399] pool1/3x3_s2 -> pool1/3x3_s2
I0403 19:36:25.349742 25271 net.cpp:141] Setting up pool1/3x3_s2
I0403 19:36:25.349773 25271 net.cpp:148] Top shape: 24 64 56 56 (4816896)
I0403 19:36:25.349794 25271 net.cpp:156] Memory required for data: 187860000
I0403 19:36:25.349812 25271 layer_factory.hpp:77] Creating layer pool1/norm1
I0403 19:36:25.349845 25271 net.cpp:91] Creating Layer pool1/norm1
I0403 19:36:25.349870 25271 net.cpp:425] pool1/norm1 <- pool1/3x3_s2
I0403 19:36:25.349892 25271 net.cpp:399] pool1/norm1 -> pool1/norm1
I0403 19:36:25.350250 25271 net.cpp:141] Setting up pool1/norm1
I0403 19:36:25.350289 25271 net.cpp:148] Top shape: 24 64 56 56 (4816896)
I0403 19:36:25.350311 25271 net.cpp:156] Memory required for data: 207127584
I0403 19:36:25.350328 25271 layer_factory.hpp:77] Creating layer conv2/3x3_reduce
I0403 19:36:25.350364 25271 net.cpp:91] Creating Layer conv2/3x3_reduce
I0403 19:36:25.350385 25271 net.cpp:425] conv2/3x3_reduce <- pool1/norm1
I0403 19:36:25.350409 25271 net.cpp:399] conv2/3x3_reduce -> conv2/3x3_reduce
I0403 19:36:25.352006 25271 net.cpp:141] Setting up conv2/3x3_reduce
I0403 19:36:25.352046 25271 net.cpp:148] Top shape: 24 64 56 56 (4816896)
I0403 19:36:25.352068 25271 net.cpp:156] Memory required for data: 226395168
I0403 19:36:25.352099 25271 layer_factory.hpp:77] Creating layer conv2/relu_3x3_reduce
I0403 19:36:25.352123 25271 net.cpp:91] Creating Layer conv2/relu_3x3_reduce
I0403 19:36:25.352144 25271 net.cpp:425] conv2/relu_3x3_reduce <- conv2/3x3_reduce
I0403 19:36:25.352164 25271 net.cpp:386] conv2/relu_3x3_reduce -> conv2/3x3_reduce (in-place)
I0403 19:36:25.352499 25271 net.cpp:141] Setting up conv2/relu_3x3_reduce
I0403 19:36:25.352533 25271 net.cpp:148] Top shape: 24 64 56 56 (4816896)
I0403 19:36:25.352553 25271 net.cpp:156] Memory required for data: 245662752
I0403 19:36:25.352573 25271 layer_factory.hpp:77] Creating layer conv2/3x3
I0403 19:36:25.352603 25271 net.cpp:91] Creating Layer conv2/3x3
I0403 19:36:25.352627 25271 net.cpp:425] conv2/3x3 <- conv2/3x3_reduce
I0403 19:36:25.352654 25271 net.cpp:399] conv2/3x3 -> conv2/3x3
I0403 19:36:25.355420 25271 net.cpp:141] Setting up conv2/3x3
I0403 19:36:25.355461 25271 net.cpp:148] Top shape: 24 192 56 56 (14450688)
I0403 19:36:25.355482 25271 net.cpp:156] Memory required for data: 303465504
I0403 19:36:25.355509 25271 layer_factory.hpp:77] Creating layer conv2/relu_3x3
I0403 19:36:25.355536 25271 net.cpp:91] Creating Layer conv2/relu_3x3
I0403 19:36:25.355559 25271 net.cpp:425] conv2/relu_3x3 <- conv2/3x3
I0403 19:36:25.355584 25271 net.cpp:386] conv2/relu_3x3 -> conv2/3x3 (in-place)
I0403 19:36:25.355800 25271 net.cpp:141] Setting up conv2/relu_3x3
I0403 19:36:25.355837 25271 net.cpp:148] Top shape: 24 192 56 56 (14450688)
I0403 19:36:25.355897 25271 net.cpp:156] Memory required for data: 361268256
I0403 19:36:25.355918 25271 layer_factory.hpp:77] Creating layer conv2/norm2
I0403 19:36:25.355942 25271 net.cpp:91] Creating Layer conv2/norm2
I0403 19:36:25.355963 25271 net.cpp:425] conv2/norm2 <- conv2/3x3
I0403 19:36:25.355994 25271 net.cpp:399] conv2/norm2 -> conv2/norm2
I0403 19:36:25.356381 25271 net.cpp:141] Setting up conv2/norm2
I0403 19:36:25.356418 25271 net.cpp:148] Top shape: 24 192 56 56 (14450688)
I0403 19:36:25.356438 25271 net.cpp:156] Memory required for data: 419071008
I0403 19:36:25.356458 25271 layer_factory.hpp:77] Creating layer pool2/3x3_s2
I0403 19:36:25.356482 25271 net.cpp:91] Creating Layer pool2/3x3_s2
I0403 19:36:25.356501 25271 net.cpp:425] pool2/3x3_s2 <- conv2/norm2
I0403 19:36:25.356526 25271 net.cpp:399] pool2/3x3_s2 -> pool2/3x3_s2
I0403 19:36:25.356591 25271 net.cpp:141] Setting up pool2/3x3_s2
I0403 19:36:25.356622 25271 net.cpp:148] Top shape: 24 192 28 28 (3612672)
I0403 19:36:25.356640 25271 net.cpp:156] Memory required for data: 433521696
I0403 19:36:25.356660 25271 layer_factory.hpp:77] Creating layer pool2/3x3_s2_pool2/3x3_s2_0_split
I0403 19:36:25.356684 25271 net.cpp:91] Creating Layer pool2/3x3_s2_pool2/3x3_s2_0_split
I0403 19:36:25.356705 25271 net.cpp:425] pool2/3x3_s2_pool2/3x3_s2_0_split <- pool2/3x3_s2
I0403 19:36:25.356729 25271 net.cpp:399] pool2/3x3_s2_pool2/3x3_s2_0_split -> pool2/3x3_s2_pool2/3x3_s2_0_split_0
I0403 19:36:25.356756 25271 net.cpp:399] pool2/3x3_s2_pool2/3x3_s2_0_split -> pool2/3x3_s2_pool2/3x3_s2_0_split_1
I0403 19:36:25.356783 25271 net.cpp:399] pool2/3x3_s2_pool2/3x3_s2_0_split -> pool2/3x3_s2_pool2/3x3_s2_0_split_2
I0403 19:36:25.356808 25271 net.cpp:399] pool2/3x3_s2_pool2/3x3_s2_0_split -> pool2/3x3_s2_pool2/3x3_s2_0_split_3
I0403 19:36:25.356896 25271 net.cpp:141] Setting up pool2/3x3_s2_pool2/3x3_s2_0_split
I0403 19:36:25.356930 25271 net.cpp:148] Top shape: 24 192 28 28 (3612672)
I0403 19:36:25.356956 25271 net.cpp:148] Top shape: 24 192 28 28 (3612672)
I0403 19:36:25.356976 25271 net.cpp:148] Top shape: 24 192 28 28 (3612672)
I0403 19:36:25.356997 25271 net.cpp:148] Top shape: 24 192 28 28 (3612672)
I0403 19:36:25.357014 25271 net.cpp:156] Memory required for data: 491324448
I0403 19:36:25.357033 25271 layer_factory.hpp:77] Creating layer inception_3a/1x1
I0403 19:36:25.357059 25271 net.cpp:91] Creating Layer inception_3a/1x1
I0403 19:36:25.357079 25271 net.cpp:425] inception_3a/1x1 <- pool2/3x3_s2_pool2/3x3_s2_0_split_0
I0403 19:36:25.357105 25271 net.cpp:399] inception_3a/1x1 -> inception_3a/1x1
I0403 19:36:25.358944 25271 net.cpp:141] Setting up inception_3a/1x1
I0403 19:36:25.358983 25271 net.cpp:148] Top shape: 24 64 28 28 (1204224)
I0403 19:36:25.359005 25271 net.cpp:156] Memory required for data: 496141344
I0403 19:36:25.359030 25271 layer_factory.hpp:77] Creating layer inception_3a/relu_1x1
I0403 19:36:25.359056 25271 net.cpp:91] Creating Layer inception_3a/relu_1x1
I0403 19:36:25.359079 25271 net.cpp:425] inception_3a/relu_1x1 <- inception_3a/1x1
I0403 19:36:25.359102 25271 net.cpp:386] inception_3a/relu_1x1 -> inception_3a/1x1 (in-place)
I0403 19:36:25.359319 25271 net.cpp:141] Setting up inception_3a/relu_1x1
I0403 19:36:25.359354 25271 net.cpp:148] Top shape: 24 64 28 28 (1204224)
I0403 19:36:25.359375 25271 net.cpp:156] Memory required for data: 500958240
I0403 19:36:25.359393 25271 layer_factory.hpp:77] Creating layer inception_3a/3x3_reduce
I0403 19:36:25.359426 25271 net.cpp:91] Creating Layer inception_3a/3x3_reduce
I0403 19:36:25.359449 25271 net.cpp:425] inception_3a/3x3_reduce <- pool2/3x3_s2_pool2/3x3_s2_0_split_1
I0403 19:36:25.359472 25271 net.cpp:399] inception_3a/3x3_reduce -> inception_3a/3x3_reduce
I0403 19:36:25.361476 25271 net.cpp:141] Setting up inception_3a/3x3_reduce
I0403 19:36:25.361515 25271 net.cpp:148] Top shape: 24 96 28 28 (1806336)
I0403 19:36:25.361537 25271 net.cpp:156] Memory required for data: 508183584
I0403 19:36:25.361562 25271 layer_factory.hpp:77] Creating layer inception_3a/relu_3x3_reduce
I0403 19:36:25.361610 25271 net.cpp:91] Creating Layer inception_3a/relu_3x3_reduce
I0403 19:36:25.361636 25271 net.cpp:425] inception_3a/relu_3x3_reduce <- inception_3a/3x3_reduce
I0403 19:36:25.361660 25271 net.cpp:386] inception_3a/relu_3x3_reduce -> inception_3a/3x3_reduce (in-place)
I0403 19:36:25.361886 25271 net.cpp:141] Setting up inception_3a/relu_3x3_reduce
I0403 19:36:25.361917 25271 net.cpp:148] Top shape: 24 96 28 28 (1806336)
I0403 19:36:25.361937 25271 net.cpp:156] Memory required for data: 515408928
I0403 19:36:25.361958 25271 layer_factory.hpp:77] Creating layer inception_3a/3x3
I0403 19:36:25.361986 25271 net.cpp:91] Creating Layer inception_3a/3x3
I0403 19:36:25.362010 25271 net.cpp:425] inception_3a/3x3 <- inception_3a/3x3_reduce
I0403 19:36:25.362036 25271 net.cpp:399] inception_3a/3x3 -> inception_3a/3x3
I0403 19:36:25.364040 25271 net.cpp:141] Setting up inception_3a/3x3
I0403 19:36:25.364078 25271 net.cpp:148] Top shape: 24 128 28 28 (2408448)
I0403 19:36:25.364099 25271 net.cpp:156] Memory required for data: 525042720
I0403 19:36:25.364123 25271 layer_factory.hpp:77] Creating layer inception_3a/relu_3x3
I0403 19:36:25.364148 25271 net.cpp:91] Creating Layer inception_3a/relu_3x3
I0403 19:36:25.364171 25271 net.cpp:425] inception_3a/relu_3x3 <- inception_3a/3x3
I0403 19:36:25.364194 25271 net.cpp:386] inception_3a/relu_3x3 -> inception_3a/3x3 (in-place)
I0403 19:36:25.364552 25271 net.cpp:141] Setting up inception_3a/relu_3x3
I0403 19:36:25.364589 25271 net.cpp:148] Top shape: 24 128 28 28 (2408448)
I0403 19:36:25.364610 25271 net.cpp:156] Memory required for data: 534676512
I0403 19:36:25.364629 25271 layer_factory.hpp:77] Creating layer inception_3a/5x5_reduce
I0403 19:36:25.364657 25271 net.cpp:91] Creating Layer inception_3a/5x5_reduce
I0403 19:36:25.364681 25271 net.cpp:425] inception_3a/5x5_reduce <- pool2/3x3_s2_pool2/3x3_s2_0_split_2
I0403 19:36:25.364708 25271 net.cpp:399] inception_3a/5x5_reduce -> inception_3a/5x5_reduce
I0403 19:36:25.365875 25271 net.cpp:141] Setting up inception_3a/5x5_reduce
I0403 19:36:25.365916 25271 net.cpp:148] Top shape: 24 16 28 28 (301056)
I0403 19:36:25.365938 25271 net.cpp:156] Memory required for data: 535880736
I0403 19:36:25.365962 25271 layer_factory.hpp:77] Creating layer inception_3a/relu_5x5_reduce
I0403 19:36:25.365984 25271 net.cpp:91] Creating Layer inception_3a/relu_5x5_reduce
I0403 19:36:25.366005 25271 net.cpp:425] inception_3a/relu_5x5_reduce <- inception_3a/5x5_reduce
I0403 19:36:25.366029 25271 net.cpp:386] inception_3a/relu_5x5_reduce -> inception_3a/5x5_reduce (in-place)
I0403 19:36:25.366385 25271 net.cpp:141] Setting up inception_3a/relu_5x5_reduce
I0403 19:36:25.366425 25271 net.cpp:148] Top shape: 24 16 28 28 (301056)
I0403 19:36:25.366446 25271 net.cpp:156] Memory required for data: 537084960
I0403 19:36:25.366466 25271 layer_factory.hpp:77] Creating layer inception_3a/5x5
I0403 19:36:25.366492 25271 net.cpp:91] Creating Layer inception_3a/5x5
I0403 19:36:25.366515 25271 net.cpp:425] inception_3a/5x5 <- inception_3a/5x5_reduce
I0403 19:36:25.366542 25271 net.cpp:399] inception_3a/5x5 -> inception_3a/5x5
I0403 19:36:25.367774 25271 net.cpp:141] Setting up inception_3a/5x5
I0403 19:36:25.367810 25271 net.cpp:148] Top shape: 24 32 28 28 (602112)
I0403 19:36:25.367833 25271 net.cpp:156] Memory required for data: 539493408
I0403 19:36:25.367857 25271 layer_factory.hpp:77] Creating layer inception_3a/relu_5x5
I0403 19:36:25.367882 25271 net.cpp:91] Creating Layer inception_3a/relu_5x5
I0403 19:36:25.367907 25271 net.cpp:425] inception_3a/relu_5x5 <- inception_3a/5x5
I0403 19:36:25.367928 25271 net.cpp:386] inception_3a/relu_5x5 -> inception_3a/5x5 (in-place)
I0403 19:36:25.368140 25271 net.cpp:141] Setting up inception_3a/relu_5x5
I0403 19:36:25.368177 25271 net.cpp:148] Top shape: 24 32 28 28 (602112)
I0403 19:36:25.368198 25271 net.cpp:156] Memory required for data: 541901856
I0403 19:36:25.368217 25271 layer_factory.hpp:77] Creating layer inception_3a/pool
I0403 19:36:25.368239 25271 net.cpp:91] Creating Layer inception_3a/pool
I0403 19:36:25.368288 25271 net.cpp:425] inception_3a/pool <- pool2/3x3_s2_pool2/3x3_s2_0_split_3
I0403 19:36:25.368319 25271 net.cpp:399] inception_3a/pool -> inception_3a/pool
I0403 19:36:25.368391 25271 net.cpp:141] Setting up inception_3a/pool
I0403 19:36:25.368423 25271 net.cpp:148] Top shape: 24 192 28 28 (3612672)
I0403 19:36:25.368443 25271 net.cpp:156] Memory required for data: 556352544
I0403 19:36:25.368461 25271 layer_factory.hpp:77] Creating layer inception_3a/pool_proj
I0403 19:36:25.368489 25271 net.cpp:91] Creating Layer inception_3a/pool_proj
I0403 19:36:25.368512 25271 net.cpp:425] inception_3a/pool_proj <- inception_3a/pool
I0403 19:36:25.368541 25271 net.cpp:399] inception_3a/pool_proj -> inception_3a/pool_proj
I0403 19:36:25.369704 25271 net.cpp:141] Setting up inception_3a/pool_proj
I0403 19:36:25.369741 25271 net.cpp:148] Top shape: 24 32 28 28 (602112)
I0403 19:36:25.369762 25271 net.cpp:156] Memory required for data: 558760992
I0403 19:36:25.369792 25271 layer_factory.hpp:77] Creating layer inception_3a/relu_pool_proj
I0403 19:36:25.369819 25271 net.cpp:91] Creating Layer inception_3a/relu_pool_proj
I0403 19:36:25.369842 25271 net.cpp:425] inception_3a/relu_pool_proj <- inception_3a/pool_proj
I0403 19:36:25.369866 25271 net.cpp:386] inception_3a/relu_pool_proj -> inception_3a/pool_proj (in-place)
I0403 19:36:25.370192 25271 net.cpp:141] Setting up inception_3a/relu_pool_proj
I0403 19:36:25.370229 25271 net.cpp:148] Top shape: 24 32 28 28 (602112)
I0403 19:36:25.370249 25271 net.cpp:156] Memory required for data: 561169440
I0403 19:36:25.370276 25271 layer_factory.hpp:77] Creating layer inception_3a/output
I0403 19:36:25.370306 25271 net.cpp:91] Creating Layer inception_3a/output
I0403 19:36:25.370326 25271 net.cpp:425] inception_3a/output <- inception_3a/1x1
I0403 19:36:25.370345 25271 net.cpp:425] inception_3a/output <- inception_3a/3x3
I0403 19:36:25.370365 25271 net.cpp:425] inception_3a/output <- inception_3a/5x5
I0403 19:36:25.370386 25271 net.cpp:425] inception_3a/output <- inception_3a/pool_proj
I0403 19:36:25.370407 25271 net.cpp:399] inception_3a/output -> inception_3a/output
I0403 19:36:25.370470 25271 net.cpp:141] Setting up inception_3a/output
I0403 19:36:25.370499 25271 net.cpp:148] Top shape: 24 256 28 28 (4816896)
I0403 19:36:25.370519 25271 net.cpp:156] Memory required for data: 580437024
I0403 19:36:25.370537 25271 layer_factory.hpp:77] Creating layer inception_3a/output_inception_3a/output_0_split
I0403 19:36:25.370558 25271 net.cpp:91] Creating Layer inception_3a/output_inception_3a/output_0_split
I0403 19:36:25.370576 25271 net.cpp:425] inception_3a/output_inception_3a/output_0_split <- inception_3a/output
I0403 19:36:25.370601 25271 net.cpp:399] inception_3a/output_inception_3a/output_0_split -> inception_3a/output_inception_3a/output_0_split_0
I0403 19:36:25.370628 25271 net.cpp:399] inception_3a/output_inception_3a/output_0_split -> inception_3a/output_inception_3a/output_0_split_1
I0403 19:36:25.370656 25271 net.cpp:399] inception_3a/output_inception_3a/output_0_split -> inception_3a/output_inception_3a/output_0_split_2
I0403 19:36:25.370687 25271 net.cpp:399] inception_3a/output_inception_3a/output_0_split -> inception_3a/output_inception_3a/output_0_split_3
I0403 19:36:25.370784 25271 net.cpp:141] Setting up inception_3a/output_inception_3a/output_0_split
I0403 19:36:25.370816 25271 net.cpp:148] Top shape: 24 256 28 28 (4816896)
I0403 19:36:25.370837 25271 net.cpp:148] Top shape: 24 256 28 28 (4816896)
I0403 19:36:25.370857 25271 net.cpp:148] Top shape: 24 256 28 28 (4816896)
I0403 19:36:25.370875 25271 net.cpp:148] Top shape: 24 256 28 28 (4816896)
I0403 19:36:25.370893 25271 net.cpp:156] Memory required for data: 657507360
I0403 19:36:25.370910 25271 layer_factory.hpp:77] Creating layer inception_3b/1x1
I0403 19:36:25.370937 25271 net.cpp:91] Creating Layer inception_3b/1x1
I0403 19:36:25.370961 25271 net.cpp:425] inception_3b/1x1 <- inception_3a/output_inception_3a/output_0_split_0
I0403 19:36:25.370992 25271 net.cpp:399] inception_3b/1x1 -> inception_3b/1x1
I0403 19:36:25.372370 25271 net.cpp:141] Setting up inception_3b/1x1
I0403 19:36:25.372422 25271 net.cpp:148] Top shape: 24 128 28 28 (2408448)
I0403 19:36:25.372442 25271 net.cpp:156] Memory required for data: 667141152
I0403 19:36:25.372467 25271 layer_factory.hpp:77] Creating layer inception_3b/relu_1x1
I0403 19:36:25.372489 25271 net.cpp:91] Creating Layer inception_3b/relu_1x1
I0403 19:36:25.372511 25271 net.cpp:425] inception_3b/relu_1x1 <- inception_3b/1x1
I0403 19:36:25.372537 25271 net.cpp:386] inception_3b/relu_1x1 -> inception_3b/1x1 (in-place)
I0403 19:36:25.372751 25271 net.cpp:141] Setting up inception_3b/relu_1x1
I0403 19:36:25.372786 25271 net.cpp:148] Top shape: 24 128 28 28 (2408448)
I0403 19:36:25.372805 25271 net.cpp:156] Memory required for data: 676774944
I0403 19:36:25.372824 25271 layer_factory.hpp:77] Creating layer inception_3b/3x3_reduce
I0403 19:36:25.372853 25271 net.cpp:91] Creating Layer inception_3b/3x3_reduce
I0403 19:36:25.372875 25271 net.cpp:425] inception_3b/3x3_reduce <- inception_3a/output_inception_3a/output_0_split_1
I0403 19:36:25.372903 25271 net.cpp:399] inception_3b/3x3_reduce -> inception_3b/3x3_reduce
I0403 19:36:25.374284 25271 net.cpp:141] Setting up inception_3b/3x3_reduce
I0403 19:36:25.374321 25271 net.cpp:148] Top shape: 24 128 28 28 (2408448)
I0403 19:36:25.374342 25271 net.cpp:156] Memory required for data: 686408736
I0403 19:36:25.374366 25271 layer_factory.hpp:77] Creating layer inception_3b/relu_3x3_reduce
I0403 19:36:25.374392 25271 net.cpp:91] Creating Layer inception_3b/relu_3x3_reduce
I0403 19:36:25.374414 25271 net.cpp:425] inception_3b/relu_3x3_reduce <- inception_3b/3x3_reduce
I0403 19:36:25.374436 25271 net.cpp:386] inception_3b/relu_3x3_reduce -> inception_3b/3x3_reduce (in-place)
I0403 19:36:25.374645 25271 net.cpp:141] Setting up inception_3b/relu_3x3_reduce
I0403 19:36:25.374680 25271 net.cpp:148] Top shape: 24 128 28 28 (2408448)
I0403 19:36:25.374701 25271 net.cpp:156] Memory required for data: 696042528
I0403 19:36:25.374719 25271 layer_factory.hpp:77] Creating layer inception_3b/3x3
I0403 19:36:25.374752 25271 net.cpp:91] Creating Layer inception_3b/3x3
I0403 19:36:25.374775 25271 net.cpp:425] inception_3b/3x3 <- inception_3b/3x3_reduce
I0403 19:36:25.374800 25271 net.cpp:399] inception_3b/3x3 -> inception_3b/3x3
I0403 19:36:25.378330 25271 net.cpp:141] Setting up inception_3b/3x3
I0403 19:36:25.378371 25271 net.cpp:148] Top shape: 24 192 28 28 (3612672)
I0403 19:36:25.378392 25271 net.cpp:156] Memory required for data: 710493216
I0403 19:36:25.378417 25271 layer_factory.hpp:77] Creating layer inception_3b/relu_3x3
I0403 19:36:25.378443 25271 net.cpp:91] Creating Layer inception_3b/relu_3x3
I0403 19:36:25.378465 25271 net.cpp:425] inception_3b/relu_3x3 <- inception_3b/3x3
I0403 19:36:25.378487 25271 net.cpp:386] inception_3b/relu_3x3 -> inception_3b/3x3 (in-place)
I0403 19:36:25.378818 25271 net.cpp:141] Setting up inception_3b/relu_3x3
I0403 19:36:25.378851 25271 net.cpp:148] Top shape: 24 192 28 28 (3612672)
I0403 19:36:25.378873 25271 net.cpp:156] Memory required for data: 724943904
I0403 19:36:25.378892 25271 layer_factory.hpp:77] Creating layer inception_3b/5x5_reduce
I0403 19:36:25.378921 25271 net.cpp:91] Creating Layer inception_3b/5x5_reduce
I0403 19:36:25.378944 25271 net.cpp:425] inception_3b/5x5_reduce <- inception_3a/output_inception_3a/output_0_split_2
I0403 19:36:25.378973 25271 net.cpp:399] inception_3b/5x5_reduce -> inception_3b/5x5_reduce
I0403 19:36:25.380172 25271 net.cpp:141] Setting up inception_3b/5x5_reduce
I0403 19:36:25.380211 25271 net.cpp:148] Top shape: 24 32 28 28 (602112)
I0403 19:36:25.380231 25271 net.cpp:156] Memory required for data: 727352352
I0403 19:36:25.380259 25271 layer_factory.hpp:77] Creating layer inception_3b/relu_5x5_reduce
I0403 19:36:25.380288 25271 net.cpp:91] Creating Layer inception_3b/relu_5x5_reduce
I0403 19:36:25.380312 25271 net.cpp:425] inception_3b/relu_5x5_reduce <- inception_3b/5x5_reduce
I0403 19:36:25.380336 25271 net.cpp:386] inception_3b/relu_5x5_reduce -> inception_3b/5x5_reduce (in-place)
I0403 19:36:25.380574 25271 net.cpp:141] Setting up inception_3b/relu_5x5_reduce
I0403 19:36:25.380614 25271 net.cpp:148] Top shape: 24 32 28 28 (602112)
I0403 19:36:25.380635 25271 net.cpp:156] Memory required for data: 729760800
I0403 19:36:25.380652 25271 layer_factory.hpp:77] Creating layer inception_3b/5x5
I0403 19:36:25.380681 25271 net.cpp:91] Creating Layer inception_3b/5x5
I0403 19:36:25.380704 25271 net.cpp:425] inception_3b/5x5 <- inception_3b/5x5_reduce
I0403 19:36:25.380729 25271 net.cpp:399] inception_3b/5x5 -> inception_3b/5x5
I0403 19:36:25.383110 25271 net.cpp:141] Setting up inception_3b/5x5
I0403 19:36:25.383149 25271 net.cpp:148] Top shape: 24 96 28 28 (1806336)
I0403 19:36:25.383172 25271 net.cpp:156] Memory required for data: 736986144
I0403 19:36:25.383194 25271 layer_factory.hpp:77] Creating layer inception_3b/relu_5x5
I0403 19:36:25.383220 25271 net.cpp:91] Creating Layer inception_3b/relu_5x5
I0403 19:36:25.383245 25271 net.cpp:425] inception_3b/relu_5x5 <- inception_3b/5x5
I0403 19:36:25.383276 25271 net.cpp:386] inception_3b/relu_5x5 -> inception_3b/5x5 (in-place)
I0403 19:36:25.383507 25271 net.cpp:141] Setting up inception_3b/relu_5x5
I0403 19:36:25.383541 25271 net.cpp:148] Top shape: 24 96 28 28 (1806336)
I0403 19:36:25.383561 25271 net.cpp:156] Memory required for data: 744211488
I0403 19:36:25.383579 25271 layer_factory.hpp:77] Creating layer inception_3b/pool
I0403 19:36:25.383604 25271 net.cpp:91] Creating Layer inception_3b/pool
I0403 19:36:25.383623 25271 net.cpp:425] inception_3b/pool <- inception_3a/output_inception_3a/output_0_split_3
I0403 19:36:25.383647 25271 net.cpp:399] inception_3b/pool -> inception_3b/pool
I0403 19:36:25.383718 25271 net.cpp:141] Setting up inception_3b/pool
I0403 19:36:25.383750 25271 net.cpp:148] Top shape: 24 256 28 28 (4816896)
I0403 19:36:25.383770 25271 net.cpp:156] Memory required for data: 763479072
I0403 19:36:25.383790 25271 layer_factory.hpp:77] Creating layer inception_3b/pool_proj
I0403 19:36:25.383818 25271 net.cpp:91] Creating Layer inception_3b/pool_proj
I0403 19:36:25.383843 25271 net.cpp:425] inception_3b/pool_proj <- inception_3b/pool
I0403 19:36:25.383870 25271 net.cpp:399] inception_3b/pool_proj -> inception_3b/pool_proj
I0403 19:36:25.385164 25271 net.cpp:141] Setting up inception_3b/pool_proj
I0403 19:36:25.385205 25271 net.cpp:148] Top shape: 24 64 28 28 (1204224)
I0403 19:36:25.385226 25271 net.cpp:156] Memory required for data: 768295968
I0403 19:36:25.385249 25271 layer_factory.hpp:77] Creating layer inception_3b/relu_pool_proj
I0403 19:36:25.385283 25271 net.cpp:91] Creating Layer inception_3b/relu_pool_proj
I0403 19:36:25.385304 25271 net.cpp:425] inception_3b/relu_pool_proj <- inception_3b/pool_proj
I0403 19:36:25.385329 25271 net.cpp:386] inception_3b/relu_pool_proj -> inception_3b/pool_proj (in-place)
I0403 19:36:25.385767 25271 net.cpp:141] Setting up inception_3b/relu_pool_proj
I0403 19:36:25.385805 25271 net.cpp:148] Top shape: 24 64 28 28 (1204224)
I0403 19:36:25.385826 25271 net.cpp:156] Memory required for data: 773112864
I0403 19:36:25.385845 25271 layer_factory.hpp:77] Creating layer inception_3b/output
I0403 19:36:25.385867 25271 net.cpp:91] Creating Layer inception_3b/output
I0403 19:36:25.385888 25271 net.cpp:425] inception_3b/output <- inception_3b/1x1
I0403 19:36:25.385910 25271 net.cpp:425] inception_3b/output <- inception_3b/3x3
I0403 19:36:25.385931 25271 net.cpp:425] inception_3b/output <- inception_3b/5x5
I0403 19:36:25.385951 25271 net.cpp:425] inception_3b/output <- inception_3b/pool_proj
I0403 19:36:25.385972 25271 net.cpp:399] inception_3b/output -> inception_3b/output
I0403 19:36:25.386030 25271 net.cpp:141] Setting up inception_3b/output
I0403 19:36:25.386059 25271 net.cpp:148] Top shape: 24 480 28 28 (9031680)
I0403 19:36:25.386078 25271 net.cpp:156] Memory required for data: 809239584
I0403 19:36:25.386096 25271 layer_factory.hpp:77] Creating layer pool3/3x3_s2
I0403 19:36:25.386121 25271 net.cpp:91] Creating Layer pool3/3x3_s2
I0403 19:36:25.386144 25271 net.cpp:425] pool3/3x3_s2 <- inception_3b/output
I0403 19:36:25.386188 25271 net.cpp:399] pool3/3x3_s2 -> pool3/3x3_s2
I0403 19:36:25.386270 25271 net.cpp:141] Setting up pool3/3x3_s2
I0403 19:36:25.386301 25271 net.cpp:148] Top shape: 24 480 14 14 (2257920)
I0403 19:36:25.386322 25271 net.cpp:156] Memory required for data: 818271264
I0403 19:36:25.386339 25271 layer_factory.hpp:77] Creating layer pool3/3x3_s2_pool3/3x3_s2_0_split
I0403 19:36:25.386363 25271 net.cpp:91] Creating Layer pool3/3x3_s2_pool3/3x3_s2_0_split
I0403 19:36:25.386382 25271 net.cpp:425] pool3/3x3_s2_pool3/3x3_s2_0_split <- pool3/3x3_s2
I0403 19:36:25.386406 25271 net.cpp:399] pool3/3x3_s2_pool3/3x3_s2_0_split -> pool3/3x3_s2_pool3/3x3_s2_0_split_0
I0403 19:36:25.386433 25271 net.cpp:399] pool3/3x3_s2_pool3/3x3_s2_0_split -> pool3/3x3_s2_pool3/3x3_s2_0_split_1
I0403 19:36:25.386461 25271 net.cpp:399] pool3/3x3_s2_pool3/3x3_s2_0_split -> pool3/3x3_s2_pool3/3x3_s2_0_split_2
I0403 19:36:25.386484 25271 net.cpp:399] pool3/3x3_s2_pool3/3x3_s2_0_split -> pool3/3x3_s2_pool3/3x3_s2_0_split_3
I0403 19:36:25.386579 25271 net.cpp:141] Setting up pool3/3x3_s2_pool3/3x3_s2_0_split
I0403 19:36:25.386612 25271 net.cpp:148] Top shape: 24 480 14 14 (2257920)
I0403 19:36:25.386636 25271 net.cpp:148] Top shape: 24 480 14 14 (2257920)
I0403 19:36:25.386654 25271 net.cpp:148] Top shape: 24 480 14 14 (2257920)
I0403 19:36:25.386673 25271 net.cpp:148] Top shape: 24 480 14 14 (2257920)
I0403 19:36:25.386690 25271 net.cpp:156] Memory required for data: 854397984
I0403 19:36:25.386710 25271 layer_factory.hpp:77] Creating layer inception_4a/1x1
I0403 19:36:25.386737 25271 net.cpp:91] Creating Layer inception_4a/1x1
I0403 19:36:25.386761 25271 net.cpp:425] inception_4a/1x1 <- pool3/3x3_s2_pool3/3x3_s2_0_split_0
I0403 19:36:25.386785 25271 net.cpp:399] inception_4a/1x1 -> inception_4a/1x1
I0403 19:36:25.388689 25271 net.cpp:141] Setting up inception_4a/1x1
I0403 19:36:25.388727 25271 net.cpp:148] Top shape: 24 192 14 14 (903168)
I0403 19:36:25.388751 25271 net.cpp:156] Memory required for data: 858010656
I0403 19:36:25.388777 25271 layer_factory.hpp:77] Creating layer inception_4a/relu_1x1
I0403 19:36:25.388802 25271 net.cpp:91] Creating Layer inception_4a/relu_1x1
I0403 19:36:25.388823 25271 net.cpp:425] inception_4a/relu_1x1 <- inception_4a/1x1
I0403 19:36:25.388849 25271 net.cpp:386] inception_4a/relu_1x1 -> inception_4a/1x1 (in-place)
I0403 19:36:25.389067 25271 net.cpp:141] Setting up inception_4a/relu_1x1
I0403 19:36:25.389101 25271 net.cpp:148] Top shape: 24 192 14 14 (903168)
I0403 19:36:25.389119 25271 net.cpp:156] Memory required for data: 861623328
I0403 19:36:25.389139 25271 layer_factory.hpp:77] Creating layer inception_4a/3x3_reduce
I0403 19:36:25.389173 25271 net.cpp:91] Creating Layer inception_4a/3x3_reduce
I0403 19:36:25.389196 25271 net.cpp:425] inception_4a/3x3_reduce <- pool3/3x3_s2_pool3/3x3_s2_0_split_1
I0403 19:36:25.389224 25271 net.cpp:399] inception_4a/3x3_reduce -> inception_4a/3x3_reduce
I0403 19:36:25.390774 25271 net.cpp:141] Setting up inception_4a/3x3_reduce
I0403 19:36:25.390810 25271 net.cpp:148] Top shape: 24 96 14 14 (451584)
I0403 19:36:25.390831 25271 net.cpp:156] Memory required for data: 863429664
I0403 19:36:25.390861 25271 layer_factory.hpp:77] Creating layer inception_4a/relu_3x3_reduce
I0403 19:36:25.390887 25271 net.cpp:91] Creating Layer inception_4a/relu_3x3_reduce
I0403 19:36:25.390909 25271 net.cpp:425] inception_4a/relu_3x3_reduce <- inception_4a/3x3_reduce
I0403 19:36:25.390931 25271 net.cpp:386] inception_4a/relu_3x3_reduce -> inception_4a/3x3_reduce (in-place)
I0403 19:36:25.391154 25271 net.cpp:141] Setting up inception_4a/relu_3x3_reduce
I0403 19:36:25.391186 25271 net.cpp:148] Top shape: 24 96 14 14 (451584)
I0403 19:36:25.391206 25271 net.cpp:156] Memory required for data: 865236000
I0403 19:36:25.391223 25271 layer_factory.hpp:77] Creating layer inception_4a/3x3
I0403 19:36:25.391252 25271 net.cpp:91] Creating Layer inception_4a/3x3
I0403 19:36:25.391283 25271 net.cpp:425] inception_4a/3x3 <- inception_4a/3x3_reduce
I0403 19:36:25.391310 25271 net.cpp:399] inception_4a/3x3 -> inception_4a/3x3
I0403 19:36:25.394583 25271 net.cpp:141] Setting up inception_4a/3x3
I0403 19:36:25.394620 25271 net.cpp:148] Top shape: 24 208 14 14 (978432)
I0403 19:36:25.394641 25271 net.cpp:156] Memory required for data: 869149728
I0403 19:36:25.394665 25271 layer_factory.hpp:77] Creating layer inception_4a/relu_3x3
I0403 19:36:25.394690 25271 net.cpp:91] Creating Layer inception_4a/relu_3x3
I0403 19:36:25.394713 25271 net.cpp:425] inception_4a/relu_3x3 <- inception_4a/3x3
I0403 19:36:25.394737 25271 net.cpp:386] inception_4a/relu_3x3 -> inception_4a/3x3 (in-place)
I0403 19:36:25.395081 25271 net.cpp:141] Setting up inception_4a/relu_3x3
I0403 19:36:25.395115 25271 net.cpp:148] Top shape: 24 208 14 14 (978432)
I0403 19:36:25.395135 25271 net.cpp:156] Memory required for data: 873063456
I0403 19:36:25.395156 25271 layer_factory.hpp:77] Creating layer inception_4a/5x5_reduce
I0403 19:36:25.395184 25271 net.cpp:91] Creating Layer inception_4a/5x5_reduce
I0403 19:36:25.395210 25271 net.cpp:425] inception_4a/5x5_reduce <- pool3/3x3_s2_pool3/3x3_s2_0_split_2
I0403 19:36:25.395238 25271 net.cpp:399] inception_4a/5x5_reduce -> inception_4a/5x5_reduce
I0403 19:36:25.396478 25271 net.cpp:141] Setting up inception_4a/5x5_reduce
I0403 19:36:25.396514 25271 net.cpp:148] Top shape: 24 16 14 14 (75264)
I0403 19:36:25.396533 25271 net.cpp:156] Memory required for data: 873364512
I0403 19:36:25.396554 25271 layer_factory.hpp:77] Creating layer inception_4a/relu_5x5_reduce
I0403 19:36:25.396579 25271 net.cpp:91] Creating Layer inception_4a/relu_5x5_reduce
I0403 19:36:25.396601 25271 net.cpp:425] inception_4a/relu_5x5_reduce <- inception_4a/5x5_reduce
I0403 19:36:25.396622 25271 net.cpp:386] inception_4a/relu_5x5_reduce -> inception_4a/5x5_reduce (in-place)
I0403 19:36:25.396842 25271 net.cpp:141] Setting up inception_4a/relu_5x5_reduce
I0403 19:36:25.396878 25271 net.cpp:148] Top shape: 24 16 14 14 (75264)
I0403 19:36:25.396898 25271 net.cpp:156] Memory required for data: 873665568
I0403 19:36:25.396916 25271 layer_factory.hpp:77] Creating layer inception_4a/5x5
I0403 19:36:25.396944 25271 net.cpp:91] Creating Layer inception_4a/5x5
I0403 19:36:25.396965 25271 net.cpp:425] inception_4a/5x5 <- inception_4a/5x5_reduce
I0403 19:36:25.396988 25271 net.cpp:399] inception_4a/5x5 -> inception_4a/5x5
I0403 19:36:25.398391 25271 net.cpp:141] Setting up inception_4a/5x5
I0403 19:36:25.398430 25271 net.cpp:148] Top shape: 24 48 14 14 (225792)
I0403 19:36:25.398452 25271 net.cpp:156] Memory required for data: 874568736
I0403 19:36:25.398474 25271 layer_factory.hpp:77] Creating layer inception_4a/relu_5x5
I0403 19:36:25.398499 25271 net.cpp:91] Creating Layer inception_4a/relu_5x5
I0403 19:36:25.398520 25271 net.cpp:425] inception_4a/relu_5x5 <- inception_4a/5x5
I0403 19:36:25.398541 25271 net.cpp:386] inception_4a/relu_5x5 -> inception_4a/5x5 (in-place)
I0403 19:36:25.398766 25271 net.cpp:141] Setting up inception_4a/relu_5x5
I0403 19:36:25.398797 25271 net.cpp:148] Top shape: 24 48 14 14 (225792)
I0403 19:36:25.398815 25271 net.cpp:156] Memory required for data: 875471904
I0403 19:36:25.398834 25271 layer_factory.hpp:77] Creating layer inception_4a/pool
I0403 19:36:25.398856 25271 net.cpp:91] Creating Layer inception_4a/pool
I0403 19:36:25.398876 25271 net.cpp:425] inception_4a/pool <- pool3/3x3_s2_pool3/3x3_s2_0_split_3
I0403 19:36:25.398901 25271 net.cpp:399] inception_4a/pool -> inception_4a/pool
I0403 19:36:25.398977 25271 net.cpp:141] Setting up inception_4a/pool
I0403 19:36:25.399011 25271 net.cpp:148] Top shape: 24 480 14 14 (2257920)
I0403 19:36:25.399031 25271 net.cpp:156] Memory required for data: 884503584
I0403 19:36:25.399049 25271 layer_factory.hpp:77] Creating layer inception_4a/pool_proj
I0403 19:36:25.399076 25271 net.cpp:91] Creating Layer inception_4a/pool_proj
I0403 19:36:25.399098 25271 net.cpp:425] inception_4a/pool_proj <- inception_4a/pool
I0403 19:36:25.399122 25271 net.cpp:399] inception_4a/pool_proj -> inception_4a/pool_proj
I0403 19:36:25.400543 25271 net.cpp:141] Setting up inception_4a/pool_proj
I0403 19:36:25.400580 25271 net.cpp:148] Top shape: 24 64 14 14 (301056)
I0403 19:36:25.400619 25271 net.cpp:156] Memory required for data: 885707808
I0403 19:36:25.400645 25271 layer_factory.hpp:77] Creating layer inception_4a/relu_pool_proj
I0403 19:36:25.400667 25271 net.cpp:91] Creating Layer inception_4a/relu_pool_proj
I0403 19:36:25.400688 25271 net.cpp:425] inception_4a/relu_pool_proj <- inception_4a/pool_proj
I0403 19:36:25.400713 25271 net.cpp:386] inception_4a/relu_pool_proj -> inception_4a/pool_proj (in-place)
I0403 19:36:25.401051 25271 net.cpp:141] Setting up inception_4a/relu_pool_proj
I0403 19:36:25.401087 25271 net.cpp:148] Top shape: 24 64 14 14 (301056)
I0403 19:36:25.401106 25271 net.cpp:156] Memory required for data: 886912032
I0403 19:36:25.401125 25271 layer_factory.hpp:77] Creating layer inception_4a/output
I0403 19:36:25.401146 25271 net.cpp:91] Creating Layer inception_4a/output
I0403 19:36:25.401166 25271 net.cpp:425] inception_4a/output <- inception_4a/1x1
I0403 19:36:25.401186 25271 net.cpp:425] inception_4a/output <- inception_4a/3x3
I0403 19:36:25.401206 25271 net.cpp:425] inception_4a/output <- inception_4a/5x5
I0403 19:36:25.401226 25271 net.cpp:425] inception_4a/output <- inception_4a/pool_proj
I0403 19:36:25.401247 25271 net.cpp:399] inception_4a/output -> inception_4a/output
I0403 19:36:25.401310 25271 net.cpp:141] Setting up inception_4a/output
I0403 19:36:25.401341 25271 net.cpp:148] Top shape: 24 512 14 14 (2408448)
I0403 19:36:25.401360 25271 net.cpp:156] Memory required for data: 896545824
I0403 19:36:25.401377 25271 layer_factory.hpp:77] Creating layer inception_4a/output_inception_4a/output_0_split
I0403 19:36:25.401402 25271 net.cpp:91] Creating Layer inception_4a/output_inception_4a/output_0_split
I0403 19:36:25.401424 25271 net.cpp:425] inception_4a/output_inception_4a/output_0_split <- inception_4a/output
I0403 19:36:25.401446 25271 net.cpp:399] inception_4a/output_inception_4a/output_0_split -> inception_4a/output_inception_4a/output_0_split_0
I0403 19:36:25.401470 25271 net.cpp:399] inception_4a/output_inception_4a/output_0_split -> inception_4a/output_inception_4a/output_0_split_1
I0403 19:36:25.401499 25271 net.cpp:399] inception_4a/output_inception_4a/output_0_split -> inception_4a/output_inception_4a/output_0_split_2
I0403 19:36:25.401527 25271 net.cpp:399] inception_4a/output_inception_4a/output_0_split -> inception_4a/output_inception_4a/output_0_split_3
I0403 19:36:25.401552 25271 net.cpp:399] inception_4a/output_inception_4a/output_0_split -> inception_4a/output_inception_4a/output_0_split_4
I0403 19:36:25.401667 25271 net.cpp:141] Setting up inception_4a/output_inception_4a/output_0_split
I0403 19:36:25.401697 25271 net.cpp:148] Top shape: 24 512 14 14 (2408448)
I0403 19:36:25.401720 25271 net.cpp:148] Top shape: 24 512 14 14 (2408448)
I0403 19:36:25.401738 25271 net.cpp:148] Top shape: 24 512 14 14 (2408448)
I0403 19:36:25.401757 25271 net.cpp:148] Top shape: 24 512 14 14 (2408448)
I0403 19:36:25.401777 25271 net.cpp:148] Top shape: 24 512 14 14 (2408448)
I0403 19:36:25.401794 25271 net.cpp:156] Memory required for data: 944714784
I0403 19:36:25.401813 25271 layer_factory.hpp:77] Creating layer loss1/ave_pool
I0403 19:36:25.401836 25271 net.cpp:91] Creating Layer loss1/ave_pool
I0403 19:36:25.401856 25271 net.cpp:425] loss1/ave_pool <- inception_4a/output_inception_4a/output_0_split_0
I0403 19:36:25.401878 25271 net.cpp:399] loss1/ave_pool -> loss1/ave_pool
I0403 19:36:25.402139 25271 net.cpp:141] Setting up loss1/ave_pool
I0403 19:36:25.402171 25271 net.cpp:148] Top shape: 24 512 4 4 (196608)
I0403 19:36:25.402190 25271 net.cpp:156] Memory required for data: 945501216
I0403 19:36:25.402209 25271 layer_factory.hpp:77] Creating layer loss1/conv
I0403 19:36:25.402235 25271 net.cpp:91] Creating Layer loss1/conv
I0403 19:36:25.402262 25271 net.cpp:425] loss1/conv <- loss1/ave_pool
I0403 19:36:25.402290 25271 net.cpp:399] loss1/conv -> loss1/conv
I0403 19:36:25.403995 25271 net.cpp:141] Setting up loss1/conv
I0403 19:36:25.404031 25271 net.cpp:148] Top shape: 24 128 4 4 (49152)
I0403 19:36:25.404069 25271 net.cpp:156] Memory required for data: 945697824
I0403 19:36:25.404093 25271 layer_factory.hpp:77] Creating layer loss1/relu_conv
I0403 19:36:25.404120 25271 net.cpp:91] Creating Layer loss1/relu_conv
I0403 19:36:25.404141 25271 net.cpp:425] loss1/relu_conv <- loss1/conv
I0403 19:36:25.404163 25271 net.cpp:386] loss1/relu_conv -> loss1/conv (in-place)
I0403 19:36:25.404516 25271 net.cpp:141] Setting up loss1/relu_conv
I0403 19:36:25.404551 25271 net.cpp:148] Top shape: 24 128 4 4 (49152)
I0403 19:36:25.404572 25271 net.cpp:156] Memory required for data: 945894432
I0403 19:36:25.404588 25271 layer_factory.hpp:77] Creating layer loss1/fc
I0403 19:36:25.404621 25271 net.cpp:91] Creating Layer loss1/fc
I0403 19:36:25.404646 25271 net.cpp:425] loss1/fc <- loss1/conv
I0403 19:36:25.404669 25271 net.cpp:399] loss1/fc -> loss1/fc
I0403 19:36:25.426578 25271 net.cpp:141] Setting up loss1/fc
I0403 19:36:25.426621 25271 net.cpp:148] Top shape: 24 1024 (24576)
I0403 19:36:25.426643 25271 net.cpp:156] Memory required for data: 945992736
I0403 19:36:25.426666 25271 layer_factory.hpp:77] Creating layer loss1/relu_fc
I0403 19:36:25.426692 25271 net.cpp:91] Creating Layer loss1/relu_fc
I0403 19:36:25.426712 25271 net.cpp:425] loss1/relu_fc <- loss1/fc
I0403 19:36:25.426738 25271 net.cpp:386] loss1/relu_fc -> loss1/fc (in-place)
I0403 19:36:25.426980 25271 net.cpp:141] Setting up loss1/relu_fc
I0403 19:36:25.427013 25271 net.cpp:148] Top shape: 24 1024 (24576)
I0403 19:36:25.427034 25271 net.cpp:156] Memory required for data: 946091040
I0403 19:36:25.427053 25271 layer_factory.hpp:77] Creating layer loss1/drop_fc
I0403 19:36:25.427088 25271 net.cpp:91] Creating Layer loss1/drop_fc
I0403 19:36:25.427114 25271 net.cpp:425] loss1/drop_fc <- loss1/fc
I0403 19:36:25.427136 25271 net.cpp:386] loss1/drop_fc -> loss1/fc (in-place)
I0403 19:36:25.427203 25271 net.cpp:141] Setting up loss1/drop_fc
I0403 19:36:25.427235 25271 net.cpp:148] Top shape: 24 1024 (24576)
I0403 19:36:25.427253 25271 net.cpp:156] Memory required for data: 946189344
I0403 19:36:25.427281 25271 layer_factory.hpp:77] Creating layer loss1/classifier_plantvillage
I0403 19:36:25.427310 25271 net.cpp:91] Creating Layer loss1/classifier_plantvillage
I0403 19:36:25.427333 25271 net.cpp:425] loss1/classifier_plantvillage <- loss1/fc
I0403 19:36:25.427361 25271 net.cpp:399] loss1/classifier_plantvillage -> loss1/classifier_plantvillage
I0403 19:36:25.428467 25271 net.cpp:141] Setting up loss1/classifier_plantvillage
I0403 19:36:25.428504 25271 net.cpp:148] Top shape: 24 38 (912)
I0403 19:36:25.428525 25271 net.cpp:156] Memory required for data: 946192992
I0403 19:36:25.428547 25271 layer_factory.hpp:77] Creating layer loss1/classifier_plantvillage_loss1/classifier_plantvillage_0_split
I0403 19:36:25.428571 25271 net.cpp:91] Creating Layer loss1/classifier_plantvillage_loss1/classifier_plantvillage_0_split
I0403 19:36:25.428593 25271 net.cpp:425] loss1/classifier_plantvillage_loss1/classifier_plantvillage_0_split <- loss1/classifier_plantvillage
I0403 19:36:25.428620 25271 net.cpp:399] loss1/classifier_plantvillage_loss1/classifier_plantvillage_0_split -> loss1/classifier_plantvillage_loss1/classifier_plantvillage_0_split_0
I0403 19:36:25.428647 25271 net.cpp:399] loss1/classifier_plantvillage_loss1/classifier_plantvillage_0_split -> loss1/classifier_plantvillage_loss1/classifier_plantvillage_0_split_1
I0403 19:36:25.428674 25271 net.cpp:399] loss1/classifier_plantvillage_loss1/classifier_plantvillage_0_split -> loss1/classifier_plantvillage_loss1/classifier_plantvillage_0_split_2
I0403 19:36:25.428755 25271 net.cpp:141] Setting up loss1/classifier_plantvillage_loss1/classifier_plantvillage_0_split
I0403 19:36:25.428791 25271 net.cpp:148] Top shape: 24 38 (912)
I0403 19:36:25.428815 25271 net.cpp:148] Top shape: 24 38 (912)
I0403 19:36:25.428835 25271 net.cpp:148] Top shape: 24 38 (912)
I0403 19:36:25.428851 25271 net.cpp:156] Memory required for data: 946203936
I0403 19:36:25.428869 25271 layer_factory.hpp:77] Creating layer inception_4b/1x1
I0403 19:36:25.428894 25271 net.cpp:91] Creating Layer inception_4b/1x1
I0403 19:36:25.428938 25271 net.cpp:425] inception_4b/1x1 <- inception_4a/output_inception_4a/output_0_split_1
I0403 19:36:25.428966 25271 net.cpp:399] inception_4b/1x1 -> inception_4b/1x1
I0403 19:36:25.430941 25271 net.cpp:141] Setting up inception_4b/1x1
I0403 19:36:25.430980 25271 net.cpp:148] Top shape: 24 160 14 14 (752640)
I0403 19:36:25.431001 25271 net.cpp:156] Memory required for data: 949214496
I0403 19:36:25.431025 25271 layer_factory.hpp:77] Creating layer inception_4b/relu_1x1
I0403 19:36:25.431051 25271 net.cpp:91] Creating Layer inception_4b/relu_1x1
I0403 19:36:25.431074 25271 net.cpp:425] inception_4b/relu_1x1 <- inception_4b/1x1
I0403 19:36:25.431097 25271 net.cpp:386] inception_4b/relu_1x1 -> inception_4b/1x1 (in-place)
I0403 19:36:25.431375 25271 net.cpp:141] Setting up inception_4b/relu_1x1
I0403 19:36:25.431408 25271 net.cpp:148] Top shape: 24 160 14 14 (752640)
I0403 19:36:25.431427 25271 net.cpp:156] Memory required for data: 952225056
I0403 19:36:25.431447 25271 layer_factory.hpp:77] Creating layer inception_4b/3x3_reduce
I0403 19:36:25.431478 25271 net.cpp:91] Creating Layer inception_4b/3x3_reduce
I0403 19:36:25.431500 25271 net.cpp:425] inception_4b/3x3_reduce <- inception_4a/output_inception_4a/output_0_split_2
I0403 19:36:25.431524 25271 net.cpp:399] inception_4b/3x3_reduce -> inception_4b/3x3_reduce
I0403 19:36:25.433162 25271 net.cpp:141] Setting up inception_4b/3x3_reduce
I0403 19:36:25.433200 25271 net.cpp:148] Top shape: 24 112 14 14 (526848)
I0403 19:36:25.433221 25271 net.cpp:156] Memory required for data: 954332448
I0403 19:36:25.433244 25271 layer_factory.hpp:77] Creating layer inception_4b/relu_3x3_reduce
I0403 19:36:25.433279 25271 net.cpp:91] Creating Layer inception_4b/relu_3x3_reduce
I0403 19:36:25.433303 25271 net.cpp:425] inception_4b/relu_3x3_reduce <- inception_4b/3x3_reduce
I0403 19:36:25.433328 25271 net.cpp:386] inception_4b/relu_3x3_reduce -> inception_4b/3x3_reduce (in-place)
I0403 19:36:25.433668 25271 net.cpp:141] Setting up inception_4b/relu_3x3_reduce
I0403 19:36:25.433706 25271 net.cpp:148] Top shape: 24 112 14 14 (526848)
I0403 19:36:25.433724 25271 net.cpp:156] Memory required for data: 956439840
I0403 19:36:25.433743 25271 layer_factory.hpp:77] Creating layer inception_4b/3x3
I0403 19:36:25.433773 25271 net.cpp:91] Creating Layer inception_4b/3x3
I0403 19:36:25.433796 25271 net.cpp:425] inception_4b/3x3 <- inception_4b/3x3_reduce
I0403 19:36:25.433820 25271 net.cpp:399] inception_4b/3x3 -> inception_4b/3x3
I0403 19:36:25.437463 25271 net.cpp:141] Setting up inception_4b/3x3
I0403 19:36:25.437505 25271 net.cpp:148] Top shape: 24 224 14 14 (1053696)
I0403 19:36:25.437527 25271 net.cpp:156] Memory required for data: 960654624
I0403 19:36:25.437552 25271 layer_factory.hpp:77] Creating layer inception_4b/relu_3x3
I0403 19:36:25.437577 25271 net.cpp:91] Creating Layer inception_4b/relu_3x3
I0403 19:36:25.437598 25271 net.cpp:425] inception_4b/relu_3x3 <- inception_4b/3x3
I0403 19:36:25.437623 25271 net.cpp:386] inception_4b/relu_3x3 -> inception_4b/3x3 (in-place)
I0403 19:36:25.437852 25271 net.cpp:141] Setting up inception_4b/relu_3x3
I0403 19:36:25.437887 25271 net.cpp:148] Top shape: 24 224 14 14 (1053696)
I0403 19:36:25.437908 25271 net.cpp:156] Memory required for data: 964869408
I0403 19:36:25.437928 25271 layer_factory.hpp:77] Creating layer inception_4b/5x5_reduce
I0403 19:36:25.437958 25271 net.cpp:91] Creating Layer inception_4b/5x5_reduce
I0403 19:36:25.437981 25271 net.cpp:425] inception_4b/5x5_reduce <- inception_4a/output_inception_4a/output_0_split_3
I0403 19:36:25.438009 25271 net.cpp:399] inception_4b/5x5_reduce -> inception_4b/5x5_reduce
I0403 19:36:25.439339 25271 net.cpp:141] Setting up inception_4b/5x5_reduce
I0403 19:36:25.439376 25271 net.cpp:148] Top shape: 24 24 14 14 (112896)
I0403 19:36:25.439398 25271 net.cpp:156] Memory required for data: 965320992
I0403 19:36:25.439420 25271 layer_factory.hpp:77] Creating layer inception_4b/relu_5x5_reduce
I0403 19:36:25.439445 25271 net.cpp:91] Creating Layer inception_4b/relu_5x5_reduce
I0403 19:36:25.439487 25271 net.cpp:425] inception_4b/relu_5x5_reduce <- inception_4b/5x5_reduce
I0403 19:36:25.439512 25271 net.cpp:386] inception_4b/relu_5x5_reduce -> inception_4b/5x5_reduce (in-place)
I0403 19:36:25.439738 25271 net.cpp:141] Setting up inception_4b/relu_5x5_reduce
I0403 19:36:25.439780 25271 net.cpp:148] Top shape: 24 24 14 14 (112896)
I0403 19:36:25.439803 25271 net.cpp:156] Memory required for data: 965772576
I0403 19:36:25.439821 25271 layer_factory.hpp:77] Creating layer inception_4b/5x5
I0403 19:36:25.439849 25271 net.cpp:91] Creating Layer inception_4b/5x5
I0403 19:36:25.439873 25271 net.cpp:425] inception_4b/5x5 <- inception_4b/5x5_reduce
I0403 19:36:25.439898 25271 net.cpp:399] inception_4b/5x5 -> inception_4b/5x5
I0403 19:36:25.441426 25271 net.cpp:141] Setting up inception_4b/5x5
I0403 19:36:25.441468 25271 net.cpp:148] Top shape: 24 64 14 14 (301056)
I0403 19:36:25.441488 25271 net.cpp:156] Memory required for data: 966976800
I0403 19:36:25.441511 25271 layer_factory.hpp:77] Creating layer inception_4b/relu_5x5
I0403 19:36:25.441536 25271 net.cpp:91] Creating Layer inception_4b/relu_5x5
I0403 19:36:25.441560 25271 net.cpp:425] inception_4b/relu_5x5 <- inception_4b/5x5
I0403 19:36:25.441584 25271 net.cpp:386] inception_4b/relu_5x5 -> inception_4b/5x5 (in-place)
I0403 19:36:25.441936 25271 net.cpp:141] Setting up inception_4b/relu_5x5
I0403 19:36:25.441974 25271 net.cpp:148] Top shape: 24 64 14 14 (301056)
I0403 19:36:25.441994 25271 net.cpp:156] Memory required for data: 968181024
I0403 19:36:25.442013 25271 layer_factory.hpp:77] Creating layer inception_4b/pool
I0403 19:36:25.442039 25271 net.cpp:91] Creating Layer inception_4b/pool
I0403 19:36:25.442064 25271 net.cpp:425] inception_4b/pool <- inception_4a/output_inception_4a/output_0_split_4
I0403 19:36:25.442088 25271 net.cpp:399] inception_4b/pool -> inception_4b/pool
I0403 19:36:25.442173 25271 net.cpp:141] Setting up inception_4b/pool
I0403 19:36:25.442206 25271 net.cpp:148] Top shape: 24 512 14 14 (2408448)
I0403 19:36:25.442225 25271 net.cpp:156] Memory required for data: 977814816
I0403 19:36:25.442245 25271 layer_factory.hpp:77] Creating layer inception_4b/pool_proj
I0403 19:36:25.442281 25271 net.cpp:91] Creating Layer inception_4b/pool_proj
I0403 19:36:25.442307 25271 net.cpp:425] inception_4b/pool_proj <- inception_4b/pool
I0403 19:36:25.442334 25271 net.cpp:399] inception_4b/pool_proj -> inception_4b/pool_proj
I0403 19:36:25.443810 25271 net.cpp:141] Setting up inception_4b/pool_proj
I0403 19:36:25.443850 25271 net.cpp:148] Top shape: 24 64 14 14 (301056)
I0403 19:36:25.443871 25271 net.cpp:156] Memory required for data: 979019040
I0403 19:36:25.443893 25271 layer_factory.hpp:77] Creating layer inception_4b/relu_pool_proj
I0403 19:36:25.443922 25271 net.cpp:91] Creating Layer inception_4b/relu_pool_proj
I0403 19:36:25.443943 25271 net.cpp:425] inception_4b/relu_pool_proj <- inception_4b/pool_proj
I0403 19:36:25.443964 25271 net.cpp:386] inception_4b/relu_pool_proj -> inception_4b/pool_proj (in-place)
I0403 19:36:25.444186 25271 net.cpp:141] Setting up inception_4b/relu_pool_proj
I0403 19:36:25.444219 25271 net.cpp:148] Top shape: 24 64 14 14 (301056)
I0403 19:36:25.444238 25271 net.cpp:156] Memory required for data: 980223264
I0403 19:36:25.444270 25271 layer_factory.hpp:77] Creating layer inception_4b/output
I0403 19:36:25.444296 25271 net.cpp:91] Creating Layer inception_4b/output
I0403 19:36:25.444315 25271 net.cpp:425] inception_4b/output <- inception_4b/1x1
I0403 19:36:25.444334 25271 net.cpp:425] inception_4b/output <- inception_4b/3x3
I0403 19:36:25.444353 25271 net.cpp:425] inception_4b/output <- inception_4b/5x5
I0403 19:36:25.444372 25271 net.cpp:425] inception_4b/output <- inception_4b/pool_proj
I0403 19:36:25.444396 25271 net.cpp:399] inception_4b/output -> inception_4b/output
I0403 19:36:25.444453 25271 net.cpp:141] Setting up inception_4b/output
I0403 19:36:25.444480 25271 net.cpp:148] Top shape: 24 512 14 14 (2408448)
I0403 19:36:25.444497 25271 net.cpp:156] Memory required for data: 989857056
I0403 19:36:25.444532 25271 layer_factory.hpp:77] Creating layer inception_4b/output_inception_4b/output_0_split
I0403 19:36:25.444568 25271 net.cpp:91] Creating Layer inception_4b/output_inception_4b/output_0_split
I0403 19:36:25.444589 25271 net.cpp:425] inception_4b/output_inception_4b/output_0_split <- inception_4b/output
I0403 19:36:25.444612 25271 net.cpp:399] inception_4b/output_inception_4b/output_0_split -> inception_4b/output_inception_4b/output_0_split_0
I0403 19:36:25.444636 25271 net.cpp:399] inception_4b/output_inception_4b/output_0_split -> inception_4b/output_inception_4b/output_0_split_1
I0403 19:36:25.444660 25271 net.cpp:399] inception_4b/output_inception_4b/output_0_split -> inception_4b/output_inception_4b/output_0_split_2
I0403 19:36:25.444689 25271 net.cpp:399] inception_4b/output_inception_4b/output_0_split -> inception_4b/output_inception_4b/output_0_split_3
I0403 19:36:25.444795 25271 net.cpp:141] Setting up inception_4b/output_inception_4b/output_0_split
I0403 19:36:25.444824 25271 net.cpp:148] Top shape: 24 512 14 14 (2408448)
I0403 19:36:25.444844 25271 net.cpp:148] Top shape: 24 512 14 14 (2408448)
I0403 19:36:25.444862 25271 net.cpp:148] Top shape: 24 512 14 14 (2408448)
I0403 19:36:25.444880 25271 net.cpp:148] Top shape: 24 512 14 14 (2408448)
I0403 19:36:25.444896 25271 net.cpp:156] Memory required for data: 1028392224
I0403 19:36:25.444914 25271 layer_factory.hpp:77] Creating layer inception_4c/1x1
I0403 19:36:25.444941 25271 net.cpp:91] Creating Layer inception_4c/1x1
I0403 19:36:25.444963 25271 net.cpp:425] inception_4c/1x1 <- inception_4b/output_inception_4b/output_0_split_0
I0403 19:36:25.444989 25271 net.cpp:399] inception_4c/1x1 -> inception_4c/1x1
I0403 19:36:25.446754 25271 net.cpp:141] Setting up inception_4c/1x1
I0403 19:36:25.446794 25271 net.cpp:148] Top shape: 24 128 14 14 (602112)
I0403 19:36:25.446815 25271 net.cpp:156] Memory required for data: 1030800672
I0403 19:36:25.446837 25271 layer_factory.hpp:77] Creating layer inception_4c/relu_1x1
I0403 19:36:25.446861 25271 net.cpp:91] Creating Layer inception_4c/relu_1x1
I0403 19:36:25.446880 25271 net.cpp:425] inception_4c/relu_1x1 <- inception_4c/1x1
I0403 19:36:25.446905 25271 net.cpp:386] inception_4c/relu_1x1 -> inception_4c/1x1 (in-place)
I0403 19:36:25.447129 25271 net.cpp:141] Setting up inception_4c/relu_1x1
I0403 19:36:25.447161 25271 net.cpp:148] Top shape: 24 128 14 14 (602112)
I0403 19:36:25.447178 25271 net.cpp:156] Memory required for data: 1033209120
I0403 19:36:25.447196 25271 layer_factory.hpp:77] Creating layer inception_4c/3x3_reduce
I0403 19:36:25.447224 25271 net.cpp:91] Creating Layer inception_4c/3x3_reduce
I0403 19:36:25.447245 25271 net.cpp:425] inception_4c/3x3_reduce <- inception_4b/output_inception_4b/output_0_split_1
I0403 19:36:25.447280 25271 net.cpp:399] inception_4c/3x3_reduce -> inception_4c/3x3_reduce
I0403 19:36:25.449647 25271 net.cpp:141] Setting up inception_4c/3x3_reduce
I0403 19:36:25.449683 25271 net.cpp:148] Top shape: 24 128 14 14 (602112)
I0403 19:36:25.449703 25271 net.cpp:156] Memory required for data: 1035617568
I0403 19:36:25.449725 25271 layer_factory.hpp:77] Creating layer inception_4c/relu_3x3_reduce
I0403 19:36:25.449750 25271 net.cpp:91] Creating Layer inception_4c/relu_3x3_reduce
I0403 19:36:25.449770 25271 net.cpp:425] inception_4c/relu_3x3_reduce <- inception_4c/3x3_reduce
I0403 19:36:25.449792 25271 net.cpp:386] inception_4c/relu_3x3_reduce -> inception_4c/3x3_reduce (in-place)
I0403 19:36:25.450140 25271 net.cpp:141] Setting up inception_4c/relu_3x3_reduce
I0403 19:36:25.450173 25271 net.cpp:148] Top shape: 24 128 14 14 (602112)
I0403 19:36:25.450192 25271 net.cpp:156] Memory required for data: 1038026016
I0403 19:36:25.450212 25271 layer_factory.hpp:77] Creating layer inception_4c/3x3
I0403 19:36:25.450238 25271 net.cpp:91] Creating Layer inception_4c/3x3
I0403 19:36:25.450266 25271 net.cpp:425] inception_4c/3x3 <- inception_4c/3x3_reduce
I0403 19:36:25.450296 25271 net.cpp:399] inception_4c/3x3 -> inception_4c/3x3
I0403 19:36:25.454696 25271 net.cpp:141] Setting up inception_4c/3x3
I0403 19:36:25.454746 25271 net.cpp:148] Top shape: 24 256 14 14 (1204224)
I0403 19:36:25.454766 25271 net.cpp:156] Memory required for data: 1042842912
I0403 19:36:25.454802 25271 layer_factory.hpp:77] Creating layer inception_4c/relu_3x3
I0403 19:36:25.454829 25271 net.cpp:91] Creating Layer inception_4c/relu_3x3
I0403 19:36:25.454850 25271 net.cpp:425] inception_4c/relu_3x3 <- inception_4c/3x3
I0403 19:36:25.454871 25271 net.cpp:386] inception_4c/relu_3x3 -> inception_4c/3x3 (in-place)
I0403 19:36:25.455097 25271 net.cpp:141] Setting up inception_4c/relu_3x3
I0403 19:36:25.455128 25271 net.cpp:148] Top shape: 24 256 14 14 (1204224)
I0403 19:36:25.455145 25271 net.cpp:156] Memory required for data: 1047659808
I0403 19:36:25.455163 25271 layer_factory.hpp:77] Creating layer inception_4c/5x5_reduce
I0403 19:36:25.455188 25271 net.cpp:91] Creating Layer inception_4c/5x5_reduce
I0403 19:36:25.455214 25271 net.cpp:425] inception_4c/5x5_reduce <- inception_4b/output_inception_4b/output_0_split_2
I0403 19:36:25.455236 25271 net.cpp:399] inception_4c/5x5_reduce -> inception_4c/5x5_reduce
I0403 19:36:25.456573 25271 net.cpp:141] Setting up inception_4c/5x5_reduce
I0403 19:36:25.456609 25271 net.cpp:148] Top shape: 24 24 14 14 (112896)
I0403 19:36:25.456627 25271 net.cpp:156] Memory required for data: 1048111392
I0403 19:36:25.456648 25271 layer_factory.hpp:77] Creating layer inception_4c/relu_5x5_reduce
I0403 19:36:25.456672 25271 net.cpp:91] Creating Layer inception_4c/relu_5x5_reduce
I0403 19:36:25.456693 25271 net.cpp:425] inception_4c/relu_5x5_reduce <- inception_4c/5x5_reduce
I0403 19:36:25.456714 25271 net.cpp:386] inception_4c/relu_5x5_reduce -> inception_4c/5x5_reduce (in-place)
I0403 19:36:25.456938 25271 net.cpp:141] Setting up inception_4c/relu_5x5_reduce
I0403 19:36:25.456971 25271 net.cpp:148] Top shape: 24 24 14 14 (112896)
I0403 19:36:25.456990 25271 net.cpp:156] Memory required for data: 1048562976
I0403 19:36:25.457007 25271 layer_factory.hpp:77] Creating layer inception_4c/5x5
I0403 19:36:25.457033 25271 net.cpp:91] Creating Layer inception_4c/5x5
I0403 19:36:25.457056 25271 net.cpp:425] inception_4c/5x5 <- inception_4c/5x5_reduce
I0403 19:36:25.457078 25271 net.cpp:399] inception_4c/5x5 -> inception_4c/5x5
I0403 19:36:25.458607 25271 net.cpp:141] Setting up inception_4c/5x5
I0403 19:36:25.458644 25271 net.cpp:148] Top shape: 24 64 14 14 (301056)
I0403 19:36:25.458663 25271 net.cpp:156] Memory required for data: 1049767200
I0403 19:36:25.458685 25271 layer_factory.hpp:77] Creating layer inception_4c/relu_5x5
I0403 19:36:25.458709 25271 net.cpp:91] Creating Layer inception_4c/relu_5x5
I0403 19:36:25.458727 25271 net.cpp:425] inception_4c/relu_5x5 <- inception_4c/5x5
I0403 19:36:25.458750 25271 net.cpp:386] inception_4c/relu_5x5 -> inception_4c/5x5 (in-place)
I0403 19:36:25.459094 25271 net.cpp:141] Setting up inception_4c/relu_5x5
I0403 19:36:25.459127 25271 net.cpp:148] Top shape: 24 64 14 14 (301056)
I0403 19:36:25.459147 25271 net.cpp:156] Memory required for data: 1050971424
I0403 19:36:25.459164 25271 layer_factory.hpp:77] Creating layer inception_4c/pool
I0403 19:36:25.459187 25271 net.cpp:91] Creating Layer inception_4c/pool
I0403 19:36:25.459206 25271 net.cpp:425] inception_4c/pool <- inception_4b/output_inception_4b/output_0_split_3
I0403 19:36:25.459230 25271 net.cpp:399] inception_4c/pool -> inception_4c/pool
I0403 19:36:25.459319 25271 net.cpp:141] Setting up inception_4c/pool
I0403 19:36:25.459348 25271 net.cpp:148] Top shape: 24 512 14 14 (2408448)
I0403 19:36:25.459367 25271 net.cpp:156] Memory required for data: 1060605216
I0403 19:36:25.459383 25271 layer_factory.hpp:77] Creating layer inception_4c/pool_proj
I0403 19:36:25.459409 25271 net.cpp:91] Creating Layer inception_4c/pool_proj
I0403 19:36:25.459430 25271 net.cpp:425] inception_4c/pool_proj <- inception_4c/pool
I0403 19:36:25.459455 25271 net.cpp:399] inception_4c/pool_proj -> inception_4c/pool_proj
I0403 19:36:25.460934 25271 net.cpp:141] Setting up inception_4c/pool_proj
I0403 19:36:25.460968 25271 net.cpp:148] Top shape: 24 64 14 14 (301056)
I0403 19:36:25.461004 25271 net.cpp:156] Memory required for data: 1061809440
I0403 19:36:25.461029 25271 layer_factory.hpp:77] Creating layer inception_4c/relu_pool_proj
I0403 19:36:25.461055 25271 net.cpp:91] Creating Layer inception_4c/relu_pool_proj
I0403 19:36:25.461076 25271 net.cpp:425] inception_4c/relu_pool_proj <- inception_4c/pool_proj
I0403 19:36:25.461097 25271 net.cpp:386] inception_4c/relu_pool_proj -> inception_4c/pool_proj (in-place)
I0403 19:36:25.461326 25271 net.cpp:141] Setting up inception_4c/relu_pool_proj
I0403 19:36:25.461359 25271 net.cpp:148] Top shape: 24 64 14 14 (301056)
I0403 19:36:25.461379 25271 net.cpp:156] Memory required for data: 1063013664
I0403 19:36:25.461395 25271 layer_factory.hpp:77] Creating layer inception_4c/output
I0403 19:36:25.461416 25271 net.cpp:91] Creating Layer inception_4c/output
I0403 19:36:25.461434 25271 net.cpp:425] inception_4c/output <- inception_4c/1x1
I0403 19:36:25.461453 25271 net.cpp:425] inception_4c/output <- inception_4c/3x3
I0403 19:36:25.461472 25271 net.cpp:425] inception_4c/output <- inception_4c/5x5
I0403 19:36:25.461491 25271 net.cpp:425] inception_4c/output <- inception_4c/pool_proj
I0403 19:36:25.461511 25271 net.cpp:399] inception_4c/output -> inception_4c/output
I0403 19:36:25.461570 25271 net.cpp:141] Setting up inception_4c/output
I0403 19:36:25.461598 25271 net.cpp:148] Top shape: 24 512 14 14 (2408448)
I0403 19:36:25.461616 25271 net.cpp:156] Memory required for data: 1072647456
I0403 19:36:25.461632 25271 layer_factory.hpp:77] Creating layer inception_4c/output_inception_4c/output_0_split
I0403 19:36:25.461655 25271 net.cpp:91] Creating Layer inception_4c/output_inception_4c/output_0_split
I0403 19:36:25.461675 25271 net.cpp:425] inception_4c/output_inception_4c/output_0_split <- inception_4c/output
I0403 19:36:25.461696 25271 net.cpp:399] inception_4c/output_inception_4c/output_0_split -> inception_4c/output_inception_4c/output_0_split_0
I0403 19:36:25.461719 25271 net.cpp:399] inception_4c/output_inception_4c/output_0_split -> inception_4c/output_inception_4c/output_0_split_1
I0403 19:36:25.461743 25271 net.cpp:399] inception_4c/output_inception_4c/output_0_split -> inception_4c/output_inception_4c/output_0_split_2
I0403 19:36:25.461772 25271 net.cpp:399] inception_4c/output_inception_4c/output_0_split -> inception_4c/output_inception_4c/output_0_split_3
I0403 19:36:25.461877 25271 net.cpp:141] Setting up inception_4c/output_inception_4c/output_0_split
I0403 19:36:25.461905 25271 net.cpp:148] Top shape: 24 512 14 14 (2408448)
I0403 19:36:25.461925 25271 net.cpp:148] Top shape: 24 512 14 14 (2408448)
I0403 19:36:25.461942 25271 net.cpp:148] Top shape: 24 512 14 14 (2408448)
I0403 19:36:25.461959 25271 net.cpp:148] Top shape: 24 512 14 14 (2408448)
I0403 19:36:25.461976 25271 net.cpp:156] Memory required for data: 1111182624
I0403 19:36:25.461992 25271 layer_factory.hpp:77] Creating layer inception_4d/1x1
I0403 19:36:25.462018 25271 net.cpp:91] Creating Layer inception_4d/1x1
I0403 19:36:25.462039 25271 net.cpp:425] inception_4d/1x1 <- inception_4c/output_inception_4c/output_0_split_0
I0403 19:36:25.462064 25271 net.cpp:399] inception_4d/1x1 -> inception_4d/1x1
I0403 19:36:25.463752 25271 net.cpp:141] Setting up inception_4d/1x1
I0403 19:36:25.463788 25271 net.cpp:148] Top shape: 24 112 14 14 (526848)
I0403 19:36:25.463805 25271 net.cpp:156] Memory required for data: 1113290016
I0403 19:36:25.463827 25271 layer_factory.hpp:77] Creating layer inception_4d/relu_1x1
I0403 19:36:25.463851 25271 net.cpp:91] Creating Layer inception_4d/relu_1x1
I0403 19:36:25.463872 25271 net.cpp:425] inception_4d/relu_1x1 <- inception_4d/1x1
I0403 19:36:25.463893 25271 net.cpp:386] inception_4d/relu_1x1 -> inception_4d/1x1 (in-place)
I0403 19:36:25.464118 25271 net.cpp:141] Setting up inception_4d/relu_1x1
I0403 19:36:25.464148 25271 net.cpp:148] Top shape: 24 112 14 14 (526848)
I0403 19:36:25.464165 25271 net.cpp:156] Memory required for data: 1115397408
I0403 19:36:25.464184 25271 layer_factory.hpp:77] Creating layer inception_4d/3x3_reduce
I0403 19:36:25.464231 25271 net.cpp:91] Creating Layer inception_4d/3x3_reduce
I0403 19:36:25.464253 25271 net.cpp:425] inception_4d/3x3_reduce <- inception_4c/output_inception_4c/output_0_split_1
I0403 19:36:25.464296 25271 net.cpp:399] inception_4d/3x3_reduce -> inception_4d/3x3_reduce
I0403 19:36:25.466130 25271 net.cpp:141] Setting up inception_4d/3x3_reduce
I0403 19:36:25.466164 25271 net.cpp:148] Top shape: 24 144 14 14 (677376)
I0403 19:36:25.466183 25271 net.cpp:156] Memory required for data: 1118106912
I0403 19:36:25.466205 25271 layer_factory.hpp:77] Creating layer inception_4d/relu_3x3_reduce
I0403 19:36:25.466228 25271 net.cpp:91] Creating Layer inception_4d/relu_3x3_reduce
I0403 19:36:25.466246 25271 net.cpp:425] inception_4d/relu_3x3_reduce <- inception_4d/3x3_reduce
I0403 19:36:25.466279 25271 net.cpp:386] inception_4d/relu_3x3_reduce -> inception_4d/3x3_reduce (in-place)
I0403 19:36:25.466624 25271 net.cpp:141] Setting up inception_4d/relu_3x3_reduce
I0403 19:36:25.466658 25271 net.cpp:148] Top shape: 24 144 14 14 (677376)
I0403 19:36:25.466677 25271 net.cpp:156] Memory required for data: 1120816416
I0403 19:36:25.466696 25271 layer_factory.hpp:77] Creating layer inception_4d/3x3
I0403 19:36:25.466722 25271 net.cpp:91] Creating Layer inception_4d/3x3
I0403 19:36:25.466742 25271 net.cpp:425] inception_4d/3x3 <- inception_4d/3x3_reduce
I0403 19:36:25.466768 25271 net.cpp:399] inception_4d/3x3 -> inception_4d/3x3
I0403 19:36:25.472031 25271 net.cpp:141] Setting up inception_4d/3x3
I0403 19:36:25.472069 25271 net.cpp:148] Top shape: 24 288 14 14 (1354752)
I0403 19:36:25.472087 25271 net.cpp:156] Memory required for data: 1126235424
I0403 19:36:25.472108 25271 layer_factory.hpp:77] Creating layer inception_4d/relu_3x3
I0403 19:36:25.472131 25271 net.cpp:91] Creating Layer inception_4d/relu_3x3
I0403 19:36:25.472151 25271 net.cpp:425] inception_4d/relu_3x3 <- inception_4d/3x3
I0403 19:36:25.472174 25271 net.cpp:386] inception_4d/relu_3x3 -> inception_4d/3x3 (in-place)
I0403 19:36:25.472406 25271 net.cpp:141] Setting up inception_4d/relu_3x3
I0403 19:36:25.472436 25271 net.cpp:148] Top shape: 24 288 14 14 (1354752)
I0403 19:36:25.472455 25271 net.cpp:156] Memory required for data: 1131654432
I0403 19:36:25.472471 25271 layer_factory.hpp:77] Creating layer inception_4d/5x5_reduce
I0403 19:36:25.472498 25271 net.cpp:91] Creating Layer inception_4d/5x5_reduce
I0403 19:36:25.472520 25271 net.cpp:425] inception_4d/5x5_reduce <- inception_4c/output_inception_4c/output_0_split_2
I0403 19:36:25.472546 25271 net.cpp:399] inception_4d/5x5_reduce -> inception_4d/5x5_reduce
I0403 19:36:25.473950 25271 net.cpp:141] Setting up inception_4d/5x5_reduce
I0403 19:36:25.473985 25271 net.cpp:148] Top shape: 24 32 14 14 (150528)
I0403 19:36:25.474004 25271 net.cpp:156] Memory required for data: 1132256544
I0403 19:36:25.474025 25271 layer_factory.hpp:77] Creating layer inception_4d/relu_5x5_reduce
I0403 19:36:25.474050 25271 net.cpp:91] Creating Layer inception_4d/relu_5x5_reduce
I0403 19:36:25.474071 25271 net.cpp:425] inception_4d/relu_5x5_reduce <- inception_4d/5x5_reduce
I0403 19:36:25.474092 25271 net.cpp:386] inception_4d/relu_5x5_reduce -> inception_4d/5x5_reduce (in-place)
I0403 19:36:25.474339 25271 net.cpp:141] Setting up inception_4d/relu_5x5_reduce
I0403 19:36:25.474370 25271 net.cpp:148] Top shape: 24 32 14 14 (150528)
I0403 19:36:25.474388 25271 net.cpp:156] Memory required for data: 1132858656
I0403 19:36:25.474406 25271 layer_factory.hpp:77] Creating layer inception_4d/5x5
I0403 19:36:25.474433 25271 net.cpp:91] Creating Layer inception_4d/5x5
I0403 19:36:25.474457 25271 net.cpp:425] inception_4d/5x5 <- inception_4d/5x5_reduce
I0403 19:36:25.474480 25271 net.cpp:399] inception_4d/5x5 -> inception_4d/5x5
I0403 19:36:25.476239 25271 net.cpp:141] Setting up inception_4d/5x5
I0403 19:36:25.476279 25271 net.cpp:148] Top shape: 24 64 14 14 (301056)
I0403 19:36:25.476299 25271 net.cpp:156] Memory required for data: 1134062880
I0403 19:36:25.476321 25271 layer_factory.hpp:77] Creating layer inception_4d/relu_5x5
I0403 19:36:25.476366 25271 net.cpp:91] Creating Layer inception_4d/relu_5x5
I0403 19:36:25.476387 25271 net.cpp:425] inception_4d/relu_5x5 <- inception_4d/5x5
I0403 19:36:25.476408 25271 net.cpp:386] inception_4d/relu_5x5 -> inception_4d/5x5 (in-place)
I0403 19:36:25.476768 25271 net.cpp:141] Setting up inception_4d/relu_5x5
I0403 19:36:25.476799 25271 net.cpp:148] Top shape: 24 64 14 14 (301056)
I0403 19:36:25.476819 25271 net.cpp:156] Memory required for data: 1135267104
I0403 19:36:25.476836 25271 layer_factory.hpp:77] Creating layer inception_4d/pool
I0403 19:36:25.476860 25271 net.cpp:91] Creating Layer inception_4d/pool
I0403 19:36:25.476881 25271 net.cpp:425] inception_4d/pool <- inception_4c/output_inception_4c/output_0_split_3
I0403 19:36:25.476902 25271 net.cpp:399] inception_4d/pool -> inception_4d/pool
I0403 19:36:25.476985 25271 net.cpp:141] Setting up inception_4d/pool
I0403 19:36:25.477015 25271 net.cpp:148] Top shape: 24 512 14 14 (2408448)
I0403 19:36:25.477031 25271 net.cpp:156] Memory required for data: 1144900896
I0403 19:36:25.477049 25271 layer_factory.hpp:77] Creating layer inception_4d/pool_proj
I0403 19:36:25.477075 25271 net.cpp:91] Creating Layer inception_4d/pool_proj
I0403 19:36:25.477097 25271 net.cpp:425] inception_4d/pool_proj <- inception_4d/pool
I0403 19:36:25.477123 25271 net.cpp:399] inception_4d/pool_proj -> inception_4d/pool_proj
I0403 19:36:25.479275 25271 net.cpp:141] Setting up inception_4d/pool_proj
I0403 19:36:25.479311 25271 net.cpp:148] Top shape: 24 64 14 14 (301056)
I0403 19:36:25.479331 25271 net.cpp:156] Memory required for data: 1146105120
I0403 19:36:25.479352 25271 layer_factory.hpp:77] Creating layer inception_4d/relu_pool_proj
I0403 19:36:25.479374 25271 net.cpp:91] Creating Layer inception_4d/relu_pool_proj
I0403 19:36:25.479394 25271 net.cpp:425] inception_4d/relu_pool_proj <- inception_4d/pool_proj
I0403 19:36:25.479418 25271 net.cpp:386] inception_4d/relu_pool_proj -> inception_4d/pool_proj (in-place)
I0403 19:36:25.479647 25271 net.cpp:141] Setting up inception_4d/relu_pool_proj
I0403 19:36:25.479677 25271 net.cpp:148] Top shape: 24 64 14 14 (301056)
I0403 19:36:25.479694 25271 net.cpp:156] Memory required for data: 1147309344
I0403 19:36:25.479712 25271 layer_factory.hpp:77] Creating layer inception_4d/output
I0403 19:36:25.479737 25271 net.cpp:91] Creating Layer inception_4d/output
I0403 19:36:25.479758 25271 net.cpp:425] inception_4d/output <- inception_4d/1x1
I0403 19:36:25.479778 25271 net.cpp:425] inception_4d/output <- inception_4d/3x3
I0403 19:36:25.479797 25271 net.cpp:425] inception_4d/output <- inception_4d/5x5
I0403 19:36:25.479816 25271 net.cpp:425] inception_4d/output <- inception_4d/pool_proj
I0403 19:36:25.479836 25271 net.cpp:399] inception_4d/output -> inception_4d/output
I0403 19:36:25.479895 25271 net.cpp:141] Setting up inception_4d/output
I0403 19:36:25.479924 25271 net.cpp:148] Top shape: 24 528 14 14 (2483712)
I0403 19:36:25.479941 25271 net.cpp:156] Memory required for data: 1157244192
I0403 19:36:25.479959 25271 layer_factory.hpp:77] Creating layer inception_4d/output_inception_4d/output_0_split
I0403 19:36:25.479980 25271 net.cpp:91] Creating Layer inception_4d/output_inception_4d/output_0_split
I0403 19:36:25.480000 25271 net.cpp:425] inception_4d/output_inception_4d/output_0_split <- inception_4d/output
I0403 19:36:25.480023 25271 net.cpp:399] inception_4d/output_inception_4d/output_0_split -> inception_4d/output_inception_4d/output_0_split_0
I0403 19:36:25.480051 25271 net.cpp:399] inception_4d/output_inception_4d/output_0_split -> inception_4d/output_inception_4d/output_0_split_1
I0403 19:36:25.480075 25271 net.cpp:399] inception_4d/output_inception_4d/output_0_split -> inception_4d/output_inception_4d/output_0_split_2
I0403 19:36:25.480100 25271 net.cpp:399] inception_4d/output_inception_4d/output_0_split -> inception_4d/output_inception_4d/output_0_split_3
I0403 19:36:25.480124 25271 net.cpp:399] inception_4d/output_inception_4d/output_0_split -> inception_4d/output_inception_4d/output_0_split_4
I0403 19:36:25.480252 25271 net.cpp:141] Setting up inception_4d/output_inception_4d/output_0_split
I0403 19:36:25.480304 25271 net.cpp:148] Top shape: 24 528 14 14 (2483712)
I0403 19:36:25.480324 25271 net.cpp:148] Top shape: 24 528 14 14 (2483712)
I0403 19:36:25.480342 25271 net.cpp:148] Top shape: 24 528 14 14 (2483712)
I0403 19:36:25.480361 25271 net.cpp:148] Top shape: 24 528 14 14 (2483712)
I0403 19:36:25.480381 25271 net.cpp:148] Top shape: 24 528 14 14 (2483712)
I0403 19:36:25.480396 25271 net.cpp:156] Memory required for data: 1206918432
I0403 19:36:25.480413 25271 layer_factory.hpp:77] Creating layer loss2/ave_pool
I0403 19:36:25.480434 25271 net.cpp:91] Creating Layer loss2/ave_pool
I0403 19:36:25.480454 25271 net.cpp:425] loss2/ave_pool <- inception_4d/output_inception_4d/output_0_split_0
I0403 19:36:25.480479 25271 net.cpp:399] loss2/ave_pool -> loss2/ave_pool
I0403 19:36:25.480864 25271 net.cpp:141] Setting up loss2/ave_pool
I0403 19:36:25.480895 25271 net.cpp:148] Top shape: 24 528 4 4 (202752)
I0403 19:36:25.480913 25271 net.cpp:156] Memory required for data: 1207729440
I0403 19:36:25.480931 25271 layer_factory.hpp:77] Creating layer loss2/conv
I0403 19:36:25.480957 25271 net.cpp:91] Creating Layer loss2/conv
I0403 19:36:25.480979 25271 net.cpp:425] loss2/conv <- loss2/ave_pool
I0403 19:36:25.481005 25271 net.cpp:399] loss2/conv -> loss2/conv
I0403 19:36:25.483321 25271 net.cpp:141] Setting up loss2/conv
I0403 19:36:25.483361 25271 net.cpp:148] Top shape: 24 128 4 4 (49152)
I0403 19:36:25.483381 25271 net.cpp:156] Memory required for data: 1207926048
I0403 19:36:25.483402 25271 layer_factory.hpp:77] Creating layer loss2/relu_conv
I0403 19:36:25.483424 25271 net.cpp:91] Creating Layer loss2/relu_conv
I0403 19:36:25.483445 25271 net.cpp:425] loss2/relu_conv <- loss2/conv
I0403 19:36:25.483467 25271 net.cpp:386] loss2/relu_conv -> loss2/conv (in-place)
I0403 19:36:25.483808 25271 net.cpp:141] Setting up loss2/relu_conv
I0403 19:36:25.483844 25271 net.cpp:148] Top shape: 24 128 4 4 (49152)
I0403 19:36:25.483865 25271 net.cpp:156] Memory required for data: 1208122656
I0403 19:36:25.483882 25271 layer_factory.hpp:77] Creating layer loss2/fc
I0403 19:36:25.483904 25271 net.cpp:91] Creating Layer loss2/fc
I0403 19:36:25.483924 25271 net.cpp:425] loss2/fc <- loss2/conv
I0403 19:36:25.483949 25271 net.cpp:399] loss2/fc -> loss2/fc
I0403 19:36:25.506021 25271 net.cpp:141] Setting up loss2/fc
I0403 19:36:25.506062 25271 net.cpp:148] Top shape: 24 1024 (24576)
I0403 19:36:25.506081 25271 net.cpp:156] Memory required for data: 1208220960
I0403 19:36:25.506104 25271 layer_factory.hpp:77] Creating layer loss2/relu_fc
I0403 19:36:25.506129 25271 net.cpp:91] Creating Layer loss2/relu_fc
I0403 19:36:25.506150 25271 net.cpp:425] loss2/relu_fc <- loss2/fc
I0403 19:36:25.506171 25271 net.cpp:386] loss2/relu_fc -> loss2/fc (in-place)
I0403 19:36:25.506542 25271 net.cpp:141] Setting up loss2/relu_fc
I0403 19:36:25.506575 25271 net.cpp:148] Top shape: 24 1024 (24576)
I0403 19:36:25.506593 25271 net.cpp:156] Memory required for data: 1208319264
I0403 19:36:25.506611 25271 layer_factory.hpp:77] Creating layer loss2/drop_fc
I0403 19:36:25.506636 25271 net.cpp:91] Creating Layer loss2/drop_fc
I0403 19:36:25.506659 25271 net.cpp:425] loss2/drop_fc <- loss2/fc
I0403 19:36:25.506680 25271 net.cpp:386] loss2/drop_fc -> loss2/fc (in-place)
I0403 19:36:25.506739 25271 net.cpp:141] Setting up loss2/drop_fc
I0403 19:36:25.506770 25271 net.cpp:148] Top shape: 24 1024 (24576)
I0403 19:36:25.506789 25271 net.cpp:156] Memory required for data: 1208417568
I0403 19:36:25.506808 25271 layer_factory.hpp:77] Creating layer loss2/classifier_plantvillage
I0403 19:36:25.506829 25271 net.cpp:91] Creating Layer loss2/classifier_plantvillage
I0403 19:36:25.506849 25271 net.cpp:425] loss2/classifier_plantvillage <- loss2/fc
I0403 19:36:25.506873 25271 net.cpp:399] loss2/classifier_plantvillage -> loss2/classifier_plantvillage
I0403 19:36:25.507380 25271 net.cpp:141] Setting up loss2/classifier_plantvillage
I0403 19:36:25.507411 25271 net.cpp:148] Top shape: 24 38 (912)
I0403 19:36:25.507448 25271 net.cpp:156] Memory required for data: 1208421216
I0403 19:36:25.507470 25271 layer_factory.hpp:77] Creating layer loss2/classifier_plantvillage_loss2/classifier_plantvillage_0_split
I0403 19:36:25.507493 25271 net.cpp:91] Creating Layer loss2/classifier_plantvillage_loss2/classifier_plantvillage_0_split
I0403 19:36:25.507511 25271 net.cpp:425] loss2/classifier_plantvillage_loss2/classifier_plantvillage_0_split <- loss2/classifier_plantvillage
I0403 19:36:25.507532 25271 net.cpp:399] loss2/classifier_plantvillage_loss2/classifier_plantvillage_0_split -> loss2/classifier_plantvillage_loss2/classifier_plantvillage_0_split_0
I0403 19:36:25.507565 25271 net.cpp:399] loss2/classifier_plantvillage_loss2/classifier_plantvillage_0_split -> loss2/classifier_plantvillage_loss2/classifier_plantvillage_0_split_1
I0403 19:36:25.507593 25271 net.cpp:399] loss2/classifier_plantvillage_loss2/classifier_plantvillage_0_split -> loss2/classifier_plantvillage_loss2/classifier_plantvillage_0_split_2
I0403 19:36:25.507690 25271 net.cpp:141] Setting up loss2/classifier_plantvillage_loss2/classifier_plantvillage_0_split
I0403 19:36:25.507720 25271 net.cpp:148] Top shape: 24 38 (912)
I0403 19:36:25.507740 25271 net.cpp:148] Top shape: 24 38 (912)
I0403 19:36:25.507758 25271 net.cpp:148] Top shape: 24 38 (912)
I0403 19:36:25.507774 25271 net.cpp:156] Memory required for data: 1208432160
I0403 19:36:25.507792 25271 layer_factory.hpp:77] Creating layer inception_4e/1x1
I0403 19:36:25.507818 25271 net.cpp:91] Creating Layer inception_4e/1x1
I0403 19:36:25.507840 25271 net.cpp:425] inception_4e/1x1 <- inception_4d/output_inception_4d/output_0_split_1
I0403 19:36:25.507866 25271 net.cpp:399] inception_4e/1x1 -> inception_4e/1x1
I0403 19:36:25.510109 25271 net.cpp:141] Setting up inception_4e/1x1
I0403 19:36:25.510146 25271 net.cpp:148] Top shape: 24 256 14 14 (1204224)
I0403 19:36:25.510167 25271 net.cpp:156] Memory required for data: 1213249056
I0403 19:36:25.510190 25271 layer_factory.hpp:77] Creating layer inception_4e/relu_1x1
I0403 19:36:25.510212 25271 net.cpp:91] Creating Layer inception_4e/relu_1x1
I0403 19:36:25.510232 25271 net.cpp:425] inception_4e/relu_1x1 <- inception_4e/1x1
I0403 19:36:25.510262 25271 net.cpp:386] inception_4e/relu_1x1 -> inception_4e/1x1 (in-place)
I0403 19:36:25.510620 25271 net.cpp:141] Setting up inception_4e/relu_1x1
I0403 19:36:25.510655 25271 net.cpp:148] Top shape: 24 256 14 14 (1204224)
I0403 19:36:25.510676 25271 net.cpp:156] Memory required for data: 1218065952
I0403 19:36:25.510695 25271 layer_factory.hpp:77] Creating layer inception_4e/3x3_reduce
I0403 19:36:25.510722 25271 net.cpp:91] Creating Layer inception_4e/3x3_reduce
I0403 19:36:25.510746 25271 net.cpp:425] inception_4e/3x3_reduce <- inception_4d/output_inception_4d/output_0_split_2
I0403 19:36:25.510768 25271 net.cpp:399] inception_4e/3x3_reduce -> inception_4e/3x3_reduce
I0403 19:36:25.513368 25271 net.cpp:141] Setting up inception_4e/3x3_reduce
I0403 19:36:25.513404 25271 net.cpp:148] Top shape: 24 160 14 14 (752640)
I0403 19:36:25.513425 25271 net.cpp:156] Memory required for data: 1221076512
I0403 19:36:25.513448 25271 layer_factory.hpp:77] Creating layer inception_4e/relu_3x3_reduce
I0403 19:36:25.513476 25271 net.cpp:91] Creating Layer inception_4e/relu_3x3_reduce
I0403 19:36:25.513496 25271 net.cpp:425] inception_4e/relu_3x3_reduce <- inception_4e/3x3_reduce
I0403 19:36:25.513519 25271 net.cpp:386] inception_4e/relu_3x3_reduce -> inception_4e/3x3_reduce (in-place)
I0403 19:36:25.513746 25271 net.cpp:141] Setting up inception_4e/relu_3x3_reduce
I0403 19:36:25.513782 25271 net.cpp:148] Top shape: 24 160 14 14 (752640)
I0403 19:36:25.513802 25271 net.cpp:156] Memory required for data: 1224087072
I0403 19:36:25.513818 25271 layer_factory.hpp:77] Creating layer inception_4e/3x3
I0403 19:36:25.513845 25271 net.cpp:91] Creating Layer inception_4e/3x3
I0403 19:36:25.513867 25271 net.cpp:425] inception_4e/3x3 <- inception_4e/3x3_reduce
I0403 19:36:25.513890 25271 net.cpp:399] inception_4e/3x3 -> inception_4e/3x3
I0403 19:36:25.520108 25271 net.cpp:141] Setting up inception_4e/3x3
I0403 19:36:25.520160 25271 net.cpp:148] Top shape: 24 320 14 14 (1505280)
I0403 19:36:25.520182 25271 net.cpp:156] Memory required for data: 1230108192
I0403 19:36:25.520205 25271 layer_factory.hpp:77] Creating layer inception_4e/relu_3x3
I0403 19:36:25.520226 25271 net.cpp:91] Creating Layer inception_4e/relu_3x3
I0403 19:36:25.520246 25271 net.cpp:425] inception_4e/relu_3x3 <- inception_4e/3x3
I0403 19:36:25.520277 25271 net.cpp:386] inception_4e/relu_3x3 -> inception_4e/3x3 (in-place)
I0403 19:36:25.520642 25271 net.cpp:141] Setting up inception_4e/relu_3x3
I0403 19:36:25.520673 25271 net.cpp:148] Top shape: 24 320 14 14 (1505280)
I0403 19:36:25.520691 25271 net.cpp:156] Memory required for data: 1236129312
I0403 19:36:25.520709 25271 layer_factory.hpp:77] Creating layer inception_4e/5x5_reduce
I0403 19:36:25.520736 25271 net.cpp:91] Creating Layer inception_4e/5x5_reduce
I0403 19:36:25.520758 25271 net.cpp:425] inception_4e/5x5_reduce <- inception_4d/output_inception_4d/output_0_split_3
I0403 19:36:25.520784 25271 net.cpp:399] inception_4e/5x5_reduce -> inception_4e/5x5_reduce
I0403 19:36:25.522104 25271 net.cpp:141] Setting up inception_4e/5x5_reduce
I0403 19:36:25.522137 25271 net.cpp:148] Top shape: 24 32 14 14 (150528)
I0403 19:36:25.522156 25271 net.cpp:156] Memory required for data: 1236731424
I0403 19:36:25.522177 25271 layer_factory.hpp:77] Creating layer inception_4e/relu_5x5_reduce
I0403 19:36:25.522202 25271 net.cpp:91] Creating Layer inception_4e/relu_5x5_reduce
I0403 19:36:25.522223 25271 net.cpp:425] inception_4e/relu_5x5_reduce <- inception_4e/5x5_reduce
I0403 19:36:25.522243 25271 net.cpp:386] inception_4e/relu_5x5_reduce -> inception_4e/5x5_reduce (in-place)
I0403 19:36:25.522609 25271 net.cpp:141] Setting up inception_4e/relu_5x5_reduce
I0403 19:36:25.522641 25271 net.cpp:148] Top shape: 24 32 14 14 (150528)
I0403 19:36:25.522660 25271 net.cpp:156] Memory required for data: 1237333536
I0403 19:36:25.522677 25271 layer_factory.hpp:77] Creating layer inception_4e/5x5
I0403 19:36:25.522727 25271 net.cpp:91] Creating Layer inception_4e/5x5
I0403 19:36:25.522752 25271 net.cpp:425] inception_4e/5x5 <- inception_4e/5x5_reduce
I0403 19:36:25.522774 25271 net.cpp:399] inception_4e/5x5 -> inception_4e/5x5
I0403 19:36:25.525019 25271 net.cpp:141] Setting up inception_4e/5x5
I0403 19:36:25.525053 25271 net.cpp:148] Top shape: 24 128 14 14 (602112)
I0403 19:36:25.525073 25271 net.cpp:156] Memory required for data: 1239741984
I0403 19:36:25.525094 25271 layer_factory.hpp:77] Creating layer inception_4e/relu_5x5
I0403 19:36:25.525118 25271 net.cpp:91] Creating Layer inception_4e/relu_5x5
I0403 19:36:25.525140 25271 net.cpp:425] inception_4e/relu_5x5 <- inception_4e/5x5
I0403 19:36:25.525159 25271 net.cpp:386] inception_4e/relu_5x5 -> inception_4e/5x5 (in-place)
I0403 19:36:25.525408 25271 net.cpp:141] Setting up inception_4e/relu_5x5
I0403 19:36:25.525441 25271 net.cpp:148] Top shape: 24 128 14 14 (602112)
I0403 19:36:25.525460 25271 net.cpp:156] Memory required for data: 1242150432
I0403 19:36:25.525477 25271 layer_factory.hpp:77] Creating layer inception_4e/pool
I0403 19:36:25.525498 25271 net.cpp:91] Creating Layer inception_4e/pool
I0403 19:36:25.525517 25271 net.cpp:425] inception_4e/pool <- inception_4d/output_inception_4d/output_0_split_4
I0403 19:36:25.525538 25271 net.cpp:399] inception_4e/pool -> inception_4e/pool
I0403 19:36:25.525625 25271 net.cpp:141] Setting up inception_4e/pool
I0403 19:36:25.525655 25271 net.cpp:148] Top shape: 24 528 14 14 (2483712)
I0403 19:36:25.525671 25271 net.cpp:156] Memory required for data: 1252085280
I0403 19:36:25.525688 25271 layer_factory.hpp:77] Creating layer inception_4e/pool_proj
I0403 19:36:25.525715 25271 net.cpp:91] Creating Layer inception_4e/pool_proj
I0403 19:36:25.525737 25271 net.cpp:425] inception_4e/pool_proj <- inception_4e/pool
I0403 19:36:25.525760 25271 net.cpp:399] inception_4e/pool_proj -> inception_4e/pool_proj
I0403 19:36:25.527609 25271 net.cpp:141] Setting up inception_4e/pool_proj
I0403 19:36:25.527658 25271 net.cpp:148] Top shape: 24 128 14 14 (602112)
I0403 19:36:25.527678 25271 net.cpp:156] Memory required for data: 1254493728
I0403 19:36:25.527698 25271 layer_factory.hpp:77] Creating layer inception_4e/relu_pool_proj
I0403 19:36:25.527722 25271 net.cpp:91] Creating Layer inception_4e/relu_pool_proj
I0403 19:36:25.527743 25271 net.cpp:425] inception_4e/relu_pool_proj <- inception_4e/pool_proj
I0403 19:36:25.527765 25271 net.cpp:386] inception_4e/relu_pool_proj -> inception_4e/pool_proj (in-place)
I0403 19:36:25.528116 25271 net.cpp:141] Setting up inception_4e/relu_pool_proj
I0403 19:36:25.528148 25271 net.cpp:148] Top shape: 24 128 14 14 (602112)
I0403 19:36:25.528167 25271 net.cpp:156] Memory required for data: 1256902176
I0403 19:36:25.528183 25271 layer_factory.hpp:77] Creating layer inception_4e/output
I0403 19:36:25.528203 25271 net.cpp:91] Creating Layer inception_4e/output
I0403 19:36:25.528223 25271 net.cpp:425] inception_4e/output <- inception_4e/1x1
I0403 19:36:25.528242 25271 net.cpp:425] inception_4e/output <- inception_4e/3x3
I0403 19:36:25.528267 25271 net.cpp:425] inception_4e/output <- inception_4e/5x5
I0403 19:36:25.528288 25271 net.cpp:425] inception_4e/output <- inception_4e/pool_proj
I0403 19:36:25.528316 25271 net.cpp:399] inception_4e/output -> inception_4e/output
I0403 19:36:25.528380 25271 net.cpp:141] Setting up inception_4e/output
I0403 19:36:25.528409 25271 net.cpp:148] Top shape: 24 832 14 14 (3913728)
I0403 19:36:25.528426 25271 net.cpp:156] Memory required for data: 1272557088
I0403 19:36:25.528445 25271 layer_factory.hpp:77] Creating layer pool4/3x3_s2
I0403 19:36:25.528465 25271 net.cpp:91] Creating Layer pool4/3x3_s2
I0403 19:36:25.528483 25271 net.cpp:425] pool4/3x3_s2 <- inception_4e/output
I0403 19:36:25.528507 25271 net.cpp:399] pool4/3x3_s2 -> pool4/3x3_s2
I0403 19:36:25.528591 25271 net.cpp:141] Setting up pool4/3x3_s2
I0403 19:36:25.528620 25271 net.cpp:148] Top shape: 24 832 7 7 (978432)
I0403 19:36:25.528636 25271 net.cpp:156] Memory required for data: 1276470816
I0403 19:36:25.528653 25271 layer_factory.hpp:77] Creating layer pool4/3x3_s2_pool4/3x3_s2_0_split
I0403 19:36:25.528676 25271 net.cpp:91] Creating Layer pool4/3x3_s2_pool4/3x3_s2_0_split
I0403 19:36:25.528697 25271 net.cpp:425] pool4/3x3_s2_pool4/3x3_s2_0_split <- pool4/3x3_s2
I0403 19:36:25.528717 25271 net.cpp:399] pool4/3x3_s2_pool4/3x3_s2_0_split -> pool4/3x3_s2_pool4/3x3_s2_0_split_0
I0403 19:36:25.528740 25271 net.cpp:399] pool4/3x3_s2_pool4/3x3_s2_0_split -> pool4/3x3_s2_pool4/3x3_s2_0_split_1
I0403 19:36:25.528769 25271 net.cpp:399] pool4/3x3_s2_pool4/3x3_s2_0_split -> pool4/3x3_s2_pool4/3x3_s2_0_split_2
I0403 19:36:25.528794 25271 net.cpp:399] pool4/3x3_s2_pool4/3x3_s2_0_split -> pool4/3x3_s2_pool4/3x3_s2_0_split_3
I0403 19:36:25.528903 25271 net.cpp:141] Setting up pool4/3x3_s2_pool4/3x3_s2_0_split
I0403 19:36:25.528931 25271 net.cpp:148] Top shape: 24 832 7 7 (978432)
I0403 19:36:25.528950 25271 net.cpp:148] Top shape: 24 832 7 7 (978432)
I0403 19:36:25.528969 25271 net.cpp:148] Top shape: 24 832 7 7 (978432)
I0403 19:36:25.528987 25271 net.cpp:148] Top shape: 24 832 7 7 (978432)
I0403 19:36:25.529005 25271 net.cpp:156] Memory required for data: 1292125728
I0403 19:36:25.529021 25271 layer_factory.hpp:77] Creating layer inception_5a/1x1
I0403 19:36:25.529047 25271 net.cpp:91] Creating Layer inception_5a/1x1
I0403 19:36:25.529069 25271 net.cpp:425] inception_5a/1x1 <- pool4/3x3_s2_pool4/3x3_s2_0_split_0
I0403 19:36:25.529094 25271 net.cpp:399] inception_5a/1x1 -> inception_5a/1x1
I0403 19:36:25.532609 25271 net.cpp:141] Setting up inception_5a/1x1
I0403 19:36:25.532644 25271 net.cpp:148] Top shape: 24 256 7 7 (301056)
I0403 19:36:25.532663 25271 net.cpp:156] Memory required for data: 1293329952
I0403 19:36:25.532685 25271 layer_factory.hpp:77] Creating layer inception_5a/relu_1x1
I0403 19:36:25.532711 25271 net.cpp:91] Creating Layer inception_5a/relu_1x1
I0403 19:36:25.532732 25271 net.cpp:425] inception_5a/relu_1x1 <- inception_5a/1x1
I0403 19:36:25.532752 25271 net.cpp:386] inception_5a/relu_1x1 -> inception_5a/1x1 (in-place)
I0403 19:36:25.533135 25271 net.cpp:141] Setting up inception_5a/relu_1x1
I0403 19:36:25.533169 25271 net.cpp:148] Top shape: 24 256 7 7 (301056)
I0403 19:36:25.533187 25271 net.cpp:156] Memory required for data: 1294534176
I0403 19:36:25.533205 25271 layer_factory.hpp:77] Creating layer inception_5a/3x3_reduce
I0403 19:36:25.533232 25271 net.cpp:91] Creating Layer inception_5a/3x3_reduce
I0403 19:36:25.533260 25271 net.cpp:425] inception_5a/3x3_reduce <- pool4/3x3_s2_pool4/3x3_s2_0_split_1
I0403 19:36:25.533289 25271 net.cpp:399] inception_5a/3x3_reduce -> inception_5a/3x3_reduce
I0403 19:36:25.536326 25271 net.cpp:141] Setting up inception_5a/3x3_reduce
I0403 19:36:25.536361 25271 net.cpp:148] Top shape: 24 160 7 7 (188160)
I0403 19:36:25.536381 25271 net.cpp:156] Memory required for data: 1295286816
I0403 19:36:25.536402 25271 layer_factory.hpp:77] Creating layer inception_5a/relu_3x3_reduce
I0403 19:36:25.536424 25271 net.cpp:91] Creating Layer inception_5a/relu_3x3_reduce
I0403 19:36:25.536444 25271 net.cpp:425] inception_5a/relu_3x3_reduce <- inception_5a/3x3_reduce
I0403 19:36:25.536468 25271 net.cpp:386] inception_5a/relu_3x3_reduce -> inception_5a/3x3_reduce (in-place)
I0403 19:36:25.536703 25271 net.cpp:141] Setting up inception_5a/relu_3x3_reduce
I0403 19:36:25.536736 25271 net.cpp:148] Top shape: 24 160 7 7 (188160)
I0403 19:36:25.536752 25271 net.cpp:156] Memory required for data: 1296039456
I0403 19:36:25.536769 25271 layer_factory.hpp:77] Creating layer inception_5a/3x3
I0403 19:36:25.536797 25271 net.cpp:91] Creating Layer inception_5a/3x3
I0403 19:36:25.536818 25271 net.cpp:425] inception_5a/3x3 <- inception_5a/3x3_reduce
I0403 19:36:25.536846 25271 net.cpp:399] inception_5a/3x3 -> inception_5a/3x3
I0403 19:36:25.543110 25271 net.cpp:141] Setting up inception_5a/3x3
I0403 19:36:25.543148 25271 net.cpp:148] Top shape: 24 320 7 7 (376320)
I0403 19:36:25.543166 25271 net.cpp:156] Memory required for data: 1297544736
I0403 19:36:25.543189 25271 layer_factory.hpp:77] Creating layer inception_5a/relu_3x3
I0403 19:36:25.543215 25271 net.cpp:91] Creating Layer inception_5a/relu_3x3
I0403 19:36:25.543236 25271 net.cpp:425] inception_5a/relu_3x3 <- inception_5a/3x3
I0403 19:36:25.543263 25271 net.cpp:386] inception_5a/relu_3x3 -> inception_5a/3x3 (in-place)
I0403 19:36:25.543623 25271 net.cpp:141] Setting up inception_5a/relu_3x3
I0403 19:36:25.543656 25271 net.cpp:148] Top shape: 24 320 7 7 (376320)
I0403 19:36:25.543674 25271 net.cpp:156] Memory required for data: 1299050016
I0403 19:36:25.543692 25271 layer_factory.hpp:77] Creating layer inception_5a/5x5_reduce
I0403 19:36:25.543720 25271 net.cpp:91] Creating Layer inception_5a/5x5_reduce
I0403 19:36:25.543741 25271 net.cpp:425] inception_5a/5x5_reduce <- pool4/3x3_s2_pool4/3x3_s2_0_split_2
I0403 19:36:25.543769 25271 net.cpp:399] inception_5a/5x5_reduce -> inception_5a/5x5_reduce
I0403 19:36:25.545228 25271 net.cpp:141] Setting up inception_5a/5x5_reduce
I0403 19:36:25.545271 25271 net.cpp:148] Top shape: 24 32 7 7 (37632)
I0403 19:36:25.545294 25271 net.cpp:156] Memory required for data: 1299200544
I0403 19:36:25.545315 25271 layer_factory.hpp:77] Creating layer inception_5a/relu_5x5_reduce
I0403 19:36:25.545337 25271 net.cpp:91] Creating Layer inception_5a/relu_5x5_reduce
I0403 19:36:25.545356 25271 net.cpp:425] inception_5a/relu_5x5_reduce <- inception_5a/5x5_reduce
I0403 19:36:25.545377 25271 net.cpp:386] inception_5a/relu_5x5_reduce -> inception_5a/5x5_reduce (in-place)
I0403 19:36:25.545752 25271 net.cpp:141] Setting up inception_5a/relu_5x5_reduce
I0403 19:36:25.545785 25271 net.cpp:148] Top shape: 24 32 7 7 (37632)
I0403 19:36:25.545806 25271 net.cpp:156] Memory required for data: 1299351072
I0403 19:36:25.545825 25271 layer_factory.hpp:77] Creating layer inception_5a/5x5
I0403 19:36:25.545851 25271 net.cpp:91] Creating Layer inception_5a/5x5
I0403 19:36:25.545873 25271 net.cpp:425] inception_5a/5x5 <- inception_5a/5x5_reduce
I0403 19:36:25.545897 25271 net.cpp:399] inception_5a/5x5 -> inception_5a/5x5
I0403 19:36:25.548023 25271 net.cpp:141] Setting up inception_5a/5x5
I0403 19:36:25.548072 25271 net.cpp:148] Top shape: 24 128 7 7 (150528)
I0403 19:36:25.548092 25271 net.cpp:156] Memory required for data: 1299953184
I0403 19:36:25.548113 25271 layer_factory.hpp:77] Creating layer inception_5a/relu_5x5
I0403 19:36:25.548138 25271 net.cpp:91] Creating Layer inception_5a/relu_5x5
I0403 19:36:25.548159 25271 net.cpp:425] inception_5a/relu_5x5 <- inception_5a/5x5
I0403 19:36:25.548182 25271 net.cpp:386] inception_5a/relu_5x5 -> inception_5a/5x5 (in-place)
I0403 19:36:25.548423 25271 net.cpp:141] Setting up inception_5a/relu_5x5
I0403 19:36:25.548456 25271 net.cpp:148] Top shape: 24 128 7 7 (150528)
I0403 19:36:25.548476 25271 net.cpp:156] Memory required for data: 1300555296
I0403 19:36:25.548493 25271 layer_factory.hpp:77] Creating layer inception_5a/pool
I0403 19:36:25.548514 25271 net.cpp:91] Creating Layer inception_5a/pool
I0403 19:36:25.548534 25271 net.cpp:425] inception_5a/pool <- pool4/3x3_s2_pool4/3x3_s2_0_split_3
I0403 19:36:25.548555 25271 net.cpp:399] inception_5a/pool -> inception_5a/pool
I0403 19:36:25.548643 25271 net.cpp:141] Setting up inception_5a/pool
I0403 19:36:25.548672 25271 net.cpp:148] Top shape: 24 832 7 7 (978432)
I0403 19:36:25.548691 25271 net.cpp:156] Memory required for data: 1304469024
I0403 19:36:25.548707 25271 layer_factory.hpp:77] Creating layer inception_5a/pool_proj
I0403 19:36:25.548734 25271 net.cpp:91] Creating Layer inception_5a/pool_proj
I0403 19:36:25.548755 25271 net.cpp:425] inception_5a/pool_proj <- inception_5a/pool
I0403 19:36:25.548780 25271 net.cpp:399] inception_5a/pool_proj -> inception_5a/pool_proj
I0403 19:36:25.551579 25271 net.cpp:141] Setting up inception_5a/pool_proj
I0403 19:36:25.551616 25271 net.cpp:148] Top shape: 24 128 7 7 (150528)
I0403 19:36:25.551635 25271 net.cpp:156] Memory required for data: 1305071136
I0403 19:36:25.551656 25271 layer_factory.hpp:77] Creating layer inception_5a/relu_pool_proj
I0403 19:36:25.551681 25271 net.cpp:91] Creating Layer inception_5a/relu_pool_proj
I0403 19:36:25.551703 25271 net.cpp:425] inception_5a/relu_pool_proj <- inception_5a/pool_proj
I0403 19:36:25.551725 25271 net.cpp:386] inception_5a/relu_pool_proj -> inception_5a/pool_proj (in-place)
I0403 19:36:25.552076 25271 net.cpp:141] Setting up inception_5a/relu_pool_proj
I0403 19:36:25.552109 25271 net.cpp:148] Top shape: 24 128 7 7 (150528)
I0403 19:36:25.552126 25271 net.cpp:156] Memory required for data: 1305673248
I0403 19:36:25.552145 25271 layer_factory.hpp:77] Creating layer inception_5a/output
I0403 19:36:25.552165 25271 net.cpp:91] Creating Layer inception_5a/output
I0403 19:36:25.552184 25271 net.cpp:425] inception_5a/output <- inception_5a/1x1
I0403 19:36:25.552206 25271 net.cpp:425] inception_5a/output <- inception_5a/3x3
I0403 19:36:25.552229 25271 net.cpp:425] inception_5a/output <- inception_5a/5x5
I0403 19:36:25.552249 25271 net.cpp:425] inception_5a/output <- inception_5a/pool_proj
I0403 19:36:25.552276 25271 net.cpp:399] inception_5a/output -> inception_5a/output
I0403 19:36:25.552338 25271 net.cpp:141] Setting up inception_5a/output
I0403 19:36:25.552371 25271 net.cpp:148] Top shape: 24 832 7 7 (978432)
I0403 19:36:25.552391 25271 net.cpp:156] Memory required for data: 1309586976
I0403 19:36:25.552407 25271 layer_factory.hpp:77] Creating layer inception_5a/output_inception_5a/output_0_split
I0403 19:36:25.552428 25271 net.cpp:91] Creating Layer inception_5a/output_inception_5a/output_0_split
I0403 19:36:25.552448 25271 net.cpp:425] inception_5a/output_inception_5a/output_0_split <- inception_5a/output
I0403 19:36:25.552471 25271 net.cpp:399] inception_5a/output_inception_5a/output_0_split -> inception_5a/output_inception_5a/output_0_split_0
I0403 19:36:25.552497 25271 net.cpp:399] inception_5a/output_inception_5a/output_0_split -> inception_5a/output_inception_5a/output_0_split_1
I0403 19:36:25.552522 25271 net.cpp:399] inception_5a/output_inception_5a/output_0_split -> inception_5a/output_inception_5a/output_0_split_2
I0403 19:36:25.552547 25271 net.cpp:399] inception_5a/output_inception_5a/output_0_split -> inception_5a/output_inception_5a/output_0_split_3
I0403 19:36:25.552685 25271 net.cpp:141] Setting up inception_5a/output_inception_5a/output_0_split
I0403 19:36:25.552716 25271 net.cpp:148] Top shape: 24 832 7 7 (978432)
I0403 19:36:25.552737 25271 net.cpp:148] Top shape: 24 832 7 7 (978432)
I0403 19:36:25.552757 25271 net.cpp:148] Top shape: 24 832 7 7 (978432)
I0403 19:36:25.552774 25271 net.cpp:148] Top shape: 24 832 7 7 (978432)
I0403 19:36:25.552790 25271 net.cpp:156] Memory required for data: 1325241888
I0403 19:36:25.552806 25271 layer_factory.hpp:77] Creating layer inception_5b/1x1
I0403 19:36:25.552834 25271 net.cpp:91] Creating Layer inception_5b/1x1
I0403 19:36:25.552856 25271 net.cpp:425] inception_5b/1x1 <- inception_5a/output_inception_5a/output_0_split_0
I0403 19:36:25.552878 25271 net.cpp:399] inception_5b/1x1 -> inception_5b/1x1
I0403 19:36:25.557499 25271 net.cpp:141] Setting up inception_5b/1x1
I0403 19:36:25.557536 25271 net.cpp:148] Top shape: 24 384 7 7 (451584)
I0403 19:36:25.557556 25271 net.cpp:156] Memory required for data: 1327048224
I0403 19:36:25.557579 25271 layer_factory.hpp:77] Creating layer inception_5b/relu_1x1
I0403 19:36:25.557600 25271 net.cpp:91] Creating Layer inception_5b/relu_1x1
I0403 19:36:25.557621 25271 net.cpp:425] inception_5b/relu_1x1 <- inception_5b/1x1
I0403 19:36:25.557643 25271 net.cpp:386] inception_5b/relu_1x1 -> inception_5b/1x1 (in-place)
I0403 19:36:25.558020 25271 net.cpp:141] Setting up inception_5b/relu_1x1
I0403 19:36:25.558053 25271 net.cpp:148] Top shape: 24 384 7 7 (451584)
I0403 19:36:25.558071 25271 net.cpp:156] Memory required for data: 1328854560
I0403 19:36:25.558089 25271 layer_factory.hpp:77] Creating layer inception_5b/3x3_reduce
I0403 19:36:25.558116 25271 net.cpp:91] Creating Layer inception_5b/3x3_reduce
I0403 19:36:25.558138 25271 net.cpp:425] inception_5b/3x3_reduce <- inception_5a/output_inception_5a/output_0_split_1
I0403 19:36:25.558166 25271 net.cpp:399] inception_5b/3x3_reduce -> inception_5b/3x3_reduce
I0403 19:36:25.561456 25271 net.cpp:141] Setting up inception_5b/3x3_reduce
I0403 19:36:25.561493 25271 net.cpp:148] Top shape: 24 192 7 7 (225792)
I0403 19:36:25.561512 25271 net.cpp:156] Memory required for data: 1329757728
I0403 19:36:25.561534 25271 layer_factory.hpp:77] Creating layer inception_5b/relu_3x3_reduce
I0403 19:36:25.561559 25271 net.cpp:91] Creating Layer inception_5b/relu_3x3_reduce
I0403 19:36:25.561581 25271 net.cpp:425] inception_5b/relu_3x3_reduce <- inception_5b/3x3_reduce
I0403 19:36:25.561604 25271 net.cpp:386] inception_5b/relu_3x3_reduce -> inception_5b/3x3_reduce (in-place)
I0403 19:36:25.561836 25271 net.cpp:141] Setting up inception_5b/relu_3x3_reduce
I0403 19:36:25.561867 25271 net.cpp:148] Top shape: 24 192 7 7 (225792)
I0403 19:36:25.561885 25271 net.cpp:156] Memory required for data: 1330660896
I0403 19:36:25.561903 25271 layer_factory.hpp:77] Creating layer inception_5b/3x3
I0403 19:36:25.561930 25271 net.cpp:91] Creating Layer inception_5b/3x3
I0403 19:36:25.561955 25271 net.cpp:425] inception_5b/3x3 <- inception_5b/3x3_reduce
I0403 19:36:25.561977 25271 net.cpp:399] inception_5b/3x3 -> inception_5b/3x3
I0403 19:36:25.570370 25271 net.cpp:141] Setting up inception_5b/3x3
I0403 19:36:25.570408 25271 net.cpp:148] Top shape: 24 384 7 7 (451584)
I0403 19:36:25.570427 25271 net.cpp:156] Memory required for data: 1332467232
I0403 19:36:25.570449 25271 layer_factory.hpp:77] Creating layer inception_5b/relu_3x3
I0403 19:36:25.570474 25271 net.cpp:91] Creating Layer inception_5b/relu_3x3
I0403 19:36:25.570495 25271 net.cpp:425] inception_5b/relu_3x3 <- inception_5b/3x3
I0403 19:36:25.570516 25271 net.cpp:386] inception_5b/relu_3x3 -> inception_5b/3x3 (in-place)
I0403 19:36:25.570884 25271 net.cpp:141] Setting up inception_5b/relu_3x3
I0403 19:36:25.570917 25271 net.cpp:148] Top shape: 24 384 7 7 (451584)
I0403 19:36:25.570935 25271 net.cpp:156] Memory required for data: 1334273568
I0403 19:36:25.570953 25271 layer_factory.hpp:77] Creating layer inception_5b/5x5_reduce
I0403 19:36:25.571001 25271 net.cpp:91] Creating Layer inception_5b/5x5_reduce
I0403 19:36:25.571023 25271 net.cpp:425] inception_5b/5x5_reduce <- inception_5a/output_inception_5a/output_0_split_2
I0403 19:36:25.571049 25271 net.cpp:399] inception_5b/5x5_reduce -> inception_5b/5x5_reduce
I0403 19:36:25.572638 25271 net.cpp:141] Setting up inception_5b/5x5_reduce
I0403 19:36:25.572672 25271 net.cpp:148] Top shape: 24 48 7 7 (56448)
I0403 19:36:25.572691 25271 net.cpp:156] Memory required for data: 1334499360
I0403 19:36:25.572713 25271 layer_factory.hpp:77] Creating layer inception_5b/relu_5x5_reduce
I0403 19:36:25.572737 25271 net.cpp:91] Creating Layer inception_5b/relu_5x5_reduce
I0403 19:36:25.572759 25271 net.cpp:425] inception_5b/relu_5x5_reduce <- inception_5b/5x5_reduce
I0403 19:36:25.572782 25271 net.cpp:386] inception_5b/relu_5x5_reduce -> inception_5b/5x5_reduce (in-place)
I0403 19:36:25.573238 25271 net.cpp:141] Setting up inception_5b/relu_5x5_reduce
I0403 19:36:25.573277 25271 net.cpp:148] Top shape: 24 48 7 7 (56448)
I0403 19:36:25.573299 25271 net.cpp:156] Memory required for data: 1334725152
I0403 19:36:25.573318 25271 layer_factory.hpp:77] Creating layer inception_5b/5x5
I0403 19:36:25.573341 25271 net.cpp:91] Creating Layer inception_5b/5x5
I0403 19:36:25.573364 25271 net.cpp:425] inception_5b/5x5 <- inception_5b/5x5_reduce
I0403 19:36:25.573386 25271 net.cpp:399] inception_5b/5x5 -> inception_5b/5x5
I0403 19:36:25.575942 25271 net.cpp:141] Setting up inception_5b/5x5
I0403 19:36:25.575976 25271 net.cpp:148] Top shape: 24 128 7 7 (150528)
I0403 19:36:25.575996 25271 net.cpp:156] Memory required for data: 1335327264
I0403 19:36:25.576019 25271 layer_factory.hpp:77] Creating layer inception_5b/relu_5x5
I0403 19:36:25.576045 25271 net.cpp:91] Creating Layer inception_5b/relu_5x5
I0403 19:36:25.576066 25271 net.cpp:425] inception_5b/relu_5x5 <- inception_5b/5x5
I0403 19:36:25.576088 25271 net.cpp:386] inception_5b/relu_5x5 -> inception_5b/5x5 (in-place)
I0403 19:36:25.576341 25271 net.cpp:141] Setting up inception_5b/relu_5x5
I0403 19:36:25.576376 25271 net.cpp:148] Top shape: 24 128 7 7 (150528)
I0403 19:36:25.576396 25271 net.cpp:156] Memory required for data: 1335929376
I0403 19:36:25.576416 25271 layer_factory.hpp:77] Creating layer inception_5b/pool
I0403 19:36:25.576436 25271 net.cpp:91] Creating Layer inception_5b/pool
I0403 19:36:25.576458 25271 net.cpp:425] inception_5b/pool <- inception_5a/output_inception_5a/output_0_split_3
I0403 19:36:25.576484 25271 net.cpp:399] inception_5b/pool -> inception_5b/pool
I0403 19:36:25.576575 25271 net.cpp:141] Setting up inception_5b/pool
I0403 19:36:25.576606 25271 net.cpp:148] Top shape: 24 832 7 7 (978432)
I0403 19:36:25.576624 25271 net.cpp:156] Memory required for data: 1339843104
I0403 19:36:25.576642 25271 layer_factory.hpp:77] Creating layer inception_5b/pool_proj
I0403 19:36:25.576669 25271 net.cpp:91] Creating Layer inception_5b/pool_proj
I0403 19:36:25.576690 25271 net.cpp:425] inception_5b/pool_proj <- inception_5b/pool
I0403 19:36:25.576716 25271 net.cpp:399] inception_5b/pool_proj -> inception_5b/pool_proj
I0403 19:36:25.579576 25271 net.cpp:141] Setting up inception_5b/pool_proj
I0403 19:36:25.579614 25271 net.cpp:148] Top shape: 24 128 7 7 (150528)
I0403 19:36:25.579633 25271 net.cpp:156] Memory required for data: 1340445216
I0403 19:36:25.579656 25271 layer_factory.hpp:77] Creating layer inception_5b/relu_pool_proj
I0403 19:36:25.579681 25271 net.cpp:91] Creating Layer inception_5b/relu_pool_proj
I0403 19:36:25.579704 25271 net.cpp:425] inception_5b/relu_pool_proj <- inception_5b/pool_proj
I0403 19:36:25.579726 25271 net.cpp:386] inception_5b/relu_pool_proj -> inception_5b/pool_proj (in-place)
I0403 19:36:25.580087 25271 net.cpp:141] Setting up inception_5b/relu_pool_proj
I0403 19:36:25.580121 25271 net.cpp:148] Top shape: 24 128 7 7 (150528)
I0403 19:36:25.580139 25271 net.cpp:156] Memory required for data: 1341047328
I0403 19:36:25.580157 25271 layer_factory.hpp:77] Creating layer inception_5b/output
I0403 19:36:25.580178 25271 net.cpp:91] Creating Layer inception_5b/output
I0403 19:36:25.580217 25271 net.cpp:425] inception_5b/output <- inception_5b/1x1
I0403 19:36:25.580240 25271 net.cpp:425] inception_5b/output <- inception_5b/3x3
I0403 19:36:25.580267 25271 net.cpp:425] inception_5b/output <- inception_5b/5x5
I0403 19:36:25.580291 25271 net.cpp:425] inception_5b/output <- inception_5b/pool_proj
I0403 19:36:25.580315 25271 net.cpp:399] inception_5b/output -> inception_5b/output
I0403 19:36:25.580382 25271 net.cpp:141] Setting up inception_5b/output
I0403 19:36:25.580412 25271 net.cpp:148] Top shape: 24 1024 7 7 (1204224)
I0403 19:36:25.580430 25271 net.cpp:156] Memory required for data: 1345864224
I0403 19:36:25.580447 25271 layer_factory.hpp:77] Creating layer pool5/7x7_s1
I0403 19:36:25.580469 25271 net.cpp:91] Creating Layer pool5/7x7_s1
I0403 19:36:25.580490 25271 net.cpp:425] pool5/7x7_s1 <- inception_5b/output
I0403 19:36:25.580515 25271 net.cpp:399] pool5/7x7_s1 -> pool5/7x7_s1
I0403 19:36:25.580785 25271 net.cpp:141] Setting up pool5/7x7_s1
I0403 19:36:25.580817 25271 net.cpp:148] Top shape: 24 1024 1 1 (24576)
I0403 19:36:25.580835 25271 net.cpp:156] Memory required for data: 1345962528
I0403 19:36:25.580853 25271 layer_factory.hpp:77] Creating layer pool5/drop_7x7_s1
I0403 19:36:25.580878 25271 net.cpp:91] Creating Layer pool5/drop_7x7_s1
I0403 19:36:25.580901 25271 net.cpp:425] pool5/drop_7x7_s1 <- pool5/7x7_s1
I0403 19:36:25.580922 25271 net.cpp:386] pool5/drop_7x7_s1 -> pool5/7x7_s1 (in-place)
I0403 19:36:25.580986 25271 net.cpp:141] Setting up pool5/drop_7x7_s1
I0403 19:36:25.581017 25271 net.cpp:148] Top shape: 24 1024 1 1 (24576)
I0403 19:36:25.581034 25271 net.cpp:156] Memory required for data: 1346060832
I0403 19:36:25.581053 25271 layer_factory.hpp:77] Creating layer loss3/classifier_plantvillage
I0403 19:36:25.581076 25271 net.cpp:91] Creating Layer loss3/classifier_plantvillage
I0403 19:36:25.581095 25271 net.cpp:425] loss3/classifier_plantvillage <- pool5/7x7_s1
I0403 19:36:25.581120 25271 net.cpp:399] loss3/classifier_plantvillage -> loss3/classifier_plantvillage
I0403 19:36:25.581665 25271 net.cpp:141] Setting up loss3/classifier_plantvillage
I0403 19:36:25.581696 25271 net.cpp:148] Top shape: 24 38 (912)
I0403 19:36:25.581714 25271 net.cpp:156] Memory required for data: 1346064480
I0403 19:36:25.581737 25271 layer_factory.hpp:77] Creating layer loss3/classifier_plantvillage_loss3/classifier_plantvillage_0_split
I0403 19:36:25.581759 25271 net.cpp:91] Creating Layer loss3/classifier_plantvillage_loss3/classifier_plantvillage_0_split
I0403 19:36:25.581779 25271 net.cpp:425] loss3/classifier_plantvillage_loss3/classifier_plantvillage_0_split <- loss3/classifier_plantvillage
I0403 19:36:25.581804 25271 net.cpp:399] loss3/classifier_plantvillage_loss3/classifier_plantvillage_0_split -> loss3/classifier_plantvillage_loss3/classifier_plantvillage_0_split_0
I0403 19:36:25.581830 25271 net.cpp:399] loss3/classifier_plantvillage_loss3/classifier_plantvillage_0_split -> loss3/classifier_plantvillage_loss3/classifier_plantvillage_0_split_1
I0403 19:36:25.581854 25271 net.cpp:399] loss3/classifier_plantvillage_loss3/classifier_plantvillage_0_split -> loss3/classifier_plantvillage_loss3/classifier_plantvillage_0_split_2
I0403 19:36:25.581881 25271 net.cpp:399] loss3/classifier_plantvillage_loss3/classifier_plantvillage_0_split -> loss3/classifier_plantvillage_loss3/classifier_plantvillage_0_split_3
I0403 19:36:25.582008 25271 net.cpp:141] Setting up loss3/classifier_plantvillage_loss3/classifier_plantvillage_0_split
I0403 19:36:25.582038 25271 net.cpp:148] Top shape: 24 38 (912)
I0403 19:36:25.582058 25271 net.cpp:148] Top shape: 24 38 (912)
I0403 19:36:25.582077 25271 net.cpp:148] Top shape: 24 38 (912)
I0403 19:36:25.582094 25271 net.cpp:148] Top shape: 24 38 (912)
I0403 19:36:25.582111 25271 net.cpp:156] Memory required for data: 1346079072
I0403 19:36:25.582129 25271 layer_factory.hpp:77] Creating layer loss1/loss
I0403 19:36:25.582157 25271 net.cpp:91] Creating Layer loss1/loss
I0403 19:36:25.582178 25271 net.cpp:425] loss1/loss <- loss1/classifier_plantvillage_loss1/classifier_plantvillage_0_split_0
I0403 19:36:25.582217 25271 net.cpp:425] loss1/loss <- label_data_1_split_0
…
