…
I0403 19:28:29.225108 24803 net.cpp:313] The NetState phase (1) differed from the phase (0) specified by a rule in layer data
I0403 19:28:29.226270 24803 net.cpp:49] Initializing net from parameters: 
state {
  phase: TEST
}
layer {
  name: "data"
  type: "Data"
  top: "data"
  top: "label"
  include {
    phase: TEST
  }
  transform_param {
    mirror: false
    crop_size: 224
    mean_file: "/home/mohanty/data/final_dataset/lmdb/grayscale-80-20/mean.binaryproto"
  }
  data_param {
    source: "/home/mohanty/data/final_dataset/lmdb/grayscale-80-20/test_db"
    batch_size: 24
    backend: LMDB
  }
}
layer {
  name: "conv1/7x7_s2"
  type: "Convolution"
  bottom: "data"
  top: "conv1/7x7_s2"
  param {
    lr_mult: 1
    decay_mult: 1
  }
  param {
    lr_mult: 2
    decay_mult: 0
  }
  convolution_param {
    num_output: 64
    pad: 3
    kernel_size: 7
    stride: 2
    weight_filler {
      type: "xavier"
      std: 0.1
    }
    bias_filler {
      type: "constant"
      value: 0.2
    }
  }
}
layer {
  name: "conv1/relu_7x7"
  type: "ReLU"
  bottom: "conv1/7x7_s2"
  top: "conv1/7x7_s2"
}
layer {
  name: "pool1/3x3_s2"
  type: "Pooling"
  bottom: "conv1/7x7_s2"
  top: "pool1/3x3_s2"
  pooling_param {
    pool: MAX
    kernel_size: 3
    stride: 2
  }
}
layer {
  name: "pool1/norm1"
  type: "LRN"
  bottom: "pool1/3x3_s2"
  top: "pool1/norm1"
  lrn_param {
    local_size: 5
    alpha: 0.0001
    beta: 0.75
  }
}
layer {
  name: "conv2/3x3_reduce"
  type: "Convolution"
  bottom: "pool1/norm1"
  top: "conv2/3x3_reduce"
  param {
    lr_mult: 1
    decay_mult: 1
  }
  param {
    lr_mult: 2
    decay_mult: 0
  }
  convolution_param {
    num_output: 64
    kernel_size: 1
    weight_filler {
      type: "xavier"
      std: 0.1
    }
    bias_filler {
      type: "constant"
      value: 0.2
    }
  }
}
layer {
  name: "conv2/relu_3x3_reduce"
  type: "ReLU"
  bottom: "conv2/3x3_reduce"
  top: "conv2/3x3_reduce"
}
layer {
  name: "conv2/3x3"
  type: "Convolution"
  bottom: "conv2/3x3_reduce"
  top: "conv2/3x3"
  param {
    lr_mult: 1
    decay_mult: 1
  }
  param {
    lr_mult: 2
    decay_mult: 0
  }
  convolution_param {
    num_output: 192
    pad: 1
    kernel_size: 3
    weight_filler {
      type: "xavier"
      std: 0.03
    }
    bias_filler {
      type: "constant"
      value: 0.2
    }
  }
}
layer {
  name: "conv2/relu_3x3"
  type: "ReLU"
  bottom: "conv2/3x3"
  top: "conv2/3x3"
}
layer {
  name: "conv2/norm2"
  type: "LRN"
  bottom: "conv2/3x3"
  top: "conv2/norm2"
  lrn_param {
    local_size: 5
    alpha: 0.0001
    beta: 0.75
  }
}
layer {
  name: "pool2/3x3_s2"
  type: "Pooling"
  bottom: "conv2/norm2"
  top: "pool2/3x3_s2"
  pooling_param {
    pool: MAX
    kernel_size: 3
    stride: 2
  }
}
layer {
  name: "inception_3a/1x1"
  type: "Convolution"
  bottom: "pool2/3x3_s2"
  top: "inception_3a/1x1"
  param {
    lr_mult: 1
    decay_mult: 1
  }
  param {
    lr_mult: 2
    decay_mult: 0
  }
  convolution_param {
    num_output: 64
    kernel_size: 1
    weight_filler {
      type: "xavier"
      std: 0.03
    }
    bias_filler {
      type: "constant"
      value: 0.2
    }
  }
}
layer {
  name: "inception_3a/relu_1x1"
  type: "ReLU"
  bottom: "inception_3a/1x1"
  top: "inception_3a/1x1"
}
layer {
  name: "inception_3a/3x3_reduce"
  type: "Convolution"
  bottom: "pool2/3x3_s2"
  top: "inception_3a/3x3_reduce"
  param {
    lr_mult: 1
    decay_mult: 1
  }
  param {
    lr_mult: 2
    decay_mult: 0
  }
  convolution_param {
    num_output: 96
    kernel_size: 1
    weight_filler {
      type: "xavier"
      std: 0.09
    }
    bias_filler {
      type: "constant"
      value: 0.2
    }
  }
}
layer {
  name: "inception_3a/relu_3x3_reduce"
  type: "ReLU"
  bottom: "inception_3a/3x3_reduce"
  top: "inception_3a/3x3_reduce"
}
layer {
  name: "inception_3a/3x3"
  type: "Convolution"
  bottom: "inception_3a/3x3_reduce"
  top: "inception_3a/3x3"
  param {
    lr_mult: 1
    decay_mult: 1
  }
  param {
    lr_mult: 2
    decay_mult: 0
  }
  convolution_param {
    num_output: 128
    pad: 1
    kernel_size: 3
    weight_filler {
      type: "xavier"
      std: 0.03
    }
    bias_filler {
      type: "constant"
      value: 0.2
    }
  }
}
layer {
  name: "inception_3a/relu_3x3"
  type: "ReLU"
  bottom: "inception_3a/3x3"
  top: "inception_3a/3x3"
}
layer {
  name: "inception_3a/5x5_reduce"
  type: "Convolution"
  bottom: "pool2/3x3_s2"
  top: "inception_3a/5x5_reduce"
  param {
    lr_mult: 1
    decay_mult: 1
  }
  param {
    lr_mult: 2
    decay_mult: 0
  }
  convolution_param {
    num_output: 16
    kernel_size: 1
    weight_filler {
      type: "xavier"
      std: 0.2
    }
    bias_filler {
      type: "constant"
      value: 0.2
    }
  }
}
layer {
  name: "inception_3a/relu_5x5_reduce"
  type: "ReLU"
  bottom: "inception_3a/5x5_reduce"
  top: "inception_3a/5x5_reduce"
}
layer {
  name: "inception_3a/5x5"
  type: "Convolution"
  bottom: "inception_3a/5x5_reduce"
  top: "inception_3a/5x5"
  param {
    lr_mult: 1
    decay_mult: 1
  }
  param {
    lr_mult: 2
    decay_mult: 0
  }
  convolution_param {
    num_output: 32
    pad: 2
    kernel_size: 5
    weight_filler {
      type: "xavier"
      std: 0.03
    }
    bias_filler {
      type: "constant"
      value: 0.2
    }
  }
}
layer {
  name: "inception_3a/relu_5x5"
  type: "ReLU"
  bottom: "inception_3a/5x5"
  top: "inception_3a/5x5"
}
layer {
  name: "inception_3a/pool"
  type: "Pooling"
  bottom: "pool2/3x3_s2"
  top: "inception_3a/pool"
  pooling_param {
    pool: MAX
    kernel_size: 3
    stride: 1
    pad: 1
  }
}
layer {
  name: "inception_3a/pool_proj"
  type: "Convolution"
  bottom: "inception_3a/pool"
  top: "inception_3a/pool_proj"
  param {
    lr_mult: 1
    decay_mult: 1
  }
  param {
    lr_mult: 2
    decay_mult: 0
  }
  convolution_param {
    num_output: 32
    kernel_size: 1
    weight_filler {
      type: "xavier"
      std: 0.1
    }
    bias_filler {
      type: "constant"
      value: 0.2
    }
  }
}
layer {
  name: "inception_3a/relu_pool_proj"
  type: "ReLU"
  bottom: "inception_3a/pool_proj"
  top: "inception_3a/pool_proj"
}
layer {
  name: "inception_3a/output"
  type: "Concat"
  bottom: "inception_3a/1x1"
  bottom: "inception_3a/3x3"
  bottom: "inception_3a/5x5"
  bottom: "inception_3a/pool_proj"
  top: "inception_3a/output"
}
layer {
  name: "inception_3b/1x1"
  type: "Convolution"
  bottom: "inception_3a/output"
  top: "inception_3b/1x1"
  param {
    lr_mult: 1
    decay_mult: 1
  }
  param {
    lr_mult: 2
    decay_mult: 0
  }
  convolution_param {
    num_output: 128
    kernel_size: 1
    weight_filler {
      type: "xavier"
      std: 0.03
    }
    bias_filler {
      type: "constant"
      value: 0.2
    }
  }
}
layer {
  name: "inception_3b/relu_1x1"
  type: "ReLU"
  bottom: "inception_3b/1x1"
  top: "inception_3b/1x1"
}
layer {
  name: "inception_3b/3x3_reduce"
  type: "Convolution"
  bottom: "inception_3a/output"
  top: "inception_3b/3x3_reduce"
  param {
    lr_mult: 1
    decay_mult: 1
  }
  param {
    lr_mult: 2
    decay_mult: 0
  }
  convolution_param {
    num_output: 128
    kernel_size: 1
    weight_filler {
      type: "xavier"
      std: 0.09
    }
    bias_filler {
      type: "constant"
      value: 0.2
    }
  }
}
layer {
  name: "inception_3b/relu_3x3_reduce"
  type: "ReLU"
  bottom: "inception_3b/3x3_reduce"
  top: "inception_3b/3x3_reduce"
}
layer {
  name: "inception_3b/3x3"
  type: "Convolution"
  bottom: "inception_3b/3x3_reduce"
  top: "inception_3b/3x3"
  param {
    lr_mult: 1
    decay_mult: 1
  }
  param {
    lr_mult: 2
    decay_mult: 0
  }
  convolution_param {
    num_output: 192
    pad: 1
    kernel_size: 3
    weight_filler {
      type: "xavier"
      std: 0.03
    }
    bias_filler {
      type: "constant"
      value: 0.2
    }
  }
}
layer {
  name: "inception_3b/relu_3x3"
  type: "ReLU"
  bottom: "inception_3b/3x3"
  top: "inception_3b/3x3"
}
layer {
  name: "inception_3b/5x5_reduce"
  type: "Convolution"
  bottom: "inception_3a/output"
  top: "inception_3b/5x5_reduce"
  param {
    lr_mult: 1
    decay_mult: 1
  }
  param {
    lr_mult: 2
    decay_mult: 0
  }
  convolution_param {
    num_output: 32
    kernel_size: 1
    weight_filler {
      type: "xavier"
      std: 0.2
    }
    bias_filler {
      type: "constant"
      value: 0.2
    }
  }
}
layer {
  name: "inception_3b/relu_5x5_reduce"
  type: "ReLU"
  bottom: "inception_3b/5x5_reduce"
  top: "inception_3b/5x5_reduce"
}
layer {
  name: "inception_3b/5x5"
  type: "Convolution"
  bottom: "inception_3b/5x5_reduce"
  top: "inception_3b/5x5"
  param {
    lr_mult: 1
    decay_mult: 1
  }
  param {
    lr_mult: 2
    decay_mult: 0
  }
  convolution_param {
    num_output: 96
    pad: 2
    kernel_size: 5
    weight_filler {
      type: "xavier"
      std: 0.03
    }
    bias_filler {
      type: "constant"
      value: 0.2
    }
  }
}
layer {
  name: "inception_3b/relu_5x5"
  type: "ReLU"
  bottom: "inception_3b/5x5"
  top: "inception_3b/5x5"
}
layer {
  name: "inception_3b/pool"
  type: "Pooling"
  bottom: "inception_3a/output"
  top: "inception_3b/pool"
  pooling_param {
    pool: MAX
    kernel_size: 3
    stride: 1
    pad: 1
  }
}
layer {
  name: "inception_3b/pool_proj"
  type: "Convolution"
  bottom: "inception_3b/pool"
  top: "inception_3b/pool_proj"
  param {
    lr_mult: 1
    decay_mult: 1
  }
  param {
    lr_mult: 2
    decay_mult: 0
  }
  convolution_param {
    num_output: 64
    kernel_size: 1
    weight_filler {
      type: "xavier"
      std: 0.1
    }
    bias_filler {
      type: "constant"
      value: 0.2
    }
  }
}
layer {
  name: "inception_3b/relu_pool_proj"
  type: "ReLU"
  bottom: "inception_3b/pool_proj"
  top: "inception_3b/pool_proj"
}
layer {
  name: "inception_3b/output"
  type: "Concat"
  bottom: "inception_3b/1x1"
  bottom: "inception_3b/3x3"
  bottom: "inception_3b/5x5"
  bottom: "inception_3b/pool_proj"
  top: "inception_3b/output"
}
layer {
  name: "pool3/3x3_s2"
  type: "Pooling"
  bottom: "inception_3b/output"
  top: "pool3/3x3_s2"
  pooling_param {
    pool: MAX
    kernel_size: 3
    stride: 2
  }
}
layer {
  name: "inception_4a/1x1"
  type: "Convolution"
  bottom: "pool3/3x3_s2"
  top: "inception_4a/1x1"
  param {
    lr_mult: 1
    decay_mult: 1
  }
  param {
    lr_mult: 2
    decay_mult: 0
  }
  convolution_param {
    num_output: 192
    kernel_size: 1
    weight_filler {
      type: "xavier"
      std: 0.03
    }
    bias_filler {
      type: "constant"
      value: 0.2
    }
  }
}
layer {
  name: "inception_4a/relu_1x1"
  type: "ReLU"
  bottom: "inception_4a/1x1"
  top: "inception_4a/1x1"
}
layer {
  name: "inception_4a/3x3_reduce"
  type: "Convolution"
  bottom: "pool3/3x3_s2"
  top: "inception_4a/3x3_reduce"
  param {
    lr_mult: 1
    decay_mult: 1
  }
  param {
    lr_mult: 2
    decay_mult: 0
  }
  convolution_param {
    num_output: 96
    kernel_size: 1
    weight_filler {
      type: "xavier"
      std: 0.09
    }
    bias_filler {
      type: "constant"
      value: 0.2
    }
  }
}
layer {
  name: "inception_4a/relu_3x3_reduce"
  type: "ReLU"
  bottom: "inception_4a/3x3_reduce"
  top: "inception_4a/3x3_reduce"
}
layer {
  name: "inception_4a/3x3"
  type: "Convolution"
  bottom: "inception_4a/3x3_reduce"
  top: "inception_4a/3x3"
  param {
    lr_mult: 1
    decay_mult: 1
  }
  param {
    lr_mult: 2
    decay_mult: 0
  }
  convolution_param {
    num_output: 208
    pad: 1
    kernel_size: 3
    weight_filler {
      type: "xavier"
      std: 0.03
    }
    bias_filler {
      type: "constant"
      value: 0.2
    }
  }
}
layer {
  name: "inception_4a/relu_3x3"
  type: "ReLU"
  bottom: "inception_4a/3x3"
  top: "inception_4a/3x3"
}
layer {
  name: "inception_4a/5x5_reduce"
  type: "Convolution"
  bottom: "pool3/3x3_s2"
  top: "inception_4a/5x5_reduce"
  param {
    lr_mult: 1
    decay_mult: 1
  }
  param {
    lr_mult: 2
    decay_mult: 0
  }
  convolution_param {
    num_output: 16
    kernel_size: 1
    weight_filler {
      type: "xavier"
      std: 0.2
    }
    bias_filler {
      type: "constant"
      value: 0.2
    }
  }
}
layer {
  name: "inception_4a/relu_5x5_reduce"
  type: "ReLU"
  bottom: "inception_4a/5x5_reduce"
  top: "inception_4a/5x5_reduce"
}
layer {
  name: "inception_4a/5x5"
  type: "Convolution"
  bottom: "inception_4a/5x5_reduce"
  top: "inception_4a/5x5"
  param {
    lr_mult: 1
    decay_mult: 1
  }
  param {
    lr_mult: 2
    decay_mult: 0
  }
  convolution_param {
    num_output: 48
    pad: 2
    kernel_size: 5
    weight_filler {
      type: "xavier"
      std: 0.03
    }
    bias_filler {
      type: "constant"
      value: 0.2
    }
  }
}
layer {
  name: "inception_4a/relu_5x5"
  type: "ReLU"
  bottom: "inception_4a/5x5"
  top: "inception_4a/5x5"
}
layer {
  name: "inception_4a/pool"
  type: "Pooling"
  bottom: "pool3/3x3_s2"
  top: "inception_4a/pool"
  pooling_param {
    pool: MAX
    kernel_size: 3
    stride: 1
    pad: 1
  }
}
layer {
  name: "inception_4a/pool_proj"
  type: "Convolution"
  bottom: "inception_4a/pool"
  top: "inception_4a/pool_proj"
  param {
    lr_mult: 1
    decay_mult: 1
  }
  param {
    lr_mult: 2
    decay_mult: 0
  }
  convolution_param {
    num_output: 64
    kernel_size: 1
    weight_filler {
      type: "xavier"
      std: 0.1
    }
    bias_filler {
      type: "constant"
      value: 0.2
    }
  }
}
layer {
  name: "inception_4a/relu_pool_proj"
  type: "ReLU"
  bottom: "inception_4a/pool_proj"
  top: "inception_4a/pool_proj"
}
layer {
  name: "inception_4a/output"
  type: "Concat"
  bottom: "inception_4a/1x1"
  bottom: "inception_4a/3x3"
  bottom: "inception_4a/5x5"
  bottom: "inception_4a/pool_proj"
  top: "inception_4a/output"
}
layer {
  name: "loss1/ave_pool"
  type: "Pooling"
  bottom: "inception_4a/output"
  top: "loss1/ave_pool"
  pooling_param {
    pool: AVE
    kernel_size: 5
    stride: 3
  }
}
layer {
  name: "loss1/conv"
  type: "Convolution"
  bottom: "loss1/ave_pool"
  top: "loss1/conv"
  param {
    lr_mult: 1
    decay_mult: 1
  }
  param {
    lr_mult: 2
    decay_mult: 0
  }
  convolution_param {
    num_output: 128
    kernel_size: 1
    weight_filler {
      type: "xavier"
      std: 0.08
    }
    bias_filler {
      type: "constant"
      value: 0.2
    }
  }
}
layer {
  name: "loss1/relu_conv"
  type: "ReLU"
  bottom: "loss1/conv"
  top: "loss1/conv"
}
layer {
  name: "loss1/fc"
  type: "InnerProduct"
  bottom: "loss1/conv"
  top: "loss1/fc"
  param {
    lr_mult: 1
    decay_mult: 1
  }
  param {
    lr_mult: 2
    decay_mult: 0
  }
  inner_product_param {
    num_output: 1024
    weight_filler {
      type: "xavier"
      std: 0.02
    }
    bias_filler {
      type: "constant"
      value: 0.2
    }
  }
}
layer {
  name: "loss1/relu_fc"
  type: "ReLU"
  bottom: "loss1/fc"
  top: "loss1/fc"
}
layer {
  name: "loss1/drop_fc"
  type: "Dropout"
  bottom: "loss1/fc"
  top: "loss1/fc"
  dropout_param {
    dropout_ratio: 0.7
  }
}
layer {
  name: "loss1/classifier_plantvillage"
  type: "InnerProduct"
  bottom: "loss1/fc"
  top: "loss1/classifier_plantvillage"
  param {
    lr_mult: 1
    decay_mult: 1
  }
  param {
    lr_mult: 2
    decay_mult: 0
  }
  inner_product_param {
    num_output: 38
    weight_filler {
      type: "xavier"
      std: 0.0009765625
    }
    bias_filler {
      type: "constant"
      value: 0
    }
  }
}
layer {
  name: "inception_4b/1x1"
  type: "Convolution"
  bottom: "inception_4a/output"
  top: "inception_4b/1x1"
  param {
    lr_mult: 1
    decay_mult: 1
  }
  param {
    lr_mult: 2
    decay_mult: 0
  }
  convolution_param {
    num_output: 160
    kernel_size: 1
    weight_filler {
      type: "xavier"
      std: 0.03
    }
    bias_filler {
      type: "constant"
      value: 0.2
    }
  }
}
layer {
  name: "inception_4b/relu_1x1"
  type: "ReLU"
  bottom: "inception_4b/1x1"
  top: "inception_4b/1x1"
}
layer {
  name: "inception_4b/3x3_reduce"
  type: "Convolution"
  bottom: "inception_4a/output"
  top: "inception_4b/3x3_reduce"
  param {
    lr_mult: 1
    decay_mult: 1
  }
  param {
    lr_mult: 2
    decay_mult: 0
  }
  convolution_param {
    num_output: 112
    kernel_size: 1
    weight_filler {
      type: "xavier"
      std: 0.09
    }
    bias_filler {
      type: "constant"
      value: 0.2
    }
  }
}
layer {
  name: "inception_4b/relu_3x3_reduce"
  type: "ReLU"
  bottom: "inception_4b/3x3_reduce"
  top: "inception_4b/3x3_reduce"
}
layer {
  name: "inception_4b/3x3"
  type: "Convolution"
  bottom: "inception_4b/3x3_reduce"
  top: "inception_4b/3x3"
  param {
    lr_mult: 1
    decay_mult: 1
  }
  param {
    lr_mult: 2
    decay_mult: 0
  }
  convolution_param {
    num_output: 224
    pad: 1
    kernel_size: 3
    weight_filler {
      type: "xavier"
      std: 0.03
    }
    bias_filler {
      type: "constant"
      value: 0.2
    }
  }
}
layer {
  name: "inception_4b/relu_3x3"
  type: "ReLU"
  bottom: "inception_4b/3x3"
  top: "inception_4b/3x3"
}
layer {
  name: "inception_4b/5x5_reduce"
  type: "Convolution"
  bottom: "inception_4a/output"
  top: "inception_4b/5x5_reduce"
  param {
    lr_mult: 1
    decay_mult: 1
  }
  param {
    lr_mult: 2
    decay_mult: 0
  }
  convolution_param {
    num_output: 24
    kernel_size: 1
    weight_filler {
      type: "xavier"
      std: 0.2
    }
    bias_filler {
      type: "constant"
      value: 0.2
    }
  }
}
layer {
  name: "inception_4b/relu_5x5_reduce"
  type: "ReLU"
  bottom: "inception_4b/5x5_reduce"
  top: "inception_4b/5x5_reduce"
}
layer {
  name: "inception_4b/5x5"
  type: "Convolution"
  bottom: "inception_4b/5x5_reduce"
  top: "inception_4b/5x5"
  param {
    lr_mult: 1
    decay_mult: 1
  }
  param {
    lr_mult: 2
    decay_mult: 0
  }
  convolution_param {
    num_output: 64
    pad: 2
    kernel_size: 5
    weight_filler {
      type: "xavier"
      std: 0.03
    }
    bias_filler {
      type: "constant"
      value: 0.2
    }
  }
}
layer {
  name: "inception_4b/relu_5x5"
  type: "ReLU"
  bottom: "inception_4b/5x5"
  top: "inception_4b/5x5"
}
layer {
  name: "inception_4b/pool"
  type: "Pooling"
  bottom: "inception_4a/output"
  top: "inception_4b/pool"
  pooling_param {
    pool: MAX
    kernel_size: 3
    stride: 1
    pad: 1
  }
}
layer {
  name: "inception_4b/pool_proj"
  type: "Convolution"
  bottom: "inception_4b/pool"
  top: "inception_4b/pool_proj"
  param {
    lr_mult: 1
    decay_mult: 1
  }
  param {
    lr_mult: 2
    decay_mult: 0
  }
  convolution_param {
    num_output: 64
    kernel_size: 1
    weight_filler {
      type: "xavier"
      std: 0.1
    }
    bias_filler {
      type: "constant"
      value: 0.2
    }
  }
}
layer {
  name: "inception_4b/relu_pool_proj"
  type: "ReLU"
  bottom: "inception_4b/pool_proj"
  top: "inception_4b/pool_proj"
}
layer {
  name: "inception_4b/output"
  type: "Concat"
  bottom: "inception_4b/1x1"
  bottom: "inception_4b/3x3"
  bottom: "inception_4b/5x5"
  bottom: "inception_4b/pool_proj"
  top: "inception_4b/output"
}
layer {
  name: "inception_4c/1x1"
  type: "Convolution"
  bottom: "inception_4b/output"
  top: "inception_4c/1x1"
  param {
    lr_mult: 1
    decay_mult: 1
  }
  param {
    lr_mult: 2
    decay_mult: 0
  }
  convolution_param {
    num_output: 128
    kernel_size: 1
    weight_filler {
      type: "xavier"
      std: 0.03
    }
    bias_filler {
      type: "constant"
      value: 0.2
    }
  }
}
layer {
  name: "inception_4c/relu_1x1"
  type: "ReLU"
  bottom: "inception_4c/1x1"
  top: "inception_4c/1x1"
}
layer {
  name: "inception_4c/3x3_reduce"
  type: "Convolution"
  bottom: "inception_4b/output"
  top: "inception_4c/3x3_reduce"
  param {
    lr_mult: 1
    decay_mult: 1
  }
  param {
    lr_mult: 2
    decay_mult: 0
  }
  convolution_param {
    num_output: 128
    kernel_size: 1
    weight_filler {
      type: "xavier"
      std: 0.09
    }
    bias_filler {
      type: "constant"
      value: 0.2
    }
  }
}
layer {
  name: "inception_4c/relu_3x3_reduce"
  type: "ReLU"
  bottom: "inception_4c/3x3_reduce"
  top: "inception_4c/3x3_reduce"
}
layer {
  name: "inception_4c/3x3"
  type: "Convolution"
  bottom: "inception_4c/3x3_reduce"
  top: "inception_4c/3x3"
  param {
    lr_mult: 1
    decay_mult: 1
  }
  param {
    lr_mult: 2
    decay_mult: 0
  }
  convolution_param {
    num_output: 256
    pad: 1
    kernel_size: 3
    weight_filler {
      type: "xavier"
      std: 0.03
    }
    bias_filler {
      type: "constant"
      value: 0.2
    }
  }
}
layer {
  name: "inception_4c/relu_3x3"
  type: "ReLU"
  bottom: "inception_4c/3x3"
  top: "inception_4c/3x3"
}
layer {
  name: "inception_4c/5x5_reduce"
  type: "Convolution"
  bottom: "inception_4b/output"
  top: "inception_4c/5x5_reduce"
  param {
    lr_mult: 1
    decay_mult: 1
  }
  param {
    lr_mult: 2
    decay_mult: 0
  }
  convolution_param {
    num_output: 24
    kernel_size: 1
    weight_filler {
      type: "xavier"
      std: 0.2
    }
    bias_filler {
      type: "constant"
      value: 0.2
    }
  }
}
layer {
  name: "inception_4c/relu_5x5_reduce"
  type: "ReLU"
  bottom: "inception_4c/5x5_reduce"
  top: "inception_4c/5x5_reduce"
}
layer {
  name: "inception_4c/5x5"
  type: "Convolution"
  bottom: "inception_4c/5x5_reduce"
  top: "inception_4c/5x5"
  param {
    lr_mult: 1
    decay_mult: 1
  }
  param {
    lr_mult: 2
    decay_mult: 0
  }
  convolution_param {
    num_output: 64
    pad: 2
    kernel_size: 5
    weight_filler {
      type: "xavier"
      std: 0.03
    }
    bias_filler {
      type: "constant"
      value: 0.2
    }
  }
}
layer {
  name: "inception_4c/relu_5x5"
  type: "ReLU"
  bottom: "inception_4c/5x5"
  top: "inception_4c/5x5"
}
layer {
  name: "inception_4c/pool"
  type: "Pooling"
  bottom: "inception_4b/output"
  top: "inception_4c/pool"
  pooling_param {
    pool: MAX
    kernel_size: 3
    stride: 1
    pad: 1
  }
}
layer {
  name: "inception_4c/pool_proj"
  type: "Convolution"
  bottom: "inception_4c/pool"
  top: "inception_4c/pool_proj"
  param {
    lr_mult: 1
    decay_mult: 1
  }
  param {
    lr_mult: 2
    decay_mult: 0
  }
  convolution_param {
    num_output: 64
    kernel_size: 1
    weight_filler {
      type: "xavier"
      std: 0.1
    }
    bias_filler {
      type: "constant"
      value: 0.2
    }
  }
}
layer {
  name: "inception_4c/relu_pool_proj"
  type: "ReLU"
  bottom: "inception_4c/pool_proj"
  top: "inception_4c/pool_proj"
}
layer {
  name: "inception_4c/output"
  type: "Concat"
  bottom: "inception_4c/1x1"
  bottom: "inception_4c/3x3"
  bottom: "inception_4c/5x5"
  bottom: "inception_4c/pool_proj"
  top: "inception_4c/output"
}
layer {
  name: "inception_4d/1x1"
  type: "Convolution"
  bottom: "inception_4c/output"
  top: "inception_4d/1x1"
  param {
    lr_mult: 1
    decay_mult: 1
  }
  param {
    lr_mult: 2
    decay_mult: 0
  }
  convolution_param {
    num_output: 112
    kernel_size: 1
    weight_filler {
      type: "xavier"
      std: 0.03
    }
    bias_filler {
      type: "constant"
      value: 0.2
    }
  }
}
layer {
  name: "inception_4d/relu_1x1"
  type: "ReLU"
  bottom: "inception_4d/1x1"
  top: "inception_4d/1x1"
}
layer {
  name: "inception_4d/3x3_reduce"
  type: "Convolution"
  bottom: "inception_4c/output"
  top: "inception_4d/3x3_reduce"
  param {
    lr_mult: 1
    decay_mult: 1
  }
  param {
    lr_mult: 2
    decay_mult: 0
  }
  convolution_param {
    num_output: 144
    kernel_size: 1
    weight_filler {
      type: "xavier"
      std: 0.09
    }
    bias_filler {
      type: "constant"
      value: 0.2
    }
  }
}
layer {
  name: "inception_4d/relu_3x3_reduce"
  type: "ReLU"
  bottom: "inception_4d/3x3_reduce"
  top: "inception_4d/3x3_reduce"
}
layer {
  name: "inception_4d/3x3"
  type: "Convolution"
  bottom: "inception_4d/3x3_reduce"
  top: "inception_4d/3x3"
  param {
    lr_mult: 1
    decay_mult: 1
  }
  param {
    lr_mult: 2
    decay_mult: 0
  }
  convolution_param {
    num_output: 288
    pad: 1
    kernel_size: 3
    weight_filler {
      type: "xavier"
      std: 0.03
    }
    bias_filler {
      type: "constant"
      value: 0.2
    }
  }
}
layer {
  name: "inception_4d/relu_3x3"
  type: "ReLU"
  bottom: "inception_4d/3x3"
  top: "inception_4d/3x3"
}
layer {
  name: "inception_4d/5x5_reduce"
  type: "Convolution"
  bottom: "inception_4c/output"
  top: "inception_4d/5x5_reduce"
  param {
    lr_mult: 1
    decay_mult: 1
  }
  param {
    lr_mult: 2
    decay_mult: 0
  }
  convolution_param {
    num_output: 32
    kernel_size: 1
    weight_filler {
      type: "xavier"
      std: 0.2
    }
    bias_filler {
      type: "constant"
      value: 0.2
    }
  }
}
layer {
  name: "inception_4d/relu_5x5_reduce"
  type: "ReLU"
  bottom: "inception_4d/5x5_reduce"
  top: "inception_4d/5x5_reduce"
}
layer {
  name: "inception_4d/5x5"
  type: "Convolution"
  bottom: "inception_4d/5x5_reduce"
  top: "inception_4d/5x5"
  param {
    lr_mult: 1
    decay_mult: 1
  }
  param {
    lr_mult: 2
    decay_mult: 0
  }
  convolution_param {
    num_output: 64
    pad: 2
    kernel_size: 5
    weight_filler {
      type: "xavier"
      std: 0.03
    }
    bias_filler {
      type: "constant"
      value: 0.2
    }
  }
}
layer {
  name: "inception_4d/relu_5x5"
  type: "ReLU"
  bottom: "inception_4d/5x5"
  top: "inception_4d/5x5"
}
layer {
  name: "inception_4d/pool"
  type: "Pooling"
  bottom: "inception_4c/output"
  top: "inception_4d/pool"
  pooling_param {
    pool: MAX
    kernel_size: 3
    stride: 1
    pad: 1
  }
}
layer {
  name: "inception_4d/pool_proj"
  type: "Convolution"
  bottom: "inception_4d/pool"
  top: "inception_4d/pool_proj"
  param {
    lr_mult: 1
    decay_mult: 1
  }
  param {
    lr_mult: 2
    decay_mult: 0
  }
  convolution_param {
    num_output: 64
    kernel_size: 1
    weight_filler {
      type: "xavier"
      std: 0.1
    }
    bias_filler {
      type: "constant"
      value: 0.2
    }
  }
}
layer {
  name: "inception_4d/relu_pool_proj"
  type: "ReLU"
  bottom: "inception_4d/pool_proj"
  top: "inception_4d/pool_proj"
}
layer {
  name: "inception_4d/output"
  type: "Concat"
  bottom: "inception_4d/1x1"
  bottom: "inception_4d/3x3"
  bottom: "inception_4d/5x5"
  bottom: "inception_4d/pool_proj"
  top: "inception_4d/output"
}
layer {
  name: "loss2/ave_pool"
  type: "Pooling"
  bottom: "inception_4d/output"
  top: "loss2/ave_pool"
  pooling_param {
    pool: AVE
    kernel_size: 5
    stride: 3
  }
}
layer {
  name: "loss2/conv"
  type: "Convolution"
  bottom: "loss2/ave_pool"
  top: "loss2/conv"
  param {
    lr_mult: 1
    decay_mult: 1
  }
  param {
    lr_mult: 2
    decay_mult: 0
  }
  convolution_param {
    num_output: 128
    kernel_size: 1
    weight_filler {
      type: "xavier"
      std: 0.08
    }
    bias_filler {
      type: "constant"
      value: 0.2
    }
  }
}
layer {
  name: "loss2/relu_conv"
  type: "ReLU"
  bottom: "loss2/conv"
  top: "loss2/conv"
}
layer {
  name: "loss2/fc"
  type: "InnerProduct"
  bottom: "loss2/conv"
  top: "loss2/fc"
  param {
    lr_mult: 1
    decay_mult: 1
  }
  param {
    lr_mult: 2
    decay_mult: 0
  }
  inner_product_param {
    num_output: 1024
    weight_filler {
      type: "xavier"
      std: 0.02
    }
    bias_filler {
      type: "constant"
      value: 0.2
    }
  }
}
layer {
  name: "loss2/relu_fc"
  type: "ReLU"
  bottom: "loss2/fc"
  top: "loss2/fc"
}
layer {
  name: "loss2/drop_fc"
  type: "Dropout"
  bottom: "loss2/fc"
  top: "loss2/fc"
  dropout_param {
    dropout_ratio: 0.7
  }
}
layer {
  name: "loss2/classifier_plantvillage"
  type: "InnerProduct"
  bottom: "loss2/fc"
  top: "loss2/classifier_plantvillage"
  param {
    lr_mult: 1
    decay_mult: 1
  }
  param {
    lr_mult: 2
    decay_mult: 0
  }
  inner_product_param {
    num_output: 38
    weight_filler {
      type: "xavier"
      std: 0.0009765625
    }
    bias_filler {
      type: "constant"
      value: 0
    }
  }
}
layer {
  name: "inception_4e/1x1"
  type: "Convolution"
  bottom: "inception_4d/output"
  top: "inception_4e/1x1"
  param {
    lr_mult: 1
    decay_mult: 1
  }
  param {
    lr_mult: 2
    decay_mult: 0
  }
  convolution_param {
    num_output: 256
    kernel_size: 1
    weight_filler {
      type: "xavier"
      std: 0.03
    }
    bias_filler {
      type: "constant"
      value: 0.2
    }
  }
}
layer {
  name: "inception_4e/relu_1x1"
  type: "ReLU"
  bottom: "inception_4e/1x1"
  top: "inception_4e/1x1"
}
layer {
  name: "inception_4e/3x3_reduce"
  type: "Convolution"
  bottom: "inception_4d/output"
  top: "inception_4e/3x3_reduce"
  param {
    lr_mult: 1
    decay_mult: 1
  }
  param {
    lr_mult: 2
    decay_mult: 0
  }
  convolution_param {
    num_output: 160
    kernel_size: 1
    weight_filler {
      type: "xavier"
      std: 0.09
    }
    bias_filler {
      type: "constant"
      value: 0.2
    }
  }
}
layer {
  name: "inception_4e/relu_3x3_reduce"
  type: "ReLU"
  bottom: "inception_4e/3x3_reduce"
  top: "inception_4e/3x3_reduce"
}
layer {
  name: "inception_4e/3x3"
  type: "Convolution"
  bottom: "inception_4e/3x3_reduce"
  top: "inception_4e/3x3"
  param {
    lr_mult: 1
    decay_mult: 1
  }
  param {
    lr_mult: 2
    decay_mult: 0
  }
  convolution_param {
    num_output: 320
    pad: 1
    kernel_size: 3
    weight_filler {
      type: "xavier"
      std: 0.03
    }
    bias_filler {
      type: "constant"
      value: 0.2
    }
  }
}
layer {
  name: "inception_4e/relu_3x3"
  type: "ReLU"
  bottom: "inception_4e/3x3"
  top: "inception_4e/3x3"
}
layer {
  name: "inception_4e/5x5_reduce"
  type: "Convolution"
  bottom: "inception_4d/output"
  top: "inception_4e/5x5_reduce"
  param {
    lr_mult: 1
    decay_mult: 1
  }
  param {
    lr_mult: 2
    decay_mult: 0
  }
  convolution_param {
    num_output: 32
    kernel_size: 1
    weight_filler {
      type: "xavier"
      std: 0.2
    }
    bias_filler {
      type: "constant"
      value: 0.2
    }
  }
}
layer {
  name: "inception_4e/relu_5x5_reduce"
  type: "ReLU"
  bottom: "inception_4e/5x5_reduce"
  top: "inception_4e/5x5_reduce"
}
layer {
  name: "inception_4e/5x5"
  type: "Convolution"
  bottom: "inception_4e/5x5_reduce"
  top: "inception_4e/
I0403 19:28:29.227540 24803 layer_factory.hpp:77] Creating layer data
I0403 19:28:29.228137 24803 net.cpp:91] Creating Layer data
I0403 19:28:29.228175 24803 net.cpp:399] data -> data
I0403 19:28:29.228245 24803 net.cpp:399] data -> label
I0403 19:28:29.228297 24803 data_transformer.cpp:25] Loading mean file from: /home/mohanty/data/final_dataset/lmdb/grayscale-80-20/mean.binaryproto
I0403 19:28:29.235510 24808 db_lmdb.cpp:38] Opened lmdb /home/mohanty/data/final_dataset/lmdb/grayscale-80-20/test_db
I0403 19:28:29.242988 24803 data_layer.cpp:41] output data size: 24,3,224,224
I0403 19:28:29.273052 24803 net.cpp:141] Setting up data
I0403 19:28:29.273162 24803 net.cpp:148] Top shape: 24 3 224 224 (3612672)
I0403 19:28:29.273188 24803 net.cpp:148] Top shape: 24 (24)
I0403 19:28:29.273205 24803 net.cpp:156] Memory required for data: 14450784
I0403 19:28:29.273243 24803 layer_factory.hpp:77] Creating layer label_data_1_split
I0403 19:28:29.273286 24803 net.cpp:91] Creating Layer label_data_1_split
I0403 19:28:29.273313 24803 net.cpp:425] label_data_1_split <- label
I0403 19:28:29.273352 24803 net.cpp:399] label_data_1_split -> label_data_1_split_0
I0403 19:28:29.273386 24803 net.cpp:399] label_data_1_split -> label_data_1_split_1
I0403 19:28:29.273411 24803 net.cpp:399] label_data_1_split -> label_data_1_split_2
I0403 19:28:29.273434 24803 net.cpp:399] label_data_1_split -> label_data_1_split_3
I0403 19:28:29.273459 24803 net.cpp:399] label_data_1_split -> label_data_1_split_4
I0403 19:28:29.273484 24803 net.cpp:399] label_data_1_split -> label_data_1_split_5
I0403 19:28:29.273509 24803 net.cpp:399] label_data_1_split -> label_data_1_split_6
I0403 19:28:29.273532 24803 net.cpp:399] label_data_1_split -> label_data_1_split_7
I0403 19:28:29.273552 24803 net.cpp:399] label_data_1_split -> label_data_1_split_8
I0403 19:28:29.273576 24803 net.cpp:399] label_data_1_split -> label_data_1_split_9
I0403 19:28:29.273700 24803 net.cpp:141] Setting up label_data_1_split
I0403 19:28:29.273727 24803 net.cpp:148] Top shape: 24 (24)
I0403 19:28:29.273747 24803 net.cpp:148] Top shape: 24 (24)
I0403 19:28:29.273764 24803 net.cpp:148] Top shape: 24 (24)
I0403 19:28:29.273782 24803 net.cpp:148] Top shape: 24 (24)
I0403 19:28:29.273799 24803 net.cpp:148] Top shape: 24 (24)
I0403 19:28:29.273816 24803 net.cpp:148] Top shape: 24 (24)
I0403 19:28:29.273833 24803 net.cpp:148] Top shape: 24 (24)
I0403 19:28:29.273851 24803 net.cpp:148] Top shape: 24 (24)
I0403 19:28:29.273870 24803 net.cpp:148] Top shape: 24 (24)
I0403 19:28:29.273891 24803 net.cpp:148] Top shape: 24 (24)
I0403 19:28:29.273941 24803 net.cpp:156] Memory required for data: 14451744
I0403 19:28:29.273958 24803 layer_factory.hpp:77] Creating layer conv1/7x7_s2
I0403 19:28:29.274000 24803 net.cpp:91] Creating Layer conv1/7x7_s2
I0403 19:28:29.274021 24803 net.cpp:425] conv1/7x7_s2 <- data
I0403 19:28:29.274044 24803 net.cpp:399] conv1/7x7_s2 -> conv1/7x7_s2
I0403 19:28:29.417367 24803 net.cpp:141] Setting up conv1/7x7_s2
I0403 19:28:29.417479 24803 net.cpp:148] Top shape: 24 64 112 112 (19267584)
I0403 19:28:29.417498 24803 net.cpp:156] Memory required for data: 91522080
I0403 19:28:29.417536 24803 layer_factory.hpp:77] Creating layer conv1/relu_7x7
I0403 19:28:29.417567 24803 net.cpp:91] Creating Layer conv1/relu_7x7
I0403 19:28:29.417587 24803 net.cpp:425] conv1/relu_7x7 <- conv1/7x7_s2
I0403 19:28:29.417608 24803 net.cpp:386] conv1/relu_7x7 -> conv1/7x7_s2 (in-place)
I0403 19:28:29.417870 24803 net.cpp:141] Setting up conv1/relu_7x7
I0403 19:28:29.417898 24803 net.cpp:148] Top shape: 24 64 112 112 (19267584)
I0403 19:28:29.417917 24803 net.cpp:156] Memory required for data: 168592416
I0403 19:28:29.417932 24803 layer_factory.hpp:77] Creating layer pool1/3x3_s2
I0403 19:28:29.417959 24803 net.cpp:91] Creating Layer pool1/3x3_s2
I0403 19:28:29.417979 24803 net.cpp:425] pool1/3x3_s2 <- conv1/7x7_s2
I0403 19:28:29.417999 24803 net.cpp:399] pool1/3x3_s2 -> pool1/3x3_s2
I0403 19:28:29.418079 24803 net.cpp:141] Setting up pool1/3x3_s2
I0403 19:28:29.418105 24803 net.cpp:148] Top shape: 24 64 56 56 (4816896)
I0403 19:28:29.418123 24803 net.cpp:156] Memory required for data: 187860000
I0403 19:28:29.418138 24803 layer_factory.hpp:77] Creating layer pool1/norm1
I0403 19:28:29.418166 24803 net.cpp:91] Creating Layer pool1/norm1
I0403 19:28:29.418185 24803 net.cpp:425] pool1/norm1 <- pool1/3x3_s2
I0403 19:28:29.418203 24803 net.cpp:399] pool1/norm1 -> pool1/norm1
I0403 19:28:29.418526 24803 net.cpp:141] Setting up pool1/norm1
I0403 19:28:29.418557 24803 net.cpp:148] Top shape: 24 64 56 56 (4816896)
I0403 19:28:29.418575 24803 net.cpp:156] Memory required for data: 207127584
I0403 19:28:29.418602 24803 layer_factory.hpp:77] Creating layer conv2/3x3_reduce
I0403 19:28:29.418633 24803 net.cpp:91] Creating Layer conv2/3x3_reduce
I0403 19:28:29.418651 24803 net.cpp:425] conv2/3x3_reduce <- pool1/norm1
I0403 19:28:29.418676 24803 net.cpp:399] conv2/3x3_reduce -> conv2/3x3_reduce
I0403 19:28:29.420073 24803 net.cpp:141] Setting up conv2/3x3_reduce
I0403 19:28:29.420105 24803 net.cpp:148] Top shape: 24 64 56 56 (4816896)
I0403 19:28:29.420125 24803 net.cpp:156] Memory required for data: 226395168
I0403 19:28:29.420146 24803 layer_factory.hpp:77] Creating layer conv2/relu_3x3_reduce
I0403 19:28:29.420166 24803 net.cpp:91] Creating Layer conv2/relu_3x3_reduce
I0403 19:28:29.420183 24803 net.cpp:425] conv2/relu_3x3_reduce <- conv2/3x3_reduce
I0403 19:28:29.420200 24803 net.cpp:386] conv2/relu_3x3_reduce -> conv2/3x3_reduce (in-place)
I0403 19:28:29.420477 24803 net.cpp:141] Setting up conv2/relu_3x3_reduce
I0403 19:28:29.420509 24803 net.cpp:148] Top shape: 24 64 56 56 (4816896)
I0403 19:28:29.420527 24803 net.cpp:156] Memory required for data: 245662752
I0403 19:28:29.420542 24803 layer_factory.hpp:77] Creating layer conv2/3x3
I0403 19:28:29.420569 24803 net.cpp:91] Creating Layer conv2/3x3
I0403 19:28:29.420586 24803 net.cpp:425] conv2/3x3 <- conv2/3x3_reduce
I0403 19:28:29.420608 24803 net.cpp:399] conv2/3x3 -> conv2/3x3
I0403 19:28:29.422893 24803 net.cpp:141] Setting up conv2/3x3
I0403 19:28:29.422926 24803 net.cpp:148] Top shape: 24 192 56 56 (14450688)
I0403 19:28:29.422947 24803 net.cpp:156] Memory required for data: 303465504
I0403 19:28:29.422968 24803 layer_factory.hpp:77] Creating layer conv2/relu_3x3
I0403 19:28:29.422988 24803 net.cpp:91] Creating Layer conv2/relu_3x3
I0403 19:28:29.423005 24803 net.cpp:425] conv2/relu_3x3 <- conv2/3x3
I0403 19:28:29.423023 24803 net.cpp:386] conv2/relu_3x3 -> conv2/3x3 (in-place)
I0403 19:28:29.423197 24803 net.cpp:141] Setting up conv2/relu_3x3
I0403 19:28:29.423221 24803 net.cpp:148] Top shape: 24 192 56 56 (14450688)
I0403 19:28:29.423277 24803 net.cpp:156] Memory required for data: 361268256
I0403 19:28:29.423295 24803 layer_factory.hpp:77] Creating layer conv2/norm2
I0403 19:28:29.423318 24803 net.cpp:91] Creating Layer conv2/norm2
I0403 19:28:29.423337 24803 net.cpp:425] conv2/norm2 <- conv2/3x3
I0403 19:28:29.423357 24803 net.cpp:399] conv2/norm2 -> conv2/norm2
I0403 19:28:29.423648 24803 net.cpp:141] Setting up conv2/norm2
I0403 19:28:29.423679 24803 net.cpp:148] Top shape: 24 192 56 56 (14450688)
I0403 19:28:29.423697 24803 net.cpp:156] Memory required for data: 419071008
I0403 19:28:29.423713 24803 layer_factory.hpp:77] Creating layer pool2/3x3_s2
I0403 19:28:29.423735 24803 net.cpp:91] Creating Layer pool2/3x3_s2
I0403 19:28:29.423753 24803 net.cpp:425] pool2/3x3_s2 <- conv2/norm2
I0403 19:28:29.423771 24803 net.cpp:399] pool2/3x3_s2 -> pool2/3x3_s2
I0403 19:28:29.423825 24803 net.cpp:141] Setting up pool2/3x3_s2
I0403 19:28:29.423853 24803 net.cpp:148] Top shape: 24 192 28 28 (3612672)
I0403 19:28:29.423868 24803 net.cpp:156] Memory required for data: 433521696
I0403 19:28:29.423882 24803 layer_factory.hpp:77] Creating layer pool2/3x3_s2_pool2/3x3_s2_0_split
I0403 19:28:29.423900 24803 net.cpp:91] Creating Layer pool2/3x3_s2_pool2/3x3_s2_0_split
I0403 19:28:29.423916 24803 net.cpp:425] pool2/3x3_s2_pool2/3x3_s2_0_split <- pool2/3x3_s2
I0403 19:28:29.423940 24803 net.cpp:399] pool2/3x3_s2_pool2/3x3_s2_0_split -> pool2/3x3_s2_pool2/3x3_s2_0_split_0
I0403 19:28:29.423962 24803 net.cpp:399] pool2/3x3_s2_pool2/3x3_s2_0_split -> pool2/3x3_s2_pool2/3x3_s2_0_split_1
I0403 19:28:29.423985 24803 net.cpp:399] pool2/3x3_s2_pool2/3x3_s2_0_split -> pool2/3x3_s2_pool2/3x3_s2_0_split_2
I0403 19:28:29.424005 24803 net.cpp:399] pool2/3x3_s2_pool2/3x3_s2_0_split -> pool2/3x3_s2_pool2/3x3_s2_0_split_3
I0403 19:28:29.424077 24803 net.cpp:141] Setting up pool2/3x3_s2_pool2/3x3_s2_0_split
I0403 19:28:29.424105 24803 net.cpp:148] Top shape: 24 192 28 28 (3612672)
I0403 19:28:29.424124 24803 net.cpp:148] Top shape: 24 192 28 28 (3612672)
I0403 19:28:29.424142 24803 net.cpp:148] Top shape: 24 192 28 28 (3612672)
I0403 19:28:29.424156 24803 net.cpp:148] Top shape: 24 192 28 28 (3612672)
I0403 19:28:29.424170 24803 net.cpp:156] Memory required for data: 491324448
I0403 19:28:29.424183 24803 layer_factory.hpp:77] Creating layer inception_3a/1x1
I0403 19:28:29.424206 24803 net.cpp:91] Creating Layer inception_3a/1x1
I0403 19:28:29.424226 24803 net.cpp:425] inception_3a/1x1 <- pool2/3x3_s2_pool2/3x3_s2_0_split_0
I0403 19:28:29.424252 24803 net.cpp:399] inception_3a/1x1 -> inception_3a/1x1
I0403 19:28:29.425793 24803 net.cpp:141] Setting up inception_3a/1x1
I0403 19:28:29.425823 24803 net.cpp:148] Top shape: 24 64 28 28 (1204224)
I0403 19:28:29.425840 24803 net.cpp:156] Memory required for data: 496141344
I0403 19:28:29.425859 24803 layer_factory.hpp:77] Creating layer inception_3a/relu_1x1
I0403 19:28:29.425881 24803 net.cpp:91] Creating Layer inception_3a/relu_1x1
I0403 19:28:29.425900 24803 net.cpp:425] inception_3a/relu_1x1 <- inception_3a/1x1
I0403 19:28:29.425920 24803 net.cpp:386] inception_3a/relu_1x1 -> inception_3a/1x1 (in-place)
I0403 19:28:29.426092 24803 net.cpp:141] Setting up inception_3a/relu_1x1
I0403 19:28:29.426123 24803 net.cpp:148] Top shape: 24 64 28 28 (1204224)
I0403 19:28:29.426139 24803 net.cpp:156] Memory required for data: 500958240
I0403 19:28:29.426154 24803 layer_factory.hpp:77] Creating layer inception_3a/3x3_reduce
I0403 19:28:29.426177 24803 net.cpp:91] Creating Layer inception_3a/3x3_reduce
I0403 19:28:29.426197 24803 net.cpp:425] inception_3a/3x3_reduce <- pool2/3x3_s2_pool2/3x3_s2_0_split_1
I0403 19:28:29.426218 24803 net.cpp:399] inception_3a/3x3_reduce -> inception_3a/3x3_reduce
I0403 19:28:29.427927 24803 net.cpp:141] Setting up inception_3a/3x3_reduce
I0403 19:28:29.427963 24803 net.cpp:148] Top shape: 24 96 28 28 (1806336)
I0403 19:28:29.427983 24803 net.cpp:156] Memory required for data: 508183584
I0403 19:28:29.428002 24803 layer_factory.hpp:77] Creating layer inception_3a/relu_3x3_reduce
I0403 19:28:29.428037 24803 net.cpp:91] Creating Layer inception_3a/relu_3x3_reduce
I0403 19:28:29.428057 24803 net.cpp:425] inception_3a/relu_3x3_reduce <- inception_3a/3x3_reduce
I0403 19:28:29.428078 24803 net.cpp:386] inception_3a/relu_3x3_reduce -> inception_3a/3x3_reduce (in-place)
I0403 19:28:29.428252 24803 net.cpp:141] Setting up inception_3a/relu_3x3_reduce
I0403 19:28:29.428287 24803 net.cpp:148] Top shape: 24 96 28 28 (1806336)
I0403 19:28:29.428303 24803 net.cpp:156] Memory required for data: 515408928
I0403 19:28:29.428319 24803 layer_factory.hpp:77] Creating layer inception_3a/3x3
I0403 19:28:29.428341 24803 net.cpp:91] Creating Layer inception_3a/3x3
I0403 19:28:29.428360 24803 net.cpp:425] inception_3a/3x3 <- inception_3a/3x3_reduce
I0403 19:28:29.428385 24803 net.cpp:399] inception_3a/3x3 -> inception_3a/3x3
I0403 19:28:29.429922 24803 net.cpp:141] Setting up inception_3a/3x3
I0403 19:28:29.429955 24803 net.cpp:148] Top shape: 24 128 28 28 (2408448)
I0403 19:28:29.429972 24803 net.cpp:156] Memory required for data: 525042720
I0403 19:28:29.429991 24803 layer_factory.hpp:77] Creating layer inception_3a/relu_3x3
I0403 19:28:29.430009 24803 net.cpp:91] Creating Layer inception_3a/relu_3x3
I0403 19:28:29.430028 24803 net.cpp:425] inception_3a/relu_3x3 <- inception_3a/3x3
I0403 19:28:29.430050 24803 net.cpp:386] inception_3a/relu_3x3 -> inception_3a/3x3 (in-place)
I0403 19:28:29.430328 24803 net.cpp:141] Setting up inception_3a/relu_3x3
I0403 19:28:29.430362 24803 net.cpp:148] Top shape: 24 128 28 28 (2408448)
I0403 19:28:29.430382 24803 net.cpp:156] Memory required for data: 534676512
I0403 19:28:29.430397 24803 layer_factory.hpp:77] Creating layer inception_3a/5x5_reduce
I0403 19:28:29.430420 24803 net.cpp:91] Creating Layer inception_3a/5x5_reduce
I0403 19:28:29.430438 24803 net.cpp:425] inception_3a/5x5_reduce <- pool2/3x3_s2_pool2/3x3_s2_0_split_2
I0403 19:28:29.430456 24803 net.cpp:399] inception_3a/5x5_reduce -> inception_3a/5x5_reduce
I0403 19:28:29.431409 24803 net.cpp:141] Setting up inception_3a/5x5_reduce
I0403 19:28:29.431439 24803 net.cpp:148] Top shape: 24 16 28 28 (301056)
I0403 19:28:29.431457 24803 net.cpp:156] Memory required for data: 535880736
I0403 19:28:29.431478 24803 layer_factory.hpp:77] Creating layer inception_3a/relu_5x5_reduce
I0403 19:28:29.431496 24803 net.cpp:91] Creating Layer inception_3a/relu_5x5_reduce
I0403 19:28:29.431516 24803 net.cpp:425] inception_3a/relu_5x5_reduce <- inception_3a/5x5_reduce
I0403 19:28:29.431537 24803 net.cpp:386] inception_3a/relu_5x5_reduce -> inception_3a/5x5_reduce (in-place)
I0403 19:28:29.431813 24803 net.cpp:141] Setting up inception_3a/relu_5x5_reduce
I0403 19:28:29.431841 24803 net.cpp:148] Top shape: 24 16 28 28 (301056)
I0403 19:28:29.431856 24803 net.cpp:156] Memory required for data: 537084960
I0403 19:28:29.431872 24803 layer_factory.hpp:77] Creating layer inception_3a/5x5
I0403 19:28:29.431896 24803 net.cpp:91] Creating Layer inception_3a/5x5
I0403 19:28:29.431915 24803 net.cpp:425] inception_3a/5x5 <- inception_3a/5x5_reduce
I0403 19:28:29.431936 24803 net.cpp:399] inception_3a/5x5 -> inception_3a/5x5
I0403 19:28:29.432888 24803 net.cpp:141] Setting up inception_3a/5x5
I0403 19:28:29.432921 24803 net.cpp:148] Top shape: 24 32 28 28 (602112)
I0403 19:28:29.432939 24803 net.cpp:156] Memory required for data: 539493408
I0403 19:28:29.432958 24803 layer_factory.hpp:77] Creating layer inception_3a/relu_5x5
I0403 19:28:29.432977 24803 net.cpp:91] Creating Layer inception_3a/relu_5x5
I0403 19:28:29.432996 24803 net.cpp:425] inception_3a/relu_5x5 <- inception_3a/5x5
I0403 19:28:29.433014 24803 net.cpp:386] inception_3a/relu_5x5 -> inception_3a/5x5 (in-place)
I0403 19:28:29.433177 24803 net.cpp:141] Setting up inception_3a/relu_5x5
I0403 19:28:29.433207 24803 net.cpp:148] Top shape: 24 32 28 28 (602112)
I0403 19:28:29.433223 24803 net.cpp:156] Memory required for data: 541901856
I0403 19:28:29.433250 24803 layer_factory.hpp:77] Creating layer inception_3a/pool
I0403 19:28:29.433274 24803 net.cpp:91] Creating Layer inception_3a/pool
I0403 19:28:29.433308 24803 net.cpp:425] inception_3a/pool <- pool2/3x3_s2_pool2/3x3_s2_0_split_3
I0403 19:28:29.433331 24803 net.cpp:399] inception_3a/pool -> inception_3a/pool
I0403 19:28:29.433392 24803 net.cpp:141] Setting up inception_3a/pool
I0403 19:28:29.433420 24803 net.cpp:148] Top shape: 24 192 28 28 (3612672)
I0403 19:28:29.433436 24803 net.cpp:156] Memory required for data: 556352544
I0403 19:28:29.433454 24803 layer_factory.hpp:77] Creating layer inception_3a/pool_proj
I0403 19:28:29.433478 24803 net.cpp:91] Creating Layer inception_3a/pool_proj
I0403 19:28:29.433501 24803 net.cpp:425] inception_3a/pool_proj <- inception_3a/pool
I0403 19:28:29.433519 24803 net.cpp:399] inception_3a/pool_proj -> inception_3a/pool_proj
I0403 19:28:29.434450 24803 net.cpp:141] Setting up inception_3a/pool_proj
I0403 19:28:29.434484 24803 net.cpp:148] Top shape: 24 32 28 28 (602112)
I0403 19:28:29.434501 24803 net.cpp:156] Memory required for data: 558760992
I0403 19:28:29.434523 24803 layer_factory.hpp:77] Creating layer inception_3a/relu_pool_proj
I0403 19:28:29.434543 24803 net.cpp:91] Creating Layer inception_3a/relu_pool_proj
I0403 19:28:29.434561 24803 net.cpp:425] inception_3a/relu_pool_proj <- inception_3a/pool_proj
I0403 19:28:29.434583 24803 net.cpp:386] inception_3a/relu_pool_proj -> inception_3a/pool_proj (in-place)
I0403 19:28:29.434841 24803 net.cpp:141] Setting up inception_3a/relu_pool_proj
I0403 19:28:29.434875 24803 net.cpp:148] Top shape: 24 32 28 28 (602112)
I0403 19:28:29.434893 24803 net.cpp:156] Memory required for data: 561169440
I0403 19:28:29.434908 24803 layer_factory.hpp:77] Creating layer inception_3a/output
I0403 19:28:29.434926 24803 net.cpp:91] Creating Layer inception_3a/output
I0403 19:28:29.434942 24803 net.cpp:425] inception_3a/output <- inception_3a/1x1
I0403 19:28:29.434962 24803 net.cpp:425] inception_3a/output <- inception_3a/3x3
I0403 19:28:29.434979 24803 net.cpp:425] inception_3a/output <- inception_3a/5x5
I0403 19:28:29.434998 24803 net.cpp:425] inception_3a/output <- inception_3a/pool_proj
I0403 19:28:29.435019 24803 net.cpp:399] inception_3a/output -> inception_3a/output
I0403 19:28:29.435067 24803 net.cpp:141] Setting up inception_3a/output
I0403 19:28:29.435093 24803 net.cpp:148] Top shape: 24 256 28 28 (4816896)
I0403 19:28:29.435108 24803 net.cpp:156] Memory required for data: 580437024
I0403 19:28:29.435123 24803 layer_factory.hpp:77] Creating layer inception_3a/output_inception_3a/output_0_split
I0403 19:28:29.435143 24803 net.cpp:91] Creating Layer inception_3a/output_inception_3a/output_0_split
I0403 19:28:29.435163 24803 net.cpp:425] inception_3a/output_inception_3a/output_0_split <- inception_3a/output
I0403 19:28:29.435178 24803 net.cpp:399] inception_3a/output_inception_3a/output_0_split -> inception_3a/output_inception_3a/output_0_split_0
I0403 19:28:29.435200 24803 net.cpp:399] inception_3a/output_inception_3a/output_0_split -> inception_3a/output_inception_3a/output_0_split_1
I0403 19:28:29.435226 24803 net.cpp:399] inception_3a/output_inception_3a/output_0_split -> inception_3a/output_inception_3a/output_0_split_2
I0403 19:28:29.435250 24803 net.cpp:399] inception_3a/output_inception_3a/output_0_split -> inception_3a/output_inception_3a/output_0_split_3
I0403 19:28:29.435329 24803 net.cpp:141] Setting up inception_3a/output_inception_3a/output_0_split
I0403 19:28:29.435360 24803 net.cpp:148] Top shape: 24 256 28 28 (4816896)
I0403 19:28:29.435379 24803 net.cpp:148] Top shape: 24 256 28 28 (4816896)
I0403 19:28:29.435394 24803 net.cpp:148] Top shape: 24 256 28 28 (4816896)
I0403 19:28:29.435410 24803 net.cpp:148] Top shape: 24 256 28 28 (4816896)
I0403 19:28:29.435423 24803 net.cpp:156] Memory required for data: 657507360
I0403 19:28:29.435439 24803 layer_factory.hpp:77] Creating layer inception_3b/1x1
I0403 19:28:29.435462 24803 net.cpp:91] Creating Layer inception_3b/1x1
I0403 19:28:29.435480 24803 net.cpp:425] inception_3b/1x1 <- inception_3a/output_inception_3a/output_0_split_0
I0403 19:28:29.435499 24803 net.cpp:399] inception_3b/1x1 -> inception_3b/1x1
I0403 19:28:29.436568 24803 net.cpp:141] Setting up inception_3b/1x1
I0403 19:28:29.436609 24803 net.cpp:148] Top shape: 24 128 28 28 (2408448)
I0403 19:28:29.436632 24803 net.cpp:156] Memory required for data: 667141152
I0403 19:28:29.436652 24803 layer_factory.hpp:77] Creating layer inception_3b/relu_1x1
I0403 19:28:29.436669 24803 net.cpp:91] Creating Layer inception_3b/relu_1x1
I0403 19:28:29.436686 24803 net.cpp:425] inception_3b/relu_1x1 <- inception_3b/1x1
I0403 19:28:29.436704 24803 net.cpp:386] inception_3b/relu_1x1 -> inception_3b/1x1 (in-place)
I0403 19:28:29.436872 24803 net.cpp:141] Setting up inception_3b/relu_1x1
I0403 19:28:29.436902 24803 net.cpp:148] Top shape: 24 128 28 28 (2408448)
I0403 19:28:29.436921 24803 net.cpp:156] Memory required for data: 676774944
I0403 19:28:29.436938 24803 layer_factory.hpp:77] Creating layer inception_3b/3x3_reduce
I0403 19:28:29.436959 24803 net.cpp:91] Creating Layer inception_3b/3x3_reduce
I0403 19:28:29.436978 24803 net.cpp:425] inception_3b/3x3_reduce <- inception_3a/output_inception_3a/output_0_split_1
I0403 19:28:29.436998 24803 net.cpp:399] inception_3b/3x3_reduce -> inception_3b/3x3_reduce
I0403 19:28:29.438073 24803 net.cpp:141] Setting up inception_3b/3x3_reduce
I0403 19:28:29.438102 24803 net.cpp:148] Top shape: 24 128 28 28 (2408448)
I0403 19:28:29.438119 24803 net.cpp:156] Memory required for data: 686408736
I0403 19:28:29.438136 24803 layer_factory.hpp:77] Creating layer inception_3b/relu_3x3_reduce
I0403 19:28:29.438158 24803 net.cpp:91] Creating Layer inception_3b/relu_3x3_reduce
I0403 19:28:29.438176 24803 net.cpp:425] inception_3b/relu_3x3_reduce <- inception_3b/3x3_reduce
I0403 19:28:29.438194 24803 net.cpp:386] inception_3b/relu_3x3_reduce -> inception_3b/3x3_reduce (in-place)
I0403 19:28:29.438366 24803 net.cpp:141] Setting up inception_3b/relu_3x3_reduce
I0403 19:28:29.438395 24803 net.cpp:148] Top shape: 24 128 28 28 (2408448)
I0403 19:28:29.438412 24803 net.cpp:156] Memory required for data: 696042528
I0403 19:28:29.438426 24803 layer_factory.hpp:77] Creating layer inception_3b/3x3
I0403 19:28:29.438451 24803 net.cpp:91] Creating Layer inception_3b/3x3
I0403 19:28:29.438469 24803 net.cpp:425] inception_3b/3x3 <- inception_3b/3x3_reduce
I0403 19:28:29.438493 24803 net.cpp:399] inception_3b/3x3 -> inception_3b/3x3
I0403 19:28:29.441361 24803 net.cpp:141] Setting up inception_3b/3x3
I0403 19:28:29.441395 24803 net.cpp:148] Top shape: 24 192 28 28 (3612672)
I0403 19:28:29.441416 24803 net.cpp:156] Memory required for data: 710493216
I0403 19:28:29.441432 24803 layer_factory.hpp:77] Creating layer inception_3b/relu_3x3
I0403 19:28:29.441453 24803 net.cpp:91] Creating Layer inception_3b/relu_3x3
I0403 19:28:29.441470 24803 net.cpp:425] inception_3b/relu_3x3 <- inception_3b/3x3
I0403 19:28:29.441491 24803 net.cpp:386] inception_3b/relu_3x3 -> inception_3b/3x3 (in-place)
I0403 19:28:29.441759 24803 net.cpp:141] Setting up inception_3b/relu_3x3
I0403 19:28:29.441790 24803 net.cpp:148] Top shape: 24 192 28 28 (3612672)
I0403 19:28:29.441808 24803 net.cpp:156] Memory required for data: 724943904
I0403 19:28:29.441824 24803 layer_factory.hpp:77] Creating layer inception_3b/5x5_reduce
I0403 19:28:29.441850 24803 net.cpp:91] Creating Layer inception_3b/5x5_reduce
I0403 19:28:29.441869 24803 net.cpp:425] inception_3b/5x5_reduce <- inception_3a/output_inception_3a/output_0_split_2
I0403 19:28:29.441889 24803 net.cpp:399] inception_3b/5x5_reduce -> inception_3b/5x5_reduce
I0403 19:28:29.442860 24803 net.cpp:141] Setting up inception_3b/5x5_reduce
I0403 19:28:29.442895 24803 net.cpp:148] Top shape: 24 32 28 28 (602112)
I0403 19:28:29.442914 24803 net.cpp:156] Memory required for data: 727352352
I0403 19:28:29.442932 24803 layer_factory.hpp:77] Creating layer inception_3b/relu_5x5_reduce
I0403 19:28:29.442952 24803 net.cpp:91] Creating Layer inception_3b/relu_5x5_reduce
I0403 19:28:29.442968 24803 net.cpp:425] inception_3b/relu_5x5_reduce <- inception_3b/5x5_reduce
I0403 19:28:29.442989 24803 net.cpp:386] inception_3b/relu_5x5_reduce -> inception_3b/5x5_reduce (in-place)
I0403 19:28:29.443176 24803 net.cpp:141] Setting up inception_3b/relu_5x5_reduce
I0403 19:28:29.443205 24803 net.cpp:148] Top shape: 24 32 28 28 (602112)
I0403 19:28:29.443222 24803 net.cpp:156] Memory required for data: 729760800
I0403 19:28:29.443238 24803 layer_factory.hpp:77] Creating layer inception_3b/5x5
I0403 19:28:29.443266 24803 net.cpp:91] Creating Layer inception_3b/5x5
I0403 19:28:29.443289 24803 net.cpp:425] inception_3b/5x5 <- inception_3b/5x5_reduce
I0403 19:28:29.443312 24803 net.cpp:399] inception_3b/5x5 -> inception_3b/5x5
I0403 19:28:29.445287 24803 net.cpp:141] Setting up inception_3b/5x5
I0403 19:28:29.445322 24803 net.cpp:148] Top shape: 24 96 28 28 (1806336)
I0403 19:28:29.445339 24803 net.cpp:156] Memory required for data: 736986144
I0403 19:28:29.445358 24803 layer_factory.hpp:77] Creating layer inception_3b/relu_5x5
I0403 19:28:29.445379 24803 net.cpp:91] Creating Layer inception_3b/relu_5x5
I0403 19:28:29.445394 24803 net.cpp:425] inception_3b/relu_5x5 <- inception_3b/5x5
I0403 19:28:29.445413 24803 net.cpp:386] inception_3b/relu_5x5 -> inception_3b/5x5 (in-place)
I0403 19:28:29.445601 24803 net.cpp:141] Setting up inception_3b/relu_5x5
I0403 19:28:29.445632 24803 net.cpp:148] Top shape: 24 96 28 28 (1806336)
I0403 19:28:29.445648 24803 net.cpp:156] Memory required for data: 744211488
I0403 19:28:29.445665 24803 layer_factory.hpp:77] Creating layer inception_3b/pool
I0403 19:28:29.445683 24803 net.cpp:91] Creating Layer inception_3b/pool
I0403 19:28:29.445700 24803 net.cpp:425] inception_3b/pool <- inception_3a/output_inception_3a/output_0_split_3
I0403 19:28:29.445719 24803 net.cpp:399] inception_3b/pool -> inception_3b/pool
I0403 19:28:29.445775 24803 net.cpp:141] Setting up inception_3b/pool
I0403 19:28:29.445806 24803 net.cpp:148] Top shape: 24 256 28 28 (4816896)
I0403 19:28:29.445821 24803 net.cpp:156] Memory required for data: 763479072
I0403 19:28:29.445835 24803 layer_factory.hpp:77] Creating layer inception_3b/pool_proj
I0403 19:28:29.445861 24803 net.cpp:91] Creating Layer inception_3b/pool_proj
I0403 19:28:29.445880 24803 net.cpp:425] inception_3b/pool_proj <- inception_3b/pool
I0403 19:28:29.445899 24803 net.cpp:399] inception_3b/pool_proj -> inception_3b/pool_proj
I0403 19:28:29.446952 24803 net.cpp:141] Setting up inception_3b/pool_proj
I0403 19:28:29.446982 24803 net.cpp:148] Top shape: 24 64 28 28 (1204224)
I0403 19:28:29.446998 24803 net.cpp:156] Memory required for data: 768295968
I0403 19:28:29.447016 24803 layer_factory.hpp:77] Creating layer inception_3b/relu_pool_proj
I0403 19:28:29.447036 24803 net.cpp:91] Creating Layer inception_3b/relu_pool_proj
I0403 19:28:29.447055 24803 net.cpp:425] inception_3b/relu_pool_proj <- inception_3b/pool_proj
I0403 19:28:29.447074 24803 net.cpp:386] inception_3b/relu_pool_proj -> inception_3b/pool_proj (in-place)
I0403 19:28:29.447445 24803 net.cpp:141] Setting up inception_3b/relu_pool_proj
I0403 19:28:29.447474 24803 net.cpp:148] Top shape: 24 64 28 28 (1204224)
I0403 19:28:29.447491 24803 net.cpp:156] Memory required for data: 773112864
I0403 19:28:29.447506 24803 layer_factory.hpp:77] Creating layer inception_3b/output
I0403 19:28:29.447523 24803 net.cpp:91] Creating Layer inception_3b/output
I0403 19:28:29.447541 24803 net.cpp:425] inception_3b/output <- inception_3b/1x1
I0403 19:28:29.447559 24803 net.cpp:425] inception_3b/output <- inception_3b/3x3
I0403 19:28:29.447576 24803 net.cpp:425] inception_3b/output <- inception_3b/5x5
I0403 19:28:29.447593 24803 net.cpp:425] inception_3b/output <- inception_3b/pool_proj
I0403 19:28:29.447615 24803 net.cpp:399] inception_3b/output -> inception_3b/output
I0403 19:28:29.447660 24803 net.cpp:141] Setting up inception_3b/output
I0403 19:28:29.447690 24803 net.cpp:148] Top shape: 24 480 28 28 (9031680)
I0403 19:28:29.447707 24803 net.cpp:156] Memory required for data: 809239584
I0403 19:28:29.447722 24803 layer_factory.hpp:77] Creating layer pool3/3x3_s2
I0403 19:28:29.447743 24803 net.cpp:91] Creating Layer pool3/3x3_s2
I0403 19:28:29.447760 24803 net.cpp:425] pool3/3x3_s2 <- inception_3b/output
I0403 19:28:29.447800 24803 net.cpp:399] pool3/3x3_s2 -> pool3/3x3_s2
I0403 19:28:29.447860 24803 net.cpp:141] Setting up pool3/3x3_s2
I0403 19:28:29.447885 24803 net.cpp:148] Top shape: 24 480 14 14 (2257920)
I0403 19:28:29.447901 24803 net.cpp:156] Memory required for data: 818271264
I0403 19:28:29.447917 24803 layer_factory.hpp:77] Creating layer pool3/3x3_s2_pool3/3x3_s2_0_split
I0403 19:28:29.447937 24803 net.cpp:91] Creating Layer pool3/3x3_s2_pool3/3x3_s2_0_split
I0403 19:28:29.447955 24803 net.cpp:425] pool3/3x3_s2_pool3/3x3_s2_0_split <- pool3/3x3_s2
I0403 19:28:29.447974 24803 net.cpp:399] pool3/3x3_s2_pool3/3x3_s2_0_split -> pool3/3x3_s2_pool3/3x3_s2_0_split_0
I0403 19:28:29.447994 24803 net.cpp:399] pool3/3x3_s2_pool3/3x3_s2_0_split -> pool3/3x3_s2_pool3/3x3_s2_0_split_1
I0403 19:28:29.448017 24803 net.cpp:399] pool3/3x3_s2_pool3/3x3_s2_0_split -> pool3/3x3_s2_pool3/3x3_s2_0_split_2
I0403 19:28:29.448037 24803 net.cpp:399] pool3/3x3_s2_pool3/3x3_s2_0_split -> pool3/3x3_s2_pool3/3x3_s2_0_split_3
I0403 19:28:29.448113 24803 net.cpp:141] Setting up pool3/3x3_s2_pool3/3x3_s2_0_split
I0403 19:28:29.448142 24803 net.cpp:148] Top shape: 24 480 14 14 (2257920)
I0403 19:28:29.448158 24803 net.cpp:148] Top shape: 24 480 14 14 (2257920)
I0403 19:28:29.448174 24803 net.cpp:148] Top shape: 24 480 14 14 (2257920)
I0403 19:28:29.448191 24803 net.cpp:148] Top shape: 24 480 14 14 (2257920)
I0403 19:28:29.448207 24803 net.cpp:156] Memory required for data: 854397984
I0403 19:28:29.448223 24803 layer_factory.hpp:77] Creating layer inception_4a/1x1
I0403 19:28:29.448246 24803 net.cpp:91] Creating Layer inception_4a/1x1
I0403 19:28:29.448272 24803 net.cpp:425] inception_4a/1x1 <- pool3/3x3_s2_pool3/3x3_s2_0_split_0
I0403 19:28:29.448295 24803 net.cpp:399] inception_4a/1x1 -> inception_4a/1x1
I0403 19:28:29.449846 24803 net.cpp:141] Setting up inception_4a/1x1
I0403 19:28:29.449879 24803 net.cpp:148] Top shape: 24 192 14 14 (903168)
I0403 19:28:29.449897 24803 net.cpp:156] Memory required for data: 858010656
I0403 19:28:29.449914 24803 layer_factory.hpp:77] Creating layer inception_4a/relu_1x1
I0403 19:28:29.449935 24803 net.cpp:91] Creating Layer inception_4a/relu_1x1
I0403 19:28:29.449954 24803 net.cpp:425] inception_4a/relu_1x1 <- inception_4a/1x1
I0403 19:28:29.449972 24803 net.cpp:386] inception_4a/relu_1x1 -> inception_4a/1x1 (in-place)
I0403 19:28:29.450144 24803 net.cpp:141] Setting up inception_4a/relu_1x1
I0403 19:28:29.450175 24803 net.cpp:148] Top shape: 24 192 14 14 (903168)
I0403 19:28:29.450193 24803 net.cpp:156] Memory required for data: 861623328
I0403 19:28:29.450209 24803 layer_factory.hpp:77] Creating layer inception_4a/3x3_reduce
I0403 19:28:29.450233 24803 net.cpp:91] Creating Layer inception_4a/3x3_reduce
I0403 19:28:29.450258 24803 net.cpp:425] inception_4a/3x3_reduce <- pool3/3x3_s2_pool3/3x3_s2_0_split_1
I0403 19:28:29.450283 24803 net.cpp:399] inception_4a/3x3_reduce -> inception_4a/3x3_reduce
I0403 19:28:29.451514 24803 net.cpp:141] Setting up inception_4a/3x3_reduce
I0403 19:28:29.451545 24803 net.cpp:148] Top shape: 24 96 14 14 (451584)
I0403 19:28:29.451562 24803 net.cpp:156] Memory required for data: 863429664
I0403 19:28:29.451588 24803 layer_factory.hpp:77] Creating layer inception_4a/relu_3x3_reduce
I0403 19:28:29.451611 24803 net.cpp:91] Creating Layer inception_4a/relu_3x3_reduce
I0403 19:28:29.451630 24803 net.cpp:425] inception_4a/relu_3x3_reduce <- inception_4a/3x3_reduce
I0403 19:28:29.451652 24803 net.cpp:386] inception_4a/relu_3x3_reduce -> inception_4a/3x3_reduce (in-place)
I0403 19:28:29.451828 24803 net.cpp:141] Setting up inception_4a/relu_3x3_reduce
I0403 19:28:29.451858 24803 net.cpp:148] Top shape: 24 96 14 14 (451584)
I0403 19:28:29.451874 24803 net.cpp:156] Memory required for data: 865236000
I0403 19:28:29.451889 24803 layer_factory.hpp:77] Creating layer inception_4a/3x3
I0403 19:28:29.451912 24803 net.cpp:91] Creating Layer inception_4a/3x3
I0403 19:28:29.451932 24803 net.cpp:425] inception_4a/3x3 <- inception_4a/3x3_reduce
I0403 19:28:29.451954 24803 net.cpp:399] inception_4a/3x3 -> inception_4a/3x3
I0403 19:28:29.454610 24803 net.cpp:141] Setting up inception_4a/3x3
I0403 19:28:29.454658 24803 net.cpp:148] Top shape: 24 208 14 14 (978432)
I0403 19:28:29.454675 24803 net.cpp:156] Memory required for data: 869149728
I0403 19:28:29.454695 24803 layer_factory.hpp:77] Creating layer inception_4a/relu_3x3
I0403 19:28:29.454720 24803 net.cpp:91] Creating Layer inception_4a/relu_3x3
I0403 19:28:29.454742 24803 net.cpp:425] inception_4a/relu_3x3 <- inception_4a/3x3
I0403 19:28:29.454761 24803 net.cpp:386] inception_4a/relu_3x3 -> inception_4a/3x3 (in-place)
I0403 19:28:29.455027 24803 net.cpp:141] Setting up inception_4a/relu_3x3
I0403 19:28:29.455060 24803 net.cpp:148] Top shape: 24 208 14 14 (978432)
I0403 19:28:29.455075 24803 net.cpp:156] Memory required for data: 873063456
I0403 19:28:29.455091 24803 layer_factory.hpp:77] Creating layer inception_4a/5x5_reduce
I0403 19:28:29.455118 24803 net.cpp:91] Creating Layer inception_4a/5x5_reduce
I0403 19:28:29.455137 24803 net.cpp:425] inception_4a/5x5_reduce <- pool3/3x3_s2_pool3/3x3_s2_0_split_2
I0403 19:28:29.455155 24803 net.cpp:399] inception_4a/5x5_reduce -> inception_4a/5x5_reduce
I0403 19:28:29.456156 24803 net.cpp:141] Setting up inception_4a/5x5_reduce
I0403 19:28:29.456194 24803 net.cpp:148] Top shape: 24 16 14 14 (75264)
I0403 19:28:29.456212 24803 net.cpp:156] Memory required for data: 873364512
I0403 19:28:29.456233 24803 layer_factory.hpp:77] Creating layer inception_4a/relu_5x5_reduce
I0403 19:28:29.456254 24803 net.cpp:91] Creating Layer inception_4a/relu_5x5_reduce
I0403 19:28:29.456279 24803 net.cpp:425] inception_4a/relu_5x5_reduce <- inception_4a/5x5_reduce
I0403 19:28:29.456300 24803 net.cpp:386] inception_4a/relu_5x5_reduce -> inception_4a/5x5_reduce (in-place)
I0403 19:28:29.456492 24803 net.cpp:141] Setting up inception_4a/relu_5x5_reduce
I0403 19:28:29.456523 24803 net.cpp:148] Top shape: 24 16 14 14 (75264)
I0403 19:28:29.456540 24803 net.cpp:156] Memory required for data: 873665568
I0403 19:28:29.456557 24803 layer_factory.hpp:77] Creating layer inception_4a/5x5
I0403 19:28:29.456579 24803 net.cpp:91] Creating Layer inception_4a/5x5
I0403 19:28:29.456598 24803 net.cpp:425] inception_4a/5x5 <- inception_4a/5x5_reduce
I0403 19:28:29.456620 24803 net.cpp:399] inception_4a/5x5 -> inception_4a/5x5
I0403 19:28:29.457708 24803 net.cpp:141] Setting up inception_4a/5x5
I0403 19:28:29.457748 24803 net.cpp:148] Top shape: 24 48 14 14 (225792)
I0403 19:28:29.457767 24803 net.cpp:156] Memory required for data: 874568736
I0403 19:28:29.457787 24803 layer_factory.hpp:77] Creating layer inception_4a/relu_5x5
I0403 19:28:29.457806 24803 net.cpp:91] Creating Layer inception_4a/relu_5x5
I0403 19:28:29.457825 24803 net.cpp:425] inception_4a/relu_5x5 <- inception_4a/5x5
I0403 19:28:29.457844 24803 net.cpp:386] inception_4a/relu_5x5 -> inception_4a/5x5 (in-place)
I0403 19:28:29.458010 24803 net.cpp:141] Setting up inception_4a/relu_5x5
I0403 19:28:29.458040 24803 net.cpp:148] Top shape: 24 48 14 14 (225792)
I0403 19:28:29.458056 24803 net.cpp:156] Memory required for data: 875471904
I0403 19:28:29.458070 24803 layer_factory.hpp:77] Creating layer inception_4a/pool
I0403 19:28:29.458092 24803 net.cpp:91] Creating Layer inception_4a/pool
I0403 19:28:29.458112 24803 net.cpp:425] inception_4a/pool <- pool3/3x3_s2_pool3/3x3_s2_0_split_3
I0403 19:28:29.458130 24803 net.cpp:399] inception_4a/pool -> inception_4a/pool
I0403 19:28:29.458194 24803 net.cpp:141] Setting up inception_4a/pool
I0403 19:28:29.458222 24803 net.cpp:148] Top shape: 24 480 14 14 (2257920)
I0403 19:28:29.458236 24803 net.cpp:156] Memory required for data: 884503584
I0403 19:28:29.458250 24803 layer_factory.hpp:77] Creating layer inception_4a/pool_proj
I0403 19:28:29.458279 24803 net.cpp:91] Creating Layer inception_4a/pool_proj
I0403 19:28:29.458302 24803 net.cpp:425] inception_4a/pool_proj <- inception_4a/pool
I0403 19:28:29.458323 24803 net.cpp:399] inception_4a/pool_proj -> inception_4a/pool_proj
I0403 19:28:29.459431 24803 net.cpp:141] Setting up inception_4a/pool_proj
I0403 19:28:29.459462 24803 net.cpp:148] Top shape: 24 64 14 14 (301056)
I0403 19:28:29.459496 24803 net.cpp:156] Memory required for data: 885707808
I0403 19:28:29.459517 24803 layer_factory.hpp:77] Creating layer inception_4a/relu_pool_proj
I0403 19:28:29.459538 24803 net.cpp:91] Creating Layer inception_4a/relu_pool_proj
I0403 19:28:29.459556 24803 net.cpp:425] inception_4a/relu_pool_proj <- inception_4a/pool_proj
I0403 19:28:29.459575 24803 net.cpp:386] inception_4a/relu_pool_proj -> inception_4a/pool_proj (in-place)
I0403 19:28:29.459846 24803 net.cpp:141] Setting up inception_4a/relu_pool_proj
I0403 19:28:29.459877 24803 net.cpp:148] Top shape: 24 64 14 14 (301056)
I0403 19:28:29.459893 24803 net.cpp:156] Memory required for data: 886912032
I0403 19:28:29.459908 24803 layer_factory.hpp:77] Creating layer inception_4a/output
I0403 19:28:29.459925 24803 net.cpp:91] Creating Layer inception_4a/output
I0403 19:28:29.459944 24803 net.cpp:425] inception_4a/output <- inception_4a/1x1
I0403 19:28:29.459962 24803 net.cpp:425] inception_4a/output <- inception_4a/3x3
I0403 19:28:29.459978 24803 net.cpp:425] inception_4a/output <- inception_4a/5x5
I0403 19:28:29.459995 24803 net.cpp:425] inception_4a/output <- inception_4a/pool_proj
I0403 19:28:29.460011 24803 net.cpp:399] inception_4a/output -> inception_4a/output
I0403 19:28:29.460053 24803 net.cpp:141] Setting up inception_4a/output
I0403 19:28:29.460085 24803 net.cpp:148] Top shape: 24 512 14 14 (2408448)
I0403 19:28:29.460103 24803 net.cpp:156] Memory required for data: 896545824
I0403 19:28:29.460119 24803 layer_factory.hpp:77] Creating layer inception_4a/output_inception_4a/output_0_split
I0403 19:28:29.460137 24803 net.cpp:91] Creating Layer inception_4a/output_inception_4a/output_0_split
I0403 19:28:29.460153 24803 net.cpp:425] inception_4a/output_inception_4a/output_0_split <- inception_4a/output
I0403 19:28:29.460172 24803 net.cpp:399] inception_4a/output_inception_4a/output_0_split -> inception_4a/output_inception_4a/output_0_split_0
I0403 19:28:29.460196 24803 net.cpp:399] inception_4a/output_inception_4a/output_0_split -> inception_4a/output_inception_4a/output_0_split_1
I0403 19:28:29.460219 24803 net.cpp:399] inception_4a/output_inception_4a/output_0_split -> inception_4a/output_inception_4a/output_0_split_2
I0403 19:28:29.460239 24803 net.cpp:399] inception_4a/output_inception_4a/output_0_split -> inception_4a/output_inception_4a/output_0_split_3
I0403 19:28:29.460263 24803 net.cpp:399] inception_4a/output_inception_4a/output_0_split -> inception_4a/output_inception_4a/output_0_split_4
I0403 19:28:29.460356 24803 net.cpp:141] Setting up inception_4a/output_inception_4a/output_0_split
I0403 19:28:29.460386 24803 net.cpp:148] Top shape: 24 512 14 14 (2408448)
I0403 19:28:29.460405 24803 net.cpp:148] Top shape: 24 512 14 14 (2408448)
I0403 19:28:29.460423 24803 net.cpp:148] Top shape: 24 512 14 14 (2408448)
I0403 19:28:29.460441 24803 net.cpp:148] Top shape: 24 512 14 14 (2408448)
I0403 19:28:29.460458 24803 net.cpp:148] Top shape: 24 512 14 14 (2408448)
I0403 19:28:29.460471 24803 net.cpp:156] Memory required for data: 944714784
I0403 19:28:29.460485 24803 layer_factory.hpp:77] Creating layer loss1/ave_pool
I0403 19:28:29.460503 24803 net.cpp:91] Creating Layer loss1/ave_pool
I0403 19:28:29.460520 24803 net.cpp:425] loss1/ave_pool <- inception_4a/output_inception_4a/output_0_split_0
I0403 19:28:29.460541 24803 net.cpp:399] loss1/ave_pool -> loss1/ave_pool
I0403 19:28:29.460744 24803 net.cpp:141] Setting up loss1/ave_pool
I0403 19:28:29.460772 24803 net.cpp:148] Top shape: 24 512 4 4 (196608)
I0403 19:28:29.460788 24803 net.cpp:156] Memory required for data: 945501216
I0403 19:28:29.460803 24803 layer_factory.hpp:77] Creating layer loss1/conv
I0403 19:28:29.460825 24803 net.cpp:91] Creating Layer loss1/conv
I0403 19:28:29.460844 24803 net.cpp:425] loss1/conv <- loss1/ave_pool
I0403 19:28:29.460866 24803 net.cpp:399] loss1/conv -> loss1/conv
I0403 19:28:29.462195 24803 net.cpp:141] Setting up loss1/conv
I0403 19:28:29.462226 24803 net.cpp:148] Top shape: 24 128 4 4 (49152)
I0403 19:28:29.462261 24803 net.cpp:156] Memory required for data: 945697824
I0403 19:28:29.462285 24803 layer_factory.hpp:77] Creating layer loss1/relu_conv
I0403 19:28:29.462309 24803 net.cpp:91] Creating Layer loss1/relu_conv
I0403 19:28:29.462328 24803 net.cpp:425] loss1/relu_conv <- loss1/conv
I0403 19:28:29.462345 24803 net.cpp:386] loss1/relu_conv -> loss1/conv (in-place)
I0403 19:28:29.462615 24803 net.cpp:141] Setting up loss1/relu_conv
I0403 19:28:29.462644 24803 net.cpp:148] Top shape: 24 128 4 4 (49152)
I0403 19:28:29.462661 24803 net.cpp:156] Memory required for data: 945894432
I0403 19:28:29.462677 24803 layer_factory.hpp:77] Creating layer loss1/fc
I0403 19:28:29.462703 24803 net.cpp:91] Creating Layer loss1/fc
I0403 19:28:29.462723 24803 net.cpp:425] loss1/fc <- loss1/conv
I0403 19:28:29.462745 24803 net.cpp:399] loss1/fc -> loss1/fc
I0403 19:28:29.479737 24803 net.cpp:141] Setting up loss1/fc
I0403 19:28:29.479770 24803 net.cpp:148] Top shape: 24 1024 (24576)
I0403 19:28:29.479787 24803 net.cpp:156] Memory required for data: 945992736
I0403 19:28:29.479806 24803 layer_factory.hpp:77] Creating layer loss1/relu_fc
I0403 19:28:29.479823 24803 net.cpp:91] Creating Layer loss1/relu_fc
I0403 19:28:29.479841 24803 net.cpp:425] loss1/relu_fc <- loss1/fc
I0403 19:28:29.479861 24803 net.cpp:386] loss1/relu_fc -> loss1/fc (in-place)
I0403 19:28:29.480038 24803 net.cpp:141] Setting up loss1/relu_fc
I0403 19:28:29.480068 24803 net.cpp:148] Top shape: 24 1024 (24576)
I0403 19:28:29.480085 24803 net.cpp:156] Memory required for data: 946091040
I0403 19:28:29.480101 24803 layer_factory.hpp:77] Creating layer loss1/drop_fc
I0403 19:28:29.480128 24803 net.cpp:91] Creating Layer loss1/drop_fc
I0403 19:28:29.480146 24803 net.cpp:425] loss1/drop_fc <- loss1/fc
I0403 19:28:29.480165 24803 net.cpp:386] loss1/drop_fc -> loss1/fc (in-place)
I0403 19:28:29.480222 24803 net.cpp:141] Setting up loss1/drop_fc
I0403 19:28:29.480247 24803 net.cpp:148] Top shape: 24 1024 (24576)
I0403 19:28:29.480270 24803 net.cpp:156] Memory required for data: 946189344
I0403 19:28:29.480288 24803 layer_factory.hpp:77] Creating layer loss1/classifier_plantvillage
I0403 19:28:29.480305 24803 net.cpp:91] Creating Layer loss1/classifier_plantvillage
I0403 19:28:29.480324 24803 net.cpp:425] loss1/classifier_plantvillage <- loss1/fc
I0403 19:28:29.480345 24803 net.cpp:399] loss1/classifier_plantvillage -> loss1/classifier_plantvillage
I0403 19:28:29.481225 24803 net.cpp:141] Setting up loss1/classifier_plantvillage
I0403 19:28:29.481259 24803 net.cpp:148] Top shape: 24 38 (912)
I0403 19:28:29.481279 24803 net.cpp:156] Memory required for data: 946192992
I0403 19:28:29.481298 24803 layer_factory.hpp:77] Creating layer loss1/classifier_plantvillage_loss1/classifier_plantvillage_0_split
I0403 19:28:29.481319 24803 net.cpp:91] Creating Layer loss1/classifier_plantvillage_loss1/classifier_plantvillage_0_split
I0403 19:28:29.481338 24803 net.cpp:425] loss1/classifier_plantvillage_loss1/classifier_plantvillage_0_split <- loss1/classifier_plantvillage
I0403 19:28:29.481358 24803 net.cpp:399] loss1/classifier_plantvillage_loss1/classifier_plantvillage_0_split -> loss1/classifier_plantvillage_loss1/classifier_plantvillage_0_split_0
I0403 19:28:29.481379 24803 net.cpp:399] loss1/classifier_plantvillage_loss1/classifier_plantvillage_0_split -> loss1/classifier_plantvillage_loss1/classifier_plantvillage_0_split_1
I0403 19:28:29.481401 24803 net.cpp:399] loss1/classifier_plantvillage_loss1/classifier_plantvillage_0_split -> loss1/classifier_plantvillage_loss1/classifier_plantvillage_0_split_2
I0403 19:28:29.481470 24803 net.cpp:141] Setting up loss1/classifier_plantvillage_loss1/classifier_plantvillage_0_split
I0403 19:28:29.481499 24803 net.cpp:148] Top shape: 24 38 (912)
I0403 19:28:29.481516 24803 net.cpp:148] Top shape: 24 38 (912)
I0403 19:28:29.481533 24803 net.cpp:148] Top shape: 24 38 (912)
I0403 19:28:29.481547 24803 net.cpp:156] Memory required for data: 946203936
I0403 19:28:29.481564 24803 layer_factory.hpp:77] Creating layer inception_4b/1x1
I0403 19:28:29.481586 24803 net.cpp:91] Creating Layer inception_4b/1x1
I0403 19:28:29.481619 24803 net.cpp:425] inception_4b/1x1 <- inception_4a/output_inception_4a/output_0_split_1
I0403 19:28:29.481640 24803 net.cpp:399] inception_4b/1x1 -> inception_4b/1x1
I0403 19:28:29.483177 24803 net.cpp:141] Setting up inception_4b/1x1
I0403 19:28:29.483211 24803 net.cpp:148] Top shape: 24 160 14 14 (752640)
I0403 19:28:29.483232 24803 net.cpp:156] Memory required for data: 949214496
I0403 19:28:29.483250 24803 layer_factory.hpp:77] Creating layer inception_4b/relu_1x1
I0403 19:28:29.483276 24803 net.cpp:91] Creating Layer inception_4b/relu_1x1
I0403 19:28:29.483295 24803 net.cpp:425] inception_4b/relu_1x1 <- inception_4b/1x1
I0403 19:28:29.483315 24803 net.cpp:386] inception_4b/relu_1x1 -> inception_4b/1x1 (in-place)
I0403 19:28:29.483490 24803 net.cpp:141] Setting up inception_4b/relu_1x1
I0403 19:28:29.483521 24803 net.cpp:148] Top shape: 24 160 14 14 (752640)
I0403 19:28:29.483537 24803 net.cpp:156] Memory required for data: 952225056
I0403 19:28:29.483551 24803 layer_factory.hpp:77] Creating layer inception_4b/3x3_reduce
I0403 19:28:29.483575 24803 net.cpp:91] Creating Layer inception_4b/3x3_reduce
I0403 19:28:29.483597 24803 net.cpp:425] inception_4b/3x3_reduce <- inception_4a/output_inception_4a/output_0_split_2
I0403 19:28:29.483618 24803 net.cpp:399] inception_4b/3x3_reduce -> inception_4b/3x3_reduce
I0403 19:28:29.484911 24803 net.cpp:141] Setting up inception_4b/3x3_reduce
I0403 19:28:29.484944 24803 net.cpp:148] Top shape: 24 112 14 14 (526848)
I0403 19:28:29.484961 24803 net.cpp:156] Memory required for data: 954332448
I0403 19:28:29.484977 24803 layer_factory.hpp:77] Creating layer inception_4b/relu_3x3_reduce
I0403 19:28:29.484997 24803 net.cpp:91] Creating Layer inception_4b/relu_3x3_reduce
I0403 19:28:29.485013 24803 net.cpp:425] inception_4b/relu_3x3_reduce <- inception_4b/3x3_reduce
I0403 19:28:29.485034 24803 net.cpp:386] inception_4b/relu_3x3_reduce -> inception_4b/3x3_reduce (in-place)
I0403 19:28:29.485317 24803 net.cpp:141] Setting up inception_4b/relu_3x3_reduce
I0403 19:28:29.485345 24803 net.cpp:148] Top shape: 24 112 14 14 (526848)
I0403 19:28:29.485362 24803 net.cpp:156] Memory required for data: 956439840
I0403 19:28:29.485375 24803 layer_factory.hpp:77] Creating layer inception_4b/3x3
I0403 19:28:29.485399 24803 net.cpp:91] Creating Layer inception_4b/3x3
I0403 19:28:29.485419 24803 net.cpp:425] inception_4b/3x3 <- inception_4b/3x3_reduce
I0403 19:28:29.485441 24803 net.cpp:399] inception_4b/3x3 -> inception_4b/3x3
I0403 19:28:29.488279 24803 net.cpp:141] Setting up inception_4b/3x3
I0403 19:28:29.488312 24803 net.cpp:148] Top shape: 24 224 14 14 (1053696)
I0403 19:28:29.488330 24803 net.cpp:156] Memory required for data: 960654624
I0403 19:28:29.488348 24803 layer_factory.hpp:77] Creating layer inception_4b/relu_3x3
I0403 19:28:29.488370 24803 net.cpp:91] Creating Layer inception_4b/relu_3x3
I0403 19:28:29.488390 24803 net.cpp:425] inception_4b/relu_3x3 <- inception_4b/3x3
I0403 19:28:29.488409 24803 net.cpp:386] inception_4b/relu_3x3 -> inception_4b/3x3 (in-place)
I0403 19:28:29.488584 24803 net.cpp:141] Setting up inception_4b/relu_3x3
I0403 19:28:29.488617 24803 net.cpp:148] Top shape: 24 224 14 14 (1053696)
I0403 19:28:29.488636 24803 net.cpp:156] Memory required for data: 964869408
I0403 19:28:29.488649 24803 layer_factory.hpp:77] Creating layer inception_4b/5x5_reduce
I0403 19:28:29.488674 24803 net.cpp:91] Creating Layer inception_4b/5x5_reduce
I0403 19:28:29.488694 24803 net.cpp:425] inception_4b/5x5_reduce <- inception_4a/output_inception_4a/output_0_split_3
I0403 19:28:29.488713 24803 net.cpp:399] inception_4b/5x5_reduce -> inception_4b/5x5_reduce
I0403 19:28:29.489814 24803 net.cpp:141] Setting up inception_4b/5x5_reduce
I0403 19:28:29.489846 24803 net.cpp:148] Top shape: 24 24 14 14 (112896)
I0403 19:28:29.489863 24803 net.cpp:156] Memory required for data: 965320992
I0403 19:28:29.489882 24803 layer_factory.hpp:77] Creating layer inception_4b/relu_5x5_reduce
I0403 19:28:29.489902 24803 net.cpp:91] Creating Layer inception_4b/relu_5x5_reduce
I0403 19:28:29.489938 24803 net.cpp:425] inception_4b/relu_5x5_reduce <- inception_4b/5x5_reduce
I0403 19:28:29.489960 24803 net.cpp:386] inception_4b/relu_5x5_reduce -> inception_4b/5x5_reduce (in-place)
I0403 19:28:29.490145 24803 net.cpp:141] Setting up inception_4b/relu_5x5_reduce
I0403 19:28:29.490175 24803 net.cpp:148] Top shape: 24 24 14 14 (112896)
I0403 19:28:29.490190 24803 net.cpp:156] Memory required for data: 965772576
I0403 19:28:29.490207 24803 layer_factory.hpp:77] Creating layer inception_4b/5x5
I0403 19:28:29.490231 24803 net.cpp:91] Creating Layer inception_4b/5x5
I0403 19:28:29.490250 24803 net.cpp:425] inception_4b/5x5 <- inception_4b/5x5_reduce
I0403 19:28:29.490280 24803 net.cpp:399] inception_4b/5x5 -> inception_4b/5x5
I0403 19:28:29.491487 24803 net.cpp:141] Setting up inception_4b/5x5
I0403 19:28:29.491518 24803 net.cpp:148] Top shape: 24 64 14 14 (301056)
I0403 19:28:29.491536 24803 net.cpp:156] Memory required for data: 966976800
I0403 19:28:29.491555 24803 layer_factory.hpp:77] Creating layer inception_4b/relu_5x5
I0403 19:28:29.491575 24803 net.cpp:91] Creating Layer inception_4b/relu_5x5
I0403 19:28:29.491591 24803 net.cpp:425] inception_4b/relu_5x5 <- inception_4b/5x5
I0403 19:28:29.491612 24803 net.cpp:386] inception_4b/relu_5x5 -> inception_4b/5x5 (in-place)
I0403 19:28:29.491891 24803 net.cpp:141] Setting up inception_4b/relu_5x5
I0403 19:28:29.491921 24803 net.cpp:148] Top shape: 24 64 14 14 (301056)
I0403 19:28:29.491941 24803 net.cpp:156] Memory required for data: 968181024
I0403 19:28:29.491958 24803 layer_factory.hpp:77] Creating layer inception_4b/pool
I0403 19:28:29.491976 24803 net.cpp:91] Creating Layer inception_4b/pool
I0403 19:28:29.491993 24803 net.cpp:425] inception_4b/pool <- inception_4a/output_inception_4a/output_0_split_4
I0403 19:28:29.492013 24803 net.cpp:399] inception_4b/pool -> inception_4b/pool
I0403 19:28:29.492079 24803 net.cpp:141] Setting up inception_4b/pool
I0403 19:28:29.492105 24803 net.cpp:148] Top shape: 24 512 14 14 (2408448)
I0403 19:28:29.492121 24803 net.cpp:156] Memory required for data: 977814816
I0403 19:28:29.492137 24803 layer_factory.hpp:77] Creating layer inception_4b/pool_proj
I0403 19:28:29.492159 24803 net.cpp:91] Creating Layer inception_4b/pool_proj
I0403 19:28:29.492178 24803 net.cpp:425] inception_4b/pool_proj <- inception_4b/pool
I0403 19:28:29.492200 24803 net.cpp:399] inception_4b/pool_proj -> inception_4b/pool_proj
I0403 19:28:29.493394 24803 net.cpp:141] Setting up inception_4b/pool_proj
I0403 19:28:29.493427 24803 net.cpp:148] Top shape: 24 64 14 14 (301056)
I0403 19:28:29.493446 24803 net.cpp:156] Memory required for data: 979019040
I0403 19:28:29.493465 24803 layer_factory.hpp:77] Creating layer inception_4b/relu_pool_proj
I0403 19:28:29.493484 24803 net.cpp:91] Creating Layer inception_4b/relu_pool_proj
I0403 19:28:29.493501 24803 net.cpp:425] inception_4b/relu_pool_proj <- inception_4b/pool_proj
I0403 19:28:29.493526 24803 net.cpp:386] inception_4b/relu_pool_proj -> inception_4b/pool_proj (in-place)
I0403 19:28:29.493726 24803 net.cpp:141] Setting up inception_4b/relu_pool_proj
I0403 19:28:29.493753 24803 net.cpp:148] Top shape: 24 64 14 14 (301056)
I0403 19:28:29.493769 24803 net.cpp:156] Memory required for data: 980223264
I0403 19:28:29.493784 24803 layer_factory.hpp:77] Creating layer inception_4b/output
I0403 19:28:29.493803 24803 net.cpp:91] Creating Layer inception_4b/output
I0403 19:28:29.493820 24803 net.cpp:425] inception_4b/output <- inception_4b/1x1
I0403 19:28:29.493839 24803 net.cpp:425] inception_4b/output <- inception_4b/3x3
I0403 19:28:29.493854 24803 net.cpp:425] inception_4b/output <- inception_4b/5x5
I0403 19:28:29.493871 24803 net.cpp:425] inception_4b/output <- inception_4b/pool_proj
I0403 19:28:29.493891 24803 net.cpp:399] inception_4b/output -> inception_4b/output
I0403 19:28:29.493939 24803 net.cpp:141] Setting up inception_4b/output
I0403 19:28:29.493970 24803 net.cpp:148] Top shape: 24 512 14 14 (2408448)
I0403 19:28:29.493988 24803 net.cpp:156] Memory required for data: 989857056
I0403 19:28:29.494019 24803 layer_factory.hpp:77] Creating layer inception_4b/output_inception_4b/output_0_split
I0403 19:28:29.494040 24803 net.cpp:91] Creating Layer inception_4b/output_inception_4b/output_0_split
I0403 19:28:29.494056 24803 net.cpp:425] inception_4b/output_inception_4b/output_0_split <- inception_4b/output
I0403 19:28:29.494076 24803 net.cpp:399] inception_4b/output_inception_4b/output_0_split -> inception_4b/output_inception_4b/output_0_split_0
I0403 19:28:29.494099 24803 net.cpp:399] inception_4b/output_inception_4b/output_0_split -> inception_4b/output_inception_4b/output_0_split_1
I0403 19:28:29.494123 24803 net.cpp:399] inception_4b/output_inception_4b/output_0_split -> inception_4b/output_inception_4b/output_0_split_2
I0403 19:28:29.494145 24803 net.cpp:399] inception_4b/output_inception_4b/output_0_split -> inception_4b/output_inception_4b/output_0_split_3
I0403 19:28:29.494231 24803 net.cpp:141] Setting up inception_4b/output_inception_4b/output_0_split
I0403 19:28:29.494267 24803 net.cpp:148] Top shape: 24 512 14 14 (2408448)
I0403 19:28:29.494290 24803 net.cpp:148] Top shape: 24 512 14 14 (2408448)
I0403 19:28:29.494307 24803 net.cpp:148] Top shape: 24 512 14 14 (2408448)
I0403 19:28:29.494323 24803 net.cpp:148] Top shape: 24 512 14 14 (2408448)
I0403 19:28:29.494338 24803 net.cpp:156] Memory required for data: 1028392224
I0403 19:28:29.494354 24803 layer_factory.hpp:77] Creating layer inception_4c/1x1
I0403 19:28:29.494379 24803 net.cpp:91] Creating Layer inception_4c/1x1
I0403 19:28:29.494400 24803 net.cpp:425] inception_4c/1x1 <- inception_4b/output_inception_4b/output_0_split_0
I0403 19:28:29.494418 24803 net.cpp:399] inception_4c/1x1 -> inception_4c/1x1
I0403 19:28:29.495810 24803 net.cpp:141] Setting up inception_4c/1x1
I0403 19:28:29.495841 24803 net.cpp:148] Top shape: 24 128 14 14 (602112)
I0403 19:28:29.495860 24803 net.cpp:156] Memory required for data: 1030800672
I0403 19:28:29.495879 24803 layer_factory.hpp:77] Creating layer inception_4c/relu_1x1
I0403 19:28:29.495903 24803 net.cpp:91] Creating Layer inception_4c/relu_1x1
I0403 19:28:29.495921 24803 net.cpp:425] inception_4c/relu_1x1 <- inception_4c/1x1
I0403 19:28:29.495941 24803 net.cpp:386] inception_4c/relu_1x1 -> inception_4c/1x1 (in-place)
I0403 19:28:29.496124 24803 net.cpp:141] Setting up inception_4c/relu_1x1
I0403 19:28:29.496155 24803 net.cpp:148] Top shape: 24 128 14 14 (602112)
I0403 19:28:29.496176 24803 net.cpp:156] Memory required for data: 1033209120
I0403 19:28:29.496191 24803 layer_factory.hpp:77] Creating layer inception_4c/3x3_reduce
I0403 19:28:29.496212 24803 net.cpp:91] Creating Layer inception_4c/3x3_reduce
I0403 19:28:29.496229 24803 net.cpp:425] inception_4c/3x3_reduce <- inception_4b/output_inception_4b/output_0_split_1
I0403 19:28:29.496253 24803 net.cpp:399] inception_4c/3x3_reduce -> inception_4c/3x3_reduce
I0403 19:28:29.498196 24803 net.cpp:141] Setting up inception_4c/3x3_reduce
I0403 19:28:29.498230 24803 net.cpp:148] Top shape: 24 128 14 14 (602112)
I0403 19:28:29.498250 24803 net.cpp:156] Memory required for data: 1035617568
I0403 19:28:29.498276 24803 layer_factory.hpp:77] Creating layer inception_4c/relu_3x3_reduce
I0403 19:28:29.498296 24803 net.cpp:91] Creating Layer inception_4c/relu_3x3_reduce
I0403 19:28:29.498313 24803 net.cpp:425] inception_4c/relu_3x3_reduce <- inception_4c/3x3_reduce
I0403 19:28:29.498332 24803 net.cpp:386] inception_4c/relu_3x3_reduce -> inception_4c/3x3_reduce (in-place)
I0403 19:28:29.498610 24803 net.cpp:141] Setting up inception_4c/relu_3x3_reduce
I0403 19:28:29.498641 24803 net.cpp:148] Top shape: 24 128 14 14 (602112)
I0403 19:28:29.498659 24803 net.cpp:156] Memory required for data: 1038026016
I0403 19:28:29.498677 24803 layer_factory.hpp:77] Creating layer inception_4c/3x3
I0403 19:28:29.498702 24803 net.cpp:91] Creating Layer inception_4c/3x3
I0403 19:28:29.498720 24803 net.cpp:425] inception_4c/3x3 <- inception_4c/3x3_reduce
I0403 19:28:29.498741 24803 net.cpp:399] inception_4c/3x3 -> inception_4c/3x3
I0403 19:28:29.502293 24803 net.cpp:141] Setting up inception_4c/3x3
I0403 19:28:29.502338 24803 net.cpp:148] Top shape: 24 256 14 14 (1204224)
I0403 19:28:29.502358 24803 net.cpp:156] Memory required for data: 1042842912
I0403 19:28:29.502393 24803 layer_factory.hpp:77] Creating layer inception_4c/relu_3x3
I0403 19:28:29.502416 24803 net.cpp:91] Creating Layer inception_4c/relu_3x3
I0403 19:28:29.502434 24803 net.cpp:425] inception_4c/relu_3x3 <- inception_4c/3x3
I0403 19:28:29.502454 24803 net.cpp:386] inception_4c/relu_3x3 -> inception_4c/3x3 (in-place)
I0403 19:28:29.502631 24803 net.cpp:141] Setting up inception_4c/relu_3x3
I0403 19:28:29.502661 24803 net.cpp:148] Top shape: 24 256 14 14 (1204224)
I0403 19:28:29.502677 24803 net.cpp:156] Memory required for data: 1047659808
I0403 19:28:29.502692 24803 layer_factory.hpp:77] Creating layer inception_4c/5x5_reduce
I0403 19:28:29.502717 24803 net.cpp:91] Creating Layer inception_4c/5x5_reduce
I0403 19:28:29.502737 24803 net.cpp:425] inception_4c/5x5_reduce <- inception_4b/output_inception_4b/output_0_split_2
I0403 19:28:29.502759 24803 net.cpp:399] inception_4c/5x5_reduce -> inception_4c/5x5_reduce
I0403 19:28:29.503832 24803 net.cpp:141] Setting up inception_4c/5x5_reduce
I0403 19:28:29.503866 24803 net.cpp:148] Top shape: 24 24 14 14 (112896)
I0403 19:28:29.503883 24803 net.cpp:156] Memory required for data: 1048111392
I0403 19:28:29.503903 24803 layer_factory.hpp:77] Creating layer inception_4c/relu_5x5_reduce
I0403 19:28:29.503922 24803 net.cpp:91] Creating Layer inception_4c/relu_5x5_reduce
I0403 19:28:29.503939 24803 net.cpp:425] inception_4c/relu_5x5_reduce <- inception_4c/5x5_reduce
I0403 19:28:29.503959 24803 net.cpp:386] inception_4c/relu_5x5_reduce -> inception_4c/5x5_reduce (in-place)
I0403 19:28:29.504147 24803 net.cpp:141] Setting up inception_4c/relu_5x5_reduce
I0403 19:28:29.504178 24803 net.cpp:148] Top shape: 24 24 14 14 (112896)
I0403 19:28:29.504194 24803 net.cpp:156] Memory required for data: 1048562976
I0403 19:28:29.504211 24803 layer_factory.hpp:77] Creating layer inception_4c/5x5
I0403 19:28:29.504235 24803 net.cpp:91] Creating Layer inception_4c/5x5
I0403 19:28:29.504253 24803 net.cpp:425] inception_4c/5x5 <- inception_4c/5x5_reduce
I0403 19:28:29.504289 24803 net.cpp:399] inception_4c/5x5 -> inception_4c/5x5
I0403 19:28:29.505527 24803 net.cpp:141] Setting up inception_4c/5x5
I0403 19:28:29.505559 24803 net.cpp:148] Top shape: 24 64 14 14 (301056)
I0403 19:28:29.505578 24803 net.cpp:156] Memory required for data: 1049767200
I0403 19:28:29.505597 24803 layer_factory.hpp:77] Creating layer inception_4c/relu_5x5
I0403 19:28:29.505617 24803 net.cpp:91] Creating Layer inception_4c/relu_5x5
I0403 19:28:29.505635 24803 net.cpp:425] inception_4c/relu_5x5 <- inception_4c/5x5
I0403 19:28:29.505669 24803 net.cpp:386] inception_4c/relu_5x5 -> inception_4c/5x5 (in-place)
I0403 19:28:29.505952 24803 net.cpp:141] Setting up inception_4c/relu_5x5
I0403 19:28:29.505983 24803 net.cpp:148] Top shape: 24 64 14 14 (301056)
I0403 19:28:29.506000 24803 net.cpp:156] Memory required for data: 1050971424
I0403 19:28:29.506016 24803 layer_factory.hpp:77] Creating layer inception_4c/pool
I0403 19:28:29.506034 24803 net.cpp:91] Creating Layer inception_4c/pool
I0403 19:28:29.506050 24803 net.cpp:425] inception_4c/pool <- inception_4b/output_inception_4b/output_0_split_3
I0403 19:28:29.506072 24803 net.cpp:399] inception_4c/pool -> inception_4c/pool
I0403 19:28:29.506141 24803 net.cpp:141] Setting up inception_4c/pool
I0403 19:28:29.506170 24803 net.cpp:148] Top shape: 24 512 14 14 (2408448)
I0403 19:28:29.506186 24803 net.cpp:156] Memory required for data: 1060605216
I0403 19:28:29.506201 24803 layer_factory.hpp:77] Creating layer inception_4c/pool_proj
I0403 19:28:29.506224 24803 net.cpp:91] Creating Layer inception_4c/pool_proj
I0403 19:28:29.506244 24803 net.cpp:425] inception_4c/pool_proj <- inception_4c/pool
I0403 19:28:29.506273 24803 net.cpp:399] inception_4c/pool_proj -> inception_4c/pool_proj
I0403 19:28:29.507473 24803 net.cpp:141] Setting up inception_4c/pool_proj
I0403 19:28:29.507506 24803 net.cpp:148] Top shape: 24 64 14 14 (301056)
I0403 19:28:29.507539 24803 net.cpp:156] Memory required for data: 1061809440
I0403 19:28:29.507560 24803 layer_factory.hpp:77] Creating layer inception_4c/relu_pool_proj
I0403 19:28:29.507577 24803 net.cpp:91] Creating Layer inception_4c/relu_pool_proj
I0403 19:28:29.507596 24803 net.cpp:425] inception_4c/relu_pool_proj <- inception_4c/pool_proj
I0403 19:28:29.507616 24803 net.cpp:386] inception_4c/relu_pool_proj -> inception_4c/pool_proj (in-place)
I0403 19:28:29.507797 24803 net.cpp:141] Setting up inception_4c/relu_pool_proj
I0403 19:28:29.507825 24803 net.cpp:148] Top shape: 24 64 14 14 (301056)
I0403 19:28:29.507840 24803 net.cpp:156] Memory required for data: 1063013664
I0403 19:28:29.507856 24803 layer_factory.hpp:77] Creating layer inception_4c/output
I0403 19:28:29.507874 24803 net.cpp:91] Creating Layer inception_4c/output
I0403 19:28:29.507889 24803 net.cpp:425] inception_4c/output <- inception_4c/1x1
I0403 19:28:29.507905 24803 net.cpp:425] inception_4c/output <- inception_4c/3x3
I0403 19:28:29.507921 24803 net.cpp:425] inception_4c/output <- inception_4c/5x5
I0403 19:28:29.507936 24803 net.cpp:425] inception_4c/output <- inception_4c/pool_proj
I0403 19:28:29.507954 24803 net.cpp:399] inception_4c/output -> inception_4c/output
I0403 19:28:29.508002 24803 net.cpp:141] Setting up inception_4c/output
I0403 19:28:29.508033 24803 net.cpp:148] Top shape: 24 512 14 14 (2408448)
I0403 19:28:29.508049 24803 net.cpp:156] Memory required for data: 1072647456
I0403 19:28:29.508064 24803 layer_factory.hpp:77] Creating layer inception_4c/output_inception_4c/output_0_split
I0403 19:28:29.508080 24803 net.cpp:91] Creating Layer inception_4c/output_inception_4c/output_0_split
I0403 19:28:29.508097 24803 net.cpp:425] inception_4c/output_inception_4c/output_0_split <- inception_4c/output
I0403 19:28:29.508116 24803 net.cpp:399] inception_4c/output_inception_4c/output_0_split -> inception_4c/output_inception_4c/output_0_split_0
I0403 19:28:29.508139 24803 net.cpp:399] inception_4c/output_inception_4c/output_0_split -> inception_4c/output_inception_4c/output_0_split_1
I0403 19:28:29.508162 24803 net.cpp:399] inception_4c/output_inception_4c/output_0_split -> inception_4c/output_inception_4c/output_0_split_2
I0403 19:28:29.508184 24803 net.cpp:399] inception_4c/output_inception_4c/output_0_split -> inception_4c/output_inception_4c/output_0_split_3
I0403 19:28:29.508275 24803 net.cpp:141] Setting up inception_4c/output_inception_4c/output_0_split
I0403 19:28:29.508301 24803 net.cpp:148] Top shape: 24 512 14 14 (2408448)
I0403 19:28:29.508318 24803 net.cpp:148] Top shape: 24 512 14 14 (2408448)
I0403 19:28:29.508335 24803 net.cpp:148] Top shape: 24 512 14 14 (2408448)
I0403 19:28:29.508350 24803 net.cpp:148] Top shape: 24 512 14 14 (2408448)
I0403 19:28:29.508368 24803 net.cpp:156] Memory required for data: 1111182624
I0403 19:28:29.508381 24803 layer_factory.hpp:77] Creating layer inception_4d/1x1
I0403 19:28:29.508404 24803 net.cpp:91] Creating Layer inception_4d/1x1
I0403 19:28:29.508424 24803 net.cpp:425] inception_4d/1x1 <- inception_4c/output_inception_4c/output_0_split_0
I0403 19:28:29.508443 24803 net.cpp:399] inception_4d/1x1 -> inception_4d/1x1
I0403 19:28:29.509753 24803 net.cpp:141] Setting up inception_4d/1x1
I0403 19:28:29.509783 24803 net.cpp:148] Top shape: 24 112 14 14 (526848)
I0403 19:28:29.509799 24803 net.cpp:156] Memory required for data: 1113290016
I0403 19:28:29.509819 24803 layer_factory.hpp:77] Creating layer inception_4d/relu_1x1
I0403 19:28:29.509838 24803 net.cpp:91] Creating Layer inception_4d/relu_1x1
I0403 19:28:29.509858 24803 net.cpp:425] inception_4d/relu_1x1 <- inception_4d/1x1
I0403 19:28:29.509878 24803 net.cpp:386] inception_4d/relu_1x1 -> inception_4d/1x1 (in-place)
I0403 19:28:29.510052 24803 net.cpp:141] Setting up inception_4d/relu_1x1
I0403 19:28:29.510083 24803 net.cpp:148] Top shape: 24 112 14 14 (526848)
I0403 19:28:29.510100 24803 net.cpp:156] Memory required for data: 1115397408
I0403 19:28:29.510114 24803 layer_factory.hpp:77] Creating layer inception_4d/3x3_reduce
I0403 19:28:29.510150 24803 net.cpp:91] Creating Layer inception_4d/3x3_reduce
I0403 19:28:29.510171 24803 net.cpp:425] inception_4d/3x3_reduce <- inception_4c/output_inception_4c/output_0_split_1
I0403 19:28:29.510191 24803 net.cpp:399] inception_4d/3x3_reduce -> inception_4d/3x3_reduce
I0403 19:28:29.511636 24803 net.cpp:141] Setting up inception_4d/3x3_reduce
I0403 19:28:29.511665 24803 net.cpp:148] Top shape: 24 144 14 14 (677376)
I0403 19:28:29.511682 24803 net.cpp:156] Memory required for data: 1118106912
I0403 19:28:29.511699 24803 layer_factory.hpp:77] Creating layer inception_4d/relu_3x3_reduce
I0403 19:28:29.511721 24803 net.cpp:91] Creating Layer inception_4d/relu_3x3_reduce
I0403 19:28:29.511739 24803 net.cpp:425] inception_4d/relu_3x3_reduce <- inception_4d/3x3_reduce
I0403 19:28:29.511759 24803 net.cpp:386] inception_4d/relu_3x3_reduce -> inception_4d/3x3_reduce (in-place)
I0403 19:28:29.512037 24803 net.cpp:141] Setting up inception_4d/relu_3x3_reduce
I0403 19:28:29.512068 24803 net.cpp:148] Top shape: 24 144 14 14 (677376)
I0403 19:28:29.512084 24803 net.cpp:156] Memory required for data: 1120816416
I0403 19:28:29.512099 24803 layer_factory.hpp:77] Creating layer inception_4d/3x3
I0403 19:28:29.512120 24803 net.cpp:91] Creating Layer inception_4d/3x3
I0403 19:28:29.512136 24803 net.cpp:425] inception_4d/3x3 <- inception_4d/3x3_reduce
I0403 19:28:29.512157 24803 net.cpp:399] inception_4d/3x3 -> inception_4d/3x3
I0403 19:28:29.516273 24803 net.cpp:141] Setting up inception_4d/3x3
I0403 19:28:29.516306 24803 net.cpp:148] Top shape: 24 288 14 14 (1354752)
I0403 19:28:29.516324 24803 net.cpp:156] Memory required for data: 1126235424
I0403 19:28:29.516342 24803 layer_factory.hpp:77] Creating layer inception_4d/relu_3x3
I0403 19:28:29.516363 24803 net.cpp:91] Creating Layer inception_4d/relu_3x3
I0403 19:28:29.516381 24803 net.cpp:425] inception_4d/relu_3x3 <- inception_4d/3x3
I0403 19:28:29.516398 24803 net.cpp:386] inception_4d/relu_3x3 -> inception_4d/3x3 (in-place)
I0403 19:28:29.516578 24803 net.cpp:141] Setting up inception_4d/relu_3x3
I0403 19:28:29.516612 24803 net.cpp:148] Top shape: 24 288 14 14 (1354752)
I0403 19:28:29.516629 24803 net.cpp:156] Memory required for data: 1131654432
I0403 19:28:29.516645 24803 layer_factory.hpp:77] Creating layer inception_4d/5x5_reduce
I0403 19:28:29.516666 24803 net.cpp:91] Creating Layer inception_4d/5x5_reduce
I0403 19:28:29.516683 24803 net.cpp:425] inception_4d/5x5_reduce <- inception_4c/output_inception_4c/output_0_split_2
I0403 19:28:29.516703 24803 net.cpp:399] inception_4d/5x5_reduce -> inception_4d/5x5_reduce
I0403 19:28:29.517802 24803 net.cpp:141] Setting up inception_4d/5x5_reduce
I0403 19:28:29.517834 24803 net.cpp:148] Top shape: 24 32 14 14 (150528)
I0403 19:28:29.517850 24803 net.cpp:156] Memory required for data: 1132256544
I0403 19:28:29.517869 24803 layer_factory.hpp:77] Creating layer inception_4d/relu_5x5_reduce
I0403 19:28:29.517889 24803 net.cpp:91] Creating Layer inception_4d/relu_5x5_reduce
I0403 19:28:29.517909 24803 net.cpp:425] inception_4d/relu_5x5_reduce <- inception_4d/5x5_reduce
I0403 19:28:29.517926 24803 net.cpp:386] inception_4d/relu_5x5_reduce -> inception_4d/5x5_reduce (in-place)
I0403 19:28:29.518106 24803 net.cpp:141] Setting up inception_4d/relu_5x5_reduce
I0403 19:28:29.518136 24803 net.cpp:148] Top shape: 24 32 14 14 (150528)
I0403 19:28:29.518154 24803 net.cpp:156] Memory required for data: 1132858656
I0403 19:28:29.518170 24803 layer_factory.hpp:77] Creating layer inception_4d/5x5
I0403 19:28:29.518193 24803 net.cpp:91] Creating Layer inception_4d/5x5
I0403 19:28:29.518213 24803 net.cpp:425] inception_4d/5x5 <- inception_4d/5x5_reduce
I0403 19:28:29.518235 24803 net.cpp:399] inception_4d/5x5 -> inception_4d/5x5
I0403 19:28:29.519646 24803 net.cpp:141] Setting up inception_4d/5x5
I0403 19:28:29.519675 24803 net.cpp:148] Top shape: 24 64 14 14 (301056)
I0403 19:28:29.519693 24803 net.cpp:156] Memory required for data: 1134062880
I0403 19:28:29.519712 24803 layer_factory.hpp:77] Creating layer inception_4d/relu_5x5
I0403 19:28:29.519747 24803 net.cpp:91] Creating Layer inception_4d/relu_5x5
I0403 19:28:29.519765 24803 net.cpp:425] inception_4d/relu_5x5 <- inception_4d/5x5
I0403 19:28:29.519790 24803 net.cpp:386] inception_4d/relu_5x5 -> inception_4d/5x5 (in-place)
I0403 19:28:29.520078 24803 net.cpp:141] Setting up inception_4d/relu_5x5
I0403 19:28:29.520109 24803 net.cpp:148] Top shape: 24 64 14 14 (301056)
I0403 19:28:29.520124 24803 net.cpp:156] Memory required for data: 1135267104
I0403 19:28:29.520139 24803 layer_factory.hpp:77] Creating layer inception_4d/pool
I0403 19:28:29.520159 24803 net.cpp:91] Creating Layer inception_4d/pool
I0403 19:28:29.520177 24803 net.cpp:425] inception_4d/pool <- inception_4c/output_inception_4c/output_0_split_3
I0403 19:28:29.520200 24803 net.cpp:399] inception_4d/pool -> inception_4d/pool
I0403 19:28:29.520269 24803 net.cpp:141] Setting up inception_4d/pool
I0403 19:28:29.520298 24803 net.cpp:148] Top shape: 24 512 14 14 (2408448)
I0403 19:28:29.520313 24803 net.cpp:156] Memory required for data: 1144900896
I0403 19:28:29.520328 24803 layer_factory.hpp:77] Creating layer inception_4d/pool_proj
I0403 19:28:29.520354 24803 net.cpp:91] Creating Layer inception_4d/pool_proj
I0403 19:28:29.520372 24803 net.cpp:425] inception_4d/pool_proj <- inception_4d/pool
I0403 19:28:29.520390 24803 net.cpp:399] inception_4d/pool_proj -> inception_4d/pool_proj
I0403 19:28:29.522079 24803 net.cpp:141] Setting up inception_4d/pool_proj
I0403 19:28:29.522112 24803 net.cpp:148] Top shape: 24 64 14 14 (301056)
I0403 19:28:29.522130 24803 net.cpp:156] Memory required for data: 1146105120
I0403 19:28:29.522148 24803 layer_factory.hpp:77] Creating layer inception_4d/relu_pool_proj
I0403 19:28:29.522171 24803 net.cpp:91] Creating Layer inception_4d/relu_pool_proj
I0403 19:28:29.522188 24803 net.cpp:425] inception_4d/relu_pool_proj <- inception_4d/pool_proj
I0403 19:28:29.522207 24803 net.cpp:386] inception_4d/relu_pool_proj -> inception_4d/pool_proj (in-place)
I0403 19:28:29.522395 24803 net.cpp:141] Setting up inception_4d/relu_pool_proj
I0403 19:28:29.522426 24803 net.cpp:148] Top shape: 24 64 14 14 (301056)
I0403 19:28:29.522444 24803 net.cpp:156] Memory required for data: 1147309344
I0403 19:28:29.522459 24803 layer_factory.hpp:77] Creating layer inception_4d/output
I0403 19:28:29.522477 24803 net.cpp:91] Creating Layer inception_4d/output
I0403 19:28:29.522495 24803 net.cpp:425] inception_4d/output <- inception_4d/1x1
I0403 19:28:29.522511 24803 net.cpp:425] inception_4d/output <- inception_4d/3x3
I0403 19:28:29.522528 24803 net.cpp:425] inception_4d/output <- inception_4d/5x5
I0403 19:28:29.522546 24803 net.cpp:425] inception_4d/output <- inception_4d/pool_proj
I0403 19:28:29.522565 24803 net.cpp:399] inception_4d/output -> inception_4d/output
I0403 19:28:29.522614 24803 net.cpp:141] Setting up inception_4d/output
I0403 19:28:29.522644 24803 net.cpp:148] Top shape: 24 528 14 14 (2483712)
I0403 19:28:29.522658 24803 net.cpp:156] Memory required for data: 1157244192
I0403 19:28:29.522673 24803 layer_factory.hpp:77] Creating layer inception_4d/output_inception_4d/output_0_split
I0403 19:28:29.522693 24803 net.cpp:91] Creating Layer inception_4d/output_inception_4d/output_0_split
I0403 19:28:29.522711 24803 net.cpp:425] inception_4d/output_inception_4d/output_0_split <- inception_4d/output
I0403 19:28:29.522730 24803 net.cpp:399] inception_4d/output_inception_4d/output_0_split -> inception_4d/output_inception_4d/output_0_split_0
I0403 19:28:29.522754 24803 net.cpp:399] inception_4d/output_inception_4d/output_0_split -> inception_4d/output_inception_4d/output_0_split_1
I0403 19:28:29.522778 24803 net.cpp:399] inception_4d/output_inception_4d/output_0_split -> inception_4d/output_inception_4d/output_0_split_2
I0403 19:28:29.522801 24803 net.cpp:399] inception_4d/output_inception_4d/output_0_split -> inception_4d/output_inception_4d/output_0_split_3
I0403 19:28:29.522822 24803 net.cpp:399] inception_4d/output_inception_4d/output_0_split -> inception_4d/output_inception_4d/output_0_split_4
I0403 19:28:29.522920 24803 net.cpp:141] Setting up inception_4d/output_inception_4d/output_0_split
I0403 19:28:29.522960 24803 net.cpp:148] Top shape: 24 528 14 14 (2483712)
I0403 19:28:29.522980 24803 net.cpp:148] Top shape: 24 528 14 14 (2483712)
I0403 19:28:29.522996 24803 net.cpp:148] Top shape: 24 528 14 14 (2483712)
I0403 19:28:29.523012 24803 net.cpp:148] Top shape: 24 528 14 14 (2483712)
I0403 19:28:29.523027 24803 net.cpp:148] Top shape: 24 528 14 14 (2483712)
I0403 19:28:29.523039 24803 net.cpp:156] Memory required for data: 1206918432
I0403 19:28:29.523052 24803 layer_factory.hpp:77] Creating layer loss2/ave_pool
I0403 19:28:29.523074 24803 net.cpp:91] Creating Layer loss2/ave_pool
I0403 19:28:29.523092 24803 net.cpp:425] loss2/ave_pool <- inception_4d/output_inception_4d/output_0_split_0
I0403 19:28:29.523110 24803 net.cpp:399] loss2/ave_pool -> loss2/ave_pool
I0403 19:28:29.523444 24803 net.cpp:141] Setting up loss2/ave_pool
I0403 19:28:29.523478 24803 net.cpp:148] Top shape: 24 528 4 4 (202752)
I0403 19:28:29.523495 24803 net.cpp:156] Memory required for data: 1207729440
I0403 19:28:29.523514 24803 layer_factory.hpp:77] Creating layer loss2/conv
I0403 19:28:29.523532 24803 net.cpp:91] Creating Layer loss2/conv
I0403 19:28:29.523550 24803 net.cpp:425] loss2/conv <- loss2/ave_pool
I0403 19:28:29.523572 24803 net.cpp:399] loss2/conv -> loss2/conv
I0403 19:28:29.525470 24803 net.cpp:141] Setting up loss2/conv
I0403 19:28:29.525501 24803 net.cpp:148] Top shape: 24 128 4 4 (49152)
I0403 19:28:29.525519 24803 net.cpp:156] Memory required for data: 1207926048
I0403 19:28:29.525539 24803 layer_factory.hpp:77] Creating layer loss2/relu_conv
I0403 19:28:29.525559 24803 net.cpp:91] Creating Layer loss2/relu_conv
I0403 19:28:29.525575 24803 net.cpp:425] loss2/relu_conv <- loss2/conv
I0403 19:28:29.525598 24803 net.cpp:386] loss2/relu_conv -> loss2/conv (in-place)
I0403 19:28:29.525882 24803 net.cpp:141] Setting up loss2/relu_conv
I0403 19:28:29.525913 24803 net.cpp:148] Top shape: 24 128 4 4 (49152)
I0403 19:28:29.525929 24803 net.cpp:156] Memory required for data: 1208122656
I0403 19:28:29.525945 24803 layer_factory.hpp:77] Creating layer loss2/fc
I0403 19:28:29.525964 24803 net.cpp:91] Creating Layer loss2/fc
I0403 19:28:29.525979 24803 net.cpp:425] loss2/fc <- loss2/conv
I0403 19:28:29.526001 24803 net.cpp:399] loss2/fc -> loss2/fc
I0403 19:28:29.543642 24803 net.cpp:141] Setting up loss2/fc
I0403 19:28:29.543679 24803 net.cpp:148] Top shape: 24 1024 (24576)
I0403 19:28:29.543696 24803 net.cpp:156] Memory required for data: 1208220960
I0403 19:28:29.543716 24803 layer_factory.hpp:77] Creating layer loss2/relu_fc
I0403 19:28:29.543737 24803 net.cpp:91] Creating Layer loss2/relu_fc
I0403 19:28:29.543756 24803 net.cpp:425] loss2/relu_fc <- loss2/fc
I0403 19:28:29.543773 24803 net.cpp:386] loss2/relu_fc -> loss2/fc (in-place)
I0403 19:28:29.544060 24803 net.cpp:141] Setting up loss2/relu_fc
I0403 19:28:29.544095 24803 net.cpp:148] Top shape: 24 1024 (24576)
I0403 19:28:29.544113 24803 net.cpp:156] Memory required for data: 1208319264
I0403 19:28:29.544128 24803 layer_factory.hpp:77] Creating layer loss2/drop_fc
I0403 19:28:29.544145 24803 net.cpp:91] Creating Layer loss2/drop_fc
I0403 19:28:29.544160 24803 net.cpp:425] loss2/drop_fc <- loss2/fc
I0403 19:28:29.544178 24803 net.cpp:386] loss2/drop_fc -> loss2/fc (in-place)
I0403 19:28:29.544229 24803 net.cpp:141] Setting up loss2/drop_fc
I0403 19:28:29.544263 24803 net.cpp:148] Top shape: 24 1024 (24576)
I0403 19:28:29.544286 24803 net.cpp:156] Memory required for data: 1208417568
I0403 19:28:29.544301 24803 layer_factory.hpp:77] Creating layer loss2/classifier_plantvillage
I0403 19:28:29.544324 24803 net.cpp:91] Creating Layer loss2/classifier_plantvillage
I0403 19:28:29.544343 24803 net.cpp:425] loss2/classifier_plantvillage <- loss2/fc
I0403 19:28:29.544363 24803 net.cpp:399] loss2/classifier_plantvillage -> loss2/classifier_plantvillage
I0403 19:28:29.544771 24803 net.cpp:141] Setting up loss2/classifier_plantvillage
I0403 19:28:29.544800 24803 net.cpp:148] Top shape: 24 38 (912)
I0403 19:28:29.544834 24803 net.cpp:156] Memory required for data: 1208421216
I0403 19:28:29.544854 24803 layer_factory.hpp:77] Creating layer loss2/classifier_plantvillage_loss2/classifier_plantvillage_0_split
I0403 19:28:29.544873 24803 net.cpp:91] Creating Layer loss2/classifier_plantvillage_loss2/classifier_plantvillage_0_split
I0403 19:28:29.544891 24803 net.cpp:425] loss2/classifier_plantvillage_loss2/classifier_plantvillage_0_split <- loss2/classifier_plantvillage
I0403 19:28:29.544914 24803 net.cpp:399] loss2/classifier_plantvillage_loss2/classifier_plantvillage_0_split -> loss2/classifier_plantvillage_loss2/classifier_plantvillage_0_split_0
I0403 19:28:29.544937 24803 net.cpp:399] loss2/classifier_plantvillage_loss2/classifier_plantvillage_0_split -> loss2/classifier_plantvillage_loss2/classifier_plantvillage_0_split_1
I0403 19:28:29.544963 24803 net.cpp:399] loss2/classifier_plantvillage_loss2/classifier_plantvillage_0_split -> loss2/classifier_plantvillage_loss2/classifier_plantvillage_0_split_2
I0403 19:28:29.545056 24803 net.cpp:141] Setting up loss2/classifier_plantvillage_loss2/classifier_plantvillage_0_split
I0403 19:28:29.545084 24803 net.cpp:148] Top shape: 24 38 (912)
I0403 19:28:29.545102 24803 net.cpp:148] Top shape: 24 38 (912)
I0403 19:28:29.545119 24803 net.cpp:148] Top shape: 24 38 (912)
I0403 19:28:29.545135 24803 net.cpp:156] Memory required for data: 1208432160
I0403 19:28:29.545151 24803 layer_factory.hpp:77] Creating layer inception_4e/1x1
I0403 19:28:29.545172 24803 net.cpp:91] Creating Layer inception_4e/1x1
I0403 19:28:29.545188 24803 net.cpp:425] inception_4e/1x1 <- inception_4d/output_inception_4d/output_0_split_1
I0403 19:28:29.545207 24803 net.cpp:399] inception_4e/1x1 -> inception_4e/1x1
I0403 19:28:29.546949 24803 net.cpp:141] Setting up inception_4e/1x1
I0403 19:28:29.546979 24803 net.cpp:148] Top shape: 24 256 14 14 (1204224)
I0403 19:28:29.546998 24803 net.cpp:156] Memory required for data: 1213249056
I0403 19:28:29.547018 24803 layer_factory.hpp:77] Creating layer inception_4e/relu_1x1
I0403 19:28:29.547035 24803 net.cpp:91] Creating Layer inception_4e/relu_1x1
I0403 19:28:29.547051 24803 net.cpp:425] inception_4e/relu_1x1 <- inception_4e/1x1
I0403 19:28:29.547072 24803 net.cpp:386] inception_4e/relu_1x1 -> inception_4e/1x1 (in-place)
I0403 19:28:29.547366 24803 net.cpp:141] Setting up inception_4e/relu_1x1
I0403 19:28:29.547394 24803 net.cpp:148] Top shape: 24 256 14 14 (1204224)
I0403 19:28:29.547410 24803 net.cpp:156] Memory required for data: 1218065952
I0403 19:28:29.547426 24803 layer_factory.hpp:77] Creating layer inception_4e/3x3_reduce
I0403 19:28:29.547449 24803 net.cpp:91] Creating Layer inception_4e/3x3_reduce
I0403 19:28:29.547471 24803 net.cpp:425] inception_4e/3x3_reduce <- inception_4d/output_inception_4d/output_0_split_2
I0403 19:28:29.547492 24803 net.cpp:399] inception_4e/3x3_reduce -> inception_4e/3x3_reduce
I0403 19:28:29.549583 24803 net.cpp:141] Setting up inception_4e/3x3_reduce
I0403 19:28:29.549618 24803 net.cpp:148] Top shape: 24 160 14 14 (752640)
I0403 19:28:29.549638 24803 net.cpp:156] Memory required for data: 1221076512
I0403 19:28:29.549656 24803 layer_factory.hpp:77] Creating layer inception_4e/relu_3x3_reduce
I0403 19:28:29.549676 24803 net.cpp:91] Creating Layer inception_4e/relu_3x3_reduce
I0403 19:28:29.549691 24803 net.cpp:425] inception_4e/relu_3x3_reduce <- inception_4e/3x3_reduce
I0403 19:28:29.549712 24803 net.cpp:386] inception_4e/relu_3x3_reduce -> inception_4e/3x3_reduce (in-place)
I0403 19:28:29.549896 24803 net.cpp:141] Setting up inception_4e/relu_3x3_reduce
I0403 19:28:29.549922 24803 net.cpp:148] Top shape: 24 160 14 14 (752640)
I0403 19:28:29.549938 24803 net.cpp:156] Memory required for data: 1224087072
I0403 19:28:29.549952 24803 layer_factory.hpp:77] Creating layer inception_4e/3x3
I0403 19:28:29.549975 24803 net.cpp:91] Creating Layer inception_4e/3x3
I0403 19:28:29.549995 24803 net.cpp:425] inception_4e/3x3 <- inception_4e/3x3_reduce
I0403 19:28:29.550019 24803 net.cpp:399] inception_4e/3x3 -> inception_4e/3x3
I0403 19:28:29.554826 24803 net.cpp:141] Setting up inception_4e/3x3
I0403 19:28:29.554867 24803 net.cpp:148] Top shape: 24 320 14 14 (1505280)
I0403 19:28:29.554885 24803 net.cpp:156] Memory required for data: 1230108192
I0403 19:28:29.554903 24803 layer_factory.hpp:77] Creating layer inception_4e/relu_3x3
I0403 19:28:29.554924 24803 net.cpp:91] Creating Layer inception_4e/relu_3x3
I0403 19:28:29.554944 24803 net.cpp:425] inception_4e/relu_3x3 <- inception_4e/3x3
I0403 19:28:29.554962 24803 net.cpp:386] inception_4e/relu_3x3 -> inception_4e/3x3 (in-place)
I0403 19:28:29.555258 24803 net.cpp:141] Setting up inception_4e/relu_3x3
I0403 19:28:29.555289 24803 net.cpp:148] Top shape: 24 320 14 14 (1505280)
I0403 19:28:29.555306 24803 net.cpp:156] Memory required for data: 1236129312
I0403 19:28:29.555320 24803 layer_factory.hpp:77] Creating layer inception_4e/5x5_reduce
I0403 19:28:29.555343 24803 net.cpp:91] Creating Layer inception_4e/5x5_reduce
I0403 19:28:29.555366 24803 net.cpp:425] inception_4e/5x5_reduce <- inception_4d/output_inception_4d/output_0_split_3
I0403 19:28:29.555388 24803 net.cpp:399] inception_4e/5x5_reduce -> inception_4e/5x5_reduce
I0403 19:28:29.556413 24803 net.cpp:141] Setting up inception_4e/5x5_reduce
I0403 19:28:29.556443 24803 net.cpp:148] Top shape: 24 32 14 14 (150528)
I0403 19:28:29.556460 24803 net.cpp:156] Memory required for data: 1236731424
I0403 19:28:29.556478 24803 layer_factory.hpp:77] Creating layer inception_4e/relu_5x5_reduce
I0403 19:28:29.556499 24803 net.cpp:91] Creating Layer inception_4e/relu_5x5_reduce
I0403 19:28:29.556517 24803 net.cpp:425] inception_4e/relu_5x5_reduce <- inception_4e/5x5_reduce
I0403 19:28:29.556538 24803 net.cpp:386] inception_4e/relu_5x5_reduce -> inception_4e/5x5_reduce (in-place)
I0403 19:28:29.556826 24803 net.cpp:141] Setting up inception_4e/relu_5x5_reduce
I0403 19:28:29.556855 24803 net.cpp:148] Top shape: 24 32 14 14 (150528)
I0403 19:28:29.556870 24803 net.cpp:156] Memory required for data: 1237333536
I0403 19:28:29.556887 24803 layer_factory.hpp:77] Creating layer inception_4e/5x5
I0403 19:28:29.556928 24803 net.cpp:91] Creating Layer inception_4e/5x5
I0403 19:28:29.556952 24803 net.cpp:425] inception_4e/5x5 <- inception_4e/5x5_reduce
I0403 19:28:29.556972 24803 net.cpp:399] inception_4e/5x5 -> inception_4e/5x5
I0403 19:28:29.558717 24803 net.cpp:141] Setting up inception_4e/5x5
I0403 19:28:29.558748 24803 net.cpp:148] Top shape: 24 128 14 14 (602112)
I0403 19:28:29.558763 24803 net.cpp:156] Memory required for data: 1239741984
I0403 19:28:29.558784 24803 layer_factory.hpp:77] Creating layer inception_4e/relu_5x5
I0403 19:28:29.558801 24803 net.cpp:91] Creating Layer inception_4e/relu_5x5
I0403 19:28:29.558818 24803 net.cpp:425] inception_4e/relu_5x5 <- inception_4e/5x5
I0403 19:28:29.558836 24803 net.cpp:386] inception_4e/relu_5x5 -> inception_4e/5x5 (in-place)
I0403 19:28:29.559029 24803 net.cpp:141] Setting up inception_4e/relu_5x5
I0403 19:28:29.559056 24803 net.cpp:148] Top shape: 24 128 14 14 (602112)
I0403 19:28:29.559072 24803 net.cpp:156] Memory required for data: 1242150432
I0403 19:28:29.559088 24803 layer_factory.hpp:77] Creating layer inception_4e/pool
I0403 19:28:29.559108 24803 net.cpp:91] Creating Layer inception_4e/pool
I0403 19:28:29.559123 24803 net.cpp:425] inception_4e/pool <- inception_4d/output_inception_4d/output_0_split_4
I0403 19:28:29.559144 24803 net.cpp:399] inception_4e/pool -> inception_4e/pool
I0403 19:28:29.559212 24803 net.cpp:141] Setting up inception_4e/pool
I0403 19:28:29.559242 24803 net.cpp:148] Top shape: 24 528 14 14 (2483712)
I0403 19:28:29.559265 24803 net.cpp:156] Memory required for data: 1252085280
I0403 19:28:29.559283 24803 layer_factory.hpp:77] Creating layer inception_4e/pool_proj
I0403 19:28:29.559305 24803 net.cpp:91] Creating Layer inception_4e/pool_proj
I0403 19:28:29.559322 24803 net.cpp:425] inception_4e/pool_proj <- inception_4e/pool
I0403 19:28:29.559342 24803 net.cpp:399] inception_4e/pool_proj -> inception_4e/pool_proj
I0403 19:28:29.560777 24803 net.cpp:141] Setting up inception_4e/pool_proj
I0403 19:28:29.560820 24803 net.cpp:148] Top shape: 24 128 14 14 (602112)
I0403 19:28:29.560842 24803 net.cpp:156] Memory required for data: 1254493728
I0403 19:28:29.560860 24803 layer_factory.hpp:77] Creating layer inception_4e/relu_pool_proj
I0403 19:28:29.560880 24803 net.cpp:91] Creating Layer inception_4e/relu_pool_proj
I0403 19:28:29.560897 24803 net.cpp:425] inception_4e/relu_pool_proj <- inception_4e/pool_proj
I0403 19:28:29.560915 24803 net.cpp:386] inception_4e/relu_pool_proj -> inception_4e/pool_proj (in-place)
I0403 19:28:29.561203 24803 net.cpp:141] Setting up inception_4e/relu_pool_proj
I0403 19:28:29.561234 24803 net.cpp:148] Top shape: 24 128 14 14 (602112)
I0403 19:28:29.561252 24803 net.cpp:156] Memory required for data: 1256902176
I0403 19:28:29.561274 24803 layer_factory.hpp:77] Creating layer inception_4e/output
I0403 19:28:29.561292 24803 net.cpp:91] Creating Layer inception_4e/output
I0403 19:28:29.561311 24803 net.cpp:425] inception_4e/output <- inception_4e/1x1
I0403 19:28:29.561327 24803 net.cpp:425] inception_4e/output <- inception_4e/3x3
I0403 19:28:29.561344 24803 net.cpp:425] inception_4e/output <- inception_4e/5x5
I0403 19:28:29.561362 24803 net.cpp:425] inception_4e/output <- inception_4e/pool_proj
I0403 19:28:29.561378 24803 net.cpp:399] inception_4e/output -> inception_4e/output
I0403 19:28:29.561430 24803 net.cpp:141] Setting up inception_4e/output
I0403 19:28:29.561456 24803 net.cpp:148] Top shape: 24 832 14 14 (3913728)
I0403 19:28:29.561473 24803 net.cpp:156] Memory required for data: 1272557088
I0403 19:28:29.561487 24803 layer_factory.hpp:77] Creating layer pool4/3x3_s2
I0403 19:28:29.561509 24803 net.cpp:91] Creating Layer pool4/3x3_s2
I0403 19:28:29.561527 24803 net.cpp:425] pool4/3x3_s2 <- inception_4e/output
I0403 19:28:29.561547 24803 net.cpp:399] pool4/3x3_s2 -> pool4/3x3_s2
I0403 19:28:29.561614 24803 net.cpp:141] Setting up pool4/3x3_s2
I0403 19:28:29.561640 24803 net.cpp:148] Top shape: 24 832 7 7 (978432)
I0403 19:28:29.561655 24803 net.cpp:156] Memory required for data: 1276470816
I0403 19:28:29.561671 24803 layer_factory.hpp:77] Creating layer pool4/3x3_s2_pool4/3x3_s2_0_split
I0403 19:28:29.561689 24803 net.cpp:91] Creating Layer pool4/3x3_s2_pool4/3x3_s2_0_split
I0403 19:28:29.561703 24803 net.cpp:425] pool4/3x3_s2_pool4/3x3_s2_0_split <- pool4/3x3_s2
I0403 19:28:29.561724 24803 net.cpp:399] pool4/3x3_s2_pool4/3x3_s2_0_split -> pool4/3x3_s2_pool4/3x3_s2_0_split_0
I0403 19:28:29.561746 24803 net.cpp:399] pool4/3x3_s2_pool4/3x3_s2_0_split -> pool4/3x3_s2_pool4/3x3_s2_0_split_1
I0403 19:28:29.561769 24803 net.cpp:399] pool4/3x3_s2_pool4/3x3_s2_0_split -> pool4/3x3_s2_pool4/3x3_s2_0_split_2
I0403 19:28:29.561792 24803 net.cpp:399] pool4/3x3_s2_pool4/3x3_s2_0_split -> pool4/3x3_s2_pool4/3x3_s2_0_split_3
I0403 19:28:29.561882 24803 net.cpp:141] Setting up pool4/3x3_s2_pool4/3x3_s2_0_split
I0403 19:28:29.561908 24803 net.cpp:148] Top shape: 24 832 7 7 (978432)
I0403 19:28:29.561924 24803 net.cpp:148] Top shape: 24 832 7 7 (978432)
I0403 19:28:29.561939 24803 net.cpp:148] Top shape: 24 832 7 7 (978432)
I0403 19:28:29.561954 24803 net.cpp:148] Top shape: 24 832 7 7 (978432)
I0403 19:28:29.561969 24803 net.cpp:156] Memory required for data: 1292125728
I0403 19:28:29.561985 24803 layer_factory.hpp:77] Creating layer inception_5a/1x1
I0403 19:28:29.562010 24803 net.cpp:91] Creating Layer inception_5a/1x1
I0403 19:28:29.562029 24803 net.cpp:425] inception_5a/1x1 <- pool4/3x3_s2_pool4/3x3_s2_0_split_0
I0403 19:28:29.562048 24803 net.cpp:399] inception_5a/1x1 -> inception_5a/1x1
I0403 19:28:29.564805 24803 net.cpp:141] Setting up inception_5a/1x1
I0403 19:28:29.564838 24803 net.cpp:148] Top shape: 24 256 7 7 (301056)
I0403 19:28:29.564858 24803 net.cpp:156] Memory required for data: 1293329952
I0403 19:28:29.564877 24803 layer_factory.hpp:77] Creating layer inception_5a/relu_1x1
I0403 19:28:29.564895 24803 net.cpp:91] Creating Layer inception_5a/relu_1x1
I0403 19:28:29.564913 24803 net.cpp:425] inception_5a/relu_1x1 <- inception_5a/1x1
I0403 19:28:29.564934 24803 net.cpp:386] inception_5a/relu_1x1 -> inception_5a/1x1 (in-place)
I0403 19:28:29.565235 24803 net.cpp:141] Setting up inception_5a/relu_1x1
I0403 19:28:29.565273 24803 net.cpp:148] Top shape: 24 256 7 7 (301056)
I0403 19:28:29.565292 24803 net.cpp:156] Memory required for data: 1294534176
I0403 19:28:29.565307 24803 layer_factory.hpp:77] Creating layer inception_5a/3x3_reduce
I0403 19:28:29.565330 24803 net.cpp:91] Creating Layer inception_5a/3x3_reduce
I0403 19:28:29.565348 24803 net.cpp:425] inception_5a/3x3_reduce <- pool4/3x3_s2_pool4/3x3_s2_0_split_1
I0403 19:28:29.565369 24803 net.cpp:399] inception_5a/3x3_reduce -> inception_5a/3x3_reduce
I0403 19:28:29.567730 24803 net.cpp:141] Setting up inception_5a/3x3_reduce
I0403 19:28:29.567760 24803 net.cpp:148] Top shape: 24 160 7 7 (188160)
I0403 19:28:29.567778 24803 net.cpp:156] Memory required for data: 1295286816
I0403 19:28:29.567795 24803 layer_factory.hpp:77] Creating layer inception_5a/relu_3x3_reduce
I0403 19:28:29.567819 24803 net.cpp:91] Creating Layer inception_5a/relu_3x3_reduce
I0403 19:28:29.567838 24803 net.cpp:425] inception_5a/relu_3x3_reduce <- inception_5a/3x3_reduce
I0403 19:28:29.567857 24803 net.cpp:386] inception_5a/relu_3x3_reduce -> inception_5a/3x3_reduce (in-place)
I0403 19:28:29.568044 24803 net.cpp:141] Setting up inception_5a/relu_3x3_reduce
I0403 19:28:29.568073 24803 net.cpp:148] Top shape: 24 160 7 7 (188160)
I0403 19:28:29.568090 24803 net.cpp:156] Memory required for data: 1296039456
I0403 19:28:29.568105 24803 layer_factory.hpp:77] Creating layer inception_5a/3x3
I0403 19:28:29.568128 24803 net.cpp:91] Creating Layer inception_5a/3x3
I0403 19:28:29.568150 24803 net.cpp:425] inception_5a/3x3 <- inception_5a/3x3_reduce
I0403 19:28:29.568171 24803 net.cpp:399] inception_5a/3x3 -> inception_5a/3x3
I0403 19:28:29.573035 24803 net.cpp:141] Setting up inception_5a/3x3
I0403 19:28:29.573071 24803 net.cpp:148] Top shape: 24 320 7 7 (376320)
I0403 19:28:29.573088 24803 net.cpp:156] Memory required for data: 1297544736
I0403 19:28:29.573107 24803 layer_factory.hpp:77] Creating layer inception_5a/relu_3x3
I0403 19:28:29.573127 24803 net.cpp:91] Creating Layer inception_5a/relu_3x3
I0403 19:28:29.573144 24803 net.cpp:425] inception_5a/relu_3x3 <- inception_5a/3x3
I0403 19:28:29.573163 24803 net.cpp:386] inception_5a/relu_3x3 -> inception_5a/3x3 (in-place)
I0403 19:28:29.573454 24803 net.cpp:141] Setting up inception_5a/relu_3x3
I0403 19:28:29.573485 24803 net.cpp:148] Top shape: 24 320 7 7 (376320)
I0403 19:28:29.573503 24803 net.cpp:156] Memory required for data: 1299050016
I0403 19:28:29.573518 24803 layer_factory.hpp:77] Creating layer inception_5a/5x5_reduce
I0403 19:28:29.573541 24803 net.cpp:91] Creating Layer inception_5a/5x5_reduce
I0403 19:28:29.573559 24803 net.cpp:425] inception_5a/5x5_reduce <- pool4/3x3_s2_pool4/3x3_s2_0_split_2
I0403 19:28:29.573580 24803 net.cpp:399] inception_5a/5x5_reduce -> inception_5a/5x5_reduce
I0403 19:28:29.574712 24803 net.cpp:141] Setting up inception_5a/5x5_reduce
I0403 19:28:29.574750 24803 net.cpp:148] Top shape: 24 32 7 7 (37632)
I0403 19:28:29.574769 24803 net.cpp:156] Memory required for data: 1299200544
I0403 19:28:29.574787 24803 layer_factory.hpp:77] Creating layer inception_5a/relu_5x5_reduce
I0403 19:28:29.574806 24803 net.cpp:91] Creating Layer inception_5a/relu_5x5_reduce
I0403 19:28:29.574826 24803 net.cpp:425] inception_5a/relu_5x5_reduce <- inception_5a/5x5_reduce
I0403 19:28:29.574846 24803 net.cpp:386] inception_5a/relu_5x5_reduce -> inception_5a/5x5_reduce (in-place)
I0403 19:28:29.575135 24803 net.cpp:141] Setting up inception_5a/relu_5x5_reduce
I0403 19:28:29.575163 24803 net.cpp:148] Top shape: 24 32 7 7 (37632)
I0403 19:28:29.575179 24803 net.cpp:156] Memory required for data: 1299351072
I0403 19:28:29.575193 24803 layer_factory.hpp:77] Creating layer inception_5a/5x5
I0403 19:28:29.575217 24803 net.cpp:91] Creating Layer inception_5a/5x5
I0403 19:28:29.575233 24803 net.cpp:425] inception_5a/5x5 <- inception_5a/5x5_reduce
I0403 19:28:29.575259 24803 net.cpp:399] inception_5a/5x5 -> inception_5a/5x5
I0403 19:28:29.576906 24803 net.cpp:141] Setting up inception_5a/5x5
I0403 19:28:29.576951 24803 net.cpp:148] Top shape: 24 128 7 7 (150528)
I0403 19:28:29.576972 24803 net.cpp:156] Memory required for data: 1299953184
I0403 19:28:29.576988 24803 layer_factory.hpp:77] Creating layer inception_5a/relu_5x5
I0403 19:28:29.577005 24803 net.cpp:91] Creating Layer inception_5a/relu_5x5
I0403 19:28:29.577021 24803 net.cpp:425] inception_5a/relu_5x5 <- inception_5a/5x5
I0403 19:28:29.577039 24803 net.cpp:386] inception_5a/relu_5x5 -> inception_5a/5x5 (in-place)
I0403 19:28:29.577230 24803 net.cpp:141] Setting up inception_5a/relu_5x5
I0403 19:28:29.577263 24803 net.cpp:148] Top shape: 24 128 7 7 (150528)
I0403 19:28:29.577283 24803 net.cpp:156] Memory required for data: 1300555296
I0403 19:28:29.577299 24803 layer_factory.hpp:77] Creating layer inception_5a/pool
I0403 19:28:29.577316 24803 net.cpp:91] Creating Layer inception_5a/pool
I0403 19:28:29.577333 24803 net.cpp:425] inception_5a/pool <- pool4/3x3_s2_pool4/3x3_s2_0_split_3
I0403 19:28:29.577354 24803 net.cpp:399] inception_5a/pool -> inception_5a/pool
I0403 19:28:29.577422 24803 net.cpp:141] Setting up inception_5a/pool
I0403 19:28:29.577450 24803 net.cpp:148] Top shape: 24 832 7 7 (978432)
I0403 19:28:29.577467 24803 net.cpp:156] Memory required for data: 1304469024
I0403 19:28:29.577482 24803 layer_factory.hpp:77] Creating layer inception_5a/pool_proj
I0403 19:28:29.577505 24803 net.cpp:91] Creating Layer inception_5a/pool_proj
I0403 19:28:29.577523 24803 net.cpp:425] inception_5a/pool_proj <- inception_5a/pool
I0403 19:28:29.577543 24803 net.cpp:399] inception_5a/pool_proj -> inception_5a/pool_proj
I0403 19:28:29.579754 24803 net.cpp:141] Setting up inception_5a/pool_proj
I0403 19:28:29.579787 24803 net.cpp:148] Top shape: 24 128 7 7 (150528)
I0403 19:28:29.579802 24803 net.cpp:156] Memory required for data: 1305071136
I0403 19:28:29.579820 24803 layer_factory.hpp:77] Creating layer inception_5a/relu_pool_proj
I0403 19:28:29.579841 24803 net.cpp:91] Creating Layer inception_5a/relu_pool_proj
I0403 19:28:29.579861 24803 net.cpp:425] inception_5a/relu_pool_proj <- inception_5a/pool_proj
I0403 19:28:29.579880 24803 net.cpp:386] inception_5a/relu_pool_proj -> inception_5a/pool_proj (in-place)
I0403 19:28:29.580166 24803 net.cpp:141] Setting up inception_5a/relu_pool_proj
I0403 19:28:29.580193 24803 net.cpp:148] Top shape: 24 128 7 7 (150528)
I0403 19:28:29.580209 24803 net.cpp:156] Memory required for data: 1305673248
I0403 19:28:29.580224 24803 layer_factory.hpp:77] Creating layer inception_5a/output
I0403 19:28:29.580245 24803 net.cpp:91] Creating Layer inception_5a/output
I0403 19:28:29.580271 24803 net.cpp:425] inception_5a/output <- inception_5a/1x1
I0403 19:28:29.580291 24803 net.cpp:425] inception_5a/output <- inception_5a/3x3
I0403 19:28:29.580307 24803 net.cpp:425] inception_5a/output <- inception_5a/5x5
I0403 19:28:29.580322 24803 net.cpp:425] inception_5a/output <- inception_5a/pool_proj
I0403 19:28:29.580339 24803 net.cpp:399] inception_5a/output -> inception_5a/output
I0403 19:28:29.580391 24803 net.cpp:141] Setting up inception_5a/output
I0403 19:28:29.580420 24803 net.cpp:148] Top shape: 24 832 7 7 (978432)
I0403 19:28:29.580436 24803 net.cpp:156] Memory required for data: 1309586976
I0403 19:28:29.580453 24803 layer_factory.hpp:77] Creating layer inception_5a/output_inception_5a/output_0_split
I0403 19:28:29.580471 24803 net.cpp:91] Creating Layer inception_5a/output_inception_5a/output_0_split
I0403 19:28:29.580487 24803 net.cpp:425] inception_5a/output_inception_5a/output_0_split <- inception_5a/output
I0403 19:28:29.580508 24803 net.cpp:399] inception_5a/output_inception_5a/output_0_split -> inception_5a/output_inception_5a/output_0_split_0
I0403 19:28:29.580533 24803 net.cpp:399] inception_5a/output_inception_5a/output_0_split -> inception_5a/output_inception_5a/output_0_split_1
I0403 19:28:29.580557 24803 net.cpp:399] inception_5a/output_inception_5a/output_0_split -> inception_5a/output_inception_5a/output_0_split_2
I0403 19:28:29.580580 24803 net.cpp:399] inception_5a/output_inception_5a/output_0_split -> inception_5a/output_inception_5a/output_0_split_3
I0403 19:28:29.580692 24803 net.cpp:141] Setting up inception_5a/output_inception_5a/output_0_split
I0403 19:28:29.580724 24803 net.cpp:148] Top shape: 24 832 7 7 (978432)
I0403 19:28:29.580742 24803 net.cpp:148] Top shape: 24 832 7 7 (978432)
I0403 19:28:29.580760 24803 net.cpp:148] Top shape: 24 832 7 7 (978432)
I0403 19:28:29.580775 24803 net.cpp:148] Top shape: 24 832 7 7 (978432)
I0403 19:28:29.580790 24803 net.cpp:156] Memory required for data: 1325241888
I0403 19:28:29.580802 24803 layer_factory.hpp:77] Creating layer inception_5b/1x1
I0403 19:28:29.580826 24803 net.cpp:91] Creating Layer inception_5b/1x1
I0403 19:28:29.580847 24803 net.cpp:425] inception_5b/1x1 <- inception_5a/output_inception_5a/output_0_split_0
I0403 19:28:29.580870 24803 net.cpp:399] inception_5b/1x1 -> inception_5b/1x1
I0403 19:28:29.584616 24803 net.cpp:141] Setting up inception_5b/1x1
I0403 19:28:29.584648 24803 net.cpp:148] Top shape: 24 384 7 7 (451584)
I0403 19:28:29.584666 24803 net.cpp:156] Memory required for data: 1327048224
I0403 19:28:29.584686 24803 layer_factory.hpp:77] Creating layer inception_5b/relu_1x1
I0403 19:28:29.584708 24803 net.cpp:91] Creating Layer inception_5b/relu_1x1
I0403 19:28:29.584728 24803 net.cpp:425] inception_5b/relu_1x1 <- inception_5b/1x1
I0403 19:28:29.584748 24803 net.cpp:386] inception_5b/relu_1x1 -> inception_5b/1x1 (in-place)
I0403 19:28:29.585047 24803 net.cpp:141] Setting up inception_5b/relu_1x1
I0403 19:28:29.585073 24803 net.cpp:148] Top shape: 24 384 7 7 (451584)
I0403 19:28:29.585090 24803 net.cpp:156] Memory required for data: 1328854560
I0403 19:28:29.585106 24803 layer_factory.hpp:77] Creating layer inception_5b/3x3_reduce
I0403 19:28:29.585129 24803 net.cpp:91] Creating Layer inception_5b/3x3_reduce
I0403 19:28:29.585151 24803 net.cpp:425] inception_5b/3x3_reduce <- inception_5a/output_inception_5a/output_0_split_1
I0403 19:28:29.585176 24803 net.cpp:399] inception_5b/3x3_reduce -> inception_5b/3x3_reduce
I0403 19:28:29.587844 24803 net.cpp:141] Setting up inception_5b/3x3_reduce
I0403 19:28:29.587877 24803 net.cpp:148] Top shape: 24 192 7 7 (225792)
I0403 19:28:29.587895 24803 net.cpp:156] Memory required for data: 1329757728
I0403 19:28:29.587915 24803 layer_factory.hpp:77] Creating layer inception_5b/relu_3x3_reduce
I0403 19:28:29.587937 24803 net.cpp:91] Creating Layer inception_5b/relu_3x3_reduce
I0403 19:28:29.587957 24803 net.cpp:425] inception_5b/relu_3x3_reduce <- inception_5b/3x3_reduce
I0403 19:28:29.587977 24803 net.cpp:386] inception_5b/relu_3x3_reduce -> inception_5b/3x3_reduce (in-place)
I0403 19:28:29.588165 24803 net.cpp:141] Setting up inception_5b/relu_3x3_reduce
I0403 19:28:29.588194 24803 net.cpp:148] Top shape: 24 192 7 7 (225792)
I0403 19:28:29.588212 24803 net.cpp:156] Memory required for data: 1330660896
I0403 19:28:29.588227 24803 layer_factory.hpp:77] Creating layer inception_5b/3x3
I0403 19:28:29.588250 24803 net.cpp:91] Creating Layer inception_5b/3x3
I0403 19:28:29.588274 24803 net.cpp:425] inception_5b/3x3 <- inception_5b/3x3_reduce
I0403 19:28:29.588299 24803 net.cpp:399] inception_5b/3x3 -> inception_5b/3x3
I0403 19:28:29.595036 24803 net.cpp:141] Setting up inception_5b/3x3
I0403 19:28:29.595070 24803 net.cpp:148] Top shape: 24 384 7 7 (451584)
I0403 19:28:29.595089 24803 net.cpp:156] Memory required for data: 1332467232
I0403 19:28:29.595108 24803 layer_factory.hpp:77] Creating layer inception_5b/relu_3x3
I0403 19:28:29.595130 24803 net.cpp:91] Creating Layer inception_5b/relu_3x3
I0403 19:28:29.595149 24803 net.cpp:425] inception_5b/relu_3x3 <- inception_5b/3x3
I0403 19:28:29.595167 24803 net.cpp:386] inception_5b/relu_3x3 -> inception_5b/3x3 (in-place)
I0403 19:28:29.595469 24803 net.cpp:141] Setting up inception_5b/relu_3x3
I0403 19:28:29.595501 24803 net.cpp:148] Top shape: 24 384 7 7 (451584)
I0403 19:28:29.595518 24803 net.cpp:156] Memory required for data: 1334273568
I0403 19:28:29.595536 24803 layer_factory.hpp:77] Creating layer inception_5b/5x5_reduce
I0403 19:28:29.595578 24803 net.cpp:91] Creating Layer inception_5b/5x5_reduce
I0403 19:28:29.595600 24803 net.cpp:425] inception_5b/5x5_reduce <- inception_5a/output_inception_5a/output_0_split_2
I0403 19:28:29.595621 24803 net.cpp:399] inception_5b/5x5_reduce -> inception_5b/5x5_reduce
I0403 19:28:29.596880 24803 net.cpp:141] Setting up inception_5b/5x5_reduce
I0403 19:28:29.596915 24803 net.cpp:148] Top shape: 24 48 7 7 (56448)
I0403 19:28:29.596936 24803 net.cpp:156] Memory required for data: 1334499360
I0403 19:28:29.596956 24803 layer_factory.hpp:77] Creating layer inception_5b/relu_5x5_reduce
I0403 19:28:29.596974 24803 net.cpp:91] Creating Layer inception_5b/relu_5x5_reduce
I0403 19:28:29.596992 24803 net.cpp:425] inception_5b/relu_5x5_reduce <- inception_5b/5x5_reduce
I0403 19:28:29.597012 24803 net.cpp:386] inception_5b/relu_5x5_reduce -> inception_5b/5x5_reduce (in-place)
I0403 19:28:29.597405 24803 net.cpp:141] Setting up inception_5b/relu_5x5_reduce
I0403 19:28:29.597436 24803 net.cpp:148] Top shape: 24 48 7 7 (56448)
I0403 19:28:29.597453 24803 net.cpp:156] Memory required for data: 1334725152
I0403 19:28:29.597468 24803 layer_factory.hpp:77] Creating layer inception_5b/5x5
I0403 19:28:29.597491 24803 net.cpp:91] Creating Layer inception_5b/5x5
I0403 19:28:29.597512 24803 net.cpp:425] inception_5b/5x5 <- inception_5b/5x5_reduce
I0403 19:28:29.597533 24803 net.cpp:399] inception_5b/5x5 -> inception_5b/5x5
I0403 19:28:29.599601 24803 net.cpp:141] Setting up inception_5b/5x5
I0403 19:28:29.599632 24803 net.cpp:148] Top shape: 24 128 7 7 (150528)
I0403 19:28:29.599653 24803 net.cpp:156] Memory required for data: 1335327264
I0403 19:28:29.599673 24803 layer_factory.hpp:77] Creating layer inception_5b/relu_5x5
I0403 19:28:29.599692 24803 net.cpp:91] Creating Layer inception_5b/relu_5x5
I0403 19:28:29.599709 24803 net.cpp:425] inception_5b/relu_5x5 <- inception_5b/5x5
I0403 19:28:29.599731 24803 net.cpp:386] inception_5b/relu_5x5 -> inception_5b/5x5 (in-place)
I0403 19:28:29.599922 24803 net.cpp:141] Setting up inception_5b/relu_5x5
I0403 19:28:29.599949 24803 net.cpp:148] Top shape: 24 128 7 7 (150528)
I0403 19:28:29.599966 24803 net.cpp:156] Memory required for data: 1335929376
I0403 19:28:29.599980 24803 layer_factory.hpp:77] Creating layer inception_5b/pool
I0403 19:28:29.599998 24803 net.cpp:91] Creating Layer inception_5b/pool
I0403 19:28:29.600016 24803 net.cpp:425] inception_5b/pool <- inception_5a/output_inception_5a/output_0_split_3
I0403 19:28:29.600039 24803 net.cpp:399] inception_5b/pool -> inception_5b/pool
I0403 19:28:29.600111 24803 net.cpp:141] Setting up inception_5b/pool
I0403 19:28:29.600138 24803 net.cpp:148] Top shape: 24 832 7 7 (978432)
I0403 19:28:29.600154 24803 net.cpp:156] Memory required for data: 1339843104
I0403 19:28:29.600168 24803 layer_factory.hpp:77] Creating layer inception_5b/pool_proj
I0403 19:28:29.600193 24803 net.cpp:91] Creating Layer inception_5b/pool_proj
I0403 19:28:29.600211 24803 net.cpp:425] inception_5b/pool_proj <- inception_5b/pool
I0403 19:28:29.600231 24803 net.cpp:399] inception_5b/pool_proj -> inception_5b/pool_proj
I0403 19:28:29.602463 24803 net.cpp:141] Setting up inception_5b/pool_proj
I0403 19:28:29.602499 24803 net.cpp:148] Top shape: 24 128 7 7 (150528)
I0403 19:28:29.602519 24803 net.cpp:156] Memory required for data: 1340445216
I0403 19:28:29.602537 24803 layer_factory.hpp:77] Creating layer inception_5b/relu_pool_proj
I0403 19:28:29.602557 24803 net.cpp:91] Creating Layer inception_5b/relu_pool_proj
I0403 19:28:29.602576 24803 net.cpp:425] inception_5b/relu_pool_proj <- inception_5b/pool_proj
I0403 19:28:29.602594 24803 net.cpp:386] inception_5b/relu_pool_proj -> inception_5b/pool_proj (in-place)
I0403 19:28:29.602880 24803 net.cpp:141] Setting up inception_5b/relu_pool_proj
I0403 19:28:29.602915 24803 net.cpp:148] Top shape: 24 128 7 7 (150528)
I0403 19:28:29.602931 24803 net.cpp:156] Memory required for data: 1341047328
I0403 19:28:29.602947 24803 layer_factory.hpp:77] Creating layer inception_5b/output
I0403 19:28:29.602967 24803 net.cpp:91] Creating Layer inception_5b/output
I0403 19:28:29.602998 24803 net.cpp:425] inception_5b/output <- inception_5b/1x1
I0403 19:28:29.603018 24803 net.cpp:425] inception_5b/output <- inception_5b/3x3
I0403 19:28:29.603035 24803 net.cpp:425] inception_5b/output <- inception_5b/5x5
I0403 19:28:29.603052 24803 net.cpp:425] inception_5b/output <- inception_5b/pool_proj
I0403 19:28:29.603071 24803 net.cpp:399] inception_5b/output -> inception_5b/output
I0403 19:28:29.603122 24803 net.cpp:141] Setting up inception_5b/output
I0403 19:28:29.603152 24803 net.cpp:148] Top shape: 24 1024 7 7 (1204224)
I0403 19:28:29.603168 24803 net.cpp:156] Memory required for data: 1345864224
I0403 19:28:29.603183 24803 layer_factory.hpp:77] Creating layer pool5/7x7_s1
I0403 19:28:29.603205 24803 net.cpp:91] Creating Layer pool5/7x7_s1
I0403 19:28:29.603225 24803 net.cpp:425] pool5/7x7_s1 <- inception_5b/output
I0403 19:28:29.603245 24803 net.cpp:399] pool5/7x7_s1 -> pool5/7x7_s1
I0403 19:28:29.603461 24803 net.cpp:141] Setting up pool5/7x7_s1
I0403 19:28:29.603492 24803 net.cpp:148] Top shape: 24 1024 1 1 (24576)
I0403 19:28:29.603510 24803 net.cpp:156] Memory required for data: 1345962528
I0403 19:28:29.603525 24803 layer_factory.hpp:77] Creating layer pool5/drop_7x7_s1
I0403 19:28:29.603545 24803 net.cpp:91] Creating Layer pool5/drop_7x7_s1
I0403 19:28:29.603564 24803 net.cpp:425] pool5/drop_7x7_s1 <- pool5/7x7_s1
I0403 19:28:29.603581 24803 net.cpp:386] pool5/drop_7x7_s1 -> pool5/7x7_s1 (in-place)
I0403 19:28:29.603633 24803 net.cpp:141] Setting up pool5/drop_7x7_s1
I0403 19:28:29.603660 24803 net.cpp:148] Top shape: 24 1024 1 1 (24576)
I0403 19:28:29.603677 24803 net.cpp:156] Memory required for data: 1346060832
I0403 19:28:29.603691 24803 layer_factory.hpp:77] Creating layer loss3/classifier_plantvillage
I0403 19:28:29.603713 24803 net.cpp:91] Creating Layer loss3/classifier_plantvillage
I0403 19:28:29.603734 24803 net.cpp:425] loss3/classifier_plantvillage <- pool5/7x7_s1
I0403 19:28:29.603752 24803 net.cpp:399] loss3/classifier_plantvillage -> loss3/classifier_plantvillage
I0403 19:28:29.604158 24803 net.cpp:141] Setting up loss3/classifier_plantvillage
I0403 19:28:29.604187 24803 net.cpp:148] Top shape: 24 38 (912)
I0403 19:28:29.604202 24803 net.cpp:156] Memory required for data: 1346064480
I0403 19:28:29.604220 24803 layer_factory.hpp:77] Creating layer loss3/classifier_plantvillage_loss3/classifier_plantvillage_0_split
I0403 19:28:29.604236 24803 net.cpp:91] Creating Layer loss3/classifier_plantvillage_loss3/classifier_plantvillage_0_split
I0403 19:28:29.604252 24803 net.cpp:425] loss3/classifier_plantvillage_loss3/classifier_plantvillage_0_split <- loss3/classifier_plantvillage
I0403 19:28:29.604286 24803 net.cpp:399] loss3/classifier_plantvillage_loss3/classifier_plantvillage_0_split -> loss3/classifier_plantvillage_loss3/classifier_plantvillage_0_split_0
I0403 19:28:29.604311 24803 net.cpp:399] loss3/classifier_plantvillage_loss3/classifier_plantvillage_0_split -> loss3/classifier_plantvillage_loss3/classifier_plantvillage_0_split_1
I0403 19:28:29.604331 24803 net.cpp:399] loss3/classifier_plantvillage_loss3/classifier_plantvillage_0_split -> loss3/classifier_plantvillage_loss3/classifier_plantvillage_0_split_2
I0403 19:28:29.604353 24803 net.cpp:399] loss3/classifier_plantvillage_loss3/classifier_plantvillage_0_split -> loss3/classifier_plantvillage_loss3/classifier_plantvillage_0_split_3
I0403 19:28:29.604459 24803 net.cpp:141] Setting up loss3/classifier_plantvillage_loss3/classifier_plantvillage_0_split
I0403 19:28:29.604486 24803 net.cpp:148] Top shape: 24 38 (912)
I0403 19:28:29.604502 24803 net.cpp:148] Top shape: 24 38 (912)
I0403 19:28:29.604518 24803 net.cpp:148] Top shape: 24 38 (912)
I0403 19:28:29.604533 24803 net.cpp:148] Top shape: 24 38 (912)
I0403 19:28:29.604548 24803 net.cpp:156] Memory required for data: 1346079072
I0403 19:28:29.604564 24803 layer_factory.hpp:77] Creating layer loss1/loss
I0403 19:28:29.604588 24803 net.cpp:91] Creating Layer loss1/loss
I0403 19:28:29.604606 24803 net.cpp:425] loss1/loss <- loss1/classifier_plantvillage_loss1/classifier_plantvillage_0_split_0
I0403 19:28:29.604640 24803 net.cpp:425] loss1/loss <- label_data_1_split_0
…
