…
I0403 19:44:21.898346 25729 net.cpp:313] The NetState phase (1) differed from the phase (0) specified by a rule in layer data
I0403 19:44:21.899926 25729 net.cpp:49] Initializing net from parameters: 
state {
  phase: TEST
}
layer {
  name: "data"
  type: "Data"
  top: "data"
  top: "label"
  include {
    phase: TEST
  }
  transform_param {
    mirror: false
    crop_size: 224
    mean_file: "/home/mohanty/data/final_dataset/lmdb/grayscale-80-20/mean.binaryproto"
  }
  data_param {
    source: "/home/mohanty/data/final_dataset/lmdb/grayscale-80-20/test_db"
    batch_size: 24
    backend: LMDB
  }
}
layer {
  name: "conv1/7x7_s2"
  type: "Convolution"
  bottom: "data"
  top: "conv1/7x7_s2"
  param {
    lr_mult: 1
    decay_mult: 1
  }
  param {
    lr_mult: 2
    decay_mult: 0
  }
  convolution_param {
    num_output: 64
    pad: 3
    kernel_size: 7
    stride: 2
    weight_filler {
      type: "xavier"
      std: 0.1
    }
    bias_filler {
      type: "constant"
      value: 0.2
    }
  }
}
layer {
  name: "conv1/relu_7x7"
  type: "ReLU"
  bottom: "conv1/7x7_s2"
  top: "conv1/7x7_s2"
}
layer {
  name: "pool1/3x3_s2"
  type: "Pooling"
  bottom: "conv1/7x7_s2"
  top: "pool1/3x3_s2"
  pooling_param {
    pool: MAX
    kernel_size: 3
    stride: 2
  }
}
layer {
  name: "pool1/norm1"
  type: "LRN"
  bottom: "pool1/3x3_s2"
  top: "pool1/norm1"
  lrn_param {
    local_size: 5
    alpha: 0.0001
    beta: 0.75
  }
}
layer {
  name: "conv2/3x3_reduce"
  type: "Convolution"
  bottom: "pool1/norm1"
  top: "conv2/3x3_reduce"
  param {
    lr_mult: 1
    decay_mult: 1
  }
  param {
    lr_mult: 2
    decay_mult: 0
  }
  convolution_param {
    num_output: 64
    kernel_size: 1
    weight_filler {
      type: "xavier"
      std: 0.1
    }
    bias_filler {
      type: "constant"
      value: 0.2
    }
  }
}
layer {
  name: "conv2/relu_3x3_reduce"
  type: "ReLU"
  bottom: "conv2/3x3_reduce"
  top: "conv2/3x3_reduce"
}
layer {
  name: "conv2/3x3"
  type: "Convolution"
  bottom: "conv2/3x3_reduce"
  top: "conv2/3x3"
  param {
    lr_mult: 1
    decay_mult: 1
  }
  param {
    lr_mult: 2
    decay_mult: 0
  }
  convolution_param {
    num_output: 192
    pad: 1
    kernel_size: 3
    weight_filler {
      type: "xavier"
      std: 0.03
    }
    bias_filler {
      type: "constant"
      value: 0.2
    }
  }
}
layer {
  name: "conv2/relu_3x3"
  type: "ReLU"
  bottom: "conv2/3x3"
  top: "conv2/3x3"
}
layer {
  name: "conv2/norm2"
  type: "LRN"
  bottom: "conv2/3x3"
  top: "conv2/norm2"
  lrn_param {
    local_size: 5
    alpha: 0.0001
    beta: 0.75
  }
}
layer {
  name: "pool2/3x3_s2"
  type: "Pooling"
  bottom: "conv2/norm2"
  top: "pool2/3x3_s2"
  pooling_param {
    pool: MAX
    kernel_size: 3
    stride: 2
  }
}
layer {
  name: "inception_3a/1x1"
  type: "Convolution"
  bottom: "pool2/3x3_s2"
  top: "inception_3a/1x1"
  param {
    lr_mult: 1
    decay_mult: 1
  }
  param {
    lr_mult: 2
    decay_mult: 0
  }
  convolution_param {
    num_output: 64
    kernel_size: 1
    weight_filler {
      type: "xavier"
      std: 0.03
    }
    bias_filler {
      type: "constant"
      value: 0.2
    }
  }
}
layer {
  name: "inception_3a/relu_1x1"
  type: "ReLU"
  bottom: "inception_3a/1x1"
  top: "inception_3a/1x1"
}
layer {
  name: "inception_3a/3x3_reduce"
  type: "Convolution"
  bottom: "pool2/3x3_s2"
  top: "inception_3a/3x3_reduce"
  param {
    lr_mult: 1
    decay_mult: 1
  }
  param {
    lr_mult: 2
    decay_mult: 0
  }
  convolution_param {
    num_output: 96
    kernel_size: 1
    weight_filler {
      type: "xavier"
      std: 0.09
    }
    bias_filler {
      type: "constant"
      value: 0.2
    }
  }
}
layer {
  name: "inception_3a/relu_3x3_reduce"
  type: "ReLU"
  bottom: "inception_3a/3x3_reduce"
  top: "inception_3a/3x3_reduce"
}
layer {
  name: "inception_3a/3x3"
  type: "Convolution"
  bottom: "inception_3a/3x3_reduce"
  top: "inception_3a/3x3"
  param {
    lr_mult: 1
    decay_mult: 1
  }
  param {
    lr_mult: 2
    decay_mult: 0
  }
  convolution_param {
    num_output: 128
    pad: 1
    kernel_size: 3
    weight_filler {
      type: "xavier"
      std: 0.03
    }
    bias_filler {
      type: "constant"
      value: 0.2
    }
  }
}
layer {
  name: "inception_3a/relu_3x3"
  type: "ReLU"
  bottom: "inception_3a/3x3"
  top: "inception_3a/3x3"
}
layer {
  name: "inception_3a/5x5_reduce"
  type: "Convolution"
  bottom: "pool2/3x3_s2"
  top: "inception_3a/5x5_reduce"
  param {
    lr_mult: 1
    decay_mult: 1
  }
  param {
    lr_mult: 2
    decay_mult: 0
  }
  convolution_param {
    num_output: 16
    kernel_size: 1
    weight_filler {
      type: "xavier"
      std: 0.2
    }
    bias_filler {
      type: "constant"
      value: 0.2
    }
  }
}
layer {
  name: "inception_3a/relu_5x5_reduce"
  type: "ReLU"
  bottom: "inception_3a/5x5_reduce"
  top: "inception_3a/5x5_reduce"
}
layer {
  name: "inception_3a/5x5"
  type: "Convolution"
  bottom: "inception_3a/5x5_reduce"
  top: "inception_3a/5x5"
  param {
    lr_mult: 1
    decay_mult: 1
  }
  param {
    lr_mult: 2
    decay_mult: 0
  }
  convolution_param {
    num_output: 32
    pad: 2
    kernel_size: 5
    weight_filler {
      type: "xavier"
      std: 0.03
    }
    bias_filler {
      type: "constant"
      value: 0.2
    }
  }
}
layer {
  name: "inception_3a/relu_5x5"
  type: "ReLU"
  bottom: "inception_3a/5x5"
  top: "inception_3a/5x5"
}
layer {
  name: "inception_3a/pool"
  type: "Pooling"
  bottom: "pool2/3x3_s2"
  top: "inception_3a/pool"
  pooling_param {
    pool: MAX
    kernel_size: 3
    stride: 1
    pad: 1
  }
}
layer {
  name: "inception_3a/pool_proj"
  type: "Convolution"
  bottom: "inception_3a/pool"
  top: "inception_3a/pool_proj"
  param {
    lr_mult: 1
    decay_mult: 1
  }
  param {
    lr_mult: 2
    decay_mult: 0
  }
  convolution_param {
    num_output: 32
    kernel_size: 1
    weight_filler {
      type: "xavier"
      std: 0.1
    }
    bias_filler {
      type: "constant"
      value: 0.2
    }
  }
}
layer {
  name: "inception_3a/relu_pool_proj"
  type: "ReLU"
  bottom: "inception_3a/pool_proj"
  top: "inception_3a/pool_proj"
}
layer {
  name: "inception_3a/output"
  type: "Concat"
  bottom: "inception_3a/1x1"
  bottom: "inception_3a/3x3"
  bottom: "inception_3a/5x5"
  bottom: "inception_3a/pool_proj"
  top: "inception_3a/output"
}
layer {
  name: "inception_3b/1x1"
  type: "Convolution"
  bottom: "inception_3a/output"
  top: "inception_3b/1x1"
  param {
    lr_mult: 1
    decay_mult: 1
  }
  param {
    lr_mult: 2
    decay_mult: 0
  }
  convolution_param {
    num_output: 128
    kernel_size: 1
    weight_filler {
      type: "xavier"
      std: 0.03
    }
    bias_filler {
      type: "constant"
      value: 0.2
    }
  }
}
layer {
  name: "inception_3b/relu_1x1"
  type: "ReLU"
  bottom: "inception_3b/1x1"
  top: "inception_3b/1x1"
}
layer {
  name: "inception_3b/3x3_reduce"
  type: "Convolution"
  bottom: "inception_3a/output"
  top: "inception_3b/3x3_reduce"
  param {
    lr_mult: 1
    decay_mult: 1
  }
  param {
    lr_mult: 2
    decay_mult: 0
  }
  convolution_param {
    num_output: 128
    kernel_size: 1
    weight_filler {
      type: "xavier"
      std: 0.09
    }
    bias_filler {
      type: "constant"
      value: 0.2
    }
  }
}
layer {
  name: "inception_3b/relu_3x3_reduce"
  type: "ReLU"
  bottom: "inception_3b/3x3_reduce"
  top: "inception_3b/3x3_reduce"
}
layer {
  name: "inception_3b/3x3"
  type: "Convolution"
  bottom: "inception_3b/3x3_reduce"
  top: "inception_3b/3x3"
  param {
    lr_mult: 1
    decay_mult: 1
  }
  param {
    lr_mult: 2
    decay_mult: 0
  }
  convolution_param {
    num_output: 192
    pad: 1
    kernel_size: 3
    weight_filler {
      type: "xavier"
      std: 0.03
    }
    bias_filler {
      type: "constant"
      value: 0.2
    }
  }
}
layer {
  name: "inception_3b/relu_3x3"
  type: "ReLU"
  bottom: "inception_3b/3x3"
  top: "inception_3b/3x3"
}
layer {
  name: "inception_3b/5x5_reduce"
  type: "Convolution"
  bottom: "inception_3a/output"
  top: "inception_3b/5x5_reduce"
  param {
    lr_mult: 1
    decay_mult: 1
  }
  param {
    lr_mult: 2
    decay_mult: 0
  }
  convolution_param {
    num_output: 32
    kernel_size: 1
    weight_filler {
      type: "xavier"
      std: 0.2
    }
    bias_filler {
      type: "constant"
      value: 0.2
    }
  }
}
layer {
  name: "inception_3b/relu_5x5_reduce"
  type: "ReLU"
  bottom: "inception_3b/5x5_reduce"
  top: "inception_3b/5x5_reduce"
}
layer {
  name: "inception_3b/5x5"
  type: "Convolution"
  bottom: "inception_3b/5x5_reduce"
  top: "inception_3b/5x5"
  param {
    lr_mult: 1
    decay_mult: 1
  }
  param {
    lr_mult: 2
    decay_mult: 0
  }
  convolution_param {
    num_output: 96
    pad: 2
    kernel_size: 5
    weight_filler {
      type: "xavier"
      std: 0.03
    }
    bias_filler {
      type: "constant"
      value: 0.2
    }
  }
}
layer {
  name: "inception_3b/relu_5x5"
  type: "ReLU"
  bottom: "inception_3b/5x5"
  top: "inception_3b/5x5"
}
layer {
  name: "inception_3b/pool"
  type: "Pooling"
  bottom: "inception_3a/output"
  top: "inception_3b/pool"
  pooling_param {
    pool: MAX
    kernel_size: 3
    stride: 1
    pad: 1
  }
}
layer {
  name: "inception_3b/pool_proj"
  type: "Convolution"
  bottom: "inception_3b/pool"
  top: "inception_3b/pool_proj"
  param {
    lr_mult: 1
    decay_mult: 1
  }
  param {
    lr_mult: 2
    decay_mult: 0
  }
  convolution_param {
    num_output: 64
    kernel_size: 1
    weight_filler {
      type: "xavier"
      std: 0.1
    }
    bias_filler {
      type: "constant"
      value: 0.2
    }
  }
}
layer {
  name: "inception_3b/relu_pool_proj"
  type: "ReLU"
  bottom: "inception_3b/pool_proj"
  top: "inception_3b/pool_proj"
}
layer {
  name: "inception_3b/output"
  type: "Concat"
  bottom: "inception_3b/1x1"
  bottom: "inception_3b/3x3"
  bottom: "inception_3b/5x5"
  bottom: "inception_3b/pool_proj"
  top: "inception_3b/output"
}
layer {
  name: "pool3/3x3_s2"
  type: "Pooling"
  bottom: "inception_3b/output"
  top: "pool3/3x3_s2"
  pooling_param {
    pool: MAX
    kernel_size: 3
    stride: 2
  }
}
layer {
  name: "inception_4a/1x1"
  type: "Convolution"
  bottom: "pool3/3x3_s2"
  top: "inception_4a/1x1"
  param {
    lr_mult: 1
    decay_mult: 1
  }
  param {
    lr_mult: 2
    decay_mult: 0
  }
  convolution_param {
    num_output: 192
    kernel_size: 1
    weight_filler {
      type: "xavier"
      std: 0.03
    }
    bias_filler {
      type: "constant"
      value: 0.2
    }
  }
}
layer {
  name: "inception_4a/relu_1x1"
  type: "ReLU"
  bottom: "inception_4a/1x1"
  top: "inception_4a/1x1"
}
layer {
  name: "inception_4a/3x3_reduce"
  type: "Convolution"
  bottom: "pool3/3x3_s2"
  top: "inception_4a/3x3_reduce"
  param {
    lr_mult: 1
    decay_mult: 1
  }
  param {
    lr_mult: 2
    decay_mult: 0
  }
  convolution_param {
    num_output: 96
    kernel_size: 1
    weight_filler {
      type: "xavier"
      std: 0.09
    }
    bias_filler {
      type: "constant"
      value: 0.2
    }
  }
}
layer {
  name: "inception_4a/relu_3x3_reduce"
  type: "ReLU"
  bottom: "inception_4a/3x3_reduce"
  top: "inception_4a/3x3_reduce"
}
layer {
  name: "inception_4a/3x3"
  type: "Convolution"
  bottom: "inception_4a/3x3_reduce"
  top: "inception_4a/3x3"
  param {
    lr_mult: 1
    decay_mult: 1
  }
  param {
    lr_mult: 2
    decay_mult: 0
  }
  convolution_param {
    num_output: 208
    pad: 1
    kernel_size: 3
    weight_filler {
      type: "xavier"
      std: 0.03
    }
    bias_filler {
      type: "constant"
      value: 0.2
    }
  }
}
layer {
  name: "inception_4a/relu_3x3"
  type: "ReLU"
  bottom: "inception_4a/3x3"
  top: "inception_4a/3x3"
}
layer {
  name: "inception_4a/5x5_reduce"
  type: "Convolution"
  bottom: "pool3/3x3_s2"
  top: "inception_4a/5x5_reduce"
  param {
    lr_mult: 1
    decay_mult: 1
  }
  param {
    lr_mult: 2
    decay_mult: 0
  }
  convolution_param {
    num_output: 16
    kernel_size: 1
    weight_filler {
      type: "xavier"
      std: 0.2
    }
    bias_filler {
      type: "constant"
      value: 0.2
    }
  }
}
layer {
  name: "inception_4a/relu_5x5_reduce"
  type: "ReLU"
  bottom: "inception_4a/5x5_reduce"
  top: "inception_4a/5x5_reduce"
}
layer {
  name: "inception_4a/5x5"
  type: "Convolution"
  bottom: "inception_4a/5x5_reduce"
  top: "inception_4a/5x5"
  param {
    lr_mult: 1
    decay_mult: 1
  }
  param {
    lr_mult: 2
    decay_mult: 0
  }
  convolution_param {
    num_output: 48
    pad: 2
    kernel_size: 5
    weight_filler {
      type: "xavier"
      std: 0.03
    }
    bias_filler {
      type: "constant"
      value: 0.2
    }
  }
}
layer {
  name: "inception_4a/relu_5x5"
  type: "ReLU"
  bottom: "inception_4a/5x5"
  top: "inception_4a/5x5"
}
layer {
  name: "inception_4a/pool"
  type: "Pooling"
  bottom: "pool3/3x3_s2"
  top: "inception_4a/pool"
  pooling_param {
    pool: MAX
    kernel_size: 3
    stride: 1
    pad: 1
  }
}
layer {
  name: "inception_4a/pool_proj"
  type: "Convolution"
  bottom: "inception_4a/pool"
  top: "inception_4a/pool_proj"
  param {
    lr_mult: 1
    decay_mult: 1
  }
  param {
    lr_mult: 2
    decay_mult: 0
  }
  convolution_param {
    num_output: 64
    kernel_size: 1
    weight_filler {
      type: "xavier"
      std: 0.1
    }
    bias_filler {
      type: "constant"
      value: 0.2
    }
  }
}
layer {
  name: "inception_4a/relu_pool_proj"
  type: "ReLU"
  bottom: "inception_4a/pool_proj"
  top: "inception_4a/pool_proj"
}
layer {
  name: "inception_4a/output"
  type: "Concat"
  bottom: "inception_4a/1x1"
  bottom: "inception_4a/3x3"
  bottom: "inception_4a/5x5"
  bottom: "inception_4a/pool_proj"
  top: "inception_4a/output"
}
layer {
  name: "loss1/ave_pool"
  type: "Pooling"
  bottom: "inception_4a/output"
  top: "loss1/ave_pool"
  pooling_param {
    pool: AVE
    kernel_size: 5
    stride: 3
  }
}
layer {
  name: "loss1/conv"
  type: "Convolution"
  bottom: "loss1/ave_pool"
  top: "loss1/conv"
  param {
    lr_mult: 1
    decay_mult: 1
  }
  param {
    lr_mult: 2
    decay_mult: 0
  }
  convolution_param {
    num_output: 128
    kernel_size: 1
    weight_filler {
      type: "xavier"
      std: 0.08
    }
    bias_filler {
      type: "constant"
      value: 0.2
    }
  }
}
layer {
  name: "loss1/relu_conv"
  type: "ReLU"
  bottom: "loss1/conv"
  top: "loss1/conv"
}
layer {
  name: "loss1/fc"
  type: "InnerProduct"
  bottom: "loss1/conv"
  top: "loss1/fc"
  param {
    lr_mult: 1
    decay_mult: 1
  }
  param {
    lr_mult: 2
    decay_mult: 0
  }
  inner_product_param {
    num_output: 1024
    weight_filler {
      type: "xavier"
      std: 0.02
    }
    bias_filler {
      type: "constant"
      value: 0.2
    }
  }
}
layer {
  name: "loss1/relu_fc"
  type: "ReLU"
  bottom: "loss1/fc"
  top: "loss1/fc"
}
layer {
  name: "loss1/drop_fc"
  type: "Dropout"
  bottom: "loss1/fc"
  top: "loss1/fc"
  dropout_param {
    dropout_ratio: 0.7
  }
}
layer {
  name: "loss1/classifier_plantvillage"
  type: "InnerProduct"
  bottom: "loss1/fc"
  top: "loss1/classifier_plantvillage"
  param {
    lr_mult: 1
    decay_mult: 1
  }
  param {
    lr_mult: 2
    decay_mult: 0
  }
  inner_product_param {
    num_output: 38
    weight_filler {
      type: "xavier"
      std: 0.0009765625
    }
    bias_filler {
      type: "constant"
      value: 0
    }
  }
}
layer {
  name: "inception_4b/1x1"
  type: "Convolution"
  bottom: "inception_4a/output"
  top: "inception_4b/1x1"
  param {
    lr_mult: 1
    decay_mult: 1
  }
  param {
    lr_mult: 2
    decay_mult: 0
  }
  convolution_param {
    num_output: 160
    kernel_size: 1
    weight_filler {
      type: "xavier"
      std: 0.03
    }
    bias_filler {
      type: "constant"
      value: 0.2
    }
  }
}
layer {
  name: "inception_4b/relu_1x1"
  type: "ReLU"
  bottom: "inception_4b/1x1"
  top: "inception_4b/1x1"
}
layer {
  name: "inception_4b/3x3_reduce"
  type: "Convolution"
  bottom: "inception_4a/output"
  top: "inception_4b/3x3_reduce"
  param {
    lr_mult: 1
    decay_mult: 1
  }
  param {
    lr_mult: 2
    decay_mult: 0
  }
  convolution_param {
    num_output: 112
    kernel_size: 1
    weight_filler {
      type: "xavier"
      std: 0.09
    }
    bias_filler {
      type: "constant"
      value: 0.2
    }
  }
}
layer {
  name: "inception_4b/relu_3x3_reduce"
  type: "ReLU"
  bottom: "inception_4b/3x3_reduce"
  top: "inception_4b/3x3_reduce"
}
layer {
  name: "inception_4b/3x3"
  type: "Convolution"
  bottom: "inception_4b/3x3_reduce"
  top: "inception_4b/3x3"
  param {
    lr_mult: 1
    decay_mult: 1
  }
  param {
    lr_mult: 2
    decay_mult: 0
  }
  convolution_param {
    num_output: 224
    pad: 1
    kernel_size: 3
    weight_filler {
      type: "xavier"
      std: 0.03
    }
    bias_filler {
      type: "constant"
      value: 0.2
    }
  }
}
layer {
  name: "inception_4b/relu_3x3"
  type: "ReLU"
  bottom: "inception_4b/3x3"
  top: "inception_4b/3x3"
}
layer {
  name: "inception_4b/5x5_reduce"
  type: "Convolution"
  bottom: "inception_4a/output"
  top: "inception_4b/5x5_reduce"
  param {
    lr_mult: 1
    decay_mult: 1
  }
  param {
    lr_mult: 2
    decay_mult: 0
  }
  convolution_param {
    num_output: 24
    kernel_size: 1
    weight_filler {
      type: "xavier"
      std: 0.2
    }
    bias_filler {
      type: "constant"
      value: 0.2
    }
  }
}
layer {
  name: "inception_4b/relu_5x5_reduce"
  type: "ReLU"
  bottom: "inception_4b/5x5_reduce"
  top: "inception_4b/5x5_reduce"
}
layer {
  name: "inception_4b/5x5"
  type: "Convolution"
  bottom: "inception_4b/5x5_reduce"
  top: "inception_4b/5x5"
  param {
    lr_mult: 1
    decay_mult: 1
  }
  param {
    lr_mult: 2
    decay_mult: 0
  }
  convolution_param {
    num_output: 64
    pad: 2
    kernel_size: 5
    weight_filler {
      type: "xavier"
      std: 0.03
    }
    bias_filler {
      type: "constant"
      value: 0.2
    }
  }
}
layer {
  name: "inception_4b/relu_5x5"
  type: "ReLU"
  bottom: "inception_4b/5x5"
  top: "inception_4b/5x5"
}
layer {
  name: "inception_4b/pool"
  type: "Pooling"
  bottom: "inception_4a/output"
  top: "inception_4b/pool"
  pooling_param {
    pool: MAX
    kernel_size: 3
    stride: 1
    pad: 1
  }
}
layer {
  name: "inception_4b/pool_proj"
  type: "Convolution"
  bottom: "inception_4b/pool"
  top: "inception_4b/pool_proj"
  param {
    lr_mult: 1
    decay_mult: 1
  }
  param {
    lr_mult: 2
    decay_mult: 0
  }
  convolution_param {
    num_output: 64
    kernel_size: 1
    weight_filler {
      type: "xavier"
      std: 0.1
    }
    bias_filler {
      type: "constant"
      value: 0.2
    }
  }
}
layer {
  name: "inception_4b/relu_pool_proj"
  type: "ReLU"
  bottom: "inception_4b/pool_proj"
  top: "inception_4b/pool_proj"
}
layer {
  name: "inception_4b/output"
  type: "Concat"
  bottom: "inception_4b/1x1"
  bottom: "inception_4b/3x3"
  bottom: "inception_4b/5x5"
  bottom: "inception_4b/pool_proj"
  top: "inception_4b/output"
}
layer {
  name: "inception_4c/1x1"
  type: "Convolution"
  bottom: "inception_4b/output"
  top: "inception_4c/1x1"
  param {
    lr_mult: 1
    decay_mult: 1
  }
  param {
    lr_mult: 2
    decay_mult: 0
  }
  convolution_param {
    num_output: 128
    kernel_size: 1
    weight_filler {
      type: "xavier"
      std: 0.03
    }
    bias_filler {
      type: "constant"
      value: 0.2
    }
  }
}
layer {
  name: "inception_4c/relu_1x1"
  type: "ReLU"
  bottom: "inception_4c/1x1"
  top: "inception_4c/1x1"
}
layer {
  name: "inception_4c/3x3_reduce"
  type: "Convolution"
  bottom: "inception_4b/output"
  top: "inception_4c/3x3_reduce"
  param {
    lr_mult: 1
    decay_mult: 1
  }
  param {
    lr_mult: 2
    decay_mult: 0
  }
  convolution_param {
    num_output: 128
    kernel_size: 1
    weight_filler {
      type: "xavier"
      std: 0.09
    }
    bias_filler {
      type: "constant"
      value: 0.2
    }
  }
}
layer {
  name: "inception_4c/relu_3x3_reduce"
  type: "ReLU"
  bottom: "inception_4c/3x3_reduce"
  top: "inception_4c/3x3_reduce"
}
layer {
  name: "inception_4c/3x3"
  type: "Convolution"
  bottom: "inception_4c/3x3_reduce"
  top: "inception_4c/3x3"
  param {
    lr_mult: 1
    decay_mult: 1
  }
  param {
    lr_mult: 2
    decay_mult: 0
  }
  convolution_param {
    num_output: 256
    pad: 1
    kernel_size: 3
    weight_filler {
      type: "xavier"
      std: 0.03
    }
    bias_filler {
      type: "constant"
      value: 0.2
    }
  }
}
layer {
  name: "inception_4c/relu_3x3"
  type: "ReLU"
  bottom: "inception_4c/3x3"
  top: "inception_4c/3x3"
}
layer {
  name: "inception_4c/5x5_reduce"
  type: "Convolution"
  bottom: "inception_4b/output"
  top: "inception_4c/5x5_reduce"
  param {
    lr_mult: 1
    decay_mult: 1
  }
  param {
    lr_mult: 2
    decay_mult: 0
  }
  convolution_param {
    num_output: 24
    kernel_size: 1
    weight_filler {
      type: "xavier"
      std: 0.2
    }
    bias_filler {
      type: "constant"
      value: 0.2
    }
  }
}
layer {
  name: "inception_4c/relu_5x5_reduce"
  type: "ReLU"
  bottom: "inception_4c/5x5_reduce"
  top: "inception_4c/5x5_reduce"
}
layer {
  name: "inception_4c/5x5"
  type: "Convolution"
  bottom: "inception_4c/5x5_reduce"
  top: "inception_4c/5x5"
  param {
    lr_mult: 1
    decay_mult: 1
  }
  param {
    lr_mult: 2
    decay_mult: 0
  }
  convolution_param {
    num_output: 64
    pad: 2
    kernel_size: 5
    weight_filler {
      type: "xavier"
      std: 0.03
    }
    bias_filler {
      type: "constant"
      value: 0.2
    }
  }
}
layer {
  name: "inception_4c/relu_5x5"
  type: "ReLU"
  bottom: "inception_4c/5x5"
  top: "inception_4c/5x5"
}
layer {
  name: "inception_4c/pool"
  type: "Pooling"
  bottom: "inception_4b/output"
  top: "inception_4c/pool"
  pooling_param {
    pool: MAX
    kernel_size: 3
    stride: 1
    pad: 1
  }
}
layer {
  name: "inception_4c/pool_proj"
  type: "Convolution"
  bottom: "inception_4c/pool"
  top: "inception_4c/pool_proj"
  param {
    lr_mult: 1
    decay_mult: 1
  }
  param {
    lr_mult: 2
    decay_mult: 0
  }
  convolution_param {
    num_output: 64
    kernel_size: 1
    weight_filler {
      type: "xavier"
      std: 0.1
    }
    bias_filler {
      type: "constant"
      value: 0.2
    }
  }
}
layer {
  name: "inception_4c/relu_pool_proj"
  type: "ReLU"
  bottom: "inception_4c/pool_proj"
  top: "inception_4c/pool_proj"
}
layer {
  name: "inception_4c/output"
  type: "Concat"
  bottom: "inception_4c/1x1"
  bottom: "inception_4c/3x3"
  bottom: "inception_4c/5x5"
  bottom: "inception_4c/pool_proj"
  top: "inception_4c/output"
}
layer {
  name: "inception_4d/1x1"
  type: "Convolution"
  bottom: "inception_4c/output"
  top: "inception_4d/1x1"
  param {
    lr_mult: 1
    decay_mult: 1
  }
  param {
    lr_mult: 2
    decay_mult: 0
  }
  convolution_param {
    num_output: 112
    kernel_size: 1
    weight_filler {
      type: "xavier"
      std: 0.03
    }
    bias_filler {
      type: "constant"
      value: 0.2
    }
  }
}
layer {
  name: "inception_4d/relu_1x1"
  type: "ReLU"
  bottom: "inception_4d/1x1"
  top: "inception_4d/1x1"
}
layer {
  name: "inception_4d/3x3_reduce"
  type: "Convolution"
  bottom: "inception_4c/output"
  top: "inception_4d/3x3_reduce"
  param {
    lr_mult: 1
    decay_mult: 1
  }
  param {
    lr_mult: 2
    decay_mult: 0
  }
  convolution_param {
    num_output: 144
    kernel_size: 1
    weight_filler {
      type: "xavier"
      std: 0.09
    }
    bias_filler {
      type: "constant"
      value: 0.2
    }
  }
}
layer {
  name: "inception_4d/relu_3x3_reduce"
  type: "ReLU"
  bottom: "inception_4d/3x3_reduce"
  top: "inception_4d/3x3_reduce"
}
layer {
  name: "inception_4d/3x3"
  type: "Convolution"
  bottom: "inception_4d/3x3_reduce"
  top: "inception_4d/3x3"
  param {
    lr_mult: 1
    decay_mult: 1
  }
  param {
    lr_mult: 2
    decay_mult: 0
  }
  convolution_param {
    num_output: 288
    pad: 1
    kernel_size: 3
    weight_filler {
      type: "xavier"
      std: 0.03
    }
    bias_filler {
      type: "constant"
      value: 0.2
    }
  }
}
layer {
  name: "inception_4d/relu_3x3"
  type: "ReLU"
  bottom: "inception_4d/3x3"
  top: "inception_4d/3x3"
}
layer {
  name: "inception_4d/5x5_reduce"
  type: "Convolution"
  bottom: "inception_4c/output"
  top: "inception_4d/5x5_reduce"
  param {
    lr_mult: 1
    decay_mult: 1
  }
  param {
    lr_mult: 2
    decay_mult: 0
  }
  convolution_param {
    num_output: 32
    kernel_size: 1
    weight_filler {
      type: "xavier"
      std: 0.2
    }
    bias_filler {
      type: "constant"
      value: 0.2
    }
  }
}
layer {
  name: "inception_4d/relu_5x5_reduce"
  type: "ReLU"
  bottom: "inception_4d/5x5_reduce"
  top: "inception_4d/5x5_reduce"
}
layer {
  name: "inception_4d/5x5"
  type: "Convolution"
  bottom: "inception_4d/5x5_reduce"
  top: "inception_4d/5x5"
  param {
    lr_mult: 1
    decay_mult: 1
  }
  param {
    lr_mult: 2
    decay_mult: 0
  }
  convolution_param {
    num_output: 64
    pad: 2
    kernel_size: 5
    weight_filler {
      type: "xavier"
      std: 0.03
    }
    bias_filler {
      type: "constant"
      value: 0.2
    }
  }
}
layer {
  name: "inception_4d/relu_5x5"
  type: "ReLU"
  bottom: "inception_4d/5x5"
  top: "inception_4d/5x5"
}
layer {
  name: "inception_4d/pool"
  type: "Pooling"
  bottom: "inception_4c/output"
  top: "inception_4d/pool"
  pooling_param {
    pool: MAX
    kernel_size: 3
    stride: 1
    pad: 1
  }
}
layer {
  name: "inception_4d/pool_proj"
  type: "Convolution"
  bottom: "inception_4d/pool"
  top: "inception_4d/pool_proj"
  param {
    lr_mult: 1
    decay_mult: 1
  }
  param {
    lr_mult: 2
    decay_mult: 0
  }
  convolution_param {
    num_output: 64
    kernel_size: 1
    weight_filler {
      type: "xavier"
      std: 0.1
    }
    bias_filler {
      type: "constant"
      value: 0.2
    }
  }
}
layer {
  name: "inception_4d/relu_pool_proj"
  type: "ReLU"
  bottom: "inception_4d/pool_proj"
  top: "inception_4d/pool_proj"
}
layer {
  name: "inception_4d/output"
  type: "Concat"
  bottom: "inception_4d/1x1"
  bottom: "inception_4d/3x3"
  bottom: "inception_4d/5x5"
  bottom: "inception_4d/pool_proj"
  top: "inception_4d/output"
}
layer {
  name: "loss2/ave_pool"
  type: "Pooling"
  bottom: "inception_4d/output"
  top: "loss2/ave_pool"
  pooling_param {
    pool: AVE
    kernel_size: 5
    stride: 3
  }
}
layer {
  name: "loss2/conv"
  type: "Convolution"
  bottom: "loss2/ave_pool"
  top: "loss2/conv"
  param {
    lr_mult: 1
    decay_mult: 1
  }
  param {
    lr_mult: 2
    decay_mult: 0
  }
  convolution_param {
    num_output: 128
    kernel_size: 1
    weight_filler {
      type: "xavier"
      std: 0.08
    }
    bias_filler {
      type: "constant"
      value: 0.2
    }
  }
}
layer {
  name: "loss2/relu_conv"
  type: "ReLU"
  bottom: "loss2/conv"
  top: "loss2/conv"
}
layer {
  name: "loss2/fc"
  type: "InnerProduct"
  bottom: "loss2/conv"
  top: "loss2/fc"
  param {
    lr_mult: 1
    decay_mult: 1
  }
  param {
    lr_mult: 2
    decay_mult: 0
  }
  inner_product_param {
    num_output: 1024
    weight_filler {
      type: "xavier"
      std: 0.02
    }
    bias_filler {
      type: "constant"
      value: 0.2
    }
  }
}
layer {
  name: "loss2/relu_fc"
  type: "ReLU"
  bottom: "loss2/fc"
  top: "loss2/fc"
}
layer {
  name: "loss2/drop_fc"
  type: "Dropout"
  bottom: "loss2/fc"
  top: "loss2/fc"
  dropout_param {
    dropout_ratio: 0.7
  }
}
layer {
  name: "loss2/classifier_plantvillage"
  type: "InnerProduct"
  bottom: "loss2/fc"
  top: "loss2/classifier_plantvillage"
  param {
    lr_mult: 1
    decay_mult: 1
  }
  param {
    lr_mult: 2
    decay_mult: 0
  }
  inner_product_param {
    num_output: 38
    weight_filler {
      type: "xavier"
      std: 0.0009765625
    }
    bias_filler {
      type: "constant"
      value: 0
    }
  }
}
layer {
  name: "inception_4e/1x1"
  type: "Convolution"
  bottom: "inception_4d/output"
  top: "inception_4e/1x1"
  param {
    lr_mult: 1
    decay_mult: 1
  }
  param {
    lr_mult: 2
    decay_mult: 0
  }
  convolution_param {
    num_output: 256
    kernel_size: 1
    weight_filler {
      type: "xavier"
      std: 0.03
    }
    bias_filler {
      type: "constant"
      value: 0.2
    }
  }
}
layer {
  name: "inception_4e/relu_1x1"
  type: "ReLU"
  bottom: "inception_4e/1x1"
  top: "inception_4e/1x1"
}
layer {
  name: "inception_4e/3x3_reduce"
  type: "Convolution"
  bottom: "inception_4d/output"
  top: "inception_4e/3x3_reduce"
  param {
    lr_mult: 1
    decay_mult: 1
  }
  param {
    lr_mult: 2
    decay_mult: 0
  }
  convolution_param {
    num_output: 160
    kernel_size: 1
    weight_filler {
      type: "xavier"
      std: 0.09
    }
    bias_filler {
      type: "constant"
      value: 0.2
    }
  }
}
layer {
  name: "inception_4e/relu_3x3_reduce"
  type: "ReLU"
  bottom: "inception_4e/3x3_reduce"
  top: "inception_4e/3x3_reduce"
}
layer {
  name: "inception_4e/3x3"
  type: "Convolution"
  bottom: "inception_4e/3x3_reduce"
  top: "inception_4e/3x3"
  param {
    lr_mult: 1
    decay_mult: 1
  }
  param {
    lr_mult: 2
    decay_mult: 0
  }
  convolution_param {
    num_output: 320
    pad: 1
    kernel_size: 3
    weight_filler {
      type: "xavier"
      std: 0.03
    }
    bias_filler {
      type: "constant"
      value: 0.2
    }
  }
}
layer {
  name: "inception_4e/relu_3x3"
  type: "ReLU"
  bottom: "inception_4e/3x3"
  top: "inception_4e/3x3"
}
layer {
  name: "inception_4e/5x5_reduce"
  type: "Convolution"
  bottom: "inception_4d/output"
  top: "inception_4e/5x5_reduce"
  param {
    lr_mult: 1
    decay_mult: 1
  }
  param {
    lr_mult: 2
    decay_mult: 0
  }
  convolution_param {
    num_output: 32
    kernel_size: 1
    weight_filler {
      type: "xavier"
      std: 0.2
    }
    bias_filler {
      type: "constant"
      value: 0.2
    }
  }
}
layer {
  name: "inception_4e/relu_5x5_reduce"
  type: "ReLU"
  bottom: "inception_4e/5x5_reduce"
  top: "inception_4e/5x5_reduce"
}
layer {
  name: "inception_4e/5x5"
  type: "Convolution"
  bottom: "inception_4e/5x5_reduce"
  top: "inception_4e/
I0403 19:44:21.901576 25729 layer_factory.hpp:77] Creating layer data
I0403 19:44:21.902321 25729 net.cpp:91] Creating Layer data
I0403 19:44:21.902362 25729 net.cpp:399] data -> data
I0403 19:44:21.902441 25729 net.cpp:399] data -> label
I0403 19:44:21.902490 25729 data_transformer.cpp:25] Loading mean file from: /home/mohanty/data/final_dataset/lmdb/grayscale-80-20/mean.binaryproto
I0403 19:44:21.903815 25732 db_lmdb.cpp:38] Opened lmdb /home/mohanty/data/final_dataset/lmdb/grayscale-80-20/test_db
I0403 19:44:21.919051 25729 data_layer.cpp:41] output data size: 24,3,224,224
I0403 19:44:21.951979 25729 net.cpp:141] Setting up data
I0403 19:44:21.952098 25729 net.cpp:148] Top shape: 24 3 224 224 (3612672)
I0403 19:44:21.952127 25729 net.cpp:148] Top shape: 24 (24)
I0403 19:44:21.952148 25729 net.cpp:156] Memory required for data: 14450784
I0403 19:44:21.952190 25729 layer_factory.hpp:77] Creating layer label_data_1_split
I0403 19:44:21.952230 25729 net.cpp:91] Creating Layer label_data_1_split
I0403 19:44:21.952255 25729 net.cpp:425] label_data_1_split <- label
I0403 19:44:21.952304 25729 net.cpp:399] label_data_1_split -> label_data_1_split_0
I0403 19:44:21.952347 25729 net.cpp:399] label_data_1_split -> label_data_1_split_1
I0403 19:44:21.952375 25729 net.cpp:399] label_data_1_split -> label_data_1_split_2
I0403 19:44:21.952405 25729 net.cpp:399] label_data_1_split -> label_data_1_split_3
I0403 19:44:21.952431 25729 net.cpp:399] label_data_1_split -> label_data_1_split_4
I0403 19:44:21.952457 25729 net.cpp:399] label_data_1_split -> label_data_1_split_5
I0403 19:44:21.952482 25729 net.cpp:399] label_data_1_split -> label_data_1_split_6
I0403 19:44:21.952508 25729 net.cpp:399] label_data_1_split -> label_data_1_split_7
I0403 19:44:21.952534 25729 net.cpp:399] label_data_1_split -> label_data_1_split_8
I0403 19:44:21.952561 25729 net.cpp:399] label_data_1_split -> label_data_1_split_9
I0403 19:44:21.952707 25729 net.cpp:141] Setting up label_data_1_split
I0403 19:44:21.952736 25729 net.cpp:148] Top shape: 24 (24)
I0403 19:44:21.952759 25729 net.cpp:148] Top shape: 24 (24)
I0403 19:44:21.952780 25729 net.cpp:148] Top shape: 24 (24)
I0403 19:44:21.952800 25729 net.cpp:148] Top shape: 24 (24)
I0403 19:44:21.952819 25729 net.cpp:148] Top shape: 24 (24)
I0403 19:44:21.952838 25729 net.cpp:148] Top shape: 24 (24)
I0403 19:44:21.952857 25729 net.cpp:148] Top shape: 24 (24)
I0403 19:44:21.952877 25729 net.cpp:148] Top shape: 24 (24)
I0403 19:44:21.952896 25729 net.cpp:148] Top shape: 24 (24)
I0403 19:44:21.952918 25729 net.cpp:148] Top shape: 24 (24)
I0403 19:44:21.952976 25729 net.cpp:156] Memory required for data: 14451744
I0403 19:44:21.952998 25729 layer_factory.hpp:77] Creating layer conv1/7x7_s2
I0403 19:44:21.953044 25729 net.cpp:91] Creating Layer conv1/7x7_s2
I0403 19:44:21.953068 25729 net.cpp:425] conv1/7x7_s2 <- data
I0403 19:44:21.953094 25729 net.cpp:399] conv1/7x7_s2 -> conv1/7x7_s2
I0403 19:44:22.139765 25729 net.cpp:141] Setting up conv1/7x7_s2
I0403 19:44:22.139888 25729 net.cpp:148] Top shape: 24 64 112 112 (19267584)
I0403 19:44:22.139911 25729 net.cpp:156] Memory required for data: 91522080
I0403 19:44:22.139957 25729 layer_factory.hpp:77] Creating layer conv1/relu_7x7
I0403 19:44:22.139997 25729 net.cpp:91] Creating Layer conv1/relu_7x7
I0403 19:44:22.140022 25729 net.cpp:425] conv1/relu_7x7 <- conv1/7x7_s2
I0403 19:44:22.140054 25729 net.cpp:386] conv1/relu_7x7 -> conv1/7x7_s2 (in-place)
I0403 19:44:22.140403 25729 net.cpp:141] Setting up conv1/relu_7x7
I0403 19:44:22.140437 25729 net.cpp:148] Top shape: 24 64 112 112 (19267584)
I0403 19:44:22.140458 25729 net.cpp:156] Memory required for data: 168592416
I0403 19:44:22.140480 25729 layer_factory.hpp:77] Creating layer pool1/3x3_s2
I0403 19:44:22.140512 25729 net.cpp:91] Creating Layer pool1/3x3_s2
I0403 19:44:22.140535 25729 net.cpp:425] pool1/3x3_s2 <- conv1/7x7_s2
I0403 19:44:22.140561 25729 net.cpp:399] pool1/3x3_s2 -> pool1/3x3_s2
I0403 19:44:22.140662 25729 net.cpp:141] Setting up pool1/3x3_s2
I0403 19:44:22.140700 25729 net.cpp:148] Top shape: 24 64 56 56 (4816896)
I0403 19:44:22.140720 25729 net.cpp:156] Memory required for data: 187860000
I0403 19:44:22.140741 25729 layer_factory.hpp:77] Creating layer pool1/norm1
I0403 19:44:22.140774 25729 net.cpp:91] Creating Layer pool1/norm1
I0403 19:44:22.140799 25729 net.cpp:425] pool1/norm1 <- pool1/3x3_s2
I0403 19:44:22.140823 25729 net.cpp:399] pool1/norm1 -> pool1/norm1
I0403 19:44:22.141199 25729 net.cpp:141] Setting up pool1/norm1
I0403 19:44:22.141234 25729 net.cpp:148] Top shape: 24 64 56 56 (4816896)
I0403 19:44:22.141257 25729 net.cpp:156] Memory required for data: 207127584
I0403 19:44:22.141276 25729 layer_factory.hpp:77] Creating layer conv2/3x3_reduce
I0403 19:44:22.141324 25729 net.cpp:91] Creating Layer conv2/3x3_reduce
I0403 19:44:22.141348 25729 net.cpp:425] conv2/3x3_reduce <- pool1/norm1
I0403 19:44:22.141376 25729 net.cpp:399] conv2/3x3_reduce -> conv2/3x3_reduce
I0403 19:44:22.143046 25729 net.cpp:141] Setting up conv2/3x3_reduce
I0403 19:44:22.143086 25729 net.cpp:148] Top shape: 24 64 56 56 (4816896)
I0403 19:44:22.143107 25729 net.cpp:156] Memory required for data: 226395168
I0403 19:44:22.143134 25729 layer_factory.hpp:77] Creating layer conv2/relu_3x3_reduce
I0403 19:44:22.143162 25729 net.cpp:91] Creating Layer conv2/relu_3x3_reduce
I0403 19:44:22.143184 25729 net.cpp:425] conv2/relu_3x3_reduce <- conv2/3x3_reduce
I0403 19:44:22.143208 25729 net.cpp:386] conv2/relu_3x3_reduce -> conv2/3x3_reduce (in-place)
I0403 19:44:22.143535 25729 net.cpp:141] Setting up conv2/relu_3x3_reduce
I0403 19:44:22.143573 25729 net.cpp:148] Top shape: 24 64 56 56 (4816896)
I0403 19:44:22.143592 25729 net.cpp:156] Memory required for data: 245662752
I0403 19:44:22.143611 25729 layer_factory.hpp:77] Creating layer conv2/3x3
I0403 19:44:22.143647 25729 net.cpp:91] Creating Layer conv2/3x3
I0403 19:44:22.143673 25729 net.cpp:425] conv2/3x3 <- conv2/3x3_reduce
I0403 19:44:22.143698 25729 net.cpp:399] conv2/3x3 -> conv2/3x3
I0403 19:44:22.146440 25729 net.cpp:141] Setting up conv2/3x3
I0403 19:44:22.146483 25729 net.cpp:148] Top shape: 24 192 56 56 (14450688)
I0403 19:44:22.146507 25729 net.cpp:156] Memory required for data: 303465504
I0403 19:44:22.146538 25729 layer_factory.hpp:77] Creating layer conv2/relu_3x3
I0403 19:44:22.146569 25729 net.cpp:91] Creating Layer conv2/relu_3x3
I0403 19:44:22.146594 25729 net.cpp:425] conv2/relu_3x3 <- conv2/3x3
I0403 19:44:22.146622 25729 net.cpp:386] conv2/relu_3x3 -> conv2/3x3 (in-place)
I0403 19:44:22.146837 25729 net.cpp:141] Setting up conv2/relu_3x3
I0403 19:44:22.146872 25729 net.cpp:148] Top shape: 24 192 56 56 (14450688)
I0403 19:44:22.146930 25729 net.cpp:156] Memory required for data: 361268256
I0403 19:44:22.146952 25729 layer_factory.hpp:77] Creating layer conv2/norm2
I0403 19:44:22.146981 25729 net.cpp:91] Creating Layer conv2/norm2
I0403 19:44:22.147004 25729 net.cpp:425] conv2/norm2 <- conv2/3x3
I0403 19:44:22.147027 25729 net.cpp:399] conv2/norm2 -> conv2/norm2
I0403 19:44:22.147390 25729 net.cpp:141] Setting up conv2/norm2
I0403 19:44:22.147428 25729 net.cpp:148] Top shape: 24 192 56 56 (14450688)
I0403 19:44:22.147447 25729 net.cpp:156] Memory required for data: 419071008
I0403 19:44:22.147466 25729 layer_factory.hpp:77] Creating layer pool2/3x3_s2
I0403 19:44:22.147493 25729 net.cpp:91] Creating Layer pool2/3x3_s2
I0403 19:44:22.147516 25729 net.cpp:425] pool2/3x3_s2 <- conv2/norm2
I0403 19:44:22.147537 25729 net.cpp:399] pool2/3x3_s2 -> pool2/3x3_s2
I0403 19:44:22.147605 25729 net.cpp:141] Setting up pool2/3x3_s2
I0403 19:44:22.147639 25729 net.cpp:148] Top shape: 24 192 28 28 (3612672)
I0403 19:44:22.147658 25729 net.cpp:156] Memory required for data: 433521696
I0403 19:44:22.147677 25729 layer_factory.hpp:77] Creating layer pool2/3x3_s2_pool2/3x3_s2_0_split
I0403 19:44:22.147701 25729 net.cpp:91] Creating Layer pool2/3x3_s2_pool2/3x3_s2_0_split
I0403 19:44:22.147721 25729 net.cpp:425] pool2/3x3_s2_pool2/3x3_s2_0_split <- pool2/3x3_s2
I0403 19:44:22.147744 25729 net.cpp:399] pool2/3x3_s2_pool2/3x3_s2_0_split -> pool2/3x3_s2_pool2/3x3_s2_0_split_0
I0403 19:44:22.147773 25729 net.cpp:399] pool2/3x3_s2_pool2/3x3_s2_0_split -> pool2/3x3_s2_pool2/3x3_s2_0_split_1
I0403 19:44:22.147799 25729 net.cpp:399] pool2/3x3_s2_pool2/3x3_s2_0_split -> pool2/3x3_s2_pool2/3x3_s2_0_split_2
I0403 19:44:22.147826 25729 net.cpp:399] pool2/3x3_s2_pool2/3x3_s2_0_split -> pool2/3x3_s2_pool2/3x3_s2_0_split_3
I0403 19:44:22.147913 25729 net.cpp:141] Setting up pool2/3x3_s2_pool2/3x3_s2_0_split
I0403 19:44:22.147945 25729 net.cpp:148] Top shape: 24 192 28 28 (3612672)
I0403 19:44:22.147967 25729 net.cpp:148] Top shape: 24 192 28 28 (3612672)
I0403 19:44:22.147986 25729 net.cpp:148] Top shape: 24 192 28 28 (3612672)
I0403 19:44:22.148005 25729 net.cpp:148] Top shape: 24 192 28 28 (3612672)
I0403 19:44:22.148023 25729 net.cpp:156] Memory required for data: 491324448
I0403 19:44:22.148044 25729 layer_factory.hpp:77] Creating layer inception_3a/1x1
I0403 19:44:22.148073 25729 net.cpp:91] Creating Layer inception_3a/1x1
I0403 19:44:22.148097 25729 net.cpp:425] inception_3a/1x1 <- pool2/3x3_s2_pool2/3x3_s2_0_split_0
I0403 19:44:22.148125 25729 net.cpp:399] inception_3a/1x1 -> inception_3a/1x1
I0403 19:44:22.149950 25729 net.cpp:141] Setting up inception_3a/1x1
I0403 19:44:22.149994 25729 net.cpp:148] Top shape: 24 64 28 28 (1204224)
I0403 19:44:22.150017 25729 net.cpp:156] Memory required for data: 496141344
I0403 19:44:22.150041 25729 layer_factory.hpp:77] Creating layer inception_3a/relu_1x1
I0403 19:44:22.150065 25729 net.cpp:91] Creating Layer inception_3a/relu_1x1
I0403 19:44:22.150085 25729 net.cpp:425] inception_3a/relu_1x1 <- inception_3a/1x1
I0403 19:44:22.150105 25729 net.cpp:386] inception_3a/relu_1x1 -> inception_3a/1x1 (in-place)
I0403 19:44:22.150320 25729 net.cpp:141] Setting up inception_3a/relu_1x1
I0403 19:44:22.150357 25729 net.cpp:148] Top shape: 24 64 28 28 (1204224)
I0403 19:44:22.150379 25729 net.cpp:156] Memory required for data: 500958240
I0403 19:44:22.150398 25729 layer_factory.hpp:77] Creating layer inception_3a/3x3_reduce
I0403 19:44:22.150429 25729 net.cpp:91] Creating Layer inception_3a/3x3_reduce
I0403 19:44:22.150452 25729 net.cpp:425] inception_3a/3x3_reduce <- pool2/3x3_s2_pool2/3x3_s2_0_split_1
I0403 19:44:22.150477 25729 net.cpp:399] inception_3a/3x3_reduce -> inception_3a/3x3_reduce
I0403 19:44:22.152485 25729 net.cpp:141] Setting up inception_3a/3x3_reduce
I0403 19:44:22.152529 25729 net.cpp:148] Top shape: 24 96 28 28 (1806336)
I0403 19:44:22.152550 25729 net.cpp:156] Memory required for data: 508183584
I0403 19:44:22.152581 25729 layer_factory.hpp:77] Creating layer inception_3a/relu_3x3_reduce
I0403 19:44:22.152631 25729 net.cpp:91] Creating Layer inception_3a/relu_3x3_reduce
I0403 19:44:22.152655 25729 net.cpp:425] inception_3a/relu_3x3_reduce <- inception_3a/3x3_reduce
I0403 19:44:22.152683 25729 net.cpp:386] inception_3a/relu_3x3_reduce -> inception_3a/3x3_reduce (in-place)
I0403 19:44:22.152906 25729 net.cpp:141] Setting up inception_3a/relu_3x3_reduce
I0403 19:44:22.152941 25729 net.cpp:148] Top shape: 24 96 28 28 (1806336)
I0403 19:44:22.152961 25729 net.cpp:156] Memory required for data: 515408928
I0403 19:44:22.152981 25729 layer_factory.hpp:77] Creating layer inception_3a/3x3
I0403 19:44:22.153012 25729 net.cpp:91] Creating Layer inception_3a/3x3
I0403 19:44:22.153035 25729 net.cpp:425] inception_3a/3x3 <- inception_3a/3x3_reduce
I0403 19:44:22.153064 25729 net.cpp:399] inception_3a/3x3 -> inception_3a/3x3
I0403 19:44:22.155050 25729 net.cpp:141] Setting up inception_3a/3x3
I0403 19:44:22.155092 25729 net.cpp:148] Top shape: 24 128 28 28 (2408448)
I0403 19:44:22.155117 25729 net.cpp:156] Memory required for data: 525042720
I0403 19:44:22.155140 25729 layer_factory.hpp:77] Creating layer inception_3a/relu_3x3
I0403 19:44:22.155164 25729 net.cpp:91] Creating Layer inception_3a/relu_3x3
I0403 19:44:22.155185 25729 net.cpp:425] inception_3a/relu_3x3 <- inception_3a/3x3
I0403 19:44:22.155210 25729 net.cpp:386] inception_3a/relu_3x3 -> inception_3a/3x3 (in-place)
I0403 19:44:22.155549 25729 net.cpp:141] Setting up inception_3a/relu_3x3
I0403 19:44:22.155587 25729 net.cpp:148] Top shape: 24 128 28 28 (2408448)
I0403 19:44:22.155609 25729 net.cpp:156] Memory required for data: 534676512
I0403 19:44:22.155628 25729 layer_factory.hpp:77] Creating layer inception_3a/5x5_reduce
I0403 19:44:22.155658 25729 net.cpp:91] Creating Layer inception_3a/5x5_reduce
I0403 19:44:22.155683 25729 net.cpp:425] inception_3a/5x5_reduce <- pool2/3x3_s2_pool2/3x3_s2_0_split_2
I0403 19:44:22.155705 25729 net.cpp:399] inception_3a/5x5_reduce -> inception_3a/5x5_reduce
I0403 19:44:22.156857 25729 net.cpp:141] Setting up inception_3a/5x5_reduce
I0403 19:44:22.156895 25729 net.cpp:148] Top shape: 24 16 28 28 (301056)
I0403 19:44:22.156916 25729 net.cpp:156] Memory required for data: 535880736
I0403 19:44:22.156940 25729 layer_factory.hpp:77] Creating layer inception_3a/relu_5x5_reduce
I0403 19:44:22.156963 25729 net.cpp:91] Creating Layer inception_3a/relu_5x5_reduce
I0403 19:44:22.156985 25729 net.cpp:425] inception_3a/relu_5x5_reduce <- inception_3a/5x5_reduce
I0403 19:44:22.157011 25729 net.cpp:386] inception_3a/relu_5x5_reduce -> inception_3a/5x5_reduce (in-place)
I0403 19:44:22.157356 25729 net.cpp:141] Setting up inception_3a/relu_5x5_reduce
I0403 19:44:22.157395 25729 net.cpp:148] Top shape: 24 16 28 28 (301056)
I0403 19:44:22.157416 25729 net.cpp:156] Memory required for data: 537084960
I0403 19:44:22.157435 25729 layer_factory.hpp:77] Creating layer inception_3a/5x5
I0403 19:44:22.157462 25729 net.cpp:91] Creating Layer inception_3a/5x5
I0403 19:44:22.157487 25729 net.cpp:425] inception_3a/5x5 <- inception_3a/5x5_reduce
I0403 19:44:22.157516 25729 net.cpp:399] inception_3a/5x5 -> inception_3a/5x5
I0403 19:44:22.158725 25729 net.cpp:141] Setting up inception_3a/5x5
I0403 19:44:22.158768 25729 net.cpp:148] Top shape: 24 32 28 28 (602112)
I0403 19:44:22.158792 25729 net.cpp:156] Memory required for data: 539493408
I0403 19:44:22.158815 25729 layer_factory.hpp:77] Creating layer inception_3a/relu_5x5
I0403 19:44:22.158839 25729 net.cpp:91] Creating Layer inception_3a/relu_5x5
I0403 19:44:22.158862 25729 net.cpp:425] inception_3a/relu_5x5 <- inception_3a/5x5
I0403 19:44:22.158885 25729 net.cpp:386] inception_3a/relu_5x5 -> inception_3a/5x5 (in-place)
I0403 19:44:22.159098 25729 net.cpp:141] Setting up inception_3a/relu_5x5
I0403 19:44:22.159133 25729 net.cpp:148] Top shape: 24 32 28 28 (602112)
I0403 19:44:22.159153 25729 net.cpp:156] Memory required for data: 541901856
I0403 19:44:22.159171 25729 layer_factory.hpp:77] Creating layer inception_3a/pool
I0403 19:44:22.159194 25729 net.cpp:91] Creating Layer inception_3a/pool
I0403 19:44:22.159235 25729 net.cpp:425] inception_3a/pool <- pool2/3x3_s2_pool2/3x3_s2_0_split_3
I0403 19:44:22.159265 25729 net.cpp:399] inception_3a/pool -> inception_3a/pool
I0403 19:44:22.159343 25729 net.cpp:141] Setting up inception_3a/pool
I0403 19:44:22.159378 25729 net.cpp:148] Top shape: 24 192 28 28 (3612672)
I0403 19:44:22.159399 25729 net.cpp:156] Memory required for data: 556352544
I0403 19:44:22.159417 25729 layer_factory.hpp:77] Creating layer inception_3a/pool_proj
I0403 19:44:22.159446 25729 net.cpp:91] Creating Layer inception_3a/pool_proj
I0403 19:44:22.159471 25729 net.cpp:425] inception_3a/pool_proj <- inception_3a/pool
I0403 19:44:22.159495 25729 net.cpp:399] inception_3a/pool_proj -> inception_3a/pool_proj
I0403 19:44:22.160635 25729 net.cpp:141] Setting up inception_3a/pool_proj
I0403 19:44:22.160671 25729 net.cpp:148] Top shape: 24 32 28 28 (602112)
I0403 19:44:22.160692 25729 net.cpp:156] Memory required for data: 558760992
I0403 19:44:22.160722 25729 layer_factory.hpp:77] Creating layer inception_3a/relu_pool_proj
I0403 19:44:22.160749 25729 net.cpp:91] Creating Layer inception_3a/relu_pool_proj
I0403 19:44:22.160771 25729 net.cpp:425] inception_3a/relu_pool_proj <- inception_3a/pool_proj
I0403 19:44:22.160797 25729 net.cpp:386] inception_3a/relu_pool_proj -> inception_3a/pool_proj (in-place)
I0403 19:44:22.161119 25729 net.cpp:141] Setting up inception_3a/relu_pool_proj
I0403 19:44:22.161160 25729 net.cpp:148] Top shape: 24 32 28 28 (602112)
I0403 19:44:22.161182 25729 net.cpp:156] Memory required for data: 561169440
I0403 19:44:22.161202 25729 layer_factory.hpp:77] Creating layer inception_3a/output
I0403 19:44:22.161224 25729 net.cpp:91] Creating Layer inception_3a/output
I0403 19:44:22.161244 25729 net.cpp:425] inception_3a/output <- inception_3a/1x1
I0403 19:44:22.161267 25729 net.cpp:425] inception_3a/output <- inception_3a/3x3
I0403 19:44:22.161293 25729 net.cpp:425] inception_3a/output <- inception_3a/5x5
I0403 19:44:22.161316 25729 net.cpp:425] inception_3a/output <- inception_3a/pool_proj
I0403 19:44:22.161339 25729 net.cpp:399] inception_3a/output -> inception_3a/output
I0403 19:44:22.161401 25729 net.cpp:141] Setting up inception_3a/output
I0403 19:44:22.161435 25729 net.cpp:148] Top shape: 24 256 28 28 (4816896)
I0403 19:44:22.161455 25729 net.cpp:156] Memory required for data: 580437024
I0403 19:44:22.161473 25729 layer_factory.hpp:77] Creating layer inception_3a/output_inception_3a/output_0_split
I0403 19:44:22.161497 25729 net.cpp:91] Creating Layer inception_3a/output_inception_3a/output_0_split
I0403 19:44:22.161517 25729 net.cpp:425] inception_3a/output_inception_3a/output_0_split <- inception_3a/output
I0403 19:44:22.161540 25729 net.cpp:399] inception_3a/output_inception_3a/output_0_split -> inception_3a/output_inception_3a/output_0_split_0
I0403 19:44:22.161566 25729 net.cpp:399] inception_3a/output_inception_3a/output_0_split -> inception_3a/output_inception_3a/output_0_split_1
I0403 19:44:22.161599 25729 net.cpp:399] inception_3a/output_inception_3a/output_0_split -> inception_3a/output_inception_3a/output_0_split_2
I0403 19:44:22.161630 25729 net.cpp:399] inception_3a/output_inception_3a/output_0_split -> inception_3a/output_inception_3a/output_0_split_3
I0403 19:44:22.161722 25729 net.cpp:141] Setting up inception_3a/output_inception_3a/output_0_split
I0403 19:44:22.161754 25729 net.cpp:148] Top shape: 24 256 28 28 (4816896)
I0403 19:44:22.161777 25729 net.cpp:148] Top shape: 24 256 28 28 (4816896)
I0403 19:44:22.161798 25729 net.cpp:148] Top shape: 24 256 28 28 (4816896)
I0403 19:44:22.161818 25729 net.cpp:148] Top shape: 24 256 28 28 (4816896)
I0403 19:44:22.161836 25729 net.cpp:156] Memory required for data: 657507360
I0403 19:44:22.161854 25729 layer_factory.hpp:77] Creating layer inception_3b/1x1
I0403 19:44:22.161885 25729 net.cpp:91] Creating Layer inception_3b/1x1
I0403 19:44:22.161907 25729 net.cpp:425] inception_3b/1x1 <- inception_3a/output_inception_3a/output_0_split_0
I0403 19:44:22.161931 25729 net.cpp:399] inception_3b/1x1 -> inception_3b/1x1
I0403 19:44:22.163439 25729 net.cpp:141] Setting up inception_3b/1x1
I0403 19:44:22.163496 25729 net.cpp:148] Top shape: 24 128 28 28 (2408448)
I0403 19:44:22.163517 25729 net.cpp:156] Memory required for data: 667141152
I0403 19:44:22.163540 25729 layer_factory.hpp:77] Creating layer inception_3b/relu_1x1
I0403 19:44:22.163566 25729 net.cpp:91] Creating Layer inception_3b/relu_1x1
I0403 19:44:22.163591 25729 net.cpp:425] inception_3b/relu_1x1 <- inception_3b/1x1
I0403 19:44:22.163615 25729 net.cpp:386] inception_3b/relu_1x1 -> inception_3b/1x1 (in-place)
I0403 19:44:22.163825 25729 net.cpp:141] Setting up inception_3b/relu_1x1
I0403 19:44:22.163861 25729 net.cpp:148] Top shape: 24 128 28 28 (2408448)
I0403 19:44:22.163882 25729 net.cpp:156] Memory required for data: 676774944
I0403 19:44:22.163902 25729 layer_factory.hpp:77] Creating layer inception_3b/3x3_reduce
I0403 19:44:22.163931 25729 net.cpp:91] Creating Layer inception_3b/3x3_reduce
I0403 19:44:22.163952 25729 net.cpp:425] inception_3b/3x3_reduce <- inception_3a/output_inception_3a/output_0_split_1
I0403 19:44:22.163978 25729 net.cpp:399] inception_3b/3x3_reduce -> inception_3b/3x3_reduce
I0403 19:44:22.165340 25729 net.cpp:141] Setting up inception_3b/3x3_reduce
I0403 19:44:22.165380 25729 net.cpp:148] Top shape: 24 128 28 28 (2408448)
I0403 19:44:22.165402 25729 net.cpp:156] Memory required for data: 686408736
I0403 19:44:22.165426 25729 layer_factory.hpp:77] Creating layer inception_3b/relu_3x3_reduce
I0403 19:44:22.165453 25729 net.cpp:91] Creating Layer inception_3b/relu_3x3_reduce
I0403 19:44:22.165478 25729 net.cpp:425] inception_3b/relu_3x3_reduce <- inception_3b/3x3_reduce
I0403 19:44:22.165501 25729 net.cpp:386] inception_3b/relu_3x3_reduce -> inception_3b/3x3_reduce (in-place)
I0403 19:44:22.165709 25729 net.cpp:141] Setting up inception_3b/relu_3x3_reduce
I0403 19:44:22.165747 25729 net.cpp:148] Top shape: 24 128 28 28 (2408448)
I0403 19:44:22.165768 25729 net.cpp:156] Memory required for data: 696042528
I0403 19:44:22.165788 25729 layer_factory.hpp:77] Creating layer inception_3b/3x3
I0403 19:44:22.165820 25729 net.cpp:91] Creating Layer inception_3b/3x3
I0403 19:44:22.165843 25729 net.cpp:425] inception_3b/3x3 <- inception_3b/3x3_reduce
I0403 19:44:22.165870 25729 net.cpp:399] inception_3b/3x3 -> inception_3b/3x3
I0403 19:44:22.169364 25729 net.cpp:141] Setting up inception_3b/3x3
I0403 19:44:22.169407 25729 net.cpp:148] Top shape: 24 192 28 28 (3612672)
I0403 19:44:22.169430 25729 net.cpp:156] Memory required for data: 710493216
I0403 19:44:22.169456 25729 layer_factory.hpp:77] Creating layer inception_3b/relu_3x3
I0403 19:44:22.169479 25729 net.cpp:91] Creating Layer inception_3b/relu_3x3
I0403 19:44:22.169499 25729 net.cpp:425] inception_3b/relu_3x3 <- inception_3b/3x3
I0403 19:44:22.169522 25729 net.cpp:386] inception_3b/relu_3x3 -> inception_3b/3x3 (in-place)
I0403 19:44:22.169842 25729 net.cpp:141] Setting up inception_3b/relu_3x3
I0403 19:44:22.169883 25729 net.cpp:148] Top shape: 24 192 28 28 (3612672)
I0403 19:44:22.169904 25729 net.cpp:156] Memory required for data: 724943904
I0403 19:44:22.169924 25729 layer_factory.hpp:77] Creating layer inception_3b/5x5_reduce
I0403 19:44:22.169953 25729 net.cpp:91] Creating Layer inception_3b/5x5_reduce
I0403 19:44:22.169975 25729 net.cpp:425] inception_3b/5x5_reduce <- inception_3a/output_inception_3a/output_0_split_2
I0403 19:44:22.170001 25729 net.cpp:399] inception_3b/5x5_reduce -> inception_3b/5x5_reduce
I0403 19:44:22.171175 25729 net.cpp:141] Setting up inception_3b/5x5_reduce
I0403 19:44:22.171216 25729 net.cpp:148] Top shape: 24 32 28 28 (602112)
I0403 19:44:22.171241 25729 net.cpp:156] Memory required for data: 727352352
I0403 19:44:22.171264 25729 layer_factory.hpp:77] Creating layer inception_3b/relu_5x5_reduce
I0403 19:44:22.171293 25729 net.cpp:91] Creating Layer inception_3b/relu_5x5_reduce
I0403 19:44:22.171319 25729 net.cpp:425] inception_3b/relu_5x5_reduce <- inception_3b/5x5_reduce
I0403 19:44:22.171342 25729 net.cpp:386] inception_3b/relu_5x5_reduce -> inception_3b/5x5_reduce (in-place)
I0403 19:44:22.171576 25729 net.cpp:141] Setting up inception_3b/relu_5x5_reduce
I0403 19:44:22.171612 25729 net.cpp:148] Top shape: 24 32 28 28 (602112)
I0403 19:44:22.171633 25729 net.cpp:156] Memory required for data: 729760800
I0403 19:44:22.171653 25729 layer_factory.hpp:77] Creating layer inception_3b/5x5
I0403 19:44:22.171684 25729 net.cpp:91] Creating Layer inception_3b/5x5
I0403 19:44:22.171707 25729 net.cpp:425] inception_3b/5x5 <- inception_3b/5x5_reduce
I0403 19:44:22.171735 25729 net.cpp:399] inception_3b/5x5 -> inception_3b/5x5
I0403 19:44:22.174089 25729 net.cpp:141] Setting up inception_3b/5x5
I0403 19:44:22.174131 25729 net.cpp:148] Top shape: 24 96 28 28 (1806336)
I0403 19:44:22.174154 25729 net.cpp:156] Memory required for data: 736986144
I0403 19:44:22.174176 25729 layer_factory.hpp:77] Creating layer inception_3b/relu_5x5
I0403 19:44:22.174202 25729 net.cpp:91] Creating Layer inception_3b/relu_5x5
I0403 19:44:22.174226 25729 net.cpp:425] inception_3b/relu_5x5 <- inception_3b/5x5
I0403 19:44:22.174248 25729 net.cpp:386] inception_3b/relu_5x5 -> inception_3b/5x5 (in-place)
I0403 19:44:22.174491 25729 net.cpp:141] Setting up inception_3b/relu_5x5
I0403 19:44:22.174528 25729 net.cpp:148] Top shape: 24 96 28 28 (1806336)
I0403 19:44:22.174549 25729 net.cpp:156] Memory required for data: 744211488
I0403 19:44:22.174568 25729 layer_factory.hpp:77] Creating layer inception_3b/pool
I0403 19:44:22.174593 25729 net.cpp:91] Creating Layer inception_3b/pool
I0403 19:44:22.174617 25729 net.cpp:425] inception_3b/pool <- inception_3a/output_inception_3a/output_0_split_3
I0403 19:44:22.174639 25729 net.cpp:399] inception_3b/pool -> inception_3b/pool
I0403 19:44:22.174705 25729 net.cpp:141] Setting up inception_3b/pool
I0403 19:44:22.174737 25729 net.cpp:148] Top shape: 24 256 28 28 (4816896)
I0403 19:44:22.174757 25729 net.cpp:156] Memory required for data: 763479072
I0403 19:44:22.174777 25729 layer_factory.hpp:77] Creating layer inception_3b/pool_proj
I0403 19:44:22.174805 25729 net.cpp:91] Creating Layer inception_3b/pool_proj
I0403 19:44:22.174829 25729 net.cpp:425] inception_3b/pool_proj <- inception_3b/pool
I0403 19:44:22.174855 25729 net.cpp:399] inception_3b/pool_proj -> inception_3b/pool_proj
I0403 19:44:22.176105 25729 net.cpp:141] Setting up inception_3b/pool_proj
I0403 19:44:22.176141 25729 net.cpp:148] Top shape: 24 64 28 28 (1204224)
I0403 19:44:22.176162 25729 net.cpp:156] Memory required for data: 768295968
I0403 19:44:22.176187 25729 layer_factory.hpp:77] Creating layer inception_3b/relu_pool_proj
I0403 19:44:22.176213 25729 net.cpp:91] Creating Layer inception_3b/relu_pool_proj
I0403 19:44:22.176237 25729 net.cpp:425] inception_3b/relu_pool_proj <- inception_3b/pool_proj
I0403 19:44:22.176259 25729 net.cpp:386] inception_3b/relu_pool_proj -> inception_3b/pool_proj (in-place)
I0403 19:44:22.176698 25729 net.cpp:141] Setting up inception_3b/relu_pool_proj
I0403 19:44:22.176736 25729 net.cpp:148] Top shape: 24 64 28 28 (1204224)
I0403 19:44:22.176758 25729 net.cpp:156] Memory required for data: 773112864
I0403 19:44:22.176777 25729 layer_factory.hpp:77] Creating layer inception_3b/output
I0403 19:44:22.176801 25729 net.cpp:91] Creating Layer inception_3b/output
I0403 19:44:22.176820 25729 net.cpp:425] inception_3b/output <- inception_3b/1x1
I0403 19:44:22.176841 25729 net.cpp:425] inception_3b/output <- inception_3b/3x3
I0403 19:44:22.176861 25729 net.cpp:425] inception_3b/output <- inception_3b/5x5
I0403 19:44:22.176880 25729 net.cpp:425] inception_3b/output <- inception_3b/pool_proj
I0403 19:44:22.176906 25729 net.cpp:399] inception_3b/output -> inception_3b/output
I0403 19:44:22.176962 25729 net.cpp:141] Setting up inception_3b/output
I0403 19:44:22.176998 25729 net.cpp:148] Top shape: 24 480 28 28 (9031680)
I0403 19:44:22.177021 25729 net.cpp:156] Memory required for data: 809239584
I0403 19:44:22.177038 25729 layer_factory.hpp:77] Creating layer pool3/3x3_s2
I0403 19:44:22.177062 25729 net.cpp:91] Creating Layer pool3/3x3_s2
I0403 19:44:22.177083 25729 net.cpp:425] pool3/3x3_s2 <- inception_3b/output
I0403 19:44:22.177126 25729 net.cpp:399] pool3/3x3_s2 -> pool3/3x3_s2
I0403 19:44:22.177201 25729 net.cpp:141] Setting up pool3/3x3_s2
I0403 19:44:22.177237 25729 net.cpp:148] Top shape: 24 480 14 14 (2257920)
I0403 19:44:22.177258 25729 net.cpp:156] Memory required for data: 818271264
I0403 19:44:22.177276 25729 layer_factory.hpp:77] Creating layer pool3/3x3_s2_pool3/3x3_s2_0_split
I0403 19:44:22.177306 25729 net.cpp:91] Creating Layer pool3/3x3_s2_pool3/3x3_s2_0_split
I0403 19:44:22.177330 25729 net.cpp:425] pool3/3x3_s2_pool3/3x3_s2_0_split <- pool3/3x3_s2
I0403 19:44:22.177356 25729 net.cpp:399] pool3/3x3_s2_pool3/3x3_s2_0_split -> pool3/3x3_s2_pool3/3x3_s2_0_split_0
I0403 19:44:22.177384 25729 net.cpp:399] pool3/3x3_s2_pool3/3x3_s2_0_split -> pool3/3x3_s2_pool3/3x3_s2_0_split_1
I0403 19:44:22.177412 25729 net.cpp:399] pool3/3x3_s2_pool3/3x3_s2_0_split -> pool3/3x3_s2_pool3/3x3_s2_0_split_2
I0403 19:44:22.177441 25729 net.cpp:399] pool3/3x3_s2_pool3/3x3_s2_0_split -> pool3/3x3_s2_pool3/3x3_s2_0_split_3
I0403 19:44:22.177536 25729 net.cpp:141] Setting up pool3/3x3_s2_pool3/3x3_s2_0_split
I0403 19:44:22.177570 25729 net.cpp:148] Top shape: 24 480 14 14 (2257920)
I0403 19:44:22.177592 25729 net.cpp:148] Top shape: 24 480 14 14 (2257920)
I0403 19:44:22.177611 25729 net.cpp:148] Top shape: 24 480 14 14 (2257920)
I0403 19:44:22.177631 25729 net.cpp:148] Top shape: 24 480 14 14 (2257920)
I0403 19:44:22.177649 25729 net.cpp:156] Memory required for data: 854397984
I0403 19:44:22.177669 25729 layer_factory.hpp:77] Creating layer inception_4a/1x1
I0403 19:44:22.177697 25729 net.cpp:91] Creating Layer inception_4a/1x1
I0403 19:44:22.177721 25729 net.cpp:425] inception_4a/1x1 <- pool3/3x3_s2_pool3/3x3_s2_0_split_0
I0403 19:44:22.177747 25729 net.cpp:399] inception_4a/1x1 -> inception_4a/1x1
I0403 19:44:22.179626 25729 net.cpp:141] Setting up inception_4a/1x1
I0403 19:44:22.179663 25729 net.cpp:148] Top shape: 24 192 14 14 (903168)
I0403 19:44:22.179685 25729 net.cpp:156] Memory required for data: 858010656
I0403 19:44:22.179709 25729 layer_factory.hpp:77] Creating layer inception_4a/relu_1x1
I0403 19:44:22.179738 25729 net.cpp:91] Creating Layer inception_4a/relu_1x1
I0403 19:44:22.179762 25729 net.cpp:425] inception_4a/relu_1x1 <- inception_4a/1x1
I0403 19:44:22.179785 25729 net.cpp:386] inception_4a/relu_1x1 -> inception_4a/1x1 (in-place)
I0403 19:44:22.179996 25729 net.cpp:141] Setting up inception_4a/relu_1x1
I0403 19:44:22.180032 25729 net.cpp:148] Top shape: 24 192 14 14 (903168)
I0403 19:44:22.180052 25729 net.cpp:156] Memory required for data: 861623328
I0403 19:44:22.180069 25729 layer_factory.hpp:77] Creating layer inception_4a/3x3_reduce
I0403 19:44:22.180104 25729 net.cpp:91] Creating Layer inception_4a/3x3_reduce
I0403 19:44:22.180127 25729 net.cpp:425] inception_4a/3x3_reduce <- pool3/3x3_s2_pool3/3x3_s2_0_split_1
I0403 19:44:22.180151 25729 net.cpp:399] inception_4a/3x3_reduce -> inception_4a/3x3_reduce
I0403 19:44:22.181666 25729 net.cpp:141] Setting up inception_4a/3x3_reduce
I0403 19:44:22.181706 25729 net.cpp:148] Top shape: 24 96 14 14 (451584)
I0403 19:44:22.181727 25729 net.cpp:156] Memory required for data: 863429664
I0403 19:44:22.181759 25729 layer_factory.hpp:77] Creating layer inception_4a/relu_3x3_reduce
I0403 19:44:22.181787 25729 net.cpp:91] Creating Layer inception_4a/relu_3x3_reduce
I0403 19:44:22.181809 25729 net.cpp:425] inception_4a/relu_3x3_reduce <- inception_4a/3x3_reduce
I0403 19:44:22.181833 25729 net.cpp:386] inception_4a/relu_3x3_reduce -> inception_4a/3x3_reduce (in-place)
I0403 19:44:22.182044 25729 net.cpp:141] Setting up inception_4a/relu_3x3_reduce
I0403 19:44:22.182080 25729 net.cpp:148] Top shape: 24 96 14 14 (451584)
I0403 19:44:22.182101 25729 net.cpp:156] Memory required for data: 865236000
I0403 19:44:22.182121 25729 layer_factory.hpp:77] Creating layer inception_4a/3x3
I0403 19:44:22.182147 25729 net.cpp:91] Creating Layer inception_4a/3x3
I0403 19:44:22.182169 25729 net.cpp:425] inception_4a/3x3 <- inception_4a/3x3_reduce
I0403 19:44:22.182199 25729 net.cpp:399] inception_4a/3x3 -> inception_4a/3x3
I0403 19:44:22.185444 25729 net.cpp:141] Setting up inception_4a/3x3
I0403 19:44:22.185487 25729 net.cpp:148] Top shape: 24 208 14 14 (978432)
I0403 19:44:22.185508 25729 net.cpp:156] Memory required for data: 869149728
I0403 19:44:22.185533 25729 layer_factory.hpp:77] Creating layer inception_4a/relu_3x3
I0403 19:44:22.185560 25729 net.cpp:91] Creating Layer inception_4a/relu_3x3
I0403 19:44:22.185582 25729 net.cpp:425] inception_4a/relu_3x3 <- inception_4a/3x3
I0403 19:44:22.185606 25729 net.cpp:386] inception_4a/relu_3x3 -> inception_4a/3x3 (in-place)
I0403 19:44:22.185941 25729 net.cpp:141] Setting up inception_4a/relu_3x3
I0403 19:44:22.185981 25729 net.cpp:148] Top shape: 24 208 14 14 (978432)
I0403 19:44:22.186000 25729 net.cpp:156] Memory required for data: 873063456
I0403 19:44:22.186019 25729 layer_factory.hpp:77] Creating layer inception_4a/5x5_reduce
I0403 19:44:22.186048 25729 net.cpp:91] Creating Layer inception_4a/5x5_reduce
I0403 19:44:22.186070 25729 net.cpp:425] inception_4a/5x5_reduce <- pool3/3x3_s2_pool3/3x3_s2_0_split_2
I0403 19:44:22.186097 25729 net.cpp:399] inception_4a/5x5_reduce -> inception_4a/5x5_reduce
I0403 19:44:22.187319 25729 net.cpp:141] Setting up inception_4a/5x5_reduce
I0403 19:44:22.187361 25729 net.cpp:148] Top shape: 24 16 14 14 (75264)
I0403 19:44:22.187384 25729 net.cpp:156] Memory required for data: 873364512
I0403 19:44:22.187408 25729 layer_factory.hpp:77] Creating layer inception_4a/relu_5x5_reduce
I0403 19:44:22.187433 25729 net.cpp:91] Creating Layer inception_4a/relu_5x5_reduce
I0403 19:44:22.187455 25729 net.cpp:425] inception_4a/relu_5x5_reduce <- inception_4a/5x5_reduce
I0403 19:44:22.187479 25729 net.cpp:386] inception_4a/relu_5x5_reduce -> inception_4a/5x5_reduce (in-place)
I0403 19:44:22.187697 25729 net.cpp:141] Setting up inception_4a/relu_5x5_reduce
I0403 19:44:22.187734 25729 net.cpp:148] Top shape: 24 16 14 14 (75264)
I0403 19:44:22.187754 25729 net.cpp:156] Memory required for data: 873665568
I0403 19:44:22.187774 25729 layer_factory.hpp:77] Creating layer inception_4a/5x5
I0403 19:44:22.187803 25729 net.cpp:91] Creating Layer inception_4a/5x5
I0403 19:44:22.187827 25729 net.cpp:425] inception_4a/5x5 <- inception_4a/5x5_reduce
I0403 19:44:22.187855 25729 net.cpp:399] inception_4a/5x5 -> inception_4a/5x5
I0403 19:44:22.189159 25729 net.cpp:141] Setting up inception_4a/5x5
I0403 19:44:22.189198 25729 net.cpp:148] Top shape: 24 48 14 14 (225792)
I0403 19:44:22.189219 25729 net.cpp:156] Memory required for data: 874568736
I0403 19:44:22.189242 25729 layer_factory.hpp:77] Creating layer inception_4a/relu_5x5
I0403 19:44:22.189265 25729 net.cpp:91] Creating Layer inception_4a/relu_5x5
I0403 19:44:22.189292 25729 net.cpp:425] inception_4a/relu_5x5 <- inception_4a/5x5
I0403 19:44:22.189322 25729 net.cpp:386] inception_4a/relu_5x5 -> inception_4a/5x5 (in-place)
I0403 19:44:22.189543 25729 net.cpp:141] Setting up inception_4a/relu_5x5
I0403 19:44:22.189579 25729 net.cpp:148] Top shape: 24 48 14 14 (225792)
I0403 19:44:22.189599 25729 net.cpp:156] Memory required for data: 875471904
I0403 19:44:22.189618 25729 layer_factory.hpp:77] Creating layer inception_4a/pool
I0403 19:44:22.189645 25729 net.cpp:91] Creating Layer inception_4a/pool
I0403 19:44:22.189667 25729 net.cpp:425] inception_4a/pool <- pool3/3x3_s2_pool3/3x3_s2_0_split_3
I0403 19:44:22.189692 25729 net.cpp:399] inception_4a/pool -> inception_4a/pool
I0403 19:44:22.189767 25729 net.cpp:141] Setting up inception_4a/pool
I0403 19:44:22.189800 25729 net.cpp:148] Top shape: 24 480 14 14 (2257920)
I0403 19:44:22.189821 25729 net.cpp:156] Memory required for data: 884503584
I0403 19:44:22.189841 25729 layer_factory.hpp:77] Creating layer inception_4a/pool_proj
I0403 19:44:22.189868 25729 net.cpp:91] Creating Layer inception_4a/pool_proj
I0403 19:44:22.189891 25729 net.cpp:425] inception_4a/pool_proj <- inception_4a/pool
I0403 19:44:22.189918 25729 net.cpp:399] inception_4a/pool_proj -> inception_4a/pool_proj
I0403 19:44:22.191321 25729 net.cpp:141] Setting up inception_4a/pool_proj
I0403 19:44:22.191362 25729 net.cpp:148] Top shape: 24 64 14 14 (301056)
I0403 19:44:22.191404 25729 net.cpp:156] Memory required for data: 885707808
I0403 19:44:22.191431 25729 layer_factory.hpp:77] Creating layer inception_4a/relu_pool_proj
I0403 19:44:22.191459 25729 net.cpp:91] Creating Layer inception_4a/relu_pool_proj
I0403 19:44:22.191483 25729 net.cpp:425] inception_4a/relu_pool_proj <- inception_4a/pool_proj
I0403 19:44:22.191505 25729 net.cpp:386] inception_4a/relu_pool_proj -> inception_4a/pool_proj (in-place)
I0403 19:44:22.191838 25729 net.cpp:141] Setting up inception_4a/relu_pool_proj
I0403 19:44:22.191875 25729 net.cpp:148] Top shape: 24 64 14 14 (301056)
I0403 19:44:22.191897 25729 net.cpp:156] Memory required for data: 886912032
I0403 19:44:22.191917 25729 layer_factory.hpp:77] Creating layer inception_4a/output
I0403 19:44:22.191941 25729 net.cpp:91] Creating Layer inception_4a/output
I0403 19:44:22.191961 25729 net.cpp:425] inception_4a/output <- inception_4a/1x1
I0403 19:44:22.191982 25729 net.cpp:425] inception_4a/output <- inception_4a/3x3
I0403 19:44:22.192001 25729 net.cpp:425] inception_4a/output <- inception_4a/5x5
I0403 19:44:22.192023 25729 net.cpp:425] inception_4a/output <- inception_4a/pool_proj
I0403 19:44:22.192047 25729 net.cpp:399] inception_4a/output -> inception_4a/output
I0403 19:44:22.192103 25729 net.cpp:141] Setting up inception_4a/output
I0403 19:44:22.192139 25729 net.cpp:148] Top shape: 24 512 14 14 (2408448)
I0403 19:44:22.192158 25729 net.cpp:156] Memory required for data: 896545824
I0403 19:44:22.192176 25729 layer_factory.hpp:77] Creating layer inception_4a/output_inception_4a/output_0_split
I0403 19:44:22.192199 25729 net.cpp:91] Creating Layer inception_4a/output_inception_4a/output_0_split
I0403 19:44:22.192219 25729 net.cpp:425] inception_4a/output_inception_4a/output_0_split <- inception_4a/output
I0403 19:44:22.192245 25729 net.cpp:399] inception_4a/output_inception_4a/output_0_split -> inception_4a/output_inception_4a/output_0_split_0
I0403 19:44:22.192272 25729 net.cpp:399] inception_4a/output_inception_4a/output_0_split -> inception_4a/output_inception_4a/output_0_split_1
I0403 19:44:22.192311 25729 net.cpp:399] inception_4a/output_inception_4a/output_0_split -> inception_4a/output_inception_4a/output_0_split_2
I0403 19:44:22.192338 25729 net.cpp:399] inception_4a/output_inception_4a/output_0_split -> inception_4a/output_inception_4a/output_0_split_3
I0403 19:44:22.192365 25729 net.cpp:399] inception_4a/output_inception_4a/output_0_split -> inception_4a/output_inception_4a/output_0_split_4
I0403 19:44:22.192476 25729 net.cpp:141] Setting up inception_4a/output_inception_4a/output_0_split
I0403 19:44:22.192512 25729 net.cpp:148] Top shape: 24 512 14 14 (2408448)
I0403 19:44:22.192535 25729 net.cpp:148] Top shape: 24 512 14 14 (2408448)
I0403 19:44:22.192555 25729 net.cpp:148] Top shape: 24 512 14 14 (2408448)
I0403 19:44:22.192575 25729 net.cpp:148] Top shape: 24 512 14 14 (2408448)
I0403 19:44:22.192594 25729 net.cpp:148] Top shape: 24 512 14 14 (2408448)
I0403 19:44:22.192610 25729 net.cpp:156] Memory required for data: 944714784
I0403 19:44:22.192630 25729 layer_factory.hpp:77] Creating layer loss1/ave_pool
I0403 19:44:22.192654 25729 net.cpp:91] Creating Layer loss1/ave_pool
I0403 19:44:22.192674 25729 net.cpp:425] loss1/ave_pool <- inception_4a/output_inception_4a/output_0_split_0
I0403 19:44:22.192694 25729 net.cpp:399] loss1/ave_pool -> loss1/ave_pool
I0403 19:44:22.192956 25729 net.cpp:141] Setting up loss1/ave_pool
I0403 19:44:22.192991 25729 net.cpp:148] Top shape: 24 512 4 4 (196608)
I0403 19:44:22.193011 25729 net.cpp:156] Memory required for data: 945501216
I0403 19:44:22.193030 25729 layer_factory.hpp:77] Creating layer loss1/conv
I0403 19:44:22.193058 25729 net.cpp:91] Creating Layer loss1/conv
I0403 19:44:22.193084 25729 net.cpp:425] loss1/conv <- loss1/ave_pool
I0403 19:44:22.193111 25729 net.cpp:399] loss1/conv -> loss1/conv
I0403 19:44:22.194826 25729 net.cpp:141] Setting up loss1/conv
I0403 19:44:22.194869 25729 net.cpp:148] Top shape: 24 128 4 4 (49152)
I0403 19:44:22.194911 25729 net.cpp:156] Memory required for data: 945697824
I0403 19:44:22.194938 25729 layer_factory.hpp:77] Creating layer loss1/relu_conv
I0403 19:44:22.194962 25729 net.cpp:91] Creating Layer loss1/relu_conv
I0403 19:44:22.194984 25729 net.cpp:425] loss1/relu_conv <- loss1/conv
I0403 19:44:22.195008 25729 net.cpp:386] loss1/relu_conv -> loss1/conv (in-place)
I0403 19:44:22.195345 25729 net.cpp:141] Setting up loss1/relu_conv
I0403 19:44:22.195387 25729 net.cpp:148] Top shape: 24 128 4 4 (49152)
I0403 19:44:22.195410 25729 net.cpp:156] Memory required for data: 945894432
I0403 19:44:22.195430 25729 layer_factory.hpp:77] Creating layer loss1/fc
I0403 19:44:22.195462 25729 net.cpp:91] Creating Layer loss1/fc
I0403 19:44:22.195487 25729 net.cpp:425] loss1/fc <- loss1/conv
I0403 19:44:22.195513 25729 net.cpp:399] loss1/fc -> loss1/fc
I0403 19:44:22.217628 25729 net.cpp:141] Setting up loss1/fc
I0403 19:44:22.217674 25729 net.cpp:148] Top shape: 24 1024 (24576)
I0403 19:44:22.217695 25729 net.cpp:156] Memory required for data: 945992736
I0403 19:44:22.217717 25729 layer_factory.hpp:77] Creating layer loss1/relu_fc
I0403 19:44:22.217744 25729 net.cpp:91] Creating Layer loss1/relu_fc
I0403 19:44:22.217767 25729 net.cpp:425] loss1/relu_fc <- loss1/fc
I0403 19:44:22.217790 25729 net.cpp:386] loss1/relu_fc -> loss1/fc (in-place)
I0403 19:44:22.218021 25729 net.cpp:141] Setting up loss1/relu_fc
I0403 19:44:22.218056 25729 net.cpp:148] Top shape: 24 1024 (24576)
I0403 19:44:22.218076 25729 net.cpp:156] Memory required for data: 946091040
I0403 19:44:22.218096 25729 layer_factory.hpp:77] Creating layer loss1/drop_fc
I0403 19:44:22.218132 25729 net.cpp:91] Creating Layer loss1/drop_fc
I0403 19:44:22.218155 25729 net.cpp:425] loss1/drop_fc <- loss1/fc
I0403 19:44:22.218178 25729 net.cpp:386] loss1/drop_fc -> loss1/fc (in-place)
I0403 19:44:22.218246 25729 net.cpp:141] Setting up loss1/drop_fc
I0403 19:44:22.218277 25729 net.cpp:148] Top shape: 24 1024 (24576)
I0403 19:44:22.218303 25729 net.cpp:156] Memory required for data: 946189344
I0403 19:44:22.218324 25729 layer_factory.hpp:77] Creating layer loss1/classifier_plantvillage
I0403 19:44:22.218348 25729 net.cpp:91] Creating Layer loss1/classifier_plantvillage
I0403 19:44:22.218369 25729 net.cpp:425] loss1/classifier_plantvillage <- loss1/fc
I0403 19:44:22.218396 25729 net.cpp:399] loss1/classifier_plantvillage -> loss1/classifier_plantvillage
I0403 19:44:22.219494 25729 net.cpp:141] Setting up loss1/classifier_plantvillage
I0403 19:44:22.219535 25729 net.cpp:148] Top shape: 24 38 (912)
I0403 19:44:22.219558 25729 net.cpp:156] Memory required for data: 946192992
I0403 19:44:22.219583 25729 layer_factory.hpp:77] Creating layer loss1/classifier_plantvillage_loss1/classifier_plantvillage_0_split
I0403 19:44:22.219607 25729 net.cpp:91] Creating Layer loss1/classifier_plantvillage_loss1/classifier_plantvillage_0_split
I0403 19:44:22.219630 25729 net.cpp:425] loss1/classifier_plantvillage_loss1/classifier_plantvillage_0_split <- loss1/classifier_plantvillage
I0403 19:44:22.219651 25729 net.cpp:399] loss1/classifier_plantvillage_loss1/classifier_plantvillage_0_split -> loss1/classifier_plantvillage_loss1/classifier_plantvillage_0_split_0
I0403 19:44:22.219677 25729 net.cpp:399] loss1/classifier_plantvillage_loss1/classifier_plantvillage_0_split -> loss1/classifier_plantvillage_loss1/classifier_plantvillage_0_split_1
I0403 19:44:22.219705 25729 net.cpp:399] loss1/classifier_plantvillage_loss1/classifier_plantvillage_0_split -> loss1/classifier_plantvillage_loss1/classifier_plantvillage_0_split_2
I0403 19:44:22.219790 25729 net.cpp:141] Setting up loss1/classifier_plantvillage_loss1/classifier_plantvillage_0_split
I0403 19:44:22.219822 25729 net.cpp:148] Top shape: 24 38 (912)
I0403 19:44:22.219843 25729 net.cpp:148] Top shape: 24 38 (912)
I0403 19:44:22.219864 25729 net.cpp:148] Top shape: 24 38 (912)
I0403 19:44:22.219880 25729 net.cpp:156] Memory required for data: 946203936
I0403 19:44:22.219899 25729 layer_factory.hpp:77] Creating layer inception_4b/1x1
I0403 19:44:22.219926 25729 net.cpp:91] Creating Layer inception_4b/1x1
I0403 19:44:22.219969 25729 net.cpp:425] inception_4b/1x1 <- inception_4a/output_inception_4a/output_0_split_1
I0403 19:44:22.220000 25729 net.cpp:399] inception_4b/1x1 -> inception_4b/1x1
I0403 19:44:22.221962 25729 net.cpp:141] Setting up inception_4b/1x1
I0403 19:44:22.222004 25729 net.cpp:148] Top shape: 24 160 14 14 (752640)
I0403 19:44:22.222028 25729 net.cpp:156] Memory required for data: 949214496
I0403 19:44:22.222050 25729 layer_factory.hpp:77] Creating layer inception_4b/relu_1x1
I0403 19:44:22.222074 25729 net.cpp:91] Creating Layer inception_4b/relu_1x1
I0403 19:44:22.222096 25729 net.cpp:425] inception_4b/relu_1x1 <- inception_4b/1x1
I0403 19:44:22.222121 25729 net.cpp:386] inception_4b/relu_1x1 -> inception_4b/1x1 (in-place)
I0403 19:44:22.222347 25729 net.cpp:141] Setting up inception_4b/relu_1x1
I0403 19:44:22.222386 25729 net.cpp:148] Top shape: 24 160 14 14 (752640)
I0403 19:44:22.222409 25729 net.cpp:156] Memory required for data: 952225056
I0403 19:44:22.222427 25729 layer_factory.hpp:77] Creating layer inception_4b/3x3_reduce
I0403 19:44:22.222456 25729 net.cpp:91] Creating Layer inception_4b/3x3_reduce
I0403 19:44:22.222481 25729 net.cpp:425] inception_4b/3x3_reduce <- inception_4a/output_inception_4a/output_0_split_2
I0403 19:44:22.222509 25729 net.cpp:399] inception_4b/3x3_reduce -> inception_4b/3x3_reduce
I0403 19:44:22.224129 25729 net.cpp:141] Setting up inception_4b/3x3_reduce
I0403 19:44:22.224174 25729 net.cpp:148] Top shape: 24 112 14 14 (526848)
I0403 19:44:22.224197 25729 net.cpp:156] Memory required for data: 954332448
I0403 19:44:22.224222 25729 layer_factory.hpp:77] Creating layer inception_4b/relu_3x3_reduce
I0403 19:44:22.224246 25729 net.cpp:91] Creating Layer inception_4b/relu_3x3_reduce
I0403 19:44:22.224269 25729 net.cpp:425] inception_4b/relu_3x3_reduce <- inception_4b/3x3_reduce
I0403 19:44:22.224308 25729 net.cpp:386] inception_4b/relu_3x3_reduce -> inception_4b/3x3_reduce (in-place)
I0403 19:44:22.224647 25729 net.cpp:141] Setting up inception_4b/relu_3x3_reduce
I0403 19:44:22.224684 25729 net.cpp:148] Top shape: 24 112 14 14 (526848)
I0403 19:44:22.224704 25729 net.cpp:156] Memory required for data: 956439840
I0403 19:44:22.224723 25729 layer_factory.hpp:77] Creating layer inception_4b/3x3
I0403 19:44:22.224750 25729 net.cpp:91] Creating Layer inception_4b/3x3
I0403 19:44:22.224773 25729 net.cpp:425] inception_4b/3x3 <- inception_4b/3x3_reduce
I0403 19:44:22.224798 25729 net.cpp:399] inception_4b/3x3 -> inception_4b/3x3
I0403 19:44:22.228406 25729 net.cpp:141] Setting up inception_4b/3x3
I0403 19:44:22.228443 25729 net.cpp:148] Top shape: 24 224 14 14 (1053696)
I0403 19:44:22.228466 25729 net.cpp:156] Memory required for data: 960654624
I0403 19:44:22.228489 25729 layer_factory.hpp:77] Creating layer inception_4b/relu_3x3
I0403 19:44:22.228518 25729 net.cpp:91] Creating Layer inception_4b/relu_3x3
I0403 19:44:22.228541 25729 net.cpp:425] inception_4b/relu_3x3 <- inception_4b/3x3
I0403 19:44:22.228564 25729 net.cpp:386] inception_4b/relu_3x3 -> inception_4b/3x3 (in-place)
I0403 19:44:22.228788 25729 net.cpp:141] Setting up inception_4b/relu_3x3
I0403 19:44:22.228822 25729 net.cpp:148] Top shape: 24 224 14 14 (1053696)
I0403 19:44:22.228843 25729 net.cpp:156] Memory required for data: 964869408
I0403 19:44:22.228863 25729 layer_factory.hpp:77] Creating layer inception_4b/5x5_reduce
I0403 19:44:22.228893 25729 net.cpp:91] Creating Layer inception_4b/5x5_reduce
I0403 19:44:22.228915 25729 net.cpp:425] inception_4b/5x5_reduce <- inception_4a/output_inception_4a/output_0_split_3
I0403 19:44:22.228941 25729 net.cpp:399] inception_4b/5x5_reduce -> inception_4b/5x5_reduce
I0403 19:44:22.230237 25729 net.cpp:141] Setting up inception_4b/5x5_reduce
I0403 19:44:22.230278 25729 net.cpp:148] Top shape: 24 24 14 14 (112896)
I0403 19:44:22.230311 25729 net.cpp:156] Memory required for data: 965320992
I0403 19:44:22.230337 25729 layer_factory.hpp:77] Creating layer inception_4b/relu_5x5_reduce
I0403 19:44:22.230361 25729 net.cpp:91] Creating Layer inception_4b/relu_5x5_reduce
I0403 19:44:22.230402 25729 net.cpp:425] inception_4b/relu_5x5_reduce <- inception_4b/5x5_reduce
I0403 19:44:22.230430 25729 net.cpp:386] inception_4b/relu_5x5_reduce -> inception_4b/5x5_reduce (in-place)
I0403 19:44:22.230653 25729 net.cpp:141] Setting up inception_4b/relu_5x5_reduce
I0403 19:44:22.230686 25729 net.cpp:148] Top shape: 24 24 14 14 (112896)
I0403 19:44:22.230706 25729 net.cpp:156] Memory required for data: 965772576
I0403 19:44:22.230725 25729 layer_factory.hpp:77] Creating layer inception_4b/5x5
I0403 19:44:22.230751 25729 net.cpp:91] Creating Layer inception_4b/5x5
I0403 19:44:22.230775 25729 net.cpp:425] inception_4b/5x5 <- inception_4b/5x5_reduce
I0403 19:44:22.230803 25729 net.cpp:399] inception_4b/5x5 -> inception_4b/5x5
I0403 19:44:22.232280 25729 net.cpp:141] Setting up inception_4b/5x5
I0403 19:44:22.232327 25729 net.cpp:148] Top shape: 24 64 14 14 (301056)
I0403 19:44:22.232352 25729 net.cpp:156] Memory required for data: 966976800
I0403 19:44:22.232374 25729 layer_factory.hpp:77] Creating layer inception_4b/relu_5x5
I0403 19:44:22.232398 25729 net.cpp:91] Creating Layer inception_4b/relu_5x5
I0403 19:44:22.232419 25729 net.cpp:425] inception_4b/relu_5x5 <- inception_4b/5x5
I0403 19:44:22.232441 25729 net.cpp:386] inception_4b/relu_5x5 -> inception_4b/5x5 (in-place)
I0403 19:44:22.232785 25729 net.cpp:141] Setting up inception_4b/relu_5x5
I0403 19:44:22.232825 25729 net.cpp:148] Top shape: 24 64 14 14 (301056)
I0403 19:44:22.232847 25729 net.cpp:156] Memory required for data: 968181024
I0403 19:44:22.232867 25729 layer_factory.hpp:77] Creating layer inception_4b/pool
I0403 19:44:22.232889 25729 net.cpp:91] Creating Layer inception_4b/pool
I0403 19:44:22.232911 25729 net.cpp:425] inception_4b/pool <- inception_4a/output_inception_4a/output_0_split_4
I0403 19:44:22.232934 25729 net.cpp:399] inception_4b/pool -> inception_4b/pool
I0403 19:44:22.233016 25729 net.cpp:141] Setting up inception_4b/pool
I0403 19:44:22.233047 25729 net.cpp:148] Top shape: 24 512 14 14 (2408448)
I0403 19:44:22.233068 25729 net.cpp:156] Memory required for data: 977814816
I0403 19:44:22.233088 25729 layer_factory.hpp:77] Creating layer inception_4b/pool_proj
I0403 19:44:22.233116 25729 net.cpp:91] Creating Layer inception_4b/pool_proj
I0403 19:44:22.233140 25729 net.cpp:425] inception_4b/pool_proj <- inception_4b/pool
I0403 19:44:22.233168 25729 net.cpp:399] inception_4b/pool_proj -> inception_4b/pool_proj
I0403 19:44:22.234630 25729 net.cpp:141] Setting up inception_4b/pool_proj
I0403 19:44:22.234671 25729 net.cpp:148] Top shape: 24 64 14 14 (301056)
I0403 19:44:22.234696 25729 net.cpp:156] Memory required for data: 979019040
I0403 19:44:22.234720 25729 layer_factory.hpp:77] Creating layer inception_4b/relu_pool_proj
I0403 19:44:22.234745 25729 net.cpp:91] Creating Layer inception_4b/relu_pool_proj
I0403 19:44:22.234766 25729 net.cpp:425] inception_4b/relu_pool_proj <- inception_4b/pool_proj
I0403 19:44:22.234791 25729 net.cpp:386] inception_4b/relu_pool_proj -> inception_4b/pool_proj (in-place)
I0403 19:44:22.235011 25729 net.cpp:141] Setting up inception_4b/relu_pool_proj
I0403 19:44:22.235044 25729 net.cpp:148] Top shape: 24 64 14 14 (301056)
I0403 19:44:22.235064 25729 net.cpp:156] Memory required for data: 980223264
I0403 19:44:22.235081 25729 layer_factory.hpp:77] Creating layer inception_4b/output
I0403 19:44:22.235103 25729 net.cpp:91] Creating Layer inception_4b/output
I0403 19:44:22.235122 25729 net.cpp:425] inception_4b/output <- inception_4b/1x1
I0403 19:44:22.235144 25729 net.cpp:425] inception_4b/output <- inception_4b/3x3
I0403 19:44:22.235163 25729 net.cpp:425] inception_4b/output <- inception_4b/5x5
I0403 19:44:22.235185 25729 net.cpp:425] inception_4b/output <- inception_4b/pool_proj
I0403 19:44:22.235210 25729 net.cpp:399] inception_4b/output -> inception_4b/output
I0403 19:44:22.235268 25729 net.cpp:141] Setting up inception_4b/output
I0403 19:44:22.235311 25729 net.cpp:148] Top shape: 24 512 14 14 (2408448)
I0403 19:44:22.235335 25729 net.cpp:156] Memory required for data: 989857056
I0403 19:44:22.235374 25729 layer_factory.hpp:77] Creating layer inception_4b/output_inception_4b/output_0_split
I0403 19:44:22.235397 25729 net.cpp:91] Creating Layer inception_4b/output_inception_4b/output_0_split
I0403 19:44:22.235419 25729 net.cpp:425] inception_4b/output_inception_4b/output_0_split <- inception_4b/output
I0403 19:44:22.235445 25729 net.cpp:399] inception_4b/output_inception_4b/output_0_split -> inception_4b/output_inception_4b/output_0_split_0
I0403 19:44:22.235473 25729 net.cpp:399] inception_4b/output_inception_4b/output_0_split -> inception_4b/output_inception_4b/output_0_split_1
I0403 19:44:22.235501 25729 net.cpp:399] inception_4b/output_inception_4b/output_0_split -> inception_4b/output_inception_4b/output_0_split_2
I0403 19:44:22.235528 25729 net.cpp:399] inception_4b/output_inception_4b/output_0_split -> inception_4b/output_inception_4b/output_0_split_3
I0403 19:44:22.235630 25729 net.cpp:141] Setting up inception_4b/output_inception_4b/output_0_split
I0403 19:44:22.235664 25729 net.cpp:148] Top shape: 24 512 14 14 (2408448)
I0403 19:44:22.235687 25729 net.cpp:148] Top shape: 24 512 14 14 (2408448)
I0403 19:44:22.235707 25729 net.cpp:148] Top shape: 24 512 14 14 (2408448)
I0403 19:44:22.235726 25729 net.cpp:148] Top shape: 24 512 14 14 (2408448)
I0403 19:44:22.235743 25729 net.cpp:156] Memory required for data: 1028392224
I0403 19:44:22.235760 25729 layer_factory.hpp:77] Creating layer inception_4c/1x1
I0403 19:44:22.235788 25729 net.cpp:91] Creating Layer inception_4c/1x1
I0403 19:44:22.235812 25729 net.cpp:425] inception_4c/1x1 <- inception_4b/output_inception_4b/output_0_split_0
I0403 19:44:22.235841 25729 net.cpp:399] inception_4c/1x1 -> inception_4c/1x1
I0403 19:44:22.237586 25729 net.cpp:141] Setting up inception_4c/1x1
I0403 19:44:22.237622 25729 net.cpp:148] Top shape: 24 128 14 14 (602112)
I0403 19:44:22.237643 25729 net.cpp:156] Memory required for data: 1030800672
I0403 19:44:22.237666 25729 layer_factory.hpp:77] Creating layer inception_4c/relu_1x1
I0403 19:44:22.237694 25729 net.cpp:91] Creating Layer inception_4c/relu_1x1
I0403 19:44:22.237720 25729 net.cpp:425] inception_4c/relu_1x1 <- inception_4c/1x1
I0403 19:44:22.237742 25729 net.cpp:386] inception_4c/relu_1x1 -> inception_4c/1x1 (in-place)
I0403 19:44:22.237962 25729 net.cpp:141] Setting up inception_4c/relu_1x1
I0403 19:44:22.237994 25729 net.cpp:148] Top shape: 24 128 14 14 (602112)
I0403 19:44:22.238015 25729 net.cpp:156] Memory required for data: 1033209120
I0403 19:44:22.238035 25729 layer_factory.hpp:77] Creating layer inception_4c/3x3_reduce
I0403 19:44:22.238065 25729 net.cpp:91] Creating Layer inception_4c/3x3_reduce
I0403 19:44:22.238086 25729 net.cpp:425] inception_4c/3x3_reduce <- inception_4b/output_inception_4b/output_0_split_1
I0403 19:44:22.238112 25729 net.cpp:399] inception_4c/3x3_reduce -> inception_4c/3x3_reduce
I0403 19:44:22.240453 25729 net.cpp:141] Setting up inception_4c/3x3_reduce
I0403 19:44:22.240492 25729 net.cpp:148] Top shape: 24 128 14 14 (602112)
I0403 19:44:22.240514 25729 net.cpp:156] Memory required for data: 1035617568
I0403 19:44:22.240537 25729 layer_factory.hpp:77] Creating layer inception_4c/relu_3x3_reduce
I0403 19:44:22.240564 25729 net.cpp:91] Creating Layer inception_4c/relu_3x3_reduce
I0403 19:44:22.240588 25729 net.cpp:425] inception_4c/relu_3x3_reduce <- inception_4c/3x3_reduce
I0403 19:44:22.240610 25729 net.cpp:386] inception_4c/relu_3x3_reduce -> inception_4c/3x3_reduce (in-place)
I0403 19:44:22.240952 25729 net.cpp:141] Setting up inception_4c/relu_3x3_reduce
I0403 19:44:22.240988 25729 net.cpp:148] Top shape: 24 128 14 14 (602112)
I0403 19:44:22.241008 25729 net.cpp:156] Memory required for data: 1038026016
I0403 19:44:22.241026 25729 layer_factory.hpp:77] Creating layer inception_4c/3x3
I0403 19:44:22.241060 25729 net.cpp:91] Creating Layer inception_4c/3x3
I0403 19:44:22.241085 25729 net.cpp:425] inception_4c/3x3 <- inception_4c/3x3_reduce
I0403 19:44:22.241108 25729 net.cpp:399] inception_4c/3x3 -> inception_4c/3x3
I0403 19:44:22.245474 25729 net.cpp:141] Setting up inception_4c/3x3
I0403 19:44:22.245533 25729 net.cpp:148] Top shape: 24 256 14 14 (1204224)
I0403 19:44:22.245558 25729 net.cpp:156] Memory required for data: 1042842912
I0403 19:44:22.245599 25729 layer_factory.hpp:77] Creating layer inception_4c/relu_3x3
I0403 19:44:22.245625 25729 net.cpp:91] Creating Layer inception_4c/relu_3x3
I0403 19:44:22.245647 25729 net.cpp:425] inception_4c/relu_3x3 <- inception_4c/3x3
I0403 19:44:22.245671 25729 net.cpp:386] inception_4c/relu_3x3 -> inception_4c/3x3 (in-place)
I0403 19:44:22.245892 25729 net.cpp:141] Setting up inception_4c/relu_3x3
I0403 19:44:22.245934 25729 net.cpp:148] Top shape: 24 256 14 14 (1204224)
I0403 19:44:22.245957 25729 net.cpp:156] Memory required for data: 1047659808
I0403 19:44:22.245978 25729 layer_factory.hpp:77] Creating layer inception_4c/5x5_reduce
I0403 19:44:22.246008 25729 net.cpp:91] Creating Layer inception_4c/5x5_reduce
I0403 19:44:22.246033 25729 net.cpp:425] inception_4c/5x5_reduce <- inception_4b/output_inception_4b/output_0_split_2
I0403 19:44:22.246058 25729 net.cpp:399] inception_4c/5x5_reduce -> inception_4c/5x5_reduce
I0403 19:44:22.247380 25729 net.cpp:141] Setting up inception_4c/5x5_reduce
I0403 19:44:22.247421 25729 net.cpp:148] Top shape: 24 24 14 14 (112896)
I0403 19:44:22.247442 25729 net.cpp:156] Memory required for data: 1048111392
I0403 19:44:22.247465 25729 layer_factory.hpp:77] Creating layer inception_4c/relu_5x5_reduce
I0403 19:44:22.247488 25729 net.cpp:91] Creating Layer inception_4c/relu_5x5_reduce
I0403 19:44:22.247510 25729 net.cpp:425] inception_4c/relu_5x5_reduce <- inception_4c/5x5_reduce
I0403 19:44:22.247536 25729 net.cpp:386] inception_4c/relu_5x5_reduce -> inception_4c/5x5_reduce (in-place)
I0403 19:44:22.247761 25729 net.cpp:141] Setting up inception_4c/relu_5x5_reduce
I0403 19:44:22.247792 25729 net.cpp:148] Top shape: 24 24 14 14 (112896)
I0403 19:44:22.247813 25729 net.cpp:156] Memory required for data: 1048562976
I0403 19:44:22.247833 25729 layer_factory.hpp:77] Creating layer inception_4c/5x5
I0403 19:44:22.247861 25729 net.cpp:91] Creating Layer inception_4c/5x5
I0403 19:44:22.247885 25729 net.cpp:425] inception_4c/5x5 <- inception_4c/5x5_reduce
I0403 19:44:22.247915 25729 net.cpp:399] inception_4c/5x5 -> inception_4c/5x5
I0403 19:44:22.249424 25729 net.cpp:141] Setting up inception_4c/5x5
I0403 19:44:22.249461 25729 net.cpp:148] Top shape: 24 64 14 14 (301056)
I0403 19:44:22.249482 25729 net.cpp:156] Memory required for data: 1049767200
I0403 19:44:22.249505 25729 layer_factory.hpp:77] Creating layer inception_4c/relu_5x5
I0403 19:44:22.249532 25729 net.cpp:91] Creating Layer inception_4c/relu_5x5
I0403 19:44:22.249557 25729 net.cpp:425] inception_4c/relu_5x5 <- inception_4c/5x5
I0403 19:44:22.249582 25729 net.cpp:386] inception_4c/relu_5x5 -> inception_4c/5x5 (in-place)
I0403 19:44:22.249922 25729 net.cpp:141] Setting up inception_4c/relu_5x5
I0403 19:44:22.249956 25729 net.cpp:148] Top shape: 24 64 14 14 (301056)
I0403 19:44:22.249976 25729 net.cpp:156] Memory required for data: 1050971424
I0403 19:44:22.249997 25729 layer_factory.hpp:77] Creating layer inception_4c/pool
I0403 19:44:22.250022 25729 net.cpp:91] Creating Layer inception_4c/pool
I0403 19:44:22.250042 25729 net.cpp:425] inception_4c/pool <- inception_4b/output_inception_4b/output_0_split_3
I0403 19:44:22.250066 25729 net.cpp:399] inception_4c/pool -> inception_4c/pool
I0403 19:44:22.250146 25729 net.cpp:141] Setting up inception_4c/pool
I0403 19:44:22.250185 25729 net.cpp:148] Top shape: 24 512 14 14 (2408448)
I0403 19:44:22.250203 25729 net.cpp:156] Memory required for data: 1060605216
I0403 19:44:22.250222 25729 layer_factory.hpp:77] Creating layer inception_4c/pool_proj
I0403 19:44:22.250252 25729 net.cpp:91] Creating Layer inception_4c/pool_proj
I0403 19:44:22.250275 25729 net.cpp:425] inception_4c/pool_proj <- inception_4c/pool
I0403 19:44:22.250308 25729 net.cpp:399] inception_4c/pool_proj -> inception_4c/pool_proj
I0403 19:44:22.251780 25729 net.cpp:141] Setting up inception_4c/pool_proj
I0403 19:44:22.251826 25729 net.cpp:148] Top shape: 24 64 14 14 (301056)
I0403 19:44:22.251868 25729 net.cpp:156] Memory required for data: 1061809440
I0403 19:44:22.251895 25729 layer_factory.hpp:77] Creating layer inception_4c/relu_pool_proj
I0403 19:44:22.251919 25729 net.cpp:91] Creating Layer inception_4c/relu_pool_proj
I0403 19:44:22.251940 25729 net.cpp:425] inception_4c/relu_pool_proj <- inception_4c/pool_proj
I0403 19:44:22.251963 25729 net.cpp:386] inception_4c/relu_pool_proj -> inception_4c/pool_proj (in-place)
I0403 19:44:22.252187 25729 net.cpp:141] Setting up inception_4c/relu_pool_proj
I0403 19:44:22.252220 25729 net.cpp:148] Top shape: 24 64 14 14 (301056)
I0403 19:44:22.252241 25729 net.cpp:156] Memory required for data: 1063013664
I0403 19:44:22.252261 25729 layer_factory.hpp:77] Creating layer inception_4c/output
I0403 19:44:22.252284 25729 net.cpp:91] Creating Layer inception_4c/output
I0403 19:44:22.252310 25729 net.cpp:425] inception_4c/output <- inception_4c/1x1
I0403 19:44:22.252332 25729 net.cpp:425] inception_4c/output <- inception_4c/3x3
I0403 19:44:22.252353 25729 net.cpp:425] inception_4c/output <- inception_4c/5x5
I0403 19:44:22.252374 25729 net.cpp:425] inception_4c/output <- inception_4c/pool_proj
I0403 19:44:22.252400 25729 net.cpp:399] inception_4c/output -> inception_4c/output
I0403 19:44:22.252459 25729 net.cpp:141] Setting up inception_4c/output
I0403 19:44:22.252496 25729 net.cpp:148] Top shape: 24 512 14 14 (2408448)
I0403 19:44:22.252516 25729 net.cpp:156] Memory required for data: 1072647456
I0403 19:44:22.252534 25729 layer_factory.hpp:77] Creating layer inception_4c/output_inception_4c/output_0_split
I0403 19:44:22.252557 25729 net.cpp:91] Creating Layer inception_4c/output_inception_4c/output_0_split
I0403 19:44:22.252578 25729 net.cpp:425] inception_4c/output_inception_4c/output_0_split <- inception_4c/output
I0403 19:44:22.252600 25729 net.cpp:399] inception_4c/output_inception_4c/output_0_split -> inception_4c/output_inception_4c/output_0_split_0
I0403 19:44:22.252629 25729 net.cpp:399] inception_4c/output_inception_4c/output_0_split -> inception_4c/output_inception_4c/output_0_split_1
I0403 19:44:22.252657 25729 net.cpp:399] inception_4c/output_inception_4c/output_0_split -> inception_4c/output_inception_4c/output_0_split_2
I0403 19:44:22.252684 25729 net.cpp:399] inception_4c/output_inception_4c/output_0_split -> inception_4c/output_inception_4c/output_0_split_3
I0403 19:44:22.252789 25729 net.cpp:141] Setting up inception_4c/output_inception_4c/output_0_split
I0403 19:44:22.252823 25729 net.cpp:148] Top shape: 24 512 14 14 (2408448)
I0403 19:44:22.252843 25729 net.cpp:148] Top shape: 24 512 14 14 (2408448)
I0403 19:44:22.252862 25729 net.cpp:148] Top shape: 24 512 14 14 (2408448)
I0403 19:44:22.252882 25729 net.cpp:148] Top shape: 24 512 14 14 (2408448)
I0403 19:44:22.252898 25729 net.cpp:156] Memory required for data: 1111182624
I0403 19:44:22.252918 25729 layer_factory.hpp:77] Creating layer inception_4d/1x1
I0403 19:44:22.252945 25729 net.cpp:91] Creating Layer inception_4d/1x1
I0403 19:44:22.252969 25729 net.cpp:425] inception_4d/1x1 <- inception_4c/output_inception_4c/output_0_split_0
I0403 19:44:22.252997 25729 net.cpp:399] inception_4d/1x1 -> inception_4d/1x1
I0403 19:44:22.254684 25729 net.cpp:141] Setting up inception_4d/1x1
I0403 19:44:22.254724 25729 net.cpp:148] Top shape: 24 112 14 14 (526848)
I0403 19:44:22.254745 25729 net.cpp:156] Memory required for data: 1113290016
I0403 19:44:22.254770 25729 layer_factory.hpp:77] Creating layer inception_4d/relu_1x1
I0403 19:44:22.254798 25729 net.cpp:91] Creating Layer inception_4d/relu_1x1
I0403 19:44:22.254823 25729 net.cpp:425] inception_4d/relu_1x1 <- inception_4d/1x1
I0403 19:44:22.254845 25729 net.cpp:386] inception_4d/relu_1x1 -> inception_4d/1x1 (in-place)
I0403 19:44:22.255071 25729 net.cpp:141] Setting up inception_4d/relu_1x1
I0403 19:44:22.255108 25729 net.cpp:148] Top shape: 24 112 14 14 (526848)
I0403 19:44:22.255131 25729 net.cpp:156] Memory required for data: 1115397408
I0403 19:44:22.255152 25729 layer_factory.hpp:77] Creating layer inception_4d/3x3_reduce
I0403 19:44:22.255201 25729 net.cpp:91] Creating Layer inception_4d/3x3_reduce
I0403 19:44:22.255228 25729 net.cpp:425] inception_4d/3x3_reduce <- inception_4c/output_inception_4c/output_0_split_1
I0403 19:44:22.255254 25729 net.cpp:399] inception_4d/3x3_reduce -> inception_4d/3x3_reduce
I0403 19:44:22.257083 25729 net.cpp:141] Setting up inception_4d/3x3_reduce
I0403 19:44:22.257120 25729 net.cpp:148] Top shape: 24 144 14 14 (677376)
I0403 19:44:22.257143 25729 net.cpp:156] Memory required for data: 1118106912
I0403 19:44:22.257166 25729 layer_factory.hpp:77] Creating layer inception_4d/relu_3x3_reduce
I0403 19:44:22.257190 25729 net.cpp:91] Creating Layer inception_4d/relu_3x3_reduce
I0403 19:44:22.257211 25729 net.cpp:425] inception_4d/relu_3x3_reduce <- inception_4d/3x3_reduce
I0403 19:44:22.257237 25729 net.cpp:386] inception_4d/relu_3x3_reduce -> inception_4d/3x3_reduce (in-place)
I0403 19:44:22.257586 25729 net.cpp:141] Setting up inception_4d/relu_3x3_reduce
I0403 19:44:22.257623 25729 net.cpp:148] Top shape: 24 144 14 14 (677376)
I0403 19:44:22.257644 25729 net.cpp:156] Memory required for data: 1120816416
I0403 19:44:22.257663 25729 layer_factory.hpp:77] Creating layer inception_4d/3x3
I0403 19:44:22.257691 25729 net.cpp:91] Creating Layer inception_4d/3x3
I0403 19:44:22.257716 25729 net.cpp:425] inception_4d/3x3 <- inception_4d/3x3_reduce
I0403 19:44:22.257745 25729 net.cpp:399] inception_4d/3x3 -> inception_4d/3x3
I0403 19:44:22.263022 25729 net.cpp:141] Setting up inception_4d/3x3
I0403 19:44:22.263064 25729 net.cpp:148] Top shape: 24 288 14 14 (1354752)
I0403 19:44:22.263087 25729 net.cpp:156] Memory required for data: 1126235424
I0403 19:44:22.263108 25729 layer_factory.hpp:77] Creating layer inception_4d/relu_3x3
I0403 19:44:22.263134 25729 net.cpp:91] Creating Layer inception_4d/relu_3x3
I0403 19:44:22.263157 25729 net.cpp:425] inception_4d/relu_3x3 <- inception_4d/3x3
I0403 19:44:22.263182 25729 net.cpp:386] inception_4d/relu_3x3 -> inception_4d/3x3 (in-place)
I0403 19:44:22.263413 25729 net.cpp:141] Setting up inception_4d/relu_3x3
I0403 19:44:22.263454 25729 net.cpp:148] Top shape: 24 288 14 14 (1354752)
I0403 19:44:22.263476 25729 net.cpp:156] Memory required for data: 1131654432
I0403 19:44:22.263495 25729 layer_factory.hpp:77] Creating layer inception_4d/5x5_reduce
I0403 19:44:22.263523 25729 net.cpp:91] Creating Layer inception_4d/5x5_reduce
I0403 19:44:22.263546 25729 net.cpp:425] inception_4d/5x5_reduce <- inception_4c/output_inception_4c/output_0_split_2
I0403 19:44:22.263576 25729 net.cpp:399] inception_4d/5x5_reduce -> inception_4d/5x5_reduce
I0403 19:44:22.264969 25729 net.cpp:141] Setting up inception_4d/5x5_reduce
I0403 19:44:22.265008 25729 net.cpp:148] Top shape: 24 32 14 14 (150528)
I0403 19:44:22.265029 25729 net.cpp:156] Memory required for data: 1132256544
I0403 19:44:22.265053 25729 layer_factory.hpp:77] Creating layer inception_4d/relu_5x5_reduce
I0403 19:44:22.265080 25729 net.cpp:91] Creating Layer inception_4d/relu_5x5_reduce
I0403 19:44:22.265105 25729 net.cpp:425] inception_4d/relu_5x5_reduce <- inception_4d/5x5_reduce
I0403 19:44:22.265130 25729 net.cpp:386] inception_4d/relu_5x5_reduce -> inception_4d/5x5_reduce (in-place)
I0403 19:44:22.265367 25729 net.cpp:141] Setting up inception_4d/relu_5x5_reduce
I0403 19:44:22.265403 25729 net.cpp:148] Top shape: 24 32 14 14 (150528)
I0403 19:44:22.265425 25729 net.cpp:156] Memory required for data: 1132858656
I0403 19:44:22.265445 25729 layer_factory.hpp:77] Creating layer inception_4d/5x5
I0403 19:44:22.265475 25729 net.cpp:91] Creating Layer inception_4d/5x5
I0403 19:44:22.265501 25729 net.cpp:425] inception_4d/5x5 <- inception_4d/5x5_reduce
I0403 19:44:22.265524 25729 net.cpp:399] inception_4d/5x5 -> inception_4d/5x5
I0403 19:44:22.267276 25729 net.cpp:141] Setting up inception_4d/5x5
I0403 19:44:22.267320 25729 net.cpp:148] Top shape: 24 64 14 14 (301056)
I0403 19:44:22.267344 25729 net.cpp:156] Memory required for data: 1134062880
I0403 19:44:22.267370 25729 layer_factory.hpp:77] Creating layer inception_4d/relu_5x5
I0403 19:44:22.267416 25729 net.cpp:91] Creating Layer inception_4d/relu_5x5
I0403 19:44:22.267441 25729 net.cpp:425] inception_4d/relu_5x5 <- inception_4d/5x5
I0403 19:44:22.267467 25729 net.cpp:386] inception_4d/relu_5x5 -> inception_4d/5x5 (in-place)
I0403 19:44:22.267822 25729 net.cpp:141] Setting up inception_4d/relu_5x5
I0403 19:44:22.267861 25729 net.cpp:148] Top shape: 24 64 14 14 (301056)
I0403 19:44:22.267884 25729 net.cpp:156] Memory required for data: 1135267104
I0403 19:44:22.267904 25729 layer_factory.hpp:77] Creating layer inception_4d/pool
I0403 19:44:22.267928 25729 net.cpp:91] Creating Layer inception_4d/pool
I0403 19:44:22.267949 25729 net.cpp:425] inception_4d/pool <- inception_4c/output_inception_4c/output_0_split_3
I0403 19:44:22.267974 25729 net.cpp:399] inception_4d/pool -> inception_4d/pool
I0403 19:44:22.268057 25729 net.cpp:141] Setting up inception_4d/pool
I0403 19:44:22.268095 25729 net.cpp:148] Top shape: 24 512 14 14 (2408448)
I0403 19:44:22.268117 25729 net.cpp:156] Memory required for data: 1144900896
I0403 19:44:22.268137 25729 layer_factory.hpp:77] Creating layer inception_4d/pool_proj
I0403 19:44:22.268164 25729 net.cpp:91] Creating Layer inception_4d/pool_proj
I0403 19:44:22.268187 25729 net.cpp:425] inception_4d/pool_proj <- inception_4d/pool
I0403 19:44:22.268214 25729 net.cpp:399] inception_4d/pool_proj -> inception_4d/pool_proj
I0403 19:44:22.270351 25729 net.cpp:141] Setting up inception_4d/pool_proj
I0403 19:44:22.270390 25729 net.cpp:148] Top shape: 24 64 14 14 (301056)
I0403 19:44:22.270411 25729 net.cpp:156] Memory required for data: 1146105120
I0403 19:44:22.270436 25729 layer_factory.hpp:77] Creating layer inception_4d/relu_pool_proj
I0403 19:44:22.270463 25729 net.cpp:91] Creating Layer inception_4d/relu_pool_proj
I0403 19:44:22.270488 25729 net.cpp:425] inception_4d/relu_pool_proj <- inception_4d/pool_proj
I0403 19:44:22.270511 25729 net.cpp:386] inception_4d/relu_pool_proj -> inception_4d/pool_proj (in-place)
I0403 19:44:22.270738 25729 net.cpp:141] Setting up inception_4d/relu_pool_proj
I0403 19:44:22.270777 25729 net.cpp:148] Top shape: 24 64 14 14 (301056)
I0403 19:44:22.270798 25729 net.cpp:156] Memory required for data: 1147309344
I0403 19:44:22.270817 25729 layer_factory.hpp:77] Creating layer inception_4d/output
I0403 19:44:22.270839 25729 net.cpp:91] Creating Layer inception_4d/output
I0403 19:44:22.270861 25729 net.cpp:425] inception_4d/output <- inception_4d/1x1
I0403 19:44:22.270884 25729 net.cpp:425] inception_4d/output <- inception_4d/3x3
I0403 19:44:22.270905 25729 net.cpp:425] inception_4d/output <- inception_4d/5x5
I0403 19:44:22.270926 25729 net.cpp:425] inception_4d/output <- inception_4d/pool_proj
I0403 19:44:22.270949 25729 net.cpp:399] inception_4d/output -> inception_4d/output
I0403 19:44:22.271010 25729 net.cpp:141] Setting up inception_4d/output
I0403 19:44:22.271044 25729 net.cpp:148] Top shape: 24 528 14 14 (2483712)
I0403 19:44:22.271062 25729 net.cpp:156] Memory required for data: 1157244192
I0403 19:44:22.271082 25729 layer_factory.hpp:77] Creating layer inception_4d/output_inception_4d/output_0_split
I0403 19:44:22.271108 25729 net.cpp:91] Creating Layer inception_4d/output_inception_4d/output_0_split
I0403 19:44:22.271129 25729 net.cpp:425] inception_4d/output_inception_4d/output_0_split <- inception_4d/output
I0403 19:44:22.271152 25729 net.cpp:399] inception_4d/output_inception_4d/output_0_split -> inception_4d/output_inception_4d/output_0_split_0
I0403 19:44:22.271178 25729 net.cpp:399] inception_4d/output_inception_4d/output_0_split -> inception_4d/output_inception_4d/output_0_split_1
I0403 19:44:22.271209 25729 net.cpp:399] inception_4d/output_inception_4d/output_0_split -> inception_4d/output_inception_4d/output_0_split_2
I0403 19:44:22.271237 25729 net.cpp:399] inception_4d/output_inception_4d/output_0_split -> inception_4d/output_inception_4d/output_0_split_3
I0403 19:44:22.271266 25729 net.cpp:399] inception_4d/output_inception_4d/output_0_split -> inception_4d/output_inception_4d/output_0_split_4
I0403 19:44:22.271402 25729 net.cpp:141] Setting up inception_4d/output_inception_4d/output_0_split
I0403 19:44:22.271453 25729 net.cpp:148] Top shape: 24 528 14 14 (2483712)
I0403 19:44:22.271476 25729 net.cpp:148] Top shape: 24 528 14 14 (2483712)
I0403 19:44:22.271498 25729 net.cpp:148] Top shape: 24 528 14 14 (2483712)
I0403 19:44:22.271518 25729 net.cpp:148] Top shape: 24 528 14 14 (2483712)
I0403 19:44:22.271539 25729 net.cpp:148] Top shape: 24 528 14 14 (2483712)
I0403 19:44:22.271558 25729 net.cpp:156] Memory required for data: 1206918432
I0403 19:44:22.271576 25729 layer_factory.hpp:77] Creating layer loss2/ave_pool
I0403 19:44:22.271602 25729 net.cpp:91] Creating Layer loss2/ave_pool
I0403 19:44:22.271626 25729 net.cpp:425] loss2/ave_pool <- inception_4d/output_inception_4d/output_0_split_0
I0403 19:44:22.271651 25729 net.cpp:399] loss2/ave_pool -> loss2/ave_pool
I0403 19:44:22.272029 25729 net.cpp:141] Setting up loss2/ave_pool
I0403 19:44:22.272063 25729 net.cpp:148] Top shape: 24 528 4 4 (202752)
I0403 19:44:22.272084 25729 net.cpp:156] Memory required for data: 1207729440
I0403 19:44:22.272101 25729 layer_factory.hpp:77] Creating layer loss2/conv
I0403 19:44:22.272135 25729 net.cpp:91] Creating Layer loss2/conv
I0403 19:44:22.272161 25729 net.cpp:425] loss2/conv <- loss2/ave_pool
I0403 19:44:22.272188 25729 net.cpp:399] loss2/conv -> loss2/conv
I0403 19:44:22.274507 25729 net.cpp:141] Setting up loss2/conv
I0403 19:44:22.274545 25729 net.cpp:148] Top shape: 24 128 4 4 (49152)
I0403 19:44:22.274569 25729 net.cpp:156] Memory required for data: 1207926048
I0403 19:44:22.274592 25729 layer_factory.hpp:77] Creating layer loss2/relu_conv
I0403 19:44:22.274617 25729 net.cpp:91] Creating Layer loss2/relu_conv
I0403 19:44:22.274639 25729 net.cpp:425] loss2/relu_conv <- loss2/conv
I0403 19:44:22.274665 25729 net.cpp:386] loss2/relu_conv -> loss2/conv (in-place)
I0403 19:44:22.275008 25729 net.cpp:141] Setting up loss2/relu_conv
I0403 19:44:22.275043 25729 net.cpp:148] Top shape: 24 128 4 4 (49152)
I0403 19:44:22.275065 25729 net.cpp:156] Memory required for data: 1208122656
I0403 19:44:22.275084 25729 layer_factory.hpp:77] Creating layer loss2/fc
I0403 19:44:22.275110 25729 net.cpp:91] Creating Layer loss2/fc
I0403 19:44:22.275130 25729 net.cpp:425] loss2/fc <- loss2/conv
I0403 19:44:22.275156 25729 net.cpp:399] loss2/fc -> loss2/fc
I0403 19:44:22.297225 25729 net.cpp:141] Setting up loss2/fc
I0403 19:44:22.297276 25729 net.cpp:148] Top shape: 24 1024 (24576)
I0403 19:44:22.297304 25729 net.cpp:156] Memory required for data: 1208220960
I0403 19:44:22.297330 25729 layer_factory.hpp:77] Creating layer loss2/relu_fc
I0403 19:44:22.297356 25729 net.cpp:91] Creating Layer loss2/relu_fc
I0403 19:44:22.297379 25729 net.cpp:425] loss2/relu_fc <- loss2/fc
I0403 19:44:22.297402 25729 net.cpp:386] loss2/relu_fc -> loss2/fc (in-place)
I0403 19:44:22.297765 25729 net.cpp:141] Setting up loss2/relu_fc
I0403 19:44:22.297804 25729 net.cpp:148] Top shape: 24 1024 (24576)
I0403 19:44:22.297827 25729 net.cpp:156] Memory required for data: 1208319264
I0403 19:44:22.297847 25729 layer_factory.hpp:77] Creating layer loss2/drop_fc
I0403 19:44:22.297871 25729 net.cpp:91] Creating Layer loss2/drop_fc
I0403 19:44:22.297890 25729 net.cpp:425] loss2/drop_fc <- loss2/fc
I0403 19:44:22.297912 25729 net.cpp:386] loss2/drop_fc -> loss2/fc (in-place)
I0403 19:44:22.297976 25729 net.cpp:141] Setting up loss2/drop_fc
I0403 19:44:22.298007 25729 net.cpp:148] Top shape: 24 1024 (24576)
I0403 19:44:22.298027 25729 net.cpp:156] Memory required for data: 1208417568
I0403 19:44:22.298046 25729 layer_factory.hpp:77] Creating layer loss2/classifier_plantvillage
I0403 19:44:22.298074 25729 net.cpp:91] Creating Layer loss2/classifier_plantvillage
I0403 19:44:22.298096 25729 net.cpp:425] loss2/classifier_plantvillage <- loss2/fc
I0403 19:44:22.298120 25729 net.cpp:399] loss2/classifier_plantvillage -> loss2/classifier_plantvillage
I0403 19:44:22.298626 25729 net.cpp:141] Setting up loss2/classifier_plantvillage
I0403 19:44:22.298662 25729 net.cpp:148] Top shape: 24 38 (912)
I0403 19:44:22.298703 25729 net.cpp:156] Memory required for data: 1208421216
I0403 19:44:22.298728 25729 layer_factory.hpp:77] Creating layer loss2/classifier_plantvillage_loss2/classifier_plantvillage_0_split
I0403 19:44:22.298753 25729 net.cpp:91] Creating Layer loss2/classifier_plantvillage_loss2/classifier_plantvillage_0_split
I0403 19:44:22.298774 25729 net.cpp:425] loss2/classifier_plantvillage_loss2/classifier_plantvillage_0_split <- loss2/classifier_plantvillage
I0403 19:44:22.298799 25729 net.cpp:399] loss2/classifier_plantvillage_loss2/classifier_plantvillage_0_split -> loss2/classifier_plantvillage_loss2/classifier_plantvillage_0_split_0
I0403 19:44:22.298827 25729 net.cpp:399] loss2/classifier_plantvillage_loss2/classifier_plantvillage_0_split -> loss2/classifier_plantvillage_loss2/classifier_plantvillage_0_split_1
I0403 19:44:22.298856 25729 net.cpp:399] loss2/classifier_plantvillage_loss2/classifier_plantvillage_0_split -> loss2/classifier_plantvillage_loss2/classifier_plantvillage_0_split_2
I0403 19:44:22.298954 25729 net.cpp:141] Setting up loss2/classifier_plantvillage_loss2/classifier_plantvillage_0_split
I0403 19:44:22.298987 25729 net.cpp:148] Top shape: 24 38 (912)
I0403 19:44:22.299008 25729 net.cpp:148] Top shape: 24 38 (912)
I0403 19:44:22.299027 25729 net.cpp:148] Top shape: 24 38 (912)
I0403 19:44:22.299043 25729 net.cpp:156] Memory required for data: 1208432160
I0403 19:44:22.299063 25729 layer_factory.hpp:77] Creating layer inception_4e/1x1
I0403 19:44:22.299093 25729 net.cpp:91] Creating Layer inception_4e/1x1
I0403 19:44:22.299118 25729 net.cpp:425] inception_4e/1x1 <- inception_4d/output_inception_4d/output_0_split_1
I0403 19:44:22.299141 25729 net.cpp:399] inception_4e/1x1 -> inception_4e/1x1
I0403 19:44:22.301374 25729 net.cpp:141] Setting up inception_4e/1x1
I0403 19:44:22.301411 25729 net.cpp:148] Top shape: 24 256 14 14 (1204224)
I0403 19:44:22.301432 25729 net.cpp:156] Memory required for data: 1213249056
I0403 19:44:22.301456 25729 layer_factory.hpp:77] Creating layer inception_4e/relu_1x1
I0403 19:44:22.301478 25729 net.cpp:91] Creating Layer inception_4e/relu_1x1
I0403 19:44:22.301525 25729 net.cpp:425] inception_4e/relu_1x1 <- inception_4e/1x1
I0403 19:44:22.301549 25729 net.cpp:386] inception_4e/relu_1x1 -> inception_4e/1x1 (in-place)
I0403 19:44:22.301901 25729 net.cpp:141] Setting up inception_4e/relu_1x1
I0403 19:44:22.301936 25729 net.cpp:148] Top shape: 24 256 14 14 (1204224)
I0403 19:44:22.301959 25729 net.cpp:156] Memory required for data: 1218065952
I0403 19:44:22.301977 25729 layer_factory.hpp:77] Creating layer inception_4e/3x3_reduce
I0403 19:44:22.302006 25729 net.cpp:91] Creating Layer inception_4e/3x3_reduce
I0403 19:44:22.302028 25729 net.cpp:425] inception_4e/3x3_reduce <- inception_4d/output_inception_4d/output_0_split_2
I0403 19:44:22.302057 25729 net.cpp:399] inception_4e/3x3_reduce -> inception_4e/3x3_reduce
I0403 19:44:22.304639 25729 net.cpp:141] Setting up inception_4e/3x3_reduce
I0403 19:44:22.304680 25729 net.cpp:148] Top shape: 24 160 14 14 (752640)
I0403 19:44:22.304703 25729 net.cpp:156] Memory required for data: 1221076512
I0403 19:44:22.304728 25729 layer_factory.hpp:77] Creating layer inception_4e/relu_3x3_reduce
I0403 19:44:22.304751 25729 net.cpp:91] Creating Layer inception_4e/relu_3x3_reduce
I0403 19:44:22.304771 25729 net.cpp:425] inception_4e/relu_3x3_reduce <- inception_4e/3x3_reduce
I0403 19:44:22.304798 25729 net.cpp:386] inception_4e/relu_3x3_reduce -> inception_4e/3x3_reduce (in-place)
I0403 19:44:22.305027 25729 net.cpp:141] Setting up inception_4e/relu_3x3_reduce
I0403 19:44:22.305063 25729 net.cpp:148] Top shape: 24 160 14 14 (752640)
I0403 19:44:22.305083 25729 net.cpp:156] Memory required for data: 1224087072
I0403 19:44:22.305100 25729 layer_factory.hpp:77] Creating layer inception_4e/3x3
I0403 19:44:22.305129 25729 net.cpp:91] Creating Layer inception_4e/3x3
I0403 19:44:22.305152 25729 net.cpp:425] inception_4e/3x3 <- inception_4e/3x3_reduce
I0403 19:44:22.305179 25729 net.cpp:399] inception_4e/3x3 -> inception_4e/3x3
I0403 19:44:22.311389 25729 net.cpp:141] Setting up inception_4e/3x3
I0403 19:44:22.311441 25729 net.cpp:148] Top shape: 24 320 14 14 (1505280)
I0403 19:44:22.311465 25729 net.cpp:156] Memory required for data: 1230108192
I0403 19:44:22.311486 25729 layer_factory.hpp:77] Creating layer inception_4e/relu_3x3
I0403 19:44:22.311513 25729 net.cpp:91] Creating Layer inception_4e/relu_3x3
I0403 19:44:22.311538 25729 net.cpp:425] inception_4e/relu_3x3 <- inception_4e/3x3
I0403 19:44:22.311563 25729 net.cpp:386] inception_4e/relu_3x3 -> inception_4e/3x3 (in-place)
I0403 19:44:22.311919 25729 net.cpp:141] Setting up inception_4e/relu_3x3
I0403 19:44:22.311956 25729 net.cpp:148] Top shape: 24 320 14 14 (1505280)
I0403 19:44:22.311977 25729 net.cpp:156] Memory required for data: 1236129312
I0403 19:44:22.311995 25729 layer_factory.hpp:77] Creating layer inception_4e/5x5_reduce
I0403 19:44:22.312023 25729 net.cpp:91] Creating Layer inception_4e/5x5_reduce
I0403 19:44:22.312047 25729 net.cpp:425] inception_4e/5x5_reduce <- inception_4d/output_inception_4d/output_0_split_3
I0403 19:44:22.312074 25729 net.cpp:399] inception_4e/5x5_reduce -> inception_4e/5x5_reduce
I0403 19:44:22.313382 25729 net.cpp:141] Setting up inception_4e/5x5_reduce
I0403 19:44:22.313422 25729 net.cpp:148] Top shape: 24 32 14 14 (150528)
I0403 19:44:22.313443 25729 net.cpp:156] Memory required for data: 1236731424
I0403 19:44:22.313467 25729 layer_factory.hpp:77] Creating layer inception_4e/relu_5x5_reduce
I0403 19:44:22.313490 25729 net.cpp:91] Creating Layer inception_4e/relu_5x5_reduce
I0403 19:44:22.313513 25729 net.cpp:425] inception_4e/relu_5x5_reduce <- inception_4e/5x5_reduce
I0403 19:44:22.313539 25729 net.cpp:386] inception_4e/relu_5x5_reduce -> inception_4e/5x5_reduce (in-place)
I0403 19:44:22.313894 25729 net.cpp:141] Setting up inception_4e/relu_5x5_reduce
I0403 19:44:22.313932 25729 net.cpp:148] Top shape: 24 32 14 14 (150528)
I0403 19:44:22.313956 25729 net.cpp:156] Memory required for data: 1237333536
I0403 19:44:22.313974 25729 layer_factory.hpp:77] Creating layer inception_4e/5x5
I0403 19:44:22.314028 25729 net.cpp:91] Creating Layer inception_4e/5x5
I0403 19:44:22.314054 25729 net.cpp:425] inception_4e/5x5 <- inception_4e/5x5_reduce
I0403 19:44:22.314080 25729 net.cpp:399] inception_4e/5x5 -> inception_4e/5x5
I0403 19:44:22.316306 25729 net.cpp:141] Setting up inception_4e/5x5
I0403 19:44:22.316345 25729 net.cpp:148] Top shape: 24 128 14 14 (602112)
I0403 19:44:22.316366 25729 net.cpp:156] Memory required for data: 1239741984
I0403 19:44:22.316391 25729 layer_factory.hpp:77] Creating layer inception_4e/relu_5x5
I0403 19:44:22.316416 25729 net.cpp:91] Creating Layer inception_4e/relu_5x5
I0403 19:44:22.316442 25729 net.cpp:425] inception_4e/relu_5x5 <- inception_4e/5x5
I0403 19:44:22.316463 25729 net.cpp:386] inception_4e/relu_5x5 -> inception_4e/5x5 (in-place)
I0403 19:44:22.316707 25729 net.cpp:141] Setting up inception_4e/relu_5x5
I0403 19:44:22.316742 25729 net.cpp:148] Top shape: 24 128 14 14 (602112)
I0403 19:44:22.316762 25729 net.cpp:156] Memory required for data: 1242150432
I0403 19:44:22.316781 25729 layer_factory.hpp:77] Creating layer inception_4e/pool
I0403 19:44:22.316804 25729 net.cpp:91] Creating Layer inception_4e/pool
I0403 19:44:22.316825 25729 net.cpp:425] inception_4e/pool <- inception_4d/output_inception_4d/output_0_split_4
I0403 19:44:22.316853 25729 net.cpp:399] inception_4e/pool -> inception_4e/pool
I0403 19:44:22.316941 25729 net.cpp:141] Setting up inception_4e/pool
I0403 19:44:22.316977 25729 net.cpp:148] Top shape: 24 528 14 14 (2483712)
I0403 19:44:22.316995 25729 net.cpp:156] Memory required for data: 1252085280
I0403 19:44:22.317016 25729 layer_factory.hpp:77] Creating layer inception_4e/pool_proj
I0403 19:44:22.317047 25729 net.cpp:91] Creating Layer inception_4e/pool_proj
I0403 19:44:22.317071 25729 net.cpp:425] inception_4e/pool_proj <- inception_4e/pool
I0403 19:44:22.317096 25729 net.cpp:399] inception_4e/pool_proj -> inception_4e/pool_proj
I0403 19:44:22.318919 25729 net.cpp:141] Setting up inception_4e/pool_proj
I0403 19:44:22.318970 25729 net.cpp:148] Top shape: 24 128 14 14 (602112)
I0403 19:44:22.318994 25729 net.cpp:156] Memory required for data: 1254493728
I0403 19:44:22.319018 25729 layer_factory.hpp:77] Creating layer inception_4e/relu_pool_proj
I0403 19:44:22.319046 25729 net.cpp:91] Creating Layer inception_4e/relu_pool_proj
I0403 19:44:22.319068 25729 net.cpp:425] inception_4e/relu_pool_proj <- inception_4e/pool_proj
I0403 19:44:22.319092 25729 net.cpp:386] inception_4e/relu_pool_proj -> inception_4e/pool_proj (in-place)
I0403 19:44:22.319449 25729 net.cpp:141] Setting up inception_4e/relu_pool_proj
I0403 19:44:22.319488 25729 net.cpp:148] Top shape: 24 128 14 14 (602112)
I0403 19:44:22.319507 25729 net.cpp:156] Memory required for data: 1256902176
I0403 19:44:22.319526 25729 layer_factory.hpp:77] Creating layer inception_4e/output
I0403 19:44:22.319550 25729 net.cpp:91] Creating Layer inception_4e/output
I0403 19:44:22.319573 25729 net.cpp:425] inception_4e/output <- inception_4e/1x1
I0403 19:44:22.319596 25729 net.cpp:425] inception_4e/output <- inception_4e/3x3
I0403 19:44:22.319617 25729 net.cpp:425] inception_4e/output <- inception_4e/5x5
I0403 19:44:22.319638 25729 net.cpp:425] inception_4e/output <- inception_4e/pool_proj
I0403 19:44:22.319658 25729 net.cpp:399] inception_4e/output -> inception_4e/output
I0403 19:44:22.319725 25729 net.cpp:141] Setting up inception_4e/output
I0403 19:44:22.319757 25729 net.cpp:148] Top shape: 24 832 14 14 (3913728)
I0403 19:44:22.319777 25729 net.cpp:156] Memory required for data: 1272557088
I0403 19:44:22.319797 25729 layer_factory.hpp:77] Creating layer pool4/3x3_s2
I0403 19:44:22.319818 25729 net.cpp:91] Creating Layer pool4/3x3_s2
I0403 19:44:22.319839 25729 net.cpp:425] pool4/3x3_s2 <- inception_4e/output
I0403 19:44:22.319864 25729 net.cpp:399] pool4/3x3_s2 -> pool4/3x3_s2
I0403 19:44:22.319947 25729 net.cpp:141] Setting up pool4/3x3_s2
I0403 19:44:22.319983 25729 net.cpp:148] Top shape: 24 832 7 7 (978432)
I0403 19:44:22.320003 25729 net.cpp:156] Memory required for data: 1276470816
I0403 19:44:22.320021 25729 layer_factory.hpp:77] Creating layer pool4/3x3_s2_pool4/3x3_s2_0_split
I0403 19:44:22.320049 25729 net.cpp:91] Creating Layer pool4/3x3_s2_pool4/3x3_s2_0_split
I0403 19:44:22.320072 25729 net.cpp:425] pool4/3x3_s2_pool4/3x3_s2_0_split <- pool4/3x3_s2
I0403 19:44:22.320097 25729 net.cpp:399] pool4/3x3_s2_pool4/3x3_s2_0_split -> pool4/3x3_s2_pool4/3x3_s2_0_split_0
I0403 19:44:22.320125 25729 net.cpp:399] pool4/3x3_s2_pool4/3x3_s2_0_split -> pool4/3x3_s2_pool4/3x3_s2_0_split_1
I0403 19:44:22.320154 25729 net.cpp:399] pool4/3x3_s2_pool4/3x3_s2_0_split -> pool4/3x3_s2_pool4/3x3_s2_0_split_2
I0403 19:44:22.320183 25729 net.cpp:399] pool4/3x3_s2_pool4/3x3_s2_0_split -> pool4/3x3_s2_pool4/3x3_s2_0_split_3
I0403 19:44:22.320298 25729 net.cpp:141] Setting up pool4/3x3_s2_pool4/3x3_s2_0_split
I0403 19:44:22.320336 25729 net.cpp:148] Top shape: 24 832 7 7 (978432)
I0403 19:44:22.320360 25729 net.cpp:148] Top shape: 24 832 7 7 (978432)
I0403 19:44:22.320379 25729 net.cpp:148] Top shape: 24 832 7 7 (978432)
I0403 19:44:22.320399 25729 net.cpp:148] Top shape: 24 832 7 7 (978432)
I0403 19:44:22.320418 25729 net.cpp:156] Memory required for data: 1292125728
I0403 19:44:22.320436 25729 layer_factory.hpp:77] Creating layer inception_5a/1x1
I0403 19:44:22.320464 25729 net.cpp:91] Creating Layer inception_5a/1x1
I0403 19:44:22.320487 25729 net.cpp:425] inception_5a/1x1 <- pool4/3x3_s2_pool4/3x3_s2_0_split_0
I0403 19:44:22.320513 25729 net.cpp:399] inception_5a/1x1 -> inception_5a/1x1
I0403 19:44:22.324004 25729 net.cpp:141] Setting up inception_5a/1x1
I0403 19:44:22.324046 25729 net.cpp:148] Top shape: 24 256 7 7 (301056)
I0403 19:44:22.324070 25729 net.cpp:156] Memory required for data: 1293329952
I0403 19:44:22.324093 25729 layer_factory.hpp:77] Creating layer inception_5a/relu_1x1
I0403 19:44:22.324116 25729 net.cpp:91] Creating Layer inception_5a/relu_1x1
I0403 19:44:22.324138 25729 net.cpp:425] inception_5a/relu_1x1 <- inception_5a/1x1
I0403 19:44:22.324161 25729 net.cpp:386] inception_5a/relu_1x1 -> inception_5a/1x1 (in-place)
I0403 19:44:22.324553 25729 net.cpp:141] Setting up inception_5a/relu_1x1
I0403 19:44:22.324590 25729 net.cpp:148] Top shape: 24 256 7 7 (301056)
I0403 19:44:22.324614 25729 net.cpp:156] Memory required for data: 1294534176
I0403 19:44:22.324633 25729 layer_factory.hpp:77] Creating layer inception_5a/3x3_reduce
I0403 19:44:22.324661 25729 net.cpp:91] Creating Layer inception_5a/3x3_reduce
I0403 19:44:22.324686 25729 net.cpp:425] inception_5a/3x3_reduce <- pool4/3x3_s2_pool4/3x3_s2_0_split_1
I0403 19:44:22.324712 25729 net.cpp:399] inception_5a/3x3_reduce -> inception_5a/3x3_reduce
I0403 19:44:22.327697 25729 net.cpp:141] Setting up inception_5a/3x3_reduce
I0403 19:44:22.327735 25729 net.cpp:148] Top shape: 24 160 7 7 (188160)
I0403 19:44:22.327757 25729 net.cpp:156] Memory required for data: 1295286816
I0403 19:44:22.327780 25729 layer_factory.hpp:77] Creating layer inception_5a/relu_3x3_reduce
I0403 19:44:22.327807 25729 net.cpp:91] Creating Layer inception_5a/relu_3x3_reduce
I0403 19:44:22.327831 25729 net.cpp:425] inception_5a/relu_3x3_reduce <- inception_5a/3x3_reduce
I0403 19:44:22.327854 25729 net.cpp:386] inception_5a/relu_3x3_reduce -> inception_5a/3x3_reduce (in-place)
I0403 19:44:22.328083 25729 net.cpp:141] Setting up inception_5a/relu_3x3_reduce
I0403 19:44:22.328121 25729 net.cpp:148] Top shape: 24 160 7 7 (188160)
I0403 19:44:22.328143 25729 net.cpp:156] Memory required for data: 1296039456
I0403 19:44:22.328161 25729 layer_factory.hpp:77] Creating layer inception_5a/3x3
I0403 19:44:22.328189 25729 net.cpp:91] Creating Layer inception_5a/3x3
I0403 19:44:22.328214 25729 net.cpp:425] inception_5a/3x3 <- inception_5a/3x3_reduce
I0403 19:44:22.328239 25729 net.cpp:399] inception_5a/3x3 -> inception_5a/3x3
I0403 19:44:22.334486 25729 net.cpp:141] Setting up inception_5a/3x3
I0403 19:44:22.334527 25729 net.cpp:148] Top shape: 24 320 7 7 (376320)
I0403 19:44:22.334552 25729 net.cpp:156] Memory required for data: 1297544736
I0403 19:44:22.334575 25729 layer_factory.hpp:77] Creating layer inception_5a/relu_3x3
I0403 19:44:22.334599 25729 net.cpp:91] Creating Layer inception_5a/relu_3x3
I0403 19:44:22.334624 25729 net.cpp:425] inception_5a/relu_3x3 <- inception_5a/3x3
I0403 19:44:22.334650 25729 net.cpp:386] inception_5a/relu_3x3 -> inception_5a/3x3 (in-place)
I0403 19:44:22.335001 25729 net.cpp:141] Setting up inception_5a/relu_3x3
I0403 19:44:22.335041 25729 net.cpp:148] Top shape: 24 320 7 7 (376320)
I0403 19:44:22.335062 25729 net.cpp:156] Memory required for data: 1299050016
I0403 19:44:22.335083 25729 layer_factory.hpp:77] Creating layer inception_5a/5x5_reduce
I0403 19:44:22.335114 25729 net.cpp:91] Creating Layer inception_5a/5x5_reduce
I0403 19:44:22.335139 25729 net.cpp:425] inception_5a/5x5_reduce <- pool4/3x3_s2_pool4/3x3_s2_0_split_2
I0403 19:44:22.335165 25729 net.cpp:399] inception_5a/5x5_reduce -> inception_5a/5x5_reduce
I0403 19:44:22.336601 25729 net.cpp:141] Setting up inception_5a/5x5_reduce
I0403 19:44:22.336642 25729 net.cpp:148] Top shape: 24 32 7 7 (37632)
I0403 19:44:22.336664 25729 net.cpp:156] Memory required for data: 1299200544
I0403 19:44:22.336689 25729 layer_factory.hpp:77] Creating layer inception_5a/relu_5x5_reduce
I0403 19:44:22.336714 25729 net.cpp:91] Creating Layer inception_5a/relu_5x5_reduce
I0403 19:44:22.336735 25729 net.cpp:425] inception_5a/relu_5x5_reduce <- inception_5a/5x5_reduce
I0403 19:44:22.336760 25729 net.cpp:386] inception_5a/relu_5x5_reduce -> inception_5a/5x5_reduce (in-place)
I0403 19:44:22.337126 25729 net.cpp:141] Setting up inception_5a/relu_5x5_reduce
I0403 19:44:22.337162 25729 net.cpp:148] Top shape: 24 32 7 7 (37632)
I0403 19:44:22.337184 25729 net.cpp:156] Memory required for data: 1299351072
I0403 19:44:22.337204 25729 layer_factory.hpp:77] Creating layer inception_5a/5x5
I0403 19:44:22.337234 25729 net.cpp:91] Creating Layer inception_5a/5x5
I0403 19:44:22.337255 25729 net.cpp:425] inception_5a/5x5 <- inception_5a/5x5_reduce
I0403 19:44:22.337283 25729 net.cpp:399] inception_5a/5x5 -> inception_5a/5x5
I0403 19:44:22.339401 25729 net.cpp:141] Setting up inception_5a/5x5
I0403 19:44:22.339457 25729 net.cpp:148] Top shape: 24 128 7 7 (150528)
I0403 19:44:22.339481 25729 net.cpp:156] Memory required for data: 1299953184
I0403 19:44:22.339504 25729 layer_factory.hpp:77] Creating layer inception_5a/relu_5x5
I0403 19:44:22.339529 25729 net.cpp:91] Creating Layer inception_5a/relu_5x5
I0403 19:44:22.339550 25729 net.cpp:425] inception_5a/relu_5x5 <- inception_5a/5x5
I0403 19:44:22.339576 25729 net.cpp:386] inception_5a/relu_5x5 -> inception_5a/5x5 (in-place)
I0403 19:44:22.339810 25729 net.cpp:141] Setting up inception_5a/relu_5x5
I0403 19:44:22.339848 25729 net.cpp:148] Top shape: 24 128 7 7 (150528)
I0403 19:44:22.339869 25729 net.cpp:156] Memory required for data: 1300555296
I0403 19:44:22.339887 25729 layer_factory.hpp:77] Creating layer inception_5a/pool
I0403 19:44:22.339910 25729 net.cpp:91] Creating Layer inception_5a/pool
I0403 19:44:22.339932 25729 net.cpp:425] inception_5a/pool <- pool4/3x3_s2_pool4/3x3_s2_0_split_3
I0403 19:44:22.339958 25729 net.cpp:399] inception_5a/pool -> inception_5a/pool
I0403 19:44:22.340047 25729 net.cpp:141] Setting up inception_5a/pool
I0403 19:44:22.340083 25729 net.cpp:148] Top shape: 24 832 7 7 (978432)
I0403 19:44:22.340103 25729 net.cpp:156] Memory required for data: 1304469024
I0403 19:44:22.340122 25729 layer_factory.hpp:77] Creating layer inception_5a/pool_proj
I0403 19:44:22.340152 25729 net.cpp:91] Creating Layer inception_5a/pool_proj
I0403 19:44:22.340176 25729 net.cpp:425] inception_5a/pool_proj <- inception_5a/pool
I0403 19:44:22.340203 25729 net.cpp:399] inception_5a/pool_proj -> inception_5a/pool_proj
I0403 19:44:22.342988 25729 net.cpp:141] Setting up inception_5a/pool_proj
I0403 19:44:22.343029 25729 net.cpp:148] Top shape: 24 128 7 7 (150528)
I0403 19:44:22.343058 25729 net.cpp:156] Memory required for data: 1305071136
I0403 19:44:22.343083 25729 layer_factory.hpp:77] Creating layer inception_5a/relu_pool_proj
I0403 19:44:22.343106 25729 net.cpp:91] Creating Layer inception_5a/relu_pool_proj
I0403 19:44:22.343127 25729 net.cpp:425] inception_5a/relu_pool_proj <- inception_5a/pool_proj
I0403 19:44:22.343150 25729 net.cpp:386] inception_5a/relu_pool_proj -> inception_5a/pool_proj (in-place)
I0403 19:44:22.343513 25729 net.cpp:141] Setting up inception_5a/relu_pool_proj
I0403 19:44:22.343546 25729 net.cpp:148] Top shape: 24 128 7 7 (150528)
I0403 19:44:22.343572 25729 net.cpp:156] Memory required for data: 1305673248
I0403 19:44:22.343593 25729 layer_factory.hpp:77] Creating layer inception_5a/output
I0403 19:44:22.343617 25729 net.cpp:91] Creating Layer inception_5a/output
I0403 19:44:22.343639 25729 net.cpp:425] inception_5a/output <- inception_5a/1x1
I0403 19:44:22.343662 25729 net.cpp:425] inception_5a/output <- inception_5a/3x3
I0403 19:44:22.343684 25729 net.cpp:425] inception_5a/output <- inception_5a/5x5
I0403 19:44:22.343703 25729 net.cpp:425] inception_5a/output <- inception_5a/pool_proj
I0403 19:44:22.343726 25729 net.cpp:399] inception_5a/output -> inception_5a/output
I0403 19:44:22.343789 25729 net.cpp:141] Setting up inception_5a/output
I0403 19:44:22.343822 25729 net.cpp:148] Top shape: 24 832 7 7 (978432)
I0403 19:44:22.343840 25729 net.cpp:156] Memory required for data: 1309586976
I0403 19:44:22.343859 25729 layer_factory.hpp:77] Creating layer inception_5a/output_inception_5a/output_0_split
I0403 19:44:22.343879 25729 net.cpp:91] Creating Layer inception_5a/output_inception_5a/output_0_split
I0403 19:44:22.343899 25729 net.cpp:425] inception_5a/output_inception_5a/output_0_split <- inception_5a/output
I0403 19:44:22.343924 25729 net.cpp:399] inception_5a/output_inception_5a/output_0_split -> inception_5a/output_inception_5a/output_0_split_0
I0403 19:44:22.343955 25729 net.cpp:399] inception_5a/output_inception_5a/output_0_split -> inception_5a/output_inception_5a/output_0_split_1
I0403 19:44:22.343983 25729 net.cpp:399] inception_5a/output_inception_5a/output_0_split -> inception_5a/output_inception_5a/output_0_split_2
I0403 19:44:22.344012 25729 net.cpp:399] inception_5a/output_inception_5a/output_0_split -> inception_5a/output_inception_5a/output_0_split_3
I0403 19:44:22.344152 25729 net.cpp:141] Setting up inception_5a/output_inception_5a/output_0_split
I0403 19:44:22.344185 25729 net.cpp:148] Top shape: 24 832 7 7 (978432)
I0403 19:44:22.344207 25729 net.cpp:148] Top shape: 24 832 7 7 (978432)
I0403 19:44:22.344226 25729 net.cpp:148] Top shape: 24 832 7 7 (978432)
I0403 19:44:22.344247 25729 net.cpp:148] Top shape: 24 832 7 7 (978432)
I0403 19:44:22.344266 25729 net.cpp:156] Memory required for data: 1325241888
I0403 19:44:22.344285 25729 layer_factory.hpp:77] Creating layer inception_5b/1x1
I0403 19:44:22.344329 25729 net.cpp:91] Creating Layer inception_5b/1x1
I0403 19:44:22.344355 25729 net.cpp:425] inception_5b/1x1 <- inception_5a/output_inception_5a/output_0_split_0
I0403 19:44:22.344384 25729 net.cpp:399] inception_5b/1x1 -> inception_5b/1x1
I0403 19:44:22.348974 25729 net.cpp:141] Setting up inception_5b/1x1
I0403 19:44:22.349015 25729 net.cpp:148] Top shape: 24 384 7 7 (451584)
I0403 19:44:22.349037 25729 net.cpp:156] Memory required for data: 1327048224
I0403 19:44:22.349061 25729 layer_factory.hpp:77] Creating layer inception_5b/relu_1x1
I0403 19:44:22.349088 25729 net.cpp:91] Creating Layer inception_5b/relu_1x1
I0403 19:44:22.349112 25729 net.cpp:425] inception_5b/relu_1x1 <- inception_5b/1x1
I0403 19:44:22.349135 25729 net.cpp:386] inception_5b/relu_1x1 -> inception_5b/1x1 (in-place)
I0403 19:44:22.349509 25729 net.cpp:141] Setting up inception_5b/relu_1x1
I0403 19:44:22.349545 25729 net.cpp:148] Top shape: 24 384 7 7 (451584)
I0403 19:44:22.349565 25729 net.cpp:156] Memory required for data: 1328854560
I0403 19:44:22.349583 25729 layer_factory.hpp:77] Creating layer inception_5b/3x3_reduce
I0403 19:44:22.349616 25729 net.cpp:91] Creating Layer inception_5b/3x3_reduce
I0403 19:44:22.349643 25729 net.cpp:425] inception_5b/3x3_reduce <- inception_5a/output_inception_5a/output_0_split_1
I0403 19:44:22.349678 25729 net.cpp:399] inception_5b/3x3_reduce -> inception_5b/3x3_reduce
I0403 19:44:22.352941 25729 net.cpp:141] Setting up inception_5b/3x3_reduce
I0403 19:44:22.352982 25729 net.cpp:148] Top shape: 24 192 7 7 (225792)
I0403 19:44:22.353004 25729 net.cpp:156] Memory required for data: 1329757728
I0403 19:44:22.353029 25729 layer_factory.hpp:77] Creating layer inception_5b/relu_3x3_reduce
I0403 19:44:22.353055 25729 net.cpp:91] Creating Layer inception_5b/relu_3x3_reduce
I0403 19:44:22.353080 25729 net.cpp:425] inception_5b/relu_3x3_reduce <- inception_5b/3x3_reduce
I0403 19:44:22.353104 25729 net.cpp:386] inception_5b/relu_3x3_reduce -> inception_5b/3x3_reduce (in-place)
I0403 19:44:22.353349 25729 net.cpp:141] Setting up inception_5b/relu_3x3_reduce
I0403 19:44:22.353386 25729 net.cpp:148] Top shape: 24 192 7 7 (225792)
I0403 19:44:22.353407 25729 net.cpp:156] Memory required for data: 1330660896
I0403 19:44:22.353428 25729 layer_factory.hpp:77] Creating layer inception_5b/3x3
I0403 19:44:22.353457 25729 net.cpp:91] Creating Layer inception_5b/3x3
I0403 19:44:22.353480 25729 net.cpp:425] inception_5b/3x3 <- inception_5b/3x3_reduce
I0403 19:44:22.353507 25729 net.cpp:399] inception_5b/3x3 -> inception_5b/3x3
I0403 19:44:22.361872 25729 net.cpp:141] Setting up inception_5b/3x3
I0403 19:44:22.361912 25729 net.cpp:148] Top shape: 24 384 7 7 (451584)
I0403 19:44:22.361937 25729 net.cpp:156] Memory required for data: 1332467232
I0403 19:44:22.361963 25729 layer_factory.hpp:77] Creating layer inception_5b/relu_3x3
I0403 19:44:22.361989 25729 net.cpp:91] Creating Layer inception_5b/relu_3x3
I0403 19:44:22.362010 25729 net.cpp:425] inception_5b/relu_3x3 <- inception_5b/3x3
I0403 19:44:22.362031 25729 net.cpp:386] inception_5b/relu_3x3 -> inception_5b/3x3 (in-place)
I0403 19:44:22.362401 25729 net.cpp:141] Setting up inception_5b/relu_3x3
I0403 19:44:22.362438 25729 net.cpp:148] Top shape: 24 384 7 7 (451584)
I0403 19:44:22.362464 25729 net.cpp:156] Memory required for data: 1334273568
I0403 19:44:22.362484 25729 layer_factory.hpp:77] Creating layer inception_5b/5x5_reduce
I0403 19:44:22.362529 25729 net.cpp:91] Creating Layer inception_5b/5x5_reduce
I0403 19:44:22.362552 25729 net.cpp:425] inception_5b/5x5_reduce <- inception_5a/output_inception_5a/output_0_split_2
I0403 19:44:22.362581 25729 net.cpp:399] inception_5b/5x5_reduce -> inception_5b/5x5_reduce
I0403 19:44:22.364127 25729 net.cpp:141] Setting up inception_5b/5x5_reduce
I0403 19:44:22.364166 25729 net.cpp:148] Top shape: 24 48 7 7 (56448)
I0403 19:44:22.364187 25729 net.cpp:156] Memory required for data: 1334499360
I0403 19:44:22.364209 25729 layer_factory.hpp:77] Creating layer inception_5b/relu_5x5_reduce
I0403 19:44:22.364235 25729 net.cpp:91] Creating Layer inception_5b/relu_5x5_reduce
I0403 19:44:22.364259 25729 net.cpp:425] inception_5b/relu_5x5_reduce <- inception_5b/5x5_reduce
I0403 19:44:22.364284 25729 net.cpp:386] inception_5b/relu_5x5_reduce -> inception_5b/5x5_reduce (in-place)
I0403 19:44:22.364753 25729 net.cpp:141] Setting up inception_5b/relu_5x5_reduce
I0403 19:44:22.364794 25729 net.cpp:148] Top shape: 24 48 7 7 (56448)
I0403 19:44:22.364816 25729 net.cpp:156] Memory required for data: 1334725152
I0403 19:44:22.364836 25729 layer_factory.hpp:77] Creating layer inception_5b/5x5
I0403 19:44:22.364863 25729 net.cpp:91] Creating Layer inception_5b/5x5
I0403 19:44:22.364887 25729 net.cpp:425] inception_5b/5x5 <- inception_5b/5x5_reduce
I0403 19:44:22.364913 25729 net.cpp:399] inception_5b/5x5 -> inception_5b/5x5
I0403 19:44:22.367424 25729 net.cpp:141] Setting up inception_5b/5x5
I0403 19:44:22.367465 25729 net.cpp:148] Top shape: 24 128 7 7 (150528)
I0403 19:44:22.367489 25729 net.cpp:156] Memory required for data: 1335327264
I0403 19:44:22.367512 25729 layer_factory.hpp:77] Creating layer inception_5b/relu_5x5
I0403 19:44:22.367534 25729 net.cpp:91] Creating Layer inception_5b/relu_5x5
I0403 19:44:22.367555 25729 net.cpp:425] inception_5b/relu_5x5 <- inception_5b/5x5
I0403 19:44:22.367578 25729 net.cpp:386] inception_5b/relu_5x5 -> inception_5b/5x5 (in-place)
I0403 19:44:22.367821 25729 net.cpp:141] Setting up inception_5b/relu_5x5
I0403 19:44:22.367856 25729 net.cpp:148] Top shape: 24 128 7 7 (150528)
I0403 19:44:22.367874 25729 net.cpp:156] Memory required for data: 1335929376
I0403 19:44:22.367893 25729 layer_factory.hpp:77] Creating layer inception_5b/pool
I0403 19:44:22.367915 25729 net.cpp:91] Creating Layer inception_5b/pool
I0403 19:44:22.367938 25729 net.cpp:425] inception_5b/pool <- inception_5a/output_inception_5a/output_0_split_3
I0403 19:44:22.367965 25729 net.cpp:399] inception_5b/pool -> inception_5b/pool
I0403 19:44:22.368055 25729 net.cpp:141] Setting up inception_5b/pool
I0403 19:44:22.368091 25729 net.cpp:148] Top shape: 24 832 7 7 (978432)
I0403 19:44:22.368110 25729 net.cpp:156] Memory required for data: 1339843104
I0403 19:44:22.368129 25729 layer_factory.hpp:77] Creating layer inception_5b/pool_proj
I0403 19:44:22.368158 25729 net.cpp:91] Creating Layer inception_5b/pool_proj
I0403 19:44:22.368182 25729 net.cpp:425] inception_5b/pool_proj <- inception_5b/pool
I0403 19:44:22.368206 25729 net.cpp:399] inception_5b/pool_proj -> inception_5b/pool_proj
I0403 19:44:22.371023 25729 net.cpp:141] Setting up inception_5b/pool_proj
I0403 19:44:22.371064 25729 net.cpp:148] Top shape: 24 128 7 7 (150528)
I0403 19:44:22.371086 25729 net.cpp:156] Memory required for data: 1340445216
I0403 19:44:22.371110 25729 layer_factory.hpp:77] Creating layer inception_5b/relu_pool_proj
I0403 19:44:22.371140 25729 net.cpp:91] Creating Layer inception_5b/relu_pool_proj
I0403 19:44:22.371165 25729 net.cpp:425] inception_5b/relu_pool_proj <- inception_5b/pool_proj
I0403 19:44:22.371188 25729 net.cpp:386] inception_5b/relu_pool_proj -> inception_5b/pool_proj (in-place)
I0403 19:44:22.371554 25729 net.cpp:141] Setting up inception_5b/relu_pool_proj
I0403 19:44:22.371589 25729 net.cpp:148] Top shape: 24 128 7 7 (150528)
I0403 19:44:22.371610 25729 net.cpp:156] Memory required for data: 1341047328
I0403 19:44:22.371631 25729 layer_factory.hpp:77] Creating layer inception_5b/output
I0403 19:44:22.371659 25729 net.cpp:91] Creating Layer inception_5b/output
I0403 19:44:22.371697 25729 net.cpp:425] inception_5b/output <- inception_5b/1x1
I0403 19:44:22.371723 25729 net.cpp:425] inception_5b/output <- inception_5b/3x3
I0403 19:44:22.371744 25729 net.cpp:425] inception_5b/output <- inception_5b/5x5
I0403 19:44:22.371765 25729 net.cpp:425] inception_5b/output <- inception_5b/pool_proj
I0403 19:44:22.371788 25729 net.cpp:399] inception_5b/output -> inception_5b/output
I0403 19:44:22.371856 25729 net.cpp:141] Setting up inception_5b/output
I0403 19:44:22.371891 25729 net.cpp:148] Top shape: 24 1024 7 7 (1204224)
I0403 19:44:22.371911 25729 net.cpp:156] Memory required for data: 1345864224
I0403 19:44:22.371928 25729 layer_factory.hpp:77] Creating layer pool5/7x7_s1
I0403 19:44:22.371953 25729 net.cpp:91] Creating Layer pool5/7x7_s1
I0403 19:44:22.371973 25729 net.cpp:425] pool5/7x7_s1 <- inception_5b/output
I0403 19:44:22.371999 25729 net.cpp:399] pool5/7x7_s1 -> pool5/7x7_s1
I0403 19:44:22.372267 25729 net.cpp:141] Setting up pool5/7x7_s1
I0403 19:44:22.372315 25729 net.cpp:148] Top shape: 24 1024 1 1 (24576)
I0403 19:44:22.372337 25729 net.cpp:156] Memory required for data: 1345962528
I0403 19:44:22.372356 25729 layer_factory.hpp:77] Creating layer pool5/drop_7x7_s1
I0403 19:44:22.372380 25729 net.cpp:91] Creating Layer pool5/drop_7x7_s1
I0403 19:44:22.372400 25729 net.cpp:425] pool5/drop_7x7_s1 <- pool5/7x7_s1
I0403 19:44:22.372426 25729 net.cpp:386] pool5/drop_7x7_s1 -> pool5/7x7_s1 (in-place)
I0403 19:44:22.372491 25729 net.cpp:141] Setting up pool5/drop_7x7_s1
I0403 19:44:22.372524 25729 net.cpp:148] Top shape: 24 1024 1 1 (24576)
I0403 19:44:22.372544 25729 net.cpp:156] Memory required for data: 1346060832
I0403 19:44:22.372563 25729 layer_factory.hpp:77] Creating layer loss3/classifier_plantvillage
I0403 19:44:22.372591 25729 net.cpp:91] Creating Layer loss3/classifier_plantvillage
I0403 19:44:22.372611 25729 net.cpp:425] loss3/classifier_plantvillage <- pool5/7x7_s1
I0403 19:44:22.372638 25729 net.cpp:399] loss3/classifier_plantvillage -> loss3/classifier_plantvillage
I0403 19:44:22.373164 25729 net.cpp:141] Setting up loss3/classifier_plantvillage
I0403 19:44:22.373199 25729 net.cpp:148] Top shape: 24 38 (912)
I0403 19:44:22.373219 25729 net.cpp:156] Memory required for data: 1346064480
I0403 19:44:22.373242 25729 layer_factory.hpp:77] Creating layer loss3/classifier_plantvillage_loss3/classifier_plantvillage_0_split
I0403 19:44:22.373266 25729 net.cpp:91] Creating Layer loss3/classifier_plantvillage_loss3/classifier_plantvillage_0_split
I0403 19:44:22.373301 25729 net.cpp:425] loss3/classifier_plantvillage_loss3/classifier_plantvillage_0_split <- loss3/classifier_plantvillage
I0403 19:44:22.373327 25729 net.cpp:399] loss3/classifier_plantvillage_loss3/classifier_plantvillage_0_split -> loss3/classifier_plantvillage_loss3/classifier_plantvillage_0_split_0
I0403 19:44:22.373353 25729 net.cpp:399] loss3/classifier_plantvillage_loss3/classifier_plantvillage_0_split -> loss3/classifier_plantvillage_loss3/classifier_plantvillage_0_split_1
I0403 19:44:22.373381 25729 net.cpp:399] loss3/classifier_plantvillage_loss3/classifier_plantvillage_0_split -> loss3/classifier_plantvillage_loss3/classifier_plantvillage_0_split_2
I0403 19:44:22.373409 25729 net.cpp:399] loss3/classifier_plantvillage_loss3/classifier_plantvillage_0_split -> loss3/classifier_plantvillage_loss3/classifier_plantvillage_0_split_3
I0403 19:44:22.373535 25729 net.cpp:141] Setting up loss3/classifier_plantvillage_loss3/classifier_plantvillage_0_split
I0403 19:44:22.373569 25729 net.cpp:148] Top shape: 24 38 (912)
I0403 19:44:22.373590 25729 net.cpp:148] Top shape: 24 38 (912)
I0403 19:44:22.373610 25729 net.cpp:148] Top shape: 24 38 (912)
I0403 19:44:22.373630 25729 net.cpp:148] Top shape: 24 38 (912)
I0403 19:44:22.373646 25729 net.cpp:156] Memory required for data: 1346079072
I0403 19:44:22.373667 25729 layer_factory.hpp:77] Creating layer loss1/loss
I0403 19:44:22.373697 25729 net.cpp:91] Creating Layer loss1/loss
I0403 19:44:22.373720 25729 net.cpp:425] loss1/loss <- loss1/classifier_plantvillage_loss1/classifier_plantvillage_0_split_0
I0403 19:44:22.373761 25729 net.cpp:425] loss1/loss <- label_data_1_split_0
…
