…
I0403 19:35:41.815511 25220 net.cpp:313] The NetState phase (1) differed from the phase (0) specified by a rule in layer data
I0403 19:35:41.816715 25220 net.cpp:49] Initializing net from parameters: 
state {
  phase: TEST
}
layer {
  name: "data"
  type: "Data"
  top: "data"
  top: "label"
  include {
    phase: TEST
  }
  transform_param {
    mirror: false
    crop_size: 224
    mean_file: "/home/mohanty/data/final_dataset/lmdb/grayscale-80-20/mean.binaryproto"
  }
  data_param {
    source: "/home/mohanty/data/final_dataset/lmdb/grayscale-80-20/test_db"
    batch_size: 24
    backend: LMDB
  }
}
layer {
  name: "conv1/7x7_s2"
  type: "Convolution"
  bottom: "data"
  top: "conv1/7x7_s2"
  param {
    lr_mult: 1
    decay_mult: 1
  }
  param {
    lr_mult: 2
    decay_mult: 0
  }
  convolution_param {
    num_output: 64
    pad: 3
    kernel_size: 7
    stride: 2
    weight_filler {
      type: "xavier"
      std: 0.1
    }
    bias_filler {
      type: "constant"
      value: 0.2
    }
  }
}
layer {
  name: "conv1/relu_7x7"
  type: "ReLU"
  bottom: "conv1/7x7_s2"
  top: "conv1/7x7_s2"
}
layer {
  name: "pool1/3x3_s2"
  type: "Pooling"
  bottom: "conv1/7x7_s2"
  top: "pool1/3x3_s2"
  pooling_param {
    pool: MAX
    kernel_size: 3
    stride: 2
  }
}
layer {
  name: "pool1/norm1"
  type: "LRN"
  bottom: "pool1/3x3_s2"
  top: "pool1/norm1"
  lrn_param {
    local_size: 5
    alpha: 0.0001
    beta: 0.75
  }
}
layer {
  name: "conv2/3x3_reduce"
  type: "Convolution"
  bottom: "pool1/norm1"
  top: "conv2/3x3_reduce"
  param {
    lr_mult: 1
    decay_mult: 1
  }
  param {
    lr_mult: 2
    decay_mult: 0
  }
  convolution_param {
    num_output: 64
    kernel_size: 1
    weight_filler {
      type: "xavier"
      std: 0.1
    }
    bias_filler {
      type: "constant"
      value: 0.2
    }
  }
}
layer {
  name: "conv2/relu_3x3_reduce"
  type: "ReLU"
  bottom: "conv2/3x3_reduce"
  top: "conv2/3x3_reduce"
}
layer {
  name: "conv2/3x3"
  type: "Convolution"
  bottom: "conv2/3x3_reduce"
  top: "conv2/3x3"
  param {
    lr_mult: 1
    decay_mult: 1
  }
  param {
    lr_mult: 2
    decay_mult: 0
  }
  convolution_param {
    num_output: 192
    pad: 1
    kernel_size: 3
    weight_filler {
      type: "xavier"
      std: 0.03
    }
    bias_filler {
      type: "constant"
      value: 0.2
    }
  }
}
layer {
  name: "conv2/relu_3x3"
  type: "ReLU"
  bottom: "conv2/3x3"
  top: "conv2/3x3"
}
layer {
  name: "conv2/norm2"
  type: "LRN"
  bottom: "conv2/3x3"
  top: "conv2/norm2"
  lrn_param {
    local_size: 5
    alpha: 0.0001
    beta: 0.75
  }
}
layer {
  name: "pool2/3x3_s2"
  type: "Pooling"
  bottom: "conv2/norm2"
  top: "pool2/3x3_s2"
  pooling_param {
    pool: MAX
    kernel_size: 3
    stride: 2
  }
}
layer {
  name: "inception_3a/1x1"
  type: "Convolution"
  bottom: "pool2/3x3_s2"
  top: "inception_3a/1x1"
  param {
    lr_mult: 1
    decay_mult: 1
  }
  param {
    lr_mult: 2
    decay_mult: 0
  }
  convolution_param {
    num_output: 64
    kernel_size: 1
    weight_filler {
      type: "xavier"
      std: 0.03
    }
    bias_filler {
      type: "constant"
      value: 0.2
    }
  }
}
layer {
  name: "inception_3a/relu_1x1"
  type: "ReLU"
  bottom: "inception_3a/1x1"
  top: "inception_3a/1x1"
}
layer {
  name: "inception_3a/3x3_reduce"
  type: "Convolution"
  bottom: "pool2/3x3_s2"
  top: "inception_3a/3x3_reduce"
  param {
    lr_mult: 1
    decay_mult: 1
  }
  param {
    lr_mult: 2
    decay_mult: 0
  }
  convolution_param {
    num_output: 96
    kernel_size: 1
    weight_filler {
      type: "xavier"
      std: 0.09
    }
    bias_filler {
      type: "constant"
      value: 0.2
    }
  }
}
layer {
  name: "inception_3a/relu_3x3_reduce"
  type: "ReLU"
  bottom: "inception_3a/3x3_reduce"
  top: "inception_3a/3x3_reduce"
}
layer {
  name: "inception_3a/3x3"
  type: "Convolution"
  bottom: "inception_3a/3x3_reduce"
  top: "inception_3a/3x3"
  param {
    lr_mult: 1
    decay_mult: 1
  }
  param {
    lr_mult: 2
    decay_mult: 0
  }
  convolution_param {
    num_output: 128
    pad: 1
    kernel_size: 3
    weight_filler {
      type: "xavier"
      std: 0.03
    }
    bias_filler {
      type: "constant"
      value: 0.2
    }
  }
}
layer {
  name: "inception_3a/relu_3x3"
  type: "ReLU"
  bottom: "inception_3a/3x3"
  top: "inception_3a/3x3"
}
layer {
  name: "inception_3a/5x5_reduce"
  type: "Convolution"
  bottom: "pool2/3x3_s2"
  top: "inception_3a/5x5_reduce"
  param {
    lr_mult: 1
    decay_mult: 1
  }
  param {
    lr_mult: 2
    decay_mult: 0
  }
  convolution_param {
    num_output: 16
    kernel_size: 1
    weight_filler {
      type: "xavier"
      std: 0.2
    }
    bias_filler {
      type: "constant"
      value: 0.2
    }
  }
}
layer {
  name: "inception_3a/relu_5x5_reduce"
  type: "ReLU"
  bottom: "inception_3a/5x5_reduce"
  top: "inception_3a/5x5_reduce"
}
layer {
  name: "inception_3a/5x5"
  type: "Convolution"
  bottom: "inception_3a/5x5_reduce"
  top: "inception_3a/5x5"
  param {
    lr_mult: 1
    decay_mult: 1
  }
  param {
    lr_mult: 2
    decay_mult: 0
  }
  convolution_param {
    num_output: 32
    pad: 2
    kernel_size: 5
    weight_filler {
      type: "xavier"
      std: 0.03
    }
    bias_filler {
      type: "constant"
      value: 0.2
    }
  }
}
layer {
  name: "inception_3a/relu_5x5"
  type: "ReLU"
  bottom: "inception_3a/5x5"
  top: "inception_3a/5x5"
}
layer {
  name: "inception_3a/pool"
  type: "Pooling"
  bottom: "pool2/3x3_s2"
  top: "inception_3a/pool"
  pooling_param {
    pool: MAX
    kernel_size: 3
    stride: 1
    pad: 1
  }
}
layer {
  name: "inception_3a/pool_proj"
  type: "Convolution"
  bottom: "inception_3a/pool"
  top: "inception_3a/pool_proj"
  param {
    lr_mult: 1
    decay_mult: 1
  }
  param {
    lr_mult: 2
    decay_mult: 0
  }
  convolution_param {
    num_output: 32
    kernel_size: 1
    weight_filler {
      type: "xavier"
      std: 0.1
    }
    bias_filler {
      type: "constant"
      value: 0.2
    }
  }
}
layer {
  name: "inception_3a/relu_pool_proj"
  type: "ReLU"
  bottom: "inception_3a/pool_proj"
  top: "inception_3a/pool_proj"
}
layer {
  name: "inception_3a/output"
  type: "Concat"
  bottom: "inception_3a/1x1"
  bottom: "inception_3a/3x3"
  bottom: "inception_3a/5x5"
  bottom: "inception_3a/pool_proj"
  top: "inception_3a/output"
}
layer {
  name: "inception_3b/1x1"
  type: "Convolution"
  bottom: "inception_3a/output"
  top: "inception_3b/1x1"
  param {
    lr_mult: 1
    decay_mult: 1
  }
  param {
    lr_mult: 2
    decay_mult: 0
  }
  convolution_param {
    num_output: 128
    kernel_size: 1
    weight_filler {
      type: "xavier"
      std: 0.03
    }
    bias_filler {
      type: "constant"
      value: 0.2
    }
  }
}
layer {
  name: "inception_3b/relu_1x1"
  type: "ReLU"
  bottom: "inception_3b/1x1"
  top: "inception_3b/1x1"
}
layer {
  name: "inception_3b/3x3_reduce"
  type: "Convolution"
  bottom: "inception_3a/output"
  top: "inception_3b/3x3_reduce"
  param {
    lr_mult: 1
    decay_mult: 1
  }
  param {
    lr_mult: 2
    decay_mult: 0
  }
  convolution_param {
    num_output: 128
    kernel_size: 1
    weight_filler {
      type: "xavier"
      std: 0.09
    }
    bias_filler {
      type: "constant"
      value: 0.2
    }
  }
}
layer {
  name: "inception_3b/relu_3x3_reduce"
  type: "ReLU"
  bottom: "inception_3b/3x3_reduce"
  top: "inception_3b/3x3_reduce"
}
layer {
  name: "inception_3b/3x3"
  type: "Convolution"
  bottom: "inception_3b/3x3_reduce"
  top: "inception_3b/3x3"
  param {
    lr_mult: 1
    decay_mult: 1
  }
  param {
    lr_mult: 2
    decay_mult: 0
  }
  convolution_param {
    num_output: 192
    pad: 1
    kernel_size: 3
    weight_filler {
      type: "xavier"
      std: 0.03
    }
    bias_filler {
      type: "constant"
      value: 0.2
    }
  }
}
layer {
  name: "inception_3b/relu_3x3"
  type: "ReLU"
  bottom: "inception_3b/3x3"
  top: "inception_3b/3x3"
}
layer {
  name: "inception_3b/5x5_reduce"
  type: "Convolution"
  bottom: "inception_3a/output"
  top: "inception_3b/5x5_reduce"
  param {
    lr_mult: 1
    decay_mult: 1
  }
  param {
    lr_mult: 2
    decay_mult: 0
  }
  convolution_param {
    num_output: 32
    kernel_size: 1
    weight_filler {
      type: "xavier"
      std: 0.2
    }
    bias_filler {
      type: "constant"
      value: 0.2
    }
  }
}
layer {
  name: "inception_3b/relu_5x5_reduce"
  type: "ReLU"
  bottom: "inception_3b/5x5_reduce"
  top: "inception_3b/5x5_reduce"
}
layer {
  name: "inception_3b/5x5"
  type: "Convolution"
  bottom: "inception_3b/5x5_reduce"
  top: "inception_3b/5x5"
  param {
    lr_mult: 1
    decay_mult: 1
  }
  param {
    lr_mult: 2
    decay_mult: 0
  }
  convolution_param {
    num_output: 96
    pad: 2
    kernel_size: 5
    weight_filler {
      type: "xavier"
      std: 0.03
    }
    bias_filler {
      type: "constant"
      value: 0.2
    }
  }
}
layer {
  name: "inception_3b/relu_5x5"
  type: "ReLU"
  bottom: "inception_3b/5x5"
  top: "inception_3b/5x5"
}
layer {
  name: "inception_3b/pool"
  type: "Pooling"
  bottom: "inception_3a/output"
  top: "inception_3b/pool"
  pooling_param {
    pool: MAX
    kernel_size: 3
    stride: 1
    pad: 1
  }
}
layer {
  name: "inception_3b/pool_proj"
  type: "Convolution"
  bottom: "inception_3b/pool"
  top: "inception_3b/pool_proj"
  param {
    lr_mult: 1
    decay_mult: 1
  }
  param {
    lr_mult: 2
    decay_mult: 0
  }
  convolution_param {
    num_output: 64
    kernel_size: 1
    weight_filler {
      type: "xavier"
      std: 0.1
    }
    bias_filler {
      type: "constant"
      value: 0.2
    }
  }
}
layer {
  name: "inception_3b/relu_pool_proj"
  type: "ReLU"
  bottom: "inception_3b/pool_proj"
  top: "inception_3b/pool_proj"
}
layer {
  name: "inception_3b/output"
  type: "Concat"
  bottom: "inception_3b/1x1"
  bottom: "inception_3b/3x3"
  bottom: "inception_3b/5x5"
  bottom: "inception_3b/pool_proj"
  top: "inception_3b/output"
}
layer {
  name: "pool3/3x3_s2"
  type: "Pooling"
  bottom: "inception_3b/output"
  top: "pool3/3x3_s2"
  pooling_param {
    pool: MAX
    kernel_size: 3
    stride: 2
  }
}
layer {
  name: "inception_4a/1x1"
  type: "Convolution"
  bottom: "pool3/3x3_s2"
  top: "inception_4a/1x1"
  param {
    lr_mult: 1
    decay_mult: 1
  }
  param {
    lr_mult: 2
    decay_mult: 0
  }
  convolution_param {
    num_output: 192
    kernel_size: 1
    weight_filler {
      type: "xavier"
      std: 0.03
    }
    bias_filler {
      type: "constant"
      value: 0.2
    }
  }
}
layer {
  name: "inception_4a/relu_1x1"
  type: "ReLU"
  bottom: "inception_4a/1x1"
  top: "inception_4a/1x1"
}
layer {
  name: "inception_4a/3x3_reduce"
  type: "Convolution"
  bottom: "pool3/3x3_s2"
  top: "inception_4a/3x3_reduce"
  param {
    lr_mult: 1
    decay_mult: 1
  }
  param {
    lr_mult: 2
    decay_mult: 0
  }
  convolution_param {
    num_output: 96
    kernel_size: 1
    weight_filler {
      type: "xavier"
      std: 0.09
    }
    bias_filler {
      type: "constant"
      value: 0.2
    }
  }
}
layer {
  name: "inception_4a/relu_3x3_reduce"
  type: "ReLU"
  bottom: "inception_4a/3x3_reduce"
  top: "inception_4a/3x3_reduce"
}
layer {
  name: "inception_4a/3x3"
  type: "Convolution"
  bottom: "inception_4a/3x3_reduce"
  top: "inception_4a/3x3"
  param {
    lr_mult: 1
    decay_mult: 1
  }
  param {
    lr_mult: 2
    decay_mult: 0
  }
  convolution_param {
    num_output: 208
    pad: 1
    kernel_size: 3
    weight_filler {
      type: "xavier"
      std: 0.03
    }
    bias_filler {
      type: "constant"
      value: 0.2
    }
  }
}
layer {
  name: "inception_4a/relu_3x3"
  type: "ReLU"
  bottom: "inception_4a/3x3"
  top: "inception_4a/3x3"
}
layer {
  name: "inception_4a/5x5_reduce"
  type: "Convolution"
  bottom: "pool3/3x3_s2"
  top: "inception_4a/5x5_reduce"
  param {
    lr_mult: 1
    decay_mult: 1
  }
  param {
    lr_mult: 2
    decay_mult: 0
  }
  convolution_param {
    num_output: 16
    kernel_size: 1
    weight_filler {
      type: "xavier"
      std: 0.2
    }
    bias_filler {
      type: "constant"
      value: 0.2
    }
  }
}
layer {
  name: "inception_4a/relu_5x5_reduce"
  type: "ReLU"
  bottom: "inception_4a/5x5_reduce"
  top: "inception_4a/5x5_reduce"
}
layer {
  name: "inception_4a/5x5"
  type: "Convolution"
  bottom: "inception_4a/5x5_reduce"
  top: "inception_4a/5x5"
  param {
    lr_mult: 1
    decay_mult: 1
  }
  param {
    lr_mult: 2
    decay_mult: 0
  }
  convolution_param {
    num_output: 48
    pad: 2
    kernel_size: 5
    weight_filler {
      type: "xavier"
      std: 0.03
    }
    bias_filler {
      type: "constant"
      value: 0.2
    }
  }
}
layer {
  name: "inception_4a/relu_5x5"
  type: "ReLU"
  bottom: "inception_4a/5x5"
  top: "inception_4a/5x5"
}
layer {
  name: "inception_4a/pool"
  type: "Pooling"
  bottom: "pool3/3x3_s2"
  top: "inception_4a/pool"
  pooling_param {
    pool: MAX
    kernel_size: 3
    stride: 1
    pad: 1
  }
}
layer {
  name: "inception_4a/pool_proj"
  type: "Convolution"
  bottom: "inception_4a/pool"
  top: "inception_4a/pool_proj"
  param {
    lr_mult: 1
    decay_mult: 1
  }
  param {
    lr_mult: 2
    decay_mult: 0
  }
  convolution_param {
    num_output: 64
    kernel_size: 1
    weight_filler {
      type: "xavier"
      std: 0.1
    }
    bias_filler {
      type: "constant"
      value: 0.2
    }
  }
}
layer {
  name: "inception_4a/relu_pool_proj"
  type: "ReLU"
  bottom: "inception_4a/pool_proj"
  top: "inception_4a/pool_proj"
}
layer {
  name: "inception_4a/output"
  type: "Concat"
  bottom: "inception_4a/1x1"
  bottom: "inception_4a/3x3"
  bottom: "inception_4a/5x5"
  bottom: "inception_4a/pool_proj"
  top: "inception_4a/output"
}
layer {
  name: "loss1/ave_pool"
  type: "Pooling"
  bottom: "inception_4a/output"
  top: "loss1/ave_pool"
  pooling_param {
    pool: AVE
    kernel_size: 5
    stride: 3
  }
}
layer {
  name: "loss1/conv"
  type: "Convolution"
  bottom: "loss1/ave_pool"
  top: "loss1/conv"
  param {
    lr_mult: 1
    decay_mult: 1
  }
  param {
    lr_mult: 2
    decay_mult: 0
  }
  convolution_param {
    num_output: 128
    kernel_size: 1
    weight_filler {
      type: "xavier"
      std: 0.08
    }
    bias_filler {
      type: "constant"
      value: 0.2
    }
  }
}
layer {
  name: "loss1/relu_conv"
  type: "ReLU"
  bottom: "loss1/conv"
  top: "loss1/conv"
}
layer {
  name: "loss1/fc"
  type: "InnerProduct"
  bottom: "loss1/conv"
  top: "loss1/fc"
  param {
    lr_mult: 1
    decay_mult: 1
  }
  param {
    lr_mult: 2
    decay_mult: 0
  }
  inner_product_param {
    num_output: 1024
    weight_filler {
      type: "xavier"
      std: 0.02
    }
    bias_filler {
      type: "constant"
      value: 0.2
    }
  }
}
layer {
  name: "loss1/relu_fc"
  type: "ReLU"
  bottom: "loss1/fc"
  top: "loss1/fc"
}
layer {
  name: "loss1/drop_fc"
  type: "Dropout"
  bottom: "loss1/fc"
  top: "loss1/fc"
  dropout_param {
    dropout_ratio: 0.7
  }
}
layer {
  name: "loss1/classifier_plantvillage"
  type: "InnerProduct"
  bottom: "loss1/fc"
  top: "loss1/classifier_plantvillage"
  param {
    lr_mult: 1
    decay_mult: 1
  }
  param {
    lr_mult: 2
    decay_mult: 0
  }
  inner_product_param {
    num_output: 38
    weight_filler {
      type: "xavier"
      std: 0.0009765625
    }
    bias_filler {
      type: "constant"
      value: 0
    }
  }
}
layer {
  name: "inception_4b/1x1"
  type: "Convolution"
  bottom: "inception_4a/output"
  top: "inception_4b/1x1"
  param {
    lr_mult: 1
    decay_mult: 1
  }
  param {
    lr_mult: 2
    decay_mult: 0
  }
  convolution_param {
    num_output: 160
    kernel_size: 1
    weight_filler {
      type: "xavier"
      std: 0.03
    }
    bias_filler {
      type: "constant"
      value: 0.2
    }
  }
}
layer {
  name: "inception_4b/relu_1x1"
  type: "ReLU"
  bottom: "inception_4b/1x1"
  top: "inception_4b/1x1"
}
layer {
  name: "inception_4b/3x3_reduce"
  type: "Convolution"
  bottom: "inception_4a/output"
  top: "inception_4b/3x3_reduce"
  param {
    lr_mult: 1
    decay_mult: 1
  }
  param {
    lr_mult: 2
    decay_mult: 0
  }
  convolution_param {
    num_output: 112
    kernel_size: 1
    weight_filler {
      type: "xavier"
      std: 0.09
    }
    bias_filler {
      type: "constant"
      value: 0.2
    }
  }
}
layer {
  name: "inception_4b/relu_3x3_reduce"
  type: "ReLU"
  bottom: "inception_4b/3x3_reduce"
  top: "inception_4b/3x3_reduce"
}
layer {
  name: "inception_4b/3x3"
  type: "Convolution"
  bottom: "inception_4b/3x3_reduce"
  top: "inception_4b/3x3"
  param {
    lr_mult: 1
    decay_mult: 1
  }
  param {
    lr_mult: 2
    decay_mult: 0
  }
  convolution_param {
    num_output: 224
    pad: 1
    kernel_size: 3
    weight_filler {
      type: "xavier"
      std: 0.03
    }
    bias_filler {
      type: "constant"
      value: 0.2
    }
  }
}
layer {
  name: "inception_4b/relu_3x3"
  type: "ReLU"
  bottom: "inception_4b/3x3"
  top: "inception_4b/3x3"
}
layer {
  name: "inception_4b/5x5_reduce"
  type: "Convolution"
  bottom: "inception_4a/output"
  top: "inception_4b/5x5_reduce"
  param {
    lr_mult: 1
    decay_mult: 1
  }
  param {
    lr_mult: 2
    decay_mult: 0
  }
  convolution_param {
    num_output: 24
    kernel_size: 1
    weight_filler {
      type: "xavier"
      std: 0.2
    }
    bias_filler {
      type: "constant"
      value: 0.2
    }
  }
}
layer {
  name: "inception_4b/relu_5x5_reduce"
  type: "ReLU"
  bottom: "inception_4b/5x5_reduce"
  top: "inception_4b/5x5_reduce"
}
layer {
  name: "inception_4b/5x5"
  type: "Convolution"
  bottom: "inception_4b/5x5_reduce"
  top: "inception_4b/5x5"
  param {
    lr_mult: 1
    decay_mult: 1
  }
  param {
    lr_mult: 2
    decay_mult: 0
  }
  convolution_param {
    num_output: 64
    pad: 2
    kernel_size: 5
    weight_filler {
      type: "xavier"
      std: 0.03
    }
    bias_filler {
      type: "constant"
      value: 0.2
    }
  }
}
layer {
  name: "inception_4b/relu_5x5"
  type: "ReLU"
  bottom: "inception_4b/5x5"
  top: "inception_4b/5x5"
}
layer {
  name: "inception_4b/pool"
  type: "Pooling"
  bottom: "inception_4a/output"
  top: "inception_4b/pool"
  pooling_param {
    pool: MAX
    kernel_size: 3
    stride: 1
    pad: 1
  }
}
layer {
  name: "inception_4b/pool_proj"
  type: "Convolution"
  bottom: "inception_4b/pool"
  top: "inception_4b/pool_proj"
  param {
    lr_mult: 1
    decay_mult: 1
  }
  param {
    lr_mult: 2
    decay_mult: 0
  }
  convolution_param {
    num_output: 64
    kernel_size: 1
    weight_filler {
      type: "xavier"
      std: 0.1
    }
    bias_filler {
      type: "constant"
      value: 0.2
    }
  }
}
layer {
  name: "inception_4b/relu_pool_proj"
  type: "ReLU"
  bottom: "inception_4b/pool_proj"
  top: "inception_4b/pool_proj"
}
layer {
  name: "inception_4b/output"
  type: "Concat"
  bottom: "inception_4b/1x1"
  bottom: "inception_4b/3x3"
  bottom: "inception_4b/5x5"
  bottom: "inception_4b/pool_proj"
  top: "inception_4b/output"
}
layer {
  name: "inception_4c/1x1"
  type: "Convolution"
  bottom: "inception_4b/output"
  top: "inception_4c/1x1"
  param {
    lr_mult: 1
    decay_mult: 1
  }
  param {
    lr_mult: 2
    decay_mult: 0
  }
  convolution_param {
    num_output: 128
    kernel_size: 1
    weight_filler {
      type: "xavier"
      std: 0.03
    }
    bias_filler {
      type: "constant"
      value: 0.2
    }
  }
}
layer {
  name: "inception_4c/relu_1x1"
  type: "ReLU"
  bottom: "inception_4c/1x1"
  top: "inception_4c/1x1"
}
layer {
  name: "inception_4c/3x3_reduce"
  type: "Convolution"
  bottom: "inception_4b/output"
  top: "inception_4c/3x3_reduce"
  param {
    lr_mult: 1
    decay_mult: 1
  }
  param {
    lr_mult: 2
    decay_mult: 0
  }
  convolution_param {
    num_output: 128
    kernel_size: 1
    weight_filler {
      type: "xavier"
      std: 0.09
    }
    bias_filler {
      type: "constant"
      value: 0.2
    }
  }
}
layer {
  name: "inception_4c/relu_3x3_reduce"
  type: "ReLU"
  bottom: "inception_4c/3x3_reduce"
  top: "inception_4c/3x3_reduce"
}
layer {
  name: "inception_4c/3x3"
  type: "Convolution"
  bottom: "inception_4c/3x3_reduce"
  top: "inception_4c/3x3"
  param {
    lr_mult: 1
    decay_mult: 1
  }
  param {
    lr_mult: 2
    decay_mult: 0
  }
  convolution_param {
    num_output: 256
    pad: 1
    kernel_size: 3
    weight_filler {
      type: "xavier"
      std: 0.03
    }
    bias_filler {
      type: "constant"
      value: 0.2
    }
  }
}
layer {
  name: "inception_4c/relu_3x3"
  type: "ReLU"
  bottom: "inception_4c/3x3"
  top: "inception_4c/3x3"
}
layer {
  name: "inception_4c/5x5_reduce"
  type: "Convolution"
  bottom: "inception_4b/output"
  top: "inception_4c/5x5_reduce"
  param {
    lr_mult: 1
    decay_mult: 1
  }
  param {
    lr_mult: 2
    decay_mult: 0
  }
  convolution_param {
    num_output: 24
    kernel_size: 1
    weight_filler {
      type: "xavier"
      std: 0.2
    }
    bias_filler {
      type: "constant"
      value: 0.2
    }
  }
}
layer {
  name: "inception_4c/relu_5x5_reduce"
  type: "ReLU"
  bottom: "inception_4c/5x5_reduce"
  top: "inception_4c/5x5_reduce"
}
layer {
  name: "inception_4c/5x5"
  type: "Convolution"
  bottom: "inception_4c/5x5_reduce"
  top: "inception_4c/5x5"
  param {
    lr_mult: 1
    decay_mult: 1
  }
  param {
    lr_mult: 2
    decay_mult: 0
  }
  convolution_param {
    num_output: 64
    pad: 2
    kernel_size: 5
    weight_filler {
      type: "xavier"
      std: 0.03
    }
    bias_filler {
      type: "constant"
      value: 0.2
    }
  }
}
layer {
  name: "inception_4c/relu_5x5"
  type: "ReLU"
  bottom: "inception_4c/5x5"
  top: "inception_4c/5x5"
}
layer {
  name: "inception_4c/pool"
  type: "Pooling"
  bottom: "inception_4b/output"
  top: "inception_4c/pool"
  pooling_param {
    pool: MAX
    kernel_size: 3
    stride: 1
    pad: 1
  }
}
layer {
  name: "inception_4c/pool_proj"
  type: "Convolution"
  bottom: "inception_4c/pool"
  top: "inception_4c/pool_proj"
  param {
    lr_mult: 1
    decay_mult: 1
  }
  param {
    lr_mult: 2
    decay_mult: 0
  }
  convolution_param {
    num_output: 64
    kernel_size: 1
    weight_filler {
      type: "xavier"
      std: 0.1
    }
    bias_filler {
      type: "constant"
      value: 0.2
    }
  }
}
layer {
  name: "inception_4c/relu_pool_proj"
  type: "ReLU"
  bottom: "inception_4c/pool_proj"
  top: "inception_4c/pool_proj"
}
layer {
  name: "inception_4c/output"
  type: "Concat"
  bottom: "inception_4c/1x1"
  bottom: "inception_4c/3x3"
  bottom: "inception_4c/5x5"
  bottom: "inception_4c/pool_proj"
  top: "inception_4c/output"
}
layer {
  name: "inception_4d/1x1"
  type: "Convolution"
  bottom: "inception_4c/output"
  top: "inception_4d/1x1"
  param {
    lr_mult: 1
    decay_mult: 1
  }
  param {
    lr_mult: 2
    decay_mult: 0
  }
  convolution_param {
    num_output: 112
    kernel_size: 1
    weight_filler {
      type: "xavier"
      std: 0.03
    }
    bias_filler {
      type: "constant"
      value: 0.2
    }
  }
}
layer {
  name: "inception_4d/relu_1x1"
  type: "ReLU"
  bottom: "inception_4d/1x1"
  top: "inception_4d/1x1"
}
layer {
  name: "inception_4d/3x3_reduce"
  type: "Convolution"
  bottom: "inception_4c/output"
  top: "inception_4d/3x3_reduce"
  param {
    lr_mult: 1
    decay_mult: 1
  }
  param {
    lr_mult: 2
    decay_mult: 0
  }
  convolution_param {
    num_output: 144
    kernel_size: 1
    weight_filler {
      type: "xavier"
      std: 0.09
    }
    bias_filler {
      type: "constant"
      value: 0.2
    }
  }
}
layer {
  name: "inception_4d/relu_3x3_reduce"
  type: "ReLU"
  bottom: "inception_4d/3x3_reduce"
  top: "inception_4d/3x3_reduce"
}
layer {
  name: "inception_4d/3x3"
  type: "Convolution"
  bottom: "inception_4d/3x3_reduce"
  top: "inception_4d/3x3"
  param {
    lr_mult: 1
    decay_mult: 1
  }
  param {
    lr_mult: 2
    decay_mult: 0
  }
  convolution_param {
    num_output: 288
    pad: 1
    kernel_size: 3
    weight_filler {
      type: "xavier"
      std: 0.03
    }
    bias_filler {
      type: "constant"
      value: 0.2
    }
  }
}
layer {
  name: "inception_4d/relu_3x3"
  type: "ReLU"
  bottom: "inception_4d/3x3"
  top: "inception_4d/3x3"
}
layer {
  name: "inception_4d/5x5_reduce"
  type: "Convolution"
  bottom: "inception_4c/output"
  top: "inception_4d/5x5_reduce"
  param {
    lr_mult: 1
    decay_mult: 1
  }
  param {
    lr_mult: 2
    decay_mult: 0
  }
  convolution_param {
    num_output: 32
    kernel_size: 1
    weight_filler {
      type: "xavier"
      std: 0.2
    }
    bias_filler {
      type: "constant"
      value: 0.2
    }
  }
}
layer {
  name: "inception_4d/relu_5x5_reduce"
  type: "ReLU"
  bottom: "inception_4d/5x5_reduce"
  top: "inception_4d/5x5_reduce"
}
layer {
  name: "inception_4d/5x5"
  type: "Convolution"
  bottom: "inception_4d/5x5_reduce"
  top: "inception_4d/5x5"
  param {
    lr_mult: 1
    decay_mult: 1
  }
  param {
    lr_mult: 2
    decay_mult: 0
  }
  convolution_param {
    num_output: 64
    pad: 2
    kernel_size: 5
    weight_filler {
      type: "xavier"
      std: 0.03
    }
    bias_filler {
      type: "constant"
      value: 0.2
    }
  }
}
layer {
  name: "inception_4d/relu_5x5"
  type: "ReLU"
  bottom: "inception_4d/5x5"
  top: "inception_4d/5x5"
}
layer {
  name: "inception_4d/pool"
  type: "Pooling"
  bottom: "inception_4c/output"
  top: "inception_4d/pool"
  pooling_param {
    pool: MAX
    kernel_size: 3
    stride: 1
    pad: 1
  }
}
layer {
  name: "inception_4d/pool_proj"
  type: "Convolution"
  bottom: "inception_4d/pool"
  top: "inception_4d/pool_proj"
  param {
    lr_mult: 1
    decay_mult: 1
  }
  param {
    lr_mult: 2
    decay_mult: 0
  }
  convolution_param {
    num_output: 64
    kernel_size: 1
    weight_filler {
      type: "xavier"
      std: 0.1
    }
    bias_filler {
      type: "constant"
      value: 0.2
    }
  }
}
layer {
  name: "inception_4d/relu_pool_proj"
  type: "ReLU"
  bottom: "inception_4d/pool_proj"
  top: "inception_4d/pool_proj"
}
layer {
  name: "inception_4d/output"
  type: "Concat"
  bottom: "inception_4d/1x1"
  bottom: "inception_4d/3x3"
  bottom: "inception_4d/5x5"
  bottom: "inception_4d/pool_proj"
  top: "inception_4d/output"
}
layer {
  name: "loss2/ave_pool"
  type: "Pooling"
  bottom: "inception_4d/output"
  top: "loss2/ave_pool"
  pooling_param {
    pool: AVE
    kernel_size: 5
    stride: 3
  }
}
layer {
  name: "loss2/conv"
  type: "Convolution"
  bottom: "loss2/ave_pool"
  top: "loss2/conv"
  param {
    lr_mult: 1
    decay_mult: 1
  }
  param {
    lr_mult: 2
    decay_mult: 0
  }
  convolution_param {
    num_output: 128
    kernel_size: 1
    weight_filler {
      type: "xavier"
      std: 0.08
    }
    bias_filler {
      type: "constant"
      value: 0.2
    }
  }
}
layer {
  name: "loss2/relu_conv"
  type: "ReLU"
  bottom: "loss2/conv"
  top: "loss2/conv"
}
layer {
  name: "loss2/fc"
  type: "InnerProduct"
  bottom: "loss2/conv"
  top: "loss2/fc"
  param {
    lr_mult: 1
    decay_mult: 1
  }
  param {
    lr_mult: 2
    decay_mult: 0
  }
  inner_product_param {
    num_output: 1024
    weight_filler {
      type: "xavier"
      std: 0.02
    }
    bias_filler {
      type: "constant"
      value: 0.2
    }
  }
}
layer {
  name: "loss2/relu_fc"
  type: "ReLU"
  bottom: "loss2/fc"
  top: "loss2/fc"
}
layer {
  name: "loss2/drop_fc"
  type: "Dropout"
  bottom: "loss2/fc"
  top: "loss2/fc"
  dropout_param {
    dropout_ratio: 0.7
  }
}
layer {
  name: "loss2/classifier_plantvillage"
  type: "InnerProduct"
  bottom: "loss2/fc"
  top: "loss2/classifier_plantvillage"
  param {
    lr_mult: 1
    decay_mult: 1
  }
  param {
    lr_mult: 2
    decay_mult: 0
  }
  inner_product_param {
    num_output: 38
    weight_filler {
      type: "xavier"
      std: 0.0009765625
    }
    bias_filler {
      type: "constant"
      value: 0
    }
  }
}
layer {
  name: "inception_4e/1x1"
  type: "Convolution"
  bottom: "inception_4d/output"
  top: "inception_4e/1x1"
  param {
    lr_mult: 1
    decay_mult: 1
  }
  param {
    lr_mult: 2
    decay_mult: 0
  }
  convolution_param {
    num_output: 256
    kernel_size: 1
    weight_filler {
      type: "xavier"
      std: 0.03
    }
    bias_filler {
      type: "constant"
      value: 0.2
    }
  }
}
layer {
  name: "inception_4e/relu_1x1"
  type: "ReLU"
  bottom: "inception_4e/1x1"
  top: "inception_4e/1x1"
}
layer {
  name: "inception_4e/3x3_reduce"
  type: "Convolution"
  bottom: "inception_4d/output"
  top: "inception_4e/3x3_reduce"
  param {
    lr_mult: 1
    decay_mult: 1
  }
  param {
    lr_mult: 2
    decay_mult: 0
  }
  convolution_param {
    num_output: 160
    kernel_size: 1
    weight_filler {
      type: "xavier"
      std: 0.09
    }
    bias_filler {
      type: "constant"
      value: 0.2
    }
  }
}
layer {
  name: "inception_4e/relu_3x3_reduce"
  type: "ReLU"
  bottom: "inception_4e/3x3_reduce"
  top: "inception_4e/3x3_reduce"
}
layer {
  name: "inception_4e/3x3"
  type: "Convolution"
  bottom: "inception_4e/3x3_reduce"
  top: "inception_4e/3x3"
  param {
    lr_mult: 1
    decay_mult: 1
  }
  param {
    lr_mult: 2
    decay_mult: 0
  }
  convolution_param {
    num_output: 320
    pad: 1
    kernel_size: 3
    weight_filler {
      type: "xavier"
      std: 0.03
    }
    bias_filler {
      type: "constant"
      value: 0.2
    }
  }
}
layer {
  name: "inception_4e/relu_3x3"
  type: "ReLU"
  bottom: "inception_4e/3x3"
  top: "inception_4e/3x3"
}
layer {
  name: "inception_4e/5x5_reduce"
  type: "Convolution"
  bottom: "inception_4d/output"
  top: "inception_4e/5x5_reduce"
  param {
    lr_mult: 1
    decay_mult: 1
  }
  param {
    lr_mult: 2
    decay_mult: 0
  }
  convolution_param {
    num_output: 32
    kernel_size: 1
    weight_filler {
      type: "xavier"
      std: 0.2
    }
    bias_filler {
      type: "constant"
      value: 0.2
    }
  }
}
layer {
  name: "inception_4e/relu_5x5_reduce"
  type: "ReLU"
  bottom: "inception_4e/5x5_reduce"
  top: "inception_4e/5x5_reduce"
}
layer {
  name: "inception_4e/5x5"
  type: "Convolution"
  bottom: "inception_4e/5x5_reduce"
  top: "inception_4e/
I0403 19:35:41.818382 25220 layer_factory.hpp:77] Creating layer data
I0403 19:35:41.819028 25220 net.cpp:91] Creating Layer data
I0403 19:35:41.819067 25220 net.cpp:399] data -> data
I0403 19:35:41.819138 25220 net.cpp:399] data -> label
I0403 19:35:41.819183 25220 data_transformer.cpp:25] Loading mean file from: /home/mohanty/data/final_dataset/lmdb/grayscale-80-20/mean.binaryproto
I0403 19:35:41.820355 25222 db_lmdb.cpp:38] Opened lmdb /home/mohanty/data/final_dataset/lmdb/grayscale-80-20/test_db
I0403 19:35:41.833309 25220 data_layer.cpp:41] output data size: 24,3,224,224
I0403 19:35:41.861219 25220 net.cpp:141] Setting up data
I0403 19:35:41.861330 25220 net.cpp:148] Top shape: 24 3 224 224 (3612672)
I0403 19:35:41.861356 25220 net.cpp:148] Top shape: 24 (24)
I0403 19:35:41.861372 25220 net.cpp:156] Memory required for data: 14450784
I0403 19:35:41.861405 25220 layer_factory.hpp:77] Creating layer label_data_1_split
I0403 19:35:41.861439 25220 net.cpp:91] Creating Layer label_data_1_split
I0403 19:35:41.861461 25220 net.cpp:425] label_data_1_split <- label
I0403 19:35:41.861501 25220 net.cpp:399] label_data_1_split -> label_data_1_split_0
I0403 19:35:41.861536 25220 net.cpp:399] label_data_1_split -> label_data_1_split_1
I0403 19:35:41.861562 25220 net.cpp:399] label_data_1_split -> label_data_1_split_2
I0403 19:35:41.861587 25220 net.cpp:399] label_data_1_split -> label_data_1_split_3
I0403 19:35:41.861608 25220 net.cpp:399] label_data_1_split -> label_data_1_split_4
I0403 19:35:41.861629 25220 net.cpp:399] label_data_1_split -> label_data_1_split_5
I0403 19:35:41.861650 25220 net.cpp:399] label_data_1_split -> label_data_1_split_6
I0403 19:35:41.861673 25220 net.cpp:399] label_data_1_split -> label_data_1_split_7
I0403 19:35:41.861696 25220 net.cpp:399] label_data_1_split -> label_data_1_split_8
I0403 19:35:41.861719 25220 net.cpp:399] label_data_1_split -> label_data_1_split_9
I0403 19:35:41.861840 25220 net.cpp:141] Setting up label_data_1_split
I0403 19:35:41.861878 25220 net.cpp:148] Top shape: 24 (24)
I0403 19:35:41.861897 25220 net.cpp:148] Top shape: 24 (24)
I0403 19:35:41.861915 25220 net.cpp:148] Top shape: 24 (24)
I0403 19:35:41.861930 25220 net.cpp:148] Top shape: 24 (24)
I0403 19:35:41.861948 25220 net.cpp:148] Top shape: 24 (24)
I0403 19:35:41.861964 25220 net.cpp:148] Top shape: 24 (24)
I0403 19:35:41.861980 25220 net.cpp:148] Top shape: 24 (24)
I0403 19:35:41.861995 25220 net.cpp:148] Top shape: 24 (24)
I0403 19:35:41.862011 25220 net.cpp:148] Top shape: 24 (24)
I0403 19:35:41.862030 25220 net.cpp:148] Top shape: 24 (24)
I0403 19:35:41.862082 25220 net.cpp:156] Memory required for data: 14451744
I0403 19:35:41.862099 25220 layer_factory.hpp:77] Creating layer conv1/7x7_s2
I0403 19:35:41.862138 25220 net.cpp:91] Creating Layer conv1/7x7_s2
I0403 19:35:41.862172 25220 net.cpp:425] conv1/7x7_s2 <- data
I0403 19:35:41.862192 25220 net.cpp:399] conv1/7x7_s2 -> conv1/7x7_s2
I0403 19:35:42.004436 25220 net.cpp:141] Setting up conv1/7x7_s2
I0403 19:35:42.004518 25220 net.cpp:148] Top shape: 24 64 112 112 (19267584)
I0403 19:35:42.004535 25220 net.cpp:156] Memory required for data: 91522080
I0403 19:35:42.004575 25220 layer_factory.hpp:77] Creating layer conv1/relu_7x7
I0403 19:35:42.004608 25220 net.cpp:91] Creating Layer conv1/relu_7x7
I0403 19:35:42.004631 25220 net.cpp:425] conv1/relu_7x7 <- conv1/7x7_s2
I0403 19:35:42.004649 25220 net.cpp:386] conv1/relu_7x7 -> conv1/7x7_s2 (in-place)
I0403 19:35:42.004896 25220 net.cpp:141] Setting up conv1/relu_7x7
I0403 19:35:42.004925 25220 net.cpp:148] Top shape: 24 64 112 112 (19267584)
I0403 19:35:42.004941 25220 net.cpp:156] Memory required for data: 168592416
I0403 19:35:42.004958 25220 layer_factory.hpp:77] Creating layer pool1/3x3_s2
I0403 19:35:42.004987 25220 net.cpp:91] Creating Layer pool1/3x3_s2
I0403 19:35:42.005007 25220 net.cpp:425] pool1/3x3_s2 <- conv1/7x7_s2
I0403 19:35:42.005026 25220 net.cpp:399] pool1/3x3_s2 -> pool1/3x3_s2
I0403 19:35:42.005108 25220 net.cpp:141] Setting up pool1/3x3_s2
I0403 19:35:42.005133 25220 net.cpp:148] Top shape: 24 64 56 56 (4816896)
I0403 19:35:42.005148 25220 net.cpp:156] Memory required for data: 187860000
I0403 19:35:42.005163 25220 layer_factory.hpp:77] Creating layer pool1/norm1
I0403 19:35:42.005192 25220 net.cpp:91] Creating Layer pool1/norm1
I0403 19:35:42.005210 25220 net.cpp:425] pool1/norm1 <- pool1/3x3_s2
I0403 19:35:42.005228 25220 net.cpp:399] pool1/norm1 -> pool1/norm1
I0403 19:35:42.005513 25220 net.cpp:141] Setting up pool1/norm1
I0403 19:35:42.005542 25220 net.cpp:148] Top shape: 24 64 56 56 (4816896)
I0403 19:35:42.005561 25220 net.cpp:156] Memory required for data: 207127584
I0403 19:35:42.005578 25220 layer_factory.hpp:77] Creating layer conv2/3x3_reduce
I0403 19:35:42.005605 25220 net.cpp:91] Creating Layer conv2/3x3_reduce
I0403 19:35:42.005623 25220 net.cpp:425] conv2/3x3_reduce <- pool1/norm1
I0403 19:35:42.005641 25220 net.cpp:399] conv2/3x3_reduce -> conv2/3x3_reduce
I0403 19:35:42.006916 25220 net.cpp:141] Setting up conv2/3x3_reduce
I0403 19:35:42.006947 25220 net.cpp:148] Top shape: 24 64 56 56 (4816896)
I0403 19:35:42.006963 25220 net.cpp:156] Memory required for data: 226395168
I0403 19:35:42.006984 25220 layer_factory.hpp:77] Creating layer conv2/relu_3x3_reduce
I0403 19:35:42.007004 25220 net.cpp:91] Creating Layer conv2/relu_3x3_reduce
I0403 19:35:42.007021 25220 net.cpp:425] conv2/relu_3x3_reduce <- conv2/3x3_reduce
I0403 19:35:42.007037 25220 net.cpp:386] conv2/relu_3x3_reduce -> conv2/3x3_reduce (in-place)
I0403 19:35:42.007272 25220 net.cpp:141] Setting up conv2/relu_3x3_reduce
I0403 19:35:42.007311 25220 net.cpp:148] Top shape: 24 64 56 56 (4816896)
I0403 19:35:42.007329 25220 net.cpp:156] Memory required for data: 245662752
I0403 19:35:42.007346 25220 layer_factory.hpp:77] Creating layer conv2/3x3
I0403 19:35:42.007369 25220 net.cpp:91] Creating Layer conv2/3x3
I0403 19:35:42.007390 25220 net.cpp:425] conv2/3x3 <- conv2/3x3_reduce
I0403 19:35:42.007410 25220 net.cpp:399] conv2/3x3 -> conv2/3x3
I0403 19:35:42.009529 25220 net.cpp:141] Setting up conv2/3x3
I0403 19:35:42.009562 25220 net.cpp:148] Top shape: 24 192 56 56 (14450688)
I0403 19:35:42.009579 25220 net.cpp:156] Memory required for data: 303465504
I0403 19:35:42.009600 25220 layer_factory.hpp:77] Creating layer conv2/relu_3x3
I0403 19:35:42.009620 25220 net.cpp:91] Creating Layer conv2/relu_3x3
I0403 19:35:42.009637 25220 net.cpp:425] conv2/relu_3x3 <- conv2/3x3
I0403 19:35:42.009656 25220 net.cpp:386] conv2/relu_3x3 -> conv2/3x3 (in-place)
I0403 19:35:42.009809 25220 net.cpp:141] Setting up conv2/relu_3x3
I0403 19:35:42.009835 25220 net.cpp:148] Top shape: 24 192 56 56 (14450688)
I0403 19:35:42.009883 25220 net.cpp:156] Memory required for data: 361268256
I0403 19:35:42.009899 25220 layer_factory.hpp:77] Creating layer conv2/norm2
I0403 19:35:42.009918 25220 net.cpp:91] Creating Layer conv2/norm2
I0403 19:35:42.009934 25220 net.cpp:425] conv2/norm2 <- conv2/3x3
I0403 19:35:42.009953 25220 net.cpp:399] conv2/norm2 -> conv2/norm2
I0403 19:35:42.010223 25220 net.cpp:141] Setting up conv2/norm2
I0403 19:35:42.010252 25220 net.cpp:148] Top shape: 24 192 56 56 (14450688)
I0403 19:35:42.010269 25220 net.cpp:156] Memory required for data: 419071008
I0403 19:35:42.010285 25220 layer_factory.hpp:77] Creating layer pool2/3x3_s2
I0403 19:35:42.010313 25220 net.cpp:91] Creating Layer pool2/3x3_s2
I0403 19:35:42.010331 25220 net.cpp:425] pool2/3x3_s2 <- conv2/norm2
I0403 19:35:42.010351 25220 net.cpp:399] pool2/3x3_s2 -> pool2/3x3_s2
I0403 19:35:42.010401 25220 net.cpp:141] Setting up pool2/3x3_s2
I0403 19:35:42.010426 25220 net.cpp:148] Top shape: 24 192 28 28 (3612672)
I0403 19:35:42.010442 25220 net.cpp:156] Memory required for data: 433521696
I0403 19:35:42.010457 25220 layer_factory.hpp:77] Creating layer pool2/3x3_s2_pool2/3x3_s2_0_split
I0403 19:35:42.010475 25220 net.cpp:91] Creating Layer pool2/3x3_s2_pool2/3x3_s2_0_split
I0403 19:35:42.010491 25220 net.cpp:425] pool2/3x3_s2_pool2/3x3_s2_0_split <- pool2/3x3_s2
I0403 19:35:42.010509 25220 net.cpp:399] pool2/3x3_s2_pool2/3x3_s2_0_split -> pool2/3x3_s2_pool2/3x3_s2_0_split_0
I0403 19:35:42.010530 25220 net.cpp:399] pool2/3x3_s2_pool2/3x3_s2_0_split -> pool2/3x3_s2_pool2/3x3_s2_0_split_1
I0403 19:35:42.010550 25220 net.cpp:399] pool2/3x3_s2_pool2/3x3_s2_0_split -> pool2/3x3_s2_pool2/3x3_s2_0_split_2
I0403 19:35:42.010571 25220 net.cpp:399] pool2/3x3_s2_pool2/3x3_s2_0_split -> pool2/3x3_s2_pool2/3x3_s2_0_split_3
I0403 19:35:42.010638 25220 net.cpp:141] Setting up pool2/3x3_s2_pool2/3x3_s2_0_split
I0403 19:35:42.010664 25220 net.cpp:148] Top shape: 24 192 28 28 (3612672)
I0403 19:35:42.010681 25220 net.cpp:148] Top shape: 24 192 28 28 (3612672)
I0403 19:35:42.010699 25220 net.cpp:148] Top shape: 24 192 28 28 (3612672)
I0403 19:35:42.010715 25220 net.cpp:148] Top shape: 24 192 28 28 (3612672)
I0403 19:35:42.010730 25220 net.cpp:156] Memory required for data: 491324448
I0403 19:35:42.010745 25220 layer_factory.hpp:77] Creating layer inception_3a/1x1
I0403 19:35:42.010766 25220 net.cpp:91] Creating Layer inception_3a/1x1
I0403 19:35:42.010782 25220 net.cpp:425] inception_3a/1x1 <- pool2/3x3_s2_pool2/3x3_s2_0_split_0
I0403 19:35:42.010799 25220 net.cpp:399] inception_3a/1x1 -> inception_3a/1x1
I0403 19:35:42.012301 25220 net.cpp:141] Setting up inception_3a/1x1
I0403 19:35:42.012332 25220 net.cpp:148] Top shape: 24 64 28 28 (1204224)
I0403 19:35:42.012349 25220 net.cpp:156] Memory required for data: 496141344
I0403 19:35:42.012369 25220 layer_factory.hpp:77] Creating layer inception_3a/relu_1x1
I0403 19:35:42.012392 25220 net.cpp:91] Creating Layer inception_3a/relu_1x1
I0403 19:35:42.012411 25220 net.cpp:425] inception_3a/relu_1x1 <- inception_3a/1x1
I0403 19:35:42.012429 25220 net.cpp:386] inception_3a/relu_1x1 -> inception_3a/1x1 (in-place)
I0403 19:35:42.012598 25220 net.cpp:141] Setting up inception_3a/relu_1x1
I0403 19:35:42.012626 25220 net.cpp:148] Top shape: 24 64 28 28 (1204224)
I0403 19:35:42.012642 25220 net.cpp:156] Memory required for data: 500958240
I0403 19:35:42.012660 25220 layer_factory.hpp:77] Creating layer inception_3a/3x3_reduce
I0403 19:35:42.012686 25220 net.cpp:91] Creating Layer inception_3a/3x3_reduce
I0403 19:35:42.012707 25220 net.cpp:425] inception_3a/3x3_reduce <- pool2/3x3_s2_pool2/3x3_s2_0_split_1
I0403 19:35:42.012729 25220 net.cpp:399] inception_3a/3x3_reduce -> inception_3a/3x3_reduce
I0403 19:35:42.014379 25220 net.cpp:141] Setting up inception_3a/3x3_reduce
I0403 19:35:42.014410 25220 net.cpp:148] Top shape: 24 96 28 28 (1806336)
I0403 19:35:42.014427 25220 net.cpp:156] Memory required for data: 508183584
I0403 19:35:42.014448 25220 layer_factory.hpp:77] Creating layer inception_3a/relu_3x3_reduce
I0403 19:35:42.014488 25220 net.cpp:91] Creating Layer inception_3a/relu_3x3_reduce
I0403 19:35:42.014509 25220 net.cpp:425] inception_3a/relu_3x3_reduce <- inception_3a/3x3_reduce
I0403 19:35:42.014528 25220 net.cpp:386] inception_3a/relu_3x3_reduce -> inception_3a/3x3_reduce (in-place)
I0403 19:35:42.014703 25220 net.cpp:141] Setting up inception_3a/relu_3x3_reduce
I0403 19:35:42.014729 25220 net.cpp:148] Top shape: 24 96 28 28 (1806336)
I0403 19:35:42.014746 25220 net.cpp:156] Memory required for data: 515408928
I0403 19:35:42.014762 25220 layer_factory.hpp:77] Creating layer inception_3a/3x3
I0403 19:35:42.014785 25220 net.cpp:91] Creating Layer inception_3a/3x3
I0403 19:35:42.014801 25220 net.cpp:425] inception_3a/3x3 <- inception_3a/3x3_reduce
I0403 19:35:42.014824 25220 net.cpp:399] inception_3a/3x3 -> inception_3a/3x3
I0403 19:35:42.016396 25220 net.cpp:141] Setting up inception_3a/3x3
I0403 19:35:42.016427 25220 net.cpp:148] Top shape: 24 128 28 28 (2408448)
I0403 19:35:42.016443 25220 net.cpp:156] Memory required for data: 525042720
I0403 19:35:42.016461 25220 layer_factory.hpp:77] Creating layer inception_3a/relu_3x3
I0403 19:35:42.016480 25220 net.cpp:91] Creating Layer inception_3a/relu_3x3
I0403 19:35:42.016500 25220 net.cpp:425] inception_3a/relu_3x3 <- inception_3a/3x3
I0403 19:35:42.016518 25220 net.cpp:386] inception_3a/relu_3x3 -> inception_3a/3x3 (in-place)
I0403 19:35:42.016778 25220 net.cpp:141] Setting up inception_3a/relu_3x3
I0403 19:35:42.016808 25220 net.cpp:148] Top shape: 24 128 28 28 (2408448)
I0403 19:35:42.016822 25220 net.cpp:156] Memory required for data: 534676512
I0403 19:35:42.016837 25220 layer_factory.hpp:77] Creating layer inception_3a/5x5_reduce
I0403 19:35:42.016860 25220 net.cpp:91] Creating Layer inception_3a/5x5_reduce
I0403 19:35:42.016880 25220 net.cpp:425] inception_3a/5x5_reduce <- pool2/3x3_s2_pool2/3x3_s2_0_split_2
I0403 19:35:42.016901 25220 net.cpp:399] inception_3a/5x5_reduce -> inception_3a/5x5_reduce
I0403 19:35:42.017818 25220 net.cpp:141] Setting up inception_3a/5x5_reduce
I0403 19:35:42.017848 25220 net.cpp:148] Top shape: 24 16 28 28 (301056)
I0403 19:35:42.017863 25220 net.cpp:156] Memory required for data: 535880736
I0403 19:35:42.017881 25220 layer_factory.hpp:77] Creating layer inception_3a/relu_5x5_reduce
I0403 19:35:42.017902 25220 net.cpp:91] Creating Layer inception_3a/relu_5x5_reduce
I0403 19:35:42.017920 25220 net.cpp:425] inception_3a/relu_5x5_reduce <- inception_3a/5x5_reduce
I0403 19:35:42.017937 25220 net.cpp:386] inception_3a/relu_5x5_reduce -> inception_3a/5x5_reduce (in-place)
I0403 19:35:42.018208 25220 net.cpp:141] Setting up inception_3a/relu_5x5_reduce
I0403 19:35:42.018237 25220 net.cpp:148] Top shape: 24 16 28 28 (301056)
I0403 19:35:42.018254 25220 net.cpp:156] Memory required for data: 537084960
I0403 19:35:42.018270 25220 layer_factory.hpp:77] Creating layer inception_3a/5x5
I0403 19:35:42.018296 25220 net.cpp:91] Creating Layer inception_3a/5x5
I0403 19:35:42.018317 25220 net.cpp:425] inception_3a/5x5 <- inception_3a/5x5_reduce
I0403 19:35:42.018337 25220 net.cpp:399] inception_3a/5x5 -> inception_3a/5x5
I0403 19:35:42.019296 25220 net.cpp:141] Setting up inception_3a/5x5
I0403 19:35:42.019326 25220 net.cpp:148] Top shape: 24 32 28 28 (602112)
I0403 19:35:42.019343 25220 net.cpp:156] Memory required for data: 539493408
I0403 19:35:42.019361 25220 layer_factory.hpp:77] Creating layer inception_3a/relu_5x5
I0403 19:35:42.019381 25220 net.cpp:91] Creating Layer inception_3a/relu_5x5
I0403 19:35:42.019399 25220 net.cpp:425] inception_3a/relu_5x5 <- inception_3a/5x5
I0403 19:35:42.019418 25220 net.cpp:386] inception_3a/relu_5x5 -> inception_3a/5x5 (in-place)
I0403 19:35:42.019582 25220 net.cpp:141] Setting up inception_3a/relu_5x5
I0403 19:35:42.019608 25220 net.cpp:148] Top shape: 24 32 28 28 (602112)
I0403 19:35:42.019623 25220 net.cpp:156] Memory required for data: 541901856
I0403 19:35:42.019637 25220 layer_factory.hpp:77] Creating layer inception_3a/pool
I0403 19:35:42.019659 25220 net.cpp:91] Creating Layer inception_3a/pool
I0403 19:35:42.019690 25220 net.cpp:425] inception_3a/pool <- pool2/3x3_s2_pool2/3x3_s2_0_split_3
I0403 19:35:42.019708 25220 net.cpp:399] inception_3a/pool -> inception_3a/pool
I0403 19:35:42.019767 25220 net.cpp:141] Setting up inception_3a/pool
I0403 19:35:42.019793 25220 net.cpp:148] Top shape: 24 192 28 28 (3612672)
I0403 19:35:42.019809 25220 net.cpp:156] Memory required for data: 556352544
I0403 19:35:42.019824 25220 layer_factory.hpp:77] Creating layer inception_3a/pool_proj
I0403 19:35:42.019846 25220 net.cpp:91] Creating Layer inception_3a/pool_proj
I0403 19:35:42.019865 25220 net.cpp:425] inception_3a/pool_proj <- inception_3a/pool
I0403 19:35:42.019886 25220 net.cpp:399] inception_3a/pool_proj -> inception_3a/pool_proj
I0403 19:35:42.020802 25220 net.cpp:141] Setting up inception_3a/pool_proj
I0403 19:35:42.020833 25220 net.cpp:148] Top shape: 24 32 28 28 (602112)
I0403 19:35:42.020850 25220 net.cpp:156] Memory required for data: 558760992
I0403 19:35:42.020874 25220 layer_factory.hpp:77] Creating layer inception_3a/relu_pool_proj
I0403 19:35:42.020896 25220 net.cpp:91] Creating Layer inception_3a/relu_pool_proj
I0403 19:35:42.020916 25220 net.cpp:425] inception_3a/relu_pool_proj <- inception_3a/pool_proj
I0403 19:35:42.020934 25220 net.cpp:386] inception_3a/relu_pool_proj -> inception_3a/pool_proj (in-place)
I0403 19:35:42.021195 25220 net.cpp:141] Setting up inception_3a/relu_pool_proj
I0403 19:35:42.021224 25220 net.cpp:148] Top shape: 24 32 28 28 (602112)
I0403 19:35:42.021239 25220 net.cpp:156] Memory required for data: 561169440
I0403 19:35:42.021256 25220 layer_factory.hpp:77] Creating layer inception_3a/output
I0403 19:35:42.021276 25220 net.cpp:91] Creating Layer inception_3a/output
I0403 19:35:42.021301 25220 net.cpp:425] inception_3a/output <- inception_3a/1x1
I0403 19:35:42.021319 25220 net.cpp:425] inception_3a/output <- inception_3a/3x3
I0403 19:35:42.021335 25220 net.cpp:425] inception_3a/output <- inception_3a/5x5
I0403 19:35:42.021350 25220 net.cpp:425] inception_3a/output <- inception_3a/pool_proj
I0403 19:35:42.021368 25220 net.cpp:399] inception_3a/output -> inception_3a/output
I0403 19:35:42.021415 25220 net.cpp:141] Setting up inception_3a/output
I0403 19:35:42.021442 25220 net.cpp:148] Top shape: 24 256 28 28 (4816896)
I0403 19:35:42.021459 25220 net.cpp:156] Memory required for data: 580437024
I0403 19:35:42.021473 25220 layer_factory.hpp:77] Creating layer inception_3a/output_inception_3a/output_0_split
I0403 19:35:42.021492 25220 net.cpp:91] Creating Layer inception_3a/output_inception_3a/output_0_split
I0403 19:35:42.021507 25220 net.cpp:425] inception_3a/output_inception_3a/output_0_split <- inception_3a/output
I0403 19:35:42.021528 25220 net.cpp:399] inception_3a/output_inception_3a/output_0_split -> inception_3a/output_inception_3a/output_0_split_0
I0403 19:35:42.021548 25220 net.cpp:399] inception_3a/output_inception_3a/output_0_split -> inception_3a/output_inception_3a/output_0_split_1
I0403 19:35:42.021570 25220 net.cpp:399] inception_3a/output_inception_3a/output_0_split -> inception_3a/output_inception_3a/output_0_split_2
I0403 19:35:42.021591 25220 net.cpp:399] inception_3a/output_inception_3a/output_0_split -> inception_3a/output_inception_3a/output_0_split_3
I0403 19:35:42.021662 25220 net.cpp:141] Setting up inception_3a/output_inception_3a/output_0_split
I0403 19:35:42.021687 25220 net.cpp:148] Top shape: 24 256 28 28 (4816896)
I0403 19:35:42.021705 25220 net.cpp:148] Top shape: 24 256 28 28 (4816896)
I0403 19:35:42.021720 25220 net.cpp:148] Top shape: 24 256 28 28 (4816896)
I0403 19:35:42.021734 25220 net.cpp:148] Top shape: 24 256 28 28 (4816896)
I0403 19:35:42.021747 25220 net.cpp:156] Memory required for data: 657507360
I0403 19:35:42.021762 25220 layer_factory.hpp:77] Creating layer inception_3b/1x1
I0403 19:35:42.021785 25220 net.cpp:91] Creating Layer inception_3b/1x1
I0403 19:35:42.021803 25220 net.cpp:425] inception_3b/1x1 <- inception_3a/output_inception_3a/output_0_split_0
I0403 19:35:42.021824 25220 net.cpp:399] inception_3b/1x1 -> inception_3b/1x1
I0403 19:35:42.022905 25220 net.cpp:141] Setting up inception_3b/1x1
I0403 19:35:42.022948 25220 net.cpp:148] Top shape: 24 128 28 28 (2408448)
I0403 19:35:42.022964 25220 net.cpp:156] Memory required for data: 667141152
I0403 19:35:42.022982 25220 layer_factory.hpp:77] Creating layer inception_3b/relu_1x1
I0403 19:35:42.023001 25220 net.cpp:91] Creating Layer inception_3b/relu_1x1
I0403 19:35:42.023018 25220 net.cpp:425] inception_3b/relu_1x1 <- inception_3b/1x1
I0403 19:35:42.023038 25220 net.cpp:386] inception_3b/relu_1x1 -> inception_3b/1x1 (in-place)
I0403 19:35:42.023207 25220 net.cpp:141] Setting up inception_3b/relu_1x1
I0403 19:35:42.023234 25220 net.cpp:148] Top shape: 24 128 28 28 (2408448)
I0403 19:35:42.023249 25220 net.cpp:156] Memory required for data: 676774944
I0403 19:35:42.023265 25220 layer_factory.hpp:77] Creating layer inception_3b/3x3_reduce
I0403 19:35:42.023293 25220 net.cpp:91] Creating Layer inception_3b/3x3_reduce
I0403 19:35:42.023313 25220 net.cpp:425] inception_3b/3x3_reduce <- inception_3a/output_inception_3a/output_0_split_1
I0403 19:35:42.023335 25220 net.cpp:399] inception_3b/3x3_reduce -> inception_3b/3x3_reduce
I0403 19:35:42.024425 25220 net.cpp:141] Setting up inception_3b/3x3_reduce
I0403 19:35:42.024457 25220 net.cpp:148] Top shape: 24 128 28 28 (2408448)
I0403 19:35:42.024477 25220 net.cpp:156] Memory required for data: 686408736
I0403 19:35:42.024497 25220 layer_factory.hpp:77] Creating layer inception_3b/relu_3x3_reduce
I0403 19:35:42.024515 25220 net.cpp:91] Creating Layer inception_3b/relu_3x3_reduce
I0403 19:35:42.024533 25220 net.cpp:425] inception_3b/relu_3x3_reduce <- inception_3b/3x3_reduce
I0403 19:35:42.024552 25220 net.cpp:386] inception_3b/relu_3x3_reduce -> inception_3b/3x3_reduce (in-place)
I0403 19:35:42.024720 25220 net.cpp:141] Setting up inception_3b/relu_3x3_reduce
I0403 19:35:42.024746 25220 net.cpp:148] Top shape: 24 128 28 28 (2408448)
I0403 19:35:42.024762 25220 net.cpp:156] Memory required for data: 696042528
I0403 19:35:42.024778 25220 layer_factory.hpp:77] Creating layer inception_3b/3x3
I0403 19:35:42.024804 25220 net.cpp:91] Creating Layer inception_3b/3x3
I0403 19:35:42.024824 25220 net.cpp:425] inception_3b/3x3 <- inception_3b/3x3_reduce
I0403 19:35:42.024843 25220 net.cpp:399] inception_3b/3x3 -> inception_3b/3x3
I0403 19:35:42.027623 25220 net.cpp:141] Setting up inception_3b/3x3
I0403 19:35:42.027654 25220 net.cpp:148] Top shape: 24 192 28 28 (3612672)
I0403 19:35:42.027672 25220 net.cpp:156] Memory required for data: 710493216
I0403 19:35:42.027690 25220 layer_factory.hpp:77] Creating layer inception_3b/relu_3x3
I0403 19:35:42.027709 25220 net.cpp:91] Creating Layer inception_3b/relu_3x3
I0403 19:35:42.027729 25220 net.cpp:425] inception_3b/relu_3x3 <- inception_3b/3x3
I0403 19:35:42.027746 25220 net.cpp:386] inception_3b/relu_3x3 -> inception_3b/3x3 (in-place)
I0403 19:35:42.028017 25220 net.cpp:141] Setting up inception_3b/relu_3x3
I0403 19:35:42.028044 25220 net.cpp:148] Top shape: 24 192 28 28 (3612672)
I0403 19:35:42.028064 25220 net.cpp:156] Memory required for data: 724943904
I0403 19:35:42.028079 25220 layer_factory.hpp:77] Creating layer inception_3b/5x5_reduce
I0403 19:35:42.028100 25220 net.cpp:91] Creating Layer inception_3b/5x5_reduce
I0403 19:35:42.028120 25220 net.cpp:425] inception_3b/5x5_reduce <- inception_3a/output_inception_3a/output_0_split_2
I0403 19:35:42.028141 25220 net.cpp:399] inception_3b/5x5_reduce -> inception_3b/5x5_reduce
I0403 19:35:42.029093 25220 net.cpp:141] Setting up inception_3b/5x5_reduce
I0403 19:35:42.029122 25220 net.cpp:148] Top shape: 24 32 28 28 (602112)
I0403 19:35:42.029139 25220 net.cpp:156] Memory required for data: 727352352
I0403 19:35:42.029155 25220 layer_factory.hpp:77] Creating layer inception_3b/relu_5x5_reduce
I0403 19:35:42.029173 25220 net.cpp:91] Creating Layer inception_3b/relu_5x5_reduce
I0403 19:35:42.029192 25220 net.cpp:425] inception_3b/relu_5x5_reduce <- inception_3b/5x5_reduce
I0403 19:35:42.029209 25220 net.cpp:386] inception_3b/relu_5x5_reduce -> inception_3b/5x5_reduce (in-place)
I0403 19:35:42.029395 25220 net.cpp:141] Setting up inception_3b/relu_5x5_reduce
I0403 19:35:42.029422 25220 net.cpp:148] Top shape: 24 32 28 28 (602112)
I0403 19:35:42.029436 25220 net.cpp:156] Memory required for data: 729760800
I0403 19:35:42.029450 25220 layer_factory.hpp:77] Creating layer inception_3b/5x5
I0403 19:35:42.029474 25220 net.cpp:91] Creating Layer inception_3b/5x5
I0403 19:35:42.029492 25220 net.cpp:425] inception_3b/5x5 <- inception_3b/5x5_reduce
I0403 19:35:42.029512 25220 net.cpp:399] inception_3b/5x5 -> inception_3b/5x5
I0403 19:35:42.031338 25220 net.cpp:141] Setting up inception_3b/5x5
I0403 19:35:42.031371 25220 net.cpp:148] Top shape: 24 96 28 28 (1806336)
I0403 19:35:42.031388 25220 net.cpp:156] Memory required for data: 736986144
I0403 19:35:42.031406 25220 layer_factory.hpp:77] Creating layer inception_3b/relu_5x5
I0403 19:35:42.031425 25220 net.cpp:91] Creating Layer inception_3b/relu_5x5
I0403 19:35:42.031441 25220 net.cpp:425] inception_3b/relu_5x5 <- inception_3b/5x5
I0403 19:35:42.031461 25220 net.cpp:386] inception_3b/relu_5x5 -> inception_3b/5x5 (in-place)
I0403 19:35:42.031641 25220 net.cpp:141] Setting up inception_3b/relu_5x5
I0403 19:35:42.031666 25220 net.cpp:148] Top shape: 24 96 28 28 (1806336)
I0403 19:35:42.031682 25220 net.cpp:156] Memory required for data: 744211488
I0403 19:35:42.031695 25220 layer_factory.hpp:77] Creating layer inception_3b/pool
I0403 19:35:42.031714 25220 net.cpp:91] Creating Layer inception_3b/pool
I0403 19:35:42.031729 25220 net.cpp:425] inception_3b/pool <- inception_3a/output_inception_3a/output_0_split_3
I0403 19:35:42.031746 25220 net.cpp:399] inception_3b/pool -> inception_3b/pool
I0403 19:35:42.031801 25220 net.cpp:141] Setting up inception_3b/pool
I0403 19:35:42.031826 25220 net.cpp:148] Top shape: 24 256 28 28 (4816896)
I0403 19:35:42.031839 25220 net.cpp:156] Memory required for data: 763479072
I0403 19:35:42.031854 25220 layer_factory.hpp:77] Creating layer inception_3b/pool_proj
I0403 19:35:42.031877 25220 net.cpp:91] Creating Layer inception_3b/pool_proj
I0403 19:35:42.031895 25220 net.cpp:425] inception_3b/pool_proj <- inception_3b/pool
I0403 19:35:42.031915 25220 net.cpp:399] inception_3b/pool_proj -> inception_3b/pool_proj
I0403 19:35:42.032897 25220 net.cpp:141] Setting up inception_3b/pool_proj
I0403 19:35:42.032927 25220 net.cpp:148] Top shape: 24 64 28 28 (1204224)
I0403 19:35:42.032943 25220 net.cpp:156] Memory required for data: 768295968
I0403 19:35:42.032960 25220 layer_factory.hpp:77] Creating layer inception_3b/relu_pool_proj
I0403 19:35:42.032980 25220 net.cpp:91] Creating Layer inception_3b/relu_pool_proj
I0403 19:35:42.032997 25220 net.cpp:425] inception_3b/relu_pool_proj <- inception_3b/pool_proj
I0403 19:35:42.033015 25220 net.cpp:386] inception_3b/relu_pool_proj -> inception_3b/pool_proj (in-place)
I0403 19:35:42.033368 25220 net.cpp:141] Setting up inception_3b/relu_pool_proj
I0403 19:35:42.033396 25220 net.cpp:148] Top shape: 24 64 28 28 (1204224)
I0403 19:35:42.033411 25220 net.cpp:156] Memory required for data: 773112864
I0403 19:35:42.033427 25220 layer_factory.hpp:77] Creating layer inception_3b/output
I0403 19:35:42.033447 25220 net.cpp:91] Creating Layer inception_3b/output
I0403 19:35:42.033465 25220 net.cpp:425] inception_3b/output <- inception_3b/1x1
I0403 19:35:42.033480 25220 net.cpp:425] inception_3b/output <- inception_3b/3x3
I0403 19:35:42.033496 25220 net.cpp:425] inception_3b/output <- inception_3b/5x5
I0403 19:35:42.033512 25220 net.cpp:425] inception_3b/output <- inception_3b/pool_proj
I0403 19:35:42.033529 25220 net.cpp:399] inception_3b/output -> inception_3b/output
I0403 19:35:42.033572 25220 net.cpp:141] Setting up inception_3b/output
I0403 19:35:42.033596 25220 net.cpp:148] Top shape: 24 480 28 28 (9031680)
I0403 19:35:42.033610 25220 net.cpp:156] Memory required for data: 809239584
I0403 19:35:42.033625 25220 layer_factory.hpp:77] Creating layer pool3/3x3_s2
I0403 19:35:42.033641 25220 net.cpp:91] Creating Layer pool3/3x3_s2
I0403 19:35:42.033656 25220 net.cpp:425] pool3/3x3_s2 <- inception_3b/output
I0403 19:35:42.033690 25220 net.cpp:399] pool3/3x3_s2 -> pool3/3x3_s2
I0403 19:35:42.033747 25220 net.cpp:141] Setting up pool3/3x3_s2
I0403 19:35:42.033771 25220 net.cpp:148] Top shape: 24 480 14 14 (2257920)
I0403 19:35:42.033784 25220 net.cpp:156] Memory required for data: 818271264
I0403 19:35:42.033799 25220 layer_factory.hpp:77] Creating layer pool3/3x3_s2_pool3/3x3_s2_0_split
I0403 19:35:42.033817 25220 net.cpp:91] Creating Layer pool3/3x3_s2_pool3/3x3_s2_0_split
I0403 19:35:42.033831 25220 net.cpp:425] pool3/3x3_s2_pool3/3x3_s2_0_split <- pool3/3x3_s2
I0403 19:35:42.033857 25220 net.cpp:399] pool3/3x3_s2_pool3/3x3_s2_0_split -> pool3/3x3_s2_pool3/3x3_s2_0_split_0
I0403 19:35:42.033879 25220 net.cpp:399] pool3/3x3_s2_pool3/3x3_s2_0_split -> pool3/3x3_s2_pool3/3x3_s2_0_split_1
I0403 19:35:42.033898 25220 net.cpp:399] pool3/3x3_s2_pool3/3x3_s2_0_split -> pool3/3x3_s2_pool3/3x3_s2_0_split_2
I0403 19:35:42.033917 25220 net.cpp:399] pool3/3x3_s2_pool3/3x3_s2_0_split -> pool3/3x3_s2_pool3/3x3_s2_0_split_3
I0403 19:35:42.034008 25220 net.cpp:141] Setting up pool3/3x3_s2_pool3/3x3_s2_0_split
I0403 19:35:42.034044 25220 net.cpp:148] Top shape: 24 480 14 14 (2257920)
I0403 19:35:42.034060 25220 net.cpp:148] Top shape: 24 480 14 14 (2257920)
I0403 19:35:42.034075 25220 net.cpp:148] Top shape: 24 480 14 14 (2257920)
I0403 19:35:42.034090 25220 net.cpp:148] Top shape: 24 480 14 14 (2257920)
I0403 19:35:42.034103 25220 net.cpp:156] Memory required for data: 854397984
I0403 19:35:42.034126 25220 layer_factory.hpp:77] Creating layer inception_4a/1x1
I0403 19:35:42.034148 25220 net.cpp:91] Creating Layer inception_4a/1x1
I0403 19:35:42.034168 25220 net.cpp:425] inception_4a/1x1 <- pool3/3x3_s2_pool3/3x3_s2_0_split_0
I0403 19:35:42.034185 25220 net.cpp:399] inception_4a/1x1 -> inception_4a/1x1
I0403 19:35:42.035676 25220 net.cpp:141] Setting up inception_4a/1x1
I0403 19:35:42.035706 25220 net.cpp:148] Top shape: 24 192 14 14 (903168)
I0403 19:35:42.035722 25220 net.cpp:156] Memory required for data: 858010656
I0403 19:35:42.035740 25220 layer_factory.hpp:77] Creating layer inception_4a/relu_1x1
I0403 19:35:42.035759 25220 net.cpp:91] Creating Layer inception_4a/relu_1x1
I0403 19:35:42.035775 25220 net.cpp:425] inception_4a/relu_1x1 <- inception_4a/1x1
I0403 19:35:42.035792 25220 net.cpp:386] inception_4a/relu_1x1 -> inception_4a/1x1 (in-place)
I0403 19:35:42.035958 25220 net.cpp:141] Setting up inception_4a/relu_1x1
I0403 19:35:42.035984 25220 net.cpp:148] Top shape: 24 192 14 14 (903168)
I0403 19:35:42.035998 25220 net.cpp:156] Memory required for data: 861623328
I0403 19:35:42.036015 25220 layer_factory.hpp:77] Creating layer inception_4a/3x3_reduce
I0403 19:35:42.036037 25220 net.cpp:91] Creating Layer inception_4a/3x3_reduce
I0403 19:35:42.036056 25220 net.cpp:425] inception_4a/3x3_reduce <- pool3/3x3_s2_pool3/3x3_s2_0_split_1
I0403 19:35:42.036077 25220 net.cpp:399] inception_4a/3x3_reduce -> inception_4a/3x3_reduce
I0403 19:35:42.037258 25220 net.cpp:141] Setting up inception_4a/3x3_reduce
I0403 19:35:42.037293 25220 net.cpp:148] Top shape: 24 96 14 14 (451584)
I0403 19:35:42.037313 25220 net.cpp:156] Memory required for data: 863429664
I0403 19:35:42.037335 25220 layer_factory.hpp:77] Creating layer inception_4a/relu_3x3_reduce
I0403 19:35:42.037356 25220 net.cpp:91] Creating Layer inception_4a/relu_3x3_reduce
I0403 19:35:42.037374 25220 net.cpp:425] inception_4a/relu_3x3_reduce <- inception_4a/3x3_reduce
I0403 19:35:42.037391 25220 net.cpp:386] inception_4a/relu_3x3_reduce -> inception_4a/3x3_reduce (in-place)
I0403 19:35:42.037555 25220 net.cpp:141] Setting up inception_4a/relu_3x3_reduce
I0403 19:35:42.037582 25220 net.cpp:148] Top shape: 24 96 14 14 (451584)
I0403 19:35:42.037598 25220 net.cpp:156] Memory required for data: 865236000
I0403 19:35:42.037614 25220 layer_factory.hpp:77] Creating layer inception_4a/3x3
I0403 19:35:42.037636 25220 net.cpp:91] Creating Layer inception_4a/3x3
I0403 19:35:42.037653 25220 net.cpp:425] inception_4a/3x3 <- inception_4a/3x3_reduce
I0403 19:35:42.037673 25220 net.cpp:399] inception_4a/3x3 -> inception_4a/3x3
I0403 19:35:42.040231 25220 net.cpp:141] Setting up inception_4a/3x3
I0403 19:35:42.040262 25220 net.cpp:148] Top shape: 24 208 14 14 (978432)
I0403 19:35:42.040279 25220 net.cpp:156] Memory required for data: 869149728
I0403 19:35:42.040305 25220 layer_factory.hpp:77] Creating layer inception_4a/relu_3x3
I0403 19:35:42.040326 25220 net.cpp:91] Creating Layer inception_4a/relu_3x3
I0403 19:35:42.040343 25220 net.cpp:425] inception_4a/relu_3x3 <- inception_4a/3x3
I0403 19:35:42.040364 25220 net.cpp:386] inception_4a/relu_3x3 -> inception_4a/3x3 (in-place)
I0403 19:35:42.040627 25220 net.cpp:141] Setting up inception_4a/relu_3x3
I0403 19:35:42.040654 25220 net.cpp:148] Top shape: 24 208 14 14 (978432)
I0403 19:35:42.040669 25220 net.cpp:156] Memory required for data: 873063456
I0403 19:35:42.040685 25220 layer_factory.hpp:77] Creating layer inception_4a/5x5_reduce
I0403 19:35:42.040709 25220 net.cpp:91] Creating Layer inception_4a/5x5_reduce
I0403 19:35:42.040729 25220 net.cpp:425] inception_4a/5x5_reduce <- pool3/3x3_s2_pool3/3x3_s2_0_split_2
I0403 19:35:42.040750 25220 net.cpp:399] inception_4a/5x5_reduce -> inception_4a/5x5_reduce
I0403 19:35:42.041697 25220 net.cpp:141] Setting up inception_4a/5x5_reduce
I0403 19:35:42.041726 25220 net.cpp:148] Top shape: 24 16 14 14 (75264)
I0403 19:35:42.041743 25220 net.cpp:156] Memory required for data: 873364512
I0403 19:35:42.041760 25220 layer_factory.hpp:77] Creating layer inception_4a/relu_5x5_reduce
I0403 19:35:42.041780 25220 net.cpp:91] Creating Layer inception_4a/relu_5x5_reduce
I0403 19:35:42.041798 25220 net.cpp:425] inception_4a/relu_5x5_reduce <- inception_4a/5x5_reduce
I0403 19:35:42.041816 25220 net.cpp:386] inception_4a/relu_5x5_reduce -> inception_4a/5x5_reduce (in-place)
I0403 19:35:42.041985 25220 net.cpp:141] Setting up inception_4a/relu_5x5_reduce
I0403 19:35:42.042008 25220 net.cpp:148] Top shape: 24 16 14 14 (75264)
I0403 19:35:42.042024 25220 net.cpp:156] Memory required for data: 873665568
I0403 19:35:42.042039 25220 layer_factory.hpp:77] Creating layer inception_4a/5x5
I0403 19:35:42.042062 25220 net.cpp:91] Creating Layer inception_4a/5x5
I0403 19:35:42.042080 25220 net.cpp:425] inception_4a/5x5 <- inception_4a/5x5_reduce
I0403 19:35:42.042099 25220 net.cpp:399] inception_4a/5x5 -> inception_4a/5x5
I0403 19:35:42.043122 25220 net.cpp:141] Setting up inception_4a/5x5
I0403 19:35:42.043151 25220 net.cpp:148] Top shape: 24 48 14 14 (225792)
I0403 19:35:42.043165 25220 net.cpp:156] Memory required for data: 874568736
I0403 19:35:42.043184 25220 layer_factory.hpp:77] Creating layer inception_4a/relu_5x5
I0403 19:35:42.043206 25220 net.cpp:91] Creating Layer inception_4a/relu_5x5
I0403 19:35:42.043223 25220 net.cpp:425] inception_4a/relu_5x5 <- inception_4a/5x5
I0403 19:35:42.043241 25220 net.cpp:386] inception_4a/relu_5x5 -> inception_4a/5x5 (in-place)
I0403 19:35:42.043414 25220 net.cpp:141] Setting up inception_4a/relu_5x5
I0403 19:35:42.043442 25220 net.cpp:148] Top shape: 24 48 14 14 (225792)
I0403 19:35:42.043458 25220 net.cpp:156] Memory required for data: 875471904
I0403 19:35:42.043472 25220 layer_factory.hpp:77] Creating layer inception_4a/pool
I0403 19:35:42.043490 25220 net.cpp:91] Creating Layer inception_4a/pool
I0403 19:35:42.043508 25220 net.cpp:425] inception_4a/pool <- pool3/3x3_s2_pool3/3x3_s2_0_split_3
I0403 19:35:42.043527 25220 net.cpp:399] inception_4a/pool -> inception_4a/pool
I0403 19:35:42.043584 25220 net.cpp:141] Setting up inception_4a/pool
I0403 19:35:42.043611 25220 net.cpp:148] Top shape: 24 480 14 14 (2257920)
I0403 19:35:42.043627 25220 net.cpp:156] Memory required for data: 884503584
I0403 19:35:42.043642 25220 layer_factory.hpp:77] Creating layer inception_4a/pool_proj
I0403 19:35:42.043661 25220 net.cpp:91] Creating Layer inception_4a/pool_proj
I0403 19:35:42.043678 25220 net.cpp:425] inception_4a/pool_proj <- inception_4a/pool
I0403 19:35:42.043699 25220 net.cpp:399] inception_4a/pool_proj -> inception_4a/pool_proj
I0403 19:35:42.044809 25220 net.cpp:141] Setting up inception_4a/pool_proj
I0403 19:35:42.044842 25220 net.cpp:148] Top shape: 24 64 14 14 (301056)
I0403 19:35:42.044872 25220 net.cpp:156] Memory required for data: 885707808
I0403 19:35:42.044893 25220 layer_factory.hpp:77] Creating layer inception_4a/relu_pool_proj
I0403 19:35:42.044914 25220 net.cpp:91] Creating Layer inception_4a/relu_pool_proj
I0403 19:35:42.044931 25220 net.cpp:425] inception_4a/relu_pool_proj <- inception_4a/pool_proj
I0403 19:35:42.044948 25220 net.cpp:386] inception_4a/relu_pool_proj -> inception_4a/pool_proj (in-place)
I0403 19:35:42.045217 25220 net.cpp:141] Setting up inception_4a/relu_pool_proj
I0403 19:35:42.045248 25220 net.cpp:148] Top shape: 24 64 14 14 (301056)
I0403 19:35:42.045266 25220 net.cpp:156] Memory required for data: 886912032
I0403 19:35:42.045280 25220 layer_factory.hpp:77] Creating layer inception_4a/output
I0403 19:35:42.045302 25220 net.cpp:91] Creating Layer inception_4a/output
I0403 19:35:42.045320 25220 net.cpp:425] inception_4a/output <- inception_4a/1x1
I0403 19:35:42.045337 25220 net.cpp:425] inception_4a/output <- inception_4a/3x3
I0403 19:35:42.045353 25220 net.cpp:425] inception_4a/output <- inception_4a/5x5
I0403 19:35:42.045368 25220 net.cpp:425] inception_4a/output <- inception_4a/pool_proj
I0403 19:35:42.045385 25220 net.cpp:399] inception_4a/output -> inception_4a/output
I0403 19:35:42.045429 25220 net.cpp:141] Setting up inception_4a/output
I0403 19:35:42.045454 25220 net.cpp:148] Top shape: 24 512 14 14 (2408448)
I0403 19:35:42.045469 25220 net.cpp:156] Memory required for data: 896545824
I0403 19:35:42.045483 25220 layer_factory.hpp:77] Creating layer inception_4a/output_inception_4a/output_0_split
I0403 19:35:42.045503 25220 net.cpp:91] Creating Layer inception_4a/output_inception_4a/output_0_split
I0403 19:35:42.045519 25220 net.cpp:425] inception_4a/output_inception_4a/output_0_split <- inception_4a/output
I0403 19:35:42.045536 25220 net.cpp:399] inception_4a/output_inception_4a/output_0_split -> inception_4a/output_inception_4a/output_0_split_0
I0403 19:35:42.045557 25220 net.cpp:399] inception_4a/output_inception_4a/output_0_split -> inception_4a/output_inception_4a/output_0_split_1
I0403 19:35:42.045578 25220 net.cpp:399] inception_4a/output_inception_4a/output_0_split -> inception_4a/output_inception_4a/output_0_split_2
I0403 19:35:42.045600 25220 net.cpp:399] inception_4a/output_inception_4a/output_0_split -> inception_4a/output_inception_4a/output_0_split_3
I0403 19:35:42.045622 25220 net.cpp:399] inception_4a/output_inception_4a/output_0_split -> inception_4a/output_inception_4a/output_0_split_4
I0403 19:35:42.045708 25220 net.cpp:141] Setting up inception_4a/output_inception_4a/output_0_split
I0403 19:35:42.045732 25220 net.cpp:148] Top shape: 24 512 14 14 (2408448)
I0403 19:35:42.045748 25220 net.cpp:148] Top shape: 24 512 14 14 (2408448)
I0403 19:35:42.045763 25220 net.cpp:148] Top shape: 24 512 14 14 (2408448)
I0403 19:35:42.045778 25220 net.cpp:148] Top shape: 24 512 14 14 (2408448)
I0403 19:35:42.045792 25220 net.cpp:148] Top shape: 24 512 14 14 (2408448)
I0403 19:35:42.045805 25220 net.cpp:156] Memory required for data: 944714784
I0403 19:35:42.045820 25220 layer_factory.hpp:77] Creating layer loss1/ave_pool
I0403 19:35:42.045840 25220 net.cpp:91] Creating Layer loss1/ave_pool
I0403 19:35:42.045858 25220 net.cpp:425] loss1/ave_pool <- inception_4a/output_inception_4a/output_0_split_0
I0403 19:35:42.045876 25220 net.cpp:399] loss1/ave_pool -> loss1/ave_pool
I0403 19:35:42.046072 25220 net.cpp:141] Setting up loss1/ave_pool
I0403 19:35:42.046102 25220 net.cpp:148] Top shape: 24 512 4 4 (196608)
I0403 19:35:42.046118 25220 net.cpp:156] Memory required for data: 945501216
I0403 19:35:42.046133 25220 layer_factory.hpp:77] Creating layer loss1/conv
I0403 19:35:42.046155 25220 net.cpp:91] Creating Layer loss1/conv
I0403 19:35:42.046175 25220 net.cpp:425] loss1/conv <- loss1/ave_pool
I0403 19:35:42.046195 25220 net.cpp:399] loss1/conv -> loss1/conv
I0403 19:35:42.047509 25220 net.cpp:141] Setting up loss1/conv
I0403 19:35:42.047539 25220 net.cpp:148] Top shape: 24 128 4 4 (49152)
I0403 19:35:42.047569 25220 net.cpp:156] Memory required for data: 945697824
I0403 19:35:42.047588 25220 layer_factory.hpp:77] Creating layer loss1/relu_conv
I0403 19:35:42.047607 25220 net.cpp:91] Creating Layer loss1/relu_conv
I0403 19:35:42.047624 25220 net.cpp:425] loss1/relu_conv <- loss1/conv
I0403 19:35:42.047642 25220 net.cpp:386] loss1/relu_conv -> loss1/conv (in-place)
I0403 19:35:42.047904 25220 net.cpp:141] Setting up loss1/relu_conv
I0403 19:35:42.047935 25220 net.cpp:148] Top shape: 24 128 4 4 (49152)
I0403 19:35:42.047950 25220 net.cpp:156] Memory required for data: 945894432
I0403 19:35:42.047963 25220 layer_factory.hpp:77] Creating layer loss1/fc
I0403 19:35:42.047989 25220 net.cpp:91] Creating Layer loss1/fc
I0403 19:35:42.048009 25220 net.cpp:425] loss1/fc <- loss1/conv
I0403 19:35:42.048028 25220 net.cpp:399] loss1/fc -> loss1/fc
I0403 19:35:42.064796 25220 net.cpp:141] Setting up loss1/fc
I0403 19:35:42.064833 25220 net.cpp:148] Top shape: 24 1024 (24576)
I0403 19:35:42.064851 25220 net.cpp:156] Memory required for data: 945992736
I0403 19:35:42.064868 25220 layer_factory.hpp:77] Creating layer loss1/relu_fc
I0403 19:35:42.064888 25220 net.cpp:91] Creating Layer loss1/relu_fc
I0403 19:35:42.064908 25220 net.cpp:425] loss1/relu_fc <- loss1/fc
I0403 19:35:42.064931 25220 net.cpp:386] loss1/relu_fc -> loss1/fc (in-place)
I0403 19:35:42.065107 25220 net.cpp:141] Setting up loss1/relu_fc
I0403 19:35:42.065135 25220 net.cpp:148] Top shape: 24 1024 (24576)
I0403 19:35:42.065152 25220 net.cpp:156] Memory required for data: 946091040
I0403 19:35:42.065166 25220 layer_factory.hpp:77] Creating layer loss1/drop_fc
I0403 19:35:42.065193 25220 net.cpp:91] Creating Layer loss1/drop_fc
I0403 19:35:42.065212 25220 net.cpp:425] loss1/drop_fc <- loss1/fc
I0403 19:35:42.065232 25220 net.cpp:386] loss1/drop_fc -> loss1/fc (in-place)
I0403 19:35:42.065290 25220 net.cpp:141] Setting up loss1/drop_fc
I0403 19:35:42.065317 25220 net.cpp:148] Top shape: 24 1024 (24576)
I0403 19:35:42.065333 25220 net.cpp:156] Memory required for data: 946189344
I0403 19:35:42.065349 25220 layer_factory.hpp:77] Creating layer loss1/classifier_plantvillage
I0403 19:35:42.065371 25220 net.cpp:91] Creating Layer loss1/classifier_plantvillage
I0403 19:35:42.065389 25220 net.cpp:425] loss1/classifier_plantvillage <- loss1/fc
I0403 19:35:42.065410 25220 net.cpp:399] loss1/classifier_plantvillage -> loss1/classifier_plantvillage
I0403 19:35:42.066275 25220 net.cpp:141] Setting up loss1/classifier_plantvillage
I0403 19:35:42.066313 25220 net.cpp:148] Top shape: 24 38 (912)
I0403 19:35:42.066331 25220 net.cpp:156] Memory required for data: 946192992
I0403 19:35:42.066350 25220 layer_factory.hpp:77] Creating layer loss1/classifier_plantvillage_loss1/classifier_plantvillage_0_split
I0403 19:35:42.066368 25220 net.cpp:91] Creating Layer loss1/classifier_plantvillage_loss1/classifier_plantvillage_0_split
I0403 19:35:42.066385 25220 net.cpp:425] loss1/classifier_plantvillage_loss1/classifier_plantvillage_0_split <- loss1/classifier_plantvillage
I0403 19:35:42.066404 25220 net.cpp:399] loss1/classifier_plantvillage_loss1/classifier_plantvillage_0_split -> loss1/classifier_plantvillage_loss1/classifier_plantvillage_0_split_0
I0403 19:35:42.066427 25220 net.cpp:399] loss1/classifier_plantvillage_loss1/classifier_plantvillage_0_split -> loss1/classifier_plantvillage_loss1/classifier_plantvillage_0_split_1
I0403 19:35:42.066448 25220 net.cpp:399] loss1/classifier_plantvillage_loss1/classifier_plantvillage_0_split -> loss1/classifier_plantvillage_loss1/classifier_plantvillage_0_split_2
I0403 19:35:42.066515 25220 net.cpp:141] Setting up loss1/classifier_plantvillage_loss1/classifier_plantvillage_0_split
I0403 19:35:42.066543 25220 net.cpp:148] Top shape: 24 38 (912)
I0403 19:35:42.066560 25220 net.cpp:148] Top shape: 24 38 (912)
I0403 19:35:42.066573 25220 net.cpp:148] Top shape: 24 38 (912)
I0403 19:35:42.066587 25220 net.cpp:156] Memory required for data: 946203936
I0403 19:35:42.066601 25220 layer_factory.hpp:77] Creating layer inception_4b/1x1
I0403 19:35:42.066624 25220 net.cpp:91] Creating Layer inception_4b/1x1
I0403 19:35:42.066656 25220 net.cpp:425] inception_4b/1x1 <- inception_4a/output_inception_4a/output_0_split_1
I0403 19:35:42.066678 25220 net.cpp:399] inception_4b/1x1 -> inception_4b/1x1
I0403 19:35:42.068205 25220 net.cpp:141] Setting up inception_4b/1x1
I0403 19:35:42.068234 25220 net.cpp:148] Top shape: 24 160 14 14 (752640)
I0403 19:35:42.068251 25220 net.cpp:156] Memory required for data: 949214496
I0403 19:35:42.068270 25220 layer_factory.hpp:77] Creating layer inception_4b/relu_1x1
I0403 19:35:42.068295 25220 net.cpp:91] Creating Layer inception_4b/relu_1x1
I0403 19:35:42.068315 25220 net.cpp:425] inception_4b/relu_1x1 <- inception_4b/1x1
I0403 19:35:42.068331 25220 net.cpp:386] inception_4b/relu_1x1 -> inception_4b/1x1 (in-place)
I0403 19:35:42.068500 25220 net.cpp:141] Setting up inception_4b/relu_1x1
I0403 19:35:42.068531 25220 net.cpp:148] Top shape: 24 160 14 14 (752640)
I0403 19:35:42.068544 25220 net.cpp:156] Memory required for data: 952225056
I0403 19:35:42.068560 25220 layer_factory.hpp:77] Creating layer inception_4b/3x3_reduce
I0403 19:35:42.068581 25220 net.cpp:91] Creating Layer inception_4b/3x3_reduce
I0403 19:35:42.068601 25220 net.cpp:425] inception_4b/3x3_reduce <- inception_4a/output_inception_4a/output_0_split_2
I0403 19:35:42.068620 25220 net.cpp:399] inception_4b/3x3_reduce -> inception_4b/3x3_reduce
I0403 19:35:42.069900 25220 net.cpp:141] Setting up inception_4b/3x3_reduce
I0403 19:35:42.069929 25220 net.cpp:148] Top shape: 24 112 14 14 (526848)
I0403 19:35:42.069946 25220 net.cpp:156] Memory required for data: 954332448
I0403 19:35:42.069963 25220 layer_factory.hpp:77] Creating layer inception_4b/relu_3x3_reduce
I0403 19:35:42.069983 25220 net.cpp:91] Creating Layer inception_4b/relu_3x3_reduce
I0403 19:35:42.070001 25220 net.cpp:425] inception_4b/relu_3x3_reduce <- inception_4b/3x3_reduce
I0403 19:35:42.070019 25220 net.cpp:386] inception_4b/relu_3x3_reduce -> inception_4b/3x3_reduce (in-place)
I0403 19:35:42.070291 25220 net.cpp:141] Setting up inception_4b/relu_3x3_reduce
I0403 19:35:42.070317 25220 net.cpp:148] Top shape: 24 112 14 14 (526848)
I0403 19:35:42.070334 25220 net.cpp:156] Memory required for data: 956439840
I0403 19:35:42.070348 25220 layer_factory.hpp:77] Creating layer inception_4b/3x3
I0403 19:35:42.070370 25220 net.cpp:91] Creating Layer inception_4b/3x3
I0403 19:35:42.070390 25220 net.cpp:425] inception_4b/3x3 <- inception_4b/3x3_reduce
I0403 19:35:42.070411 25220 net.cpp:399] inception_4b/3x3 -> inception_4b/3x3
I0403 19:35:42.073246 25220 net.cpp:141] Setting up inception_4b/3x3
I0403 19:35:42.073281 25220 net.cpp:148] Top shape: 24 224 14 14 (1053696)
I0403 19:35:42.073307 25220 net.cpp:156] Memory required for data: 960654624
I0403 19:35:42.073328 25220 layer_factory.hpp:77] Creating layer inception_4b/relu_3x3
I0403 19:35:42.073345 25220 net.cpp:91] Creating Layer inception_4b/relu_3x3
I0403 19:35:42.073361 25220 net.cpp:425] inception_4b/relu_3x3 <- inception_4b/3x3
I0403 19:35:42.073382 25220 net.cpp:386] inception_4b/relu_3x3 -> inception_4b/3x3 (in-place)
I0403 19:35:42.073555 25220 net.cpp:141] Setting up inception_4b/relu_3x3
I0403 19:35:42.073585 25220 net.cpp:148] Top shape: 24 224 14 14 (1053696)
I0403 19:35:42.073601 25220 net.cpp:156] Memory required for data: 964869408
I0403 19:35:42.073616 25220 layer_factory.hpp:77] Creating layer inception_4b/5x5_reduce
I0403 19:35:42.073637 25220 net.cpp:91] Creating Layer inception_4b/5x5_reduce
I0403 19:35:42.073657 25220 net.cpp:425] inception_4b/5x5_reduce <- inception_4a/output_inception_4a/output_0_split_3
I0403 19:35:42.073679 25220 net.cpp:399] inception_4b/5x5_reduce -> inception_4b/5x5_reduce
I0403 19:35:42.074718 25220 net.cpp:141] Setting up inception_4b/5x5_reduce
I0403 19:35:42.074748 25220 net.cpp:148] Top shape: 24 24 14 14 (112896)
I0403 19:35:42.074764 25220 net.cpp:156] Memory required for data: 965320992
I0403 19:35:42.074780 25220 layer_factory.hpp:77] Creating layer inception_4b/relu_5x5_reduce
I0403 19:35:42.074800 25220 net.cpp:91] Creating Layer inception_4b/relu_5x5_reduce
I0403 19:35:42.074832 25220 net.cpp:425] inception_4b/relu_5x5_reduce <- inception_4b/5x5_reduce
I0403 19:35:42.074851 25220 net.cpp:386] inception_4b/relu_5x5_reduce -> inception_4b/5x5_reduce (in-place)
I0403 19:35:42.075026 25220 net.cpp:141] Setting up inception_4b/relu_5x5_reduce
I0403 19:35:42.075057 25220 net.cpp:148] Top shape: 24 24 14 14 (112896)
I0403 19:35:42.075073 25220 net.cpp:156] Memory required for data: 965772576
I0403 19:35:42.075088 25220 layer_factory.hpp:77] Creating layer inception_4b/5x5
I0403 19:35:42.075109 25220 net.cpp:91] Creating Layer inception_4b/5x5
I0403 19:35:42.075127 25220 net.cpp:425] inception_4b/5x5 <- inception_4b/5x5_reduce
I0403 19:35:42.075148 25220 net.cpp:399] inception_4b/5x5 -> inception_4b/5x5
I0403 19:35:42.076313 25220 net.cpp:141] Setting up inception_4b/5x5
I0403 19:35:42.076342 25220 net.cpp:148] Top shape: 24 64 14 14 (301056)
I0403 19:35:42.076357 25220 net.cpp:156] Memory required for data: 966976800
I0403 19:35:42.076375 25220 layer_factory.hpp:77] Creating layer inception_4b/relu_5x5
I0403 19:35:42.076395 25220 net.cpp:91] Creating Layer inception_4b/relu_5x5
I0403 19:35:42.076416 25220 net.cpp:425] inception_4b/relu_5x5 <- inception_4b/5x5
I0403 19:35:42.076433 25220 net.cpp:386] inception_4b/relu_5x5 -> inception_4b/5x5 (in-place)
I0403 19:35:42.076702 25220 net.cpp:141] Setting up inception_4b/relu_5x5
I0403 19:35:42.076730 25220 net.cpp:148] Top shape: 24 64 14 14 (301056)
I0403 19:35:42.076746 25220 net.cpp:156] Memory required for data: 968181024
I0403 19:35:42.076762 25220 layer_factory.hpp:77] Creating layer inception_4b/pool
I0403 19:35:42.076781 25220 net.cpp:91] Creating Layer inception_4b/pool
I0403 19:35:42.076795 25220 net.cpp:425] inception_4b/pool <- inception_4a/output_inception_4a/output_0_split_4
I0403 19:35:42.076817 25220 net.cpp:399] inception_4b/pool -> inception_4b/pool
I0403 19:35:42.076879 25220 net.cpp:141] Setting up inception_4b/pool
I0403 19:35:42.076907 25220 net.cpp:148] Top shape: 24 512 14 14 (2408448)
I0403 19:35:42.076922 25220 net.cpp:156] Memory required for data: 977814816
I0403 19:35:42.076938 25220 layer_factory.hpp:77] Creating layer inception_4b/pool_proj
I0403 19:35:42.076961 25220 net.cpp:91] Creating Layer inception_4b/pool_proj
I0403 19:35:42.076979 25220 net.cpp:425] inception_4b/pool_proj <- inception_4b/pool
I0403 19:35:42.076998 25220 net.cpp:399] inception_4b/pool_proj -> inception_4b/pool_proj
I0403 19:35:42.078129 25220 net.cpp:141] Setting up inception_4b/pool_proj
I0403 19:35:42.078157 25220 net.cpp:148] Top shape: 24 64 14 14 (301056)
I0403 19:35:42.078173 25220 net.cpp:156] Memory required for data: 979019040
I0403 19:35:42.078192 25220 layer_factory.hpp:77] Creating layer inception_4b/relu_pool_proj
I0403 19:35:42.078212 25220 net.cpp:91] Creating Layer inception_4b/relu_pool_proj
I0403 19:35:42.078230 25220 net.cpp:425] inception_4b/relu_pool_proj <- inception_4b/pool_proj
I0403 19:35:42.078248 25220 net.cpp:386] inception_4b/relu_pool_proj -> inception_4b/pool_proj (in-place)
I0403 19:35:42.078426 25220 net.cpp:141] Setting up inception_4b/relu_pool_proj
I0403 19:35:42.078454 25220 net.cpp:148] Top shape: 24 64 14 14 (301056)
I0403 19:35:42.078469 25220 net.cpp:156] Memory required for data: 980223264
I0403 19:35:42.078485 25220 layer_factory.hpp:77] Creating layer inception_4b/output
I0403 19:35:42.078510 25220 net.cpp:91] Creating Layer inception_4b/output
I0403 19:35:42.078527 25220 net.cpp:425] inception_4b/output <- inception_4b/1x1
I0403 19:35:42.078543 25220 net.cpp:425] inception_4b/output <- inception_4b/3x3
I0403 19:35:42.078559 25220 net.cpp:425] inception_4b/output <- inception_4b/5x5
I0403 19:35:42.078578 25220 net.cpp:425] inception_4b/output <- inception_4b/pool_proj
I0403 19:35:42.078595 25220 net.cpp:399] inception_4b/output -> inception_4b/output
I0403 19:35:42.078639 25220 net.cpp:141] Setting up inception_4b/output
I0403 19:35:42.078666 25220 net.cpp:148] Top shape: 24 512 14 14 (2408448)
I0403 19:35:42.078681 25220 net.cpp:156] Memory required for data: 989857056
I0403 19:35:42.078711 25220 layer_factory.hpp:77] Creating layer inception_4b/output_inception_4b/output_0_split
I0403 19:35:42.078730 25220 net.cpp:91] Creating Layer inception_4b/output_inception_4b/output_0_split
I0403 19:35:42.078747 25220 net.cpp:425] inception_4b/output_inception_4b/output_0_split <- inception_4b/output
I0403 19:35:42.078768 25220 net.cpp:399] inception_4b/output_inception_4b/output_0_split -> inception_4b/output_inception_4b/output_0_split_0
I0403 19:35:42.078789 25220 net.cpp:399] inception_4b/output_inception_4b/output_0_split -> inception_4b/output_inception_4b/output_0_split_1
I0403 19:35:42.078809 25220 net.cpp:399] inception_4b/output_inception_4b/output_0_split -> inception_4b/output_inception_4b/output_0_split_2
I0403 19:35:42.078830 25220 net.cpp:399] inception_4b/output_inception_4b/output_0_split -> inception_4b/output_inception_4b/output_0_split_3
I0403 19:35:42.078914 25220 net.cpp:141] Setting up inception_4b/output_inception_4b/output_0_split
I0403 19:35:42.078940 25220 net.cpp:148] Top shape: 24 512 14 14 (2408448)
I0403 19:35:42.078958 25220 net.cpp:148] Top shape: 24 512 14 14 (2408448)
I0403 19:35:42.078974 25220 net.cpp:148] Top shape: 24 512 14 14 (2408448)
I0403 19:35:42.078989 25220 net.cpp:148] Top shape: 24 512 14 14 (2408448)
I0403 19:35:42.079001 25220 net.cpp:156] Memory required for data: 1028392224
I0403 19:35:42.079016 25220 layer_factory.hpp:77] Creating layer inception_4c/1x1
I0403 19:35:42.079037 25220 net.cpp:91] Creating Layer inception_4c/1x1
I0403 19:35:42.079057 25220 net.cpp:425] inception_4c/1x1 <- inception_4b/output_inception_4b/output_0_split_0
I0403 19:35:42.079077 25220 net.cpp:399] inception_4c/1x1 -> inception_4c/1x1
I0403 19:35:42.080430 25220 net.cpp:141] Setting up inception_4c/1x1
I0403 19:35:42.080461 25220 net.cpp:148] Top shape: 24 128 14 14 (602112)
I0403 19:35:42.080476 25220 net.cpp:156] Memory required for data: 1030800672
I0403 19:35:42.080498 25220 layer_factory.hpp:77] Creating layer inception_4c/relu_1x1
I0403 19:35:42.080518 25220 net.cpp:91] Creating Layer inception_4c/relu_1x1
I0403 19:35:42.080534 25220 net.cpp:425] inception_4c/relu_1x1 <- inception_4c/1x1
I0403 19:35:42.080551 25220 net.cpp:386] inception_4c/relu_1x1 -> inception_4c/1x1 (in-place)
I0403 19:35:42.080724 25220 net.cpp:141] Setting up inception_4c/relu_1x1
I0403 19:35:42.080749 25220 net.cpp:148] Top shape: 24 128 14 14 (602112)
I0403 19:35:42.080766 25220 net.cpp:156] Memory required for data: 1033209120
I0403 19:35:42.080780 25220 layer_factory.hpp:77] Creating layer inception_4c/3x3_reduce
I0403 19:35:42.080801 25220 net.cpp:91] Creating Layer inception_4c/3x3_reduce
I0403 19:35:42.080819 25220 net.cpp:425] inception_4c/3x3_reduce <- inception_4b/output_inception_4b/output_0_split_1
I0403 19:35:42.080839 25220 net.cpp:399] inception_4c/3x3_reduce -> inception_4c/3x3_reduce
I0403 19:35:42.082705 25220 net.cpp:141] Setting up inception_4c/3x3_reduce
I0403 19:35:42.082733 25220 net.cpp:148] Top shape: 24 128 14 14 (602112)
I0403 19:35:42.082749 25220 net.cpp:156] Memory required for data: 1035617568
I0403 19:35:42.082767 25220 layer_factory.hpp:77] Creating layer inception_4c/relu_3x3_reduce
I0403 19:35:42.082784 25220 net.cpp:91] Creating Layer inception_4c/relu_3x3_reduce
I0403 19:35:42.082799 25220 net.cpp:425] inception_4c/relu_3x3_reduce <- inception_4c/3x3_reduce
I0403 19:35:42.082818 25220 net.cpp:386] inception_4c/relu_3x3_reduce -> inception_4c/3x3_reduce (in-place)
I0403 19:35:42.083087 25220 net.cpp:141] Setting up inception_4c/relu_3x3_reduce
I0403 19:35:42.083113 25220 net.cpp:148] Top shape: 24 128 14 14 (602112)
I0403 19:35:42.083130 25220 net.cpp:156] Memory required for data: 1038026016
I0403 19:35:42.083144 25220 layer_factory.hpp:77] Creating layer inception_4c/3x3
I0403 19:35:42.083166 25220 net.cpp:91] Creating Layer inception_4c/3x3
I0403 19:35:42.083185 25220 net.cpp:425] inception_4c/3x3 <- inception_4c/3x3_reduce
I0403 19:35:42.083205 25220 net.cpp:399] inception_4c/3x3 -> inception_4c/3x3
I0403 19:35:42.086621 25220 net.cpp:141] Setting up inception_4c/3x3
I0403 19:35:42.086660 25220 net.cpp:148] Top shape: 24 256 14 14 (1204224)
I0403 19:35:42.086675 25220 net.cpp:156] Memory required for data: 1042842912
I0403 19:35:42.086704 25220 layer_factory.hpp:77] Creating layer inception_4c/relu_3x3
I0403 19:35:42.086725 25220 net.cpp:91] Creating Layer inception_4c/relu_3x3
I0403 19:35:42.086742 25220 net.cpp:425] inception_4c/relu_3x3 <- inception_4c/3x3
I0403 19:35:42.086758 25220 net.cpp:386] inception_4c/relu_3x3 -> inception_4c/3x3 (in-place)
I0403 19:35:42.086931 25220 net.cpp:141] Setting up inception_4c/relu_3x3
I0403 19:35:42.086956 25220 net.cpp:148] Top shape: 24 256 14 14 (1204224)
I0403 19:35:42.086968 25220 net.cpp:156] Memory required for data: 1047659808
I0403 19:35:42.086982 25220 layer_factory.hpp:77] Creating layer inception_4c/5x5_reduce
I0403 19:35:42.087002 25220 net.cpp:91] Creating Layer inception_4c/5x5_reduce
I0403 19:35:42.087018 25220 net.cpp:425] inception_4c/5x5_reduce <- inception_4b/output_inception_4b/output_0_split_2
I0403 19:35:42.087040 25220 net.cpp:399] inception_4c/5x5_reduce -> inception_4c/5x5_reduce
I0403 19:35:42.088074 25220 net.cpp:141] Setting up inception_4c/5x5_reduce
I0403 19:35:42.088100 25220 net.cpp:148] Top shape: 24 24 14 14 (112896)
I0403 19:35:42.088115 25220 net.cpp:156] Memory required for data: 1048111392
I0403 19:35:42.088131 25220 layer_factory.hpp:77] Creating layer inception_4c/relu_5x5_reduce
I0403 19:35:42.088150 25220 net.cpp:91] Creating Layer inception_4c/relu_5x5_reduce
I0403 19:35:42.088166 25220 net.cpp:425] inception_4c/relu_5x5_reduce <- inception_4c/5x5_reduce
I0403 19:35:42.088182 25220 net.cpp:386] inception_4c/relu_5x5_reduce -> inception_4c/5x5_reduce (in-place)
I0403 19:35:42.088361 25220 net.cpp:141] Setting up inception_4c/relu_5x5_reduce
I0403 19:35:42.088385 25220 net.cpp:148] Top shape: 24 24 14 14 (112896)
I0403 19:35:42.088400 25220 net.cpp:156] Memory required for data: 1048562976
I0403 19:35:42.088413 25220 layer_factory.hpp:77] Creating layer inception_4c/5x5
I0403 19:35:42.088433 25220 net.cpp:91] Creating Layer inception_4c/5x5
I0403 19:35:42.088448 25220 net.cpp:425] inception_4c/5x5 <- inception_4c/5x5_reduce
I0403 19:35:42.088467 25220 net.cpp:399] inception_4c/5x5 -> inception_4c/5x5
I0403 19:35:42.089648 25220 net.cpp:141] Setting up inception_4c/5x5
I0403 19:35:42.089673 25220 net.cpp:148] Top shape: 24 64 14 14 (301056)
I0403 19:35:42.089686 25220 net.cpp:156] Memory required for data: 1049767200
I0403 19:35:42.089704 25220 layer_factory.hpp:77] Creating layer inception_4c/relu_5x5
I0403 19:35:42.089725 25220 net.cpp:91] Creating Layer inception_4c/relu_5x5
I0403 19:35:42.089740 25220 net.cpp:425] inception_4c/relu_5x5 <- inception_4c/5x5
I0403 19:35:42.089756 25220 net.cpp:386] inception_4c/relu_5x5 -> inception_4c/5x5 (in-place)
I0403 19:35:42.090029 25220 net.cpp:141] Setting up inception_4c/relu_5x5
I0403 19:35:42.090052 25220 net.cpp:148] Top shape: 24 64 14 14 (301056)
I0403 19:35:42.090066 25220 net.cpp:156] Memory required for data: 1050971424
I0403 19:35:42.090080 25220 layer_factory.hpp:77] Creating layer inception_4c/pool
I0403 19:35:42.090098 25220 net.cpp:91] Creating Layer inception_4c/pool
I0403 19:35:42.090116 25220 net.cpp:425] inception_4c/pool <- inception_4b/output_inception_4b/output_0_split_3
I0403 19:35:42.090131 25220 net.cpp:399] inception_4c/pool -> inception_4c/pool
I0403 19:35:42.090194 25220 net.cpp:141] Setting up inception_4c/pool
I0403 19:35:42.090217 25220 net.cpp:148] Top shape: 24 512 14 14 (2408448)
I0403 19:35:42.090230 25220 net.cpp:156] Memory required for data: 1060605216
I0403 19:35:42.090245 25220 layer_factory.hpp:77] Creating layer inception_4c/pool_proj
I0403 19:35:42.090265 25220 net.cpp:91] Creating Layer inception_4c/pool_proj
I0403 19:35:42.090281 25220 net.cpp:425] inception_4c/pool_proj <- inception_4c/pool
I0403 19:35:42.090306 25220 net.cpp:399] inception_4c/pool_proj -> inception_4c/pool_proj
I0403 19:35:42.091452 25220 net.cpp:141] Setting up inception_4c/pool_proj
I0403 19:35:42.091478 25220 net.cpp:148] Top shape: 24 64 14 14 (301056)
I0403 19:35:42.091506 25220 net.cpp:156] Memory required for data: 1061809440
I0403 19:35:42.091524 25220 layer_factory.hpp:77] Creating layer inception_4c/relu_pool_proj
I0403 19:35:42.091543 25220 net.cpp:91] Creating Layer inception_4c/relu_pool_proj
I0403 19:35:42.091559 25220 net.cpp:425] inception_4c/relu_pool_proj <- inception_4c/pool_proj
I0403 19:35:42.091575 25220 net.cpp:386] inception_4c/relu_pool_proj -> inception_4c/pool_proj (in-place)
I0403 19:35:42.091747 25220 net.cpp:141] Setting up inception_4c/relu_pool_proj
I0403 19:35:42.091770 25220 net.cpp:148] Top shape: 24 64 14 14 (301056)
I0403 19:35:42.091784 25220 net.cpp:156] Memory required for data: 1063013664
I0403 19:35:42.091797 25220 layer_factory.hpp:77] Creating layer inception_4c/output
I0403 19:35:42.091814 25220 net.cpp:91] Creating Layer inception_4c/output
I0403 19:35:42.091830 25220 net.cpp:425] inception_4c/output <- inception_4c/1x1
I0403 19:35:42.091845 25220 net.cpp:425] inception_4c/output <- inception_4c/3x3
I0403 19:35:42.091859 25220 net.cpp:425] inception_4c/output <- inception_4c/5x5
I0403 19:35:42.091873 25220 net.cpp:425] inception_4c/output <- inception_4c/pool_proj
I0403 19:35:42.091888 25220 net.cpp:399] inception_4c/output -> inception_4c/output
I0403 19:35:42.091934 25220 net.cpp:141] Setting up inception_4c/output
I0403 19:35:42.091956 25220 net.cpp:148] Top shape: 24 512 14 14 (2408448)
I0403 19:35:42.091969 25220 net.cpp:156] Memory required for data: 1072647456
I0403 19:35:42.091982 25220 layer_factory.hpp:77] Creating layer inception_4c/output_inception_4c/output_0_split
I0403 19:35:42.091998 25220 net.cpp:91] Creating Layer inception_4c/output_inception_4c/output_0_split
I0403 19:35:42.092012 25220 net.cpp:425] inception_4c/output_inception_4c/output_0_split <- inception_4c/output
I0403 19:35:42.092031 25220 net.cpp:399] inception_4c/output_inception_4c/output_0_split -> inception_4c/output_inception_4c/output_0_split_0
I0403 19:35:42.092051 25220 net.cpp:399] inception_4c/output_inception_4c/output_0_split -> inception_4c/output_inception_4c/output_0_split_1
I0403 19:35:42.092069 25220 net.cpp:399] inception_4c/output_inception_4c/output_0_split -> inception_4c/output_inception_4c/output_0_split_2
I0403 19:35:42.092087 25220 net.cpp:399] inception_4c/output_inception_4c/output_0_split -> inception_4c/output_inception_4c/output_0_split_3
I0403 19:35:42.092169 25220 net.cpp:141] Setting up inception_4c/output_inception_4c/output_0_split
I0403 19:35:42.092196 25220 net.cpp:148] Top shape: 24 512 14 14 (2408448)
I0403 19:35:42.092211 25220 net.cpp:148] Top shape: 24 512 14 14 (2408448)
I0403 19:35:42.092226 25220 net.cpp:148] Top shape: 24 512 14 14 (2408448)
I0403 19:35:42.092239 25220 net.cpp:148] Top shape: 24 512 14 14 (2408448)
I0403 19:35:42.092252 25220 net.cpp:156] Memory required for data: 1111182624
I0403 19:35:42.092264 25220 layer_factory.hpp:77] Creating layer inception_4d/1x1
I0403 19:35:42.092285 25220 net.cpp:91] Creating Layer inception_4d/1x1
I0403 19:35:42.092308 25220 net.cpp:425] inception_4d/1x1 <- inception_4c/output_inception_4c/output_0_split_0
I0403 19:35:42.092329 25220 net.cpp:399] inception_4d/1x1 -> inception_4d/1x1
I0403 19:35:42.093616 25220 net.cpp:141] Setting up inception_4d/1x1
I0403 19:35:42.093644 25220 net.cpp:148] Top shape: 24 112 14 14 (526848)
I0403 19:35:42.093659 25220 net.cpp:156] Memory required for data: 1113290016
I0403 19:35:42.093677 25220 layer_factory.hpp:77] Creating layer inception_4d/relu_1x1
I0403 19:35:42.093693 25220 net.cpp:91] Creating Layer inception_4d/relu_1x1
I0403 19:35:42.093708 25220 net.cpp:425] inception_4d/relu_1x1 <- inception_4d/1x1
I0403 19:35:42.093726 25220 net.cpp:386] inception_4d/relu_1x1 -> inception_4d/1x1 (in-place)
I0403 19:35:42.093897 25220 net.cpp:141] Setting up inception_4d/relu_1x1
I0403 19:35:42.093921 25220 net.cpp:148] Top shape: 24 112 14 14 (526848)
I0403 19:35:42.093935 25220 net.cpp:156] Memory required for data: 1115397408
I0403 19:35:42.093950 25220 layer_factory.hpp:77] Creating layer inception_4d/3x3_reduce
I0403 19:35:42.093982 25220 net.cpp:91] Creating Layer inception_4d/3x3_reduce
I0403 19:35:42.094000 25220 net.cpp:425] inception_4d/3x3_reduce <- inception_4c/output_inception_4c/output_0_split_1
I0403 19:35:42.094020 25220 net.cpp:399] inception_4d/3x3_reduce -> inception_4d/3x3_reduce
I0403 19:35:42.095449 25220 net.cpp:141] Setting up inception_4d/3x3_reduce
I0403 19:35:42.095477 25220 net.cpp:148] Top shape: 24 144 14 14 (677376)
I0403 19:35:42.095494 25220 net.cpp:156] Memory required for data: 1118106912
I0403 19:35:42.095510 25220 layer_factory.hpp:77] Creating layer inception_4d/relu_3x3_reduce
I0403 19:35:42.095526 25220 net.cpp:91] Creating Layer inception_4d/relu_3x3_reduce
I0403 19:35:42.095541 25220 net.cpp:425] inception_4d/relu_3x3_reduce <- inception_4d/3x3_reduce
I0403 19:35:42.095557 25220 net.cpp:386] inception_4d/relu_3x3_reduce -> inception_4d/3x3_reduce (in-place)
I0403 19:35:42.095826 25220 net.cpp:141] Setting up inception_4d/relu_3x3_reduce
I0403 19:35:42.095854 25220 net.cpp:148] Top shape: 24 144 14 14 (677376)
I0403 19:35:42.095868 25220 net.cpp:156] Memory required for data: 1120816416
I0403 19:35:42.095881 25220 layer_factory.hpp:77] Creating layer inception_4d/3x3
I0403 19:35:42.095901 25220 net.cpp:91] Creating Layer inception_4d/3x3
I0403 19:35:42.095918 25220 net.cpp:425] inception_4d/3x3 <- inception_4d/3x3_reduce
I0403 19:35:42.095937 25220 net.cpp:399] inception_4d/3x3 -> inception_4d/3x3
I0403 19:35:42.099936 25220 net.cpp:141] Setting up inception_4d/3x3
I0403 19:35:42.099962 25220 net.cpp:148] Top shape: 24 288 14 14 (1354752)
I0403 19:35:42.099977 25220 net.cpp:156] Memory required for data: 1126235424
I0403 19:35:42.099993 25220 layer_factory.hpp:77] Creating layer inception_4d/relu_3x3
I0403 19:35:42.100010 25220 net.cpp:91] Creating Layer inception_4d/relu_3x3
I0403 19:35:42.100025 25220 net.cpp:425] inception_4d/relu_3x3 <- inception_4d/3x3
I0403 19:35:42.100044 25220 net.cpp:386] inception_4d/relu_3x3 -> inception_4d/3x3 (in-place)
I0403 19:35:42.100215 25220 net.cpp:141] Setting up inception_4d/relu_3x3
I0403 19:35:42.100239 25220 net.cpp:148] Top shape: 24 288 14 14 (1354752)
I0403 19:35:42.100253 25220 net.cpp:156] Memory required for data: 1131654432
I0403 19:35:42.100266 25220 layer_factory.hpp:77] Creating layer inception_4d/5x5_reduce
I0403 19:35:42.100291 25220 net.cpp:91] Creating Layer inception_4d/5x5_reduce
I0403 19:35:42.100309 25220 net.cpp:425] inception_4d/5x5_reduce <- inception_4c/output_inception_4c/output_0_split_2
I0403 19:35:42.100329 25220 net.cpp:399] inception_4d/5x5_reduce -> inception_4d/5x5_reduce
I0403 19:35:42.101800 25220 net.cpp:141] Setting up inception_4d/5x5_reduce
I0403 19:35:42.101894 25220 net.cpp:148] Top shape: 24 32 14 14 (150528)
I0403 19:35:42.101938 25220 net.cpp:156] Memory required for data: 1132256544
I0403 19:35:42.101985 25220 layer_factory.hpp:77] Creating layer inception_4d/relu_5x5_reduce
I0403 19:35:42.102032 25220 net.cpp:91] Creating Layer inception_4d/relu_5x5_reduce
I0403 19:35:42.102074 25220 net.cpp:425] inception_4d/relu_5x5_reduce <- inception_4d/5x5_reduce
I0403 19:35:42.102126 25220 net.cpp:386] inception_4d/relu_5x5_reduce -> inception_4d/5x5_reduce (in-place)
I0403 19:35:42.102646 25220 net.cpp:141] Setting up inception_4d/relu_5x5_reduce
I0403 19:35:42.102712 25220 net.cpp:148] Top shape: 24 32 14 14 (150528)
I0403 19:35:42.102749 25220 net.cpp:156] Memory required for data: 1132858656
I0403 19:35:42.102785 25220 layer_factory.hpp:77] Creating layer inception_4d/5x5
I0403 19:35:42.102841 25220 net.cpp:91] Creating Layer inception_4d/5x5
I0403 19:35:42.102886 25220 net.cpp:425] inception_4d/5x5 <- inception_4d/5x5_reduce
I0403 19:35:42.102939 25220 net.cpp:399] inception_4d/5x5 -> inception_4d/5x5
I0403 19:35:42.105274 25220 net.cpp:141] Setting up inception_4d/5x5
I0403 19:35:42.105306 25220 net.cpp:148] Top shape: 24 64 14 14 (301056)
I0403 19:35:42.105321 25220 net.cpp:156] Memory required for data: 1134062880
I0403 19:35:42.105340 25220 layer_factory.hpp:77] Creating layer inception_4d/relu_5x5
I0403 19:35:42.105378 25220 net.cpp:91] Creating Layer inception_4d/relu_5x5
I0403 19:35:42.105396 25220 net.cpp:425] inception_4d/relu_5x5 <- inception_4d/5x5
I0403 19:35:42.105413 25220 net.cpp:386] inception_4d/relu_5x5 -> inception_4d/5x5 (in-place)
I0403 19:35:42.105705 25220 net.cpp:141] Setting up inception_4d/relu_5x5
I0403 19:35:42.105731 25220 net.cpp:148] Top shape: 24 64 14 14 (301056)
I0403 19:35:42.105746 25220 net.cpp:156] Memory required for data: 1135267104
I0403 19:35:42.105761 25220 layer_factory.hpp:77] Creating layer inception_4d/pool
I0403 19:35:42.105779 25220 net.cpp:91] Creating Layer inception_4d/pool
I0403 19:35:42.105797 25220 net.cpp:425] inception_4d/pool <- inception_4c/output_inception_4c/output_0_split_3
I0403 19:35:42.105814 25220 net.cpp:399] inception_4d/pool -> inception_4d/pool
I0403 19:35:42.105880 25220 net.cpp:141] Setting up inception_4d/pool
I0403 19:35:42.105903 25220 net.cpp:148] Top shape: 24 512 14 14 (2408448)
I0403 19:35:42.105917 25220 net.cpp:156] Memory required for data: 1144900896
I0403 19:35:42.105931 25220 layer_factory.hpp:77] Creating layer inception_4d/pool_proj
I0403 19:35:42.105953 25220 net.cpp:91] Creating Layer inception_4d/pool_proj
I0403 19:35:42.105970 25220 net.cpp:425] inception_4d/pool_proj <- inception_4d/pool
I0403 19:35:42.105990 25220 net.cpp:399] inception_4d/pool_proj -> inception_4d/pool_proj
I0403 19:35:42.107692 25220 net.cpp:141] Setting up inception_4d/pool_proj
I0403 19:35:42.107720 25220 net.cpp:148] Top shape: 24 64 14 14 (301056)
I0403 19:35:42.107736 25220 net.cpp:156] Memory required for data: 1146105120
I0403 19:35:42.107753 25220 layer_factory.hpp:77] Creating layer inception_4d/relu_pool_proj
I0403 19:35:42.107769 25220 net.cpp:91] Creating Layer inception_4d/relu_pool_proj
I0403 19:35:42.107785 25220 net.cpp:425] inception_4d/relu_pool_proj <- inception_4d/pool_proj
I0403 19:35:42.107805 25220 net.cpp:386] inception_4d/relu_pool_proj -> inception_4d/pool_proj (in-place)
I0403 19:35:42.107980 25220 net.cpp:141] Setting up inception_4d/relu_pool_proj
I0403 19:35:42.108005 25220 net.cpp:148] Top shape: 24 64 14 14 (301056)
I0403 19:35:42.108018 25220 net.cpp:156] Memory required for data: 1147309344
I0403 19:35:42.108031 25220 layer_factory.hpp:77] Creating layer inception_4d/output
I0403 19:35:42.108050 25220 net.cpp:91] Creating Layer inception_4d/output
I0403 19:35:42.108067 25220 net.cpp:425] inception_4d/output <- inception_4d/1x1
I0403 19:35:42.108083 25220 net.cpp:425] inception_4d/output <- inception_4d/3x3
I0403 19:35:42.108098 25220 net.cpp:425] inception_4d/output <- inception_4d/5x5
I0403 19:35:42.108114 25220 net.cpp:425] inception_4d/output <- inception_4d/pool_proj
I0403 19:35:42.108129 25220 net.cpp:399] inception_4d/output -> inception_4d/output
I0403 19:35:42.108175 25220 net.cpp:141] Setting up inception_4d/output
I0403 19:35:42.108198 25220 net.cpp:148] Top shape: 24 528 14 14 (2483712)
I0403 19:35:42.108212 25220 net.cpp:156] Memory required for data: 1157244192
I0403 19:35:42.108225 25220 layer_factory.hpp:77] Creating layer inception_4d/output_inception_4d/output_0_split
I0403 19:35:42.108242 25220 net.cpp:91] Creating Layer inception_4d/output_inception_4d/output_0_split
I0403 19:35:42.108261 25220 net.cpp:425] inception_4d/output_inception_4d/output_0_split <- inception_4d/output
I0403 19:35:42.108283 25220 net.cpp:399] inception_4d/output_inception_4d/output_0_split -> inception_4d/output_inception_4d/output_0_split_0
I0403 19:35:42.108304 25220 net.cpp:399] inception_4d/output_inception_4d/output_0_split -> inception_4d/output_inception_4d/output_0_split_1
I0403 19:35:42.108324 25220 net.cpp:399] inception_4d/output_inception_4d/output_0_split -> inception_4d/output_inception_4d/output_0_split_2
I0403 19:35:42.108343 25220 net.cpp:399] inception_4d/output_inception_4d/output_0_split -> inception_4d/output_inception_4d/output_0_split_3
I0403 19:35:42.108363 25220 net.cpp:399] inception_4d/output_inception_4d/output_0_split -> inception_4d/output_inception_4d/output_0_split_4
I0403 19:35:42.108461 25220 net.cpp:141] Setting up inception_4d/output_inception_4d/output_0_split
I0403 19:35:42.108500 25220 net.cpp:148] Top shape: 24 528 14 14 (2483712)
I0403 19:35:42.108517 25220 net.cpp:148] Top shape: 24 528 14 14 (2483712)
I0403 19:35:42.108533 25220 net.cpp:148] Top shape: 24 528 14 14 (2483712)
I0403 19:35:42.108548 25220 net.cpp:148] Top shape: 24 528 14 14 (2483712)
I0403 19:35:42.108562 25220 net.cpp:148] Top shape: 24 528 14 14 (2483712)
I0403 19:35:42.108574 25220 net.cpp:156] Memory required for data: 1206918432
I0403 19:35:42.108587 25220 layer_factory.hpp:77] Creating layer loss2/ave_pool
I0403 19:35:42.108603 25220 net.cpp:91] Creating Layer loss2/ave_pool
I0403 19:35:42.108619 25220 net.cpp:425] loss2/ave_pool <- inception_4d/output_inception_4d/output_0_split_0
I0403 19:35:42.108639 25220 net.cpp:399] loss2/ave_pool -> loss2/ave_pool
I0403 19:35:42.108937 25220 net.cpp:141] Setting up loss2/ave_pool
I0403 19:35:42.108963 25220 net.cpp:148] Top shape: 24 528 4 4 (202752)
I0403 19:35:42.108978 25220 net.cpp:156] Memory required for data: 1207729440
I0403 19:35:42.108990 25220 layer_factory.hpp:77] Creating layer loss2/conv
I0403 19:35:42.109012 25220 net.cpp:91] Creating Layer loss2/conv
I0403 19:35:42.109030 25220 net.cpp:425] loss2/conv <- loss2/ave_pool
I0403 19:35:42.109050 25220 net.cpp:399] loss2/conv -> loss2/conv
I0403 19:35:42.110865 25220 net.cpp:141] Setting up loss2/conv
I0403 19:35:42.110893 25220 net.cpp:148] Top shape: 24 128 4 4 (49152)
I0403 19:35:42.110908 25220 net.cpp:156] Memory required for data: 1207926048
I0403 19:35:42.110924 25220 layer_factory.hpp:77] Creating layer loss2/relu_conv
I0403 19:35:42.110944 25220 net.cpp:91] Creating Layer loss2/relu_conv
I0403 19:35:42.110961 25220 net.cpp:425] loss2/relu_conv <- loss2/conv
I0403 19:35:42.110978 25220 net.cpp:386] loss2/relu_conv -> loss2/conv (in-place)
I0403 19:35:42.111245 25220 net.cpp:141] Setting up loss2/relu_conv
I0403 19:35:42.111275 25220 net.cpp:148] Top shape: 24 128 4 4 (49152)
I0403 19:35:42.111291 25220 net.cpp:156] Memory required for data: 1208122656
I0403 19:35:42.111305 25220 layer_factory.hpp:77] Creating layer loss2/fc
I0403 19:35:42.111328 25220 net.cpp:91] Creating Layer loss2/fc
I0403 19:35:42.111346 25220 net.cpp:425] loss2/fc <- loss2/conv
I0403 19:35:42.111362 25220 net.cpp:399] loss2/fc -> loss2/fc
I0403 19:35:42.128299 25220 net.cpp:141] Setting up loss2/fc
I0403 19:35:42.128335 25220 net.cpp:148] Top shape: 24 1024 (24576)
I0403 19:35:42.128350 25220 net.cpp:156] Memory required for data: 1208220960
I0403 19:35:42.128367 25220 layer_factory.hpp:77] Creating layer loss2/relu_fc
I0403 19:35:42.128384 25220 net.cpp:91] Creating Layer loss2/relu_fc
I0403 19:35:42.128401 25220 net.cpp:425] loss2/relu_fc <- loss2/fc
I0403 19:35:42.128419 25220 net.cpp:386] loss2/relu_fc -> loss2/fc (in-place)
I0403 19:35:42.128702 25220 net.cpp:141] Setting up loss2/relu_fc
I0403 19:35:42.128728 25220 net.cpp:148] Top shape: 24 1024 (24576)
I0403 19:35:42.128743 25220 net.cpp:156] Memory required for data: 1208319264
I0403 19:35:42.128757 25220 layer_factory.hpp:77] Creating layer loss2/drop_fc
I0403 19:35:42.128774 25220 net.cpp:91] Creating Layer loss2/drop_fc
I0403 19:35:42.128790 25220 net.cpp:425] loss2/drop_fc <- loss2/fc
I0403 19:35:42.128808 25220 net.cpp:386] loss2/drop_fc -> loss2/fc (in-place)
I0403 19:35:42.128855 25220 net.cpp:141] Setting up loss2/drop_fc
I0403 19:35:42.128881 25220 net.cpp:148] Top shape: 24 1024 (24576)
I0403 19:35:42.128897 25220 net.cpp:156] Memory required for data: 1208417568
I0403 19:35:42.128911 25220 layer_factory.hpp:77] Creating layer loss2/classifier_plantvillage
I0403 19:35:42.128928 25220 net.cpp:91] Creating Layer loss2/classifier_plantvillage
I0403 19:35:42.128943 25220 net.cpp:425] loss2/classifier_plantvillage <- loss2/fc
I0403 19:35:42.128963 25220 net.cpp:399] loss2/classifier_plantvillage -> loss2/classifier_plantvillage
I0403 19:35:42.129348 25220 net.cpp:141] Setting up loss2/classifier_plantvillage
I0403 19:35:42.129374 25220 net.cpp:148] Top shape: 24 38 (912)
I0403 19:35:42.129405 25220 net.cpp:156] Memory required for data: 1208421216
I0403 19:35:42.129423 25220 layer_factory.hpp:77] Creating layer loss2/classifier_plantvillage_loss2/classifier_plantvillage_0_split
I0403 19:35:42.129439 25220 net.cpp:91] Creating Layer loss2/classifier_plantvillage_loss2/classifier_plantvillage_0_split
I0403 19:35:42.129456 25220 net.cpp:425] loss2/classifier_plantvillage_loss2/classifier_plantvillage_0_split <- loss2/classifier_plantvillage
I0403 19:35:42.129472 25220 net.cpp:399] loss2/classifier_plantvillage_loss2/classifier_plantvillage_0_split -> loss2/classifier_plantvillage_loss2/classifier_plantvillage_0_split_0
I0403 19:35:42.129490 25220 net.cpp:399] loss2/classifier_plantvillage_loss2/classifier_plantvillage_0_split -> loss2/classifier_plantvillage_loss2/classifier_plantvillage_0_split_1
I0403 19:35:42.129513 25220 net.cpp:399] loss2/classifier_plantvillage_loss2/classifier_plantvillage_0_split -> loss2/classifier_plantvillage_loss2/classifier_plantvillage_0_split_2
I0403 19:35:42.129587 25220 net.cpp:141] Setting up loss2/classifier_plantvillage_loss2/classifier_plantvillage_0_split
I0403 19:35:42.129609 25220 net.cpp:148] Top shape: 24 38 (912)
I0403 19:35:42.129624 25220 net.cpp:148] Top shape: 24 38 (912)
I0403 19:35:42.129638 25220 net.cpp:148] Top shape: 24 38 (912)
I0403 19:35:42.129650 25220 net.cpp:156] Memory required for data: 1208432160
I0403 19:35:42.129664 25220 layer_factory.hpp:77] Creating layer inception_4e/1x1
I0403 19:35:42.129683 25220 net.cpp:91] Creating Layer inception_4e/1x1
I0403 19:35:42.129698 25220 net.cpp:425] inception_4e/1x1 <- inception_4d/output_inception_4d/output_0_split_1
I0403 19:35:42.129719 25220 net.cpp:399] inception_4e/1x1 -> inception_4e/1x1
I0403 19:35:42.131440 25220 net.cpp:141] Setting up inception_4e/1x1
I0403 19:35:42.131467 25220 net.cpp:148] Top shape: 24 256 14 14 (1204224)
I0403 19:35:42.131484 25220 net.cpp:156] Memory required for data: 1213249056
I0403 19:35:42.131500 25220 layer_factory.hpp:77] Creating layer inception_4e/relu_1x1
I0403 19:35:42.131520 25220 net.cpp:91] Creating Layer inception_4e/relu_1x1
I0403 19:35:42.131537 25220 net.cpp:425] inception_4e/relu_1x1 <- inception_4e/1x1
I0403 19:35:42.131554 25220 net.cpp:386] inception_4e/relu_1x1 -> inception_4e/1x1 (in-place)
I0403 19:35:42.131834 25220 net.cpp:141] Setting up inception_4e/relu_1x1
I0403 19:35:42.131860 25220 net.cpp:148] Top shape: 24 256 14 14 (1204224)
I0403 19:35:42.131875 25220 net.cpp:156] Memory required for data: 1218065952
I0403 19:35:42.131888 25220 layer_factory.hpp:77] Creating layer inception_4e/3x3_reduce
I0403 19:35:42.131911 25220 net.cpp:91] Creating Layer inception_4e/3x3_reduce
I0403 19:35:42.131928 25220 net.cpp:425] inception_4e/3x3_reduce <- inception_4d/output_inception_4d/output_0_split_2
I0403 19:35:42.131947 25220 net.cpp:399] inception_4e/3x3_reduce -> inception_4e/3x3_reduce
I0403 19:35:42.133993 25220 net.cpp:141] Setting up inception_4e/3x3_reduce
I0403 19:35:42.134021 25220 net.cpp:148] Top shape: 24 160 14 14 (752640)
I0403 19:35:42.134037 25220 net.cpp:156] Memory required for data: 1221076512
I0403 19:35:42.134054 25220 layer_factory.hpp:77] Creating layer inception_4e/relu_3x3_reduce
I0403 19:35:42.134074 25220 net.cpp:91] Creating Layer inception_4e/relu_3x3_reduce
I0403 19:35:42.134091 25220 net.cpp:425] inception_4e/relu_3x3_reduce <- inception_4e/3x3_reduce
I0403 19:35:42.134107 25220 net.cpp:386] inception_4e/relu_3x3_reduce -> inception_4e/3x3_reduce (in-place)
I0403 19:35:42.134296 25220 net.cpp:141] Setting up inception_4e/relu_3x3_reduce
I0403 19:35:42.134323 25220 net.cpp:148] Top shape: 24 160 14 14 (752640)
I0403 19:35:42.134340 25220 net.cpp:156] Memory required for data: 1224087072
I0403 19:35:42.134354 25220 layer_factory.hpp:77] Creating layer inception_4e/3x3
I0403 19:35:42.134374 25220 net.cpp:91] Creating Layer inception_4e/3x3
I0403 19:35:42.134392 25220 net.cpp:425] inception_4e/3x3 <- inception_4e/3x3_reduce
I0403 19:35:42.134410 25220 net.cpp:399] inception_4e/3x3 -> inception_4e/3x3
I0403 19:35:42.139199 25220 net.cpp:141] Setting up inception_4e/3x3
I0403 19:35:42.139253 25220 net.cpp:148] Top shape: 24 320 14 14 (1505280)
I0403 19:35:42.139279 25220 net.cpp:156] Memory required for data: 1230108192
I0403 19:35:42.139298 25220 layer_factory.hpp:77] Creating layer inception_4e/relu_3x3
I0403 19:35:42.139317 25220 net.cpp:91] Creating Layer inception_4e/relu_3x3
I0403 19:35:42.139334 25220 net.cpp:425] inception_4e/relu_3x3 <- inception_4e/3x3
I0403 19:35:42.139355 25220 net.cpp:386] inception_4e/relu_3x3 -> inception_4e/3x3 (in-place)
I0403 19:35:42.139654 25220 net.cpp:141] Setting up inception_4e/relu_3x3
I0403 19:35:42.139683 25220 net.cpp:148] Top shape: 24 320 14 14 (1505280)
I0403 19:35:42.139699 25220 net.cpp:156] Memory required for data: 1236129312
I0403 19:35:42.139714 25220 layer_factory.hpp:77] Creating layer inception_4e/5x5_reduce
I0403 19:35:42.139739 25220 net.cpp:91] Creating Layer inception_4e/5x5_reduce
I0403 19:35:42.139757 25220 net.cpp:425] inception_4e/5x5_reduce <- inception_4d/output_inception_4d/output_0_split_3
I0403 19:35:42.139775 25220 net.cpp:399] inception_4e/5x5_reduce -> inception_4e/5x5_reduce
I0403 19:35:42.140796 25220 net.cpp:141] Setting up inception_4e/5x5_reduce
I0403 19:35:42.140823 25220 net.cpp:148] Top shape: 24 32 14 14 (150528)
I0403 19:35:42.140838 25220 net.cpp:156] Memory required for data: 1236731424
I0403 19:35:42.140856 25220 layer_factory.hpp:77] Creating layer inception_4e/relu_5x5_reduce
I0403 19:35:42.140877 25220 net.cpp:91] Creating Layer inception_4e/relu_5x5_reduce
I0403 19:35:42.140894 25220 net.cpp:425] inception_4e/relu_5x5_reduce <- inception_4e/5x5_reduce
I0403 19:35:42.140911 25220 net.cpp:386] inception_4e/relu_5x5_reduce -> inception_4e/5x5_reduce (in-place)
I0403 19:35:42.141191 25220 net.cpp:141] Setting up inception_4e/relu_5x5_reduce
I0403 19:35:42.141216 25220 net.cpp:148] Top shape: 24 32 14 14 (150528)
I0403 19:35:42.141232 25220 net.cpp:156] Memory required for data: 1237333536
I0403 19:35:42.141247 25220 layer_factory.hpp:77] Creating layer inception_4e/5x5
I0403 19:35:42.141294 25220 net.cpp:91] Creating Layer inception_4e/5x5
I0403 19:35:42.141314 25220 net.cpp:425] inception_4e/5x5 <- inception_4e/5x5_reduce
I0403 19:35:42.141335 25220 net.cpp:399] inception_4e/5x5 -> inception_4e/5x5
I0403 19:35:42.143064 25220 net.cpp:141] Setting up inception_4e/5x5
I0403 19:35:42.143091 25220 net.cpp:148] Top shape: 24 128 14 14 (602112)
I0403 19:35:42.143107 25220 net.cpp:156] Memory required for data: 1239741984
I0403 19:35:42.143126 25220 layer_factory.hpp:77] Creating layer inception_4e/relu_5x5
I0403 19:35:42.143143 25220 net.cpp:91] Creating Layer inception_4e/relu_5x5
I0403 19:35:42.143159 25220 net.cpp:425] inception_4e/relu_5x5 <- inception_4e/5x5
I0403 19:35:42.143177 25220 net.cpp:386] inception_4e/relu_5x5 -> inception_4e/5x5 (in-place)
I0403 19:35:42.143370 25220 net.cpp:141] Setting up inception_4e/relu_5x5
I0403 19:35:42.143396 25220 net.cpp:148] Top shape: 24 128 14 14 (602112)
I0403 19:35:42.143412 25220 net.cpp:156] Memory required for data: 1242150432
I0403 19:35:42.143427 25220 layer_factory.hpp:77] Creating layer inception_4e/pool
I0403 19:35:42.143446 25220 net.cpp:91] Creating Layer inception_4e/pool
I0403 19:35:42.143465 25220 net.cpp:425] inception_4e/pool <- inception_4d/output_inception_4d/output_0_split_4
I0403 19:35:42.143481 25220 net.cpp:399] inception_4e/pool -> inception_4e/pool
I0403 19:35:42.143551 25220 net.cpp:141] Setting up inception_4e/pool
I0403 19:35:42.143575 25220 net.cpp:148] Top shape: 24 528 14 14 (2483712)
I0403 19:35:42.143589 25220 net.cpp:156] Memory required for data: 1252085280
I0403 19:35:42.143604 25220 layer_factory.hpp:77] Creating layer inception_4e/pool_proj
I0403 19:35:42.143625 25220 net.cpp:91] Creating Layer inception_4e/pool_proj
I0403 19:35:42.143641 25220 net.cpp:425] inception_4e/pool_proj <- inception_4e/pool
I0403 19:35:42.143662 25220 net.cpp:399] inception_4e/pool_proj -> inception_4e/pool_proj
I0403 19:35:42.145099 25220 net.cpp:141] Setting up inception_4e/pool_proj
I0403 19:35:42.145138 25220 net.cpp:148] Top shape: 24 128 14 14 (602112)
I0403 19:35:42.145153 25220 net.cpp:156] Memory required for data: 1254493728
I0403 19:35:42.145169 25220 layer_factory.hpp:77] Creating layer inception_4e/relu_pool_proj
I0403 19:35:42.145186 25220 net.cpp:91] Creating Layer inception_4e/relu_pool_proj
I0403 19:35:42.145201 25220 net.cpp:425] inception_4e/relu_pool_proj <- inception_4e/pool_proj
I0403 19:35:42.145220 25220 net.cpp:386] inception_4e/relu_pool_proj -> inception_4e/pool_proj (in-place)
I0403 19:35:42.145503 25220 net.cpp:141] Setting up inception_4e/relu_pool_proj
I0403 19:35:42.145527 25220 net.cpp:148] Top shape: 24 128 14 14 (602112)
I0403 19:35:42.145541 25220 net.cpp:156] Memory required for data: 1256902176
I0403 19:35:42.145555 25220 layer_factory.hpp:77] Creating layer inception_4e/output
I0403 19:35:42.145570 25220 net.cpp:91] Creating Layer inception_4e/output
I0403 19:35:42.145586 25220 net.cpp:425] inception_4e/output <- inception_4e/1x1
I0403 19:35:42.145601 25220 net.cpp:425] inception_4e/output <- inception_4e/3x3
I0403 19:35:42.145617 25220 net.cpp:425] inception_4e/output <- inception_4e/5x5
I0403 19:35:42.145630 25220 net.cpp:425] inception_4e/output <- inception_4e/pool_proj
I0403 19:35:42.145648 25220 net.cpp:399] inception_4e/output -> inception_4e/output
I0403 19:35:42.145695 25220 net.cpp:141] Setting up inception_4e/output
I0403 19:35:42.145720 25220 net.cpp:148] Top shape: 24 832 14 14 (3913728)
I0403 19:35:42.145735 25220 net.cpp:156] Memory required for data: 1272557088
I0403 19:35:42.145750 25220 layer_factory.hpp:77] Creating layer pool4/3x3_s2
I0403 19:35:42.145766 25220 net.cpp:91] Creating Layer pool4/3x3_s2
I0403 19:35:42.145781 25220 net.cpp:425] pool4/3x3_s2 <- inception_4e/output
I0403 19:35:42.145797 25220 net.cpp:399] pool4/3x3_s2 -> pool4/3x3_s2
I0403 19:35:42.145861 25220 net.cpp:141] Setting up pool4/3x3_s2
I0403 19:35:42.145884 25220 net.cpp:148] Top shape: 24 832 7 7 (978432)
I0403 19:35:42.145898 25220 net.cpp:156] Memory required for data: 1276470816
I0403 19:35:42.145910 25220 layer_factory.hpp:77] Creating layer pool4/3x3_s2_pool4/3x3_s2_0_split
I0403 19:35:42.145926 25220 net.cpp:91] Creating Layer pool4/3x3_s2_pool4/3x3_s2_0_split
I0403 19:35:42.145941 25220 net.cpp:425] pool4/3x3_s2_pool4/3x3_s2_0_split <- pool4/3x3_s2
I0403 19:35:42.145958 25220 net.cpp:399] pool4/3x3_s2_pool4/3x3_s2_0_split -> pool4/3x3_s2_pool4/3x3_s2_0_split_0
I0403 19:35:42.145978 25220 net.cpp:399] pool4/3x3_s2_pool4/3x3_s2_0_split -> pool4/3x3_s2_pool4/3x3_s2_0_split_1
I0403 19:35:42.145998 25220 net.cpp:399] pool4/3x3_s2_pool4/3x3_s2_0_split -> pool4/3x3_s2_pool4/3x3_s2_0_split_2
I0403 19:35:42.146018 25220 net.cpp:399] pool4/3x3_s2_pool4/3x3_s2_0_split -> pool4/3x3_s2_pool4/3x3_s2_0_split_3
I0403 19:35:42.146107 25220 net.cpp:141] Setting up pool4/3x3_s2_pool4/3x3_s2_0_split
I0403 19:35:42.146129 25220 net.cpp:148] Top shape: 24 832 7 7 (978432)
I0403 19:35:42.146144 25220 net.cpp:148] Top shape: 24 832 7 7 (978432)
I0403 19:35:42.146158 25220 net.cpp:148] Top shape: 24 832 7 7 (978432)
I0403 19:35:42.146173 25220 net.cpp:148] Top shape: 24 832 7 7 (978432)
I0403 19:35:42.146184 25220 net.cpp:156] Memory required for data: 1292125728
I0403 19:35:42.146198 25220 layer_factory.hpp:77] Creating layer inception_5a/1x1
I0403 19:35:42.146219 25220 net.cpp:91] Creating Layer inception_5a/1x1
I0403 19:35:42.146234 25220 net.cpp:425] inception_5a/1x1 <- pool4/3x3_s2_pool4/3x3_s2_0_split_0
I0403 19:35:42.146253 25220 net.cpp:399] inception_5a/1x1 -> inception_5a/1x1
I0403 19:35:42.148977 25220 net.cpp:141] Setting up inception_5a/1x1
I0403 19:35:42.149006 25220 net.cpp:148] Top shape: 24 256 7 7 (301056)
I0403 19:35:42.149021 25220 net.cpp:156] Memory required for data: 1293329952
I0403 19:35:42.149039 25220 layer_factory.hpp:77] Creating layer inception_5a/relu_1x1
I0403 19:35:42.149058 25220 net.cpp:91] Creating Layer inception_5a/relu_1x1
I0403 19:35:42.149075 25220 net.cpp:425] inception_5a/relu_1x1 <- inception_5a/1x1
I0403 19:35:42.149091 25220 net.cpp:386] inception_5a/relu_1x1 -> inception_5a/1x1 (in-place)
I0403 19:35:42.149411 25220 net.cpp:141] Setting up inception_5a/relu_1x1
I0403 19:35:42.149436 25220 net.cpp:148] Top shape: 24 256 7 7 (301056)
I0403 19:35:42.149451 25220 net.cpp:156] Memory required for data: 1294534176
I0403 19:35:42.149463 25220 layer_factory.hpp:77] Creating layer inception_5a/3x3_reduce
I0403 19:35:42.149483 25220 net.cpp:91] Creating Layer inception_5a/3x3_reduce
I0403 19:35:42.149500 25220 net.cpp:425] inception_5a/3x3_reduce <- pool4/3x3_s2_pool4/3x3_s2_0_split_1
I0403 19:35:42.149521 25220 net.cpp:399] inception_5a/3x3_reduce -> inception_5a/3x3_reduce
I0403 19:35:42.151851 25220 net.cpp:141] Setting up inception_5a/3x3_reduce
I0403 19:35:42.151881 25220 net.cpp:148] Top shape: 24 160 7 7 (188160)
I0403 19:35:42.151895 25220 net.cpp:156] Memory required for data: 1295286816
I0403 19:35:42.151912 25220 layer_factory.hpp:77] Creating layer inception_5a/relu_3x3_reduce
I0403 19:35:42.151929 25220 net.cpp:91] Creating Layer inception_5a/relu_3x3_reduce
I0403 19:35:42.151945 25220 net.cpp:425] inception_5a/relu_3x3_reduce <- inception_5a/3x3_reduce
I0403 19:35:42.151964 25220 net.cpp:386] inception_5a/relu_3x3_reduce -> inception_5a/3x3_reduce (in-place)
I0403 19:35:42.152145 25220 net.cpp:141] Setting up inception_5a/relu_3x3_reduce
I0403 19:35:42.152168 25220 net.cpp:148] Top shape: 24 160 7 7 (188160)
I0403 19:35:42.152182 25220 net.cpp:156] Memory required for data: 1296039456
I0403 19:35:42.152195 25220 layer_factory.hpp:77] Creating layer inception_5a/3x3
I0403 19:35:42.152217 25220 net.cpp:91] Creating Layer inception_5a/3x3
I0403 19:35:42.152233 25220 net.cpp:425] inception_5a/3x3 <- inception_5a/3x3_reduce
I0403 19:35:42.152252 25220 net.cpp:399] inception_5a/3x3 -> inception_5a/3x3
I0403 19:35:42.157019 25220 net.cpp:141] Setting up inception_5a/3x3
I0403 19:35:42.157048 25220 net.cpp:148] Top shape: 24 320 7 7 (376320)
I0403 19:35:42.157063 25220 net.cpp:156] Memory required for data: 1297544736
I0403 19:35:42.157079 25220 layer_factory.hpp:77] Creating layer inception_5a/relu_3x3
I0403 19:35:42.157099 25220 net.cpp:91] Creating Layer inception_5a/relu_3x3
I0403 19:35:42.157115 25220 net.cpp:425] inception_5a/relu_3x3 <- inception_5a/3x3
I0403 19:35:42.157131 25220 net.cpp:386] inception_5a/relu_3x3 -> inception_5a/3x3 (in-place)
I0403 19:35:42.157413 25220 net.cpp:141] Setting up inception_5a/relu_3x3
I0403 19:35:42.157438 25220 net.cpp:148] Top shape: 24 320 7 7 (376320)
I0403 19:35:42.157451 25220 net.cpp:156] Memory required for data: 1299050016
I0403 19:35:42.157465 25220 layer_factory.hpp:77] Creating layer inception_5a/5x5_reduce
I0403 19:35:42.157488 25220 net.cpp:91] Creating Layer inception_5a/5x5_reduce
I0403 19:35:42.157505 25220 net.cpp:425] inception_5a/5x5_reduce <- pool4/3x3_s2_pool4/3x3_s2_0_split_2
I0403 19:35:42.157526 25220 net.cpp:399] inception_5a/5x5_reduce -> inception_5a/5x5_reduce
I0403 19:35:42.158639 25220 net.cpp:141] Setting up inception_5a/5x5_reduce
I0403 19:35:42.158668 25220 net.cpp:148] Top shape: 24 32 7 7 (37632)
I0403 19:35:42.158684 25220 net.cpp:156] Memory required for data: 1299200544
I0403 19:35:42.158701 25220 layer_factory.hpp:77] Creating layer inception_5a/relu_5x5_reduce
I0403 19:35:42.158718 25220 net.cpp:91] Creating Layer inception_5a/relu_5x5_reduce
I0403 19:35:42.158735 25220 net.cpp:425] inception_5a/relu_5x5_reduce <- inception_5a/5x5_reduce
I0403 19:35:42.158751 25220 net.cpp:386] inception_5a/relu_5x5_reduce -> inception_5a/5x5_reduce (in-place)
I0403 19:35:42.159032 25220 net.cpp:141] Setting up inception_5a/relu_5x5_reduce
I0403 19:35:42.159056 25220 net.cpp:148] Top shape: 24 32 7 7 (37632)
I0403 19:35:42.159071 25220 net.cpp:156] Memory required for data: 1299351072
I0403 19:35:42.159085 25220 layer_factory.hpp:77] Creating layer inception_5a/5x5
I0403 19:35:42.159106 25220 net.cpp:91] Creating Layer inception_5a/5x5
I0403 19:35:42.159122 25220 net.cpp:425] inception_5a/5x5 <- inception_5a/5x5_reduce
I0403 19:35:42.159142 25220 net.cpp:399] inception_5a/5x5 -> inception_5a/5x5
I0403 19:35:42.160785 25220 net.cpp:141] Setting up inception_5a/5x5
I0403 19:35:42.160822 25220 net.cpp:148] Top shape: 24 128 7 7 (150528)
I0403 19:35:42.160837 25220 net.cpp:156] Memory required for data: 1299953184
I0403 19:35:42.160853 25220 layer_factory.hpp:77] Creating layer inception_5a/relu_5x5
I0403 19:35:42.160872 25220 net.cpp:91] Creating Layer inception_5a/relu_5x5
I0403 19:35:42.160889 25220 net.cpp:425] inception_5a/relu_5x5 <- inception_5a/5x5
I0403 19:35:42.160905 25220 net.cpp:386] inception_5a/relu_5x5 -> inception_5a/5x5 (in-place)
I0403 19:35:42.161085 25220 net.cpp:141] Setting up inception_5a/relu_5x5
I0403 19:35:42.161108 25220 net.cpp:148] Top shape: 24 128 7 7 (150528)
I0403 19:35:42.161125 25220 net.cpp:156] Memory required for data: 1300555296
I0403 19:35:42.161139 25220 layer_factory.hpp:77] Creating layer inception_5a/pool
I0403 19:35:42.161154 25220 net.cpp:91] Creating Layer inception_5a/pool
I0403 19:35:42.161170 25220 net.cpp:425] inception_5a/pool <- pool4/3x3_s2_pool4/3x3_s2_0_split_3
I0403 19:35:42.161187 25220 net.cpp:399] inception_5a/pool -> inception_5a/pool
I0403 19:35:42.161262 25220 net.cpp:141] Setting up inception_5a/pool
I0403 19:35:42.161285 25220 net.cpp:148] Top shape: 24 832 7 7 (978432)
I0403 19:35:42.161299 25220 net.cpp:156] Memory required for data: 1304469024
I0403 19:35:42.161312 25220 layer_factory.hpp:77] Creating layer inception_5a/pool_proj
I0403 19:35:42.161332 25220 net.cpp:91] Creating Layer inception_5a/pool_proj
I0403 19:35:42.161350 25220 net.cpp:425] inception_5a/pool_proj <- inception_5a/pool
I0403 19:35:42.161368 25220 net.cpp:399] inception_5a/pool_proj -> inception_5a/pool_proj
I0403 19:35:42.163558 25220 net.cpp:141] Setting up inception_5a/pool_proj
I0403 19:35:42.163588 25220 net.cpp:148] Top shape: 24 128 7 7 (150528)
I0403 19:35:42.163602 25220 net.cpp:156] Memory required for data: 1305071136
I0403 19:35:42.163620 25220 layer_factory.hpp:77] Creating layer inception_5a/relu_pool_proj
I0403 19:35:42.163637 25220 net.cpp:91] Creating Layer inception_5a/relu_pool_proj
I0403 19:35:42.163657 25220 net.cpp:425] inception_5a/relu_pool_proj <- inception_5a/pool_proj
I0403 19:35:42.163676 25220 net.cpp:386] inception_5a/relu_pool_proj -> inception_5a/pool_proj (in-place)
I0403 19:35:42.163959 25220 net.cpp:141] Setting up inception_5a/relu_pool_proj
I0403 19:35:42.163983 25220 net.cpp:148] Top shape: 24 128 7 7 (150528)
I0403 19:35:42.163997 25220 net.cpp:156] Memory required for data: 1305673248
I0403 19:35:42.164011 25220 layer_factory.hpp:77] Creating layer inception_5a/output
I0403 19:35:42.164028 25220 net.cpp:91] Creating Layer inception_5a/output
I0403 19:35:42.164042 25220 net.cpp:425] inception_5a/output <- inception_5a/1x1
I0403 19:35:42.164057 25220 net.cpp:425] inception_5a/output <- inception_5a/3x3
I0403 19:35:42.164072 25220 net.cpp:425] inception_5a/output <- inception_5a/5x5
I0403 19:35:42.164088 25220 net.cpp:425] inception_5a/output <- inception_5a/pool_proj
I0403 19:35:42.164105 25220 net.cpp:399] inception_5a/output -> inception_5a/output
I0403 19:35:42.164154 25220 net.cpp:141] Setting up inception_5a/output
I0403 19:35:42.164178 25220 net.cpp:148] Top shape: 24 832 7 7 (978432)
I0403 19:35:42.164193 25220 net.cpp:156] Memory required for data: 1309586976
I0403 19:35:42.164207 25220 layer_factory.hpp:77] Creating layer inception_5a/output_inception_5a/output_0_split
I0403 19:35:42.164223 25220 net.cpp:91] Creating Layer inception_5a/output_inception_5a/output_0_split
I0403 19:35:42.164237 25220 net.cpp:425] inception_5a/output_inception_5a/output_0_split <- inception_5a/output
I0403 19:35:42.164263 25220 net.cpp:399] inception_5a/output_inception_5a/output_0_split -> inception_5a/output_inception_5a/output_0_split_0
I0403 19:35:42.164291 25220 net.cpp:399] inception_5a/output_inception_5a/output_0_split -> inception_5a/output_inception_5a/output_0_split_1
I0403 19:35:42.164311 25220 net.cpp:399] inception_5a/output_inception_5a/output_0_split -> inception_5a/output_inception_5a/output_0_split_2
I0403 19:35:42.164331 25220 net.cpp:399] inception_5a/output_inception_5a/output_0_split -> inception_5a/output_inception_5a/output_0_split_3
I0403 19:35:42.164438 25220 net.cpp:141] Setting up inception_5a/output_inception_5a/output_0_split
I0403 19:35:42.164460 25220 net.cpp:148] Top shape: 24 832 7 7 (978432)
I0403 19:35:42.164476 25220 net.cpp:148] Top shape: 24 832 7 7 (978432)
I0403 19:35:42.164490 25220 net.cpp:148] Top shape: 24 832 7 7 (978432)
I0403 19:35:42.164505 25220 net.cpp:148] Top shape: 24 832 7 7 (978432)
I0403 19:35:42.164516 25220 net.cpp:156] Memory required for data: 1325241888
I0403 19:35:42.164530 25220 layer_factory.hpp:77] Creating layer inception_5b/1x1
I0403 19:35:42.164551 25220 net.cpp:91] Creating Layer inception_5b/1x1
I0403 19:35:42.164568 25220 net.cpp:425] inception_5b/1x1 <- inception_5a/output_inception_5a/output_0_split_0
I0403 19:35:42.164589 25220 net.cpp:399] inception_5b/1x1 -> inception_5b/1x1
I0403 19:35:42.168298 25220 net.cpp:141] Setting up inception_5b/1x1
I0403 19:35:42.168328 25220 net.cpp:148] Top shape: 24 384 7 7 (451584)
I0403 19:35:42.168344 25220 net.cpp:156] Memory required for data: 1327048224
I0403 19:35:42.168360 25220 layer_factory.hpp:77] Creating layer inception_5b/relu_1x1
I0403 19:35:42.168377 25220 net.cpp:91] Creating Layer inception_5b/relu_1x1
I0403 19:35:42.168395 25220 net.cpp:425] inception_5b/relu_1x1 <- inception_5b/1x1
I0403 19:35:42.168413 25220 net.cpp:386] inception_5b/relu_1x1 -> inception_5b/1x1 (in-place)
I0403 19:35:42.168701 25220 net.cpp:141] Setting up inception_5b/relu_1x1
I0403 19:35:42.168726 25220 net.cpp:148] Top shape: 24 384 7 7 (451584)
I0403 19:35:42.168740 25220 net.cpp:156] Memory required for data: 1328854560
I0403 19:35:42.168754 25220 layer_factory.hpp:77] Creating layer inception_5b/3x3_reduce
I0403 19:35:42.168776 25220 net.cpp:91] Creating Layer inception_5b/3x3_reduce
I0403 19:35:42.168793 25220 net.cpp:425] inception_5b/3x3_reduce <- inception_5a/output_inception_5a/output_0_split_1
I0403 19:35:42.168814 25220 net.cpp:399] inception_5b/3x3_reduce -> inception_5b/3x3_reduce
I0403 19:35:42.171437 25220 net.cpp:141] Setting up inception_5b/3x3_reduce
I0403 19:35:42.171468 25220 net.cpp:148] Top shape: 24 192 7 7 (225792)
I0403 19:35:42.171483 25220 net.cpp:156] Memory required for data: 1329757728
I0403 19:35:42.171501 25220 layer_factory.hpp:77] Creating layer inception_5b/relu_3x3_reduce
I0403 19:35:42.171519 25220 net.cpp:91] Creating Layer inception_5b/relu_3x3_reduce
I0403 19:35:42.171535 25220 net.cpp:425] inception_5b/relu_3x3_reduce <- inception_5b/3x3_reduce
I0403 19:35:42.171552 25220 net.cpp:386] inception_5b/relu_3x3_reduce -> inception_5b/3x3_reduce (in-place)
I0403 19:35:42.171733 25220 net.cpp:141] Setting up inception_5b/relu_3x3_reduce
I0403 19:35:42.171758 25220 net.cpp:148] Top shape: 24 192 7 7 (225792)
I0403 19:35:42.171772 25220 net.cpp:156] Memory required for data: 1330660896
I0403 19:35:42.171787 25220 layer_factory.hpp:77] Creating layer inception_5b/3x3
I0403 19:35:42.171808 25220 net.cpp:91] Creating Layer inception_5b/3x3
I0403 19:35:42.171824 25220 net.cpp:425] inception_5b/3x3 <- inception_5b/3x3_reduce
I0403 19:35:42.171845 25220 net.cpp:399] inception_5b/3x3 -> inception_5b/3x3
I0403 19:35:42.178340 25220 net.cpp:141] Setting up inception_5b/3x3
I0403 19:35:42.178367 25220 net.cpp:148] Top shape: 24 384 7 7 (451584)
I0403 19:35:42.178395 25220 net.cpp:156] Memory required for data: 1332467232
I0403 19:35:42.178412 25220 layer_factory.hpp:77] Creating layer inception_5b/relu_3x3
I0403 19:35:42.178431 25220 net.cpp:91] Creating Layer inception_5b/relu_3x3
I0403 19:35:42.178450 25220 net.cpp:425] inception_5b/relu_3x3 <- inception_5b/3x3
I0403 19:35:42.178468 25220 net.cpp:386] inception_5b/relu_3x3 -> inception_5b/3x3 (in-place)
I0403 19:35:42.178767 25220 net.cpp:141] Setting up inception_5b/relu_3x3
I0403 19:35:42.178792 25220 net.cpp:148] Top shape: 24 384 7 7 (451584)
I0403 19:35:42.178807 25220 net.cpp:156] Memory required for data: 1334273568
I0403 19:35:42.178820 25220 layer_factory.hpp:77] Creating layer inception_5b/5x5_reduce
I0403 19:35:42.178858 25220 net.cpp:91] Creating Layer inception_5b/5x5_reduce
I0403 19:35:42.178875 25220 net.cpp:425] inception_5b/5x5_reduce <- inception_5a/output_inception_5a/output_0_split_2
I0403 19:35:42.178899 25220 net.cpp:399] inception_5b/5x5_reduce -> inception_5b/5x5_reduce
I0403 19:35:42.180116 25220 net.cpp:141] Setting up inception_5b/5x5_reduce
I0403 19:35:42.180143 25220 net.cpp:148] Top shape: 24 48 7 7 (56448)
I0403 19:35:42.180158 25220 net.cpp:156] Memory required for data: 1334499360
I0403 19:35:42.180176 25220 layer_factory.hpp:77] Creating layer inception_5b/relu_5x5_reduce
I0403 19:35:42.180192 25220 net.cpp:91] Creating Layer inception_5b/relu_5x5_reduce
I0403 19:35:42.180207 25220 net.cpp:425] inception_5b/relu_5x5_reduce <- inception_5b/5x5_reduce
I0403 19:35:42.180227 25220 net.cpp:386] inception_5b/relu_5x5_reduce -> inception_5b/5x5_reduce (in-place)
I0403 19:35:42.180596 25220 net.cpp:141] Setting up inception_5b/relu_5x5_reduce
I0403 19:35:42.180622 25220 net.cpp:148] Top shape: 24 48 7 7 (56448)
I0403 19:35:42.180637 25220 net.cpp:156] Memory required for data: 1334725152
I0403 19:35:42.180650 25220 layer_factory.hpp:77] Creating layer inception_5b/5x5
I0403 19:35:42.180670 25220 net.cpp:91] Creating Layer inception_5b/5x5
I0403 19:35:42.180686 25220 net.cpp:425] inception_5b/5x5 <- inception_5b/5x5_reduce
I0403 19:35:42.180704 25220 net.cpp:399] inception_5b/5x5 -> inception_5b/5x5
I0403 19:35:42.182662 25220 net.cpp:141] Setting up inception_5b/5x5
I0403 19:35:42.182689 25220 net.cpp:148] Top shape: 24 128 7 7 (150528)
I0403 19:35:42.182705 25220 net.cpp:156] Memory required for data: 1335327264
I0403 19:35:42.182723 25220 layer_factory.hpp:77] Creating layer inception_5b/relu_5x5
I0403 19:35:42.182742 25220 net.cpp:91] Creating Layer inception_5b/relu_5x5
I0403 19:35:42.182760 25220 net.cpp:425] inception_5b/relu_5x5 <- inception_5b/5x5
I0403 19:35:42.182776 25220 net.cpp:386] inception_5b/relu_5x5 -> inception_5b/5x5 (in-place)
I0403 19:35:42.182961 25220 net.cpp:141] Setting up inception_5b/relu_5x5
I0403 19:35:42.182986 25220 net.cpp:148] Top shape: 24 128 7 7 (150528)
I0403 19:35:42.182999 25220 net.cpp:156] Memory required for data: 1335929376
I0403 19:35:42.183014 25220 layer_factory.hpp:77] Creating layer inception_5b/pool
I0403 19:35:42.183033 25220 net.cpp:91] Creating Layer inception_5b/pool
I0403 19:35:42.183050 25220 net.cpp:425] inception_5b/pool <- inception_5a/output_inception_5a/output_0_split_3
I0403 19:35:42.183068 25220 net.cpp:399] inception_5b/pool -> inception_5b/pool
I0403 19:35:42.183141 25220 net.cpp:141] Setting up inception_5b/pool
I0403 19:35:42.183164 25220 net.cpp:148] Top shape: 24 832 7 7 (978432)
I0403 19:35:42.183178 25220 net.cpp:156] Memory required for data: 1339843104
I0403 19:35:42.183192 25220 layer_factory.hpp:77] Creating layer inception_5b/pool_proj
I0403 19:35:42.183212 25220 net.cpp:91] Creating Layer inception_5b/pool_proj
I0403 19:35:42.183229 25220 net.cpp:425] inception_5b/pool_proj <- inception_5b/pool
I0403 19:35:42.183249 25220 net.cpp:399] inception_5b/pool_proj -> inception_5b/pool_proj
I0403 19:35:42.185621 25220 net.cpp:141] Setting up inception_5b/pool_proj
I0403 19:35:42.185649 25220 net.cpp:148] Top shape: 24 128 7 7 (150528)
I0403 19:35:42.185664 25220 net.cpp:156] Memory required for data: 1340445216
I0403 19:35:42.185683 25220 layer_factory.hpp:77] Creating layer inception_5b/relu_pool_proj
I0403 19:35:42.185700 25220 net.cpp:91] Creating Layer inception_5b/relu_pool_proj
I0403 19:35:42.185715 25220 net.cpp:425] inception_5b/relu_pool_proj <- inception_5b/pool_proj
I0403 19:35:42.185734 25220 net.cpp:386] inception_5b/relu_pool_proj -> inception_5b/pool_proj (in-place)
I0403 19:35:42.186019 25220 net.cpp:141] Setting up inception_5b/relu_pool_proj
I0403 19:35:42.186044 25220 net.cpp:148] Top shape: 24 128 7 7 (150528)
I0403 19:35:42.186059 25220 net.cpp:156] Memory required for data: 1341047328
I0403 19:35:42.186074 25220 layer_factory.hpp:77] Creating layer inception_5b/output
I0403 19:35:42.186089 25220 net.cpp:91] Creating Layer inception_5b/output
I0403 19:35:42.186120 25220 net.cpp:425] inception_5b/output <- inception_5b/1x1
I0403 19:35:42.186136 25220 net.cpp:425] inception_5b/output <- inception_5b/3x3
I0403 19:35:42.186152 25220 net.cpp:425] inception_5b/output <- inception_5b/5x5
I0403 19:35:42.186168 25220 net.cpp:425] inception_5b/output <- inception_5b/pool_proj
I0403 19:35:42.186188 25220 net.cpp:399] inception_5b/output -> inception_5b/output
I0403 19:35:42.186239 25220 net.cpp:141] Setting up inception_5b/output
I0403 19:35:42.186271 25220 net.cpp:148] Top shape: 24 1024 7 7 (1204224)
I0403 19:35:42.186288 25220 net.cpp:156] Memory required for data: 1345864224
I0403 19:35:42.186326 25220 layer_factory.hpp:77] Creating layer pool5/7x7_s1
I0403 19:35:42.186342 25220 net.cpp:91] Creating Layer pool5/7x7_s1
I0403 19:35:42.186370 25220 net.cpp:425] pool5/7x7_s1 <- inception_5b/output
I0403 19:35:42.186390 25220 net.cpp:399] pool5/7x7_s1 -> pool5/7x7_s1
I0403 19:35:42.186628 25220 net.cpp:141] Setting up pool5/7x7_s1
I0403 19:35:42.186667 25220 net.cpp:148] Top shape: 24 1024 1 1 (24576)
I0403 19:35:42.186682 25220 net.cpp:156] Memory required for data: 1345962528
I0403 19:35:42.186697 25220 layer_factory.hpp:77] Creating layer pool5/drop_7x7_s1
I0403 19:35:42.186714 25220 net.cpp:91] Creating Layer pool5/drop_7x7_s1
I0403 19:35:42.186730 25220 net.cpp:425] pool5/drop_7x7_s1 <- pool5/7x7_s1
I0403 19:35:42.186748 25220 net.cpp:386] pool5/drop_7x7_s1 -> pool5/7x7_s1 (in-place)
I0403 19:35:42.186800 25220 net.cpp:141] Setting up pool5/drop_7x7_s1
I0403 19:35:42.186836 25220 net.cpp:148] Top shape: 24 1024 1 1 (24576)
I0403 19:35:42.186851 25220 net.cpp:156] Memory required for data: 1346060832
I0403 19:35:42.186866 25220 layer_factory.hpp:77] Creating layer loss3/classifier_plantvillage
I0403 19:35:42.186883 25220 net.cpp:91] Creating Layer loss3/classifier_plantvillage
I0403 19:35:42.186899 25220 net.cpp:425] loss3/classifier_plantvillage <- pool5/7x7_s1
I0403 19:35:42.186919 25220 net.cpp:399] loss3/classifier_plantvillage -> loss3/classifier_plantvillage
I0403 19:35:42.187355 25220 net.cpp:141] Setting up loss3/classifier_plantvillage
I0403 19:35:42.187381 25220 net.cpp:148] Top shape: 24 38 (912)
I0403 19:35:42.187394 25220 net.cpp:156] Memory required for data: 1346064480
I0403 19:35:42.187413 25220 layer_factory.hpp:77] Creating layer loss3/classifier_plantvillage_loss3/classifier_plantvillage_0_split
I0403 19:35:42.187433 25220 net.cpp:91] Creating Layer loss3/classifier_plantvillage_loss3/classifier_plantvillage_0_split
I0403 19:35:42.187450 25220 net.cpp:425] loss3/classifier_plantvillage_loss3/classifier_plantvillage_0_split <- loss3/classifier_plantvillage
I0403 19:35:42.187469 25220 net.cpp:399] loss3/classifier_plantvillage_loss3/classifier_plantvillage_0_split -> loss3/classifier_plantvillage_loss3/classifier_plantvillage_0_split_0
I0403 19:35:42.187489 25220 net.cpp:399] loss3/classifier_plantvillage_loss3/classifier_plantvillage_0_split -> loss3/classifier_plantvillage_loss3/classifier_plantvillage_0_split_1
I0403 19:35:42.187510 25220 net.cpp:399] loss3/classifier_plantvillage_loss3/classifier_plantvillage_0_split -> loss3/classifier_plantvillage_loss3/classifier_plantvillage_0_split_2
I0403 19:35:42.187531 25220 net.cpp:399] loss3/classifier_plantvillage_loss3/classifier_plantvillage_0_split -> loss3/classifier_plantvillage_loss3/classifier_plantvillage_0_split_3
I0403 19:35:42.187628 25220 net.cpp:141] Setting up loss3/classifier_plantvillage_loss3/classifier_plantvillage_0_split
I0403 19:35:42.187650 25220 net.cpp:148] Top shape: 24 38 (912)
I0403 19:35:42.187666 25220 net.cpp:148] Top shape: 24 38 (912)
I0403 19:35:42.187680 25220 net.cpp:148] Top shape: 24 38 (912)
I0403 19:35:42.187695 25220 net.cpp:148] Top shape: 24 38 (912)
I0403 19:35:42.187708 25220 net.cpp:156] Memory required for data: 1346079072
I0403 19:35:42.187722 25220 layer_factory.hpp:77] Creating layer loss1/loss
I0403 19:35:42.187744 25220 net.cpp:91] Creating Layer loss1/loss
I0403 19:35:42.187762 25220 net.cpp:425] loss1/loss <- loss1/classifier_plantvillage_loss1/classifier_plantvillage_0_split_0
I0403 19:35:42.187791 25220 net.cpp:425] loss1/loss <- label_data_1_split_0
…
