…
I0403 19:41:29.064465 25567 net.cpp:313] The NetState phase (1) differed from the phase (0) specified by a rule in layer data
I0403 19:41:29.065832 25567 net.cpp:49] Initializing net from parameters: 
state {
  phase: TEST
}
layer {
  name: "data"
  type: "Data"
  top: "data"
  top: "label"
  include {
    phase: TEST
  }
  transform_param {
    mirror: false
    crop_size: 224
    mean_file: "/home/mohanty/data/final_dataset/lmdb/grayscale-80-20/mean.binaryproto"
  }
  data_param {
    source: "/home/mohanty/data/final_dataset/lmdb/grayscale-80-20/test_db"
    batch_size: 24
    backend: LMDB
  }
}
layer {
  name: "conv1/7x7_s2"
  type: "Convolution"
  bottom: "data"
  top: "conv1/7x7_s2"
  param {
    lr_mult: 1
    decay_mult: 1
  }
  param {
    lr_mult: 2
    decay_mult: 0
  }
  convolution_param {
    num_output: 64
    pad: 3
    kernel_size: 7
    stride: 2
    weight_filler {
      type: "xavier"
      std: 0.1
    }
    bias_filler {
      type: "constant"
      value: 0.2
    }
  }
}
layer {
  name: "conv1/relu_7x7"
  type: "ReLU"
  bottom: "conv1/7x7_s2"
  top: "conv1/7x7_s2"
}
layer {
  name: "pool1/3x3_s2"
  type: "Pooling"
  bottom: "conv1/7x7_s2"
  top: "pool1/3x3_s2"
  pooling_param {
    pool: MAX
    kernel_size: 3
    stride: 2
  }
}
layer {
  name: "pool1/norm1"
  type: "LRN"
  bottom: "pool1/3x3_s2"
  top: "pool1/norm1"
  lrn_param {
    local_size: 5
    alpha: 0.0001
    beta: 0.75
  }
}
layer {
  name: "conv2/3x3_reduce"
  type: "Convolution"
  bottom: "pool1/norm1"
  top: "conv2/3x3_reduce"
  param {
    lr_mult: 1
    decay_mult: 1
  }
  param {
    lr_mult: 2
    decay_mult: 0
  }
  convolution_param {
    num_output: 64
    kernel_size: 1
    weight_filler {
      type: "xavier"
      std: 0.1
    }
    bias_filler {
      type: "constant"
      value: 0.2
    }
  }
}
layer {
  name: "conv2/relu_3x3_reduce"
  type: "ReLU"
  bottom: "conv2/3x3_reduce"
  top: "conv2/3x3_reduce"
}
layer {
  name: "conv2/3x3"
  type: "Convolution"
  bottom: "conv2/3x3_reduce"
  top: "conv2/3x3"
  param {
    lr_mult: 1
    decay_mult: 1
  }
  param {
    lr_mult: 2
    decay_mult: 0
  }
  convolution_param {
    num_output: 192
    pad: 1
    kernel_size: 3
    weight_filler {
      type: "xavier"
      std: 0.03
    }
    bias_filler {
      type: "constant"
      value: 0.2
    }
  }
}
layer {
  name: "conv2/relu_3x3"
  type: "ReLU"
  bottom: "conv2/3x3"
  top: "conv2/3x3"
}
layer {
  name: "conv2/norm2"
  type: "LRN"
  bottom: "conv2/3x3"
  top: "conv2/norm2"
  lrn_param {
    local_size: 5
    alpha: 0.0001
    beta: 0.75
  }
}
layer {
  name: "pool2/3x3_s2"
  type: "Pooling"
  bottom: "conv2/norm2"
  top: "pool2/3x3_s2"
  pooling_param {
    pool: MAX
    kernel_size: 3
    stride: 2
  }
}
layer {
  name: "inception_3a/1x1"
  type: "Convolution"
  bottom: "pool2/3x3_s2"
  top: "inception_3a/1x1"
  param {
    lr_mult: 1
    decay_mult: 1
  }
  param {
    lr_mult: 2
    decay_mult: 0
  }
  convolution_param {
    num_output: 64
    kernel_size: 1
    weight_filler {
      type: "xavier"
      std: 0.03
    }
    bias_filler {
      type: "constant"
      value: 0.2
    }
  }
}
layer {
  name: "inception_3a/relu_1x1"
  type: "ReLU"
  bottom: "inception_3a/1x1"
  top: "inception_3a/1x1"
}
layer {
  name: "inception_3a/3x3_reduce"
  type: "Convolution"
  bottom: "pool2/3x3_s2"
  top: "inception_3a/3x3_reduce"
  param {
    lr_mult: 1
    decay_mult: 1
  }
  param {
    lr_mult: 2
    decay_mult: 0
  }
  convolution_param {
    num_output: 96
    kernel_size: 1
    weight_filler {
      type: "xavier"
      std: 0.09
    }
    bias_filler {
      type: "constant"
      value: 0.2
    }
  }
}
layer {
  name: "inception_3a/relu_3x3_reduce"
  type: "ReLU"
  bottom: "inception_3a/3x3_reduce"
  top: "inception_3a/3x3_reduce"
}
layer {
  name: "inception_3a/3x3"
  type: "Convolution"
  bottom: "inception_3a/3x3_reduce"
  top: "inception_3a/3x3"
  param {
    lr_mult: 1
    decay_mult: 1
  }
  param {
    lr_mult: 2
    decay_mult: 0
  }
  convolution_param {
    num_output: 128
    pad: 1
    kernel_size: 3
    weight_filler {
      type: "xavier"
      std: 0.03
    }
    bias_filler {
      type: "constant"
      value: 0.2
    }
  }
}
layer {
  name: "inception_3a/relu_3x3"
  type: "ReLU"
  bottom: "inception_3a/3x3"
  top: "inception_3a/3x3"
}
layer {
  name: "inception_3a/5x5_reduce"
  type: "Convolution"
  bottom: "pool2/3x3_s2"
  top: "inception_3a/5x5_reduce"
  param {
    lr_mult: 1
    decay_mult: 1
  }
  param {
    lr_mult: 2
    decay_mult: 0
  }
  convolution_param {
    num_output: 16
    kernel_size: 1
    weight_filler {
      type: "xavier"
      std: 0.2
    }
    bias_filler {
      type: "constant"
      value: 0.2
    }
  }
}
layer {
  name: "inception_3a/relu_5x5_reduce"
  type: "ReLU"
  bottom: "inception_3a/5x5_reduce"
  top: "inception_3a/5x5_reduce"
}
layer {
  name: "inception_3a/5x5"
  type: "Convolution"
  bottom: "inception_3a/5x5_reduce"
  top: "inception_3a/5x5"
  param {
    lr_mult: 1
    decay_mult: 1
  }
  param {
    lr_mult: 2
    decay_mult: 0
  }
  convolution_param {
    num_output: 32
    pad: 2
    kernel_size: 5
    weight_filler {
      type: "xavier"
      std: 0.03
    }
    bias_filler {
      type: "constant"
      value: 0.2
    }
  }
}
layer {
  name: "inception_3a/relu_5x5"
  type: "ReLU"
  bottom: "inception_3a/5x5"
  top: "inception_3a/5x5"
}
layer {
  name: "inception_3a/pool"
  type: "Pooling"
  bottom: "pool2/3x3_s2"
  top: "inception_3a/pool"
  pooling_param {
    pool: MAX
    kernel_size: 3
    stride: 1
    pad: 1
  }
}
layer {
  name: "inception_3a/pool_proj"
  type: "Convolution"
  bottom: "inception_3a/pool"
  top: "inception_3a/pool_proj"
  param {
    lr_mult: 1
    decay_mult: 1
  }
  param {
    lr_mult: 2
    decay_mult: 0
  }
  convolution_param {
    num_output: 32
    kernel_size: 1
    weight_filler {
      type: "xavier"
      std: 0.1
    }
    bias_filler {
      type: "constant"
      value: 0.2
    }
  }
}
layer {
  name: "inception_3a/relu_pool_proj"
  type: "ReLU"
  bottom: "inception_3a/pool_proj"
  top: "inception_3a/pool_proj"
}
layer {
  name: "inception_3a/output"
  type: "Concat"
  bottom: "inception_3a/1x1"
  bottom: "inception_3a/3x3"
  bottom: "inception_3a/5x5"
  bottom: "inception_3a/pool_proj"
  top: "inception_3a/output"
}
layer {
  name: "inception_3b/1x1"
  type: "Convolution"
  bottom: "inception_3a/output"
  top: "inception_3b/1x1"
  param {
    lr_mult: 1
    decay_mult: 1
  }
  param {
    lr_mult: 2
    decay_mult: 0
  }
  convolution_param {
    num_output: 128
    kernel_size: 1
    weight_filler {
      type: "xavier"
      std: 0.03
    }
    bias_filler {
      type: "constant"
      value: 0.2
    }
  }
}
layer {
  name: "inception_3b/relu_1x1"
  type: "ReLU"
  bottom: "inception_3b/1x1"
  top: "inception_3b/1x1"
}
layer {
  name: "inception_3b/3x3_reduce"
  type: "Convolution"
  bottom: "inception_3a/output"
  top: "inception_3b/3x3_reduce"
  param {
    lr_mult: 1
    decay_mult: 1
  }
  param {
    lr_mult: 2
    decay_mult: 0
  }
  convolution_param {
    num_output: 128
    kernel_size: 1
    weight_filler {
      type: "xavier"
      std: 0.09
    }
    bias_filler {
      type: "constant"
      value: 0.2
    }
  }
}
layer {
  name: "inception_3b/relu_3x3_reduce"
  type: "ReLU"
  bottom: "inception_3b/3x3_reduce"
  top: "inception_3b/3x3_reduce"
}
layer {
  name: "inception_3b/3x3"
  type: "Convolution"
  bottom: "inception_3b/3x3_reduce"
  top: "inception_3b/3x3"
  param {
    lr_mult: 1
    decay_mult: 1
  }
  param {
    lr_mult: 2
    decay_mult: 0
  }
  convolution_param {
    num_output: 192
    pad: 1
    kernel_size: 3
    weight_filler {
      type: "xavier"
      std: 0.03
    }
    bias_filler {
      type: "constant"
      value: 0.2
    }
  }
}
layer {
  name: "inception_3b/relu_3x3"
  type: "ReLU"
  bottom: "inception_3b/3x3"
  top: "inception_3b/3x3"
}
layer {
  name: "inception_3b/5x5_reduce"
  type: "Convolution"
  bottom: "inception_3a/output"
  top: "inception_3b/5x5_reduce"
  param {
    lr_mult: 1
    decay_mult: 1
  }
  param {
    lr_mult: 2
    decay_mult: 0
  }
  convolution_param {
    num_output: 32
    kernel_size: 1
    weight_filler {
      type: "xavier"
      std: 0.2
    }
    bias_filler {
      type: "constant"
      value: 0.2
    }
  }
}
layer {
  name: "inception_3b/relu_5x5_reduce"
  type: "ReLU"
  bottom: "inception_3b/5x5_reduce"
  top: "inception_3b/5x5_reduce"
}
layer {
  name: "inception_3b/5x5"
  type: "Convolution"
  bottom: "inception_3b/5x5_reduce"
  top: "inception_3b/5x5"
  param {
    lr_mult: 1
    decay_mult: 1
  }
  param {
    lr_mult: 2
    decay_mult: 0
  }
  convolution_param {
    num_output: 96
    pad: 2
    kernel_size: 5
    weight_filler {
      type: "xavier"
      std: 0.03
    }
    bias_filler {
      type: "constant"
      value: 0.2
    }
  }
}
layer {
  name: "inception_3b/relu_5x5"
  type: "ReLU"
  bottom: "inception_3b/5x5"
  top: "inception_3b/5x5"
}
layer {
  name: "inception_3b/pool"
  type: "Pooling"
  bottom: "inception_3a/output"
  top: "inception_3b/pool"
  pooling_param {
    pool: MAX
    kernel_size: 3
    stride: 1
    pad: 1
  }
}
layer {
  name: "inception_3b/pool_proj"
  type: "Convolution"
  bottom: "inception_3b/pool"
  top: "inception_3b/pool_proj"
  param {
    lr_mult: 1
    decay_mult: 1
  }
  param {
    lr_mult: 2
    decay_mult: 0
  }
  convolution_param {
    num_output: 64
    kernel_size: 1
    weight_filler {
      type: "xavier"
      std: 0.1
    }
    bias_filler {
      type: "constant"
      value: 0.2
    }
  }
}
layer {
  name: "inception_3b/relu_pool_proj"
  type: "ReLU"
  bottom: "inception_3b/pool_proj"
  top: "inception_3b/pool_proj"
}
layer {
  name: "inception_3b/output"
  type: "Concat"
  bottom: "inception_3b/1x1"
  bottom: "inception_3b/3x3"
  bottom: "inception_3b/5x5"
  bottom: "inception_3b/pool_proj"
  top: "inception_3b/output"
}
layer {
  name: "pool3/3x3_s2"
  type: "Pooling"
  bottom: "inception_3b/output"
  top: "pool3/3x3_s2"
  pooling_param {
    pool: MAX
    kernel_size: 3
    stride: 2
  }
}
layer {
  name: "inception_4a/1x1"
  type: "Convolution"
  bottom: "pool3/3x3_s2"
  top: "inception_4a/1x1"
  param {
    lr_mult: 1
    decay_mult: 1
  }
  param {
    lr_mult: 2
    decay_mult: 0
  }
  convolution_param {
    num_output: 192
    kernel_size: 1
    weight_filler {
      type: "xavier"
      std: 0.03
    }
    bias_filler {
      type: "constant"
      value: 0.2
    }
  }
}
layer {
  name: "inception_4a/relu_1x1"
  type: "ReLU"
  bottom: "inception_4a/1x1"
  top: "inception_4a/1x1"
}
layer {
  name: "inception_4a/3x3_reduce"
  type: "Convolution"
  bottom: "pool3/3x3_s2"
  top: "inception_4a/3x3_reduce"
  param {
    lr_mult: 1
    decay_mult: 1
  }
  param {
    lr_mult: 2
    decay_mult: 0
  }
  convolution_param {
    num_output: 96
    kernel_size: 1
    weight_filler {
      type: "xavier"
      std: 0.09
    }
    bias_filler {
      type: "constant"
      value: 0.2
    }
  }
}
layer {
  name: "inception_4a/relu_3x3_reduce"
  type: "ReLU"
  bottom: "inception_4a/3x3_reduce"
  top: "inception_4a/3x3_reduce"
}
layer {
  name: "inception_4a/3x3"
  type: "Convolution"
  bottom: "inception_4a/3x3_reduce"
  top: "inception_4a/3x3"
  param {
    lr_mult: 1
    decay_mult: 1
  }
  param {
    lr_mult: 2
    decay_mult: 0
  }
  convolution_param {
    num_output: 208
    pad: 1
    kernel_size: 3
    weight_filler {
      type: "xavier"
      std: 0.03
    }
    bias_filler {
      type: "constant"
      value: 0.2
    }
  }
}
layer {
  name: "inception_4a/relu_3x3"
  type: "ReLU"
  bottom: "inception_4a/3x3"
  top: "inception_4a/3x3"
}
layer {
  name: "inception_4a/5x5_reduce"
  type: "Convolution"
  bottom: "pool3/3x3_s2"
  top: "inception_4a/5x5_reduce"
  param {
    lr_mult: 1
    decay_mult: 1
  }
  param {
    lr_mult: 2
    decay_mult: 0
  }
  convolution_param {
    num_output: 16
    kernel_size: 1
    weight_filler {
      type: "xavier"
      std: 0.2
    }
    bias_filler {
      type: "constant"
      value: 0.2
    }
  }
}
layer {
  name: "inception_4a/relu_5x5_reduce"
  type: "ReLU"
  bottom: "inception_4a/5x5_reduce"
  top: "inception_4a/5x5_reduce"
}
layer {
  name: "inception_4a/5x5"
  type: "Convolution"
  bottom: "inception_4a/5x5_reduce"
  top: "inception_4a/5x5"
  param {
    lr_mult: 1
    decay_mult: 1
  }
  param {
    lr_mult: 2
    decay_mult: 0
  }
  convolution_param {
    num_output: 48
    pad: 2
    kernel_size: 5
    weight_filler {
      type: "xavier"
      std: 0.03
    }
    bias_filler {
      type: "constant"
      value: 0.2
    }
  }
}
layer {
  name: "inception_4a/relu_5x5"
  type: "ReLU"
  bottom: "inception_4a/5x5"
  top: "inception_4a/5x5"
}
layer {
  name: "inception_4a/pool"
  type: "Pooling"
  bottom: "pool3/3x3_s2"
  top: "inception_4a/pool"
  pooling_param {
    pool: MAX
    kernel_size: 3
    stride: 1
    pad: 1
  }
}
layer {
  name: "inception_4a/pool_proj"
  type: "Convolution"
  bottom: "inception_4a/pool"
  top: "inception_4a/pool_proj"
  param {
    lr_mult: 1
    decay_mult: 1
  }
  param {
    lr_mult: 2
    decay_mult: 0
  }
  convolution_param {
    num_output: 64
    kernel_size: 1
    weight_filler {
      type: "xavier"
      std: 0.1
    }
    bias_filler {
      type: "constant"
      value: 0.2
    }
  }
}
layer {
  name: "inception_4a/relu_pool_proj"
  type: "ReLU"
  bottom: "inception_4a/pool_proj"
  top: "inception_4a/pool_proj"
}
layer {
  name: "inception_4a/output"
  type: "Concat"
  bottom: "inception_4a/1x1"
  bottom: "inception_4a/3x3"
  bottom: "inception_4a/5x5"
  bottom: "inception_4a/pool_proj"
  top: "inception_4a/output"
}
layer {
  name: "loss1/ave_pool"
  type: "Pooling"
  bottom: "inception_4a/output"
  top: "loss1/ave_pool"
  pooling_param {
    pool: AVE
    kernel_size: 5
    stride: 3
  }
}
layer {
  name: "loss1/conv"
  type: "Convolution"
  bottom: "loss1/ave_pool"
  top: "loss1/conv"
  param {
    lr_mult: 1
    decay_mult: 1
  }
  param {
    lr_mult: 2
    decay_mult: 0
  }
  convolution_param {
    num_output: 128
    kernel_size: 1
    weight_filler {
      type: "xavier"
      std: 0.08
    }
    bias_filler {
      type: "constant"
      value: 0.2
    }
  }
}
layer {
  name: "loss1/relu_conv"
  type: "ReLU"
  bottom: "loss1/conv"
  top: "loss1/conv"
}
layer {
  name: "loss1/fc"
  type: "InnerProduct"
  bottom: "loss1/conv"
  top: "loss1/fc"
  param {
    lr_mult: 1
    decay_mult: 1
  }
  param {
    lr_mult: 2
    decay_mult: 0
  }
  inner_product_param {
    num_output: 1024
    weight_filler {
      type: "xavier"
      std: 0.02
    }
    bias_filler {
      type: "constant"
      value: 0.2
    }
  }
}
layer {
  name: "loss1/relu_fc"
  type: "ReLU"
  bottom: "loss1/fc"
  top: "loss1/fc"
}
layer {
  name: "loss1/drop_fc"
  type: "Dropout"
  bottom: "loss1/fc"
  top: "loss1/fc"
  dropout_param {
    dropout_ratio: 0.7
  }
}
layer {
  name: "loss1/classifier_plantvillage"
  type: "InnerProduct"
  bottom: "loss1/fc"
  top: "loss1/classifier_plantvillage"
  param {
    lr_mult: 1
    decay_mult: 1
  }
  param {
    lr_mult: 2
    decay_mult: 0
  }
  inner_product_param {
    num_output: 38
    weight_filler {
      type: "xavier"
      std: 0.0009765625
    }
    bias_filler {
      type: "constant"
      value: 0
    }
  }
}
layer {
  name: "inception_4b/1x1"
  type: "Convolution"
  bottom: "inception_4a/output"
  top: "inception_4b/1x1"
  param {
    lr_mult: 1
    decay_mult: 1
  }
  param {
    lr_mult: 2
    decay_mult: 0
  }
  convolution_param {
    num_output: 160
    kernel_size: 1
    weight_filler {
      type: "xavier"
      std: 0.03
    }
    bias_filler {
      type: "constant"
      value: 0.2
    }
  }
}
layer {
  name: "inception_4b/relu_1x1"
  type: "ReLU"
  bottom: "inception_4b/1x1"
  top: "inception_4b/1x1"
}
layer {
  name: "inception_4b/3x3_reduce"
  type: "Convolution"
  bottom: "inception_4a/output"
  top: "inception_4b/3x3_reduce"
  param {
    lr_mult: 1
    decay_mult: 1
  }
  param {
    lr_mult: 2
    decay_mult: 0
  }
  convolution_param {
    num_output: 112
    kernel_size: 1
    weight_filler {
      type: "xavier"
      std: 0.09
    }
    bias_filler {
      type: "constant"
      value: 0.2
    }
  }
}
layer {
  name: "inception_4b/relu_3x3_reduce"
  type: "ReLU"
  bottom: "inception_4b/3x3_reduce"
  top: "inception_4b/3x3_reduce"
}
layer {
  name: "inception_4b/3x3"
  type: "Convolution"
  bottom: "inception_4b/3x3_reduce"
  top: "inception_4b/3x3"
  param {
    lr_mult: 1
    decay_mult: 1
  }
  param {
    lr_mult: 2
    decay_mult: 0
  }
  convolution_param {
    num_output: 224
    pad: 1
    kernel_size: 3
    weight_filler {
      type: "xavier"
      std: 0.03
    }
    bias_filler {
      type: "constant"
      value: 0.2
    }
  }
}
layer {
  name: "inception_4b/relu_3x3"
  type: "ReLU"
  bottom: "inception_4b/3x3"
  top: "inception_4b/3x3"
}
layer {
  name: "inception_4b/5x5_reduce"
  type: "Convolution"
  bottom: "inception_4a/output"
  top: "inception_4b/5x5_reduce"
  param {
    lr_mult: 1
    decay_mult: 1
  }
  param {
    lr_mult: 2
    decay_mult: 0
  }
  convolution_param {
    num_output: 24
    kernel_size: 1
    weight_filler {
      type: "xavier"
      std: 0.2
    }
    bias_filler {
      type: "constant"
      value: 0.2
    }
  }
}
layer {
  name: "inception_4b/relu_5x5_reduce"
  type: "ReLU"
  bottom: "inception_4b/5x5_reduce"
  top: "inception_4b/5x5_reduce"
}
layer {
  name: "inception_4b/5x5"
  type: "Convolution"
  bottom: "inception_4b/5x5_reduce"
  top: "inception_4b/5x5"
  param {
    lr_mult: 1
    decay_mult: 1
  }
  param {
    lr_mult: 2
    decay_mult: 0
  }
  convolution_param {
    num_output: 64
    pad: 2
    kernel_size: 5
    weight_filler {
      type: "xavier"
      std: 0.03
    }
    bias_filler {
      type: "constant"
      value: 0.2
    }
  }
}
layer {
  name: "inception_4b/relu_5x5"
  type: "ReLU"
  bottom: "inception_4b/5x5"
  top: "inception_4b/5x5"
}
layer {
  name: "inception_4b/pool"
  type: "Pooling"
  bottom: "inception_4a/output"
  top: "inception_4b/pool"
  pooling_param {
    pool: MAX
    kernel_size: 3
    stride: 1
    pad: 1
  }
}
layer {
  name: "inception_4b/pool_proj"
  type: "Convolution"
  bottom: "inception_4b/pool"
  top: "inception_4b/pool_proj"
  param {
    lr_mult: 1
    decay_mult: 1
  }
  param {
    lr_mult: 2
    decay_mult: 0
  }
  convolution_param {
    num_output: 64
    kernel_size: 1
    weight_filler {
      type: "xavier"
      std: 0.1
    }
    bias_filler {
      type: "constant"
      value: 0.2
    }
  }
}
layer {
  name: "inception_4b/relu_pool_proj"
  type: "ReLU"
  bottom: "inception_4b/pool_proj"
  top: "inception_4b/pool_proj"
}
layer {
  name: "inception_4b/output"
  type: "Concat"
  bottom: "inception_4b/1x1"
  bottom: "inception_4b/3x3"
  bottom: "inception_4b/5x5"
  bottom: "inception_4b/pool_proj"
  top: "inception_4b/output"
}
layer {
  name: "inception_4c/1x1"
  type: "Convolution"
  bottom: "inception_4b/output"
  top: "inception_4c/1x1"
  param {
    lr_mult: 1
    decay_mult: 1
  }
  param {
    lr_mult: 2
    decay_mult: 0
  }
  convolution_param {
    num_output: 128
    kernel_size: 1
    weight_filler {
      type: "xavier"
      std: 0.03
    }
    bias_filler {
      type: "constant"
      value: 0.2
    }
  }
}
layer {
  name: "inception_4c/relu_1x1"
  type: "ReLU"
  bottom: "inception_4c/1x1"
  top: "inception_4c/1x1"
}
layer {
  name: "inception_4c/3x3_reduce"
  type: "Convolution"
  bottom: "inception_4b/output"
  top: "inception_4c/3x3_reduce"
  param {
    lr_mult: 1
    decay_mult: 1
  }
  param {
    lr_mult: 2
    decay_mult: 0
  }
  convolution_param {
    num_output: 128
    kernel_size: 1
    weight_filler {
      type: "xavier"
      std: 0.09
    }
    bias_filler {
      type: "constant"
      value: 0.2
    }
  }
}
layer {
  name: "inception_4c/relu_3x3_reduce"
  type: "ReLU"
  bottom: "inception_4c/3x3_reduce"
  top: "inception_4c/3x3_reduce"
}
layer {
  name: "inception_4c/3x3"
  type: "Convolution"
  bottom: "inception_4c/3x3_reduce"
  top: "inception_4c/3x3"
  param {
    lr_mult: 1
    decay_mult: 1
  }
  param {
    lr_mult: 2
    decay_mult: 0
  }
  convolution_param {
    num_output: 256
    pad: 1
    kernel_size: 3
    weight_filler {
      type: "xavier"
      std: 0.03
    }
    bias_filler {
      type: "constant"
      value: 0.2
    }
  }
}
layer {
  name: "inception_4c/relu_3x3"
  type: "ReLU"
  bottom: "inception_4c/3x3"
  top: "inception_4c/3x3"
}
layer {
  name: "inception_4c/5x5_reduce"
  type: "Convolution"
  bottom: "inception_4b/output"
  top: "inception_4c/5x5_reduce"
  param {
    lr_mult: 1
    decay_mult: 1
  }
  param {
    lr_mult: 2
    decay_mult: 0
  }
  convolution_param {
    num_output: 24
    kernel_size: 1
    weight_filler {
      type: "xavier"
      std: 0.2
    }
    bias_filler {
      type: "constant"
      value: 0.2
    }
  }
}
layer {
  name: "inception_4c/relu_5x5_reduce"
  type: "ReLU"
  bottom: "inception_4c/5x5_reduce"
  top: "inception_4c/5x5_reduce"
}
layer {
  name: "inception_4c/5x5"
  type: "Convolution"
  bottom: "inception_4c/5x5_reduce"
  top: "inception_4c/5x5"
  param {
    lr_mult: 1
    decay_mult: 1
  }
  param {
    lr_mult: 2
    decay_mult: 0
  }
  convolution_param {
    num_output: 64
    pad: 2
    kernel_size: 5
    weight_filler {
      type: "xavier"
      std: 0.03
    }
    bias_filler {
      type: "constant"
      value: 0.2
    }
  }
}
layer {
  name: "inception_4c/relu_5x5"
  type: "ReLU"
  bottom: "inception_4c/5x5"
  top: "inception_4c/5x5"
}
layer {
  name: "inception_4c/pool"
  type: "Pooling"
  bottom: "inception_4b/output"
  top: "inception_4c/pool"
  pooling_param {
    pool: MAX
    kernel_size: 3
    stride: 1
    pad: 1
  }
}
layer {
  name: "inception_4c/pool_proj"
  type: "Convolution"
  bottom: "inception_4c/pool"
  top: "inception_4c/pool_proj"
  param {
    lr_mult: 1
    decay_mult: 1
  }
  param {
    lr_mult: 2
    decay_mult: 0
  }
  convolution_param {
    num_output: 64
    kernel_size: 1
    weight_filler {
      type: "xavier"
      std: 0.1
    }
    bias_filler {
      type: "constant"
      value: 0.2
    }
  }
}
layer {
  name: "inception_4c/relu_pool_proj"
  type: "ReLU"
  bottom: "inception_4c/pool_proj"
  top: "inception_4c/pool_proj"
}
layer {
  name: "inception_4c/output"
  type: "Concat"
  bottom: "inception_4c/1x1"
  bottom: "inception_4c/3x3"
  bottom: "inception_4c/5x5"
  bottom: "inception_4c/pool_proj"
  top: "inception_4c/output"
}
layer {
  name: "inception_4d/1x1"
  type: "Convolution"
  bottom: "inception_4c/output"
  top: "inception_4d/1x1"
  param {
    lr_mult: 1
    decay_mult: 1
  }
  param {
    lr_mult: 2
    decay_mult: 0
  }
  convolution_param {
    num_output: 112
    kernel_size: 1
    weight_filler {
      type: "xavier"
      std: 0.03
    }
    bias_filler {
      type: "constant"
      value: 0.2
    }
  }
}
layer {
  name: "inception_4d/relu_1x1"
  type: "ReLU"
  bottom: "inception_4d/1x1"
  top: "inception_4d/1x1"
}
layer {
  name: "inception_4d/3x3_reduce"
  type: "Convolution"
  bottom: "inception_4c/output"
  top: "inception_4d/3x3_reduce"
  param {
    lr_mult: 1
    decay_mult: 1
  }
  param {
    lr_mult: 2
    decay_mult: 0
  }
  convolution_param {
    num_output: 144
    kernel_size: 1
    weight_filler {
      type: "xavier"
      std: 0.09
    }
    bias_filler {
      type: "constant"
      value: 0.2
    }
  }
}
layer {
  name: "inception_4d/relu_3x3_reduce"
  type: "ReLU"
  bottom: "inception_4d/3x3_reduce"
  top: "inception_4d/3x3_reduce"
}
layer {
  name: "inception_4d/3x3"
  type: "Convolution"
  bottom: "inception_4d/3x3_reduce"
  top: "inception_4d/3x3"
  param {
    lr_mult: 1
    decay_mult: 1
  }
  param {
    lr_mult: 2
    decay_mult: 0
  }
  convolution_param {
    num_output: 288
    pad: 1
    kernel_size: 3
    weight_filler {
      type: "xavier"
      std: 0.03
    }
    bias_filler {
      type: "constant"
      value: 0.2
    }
  }
}
layer {
  name: "inception_4d/relu_3x3"
  type: "ReLU"
  bottom: "inception_4d/3x3"
  top: "inception_4d/3x3"
}
layer {
  name: "inception_4d/5x5_reduce"
  type: "Convolution"
  bottom: "inception_4c/output"
  top: "inception_4d/5x5_reduce"
  param {
    lr_mult: 1
    decay_mult: 1
  }
  param {
    lr_mult: 2
    decay_mult: 0
  }
  convolution_param {
    num_output: 32
    kernel_size: 1
    weight_filler {
      type: "xavier"
      std: 0.2
    }
    bias_filler {
      type: "constant"
      value: 0.2
    }
  }
}
layer {
  name: "inception_4d/relu_5x5_reduce"
  type: "ReLU"
  bottom: "inception_4d/5x5_reduce"
  top: "inception_4d/5x5_reduce"
}
layer {
  name: "inception_4d/5x5"
  type: "Convolution"
  bottom: "inception_4d/5x5_reduce"
  top: "inception_4d/5x5"
  param {
    lr_mult: 1
    decay_mult: 1
  }
  param {
    lr_mult: 2
    decay_mult: 0
  }
  convolution_param {
    num_output: 64
    pad: 2
    kernel_size: 5
    weight_filler {
      type: "xavier"
      std: 0.03
    }
    bias_filler {
      type: "constant"
      value: 0.2
    }
  }
}
layer {
  name: "inception_4d/relu_5x5"
  type: "ReLU"
  bottom: "inception_4d/5x5"
  top: "inception_4d/5x5"
}
layer {
  name: "inception_4d/pool"
  type: "Pooling"
  bottom: "inception_4c/output"
  top: "inception_4d/pool"
  pooling_param {
    pool: MAX
    kernel_size: 3
    stride: 1
    pad: 1
  }
}
layer {
  name: "inception_4d/pool_proj"
  type: "Convolution"
  bottom: "inception_4d/pool"
  top: "inception_4d/pool_proj"
  param {
    lr_mult: 1
    decay_mult: 1
  }
  param {
    lr_mult: 2
    decay_mult: 0
  }
  convolution_param {
    num_output: 64
    kernel_size: 1
    weight_filler {
      type: "xavier"
      std: 0.1
    }
    bias_filler {
      type: "constant"
      value: 0.2
    }
  }
}
layer {
  name: "inception_4d/relu_pool_proj"
  type: "ReLU"
  bottom: "inception_4d/pool_proj"
  top: "inception_4d/pool_proj"
}
layer {
  name: "inception_4d/output"
  type: "Concat"
  bottom: "inception_4d/1x1"
  bottom: "inception_4d/3x3"
  bottom: "inception_4d/5x5"
  bottom: "inception_4d/pool_proj"
  top: "inception_4d/output"
}
layer {
  name: "loss2/ave_pool"
  type: "Pooling"
  bottom: "inception_4d/output"
  top: "loss2/ave_pool"
  pooling_param {
    pool: AVE
    kernel_size: 5
    stride: 3
  }
}
layer {
  name: "loss2/conv"
  type: "Convolution"
  bottom: "loss2/ave_pool"
  top: "loss2/conv"
  param {
    lr_mult: 1
    decay_mult: 1
  }
  param {
    lr_mult: 2
    decay_mult: 0
  }
  convolution_param {
    num_output: 128
    kernel_size: 1
    weight_filler {
      type: "xavier"
      std: 0.08
    }
    bias_filler {
      type: "constant"
      value: 0.2
    }
  }
}
layer {
  name: "loss2/relu_conv"
  type: "ReLU"
  bottom: "loss2/conv"
  top: "loss2/conv"
}
layer {
  name: "loss2/fc"
  type: "InnerProduct"
  bottom: "loss2/conv"
  top: "loss2/fc"
  param {
    lr_mult: 1
    decay_mult: 1
  }
  param {
    lr_mult: 2
    decay_mult: 0
  }
  inner_product_param {
    num_output: 1024
    weight_filler {
      type: "xavier"
      std: 0.02
    }
    bias_filler {
      type: "constant"
      value: 0.2
    }
  }
}
layer {
  name: "loss2/relu_fc"
  type: "ReLU"
  bottom: "loss2/fc"
  top: "loss2/fc"
}
layer {
  name: "loss2/drop_fc"
  type: "Dropout"
  bottom: "loss2/fc"
  top: "loss2/fc"
  dropout_param {
    dropout_ratio: 0.7
  }
}
layer {
  name: "loss2/classifier_plantvillage"
  type: "InnerProduct"
  bottom: "loss2/fc"
  top: "loss2/classifier_plantvillage"
  param {
    lr_mult: 1
    decay_mult: 1
  }
  param {
    lr_mult: 2
    decay_mult: 0
  }
  inner_product_param {
    num_output: 38
    weight_filler {
      type: "xavier"
      std: 0.0009765625
    }
    bias_filler {
      type: "constant"
      value: 0
    }
  }
}
layer {
  name: "inception_4e/1x1"
  type: "Convolution"
  bottom: "inception_4d/output"
  top: "inception_4e/1x1"
  param {
    lr_mult: 1
    decay_mult: 1
  }
  param {
    lr_mult: 2
    decay_mult: 0
  }
  convolution_param {
    num_output: 256
    kernel_size: 1
    weight_filler {
      type: "xavier"
      std: 0.03
    }
    bias_filler {
      type: "constant"
      value: 0.2
    }
  }
}
layer {
  name: "inception_4e/relu_1x1"
  type: "ReLU"
  bottom: "inception_4e/1x1"
  top: "inception_4e/1x1"
}
layer {
  name: "inception_4e/3x3_reduce"
  type: "Convolution"
  bottom: "inception_4d/output"
  top: "inception_4e/3x3_reduce"
  param {
    lr_mult: 1
    decay_mult: 1
  }
  param {
    lr_mult: 2
    decay_mult: 0
  }
  convolution_param {
    num_output: 160
    kernel_size: 1
    weight_filler {
      type: "xavier"
      std: 0.09
    }
    bias_filler {
      type: "constant"
      value: 0.2
    }
  }
}
layer {
  name: "inception_4e/relu_3x3_reduce"
  type: "ReLU"
  bottom: "inception_4e/3x3_reduce"
  top: "inception_4e/3x3_reduce"
}
layer {
  name: "inception_4e/3x3"
  type: "Convolution"
  bottom: "inception_4e/3x3_reduce"
  top: "inception_4e/3x3"
  param {
    lr_mult: 1
    decay_mult: 1
  }
  param {
    lr_mult: 2
    decay_mult: 0
  }
  convolution_param {
    num_output: 320
    pad: 1
    kernel_size: 3
    weight_filler {
      type: "xavier"
      std: 0.03
    }
    bias_filler {
      type: "constant"
      value: 0.2
    }
  }
}
layer {
  name: "inception_4e/relu_3x3"
  type: "ReLU"
  bottom: "inception_4e/3x3"
  top: "inception_4e/3x3"
}
layer {
  name: "inception_4e/5x5_reduce"
  type: "Convolution"
  bottom: "inception_4d/output"
  top: "inception_4e/5x5_reduce"
  param {
    lr_mult: 1
    decay_mult: 1
  }
  param {
    lr_mult: 2
    decay_mult: 0
  }
  convolution_param {
    num_output: 32
    kernel_size: 1
    weight_filler {
      type: "xavier"
      std: 0.2
    }
    bias_filler {
      type: "constant"
      value: 0.2
    }
  }
}
layer {
  name: "inception_4e/relu_5x5_reduce"
  type: "ReLU"
  bottom: "inception_4e/5x5_reduce"
  top: "inception_4e/5x5_reduce"
}
layer {
  name: "inception_4e/5x5"
  type: "Convolution"
  bottom: "inception_4e/5x5_reduce"
  top: "inception_4e/
I0403 19:41:29.067600 25567 layer_factory.hpp:77] Creating layer data
I0403 19:41:29.068236 25567 net.cpp:91] Creating Layer data
I0403 19:41:29.068281 25567 net.cpp:399] data -> data
I0403 19:41:29.068353 25567 net.cpp:399] data -> label
I0403 19:41:29.068398 25567 data_transformer.cpp:25] Loading mean file from: /home/mohanty/data/final_dataset/lmdb/grayscale-80-20/mean.binaryproto
I0403 19:41:29.069350 25570 db_lmdb.cpp:38] Opened lmdb /home/mohanty/data/final_dataset/lmdb/grayscale-80-20/test_db
I0403 19:41:29.082566 25567 data_layer.cpp:41] output data size: 24,3,224,224
I0403 19:41:29.111382 25567 net.cpp:141] Setting up data
I0403 19:41:29.111490 25567 net.cpp:148] Top shape: 24 3 224 224 (3612672)
I0403 19:41:29.111515 25567 net.cpp:148] Top shape: 24 (24)
I0403 19:41:29.111532 25567 net.cpp:156] Memory required for data: 14450784
I0403 19:41:29.111567 25567 layer_factory.hpp:77] Creating layer label_data_1_split
I0403 19:41:29.111601 25567 net.cpp:91] Creating Layer label_data_1_split
I0403 19:41:29.111624 25567 net.cpp:425] label_data_1_split <- label
I0403 19:41:29.111661 25567 net.cpp:399] label_data_1_split -> label_data_1_split_0
I0403 19:41:29.111696 25567 net.cpp:399] label_data_1_split -> label_data_1_split_1
I0403 19:41:29.111718 25567 net.cpp:399] label_data_1_split -> label_data_1_split_2
I0403 19:41:29.111742 25567 net.cpp:399] label_data_1_split -> label_data_1_split_3
I0403 19:41:29.111764 25567 net.cpp:399] label_data_1_split -> label_data_1_split_4
I0403 19:41:29.111786 25567 net.cpp:399] label_data_1_split -> label_data_1_split_5
I0403 19:41:29.111809 25567 net.cpp:399] label_data_1_split -> label_data_1_split_6
I0403 19:41:29.111829 25567 net.cpp:399] label_data_1_split -> label_data_1_split_7
I0403 19:41:29.111850 25567 net.cpp:399] label_data_1_split -> label_data_1_split_8
I0403 19:41:29.111873 25567 net.cpp:399] label_data_1_split -> label_data_1_split_9
I0403 19:41:29.111991 25567 net.cpp:141] Setting up label_data_1_split
I0403 19:41:29.112018 25567 net.cpp:148] Top shape: 24 (24)
I0403 19:41:29.112040 25567 net.cpp:148] Top shape: 24 (24)
I0403 19:41:29.112057 25567 net.cpp:148] Top shape: 24 (24)
I0403 19:41:29.112074 25567 net.cpp:148] Top shape: 24 (24)
I0403 19:41:29.112090 25567 net.cpp:148] Top shape: 24 (24)
I0403 19:41:29.112107 25567 net.cpp:148] Top shape: 24 (24)
I0403 19:41:29.112125 25567 net.cpp:148] Top shape: 24 (24)
I0403 19:41:29.112141 25567 net.cpp:148] Top shape: 24 (24)
I0403 19:41:29.112160 25567 net.cpp:148] Top shape: 24 (24)
I0403 19:41:29.112179 25567 net.cpp:148] Top shape: 24 (24)
I0403 19:41:29.112227 25567 net.cpp:156] Memory required for data: 14451744
I0403 19:41:29.112247 25567 layer_factory.hpp:77] Creating layer conv1/7x7_s2
I0403 19:41:29.112308 25567 net.cpp:91] Creating Layer conv1/7x7_s2
I0403 19:41:29.112330 25567 net.cpp:425] conv1/7x7_s2 <- data
I0403 19:41:29.112352 25567 net.cpp:399] conv1/7x7_s2 -> conv1/7x7_s2
I0403 19:41:29.257048 25567 net.cpp:141] Setting up conv1/7x7_s2
I0403 19:41:29.257164 25567 net.cpp:148] Top shape: 24 64 112 112 (19267584)
I0403 19:41:29.257182 25567 net.cpp:156] Memory required for data: 91522080
I0403 19:41:29.257223 25567 layer_factory.hpp:77] Creating layer conv1/relu_7x7
I0403 19:41:29.257261 25567 net.cpp:91] Creating Layer conv1/relu_7x7
I0403 19:41:29.257285 25567 net.cpp:425] conv1/relu_7x7 <- conv1/7x7_s2
I0403 19:41:29.257308 25567 net.cpp:386] conv1/relu_7x7 -> conv1/7x7_s2 (in-place)
I0403 19:41:29.257565 25567 net.cpp:141] Setting up conv1/relu_7x7
I0403 19:41:29.257596 25567 net.cpp:148] Top shape: 24 64 112 112 (19267584)
I0403 19:41:29.257612 25567 net.cpp:156] Memory required for data: 168592416
I0403 19:41:29.257630 25567 layer_factory.hpp:77] Creating layer pool1/3x3_s2
I0403 19:41:29.257659 25567 net.cpp:91] Creating Layer pool1/3x3_s2
I0403 19:41:29.257678 25567 net.cpp:425] pool1/3x3_s2 <- conv1/7x7_s2
I0403 19:41:29.257699 25567 net.cpp:399] pool1/3x3_s2 -> pool1/3x3_s2
I0403 19:41:29.257781 25567 net.cpp:141] Setting up pool1/3x3_s2
I0403 19:41:29.257807 25567 net.cpp:148] Top shape: 24 64 56 56 (4816896)
I0403 19:41:29.257824 25567 net.cpp:156] Memory required for data: 187860000
I0403 19:41:29.257843 25567 layer_factory.hpp:77] Creating layer pool1/norm1
I0403 19:41:29.257872 25567 net.cpp:91] Creating Layer pool1/norm1
I0403 19:41:29.257891 25567 net.cpp:425] pool1/norm1 <- pool1/3x3_s2
I0403 19:41:29.257910 25567 net.cpp:399] pool1/norm1 -> pool1/norm1
I0403 19:41:29.258203 25567 net.cpp:141] Setting up pool1/norm1
I0403 19:41:29.258234 25567 net.cpp:148] Top shape: 24 64 56 56 (4816896)
I0403 19:41:29.258251 25567 net.cpp:156] Memory required for data: 207127584
I0403 19:41:29.258275 25567 layer_factory.hpp:77] Creating layer conv2/3x3_reduce
I0403 19:41:29.258306 25567 net.cpp:91] Creating Layer conv2/3x3_reduce
I0403 19:41:29.258327 25567 net.cpp:425] conv2/3x3_reduce <- pool1/norm1
I0403 19:41:29.258347 25567 net.cpp:399] conv2/3x3_reduce -> conv2/3x3_reduce
I0403 19:41:29.259666 25567 net.cpp:141] Setting up conv2/3x3_reduce
I0403 19:41:29.259699 25567 net.cpp:148] Top shape: 24 64 56 56 (4816896)
I0403 19:41:29.259718 25567 net.cpp:156] Memory required for data: 226395168
I0403 19:41:29.259743 25567 layer_factory.hpp:77] Creating layer conv2/relu_3x3_reduce
I0403 19:41:29.259763 25567 net.cpp:91] Creating Layer conv2/relu_3x3_reduce
I0403 19:41:29.259781 25567 net.cpp:425] conv2/relu_3x3_reduce <- conv2/3x3_reduce
I0403 19:41:29.259804 25567 net.cpp:386] conv2/relu_3x3_reduce -> conv2/3x3_reduce (in-place)
I0403 19:41:29.260053 25567 net.cpp:141] Setting up conv2/relu_3x3_reduce
I0403 19:41:29.260082 25567 net.cpp:148] Top shape: 24 64 56 56 (4816896)
I0403 19:41:29.260100 25567 net.cpp:156] Memory required for data: 245662752
I0403 19:41:29.260116 25567 layer_factory.hpp:77] Creating layer conv2/3x3
I0403 19:41:29.260139 25567 net.cpp:91] Creating Layer conv2/3x3
I0403 19:41:29.260159 25567 net.cpp:425] conv2/3x3 <- conv2/3x3_reduce
I0403 19:41:29.260179 25567 net.cpp:399] conv2/3x3 -> conv2/3x3
I0403 19:41:29.262488 25567 net.cpp:141] Setting up conv2/3x3
I0403 19:41:29.262523 25567 net.cpp:148] Top shape: 24 192 56 56 (14450688)
I0403 19:41:29.262544 25567 net.cpp:156] Memory required for data: 303465504
I0403 19:41:29.262567 25567 layer_factory.hpp:77] Creating layer conv2/relu_3x3
I0403 19:41:29.262590 25567 net.cpp:91] Creating Layer conv2/relu_3x3
I0403 19:41:29.262609 25567 net.cpp:425] conv2/relu_3x3 <- conv2/3x3
I0403 19:41:29.262627 25567 net.cpp:386] conv2/relu_3x3 -> conv2/3x3 (in-place)
I0403 19:41:29.262804 25567 net.cpp:141] Setting up conv2/relu_3x3
I0403 19:41:29.262837 25567 net.cpp:148] Top shape: 24 192 56 56 (14450688)
I0403 19:41:29.262890 25567 net.cpp:156] Memory required for data: 361268256
I0403 19:41:29.262907 25567 layer_factory.hpp:77] Creating layer conv2/norm2
I0403 19:41:29.262926 25567 net.cpp:91] Creating Layer conv2/norm2
I0403 19:41:29.262943 25567 net.cpp:425] conv2/norm2 <- conv2/3x3
I0403 19:41:29.262964 25567 net.cpp:399] conv2/norm2 -> conv2/norm2
I0403 19:41:29.263316 25567 net.cpp:141] Setting up conv2/norm2
I0403 19:41:29.263347 25567 net.cpp:148] Top shape: 24 192 56 56 (14450688)
I0403 19:41:29.263365 25567 net.cpp:156] Memory required for data: 419071008
I0403 19:41:29.263383 25567 layer_factory.hpp:77] Creating layer pool2/3x3_s2
I0403 19:41:29.263402 25567 net.cpp:91] Creating Layer pool2/3x3_s2
I0403 19:41:29.263419 25567 net.cpp:425] pool2/3x3_s2 <- conv2/norm2
I0403 19:41:29.263439 25567 net.cpp:399] pool2/3x3_s2 -> pool2/3x3_s2
I0403 19:41:29.263494 25567 net.cpp:141] Setting up pool2/3x3_s2
I0403 19:41:29.263523 25567 net.cpp:148] Top shape: 24 192 28 28 (3612672)
I0403 19:41:29.263540 25567 net.cpp:156] Memory required for data: 433521696
I0403 19:41:29.263555 25567 layer_factory.hpp:77] Creating layer pool2/3x3_s2_pool2/3x3_s2_0_split
I0403 19:41:29.263576 25567 net.cpp:91] Creating Layer pool2/3x3_s2_pool2/3x3_s2_0_split
I0403 19:41:29.263594 25567 net.cpp:425] pool2/3x3_s2_pool2/3x3_s2_0_split <- pool2/3x3_s2
I0403 19:41:29.263613 25567 net.cpp:399] pool2/3x3_s2_pool2/3x3_s2_0_split -> pool2/3x3_s2_pool2/3x3_s2_0_split_0
I0403 19:41:29.263638 25567 net.cpp:399] pool2/3x3_s2_pool2/3x3_s2_0_split -> pool2/3x3_s2_pool2/3x3_s2_0_split_1
I0403 19:41:29.263661 25567 net.cpp:399] pool2/3x3_s2_pool2/3x3_s2_0_split -> pool2/3x3_s2_pool2/3x3_s2_0_split_2
I0403 19:41:29.263684 25567 net.cpp:399] pool2/3x3_s2_pool2/3x3_s2_0_split -> pool2/3x3_s2_pool2/3x3_s2_0_split_3
I0403 19:41:29.263758 25567 net.cpp:141] Setting up pool2/3x3_s2_pool2/3x3_s2_0_split
I0403 19:41:29.263788 25567 net.cpp:148] Top shape: 24 192 28 28 (3612672)
I0403 19:41:29.263808 25567 net.cpp:148] Top shape: 24 192 28 28 (3612672)
I0403 19:41:29.263823 25567 net.cpp:148] Top shape: 24 192 28 28 (3612672)
I0403 19:41:29.263840 25567 net.cpp:148] Top shape: 24 192 28 28 (3612672)
I0403 19:41:29.263855 25567 net.cpp:156] Memory required for data: 491324448
I0403 19:41:29.263871 25567 layer_factory.hpp:77] Creating layer inception_3a/1x1
I0403 19:41:29.263895 25567 net.cpp:91] Creating Layer inception_3a/1x1
I0403 19:41:29.263914 25567 net.cpp:425] inception_3a/1x1 <- pool2/3x3_s2_pool2/3x3_s2_0_split_0
I0403 19:41:29.263937 25567 net.cpp:399] inception_3a/1x1 -> inception_3a/1x1
I0403 19:41:29.265540 25567 net.cpp:141] Setting up inception_3a/1x1
I0403 19:41:29.265573 25567 net.cpp:148] Top shape: 24 64 28 28 (1204224)
I0403 19:41:29.265590 25567 net.cpp:156] Memory required for data: 496141344
I0403 19:41:29.265610 25567 layer_factory.hpp:77] Creating layer inception_3a/relu_1x1
I0403 19:41:29.265632 25567 net.cpp:91] Creating Layer inception_3a/relu_1x1
I0403 19:41:29.265652 25567 net.cpp:425] inception_3a/relu_1x1 <- inception_3a/1x1
I0403 19:41:29.265671 25567 net.cpp:386] inception_3a/relu_1x1 -> inception_3a/1x1 (in-place)
I0403 19:41:29.265846 25567 net.cpp:141] Setting up inception_3a/relu_1x1
I0403 19:41:29.265877 25567 net.cpp:148] Top shape: 24 64 28 28 (1204224)
I0403 19:41:29.265892 25567 net.cpp:156] Memory required for data: 500958240
I0403 19:41:29.265907 25567 layer_factory.hpp:77] Creating layer inception_3a/3x3_reduce
I0403 19:41:29.265931 25567 net.cpp:91] Creating Layer inception_3a/3x3_reduce
I0403 19:41:29.265951 25567 net.cpp:425] inception_3a/3x3_reduce <- pool2/3x3_s2_pool2/3x3_s2_0_split_1
I0403 19:41:29.265972 25567 net.cpp:399] inception_3a/3x3_reduce -> inception_3a/3x3_reduce
I0403 19:41:29.267681 25567 net.cpp:141] Setting up inception_3a/3x3_reduce
I0403 19:41:29.267715 25567 net.cpp:148] Top shape: 24 96 28 28 (1806336)
I0403 19:41:29.267732 25567 net.cpp:156] Memory required for data: 508183584
I0403 19:41:29.267755 25567 layer_factory.hpp:77] Creating layer inception_3a/relu_3x3_reduce
I0403 19:41:29.267792 25567 net.cpp:91] Creating Layer inception_3a/relu_3x3_reduce
I0403 19:41:29.267813 25567 net.cpp:425] inception_3a/relu_3x3_reduce <- inception_3a/3x3_reduce
I0403 19:41:29.267832 25567 net.cpp:386] inception_3a/relu_3x3_reduce -> inception_3a/3x3_reduce (in-place)
I0403 19:41:29.268005 25567 net.cpp:141] Setting up inception_3a/relu_3x3_reduce
I0403 19:41:29.268035 25567 net.cpp:148] Top shape: 24 96 28 28 (1806336)
I0403 19:41:29.268050 25567 net.cpp:156] Memory required for data: 515408928
I0403 19:41:29.268064 25567 layer_factory.hpp:77] Creating layer inception_3a/3x3
I0403 19:41:29.268085 25567 net.cpp:91] Creating Layer inception_3a/3x3
I0403 19:41:29.268105 25567 net.cpp:425] inception_3a/3x3 <- inception_3a/3x3_reduce
I0403 19:41:29.268131 25567 net.cpp:399] inception_3a/3x3 -> inception_3a/3x3
I0403 19:41:29.269764 25567 net.cpp:141] Setting up inception_3a/3x3
I0403 19:41:29.269796 25567 net.cpp:148] Top shape: 24 128 28 28 (2408448)
I0403 19:41:29.269812 25567 net.cpp:156] Memory required for data: 525042720
I0403 19:41:29.269831 25567 layer_factory.hpp:77] Creating layer inception_3a/relu_3x3
I0403 19:41:29.269851 25567 net.cpp:91] Creating Layer inception_3a/relu_3x3
I0403 19:41:29.269871 25567 net.cpp:425] inception_3a/relu_3x3 <- inception_3a/3x3
I0403 19:41:29.269891 25567 net.cpp:386] inception_3a/relu_3x3 -> inception_3a/3x3 (in-place)
I0403 19:41:29.270150 25567 net.cpp:141] Setting up inception_3a/relu_3x3
I0403 19:41:29.270177 25567 net.cpp:148] Top shape: 24 128 28 28 (2408448)
I0403 19:41:29.270195 25567 net.cpp:156] Memory required for data: 534676512
I0403 19:41:29.270210 25567 layer_factory.hpp:77] Creating layer inception_3a/5x5_reduce
I0403 19:41:29.270233 25567 net.cpp:91] Creating Layer inception_3a/5x5_reduce
I0403 19:41:29.270270 25567 net.cpp:425] inception_3a/5x5_reduce <- pool2/3x3_s2_pool2/3x3_s2_0_split_2
I0403 19:41:29.270293 25567 net.cpp:399] inception_3a/5x5_reduce -> inception_3a/5x5_reduce
I0403 19:41:29.271211 25567 net.cpp:141] Setting up inception_3a/5x5_reduce
I0403 19:41:29.271260 25567 net.cpp:148] Top shape: 24 16 28 28 (301056)
I0403 19:41:29.271281 25567 net.cpp:156] Memory required for data: 535880736
I0403 19:41:29.271301 25567 layer_factory.hpp:77] Creating layer inception_3a/relu_5x5_reduce
I0403 19:41:29.271327 25567 net.cpp:91] Creating Layer inception_3a/relu_5x5_reduce
I0403 19:41:29.271344 25567 net.cpp:425] inception_3a/relu_5x5_reduce <- inception_3a/5x5_reduce
I0403 19:41:29.271363 25567 net.cpp:386] inception_3a/relu_5x5_reduce -> inception_3a/5x5_reduce (in-place)
I0403 19:41:29.271641 25567 net.cpp:141] Setting up inception_3a/relu_5x5_reduce
I0403 19:41:29.271673 25567 net.cpp:148] Top shape: 24 16 28 28 (301056)
I0403 19:41:29.271692 25567 net.cpp:156] Memory required for data: 537084960
I0403 19:41:29.271706 25567 layer_factory.hpp:77] Creating layer inception_3a/5x5
I0403 19:41:29.271730 25567 net.cpp:91] Creating Layer inception_3a/5x5
I0403 19:41:29.271749 25567 net.cpp:425] inception_3a/5x5 <- inception_3a/5x5_reduce
I0403 19:41:29.271767 25567 net.cpp:399] inception_3a/5x5 -> inception_3a/5x5
I0403 19:41:29.272723 25567 net.cpp:141] Setting up inception_3a/5x5
I0403 19:41:29.272753 25567 net.cpp:148] Top shape: 24 32 28 28 (602112)
I0403 19:41:29.272770 25567 net.cpp:156] Memory required for data: 539493408
I0403 19:41:29.272789 25567 layer_factory.hpp:77] Creating layer inception_3a/relu_5x5
I0403 19:41:29.272809 25567 net.cpp:91] Creating Layer inception_3a/relu_5x5
I0403 19:41:29.272827 25567 net.cpp:425] inception_3a/relu_5x5 <- inception_3a/5x5
I0403 19:41:29.272845 25567 net.cpp:386] inception_3a/relu_5x5 -> inception_3a/5x5 (in-place)
I0403 19:41:29.273010 25567 net.cpp:141] Setting up inception_3a/relu_5x5
I0403 19:41:29.273038 25567 net.cpp:148] Top shape: 24 32 28 28 (602112)
I0403 19:41:29.273053 25567 net.cpp:156] Memory required for data: 541901856
I0403 19:41:29.273069 25567 layer_factory.hpp:77] Creating layer inception_3a/pool
I0403 19:41:29.273090 25567 net.cpp:91] Creating Layer inception_3a/pool
I0403 19:41:29.273120 25567 net.cpp:425] inception_3a/pool <- pool2/3x3_s2_pool2/3x3_s2_0_split_3
I0403 19:41:29.273139 25567 net.cpp:399] inception_3a/pool -> inception_3a/pool
I0403 19:41:29.273197 25567 net.cpp:141] Setting up inception_3a/pool
I0403 19:41:29.273226 25567 net.cpp:148] Top shape: 24 192 28 28 (3612672)
I0403 19:41:29.273241 25567 net.cpp:156] Memory required for data: 556352544
I0403 19:41:29.273263 25567 layer_factory.hpp:77] Creating layer inception_3a/pool_proj
I0403 19:41:29.273290 25567 net.cpp:91] Creating Layer inception_3a/pool_proj
I0403 19:41:29.273309 25567 net.cpp:425] inception_3a/pool_proj <- inception_3a/pool
I0403 19:41:29.273330 25567 net.cpp:399] inception_3a/pool_proj -> inception_3a/pool_proj
I0403 19:41:29.274233 25567 net.cpp:141] Setting up inception_3a/pool_proj
I0403 19:41:29.274281 25567 net.cpp:148] Top shape: 24 32 28 28 (602112)
I0403 19:41:29.274302 25567 net.cpp:156] Memory required for data: 558760992
I0403 19:41:29.274327 25567 layer_factory.hpp:77] Creating layer inception_3a/relu_pool_proj
I0403 19:41:29.274345 25567 net.cpp:91] Creating Layer inception_3a/relu_pool_proj
I0403 19:41:29.274361 25567 net.cpp:425] inception_3a/relu_pool_proj <- inception_3a/pool_proj
I0403 19:41:29.274379 25567 net.cpp:386] inception_3a/relu_pool_proj -> inception_3a/pool_proj (in-place)
I0403 19:41:29.274636 25567 net.cpp:141] Setting up inception_3a/relu_pool_proj
I0403 19:41:29.274668 25567 net.cpp:148] Top shape: 24 32 28 28 (602112)
I0403 19:41:29.274685 25567 net.cpp:156] Memory required for data: 561169440
I0403 19:41:29.274699 25567 layer_factory.hpp:77] Creating layer inception_3a/output
I0403 19:41:29.274719 25567 net.cpp:91] Creating Layer inception_3a/output
I0403 19:41:29.274737 25567 net.cpp:425] inception_3a/output <- inception_3a/1x1
I0403 19:41:29.274755 25567 net.cpp:425] inception_3a/output <- inception_3a/3x3
I0403 19:41:29.274771 25567 net.cpp:425] inception_3a/output <- inception_3a/5x5
I0403 19:41:29.274791 25567 net.cpp:425] inception_3a/output <- inception_3a/pool_proj
I0403 19:41:29.274807 25567 net.cpp:399] inception_3a/output -> inception_3a/output
I0403 19:41:29.274855 25567 net.cpp:141] Setting up inception_3a/output
I0403 19:41:29.274883 25567 net.cpp:148] Top shape: 24 256 28 28 (4816896)
I0403 19:41:29.274899 25567 net.cpp:156] Memory required for data: 580437024
I0403 19:41:29.274914 25567 layer_factory.hpp:77] Creating layer inception_3a/output_inception_3a/output_0_split
I0403 19:41:29.274933 25567 net.cpp:91] Creating Layer inception_3a/output_inception_3a/output_0_split
I0403 19:41:29.274947 25567 net.cpp:425] inception_3a/output_inception_3a/output_0_split <- inception_3a/output
I0403 19:41:29.274966 25567 net.cpp:399] inception_3a/output_inception_3a/output_0_split -> inception_3a/output_inception_3a/output_0_split_0
I0403 19:41:29.274984 25567 net.cpp:399] inception_3a/output_inception_3a/output_0_split -> inception_3a/output_inception_3a/output_0_split_1
I0403 19:41:29.275008 25567 net.cpp:399] inception_3a/output_inception_3a/output_0_split -> inception_3a/output_inception_3a/output_0_split_2
I0403 19:41:29.275032 25567 net.cpp:399] inception_3a/output_inception_3a/output_0_split -> inception_3a/output_inception_3a/output_0_split_3
I0403 19:41:29.275105 25567 net.cpp:141] Setting up inception_3a/output_inception_3a/output_0_split
I0403 19:41:29.275135 25567 net.cpp:148] Top shape: 24 256 28 28 (4816896)
I0403 19:41:29.275151 25567 net.cpp:148] Top shape: 24 256 28 28 (4816896)
I0403 19:41:29.275167 25567 net.cpp:148] Top shape: 24 256 28 28 (4816896)
I0403 19:41:29.275183 25567 net.cpp:148] Top shape: 24 256 28 28 (4816896)
I0403 19:41:29.275198 25567 net.cpp:156] Memory required for data: 657507360
I0403 19:41:29.275214 25567 layer_factory.hpp:77] Creating layer inception_3b/1x1
I0403 19:41:29.275238 25567 net.cpp:91] Creating Layer inception_3b/1x1
I0403 19:41:29.275279 25567 net.cpp:425] inception_3b/1x1 <- inception_3a/output_inception_3a/output_0_split_0
I0403 19:41:29.275302 25567 net.cpp:399] inception_3b/1x1 -> inception_3b/1x1
I0403 19:41:29.276429 25567 net.cpp:141] Setting up inception_3b/1x1
I0403 19:41:29.276473 25567 net.cpp:148] Top shape: 24 128 28 28 (2408448)
I0403 19:41:29.276491 25567 net.cpp:156] Memory required for data: 667141152
I0403 19:41:29.276511 25567 layer_factory.hpp:77] Creating layer inception_3b/relu_1x1
I0403 19:41:29.276531 25567 net.cpp:91] Creating Layer inception_3b/relu_1x1
I0403 19:41:29.276549 25567 net.cpp:425] inception_3b/relu_1x1 <- inception_3b/1x1
I0403 19:41:29.276569 25567 net.cpp:386] inception_3b/relu_1x1 -> inception_3b/1x1 (in-place)
I0403 19:41:29.276743 25567 net.cpp:141] Setting up inception_3b/relu_1x1
I0403 19:41:29.276772 25567 net.cpp:148] Top shape: 24 128 28 28 (2408448)
I0403 19:41:29.276787 25567 net.cpp:156] Memory required for data: 676774944
I0403 19:41:29.276803 25567 layer_factory.hpp:77] Creating layer inception_3b/3x3_reduce
I0403 19:41:29.276825 25567 net.cpp:91] Creating Layer inception_3b/3x3_reduce
I0403 19:41:29.276846 25567 net.cpp:425] inception_3b/3x3_reduce <- inception_3a/output_inception_3a/output_0_split_1
I0403 19:41:29.276870 25567 net.cpp:399] inception_3b/3x3_reduce -> inception_3b/3x3_reduce
I0403 19:41:29.277978 25567 net.cpp:141] Setting up inception_3b/3x3_reduce
I0403 19:41:29.278012 25567 net.cpp:148] Top shape: 24 128 28 28 (2408448)
I0403 19:41:29.278028 25567 net.cpp:156] Memory required for data: 686408736
I0403 19:41:29.278046 25567 layer_factory.hpp:77] Creating layer inception_3b/relu_3x3_reduce
I0403 19:41:29.278069 25567 net.cpp:91] Creating Layer inception_3b/relu_3x3_reduce
I0403 19:41:29.278090 25567 net.cpp:425] inception_3b/relu_3x3_reduce <- inception_3b/3x3_reduce
I0403 19:41:29.278108 25567 net.cpp:386] inception_3b/relu_3x3_reduce -> inception_3b/3x3_reduce (in-place)
I0403 19:41:29.278280 25567 net.cpp:141] Setting up inception_3b/relu_3x3_reduce
I0403 19:41:29.278306 25567 net.cpp:148] Top shape: 24 128 28 28 (2408448)
I0403 19:41:29.278322 25567 net.cpp:156] Memory required for data: 696042528
I0403 19:41:29.278337 25567 layer_factory.hpp:77] Creating layer inception_3b/3x3
I0403 19:41:29.278364 25567 net.cpp:91] Creating Layer inception_3b/3x3
I0403 19:41:29.278383 25567 net.cpp:425] inception_3b/3x3 <- inception_3b/3x3_reduce
I0403 19:41:29.278403 25567 net.cpp:399] inception_3b/3x3 -> inception_3b/3x3
I0403 19:41:29.281261 25567 net.cpp:141] Setting up inception_3b/3x3
I0403 19:41:29.281296 25567 net.cpp:148] Top shape: 24 192 28 28 (3612672)
I0403 19:41:29.281313 25567 net.cpp:156] Memory required for data: 710493216
I0403 19:41:29.281333 25567 layer_factory.hpp:77] Creating layer inception_3b/relu_3x3
I0403 19:41:29.281354 25567 net.cpp:91] Creating Layer inception_3b/relu_3x3
I0403 19:41:29.281375 25567 net.cpp:425] inception_3b/relu_3x3 <- inception_3b/3x3
I0403 19:41:29.281394 25567 net.cpp:386] inception_3b/relu_3x3 -> inception_3b/3x3 (in-place)
I0403 19:41:29.281661 25567 net.cpp:141] Setting up inception_3b/relu_3x3
I0403 19:41:29.281688 25567 net.cpp:148] Top shape: 24 192 28 28 (3612672)
I0403 19:41:29.281705 25567 net.cpp:156] Memory required for data: 724943904
I0403 19:41:29.281720 25567 layer_factory.hpp:77] Creating layer inception_3b/5x5_reduce
I0403 19:41:29.281745 25567 net.cpp:91] Creating Layer inception_3b/5x5_reduce
I0403 19:41:29.281764 25567 net.cpp:425] inception_3b/5x5_reduce <- inception_3a/output_inception_3a/output_0_split_2
I0403 19:41:29.281787 25567 net.cpp:399] inception_3b/5x5_reduce -> inception_3b/5x5_reduce
I0403 19:41:29.282742 25567 net.cpp:141] Setting up inception_3b/5x5_reduce
I0403 19:41:29.282775 25567 net.cpp:148] Top shape: 24 32 28 28 (602112)
I0403 19:41:29.282793 25567 net.cpp:156] Memory required for data: 727352352
I0403 19:41:29.282814 25567 layer_factory.hpp:77] Creating layer inception_3b/relu_5x5_reduce
I0403 19:41:29.282834 25567 net.cpp:91] Creating Layer inception_3b/relu_5x5_reduce
I0403 19:41:29.282851 25567 net.cpp:425] inception_3b/relu_5x5_reduce <- inception_3b/5x5_reduce
I0403 19:41:29.282871 25567 net.cpp:386] inception_3b/relu_5x5_reduce -> inception_3b/5x5_reduce (in-place)
I0403 19:41:29.283056 25567 net.cpp:141] Setting up inception_3b/relu_5x5_reduce
I0403 19:41:29.283087 25567 net.cpp:148] Top shape: 24 32 28 28 (602112)
I0403 19:41:29.283103 25567 net.cpp:156] Memory required for data: 729760800
I0403 19:41:29.283119 25567 layer_factory.hpp:77] Creating layer inception_3b/5x5
I0403 19:41:29.283145 25567 net.cpp:91] Creating Layer inception_3b/5x5
I0403 19:41:29.283164 25567 net.cpp:425] inception_3b/5x5 <- inception_3b/5x5_reduce
I0403 19:41:29.283185 25567 net.cpp:399] inception_3b/5x5 -> inception_3b/5x5
I0403 19:41:29.285140 25567 net.cpp:141] Setting up inception_3b/5x5
I0403 19:41:29.285171 25567 net.cpp:148] Top shape: 24 96 28 28 (1806336)
I0403 19:41:29.285189 25567 net.cpp:156] Memory required for data: 736986144
I0403 19:41:29.285209 25567 layer_factory.hpp:77] Creating layer inception_3b/relu_5x5
I0403 19:41:29.285228 25567 net.cpp:91] Creating Layer inception_3b/relu_5x5
I0403 19:41:29.285282 25567 net.cpp:425] inception_3b/relu_5x5 <- inception_3b/5x5
I0403 19:41:29.285302 25567 net.cpp:386] inception_3b/relu_5x5 -> inception_3b/5x5 (in-place)
I0403 19:41:29.285492 25567 net.cpp:141] Setting up inception_3b/relu_5x5
I0403 19:41:29.285537 25567 net.cpp:148] Top shape: 24 96 28 28 (1806336)
I0403 19:41:29.285553 25567 net.cpp:156] Memory required for data: 744211488
I0403 19:41:29.285569 25567 layer_factory.hpp:77] Creating layer inception_3b/pool
I0403 19:41:29.285588 25567 net.cpp:91] Creating Layer inception_3b/pool
I0403 19:41:29.285605 25567 net.cpp:425] inception_3b/pool <- inception_3a/output_inception_3a/output_0_split_3
I0403 19:41:29.285624 25567 net.cpp:399] inception_3b/pool -> inception_3b/pool
I0403 19:41:29.285682 25567 net.cpp:141] Setting up inception_3b/pool
I0403 19:41:29.285713 25567 net.cpp:148] Top shape: 24 256 28 28 (4816896)
I0403 19:41:29.285729 25567 net.cpp:156] Memory required for data: 763479072
I0403 19:41:29.285745 25567 layer_factory.hpp:77] Creating layer inception_3b/pool_proj
I0403 19:41:29.285768 25567 net.cpp:91] Creating Layer inception_3b/pool_proj
I0403 19:41:29.285787 25567 net.cpp:425] inception_3b/pool_proj <- inception_3b/pool
I0403 19:41:29.285809 25567 net.cpp:399] inception_3b/pool_proj -> inception_3b/pool_proj
I0403 19:41:29.286826 25567 net.cpp:141] Setting up inception_3b/pool_proj
I0403 19:41:29.286860 25567 net.cpp:148] Top shape: 24 64 28 28 (1204224)
I0403 19:41:29.286881 25567 net.cpp:156] Memory required for data: 768295968
I0403 19:41:29.286900 25567 layer_factory.hpp:77] Creating layer inception_3b/relu_pool_proj
I0403 19:41:29.286918 25567 net.cpp:91] Creating Layer inception_3b/relu_pool_proj
I0403 19:41:29.286934 25567 net.cpp:425] inception_3b/relu_pool_proj <- inception_3b/pool_proj
I0403 19:41:29.286957 25567 net.cpp:386] inception_3b/relu_pool_proj -> inception_3b/pool_proj (in-place)
I0403 19:41:29.287336 25567 net.cpp:141] Setting up inception_3b/relu_pool_proj
I0403 19:41:29.287372 25567 net.cpp:148] Top shape: 24 64 28 28 (1204224)
I0403 19:41:29.287391 25567 net.cpp:156] Memory required for data: 773112864
I0403 19:41:29.287405 25567 layer_factory.hpp:77] Creating layer inception_3b/output
I0403 19:41:29.287425 25567 net.cpp:91] Creating Layer inception_3b/output
I0403 19:41:29.287441 25567 net.cpp:425] inception_3b/output <- inception_3b/1x1
I0403 19:41:29.287459 25567 net.cpp:425] inception_3b/output <- inception_3b/3x3
I0403 19:41:29.287478 25567 net.cpp:425] inception_3b/output <- inception_3b/5x5
I0403 19:41:29.287494 25567 net.cpp:425] inception_3b/output <- inception_3b/pool_proj
I0403 19:41:29.287511 25567 net.cpp:399] inception_3b/output -> inception_3b/output
I0403 19:41:29.287559 25567 net.cpp:141] Setting up inception_3b/output
I0403 19:41:29.287588 25567 net.cpp:148] Top shape: 24 480 28 28 (9031680)
I0403 19:41:29.287606 25567 net.cpp:156] Memory required for data: 809239584
I0403 19:41:29.287633 25567 layer_factory.hpp:77] Creating layer pool3/3x3_s2
I0403 19:41:29.287655 25567 net.cpp:91] Creating Layer pool3/3x3_s2
I0403 19:41:29.287673 25567 net.cpp:425] pool3/3x3_s2 <- inception_3b/output
I0403 19:41:29.287711 25567 net.cpp:399] pool3/3x3_s2 -> pool3/3x3_s2
I0403 19:41:29.287771 25567 net.cpp:141] Setting up pool3/3x3_s2
I0403 19:41:29.287801 25567 net.cpp:148] Top shape: 24 480 14 14 (2257920)
I0403 19:41:29.287817 25567 net.cpp:156] Memory required for data: 818271264
I0403 19:41:29.287832 25567 layer_factory.hpp:77] Creating layer pool3/3x3_s2_pool3/3x3_s2_0_split
I0403 19:41:29.287850 25567 net.cpp:91] Creating Layer pool3/3x3_s2_pool3/3x3_s2_0_split
I0403 19:41:29.287866 25567 net.cpp:425] pool3/3x3_s2_pool3/3x3_s2_0_split <- pool3/3x3_s2
I0403 19:41:29.287886 25567 net.cpp:399] pool3/3x3_s2_pool3/3x3_s2_0_split -> pool3/3x3_s2_pool3/3x3_s2_0_split_0
I0403 19:41:29.287909 25567 net.cpp:399] pool3/3x3_s2_pool3/3x3_s2_0_split -> pool3/3x3_s2_pool3/3x3_s2_0_split_1
I0403 19:41:29.287932 25567 net.cpp:399] pool3/3x3_s2_pool3/3x3_s2_0_split -> pool3/3x3_s2_pool3/3x3_s2_0_split_2
I0403 19:41:29.287953 25567 net.cpp:399] pool3/3x3_s2_pool3/3x3_s2_0_split -> pool3/3x3_s2_pool3/3x3_s2_0_split_3
I0403 19:41:29.288029 25567 net.cpp:141] Setting up pool3/3x3_s2_pool3/3x3_s2_0_split
I0403 19:41:29.288061 25567 net.cpp:148] Top shape: 24 480 14 14 (2257920)
I0403 19:41:29.288079 25567 net.cpp:148] Top shape: 24 480 14 14 (2257920)
I0403 19:41:29.288096 25567 net.cpp:148] Top shape: 24 480 14 14 (2257920)
I0403 19:41:29.288111 25567 net.cpp:148] Top shape: 24 480 14 14 (2257920)
I0403 19:41:29.288127 25567 net.cpp:156] Memory required for data: 854397984
I0403 19:41:29.288143 25567 layer_factory.hpp:77] Creating layer inception_4a/1x1
I0403 19:41:29.288164 25567 net.cpp:91] Creating Layer inception_4a/1x1
I0403 19:41:29.288185 25567 net.cpp:425] inception_4a/1x1 <- pool3/3x3_s2_pool3/3x3_s2_0_split_0
I0403 19:41:29.288205 25567 net.cpp:399] inception_4a/1x1 -> inception_4a/1x1
I0403 19:41:29.289726 25567 net.cpp:141] Setting up inception_4a/1x1
I0403 19:41:29.289762 25567 net.cpp:148] Top shape: 24 192 14 14 (903168)
I0403 19:41:29.289780 25567 net.cpp:156] Memory required for data: 858010656
I0403 19:41:29.289800 25567 layer_factory.hpp:77] Creating layer inception_4a/relu_1x1
I0403 19:41:29.289819 25567 net.cpp:91] Creating Layer inception_4a/relu_1x1
I0403 19:41:29.289836 25567 net.cpp:425] inception_4a/relu_1x1 <- inception_4a/1x1
I0403 19:41:29.289858 25567 net.cpp:386] inception_4a/relu_1x1 -> inception_4a/1x1 (in-place)
I0403 19:41:29.290035 25567 net.cpp:141] Setting up inception_4a/relu_1x1
I0403 19:41:29.290066 25567 net.cpp:148] Top shape: 24 192 14 14 (903168)
I0403 19:41:29.290081 25567 net.cpp:156] Memory required for data: 861623328
I0403 19:41:29.290096 25567 layer_factory.hpp:77] Creating layer inception_4a/3x3_reduce
I0403 19:41:29.290119 25567 net.cpp:91] Creating Layer inception_4a/3x3_reduce
I0403 19:41:29.290138 25567 net.cpp:425] inception_4a/3x3_reduce <- pool3/3x3_s2_pool3/3x3_s2_0_split_1
I0403 19:41:29.290160 25567 net.cpp:399] inception_4a/3x3_reduce -> inception_4a/3x3_reduce
I0403 19:41:29.291414 25567 net.cpp:141] Setting up inception_4a/3x3_reduce
I0403 19:41:29.291450 25567 net.cpp:148] Top shape: 24 96 14 14 (451584)
I0403 19:41:29.291471 25567 net.cpp:156] Memory required for data: 863429664
I0403 19:41:29.291494 25567 layer_factory.hpp:77] Creating layer inception_4a/relu_3x3_reduce
I0403 19:41:29.291517 25567 net.cpp:91] Creating Layer inception_4a/relu_3x3_reduce
I0403 19:41:29.291537 25567 net.cpp:425] inception_4a/relu_3x3_reduce <- inception_4a/3x3_reduce
I0403 19:41:29.291556 25567 net.cpp:386] inception_4a/relu_3x3_reduce -> inception_4a/3x3_reduce (in-place)
I0403 19:41:29.291745 25567 net.cpp:141] Setting up inception_4a/relu_3x3_reduce
I0403 19:41:29.291776 25567 net.cpp:148] Top shape: 24 96 14 14 (451584)
I0403 19:41:29.291792 25567 net.cpp:156] Memory required for data: 865236000
I0403 19:41:29.291807 25567 layer_factory.hpp:77] Creating layer inception_4a/3x3
I0403 19:41:29.291831 25567 net.cpp:91] Creating Layer inception_4a/3x3
I0403 19:41:29.291851 25567 net.cpp:425] inception_4a/3x3 <- inception_4a/3x3_reduce
I0403 19:41:29.291872 25567 net.cpp:399] inception_4a/3x3 -> inception_4a/3x3
I0403 19:41:29.294484 25567 net.cpp:141] Setting up inception_4a/3x3
I0403 19:41:29.294517 25567 net.cpp:148] Top shape: 24 208 14 14 (978432)
I0403 19:41:29.294533 25567 net.cpp:156] Memory required for data: 869149728
I0403 19:41:29.294551 25567 layer_factory.hpp:77] Creating layer inception_4a/relu_3x3
I0403 19:41:29.294574 25567 net.cpp:91] Creating Layer inception_4a/relu_3x3
I0403 19:41:29.294592 25567 net.cpp:425] inception_4a/relu_3x3 <- inception_4a/3x3
I0403 19:41:29.294610 25567 net.cpp:386] inception_4a/relu_3x3 -> inception_4a/3x3 (in-place)
I0403 19:41:29.294878 25567 net.cpp:141] Setting up inception_4a/relu_3x3
I0403 19:41:29.294909 25567 net.cpp:148] Top shape: 24 208 14 14 (978432)
I0403 19:41:29.294925 25567 net.cpp:156] Memory required for data: 873063456
I0403 19:41:29.294940 25567 layer_factory.hpp:77] Creating layer inception_4a/5x5_reduce
I0403 19:41:29.294965 25567 net.cpp:91] Creating Layer inception_4a/5x5_reduce
I0403 19:41:29.294984 25567 net.cpp:425] inception_4a/5x5_reduce <- pool3/3x3_s2_pool3/3x3_s2_0_split_2
I0403 19:41:29.295007 25567 net.cpp:399] inception_4a/5x5_reduce -> inception_4a/5x5_reduce
I0403 19:41:29.295972 25567 net.cpp:141] Setting up inception_4a/5x5_reduce
I0403 19:41:29.296005 25567 net.cpp:148] Top shape: 24 16 14 14 (75264)
I0403 19:41:29.296020 25567 net.cpp:156] Memory required for data: 873364512
I0403 19:41:29.296041 25567 layer_factory.hpp:77] Creating layer inception_4a/relu_5x5_reduce
I0403 19:41:29.296059 25567 net.cpp:91] Creating Layer inception_4a/relu_5x5_reduce
I0403 19:41:29.296077 25567 net.cpp:425] inception_4a/relu_5x5_reduce <- inception_4a/5x5_reduce
I0403 19:41:29.296092 25567 net.cpp:386] inception_4a/relu_5x5_reduce -> inception_4a/5x5_reduce (in-place)
I0403 19:41:29.296267 25567 net.cpp:141] Setting up inception_4a/relu_5x5_reduce
I0403 19:41:29.296298 25567 net.cpp:148] Top shape: 24 16 14 14 (75264)
I0403 19:41:29.296314 25567 net.cpp:156] Memory required for data: 873665568
I0403 19:41:29.296329 25567 layer_factory.hpp:77] Creating layer inception_4a/5x5
I0403 19:41:29.296355 25567 net.cpp:91] Creating Layer inception_4a/5x5
I0403 19:41:29.296375 25567 net.cpp:425] inception_4a/5x5 <- inception_4a/5x5_reduce
I0403 19:41:29.296393 25567 net.cpp:399] inception_4a/5x5 -> inception_4a/5x5
I0403 19:41:29.297426 25567 net.cpp:141] Setting up inception_4a/5x5
I0403 19:41:29.297461 25567 net.cpp:148] Top shape: 24 48 14 14 (225792)
I0403 19:41:29.297479 25567 net.cpp:156] Memory required for data: 874568736
I0403 19:41:29.297499 25567 layer_factory.hpp:77] Creating layer inception_4a/relu_5x5
I0403 19:41:29.297519 25567 net.cpp:91] Creating Layer inception_4a/relu_5x5
I0403 19:41:29.297535 25567 net.cpp:425] inception_4a/relu_5x5 <- inception_4a/5x5
I0403 19:41:29.297554 25567 net.cpp:386] inception_4a/relu_5x5 -> inception_4a/5x5 (in-place)
I0403 19:41:29.297724 25567 net.cpp:141] Setting up inception_4a/relu_5x5
I0403 19:41:29.297756 25567 net.cpp:148] Top shape: 24 48 14 14 (225792)
I0403 19:41:29.297775 25567 net.cpp:156] Memory required for data: 875471904
I0403 19:41:29.297791 25567 layer_factory.hpp:77] Creating layer inception_4a/pool
I0403 19:41:29.297809 25567 net.cpp:91] Creating Layer inception_4a/pool
I0403 19:41:29.297827 25567 net.cpp:425] inception_4a/pool <- pool3/3x3_s2_pool3/3x3_s2_0_split_3
I0403 19:41:29.297847 25567 net.cpp:399] inception_4a/pool -> inception_4a/pool
I0403 19:41:29.297906 25567 net.cpp:141] Setting up inception_4a/pool
I0403 19:41:29.297937 25567 net.cpp:148] Top shape: 24 480 14 14 (2257920)
I0403 19:41:29.297955 25567 net.cpp:156] Memory required for data: 884503584
I0403 19:41:29.297969 25567 layer_factory.hpp:77] Creating layer inception_4a/pool_proj
I0403 19:41:29.297992 25567 net.cpp:91] Creating Layer inception_4a/pool_proj
I0403 19:41:29.298012 25567 net.cpp:425] inception_4a/pool_proj <- inception_4a/pool
I0403 19:41:29.298032 25567 net.cpp:399] inception_4a/pool_proj -> inception_4a/pool_proj
I0403 19:41:29.299125 25567 net.cpp:141] Setting up inception_4a/pool_proj
I0403 19:41:29.299161 25567 net.cpp:148] Top shape: 24 64 14 14 (301056)
I0403 19:41:29.299196 25567 net.cpp:156] Memory required for data: 885707808
I0403 19:41:29.299216 25567 layer_factory.hpp:77] Creating layer inception_4a/relu_pool_proj
I0403 19:41:29.299237 25567 net.cpp:91] Creating Layer inception_4a/relu_pool_proj
I0403 19:41:29.299252 25567 net.cpp:425] inception_4a/relu_pool_proj <- inception_4a/pool_proj
I0403 19:41:29.299283 25567 net.cpp:386] inception_4a/relu_pool_proj -> inception_4a/pool_proj (in-place)
I0403 19:41:29.299568 25567 net.cpp:141] Setting up inception_4a/relu_pool_proj
I0403 19:41:29.299614 25567 net.cpp:148] Top shape: 24 64 14 14 (301056)
I0403 19:41:29.299631 25567 net.cpp:156] Memory required for data: 886912032
I0403 19:41:29.299646 25567 layer_factory.hpp:77] Creating layer inception_4a/output
I0403 19:41:29.299664 25567 net.cpp:91] Creating Layer inception_4a/output
I0403 19:41:29.299682 25567 net.cpp:425] inception_4a/output <- inception_4a/1x1
I0403 19:41:29.299700 25567 net.cpp:425] inception_4a/output <- inception_4a/3x3
I0403 19:41:29.299716 25567 net.cpp:425] inception_4a/output <- inception_4a/5x5
I0403 19:41:29.299732 25567 net.cpp:425] inception_4a/output <- inception_4a/pool_proj
I0403 19:41:29.299749 25567 net.cpp:399] inception_4a/output -> inception_4a/output
I0403 19:41:29.299794 25567 net.cpp:141] Setting up inception_4a/output
I0403 19:41:29.299823 25567 net.cpp:148] Top shape: 24 512 14 14 (2408448)
I0403 19:41:29.299840 25567 net.cpp:156] Memory required for data: 896545824
I0403 19:41:29.299856 25567 layer_factory.hpp:77] Creating layer inception_4a/output_inception_4a/output_0_split
I0403 19:41:29.299876 25567 net.cpp:91] Creating Layer inception_4a/output_inception_4a/output_0_split
I0403 19:41:29.299893 25567 net.cpp:425] inception_4a/output_inception_4a/output_0_split <- inception_4a/output
I0403 19:41:29.299911 25567 net.cpp:399] inception_4a/output_inception_4a/output_0_split -> inception_4a/output_inception_4a/output_0_split_0
I0403 19:41:29.299932 25567 net.cpp:399] inception_4a/output_inception_4a/output_0_split -> inception_4a/output_inception_4a/output_0_split_1
I0403 19:41:29.299955 25567 net.cpp:399] inception_4a/output_inception_4a/output_0_split -> inception_4a/output_inception_4a/output_0_split_2
I0403 19:41:29.299979 25567 net.cpp:399] inception_4a/output_inception_4a/output_0_split -> inception_4a/output_inception_4a/output_0_split_3
I0403 19:41:29.300003 25567 net.cpp:399] inception_4a/output_inception_4a/output_0_split -> inception_4a/output_inception_4a/output_0_split_4
I0403 19:41:29.300092 25567 net.cpp:141] Setting up inception_4a/output_inception_4a/output_0_split
I0403 19:41:29.300119 25567 net.cpp:148] Top shape: 24 512 14 14 (2408448)
I0403 19:41:29.300137 25567 net.cpp:148] Top shape: 24 512 14 14 (2408448)
I0403 19:41:29.300154 25567 net.cpp:148] Top shape: 24 512 14 14 (2408448)
I0403 19:41:29.300171 25567 net.cpp:148] Top shape: 24 512 14 14 (2408448)
I0403 19:41:29.300187 25567 net.cpp:148] Top shape: 24 512 14 14 (2408448)
I0403 19:41:29.300200 25567 net.cpp:156] Memory required for data: 944714784
I0403 19:41:29.300215 25567 layer_factory.hpp:77] Creating layer loss1/ave_pool
I0403 19:41:29.300235 25567 net.cpp:91] Creating Layer loss1/ave_pool
I0403 19:41:29.300259 25567 net.cpp:425] loss1/ave_pool <- inception_4a/output_inception_4a/output_0_split_0
I0403 19:41:29.300279 25567 net.cpp:399] loss1/ave_pool -> loss1/ave_pool
I0403 19:41:29.300483 25567 net.cpp:141] Setting up loss1/ave_pool
I0403 19:41:29.300513 25567 net.cpp:148] Top shape: 24 512 4 4 (196608)
I0403 19:41:29.300529 25567 net.cpp:156] Memory required for data: 945501216
I0403 19:41:29.300544 25567 layer_factory.hpp:77] Creating layer loss1/conv
I0403 19:41:29.300570 25567 net.cpp:91] Creating Layer loss1/conv
I0403 19:41:29.300592 25567 net.cpp:425] loss1/conv <- loss1/ave_pool
I0403 19:41:29.300611 25567 net.cpp:399] loss1/conv -> loss1/conv
I0403 19:41:29.301933 25567 net.cpp:141] Setting up loss1/conv
I0403 19:41:29.301964 25567 net.cpp:148] Top shape: 24 128 4 4 (49152)
I0403 19:41:29.301995 25567 net.cpp:156] Memory required for data: 945697824
I0403 19:41:29.302016 25567 layer_factory.hpp:77] Creating layer loss1/relu_conv
I0403 19:41:29.302042 25567 net.cpp:91] Creating Layer loss1/relu_conv
I0403 19:41:29.302060 25567 net.cpp:425] loss1/relu_conv <- loss1/conv
I0403 19:41:29.302078 25567 net.cpp:386] loss1/relu_conv -> loss1/conv (in-place)
I0403 19:41:29.302353 25567 net.cpp:141] Setting up loss1/relu_conv
I0403 19:41:29.302383 25567 net.cpp:148] Top shape: 24 128 4 4 (49152)
I0403 19:41:29.302399 25567 net.cpp:156] Memory required for data: 945894432
I0403 19:41:29.302415 25567 layer_factory.hpp:77] Creating layer loss1/fc
I0403 19:41:29.302443 25567 net.cpp:91] Creating Layer loss1/fc
I0403 19:41:29.302462 25567 net.cpp:425] loss1/fc <- loss1/conv
I0403 19:41:29.302481 25567 net.cpp:399] loss1/fc -> loss1/fc
I0403 19:41:29.319541 25567 net.cpp:141] Setting up loss1/fc
I0403 19:41:29.319578 25567 net.cpp:148] Top shape: 24 1024 (24576)
I0403 19:41:29.319594 25567 net.cpp:156] Memory required for data: 945992736
I0403 19:41:29.319615 25567 layer_factory.hpp:77] Creating layer loss1/relu_fc
I0403 19:41:29.319633 25567 net.cpp:91] Creating Layer loss1/relu_fc
I0403 19:41:29.319650 25567 net.cpp:425] loss1/relu_fc <- loss1/fc
I0403 19:41:29.319670 25567 net.cpp:386] loss1/relu_fc -> loss1/fc (in-place)
I0403 19:41:29.319847 25567 net.cpp:141] Setting up loss1/relu_fc
I0403 19:41:29.319875 25567 net.cpp:148] Top shape: 24 1024 (24576)
I0403 19:41:29.319891 25567 net.cpp:156] Memory required for data: 946091040
I0403 19:41:29.319907 25567 layer_factory.hpp:77] Creating layer loss1/drop_fc
I0403 19:41:29.319934 25567 net.cpp:91] Creating Layer loss1/drop_fc
I0403 19:41:29.319953 25567 net.cpp:425] loss1/drop_fc <- loss1/fc
I0403 19:41:29.319977 25567 net.cpp:386] loss1/drop_fc -> loss1/fc (in-place)
I0403 19:41:29.320030 25567 net.cpp:141] Setting up loss1/drop_fc
I0403 19:41:29.320056 25567 net.cpp:148] Top shape: 24 1024 (24576)
I0403 19:41:29.320072 25567 net.cpp:156] Memory required for data: 946189344
I0403 19:41:29.320089 25567 layer_factory.hpp:77] Creating layer loss1/classifier_plantvillage
I0403 19:41:29.320112 25567 net.cpp:91] Creating Layer loss1/classifier_plantvillage
I0403 19:41:29.320130 25567 net.cpp:425] loss1/classifier_plantvillage <- loss1/fc
I0403 19:41:29.320152 25567 net.cpp:399] loss1/classifier_plantvillage -> loss1/classifier_plantvillage
I0403 19:41:29.321028 25567 net.cpp:141] Setting up loss1/classifier_plantvillage
I0403 19:41:29.321060 25567 net.cpp:148] Top shape: 24 38 (912)
I0403 19:41:29.321079 25567 net.cpp:156] Memory required for data: 946192992
I0403 19:41:29.321096 25567 layer_factory.hpp:77] Creating layer loss1/classifier_plantvillage_loss1/classifier_plantvillage_0_split
I0403 19:41:29.321115 25567 net.cpp:91] Creating Layer loss1/classifier_plantvillage_loss1/classifier_plantvillage_0_split
I0403 19:41:29.321132 25567 net.cpp:425] loss1/classifier_plantvillage_loss1/classifier_plantvillage_0_split <- loss1/classifier_plantvillage
I0403 19:41:29.321153 25567 net.cpp:399] loss1/classifier_plantvillage_loss1/classifier_plantvillage_0_split -> loss1/classifier_plantvillage_loss1/classifier_plantvillage_0_split_0
I0403 19:41:29.321177 25567 net.cpp:399] loss1/classifier_plantvillage_loss1/classifier_plantvillage_0_split -> loss1/classifier_plantvillage_loss1/classifier_plantvillage_0_split_1
I0403 19:41:29.321200 25567 net.cpp:399] loss1/classifier_plantvillage_loss1/classifier_plantvillage_0_split -> loss1/classifier_plantvillage_loss1/classifier_plantvillage_0_split_2
I0403 19:41:29.321285 25567 net.cpp:141] Setting up loss1/classifier_plantvillage_loss1/classifier_plantvillage_0_split
I0403 19:41:29.321313 25567 net.cpp:148] Top shape: 24 38 (912)
I0403 19:41:29.321343 25567 net.cpp:148] Top shape: 24 38 (912)
I0403 19:41:29.321359 25567 net.cpp:148] Top shape: 24 38 (912)
I0403 19:41:29.321375 25567 net.cpp:156] Memory required for data: 946203936
I0403 19:41:29.321390 25567 layer_factory.hpp:77] Creating layer inception_4b/1x1
I0403 19:41:29.321411 25567 net.cpp:91] Creating Layer inception_4b/1x1
I0403 19:41:29.321446 25567 net.cpp:425] inception_4b/1x1 <- inception_4a/output_inception_4a/output_0_split_1
I0403 19:41:29.321468 25567 net.cpp:399] inception_4b/1x1 -> inception_4b/1x1
I0403 19:41:29.323094 25567 net.cpp:141] Setting up inception_4b/1x1
I0403 19:41:29.323124 25567 net.cpp:148] Top shape: 24 160 14 14 (752640)
I0403 19:41:29.323143 25567 net.cpp:156] Memory required for data: 949214496
I0403 19:41:29.323163 25567 layer_factory.hpp:77] Creating layer inception_4b/relu_1x1
I0403 19:41:29.323184 25567 net.cpp:91] Creating Layer inception_4b/relu_1x1
I0403 19:41:29.323202 25567 net.cpp:425] inception_4b/relu_1x1 <- inception_4b/1x1
I0403 19:41:29.323220 25567 net.cpp:386] inception_4b/relu_1x1 -> inception_4b/1x1 (in-place)
I0403 19:41:29.323400 25567 net.cpp:141] Setting up inception_4b/relu_1x1
I0403 19:41:29.323428 25567 net.cpp:148] Top shape: 24 160 14 14 (752640)
I0403 19:41:29.323446 25567 net.cpp:156] Memory required for data: 952225056
I0403 19:41:29.323462 25567 layer_factory.hpp:77] Creating layer inception_4b/3x3_reduce
I0403 19:41:29.323487 25567 net.cpp:91] Creating Layer inception_4b/3x3_reduce
I0403 19:41:29.323506 25567 net.cpp:425] inception_4b/3x3_reduce <- inception_4a/output_inception_4a/output_0_split_2
I0403 19:41:29.323525 25567 net.cpp:399] inception_4b/3x3_reduce -> inception_4b/3x3_reduce
I0403 19:41:29.324856 25567 net.cpp:141] Setting up inception_4b/3x3_reduce
I0403 19:41:29.324885 25567 net.cpp:148] Top shape: 24 112 14 14 (526848)
I0403 19:41:29.324903 25567 net.cpp:156] Memory required for data: 954332448
I0403 19:41:29.324923 25567 layer_factory.hpp:77] Creating layer inception_4b/relu_3x3_reduce
I0403 19:41:29.324944 25567 net.cpp:91] Creating Layer inception_4b/relu_3x3_reduce
I0403 19:41:29.324965 25567 net.cpp:425] inception_4b/relu_3x3_reduce <- inception_4b/3x3_reduce
I0403 19:41:29.324985 25567 net.cpp:386] inception_4b/relu_3x3_reduce -> inception_4b/3x3_reduce (in-place)
I0403 19:41:29.325268 25567 net.cpp:141] Setting up inception_4b/relu_3x3_reduce
I0403 19:41:29.325296 25567 net.cpp:148] Top shape: 24 112 14 14 (526848)
I0403 19:41:29.325314 25567 net.cpp:156] Memory required for data: 956439840
I0403 19:41:29.325341 25567 layer_factory.hpp:77] Creating layer inception_4b/3x3
I0403 19:41:29.325367 25567 net.cpp:91] Creating Layer inception_4b/3x3
I0403 19:41:29.325387 25567 net.cpp:425] inception_4b/3x3 <- inception_4b/3x3_reduce
I0403 19:41:29.325409 25567 net.cpp:399] inception_4b/3x3 -> inception_4b/3x3
I0403 19:41:29.328362 25567 net.cpp:141] Setting up inception_4b/3x3
I0403 19:41:29.328397 25567 net.cpp:148] Top shape: 24 224 14 14 (1053696)
I0403 19:41:29.328416 25567 net.cpp:156] Memory required for data: 960654624
I0403 19:41:29.328436 25567 layer_factory.hpp:77] Creating layer inception_4b/relu_3x3
I0403 19:41:29.328454 25567 net.cpp:91] Creating Layer inception_4b/relu_3x3
I0403 19:41:29.328472 25567 net.cpp:425] inception_4b/relu_3x3 <- inception_4b/3x3
I0403 19:41:29.328493 25567 net.cpp:386] inception_4b/relu_3x3 -> inception_4b/3x3 (in-place)
I0403 19:41:29.328675 25567 net.cpp:141] Setting up inception_4b/relu_3x3
I0403 19:41:29.328706 25567 net.cpp:148] Top shape: 24 224 14 14 (1053696)
I0403 19:41:29.328722 25567 net.cpp:156] Memory required for data: 964869408
I0403 19:41:29.328737 25567 layer_factory.hpp:77] Creating layer inception_4b/5x5_reduce
I0403 19:41:29.328761 25567 net.cpp:91] Creating Layer inception_4b/5x5_reduce
I0403 19:41:29.328783 25567 net.cpp:425] inception_4b/5x5_reduce <- inception_4a/output_inception_4a/output_0_split_3
I0403 19:41:29.328806 25567 net.cpp:399] inception_4b/5x5_reduce -> inception_4b/5x5_reduce
I0403 19:41:29.329892 25567 net.cpp:141] Setting up inception_4b/5x5_reduce
I0403 19:41:29.329922 25567 net.cpp:148] Top shape: 24 24 14 14 (112896)
I0403 19:41:29.329939 25567 net.cpp:156] Memory required for data: 965320992
I0403 19:41:29.329957 25567 layer_factory.hpp:77] Creating layer inception_4b/relu_5x5_reduce
I0403 19:41:29.329979 25567 net.cpp:91] Creating Layer inception_4b/relu_5x5_reduce
I0403 19:41:29.330014 25567 net.cpp:425] inception_4b/relu_5x5_reduce <- inception_4b/5x5_reduce
I0403 19:41:29.330034 25567 net.cpp:386] inception_4b/relu_5x5_reduce -> inception_4b/5x5_reduce (in-place)
I0403 19:41:29.330214 25567 net.cpp:141] Setting up inception_4b/relu_5x5_reduce
I0403 19:41:29.330245 25567 net.cpp:148] Top shape: 24 24 14 14 (112896)
I0403 19:41:29.330267 25567 net.cpp:156] Memory required for data: 965772576
I0403 19:41:29.330286 25567 layer_factory.hpp:77] Creating layer inception_4b/5x5
I0403 19:41:29.330312 25567 net.cpp:91] Creating Layer inception_4b/5x5
I0403 19:41:29.330341 25567 net.cpp:425] inception_4b/5x5 <- inception_4b/5x5_reduce
I0403 19:41:29.330361 25567 net.cpp:399] inception_4b/5x5 -> inception_4b/5x5
I0403 19:41:29.331567 25567 net.cpp:141] Setting up inception_4b/5x5
I0403 19:41:29.331598 25567 net.cpp:148] Top shape: 24 64 14 14 (301056)
I0403 19:41:29.331615 25567 net.cpp:156] Memory required for data: 966976800
I0403 19:41:29.331634 25567 layer_factory.hpp:77] Creating layer inception_4b/relu_5x5
I0403 19:41:29.331655 25567 net.cpp:91] Creating Layer inception_4b/relu_5x5
I0403 19:41:29.331673 25567 net.cpp:425] inception_4b/relu_5x5 <- inception_4b/5x5
I0403 19:41:29.331692 25567 net.cpp:386] inception_4b/relu_5x5 -> inception_4b/5x5 (in-place)
I0403 19:41:29.331969 25567 net.cpp:141] Setting up inception_4b/relu_5x5
I0403 19:41:29.331998 25567 net.cpp:148] Top shape: 24 64 14 14 (301056)
I0403 19:41:29.332015 25567 net.cpp:156] Memory required for data: 968181024
I0403 19:41:29.332031 25567 layer_factory.hpp:77] Creating layer inception_4b/pool
I0403 19:41:29.332052 25567 net.cpp:91] Creating Layer inception_4b/pool
I0403 19:41:29.332070 25567 net.cpp:425] inception_4b/pool <- inception_4a/output_inception_4a/output_0_split_4
I0403 19:41:29.332089 25567 net.cpp:399] inception_4b/pool -> inception_4b/pool
I0403 19:41:29.332154 25567 net.cpp:141] Setting up inception_4b/pool
I0403 19:41:29.332182 25567 net.cpp:148] Top shape: 24 512 14 14 (2408448)
I0403 19:41:29.332198 25567 net.cpp:156] Memory required for data: 977814816
I0403 19:41:29.332216 25567 layer_factory.hpp:77] Creating layer inception_4b/pool_proj
I0403 19:41:29.332238 25567 net.cpp:91] Creating Layer inception_4b/pool_proj
I0403 19:41:29.332263 25567 net.cpp:425] inception_4b/pool_proj <- inception_4b/pool
I0403 19:41:29.332289 25567 net.cpp:399] inception_4b/pool_proj -> inception_4b/pool_proj
I0403 19:41:29.333467 25567 net.cpp:141] Setting up inception_4b/pool_proj
I0403 19:41:29.333498 25567 net.cpp:148] Top shape: 24 64 14 14 (301056)
I0403 19:41:29.333516 25567 net.cpp:156] Memory required for data: 979019040
I0403 19:41:29.333535 25567 layer_factory.hpp:77] Creating layer inception_4b/relu_pool_proj
I0403 19:41:29.333557 25567 net.cpp:91] Creating Layer inception_4b/relu_pool_proj
I0403 19:41:29.333576 25567 net.cpp:425] inception_4b/relu_pool_proj <- inception_4b/pool_proj
I0403 19:41:29.333596 25567 net.cpp:386] inception_4b/relu_pool_proj -> inception_4b/pool_proj (in-place)
I0403 19:41:29.333784 25567 net.cpp:141] Setting up inception_4b/relu_pool_proj
I0403 19:41:29.333817 25567 net.cpp:148] Top shape: 24 64 14 14 (301056)
I0403 19:41:29.333833 25567 net.cpp:156] Memory required for data: 980223264
I0403 19:41:29.333849 25567 layer_factory.hpp:77] Creating layer inception_4b/output
I0403 19:41:29.333869 25567 net.cpp:91] Creating Layer inception_4b/output
I0403 19:41:29.333885 25567 net.cpp:425] inception_4b/output <- inception_4b/1x1
I0403 19:41:29.333904 25567 net.cpp:425] inception_4b/output <- inception_4b/3x3
I0403 19:41:29.333920 25567 net.cpp:425] inception_4b/output <- inception_4b/5x5
I0403 19:41:29.333936 25567 net.cpp:425] inception_4b/output <- inception_4b/pool_proj
I0403 19:41:29.333953 25567 net.cpp:399] inception_4b/output -> inception_4b/output
I0403 19:41:29.333998 25567 net.cpp:141] Setting up inception_4b/output
I0403 19:41:29.334028 25567 net.cpp:148] Top shape: 24 512 14 14 (2408448)
I0403 19:41:29.334043 25567 net.cpp:156] Memory required for data: 989857056
I0403 19:41:29.334075 25567 layer_factory.hpp:77] Creating layer inception_4b/output_inception_4b/output_0_split
I0403 19:41:29.334095 25567 net.cpp:91] Creating Layer inception_4b/output_inception_4b/output_0_split
I0403 19:41:29.334110 25567 net.cpp:425] inception_4b/output_inception_4b/output_0_split <- inception_4b/output
I0403 19:41:29.334130 25567 net.cpp:399] inception_4b/output_inception_4b/output_0_split -> inception_4b/output_inception_4b/output_0_split_0
I0403 19:41:29.334152 25567 net.cpp:399] inception_4b/output_inception_4b/output_0_split -> inception_4b/output_inception_4b/output_0_split_1
I0403 19:41:29.334175 25567 net.cpp:399] inception_4b/output_inception_4b/output_0_split -> inception_4b/output_inception_4b/output_0_split_2
I0403 19:41:29.334200 25567 net.cpp:399] inception_4b/output_inception_4b/output_0_split -> inception_4b/output_inception_4b/output_0_split_3
I0403 19:41:29.334301 25567 net.cpp:141] Setting up inception_4b/output_inception_4b/output_0_split
I0403 19:41:29.334343 25567 net.cpp:148] Top shape: 24 512 14 14 (2408448)
I0403 19:41:29.334362 25567 net.cpp:148] Top shape: 24 512 14 14 (2408448)
I0403 19:41:29.334378 25567 net.cpp:148] Top shape: 24 512 14 14 (2408448)
I0403 19:41:29.334396 25567 net.cpp:148] Top shape: 24 512 14 14 (2408448)
I0403 19:41:29.334413 25567 net.cpp:156] Memory required for data: 1028392224
I0403 19:41:29.334429 25567 layer_factory.hpp:77] Creating layer inception_4c/1x1
I0403 19:41:29.334451 25567 net.cpp:91] Creating Layer inception_4c/1x1
I0403 19:41:29.334470 25567 net.cpp:425] inception_4c/1x1 <- inception_4b/output_inception_4b/output_0_split_0
I0403 19:41:29.334492 25567 net.cpp:399] inception_4c/1x1 -> inception_4c/1x1
I0403 19:41:29.335894 25567 net.cpp:141] Setting up inception_4c/1x1
I0403 19:41:29.335930 25567 net.cpp:148] Top shape: 24 128 14 14 (602112)
I0403 19:41:29.335948 25567 net.cpp:156] Memory required for data: 1030800672
I0403 19:41:29.335968 25567 layer_factory.hpp:77] Creating layer inception_4c/relu_1x1
I0403 19:41:29.335985 25567 net.cpp:91] Creating Layer inception_4c/relu_1x1
I0403 19:41:29.336004 25567 net.cpp:425] inception_4c/relu_1x1 <- inception_4c/1x1
I0403 19:41:29.336026 25567 net.cpp:386] inception_4c/relu_1x1 -> inception_4c/1x1 (in-place)
I0403 19:41:29.336208 25567 net.cpp:141] Setting up inception_4c/relu_1x1
I0403 19:41:29.336236 25567 net.cpp:148] Top shape: 24 128 14 14 (602112)
I0403 19:41:29.336251 25567 net.cpp:156] Memory required for data: 1033209120
I0403 19:41:29.336273 25567 layer_factory.hpp:77] Creating layer inception_4c/3x3_reduce
I0403 19:41:29.336297 25567 net.cpp:91] Creating Layer inception_4c/3x3_reduce
I0403 19:41:29.336318 25567 net.cpp:425] inception_4c/3x3_reduce <- inception_4b/output_inception_4b/output_0_split_1
I0403 19:41:29.336341 25567 net.cpp:399] inception_4c/3x3_reduce -> inception_4c/3x3_reduce
I0403 19:41:29.338281 25567 net.cpp:141] Setting up inception_4c/3x3_reduce
I0403 19:41:29.338313 25567 net.cpp:148] Top shape: 24 128 14 14 (602112)
I0403 19:41:29.338342 25567 net.cpp:156] Memory required for data: 1035617568
I0403 19:41:29.338362 25567 layer_factory.hpp:77] Creating layer inception_4c/relu_3x3_reduce
I0403 19:41:29.338382 25567 net.cpp:91] Creating Layer inception_4c/relu_3x3_reduce
I0403 19:41:29.338400 25567 net.cpp:425] inception_4c/relu_3x3_reduce <- inception_4c/3x3_reduce
I0403 19:41:29.338423 25567 net.cpp:386] inception_4c/relu_3x3_reduce -> inception_4c/3x3_reduce (in-place)
I0403 19:41:29.338726 25567 net.cpp:141] Setting up inception_4c/relu_3x3_reduce
I0403 19:41:29.338757 25567 net.cpp:148] Top shape: 24 128 14 14 (602112)
I0403 19:41:29.338773 25567 net.cpp:156] Memory required for data: 1038026016
I0403 19:41:29.338789 25567 layer_factory.hpp:77] Creating layer inception_4c/3x3
I0403 19:41:29.338814 25567 net.cpp:91] Creating Layer inception_4c/3x3
I0403 19:41:29.338835 25567 net.cpp:425] inception_4c/3x3 <- inception_4c/3x3_reduce
I0403 19:41:29.338856 25567 net.cpp:399] inception_4c/3x3 -> inception_4c/3x3
I0403 19:41:29.342308 25567 net.cpp:141] Setting up inception_4c/3x3
I0403 19:41:29.342350 25567 net.cpp:148] Top shape: 24 256 14 14 (1204224)
I0403 19:41:29.342368 25567 net.cpp:156] Memory required for data: 1042842912
I0403 19:41:29.342401 25567 layer_factory.hpp:77] Creating layer inception_4c/relu_3x3
I0403 19:41:29.342427 25567 net.cpp:91] Creating Layer inception_4c/relu_3x3
I0403 19:41:29.342447 25567 net.cpp:425] inception_4c/relu_3x3 <- inception_4c/3x3
I0403 19:41:29.342464 25567 net.cpp:386] inception_4c/relu_3x3 -> inception_4c/3x3 (in-place)
I0403 19:41:29.342638 25567 net.cpp:141] Setting up inception_4c/relu_3x3
I0403 19:41:29.342667 25567 net.cpp:148] Top shape: 24 256 14 14 (1204224)
I0403 19:41:29.342684 25567 net.cpp:156] Memory required for data: 1047659808
I0403 19:41:29.342700 25567 layer_factory.hpp:77] Creating layer inception_4c/5x5_reduce
I0403 19:41:29.342723 25567 net.cpp:91] Creating Layer inception_4c/5x5_reduce
I0403 19:41:29.342742 25567 net.cpp:425] inception_4c/5x5_reduce <- inception_4b/output_inception_4b/output_0_split_2
I0403 19:41:29.342766 25567 net.cpp:399] inception_4c/5x5_reduce -> inception_4c/5x5_reduce
I0403 19:41:29.343801 25567 net.cpp:141] Setting up inception_4c/5x5_reduce
I0403 19:41:29.343832 25567 net.cpp:148] Top shape: 24 24 14 14 (112896)
I0403 19:41:29.343848 25567 net.cpp:156] Memory required for data: 1048111392
I0403 19:41:29.343868 25567 layer_factory.hpp:77] Creating layer inception_4c/relu_5x5_reduce
I0403 19:41:29.343889 25567 net.cpp:91] Creating Layer inception_4c/relu_5x5_reduce
I0403 19:41:29.343909 25567 net.cpp:425] inception_4c/relu_5x5_reduce <- inception_4c/5x5_reduce
I0403 19:41:29.343926 25567 net.cpp:386] inception_4c/relu_5x5_reduce -> inception_4c/5x5_reduce (in-place)
I0403 19:41:29.344102 25567 net.cpp:141] Setting up inception_4c/relu_5x5_reduce
I0403 19:41:29.344133 25567 net.cpp:148] Top shape: 24 24 14 14 (112896)
I0403 19:41:29.344151 25567 net.cpp:156] Memory required for data: 1048562976
I0403 19:41:29.344166 25567 layer_factory.hpp:77] Creating layer inception_4c/5x5
I0403 19:41:29.344188 25567 net.cpp:91] Creating Layer inception_4c/5x5
I0403 19:41:29.344207 25567 net.cpp:425] inception_4c/5x5 <- inception_4c/5x5_reduce
I0403 19:41:29.344226 25567 net.cpp:399] inception_4c/5x5 -> inception_4c/5x5
I0403 19:41:29.345422 25567 net.cpp:141] Setting up inception_4c/5x5
I0403 19:41:29.345453 25567 net.cpp:148] Top shape: 24 64 14 14 (301056)
I0403 19:41:29.345470 25567 net.cpp:156] Memory required for data: 1049767200
I0403 19:41:29.345491 25567 layer_factory.hpp:77] Creating layer inception_4c/relu_5x5
I0403 19:41:29.345513 25567 net.cpp:91] Creating Layer inception_4c/relu_5x5
I0403 19:41:29.345531 25567 net.cpp:425] inception_4c/relu_5x5 <- inception_4c/5x5
I0403 19:41:29.345549 25567 net.cpp:386] inception_4c/relu_5x5 -> inception_4c/5x5 (in-place)
I0403 19:41:29.345825 25567 net.cpp:141] Setting up inception_4c/relu_5x5
I0403 19:41:29.345859 25567 net.cpp:148] Top shape: 24 64 14 14 (301056)
I0403 19:41:29.345876 25567 net.cpp:156] Memory required for data: 1050971424
I0403 19:41:29.345890 25567 layer_factory.hpp:77] Creating layer inception_4c/pool
I0403 19:41:29.345908 25567 net.cpp:91] Creating Layer inception_4c/pool
I0403 19:41:29.345924 25567 net.cpp:425] inception_4c/pool <- inception_4b/output_inception_4b/output_0_split_3
I0403 19:41:29.345947 25567 net.cpp:399] inception_4c/pool -> inception_4c/pool
I0403 19:41:29.346014 25567 net.cpp:141] Setting up inception_4c/pool
I0403 19:41:29.346041 25567 net.cpp:148] Top shape: 24 512 14 14 (2408448)
I0403 19:41:29.346056 25567 net.cpp:156] Memory required for data: 1060605216
I0403 19:41:29.346071 25567 layer_factory.hpp:77] Creating layer inception_4c/pool_proj
I0403 19:41:29.346093 25567 net.cpp:91] Creating Layer inception_4c/pool_proj
I0403 19:41:29.346112 25567 net.cpp:425] inception_4c/pool_proj <- inception_4c/pool
I0403 19:41:29.346133 25567 net.cpp:399] inception_4c/pool_proj -> inception_4c/pool_proj
I0403 19:41:29.347301 25567 net.cpp:141] Setting up inception_4c/pool_proj
I0403 19:41:29.347333 25567 net.cpp:148] Top shape: 24 64 14 14 (301056)
I0403 19:41:29.347365 25567 net.cpp:156] Memory required for data: 1061809440
I0403 19:41:29.347386 25567 layer_factory.hpp:77] Creating layer inception_4c/relu_pool_proj
I0403 19:41:29.347410 25567 net.cpp:91] Creating Layer inception_4c/relu_pool_proj
I0403 19:41:29.347430 25567 net.cpp:425] inception_4c/relu_pool_proj <- inception_4c/pool_proj
I0403 19:41:29.347450 25567 net.cpp:386] inception_4c/relu_pool_proj -> inception_4c/pool_proj (in-place)
I0403 19:41:29.347630 25567 net.cpp:141] Setting up inception_4c/relu_pool_proj
I0403 19:41:29.347657 25567 net.cpp:148] Top shape: 24 64 14 14 (301056)
I0403 19:41:29.347673 25567 net.cpp:156] Memory required for data: 1063013664
I0403 19:41:29.347689 25567 layer_factory.hpp:77] Creating layer inception_4c/output
I0403 19:41:29.347710 25567 net.cpp:91] Creating Layer inception_4c/output
I0403 19:41:29.347728 25567 net.cpp:425] inception_4c/output <- inception_4c/1x1
I0403 19:41:29.347746 25567 net.cpp:425] inception_4c/output <- inception_4c/3x3
I0403 19:41:29.347762 25567 net.cpp:425] inception_4c/output <- inception_4c/5x5
I0403 19:41:29.347779 25567 net.cpp:425] inception_4c/output <- inception_4c/pool_proj
I0403 19:41:29.347795 25567 net.cpp:399] inception_4c/output -> inception_4c/output
I0403 19:41:29.347843 25567 net.cpp:141] Setting up inception_4c/output
I0403 19:41:29.347874 25567 net.cpp:148] Top shape: 24 512 14 14 (2408448)
I0403 19:41:29.347889 25567 net.cpp:156] Memory required for data: 1072647456
I0403 19:41:29.347904 25567 layer_factory.hpp:77] Creating layer inception_4c/output_inception_4c/output_0_split
I0403 19:41:29.347921 25567 net.cpp:91] Creating Layer inception_4c/output_inception_4c/output_0_split
I0403 19:41:29.347937 25567 net.cpp:425] inception_4c/output_inception_4c/output_0_split <- inception_4c/output
I0403 19:41:29.347959 25567 net.cpp:399] inception_4c/output_inception_4c/output_0_split -> inception_4c/output_inception_4c/output_0_split_0
I0403 19:41:29.347981 25567 net.cpp:399] inception_4c/output_inception_4c/output_0_split -> inception_4c/output_inception_4c/output_0_split_1
I0403 19:41:29.348004 25567 net.cpp:399] inception_4c/output_inception_4c/output_0_split -> inception_4c/output_inception_4c/output_0_split_2
I0403 19:41:29.348027 25567 net.cpp:399] inception_4c/output_inception_4c/output_0_split -> inception_4c/output_inception_4c/output_0_split_3
I0403 19:41:29.348129 25567 net.cpp:141] Setting up inception_4c/output_inception_4c/output_0_split
I0403 19:41:29.348156 25567 net.cpp:148] Top shape: 24 512 14 14 (2408448)
I0403 19:41:29.348175 25567 net.cpp:148] Top shape: 24 512 14 14 (2408448)
I0403 19:41:29.348192 25567 net.cpp:148] Top shape: 24 512 14 14 (2408448)
I0403 19:41:29.348209 25567 net.cpp:148] Top shape: 24 512 14 14 (2408448)
I0403 19:41:29.348224 25567 net.cpp:156] Memory required for data: 1111182624
I0403 19:41:29.348240 25567 layer_factory.hpp:77] Creating layer inception_4d/1x1
I0403 19:41:29.348268 25567 net.cpp:91] Creating Layer inception_4d/1x1
I0403 19:41:29.348290 25567 net.cpp:425] inception_4d/1x1 <- inception_4c/output_inception_4c/output_0_split_0
I0403 19:41:29.348314 25567 net.cpp:399] inception_4d/1x1 -> inception_4d/1x1
I0403 19:41:29.349633 25567 net.cpp:141] Setting up inception_4d/1x1
I0403 19:41:29.349665 25567 net.cpp:148] Top shape: 24 112 14 14 (526848)
I0403 19:41:29.349683 25567 net.cpp:156] Memory required for data: 1113290016
I0403 19:41:29.349702 25567 layer_factory.hpp:77] Creating layer inception_4d/relu_1x1
I0403 19:41:29.349722 25567 net.cpp:91] Creating Layer inception_4d/relu_1x1
I0403 19:41:29.349741 25567 net.cpp:425] inception_4d/relu_1x1 <- inception_4d/1x1
I0403 19:41:29.349763 25567 net.cpp:386] inception_4d/relu_1x1 -> inception_4d/1x1 (in-place)
I0403 19:41:29.349942 25567 net.cpp:141] Setting up inception_4d/relu_1x1
I0403 19:41:29.349970 25567 net.cpp:148] Top shape: 24 112 14 14 (526848)
I0403 19:41:29.349987 25567 net.cpp:156] Memory required for data: 1115397408
I0403 19:41:29.350002 25567 layer_factory.hpp:77] Creating layer inception_4d/3x3_reduce
I0403 19:41:29.350039 25567 net.cpp:91] Creating Layer inception_4d/3x3_reduce
I0403 19:41:29.350062 25567 net.cpp:425] inception_4d/3x3_reduce <- inception_4c/output_inception_4c/output_0_split_1
I0403 19:41:29.350085 25567 net.cpp:399] inception_4d/3x3_reduce -> inception_4d/3x3_reduce
I0403 19:41:29.351526 25567 net.cpp:141] Setting up inception_4d/3x3_reduce
I0403 19:41:29.351558 25567 net.cpp:148] Top shape: 24 144 14 14 (677376)
I0403 19:41:29.351577 25567 net.cpp:156] Memory required for data: 1118106912
I0403 19:41:29.351595 25567 layer_factory.hpp:77] Creating layer inception_4d/relu_3x3_reduce
I0403 19:41:29.351615 25567 net.cpp:91] Creating Layer inception_4d/relu_3x3_reduce
I0403 19:41:29.351634 25567 net.cpp:425] inception_4d/relu_3x3_reduce <- inception_4d/3x3_reduce
I0403 19:41:29.351650 25567 net.cpp:386] inception_4d/relu_3x3_reduce -> inception_4d/3x3_reduce (in-place)
I0403 19:41:29.351923 25567 net.cpp:141] Setting up inception_4d/relu_3x3_reduce
I0403 19:41:29.351956 25567 net.cpp:148] Top shape: 24 144 14 14 (677376)
I0403 19:41:29.351974 25567 net.cpp:156] Memory required for data: 1120816416
I0403 19:41:29.351989 25567 layer_factory.hpp:77] Creating layer inception_4d/3x3
I0403 19:41:29.352015 25567 net.cpp:91] Creating Layer inception_4d/3x3
I0403 19:41:29.352035 25567 net.cpp:425] inception_4d/3x3 <- inception_4d/3x3_reduce
I0403 19:41:29.352054 25567 net.cpp:399] inception_4d/3x3 -> inception_4d/3x3
I0403 19:41:29.356132 25567 net.cpp:141] Setting up inception_4d/3x3
I0403 19:41:29.356165 25567 net.cpp:148] Top shape: 24 288 14 14 (1354752)
I0403 19:41:29.356183 25567 net.cpp:156] Memory required for data: 1126235424
I0403 19:41:29.356201 25567 layer_factory.hpp:77] Creating layer inception_4d/relu_3x3
I0403 19:41:29.356222 25567 net.cpp:91] Creating Layer inception_4d/relu_3x3
I0403 19:41:29.356240 25567 net.cpp:425] inception_4d/relu_3x3 <- inception_4d/3x3
I0403 19:41:29.356263 25567 net.cpp:386] inception_4d/relu_3x3 -> inception_4d/3x3 (in-place)
I0403 19:41:29.356444 25567 net.cpp:141] Setting up inception_4d/relu_3x3
I0403 19:41:29.356472 25567 net.cpp:148] Top shape: 24 288 14 14 (1354752)
I0403 19:41:29.356488 25567 net.cpp:156] Memory required for data: 1131654432
I0403 19:41:29.356505 25567 layer_factory.hpp:77] Creating layer inception_4d/5x5_reduce
I0403 19:41:29.356528 25567 net.cpp:91] Creating Layer inception_4d/5x5_reduce
I0403 19:41:29.356546 25567 net.cpp:425] inception_4d/5x5_reduce <- inception_4c/output_inception_4c/output_0_split_2
I0403 19:41:29.356569 25567 net.cpp:399] inception_4d/5x5_reduce -> inception_4d/5x5_reduce
I0403 19:41:29.357662 25567 net.cpp:141] Setting up inception_4d/5x5_reduce
I0403 19:41:29.357692 25567 net.cpp:148] Top shape: 24 32 14 14 (150528)
I0403 19:41:29.357710 25567 net.cpp:156] Memory required for data: 1132256544
I0403 19:41:29.357729 25567 layer_factory.hpp:77] Creating layer inception_4d/relu_5x5_reduce
I0403 19:41:29.357748 25567 net.cpp:91] Creating Layer inception_4d/relu_5x5_reduce
I0403 19:41:29.357766 25567 net.cpp:425] inception_4d/relu_5x5_reduce <- inception_4d/5x5_reduce
I0403 19:41:29.357786 25567 net.cpp:386] inception_4d/relu_5x5_reduce -> inception_4d/5x5_reduce (in-place)
I0403 19:41:29.357964 25567 net.cpp:141] Setting up inception_4d/relu_5x5_reduce
I0403 19:41:29.357992 25567 net.cpp:148] Top shape: 24 32 14 14 (150528)
I0403 19:41:29.358008 25567 net.cpp:156] Memory required for data: 1132858656
I0403 19:41:29.358023 25567 layer_factory.hpp:77] Creating layer inception_4d/5x5
I0403 19:41:29.358045 25567 net.cpp:91] Creating Layer inception_4d/5x5
I0403 19:41:29.358063 25567 net.cpp:425] inception_4d/5x5 <- inception_4d/5x5_reduce
I0403 19:41:29.358086 25567 net.cpp:399] inception_4d/5x5 -> inception_4d/5x5
I0403 19:41:29.359463 25567 net.cpp:141] Setting up inception_4d/5x5
I0403 19:41:29.359494 25567 net.cpp:148] Top shape: 24 64 14 14 (301056)
I0403 19:41:29.359513 25567 net.cpp:156] Memory required for data: 1134062880
I0403 19:41:29.359531 25567 layer_factory.hpp:77] Creating layer inception_4d/relu_5x5
I0403 19:41:29.359567 25567 net.cpp:91] Creating Layer inception_4d/relu_5x5
I0403 19:41:29.359589 25567 net.cpp:425] inception_4d/relu_5x5 <- inception_4d/5x5
I0403 19:41:29.359611 25567 net.cpp:386] inception_4d/relu_5x5 -> inception_4d/5x5 (in-place)
I0403 19:41:29.359897 25567 net.cpp:141] Setting up inception_4d/relu_5x5
I0403 19:41:29.359925 25567 net.cpp:148] Top shape: 24 64 14 14 (301056)
I0403 19:41:29.359943 25567 net.cpp:156] Memory required for data: 1135267104
I0403 19:41:29.359959 25567 layer_factory.hpp:77] Creating layer inception_4d/pool
I0403 19:41:29.359980 25567 net.cpp:91] Creating Layer inception_4d/pool
I0403 19:41:29.359998 25567 net.cpp:425] inception_4d/pool <- inception_4c/output_inception_4c/output_0_split_3
I0403 19:41:29.360018 25567 net.cpp:399] inception_4d/pool -> inception_4d/pool
I0403 19:41:29.360085 25567 net.cpp:141] Setting up inception_4d/pool
I0403 19:41:29.360116 25567 net.cpp:148] Top shape: 24 512 14 14 (2408448)
I0403 19:41:29.360132 25567 net.cpp:156] Memory required for data: 1144900896
I0403 19:41:29.360146 25567 layer_factory.hpp:77] Creating layer inception_4d/pool_proj
I0403 19:41:29.360170 25567 net.cpp:91] Creating Layer inception_4d/pool_proj
I0403 19:41:29.360191 25567 net.cpp:425] inception_4d/pool_proj <- inception_4d/pool
I0403 19:41:29.360213 25567 net.cpp:399] inception_4d/pool_proj -> inception_4d/pool_proj
I0403 19:41:29.362027 25567 net.cpp:141] Setting up inception_4d/pool_proj
I0403 19:41:29.362061 25567 net.cpp:148] Top shape: 24 64 14 14 (301056)
I0403 19:41:29.362079 25567 net.cpp:156] Memory required for data: 1146105120
I0403 19:41:29.362100 25567 layer_factory.hpp:77] Creating layer inception_4d/relu_pool_proj
I0403 19:41:29.362119 25567 net.cpp:91] Creating Layer inception_4d/relu_pool_proj
I0403 19:41:29.362138 25567 net.cpp:425] inception_4d/relu_pool_proj <- inception_4d/pool_proj
I0403 19:41:29.362159 25567 net.cpp:386] inception_4d/relu_pool_proj -> inception_4d/pool_proj (in-place)
I0403 19:41:29.362347 25567 net.cpp:141] Setting up inception_4d/relu_pool_proj
I0403 19:41:29.362376 25567 net.cpp:148] Top shape: 24 64 14 14 (301056)
I0403 19:41:29.362391 25567 net.cpp:156] Memory required for data: 1147309344
I0403 19:41:29.362408 25567 layer_factory.hpp:77] Creating layer inception_4d/output
I0403 19:41:29.362429 25567 net.cpp:91] Creating Layer inception_4d/output
I0403 19:41:29.362448 25567 net.cpp:425] inception_4d/output <- inception_4d/1x1
I0403 19:41:29.362467 25567 net.cpp:425] inception_4d/output <- inception_4d/3x3
I0403 19:41:29.362484 25567 net.cpp:425] inception_4d/output <- inception_4d/5x5
I0403 19:41:29.362500 25567 net.cpp:425] inception_4d/output <- inception_4d/pool_proj
I0403 19:41:29.362519 25567 net.cpp:399] inception_4d/output -> inception_4d/output
I0403 19:41:29.362570 25567 net.cpp:141] Setting up inception_4d/output
I0403 19:41:29.362596 25567 net.cpp:148] Top shape: 24 528 14 14 (2483712)
I0403 19:41:29.362612 25567 net.cpp:156] Memory required for data: 1157244192
I0403 19:41:29.362627 25567 layer_factory.hpp:77] Creating layer inception_4d/output_inception_4d/output_0_split
I0403 19:41:29.362648 25567 net.cpp:91] Creating Layer inception_4d/output_inception_4d/output_0_split
I0403 19:41:29.362665 25567 net.cpp:425] inception_4d/output_inception_4d/output_0_split <- inception_4d/output
I0403 19:41:29.362687 25567 net.cpp:399] inception_4d/output_inception_4d/output_0_split -> inception_4d/output_inception_4d/output_0_split_0
I0403 19:41:29.362712 25567 net.cpp:399] inception_4d/output_inception_4d/output_0_split -> inception_4d/output_inception_4d/output_0_split_1
I0403 19:41:29.362735 25567 net.cpp:399] inception_4d/output_inception_4d/output_0_split -> inception_4d/output_inception_4d/output_0_split_2
I0403 19:41:29.362757 25567 net.cpp:399] inception_4d/output_inception_4d/output_0_split -> inception_4d/output_inception_4d/output_0_split_3
I0403 19:41:29.362779 25567 net.cpp:399] inception_4d/output_inception_4d/output_0_split -> inception_4d/output_inception_4d/output_0_split_4
I0403 19:41:29.362884 25567 net.cpp:141] Setting up inception_4d/output_inception_4d/output_0_split
I0403 19:41:29.362921 25567 net.cpp:148] Top shape: 24 528 14 14 (2483712)
I0403 19:41:29.362944 25567 net.cpp:148] Top shape: 24 528 14 14 (2483712)
I0403 19:41:29.362960 25567 net.cpp:148] Top shape: 24 528 14 14 (2483712)
I0403 19:41:29.362977 25567 net.cpp:148] Top shape: 24 528 14 14 (2483712)
I0403 19:41:29.362993 25567 net.cpp:148] Top shape: 24 528 14 14 (2483712)
I0403 19:41:29.363008 25567 net.cpp:156] Memory required for data: 1206918432
I0403 19:41:29.363024 25567 layer_factory.hpp:77] Creating layer loss2/ave_pool
I0403 19:41:29.363044 25567 net.cpp:91] Creating Layer loss2/ave_pool
I0403 19:41:29.363062 25567 net.cpp:425] loss2/ave_pool <- inception_4d/output_inception_4d/output_0_split_0
I0403 19:41:29.363083 25567 net.cpp:399] loss2/ave_pool -> loss2/ave_pool
I0403 19:41:29.363400 25567 net.cpp:141] Setting up loss2/ave_pool
I0403 19:41:29.363430 25567 net.cpp:148] Top shape: 24 528 4 4 (202752)
I0403 19:41:29.363446 25567 net.cpp:156] Memory required for data: 1207729440
I0403 19:41:29.363463 25567 layer_factory.hpp:77] Creating layer loss2/conv
I0403 19:41:29.363487 25567 net.cpp:91] Creating Layer loss2/conv
I0403 19:41:29.363508 25567 net.cpp:425] loss2/conv <- loss2/ave_pool
I0403 19:41:29.363531 25567 net.cpp:399] loss2/conv -> loss2/conv
I0403 19:41:29.365422 25567 net.cpp:141] Setting up loss2/conv
I0403 19:41:29.365454 25567 net.cpp:148] Top shape: 24 128 4 4 (49152)
I0403 19:41:29.365473 25567 net.cpp:156] Memory required for data: 1207926048
I0403 19:41:29.365494 25567 layer_factory.hpp:77] Creating layer loss2/relu_conv
I0403 19:41:29.365515 25567 net.cpp:91] Creating Layer loss2/relu_conv
I0403 19:41:29.365532 25567 net.cpp:425] loss2/relu_conv <- loss2/conv
I0403 19:41:29.365552 25567 net.cpp:386] loss2/relu_conv -> loss2/conv (in-place)
I0403 19:41:29.365842 25567 net.cpp:141] Setting up loss2/relu_conv
I0403 19:41:29.365875 25567 net.cpp:148] Top shape: 24 128 4 4 (49152)
I0403 19:41:29.365891 25567 net.cpp:156] Memory required for data: 1208122656
I0403 19:41:29.365906 25567 layer_factory.hpp:77] Creating layer loss2/fc
I0403 19:41:29.365928 25567 net.cpp:91] Creating Layer loss2/fc
I0403 19:41:29.365947 25567 net.cpp:425] loss2/fc <- loss2/conv
I0403 19:41:29.365969 25567 net.cpp:399] loss2/fc -> loss2/fc
I0403 19:41:29.383347 25567 net.cpp:141] Setting up loss2/fc
I0403 19:41:29.383383 25567 net.cpp:148] Top shape: 24 1024 (24576)
I0403 19:41:29.383397 25567 net.cpp:156] Memory required for data: 1208220960
I0403 19:41:29.383415 25567 layer_factory.hpp:77] Creating layer loss2/relu_fc
I0403 19:41:29.383433 25567 net.cpp:91] Creating Layer loss2/relu_fc
I0403 19:41:29.383453 25567 net.cpp:425] loss2/relu_fc <- loss2/fc
I0403 19:41:29.383472 25567 net.cpp:386] loss2/relu_fc -> loss2/fc (in-place)
I0403 19:41:29.383761 25567 net.cpp:141] Setting up loss2/relu_fc
I0403 19:41:29.383790 25567 net.cpp:148] Top shape: 24 1024 (24576)
I0403 19:41:29.383805 25567 net.cpp:156] Memory required for data: 1208319264
I0403 19:41:29.383819 25567 layer_factory.hpp:77] Creating layer loss2/drop_fc
I0403 19:41:29.383838 25567 net.cpp:91] Creating Layer loss2/drop_fc
I0403 19:41:29.383855 25567 net.cpp:425] loss2/drop_fc <- loss2/fc
I0403 19:41:29.383877 25567 net.cpp:386] loss2/drop_fc -> loss2/fc (in-place)
I0403 19:41:29.383927 25567 net.cpp:141] Setting up loss2/drop_fc
I0403 19:41:29.383955 25567 net.cpp:148] Top shape: 24 1024 (24576)
I0403 19:41:29.383971 25567 net.cpp:156] Memory required for data: 1208417568
I0403 19:41:29.383988 25567 layer_factory.hpp:77] Creating layer loss2/classifier_plantvillage
I0403 19:41:29.384006 25567 net.cpp:91] Creating Layer loss2/classifier_plantvillage
I0403 19:41:29.384026 25567 net.cpp:425] loss2/classifier_plantvillage <- loss2/fc
I0403 19:41:29.384049 25567 net.cpp:399] loss2/classifier_plantvillage -> loss2/classifier_plantvillage
I0403 19:41:29.384443 25567 net.cpp:141] Setting up loss2/classifier_plantvillage
I0403 19:41:29.384474 25567 net.cpp:148] Top shape: 24 38 (912)
I0403 19:41:29.384506 25567 net.cpp:156] Memory required for data: 1208421216
I0403 19:41:29.384526 25567 layer_factory.hpp:77] Creating layer loss2/classifier_plantvillage_loss2/classifier_plantvillage_0_split
I0403 19:41:29.384546 25567 net.cpp:91] Creating Layer loss2/classifier_plantvillage_loss2/classifier_plantvillage_0_split
I0403 19:41:29.384563 25567 net.cpp:425] loss2/classifier_plantvillage_loss2/classifier_plantvillage_0_split <- loss2/classifier_plantvillage
I0403 19:41:29.384582 25567 net.cpp:399] loss2/classifier_plantvillage_loss2/classifier_plantvillage_0_split -> loss2/classifier_plantvillage_loss2/classifier_plantvillage_0_split_0
I0403 19:41:29.384601 25567 net.cpp:399] loss2/classifier_plantvillage_loss2/classifier_plantvillage_0_split -> loss2/classifier_plantvillage_loss2/classifier_plantvillage_0_split_1
I0403 19:41:29.384626 25567 net.cpp:399] loss2/classifier_plantvillage_loss2/classifier_plantvillage_0_split -> loss2/classifier_plantvillage_loss2/classifier_plantvillage_0_split_2
I0403 19:41:29.384702 25567 net.cpp:141] Setting up loss2/classifier_plantvillage_loss2/classifier_plantvillage_0_split
I0403 19:41:29.384727 25567 net.cpp:148] Top shape: 24 38 (912)
I0403 19:41:29.384744 25567 net.cpp:148] Top shape: 24 38 (912)
I0403 19:41:29.384762 25567 net.cpp:148] Top shape: 24 38 (912)
I0403 19:41:29.384774 25567 net.cpp:156] Memory required for data: 1208432160
I0403 19:41:29.384789 25567 layer_factory.hpp:77] Creating layer inception_4e/1x1
I0403 19:41:29.384811 25567 net.cpp:91] Creating Layer inception_4e/1x1
I0403 19:41:29.384829 25567 net.cpp:425] inception_4e/1x1 <- inception_4d/output_inception_4d/output_0_split_1
I0403 19:41:29.384851 25567 net.cpp:399] inception_4e/1x1 -> inception_4e/1x1
I0403 19:41:29.386580 25567 net.cpp:141] Setting up inception_4e/1x1
I0403 19:41:29.386610 25567 net.cpp:148] Top shape: 24 256 14 14 (1204224)
I0403 19:41:29.386627 25567 net.cpp:156] Memory required for data: 1213249056
I0403 19:41:29.386646 25567 layer_factory.hpp:77] Creating layer inception_4e/relu_1x1
I0403 19:41:29.386668 25567 net.cpp:91] Creating Layer inception_4e/relu_1x1
I0403 19:41:29.386687 25567 net.cpp:425] inception_4e/relu_1x1 <- inception_4e/1x1
I0403 19:41:29.386706 25567 net.cpp:386] inception_4e/relu_1x1 -> inception_4e/1x1 (in-place)
I0403 19:41:29.386993 25567 net.cpp:141] Setting up inception_4e/relu_1x1
I0403 19:41:29.387022 25567 net.cpp:148] Top shape: 24 256 14 14 (1204224)
I0403 19:41:29.387039 25567 net.cpp:156] Memory required for data: 1218065952
I0403 19:41:29.387054 25567 layer_factory.hpp:77] Creating layer inception_4e/3x3_reduce
I0403 19:41:29.387079 25567 net.cpp:91] Creating Layer inception_4e/3x3_reduce
I0403 19:41:29.387099 25567 net.cpp:425] inception_4e/3x3_reduce <- inception_4d/output_inception_4d/output_0_split_2
I0403 19:41:29.387118 25567 net.cpp:399] inception_4e/3x3_reduce -> inception_4e/3x3_reduce
I0403 19:41:29.389153 25567 net.cpp:141] Setting up inception_4e/3x3_reduce
I0403 19:41:29.389184 25567 net.cpp:148] Top shape: 24 160 14 14 (752640)
I0403 19:41:29.389201 25567 net.cpp:156] Memory required for data: 1221076512
I0403 19:41:29.389221 25567 layer_factory.hpp:77] Creating layer inception_4e/relu_3x3_reduce
I0403 19:41:29.389242 25567 net.cpp:91] Creating Layer inception_4e/relu_3x3_reduce
I0403 19:41:29.389267 25567 net.cpp:425] inception_4e/relu_3x3_reduce <- inception_4e/3x3_reduce
I0403 19:41:29.389287 25567 net.cpp:386] inception_4e/relu_3x3_reduce -> inception_4e/3x3_reduce (in-place)
I0403 19:41:29.389467 25567 net.cpp:141] Setting up inception_4e/relu_3x3_reduce
I0403 19:41:29.389498 25567 net.cpp:148] Top shape: 24 160 14 14 (752640)
I0403 19:41:29.389514 25567 net.cpp:156] Memory required for data: 1224087072
I0403 19:41:29.389531 25567 layer_factory.hpp:77] Creating layer inception_4e/3x3
I0403 19:41:29.389554 25567 net.cpp:91] Creating Layer inception_4e/3x3
I0403 19:41:29.389572 25567 net.cpp:425] inception_4e/3x3 <- inception_4e/3x3_reduce
I0403 19:41:29.389591 25567 net.cpp:399] inception_4e/3x3 -> inception_4e/3x3
I0403 19:41:29.394596 25567 net.cpp:141] Setting up inception_4e/3x3
I0403 19:41:29.394651 25567 net.cpp:148] Top shape: 24 320 14 14 (1505280)
I0403 19:41:29.394670 25567 net.cpp:156] Memory required for data: 1230108192
I0403 19:41:29.394690 25567 layer_factory.hpp:77] Creating layer inception_4e/relu_3x3
I0403 19:41:29.394709 25567 net.cpp:91] Creating Layer inception_4e/relu_3x3
I0403 19:41:29.394726 25567 net.cpp:425] inception_4e/relu_3x3 <- inception_4e/3x3
I0403 19:41:29.394757 25567 net.cpp:386] inception_4e/relu_3x3 -> inception_4e/3x3 (in-place)
I0403 19:41:29.395051 25567 net.cpp:141] Setting up inception_4e/relu_3x3
I0403 19:41:29.395090 25567 net.cpp:148] Top shape: 24 320 14 14 (1505280)
I0403 19:41:29.395107 25567 net.cpp:156] Memory required for data: 1236129312
I0403 19:41:29.395124 25567 layer_factory.hpp:77] Creating layer inception_4e/5x5_reduce
I0403 19:41:29.395148 25567 net.cpp:91] Creating Layer inception_4e/5x5_reduce
I0403 19:41:29.395167 25567 net.cpp:425] inception_4e/5x5_reduce <- inception_4d/output_inception_4d/output_0_split_3
I0403 19:41:29.395190 25567 net.cpp:399] inception_4e/5x5_reduce -> inception_4e/5x5_reduce
I0403 19:41:29.396283 25567 net.cpp:141] Setting up inception_4e/5x5_reduce
I0403 19:41:29.396311 25567 net.cpp:148] Top shape: 24 32 14 14 (150528)
I0403 19:41:29.396328 25567 net.cpp:156] Memory required for data: 1236731424
I0403 19:41:29.396347 25567 layer_factory.hpp:77] Creating layer inception_4e/relu_5x5_reduce
I0403 19:41:29.396368 25567 net.cpp:91] Creating Layer inception_4e/relu_5x5_reduce
I0403 19:41:29.396387 25567 net.cpp:425] inception_4e/relu_5x5_reduce <- inception_4e/5x5_reduce
I0403 19:41:29.396404 25567 net.cpp:386] inception_4e/relu_5x5_reduce -> inception_4e/5x5_reduce (in-place)
I0403 19:41:29.396698 25567 net.cpp:141] Setting up inception_4e/relu_5x5_reduce
I0403 19:41:29.396726 25567 net.cpp:148] Top shape: 24 32 14 14 (150528)
I0403 19:41:29.396744 25567 net.cpp:156] Memory required for data: 1237333536
I0403 19:41:29.396759 25567 layer_factory.hpp:77] Creating layer inception_4e/5x5
I0403 19:41:29.396800 25567 net.cpp:91] Creating Layer inception_4e/5x5
I0403 19:41:29.396824 25567 net.cpp:425] inception_4e/5x5 <- inception_4e/5x5_reduce
I0403 19:41:29.396845 25567 net.cpp:399] inception_4e/5x5 -> inception_4e/5x5
I0403 19:41:29.398597 25567 net.cpp:141] Setting up inception_4e/5x5
I0403 19:41:29.398628 25567 net.cpp:148] Top shape: 24 128 14 14 (602112)
I0403 19:41:29.398646 25567 net.cpp:156] Memory required for data: 1239741984
I0403 19:41:29.398664 25567 layer_factory.hpp:77] Creating layer inception_4e/relu_5x5
I0403 19:41:29.398686 25567 net.cpp:91] Creating Layer inception_4e/relu_5x5
I0403 19:41:29.398706 25567 net.cpp:425] inception_4e/relu_5x5 <- inception_4e/5x5
I0403 19:41:29.398727 25567 net.cpp:386] inception_4e/relu_5x5 -> inception_4e/5x5 (in-place)
I0403 19:41:29.398918 25567 net.cpp:141] Setting up inception_4e/relu_5x5
I0403 19:41:29.398946 25567 net.cpp:148] Top shape: 24 128 14 14 (602112)
I0403 19:41:29.398967 25567 net.cpp:156] Memory required for data: 1242150432
I0403 19:41:29.398982 25567 layer_factory.hpp:77] Creating layer inception_4e/pool
I0403 19:41:29.399000 25567 net.cpp:91] Creating Layer inception_4e/pool
I0403 19:41:29.399016 25567 net.cpp:425] inception_4e/pool <- inception_4d/output_inception_4d/output_0_split_4
I0403 19:41:29.399035 25567 net.cpp:399] inception_4e/pool -> inception_4e/pool
I0403 19:41:29.399107 25567 net.cpp:141] Setting up inception_4e/pool
I0403 19:41:29.399134 25567 net.cpp:148] Top shape: 24 528 14 14 (2483712)
I0403 19:41:29.399150 25567 net.cpp:156] Memory required for data: 1252085280
I0403 19:41:29.399166 25567 layer_factory.hpp:77] Creating layer inception_4e/pool_proj
I0403 19:41:29.399188 25567 net.cpp:91] Creating Layer inception_4e/pool_proj
I0403 19:41:29.399209 25567 net.cpp:425] inception_4e/pool_proj <- inception_4e/pool
I0403 19:41:29.399230 25567 net.cpp:399] inception_4e/pool_proj -> inception_4e/pool_proj
I0403 19:41:29.400702 25567 net.cpp:141] Setting up inception_4e/pool_proj
I0403 19:41:29.400745 25567 net.cpp:148] Top shape: 24 128 14 14 (602112)
I0403 19:41:29.400763 25567 net.cpp:156] Memory required for data: 1254493728
I0403 19:41:29.400781 25567 layer_factory.hpp:77] Creating layer inception_4e/relu_pool_proj
I0403 19:41:29.400800 25567 net.cpp:91] Creating Layer inception_4e/relu_pool_proj
I0403 19:41:29.400820 25567 net.cpp:425] inception_4e/relu_pool_proj <- inception_4e/pool_proj
I0403 19:41:29.400840 25567 net.cpp:386] inception_4e/relu_pool_proj -> inception_4e/pool_proj (in-place)
I0403 19:41:29.401124 25567 net.cpp:141] Setting up inception_4e/relu_pool_proj
I0403 19:41:29.401154 25567 net.cpp:148] Top shape: 24 128 14 14 (602112)
I0403 19:41:29.401170 25567 net.cpp:156] Memory required for data: 1256902176
I0403 19:41:29.401185 25567 layer_factory.hpp:77] Creating layer inception_4e/output
I0403 19:41:29.401203 25567 net.cpp:91] Creating Layer inception_4e/output
I0403 19:41:29.401218 25567 net.cpp:425] inception_4e/output <- inception_4e/1x1
I0403 19:41:29.401233 25567 net.cpp:425] inception_4e/output <- inception_4e/3x3
I0403 19:41:29.401249 25567 net.cpp:425] inception_4e/output <- inception_4e/5x5
I0403 19:41:29.401276 25567 net.cpp:425] inception_4e/output <- inception_4e/pool_proj
I0403 19:41:29.401300 25567 net.cpp:399] inception_4e/output -> inception_4e/output
I0403 19:41:29.401353 25567 net.cpp:141] Setting up inception_4e/output
I0403 19:41:29.401382 25567 net.cpp:148] Top shape: 24 832 14 14 (3913728)
I0403 19:41:29.401399 25567 net.cpp:156] Memory required for data: 1272557088
I0403 19:41:29.401415 25567 layer_factory.hpp:77] Creating layer pool4/3x3_s2
I0403 19:41:29.401432 25567 net.cpp:91] Creating Layer pool4/3x3_s2
I0403 19:41:29.401450 25567 net.cpp:425] pool4/3x3_s2 <- inception_4e/output
I0403 19:41:29.401471 25567 net.cpp:399] pool4/3x3_s2 -> pool4/3x3_s2
I0403 19:41:29.401540 25567 net.cpp:141] Setting up pool4/3x3_s2
I0403 19:41:29.401563 25567 net.cpp:148] Top shape: 24 832 7 7 (978432)
I0403 19:41:29.401578 25567 net.cpp:156] Memory required for data: 1276470816
I0403 19:41:29.401594 25567 layer_factory.hpp:77] Creating layer pool4/3x3_s2_pool4/3x3_s2_0_split
I0403 19:41:29.401615 25567 net.cpp:91] Creating Layer pool4/3x3_s2_pool4/3x3_s2_0_split
I0403 19:41:29.401634 25567 net.cpp:425] pool4/3x3_s2_pool4/3x3_s2_0_split <- pool4/3x3_s2
I0403 19:41:29.401654 25567 net.cpp:399] pool4/3x3_s2_pool4/3x3_s2_0_split -> pool4/3x3_s2_pool4/3x3_s2_0_split_0
I0403 19:41:29.401674 25567 net.cpp:399] pool4/3x3_s2_pool4/3x3_s2_0_split -> pool4/3x3_s2_pool4/3x3_s2_0_split_1
I0403 19:41:29.401696 25567 net.cpp:399] pool4/3x3_s2_pool4/3x3_s2_0_split -> pool4/3x3_s2_pool4/3x3_s2_0_split_2
I0403 19:41:29.401722 25567 net.cpp:399] pool4/3x3_s2_pool4/3x3_s2_0_split -> pool4/3x3_s2_pool4/3x3_s2_0_split_3
I0403 19:41:29.401811 25567 net.cpp:141] Setting up pool4/3x3_s2_pool4/3x3_s2_0_split
I0403 19:41:29.401837 25567 net.cpp:148] Top shape: 24 832 7 7 (978432)
I0403 19:41:29.401855 25567 net.cpp:148] Top shape: 24 832 7 7 (978432)
I0403 19:41:29.401870 25567 net.cpp:148] Top shape: 24 832 7 7 (978432)
I0403 19:41:29.401886 25567 net.cpp:148] Top shape: 24 832 7 7 (978432)
I0403 19:41:29.401898 25567 net.cpp:156] Memory required for data: 1292125728
I0403 19:41:29.401914 25567 layer_factory.hpp:77] Creating layer inception_5a/1x1
I0403 19:41:29.401937 25567 net.cpp:91] Creating Layer inception_5a/1x1
I0403 19:41:29.401955 25567 net.cpp:425] inception_5a/1x1 <- pool4/3x3_s2_pool4/3x3_s2_0_split_0
I0403 19:41:29.401976 25567 net.cpp:399] inception_5a/1x1 -> inception_5a/1x1
I0403 19:41:29.404706 25567 net.cpp:141] Setting up inception_5a/1x1
I0403 19:41:29.404738 25567 net.cpp:148] Top shape: 24 256 7 7 (301056)
I0403 19:41:29.404757 25567 net.cpp:156] Memory required for data: 1293329952
I0403 19:41:29.404778 25567 layer_factory.hpp:77] Creating layer inception_5a/relu_1x1
I0403 19:41:29.404798 25567 net.cpp:91] Creating Layer inception_5a/relu_1x1
I0403 19:41:29.404817 25567 net.cpp:425] inception_5a/relu_1x1 <- inception_5a/1x1
I0403 19:41:29.404835 25567 net.cpp:386] inception_5a/relu_1x1 -> inception_5a/1x1 (in-place)
I0403 19:41:29.405133 25567 net.cpp:141] Setting up inception_5a/relu_1x1
I0403 19:41:29.405161 25567 net.cpp:148] Top shape: 24 256 7 7 (301056)
I0403 19:41:29.405177 25567 net.cpp:156] Memory required for data: 1294534176
I0403 19:41:29.405194 25567 layer_factory.hpp:77] Creating layer inception_5a/3x3_reduce
I0403 19:41:29.405216 25567 net.cpp:91] Creating Layer inception_5a/3x3_reduce
I0403 19:41:29.405236 25567 net.cpp:425] inception_5a/3x3_reduce <- pool4/3x3_s2_pool4/3x3_s2_0_split_1
I0403 19:41:29.405263 25567 net.cpp:399] inception_5a/3x3_reduce -> inception_5a/3x3_reduce
I0403 19:41:29.407623 25567 net.cpp:141] Setting up inception_5a/3x3_reduce
I0403 19:41:29.407654 25567 net.cpp:148] Top shape: 24 160 7 7 (188160)
I0403 19:41:29.407671 25567 net.cpp:156] Memory required for data: 1295286816
I0403 19:41:29.407691 25567 layer_factory.hpp:77] Creating layer inception_5a/relu_3x3_reduce
I0403 19:41:29.407709 25567 net.cpp:91] Creating Layer inception_5a/relu_3x3_reduce
I0403 19:41:29.407726 25567 net.cpp:425] inception_5a/relu_3x3_reduce <- inception_5a/3x3_reduce
I0403 19:41:29.407747 25567 net.cpp:386] inception_5a/relu_3x3_reduce -> inception_5a/3x3_reduce (in-place)
I0403 19:41:29.407928 25567 net.cpp:141] Setting up inception_5a/relu_3x3_reduce
I0403 19:41:29.407956 25567 net.cpp:148] Top shape: 24 160 7 7 (188160)
I0403 19:41:29.407974 25567 net.cpp:156] Memory required for data: 1296039456
I0403 19:41:29.407989 25567 layer_factory.hpp:77] Creating layer inception_5a/3x3
I0403 19:41:29.408011 25567 net.cpp:91] Creating Layer inception_5a/3x3
I0403 19:41:29.408028 25567 net.cpp:425] inception_5a/3x3 <- inception_5a/3x3_reduce
I0403 19:41:29.408051 25567 net.cpp:399] inception_5a/3x3 -> inception_5a/3x3
I0403 19:41:29.412879 25567 net.cpp:141] Setting up inception_5a/3x3
I0403 19:41:29.412912 25567 net.cpp:148] Top shape: 24 320 7 7 (376320)
I0403 19:41:29.412930 25567 net.cpp:156] Memory required for data: 1297544736
I0403 19:41:29.412951 25567 layer_factory.hpp:77] Creating layer inception_5a/relu_3x3
I0403 19:41:29.412973 25567 net.cpp:91] Creating Layer inception_5a/relu_3x3
I0403 19:41:29.412993 25567 net.cpp:425] inception_5a/relu_3x3 <- inception_5a/3x3
I0403 19:41:29.413012 25567 net.cpp:386] inception_5a/relu_3x3 -> inception_5a/3x3 (in-place)
I0403 19:41:29.413301 25567 net.cpp:141] Setting up inception_5a/relu_3x3
I0403 19:41:29.413331 25567 net.cpp:148] Top shape: 24 320 7 7 (376320)
I0403 19:41:29.413347 25567 net.cpp:156] Memory required for data: 1299050016
I0403 19:41:29.413362 25567 layer_factory.hpp:77] Creating layer inception_5a/5x5_reduce
I0403 19:41:29.413385 25567 net.cpp:91] Creating Layer inception_5a/5x5_reduce
I0403 19:41:29.413405 25567 net.cpp:425] inception_5a/5x5_reduce <- pool4/3x3_s2_pool4/3x3_s2_0_split_2
I0403 19:41:29.413429 25567 net.cpp:399] inception_5a/5x5_reduce -> inception_5a/5x5_reduce
I0403 19:41:29.414556 25567 net.cpp:141] Setting up inception_5a/5x5_reduce
I0403 19:41:29.414587 25567 net.cpp:148] Top shape: 24 32 7 7 (37632)
I0403 19:41:29.414605 25567 net.cpp:156] Memory required for data: 1299200544
I0403 19:41:29.414624 25567 layer_factory.hpp:77] Creating layer inception_5a/relu_5x5_reduce
I0403 19:41:29.414644 25567 net.cpp:91] Creating Layer inception_5a/relu_5x5_reduce
I0403 19:41:29.414664 25567 net.cpp:425] inception_5a/relu_5x5_reduce <- inception_5a/5x5_reduce
I0403 19:41:29.414681 25567 net.cpp:386] inception_5a/relu_5x5_reduce -> inception_5a/5x5_reduce (in-place)
I0403 19:41:29.414971 25567 net.cpp:141] Setting up inception_5a/relu_5x5_reduce
I0403 19:41:29.414999 25567 net.cpp:148] Top shape: 24 32 7 7 (37632)
I0403 19:41:29.415017 25567 net.cpp:156] Memory required for data: 1299351072
I0403 19:41:29.415032 25567 layer_factory.hpp:77] Creating layer inception_5a/5x5
I0403 19:41:29.415055 25567 net.cpp:91] Creating Layer inception_5a/5x5
I0403 19:41:29.415076 25567 net.cpp:425] inception_5a/5x5 <- inception_5a/5x5_reduce
I0403 19:41:29.415102 25567 net.cpp:399] inception_5a/5x5 -> inception_5a/5x5
I0403 19:41:29.416749 25567 net.cpp:141] Setting up inception_5a/5x5
I0403 19:41:29.416790 25567 net.cpp:148] Top shape: 24 128 7 7 (150528)
I0403 19:41:29.416808 25567 net.cpp:156] Memory required for data: 1299953184
I0403 19:41:29.416826 25567 layer_factory.hpp:77] Creating layer inception_5a/relu_5x5
I0403 19:41:29.416851 25567 net.cpp:91] Creating Layer inception_5a/relu_5x5
I0403 19:41:29.416872 25567 net.cpp:425] inception_5a/relu_5x5 <- inception_5a/5x5
I0403 19:41:29.416889 25567 net.cpp:386] inception_5a/relu_5x5 -> inception_5a/5x5 (in-place)
I0403 19:41:29.417073 25567 net.cpp:141] Setting up inception_5a/relu_5x5
I0403 19:41:29.417103 25567 net.cpp:148] Top shape: 24 128 7 7 (150528)
I0403 19:41:29.417119 25567 net.cpp:156] Memory required for data: 1300555296
I0403 19:41:29.417135 25567 layer_factory.hpp:77] Creating layer inception_5a/pool
I0403 19:41:29.417155 25567 net.cpp:91] Creating Layer inception_5a/pool
I0403 19:41:29.417173 25567 net.cpp:425] inception_5a/pool <- pool4/3x3_s2_pool4/3x3_s2_0_split_3
I0403 19:41:29.417194 25567 net.cpp:399] inception_5a/pool -> inception_5a/pool
I0403 19:41:29.417284 25567 net.cpp:141] Setting up inception_5a/pool
I0403 19:41:29.417311 25567 net.cpp:148] Top shape: 24 832 7 7 (978432)
I0403 19:41:29.417328 25567 net.cpp:156] Memory required for data: 1304469024
I0403 19:41:29.417346 25567 layer_factory.hpp:77] Creating layer inception_5a/pool_proj
I0403 19:41:29.417368 25567 net.cpp:91] Creating Layer inception_5a/pool_proj
I0403 19:41:29.417387 25567 net.cpp:425] inception_5a/pool_proj <- inception_5a/pool
I0403 19:41:29.417412 25567 net.cpp:399] inception_5a/pool_proj -> inception_5a/pool_proj
I0403 19:41:29.419668 25567 net.cpp:141] Setting up inception_5a/pool_proj
I0403 19:41:29.419700 25567 net.cpp:148] Top shape: 24 128 7 7 (150528)
I0403 19:41:29.419718 25567 net.cpp:156] Memory required for data: 1305071136
I0403 19:41:29.419737 25567 layer_factory.hpp:77] Creating layer inception_5a/relu_pool_proj
I0403 19:41:29.419760 25567 net.cpp:91] Creating Layer inception_5a/relu_pool_proj
I0403 19:41:29.419778 25567 net.cpp:425] inception_5a/relu_pool_proj <- inception_5a/pool_proj
I0403 19:41:29.419797 25567 net.cpp:386] inception_5a/relu_pool_proj -> inception_5a/pool_proj (in-place)
I0403 19:41:29.420089 25567 net.cpp:141] Setting up inception_5a/relu_pool_proj
I0403 19:41:29.420119 25567 net.cpp:148] Top shape: 24 128 7 7 (150528)
I0403 19:41:29.420135 25567 net.cpp:156] Memory required for data: 1305673248
I0403 19:41:29.420151 25567 layer_factory.hpp:77] Creating layer inception_5a/output
I0403 19:41:29.420169 25567 net.cpp:91] Creating Layer inception_5a/output
I0403 19:41:29.420186 25567 net.cpp:425] inception_5a/output <- inception_5a/1x1
I0403 19:41:29.420203 25567 net.cpp:425] inception_5a/output <- inception_5a/3x3
I0403 19:41:29.420222 25567 net.cpp:425] inception_5a/output <- inception_5a/5x5
I0403 19:41:29.420239 25567 net.cpp:425] inception_5a/output <- inception_5a/pool_proj
I0403 19:41:29.420264 25567 net.cpp:399] inception_5a/output -> inception_5a/output
I0403 19:41:29.420315 25567 net.cpp:141] Setting up inception_5a/output
I0403 19:41:29.420346 25567 net.cpp:148] Top shape: 24 832 7 7 (978432)
I0403 19:41:29.420362 25567 net.cpp:156] Memory required for data: 1309586976
I0403 19:41:29.420379 25567 layer_factory.hpp:77] Creating layer inception_5a/output_inception_5a/output_0_split
I0403 19:41:29.420397 25567 net.cpp:91] Creating Layer inception_5a/output_inception_5a/output_0_split
I0403 19:41:29.420414 25567 net.cpp:425] inception_5a/output_inception_5a/output_0_split <- inception_5a/output
I0403 19:41:29.420436 25567 net.cpp:399] inception_5a/output_inception_5a/output_0_split -> inception_5a/output_inception_5a/output_0_split_0
I0403 19:41:29.420459 25567 net.cpp:399] inception_5a/output_inception_5a/output_0_split -> inception_5a/output_inception_5a/output_0_split_1
I0403 19:41:29.420480 25567 net.cpp:399] inception_5a/output_inception_5a/output_0_split -> inception_5a/output_inception_5a/output_0_split_2
I0403 19:41:29.420503 25567 net.cpp:399] inception_5a/output_inception_5a/output_0_split -> inception_5a/output_inception_5a/output_0_split_3
I0403 19:41:29.420615 25567 net.cpp:141] Setting up inception_5a/output_inception_5a/output_0_split
I0403 19:41:29.420641 25567 net.cpp:148] Top shape: 24 832 7 7 (978432)
I0403 19:41:29.420660 25567 net.cpp:148] Top shape: 24 832 7 7 (978432)
I0403 19:41:29.420677 25567 net.cpp:148] Top shape: 24 832 7 7 (978432)
I0403 19:41:29.420691 25567 net.cpp:148] Top shape: 24 832 7 7 (978432)
I0403 19:41:29.420706 25567 net.cpp:156] Memory required for data: 1325241888
I0403 19:41:29.420720 25567 layer_factory.hpp:77] Creating layer inception_5b/1x1
I0403 19:41:29.420744 25567 net.cpp:91] Creating Layer inception_5b/1x1
I0403 19:41:29.420763 25567 net.cpp:425] inception_5b/1x1 <- inception_5a/output_inception_5a/output_0_split_0
I0403 19:41:29.420786 25567 net.cpp:399] inception_5b/1x1 -> inception_5b/1x1
I0403 19:41:29.424561 25567 net.cpp:141] Setting up inception_5b/1x1
I0403 19:41:29.424594 25567 net.cpp:148] Top shape: 24 384 7 7 (451584)
I0403 19:41:29.424612 25567 net.cpp:156] Memory required for data: 1327048224
I0403 19:41:29.424631 25567 layer_factory.hpp:77] Creating layer inception_5b/relu_1x1
I0403 19:41:29.424651 25567 net.cpp:91] Creating Layer inception_5b/relu_1x1
I0403 19:41:29.424669 25567 net.cpp:425] inception_5b/relu_1x1 <- inception_5b/1x1
I0403 19:41:29.424687 25567 net.cpp:386] inception_5b/relu_1x1 -> inception_5b/1x1 (in-place)
I0403 19:41:29.424988 25567 net.cpp:141] Setting up inception_5b/relu_1x1
I0403 19:41:29.425017 25567 net.cpp:148] Top shape: 24 384 7 7 (451584)
I0403 19:41:29.425035 25567 net.cpp:156] Memory required for data: 1328854560
I0403 19:41:29.425052 25567 layer_factory.hpp:77] Creating layer inception_5b/3x3_reduce
I0403 19:41:29.425076 25567 net.cpp:91] Creating Layer inception_5b/3x3_reduce
I0403 19:41:29.425097 25567 net.cpp:425] inception_5b/3x3_reduce <- inception_5a/output_inception_5a/output_0_split_1
I0403 19:41:29.425122 25567 net.cpp:399] inception_5b/3x3_reduce -> inception_5b/3x3_reduce
I0403 19:41:29.427850 25567 net.cpp:141] Setting up inception_5b/3x3_reduce
I0403 19:41:29.427882 25567 net.cpp:148] Top shape: 24 192 7 7 (225792)
I0403 19:41:29.427901 25567 net.cpp:156] Memory required for data: 1329757728
I0403 19:41:29.427922 25567 layer_factory.hpp:77] Creating layer inception_5b/relu_3x3_reduce
I0403 19:41:29.427942 25567 net.cpp:91] Creating Layer inception_5b/relu_3x3_reduce
I0403 19:41:29.427963 25567 net.cpp:425] inception_5b/relu_3x3_reduce <- inception_5b/3x3_reduce
I0403 19:41:29.427983 25567 net.cpp:386] inception_5b/relu_3x3_reduce -> inception_5b/3x3_reduce (in-place)
I0403 19:41:29.428171 25567 net.cpp:141] Setting up inception_5b/relu_3x3_reduce
I0403 19:41:29.428201 25567 net.cpp:148] Top shape: 24 192 7 7 (225792)
I0403 19:41:29.428217 25567 net.cpp:156] Memory required for data: 1330660896
I0403 19:41:29.428233 25567 layer_factory.hpp:77] Creating layer inception_5b/3x3
I0403 19:41:29.428258 25567 net.cpp:91] Creating Layer inception_5b/3x3
I0403 19:41:29.428280 25567 net.cpp:425] inception_5b/3x3 <- inception_5b/3x3_reduce
I0403 19:41:29.428305 25567 net.cpp:399] inception_5b/3x3 -> inception_5b/3x3
I0403 19:41:29.435052 25567 net.cpp:141] Setting up inception_5b/3x3
I0403 19:41:29.435083 25567 net.cpp:148] Top shape: 24 384 7 7 (451584)
I0403 19:41:29.435102 25567 net.cpp:156] Memory required for data: 1332467232
I0403 19:41:29.435120 25567 layer_factory.hpp:77] Creating layer inception_5b/relu_3x3
I0403 19:41:29.435140 25567 net.cpp:91] Creating Layer inception_5b/relu_3x3
I0403 19:41:29.435158 25567 net.cpp:425] inception_5b/relu_3x3 <- inception_5b/3x3
I0403 19:41:29.435178 25567 net.cpp:386] inception_5b/relu_3x3 -> inception_5b/3x3 (in-place)
I0403 19:41:29.435472 25567 net.cpp:141] Setting up inception_5b/relu_3x3
I0403 19:41:29.435500 25567 net.cpp:148] Top shape: 24 384 7 7 (451584)
I0403 19:41:29.435516 25567 net.cpp:156] Memory required for data: 1334273568
I0403 19:41:29.435530 25567 layer_factory.hpp:77] Creating layer inception_5b/5x5_reduce
I0403 19:41:29.435572 25567 net.cpp:91] Creating Layer inception_5b/5x5_reduce
I0403 19:41:29.435592 25567 net.cpp:425] inception_5b/5x5_reduce <- inception_5a/output_inception_5a/output_0_split_2
I0403 19:41:29.435619 25567 net.cpp:399] inception_5b/5x5_reduce -> inception_5b/5x5_reduce
I0403 19:41:29.436839 25567 net.cpp:141] Setting up inception_5b/5x5_reduce
I0403 19:41:29.436873 25567 net.cpp:148] Top shape: 24 48 7 7 (56448)
I0403 19:41:29.436889 25567 net.cpp:156] Memory required for data: 1334499360
I0403 19:41:29.436908 25567 layer_factory.hpp:77] Creating layer inception_5b/relu_5x5_reduce
I0403 19:41:29.436928 25567 net.cpp:91] Creating Layer inception_5b/relu_5x5_reduce
I0403 19:41:29.436945 25567 net.cpp:425] inception_5b/relu_5x5_reduce <- inception_5b/5x5_reduce
I0403 19:41:29.436967 25567 net.cpp:386] inception_5b/relu_5x5_reduce -> inception_5b/5x5_reduce (in-place)
I0403 19:41:29.437335 25567 net.cpp:141] Setting up inception_5b/relu_5x5_reduce
I0403 19:41:29.437364 25567 net.cpp:148] Top shape: 24 48 7 7 (56448)
I0403 19:41:29.437379 25567 net.cpp:156] Memory required for data: 1334725152
I0403 19:41:29.437396 25567 layer_factory.hpp:77] Creating layer inception_5b/5x5
I0403 19:41:29.437417 25567 net.cpp:91] Creating Layer inception_5b/5x5
I0403 19:41:29.437436 25567 net.cpp:425] inception_5b/5x5 <- inception_5b/5x5_reduce
I0403 19:41:29.437455 25567 net.cpp:399] inception_5b/5x5 -> inception_5b/5x5
I0403 19:41:29.439410 25567 net.cpp:141] Setting up inception_5b/5x5
I0403 19:41:29.439443 25567 net.cpp:148] Top shape: 24 128 7 7 (150528)
I0403 19:41:29.439461 25567 net.cpp:156] Memory required for data: 1335327264
I0403 19:41:29.439481 25567 layer_factory.hpp:77] Creating layer inception_5b/relu_5x5
I0403 19:41:29.439502 25567 net.cpp:91] Creating Layer inception_5b/relu_5x5
I0403 19:41:29.439520 25567 net.cpp:425] inception_5b/relu_5x5 <- inception_5b/5x5
I0403 19:41:29.439538 25567 net.cpp:386] inception_5b/relu_5x5 -> inception_5b/5x5 (in-place)
I0403 19:41:29.439726 25567 net.cpp:141] Setting up inception_5b/relu_5x5
I0403 19:41:29.439757 25567 net.cpp:148] Top shape: 24 128 7 7 (150528)
I0403 19:41:29.439774 25567 net.cpp:156] Memory required for data: 1335929376
I0403 19:41:29.439791 25567 layer_factory.hpp:77] Creating layer inception_5b/pool
I0403 19:41:29.439813 25567 net.cpp:91] Creating Layer inception_5b/pool
I0403 19:41:29.439831 25567 net.cpp:425] inception_5b/pool <- inception_5a/output_inception_5a/output_0_split_3
I0403 19:41:29.439852 25567 net.cpp:399] inception_5b/pool -> inception_5b/pool
I0403 19:41:29.439923 25567 net.cpp:141] Setting up inception_5b/pool
I0403 19:41:29.439951 25567 net.cpp:148] Top shape: 24 832 7 7 (978432)
I0403 19:41:29.439967 25567 net.cpp:156] Memory required for data: 1339843104
I0403 19:41:29.439985 25567 layer_factory.hpp:77] Creating layer inception_5b/pool_proj
I0403 19:41:29.440006 25567 net.cpp:91] Creating Layer inception_5b/pool_proj
I0403 19:41:29.440024 25567 net.cpp:425] inception_5b/pool_proj <- inception_5b/pool
I0403 19:41:29.440047 25567 net.cpp:399] inception_5b/pool_proj -> inception_5b/pool_proj
I0403 19:41:29.442270 25567 net.cpp:141] Setting up inception_5b/pool_proj
I0403 19:41:29.442304 25567 net.cpp:148] Top shape: 24 128 7 7 (150528)
I0403 19:41:29.442322 25567 net.cpp:156] Memory required for data: 1340445216
I0403 19:41:29.442342 25567 layer_factory.hpp:77] Creating layer inception_5b/relu_pool_proj
I0403 19:41:29.442361 25567 net.cpp:91] Creating Layer inception_5b/relu_pool_proj
I0403 19:41:29.442381 25567 net.cpp:425] inception_5b/relu_pool_proj <- inception_5b/pool_proj
I0403 19:41:29.442401 25567 net.cpp:386] inception_5b/relu_pool_proj -> inception_5b/pool_proj (in-place)
I0403 19:41:29.442692 25567 net.cpp:141] Setting up inception_5b/relu_pool_proj
I0403 19:41:29.442723 25567 net.cpp:148] Top shape: 24 128 7 7 (150528)
I0403 19:41:29.442739 25567 net.cpp:156] Memory required for data: 1341047328
I0403 19:41:29.442755 25567 layer_factory.hpp:77] Creating layer inception_5b/output
I0403 19:41:29.442775 25567 net.cpp:91] Creating Layer inception_5b/output
I0403 19:41:29.442808 25567 net.cpp:425] inception_5b/output <- inception_5b/1x1
I0403 19:41:29.442828 25567 net.cpp:425] inception_5b/output <- inception_5b/3x3
I0403 19:41:29.442845 25567 net.cpp:425] inception_5b/output <- inception_5b/5x5
I0403 19:41:29.442863 25567 net.cpp:425] inception_5b/output <- inception_5b/pool_proj
I0403 19:41:29.442883 25567 net.cpp:399] inception_5b/output -> inception_5b/output
I0403 19:41:29.442934 25567 net.cpp:141] Setting up inception_5b/output
I0403 19:41:29.442962 25567 net.cpp:148] Top shape: 24 1024 7 7 (1204224)
I0403 19:41:29.442980 25567 net.cpp:156] Memory required for data: 1345864224
I0403 19:41:29.442996 25567 layer_factory.hpp:77] Creating layer pool5/7x7_s1
I0403 19:41:29.443012 25567 net.cpp:91] Creating Layer pool5/7x7_s1
I0403 19:41:29.443029 25567 net.cpp:425] pool5/7x7_s1 <- inception_5b/output
I0403 19:41:29.443049 25567 net.cpp:399] pool5/7x7_s1 -> pool5/7x7_s1
I0403 19:41:29.443267 25567 net.cpp:141] Setting up pool5/7x7_s1
I0403 19:41:29.443296 25567 net.cpp:148] Top shape: 24 1024 1 1 (24576)
I0403 19:41:29.443312 25567 net.cpp:156] Memory required for data: 1345962528
I0403 19:41:29.443330 25567 layer_factory.hpp:77] Creating layer pool5/drop_7x7_s1
I0403 19:41:29.443346 25567 net.cpp:91] Creating Layer pool5/drop_7x7_s1
I0403 19:41:29.443361 25567 net.cpp:425] pool5/drop_7x7_s1 <- pool5/7x7_s1
I0403 19:41:29.443382 25567 net.cpp:386] pool5/drop_7x7_s1 -> pool5/7x7_s1 (in-place)
I0403 19:41:29.443435 25567 net.cpp:141] Setting up pool5/drop_7x7_s1
I0403 19:41:29.443460 25567 net.cpp:148] Top shape: 24 1024 1 1 (24576)
I0403 19:41:29.443476 25567 net.cpp:156] Memory required for data: 1346060832
I0403 19:41:29.443491 25567 layer_factory.hpp:77] Creating layer loss3/classifier_plantvillage
I0403 19:41:29.443511 25567 net.cpp:91] Creating Layer loss3/classifier_plantvillage
I0403 19:41:29.443528 25567 net.cpp:425] loss3/classifier_plantvillage <- pool5/7x7_s1
I0403 19:41:29.443550 25567 net.cpp:399] loss3/classifier_plantvillage -> loss3/classifier_plantvillage
I0403 19:41:29.443964 25567 net.cpp:141] Setting up loss3/classifier_plantvillage
I0403 19:41:29.443994 25567 net.cpp:148] Top shape: 24 38 (912)
I0403 19:41:29.444011 25567 net.cpp:156] Memory required for data: 1346064480
I0403 19:41:29.444030 25567 layer_factory.hpp:77] Creating layer loss3/classifier_plantvillage_loss3/classifier_plantvillage_0_split
I0403 19:41:29.444051 25567 net.cpp:91] Creating Layer loss3/classifier_plantvillage_loss3/classifier_plantvillage_0_split
I0403 19:41:29.444070 25567 net.cpp:425] loss3/classifier_plantvillage_loss3/classifier_plantvillage_0_split <- loss3/classifier_plantvillage
I0403 19:41:29.444092 25567 net.cpp:399] loss3/classifier_plantvillage_loss3/classifier_plantvillage_0_split -> loss3/classifier_plantvillage_loss3/classifier_plantvillage_0_split_0
I0403 19:41:29.444115 25567 net.cpp:399] loss3/classifier_plantvillage_loss3/classifier_plantvillage_0_split -> loss3/classifier_plantvillage_loss3/classifier_plantvillage_0_split_1
I0403 19:41:29.444138 25567 net.cpp:399] loss3/classifier_plantvillage_loss3/classifier_plantvillage_0_split -> loss3/classifier_plantvillage_loss3/classifier_plantvillage_0_split_2
I0403 19:41:29.444159 25567 net.cpp:399] loss3/classifier_plantvillage_loss3/classifier_plantvillage_0_split -> loss3/classifier_plantvillage_loss3/classifier_plantvillage_0_split_3
I0403 19:41:29.444268 25567 net.cpp:141] Setting up loss3/classifier_plantvillage_loss3/classifier_plantvillage_0_split
I0403 19:41:29.444296 25567 net.cpp:148] Top shape: 24 38 (912)
I0403 19:41:29.444314 25567 net.cpp:148] Top shape: 24 38 (912)
I0403 19:41:29.444329 25567 net.cpp:148] Top shape: 24 38 (912)
I0403 19:41:29.444346 25567 net.cpp:148] Top shape: 24 38 (912)
I0403 19:41:29.444361 25567 net.cpp:156] Memory required for data: 1346079072
I0403 19:41:29.444376 25567 layer_factory.hpp:77] Creating layer loss1/loss
I0403 19:41:29.444399 25567 net.cpp:91] Creating Layer loss1/loss
I0403 19:41:29.444417 25567 net.cpp:425] loss1/loss <- loss1/classifier_plantvillage_loss1/classifier_plantvillage_0_split_0
I0403 19:41:29.444452 25567 net.cpp:425] loss1/loss <- label_data_1_split_0
…
