…
I0403 19:34:15.316732 25138 net.cpp:313] The NetState phase (1) differed from the phase (0) specified by a rule in layer data
I0403 19:34:15.317946 25138 net.cpp:49] Initializing net from parameters: 
state {
  phase: TEST
}
layer {
  name: "data"
  type: "Data"
  top: "data"
  top: "label"
  include {
    phase: TEST
  }
  transform_param {
    mirror: false
    crop_size: 224
    mean_file: "/home/mohanty/data/final_dataset/lmdb/grayscale-80-20/mean.binaryproto"
  }
  data_param {
    source: "/home/mohanty/data/final_dataset/lmdb/grayscale-80-20/test_db"
    batch_size: 24
    backend: LMDB
  }
}
layer {
  name: "conv1/7x7_s2"
  type: "Convolution"
  bottom: "data"
  top: "conv1/7x7_s2"
  param {
    lr_mult: 1
    decay_mult: 1
  }
  param {
    lr_mult: 2
    decay_mult: 0
  }
  convolution_param {
    num_output: 64
    pad: 3
    kernel_size: 7
    stride: 2
    weight_filler {
      type: "xavier"
      std: 0.1
    }
    bias_filler {
      type: "constant"
      value: 0.2
    }
  }
}
layer {
  name: "conv1/relu_7x7"
  type: "ReLU"
  bottom: "conv1/7x7_s2"
  top: "conv1/7x7_s2"
}
layer {
  name: "pool1/3x3_s2"
  type: "Pooling"
  bottom: "conv1/7x7_s2"
  top: "pool1/3x3_s2"
  pooling_param {
    pool: MAX
    kernel_size: 3
    stride: 2
  }
}
layer {
  name: "pool1/norm1"
  type: "LRN"
  bottom: "pool1/3x3_s2"
  top: "pool1/norm1"
  lrn_param {
    local_size: 5
    alpha: 0.0001
    beta: 0.75
  }
}
layer {
  name: "conv2/3x3_reduce"
  type: "Convolution"
  bottom: "pool1/norm1"
  top: "conv2/3x3_reduce"
  param {
    lr_mult: 1
    decay_mult: 1
  }
  param {
    lr_mult: 2
    decay_mult: 0
  }
  convolution_param {
    num_output: 64
    kernel_size: 1
    weight_filler {
      type: "xavier"
      std: 0.1
    }
    bias_filler {
      type: "constant"
      value: 0.2
    }
  }
}
layer {
  name: "conv2/relu_3x3_reduce"
  type: "ReLU"
  bottom: "conv2/3x3_reduce"
  top: "conv2/3x3_reduce"
}
layer {
  name: "conv2/3x3"
  type: "Convolution"
  bottom: "conv2/3x3_reduce"
  top: "conv2/3x3"
  param {
    lr_mult: 1
    decay_mult: 1
  }
  param {
    lr_mult: 2
    decay_mult: 0
  }
  convolution_param {
    num_output: 192
    pad: 1
    kernel_size: 3
    weight_filler {
      type: "xavier"
      std: 0.03
    }
    bias_filler {
      type: "constant"
      value: 0.2
    }
  }
}
layer {
  name: "conv2/relu_3x3"
  type: "ReLU"
  bottom: "conv2/3x3"
  top: "conv2/3x3"
}
layer {
  name: "conv2/norm2"
  type: "LRN"
  bottom: "conv2/3x3"
  top: "conv2/norm2"
  lrn_param {
    local_size: 5
    alpha: 0.0001
    beta: 0.75
  }
}
layer {
  name: "pool2/3x3_s2"
  type: "Pooling"
  bottom: "conv2/norm2"
  top: "pool2/3x3_s2"
  pooling_param {
    pool: MAX
    kernel_size: 3
    stride: 2
  }
}
layer {
  name: "inception_3a/1x1"
  type: "Convolution"
  bottom: "pool2/3x3_s2"
  top: "inception_3a/1x1"
  param {
    lr_mult: 1
    decay_mult: 1
  }
  param {
    lr_mult: 2
    decay_mult: 0
  }
  convolution_param {
    num_output: 64
    kernel_size: 1
    weight_filler {
      type: "xavier"
      std: 0.03
    }
    bias_filler {
      type: "constant"
      value: 0.2
    }
  }
}
layer {
  name: "inception_3a/relu_1x1"
  type: "ReLU"
  bottom: "inception_3a/1x1"
  top: "inception_3a/1x1"
}
layer {
  name: "inception_3a/3x3_reduce"
  type: "Convolution"
  bottom: "pool2/3x3_s2"
  top: "inception_3a/3x3_reduce"
  param {
    lr_mult: 1
    decay_mult: 1
  }
  param {
    lr_mult: 2
    decay_mult: 0
  }
  convolution_param {
    num_output: 96
    kernel_size: 1
    weight_filler {
      type: "xavier"
      std: 0.09
    }
    bias_filler {
      type: "constant"
      value: 0.2
    }
  }
}
layer {
  name: "inception_3a/relu_3x3_reduce"
  type: "ReLU"
  bottom: "inception_3a/3x3_reduce"
  top: "inception_3a/3x3_reduce"
}
layer {
  name: "inception_3a/3x3"
  type: "Convolution"
  bottom: "inception_3a/3x3_reduce"
  top: "inception_3a/3x3"
  param {
    lr_mult: 1
    decay_mult: 1
  }
  param {
    lr_mult: 2
    decay_mult: 0
  }
  convolution_param {
    num_output: 128
    pad: 1
    kernel_size: 3
    weight_filler {
      type: "xavier"
      std: 0.03
    }
    bias_filler {
      type: "constant"
      value: 0.2
    }
  }
}
layer {
  name: "inception_3a/relu_3x3"
  type: "ReLU"
  bottom: "inception_3a/3x3"
  top: "inception_3a/3x3"
}
layer {
  name: "inception_3a/5x5_reduce"
  type: "Convolution"
  bottom: "pool2/3x3_s2"
  top: "inception_3a/5x5_reduce"
  param {
    lr_mult: 1
    decay_mult: 1
  }
  param {
    lr_mult: 2
    decay_mult: 0
  }
  convolution_param {
    num_output: 16
    kernel_size: 1
    weight_filler {
      type: "xavier"
      std: 0.2
    }
    bias_filler {
      type: "constant"
      value: 0.2
    }
  }
}
layer {
  name: "inception_3a/relu_5x5_reduce"
  type: "ReLU"
  bottom: "inception_3a/5x5_reduce"
  top: "inception_3a/5x5_reduce"
}
layer {
  name: "inception_3a/5x5"
  type: "Convolution"
  bottom: "inception_3a/5x5_reduce"
  top: "inception_3a/5x5"
  param {
    lr_mult: 1
    decay_mult: 1
  }
  param {
    lr_mult: 2
    decay_mult: 0
  }
  convolution_param {
    num_output: 32
    pad: 2
    kernel_size: 5
    weight_filler {
      type: "xavier"
      std: 0.03
    }
    bias_filler {
      type: "constant"
      value: 0.2
    }
  }
}
layer {
  name: "inception_3a/relu_5x5"
  type: "ReLU"
  bottom: "inception_3a/5x5"
  top: "inception_3a/5x5"
}
layer {
  name: "inception_3a/pool"
  type: "Pooling"
  bottom: "pool2/3x3_s2"
  top: "inception_3a/pool"
  pooling_param {
    pool: MAX
    kernel_size: 3
    stride: 1
    pad: 1
  }
}
layer {
  name: "inception_3a/pool_proj"
  type: "Convolution"
  bottom: "inception_3a/pool"
  top: "inception_3a/pool_proj"
  param {
    lr_mult: 1
    decay_mult: 1
  }
  param {
    lr_mult: 2
    decay_mult: 0
  }
  convolution_param {
    num_output: 32
    kernel_size: 1
    weight_filler {
      type: "xavier"
      std: 0.1
    }
    bias_filler {
      type: "constant"
      value: 0.2
    }
  }
}
layer {
  name: "inception_3a/relu_pool_proj"
  type: "ReLU"
  bottom: "inception_3a/pool_proj"
  top: "inception_3a/pool_proj"
}
layer {
  name: "inception_3a/output"
  type: "Concat"
  bottom: "inception_3a/1x1"
  bottom: "inception_3a/3x3"
  bottom: "inception_3a/5x5"
  bottom: "inception_3a/pool_proj"
  top: "inception_3a/output"
}
layer {
  name: "inception_3b/1x1"
  type: "Convolution"
  bottom: "inception_3a/output"
  top: "inception_3b/1x1"
  param {
    lr_mult: 1
    decay_mult: 1
  }
  param {
    lr_mult: 2
    decay_mult: 0
  }
  convolution_param {
    num_output: 128
    kernel_size: 1
    weight_filler {
      type: "xavier"
      std: 0.03
    }
    bias_filler {
      type: "constant"
      value: 0.2
    }
  }
}
layer {
  name: "inception_3b/relu_1x1"
  type: "ReLU"
  bottom: "inception_3b/1x1"
  top: "inception_3b/1x1"
}
layer {
  name: "inception_3b/3x3_reduce"
  type: "Convolution"
  bottom: "inception_3a/output"
  top: "inception_3b/3x3_reduce"
  param {
    lr_mult: 1
    decay_mult: 1
  }
  param {
    lr_mult: 2
    decay_mult: 0
  }
  convolution_param {
    num_output: 128
    kernel_size: 1
    weight_filler {
      type: "xavier"
      std: 0.09
    }
    bias_filler {
      type: "constant"
      value: 0.2
    }
  }
}
layer {
  name: "inception_3b/relu_3x3_reduce"
  type: "ReLU"
  bottom: "inception_3b/3x3_reduce"
  top: "inception_3b/3x3_reduce"
}
layer {
  name: "inception_3b/3x3"
  type: "Convolution"
  bottom: "inception_3b/3x3_reduce"
  top: "inception_3b/3x3"
  param {
    lr_mult: 1
    decay_mult: 1
  }
  param {
    lr_mult: 2
    decay_mult: 0
  }
  convolution_param {
    num_output: 192
    pad: 1
    kernel_size: 3
    weight_filler {
      type: "xavier"
      std: 0.03
    }
    bias_filler {
      type: "constant"
      value: 0.2
    }
  }
}
layer {
  name: "inception_3b/relu_3x3"
  type: "ReLU"
  bottom: "inception_3b/3x3"
  top: "inception_3b/3x3"
}
layer {
  name: "inception_3b/5x5_reduce"
  type: "Convolution"
  bottom: "inception_3a/output"
  top: "inception_3b/5x5_reduce"
  param {
    lr_mult: 1
    decay_mult: 1
  }
  param {
    lr_mult: 2
    decay_mult: 0
  }
  convolution_param {
    num_output: 32
    kernel_size: 1
    weight_filler {
      type: "xavier"
      std: 0.2
    }
    bias_filler {
      type: "constant"
      value: 0.2
    }
  }
}
layer {
  name: "inception_3b/relu_5x5_reduce"
  type: "ReLU"
  bottom: "inception_3b/5x5_reduce"
  top: "inception_3b/5x5_reduce"
}
layer {
  name: "inception_3b/5x5"
  type: "Convolution"
  bottom: "inception_3b/5x5_reduce"
  top: "inception_3b/5x5"
  param {
    lr_mult: 1
    decay_mult: 1
  }
  param {
    lr_mult: 2
    decay_mult: 0
  }
  convolution_param {
    num_output: 96
    pad: 2
    kernel_size: 5
    weight_filler {
      type: "xavier"
      std: 0.03
    }
    bias_filler {
      type: "constant"
      value: 0.2
    }
  }
}
layer {
  name: "inception_3b/relu_5x5"
  type: "ReLU"
  bottom: "inception_3b/5x5"
  top: "inception_3b/5x5"
}
layer {
  name: "inception_3b/pool"
  type: "Pooling"
  bottom: "inception_3a/output"
  top: "inception_3b/pool"
  pooling_param {
    pool: MAX
    kernel_size: 3
    stride: 1
    pad: 1
  }
}
layer {
  name: "inception_3b/pool_proj"
  type: "Convolution"
  bottom: "inception_3b/pool"
  top: "inception_3b/pool_proj"
  param {
    lr_mult: 1
    decay_mult: 1
  }
  param {
    lr_mult: 2
    decay_mult: 0
  }
  convolution_param {
    num_output: 64
    kernel_size: 1
    weight_filler {
      type: "xavier"
      std: 0.1
    }
    bias_filler {
      type: "constant"
      value: 0.2
    }
  }
}
layer {
  name: "inception_3b/relu_pool_proj"
  type: "ReLU"
  bottom: "inception_3b/pool_proj"
  top: "inception_3b/pool_proj"
}
layer {
  name: "inception_3b/output"
  type: "Concat"
  bottom: "inception_3b/1x1"
  bottom: "inception_3b/3x3"
  bottom: "inception_3b/5x5"
  bottom: "inception_3b/pool_proj"
  top: "inception_3b/output"
}
layer {
  name: "pool3/3x3_s2"
  type: "Pooling"
  bottom: "inception_3b/output"
  top: "pool3/3x3_s2"
  pooling_param {
    pool: MAX
    kernel_size: 3
    stride: 2
  }
}
layer {
  name: "inception_4a/1x1"
  type: "Convolution"
  bottom: "pool3/3x3_s2"
  top: "inception_4a/1x1"
  param {
    lr_mult: 1
    decay_mult: 1
  }
  param {
    lr_mult: 2
    decay_mult: 0
  }
  convolution_param {
    num_output: 192
    kernel_size: 1
    weight_filler {
      type: "xavier"
      std: 0.03
    }
    bias_filler {
      type: "constant"
      value: 0.2
    }
  }
}
layer {
  name: "inception_4a/relu_1x1"
  type: "ReLU"
  bottom: "inception_4a/1x1"
  top: "inception_4a/1x1"
}
layer {
  name: "inception_4a/3x3_reduce"
  type: "Convolution"
  bottom: "pool3/3x3_s2"
  top: "inception_4a/3x3_reduce"
  param {
    lr_mult: 1
    decay_mult: 1
  }
  param {
    lr_mult: 2
    decay_mult: 0
  }
  convolution_param {
    num_output: 96
    kernel_size: 1
    weight_filler {
      type: "xavier"
      std: 0.09
    }
    bias_filler {
      type: "constant"
      value: 0.2
    }
  }
}
layer {
  name: "inception_4a/relu_3x3_reduce"
  type: "ReLU"
  bottom: "inception_4a/3x3_reduce"
  top: "inception_4a/3x3_reduce"
}
layer {
  name: "inception_4a/3x3"
  type: "Convolution"
  bottom: "inception_4a/3x3_reduce"
  top: "inception_4a/3x3"
  param {
    lr_mult: 1
    decay_mult: 1
  }
  param {
    lr_mult: 2
    decay_mult: 0
  }
  convolution_param {
    num_output: 208
    pad: 1
    kernel_size: 3
    weight_filler {
      type: "xavier"
      std: 0.03
    }
    bias_filler {
      type: "constant"
      value: 0.2
    }
  }
}
layer {
  name: "inception_4a/relu_3x3"
  type: "ReLU"
  bottom: "inception_4a/3x3"
  top: "inception_4a/3x3"
}
layer {
  name: "inception_4a/5x5_reduce"
  type: "Convolution"
  bottom: "pool3/3x3_s2"
  top: "inception_4a/5x5_reduce"
  param {
    lr_mult: 1
    decay_mult: 1
  }
  param {
    lr_mult: 2
    decay_mult: 0
  }
  convolution_param {
    num_output: 16
    kernel_size: 1
    weight_filler {
      type: "xavier"
      std: 0.2
    }
    bias_filler {
      type: "constant"
      value: 0.2
    }
  }
}
layer {
  name: "inception_4a/relu_5x5_reduce"
  type: "ReLU"
  bottom: "inception_4a/5x5_reduce"
  top: "inception_4a/5x5_reduce"
}
layer {
  name: "inception_4a/5x5"
  type: "Convolution"
  bottom: "inception_4a/5x5_reduce"
  top: "inception_4a/5x5"
  param {
    lr_mult: 1
    decay_mult: 1
  }
  param {
    lr_mult: 2
    decay_mult: 0
  }
  convolution_param {
    num_output: 48
    pad: 2
    kernel_size: 5
    weight_filler {
      type: "xavier"
      std: 0.03
    }
    bias_filler {
      type: "constant"
      value: 0.2
    }
  }
}
layer {
  name: "inception_4a/relu_5x5"
  type: "ReLU"
  bottom: "inception_4a/5x5"
  top: "inception_4a/5x5"
}
layer {
  name: "inception_4a/pool"
  type: "Pooling"
  bottom: "pool3/3x3_s2"
  top: "inception_4a/pool"
  pooling_param {
    pool: MAX
    kernel_size: 3
    stride: 1
    pad: 1
  }
}
layer {
  name: "inception_4a/pool_proj"
  type: "Convolution"
  bottom: "inception_4a/pool"
  top: "inception_4a/pool_proj"
  param {
    lr_mult: 1
    decay_mult: 1
  }
  param {
    lr_mult: 2
    decay_mult: 0
  }
  convolution_param {
    num_output: 64
    kernel_size: 1
    weight_filler {
      type: "xavier"
      std: 0.1
    }
    bias_filler {
      type: "constant"
      value: 0.2
    }
  }
}
layer {
  name: "inception_4a/relu_pool_proj"
  type: "ReLU"
  bottom: "inception_4a/pool_proj"
  top: "inception_4a/pool_proj"
}
layer {
  name: "inception_4a/output"
  type: "Concat"
  bottom: "inception_4a/1x1"
  bottom: "inception_4a/3x3"
  bottom: "inception_4a/5x5"
  bottom: "inception_4a/pool_proj"
  top: "inception_4a/output"
}
layer {
  name: "loss1/ave_pool"
  type: "Pooling"
  bottom: "inception_4a/output"
  top: "loss1/ave_pool"
  pooling_param {
    pool: AVE
    kernel_size: 5
    stride: 3
  }
}
layer {
  name: "loss1/conv"
  type: "Convolution"
  bottom: "loss1/ave_pool"
  top: "loss1/conv"
  param {
    lr_mult: 1
    decay_mult: 1
  }
  param {
    lr_mult: 2
    decay_mult: 0
  }
  convolution_param {
    num_output: 128
    kernel_size: 1
    weight_filler {
      type: "xavier"
      std: 0.08
    }
    bias_filler {
      type: "constant"
      value: 0.2
    }
  }
}
layer {
  name: "loss1/relu_conv"
  type: "ReLU"
  bottom: "loss1/conv"
  top: "loss1/conv"
}
layer {
  name: "loss1/fc"
  type: "InnerProduct"
  bottom: "loss1/conv"
  top: "loss1/fc"
  param {
    lr_mult: 1
    decay_mult: 1
  }
  param {
    lr_mult: 2
    decay_mult: 0
  }
  inner_product_param {
    num_output: 1024
    weight_filler {
      type: "xavier"
      std: 0.02
    }
    bias_filler {
      type: "constant"
      value: 0.2
    }
  }
}
layer {
  name: "loss1/relu_fc"
  type: "ReLU"
  bottom: "loss1/fc"
  top: "loss1/fc"
}
layer {
  name: "loss1/drop_fc"
  type: "Dropout"
  bottom: "loss1/fc"
  top: "loss1/fc"
  dropout_param {
    dropout_ratio: 0.7
  }
}
layer {
  name: "loss1/classifier_plantvillage"
  type: "InnerProduct"
  bottom: "loss1/fc"
  top: "loss1/classifier_plantvillage"
  param {
    lr_mult: 1
    decay_mult: 1
  }
  param {
    lr_mult: 2
    decay_mult: 0
  }
  inner_product_param {
    num_output: 38
    weight_filler {
      type: "xavier"
      std: 0.0009765625
    }
    bias_filler {
      type: "constant"
      value: 0
    }
  }
}
layer {
  name: "inception_4b/1x1"
  type: "Convolution"
  bottom: "inception_4a/output"
  top: "inception_4b/1x1"
  param {
    lr_mult: 1
    decay_mult: 1
  }
  param {
    lr_mult: 2
    decay_mult: 0
  }
  convolution_param {
    num_output: 160
    kernel_size: 1
    weight_filler {
      type: "xavier"
      std: 0.03
    }
    bias_filler {
      type: "constant"
      value: 0.2
    }
  }
}
layer {
  name: "inception_4b/relu_1x1"
  type: "ReLU"
  bottom: "inception_4b/1x1"
  top: "inception_4b/1x1"
}
layer {
  name: "inception_4b/3x3_reduce"
  type: "Convolution"
  bottom: "inception_4a/output"
  top: "inception_4b/3x3_reduce"
  param {
    lr_mult: 1
    decay_mult: 1
  }
  param {
    lr_mult: 2
    decay_mult: 0
  }
  convolution_param {
    num_output: 112
    kernel_size: 1
    weight_filler {
      type: "xavier"
      std: 0.09
    }
    bias_filler {
      type: "constant"
      value: 0.2
    }
  }
}
layer {
  name: "inception_4b/relu_3x3_reduce"
  type: "ReLU"
  bottom: "inception_4b/3x3_reduce"
  top: "inception_4b/3x3_reduce"
}
layer {
  name: "inception_4b/3x3"
  type: "Convolution"
  bottom: "inception_4b/3x3_reduce"
  top: "inception_4b/3x3"
  param {
    lr_mult: 1
    decay_mult: 1
  }
  param {
    lr_mult: 2
    decay_mult: 0
  }
  convolution_param {
    num_output: 224
    pad: 1
    kernel_size: 3
    weight_filler {
      type: "xavier"
      std: 0.03
    }
    bias_filler {
      type: "constant"
      value: 0.2
    }
  }
}
layer {
  name: "inception_4b/relu_3x3"
  type: "ReLU"
  bottom: "inception_4b/3x3"
  top: "inception_4b/3x3"
}
layer {
  name: "inception_4b/5x5_reduce"
  type: "Convolution"
  bottom: "inception_4a/output"
  top: "inception_4b/5x5_reduce"
  param {
    lr_mult: 1
    decay_mult: 1
  }
  param {
    lr_mult: 2
    decay_mult: 0
  }
  convolution_param {
    num_output: 24
    kernel_size: 1
    weight_filler {
      type: "xavier"
      std: 0.2
    }
    bias_filler {
      type: "constant"
      value: 0.2
    }
  }
}
layer {
  name: "inception_4b/relu_5x5_reduce"
  type: "ReLU"
  bottom: "inception_4b/5x5_reduce"
  top: "inception_4b/5x5_reduce"
}
layer {
  name: "inception_4b/5x5"
  type: "Convolution"
  bottom: "inception_4b/5x5_reduce"
  top: "inception_4b/5x5"
  param {
    lr_mult: 1
    decay_mult: 1
  }
  param {
    lr_mult: 2
    decay_mult: 0
  }
  convolution_param {
    num_output: 64
    pad: 2
    kernel_size: 5
    weight_filler {
      type: "xavier"
      std: 0.03
    }
    bias_filler {
      type: "constant"
      value: 0.2
    }
  }
}
layer {
  name: "inception_4b/relu_5x5"
  type: "ReLU"
  bottom: "inception_4b/5x5"
  top: "inception_4b/5x5"
}
layer {
  name: "inception_4b/pool"
  type: "Pooling"
  bottom: "inception_4a/output"
  top: "inception_4b/pool"
  pooling_param {
    pool: MAX
    kernel_size: 3
    stride: 1
    pad: 1
  }
}
layer {
  name: "inception_4b/pool_proj"
  type: "Convolution"
  bottom: "inception_4b/pool"
  top: "inception_4b/pool_proj"
  param {
    lr_mult: 1
    decay_mult: 1
  }
  param {
    lr_mult: 2
    decay_mult: 0
  }
  convolution_param {
    num_output: 64
    kernel_size: 1
    weight_filler {
      type: "xavier"
      std: 0.1
    }
    bias_filler {
      type: "constant"
      value: 0.2
    }
  }
}
layer {
  name: "inception_4b/relu_pool_proj"
  type: "ReLU"
  bottom: "inception_4b/pool_proj"
  top: "inception_4b/pool_proj"
}
layer {
  name: "inception_4b/output"
  type: "Concat"
  bottom: "inception_4b/1x1"
  bottom: "inception_4b/3x3"
  bottom: "inception_4b/5x5"
  bottom: "inception_4b/pool_proj"
  top: "inception_4b/output"
}
layer {
  name: "inception_4c/1x1"
  type: "Convolution"
  bottom: "inception_4b/output"
  top: "inception_4c/1x1"
  param {
    lr_mult: 1
    decay_mult: 1
  }
  param {
    lr_mult: 2
    decay_mult: 0
  }
  convolution_param {
    num_output: 128
    kernel_size: 1
    weight_filler {
      type: "xavier"
      std: 0.03
    }
    bias_filler {
      type: "constant"
      value: 0.2
    }
  }
}
layer {
  name: "inception_4c/relu_1x1"
  type: "ReLU"
  bottom: "inception_4c/1x1"
  top: "inception_4c/1x1"
}
layer {
  name: "inception_4c/3x3_reduce"
  type: "Convolution"
  bottom: "inception_4b/output"
  top: "inception_4c/3x3_reduce"
  param {
    lr_mult: 1
    decay_mult: 1
  }
  param {
    lr_mult: 2
    decay_mult: 0
  }
  convolution_param {
    num_output: 128
    kernel_size: 1
    weight_filler {
      type: "xavier"
      std: 0.09
    }
    bias_filler {
      type: "constant"
      value: 0.2
    }
  }
}
layer {
  name: "inception_4c/relu_3x3_reduce"
  type: "ReLU"
  bottom: "inception_4c/3x3_reduce"
  top: "inception_4c/3x3_reduce"
}
layer {
  name: "inception_4c/3x3"
  type: "Convolution"
  bottom: "inception_4c/3x3_reduce"
  top: "inception_4c/3x3"
  param {
    lr_mult: 1
    decay_mult: 1
  }
  param {
    lr_mult: 2
    decay_mult: 0
  }
  convolution_param {
    num_output: 256
    pad: 1
    kernel_size: 3
    weight_filler {
      type: "xavier"
      std: 0.03
    }
    bias_filler {
      type: "constant"
      value: 0.2
    }
  }
}
layer {
  name: "inception_4c/relu_3x3"
  type: "ReLU"
  bottom: "inception_4c/3x3"
  top: "inception_4c/3x3"
}
layer {
  name: "inception_4c/5x5_reduce"
  type: "Convolution"
  bottom: "inception_4b/output"
  top: "inception_4c/5x5_reduce"
  param {
    lr_mult: 1
    decay_mult: 1
  }
  param {
    lr_mult: 2
    decay_mult: 0
  }
  convolution_param {
    num_output: 24
    kernel_size: 1
    weight_filler {
      type: "xavier"
      std: 0.2
    }
    bias_filler {
      type: "constant"
      value: 0.2
    }
  }
}
layer {
  name: "inception_4c/relu_5x5_reduce"
  type: "ReLU"
  bottom: "inception_4c/5x5_reduce"
  top: "inception_4c/5x5_reduce"
}
layer {
  name: "inception_4c/5x5"
  type: "Convolution"
  bottom: "inception_4c/5x5_reduce"
  top: "inception_4c/5x5"
  param {
    lr_mult: 1
    decay_mult: 1
  }
  param {
    lr_mult: 2
    decay_mult: 0
  }
  convolution_param {
    num_output: 64
    pad: 2
    kernel_size: 5
    weight_filler {
      type: "xavier"
      std: 0.03
    }
    bias_filler {
      type: "constant"
      value: 0.2
    }
  }
}
layer {
  name: "inception_4c/relu_5x5"
  type: "ReLU"
  bottom: "inception_4c/5x5"
  top: "inception_4c/5x5"
}
layer {
  name: "inception_4c/pool"
  type: "Pooling"
  bottom: "inception_4b/output"
  top: "inception_4c/pool"
  pooling_param {
    pool: MAX
    kernel_size: 3
    stride: 1
    pad: 1
  }
}
layer {
  name: "inception_4c/pool_proj"
  type: "Convolution"
  bottom: "inception_4c/pool"
  top: "inception_4c/pool_proj"
  param {
    lr_mult: 1
    decay_mult: 1
  }
  param {
    lr_mult: 2
    decay_mult: 0
  }
  convolution_param {
    num_output: 64
    kernel_size: 1
    weight_filler {
      type: "xavier"
      std: 0.1
    }
    bias_filler {
      type: "constant"
      value: 0.2
    }
  }
}
layer {
  name: "inception_4c/relu_pool_proj"
  type: "ReLU"
  bottom: "inception_4c/pool_proj"
  top: "inception_4c/pool_proj"
}
layer {
  name: "inception_4c/output"
  type: "Concat"
  bottom: "inception_4c/1x1"
  bottom: "inception_4c/3x3"
  bottom: "inception_4c/5x5"
  bottom: "inception_4c/pool_proj"
  top: "inception_4c/output"
}
layer {
  name: "inception_4d/1x1"
  type: "Convolution"
  bottom: "inception_4c/output"
  top: "inception_4d/1x1"
  param {
    lr_mult: 1
    decay_mult: 1
  }
  param {
    lr_mult: 2
    decay_mult: 0
  }
  convolution_param {
    num_output: 112
    kernel_size: 1
    weight_filler {
      type: "xavier"
      std: 0.03
    }
    bias_filler {
      type: "constant"
      value: 0.2
    }
  }
}
layer {
  name: "inception_4d/relu_1x1"
  type: "ReLU"
  bottom: "inception_4d/1x1"
  top: "inception_4d/1x1"
}
layer {
  name: "inception_4d/3x3_reduce"
  type: "Convolution"
  bottom: "inception_4c/output"
  top: "inception_4d/3x3_reduce"
  param {
    lr_mult: 1
    decay_mult: 1
  }
  param {
    lr_mult: 2
    decay_mult: 0
  }
  convolution_param {
    num_output: 144
    kernel_size: 1
    weight_filler {
      type: "xavier"
      std: 0.09
    }
    bias_filler {
      type: "constant"
      value: 0.2
    }
  }
}
layer {
  name: "inception_4d/relu_3x3_reduce"
  type: "ReLU"
  bottom: "inception_4d/3x3_reduce"
  top: "inception_4d/3x3_reduce"
}
layer {
  name: "inception_4d/3x3"
  type: "Convolution"
  bottom: "inception_4d/3x3_reduce"
  top: "inception_4d/3x3"
  param {
    lr_mult: 1
    decay_mult: 1
  }
  param {
    lr_mult: 2
    decay_mult: 0
  }
  convolution_param {
    num_output: 288
    pad: 1
    kernel_size: 3
    weight_filler {
      type: "xavier"
      std: 0.03
    }
    bias_filler {
      type: "constant"
      value: 0.2
    }
  }
}
layer {
  name: "inception_4d/relu_3x3"
  type: "ReLU"
  bottom: "inception_4d/3x3"
  top: "inception_4d/3x3"
}
layer {
  name: "inception_4d/5x5_reduce"
  type: "Convolution"
  bottom: "inception_4c/output"
  top: "inception_4d/5x5_reduce"
  param {
    lr_mult: 1
    decay_mult: 1
  }
  param {
    lr_mult: 2
    decay_mult: 0
  }
  convolution_param {
    num_output: 32
    kernel_size: 1
    weight_filler {
      type: "xavier"
      std: 0.2
    }
    bias_filler {
      type: "constant"
      value: 0.2
    }
  }
}
layer {
  name: "inception_4d/relu_5x5_reduce"
  type: "ReLU"
  bottom: "inception_4d/5x5_reduce"
  top: "inception_4d/5x5_reduce"
}
layer {
  name: "inception_4d/5x5"
  type: "Convolution"
  bottom: "inception_4d/5x5_reduce"
  top: "inception_4d/5x5"
  param {
    lr_mult: 1
    decay_mult: 1
  }
  param {
    lr_mult: 2
    decay_mult: 0
  }
  convolution_param {
    num_output: 64
    pad: 2
    kernel_size: 5
    weight_filler {
      type: "xavier"
      std: 0.03
    }
    bias_filler {
      type: "constant"
      value: 0.2
    }
  }
}
layer {
  name: "inception_4d/relu_5x5"
  type: "ReLU"
  bottom: "inception_4d/5x5"
  top: "inception_4d/5x5"
}
layer {
  name: "inception_4d/pool"
  type: "Pooling"
  bottom: "inception_4c/output"
  top: "inception_4d/pool"
  pooling_param {
    pool: MAX
    kernel_size: 3
    stride: 1
    pad: 1
  }
}
layer {
  name: "inception_4d/pool_proj"
  type: "Convolution"
  bottom: "inception_4d/pool"
  top: "inception_4d/pool_proj"
  param {
    lr_mult: 1
    decay_mult: 1
  }
  param {
    lr_mult: 2
    decay_mult: 0
  }
  convolution_param {
    num_output: 64
    kernel_size: 1
    weight_filler {
      type: "xavier"
      std: 0.1
    }
    bias_filler {
      type: "constant"
      value: 0.2
    }
  }
}
layer {
  name: "inception_4d/relu_pool_proj"
  type: "ReLU"
  bottom: "inception_4d/pool_proj"
  top: "inception_4d/pool_proj"
}
layer {
  name: "inception_4d/output"
  type: "Concat"
  bottom: "inception_4d/1x1"
  bottom: "inception_4d/3x3"
  bottom: "inception_4d/5x5"
  bottom: "inception_4d/pool_proj"
  top: "inception_4d/output"
}
layer {
  name: "loss2/ave_pool"
  type: "Pooling"
  bottom: "inception_4d/output"
  top: "loss2/ave_pool"
  pooling_param {
    pool: AVE
    kernel_size: 5
    stride: 3
  }
}
layer {
  name: "loss2/conv"
  type: "Convolution"
  bottom: "loss2/ave_pool"
  top: "loss2/conv"
  param {
    lr_mult: 1
    decay_mult: 1
  }
  param {
    lr_mult: 2
    decay_mult: 0
  }
  convolution_param {
    num_output: 128
    kernel_size: 1
    weight_filler {
      type: "xavier"
      std: 0.08
    }
    bias_filler {
      type: "constant"
      value: 0.2
    }
  }
}
layer {
  name: "loss2/relu_conv"
  type: "ReLU"
  bottom: "loss2/conv"
  top: "loss2/conv"
}
layer {
  name: "loss2/fc"
  type: "InnerProduct"
  bottom: "loss2/conv"
  top: "loss2/fc"
  param {
    lr_mult: 1
    decay_mult: 1
  }
  param {
    lr_mult: 2
    decay_mult: 0
  }
  inner_product_param {
    num_output: 1024
    weight_filler {
      type: "xavier"
      std: 0.02
    }
    bias_filler {
      type: "constant"
      value: 0.2
    }
  }
}
layer {
  name: "loss2/relu_fc"
  type: "ReLU"
  bottom: "loss2/fc"
  top: "loss2/fc"
}
layer {
  name: "loss2/drop_fc"
  type: "Dropout"
  bottom: "loss2/fc"
  top: "loss2/fc"
  dropout_param {
    dropout_ratio: 0.7
  }
}
layer {
  name: "loss2/classifier_plantvillage"
  type: "InnerProduct"
  bottom: "loss2/fc"
  top: "loss2/classifier_plantvillage"
  param {
    lr_mult: 1
    decay_mult: 1
  }
  param {
    lr_mult: 2
    decay_mult: 0
  }
  inner_product_param {
    num_output: 38
    weight_filler {
      type: "xavier"
      std: 0.0009765625
    }
    bias_filler {
      type: "constant"
      value: 0
    }
  }
}
layer {
  name: "inception_4e/1x1"
  type: "Convolution"
  bottom: "inception_4d/output"
  top: "inception_4e/1x1"
  param {
    lr_mult: 1
    decay_mult: 1
  }
  param {
    lr_mult: 2
    decay_mult: 0
  }
  convolution_param {
    num_output: 256
    kernel_size: 1
    weight_filler {
      type: "xavier"
      std: 0.03
    }
    bias_filler {
      type: "constant"
      value: 0.2
    }
  }
}
layer {
  name: "inception_4e/relu_1x1"
  type: "ReLU"
  bottom: "inception_4e/1x1"
  top: "inception_4e/1x1"
}
layer {
  name: "inception_4e/3x3_reduce"
  type: "Convolution"
  bottom: "inception_4d/output"
  top: "inception_4e/3x3_reduce"
  param {
    lr_mult: 1
    decay_mult: 1
  }
  param {
    lr_mult: 2
    decay_mult: 0
  }
  convolution_param {
    num_output: 160
    kernel_size: 1
    weight_filler {
      type: "xavier"
      std: 0.09
    }
    bias_filler {
      type: "constant"
      value: 0.2
    }
  }
}
layer {
  name: "inception_4e/relu_3x3_reduce"
  type: "ReLU"
  bottom: "inception_4e/3x3_reduce"
  top: "inception_4e/3x3_reduce"
}
layer {
  name: "inception_4e/3x3"
  type: "Convolution"
  bottom: "inception_4e/3x3_reduce"
  top: "inception_4e/3x3"
  param {
    lr_mult: 1
    decay_mult: 1
  }
  param {
    lr_mult: 2
    decay_mult: 0
  }
  convolution_param {
    num_output: 320
    pad: 1
    kernel_size: 3
    weight_filler {
      type: "xavier"
      std: 0.03
    }
    bias_filler {
      type: "constant"
      value: 0.2
    }
  }
}
layer {
  name: "inception_4e/relu_3x3"
  type: "ReLU"
  bottom: "inception_4e/3x3"
  top: "inception_4e/3x3"
}
layer {
  name: "inception_4e/5x5_reduce"
  type: "Convolution"
  bottom: "inception_4d/output"
  top: "inception_4e/5x5_reduce"
  param {
    lr_mult: 1
    decay_mult: 1
  }
  param {
    lr_mult: 2
    decay_mult: 0
  }
  convolution_param {
    num_output: 32
    kernel_size: 1
    weight_filler {
      type: "xavier"
      std: 0.2
    }
    bias_filler {
      type: "constant"
      value: 0.2
    }
  }
}
layer {
  name: "inception_4e/relu_5x5_reduce"
  type: "ReLU"
  bottom: "inception_4e/5x5_reduce"
  top: "inception_4e/5x5_reduce"
}
layer {
  name: "inception_4e/5x5"
  type: "Convolution"
  bottom: "inception_4e/5x5_reduce"
  top: "inception_4e/
I0403 19:34:15.319653 25138 layer_factory.hpp:77] Creating layer data
I0403 19:34:15.320300 25138 net.cpp:91] Creating Layer data
I0403 19:34:15.320339 25138 net.cpp:399] data -> data
I0403 19:34:15.320410 25138 net.cpp:399] data -> label
I0403 19:34:15.320456 25138 data_transformer.cpp:25] Loading mean file from: /home/mohanty/data/final_dataset/lmdb/grayscale-80-20/mean.binaryproto
I0403 19:34:15.321468 25142 db_lmdb.cpp:38] Opened lmdb /home/mohanty/data/final_dataset/lmdb/grayscale-80-20/test_db
I0403 19:34:15.334386 25138 data_layer.cpp:41] output data size: 24,3,224,224
I0403 19:34:15.361238 25138 net.cpp:141] Setting up data
I0403 19:34:15.361351 25138 net.cpp:148] Top shape: 24 3 224 224 (3612672)
I0403 19:34:15.361377 25138 net.cpp:148] Top shape: 24 (24)
I0403 19:34:15.361392 25138 net.cpp:156] Memory required for data: 14450784
I0403 19:34:15.361428 25138 layer_factory.hpp:77] Creating layer label_data_1_split
I0403 19:34:15.361462 25138 net.cpp:91] Creating Layer label_data_1_split
I0403 19:34:15.361482 25138 net.cpp:425] label_data_1_split <- label
I0403 19:34:15.361522 25138 net.cpp:399] label_data_1_split -> label_data_1_split_0
I0403 19:34:15.361557 25138 net.cpp:399] label_data_1_split -> label_data_1_split_1
I0403 19:34:15.361582 25138 net.cpp:399] label_data_1_split -> label_data_1_split_2
I0403 19:34:15.361605 25138 net.cpp:399] label_data_1_split -> label_data_1_split_3
I0403 19:34:15.361627 25138 net.cpp:399] label_data_1_split -> label_data_1_split_4
I0403 19:34:15.361649 25138 net.cpp:399] label_data_1_split -> label_data_1_split_5
I0403 19:34:15.361670 25138 net.cpp:399] label_data_1_split -> label_data_1_split_6
I0403 19:34:15.361692 25138 net.cpp:399] label_data_1_split -> label_data_1_split_7
I0403 19:34:15.361714 25138 net.cpp:399] label_data_1_split -> label_data_1_split_8
I0403 19:34:15.361739 25138 net.cpp:399] label_data_1_split -> label_data_1_split_9
I0403 19:34:15.361857 25138 net.cpp:141] Setting up label_data_1_split
I0403 19:34:15.361883 25138 net.cpp:148] Top shape: 24 (24)
I0403 19:34:15.361902 25138 net.cpp:148] Top shape: 24 (24)
I0403 19:34:15.361918 25138 net.cpp:148] Top shape: 24 (24)
I0403 19:34:15.361933 25138 net.cpp:148] Top shape: 24 (24)
I0403 19:34:15.361948 25138 net.cpp:148] Top shape: 24 (24)
I0403 19:34:15.361965 25138 net.cpp:148] Top shape: 24 (24)
I0403 19:34:15.361984 25138 net.cpp:148] Top shape: 24 (24)
I0403 19:34:15.361999 25138 net.cpp:148] Top shape: 24 (24)
I0403 19:34:15.362018 25138 net.cpp:148] Top shape: 24 (24)
I0403 19:34:15.362035 25138 net.cpp:148] Top shape: 24 (24)
I0403 19:34:15.362083 25138 net.cpp:156] Memory required for data: 14451744
I0403 19:34:15.362100 25138 layer_factory.hpp:77] Creating layer conv1/7x7_s2
I0403 19:34:15.362140 25138 net.cpp:91] Creating Layer conv1/7x7_s2
I0403 19:34:15.362161 25138 net.cpp:425] conv1/7x7_s2 <- data
I0403 19:34:15.362185 25138 net.cpp:399] conv1/7x7_s2 -> conv1/7x7_s2
I0403 19:34:15.503876 25138 net.cpp:141] Setting up conv1/7x7_s2
I0403 19:34:15.503991 25138 net.cpp:148] Top shape: 24 64 112 112 (19267584)
I0403 19:34:15.504010 25138 net.cpp:156] Memory required for data: 91522080
I0403 19:34:15.504050 25138 layer_factory.hpp:77] Creating layer conv1/relu_7x7
I0403 19:34:15.504084 25138 net.cpp:91] Creating Layer conv1/relu_7x7
I0403 19:34:15.504106 25138 net.cpp:425] conv1/relu_7x7 <- conv1/7x7_s2
I0403 19:34:15.504127 25138 net.cpp:386] conv1/relu_7x7 -> conv1/7x7_s2 (in-place)
I0403 19:34:15.504395 25138 net.cpp:141] Setting up conv1/relu_7x7
I0403 19:34:15.504425 25138 net.cpp:148] Top shape: 24 64 112 112 (19267584)
I0403 19:34:15.504442 25138 net.cpp:156] Memory required for data: 168592416
I0403 19:34:15.504459 25138 layer_factory.hpp:77] Creating layer pool1/3x3_s2
I0403 19:34:15.504487 25138 net.cpp:91] Creating Layer pool1/3x3_s2
I0403 19:34:15.504508 25138 net.cpp:425] pool1/3x3_s2 <- conv1/7x7_s2
I0403 19:34:15.504529 25138 net.cpp:399] pool1/3x3_s2 -> pool1/3x3_s2
I0403 19:34:15.504609 25138 net.cpp:141] Setting up pool1/3x3_s2
I0403 19:34:15.504638 25138 net.cpp:148] Top shape: 24 64 56 56 (4816896)
I0403 19:34:15.504657 25138 net.cpp:156] Memory required for data: 187860000
I0403 19:34:15.504672 25138 layer_factory.hpp:77] Creating layer pool1/norm1
I0403 19:34:15.504699 25138 net.cpp:91] Creating Layer pool1/norm1
I0403 19:34:15.504720 25138 net.cpp:425] pool1/norm1 <- pool1/3x3_s2
I0403 19:34:15.504741 25138 net.cpp:399] pool1/norm1 -> pool1/norm1
I0403 19:34:15.505023 25138 net.cpp:141] Setting up pool1/norm1
I0403 19:34:15.505054 25138 net.cpp:148] Top shape: 24 64 56 56 (4816896)
I0403 19:34:15.505071 25138 net.cpp:156] Memory required for data: 207127584
I0403 19:34:15.505086 25138 layer_factory.hpp:77] Creating layer conv2/3x3_reduce
I0403 19:34:15.505116 25138 net.cpp:91] Creating Layer conv2/3x3_reduce
I0403 19:34:15.505136 25138 net.cpp:425] conv2/3x3_reduce <- pool1/norm1
I0403 19:34:15.505157 25138 net.cpp:399] conv2/3x3_reduce -> conv2/3x3_reduce
I0403 19:34:15.506458 25138 net.cpp:141] Setting up conv2/3x3_reduce
I0403 19:34:15.506489 25138 net.cpp:148] Top shape: 24 64 56 56 (4816896)
I0403 19:34:15.506505 25138 net.cpp:156] Memory required for data: 226395168
I0403 19:34:15.506527 25138 layer_factory.hpp:77] Creating layer conv2/relu_3x3_reduce
I0403 19:34:15.506546 25138 net.cpp:91] Creating Layer conv2/relu_3x3_reduce
I0403 19:34:15.506564 25138 net.cpp:425] conv2/relu_3x3_reduce <- conv2/3x3_reduce
I0403 19:34:15.506583 25138 net.cpp:386] conv2/relu_3x3_reduce -> conv2/3x3_reduce (in-place)
I0403 19:34:15.506840 25138 net.cpp:141] Setting up conv2/relu_3x3_reduce
I0403 19:34:15.506870 25138 net.cpp:148] Top shape: 24 64 56 56 (4816896)
I0403 19:34:15.506887 25138 net.cpp:156] Memory required for data: 245662752
I0403 19:34:15.506903 25138 layer_factory.hpp:77] Creating layer conv2/3x3
I0403 19:34:15.506928 25138 net.cpp:91] Creating Layer conv2/3x3
I0403 19:34:15.506949 25138 net.cpp:425] conv2/3x3 <- conv2/3x3_reduce
I0403 19:34:15.506974 25138 net.cpp:399] conv2/3x3 -> conv2/3x3
I0403 19:34:15.509182 25138 net.cpp:141] Setting up conv2/3x3
I0403 19:34:15.509217 25138 net.cpp:148] Top shape: 24 192 56 56 (14450688)
I0403 19:34:15.509234 25138 net.cpp:156] Memory required for data: 303465504
I0403 19:34:15.509259 25138 layer_factory.hpp:77] Creating layer conv2/relu_3x3
I0403 19:34:15.509281 25138 net.cpp:91] Creating Layer conv2/relu_3x3
I0403 19:34:15.509307 25138 net.cpp:425] conv2/relu_3x3 <- conv2/3x3
I0403 19:34:15.509327 25138 net.cpp:386] conv2/relu_3x3 -> conv2/3x3 (in-place)
I0403 19:34:15.509505 25138 net.cpp:141] Setting up conv2/relu_3x3
I0403 19:34:15.509536 25138 net.cpp:148] Top shape: 24 192 56 56 (14450688)
I0403 19:34:15.509587 25138 net.cpp:156] Memory required for data: 361268256
I0403 19:34:15.509603 25138 layer_factory.hpp:77] Creating layer conv2/norm2
I0403 19:34:15.509624 25138 net.cpp:91] Creating Layer conv2/norm2
I0403 19:34:15.509644 25138 net.cpp:425] conv2/norm2 <- conv2/3x3
I0403 19:34:15.509665 25138 net.cpp:399] conv2/norm2 -> conv2/norm2
I0403 19:34:15.509956 25138 net.cpp:141] Setting up conv2/norm2
I0403 19:34:15.509985 25138 net.cpp:148] Top shape: 24 192 56 56 (14450688)
I0403 19:34:15.510004 25138 net.cpp:156] Memory required for data: 419071008
I0403 19:34:15.510020 25138 layer_factory.hpp:77] Creating layer pool2/3x3_s2
I0403 19:34:15.510040 25138 net.cpp:91] Creating Layer pool2/3x3_s2
I0403 19:34:15.510059 25138 net.cpp:425] pool2/3x3_s2 <- conv2/norm2
I0403 19:34:15.510079 25138 net.cpp:399] pool2/3x3_s2 -> pool2/3x3_s2
I0403 19:34:15.510136 25138 net.cpp:141] Setting up pool2/3x3_s2
I0403 19:34:15.510165 25138 net.cpp:148] Top shape: 24 192 28 28 (3612672)
I0403 19:34:15.510182 25138 net.cpp:156] Memory required for data: 433521696
I0403 19:34:15.510195 25138 layer_factory.hpp:77] Creating layer pool2/3x3_s2_pool2/3x3_s2_0_split
I0403 19:34:15.510215 25138 net.cpp:91] Creating Layer pool2/3x3_s2_pool2/3x3_s2_0_split
I0403 19:34:15.510236 25138 net.cpp:425] pool2/3x3_s2_pool2/3x3_s2_0_split <- pool2/3x3_s2
I0403 19:34:15.510258 25138 net.cpp:399] pool2/3x3_s2_pool2/3x3_s2_0_split -> pool2/3x3_s2_pool2/3x3_s2_0_split_0
I0403 19:34:15.510282 25138 net.cpp:399] pool2/3x3_s2_pool2/3x3_s2_0_split -> pool2/3x3_s2_pool2/3x3_s2_0_split_1
I0403 19:34:15.510315 25138 net.cpp:399] pool2/3x3_s2_pool2/3x3_s2_0_split -> pool2/3x3_s2_pool2/3x3_s2_0_split_2
I0403 19:34:15.510339 25138 net.cpp:399] pool2/3x3_s2_pool2/3x3_s2_0_split -> pool2/3x3_s2_pool2/3x3_s2_0_split_3
I0403 19:34:15.510421 25138 net.cpp:141] Setting up pool2/3x3_s2_pool2/3x3_s2_0_split
I0403 19:34:15.510444 25138 net.cpp:148] Top shape: 24 192 28 28 (3612672)
I0403 19:34:15.510462 25138 net.cpp:148] Top shape: 24 192 28 28 (3612672)
I0403 19:34:15.510478 25138 net.cpp:148] Top shape: 24 192 28 28 (3612672)
I0403 19:34:15.510494 25138 net.cpp:148] Top shape: 24 192 28 28 (3612672)
I0403 19:34:15.510509 25138 net.cpp:156] Memory required for data: 491324448
I0403 19:34:15.510524 25138 layer_factory.hpp:77] Creating layer inception_3a/1x1
I0403 19:34:15.510548 25138 net.cpp:91] Creating Layer inception_3a/1x1
I0403 19:34:15.510571 25138 net.cpp:425] inception_3a/1x1 <- pool2/3x3_s2_pool2/3x3_s2_0_split_0
I0403 19:34:15.510591 25138 net.cpp:399] inception_3a/1x1 -> inception_3a/1x1
I0403 19:34:15.512090 25138 net.cpp:141] Setting up inception_3a/1x1
I0403 19:34:15.512123 25138 net.cpp:148] Top shape: 24 64 28 28 (1204224)
I0403 19:34:15.512140 25138 net.cpp:156] Memory required for data: 496141344
I0403 19:34:15.512158 25138 layer_factory.hpp:77] Creating layer inception_3a/relu_1x1
I0403 19:34:15.512181 25138 net.cpp:91] Creating Layer inception_3a/relu_1x1
I0403 19:34:15.512202 25138 net.cpp:425] inception_3a/relu_1x1 <- inception_3a/1x1
I0403 19:34:15.512222 25138 net.cpp:386] inception_3a/relu_1x1 -> inception_3a/1x1 (in-place)
I0403 19:34:15.512393 25138 net.cpp:141] Setting up inception_3a/relu_1x1
I0403 19:34:15.512424 25138 net.cpp:148] Top shape: 24 64 28 28 (1204224)
I0403 19:34:15.512440 25138 net.cpp:156] Memory required for data: 500958240
I0403 19:34:15.512457 25138 layer_factory.hpp:77] Creating layer inception_3a/3x3_reduce
I0403 19:34:15.512481 25138 net.cpp:91] Creating Layer inception_3a/3x3_reduce
I0403 19:34:15.512502 25138 net.cpp:425] inception_3a/3x3_reduce <- pool2/3x3_s2_pool2/3x3_s2_0_split_1
I0403 19:34:15.512523 25138 net.cpp:399] inception_3a/3x3_reduce -> inception_3a/3x3_reduce
I0403 19:34:15.514150 25138 net.cpp:141] Setting up inception_3a/3x3_reduce
I0403 19:34:15.514181 25138 net.cpp:148] Top shape: 24 96 28 28 (1806336)
I0403 19:34:15.514199 25138 net.cpp:156] Memory required for data: 508183584
I0403 19:34:15.514225 25138 layer_factory.hpp:77] Creating layer inception_3a/relu_3x3_reduce
I0403 19:34:15.514261 25138 net.cpp:91] Creating Layer inception_3a/relu_3x3_reduce
I0403 19:34:15.514282 25138 net.cpp:425] inception_3a/relu_3x3_reduce <- inception_3a/3x3_reduce
I0403 19:34:15.514318 25138 net.cpp:386] inception_3a/relu_3x3_reduce -> inception_3a/3x3_reduce (in-place)
I0403 19:34:15.514503 25138 net.cpp:141] Setting up inception_3a/relu_3x3_reduce
I0403 19:34:15.514533 25138 net.cpp:148] Top shape: 24 96 28 28 (1806336)
I0403 19:34:15.514549 25138 net.cpp:156] Memory required for data: 515408928
I0403 19:34:15.514562 25138 layer_factory.hpp:77] Creating layer inception_3a/3x3
I0403 19:34:15.514586 25138 net.cpp:91] Creating Layer inception_3a/3x3
I0403 19:34:15.514607 25138 net.cpp:425] inception_3a/3x3 <- inception_3a/3x3_reduce
I0403 19:34:15.514637 25138 net.cpp:399] inception_3a/3x3 -> inception_3a/3x3
I0403 19:34:15.516217 25138 net.cpp:141] Setting up inception_3a/3x3
I0403 19:34:15.516248 25138 net.cpp:148] Top shape: 24 128 28 28 (2408448)
I0403 19:34:15.516265 25138 net.cpp:156] Memory required for data: 525042720
I0403 19:34:15.516284 25138 layer_factory.hpp:77] Creating layer inception_3a/relu_3x3
I0403 19:34:15.516314 25138 net.cpp:91] Creating Layer inception_3a/relu_3x3
I0403 19:34:15.516335 25138 net.cpp:425] inception_3a/relu_3x3 <- inception_3a/3x3
I0403 19:34:15.516352 25138 net.cpp:386] inception_3a/relu_3x3 -> inception_3a/3x3 (in-place)
I0403 19:34:15.516614 25138 net.cpp:141] Setting up inception_3a/relu_3x3
I0403 19:34:15.516644 25138 net.cpp:148] Top shape: 24 128 28 28 (2408448)
I0403 19:34:15.516661 25138 net.cpp:156] Memory required for data: 534676512
I0403 19:34:15.516677 25138 layer_factory.hpp:77] Creating layer inception_3a/5x5_reduce
I0403 19:34:15.516702 25138 net.cpp:91] Creating Layer inception_3a/5x5_reduce
I0403 19:34:15.516721 25138 net.cpp:425] inception_3a/5x5_reduce <- pool2/3x3_s2_pool2/3x3_s2_0_split_2
I0403 19:34:15.516742 25138 net.cpp:399] inception_3a/5x5_reduce -> inception_3a/5x5_reduce
I0403 19:34:15.517678 25138 net.cpp:141] Setting up inception_3a/5x5_reduce
I0403 19:34:15.517709 25138 net.cpp:148] Top shape: 24 16 28 28 (301056)
I0403 19:34:15.517726 25138 net.cpp:156] Memory required for data: 535880736
I0403 19:34:15.517745 25138 layer_factory.hpp:77] Creating layer inception_3a/relu_5x5_reduce
I0403 19:34:15.517763 25138 net.cpp:91] Creating Layer inception_3a/relu_5x5_reduce
I0403 19:34:15.517781 25138 net.cpp:425] inception_3a/relu_5x5_reduce <- inception_3a/5x5_reduce
I0403 19:34:15.517803 25138 net.cpp:386] inception_3a/relu_5x5_reduce -> inception_3a/5x5_reduce (in-place)
I0403 19:34:15.518070 25138 net.cpp:141] Setting up inception_3a/relu_5x5_reduce
I0403 19:34:15.518100 25138 net.cpp:148] Top shape: 24 16 28 28 (301056)
I0403 19:34:15.518117 25138 net.cpp:156] Memory required for data: 537084960
I0403 19:34:15.518133 25138 layer_factory.hpp:77] Creating layer inception_3a/5x5
I0403 19:34:15.518154 25138 net.cpp:91] Creating Layer inception_3a/5x5
I0403 19:34:15.518173 25138 net.cpp:425] inception_3a/5x5 <- inception_3a/5x5_reduce
I0403 19:34:15.518194 25138 net.cpp:399] inception_3a/5x5 -> inception_3a/5x5
I0403 19:34:15.519145 25138 net.cpp:141] Setting up inception_3a/5x5
I0403 19:34:15.519173 25138 net.cpp:148] Top shape: 24 32 28 28 (602112)
I0403 19:34:15.519191 25138 net.cpp:156] Memory required for data: 539493408
I0403 19:34:15.519209 25138 layer_factory.hpp:77] Creating layer inception_3a/relu_5x5
I0403 19:34:15.519230 25138 net.cpp:91] Creating Layer inception_3a/relu_5x5
I0403 19:34:15.519249 25138 net.cpp:425] inception_3a/relu_5x5 <- inception_3a/5x5
I0403 19:34:15.519268 25138 net.cpp:386] inception_3a/relu_5x5 -> inception_3a/5x5 (in-place)
I0403 19:34:15.519436 25138 net.cpp:141] Setting up inception_3a/relu_5x5
I0403 19:34:15.519464 25138 net.cpp:148] Top shape: 24 32 28 28 (602112)
I0403 19:34:15.519481 25138 net.cpp:156] Memory required for data: 541901856
I0403 19:34:15.519495 25138 layer_factory.hpp:77] Creating layer inception_3a/pool
I0403 19:34:15.519512 25138 net.cpp:91] Creating Layer inception_3a/pool
I0403 19:34:15.519546 25138 net.cpp:425] inception_3a/pool <- pool2/3x3_s2_pool2/3x3_s2_0_split_3
I0403 19:34:15.519568 25138 net.cpp:399] inception_3a/pool -> inception_3a/pool
I0403 19:34:15.519625 25138 net.cpp:141] Setting up inception_3a/pool
I0403 19:34:15.519651 25138 net.cpp:148] Top shape: 24 192 28 28 (3612672)
I0403 19:34:15.519666 25138 net.cpp:156] Memory required for data: 556352544
I0403 19:34:15.519680 25138 layer_factory.hpp:77] Creating layer inception_3a/pool_proj
I0403 19:34:15.519703 25138 net.cpp:91] Creating Layer inception_3a/pool_proj
I0403 19:34:15.519726 25138 net.cpp:425] inception_3a/pool_proj <- inception_3a/pool
I0403 19:34:15.519747 25138 net.cpp:399] inception_3a/pool_proj -> inception_3a/pool_proj
I0403 19:34:15.520648 25138 net.cpp:141] Setting up inception_3a/pool_proj
I0403 19:34:15.520678 25138 net.cpp:148] Top shape: 24 32 28 28 (602112)
I0403 19:34:15.520695 25138 net.cpp:156] Memory required for data: 558760992
I0403 19:34:15.520719 25138 layer_factory.hpp:77] Creating layer inception_3a/relu_pool_proj
I0403 19:34:15.520738 25138 net.cpp:91] Creating Layer inception_3a/relu_pool_proj
I0403 19:34:15.520756 25138 net.cpp:425] inception_3a/relu_pool_proj <- inception_3a/pool_proj
I0403 19:34:15.520779 25138 net.cpp:386] inception_3a/relu_pool_proj -> inception_3a/pool_proj (in-place)
I0403 19:34:15.521035 25138 net.cpp:141] Setting up inception_3a/relu_pool_proj
I0403 19:34:15.521062 25138 net.cpp:148] Top shape: 24 32 28 28 (602112)
I0403 19:34:15.521078 25138 net.cpp:156] Memory required for data: 561169440
I0403 19:34:15.521095 25138 layer_factory.hpp:77] Creating layer inception_3a/output
I0403 19:34:15.521116 25138 net.cpp:91] Creating Layer inception_3a/output
I0403 19:34:15.521134 25138 net.cpp:425] inception_3a/output <- inception_3a/1x1
I0403 19:34:15.521152 25138 net.cpp:425] inception_3a/output <- inception_3a/3x3
I0403 19:34:15.521168 25138 net.cpp:425] inception_3a/output <- inception_3a/5x5
I0403 19:34:15.521186 25138 net.cpp:425] inception_3a/output <- inception_3a/pool_proj
I0403 19:34:15.521203 25138 net.cpp:399] inception_3a/output -> inception_3a/output
I0403 19:34:15.521252 25138 net.cpp:141] Setting up inception_3a/output
I0403 19:34:15.521280 25138 net.cpp:148] Top shape: 24 256 28 28 (4816896)
I0403 19:34:15.521301 25138 net.cpp:156] Memory required for data: 580437024
I0403 19:34:15.521317 25138 layer_factory.hpp:77] Creating layer inception_3a/output_inception_3a/output_0_split
I0403 19:34:15.521334 25138 net.cpp:91] Creating Layer inception_3a/output_inception_3a/output_0_split
I0403 19:34:15.521352 25138 net.cpp:425] inception_3a/output_inception_3a/output_0_split <- inception_3a/output
I0403 19:34:15.521373 25138 net.cpp:399] inception_3a/output_inception_3a/output_0_split -> inception_3a/output_inception_3a/output_0_split_0
I0403 19:34:15.521395 25138 net.cpp:399] inception_3a/output_inception_3a/output_0_split -> inception_3a/output_inception_3a/output_0_split_1
I0403 19:34:15.521422 25138 net.cpp:399] inception_3a/output_inception_3a/output_0_split -> inception_3a/output_inception_3a/output_0_split_2
I0403 19:34:15.521445 25138 net.cpp:399] inception_3a/output_inception_3a/output_0_split -> inception_3a/output_inception_3a/output_0_split_3
I0403 19:34:15.521518 25138 net.cpp:141] Setting up inception_3a/output_inception_3a/output_0_split
I0403 19:34:15.521543 25138 net.cpp:148] Top shape: 24 256 28 28 (4816896)
I0403 19:34:15.521563 25138 net.cpp:148] Top shape: 24 256 28 28 (4816896)
I0403 19:34:15.521580 25138 net.cpp:148] Top shape: 24 256 28 28 (4816896)
I0403 19:34:15.521595 25138 net.cpp:148] Top shape: 24 256 28 28 (4816896)
I0403 19:34:15.521608 25138 net.cpp:156] Memory required for data: 657507360
I0403 19:34:15.521621 25138 layer_factory.hpp:77] Creating layer inception_3b/1x1
I0403 19:34:15.521643 25138 net.cpp:91] Creating Layer inception_3b/1x1
I0403 19:34:15.521661 25138 net.cpp:425] inception_3b/1x1 <- inception_3a/output_inception_3a/output_0_split_0
I0403 19:34:15.521682 25138 net.cpp:399] inception_3b/1x1 -> inception_3b/1x1
I0403 19:34:15.522747 25138 net.cpp:141] Setting up inception_3b/1x1
I0403 19:34:15.522788 25138 net.cpp:148] Top shape: 24 128 28 28 (2408448)
I0403 19:34:15.522804 25138 net.cpp:156] Memory required for data: 667141152
I0403 19:34:15.522821 25138 layer_factory.hpp:77] Creating layer inception_3b/relu_1x1
I0403 19:34:15.522842 25138 net.cpp:91] Creating Layer inception_3b/relu_1x1
I0403 19:34:15.522862 25138 net.cpp:425] inception_3b/relu_1x1 <- inception_3b/1x1
I0403 19:34:15.522881 25138 net.cpp:386] inception_3b/relu_1x1 -> inception_3b/1x1 (in-place)
I0403 19:34:15.523051 25138 net.cpp:141] Setting up inception_3b/relu_1x1
I0403 19:34:15.523077 25138 net.cpp:148] Top shape: 24 128 28 28 (2408448)
I0403 19:34:15.523092 25138 net.cpp:156] Memory required for data: 676774944
I0403 19:34:15.523105 25138 layer_factory.hpp:77] Creating layer inception_3b/3x3_reduce
I0403 19:34:15.523129 25138 net.cpp:91] Creating Layer inception_3b/3x3_reduce
I0403 19:34:15.523151 25138 net.cpp:425] inception_3b/3x3_reduce <- inception_3a/output_inception_3a/output_0_split_1
I0403 19:34:15.523172 25138 net.cpp:399] inception_3b/3x3_reduce -> inception_3b/3x3_reduce
I0403 19:34:15.524226 25138 net.cpp:141] Setting up inception_3b/3x3_reduce
I0403 19:34:15.524269 25138 net.cpp:148] Top shape: 24 128 28 28 (2408448)
I0403 19:34:15.524296 25138 net.cpp:156] Memory required for data: 686408736
I0403 19:34:15.524318 25138 layer_factory.hpp:77] Creating layer inception_3b/relu_3x3_reduce
I0403 19:34:15.524345 25138 net.cpp:91] Creating Layer inception_3b/relu_3x3_reduce
I0403 19:34:15.524366 25138 net.cpp:425] inception_3b/relu_3x3_reduce <- inception_3b/3x3_reduce
I0403 19:34:15.524385 25138 net.cpp:386] inception_3b/relu_3x3_reduce -> inception_3b/3x3_reduce (in-place)
I0403 19:34:15.524562 25138 net.cpp:141] Setting up inception_3b/relu_3x3_reduce
I0403 19:34:15.524591 25138 net.cpp:148] Top shape: 24 128 28 28 (2408448)
I0403 19:34:15.524607 25138 net.cpp:156] Memory required for data: 696042528
I0403 19:34:15.524622 25138 layer_factory.hpp:77] Creating layer inception_3b/3x3
I0403 19:34:15.524647 25138 net.cpp:91] Creating Layer inception_3b/3x3
I0403 19:34:15.524667 25138 net.cpp:425] inception_3b/3x3 <- inception_3b/3x3_reduce
I0403 19:34:15.524688 25138 net.cpp:399] inception_3b/3x3 -> inception_3b/3x3
I0403 19:34:15.527405 25138 net.cpp:141] Setting up inception_3b/3x3
I0403 19:34:15.527436 25138 net.cpp:148] Top shape: 24 192 28 28 (3612672)
I0403 19:34:15.527452 25138 net.cpp:156] Memory required for data: 710493216
I0403 19:34:15.527472 25138 layer_factory.hpp:77] Creating layer inception_3b/relu_3x3
I0403 19:34:15.527493 25138 net.cpp:91] Creating Layer inception_3b/relu_3x3
I0403 19:34:15.527510 25138 net.cpp:425] inception_3b/relu_3x3 <- inception_3b/3x3
I0403 19:34:15.527530 25138 net.cpp:386] inception_3b/relu_3x3 -> inception_3b/3x3 (in-place)
I0403 19:34:15.527804 25138 net.cpp:141] Setting up inception_3b/relu_3x3
I0403 19:34:15.527832 25138 net.cpp:148] Top shape: 24 192 28 28 (3612672)
I0403 19:34:15.527849 25138 net.cpp:156] Memory required for data: 724943904
I0403 19:34:15.527864 25138 layer_factory.hpp:77] Creating layer inception_3b/5x5_reduce
I0403 19:34:15.527889 25138 net.cpp:91] Creating Layer inception_3b/5x5_reduce
I0403 19:34:15.527909 25138 net.cpp:425] inception_3b/5x5_reduce <- inception_3a/output_inception_3a/output_0_split_2
I0403 19:34:15.527930 25138 net.cpp:399] inception_3b/5x5_reduce -> inception_3b/5x5_reduce
I0403 19:34:15.528853 25138 net.cpp:141] Setting up inception_3b/5x5_reduce
I0403 19:34:15.528884 25138 net.cpp:148] Top shape: 24 32 28 28 (602112)
I0403 19:34:15.528901 25138 net.cpp:156] Memory required for data: 727352352
I0403 19:34:15.528919 25138 layer_factory.hpp:77] Creating layer inception_3b/relu_5x5_reduce
I0403 19:34:15.528944 25138 net.cpp:91] Creating Layer inception_3b/relu_5x5_reduce
I0403 19:34:15.528964 25138 net.cpp:425] inception_3b/relu_5x5_reduce <- inception_3b/5x5_reduce
I0403 19:34:15.528981 25138 net.cpp:386] inception_3b/relu_5x5_reduce -> inception_3b/5x5_reduce (in-place)
I0403 19:34:15.529165 25138 net.cpp:141] Setting up inception_3b/relu_5x5_reduce
I0403 19:34:15.529192 25138 net.cpp:148] Top shape: 24 32 28 28 (602112)
I0403 19:34:15.529207 25138 net.cpp:156] Memory required for data: 729760800
I0403 19:34:15.529220 25138 layer_factory.hpp:77] Creating layer inception_3b/5x5
I0403 19:34:15.529243 25138 net.cpp:91] Creating Layer inception_3b/5x5
I0403 19:34:15.529263 25138 net.cpp:425] inception_3b/5x5 <- inception_3b/5x5_reduce
I0403 19:34:15.529289 25138 net.cpp:399] inception_3b/5x5 -> inception_3b/5x5
I0403 19:34:15.531118 25138 net.cpp:141] Setting up inception_3b/5x5
I0403 19:34:15.531149 25138 net.cpp:148] Top shape: 24 96 28 28 (1806336)
I0403 19:34:15.531165 25138 net.cpp:156] Memory required for data: 736986144
I0403 19:34:15.531183 25138 layer_factory.hpp:77] Creating layer inception_3b/relu_5x5
I0403 19:34:15.531203 25138 net.cpp:91] Creating Layer inception_3b/relu_5x5
I0403 19:34:15.531221 25138 net.cpp:425] inception_3b/relu_5x5 <- inception_3b/5x5
I0403 19:34:15.531239 25138 net.cpp:386] inception_3b/relu_5x5 -> inception_3b/5x5 (in-place)
I0403 19:34:15.531427 25138 net.cpp:141] Setting up inception_3b/relu_5x5
I0403 19:34:15.531456 25138 net.cpp:148] Top shape: 24 96 28 28 (1806336)
I0403 19:34:15.531472 25138 net.cpp:156] Memory required for data: 744211488
I0403 19:34:15.531487 25138 layer_factory.hpp:77] Creating layer inception_3b/pool
I0403 19:34:15.531505 25138 net.cpp:91] Creating Layer inception_3b/pool
I0403 19:34:15.531523 25138 net.cpp:425] inception_3b/pool <- inception_3a/output_inception_3a/output_0_split_3
I0403 19:34:15.531543 25138 net.cpp:399] inception_3b/pool -> inception_3b/pool
I0403 19:34:15.531597 25138 net.cpp:141] Setting up inception_3b/pool
I0403 19:34:15.531622 25138 net.cpp:148] Top shape: 24 256 28 28 (4816896)
I0403 19:34:15.531637 25138 net.cpp:156] Memory required for data: 763479072
I0403 19:34:15.531651 25138 layer_factory.hpp:77] Creating layer inception_3b/pool_proj
I0403 19:34:15.531673 25138 net.cpp:91] Creating Layer inception_3b/pool_proj
I0403 19:34:15.531692 25138 net.cpp:425] inception_3b/pool_proj <- inception_3b/pool
I0403 19:34:15.531713 25138 net.cpp:399] inception_3b/pool_proj -> inception_3b/pool_proj
I0403 19:34:15.532706 25138 net.cpp:141] Setting up inception_3b/pool_proj
I0403 19:34:15.532734 25138 net.cpp:148] Top shape: 24 64 28 28 (1204224)
I0403 19:34:15.532752 25138 net.cpp:156] Memory required for data: 768295968
I0403 19:34:15.532768 25138 layer_factory.hpp:77] Creating layer inception_3b/relu_pool_proj
I0403 19:34:15.532789 25138 net.cpp:91] Creating Layer inception_3b/relu_pool_proj
I0403 19:34:15.532809 25138 net.cpp:425] inception_3b/relu_pool_proj <- inception_3b/pool_proj
I0403 19:34:15.532829 25138 net.cpp:386] inception_3b/relu_pool_proj -> inception_3b/pool_proj (in-place)
I0403 19:34:15.533185 25138 net.cpp:141] Setting up inception_3b/relu_pool_proj
I0403 19:34:15.533216 25138 net.cpp:148] Top shape: 24 64 28 28 (1204224)
I0403 19:34:15.533234 25138 net.cpp:156] Memory required for data: 773112864
I0403 19:34:15.533251 25138 layer_factory.hpp:77] Creating layer inception_3b/output
I0403 19:34:15.533270 25138 net.cpp:91] Creating Layer inception_3b/output
I0403 19:34:15.533291 25138 net.cpp:425] inception_3b/output <- inception_3b/1x1
I0403 19:34:15.533310 25138 net.cpp:425] inception_3b/output <- inception_3b/3x3
I0403 19:34:15.533327 25138 net.cpp:425] inception_3b/output <- inception_3b/5x5
I0403 19:34:15.533344 25138 net.cpp:425] inception_3b/output <- inception_3b/pool_proj
I0403 19:34:15.533365 25138 net.cpp:399] inception_3b/output -> inception_3b/output
I0403 19:34:15.533411 25138 net.cpp:141] Setting up inception_3b/output
I0403 19:34:15.533435 25138 net.cpp:148] Top shape: 24 480 28 28 (9031680)
I0403 19:34:15.533449 25138 net.cpp:156] Memory required for data: 809239584
I0403 19:34:15.533464 25138 layer_factory.hpp:77] Creating layer pool3/3x3_s2
I0403 19:34:15.533485 25138 net.cpp:91] Creating Layer pool3/3x3_s2
I0403 19:34:15.533504 25138 net.cpp:425] pool3/3x3_s2 <- inception_3b/output
I0403 19:34:15.533538 25138 net.cpp:399] pool3/3x3_s2 -> pool3/3x3_s2
I0403 19:34:15.533599 25138 net.cpp:141] Setting up pool3/3x3_s2
I0403 19:34:15.533625 25138 net.cpp:148] Top shape: 24 480 14 14 (2257920)
I0403 19:34:15.533641 25138 net.cpp:156] Memory required for data: 818271264
I0403 19:34:15.533655 25138 layer_factory.hpp:77] Creating layer pool3/3x3_s2_pool3/3x3_s2_0_split
I0403 19:34:15.533674 25138 net.cpp:91] Creating Layer pool3/3x3_s2_pool3/3x3_s2_0_split
I0403 19:34:15.533689 25138 net.cpp:425] pool3/3x3_s2_pool3/3x3_s2_0_split <- pool3/3x3_s2
I0403 19:34:15.533710 25138 net.cpp:399] pool3/3x3_s2_pool3/3x3_s2_0_split -> pool3/3x3_s2_pool3/3x3_s2_0_split_0
I0403 19:34:15.533730 25138 net.cpp:399] pool3/3x3_s2_pool3/3x3_s2_0_split -> pool3/3x3_s2_pool3/3x3_s2_0_split_1
I0403 19:34:15.533751 25138 net.cpp:399] pool3/3x3_s2_pool3/3x3_s2_0_split -> pool3/3x3_s2_pool3/3x3_s2_0_split_2
I0403 19:34:15.533772 25138 net.cpp:399] pool3/3x3_s2_pool3/3x3_s2_0_split -> pool3/3x3_s2_pool3/3x3_s2_0_split_3
I0403 19:34:15.533845 25138 net.cpp:141] Setting up pool3/3x3_s2_pool3/3x3_s2_0_split
I0403 19:34:15.533871 25138 net.cpp:148] Top shape: 24 480 14 14 (2257920)
I0403 19:34:15.533890 25138 net.cpp:148] Top shape: 24 480 14 14 (2257920)
I0403 19:34:15.533906 25138 net.cpp:148] Top shape: 24 480 14 14 (2257920)
I0403 19:34:15.533922 25138 net.cpp:148] Top shape: 24 480 14 14 (2257920)
I0403 19:34:15.533936 25138 net.cpp:156] Memory required for data: 854397984
I0403 19:34:15.533949 25138 layer_factory.hpp:77] Creating layer inception_4a/1x1
I0403 19:34:15.533972 25138 net.cpp:91] Creating Layer inception_4a/1x1
I0403 19:34:15.533993 25138 net.cpp:425] inception_4a/1x1 <- pool3/3x3_s2_pool3/3x3_s2_0_split_0
I0403 19:34:15.534013 25138 net.cpp:399] inception_4a/1x1 -> inception_4a/1x1
I0403 19:34:15.535527 25138 net.cpp:141] Setting up inception_4a/1x1
I0403 19:34:15.535558 25138 net.cpp:148] Top shape: 24 192 14 14 (903168)
I0403 19:34:15.535574 25138 net.cpp:156] Memory required for data: 858010656
I0403 19:34:15.535593 25138 layer_factory.hpp:77] Creating layer inception_4a/relu_1x1
I0403 19:34:15.535614 25138 net.cpp:91] Creating Layer inception_4a/relu_1x1
I0403 19:34:15.535634 25138 net.cpp:425] inception_4a/relu_1x1 <- inception_4a/1x1
I0403 19:34:15.535656 25138 net.cpp:386] inception_4a/relu_1x1 -> inception_4a/1x1 (in-place)
I0403 19:34:15.535825 25138 net.cpp:141] Setting up inception_4a/relu_1x1
I0403 19:34:15.535856 25138 net.cpp:148] Top shape: 24 192 14 14 (903168)
I0403 19:34:15.535871 25138 net.cpp:156] Memory required for data: 861623328
I0403 19:34:15.535887 25138 layer_factory.hpp:77] Creating layer inception_4a/3x3_reduce
I0403 19:34:15.535909 25138 net.cpp:91] Creating Layer inception_4a/3x3_reduce
I0403 19:34:15.535928 25138 net.cpp:425] inception_4a/3x3_reduce <- pool3/3x3_s2_pool3/3x3_s2_0_split_1
I0403 19:34:15.535953 25138 net.cpp:399] inception_4a/3x3_reduce -> inception_4a/3x3_reduce
I0403 19:34:15.537137 25138 net.cpp:141] Setting up inception_4a/3x3_reduce
I0403 19:34:15.537168 25138 net.cpp:148] Top shape: 24 96 14 14 (451584)
I0403 19:34:15.537185 25138 net.cpp:156] Memory required for data: 863429664
I0403 19:34:15.537210 25138 layer_factory.hpp:77] Creating layer inception_4a/relu_3x3_reduce
I0403 19:34:15.537232 25138 net.cpp:91] Creating Layer inception_4a/relu_3x3_reduce
I0403 19:34:15.537248 25138 net.cpp:425] inception_4a/relu_3x3_reduce <- inception_4a/3x3_reduce
I0403 19:34:15.537267 25138 net.cpp:386] inception_4a/relu_3x3_reduce -> inception_4a/3x3_reduce (in-place)
I0403 19:34:15.537438 25138 net.cpp:141] Setting up inception_4a/relu_3x3_reduce
I0403 19:34:15.537468 25138 net.cpp:148] Top shape: 24 96 14 14 (451584)
I0403 19:34:15.537484 25138 net.cpp:156] Memory required for data: 865236000
I0403 19:34:15.537502 25138 layer_factory.hpp:77] Creating layer inception_4a/3x3
I0403 19:34:15.537523 25138 net.cpp:91] Creating Layer inception_4a/3x3
I0403 19:34:15.537555 25138 net.cpp:425] inception_4a/3x3 <- inception_4a/3x3_reduce
I0403 19:34:15.537580 25138 net.cpp:399] inception_4a/3x3 -> inception_4a/3x3
I0403 19:34:15.540114 25138 net.cpp:141] Setting up inception_4a/3x3
I0403 19:34:15.540148 25138 net.cpp:148] Top shape: 24 208 14 14 (978432)
I0403 19:34:15.540165 25138 net.cpp:156] Memory required for data: 869149728
I0403 19:34:15.540184 25138 layer_factory.hpp:77] Creating layer inception_4a/relu_3x3
I0403 19:34:15.540202 25138 net.cpp:91] Creating Layer inception_4a/relu_3x3
I0403 19:34:15.540222 25138 net.cpp:425] inception_4a/relu_3x3 <- inception_4a/3x3
I0403 19:34:15.540241 25138 net.cpp:386] inception_4a/relu_3x3 -> inception_4a/3x3 (in-place)
I0403 19:34:15.540510 25138 net.cpp:141] Setting up inception_4a/relu_3x3
I0403 19:34:15.540539 25138 net.cpp:148] Top shape: 24 208 14 14 (978432)
I0403 19:34:15.540555 25138 net.cpp:156] Memory required for data: 873063456
I0403 19:34:15.540573 25138 layer_factory.hpp:77] Creating layer inception_4a/5x5_reduce
I0403 19:34:15.540596 25138 net.cpp:91] Creating Layer inception_4a/5x5_reduce
I0403 19:34:15.540616 25138 net.cpp:425] inception_4a/5x5_reduce <- pool3/3x3_s2_pool3/3x3_s2_0_split_2
I0403 19:34:15.540640 25138 net.cpp:399] inception_4a/5x5_reduce -> inception_4a/5x5_reduce
I0403 19:34:15.541596 25138 net.cpp:141] Setting up inception_4a/5x5_reduce
I0403 19:34:15.541630 25138 net.cpp:148] Top shape: 24 16 14 14 (75264)
I0403 19:34:15.541648 25138 net.cpp:156] Memory required for data: 873364512
I0403 19:34:15.541666 25138 layer_factory.hpp:77] Creating layer inception_4a/relu_5x5_reduce
I0403 19:34:15.541685 25138 net.cpp:91] Creating Layer inception_4a/relu_5x5_reduce
I0403 19:34:15.541705 25138 net.cpp:425] inception_4a/relu_5x5_reduce <- inception_4a/5x5_reduce
I0403 19:34:15.541724 25138 net.cpp:386] inception_4a/relu_5x5_reduce -> inception_4a/5x5_reduce (in-place)
I0403 19:34:15.541899 25138 net.cpp:141] Setting up inception_4a/relu_5x5_reduce
I0403 19:34:15.541931 25138 net.cpp:148] Top shape: 24 16 14 14 (75264)
I0403 19:34:15.541949 25138 net.cpp:156] Memory required for data: 873665568
I0403 19:34:15.541965 25138 layer_factory.hpp:77] Creating layer inception_4a/5x5
I0403 19:34:15.541986 25138 net.cpp:91] Creating Layer inception_4a/5x5
I0403 19:34:15.542009 25138 net.cpp:425] inception_4a/5x5 <- inception_4a/5x5_reduce
I0403 19:34:15.542032 25138 net.cpp:399] inception_4a/5x5 -> inception_4a/5x5
I0403 19:34:15.543057 25138 net.cpp:141] Setting up inception_4a/5x5
I0403 19:34:15.543090 25138 net.cpp:148] Top shape: 24 48 14 14 (225792)
I0403 19:34:15.543108 25138 net.cpp:156] Memory required for data: 874568736
I0403 19:34:15.543128 25138 layer_factory.hpp:77] Creating layer inception_4a/relu_5x5
I0403 19:34:15.543146 25138 net.cpp:91] Creating Layer inception_4a/relu_5x5
I0403 19:34:15.543162 25138 net.cpp:425] inception_4a/relu_5x5 <- inception_4a/5x5
I0403 19:34:15.543185 25138 net.cpp:386] inception_4a/relu_5x5 -> inception_4a/5x5 (in-place)
I0403 19:34:15.543362 25138 net.cpp:141] Setting up inception_4a/relu_5x5
I0403 19:34:15.543391 25138 net.cpp:148] Top shape: 24 48 14 14 (225792)
I0403 19:34:15.543406 25138 net.cpp:156] Memory required for data: 875471904
I0403 19:34:15.543421 25138 layer_factory.hpp:77] Creating layer inception_4a/pool
I0403 19:34:15.543438 25138 net.cpp:91] Creating Layer inception_4a/pool
I0403 19:34:15.543457 25138 net.cpp:425] inception_4a/pool <- pool3/3x3_s2_pool3/3x3_s2_0_split_3
I0403 19:34:15.543478 25138 net.cpp:399] inception_4a/pool -> inception_4a/pool
I0403 19:34:15.543541 25138 net.cpp:141] Setting up inception_4a/pool
I0403 19:34:15.543567 25138 net.cpp:148] Top shape: 24 480 14 14 (2257920)
I0403 19:34:15.543582 25138 net.cpp:156] Memory required for data: 884503584
I0403 19:34:15.543596 25138 layer_factory.hpp:77] Creating layer inception_4a/pool_proj
I0403 19:34:15.543620 25138 net.cpp:91] Creating Layer inception_4a/pool_proj
I0403 19:34:15.543640 25138 net.cpp:425] inception_4a/pool_proj <- inception_4a/pool
I0403 19:34:15.543661 25138 net.cpp:399] inception_4a/pool_proj -> inception_4a/pool_proj
I0403 19:34:15.544766 25138 net.cpp:141] Setting up inception_4a/pool_proj
I0403 19:34:15.544798 25138 net.cpp:148] Top shape: 24 64 14 14 (301056)
I0403 19:34:15.544829 25138 net.cpp:156] Memory required for data: 885707808
I0403 19:34:15.544848 25138 layer_factory.hpp:77] Creating layer inception_4a/relu_pool_proj
I0403 19:34:15.544869 25138 net.cpp:91] Creating Layer inception_4a/relu_pool_proj
I0403 19:34:15.544885 25138 net.cpp:425] inception_4a/relu_pool_proj <- inception_4a/pool_proj
I0403 19:34:15.544904 25138 net.cpp:386] inception_4a/relu_pool_proj -> inception_4a/pool_proj (in-place)
I0403 19:34:15.545172 25138 net.cpp:141] Setting up inception_4a/relu_pool_proj
I0403 19:34:15.545200 25138 net.cpp:148] Top shape: 24 64 14 14 (301056)
I0403 19:34:15.545217 25138 net.cpp:156] Memory required for data: 886912032
I0403 19:34:15.545233 25138 layer_factory.hpp:77] Creating layer inception_4a/output
I0403 19:34:15.545251 25138 net.cpp:91] Creating Layer inception_4a/output
I0403 19:34:15.545269 25138 net.cpp:425] inception_4a/output <- inception_4a/1x1
I0403 19:34:15.545285 25138 net.cpp:425] inception_4a/output <- inception_4a/3x3
I0403 19:34:15.545310 25138 net.cpp:425] inception_4a/output <- inception_4a/5x5
I0403 19:34:15.545327 25138 net.cpp:425] inception_4a/output <- inception_4a/pool_proj
I0403 19:34:15.545351 25138 net.cpp:399] inception_4a/output -> inception_4a/output
I0403 19:34:15.545397 25138 net.cpp:141] Setting up inception_4a/output
I0403 19:34:15.545423 25138 net.cpp:148] Top shape: 24 512 14 14 (2408448)
I0403 19:34:15.545439 25138 net.cpp:156] Memory required for data: 896545824
I0403 19:34:15.545451 25138 layer_factory.hpp:77] Creating layer inception_4a/output_inception_4a/output_0_split
I0403 19:34:15.545471 25138 net.cpp:91] Creating Layer inception_4a/output_inception_4a/output_0_split
I0403 19:34:15.545490 25138 net.cpp:425] inception_4a/output_inception_4a/output_0_split <- inception_4a/output
I0403 19:34:15.545509 25138 net.cpp:399] inception_4a/output_inception_4a/output_0_split -> inception_4a/output_inception_4a/output_0_split_0
I0403 19:34:15.545534 25138 net.cpp:399] inception_4a/output_inception_4a/output_0_split -> inception_4a/output_inception_4a/output_0_split_1
I0403 19:34:15.545557 25138 net.cpp:399] inception_4a/output_inception_4a/output_0_split -> inception_4a/output_inception_4a/output_0_split_2
I0403 19:34:15.545578 25138 net.cpp:399] inception_4a/output_inception_4a/output_0_split -> inception_4a/output_inception_4a/output_0_split_3
I0403 19:34:15.545600 25138 net.cpp:399] inception_4a/output_inception_4a/output_0_split -> inception_4a/output_inception_4a/output_0_split_4
I0403 19:34:15.545691 25138 net.cpp:141] Setting up inception_4a/output_inception_4a/output_0_split
I0403 19:34:15.545717 25138 net.cpp:148] Top shape: 24 512 14 14 (2408448)
I0403 19:34:15.545732 25138 net.cpp:148] Top shape: 24 512 14 14 (2408448)
I0403 19:34:15.545749 25138 net.cpp:148] Top shape: 24 512 14 14 (2408448)
I0403 19:34:15.545764 25138 net.cpp:148] Top shape: 24 512 14 14 (2408448)
I0403 19:34:15.545779 25138 net.cpp:148] Top shape: 24 512 14 14 (2408448)
I0403 19:34:15.545794 25138 net.cpp:156] Memory required for data: 944714784
I0403 19:34:15.545809 25138 layer_factory.hpp:77] Creating layer loss1/ave_pool
I0403 19:34:15.545830 25138 net.cpp:91] Creating Layer loss1/ave_pool
I0403 19:34:15.545847 25138 net.cpp:425] loss1/ave_pool <- inception_4a/output_inception_4a/output_0_split_0
I0403 19:34:15.545866 25138 net.cpp:399] loss1/ave_pool -> loss1/ave_pool
I0403 19:34:15.546064 25138 net.cpp:141] Setting up loss1/ave_pool
I0403 19:34:15.546092 25138 net.cpp:148] Top shape: 24 512 4 4 (196608)
I0403 19:34:15.546108 25138 net.cpp:156] Memory required for data: 945501216
I0403 19:34:15.546124 25138 layer_factory.hpp:77] Creating layer loss1/conv
I0403 19:34:15.546146 25138 net.cpp:91] Creating Layer loss1/conv
I0403 19:34:15.546165 25138 net.cpp:425] loss1/conv <- loss1/ave_pool
I0403 19:34:15.546186 25138 net.cpp:399] loss1/conv -> loss1/conv
I0403 19:34:15.547508 25138 net.cpp:141] Setting up loss1/conv
I0403 19:34:15.547536 25138 net.cpp:148] Top shape: 24 128 4 4 (49152)
I0403 19:34:15.547567 25138 net.cpp:156] Memory required for data: 945697824
I0403 19:34:15.547585 25138 layer_factory.hpp:77] Creating layer loss1/relu_conv
I0403 19:34:15.547605 25138 net.cpp:91] Creating Layer loss1/relu_conv
I0403 19:34:15.547623 25138 net.cpp:425] loss1/relu_conv <- loss1/conv
I0403 19:34:15.547643 25138 net.cpp:386] loss1/relu_conv -> loss1/conv (in-place)
I0403 19:34:15.547914 25138 net.cpp:141] Setting up loss1/relu_conv
I0403 19:34:15.547943 25138 net.cpp:148] Top shape: 24 128 4 4 (49152)
I0403 19:34:15.547960 25138 net.cpp:156] Memory required for data: 945894432
I0403 19:34:15.547973 25138 layer_factory.hpp:77] Creating layer loss1/fc
I0403 19:34:15.548001 25138 net.cpp:91] Creating Layer loss1/fc
I0403 19:34:15.548022 25138 net.cpp:425] loss1/fc <- loss1/conv
I0403 19:34:15.548040 25138 net.cpp:399] loss1/fc -> loss1/fc
I0403 19:34:15.564749 25138 net.cpp:141] Setting up loss1/fc
I0403 19:34:15.564784 25138 net.cpp:148] Top shape: 24 1024 (24576)
I0403 19:34:15.564798 25138 net.cpp:156] Memory required for data: 945992736
I0403 19:34:15.564816 25138 layer_factory.hpp:77] Creating layer loss1/relu_fc
I0403 19:34:15.564836 25138 net.cpp:91] Creating Layer loss1/relu_fc
I0403 19:34:15.564852 25138 net.cpp:425] loss1/relu_fc <- loss1/fc
I0403 19:34:15.564872 25138 net.cpp:386] loss1/relu_fc -> loss1/fc (in-place)
I0403 19:34:15.565052 25138 net.cpp:141] Setting up loss1/relu_fc
I0403 19:34:15.565078 25138 net.cpp:148] Top shape: 24 1024 (24576)
I0403 19:34:15.565093 25138 net.cpp:156] Memory required for data: 946091040
I0403 19:34:15.565107 25138 layer_factory.hpp:77] Creating layer loss1/drop_fc
I0403 19:34:15.565135 25138 net.cpp:91] Creating Layer loss1/drop_fc
I0403 19:34:15.565155 25138 net.cpp:425] loss1/drop_fc <- loss1/fc
I0403 19:34:15.565174 25138 net.cpp:386] loss1/drop_fc -> loss1/fc (in-place)
I0403 19:34:15.565230 25138 net.cpp:141] Setting up loss1/drop_fc
I0403 19:34:15.565259 25138 net.cpp:148] Top shape: 24 1024 (24576)
I0403 19:34:15.565276 25138 net.cpp:156] Memory required for data: 946189344
I0403 19:34:15.565299 25138 layer_factory.hpp:77] Creating layer loss1/classifier_plantvillage
I0403 19:34:15.565320 25138 net.cpp:91] Creating Layer loss1/classifier_plantvillage
I0403 19:34:15.565337 25138 net.cpp:425] loss1/classifier_plantvillage <- loss1/fc
I0403 19:34:15.565359 25138 net.cpp:399] loss1/classifier_plantvillage -> loss1/classifier_plantvillage
I0403 19:34:15.566257 25138 net.cpp:141] Setting up loss1/classifier_plantvillage
I0403 19:34:15.566293 25138 net.cpp:148] Top shape: 24 38 (912)
I0403 19:34:15.566311 25138 net.cpp:156] Memory required for data: 946192992
I0403 19:34:15.566330 25138 layer_factory.hpp:77] Creating layer loss1/classifier_plantvillage_loss1/classifier_plantvillage_0_split
I0403 19:34:15.566350 25138 net.cpp:91] Creating Layer loss1/classifier_plantvillage_loss1/classifier_plantvillage_0_split
I0403 19:34:15.566370 25138 net.cpp:425] loss1/classifier_plantvillage_loss1/classifier_plantvillage_0_split <- loss1/classifier_plantvillage
I0403 19:34:15.566390 25138 net.cpp:399] loss1/classifier_plantvillage_loss1/classifier_plantvillage_0_split -> loss1/classifier_plantvillage_loss1/classifier_plantvillage_0_split_0
I0403 19:34:15.566412 25138 net.cpp:399] loss1/classifier_plantvillage_loss1/classifier_plantvillage_0_split -> loss1/classifier_plantvillage_loss1/classifier_plantvillage_0_split_1
I0403 19:34:15.566437 25138 net.cpp:399] loss1/classifier_plantvillage_loss1/classifier_plantvillage_0_split -> loss1/classifier_plantvillage_loss1/classifier_plantvillage_0_split_2
I0403 19:34:15.566517 25138 net.cpp:141] Setting up loss1/classifier_plantvillage_loss1/classifier_plantvillage_0_split
I0403 19:34:15.566542 25138 net.cpp:148] Top shape: 24 38 (912)
I0403 19:34:15.566560 25138 net.cpp:148] Top shape: 24 38 (912)
I0403 19:34:15.566576 25138 net.cpp:148] Top shape: 24 38 (912)
I0403 19:34:15.566591 25138 net.cpp:156] Memory required for data: 946203936
I0403 19:34:15.566606 25138 layer_factory.hpp:77] Creating layer inception_4b/1x1
I0403 19:34:15.566628 25138 net.cpp:91] Creating Layer inception_4b/1x1
I0403 19:34:15.566663 25138 net.cpp:425] inception_4b/1x1 <- inception_4a/output_inception_4a/output_0_split_1
I0403 19:34:15.566685 25138 net.cpp:399] inception_4b/1x1 -> inception_4b/1x1
I0403 19:34:15.568200 25138 net.cpp:141] Setting up inception_4b/1x1
I0403 19:34:15.568230 25138 net.cpp:148] Top shape: 24 160 14 14 (752640)
I0403 19:34:15.568246 25138 net.cpp:156] Memory required for data: 949214496
I0403 19:34:15.568264 25138 layer_factory.hpp:77] Creating layer inception_4b/relu_1x1
I0403 19:34:15.568284 25138 net.cpp:91] Creating Layer inception_4b/relu_1x1
I0403 19:34:15.568308 25138 net.cpp:425] inception_4b/relu_1x1 <- inception_4b/1x1
I0403 19:34:15.568328 25138 net.cpp:386] inception_4b/relu_1x1 -> inception_4b/1x1 (in-place)
I0403 19:34:15.568502 25138 net.cpp:141] Setting up inception_4b/relu_1x1
I0403 19:34:15.568534 25138 net.cpp:148] Top shape: 24 160 14 14 (752640)
I0403 19:34:15.568552 25138 net.cpp:156] Memory required for data: 952225056
I0403 19:34:15.568567 25138 layer_factory.hpp:77] Creating layer inception_4b/3x3_reduce
I0403 19:34:15.568590 25138 net.cpp:91] Creating Layer inception_4b/3x3_reduce
I0403 19:34:15.568614 25138 net.cpp:425] inception_4b/3x3_reduce <- inception_4a/output_inception_4a/output_0_split_2
I0403 19:34:15.568634 25138 net.cpp:399] inception_4b/3x3_reduce -> inception_4b/3x3_reduce
I0403 19:34:15.569903 25138 net.cpp:141] Setting up inception_4b/3x3_reduce
I0403 19:34:15.569936 25138 net.cpp:148] Top shape: 24 112 14 14 (526848)
I0403 19:34:15.569954 25138 net.cpp:156] Memory required for data: 954332448
I0403 19:34:15.569972 25138 layer_factory.hpp:77] Creating layer inception_4b/relu_3x3_reduce
I0403 19:34:15.569993 25138 net.cpp:91] Creating Layer inception_4b/relu_3x3_reduce
I0403 19:34:15.570013 25138 net.cpp:425] inception_4b/relu_3x3_reduce <- inception_4b/3x3_reduce
I0403 19:34:15.570030 25138 net.cpp:386] inception_4b/relu_3x3_reduce -> inception_4b/3x3_reduce (in-place)
I0403 19:34:15.570298 25138 net.cpp:141] Setting up inception_4b/relu_3x3_reduce
I0403 19:34:15.570333 25138 net.cpp:148] Top shape: 24 112 14 14 (526848)
I0403 19:34:15.570350 25138 net.cpp:156] Memory required for data: 956439840
I0403 19:34:15.570365 25138 layer_factory.hpp:77] Creating layer inception_4b/3x3
I0403 19:34:15.570391 25138 net.cpp:91] Creating Layer inception_4b/3x3
I0403 19:34:15.570411 25138 net.cpp:425] inception_4b/3x3 <- inception_4b/3x3_reduce
I0403 19:34:15.570431 25138 net.cpp:399] inception_4b/3x3 -> inception_4b/3x3
I0403 19:34:15.573246 25138 net.cpp:141] Setting up inception_4b/3x3
I0403 19:34:15.573281 25138 net.cpp:148] Top shape: 24 224 14 14 (1053696)
I0403 19:34:15.573302 25138 net.cpp:156] Memory required for data: 960654624
I0403 19:34:15.573323 25138 layer_factory.hpp:77] Creating layer inception_4b/relu_3x3
I0403 19:34:15.573343 25138 net.cpp:91] Creating Layer inception_4b/relu_3x3
I0403 19:34:15.573359 25138 net.cpp:425] inception_4b/relu_3x3 <- inception_4b/3x3
I0403 19:34:15.573379 25138 net.cpp:386] inception_4b/relu_3x3 -> inception_4b/3x3 (in-place)
I0403 19:34:15.573554 25138 net.cpp:141] Setting up inception_4b/relu_3x3
I0403 19:34:15.573583 25138 net.cpp:148] Top shape: 24 224 14 14 (1053696)
I0403 19:34:15.573599 25138 net.cpp:156] Memory required for data: 964869408
I0403 19:34:15.573614 25138 layer_factory.hpp:77] Creating layer inception_4b/5x5_reduce
I0403 19:34:15.573635 25138 net.cpp:91] Creating Layer inception_4b/5x5_reduce
I0403 19:34:15.573655 25138 net.cpp:425] inception_4b/5x5_reduce <- inception_4a/output_inception_4a/output_0_split_3
I0403 19:34:15.573678 25138 net.cpp:399] inception_4b/5x5_reduce -> inception_4b/5x5_reduce
I0403 19:34:15.574709 25138 net.cpp:141] Setting up inception_4b/5x5_reduce
I0403 19:34:15.574738 25138 net.cpp:148] Top shape: 24 24 14 14 (112896)
I0403 19:34:15.574760 25138 net.cpp:156] Memory required for data: 965320992
I0403 19:34:15.574779 25138 layer_factory.hpp:77] Creating layer inception_4b/relu_5x5_reduce
I0403 19:34:15.574797 25138 net.cpp:91] Creating Layer inception_4b/relu_5x5_reduce
I0403 19:34:15.574828 25138 net.cpp:425] inception_4b/relu_5x5_reduce <- inception_4b/5x5_reduce
I0403 19:34:15.574848 25138 net.cpp:386] inception_4b/relu_5x5_reduce -> inception_4b/5x5_reduce (in-place)
I0403 19:34:15.575026 25138 net.cpp:141] Setting up inception_4b/relu_5x5_reduce
I0403 19:34:15.575059 25138 net.cpp:148] Top shape: 24 24 14 14 (112896)
I0403 19:34:15.575076 25138 net.cpp:156] Memory required for data: 965772576
I0403 19:34:15.575093 25138 layer_factory.hpp:77] Creating layer inception_4b/5x5
I0403 19:34:15.575114 25138 net.cpp:91] Creating Layer inception_4b/5x5
I0403 19:34:15.575134 25138 net.cpp:425] inception_4b/5x5 <- inception_4b/5x5_reduce
I0403 19:34:15.575153 25138 net.cpp:399] inception_4b/5x5 -> inception_4b/5x5
I0403 19:34:15.576324 25138 net.cpp:141] Setting up inception_4b/5x5
I0403 19:34:15.576355 25138 net.cpp:148] Top shape: 24 64 14 14 (301056)
I0403 19:34:15.576372 25138 net.cpp:156] Memory required for data: 966976800
I0403 19:34:15.576390 25138 layer_factory.hpp:77] Creating layer inception_4b/relu_5x5
I0403 19:34:15.576409 25138 net.cpp:91] Creating Layer inception_4b/relu_5x5
I0403 19:34:15.576428 25138 net.cpp:425] inception_4b/relu_5x5 <- inception_4b/5x5
I0403 19:34:15.576449 25138 net.cpp:386] inception_4b/relu_5x5 -> inception_4b/5x5 (in-place)
I0403 19:34:15.576726 25138 net.cpp:141] Setting up inception_4b/relu_5x5
I0403 19:34:15.576757 25138 net.cpp:148] Top shape: 24 64 14 14 (301056)
I0403 19:34:15.576773 25138 net.cpp:156] Memory required for data: 968181024
I0403 19:34:15.576788 25138 layer_factory.hpp:77] Creating layer inception_4b/pool
I0403 19:34:15.576810 25138 net.cpp:91] Creating Layer inception_4b/pool
I0403 19:34:15.576830 25138 net.cpp:425] inception_4b/pool <- inception_4a/output_inception_4a/output_0_split_4
I0403 19:34:15.576851 25138 net.cpp:399] inception_4b/pool -> inception_4b/pool
I0403 19:34:15.576920 25138 net.cpp:141] Setting up inception_4b/pool
I0403 19:34:15.576947 25138 net.cpp:148] Top shape: 24 512 14 14 (2408448)
I0403 19:34:15.576963 25138 net.cpp:156] Memory required for data: 977814816
I0403 19:34:15.576978 25138 layer_factory.hpp:77] Creating layer inception_4b/pool_proj
I0403 19:34:15.577002 25138 net.cpp:91] Creating Layer inception_4b/pool_proj
I0403 19:34:15.577021 25138 net.cpp:425] inception_4b/pool_proj <- inception_4b/pool
I0403 19:34:15.577044 25138 net.cpp:399] inception_4b/pool_proj -> inception_4b/pool_proj
I0403 19:34:15.578186 25138 net.cpp:141] Setting up inception_4b/pool_proj
I0403 19:34:15.578217 25138 net.cpp:148] Top shape: 24 64 14 14 (301056)
I0403 19:34:15.578234 25138 net.cpp:156] Memory required for data: 979019040
I0403 19:34:15.578253 25138 layer_factory.hpp:77] Creating layer inception_4b/relu_pool_proj
I0403 19:34:15.578276 25138 net.cpp:91] Creating Layer inception_4b/relu_pool_proj
I0403 19:34:15.578302 25138 net.cpp:425] inception_4b/relu_pool_proj <- inception_4b/pool_proj
I0403 19:34:15.578322 25138 net.cpp:386] inception_4b/relu_pool_proj -> inception_4b/pool_proj (in-place)
I0403 19:34:15.578496 25138 net.cpp:141] Setting up inception_4b/relu_pool_proj
I0403 19:34:15.578523 25138 net.cpp:148] Top shape: 24 64 14 14 (301056)
I0403 19:34:15.578538 25138 net.cpp:156] Memory required for data: 980223264
I0403 19:34:15.578554 25138 layer_factory.hpp:77] Creating layer inception_4b/output
I0403 19:34:15.578573 25138 net.cpp:91] Creating Layer inception_4b/output
I0403 19:34:15.578588 25138 net.cpp:425] inception_4b/output <- inception_4b/1x1
I0403 19:34:15.578605 25138 net.cpp:425] inception_4b/output <- inception_4b/3x3
I0403 19:34:15.578622 25138 net.cpp:425] inception_4b/output <- inception_4b/5x5
I0403 19:34:15.578639 25138 net.cpp:425] inception_4b/output <- inception_4b/pool_proj
I0403 19:34:15.578658 25138 net.cpp:399] inception_4b/output -> inception_4b/output
I0403 19:34:15.578707 25138 net.cpp:141] Setting up inception_4b/output
I0403 19:34:15.578735 25138 net.cpp:148] Top shape: 24 512 14 14 (2408448)
I0403 19:34:15.578755 25138 net.cpp:156] Memory required for data: 989857056
I0403 19:34:15.578785 25138 layer_factory.hpp:77] Creating layer inception_4b/output_inception_4b/output_0_split
I0403 19:34:15.578805 25138 net.cpp:91] Creating Layer inception_4b/output_inception_4b/output_0_split
I0403 19:34:15.578822 25138 net.cpp:425] inception_4b/output_inception_4b/output_0_split <- inception_4b/output
I0403 19:34:15.578841 25138 net.cpp:399] inception_4b/output_inception_4b/output_0_split -> inception_4b/output_inception_4b/output_0_split_0
I0403 19:34:15.578865 25138 net.cpp:399] inception_4b/output_inception_4b/output_0_split -> inception_4b/output_inception_4b/output_0_split_1
I0403 19:34:15.578887 25138 net.cpp:399] inception_4b/output_inception_4b/output_0_split -> inception_4b/output_inception_4b/output_0_split_2
I0403 19:34:15.578913 25138 net.cpp:399] inception_4b/output_inception_4b/output_0_split -> inception_4b/output_inception_4b/output_0_split_3
I0403 19:34:15.578997 25138 net.cpp:141] Setting up inception_4b/output_inception_4b/output_0_split
I0403 19:34:15.579023 25138 net.cpp:148] Top shape: 24 512 14 14 (2408448)
I0403 19:34:15.579041 25138 net.cpp:148] Top shape: 24 512 14 14 (2408448)
I0403 19:34:15.579058 25138 net.cpp:148] Top shape: 24 512 14 14 (2408448)
I0403 19:34:15.579074 25138 net.cpp:148] Top shape: 24 512 14 14 (2408448)
I0403 19:34:15.579087 25138 net.cpp:156] Memory required for data: 1028392224
I0403 19:34:15.579102 25138 layer_factory.hpp:77] Creating layer inception_4c/1x1
I0403 19:34:15.579124 25138 net.cpp:91] Creating Layer inception_4c/1x1
I0403 19:34:15.579144 25138 net.cpp:425] inception_4c/1x1 <- inception_4b/output_inception_4b/output_0_split_0
I0403 19:34:15.579167 25138 net.cpp:399] inception_4c/1x1 -> inception_4c/1x1
I0403 19:34:15.580518 25138 net.cpp:141] Setting up inception_4c/1x1
I0403 19:34:15.580550 25138 net.cpp:148] Top shape: 24 128 14 14 (602112)
I0403 19:34:15.580567 25138 net.cpp:156] Memory required for data: 1030800672
I0403 19:34:15.580585 25138 layer_factory.hpp:77] Creating layer inception_4c/relu_1x1
I0403 19:34:15.580605 25138 net.cpp:91] Creating Layer inception_4c/relu_1x1
I0403 19:34:15.580622 25138 net.cpp:425] inception_4c/relu_1x1 <- inception_4c/1x1
I0403 19:34:15.580642 25138 net.cpp:386] inception_4c/relu_1x1 -> inception_4c/1x1 (in-place)
I0403 19:34:15.580813 25138 net.cpp:141] Setting up inception_4c/relu_1x1
I0403 19:34:15.580842 25138 net.cpp:148] Top shape: 24 128 14 14 (602112)
I0403 19:34:15.580858 25138 net.cpp:156] Memory required for data: 1033209120
I0403 19:34:15.580873 25138 layer_factory.hpp:77] Creating layer inception_4c/3x3_reduce
I0403 19:34:15.580895 25138 net.cpp:91] Creating Layer inception_4c/3x3_reduce
I0403 19:34:15.580914 25138 net.cpp:425] inception_4c/3x3_reduce <- inception_4b/output_inception_4b/output_0_split_1
I0403 19:34:15.580941 25138 net.cpp:399] inception_4c/3x3_reduce -> inception_4c/3x3_reduce
I0403 19:34:15.582792 25138 net.cpp:141] Setting up inception_4c/3x3_reduce
I0403 19:34:15.582825 25138 net.cpp:148] Top shape: 24 128 14 14 (602112)
I0403 19:34:15.582842 25138 net.cpp:156] Memory required for data: 1035617568
I0403 19:34:15.582860 25138 layer_factory.hpp:77] Creating layer inception_4c/relu_3x3_reduce
I0403 19:34:15.582883 25138 net.cpp:91] Creating Layer inception_4c/relu_3x3_reduce
I0403 19:34:15.582902 25138 net.cpp:425] inception_4c/relu_3x3_reduce <- inception_4c/3x3_reduce
I0403 19:34:15.582919 25138 net.cpp:386] inception_4c/relu_3x3_reduce -> inception_4c/3x3_reduce (in-place)
I0403 19:34:15.583191 25138 net.cpp:141] Setting up inception_4c/relu_3x3_reduce
I0403 19:34:15.583222 25138 net.cpp:148] Top shape: 24 128 14 14 (602112)
I0403 19:34:15.583240 25138 net.cpp:156] Memory required for data: 1038026016
I0403 19:34:15.583256 25138 layer_factory.hpp:77] Creating layer inception_4c/3x3
I0403 19:34:15.583279 25138 net.cpp:91] Creating Layer inception_4c/3x3
I0403 19:34:15.583304 25138 net.cpp:425] inception_4c/3x3 <- inception_4c/3x3_reduce
I0403 19:34:15.583333 25138 net.cpp:399] inception_4c/3x3 -> inception_4c/3x3
I0403 19:34:15.586743 25138 net.cpp:141] Setting up inception_4c/3x3
I0403 19:34:15.586786 25138 net.cpp:148] Top shape: 24 256 14 14 (1204224)
I0403 19:34:15.586804 25138 net.cpp:156] Memory required for data: 1042842912
I0403 19:34:15.586836 25138 layer_factory.hpp:77] Creating layer inception_4c/relu_3x3
I0403 19:34:15.586858 25138 net.cpp:91] Creating Layer inception_4c/relu_3x3
I0403 19:34:15.586879 25138 net.cpp:425] inception_4c/relu_3x3 <- inception_4c/3x3
I0403 19:34:15.586899 25138 net.cpp:386] inception_4c/relu_3x3 -> inception_4c/3x3 (in-place)
I0403 19:34:15.587069 25138 net.cpp:141] Setting up inception_4c/relu_3x3
I0403 19:34:15.587102 25138 net.cpp:148] Top shape: 24 256 14 14 (1204224)
I0403 19:34:15.587118 25138 net.cpp:156] Memory required for data: 1047659808
I0403 19:34:15.587134 25138 layer_factory.hpp:77] Creating layer inception_4c/5x5_reduce
I0403 19:34:15.587154 25138 net.cpp:91] Creating Layer inception_4c/5x5_reduce
I0403 19:34:15.587174 25138 net.cpp:425] inception_4c/5x5_reduce <- inception_4b/output_inception_4b/output_0_split_2
I0403 19:34:15.587198 25138 net.cpp:399] inception_4c/5x5_reduce -> inception_4c/5x5_reduce
I0403 19:34:15.588232 25138 net.cpp:141] Setting up inception_4c/5x5_reduce
I0403 19:34:15.588263 25138 net.cpp:148] Top shape: 24 24 14 14 (112896)
I0403 19:34:15.588279 25138 net.cpp:156] Memory required for data: 1048111392
I0403 19:34:15.588301 25138 layer_factory.hpp:77] Creating layer inception_4c/relu_5x5_reduce
I0403 19:34:15.588325 25138 net.cpp:91] Creating Layer inception_4c/relu_5x5_reduce
I0403 19:34:15.588343 25138 net.cpp:425] inception_4c/relu_5x5_reduce <- inception_4c/5x5_reduce
I0403 19:34:15.588362 25138 net.cpp:386] inception_4c/relu_5x5_reduce -> inception_4c/5x5_reduce (in-place)
I0403 19:34:15.588539 25138 net.cpp:141] Setting up inception_4c/relu_5x5_reduce
I0403 19:34:15.588570 25138 net.cpp:148] Top shape: 24 24 14 14 (112896)
I0403 19:34:15.588587 25138 net.cpp:156] Memory required for data: 1048562976
I0403 19:34:15.588601 25138 layer_factory.hpp:77] Creating layer inception_4c/5x5
I0403 19:34:15.588626 25138 net.cpp:91] Creating Layer inception_4c/5x5
I0403 19:34:15.588646 25138 net.cpp:425] inception_4c/5x5 <- inception_4c/5x5_reduce
I0403 19:34:15.588668 25138 net.cpp:399] inception_4c/5x5 -> inception_4c/5x5
I0403 19:34:15.589834 25138 net.cpp:141] Setting up inception_4c/5x5
I0403 19:34:15.589864 25138 net.cpp:148] Top shape: 24 64 14 14 (301056)
I0403 19:34:15.589880 25138 net.cpp:156] Memory required for data: 1049767200
I0403 19:34:15.589898 25138 layer_factory.hpp:77] Creating layer inception_4c/relu_5x5
I0403 19:34:15.589917 25138 net.cpp:91] Creating Layer inception_4c/relu_5x5
I0403 19:34:15.589936 25138 net.cpp:425] inception_4c/relu_5x5 <- inception_4c/5x5
I0403 19:34:15.589957 25138 net.cpp:386] inception_4c/relu_5x5 -> inception_4c/5x5 (in-place)
I0403 19:34:15.590232 25138 net.cpp:141] Setting up inception_4c/relu_5x5
I0403 19:34:15.590262 25138 net.cpp:148] Top shape: 24 64 14 14 (301056)
I0403 19:34:15.590277 25138 net.cpp:156] Memory required for data: 1050971424
I0403 19:34:15.590301 25138 layer_factory.hpp:77] Creating layer inception_4c/pool
I0403 19:34:15.590320 25138 net.cpp:91] Creating Layer inception_4c/pool
I0403 19:34:15.590339 25138 net.cpp:425] inception_4c/pool <- inception_4b/output_inception_4b/output_0_split_3
I0403 19:34:15.590360 25138 net.cpp:399] inception_4c/pool -> inception_4c/pool
I0403 19:34:15.590425 25138 net.cpp:141] Setting up inception_4c/pool
I0403 19:34:15.590448 25138 net.cpp:148] Top shape: 24 512 14 14 (2408448)
I0403 19:34:15.590462 25138 net.cpp:156] Memory required for data: 1060605216
I0403 19:34:15.590476 25138 layer_factory.hpp:77] Creating layer inception_4c/pool_proj
I0403 19:34:15.590500 25138 net.cpp:91] Creating Layer inception_4c/pool_proj
I0403 19:34:15.590517 25138 net.cpp:425] inception_4c/pool_proj <- inception_4c/pool
I0403 19:34:15.590535 25138 net.cpp:399] inception_4c/pool_proj -> inception_4c/pool_proj
I0403 19:34:15.591704 25138 net.cpp:141] Setting up inception_4c/pool_proj
I0403 19:34:15.591732 25138 net.cpp:148] Top shape: 24 64 14 14 (301056)
I0403 19:34:15.591761 25138 net.cpp:156] Memory required for data: 1061809440
I0403 19:34:15.591781 25138 layer_factory.hpp:77] Creating layer inception_4c/relu_pool_proj
I0403 19:34:15.591802 25138 net.cpp:91] Creating Layer inception_4c/relu_pool_proj
I0403 19:34:15.591820 25138 net.cpp:425] inception_4c/relu_pool_proj <- inception_4c/pool_proj
I0403 19:34:15.591838 25138 net.cpp:386] inception_4c/relu_pool_proj -> inception_4c/pool_proj (in-place)
I0403 19:34:15.592013 25138 net.cpp:141] Setting up inception_4c/relu_pool_proj
I0403 19:34:15.592039 25138 net.cpp:148] Top shape: 24 64 14 14 (301056)
I0403 19:34:15.592054 25138 net.cpp:156] Memory required for data: 1063013664
I0403 19:34:15.592068 25138 layer_factory.hpp:77] Creating layer inception_4c/output
I0403 19:34:15.592085 25138 net.cpp:91] Creating Layer inception_4c/output
I0403 19:34:15.592102 25138 net.cpp:425] inception_4c/output <- inception_4c/1x1
I0403 19:34:15.592118 25138 net.cpp:425] inception_4c/output <- inception_4c/3x3
I0403 19:34:15.592133 25138 net.cpp:425] inception_4c/output <- inception_4c/5x5
I0403 19:34:15.592149 25138 net.cpp:425] inception_4c/output <- inception_4c/pool_proj
I0403 19:34:15.592166 25138 net.cpp:399] inception_4c/output -> inception_4c/output
I0403 19:34:15.592213 25138 net.cpp:141] Setting up inception_4c/output
I0403 19:34:15.592236 25138 net.cpp:148] Top shape: 24 512 14 14 (2408448)
I0403 19:34:15.592252 25138 net.cpp:156] Memory required for data: 1072647456
I0403 19:34:15.592267 25138 layer_factory.hpp:77] Creating layer inception_4c/output_inception_4c/output_0_split
I0403 19:34:15.592293 25138 net.cpp:91] Creating Layer inception_4c/output_inception_4c/output_0_split
I0403 19:34:15.592313 25138 net.cpp:425] inception_4c/output_inception_4c/output_0_split <- inception_4c/output
I0403 19:34:15.592330 25138 net.cpp:399] inception_4c/output_inception_4c/output_0_split -> inception_4c/output_inception_4c/output_0_split_0
I0403 19:34:15.592350 25138 net.cpp:399] inception_4c/output_inception_4c/output_0_split -> inception_4c/output_inception_4c/output_0_split_1
I0403 19:34:15.592371 25138 net.cpp:399] inception_4c/output_inception_4c/output_0_split -> inception_4c/output_inception_4c/output_0_split_2
I0403 19:34:15.592394 25138 net.cpp:399] inception_4c/output_inception_4c/output_0_split -> inception_4c/output_inception_4c/output_0_split_3
I0403 19:34:15.592480 25138 net.cpp:141] Setting up inception_4c/output_inception_4c/output_0_split
I0403 19:34:15.592504 25138 net.cpp:148] Top shape: 24 512 14 14 (2408448)
I0403 19:34:15.592521 25138 net.cpp:148] Top shape: 24 512 14 14 (2408448)
I0403 19:34:15.592536 25138 net.cpp:148] Top shape: 24 512 14 14 (2408448)
I0403 19:34:15.592552 25138 net.cpp:148] Top shape: 24 512 14 14 (2408448)
I0403 19:34:15.592564 25138 net.cpp:156] Memory required for data: 1111182624
I0403 19:34:15.592578 25138 layer_factory.hpp:77] Creating layer inception_4d/1x1
I0403 19:34:15.592600 25138 net.cpp:91] Creating Layer inception_4d/1x1
I0403 19:34:15.592619 25138 net.cpp:425] inception_4d/1x1 <- inception_4c/output_inception_4c/output_0_split_0
I0403 19:34:15.592640 25138 net.cpp:399] inception_4d/1x1 -> inception_4d/1x1
I0403 19:34:15.593947 25138 net.cpp:141] Setting up inception_4d/1x1
I0403 19:34:15.593976 25138 net.cpp:148] Top shape: 24 112 14 14 (526848)
I0403 19:34:15.593991 25138 net.cpp:156] Memory required for data: 1113290016
I0403 19:34:15.594008 25138 layer_factory.hpp:77] Creating layer inception_4d/relu_1x1
I0403 19:34:15.594027 25138 net.cpp:91] Creating Layer inception_4d/relu_1x1
I0403 19:34:15.594043 25138 net.cpp:425] inception_4d/relu_1x1 <- inception_4d/1x1
I0403 19:34:15.594063 25138 net.cpp:386] inception_4d/relu_1x1 -> inception_4d/1x1 (in-place)
I0403 19:34:15.594238 25138 net.cpp:141] Setting up inception_4d/relu_1x1
I0403 19:34:15.594264 25138 net.cpp:148] Top shape: 24 112 14 14 (526848)
I0403 19:34:15.594279 25138 net.cpp:156] Memory required for data: 1115397408
I0403 19:34:15.594307 25138 layer_factory.hpp:77] Creating layer inception_4d/3x3_reduce
I0403 19:34:15.594344 25138 net.cpp:91] Creating Layer inception_4d/3x3_reduce
I0403 19:34:15.594365 25138 net.cpp:425] inception_4d/3x3_reduce <- inception_4c/output_inception_4c/output_0_split_1
I0403 19:34:15.594386 25138 net.cpp:399] inception_4d/3x3_reduce -> inception_4d/3x3_reduce
I0403 19:34:15.595811 25138 net.cpp:141] Setting up inception_4d/3x3_reduce
I0403 19:34:15.595839 25138 net.cpp:148] Top shape: 24 144 14 14 (677376)
I0403 19:34:15.595855 25138 net.cpp:156] Memory required for data: 1118106912
I0403 19:34:15.595873 25138 layer_factory.hpp:77] Creating layer inception_4d/relu_3x3_reduce
I0403 19:34:15.595890 25138 net.cpp:91] Creating Layer inception_4d/relu_3x3_reduce
I0403 19:34:15.595906 25138 net.cpp:425] inception_4d/relu_3x3_reduce <- inception_4d/3x3_reduce
I0403 19:34:15.595924 25138 net.cpp:386] inception_4d/relu_3x3_reduce -> inception_4d/3x3_reduce (in-place)
I0403 19:34:15.596195 25138 net.cpp:141] Setting up inception_4d/relu_3x3_reduce
I0403 19:34:15.596225 25138 net.cpp:148] Top shape: 24 144 14 14 (677376)
I0403 19:34:15.596241 25138 net.cpp:156] Memory required for data: 1120816416
I0403 19:34:15.596256 25138 layer_factory.hpp:77] Creating layer inception_4d/3x3
I0403 19:34:15.596276 25138 net.cpp:91] Creating Layer inception_4d/3x3
I0403 19:34:15.596298 25138 net.cpp:425] inception_4d/3x3 <- inception_4d/3x3_reduce
I0403 19:34:15.596320 25138 net.cpp:399] inception_4d/3x3 -> inception_4d/3x3
I0403 19:34:15.600324 25138 net.cpp:141] Setting up inception_4d/3x3
I0403 19:34:15.600352 25138 net.cpp:148] Top shape: 24 288 14 14 (1354752)
I0403 19:34:15.600366 25138 net.cpp:156] Memory required for data: 1126235424
I0403 19:34:15.600383 25138 layer_factory.hpp:77] Creating layer inception_4d/relu_3x3
I0403 19:34:15.600402 25138 net.cpp:91] Creating Layer inception_4d/relu_3x3
I0403 19:34:15.600419 25138 net.cpp:425] inception_4d/relu_3x3 <- inception_4d/3x3
I0403 19:34:15.600437 25138 net.cpp:386] inception_4d/relu_3x3 -> inception_4d/3x3 (in-place)
I0403 19:34:15.600615 25138 net.cpp:141] Setting up inception_4d/relu_3x3
I0403 19:34:15.600639 25138 net.cpp:148] Top shape: 24 288 14 14 (1354752)
I0403 19:34:15.600653 25138 net.cpp:156] Memory required for data: 1131654432
I0403 19:34:15.600667 25138 layer_factory.hpp:77] Creating layer inception_4d/5x5_reduce
I0403 19:34:15.600689 25138 net.cpp:91] Creating Layer inception_4d/5x5_reduce
I0403 19:34:15.600708 25138 net.cpp:425] inception_4d/5x5_reduce <- inception_4c/output_inception_4c/output_0_split_2
I0403 19:34:15.600725 25138 net.cpp:399] inception_4d/5x5_reduce -> inception_4d/5x5_reduce
I0403 19:34:15.601804 25138 net.cpp:141] Setting up inception_4d/5x5_reduce
I0403 19:34:15.601831 25138 net.cpp:148] Top shape: 24 32 14 14 (150528)
I0403 19:34:15.601845 25138 net.cpp:156] Memory required for data: 1132256544
I0403 19:34:15.601862 25138 layer_factory.hpp:77] Creating layer inception_4d/relu_5x5_reduce
I0403 19:34:15.601881 25138 net.cpp:91] Creating Layer inception_4d/relu_5x5_reduce
I0403 19:34:15.601899 25138 net.cpp:425] inception_4d/relu_5x5_reduce <- inception_4d/5x5_reduce
I0403 19:34:15.601917 25138 net.cpp:386] inception_4d/relu_5x5_reduce -> inception_4d/5x5_reduce (in-place)
I0403 19:34:15.602092 25138 net.cpp:141] Setting up inception_4d/relu_5x5_reduce
I0403 19:34:15.602118 25138 net.cpp:148] Top shape: 24 32 14 14 (150528)
I0403 19:34:15.602134 25138 net.cpp:156] Memory required for data: 1132858656
I0403 19:34:15.602149 25138 layer_factory.hpp:77] Creating layer inception_4d/5x5
I0403 19:34:15.602167 25138 net.cpp:91] Creating Layer inception_4d/5x5
I0403 19:34:15.602185 25138 net.cpp:425] inception_4d/5x5 <- inception_4d/5x5_reduce
I0403 19:34:15.602206 25138 net.cpp:399] inception_4d/5x5 -> inception_4d/5x5
I0403 19:34:15.603575 25138 net.cpp:141] Setting up inception_4d/5x5
I0403 19:34:15.603605 25138 net.cpp:148] Top shape: 24 64 14 14 (301056)
I0403 19:34:15.603620 25138 net.cpp:156] Memory required for data: 1134062880
I0403 19:34:15.603637 25138 layer_factory.hpp:77] Creating layer inception_4d/relu_5x5
I0403 19:34:15.603668 25138 net.cpp:91] Creating Layer inception_4d/relu_5x5
I0403 19:34:15.603687 25138 net.cpp:425] inception_4d/relu_5x5 <- inception_4d/5x5
I0403 19:34:15.603703 25138 net.cpp:386] inception_4d/relu_5x5 -> inception_4d/5x5 (in-place)
I0403 19:34:15.603987 25138 net.cpp:141] Setting up inception_4d/relu_5x5
I0403 19:34:15.604015 25138 net.cpp:148] Top shape: 24 64 14 14 (301056)
I0403 19:34:15.604032 25138 net.cpp:156] Memory required for data: 1135267104
I0403 19:34:15.604045 25138 layer_factory.hpp:77] Creating layer inception_4d/pool
I0403 19:34:15.604063 25138 net.cpp:91] Creating Layer inception_4d/pool
I0403 19:34:15.604079 25138 net.cpp:425] inception_4d/pool <- inception_4c/output_inception_4c/output_0_split_3
I0403 19:34:15.604097 25138 net.cpp:399] inception_4d/pool -> inception_4d/pool
I0403 19:34:15.604162 25138 net.cpp:141] Setting up inception_4d/pool
I0403 19:34:15.604185 25138 net.cpp:148] Top shape: 24 512 14 14 (2408448)
I0403 19:34:15.604199 25138 net.cpp:156] Memory required for data: 1144900896
I0403 19:34:15.604212 25138 layer_factory.hpp:77] Creating layer inception_4d/pool_proj
I0403 19:34:15.604233 25138 net.cpp:91] Creating Layer inception_4d/pool_proj
I0403 19:34:15.604251 25138 net.cpp:425] inception_4d/pool_proj <- inception_4d/pool
I0403 19:34:15.604271 25138 net.cpp:399] inception_4d/pool_proj -> inception_4d/pool_proj
I0403 19:34:15.605926 25138 net.cpp:141] Setting up inception_4d/pool_proj
I0403 19:34:15.605953 25138 net.cpp:148] Top shape: 24 64 14 14 (301056)
I0403 19:34:15.605968 25138 net.cpp:156] Memory required for data: 1146105120
I0403 19:34:15.605986 25138 layer_factory.hpp:77] Creating layer inception_4d/relu_pool_proj
I0403 19:34:15.606005 25138 net.cpp:91] Creating Layer inception_4d/relu_pool_proj
I0403 19:34:15.606024 25138 net.cpp:425] inception_4d/relu_pool_proj <- inception_4d/pool_proj
I0403 19:34:15.606040 25138 net.cpp:386] inception_4d/relu_pool_proj -> inception_4d/pool_proj (in-place)
I0403 19:34:15.606215 25138 net.cpp:141] Setting up inception_4d/relu_pool_proj
I0403 19:34:15.606240 25138 net.cpp:148] Top shape: 24 64 14 14 (301056)
I0403 19:34:15.606254 25138 net.cpp:156] Memory required for data: 1147309344
I0403 19:34:15.606268 25138 layer_factory.hpp:77] Creating layer inception_4d/output
I0403 19:34:15.606292 25138 net.cpp:91] Creating Layer inception_4d/output
I0403 19:34:15.606309 25138 net.cpp:425] inception_4d/output <- inception_4d/1x1
I0403 19:34:15.606325 25138 net.cpp:425] inception_4d/output <- inception_4d/3x3
I0403 19:34:15.606341 25138 net.cpp:425] inception_4d/output <- inception_4d/5x5
I0403 19:34:15.606356 25138 net.cpp:425] inception_4d/output <- inception_4d/pool_proj
I0403 19:34:15.606374 25138 net.cpp:399] inception_4d/output -> inception_4d/output
I0403 19:34:15.606420 25138 net.cpp:141] Setting up inception_4d/output
I0403 19:34:15.606443 25138 net.cpp:148] Top shape: 24 528 14 14 (2483712)
I0403 19:34:15.606456 25138 net.cpp:156] Memory required for data: 1157244192
I0403 19:34:15.606470 25138 layer_factory.hpp:77] Creating layer inception_4d/output_inception_4d/output_0_split
I0403 19:34:15.606487 25138 net.cpp:91] Creating Layer inception_4d/output_inception_4d/output_0_split
I0403 19:34:15.606503 25138 net.cpp:425] inception_4d/output_inception_4d/output_0_split <- inception_4d/output
I0403 19:34:15.606524 25138 net.cpp:399] inception_4d/output_inception_4d/output_0_split -> inception_4d/output_inception_4d/output_0_split_0
I0403 19:34:15.606546 25138 net.cpp:399] inception_4d/output_inception_4d/output_0_split -> inception_4d/output_inception_4d/output_0_split_1
I0403 19:34:15.606566 25138 net.cpp:399] inception_4d/output_inception_4d/output_0_split -> inception_4d/output_inception_4d/output_0_split_2
I0403 19:34:15.606591 25138 net.cpp:399] inception_4d/output_inception_4d/output_0_split -> inception_4d/output_inception_4d/output_0_split_3
I0403 19:34:15.606612 25138 net.cpp:399] inception_4d/output_inception_4d/output_0_split -> inception_4d/output_inception_4d/output_0_split_4
I0403 19:34:15.606709 25138 net.cpp:141] Setting up inception_4d/output_inception_4d/output_0_split
I0403 19:34:15.606745 25138 net.cpp:148] Top shape: 24 528 14 14 (2483712)
I0403 19:34:15.606760 25138 net.cpp:148] Top shape: 24 528 14 14 (2483712)
I0403 19:34:15.606775 25138 net.cpp:148] Top shape: 24 528 14 14 (2483712)
I0403 19:34:15.606788 25138 net.cpp:148] Top shape: 24 528 14 14 (2483712)
I0403 19:34:15.606802 25138 net.cpp:148] Top shape: 24 528 14 14 (2483712)
I0403 19:34:15.606814 25138 net.cpp:156] Memory required for data: 1206918432
I0403 19:34:15.606828 25138 layer_factory.hpp:77] Creating layer loss2/ave_pool
I0403 19:34:15.606845 25138 net.cpp:91] Creating Layer loss2/ave_pool
I0403 19:34:15.606860 25138 net.cpp:425] loss2/ave_pool <- inception_4d/output_inception_4d/output_0_split_0
I0403 19:34:15.606880 25138 net.cpp:399] loss2/ave_pool -> loss2/ave_pool
I0403 19:34:15.607182 25138 net.cpp:141] Setting up loss2/ave_pool
I0403 19:34:15.607208 25138 net.cpp:148] Top shape: 24 528 4 4 (202752)
I0403 19:34:15.607221 25138 net.cpp:156] Memory required for data: 1207729440
I0403 19:34:15.607235 25138 layer_factory.hpp:77] Creating layer loss2/conv
I0403 19:34:15.607256 25138 net.cpp:91] Creating Layer loss2/conv
I0403 19:34:15.607275 25138 net.cpp:425] loss2/conv <- loss2/ave_pool
I0403 19:34:15.607300 25138 net.cpp:399] loss2/conv -> loss2/conv
I0403 19:34:15.609088 25138 net.cpp:141] Setting up loss2/conv
I0403 19:34:15.609118 25138 net.cpp:148] Top shape: 24 128 4 4 (49152)
I0403 19:34:15.609134 25138 net.cpp:156] Memory required for data: 1207926048
I0403 19:34:15.609151 25138 layer_factory.hpp:77] Creating layer loss2/relu_conv
I0403 19:34:15.609169 25138 net.cpp:91] Creating Layer loss2/relu_conv
I0403 19:34:15.609185 25138 net.cpp:425] loss2/relu_conv <- loss2/conv
I0403 19:34:15.609205 25138 net.cpp:386] loss2/relu_conv -> loss2/conv (in-place)
I0403 19:34:15.609488 25138 net.cpp:141] Setting up loss2/relu_conv
I0403 19:34:15.609515 25138 net.cpp:148] Top shape: 24 128 4 4 (49152)
I0403 19:34:15.609530 25138 net.cpp:156] Memory required for data: 1208122656
I0403 19:34:15.609544 25138 layer_factory.hpp:77] Creating layer loss2/fc
I0403 19:34:15.609562 25138 net.cpp:91] Creating Layer loss2/fc
I0403 19:34:15.609580 25138 net.cpp:425] loss2/fc <- loss2/conv
I0403 19:34:15.609601 25138 net.cpp:399] loss2/fc -> loss2/fc
I0403 19:34:15.626478 25138 net.cpp:141] Setting up loss2/fc
I0403 19:34:15.626514 25138 net.cpp:148] Top shape: 24 1024 (24576)
I0403 19:34:15.626530 25138 net.cpp:156] Memory required for data: 1208220960
I0403 19:34:15.626549 25138 layer_factory.hpp:77] Creating layer loss2/relu_fc
I0403 19:34:15.626569 25138 net.cpp:91] Creating Layer loss2/relu_fc
I0403 19:34:15.626587 25138 net.cpp:425] loss2/relu_fc <- loss2/fc
I0403 19:34:15.626605 25138 net.cpp:386] loss2/relu_fc -> loss2/fc (in-place)
I0403 19:34:15.626885 25138 net.cpp:141] Setting up loss2/relu_fc
I0403 19:34:15.626911 25138 net.cpp:148] Top shape: 24 1024 (24576)
I0403 19:34:15.626925 25138 net.cpp:156] Memory required for data: 1208319264
I0403 19:34:15.626940 25138 layer_factory.hpp:77] Creating layer loss2/drop_fc
I0403 19:34:15.626960 25138 net.cpp:91] Creating Layer loss2/drop_fc
I0403 19:34:15.626976 25138 net.cpp:425] loss2/drop_fc <- loss2/fc
I0403 19:34:15.626994 25138 net.cpp:386] loss2/drop_fc -> loss2/fc (in-place)
I0403 19:34:15.627043 25138 net.cpp:141] Setting up loss2/drop_fc
I0403 19:34:15.627065 25138 net.cpp:148] Top shape: 24 1024 (24576)
I0403 19:34:15.627080 25138 net.cpp:156] Memory required for data: 1208417568
I0403 19:34:15.627094 25138 layer_factory.hpp:77] Creating layer loss2/classifier_plantvillage
I0403 19:34:15.627111 25138 net.cpp:91] Creating Layer loss2/classifier_plantvillage
I0403 19:34:15.627128 25138 net.cpp:425] loss2/classifier_plantvillage <- loss2/fc
I0403 19:34:15.627149 25138 net.cpp:399] loss2/classifier_plantvillage -> loss2/classifier_plantvillage
I0403 19:34:15.627539 25138 net.cpp:141] Setting up loss2/classifier_plantvillage
I0403 19:34:15.627563 25138 net.cpp:148] Top shape: 24 38 (912)
I0403 19:34:15.627595 25138 net.cpp:156] Memory required for data: 1208421216
I0403 19:34:15.627614 25138 layer_factory.hpp:77] Creating layer loss2/classifier_plantvillage_loss2/classifier_plantvillage_0_split
I0403 19:34:15.627631 25138 net.cpp:91] Creating Layer loss2/classifier_plantvillage_loss2/classifier_plantvillage_0_split
I0403 19:34:15.627647 25138 net.cpp:425] loss2/classifier_plantvillage_loss2/classifier_plantvillage_0_split <- loss2/classifier_plantvillage
I0403 19:34:15.627667 25138 net.cpp:399] loss2/classifier_plantvillage_loss2/classifier_plantvillage_0_split -> loss2/classifier_plantvillage_loss2/classifier_plantvillage_0_split_0
I0403 19:34:15.627688 25138 net.cpp:399] loss2/classifier_plantvillage_loss2/classifier_plantvillage_0_split -> loss2/classifier_plantvillage_loss2/classifier_plantvillage_0_split_1
I0403 19:34:15.627710 25138 net.cpp:399] loss2/classifier_plantvillage_loss2/classifier_plantvillage_0_split -> loss2/classifier_plantvillage_loss2/classifier_plantvillage_0_split_2
I0403 19:34:15.627786 25138 net.cpp:141] Setting up loss2/classifier_plantvillage_loss2/classifier_plantvillage_0_split
I0403 19:34:15.627810 25138 net.cpp:148] Top shape: 24 38 (912)
I0403 19:34:15.627826 25138 net.cpp:148] Top shape: 24 38 (912)
I0403 19:34:15.627840 25138 net.cpp:148] Top shape: 24 38 (912)
I0403 19:34:15.627852 25138 net.cpp:156] Memory required for data: 1208432160
I0403 19:34:15.627866 25138 layer_factory.hpp:77] Creating layer inception_4e/1x1
I0403 19:34:15.627890 25138 net.cpp:91] Creating Layer inception_4e/1x1
I0403 19:34:15.627908 25138 net.cpp:425] inception_4e/1x1 <- inception_4d/output_inception_4d/output_0_split_1
I0403 19:34:15.627928 25138 net.cpp:399] inception_4e/1x1 -> inception_4e/1x1
I0403 19:34:15.629647 25138 net.cpp:141] Setting up inception_4e/1x1
I0403 19:34:15.629678 25138 net.cpp:148] Top shape: 24 256 14 14 (1204224)
I0403 19:34:15.629693 25138 net.cpp:156] Memory required for data: 1213249056
I0403 19:34:15.629710 25138 layer_factory.hpp:77] Creating layer inception_4e/relu_1x1
I0403 19:34:15.629729 25138 net.cpp:91] Creating Layer inception_4e/relu_1x1
I0403 19:34:15.629745 25138 net.cpp:425] inception_4e/relu_1x1 <- inception_4e/1x1
I0403 19:34:15.629766 25138 net.cpp:386] inception_4e/relu_1x1 -> inception_4e/1x1 (in-place)
I0403 19:34:15.630049 25138 net.cpp:141] Setting up inception_4e/relu_1x1
I0403 19:34:15.630077 25138 net.cpp:148] Top shape: 24 256 14 14 (1204224)
I0403 19:34:15.630094 25138 net.cpp:156] Memory required for data: 1218065952
I0403 19:34:15.630108 25138 layer_factory.hpp:77] Creating layer inception_4e/3x3_reduce
I0403 19:34:15.630131 25138 net.cpp:91] Creating Layer inception_4e/3x3_reduce
I0403 19:34:15.630148 25138 net.cpp:425] inception_4e/3x3_reduce <- inception_4d/output_inception_4d/output_0_split_2
I0403 19:34:15.630167 25138 net.cpp:399] inception_4e/3x3_reduce -> inception_4e/3x3_reduce
I0403 19:34:15.632199 25138 net.cpp:141] Setting up inception_4e/3x3_reduce
I0403 19:34:15.632226 25138 net.cpp:148] Top shape: 24 160 14 14 (752640)
I0403 19:34:15.632241 25138 net.cpp:156] Memory required for data: 1221076512
I0403 19:34:15.632258 25138 layer_factory.hpp:77] Creating layer inception_4e/relu_3x3_reduce
I0403 19:34:15.632278 25138 net.cpp:91] Creating Layer inception_4e/relu_3x3_reduce
I0403 19:34:15.632300 25138 net.cpp:425] inception_4e/relu_3x3_reduce <- inception_4e/3x3_reduce
I0403 19:34:15.632319 25138 net.cpp:386] inception_4e/relu_3x3_reduce -> inception_4e/3x3_reduce (in-place)
I0403 19:34:15.632498 25138 net.cpp:141] Setting up inception_4e/relu_3x3_reduce
I0403 19:34:15.632524 25138 net.cpp:148] Top shape: 24 160 14 14 (752640)
I0403 19:34:15.632539 25138 net.cpp:156] Memory required for data: 1224087072
I0403 19:34:15.632553 25138 layer_factory.hpp:77] Creating layer inception_4e/3x3
I0403 19:34:15.632577 25138 net.cpp:91] Creating Layer inception_4e/3x3
I0403 19:34:15.632596 25138 net.cpp:425] inception_4e/3x3 <- inception_4e/3x3_reduce
I0403 19:34:15.632618 25138 net.cpp:399] inception_4e/3x3 -> inception_4e/3x3
I0403 19:34:15.637418 25138 net.cpp:141] Setting up inception_4e/3x3
I0403 19:34:15.637459 25138 net.cpp:148] Top shape: 24 320 14 14 (1505280)
I0403 19:34:15.637475 25138 net.cpp:156] Memory required for data: 1230108192
I0403 19:34:15.637492 25138 layer_factory.hpp:77] Creating layer inception_4e/relu_3x3
I0403 19:34:15.637509 25138 net.cpp:91] Creating Layer inception_4e/relu_3x3
I0403 19:34:15.637526 25138 net.cpp:425] inception_4e/relu_3x3 <- inception_4e/3x3
I0403 19:34:15.637545 25138 net.cpp:386] inception_4e/relu_3x3 -> inception_4e/3x3 (in-place)
I0403 19:34:15.637840 25138 net.cpp:141] Setting up inception_4e/relu_3x3
I0403 19:34:15.637867 25138 net.cpp:148] Top shape: 24 320 14 14 (1505280)
I0403 19:34:15.637882 25138 net.cpp:156] Memory required for data: 1236129312
I0403 19:34:15.637895 25138 layer_factory.hpp:77] Creating layer inception_4e/5x5_reduce
I0403 19:34:15.637918 25138 net.cpp:91] Creating Layer inception_4e/5x5_reduce
I0403 19:34:15.637936 25138 net.cpp:425] inception_4e/5x5_reduce <- inception_4d/output_inception_4d/output_0_split_3
I0403 19:34:15.637959 25138 net.cpp:399] inception_4e/5x5_reduce -> inception_4e/5x5_reduce
I0403 19:34:15.638993 25138 net.cpp:141] Setting up inception_4e/5x5_reduce
I0403 19:34:15.639022 25138 net.cpp:148] Top shape: 24 32 14 14 (150528)
I0403 19:34:15.639039 25138 net.cpp:156] Memory required for data: 1236731424
I0403 19:34:15.639055 25138 layer_factory.hpp:77] Creating layer inception_4e/relu_5x5_reduce
I0403 19:34:15.639075 25138 net.cpp:91] Creating Layer inception_4e/relu_5x5_reduce
I0403 19:34:15.639091 25138 net.cpp:425] inception_4e/relu_5x5_reduce <- inception_4e/5x5_reduce
I0403 19:34:15.639109 25138 net.cpp:386] inception_4e/relu_5x5_reduce -> inception_4e/5x5_reduce (in-place)
I0403 19:34:15.639402 25138 net.cpp:141] Setting up inception_4e/relu_5x5_reduce
I0403 19:34:15.639430 25138 net.cpp:148] Top shape: 24 32 14 14 (150528)
I0403 19:34:15.639446 25138 net.cpp:156] Memory required for data: 1237333536
I0403 19:34:15.639461 25138 layer_factory.hpp:77] Creating layer inception_4e/5x5
I0403 19:34:15.639499 25138 net.cpp:91] Creating Layer inception_4e/5x5
I0403 19:34:15.639519 25138 net.cpp:425] inception_4e/5x5 <- inception_4e/5x5_reduce
I0403 19:34:15.639538 25138 net.cpp:399] inception_4e/5x5 -> inception_4e/5x5
I0403 19:34:15.641266 25138 net.cpp:141] Setting up inception_4e/5x5
I0403 19:34:15.641297 25138 net.cpp:148] Top shape: 24 128 14 14 (602112)
I0403 19:34:15.641315 25138 net.cpp:156] Memory required for data: 1239741984
I0403 19:34:15.641333 25138 layer_factory.hpp:77] Creating layer inception_4e/relu_5x5
I0403 19:34:15.641353 25138 net.cpp:91] Creating Layer inception_4e/relu_5x5
I0403 19:34:15.641371 25138 net.cpp:425] inception_4e/relu_5x5 <- inception_4e/5x5
I0403 19:34:15.641388 25138 net.cpp:386] inception_4e/relu_5x5 -> inception_4e/5x5 (in-place)
I0403 19:34:15.641580 25138 net.cpp:141] Setting up inception_4e/relu_5x5
I0403 19:34:15.641607 25138 net.cpp:148] Top shape: 24 128 14 14 (602112)
I0403 19:34:15.641623 25138 net.cpp:156] Memory required for data: 1242150432
I0403 19:34:15.641638 25138 layer_factory.hpp:77] Creating layer inception_4e/pool
I0403 19:34:15.641655 25138 net.cpp:91] Creating Layer inception_4e/pool
I0403 19:34:15.641670 25138 net.cpp:425] inception_4e/pool <- inception_4d/output_inception_4d/output_0_split_4
I0403 19:34:15.641693 25138 net.cpp:399] inception_4e/pool -> inception_4e/pool
I0403 19:34:15.641762 25138 net.cpp:141] Setting up inception_4e/pool
I0403 19:34:15.641785 25138 net.cpp:148] Top shape: 24 528 14 14 (2483712)
I0403 19:34:15.641800 25138 net.cpp:156] Memory required for data: 1252085280
I0403 19:34:15.641814 25138 layer_factory.hpp:77] Creating layer inception_4e/pool_proj
I0403 19:34:15.641835 25138 net.cpp:91] Creating Layer inception_4e/pool_proj
I0403 19:34:15.641854 25138 net.cpp:425] inception_4e/pool_proj <- inception_4e/pool
I0403 19:34:15.641873 25138 net.cpp:399] inception_4e/pool_proj -> inception_4e/pool_proj
I0403 19:34:15.643309 25138 net.cpp:141] Setting up inception_4e/pool_proj
I0403 19:34:15.643347 25138 net.cpp:148] Top shape: 24 128 14 14 (602112)
I0403 19:34:15.643363 25138 net.cpp:156] Memory required for data: 1254493728
I0403 19:34:15.643381 25138 layer_factory.hpp:77] Creating layer inception_4e/relu_pool_proj
I0403 19:34:15.643400 25138 net.cpp:91] Creating Layer inception_4e/relu_pool_proj
I0403 19:34:15.643417 25138 net.cpp:425] inception_4e/relu_pool_proj <- inception_4e/pool_proj
I0403 19:34:15.643436 25138 net.cpp:386] inception_4e/relu_pool_proj -> inception_4e/pool_proj (in-place)
I0403 19:34:15.643715 25138 net.cpp:141] Setting up inception_4e/relu_pool_proj
I0403 19:34:15.643741 25138 net.cpp:148] Top shape: 24 128 14 14 (602112)
I0403 19:34:15.643757 25138 net.cpp:156] Memory required for data: 1256902176
I0403 19:34:15.643771 25138 layer_factory.hpp:77] Creating layer inception_4e/output
I0403 19:34:15.643790 25138 net.cpp:91] Creating Layer inception_4e/output
I0403 19:34:15.643807 25138 net.cpp:425] inception_4e/output <- inception_4e/1x1
I0403 19:34:15.643823 25138 net.cpp:425] inception_4e/output <- inception_4e/3x3
I0403 19:34:15.643839 25138 net.cpp:425] inception_4e/output <- inception_4e/5x5
I0403 19:34:15.643856 25138 net.cpp:425] inception_4e/output <- inception_4e/pool_proj
I0403 19:34:15.643872 25138 net.cpp:399] inception_4e/output -> inception_4e/output
I0403 19:34:15.643919 25138 net.cpp:141] Setting up inception_4e/output
I0403 19:34:15.643945 25138 net.cpp:148] Top shape: 24 832 14 14 (3913728)
I0403 19:34:15.643961 25138 net.cpp:156] Memory required for data: 1272557088
I0403 19:34:15.643975 25138 layer_factory.hpp:77] Creating layer pool4/3x3_s2
I0403 19:34:15.643993 25138 net.cpp:91] Creating Layer pool4/3x3_s2
I0403 19:34:15.644011 25138 net.cpp:425] pool4/3x3_s2 <- inception_4e/output
I0403 19:34:15.644029 25138 net.cpp:399] pool4/3x3_s2 -> pool4/3x3_s2
I0403 19:34:15.644098 25138 net.cpp:141] Setting up pool4/3x3_s2
I0403 19:34:15.644122 25138 net.cpp:148] Top shape: 24 832 7 7 (978432)
I0403 19:34:15.644139 25138 net.cpp:156] Memory required for data: 1276470816
I0403 19:34:15.644152 25138 layer_factory.hpp:77] Creating layer pool4/3x3_s2_pool4/3x3_s2_0_split
I0403 19:34:15.644170 25138 net.cpp:91] Creating Layer pool4/3x3_s2_pool4/3x3_s2_0_split
I0403 19:34:15.644184 25138 net.cpp:425] pool4/3x3_s2_pool4/3x3_s2_0_split <- pool4/3x3_s2
I0403 19:34:15.644201 25138 net.cpp:399] pool4/3x3_s2_pool4/3x3_s2_0_split -> pool4/3x3_s2_pool4/3x3_s2_0_split_0
I0403 19:34:15.644222 25138 net.cpp:399] pool4/3x3_s2_pool4/3x3_s2_0_split -> pool4/3x3_s2_pool4/3x3_s2_0_split_1
I0403 19:34:15.644244 25138 net.cpp:399] pool4/3x3_s2_pool4/3x3_s2_0_split -> pool4/3x3_s2_pool4/3x3_s2_0_split_2
I0403 19:34:15.644268 25138 net.cpp:399] pool4/3x3_s2_pool4/3x3_s2_0_split -> pool4/3x3_s2_pool4/3x3_s2_0_split_3
I0403 19:34:15.644378 25138 net.cpp:141] Setting up pool4/3x3_s2_pool4/3x3_s2_0_split
I0403 19:34:15.644402 25138 net.cpp:148] Top shape: 24 832 7 7 (978432)
I0403 19:34:15.644418 25138 net.cpp:148] Top shape: 24 832 7 7 (978432)
I0403 19:34:15.644430 25138 net.cpp:148] Top shape: 24 832 7 7 (978432)
I0403 19:34:15.644445 25138 net.cpp:148] Top shape: 24 832 7 7 (978432)
I0403 19:34:15.644457 25138 net.cpp:156] Memory required for data: 1292125728
I0403 19:34:15.644470 25138 layer_factory.hpp:77] Creating layer inception_5a/1x1
I0403 19:34:15.644491 25138 net.cpp:91] Creating Layer inception_5a/1x1
I0403 19:34:15.644508 25138 net.cpp:425] inception_5a/1x1 <- pool4/3x3_s2_pool4/3x3_s2_0_split_0
I0403 19:34:15.644529 25138 net.cpp:399] inception_5a/1x1 -> inception_5a/1x1
I0403 19:34:15.647264 25138 net.cpp:141] Setting up inception_5a/1x1
I0403 19:34:15.647299 25138 net.cpp:148] Top shape: 24 256 7 7 (301056)
I0403 19:34:15.647318 25138 net.cpp:156] Memory required for data: 1293329952
I0403 19:34:15.647336 25138 layer_factory.hpp:77] Creating layer inception_5a/relu_1x1
I0403 19:34:15.647356 25138 net.cpp:91] Creating Layer inception_5a/relu_1x1
I0403 19:34:15.647374 25138 net.cpp:425] inception_5a/relu_1x1 <- inception_5a/1x1
I0403 19:34:15.647392 25138 net.cpp:386] inception_5a/relu_1x1 -> inception_5a/1x1 (in-place)
I0403 19:34:15.647691 25138 net.cpp:141] Setting up inception_5a/relu_1x1
I0403 19:34:15.647718 25138 net.cpp:148] Top shape: 24 256 7 7 (301056)
I0403 19:34:15.647733 25138 net.cpp:156] Memory required for data: 1294534176
I0403 19:34:15.647748 25138 layer_factory.hpp:77] Creating layer inception_5a/3x3_reduce
I0403 19:34:15.647773 25138 net.cpp:91] Creating Layer inception_5a/3x3_reduce
I0403 19:34:15.647792 25138 net.cpp:425] inception_5a/3x3_reduce <- pool4/3x3_s2_pool4/3x3_s2_0_split_1
I0403 19:34:15.647812 25138 net.cpp:399] inception_5a/3x3_reduce -> inception_5a/3x3_reduce
I0403 19:34:15.650169 25138 net.cpp:141] Setting up inception_5a/3x3_reduce
I0403 19:34:15.650198 25138 net.cpp:148] Top shape: 24 160 7 7 (188160)
I0403 19:34:15.650213 25138 net.cpp:156] Memory required for data: 1295286816
I0403 19:34:15.650231 25138 layer_factory.hpp:77] Creating layer inception_5a/relu_3x3_reduce
I0403 19:34:15.650250 25138 net.cpp:91] Creating Layer inception_5a/relu_3x3_reduce
I0403 19:34:15.650269 25138 net.cpp:425] inception_5a/relu_3x3_reduce <- inception_5a/3x3_reduce
I0403 19:34:15.650292 25138 net.cpp:386] inception_5a/relu_3x3_reduce -> inception_5a/3x3_reduce (in-place)
I0403 19:34:15.650476 25138 net.cpp:141] Setting up inception_5a/relu_3x3_reduce
I0403 19:34:15.650502 25138 net.cpp:148] Top shape: 24 160 7 7 (188160)
I0403 19:34:15.650516 25138 net.cpp:156] Memory required for data: 1296039456
I0403 19:34:15.650529 25138 layer_factory.hpp:77] Creating layer inception_5a/3x3
I0403 19:34:15.650552 25138 net.cpp:91] Creating Layer inception_5a/3x3
I0403 19:34:15.650570 25138 net.cpp:425] inception_5a/3x3 <- inception_5a/3x3_reduce
I0403 19:34:15.650594 25138 net.cpp:399] inception_5a/3x3 -> inception_5a/3x3
I0403 19:34:15.655441 25138 net.cpp:141] Setting up inception_5a/3x3
I0403 19:34:15.655468 25138 net.cpp:148] Top shape: 24 320 7 7 (376320)
I0403 19:34:15.655483 25138 net.cpp:156] Memory required for data: 1297544736
I0403 19:34:15.655500 25138 layer_factory.hpp:77] Creating layer inception_5a/relu_3x3
I0403 19:34:15.655519 25138 net.cpp:91] Creating Layer inception_5a/relu_3x3
I0403 19:34:15.655537 25138 net.cpp:425] inception_5a/relu_3x3 <- inception_5a/3x3
I0403 19:34:15.655555 25138 net.cpp:386] inception_5a/relu_3x3 -> inception_5a/3x3 (in-place)
I0403 19:34:15.655836 25138 net.cpp:141] Setting up inception_5a/relu_3x3
I0403 19:34:15.655861 25138 net.cpp:148] Top shape: 24 320 7 7 (376320)
I0403 19:34:15.655876 25138 net.cpp:156] Memory required for data: 1299050016
I0403 19:34:15.655890 25138 layer_factory.hpp:77] Creating layer inception_5a/5x5_reduce
I0403 19:34:15.655912 25138 net.cpp:91] Creating Layer inception_5a/5x5_reduce
I0403 19:34:15.655930 25138 net.cpp:425] inception_5a/5x5_reduce <- pool4/3x3_s2_pool4/3x3_s2_0_split_2
I0403 19:34:15.655952 25138 net.cpp:399] inception_5a/5x5_reduce -> inception_5a/5x5_reduce
I0403 19:34:15.657063 25138 net.cpp:141] Setting up inception_5a/5x5_reduce
I0403 19:34:15.657091 25138 net.cpp:148] Top shape: 24 32 7 7 (37632)
I0403 19:34:15.657107 25138 net.cpp:156] Memory required for data: 1299200544
I0403 19:34:15.657125 25138 layer_factory.hpp:77] Creating layer inception_5a/relu_5x5_reduce
I0403 19:34:15.657143 25138 net.cpp:91] Creating Layer inception_5a/relu_5x5_reduce
I0403 19:34:15.657158 25138 net.cpp:425] inception_5a/relu_5x5_reduce <- inception_5a/5x5_reduce
I0403 19:34:15.657176 25138 net.cpp:386] inception_5a/relu_5x5_reduce -> inception_5a/5x5_reduce (in-place)
I0403 19:34:15.657464 25138 net.cpp:141] Setting up inception_5a/relu_5x5_reduce
I0403 19:34:15.657491 25138 net.cpp:148] Top shape: 24 32 7 7 (37632)
I0403 19:34:15.657507 25138 net.cpp:156] Memory required for data: 1299351072
I0403 19:34:15.657521 25138 layer_factory.hpp:77] Creating layer inception_5a/5x5
I0403 19:34:15.657542 25138 net.cpp:91] Creating Layer inception_5a/5x5
I0403 19:34:15.657560 25138 net.cpp:425] inception_5a/5x5 <- inception_5a/5x5_reduce
I0403 19:34:15.657579 25138 net.cpp:399] inception_5a/5x5 -> inception_5a/5x5
I0403 19:34:15.659209 25138 net.cpp:141] Setting up inception_5a/5x5
I0403 19:34:15.659245 25138 net.cpp:148] Top shape: 24 128 7 7 (150528)
I0403 19:34:15.659261 25138 net.cpp:156] Memory required for data: 1299953184
I0403 19:34:15.659279 25138 layer_factory.hpp:77] Creating layer inception_5a/relu_5x5
I0403 19:34:15.659304 25138 net.cpp:91] Creating Layer inception_5a/relu_5x5
I0403 19:34:15.659322 25138 net.cpp:425] inception_5a/relu_5x5 <- inception_5a/5x5
I0403 19:34:15.659339 25138 net.cpp:386] inception_5a/relu_5x5 -> inception_5a/5x5 (in-place)
I0403 19:34:15.659525 25138 net.cpp:141] Setting up inception_5a/relu_5x5
I0403 19:34:15.659553 25138 net.cpp:148] Top shape: 24 128 7 7 (150528)
I0403 19:34:15.659567 25138 net.cpp:156] Memory required for data: 1300555296
I0403 19:34:15.659581 25138 layer_factory.hpp:77] Creating layer inception_5a/pool
I0403 19:34:15.659597 25138 net.cpp:91] Creating Layer inception_5a/pool
I0403 19:34:15.659613 25138 net.cpp:425] inception_5a/pool <- pool4/3x3_s2_pool4/3x3_s2_0_split_3
I0403 19:34:15.659633 25138 net.cpp:399] inception_5a/pool -> inception_5a/pool
I0403 19:34:15.659701 25138 net.cpp:141] Setting up inception_5a/pool
I0403 19:34:15.659724 25138 net.cpp:148] Top shape: 24 832 7 7 (978432)
I0403 19:34:15.659739 25138 net.cpp:156] Memory required for data: 1304469024
I0403 19:34:15.659752 25138 layer_factory.hpp:77] Creating layer inception_5a/pool_proj
I0403 19:34:15.659772 25138 net.cpp:91] Creating Layer inception_5a/pool_proj
I0403 19:34:15.659790 25138 net.cpp:425] inception_5a/pool_proj <- inception_5a/pool
I0403 19:34:15.659811 25138 net.cpp:399] inception_5a/pool_proj -> inception_5a/pool_proj
I0403 19:34:15.661965 25138 net.cpp:141] Setting up inception_5a/pool_proj
I0403 19:34:15.661993 25138 net.cpp:148] Top shape: 24 128 7 7 (150528)
I0403 19:34:15.662009 25138 net.cpp:156] Memory required for data: 1305071136
I0403 19:34:15.662025 25138 layer_factory.hpp:77] Creating layer inception_5a/relu_pool_proj
I0403 19:34:15.662045 25138 net.cpp:91] Creating Layer inception_5a/relu_pool_proj
I0403 19:34:15.662061 25138 net.cpp:425] inception_5a/relu_pool_proj <- inception_5a/pool_proj
I0403 19:34:15.662078 25138 net.cpp:386] inception_5a/relu_pool_proj -> inception_5a/pool_proj (in-place)
I0403 19:34:15.662364 25138 net.cpp:141] Setting up inception_5a/relu_pool_proj
I0403 19:34:15.662389 25138 net.cpp:148] Top shape: 24 128 7 7 (150528)
I0403 19:34:15.662403 25138 net.cpp:156] Memory required for data: 1305673248
I0403 19:34:15.662416 25138 layer_factory.hpp:77] Creating layer inception_5a/output
I0403 19:34:15.662433 25138 net.cpp:91] Creating Layer inception_5a/output
I0403 19:34:15.662449 25138 net.cpp:425] inception_5a/output <- inception_5a/1x1
I0403 19:34:15.662464 25138 net.cpp:425] inception_5a/output <- inception_5a/3x3
I0403 19:34:15.662480 25138 net.cpp:425] inception_5a/output <- inception_5a/5x5
I0403 19:34:15.662495 25138 net.cpp:425] inception_5a/output <- inception_5a/pool_proj
I0403 19:34:15.662514 25138 net.cpp:399] inception_5a/output -> inception_5a/output
I0403 19:34:15.662566 25138 net.cpp:141] Setting up inception_5a/output
I0403 19:34:15.662590 25138 net.cpp:148] Top shape: 24 832 7 7 (978432)
I0403 19:34:15.662603 25138 net.cpp:156] Memory required for data: 1309586976
I0403 19:34:15.662617 25138 layer_factory.hpp:77] Creating layer inception_5a/output_inception_5a/output_0_split
I0403 19:34:15.662633 25138 net.cpp:91] Creating Layer inception_5a/output_inception_5a/output_0_split
I0403 19:34:15.662648 25138 net.cpp:425] inception_5a/output_inception_5a/output_0_split <- inception_5a/output
I0403 19:34:15.662667 25138 net.cpp:399] inception_5a/output_inception_5a/output_0_split -> inception_5a/output_inception_5a/output_0_split_0
I0403 19:34:15.662688 25138 net.cpp:399] inception_5a/output_inception_5a/output_0_split -> inception_5a/output_inception_5a/output_0_split_1
I0403 19:34:15.662709 25138 net.cpp:399] inception_5a/output_inception_5a/output_0_split -> inception_5a/output_inception_5a/output_0_split_2
I0403 19:34:15.662730 25138 net.cpp:399] inception_5a/output_inception_5a/output_0_split -> inception_5a/output_inception_5a/output_0_split_3
I0403 19:34:15.662840 25138 net.cpp:141] Setting up inception_5a/output_inception_5a/output_0_split
I0403 19:34:15.662866 25138 net.cpp:148] Top shape: 24 832 7 7 (978432)
I0403 19:34:15.662883 25138 net.cpp:148] Top shape: 24 832 7 7 (978432)
I0403 19:34:15.662899 25138 net.cpp:148] Top shape: 24 832 7 7 (978432)
I0403 19:34:15.662912 25138 net.cpp:148] Top shape: 24 832 7 7 (978432)
I0403 19:34:15.662925 25138 net.cpp:156] Memory required for data: 1325241888
I0403 19:34:15.662938 25138 layer_factory.hpp:77] Creating layer inception_5b/1x1
I0403 19:34:15.662960 25138 net.cpp:91] Creating Layer inception_5b/1x1
I0403 19:34:15.662977 25138 net.cpp:425] inception_5b/1x1 <- inception_5a/output_inception_5a/output_0_split_0
I0403 19:34:15.662997 25138 net.cpp:399] inception_5b/1x1 -> inception_5b/1x1
I0403 19:34:15.666577 25138 net.cpp:141] Setting up inception_5b/1x1
I0403 19:34:15.666618 25138 net.cpp:148] Top shape: 24 384 7 7 (451584)
I0403 19:34:15.666633 25138 net.cpp:156] Memory required for data: 1327048224
I0403 19:34:15.666651 25138 layer_factory.hpp:77] Creating layer inception_5b/relu_1x1
I0403 19:34:15.666671 25138 net.cpp:91] Creating Layer inception_5b/relu_1x1
I0403 19:34:15.666687 25138 net.cpp:425] inception_5b/relu_1x1 <- inception_5b/1x1
I0403 19:34:15.666704 25138 net.cpp:386] inception_5b/relu_1x1 -> inception_5b/1x1 (in-place)
I0403 19:34:15.667001 25138 net.cpp:141] Setting up inception_5b/relu_1x1
I0403 19:34:15.667026 25138 net.cpp:148] Top shape: 24 384 7 7 (451584)
I0403 19:34:15.667040 25138 net.cpp:156] Memory required for data: 1328854560
I0403 19:34:15.667054 25138 layer_factory.hpp:77] Creating layer inception_5b/3x3_reduce
I0403 19:34:15.667076 25138 net.cpp:91] Creating Layer inception_5b/3x3_reduce
I0403 19:34:15.667094 25138 net.cpp:425] inception_5b/3x3_reduce <- inception_5a/output_inception_5a/output_0_split_1
I0403 19:34:15.667117 25138 net.cpp:399] inception_5b/3x3_reduce -> inception_5b/3x3_reduce
I0403 19:34:15.669649 25138 net.cpp:141] Setting up inception_5b/3x3_reduce
I0403 19:34:15.669677 25138 net.cpp:148] Top shape: 24 192 7 7 (225792)
I0403 19:34:15.669692 25138 net.cpp:156] Memory required for data: 1329757728
I0403 19:34:15.669709 25138 layer_factory.hpp:77] Creating layer inception_5b/relu_3x3_reduce
I0403 19:34:15.669728 25138 net.cpp:91] Creating Layer inception_5b/relu_3x3_reduce
I0403 19:34:15.669746 25138 net.cpp:425] inception_5b/relu_3x3_reduce <- inception_5b/3x3_reduce
I0403 19:34:15.669764 25138 net.cpp:386] inception_5b/relu_3x3_reduce -> inception_5b/3x3_reduce (in-place)
I0403 19:34:15.669950 25138 net.cpp:141] Setting up inception_5b/relu_3x3_reduce
I0403 19:34:15.669975 25138 net.cpp:148] Top shape: 24 192 7 7 (225792)
I0403 19:34:15.669991 25138 net.cpp:156] Memory required for data: 1330660896
I0403 19:34:15.670004 25138 layer_factory.hpp:77] Creating layer inception_5b/3x3
I0403 19:34:15.670023 25138 net.cpp:91] Creating Layer inception_5b/3x3
I0403 19:34:15.670040 25138 net.cpp:425] inception_5b/3x3 <- inception_5b/3x3_reduce
I0403 19:34:15.670060 25138 net.cpp:399] inception_5b/3x3 -> inception_5b/3x3
I0403 19:34:15.676481 25138 net.cpp:141] Setting up inception_5b/3x3
I0403 19:34:15.676509 25138 net.cpp:148] Top shape: 24 384 7 7 (451584)
I0403 19:34:15.676524 25138 net.cpp:156] Memory required for data: 1332467232
I0403 19:34:15.676542 25138 layer_factory.hpp:77] Creating layer inception_5b/relu_3x3
I0403 19:34:15.676563 25138 net.cpp:91] Creating Layer inception_5b/relu_3x3
I0403 19:34:15.676581 25138 net.cpp:425] inception_5b/relu_3x3 <- inception_5b/3x3
I0403 19:34:15.676599 25138 net.cpp:386] inception_5b/relu_3x3 -> inception_5b/3x3 (in-place)
I0403 19:34:15.676883 25138 net.cpp:141] Setting up inception_5b/relu_3x3
I0403 19:34:15.676909 25138 net.cpp:148] Top shape: 24 384 7 7 (451584)
I0403 19:34:15.676923 25138 net.cpp:156] Memory required for data: 1334273568
I0403 19:34:15.676939 25138 layer_factory.hpp:77] Creating layer inception_5b/5x5_reduce
I0403 19:34:15.676976 25138 net.cpp:91] Creating Layer inception_5b/5x5_reduce
I0403 19:34:15.676995 25138 net.cpp:425] inception_5b/5x5_reduce <- inception_5a/output_inception_5a/output_0_split_2
I0403 19:34:15.677018 25138 net.cpp:399] inception_5b/5x5_reduce -> inception_5b/5x5_reduce
I0403 19:34:15.678237 25138 net.cpp:141] Setting up inception_5b/5x5_reduce
I0403 19:34:15.678264 25138 net.cpp:148] Top shape: 24 48 7 7 (56448)
I0403 19:34:15.678280 25138 net.cpp:156] Memory required for data: 1334499360
I0403 19:34:15.678305 25138 layer_factory.hpp:77] Creating layer inception_5b/relu_5x5_reduce
I0403 19:34:15.678328 25138 net.cpp:91] Creating Layer inception_5b/relu_5x5_reduce
I0403 19:34:15.678344 25138 net.cpp:425] inception_5b/relu_5x5_reduce <- inception_5b/5x5_reduce
I0403 19:34:15.678362 25138 net.cpp:386] inception_5b/relu_5x5_reduce -> inception_5b/5x5_reduce (in-place)
I0403 19:34:15.678725 25138 net.cpp:141] Setting up inception_5b/relu_5x5_reduce
I0403 19:34:15.678751 25138 net.cpp:148] Top shape: 24 48 7 7 (56448)
I0403 19:34:15.678767 25138 net.cpp:156] Memory required for data: 1334725152
I0403 19:34:15.678782 25138 layer_factory.hpp:77] Creating layer inception_5b/5x5
I0403 19:34:15.678802 25138 net.cpp:91] Creating Layer inception_5b/5x5
I0403 19:34:15.678819 25138 net.cpp:425] inception_5b/5x5 <- inception_5b/5x5_reduce
I0403 19:34:15.678838 25138 net.cpp:399] inception_5b/5x5 -> inception_5b/5x5
I0403 19:34:15.680786 25138 net.cpp:141] Setting up inception_5b/5x5
I0403 19:34:15.680814 25138 net.cpp:148] Top shape: 24 128 7 7 (150528)
I0403 19:34:15.680829 25138 net.cpp:156] Memory required for data: 1335327264
I0403 19:34:15.680845 25138 layer_factory.hpp:77] Creating layer inception_5b/relu_5x5
I0403 19:34:15.680865 25138 net.cpp:91] Creating Layer inception_5b/relu_5x5
I0403 19:34:15.680881 25138 net.cpp:425] inception_5b/relu_5x5 <- inception_5b/5x5
I0403 19:34:15.680899 25138 net.cpp:386] inception_5b/relu_5x5 -> inception_5b/5x5 (in-place)
I0403 19:34:15.681090 25138 net.cpp:141] Setting up inception_5b/relu_5x5
I0403 19:34:15.681116 25138 net.cpp:148] Top shape: 24 128 7 7 (150528)
I0403 19:34:15.681131 25138 net.cpp:156] Memory required for data: 1335929376
I0403 19:34:15.681145 25138 layer_factory.hpp:77] Creating layer inception_5b/pool
I0403 19:34:15.681162 25138 net.cpp:91] Creating Layer inception_5b/pool
I0403 19:34:15.681180 25138 net.cpp:425] inception_5b/pool <- inception_5a/output_inception_5a/output_0_split_3
I0403 19:34:15.681200 25138 net.cpp:399] inception_5b/pool -> inception_5b/pool
I0403 19:34:15.681272 25138 net.cpp:141] Setting up inception_5b/pool
I0403 19:34:15.681303 25138 net.cpp:148] Top shape: 24 832 7 7 (978432)
I0403 19:34:15.681318 25138 net.cpp:156] Memory required for data: 1339843104
I0403 19:34:15.681331 25138 layer_factory.hpp:77] Creating layer inception_5b/pool_proj
I0403 19:34:15.681354 25138 net.cpp:91] Creating Layer inception_5b/pool_proj
I0403 19:34:15.681373 25138 net.cpp:425] inception_5b/pool_proj <- inception_5b/pool
I0403 19:34:15.681392 25138 net.cpp:399] inception_5b/pool_proj -> inception_5b/pool_proj
I0403 19:34:15.683658 25138 net.cpp:141] Setting up inception_5b/pool_proj
I0403 19:34:15.683686 25138 net.cpp:148] Top shape: 24 128 7 7 (150528)
I0403 19:34:15.683702 25138 net.cpp:156] Memory required for data: 1340445216
I0403 19:34:15.683720 25138 layer_factory.hpp:77] Creating layer inception_5b/relu_pool_proj
I0403 19:34:15.683742 25138 net.cpp:91] Creating Layer inception_5b/relu_pool_proj
I0403 19:34:15.683759 25138 net.cpp:425] inception_5b/relu_pool_proj <- inception_5b/pool_proj
I0403 19:34:15.683776 25138 net.cpp:386] inception_5b/relu_pool_proj -> inception_5b/pool_proj (in-place)
I0403 19:34:15.684067 25138 net.cpp:141] Setting up inception_5b/relu_pool_proj
I0403 19:34:15.684092 25138 net.cpp:148] Top shape: 24 128 7 7 (150528)
I0403 19:34:15.684106 25138 net.cpp:156] Memory required for data: 1341047328
I0403 19:34:15.684120 25138 layer_factory.hpp:77] Creating layer inception_5b/output
I0403 19:34:15.684140 25138 net.cpp:91] Creating Layer inception_5b/output
I0403 19:34:15.684170 25138 net.cpp:425] inception_5b/output <- inception_5b/1x1
I0403 19:34:15.684188 25138 net.cpp:425] inception_5b/output <- inception_5b/3x3
I0403 19:34:15.684204 25138 net.cpp:425] inception_5b/output <- inception_5b/5x5
I0403 19:34:15.684219 25138 net.cpp:425] inception_5b/output <- inception_5b/pool_proj
I0403 19:34:15.684237 25138 net.cpp:399] inception_5b/output -> inception_5b/output
I0403 19:34:15.684298 25138 net.cpp:141] Setting up inception_5b/output
I0403 19:34:15.684324 25138 net.cpp:148] Top shape: 24 1024 7 7 (1204224)
I0403 19:34:15.684337 25138 net.cpp:156] Memory required for data: 1345864224
I0403 19:34:15.684351 25138 layer_factory.hpp:77] Creating layer pool5/7x7_s1
I0403 19:34:15.684368 25138 net.cpp:91] Creating Layer pool5/7x7_s1
I0403 19:34:15.684384 25138 net.cpp:425] pool5/7x7_s1 <- inception_5b/output
I0403 19:34:15.684406 25138 net.cpp:399] pool5/7x7_s1 -> pool5/7x7_s1
I0403 19:34:15.684620 25138 net.cpp:141] Setting up pool5/7x7_s1
I0403 19:34:15.684646 25138 net.cpp:148] Top shape: 24 1024 1 1 (24576)
I0403 19:34:15.684664 25138 net.cpp:156] Memory required for data: 1345962528
I0403 19:34:15.684679 25138 layer_factory.hpp:77] Creating layer pool5/drop_7x7_s1
I0403 19:34:15.684695 25138 net.cpp:91] Creating Layer pool5/drop_7x7_s1
I0403 19:34:15.684712 25138 net.cpp:425] pool5/drop_7x7_s1 <- pool5/7x7_s1
I0403 19:34:15.684731 25138 net.cpp:386] pool5/drop_7x7_s1 -> pool5/7x7_s1 (in-place)
I0403 19:34:15.684782 25138 net.cpp:141] Setting up pool5/drop_7x7_s1
I0403 19:34:15.684804 25138 net.cpp:148] Top shape: 24 1024 1 1 (24576)
I0403 19:34:15.684818 25138 net.cpp:156] Memory required for data: 1346060832
I0403 19:34:15.684833 25138 layer_factory.hpp:77] Creating layer loss3/classifier_plantvillage
I0403 19:34:15.684854 25138 net.cpp:91] Creating Layer loss3/classifier_plantvillage
I0403 19:34:15.684873 25138 net.cpp:425] loss3/classifier_plantvillage <- pool5/7x7_s1
I0403 19:34:15.684891 25138 net.cpp:399] loss3/classifier_plantvillage -> loss3/classifier_plantvillage
I0403 19:34:15.685302 25138 net.cpp:141] Setting up loss3/classifier_plantvillage
I0403 19:34:15.685328 25138 net.cpp:148] Top shape: 24 38 (912)
I0403 19:34:15.685341 25138 net.cpp:156] Memory required for data: 1346064480
I0403 19:34:15.685359 25138 layer_factory.hpp:77] Creating layer loss3/classifier_plantvillage_loss3/classifier_plantvillage_0_split
I0403 19:34:15.685375 25138 net.cpp:91] Creating Layer loss3/classifier_plantvillage_loss3/classifier_plantvillage_0_split
I0403 19:34:15.685392 25138 net.cpp:425] loss3/classifier_plantvillage_loss3/classifier_plantvillage_0_split <- loss3/classifier_plantvillage
I0403 19:34:15.685413 25138 net.cpp:399] loss3/classifier_plantvillage_loss3/classifier_plantvillage_0_split -> loss3/classifier_plantvillage_loss3/classifier_plantvillage_0_split_0
I0403 19:34:15.685436 25138 net.cpp:399] loss3/classifier_plantvillage_loss3/classifier_plantvillage_0_split -> loss3/classifier_plantvillage_loss3/classifier_plantvillage_0_split_1
I0403 19:34:15.685456 25138 net.cpp:399] loss3/classifier_plantvillage_loss3/classifier_plantvillage_0_split -> loss3/classifier_plantvillage_loss3/classifier_plantvillage_0_split_2
I0403 19:34:15.685477 25138 net.cpp:399] loss3/classifier_plantvillage_loss3/classifier_plantvillage_0_split -> loss3/classifier_plantvillage_loss3/classifier_plantvillage_0_split_3
I0403 19:34:15.685575 25138 net.cpp:141] Setting up loss3/classifier_plantvillage_loss3/classifier_plantvillage_0_split
I0403 19:34:15.685601 25138 net.cpp:148] Top shape: 24 38 (912)
I0403 19:34:15.685617 25138 net.cpp:148] Top shape: 24 38 (912)
I0403 19:34:15.685632 25138 net.cpp:148] Top shape: 24 38 (912)
I0403 19:34:15.685647 25138 net.cpp:148] Top shape: 24 38 (912)
I0403 19:34:15.685660 25138 net.cpp:156] Memory required for data: 1346079072
I0403 19:34:15.685674 25138 layer_factory.hpp:77] Creating layer loss1/loss
I0403 19:34:15.685698 25138 net.cpp:91] Creating Layer loss1/loss
I0403 19:34:15.685715 25138 net.cpp:425] loss1/loss <- loss1/classifier_plantvillage_loss1/classifier_plantvillage_0_split_0
I0403 19:34:15.685745 25138 net.cpp:425] loss1/loss <- label_data_1_split_0
…
