…
I0403 19:31:22.342075 24975 net.cpp:313] The NetState phase (1) differed from the phase (0) specified by a rule in layer data
I0403 19:31:22.344684 24975 net.cpp:49] Initializing net from parameters: 
state {
  phase: TEST
}
layer {
  name: "data"
  type: "Data"
  top: "data"
  top: "label"
  include {
    phase: TEST
  }
  transform_param {
    mirror: false
    crop_size: 224
    mean_file: "/home/mohanty/data/final_dataset/lmdb/grayscale-80-20/mean.binaryproto"
  }
  data_param {
    source: "/home/mohanty/data/final_dataset/lmdb/grayscale-80-20/test_db"
    batch_size: 24
    backend: LMDB
  }
}
layer {
  name: "conv1/7x7_s2"
  type: "Convolution"
  bottom: "data"
  top: "conv1/7x7_s2"
  param {
    lr_mult: 1
    decay_mult: 1
  }
  param {
    lr_mult: 2
    decay_mult: 0
  }
  convolution_param {
    num_output: 64
    pad: 3
    kernel_size: 7
    stride: 2
    weight_filler {
      type: "xavier"
      std: 0.1
    }
    bias_filler {
      type: "constant"
      value: 0.2
    }
  }
}
layer {
  name: "conv1/relu_7x7"
  type: "ReLU"
  bottom: "conv1/7x7_s2"
  top: "conv1/7x7_s2"
}
layer {
  name: "pool1/3x3_s2"
  type: "Pooling"
  bottom: "conv1/7x7_s2"
  top: "pool1/3x3_s2"
  pooling_param {
    pool: MAX
    kernel_size: 3
    stride: 2
  }
}
layer {
  name: "pool1/norm1"
  type: "LRN"
  bottom: "pool1/3x3_s2"
  top: "pool1/norm1"
  lrn_param {
    local_size: 5
    alpha: 0.0001
    beta: 0.75
  }
}
layer {
  name: "conv2/3x3_reduce"
  type: "Convolution"
  bottom: "pool1/norm1"
  top: "conv2/3x3_reduce"
  param {
    lr_mult: 1
    decay_mult: 1
  }
  param {
    lr_mult: 2
    decay_mult: 0
  }
  convolution_param {
    num_output: 64
    kernel_size: 1
    weight_filler {
      type: "xavier"
      std: 0.1
    }
    bias_filler {
      type: "constant"
      value: 0.2
    }
  }
}
layer {
  name: "conv2/relu_3x3_reduce"
  type: "ReLU"
  bottom: "conv2/3x3_reduce"
  top: "conv2/3x3_reduce"
}
layer {
  name: "conv2/3x3"
  type: "Convolution"
  bottom: "conv2/3x3_reduce"
  top: "conv2/3x3"
  param {
    lr_mult: 1
    decay_mult: 1
  }
  param {
    lr_mult: 2
    decay_mult: 0
  }
  convolution_param {
    num_output: 192
    pad: 1
    kernel_size: 3
    weight_filler {
      type: "xavier"
      std: 0.03
    }
    bias_filler {
      type: "constant"
      value: 0.2
    }
  }
}
layer {
  name: "conv2/relu_3x3"
  type: "ReLU"
  bottom: "conv2/3x3"
  top: "conv2/3x3"
}
layer {
  name: "conv2/norm2"
  type: "LRN"
  bottom: "conv2/3x3"
  top: "conv2/norm2"
  lrn_param {
    local_size: 5
    alpha: 0.0001
    beta: 0.75
  }
}
layer {
  name: "pool2/3x3_s2"
  type: "Pooling"
  bottom: "conv2/norm2"
  top: "pool2/3x3_s2"
  pooling_param {
    pool: MAX
    kernel_size: 3
    stride: 2
  }
}
layer {
  name: "inception_3a/1x1"
  type: "Convolution"
  bottom: "pool2/3x3_s2"
  top: "inception_3a/1x1"
  param {
    lr_mult: 1
    decay_mult: 1
  }
  param {
    lr_mult: 2
    decay_mult: 0
  }
  convolution_param {
    num_output: 64
    kernel_size: 1
    weight_filler {
      type: "xavier"
      std: 0.03
    }
    bias_filler {
      type: "constant"
      value: 0.2
    }
  }
}
layer {
  name: "inception_3a/relu_1x1"
  type: "ReLU"
  bottom: "inception_3a/1x1"
  top: "inception_3a/1x1"
}
layer {
  name: "inception_3a/3x3_reduce"
  type: "Convolution"
  bottom: "pool2/3x3_s2"
  top: "inception_3a/3x3_reduce"
  param {
    lr_mult: 1
    decay_mult: 1
  }
  param {
    lr_mult: 2
    decay_mult: 0
  }
  convolution_param {
    num_output: 96
    kernel_size: 1
    weight_filler {
      type: "xavier"
      std: 0.09
    }
    bias_filler {
      type: "constant"
      value: 0.2
    }
  }
}
layer {
  name: "inception_3a/relu_3x3_reduce"
  type: "ReLU"
  bottom: "inception_3a/3x3_reduce"
  top: "inception_3a/3x3_reduce"
}
layer {
  name: "inception_3a/3x3"
  type: "Convolution"
  bottom: "inception_3a/3x3_reduce"
  top: "inception_3a/3x3"
  param {
    lr_mult: 1
    decay_mult: 1
  }
  param {
    lr_mult: 2
    decay_mult: 0
  }
  convolution_param {
    num_output: 128
    pad: 1
    kernel_size: 3
    weight_filler {
      type: "xavier"
      std: 0.03
    }
    bias_filler {
      type: "constant"
      value: 0.2
    }
  }
}
layer {
  name: "inception_3a/relu_3x3"
  type: "ReLU"
  bottom: "inception_3a/3x3"
  top: "inception_3a/3x3"
}
layer {
  name: "inception_3a/5x5_reduce"
  type: "Convolution"
  bottom: "pool2/3x3_s2"
  top: "inception_3a/5x5_reduce"
  param {
    lr_mult: 1
    decay_mult: 1
  }
  param {
    lr_mult: 2
    decay_mult: 0
  }
  convolution_param {
    num_output: 16
    kernel_size: 1
    weight_filler {
      type: "xavier"
      std: 0.2
    }
    bias_filler {
      type: "constant"
      value: 0.2
    }
  }
}
layer {
  name: "inception_3a/relu_5x5_reduce"
  type: "ReLU"
  bottom: "inception_3a/5x5_reduce"
  top: "inception_3a/5x5_reduce"
}
layer {
  name: "inception_3a/5x5"
  type: "Convolution"
  bottom: "inception_3a/5x5_reduce"
  top: "inception_3a/5x5"
  param {
    lr_mult: 1
    decay_mult: 1
  }
  param {
    lr_mult: 2
    decay_mult: 0
  }
  convolution_param {
    num_output: 32
    pad: 2
    kernel_size: 5
    weight_filler {
      type: "xavier"
      std: 0.03
    }
    bias_filler {
      type: "constant"
      value: 0.2
    }
  }
}
layer {
  name: "inception_3a/relu_5x5"
  type: "ReLU"
  bottom: "inception_3a/5x5"
  top: "inception_3a/5x5"
}
layer {
  name: "inception_3a/pool"
  type: "Pooling"
  bottom: "pool2/3x3_s2"
  top: "inception_3a/pool"
  pooling_param {
    pool: MAX
    kernel_size: 3
    stride: 1
    pad: 1
  }
}
layer {
  name: "inception_3a/pool_proj"
  type: "Convolution"
  bottom: "inception_3a/pool"
  top: "inception_3a/pool_proj"
  param {
    lr_mult: 1
    decay_mult: 1
  }
  param {
    lr_mult: 2
    decay_mult: 0
  }
  convolution_param {
    num_output: 32
    kernel_size: 1
    weight_filler {
      type: "xavier"
      std: 0.1
    }
    bias_filler {
      type: "constant"
      value: 0.2
    }
  }
}
layer {
  name: "inception_3a/relu_pool_proj"
  type: "ReLU"
  bottom: "inception_3a/pool_proj"
  top: "inception_3a/pool_proj"
}
layer {
  name: "inception_3a/output"
  type: "Concat"
  bottom: "inception_3a/1x1"
  bottom: "inception_3a/3x3"
  bottom: "inception_3a/5x5"
  bottom: "inception_3a/pool_proj"
  top: "inception_3a/output"
}
layer {
  name: "inception_3b/1x1"
  type: "Convolution"
  bottom: "inception_3a/output"
  top: "inception_3b/1x1"
  param {
    lr_mult: 1
    decay_mult: 1
  }
  param {
    lr_mult: 2
    decay_mult: 0
  }
  convolution_param {
    num_output: 128
    kernel_size: 1
    weight_filler {
      type: "xavier"
      std: 0.03
    }
    bias_filler {
      type: "constant"
      value: 0.2
    }
  }
}
layer {
  name: "inception_3b/relu_1x1"
  type: "ReLU"
  bottom: "inception_3b/1x1"
  top: "inception_3b/1x1"
}
layer {
  name: "inception_3b/3x3_reduce"
  type: "Convolution"
  bottom: "inception_3a/output"
  top: "inception_3b/3x3_reduce"
  param {
    lr_mult: 1
    decay_mult: 1
  }
  param {
    lr_mult: 2
    decay_mult: 0
  }
  convolution_param {
    num_output: 128
    kernel_size: 1
    weight_filler {
      type: "xavier"
      std: 0.09
    }
    bias_filler {
      type: "constant"
      value: 0.2
    }
  }
}
layer {
  name: "inception_3b/relu_3x3_reduce"
  type: "ReLU"
  bottom: "inception_3b/3x3_reduce"
  top: "inception_3b/3x3_reduce"
}
layer {
  name: "inception_3b/3x3"
  type: "Convolution"
  bottom: "inception_3b/3x3_reduce"
  top: "inception_3b/3x3"
  param {
    lr_mult: 1
    decay_mult: 1
  }
  param {
    lr_mult: 2
    decay_mult: 0
  }
  convolution_param {
    num_output: 192
    pad: 1
    kernel_size: 3
    weight_filler {
      type: "xavier"
      std: 0.03
    }
    bias_filler {
      type: "constant"
      value: 0.2
    }
  }
}
layer {
  name: "inception_3b/relu_3x3"
  type: "ReLU"
  bottom: "inception_3b/3x3"
  top: "inception_3b/3x3"
}
layer {
  name: "inception_3b/5x5_reduce"
  type: "Convolution"
  bottom: "inception_3a/output"
  top: "inception_3b/5x5_reduce"
  param {
    lr_mult: 1
    decay_mult: 1
  }
  param {
    lr_mult: 2
    decay_mult: 0
  }
  convolution_param {
    num_output: 32
    kernel_size: 1
    weight_filler {
      type: "xavier"
      std: 0.2
    }
    bias_filler {
      type: "constant"
      value: 0.2
    }
  }
}
layer {
  name: "inception_3b/relu_5x5_reduce"
  type: "ReLU"
  bottom: "inception_3b/5x5_reduce"
  top: "inception_3b/5x5_reduce"
}
layer {
  name: "inception_3b/5x5"
  type: "Convolution"
  bottom: "inception_3b/5x5_reduce"
  top: "inception_3b/5x5"
  param {
    lr_mult: 1
    decay_mult: 1
  }
  param {
    lr_mult: 2
    decay_mult: 0
  }
  convolution_param {
    num_output: 96
    pad: 2
    kernel_size: 5
    weight_filler {
      type: "xavier"
      std: 0.03
    }
    bias_filler {
      type: "constant"
      value: 0.2
    }
  }
}
layer {
  name: "inception_3b/relu_5x5"
  type: "ReLU"
  bottom: "inception_3b/5x5"
  top: "inception_3b/5x5"
}
layer {
  name: "inception_3b/pool"
  type: "Pooling"
  bottom: "inception_3a/output"
  top: "inception_3b/pool"
  pooling_param {
    pool: MAX
    kernel_size: 3
    stride: 1
    pad: 1
  }
}
layer {
  name: "inception_3b/pool_proj"
  type: "Convolution"
  bottom: "inception_3b/pool"
  top: "inception_3b/pool_proj"
  param {
    lr_mult: 1
    decay_mult: 1
  }
  param {
    lr_mult: 2
    decay_mult: 0
  }
  convolution_param {
    num_output: 64
    kernel_size: 1
    weight_filler {
      type: "xavier"
      std: 0.1
    }
    bias_filler {
      type: "constant"
      value: 0.2
    }
  }
}
layer {
  name: "inception_3b/relu_pool_proj"
  type: "ReLU"
  bottom: "inception_3b/pool_proj"
  top: "inception_3b/pool_proj"
}
layer {
  name: "inception_3b/output"
  type: "Concat"
  bottom: "inception_3b/1x1"
  bottom: "inception_3b/3x3"
  bottom: "inception_3b/5x5"
  bottom: "inception_3b/pool_proj"
  top: "inception_3b/output"
}
layer {
  name: "pool3/3x3_s2"
  type: "Pooling"
  bottom: "inception_3b/output"
  top: "pool3/3x3_s2"
  pooling_param {
    pool: MAX
    kernel_size: 3
    stride: 2
  }
}
layer {
  name: "inception_4a/1x1"
  type: "Convolution"
  bottom: "pool3/3x3_s2"
  top: "inception_4a/1x1"
  param {
    lr_mult: 1
    decay_mult: 1
  }
  param {
    lr_mult: 2
    decay_mult: 0
  }
  convolution_param {
    num_output: 192
    kernel_size: 1
    weight_filler {
      type: "xavier"
      std: 0.03
    }
    bias_filler {
      type: "constant"
      value: 0.2
    }
  }
}
layer {
  name: "inception_4a/relu_1x1"
  type: "ReLU"
  bottom: "inception_4a/1x1"
  top: "inception_4a/1x1"
}
layer {
  name: "inception_4a/3x3_reduce"
  type: "Convolution"
  bottom: "pool3/3x3_s2"
  top: "inception_4a/3x3_reduce"
  param {
    lr_mult: 1
    decay_mult: 1
  }
  param {
    lr_mult: 2
    decay_mult: 0
  }
  convolution_param {
    num_output: 96
    kernel_size: 1
    weight_filler {
      type: "xavier"
      std: 0.09
    }
    bias_filler {
      type: "constant"
      value: 0.2
    }
  }
}
layer {
  name: "inception_4a/relu_3x3_reduce"
  type: "ReLU"
  bottom: "inception_4a/3x3_reduce"
  top: "inception_4a/3x3_reduce"
}
layer {
  name: "inception_4a/3x3"
  type: "Convolution"
  bottom: "inception_4a/3x3_reduce"
  top: "inception_4a/3x3"
  param {
    lr_mult: 1
    decay_mult: 1
  }
  param {
    lr_mult: 2
    decay_mult: 0
  }
  convolution_param {
    num_output: 208
    pad: 1
    kernel_size: 3
    weight_filler {
      type: "xavier"
      std: 0.03
    }
    bias_filler {
      type: "constant"
      value: 0.2
    }
  }
}
layer {
  name: "inception_4a/relu_3x3"
  type: "ReLU"
  bottom: "inception_4a/3x3"
  top: "inception_4a/3x3"
}
layer {
  name: "inception_4a/5x5_reduce"
  type: "Convolution"
  bottom: "pool3/3x3_s2"
  top: "inception_4a/5x5_reduce"
  param {
    lr_mult: 1
    decay_mult: 1
  }
  param {
    lr_mult: 2
    decay_mult: 0
  }
  convolution_param {
    num_output: 16
    kernel_size: 1
    weight_filler {
      type: "xavier"
      std: 0.2
    }
    bias_filler {
      type: "constant"
      value: 0.2
    }
  }
}
layer {
  name: "inception_4a/relu_5x5_reduce"
  type: "ReLU"
  bottom: "inception_4a/5x5_reduce"
  top: "inception_4a/5x5_reduce"
}
layer {
  name: "inception_4a/5x5"
  type: "Convolution"
  bottom: "inception_4a/5x5_reduce"
  top: "inception_4a/5x5"
  param {
    lr_mult: 1
    decay_mult: 1
  }
  param {
    lr_mult: 2
    decay_mult: 0
  }
  convolution_param {
    num_output: 48
    pad: 2
    kernel_size: 5
    weight_filler {
      type: "xavier"
      std: 0.03
    }
    bias_filler {
      type: "constant"
      value: 0.2
    }
  }
}
layer {
  name: "inception_4a/relu_5x5"
  type: "ReLU"
  bottom: "inception_4a/5x5"
  top: "inception_4a/5x5"
}
layer {
  name: "inception_4a/pool"
  type: "Pooling"
  bottom: "pool3/3x3_s2"
  top: "inception_4a/pool"
  pooling_param {
    pool: MAX
    kernel_size: 3
    stride: 1
    pad: 1
  }
}
layer {
  name: "inception_4a/pool_proj"
  type: "Convolution"
  bottom: "inception_4a/pool"
  top: "inception_4a/pool_proj"
  param {
    lr_mult: 1
    decay_mult: 1
  }
  param {
    lr_mult: 2
    decay_mult: 0
  }
  convolution_param {
    num_output: 64
    kernel_size: 1
    weight_filler {
      type: "xavier"
      std: 0.1
    }
    bias_filler {
      type: "constant"
      value: 0.2
    }
  }
}
layer {
  name: "inception_4a/relu_pool_proj"
  type: "ReLU"
  bottom: "inception_4a/pool_proj"
  top: "inception_4a/pool_proj"
}
layer {
  name: "inception_4a/output"
  type: "Concat"
  bottom: "inception_4a/1x1"
  bottom: "inception_4a/3x3"
  bottom: "inception_4a/5x5"
  bottom: "inception_4a/pool_proj"
  top: "inception_4a/output"
}
layer {
  name: "loss1/ave_pool"
  type: "Pooling"
  bottom: "inception_4a/output"
  top: "loss1/ave_pool"
  pooling_param {
    pool: AVE
    kernel_size: 5
    stride: 3
  }
}
layer {
  name: "loss1/conv"
  type: "Convolution"
  bottom: "loss1/ave_pool"
  top: "loss1/conv"
  param {
    lr_mult: 1
    decay_mult: 1
  }
  param {
    lr_mult: 2
    decay_mult: 0
  }
  convolution_param {
    num_output: 128
    kernel_size: 1
    weight_filler {
      type: "xavier"
      std: 0.08
    }
    bias_filler {
      type: "constant"
      value: 0.2
    }
  }
}
layer {
  name: "loss1/relu_conv"
  type: "ReLU"
  bottom: "loss1/conv"
  top: "loss1/conv"
}
layer {
  name: "loss1/fc"
  type: "InnerProduct"
  bottom: "loss1/conv"
  top: "loss1/fc"
  param {
    lr_mult: 1
    decay_mult: 1
  }
  param {
    lr_mult: 2
    decay_mult: 0
  }
  inner_product_param {
    num_output: 1024
    weight_filler {
      type: "xavier"
      std: 0.02
    }
    bias_filler {
      type: "constant"
      value: 0.2
    }
  }
}
layer {
  name: "loss1/relu_fc"
  type: "ReLU"
  bottom: "loss1/fc"
  top: "loss1/fc"
}
layer {
  name: "loss1/drop_fc"
  type: "Dropout"
  bottom: "loss1/fc"
  top: "loss1/fc"
  dropout_param {
    dropout_ratio: 0.7
  }
}
layer {
  name: "loss1/classifier_plantvillage"
  type: "InnerProduct"
  bottom: "loss1/fc"
  top: "loss1/classifier_plantvillage"
  param {
    lr_mult: 1
    decay_mult: 1
  }
  param {
    lr_mult: 2
    decay_mult: 0
  }
  inner_product_param {
    num_output: 38
    weight_filler {
      type: "xavier"
      std: 0.0009765625
    }
    bias_filler {
      type: "constant"
      value: 0
    }
  }
}
layer {
  name: "inception_4b/1x1"
  type: "Convolution"
  bottom: "inception_4a/output"
  top: "inception_4b/1x1"
  param {
    lr_mult: 1
    decay_mult: 1
  }
  param {
    lr_mult: 2
    decay_mult: 0
  }
  convolution_param {
    num_output: 160
    kernel_size: 1
    weight_filler {
      type: "xavier"
      std: 0.03
    }
    bias_filler {
      type: "constant"
      value: 0.2
    }
  }
}
layer {
  name: "inception_4b/relu_1x1"
  type: "ReLU"
  bottom: "inception_4b/1x1"
  top: "inception_4b/1x1"
}
layer {
  name: "inception_4b/3x3_reduce"
  type: "Convolution"
  bottom: "inception_4a/output"
  top: "inception_4b/3x3_reduce"
  param {
    lr_mult: 1
    decay_mult: 1
  }
  param {
    lr_mult: 2
    decay_mult: 0
  }
  convolution_param {
    num_output: 112
    kernel_size: 1
    weight_filler {
      type: "xavier"
      std: 0.09
    }
    bias_filler {
      type: "constant"
      value: 0.2
    }
  }
}
layer {
  name: "inception_4b/relu_3x3_reduce"
  type: "ReLU"
  bottom: "inception_4b/3x3_reduce"
  top: "inception_4b/3x3_reduce"
}
layer {
  name: "inception_4b/3x3"
  type: "Convolution"
  bottom: "inception_4b/3x3_reduce"
  top: "inception_4b/3x3"
  param {
    lr_mult: 1
    decay_mult: 1
  }
  param {
    lr_mult: 2
    decay_mult: 0
  }
  convolution_param {
    num_output: 224
    pad: 1
    kernel_size: 3
    weight_filler {
      type: "xavier"
      std: 0.03
    }
    bias_filler {
      type: "constant"
      value: 0.2
    }
  }
}
layer {
  name: "inception_4b/relu_3x3"
  type: "ReLU"
  bottom: "inception_4b/3x3"
  top: "inception_4b/3x3"
}
layer {
  name: "inception_4b/5x5_reduce"
  type: "Convolution"
  bottom: "inception_4a/output"
  top: "inception_4b/5x5_reduce"
  param {
    lr_mult: 1
    decay_mult: 1
  }
  param {
    lr_mult: 2
    decay_mult: 0
  }
  convolution_param {
    num_output: 24
    kernel_size: 1
    weight_filler {
      type: "xavier"
      std: 0.2
    }
    bias_filler {
      type: "constant"
      value: 0.2
    }
  }
}
layer {
  name: "inception_4b/relu_5x5_reduce"
  type: "ReLU"
  bottom: "inception_4b/5x5_reduce"
  top: "inception_4b/5x5_reduce"
}
layer {
  name: "inception_4b/5x5"
  type: "Convolution"
  bottom: "inception_4b/5x5_reduce"
  top: "inception_4b/5x5"
  param {
    lr_mult: 1
    decay_mult: 1
  }
  param {
    lr_mult: 2
    decay_mult: 0
  }
  convolution_param {
    num_output: 64
    pad: 2
    kernel_size: 5
    weight_filler {
      type: "xavier"
      std: 0.03
    }
    bias_filler {
      type: "constant"
      value: 0.2
    }
  }
}
layer {
  name: "inception_4b/relu_5x5"
  type: "ReLU"
  bottom: "inception_4b/5x5"
  top: "inception_4b/5x5"
}
layer {
  name: "inception_4b/pool"
  type: "Pooling"
  bottom: "inception_4a/output"
  top: "inception_4b/pool"
  pooling_param {
    pool: MAX
    kernel_size: 3
    stride: 1
    pad: 1
  }
}
layer {
  name: "inception_4b/pool_proj"
  type: "Convolution"
  bottom: "inception_4b/pool"
  top: "inception_4b/pool_proj"
  param {
    lr_mult: 1
    decay_mult: 1
  }
  param {
    lr_mult: 2
    decay_mult: 0
  }
  convolution_param {
    num_output: 64
    kernel_size: 1
    weight_filler {
      type: "xavier"
      std: 0.1
    }
    bias_filler {
      type: "constant"
      value: 0.2
    }
  }
}
layer {
  name: "inception_4b/relu_pool_proj"
  type: "ReLU"
  bottom: "inception_4b/pool_proj"
  top: "inception_4b/pool_proj"
}
layer {
  name: "inception_4b/output"
  type: "Concat"
  bottom: "inception_4b/1x1"
  bottom: "inception_4b/3x3"
  bottom: "inception_4b/5x5"
  bottom: "inception_4b/pool_proj"
  top: "inception_4b/output"
}
layer {
  name: "inception_4c/1x1"
  type: "Convolution"
  bottom: "inception_4b/output"
  top: "inception_4c/1x1"
  param {
    lr_mult: 1
    decay_mult: 1
  }
  param {
    lr_mult: 2
    decay_mult: 0
  }
  convolution_param {
    num_output: 128
    kernel_size: 1
    weight_filler {
      type: "xavier"
      std: 0.03
    }
    bias_filler {
      type: "constant"
      value: 0.2
    }
  }
}
layer {
  name: "inception_4c/relu_1x1"
  type: "ReLU"
  bottom: "inception_4c/1x1"
  top: "inception_4c/1x1"
}
layer {
  name: "inception_4c/3x3_reduce"
  type: "Convolution"
  bottom: "inception_4b/output"
  top: "inception_4c/3x3_reduce"
  param {
    lr_mult: 1
    decay_mult: 1
  }
  param {
    lr_mult: 2
    decay_mult: 0
  }
  convolution_param {
    num_output: 128
    kernel_size: 1
    weight_filler {
      type: "xavier"
      std: 0.09
    }
    bias_filler {
      type: "constant"
      value: 0.2
    }
  }
}
layer {
  name: "inception_4c/relu_3x3_reduce"
  type: "ReLU"
  bottom: "inception_4c/3x3_reduce"
  top: "inception_4c/3x3_reduce"
}
layer {
  name: "inception_4c/3x3"
  type: "Convolution"
  bottom: "inception_4c/3x3_reduce"
  top: "inception_4c/3x3"
  param {
    lr_mult: 1
    decay_mult: 1
  }
  param {
    lr_mult: 2
    decay_mult: 0
  }
  convolution_param {
    num_output: 256
    pad: 1
    kernel_size: 3
    weight_filler {
      type: "xavier"
      std: 0.03
    }
    bias_filler {
      type: "constant"
      value: 0.2
    }
  }
}
layer {
  name: "inception_4c/relu_3x3"
  type: "ReLU"
  bottom: "inception_4c/3x3"
  top: "inception_4c/3x3"
}
layer {
  name: "inception_4c/5x5_reduce"
  type: "Convolution"
  bottom: "inception_4b/output"
  top: "inception_4c/5x5_reduce"
  param {
    lr_mult: 1
    decay_mult: 1
  }
  param {
    lr_mult: 2
    decay_mult: 0
  }
  convolution_param {
    num_output: 24
    kernel_size: 1
    weight_filler {
      type: "xavier"
      std: 0.2
    }
    bias_filler {
      type: "constant"
      value: 0.2
    }
  }
}
layer {
  name: "inception_4c/relu_5x5_reduce"
  type: "ReLU"
  bottom: "inception_4c/5x5_reduce"
  top: "inception_4c/5x5_reduce"
}
layer {
  name: "inception_4c/5x5"
  type: "Convolution"
  bottom: "inception_4c/5x5_reduce"
  top: "inception_4c/5x5"
  param {
    lr_mult: 1
    decay_mult: 1
  }
  param {
    lr_mult: 2
    decay_mult: 0
  }
  convolution_param {
    num_output: 64
    pad: 2
    kernel_size: 5
    weight_filler {
      type: "xavier"
      std: 0.03
    }
    bias_filler {
      type: "constant"
      value: 0.2
    }
  }
}
layer {
  name: "inception_4c/relu_5x5"
  type: "ReLU"
  bottom: "inception_4c/5x5"
  top: "inception_4c/5x5"
}
layer {
  name: "inception_4c/pool"
  type: "Pooling"
  bottom: "inception_4b/output"
  top: "inception_4c/pool"
  pooling_param {
    pool: MAX
    kernel_size: 3
    stride: 1
    pad: 1
  }
}
layer {
  name: "inception_4c/pool_proj"
  type: "Convolution"
  bottom: "inception_4c/pool"
  top: "inception_4c/pool_proj"
  param {
    lr_mult: 1
    decay_mult: 1
  }
  param {
    lr_mult: 2
    decay_mult: 0
  }
  convolution_param {
    num_output: 64
    kernel_size: 1
    weight_filler {
      type: "xavier"
      std: 0.1
    }
    bias_filler {
      type: "constant"
      value: 0.2
    }
  }
}
layer {
  name: "inception_4c/relu_pool_proj"
  type: "ReLU"
  bottom: "inception_4c/pool_proj"
  top: "inception_4c/pool_proj"
}
layer {
  name: "inception_4c/output"
  type: "Concat"
  bottom: "inception_4c/1x1"
  bottom: "inception_4c/3x3"
  bottom: "inception_4c/5x5"
  bottom: "inception_4c/pool_proj"
  top: "inception_4c/output"
}
layer {
  name: "inception_4d/1x1"
  type: "Convolution"
  bottom: "inception_4c/output"
  top: "inception_4d/1x1"
  param {
    lr_mult: 1
    decay_mult: 1
  }
  param {
    lr_mult: 2
    decay_mult: 0
  }
  convolution_param {
    num_output: 112
    kernel_size: 1
    weight_filler {
      type: "xavier"
      std: 0.03
    }
    bias_filler {
      type: "constant"
      value: 0.2
    }
  }
}
layer {
  name: "inception_4d/relu_1x1"
  type: "ReLU"
  bottom: "inception_4d/1x1"
  top: "inception_4d/1x1"
}
layer {
  name: "inception_4d/3x3_reduce"
  type: "Convolution"
  bottom: "inception_4c/output"
  top: "inception_4d/3x3_reduce"
  param {
    lr_mult: 1
    decay_mult: 1
  }
  param {
    lr_mult: 2
    decay_mult: 0
  }
  convolution_param {
    num_output: 144
    kernel_size: 1
    weight_filler {
      type: "xavier"
      std: 0.09
    }
    bias_filler {
      type: "constant"
      value: 0.2
    }
  }
}
layer {
  name: "inception_4d/relu_3x3_reduce"
  type: "ReLU"
  bottom: "inception_4d/3x3_reduce"
  top: "inception_4d/3x3_reduce"
}
layer {
  name: "inception_4d/3x3"
  type: "Convolution"
  bottom: "inception_4d/3x3_reduce"
  top: "inception_4d/3x3"
  param {
    lr_mult: 1
    decay_mult: 1
  }
  param {
    lr_mult: 2
    decay_mult: 0
  }
  convolution_param {
    num_output: 288
    pad: 1
    kernel_size: 3
    weight_filler {
      type: "xavier"
      std: 0.03
    }
    bias_filler {
      type: "constant"
      value: 0.2
    }
  }
}
layer {
  name: "inception_4d/relu_3x3"
  type: "ReLU"
  bottom: "inception_4d/3x3"
  top: "inception_4d/3x3"
}
layer {
  name: "inception_4d/5x5_reduce"
  type: "Convolution"
  bottom: "inception_4c/output"
  top: "inception_4d/5x5_reduce"
  param {
    lr_mult: 1
    decay_mult: 1
  }
  param {
    lr_mult: 2
    decay_mult: 0
  }
  convolution_param {
    num_output: 32
    kernel_size: 1
    weight_filler {
      type: "xavier"
      std: 0.2
    }
    bias_filler {
      type: "constant"
      value: 0.2
    }
  }
}
layer {
  name: "inception_4d/relu_5x5_reduce"
  type: "ReLU"
  bottom: "inception_4d/5x5_reduce"
  top: "inception_4d/5x5_reduce"
}
layer {
  name: "inception_4d/5x5"
  type: "Convolution"
  bottom: "inception_4d/5x5_reduce"
  top: "inception_4d/5x5"
  param {
    lr_mult: 1
    decay_mult: 1
  }
  param {
    lr_mult: 2
    decay_mult: 0
  }
  convolution_param {
    num_output: 64
    pad: 2
    kernel_size: 5
    weight_filler {
      type: "xavier"
      std: 0.03
    }
    bias_filler {
      type: "constant"
      value: 0.2
    }
  }
}
layer {
  name: "inception_4d/relu_5x5"
  type: "ReLU"
  bottom: "inception_4d/5x5"
  top: "inception_4d/5x5"
}
layer {
  name: "inception_4d/pool"
  type: "Pooling"
  bottom: "inception_4c/output"
  top: "inception_4d/pool"
  pooling_param {
    pool: MAX
    kernel_size: 3
    stride: 1
    pad: 1
  }
}
layer {
  name: "inception_4d/pool_proj"
  type: "Convolution"
  bottom: "inception_4d/pool"
  top: "inception_4d/pool_proj"
  param {
    lr_mult: 1
    decay_mult: 1
  }
  param {
    lr_mult: 2
    decay_mult: 0
  }
  convolution_param {
    num_output: 64
    kernel_size: 1
    weight_filler {
      type: "xavier"
      std: 0.1
    }
    bias_filler {
      type: "constant"
      value: 0.2
    }
  }
}
layer {
  name: "inception_4d/relu_pool_proj"
  type: "ReLU"
  bottom: "inception_4d/pool_proj"
  top: "inception_4d/pool_proj"
}
layer {
  name: "inception_4d/output"
  type: "Concat"
  bottom: "inception_4d/1x1"
  bottom: "inception_4d/3x3"
  bottom: "inception_4d/5x5"
  bottom: "inception_4d/pool_proj"
  top: "inception_4d/output"
}
layer {
  name: "loss2/ave_pool"
  type: "Pooling"
  bottom: "inception_4d/output"
  top: "loss2/ave_pool"
  pooling_param {
    pool: AVE
    kernel_size: 5
    stride: 3
  }
}
layer {
  name: "loss2/conv"
  type: "Convolution"
  bottom: "loss2/ave_pool"
  top: "loss2/conv"
  param {
    lr_mult: 1
    decay_mult: 1
  }
  param {
    lr_mult: 2
    decay_mult: 0
  }
  convolution_param {
    num_output: 128
    kernel_size: 1
    weight_filler {
      type: "xavier"
      std: 0.08
    }
    bias_filler {
      type: "constant"
      value: 0.2
    }
  }
}
layer {
  name: "loss2/relu_conv"
  type: "ReLU"
  bottom: "loss2/conv"
  top: "loss2/conv"
}
layer {
  name: "loss2/fc"
  type: "InnerProduct"
  bottom: "loss2/conv"
  top: "loss2/fc"
  param {
    lr_mult: 1
    decay_mult: 1
  }
  param {
    lr_mult: 2
    decay_mult: 0
  }
  inner_product_param {
    num_output: 1024
    weight_filler {
      type: "xavier"
      std: 0.02
    }
    bias_filler {
      type: "constant"
      value: 0.2
    }
  }
}
layer {
  name: "loss2/relu_fc"
  type: "ReLU"
  bottom: "loss2/fc"
  top: "loss2/fc"
}
layer {
  name: "loss2/drop_fc"
  type: "Dropout"
  bottom: "loss2/fc"
  top: "loss2/fc"
  dropout_param {
    dropout_ratio: 0.7
  }
}
layer {
  name: "loss2/classifier_plantvillage"
  type: "InnerProduct"
  bottom: "loss2/fc"
  top: "loss2/classifier_plantvillage"
  param {
    lr_mult: 1
    decay_mult: 1
  }
  param {
    lr_mult: 2
    decay_mult: 0
  }
  inner_product_param {
    num_output: 38
    weight_filler {
      type: "xavier"
      std: 0.0009765625
    }
    bias_filler {
      type: "constant"
      value: 0
    }
  }
}
layer {
  name: "inception_4e/1x1"
  type: "Convolution"
  bottom: "inception_4d/output"
  top: "inception_4e/1x1"
  param {
    lr_mult: 1
    decay_mult: 1
  }
  param {
    lr_mult: 2
    decay_mult: 0
  }
  convolution_param {
    num_output: 256
    kernel_size: 1
    weight_filler {
      type: "xavier"
      std: 0.03
    }
    bias_filler {
      type: "constant"
      value: 0.2
    }
  }
}
layer {
  name: "inception_4e/relu_1x1"
  type: "ReLU"
  bottom: "inception_4e/1x1"
  top: "inception_4e/1x1"
}
layer {
  name: "inception_4e/3x3_reduce"
  type: "Convolution"
  bottom: "inception_4d/output"
  top: "inception_4e/3x3_reduce"
  param {
    lr_mult: 1
    decay_mult: 1
  }
  param {
    lr_mult: 2
    decay_mult: 0
  }
  convolution_param {
    num_output: 160
    kernel_size: 1
    weight_filler {
      type: "xavier"
      std: 0.09
    }
    bias_filler {
      type: "constant"
      value: 0.2
    }
  }
}
layer {
  name: "inception_4e/relu_3x3_reduce"
  type: "ReLU"
  bottom: "inception_4e/3x3_reduce"
  top: "inception_4e/3x3_reduce"
}
layer {
  name: "inception_4e/3x3"
  type: "Convolution"
  bottom: "inception_4e/3x3_reduce"
  top: "inception_4e/3x3"
  param {
    lr_mult: 1
    decay_mult: 1
  }
  param {
    lr_mult: 2
    decay_mult: 0
  }
  convolution_param {
    num_output: 320
    pad: 1
    kernel_size: 3
    weight_filler {
      type: "xavier"
      std: 0.03
    }
    bias_filler {
      type: "constant"
      value: 0.2
    }
  }
}
layer {
  name: "inception_4e/relu_3x3"
  type: "ReLU"
  bottom: "inception_4e/3x3"
  top: "inception_4e/3x3"
}
layer {
  name: "inception_4e/5x5_reduce"
  type: "Convolution"
  bottom: "inception_4d/output"
  top: "inception_4e/5x5_reduce"
  param {
    lr_mult: 1
    decay_mult: 1
  }
  param {
    lr_mult: 2
    decay_mult: 0
  }
  convolution_param {
    num_output: 32
    kernel_size: 1
    weight_filler {
      type: "xavier"
      std: 0.2
    }
    bias_filler {
      type: "constant"
      value: 0.2
    }
  }
}
layer {
  name: "inception_4e/relu_5x5_reduce"
  type: "ReLU"
  bottom: "inception_4e/5x5_reduce"
  top: "inception_4e/5x5_reduce"
}
layer {
  name: "inception_4e/5x5"
  type: "Convolution"
  bottom: "inception_4e/5x5_reduce"
  top: "inception_4e/
I0403 19:31:22.346611 24975 layer_factory.hpp:77] Creating layer data
I0403 19:31:22.347383 24975 net.cpp:91] Creating Layer data
I0403 19:31:22.347424 24975 net.cpp:399] data -> data
I0403 19:31:22.347501 24975 net.cpp:399] data -> label
I0403 19:31:22.347553 24975 data_transformer.cpp:25] Loading mean file from: /home/mohanty/data/final_dataset/lmdb/grayscale-80-20/mean.binaryproto
I0403 19:31:22.348832 24977 db_lmdb.cpp:38] Opened lmdb /home/mohanty/data/final_dataset/lmdb/grayscale-80-20/test_db
I0403 19:31:22.363989 24975 data_layer.cpp:41] output data size: 24,3,224,224
I0403 19:31:22.395967 24975 net.cpp:141] Setting up data
I0403 19:31:22.396088 24975 net.cpp:148] Top shape: 24 3 224 224 (3612672)
I0403 19:31:22.396118 24975 net.cpp:148] Top shape: 24 (24)
I0403 19:31:22.396138 24975 net.cpp:156] Memory required for data: 14450784
I0403 19:31:22.396181 24975 layer_factory.hpp:77] Creating layer label_data_1_split
I0403 19:31:22.396219 24975 net.cpp:91] Creating Layer label_data_1_split
I0403 19:31:22.396245 24975 net.cpp:425] label_data_1_split <- label
I0403 19:31:22.396297 24975 net.cpp:399] label_data_1_split -> label_data_1_split_0
I0403 19:31:22.396340 24975 net.cpp:399] label_data_1_split -> label_data_1_split_1
I0403 19:31:22.396368 24975 net.cpp:399] label_data_1_split -> label_data_1_split_2
I0403 19:31:22.396394 24975 net.cpp:399] label_data_1_split -> label_data_1_split_3
I0403 19:31:22.396420 24975 net.cpp:399] label_data_1_split -> label_data_1_split_4
I0403 19:31:22.396447 24975 net.cpp:399] label_data_1_split -> label_data_1_split_5
I0403 19:31:22.396471 24975 net.cpp:399] label_data_1_split -> label_data_1_split_6
I0403 19:31:22.396497 24975 net.cpp:399] label_data_1_split -> label_data_1_split_7
I0403 19:31:22.396522 24975 net.cpp:399] label_data_1_split -> label_data_1_split_8
I0403 19:31:22.396548 24975 net.cpp:399] label_data_1_split -> label_data_1_split_9
I0403 19:31:22.396688 24975 net.cpp:141] Setting up label_data_1_split
I0403 19:31:22.396720 24975 net.cpp:148] Top shape: 24 (24)
I0403 19:31:22.396742 24975 net.cpp:148] Top shape: 24 (24)
I0403 19:31:22.396761 24975 net.cpp:148] Top shape: 24 (24)
I0403 19:31:22.396781 24975 net.cpp:148] Top shape: 24 (24)
I0403 19:31:22.396800 24975 net.cpp:148] Top shape: 24 (24)
I0403 19:31:22.396818 24975 net.cpp:148] Top shape: 24 (24)
I0403 19:31:22.396838 24975 net.cpp:148] Top shape: 24 (24)
I0403 19:31:22.396858 24975 net.cpp:148] Top shape: 24 (24)
I0403 19:31:22.396880 24975 net.cpp:148] Top shape: 24 (24)
I0403 19:31:22.396900 24975 net.cpp:148] Top shape: 24 (24)
I0403 19:31:22.396960 24975 net.cpp:156] Memory required for data: 14451744
I0403 19:31:22.396982 24975 layer_factory.hpp:77] Creating layer conv1/7x7_s2
I0403 19:31:22.397029 24975 net.cpp:91] Creating Layer conv1/7x7_s2
I0403 19:31:22.397054 24975 net.cpp:425] conv1/7x7_s2 <- data
I0403 19:31:22.397079 24975 net.cpp:399] conv1/7x7_s2 -> conv1/7x7_s2
I0403 19:31:22.568215 24975 net.cpp:141] Setting up conv1/7x7_s2
I0403 19:31:22.568315 24975 net.cpp:148] Top shape: 24 64 112 112 (19267584)
I0403 19:31:22.568338 24975 net.cpp:156] Memory required for data: 91522080
I0403 19:31:22.568382 24975 layer_factory.hpp:77] Creating layer conv1/relu_7x7
I0403 19:31:22.568423 24975 net.cpp:91] Creating Layer conv1/relu_7x7
I0403 19:31:22.568446 24975 net.cpp:425] conv1/relu_7x7 <- conv1/7x7_s2
I0403 19:31:22.568470 24975 net.cpp:386] conv1/relu_7x7 -> conv1/7x7_s2 (in-place)
I0403 19:31:22.568794 24975 net.cpp:141] Setting up conv1/relu_7x7
I0403 19:31:22.568830 24975 net.cpp:148] Top shape: 24 64 112 112 (19267584)
I0403 19:31:22.568851 24975 net.cpp:156] Memory required for data: 168592416
I0403 19:31:22.568871 24975 layer_factory.hpp:77] Creating layer pool1/3x3_s2
I0403 19:31:22.568908 24975 net.cpp:91] Creating Layer pool1/3x3_s2
I0403 19:31:22.568933 24975 net.cpp:425] pool1/3x3_s2 <- conv1/7x7_s2
I0403 19:31:22.568955 24975 net.cpp:399] pool1/3x3_s2 -> pool1/3x3_s2
I0403 19:31:22.569056 24975 net.cpp:141] Setting up pool1/3x3_s2
I0403 19:31:22.569089 24975 net.cpp:148] Top shape: 24 64 56 56 (4816896)
I0403 19:31:22.569108 24975 net.cpp:156] Memory required for data: 187860000
I0403 19:31:22.569128 24975 layer_factory.hpp:77] Creating layer pool1/norm1
I0403 19:31:22.569164 24975 net.cpp:91] Creating Layer pool1/norm1
I0403 19:31:22.569190 24975 net.cpp:425] pool1/norm1 <- pool1/3x3_s2
I0403 19:31:22.569213 24975 net.cpp:399] pool1/norm1 -> pool1/norm1
I0403 19:31:22.569636 24975 net.cpp:141] Setting up pool1/norm1
I0403 19:31:22.569671 24975 net.cpp:148] Top shape: 24 64 56 56 (4816896)
I0403 19:31:22.569691 24975 net.cpp:156] Memory required for data: 207127584
I0403 19:31:22.569711 24975 layer_factory.hpp:77] Creating layer conv2/3x3_reduce
I0403 19:31:22.569748 24975 net.cpp:91] Creating Layer conv2/3x3_reduce
I0403 19:31:22.569774 24975 net.cpp:425] conv2/3x3_reduce <- pool1/norm1
I0403 19:31:22.569798 24975 net.cpp:399] conv2/3x3_reduce -> conv2/3x3_reduce
I0403 19:31:22.571530 24975 net.cpp:141] Setting up conv2/3x3_reduce
I0403 19:31:22.571570 24975 net.cpp:148] Top shape: 24 64 56 56 (4816896)
I0403 19:31:22.571591 24975 net.cpp:156] Memory required for data: 226395168
I0403 19:31:22.571617 24975 layer_factory.hpp:77] Creating layer conv2/relu_3x3_reduce
I0403 19:31:22.571643 24975 net.cpp:91] Creating Layer conv2/relu_3x3_reduce
I0403 19:31:22.571666 24975 net.cpp:425] conv2/relu_3x3_reduce <- conv2/3x3_reduce
I0403 19:31:22.571689 24975 net.cpp:386] conv2/relu_3x3_reduce -> conv2/3x3_reduce (in-place)
I0403 19:31:22.572013 24975 net.cpp:141] Setting up conv2/relu_3x3_reduce
I0403 19:31:22.572048 24975 net.cpp:148] Top shape: 24 64 56 56 (4816896)
I0403 19:31:22.572067 24975 net.cpp:156] Memory required for data: 245662752
I0403 19:31:22.572087 24975 layer_factory.hpp:77] Creating layer conv2/3x3
I0403 19:31:22.572116 24975 net.cpp:91] Creating Layer conv2/3x3
I0403 19:31:22.572141 24975 net.cpp:425] conv2/3x3 <- conv2/3x3_reduce
I0403 19:31:22.572170 24975 net.cpp:399] conv2/3x3 -> conv2/3x3
I0403 19:31:22.574998 24975 net.cpp:141] Setting up conv2/3x3
I0403 19:31:22.575037 24975 net.cpp:148] Top shape: 24 192 56 56 (14450688)
I0403 19:31:22.575060 24975 net.cpp:156] Memory required for data: 303465504
I0403 19:31:22.575088 24975 layer_factory.hpp:77] Creating layer conv2/relu_3x3
I0403 19:31:22.575114 24975 net.cpp:91] Creating Layer conv2/relu_3x3
I0403 19:31:22.575139 24975 net.cpp:425] conv2/relu_3x3 <- conv2/3x3
I0403 19:31:22.575161 24975 net.cpp:386] conv2/relu_3x3 -> conv2/3x3 (in-place)
I0403 19:31:22.575386 24975 net.cpp:141] Setting up conv2/relu_3x3
I0403 19:31:22.575422 24975 net.cpp:148] Top shape: 24 192 56 56 (14450688)
I0403 19:31:22.575480 24975 net.cpp:156] Memory required for data: 361268256
I0403 19:31:22.575501 24975 layer_factory.hpp:77] Creating layer conv2/norm2
I0403 19:31:22.575582 24975 net.cpp:91] Creating Layer conv2/norm2
I0403 19:31:22.575611 24975 net.cpp:425] conv2/norm2 <- conv2/3x3
I0403 19:31:22.575637 24975 net.cpp:399] conv2/norm2 -> conv2/norm2
I0403 19:31:22.576009 24975 net.cpp:141] Setting up conv2/norm2
I0403 19:31:22.576051 24975 net.cpp:148] Top shape: 24 192 56 56 (14450688)
I0403 19:31:22.576076 24975 net.cpp:156] Memory required for data: 419071008
I0403 19:31:22.576095 24975 layer_factory.hpp:77] Creating layer pool2/3x3_s2
I0403 19:31:22.576118 24975 net.cpp:91] Creating Layer pool2/3x3_s2
I0403 19:31:22.576138 24975 net.cpp:425] pool2/3x3_s2 <- conv2/norm2
I0403 19:31:22.576164 24975 net.cpp:399] pool2/3x3_s2 -> pool2/3x3_s2
I0403 19:31:22.576231 24975 net.cpp:141] Setting up pool2/3x3_s2
I0403 19:31:22.576272 24975 net.cpp:148] Top shape: 24 192 28 28 (3612672)
I0403 19:31:22.576297 24975 net.cpp:156] Memory required for data: 433521696
I0403 19:31:22.576316 24975 layer_factory.hpp:77] Creating layer pool2/3x3_s2_pool2/3x3_s2_0_split
I0403 19:31:22.576339 24975 net.cpp:91] Creating Layer pool2/3x3_s2_pool2/3x3_s2_0_split
I0403 19:31:22.576359 24975 net.cpp:425] pool2/3x3_s2_pool2/3x3_s2_0_split <- pool2/3x3_s2
I0403 19:31:22.576380 24975 net.cpp:399] pool2/3x3_s2_pool2/3x3_s2_0_split -> pool2/3x3_s2_pool2/3x3_s2_0_split_0
I0403 19:31:22.576406 24975 net.cpp:399] pool2/3x3_s2_pool2/3x3_s2_0_split -> pool2/3x3_s2_pool2/3x3_s2_0_split_1
I0403 19:31:22.576436 24975 net.cpp:399] pool2/3x3_s2_pool2/3x3_s2_0_split -> pool2/3x3_s2_pool2/3x3_s2_0_split_2
I0403 19:31:22.576463 24975 net.cpp:399] pool2/3x3_s2_pool2/3x3_s2_0_split -> pool2/3x3_s2_pool2/3x3_s2_0_split_3
I0403 19:31:22.576553 24975 net.cpp:141] Setting up pool2/3x3_s2_pool2/3x3_s2_0_split
I0403 19:31:22.576586 24975 net.cpp:148] Top shape: 24 192 28 28 (3612672)
I0403 19:31:22.576606 24975 net.cpp:148] Top shape: 24 192 28 28 (3612672)
I0403 19:31:22.576627 24975 net.cpp:148] Top shape: 24 192 28 28 (3612672)
I0403 19:31:22.576644 24975 net.cpp:148] Top shape: 24 192 28 28 (3612672)
I0403 19:31:22.576663 24975 net.cpp:156] Memory required for data: 491324448
I0403 19:31:22.576681 24975 layer_factory.hpp:77] Creating layer inception_3a/1x1
I0403 19:31:22.576709 24975 net.cpp:91] Creating Layer inception_3a/1x1
I0403 19:31:22.576733 24975 net.cpp:425] inception_3a/1x1 <- pool2/3x3_s2_pool2/3x3_s2_0_split_0
I0403 19:31:22.576759 24975 net.cpp:399] inception_3a/1x1 -> inception_3a/1x1
I0403 19:31:22.578588 24975 net.cpp:141] Setting up inception_3a/1x1
I0403 19:31:22.578627 24975 net.cpp:148] Top shape: 24 64 28 28 (1204224)
I0403 19:31:22.578649 24975 net.cpp:156] Memory required for data: 496141344
I0403 19:31:22.578670 24975 layer_factory.hpp:77] Creating layer inception_3a/relu_1x1
I0403 19:31:22.578694 24975 net.cpp:91] Creating Layer inception_3a/relu_1x1
I0403 19:31:22.578716 24975 net.cpp:425] inception_3a/relu_1x1 <- inception_3a/1x1
I0403 19:31:22.578747 24975 net.cpp:386] inception_3a/relu_1x1 -> inception_3a/1x1 (in-place)
I0403 19:31:22.578958 24975 net.cpp:141] Setting up inception_3a/relu_1x1
I0403 19:31:22.578996 24975 net.cpp:148] Top shape: 24 64 28 28 (1204224)
I0403 19:31:22.579016 24975 net.cpp:156] Memory required for data: 500958240
I0403 19:31:22.579035 24975 layer_factory.hpp:77] Creating layer inception_3a/3x3_reduce
I0403 19:31:22.579063 24975 net.cpp:91] Creating Layer inception_3a/3x3_reduce
I0403 19:31:22.579087 24975 net.cpp:425] inception_3a/3x3_reduce <- pool2/3x3_s2_pool2/3x3_s2_0_split_1
I0403 19:31:22.579114 24975 net.cpp:399] inception_3a/3x3_reduce -> inception_3a/3x3_reduce
I0403 19:31:22.581115 24975 net.cpp:141] Setting up inception_3a/3x3_reduce
I0403 19:31:22.581154 24975 net.cpp:148] Top shape: 24 96 28 28 (1806336)
I0403 19:31:22.581176 24975 net.cpp:156] Memory required for data: 508183584
I0403 19:31:22.581207 24975 layer_factory.hpp:77] Creating layer inception_3a/relu_3x3_reduce
I0403 19:31:22.581264 24975 net.cpp:91] Creating Layer inception_3a/relu_3x3_reduce
I0403 19:31:22.581293 24975 net.cpp:425] inception_3a/relu_3x3_reduce <- inception_3a/3x3_reduce
I0403 19:31:22.581326 24975 net.cpp:386] inception_3a/relu_3x3_reduce -> inception_3a/3x3_reduce (in-place)
I0403 19:31:22.581550 24975 net.cpp:141] Setting up inception_3a/relu_3x3_reduce
I0403 19:31:22.581586 24975 net.cpp:148] Top shape: 24 96 28 28 (1806336)
I0403 19:31:22.581606 24975 net.cpp:156] Memory required for data: 515408928
I0403 19:31:22.581624 24975 layer_factory.hpp:77] Creating layer inception_3a/3x3
I0403 19:31:22.581655 24975 net.cpp:91] Creating Layer inception_3a/3x3
I0403 19:31:22.581688 24975 net.cpp:425] inception_3a/3x3 <- inception_3a/3x3_reduce
I0403 19:31:22.581713 24975 net.cpp:399] inception_3a/3x3 -> inception_3a/3x3
I0403 19:31:22.583703 24975 net.cpp:141] Setting up inception_3a/3x3
I0403 19:31:22.583740 24975 net.cpp:148] Top shape: 24 128 28 28 (2408448)
I0403 19:31:22.583762 24975 net.cpp:156] Memory required for data: 525042720
I0403 19:31:22.583784 24975 layer_factory.hpp:77] Creating layer inception_3a/relu_3x3
I0403 19:31:22.583811 24975 net.cpp:91] Creating Layer inception_3a/relu_3x3
I0403 19:31:22.583833 24975 net.cpp:425] inception_3a/relu_3x3 <- inception_3a/3x3
I0403 19:31:22.583856 24975 net.cpp:386] inception_3a/relu_3x3 -> inception_3a/3x3 (in-place)
I0403 19:31:22.584180 24975 net.cpp:141] Setting up inception_3a/relu_3x3
I0403 19:31:22.584215 24975 net.cpp:148] Top shape: 24 128 28 28 (2408448)
I0403 19:31:22.584235 24975 net.cpp:156] Memory required for data: 534676512
I0403 19:31:22.584270 24975 layer_factory.hpp:77] Creating layer inception_3a/5x5_reduce
I0403 19:31:22.584305 24975 net.cpp:91] Creating Layer inception_3a/5x5_reduce
I0403 19:31:22.584331 24975 net.cpp:425] inception_3a/5x5_reduce <- pool2/3x3_s2_pool2/3x3_s2_0_split_2
I0403 19:31:22.584360 24975 net.cpp:399] inception_3a/5x5_reduce -> inception_3a/5x5_reduce
I0403 19:31:22.585513 24975 net.cpp:141] Setting up inception_3a/5x5_reduce
I0403 19:31:22.585551 24975 net.cpp:148] Top shape: 24 16 28 28 (301056)
I0403 19:31:22.585569 24975 net.cpp:156] Memory required for data: 535880736
I0403 19:31:22.585593 24975 layer_factory.hpp:77] Creating layer inception_3a/relu_5x5_reduce
I0403 19:31:22.585618 24975 net.cpp:91] Creating Layer inception_3a/relu_5x5_reduce
I0403 19:31:22.585643 24975 net.cpp:425] inception_3a/relu_5x5_reduce <- inception_3a/5x5_reduce
I0403 19:31:22.585666 24975 net.cpp:386] inception_3a/relu_5x5_reduce -> inception_3a/5x5_reduce (in-place)
I0403 19:31:22.585999 24975 net.cpp:141] Setting up inception_3a/relu_5x5_reduce
I0403 19:31:22.586032 24975 net.cpp:148] Top shape: 24 16 28 28 (301056)
I0403 19:31:22.586052 24975 net.cpp:156] Memory required for data: 537084960
I0403 19:31:22.586071 24975 layer_factory.hpp:77] Creating layer inception_3a/5x5
I0403 19:31:22.586102 24975 net.cpp:91] Creating Layer inception_3a/5x5
I0403 19:31:22.586127 24975 net.cpp:425] inception_3a/5x5 <- inception_3a/5x5_reduce
I0403 19:31:22.586153 24975 net.cpp:399] inception_3a/5x5 -> inception_3a/5x5
I0403 19:31:22.587369 24975 net.cpp:141] Setting up inception_3a/5x5
I0403 19:31:22.587406 24975 net.cpp:148] Top shape: 24 32 28 28 (602112)
I0403 19:31:22.587425 24975 net.cpp:156] Memory required for data: 539493408
I0403 19:31:22.587448 24975 layer_factory.hpp:77] Creating layer inception_3a/relu_5x5
I0403 19:31:22.587472 24975 net.cpp:91] Creating Layer inception_3a/relu_5x5
I0403 19:31:22.587492 24975 net.cpp:425] inception_3a/relu_5x5 <- inception_3a/5x5
I0403 19:31:22.587517 24975 net.cpp:386] inception_3a/relu_5x5 -> inception_3a/5x5 (in-place)
I0403 19:31:22.587725 24975 net.cpp:141] Setting up inception_3a/relu_5x5
I0403 19:31:22.587757 24975 net.cpp:148] Top shape: 24 32 28 28 (602112)
I0403 19:31:22.587777 24975 net.cpp:156] Memory required for data: 541901856
I0403 19:31:22.587796 24975 layer_factory.hpp:77] Creating layer inception_3a/pool
I0403 19:31:22.587822 24975 net.cpp:91] Creating Layer inception_3a/pool
I0403 19:31:22.587860 24975 net.cpp:425] inception_3a/pool <- pool2/3x3_s2_pool2/3x3_s2_0_split_3
I0403 19:31:22.587884 24975 net.cpp:399] inception_3a/pool -> inception_3a/pool
I0403 19:31:22.587956 24975 net.cpp:141] Setting up inception_3a/pool
I0403 19:31:22.587987 24975 net.cpp:148] Top shape: 24 192 28 28 (3612672)
I0403 19:31:22.588006 24975 net.cpp:156] Memory required for data: 556352544
I0403 19:31:22.588026 24975 layer_factory.hpp:77] Creating layer inception_3a/pool_proj
I0403 19:31:22.588052 24975 net.cpp:91] Creating Layer inception_3a/pool_proj
I0403 19:31:22.588073 24975 net.cpp:425] inception_3a/pool_proj <- inception_3a/pool
I0403 19:31:22.588101 24975 net.cpp:399] inception_3a/pool_proj -> inception_3a/pool_proj
I0403 19:31:22.589273 24975 net.cpp:141] Setting up inception_3a/pool_proj
I0403 19:31:22.589313 24975 net.cpp:148] Top shape: 24 32 28 28 (602112)
I0403 19:31:22.589336 24975 net.cpp:156] Memory required for data: 558760992
I0403 19:31:22.589365 24975 layer_factory.hpp:77] Creating layer inception_3a/relu_pool_proj
I0403 19:31:22.589392 24975 net.cpp:91] Creating Layer inception_3a/relu_pool_proj
I0403 19:31:22.589416 24975 net.cpp:425] inception_3a/relu_pool_proj <- inception_3a/pool_proj
I0403 19:31:22.589437 24975 net.cpp:386] inception_3a/relu_pool_proj -> inception_3a/pool_proj (in-place)
I0403 19:31:22.589766 24975 net.cpp:141] Setting up inception_3a/relu_pool_proj
I0403 19:31:22.589802 24975 net.cpp:148] Top shape: 24 32 28 28 (602112)
I0403 19:31:22.589821 24975 net.cpp:156] Memory required for data: 561169440
I0403 19:31:22.589838 24975 layer_factory.hpp:77] Creating layer inception_3a/output
I0403 19:31:22.589859 24975 net.cpp:91] Creating Layer inception_3a/output
I0403 19:31:22.589879 24975 net.cpp:425] inception_3a/output <- inception_3a/1x1
I0403 19:31:22.589901 24975 net.cpp:425] inception_3a/output <- inception_3a/3x3
I0403 19:31:22.589922 24975 net.cpp:425] inception_3a/output <- inception_3a/5x5
I0403 19:31:22.589942 24975 net.cpp:425] inception_3a/output <- inception_3a/pool_proj
I0403 19:31:22.589964 24975 net.cpp:399] inception_3a/output -> inception_3a/output
I0403 19:31:22.590025 24975 net.cpp:141] Setting up inception_3a/output
I0403 19:31:22.590055 24975 net.cpp:148] Top shape: 24 256 28 28 (4816896)
I0403 19:31:22.590073 24975 net.cpp:156] Memory required for data: 580437024
I0403 19:31:22.590092 24975 layer_factory.hpp:77] Creating layer inception_3a/output_inception_3a/output_0_split
I0403 19:31:22.590112 24975 net.cpp:91] Creating Layer inception_3a/output_inception_3a/output_0_split
I0403 19:31:22.590133 24975 net.cpp:425] inception_3a/output_inception_3a/output_0_split <- inception_3a/output
I0403 19:31:22.590157 24975 net.cpp:399] inception_3a/output_inception_3a/output_0_split -> inception_3a/output_inception_3a/output_0_split_0
I0403 19:31:22.590185 24975 net.cpp:399] inception_3a/output_inception_3a/output_0_split -> inception_3a/output_inception_3a/output_0_split_1
I0403 19:31:22.590214 24975 net.cpp:399] inception_3a/output_inception_3a/output_0_split -> inception_3a/output_inception_3a/output_0_split_2
I0403 19:31:22.590240 24975 net.cpp:399] inception_3a/output_inception_3a/output_0_split -> inception_3a/output_inception_3a/output_0_split_3
I0403 19:31:22.590347 24975 net.cpp:141] Setting up inception_3a/output_inception_3a/output_0_split
I0403 19:31:22.590378 24975 net.cpp:148] Top shape: 24 256 28 28 (4816896)
I0403 19:31:22.590399 24975 net.cpp:148] Top shape: 24 256 28 28 (4816896)
I0403 19:31:22.590418 24975 net.cpp:148] Top shape: 24 256 28 28 (4816896)
I0403 19:31:22.590437 24975 net.cpp:148] Top shape: 24 256 28 28 (4816896)
I0403 19:31:22.590454 24975 net.cpp:156] Memory required for data: 657507360
I0403 19:31:22.590473 24975 layer_factory.hpp:77] Creating layer inception_3b/1x1
I0403 19:31:22.590502 24975 net.cpp:91] Creating Layer inception_3b/1x1
I0403 19:31:22.590524 24975 net.cpp:425] inception_3b/1x1 <- inception_3a/output_inception_3a/output_0_split_0
I0403 19:31:22.590550 24975 net.cpp:399] inception_3b/1x1 -> inception_3b/1x1
I0403 19:31:22.591908 24975 net.cpp:141] Setting up inception_3b/1x1
I0403 19:31:22.591961 24975 net.cpp:148] Top shape: 24 128 28 28 (2408448)
I0403 19:31:22.591985 24975 net.cpp:156] Memory required for data: 667141152
I0403 19:31:22.592008 24975 layer_factory.hpp:77] Creating layer inception_3b/relu_1x1
I0403 19:31:22.592032 24975 net.cpp:91] Creating Layer inception_3b/relu_1x1
I0403 19:31:22.592051 24975 net.cpp:425] inception_3b/relu_1x1 <- inception_3b/1x1
I0403 19:31:22.592077 24975 net.cpp:386] inception_3b/relu_1x1 -> inception_3b/1x1 (in-place)
I0403 19:31:22.592296 24975 net.cpp:141] Setting up inception_3b/relu_1x1
I0403 19:31:22.592329 24975 net.cpp:148] Top shape: 24 128 28 28 (2408448)
I0403 19:31:22.592350 24975 net.cpp:156] Memory required for data: 676774944
I0403 19:31:22.592367 24975 layer_factory.hpp:77] Creating layer inception_3b/3x3_reduce
I0403 19:31:22.592396 24975 net.cpp:91] Creating Layer inception_3b/3x3_reduce
I0403 19:31:22.592419 24975 net.cpp:425] inception_3b/3x3_reduce <- inception_3a/output_inception_3a/output_0_split_1
I0403 19:31:22.592447 24975 net.cpp:399] inception_3b/3x3_reduce -> inception_3b/3x3_reduce
I0403 19:31:22.593807 24975 net.cpp:141] Setting up inception_3b/3x3_reduce
I0403 19:31:22.593845 24975 net.cpp:148] Top shape: 24 128 28 28 (2408448)
I0403 19:31:22.593866 24975 net.cpp:156] Memory required for data: 686408736
I0403 19:31:22.593889 24975 layer_factory.hpp:77] Creating layer inception_3b/relu_3x3_reduce
I0403 19:31:22.593911 24975 net.cpp:91] Creating Layer inception_3b/relu_3x3_reduce
I0403 19:31:22.593933 24975 net.cpp:425] inception_3b/relu_3x3_reduce <- inception_3b/3x3_reduce
I0403 19:31:22.593960 24975 net.cpp:386] inception_3b/relu_3x3_reduce -> inception_3b/3x3_reduce (in-place)
I0403 19:31:22.594172 24975 net.cpp:141] Setting up inception_3b/relu_3x3_reduce
I0403 19:31:22.594205 24975 net.cpp:148] Top shape: 24 128 28 28 (2408448)
I0403 19:31:22.594224 24975 net.cpp:156] Memory required for data: 696042528
I0403 19:31:22.594243 24975 layer_factory.hpp:77] Creating layer inception_3b/3x3
I0403 19:31:22.594292 24975 net.cpp:91] Creating Layer inception_3b/3x3
I0403 19:31:22.594319 24975 net.cpp:425] inception_3b/3x3 <- inception_3b/3x3_reduce
I0403 19:31:22.594344 24975 net.cpp:399] inception_3b/3x3 -> inception_3b/3x3
I0403 19:31:22.597826 24975 net.cpp:141] Setting up inception_3b/3x3
I0403 19:31:22.597863 24975 net.cpp:148] Top shape: 24 192 28 28 (3612672)
I0403 19:31:22.597883 24975 net.cpp:156] Memory required for data: 710493216
I0403 19:31:22.597906 24975 layer_factory.hpp:77] Creating layer inception_3b/relu_3x3
I0403 19:31:22.597934 24975 net.cpp:91] Creating Layer inception_3b/relu_3x3
I0403 19:31:22.597957 24975 net.cpp:425] inception_3b/relu_3x3 <- inception_3b/3x3
I0403 19:31:22.597980 24975 net.cpp:386] inception_3b/relu_3x3 -> inception_3b/3x3 (in-place)
I0403 19:31:22.598315 24975 net.cpp:141] Setting up inception_3b/relu_3x3
I0403 19:31:22.598352 24975 net.cpp:148] Top shape: 24 192 28 28 (3612672)
I0403 19:31:22.598372 24975 net.cpp:156] Memory required for data: 724943904
I0403 19:31:22.598392 24975 layer_factory.hpp:77] Creating layer inception_3b/5x5_reduce
I0403 19:31:22.598420 24975 net.cpp:91] Creating Layer inception_3b/5x5_reduce
I0403 19:31:22.598445 24975 net.cpp:425] inception_3b/5x5_reduce <- inception_3a/output_inception_3a/output_0_split_2
I0403 19:31:22.598471 24975 net.cpp:399] inception_3b/5x5_reduce -> inception_3b/5x5_reduce
I0403 19:31:22.599661 24975 net.cpp:141] Setting up inception_3b/5x5_reduce
I0403 19:31:22.599697 24975 net.cpp:148] Top shape: 24 32 28 28 (602112)
I0403 19:31:22.599719 24975 net.cpp:156] Memory required for data: 727352352
I0403 19:31:22.599741 24975 layer_factory.hpp:77] Creating layer inception_3b/relu_5x5_reduce
I0403 19:31:22.599767 24975 net.cpp:91] Creating Layer inception_3b/relu_5x5_reduce
I0403 19:31:22.599791 24975 net.cpp:425] inception_3b/relu_5x5_reduce <- inception_3b/5x5_reduce
I0403 19:31:22.599813 24975 net.cpp:386] inception_3b/relu_5x5_reduce -> inception_3b/5x5_reduce (in-place)
I0403 19:31:22.600049 24975 net.cpp:141] Setting up inception_3b/relu_5x5_reduce
I0403 19:31:22.600085 24975 net.cpp:148] Top shape: 24 32 28 28 (602112)
I0403 19:31:22.600107 24975 net.cpp:156] Memory required for data: 729760800
I0403 19:31:22.600127 24975 layer_factory.hpp:77] Creating layer inception_3b/5x5
I0403 19:31:22.600152 24975 net.cpp:91] Creating Layer inception_3b/5x5
I0403 19:31:22.600173 24975 net.cpp:425] inception_3b/5x5 <- inception_3b/5x5_reduce
I0403 19:31:22.600199 24975 net.cpp:399] inception_3b/5x5 -> inception_3b/5x5
I0403 19:31:22.602540 24975 net.cpp:141] Setting up inception_3b/5x5
I0403 19:31:22.602576 24975 net.cpp:148] Top shape: 24 96 28 28 (1806336)
I0403 19:31:22.602598 24975 net.cpp:156] Memory required for data: 736986144
I0403 19:31:22.602623 24975 layer_factory.hpp:77] Creating layer inception_3b/relu_5x5
I0403 19:31:22.602646 24975 net.cpp:91] Creating Layer inception_3b/relu_5x5
I0403 19:31:22.602666 24975 net.cpp:425] inception_3b/relu_5x5 <- inception_3b/5x5
I0403 19:31:22.602692 24975 net.cpp:386] inception_3b/relu_5x5 -> inception_3b/5x5 (in-place)
I0403 19:31:22.602927 24975 net.cpp:141] Setting up inception_3b/relu_5x5
I0403 19:31:22.602960 24975 net.cpp:148] Top shape: 24 96 28 28 (1806336)
I0403 19:31:22.602979 24975 net.cpp:156] Memory required for data: 744211488
I0403 19:31:22.603000 24975 layer_factory.hpp:77] Creating layer inception_3b/pool
I0403 19:31:22.603023 24975 net.cpp:91] Creating Layer inception_3b/pool
I0403 19:31:22.603044 24975 net.cpp:425] inception_3b/pool <- inception_3a/output_inception_3a/output_0_split_3
I0403 19:31:22.603065 24975 net.cpp:399] inception_3b/pool -> inception_3b/pool
I0403 19:31:22.603139 24975 net.cpp:141] Setting up inception_3b/pool
I0403 19:31:22.603169 24975 net.cpp:148] Top shape: 24 256 28 28 (4816896)
I0403 19:31:22.603188 24975 net.cpp:156] Memory required for data: 763479072
I0403 19:31:22.603207 24975 layer_factory.hpp:77] Creating layer inception_3b/pool_proj
I0403 19:31:22.603235 24975 net.cpp:91] Creating Layer inception_3b/pool_proj
I0403 19:31:22.603266 24975 net.cpp:425] inception_3b/pool_proj <- inception_3b/pool
I0403 19:31:22.603296 24975 net.cpp:399] inception_3b/pool_proj -> inception_3b/pool_proj
I0403 19:31:22.604590 24975 net.cpp:141] Setting up inception_3b/pool_proj
I0403 19:31:22.604630 24975 net.cpp:148] Top shape: 24 64 28 28 (1204224)
I0403 19:31:22.604653 24975 net.cpp:156] Memory required for data: 768295968
I0403 19:31:22.604676 24975 layer_factory.hpp:77] Creating layer inception_3b/relu_pool_proj
I0403 19:31:22.604701 24975 net.cpp:91] Creating Layer inception_3b/relu_pool_proj
I0403 19:31:22.604720 24975 net.cpp:425] inception_3b/relu_pool_proj <- inception_3b/pool_proj
I0403 19:31:22.604744 24975 net.cpp:386] inception_3b/relu_pool_proj -> inception_3b/pool_proj (in-place)
I0403 19:31:22.605204 24975 net.cpp:141] Setting up inception_3b/relu_pool_proj
I0403 19:31:22.605238 24975 net.cpp:148] Top shape: 24 64 28 28 (1204224)
I0403 19:31:22.605268 24975 net.cpp:156] Memory required for data: 773112864
I0403 19:31:22.605291 24975 layer_factory.hpp:77] Creating layer inception_3b/output
I0403 19:31:22.605317 24975 net.cpp:91] Creating Layer inception_3b/output
I0403 19:31:22.605341 24975 net.cpp:425] inception_3b/output <- inception_3b/1x1
I0403 19:31:22.605363 24975 net.cpp:425] inception_3b/output <- inception_3b/3x3
I0403 19:31:22.605386 24975 net.cpp:425] inception_3b/output <- inception_3b/5x5
I0403 19:31:22.605406 24975 net.cpp:425] inception_3b/output <- inception_3b/pool_proj
I0403 19:31:22.605427 24975 net.cpp:399] inception_3b/output -> inception_3b/output
I0403 19:31:22.605486 24975 net.cpp:141] Setting up inception_3b/output
I0403 19:31:22.605520 24975 net.cpp:148] Top shape: 24 480 28 28 (9031680)
I0403 19:31:22.605540 24975 net.cpp:156] Memory required for data: 809239584
I0403 19:31:22.605559 24975 layer_factory.hpp:77] Creating layer pool3/3x3_s2
I0403 19:31:22.605581 24975 net.cpp:91] Creating Layer pool3/3x3_s2
I0403 19:31:22.605602 24975 net.cpp:425] pool3/3x3_s2 <- inception_3b/output
I0403 19:31:22.605648 24975 net.cpp:399] pool3/3x3_s2 -> pool3/3x3_s2
I0403 19:31:22.605723 24975 net.cpp:141] Setting up pool3/3x3_s2
I0403 19:31:22.605756 24975 net.cpp:148] Top shape: 24 480 14 14 (2257920)
I0403 19:31:22.605777 24975 net.cpp:156] Memory required for data: 818271264
I0403 19:31:22.605797 24975 layer_factory.hpp:77] Creating layer pool3/3x3_s2_pool3/3x3_s2_0_split
I0403 19:31:22.605820 24975 net.cpp:91] Creating Layer pool3/3x3_s2_pool3/3x3_s2_0_split
I0403 19:31:22.605842 24975 net.cpp:425] pool3/3x3_s2_pool3/3x3_s2_0_split <- pool3/3x3_s2
I0403 19:31:22.605867 24975 net.cpp:399] pool3/3x3_s2_pool3/3x3_s2_0_split -> pool3/3x3_s2_pool3/3x3_s2_0_split_0
I0403 19:31:22.605895 24975 net.cpp:399] pool3/3x3_s2_pool3/3x3_s2_0_split -> pool3/3x3_s2_pool3/3x3_s2_0_split_1
I0403 19:31:22.605921 24975 net.cpp:399] pool3/3x3_s2_pool3/3x3_s2_0_split -> pool3/3x3_s2_pool3/3x3_s2_0_split_2
I0403 19:31:22.605947 24975 net.cpp:399] pool3/3x3_s2_pool3/3x3_s2_0_split -> pool3/3x3_s2_pool3/3x3_s2_0_split_3
I0403 19:31:22.606040 24975 net.cpp:141] Setting up pool3/3x3_s2_pool3/3x3_s2_0_split
I0403 19:31:22.606077 24975 net.cpp:148] Top shape: 24 480 14 14 (2257920)
I0403 19:31:22.606101 24975 net.cpp:148] Top shape: 24 480 14 14 (2257920)
I0403 19:31:22.606122 24975 net.cpp:148] Top shape: 24 480 14 14 (2257920)
I0403 19:31:22.606142 24975 net.cpp:148] Top shape: 24 480 14 14 (2257920)
I0403 19:31:22.606159 24975 net.cpp:156] Memory required for data: 854397984
I0403 19:31:22.606178 24975 layer_factory.hpp:77] Creating layer inception_4a/1x1
I0403 19:31:22.606204 24975 net.cpp:91] Creating Layer inception_4a/1x1
I0403 19:31:22.606226 24975 net.cpp:425] inception_4a/1x1 <- pool3/3x3_s2_pool3/3x3_s2_0_split_0
I0403 19:31:22.606253 24975 net.cpp:399] inception_4a/1x1 -> inception_4a/1x1
I0403 19:31:22.608168 24975 net.cpp:141] Setting up inception_4a/1x1
I0403 19:31:22.608212 24975 net.cpp:148] Top shape: 24 192 14 14 (903168)
I0403 19:31:22.608234 24975 net.cpp:156] Memory required for data: 858010656
I0403 19:31:22.608264 24975 layer_factory.hpp:77] Creating layer inception_4a/relu_1x1
I0403 19:31:22.608290 24975 net.cpp:91] Creating Layer inception_4a/relu_1x1
I0403 19:31:22.608311 24975 net.cpp:425] inception_4a/relu_1x1 <- inception_4a/1x1
I0403 19:31:22.608335 24975 net.cpp:386] inception_4a/relu_1x1 -> inception_4a/1x1 (in-place)
I0403 19:31:22.608557 24975 net.cpp:141] Setting up inception_4a/relu_1x1
I0403 19:31:22.608595 24975 net.cpp:148] Top shape: 24 192 14 14 (903168)
I0403 19:31:22.608614 24975 net.cpp:156] Memory required for data: 861623328
I0403 19:31:22.608633 24975 layer_factory.hpp:77] Creating layer inception_4a/3x3_reduce
I0403 19:31:22.608661 24975 net.cpp:91] Creating Layer inception_4a/3x3_reduce
I0403 19:31:22.608685 24975 net.cpp:425] inception_4a/3x3_reduce <- pool3/3x3_s2_pool3/3x3_s2_0_split_1
I0403 19:31:22.608713 24975 net.cpp:399] inception_4a/3x3_reduce -> inception_4a/3x3_reduce
I0403 19:31:22.610254 24975 net.cpp:141] Setting up inception_4a/3x3_reduce
I0403 19:31:22.610301 24975 net.cpp:148] Top shape: 24 96 14 14 (451584)
I0403 19:31:22.610323 24975 net.cpp:156] Memory required for data: 863429664
I0403 19:31:22.610355 24975 layer_factory.hpp:77] Creating layer inception_4a/relu_3x3_reduce
I0403 19:31:22.610383 24975 net.cpp:91] Creating Layer inception_4a/relu_3x3_reduce
I0403 19:31:22.610405 24975 net.cpp:425] inception_4a/relu_3x3_reduce <- inception_4a/3x3_reduce
I0403 19:31:22.610429 24975 net.cpp:386] inception_4a/relu_3x3_reduce -> inception_4a/3x3_reduce (in-place)
I0403 19:31:22.610647 24975 net.cpp:141] Setting up inception_4a/relu_3x3_reduce
I0403 19:31:22.610687 24975 net.cpp:148] Top shape: 24 96 14 14 (451584)
I0403 19:31:22.610708 24975 net.cpp:156] Memory required for data: 865236000
I0403 19:31:22.610728 24975 layer_factory.hpp:77] Creating layer inception_4a/3x3
I0403 19:31:22.610755 24975 net.cpp:91] Creating Layer inception_4a/3x3
I0403 19:31:22.610780 24975 net.cpp:425] inception_4a/3x3 <- inception_4a/3x3_reduce
I0403 19:31:22.610806 24975 net.cpp:399] inception_4a/3x3 -> inception_4a/3x3
I0403 19:31:22.614055 24975 net.cpp:141] Setting up inception_4a/3x3
I0403 19:31:22.614096 24975 net.cpp:148] Top shape: 24 208 14 14 (978432)
I0403 19:31:22.614117 24975 net.cpp:156] Memory required for data: 869149728
I0403 19:31:22.614140 24975 layer_factory.hpp:77] Creating layer inception_4a/relu_3x3
I0403 19:31:22.614164 24975 net.cpp:91] Creating Layer inception_4a/relu_3x3
I0403 19:31:22.614187 24975 net.cpp:425] inception_4a/relu_3x3 <- inception_4a/3x3
I0403 19:31:22.614213 24975 net.cpp:386] inception_4a/relu_3x3 -> inception_4a/3x3 (in-place)
I0403 19:31:22.614565 24975 net.cpp:141] Setting up inception_4a/relu_3x3
I0403 19:31:22.614603 24975 net.cpp:148] Top shape: 24 208 14 14 (978432)
I0403 19:31:22.614625 24975 net.cpp:156] Memory required for data: 873063456
I0403 19:31:22.614646 24975 layer_factory.hpp:77] Creating layer inception_4a/5x5_reduce
I0403 19:31:22.614676 24975 net.cpp:91] Creating Layer inception_4a/5x5_reduce
I0403 19:31:22.614701 24975 net.cpp:425] inception_4a/5x5_reduce <- pool3/3x3_s2_pool3/3x3_s2_0_split_2
I0403 19:31:22.614728 24975 net.cpp:399] inception_4a/5x5_reduce -> inception_4a/5x5_reduce
I0403 19:31:22.615960 24975 net.cpp:141] Setting up inception_4a/5x5_reduce
I0403 19:31:22.615998 24975 net.cpp:148] Top shape: 24 16 14 14 (75264)
I0403 19:31:22.616019 24975 net.cpp:156] Memory required for data: 873364512
I0403 19:31:22.616042 24975 layer_factory.hpp:77] Creating layer inception_4a/relu_5x5_reduce
I0403 19:31:22.616066 24975 net.cpp:91] Creating Layer inception_4a/relu_5x5_reduce
I0403 19:31:22.616089 24975 net.cpp:425] inception_4a/relu_5x5_reduce <- inception_4a/5x5_reduce
I0403 19:31:22.616114 24975 net.cpp:386] inception_4a/relu_5x5_reduce -> inception_4a/5x5_reduce (in-place)
I0403 19:31:22.616338 24975 net.cpp:141] Setting up inception_4a/relu_5x5_reduce
I0403 19:31:22.616374 24975 net.cpp:148] Top shape: 24 16 14 14 (75264)
I0403 19:31:22.616394 24975 net.cpp:156] Memory required for data: 873665568
I0403 19:31:22.616415 24975 layer_factory.hpp:77] Creating layer inception_4a/5x5
I0403 19:31:22.616443 24975 net.cpp:91] Creating Layer inception_4a/5x5
I0403 19:31:22.616468 24975 net.cpp:425] inception_4a/5x5 <- inception_4a/5x5_reduce
I0403 19:31:22.616495 24975 net.cpp:399] inception_4a/5x5 -> inception_4a/5x5
I0403 19:31:22.617815 24975 net.cpp:141] Setting up inception_4a/5x5
I0403 19:31:22.617852 24975 net.cpp:148] Top shape: 24 48 14 14 (225792)
I0403 19:31:22.617873 24975 net.cpp:156] Memory required for data: 874568736
I0403 19:31:22.617898 24975 layer_factory.hpp:77] Creating layer inception_4a/relu_5x5
I0403 19:31:22.617925 24975 net.cpp:91] Creating Layer inception_4a/relu_5x5
I0403 19:31:22.617947 24975 net.cpp:425] inception_4a/relu_5x5 <- inception_4a/5x5
I0403 19:31:22.617970 24975 net.cpp:386] inception_4a/relu_5x5 -> inception_4a/5x5 (in-place)
I0403 19:31:22.618190 24975 net.cpp:141] Setting up inception_4a/relu_5x5
I0403 19:31:22.618227 24975 net.cpp:148] Top shape: 24 48 14 14 (225792)
I0403 19:31:22.618249 24975 net.cpp:156] Memory required for data: 875471904
I0403 19:31:22.618278 24975 layer_factory.hpp:77] Creating layer inception_4a/pool
I0403 19:31:22.618300 24975 net.cpp:91] Creating Layer inception_4a/pool
I0403 19:31:22.618321 24975 net.cpp:425] inception_4a/pool <- pool3/3x3_s2_pool3/3x3_s2_0_split_3
I0403 19:31:22.618346 24975 net.cpp:399] inception_4a/pool -> inception_4a/pool
I0403 19:31:22.618425 24975 net.cpp:141] Setting up inception_4a/pool
I0403 19:31:22.618460 24975 net.cpp:148] Top shape: 24 480 14 14 (2257920)
I0403 19:31:22.618480 24975 net.cpp:156] Memory required for data: 884503584
I0403 19:31:22.618499 24975 layer_factory.hpp:77] Creating layer inception_4a/pool_proj
I0403 19:31:22.618530 24975 net.cpp:91] Creating Layer inception_4a/pool_proj
I0403 19:31:22.618553 24975 net.cpp:425] inception_4a/pool_proj <- inception_4a/pool
I0403 19:31:22.618578 24975 net.cpp:399] inception_4a/pool_proj -> inception_4a/pool_proj
I0403 19:31:22.619999 24975 net.cpp:141] Setting up inception_4a/pool_proj
I0403 19:31:22.620043 24975 net.cpp:148] Top shape: 24 64 14 14 (301056)
I0403 19:31:22.620085 24975 net.cpp:156] Memory required for data: 885707808
I0403 19:31:22.620110 24975 layer_factory.hpp:77] Creating layer inception_4a/relu_pool_proj
I0403 19:31:22.620134 24975 net.cpp:91] Creating Layer inception_4a/relu_pool_proj
I0403 19:31:22.620156 24975 net.cpp:425] inception_4a/relu_pool_proj <- inception_4a/pool_proj
I0403 19:31:22.620182 24975 net.cpp:386] inception_4a/relu_pool_proj -> inception_4a/pool_proj (in-place)
I0403 19:31:22.620530 24975 net.cpp:141] Setting up inception_4a/relu_pool_proj
I0403 19:31:22.620569 24975 net.cpp:148] Top shape: 24 64 14 14 (301056)
I0403 19:31:22.620592 24975 net.cpp:156] Memory required for data: 886912032
I0403 19:31:22.620614 24975 layer_factory.hpp:77] Creating layer inception_4a/output
I0403 19:31:22.620637 24975 net.cpp:91] Creating Layer inception_4a/output
I0403 19:31:22.620656 24975 net.cpp:425] inception_4a/output <- inception_4a/1x1
I0403 19:31:22.620678 24975 net.cpp:425] inception_4a/output <- inception_4a/3x3
I0403 19:31:22.620699 24975 net.cpp:425] inception_4a/output <- inception_4a/5x5
I0403 19:31:22.620720 24975 net.cpp:425] inception_4a/output <- inception_4a/pool_proj
I0403 19:31:22.620741 24975 net.cpp:399] inception_4a/output -> inception_4a/output
I0403 19:31:22.620800 24975 net.cpp:141] Setting up inception_4a/output
I0403 19:31:22.620834 24975 net.cpp:148] Top shape: 24 512 14 14 (2408448)
I0403 19:31:22.620853 24975 net.cpp:156] Memory required for data: 896545824
I0403 19:31:22.620872 24975 layer_factory.hpp:77] Creating layer inception_4a/output_inception_4a/output_0_split
I0403 19:31:22.620895 24975 net.cpp:91] Creating Layer inception_4a/output_inception_4a/output_0_split
I0403 19:31:22.620916 24975 net.cpp:425] inception_4a/output_inception_4a/output_0_split <- inception_4a/output
I0403 19:31:22.620944 24975 net.cpp:399] inception_4a/output_inception_4a/output_0_split -> inception_4a/output_inception_4a/output_0_split_0
I0403 19:31:22.620972 24975 net.cpp:399] inception_4a/output_inception_4a/output_0_split -> inception_4a/output_inception_4a/output_0_split_1
I0403 19:31:22.621001 24975 net.cpp:399] inception_4a/output_inception_4a/output_0_split -> inception_4a/output_inception_4a/output_0_split_2
I0403 19:31:22.621033 24975 net.cpp:399] inception_4a/output_inception_4a/output_0_split -> inception_4a/output_inception_4a/output_0_split_3
I0403 19:31:22.621060 24975 net.cpp:399] inception_4a/output_inception_4a/output_0_split -> inception_4a/output_inception_4a/output_0_split_4
I0403 19:31:22.621172 24975 net.cpp:141] Setting up inception_4a/output_inception_4a/output_0_split
I0403 19:31:22.621207 24975 net.cpp:148] Top shape: 24 512 14 14 (2408448)
I0403 19:31:22.621227 24975 net.cpp:148] Top shape: 24 512 14 14 (2408448)
I0403 19:31:22.621248 24975 net.cpp:148] Top shape: 24 512 14 14 (2408448)
I0403 19:31:22.621279 24975 net.cpp:148] Top shape: 24 512 14 14 (2408448)
I0403 19:31:22.621300 24975 net.cpp:148] Top shape: 24 512 14 14 (2408448)
I0403 19:31:22.621325 24975 net.cpp:156] Memory required for data: 944714784
I0403 19:31:22.621345 24975 layer_factory.hpp:77] Creating layer loss1/ave_pool
I0403 19:31:22.621366 24975 net.cpp:91] Creating Layer loss1/ave_pool
I0403 19:31:22.621387 24975 net.cpp:425] loss1/ave_pool <- inception_4a/output_inception_4a/output_0_split_0
I0403 19:31:22.621412 24975 net.cpp:399] loss1/ave_pool -> loss1/ave_pool
I0403 19:31:22.621666 24975 net.cpp:141] Setting up loss1/ave_pool
I0403 19:31:22.621703 24975 net.cpp:148] Top shape: 24 512 4 4 (196608)
I0403 19:31:22.621724 24975 net.cpp:156] Memory required for data: 945501216
I0403 19:31:22.621743 24975 layer_factory.hpp:77] Creating layer loss1/conv
I0403 19:31:22.621773 24975 net.cpp:91] Creating Layer loss1/conv
I0403 19:31:22.621795 24975 net.cpp:425] loss1/conv <- loss1/ave_pool
I0403 19:31:22.621821 24975 net.cpp:399] loss1/conv -> loss1/conv
I0403 19:31:22.623528 24975 net.cpp:141] Setting up loss1/conv
I0403 19:31:22.623565 24975 net.cpp:148] Top shape: 24 128 4 4 (49152)
I0403 19:31:22.623605 24975 net.cpp:156] Memory required for data: 945697824
I0403 19:31:22.623631 24975 layer_factory.hpp:77] Creating layer loss1/relu_conv
I0403 19:31:22.623654 24975 net.cpp:91] Creating Layer loss1/relu_conv
I0403 19:31:22.623678 24975 net.cpp:425] loss1/relu_conv <- loss1/conv
I0403 19:31:22.623704 24975 net.cpp:386] loss1/relu_conv -> loss1/conv (in-place)
I0403 19:31:22.624042 24975 net.cpp:141] Setting up loss1/relu_conv
I0403 19:31:22.624076 24975 net.cpp:148] Top shape: 24 128 4 4 (49152)
I0403 19:31:22.624099 24975 net.cpp:156] Memory required for data: 945894432
I0403 19:31:22.624117 24975 layer_factory.hpp:77] Creating layer loss1/fc
I0403 19:31:22.624150 24975 net.cpp:91] Creating Layer loss1/fc
I0403 19:31:22.624172 24975 net.cpp:425] loss1/fc <- loss1/conv
I0403 19:31:22.624199 24975 net.cpp:399] loss1/fc -> loss1/fc
I0403 19:31:22.646245 24975 net.cpp:141] Setting up loss1/fc
I0403 19:31:22.646294 24975 net.cpp:148] Top shape: 24 1024 (24576)
I0403 19:31:22.646317 24975 net.cpp:156] Memory required for data: 945992736
I0403 19:31:22.646342 24975 layer_factory.hpp:77] Creating layer loss1/relu_fc
I0403 19:31:22.646368 24975 net.cpp:91] Creating Layer loss1/relu_fc
I0403 19:31:22.646389 24975 net.cpp:425] loss1/relu_fc <- loss1/fc
I0403 19:31:22.646411 24975 net.cpp:386] loss1/relu_fc -> loss1/fc (in-place)
I0403 19:31:22.646648 24975 net.cpp:141] Setting up loss1/relu_fc
I0403 19:31:22.646682 24975 net.cpp:148] Top shape: 24 1024 (24576)
I0403 19:31:22.646703 24975 net.cpp:156] Memory required for data: 946091040
I0403 19:31:22.646720 24975 layer_factory.hpp:77] Creating layer loss1/drop_fc
I0403 19:31:22.646754 24975 net.cpp:91] Creating Layer loss1/drop_fc
I0403 19:31:22.646775 24975 net.cpp:425] loss1/drop_fc <- loss1/fc
I0403 19:31:22.646801 24975 net.cpp:386] loss1/drop_fc -> loss1/fc (in-place)
I0403 19:31:22.646872 24975 net.cpp:141] Setting up loss1/drop_fc
I0403 19:31:22.646903 24975 net.cpp:148] Top shape: 24 1024 (24576)
I0403 19:31:22.646924 24975 net.cpp:156] Memory required for data: 946189344
I0403 19:31:22.646944 24975 layer_factory.hpp:77] Creating layer loss1/classifier_plantvillage
I0403 19:31:22.646971 24975 net.cpp:91] Creating Layer loss1/classifier_plantvillage
I0403 19:31:22.646993 24975 net.cpp:425] loss1/classifier_plantvillage <- loss1/fc
I0403 19:31:22.647017 24975 net.cpp:399] loss1/classifier_plantvillage -> loss1/classifier_plantvillage
I0403 19:31:22.648115 24975 net.cpp:141] Setting up loss1/classifier_plantvillage
I0403 19:31:22.648157 24975 net.cpp:148] Top shape: 24 38 (912)
I0403 19:31:22.648180 24975 net.cpp:156] Memory required for data: 946192992
I0403 19:31:22.648203 24975 layer_factory.hpp:77] Creating layer loss1/classifier_plantvillage_loss1/classifier_plantvillage_0_split
I0403 19:31:22.648228 24975 net.cpp:91] Creating Layer loss1/classifier_plantvillage_loss1/classifier_plantvillage_0_split
I0403 19:31:22.648248 24975 net.cpp:425] loss1/classifier_plantvillage_loss1/classifier_plantvillage_0_split <- loss1/classifier_plantvillage
I0403 19:31:22.648283 24975 net.cpp:399] loss1/classifier_plantvillage_loss1/classifier_plantvillage_0_split -> loss1/classifier_plantvillage_loss1/classifier_plantvillage_0_split_0
I0403 19:31:22.648313 24975 net.cpp:399] loss1/classifier_plantvillage_loss1/classifier_plantvillage_0_split -> loss1/classifier_plantvillage_loss1/classifier_plantvillage_0_split_1
I0403 19:31:22.648341 24975 net.cpp:399] loss1/classifier_plantvillage_loss1/classifier_plantvillage_0_split -> loss1/classifier_plantvillage_loss1/classifier_plantvillage_0_split_2
I0403 19:31:22.648424 24975 net.cpp:141] Setting up loss1/classifier_plantvillage_loss1/classifier_plantvillage_0_split
I0403 19:31:22.648459 24975 net.cpp:148] Top shape: 24 38 (912)
I0403 19:31:22.648481 24975 net.cpp:148] Top shape: 24 38 (912)
I0403 19:31:22.648500 24975 net.cpp:148] Top shape: 24 38 (912)
I0403 19:31:22.648519 24975 net.cpp:156] Memory required for data: 946203936
I0403 19:31:22.648538 24975 layer_factory.hpp:77] Creating layer inception_4b/1x1
I0403 19:31:22.648567 24975 net.cpp:91] Creating Layer inception_4b/1x1
I0403 19:31:22.648609 24975 net.cpp:425] inception_4b/1x1 <- inception_4a/output_inception_4a/output_0_split_1
I0403 19:31:22.648639 24975 net.cpp:399] inception_4b/1x1 -> inception_4b/1x1
I0403 19:31:22.650656 24975 net.cpp:141] Setting up inception_4b/1x1
I0403 19:31:22.650696 24975 net.cpp:148] Top shape: 24 160 14 14 (752640)
I0403 19:31:22.650718 24975 net.cpp:156] Memory required for data: 949214496
I0403 19:31:22.650743 24975 layer_factory.hpp:77] Creating layer inception_4b/relu_1x1
I0403 19:31:22.650768 24975 net.cpp:91] Creating Layer inception_4b/relu_1x1
I0403 19:31:22.650789 24975 net.cpp:425] inception_4b/relu_1x1 <- inception_4b/1x1
I0403 19:31:22.650813 24975 net.cpp:386] inception_4b/relu_1x1 -> inception_4b/1x1 (in-place)
I0403 19:31:22.651037 24975 net.cpp:141] Setting up inception_4b/relu_1x1
I0403 19:31:22.651072 24975 net.cpp:148] Top shape: 24 160 14 14 (752640)
I0403 19:31:22.651093 24975 net.cpp:156] Memory required for data: 952225056
I0403 19:31:22.651113 24975 layer_factory.hpp:77] Creating layer inception_4b/3x3_reduce
I0403 19:31:22.651140 24975 net.cpp:91] Creating Layer inception_4b/3x3_reduce
I0403 19:31:22.651162 24975 net.cpp:425] inception_4b/3x3_reduce <- inception_4a/output_inception_4a/output_0_split_2
I0403 19:31:22.651190 24975 net.cpp:399] inception_4b/3x3_reduce -> inception_4b/3x3_reduce
I0403 19:31:22.652856 24975 net.cpp:141] Setting up inception_4b/3x3_reduce
I0403 19:31:22.652894 24975 net.cpp:148] Top shape: 24 112 14 14 (526848)
I0403 19:31:22.652914 24975 net.cpp:156] Memory required for data: 954332448
I0403 19:31:22.652935 24975 layer_factory.hpp:77] Creating layer inception_4b/relu_3x3_reduce
I0403 19:31:22.652961 24975 net.cpp:91] Creating Layer inception_4b/relu_3x3_reduce
I0403 19:31:22.652987 24975 net.cpp:425] inception_4b/relu_3x3_reduce <- inception_4b/3x3_reduce
I0403 19:31:22.653010 24975 net.cpp:386] inception_4b/relu_3x3_reduce -> inception_4b/3x3_reduce (in-place)
I0403 19:31:22.653359 24975 net.cpp:141] Setting up inception_4b/relu_3x3_reduce
I0403 19:31:22.653398 24975 net.cpp:148] Top shape: 24 112 14 14 (526848)
I0403 19:31:22.653417 24975 net.cpp:156] Memory required for data: 956439840
I0403 19:31:22.653435 24975 layer_factory.hpp:77] Creating layer inception_4b/3x3
I0403 19:31:22.653465 24975 net.cpp:91] Creating Layer inception_4b/3x3
I0403 19:31:22.653489 24975 net.cpp:425] inception_4b/3x3 <- inception_4b/3x3_reduce
I0403 19:31:22.653517 24975 net.cpp:399] inception_4b/3x3 -> inception_4b/3x3
I0403 19:31:22.657172 24975 net.cpp:141] Setting up inception_4b/3x3
I0403 19:31:22.657217 24975 net.cpp:148] Top shape: 24 224 14 14 (1053696)
I0403 19:31:22.657240 24975 net.cpp:156] Memory required for data: 960654624
I0403 19:31:22.657270 24975 layer_factory.hpp:77] Creating layer inception_4b/relu_3x3
I0403 19:31:22.657296 24975 net.cpp:91] Creating Layer inception_4b/relu_3x3
I0403 19:31:22.657320 24975 net.cpp:425] inception_4b/relu_3x3 <- inception_4b/3x3
I0403 19:31:22.657342 24975 net.cpp:386] inception_4b/relu_3x3 -> inception_4b/3x3 (in-place)
I0403 19:31:22.657570 24975 net.cpp:141] Setting up inception_4b/relu_3x3
I0403 19:31:22.657605 24975 net.cpp:148] Top shape: 24 224 14 14 (1053696)
I0403 19:31:22.657624 24975 net.cpp:156] Memory required for data: 964869408
I0403 19:31:22.657644 24975 layer_factory.hpp:77] Creating layer inception_4b/5x5_reduce
I0403 19:31:22.657673 24975 net.cpp:91] Creating Layer inception_4b/5x5_reduce
I0403 19:31:22.657698 24975 net.cpp:425] inception_4b/5x5_reduce <- inception_4a/output_inception_4a/output_0_split_3
I0403 19:31:22.657724 24975 net.cpp:399] inception_4b/5x5_reduce -> inception_4b/5x5_reduce
I0403 19:31:22.659041 24975 net.cpp:141] Setting up inception_4b/5x5_reduce
I0403 19:31:22.659080 24975 net.cpp:148] Top shape: 24 24 14 14 (112896)
I0403 19:31:22.659101 24975 net.cpp:156] Memory required for data: 965320992
I0403 19:31:22.659124 24975 layer_factory.hpp:77] Creating layer inception_4b/relu_5x5_reduce
I0403 19:31:22.659152 24975 net.cpp:91] Creating Layer inception_4b/relu_5x5_reduce
I0403 19:31:22.659198 24975 net.cpp:425] inception_4b/relu_5x5_reduce <- inception_4b/5x5_reduce
I0403 19:31:22.659224 24975 net.cpp:386] inception_4b/relu_5x5_reduce -> inception_4b/5x5_reduce (in-place)
I0403 19:31:22.659456 24975 net.cpp:141] Setting up inception_4b/relu_5x5_reduce
I0403 19:31:22.659490 24975 net.cpp:148] Top shape: 24 24 14 14 (112896)
I0403 19:31:22.659509 24975 net.cpp:156] Memory required for data: 965772576
I0403 19:31:22.659528 24975 layer_factory.hpp:77] Creating layer inception_4b/5x5
I0403 19:31:22.659560 24975 net.cpp:91] Creating Layer inception_4b/5x5
I0403 19:31:22.659584 24975 net.cpp:425] inception_4b/5x5 <- inception_4b/5x5_reduce
I0403 19:31:22.659610 24975 net.cpp:399] inception_4b/5x5 -> inception_4b/5x5
I0403 19:31:22.661103 24975 net.cpp:141] Setting up inception_4b/5x5
I0403 19:31:22.661142 24975 net.cpp:148] Top shape: 24 64 14 14 (301056)
I0403 19:31:22.661164 24975 net.cpp:156] Memory required for data: 966976800
I0403 19:31:22.661188 24975 layer_factory.hpp:77] Creating layer inception_4b/relu_5x5
I0403 19:31:22.661211 24975 net.cpp:91] Creating Layer inception_4b/relu_5x5
I0403 19:31:22.661233 24975 net.cpp:425] inception_4b/relu_5x5 <- inception_4b/5x5
I0403 19:31:22.661262 24975 net.cpp:386] inception_4b/relu_5x5 -> inception_4b/5x5 (in-place)
I0403 19:31:22.661607 24975 net.cpp:141] Setting up inception_4b/relu_5x5
I0403 19:31:22.661645 24975 net.cpp:148] Top shape: 24 64 14 14 (301056)
I0403 19:31:22.661666 24975 net.cpp:156] Memory required for data: 968181024
I0403 19:31:22.661686 24975 layer_factory.hpp:77] Creating layer inception_4b/pool
I0403 19:31:22.661710 24975 net.cpp:91] Creating Layer inception_4b/pool
I0403 19:31:22.661731 24975 net.cpp:425] inception_4b/pool <- inception_4a/output_inception_4a/output_0_split_4
I0403 19:31:22.661761 24975 net.cpp:399] inception_4b/pool -> inception_4b/pool
I0403 19:31:22.661845 24975 net.cpp:141] Setting up inception_4b/pool
I0403 19:31:22.661880 24975 net.cpp:148] Top shape: 24 512 14 14 (2408448)
I0403 19:31:22.661900 24975 net.cpp:156] Memory required for data: 977814816
I0403 19:31:22.661919 24975 layer_factory.hpp:77] Creating layer inception_4b/pool_proj
I0403 19:31:22.661952 24975 net.cpp:91] Creating Layer inception_4b/pool_proj
I0403 19:31:22.661977 24975 net.cpp:425] inception_4b/pool_proj <- inception_4b/pool
I0403 19:31:22.662000 24975 net.cpp:399] inception_4b/pool_proj -> inception_4b/pool_proj
I0403 19:31:22.663478 24975 net.cpp:141] Setting up inception_4b/pool_proj
I0403 19:31:22.663516 24975 net.cpp:148] Top shape: 24 64 14 14 (301056)
I0403 19:31:22.663537 24975 net.cpp:156] Memory required for data: 979019040
I0403 19:31:22.663560 24975 layer_factory.hpp:77] Creating layer inception_4b/relu_pool_proj
I0403 19:31:22.663586 24975 net.cpp:91] Creating Layer inception_4b/relu_pool_proj
I0403 19:31:22.663609 24975 net.cpp:425] inception_4b/relu_pool_proj <- inception_4b/pool_proj
I0403 19:31:22.663632 24975 net.cpp:386] inception_4b/relu_pool_proj -> inception_4b/pool_proj (in-place)
I0403 19:31:22.663856 24975 net.cpp:141] Setting up inception_4b/relu_pool_proj
I0403 19:31:22.663894 24975 net.cpp:148] Top shape: 24 64 14 14 (301056)
I0403 19:31:22.663914 24975 net.cpp:156] Memory required for data: 980223264
I0403 19:31:22.663931 24975 layer_factory.hpp:77] Creating layer inception_4b/output
I0403 19:31:22.663954 24975 net.cpp:91] Creating Layer inception_4b/output
I0403 19:31:22.663975 24975 net.cpp:425] inception_4b/output <- inception_4b/1x1
I0403 19:31:22.663997 24975 net.cpp:425] inception_4b/output <- inception_4b/3x3
I0403 19:31:22.664019 24975 net.cpp:425] inception_4b/output <- inception_4b/5x5
I0403 19:31:22.664039 24975 net.cpp:425] inception_4b/output <- inception_4b/pool_proj
I0403 19:31:22.664060 24975 net.cpp:399] inception_4b/output -> inception_4b/output
I0403 19:31:22.664119 24975 net.cpp:141] Setting up inception_4b/output
I0403 19:31:22.664154 24975 net.cpp:148] Top shape: 24 512 14 14 (2408448)
I0403 19:31:22.664173 24975 net.cpp:156] Memory required for data: 989857056
I0403 19:31:22.664213 24975 layer_factory.hpp:77] Creating layer inception_4b/output_inception_4b/output_0_split
I0403 19:31:22.664238 24975 net.cpp:91] Creating Layer inception_4b/output_inception_4b/output_0_split
I0403 19:31:22.664273 24975 net.cpp:425] inception_4b/output_inception_4b/output_0_split <- inception_4b/output
I0403 19:31:22.664310 24975 net.cpp:399] inception_4b/output_inception_4b/output_0_split -> inception_4b/output_inception_4b/output_0_split_0
I0403 19:31:22.664338 24975 net.cpp:399] inception_4b/output_inception_4b/output_0_split -> inception_4b/output_inception_4b/output_0_split_1
I0403 19:31:22.664366 24975 net.cpp:399] inception_4b/output_inception_4b/output_0_split -> inception_4b/output_inception_4b/output_0_split_2
I0403 19:31:22.664394 24975 net.cpp:399] inception_4b/output_inception_4b/output_0_split -> inception_4b/output_inception_4b/output_0_split_3
I0403 19:31:22.664501 24975 net.cpp:141] Setting up inception_4b/output_inception_4b/output_0_split
I0403 19:31:22.664535 24975 net.cpp:148] Top shape: 24 512 14 14 (2408448)
I0403 19:31:22.664558 24975 net.cpp:148] Top shape: 24 512 14 14 (2408448)
I0403 19:31:22.664578 24975 net.cpp:148] Top shape: 24 512 14 14 (2408448)
I0403 19:31:22.664599 24975 net.cpp:148] Top shape: 24 512 14 14 (2408448)
I0403 19:31:22.664618 24975 net.cpp:156] Memory required for data: 1028392224
I0403 19:31:22.664636 24975 layer_factory.hpp:77] Creating layer inception_4c/1x1
I0403 19:31:22.664665 24975 net.cpp:91] Creating Layer inception_4c/1x1
I0403 19:31:22.664690 24975 net.cpp:425] inception_4c/1x1 <- inception_4b/output_inception_4b/output_0_split_0
I0403 19:31:22.664718 24975 net.cpp:399] inception_4c/1x1 -> inception_4c/1x1
I0403 19:31:22.666479 24975 net.cpp:141] Setting up inception_4c/1x1
I0403 19:31:22.666522 24975 net.cpp:148] Top shape: 24 128 14 14 (602112)
I0403 19:31:22.666546 24975 net.cpp:156] Memory required for data: 1030800672
I0403 19:31:22.666570 24975 layer_factory.hpp:77] Creating layer inception_4c/relu_1x1
I0403 19:31:22.666594 24975 net.cpp:91] Creating Layer inception_4c/relu_1x1
I0403 19:31:22.666616 24975 net.cpp:425] inception_4c/relu_1x1 <- inception_4c/1x1
I0403 19:31:22.666638 24975 net.cpp:386] inception_4c/relu_1x1 -> inception_4c/1x1 (in-place)
I0403 19:31:22.666868 24975 net.cpp:141] Setting up inception_4c/relu_1x1
I0403 19:31:22.666904 24975 net.cpp:148] Top shape: 24 128 14 14 (602112)
I0403 19:31:22.666924 24975 net.cpp:156] Memory required for data: 1033209120
I0403 19:31:22.666944 24975 layer_factory.hpp:77] Creating layer inception_4c/3x3_reduce
I0403 19:31:22.666971 24975 net.cpp:91] Creating Layer inception_4c/3x3_reduce
I0403 19:31:22.666995 24975 net.cpp:425] inception_4c/3x3_reduce <- inception_4b/output_inception_4b/output_0_split_1
I0403 19:31:22.667024 24975 net.cpp:399] inception_4c/3x3_reduce -> inception_4c/3x3_reduce
I0403 19:31:22.669396 24975 net.cpp:141] Setting up inception_4c/3x3_reduce
I0403 19:31:22.669436 24975 net.cpp:148] Top shape: 24 128 14 14 (602112)
I0403 19:31:22.669458 24975 net.cpp:156] Memory required for data: 1035617568
I0403 19:31:22.669481 24975 layer_factory.hpp:77] Creating layer inception_4c/relu_3x3_reduce
I0403 19:31:22.669509 24975 net.cpp:91] Creating Layer inception_4c/relu_3x3_reduce
I0403 19:31:22.669533 24975 net.cpp:425] inception_4c/relu_3x3_reduce <- inception_4c/3x3_reduce
I0403 19:31:22.669555 24975 net.cpp:386] inception_4c/relu_3x3_reduce -> inception_4c/3x3_reduce (in-place)
I0403 19:31:22.669903 24975 net.cpp:141] Setting up inception_4c/relu_3x3_reduce
I0403 19:31:22.669937 24975 net.cpp:148] Top shape: 24 128 14 14 (602112)
I0403 19:31:22.669958 24975 net.cpp:156] Memory required for data: 1038026016
I0403 19:31:22.669978 24975 layer_factory.hpp:77] Creating layer inception_4c/3x3
I0403 19:31:22.670007 24975 net.cpp:91] Creating Layer inception_4c/3x3
I0403 19:31:22.670032 24975 net.cpp:425] inception_4c/3x3 <- inception_4c/3x3_reduce
I0403 19:31:22.670063 24975 net.cpp:399] inception_4c/3x3 -> inception_4c/3x3
I0403 19:31:22.674460 24975 net.cpp:141] Setting up inception_4c/3x3
I0403 19:31:22.674515 24975 net.cpp:148] Top shape: 24 256 14 14 (1204224)
I0403 19:31:22.674536 24975 net.cpp:156] Memory required for data: 1042842912
I0403 19:31:22.674582 24975 layer_factory.hpp:77] Creating layer inception_4c/relu_3x3
I0403 19:31:22.674613 24975 net.cpp:91] Creating Layer inception_4c/relu_3x3
I0403 19:31:22.674639 24975 net.cpp:425] inception_4c/relu_3x3 <- inception_4c/3x3
I0403 19:31:22.674661 24975 net.cpp:386] inception_4c/relu_3x3 -> inception_4c/3x3 (in-place)
I0403 19:31:22.674890 24975 net.cpp:141] Setting up inception_4c/relu_3x3
I0403 19:31:22.674924 24975 net.cpp:148] Top shape: 24 256 14 14 (1204224)
I0403 19:31:22.674944 24975 net.cpp:156] Memory required for data: 1047659808
I0403 19:31:22.674964 24975 layer_factory.hpp:77] Creating layer inception_4c/5x5_reduce
I0403 19:31:22.674991 24975 net.cpp:91] Creating Layer inception_4c/5x5_reduce
I0403 19:31:22.675014 24975 net.cpp:425] inception_4c/5x5_reduce <- inception_4b/output_inception_4b/output_0_split_2
I0403 19:31:22.675043 24975 net.cpp:399] inception_4c/5x5_reduce -> inception_4c/5x5_reduce
I0403 19:31:22.676420 24975 net.cpp:141] Setting up inception_4c/5x5_reduce
I0403 19:31:22.676461 24975 net.cpp:148] Top shape: 24 24 14 14 (112896)
I0403 19:31:22.676481 24975 net.cpp:156] Memory required for data: 1048111392
I0403 19:31:22.676506 24975 layer_factory.hpp:77] Creating layer inception_4c/relu_5x5_reduce
I0403 19:31:22.676534 24975 net.cpp:91] Creating Layer inception_4c/relu_5x5_reduce
I0403 19:31:22.676558 24975 net.cpp:425] inception_4c/relu_5x5_reduce <- inception_4c/5x5_reduce
I0403 19:31:22.676581 24975 net.cpp:386] inception_4c/relu_5x5_reduce -> inception_4c/5x5_reduce (in-place)
I0403 19:31:22.676810 24975 net.cpp:141] Setting up inception_4c/relu_5x5_reduce
I0403 19:31:22.676846 24975 net.cpp:148] Top shape: 24 24 14 14 (112896)
I0403 19:31:22.676867 24975 net.cpp:156] Memory required for data: 1048562976
I0403 19:31:22.676887 24975 layer_factory.hpp:77] Creating layer inception_4c/5x5
I0403 19:31:22.676916 24975 net.cpp:91] Creating Layer inception_4c/5x5
I0403 19:31:22.676939 24975 net.cpp:425] inception_4c/5x5 <- inception_4c/5x5_reduce
I0403 19:31:22.676964 24975 net.cpp:399] inception_4c/5x5 -> inception_4c/5x5
I0403 19:31:22.678493 24975 net.cpp:141] Setting up inception_4c/5x5
I0403 19:31:22.678534 24975 net.cpp:148] Top shape: 24 64 14 14 (301056)
I0403 19:31:22.678560 24975 net.cpp:156] Memory required for data: 1049767200
I0403 19:31:22.678583 24975 layer_factory.hpp:77] Creating layer inception_4c/relu_5x5
I0403 19:31:22.678606 24975 net.cpp:91] Creating Layer inception_4c/relu_5x5
I0403 19:31:22.678629 24975 net.cpp:425] inception_4c/relu_5x5 <- inception_4c/5x5
I0403 19:31:22.678650 24975 net.cpp:386] inception_4c/relu_5x5 -> inception_4c/5x5 (in-place)
I0403 19:31:22.679008 24975 net.cpp:141] Setting up inception_4c/relu_5x5
I0403 19:31:22.679050 24975 net.cpp:148] Top shape: 24 64 14 14 (301056)
I0403 19:31:22.679074 24975 net.cpp:156] Memory required for data: 1050971424
I0403 19:31:22.679092 24975 layer_factory.hpp:77] Creating layer inception_4c/pool
I0403 19:31:22.679116 24975 net.cpp:91] Creating Layer inception_4c/pool
I0403 19:31:22.679136 24975 net.cpp:425] inception_4c/pool <- inception_4b/output_inception_4b/output_0_split_3
I0403 19:31:22.679159 24975 net.cpp:399] inception_4c/pool -> inception_4c/pool
I0403 19:31:22.679244 24975 net.cpp:141] Setting up inception_4c/pool
I0403 19:31:22.679285 24975 net.cpp:148] Top shape: 24 512 14 14 (2408448)
I0403 19:31:22.679304 24975 net.cpp:156] Memory required for data: 1060605216
I0403 19:31:22.679322 24975 layer_factory.hpp:77] Creating layer inception_4c/pool_proj
I0403 19:31:22.679352 24975 net.cpp:91] Creating Layer inception_4c/pool_proj
I0403 19:31:22.679375 24975 net.cpp:425] inception_4c/pool_proj <- inception_4c/pool
I0403 19:31:22.679404 24975 net.cpp:399] inception_4c/pool_proj -> inception_4c/pool_proj
I0403 19:31:22.680909 24975 net.cpp:141] Setting up inception_4c/pool_proj
I0403 19:31:22.680948 24975 net.cpp:148] Top shape: 24 64 14 14 (301056)
I0403 19:31:22.680990 24975 net.cpp:156] Memory required for data: 1061809440
I0403 19:31:22.681016 24975 layer_factory.hpp:77] Creating layer inception_4c/relu_pool_proj
I0403 19:31:22.681046 24975 net.cpp:91] Creating Layer inception_4c/relu_pool_proj
I0403 19:31:22.681069 24975 net.cpp:425] inception_4c/relu_pool_proj <- inception_4c/pool_proj
I0403 19:31:22.681094 24975 net.cpp:386] inception_4c/relu_pool_proj -> inception_4c/pool_proj (in-place)
I0403 19:31:22.681326 24975 net.cpp:141] Setting up inception_4c/relu_pool_proj
I0403 19:31:22.681360 24975 net.cpp:148] Top shape: 24 64 14 14 (301056)
I0403 19:31:22.681385 24975 net.cpp:156] Memory required for data: 1063013664
I0403 19:31:22.681403 24975 layer_factory.hpp:77] Creating layer inception_4c/output
I0403 19:31:22.681427 24975 net.cpp:91] Creating Layer inception_4c/output
I0403 19:31:22.681448 24975 net.cpp:425] inception_4c/output <- inception_4c/1x1
I0403 19:31:22.681469 24975 net.cpp:425] inception_4c/output <- inception_4c/3x3
I0403 19:31:22.681490 24975 net.cpp:425] inception_4c/output <- inception_4c/5x5
I0403 19:31:22.681510 24975 net.cpp:425] inception_4c/output <- inception_4c/pool_proj
I0403 19:31:22.681531 24975 net.cpp:399] inception_4c/output -> inception_4c/output
I0403 19:31:22.681593 24975 net.cpp:141] Setting up inception_4c/output
I0403 19:31:22.681629 24975 net.cpp:148] Top shape: 24 512 14 14 (2408448)
I0403 19:31:22.681648 24975 net.cpp:156] Memory required for data: 1072647456
I0403 19:31:22.681665 24975 layer_factory.hpp:77] Creating layer inception_4c/output_inception_4c/output_0_split
I0403 19:31:22.681686 24975 net.cpp:91] Creating Layer inception_4c/output_inception_4c/output_0_split
I0403 19:31:22.681705 24975 net.cpp:425] inception_4c/output_inception_4c/output_0_split <- inception_4c/output
I0403 19:31:22.681730 24975 net.cpp:399] inception_4c/output_inception_4c/output_0_split -> inception_4c/output_inception_4c/output_0_split_0
I0403 19:31:22.681761 24975 net.cpp:399] inception_4c/output_inception_4c/output_0_split -> inception_4c/output_inception_4c/output_0_split_1
I0403 19:31:22.681787 24975 net.cpp:399] inception_4c/output_inception_4c/output_0_split -> inception_4c/output_inception_4c/output_0_split_2
I0403 19:31:22.681812 24975 net.cpp:399] inception_4c/output_inception_4c/output_0_split -> inception_4c/output_inception_4c/output_0_split_3
I0403 19:31:22.681915 24975 net.cpp:141] Setting up inception_4c/output_inception_4c/output_0_split
I0403 19:31:22.681943 24975 net.cpp:148] Top shape: 24 512 14 14 (2408448)
I0403 19:31:22.681963 24975 net.cpp:148] Top shape: 24 512 14 14 (2408448)
I0403 19:31:22.681982 24975 net.cpp:148] Top shape: 24 512 14 14 (2408448)
I0403 19:31:22.682001 24975 net.cpp:148] Top shape: 24 512 14 14 (2408448)
I0403 19:31:22.682018 24975 net.cpp:156] Memory required for data: 1111182624
I0403 19:31:22.682034 24975 layer_factory.hpp:77] Creating layer inception_4d/1x1
I0403 19:31:22.682063 24975 net.cpp:91] Creating Layer inception_4d/1x1
I0403 19:31:22.682085 24975 net.cpp:425] inception_4d/1x1 <- inception_4c/output_inception_4c/output_0_split_0
I0403 19:31:22.682111 24975 net.cpp:399] inception_4d/1x1 -> inception_4d/1x1
I0403 19:31:22.683804 24975 net.cpp:141] Setting up inception_4d/1x1
I0403 19:31:22.683841 24975 net.cpp:148] Top shape: 24 112 14 14 (526848)
I0403 19:31:22.683861 24975 net.cpp:156] Memory required for data: 1113290016
I0403 19:31:22.683884 24975 layer_factory.hpp:77] Creating layer inception_4d/relu_1x1
I0403 19:31:22.683908 24975 net.cpp:91] Creating Layer inception_4d/relu_1x1
I0403 19:31:22.683928 24975 net.cpp:425] inception_4d/relu_1x1 <- inception_4d/1x1
I0403 19:31:22.683956 24975 net.cpp:386] inception_4d/relu_1x1 -> inception_4d/1x1 (in-place)
I0403 19:31:22.684185 24975 net.cpp:141] Setting up inception_4d/relu_1x1
I0403 19:31:22.684216 24975 net.cpp:148] Top shape: 24 112 14 14 (526848)
I0403 19:31:22.684237 24975 net.cpp:156] Memory required for data: 1115397408
I0403 19:31:22.684267 24975 layer_factory.hpp:77] Creating layer inception_4d/3x3_reduce
I0403 19:31:22.684317 24975 net.cpp:91] Creating Layer inception_4d/3x3_reduce
I0403 19:31:22.684342 24975 net.cpp:425] inception_4d/3x3_reduce <- inception_4c/output_inception_4c/output_0_split_1
I0403 19:31:22.684370 24975 net.cpp:399] inception_4d/3x3_reduce -> inception_4d/3x3_reduce
I0403 19:31:22.686203 24975 net.cpp:141] Setting up inception_4d/3x3_reduce
I0403 19:31:22.686236 24975 net.cpp:148] Top shape: 24 144 14 14 (677376)
I0403 19:31:22.686260 24975 net.cpp:156] Memory required for data: 1118106912
I0403 19:31:22.686285 24975 layer_factory.hpp:77] Creating layer inception_4d/relu_3x3_reduce
I0403 19:31:22.686311 24975 net.cpp:91] Creating Layer inception_4d/relu_3x3_reduce
I0403 19:31:22.686331 24975 net.cpp:425] inception_4d/relu_3x3_reduce <- inception_4d/3x3_reduce
I0403 19:31:22.686352 24975 net.cpp:386] inception_4d/relu_3x3_reduce -> inception_4d/3x3_reduce (in-place)
I0403 19:31:22.686702 24975 net.cpp:141] Setting up inception_4d/relu_3x3_reduce
I0403 19:31:22.686733 24975 net.cpp:148] Top shape: 24 144 14 14 (677376)
I0403 19:31:22.686751 24975 net.cpp:156] Memory required for data: 1120816416
I0403 19:31:22.686769 24975 layer_factory.hpp:77] Creating layer inception_4d/3x3
I0403 19:31:22.686799 24975 net.cpp:91] Creating Layer inception_4d/3x3
I0403 19:31:22.686820 24975 net.cpp:425] inception_4d/3x3 <- inception_4d/3x3_reduce
I0403 19:31:22.686843 24975 net.cpp:399] inception_4d/3x3 -> inception_4d/3x3
I0403 19:31:22.692059 24975 net.cpp:141] Setting up inception_4d/3x3
I0403 19:31:22.692100 24975 net.cpp:148] Top shape: 24 288 14 14 (1354752)
I0403 19:31:22.692119 24975 net.cpp:156] Memory required for data: 1126235424
I0403 19:31:22.692142 24975 layer_factory.hpp:77] Creating layer inception_4d/relu_3x3
I0403 19:31:22.692164 24975 net.cpp:91] Creating Layer inception_4d/relu_3x3
I0403 19:31:22.692183 24975 net.cpp:425] inception_4d/relu_3x3 <- inception_4d/3x3
I0403 19:31:22.692208 24975 net.cpp:386] inception_4d/relu_3x3 -> inception_4d/3x3 (in-place)
I0403 19:31:22.692440 24975 net.cpp:141] Setting up inception_4d/relu_3x3
I0403 19:31:22.692471 24975 net.cpp:148] Top shape: 24 288 14 14 (1354752)
I0403 19:31:22.692489 24975 net.cpp:156] Memory required for data: 1131654432
I0403 19:31:22.692507 24975 layer_factory.hpp:77] Creating layer inception_4d/5x5_reduce
I0403 19:31:22.692538 24975 net.cpp:91] Creating Layer inception_4d/5x5_reduce
I0403 19:31:22.692559 24975 net.cpp:425] inception_4d/5x5_reduce <- inception_4c/output_inception_4c/output_0_split_2
I0403 19:31:22.692585 24975 net.cpp:399] inception_4d/5x5_reduce -> inception_4d/5x5_reduce
I0403 19:31:22.693984 24975 net.cpp:141] Setting up inception_4d/5x5_reduce
I0403 19:31:22.694017 24975 net.cpp:148] Top shape: 24 32 14 14 (150528)
I0403 19:31:22.694036 24975 net.cpp:156] Memory required for data: 1132256544
I0403 19:31:22.694057 24975 layer_factory.hpp:77] Creating layer inception_4d/relu_5x5_reduce
I0403 19:31:22.694079 24975 net.cpp:91] Creating Layer inception_4d/relu_5x5_reduce
I0403 19:31:22.694098 24975 net.cpp:425] inception_4d/relu_5x5_reduce <- inception_4d/5x5_reduce
I0403 19:31:22.694121 24975 net.cpp:386] inception_4d/relu_5x5_reduce -> inception_4d/5x5_reduce (in-place)
I0403 19:31:22.694368 24975 net.cpp:141] Setting up inception_4d/relu_5x5_reduce
I0403 19:31:22.694399 24975 net.cpp:148] Top shape: 24 32 14 14 (150528)
I0403 19:31:22.694417 24975 net.cpp:156] Memory required for data: 1132858656
I0403 19:31:22.694435 24975 layer_factory.hpp:77] Creating layer inception_4d/5x5
I0403 19:31:22.694463 24975 net.cpp:91] Creating Layer inception_4d/5x5
I0403 19:31:22.694483 24975 net.cpp:425] inception_4d/5x5 <- inception_4d/5x5_reduce
I0403 19:31:22.694509 24975 net.cpp:399] inception_4d/5x5 -> inception_4d/5x5
I0403 19:31:22.696300 24975 net.cpp:141] Setting up inception_4d/5x5
I0403 19:31:22.696333 24975 net.cpp:148] Top shape: 24 64 14 14 (301056)
I0403 19:31:22.696352 24975 net.cpp:156] Memory required for data: 1134062880
I0403 19:31:22.696374 24975 layer_factory.hpp:77] Creating layer inception_4d/relu_5x5
I0403 19:31:22.696418 24975 net.cpp:91] Creating Layer inception_4d/relu_5x5
I0403 19:31:22.696439 24975 net.cpp:425] inception_4d/relu_5x5 <- inception_4d/5x5
I0403 19:31:22.696461 24975 net.cpp:386] inception_4d/relu_5x5 -> inception_4d/5x5 (in-place)
I0403 19:31:22.696831 24975 net.cpp:141] Setting up inception_4d/relu_5x5
I0403 19:31:22.696863 24975 net.cpp:148] Top shape: 24 64 14 14 (301056)
I0403 19:31:22.696882 24975 net.cpp:156] Memory required for data: 1135267104
I0403 19:31:22.696899 24975 layer_factory.hpp:77] Creating layer inception_4d/pool
I0403 19:31:22.696924 24975 net.cpp:91] Creating Layer inception_4d/pool
I0403 19:31:22.696944 24975 net.cpp:425] inception_4d/pool <- inception_4c/output_inception_4c/output_0_split_3
I0403 19:31:22.696967 24975 net.cpp:399] inception_4d/pool -> inception_4d/pool
I0403 19:31:22.697053 24975 net.cpp:141] Setting up inception_4d/pool
I0403 19:31:22.697083 24975 net.cpp:148] Top shape: 24 512 14 14 (2408448)
I0403 19:31:22.697100 24975 net.cpp:156] Memory required for data: 1144900896
I0403 19:31:22.697118 24975 layer_factory.hpp:77] Creating layer inception_4d/pool_proj
I0403 19:31:22.697145 24975 net.cpp:91] Creating Layer inception_4d/pool_proj
I0403 19:31:22.697166 24975 net.cpp:425] inception_4d/pool_proj <- inception_4d/pool
I0403 19:31:22.697192 24975 net.cpp:399] inception_4d/pool_proj -> inception_4d/pool_proj
I0403 19:31:22.699321 24975 net.cpp:141] Setting up inception_4d/pool_proj
I0403 19:31:22.699359 24975 net.cpp:148] Top shape: 24 64 14 14 (301056)
I0403 19:31:22.699379 24975 net.cpp:156] Memory required for data: 1146105120
I0403 19:31:22.699403 24975 layer_factory.hpp:77] Creating layer inception_4d/relu_pool_proj
I0403 19:31:22.699425 24975 net.cpp:91] Creating Layer inception_4d/relu_pool_proj
I0403 19:31:22.699445 24975 net.cpp:425] inception_4d/relu_pool_proj <- inception_4d/pool_proj
I0403 19:31:22.699470 24975 net.cpp:386] inception_4d/relu_pool_proj -> inception_4d/pool_proj (in-place)
I0403 19:31:22.699697 24975 net.cpp:141] Setting up inception_4d/relu_pool_proj
I0403 19:31:22.699728 24975 net.cpp:148] Top shape: 24 64 14 14 (301056)
I0403 19:31:22.699746 24975 net.cpp:156] Memory required for data: 1147309344
I0403 19:31:22.699764 24975 layer_factory.hpp:77] Creating layer inception_4d/output
I0403 19:31:22.699784 24975 net.cpp:91] Creating Layer inception_4d/output
I0403 19:31:22.699802 24975 net.cpp:425] inception_4d/output <- inception_4d/1x1
I0403 19:31:22.699822 24975 net.cpp:425] inception_4d/output <- inception_4d/3x3
I0403 19:31:22.699842 24975 net.cpp:425] inception_4d/output <- inception_4d/5x5
I0403 19:31:22.699862 24975 net.cpp:425] inception_4d/output <- inception_4d/pool_proj
I0403 19:31:22.699885 24975 net.cpp:399] inception_4d/output -> inception_4d/output
I0403 19:31:22.699947 24975 net.cpp:141] Setting up inception_4d/output
I0403 19:31:22.699975 24975 net.cpp:148] Top shape: 24 528 14 14 (2483712)
I0403 19:31:22.699993 24975 net.cpp:156] Memory required for data: 1157244192
I0403 19:31:22.700011 24975 layer_factory.hpp:77] Creating layer inception_4d/output_inception_4d/output_0_split
I0403 19:31:22.700032 24975 net.cpp:91] Creating Layer inception_4d/output_inception_4d/output_0_split
I0403 19:31:22.700052 24975 net.cpp:425] inception_4d/output_inception_4d/output_0_split <- inception_4d/output
I0403 19:31:22.700078 24975 net.cpp:399] inception_4d/output_inception_4d/output_0_split -> inception_4d/output_inception_4d/output_0_split_0
I0403 19:31:22.700104 24975 net.cpp:399] inception_4d/output_inception_4d/output_0_split -> inception_4d/output_inception_4d/output_0_split_1
I0403 19:31:22.700129 24975 net.cpp:399] inception_4d/output_inception_4d/output_0_split -> inception_4d/output_inception_4d/output_0_split_2
I0403 19:31:22.700155 24975 net.cpp:399] inception_4d/output_inception_4d/output_0_split -> inception_4d/output_inception_4d/output_0_split_3
I0403 19:31:22.700179 24975 net.cpp:399] inception_4d/output_inception_4d/output_0_split -> inception_4d/output_inception_4d/output_0_split_4
I0403 19:31:22.700314 24975 net.cpp:141] Setting up inception_4d/output_inception_4d/output_0_split
I0403 19:31:22.700361 24975 net.cpp:148] Top shape: 24 528 14 14 (2483712)
I0403 19:31:22.700381 24975 net.cpp:148] Top shape: 24 528 14 14 (2483712)
I0403 19:31:22.700400 24975 net.cpp:148] Top shape: 24 528 14 14 (2483712)
I0403 19:31:22.700419 24975 net.cpp:148] Top shape: 24 528 14 14 (2483712)
I0403 19:31:22.700438 24975 net.cpp:148] Top shape: 24 528 14 14 (2483712)
I0403 19:31:22.700453 24975 net.cpp:156] Memory required for data: 1206918432
I0403 19:31:22.700471 24975 layer_factory.hpp:77] Creating layer loss2/ave_pool
I0403 19:31:22.700492 24975 net.cpp:91] Creating Layer loss2/ave_pool
I0403 19:31:22.700511 24975 net.cpp:425] loss2/ave_pool <- inception_4d/output_inception_4d/output_0_split_0
I0403 19:31:22.700536 24975 net.cpp:399] loss2/ave_pool -> loss2/ave_pool
I0403 19:31:22.700920 24975 net.cpp:141] Setting up loss2/ave_pool
I0403 19:31:22.700953 24975 net.cpp:148] Top shape: 24 528 4 4 (202752)
I0403 19:31:22.700971 24975 net.cpp:156] Memory required for data: 1207729440
I0403 19:31:22.700989 24975 layer_factory.hpp:77] Creating layer loss2/conv
I0403 19:31:22.701016 24975 net.cpp:91] Creating Layer loss2/conv
I0403 19:31:22.701037 24975 net.cpp:425] loss2/conv <- loss2/ave_pool
I0403 19:31:22.701063 24975 net.cpp:399] loss2/conv -> loss2/conv
I0403 19:31:22.703346 24975 net.cpp:141] Setting up loss2/conv
I0403 19:31:22.703382 24975 net.cpp:148] Top shape: 24 128 4 4 (49152)
I0403 19:31:22.703400 24975 net.cpp:156] Memory required for data: 1207926048
I0403 19:31:22.703423 24975 layer_factory.hpp:77] Creating layer loss2/relu_conv
I0403 19:31:22.703447 24975 net.cpp:91] Creating Layer loss2/relu_conv
I0403 19:31:22.703469 24975 net.cpp:425] loss2/relu_conv <- loss2/conv
I0403 19:31:22.703490 24975 net.cpp:386] loss2/relu_conv -> loss2/conv (in-place)
I0403 19:31:22.703835 24975 net.cpp:141] Setting up loss2/relu_conv
I0403 19:31:22.703866 24975 net.cpp:148] Top shape: 24 128 4 4 (49152)
I0403 19:31:22.703886 24975 net.cpp:156] Memory required for data: 1208122656
I0403 19:31:22.703903 24975 layer_factory.hpp:77] Creating layer loss2/fc
I0403 19:31:22.703928 24975 net.cpp:91] Creating Layer loss2/fc
I0403 19:31:22.703949 24975 net.cpp:425] loss2/fc <- loss2/conv
I0403 19:31:22.703974 24975 net.cpp:399] loss2/fc -> loss2/fc
I0403 19:31:22.725996 24975 net.cpp:141] Setting up loss2/fc
I0403 19:31:22.726042 24975 net.cpp:148] Top shape: 24 1024 (24576)
I0403 19:31:22.726060 24975 net.cpp:156] Memory required for data: 1208220960
I0403 19:31:22.726083 24975 layer_factory.hpp:77] Creating layer loss2/relu_fc
I0403 19:31:22.726104 24975 net.cpp:91] Creating Layer loss2/relu_fc
I0403 19:31:22.726125 24975 net.cpp:425] loss2/relu_fc <- loss2/fc
I0403 19:31:22.726150 24975 net.cpp:386] loss2/relu_fc -> loss2/fc (in-place)
I0403 19:31:22.726522 24975 net.cpp:141] Setting up loss2/relu_fc
I0403 19:31:22.726555 24975 net.cpp:148] Top shape: 24 1024 (24576)
I0403 19:31:22.726574 24975 net.cpp:156] Memory required for data: 1208319264
I0403 19:31:22.726593 24975 layer_factory.hpp:77] Creating layer loss2/drop_fc
I0403 19:31:22.726613 24975 net.cpp:91] Creating Layer loss2/drop_fc
I0403 19:31:22.726632 24975 net.cpp:425] loss2/drop_fc <- loss2/fc
I0403 19:31:22.726657 24975 net.cpp:386] loss2/drop_fc -> loss2/fc (in-place)
I0403 19:31:22.726722 24975 net.cpp:141] Setting up loss2/drop_fc
I0403 19:31:22.726753 24975 net.cpp:148] Top shape: 24 1024 (24576)
I0403 19:31:22.726773 24975 net.cpp:156] Memory required for data: 1208417568
I0403 19:31:22.726790 24975 layer_factory.hpp:77] Creating layer loss2/classifier_plantvillage
I0403 19:31:22.726812 24975 net.cpp:91] Creating Layer loss2/classifier_plantvillage
I0403 19:31:22.726833 24975 net.cpp:425] loss2/classifier_plantvillage <- loss2/fc
I0403 19:31:22.726861 24975 net.cpp:399] loss2/classifier_plantvillage -> loss2/classifier_plantvillage
I0403 19:31:22.727363 24975 net.cpp:141] Setting up loss2/classifier_plantvillage
I0403 19:31:22.727396 24975 net.cpp:148] Top shape: 24 38 (912)
I0403 19:31:22.727433 24975 net.cpp:156] Memory required for data: 1208421216
I0403 19:31:22.727457 24975 layer_factory.hpp:77] Creating layer loss2/classifier_plantvillage_loss2/classifier_plantvillage_0_split
I0403 19:31:22.727483 24975 net.cpp:91] Creating Layer loss2/classifier_plantvillage_loss2/classifier_plantvillage_0_split
I0403 19:31:22.727504 24975 net.cpp:425] loss2/classifier_plantvillage_loss2/classifier_plantvillage_0_split <- loss2/classifier_plantvillage
I0403 19:31:22.727524 24975 net.cpp:399] loss2/classifier_plantvillage_loss2/classifier_plantvillage_0_split -> loss2/classifier_plantvillage_loss2/classifier_plantvillage_0_split_0
I0403 19:31:22.727550 24975 net.cpp:399] loss2/classifier_plantvillage_loss2/classifier_plantvillage_0_split -> loss2/classifier_plantvillage_loss2/classifier_plantvillage_0_split_1
I0403 19:31:22.727578 24975 net.cpp:399] loss2/classifier_plantvillage_loss2/classifier_plantvillage_0_split -> loss2/classifier_plantvillage_loss2/classifier_plantvillage_0_split_2
I0403 19:31:22.727672 24975 net.cpp:141] Setting up loss2/classifier_plantvillage_loss2/classifier_plantvillage_0_split
I0403 19:31:22.727702 24975 net.cpp:148] Top shape: 24 38 (912)
I0403 19:31:22.727722 24975 net.cpp:148] Top shape: 24 38 (912)
I0403 19:31:22.727741 24975 net.cpp:148] Top shape: 24 38 (912)
I0403 19:31:22.727757 24975 net.cpp:156] Memory required for data: 1208432160
I0403 19:31:22.727774 24975 layer_factory.hpp:77] Creating layer inception_4e/1x1
I0403 19:31:22.727802 24975 net.cpp:91] Creating Layer inception_4e/1x1
I0403 19:31:22.727823 24975 net.cpp:425] inception_4e/1x1 <- inception_4d/output_inception_4d/output_0_split_1
I0403 19:31:22.727848 24975 net.cpp:399] inception_4e/1x1 -> inception_4e/1x1
I0403 19:31:22.730083 24975 net.cpp:141] Setting up inception_4e/1x1
I0403 19:31:22.730119 24975 net.cpp:148] Top shape: 24 256 14 14 (1204224)
I0403 19:31:22.730139 24975 net.cpp:156] Memory required for data: 1213249056
I0403 19:31:22.730160 24975 layer_factory.hpp:77] Creating layer inception_4e/relu_1x1
I0403 19:31:22.730185 24975 net.cpp:91] Creating Layer inception_4e/relu_1x1
I0403 19:31:22.730207 24975 net.cpp:425] inception_4e/relu_1x1 <- inception_4e/1x1
I0403 19:31:22.730228 24975 net.cpp:386] inception_4e/relu_1x1 -> inception_4e/1x1 (in-place)
I0403 19:31:22.730594 24975 net.cpp:141] Setting up inception_4e/relu_1x1
I0403 19:31:22.730626 24975 net.cpp:148] Top shape: 24 256 14 14 (1204224)
I0403 19:31:22.730645 24975 net.cpp:156] Memory required for data: 1218065952
I0403 19:31:22.730664 24975 layer_factory.hpp:77] Creating layer inception_4e/3x3_reduce
I0403 19:31:22.730691 24975 net.cpp:91] Creating Layer inception_4e/3x3_reduce
I0403 19:31:22.730713 24975 net.cpp:425] inception_4e/3x3_reduce <- inception_4d/output_inception_4d/output_0_split_2
I0403 19:31:22.730741 24975 net.cpp:399] inception_4e/3x3_reduce -> inception_4e/3x3_reduce
I0403 19:31:22.733333 24975 net.cpp:141] Setting up inception_4e/3x3_reduce
I0403 19:31:22.733369 24975 net.cpp:148] Top shape: 24 160 14 14 (752640)
I0403 19:31:22.733388 24975 net.cpp:156] Memory required for data: 1221076512
I0403 19:31:22.733412 24975 layer_factory.hpp:77] Creating layer inception_4e/relu_3x3_reduce
I0403 19:31:22.733438 24975 net.cpp:91] Creating Layer inception_4e/relu_3x3_reduce
I0403 19:31:22.733458 24975 net.cpp:425] inception_4e/relu_3x3_reduce <- inception_4e/3x3_reduce
I0403 19:31:22.733479 24975 net.cpp:386] inception_4e/relu_3x3_reduce -> inception_4e/3x3_reduce (in-place)
I0403 19:31:22.733710 24975 net.cpp:141] Setting up inception_4e/relu_3x3_reduce
I0403 19:31:22.733743 24975 net.cpp:148] Top shape: 24 160 14 14 (752640)
I0403 19:31:22.733763 24975 net.cpp:156] Memory required for data: 1224087072
I0403 19:31:22.733782 24975 layer_factory.hpp:77] Creating layer inception_4e/3x3
I0403 19:31:22.733808 24975 net.cpp:91] Creating Layer inception_4e/3x3
I0403 19:31:22.733829 24975 net.cpp:425] inception_4e/3x3 <- inception_4e/3x3_reduce
I0403 19:31:22.733851 24975 net.cpp:399] inception_4e/3x3 -> inception_4e/3x3
I0403 19:31:22.740072 24975 net.cpp:141] Setting up inception_4e/3x3
I0403 19:31:22.740128 24975 net.cpp:148] Top shape: 24 320 14 14 (1505280)
I0403 19:31:22.740149 24975 net.cpp:156] Memory required for data: 1230108192
I0403 19:31:22.740172 24975 layer_factory.hpp:77] Creating layer inception_4e/relu_3x3
I0403 19:31:22.740195 24975 net.cpp:91] Creating Layer inception_4e/relu_3x3
I0403 19:31:22.740214 24975 net.cpp:425] inception_4e/relu_3x3 <- inception_4e/3x3
I0403 19:31:22.740234 24975 net.cpp:386] inception_4e/relu_3x3 -> inception_4e/3x3 (in-place)
I0403 19:31:22.740607 24975 net.cpp:141] Setting up inception_4e/relu_3x3
I0403 19:31:22.740640 24975 net.cpp:148] Top shape: 24 320 14 14 (1505280)
I0403 19:31:22.740658 24975 net.cpp:156] Memory required for data: 1236129312
I0403 19:31:22.740677 24975 layer_factory.hpp:77] Creating layer inception_4e/5x5_reduce
I0403 19:31:22.740706 24975 net.cpp:91] Creating Layer inception_4e/5x5_reduce
I0403 19:31:22.740727 24975 net.cpp:425] inception_4e/5x5_reduce <- inception_4d/output_inception_4d/output_0_split_3
I0403 19:31:22.740754 24975 net.cpp:399] inception_4e/5x5_reduce -> inception_4e/5x5_reduce
I0403 19:31:22.742075 24975 net.cpp:141] Setting up inception_4e/5x5_reduce
I0403 19:31:22.742110 24975 net.cpp:148] Top shape: 24 32 14 14 (150528)
I0403 19:31:22.742128 24975 net.cpp:156] Memory required for data: 1236731424
I0403 19:31:22.742151 24975 layer_factory.hpp:77] Creating layer inception_4e/relu_5x5_reduce
I0403 19:31:22.742177 24975 net.cpp:91] Creating Layer inception_4e/relu_5x5_reduce
I0403 19:31:22.742197 24975 net.cpp:425] inception_4e/relu_5x5_reduce <- inception_4e/5x5_reduce
I0403 19:31:22.742218 24975 net.cpp:386] inception_4e/relu_5x5_reduce -> inception_4e/5x5_reduce (in-place)
I0403 19:31:22.742595 24975 net.cpp:141] Setting up inception_4e/relu_5x5_reduce
I0403 19:31:22.742627 24975 net.cpp:148] Top shape: 24 32 14 14 (150528)
I0403 19:31:22.742646 24975 net.cpp:156] Memory required for data: 1237333536
I0403 19:31:22.742665 24975 layer_factory.hpp:77] Creating layer inception_4e/5x5
I0403 19:31:22.742712 24975 net.cpp:91] Creating Layer inception_4e/5x5
I0403 19:31:22.742736 24975 net.cpp:425] inception_4e/5x5 <- inception_4e/5x5_reduce
I0403 19:31:22.742760 24975 net.cpp:399] inception_4e/5x5 -> inception_4e/5x5
I0403 19:31:22.745018 24975 net.cpp:141] Setting up inception_4e/5x5
I0403 19:31:22.745053 24975 net.cpp:148] Top shape: 24 128 14 14 (602112)
I0403 19:31:22.745072 24975 net.cpp:156] Memory required for data: 1239741984
I0403 19:31:22.745095 24975 layer_factory.hpp:77] Creating layer inception_4e/relu_5x5
I0403 19:31:22.745121 24975 net.cpp:91] Creating Layer inception_4e/relu_5x5
I0403 19:31:22.745141 24975 net.cpp:425] inception_4e/relu_5x5 <- inception_4e/5x5
I0403 19:31:22.745163 24975 net.cpp:386] inception_4e/relu_5x5 -> inception_4e/5x5 (in-place)
I0403 19:31:22.745412 24975 net.cpp:141] Setting up inception_4e/relu_5x5
I0403 19:31:22.745445 24975 net.cpp:148] Top shape: 24 128 14 14 (602112)
I0403 19:31:22.745462 24975 net.cpp:156] Memory required for data: 1242150432
I0403 19:31:22.745481 24975 layer_factory.hpp:77] Creating layer inception_4e/pool
I0403 19:31:22.745506 24975 net.cpp:91] Creating Layer inception_4e/pool
I0403 19:31:22.745527 24975 net.cpp:425] inception_4e/pool <- inception_4d/output_inception_4d/output_0_split_4
I0403 19:31:22.745549 24975 net.cpp:399] inception_4e/pool -> inception_4e/pool
I0403 19:31:22.745636 24975 net.cpp:141] Setting up inception_4e/pool
I0403 19:31:22.745666 24975 net.cpp:148] Top shape: 24 528 14 14 (2483712)
I0403 19:31:22.745683 24975 net.cpp:156] Memory required for data: 1252085280
I0403 19:31:22.745700 24975 layer_factory.hpp:77] Creating layer inception_4e/pool_proj
I0403 19:31:22.745728 24975 net.cpp:91] Creating Layer inception_4e/pool_proj
I0403 19:31:22.745750 24975 net.cpp:425] inception_4e/pool_proj <- inception_4e/pool
I0403 19:31:22.745775 24975 net.cpp:399] inception_4e/pool_proj -> inception_4e/pool_proj
I0403 19:31:22.747622 24975 net.cpp:141] Setting up inception_4e/pool_proj
I0403 19:31:22.747669 24975 net.cpp:148] Top shape: 24 128 14 14 (602112)
I0403 19:31:22.747689 24975 net.cpp:156] Memory required for data: 1254493728
I0403 19:31:22.747711 24975 layer_factory.hpp:77] Creating layer inception_4e/relu_pool_proj
I0403 19:31:22.747733 24975 net.cpp:91] Creating Layer inception_4e/relu_pool_proj
I0403 19:31:22.747755 24975 net.cpp:425] inception_4e/relu_pool_proj <- inception_4e/pool_proj
I0403 19:31:22.747781 24975 net.cpp:386] inception_4e/relu_pool_proj -> inception_4e/pool_proj (in-place)
I0403 19:31:22.748137 24975 net.cpp:141] Setting up inception_4e/relu_pool_proj
I0403 19:31:22.748169 24975 net.cpp:148] Top shape: 24 128 14 14 (602112)
I0403 19:31:22.748188 24975 net.cpp:156] Memory required for data: 1256902176
I0403 19:31:22.748205 24975 layer_factory.hpp:77] Creating layer inception_4e/output
I0403 19:31:22.748227 24975 net.cpp:91] Creating Layer inception_4e/output
I0403 19:31:22.748245 24975 net.cpp:425] inception_4e/output <- inception_4e/1x1
I0403 19:31:22.748272 24975 net.cpp:425] inception_4e/output <- inception_4e/3x3
I0403 19:31:22.748294 24975 net.cpp:425] inception_4e/output <- inception_4e/5x5
I0403 19:31:22.748314 24975 net.cpp:425] inception_4e/output <- inception_4e/pool_proj
I0403 19:31:22.748338 24975 net.cpp:399] inception_4e/output -> inception_4e/output
I0403 19:31:22.748402 24975 net.cpp:141] Setting up inception_4e/output
I0403 19:31:22.748431 24975 net.cpp:148] Top shape: 24 832 14 14 (3913728)
I0403 19:31:22.748448 24975 net.cpp:156] Memory required for data: 1272557088
I0403 19:31:22.748466 24975 layer_factory.hpp:77] Creating layer pool4/3x3_s2
I0403 19:31:22.748491 24975 net.cpp:91] Creating Layer pool4/3x3_s2
I0403 19:31:22.748510 24975 net.cpp:425] pool4/3x3_s2 <- inception_4e/output
I0403 19:31:22.748538 24975 net.cpp:399] pool4/3x3_s2 -> pool4/3x3_s2
I0403 19:31:22.748620 24975 net.cpp:141] Setting up pool4/3x3_s2
I0403 19:31:22.748649 24975 net.cpp:148] Top shape: 24 832 7 7 (978432)
I0403 19:31:22.748667 24975 net.cpp:156] Memory required for data: 1276470816
I0403 19:31:22.748685 24975 layer_factory.hpp:77] Creating layer pool4/3x3_s2_pool4/3x3_s2_0_split
I0403 19:31:22.748709 24975 net.cpp:91] Creating Layer pool4/3x3_s2_pool4/3x3_s2_0_split
I0403 19:31:22.748730 24975 net.cpp:425] pool4/3x3_s2_pool4/3x3_s2_0_split <- pool4/3x3_s2
I0403 19:31:22.748751 24975 net.cpp:399] pool4/3x3_s2_pool4/3x3_s2_0_split -> pool4/3x3_s2_pool4/3x3_s2_0_split_0
I0403 19:31:22.748775 24975 net.cpp:399] pool4/3x3_s2_pool4/3x3_s2_0_split -> pool4/3x3_s2_pool4/3x3_s2_0_split_1
I0403 19:31:22.748800 24975 net.cpp:399] pool4/3x3_s2_pool4/3x3_s2_0_split -> pool4/3x3_s2_pool4/3x3_s2_0_split_2
I0403 19:31:22.748823 24975 net.cpp:399] pool4/3x3_s2_pool4/3x3_s2_0_split -> pool4/3x3_s2_pool4/3x3_s2_0_split_3
I0403 19:31:22.748936 24975 net.cpp:141] Setting up pool4/3x3_s2_pool4/3x3_s2_0_split
I0403 19:31:22.748965 24975 net.cpp:148] Top shape: 24 832 7 7 (978432)
I0403 19:31:22.748986 24975 net.cpp:148] Top shape: 24 832 7 7 (978432)
I0403 19:31:22.749004 24975 net.cpp:148] Top shape: 24 832 7 7 (978432)
I0403 19:31:22.749025 24975 net.cpp:148] Top shape: 24 832 7 7 (978432)
I0403 19:31:22.749043 24975 net.cpp:156] Memory required for data: 1292125728
I0403 19:31:22.749060 24975 layer_factory.hpp:77] Creating layer inception_5a/1x1
I0403 19:31:22.749089 24975 net.cpp:91] Creating Layer inception_5a/1x1
I0403 19:31:22.749111 24975 net.cpp:425] inception_5a/1x1 <- pool4/3x3_s2_pool4/3x3_s2_0_split_0
I0403 19:31:22.749137 24975 net.cpp:399] inception_5a/1x1 -> inception_5a/1x1
I0403 19:31:22.752652 24975 net.cpp:141] Setting up inception_5a/1x1
I0403 19:31:22.752692 24975 net.cpp:148] Top shape: 24 256 7 7 (301056)
I0403 19:31:22.752712 24975 net.cpp:156] Memory required for data: 1293329952
I0403 19:31:22.752735 24975 layer_factory.hpp:77] Creating layer inception_5a/relu_1x1
I0403 19:31:22.752763 24975 net.cpp:91] Creating Layer inception_5a/relu_1x1
I0403 19:31:22.752785 24975 net.cpp:425] inception_5a/relu_1x1 <- inception_5a/1x1
I0403 19:31:22.752807 24975 net.cpp:386] inception_5a/relu_1x1 -> inception_5a/1x1 (in-place)
I0403 19:31:22.753193 24975 net.cpp:141] Setting up inception_5a/relu_1x1
I0403 19:31:22.753227 24975 net.cpp:148] Top shape: 24 256 7 7 (301056)
I0403 19:31:22.753245 24975 net.cpp:156] Memory required for data: 1294534176
I0403 19:31:22.753273 24975 layer_factory.hpp:77] Creating layer inception_5a/3x3_reduce
I0403 19:31:22.753304 24975 net.cpp:91] Creating Layer inception_5a/3x3_reduce
I0403 19:31:22.753327 24975 net.cpp:425] inception_5a/3x3_reduce <- pool4/3x3_s2_pool4/3x3_s2_0_split_1
I0403 19:31:22.753355 24975 net.cpp:399] inception_5a/3x3_reduce -> inception_5a/3x3_reduce
I0403 19:31:22.756378 24975 net.cpp:141] Setting up inception_5a/3x3_reduce
I0403 19:31:22.756417 24975 net.cpp:148] Top shape: 24 160 7 7 (188160)
I0403 19:31:22.756438 24975 net.cpp:156] Memory required for data: 1295286816
I0403 19:31:22.756460 24975 layer_factory.hpp:77] Creating layer inception_5a/relu_3x3_reduce
I0403 19:31:22.756482 24975 net.cpp:91] Creating Layer inception_5a/relu_3x3_reduce
I0403 19:31:22.756502 24975 net.cpp:425] inception_5a/relu_3x3_reduce <- inception_5a/3x3_reduce
I0403 19:31:22.756526 24975 net.cpp:386] inception_5a/relu_3x3_reduce -> inception_5a/3x3_reduce (in-place)
I0403 19:31:22.756757 24975 net.cpp:141] Setting up inception_5a/relu_3x3_reduce
I0403 19:31:22.756788 24975 net.cpp:148] Top shape: 24 160 7 7 (188160)
I0403 19:31:22.756806 24975 net.cpp:156] Memory required for data: 1296039456
I0403 19:31:22.756824 24975 layer_factory.hpp:77] Creating layer inception_5a/3x3
I0403 19:31:22.756851 24975 net.cpp:91] Creating Layer inception_5a/3x3
I0403 19:31:22.756872 24975 net.cpp:425] inception_5a/3x3 <- inception_5a/3x3_reduce
I0403 19:31:22.756899 24975 net.cpp:399] inception_5a/3x3 -> inception_5a/3x3
I0403 19:31:22.763120 24975 net.cpp:141] Setting up inception_5a/3x3
I0403 19:31:22.763157 24975 net.cpp:148] Top shape: 24 320 7 7 (376320)
I0403 19:31:22.763176 24975 net.cpp:156] Memory required for data: 1297544736
I0403 19:31:22.763200 24975 layer_factory.hpp:77] Creating layer inception_5a/relu_3x3
I0403 19:31:22.763224 24975 net.cpp:91] Creating Layer inception_5a/relu_3x3
I0403 19:31:22.763245 24975 net.cpp:425] inception_5a/relu_3x3 <- inception_5a/3x3
I0403 19:31:22.763275 24975 net.cpp:386] inception_5a/relu_3x3 -> inception_5a/3x3 (in-place)
I0403 19:31:22.763631 24975 net.cpp:141] Setting up inception_5a/relu_3x3
I0403 19:31:22.763664 24975 net.cpp:148] Top shape: 24 320 7 7 (376320)
I0403 19:31:22.763684 24975 net.cpp:156] Memory required for data: 1299050016
I0403 19:31:22.763700 24975 layer_factory.hpp:77] Creating layer inception_5a/5x5_reduce
I0403 19:31:22.763727 24975 net.cpp:91] Creating Layer inception_5a/5x5_reduce
I0403 19:31:22.763749 24975 net.cpp:425] inception_5a/5x5_reduce <- pool4/3x3_s2_pool4/3x3_s2_0_split_2
I0403 19:31:22.763777 24975 net.cpp:399] inception_5a/5x5_reduce -> inception_5a/5x5_reduce
I0403 19:31:22.765239 24975 net.cpp:141] Setting up inception_5a/5x5_reduce
I0403 19:31:22.765281 24975 net.cpp:148] Top shape: 24 32 7 7 (37632)
I0403 19:31:22.765301 24975 net.cpp:156] Memory required for data: 1299200544
I0403 19:31:22.765323 24975 layer_factory.hpp:77] Creating layer inception_5a/relu_5x5_reduce
I0403 19:31:22.765348 24975 net.cpp:91] Creating Layer inception_5a/relu_5x5_reduce
I0403 19:31:22.765369 24975 net.cpp:425] inception_5a/relu_5x5_reduce <- inception_5a/5x5_reduce
I0403 19:31:22.765390 24975 net.cpp:386] inception_5a/relu_5x5_reduce -> inception_5a/5x5_reduce (in-place)
I0403 19:31:22.765755 24975 net.cpp:141] Setting up inception_5a/relu_5x5_reduce
I0403 19:31:22.765787 24975 net.cpp:148] Top shape: 24 32 7 7 (37632)
I0403 19:31:22.765806 24975 net.cpp:156] Memory required for data: 1299351072
I0403 19:31:22.765823 24975 layer_factory.hpp:77] Creating layer inception_5a/5x5
I0403 19:31:22.765851 24975 net.cpp:91] Creating Layer inception_5a/5x5
I0403 19:31:22.765872 24975 net.cpp:425] inception_5a/5x5 <- inception_5a/5x5_reduce
I0403 19:31:22.765899 24975 net.cpp:399] inception_5a/5x5 -> inception_5a/5x5
I0403 19:31:22.768024 24975 net.cpp:141] Setting up inception_5a/5x5
I0403 19:31:22.768072 24975 net.cpp:148] Top shape: 24 128 7 7 (150528)
I0403 19:31:22.768092 24975 net.cpp:156] Memory required for data: 1299953184
I0403 19:31:22.768115 24975 layer_factory.hpp:77] Creating layer inception_5a/relu_5x5
I0403 19:31:22.768141 24975 net.cpp:91] Creating Layer inception_5a/relu_5x5
I0403 19:31:22.768162 24975 net.cpp:425] inception_5a/relu_5x5 <- inception_5a/5x5
I0403 19:31:22.768182 24975 net.cpp:386] inception_5a/relu_5x5 -> inception_5a/5x5 (in-place)
I0403 19:31:22.768424 24975 net.cpp:141] Setting up inception_5a/relu_5x5
I0403 19:31:22.768455 24975 net.cpp:148] Top shape: 24 128 7 7 (150528)
I0403 19:31:22.768474 24975 net.cpp:156] Memory required for data: 1300555296
I0403 19:31:22.768491 24975 layer_factory.hpp:77] Creating layer inception_5a/pool
I0403 19:31:22.768515 24975 net.cpp:91] Creating Layer inception_5a/pool
I0403 19:31:22.768537 24975 net.cpp:425] inception_5a/pool <- pool4/3x3_s2_pool4/3x3_s2_0_split_3
I0403 19:31:22.768558 24975 net.cpp:399] inception_5a/pool -> inception_5a/pool
I0403 19:31:22.768647 24975 net.cpp:141] Setting up inception_5a/pool
I0403 19:31:22.768676 24975 net.cpp:148] Top shape: 24 832 7 7 (978432)
I0403 19:31:22.768693 24975 net.cpp:156] Memory required for data: 1304469024
I0403 19:31:22.768712 24975 layer_factory.hpp:77] Creating layer inception_5a/pool_proj
I0403 19:31:22.768738 24975 net.cpp:91] Creating Layer inception_5a/pool_proj
I0403 19:31:22.768759 24975 net.cpp:425] inception_5a/pool_proj <- inception_5a/pool
I0403 19:31:22.768784 24975 net.cpp:399] inception_5a/pool_proj -> inception_5a/pool_proj
I0403 19:31:22.771571 24975 net.cpp:141] Setting up inception_5a/pool_proj
I0403 19:31:22.771607 24975 net.cpp:148] Top shape: 24 128 7 7 (150528)
I0403 19:31:22.771627 24975 net.cpp:156] Memory required for data: 1305071136
I0403 19:31:22.771651 24975 layer_factory.hpp:77] Creating layer inception_5a/relu_pool_proj
I0403 19:31:22.771672 24975 net.cpp:91] Creating Layer inception_5a/relu_pool_proj
I0403 19:31:22.771692 24975 net.cpp:425] inception_5a/relu_pool_proj <- inception_5a/pool_proj
I0403 19:31:22.771716 24975 net.cpp:386] inception_5a/relu_pool_proj -> inception_5a/pool_proj (in-place)
I0403 19:31:22.772079 24975 net.cpp:141] Setting up inception_5a/relu_pool_proj
I0403 19:31:22.772112 24975 net.cpp:148] Top shape: 24 128 7 7 (150528)
I0403 19:31:22.772130 24975 net.cpp:156] Memory required for data: 1305673248
I0403 19:31:22.772148 24975 layer_factory.hpp:77] Creating layer inception_5a/output
I0403 19:31:22.772169 24975 net.cpp:91] Creating Layer inception_5a/output
I0403 19:31:22.772189 24975 net.cpp:425] inception_5a/output <- inception_5a/1x1
I0403 19:31:22.772209 24975 net.cpp:425] inception_5a/output <- inception_5a/3x3
I0403 19:31:22.772229 24975 net.cpp:425] inception_5a/output <- inception_5a/5x5
I0403 19:31:22.772249 24975 net.cpp:425] inception_5a/output <- inception_5a/pool_proj
I0403 19:31:22.772280 24975 net.cpp:399] inception_5a/output -> inception_5a/output
I0403 19:31:22.772343 24975 net.cpp:141] Setting up inception_5a/output
I0403 19:31:22.772377 24975 net.cpp:148] Top shape: 24 832 7 7 (978432)
I0403 19:31:22.772394 24975 net.cpp:156] Memory required for data: 1309586976
I0403 19:31:22.772413 24975 layer_factory.hpp:77] Creating layer inception_5a/output_inception_5a/output_0_split
I0403 19:31:22.772433 24975 net.cpp:91] Creating Layer inception_5a/output_inception_5a/output_0_split
I0403 19:31:22.772452 24975 net.cpp:425] inception_5a/output_inception_5a/output_0_split <- inception_5a/output
I0403 19:31:22.772474 24975 net.cpp:399] inception_5a/output_inception_5a/output_0_split -> inception_5a/output_inception_5a/output_0_split_0
I0403 19:31:22.772497 24975 net.cpp:399] inception_5a/output_inception_5a/output_0_split -> inception_5a/output_inception_5a/output_0_split_1
I0403 19:31:22.772524 24975 net.cpp:399] inception_5a/output_inception_5a/output_0_split -> inception_5a/output_inception_5a/output_0_split_2
I0403 19:31:22.772550 24975 net.cpp:399] inception_5a/output_inception_5a/output_0_split -> inception_5a/output_inception_5a/output_0_split_3
I0403 19:31:22.772689 24975 net.cpp:141] Setting up inception_5a/output_inception_5a/output_0_split
I0403 19:31:22.772719 24975 net.cpp:148] Top shape: 24 832 7 7 (978432)
I0403 19:31:22.772738 24975 net.cpp:148] Top shape: 24 832 7 7 (978432)
I0403 19:31:22.772758 24975 net.cpp:148] Top shape: 24 832 7 7 (978432)
I0403 19:31:22.772775 24975 net.cpp:148] Top shape: 24 832 7 7 (978432)
I0403 19:31:22.772790 24975 net.cpp:156] Memory required for data: 1325241888
I0403 19:31:22.772809 24975 layer_factory.hpp:77] Creating layer inception_5b/1x1
I0403 19:31:22.772835 24975 net.cpp:91] Creating Layer inception_5b/1x1
I0403 19:31:22.772856 24975 net.cpp:425] inception_5b/1x1 <- inception_5a/output_inception_5a/output_0_split_0
I0403 19:31:22.772881 24975 net.cpp:399] inception_5b/1x1 -> inception_5b/1x1
I0403 19:31:22.777523 24975 net.cpp:141] Setting up inception_5b/1x1
I0403 19:31:22.777567 24975 net.cpp:148] Top shape: 24 384 7 7 (451584)
I0403 19:31:22.777588 24975 net.cpp:156] Memory required for data: 1327048224
I0403 19:31:22.777611 24975 layer_factory.hpp:77] Creating layer inception_5b/relu_1x1
I0403 19:31:22.777636 24975 net.cpp:91] Creating Layer inception_5b/relu_1x1
I0403 19:31:22.777655 24975 net.cpp:425] inception_5b/relu_1x1 <- inception_5b/1x1
I0403 19:31:22.777678 24975 net.cpp:386] inception_5b/relu_1x1 -> inception_5b/1x1 (in-place)
I0403 19:31:22.778046 24975 net.cpp:141] Setting up inception_5b/relu_1x1
I0403 19:31:22.778081 24975 net.cpp:148] Top shape: 24 384 7 7 (451584)
I0403 19:31:22.778100 24975 net.cpp:156] Memory required for data: 1328854560
I0403 19:31:22.778120 24975 layer_factory.hpp:77] Creating layer inception_5b/3x3_reduce
I0403 19:31:22.778147 24975 net.cpp:91] Creating Layer inception_5b/3x3_reduce
I0403 19:31:22.778169 24975 net.cpp:425] inception_5b/3x3_reduce <- inception_5a/output_inception_5a/output_0_split_1
I0403 19:31:22.778193 24975 net.cpp:399] inception_5b/3x3_reduce -> inception_5b/3x3_reduce
I0403 19:31:22.781478 24975 net.cpp:141] Setting up inception_5b/3x3_reduce
I0403 19:31:22.781514 24975 net.cpp:148] Top shape: 24 192 7 7 (225792)
I0403 19:31:22.781534 24975 net.cpp:156] Memory required for data: 1329757728
I0403 19:31:22.781558 24975 layer_factory.hpp:77] Creating layer inception_5b/relu_3x3_reduce
I0403 19:31:22.781580 24975 net.cpp:91] Creating Layer inception_5b/relu_3x3_reduce
I0403 19:31:22.781600 24975 net.cpp:425] inception_5b/relu_3x3_reduce <- inception_5b/3x3_reduce
I0403 19:31:22.781625 24975 net.cpp:386] inception_5b/relu_3x3_reduce -> inception_5b/3x3_reduce (in-place)
I0403 19:31:22.781862 24975 net.cpp:141] Setting up inception_5b/relu_3x3_reduce
I0403 19:31:22.781894 24975 net.cpp:148] Top shape: 24 192 7 7 (225792)
I0403 19:31:22.781913 24975 net.cpp:156] Memory required for data: 1330660896
I0403 19:31:22.781931 24975 layer_factory.hpp:77] Creating layer inception_5b/3x3
I0403 19:31:22.781961 24975 net.cpp:91] Creating Layer inception_5b/3x3
I0403 19:31:22.781983 24975 net.cpp:425] inception_5b/3x3 <- inception_5b/3x3_reduce
I0403 19:31:22.782009 24975 net.cpp:399] inception_5b/3x3 -> inception_5b/3x3
I0403 19:31:22.790411 24975 net.cpp:141] Setting up inception_5b/3x3
I0403 19:31:22.790447 24975 net.cpp:148] Top shape: 24 384 7 7 (451584)
I0403 19:31:22.790467 24975 net.cpp:156] Memory required for data: 1332467232
I0403 19:31:22.790489 24975 layer_factory.hpp:77] Creating layer inception_5b/relu_3x3
I0403 19:31:22.790513 24975 net.cpp:91] Creating Layer inception_5b/relu_3x3
I0403 19:31:22.790534 24975 net.cpp:425] inception_5b/relu_3x3 <- inception_5b/3x3
I0403 19:31:22.790558 24975 net.cpp:386] inception_5b/relu_3x3 -> inception_5b/3x3 (in-place)
I0403 19:31:22.790925 24975 net.cpp:141] Setting up inception_5b/relu_3x3
I0403 19:31:22.790957 24975 net.cpp:148] Top shape: 24 384 7 7 (451584)
I0403 19:31:22.790977 24975 net.cpp:156] Memory required for data: 1334273568
I0403 19:31:22.790995 24975 layer_factory.hpp:77] Creating layer inception_5b/5x5_reduce
I0403 19:31:22.791043 24975 net.cpp:91] Creating Layer inception_5b/5x5_reduce
I0403 19:31:22.791067 24975 net.cpp:425] inception_5b/5x5_reduce <- inception_5a/output_inception_5a/output_0_split_2
I0403 19:31:22.791096 24975 net.cpp:399] inception_5b/5x5_reduce -> inception_5b/5x5_reduce
I0403 19:31:22.792690 24975 net.cpp:141] Setting up inception_5b/5x5_reduce
I0403 19:31:22.792724 24975 net.cpp:148] Top shape: 24 48 7 7 (56448)
I0403 19:31:22.792743 24975 net.cpp:156] Memory required for data: 1334499360
I0403 19:31:22.792765 24975 layer_factory.hpp:77] Creating layer inception_5b/relu_5x5_reduce
I0403 19:31:22.792788 24975 net.cpp:91] Creating Layer inception_5b/relu_5x5_reduce
I0403 19:31:22.792809 24975 net.cpp:425] inception_5b/relu_5x5_reduce <- inception_5b/5x5_reduce
I0403 19:31:22.792834 24975 net.cpp:386] inception_5b/relu_5x5_reduce -> inception_5b/5x5_reduce (in-place)
I0403 19:31:22.793298 24975 net.cpp:141] Setting up inception_5b/relu_5x5_reduce
I0403 19:31:22.793330 24975 net.cpp:148] Top shape: 24 48 7 7 (56448)
I0403 19:31:22.793349 24975 net.cpp:156] Memory required for data: 1334725152
I0403 19:31:22.793367 24975 layer_factory.hpp:77] Creating layer inception_5b/5x5
I0403 19:31:22.793393 24975 net.cpp:91] Creating Layer inception_5b/5x5
I0403 19:31:22.793416 24975 net.cpp:425] inception_5b/5x5 <- inception_5b/5x5_reduce
I0403 19:31:22.793437 24975 net.cpp:399] inception_5b/5x5 -> inception_5b/5x5
I0403 19:31:22.795977 24975 net.cpp:141] Setting up inception_5b/5x5
I0403 19:31:22.796011 24975 net.cpp:148] Top shape: 24 128 7 7 (150528)
I0403 19:31:22.796031 24975 net.cpp:156] Memory required for data: 1335327264
I0403 19:31:22.796054 24975 layer_factory.hpp:77] Creating layer inception_5b/relu_5x5
I0403 19:31:22.796080 24975 net.cpp:91] Creating Layer inception_5b/relu_5x5
I0403 19:31:22.796103 24975 net.cpp:425] inception_5b/relu_5x5 <- inception_5b/5x5
I0403 19:31:22.796125 24975 net.cpp:386] inception_5b/relu_5x5 -> inception_5b/5x5 (in-place)
I0403 19:31:22.796370 24975 net.cpp:141] Setting up inception_5b/relu_5x5
I0403 19:31:22.796404 24975 net.cpp:148] Top shape: 24 128 7 7 (150528)
I0403 19:31:22.796424 24975 net.cpp:156] Memory required for data: 1335929376
I0403 19:31:22.796443 24975 layer_factory.hpp:77] Creating layer inception_5b/pool
I0403 19:31:22.796464 24975 net.cpp:91] Creating Layer inception_5b/pool
I0403 19:31:22.796484 24975 net.cpp:425] inception_5b/pool <- inception_5a/output_inception_5a/output_0_split_3
I0403 19:31:22.796506 24975 net.cpp:399] inception_5b/pool -> inception_5b/pool
I0403 19:31:22.796598 24975 net.cpp:141] Setting up inception_5b/pool
I0403 19:31:22.796628 24975 net.cpp:148] Top shape: 24 832 7 7 (978432)
I0403 19:31:22.796646 24975 net.cpp:156] Memory required for data: 1339843104
I0403 19:31:22.796664 24975 layer_factory.hpp:77] Creating layer inception_5b/pool_proj
I0403 19:31:22.796691 24975 net.cpp:91] Creating Layer inception_5b/pool_proj
I0403 19:31:22.796713 24975 net.cpp:425] inception_5b/pool_proj <- inception_5b/pool
I0403 19:31:22.796739 24975 net.cpp:399] inception_5b/pool_proj -> inception_5b/pool_proj
I0403 19:31:22.799582 24975 net.cpp:141] Setting up inception_5b/pool_proj
I0403 19:31:22.799619 24975 net.cpp:148] Top shape: 24 128 7 7 (150528)
I0403 19:31:22.799638 24975 net.cpp:156] Memory required for data: 1340445216
I0403 19:31:22.799661 24975 layer_factory.hpp:77] Creating layer inception_5b/relu_pool_proj
I0403 19:31:22.799684 24975 net.cpp:91] Creating Layer inception_5b/relu_pool_proj
I0403 19:31:22.799707 24975 net.cpp:425] inception_5b/relu_pool_proj <- inception_5b/pool_proj
I0403 19:31:22.799729 24975 net.cpp:386] inception_5b/relu_pool_proj -> inception_5b/pool_proj (in-place)
I0403 19:31:22.800091 24975 net.cpp:141] Setting up inception_5b/relu_pool_proj
I0403 19:31:22.800122 24975 net.cpp:148] Top shape: 24 128 7 7 (150528)
I0403 19:31:22.800140 24975 net.cpp:156] Memory required for data: 1341047328
I0403 19:31:22.800158 24975 layer_factory.hpp:77] Creating layer inception_5b/output
I0403 19:31:22.800180 24975 net.cpp:91] Creating Layer inception_5b/output
I0403 19:31:22.800218 24975 net.cpp:425] inception_5b/output <- inception_5b/1x1
I0403 19:31:22.800240 24975 net.cpp:425] inception_5b/output <- inception_5b/3x3
I0403 19:31:22.800267 24975 net.cpp:425] inception_5b/output <- inception_5b/5x5
I0403 19:31:22.800289 24975 net.cpp:425] inception_5b/output <- inception_5b/pool_proj
I0403 19:31:22.800314 24975 net.cpp:399] inception_5b/output -> inception_5b/output
I0403 19:31:22.800379 24975 net.cpp:141] Setting up inception_5b/output
I0403 19:31:22.800411 24975 net.cpp:148] Top shape: 24 1024 7 7 (1204224)
I0403 19:31:22.800431 24975 net.cpp:156] Memory required for data: 1345864224
I0403 19:31:22.800448 24975 layer_factory.hpp:77] Creating layer pool5/7x7_s1
I0403 19:31:22.800470 24975 net.cpp:91] Creating Layer pool5/7x7_s1
I0403 19:31:22.800489 24975 net.cpp:425] pool5/7x7_s1 <- inception_5b/output
I0403 19:31:22.800515 24975 net.cpp:399] pool5/7x7_s1 -> pool5/7x7_s1
I0403 19:31:22.800784 24975 net.cpp:141] Setting up pool5/7x7_s1
I0403 19:31:22.800817 24975 net.cpp:148] Top shape: 24 1024 1 1 (24576)
I0403 19:31:22.800835 24975 net.cpp:156] Memory required for data: 1345962528
I0403 19:31:22.800853 24975 layer_factory.hpp:77] Creating layer pool5/drop_7x7_s1
I0403 19:31:22.800875 24975 net.cpp:91] Creating Layer pool5/drop_7x7_s1
I0403 19:31:22.800899 24975 net.cpp:425] pool5/drop_7x7_s1 <- pool5/7x7_s1
I0403 19:31:22.800920 24975 net.cpp:386] pool5/drop_7x7_s1 -> pool5/7x7_s1 (in-place)
I0403 19:31:22.800983 24975 net.cpp:141] Setting up pool5/drop_7x7_s1
I0403 19:31:22.801015 24975 net.cpp:148] Top shape: 24 1024 1 1 (24576)
I0403 19:31:22.801033 24975 net.cpp:156] Memory required for data: 1346060832
I0403 19:31:22.801051 24975 layer_factory.hpp:77] Creating layer loss3/classifier_plantvillage
I0403 19:31:22.801074 24975 net.cpp:91] Creating Layer loss3/classifier_plantvillage
I0403 19:31:22.801093 24975 net.cpp:425] loss3/classifier_plantvillage <- pool5/7x7_s1
I0403 19:31:22.801123 24975 net.cpp:399] loss3/classifier_plantvillage -> loss3/classifier_plantvillage
I0403 19:31:22.801661 24975 net.cpp:141] Setting up loss3/classifier_plantvillage
I0403 19:31:22.801695 24975 net.cpp:148] Top shape: 24 38 (912)
I0403 19:31:22.801714 24975 net.cpp:156] Memory required for data: 1346064480
I0403 19:31:22.801736 24975 layer_factory.hpp:77] Creating layer loss3/classifier_plantvillage_loss3/classifier_plantvillage_0_split
I0403 19:31:22.801759 24975 net.cpp:91] Creating Layer loss3/classifier_plantvillage_loss3/classifier_plantvillage_0_split
I0403 19:31:22.801779 24975 net.cpp:425] loss3/classifier_plantvillage_loss3/classifier_plantvillage_0_split <- loss3/classifier_plantvillage
I0403 19:31:22.801800 24975 net.cpp:399] loss3/classifier_plantvillage_loss3/classifier_plantvillage_0_split -> loss3/classifier_plantvillage_loss3/classifier_plantvillage_0_split_0
I0403 19:31:22.801826 24975 net.cpp:399] loss3/classifier_plantvillage_loss3/classifier_plantvillage_0_split -> loss3/classifier_plantvillage_loss3/classifier_plantvillage_0_split_1
I0403 19:31:22.801856 24975 net.cpp:399] loss3/classifier_plantvillage_loss3/classifier_plantvillage_0_split -> loss3/classifier_plantvillage_loss3/classifier_plantvillage_0_split_2
I0403 19:31:22.801882 24975 net.cpp:399] loss3/classifier_plantvillage_loss3/classifier_plantvillage_0_split -> loss3/classifier_plantvillage_loss3/classifier_plantvillage_0_split_3
I0403 19:31:22.802011 24975 net.cpp:141] Setting up loss3/classifier_plantvillage_loss3/classifier_plantvillage_0_split
I0403 19:31:22.802040 24975 net.cpp:148] Top shape: 24 38 (912)
I0403 19:31:22.802059 24975 net.cpp:148] Top shape: 24 38 (912)
I0403 19:31:22.802078 24975 net.cpp:148] Top shape: 24 38 (912)
I0403 19:31:22.802096 24975 net.cpp:148] Top shape: 24 38 (912)
I0403 19:31:22.802112 24975 net.cpp:156] Memory required for data: 1346079072
I0403 19:31:22.802129 24975 layer_factory.hpp:77] Creating layer loss1/loss
I0403 19:31:22.802161 24975 net.cpp:91] Creating Layer loss1/loss
I0403 19:31:22.802182 24975 net.cpp:425] loss1/loss <- loss1/classifier_plantvillage_loss1/classifier_plantvillage_0_split_0
I0403 19:31:22.802222 24975 net.cpp:425] loss1/loss <- label_data_1_split_0
…
