…
I0403 19:40:02.625258 25475 net.cpp:313] The NetState phase (1) differed from the phase (0) specified by a rule in layer data
I0403 19:40:02.626446 25475 net.cpp:49] Initializing net from parameters: 
state {
  phase: TEST
}
layer {
  name: "data"
  type: "Data"
  top: "data"
  top: "label"
  include {
    phase: TEST
  }
  transform_param {
    mirror: false
    crop_size: 224
    mean_file: "/home/mohanty/data/final_dataset/lmdb/grayscale-80-20/mean.binaryproto"
  }
  data_param {
    source: "/home/mohanty/data/final_dataset/lmdb/grayscale-80-20/test_db"
    batch_size: 24
    backend: LMDB
  }
}
layer {
  name: "conv1/7x7_s2"
  type: "Convolution"
  bottom: "data"
  top: "conv1/7x7_s2"
  param {
    lr_mult: 1
    decay_mult: 1
  }
  param {
    lr_mult: 2
    decay_mult: 0
  }
  convolution_param {
    num_output: 64
    pad: 3
    kernel_size: 7
    stride: 2
    weight_filler {
      type: "xavier"
      std: 0.1
    }
    bias_filler {
      type: "constant"
      value: 0.2
    }
  }
}
layer {
  name: "conv1/relu_7x7"
  type: "ReLU"
  bottom: "conv1/7x7_s2"
  top: "conv1/7x7_s2"
}
layer {
  name: "pool1/3x3_s2"
  type: "Pooling"
  bottom: "conv1/7x7_s2"
  top: "pool1/3x3_s2"
  pooling_param {
    pool: MAX
    kernel_size: 3
    stride: 2
  }
}
layer {
  name: "pool1/norm1"
  type: "LRN"
  bottom: "pool1/3x3_s2"
  top: "pool1/norm1"
  lrn_param {
    local_size: 5
    alpha: 0.0001
    beta: 0.75
  }
}
layer {
  name: "conv2/3x3_reduce"
  type: "Convolution"
  bottom: "pool1/norm1"
  top: "conv2/3x3_reduce"
  param {
    lr_mult: 1
    decay_mult: 1
  }
  param {
    lr_mult: 2
    decay_mult: 0
  }
  convolution_param {
    num_output: 64
    kernel_size: 1
    weight_filler {
      type: "xavier"
      std: 0.1
    }
    bias_filler {
      type: "constant"
      value: 0.2
    }
  }
}
layer {
  name: "conv2/relu_3x3_reduce"
  type: "ReLU"
  bottom: "conv2/3x3_reduce"
  top: "conv2/3x3_reduce"
}
layer {
  name: "conv2/3x3"
  type: "Convolution"
  bottom: "conv2/3x3_reduce"
  top: "conv2/3x3"
  param {
    lr_mult: 1
    decay_mult: 1
  }
  param {
    lr_mult: 2
    decay_mult: 0
  }
  convolution_param {
    num_output: 192
    pad: 1
    kernel_size: 3
    weight_filler {
      type: "xavier"
      std: 0.03
    }
    bias_filler {
      type: "constant"
      value: 0.2
    }
  }
}
layer {
  name: "conv2/relu_3x3"
  type: "ReLU"
  bottom: "conv2/3x3"
  top: "conv2/3x3"
}
layer {
  name: "conv2/norm2"
  type: "LRN"
  bottom: "conv2/3x3"
  top: "conv2/norm2"
  lrn_param {
    local_size: 5
    alpha: 0.0001
    beta: 0.75
  }
}
layer {
  name: "pool2/3x3_s2"
  type: "Pooling"
  bottom: "conv2/norm2"
  top: "pool2/3x3_s2"
  pooling_param {
    pool: MAX
    kernel_size: 3
    stride: 2
  }
}
layer {
  name: "inception_3a/1x1"
  type: "Convolution"
  bottom: "pool2/3x3_s2"
  top: "inception_3a/1x1"
  param {
    lr_mult: 1
    decay_mult: 1
  }
  param {
    lr_mult: 2
    decay_mult: 0
  }
  convolution_param {
    num_output: 64
    kernel_size: 1
    weight_filler {
      type: "xavier"
      std: 0.03
    }
    bias_filler {
      type: "constant"
      value: 0.2
    }
  }
}
layer {
  name: "inception_3a/relu_1x1"
  type: "ReLU"
  bottom: "inception_3a/1x1"
  top: "inception_3a/1x1"
}
layer {
  name: "inception_3a/3x3_reduce"
  type: "Convolution"
  bottom: "pool2/3x3_s2"
  top: "inception_3a/3x3_reduce"
  param {
    lr_mult: 1
    decay_mult: 1
  }
  param {
    lr_mult: 2
    decay_mult: 0
  }
  convolution_param {
    num_output: 96
    kernel_size: 1
    weight_filler {
      type: "xavier"
      std: 0.09
    }
    bias_filler {
      type: "constant"
      value: 0.2
    }
  }
}
layer {
  name: "inception_3a/relu_3x3_reduce"
  type: "ReLU"
  bottom: "inception_3a/3x3_reduce"
  top: "inception_3a/3x3_reduce"
}
layer {
  name: "inception_3a/3x3"
  type: "Convolution"
  bottom: "inception_3a/3x3_reduce"
  top: "inception_3a/3x3"
  param {
    lr_mult: 1
    decay_mult: 1
  }
  param {
    lr_mult: 2
    decay_mult: 0
  }
  convolution_param {
    num_output: 128
    pad: 1
    kernel_size: 3
    weight_filler {
      type: "xavier"
      std: 0.03
    }
    bias_filler {
      type: "constant"
      value: 0.2
    }
  }
}
layer {
  name: "inception_3a/relu_3x3"
  type: "ReLU"
  bottom: "inception_3a/3x3"
  top: "inception_3a/3x3"
}
layer {
  name: "inception_3a/5x5_reduce"
  type: "Convolution"
  bottom: "pool2/3x3_s2"
  top: "inception_3a/5x5_reduce"
  param {
    lr_mult: 1
    decay_mult: 1
  }
  param {
    lr_mult: 2
    decay_mult: 0
  }
  convolution_param {
    num_output: 16
    kernel_size: 1
    weight_filler {
      type: "xavier"
      std: 0.2
    }
    bias_filler {
      type: "constant"
      value: 0.2
    }
  }
}
layer {
  name: "inception_3a/relu_5x5_reduce"
  type: "ReLU"
  bottom: "inception_3a/5x5_reduce"
  top: "inception_3a/5x5_reduce"
}
layer {
  name: "inception_3a/5x5"
  type: "Convolution"
  bottom: "inception_3a/5x5_reduce"
  top: "inception_3a/5x5"
  param {
    lr_mult: 1
    decay_mult: 1
  }
  param {
    lr_mult: 2
    decay_mult: 0
  }
  convolution_param {
    num_output: 32
    pad: 2
    kernel_size: 5
    weight_filler {
      type: "xavier"
      std: 0.03
    }
    bias_filler {
      type: "constant"
      value: 0.2
    }
  }
}
layer {
  name: "inception_3a/relu_5x5"
  type: "ReLU"
  bottom: "inception_3a/5x5"
  top: "inception_3a/5x5"
}
layer {
  name: "inception_3a/pool"
  type: "Pooling"
  bottom: "pool2/3x3_s2"
  top: "inception_3a/pool"
  pooling_param {
    pool: MAX
    kernel_size: 3
    stride: 1
    pad: 1
  }
}
layer {
  name: "inception_3a/pool_proj"
  type: "Convolution"
  bottom: "inception_3a/pool"
  top: "inception_3a/pool_proj"
  param {
    lr_mult: 1
    decay_mult: 1
  }
  param {
    lr_mult: 2
    decay_mult: 0
  }
  convolution_param {
    num_output: 32
    kernel_size: 1
    weight_filler {
      type: "xavier"
      std: 0.1
    }
    bias_filler {
      type: "constant"
      value: 0.2
    }
  }
}
layer {
  name: "inception_3a/relu_pool_proj"
  type: "ReLU"
  bottom: "inception_3a/pool_proj"
  top: "inception_3a/pool_proj"
}
layer {
  name: "inception_3a/output"
  type: "Concat"
  bottom: "inception_3a/1x1"
  bottom: "inception_3a/3x3"
  bottom: "inception_3a/5x5"
  bottom: "inception_3a/pool_proj"
  top: "inception_3a/output"
}
layer {
  name: "inception_3b/1x1"
  type: "Convolution"
  bottom: "inception_3a/output"
  top: "inception_3b/1x1"
  param {
    lr_mult: 1
    decay_mult: 1
  }
  param {
    lr_mult: 2
    decay_mult: 0
  }
  convolution_param {
    num_output: 128
    kernel_size: 1
    weight_filler {
      type: "xavier"
      std: 0.03
    }
    bias_filler {
      type: "constant"
      value: 0.2
    }
  }
}
layer {
  name: "inception_3b/relu_1x1"
  type: "ReLU"
  bottom: "inception_3b/1x1"
  top: "inception_3b/1x1"
}
layer {
  name: "inception_3b/3x3_reduce"
  type: "Convolution"
  bottom: "inception_3a/output"
  top: "inception_3b/3x3_reduce"
  param {
    lr_mult: 1
    decay_mult: 1
  }
  param {
    lr_mult: 2
    decay_mult: 0
  }
  convolution_param {
    num_output: 128
    kernel_size: 1
    weight_filler {
      type: "xavier"
      std: 0.09
    }
    bias_filler {
      type: "constant"
      value: 0.2
    }
  }
}
layer {
  name: "inception_3b/relu_3x3_reduce"
  type: "ReLU"
  bottom: "inception_3b/3x3_reduce"
  top: "inception_3b/3x3_reduce"
}
layer {
  name: "inception_3b/3x3"
  type: "Convolution"
  bottom: "inception_3b/3x3_reduce"
  top: "inception_3b/3x3"
  param {
    lr_mult: 1
    decay_mult: 1
  }
  param {
    lr_mult: 2
    decay_mult: 0
  }
  convolution_param {
    num_output: 192
    pad: 1
    kernel_size: 3
    weight_filler {
      type: "xavier"
      std: 0.03
    }
    bias_filler {
      type: "constant"
      value: 0.2
    }
  }
}
layer {
  name: "inception_3b/relu_3x3"
  type: "ReLU"
  bottom: "inception_3b/3x3"
  top: "inception_3b/3x3"
}
layer {
  name: "inception_3b/5x5_reduce"
  type: "Convolution"
  bottom: "inception_3a/output"
  top: "inception_3b/5x5_reduce"
  param {
    lr_mult: 1
    decay_mult: 1
  }
  param {
    lr_mult: 2
    decay_mult: 0
  }
  convolution_param {
    num_output: 32
    kernel_size: 1
    weight_filler {
      type: "xavier"
      std: 0.2
    }
    bias_filler {
      type: "constant"
      value: 0.2
    }
  }
}
layer {
  name: "inception_3b/relu_5x5_reduce"
  type: "ReLU"
  bottom: "inception_3b/5x5_reduce"
  top: "inception_3b/5x5_reduce"
}
layer {
  name: "inception_3b/5x5"
  type: "Convolution"
  bottom: "inception_3b/5x5_reduce"
  top: "inception_3b/5x5"
  param {
    lr_mult: 1
    decay_mult: 1
  }
  param {
    lr_mult: 2
    decay_mult: 0
  }
  convolution_param {
    num_output: 96
    pad: 2
    kernel_size: 5
    weight_filler {
      type: "xavier"
      std: 0.03
    }
    bias_filler {
      type: "constant"
      value: 0.2
    }
  }
}
layer {
  name: "inception_3b/relu_5x5"
  type: "ReLU"
  bottom: "inception_3b/5x5"
  top: "inception_3b/5x5"
}
layer {
  name: "inception_3b/pool"
  type: "Pooling"
  bottom: "inception_3a/output"
  top: "inception_3b/pool"
  pooling_param {
    pool: MAX
    kernel_size: 3
    stride: 1
    pad: 1
  }
}
layer {
  name: "inception_3b/pool_proj"
  type: "Convolution"
  bottom: "inception_3b/pool"
  top: "inception_3b/pool_proj"
  param {
    lr_mult: 1
    decay_mult: 1
  }
  param {
    lr_mult: 2
    decay_mult: 0
  }
  convolution_param {
    num_output: 64
    kernel_size: 1
    weight_filler {
      type: "xavier"
      std: 0.1
    }
    bias_filler {
      type: "constant"
      value: 0.2
    }
  }
}
layer {
  name: "inception_3b/relu_pool_proj"
  type: "ReLU"
  bottom: "inception_3b/pool_proj"
  top: "inception_3b/pool_proj"
}
layer {
  name: "inception_3b/output"
  type: "Concat"
  bottom: "inception_3b/1x1"
  bottom: "inception_3b/3x3"
  bottom: "inception_3b/5x5"
  bottom: "inception_3b/pool_proj"
  top: "inception_3b/output"
}
layer {
  name: "pool3/3x3_s2"
  type: "Pooling"
  bottom: "inception_3b/output"
  top: "pool3/3x3_s2"
  pooling_param {
    pool: MAX
    kernel_size: 3
    stride: 2
  }
}
layer {
  name: "inception_4a/1x1"
  type: "Convolution"
  bottom: "pool3/3x3_s2"
  top: "inception_4a/1x1"
  param {
    lr_mult: 1
    decay_mult: 1
  }
  param {
    lr_mult: 2
    decay_mult: 0
  }
  convolution_param {
    num_output: 192
    kernel_size: 1
    weight_filler {
      type: "xavier"
      std: 0.03
    }
    bias_filler {
      type: "constant"
      value: 0.2
    }
  }
}
layer {
  name: "inception_4a/relu_1x1"
  type: "ReLU"
  bottom: "inception_4a/1x1"
  top: "inception_4a/1x1"
}
layer {
  name: "inception_4a/3x3_reduce"
  type: "Convolution"
  bottom: "pool3/3x3_s2"
  top: "inception_4a/3x3_reduce"
  param {
    lr_mult: 1
    decay_mult: 1
  }
  param {
    lr_mult: 2
    decay_mult: 0
  }
  convolution_param {
    num_output: 96
    kernel_size: 1
    weight_filler {
      type: "xavier"
      std: 0.09
    }
    bias_filler {
      type: "constant"
      value: 0.2
    }
  }
}
layer {
  name: "inception_4a/relu_3x3_reduce"
  type: "ReLU"
  bottom: "inception_4a/3x3_reduce"
  top: "inception_4a/3x3_reduce"
}
layer {
  name: "inception_4a/3x3"
  type: "Convolution"
  bottom: "inception_4a/3x3_reduce"
  top: "inception_4a/3x3"
  param {
    lr_mult: 1
    decay_mult: 1
  }
  param {
    lr_mult: 2
    decay_mult: 0
  }
  convolution_param {
    num_output: 208
    pad: 1
    kernel_size: 3
    weight_filler {
      type: "xavier"
      std: 0.03
    }
    bias_filler {
      type: "constant"
      value: 0.2
    }
  }
}
layer {
  name: "inception_4a/relu_3x3"
  type: "ReLU"
  bottom: "inception_4a/3x3"
  top: "inception_4a/3x3"
}
layer {
  name: "inception_4a/5x5_reduce"
  type: "Convolution"
  bottom: "pool3/3x3_s2"
  top: "inception_4a/5x5_reduce"
  param {
    lr_mult: 1
    decay_mult: 1
  }
  param {
    lr_mult: 2
    decay_mult: 0
  }
  convolution_param {
    num_output: 16
    kernel_size: 1
    weight_filler {
      type: "xavier"
      std: 0.2
    }
    bias_filler {
      type: "constant"
      value: 0.2
    }
  }
}
layer {
  name: "inception_4a/relu_5x5_reduce"
  type: "ReLU"
  bottom: "inception_4a/5x5_reduce"
  top: "inception_4a/5x5_reduce"
}
layer {
  name: "inception_4a/5x5"
  type: "Convolution"
  bottom: "inception_4a/5x5_reduce"
  top: "inception_4a/5x5"
  param {
    lr_mult: 1
    decay_mult: 1
  }
  param {
    lr_mult: 2
    decay_mult: 0
  }
  convolution_param {
    num_output: 48
    pad: 2
    kernel_size: 5
    weight_filler {
      type: "xavier"
      std: 0.03
    }
    bias_filler {
      type: "constant"
      value: 0.2
    }
  }
}
layer {
  name: "inception_4a/relu_5x5"
  type: "ReLU"
  bottom: "inception_4a/5x5"
  top: "inception_4a/5x5"
}
layer {
  name: "inception_4a/pool"
  type: "Pooling"
  bottom: "pool3/3x3_s2"
  top: "inception_4a/pool"
  pooling_param {
    pool: MAX
    kernel_size: 3
    stride: 1
    pad: 1
  }
}
layer {
  name: "inception_4a/pool_proj"
  type: "Convolution"
  bottom: "inception_4a/pool"
  top: "inception_4a/pool_proj"
  param {
    lr_mult: 1
    decay_mult: 1
  }
  param {
    lr_mult: 2
    decay_mult: 0
  }
  convolution_param {
    num_output: 64
    kernel_size: 1
    weight_filler {
      type: "xavier"
      std: 0.1
    }
    bias_filler {
      type: "constant"
      value: 0.2
    }
  }
}
layer {
  name: "inception_4a/relu_pool_proj"
  type: "ReLU"
  bottom: "inception_4a/pool_proj"
  top: "inception_4a/pool_proj"
}
layer {
  name: "inception_4a/output"
  type: "Concat"
  bottom: "inception_4a/1x1"
  bottom: "inception_4a/3x3"
  bottom: "inception_4a/5x5"
  bottom: "inception_4a/pool_proj"
  top: "inception_4a/output"
}
layer {
  name: "loss1/ave_pool"
  type: "Pooling"
  bottom: "inception_4a/output"
  top: "loss1/ave_pool"
  pooling_param {
    pool: AVE
    kernel_size: 5
    stride: 3
  }
}
layer {
  name: "loss1/conv"
  type: "Convolution"
  bottom: "loss1/ave_pool"
  top: "loss1/conv"
  param {
    lr_mult: 1
    decay_mult: 1
  }
  param {
    lr_mult: 2
    decay_mult: 0
  }
  convolution_param {
    num_output: 128
    kernel_size: 1
    weight_filler {
      type: "xavier"
      std: 0.08
    }
    bias_filler {
      type: "constant"
      value: 0.2
    }
  }
}
layer {
  name: "loss1/relu_conv"
  type: "ReLU"
  bottom: "loss1/conv"
  top: "loss1/conv"
}
layer {
  name: "loss1/fc"
  type: "InnerProduct"
  bottom: "loss1/conv"
  top: "loss1/fc"
  param {
    lr_mult: 1
    decay_mult: 1
  }
  param {
    lr_mult: 2
    decay_mult: 0
  }
  inner_product_param {
    num_output: 1024
    weight_filler {
      type: "xavier"
      std: 0.02
    }
    bias_filler {
      type: "constant"
      value: 0.2
    }
  }
}
layer {
  name: "loss1/relu_fc"
  type: "ReLU"
  bottom: "loss1/fc"
  top: "loss1/fc"
}
layer {
  name: "loss1/drop_fc"
  type: "Dropout"
  bottom: "loss1/fc"
  top: "loss1/fc"
  dropout_param {
    dropout_ratio: 0.7
  }
}
layer {
  name: "loss1/classifier_plantvillage"
  type: "InnerProduct"
  bottom: "loss1/fc"
  top: "loss1/classifier_plantvillage"
  param {
    lr_mult: 1
    decay_mult: 1
  }
  param {
    lr_mult: 2
    decay_mult: 0
  }
  inner_product_param {
    num_output: 38
    weight_filler {
      type: "xavier"
      std: 0.0009765625
    }
    bias_filler {
      type: "constant"
      value: 0
    }
  }
}
layer {
  name: "inception_4b/1x1"
  type: "Convolution"
  bottom: "inception_4a/output"
  top: "inception_4b/1x1"
  param {
    lr_mult: 1
    decay_mult: 1
  }
  param {
    lr_mult: 2
    decay_mult: 0
  }
  convolution_param {
    num_output: 160
    kernel_size: 1
    weight_filler {
      type: "xavier"
      std: 0.03
    }
    bias_filler {
      type: "constant"
      value: 0.2
    }
  }
}
layer {
  name: "inception_4b/relu_1x1"
  type: "ReLU"
  bottom: "inception_4b/1x1"
  top: "inception_4b/1x1"
}
layer {
  name: "inception_4b/3x3_reduce"
  type: "Convolution"
  bottom: "inception_4a/output"
  top: "inception_4b/3x3_reduce"
  param {
    lr_mult: 1
    decay_mult: 1
  }
  param {
    lr_mult: 2
    decay_mult: 0
  }
  convolution_param {
    num_output: 112
    kernel_size: 1
    weight_filler {
      type: "xavier"
      std: 0.09
    }
    bias_filler {
      type: "constant"
      value: 0.2
    }
  }
}
layer {
  name: "inception_4b/relu_3x3_reduce"
  type: "ReLU"
  bottom: "inception_4b/3x3_reduce"
  top: "inception_4b/3x3_reduce"
}
layer {
  name: "inception_4b/3x3"
  type: "Convolution"
  bottom: "inception_4b/3x3_reduce"
  top: "inception_4b/3x3"
  param {
    lr_mult: 1
    decay_mult: 1
  }
  param {
    lr_mult: 2
    decay_mult: 0
  }
  convolution_param {
    num_output: 224
    pad: 1
    kernel_size: 3
    weight_filler {
      type: "xavier"
      std: 0.03
    }
    bias_filler {
      type: "constant"
      value: 0.2
    }
  }
}
layer {
  name: "inception_4b/relu_3x3"
  type: "ReLU"
  bottom: "inception_4b/3x3"
  top: "inception_4b/3x3"
}
layer {
  name: "inception_4b/5x5_reduce"
  type: "Convolution"
  bottom: "inception_4a/output"
  top: "inception_4b/5x5_reduce"
  param {
    lr_mult: 1
    decay_mult: 1
  }
  param {
    lr_mult: 2
    decay_mult: 0
  }
  convolution_param {
    num_output: 24
    kernel_size: 1
    weight_filler {
      type: "xavier"
      std: 0.2
    }
    bias_filler {
      type: "constant"
      value: 0.2
    }
  }
}
layer {
  name: "inception_4b/relu_5x5_reduce"
  type: "ReLU"
  bottom: "inception_4b/5x5_reduce"
  top: "inception_4b/5x5_reduce"
}
layer {
  name: "inception_4b/5x5"
  type: "Convolution"
  bottom: "inception_4b/5x5_reduce"
  top: "inception_4b/5x5"
  param {
    lr_mult: 1
    decay_mult: 1
  }
  param {
    lr_mult: 2
    decay_mult: 0
  }
  convolution_param {
    num_output: 64
    pad: 2
    kernel_size: 5
    weight_filler {
      type: "xavier"
      std: 0.03
    }
    bias_filler {
      type: "constant"
      value: 0.2
    }
  }
}
layer {
  name: "inception_4b/relu_5x5"
  type: "ReLU"
  bottom: "inception_4b/5x5"
  top: "inception_4b/5x5"
}
layer {
  name: "inception_4b/pool"
  type: "Pooling"
  bottom: "inception_4a/output"
  top: "inception_4b/pool"
  pooling_param {
    pool: MAX
    kernel_size: 3
    stride: 1
    pad: 1
  }
}
layer {
  name: "inception_4b/pool_proj"
  type: "Convolution"
  bottom: "inception_4b/pool"
  top: "inception_4b/pool_proj"
  param {
    lr_mult: 1
    decay_mult: 1
  }
  param {
    lr_mult: 2
    decay_mult: 0
  }
  convolution_param {
    num_output: 64
    kernel_size: 1
    weight_filler {
      type: "xavier"
      std: 0.1
    }
    bias_filler {
      type: "constant"
      value: 0.2
    }
  }
}
layer {
  name: "inception_4b/relu_pool_proj"
  type: "ReLU"
  bottom: "inception_4b/pool_proj"
  top: "inception_4b/pool_proj"
}
layer {
  name: "inception_4b/output"
  type: "Concat"
  bottom: "inception_4b/1x1"
  bottom: "inception_4b/3x3"
  bottom: "inception_4b/5x5"
  bottom: "inception_4b/pool_proj"
  top: "inception_4b/output"
}
layer {
  name: "inception_4c/1x1"
  type: "Convolution"
  bottom: "inception_4b/output"
  top: "inception_4c/1x1"
  param {
    lr_mult: 1
    decay_mult: 1
  }
  param {
    lr_mult: 2
    decay_mult: 0
  }
  convolution_param {
    num_output: 128
    kernel_size: 1
    weight_filler {
      type: "xavier"
      std: 0.03
    }
    bias_filler {
      type: "constant"
      value: 0.2
    }
  }
}
layer {
  name: "inception_4c/relu_1x1"
  type: "ReLU"
  bottom: "inception_4c/1x1"
  top: "inception_4c/1x1"
}
layer {
  name: "inception_4c/3x3_reduce"
  type: "Convolution"
  bottom: "inception_4b/output"
  top: "inception_4c/3x3_reduce"
  param {
    lr_mult: 1
    decay_mult: 1
  }
  param {
    lr_mult: 2
    decay_mult: 0
  }
  convolution_param {
    num_output: 128
    kernel_size: 1
    weight_filler {
      type: "xavier"
      std: 0.09
    }
    bias_filler {
      type: "constant"
      value: 0.2
    }
  }
}
layer {
  name: "inception_4c/relu_3x3_reduce"
  type: "ReLU"
  bottom: "inception_4c/3x3_reduce"
  top: "inception_4c/3x3_reduce"
}
layer {
  name: "inception_4c/3x3"
  type: "Convolution"
  bottom: "inception_4c/3x3_reduce"
  top: "inception_4c/3x3"
  param {
    lr_mult: 1
    decay_mult: 1
  }
  param {
    lr_mult: 2
    decay_mult: 0
  }
  convolution_param {
    num_output: 256
    pad: 1
    kernel_size: 3
    weight_filler {
      type: "xavier"
      std: 0.03
    }
    bias_filler {
      type: "constant"
      value: 0.2
    }
  }
}
layer {
  name: "inception_4c/relu_3x3"
  type: "ReLU"
  bottom: "inception_4c/3x3"
  top: "inception_4c/3x3"
}
layer {
  name: "inception_4c/5x5_reduce"
  type: "Convolution"
  bottom: "inception_4b/output"
  top: "inception_4c/5x5_reduce"
  param {
    lr_mult: 1
    decay_mult: 1
  }
  param {
    lr_mult: 2
    decay_mult: 0
  }
  convolution_param {
    num_output: 24
    kernel_size: 1
    weight_filler {
      type: "xavier"
      std: 0.2
    }
    bias_filler {
      type: "constant"
      value: 0.2
    }
  }
}
layer {
  name: "inception_4c/relu_5x5_reduce"
  type: "ReLU"
  bottom: "inception_4c/5x5_reduce"
  top: "inception_4c/5x5_reduce"
}
layer {
  name: "inception_4c/5x5"
  type: "Convolution"
  bottom: "inception_4c/5x5_reduce"
  top: "inception_4c/5x5"
  param {
    lr_mult: 1
    decay_mult: 1
  }
  param {
    lr_mult: 2
    decay_mult: 0
  }
  convolution_param {
    num_output: 64
    pad: 2
    kernel_size: 5
    weight_filler {
      type: "xavier"
      std: 0.03
    }
    bias_filler {
      type: "constant"
      value: 0.2
    }
  }
}
layer {
  name: "inception_4c/relu_5x5"
  type: "ReLU"
  bottom: "inception_4c/5x5"
  top: "inception_4c/5x5"
}
layer {
  name: "inception_4c/pool"
  type: "Pooling"
  bottom: "inception_4b/output"
  top: "inception_4c/pool"
  pooling_param {
    pool: MAX
    kernel_size: 3
    stride: 1
    pad: 1
  }
}
layer {
  name: "inception_4c/pool_proj"
  type: "Convolution"
  bottom: "inception_4c/pool"
  top: "inception_4c/pool_proj"
  param {
    lr_mult: 1
    decay_mult: 1
  }
  param {
    lr_mult: 2
    decay_mult: 0
  }
  convolution_param {
    num_output: 64
    kernel_size: 1
    weight_filler {
      type: "xavier"
      std: 0.1
    }
    bias_filler {
      type: "constant"
      value: 0.2
    }
  }
}
layer {
  name: "inception_4c/relu_pool_proj"
  type: "ReLU"
  bottom: "inception_4c/pool_proj"
  top: "inception_4c/pool_proj"
}
layer {
  name: "inception_4c/output"
  type: "Concat"
  bottom: "inception_4c/1x1"
  bottom: "inception_4c/3x3"
  bottom: "inception_4c/5x5"
  bottom: "inception_4c/pool_proj"
  top: "inception_4c/output"
}
layer {
  name: "inception_4d/1x1"
  type: "Convolution"
  bottom: "inception_4c/output"
  top: "inception_4d/1x1"
  param {
    lr_mult: 1
    decay_mult: 1
  }
  param {
    lr_mult: 2
    decay_mult: 0
  }
  convolution_param {
    num_output: 112
    kernel_size: 1
    weight_filler {
      type: "xavier"
      std: 0.03
    }
    bias_filler {
      type: "constant"
      value: 0.2
    }
  }
}
layer {
  name: "inception_4d/relu_1x1"
  type: "ReLU"
  bottom: "inception_4d/1x1"
  top: "inception_4d/1x1"
}
layer {
  name: "inception_4d/3x3_reduce"
  type: "Convolution"
  bottom: "inception_4c/output"
  top: "inception_4d/3x3_reduce"
  param {
    lr_mult: 1
    decay_mult: 1
  }
  param {
    lr_mult: 2
    decay_mult: 0
  }
  convolution_param {
    num_output: 144
    kernel_size: 1
    weight_filler {
      type: "xavier"
      std: 0.09
    }
    bias_filler {
      type: "constant"
      value: 0.2
    }
  }
}
layer {
  name: "inception_4d/relu_3x3_reduce"
  type: "ReLU"
  bottom: "inception_4d/3x3_reduce"
  top: "inception_4d/3x3_reduce"
}
layer {
  name: "inception_4d/3x3"
  type: "Convolution"
  bottom: "inception_4d/3x3_reduce"
  top: "inception_4d/3x3"
  param {
    lr_mult: 1
    decay_mult: 1
  }
  param {
    lr_mult: 2
    decay_mult: 0
  }
  convolution_param {
    num_output: 288
    pad: 1
    kernel_size: 3
    weight_filler {
      type: "xavier"
      std: 0.03
    }
    bias_filler {
      type: "constant"
      value: 0.2
    }
  }
}
layer {
  name: "inception_4d/relu_3x3"
  type: "ReLU"
  bottom: "inception_4d/3x3"
  top: "inception_4d/3x3"
}
layer {
  name: "inception_4d/5x5_reduce"
  type: "Convolution"
  bottom: "inception_4c/output"
  top: "inception_4d/5x5_reduce"
  param {
    lr_mult: 1
    decay_mult: 1
  }
  param {
    lr_mult: 2
    decay_mult: 0
  }
  convolution_param {
    num_output: 32
    kernel_size: 1
    weight_filler {
      type: "xavier"
      std: 0.2
    }
    bias_filler {
      type: "constant"
      value: 0.2
    }
  }
}
layer {
  name: "inception_4d/relu_5x5_reduce"
  type: "ReLU"
  bottom: "inception_4d/5x5_reduce"
  top: "inception_4d/5x5_reduce"
}
layer {
  name: "inception_4d/5x5"
  type: "Convolution"
  bottom: "inception_4d/5x5_reduce"
  top: "inception_4d/5x5"
  param {
    lr_mult: 1
    decay_mult: 1
  }
  param {
    lr_mult: 2
    decay_mult: 0
  }
  convolution_param {
    num_output: 64
    pad: 2
    kernel_size: 5
    weight_filler {
      type: "xavier"
      std: 0.03
    }
    bias_filler {
      type: "constant"
      value: 0.2
    }
  }
}
layer {
  name: "inception_4d/relu_5x5"
  type: "ReLU"
  bottom: "inception_4d/5x5"
  top: "inception_4d/5x5"
}
layer {
  name: "inception_4d/pool"
  type: "Pooling"
  bottom: "inception_4c/output"
  top: "inception_4d/pool"
  pooling_param {
    pool: MAX
    kernel_size: 3
    stride: 1
    pad: 1
  }
}
layer {
  name: "inception_4d/pool_proj"
  type: "Convolution"
  bottom: "inception_4d/pool"
  top: "inception_4d/pool_proj"
  param {
    lr_mult: 1
    decay_mult: 1
  }
  param {
    lr_mult: 2
    decay_mult: 0
  }
  convolution_param {
    num_output: 64
    kernel_size: 1
    weight_filler {
      type: "xavier"
      std: 0.1
    }
    bias_filler {
      type: "constant"
      value: 0.2
    }
  }
}
layer {
  name: "inception_4d/relu_pool_proj"
  type: "ReLU"
  bottom: "inception_4d/pool_proj"
  top: "inception_4d/pool_proj"
}
layer {
  name: "inception_4d/output"
  type: "Concat"
  bottom: "inception_4d/1x1"
  bottom: "inception_4d/3x3"
  bottom: "inception_4d/5x5"
  bottom: "inception_4d/pool_proj"
  top: "inception_4d/output"
}
layer {
  name: "loss2/ave_pool"
  type: "Pooling"
  bottom: "inception_4d/output"
  top: "loss2/ave_pool"
  pooling_param {
    pool: AVE
    kernel_size: 5
    stride: 3
  }
}
layer {
  name: "loss2/conv"
  type: "Convolution"
  bottom: "loss2/ave_pool"
  top: "loss2/conv"
  param {
    lr_mult: 1
    decay_mult: 1
  }
  param {
    lr_mult: 2
    decay_mult: 0
  }
  convolution_param {
    num_output: 128
    kernel_size: 1
    weight_filler {
      type: "xavier"
      std: 0.08
    }
    bias_filler {
      type: "constant"
      value: 0.2
    }
  }
}
layer {
  name: "loss2/relu_conv"
  type: "ReLU"
  bottom: "loss2/conv"
  top: "loss2/conv"
}
layer {
  name: "loss2/fc"
  type: "InnerProduct"
  bottom: "loss2/conv"
  top: "loss2/fc"
  param {
    lr_mult: 1
    decay_mult: 1
  }
  param {
    lr_mult: 2
    decay_mult: 0
  }
  inner_product_param {
    num_output: 1024
    weight_filler {
      type: "xavier"
      std: 0.02
    }
    bias_filler {
      type: "constant"
      value: 0.2
    }
  }
}
layer {
  name: "loss2/relu_fc"
  type: "ReLU"
  bottom: "loss2/fc"
  top: "loss2/fc"
}
layer {
  name: "loss2/drop_fc"
  type: "Dropout"
  bottom: "loss2/fc"
  top: "loss2/fc"
  dropout_param {
    dropout_ratio: 0.7
  }
}
layer {
  name: "loss2/classifier_plantvillage"
  type: "InnerProduct"
  bottom: "loss2/fc"
  top: "loss2/classifier_plantvillage"
  param {
    lr_mult: 1
    decay_mult: 1
  }
  param {
    lr_mult: 2
    decay_mult: 0
  }
  inner_product_param {
    num_output: 38
    weight_filler {
      type: "xavier"
      std: 0.0009765625
    }
    bias_filler {
      type: "constant"
      value: 0
    }
  }
}
layer {
  name: "inception_4e/1x1"
  type: "Convolution"
  bottom: "inception_4d/output"
  top: "inception_4e/1x1"
  param {
    lr_mult: 1
    decay_mult: 1
  }
  param {
    lr_mult: 2
    decay_mult: 0
  }
  convolution_param {
    num_output: 256
    kernel_size: 1
    weight_filler {
      type: "xavier"
      std: 0.03
    }
    bias_filler {
      type: "constant"
      value: 0.2
    }
  }
}
layer {
  name: "inception_4e/relu_1x1"
  type: "ReLU"
  bottom: "inception_4e/1x1"
  top: "inception_4e/1x1"
}
layer {
  name: "inception_4e/3x3_reduce"
  type: "Convolution"
  bottom: "inception_4d/output"
  top: "inception_4e/3x3_reduce"
  param {
    lr_mult: 1
    decay_mult: 1
  }
  param {
    lr_mult: 2
    decay_mult: 0
  }
  convolution_param {
    num_output: 160
    kernel_size: 1
    weight_filler {
      type: "xavier"
      std: 0.09
    }
    bias_filler {
      type: "constant"
      value: 0.2
    }
  }
}
layer {
  name: "inception_4e/relu_3x3_reduce"
  type: "ReLU"
  bottom: "inception_4e/3x3_reduce"
  top: "inception_4e/3x3_reduce"
}
layer {
  name: "inception_4e/3x3"
  type: "Convolution"
  bottom: "inception_4e/3x3_reduce"
  top: "inception_4e/3x3"
  param {
    lr_mult: 1
    decay_mult: 1
  }
  param {
    lr_mult: 2
    decay_mult: 0
  }
  convolution_param {
    num_output: 320
    pad: 1
    kernel_size: 3
    weight_filler {
      type: "xavier"
      std: 0.03
    }
    bias_filler {
      type: "constant"
      value: 0.2
    }
  }
}
layer {
  name: "inception_4e/relu_3x3"
  type: "ReLU"
  bottom: "inception_4e/3x3"
  top: "inception_4e/3x3"
}
layer {
  name: "inception_4e/5x5_reduce"
  type: "Convolution"
  bottom: "inception_4d/output"
  top: "inception_4e/5x5_reduce"
  param {
    lr_mult: 1
    decay_mult: 1
  }
  param {
    lr_mult: 2
    decay_mult: 0
  }
  convolution_param {
    num_output: 32
    kernel_size: 1
    weight_filler {
      type: "xavier"
      std: 0.2
    }
    bias_filler {
      type: "constant"
      value: 0.2
    }
  }
}
layer {
  name: "inception_4e/relu_5x5_reduce"
  type: "ReLU"
  bottom: "inception_4e/5x5_reduce"
  top: "inception_4e/5x5_reduce"
}
layer {
  name: "inception_4e/5x5"
  type: "Convolution"
  bottom: "inception_4e/5x5_reduce"
  top: "inception_4e/
I0403 19:40:02.627873 25475 layer_factory.hpp:77] Creating layer data
I0403 19:40:02.628507 25475 net.cpp:91] Creating Layer data
I0403 19:40:02.628545 25475 net.cpp:399] data -> data
I0403 19:40:02.628618 25475 net.cpp:399] data -> label
I0403 19:40:02.628662 25475 data_transformer.cpp:25] Loading mean file from: /home/mohanty/data/final_dataset/lmdb/grayscale-80-20/mean.binaryproto
I0403 19:40:02.629967 25481 db_lmdb.cpp:38] Opened lmdb /home/mohanty/data/final_dataset/lmdb/grayscale-80-20/test_db
I0403 19:40:02.645449 25475 data_layer.cpp:41] output data size: 24,3,224,224
I0403 19:40:02.674347 25475 net.cpp:141] Setting up data
I0403 19:40:02.674450 25475 net.cpp:148] Top shape: 24 3 224 224 (3612672)
I0403 19:40:02.674475 25475 net.cpp:148] Top shape: 24 (24)
I0403 19:40:02.674492 25475 net.cpp:156] Memory required for data: 14450784
I0403 19:40:02.674527 25475 layer_factory.hpp:77] Creating layer label_data_1_split
I0403 19:40:02.674561 25475 net.cpp:91] Creating Layer label_data_1_split
I0403 19:40:02.674584 25475 net.cpp:425] label_data_1_split <- label
I0403 19:40:02.674624 25475 net.cpp:399] label_data_1_split -> label_data_1_split_0
I0403 19:40:02.674657 25475 net.cpp:399] label_data_1_split -> label_data_1_split_1
I0403 19:40:02.674681 25475 net.cpp:399] label_data_1_split -> label_data_1_split_2
I0403 19:40:02.674705 25475 net.cpp:399] label_data_1_split -> label_data_1_split_3
I0403 19:40:02.674726 25475 net.cpp:399] label_data_1_split -> label_data_1_split_4
I0403 19:40:02.674751 25475 net.cpp:399] label_data_1_split -> label_data_1_split_5
I0403 19:40:02.674772 25475 net.cpp:399] label_data_1_split -> label_data_1_split_6
I0403 19:40:02.674796 25475 net.cpp:399] label_data_1_split -> label_data_1_split_7
I0403 19:40:02.674819 25475 net.cpp:399] label_data_1_split -> label_data_1_split_8
I0403 19:40:02.674840 25475 net.cpp:399] label_data_1_split -> label_data_1_split_9
I0403 19:40:02.674958 25475 net.cpp:141] Setting up label_data_1_split
I0403 19:40:02.674985 25475 net.cpp:148] Top shape: 24 (24)
I0403 19:40:02.675004 25475 net.cpp:148] Top shape: 24 (24)
I0403 19:40:02.675019 25475 net.cpp:148] Top shape: 24 (24)
I0403 19:40:02.675036 25475 net.cpp:148] Top shape: 24 (24)
I0403 19:40:02.675055 25475 net.cpp:148] Top shape: 24 (24)
I0403 19:40:02.675070 25475 net.cpp:148] Top shape: 24 (24)
I0403 19:40:02.675084 25475 net.cpp:148] Top shape: 24 (24)
I0403 19:40:02.675101 25475 net.cpp:148] Top shape: 24 (24)
I0403 19:40:02.675119 25475 net.cpp:148] Top shape: 24 (24)
I0403 19:40:02.675138 25475 net.cpp:148] Top shape: 24 (24)
I0403 19:40:02.675187 25475 net.cpp:156] Memory required for data: 14451744
I0403 19:40:02.675204 25475 layer_factory.hpp:77] Creating layer conv1/7x7_s2
I0403 19:40:02.675243 25475 net.cpp:91] Creating Layer conv1/7x7_s2
I0403 19:40:02.675272 25475 net.cpp:425] conv1/7x7_s2 <- data
I0403 19:40:02.675294 25475 net.cpp:399] conv1/7x7_s2 -> conv1/7x7_s2
I0403 19:40:02.817494 25475 net.cpp:141] Setting up conv1/7x7_s2
I0403 19:40:02.817620 25475 net.cpp:148] Top shape: 24 64 112 112 (19267584)
I0403 19:40:02.817637 25475 net.cpp:156] Memory required for data: 91522080
I0403 19:40:02.817677 25475 layer_factory.hpp:77] Creating layer conv1/relu_7x7
I0403 19:40:02.817710 25475 net.cpp:91] Creating Layer conv1/relu_7x7
I0403 19:40:02.817734 25475 net.cpp:425] conv1/relu_7x7 <- conv1/7x7_s2
I0403 19:40:02.817755 25475 net.cpp:386] conv1/relu_7x7 -> conv1/7x7_s2 (in-place)
I0403 19:40:02.818012 25475 net.cpp:141] Setting up conv1/relu_7x7
I0403 19:40:02.818042 25475 net.cpp:148] Top shape: 24 64 112 112 (19267584)
I0403 19:40:02.818059 25475 net.cpp:156] Memory required for data: 168592416
I0403 19:40:02.818076 25475 layer_factory.hpp:77] Creating layer pool1/3x3_s2
I0403 19:40:02.818105 25475 net.cpp:91] Creating Layer pool1/3x3_s2
I0403 19:40:02.818126 25475 net.cpp:425] pool1/3x3_s2 <- conv1/7x7_s2
I0403 19:40:02.818147 25475 net.cpp:399] pool1/3x3_s2 -> pool1/3x3_s2
I0403 19:40:02.818233 25475 net.cpp:141] Setting up pool1/3x3_s2
I0403 19:40:02.818266 25475 net.cpp:148] Top shape: 24 64 56 56 (4816896)
I0403 19:40:02.818285 25475 net.cpp:156] Memory required for data: 187860000
I0403 19:40:02.818300 25475 layer_factory.hpp:77] Creating layer pool1/norm1
I0403 19:40:02.818330 25475 net.cpp:91] Creating Layer pool1/norm1
I0403 19:40:02.818349 25475 net.cpp:425] pool1/norm1 <- pool1/3x3_s2
I0403 19:40:02.818369 25475 net.cpp:399] pool1/norm1 -> pool1/norm1
I0403 19:40:02.818657 25475 net.cpp:141] Setting up pool1/norm1
I0403 19:40:02.818688 25475 net.cpp:148] Top shape: 24 64 56 56 (4816896)
I0403 19:40:02.818706 25475 net.cpp:156] Memory required for data: 207127584
I0403 19:40:02.818722 25475 layer_factory.hpp:77] Creating layer conv2/3x3_reduce
I0403 19:40:02.818750 25475 net.cpp:91] Creating Layer conv2/3x3_reduce
I0403 19:40:02.818770 25475 net.cpp:425] conv2/3x3_reduce <- pool1/norm1
I0403 19:40:02.818789 25475 net.cpp:399] conv2/3x3_reduce -> conv2/3x3_reduce
I0403 19:40:02.820209 25475 net.cpp:141] Setting up conv2/3x3_reduce
I0403 19:40:02.820242 25475 net.cpp:148] Top shape: 24 64 56 56 (4816896)
I0403 19:40:02.820266 25475 net.cpp:156] Memory required for data: 226395168
I0403 19:40:02.820289 25475 layer_factory.hpp:77] Creating layer conv2/relu_3x3_reduce
I0403 19:40:02.820327 25475 net.cpp:91] Creating Layer conv2/relu_3x3_reduce
I0403 19:40:02.820348 25475 net.cpp:425] conv2/relu_3x3_reduce <- conv2/3x3_reduce
I0403 19:40:02.820369 25475 net.cpp:386] conv2/relu_3x3_reduce -> conv2/3x3_reduce (in-place)
I0403 19:40:02.820732 25475 net.cpp:141] Setting up conv2/relu_3x3_reduce
I0403 19:40:02.820763 25475 net.cpp:148] Top shape: 24 64 56 56 (4816896)
I0403 19:40:02.820781 25475 net.cpp:156] Memory required for data: 245662752
I0403 19:40:02.820799 25475 layer_factory.hpp:77] Creating layer conv2/3x3
I0403 19:40:02.820825 25475 net.cpp:91] Creating Layer conv2/3x3
I0403 19:40:02.820847 25475 net.cpp:425] conv2/3x3 <- conv2/3x3_reduce
I0403 19:40:02.820869 25475 net.cpp:399] conv2/3x3 -> conv2/3x3
I0403 19:40:02.823173 25475 net.cpp:141] Setting up conv2/3x3
I0403 19:40:02.823205 25475 net.cpp:148] Top shape: 24 192 56 56 (14450688)
I0403 19:40:02.823223 25475 net.cpp:156] Memory required for data: 303465504
I0403 19:40:02.823251 25475 layer_factory.hpp:77] Creating layer conv2/relu_3x3
I0403 19:40:02.823276 25475 net.cpp:91] Creating Layer conv2/relu_3x3
I0403 19:40:02.823297 25475 net.cpp:425] conv2/relu_3x3 <- conv2/3x3
I0403 19:40:02.823314 25475 net.cpp:386] conv2/relu_3x3 -> conv2/3x3 (in-place)
I0403 19:40:02.823489 25475 net.cpp:141] Setting up conv2/relu_3x3
I0403 19:40:02.823520 25475 net.cpp:148] Top shape: 24 192 56 56 (14450688)
I0403 19:40:02.823570 25475 net.cpp:156] Memory required for data: 361268256
I0403 19:40:02.823588 25475 layer_factory.hpp:77] Creating layer conv2/norm2
I0403 19:40:02.823609 25475 net.cpp:91] Creating Layer conv2/norm2
I0403 19:40:02.823626 25475 net.cpp:425] conv2/norm2 <- conv2/3x3
I0403 19:40:02.823648 25475 net.cpp:399] conv2/norm2 -> conv2/norm2
I0403 19:40:02.823951 25475 net.cpp:141] Setting up conv2/norm2
I0403 19:40:02.823985 25475 net.cpp:148] Top shape: 24 192 56 56 (14450688)
I0403 19:40:02.824003 25475 net.cpp:156] Memory required for data: 419071008
I0403 19:40:02.824020 25475 layer_factory.hpp:77] Creating layer pool2/3x3_s2
I0403 19:40:02.824040 25475 net.cpp:91] Creating Layer pool2/3x3_s2
I0403 19:40:02.824056 25475 net.cpp:425] pool2/3x3_s2 <- conv2/norm2
I0403 19:40:02.824077 25475 net.cpp:399] pool2/3x3_s2 -> pool2/3x3_s2
I0403 19:40:02.824131 25475 net.cpp:141] Setting up pool2/3x3_s2
I0403 19:40:02.824164 25475 net.cpp:148] Top shape: 24 192 28 28 (3612672)
I0403 19:40:02.824182 25475 net.cpp:156] Memory required for data: 433521696
I0403 19:40:02.824201 25475 layer_factory.hpp:77] Creating layer pool2/3x3_s2_pool2/3x3_s2_0_split
I0403 19:40:02.824221 25475 net.cpp:91] Creating Layer pool2/3x3_s2_pool2/3x3_s2_0_split
I0403 19:40:02.824239 25475 net.cpp:425] pool2/3x3_s2_pool2/3x3_s2_0_split <- pool2/3x3_s2
I0403 19:40:02.824270 25475 net.cpp:399] pool2/3x3_s2_pool2/3x3_s2_0_split -> pool2/3x3_s2_pool2/3x3_s2_0_split_0
I0403 19:40:02.824311 25475 net.cpp:399] pool2/3x3_s2_pool2/3x3_s2_0_split -> pool2/3x3_s2_pool2/3x3_s2_0_split_1
I0403 19:40:02.824337 25475 net.cpp:399] pool2/3x3_s2_pool2/3x3_s2_0_split -> pool2/3x3_s2_pool2/3x3_s2_0_split_2
I0403 19:40:02.824360 25475 net.cpp:399] pool2/3x3_s2_pool2/3x3_s2_0_split -> pool2/3x3_s2_pool2/3x3_s2_0_split_3
I0403 19:40:02.824437 25475 net.cpp:141] Setting up pool2/3x3_s2_pool2/3x3_s2_0_split
I0403 19:40:02.824468 25475 net.cpp:148] Top shape: 24 192 28 28 (3612672)
I0403 19:40:02.824486 25475 net.cpp:148] Top shape: 24 192 28 28 (3612672)
I0403 19:40:02.824503 25475 net.cpp:148] Top shape: 24 192 28 28 (3612672)
I0403 19:40:02.824519 25475 net.cpp:148] Top shape: 24 192 28 28 (3612672)
I0403 19:40:02.824535 25475 net.cpp:156] Memory required for data: 491324448
I0403 19:40:02.824551 25475 layer_factory.hpp:77] Creating layer inception_3a/1x1
I0403 19:40:02.824579 25475 net.cpp:91] Creating Layer inception_3a/1x1
I0403 19:40:02.824610 25475 net.cpp:425] inception_3a/1x1 <- pool2/3x3_s2_pool2/3x3_s2_0_split_0
I0403 19:40:02.824631 25475 net.cpp:399] inception_3a/1x1 -> inception_3a/1x1
I0403 19:40:02.826161 25475 net.cpp:141] Setting up inception_3a/1x1
I0403 19:40:02.826194 25475 net.cpp:148] Top shape: 24 64 28 28 (1204224)
I0403 19:40:02.826210 25475 net.cpp:156] Memory required for data: 496141344
I0403 19:40:02.826228 25475 layer_factory.hpp:77] Creating layer inception_3a/relu_1x1
I0403 19:40:02.826251 25475 net.cpp:91] Creating Layer inception_3a/relu_1x1
I0403 19:40:02.826277 25475 net.cpp:425] inception_3a/relu_1x1 <- inception_3a/1x1
I0403 19:40:02.826297 25475 net.cpp:386] inception_3a/relu_1x1 -> inception_3a/1x1 (in-place)
I0403 19:40:02.826474 25475 net.cpp:141] Setting up inception_3a/relu_1x1
I0403 19:40:02.826504 25475 net.cpp:148] Top shape: 24 64 28 28 (1204224)
I0403 19:40:02.826524 25475 net.cpp:156] Memory required for data: 500958240
I0403 19:40:02.826540 25475 layer_factory.hpp:77] Creating layer inception_3a/3x3_reduce
I0403 19:40:02.826562 25475 net.cpp:91] Creating Layer inception_3a/3x3_reduce
I0403 19:40:02.826581 25475 net.cpp:425] inception_3a/3x3_reduce <- pool2/3x3_s2_pool2/3x3_s2_0_split_1
I0403 19:40:02.826606 25475 net.cpp:399] inception_3a/3x3_reduce -> inception_3a/3x3_reduce
I0403 19:40:02.828275 25475 net.cpp:141] Setting up inception_3a/3x3_reduce
I0403 19:40:02.828321 25475 net.cpp:148] Top shape: 24 96 28 28 (1806336)
I0403 19:40:02.828339 25475 net.cpp:156] Memory required for data: 508183584
I0403 19:40:02.828366 25475 layer_factory.hpp:77] Creating layer inception_3a/relu_3x3_reduce
I0403 19:40:02.828408 25475 net.cpp:91] Creating Layer inception_3a/relu_3x3_reduce
I0403 19:40:02.828428 25475 net.cpp:425] inception_3a/relu_3x3_reduce <- inception_3a/3x3_reduce
I0403 19:40:02.828449 25475 net.cpp:386] inception_3a/relu_3x3_reduce -> inception_3a/3x3_reduce (in-place)
I0403 19:40:02.828647 25475 net.cpp:141] Setting up inception_3a/relu_3x3_reduce
I0403 19:40:02.828677 25475 net.cpp:148] Top shape: 24 96 28 28 (1806336)
I0403 19:40:02.828693 25475 net.cpp:156] Memory required for data: 515408928
I0403 19:40:02.828708 25475 layer_factory.hpp:77] Creating layer inception_3a/3x3
I0403 19:40:02.828732 25475 net.cpp:91] Creating Layer inception_3a/3x3
I0403 19:40:02.828752 25475 net.cpp:425] inception_3a/3x3 <- inception_3a/3x3_reduce
I0403 19:40:02.828776 25475 net.cpp:399] inception_3a/3x3 -> inception_3a/3x3
I0403 19:40:02.830412 25475 net.cpp:141] Setting up inception_3a/3x3
I0403 19:40:02.830447 25475 net.cpp:148] Top shape: 24 128 28 28 (2408448)
I0403 19:40:02.830464 25475 net.cpp:156] Memory required for data: 525042720
I0403 19:40:02.830484 25475 layer_factory.hpp:77] Creating layer inception_3a/relu_3x3
I0403 19:40:02.830507 25475 net.cpp:91] Creating Layer inception_3a/relu_3x3
I0403 19:40:02.830526 25475 net.cpp:425] inception_3a/relu_3x3 <- inception_3a/3x3
I0403 19:40:02.830546 25475 net.cpp:386] inception_3a/relu_3x3 -> inception_3a/3x3 (in-place)
I0403 19:40:02.830819 25475 net.cpp:141] Setting up inception_3a/relu_3x3
I0403 19:40:02.830852 25475 net.cpp:148] Top shape: 24 128 28 28 (2408448)
I0403 19:40:02.830869 25475 net.cpp:156] Memory required for data: 534676512
I0403 19:40:02.830886 25475 layer_factory.hpp:77] Creating layer inception_3a/5x5_reduce
I0403 19:40:02.830911 25475 net.cpp:91] Creating Layer inception_3a/5x5_reduce
I0403 19:40:02.830934 25475 net.cpp:425] inception_3a/5x5_reduce <- pool2/3x3_s2_pool2/3x3_s2_0_split_2
I0403 19:40:02.830956 25475 net.cpp:399] inception_3a/5x5_reduce -> inception_3a/5x5_reduce
I0403 19:40:02.831910 25475 net.cpp:141] Setting up inception_3a/5x5_reduce
I0403 19:40:02.831941 25475 net.cpp:148] Top shape: 24 16 28 28 (301056)
I0403 19:40:02.831959 25475 net.cpp:156] Memory required for data: 535880736
I0403 19:40:02.831979 25475 layer_factory.hpp:77] Creating layer inception_3a/relu_5x5_reduce
I0403 19:40:02.832002 25475 net.cpp:91] Creating Layer inception_3a/relu_5x5_reduce
I0403 19:40:02.832025 25475 net.cpp:425] inception_3a/relu_5x5_reduce <- inception_3a/5x5_reduce
I0403 19:40:02.832043 25475 net.cpp:386] inception_3a/relu_5x5_reduce -> inception_3a/5x5_reduce (in-place)
I0403 19:40:02.832337 25475 net.cpp:141] Setting up inception_3a/relu_5x5_reduce
I0403 19:40:02.832370 25475 net.cpp:148] Top shape: 24 16 28 28 (301056)
I0403 19:40:02.832388 25475 net.cpp:156] Memory required for data: 537084960
I0403 19:40:02.832404 25475 layer_factory.hpp:77] Creating layer inception_3a/5x5
I0403 19:40:02.832430 25475 net.cpp:91] Creating Layer inception_3a/5x5
I0403 19:40:02.832451 25475 net.cpp:425] inception_3a/5x5 <- inception_3a/5x5_reduce
I0403 19:40:02.832473 25475 net.cpp:399] inception_3a/5x5 -> inception_3a/5x5
I0403 19:40:02.833513 25475 net.cpp:141] Setting up inception_3a/5x5
I0403 19:40:02.833547 25475 net.cpp:148] Top shape: 24 32 28 28 (602112)
I0403 19:40:02.833565 25475 net.cpp:156] Memory required for data: 539493408
I0403 19:40:02.833586 25475 layer_factory.hpp:77] Creating layer inception_3a/relu_5x5
I0403 19:40:02.833626 25475 net.cpp:91] Creating Layer inception_3a/relu_5x5
I0403 19:40:02.833645 25475 net.cpp:425] inception_3a/relu_5x5 <- inception_3a/5x5
I0403 19:40:02.833664 25475 net.cpp:386] inception_3a/relu_5x5 -> inception_3a/5x5 (in-place)
I0403 19:40:02.833837 25475 net.cpp:141] Setting up inception_3a/relu_5x5
I0403 19:40:02.833868 25475 net.cpp:148] Top shape: 24 32 28 28 (602112)
I0403 19:40:02.833885 25475 net.cpp:156] Memory required for data: 541901856
I0403 19:40:02.833904 25475 layer_factory.hpp:77] Creating layer inception_3a/pool
I0403 19:40:02.833923 25475 net.cpp:91] Creating Layer inception_3a/pool
I0403 19:40:02.833957 25475 net.cpp:425] inception_3a/pool <- pool2/3x3_s2_pool2/3x3_s2_0_split_3
I0403 19:40:02.833979 25475 net.cpp:399] inception_3a/pool -> inception_3a/pool
I0403 19:40:02.834039 25475 net.cpp:141] Setting up inception_3a/pool
I0403 19:40:02.834066 25475 net.cpp:148] Top shape: 24 192 28 28 (3612672)
I0403 19:40:02.834084 25475 net.cpp:156] Memory required for data: 556352544
I0403 19:40:02.834100 25475 layer_factory.hpp:77] Creating layer inception_3a/pool_proj
I0403 19:40:02.834122 25475 net.cpp:91] Creating Layer inception_3a/pool_proj
I0403 19:40:02.834142 25475 net.cpp:425] inception_3a/pool_proj <- inception_3a/pool
I0403 19:40:02.834164 25475 net.cpp:399] inception_3a/pool_proj -> inception_3a/pool_proj
I0403 19:40:02.835124 25475 net.cpp:141] Setting up inception_3a/pool_proj
I0403 19:40:02.835160 25475 net.cpp:148] Top shape: 24 32 28 28 (602112)
I0403 19:40:02.835176 25475 net.cpp:156] Memory required for data: 558760992
I0403 19:40:02.835198 25475 layer_factory.hpp:77] Creating layer inception_3a/relu_pool_proj
I0403 19:40:02.835222 25475 net.cpp:91] Creating Layer inception_3a/relu_pool_proj
I0403 19:40:02.835242 25475 net.cpp:425] inception_3a/relu_pool_proj <- inception_3a/pool_proj
I0403 19:40:02.835268 25475 net.cpp:386] inception_3a/relu_pool_proj -> inception_3a/pool_proj (in-place)
I0403 19:40:02.835541 25475 net.cpp:141] Setting up inception_3a/relu_pool_proj
I0403 19:40:02.835575 25475 net.cpp:148] Top shape: 24 32 28 28 (602112)
I0403 19:40:02.835592 25475 net.cpp:156] Memory required for data: 561169440
I0403 19:40:02.835608 25475 layer_factory.hpp:77] Creating layer inception_3a/output
I0403 19:40:02.835628 25475 net.cpp:91] Creating Layer inception_3a/output
I0403 19:40:02.835646 25475 net.cpp:425] inception_3a/output <- inception_3a/1x1
I0403 19:40:02.835666 25475 net.cpp:425] inception_3a/output <- inception_3a/3x3
I0403 19:40:02.835685 25475 net.cpp:425] inception_3a/output <- inception_3a/5x5
I0403 19:40:02.835702 25475 net.cpp:425] inception_3a/output <- inception_3a/pool_proj
I0403 19:40:02.835721 25475 net.cpp:399] inception_3a/output -> inception_3a/output
I0403 19:40:02.835772 25475 net.cpp:141] Setting up inception_3a/output
I0403 19:40:02.835801 25475 net.cpp:148] Top shape: 24 256 28 28 (4816896)
I0403 19:40:02.835818 25475 net.cpp:156] Memory required for data: 580437024
I0403 19:40:02.835834 25475 layer_factory.hpp:77] Creating layer inception_3a/output_inception_3a/output_0_split
I0403 19:40:02.835855 25475 net.cpp:91] Creating Layer inception_3a/output_inception_3a/output_0_split
I0403 19:40:02.835870 25475 net.cpp:425] inception_3a/output_inception_3a/output_0_split <- inception_3a/output
I0403 19:40:02.835891 25475 net.cpp:399] inception_3a/output_inception_3a/output_0_split -> inception_3a/output_inception_3a/output_0_split_0
I0403 19:40:02.835914 25475 net.cpp:399] inception_3a/output_inception_3a/output_0_split -> inception_3a/output_inception_3a/output_0_split_1
I0403 19:40:02.835943 25475 net.cpp:399] inception_3a/output_inception_3a/output_0_split -> inception_3a/output_inception_3a/output_0_split_2
I0403 19:40:02.835970 25475 net.cpp:399] inception_3a/output_inception_3a/output_0_split -> inception_3a/output_inception_3a/output_0_split_3
I0403 19:40:02.836047 25475 net.cpp:141] Setting up inception_3a/output_inception_3a/output_0_split
I0403 19:40:02.836077 25475 net.cpp:148] Top shape: 24 256 28 28 (4816896)
I0403 19:40:02.836096 25475 net.cpp:148] Top shape: 24 256 28 28 (4816896)
I0403 19:40:02.836113 25475 net.cpp:148] Top shape: 24 256 28 28 (4816896)
I0403 19:40:02.836130 25475 net.cpp:148] Top shape: 24 256 28 28 (4816896)
I0403 19:40:02.836146 25475 net.cpp:156] Memory required for data: 657507360
I0403 19:40:02.836163 25475 layer_factory.hpp:77] Creating layer inception_3b/1x1
I0403 19:40:02.836187 25475 net.cpp:91] Creating Layer inception_3b/1x1
I0403 19:40:02.836208 25475 net.cpp:425] inception_3b/1x1 <- inception_3a/output_inception_3a/output_0_split_0
I0403 19:40:02.836230 25475 net.cpp:399] inception_3b/1x1 -> inception_3b/1x1
I0403 19:40:02.837370 25475 net.cpp:141] Setting up inception_3b/1x1
I0403 19:40:02.837415 25475 net.cpp:148] Top shape: 24 128 28 28 (2408448)
I0403 19:40:02.837435 25475 net.cpp:156] Memory required for data: 667141152
I0403 19:40:02.837453 25475 layer_factory.hpp:77] Creating layer inception_3b/relu_1x1
I0403 19:40:02.837476 25475 net.cpp:91] Creating Layer inception_3b/relu_1x1
I0403 19:40:02.837497 25475 net.cpp:425] inception_3b/relu_1x1 <- inception_3b/1x1
I0403 19:40:02.837515 25475 net.cpp:386] inception_3b/relu_1x1 -> inception_3b/1x1 (in-place)
I0403 19:40:02.837684 25475 net.cpp:141] Setting up inception_3b/relu_1x1
I0403 19:40:02.837713 25475 net.cpp:148] Top shape: 24 128 28 28 (2408448)
I0403 19:40:02.837729 25475 net.cpp:156] Memory required for data: 676774944
I0403 19:40:02.837743 25475 layer_factory.hpp:77] Creating layer inception_3b/3x3_reduce
I0403 19:40:02.837765 25475 net.cpp:91] Creating Layer inception_3b/3x3_reduce
I0403 19:40:02.837785 25475 net.cpp:425] inception_3b/3x3_reduce <- inception_3a/output_inception_3a/output_0_split_1
I0403 19:40:02.837810 25475 net.cpp:399] inception_3b/3x3_reduce -> inception_3b/3x3_reduce
I0403 19:40:02.838891 25475 net.cpp:141] Setting up inception_3b/3x3_reduce
I0403 19:40:02.838924 25475 net.cpp:148] Top shape: 24 128 28 28 (2408448)
I0403 19:40:02.838943 25475 net.cpp:156] Memory required for data: 686408736
I0403 19:40:02.838961 25475 layer_factory.hpp:77] Creating layer inception_3b/relu_3x3_reduce
I0403 19:40:02.838981 25475 net.cpp:91] Creating Layer inception_3b/relu_3x3_reduce
I0403 19:40:02.838999 25475 net.cpp:425] inception_3b/relu_3x3_reduce <- inception_3b/3x3_reduce
I0403 19:40:02.839020 25475 net.cpp:386] inception_3b/relu_3x3_reduce -> inception_3b/3x3_reduce (in-place)
I0403 19:40:02.839184 25475 net.cpp:141] Setting up inception_3b/relu_3x3_reduce
I0403 19:40:02.839215 25475 net.cpp:148] Top shape: 24 128 28 28 (2408448)
I0403 19:40:02.839231 25475 net.cpp:156] Memory required for data: 696042528
I0403 19:40:02.839246 25475 layer_factory.hpp:77] Creating layer inception_3b/3x3
I0403 19:40:02.839282 25475 net.cpp:91] Creating Layer inception_3b/3x3
I0403 19:40:02.839303 25475 net.cpp:425] inception_3b/3x3 <- inception_3b/3x3_reduce
I0403 19:40:02.839339 25475 net.cpp:399] inception_3b/3x3 -> inception_3b/3x3
I0403 19:40:02.842193 25475 net.cpp:141] Setting up inception_3b/3x3
I0403 19:40:02.842228 25475 net.cpp:148] Top shape: 24 192 28 28 (3612672)
I0403 19:40:02.842245 25475 net.cpp:156] Memory required for data: 710493216
I0403 19:40:02.842274 25475 layer_factory.hpp:77] Creating layer inception_3b/relu_3x3
I0403 19:40:02.842298 25475 net.cpp:91] Creating Layer inception_3b/relu_3x3
I0403 19:40:02.842319 25475 net.cpp:425] inception_3b/relu_3x3 <- inception_3b/3x3
I0403 19:40:02.842335 25475 net.cpp:386] inception_3b/relu_3x3 -> inception_3b/3x3 (in-place)
I0403 19:40:02.842610 25475 net.cpp:141] Setting up inception_3b/relu_3x3
I0403 19:40:02.842641 25475 net.cpp:148] Top shape: 24 192 28 28 (3612672)
I0403 19:40:02.842658 25475 net.cpp:156] Memory required for data: 724943904
I0403 19:40:02.842674 25475 layer_factory.hpp:77] Creating layer inception_3b/5x5_reduce
I0403 19:40:02.842700 25475 net.cpp:91] Creating Layer inception_3b/5x5_reduce
I0403 19:40:02.842720 25475 net.cpp:425] inception_3b/5x5_reduce <- inception_3a/output_inception_3a/output_0_split_2
I0403 19:40:02.842743 25475 net.cpp:399] inception_3b/5x5_reduce -> inception_3b/5x5_reduce
I0403 19:40:02.843699 25475 net.cpp:141] Setting up inception_3b/5x5_reduce
I0403 19:40:02.843732 25475 net.cpp:148] Top shape: 24 32 28 28 (602112)
I0403 19:40:02.843749 25475 net.cpp:156] Memory required for data: 727352352
I0403 19:40:02.843770 25475 layer_factory.hpp:77] Creating layer inception_3b/relu_5x5_reduce
I0403 19:40:02.843793 25475 net.cpp:91] Creating Layer inception_3b/relu_5x5_reduce
I0403 19:40:02.843814 25475 net.cpp:425] inception_3b/relu_5x5_reduce <- inception_3b/5x5_reduce
I0403 19:40:02.843832 25475 net.cpp:386] inception_3b/relu_5x5_reduce -> inception_3b/5x5_reduce (in-place)
I0403 19:40:02.844020 25475 net.cpp:141] Setting up inception_3b/relu_5x5_reduce
I0403 19:40:02.844053 25475 net.cpp:148] Top shape: 24 32 28 28 (602112)
I0403 19:40:02.844071 25475 net.cpp:156] Memory required for data: 729760800
I0403 19:40:02.844089 25475 layer_factory.hpp:77] Creating layer inception_3b/5x5
I0403 19:40:02.844112 25475 net.cpp:91] Creating Layer inception_3b/5x5
I0403 19:40:02.844133 25475 net.cpp:425] inception_3b/5x5 <- inception_3b/5x5_reduce
I0403 19:40:02.844153 25475 net.cpp:399] inception_3b/5x5 -> inception_3b/5x5
I0403 19:40:02.846093 25475 net.cpp:141] Setting up inception_3b/5x5
I0403 19:40:02.846127 25475 net.cpp:148] Top shape: 24 96 28 28 (1806336)
I0403 19:40:02.846146 25475 net.cpp:156] Memory required for data: 736986144
I0403 19:40:02.846166 25475 layer_factory.hpp:77] Creating layer inception_3b/relu_5x5
I0403 19:40:02.846185 25475 net.cpp:91] Creating Layer inception_3b/relu_5x5
I0403 19:40:02.846201 25475 net.cpp:425] inception_3b/relu_5x5 <- inception_3b/5x5
I0403 19:40:02.846222 25475 net.cpp:386] inception_3b/relu_5x5 -> inception_3b/5x5 (in-place)
I0403 19:40:02.846413 25475 net.cpp:141] Setting up inception_3b/relu_5x5
I0403 19:40:02.846446 25475 net.cpp:148] Top shape: 24 96 28 28 (1806336)
I0403 19:40:02.846463 25475 net.cpp:156] Memory required for data: 744211488
I0403 19:40:02.846479 25475 layer_factory.hpp:77] Creating layer inception_3b/pool
I0403 19:40:02.846498 25475 net.cpp:91] Creating Layer inception_3b/pool
I0403 19:40:02.846514 25475 net.cpp:425] inception_3b/pool <- inception_3a/output_inception_3a/output_0_split_3
I0403 19:40:02.846534 25475 net.cpp:399] inception_3b/pool -> inception_3b/pool
I0403 19:40:02.846591 25475 net.cpp:141] Setting up inception_3b/pool
I0403 19:40:02.846621 25475 net.cpp:148] Top shape: 24 256 28 28 (4816896)
I0403 19:40:02.846637 25475 net.cpp:156] Memory required for data: 763479072
I0403 19:40:02.846650 25475 layer_factory.hpp:77] Creating layer inception_3b/pool_proj
I0403 19:40:02.846676 25475 net.cpp:91] Creating Layer inception_3b/pool_proj
I0403 19:40:02.846698 25475 net.cpp:425] inception_3b/pool_proj <- inception_3b/pool
I0403 19:40:02.846719 25475 net.cpp:399] inception_3b/pool_proj -> inception_3b/pool_proj
I0403 19:40:02.847735 25475 net.cpp:141] Setting up inception_3b/pool_proj
I0403 19:40:02.847769 25475 net.cpp:148] Top shape: 24 64 28 28 (1204224)
I0403 19:40:02.847787 25475 net.cpp:156] Memory required for data: 768295968
I0403 19:40:02.847806 25475 layer_factory.hpp:77] Creating layer inception_3b/relu_pool_proj
I0403 19:40:02.847826 25475 net.cpp:91] Creating Layer inception_3b/relu_pool_proj
I0403 19:40:02.847844 25475 net.cpp:425] inception_3b/relu_pool_proj <- inception_3b/pool_proj
I0403 19:40:02.847863 25475 net.cpp:386] inception_3b/relu_pool_proj -> inception_3b/pool_proj (in-place)
I0403 19:40:02.848224 25475 net.cpp:141] Setting up inception_3b/relu_pool_proj
I0403 19:40:02.848261 25475 net.cpp:148] Top shape: 24 64 28 28 (1204224)
I0403 19:40:02.848280 25475 net.cpp:156] Memory required for data: 773112864
I0403 19:40:02.848295 25475 layer_factory.hpp:77] Creating layer inception_3b/output
I0403 19:40:02.848315 25475 net.cpp:91] Creating Layer inception_3b/output
I0403 19:40:02.848333 25475 net.cpp:425] inception_3b/output <- inception_3b/1x1
I0403 19:40:02.848353 25475 net.cpp:425] inception_3b/output <- inception_3b/3x3
I0403 19:40:02.848371 25475 net.cpp:425] inception_3b/output <- inception_3b/5x5
I0403 19:40:02.848387 25475 net.cpp:425] inception_3b/output <- inception_3b/pool_proj
I0403 19:40:02.848405 25475 net.cpp:399] inception_3b/output -> inception_3b/output
I0403 19:40:02.848453 25475 net.cpp:141] Setting up inception_3b/output
I0403 19:40:02.848481 25475 net.cpp:148] Top shape: 24 480 28 28 (9031680)
I0403 19:40:02.848498 25475 net.cpp:156] Memory required for data: 809239584
I0403 19:40:02.848515 25475 layer_factory.hpp:77] Creating layer pool3/3x3_s2
I0403 19:40:02.848532 25475 net.cpp:91] Creating Layer pool3/3x3_s2
I0403 19:40:02.848548 25475 net.cpp:425] pool3/3x3_s2 <- inception_3b/output
I0403 19:40:02.848587 25475 net.cpp:399] pool3/3x3_s2 -> pool3/3x3_s2
I0403 19:40:02.848649 25475 net.cpp:141] Setting up pool3/3x3_s2
I0403 19:40:02.848677 25475 net.cpp:148] Top shape: 24 480 14 14 (2257920)
I0403 19:40:02.848695 25475 net.cpp:156] Memory required for data: 818271264
I0403 19:40:02.848711 25475 layer_factory.hpp:77] Creating layer pool3/3x3_s2_pool3/3x3_s2_0_split
I0403 19:40:02.848729 25475 net.cpp:91] Creating Layer pool3/3x3_s2_pool3/3x3_s2_0_split
I0403 19:40:02.848745 25475 net.cpp:425] pool3/3x3_s2_pool3/3x3_s2_0_split <- pool3/3x3_s2
I0403 19:40:02.848765 25475 net.cpp:399] pool3/3x3_s2_pool3/3x3_s2_0_split -> pool3/3x3_s2_pool3/3x3_s2_0_split_0
I0403 19:40:02.848788 25475 net.cpp:399] pool3/3x3_s2_pool3/3x3_s2_0_split -> pool3/3x3_s2_pool3/3x3_s2_0_split_1
I0403 19:40:02.848812 25475 net.cpp:399] pool3/3x3_s2_pool3/3x3_s2_0_split -> pool3/3x3_s2_pool3/3x3_s2_0_split_2
I0403 19:40:02.848834 25475 net.cpp:399] pool3/3x3_s2_pool3/3x3_s2_0_split -> pool3/3x3_s2_pool3/3x3_s2_0_split_3
I0403 19:40:02.848911 25475 net.cpp:141] Setting up pool3/3x3_s2_pool3/3x3_s2_0_split
I0403 19:40:02.848940 25475 net.cpp:148] Top shape: 24 480 14 14 (2257920)
I0403 19:40:02.848958 25475 net.cpp:148] Top shape: 24 480 14 14 (2257920)
I0403 19:40:02.848976 25475 net.cpp:148] Top shape: 24 480 14 14 (2257920)
I0403 19:40:02.848994 25475 net.cpp:148] Top shape: 24 480 14 14 (2257920)
I0403 19:40:02.849009 25475 net.cpp:156] Memory required for data: 854397984
I0403 19:40:02.849025 25475 layer_factory.hpp:77] Creating layer inception_4a/1x1
I0403 19:40:02.849047 25475 net.cpp:91] Creating Layer inception_4a/1x1
I0403 19:40:02.849066 25475 net.cpp:425] inception_4a/1x1 <- pool3/3x3_s2_pool3/3x3_s2_0_split_0
I0403 19:40:02.849087 25475 net.cpp:399] inception_4a/1x1 -> inception_4a/1x1
I0403 19:40:02.850611 25475 net.cpp:141] Setting up inception_4a/1x1
I0403 19:40:02.850647 25475 net.cpp:148] Top shape: 24 192 14 14 (903168)
I0403 19:40:02.850664 25475 net.cpp:156] Memory required for data: 858010656
I0403 19:40:02.850683 25475 layer_factory.hpp:77] Creating layer inception_4a/relu_1x1
I0403 19:40:02.850704 25475 net.cpp:91] Creating Layer inception_4a/relu_1x1
I0403 19:40:02.850721 25475 net.cpp:425] inception_4a/relu_1x1 <- inception_4a/1x1
I0403 19:40:02.850744 25475 net.cpp:386] inception_4a/relu_1x1 -> inception_4a/1x1 (in-place)
I0403 19:40:02.850921 25475 net.cpp:141] Setting up inception_4a/relu_1x1
I0403 19:40:02.850952 25475 net.cpp:148] Top shape: 24 192 14 14 (903168)
I0403 19:40:02.850968 25475 net.cpp:156] Memory required for data: 861623328
I0403 19:40:02.850985 25475 layer_factory.hpp:77] Creating layer inception_4a/3x3_reduce
I0403 19:40:02.851008 25475 net.cpp:91] Creating Layer inception_4a/3x3_reduce
I0403 19:40:02.851027 25475 net.cpp:425] inception_4a/3x3_reduce <- pool3/3x3_s2_pool3/3x3_s2_0_split_1
I0403 19:40:02.851050 25475 net.cpp:399] inception_4a/3x3_reduce -> inception_4a/3x3_reduce
I0403 19:40:02.852269 25475 net.cpp:141] Setting up inception_4a/3x3_reduce
I0403 19:40:02.852306 25475 net.cpp:148] Top shape: 24 96 14 14 (451584)
I0403 19:40:02.852325 25475 net.cpp:156] Memory required for data: 863429664
I0403 19:40:02.852350 25475 layer_factory.hpp:77] Creating layer inception_4a/relu_3x3_reduce
I0403 19:40:02.852373 25475 net.cpp:91] Creating Layer inception_4a/relu_3x3_reduce
I0403 19:40:02.852391 25475 net.cpp:425] inception_4a/relu_3x3_reduce <- inception_4a/3x3_reduce
I0403 19:40:02.852411 25475 net.cpp:386] inception_4a/relu_3x3_reduce -> inception_4a/3x3_reduce (in-place)
I0403 19:40:02.852581 25475 net.cpp:141] Setting up inception_4a/relu_3x3_reduce
I0403 19:40:02.852610 25475 net.cpp:148] Top shape: 24 96 14 14 (451584)
I0403 19:40:02.852627 25475 net.cpp:156] Memory required for data: 865236000
I0403 19:40:02.852643 25475 layer_factory.hpp:77] Creating layer inception_4a/3x3
I0403 19:40:02.852665 25475 net.cpp:91] Creating Layer inception_4a/3x3
I0403 19:40:02.852685 25475 net.cpp:425] inception_4a/3x3 <- inception_4a/3x3_reduce
I0403 19:40:02.852710 25475 net.cpp:399] inception_4a/3x3 -> inception_4a/3x3
I0403 19:40:02.855314 25475 net.cpp:141] Setting up inception_4a/3x3
I0403 19:40:02.855345 25475 net.cpp:148] Top shape: 24 208 14 14 (978432)
I0403 19:40:02.855363 25475 net.cpp:156] Memory required for data: 869149728
I0403 19:40:02.855383 25475 layer_factory.hpp:77] Creating layer inception_4a/relu_3x3
I0403 19:40:02.855404 25475 net.cpp:91] Creating Layer inception_4a/relu_3x3
I0403 19:40:02.855423 25475 net.cpp:425] inception_4a/relu_3x3 <- inception_4a/3x3
I0403 19:40:02.855444 25475 net.cpp:386] inception_4a/relu_3x3 -> inception_4a/3x3 (in-place)
I0403 19:40:02.855713 25475 net.cpp:141] Setting up inception_4a/relu_3x3
I0403 19:40:02.855744 25475 net.cpp:148] Top shape: 24 208 14 14 (978432)
I0403 19:40:02.855761 25475 net.cpp:156] Memory required for data: 873063456
I0403 19:40:02.855777 25475 layer_factory.hpp:77] Creating layer inception_4a/5x5_reduce
I0403 19:40:02.855801 25475 net.cpp:91] Creating Layer inception_4a/5x5_reduce
I0403 19:40:02.855819 25475 net.cpp:425] inception_4a/5x5_reduce <- pool3/3x3_s2_pool3/3x3_s2_0_split_2
I0403 19:40:02.855842 25475 net.cpp:399] inception_4a/5x5_reduce -> inception_4a/5x5_reduce
I0403 19:40:02.856818 25475 net.cpp:141] Setting up inception_4a/5x5_reduce
I0403 19:40:02.856853 25475 net.cpp:148] Top shape: 24 16 14 14 (75264)
I0403 19:40:02.856869 25475 net.cpp:156] Memory required for data: 873364512
I0403 19:40:02.856889 25475 layer_factory.hpp:77] Creating layer inception_4a/relu_5x5_reduce
I0403 19:40:02.856910 25475 net.cpp:91] Creating Layer inception_4a/relu_5x5_reduce
I0403 19:40:02.856930 25475 net.cpp:425] inception_4a/relu_5x5_reduce <- inception_4a/5x5_reduce
I0403 19:40:02.856950 25475 net.cpp:386] inception_4a/relu_5x5_reduce -> inception_4a/5x5_reduce (in-place)
I0403 19:40:02.857120 25475 net.cpp:141] Setting up inception_4a/relu_5x5_reduce
I0403 19:40:02.857152 25475 net.cpp:148] Top shape: 24 16 14 14 (75264)
I0403 19:40:02.857170 25475 net.cpp:156] Memory required for data: 873665568
I0403 19:40:02.857187 25475 layer_factory.hpp:77] Creating layer inception_4a/5x5
I0403 19:40:02.857213 25475 net.cpp:91] Creating Layer inception_4a/5x5
I0403 19:40:02.857233 25475 net.cpp:425] inception_4a/5x5 <- inception_4a/5x5_reduce
I0403 19:40:02.857252 25475 net.cpp:399] inception_4a/5x5 -> inception_4a/5x5
I0403 19:40:02.858328 25475 net.cpp:141] Setting up inception_4a/5x5
I0403 19:40:02.858358 25475 net.cpp:148] Top shape: 24 48 14 14 (225792)
I0403 19:40:02.858376 25475 net.cpp:156] Memory required for data: 874568736
I0403 19:40:02.858397 25475 layer_factory.hpp:77] Creating layer inception_4a/relu_5x5
I0403 19:40:02.858419 25475 net.cpp:91] Creating Layer inception_4a/relu_5x5
I0403 19:40:02.858440 25475 net.cpp:425] inception_4a/relu_5x5 <- inception_4a/5x5
I0403 19:40:02.858459 25475 net.cpp:386] inception_4a/relu_5x5 -> inception_4a/5x5 (in-place)
I0403 19:40:02.858635 25475 net.cpp:141] Setting up inception_4a/relu_5x5
I0403 19:40:02.858667 25475 net.cpp:148] Top shape: 24 48 14 14 (225792)
I0403 19:40:02.858685 25475 net.cpp:156] Memory required for data: 875471904
I0403 19:40:02.858700 25475 layer_factory.hpp:77] Creating layer inception_4a/pool
I0403 19:40:02.858718 25475 net.cpp:91] Creating Layer inception_4a/pool
I0403 19:40:02.858734 25475 net.cpp:425] inception_4a/pool <- pool3/3x3_s2_pool3/3x3_s2_0_split_3
I0403 19:40:02.858755 25475 net.cpp:399] inception_4a/pool -> inception_4a/pool
I0403 19:40:02.858819 25475 net.cpp:141] Setting up inception_4a/pool
I0403 19:40:02.858849 25475 net.cpp:148] Top shape: 24 480 14 14 (2257920)
I0403 19:40:02.858865 25475 net.cpp:156] Memory required for data: 884503584
I0403 19:40:02.858880 25475 layer_factory.hpp:77] Creating layer inception_4a/pool_proj
I0403 19:40:02.858904 25475 net.cpp:91] Creating Layer inception_4a/pool_proj
I0403 19:40:02.858924 25475 net.cpp:425] inception_4a/pool_proj <- inception_4a/pool
I0403 19:40:02.858944 25475 net.cpp:399] inception_4a/pool_proj -> inception_4a/pool_proj
I0403 19:40:02.860066 25475 net.cpp:141] Setting up inception_4a/pool_proj
I0403 19:40:02.860102 25475 net.cpp:148] Top shape: 24 64 14 14 (301056)
I0403 19:40:02.860134 25475 net.cpp:156] Memory required for data: 885707808
I0403 19:40:02.860154 25475 layer_factory.hpp:77] Creating layer inception_4a/relu_pool_proj
I0403 19:40:02.860174 25475 net.cpp:91] Creating Layer inception_4a/relu_pool_proj
I0403 19:40:02.860193 25475 net.cpp:425] inception_4a/relu_pool_proj <- inception_4a/pool_proj
I0403 19:40:02.860216 25475 net.cpp:386] inception_4a/relu_pool_proj -> inception_4a/pool_proj (in-place)
I0403 19:40:02.860494 25475 net.cpp:141] Setting up inception_4a/relu_pool_proj
I0403 19:40:02.860529 25475 net.cpp:148] Top shape: 24 64 14 14 (301056)
I0403 19:40:02.860546 25475 net.cpp:156] Memory required for data: 886912032
I0403 19:40:02.860561 25475 layer_factory.hpp:77] Creating layer inception_4a/output
I0403 19:40:02.860581 25475 net.cpp:91] Creating Layer inception_4a/output
I0403 19:40:02.860599 25475 net.cpp:425] inception_4a/output <- inception_4a/1x1
I0403 19:40:02.860620 25475 net.cpp:425] inception_4a/output <- inception_4a/3x3
I0403 19:40:02.860637 25475 net.cpp:425] inception_4a/output <- inception_4a/5x5
I0403 19:40:02.860654 25475 net.cpp:425] inception_4a/output <- inception_4a/pool_proj
I0403 19:40:02.860676 25475 net.cpp:399] inception_4a/output -> inception_4a/output
I0403 19:40:02.860720 25475 net.cpp:141] Setting up inception_4a/output
I0403 19:40:02.860750 25475 net.cpp:148] Top shape: 24 512 14 14 (2408448)
I0403 19:40:02.860766 25475 net.cpp:156] Memory required for data: 896545824
I0403 19:40:02.860783 25475 layer_factory.hpp:77] Creating layer inception_4a/output_inception_4a/output_0_split
I0403 19:40:02.860803 25475 net.cpp:91] Creating Layer inception_4a/output_inception_4a/output_0_split
I0403 19:40:02.860821 25475 net.cpp:425] inception_4a/output_inception_4a/output_0_split <- inception_4a/output
I0403 19:40:02.860841 25475 net.cpp:399] inception_4a/output_inception_4a/output_0_split -> inception_4a/output_inception_4a/output_0_split_0
I0403 19:40:02.860863 25475 net.cpp:399] inception_4a/output_inception_4a/output_0_split -> inception_4a/output_inception_4a/output_0_split_1
I0403 19:40:02.860891 25475 net.cpp:399] inception_4a/output_inception_4a/output_0_split -> inception_4a/output_inception_4a/output_0_split_2
I0403 19:40:02.860913 25475 net.cpp:399] inception_4a/output_inception_4a/output_0_split -> inception_4a/output_inception_4a/output_0_split_3
I0403 19:40:02.860934 25475 net.cpp:399] inception_4a/output_inception_4a/output_0_split -> inception_4a/output_inception_4a/output_0_split_4
I0403 19:40:02.861023 25475 net.cpp:141] Setting up inception_4a/output_inception_4a/output_0_split
I0403 19:40:02.861050 25475 net.cpp:148] Top shape: 24 512 14 14 (2408448)
I0403 19:40:02.861068 25475 net.cpp:148] Top shape: 24 512 14 14 (2408448)
I0403 19:40:02.861084 25475 net.cpp:148] Top shape: 24 512 14 14 (2408448)
I0403 19:40:02.861102 25475 net.cpp:148] Top shape: 24 512 14 14 (2408448)
I0403 19:40:02.861119 25475 net.cpp:148] Top shape: 24 512 14 14 (2408448)
I0403 19:40:02.861132 25475 net.cpp:156] Memory required for data: 944714784
I0403 19:40:02.861147 25475 layer_factory.hpp:77] Creating layer loss1/ave_pool
I0403 19:40:02.861168 25475 net.cpp:91] Creating Layer loss1/ave_pool
I0403 19:40:02.861188 25475 net.cpp:425] loss1/ave_pool <- inception_4a/output_inception_4a/output_0_split_0
I0403 19:40:02.861208 25475 net.cpp:399] loss1/ave_pool -> loss1/ave_pool
I0403 19:40:02.861459 25475 net.cpp:141] Setting up loss1/ave_pool
I0403 19:40:02.861492 25475 net.cpp:148] Top shape: 24 512 4 4 (196608)
I0403 19:40:02.861512 25475 net.cpp:156] Memory required for data: 945501216
I0403 19:40:02.861529 25475 layer_factory.hpp:77] Creating layer loss1/conv
I0403 19:40:02.861567 25475 net.cpp:91] Creating Layer loss1/conv
I0403 19:40:02.861589 25475 net.cpp:425] loss1/conv <- loss1/ave_pool
I0403 19:40:02.861623 25475 net.cpp:399] loss1/conv -> loss1/conv
I0403 19:40:02.862970 25475 net.cpp:141] Setting up loss1/conv
I0403 19:40:02.863003 25475 net.cpp:148] Top shape: 24 128 4 4 (49152)
I0403 19:40:02.863036 25475 net.cpp:156] Memory required for data: 945697824
I0403 19:40:02.863056 25475 layer_factory.hpp:77] Creating layer loss1/relu_conv
I0403 19:40:02.863081 25475 net.cpp:91] Creating Layer loss1/relu_conv
I0403 19:40:02.863101 25475 net.cpp:425] loss1/relu_conv <- loss1/conv
I0403 19:40:02.863121 25475 net.cpp:386] loss1/relu_conv -> loss1/conv (in-place)
I0403 19:40:02.863396 25475 net.cpp:141] Setting up loss1/relu_conv
I0403 19:40:02.863428 25475 net.cpp:148] Top shape: 24 128 4 4 (49152)
I0403 19:40:02.863445 25475 net.cpp:156] Memory required for data: 945894432
I0403 19:40:02.863462 25475 layer_factory.hpp:77] Creating layer loss1/fc
I0403 19:40:02.863493 25475 net.cpp:91] Creating Layer loss1/fc
I0403 19:40:02.863513 25475 net.cpp:425] loss1/fc <- loss1/conv
I0403 19:40:02.863533 25475 net.cpp:399] loss1/fc -> loss1/fc
I0403 19:40:02.880946 25475 net.cpp:141] Setting up loss1/fc
I0403 19:40:02.880983 25475 net.cpp:148] Top shape: 24 1024 (24576)
I0403 19:40:02.881000 25475 net.cpp:156] Memory required for data: 945992736
I0403 19:40:02.881017 25475 layer_factory.hpp:77] Creating layer loss1/relu_fc
I0403 19:40:02.881036 25475 net.cpp:91] Creating Layer loss1/relu_fc
I0403 19:40:02.881052 25475 net.cpp:425] loss1/relu_fc <- loss1/fc
I0403 19:40:02.881073 25475 net.cpp:386] loss1/relu_fc -> loss1/fc (in-place)
I0403 19:40:02.881250 25475 net.cpp:141] Setting up loss1/relu_fc
I0403 19:40:02.881283 25475 net.cpp:148] Top shape: 24 1024 (24576)
I0403 19:40:02.881300 25475 net.cpp:156] Memory required for data: 946091040
I0403 19:40:02.881315 25475 layer_factory.hpp:77] Creating layer loss1/drop_fc
I0403 19:40:02.881341 25475 net.cpp:91] Creating Layer loss1/drop_fc
I0403 19:40:02.881362 25475 net.cpp:425] loss1/drop_fc <- loss1/fc
I0403 19:40:02.881382 25475 net.cpp:386] loss1/drop_fc -> loss1/fc (in-place)
I0403 19:40:02.881438 25475 net.cpp:141] Setting up loss1/drop_fc
I0403 19:40:02.881469 25475 net.cpp:148] Top shape: 24 1024 (24576)
I0403 19:40:02.881485 25475 net.cpp:156] Memory required for data: 946189344
I0403 19:40:02.881502 25475 layer_factory.hpp:77] Creating layer loss1/classifier_plantvillage
I0403 19:40:02.881520 25475 net.cpp:91] Creating Layer loss1/classifier_plantvillage
I0403 19:40:02.881536 25475 net.cpp:425] loss1/classifier_plantvillage <- loss1/fc
I0403 19:40:02.881557 25475 net.cpp:399] loss1/classifier_plantvillage -> loss1/classifier_plantvillage
I0403 19:40:02.882436 25475 net.cpp:141] Setting up loss1/classifier_plantvillage
I0403 19:40:02.882470 25475 net.cpp:148] Top shape: 24 38 (912)
I0403 19:40:02.882486 25475 net.cpp:156] Memory required for data: 946192992
I0403 19:40:02.882505 25475 layer_factory.hpp:77] Creating layer loss1/classifier_plantvillage_loss1/classifier_plantvillage_0_split
I0403 19:40:02.882526 25475 net.cpp:91] Creating Layer loss1/classifier_plantvillage_loss1/classifier_plantvillage_0_split
I0403 19:40:02.882542 25475 net.cpp:425] loss1/classifier_plantvillage_loss1/classifier_plantvillage_0_split <- loss1/classifier_plantvillage
I0403 19:40:02.882563 25475 net.cpp:399] loss1/classifier_plantvillage_loss1/classifier_plantvillage_0_split -> loss1/classifier_plantvillage_loss1/classifier_plantvillage_0_split_0
I0403 19:40:02.882588 25475 net.cpp:399] loss1/classifier_plantvillage_loss1/classifier_plantvillage_0_split -> loss1/classifier_plantvillage_loss1/classifier_plantvillage_0_split_1
I0403 19:40:02.882611 25475 net.cpp:399] loss1/classifier_plantvillage_loss1/classifier_plantvillage_0_split -> loss1/classifier_plantvillage_loss1/classifier_plantvillage_0_split_2
I0403 19:40:02.882678 25475 net.cpp:141] Setting up loss1/classifier_plantvillage_loss1/classifier_plantvillage_0_split
I0403 19:40:02.882706 25475 net.cpp:148] Top shape: 24 38 (912)
I0403 19:40:02.882725 25475 net.cpp:148] Top shape: 24 38 (912)
I0403 19:40:02.882740 25475 net.cpp:148] Top shape: 24 38 (912)
I0403 19:40:02.882753 25475 net.cpp:156] Memory required for data: 946203936
I0403 19:40:02.882769 25475 layer_factory.hpp:77] Creating layer inception_4b/1x1
I0403 19:40:02.882792 25475 net.cpp:91] Creating Layer inception_4b/1x1
I0403 19:40:02.882824 25475 net.cpp:425] inception_4b/1x1 <- inception_4a/output_inception_4a/output_0_split_1
I0403 19:40:02.882846 25475 net.cpp:399] inception_4b/1x1 -> inception_4b/1x1
I0403 19:40:02.884379 25475 net.cpp:141] Setting up inception_4b/1x1
I0403 19:40:02.884409 25475 net.cpp:148] Top shape: 24 160 14 14 (752640)
I0403 19:40:02.884428 25475 net.cpp:156] Memory required for data: 949214496
I0403 19:40:02.884445 25475 layer_factory.hpp:77] Creating layer inception_4b/relu_1x1
I0403 19:40:02.884465 25475 net.cpp:91] Creating Layer inception_4b/relu_1x1
I0403 19:40:02.884482 25475 net.cpp:425] inception_4b/relu_1x1 <- inception_4b/1x1
I0403 19:40:02.884500 25475 net.cpp:386] inception_4b/relu_1x1 -> inception_4b/1x1 (in-place)
I0403 19:40:02.884671 25475 net.cpp:141] Setting up inception_4b/relu_1x1
I0403 19:40:02.884701 25475 net.cpp:148] Top shape: 24 160 14 14 (752640)
I0403 19:40:02.884716 25475 net.cpp:156] Memory required for data: 952225056
I0403 19:40:02.884732 25475 layer_factory.hpp:77] Creating layer inception_4b/3x3_reduce
I0403 19:40:02.884753 25475 net.cpp:91] Creating Layer inception_4b/3x3_reduce
I0403 19:40:02.884773 25475 net.cpp:425] inception_4b/3x3_reduce <- inception_4a/output_inception_4a/output_0_split_2
I0403 19:40:02.884795 25475 net.cpp:399] inception_4b/3x3_reduce -> inception_4b/3x3_reduce
I0403 19:40:02.886054 25475 net.cpp:141] Setting up inception_4b/3x3_reduce
I0403 19:40:02.886085 25475 net.cpp:148] Top shape: 24 112 14 14 (526848)
I0403 19:40:02.886106 25475 net.cpp:156] Memory required for data: 954332448
I0403 19:40:02.886126 25475 layer_factory.hpp:77] Creating layer inception_4b/relu_3x3_reduce
I0403 19:40:02.886145 25475 net.cpp:91] Creating Layer inception_4b/relu_3x3_reduce
I0403 19:40:02.886162 25475 net.cpp:425] inception_4b/relu_3x3_reduce <- inception_4b/3x3_reduce
I0403 19:40:02.886180 25475 net.cpp:386] inception_4b/relu_3x3_reduce -> inception_4b/3x3_reduce (in-place)
I0403 19:40:02.886448 25475 net.cpp:141] Setting up inception_4b/relu_3x3_reduce
I0403 19:40:02.886476 25475 net.cpp:148] Top shape: 24 112 14 14 (526848)
I0403 19:40:02.886497 25475 net.cpp:156] Memory required for data: 956439840
I0403 19:40:02.886512 25475 layer_factory.hpp:77] Creating layer inception_4b/3x3
I0403 19:40:02.886533 25475 net.cpp:91] Creating Layer inception_4b/3x3
I0403 19:40:02.886551 25475 net.cpp:425] inception_4b/3x3 <- inception_4b/3x3_reduce
I0403 19:40:02.886574 25475 net.cpp:399] inception_4b/3x3 -> inception_4b/3x3
I0403 19:40:02.889405 25475 net.cpp:141] Setting up inception_4b/3x3
I0403 19:40:02.889448 25475 net.cpp:148] Top shape: 24 224 14 14 (1053696)
I0403 19:40:02.889466 25475 net.cpp:156] Memory required for data: 960654624
I0403 19:40:02.889485 25475 layer_factory.hpp:77] Creating layer inception_4b/relu_3x3
I0403 19:40:02.889505 25475 net.cpp:91] Creating Layer inception_4b/relu_3x3
I0403 19:40:02.889524 25475 net.cpp:425] inception_4b/relu_3x3 <- inception_4b/3x3
I0403 19:40:02.889546 25475 net.cpp:386] inception_4b/relu_3x3 -> inception_4b/3x3 (in-place)
I0403 19:40:02.889734 25475 net.cpp:141] Setting up inception_4b/relu_3x3
I0403 19:40:02.889761 25475 net.cpp:148] Top shape: 24 224 14 14 (1053696)
I0403 19:40:02.889777 25475 net.cpp:156] Memory required for data: 964869408
I0403 19:40:02.889793 25475 layer_factory.hpp:77] Creating layer inception_4b/5x5_reduce
I0403 19:40:02.889814 25475 net.cpp:91] Creating Layer inception_4b/5x5_reduce
I0403 19:40:02.889833 25475 net.cpp:425] inception_4b/5x5_reduce <- inception_4a/output_inception_4a/output_0_split_3
I0403 19:40:02.889855 25475 net.cpp:399] inception_4b/5x5_reduce -> inception_4b/5x5_reduce
I0403 19:40:02.890872 25475 net.cpp:141] Setting up inception_4b/5x5_reduce
I0403 19:40:02.890900 25475 net.cpp:148] Top shape: 24 24 14 14 (112896)
I0403 19:40:02.890918 25475 net.cpp:156] Memory required for data: 965320992
I0403 19:40:02.890936 25475 layer_factory.hpp:77] Creating layer inception_4b/relu_5x5_reduce
I0403 19:40:02.890959 25475 net.cpp:91] Creating Layer inception_4b/relu_5x5_reduce
I0403 19:40:02.890993 25475 net.cpp:425] inception_4b/relu_5x5_reduce <- inception_4b/5x5_reduce
I0403 19:40:02.891013 25475 net.cpp:386] inception_4b/relu_5x5_reduce -> inception_4b/5x5_reduce (in-place)
I0403 19:40:02.891187 25475 net.cpp:141] Setting up inception_4b/relu_5x5_reduce
I0403 19:40:02.891216 25475 net.cpp:148] Top shape: 24 24 14 14 (112896)
I0403 19:40:02.891234 25475 net.cpp:156] Memory required for data: 965772576
I0403 19:40:02.891249 25475 layer_factory.hpp:77] Creating layer inception_4b/5x5
I0403 19:40:02.891278 25475 net.cpp:91] Creating Layer inception_4b/5x5
I0403 19:40:02.891299 25475 net.cpp:425] inception_4b/5x5 <- inception_4b/5x5_reduce
I0403 19:40:02.891319 25475 net.cpp:399] inception_4b/5x5 -> inception_4b/5x5
I0403 19:40:02.892472 25475 net.cpp:141] Setting up inception_4b/5x5
I0403 19:40:02.892503 25475 net.cpp:148] Top shape: 24 64 14 14 (301056)
I0403 19:40:02.892520 25475 net.cpp:156] Memory required for data: 966976800
I0403 19:40:02.892539 25475 layer_factory.hpp:77] Creating layer inception_4b/relu_5x5
I0403 19:40:02.892560 25475 net.cpp:91] Creating Layer inception_4b/relu_5x5
I0403 19:40:02.892580 25475 net.cpp:425] inception_4b/relu_5x5 <- inception_4b/5x5
I0403 19:40:02.892599 25475 net.cpp:386] inception_4b/relu_5x5 -> inception_4b/5x5 (in-place)
I0403 19:40:02.892873 25475 net.cpp:141] Setting up inception_4b/relu_5x5
I0403 19:40:02.892904 25475 net.cpp:148] Top shape: 24 64 14 14 (301056)
I0403 19:40:02.892920 25475 net.cpp:156] Memory required for data: 968181024
I0403 19:40:02.892936 25475 layer_factory.hpp:77] Creating layer inception_4b/pool
I0403 19:40:02.892956 25475 net.cpp:91] Creating Layer inception_4b/pool
I0403 19:40:02.892971 25475 net.cpp:425] inception_4b/pool <- inception_4a/output_inception_4a/output_0_split_4
I0403 19:40:02.892993 25475 net.cpp:399] inception_4b/pool -> inception_4b/pool
I0403 19:40:02.893059 25475 net.cpp:141] Setting up inception_4b/pool
I0403 19:40:02.893085 25475 net.cpp:148] Top shape: 24 512 14 14 (2408448)
I0403 19:40:02.893100 25475 net.cpp:156] Memory required for data: 977814816
I0403 19:40:02.893116 25475 layer_factory.hpp:77] Creating layer inception_4b/pool_proj
I0403 19:40:02.893139 25475 net.cpp:91] Creating Layer inception_4b/pool_proj
I0403 19:40:02.893159 25475 net.cpp:425] inception_4b/pool_proj <- inception_4b/pool
I0403 19:40:02.893182 25475 net.cpp:399] inception_4b/pool_proj -> inception_4b/pool_proj
I0403 19:40:02.894320 25475 net.cpp:141] Setting up inception_4b/pool_proj
I0403 19:40:02.894351 25475 net.cpp:148] Top shape: 24 64 14 14 (301056)
I0403 19:40:02.894371 25475 net.cpp:156] Memory required for data: 979019040
I0403 19:40:02.894388 25475 layer_factory.hpp:77] Creating layer inception_4b/relu_pool_proj
I0403 19:40:02.894410 25475 net.cpp:91] Creating Layer inception_4b/relu_pool_proj
I0403 19:40:02.894429 25475 net.cpp:425] inception_4b/relu_pool_proj <- inception_4b/pool_proj
I0403 19:40:02.894449 25475 net.cpp:386] inception_4b/relu_pool_proj -> inception_4b/pool_proj (in-place)
I0403 19:40:02.894619 25475 net.cpp:141] Setting up inception_4b/relu_pool_proj
I0403 19:40:02.894649 25475 net.cpp:148] Top shape: 24 64 14 14 (301056)
I0403 19:40:02.894666 25475 net.cpp:156] Memory required for data: 980223264
I0403 19:40:02.894682 25475 layer_factory.hpp:77] Creating layer inception_4b/output
I0403 19:40:02.894701 25475 net.cpp:91] Creating Layer inception_4b/output
I0403 19:40:02.894718 25475 net.cpp:425] inception_4b/output <- inception_4b/1x1
I0403 19:40:02.894734 25475 net.cpp:425] inception_4b/output <- inception_4b/3x3
I0403 19:40:02.894752 25475 net.cpp:425] inception_4b/output <- inception_4b/5x5
I0403 19:40:02.894769 25475 net.cpp:425] inception_4b/output <- inception_4b/pool_proj
I0403 19:40:02.894788 25475 net.cpp:399] inception_4b/output -> inception_4b/output
I0403 19:40:02.894834 25475 net.cpp:141] Setting up inception_4b/output
I0403 19:40:02.894860 25475 net.cpp:148] Top shape: 24 512 14 14 (2408448)
I0403 19:40:02.894877 25475 net.cpp:156] Memory required for data: 989857056
I0403 19:40:02.894908 25475 layer_factory.hpp:77] Creating layer inception_4b/output_inception_4b/output_0_split
I0403 19:40:02.894930 25475 net.cpp:91] Creating Layer inception_4b/output_inception_4b/output_0_split
I0403 19:40:02.894948 25475 net.cpp:425] inception_4b/output_inception_4b/output_0_split <- inception_4b/output
I0403 19:40:02.894965 25475 net.cpp:399] inception_4b/output_inception_4b/output_0_split -> inception_4b/output_inception_4b/output_0_split_0
I0403 19:40:02.894987 25475 net.cpp:399] inception_4b/output_inception_4b/output_0_split -> inception_4b/output_inception_4b/output_0_split_1
I0403 19:40:02.895010 25475 net.cpp:399] inception_4b/output_inception_4b/output_0_split -> inception_4b/output_inception_4b/output_0_split_2
I0403 19:40:02.895032 25475 net.cpp:399] inception_4b/output_inception_4b/output_0_split -> inception_4b/output_inception_4b/output_0_split_3
I0403 19:40:02.895115 25475 net.cpp:141] Setting up inception_4b/output_inception_4b/output_0_split
I0403 19:40:02.895141 25475 net.cpp:148] Top shape: 24 512 14 14 (2408448)
I0403 19:40:02.895159 25475 net.cpp:148] Top shape: 24 512 14 14 (2408448)
I0403 19:40:02.895174 25475 net.cpp:148] Top shape: 24 512 14 14 (2408448)
I0403 19:40:02.895190 25475 net.cpp:148] Top shape: 24 512 14 14 (2408448)
I0403 19:40:02.895203 25475 net.cpp:156] Memory required for data: 1028392224
I0403 19:40:02.895220 25475 layer_factory.hpp:77] Creating layer inception_4c/1x1
I0403 19:40:02.895243 25475 net.cpp:91] Creating Layer inception_4c/1x1
I0403 19:40:02.895268 25475 net.cpp:425] inception_4c/1x1 <- inception_4b/output_inception_4b/output_0_split_0
I0403 19:40:02.895292 25475 net.cpp:399] inception_4c/1x1 -> inception_4c/1x1
I0403 19:40:02.896637 25475 net.cpp:141] Setting up inception_4c/1x1
I0403 19:40:02.896672 25475 net.cpp:148] Top shape: 24 128 14 14 (602112)
I0403 19:40:02.896692 25475 net.cpp:156] Memory required for data: 1030800672
I0403 19:40:02.896709 25475 layer_factory.hpp:77] Creating layer inception_4c/relu_1x1
I0403 19:40:02.896728 25475 net.cpp:91] Creating Layer inception_4c/relu_1x1
I0403 19:40:02.896744 25475 net.cpp:425] inception_4c/relu_1x1 <- inception_4c/1x1
I0403 19:40:02.896766 25475 net.cpp:386] inception_4c/relu_1x1 -> inception_4c/1x1 (in-place)
I0403 19:40:02.896939 25475 net.cpp:141] Setting up inception_4c/relu_1x1
I0403 19:40:02.896965 25475 net.cpp:148] Top shape: 24 128 14 14 (602112)
I0403 19:40:02.896981 25475 net.cpp:156] Memory required for data: 1033209120
I0403 19:40:02.896996 25475 layer_factory.hpp:77] Creating layer inception_4c/3x3_reduce
I0403 19:40:02.897017 25475 net.cpp:91] Creating Layer inception_4c/3x3_reduce
I0403 19:40:02.897037 25475 net.cpp:425] inception_4c/3x3_reduce <- inception_4b/output_inception_4b/output_0_split_1
I0403 19:40:02.897061 25475 net.cpp:399] inception_4c/3x3_reduce -> inception_4c/3x3_reduce
I0403 19:40:02.898905 25475 net.cpp:141] Setting up inception_4c/3x3_reduce
I0403 19:40:02.898936 25475 net.cpp:148] Top shape: 24 128 14 14 (602112)
I0403 19:40:02.898953 25475 net.cpp:156] Memory required for data: 1035617568
I0403 19:40:02.898972 25475 layer_factory.hpp:77] Creating layer inception_4c/relu_3x3_reduce
I0403 19:40:02.898996 25475 net.cpp:91] Creating Layer inception_4c/relu_3x3_reduce
I0403 19:40:02.899016 25475 net.cpp:425] inception_4c/relu_3x3_reduce <- inception_4c/3x3_reduce
I0403 19:40:02.899036 25475 net.cpp:386] inception_4c/relu_3x3_reduce -> inception_4c/3x3_reduce (in-place)
I0403 19:40:02.899310 25475 net.cpp:141] Setting up inception_4c/relu_3x3_reduce
I0403 19:40:02.899339 25475 net.cpp:148] Top shape: 24 128 14 14 (602112)
I0403 19:40:02.899356 25475 net.cpp:156] Memory required for data: 1038026016
I0403 19:40:02.899371 25475 layer_factory.hpp:77] Creating layer inception_4c/3x3
I0403 19:40:02.899394 25475 net.cpp:91] Creating Layer inception_4c/3x3
I0403 19:40:02.899415 25475 net.cpp:425] inception_4c/3x3 <- inception_4c/3x3_reduce
I0403 19:40:02.899435 25475 net.cpp:399] inception_4c/3x3 -> inception_4c/3x3
I0403 19:40:02.902832 25475 net.cpp:141] Setting up inception_4c/3x3
I0403 19:40:02.902874 25475 net.cpp:148] Top shape: 24 256 14 14 (1204224)
I0403 19:40:02.902892 25475 net.cpp:156] Memory required for data: 1042842912
I0403 19:40:02.902925 25475 layer_factory.hpp:77] Creating layer inception_4c/relu_3x3
I0403 19:40:02.902951 25475 net.cpp:91] Creating Layer inception_4c/relu_3x3
I0403 19:40:02.902968 25475 net.cpp:425] inception_4c/relu_3x3 <- inception_4c/3x3
I0403 19:40:02.902987 25475 net.cpp:386] inception_4c/relu_3x3 -> inception_4c/3x3 (in-place)
I0403 19:40:02.903161 25475 net.cpp:141] Setting up inception_4c/relu_3x3
I0403 19:40:02.903189 25475 net.cpp:148] Top shape: 24 256 14 14 (1204224)
I0403 19:40:02.903205 25475 net.cpp:156] Memory required for data: 1047659808
I0403 19:40:02.903221 25475 layer_factory.hpp:77] Creating layer inception_4c/5x5_reduce
I0403 19:40:02.903242 25475 net.cpp:91] Creating Layer inception_4c/5x5_reduce
I0403 19:40:02.903266 25475 net.cpp:425] inception_4c/5x5_reduce <- inception_4b/output_inception_4b/output_0_split_2
I0403 19:40:02.903291 25475 net.cpp:399] inception_4c/5x5_reduce -> inception_4c/5x5_reduce
I0403 19:40:02.904330 25475 net.cpp:141] Setting up inception_4c/5x5_reduce
I0403 19:40:02.904361 25475 net.cpp:148] Top shape: 24 24 14 14 (112896)
I0403 19:40:02.904379 25475 net.cpp:156] Memory required for data: 1048111392
I0403 19:40:02.904399 25475 layer_factory.hpp:77] Creating layer inception_4c/relu_5x5_reduce
I0403 19:40:02.904420 25475 net.cpp:91] Creating Layer inception_4c/relu_5x5_reduce
I0403 19:40:02.904439 25475 net.cpp:425] inception_4c/relu_5x5_reduce <- inception_4c/5x5_reduce
I0403 19:40:02.904458 25475 net.cpp:386] inception_4c/relu_5x5_reduce -> inception_4c/5x5_reduce (in-place)
I0403 19:40:02.904631 25475 net.cpp:141] Setting up inception_4c/relu_5x5_reduce
I0403 19:40:02.904659 25475 net.cpp:148] Top shape: 24 24 14 14 (112896)
I0403 19:40:02.904676 25475 net.cpp:156] Memory required for data: 1048562976
I0403 19:40:02.904693 25475 layer_factory.hpp:77] Creating layer inception_4c/5x5
I0403 19:40:02.904716 25475 net.cpp:91] Creating Layer inception_4c/5x5
I0403 19:40:02.904736 25475 net.cpp:425] inception_4c/5x5 <- inception_4c/5x5_reduce
I0403 19:40:02.904754 25475 net.cpp:399] inception_4c/5x5 -> inception_4c/5x5
I0403 19:40:02.905931 25475 net.cpp:141] Setting up inception_4c/5x5
I0403 19:40:02.905964 25475 net.cpp:148] Top shape: 24 64 14 14 (301056)
I0403 19:40:02.905982 25475 net.cpp:156] Memory required for data: 1049767200
I0403 19:40:02.906002 25475 layer_factory.hpp:77] Creating layer inception_4c/relu_5x5
I0403 19:40:02.906023 25475 net.cpp:91] Creating Layer inception_4c/relu_5x5
I0403 19:40:02.906039 25475 net.cpp:425] inception_4c/relu_5x5 <- inception_4c/5x5
I0403 19:40:02.906059 25475 net.cpp:386] inception_4c/relu_5x5 -> inception_4c/5x5 (in-place)
I0403 19:40:02.906357 25475 net.cpp:141] Setting up inception_4c/relu_5x5
I0403 19:40:02.906391 25475 net.cpp:148] Top shape: 24 64 14 14 (301056)
I0403 19:40:02.906409 25475 net.cpp:156] Memory required for data: 1050971424
I0403 19:40:02.906425 25475 layer_factory.hpp:77] Creating layer inception_4c/pool
I0403 19:40:02.906443 25475 net.cpp:91] Creating Layer inception_4c/pool
I0403 19:40:02.906462 25475 net.cpp:425] inception_4c/pool <- inception_4b/output_inception_4b/output_0_split_3
I0403 19:40:02.906482 25475 net.cpp:399] inception_4c/pool -> inception_4c/pool
I0403 19:40:02.906549 25475 net.cpp:141] Setting up inception_4c/pool
I0403 19:40:02.906576 25475 net.cpp:148] Top shape: 24 512 14 14 (2408448)
I0403 19:40:02.906592 25475 net.cpp:156] Memory required for data: 1060605216
I0403 19:40:02.906607 25475 layer_factory.hpp:77] Creating layer inception_4c/pool_proj
I0403 19:40:02.906631 25475 net.cpp:91] Creating Layer inception_4c/pool_proj
I0403 19:40:02.906651 25475 net.cpp:425] inception_4c/pool_proj <- inception_4c/pool
I0403 19:40:02.906674 25475 net.cpp:399] inception_4c/pool_proj -> inception_4c/pool_proj
I0403 19:40:02.907901 25475 net.cpp:141] Setting up inception_4c/pool_proj
I0403 19:40:02.907929 25475 net.cpp:148] Top shape: 24 64 14 14 (301056)
I0403 19:40:02.907960 25475 net.cpp:156] Memory required for data: 1061809440
I0403 19:40:02.907981 25475 layer_factory.hpp:77] Creating layer inception_4c/relu_pool_proj
I0403 19:40:02.908004 25475 net.cpp:91] Creating Layer inception_4c/relu_pool_proj
I0403 19:40:02.908025 25475 net.cpp:425] inception_4c/relu_pool_proj <- inception_4c/pool_proj
I0403 19:40:02.908044 25475 net.cpp:386] inception_4c/relu_pool_proj -> inception_4c/pool_proj (in-place)
I0403 19:40:02.908221 25475 net.cpp:141] Setting up inception_4c/relu_pool_proj
I0403 19:40:02.908254 25475 net.cpp:148] Top shape: 24 64 14 14 (301056)
I0403 19:40:02.908277 25475 net.cpp:156] Memory required for data: 1063013664
I0403 19:40:02.908293 25475 layer_factory.hpp:77] Creating layer inception_4c/output
I0403 19:40:02.908313 25475 net.cpp:91] Creating Layer inception_4c/output
I0403 19:40:02.908330 25475 net.cpp:425] inception_4c/output <- inception_4c/1x1
I0403 19:40:02.908347 25475 net.cpp:425] inception_4c/output <- inception_4c/3x3
I0403 19:40:02.908365 25475 net.cpp:425] inception_4c/output <- inception_4c/5x5
I0403 19:40:02.908381 25475 net.cpp:425] inception_4c/output <- inception_4c/pool_proj
I0403 19:40:02.908399 25475 net.cpp:399] inception_4c/output -> inception_4c/output
I0403 19:40:02.908448 25475 net.cpp:141] Setting up inception_4c/output
I0403 19:40:02.908475 25475 net.cpp:148] Top shape: 24 512 14 14 (2408448)
I0403 19:40:02.908491 25475 net.cpp:156] Memory required for data: 1072647456
I0403 19:40:02.908505 25475 layer_factory.hpp:77] Creating layer inception_4c/output_inception_4c/output_0_split
I0403 19:40:02.908525 25475 net.cpp:91] Creating Layer inception_4c/output_inception_4c/output_0_split
I0403 19:40:02.908546 25475 net.cpp:425] inception_4c/output_inception_4c/output_0_split <- inception_4c/output
I0403 19:40:02.908566 25475 net.cpp:399] inception_4c/output_inception_4c/output_0_split -> inception_4c/output_inception_4c/output_0_split_0
I0403 19:40:02.908588 25475 net.cpp:399] inception_4c/output_inception_4c/output_0_split -> inception_4c/output_inception_4c/output_0_split_1
I0403 19:40:02.908609 25475 net.cpp:399] inception_4c/output_inception_4c/output_0_split -> inception_4c/output_inception_4c/output_0_split_2
I0403 19:40:02.908630 25475 net.cpp:399] inception_4c/output_inception_4c/output_0_split -> inception_4c/output_inception_4c/output_0_split_3
I0403 19:40:02.908717 25475 net.cpp:141] Setting up inception_4c/output_inception_4c/output_0_split
I0403 19:40:02.908746 25475 net.cpp:148] Top shape: 24 512 14 14 (2408448)
I0403 19:40:02.908762 25475 net.cpp:148] Top shape: 24 512 14 14 (2408448)
I0403 19:40:02.908779 25475 net.cpp:148] Top shape: 24 512 14 14 (2408448)
I0403 19:40:02.908797 25475 net.cpp:148] Top shape: 24 512 14 14 (2408448)
I0403 19:40:02.908812 25475 net.cpp:156] Memory required for data: 1111182624
I0403 19:40:02.908825 25475 layer_factory.hpp:77] Creating layer inception_4d/1x1
I0403 19:40:02.908849 25475 net.cpp:91] Creating Layer inception_4d/1x1
I0403 19:40:02.908869 25475 net.cpp:425] inception_4d/1x1 <- inception_4c/output_inception_4c/output_0_split_0
I0403 19:40:02.908892 25475 net.cpp:399] inception_4d/1x1 -> inception_4d/1x1
I0403 19:40:02.910228 25475 net.cpp:141] Setting up inception_4d/1x1
I0403 19:40:02.910264 25475 net.cpp:148] Top shape: 24 112 14 14 (526848)
I0403 19:40:02.910284 25475 net.cpp:156] Memory required for data: 1113290016
I0403 19:40:02.910303 25475 layer_factory.hpp:77] Creating layer inception_4d/relu_1x1
I0403 19:40:02.910322 25475 net.cpp:91] Creating Layer inception_4d/relu_1x1
I0403 19:40:02.910339 25475 net.cpp:425] inception_4d/relu_1x1 <- inception_4d/1x1
I0403 19:40:02.910363 25475 net.cpp:386] inception_4d/relu_1x1 -> inception_4d/1x1 (in-place)
I0403 19:40:02.910545 25475 net.cpp:141] Setting up inception_4d/relu_1x1
I0403 19:40:02.910575 25475 net.cpp:148] Top shape: 24 112 14 14 (526848)
I0403 19:40:02.910593 25475 net.cpp:156] Memory required for data: 1115397408
I0403 19:40:02.910607 25475 layer_factory.hpp:77] Creating layer inception_4d/3x3_reduce
I0403 19:40:02.910645 25475 net.cpp:91] Creating Layer inception_4d/3x3_reduce
I0403 19:40:02.910668 25475 net.cpp:425] inception_4d/3x3_reduce <- inception_4c/output_inception_4c/output_0_split_1
I0403 19:40:02.910691 25475 net.cpp:399] inception_4d/3x3_reduce -> inception_4d/3x3_reduce
I0403 19:40:02.912183 25475 net.cpp:141] Setting up inception_4d/3x3_reduce
I0403 19:40:02.912215 25475 net.cpp:148] Top shape: 24 144 14 14 (677376)
I0403 19:40:02.912233 25475 net.cpp:156] Memory required for data: 1118106912
I0403 19:40:02.912253 25475 layer_factory.hpp:77] Creating layer inception_4d/relu_3x3_reduce
I0403 19:40:02.912279 25475 net.cpp:91] Creating Layer inception_4d/relu_3x3_reduce
I0403 19:40:02.912298 25475 net.cpp:425] inception_4d/relu_3x3_reduce <- inception_4d/3x3_reduce
I0403 19:40:02.912319 25475 net.cpp:386] inception_4d/relu_3x3_reduce -> inception_4d/3x3_reduce (in-place)
I0403 19:40:02.912598 25475 net.cpp:141] Setting up inception_4d/relu_3x3_reduce
I0403 19:40:02.912631 25475 net.cpp:148] Top shape: 24 144 14 14 (677376)
I0403 19:40:02.912648 25475 net.cpp:156] Memory required for data: 1120816416
I0403 19:40:02.912665 25475 layer_factory.hpp:77] Creating layer inception_4d/3x3
I0403 19:40:02.912688 25475 net.cpp:91] Creating Layer inception_4d/3x3
I0403 19:40:02.912706 25475 net.cpp:425] inception_4d/3x3 <- inception_4d/3x3_reduce
I0403 19:40:02.912725 25475 net.cpp:399] inception_4d/3x3 -> inception_4d/3x3
I0403 19:40:02.916936 25475 net.cpp:141] Setting up inception_4d/3x3
I0403 19:40:02.916967 25475 net.cpp:148] Top shape: 24 288 14 14 (1354752)
I0403 19:40:02.916985 25475 net.cpp:156] Memory required for data: 1126235424
I0403 19:40:02.917004 25475 layer_factory.hpp:77] Creating layer inception_4d/relu_3x3
I0403 19:40:02.917027 25475 net.cpp:91] Creating Layer inception_4d/relu_3x3
I0403 19:40:02.917047 25475 net.cpp:425] inception_4d/relu_3x3 <- inception_4d/3x3
I0403 19:40:02.917067 25475 net.cpp:386] inception_4d/relu_3x3 -> inception_4d/3x3 (in-place)
I0403 19:40:02.917243 25475 net.cpp:141] Setting up inception_4d/relu_3x3
I0403 19:40:02.917276 25475 net.cpp:148] Top shape: 24 288 14 14 (1354752)
I0403 19:40:02.917294 25475 net.cpp:156] Memory required for data: 1131654432
I0403 19:40:02.917310 25475 layer_factory.hpp:77] Creating layer inception_4d/5x5_reduce
I0403 19:40:02.917333 25475 net.cpp:91] Creating Layer inception_4d/5x5_reduce
I0403 19:40:02.917353 25475 net.cpp:425] inception_4d/5x5_reduce <- inception_4c/output_inception_4c/output_0_split_2
I0403 19:40:02.917376 25475 net.cpp:399] inception_4d/5x5_reduce -> inception_4d/5x5_reduce
I0403 19:40:02.918483 25475 net.cpp:141] Setting up inception_4d/5x5_reduce
I0403 19:40:02.918514 25475 net.cpp:148] Top shape: 24 32 14 14 (150528)
I0403 19:40:02.918532 25475 net.cpp:156] Memory required for data: 1132256544
I0403 19:40:02.918551 25475 layer_factory.hpp:77] Creating layer inception_4d/relu_5x5_reduce
I0403 19:40:02.918568 25475 net.cpp:91] Creating Layer inception_4d/relu_5x5_reduce
I0403 19:40:02.918586 25475 net.cpp:425] inception_4d/relu_5x5_reduce <- inception_4d/5x5_reduce
I0403 19:40:02.918609 25475 net.cpp:386] inception_4d/relu_5x5_reduce -> inception_4d/5x5_reduce (in-place)
I0403 19:40:02.918794 25475 net.cpp:141] Setting up inception_4d/relu_5x5_reduce
I0403 19:40:02.918823 25475 net.cpp:148] Top shape: 24 32 14 14 (150528)
I0403 19:40:02.918840 25475 net.cpp:156] Memory required for data: 1132858656
I0403 19:40:02.918855 25475 layer_factory.hpp:77] Creating layer inception_4d/5x5
I0403 19:40:02.918880 25475 net.cpp:91] Creating Layer inception_4d/5x5
I0403 19:40:02.918901 25475 net.cpp:425] inception_4d/5x5 <- inception_4d/5x5_reduce
I0403 19:40:02.918925 25475 net.cpp:399] inception_4d/5x5 -> inception_4d/5x5
I0403 19:40:02.920380 25475 net.cpp:141] Setting up inception_4d/5x5
I0403 19:40:02.920411 25475 net.cpp:148] Top shape: 24 64 14 14 (301056)
I0403 19:40:02.920429 25475 net.cpp:156] Memory required for data: 1134062880
I0403 19:40:02.920447 25475 layer_factory.hpp:77] Creating layer inception_4d/relu_5x5
I0403 19:40:02.920486 25475 net.cpp:91] Creating Layer inception_4d/relu_5x5
I0403 19:40:02.920506 25475 net.cpp:425] inception_4d/relu_5x5 <- inception_4d/5x5
I0403 19:40:02.920524 25475 net.cpp:386] inception_4d/relu_5x5 -> inception_4d/5x5 (in-place)
I0403 19:40:02.920821 25475 net.cpp:141] Setting up inception_4d/relu_5x5
I0403 19:40:02.920851 25475 net.cpp:148] Top shape: 24 64 14 14 (301056)
I0403 19:40:02.920871 25475 net.cpp:156] Memory required for data: 1135267104
I0403 19:40:02.920886 25475 layer_factory.hpp:77] Creating layer inception_4d/pool
I0403 19:40:02.920907 25475 net.cpp:91] Creating Layer inception_4d/pool
I0403 19:40:02.920925 25475 net.cpp:425] inception_4d/pool <- inception_4c/output_inception_4c/output_0_split_3
I0403 19:40:02.920945 25475 net.cpp:399] inception_4d/pool -> inception_4d/pool
I0403 19:40:02.921012 25475 net.cpp:141] Setting up inception_4d/pool
I0403 19:40:02.921038 25475 net.cpp:148] Top shape: 24 512 14 14 (2408448)
I0403 19:40:02.921054 25475 net.cpp:156] Memory required for data: 1144900896
I0403 19:40:02.921069 25475 layer_factory.hpp:77] Creating layer inception_4d/pool_proj
I0403 19:40:02.921093 25475 net.cpp:91] Creating Layer inception_4d/pool_proj
I0403 19:40:02.921114 25475 net.cpp:425] inception_4d/pool_proj <- inception_4d/pool
I0403 19:40:02.921136 25475 net.cpp:399] inception_4d/pool_proj -> inception_4d/pool_proj
I0403 19:40:02.922881 25475 net.cpp:141] Setting up inception_4d/pool_proj
I0403 19:40:02.922915 25475 net.cpp:148] Top shape: 24 64 14 14 (301056)
I0403 19:40:02.922932 25475 net.cpp:156] Memory required for data: 1146105120
I0403 19:40:02.922951 25475 layer_factory.hpp:77] Creating layer inception_4d/relu_pool_proj
I0403 19:40:02.922972 25475 net.cpp:91] Creating Layer inception_4d/relu_pool_proj
I0403 19:40:02.922993 25475 net.cpp:425] inception_4d/relu_pool_proj <- inception_4d/pool_proj
I0403 19:40:02.923012 25475 net.cpp:386] inception_4d/relu_pool_proj -> inception_4d/pool_proj (in-place)
I0403 19:40:02.923188 25475 net.cpp:141] Setting up inception_4d/relu_pool_proj
I0403 19:40:02.923216 25475 net.cpp:148] Top shape: 24 64 14 14 (301056)
I0403 19:40:02.923233 25475 net.cpp:156] Memory required for data: 1147309344
I0403 19:40:02.923246 25475 layer_factory.hpp:77] Creating layer inception_4d/output
I0403 19:40:02.923274 25475 net.cpp:91] Creating Layer inception_4d/output
I0403 19:40:02.923295 25475 net.cpp:425] inception_4d/output <- inception_4d/1x1
I0403 19:40:02.923312 25475 net.cpp:425] inception_4d/output <- inception_4d/3x3
I0403 19:40:02.923331 25475 net.cpp:425] inception_4d/output <- inception_4d/5x5
I0403 19:40:02.923347 25475 net.cpp:425] inception_4d/output <- inception_4d/pool_proj
I0403 19:40:02.923367 25475 net.cpp:399] inception_4d/output -> inception_4d/output
I0403 19:40:02.923418 25475 net.cpp:141] Setting up inception_4d/output
I0403 19:40:02.923445 25475 net.cpp:148] Top shape: 24 528 14 14 (2483712)
I0403 19:40:02.923463 25475 net.cpp:156] Memory required for data: 1157244192
I0403 19:40:02.923478 25475 layer_factory.hpp:77] Creating layer inception_4d/output_inception_4d/output_0_split
I0403 19:40:02.923508 25475 net.cpp:91] Creating Layer inception_4d/output_inception_4d/output_0_split
I0403 19:40:02.923527 25475 net.cpp:425] inception_4d/output_inception_4d/output_0_split <- inception_4d/output
I0403 19:40:02.923557 25475 net.cpp:399] inception_4d/output_inception_4d/output_0_split -> inception_4d/output_inception_4d/output_0_split_0
I0403 19:40:02.923580 25475 net.cpp:399] inception_4d/output_inception_4d/output_0_split -> inception_4d/output_inception_4d/output_0_split_1
I0403 19:40:02.923604 25475 net.cpp:399] inception_4d/output_inception_4d/output_0_split -> inception_4d/output_inception_4d/output_0_split_2
I0403 19:40:02.923626 25475 net.cpp:399] inception_4d/output_inception_4d/output_0_split -> inception_4d/output_inception_4d/output_0_split_3
I0403 19:40:02.923648 25475 net.cpp:399] inception_4d/output_inception_4d/output_0_split -> inception_4d/output_inception_4d/output_0_split_4
I0403 19:40:02.923753 25475 net.cpp:141] Setting up inception_4d/output_inception_4d/output_0_split
I0403 19:40:02.923789 25475 net.cpp:148] Top shape: 24 528 14 14 (2483712)
I0403 19:40:02.923809 25475 net.cpp:148] Top shape: 24 528 14 14 (2483712)
I0403 19:40:02.923823 25475 net.cpp:148] Top shape: 24 528 14 14 (2483712)
I0403 19:40:02.923837 25475 net.cpp:148] Top shape: 24 528 14 14 (2483712)
I0403 19:40:02.923853 25475 net.cpp:148] Top shape: 24 528 14 14 (2483712)
I0403 19:40:02.923868 25475 net.cpp:156] Memory required for data: 1206918432
I0403 19:40:02.923883 25475 layer_factory.hpp:77] Creating layer loss2/ave_pool
I0403 19:40:02.923903 25475 net.cpp:91] Creating Layer loss2/ave_pool
I0403 19:40:02.923920 25475 net.cpp:425] loss2/ave_pool <- inception_4d/output_inception_4d/output_0_split_0
I0403 19:40:02.923943 25475 net.cpp:399] loss2/ave_pool -> loss2/ave_pool
I0403 19:40:02.924242 25475 net.cpp:141] Setting up loss2/ave_pool
I0403 19:40:02.924283 25475 net.cpp:148] Top shape: 24 528 4 4 (202752)
I0403 19:40:02.924300 25475 net.cpp:156] Memory required for data: 1207729440
I0403 19:40:02.924317 25475 layer_factory.hpp:77] Creating layer loss2/conv
I0403 19:40:02.924345 25475 net.cpp:91] Creating Layer loss2/conv
I0403 19:40:02.924365 25475 net.cpp:425] loss2/conv <- loss2/ave_pool
I0403 19:40:02.924386 25475 net.cpp:399] loss2/conv -> loss2/conv
I0403 19:40:02.926199 25475 net.cpp:141] Setting up loss2/conv
I0403 19:40:02.926229 25475 net.cpp:148] Top shape: 24 128 4 4 (49152)
I0403 19:40:02.926246 25475 net.cpp:156] Memory required for data: 1207926048
I0403 19:40:02.926270 25475 layer_factory.hpp:77] Creating layer loss2/relu_conv
I0403 19:40:02.926295 25475 net.cpp:91] Creating Layer loss2/relu_conv
I0403 19:40:02.926314 25475 net.cpp:425] loss2/relu_conv <- loss2/conv
I0403 19:40:02.926332 25475 net.cpp:386] loss2/relu_conv -> loss2/conv (in-place)
I0403 19:40:02.926602 25475 net.cpp:141] Setting up loss2/relu_conv
I0403 19:40:02.926633 25475 net.cpp:148] Top shape: 24 128 4 4 (49152)
I0403 19:40:02.926650 25475 net.cpp:156] Memory required for data: 1208122656
I0403 19:40:02.926664 25475 layer_factory.hpp:77] Creating layer loss2/fc
I0403 19:40:02.926687 25475 net.cpp:91] Creating Layer loss2/fc
I0403 19:40:02.926707 25475 net.cpp:425] loss2/fc <- loss2/conv
I0403 19:40:02.926728 25475 net.cpp:399] loss2/fc -> loss2/fc
I0403 19:40:02.943868 25475 net.cpp:141] Setting up loss2/fc
I0403 19:40:02.943907 25475 net.cpp:148] Top shape: 24 1024 (24576)
I0403 19:40:02.943924 25475 net.cpp:156] Memory required for data: 1208220960
I0403 19:40:02.943943 25475 layer_factory.hpp:77] Creating layer loss2/relu_fc
I0403 19:40:02.943961 25475 net.cpp:91] Creating Layer loss2/relu_fc
I0403 19:40:02.943977 25475 net.cpp:425] loss2/relu_fc <- loss2/fc
I0403 19:40:02.944000 25475 net.cpp:386] loss2/relu_fc -> loss2/fc (in-place)
I0403 19:40:02.944301 25475 net.cpp:141] Setting up loss2/relu_fc
I0403 19:40:02.944331 25475 net.cpp:148] Top shape: 24 1024 (24576)
I0403 19:40:02.944347 25475 net.cpp:156] Memory required for data: 1208319264
I0403 19:40:02.944362 25475 layer_factory.hpp:77] Creating layer loss2/drop_fc
I0403 19:40:02.944381 25475 net.cpp:91] Creating Layer loss2/drop_fc
I0403 19:40:02.944398 25475 net.cpp:425] loss2/drop_fc <- loss2/fc
I0403 19:40:02.944421 25475 net.cpp:386] loss2/drop_fc -> loss2/fc (in-place)
I0403 19:40:02.944473 25475 net.cpp:141] Setting up loss2/drop_fc
I0403 19:40:02.944500 25475 net.cpp:148] Top shape: 24 1024 (24576)
I0403 19:40:02.944516 25475 net.cpp:156] Memory required for data: 1208417568
I0403 19:40:02.944530 25475 layer_factory.hpp:77] Creating layer loss2/classifier_plantvillage
I0403 19:40:02.944550 25475 net.cpp:91] Creating Layer loss2/classifier_plantvillage
I0403 19:40:02.944566 25475 net.cpp:425] loss2/classifier_plantvillage <- loss2/fc
I0403 19:40:02.944589 25475 net.cpp:399] loss2/classifier_plantvillage -> loss2/classifier_plantvillage
I0403 19:40:02.944972 25475 net.cpp:141] Setting up loss2/classifier_plantvillage
I0403 19:40:02.944998 25475 net.cpp:148] Top shape: 24 38 (912)
I0403 19:40:02.945032 25475 net.cpp:156] Memory required for data: 1208421216
I0403 19:40:02.945052 25475 layer_factory.hpp:77] Creating layer loss2/classifier_plantvillage_loss2/classifier_plantvillage_0_split
I0403 19:40:02.945077 25475 net.cpp:91] Creating Layer loss2/classifier_plantvillage_loss2/classifier_plantvillage_0_split
I0403 19:40:02.945096 25475 net.cpp:425] loss2/classifier_plantvillage_loss2/classifier_plantvillage_0_split <- loss2/classifier_plantvillage
I0403 19:40:02.945116 25475 net.cpp:399] loss2/classifier_plantvillage_loss2/classifier_plantvillage_0_split -> loss2/classifier_plantvillage_loss2/classifier_plantvillage_0_split_0
I0403 19:40:02.945139 25475 net.cpp:399] loss2/classifier_plantvillage_loss2/classifier_plantvillage_0_split -> loss2/classifier_plantvillage_loss2/classifier_plantvillage_0_split_1
I0403 19:40:02.945163 25475 net.cpp:399] loss2/classifier_plantvillage_loss2/classifier_plantvillage_0_split -> loss2/classifier_plantvillage_loss2/classifier_plantvillage_0_split_2
I0403 19:40:02.945240 25475 net.cpp:141] Setting up loss2/classifier_plantvillage_loss2/classifier_plantvillage_0_split
I0403 19:40:02.945271 25475 net.cpp:148] Top shape: 24 38 (912)
I0403 19:40:02.945291 25475 net.cpp:148] Top shape: 24 38 (912)
I0403 19:40:02.945307 25475 net.cpp:148] Top shape: 24 38 (912)
I0403 19:40:02.945320 25475 net.cpp:156] Memory required for data: 1208432160
I0403 19:40:02.945334 25475 layer_factory.hpp:77] Creating layer inception_4e/1x1
I0403 19:40:02.945358 25475 net.cpp:91] Creating Layer inception_4e/1x1
I0403 19:40:02.945376 25475 net.cpp:425] inception_4e/1x1 <- inception_4d/output_inception_4d/output_0_split_1
I0403 19:40:02.945396 25475 net.cpp:399] inception_4e/1x1 -> inception_4e/1x1
I0403 19:40:02.947146 25475 net.cpp:141] Setting up inception_4e/1x1
I0403 19:40:02.947178 25475 net.cpp:148] Top shape: 24 256 14 14 (1204224)
I0403 19:40:02.947196 25475 net.cpp:156] Memory required for data: 1213249056
I0403 19:40:02.947213 25475 layer_factory.hpp:77] Creating layer inception_4e/relu_1x1
I0403 19:40:02.947233 25475 net.cpp:91] Creating Layer inception_4e/relu_1x1
I0403 19:40:02.947252 25475 net.cpp:425] inception_4e/relu_1x1 <- inception_4e/1x1
I0403 19:40:02.947275 25475 net.cpp:386] inception_4e/relu_1x1 -> inception_4e/1x1 (in-place)
I0403 19:40:02.947559 25475 net.cpp:141] Setting up inception_4e/relu_1x1
I0403 19:40:02.947592 25475 net.cpp:148] Top shape: 24 256 14 14 (1204224)
I0403 19:40:02.947609 25475 net.cpp:156] Memory required for data: 1218065952
I0403 19:40:02.947625 25475 layer_factory.hpp:77] Creating layer inception_4e/3x3_reduce
I0403 19:40:02.947649 25475 net.cpp:91] Creating Layer inception_4e/3x3_reduce
I0403 19:40:02.947669 25475 net.cpp:425] inception_4e/3x3_reduce <- inception_4d/output_inception_4d/output_0_split_2
I0403 19:40:02.947688 25475 net.cpp:399] inception_4e/3x3_reduce -> inception_4e/3x3_reduce
I0403 19:40:02.949749 25475 net.cpp:141] Setting up inception_4e/3x3_reduce
I0403 19:40:02.949780 25475 net.cpp:148] Top shape: 24 160 14 14 (752640)
I0403 19:40:02.949796 25475 net.cpp:156] Memory required for data: 1221076512
I0403 19:40:02.949816 25475 layer_factory.hpp:77] Creating layer inception_4e/relu_3x3_reduce
I0403 19:40:02.949837 25475 net.cpp:91] Creating Layer inception_4e/relu_3x3_reduce
I0403 19:40:02.949858 25475 net.cpp:425] inception_4e/relu_3x3_reduce <- inception_4e/3x3_reduce
I0403 19:40:02.949875 25475 net.cpp:386] inception_4e/relu_3x3_reduce -> inception_4e/3x3_reduce (in-place)
I0403 19:40:02.950057 25475 net.cpp:141] Setting up inception_4e/relu_3x3_reduce
I0403 19:40:02.950085 25475 net.cpp:148] Top shape: 24 160 14 14 (752640)
I0403 19:40:02.950103 25475 net.cpp:156] Memory required for data: 1224087072
I0403 19:40:02.950119 25475 layer_factory.hpp:77] Creating layer inception_4e/3x3
I0403 19:40:02.950140 25475 net.cpp:91] Creating Layer inception_4e/3x3
I0403 19:40:02.950161 25475 net.cpp:425] inception_4e/3x3 <- inception_4e/3x3_reduce
I0403 19:40:02.950181 25475 net.cpp:399] inception_4e/3x3 -> inception_4e/3x3
I0403 19:40:02.955106 25475 net.cpp:141] Setting up inception_4e/3x3
I0403 19:40:02.955152 25475 net.cpp:148] Top shape: 24 320 14 14 (1505280)
I0403 19:40:02.955171 25475 net.cpp:156] Memory required for data: 1230108192
I0403 19:40:02.955191 25475 layer_factory.hpp:77] Creating layer inception_4e/relu_3x3
I0403 19:40:02.955210 25475 net.cpp:91] Creating Layer inception_4e/relu_3x3
I0403 19:40:02.955229 25475 net.cpp:425] inception_4e/relu_3x3 <- inception_4e/3x3
I0403 19:40:02.955248 25475 net.cpp:386] inception_4e/relu_3x3 -> inception_4e/3x3 (in-place)
I0403 19:40:02.955548 25475 net.cpp:141] Setting up inception_4e/relu_3x3
I0403 19:40:02.955577 25475 net.cpp:148] Top shape: 24 320 14 14 (1505280)
I0403 19:40:02.955595 25475 net.cpp:156] Memory required for data: 1236129312
I0403 19:40:02.955611 25475 layer_factory.hpp:77] Creating layer inception_4e/5x5_reduce
I0403 19:40:02.955636 25475 net.cpp:91] Creating Layer inception_4e/5x5_reduce
I0403 19:40:02.955656 25475 net.cpp:425] inception_4e/5x5_reduce <- inception_4d/output_inception_4d/output_0_split_3
I0403 19:40:02.955679 25475 net.cpp:399] inception_4e/5x5_reduce -> inception_4e/5x5_reduce
I0403 19:40:02.956718 25475 net.cpp:141] Setting up inception_4e/5x5_reduce
I0403 19:40:02.956749 25475 net.cpp:148] Top shape: 24 32 14 14 (150528)
I0403 19:40:02.956768 25475 net.cpp:156] Memory required for data: 1236731424
I0403 19:40:02.956787 25475 layer_factory.hpp:77] Creating layer inception_4e/relu_5x5_reduce
I0403 19:40:02.956810 25475 net.cpp:91] Creating Layer inception_4e/relu_5x5_reduce
I0403 19:40:02.956827 25475 net.cpp:425] inception_4e/relu_5x5_reduce <- inception_4e/5x5_reduce
I0403 19:40:02.956847 25475 net.cpp:386] inception_4e/relu_5x5_reduce -> inception_4e/5x5_reduce (in-place)
I0403 19:40:02.957141 25475 net.cpp:141] Setting up inception_4e/relu_5x5_reduce
I0403 19:40:02.957172 25475 net.cpp:148] Top shape: 24 32 14 14 (150528)
I0403 19:40:02.957190 25475 net.cpp:156] Memory required for data: 1237333536
I0403 19:40:02.957206 25475 layer_factory.hpp:77] Creating layer inception_4e/5x5
I0403 19:40:02.957247 25475 net.cpp:91] Creating Layer inception_4e/5x5
I0403 19:40:02.957273 25475 net.cpp:425] inception_4e/5x5 <- inception_4e/5x5_reduce
I0403 19:40:02.957298 25475 net.cpp:399] inception_4e/5x5 -> inception_4e/5x5
I0403 19:40:02.959074 25475 net.cpp:141] Setting up inception_4e/5x5
I0403 19:40:02.959105 25475 net.cpp:148] Top shape: 24 128 14 14 (602112)
I0403 19:40:02.959121 25475 net.cpp:156] Memory required for data: 1239741984
I0403 19:40:02.959141 25475 layer_factory.hpp:77] Creating layer inception_4e/relu_5x5
I0403 19:40:02.959162 25475 net.cpp:91] Creating Layer inception_4e/relu_5x5
I0403 19:40:02.959182 25475 net.cpp:425] inception_4e/relu_5x5 <- inception_4e/5x5
I0403 19:40:02.959200 25475 net.cpp:386] inception_4e/relu_5x5 -> inception_4e/5x5 (in-place)
I0403 19:40:02.959398 25475 net.cpp:141] Setting up inception_4e/relu_5x5
I0403 19:40:02.959427 25475 net.cpp:148] Top shape: 24 128 14 14 (602112)
I0403 19:40:02.959444 25475 net.cpp:156] Memory required for data: 1242150432
I0403 19:40:02.959460 25475 layer_factory.hpp:77] Creating layer inception_4e/pool
I0403 19:40:02.959482 25475 net.cpp:91] Creating Layer inception_4e/pool
I0403 19:40:02.959501 25475 net.cpp:425] inception_4e/pool <- inception_4d/output_inception_4d/output_0_split_4
I0403 19:40:02.959520 25475 net.cpp:399] inception_4e/pool -> inception_4e/pool
I0403 19:40:02.959590 25475 net.cpp:141] Setting up inception_4e/pool
I0403 19:40:02.959617 25475 net.cpp:148] Top shape: 24 528 14 14 (2483712)
I0403 19:40:02.959635 25475 net.cpp:156] Memory required for data: 1252085280
I0403 19:40:02.959652 25475 layer_factory.hpp:77] Creating layer inception_4e/pool_proj
I0403 19:40:02.959676 25475 net.cpp:91] Creating Layer inception_4e/pool_proj
I0403 19:40:02.959695 25475 net.cpp:425] inception_4e/pool_proj <- inception_4e/pool
I0403 19:40:02.959717 25475 net.cpp:399] inception_4e/pool_proj -> inception_4e/pool_proj
I0403 19:40:02.961216 25475 net.cpp:141] Setting up inception_4e/pool_proj
I0403 19:40:02.961263 25475 net.cpp:148] Top shape: 24 128 14 14 (602112)
I0403 19:40:02.961284 25475 net.cpp:156] Memory required for data: 1254493728
I0403 19:40:02.961318 25475 layer_factory.hpp:77] Creating layer inception_4e/relu_pool_proj
I0403 19:40:02.961340 25475 net.cpp:91] Creating Layer inception_4e/relu_pool_proj
I0403 19:40:02.961361 25475 net.cpp:425] inception_4e/relu_pool_proj <- inception_4e/pool_proj
I0403 19:40:02.961381 25475 net.cpp:386] inception_4e/relu_pool_proj -> inception_4e/pool_proj (in-place)
I0403 19:40:02.961693 25475 net.cpp:141] Setting up inception_4e/relu_pool_proj
I0403 19:40:02.961721 25475 net.cpp:148] Top shape: 24 128 14 14 (602112)
I0403 19:40:02.961740 25475 net.cpp:156] Memory required for data: 1256902176
I0403 19:40:02.961755 25475 layer_factory.hpp:77] Creating layer inception_4e/output
I0403 19:40:02.961773 25475 net.cpp:91] Creating Layer inception_4e/output
I0403 19:40:02.961792 25475 net.cpp:425] inception_4e/output <- inception_4e/1x1
I0403 19:40:02.961812 25475 net.cpp:425] inception_4e/output <- inception_4e/3x3
I0403 19:40:02.961830 25475 net.cpp:425] inception_4e/output <- inception_4e/5x5
I0403 19:40:02.961848 25475 net.cpp:425] inception_4e/output <- inception_4e/pool_proj
I0403 19:40:02.961870 25475 net.cpp:399] inception_4e/output -> inception_4e/output
I0403 19:40:02.961922 25475 net.cpp:141] Setting up inception_4e/output
I0403 19:40:02.961954 25475 net.cpp:148] Top shape: 24 832 14 14 (3913728)
I0403 19:40:02.961972 25475 net.cpp:156] Memory required for data: 1272557088
I0403 19:40:02.961989 25475 layer_factory.hpp:77] Creating layer pool4/3x3_s2
I0403 19:40:02.962008 25475 net.cpp:91] Creating Layer pool4/3x3_s2
I0403 19:40:02.962025 25475 net.cpp:425] pool4/3x3_s2 <- inception_4e/output
I0403 19:40:02.962050 25475 net.cpp:399] pool4/3x3_s2 -> pool4/3x3_s2
I0403 19:40:02.962121 25475 net.cpp:141] Setting up pool4/3x3_s2
I0403 19:40:02.962149 25475 net.cpp:148] Top shape: 24 832 7 7 (978432)
I0403 19:40:02.962167 25475 net.cpp:156] Memory required for data: 1276470816
I0403 19:40:02.962182 25475 layer_factory.hpp:77] Creating layer pool4/3x3_s2_pool4/3x3_s2_0_split
I0403 19:40:02.962204 25475 net.cpp:91] Creating Layer pool4/3x3_s2_pool4/3x3_s2_0_split
I0403 19:40:02.962224 25475 net.cpp:425] pool4/3x3_s2_pool4/3x3_s2_0_split <- pool4/3x3_s2
I0403 19:40:02.962244 25475 net.cpp:399] pool4/3x3_s2_pool4/3x3_s2_0_split -> pool4/3x3_s2_pool4/3x3_s2_0_split_0
I0403 19:40:02.962270 25475 net.cpp:399] pool4/3x3_s2_pool4/3x3_s2_0_split -> pool4/3x3_s2_pool4/3x3_s2_0_split_1
I0403 19:40:02.962296 25475 net.cpp:399] pool4/3x3_s2_pool4/3x3_s2_0_split -> pool4/3x3_s2_pool4/3x3_s2_0_split_2
I0403 19:40:02.962321 25475 net.cpp:399] pool4/3x3_s2_pool4/3x3_s2_0_split -> pool4/3x3_s2_pool4/3x3_s2_0_split_3
I0403 19:40:02.962417 25475 net.cpp:141] Setting up pool4/3x3_s2_pool4/3x3_s2_0_split
I0403 19:40:02.962445 25475 net.cpp:148] Top shape: 24 832 7 7 (978432)
I0403 19:40:02.962466 25475 net.cpp:148] Top shape: 24 832 7 7 (978432)
I0403 19:40:02.962482 25475 net.cpp:148] Top shape: 24 832 7 7 (978432)
I0403 19:40:02.962498 25475 net.cpp:148] Top shape: 24 832 7 7 (978432)
I0403 19:40:02.962512 25475 net.cpp:156] Memory required for data: 1292125728
I0403 19:40:02.962527 25475 layer_factory.hpp:77] Creating layer inception_5a/1x1
I0403 19:40:02.962551 25475 net.cpp:91] Creating Layer inception_5a/1x1
I0403 19:40:02.962573 25475 net.cpp:425] inception_5a/1x1 <- pool4/3x3_s2_pool4/3x3_s2_0_split_0
I0403 19:40:02.962594 25475 net.cpp:399] inception_5a/1x1 -> inception_5a/1x1
I0403 19:40:02.965479 25475 net.cpp:141] Setting up inception_5a/1x1
I0403 19:40:02.965513 25475 net.cpp:148] Top shape: 24 256 7 7 (301056)
I0403 19:40:02.965530 25475 net.cpp:156] Memory required for data: 1293329952
I0403 19:40:02.965550 25475 layer_factory.hpp:77] Creating layer inception_5a/relu_1x1
I0403 19:40:02.965574 25475 net.cpp:91] Creating Layer inception_5a/relu_1x1
I0403 19:40:02.965605 25475 net.cpp:425] inception_5a/relu_1x1 <- inception_5a/1x1
I0403 19:40:02.965625 25475 net.cpp:386] inception_5a/relu_1x1 -> inception_5a/1x1 (in-place)
I0403 19:40:02.965932 25475 net.cpp:141] Setting up inception_5a/relu_1x1
I0403 19:40:02.965963 25475 net.cpp:148] Top shape: 24 256 7 7 (301056)
I0403 19:40:02.965981 25475 net.cpp:156] Memory required for data: 1294534176
I0403 19:40:02.965996 25475 layer_factory.hpp:77] Creating layer inception_5a/3x3_reduce
I0403 19:40:02.966022 25475 net.cpp:91] Creating Layer inception_5a/3x3_reduce
I0403 19:40:02.966042 25475 net.cpp:425] inception_5a/3x3_reduce <- pool4/3x3_s2_pool4/3x3_s2_0_split_1
I0403 19:40:02.966066 25475 net.cpp:399] inception_5a/3x3_reduce -> inception_5a/3x3_reduce
I0403 19:40:02.968489 25475 net.cpp:141] Setting up inception_5a/3x3_reduce
I0403 19:40:02.968523 25475 net.cpp:148] Top shape: 24 160 7 7 (188160)
I0403 19:40:02.968544 25475 net.cpp:156] Memory required for data: 1295286816
I0403 19:40:02.968564 25475 layer_factory.hpp:77] Creating layer inception_5a/relu_3x3_reduce
I0403 19:40:02.968583 25475 net.cpp:91] Creating Layer inception_5a/relu_3x3_reduce
I0403 19:40:02.968601 25475 net.cpp:425] inception_5a/relu_3x3_reduce <- inception_5a/3x3_reduce
I0403 19:40:02.968621 25475 net.cpp:386] inception_5a/relu_3x3_reduce -> inception_5a/3x3_reduce (in-place)
I0403 19:40:02.968804 25475 net.cpp:141] Setting up inception_5a/relu_3x3_reduce
I0403 19:40:02.968835 25475 net.cpp:148] Top shape: 24 160 7 7 (188160)
I0403 19:40:02.968852 25475 net.cpp:156] Memory required for data: 1296039456
I0403 19:40:02.968868 25475 layer_factory.hpp:77] Creating layer inception_5a/3x3
I0403 19:40:02.968891 25475 net.cpp:91] Creating Layer inception_5a/3x3
I0403 19:40:02.968911 25475 net.cpp:425] inception_5a/3x3 <- inception_5a/3x3_reduce
I0403 19:40:02.968933 25475 net.cpp:399] inception_5a/3x3 -> inception_5a/3x3
I0403 19:40:02.973940 25475 net.cpp:141] Setting up inception_5a/3x3
I0403 19:40:02.973973 25475 net.cpp:148] Top shape: 24 320 7 7 (376320)
I0403 19:40:02.973991 25475 net.cpp:156] Memory required for data: 1297544736
I0403 19:40:02.974010 25475 layer_factory.hpp:77] Creating layer inception_5a/relu_3x3
I0403 19:40:02.974035 25475 net.cpp:91] Creating Layer inception_5a/relu_3x3
I0403 19:40:02.974056 25475 net.cpp:425] inception_5a/relu_3x3 <- inception_5a/3x3
I0403 19:40:02.974074 25475 net.cpp:386] inception_5a/relu_3x3 -> inception_5a/3x3 (in-place)
I0403 19:40:02.974373 25475 net.cpp:141] Setting up inception_5a/relu_3x3
I0403 19:40:02.974401 25475 net.cpp:148] Top shape: 24 320 7 7 (376320)
I0403 19:40:02.974417 25475 net.cpp:156] Memory required for data: 1299050016
I0403 19:40:02.974433 25475 layer_factory.hpp:77] Creating layer inception_5a/5x5_reduce
I0403 19:40:02.974458 25475 net.cpp:91] Creating Layer inception_5a/5x5_reduce
I0403 19:40:02.974479 25475 net.cpp:425] inception_5a/5x5_reduce <- pool4/3x3_s2_pool4/3x3_s2_0_split_2
I0403 19:40:02.974503 25475 net.cpp:399] inception_5a/5x5_reduce -> inception_5a/5x5_reduce
I0403 19:40:02.975641 25475 net.cpp:141] Setting up inception_5a/5x5_reduce
I0403 19:40:02.975674 25475 net.cpp:148] Top shape: 24 32 7 7 (37632)
I0403 19:40:02.975692 25475 net.cpp:156] Memory required for data: 1299200544
I0403 19:40:02.975709 25475 layer_factory.hpp:77] Creating layer inception_5a/relu_5x5_reduce
I0403 19:40:02.975733 25475 net.cpp:91] Creating Layer inception_5a/relu_5x5_reduce
I0403 19:40:02.975752 25475 net.cpp:425] inception_5a/relu_5x5_reduce <- inception_5a/5x5_reduce
I0403 19:40:02.975774 25475 net.cpp:386] inception_5a/relu_5x5_reduce -> inception_5a/5x5_reduce (in-place)
I0403 19:40:02.976068 25475 net.cpp:141] Setting up inception_5a/relu_5x5_reduce
I0403 19:40:02.976094 25475 net.cpp:148] Top shape: 24 32 7 7 (37632)
I0403 19:40:02.976111 25475 net.cpp:156] Memory required for data: 1299351072
I0403 19:40:02.976126 25475 layer_factory.hpp:77] Creating layer inception_5a/5x5
I0403 19:40:02.976151 25475 net.cpp:91] Creating Layer inception_5a/5x5
I0403 19:40:02.976171 25475 net.cpp:425] inception_5a/5x5 <- inception_5a/5x5_reduce
I0403 19:40:02.976192 25475 net.cpp:399] inception_5a/5x5 -> inception_5a/5x5
I0403 19:40:02.977941 25475 net.cpp:141] Setting up inception_5a/5x5
I0403 19:40:02.977984 25475 net.cpp:148] Top shape: 24 128 7 7 (150528)
I0403 19:40:02.978003 25475 net.cpp:156] Memory required for data: 1299953184
I0403 19:40:02.978023 25475 layer_factory.hpp:77] Creating layer inception_5a/relu_5x5
I0403 19:40:02.978044 25475 net.cpp:91] Creating Layer inception_5a/relu_5x5
I0403 19:40:02.978062 25475 net.cpp:425] inception_5a/relu_5x5 <- inception_5a/5x5
I0403 19:40:02.978082 25475 net.cpp:386] inception_5a/relu_5x5 -> inception_5a/5x5 (in-place)
I0403 19:40:02.978268 25475 net.cpp:141] Setting up inception_5a/relu_5x5
I0403 19:40:02.978299 25475 net.cpp:148] Top shape: 24 128 7 7 (150528)
I0403 19:40:02.978315 25475 net.cpp:156] Memory required for data: 1300555296
I0403 19:40:02.978332 25475 layer_factory.hpp:77] Creating layer inception_5a/pool
I0403 19:40:02.978353 25475 net.cpp:91] Creating Layer inception_5a/pool
I0403 19:40:02.978371 25475 net.cpp:425] inception_5a/pool <- pool4/3x3_s2_pool4/3x3_s2_0_split_3
I0403 19:40:02.978394 25475 net.cpp:399] inception_5a/pool -> inception_5a/pool
I0403 19:40:02.978462 25475 net.cpp:141] Setting up inception_5a/pool
I0403 19:40:02.978489 25475 net.cpp:148] Top shape: 24 832 7 7 (978432)
I0403 19:40:02.978507 25475 net.cpp:156] Memory required for data: 1304469024
I0403 19:40:02.978523 25475 layer_factory.hpp:77] Creating layer inception_5a/pool_proj
I0403 19:40:02.978545 25475 net.cpp:91] Creating Layer inception_5a/pool_proj
I0403 19:40:02.978562 25475 net.cpp:425] inception_5a/pool_proj <- inception_5a/pool
I0403 19:40:02.978585 25475 net.cpp:399] inception_5a/pool_proj -> inception_5a/pool_proj
I0403 19:40:02.980790 25475 net.cpp:141] Setting up inception_5a/pool_proj
I0403 19:40:02.980823 25475 net.cpp:148] Top shape: 24 128 7 7 (150528)
I0403 19:40:02.980839 25475 net.cpp:156] Memory required for data: 1305071136
I0403 19:40:02.980859 25475 layer_factory.hpp:77] Creating layer inception_5a/relu_pool_proj
I0403 19:40:02.980877 25475 net.cpp:91] Creating Layer inception_5a/relu_pool_proj
I0403 19:40:02.980895 25475 net.cpp:425] inception_5a/relu_pool_proj <- inception_5a/pool_proj
I0403 19:40:02.980914 25475 net.cpp:386] inception_5a/relu_pool_proj -> inception_5a/pool_proj (in-place)
I0403 19:40:02.981204 25475 net.cpp:141] Setting up inception_5a/relu_pool_proj
I0403 19:40:02.981231 25475 net.cpp:148] Top shape: 24 128 7 7 (150528)
I0403 19:40:02.981248 25475 net.cpp:156] Memory required for data: 1305673248
I0403 19:40:02.981269 25475 layer_factory.hpp:77] Creating layer inception_5a/output
I0403 19:40:02.981288 25475 net.cpp:91] Creating Layer inception_5a/output
I0403 19:40:02.981305 25475 net.cpp:425] inception_5a/output <- inception_5a/1x1
I0403 19:40:02.981323 25475 net.cpp:425] inception_5a/output <- inception_5a/3x3
I0403 19:40:02.981343 25475 net.cpp:425] inception_5a/output <- inception_5a/5x5
I0403 19:40:02.981359 25475 net.cpp:425] inception_5a/output <- inception_5a/pool_proj
I0403 19:40:02.981379 25475 net.cpp:399] inception_5a/output -> inception_5a/output
I0403 19:40:02.981428 25475 net.cpp:141] Setting up inception_5a/output
I0403 19:40:02.981461 25475 net.cpp:148] Top shape: 24 832 7 7 (978432)
I0403 19:40:02.981477 25475 net.cpp:156] Memory required for data: 1309586976
I0403 19:40:02.981492 25475 layer_factory.hpp:77] Creating layer inception_5a/output_inception_5a/output_0_split
I0403 19:40:02.981510 25475 net.cpp:91] Creating Layer inception_5a/output_inception_5a/output_0_split
I0403 19:40:02.981524 25475 net.cpp:425] inception_5a/output_inception_5a/output_0_split <- inception_5a/output
I0403 19:40:02.981540 25475 net.cpp:399] inception_5a/output_inception_5a/output_0_split -> inception_5a/output_inception_5a/output_0_split_0
I0403 19:40:02.981562 25475 net.cpp:399] inception_5a/output_inception_5a/output_0_split -> inception_5a/output_inception_5a/output_0_split_1
I0403 19:40:02.981587 25475 net.cpp:399] inception_5a/output_inception_5a/output_0_split -> inception_5a/output_inception_5a/output_0_split_2
I0403 19:40:02.981611 25475 net.cpp:399] inception_5a/output_inception_5a/output_0_split -> inception_5a/output_inception_5a/output_0_split_3
I0403 19:40:02.981724 25475 net.cpp:141] Setting up inception_5a/output_inception_5a/output_0_split
I0403 19:40:02.981751 25475 net.cpp:148] Top shape: 24 832 7 7 (978432)
I0403 19:40:02.981770 25475 net.cpp:148] Top shape: 24 832 7 7 (978432)
I0403 19:40:02.981783 25475 net.cpp:148] Top shape: 24 832 7 7 (978432)
I0403 19:40:02.981799 25475 net.cpp:148] Top shape: 24 832 7 7 (978432)
I0403 19:40:02.981815 25475 net.cpp:156] Memory required for data: 1325241888
I0403 19:40:02.981828 25475 layer_factory.hpp:77] Creating layer inception_5b/1x1
I0403 19:40:02.981851 25475 net.cpp:91] Creating Layer inception_5b/1x1
I0403 19:40:02.981870 25475 net.cpp:425] inception_5b/1x1 <- inception_5a/output_inception_5a/output_0_split_0
I0403 19:40:02.981889 25475 net.cpp:399] inception_5b/1x1 -> inception_5b/1x1
I0403 19:40:02.985484 25475 net.cpp:141] Setting up inception_5b/1x1
I0403 19:40:02.985515 25475 net.cpp:148] Top shape: 24 384 7 7 (451584)
I0403 19:40:02.985534 25475 net.cpp:156] Memory required for data: 1327048224
I0403 19:40:02.985554 25475 layer_factory.hpp:77] Creating layer inception_5b/relu_1x1
I0403 19:40:02.985574 25475 net.cpp:91] Creating Layer inception_5b/relu_1x1
I0403 19:40:02.985592 25475 net.cpp:425] inception_5b/relu_1x1 <- inception_5b/1x1
I0403 19:40:02.985613 25475 net.cpp:386] inception_5b/relu_1x1 -> inception_5b/1x1 (in-place)
I0403 19:40:02.985906 25475 net.cpp:141] Setting up inception_5b/relu_1x1
I0403 19:40:02.985935 25475 net.cpp:148] Top shape: 24 384 7 7 (451584)
I0403 19:40:02.985952 25475 net.cpp:156] Memory required for data: 1328854560
I0403 19:40:02.985968 25475 layer_factory.hpp:77] Creating layer inception_5b/3x3_reduce
I0403 19:40:02.985991 25475 net.cpp:91] Creating Layer inception_5b/3x3_reduce
I0403 19:40:02.986012 25475 net.cpp:425] inception_5b/3x3_reduce <- inception_5a/output_inception_5a/output_0_split_1
I0403 19:40:02.986035 25475 net.cpp:399] inception_5b/3x3_reduce -> inception_5b/3x3_reduce
I0403 19:40:02.988582 25475 net.cpp:141] Setting up inception_5b/3x3_reduce
I0403 19:40:02.988612 25475 net.cpp:148] Top shape: 24 192 7 7 (225792)
I0403 19:40:02.988631 25475 net.cpp:156] Memory required for data: 1329757728
I0403 19:40:02.988651 25475 layer_factory.hpp:77] Creating layer inception_5b/relu_3x3_reduce
I0403 19:40:02.988669 25475 net.cpp:91] Creating Layer inception_5b/relu_3x3_reduce
I0403 19:40:02.988687 25475 net.cpp:425] inception_5b/relu_3x3_reduce <- inception_5b/3x3_reduce
I0403 19:40:02.988708 25475 net.cpp:386] inception_5b/relu_3x3_reduce -> inception_5b/3x3_reduce (in-place)
I0403 19:40:02.988895 25475 net.cpp:141] Setting up inception_5b/relu_3x3_reduce
I0403 19:40:02.988924 25475 net.cpp:148] Top shape: 24 192 7 7 (225792)
I0403 19:40:02.988940 25475 net.cpp:156] Memory required for data: 1330660896
I0403 19:40:02.988955 25475 layer_factory.hpp:77] Creating layer inception_5b/3x3
I0403 19:40:02.988978 25475 net.cpp:91] Creating Layer inception_5b/3x3
I0403 19:40:02.988999 25475 net.cpp:425] inception_5b/3x3 <- inception_5b/3x3_reduce
I0403 19:40:02.989022 25475 net.cpp:399] inception_5b/3x3 -> inception_5b/3x3
I0403 19:40:02.995529 25475 net.cpp:141] Setting up inception_5b/3x3
I0403 19:40:02.995560 25475 net.cpp:148] Top shape: 24 384 7 7 (451584)
I0403 19:40:02.995578 25475 net.cpp:156] Memory required for data: 1332467232
I0403 19:40:02.995595 25475 layer_factory.hpp:77] Creating layer inception_5b/relu_3x3
I0403 19:40:02.995614 25475 net.cpp:91] Creating Layer inception_5b/relu_3x3
I0403 19:40:02.995631 25475 net.cpp:425] inception_5b/relu_3x3 <- inception_5b/3x3
I0403 19:40:02.995653 25475 net.cpp:386] inception_5b/relu_3x3 -> inception_5b/3x3 (in-place)
I0403 19:40:02.995942 25475 net.cpp:141] Setting up inception_5b/relu_3x3
I0403 19:40:02.995975 25475 net.cpp:148] Top shape: 24 384 7 7 (451584)
I0403 19:40:02.995990 25475 net.cpp:156] Memory required for data: 1334273568
I0403 19:40:02.996003 25475 layer_factory.hpp:77] Creating layer inception_5b/5x5_reduce
I0403 19:40:02.996042 25475 net.cpp:91] Creating Layer inception_5b/5x5_reduce
I0403 19:40:02.996064 25475 net.cpp:425] inception_5b/5x5_reduce <- inception_5a/output_inception_5a/output_0_split_2
I0403 19:40:02.996090 25475 net.cpp:399] inception_5b/5x5_reduce -> inception_5b/5x5_reduce
I0403 19:40:02.997311 25475 net.cpp:141] Setting up inception_5b/5x5_reduce
I0403 19:40:02.997341 25475 net.cpp:148] Top shape: 24 48 7 7 (56448)
I0403 19:40:02.997359 25475 net.cpp:156] Memory required for data: 1334499360
I0403 19:40:02.997376 25475 layer_factory.hpp:77] Creating layer inception_5b/relu_5x5_reduce
I0403 19:40:02.997398 25475 net.cpp:91] Creating Layer inception_5b/relu_5x5_reduce
I0403 19:40:02.997418 25475 net.cpp:425] inception_5b/relu_5x5_reduce <- inception_5b/5x5_reduce
I0403 19:40:02.997437 25475 net.cpp:386] inception_5b/relu_5x5_reduce -> inception_5b/5x5_reduce (in-place)
I0403 19:40:02.997807 25475 net.cpp:141] Setting up inception_5b/relu_5x5_reduce
I0403 19:40:02.997838 25475 net.cpp:148] Top shape: 24 48 7 7 (56448)
I0403 19:40:02.997853 25475 net.cpp:156] Memory required for data: 1334725152
I0403 19:40:02.997869 25475 layer_factory.hpp:77] Creating layer inception_5b/5x5
I0403 19:40:02.997889 25475 net.cpp:91] Creating Layer inception_5b/5x5
I0403 19:40:02.997907 25475 net.cpp:425] inception_5b/5x5 <- inception_5b/5x5_reduce
I0403 19:40:02.997926 25475 net.cpp:399] inception_5b/5x5 -> inception_5b/5x5
I0403 19:40:02.999873 25475 net.cpp:141] Setting up inception_5b/5x5
I0403 19:40:02.999907 25475 net.cpp:148] Top shape: 24 128 7 7 (150528)
I0403 19:40:02.999922 25475 net.cpp:156] Memory required for data: 1335327264
I0403 19:40:02.999943 25475 layer_factory.hpp:77] Creating layer inception_5b/relu_5x5
I0403 19:40:02.999963 25475 net.cpp:91] Creating Layer inception_5b/relu_5x5
I0403 19:40:02.999984 25475 net.cpp:425] inception_5b/relu_5x5 <- inception_5b/5x5
I0403 19:40:03.000002 25475 net.cpp:386] inception_5b/relu_5x5 -> inception_5b/5x5 (in-place)
I0403 19:40:03.000188 25475 net.cpp:141] Setting up inception_5b/relu_5x5
I0403 19:40:03.000221 25475 net.cpp:148] Top shape: 24 128 7 7 (150528)
I0403 19:40:03.000237 25475 net.cpp:156] Memory required for data: 1335929376
I0403 19:40:03.000257 25475 layer_factory.hpp:77] Creating layer inception_5b/pool
I0403 19:40:03.000277 25475 net.cpp:91] Creating Layer inception_5b/pool
I0403 19:40:03.000294 25475 net.cpp:425] inception_5b/pool <- inception_5a/output_inception_5a/output_0_split_3
I0403 19:40:03.000313 25475 net.cpp:399] inception_5b/pool -> inception_5b/pool
I0403 19:40:03.000387 25475 net.cpp:141] Setting up inception_5b/pool
I0403 19:40:03.000413 25475 net.cpp:148] Top shape: 24 832 7 7 (978432)
I0403 19:40:03.000429 25475 net.cpp:156] Memory required for data: 1339843104
I0403 19:40:03.000444 25475 layer_factory.hpp:77] Creating layer inception_5b/pool_proj
I0403 19:40:03.000468 25475 net.cpp:91] Creating Layer inception_5b/pool_proj
I0403 19:40:03.000488 25475 net.cpp:425] inception_5b/pool_proj <- inception_5b/pool
I0403 19:40:03.000509 25475 net.cpp:399] inception_5b/pool_proj -> inception_5b/pool_proj
I0403 19:40:03.002727 25475 net.cpp:141] Setting up inception_5b/pool_proj
I0403 19:40:03.002760 25475 net.cpp:148] Top shape: 24 128 7 7 (150528)
I0403 19:40:03.002776 25475 net.cpp:156] Memory required for data: 1340445216
I0403 19:40:03.002794 25475 layer_factory.hpp:77] Creating layer inception_5b/relu_pool_proj
I0403 19:40:03.002816 25475 net.cpp:91] Creating Layer inception_5b/relu_pool_proj
I0403 19:40:03.002837 25475 net.cpp:425] inception_5b/relu_pool_proj <- inception_5b/pool_proj
I0403 19:40:03.002856 25475 net.cpp:386] inception_5b/relu_pool_proj -> inception_5b/pool_proj (in-place)
I0403 19:40:03.003142 25475 net.cpp:141] Setting up inception_5b/relu_pool_proj
I0403 19:40:03.003171 25475 net.cpp:148] Top shape: 24 128 7 7 (150528)
I0403 19:40:03.003186 25475 net.cpp:156] Memory required for data: 1341047328
I0403 19:40:03.003201 25475 layer_factory.hpp:77] Creating layer inception_5b/output
I0403 19:40:03.003216 25475 net.cpp:91] Creating Layer inception_5b/output
I0403 19:40:03.003248 25475 net.cpp:425] inception_5b/output <- inception_5b/1x1
I0403 19:40:03.003274 25475 net.cpp:425] inception_5b/output <- inception_5b/3x3
I0403 19:40:03.003298 25475 net.cpp:425] inception_5b/output <- inception_5b/5x5
I0403 19:40:03.003319 25475 net.cpp:425] inception_5b/output <- inception_5b/pool_proj
I0403 19:40:03.003335 25475 net.cpp:399] inception_5b/output -> inception_5b/output
I0403 19:40:03.003386 25475 net.cpp:141] Setting up inception_5b/output
I0403 19:40:03.003417 25475 net.cpp:148] Top shape: 24 1024 7 7 (1204224)
I0403 19:40:03.003433 25475 net.cpp:156] Memory required for data: 1345864224
I0403 19:40:03.003450 25475 layer_factory.hpp:77] Creating layer pool5/7x7_s1
I0403 19:40:03.003468 25475 net.cpp:91] Creating Layer pool5/7x7_s1
I0403 19:40:03.003486 25475 net.cpp:425] pool5/7x7_s1 <- inception_5b/output
I0403 19:40:03.003507 25475 net.cpp:399] pool5/7x7_s1 -> pool5/7x7_s1
I0403 19:40:03.003717 25475 net.cpp:141] Setting up pool5/7x7_s1
I0403 19:40:03.003744 25475 net.cpp:148] Top shape: 24 1024 1 1 (24576)
I0403 19:40:03.003762 25475 net.cpp:156] Memory required for data: 1345962528
I0403 19:40:03.003778 25475 layer_factory.hpp:77] Creating layer pool5/drop_7x7_s1
I0403 19:40:03.003799 25475 net.cpp:91] Creating Layer pool5/drop_7x7_s1
I0403 19:40:03.003816 25475 net.cpp:425] pool5/drop_7x7_s1 <- pool5/7x7_s1
I0403 19:40:03.003835 25475 net.cpp:386] pool5/drop_7x7_s1 -> pool5/7x7_s1 (in-place)
I0403 19:40:03.003888 25475 net.cpp:141] Setting up pool5/drop_7x7_s1
I0403 19:40:03.003916 25475 net.cpp:148] Top shape: 24 1024 1 1 (24576)
I0403 19:40:03.003931 25475 net.cpp:156] Memory required for data: 1346060832
I0403 19:40:03.003945 25475 layer_factory.hpp:77] Creating layer loss3/classifier_plantvillage
I0403 19:40:03.003965 25475 net.cpp:91] Creating Layer loss3/classifier_plantvillage
I0403 19:40:03.003983 25475 net.cpp:425] loss3/classifier_plantvillage <- pool5/7x7_s1
I0403 19:40:03.004004 25475 net.cpp:399] loss3/classifier_plantvillage -> loss3/classifier_plantvillage
I0403 19:40:03.004426 25475 net.cpp:141] Setting up loss3/classifier_plantvillage
I0403 19:40:03.004454 25475 net.cpp:148] Top shape: 24 38 (912)
I0403 19:40:03.004470 25475 net.cpp:156] Memory required for data: 1346064480
I0403 19:40:03.004488 25475 layer_factory.hpp:77] Creating layer loss3/classifier_plantvillage_loss3/classifier_plantvillage_0_split
I0403 19:40:03.004509 25475 net.cpp:91] Creating Layer loss3/classifier_plantvillage_loss3/classifier_plantvillage_0_split
I0403 19:40:03.004525 25475 net.cpp:425] loss3/classifier_plantvillage_loss3/classifier_plantvillage_0_split <- loss3/classifier_plantvillage
I0403 19:40:03.004547 25475 net.cpp:399] loss3/classifier_plantvillage_loss3/classifier_plantvillage_0_split -> loss3/classifier_plantvillage_loss3/classifier_plantvillage_0_split_0
I0403 19:40:03.004572 25475 net.cpp:399] loss3/classifier_plantvillage_loss3/classifier_plantvillage_0_split -> loss3/classifier_plantvillage_loss3/classifier_plantvillage_0_split_1
I0403 19:40:03.004595 25475 net.cpp:399] loss3/classifier_plantvillage_loss3/classifier_plantvillage_0_split -> loss3/classifier_plantvillage_loss3/classifier_plantvillage_0_split_2
I0403 19:40:03.004616 25475 net.cpp:399] loss3/classifier_plantvillage_loss3/classifier_plantvillage_0_split -> loss3/classifier_plantvillage_loss3/classifier_plantvillage_0_split_3
I0403 19:40:03.004715 25475 net.cpp:141] Setting up loss3/classifier_plantvillage_loss3/classifier_plantvillage_0_split
I0403 19:40:03.004742 25475 net.cpp:148] Top shape: 24 38 (912)
I0403 19:40:03.004760 25475 net.cpp:148] Top shape: 24 38 (912)
I0403 19:40:03.004776 25475 net.cpp:148] Top shape: 24 38 (912)
I0403 19:40:03.004792 25475 net.cpp:148] Top shape: 24 38 (912)
I0403 19:40:03.004808 25475 net.cpp:156] Memory required for data: 1346079072
I0403 19:40:03.004822 25475 layer_factory.hpp:77] Creating layer loss1/loss
I0403 19:40:03.004851 25475 net.cpp:91] Creating Layer loss1/loss
I0403 19:40:03.004870 25475 net.cpp:425] loss1/loss <- loss1/classifier_plantvillage_loss1/classifier_plantvillage_0_split_0
I0403 19:40:03.004902 25475 net.cpp:425] loss1/loss <- label_data_1_split_0
…
