…
I0403 19:47:58.526163 25938 net.cpp:313] The NetState phase (1) differed from the phase (0) specified by a rule in layer data
I0403 19:47:58.527636 25938 net.cpp:49] Initializing net from parameters: 
state {
  phase: TEST
}
layer {
  name: "data"
  type: "Data"
  top: "data"
  top: "label"
  include {
    phase: TEST
  }
  transform_param {
    mirror: false
    crop_size: 224
    mean_file: "/home/mohanty/data/final_dataset/lmdb/grayscale-80-20/mean.binaryproto"
  }
  data_param {
    source: "/home/mohanty/data/final_dataset/lmdb/grayscale-80-20/test_db"
    batch_size: 24
    backend: LMDB
  }
}
layer {
  name: "conv1/7x7_s2"
  type: "Convolution"
  bottom: "data"
  top: "conv1/7x7_s2"
  param {
    lr_mult: 1
    decay_mult: 1
  }
  param {
    lr_mult: 2
    decay_mult: 0
  }
  convolution_param {
    num_output: 64
    pad: 3
    kernel_size: 7
    stride: 2
    weight_filler {
      type: "xavier"
      std: 0.1
    }
    bias_filler {
      type: "constant"
      value: 0.2
    }
  }
}
layer {
  name: "conv1/relu_7x7"
  type: "ReLU"
  bottom: "conv1/7x7_s2"
  top: "conv1/7x7_s2"
}
layer {
  name: "pool1/3x3_s2"
  type: "Pooling"
  bottom: "conv1/7x7_s2"
  top: "pool1/3x3_s2"
  pooling_param {
    pool: MAX
    kernel_size: 3
    stride: 2
  }
}
layer {
  name: "pool1/norm1"
  type: "LRN"
  bottom: "pool1/3x3_s2"
  top: "pool1/norm1"
  lrn_param {
    local_size: 5
    alpha: 0.0001
    beta: 0.75
  }
}
layer {
  name: "conv2/3x3_reduce"
  type: "Convolution"
  bottom: "pool1/norm1"
  top: "conv2/3x3_reduce"
  param {
    lr_mult: 1
    decay_mult: 1
  }
  param {
    lr_mult: 2
    decay_mult: 0
  }
  convolution_param {
    num_output: 64
    kernel_size: 1
    weight_filler {
      type: "xavier"
      std: 0.1
    }
    bias_filler {
      type: "constant"
      value: 0.2
    }
  }
}
layer {
  name: "conv2/relu_3x3_reduce"
  type: "ReLU"
  bottom: "conv2/3x3_reduce"
  top: "conv2/3x3_reduce"
}
layer {
  name: "conv2/3x3"
  type: "Convolution"
  bottom: "conv2/3x3_reduce"
  top: "conv2/3x3"
  param {
    lr_mult: 1
    decay_mult: 1
  }
  param {
    lr_mult: 2
    decay_mult: 0
  }
  convolution_param {
    num_output: 192
    pad: 1
    kernel_size: 3
    weight_filler {
      type: "xavier"
      std: 0.03
    }
    bias_filler {
      type: "constant"
      value: 0.2
    }
  }
}
layer {
  name: "conv2/relu_3x3"
  type: "ReLU"
  bottom: "conv2/3x3"
  top: "conv2/3x3"
}
layer {
  name: "conv2/norm2"
  type: "LRN"
  bottom: "conv2/3x3"
  top: "conv2/norm2"
  lrn_param {
    local_size: 5
    alpha: 0.0001
    beta: 0.75
  }
}
layer {
  name: "pool2/3x3_s2"
  type: "Pooling"
  bottom: "conv2/norm2"
  top: "pool2/3x3_s2"
  pooling_param {
    pool: MAX
    kernel_size: 3
    stride: 2
  }
}
layer {
  name: "inception_3a/1x1"
  type: "Convolution"
  bottom: "pool2/3x3_s2"
  top: "inception_3a/1x1"
  param {
    lr_mult: 1
    decay_mult: 1
  }
  param {
    lr_mult: 2
    decay_mult: 0
  }
  convolution_param {
    num_output: 64
    kernel_size: 1
    weight_filler {
      type: "xavier"
      std: 0.03
    }
    bias_filler {
      type: "constant"
      value: 0.2
    }
  }
}
layer {
  name: "inception_3a/relu_1x1"
  type: "ReLU"
  bottom: "inception_3a/1x1"
  top: "inception_3a/1x1"
}
layer {
  name: "inception_3a/3x3_reduce"
  type: "Convolution"
  bottom: "pool2/3x3_s2"
  top: "inception_3a/3x3_reduce"
  param {
    lr_mult: 1
    decay_mult: 1
  }
  param {
    lr_mult: 2
    decay_mult: 0
  }
  convolution_param {
    num_output: 96
    kernel_size: 1
    weight_filler {
      type: "xavier"
      std: 0.09
    }
    bias_filler {
      type: "constant"
      value: 0.2
    }
  }
}
layer {
  name: "inception_3a/relu_3x3_reduce"
  type: "ReLU"
  bottom: "inception_3a/3x3_reduce"
  top: "inception_3a/3x3_reduce"
}
layer {
  name: "inception_3a/3x3"
  type: "Convolution"
  bottom: "inception_3a/3x3_reduce"
  top: "inception_3a/3x3"
  param {
    lr_mult: 1
    decay_mult: 1
  }
  param {
    lr_mult: 2
    decay_mult: 0
  }
  convolution_param {
    num_output: 128
    pad: 1
    kernel_size: 3
    weight_filler {
      type: "xavier"
      std: 0.03
    }
    bias_filler {
      type: "constant"
      value: 0.2
    }
  }
}
layer {
  name: "inception_3a/relu_3x3"
  type: "ReLU"
  bottom: "inception_3a/3x3"
  top: "inception_3a/3x3"
}
layer {
  name: "inception_3a/5x5_reduce"
  type: "Convolution"
  bottom: "pool2/3x3_s2"
  top: "inception_3a/5x5_reduce"
  param {
    lr_mult: 1
    decay_mult: 1
  }
  param {
    lr_mult: 2
    decay_mult: 0
  }
  convolution_param {
    num_output: 16
    kernel_size: 1
    weight_filler {
      type: "xavier"
      std: 0.2
    }
    bias_filler {
      type: "constant"
      value: 0.2
    }
  }
}
layer {
  name: "inception_3a/relu_5x5_reduce"
  type: "ReLU"
  bottom: "inception_3a/5x5_reduce"
  top: "inception_3a/5x5_reduce"
}
layer {
  name: "inception_3a/5x5"
  type: "Convolution"
  bottom: "inception_3a/5x5_reduce"
  top: "inception_3a/5x5"
  param {
    lr_mult: 1
    decay_mult: 1
  }
  param {
    lr_mult: 2
    decay_mult: 0
  }
  convolution_param {
    num_output: 32
    pad: 2
    kernel_size: 5
    weight_filler {
      type: "xavier"
      std: 0.03
    }
    bias_filler {
      type: "constant"
      value: 0.2
    }
  }
}
layer {
  name: "inception_3a/relu_5x5"
  type: "ReLU"
  bottom: "inception_3a/5x5"
  top: "inception_3a/5x5"
}
layer {
  name: "inception_3a/pool"
  type: "Pooling"
  bottom: "pool2/3x3_s2"
  top: "inception_3a/pool"
  pooling_param {
    pool: MAX
    kernel_size: 3
    stride: 1
    pad: 1
  }
}
layer {
  name: "inception_3a/pool_proj"
  type: "Convolution"
  bottom: "inception_3a/pool"
  top: "inception_3a/pool_proj"
  param {
    lr_mult: 1
    decay_mult: 1
  }
  param {
    lr_mult: 2
    decay_mult: 0
  }
  convolution_param {
    num_output: 32
    kernel_size: 1
    weight_filler {
      type: "xavier"
      std: 0.1
    }
    bias_filler {
      type: "constant"
      value: 0.2
    }
  }
}
layer {
  name: "inception_3a/relu_pool_proj"
  type: "ReLU"
  bottom: "inception_3a/pool_proj"
  top: "inception_3a/pool_proj"
}
layer {
  name: "inception_3a/output"
  type: "Concat"
  bottom: "inception_3a/1x1"
  bottom: "inception_3a/3x3"
  bottom: "inception_3a/5x5"
  bottom: "inception_3a/pool_proj"
  top: "inception_3a/output"
}
layer {
  name: "inception_3b/1x1"
  type: "Convolution"
  bottom: "inception_3a/output"
  top: "inception_3b/1x1"
  param {
    lr_mult: 1
    decay_mult: 1
  }
  param {
    lr_mult: 2
    decay_mult: 0
  }
  convolution_param {
    num_output: 128
    kernel_size: 1
    weight_filler {
      type: "xavier"
      std: 0.03
    }
    bias_filler {
      type: "constant"
      value: 0.2
    }
  }
}
layer {
  name: "inception_3b/relu_1x1"
  type: "ReLU"
  bottom: "inception_3b/1x1"
  top: "inception_3b/1x1"
}
layer {
  name: "inception_3b/3x3_reduce"
  type: "Convolution"
  bottom: "inception_3a/output"
  top: "inception_3b/3x3_reduce"
  param {
    lr_mult: 1
    decay_mult: 1
  }
  param {
    lr_mult: 2
    decay_mult: 0
  }
  convolution_param {
    num_output: 128
    kernel_size: 1
    weight_filler {
      type: "xavier"
      std: 0.09
    }
    bias_filler {
      type: "constant"
      value: 0.2
    }
  }
}
layer {
  name: "inception_3b/relu_3x3_reduce"
  type: "ReLU"
  bottom: "inception_3b/3x3_reduce"
  top: "inception_3b/3x3_reduce"
}
layer {
  name: "inception_3b/3x3"
  type: "Convolution"
  bottom: "inception_3b/3x3_reduce"
  top: "inception_3b/3x3"
  param {
    lr_mult: 1
    decay_mult: 1
  }
  param {
    lr_mult: 2
    decay_mult: 0
  }
  convolution_param {
    num_output: 192
    pad: 1
    kernel_size: 3
    weight_filler {
      type: "xavier"
      std: 0.03
    }
    bias_filler {
      type: "constant"
      value: 0.2
    }
  }
}
layer {
  name: "inception_3b/relu_3x3"
  type: "ReLU"
  bottom: "inception_3b/3x3"
  top: "inception_3b/3x3"
}
layer {
  name: "inception_3b/5x5_reduce"
  type: "Convolution"
  bottom: "inception_3a/output"
  top: "inception_3b/5x5_reduce"
  param {
    lr_mult: 1
    decay_mult: 1
  }
  param {
    lr_mult: 2
    decay_mult: 0
  }
  convolution_param {
    num_output: 32
    kernel_size: 1
    weight_filler {
      type: "xavier"
      std: 0.2
    }
    bias_filler {
      type: "constant"
      value: 0.2
    }
  }
}
layer {
  name: "inception_3b/relu_5x5_reduce"
  type: "ReLU"
  bottom: "inception_3b/5x5_reduce"
  top: "inception_3b/5x5_reduce"
}
layer {
  name: "inception_3b/5x5"
  type: "Convolution"
  bottom: "inception_3b/5x5_reduce"
  top: "inception_3b/5x5"
  param {
    lr_mult: 1
    decay_mult: 1
  }
  param {
    lr_mult: 2
    decay_mult: 0
  }
  convolution_param {
    num_output: 96
    pad: 2
    kernel_size: 5
    weight_filler {
      type: "xavier"
      std: 0.03
    }
    bias_filler {
      type: "constant"
      value: 0.2
    }
  }
}
layer {
  name: "inception_3b/relu_5x5"
  type: "ReLU"
  bottom: "inception_3b/5x5"
  top: "inception_3b/5x5"
}
layer {
  name: "inception_3b/pool"
  type: "Pooling"
  bottom: "inception_3a/output"
  top: "inception_3b/pool"
  pooling_param {
    pool: MAX
    kernel_size: 3
    stride: 1
    pad: 1
  }
}
layer {
  name: "inception_3b/pool_proj"
  type: "Convolution"
  bottom: "inception_3b/pool"
  top: "inception_3b/pool_proj"
  param {
    lr_mult: 1
    decay_mult: 1
  }
  param {
    lr_mult: 2
    decay_mult: 0
  }
  convolution_param {
    num_output: 64
    kernel_size: 1
    weight_filler {
      type: "xavier"
      std: 0.1
    }
    bias_filler {
      type: "constant"
      value: 0.2
    }
  }
}
layer {
  name: "inception_3b/relu_pool_proj"
  type: "ReLU"
  bottom: "inception_3b/pool_proj"
  top: "inception_3b/pool_proj"
}
layer {
  name: "inception_3b/output"
  type: "Concat"
  bottom: "inception_3b/1x1"
  bottom: "inception_3b/3x3"
  bottom: "inception_3b/5x5"
  bottom: "inception_3b/pool_proj"
  top: "inception_3b/output"
}
layer {
  name: "pool3/3x3_s2"
  type: "Pooling"
  bottom: "inception_3b/output"
  top: "pool3/3x3_s2"
  pooling_param {
    pool: MAX
    kernel_size: 3
    stride: 2
  }
}
layer {
  name: "inception_4a/1x1"
  type: "Convolution"
  bottom: "pool3/3x3_s2"
  top: "inception_4a/1x1"
  param {
    lr_mult: 1
    decay_mult: 1
  }
  param {
    lr_mult: 2
    decay_mult: 0
  }
  convolution_param {
    num_output: 192
    kernel_size: 1
    weight_filler {
      type: "xavier"
      std: 0.03
    }
    bias_filler {
      type: "constant"
      value: 0.2
    }
  }
}
layer {
  name: "inception_4a/relu_1x1"
  type: "ReLU"
  bottom: "inception_4a/1x1"
  top: "inception_4a/1x1"
}
layer {
  name: "inception_4a/3x3_reduce"
  type: "Convolution"
  bottom: "pool3/3x3_s2"
  top: "inception_4a/3x3_reduce"
  param {
    lr_mult: 1
    decay_mult: 1
  }
  param {
    lr_mult: 2
    decay_mult: 0
  }
  convolution_param {
    num_output: 96
    kernel_size: 1
    weight_filler {
      type: "xavier"
      std: 0.09
    }
    bias_filler {
      type: "constant"
      value: 0.2
    }
  }
}
layer {
  name: "inception_4a/relu_3x3_reduce"
  type: "ReLU"
  bottom: "inception_4a/3x3_reduce"
  top: "inception_4a/3x3_reduce"
}
layer {
  name: "inception_4a/3x3"
  type: "Convolution"
  bottom: "inception_4a/3x3_reduce"
  top: "inception_4a/3x3"
  param {
    lr_mult: 1
    decay_mult: 1
  }
  param {
    lr_mult: 2
    decay_mult: 0
  }
  convolution_param {
    num_output: 208
    pad: 1
    kernel_size: 3
    weight_filler {
      type: "xavier"
      std: 0.03
    }
    bias_filler {
      type: "constant"
      value: 0.2
    }
  }
}
layer {
  name: "inception_4a/relu_3x3"
  type: "ReLU"
  bottom: "inception_4a/3x3"
  top: "inception_4a/3x3"
}
layer {
  name: "inception_4a/5x5_reduce"
  type: "Convolution"
  bottom: "pool3/3x3_s2"
  top: "inception_4a/5x5_reduce"
  param {
    lr_mult: 1
    decay_mult: 1
  }
  param {
    lr_mult: 2
    decay_mult: 0
  }
  convolution_param {
    num_output: 16
    kernel_size: 1
    weight_filler {
      type: "xavier"
      std: 0.2
    }
    bias_filler {
      type: "constant"
      value: 0.2
    }
  }
}
layer {
  name: "inception_4a/relu_5x5_reduce"
  type: "ReLU"
  bottom: "inception_4a/5x5_reduce"
  top: "inception_4a/5x5_reduce"
}
layer {
  name: "inception_4a/5x5"
  type: "Convolution"
  bottom: "inception_4a/5x5_reduce"
  top: "inception_4a/5x5"
  param {
    lr_mult: 1
    decay_mult: 1
  }
  param {
    lr_mult: 2
    decay_mult: 0
  }
  convolution_param {
    num_output: 48
    pad: 2
    kernel_size: 5
    weight_filler {
      type: "xavier"
      std: 0.03
    }
    bias_filler {
      type: "constant"
      value: 0.2
    }
  }
}
layer {
  name: "inception_4a/relu_5x5"
  type: "ReLU"
  bottom: "inception_4a/5x5"
  top: "inception_4a/5x5"
}
layer {
  name: "inception_4a/pool"
  type: "Pooling"
  bottom: "pool3/3x3_s2"
  top: "inception_4a/pool"
  pooling_param {
    pool: MAX
    kernel_size: 3
    stride: 1
    pad: 1
  }
}
layer {
  name: "inception_4a/pool_proj"
  type: "Convolution"
  bottom: "inception_4a/pool"
  top: "inception_4a/pool_proj"
  param {
    lr_mult: 1
    decay_mult: 1
  }
  param {
    lr_mult: 2
    decay_mult: 0
  }
  convolution_param {
    num_output: 64
    kernel_size: 1
    weight_filler {
      type: "xavier"
      std: 0.1
    }
    bias_filler {
      type: "constant"
      value: 0.2
    }
  }
}
layer {
  name: "inception_4a/relu_pool_proj"
  type: "ReLU"
  bottom: "inception_4a/pool_proj"
  top: "inception_4a/pool_proj"
}
layer {
  name: "inception_4a/output"
  type: "Concat"
  bottom: "inception_4a/1x1"
  bottom: "inception_4a/3x3"
  bottom: "inception_4a/5x5"
  bottom: "inception_4a/pool_proj"
  top: "inception_4a/output"
}
layer {
  name: "loss1/ave_pool"
  type: "Pooling"
  bottom: "inception_4a/output"
  top: "loss1/ave_pool"
  pooling_param {
    pool: AVE
    kernel_size: 5
    stride: 3
  }
}
layer {
  name: "loss1/conv"
  type: "Convolution"
  bottom: "loss1/ave_pool"
  top: "loss1/conv"
  param {
    lr_mult: 1
    decay_mult: 1
  }
  param {
    lr_mult: 2
    decay_mult: 0
  }
  convolution_param {
    num_output: 128
    kernel_size: 1
    weight_filler {
      type: "xavier"
      std: 0.08
    }
    bias_filler {
      type: "constant"
      value: 0.2
    }
  }
}
layer {
  name: "loss1/relu_conv"
  type: "ReLU"
  bottom: "loss1/conv"
  top: "loss1/conv"
}
layer {
  name: "loss1/fc"
  type: "InnerProduct"
  bottom: "loss1/conv"
  top: "loss1/fc"
  param {
    lr_mult: 1
    decay_mult: 1
  }
  param {
    lr_mult: 2
    decay_mult: 0
  }
  inner_product_param {
    num_output: 1024
    weight_filler {
      type: "xavier"
      std: 0.02
    }
    bias_filler {
      type: "constant"
      value: 0.2
    }
  }
}
layer {
  name: "loss1/relu_fc"
  type: "ReLU"
  bottom: "loss1/fc"
  top: "loss1/fc"
}
layer {
  name: "loss1/drop_fc"
  type: "Dropout"
  bottom: "loss1/fc"
  top: "loss1/fc"
  dropout_param {
    dropout_ratio: 0.7
  }
}
layer {
  name: "loss1/classifier_plantvillage"
  type: "InnerProduct"
  bottom: "loss1/fc"
  top: "loss1/classifier_plantvillage"
  param {
    lr_mult: 1
    decay_mult: 1
  }
  param {
    lr_mult: 2
    decay_mult: 0
  }
  inner_product_param {
    num_output: 38
    weight_filler {
      type: "xavier"
      std: 0.0009765625
    }
    bias_filler {
      type: "constant"
      value: 0
    }
  }
}
layer {
  name: "inception_4b/1x1"
  type: "Convolution"
  bottom: "inception_4a/output"
  top: "inception_4b/1x1"
  param {
    lr_mult: 1
    decay_mult: 1
  }
  param {
    lr_mult: 2
    decay_mult: 0
  }
  convolution_param {
    num_output: 160
    kernel_size: 1
    weight_filler {
      type: "xavier"
      std: 0.03
    }
    bias_filler {
      type: "constant"
      value: 0.2
    }
  }
}
layer {
  name: "inception_4b/relu_1x1"
  type: "ReLU"
  bottom: "inception_4b/1x1"
  top: "inception_4b/1x1"
}
layer {
  name: "inception_4b/3x3_reduce"
  type: "Convolution"
  bottom: "inception_4a/output"
  top: "inception_4b/3x3_reduce"
  param {
    lr_mult: 1
    decay_mult: 1
  }
  param {
    lr_mult: 2
    decay_mult: 0
  }
  convolution_param {
    num_output: 112
    kernel_size: 1
    weight_filler {
      type: "xavier"
      std: 0.09
    }
    bias_filler {
      type: "constant"
      value: 0.2
    }
  }
}
layer {
  name: "inception_4b/relu_3x3_reduce"
  type: "ReLU"
  bottom: "inception_4b/3x3_reduce"
  top: "inception_4b/3x3_reduce"
}
layer {
  name: "inception_4b/3x3"
  type: "Convolution"
  bottom: "inception_4b/3x3_reduce"
  top: "inception_4b/3x3"
  param {
    lr_mult: 1
    decay_mult: 1
  }
  param {
    lr_mult: 2
    decay_mult: 0
  }
  convolution_param {
    num_output: 224
    pad: 1
    kernel_size: 3
    weight_filler {
      type: "xavier"
      std: 0.03
    }
    bias_filler {
      type: "constant"
      value: 0.2
    }
  }
}
layer {
  name: "inception_4b/relu_3x3"
  type: "ReLU"
  bottom: "inception_4b/3x3"
  top: "inception_4b/3x3"
}
layer {
  name: "inception_4b/5x5_reduce"
  type: "Convolution"
  bottom: "inception_4a/output"
  top: "inception_4b/5x5_reduce"
  param {
    lr_mult: 1
    decay_mult: 1
  }
  param {
    lr_mult: 2
    decay_mult: 0
  }
  convolution_param {
    num_output: 24
    kernel_size: 1
    weight_filler {
      type: "xavier"
      std: 0.2
    }
    bias_filler {
      type: "constant"
      value: 0.2
    }
  }
}
layer {
  name: "inception_4b/relu_5x5_reduce"
  type: "ReLU"
  bottom: "inception_4b/5x5_reduce"
  top: "inception_4b/5x5_reduce"
}
layer {
  name: "inception_4b/5x5"
  type: "Convolution"
  bottom: "inception_4b/5x5_reduce"
  top: "inception_4b/5x5"
  param {
    lr_mult: 1
    decay_mult: 1
  }
  param {
    lr_mult: 2
    decay_mult: 0
  }
  convolution_param {
    num_output: 64
    pad: 2
    kernel_size: 5
    weight_filler {
      type: "xavier"
      std: 0.03
    }
    bias_filler {
      type: "constant"
      value: 0.2
    }
  }
}
layer {
  name: "inception_4b/relu_5x5"
  type: "ReLU"
  bottom: "inception_4b/5x5"
  top: "inception_4b/5x5"
}
layer {
  name: "inception_4b/pool"
  type: "Pooling"
  bottom: "inception_4a/output"
  top: "inception_4b/pool"
  pooling_param {
    pool: MAX
    kernel_size: 3
    stride: 1
    pad: 1
  }
}
layer {
  name: "inception_4b/pool_proj"
  type: "Convolution"
  bottom: "inception_4b/pool"
  top: "inception_4b/pool_proj"
  param {
    lr_mult: 1
    decay_mult: 1
  }
  param {
    lr_mult: 2
    decay_mult: 0
  }
  convolution_param {
    num_output: 64
    kernel_size: 1
    weight_filler {
      type: "xavier"
      std: 0.1
    }
    bias_filler {
      type: "constant"
      value: 0.2
    }
  }
}
layer {
  name: "inception_4b/relu_pool_proj"
  type: "ReLU"
  bottom: "inception_4b/pool_proj"
  top: "inception_4b/pool_proj"
}
layer {
  name: "inception_4b/output"
  type: "Concat"
  bottom: "inception_4b/1x1"
  bottom: "inception_4b/3x3"
  bottom: "inception_4b/5x5"
  bottom: "inception_4b/pool_proj"
  top: "inception_4b/output"
}
layer {
  name: "inception_4c/1x1"
  type: "Convolution"
  bottom: "inception_4b/output"
  top: "inception_4c/1x1"
  param {
    lr_mult: 1
    decay_mult: 1
  }
  param {
    lr_mult: 2
    decay_mult: 0
  }
  convolution_param {
    num_output: 128
    kernel_size: 1
    weight_filler {
      type: "xavier"
      std: 0.03
    }
    bias_filler {
      type: "constant"
      value: 0.2
    }
  }
}
layer {
  name: "inception_4c/relu_1x1"
  type: "ReLU"
  bottom: "inception_4c/1x1"
  top: "inception_4c/1x1"
}
layer {
  name: "inception_4c/3x3_reduce"
  type: "Convolution"
  bottom: "inception_4b/output"
  top: "inception_4c/3x3_reduce"
  param {
    lr_mult: 1
    decay_mult: 1
  }
  param {
    lr_mult: 2
    decay_mult: 0
  }
  convolution_param {
    num_output: 128
    kernel_size: 1
    weight_filler {
      type: "xavier"
      std: 0.09
    }
    bias_filler {
      type: "constant"
      value: 0.2
    }
  }
}
layer {
  name: "inception_4c/relu_3x3_reduce"
  type: "ReLU"
  bottom: "inception_4c/3x3_reduce"
  top: "inception_4c/3x3_reduce"
}
layer {
  name: "inception_4c/3x3"
  type: "Convolution"
  bottom: "inception_4c/3x3_reduce"
  top: "inception_4c/3x3"
  param {
    lr_mult: 1
    decay_mult: 1
  }
  param {
    lr_mult: 2
    decay_mult: 0
  }
  convolution_param {
    num_output: 256
    pad: 1
    kernel_size: 3
    weight_filler {
      type: "xavier"
      std: 0.03
    }
    bias_filler {
      type: "constant"
      value: 0.2
    }
  }
}
layer {
  name: "inception_4c/relu_3x3"
  type: "ReLU"
  bottom: "inception_4c/3x3"
  top: "inception_4c/3x3"
}
layer {
  name: "inception_4c/5x5_reduce"
  type: "Convolution"
  bottom: "inception_4b/output"
  top: "inception_4c/5x5_reduce"
  param {
    lr_mult: 1
    decay_mult: 1
  }
  param {
    lr_mult: 2
    decay_mult: 0
  }
  convolution_param {
    num_output: 24
    kernel_size: 1
    weight_filler {
      type: "xavier"
      std: 0.2
    }
    bias_filler {
      type: "constant"
      value: 0.2
    }
  }
}
layer {
  name: "inception_4c/relu_5x5_reduce"
  type: "ReLU"
  bottom: "inception_4c/5x5_reduce"
  top: "inception_4c/5x5_reduce"
}
layer {
  name: "inception_4c/5x5"
  type: "Convolution"
  bottom: "inception_4c/5x5_reduce"
  top: "inception_4c/5x5"
  param {
    lr_mult: 1
    decay_mult: 1
  }
  param {
    lr_mult: 2
    decay_mult: 0
  }
  convolution_param {
    num_output: 64
    pad: 2
    kernel_size: 5
    weight_filler {
      type: "xavier"
      std: 0.03
    }
    bias_filler {
      type: "constant"
      value: 0.2
    }
  }
}
layer {
  name: "inception_4c/relu_5x5"
  type: "ReLU"
  bottom: "inception_4c/5x5"
  top: "inception_4c/5x5"
}
layer {
  name: "inception_4c/pool"
  type: "Pooling"
  bottom: "inception_4b/output"
  top: "inception_4c/pool"
  pooling_param {
    pool: MAX
    kernel_size: 3
    stride: 1
    pad: 1
  }
}
layer {
  name: "inception_4c/pool_proj"
  type: "Convolution"
  bottom: "inception_4c/pool"
  top: "inception_4c/pool_proj"
  param {
    lr_mult: 1
    decay_mult: 1
  }
  param {
    lr_mult: 2
    decay_mult: 0
  }
  convolution_param {
    num_output: 64
    kernel_size: 1
    weight_filler {
      type: "xavier"
      std: 0.1
    }
    bias_filler {
      type: "constant"
      value: 0.2
    }
  }
}
layer {
  name: "inception_4c/relu_pool_proj"
  type: "ReLU"
  bottom: "inception_4c/pool_proj"
  top: "inception_4c/pool_proj"
}
layer {
  name: "inception_4c/output"
  type: "Concat"
  bottom: "inception_4c/1x1"
  bottom: "inception_4c/3x3"
  bottom: "inception_4c/5x5"
  bottom: "inception_4c/pool_proj"
  top: "inception_4c/output"
}
layer {
  name: "inception_4d/1x1"
  type: "Convolution"
  bottom: "inception_4c/output"
  top: "inception_4d/1x1"
  param {
    lr_mult: 1
    decay_mult: 1
  }
  param {
    lr_mult: 2
    decay_mult: 0
  }
  convolution_param {
    num_output: 112
    kernel_size: 1
    weight_filler {
      type: "xavier"
      std: 0.03
    }
    bias_filler {
      type: "constant"
      value: 0.2
    }
  }
}
layer {
  name: "inception_4d/relu_1x1"
  type: "ReLU"
  bottom: "inception_4d/1x1"
  top: "inception_4d/1x1"
}
layer {
  name: "inception_4d/3x3_reduce"
  type: "Convolution"
  bottom: "inception_4c/output"
  top: "inception_4d/3x3_reduce"
  param {
    lr_mult: 1
    decay_mult: 1
  }
  param {
    lr_mult: 2
    decay_mult: 0
  }
  convolution_param {
    num_output: 144
    kernel_size: 1
    weight_filler {
      type: "xavier"
      std: 0.09
    }
    bias_filler {
      type: "constant"
      value: 0.2
    }
  }
}
layer {
  name: "inception_4d/relu_3x3_reduce"
  type: "ReLU"
  bottom: "inception_4d/3x3_reduce"
  top: "inception_4d/3x3_reduce"
}
layer {
  name: "inception_4d/3x3"
  type: "Convolution"
  bottom: "inception_4d/3x3_reduce"
  top: "inception_4d/3x3"
  param {
    lr_mult: 1
    decay_mult: 1
  }
  param {
    lr_mult: 2
    decay_mult: 0
  }
  convolution_param {
    num_output: 288
    pad: 1
    kernel_size: 3
    weight_filler {
      type: "xavier"
      std: 0.03
    }
    bias_filler {
      type: "constant"
      value: 0.2
    }
  }
}
layer {
  name: "inception_4d/relu_3x3"
  type: "ReLU"
  bottom: "inception_4d/3x3"
  top: "inception_4d/3x3"
}
layer {
  name: "inception_4d/5x5_reduce"
  type: "Convolution"
  bottom: "inception_4c/output"
  top: "inception_4d/5x5_reduce"
  param {
    lr_mult: 1
    decay_mult: 1
  }
  param {
    lr_mult: 2
    decay_mult: 0
  }
  convolution_param {
    num_output: 32
    kernel_size: 1
    weight_filler {
      type: "xavier"
      std: 0.2
    }
    bias_filler {
      type: "constant"
      value: 0.2
    }
  }
}
layer {
  name: "inception_4d/relu_5x5_reduce"
  type: "ReLU"
  bottom: "inception_4d/5x5_reduce"
  top: "inception_4d/5x5_reduce"
}
layer {
  name: "inception_4d/5x5"
  type: "Convolution"
  bottom: "inception_4d/5x5_reduce"
  top: "inception_4d/5x5"
  param {
    lr_mult: 1
    decay_mult: 1
  }
  param {
    lr_mult: 2
    decay_mult: 0
  }
  convolution_param {
    num_output: 64
    pad: 2
    kernel_size: 5
    weight_filler {
      type: "xavier"
      std: 0.03
    }
    bias_filler {
      type: "constant"
      value: 0.2
    }
  }
}
layer {
  name: "inception_4d/relu_5x5"
  type: "ReLU"
  bottom: "inception_4d/5x5"
  top: "inception_4d/5x5"
}
layer {
  name: "inception_4d/pool"
  type: "Pooling"
  bottom: "inception_4c/output"
  top: "inception_4d/pool"
  pooling_param {
    pool: MAX
    kernel_size: 3
    stride: 1
    pad: 1
  }
}
layer {
  name: "inception_4d/pool_proj"
  type: "Convolution"
  bottom: "inception_4d/pool"
  top: "inception_4d/pool_proj"
  param {
    lr_mult: 1
    decay_mult: 1
  }
  param {
    lr_mult: 2
    decay_mult: 0
  }
  convolution_param {
    num_output: 64
    kernel_size: 1
    weight_filler {
      type: "xavier"
      std: 0.1
    }
    bias_filler {
      type: "constant"
      value: 0.2
    }
  }
}
layer {
  name: "inception_4d/relu_pool_proj"
  type: "ReLU"
  bottom: "inception_4d/pool_proj"
  top: "inception_4d/pool_proj"
}
layer {
  name: "inception_4d/output"
  type: "Concat"
  bottom: "inception_4d/1x1"
  bottom: "inception_4d/3x3"
  bottom: "inception_4d/5x5"
  bottom: "inception_4d/pool_proj"
  top: "inception_4d/output"
}
layer {
  name: "loss2/ave_pool"
  type: "Pooling"
  bottom: "inception_4d/output"
  top: "loss2/ave_pool"
  pooling_param {
    pool: AVE
    kernel_size: 5
    stride: 3
  }
}
layer {
  name: "loss2/conv"
  type: "Convolution"
  bottom: "loss2/ave_pool"
  top: "loss2/conv"
  param {
    lr_mult: 1
    decay_mult: 1
  }
  param {
    lr_mult: 2
    decay_mult: 0
  }
  convolution_param {
    num_output: 128
    kernel_size: 1
    weight_filler {
      type: "xavier"
      std: 0.08
    }
    bias_filler {
      type: "constant"
      value: 0.2
    }
  }
}
layer {
  name: "loss2/relu_conv"
  type: "ReLU"
  bottom: "loss2/conv"
  top: "loss2/conv"
}
layer {
  name: "loss2/fc"
  type: "InnerProduct"
  bottom: "loss2/conv"
  top: "loss2/fc"
  param {
    lr_mult: 1
    decay_mult: 1
  }
  param {
    lr_mult: 2
    decay_mult: 0
  }
  inner_product_param {
    num_output: 1024
    weight_filler {
      type: "xavier"
      std: 0.02
    }
    bias_filler {
      type: "constant"
      value: 0.2
    }
  }
}
layer {
  name: "loss2/relu_fc"
  type: "ReLU"
  bottom: "loss2/fc"
  top: "loss2/fc"
}
layer {
  name: "loss2/drop_fc"
  type: "Dropout"
  bottom: "loss2/fc"
  top: "loss2/fc"
  dropout_param {
    dropout_ratio: 0.7
  }
}
layer {
  name: "loss2/classifier_plantvillage"
  type: "InnerProduct"
  bottom: "loss2/fc"
  top: "loss2/classifier_plantvillage"
  param {
    lr_mult: 1
    decay_mult: 1
  }
  param {
    lr_mult: 2
    decay_mult: 0
  }
  inner_product_param {
    num_output: 38
    weight_filler {
      type: "xavier"
      std: 0.0009765625
    }
    bias_filler {
      type: "constant"
      value: 0
    }
  }
}
layer {
  name: "inception_4e/1x1"
  type: "Convolution"
  bottom: "inception_4d/output"
  top: "inception_4e/1x1"
  param {
    lr_mult: 1
    decay_mult: 1
  }
  param {
    lr_mult: 2
    decay_mult: 0
  }
  convolution_param {
    num_output: 256
    kernel_size: 1
    weight_filler {
      type: "xavier"
      std: 0.03
    }
    bias_filler {
      type: "constant"
      value: 0.2
    }
  }
}
layer {
  name: "inception_4e/relu_1x1"
  type: "ReLU"
  bottom: "inception_4e/1x1"
  top: "inception_4e/1x1"
}
layer {
  name: "inception_4e/3x3_reduce"
  type: "Convolution"
  bottom: "inception_4d/output"
  top: "inception_4e/3x3_reduce"
  param {
    lr_mult: 1
    decay_mult: 1
  }
  param {
    lr_mult: 2
    decay_mult: 0
  }
  convolution_param {
    num_output: 160
    kernel_size: 1
    weight_filler {
      type: "xavier"
      std: 0.09
    }
    bias_filler {
      type: "constant"
      value: 0.2
    }
  }
}
layer {
  name: "inception_4e/relu_3x3_reduce"
  type: "ReLU"
  bottom: "inception_4e/3x3_reduce"
  top: "inception_4e/3x3_reduce"
}
layer {
  name: "inception_4e/3x3"
  type: "Convolution"
  bottom: "inception_4e/3x3_reduce"
  top: "inception_4e/3x3"
  param {
    lr_mult: 1
    decay_mult: 1
  }
  param {
    lr_mult: 2
    decay_mult: 0
  }
  convolution_param {
    num_output: 320
    pad: 1
    kernel_size: 3
    weight_filler {
      type: "xavier"
      std: 0.03
    }
    bias_filler {
      type: "constant"
      value: 0.2
    }
  }
}
layer {
  name: "inception_4e/relu_3x3"
  type: "ReLU"
  bottom: "inception_4e/3x3"
  top: "inception_4e/3x3"
}
layer {
  name: "inception_4e/5x5_reduce"
  type: "Convolution"
  bottom: "inception_4d/output"
  top: "inception_4e/5x5_reduce"
  param {
    lr_mult: 1
    decay_mult: 1
  }
  param {
    lr_mult: 2
    decay_mult: 0
  }
  convolution_param {
    num_output: 32
    kernel_size: 1
    weight_filler {
      type: "xavier"
      std: 0.2
    }
    bias_filler {
      type: "constant"
      value: 0.2
    }
  }
}
layer {
  name: "inception_4e/relu_5x5_reduce"
  type: "ReLU"
  bottom: "inception_4e/5x5_reduce"
  top: "inception_4e/5x5_reduce"
}
layer {
  name: "inception_4e/5x5"
  type: "Convolution"
  bottom: "inception_4e/5x5_reduce"
  top: "inception_4e/
I0403 19:47:58.529891 25938 layer_factory.hpp:77] Creating layer data
I0403 19:47:58.530663 25938 net.cpp:91] Creating Layer data
I0403 19:47:58.530704 25938 net.cpp:399] data -> data
I0403 19:47:58.530781 25938 net.cpp:399] data -> label
I0403 19:47:58.530833 25938 data_transformer.cpp:25] Loading mean file from: /home/mohanty/data/final_dataset/lmdb/grayscale-80-20/mean.binaryproto
I0403 19:47:58.532132 25940 db_lmdb.cpp:38] Opened lmdb /home/mohanty/data/final_dataset/lmdb/grayscale-80-20/test_db
I0403 19:47:58.547703 25938 data_layer.cpp:41] output data size: 24,3,224,224
I0403 19:47:58.579879 25938 net.cpp:141] Setting up data
I0403 19:47:58.579998 25938 net.cpp:148] Top shape: 24 3 224 224 (3612672)
I0403 19:47:58.580026 25938 net.cpp:148] Top shape: 24 (24)
I0403 19:47:58.580046 25938 net.cpp:156] Memory required for data: 14450784
I0403 19:47:58.580086 25938 layer_factory.hpp:77] Creating layer label_data_1_split
I0403 19:47:58.580124 25938 net.cpp:91] Creating Layer label_data_1_split
I0403 19:47:58.580150 25938 net.cpp:425] label_data_1_split <- label
I0403 19:47:58.580194 25938 net.cpp:399] label_data_1_split -> label_data_1_split_0
I0403 19:47:58.580235 25938 net.cpp:399] label_data_1_split -> label_data_1_split_1
I0403 19:47:58.580268 25938 net.cpp:399] label_data_1_split -> label_data_1_split_2
I0403 19:47:58.580299 25938 net.cpp:399] label_data_1_split -> label_data_1_split_3
I0403 19:47:58.580324 25938 net.cpp:399] label_data_1_split -> label_data_1_split_4
I0403 19:47:58.580351 25938 net.cpp:399] label_data_1_split -> label_data_1_split_5
I0403 19:47:58.580377 25938 net.cpp:399] label_data_1_split -> label_data_1_split_6
I0403 19:47:58.580404 25938 net.cpp:399] label_data_1_split -> label_data_1_split_7
I0403 19:47:58.580430 25938 net.cpp:399] label_data_1_split -> label_data_1_split_8
I0403 19:47:58.580457 25938 net.cpp:399] label_data_1_split -> label_data_1_split_9
I0403 19:47:58.580602 25938 net.cpp:141] Setting up label_data_1_split
I0403 19:47:58.580634 25938 net.cpp:148] Top shape: 24 (24)
I0403 19:47:58.580657 25938 net.cpp:148] Top shape: 24 (24)
I0403 19:47:58.580678 25938 net.cpp:148] Top shape: 24 (24)
I0403 19:47:58.580698 25938 net.cpp:148] Top shape: 24 (24)
I0403 19:47:58.580718 25938 net.cpp:148] Top shape: 24 (24)
I0403 19:47:58.580739 25938 net.cpp:148] Top shape: 24 (24)
I0403 19:47:58.580759 25938 net.cpp:148] Top shape: 24 (24)
I0403 19:47:58.580777 25938 net.cpp:148] Top shape: 24 (24)
I0403 19:47:58.580796 25938 net.cpp:148] Top shape: 24 (24)
I0403 19:47:58.580818 25938 net.cpp:148] Top shape: 24 (24)
I0403 19:47:58.580878 25938 net.cpp:156] Memory required for data: 14451744
I0403 19:47:58.580898 25938 layer_factory.hpp:77] Creating layer conv1/7x7_s2
I0403 19:47:58.580943 25938 net.cpp:91] Creating Layer conv1/7x7_s2
I0403 19:47:58.580968 25938 net.cpp:425] conv1/7x7_s2 <- data
I0403 19:47:58.580992 25938 net.cpp:399] conv1/7x7_s2 -> conv1/7x7_s2
I0403 19:47:58.754290 25938 net.cpp:141] Setting up conv1/7x7_s2
I0403 19:47:58.754411 25938 net.cpp:148] Top shape: 24 64 112 112 (19267584)
I0403 19:47:58.754433 25938 net.cpp:156] Memory required for data: 91522080
I0403 19:47:58.754477 25938 layer_factory.hpp:77] Creating layer conv1/relu_7x7
I0403 19:47:58.754516 25938 net.cpp:91] Creating Layer conv1/relu_7x7
I0403 19:47:58.754541 25938 net.cpp:425] conv1/relu_7x7 <- conv1/7x7_s2
I0403 19:47:58.754566 25938 net.cpp:386] conv1/relu_7x7 -> conv1/7x7_s2 (in-place)
I0403 19:47:58.754884 25938 net.cpp:141] Setting up conv1/relu_7x7
I0403 19:47:58.754919 25938 net.cpp:148] Top shape: 24 64 112 112 (19267584)
I0403 19:47:58.754940 25938 net.cpp:156] Memory required for data: 168592416
I0403 19:47:58.754957 25938 layer_factory.hpp:77] Creating layer pool1/3x3_s2
I0403 19:47:58.754992 25938 net.cpp:91] Creating Layer pool1/3x3_s2
I0403 19:47:58.755017 25938 net.cpp:425] pool1/3x3_s2 <- conv1/7x7_s2
I0403 19:47:58.755039 25938 net.cpp:399] pool1/3x3_s2 -> pool1/3x3_s2
I0403 19:47:58.755139 25938 net.cpp:141] Setting up pool1/3x3_s2
I0403 19:47:58.755170 25938 net.cpp:148] Top shape: 24 64 56 56 (4816896)
I0403 19:47:58.755190 25938 net.cpp:156] Memory required for data: 187860000
I0403 19:47:58.755208 25938 layer_factory.hpp:77] Creating layer pool1/norm1
I0403 19:47:58.755244 25938 net.cpp:91] Creating Layer pool1/norm1
I0403 19:47:58.755278 25938 net.cpp:425] pool1/norm1 <- pool1/3x3_s2
I0403 19:47:58.755306 25938 net.cpp:399] pool1/norm1 -> pool1/norm1
I0403 19:47:58.755714 25938 net.cpp:141] Setting up pool1/norm1
I0403 19:47:58.755750 25938 net.cpp:148] Top shape: 24 64 56 56 (4816896)
I0403 19:47:58.755772 25938 net.cpp:156] Memory required for data: 207127584
I0403 19:47:58.755791 25938 layer_factory.hpp:77] Creating layer conv2/3x3_reduce
I0403 19:47:58.755825 25938 net.cpp:91] Creating Layer conv2/3x3_reduce
I0403 19:47:58.755847 25938 net.cpp:425] conv2/3x3_reduce <- pool1/norm1
I0403 19:47:58.755872 25938 net.cpp:399] conv2/3x3_reduce -> conv2/3x3_reduce
I0403 19:47:58.757478 25938 net.cpp:141] Setting up conv2/3x3_reduce
I0403 19:47:58.757515 25938 net.cpp:148] Top shape: 24 64 56 56 (4816896)
I0403 19:47:58.757536 25938 net.cpp:156] Memory required for data: 226395168
I0403 19:47:58.757562 25938 layer_factory.hpp:77] Creating layer conv2/relu_3x3_reduce
I0403 19:47:58.757587 25938 net.cpp:91] Creating Layer conv2/relu_3x3_reduce
I0403 19:47:58.757608 25938 net.cpp:425] conv2/relu_3x3_reduce <- conv2/3x3_reduce
I0403 19:47:58.757632 25938 net.cpp:386] conv2/relu_3x3_reduce -> conv2/3x3_reduce (in-place)
I0403 19:47:58.757978 25938 net.cpp:141] Setting up conv2/relu_3x3_reduce
I0403 19:47:58.758013 25938 net.cpp:148] Top shape: 24 64 56 56 (4816896)
I0403 19:47:58.758033 25938 net.cpp:156] Memory required for data: 245662752
I0403 19:47:58.758054 25938 layer_factory.hpp:77] Creating layer conv2/3x3
I0403 19:47:58.758082 25938 net.cpp:91] Creating Layer conv2/3x3
I0403 19:47:58.758105 25938 net.cpp:425] conv2/3x3 <- conv2/3x3_reduce
I0403 19:47:58.758128 25938 net.cpp:399] conv2/3x3 -> conv2/3x3
I0403 19:47:58.760911 25938 net.cpp:141] Setting up conv2/3x3
I0403 19:47:58.760952 25938 net.cpp:148] Top shape: 24 192 56 56 (14450688)
I0403 19:47:58.760975 25938 net.cpp:156] Memory required for data: 303465504
I0403 19:47:58.761005 25938 layer_factory.hpp:77] Creating layer conv2/relu_3x3
I0403 19:47:58.761034 25938 net.cpp:91] Creating Layer conv2/relu_3x3
I0403 19:47:58.761054 25938 net.cpp:425] conv2/relu_3x3 <- conv2/3x3
I0403 19:47:58.761078 25938 net.cpp:386] conv2/relu_3x3 -> conv2/3x3 (in-place)
I0403 19:47:58.761304 25938 net.cpp:141] Setting up conv2/relu_3x3
I0403 19:47:58.761345 25938 net.cpp:148] Top shape: 24 192 56 56 (14450688)
I0403 19:47:58.761402 25938 net.cpp:156] Memory required for data: 361268256
I0403 19:47:58.761423 25938 layer_factory.hpp:77] Creating layer conv2/norm2
I0403 19:47:58.761447 25938 net.cpp:91] Creating Layer conv2/norm2
I0403 19:47:58.761471 25938 net.cpp:425] conv2/norm2 <- conv2/3x3
I0403 19:47:58.761498 25938 net.cpp:399] conv2/norm2 -> conv2/norm2
I0403 19:47:58.761960 25938 net.cpp:141] Setting up conv2/norm2
I0403 19:47:58.761996 25938 net.cpp:148] Top shape: 24 192 56 56 (14450688)
I0403 19:47:58.762018 25938 net.cpp:156] Memory required for data: 419071008
I0403 19:47:58.762039 25938 layer_factory.hpp:77] Creating layer pool2/3x3_s2
I0403 19:47:58.762063 25938 net.cpp:91] Creating Layer pool2/3x3_s2
I0403 19:47:58.762084 25938 net.cpp:425] pool2/3x3_s2 <- conv2/norm2
I0403 19:47:58.762109 25938 net.cpp:399] pool2/3x3_s2 -> pool2/3x3_s2
I0403 19:47:58.762179 25938 net.cpp:141] Setting up pool2/3x3_s2
I0403 19:47:58.762215 25938 net.cpp:148] Top shape: 24 192 28 28 (3612672)
I0403 19:47:58.762236 25938 net.cpp:156] Memory required for data: 433521696
I0403 19:47:58.762262 25938 layer_factory.hpp:77] Creating layer pool2/3x3_s2_pool2/3x3_s2_0_split
I0403 19:47:58.762290 25938 net.cpp:91] Creating Layer pool2/3x3_s2_pool2/3x3_s2_0_split
I0403 19:47:58.762311 25938 net.cpp:425] pool2/3x3_s2_pool2/3x3_s2_0_split <- pool2/3x3_s2
I0403 19:47:58.762333 25938 net.cpp:399] pool2/3x3_s2_pool2/3x3_s2_0_split -> pool2/3x3_s2_pool2/3x3_s2_0_split_0
I0403 19:47:58.762362 25938 net.cpp:399] pool2/3x3_s2_pool2/3x3_s2_0_split -> pool2/3x3_s2_pool2/3x3_s2_0_split_1
I0403 19:47:58.762390 25938 net.cpp:399] pool2/3x3_s2_pool2/3x3_s2_0_split -> pool2/3x3_s2_pool2/3x3_s2_0_split_2
I0403 19:47:58.762416 25938 net.cpp:399] pool2/3x3_s2_pool2/3x3_s2_0_split -> pool2/3x3_s2_pool2/3x3_s2_0_split_3
I0403 19:47:58.762506 25938 net.cpp:141] Setting up pool2/3x3_s2_pool2/3x3_s2_0_split
I0403 19:47:58.762537 25938 net.cpp:148] Top shape: 24 192 28 28 (3612672)
I0403 19:47:58.762559 25938 net.cpp:148] Top shape: 24 192 28 28 (3612672)
I0403 19:47:58.762579 25938 net.cpp:148] Top shape: 24 192 28 28 (3612672)
I0403 19:47:58.762599 25938 net.cpp:148] Top shape: 24 192 28 28 (3612672)
I0403 19:47:58.762616 25938 net.cpp:156] Memory required for data: 491324448
I0403 19:47:58.762635 25938 layer_factory.hpp:77] Creating layer inception_3a/1x1
I0403 19:47:58.762665 25938 net.cpp:91] Creating Layer inception_3a/1x1
I0403 19:47:58.762692 25938 net.cpp:425] inception_3a/1x1 <- pool2/3x3_s2_pool2/3x3_s2_0_split_0
I0403 19:47:58.762717 25938 net.cpp:399] inception_3a/1x1 -> inception_3a/1x1
I0403 19:47:58.764585 25938 net.cpp:141] Setting up inception_3a/1x1
I0403 19:47:58.764623 25938 net.cpp:148] Top shape: 24 64 28 28 (1204224)
I0403 19:47:58.764644 25938 net.cpp:156] Memory required for data: 496141344
I0403 19:47:58.764668 25938 layer_factory.hpp:77] Creating layer inception_3a/relu_1x1
I0403 19:47:58.764700 25938 net.cpp:91] Creating Layer inception_3a/relu_1x1
I0403 19:47:58.764721 25938 net.cpp:425] inception_3a/relu_1x1 <- inception_3a/1x1
I0403 19:47:58.764746 25938 net.cpp:386] inception_3a/relu_1x1 -> inception_3a/1x1 (in-place)
I0403 19:47:58.764960 25938 net.cpp:141] Setting up inception_3a/relu_1x1
I0403 19:47:58.764992 25938 net.cpp:148] Top shape: 24 64 28 28 (1204224)
I0403 19:47:58.765012 25938 net.cpp:156] Memory required for data: 500958240
I0403 19:47:58.765030 25938 layer_factory.hpp:77] Creating layer inception_3a/3x3_reduce
I0403 19:47:58.765059 25938 net.cpp:91] Creating Layer inception_3a/3x3_reduce
I0403 19:47:58.765084 25938 net.cpp:425] inception_3a/3x3_reduce <- pool2/3x3_s2_pool2/3x3_s2_0_split_1
I0403 19:47:58.765111 25938 net.cpp:399] inception_3a/3x3_reduce -> inception_3a/3x3_reduce
I0403 19:47:58.767102 25938 net.cpp:141] Setting up inception_3a/3x3_reduce
I0403 19:47:58.767139 25938 net.cpp:148] Top shape: 24 96 28 28 (1806336)
I0403 19:47:58.767161 25938 net.cpp:156] Memory required for data: 508183584
I0403 19:47:58.767187 25938 layer_factory.hpp:77] Creating layer inception_3a/relu_3x3_reduce
I0403 19:47:58.767235 25938 net.cpp:91] Creating Layer inception_3a/relu_3x3_reduce
I0403 19:47:58.767268 25938 net.cpp:425] inception_3a/relu_3x3_reduce <- inception_3a/3x3_reduce
I0403 19:47:58.767293 25938 net.cpp:386] inception_3a/relu_3x3_reduce -> inception_3a/3x3_reduce (in-place)
I0403 19:47:58.767524 25938 net.cpp:141] Setting up inception_3a/relu_3x3_reduce
I0403 19:47:58.767557 25938 net.cpp:148] Top shape: 24 96 28 28 (1806336)
I0403 19:47:58.767576 25938 net.cpp:156] Memory required for data: 515408928
I0403 19:47:58.767596 25938 layer_factory.hpp:77] Creating layer inception_3a/3x3
I0403 19:47:58.767626 25938 net.cpp:91] Creating Layer inception_3a/3x3
I0403 19:47:58.767648 25938 net.cpp:425] inception_3a/3x3 <- inception_3a/3x3_reduce
I0403 19:47:58.767674 25938 net.cpp:399] inception_3a/3x3 -> inception_3a/3x3
I0403 19:47:58.769678 25938 net.cpp:141] Setting up inception_3a/3x3
I0403 19:47:58.769716 25938 net.cpp:148] Top shape: 24 128 28 28 (2408448)
I0403 19:47:58.769737 25938 net.cpp:156] Memory required for data: 525042720
I0403 19:47:58.769759 25938 layer_factory.hpp:77] Creating layer inception_3a/relu_3x3
I0403 19:47:58.769788 25938 net.cpp:91] Creating Layer inception_3a/relu_3x3
I0403 19:47:58.769810 25938 net.cpp:425] inception_3a/relu_3x3 <- inception_3a/3x3
I0403 19:47:58.769831 25938 net.cpp:386] inception_3a/relu_3x3 -> inception_3a/3x3 (in-place)
I0403 19:47:58.770158 25938 net.cpp:141] Setting up inception_3a/relu_3x3
I0403 19:47:58.770193 25938 net.cpp:148] Top shape: 24 128 28 28 (2408448)
I0403 19:47:58.770213 25938 net.cpp:156] Memory required for data: 534676512
I0403 19:47:58.770232 25938 layer_factory.hpp:77] Creating layer inception_3a/5x5_reduce
I0403 19:47:58.770267 25938 net.cpp:91] Creating Layer inception_3a/5x5_reduce
I0403 19:47:58.770292 25938 net.cpp:425] inception_3a/5x5_reduce <- pool2/3x3_s2_pool2/3x3_s2_0_split_2
I0403 19:47:58.770319 25938 net.cpp:399] inception_3a/5x5_reduce -> inception_3a/5x5_reduce
I0403 19:47:58.771489 25938 net.cpp:141] Setting up inception_3a/5x5_reduce
I0403 19:47:58.771525 25938 net.cpp:148] Top shape: 24 16 28 28 (301056)
I0403 19:47:58.771546 25938 net.cpp:156] Memory required for data: 535880736
I0403 19:47:58.771569 25938 layer_factory.hpp:77] Creating layer inception_3a/relu_5x5_reduce
I0403 19:47:58.771595 25938 net.cpp:91] Creating Layer inception_3a/relu_5x5_reduce
I0403 19:47:58.771618 25938 net.cpp:425] inception_3a/relu_5x5_reduce <- inception_3a/5x5_reduce
I0403 19:47:58.771641 25938 net.cpp:386] inception_3a/relu_5x5_reduce -> inception_3a/5x5_reduce (in-place)
I0403 19:47:58.771980 25938 net.cpp:141] Setting up inception_3a/relu_5x5_reduce
I0403 19:47:58.772017 25938 net.cpp:148] Top shape: 24 16 28 28 (301056)
I0403 19:47:58.772039 25938 net.cpp:156] Memory required for data: 537084960
I0403 19:47:58.772058 25938 layer_factory.hpp:77] Creating layer inception_3a/5x5
I0403 19:47:58.772084 25938 net.cpp:91] Creating Layer inception_3a/5x5
I0403 19:47:58.772109 25938 net.cpp:425] inception_3a/5x5 <- inception_3a/5x5_reduce
I0403 19:47:58.772133 25938 net.cpp:399] inception_3a/5x5 -> inception_3a/5x5
I0403 19:47:58.773370 25938 net.cpp:141] Setting up inception_3a/5x5
I0403 19:47:58.773407 25938 net.cpp:148] Top shape: 24 32 28 28 (602112)
I0403 19:47:58.773427 25938 net.cpp:156] Memory required for data: 539493408
I0403 19:47:58.773448 25938 layer_factory.hpp:77] Creating layer inception_3a/relu_5x5
I0403 19:47:58.773474 25938 net.cpp:91] Creating Layer inception_3a/relu_5x5
I0403 19:47:58.773496 25938 net.cpp:425] inception_3a/relu_5x5 <- inception_3a/5x5
I0403 19:47:58.773519 25938 net.cpp:386] inception_3a/relu_5x5 -> inception_3a/5x5 (in-place)
I0403 19:47:58.773730 25938 net.cpp:141] Setting up inception_3a/relu_5x5
I0403 19:47:58.773766 25938 net.cpp:148] Top shape: 24 32 28 28 (602112)
I0403 19:47:58.773788 25938 net.cpp:156] Memory required for data: 541901856
I0403 19:47:58.773808 25938 layer_factory.hpp:77] Creating layer inception_3a/pool
I0403 19:47:58.773830 25938 net.cpp:91] Creating Layer inception_3a/pool
I0403 19:47:58.773869 25938 net.cpp:425] inception_3a/pool <- pool2/3x3_s2_pool2/3x3_s2_0_split_3
I0403 19:47:58.773893 25938 net.cpp:399] inception_3a/pool -> inception_3a/pool
I0403 19:47:58.773965 25938 net.cpp:141] Setting up inception_3a/pool
I0403 19:47:58.773998 25938 net.cpp:148] Top shape: 24 192 28 28 (3612672)
I0403 19:47:58.774016 25938 net.cpp:156] Memory required for data: 556352544
I0403 19:47:58.774034 25938 layer_factory.hpp:77] Creating layer inception_3a/pool_proj
I0403 19:47:58.774062 25938 net.cpp:91] Creating Layer inception_3a/pool_proj
I0403 19:47:58.774086 25938 net.cpp:425] inception_3a/pool_proj <- inception_3a/pool
I0403 19:47:58.774116 25938 net.cpp:399] inception_3a/pool_proj -> inception_3a/pool_proj
I0403 19:47:58.775298 25938 net.cpp:141] Setting up inception_3a/pool_proj
I0403 19:47:58.775336 25938 net.cpp:148] Top shape: 24 32 28 28 (602112)
I0403 19:47:58.775355 25938 net.cpp:156] Memory required for data: 558760992
I0403 19:47:58.775382 25938 layer_factory.hpp:77] Creating layer inception_3a/relu_pool_proj
I0403 19:47:58.775411 25938 net.cpp:91] Creating Layer inception_3a/relu_pool_proj
I0403 19:47:58.775434 25938 net.cpp:425] inception_3a/relu_pool_proj <- inception_3a/pool_proj
I0403 19:47:58.775457 25938 net.cpp:386] inception_3a/relu_pool_proj -> inception_3a/pool_proj (in-place)
I0403 19:47:58.775785 25938 net.cpp:141] Setting up inception_3a/relu_pool_proj
I0403 19:47:58.775820 25938 net.cpp:148] Top shape: 24 32 28 28 (602112)
I0403 19:47:58.775840 25938 net.cpp:156] Memory required for data: 561169440
I0403 19:47:58.775859 25938 layer_factory.hpp:77] Creating layer inception_3a/output
I0403 19:47:58.775885 25938 net.cpp:91] Creating Layer inception_3a/output
I0403 19:47:58.775907 25938 net.cpp:425] inception_3a/output <- inception_3a/1x1
I0403 19:47:58.775928 25938 net.cpp:425] inception_3a/output <- inception_3a/3x3
I0403 19:47:58.775949 25938 net.cpp:425] inception_3a/output <- inception_3a/5x5
I0403 19:47:58.775967 25938 net.cpp:425] inception_3a/output <- inception_3a/pool_proj
I0403 19:47:58.775990 25938 net.cpp:399] inception_3a/output -> inception_3a/output
I0403 19:47:58.776052 25938 net.cpp:141] Setting up inception_3a/output
I0403 19:47:58.776084 25938 net.cpp:148] Top shape: 24 256 28 28 (4816896)
I0403 19:47:58.776104 25938 net.cpp:156] Memory required for data: 580437024
I0403 19:47:58.776123 25938 layer_factory.hpp:77] Creating layer inception_3a/output_inception_3a/output_0_split
I0403 19:47:58.776144 25938 net.cpp:91] Creating Layer inception_3a/output_inception_3a/output_0_split
I0403 19:47:58.776165 25938 net.cpp:425] inception_3a/output_inception_3a/output_0_split <- inception_3a/output
I0403 19:47:58.776188 25938 net.cpp:399] inception_3a/output_inception_3a/output_0_split -> inception_3a/output_inception_3a/output_0_split_0
I0403 19:47:58.776214 25938 net.cpp:399] inception_3a/output_inception_3a/output_0_split -> inception_3a/output_inception_3a/output_0_split_1
I0403 19:47:58.776247 25938 net.cpp:399] inception_3a/output_inception_3a/output_0_split -> inception_3a/output_inception_3a/output_0_split_2
I0403 19:47:58.776345 25938 net.cpp:399] inception_3a/output_inception_3a/output_0_split -> inception_3a/output_inception_3a/output_0_split_3
I0403 19:47:58.776443 25938 net.cpp:141] Setting up inception_3a/output_inception_3a/output_0_split
I0403 19:47:58.776474 25938 net.cpp:148] Top shape: 24 256 28 28 (4816896)
I0403 19:47:58.776497 25938 net.cpp:148] Top shape: 24 256 28 28 (4816896)
I0403 19:47:58.776518 25938 net.cpp:148] Top shape: 24 256 28 28 (4816896)
I0403 19:47:58.776537 25938 net.cpp:148] Top shape: 24 256 28 28 (4816896)
I0403 19:47:58.776554 25938 net.cpp:156] Memory required for data: 657507360
I0403 19:47:58.776571 25938 layer_factory.hpp:77] Creating layer inception_3b/1x1
I0403 19:47:58.776602 25938 net.cpp:91] Creating Layer inception_3b/1x1
I0403 19:47:58.776625 25938 net.cpp:425] inception_3b/1x1 <- inception_3a/output_inception_3a/output_0_split_0
I0403 19:47:58.776651 25938 net.cpp:399] inception_3b/1x1 -> inception_3b/1x1
I0403 19:47:58.778018 25938 net.cpp:141] Setting up inception_3b/1x1
I0403 19:47:58.778069 25938 net.cpp:148] Top shape: 24 128 28 28 (2408448)
I0403 19:47:58.778090 25938 net.cpp:156] Memory required for data: 667141152
I0403 19:47:58.778115 25938 layer_factory.hpp:77] Creating layer inception_3b/relu_1x1
I0403 19:47:58.778144 25938 net.cpp:91] Creating Layer inception_3b/relu_1x1
I0403 19:47:58.778168 25938 net.cpp:425] inception_3b/relu_1x1 <- inception_3b/1x1
I0403 19:47:58.778192 25938 net.cpp:386] inception_3b/relu_1x1 -> inception_3b/1x1 (in-place)
I0403 19:47:58.778409 25938 net.cpp:141] Setting up inception_3b/relu_1x1
I0403 19:47:58.778441 25938 net.cpp:148] Top shape: 24 128 28 28 (2408448)
I0403 19:47:58.778461 25938 net.cpp:156] Memory required for data: 676774944
I0403 19:47:58.778480 25938 layer_factory.hpp:77] Creating layer inception_3b/3x3_reduce
I0403 19:47:58.778508 25938 net.cpp:91] Creating Layer inception_3b/3x3_reduce
I0403 19:47:58.778532 25938 net.cpp:425] inception_3b/3x3_reduce <- inception_3a/output_inception_3a/output_0_split_1
I0403 19:47:58.778558 25938 net.cpp:399] inception_3b/3x3_reduce -> inception_3b/3x3_reduce
I0403 19:47:58.779927 25938 net.cpp:141] Setting up inception_3b/3x3_reduce
I0403 19:47:58.779963 25938 net.cpp:148] Top shape: 24 128 28 28 (2408448)
I0403 19:47:58.779983 25938 net.cpp:156] Memory required for data: 686408736
I0403 19:47:58.780007 25938 layer_factory.hpp:77] Creating layer inception_3b/relu_3x3_reduce
I0403 19:47:58.780031 25938 net.cpp:91] Creating Layer inception_3b/relu_3x3_reduce
I0403 19:47:58.780053 25938 net.cpp:425] inception_3b/relu_3x3_reduce <- inception_3b/3x3_reduce
I0403 19:47:58.780077 25938 net.cpp:386] inception_3b/relu_3x3_reduce -> inception_3b/3x3_reduce (in-place)
I0403 19:47:58.780303 25938 net.cpp:141] Setting up inception_3b/relu_3x3_reduce
I0403 19:47:58.780334 25938 net.cpp:148] Top shape: 24 128 28 28 (2408448)
I0403 19:47:58.780354 25938 net.cpp:156] Memory required for data: 696042528
I0403 19:47:58.780374 25938 layer_factory.hpp:77] Creating layer inception_3b/3x3
I0403 19:47:58.780405 25938 net.cpp:91] Creating Layer inception_3b/3x3
I0403 19:47:58.780428 25938 net.cpp:425] inception_3b/3x3 <- inception_3b/3x3_reduce
I0403 19:47:58.780452 25938 net.cpp:399] inception_3b/3x3 -> inception_3b/3x3
I0403 19:47:58.783962 25938 net.cpp:141] Setting up inception_3b/3x3
I0403 19:47:58.784000 25938 net.cpp:148] Top shape: 24 192 28 28 (3612672)
I0403 19:47:58.784023 25938 net.cpp:156] Memory required for data: 710493216
I0403 19:47:58.784047 25938 layer_factory.hpp:77] Creating layer inception_3b/relu_3x3
I0403 19:47:58.784075 25938 net.cpp:91] Creating Layer inception_3b/relu_3x3
I0403 19:47:58.784096 25938 net.cpp:425] inception_3b/relu_3x3 <- inception_3b/3x3
I0403 19:47:58.784119 25938 net.cpp:386] inception_3b/relu_3x3 -> inception_3b/3x3 (in-place)
I0403 19:47:58.784467 25938 net.cpp:141] Setting up inception_3b/relu_3x3
I0403 19:47:58.784507 25938 net.cpp:148] Top shape: 24 192 28 28 (3612672)
I0403 19:47:58.784528 25938 net.cpp:156] Memory required for data: 724943904
I0403 19:47:58.784548 25938 layer_factory.hpp:77] Creating layer inception_3b/5x5_reduce
I0403 19:47:58.784579 25938 net.cpp:91] Creating Layer inception_3b/5x5_reduce
I0403 19:47:58.784602 25938 net.cpp:425] inception_3b/5x5_reduce <- inception_3a/output_inception_3a/output_0_split_2
I0403 19:47:58.784633 25938 net.cpp:399] inception_3b/5x5_reduce -> inception_3b/5x5_reduce
I0403 19:47:58.785831 25938 net.cpp:141] Setting up inception_3b/5x5_reduce
I0403 19:47:58.785871 25938 net.cpp:148] Top shape: 24 32 28 28 (602112)
I0403 19:47:58.785892 25938 net.cpp:156] Memory required for data: 727352352
I0403 19:47:58.785915 25938 layer_factory.hpp:77] Creating layer inception_3b/relu_5x5_reduce
I0403 19:47:58.785941 25938 net.cpp:91] Creating Layer inception_3b/relu_5x5_reduce
I0403 19:47:58.785965 25938 net.cpp:425] inception_3b/relu_5x5_reduce <- inception_3b/5x5_reduce
I0403 19:47:58.785987 25938 net.cpp:386] inception_3b/relu_5x5_reduce -> inception_3b/5x5_reduce (in-place)
I0403 19:47:58.786226 25938 net.cpp:141] Setting up inception_3b/relu_5x5_reduce
I0403 19:47:58.786269 25938 net.cpp:148] Top shape: 24 32 28 28 (602112)
I0403 19:47:58.786293 25938 net.cpp:156] Memory required for data: 729760800
I0403 19:47:58.786314 25938 layer_factory.hpp:77] Creating layer inception_3b/5x5
I0403 19:47:58.786341 25938 net.cpp:91] Creating Layer inception_3b/5x5
I0403 19:47:58.786366 25938 net.cpp:425] inception_3b/5x5 <- inception_3b/5x5_reduce
I0403 19:47:58.786391 25938 net.cpp:399] inception_3b/5x5 -> inception_3b/5x5
I0403 19:47:58.788785 25938 net.cpp:141] Setting up inception_3b/5x5
I0403 19:47:58.788827 25938 net.cpp:148] Top shape: 24 96 28 28 (1806336)
I0403 19:47:58.788848 25938 net.cpp:156] Memory required for data: 736986144
I0403 19:47:58.788872 25938 layer_factory.hpp:77] Creating layer inception_3b/relu_5x5
I0403 19:47:58.788898 25938 net.cpp:91] Creating Layer inception_3b/relu_5x5
I0403 19:47:58.788919 25938 net.cpp:425] inception_3b/relu_5x5 <- inception_3b/5x5
I0403 19:47:58.788945 25938 net.cpp:386] inception_3b/relu_5x5 -> inception_3b/5x5 (in-place)
I0403 19:47:58.789187 25938 net.cpp:141] Setting up inception_3b/relu_5x5
I0403 19:47:58.789224 25938 net.cpp:148] Top shape: 24 96 28 28 (1806336)
I0403 19:47:58.789244 25938 net.cpp:156] Memory required for data: 744211488
I0403 19:47:58.789273 25938 layer_factory.hpp:77] Creating layer inception_3b/pool
I0403 19:47:58.789299 25938 net.cpp:91] Creating Layer inception_3b/pool
I0403 19:47:58.789321 25938 net.cpp:425] inception_3b/pool <- inception_3a/output_inception_3a/output_0_split_3
I0403 19:47:58.789345 25938 net.cpp:399] inception_3b/pool -> inception_3b/pool
I0403 19:47:58.789413 25938 net.cpp:141] Setting up inception_3b/pool
I0403 19:47:58.789445 25938 net.cpp:148] Top shape: 24 256 28 28 (4816896)
I0403 19:47:58.789465 25938 net.cpp:156] Memory required for data: 763479072
I0403 19:47:58.789484 25938 layer_factory.hpp:77] Creating layer inception_3b/pool_proj
I0403 19:47:58.789513 25938 net.cpp:91] Creating Layer inception_3b/pool_proj
I0403 19:47:58.789540 25938 net.cpp:425] inception_3b/pool_proj <- inception_3b/pool
I0403 19:47:58.789566 25938 net.cpp:399] inception_3b/pool_proj -> inception_3b/pool_proj
I0403 19:47:58.790841 25938 net.cpp:141] Setting up inception_3b/pool_proj
I0403 19:47:58.790884 25938 net.cpp:148] Top shape: 24 64 28 28 (1204224)
I0403 19:47:58.790907 25938 net.cpp:156] Memory required for data: 768295968
I0403 19:47:58.790931 25938 layer_factory.hpp:77] Creating layer inception_3b/relu_pool_proj
I0403 19:47:58.790956 25938 net.cpp:91] Creating Layer inception_3b/relu_pool_proj
I0403 19:47:58.790978 25938 net.cpp:425] inception_3b/relu_pool_proj <- inception_3b/pool_proj
I0403 19:47:58.790999 25938 net.cpp:386] inception_3b/relu_pool_proj -> inception_3b/pool_proj (in-place)
I0403 19:47:58.791451 25938 net.cpp:141] Setting up inception_3b/relu_pool_proj
I0403 19:47:58.791489 25938 net.cpp:148] Top shape: 24 64 28 28 (1204224)
I0403 19:47:58.791509 25938 net.cpp:156] Memory required for data: 773112864
I0403 19:47:58.791529 25938 layer_factory.hpp:77] Creating layer inception_3b/output
I0403 19:47:58.791554 25938 net.cpp:91] Creating Layer inception_3b/output
I0403 19:47:58.791577 25938 net.cpp:425] inception_3b/output <- inception_3b/1x1
I0403 19:47:58.791599 25938 net.cpp:425] inception_3b/output <- inception_3b/3x3
I0403 19:47:58.791618 25938 net.cpp:425] inception_3b/output <- inception_3b/5x5
I0403 19:47:58.791638 25938 net.cpp:425] inception_3b/output <- inception_3b/pool_proj
I0403 19:47:58.791661 25938 net.cpp:399] inception_3b/output -> inception_3b/output
I0403 19:47:58.791718 25938 net.cpp:141] Setting up inception_3b/output
I0403 19:47:58.791754 25938 net.cpp:148] Top shape: 24 480 28 28 (9031680)
I0403 19:47:58.791771 25938 net.cpp:156] Memory required for data: 809239584
I0403 19:47:58.791791 25938 layer_factory.hpp:77] Creating layer pool3/3x3_s2
I0403 19:47:58.791813 25938 net.cpp:91] Creating Layer pool3/3x3_s2
I0403 19:47:58.791834 25938 net.cpp:425] pool3/3x3_s2 <- inception_3b/output
I0403 19:47:58.791882 25938 net.cpp:399] pool3/3x3_s2 -> pool3/3x3_s2
I0403 19:47:58.791960 25938 net.cpp:141] Setting up pool3/3x3_s2
I0403 19:47:58.791996 25938 net.cpp:148] Top shape: 24 480 14 14 (2257920)
I0403 19:47:58.792016 25938 net.cpp:156] Memory required for data: 818271264
I0403 19:47:58.792035 25938 layer_factory.hpp:77] Creating layer pool3/3x3_s2_pool3/3x3_s2_0_split
I0403 19:47:58.792057 25938 net.cpp:91] Creating Layer pool3/3x3_s2_pool3/3x3_s2_0_split
I0403 19:47:58.792078 25938 net.cpp:425] pool3/3x3_s2_pool3/3x3_s2_0_split <- pool3/3x3_s2
I0403 19:47:58.792107 25938 net.cpp:399] pool3/3x3_s2_pool3/3x3_s2_0_split -> pool3/3x3_s2_pool3/3x3_s2_0_split_0
I0403 19:47:58.792135 25938 net.cpp:399] pool3/3x3_s2_pool3/3x3_s2_0_split -> pool3/3x3_s2_pool3/3x3_s2_0_split_1
I0403 19:47:58.792161 25938 net.cpp:399] pool3/3x3_s2_pool3/3x3_s2_0_split -> pool3/3x3_s2_pool3/3x3_s2_0_split_2
I0403 19:47:58.792187 25938 net.cpp:399] pool3/3x3_s2_pool3/3x3_s2_0_split -> pool3/3x3_s2_pool3/3x3_s2_0_split_3
I0403 19:47:58.792287 25938 net.cpp:141] Setting up pool3/3x3_s2_pool3/3x3_s2_0_split
I0403 19:47:58.792325 25938 net.cpp:148] Top shape: 24 480 14 14 (2257920)
I0403 19:47:58.792349 25938 net.cpp:148] Top shape: 24 480 14 14 (2257920)
I0403 19:47:58.792371 25938 net.cpp:148] Top shape: 24 480 14 14 (2257920)
I0403 19:47:58.792388 25938 net.cpp:148] Top shape: 24 480 14 14 (2257920)
I0403 19:47:58.792407 25938 net.cpp:156] Memory required for data: 854397984
I0403 19:47:58.792425 25938 layer_factory.hpp:77] Creating layer inception_4a/1x1
I0403 19:47:58.792455 25938 net.cpp:91] Creating Layer inception_4a/1x1
I0403 19:47:58.792481 25938 net.cpp:425] inception_4a/1x1 <- pool3/3x3_s2_pool3/3x3_s2_0_split_0
I0403 19:47:58.792506 25938 net.cpp:399] inception_4a/1x1 -> inception_4a/1x1
I0403 19:47:58.794423 25938 net.cpp:141] Setting up inception_4a/1x1
I0403 19:47:58.794466 25938 net.cpp:148] Top shape: 24 192 14 14 (903168)
I0403 19:47:58.794492 25938 net.cpp:156] Memory required for data: 858010656
I0403 19:47:58.794514 25938 layer_factory.hpp:77] Creating layer inception_4a/relu_1x1
I0403 19:47:58.794539 25938 net.cpp:91] Creating Layer inception_4a/relu_1x1
I0403 19:47:58.794562 25938 net.cpp:425] inception_4a/relu_1x1 <- inception_4a/1x1
I0403 19:47:58.794586 25938 net.cpp:386] inception_4a/relu_1x1 -> inception_4a/1x1 (in-place)
I0403 19:47:58.794805 25938 net.cpp:141] Setting up inception_4a/relu_1x1
I0403 19:47:58.794841 25938 net.cpp:148] Top shape: 24 192 14 14 (903168)
I0403 19:47:58.794860 25938 net.cpp:156] Memory required for data: 861623328
I0403 19:47:58.794880 25938 layer_factory.hpp:77] Creating layer inception_4a/3x3_reduce
I0403 19:47:58.794910 25938 net.cpp:91] Creating Layer inception_4a/3x3_reduce
I0403 19:47:58.794934 25938 net.cpp:425] inception_4a/3x3_reduce <- pool3/3x3_s2_pool3/3x3_s2_0_split_1
I0403 19:47:58.794961 25938 net.cpp:399] inception_4a/3x3_reduce -> inception_4a/3x3_reduce
I0403 19:47:58.796517 25938 net.cpp:141] Setting up inception_4a/3x3_reduce
I0403 19:47:58.796556 25938 net.cpp:148] Top shape: 24 96 14 14 (451584)
I0403 19:47:58.796579 25938 net.cpp:156] Memory required for data: 863429664
I0403 19:47:58.796612 25938 layer_factory.hpp:77] Creating layer inception_4a/relu_3x3_reduce
I0403 19:47:58.796639 25938 net.cpp:91] Creating Layer inception_4a/relu_3x3_reduce
I0403 19:47:58.796663 25938 net.cpp:425] inception_4a/relu_3x3_reduce <- inception_4a/3x3_reduce
I0403 19:47:58.796684 25938 net.cpp:386] inception_4a/relu_3x3_reduce -> inception_4a/3x3_reduce (in-place)
I0403 19:47:58.796905 25938 net.cpp:141] Setting up inception_4a/relu_3x3_reduce
I0403 19:47:58.796938 25938 net.cpp:148] Top shape: 24 96 14 14 (451584)
I0403 19:47:58.796958 25938 net.cpp:156] Memory required for data: 865236000
I0403 19:47:58.796978 25938 layer_factory.hpp:77] Creating layer inception_4a/3x3
I0403 19:47:58.797006 25938 net.cpp:91] Creating Layer inception_4a/3x3
I0403 19:47:58.797030 25938 net.cpp:425] inception_4a/3x3 <- inception_4a/3x3_reduce
I0403 19:47:58.797057 25938 net.cpp:399] inception_4a/3x3 -> inception_4a/3x3
I0403 19:47:58.800318 25938 net.cpp:141] Setting up inception_4a/3x3
I0403 19:47:58.800357 25938 net.cpp:148] Top shape: 24 208 14 14 (978432)
I0403 19:47:58.800380 25938 net.cpp:156] Memory required for data: 869149728
I0403 19:47:58.800405 25938 layer_factory.hpp:77] Creating layer inception_4a/relu_3x3
I0403 19:47:58.800429 25938 net.cpp:91] Creating Layer inception_4a/relu_3x3
I0403 19:47:58.800451 25938 net.cpp:425] inception_4a/relu_3x3 <- inception_4a/3x3
I0403 19:47:58.800475 25938 net.cpp:386] inception_4a/relu_3x3 -> inception_4a/3x3 (in-place)
I0403 19:47:58.800814 25938 net.cpp:141] Setting up inception_4a/relu_3x3
I0403 19:47:58.800849 25938 net.cpp:148] Top shape: 24 208 14 14 (978432)
I0403 19:47:58.800869 25938 net.cpp:156] Memory required for data: 873063456
I0403 19:47:58.800889 25938 layer_factory.hpp:77] Creating layer inception_4a/5x5_reduce
I0403 19:47:58.800918 25938 net.cpp:91] Creating Layer inception_4a/5x5_reduce
I0403 19:47:58.800942 25938 net.cpp:425] inception_4a/5x5_reduce <- pool3/3x3_s2_pool3/3x3_s2_0_split_2
I0403 19:47:58.800971 25938 net.cpp:399] inception_4a/5x5_reduce -> inception_4a/5x5_reduce
I0403 19:47:58.802232 25938 net.cpp:141] Setting up inception_4a/5x5_reduce
I0403 19:47:58.802275 25938 net.cpp:148] Top shape: 24 16 14 14 (75264)
I0403 19:47:58.802300 25938 net.cpp:156] Memory required for data: 873364512
I0403 19:47:58.802325 25938 layer_factory.hpp:77] Creating layer inception_4a/relu_5x5_reduce
I0403 19:47:58.802353 25938 net.cpp:91] Creating Layer inception_4a/relu_5x5_reduce
I0403 19:47:58.802377 25938 net.cpp:425] inception_4a/relu_5x5_reduce <- inception_4a/5x5_reduce
I0403 19:47:58.802400 25938 net.cpp:386] inception_4a/relu_5x5_reduce -> inception_4a/5x5_reduce (in-place)
I0403 19:47:58.802623 25938 net.cpp:141] Setting up inception_4a/relu_5x5_reduce
I0403 19:47:58.802662 25938 net.cpp:148] Top shape: 24 16 14 14 (75264)
I0403 19:47:58.802683 25938 net.cpp:156] Memory required for data: 873665568
I0403 19:47:58.802701 25938 layer_factory.hpp:77] Creating layer inception_4a/5x5
I0403 19:47:58.802729 25938 net.cpp:91] Creating Layer inception_4a/5x5
I0403 19:47:58.802752 25938 net.cpp:425] inception_4a/5x5 <- inception_4a/5x5_reduce
I0403 19:47:58.802777 25938 net.cpp:399] inception_4a/5x5 -> inception_4a/5x5
I0403 19:47:58.804112 25938 net.cpp:141] Setting up inception_4a/5x5
I0403 19:47:58.804149 25938 net.cpp:148] Top shape: 24 48 14 14 (225792)
I0403 19:47:58.804168 25938 net.cpp:156] Memory required for data: 874568736
I0403 19:47:58.804190 25938 layer_factory.hpp:77] Creating layer inception_4a/relu_5x5
I0403 19:47:58.804219 25938 net.cpp:91] Creating Layer inception_4a/relu_5x5
I0403 19:47:58.804241 25938 net.cpp:425] inception_4a/relu_5x5 <- inception_4a/5x5
I0403 19:47:58.804285 25938 net.cpp:386] inception_4a/relu_5x5 -> inception_4a/5x5 (in-place)
I0403 19:47:58.804513 25938 net.cpp:141] Setting up inception_4a/relu_5x5
I0403 19:47:58.804548 25938 net.cpp:148] Top shape: 24 48 14 14 (225792)
I0403 19:47:58.804566 25938 net.cpp:156] Memory required for data: 875471904
I0403 19:47:58.804584 25938 layer_factory.hpp:77] Creating layer inception_4a/pool
I0403 19:47:58.804607 25938 net.cpp:91] Creating Layer inception_4a/pool
I0403 19:47:58.804630 25938 net.cpp:425] inception_4a/pool <- pool3/3x3_s2_pool3/3x3_s2_0_split_3
I0403 19:47:58.804656 25938 net.cpp:399] inception_4a/pool -> inception_4a/pool
I0403 19:47:58.804739 25938 net.cpp:141] Setting up inception_4a/pool
I0403 19:47:58.804769 25938 net.cpp:148] Top shape: 24 480 14 14 (2257920)
I0403 19:47:58.804788 25938 net.cpp:156] Memory required for data: 884503584
I0403 19:47:58.804807 25938 layer_factory.hpp:77] Creating layer inception_4a/pool_proj
I0403 19:47:58.804836 25938 net.cpp:91] Creating Layer inception_4a/pool_proj
I0403 19:47:58.804860 25938 net.cpp:425] inception_4a/pool_proj <- inception_4a/pool
I0403 19:47:58.804884 25938 net.cpp:399] inception_4a/pool_proj -> inception_4a/pool_proj
I0403 19:47:58.806311 25938 net.cpp:141] Setting up inception_4a/pool_proj
I0403 19:47:58.806355 25938 net.cpp:148] Top shape: 24 64 14 14 (301056)
I0403 19:47:58.806393 25938 net.cpp:156] Memory required for data: 885707808
I0403 19:47:58.806419 25938 layer_factory.hpp:77] Creating layer inception_4a/relu_pool_proj
I0403 19:47:58.806444 25938 net.cpp:91] Creating Layer inception_4a/relu_pool_proj
I0403 19:47:58.806465 25938 net.cpp:425] inception_4a/relu_pool_proj <- inception_4a/pool_proj
I0403 19:47:58.806491 25938 net.cpp:386] inception_4a/relu_pool_proj -> inception_4a/pool_proj (in-place)
I0403 19:47:58.806834 25938 net.cpp:141] Setting up inception_4a/relu_pool_proj
I0403 19:47:58.806872 25938 net.cpp:148] Top shape: 24 64 14 14 (301056)
I0403 19:47:58.806895 25938 net.cpp:156] Memory required for data: 886912032
I0403 19:47:58.806913 25938 layer_factory.hpp:77] Creating layer inception_4a/output
I0403 19:47:58.806936 25938 net.cpp:91] Creating Layer inception_4a/output
I0403 19:47:58.806957 25938 net.cpp:425] inception_4a/output <- inception_4a/1x1
I0403 19:47:58.806977 25938 net.cpp:425] inception_4a/output <- inception_4a/3x3
I0403 19:47:58.806998 25938 net.cpp:425] inception_4a/output <- inception_4a/5x5
I0403 19:47:58.807018 25938 net.cpp:425] inception_4a/output <- inception_4a/pool_proj
I0403 19:47:58.807044 25938 net.cpp:399] inception_4a/output -> inception_4a/output
I0403 19:47:58.807098 25938 net.cpp:141] Setting up inception_4a/output
I0403 19:47:58.807131 25938 net.cpp:148] Top shape: 24 512 14 14 (2408448)
I0403 19:47:58.807149 25938 net.cpp:156] Memory required for data: 896545824
I0403 19:47:58.807168 25938 layer_factory.hpp:77] Creating layer inception_4a/output_inception_4a/output_0_split
I0403 19:47:58.807191 25938 net.cpp:91] Creating Layer inception_4a/output_inception_4a/output_0_split
I0403 19:47:58.807214 25938 net.cpp:425] inception_4a/output_inception_4a/output_0_split <- inception_4a/output
I0403 19:47:58.807238 25938 net.cpp:399] inception_4a/output_inception_4a/output_0_split -> inception_4a/output_inception_4a/output_0_split_0
I0403 19:47:58.807271 25938 net.cpp:399] inception_4a/output_inception_4a/output_0_split -> inception_4a/output_inception_4a/output_0_split_1
I0403 19:47:58.807303 25938 net.cpp:399] inception_4a/output_inception_4a/output_0_split -> inception_4a/output_inception_4a/output_0_split_2
I0403 19:47:58.807330 25938 net.cpp:399] inception_4a/output_inception_4a/output_0_split -> inception_4a/output_inception_4a/output_0_split_3
I0403 19:47:58.807356 25938 net.cpp:399] inception_4a/output_inception_4a/output_0_split -> inception_4a/output_inception_4a/output_0_split_4
I0403 19:47:58.807472 25938 net.cpp:141] Setting up inception_4a/output_inception_4a/output_0_split
I0403 19:47:58.807505 25938 net.cpp:148] Top shape: 24 512 14 14 (2408448)
I0403 19:47:58.807528 25938 net.cpp:148] Top shape: 24 512 14 14 (2408448)
I0403 19:47:58.807546 25938 net.cpp:148] Top shape: 24 512 14 14 (2408448)
I0403 19:47:58.807565 25938 net.cpp:148] Top shape: 24 512 14 14 (2408448)
I0403 19:47:58.807584 25938 net.cpp:148] Top shape: 24 512 14 14 (2408448)
I0403 19:47:58.807600 25938 net.cpp:156] Memory required for data: 944714784
I0403 19:47:58.807620 25938 layer_factory.hpp:77] Creating layer loss1/ave_pool
I0403 19:47:58.807644 25938 net.cpp:91] Creating Layer loss1/ave_pool
I0403 19:47:58.807667 25938 net.cpp:425] loss1/ave_pool <- inception_4a/output_inception_4a/output_0_split_0
I0403 19:47:58.807689 25938 net.cpp:399] loss1/ave_pool -> loss1/ave_pool
I0403 19:47:58.807948 25938 net.cpp:141] Setting up loss1/ave_pool
I0403 19:47:58.807986 25938 net.cpp:148] Top shape: 24 512 4 4 (196608)
I0403 19:47:58.808007 25938 net.cpp:156] Memory required for data: 945501216
I0403 19:47:58.808027 25938 layer_factory.hpp:77] Creating layer loss1/conv
I0403 19:47:58.808055 25938 net.cpp:91] Creating Layer loss1/conv
I0403 19:47:58.808079 25938 net.cpp:425] loss1/conv <- loss1/ave_pool
I0403 19:47:58.808101 25938 net.cpp:399] loss1/conv -> loss1/conv
I0403 19:47:58.809818 25938 net.cpp:141] Setting up loss1/conv
I0403 19:47:58.809855 25938 net.cpp:148] Top shape: 24 128 4 4 (49152)
I0403 19:47:58.809895 25938 net.cpp:156] Memory required for data: 945697824
I0403 19:47:58.809919 25938 layer_factory.hpp:77] Creating layer loss1/relu_conv
I0403 19:47:58.809944 25938 net.cpp:91] Creating Layer loss1/relu_conv
I0403 19:47:58.809969 25938 net.cpp:425] loss1/relu_conv <- loss1/conv
I0403 19:47:58.809991 25938 net.cpp:386] loss1/relu_conv -> loss1/conv (in-place)
I0403 19:47:58.810341 25938 net.cpp:141] Setting up loss1/relu_conv
I0403 19:47:58.810377 25938 net.cpp:148] Top shape: 24 128 4 4 (49152)
I0403 19:47:58.810397 25938 net.cpp:156] Memory required for data: 945894432
I0403 19:47:58.810416 25938 layer_factory.hpp:77] Creating layer loss1/fc
I0403 19:47:58.810446 25938 net.cpp:91] Creating Layer loss1/fc
I0403 19:47:58.810469 25938 net.cpp:425] loss1/fc <- loss1/conv
I0403 19:47:58.810494 25938 net.cpp:399] loss1/fc -> loss1/fc
I0403 19:47:58.832597 25938 net.cpp:141] Setting up loss1/fc
I0403 19:47:58.832645 25938 net.cpp:148] Top shape: 24 1024 (24576)
I0403 19:47:58.832666 25938 net.cpp:156] Memory required for data: 945992736
I0403 19:47:58.832692 25938 layer_factory.hpp:77] Creating layer loss1/relu_fc
I0403 19:47:58.832717 25938 net.cpp:91] Creating Layer loss1/relu_fc
I0403 19:47:58.832741 25938 net.cpp:425] loss1/relu_fc <- loss1/fc
I0403 19:47:58.832763 25938 net.cpp:386] loss1/relu_fc -> loss1/fc (in-place)
I0403 19:47:58.832994 25938 net.cpp:141] Setting up loss1/relu_fc
I0403 19:47:58.833030 25938 net.cpp:148] Top shape: 24 1024 (24576)
I0403 19:47:58.833050 25938 net.cpp:156] Memory required for data: 946091040
I0403 19:47:58.833070 25938 layer_factory.hpp:77] Creating layer loss1/drop_fc
I0403 19:47:58.833103 25938 net.cpp:91] Creating Layer loss1/drop_fc
I0403 19:47:58.833127 25938 net.cpp:425] loss1/drop_fc <- loss1/fc
I0403 19:47:58.833153 25938 net.cpp:386] loss1/drop_fc -> loss1/fc (in-place)
I0403 19:47:58.833225 25938 net.cpp:141] Setting up loss1/drop_fc
I0403 19:47:58.833266 25938 net.cpp:148] Top shape: 24 1024 (24576)
I0403 19:47:58.833293 25938 net.cpp:156] Memory required for data: 946189344
I0403 19:47:58.833313 25938 layer_factory.hpp:77] Creating layer loss1/classifier_plantvillage
I0403 19:47:58.833336 25938 net.cpp:91] Creating Layer loss1/classifier_plantvillage
I0403 19:47:58.833359 25938 net.cpp:425] loss1/classifier_plantvillage <- loss1/fc
I0403 19:47:58.833385 25938 net.cpp:399] loss1/classifier_plantvillage -> loss1/classifier_plantvillage
I0403 19:47:58.834508 25938 net.cpp:141] Setting up loss1/classifier_plantvillage
I0403 19:47:58.834549 25938 net.cpp:148] Top shape: 24 38 (912)
I0403 19:47:58.834569 25938 net.cpp:156] Memory required for data: 946192992
I0403 19:47:58.834591 25938 layer_factory.hpp:77] Creating layer loss1/classifier_plantvillage_loss1/classifier_plantvillage_0_split
I0403 19:47:58.834615 25938 net.cpp:91] Creating Layer loss1/classifier_plantvillage_loss1/classifier_plantvillage_0_split
I0403 19:47:58.834637 25938 net.cpp:425] loss1/classifier_plantvillage_loss1/classifier_plantvillage_0_split <- loss1/classifier_plantvillage
I0403 19:47:58.834663 25938 net.cpp:399] loss1/classifier_plantvillage_loss1/classifier_plantvillage_0_split -> loss1/classifier_plantvillage_loss1/classifier_plantvillage_0_split_0
I0403 19:47:58.834692 25938 net.cpp:399] loss1/classifier_plantvillage_loss1/classifier_plantvillage_0_split -> loss1/classifier_plantvillage_loss1/classifier_plantvillage_0_split_1
I0403 19:47:58.834720 25938 net.cpp:399] loss1/classifier_plantvillage_loss1/classifier_plantvillage_0_split -> loss1/classifier_plantvillage_loss1/classifier_plantvillage_0_split_2
I0403 19:47:58.834807 25938 net.cpp:141] Setting up loss1/classifier_plantvillage_loss1/classifier_plantvillage_0_split
I0403 19:47:58.834841 25938 net.cpp:148] Top shape: 24 38 (912)
I0403 19:47:58.834862 25938 net.cpp:148] Top shape: 24 38 (912)
I0403 19:47:58.834882 25938 net.cpp:148] Top shape: 24 38 (912)
I0403 19:47:58.834898 25938 net.cpp:156] Memory required for data: 946203936
I0403 19:47:58.834914 25938 layer_factory.hpp:77] Creating layer inception_4b/1x1
I0403 19:47:58.834945 25938 net.cpp:91] Creating Layer inception_4b/1x1
I0403 19:47:58.834987 25938 net.cpp:425] inception_4b/1x1 <- inception_4a/output_inception_4a/output_0_split_1
I0403 19:47:58.835016 25938 net.cpp:399] inception_4b/1x1 -> inception_4b/1x1
I0403 19:47:58.837009 25938 net.cpp:141] Setting up inception_4b/1x1
I0403 19:47:58.837049 25938 net.cpp:148] Top shape: 24 160 14 14 (752640)
I0403 19:47:58.837069 25938 net.cpp:156] Memory required for data: 949214496
I0403 19:47:58.837090 25938 layer_factory.hpp:77] Creating layer inception_4b/relu_1x1
I0403 19:47:58.837118 25938 net.cpp:91] Creating Layer inception_4b/relu_1x1
I0403 19:47:58.837142 25938 net.cpp:425] inception_4b/relu_1x1 <- inception_4b/1x1
I0403 19:47:58.837167 25938 net.cpp:386] inception_4b/relu_1x1 -> inception_4b/1x1 (in-place)
I0403 19:47:58.837396 25938 net.cpp:141] Setting up inception_4b/relu_1x1
I0403 19:47:58.837435 25938 net.cpp:148] Top shape: 24 160 14 14 (752640)
I0403 19:47:58.837456 25938 net.cpp:156] Memory required for data: 952225056
I0403 19:47:58.837476 25938 layer_factory.hpp:77] Creating layer inception_4b/3x3_reduce
I0403 19:47:58.837502 25938 net.cpp:91] Creating Layer inception_4b/3x3_reduce
I0403 19:47:58.837527 25938 net.cpp:425] inception_4b/3x3_reduce <- inception_4a/output_inception_4a/output_0_split_2
I0403 19:47:58.837556 25938 net.cpp:399] inception_4b/3x3_reduce -> inception_4b/3x3_reduce
I0403 19:47:58.839213 25938 net.cpp:141] Setting up inception_4b/3x3_reduce
I0403 19:47:58.839253 25938 net.cpp:148] Top shape: 24 112 14 14 (526848)
I0403 19:47:58.839282 25938 net.cpp:156] Memory required for data: 954332448
I0403 19:47:58.839306 25938 layer_factory.hpp:77] Creating layer inception_4b/relu_3x3_reduce
I0403 19:47:58.839337 25938 net.cpp:91] Creating Layer inception_4b/relu_3x3_reduce
I0403 19:47:58.839360 25938 net.cpp:425] inception_4b/relu_3x3_reduce <- inception_4b/3x3_reduce
I0403 19:47:58.839383 25938 net.cpp:386] inception_4b/relu_3x3_reduce -> inception_4b/3x3_reduce (in-place)
I0403 19:47:58.839725 25938 net.cpp:141] Setting up inception_4b/relu_3x3_reduce
I0403 19:47:58.839761 25938 net.cpp:148] Top shape: 24 112 14 14 (526848)
I0403 19:47:58.839781 25938 net.cpp:156] Memory required for data: 956439840
I0403 19:47:58.839802 25938 layer_factory.hpp:77] Creating layer inception_4b/3x3
I0403 19:47:58.839830 25938 net.cpp:91] Creating Layer inception_4b/3x3
I0403 19:47:58.839854 25938 net.cpp:425] inception_4b/3x3 <- inception_4b/3x3_reduce
I0403 19:47:58.839880 25938 net.cpp:399] inception_4b/3x3 -> inception_4b/3x3
I0403 19:47:58.843516 25938 net.cpp:141] Setting up inception_4b/3x3
I0403 19:47:58.843559 25938 net.cpp:148] Top shape: 24 224 14 14 (1053696)
I0403 19:47:58.843580 25938 net.cpp:156] Memory required for data: 960654624
I0403 19:47:58.843603 25938 layer_factory.hpp:77] Creating layer inception_4b/relu_3x3
I0403 19:47:58.843628 25938 net.cpp:91] Creating Layer inception_4b/relu_3x3
I0403 19:47:58.843649 25938 net.cpp:425] inception_4b/relu_3x3 <- inception_4b/3x3
I0403 19:47:58.843674 25938 net.cpp:386] inception_4b/relu_3x3 -> inception_4b/3x3 (in-place)
I0403 19:47:58.843904 25938 net.cpp:141] Setting up inception_4b/relu_3x3
I0403 19:47:58.843940 25938 net.cpp:148] Top shape: 24 224 14 14 (1053696)
I0403 19:47:58.843961 25938 net.cpp:156] Memory required for data: 964869408
I0403 19:47:58.843981 25938 layer_factory.hpp:77] Creating layer inception_4b/5x5_reduce
I0403 19:47:58.844009 25938 net.cpp:91] Creating Layer inception_4b/5x5_reduce
I0403 19:47:58.844034 25938 net.cpp:425] inception_4b/5x5_reduce <- inception_4a/output_inception_4a/output_0_split_3
I0403 19:47:58.844063 25938 net.cpp:399] inception_4b/5x5_reduce -> inception_4b/5x5_reduce
I0403 19:47:58.845414 25938 net.cpp:141] Setting up inception_4b/5x5_reduce
I0403 19:47:58.845451 25938 net.cpp:148] Top shape: 24 24 14 14 (112896)
I0403 19:47:58.845473 25938 net.cpp:156] Memory required for data: 965320992
I0403 19:47:58.845497 25938 layer_factory.hpp:77] Creating layer inception_4b/relu_5x5_reduce
I0403 19:47:58.845525 25938 net.cpp:91] Creating Layer inception_4b/relu_5x5_reduce
I0403 19:47:58.845566 25938 net.cpp:425] inception_4b/relu_5x5_reduce <- inception_4b/5x5_reduce
I0403 19:47:58.845592 25938 net.cpp:386] inception_4b/relu_5x5_reduce -> inception_4b/5x5_reduce (in-place)
I0403 19:47:58.845824 25938 net.cpp:141] Setting up inception_4b/relu_5x5_reduce
I0403 19:47:58.845860 25938 net.cpp:148] Top shape: 24 24 14 14 (112896)
I0403 19:47:58.845883 25938 net.cpp:156] Memory required for data: 965772576
I0403 19:47:58.845902 25938 layer_factory.hpp:77] Creating layer inception_4b/5x5
I0403 19:47:58.845932 25938 net.cpp:91] Creating Layer inception_4b/5x5
I0403 19:47:58.845957 25938 net.cpp:425] inception_4b/5x5 <- inception_4b/5x5_reduce
I0403 19:47:58.845981 25938 net.cpp:399] inception_4b/5x5 -> inception_4b/5x5
I0403 19:47:58.847502 25938 net.cpp:141] Setting up inception_4b/5x5
I0403 19:47:58.847539 25938 net.cpp:148] Top shape: 24 64 14 14 (301056)
I0403 19:47:58.847558 25938 net.cpp:156] Memory required for data: 966976800
I0403 19:47:58.847581 25938 layer_factory.hpp:77] Creating layer inception_4b/relu_5x5
I0403 19:47:58.847607 25938 net.cpp:91] Creating Layer inception_4b/relu_5x5
I0403 19:47:58.847632 25938 net.cpp:425] inception_4b/relu_5x5 <- inception_4b/5x5
I0403 19:47:58.847656 25938 net.cpp:386] inception_4b/relu_5x5 -> inception_4b/5x5 (in-place)
I0403 19:47:58.848006 25938 net.cpp:141] Setting up inception_4b/relu_5x5
I0403 19:47:58.848042 25938 net.cpp:148] Top shape: 24 64 14 14 (301056)
I0403 19:47:58.848062 25938 net.cpp:156] Memory required for data: 968181024
I0403 19:47:58.848081 25938 layer_factory.hpp:77] Creating layer inception_4b/pool
I0403 19:47:58.848104 25938 net.cpp:91] Creating Layer inception_4b/pool
I0403 19:47:58.848127 25938 net.cpp:425] inception_4b/pool <- inception_4a/output_inception_4a/output_0_split_4
I0403 19:47:58.848156 25938 net.cpp:399] inception_4b/pool -> inception_4b/pool
I0403 19:47:58.848240 25938 net.cpp:141] Setting up inception_4b/pool
I0403 19:47:58.848283 25938 net.cpp:148] Top shape: 24 512 14 14 (2408448)
I0403 19:47:58.848304 25938 net.cpp:156] Memory required for data: 977814816
I0403 19:47:58.848323 25938 layer_factory.hpp:77] Creating layer inception_4b/pool_proj
I0403 19:47:58.848351 25938 net.cpp:91] Creating Layer inception_4b/pool_proj
I0403 19:47:58.848376 25938 net.cpp:425] inception_4b/pool_proj <- inception_4b/pool
I0403 19:47:58.848404 25938 net.cpp:399] inception_4b/pool_proj -> inception_4b/pool_proj
I0403 19:47:58.849884 25938 net.cpp:141] Setting up inception_4b/pool_proj
I0403 19:47:58.849923 25938 net.cpp:148] Top shape: 24 64 14 14 (301056)
I0403 19:47:58.849946 25938 net.cpp:156] Memory required for data: 979019040
I0403 19:47:58.849968 25938 layer_factory.hpp:77] Creating layer inception_4b/relu_pool_proj
I0403 19:47:58.849997 25938 net.cpp:91] Creating Layer inception_4b/relu_pool_proj
I0403 19:47:58.850020 25938 net.cpp:425] inception_4b/relu_pool_proj <- inception_4b/pool_proj
I0403 19:47:58.850042 25938 net.cpp:386] inception_4b/relu_pool_proj -> inception_4b/pool_proj (in-place)
I0403 19:47:58.850275 25938 net.cpp:141] Setting up inception_4b/relu_pool_proj
I0403 19:47:58.850312 25938 net.cpp:148] Top shape: 24 64 14 14 (301056)
I0403 19:47:58.850333 25938 net.cpp:156] Memory required for data: 980223264
I0403 19:47:58.850353 25938 layer_factory.hpp:77] Creating layer inception_4b/output
I0403 19:47:58.850375 25938 net.cpp:91] Creating Layer inception_4b/output
I0403 19:47:58.850396 25938 net.cpp:425] inception_4b/output <- inception_4b/1x1
I0403 19:47:58.850419 25938 net.cpp:425] inception_4b/output <- inception_4b/3x3
I0403 19:47:58.850440 25938 net.cpp:425] inception_4b/output <- inception_4b/5x5
I0403 19:47:58.850460 25938 net.cpp:425] inception_4b/output <- inception_4b/pool_proj
I0403 19:47:58.850482 25938 net.cpp:399] inception_4b/output -> inception_4b/output
I0403 19:47:58.850543 25938 net.cpp:141] Setting up inception_4b/output
I0403 19:47:58.850575 25938 net.cpp:148] Top shape: 24 512 14 14 (2408448)
I0403 19:47:58.850596 25938 net.cpp:156] Memory required for data: 989857056
I0403 19:47:58.850635 25938 layer_factory.hpp:77] Creating layer inception_4b/output_inception_4b/output_0_split
I0403 19:47:58.850661 25938 net.cpp:91] Creating Layer inception_4b/output_inception_4b/output_0_split
I0403 19:47:58.850683 25938 net.cpp:425] inception_4b/output_inception_4b/output_0_split <- inception_4b/output
I0403 19:47:58.850706 25938 net.cpp:399] inception_4b/output_inception_4b/output_0_split -> inception_4b/output_inception_4b/output_0_split_0
I0403 19:47:58.850733 25938 net.cpp:399] inception_4b/output_inception_4b/output_0_split -> inception_4b/output_inception_4b/output_0_split_1
I0403 19:47:58.850761 25938 net.cpp:399] inception_4b/output_inception_4b/output_0_split -> inception_4b/output_inception_4b/output_0_split_2
I0403 19:47:58.850787 25938 net.cpp:399] inception_4b/output_inception_4b/output_0_split -> inception_4b/output_inception_4b/output_0_split_3
I0403 19:47:58.850893 25938 net.cpp:141] Setting up inception_4b/output_inception_4b/output_0_split
I0403 19:47:58.850925 25938 net.cpp:148] Top shape: 24 512 14 14 (2408448)
I0403 19:47:58.850947 25938 net.cpp:148] Top shape: 24 512 14 14 (2408448)
I0403 19:47:58.850967 25938 net.cpp:148] Top shape: 24 512 14 14 (2408448)
I0403 19:47:58.850986 25938 net.cpp:148] Top shape: 24 512 14 14 (2408448)
I0403 19:47:58.851003 25938 net.cpp:156] Memory required for data: 1028392224
I0403 19:47:58.851022 25938 layer_factory.hpp:77] Creating layer inception_4c/1x1
I0403 19:47:58.851050 25938 net.cpp:91] Creating Layer inception_4c/1x1
I0403 19:47:58.851073 25938 net.cpp:425] inception_4c/1x1 <- inception_4b/output_inception_4b/output_0_split_0
I0403 19:47:58.851100 25938 net.cpp:399] inception_4c/1x1 -> inception_4c/1x1
I0403 19:47:58.852869 25938 net.cpp:141] Setting up inception_4c/1x1
I0403 19:47:58.852913 25938 net.cpp:148] Top shape: 24 128 14 14 (602112)
I0403 19:47:58.852936 25938 net.cpp:156] Memory required for data: 1030800672
I0403 19:47:58.852959 25938 layer_factory.hpp:77] Creating layer inception_4c/relu_1x1
I0403 19:47:58.852985 25938 net.cpp:91] Creating Layer inception_4c/relu_1x1
I0403 19:47:58.853008 25938 net.cpp:425] inception_4c/relu_1x1 <- inception_4c/1x1
I0403 19:47:58.853030 25938 net.cpp:386] inception_4c/relu_1x1 -> inception_4c/1x1 (in-place)
I0403 19:47:58.853266 25938 net.cpp:141] Setting up inception_4c/relu_1x1
I0403 19:47:58.853301 25938 net.cpp:148] Top shape: 24 128 14 14 (602112)
I0403 19:47:58.853322 25938 net.cpp:156] Memory required for data: 1033209120
I0403 19:47:58.853340 25938 layer_factory.hpp:77] Creating layer inception_4c/3x3_reduce
I0403 19:47:58.853368 25938 net.cpp:91] Creating Layer inception_4c/3x3_reduce
I0403 19:47:58.853391 25938 net.cpp:425] inception_4c/3x3_reduce <- inception_4b/output_inception_4b/output_0_split_1
I0403 19:47:58.853420 25938 net.cpp:399] inception_4c/3x3_reduce -> inception_4c/3x3_reduce
I0403 19:47:58.855809 25938 net.cpp:141] Setting up inception_4c/3x3_reduce
I0403 19:47:58.855849 25938 net.cpp:148] Top shape: 24 128 14 14 (602112)
I0403 19:47:58.855870 25938 net.cpp:156] Memory required for data: 1035617568
I0403 19:47:58.855893 25938 layer_factory.hpp:77] Creating layer inception_4c/relu_3x3_reduce
I0403 19:47:58.855918 25938 net.cpp:91] Creating Layer inception_4c/relu_3x3_reduce
I0403 19:47:58.855939 25938 net.cpp:425] inception_4c/relu_3x3_reduce <- inception_4c/3x3_reduce
I0403 19:47:58.855960 25938 net.cpp:386] inception_4c/relu_3x3_reduce -> inception_4c/3x3_reduce (in-place)
I0403 19:47:58.856315 25938 net.cpp:141] Setting up inception_4c/relu_3x3_reduce
I0403 19:47:58.856353 25938 net.cpp:148] Top shape: 24 128 14 14 (602112)
I0403 19:47:58.856371 25938 net.cpp:156] Memory required for data: 1038026016
I0403 19:47:58.856389 25938 layer_factory.hpp:77] Creating layer inception_4c/3x3
I0403 19:47:58.856416 25938 net.cpp:91] Creating Layer inception_4c/3x3
I0403 19:47:58.856437 25938 net.cpp:425] inception_4c/3x3 <- inception_4c/3x3_reduce
I0403 19:47:58.856464 25938 net.cpp:399] inception_4c/3x3 -> inception_4c/3x3
I0403 19:47:58.860859 25938 net.cpp:141] Setting up inception_4c/3x3
I0403 19:47:58.860910 25938 net.cpp:148] Top shape: 24 256 14 14 (1204224)
I0403 19:47:58.860931 25938 net.cpp:156] Memory required for data: 1042842912
I0403 19:47:58.860973 25938 layer_factory.hpp:77] Creating layer inception_4c/relu_3x3
I0403 19:47:58.861001 25938 net.cpp:91] Creating Layer inception_4c/relu_3x3
I0403 19:47:58.861024 25938 net.cpp:425] inception_4c/relu_3x3 <- inception_4c/3x3
I0403 19:47:58.861047 25938 net.cpp:386] inception_4c/relu_3x3 -> inception_4c/3x3 (in-place)
I0403 19:47:58.861280 25938 net.cpp:141] Setting up inception_4c/relu_3x3
I0403 19:47:58.861313 25938 net.cpp:148] Top shape: 24 256 14 14 (1204224)
I0403 19:47:58.861332 25938 net.cpp:156] Memory required for data: 1047659808
I0403 19:47:58.861351 25938 layer_factory.hpp:77] Creating layer inception_4c/5x5_reduce
I0403 19:47:58.861378 25938 net.cpp:91] Creating Layer inception_4c/5x5_reduce
I0403 19:47:58.861400 25938 net.cpp:425] inception_4c/5x5_reduce <- inception_4b/output_inception_4b/output_0_split_2
I0403 19:47:58.861428 25938 net.cpp:399] inception_4c/5x5_reduce -> inception_4c/5x5_reduce
I0403 19:47:58.862784 25938 net.cpp:141] Setting up inception_4c/5x5_reduce
I0403 19:47:58.862819 25938 net.cpp:148] Top shape: 24 24 14 14 (112896)
I0403 19:47:58.862840 25938 net.cpp:156] Memory required for data: 1048111392
I0403 19:47:58.862864 25938 layer_factory.hpp:77] Creating layer inception_4c/relu_5x5_reduce
I0403 19:47:58.862890 25938 net.cpp:91] Creating Layer inception_4c/relu_5x5_reduce
I0403 19:47:58.862911 25938 net.cpp:425] inception_4c/relu_5x5_reduce <- inception_4c/5x5_reduce
I0403 19:47:58.862933 25938 net.cpp:386] inception_4c/relu_5x5_reduce -> inception_4c/5x5_reduce (in-place)
I0403 19:47:58.863163 25938 net.cpp:141] Setting up inception_4c/relu_5x5_reduce
I0403 19:47:58.863194 25938 net.cpp:148] Top shape: 24 24 14 14 (112896)
I0403 19:47:58.863211 25938 net.cpp:156] Memory required for data: 1048562976
I0403 19:47:58.863229 25938 layer_factory.hpp:77] Creating layer inception_4c/5x5
I0403 19:47:58.863265 25938 net.cpp:91] Creating Layer inception_4c/5x5
I0403 19:47:58.863288 25938 net.cpp:425] inception_4c/5x5 <- inception_4c/5x5_reduce
I0403 19:47:58.863313 25938 net.cpp:399] inception_4c/5x5 -> inception_4c/5x5
I0403 19:47:58.864869 25938 net.cpp:141] Setting up inception_4c/5x5
I0403 19:47:58.864907 25938 net.cpp:148] Top shape: 24 64 14 14 (301056)
I0403 19:47:58.864926 25938 net.cpp:156] Memory required for data: 1049767200
I0403 19:47:58.864949 25938 layer_factory.hpp:77] Creating layer inception_4c/relu_5x5
I0403 19:47:58.864971 25938 net.cpp:91] Creating Layer inception_4c/relu_5x5
I0403 19:47:58.864990 25938 net.cpp:425] inception_4c/relu_5x5 <- inception_4c/5x5
I0403 19:47:58.865011 25938 net.cpp:386] inception_4c/relu_5x5 -> inception_4c/5x5 (in-place)
I0403 19:47:58.865371 25938 net.cpp:141] Setting up inception_4c/relu_5x5
I0403 19:47:58.865406 25938 net.cpp:148] Top shape: 24 64 14 14 (301056)
I0403 19:47:58.865427 25938 net.cpp:156] Memory required for data: 1050971424
I0403 19:47:58.865444 25938 layer_factory.hpp:77] Creating layer inception_4c/pool
I0403 19:47:58.865466 25938 net.cpp:91] Creating Layer inception_4c/pool
I0403 19:47:58.865486 25938 net.cpp:425] inception_4c/pool <- inception_4b/output_inception_4b/output_0_split_3
I0403 19:47:58.865509 25938 net.cpp:399] inception_4c/pool -> inception_4c/pool
I0403 19:47:58.865589 25938 net.cpp:141] Setting up inception_4c/pool
I0403 19:47:58.865619 25938 net.cpp:148] Top shape: 24 512 14 14 (2408448)
I0403 19:47:58.865636 25938 net.cpp:156] Memory required for data: 1060605216
I0403 19:47:58.865654 25938 layer_factory.hpp:77] Creating layer inception_4c/pool_proj
I0403 19:47:58.865681 25938 net.cpp:91] Creating Layer inception_4c/pool_proj
I0403 19:47:58.865701 25938 net.cpp:425] inception_4c/pool_proj <- inception_4c/pool
I0403 19:47:58.865727 25938 net.cpp:399] inception_4c/pool_proj -> inception_4c/pool_proj
I0403 19:47:58.867233 25938 net.cpp:141] Setting up inception_4c/pool_proj
I0403 19:47:58.867274 25938 net.cpp:148] Top shape: 24 64 14 14 (301056)
I0403 19:47:58.867311 25938 net.cpp:156] Memory required for data: 1061809440
I0403 19:47:58.867334 25938 layer_factory.hpp:77] Creating layer inception_4c/relu_pool_proj
I0403 19:47:58.867362 25938 net.cpp:91] Creating Layer inception_4c/relu_pool_proj
I0403 19:47:58.867383 25938 net.cpp:425] inception_4c/relu_pool_proj <- inception_4c/pool_proj
I0403 19:47:58.867404 25938 net.cpp:386] inception_4c/relu_pool_proj -> inception_4c/pool_proj (in-place)
I0403 19:47:58.867632 25938 net.cpp:141] Setting up inception_4c/relu_pool_proj
I0403 19:47:58.867666 25938 net.cpp:148] Top shape: 24 64 14 14 (301056)
I0403 19:47:58.867686 25938 net.cpp:156] Memory required for data: 1063013664
I0403 19:47:58.867703 25938 layer_factory.hpp:77] Creating layer inception_4c/output
I0403 19:47:58.867724 25938 net.cpp:91] Creating Layer inception_4c/output
I0403 19:47:58.867743 25938 net.cpp:425] inception_4c/output <- inception_4c/1x1
I0403 19:47:58.867763 25938 net.cpp:425] inception_4c/output <- inception_4c/3x3
I0403 19:47:58.867782 25938 net.cpp:425] inception_4c/output <- inception_4c/5x5
I0403 19:47:58.867800 25938 net.cpp:425] inception_4c/output <- inception_4c/pool_proj
I0403 19:47:58.867821 25938 net.cpp:399] inception_4c/output -> inception_4c/output
I0403 19:47:58.867880 25938 net.cpp:141] Setting up inception_4c/output
I0403 19:47:58.867910 25938 net.cpp:148] Top shape: 24 512 14 14 (2408448)
I0403 19:47:58.867928 25938 net.cpp:156] Memory required for data: 1072647456
I0403 19:47:58.867945 25938 layer_factory.hpp:77] Creating layer inception_4c/output_inception_4c/output_0_split
I0403 19:47:58.867969 25938 net.cpp:91] Creating Layer inception_4c/output_inception_4c/output_0_split
I0403 19:47:58.867990 25938 net.cpp:425] inception_4c/output_inception_4c/output_0_split <- inception_4c/output
I0403 19:47:58.868010 25938 net.cpp:399] inception_4c/output_inception_4c/output_0_split -> inception_4c/output_inception_4c/output_0_split_0
I0403 19:47:58.868036 25938 net.cpp:399] inception_4c/output_inception_4c/output_0_split -> inception_4c/output_inception_4c/output_0_split_1
I0403 19:47:58.868059 25938 net.cpp:399] inception_4c/output_inception_4c/output_0_split -> inception_4c/output_inception_4c/output_0_split_2
I0403 19:47:58.868084 25938 net.cpp:399] inception_4c/output_inception_4c/output_0_split -> inception_4c/output_inception_4c/output_0_split_3
I0403 19:47:58.868192 25938 net.cpp:141] Setting up inception_4c/output_inception_4c/output_0_split
I0403 19:47:58.868221 25938 net.cpp:148] Top shape: 24 512 14 14 (2408448)
I0403 19:47:58.868242 25938 net.cpp:148] Top shape: 24 512 14 14 (2408448)
I0403 19:47:58.868266 25938 net.cpp:148] Top shape: 24 512 14 14 (2408448)
I0403 19:47:58.868288 25938 net.cpp:148] Top shape: 24 512 14 14 (2408448)
I0403 19:47:58.868305 25938 net.cpp:156] Memory required for data: 1111182624
I0403 19:47:58.868322 25938 layer_factory.hpp:77] Creating layer inception_4d/1x1
I0403 19:47:58.868350 25938 net.cpp:91] Creating Layer inception_4d/1x1
I0403 19:47:58.868371 25938 net.cpp:425] inception_4d/1x1 <- inception_4c/output_inception_4c/output_0_split_0
I0403 19:47:58.868397 25938 net.cpp:399] inception_4d/1x1 -> inception_4d/1x1
I0403 19:47:58.870088 25938 net.cpp:141] Setting up inception_4d/1x1
I0403 19:47:58.870122 25938 net.cpp:148] Top shape: 24 112 14 14 (526848)
I0403 19:47:58.870141 25938 net.cpp:156] Memory required for data: 1113290016
I0403 19:47:58.870164 25938 layer_factory.hpp:77] Creating layer inception_4d/relu_1x1
I0403 19:47:58.870187 25938 net.cpp:91] Creating Layer inception_4d/relu_1x1
I0403 19:47:58.870206 25938 net.cpp:425] inception_4d/relu_1x1 <- inception_4d/1x1
I0403 19:47:58.870229 25938 net.cpp:386] inception_4d/relu_1x1 -> inception_4d/1x1 (in-place)
I0403 19:47:58.870461 25938 net.cpp:141] Setting up inception_4d/relu_1x1
I0403 19:47:58.870492 25938 net.cpp:148] Top shape: 24 112 14 14 (526848)
I0403 19:47:58.870510 25938 net.cpp:156] Memory required for data: 1115397408
I0403 19:47:58.870529 25938 layer_factory.hpp:77] Creating layer inception_4d/3x3_reduce
I0403 19:47:58.870573 25938 net.cpp:91] Creating Layer inception_4d/3x3_reduce
I0403 19:47:58.870596 25938 net.cpp:425] inception_4d/3x3_reduce <- inception_4c/output_inception_4c/output_0_split_1
I0403 19:47:58.870623 25938 net.cpp:399] inception_4d/3x3_reduce -> inception_4d/3x3_reduce
I0403 19:47:58.872483 25938 net.cpp:141] Setting up inception_4d/3x3_reduce
I0403 19:47:58.872519 25938 net.cpp:148] Top shape: 24 144 14 14 (677376)
I0403 19:47:58.872539 25938 net.cpp:156] Memory required for data: 1118106912
I0403 19:47:58.872561 25938 layer_factory.hpp:77] Creating layer inception_4d/relu_3x3_reduce
I0403 19:47:58.872583 25938 net.cpp:91] Creating Layer inception_4d/relu_3x3_reduce
I0403 19:47:58.872603 25938 net.cpp:425] inception_4d/relu_3x3_reduce <- inception_4d/3x3_reduce
I0403 19:47:58.872627 25938 net.cpp:386] inception_4d/relu_3x3_reduce -> inception_4d/3x3_reduce (in-place)
I0403 19:47:58.872979 25938 net.cpp:141] Setting up inception_4d/relu_3x3_reduce
I0403 19:47:58.873014 25938 net.cpp:148] Top shape: 24 144 14 14 (677376)
I0403 19:47:58.873034 25938 net.cpp:156] Memory required for data: 1120816416
I0403 19:47:58.873051 25938 layer_factory.hpp:77] Creating layer inception_4d/3x3
I0403 19:47:58.873078 25938 net.cpp:91] Creating Layer inception_4d/3x3
I0403 19:47:58.873100 25938 net.cpp:425] inception_4d/3x3 <- inception_4d/3x3_reduce
I0403 19:47:58.873123 25938 net.cpp:399] inception_4d/3x3 -> inception_4d/3x3
I0403 19:47:58.878373 25938 net.cpp:141] Setting up inception_4d/3x3
I0403 19:47:58.878409 25938 net.cpp:148] Top shape: 24 288 14 14 (1354752)
I0403 19:47:58.878428 25938 net.cpp:156] Memory required for data: 1126235424
I0403 19:47:58.878450 25938 layer_factory.hpp:77] Creating layer inception_4d/relu_3x3
I0403 19:47:58.878473 25938 net.cpp:91] Creating Layer inception_4d/relu_3x3
I0403 19:47:58.878496 25938 net.cpp:425] inception_4d/relu_3x3 <- inception_4d/3x3
I0403 19:47:58.878517 25938 net.cpp:386] inception_4d/relu_3x3 -> inception_4d/3x3 (in-place)
I0403 19:47:58.878747 25938 net.cpp:141] Setting up inception_4d/relu_3x3
I0403 19:47:58.878777 25938 net.cpp:148] Top shape: 24 288 14 14 (1354752)
I0403 19:47:58.878795 25938 net.cpp:156] Memory required for data: 1131654432
I0403 19:47:58.878813 25938 layer_factory.hpp:77] Creating layer inception_4d/5x5_reduce
I0403 19:47:58.878839 25938 net.cpp:91] Creating Layer inception_4d/5x5_reduce
I0403 19:47:58.878860 25938 net.cpp:425] inception_4d/5x5_reduce <- inception_4c/output_inception_4c/output_0_split_2
I0403 19:47:58.878886 25938 net.cpp:399] inception_4d/5x5_reduce -> inception_4d/5x5_reduce
I0403 19:47:58.880303 25938 net.cpp:141] Setting up inception_4d/5x5_reduce
I0403 19:47:58.880338 25938 net.cpp:148] Top shape: 24 32 14 14 (150528)
I0403 19:47:58.880357 25938 net.cpp:156] Memory required for data: 1132256544
I0403 19:47:58.880378 25938 layer_factory.hpp:77] Creating layer inception_4d/relu_5x5_reduce
I0403 19:47:58.880399 25938 net.cpp:91] Creating Layer inception_4d/relu_5x5_reduce
I0403 19:47:58.880420 25938 net.cpp:425] inception_4d/relu_5x5_reduce <- inception_4d/5x5_reduce
I0403 19:47:58.880445 25938 net.cpp:386] inception_4d/relu_5x5_reduce -> inception_4d/5x5_reduce (in-place)
I0403 19:47:58.880677 25938 net.cpp:141] Setting up inception_4d/relu_5x5_reduce
I0403 19:47:58.880707 25938 net.cpp:148] Top shape: 24 32 14 14 (150528)
I0403 19:47:58.880725 25938 net.cpp:156] Memory required for data: 1132858656
I0403 19:47:58.880743 25938 layer_factory.hpp:77] Creating layer inception_4d/5x5
I0403 19:47:58.880769 25938 net.cpp:91] Creating Layer inception_4d/5x5
I0403 19:47:58.880791 25938 net.cpp:425] inception_4d/5x5 <- inception_4d/5x5_reduce
I0403 19:47:58.880816 25938 net.cpp:399] inception_4d/5x5 -> inception_4d/5x5
I0403 19:47:58.882611 25938 net.cpp:141] Setting up inception_4d/5x5
I0403 19:47:58.882645 25938 net.cpp:148] Top shape: 24 64 14 14 (301056)
I0403 19:47:58.882665 25938 net.cpp:156] Memory required for data: 1134062880
I0403 19:47:58.882688 25938 layer_factory.hpp:77] Creating layer inception_4d/relu_5x5
I0403 19:47:58.882732 25938 net.cpp:91] Creating Layer inception_4d/relu_5x5
I0403 19:47:58.882755 25938 net.cpp:425] inception_4d/relu_5x5 <- inception_4d/5x5
I0403 19:47:58.882776 25938 net.cpp:386] inception_4d/relu_5x5 -> inception_4d/5x5 (in-place)
I0403 19:47:58.883142 25938 net.cpp:141] Setting up inception_4d/relu_5x5
I0403 19:47:58.883175 25938 net.cpp:148] Top shape: 24 64 14 14 (301056)
I0403 19:47:58.883193 25938 net.cpp:156] Memory required for data: 1135267104
I0403 19:47:58.883211 25938 layer_factory.hpp:77] Creating layer inception_4d/pool
I0403 19:47:58.883236 25938 net.cpp:91] Creating Layer inception_4d/pool
I0403 19:47:58.883265 25938 net.cpp:425] inception_4d/pool <- inception_4c/output_inception_4c/output_0_split_3
I0403 19:47:58.883291 25938 net.cpp:399] inception_4d/pool -> inception_4d/pool
I0403 19:47:58.883375 25938 net.cpp:141] Setting up inception_4d/pool
I0403 19:47:58.883404 25938 net.cpp:148] Top shape: 24 512 14 14 (2408448)
I0403 19:47:58.883424 25938 net.cpp:156] Memory required for data: 1144900896
I0403 19:47:58.883440 25938 layer_factory.hpp:77] Creating layer inception_4d/pool_proj
I0403 19:47:58.883467 25938 net.cpp:91] Creating Layer inception_4d/pool_proj
I0403 19:47:58.883489 25938 net.cpp:425] inception_4d/pool_proj <- inception_4d/pool
I0403 19:47:58.883515 25938 net.cpp:399] inception_4d/pool_proj -> inception_4d/pool_proj
I0403 19:47:58.885680 25938 net.cpp:141] Setting up inception_4d/pool_proj
I0403 19:47:58.885717 25938 net.cpp:148] Top shape: 24 64 14 14 (301056)
I0403 19:47:58.885737 25938 net.cpp:156] Memory required for data: 1146105120
I0403 19:47:58.885759 25938 layer_factory.hpp:77] Creating layer inception_4d/relu_pool_proj
I0403 19:47:58.885783 25938 net.cpp:91] Creating Layer inception_4d/relu_pool_proj
I0403 19:47:58.885808 25938 net.cpp:425] inception_4d/relu_pool_proj <- inception_4d/pool_proj
I0403 19:47:58.885828 25938 net.cpp:386] inception_4d/relu_pool_proj -> inception_4d/pool_proj (in-place)
I0403 19:47:58.886057 25938 net.cpp:141] Setting up inception_4d/relu_pool_proj
I0403 19:47:58.886088 25938 net.cpp:148] Top shape: 24 64 14 14 (301056)
I0403 19:47:58.886107 25938 net.cpp:156] Memory required for data: 1147309344
I0403 19:47:58.886126 25938 layer_factory.hpp:77] Creating layer inception_4d/output
I0403 19:47:58.886148 25938 net.cpp:91] Creating Layer inception_4d/output
I0403 19:47:58.886170 25938 net.cpp:425] inception_4d/output <- inception_4d/1x1
I0403 19:47:58.886190 25938 net.cpp:425] inception_4d/output <- inception_4d/3x3
I0403 19:47:58.886210 25938 net.cpp:425] inception_4d/output <- inception_4d/5x5
I0403 19:47:58.886231 25938 net.cpp:425] inception_4d/output <- inception_4d/pool_proj
I0403 19:47:58.886251 25938 net.cpp:399] inception_4d/output -> inception_4d/output
I0403 19:47:58.886319 25938 net.cpp:141] Setting up inception_4d/output
I0403 19:47:58.886349 25938 net.cpp:148] Top shape: 24 528 14 14 (2483712)
I0403 19:47:58.886368 25938 net.cpp:156] Memory required for data: 1157244192
I0403 19:47:58.886385 25938 layer_factory.hpp:77] Creating layer inception_4d/output_inception_4d/output_0_split
I0403 19:47:58.886407 25938 net.cpp:91] Creating Layer inception_4d/output_inception_4d/output_0_split
I0403 19:47:58.886425 25938 net.cpp:425] inception_4d/output_inception_4d/output_0_split <- inception_4d/output
I0403 19:47:58.886450 25938 net.cpp:399] inception_4d/output_inception_4d/output_0_split -> inception_4d/output_inception_4d/output_0_split_0
I0403 19:47:58.886477 25938 net.cpp:399] inception_4d/output_inception_4d/output_0_split -> inception_4d/output_inception_4d/output_0_split_1
I0403 19:47:58.886503 25938 net.cpp:399] inception_4d/output_inception_4d/output_0_split -> inception_4d/output_inception_4d/output_0_split_2
I0403 19:47:58.886529 25938 net.cpp:399] inception_4d/output_inception_4d/output_0_split -> inception_4d/output_inception_4d/output_0_split_3
I0403 19:47:58.886554 25938 net.cpp:399] inception_4d/output_inception_4d/output_0_split -> inception_4d/output_inception_4d/output_0_split_4
I0403 19:47:58.886692 25938 net.cpp:141] Setting up inception_4d/output_inception_4d/output_0_split
I0403 19:47:58.886735 25938 net.cpp:148] Top shape: 24 528 14 14 (2483712)
I0403 19:47:58.886755 25938 net.cpp:148] Top shape: 24 528 14 14 (2483712)
I0403 19:47:58.886775 25938 net.cpp:148] Top shape: 24 528 14 14 (2483712)
I0403 19:47:58.886792 25938 net.cpp:148] Top shape: 24 528 14 14 (2483712)
I0403 19:47:58.886811 25938 net.cpp:148] Top shape: 24 528 14 14 (2483712)
I0403 19:47:58.886828 25938 net.cpp:156] Memory required for data: 1206918432
I0403 19:47:58.886845 25938 layer_factory.hpp:77] Creating layer loss2/ave_pool
I0403 19:47:58.886867 25938 net.cpp:91] Creating Layer loss2/ave_pool
I0403 19:47:58.886885 25938 net.cpp:425] loss2/ave_pool <- inception_4d/output_inception_4d/output_0_split_0
I0403 19:47:58.886911 25938 net.cpp:399] loss2/ave_pool -> loss2/ave_pool
I0403 19:47:58.887296 25938 net.cpp:141] Setting up loss2/ave_pool
I0403 19:47:58.887328 25938 net.cpp:148] Top shape: 24 528 4 4 (202752)
I0403 19:47:58.887347 25938 net.cpp:156] Memory required for data: 1207729440
I0403 19:47:58.887365 25938 layer_factory.hpp:77] Creating layer loss2/conv
I0403 19:47:58.887393 25938 net.cpp:91] Creating Layer loss2/conv
I0403 19:47:58.887414 25938 net.cpp:425] loss2/conv <- loss2/ave_pool
I0403 19:47:58.887441 25938 net.cpp:399] loss2/conv -> loss2/conv
I0403 19:47:58.889753 25938 net.cpp:141] Setting up loss2/conv
I0403 19:47:58.889789 25938 net.cpp:148] Top shape: 24 128 4 4 (49152)
I0403 19:47:58.889809 25938 net.cpp:156] Memory required for data: 1207926048
I0403 19:47:58.889832 25938 layer_factory.hpp:77] Creating layer loss2/relu_conv
I0403 19:47:58.889858 25938 net.cpp:91] Creating Layer loss2/relu_conv
I0403 19:47:58.889879 25938 net.cpp:425] loss2/relu_conv <- loss2/conv
I0403 19:47:58.889902 25938 net.cpp:386] loss2/relu_conv -> loss2/conv (in-place)
I0403 19:47:58.890259 25938 net.cpp:141] Setting up loss2/relu_conv
I0403 19:47:58.890293 25938 net.cpp:148] Top shape: 24 128 4 4 (49152)
I0403 19:47:58.890312 25938 net.cpp:156] Memory required for data: 1208122656
I0403 19:47:58.890331 25938 layer_factory.hpp:77] Creating layer loss2/fc
I0403 19:47:58.890357 25938 net.cpp:91] Creating Layer loss2/fc
I0403 19:47:58.890379 25938 net.cpp:425] loss2/fc <- loss2/conv
I0403 19:47:58.890406 25938 net.cpp:399] loss2/fc -> loss2/fc
I0403 19:47:58.912469 25938 net.cpp:141] Setting up loss2/fc
I0403 19:47:58.912513 25938 net.cpp:148] Top shape: 24 1024 (24576)
I0403 19:47:58.912533 25938 net.cpp:156] Memory required for data: 1208220960
I0403 19:47:58.912555 25938 layer_factory.hpp:77] Creating layer loss2/relu_fc
I0403 19:47:58.912578 25938 net.cpp:91] Creating Layer loss2/relu_fc
I0403 19:47:58.912600 25938 net.cpp:425] loss2/relu_fc <- loss2/fc
I0403 19:47:58.912626 25938 net.cpp:386] loss2/relu_fc -> loss2/fc (in-place)
I0403 19:47:58.912987 25938 net.cpp:141] Setting up loss2/relu_fc
I0403 19:47:58.913020 25938 net.cpp:148] Top shape: 24 1024 (24576)
I0403 19:47:58.913038 25938 net.cpp:156] Memory required for data: 1208319264
I0403 19:47:58.913056 25938 layer_factory.hpp:77] Creating layer loss2/drop_fc
I0403 19:47:58.913079 25938 net.cpp:91] Creating Layer loss2/drop_fc
I0403 19:47:58.913097 25938 net.cpp:425] loss2/drop_fc <- loss2/fc
I0403 19:47:58.913121 25938 net.cpp:386] loss2/drop_fc -> loss2/fc (in-place)
I0403 19:47:58.913183 25938 net.cpp:141] Setting up loss2/drop_fc
I0403 19:47:58.913215 25938 net.cpp:148] Top shape: 24 1024 (24576)
I0403 19:47:58.913233 25938 net.cpp:156] Memory required for data: 1208417568
I0403 19:47:58.913251 25938 layer_factory.hpp:77] Creating layer loss2/classifier_plantvillage
I0403 19:47:58.913281 25938 net.cpp:91] Creating Layer loss2/classifier_plantvillage
I0403 19:47:58.913302 25938 net.cpp:425] loss2/classifier_plantvillage <- loss2/fc
I0403 19:47:58.913328 25938 net.cpp:399] loss2/classifier_plantvillage -> loss2/classifier_plantvillage
I0403 19:47:58.913828 25938 net.cpp:141] Setting up loss2/classifier_plantvillage
I0403 19:47:58.913859 25938 net.cpp:148] Top shape: 24 38 (912)
I0403 19:47:58.913897 25938 net.cpp:156] Memory required for data: 1208421216
I0403 19:47:58.913920 25938 layer_factory.hpp:77] Creating layer loss2/classifier_plantvillage_loss2/classifier_plantvillage_0_split
I0403 19:47:58.913946 25938 net.cpp:91] Creating Layer loss2/classifier_plantvillage_loss2/classifier_plantvillage_0_split
I0403 19:47:58.913967 25938 net.cpp:425] loss2/classifier_plantvillage_loss2/classifier_plantvillage_0_split <- loss2/classifier_plantvillage
I0403 19:47:58.913990 25938 net.cpp:399] loss2/classifier_plantvillage_loss2/classifier_plantvillage_0_split -> loss2/classifier_plantvillage_loss2/classifier_plantvillage_0_split_0
I0403 19:47:58.914021 25938 net.cpp:399] loss2/classifier_plantvillage_loss2/classifier_plantvillage_0_split -> loss2/classifier_plantvillage_loss2/classifier_plantvillage_0_split_1
I0403 19:47:58.914047 25938 net.cpp:399] loss2/classifier_plantvillage_loss2/classifier_plantvillage_0_split -> loss2/classifier_plantvillage_loss2/classifier_plantvillage_0_split_2
I0403 19:47:58.914142 25938 net.cpp:141] Setting up loss2/classifier_plantvillage_loss2/classifier_plantvillage_0_split
I0403 19:47:58.914172 25938 net.cpp:148] Top shape: 24 38 (912)
I0403 19:47:58.914191 25938 net.cpp:148] Top shape: 24 38 (912)
I0403 19:47:58.914211 25938 net.cpp:148] Top shape: 24 38 (912)
I0403 19:47:58.914227 25938 net.cpp:156] Memory required for data: 1208432160
I0403 19:47:58.914244 25938 layer_factory.hpp:77] Creating layer inception_4e/1x1
I0403 19:47:58.914286 25938 net.cpp:91] Creating Layer inception_4e/1x1
I0403 19:47:58.914310 25938 net.cpp:425] inception_4e/1x1 <- inception_4d/output_inception_4d/output_0_split_1
I0403 19:47:58.914335 25938 net.cpp:399] inception_4e/1x1 -> inception_4e/1x1
I0403 19:47:58.916586 25938 net.cpp:141] Setting up inception_4e/1x1
I0403 19:47:58.916625 25938 net.cpp:148] Top shape: 24 256 14 14 (1204224)
I0403 19:47:58.916646 25938 net.cpp:156] Memory required for data: 1213249056
I0403 19:47:58.916668 25938 layer_factory.hpp:77] Creating layer inception_4e/relu_1x1
I0403 19:47:58.916692 25938 net.cpp:91] Creating Layer inception_4e/relu_1x1
I0403 19:47:58.916710 25938 net.cpp:425] inception_4e/relu_1x1 <- inception_4e/1x1
I0403 19:47:58.916731 25938 net.cpp:386] inception_4e/relu_1x1 -> inception_4e/1x1 (in-place)
I0403 19:47:58.917094 25938 net.cpp:141] Setting up inception_4e/relu_1x1
I0403 19:47:58.917130 25938 net.cpp:148] Top shape: 24 256 14 14 (1204224)
I0403 19:47:58.917150 25938 net.cpp:156] Memory required for data: 1218065952
I0403 19:47:58.917170 25938 layer_factory.hpp:77] Creating layer inception_4e/3x3_reduce
I0403 19:47:58.917196 25938 net.cpp:91] Creating Layer inception_4e/3x3_reduce
I0403 19:47:58.917218 25938 net.cpp:425] inception_4e/3x3_reduce <- inception_4d/output_inception_4d/output_0_split_2
I0403 19:47:58.917242 25938 net.cpp:399] inception_4e/3x3_reduce -> inception_4e/3x3_reduce
I0403 19:47:58.919841 25938 net.cpp:141] Setting up inception_4e/3x3_reduce
I0403 19:47:58.919877 25938 net.cpp:148] Top shape: 24 160 14 14 (752640)
I0403 19:47:58.919896 25938 net.cpp:156] Memory required for data: 1221076512
I0403 19:47:58.919919 25938 layer_factory.hpp:77] Creating layer inception_4e/relu_3x3_reduce
I0403 19:47:58.919945 25938 net.cpp:91] Creating Layer inception_4e/relu_3x3_reduce
I0403 19:47:58.919966 25938 net.cpp:425] inception_4e/relu_3x3_reduce <- inception_4e/3x3_reduce
I0403 19:47:58.919987 25938 net.cpp:386] inception_4e/relu_3x3_reduce -> inception_4e/3x3_reduce (in-place)
I0403 19:47:58.920215 25938 net.cpp:141] Setting up inception_4e/relu_3x3_reduce
I0403 19:47:58.920249 25938 net.cpp:148] Top shape: 24 160 14 14 (752640)
I0403 19:47:58.920275 25938 net.cpp:156] Memory required for data: 1224087072
I0403 19:47:58.920295 25938 layer_factory.hpp:77] Creating layer inception_4e/3x3
I0403 19:47:58.920322 25938 net.cpp:91] Creating Layer inception_4e/3x3
I0403 19:47:58.920343 25938 net.cpp:425] inception_4e/3x3 <- inception_4e/3x3_reduce
I0403 19:47:58.920367 25938 net.cpp:399] inception_4e/3x3 -> inception_4e/3x3
I0403 19:47:58.926606 25938 net.cpp:141] Setting up inception_4e/3x3
I0403 19:47:58.926661 25938 net.cpp:148] Top shape: 24 320 14 14 (1505280)
I0403 19:47:58.926686 25938 net.cpp:156] Memory required for data: 1230108192
I0403 19:47:58.926707 25938 layer_factory.hpp:77] Creating layer inception_4e/relu_3x3
I0403 19:47:58.926731 25938 net.cpp:91] Creating Layer inception_4e/relu_3x3
I0403 19:47:58.926751 25938 net.cpp:425] inception_4e/relu_3x3 <- inception_4e/3x3
I0403 19:47:58.926776 25938 net.cpp:386] inception_4e/relu_3x3 -> inception_4e/3x3 (in-place)
I0403 19:47:58.927141 25938 net.cpp:141] Setting up inception_4e/relu_3x3
I0403 19:47:58.927175 25938 net.cpp:148] Top shape: 24 320 14 14 (1505280)
I0403 19:47:58.927192 25938 net.cpp:156] Memory required for data: 1236129312
I0403 19:47:58.927209 25938 layer_factory.hpp:77] Creating layer inception_4e/5x5_reduce
I0403 19:47:58.927238 25938 net.cpp:91] Creating Layer inception_4e/5x5_reduce
I0403 19:47:58.927270 25938 net.cpp:425] inception_4e/5x5_reduce <- inception_4d/output_inception_4d/output_0_split_3
I0403 19:47:58.927304 25938 net.cpp:399] inception_4e/5x5_reduce -> inception_4e/5x5_reduce
I0403 19:47:58.928633 25938 net.cpp:141] Setting up inception_4e/5x5_reduce
I0403 19:47:58.928669 25938 net.cpp:148] Top shape: 24 32 14 14 (150528)
I0403 19:47:58.928689 25938 net.cpp:156] Memory required for data: 1236731424
I0403 19:47:58.928711 25938 layer_factory.hpp:77] Creating layer inception_4e/relu_5x5_reduce
I0403 19:47:58.928737 25938 net.cpp:91] Creating Layer inception_4e/relu_5x5_reduce
I0403 19:47:58.928761 25938 net.cpp:425] inception_4e/relu_5x5_reduce <- inception_4e/5x5_reduce
I0403 19:47:58.928782 25938 net.cpp:386] inception_4e/relu_5x5_reduce -> inception_4e/5x5_reduce (in-place)
I0403 19:47:58.929144 25938 net.cpp:141] Setting up inception_4e/relu_5x5_reduce
I0403 19:47:58.929177 25938 net.cpp:148] Top shape: 24 32 14 14 (150528)
I0403 19:47:58.929198 25938 net.cpp:156] Memory required for data: 1237333536
I0403 19:47:58.929214 25938 layer_factory.hpp:77] Creating layer inception_4e/5x5
I0403 19:47:58.929271 25938 net.cpp:91] Creating Layer inception_4e/5x5
I0403 19:47:58.929298 25938 net.cpp:425] inception_4e/5x5 <- inception_4e/5x5_reduce
I0403 19:47:58.929325 25938 net.cpp:399] inception_4e/5x5 -> inception_4e/5x5
I0403 19:47:58.931568 25938 net.cpp:141] Setting up inception_4e/5x5
I0403 19:47:58.931603 25938 net.cpp:148] Top shape: 24 128 14 14 (602112)
I0403 19:47:58.931623 25938 net.cpp:156] Memory required for data: 1239741984
I0403 19:47:58.931648 25938 layer_factory.hpp:77] Creating layer inception_4e/relu_5x5
I0403 19:47:58.931674 25938 net.cpp:91] Creating Layer inception_4e/relu_5x5
I0403 19:47:58.931696 25938 net.cpp:425] inception_4e/relu_5x5 <- inception_4e/5x5
I0403 19:47:58.931718 25938 net.cpp:386] inception_4e/relu_5x5 -> inception_4e/5x5 (in-place)
I0403 19:47:58.931963 25938 net.cpp:141] Setting up inception_4e/relu_5x5
I0403 19:47:58.931995 25938 net.cpp:148] Top shape: 24 128 14 14 (602112)
I0403 19:47:58.932013 25938 net.cpp:156] Memory required for data: 1242150432
I0403 19:47:58.932032 25938 layer_factory.hpp:77] Creating layer inception_4e/pool
I0403 19:47:58.932057 25938 net.cpp:91] Creating Layer inception_4e/pool
I0403 19:47:58.932080 25938 net.cpp:425] inception_4e/pool <- inception_4d/output_inception_4d/output_0_split_4
I0403 19:47:58.932101 25938 net.cpp:399] inception_4e/pool -> inception_4e/pool
I0403 19:47:58.932190 25938 net.cpp:141] Setting up inception_4e/pool
I0403 19:47:58.932220 25938 net.cpp:148] Top shape: 24 528 14 14 (2483712)
I0403 19:47:58.932240 25938 net.cpp:156] Memory required for data: 1252085280
I0403 19:47:58.932265 25938 layer_factory.hpp:77] Creating layer inception_4e/pool_proj
I0403 19:47:58.932301 25938 net.cpp:91] Creating Layer inception_4e/pool_proj
I0403 19:47:58.932322 25938 net.cpp:425] inception_4e/pool_proj <- inception_4e/pool
I0403 19:47:58.932348 25938 net.cpp:399] inception_4e/pool_proj -> inception_4e/pool_proj
I0403 19:47:58.934197 25938 net.cpp:141] Setting up inception_4e/pool_proj
I0403 19:47:58.934247 25938 net.cpp:148] Top shape: 24 128 14 14 (602112)
I0403 19:47:58.934283 25938 net.cpp:156] Memory required for data: 1254493728
I0403 19:47:58.934311 25938 layer_factory.hpp:77] Creating layer inception_4e/relu_pool_proj
I0403 19:47:58.934340 25938 net.cpp:91] Creating Layer inception_4e/relu_pool_proj
I0403 19:47:58.934361 25938 net.cpp:425] inception_4e/relu_pool_proj <- inception_4e/pool_proj
I0403 19:47:58.934383 25938 net.cpp:386] inception_4e/relu_pool_proj -> inception_4e/pool_proj (in-place)
I0403 19:47:58.934739 25938 net.cpp:141] Setting up inception_4e/relu_pool_proj
I0403 19:47:58.934772 25938 net.cpp:148] Top shape: 24 128 14 14 (602112)
I0403 19:47:58.934790 25938 net.cpp:156] Memory required for data: 1256902176
I0403 19:47:58.934809 25938 layer_factory.hpp:77] Creating layer inception_4e/output
I0403 19:47:58.934830 25938 net.cpp:91] Creating Layer inception_4e/output
I0403 19:47:58.934849 25938 net.cpp:425] inception_4e/output <- inception_4e/1x1
I0403 19:47:58.934870 25938 net.cpp:425] inception_4e/output <- inception_4e/3x3
I0403 19:47:58.934888 25938 net.cpp:425] inception_4e/output <- inception_4e/5x5
I0403 19:47:58.934907 25938 net.cpp:425] inception_4e/output <- inception_4e/pool_proj
I0403 19:47:58.934931 25938 net.cpp:399] inception_4e/output -> inception_4e/output
I0403 19:47:58.934993 25938 net.cpp:141] Setting up inception_4e/output
I0403 19:47:58.935024 25938 net.cpp:148] Top shape: 24 832 14 14 (3913728)
I0403 19:47:58.935044 25938 net.cpp:156] Memory required for data: 1272557088
I0403 19:47:58.935061 25938 layer_factory.hpp:77] Creating layer pool4/3x3_s2
I0403 19:47:58.935082 25938 net.cpp:91] Creating Layer pool4/3x3_s2
I0403 19:47:58.935102 25938 net.cpp:425] pool4/3x3_s2 <- inception_4e/output
I0403 19:47:58.935128 25938 net.cpp:399] pool4/3x3_s2 -> pool4/3x3_s2
I0403 19:47:58.935211 25938 net.cpp:141] Setting up pool4/3x3_s2
I0403 19:47:58.935241 25938 net.cpp:148] Top shape: 24 832 7 7 (978432)
I0403 19:47:58.935266 25938 net.cpp:156] Memory required for data: 1276470816
I0403 19:47:58.935286 25938 layer_factory.hpp:77] Creating layer pool4/3x3_s2_pool4/3x3_s2_0_split
I0403 19:47:58.935310 25938 net.cpp:91] Creating Layer pool4/3x3_s2_pool4/3x3_s2_0_split
I0403 19:47:58.935331 25938 net.cpp:425] pool4/3x3_s2_pool4/3x3_s2_0_split <- pool4/3x3_s2
I0403 19:47:58.935353 25938 net.cpp:399] pool4/3x3_s2_pool4/3x3_s2_0_split -> pool4/3x3_s2_pool4/3x3_s2_0_split_0
I0403 19:47:58.935376 25938 net.cpp:399] pool4/3x3_s2_pool4/3x3_s2_0_split -> pool4/3x3_s2_pool4/3x3_s2_0_split_1
I0403 19:47:58.935401 25938 net.cpp:399] pool4/3x3_s2_pool4/3x3_s2_0_split -> pool4/3x3_s2_pool4/3x3_s2_0_split_2
I0403 19:47:58.935428 25938 net.cpp:399] pool4/3x3_s2_pool4/3x3_s2_0_split -> pool4/3x3_s2_pool4/3x3_s2_0_split_3
I0403 19:47:58.935542 25938 net.cpp:141] Setting up pool4/3x3_s2_pool4/3x3_s2_0_split
I0403 19:47:58.935571 25938 net.cpp:148] Top shape: 24 832 7 7 (978432)
I0403 19:47:58.935591 25938 net.cpp:148] Top shape: 24 832 7 7 (978432)
I0403 19:47:58.935609 25938 net.cpp:148] Top shape: 24 832 7 7 (978432)
I0403 19:47:58.935627 25938 net.cpp:148] Top shape: 24 832 7 7 (978432)
I0403 19:47:58.935644 25938 net.cpp:156] Memory required for data: 1292125728
I0403 19:47:58.935662 25938 layer_factory.hpp:77] Creating layer inception_5a/1x1
I0403 19:47:58.935689 25938 net.cpp:91] Creating Layer inception_5a/1x1
I0403 19:47:58.935710 25938 net.cpp:425] inception_5a/1x1 <- pool4/3x3_s2_pool4/3x3_s2_0_split_0
I0403 19:47:58.935736 25938 net.cpp:399] inception_5a/1x1 -> inception_5a/1x1
I0403 19:47:58.939214 25938 net.cpp:141] Setting up inception_5a/1x1
I0403 19:47:58.939249 25938 net.cpp:148] Top shape: 24 256 7 7 (301056)
I0403 19:47:58.939276 25938 net.cpp:156] Memory required for data: 1293329952
I0403 19:47:58.939299 25938 layer_factory.hpp:77] Creating layer inception_5a/relu_1x1
I0403 19:47:58.939328 25938 net.cpp:91] Creating Layer inception_5a/relu_1x1
I0403 19:47:58.939349 25938 net.cpp:425] inception_5a/relu_1x1 <- inception_5a/1x1
I0403 19:47:58.939371 25938 net.cpp:386] inception_5a/relu_1x1 -> inception_5a/1x1 (in-place)
I0403 19:47:58.939757 25938 net.cpp:141] Setting up inception_5a/relu_1x1
I0403 19:47:58.939790 25938 net.cpp:148] Top shape: 24 256 7 7 (301056)
I0403 19:47:58.939808 25938 net.cpp:156] Memory required for data: 1294534176
I0403 19:47:58.939826 25938 layer_factory.hpp:77] Creating layer inception_5a/3x3_reduce
I0403 19:47:58.939853 25938 net.cpp:91] Creating Layer inception_5a/3x3_reduce
I0403 19:47:58.939875 25938 net.cpp:425] inception_5a/3x3_reduce <- pool4/3x3_s2_pool4/3x3_s2_0_split_1
I0403 19:47:58.939903 25938 net.cpp:399] inception_5a/3x3_reduce -> inception_5a/3x3_reduce
I0403 19:47:58.942890 25938 net.cpp:141] Setting up inception_5a/3x3_reduce
I0403 19:47:58.942929 25938 net.cpp:148] Top shape: 24 160 7 7 (188160)
I0403 19:47:58.942948 25938 net.cpp:156] Memory required for data: 1295286816
I0403 19:47:58.942971 25938 layer_factory.hpp:77] Creating layer inception_5a/relu_3x3_reduce
I0403 19:47:58.942992 25938 net.cpp:91] Creating Layer inception_5a/relu_3x3_reduce
I0403 19:47:58.943012 25938 net.cpp:425] inception_5a/relu_3x3_reduce <- inception_5a/3x3_reduce
I0403 19:47:58.943037 25938 net.cpp:386] inception_5a/relu_3x3_reduce -> inception_5a/3x3_reduce (in-place)
I0403 19:47:58.943280 25938 net.cpp:141] Setting up inception_5a/relu_3x3_reduce
I0403 19:47:58.943311 25938 net.cpp:148] Top shape: 24 160 7 7 (188160)
I0403 19:47:58.943330 25938 net.cpp:156] Memory required for data: 1296039456
I0403 19:47:58.943347 25938 layer_factory.hpp:77] Creating layer inception_5a/3x3
I0403 19:47:58.943374 25938 net.cpp:91] Creating Layer inception_5a/3x3
I0403 19:47:58.943395 25938 net.cpp:425] inception_5a/3x3 <- inception_5a/3x3_reduce
I0403 19:47:58.943423 25938 net.cpp:399] inception_5a/3x3 -> inception_5a/3x3
I0403 19:47:58.949633 25938 net.cpp:141] Setting up inception_5a/3x3
I0403 19:47:58.949671 25938 net.cpp:148] Top shape: 24 320 7 7 (376320)
I0403 19:47:58.949689 25938 net.cpp:156] Memory required for data: 1297544736
I0403 19:47:58.949712 25938 layer_factory.hpp:77] Creating layer inception_5a/relu_3x3
I0403 19:47:58.949738 25938 net.cpp:91] Creating Layer inception_5a/relu_3x3
I0403 19:47:58.949759 25938 net.cpp:425] inception_5a/relu_3x3 <- inception_5a/3x3
I0403 19:47:58.949779 25938 net.cpp:386] inception_5a/relu_3x3 -> inception_5a/3x3 (in-place)
I0403 19:47:58.950140 25938 net.cpp:141] Setting up inception_5a/relu_3x3
I0403 19:47:58.950173 25938 net.cpp:148] Top shape: 24 320 7 7 (376320)
I0403 19:47:58.950192 25938 net.cpp:156] Memory required for data: 1299050016
I0403 19:47:58.950211 25938 layer_factory.hpp:77] Creating layer inception_5a/5x5_reduce
I0403 19:47:58.950237 25938 net.cpp:91] Creating Layer inception_5a/5x5_reduce
I0403 19:47:58.950265 25938 net.cpp:425] inception_5a/5x5_reduce <- pool4/3x3_s2_pool4/3x3_s2_0_split_2
I0403 19:47:58.950294 25938 net.cpp:399] inception_5a/5x5_reduce -> inception_5a/5x5_reduce
I0403 19:47:58.951735 25938 net.cpp:141] Setting up inception_5a/5x5_reduce
I0403 19:47:58.951769 25938 net.cpp:148] Top shape: 24 32 7 7 (37632)
I0403 19:47:58.951789 25938 net.cpp:156] Memory required for data: 1299200544
I0403 19:47:58.951812 25938 layer_factory.hpp:77] Creating layer inception_5a/relu_5x5_reduce
I0403 19:47:58.951836 25938 net.cpp:91] Creating Layer inception_5a/relu_5x5_reduce
I0403 19:47:58.951858 25938 net.cpp:425] inception_5a/relu_5x5_reduce <- inception_5a/5x5_reduce
I0403 19:47:58.951879 25938 net.cpp:386] inception_5a/relu_5x5_reduce -> inception_5a/5x5_reduce (in-place)
I0403 19:47:58.952250 25938 net.cpp:141] Setting up inception_5a/relu_5x5_reduce
I0403 19:47:58.952287 25938 net.cpp:148] Top shape: 24 32 7 7 (37632)
I0403 19:47:58.952307 25938 net.cpp:156] Memory required for data: 1299351072
I0403 19:47:58.952325 25938 layer_factory.hpp:77] Creating layer inception_5a/5x5
I0403 19:47:58.952355 25938 net.cpp:91] Creating Layer inception_5a/5x5
I0403 19:47:58.952378 25938 net.cpp:425] inception_5a/5x5 <- inception_5a/5x5_reduce
I0403 19:47:58.952400 25938 net.cpp:399] inception_5a/5x5 -> inception_5a/5x5
I0403 19:47:58.954545 25938 net.cpp:141] Setting up inception_5a/5x5
I0403 19:47:58.954594 25938 net.cpp:148] Top shape: 24 128 7 7 (150528)
I0403 19:47:58.954615 25938 net.cpp:156] Memory required for data: 1299953184
I0403 19:47:58.954638 25938 layer_factory.hpp:77] Creating layer inception_5a/relu_5x5
I0403 19:47:58.954663 25938 net.cpp:91] Creating Layer inception_5a/relu_5x5
I0403 19:47:58.954684 25938 net.cpp:425] inception_5a/relu_5x5 <- inception_5a/5x5
I0403 19:47:58.954705 25938 net.cpp:386] inception_5a/relu_5x5 -> inception_5a/5x5 (in-place)
I0403 19:47:58.954942 25938 net.cpp:141] Setting up inception_5a/relu_5x5
I0403 19:47:58.954974 25938 net.cpp:148] Top shape: 24 128 7 7 (150528)
I0403 19:47:58.954993 25938 net.cpp:156] Memory required for data: 1300555296
I0403 19:47:58.955013 25938 layer_factory.hpp:77] Creating layer inception_5a/pool
I0403 19:47:58.955039 25938 net.cpp:91] Creating Layer inception_5a/pool
I0403 19:47:58.955060 25938 net.cpp:425] inception_5a/pool <- pool4/3x3_s2_pool4/3x3_s2_0_split_3
I0403 19:47:58.955082 25938 net.cpp:399] inception_5a/pool -> inception_5a/pool
I0403 19:47:58.955173 25938 net.cpp:141] Setting up inception_5a/pool
I0403 19:47:58.955204 25938 net.cpp:148] Top shape: 24 832 7 7 (978432)
I0403 19:47:58.955221 25938 net.cpp:156] Memory required for data: 1304469024
I0403 19:47:58.955240 25938 layer_factory.hpp:77] Creating layer inception_5a/pool_proj
I0403 19:47:58.955271 25938 net.cpp:91] Creating Layer inception_5a/pool_proj
I0403 19:47:58.955296 25938 net.cpp:425] inception_5a/pool_proj <- inception_5a/pool
I0403 19:47:58.955322 25938 net.cpp:399] inception_5a/pool_proj -> inception_5a/pool_proj
I0403 19:47:58.958118 25938 net.cpp:141] Setting up inception_5a/pool_proj
I0403 19:47:58.958155 25938 net.cpp:148] Top shape: 24 128 7 7 (150528)
I0403 19:47:58.958175 25938 net.cpp:156] Memory required for data: 1305071136
I0403 19:47:58.958197 25938 layer_factory.hpp:77] Creating layer inception_5a/relu_pool_proj
I0403 19:47:58.958220 25938 net.cpp:91] Creating Layer inception_5a/relu_pool_proj
I0403 19:47:58.958240 25938 net.cpp:425] inception_5a/relu_pool_proj <- inception_5a/pool_proj
I0403 19:47:58.958271 25938 net.cpp:386] inception_5a/relu_pool_proj -> inception_5a/pool_proj (in-place)
I0403 19:47:58.958634 25938 net.cpp:141] Setting up inception_5a/relu_pool_proj
I0403 19:47:58.958667 25938 net.cpp:148] Top shape: 24 128 7 7 (150528)
I0403 19:47:58.958685 25938 net.cpp:156] Memory required for data: 1305673248
I0403 19:47:58.958703 25938 layer_factory.hpp:77] Creating layer inception_5a/output
I0403 19:47:58.958725 25938 net.cpp:91] Creating Layer inception_5a/output
I0403 19:47:58.958745 25938 net.cpp:425] inception_5a/output <- inception_5a/1x1
I0403 19:47:58.958766 25938 net.cpp:425] inception_5a/output <- inception_5a/3x3
I0403 19:47:58.958786 25938 net.cpp:425] inception_5a/output <- inception_5a/5x5
I0403 19:47:58.958806 25938 net.cpp:425] inception_5a/output <- inception_5a/pool_proj
I0403 19:47:58.958829 25938 net.cpp:399] inception_5a/output -> inception_5a/output
I0403 19:47:58.958890 25938 net.cpp:141] Setting up inception_5a/output
I0403 19:47:58.958923 25938 net.cpp:148] Top shape: 24 832 7 7 (978432)
I0403 19:47:58.958943 25938 net.cpp:156] Memory required for data: 1309586976
I0403 19:47:58.958961 25938 layer_factory.hpp:77] Creating layer inception_5a/output_inception_5a/output_0_split
I0403 19:47:58.958982 25938 net.cpp:91] Creating Layer inception_5a/output_inception_5a/output_0_split
I0403 19:47:58.959002 25938 net.cpp:425] inception_5a/output_inception_5a/output_0_split <- inception_5a/output
I0403 19:47:58.959023 25938 net.cpp:399] inception_5a/output_inception_5a/output_0_split -> inception_5a/output_inception_5a/output_0_split_0
I0403 19:47:58.959050 25938 net.cpp:399] inception_5a/output_inception_5a/output_0_split -> inception_5a/output_inception_5a/output_0_split_1
I0403 19:47:58.959077 25938 net.cpp:399] inception_5a/output_inception_5a/output_0_split -> inception_5a/output_inception_5a/output_0_split_2
I0403 19:47:58.959103 25938 net.cpp:399] inception_5a/output_inception_5a/output_0_split -> inception_5a/output_inception_5a/output_0_split_3
I0403 19:47:58.959242 25938 net.cpp:141] Setting up inception_5a/output_inception_5a/output_0_split
I0403 19:47:58.959278 25938 net.cpp:148] Top shape: 24 832 7 7 (978432)
I0403 19:47:58.959300 25938 net.cpp:148] Top shape: 24 832 7 7 (978432)
I0403 19:47:58.959319 25938 net.cpp:148] Top shape: 24 832 7 7 (978432)
I0403 19:47:58.959338 25938 net.cpp:148] Top shape: 24 832 7 7 (978432)
I0403 19:47:58.959357 25938 net.cpp:156] Memory required for data: 1325241888
I0403 19:47:58.959374 25938 layer_factory.hpp:77] Creating layer inception_5b/1x1
I0403 19:47:58.959406 25938 net.cpp:91] Creating Layer inception_5b/1x1
I0403 19:47:58.959429 25938 net.cpp:425] inception_5b/1x1 <- inception_5a/output_inception_5a/output_0_split_0
I0403 19:47:58.959453 25938 net.cpp:399] inception_5b/1x1 -> inception_5b/1x1
I0403 19:47:58.964066 25938 net.cpp:141] Setting up inception_5b/1x1
I0403 19:47:58.964107 25938 net.cpp:148] Top shape: 24 384 7 7 (451584)
I0403 19:47:58.964128 25938 net.cpp:156] Memory required for data: 1327048224
I0403 19:47:58.964150 25938 layer_factory.hpp:77] Creating layer inception_5b/relu_1x1
I0403 19:47:58.964172 25938 net.cpp:91] Creating Layer inception_5b/relu_1x1
I0403 19:47:58.964192 25938 net.cpp:425] inception_5b/relu_1x1 <- inception_5b/1x1
I0403 19:47:58.964216 25938 net.cpp:386] inception_5b/relu_1x1 -> inception_5b/1x1 (in-place)
I0403 19:47:58.964597 25938 net.cpp:141] Setting up inception_5b/relu_1x1
I0403 19:47:58.964633 25938 net.cpp:148] Top shape: 24 384 7 7 (451584)
I0403 19:47:58.964653 25938 net.cpp:156] Memory required for data: 1328854560
I0403 19:47:58.964673 25938 layer_factory.hpp:77] Creating layer inception_5b/3x3_reduce
I0403 19:47:58.964700 25938 net.cpp:91] Creating Layer inception_5b/3x3_reduce
I0403 19:47:58.964723 25938 net.cpp:425] inception_5b/3x3_reduce <- inception_5a/output_inception_5a/output_0_split_1
I0403 19:47:58.964751 25938 net.cpp:399] inception_5b/3x3_reduce -> inception_5b/3x3_reduce
I0403 19:47:58.968029 25938 net.cpp:141] Setting up inception_5b/3x3_reduce
I0403 19:47:58.968065 25938 net.cpp:148] Top shape: 24 192 7 7 (225792)
I0403 19:47:58.968085 25938 net.cpp:156] Memory required for data: 1329757728
I0403 19:47:58.968107 25938 layer_factory.hpp:77] Creating layer inception_5b/relu_3x3_reduce
I0403 19:47:58.968129 25938 net.cpp:91] Creating Layer inception_5b/relu_3x3_reduce
I0403 19:47:58.968148 25938 net.cpp:425] inception_5b/relu_3x3_reduce <- inception_5b/3x3_reduce
I0403 19:47:58.968173 25938 net.cpp:386] inception_5b/relu_3x3_reduce -> inception_5b/3x3_reduce (in-place)
I0403 19:47:58.968420 25938 net.cpp:141] Setting up inception_5b/relu_3x3_reduce
I0403 19:47:58.968451 25938 net.cpp:148] Top shape: 24 192 7 7 (225792)
I0403 19:47:58.968469 25938 net.cpp:156] Memory required for data: 1330660896
I0403 19:47:58.968487 25938 layer_factory.hpp:77] Creating layer inception_5b/3x3
I0403 19:47:58.968514 25938 net.cpp:91] Creating Layer inception_5b/3x3
I0403 19:47:58.968538 25938 net.cpp:425] inception_5b/3x3 <- inception_5b/3x3_reduce
I0403 19:47:58.968564 25938 net.cpp:399] inception_5b/3x3 -> inception_5b/3x3
I0403 19:47:58.976970 25938 net.cpp:141] Setting up inception_5b/3x3
I0403 19:47:58.977006 25938 net.cpp:148] Top shape: 24 384 7 7 (451584)
I0403 19:47:58.977025 25938 net.cpp:156] Memory required for data: 1332467232
I0403 19:47:58.977047 25938 layer_factory.hpp:77] Creating layer inception_5b/relu_3x3
I0403 19:47:58.977072 25938 net.cpp:91] Creating Layer inception_5b/relu_3x3
I0403 19:47:58.977092 25938 net.cpp:425] inception_5b/relu_3x3 <- inception_5b/3x3
I0403 19:47:58.977118 25938 net.cpp:386] inception_5b/relu_3x3 -> inception_5b/3x3 (in-place)
I0403 19:47:58.977488 25938 net.cpp:141] Setting up inception_5b/relu_3x3
I0403 19:47:58.977520 25938 net.cpp:148] Top shape: 24 384 7 7 (451584)
I0403 19:47:58.977540 25938 net.cpp:156] Memory required for data: 1334273568
I0403 19:47:58.977558 25938 layer_factory.hpp:77] Creating layer inception_5b/5x5_reduce
I0403 19:47:58.977605 25938 net.cpp:91] Creating Layer inception_5b/5x5_reduce
I0403 19:47:58.977628 25938 net.cpp:425] inception_5b/5x5_reduce <- inception_5a/output_inception_5a/output_0_split_2
I0403 19:47:58.977656 25938 net.cpp:399] inception_5b/5x5_reduce -> inception_5b/5x5_reduce
I0403 19:47:58.979228 25938 net.cpp:141] Setting up inception_5b/5x5_reduce
I0403 19:47:58.979267 25938 net.cpp:148] Top shape: 24 48 7 7 (56448)
I0403 19:47:58.979290 25938 net.cpp:156] Memory required for data: 1334499360
I0403 19:47:58.979312 25938 layer_factory.hpp:77] Creating layer inception_5b/relu_5x5_reduce
I0403 19:47:58.979338 25938 net.cpp:91] Creating Layer inception_5b/relu_5x5_reduce
I0403 19:47:58.979360 25938 net.cpp:425] inception_5b/relu_5x5_reduce <- inception_5b/5x5_reduce
I0403 19:47:58.979382 25938 net.cpp:386] inception_5b/relu_5x5_reduce -> inception_5b/5x5_reduce (in-place)
I0403 19:47:58.979837 25938 net.cpp:141] Setting up inception_5b/relu_5x5_reduce
I0403 19:47:58.979871 25938 net.cpp:148] Top shape: 24 48 7 7 (56448)
I0403 19:47:58.979890 25938 net.cpp:156] Memory required for data: 1334725152
I0403 19:47:58.979908 25938 layer_factory.hpp:77] Creating layer inception_5b/5x5
I0403 19:47:58.979933 25938 net.cpp:91] Creating Layer inception_5b/5x5
I0403 19:47:58.979955 25938 net.cpp:425] inception_5b/5x5 <- inception_5b/5x5_reduce
I0403 19:47:58.979977 25938 net.cpp:399] inception_5b/5x5 -> inception_5b/5x5
I0403 19:47:58.982514 25938 net.cpp:141] Setting up inception_5b/5x5
I0403 19:47:58.982549 25938 net.cpp:148] Top shape: 24 128 7 7 (150528)
I0403 19:47:58.982569 25938 net.cpp:156] Memory required for data: 1335327264
I0403 19:47:58.982592 25938 layer_factory.hpp:77] Creating layer inception_5b/relu_5x5
I0403 19:47:58.982619 25938 net.cpp:91] Creating Layer inception_5b/relu_5x5
I0403 19:47:58.982640 25938 net.cpp:425] inception_5b/relu_5x5 <- inception_5b/5x5
I0403 19:47:58.982661 25938 net.cpp:386] inception_5b/relu_5x5 -> inception_5b/5x5 (in-place)
I0403 19:47:58.982904 25938 net.cpp:141] Setting up inception_5b/relu_5x5
I0403 19:47:58.982939 25938 net.cpp:148] Top shape: 24 128 7 7 (150528)
I0403 19:47:58.982959 25938 net.cpp:156] Memory required for data: 1335929376
I0403 19:47:58.982976 25938 layer_factory.hpp:77] Creating layer inception_5b/pool
I0403 19:47:58.982998 25938 net.cpp:91] Creating Layer inception_5b/pool
I0403 19:47:58.983018 25938 net.cpp:425] inception_5b/pool <- inception_5a/output_inception_5a/output_0_split_3
I0403 19:47:58.983041 25938 net.cpp:399] inception_5b/pool -> inception_5b/pool
I0403 19:47:58.983139 25938 net.cpp:141] Setting up inception_5b/pool
I0403 19:47:58.983168 25938 net.cpp:148] Top shape: 24 832 7 7 (978432)
I0403 19:47:58.983186 25938 net.cpp:156] Memory required for data: 1339843104
I0403 19:47:58.983203 25938 layer_factory.hpp:77] Creating layer inception_5b/pool_proj
I0403 19:47:58.983230 25938 net.cpp:91] Creating Layer inception_5b/pool_proj
I0403 19:47:58.983253 25938 net.cpp:425] inception_5b/pool_proj <- inception_5b/pool
I0403 19:47:58.983288 25938 net.cpp:399] inception_5b/pool_proj -> inception_5b/pool_proj
I0403 19:47:58.986145 25938 net.cpp:141] Setting up inception_5b/pool_proj
I0403 19:47:58.986181 25938 net.cpp:148] Top shape: 24 128 7 7 (150528)
I0403 19:47:58.986202 25938 net.cpp:156] Memory required for data: 1340445216
I0403 19:47:58.986224 25938 layer_factory.hpp:77] Creating layer inception_5b/relu_pool_proj
I0403 19:47:58.986250 25938 net.cpp:91] Creating Layer inception_5b/relu_pool_proj
I0403 19:47:58.986279 25938 net.cpp:425] inception_5b/relu_pool_proj <- inception_5b/pool_proj
I0403 19:47:58.986302 25938 net.cpp:386] inception_5b/relu_pool_proj -> inception_5b/pool_proj (in-place)
I0403 19:47:58.986665 25938 net.cpp:141] Setting up inception_5b/relu_pool_proj
I0403 19:47:58.986697 25938 net.cpp:148] Top shape: 24 128 7 7 (150528)
I0403 19:47:58.986716 25938 net.cpp:156] Memory required for data: 1341047328
I0403 19:47:58.986735 25938 layer_factory.hpp:77] Creating layer inception_5b/output
I0403 19:47:58.986757 25938 net.cpp:91] Creating Layer inception_5b/output
I0403 19:47:58.986795 25938 net.cpp:425] inception_5b/output <- inception_5b/1x1
I0403 19:47:58.986817 25938 net.cpp:425] inception_5b/output <- inception_5b/3x3
I0403 19:47:58.986837 25938 net.cpp:425] inception_5b/output <- inception_5b/5x5
I0403 19:47:58.986857 25938 net.cpp:425] inception_5b/output <- inception_5b/pool_proj
I0403 19:47:58.986882 25938 net.cpp:399] inception_5b/output -> inception_5b/output
I0403 19:47:58.986945 25938 net.cpp:141] Setting up inception_5b/output
I0403 19:47:58.986979 25938 net.cpp:148] Top shape: 24 1024 7 7 (1204224)
I0403 19:47:58.987000 25938 net.cpp:156] Memory required for data: 1345864224
I0403 19:47:58.987017 25938 layer_factory.hpp:77] Creating layer pool5/7x7_s1
I0403 19:47:58.987038 25938 net.cpp:91] Creating Layer pool5/7x7_s1
I0403 19:47:58.987059 25938 net.cpp:425] pool5/7x7_s1 <- inception_5b/output
I0403 19:47:58.987087 25938 net.cpp:399] pool5/7x7_s1 -> pool5/7x7_s1
I0403 19:47:58.987376 25938 net.cpp:141] Setting up pool5/7x7_s1
I0403 19:47:58.987407 25938 net.cpp:148] Top shape: 24 1024 1 1 (24576)
I0403 19:47:58.987426 25938 net.cpp:156] Memory required for data: 1345962528
I0403 19:47:58.987444 25938 layer_factory.hpp:77] Creating layer pool5/drop_7x7_s1
I0403 19:47:58.987468 25938 net.cpp:91] Creating Layer pool5/drop_7x7_s1
I0403 19:47:58.987489 25938 net.cpp:425] pool5/drop_7x7_s1 <- pool5/7x7_s1
I0403 19:47:58.987511 25938 net.cpp:386] pool5/drop_7x7_s1 -> pool5/7x7_s1 (in-place)
I0403 19:47:58.987572 25938 net.cpp:141] Setting up pool5/drop_7x7_s1
I0403 19:47:58.987606 25938 net.cpp:148] Top shape: 24 1024 1 1 (24576)
I0403 19:47:58.987624 25938 net.cpp:156] Memory required for data: 1346060832
I0403 19:47:58.987643 25938 layer_factory.hpp:77] Creating layer loss3/classifier_plantvillage
I0403 19:47:58.987665 25938 net.cpp:91] Creating Layer loss3/classifier_plantvillage
I0403 19:47:58.987689 25938 net.cpp:425] loss3/classifier_plantvillage <- pool5/7x7_s1
I0403 19:47:58.987716 25938 net.cpp:399] loss3/classifier_plantvillage -> loss3/classifier_plantvillage
I0403 19:47:58.988243 25938 net.cpp:141] Setting up loss3/classifier_plantvillage
I0403 19:47:58.988282 25938 net.cpp:148] Top shape: 24 38 (912)
I0403 19:47:58.988301 25938 net.cpp:156] Memory required for data: 1346064480
I0403 19:47:58.988324 25938 layer_factory.hpp:77] Creating layer loss3/classifier_plantvillage_loss3/classifier_plantvillage_0_split
I0403 19:47:58.988348 25938 net.cpp:91] Creating Layer loss3/classifier_plantvillage_loss3/classifier_plantvillage_0_split
I0403 19:47:58.988369 25938 net.cpp:425] loss3/classifier_plantvillage_loss3/classifier_plantvillage_0_split <- loss3/classifier_plantvillage
I0403 19:47:58.988392 25938 net.cpp:399] loss3/classifier_plantvillage_loss3/classifier_plantvillage_0_split -> loss3/classifier_plantvillage_loss3/classifier_plantvillage_0_split_0
I0403 19:47:58.988422 25938 net.cpp:399] loss3/classifier_plantvillage_loss3/classifier_plantvillage_0_split -> loss3/classifier_plantvillage_loss3/classifier_plantvillage_0_split_1
I0403 19:47:58.988451 25938 net.cpp:399] loss3/classifier_plantvillage_loss3/classifier_plantvillage_0_split -> loss3/classifier_plantvillage_loss3/classifier_plantvillage_0_split_2
I0403 19:47:58.988478 25938 net.cpp:399] loss3/classifier_plantvillage_loss3/classifier_plantvillage_0_split -> loss3/classifier_plantvillage_loss3/classifier_plantvillage_0_split_3
I0403 19:47:58.988606 25938 net.cpp:141] Setting up loss3/classifier_plantvillage_loss3/classifier_plantvillage_0_split
I0403 19:47:58.988638 25938 net.cpp:148] Top shape: 24 38 (912)
I0403 19:47:58.988658 25938 net.cpp:148] Top shape: 24 38 (912)
I0403 19:47:58.988679 25938 net.cpp:148] Top shape: 24 38 (912)
I0403 19:47:58.988698 25938 net.cpp:148] Top shape: 24 38 (912)
I0403 19:47:58.988715 25938 net.cpp:156] Memory required for data: 1346079072
I0403 19:47:58.988732 25938 layer_factory.hpp:77] Creating layer loss1/loss
I0403 19:47:58.988765 25938 net.cpp:91] Creating Layer loss1/loss
I0403 19:47:58.988790 25938 net.cpp:425] loss1/loss <- loss1/classifier_plantvillage_loss1/classifier_plantvillage_0_split_0
I0403 19:47:58.988826 25938 net.cpp:425] loss1/loss <- label_data_1_split_0
…
