…
I0403 14:57:54.914499  2291 net.cpp:313] The NetState phase (1) differed from the phase (0) specified by a rule in layer data
I0403 14:57:54.915599  2291 net.cpp:49] Initializing net from parameters: 
state {
  phase: TEST
}
layer {
  name: "data"
  type: "Data"
  top: "data"
  top: "label"
  include {
    phase: TEST
  }
  transform_param {
    mirror: false
    crop_size: 224
    mean_file: "/home/mohanty/data/final_dataset/lmdb/grayscale-20-80/mean.binaryproto"
  }
  data_param {
    source: "/home/mohanty/data/final_dataset/lmdb/grayscale-20-80/test_db"
    batch_size: 24
    backend: LMDB
  }
}
layer {
  name: "conv1/7x7_s2"
  type: "Convolution"
  bottom: "data"
  top: "conv1/7x7_s2"
  param {
    lr_mult: 1
    decay_mult: 1
  }
  param {
    lr_mult: 2
    decay_mult: 0
  }
  convolution_param {
    num_output: 64
    pad: 3
    kernel_size: 7
    stride: 2
    weight_filler {
      type: "xavier"
      std: 0.1
    }
    bias_filler {
      type: "constant"
      value: 0.2
    }
  }
}
layer {
  name: "conv1/relu_7x7"
  type: "ReLU"
  bottom: "conv1/7x7_s2"
  top: "conv1/7x7_s2"
}
layer {
  name: "pool1/3x3_s2"
  type: "Pooling"
  bottom: "conv1/7x7_s2"
  top: "pool1/3x3_s2"
  pooling_param {
    pool: MAX
    kernel_size: 3
    stride: 2
  }
}
layer {
  name: "pool1/norm1"
  type: "LRN"
  bottom: "pool1/3x3_s2"
  top: "pool1/norm1"
  lrn_param {
    local_size: 5
    alpha: 0.0001
    beta: 0.75
  }
}
layer {
  name: "conv2/3x3_reduce"
  type: "Convolution"
  bottom: "pool1/norm1"
  top: "conv2/3x3_reduce"
  param {
    lr_mult: 1
    decay_mult: 1
  }
  param {
    lr_mult: 2
    decay_mult: 0
  }
  convolution_param {
    num_output: 64
    kernel_size: 1
    weight_filler {
      type: "xavier"
      std: 0.1
    }
    bias_filler {
      type: "constant"
      value: 0.2
    }
  }
}
layer {
  name: "conv2/relu_3x3_reduce"
  type: "ReLU"
  bottom: "conv2/3x3_reduce"
  top: "conv2/3x3_reduce"
}
layer {
  name: "conv2/3x3"
  type: "Convolution"
  bottom: "conv2/3x3_reduce"
  top: "conv2/3x3"
  param {
    lr_mult: 1
    decay_mult: 1
  }
  param {
    lr_mult: 2
    decay_mult: 0
  }
  convolution_param {
    num_output: 192
    pad: 1
    kernel_size: 3
    weight_filler {
      type: "xavier"
      std: 0.03
    }
    bias_filler {
      type: "constant"
      value: 0.2
    }
  }
}
layer {
  name: "conv2/relu_3x3"
  type: "ReLU"
  bottom: "conv2/3x3"
  top: "conv2/3x3"
}
layer {
  name: "conv2/norm2"
  type: "LRN"
  bottom: "conv2/3x3"
  top: "conv2/norm2"
  lrn_param {
    local_size: 5
    alpha: 0.0001
    beta: 0.75
  }
}
layer {
  name: "pool2/3x3_s2"
  type: "Pooling"
  bottom: "conv2/norm2"
  top: "pool2/3x3_s2"
  pooling_param {
    pool: MAX
    kernel_size: 3
    stride: 2
  }
}
layer {
  name: "inception_3a/1x1"
  type: "Convolution"
  bottom: "pool2/3x3_s2"
  top: "inception_3a/1x1"
  param {
    lr_mult: 1
    decay_mult: 1
  }
  param {
    lr_mult: 2
    decay_mult: 0
  }
  convolution_param {
    num_output: 64
    kernel_size: 1
    weight_filler {
      type: "xavier"
      std: 0.03
    }
    bias_filler {
      type: "constant"
      value: 0.2
    }
  }
}
layer {
  name: "inception_3a/relu_1x1"
  type: "ReLU"
  bottom: "inception_3a/1x1"
  top: "inception_3a/1x1"
}
layer {
  name: "inception_3a/3x3_reduce"
  type: "Convolution"
  bottom: "pool2/3x3_s2"
  top: "inception_3a/3x3_reduce"
  param {
    lr_mult: 1
    decay_mult: 1
  }
  param {
    lr_mult: 2
    decay_mult: 0
  }
  convolution_param {
    num_output: 96
    kernel_size: 1
    weight_filler {
      type: "xavier"
      std: 0.09
    }
    bias_filler {
      type: "constant"
      value: 0.2
    }
  }
}
layer {
  name: "inception_3a/relu_3x3_reduce"
  type: "ReLU"
  bottom: "inception_3a/3x3_reduce"
  top: "inception_3a/3x3_reduce"
}
layer {
  name: "inception_3a/3x3"
  type: "Convolution"
  bottom: "inception_3a/3x3_reduce"
  top: "inception_3a/3x3"
  param {
    lr_mult: 1
    decay_mult: 1
  }
  param {
    lr_mult: 2
    decay_mult: 0
  }
  convolution_param {
    num_output: 128
    pad: 1
    kernel_size: 3
    weight_filler {
      type: "xavier"
      std: 0.03
    }
    bias_filler {
      type: "constant"
      value: 0.2
    }
  }
}
layer {
  name: "inception_3a/relu_3x3"
  type: "ReLU"
  bottom: "inception_3a/3x3"
  top: "inception_3a/3x3"
}
layer {
  name: "inception_3a/5x5_reduce"
  type: "Convolution"
  bottom: "pool2/3x3_s2"
  top: "inception_3a/5x5_reduce"
  param {
    lr_mult: 1
    decay_mult: 1
  }
  param {
    lr_mult: 2
    decay_mult: 0
  }
  convolution_param {
    num_output: 16
    kernel_size: 1
    weight_filler {
      type: "xavier"
      std: 0.2
    }
    bias_filler {
      type: "constant"
      value: 0.2
    }
  }
}
layer {
  name: "inception_3a/relu_5x5_reduce"
  type: "ReLU"
  bottom: "inception_3a/5x5_reduce"
  top: "inception_3a/5x5_reduce"
}
layer {
  name: "inception_3a/5x5"
  type: "Convolution"
  bottom: "inception_3a/5x5_reduce"
  top: "inception_3a/5x5"
  param {
    lr_mult: 1
    decay_mult: 1
  }
  param {
    lr_mult: 2
    decay_mult: 0
  }
  convolution_param {
    num_output: 32
    pad: 2
    kernel_size: 5
    weight_filler {
      type: "xavier"
      std: 0.03
    }
    bias_filler {
      type: "constant"
      value: 0.2
    }
  }
}
layer {
  name: "inception_3a/relu_5x5"
  type: "ReLU"
  bottom: "inception_3a/5x5"
  top: "inception_3a/5x5"
}
layer {
  name: "inception_3a/pool"
  type: "Pooling"
  bottom: "pool2/3x3_s2"
  top: "inception_3a/pool"
  pooling_param {
    pool: MAX
    kernel_size: 3
    stride: 1
    pad: 1
  }
}
layer {
  name: "inception_3a/pool_proj"
  type: "Convolution"
  bottom: "inception_3a/pool"
  top: "inception_3a/pool_proj"
  param {
    lr_mult: 1
    decay_mult: 1
  }
  param {
    lr_mult: 2
    decay_mult: 0
  }
  convolution_param {
    num_output: 32
    kernel_size: 1
    weight_filler {
      type: "xavier"
      std: 0.1
    }
    bias_filler {
      type: "constant"
      value: 0.2
    }
  }
}
layer {
  name: "inception_3a/relu_pool_proj"
  type: "ReLU"
  bottom: "inception_3a/pool_proj"
  top: "inception_3a/pool_proj"
}
layer {
  name: "inception_3a/output"
  type: "Concat"
  bottom: "inception_3a/1x1"
  bottom: "inception_3a/3x3"
  bottom: "inception_3a/5x5"
  bottom: "inception_3a/pool_proj"
  top: "inception_3a/output"
}
layer {
  name: "inception_3b/1x1"
  type: "Convolution"
  bottom: "inception_3a/output"
  top: "inception_3b/1x1"
  param {
    lr_mult: 1
    decay_mult: 1
  }
  param {
    lr_mult: 2
    decay_mult: 0
  }
  convolution_param {
    num_output: 128
    kernel_size: 1
    weight_filler {
      type: "xavier"
      std: 0.03
    }
    bias_filler {
      type: "constant"
      value: 0.2
    }
  }
}
layer {
  name: "inception_3b/relu_1x1"
  type: "ReLU"
  bottom: "inception_3b/1x1"
  top: "inception_3b/1x1"
}
layer {
  name: "inception_3b/3x3_reduce"
  type: "Convolution"
  bottom: "inception_3a/output"
  top: "inception_3b/3x3_reduce"
  param {
    lr_mult: 1
    decay_mult: 1
  }
  param {
    lr_mult: 2
    decay_mult: 0
  }
  convolution_param {
    num_output: 128
    kernel_size: 1
    weight_filler {
      type: "xavier"
      std: 0.09
    }
    bias_filler {
      type: "constant"
      value: 0.2
    }
  }
}
layer {
  name: "inception_3b/relu_3x3_reduce"
  type: "ReLU"
  bottom: "inception_3b/3x3_reduce"
  top: "inception_3b/3x3_reduce"
}
layer {
  name: "inception_3b/3x3"
  type: "Convolution"
  bottom: "inception_3b/3x3_reduce"
  top: "inception_3b/3x3"
  param {
    lr_mult: 1
    decay_mult: 1
  }
  param {
    lr_mult: 2
    decay_mult: 0
  }
  convolution_param {
    num_output: 192
    pad: 1
    kernel_size: 3
    weight_filler {
      type: "xavier"
      std: 0.03
    }
    bias_filler {
      type: "constant"
      value: 0.2
    }
  }
}
layer {
  name: "inception_3b/relu_3x3"
  type: "ReLU"
  bottom: "inception_3b/3x3"
  top: "inception_3b/3x3"
}
layer {
  name: "inception_3b/5x5_reduce"
  type: "Convolution"
  bottom: "inception_3a/output"
  top: "inception_3b/5x5_reduce"
  param {
    lr_mult: 1
    decay_mult: 1
  }
  param {
    lr_mult: 2
    decay_mult: 0
  }
  convolution_param {
    num_output: 32
    kernel_size: 1
    weight_filler {
      type: "xavier"
      std: 0.2
    }
    bias_filler {
      type: "constant"
      value: 0.2
    }
  }
}
layer {
  name: "inception_3b/relu_5x5_reduce"
  type: "ReLU"
  bottom: "inception_3b/5x5_reduce"
  top: "inception_3b/5x5_reduce"
}
layer {
  name: "inception_3b/5x5"
  type: "Convolution"
  bottom: "inception_3b/5x5_reduce"
  top: "inception_3b/5x5"
  param {
    lr_mult: 1
    decay_mult: 1
  }
  param {
    lr_mult: 2
    decay_mult: 0
  }
  convolution_param {
    num_output: 96
    pad: 2
    kernel_size: 5
    weight_filler {
      type: "xavier"
      std: 0.03
    }
    bias_filler {
      type: "constant"
      value: 0.2
    }
  }
}
layer {
  name: "inception_3b/relu_5x5"
  type: "ReLU"
  bottom: "inception_3b/5x5"
  top: "inception_3b/5x5"
}
layer {
  name: "inception_3b/pool"
  type: "Pooling"
  bottom: "inception_3a/output"
  top: "inception_3b/pool"
  pooling_param {
    pool: MAX
    kernel_size: 3
    stride: 1
    pad: 1
  }
}
layer {
  name: "inception_3b/pool_proj"
  type: "Convolution"
  bottom: "inception_3b/pool"
  top: "inception_3b/pool_proj"
  param {
    lr_mult: 1
    decay_mult: 1
  }
  param {
    lr_mult: 2
    decay_mult: 0
  }
  convolution_param {
    num_output: 64
    kernel_size: 1
    weight_filler {
      type: "xavier"
      std: 0.1
    }
    bias_filler {
      type: "constant"
      value: 0.2
    }
  }
}
layer {
  name: "inception_3b/relu_pool_proj"
  type: "ReLU"
  bottom: "inception_3b/pool_proj"
  top: "inception_3b/pool_proj"
}
layer {
  name: "inception_3b/output"
  type: "Concat"
  bottom: "inception_3b/1x1"
  bottom: "inception_3b/3x3"
  bottom: "inception_3b/5x5"
  bottom: "inception_3b/pool_proj"
  top: "inception_3b/output"
}
layer {
  name: "pool3/3x3_s2"
  type: "Pooling"
  bottom: "inception_3b/output"
  top: "pool3/3x3_s2"
  pooling_param {
    pool: MAX
    kernel_size: 3
    stride: 2
  }
}
layer {
  name: "inception_4a/1x1"
  type: "Convolution"
  bottom: "pool3/3x3_s2"
  top: "inception_4a/1x1"
  param {
    lr_mult: 1
    decay_mult: 1
  }
  param {
    lr_mult: 2
    decay_mult: 0
  }
  convolution_param {
    num_output: 192
    kernel_size: 1
    weight_filler {
      type: "xavier"
      std: 0.03
    }
    bias_filler {
      type: "constant"
      value: 0.2
    }
  }
}
layer {
  name: "inception_4a/relu_1x1"
  type: "ReLU"
  bottom: "inception_4a/1x1"
  top: "inception_4a/1x1"
}
layer {
  name: "inception_4a/3x3_reduce"
  type: "Convolution"
  bottom: "pool3/3x3_s2"
  top: "inception_4a/3x3_reduce"
  param {
    lr_mult: 1
    decay_mult: 1
  }
  param {
    lr_mult: 2
    decay_mult: 0
  }
  convolution_param {
    num_output: 96
    kernel_size: 1
    weight_filler {
      type: "xavier"
      std: 0.09
    }
    bias_filler {
      type: "constant"
      value: 0.2
    }
  }
}
layer {
  name: "inception_4a/relu_3x3_reduce"
  type: "ReLU"
  bottom: "inception_4a/3x3_reduce"
  top: "inception_4a/3x3_reduce"
}
layer {
  name: "inception_4a/3x3"
  type: "Convolution"
  bottom: "inception_4a/3x3_reduce"
  top: "inception_4a/3x3"
  param {
    lr_mult: 1
    decay_mult: 1
  }
  param {
    lr_mult: 2
    decay_mult: 0
  }
  convolution_param {
    num_output: 208
    pad: 1
    kernel_size: 3
    weight_filler {
      type: "xavier"
      std: 0.03
    }
    bias_filler {
      type: "constant"
      value: 0.2
    }
  }
}
layer {
  name: "inception_4a/relu_3x3"
  type: "ReLU"
  bottom: "inception_4a/3x3"
  top: "inception_4a/3x3"
}
layer {
  name: "inception_4a/5x5_reduce"
  type: "Convolution"
  bottom: "pool3/3x3_s2"
  top: "inception_4a/5x5_reduce"
  param {
    lr_mult: 1
    decay_mult: 1
  }
  param {
    lr_mult: 2
    decay_mult: 0
  }
  convolution_param {
    num_output: 16
    kernel_size: 1
    weight_filler {
      type: "xavier"
      std: 0.2
    }
    bias_filler {
      type: "constant"
      value: 0.2
    }
  }
}
layer {
  name: "inception_4a/relu_5x5_reduce"
  type: "ReLU"
  bottom: "inception_4a/5x5_reduce"
  top: "inception_4a/5x5_reduce"
}
layer {
  name: "inception_4a/5x5"
  type: "Convolution"
  bottom: "inception_4a/5x5_reduce"
  top: "inception_4a/5x5"
  param {
    lr_mult: 1
    decay_mult: 1
  }
  param {
    lr_mult: 2
    decay_mult: 0
  }
  convolution_param {
    num_output: 48
    pad: 2
    kernel_size: 5
    weight_filler {
      type: "xavier"
      std: 0.03
    }
    bias_filler {
      type: "constant"
      value: 0.2
    }
  }
}
layer {
  name: "inception_4a/relu_5x5"
  type: "ReLU"
  bottom: "inception_4a/5x5"
  top: "inception_4a/5x5"
}
layer {
  name: "inception_4a/pool"
  type: "Pooling"
  bottom: "pool3/3x3_s2"
  top: "inception_4a/pool"
  pooling_param {
    pool: MAX
    kernel_size: 3
    stride: 1
    pad: 1
  }
}
layer {
  name: "inception_4a/pool_proj"
  type: "Convolution"
  bottom: "inception_4a/pool"
  top: "inception_4a/pool_proj"
  param {
    lr_mult: 1
    decay_mult: 1
  }
  param {
    lr_mult: 2
    decay_mult: 0
  }
  convolution_param {
    num_output: 64
    kernel_size: 1
    weight_filler {
      type: "xavier"
      std: 0.1
    }
    bias_filler {
      type: "constant"
      value: 0.2
    }
  }
}
layer {
  name: "inception_4a/relu_pool_proj"
  type: "ReLU"
  bottom: "inception_4a/pool_proj"
  top: "inception_4a/pool_proj"
}
layer {
  name: "inception_4a/output"
  type: "Concat"
  bottom: "inception_4a/1x1"
  bottom: "inception_4a/3x3"
  bottom: "inception_4a/5x5"
  bottom: "inception_4a/pool_proj"
  top: "inception_4a/output"
}
layer {
  name: "loss1/ave_pool"
  type: "Pooling"
  bottom: "inception_4a/output"
  top: "loss1/ave_pool"
  pooling_param {
    pool: AVE
    kernel_size: 5
    stride: 3
  }
}
layer {
  name: "loss1/conv"
  type: "Convolution"
  bottom: "loss1/ave_pool"
  top: "loss1/conv"
  param {
    lr_mult: 1
    decay_mult: 1
  }
  param {
    lr_mult: 2
    decay_mult: 0
  }
  convolution_param {
    num_output: 128
    kernel_size: 1
    weight_filler {
      type: "xavier"
      std: 0.08
    }
    bias_filler {
      type: "constant"
      value: 0.2
    }
  }
}
layer {
  name: "loss1/relu_conv"
  type: "ReLU"
  bottom: "loss1/conv"
  top: "loss1/conv"
}
layer {
  name: "loss1/fc"
  type: "InnerProduct"
  bottom: "loss1/conv"
  top: "loss1/fc"
  param {
    lr_mult: 1
    decay_mult: 1
  }
  param {
    lr_mult: 2
    decay_mult: 0
  }
  inner_product_param {
    num_output: 1024
    weight_filler {
      type: "xavier"
      std: 0.02
    }
    bias_filler {
      type: "constant"
      value: 0.2
    }
  }
}
layer {
  name: "loss1/relu_fc"
  type: "ReLU"
  bottom: "loss1/fc"
  top: "loss1/fc"
}
layer {
  name: "loss1/drop_fc"
  type: "Dropout"
  bottom: "loss1/fc"
  top: "loss1/fc"
  dropout_param {
    dropout_ratio: 0.7
  }
}
layer {
  name: "loss1/classifier_plantvillage"
  type: "InnerProduct"
  bottom: "loss1/fc"
  top: "loss1/classifier_plantvillage"
  param {
    lr_mult: 1
    decay_mult: 1
  }
  param {
    lr_mult: 2
    decay_mult: 0
  }
  inner_product_param {
    num_output: 38
    weight_filler {
      type: "xavier"
      std: 0.0009765625
    }
    bias_filler {
      type: "constant"
      value: 0
    }
  }
}
layer {
  name: "inception_4b/1x1"
  type: "Convolution"
  bottom: "inception_4a/output"
  top: "inception_4b/1x1"
  param {
    lr_mult: 1
    decay_mult: 1
  }
  param {
    lr_mult: 2
    decay_mult: 0
  }
  convolution_param {
    num_output: 160
    kernel_size: 1
    weight_filler {
      type: "xavier"
      std: 0.03
    }
    bias_filler {
      type: "constant"
      value: 0.2
    }
  }
}
layer {
  name: "inception_4b/relu_1x1"
  type: "ReLU"
  bottom: "inception_4b/1x1"
  top: "inception_4b/1x1"
}
layer {
  name: "inception_4b/3x3_reduce"
  type: "Convolution"
  bottom: "inception_4a/output"
  top: "inception_4b/3x3_reduce"
  param {
    lr_mult: 1
    decay_mult: 1
  }
  param {
    lr_mult: 2
    decay_mult: 0
  }
  convolution_param {
    num_output: 112
    kernel_size: 1
    weight_filler {
      type: "xavier"
      std: 0.09
    }
    bias_filler {
      type: "constant"
      value: 0.2
    }
  }
}
layer {
  name: "inception_4b/relu_3x3_reduce"
  type: "ReLU"
  bottom: "inception_4b/3x3_reduce"
  top: "inception_4b/3x3_reduce"
}
layer {
  name: "inception_4b/3x3"
  type: "Convolution"
  bottom: "inception_4b/3x3_reduce"
  top: "inception_4b/3x3"
  param {
    lr_mult: 1
    decay_mult: 1
  }
  param {
    lr_mult: 2
    decay_mult: 0
  }
  convolution_param {
    num_output: 224
    pad: 1
    kernel_size: 3
    weight_filler {
      type: "xavier"
      std: 0.03
    }
    bias_filler {
      type: "constant"
      value: 0.2
    }
  }
}
layer {
  name: "inception_4b/relu_3x3"
  type: "ReLU"
  bottom: "inception_4b/3x3"
  top: "inception_4b/3x3"
}
layer {
  name: "inception_4b/5x5_reduce"
  type: "Convolution"
  bottom: "inception_4a/output"
  top: "inception_4b/5x5_reduce"
  param {
    lr_mult: 1
    decay_mult: 1
  }
  param {
    lr_mult: 2
    decay_mult: 0
  }
  convolution_param {
    num_output: 24
    kernel_size: 1
    weight_filler {
      type: "xavier"
      std: 0.2
    }
    bias_filler {
      type: "constant"
      value: 0.2
    }
  }
}
layer {
  name: "inception_4b/relu_5x5_reduce"
  type: "ReLU"
  bottom: "inception_4b/5x5_reduce"
  top: "inception_4b/5x5_reduce"
}
layer {
  name: "inception_4b/5x5"
  type: "Convolution"
  bottom: "inception_4b/5x5_reduce"
  top: "inception_4b/5x5"
  param {
    lr_mult: 1
    decay_mult: 1
  }
  param {
    lr_mult: 2
    decay_mult: 0
  }
  convolution_param {
    num_output: 64
    pad: 2
    kernel_size: 5
    weight_filler {
      type: "xavier"
      std: 0.03
    }
    bias_filler {
      type: "constant"
      value: 0.2
    }
  }
}
layer {
  name: "inception_4b/relu_5x5"
  type: "ReLU"
  bottom: "inception_4b/5x5"
  top: "inception_4b/5x5"
}
layer {
  name: "inception_4b/pool"
  type: "Pooling"
  bottom: "inception_4a/output"
  top: "inception_4b/pool"
  pooling_param {
    pool: MAX
    kernel_size: 3
    stride: 1
    pad: 1
  }
}
layer {
  name: "inception_4b/pool_proj"
  type: "Convolution"
  bottom: "inception_4b/pool"
  top: "inception_4b/pool_proj"
  param {
    lr_mult: 1
    decay_mult: 1
  }
  param {
    lr_mult: 2
    decay_mult: 0
  }
  convolution_param {
    num_output: 64
    kernel_size: 1
    weight_filler {
      type: "xavier"
      std: 0.1
    }
    bias_filler {
      type: "constant"
      value: 0.2
    }
  }
}
layer {
  name: "inception_4b/relu_pool_proj"
  type: "ReLU"
  bottom: "inception_4b/pool_proj"
  top: "inception_4b/pool_proj"
}
layer {
  name: "inception_4b/output"
  type: "Concat"
  bottom: "inception_4b/1x1"
  bottom: "inception_4b/3x3"
  bottom: "inception_4b/5x5"
  bottom: "inception_4b/pool_proj"
  top: "inception_4b/output"
}
layer {
  name: "inception_4c/1x1"
  type: "Convolution"
  bottom: "inception_4b/output"
  top: "inception_4c/1x1"
  param {
    lr_mult: 1
    decay_mult: 1
  }
  param {
    lr_mult: 2
    decay_mult: 0
  }
  convolution_param {
    num_output: 128
    kernel_size: 1
    weight_filler {
      type: "xavier"
      std: 0.03
    }
    bias_filler {
      type: "constant"
      value: 0.2
    }
  }
}
layer {
  name: "inception_4c/relu_1x1"
  type: "ReLU"
  bottom: "inception_4c/1x1"
  top: "inception_4c/1x1"
}
layer {
  name: "inception_4c/3x3_reduce"
  type: "Convolution"
  bottom: "inception_4b/output"
  top: "inception_4c/3x3_reduce"
  param {
    lr_mult: 1
    decay_mult: 1
  }
  param {
    lr_mult: 2
    decay_mult: 0
  }
  convolution_param {
    num_output: 128
    kernel_size: 1
    weight_filler {
      type: "xavier"
      std: 0.09
    }
    bias_filler {
      type: "constant"
      value: 0.2
    }
  }
}
layer {
  name: "inception_4c/relu_3x3_reduce"
  type: "ReLU"
  bottom: "inception_4c/3x3_reduce"
  top: "inception_4c/3x3_reduce"
}
layer {
  name: "inception_4c/3x3"
  type: "Convolution"
  bottom: "inception_4c/3x3_reduce"
  top: "inception_4c/3x3"
  param {
    lr_mult: 1
    decay_mult: 1
  }
  param {
    lr_mult: 2
    decay_mult: 0
  }
  convolution_param {
    num_output: 256
    pad: 1
    kernel_size: 3
    weight_filler {
      type: "xavier"
      std: 0.03
    }
    bias_filler {
      type: "constant"
      value: 0.2
    }
  }
}
layer {
  name: "inception_4c/relu_3x3"
  type: "ReLU"
  bottom: "inception_4c/3x3"
  top: "inception_4c/3x3"
}
layer {
  name: "inception_4c/5x5_reduce"
  type: "Convolution"
  bottom: "inception_4b/output"
  top: "inception_4c/5x5_reduce"
  param {
    lr_mult: 1
    decay_mult: 1
  }
  param {
    lr_mult: 2
    decay_mult: 0
  }
  convolution_param {
    num_output: 24
    kernel_size: 1
    weight_filler {
      type: "xavier"
      std: 0.2
    }
    bias_filler {
      type: "constant"
      value: 0.2
    }
  }
}
layer {
  name: "inception_4c/relu_5x5_reduce"
  type: "ReLU"
  bottom: "inception_4c/5x5_reduce"
  top: "inception_4c/5x5_reduce"
}
layer {
  name: "inception_4c/5x5"
  type: "Convolution"
  bottom: "inception_4c/5x5_reduce"
  top: "inception_4c/5x5"
  param {
    lr_mult: 1
    decay_mult: 1
  }
  param {
    lr_mult: 2
    decay_mult: 0
  }
  convolution_param {
    num_output: 64
    pad: 2
    kernel_size: 5
    weight_filler {
      type: "xavier"
      std: 0.03
    }
    bias_filler {
      type: "constant"
      value: 0.2
    }
  }
}
layer {
  name: "inception_4c/relu_5x5"
  type: "ReLU"
  bottom: "inception_4c/5x5"
  top: "inception_4c/5x5"
}
layer {
  name: "inception_4c/pool"
  type: "Pooling"
  bottom: "inception_4b/output"
  top: "inception_4c/pool"
  pooling_param {
    pool: MAX
    kernel_size: 3
    stride: 1
    pad: 1
  }
}
layer {
  name: "inception_4c/pool_proj"
  type: "Convolution"
  bottom: "inception_4c/pool"
  top: "inception_4c/pool_proj"
  param {
    lr_mult: 1
    decay_mult: 1
  }
  param {
    lr_mult: 2
    decay_mult: 0
  }
  convolution_param {
    num_output: 64
    kernel_size: 1
    weight_filler {
      type: "xavier"
      std: 0.1
    }
    bias_filler {
      type: "constant"
      value: 0.2
    }
  }
}
layer {
  name: "inception_4c/relu_pool_proj"
  type: "ReLU"
  bottom: "inception_4c/pool_proj"
  top: "inception_4c/pool_proj"
}
layer {
  name: "inception_4c/output"
  type: "Concat"
  bottom: "inception_4c/1x1"
  bottom: "inception_4c/3x3"
  bottom: "inception_4c/5x5"
  bottom: "inception_4c/pool_proj"
  top: "inception_4c/output"
}
layer {
  name: "inception_4d/1x1"
  type: "Convolution"
  bottom: "inception_4c/output"
  top: "inception_4d/1x1"
  param {
    lr_mult: 1
    decay_mult: 1
  }
  param {
    lr_mult: 2
    decay_mult: 0
  }
  convolution_param {
    num_output: 112
    kernel_size: 1
    weight_filler {
      type: "xavier"
      std: 0.03
    }
    bias_filler {
      type: "constant"
      value: 0.2
    }
  }
}
layer {
  name: "inception_4d/relu_1x1"
  type: "ReLU"
  bottom: "inception_4d/1x1"
  top: "inception_4d/1x1"
}
layer {
  name: "inception_4d/3x3_reduce"
  type: "Convolution"
  bottom: "inception_4c/output"
  top: "inception_4d/3x3_reduce"
  param {
    lr_mult: 1
    decay_mult: 1
  }
  param {
    lr_mult: 2
    decay_mult: 0
  }
  convolution_param {
    num_output: 144
    kernel_size: 1
    weight_filler {
      type: "xavier"
      std: 0.09
    }
    bias_filler {
      type: "constant"
      value: 0.2
    }
  }
}
layer {
  name: "inception_4d/relu_3x3_reduce"
  type: "ReLU"
  bottom: "inception_4d/3x3_reduce"
  top: "inception_4d/3x3_reduce"
}
layer {
  name: "inception_4d/3x3"
  type: "Convolution"
  bottom: "inception_4d/3x3_reduce"
  top: "inception_4d/3x3"
  param {
    lr_mult: 1
    decay_mult: 1
  }
  param {
    lr_mult: 2
    decay_mult: 0
  }
  convolution_param {
    num_output: 288
    pad: 1
    kernel_size: 3
    weight_filler {
      type: "xavier"
      std: 0.03
    }
    bias_filler {
      type: "constant"
      value: 0.2
    }
  }
}
layer {
  name: "inception_4d/relu_3x3"
  type: "ReLU"
  bottom: "inception_4d/3x3"
  top: "inception_4d/3x3"
}
layer {
  name: "inception_4d/5x5_reduce"
  type: "Convolution"
  bottom: "inception_4c/output"
  top: "inception_4d/5x5_reduce"
  param {
    lr_mult: 1
    decay_mult: 1
  }
  param {
    lr_mult: 2
    decay_mult: 0
  }
  convolution_param {
    num_output: 32
    kernel_size: 1
    weight_filler {
      type: "xavier"
      std: 0.2
    }
    bias_filler {
      type: "constant"
      value: 0.2
    }
  }
}
layer {
  name: "inception_4d/relu_5x5_reduce"
  type: "ReLU"
  bottom: "inception_4d/5x5_reduce"
  top: "inception_4d/5x5_reduce"
}
layer {
  name: "inception_4d/5x5"
  type: "Convolution"
  bottom: "inception_4d/5x5_reduce"
  top: "inception_4d/5x5"
  param {
    lr_mult: 1
    decay_mult: 1
  }
  param {
    lr_mult: 2
    decay_mult: 0
  }
  convolution_param {
    num_output: 64
    pad: 2
    kernel_size: 5
    weight_filler {
      type: "xavier"
      std: 0.03
    }
    bias_filler {
      type: "constant"
      value: 0.2
    }
  }
}
layer {
  name: "inception_4d/relu_5x5"
  type: "ReLU"
  bottom: "inception_4d/5x5"
  top: "inception_4d/5x5"
}
layer {
  name: "inception_4d/pool"
  type: "Pooling"
  bottom: "inception_4c/output"
  top: "inception_4d/pool"
  pooling_param {
    pool: MAX
    kernel_size: 3
    stride: 1
    pad: 1
  }
}
layer {
  name: "inception_4d/pool_proj"
  type: "Convolution"
  bottom: "inception_4d/pool"
  top: "inception_4d/pool_proj"
  param {
    lr_mult: 1
    decay_mult: 1
  }
  param {
    lr_mult: 2
    decay_mult: 0
  }
  convolution_param {
    num_output: 64
    kernel_size: 1
    weight_filler {
      type: "xavier"
      std: 0.1
    }
    bias_filler {
      type: "constant"
      value: 0.2
    }
  }
}
layer {
  name: "inception_4d/relu_pool_proj"
  type: "ReLU"
  bottom: "inception_4d/pool_proj"
  top: "inception_4d/pool_proj"
}
layer {
  name: "inception_4d/output"
  type: "Concat"
  bottom: "inception_4d/1x1"
  bottom: "inception_4d/3x3"
  bottom: "inception_4d/5x5"
  bottom: "inception_4d/pool_proj"
  top: "inception_4d/output"
}
layer {
  name: "loss2/ave_pool"
  type: "Pooling"
  bottom: "inception_4d/output"
  top: "loss2/ave_pool"
  pooling_param {
    pool: AVE
    kernel_size: 5
    stride: 3
  }
}
layer {
  name: "loss2/conv"
  type: "Convolution"
  bottom: "loss2/ave_pool"
  top: "loss2/conv"
  param {
    lr_mult: 1
    decay_mult: 1
  }
  param {
    lr_mult: 2
    decay_mult: 0
  }
  convolution_param {
    num_output: 128
    kernel_size: 1
    weight_filler {
      type: "xavier"
      std: 0.08
    }
    bias_filler {
      type: "constant"
      value: 0.2
    }
  }
}
layer {
  name: "loss2/relu_conv"
  type: "ReLU"
  bottom: "loss2/conv"
  top: "loss2/conv"
}
layer {
  name: "loss2/fc"
  type: "InnerProduct"
  bottom: "loss2/conv"
  top: "loss2/fc"
  param {
    lr_mult: 1
    decay_mult: 1
  }
  param {
    lr_mult: 2
    decay_mult: 0
  }
  inner_product_param {
    num_output: 1024
    weight_filler {
      type: "xavier"
      std: 0.02
    }
    bias_filler {
      type: "constant"
      value: 0.2
    }
  }
}
layer {
  name: "loss2/relu_fc"
  type: "ReLU"
  bottom: "loss2/fc"
  top: "loss2/fc"
}
layer {
  name: "loss2/drop_fc"
  type: "Dropout"
  bottom: "loss2/fc"
  top: "loss2/fc"
  dropout_param {
    dropout_ratio: 0.7
  }
}
layer {
  name: "loss2/classifier_plantvillage"
  type: "InnerProduct"
  bottom: "loss2/fc"
  top: "loss2/classifier_plantvillage"
  param {
    lr_mult: 1
    decay_mult: 1
  }
  param {
    lr_mult: 2
    decay_mult: 0
  }
  inner_product_param {
    num_output: 38
    weight_filler {
      type: "xavier"
      std: 0.0009765625
    }
    bias_filler {
      type: "constant"
      value: 0
    }
  }
}
layer {
  name: "inception_4e/1x1"
  type: "Convolution"
  bottom: "inception_4d/output"
  top: "inception_4e/1x1"
  param {
    lr_mult: 1
    decay_mult: 1
  }
  param {
    lr_mult: 2
    decay_mult: 0
  }
  convolution_param {
    num_output: 256
    kernel_size: 1
    weight_filler {
      type: "xavier"
      std: 0.03
    }
    bias_filler {
      type: "constant"
      value: 0.2
    }
  }
}
layer {
  name: "inception_4e/relu_1x1"
  type: "ReLU"
  bottom: "inception_4e/1x1"
  top: "inception_4e/1x1"
}
layer {
  name: "inception_4e/3x3_reduce"
  type: "Convolution"
  bottom: "inception_4d/output"
  top: "inception_4e/3x3_reduce"
  param {
    lr_mult: 1
    decay_mult: 1
  }
  param {
    lr_mult: 2
    decay_mult: 0
  }
  convolution_param {
    num_output: 160
    kernel_size: 1
    weight_filler {
      type: "xavier"
      std: 0.09
    }
    bias_filler {
      type: "constant"
      value: 0.2
    }
  }
}
layer {
  name: "inception_4e/relu_3x3_reduce"
  type: "ReLU"
  bottom: "inception_4e/3x3_reduce"
  top: "inception_4e/3x3_reduce"
}
layer {
  name: "inception_4e/3x3"
  type: "Convolution"
  bottom: "inception_4e/3x3_reduce"
  top: "inception_4e/3x3"
  param {
    lr_mult: 1
    decay_mult: 1
  }
  param {
    lr_mult: 2
    decay_mult: 0
  }
  convolution_param {
    num_output: 320
    pad: 1
    kernel_size: 3
    weight_filler {
      type: "xavier"
      std: 0.03
    }
    bias_filler {
      type: "constant"
      value: 0.2
    }
  }
}
layer {
  name: "inception_4e/relu_3x3"
  type: "ReLU"
  bottom: "inception_4e/3x3"
  top: "inception_4e/3x3"
}
layer {
  name: "inception_4e/5x5_reduce"
  type: "Convolution"
  bottom: "inception_4d/output"
  top: "inception_4e/5x5_reduce"
  param {
    lr_mult: 1
    decay_mult: 1
  }
  param {
    lr_mult: 2
    decay_mult: 0
  }
  convolution_param {
    num_output: 32
    kernel_size: 1
    weight_filler {
      type: "xavier"
      std: 0.2
    }
    bias_filler {
      type: "constant"
      value: 0.2
    }
  }
}
layer {
  name: "inception_4e/relu_5x5_reduce"
  type: "ReLU"
  bottom: "inception_4e/5x5_reduce"
  top: "inception_4e/5x5_reduce"
}
layer {
  name: "inception_4e/5x5"
  type: "Convolution"
  bottom: "inception_4e/5x5_reduce"
  top: "inception_4e/
I0403 14:57:54.916800  2291 layer_factory.hpp:77] Creating layer data
I0403 14:57:54.917361  2291 net.cpp:91] Creating Layer data
I0403 14:57:54.917392  2291 net.cpp:399] data -> data
I0403 14:57:54.917439  2291 net.cpp:399] data -> label
I0403 14:57:54.917486  2291 data_transformer.cpp:25] Loading mean file from: /home/mohanty/data/final_dataset/lmdb/grayscale-20-80/mean.binaryproto
I0403 14:57:54.918712  2294 db_lmdb.cpp:38] Opened lmdb /home/mohanty/data/final_dataset/lmdb/grayscale-20-80/test_db
I0403 14:57:54.930312  2291 data_layer.cpp:41] output data size: 24,3,224,224
I0403 14:57:54.956902  2291 net.cpp:141] Setting up data
I0403 14:57:54.956986  2291 net.cpp:148] Top shape: 24 3 224 224 (3612672)
I0403 14:57:54.957010  2291 net.cpp:148] Top shape: 24 (24)
I0403 14:57:54.957026  2291 net.cpp:156] Memory required for data: 14450784
I0403 14:57:54.957054  2291 layer_factory.hpp:77] Creating layer label_data_1_split
I0403 14:57:54.957082  2291 net.cpp:91] Creating Layer label_data_1_split
I0403 14:57:54.957100  2291 net.cpp:425] label_data_1_split <- label
I0403 14:57:54.957131  2291 net.cpp:399] label_data_1_split -> label_data_1_split_0
I0403 14:57:54.957159  2291 net.cpp:399] label_data_1_split -> label_data_1_split_1
I0403 14:57:54.957180  2291 net.cpp:399] label_data_1_split -> label_data_1_split_2
I0403 14:57:54.957201  2291 net.cpp:399] label_data_1_split -> label_data_1_split_3
I0403 14:57:54.957226  2291 net.cpp:399] label_data_1_split -> label_data_1_split_4
I0403 14:57:54.957247  2291 net.cpp:399] label_data_1_split -> label_data_1_split_5
I0403 14:57:54.957267  2291 net.cpp:399] label_data_1_split -> label_data_1_split_6
I0403 14:57:54.957286  2291 net.cpp:399] label_data_1_split -> label_data_1_split_7
I0403 14:57:54.957305  2291 net.cpp:399] label_data_1_split -> label_data_1_split_8
I0403 14:57:54.957325  2291 net.cpp:399] label_data_1_split -> label_data_1_split_9
I0403 14:57:54.957440  2291 net.cpp:141] Setting up label_data_1_split
I0403 14:57:54.957464  2291 net.cpp:148] Top shape: 24 (24)
I0403 14:57:54.957481  2291 net.cpp:148] Top shape: 24 (24)
I0403 14:57:54.957497  2291 net.cpp:148] Top shape: 24 (24)
I0403 14:57:54.957512  2291 net.cpp:148] Top shape: 24 (24)
I0403 14:57:54.957528  2291 net.cpp:148] Top shape: 24 (24)
I0403 14:57:54.957545  2291 net.cpp:148] Top shape: 24 (24)
I0403 14:57:54.957561  2291 net.cpp:148] Top shape: 24 (24)
I0403 14:57:54.957576  2291 net.cpp:148] Top shape: 24 (24)
I0403 14:57:54.957592  2291 net.cpp:148] Top shape: 24 (24)
I0403 14:57:54.957608  2291 net.cpp:148] Top shape: 24 (24)
I0403 14:57:54.957653  2291 net.cpp:156] Memory required for data: 14451744
I0403 14:57:54.957669  2291 layer_factory.hpp:77] Creating layer conv1/7x7_s2
I0403 14:57:54.957700  2291 net.cpp:91] Creating Layer conv1/7x7_s2
I0403 14:57:54.957718  2291 net.cpp:425] conv1/7x7_s2 <- data
I0403 14:57:54.957737  2291 net.cpp:399] conv1/7x7_s2 -> conv1/7x7_s2
I0403 14:57:55.093344  2291 net.cpp:141] Setting up conv1/7x7_s2
I0403 14:57:55.093432  2291 net.cpp:148] Top shape: 24 64 112 112 (19267584)
I0403 14:57:55.093449  2291 net.cpp:156] Memory required for data: 91522080
I0403 14:57:55.093479  2291 layer_factory.hpp:77] Creating layer conv1/relu_7x7
I0403 14:57:55.093507  2291 net.cpp:91] Creating Layer conv1/relu_7x7
I0403 14:57:55.093524  2291 net.cpp:425] conv1/relu_7x7 <- conv1/7x7_s2
I0403 14:57:55.093544  2291 net.cpp:386] conv1/relu_7x7 -> conv1/7x7_s2 (in-place)
I0403 14:57:55.093816  2291 net.cpp:141] Setting up conv1/relu_7x7
I0403 14:57:55.093843  2291 net.cpp:148] Top shape: 24 64 112 112 (19267584)
I0403 14:57:55.093859  2291 net.cpp:156] Memory required for data: 168592416
I0403 14:57:55.093874  2291 layer_factory.hpp:77] Creating layer pool1/3x3_s2
I0403 14:57:55.093899  2291 net.cpp:91] Creating Layer pool1/3x3_s2
I0403 14:57:55.093916  2291 net.cpp:425] pool1/3x3_s2 <- conv1/7x7_s2
I0403 14:57:55.093935  2291 net.cpp:399] pool1/3x3_s2 -> pool1/3x3_s2
I0403 14:57:55.094003  2291 net.cpp:141] Setting up pool1/3x3_s2
I0403 14:57:55.094027  2291 net.cpp:148] Top shape: 24 64 56 56 (4816896)
I0403 14:57:55.094041  2291 net.cpp:156] Memory required for data: 187860000
I0403 14:57:55.094056  2291 layer_factory.hpp:77] Creating layer pool1/norm1
I0403 14:57:55.094079  2291 net.cpp:91] Creating Layer pool1/norm1
I0403 14:57:55.094096  2291 net.cpp:425] pool1/norm1 <- pool1/3x3_s2
I0403 14:57:55.094113  2291 net.cpp:399] pool1/norm1 -> pool1/norm1
I0403 14:57:55.094393  2291 net.cpp:141] Setting up pool1/norm1
I0403 14:57:55.094419  2291 net.cpp:148] Top shape: 24 64 56 56 (4816896)
I0403 14:57:55.094435  2291 net.cpp:156] Memory required for data: 207127584
I0403 14:57:55.094451  2291 layer_factory.hpp:77] Creating layer conv2/3x3_reduce
I0403 14:57:55.094475  2291 net.cpp:91] Creating Layer conv2/3x3_reduce
I0403 14:57:55.094492  2291 net.cpp:425] conv2/3x3_reduce <- pool1/norm1
I0403 14:57:55.094511  2291 net.cpp:399] conv2/3x3_reduce -> conv2/3x3_reduce
I0403 14:57:55.095880  2291 net.cpp:141] Setting up conv2/3x3_reduce
I0403 14:57:55.095907  2291 net.cpp:148] Top shape: 24 64 56 56 (4816896)
I0403 14:57:55.095923  2291 net.cpp:156] Memory required for data: 226395168
I0403 14:57:55.095944  2291 layer_factory.hpp:77] Creating layer conv2/relu_3x3_reduce
I0403 14:57:55.095963  2291 net.cpp:91] Creating Layer conv2/relu_3x3_reduce
I0403 14:57:55.095978  2291 net.cpp:425] conv2/relu_3x3_reduce <- conv2/3x3_reduce
I0403 14:57:55.095998  2291 net.cpp:386] conv2/relu_3x3_reduce -> conv2/3x3_reduce (in-place)
I0403 14:57:55.096271  2291 net.cpp:141] Setting up conv2/relu_3x3_reduce
I0403 14:57:55.096297  2291 net.cpp:148] Top shape: 24 64 56 56 (4816896)
I0403 14:57:55.096312  2291 net.cpp:156] Memory required for data: 245662752
I0403 14:57:55.096326  2291 layer_factory.hpp:77] Creating layer conv2/3x3
I0403 14:57:55.096349  2291 net.cpp:91] Creating Layer conv2/3x3
I0403 14:57:55.096367  2291 net.cpp:425] conv2/3x3 <- conv2/3x3_reduce
I0403 14:57:55.096388  2291 net.cpp:399] conv2/3x3 -> conv2/3x3
I0403 14:57:55.098700  2291 net.cpp:141] Setting up conv2/3x3
I0403 14:57:55.098731  2291 net.cpp:148] Top shape: 24 192 56 56 (14450688)
I0403 14:57:55.098747  2291 net.cpp:156] Memory required for data: 303465504
I0403 14:57:55.098770  2291 layer_factory.hpp:77] Creating layer conv2/relu_3x3
I0403 14:57:55.098790  2291 net.cpp:91] Creating Layer conv2/relu_3x3
I0403 14:57:55.098808  2291 net.cpp:425] conv2/relu_3x3 <- conv2/3x3
I0403 14:57:55.098827  2291 net.cpp:386] conv2/relu_3x3 -> conv2/3x3 (in-place)
I0403 14:57:55.098999  2291 net.cpp:141] Setting up conv2/relu_3x3
I0403 14:57:55.099027  2291 net.cpp:148] Top shape: 24 192 56 56 (14450688)
I0403 14:57:55.099076  2291 net.cpp:156] Memory required for data: 361268256
I0403 14:57:55.099092  2291 layer_factory.hpp:77] Creating layer conv2/norm2
I0403 14:57:55.099112  2291 net.cpp:91] Creating Layer conv2/norm2
I0403 14:57:55.099128  2291 net.cpp:425] conv2/norm2 <- conv2/3x3
I0403 14:57:55.099148  2291 net.cpp:399] conv2/norm2 -> conv2/norm2
I0403 14:57:55.099457  2291 net.cpp:141] Setting up conv2/norm2
I0403 14:57:55.099484  2291 net.cpp:148] Top shape: 24 192 56 56 (14450688)
I0403 14:57:55.099500  2291 net.cpp:156] Memory required for data: 419071008
I0403 14:57:55.099516  2291 layer_factory.hpp:77] Creating layer pool2/3x3_s2
I0403 14:57:55.099534  2291 net.cpp:91] Creating Layer pool2/3x3_s2
I0403 14:57:55.099550  2291 net.cpp:425] pool2/3x3_s2 <- conv2/norm2
I0403 14:57:55.099570  2291 net.cpp:399] pool2/3x3_s2 -> pool2/3x3_s2
I0403 14:57:55.099622  2291 net.cpp:141] Setting up pool2/3x3_s2
I0403 14:57:55.099647  2291 net.cpp:148] Top shape: 24 192 28 28 (3612672)
I0403 14:57:55.099661  2291 net.cpp:156] Memory required for data: 433521696
I0403 14:57:55.099678  2291 layer_factory.hpp:77] Creating layer pool2/3x3_s2_pool2/3x3_s2_0_split
I0403 14:57:55.099697  2291 net.cpp:91] Creating Layer pool2/3x3_s2_pool2/3x3_s2_0_split
I0403 14:57:55.099714  2291 net.cpp:425] pool2/3x3_s2_pool2/3x3_s2_0_split <- pool2/3x3_s2
I0403 14:57:55.099731  2291 net.cpp:399] pool2/3x3_s2_pool2/3x3_s2_0_split -> pool2/3x3_s2_pool2/3x3_s2_0_split_0
I0403 14:57:55.099753  2291 net.cpp:399] pool2/3x3_s2_pool2/3x3_s2_0_split -> pool2/3x3_s2_pool2/3x3_s2_0_split_1
I0403 14:57:55.099774  2291 net.cpp:399] pool2/3x3_s2_pool2/3x3_s2_0_split -> pool2/3x3_s2_pool2/3x3_s2_0_split_2
I0403 14:57:55.099795  2291 net.cpp:399] pool2/3x3_s2_pool2/3x3_s2_0_split -> pool2/3x3_s2_pool2/3x3_s2_0_split_3
I0403 14:57:55.099864  2291 net.cpp:141] Setting up pool2/3x3_s2_pool2/3x3_s2_0_split
I0403 14:57:55.099885  2291 net.cpp:148] Top shape: 24 192 28 28 (3612672)
I0403 14:57:55.099901  2291 net.cpp:148] Top shape: 24 192 28 28 (3612672)
I0403 14:57:55.099917  2291 net.cpp:148] Top shape: 24 192 28 28 (3612672)
I0403 14:57:55.099932  2291 net.cpp:148] Top shape: 24 192 28 28 (3612672)
I0403 14:57:55.099946  2291 net.cpp:156] Memory required for data: 491324448
I0403 14:57:55.099961  2291 layer_factory.hpp:77] Creating layer inception_3a/1x1
I0403 14:57:55.099983  2291 net.cpp:91] Creating Layer inception_3a/1x1
I0403 14:57:55.099999  2291 net.cpp:425] inception_3a/1x1 <- pool2/3x3_s2_pool2/3x3_s2_0_split_0
I0403 14:57:55.100020  2291 net.cpp:399] inception_3a/1x1 -> inception_3a/1x1
I0403 14:57:55.101495  2291 net.cpp:141] Setting up inception_3a/1x1
I0403 14:57:55.101522  2291 net.cpp:148] Top shape: 24 64 28 28 (1204224)
I0403 14:57:55.101538  2291 net.cpp:156] Memory required for data: 496141344
I0403 14:57:55.101557  2291 layer_factory.hpp:77] Creating layer inception_3a/relu_1x1
I0403 14:57:55.101573  2291 net.cpp:91] Creating Layer inception_3a/relu_1x1
I0403 14:57:55.101591  2291 net.cpp:425] inception_3a/relu_1x1 <- inception_3a/1x1
I0403 14:57:55.101609  2291 net.cpp:386] inception_3a/relu_1x1 -> inception_3a/1x1 (in-place)
I0403 14:57:55.101776  2291 net.cpp:141] Setting up inception_3a/relu_1x1
I0403 14:57:55.101800  2291 net.cpp:148] Top shape: 24 64 28 28 (1204224)
I0403 14:57:55.101814  2291 net.cpp:156] Memory required for data: 500958240
I0403 14:57:55.101829  2291 layer_factory.hpp:77] Creating layer inception_3a/3x3_reduce
I0403 14:57:55.101850  2291 net.cpp:91] Creating Layer inception_3a/3x3_reduce
I0403 14:57:55.101866  2291 net.cpp:425] inception_3a/3x3_reduce <- pool2/3x3_s2_pool2/3x3_s2_0_split_1
I0403 14:57:55.101886  2291 net.cpp:399] inception_3a/3x3_reduce -> inception_3a/3x3_reduce
I0403 14:57:55.103497  2291 net.cpp:141] Setting up inception_3a/3x3_reduce
I0403 14:57:55.103525  2291 net.cpp:148] Top shape: 24 96 28 28 (1806336)
I0403 14:57:55.103540  2291 net.cpp:156] Memory required for data: 508183584
I0403 14:57:55.103561  2291 layer_factory.hpp:77] Creating layer inception_3a/relu_3x3_reduce
I0403 14:57:55.103596  2291 net.cpp:91] Creating Layer inception_3a/relu_3x3_reduce
I0403 14:57:55.103615  2291 net.cpp:425] inception_3a/relu_3x3_reduce <- inception_3a/3x3_reduce
I0403 14:57:55.103631  2291 net.cpp:386] inception_3a/relu_3x3_reduce -> inception_3a/3x3_reduce (in-place)
I0403 14:57:55.103801  2291 net.cpp:141] Setting up inception_3a/relu_3x3_reduce
I0403 14:57:55.103826  2291 net.cpp:148] Top shape: 24 96 28 28 (1806336)
I0403 14:57:55.103839  2291 net.cpp:156] Memory required for data: 515408928
I0403 14:57:55.103852  2291 layer_factory.hpp:77] Creating layer inception_3a/3x3
I0403 14:57:55.103874  2291 net.cpp:91] Creating Layer inception_3a/3x3
I0403 14:57:55.103890  2291 net.cpp:425] inception_3a/3x3 <- inception_3a/3x3_reduce
I0403 14:57:55.103912  2291 net.cpp:399] inception_3a/3x3 -> inception_3a/3x3
I0403 14:57:55.105463  2291 net.cpp:141] Setting up inception_3a/3x3
I0403 14:57:55.105489  2291 net.cpp:148] Top shape: 24 128 28 28 (2408448)
I0403 14:57:55.105504  2291 net.cpp:156] Memory required for data: 525042720
I0403 14:57:55.105521  2291 layer_factory.hpp:77] Creating layer inception_3a/relu_3x3
I0403 14:57:55.105540  2291 net.cpp:91] Creating Layer inception_3a/relu_3x3
I0403 14:57:55.105556  2291 net.cpp:425] inception_3a/relu_3x3 <- inception_3a/3x3
I0403 14:57:55.105573  2291 net.cpp:386] inception_3a/relu_3x3 -> inception_3a/3x3 (in-place)
I0403 14:57:55.105834  2291 net.cpp:141] Setting up inception_3a/relu_3x3
I0403 14:57:55.105859  2291 net.cpp:148] Top shape: 24 128 28 28 (2408448)
I0403 14:57:55.105875  2291 net.cpp:156] Memory required for data: 534676512
I0403 14:57:55.105888  2291 layer_factory.hpp:77] Creating layer inception_3a/5x5_reduce
I0403 14:57:55.105911  2291 net.cpp:91] Creating Layer inception_3a/5x5_reduce
I0403 14:57:55.105927  2291 net.cpp:425] inception_3a/5x5_reduce <- pool2/3x3_s2_pool2/3x3_s2_0_split_2
I0403 14:57:55.105947  2291 net.cpp:399] inception_3a/5x5_reduce -> inception_3a/5x5_reduce
I0403 14:57:55.106853  2291 net.cpp:141] Setting up inception_3a/5x5_reduce
I0403 14:57:55.106878  2291 net.cpp:148] Top shape: 24 16 28 28 (301056)
I0403 14:57:55.106894  2291 net.cpp:156] Memory required for data: 535880736
I0403 14:57:55.106910  2291 layer_factory.hpp:77] Creating layer inception_3a/relu_5x5_reduce
I0403 14:57:55.106930  2291 net.cpp:91] Creating Layer inception_3a/relu_5x5_reduce
I0403 14:57:55.106947  2291 net.cpp:425] inception_3a/relu_5x5_reduce <- inception_3a/5x5_reduce
I0403 14:57:55.106964  2291 net.cpp:386] inception_3a/relu_5x5_reduce -> inception_3a/5x5_reduce (in-place)
I0403 14:57:55.107247  2291 net.cpp:141] Setting up inception_3a/relu_5x5_reduce
I0403 14:57:55.107275  2291 net.cpp:148] Top shape: 24 16 28 28 (301056)
I0403 14:57:55.107290  2291 net.cpp:156] Memory required for data: 537084960
I0403 14:57:55.107305  2291 layer_factory.hpp:77] Creating layer inception_3a/5x5
I0403 14:57:55.107326  2291 net.cpp:91] Creating Layer inception_3a/5x5
I0403 14:57:55.107342  2291 net.cpp:425] inception_3a/5x5 <- inception_3a/5x5_reduce
I0403 14:57:55.107360  2291 net.cpp:399] inception_3a/5x5 -> inception_3a/5x5
I0403 14:57:55.108319  2291 net.cpp:141] Setting up inception_3a/5x5
I0403 14:57:55.108345  2291 net.cpp:148] Top shape: 24 32 28 28 (602112)
I0403 14:57:55.108360  2291 net.cpp:156] Memory required for data: 539493408
I0403 14:57:55.108377  2291 layer_factory.hpp:77] Creating layer inception_3a/relu_5x5
I0403 14:57:55.108397  2291 net.cpp:91] Creating Layer inception_3a/relu_5x5
I0403 14:57:55.108412  2291 net.cpp:425] inception_3a/relu_5x5 <- inception_3a/5x5
I0403 14:57:55.108429  2291 net.cpp:386] inception_3a/relu_5x5 -> inception_3a/5x5 (in-place)
I0403 14:57:55.108592  2291 net.cpp:141] Setting up inception_3a/relu_5x5
I0403 14:57:55.108615  2291 net.cpp:148] Top shape: 24 32 28 28 (602112)
I0403 14:57:55.108629  2291 net.cpp:156] Memory required for data: 541901856
I0403 14:57:55.108644  2291 layer_factory.hpp:77] Creating layer inception_3a/pool
I0403 14:57:55.108664  2291 net.cpp:91] Creating Layer inception_3a/pool
I0403 14:57:55.108692  2291 net.cpp:425] inception_3a/pool <- pool2/3x3_s2_pool2/3x3_s2_0_split_3
I0403 14:57:55.108711  2291 net.cpp:399] inception_3a/pool -> inception_3a/pool
I0403 14:57:55.108765  2291 net.cpp:141] Setting up inception_3a/pool
I0403 14:57:55.108788  2291 net.cpp:148] Top shape: 24 192 28 28 (3612672)
I0403 14:57:55.108801  2291 net.cpp:156] Memory required for data: 556352544
I0403 14:57:55.108815  2291 layer_factory.hpp:77] Creating layer inception_3a/pool_proj
I0403 14:57:55.108837  2291 net.cpp:91] Creating Layer inception_3a/pool_proj
I0403 14:57:55.108853  2291 net.cpp:425] inception_3a/pool_proj <- inception_3a/pool
I0403 14:57:55.108875  2291 net.cpp:399] inception_3a/pool_proj -> inception_3a/pool_proj
I0403 14:57:55.109786  2291 net.cpp:141] Setting up inception_3a/pool_proj
I0403 14:57:55.109813  2291 net.cpp:148] Top shape: 24 32 28 28 (602112)
I0403 14:57:55.109828  2291 net.cpp:156] Memory required for data: 558760992
I0403 14:57:55.109849  2291 layer_factory.hpp:77] Creating layer inception_3a/relu_pool_proj
I0403 14:57:55.109870  2291 net.cpp:91] Creating Layer inception_3a/relu_pool_proj
I0403 14:57:55.109886  2291 net.cpp:425] inception_3a/relu_pool_proj <- inception_3a/pool_proj
I0403 14:57:55.109904  2291 net.cpp:386] inception_3a/relu_pool_proj -> inception_3a/pool_proj (in-place)
I0403 14:57:55.110165  2291 net.cpp:141] Setting up inception_3a/relu_pool_proj
I0403 14:57:55.110190  2291 net.cpp:148] Top shape: 24 32 28 28 (602112)
I0403 14:57:55.110205  2291 net.cpp:156] Memory required for data: 561169440
I0403 14:57:55.110225  2291 layer_factory.hpp:77] Creating layer inception_3a/output
I0403 14:57:55.110242  2291 net.cpp:91] Creating Layer inception_3a/output
I0403 14:57:55.110261  2291 net.cpp:425] inception_3a/output <- inception_3a/1x1
I0403 14:57:55.110277  2291 net.cpp:425] inception_3a/output <- inception_3a/3x3
I0403 14:57:55.110293  2291 net.cpp:425] inception_3a/output <- inception_3a/5x5
I0403 14:57:55.110309  2291 net.cpp:425] inception_3a/output <- inception_3a/pool_proj
I0403 14:57:55.110327  2291 net.cpp:399] inception_3a/output -> inception_3a/output
I0403 14:57:55.110368  2291 net.cpp:141] Setting up inception_3a/output
I0403 14:57:55.110393  2291 net.cpp:148] Top shape: 24 256 28 28 (4816896)
I0403 14:57:55.110407  2291 net.cpp:156] Memory required for data: 580437024
I0403 14:57:55.110422  2291 layer_factory.hpp:77] Creating layer inception_3a/output_inception_3a/output_0_split
I0403 14:57:55.110438  2291 net.cpp:91] Creating Layer inception_3a/output_inception_3a/output_0_split
I0403 14:57:55.110453  2291 net.cpp:425] inception_3a/output_inception_3a/output_0_split <- inception_3a/output
I0403 14:57:55.110472  2291 net.cpp:399] inception_3a/output_inception_3a/output_0_split -> inception_3a/output_inception_3a/output_0_split_0
I0403 14:57:55.110492  2291 net.cpp:399] inception_3a/output_inception_3a/output_0_split -> inception_3a/output_inception_3a/output_0_split_1
I0403 14:57:55.110513  2291 net.cpp:399] inception_3a/output_inception_3a/output_0_split -> inception_3a/output_inception_3a/output_0_split_2
I0403 14:57:55.110533  2291 net.cpp:399] inception_3a/output_inception_3a/output_0_split -> inception_3a/output_inception_3a/output_0_split_3
I0403 14:57:55.110604  2291 net.cpp:141] Setting up inception_3a/output_inception_3a/output_0_split
I0403 14:57:55.110625  2291 net.cpp:148] Top shape: 24 256 28 28 (4816896)
I0403 14:57:55.110641  2291 net.cpp:148] Top shape: 24 256 28 28 (4816896)
I0403 14:57:55.110656  2291 net.cpp:148] Top shape: 24 256 28 28 (4816896)
I0403 14:57:55.110671  2291 net.cpp:148] Top shape: 24 256 28 28 (4816896)
I0403 14:57:55.110684  2291 net.cpp:156] Memory required for data: 657507360
I0403 14:57:55.110697  2291 layer_factory.hpp:77] Creating layer inception_3b/1x1
I0403 14:57:55.110719  2291 net.cpp:91] Creating Layer inception_3b/1x1
I0403 14:57:55.110735  2291 net.cpp:425] inception_3b/1x1 <- inception_3a/output_inception_3a/output_0_split_0
I0403 14:57:55.110759  2291 net.cpp:399] inception_3b/1x1 -> inception_3b/1x1
I0403 14:57:55.111832  2291 net.cpp:141] Setting up inception_3b/1x1
I0403 14:57:55.111870  2291 net.cpp:148] Top shape: 24 128 28 28 (2408448)
I0403 14:57:55.111886  2291 net.cpp:156] Memory required for data: 667141152
I0403 14:57:55.111903  2291 layer_factory.hpp:77] Creating layer inception_3b/relu_1x1
I0403 14:57:55.111920  2291 net.cpp:91] Creating Layer inception_3b/relu_1x1
I0403 14:57:55.111934  2291 net.cpp:425] inception_3b/relu_1x1 <- inception_3b/1x1
I0403 14:57:55.111953  2291 net.cpp:386] inception_3b/relu_1x1 -> inception_3b/1x1 (in-place)
I0403 14:57:55.112118  2291 net.cpp:141] Setting up inception_3b/relu_1x1
I0403 14:57:55.112143  2291 net.cpp:148] Top shape: 24 128 28 28 (2408448)
I0403 14:57:55.112157  2291 net.cpp:156] Memory required for data: 676774944
I0403 14:57:55.112172  2291 layer_factory.hpp:77] Creating layer inception_3b/3x3_reduce
I0403 14:57:55.112195  2291 net.cpp:91] Creating Layer inception_3b/3x3_reduce
I0403 14:57:55.112223  2291 net.cpp:425] inception_3b/3x3_reduce <- inception_3a/output_inception_3a/output_0_split_1
I0403 14:57:55.112252  2291 net.cpp:399] inception_3b/3x3_reduce -> inception_3b/3x3_reduce
I0403 14:57:55.113348  2291 net.cpp:141] Setting up inception_3b/3x3_reduce
I0403 14:57:55.113376  2291 net.cpp:148] Top shape: 24 128 28 28 (2408448)
I0403 14:57:55.113391  2291 net.cpp:156] Memory required for data: 686408736
I0403 14:57:55.113409  2291 layer_factory.hpp:77] Creating layer inception_3b/relu_3x3_reduce
I0403 14:57:55.113426  2291 net.cpp:91] Creating Layer inception_3b/relu_3x3_reduce
I0403 14:57:55.113442  2291 net.cpp:425] inception_3b/relu_3x3_reduce <- inception_3b/3x3_reduce
I0403 14:57:55.113461  2291 net.cpp:386] inception_3b/relu_3x3_reduce -> inception_3b/3x3_reduce (in-place)
I0403 14:57:55.113622  2291 net.cpp:141] Setting up inception_3b/relu_3x3_reduce
I0403 14:57:55.113646  2291 net.cpp:148] Top shape: 24 128 28 28 (2408448)
I0403 14:57:55.113661  2291 net.cpp:156] Memory required for data: 696042528
I0403 14:57:55.113673  2291 layer_factory.hpp:77] Creating layer inception_3b/3x3
I0403 14:57:55.113698  2291 net.cpp:91] Creating Layer inception_3b/3x3
I0403 14:57:55.113715  2291 net.cpp:425] inception_3b/3x3 <- inception_3b/3x3_reduce
I0403 14:57:55.113734  2291 net.cpp:399] inception_3b/3x3 -> inception_3b/3x3
I0403 14:57:55.116510  2291 net.cpp:141] Setting up inception_3b/3x3
I0403 14:57:55.116538  2291 net.cpp:148] Top shape: 24 192 28 28 (3612672)
I0403 14:57:55.116552  2291 net.cpp:156] Memory required for data: 710493216
I0403 14:57:55.116570  2291 layer_factory.hpp:77] Creating layer inception_3b/relu_3x3
I0403 14:57:55.116590  2291 net.cpp:91] Creating Layer inception_3b/relu_3x3
I0403 14:57:55.116605  2291 net.cpp:425] inception_3b/relu_3x3 <- inception_3b/3x3
I0403 14:57:55.116622  2291 net.cpp:386] inception_3b/relu_3x3 -> inception_3b/3x3 (in-place)
I0403 14:57:55.116880  2291 net.cpp:141] Setting up inception_3b/relu_3x3
I0403 14:57:55.116905  2291 net.cpp:148] Top shape: 24 192 28 28 (3612672)
I0403 14:57:55.116919  2291 net.cpp:156] Memory required for data: 724943904
I0403 14:57:55.116933  2291 layer_factory.hpp:77] Creating layer inception_3b/5x5_reduce
I0403 14:57:55.116955  2291 net.cpp:91] Creating Layer inception_3b/5x5_reduce
I0403 14:57:55.116972  2291 net.cpp:425] inception_3b/5x5_reduce <- inception_3a/output_inception_3a/output_0_split_2
I0403 14:57:55.116993  2291 net.cpp:399] inception_3b/5x5_reduce -> inception_3b/5x5_reduce
I0403 14:57:55.117960  2291 net.cpp:141] Setting up inception_3b/5x5_reduce
I0403 14:57:55.117987  2291 net.cpp:148] Top shape: 24 32 28 28 (602112)
I0403 14:57:55.118002  2291 net.cpp:156] Memory required for data: 727352352
I0403 14:57:55.118019  2291 layer_factory.hpp:77] Creating layer inception_3b/relu_5x5_reduce
I0403 14:57:55.118038  2291 net.cpp:91] Creating Layer inception_3b/relu_5x5_reduce
I0403 14:57:55.118055  2291 net.cpp:425] inception_3b/relu_5x5_reduce <- inception_3b/5x5_reduce
I0403 14:57:55.118072  2291 net.cpp:386] inception_3b/relu_5x5_reduce -> inception_3b/5x5_reduce (in-place)
I0403 14:57:55.118260  2291 net.cpp:141] Setting up inception_3b/relu_5x5_reduce
I0403 14:57:55.118284  2291 net.cpp:148] Top shape: 24 32 28 28 (602112)
I0403 14:57:55.118299  2291 net.cpp:156] Memory required for data: 729760800
I0403 14:57:55.118314  2291 layer_factory.hpp:77] Creating layer inception_3b/5x5
I0403 14:57:55.118335  2291 net.cpp:91] Creating Layer inception_3b/5x5
I0403 14:57:55.118352  2291 net.cpp:425] inception_3b/5x5 <- inception_3b/5x5_reduce
I0403 14:57:55.118371  2291 net.cpp:399] inception_3b/5x5 -> inception_3b/5x5
I0403 14:57:55.120256  2291 net.cpp:141] Setting up inception_3b/5x5
I0403 14:57:55.120285  2291 net.cpp:148] Top shape: 24 96 28 28 (1806336)
I0403 14:57:55.120301  2291 net.cpp:156] Memory required for data: 736986144
I0403 14:57:55.120319  2291 layer_factory.hpp:77] Creating layer inception_3b/relu_5x5
I0403 14:57:55.120337  2291 net.cpp:91] Creating Layer inception_3b/relu_5x5
I0403 14:57:55.120352  2291 net.cpp:425] inception_3b/relu_5x5 <- inception_3b/5x5
I0403 14:57:55.120370  2291 net.cpp:386] inception_3b/relu_5x5 -> inception_3b/5x5 (in-place)
I0403 14:57:55.120548  2291 net.cpp:141] Setting up inception_3b/relu_5x5
I0403 14:57:55.120573  2291 net.cpp:148] Top shape: 24 96 28 28 (1806336)
I0403 14:57:55.120587  2291 net.cpp:156] Memory required for data: 744211488
I0403 14:57:55.120601  2291 layer_factory.hpp:77] Creating layer inception_3b/pool
I0403 14:57:55.120618  2291 net.cpp:91] Creating Layer inception_3b/pool
I0403 14:57:55.120633  2291 net.cpp:425] inception_3b/pool <- inception_3a/output_inception_3a/output_0_split_3
I0403 14:57:55.120651  2291 net.cpp:399] inception_3b/pool -> inception_3b/pool
I0403 14:57:55.120707  2291 net.cpp:141] Setting up inception_3b/pool
I0403 14:57:55.120728  2291 net.cpp:148] Top shape: 24 256 28 28 (4816896)
I0403 14:57:55.120743  2291 net.cpp:156] Memory required for data: 763479072
I0403 14:57:55.120756  2291 layer_factory.hpp:77] Creating layer inception_3b/pool_proj
I0403 14:57:55.120777  2291 net.cpp:91] Creating Layer inception_3b/pool_proj
I0403 14:57:55.120795  2291 net.cpp:425] inception_3b/pool_proj <- inception_3b/pool
I0403 14:57:55.120816  2291 net.cpp:399] inception_3b/pool_proj -> inception_3b/pool_proj
I0403 14:57:55.121812  2291 net.cpp:141] Setting up inception_3b/pool_proj
I0403 14:57:55.121839  2291 net.cpp:148] Top shape: 24 64 28 28 (1204224)
I0403 14:57:55.121853  2291 net.cpp:156] Memory required for data: 768295968
I0403 14:57:55.121871  2291 layer_factory.hpp:77] Creating layer inception_3b/relu_pool_proj
I0403 14:57:55.121891  2291 net.cpp:91] Creating Layer inception_3b/relu_pool_proj
I0403 14:57:55.121906  2291 net.cpp:425] inception_3b/relu_pool_proj <- inception_3b/pool_proj
I0403 14:57:55.121923  2291 net.cpp:386] inception_3b/relu_pool_proj -> inception_3b/pool_proj (in-place)
I0403 14:57:55.122300  2291 net.cpp:141] Setting up inception_3b/relu_pool_proj
I0403 14:57:55.122325  2291 net.cpp:148] Top shape: 24 64 28 28 (1204224)
I0403 14:57:55.122339  2291 net.cpp:156] Memory required for data: 773112864
I0403 14:57:55.122354  2291 layer_factory.hpp:77] Creating layer inception_3b/output
I0403 14:57:55.122373  2291 net.cpp:91] Creating Layer inception_3b/output
I0403 14:57:55.122388  2291 net.cpp:425] inception_3b/output <- inception_3b/1x1
I0403 14:57:55.122405  2291 net.cpp:425] inception_3b/output <- inception_3b/3x3
I0403 14:57:55.122419  2291 net.cpp:425] inception_3b/output <- inception_3b/5x5
I0403 14:57:55.122436  2291 net.cpp:425] inception_3b/output <- inception_3b/pool_proj
I0403 14:57:55.122452  2291 net.cpp:399] inception_3b/output -> inception_3b/output
I0403 14:57:55.122506  2291 net.cpp:141] Setting up inception_3b/output
I0403 14:57:55.122529  2291 net.cpp:148] Top shape: 24 480 28 28 (9031680)
I0403 14:57:55.122545  2291 net.cpp:156] Memory required for data: 809239584
I0403 14:57:55.122560  2291 layer_factory.hpp:77] Creating layer pool3/3x3_s2
I0403 14:57:55.122576  2291 net.cpp:91] Creating Layer pool3/3x3_s2
I0403 14:57:55.122591  2291 net.cpp:425] pool3/3x3_s2 <- inception_3b/output
I0403 14:57:55.122625  2291 net.cpp:399] pool3/3x3_s2 -> pool3/3x3_s2
I0403 14:57:55.122681  2291 net.cpp:141] Setting up pool3/3x3_s2
I0403 14:57:55.122706  2291 net.cpp:148] Top shape: 24 480 14 14 (2257920)
I0403 14:57:55.122720  2291 net.cpp:156] Memory required for data: 818271264
I0403 14:57:55.122735  2291 layer_factory.hpp:77] Creating layer pool3/3x3_s2_pool3/3x3_s2_0_split
I0403 14:57:55.122752  2291 net.cpp:91] Creating Layer pool3/3x3_s2_pool3/3x3_s2_0_split
I0403 14:57:55.122779  2291 net.cpp:425] pool3/3x3_s2_pool3/3x3_s2_0_split <- pool3/3x3_s2
I0403 14:57:55.122795  2291 net.cpp:399] pool3/3x3_s2_pool3/3x3_s2_0_split -> pool3/3x3_s2_pool3/3x3_s2_0_split_0
I0403 14:57:55.122817  2291 net.cpp:399] pool3/3x3_s2_pool3/3x3_s2_0_split -> pool3/3x3_s2_pool3/3x3_s2_0_split_1
I0403 14:57:55.122836  2291 net.cpp:399] pool3/3x3_s2_pool3/3x3_s2_0_split -> pool3/3x3_s2_pool3/3x3_s2_0_split_2
I0403 14:57:55.122855  2291 net.cpp:399] pool3/3x3_s2_pool3/3x3_s2_0_split -> pool3/3x3_s2_pool3/3x3_s2_0_split_3
I0403 14:57:55.122928  2291 net.cpp:141] Setting up pool3/3x3_s2_pool3/3x3_s2_0_split
I0403 14:57:55.122949  2291 net.cpp:148] Top shape: 24 480 14 14 (2257920)
I0403 14:57:55.122966  2291 net.cpp:148] Top shape: 24 480 14 14 (2257920)
I0403 14:57:55.122980  2291 net.cpp:148] Top shape: 24 480 14 14 (2257920)
I0403 14:57:55.122997  2291 net.cpp:148] Top shape: 24 480 14 14 (2257920)
I0403 14:57:55.123010  2291 net.cpp:156] Memory required for data: 854397984
I0403 14:57:55.123024  2291 layer_factory.hpp:77] Creating layer inception_4a/1x1
I0403 14:57:55.123047  2291 net.cpp:91] Creating Layer inception_4a/1x1
I0403 14:57:55.123064  2291 net.cpp:425] inception_4a/1x1 <- pool3/3x3_s2_pool3/3x3_s2_0_split_0
I0403 14:57:55.123081  2291 net.cpp:399] inception_4a/1x1 -> inception_4a/1x1
I0403 14:57:55.124598  2291 net.cpp:141] Setting up inception_4a/1x1
I0403 14:57:55.124626  2291 net.cpp:148] Top shape: 24 192 14 14 (903168)
I0403 14:57:55.124642  2291 net.cpp:156] Memory required for data: 858010656
I0403 14:57:55.124660  2291 layer_factory.hpp:77] Creating layer inception_4a/relu_1x1
I0403 14:57:55.124677  2291 net.cpp:91] Creating Layer inception_4a/relu_1x1
I0403 14:57:55.124692  2291 net.cpp:425] inception_4a/relu_1x1 <- inception_4a/1x1
I0403 14:57:55.124711  2291 net.cpp:386] inception_4a/relu_1x1 -> inception_4a/1x1 (in-place)
I0403 14:57:55.124881  2291 net.cpp:141] Setting up inception_4a/relu_1x1
I0403 14:57:55.124904  2291 net.cpp:148] Top shape: 24 192 14 14 (903168)
I0403 14:57:55.124918  2291 net.cpp:156] Memory required for data: 861623328
I0403 14:57:55.124933  2291 layer_factory.hpp:77] Creating layer inception_4a/3x3_reduce
I0403 14:57:55.124954  2291 net.cpp:91] Creating Layer inception_4a/3x3_reduce
I0403 14:57:55.124971  2291 net.cpp:425] inception_4a/3x3_reduce <- pool3/3x3_s2_pool3/3x3_s2_0_split_1
I0403 14:57:55.124992  2291 net.cpp:399] inception_4a/3x3_reduce -> inception_4a/3x3_reduce
I0403 14:57:55.126200  2291 net.cpp:141] Setting up inception_4a/3x3_reduce
I0403 14:57:55.126235  2291 net.cpp:148] Top shape: 24 96 14 14 (451584)
I0403 14:57:55.126250  2291 net.cpp:156] Memory required for data: 863429664
I0403 14:57:55.126271  2291 layer_factory.hpp:77] Creating layer inception_4a/relu_3x3_reduce
I0403 14:57:55.126292  2291 net.cpp:91] Creating Layer inception_4a/relu_3x3_reduce
I0403 14:57:55.126307  2291 net.cpp:425] inception_4a/relu_3x3_reduce <- inception_4a/3x3_reduce
I0403 14:57:55.126324  2291 net.cpp:386] inception_4a/relu_3x3_reduce -> inception_4a/3x3_reduce (in-place)
I0403 14:57:55.126503  2291 net.cpp:141] Setting up inception_4a/relu_3x3_reduce
I0403 14:57:55.126528  2291 net.cpp:148] Top shape: 24 96 14 14 (451584)
I0403 14:57:55.126541  2291 net.cpp:156] Memory required for data: 865236000
I0403 14:57:55.126556  2291 layer_factory.hpp:77] Creating layer inception_4a/3x3
I0403 14:57:55.126577  2291 net.cpp:91] Creating Layer inception_4a/3x3
I0403 14:57:55.126595  2291 net.cpp:425] inception_4a/3x3 <- inception_4a/3x3_reduce
I0403 14:57:55.126616  2291 net.cpp:399] inception_4a/3x3 -> inception_4a/3x3
I0403 14:57:55.129149  2291 net.cpp:141] Setting up inception_4a/3x3
I0403 14:57:55.129176  2291 net.cpp:148] Top shape: 24 208 14 14 (978432)
I0403 14:57:55.129191  2291 net.cpp:156] Memory required for data: 869149728
I0403 14:57:55.129214  2291 layer_factory.hpp:77] Creating layer inception_4a/relu_3x3
I0403 14:57:55.129233  2291 net.cpp:91] Creating Layer inception_4a/relu_3x3
I0403 14:57:55.129250  2291 net.cpp:425] inception_4a/relu_3x3 <- inception_4a/3x3
I0403 14:57:55.129272  2291 net.cpp:386] inception_4a/relu_3x3 -> inception_4a/3x3 (in-place)
I0403 14:57:55.129539  2291 net.cpp:141] Setting up inception_4a/relu_3x3
I0403 14:57:55.129565  2291 net.cpp:148] Top shape: 24 208 14 14 (978432)
I0403 14:57:55.129578  2291 net.cpp:156] Memory required for data: 873063456
I0403 14:57:55.129593  2291 layer_factory.hpp:77] Creating layer inception_4a/5x5_reduce
I0403 14:57:55.129616  2291 net.cpp:91] Creating Layer inception_4a/5x5_reduce
I0403 14:57:55.129633  2291 net.cpp:425] inception_4a/5x5_reduce <- pool3/3x3_s2_pool3/3x3_s2_0_split_2
I0403 14:57:55.129653  2291 net.cpp:399] inception_4a/5x5_reduce -> inception_4a/5x5_reduce
I0403 14:57:55.130699  2291 net.cpp:141] Setting up inception_4a/5x5_reduce
I0403 14:57:55.130727  2291 net.cpp:148] Top shape: 24 16 14 14 (75264)
I0403 14:57:55.130741  2291 net.cpp:156] Memory required for data: 873364512
I0403 14:57:55.130771  2291 layer_factory.hpp:77] Creating layer inception_4a/relu_5x5_reduce
I0403 14:57:55.130792  2291 net.cpp:91] Creating Layer inception_4a/relu_5x5_reduce
I0403 14:57:55.130810  2291 net.cpp:425] inception_4a/relu_5x5_reduce <- inception_4a/5x5_reduce
I0403 14:57:55.130825  2291 net.cpp:386] inception_4a/relu_5x5_reduce -> inception_4a/5x5_reduce (in-place)
I0403 14:57:55.130992  2291 net.cpp:141] Setting up inception_4a/relu_5x5_reduce
I0403 14:57:55.131016  2291 net.cpp:148] Top shape: 24 16 14 14 (75264)
I0403 14:57:55.131029  2291 net.cpp:156] Memory required for data: 873665568
I0403 14:57:55.131044  2291 layer_factory.hpp:77] Creating layer inception_4a/5x5
I0403 14:57:55.131065  2291 net.cpp:91] Creating Layer inception_4a/5x5
I0403 14:57:55.131083  2291 net.cpp:425] inception_4a/5x5 <- inception_4a/5x5_reduce
I0403 14:57:55.131101  2291 net.cpp:399] inception_4a/5x5 -> inception_4a/5x5
I0403 14:57:55.132128  2291 net.cpp:141] Setting up inception_4a/5x5
I0403 14:57:55.132153  2291 net.cpp:148] Top shape: 24 48 14 14 (225792)
I0403 14:57:55.132169  2291 net.cpp:156] Memory required for data: 874568736
I0403 14:57:55.132186  2291 layer_factory.hpp:77] Creating layer inception_4a/relu_5x5
I0403 14:57:55.132205  2291 net.cpp:91] Creating Layer inception_4a/relu_5x5
I0403 14:57:55.132235  2291 net.cpp:425] inception_4a/relu_5x5 <- inception_4a/5x5
I0403 14:57:55.132251  2291 net.cpp:386] inception_4a/relu_5x5 -> inception_4a/5x5 (in-place)
I0403 14:57:55.132424  2291 net.cpp:141] Setting up inception_4a/relu_5x5
I0403 14:57:55.132450  2291 net.cpp:148] Top shape: 24 48 14 14 (225792)
I0403 14:57:55.132467  2291 net.cpp:156] Memory required for data: 875471904
I0403 14:57:55.132482  2291 layer_factory.hpp:77] Creating layer inception_4a/pool
I0403 14:57:55.132498  2291 net.cpp:91] Creating Layer inception_4a/pool
I0403 14:57:55.132514  2291 net.cpp:425] inception_4a/pool <- pool3/3x3_s2_pool3/3x3_s2_0_split_3
I0403 14:57:55.132534  2291 net.cpp:399] inception_4a/pool -> inception_4a/pool
I0403 14:57:55.132591  2291 net.cpp:141] Setting up inception_4a/pool
I0403 14:57:55.132613  2291 net.cpp:148] Top shape: 24 480 14 14 (2257920)
I0403 14:57:55.132627  2291 net.cpp:156] Memory required for data: 884503584
I0403 14:57:55.132642  2291 layer_factory.hpp:77] Creating layer inception_4a/pool_proj
I0403 14:57:55.132663  2291 net.cpp:91] Creating Layer inception_4a/pool_proj
I0403 14:57:55.132680  2291 net.cpp:425] inception_4a/pool_proj <- inception_4a/pool
I0403 14:57:55.132700  2291 net.cpp:399] inception_4a/pool_proj -> inception_4a/pool_proj
I0403 14:57:55.133800  2291 net.cpp:141] Setting up inception_4a/pool_proj
I0403 14:57:55.133829  2291 net.cpp:148] Top shape: 24 64 14 14 (301056)
I0403 14:57:55.133858  2291 net.cpp:156] Memory required for data: 885707808
I0403 14:57:55.133877  2291 layer_factory.hpp:77] Creating layer inception_4a/relu_pool_proj
I0403 14:57:55.133894  2291 net.cpp:91] Creating Layer inception_4a/relu_pool_proj
I0403 14:57:55.133909  2291 net.cpp:425] inception_4a/relu_pool_proj <- inception_4a/pool_proj
I0403 14:57:55.133926  2291 net.cpp:386] inception_4a/relu_pool_proj -> inception_4a/pool_proj (in-place)
I0403 14:57:55.134193  2291 net.cpp:141] Setting up inception_4a/relu_pool_proj
I0403 14:57:55.134225  2291 net.cpp:148] Top shape: 24 64 14 14 (301056)
I0403 14:57:55.134243  2291 net.cpp:156] Memory required for data: 886912032
I0403 14:57:55.134256  2291 layer_factory.hpp:77] Creating layer inception_4a/output
I0403 14:57:55.134274  2291 net.cpp:91] Creating Layer inception_4a/output
I0403 14:57:55.134289  2291 net.cpp:425] inception_4a/output <- inception_4a/1x1
I0403 14:57:55.134305  2291 net.cpp:425] inception_4a/output <- inception_4a/3x3
I0403 14:57:55.134320  2291 net.cpp:425] inception_4a/output <- inception_4a/5x5
I0403 14:57:55.134335  2291 net.cpp:425] inception_4a/output <- inception_4a/pool_proj
I0403 14:57:55.134351  2291 net.cpp:399] inception_4a/output -> inception_4a/output
I0403 14:57:55.134393  2291 net.cpp:141] Setting up inception_4a/output
I0403 14:57:55.134415  2291 net.cpp:148] Top shape: 24 512 14 14 (2408448)
I0403 14:57:55.134430  2291 net.cpp:156] Memory required for data: 896545824
I0403 14:57:55.134444  2291 layer_factory.hpp:77] Creating layer inception_4a/output_inception_4a/output_0_split
I0403 14:57:55.134464  2291 net.cpp:91] Creating Layer inception_4a/output_inception_4a/output_0_split
I0403 14:57:55.134491  2291 net.cpp:425] inception_4a/output_inception_4a/output_0_split <- inception_4a/output
I0403 14:57:55.134508  2291 net.cpp:399] inception_4a/output_inception_4a/output_0_split -> inception_4a/output_inception_4a/output_0_split_0
I0403 14:57:55.134528  2291 net.cpp:399] inception_4a/output_inception_4a/output_0_split -> inception_4a/output_inception_4a/output_0_split_1
I0403 14:57:55.134548  2291 net.cpp:399] inception_4a/output_inception_4a/output_0_split -> inception_4a/output_inception_4a/output_0_split_2
I0403 14:57:55.134569  2291 net.cpp:399] inception_4a/output_inception_4a/output_0_split -> inception_4a/output_inception_4a/output_0_split_3
I0403 14:57:55.134590  2291 net.cpp:399] inception_4a/output_inception_4a/output_0_split -> inception_4a/output_inception_4a/output_0_split_4
I0403 14:57:55.134683  2291 net.cpp:141] Setting up inception_4a/output_inception_4a/output_0_split
I0403 14:57:55.134706  2291 net.cpp:148] Top shape: 24 512 14 14 (2408448)
I0403 14:57:55.134722  2291 net.cpp:148] Top shape: 24 512 14 14 (2408448)
I0403 14:57:55.134738  2291 net.cpp:148] Top shape: 24 512 14 14 (2408448)
I0403 14:57:55.134766  2291 net.cpp:148] Top shape: 24 512 14 14 (2408448)
I0403 14:57:55.134781  2291 net.cpp:148] Top shape: 24 512 14 14 (2408448)
I0403 14:57:55.134794  2291 net.cpp:156] Memory required for data: 944714784
I0403 14:57:55.134809  2291 layer_factory.hpp:77] Creating layer loss1/ave_pool
I0403 14:57:55.134825  2291 net.cpp:91] Creating Layer loss1/ave_pool
I0403 14:57:55.134842  2291 net.cpp:425] loss1/ave_pool <- inception_4a/output_inception_4a/output_0_split_0
I0403 14:57:55.134860  2291 net.cpp:399] loss1/ave_pool -> loss1/ave_pool
I0403 14:57:55.135054  2291 net.cpp:141] Setting up loss1/ave_pool
I0403 14:57:55.135081  2291 net.cpp:148] Top shape: 24 512 4 4 (196608)
I0403 14:57:55.135097  2291 net.cpp:156] Memory required for data: 945501216
I0403 14:57:55.135112  2291 layer_factory.hpp:77] Creating layer loss1/conv
I0403 14:57:55.135133  2291 net.cpp:91] Creating Layer loss1/conv
I0403 14:57:55.135149  2291 net.cpp:425] loss1/conv <- loss1/ave_pool
I0403 14:57:55.135169  2291 net.cpp:399] loss1/conv -> loss1/conv
I0403 14:57:55.136502  2291 net.cpp:141] Setting up loss1/conv
I0403 14:57:55.136528  2291 net.cpp:148] Top shape: 24 128 4 4 (49152)
I0403 14:57:55.136555  2291 net.cpp:156] Memory required for data: 945697824
I0403 14:57:55.136574  2291 layer_factory.hpp:77] Creating layer loss1/relu_conv
I0403 14:57:55.136591  2291 net.cpp:91] Creating Layer loss1/relu_conv
I0403 14:57:55.136607  2291 net.cpp:425] loss1/relu_conv <- loss1/conv
I0403 14:57:55.136626  2291 net.cpp:386] loss1/relu_conv -> loss1/conv (in-place)
I0403 14:57:55.136893  2291 net.cpp:141] Setting up loss1/relu_conv
I0403 14:57:55.136919  2291 net.cpp:148] Top shape: 24 128 4 4 (49152)
I0403 14:57:55.136934  2291 net.cpp:156] Memory required for data: 945894432
I0403 14:57:55.136947  2291 layer_factory.hpp:77] Creating layer loss1/fc
I0403 14:57:55.136970  2291 net.cpp:91] Creating Layer loss1/fc
I0403 14:57:55.136986  2291 net.cpp:425] loss1/fc <- loss1/conv
I0403 14:57:55.137006  2291 net.cpp:399] loss1/fc -> loss1/fc
I0403 14:57:55.153949  2291 net.cpp:141] Setting up loss1/fc
I0403 14:57:55.153980  2291 net.cpp:148] Top shape: 24 1024 (24576)
I0403 14:57:55.153996  2291 net.cpp:156] Memory required for data: 945992736
I0403 14:57:55.154013  2291 layer_factory.hpp:77] Creating layer loss1/relu_fc
I0403 14:57:55.154033  2291 net.cpp:91] Creating Layer loss1/relu_fc
I0403 14:57:55.154049  2291 net.cpp:425] loss1/relu_fc <- loss1/fc
I0403 14:57:55.154067  2291 net.cpp:386] loss1/relu_fc -> loss1/fc (in-place)
I0403 14:57:55.154253  2291 net.cpp:141] Setting up loss1/relu_fc
I0403 14:57:55.154278  2291 net.cpp:148] Top shape: 24 1024 (24576)
I0403 14:57:55.154291  2291 net.cpp:156] Memory required for data: 946091040
I0403 14:57:55.154306  2291 layer_factory.hpp:77] Creating layer loss1/drop_fc
I0403 14:57:55.154331  2291 net.cpp:91] Creating Layer loss1/drop_fc
I0403 14:57:55.154347  2291 net.cpp:425] loss1/drop_fc <- loss1/fc
I0403 14:57:55.154366  2291 net.cpp:386] loss1/drop_fc -> loss1/fc (in-place)
I0403 14:57:55.154415  2291 net.cpp:141] Setting up loss1/drop_fc
I0403 14:57:55.154438  2291 net.cpp:148] Top shape: 24 1024 (24576)
I0403 14:57:55.154451  2291 net.cpp:156] Memory required for data: 946189344
I0403 14:57:55.154479  2291 layer_factory.hpp:77] Creating layer loss1/classifier_plantvillage
I0403 14:57:55.154500  2291 net.cpp:91] Creating Layer loss1/classifier_plantvillage
I0403 14:57:55.154516  2291 net.cpp:425] loss1/classifier_plantvillage <- loss1/fc
I0403 14:57:55.154536  2291 net.cpp:399] loss1/classifier_plantvillage -> loss1/classifier_plantvillage
I0403 14:57:55.155428  2291 net.cpp:141] Setting up loss1/classifier_plantvillage
I0403 14:57:55.155457  2291 net.cpp:148] Top shape: 24 38 (912)
I0403 14:57:55.155472  2291 net.cpp:156] Memory required for data: 946192992
I0403 14:57:55.155490  2291 layer_factory.hpp:77] Creating layer loss1/classifier_plantvillage_loss1/classifier_plantvillage_0_split
I0403 14:57:55.155508  2291 net.cpp:91] Creating Layer loss1/classifier_plantvillage_loss1/classifier_plantvillage_0_split
I0403 14:57:55.155522  2291 net.cpp:425] loss1/classifier_plantvillage_loss1/classifier_plantvillage_0_split <- loss1/classifier_plantvillage
I0403 14:57:55.155541  2291 net.cpp:399] loss1/classifier_plantvillage_loss1/classifier_plantvillage_0_split -> loss1/classifier_plantvillage_loss1/classifier_plantvillage_0_split_0
I0403 14:57:55.155561  2291 net.cpp:399] loss1/classifier_plantvillage_loss1/classifier_plantvillage_0_split -> loss1/classifier_plantvillage_loss1/classifier_plantvillage_0_split_1
I0403 14:57:55.155581  2291 net.cpp:399] loss1/classifier_plantvillage_loss1/classifier_plantvillage_0_split -> loss1/classifier_plantvillage_loss1/classifier_plantvillage_0_split_2
I0403 14:57:55.155644  2291 net.cpp:141] Setting up loss1/classifier_plantvillage_loss1/classifier_plantvillage_0_split
I0403 14:57:55.155666  2291 net.cpp:148] Top shape: 24 38 (912)
I0403 14:57:55.155683  2291 net.cpp:148] Top shape: 24 38 (912)
I0403 14:57:55.155699  2291 net.cpp:148] Top shape: 24 38 (912)
I0403 14:57:55.155711  2291 net.cpp:156] Memory required for data: 946203936
I0403 14:57:55.155725  2291 layer_factory.hpp:77] Creating layer inception_4b/1x1
I0403 14:57:55.155753  2291 net.cpp:91] Creating Layer inception_4b/1x1
I0403 14:57:55.155797  2291 net.cpp:425] inception_4b/1x1 <- inception_4a/output_inception_4a/output_0_split_1
I0403 14:57:55.155817  2291 net.cpp:399] inception_4b/1x1 -> inception_4b/1x1
I0403 14:57:55.157398  2291 net.cpp:141] Setting up inception_4b/1x1
I0403 14:57:55.157425  2291 net.cpp:148] Top shape: 24 160 14 14 (752640)
I0403 14:57:55.157440  2291 net.cpp:156] Memory required for data: 949214496
I0403 14:57:55.157459  2291 layer_factory.hpp:77] Creating layer inception_4b/relu_1x1
I0403 14:57:55.157477  2291 net.cpp:91] Creating Layer inception_4b/relu_1x1
I0403 14:57:55.157493  2291 net.cpp:425] inception_4b/relu_1x1 <- inception_4b/1x1
I0403 14:57:55.157510  2291 net.cpp:386] inception_4b/relu_1x1 -> inception_4b/1x1 (in-place)
I0403 14:57:55.157683  2291 net.cpp:141] Setting up inception_4b/relu_1x1
I0403 14:57:55.157706  2291 net.cpp:148] Top shape: 24 160 14 14 (752640)
I0403 14:57:55.157721  2291 net.cpp:156] Memory required for data: 952225056
I0403 14:57:55.157735  2291 layer_factory.hpp:77] Creating layer inception_4b/3x3_reduce
I0403 14:57:55.157757  2291 net.cpp:91] Creating Layer inception_4b/3x3_reduce
I0403 14:57:55.157773  2291 net.cpp:425] inception_4b/3x3_reduce <- inception_4a/output_inception_4a/output_0_split_2
I0403 14:57:55.157794  2291 net.cpp:399] inception_4b/3x3_reduce -> inception_4b/3x3_reduce
I0403 14:57:55.159152  2291 net.cpp:141] Setting up inception_4b/3x3_reduce
I0403 14:57:55.159190  2291 net.cpp:148] Top shape: 24 112 14 14 (526848)
I0403 14:57:55.159206  2291 net.cpp:156] Memory required for data: 954332448
I0403 14:57:55.159229  2291 layer_factory.hpp:77] Creating layer inception_4b/relu_3x3_reduce
I0403 14:57:55.159250  2291 net.cpp:91] Creating Layer inception_4b/relu_3x3_reduce
I0403 14:57:55.159266  2291 net.cpp:425] inception_4b/relu_3x3_reduce <- inception_4b/3x3_reduce
I0403 14:57:55.159284  2291 net.cpp:386] inception_4b/relu_3x3_reduce -> inception_4b/3x3_reduce (in-place)
I0403 14:57:55.159580  2291 net.cpp:141] Setting up inception_4b/relu_3x3_reduce
I0403 14:57:55.159606  2291 net.cpp:148] Top shape: 24 112 14 14 (526848)
I0403 14:57:55.159621  2291 net.cpp:156] Memory required for data: 956439840
I0403 14:57:55.159636  2291 layer_factory.hpp:77] Creating layer inception_4b/3x3
I0403 14:57:55.159658  2291 net.cpp:91] Creating Layer inception_4b/3x3
I0403 14:57:55.159675  2291 net.cpp:425] inception_4b/3x3 <- inception_4b/3x3_reduce
I0403 14:57:55.159696  2291 net.cpp:399] inception_4b/3x3 -> inception_4b/3x3
I0403 14:57:55.162626  2291 net.cpp:141] Setting up inception_4b/3x3
I0403 14:57:55.162657  2291 net.cpp:148] Top shape: 24 224 14 14 (1053696)
I0403 14:57:55.162673  2291 net.cpp:156] Memory required for data: 960654624
I0403 14:57:55.162693  2291 layer_factory.hpp:77] Creating layer inception_4b/relu_3x3
I0403 14:57:55.162709  2291 net.cpp:91] Creating Layer inception_4b/relu_3x3
I0403 14:57:55.162725  2291 net.cpp:425] inception_4b/relu_3x3 <- inception_4b/3x3
I0403 14:57:55.162749  2291 net.cpp:386] inception_4b/relu_3x3 -> inception_4b/3x3 (in-place)
I0403 14:57:55.162932  2291 net.cpp:141] Setting up inception_4b/relu_3x3
I0403 14:57:55.162956  2291 net.cpp:148] Top shape: 24 224 14 14 (1053696)
I0403 14:57:55.162971  2291 net.cpp:156] Memory required for data: 964869408
I0403 14:57:55.162986  2291 layer_factory.hpp:77] Creating layer inception_4b/5x5_reduce
I0403 14:57:55.163007  2291 net.cpp:91] Creating Layer inception_4b/5x5_reduce
I0403 14:57:55.163023  2291 net.cpp:425] inception_4b/5x5_reduce <- inception_4a/output_inception_4a/output_0_split_3
I0403 14:57:55.163045  2291 net.cpp:399] inception_4b/5x5_reduce -> inception_4b/5x5_reduce
I0403 14:57:55.164077  2291 net.cpp:141] Setting up inception_4b/5x5_reduce
I0403 14:57:55.164104  2291 net.cpp:148] Top shape: 24 24 14 14 (112896)
I0403 14:57:55.164119  2291 net.cpp:156] Memory required for data: 965320992
I0403 14:57:55.164139  2291 layer_factory.hpp:77] Creating layer inception_4b/relu_5x5_reduce
I0403 14:57:55.164157  2291 net.cpp:91] Creating Layer inception_4b/relu_5x5_reduce
I0403 14:57:55.164187  2291 net.cpp:425] inception_4b/relu_5x5_reduce <- inception_4b/5x5_reduce
I0403 14:57:55.164206  2291 net.cpp:386] inception_4b/relu_5x5_reduce -> inception_4b/5x5_reduce (in-place)
I0403 14:57:55.164383  2291 net.cpp:141] Setting up inception_4b/relu_5x5_reduce
I0403 14:57:55.164410  2291 net.cpp:148] Top shape: 24 24 14 14 (112896)
I0403 14:57:55.164425  2291 net.cpp:156] Memory required for data: 965772576
I0403 14:57:55.164439  2291 layer_factory.hpp:77] Creating layer inception_4b/5x5
I0403 14:57:55.164458  2291 net.cpp:91] Creating Layer inception_4b/5x5
I0403 14:57:55.164474  2291 net.cpp:425] inception_4b/5x5 <- inception_4b/5x5_reduce
I0403 14:57:55.164494  2291 net.cpp:399] inception_4b/5x5 -> inception_4b/5x5
I0403 14:57:55.165659  2291 net.cpp:141] Setting up inception_4b/5x5
I0403 14:57:55.165686  2291 net.cpp:148] Top shape: 24 64 14 14 (301056)
I0403 14:57:55.165701  2291 net.cpp:156] Memory required for data: 966976800
I0403 14:57:55.165719  2291 layer_factory.hpp:77] Creating layer inception_4b/relu_5x5
I0403 14:57:55.165740  2291 net.cpp:91] Creating Layer inception_4b/relu_5x5
I0403 14:57:55.165755  2291 net.cpp:425] inception_4b/relu_5x5 <- inception_4b/5x5
I0403 14:57:55.165772  2291 net.cpp:386] inception_4b/relu_5x5 -> inception_4b/5x5 (in-place)
I0403 14:57:55.166046  2291 net.cpp:141] Setting up inception_4b/relu_5x5
I0403 14:57:55.166071  2291 net.cpp:148] Top shape: 24 64 14 14 (301056)
I0403 14:57:55.166085  2291 net.cpp:156] Memory required for data: 968181024
I0403 14:57:55.166100  2291 layer_factory.hpp:77] Creating layer inception_4b/pool
I0403 14:57:55.166117  2291 net.cpp:91] Creating Layer inception_4b/pool
I0403 14:57:55.166132  2291 net.cpp:425] inception_4b/pool <- inception_4a/output_inception_4a/output_0_split_4
I0403 14:57:55.166152  2291 net.cpp:399] inception_4b/pool -> inception_4b/pool
I0403 14:57:55.166218  2291 net.cpp:141] Setting up inception_4b/pool
I0403 14:57:55.166244  2291 net.cpp:148] Top shape: 24 512 14 14 (2408448)
I0403 14:57:55.166257  2291 net.cpp:156] Memory required for data: 977814816
I0403 14:57:55.166272  2291 layer_factory.hpp:77] Creating layer inception_4b/pool_proj
I0403 14:57:55.166295  2291 net.cpp:91] Creating Layer inception_4b/pool_proj
I0403 14:57:55.166311  2291 net.cpp:425] inception_4b/pool_proj <- inception_4b/pool
I0403 14:57:55.166329  2291 net.cpp:399] inception_4b/pool_proj -> inception_4b/pool_proj
I0403 14:57:55.167497  2291 net.cpp:141] Setting up inception_4b/pool_proj
I0403 14:57:55.167523  2291 net.cpp:148] Top shape: 24 64 14 14 (301056)
I0403 14:57:55.167538  2291 net.cpp:156] Memory required for data: 979019040
I0403 14:57:55.167557  2291 layer_factory.hpp:77] Creating layer inception_4b/relu_pool_proj
I0403 14:57:55.167577  2291 net.cpp:91] Creating Layer inception_4b/relu_pool_proj
I0403 14:57:55.167593  2291 net.cpp:425] inception_4b/relu_pool_proj <- inception_4b/pool_proj
I0403 14:57:55.167609  2291 net.cpp:386] inception_4b/relu_pool_proj -> inception_4b/pool_proj (in-place)
I0403 14:57:55.167781  2291 net.cpp:141] Setting up inception_4b/relu_pool_proj
I0403 14:57:55.167805  2291 net.cpp:148] Top shape: 24 64 14 14 (301056)
I0403 14:57:55.167820  2291 net.cpp:156] Memory required for data: 980223264
I0403 14:57:55.167834  2291 layer_factory.hpp:77] Creating layer inception_4b/output
I0403 14:57:55.167852  2291 net.cpp:91] Creating Layer inception_4b/output
I0403 14:57:55.167870  2291 net.cpp:425] inception_4b/output <- inception_4b/1x1
I0403 14:57:55.167886  2291 net.cpp:425] inception_4b/output <- inception_4b/3x3
I0403 14:57:55.167901  2291 net.cpp:425] inception_4b/output <- inception_4b/5x5
I0403 14:57:55.167917  2291 net.cpp:425] inception_4b/output <- inception_4b/pool_proj
I0403 14:57:55.167932  2291 net.cpp:399] inception_4b/output -> inception_4b/output
I0403 14:57:55.167976  2291 net.cpp:141] Setting up inception_4b/output
I0403 14:57:55.167999  2291 net.cpp:148] Top shape: 24 512 14 14 (2408448)
I0403 14:57:55.168012  2291 net.cpp:156] Memory required for data: 989857056
I0403 14:57:55.168040  2291 layer_factory.hpp:77] Creating layer inception_4b/output_inception_4b/output_0_split
I0403 14:57:55.168058  2291 net.cpp:91] Creating Layer inception_4b/output_inception_4b/output_0_split
I0403 14:57:55.168073  2291 net.cpp:425] inception_4b/output_inception_4b/output_0_split <- inception_4b/output
I0403 14:57:55.168092  2291 net.cpp:399] inception_4b/output_inception_4b/output_0_split -> inception_4b/output_inception_4b/output_0_split_0
I0403 14:57:55.168112  2291 net.cpp:399] inception_4b/output_inception_4b/output_0_split -> inception_4b/output_inception_4b/output_0_split_1
I0403 14:57:55.168131  2291 net.cpp:399] inception_4b/output_inception_4b/output_0_split -> inception_4b/output_inception_4b/output_0_split_2
I0403 14:57:55.168151  2291 net.cpp:399] inception_4b/output_inception_4b/output_0_split -> inception_4b/output_inception_4b/output_0_split_3
I0403 14:57:55.168238  2291 net.cpp:141] Setting up inception_4b/output_inception_4b/output_0_split
I0403 14:57:55.168262  2291 net.cpp:148] Top shape: 24 512 14 14 (2408448)
I0403 14:57:55.168279  2291 net.cpp:148] Top shape: 24 512 14 14 (2408448)
I0403 14:57:55.168295  2291 net.cpp:148] Top shape: 24 512 14 14 (2408448)
I0403 14:57:55.168310  2291 net.cpp:148] Top shape: 24 512 14 14 (2408448)
I0403 14:57:55.168323  2291 net.cpp:156] Memory required for data: 1028392224
I0403 14:57:55.168339  2291 layer_factory.hpp:77] Creating layer inception_4c/1x1
I0403 14:57:55.168359  2291 net.cpp:91] Creating Layer inception_4c/1x1
I0403 14:57:55.168376  2291 net.cpp:425] inception_4c/1x1 <- inception_4b/output_inception_4b/output_0_split_0
I0403 14:57:55.168396  2291 net.cpp:399] inception_4c/1x1 -> inception_4c/1x1
I0403 14:57:55.169764  2291 net.cpp:141] Setting up inception_4c/1x1
I0403 14:57:55.169790  2291 net.cpp:148] Top shape: 24 128 14 14 (602112)
I0403 14:57:55.169806  2291 net.cpp:156] Memory required for data: 1030800672
I0403 14:57:55.169823  2291 layer_factory.hpp:77] Creating layer inception_4c/relu_1x1
I0403 14:57:55.169844  2291 net.cpp:91] Creating Layer inception_4c/relu_1x1
I0403 14:57:55.169859  2291 net.cpp:425] inception_4c/relu_1x1 <- inception_4c/1x1
I0403 14:57:55.169877  2291 net.cpp:386] inception_4c/relu_1x1 -> inception_4c/1x1 (in-place)
I0403 14:57:55.170047  2291 net.cpp:141] Setting up inception_4c/relu_1x1
I0403 14:57:55.170070  2291 net.cpp:148] Top shape: 24 128 14 14 (602112)
I0403 14:57:55.170085  2291 net.cpp:156] Memory required for data: 1033209120
I0403 14:57:55.170100  2291 layer_factory.hpp:77] Creating layer inception_4c/3x3_reduce
I0403 14:57:55.170121  2291 net.cpp:91] Creating Layer inception_4c/3x3_reduce
I0403 14:57:55.170137  2291 net.cpp:425] inception_4c/3x3_reduce <- inception_4b/output_inception_4b/output_0_split_1
I0403 14:57:55.170158  2291 net.cpp:399] inception_4c/3x3_reduce -> inception_4c/3x3_reduce
I0403 14:57:55.172035  2291 net.cpp:141] Setting up inception_4c/3x3_reduce
I0403 14:57:55.172063  2291 net.cpp:148] Top shape: 24 128 14 14 (602112)
I0403 14:57:55.172078  2291 net.cpp:156] Memory required for data: 1035617568
I0403 14:57:55.172096  2291 layer_factory.hpp:77] Creating layer inception_4c/relu_3x3_reduce
I0403 14:57:55.172113  2291 net.cpp:91] Creating Layer inception_4c/relu_3x3_reduce
I0403 14:57:55.172128  2291 net.cpp:425] inception_4c/relu_3x3_reduce <- inception_4c/3x3_reduce
I0403 14:57:55.172147  2291 net.cpp:386] inception_4c/relu_3x3_reduce -> inception_4c/3x3_reduce (in-place)
I0403 14:57:55.172433  2291 net.cpp:141] Setting up inception_4c/relu_3x3_reduce
I0403 14:57:55.172458  2291 net.cpp:148] Top shape: 24 128 14 14 (602112)
I0403 14:57:55.172473  2291 net.cpp:156] Memory required for data: 1038026016
I0403 14:57:55.172488  2291 layer_factory.hpp:77] Creating layer inception_4c/3x3
I0403 14:57:55.172511  2291 net.cpp:91] Creating Layer inception_4c/3x3
I0403 14:57:55.172528  2291 net.cpp:425] inception_4c/3x3 <- inception_4c/3x3_reduce
I0403 14:57:55.172549  2291 net.cpp:399] inception_4c/3x3 -> inception_4c/3x3
I0403 14:57:55.176009  2291 net.cpp:141] Setting up inception_4c/3x3
I0403 14:57:55.176049  2291 net.cpp:148] Top shape: 24 256 14 14 (1204224)
I0403 14:57:55.176065  2291 net.cpp:156] Memory required for data: 1042842912
I0403 14:57:55.176096  2291 layer_factory.hpp:77] Creating layer inception_4c/relu_3x3
I0403 14:57:55.176118  2291 net.cpp:91] Creating Layer inception_4c/relu_3x3
I0403 14:57:55.176136  2291 net.cpp:425] inception_4c/relu_3x3 <- inception_4c/3x3
I0403 14:57:55.176152  2291 net.cpp:386] inception_4c/relu_3x3 -> inception_4c/3x3 (in-place)
I0403 14:57:55.176344  2291 net.cpp:141] Setting up inception_4c/relu_3x3
I0403 14:57:55.176368  2291 net.cpp:148] Top shape: 24 256 14 14 (1204224)
I0403 14:57:55.176383  2291 net.cpp:156] Memory required for data: 1047659808
I0403 14:57:55.176396  2291 layer_factory.hpp:77] Creating layer inception_4c/5x5_reduce
I0403 14:57:55.176419  2291 net.cpp:91] Creating Layer inception_4c/5x5_reduce
I0403 14:57:55.176435  2291 net.cpp:425] inception_4c/5x5_reduce <- inception_4b/output_inception_4b/output_0_split_2
I0403 14:57:55.176456  2291 net.cpp:399] inception_4c/5x5_reduce -> inception_4c/5x5_reduce
I0403 14:57:55.177495  2291 net.cpp:141] Setting up inception_4c/5x5_reduce
I0403 14:57:55.177521  2291 net.cpp:148] Top shape: 24 24 14 14 (112896)
I0403 14:57:55.177536  2291 net.cpp:156] Memory required for data: 1048111392
I0403 14:57:55.177554  2291 layer_factory.hpp:77] Creating layer inception_4c/relu_5x5_reduce
I0403 14:57:55.177574  2291 net.cpp:91] Creating Layer inception_4c/relu_5x5_reduce
I0403 14:57:55.177590  2291 net.cpp:425] inception_4c/relu_5x5_reduce <- inception_4c/5x5_reduce
I0403 14:57:55.177608  2291 net.cpp:386] inception_4c/relu_5x5_reduce -> inception_4c/5x5_reduce (in-place)
I0403 14:57:55.177779  2291 net.cpp:141] Setting up inception_4c/relu_5x5_reduce
I0403 14:57:55.177803  2291 net.cpp:148] Top shape: 24 24 14 14 (112896)
I0403 14:57:55.177820  2291 net.cpp:156] Memory required for data: 1048562976
I0403 14:57:55.177835  2291 layer_factory.hpp:77] Creating layer inception_4c/5x5
I0403 14:57:55.177855  2291 net.cpp:91] Creating Layer inception_4c/5x5
I0403 14:57:55.177870  2291 net.cpp:425] inception_4c/5x5 <- inception_4c/5x5_reduce
I0403 14:57:55.177891  2291 net.cpp:399] inception_4c/5x5 -> inception_4c/5x5
I0403 14:57:55.179110  2291 net.cpp:141] Setting up inception_4c/5x5
I0403 14:57:55.179136  2291 net.cpp:148] Top shape: 24 64 14 14 (301056)
I0403 14:57:55.179150  2291 net.cpp:156] Memory required for data: 1049767200
I0403 14:57:55.179168  2291 layer_factory.hpp:77] Creating layer inception_4c/relu_5x5
I0403 14:57:55.179188  2291 net.cpp:91] Creating Layer inception_4c/relu_5x5
I0403 14:57:55.179203  2291 net.cpp:425] inception_4c/relu_5x5 <- inception_4c/5x5
I0403 14:57:55.179226  2291 net.cpp:386] inception_4c/relu_5x5 -> inception_4c/5x5 (in-place)
I0403 14:57:55.179500  2291 net.cpp:141] Setting up inception_4c/relu_5x5
I0403 14:57:55.179527  2291 net.cpp:148] Top shape: 24 64 14 14 (301056)
I0403 14:57:55.179541  2291 net.cpp:156] Memory required for data: 1050971424
I0403 14:57:55.179556  2291 layer_factory.hpp:77] Creating layer inception_4c/pool
I0403 14:57:55.179575  2291 net.cpp:91] Creating Layer inception_4c/pool
I0403 14:57:55.179591  2291 net.cpp:425] inception_4c/pool <- inception_4b/output_inception_4b/output_0_split_3
I0403 14:57:55.179610  2291 net.cpp:399] inception_4c/pool -> inception_4c/pool
I0403 14:57:55.179674  2291 net.cpp:141] Setting up inception_4c/pool
I0403 14:57:55.179697  2291 net.cpp:148] Top shape: 24 512 14 14 (2408448)
I0403 14:57:55.179711  2291 net.cpp:156] Memory required for data: 1060605216
I0403 14:57:55.179725  2291 layer_factory.hpp:77] Creating layer inception_4c/pool_proj
I0403 14:57:55.179747  2291 net.cpp:91] Creating Layer inception_4c/pool_proj
I0403 14:57:55.179764  2291 net.cpp:425] inception_4c/pool_proj <- inception_4c/pool
I0403 14:57:55.179783  2291 net.cpp:399] inception_4c/pool_proj -> inception_4c/pool_proj
I0403 14:57:55.180946  2291 net.cpp:141] Setting up inception_4c/pool_proj
I0403 14:57:55.180973  2291 net.cpp:148] Top shape: 24 64 14 14 (301056)
I0403 14:57:55.180999  2291 net.cpp:156] Memory required for data: 1061809440
I0403 14:57:55.181018  2291 layer_factory.hpp:77] Creating layer inception_4c/relu_pool_proj
I0403 14:57:55.181038  2291 net.cpp:91] Creating Layer inception_4c/relu_pool_proj
I0403 14:57:55.181054  2291 net.cpp:425] inception_4c/relu_pool_proj <- inception_4c/pool_proj
I0403 14:57:55.181071  2291 net.cpp:386] inception_4c/relu_pool_proj -> inception_4c/pool_proj (in-place)
I0403 14:57:55.181251  2291 net.cpp:141] Setting up inception_4c/relu_pool_proj
I0403 14:57:55.181273  2291 net.cpp:148] Top shape: 24 64 14 14 (301056)
I0403 14:57:55.181288  2291 net.cpp:156] Memory required for data: 1063013664
I0403 14:57:55.181303  2291 layer_factory.hpp:77] Creating layer inception_4c/output
I0403 14:57:55.181320  2291 net.cpp:91] Creating Layer inception_4c/output
I0403 14:57:55.181336  2291 net.cpp:425] inception_4c/output <- inception_4c/1x1
I0403 14:57:55.181352  2291 net.cpp:425] inception_4c/output <- inception_4c/3x3
I0403 14:57:55.181368  2291 net.cpp:425] inception_4c/output <- inception_4c/5x5
I0403 14:57:55.181382  2291 net.cpp:425] inception_4c/output <- inception_4c/pool_proj
I0403 14:57:55.181399  2291 net.cpp:399] inception_4c/output -> inception_4c/output
I0403 14:57:55.181444  2291 net.cpp:141] Setting up inception_4c/output
I0403 14:57:55.181478  2291 net.cpp:148] Top shape: 24 512 14 14 (2408448)
I0403 14:57:55.181493  2291 net.cpp:156] Memory required for data: 1072647456
I0403 14:57:55.181507  2291 layer_factory.hpp:77] Creating layer inception_4c/output_inception_4c/output_0_split
I0403 14:57:55.181524  2291 net.cpp:91] Creating Layer inception_4c/output_inception_4c/output_0_split
I0403 14:57:55.181540  2291 net.cpp:425] inception_4c/output_inception_4c/output_0_split <- inception_4c/output
I0403 14:57:55.181558  2291 net.cpp:399] inception_4c/output_inception_4c/output_0_split -> inception_4c/output_inception_4c/output_0_split_0
I0403 14:57:55.181578  2291 net.cpp:399] inception_4c/output_inception_4c/output_0_split -> inception_4c/output_inception_4c/output_0_split_1
I0403 14:57:55.181598  2291 net.cpp:399] inception_4c/output_inception_4c/output_0_split -> inception_4c/output_inception_4c/output_0_split_2
I0403 14:57:55.181618  2291 net.cpp:399] inception_4c/output_inception_4c/output_0_split -> inception_4c/output_inception_4c/output_0_split_3
I0403 14:57:55.181704  2291 net.cpp:141] Setting up inception_4c/output_inception_4c/output_0_split
I0403 14:57:55.181727  2291 net.cpp:148] Top shape: 24 512 14 14 (2408448)
I0403 14:57:55.181745  2291 net.cpp:148] Top shape: 24 512 14 14 (2408448)
I0403 14:57:55.181771  2291 net.cpp:148] Top shape: 24 512 14 14 (2408448)
I0403 14:57:55.181787  2291 net.cpp:148] Top shape: 24 512 14 14 (2408448)
I0403 14:57:55.181800  2291 net.cpp:156] Memory required for data: 1111182624
I0403 14:57:55.181814  2291 layer_factory.hpp:77] Creating layer inception_4d/1x1
I0403 14:57:55.181835  2291 net.cpp:91] Creating Layer inception_4d/1x1
I0403 14:57:55.181851  2291 net.cpp:425] inception_4d/1x1 <- inception_4c/output_inception_4c/output_0_split_0
I0403 14:57:55.181869  2291 net.cpp:399] inception_4d/1x1 -> inception_4d/1x1
I0403 14:57:55.183223  2291 net.cpp:141] Setting up inception_4d/1x1
I0403 14:57:55.183251  2291 net.cpp:148] Top shape: 24 112 14 14 (526848)
I0403 14:57:55.183267  2291 net.cpp:156] Memory required for data: 1113290016
I0403 14:57:55.183284  2291 layer_factory.hpp:77] Creating layer inception_4d/relu_1x1
I0403 14:57:55.183301  2291 net.cpp:91] Creating Layer inception_4d/relu_1x1
I0403 14:57:55.183316  2291 net.cpp:425] inception_4d/relu_1x1 <- inception_4d/1x1
I0403 14:57:55.183336  2291 net.cpp:386] inception_4d/relu_1x1 -> inception_4d/1x1 (in-place)
I0403 14:57:55.183513  2291 net.cpp:141] Setting up inception_4d/relu_1x1
I0403 14:57:55.183537  2291 net.cpp:148] Top shape: 24 112 14 14 (526848)
I0403 14:57:55.183552  2291 net.cpp:156] Memory required for data: 1115397408
I0403 14:57:55.183565  2291 layer_factory.hpp:77] Creating layer inception_4d/3x3_reduce
I0403 14:57:55.183600  2291 net.cpp:91] Creating Layer inception_4d/3x3_reduce
I0403 14:57:55.183619  2291 net.cpp:425] inception_4d/3x3_reduce <- inception_4c/output_inception_4c/output_0_split_1
I0403 14:57:55.183640  2291 net.cpp:399] inception_4d/3x3_reduce -> inception_4d/3x3_reduce
I0403 14:57:55.185076  2291 net.cpp:141] Setting up inception_4d/3x3_reduce
I0403 14:57:55.185104  2291 net.cpp:148] Top shape: 24 144 14 14 (677376)
I0403 14:57:55.185120  2291 net.cpp:156] Memory required for data: 1118106912
I0403 14:57:55.185137  2291 layer_factory.hpp:77] Creating layer inception_4d/relu_3x3_reduce
I0403 14:57:55.185155  2291 net.cpp:91] Creating Layer inception_4d/relu_3x3_reduce
I0403 14:57:55.185171  2291 net.cpp:425] inception_4d/relu_3x3_reduce <- inception_4d/3x3_reduce
I0403 14:57:55.185189  2291 net.cpp:386] inception_4d/relu_3x3_reduce -> inception_4d/3x3_reduce (in-place)
I0403 14:57:55.185467  2291 net.cpp:141] Setting up inception_4d/relu_3x3_reduce
I0403 14:57:55.185499  2291 net.cpp:148] Top shape: 24 144 14 14 (677376)
I0403 14:57:55.185515  2291 net.cpp:156] Memory required for data: 1120816416
I0403 14:57:55.185530  2291 layer_factory.hpp:77] Creating layer inception_4d/3x3
I0403 14:57:55.185551  2291 net.cpp:91] Creating Layer inception_4d/3x3
I0403 14:57:55.185569  2291 net.cpp:425] inception_4d/3x3 <- inception_4d/3x3_reduce
I0403 14:57:55.185586  2291 net.cpp:399] inception_4d/3x3 -> inception_4d/3x3
I0403 14:57:55.189683  2291 net.cpp:141] Setting up inception_4d/3x3
I0403 14:57:55.189710  2291 net.cpp:148] Top shape: 24 288 14 14 (1354752)
I0403 14:57:55.189726  2291 net.cpp:156] Memory required for data: 1126235424
I0403 14:57:55.189743  2291 layer_factory.hpp:77] Creating layer inception_4d/relu_3x3
I0403 14:57:55.189761  2291 net.cpp:91] Creating Layer inception_4d/relu_3x3
I0403 14:57:55.189777  2291 net.cpp:425] inception_4d/relu_3x3 <- inception_4d/3x3
I0403 14:57:55.189796  2291 net.cpp:386] inception_4d/relu_3x3 -> inception_4d/3x3 (in-place)
I0403 14:57:55.189970  2291 net.cpp:141] Setting up inception_4d/relu_3x3
I0403 14:57:55.189993  2291 net.cpp:148] Top shape: 24 288 14 14 (1354752)
I0403 14:57:55.190007  2291 net.cpp:156] Memory required for data: 1131654432
I0403 14:57:55.190022  2291 layer_factory.hpp:77] Creating layer inception_4d/5x5_reduce
I0403 14:57:55.190043  2291 net.cpp:91] Creating Layer inception_4d/5x5_reduce
I0403 14:57:55.190060  2291 net.cpp:425] inception_4d/5x5_reduce <- inception_4c/output_inception_4c/output_0_split_2
I0403 14:57:55.190080  2291 net.cpp:399] inception_4d/5x5_reduce -> inception_4d/5x5_reduce
I0403 14:57:55.191206  2291 net.cpp:141] Setting up inception_4d/5x5_reduce
I0403 14:57:55.191239  2291 net.cpp:148] Top shape: 24 32 14 14 (150528)
I0403 14:57:55.191256  2291 net.cpp:156] Memory required for data: 1132256544
I0403 14:57:55.191273  2291 layer_factory.hpp:77] Creating layer inception_4d/relu_5x5_reduce
I0403 14:57:55.191290  2291 net.cpp:91] Creating Layer inception_4d/relu_5x5_reduce
I0403 14:57:55.191305  2291 net.cpp:425] inception_4d/relu_5x5_reduce <- inception_4d/5x5_reduce
I0403 14:57:55.191324  2291 net.cpp:386] inception_4d/relu_5x5_reduce -> inception_4d/5x5_reduce (in-place)
I0403 14:57:55.191504  2291 net.cpp:141] Setting up inception_4d/relu_5x5_reduce
I0403 14:57:55.191527  2291 net.cpp:148] Top shape: 24 32 14 14 (150528)
I0403 14:57:55.191541  2291 net.cpp:156] Memory required for data: 1132858656
I0403 14:57:55.191556  2291 layer_factory.hpp:77] Creating layer inception_4d/5x5
I0403 14:57:55.191577  2291 net.cpp:91] Creating Layer inception_4d/5x5
I0403 14:57:55.191594  2291 net.cpp:425] inception_4d/5x5 <- inception_4d/5x5_reduce
I0403 14:57:55.191614  2291 net.cpp:399] inception_4d/5x5 -> inception_4d/5x5
I0403 14:57:55.193012  2291 net.cpp:141] Setting up inception_4d/5x5
I0403 14:57:55.193039  2291 net.cpp:148] Top shape: 24 64 14 14 (301056)
I0403 14:57:55.193053  2291 net.cpp:156] Memory required for data: 1134062880
I0403 14:57:55.193071  2291 layer_factory.hpp:77] Creating layer inception_4d/relu_5x5
I0403 14:57:55.193104  2291 net.cpp:91] Creating Layer inception_4d/relu_5x5
I0403 14:57:55.193121  2291 net.cpp:425] inception_4d/relu_5x5 <- inception_4d/5x5
I0403 14:57:55.193138  2291 net.cpp:386] inception_4d/relu_5x5 -> inception_4d/5x5 (in-place)
I0403 14:57:55.193429  2291 net.cpp:141] Setting up inception_4d/relu_5x5
I0403 14:57:55.193454  2291 net.cpp:148] Top shape: 24 64 14 14 (301056)
I0403 14:57:55.193470  2291 net.cpp:156] Memory required for data: 1135267104
I0403 14:57:55.193483  2291 layer_factory.hpp:77] Creating layer inception_4d/pool
I0403 14:57:55.193502  2291 net.cpp:91] Creating Layer inception_4d/pool
I0403 14:57:55.193518  2291 net.cpp:425] inception_4d/pool <- inception_4c/output_inception_4c/output_0_split_3
I0403 14:57:55.193536  2291 net.cpp:399] inception_4d/pool -> inception_4d/pool
I0403 14:57:55.193600  2291 net.cpp:141] Setting up inception_4d/pool
I0403 14:57:55.193622  2291 net.cpp:148] Top shape: 24 512 14 14 (2408448)
I0403 14:57:55.193636  2291 net.cpp:156] Memory required for data: 1144900896
I0403 14:57:55.193650  2291 layer_factory.hpp:77] Creating layer inception_4d/pool_proj
I0403 14:57:55.193672  2291 net.cpp:91] Creating Layer inception_4d/pool_proj
I0403 14:57:55.193688  2291 net.cpp:425] inception_4d/pool_proj <- inception_4d/pool
I0403 14:57:55.193709  2291 net.cpp:399] inception_4d/pool_proj -> inception_4d/pool_proj
I0403 14:57:55.195426  2291 net.cpp:141] Setting up inception_4d/pool_proj
I0403 14:57:55.195454  2291 net.cpp:148] Top shape: 24 64 14 14 (301056)
I0403 14:57:55.195469  2291 net.cpp:156] Memory required for data: 1146105120
I0403 14:57:55.195487  2291 layer_factory.hpp:77] Creating layer inception_4d/relu_pool_proj
I0403 14:57:55.195504  2291 net.cpp:91] Creating Layer inception_4d/relu_pool_proj
I0403 14:57:55.195520  2291 net.cpp:425] inception_4d/relu_pool_proj <- inception_4d/pool_proj
I0403 14:57:55.195539  2291 net.cpp:386] inception_4d/relu_pool_proj -> inception_4d/pool_proj (in-place)
I0403 14:57:55.195716  2291 net.cpp:141] Setting up inception_4d/relu_pool_proj
I0403 14:57:55.195740  2291 net.cpp:148] Top shape: 24 64 14 14 (301056)
I0403 14:57:55.195755  2291 net.cpp:156] Memory required for data: 1147309344
I0403 14:57:55.195768  2291 layer_factory.hpp:77] Creating layer inception_4d/output
I0403 14:57:55.195788  2291 net.cpp:91] Creating Layer inception_4d/output
I0403 14:57:55.195803  2291 net.cpp:425] inception_4d/output <- inception_4d/1x1
I0403 14:57:55.195821  2291 net.cpp:425] inception_4d/output <- inception_4d/3x3
I0403 14:57:55.195837  2291 net.cpp:425] inception_4d/output <- inception_4d/5x5
I0403 14:57:55.195852  2291 net.cpp:425] inception_4d/output <- inception_4d/pool_proj
I0403 14:57:55.195868  2291 net.cpp:399] inception_4d/output -> inception_4d/output
I0403 14:57:55.195911  2291 net.cpp:141] Setting up inception_4d/output
I0403 14:57:55.195936  2291 net.cpp:148] Top shape: 24 528 14 14 (2483712)
I0403 14:57:55.195951  2291 net.cpp:156] Memory required for data: 1157244192
I0403 14:57:55.195966  2291 layer_factory.hpp:77] Creating layer inception_4d/output_inception_4d/output_0_split
I0403 14:57:55.195981  2291 net.cpp:91] Creating Layer inception_4d/output_inception_4d/output_0_split
I0403 14:57:55.195996  2291 net.cpp:425] inception_4d/output_inception_4d/output_0_split <- inception_4d/output
I0403 14:57:55.196015  2291 net.cpp:399] inception_4d/output_inception_4d/output_0_split -> inception_4d/output_inception_4d/output_0_split_0
I0403 14:57:55.196036  2291 net.cpp:399] inception_4d/output_inception_4d/output_0_split -> inception_4d/output_inception_4d/output_0_split_1
I0403 14:57:55.196055  2291 net.cpp:399] inception_4d/output_inception_4d/output_0_split -> inception_4d/output_inception_4d/output_0_split_2
I0403 14:57:55.196075  2291 net.cpp:399] inception_4d/output_inception_4d/output_0_split -> inception_4d/output_inception_4d/output_0_split_3
I0403 14:57:55.196094  2291 net.cpp:399] inception_4d/output_inception_4d/output_0_split -> inception_4d/output_inception_4d/output_0_split_4
I0403 14:57:55.196192  2291 net.cpp:141] Setting up inception_4d/output_inception_4d/output_0_split
I0403 14:57:55.196241  2291 net.cpp:148] Top shape: 24 528 14 14 (2483712)
I0403 14:57:55.196272  2291 net.cpp:148] Top shape: 24 528 14 14 (2483712)
I0403 14:57:55.196290  2291 net.cpp:148] Top shape: 24 528 14 14 (2483712)
I0403 14:57:55.196305  2291 net.cpp:148] Top shape: 24 528 14 14 (2483712)
I0403 14:57:55.196321  2291 net.cpp:148] Top shape: 24 528 14 14 (2483712)
I0403 14:57:55.196334  2291 net.cpp:156] Memory required for data: 1206918432
I0403 14:57:55.196349  2291 layer_factory.hpp:77] Creating layer loss2/ave_pool
I0403 14:57:55.196367  2291 net.cpp:91] Creating Layer loss2/ave_pool
I0403 14:57:55.196382  2291 net.cpp:425] loss2/ave_pool <- inception_4d/output_inception_4d/output_0_split_0
I0403 14:57:55.196403  2291 net.cpp:399] loss2/ave_pool -> loss2/ave_pool
I0403 14:57:55.196718  2291 net.cpp:141] Setting up loss2/ave_pool
I0403 14:57:55.196743  2291 net.cpp:148] Top shape: 24 528 4 4 (202752)
I0403 14:57:55.196758  2291 net.cpp:156] Memory required for data: 1207729440
I0403 14:57:55.196773  2291 layer_factory.hpp:77] Creating layer loss2/conv
I0403 14:57:55.196794  2291 net.cpp:91] Creating Layer loss2/conv
I0403 14:57:55.196811  2291 net.cpp:425] loss2/conv <- loss2/ave_pool
I0403 14:57:55.196832  2291 net.cpp:399] loss2/conv -> loss2/conv
I0403 14:57:55.198654  2291 net.cpp:141] Setting up loss2/conv
I0403 14:57:55.198681  2291 net.cpp:148] Top shape: 24 128 4 4 (49152)
I0403 14:57:55.198698  2291 net.cpp:156] Memory required for data: 1207926048
I0403 14:57:55.198715  2291 layer_factory.hpp:77] Creating layer loss2/relu_conv
I0403 14:57:55.198736  2291 net.cpp:91] Creating Layer loss2/relu_conv
I0403 14:57:55.198765  2291 net.cpp:425] loss2/relu_conv <- loss2/conv
I0403 14:57:55.198782  2291 net.cpp:386] loss2/relu_conv -> loss2/conv (in-place)
I0403 14:57:55.199059  2291 net.cpp:141] Setting up loss2/relu_conv
I0403 14:57:55.199084  2291 net.cpp:148] Top shape: 24 128 4 4 (49152)
I0403 14:57:55.199098  2291 net.cpp:156] Memory required for data: 1208122656
I0403 14:57:55.199112  2291 layer_factory.hpp:77] Creating layer loss2/fc
I0403 14:57:55.199133  2291 net.cpp:91] Creating Layer loss2/fc
I0403 14:57:55.199151  2291 net.cpp:425] loss2/fc <- loss2/conv
I0403 14:57:55.199167  2291 net.cpp:399] loss2/fc -> loss2/fc
I0403 14:57:55.216078  2291 net.cpp:141] Setting up loss2/fc
I0403 14:57:55.216112  2291 net.cpp:148] Top shape: 24 1024 (24576)
I0403 14:57:55.216128  2291 net.cpp:156] Memory required for data: 1208220960
I0403 14:57:55.216147  2291 layer_factory.hpp:77] Creating layer loss2/relu_fc
I0403 14:57:55.216166  2291 net.cpp:91] Creating Layer loss2/relu_fc
I0403 14:57:55.216182  2291 net.cpp:425] loss2/relu_fc <- loss2/fc
I0403 14:57:55.216202  2291 net.cpp:386] loss2/relu_fc -> loss2/fc (in-place)
I0403 14:57:55.216506  2291 net.cpp:141] Setting up loss2/relu_fc
I0403 14:57:55.216531  2291 net.cpp:148] Top shape: 24 1024 (24576)
I0403 14:57:55.216547  2291 net.cpp:156] Memory required for data: 1208319264
I0403 14:57:55.216560  2291 layer_factory.hpp:77] Creating layer loss2/drop_fc
I0403 14:57:55.216578  2291 net.cpp:91] Creating Layer loss2/drop_fc
I0403 14:57:55.216593  2291 net.cpp:425] loss2/drop_fc <- loss2/fc
I0403 14:57:55.216612  2291 net.cpp:386] loss2/drop_fc -> loss2/fc (in-place)
I0403 14:57:55.216658  2291 net.cpp:141] Setting up loss2/drop_fc
I0403 14:57:55.216684  2291 net.cpp:148] Top shape: 24 1024 (24576)
I0403 14:57:55.216699  2291 net.cpp:156] Memory required for data: 1208417568
I0403 14:57:55.216713  2291 layer_factory.hpp:77] Creating layer loss2/classifier_plantvillage
I0403 14:57:55.216732  2291 net.cpp:91] Creating Layer loss2/classifier_plantvillage
I0403 14:57:55.216747  2291 net.cpp:425] loss2/classifier_plantvillage <- loss2/fc
I0403 14:57:55.216766  2291 net.cpp:399] loss2/classifier_plantvillage -> loss2/classifier_plantvillage
I0403 14:57:55.217144  2291 net.cpp:141] Setting up loss2/classifier_plantvillage
I0403 14:57:55.217170  2291 net.cpp:148] Top shape: 24 38 (912)
I0403 14:57:55.217200  2291 net.cpp:156] Memory required for data: 1208421216
I0403 14:57:55.217224  2291 layer_factory.hpp:77] Creating layer loss2/classifier_plantvillage_loss2/classifier_plantvillage_0_split
I0403 14:57:55.217243  2291 net.cpp:91] Creating Layer loss2/classifier_plantvillage_loss2/classifier_plantvillage_0_split
I0403 14:57:55.217258  2291 net.cpp:425] loss2/classifier_plantvillage_loss2/classifier_plantvillage_0_split <- loss2/classifier_plantvillage
I0403 14:57:55.217277  2291 net.cpp:399] loss2/classifier_plantvillage_loss2/classifier_plantvillage_0_split -> loss2/classifier_plantvillage_loss2/classifier_plantvillage_0_split_0
I0403 14:57:55.217295  2291 net.cpp:399] loss2/classifier_plantvillage_loss2/classifier_plantvillage_0_split -> loss2/classifier_plantvillage_loss2/classifier_plantvillage_0_split_1
I0403 14:57:55.217314  2291 net.cpp:399] loss2/classifier_plantvillage_loss2/classifier_plantvillage_0_split -> loss2/classifier_plantvillage_loss2/classifier_plantvillage_0_split_2
I0403 14:57:55.217388  2291 net.cpp:141] Setting up loss2/classifier_plantvillage_loss2/classifier_plantvillage_0_split
I0403 14:57:55.217409  2291 net.cpp:148] Top shape: 24 38 (912)
I0403 14:57:55.217427  2291 net.cpp:148] Top shape: 24 38 (912)
I0403 14:57:55.217442  2291 net.cpp:148] Top shape: 24 38 (912)
I0403 14:57:55.217454  2291 net.cpp:156] Memory required for data: 1208432160
I0403 14:57:55.217468  2291 layer_factory.hpp:77] Creating layer inception_4e/1x1
I0403 14:57:55.217488  2291 net.cpp:91] Creating Layer inception_4e/1x1
I0403 14:57:55.217504  2291 net.cpp:425] inception_4e/1x1 <- inception_4d/output_inception_4d/output_0_split_1
I0403 14:57:55.217525  2291 net.cpp:399] inception_4e/1x1 -> inception_4e/1x1
I0403 14:57:55.219279  2291 net.cpp:141] Setting up inception_4e/1x1
I0403 14:57:55.219305  2291 net.cpp:148] Top shape: 24 256 14 14 (1204224)
I0403 14:57:55.219321  2291 net.cpp:156] Memory required for data: 1213249056
I0403 14:57:55.219337  2291 layer_factory.hpp:77] Creating layer inception_4e/relu_1x1
I0403 14:57:55.219357  2291 net.cpp:91] Creating Layer inception_4e/relu_1x1
I0403 14:57:55.219373  2291 net.cpp:425] inception_4e/relu_1x1 <- inception_4e/1x1
I0403 14:57:55.219390  2291 net.cpp:386] inception_4e/relu_1x1 -> inception_4e/1x1 (in-place)
I0403 14:57:55.219671  2291 net.cpp:141] Setting up inception_4e/relu_1x1
I0403 14:57:55.219696  2291 net.cpp:148] Top shape: 24 256 14 14 (1204224)
I0403 14:57:55.219712  2291 net.cpp:156] Memory required for data: 1218065952
I0403 14:57:55.219725  2291 layer_factory.hpp:77] Creating layer inception_4e/3x3_reduce
I0403 14:57:55.219748  2291 net.cpp:91] Creating Layer inception_4e/3x3_reduce
I0403 14:57:55.219765  2291 net.cpp:425] inception_4e/3x3_reduce <- inception_4d/output_inception_4d/output_0_split_2
I0403 14:57:55.219784  2291 net.cpp:399] inception_4e/3x3_reduce -> inception_4e/3x3_reduce
I0403 14:57:55.221830  2291 net.cpp:141] Setting up inception_4e/3x3_reduce
I0403 14:57:55.221858  2291 net.cpp:148] Top shape: 24 160 14 14 (752640)
I0403 14:57:55.221873  2291 net.cpp:156] Memory required for data: 1221076512
I0403 14:57:55.221890  2291 layer_factory.hpp:77] Creating layer inception_4e/relu_3x3_reduce
I0403 14:57:55.221910  2291 net.cpp:91] Creating Layer inception_4e/relu_3x3_reduce
I0403 14:57:55.221926  2291 net.cpp:425] inception_4e/relu_3x3_reduce <- inception_4e/3x3_reduce
I0403 14:57:55.221943  2291 net.cpp:386] inception_4e/relu_3x3_reduce -> inception_4e/3x3_reduce (in-place)
I0403 14:57:55.222121  2291 net.cpp:141] Setting up inception_4e/relu_3x3_reduce
I0403 14:57:55.222144  2291 net.cpp:148] Top shape: 24 160 14 14 (752640)
I0403 14:57:55.222158  2291 net.cpp:156] Memory required for data: 1224087072
I0403 14:57:55.222172  2291 layer_factory.hpp:77] Creating layer inception_4e/3x3
I0403 14:57:55.222195  2291 net.cpp:91] Creating Layer inception_4e/3x3
I0403 14:57:55.222223  2291 net.cpp:425] inception_4e/3x3 <- inception_4e/3x3_reduce
I0403 14:57:55.222244  2291 net.cpp:399] inception_4e/3x3 -> inception_4e/3x3
I0403 14:57:55.227051  2291 net.cpp:141] Setting up inception_4e/3x3
I0403 14:57:55.227090  2291 net.cpp:148] Top shape: 24 320 14 14 (1505280)
I0403 14:57:55.227107  2291 net.cpp:156] Memory required for data: 1230108192
I0403 14:57:55.227126  2291 layer_factory.hpp:77] Creating layer inception_4e/relu_3x3
I0403 14:57:55.227144  2291 net.cpp:91] Creating Layer inception_4e/relu_3x3
I0403 14:57:55.227159  2291 net.cpp:425] inception_4e/relu_3x3 <- inception_4e/3x3
I0403 14:57:55.227175  2291 net.cpp:386] inception_4e/relu_3x3 -> inception_4e/3x3 (in-place)
I0403 14:57:55.227468  2291 net.cpp:141] Setting up inception_4e/relu_3x3
I0403 14:57:55.227494  2291 net.cpp:148] Top shape: 24 320 14 14 (1505280)
I0403 14:57:55.227509  2291 net.cpp:156] Memory required for data: 1236129312
I0403 14:57:55.227524  2291 layer_factory.hpp:77] Creating layer inception_4e/5x5_reduce
I0403 14:57:55.227546  2291 net.cpp:91] Creating Layer inception_4e/5x5_reduce
I0403 14:57:55.227563  2291 net.cpp:425] inception_4e/5x5_reduce <- inception_4d/output_inception_4d/output_0_split_3
I0403 14:57:55.227582  2291 net.cpp:399] inception_4e/5x5_reduce -> inception_4e/5x5_reduce
I0403 14:57:55.228605  2291 net.cpp:141] Setting up inception_4e/5x5_reduce
I0403 14:57:55.228629  2291 net.cpp:148] Top shape: 24 32 14 14 (150528)
I0403 14:57:55.228644  2291 net.cpp:156] Memory required for data: 1236731424
I0403 14:57:55.228662  2291 layer_factory.hpp:77] Creating layer inception_4e/relu_5x5_reduce
I0403 14:57:55.228682  2291 net.cpp:91] Creating Layer inception_4e/relu_5x5_reduce
I0403 14:57:55.228698  2291 net.cpp:425] inception_4e/relu_5x5_reduce <- inception_4e/5x5_reduce
I0403 14:57:55.228714  2291 net.cpp:386] inception_4e/relu_5x5_reduce -> inception_4e/5x5_reduce (in-place)
I0403 14:57:55.228997  2291 net.cpp:141] Setting up inception_4e/relu_5x5_reduce
I0403 14:57:55.229022  2291 net.cpp:148] Top shape: 24 32 14 14 (150528)
I0403 14:57:55.229037  2291 net.cpp:156] Memory required for data: 1237333536
I0403 14:57:55.229051  2291 layer_factory.hpp:77] Creating layer inception_4e/5x5
I0403 14:57:55.229090  2291 net.cpp:91] Creating Layer inception_4e/5x5
I0403 14:57:55.229109  2291 net.cpp:425] inception_4e/5x5 <- inception_4e/5x5_reduce
I0403 14:57:55.229130  2291 net.cpp:399] inception_4e/5x5 -> inception_4e/5x5
I0403 14:57:55.230931  2291 net.cpp:141] Setting up inception_4e/5x5
I0403 14:57:55.230957  2291 net.cpp:148] Top shape: 24 128 14 14 (602112)
I0403 14:57:55.230972  2291 net.cpp:156] Memory required for data: 1239741984
I0403 14:57:55.230989  2291 layer_factory.hpp:77] Creating layer inception_4e/relu_5x5
I0403 14:57:55.231008  2291 net.cpp:91] Creating Layer inception_4e/relu_5x5
I0403 14:57:55.231022  2291 net.cpp:425] inception_4e/relu_5x5 <- inception_4e/5x5
I0403 14:57:55.231040  2291 net.cpp:386] inception_4e/relu_5x5 -> inception_4e/5x5 (in-place)
I0403 14:57:55.231233  2291 net.cpp:141] Setting up inception_4e/relu_5x5
I0403 14:57:55.231257  2291 net.cpp:148] Top shape: 24 128 14 14 (602112)
I0403 14:57:55.231272  2291 net.cpp:156] Memory required for data: 1242150432
I0403 14:57:55.231287  2291 layer_factory.hpp:77] Creating layer inception_4e/pool
I0403 14:57:55.231305  2291 net.cpp:91] Creating Layer inception_4e/pool
I0403 14:57:55.231323  2291 net.cpp:425] inception_4e/pool <- inception_4d/output_inception_4d/output_0_split_4
I0403 14:57:55.231339  2291 net.cpp:399] inception_4e/pool -> inception_4e/pool
I0403 14:57:55.231407  2291 net.cpp:141] Setting up inception_4e/pool
I0403 14:57:55.231429  2291 net.cpp:148] Top shape: 24 528 14 14 (2483712)
I0403 14:57:55.231443  2291 net.cpp:156] Memory required for data: 1252085280
I0403 14:57:55.231457  2291 layer_factory.hpp:77] Creating layer inception_4e/pool_proj
I0403 14:57:55.231479  2291 net.cpp:91] Creating Layer inception_4e/pool_proj
I0403 14:57:55.231495  2291 net.cpp:425] inception_4e/pool_proj <- inception_4e/pool
I0403 14:57:55.231515  2291 net.cpp:399] inception_4e/pool_proj -> inception_4e/pool_proj
I0403 14:57:55.232952  2291 net.cpp:141] Setting up inception_4e/pool_proj
I0403 14:57:55.232990  2291 net.cpp:148] Top shape: 24 128 14 14 (602112)
I0403 14:57:55.233005  2291 net.cpp:156] Memory required for data: 1254493728
I0403 14:57:55.233022  2291 layer_factory.hpp:77] Creating layer inception_4e/relu_pool_proj
I0403 14:57:55.233041  2291 net.cpp:91] Creating Layer inception_4e/relu_pool_proj
I0403 14:57:55.233055  2291 net.cpp:425] inception_4e/relu_pool_proj <- inception_4e/pool_proj
I0403 14:57:55.233073  2291 net.cpp:386] inception_4e/relu_pool_proj -> inception_4e/pool_proj (in-place)
I0403 14:57:55.233363  2291 net.cpp:141] Setting up inception_4e/relu_pool_proj
I0403 14:57:55.233389  2291 net.cpp:148] Top shape: 24 128 14 14 (602112)
I0403 14:57:55.233403  2291 net.cpp:156] Memory required for data: 1256902176
I0403 14:57:55.233417  2291 layer_factory.hpp:77] Creating layer inception_4e/output
I0403 14:57:55.233434  2291 net.cpp:91] Creating Layer inception_4e/output
I0403 14:57:55.233449  2291 net.cpp:425] inception_4e/output <- inception_4e/1x1
I0403 14:57:55.233465  2291 net.cpp:425] inception_4e/output <- inception_4e/3x3
I0403 14:57:55.233480  2291 net.cpp:425] inception_4e/output <- inception_4e/5x5
I0403 14:57:55.233495  2291 net.cpp:425] inception_4e/output <- inception_4e/pool_proj
I0403 14:57:55.233515  2291 net.cpp:399] inception_4e/output -> inception_4e/output
I0403 14:57:55.233561  2291 net.cpp:141] Setting up inception_4e/output
I0403 14:57:55.233585  2291 net.cpp:148] Top shape: 24 832 14 14 (3913728)
I0403 14:57:55.233600  2291 net.cpp:156] Memory required for data: 1272557088
I0403 14:57:55.233614  2291 layer_factory.hpp:77] Creating layer pool4/3x3_s2
I0403 14:57:55.233631  2291 net.cpp:91] Creating Layer pool4/3x3_s2
I0403 14:57:55.233646  2291 net.cpp:425] pool4/3x3_s2 <- inception_4e/output
I0403 14:57:55.233664  2291 net.cpp:399] pool4/3x3_s2 -> pool4/3x3_s2
I0403 14:57:55.233729  2291 net.cpp:141] Setting up pool4/3x3_s2
I0403 14:57:55.233752  2291 net.cpp:148] Top shape: 24 832 7 7 (978432)
I0403 14:57:55.233765  2291 net.cpp:156] Memory required for data: 1276470816
I0403 14:57:55.233779  2291 layer_factory.hpp:77] Creating layer pool4/3x3_s2_pool4/3x3_s2_0_split
I0403 14:57:55.233796  2291 net.cpp:91] Creating Layer pool4/3x3_s2_pool4/3x3_s2_0_split
I0403 14:57:55.233810  2291 net.cpp:425] pool4/3x3_s2_pool4/3x3_s2_0_split <- pool4/3x3_s2
I0403 14:57:55.233830  2291 net.cpp:399] pool4/3x3_s2_pool4/3x3_s2_0_split -> pool4/3x3_s2_pool4/3x3_s2_0_split_0
I0403 14:57:55.233850  2291 net.cpp:399] pool4/3x3_s2_pool4/3x3_s2_0_split -> pool4/3x3_s2_pool4/3x3_s2_0_split_1
I0403 14:57:55.233868  2291 net.cpp:399] pool4/3x3_s2_pool4/3x3_s2_0_split -> pool4/3x3_s2_pool4/3x3_s2_0_split_2
I0403 14:57:55.233891  2291 net.cpp:399] pool4/3x3_s2_pool4/3x3_s2_0_split -> pool4/3x3_s2_pool4/3x3_s2_0_split_3
I0403 14:57:55.233978  2291 net.cpp:141] Setting up pool4/3x3_s2_pool4/3x3_s2_0_split
I0403 14:57:55.233999  2291 net.cpp:148] Top shape: 24 832 7 7 (978432)
I0403 14:57:55.234015  2291 net.cpp:148] Top shape: 24 832 7 7 (978432)
I0403 14:57:55.234030  2291 net.cpp:148] Top shape: 24 832 7 7 (978432)
I0403 14:57:55.234045  2291 net.cpp:148] Top shape: 24 832 7 7 (978432)
I0403 14:57:55.234058  2291 net.cpp:156] Memory required for data: 1292125728
I0403 14:57:55.234072  2291 layer_factory.hpp:77] Creating layer inception_5a/1x1
I0403 14:57:55.234094  2291 net.cpp:91] Creating Layer inception_5a/1x1
I0403 14:57:55.234112  2291 net.cpp:425] inception_5a/1x1 <- pool4/3x3_s2_pool4/3x3_s2_0_split_0
I0403 14:57:55.234132  2291 net.cpp:399] inception_5a/1x1 -> inception_5a/1x1
I0403 14:57:55.236868  2291 net.cpp:141] Setting up inception_5a/1x1
I0403 14:57:55.236896  2291 net.cpp:148] Top shape: 24 256 7 7 (301056)
I0403 14:57:55.236910  2291 net.cpp:156] Memory required for data: 1293329952
I0403 14:57:55.236928  2291 layer_factory.hpp:77] Creating layer inception_5a/relu_1x1
I0403 14:57:55.236948  2291 net.cpp:91] Creating Layer inception_5a/relu_1x1
I0403 14:57:55.236964  2291 net.cpp:425] inception_5a/relu_1x1 <- inception_5a/1x1
I0403 14:57:55.236980  2291 net.cpp:386] inception_5a/relu_1x1 -> inception_5a/1x1 (in-place)
I0403 14:57:55.237296  2291 net.cpp:141] Setting up inception_5a/relu_1x1
I0403 14:57:55.237323  2291 net.cpp:148] Top shape: 24 256 7 7 (301056)
I0403 14:57:55.237337  2291 net.cpp:156] Memory required for data: 1294534176
I0403 14:57:55.237351  2291 layer_factory.hpp:77] Creating layer inception_5a/3x3_reduce
I0403 14:57:55.237375  2291 net.cpp:91] Creating Layer inception_5a/3x3_reduce
I0403 14:57:55.237391  2291 net.cpp:425] inception_5a/3x3_reduce <- pool4/3x3_s2_pool4/3x3_s2_0_split_1
I0403 14:57:55.237412  2291 net.cpp:399] inception_5a/3x3_reduce -> inception_5a/3x3_reduce
I0403 14:57:55.239790  2291 net.cpp:141] Setting up inception_5a/3x3_reduce
I0403 14:57:55.239820  2291 net.cpp:148] Top shape: 24 160 7 7 (188160)
I0403 14:57:55.239835  2291 net.cpp:156] Memory required for data: 1295286816
I0403 14:57:55.239853  2291 layer_factory.hpp:77] Creating layer inception_5a/relu_3x3_reduce
I0403 14:57:55.239871  2291 net.cpp:91] Creating Layer inception_5a/relu_3x3_reduce
I0403 14:57:55.239886  2291 net.cpp:425] inception_5a/relu_3x3_reduce <- inception_5a/3x3_reduce
I0403 14:57:55.239903  2291 net.cpp:386] inception_5a/relu_3x3_reduce -> inception_5a/3x3_reduce (in-place)
I0403 14:57:55.240084  2291 net.cpp:141] Setting up inception_5a/relu_3x3_reduce
I0403 14:57:55.240108  2291 net.cpp:148] Top shape: 24 160 7 7 (188160)
I0403 14:57:55.240123  2291 net.cpp:156] Memory required for data: 1296039456
I0403 14:57:55.240136  2291 layer_factory.hpp:77] Creating layer inception_5a/3x3
I0403 14:57:55.240159  2291 net.cpp:91] Creating Layer inception_5a/3x3
I0403 14:57:55.240175  2291 net.cpp:425] inception_5a/3x3 <- inception_5a/3x3_reduce
I0403 14:57:55.240195  2291 net.cpp:399] inception_5a/3x3 -> inception_5a/3x3
I0403 14:57:55.245189  2291 net.cpp:141] Setting up inception_5a/3x3
I0403 14:57:55.245221  2291 net.cpp:148] Top shape: 24 320 7 7 (376320)
I0403 14:57:55.245237  2291 net.cpp:156] Memory required for data: 1297544736
I0403 14:57:55.245255  2291 layer_factory.hpp:77] Creating layer inception_5a/relu_3x3
I0403 14:57:55.245273  2291 net.cpp:91] Creating Layer inception_5a/relu_3x3
I0403 14:57:55.245288  2291 net.cpp:425] inception_5a/relu_3x3 <- inception_5a/3x3
I0403 14:57:55.245307  2291 net.cpp:386] inception_5a/relu_3x3 -> inception_5a/3x3 (in-place)
I0403 14:57:55.245615  2291 net.cpp:141] Setting up inception_5a/relu_3x3
I0403 14:57:55.245640  2291 net.cpp:148] Top shape: 24 320 7 7 (376320)
I0403 14:57:55.245656  2291 net.cpp:156] Memory required for data: 1299050016
I0403 14:57:55.245671  2291 layer_factory.hpp:77] Creating layer inception_5a/5x5_reduce
I0403 14:57:55.245692  2291 net.cpp:91] Creating Layer inception_5a/5x5_reduce
I0403 14:57:55.245709  2291 net.cpp:425] inception_5a/5x5_reduce <- pool4/3x3_s2_pool4/3x3_s2_0_split_2
I0403 14:57:55.245731  2291 net.cpp:399] inception_5a/5x5_reduce -> inception_5a/5x5_reduce
I0403 14:57:55.246906  2291 net.cpp:141] Setting up inception_5a/5x5_reduce
I0403 14:57:55.246935  2291 net.cpp:148] Top shape: 24 32 7 7 (37632)
I0403 14:57:55.246951  2291 net.cpp:156] Memory required for data: 1299200544
I0403 14:57:55.246968  2291 layer_factory.hpp:77] Creating layer inception_5a/relu_5x5_reduce
I0403 14:57:55.246986  2291 net.cpp:91] Creating Layer inception_5a/relu_5x5_reduce
I0403 14:57:55.247001  2291 net.cpp:425] inception_5a/relu_5x5_reduce <- inception_5a/5x5_reduce
I0403 14:57:55.247017  2291 net.cpp:386] inception_5a/relu_5x5_reduce -> inception_5a/5x5_reduce (in-place)
I0403 14:57:55.247313  2291 net.cpp:141] Setting up inception_5a/relu_5x5_reduce
I0403 14:57:55.247339  2291 net.cpp:148] Top shape: 24 32 7 7 (37632)
I0403 14:57:55.247354  2291 net.cpp:156] Memory required for data: 1299351072
I0403 14:57:55.247369  2291 layer_factory.hpp:77] Creating layer inception_5a/5x5
I0403 14:57:55.247390  2291 net.cpp:91] Creating Layer inception_5a/5x5
I0403 14:57:55.247406  2291 net.cpp:425] inception_5a/5x5 <- inception_5a/5x5_reduce
I0403 14:57:55.247427  2291 net.cpp:399] inception_5a/5x5 -> inception_5a/5x5
I0403 14:57:55.249107  2291 net.cpp:141] Setting up inception_5a/5x5
I0403 14:57:55.249143  2291 net.cpp:148] Top shape: 24 128 7 7 (150528)
I0403 14:57:55.249160  2291 net.cpp:156] Memory required for data: 1299953184
I0403 14:57:55.249177  2291 layer_factory.hpp:77] Creating layer inception_5a/relu_5x5
I0403 14:57:55.249194  2291 net.cpp:91] Creating Layer inception_5a/relu_5x5
I0403 14:57:55.249214  2291 net.cpp:425] inception_5a/relu_5x5 <- inception_5a/5x5
I0403 14:57:55.249235  2291 net.cpp:386] inception_5a/relu_5x5 -> inception_5a/5x5 (in-place)
I0403 14:57:55.249428  2291 net.cpp:141] Setting up inception_5a/relu_5x5
I0403 14:57:55.249451  2291 net.cpp:148] Top shape: 24 128 7 7 (150528)
I0403 14:57:55.249467  2291 net.cpp:156] Memory required for data: 1300555296
I0403 14:57:55.249482  2291 layer_factory.hpp:77] Creating layer inception_5a/pool
I0403 14:57:55.249501  2291 net.cpp:91] Creating Layer inception_5a/pool
I0403 14:57:55.249517  2291 net.cpp:425] inception_5a/pool <- pool4/3x3_s2_pool4/3x3_s2_0_split_3
I0403 14:57:55.249536  2291 net.cpp:399] inception_5a/pool -> inception_5a/pool
I0403 14:57:55.249601  2291 net.cpp:141] Setting up inception_5a/pool
I0403 14:57:55.249624  2291 net.cpp:148] Top shape: 24 832 7 7 (978432)
I0403 14:57:55.249639  2291 net.cpp:156] Memory required for data: 1304469024
I0403 14:57:55.249652  2291 layer_factory.hpp:77] Creating layer inception_5a/pool_proj
I0403 14:57:55.249673  2291 net.cpp:91] Creating Layer inception_5a/pool_proj
I0403 14:57:55.249691  2291 net.cpp:425] inception_5a/pool_proj <- inception_5a/pool
I0403 14:57:55.249711  2291 net.cpp:399] inception_5a/pool_proj -> inception_5a/pool_proj
I0403 14:57:55.251924  2291 net.cpp:141] Setting up inception_5a/pool_proj
I0403 14:57:55.251951  2291 net.cpp:148] Top shape: 24 128 7 7 (150528)
I0403 14:57:55.251967  2291 net.cpp:156] Memory required for data: 1305071136
I0403 14:57:55.251986  2291 layer_factory.hpp:77] Creating layer inception_5a/relu_pool_proj
I0403 14:57:55.252002  2291 net.cpp:91] Creating Layer inception_5a/relu_pool_proj
I0403 14:57:55.252018  2291 net.cpp:425] inception_5a/relu_pool_proj <- inception_5a/pool_proj
I0403 14:57:55.252038  2291 net.cpp:386] inception_5a/relu_pool_proj -> inception_5a/pool_proj (in-place)
I0403 14:57:55.252321  2291 net.cpp:141] Setting up inception_5a/relu_pool_proj
I0403 14:57:55.252346  2291 net.cpp:148] Top shape: 24 128 7 7 (150528)
I0403 14:57:55.252362  2291 net.cpp:156] Memory required for data: 1305673248
I0403 14:57:55.252377  2291 layer_factory.hpp:77] Creating layer inception_5a/output
I0403 14:57:55.252393  2291 net.cpp:91] Creating Layer inception_5a/output
I0403 14:57:55.252408  2291 net.cpp:425] inception_5a/output <- inception_5a/1x1
I0403 14:57:55.252424  2291 net.cpp:425] inception_5a/output <- inception_5a/3x3
I0403 14:57:55.252439  2291 net.cpp:425] inception_5a/output <- inception_5a/5x5
I0403 14:57:55.252454  2291 net.cpp:425] inception_5a/output <- inception_5a/pool_proj
I0403 14:57:55.252475  2291 net.cpp:399] inception_5a/output -> inception_5a/output
I0403 14:57:55.252521  2291 net.cpp:141] Setting up inception_5a/output
I0403 14:57:55.252543  2291 net.cpp:148] Top shape: 24 832 7 7 (978432)
I0403 14:57:55.252557  2291 net.cpp:156] Memory required for data: 1309586976
I0403 14:57:55.252573  2291 layer_factory.hpp:77] Creating layer inception_5a/output_inception_5a/output_0_split
I0403 14:57:55.252593  2291 net.cpp:91] Creating Layer inception_5a/output_inception_5a/output_0_split
I0403 14:57:55.252609  2291 net.cpp:425] inception_5a/output_inception_5a/output_0_split <- inception_5a/output
I0403 14:57:55.252625  2291 net.cpp:399] inception_5a/output_inception_5a/output_0_split -> inception_5a/output_inception_5a/output_0_split_0
I0403 14:57:55.252648  2291 net.cpp:399] inception_5a/output_inception_5a/output_0_split -> inception_5a/output_inception_5a/output_0_split_1
I0403 14:57:55.252668  2291 net.cpp:399] inception_5a/output_inception_5a/output_0_split -> inception_5a/output_inception_5a/output_0_split_2
I0403 14:57:55.252688  2291 net.cpp:399] inception_5a/output_inception_5a/output_0_split -> inception_5a/output_inception_5a/output_0_split_3
I0403 14:57:55.252794  2291 net.cpp:141] Setting up inception_5a/output_inception_5a/output_0_split
I0403 14:57:55.252816  2291 net.cpp:148] Top shape: 24 832 7 7 (978432)
I0403 14:57:55.252832  2291 net.cpp:148] Top shape: 24 832 7 7 (978432)
I0403 14:57:55.252847  2291 net.cpp:148] Top shape: 24 832 7 7 (978432)
I0403 14:57:55.252862  2291 net.cpp:148] Top shape: 24 832 7 7 (978432)
I0403 14:57:55.252876  2291 net.cpp:156] Memory required for data: 1325241888
I0403 14:57:55.252889  2291 layer_factory.hpp:77] Creating layer inception_5b/1x1
I0403 14:57:55.252912  2291 net.cpp:91] Creating Layer inception_5b/1x1
I0403 14:57:55.252928  2291 net.cpp:425] inception_5b/1x1 <- inception_5a/output_inception_5a/output_0_split_0
I0403 14:57:55.252948  2291 net.cpp:399] inception_5b/1x1 -> inception_5b/1x1
I0403 14:57:55.256592  2291 net.cpp:141] Setting up inception_5b/1x1
I0403 14:57:55.256620  2291 net.cpp:148] Top shape: 24 384 7 7 (451584)
I0403 14:57:55.256635  2291 net.cpp:156] Memory required for data: 1327048224
I0403 14:57:55.256654  2291 layer_factory.hpp:77] Creating layer inception_5b/relu_1x1
I0403 14:57:55.256671  2291 net.cpp:91] Creating Layer inception_5b/relu_1x1
I0403 14:57:55.256687  2291 net.cpp:425] inception_5b/relu_1x1 <- inception_5b/1x1
I0403 14:57:55.256706  2291 net.cpp:386] inception_5b/relu_1x1 -> inception_5b/1x1 (in-place)
I0403 14:57:55.256999  2291 net.cpp:141] Setting up inception_5b/relu_1x1
I0403 14:57:55.257025  2291 net.cpp:148] Top shape: 24 384 7 7 (451584)
I0403 14:57:55.257040  2291 net.cpp:156] Memory required for data: 1328854560
I0403 14:57:55.257055  2291 layer_factory.hpp:77] Creating layer inception_5b/3x3_reduce
I0403 14:57:55.257076  2291 net.cpp:91] Creating Layer inception_5b/3x3_reduce
I0403 14:57:55.257094  2291 net.cpp:425] inception_5b/3x3_reduce <- inception_5a/output_inception_5a/output_0_split_1
I0403 14:57:55.257117  2291 net.cpp:399] inception_5b/3x3_reduce -> inception_5b/3x3_reduce
I0403 14:57:55.259691  2291 net.cpp:141] Setting up inception_5b/3x3_reduce
I0403 14:57:55.259721  2291 net.cpp:148] Top shape: 24 192 7 7 (225792)
I0403 14:57:55.259737  2291 net.cpp:156] Memory required for data: 1329757728
I0403 14:57:55.259755  2291 layer_factory.hpp:77] Creating layer inception_5b/relu_3x3_reduce
I0403 14:57:55.259773  2291 net.cpp:91] Creating Layer inception_5b/relu_3x3_reduce
I0403 14:57:55.259788  2291 net.cpp:425] inception_5b/relu_3x3_reduce <- inception_5b/3x3_reduce
I0403 14:57:55.259807  2291 net.cpp:386] inception_5b/relu_3x3_reduce -> inception_5b/3x3_reduce (in-place)
I0403 14:57:55.259989  2291 net.cpp:141] Setting up inception_5b/relu_3x3_reduce
I0403 14:57:55.260013  2291 net.cpp:148] Top shape: 24 192 7 7 (225792)
I0403 14:57:55.260027  2291 net.cpp:156] Memory required for data: 1330660896
I0403 14:57:55.260042  2291 layer_factory.hpp:77] Creating layer inception_5b/3x3
I0403 14:57:55.260063  2291 net.cpp:91] Creating Layer inception_5b/3x3
I0403 14:57:55.260081  2291 net.cpp:425] inception_5b/3x3 <- inception_5b/3x3_reduce
I0403 14:57:55.260102  2291 net.cpp:399] inception_5b/3x3 -> inception_5b/3x3
I0403 14:57:55.266572  2291 net.cpp:141] Setting up inception_5b/3x3
I0403 14:57:55.266602  2291 net.cpp:148] Top shape: 24 384 7 7 (451584)
I0403 14:57:55.266618  2291 net.cpp:156] Memory required for data: 1332467232
I0403 14:57:55.266635  2291 layer_factory.hpp:77] Creating layer inception_5b/relu_3x3
I0403 14:57:55.266654  2291 net.cpp:91] Creating Layer inception_5b/relu_3x3
I0403 14:57:55.266669  2291 net.cpp:425] inception_5b/relu_3x3 <- inception_5b/3x3
I0403 14:57:55.266690  2291 net.cpp:386] inception_5b/relu_3x3 -> inception_5b/3x3 (in-place)
I0403 14:57:55.266991  2291 net.cpp:141] Setting up inception_5b/relu_3x3
I0403 14:57:55.267016  2291 net.cpp:148] Top shape: 24 384 7 7 (451584)
I0403 14:57:55.267031  2291 net.cpp:156] Memory required for data: 1334273568
I0403 14:57:55.267045  2291 layer_factory.hpp:77] Creating layer inception_5b/5x5_reduce
I0403 14:57:55.267081  2291 net.cpp:91] Creating Layer inception_5b/5x5_reduce
I0403 14:57:55.267099  2291 net.cpp:425] inception_5b/5x5_reduce <- inception_5a/output_inception_5a/output_0_split_2
I0403 14:57:55.267122  2291 net.cpp:399] inception_5b/5x5_reduce -> inception_5b/5x5_reduce
I0403 14:57:55.268349  2291 net.cpp:141] Setting up inception_5b/5x5_reduce
I0403 14:57:55.268376  2291 net.cpp:148] Top shape: 24 48 7 7 (56448)
I0403 14:57:55.268391  2291 net.cpp:156] Memory required for data: 1334499360
I0403 14:57:55.268409  2291 layer_factory.hpp:77] Creating layer inception_5b/relu_5x5_reduce
I0403 14:57:55.268426  2291 net.cpp:91] Creating Layer inception_5b/relu_5x5_reduce
I0403 14:57:55.268443  2291 net.cpp:425] inception_5b/relu_5x5_reduce <- inception_5b/5x5_reduce
I0403 14:57:55.268462  2291 net.cpp:386] inception_5b/relu_5x5_reduce -> inception_5b/5x5_reduce (in-place)
I0403 14:57:55.268822  2291 net.cpp:141] Setting up inception_5b/relu_5x5_reduce
I0403 14:57:55.268847  2291 net.cpp:148] Top shape: 24 48 7 7 (56448)
I0403 14:57:55.268862  2291 net.cpp:156] Memory required for data: 1334725152
I0403 14:57:55.268877  2291 layer_factory.hpp:77] Creating layer inception_5b/5x5
I0403 14:57:55.268898  2291 net.cpp:91] Creating Layer inception_5b/5x5
I0403 14:57:55.268915  2291 net.cpp:425] inception_5b/5x5 <- inception_5b/5x5_reduce
I0403 14:57:55.268934  2291 net.cpp:399] inception_5b/5x5 -> inception_5b/5x5
I0403 14:57:55.270936  2291 net.cpp:141] Setting up inception_5b/5x5
I0403 14:57:55.270963  2291 net.cpp:148] Top shape: 24 128 7 7 (150528)
I0403 14:57:55.270978  2291 net.cpp:156] Memory required for data: 1335327264
I0403 14:57:55.270998  2291 layer_factory.hpp:77] Creating layer inception_5b/relu_5x5
I0403 14:57:55.271018  2291 net.cpp:91] Creating Layer inception_5b/relu_5x5
I0403 14:57:55.271034  2291 net.cpp:425] inception_5b/relu_5x5 <- inception_5b/5x5
I0403 14:57:55.271051  2291 net.cpp:386] inception_5b/relu_5x5 -> inception_5b/5x5 (in-place)
I0403 14:57:55.271248  2291 net.cpp:141] Setting up inception_5b/relu_5x5
I0403 14:57:55.271272  2291 net.cpp:148] Top shape: 24 128 7 7 (150528)
I0403 14:57:55.271287  2291 net.cpp:156] Memory required for data: 1335929376
I0403 14:57:55.271302  2291 layer_factory.hpp:77] Creating layer inception_5b/pool
I0403 14:57:55.271322  2291 net.cpp:91] Creating Layer inception_5b/pool
I0403 14:57:55.271338  2291 net.cpp:425] inception_5b/pool <- inception_5a/output_inception_5a/output_0_split_3
I0403 14:57:55.271356  2291 net.cpp:399] inception_5b/pool -> inception_5b/pool
I0403 14:57:55.271428  2291 net.cpp:141] Setting up inception_5b/pool
I0403 14:57:55.271452  2291 net.cpp:148] Top shape: 24 832 7 7 (978432)
I0403 14:57:55.271466  2291 net.cpp:156] Memory required for data: 1339843104
I0403 14:57:55.271493  2291 layer_factory.hpp:77] Creating layer inception_5b/pool_proj
I0403 14:57:55.271514  2291 net.cpp:91] Creating Layer inception_5b/pool_proj
I0403 14:57:55.271530  2291 net.cpp:425] inception_5b/pool_proj <- inception_5b/pool
I0403 14:57:55.271551  2291 net.cpp:399] inception_5b/pool_proj -> inception_5b/pool_proj
I0403 14:57:55.273757  2291 net.cpp:141] Setting up inception_5b/pool_proj
I0403 14:57:55.273785  2291 net.cpp:148] Top shape: 24 128 7 7 (150528)
I0403 14:57:55.273800  2291 net.cpp:156] Memory required for data: 1340445216
I0403 14:57:55.273818  2291 layer_factory.hpp:77] Creating layer inception_5b/relu_pool_proj
I0403 14:57:55.273835  2291 net.cpp:91] Creating Layer inception_5b/relu_pool_proj
I0403 14:57:55.273851  2291 net.cpp:425] inception_5b/relu_pool_proj <- inception_5b/pool_proj
I0403 14:57:55.273869  2291 net.cpp:386] inception_5b/relu_pool_proj -> inception_5b/pool_proj (in-place)
I0403 14:57:55.274160  2291 net.cpp:141] Setting up inception_5b/relu_pool_proj
I0403 14:57:55.274186  2291 net.cpp:148] Top shape: 24 128 7 7 (150528)
I0403 14:57:55.274200  2291 net.cpp:156] Memory required for data: 1341047328
I0403 14:57:55.274219  2291 layer_factory.hpp:77] Creating layer inception_5b/output
I0403 14:57:55.274237  2291 net.cpp:91] Creating Layer inception_5b/output
I0403 14:57:55.274266  2291 net.cpp:425] inception_5b/output <- inception_5b/1x1
I0403 14:57:55.274283  2291 net.cpp:425] inception_5b/output <- inception_5b/3x3
I0403 14:57:55.274299  2291 net.cpp:425] inception_5b/output <- inception_5b/5x5
I0403 14:57:55.274315  2291 net.cpp:425] inception_5b/output <- inception_5b/pool_proj
I0403 14:57:55.274333  2291 net.cpp:399] inception_5b/output -> inception_5b/output
I0403 14:57:55.274382  2291 net.cpp:141] Setting up inception_5b/output
I0403 14:57:55.274407  2291 net.cpp:148] Top shape: 24 1024 7 7 (1204224)
I0403 14:57:55.274421  2291 net.cpp:156] Memory required for data: 1345864224
I0403 14:57:55.274436  2291 layer_factory.hpp:77] Creating layer pool5/7x7_s1
I0403 14:57:55.274452  2291 net.cpp:91] Creating Layer pool5/7x7_s1
I0403 14:57:55.274482  2291 net.cpp:425] pool5/7x7_s1 <- inception_5b/output
I0403 14:57:55.274499  2291 net.cpp:399] pool5/7x7_s1 -> pool5/7x7_s1
I0403 14:57:55.274714  2291 net.cpp:141] Setting up pool5/7x7_s1
I0403 14:57:55.274739  2291 net.cpp:148] Top shape: 24 1024 1 1 (24576)
I0403 14:57:55.274754  2291 net.cpp:156] Memory required for data: 1345962528
I0403 14:57:55.274780  2291 layer_factory.hpp:77] Creating layer pool5/drop_7x7_s1
I0403 14:57:55.274796  2291 net.cpp:91] Creating Layer pool5/drop_7x7_s1
I0403 14:57:55.274811  2291 net.cpp:425] pool5/drop_7x7_s1 <- pool5/7x7_s1
I0403 14:57:55.274832  2291 net.cpp:386] pool5/drop_7x7_s1 -> pool5/7x7_s1 (in-place)
I0403 14:57:55.274878  2291 net.cpp:141] Setting up pool5/drop_7x7_s1
I0403 14:57:55.274904  2291 net.cpp:148] Top shape: 24 1024 1 1 (24576)
I0403 14:57:55.274917  2291 net.cpp:156] Memory required for data: 1346060832
I0403 14:57:55.274931  2291 layer_factory.hpp:77] Creating layer loss3/classifier_plantvillage
I0403 14:57:55.274950  2291 net.cpp:91] Creating Layer loss3/classifier_plantvillage
I0403 14:57:55.274966  2291 net.cpp:425] loss3/classifier_plantvillage <- pool5/7x7_s1
I0403 14:57:55.274984  2291 net.cpp:399] loss3/classifier_plantvillage -> loss3/classifier_plantvillage
I0403 14:57:55.275398  2291 net.cpp:141] Setting up loss3/classifier_plantvillage
I0403 14:57:55.275423  2291 net.cpp:148] Top shape: 24 38 (912)
I0403 14:57:55.275436  2291 net.cpp:156] Memory required for data: 1346064480
I0403 14:57:55.275454  2291 layer_factory.hpp:77] Creating layer loss3/classifier_plantvillage_loss3/classifier_plantvillage_0_split
I0403 14:57:55.275475  2291 net.cpp:91] Creating Layer loss3/classifier_plantvillage_loss3/classifier_plantvillage_0_split
I0403 14:57:55.275491  2291 net.cpp:425] loss3/classifier_plantvillage_loss3/classifier_plantvillage_0_split <- loss3/classifier_plantvillage
I0403 14:57:55.275508  2291 net.cpp:399] loss3/classifier_plantvillage_loss3/classifier_plantvillage_0_split -> loss3/classifier_plantvillage_loss3/classifier_plantvillage_0_split_0
I0403 14:57:55.275530  2291 net.cpp:399] loss3/classifier_plantvillage_loss3/classifier_plantvillage_0_split -> loss3/classifier_plantvillage_loss3/classifier_plantvillage_0_split_1
I0403 14:57:55.275550  2291 net.cpp:399] loss3/classifier_plantvillage_loss3/classifier_plantvillage_0_split -> loss3/classifier_plantvillage_loss3/classifier_plantvillage_0_split_2
I0403 14:57:55.275570  2291 net.cpp:399] loss3/classifier_plantvillage_loss3/classifier_plantvillage_0_split -> loss3/classifier_plantvillage_loss3/classifier_plantvillage_0_split_3
I0403 14:57:55.275670  2291 net.cpp:141] Setting up loss3/classifier_plantvillage_loss3/classifier_plantvillage_0_split
I0403 14:57:55.275691  2291 net.cpp:148] Top shape: 24 38 (912)
I0403 14:57:55.275707  2291 net.cpp:148] Top shape: 24 38 (912)
I0403 14:57:55.275722  2291 net.cpp:148] Top shape: 24 38 (912)
I0403 14:57:55.275738  2291 net.cpp:148] Top shape: 24 38 (912)
I0403 14:57:55.275749  2291 net.cpp:156] Memory required for data: 1346079072
I0403 14:57:55.275763  2291 layer_factory.hpp:77] Creating layer loss1/loss
I0403 14:57:55.275784  2291 net.cpp:91] Creating Layer loss1/loss
I0403 14:57:55.275801  2291 net.cpp:425] loss1/loss <- loss1/classifier_plantvillage_loss1/classifier_plantvillage_0_split_0
I0403 14:57:55.275830  2291 net.cpp:425] loss1/loss <- label_data_1_split_0
…
