…
I0403 14:43:59.114797  1866 net.cpp:313] The NetState phase (1) differed from the phase (0) specified by a rule in layer data
I0403 14:43:59.116052  1866 net.cpp:49] Initializing net from parameters: 
state {
  phase: TEST
}
layer {
  name: "data"
  type: "Data"
  top: "data"
  top: "label"
  include {
    phase: TEST
  }
  transform_param {
    mirror: false
    crop_size: 224
    mean_file: "/home/mohanty/data/final_dataset/lmdb/grayscale-20-80/mean.binaryproto"
  }
  data_param {
    source: "/home/mohanty/data/final_dataset/lmdb/grayscale-20-80/test_db"
    batch_size: 24
    backend: LMDB
  }
}
layer {
  name: "conv1/7x7_s2"
  type: "Convolution"
  bottom: "data"
  top: "conv1/7x7_s2"
  param {
    lr_mult: 1
    decay_mult: 1
  }
  param {
    lr_mult: 2
    decay_mult: 0
  }
  convolution_param {
    num_output: 64
    pad: 3
    kernel_size: 7
    stride: 2
    weight_filler {
      type: "xavier"
      std: 0.1
    }
    bias_filler {
      type: "constant"
      value: 0.2
    }
  }
}
layer {
  name: "conv1/relu_7x7"
  type: "ReLU"
  bottom: "conv1/7x7_s2"
  top: "conv1/7x7_s2"
}
layer {
  name: "pool1/3x3_s2"
  type: "Pooling"
  bottom: "conv1/7x7_s2"
  top: "pool1/3x3_s2"
  pooling_param {
    pool: MAX
    kernel_size: 3
    stride: 2
  }
}
layer {
  name: "pool1/norm1"
  type: "LRN"
  bottom: "pool1/3x3_s2"
  top: "pool1/norm1"
  lrn_param {
    local_size: 5
    alpha: 0.0001
    beta: 0.75
  }
}
layer {
  name: "conv2/3x3_reduce"
  type: "Convolution"
  bottom: "pool1/norm1"
  top: "conv2/3x3_reduce"
  param {
    lr_mult: 1
    decay_mult: 1
  }
  param {
    lr_mult: 2
    decay_mult: 0
  }
  convolution_param {
    num_output: 64
    kernel_size: 1
    weight_filler {
      type: "xavier"
      std: 0.1
    }
    bias_filler {
      type: "constant"
      value: 0.2
    }
  }
}
layer {
  name: "conv2/relu_3x3_reduce"
  type: "ReLU"
  bottom: "conv2/3x3_reduce"
  top: "conv2/3x3_reduce"
}
layer {
  name: "conv2/3x3"
  type: "Convolution"
  bottom: "conv2/3x3_reduce"
  top: "conv2/3x3"
  param {
    lr_mult: 1
    decay_mult: 1
  }
  param {
    lr_mult: 2
    decay_mult: 0
  }
  convolution_param {
    num_output: 192
    pad: 1
    kernel_size: 3
    weight_filler {
      type: "xavier"
      std: 0.03
    }
    bias_filler {
      type: "constant"
      value: 0.2
    }
  }
}
layer {
  name: "conv2/relu_3x3"
  type: "ReLU"
  bottom: "conv2/3x3"
  top: "conv2/3x3"
}
layer {
  name: "conv2/norm2"
  type: "LRN"
  bottom: "conv2/3x3"
  top: "conv2/norm2"
  lrn_param {
    local_size: 5
    alpha: 0.0001
    beta: 0.75
  }
}
layer {
  name: "pool2/3x3_s2"
  type: "Pooling"
  bottom: "conv2/norm2"
  top: "pool2/3x3_s2"
  pooling_param {
    pool: MAX
    kernel_size: 3
    stride: 2
  }
}
layer {
  name: "inception_3a/1x1"
  type: "Convolution"
  bottom: "pool2/3x3_s2"
  top: "inception_3a/1x1"
  param {
    lr_mult: 1
    decay_mult: 1
  }
  param {
    lr_mult: 2
    decay_mult: 0
  }
  convolution_param {
    num_output: 64
    kernel_size: 1
    weight_filler {
      type: "xavier"
      std: 0.03
    }
    bias_filler {
      type: "constant"
      value: 0.2
    }
  }
}
layer {
  name: "inception_3a/relu_1x1"
  type: "ReLU"
  bottom: "inception_3a/1x1"
  top: "inception_3a/1x1"
}
layer {
  name: "inception_3a/3x3_reduce"
  type: "Convolution"
  bottom: "pool2/3x3_s2"
  top: "inception_3a/3x3_reduce"
  param {
    lr_mult: 1
    decay_mult: 1
  }
  param {
    lr_mult: 2
    decay_mult: 0
  }
  convolution_param {
    num_output: 96
    kernel_size: 1
    weight_filler {
      type: "xavier"
      std: 0.09
    }
    bias_filler {
      type: "constant"
      value: 0.2
    }
  }
}
layer {
  name: "inception_3a/relu_3x3_reduce"
  type: "ReLU"
  bottom: "inception_3a/3x3_reduce"
  top: "inception_3a/3x3_reduce"
}
layer {
  name: "inception_3a/3x3"
  type: "Convolution"
  bottom: "inception_3a/3x3_reduce"
  top: "inception_3a/3x3"
  param {
    lr_mult: 1
    decay_mult: 1
  }
  param {
    lr_mult: 2
    decay_mult: 0
  }
  convolution_param {
    num_output: 128
    pad: 1
    kernel_size: 3
    weight_filler {
      type: "xavier"
      std: 0.03
    }
    bias_filler {
      type: "constant"
      value: 0.2
    }
  }
}
layer {
  name: "inception_3a/relu_3x3"
  type: "ReLU"
  bottom: "inception_3a/3x3"
  top: "inception_3a/3x3"
}
layer {
  name: "inception_3a/5x5_reduce"
  type: "Convolution"
  bottom: "pool2/3x3_s2"
  top: "inception_3a/5x5_reduce"
  param {
    lr_mult: 1
    decay_mult: 1
  }
  param {
    lr_mult: 2
    decay_mult: 0
  }
  convolution_param {
    num_output: 16
    kernel_size: 1
    weight_filler {
      type: "xavier"
      std: 0.2
    }
    bias_filler {
      type: "constant"
      value: 0.2
    }
  }
}
layer {
  name: "inception_3a/relu_5x5_reduce"
  type: "ReLU"
  bottom: "inception_3a/5x5_reduce"
  top: "inception_3a/5x5_reduce"
}
layer {
  name: "inception_3a/5x5"
  type: "Convolution"
  bottom: "inception_3a/5x5_reduce"
  top: "inception_3a/5x5"
  param {
    lr_mult: 1
    decay_mult: 1
  }
  param {
    lr_mult: 2
    decay_mult: 0
  }
  convolution_param {
    num_output: 32
    pad: 2
    kernel_size: 5
    weight_filler {
      type: "xavier"
      std: 0.03
    }
    bias_filler {
      type: "constant"
      value: 0.2
    }
  }
}
layer {
  name: "inception_3a/relu_5x5"
  type: "ReLU"
  bottom: "inception_3a/5x5"
  top: "inception_3a/5x5"
}
layer {
  name: "inception_3a/pool"
  type: "Pooling"
  bottom: "pool2/3x3_s2"
  top: "inception_3a/pool"
  pooling_param {
    pool: MAX
    kernel_size: 3
    stride: 1
    pad: 1
  }
}
layer {
  name: "inception_3a/pool_proj"
  type: "Convolution"
  bottom: "inception_3a/pool"
  top: "inception_3a/pool_proj"
  param {
    lr_mult: 1
    decay_mult: 1
  }
  param {
    lr_mult: 2
    decay_mult: 0
  }
  convolution_param {
    num_output: 32
    kernel_size: 1
    weight_filler {
      type: "xavier"
      std: 0.1
    }
    bias_filler {
      type: "constant"
      value: 0.2
    }
  }
}
layer {
  name: "inception_3a/relu_pool_proj"
  type: "ReLU"
  bottom: "inception_3a/pool_proj"
  top: "inception_3a/pool_proj"
}
layer {
  name: "inception_3a/output"
  type: "Concat"
  bottom: "inception_3a/1x1"
  bottom: "inception_3a/3x3"
  bottom: "inception_3a/5x5"
  bottom: "inception_3a/pool_proj"
  top: "inception_3a/output"
}
layer {
  name: "inception_3b/1x1"
  type: "Convolution"
  bottom: "inception_3a/output"
  top: "inception_3b/1x1"
  param {
    lr_mult: 1
    decay_mult: 1
  }
  param {
    lr_mult: 2
    decay_mult: 0
  }
  convolution_param {
    num_output: 128
    kernel_size: 1
    weight_filler {
      type: "xavier"
      std: 0.03
    }
    bias_filler {
      type: "constant"
      value: 0.2
    }
  }
}
layer {
  name: "inception_3b/relu_1x1"
  type: "ReLU"
  bottom: "inception_3b/1x1"
  top: "inception_3b/1x1"
}
layer {
  name: "inception_3b/3x3_reduce"
  type: "Convolution"
  bottom: "inception_3a/output"
  top: "inception_3b/3x3_reduce"
  param {
    lr_mult: 1
    decay_mult: 1
  }
  param {
    lr_mult: 2
    decay_mult: 0
  }
  convolution_param {
    num_output: 128
    kernel_size: 1
    weight_filler {
      type: "xavier"
      std: 0.09
    }
    bias_filler {
      type: "constant"
      value: 0.2
    }
  }
}
layer {
  name: "inception_3b/relu_3x3_reduce"
  type: "ReLU"
  bottom: "inception_3b/3x3_reduce"
  top: "inception_3b/3x3_reduce"
}
layer {
  name: "inception_3b/3x3"
  type: "Convolution"
  bottom: "inception_3b/3x3_reduce"
  top: "inception_3b/3x3"
  param {
    lr_mult: 1
    decay_mult: 1
  }
  param {
    lr_mult: 2
    decay_mult: 0
  }
  convolution_param {
    num_output: 192
    pad: 1
    kernel_size: 3
    weight_filler {
      type: "xavier"
      std: 0.03
    }
    bias_filler {
      type: "constant"
      value: 0.2
    }
  }
}
layer {
  name: "inception_3b/relu_3x3"
  type: "ReLU"
  bottom: "inception_3b/3x3"
  top: "inception_3b/3x3"
}
layer {
  name: "inception_3b/5x5_reduce"
  type: "Convolution"
  bottom: "inception_3a/output"
  top: "inception_3b/5x5_reduce"
  param {
    lr_mult: 1
    decay_mult: 1
  }
  param {
    lr_mult: 2
    decay_mult: 0
  }
  convolution_param {
    num_output: 32
    kernel_size: 1
    weight_filler {
      type: "xavier"
      std: 0.2
    }
    bias_filler {
      type: "constant"
      value: 0.2
    }
  }
}
layer {
  name: "inception_3b/relu_5x5_reduce"
  type: "ReLU"
  bottom: "inception_3b/5x5_reduce"
  top: "inception_3b/5x5_reduce"
}
layer {
  name: "inception_3b/5x5"
  type: "Convolution"
  bottom: "inception_3b/5x5_reduce"
  top: "inception_3b/5x5"
  param {
    lr_mult: 1
    decay_mult: 1
  }
  param {
    lr_mult: 2
    decay_mult: 0
  }
  convolution_param {
    num_output: 96
    pad: 2
    kernel_size: 5
    weight_filler {
      type: "xavier"
      std: 0.03
    }
    bias_filler {
      type: "constant"
      value: 0.2
    }
  }
}
layer {
  name: "inception_3b/relu_5x5"
  type: "ReLU"
  bottom: "inception_3b/5x5"
  top: "inception_3b/5x5"
}
layer {
  name: "inception_3b/pool"
  type: "Pooling"
  bottom: "inception_3a/output"
  top: "inception_3b/pool"
  pooling_param {
    pool: MAX
    kernel_size: 3
    stride: 1
    pad: 1
  }
}
layer {
  name: "inception_3b/pool_proj"
  type: "Convolution"
  bottom: "inception_3b/pool"
  top: "inception_3b/pool_proj"
  param {
    lr_mult: 1
    decay_mult: 1
  }
  param {
    lr_mult: 2
    decay_mult: 0
  }
  convolution_param {
    num_output: 64
    kernel_size: 1
    weight_filler {
      type: "xavier"
      std: 0.1
    }
    bias_filler {
      type: "constant"
      value: 0.2
    }
  }
}
layer {
  name: "inception_3b/relu_pool_proj"
  type: "ReLU"
  bottom: "inception_3b/pool_proj"
  top: "inception_3b/pool_proj"
}
layer {
  name: "inception_3b/output"
  type: "Concat"
  bottom: "inception_3b/1x1"
  bottom: "inception_3b/3x3"
  bottom: "inception_3b/5x5"
  bottom: "inception_3b/pool_proj"
  top: "inception_3b/output"
}
layer {
  name: "pool3/3x3_s2"
  type: "Pooling"
  bottom: "inception_3b/output"
  top: "pool3/3x3_s2"
  pooling_param {
    pool: MAX
    kernel_size: 3
    stride: 2
  }
}
layer {
  name: "inception_4a/1x1"
  type: "Convolution"
  bottom: "pool3/3x3_s2"
  top: "inception_4a/1x1"
  param {
    lr_mult: 1
    decay_mult: 1
  }
  param {
    lr_mult: 2
    decay_mult: 0
  }
  convolution_param {
    num_output: 192
    kernel_size: 1
    weight_filler {
      type: "xavier"
      std: 0.03
    }
    bias_filler {
      type: "constant"
      value: 0.2
    }
  }
}
layer {
  name: "inception_4a/relu_1x1"
  type: "ReLU"
  bottom: "inception_4a/1x1"
  top: "inception_4a/1x1"
}
layer {
  name: "inception_4a/3x3_reduce"
  type: "Convolution"
  bottom: "pool3/3x3_s2"
  top: "inception_4a/3x3_reduce"
  param {
    lr_mult: 1
    decay_mult: 1
  }
  param {
    lr_mult: 2
    decay_mult: 0
  }
  convolution_param {
    num_output: 96
    kernel_size: 1
    weight_filler {
      type: "xavier"
      std: 0.09
    }
    bias_filler {
      type: "constant"
      value: 0.2
    }
  }
}
layer {
  name: "inception_4a/relu_3x3_reduce"
  type: "ReLU"
  bottom: "inception_4a/3x3_reduce"
  top: "inception_4a/3x3_reduce"
}
layer {
  name: "inception_4a/3x3"
  type: "Convolution"
  bottom: "inception_4a/3x3_reduce"
  top: "inception_4a/3x3"
  param {
    lr_mult: 1
    decay_mult: 1
  }
  param {
    lr_mult: 2
    decay_mult: 0
  }
  convolution_param {
    num_output: 208
    pad: 1
    kernel_size: 3
    weight_filler {
      type: "xavier"
      std: 0.03
    }
    bias_filler {
      type: "constant"
      value: 0.2
    }
  }
}
layer {
  name: "inception_4a/relu_3x3"
  type: "ReLU"
  bottom: "inception_4a/3x3"
  top: "inception_4a/3x3"
}
layer {
  name: "inception_4a/5x5_reduce"
  type: "Convolution"
  bottom: "pool3/3x3_s2"
  top: "inception_4a/5x5_reduce"
  param {
    lr_mult: 1
    decay_mult: 1
  }
  param {
    lr_mult: 2
    decay_mult: 0
  }
  convolution_param {
    num_output: 16
    kernel_size: 1
    weight_filler {
      type: "xavier"
      std: 0.2
    }
    bias_filler {
      type: "constant"
      value: 0.2
    }
  }
}
layer {
  name: "inception_4a/relu_5x5_reduce"
  type: "ReLU"
  bottom: "inception_4a/5x5_reduce"
  top: "inception_4a/5x5_reduce"
}
layer {
  name: "inception_4a/5x5"
  type: "Convolution"
  bottom: "inception_4a/5x5_reduce"
  top: "inception_4a/5x5"
  param {
    lr_mult: 1
    decay_mult: 1
  }
  param {
    lr_mult: 2
    decay_mult: 0
  }
  convolution_param {
    num_output: 48
    pad: 2
    kernel_size: 5
    weight_filler {
      type: "xavier"
      std: 0.03
    }
    bias_filler {
      type: "constant"
      value: 0.2
    }
  }
}
layer {
  name: "inception_4a/relu_5x5"
  type: "ReLU"
  bottom: "inception_4a/5x5"
  top: "inception_4a/5x5"
}
layer {
  name: "inception_4a/pool"
  type: "Pooling"
  bottom: "pool3/3x3_s2"
  top: "inception_4a/pool"
  pooling_param {
    pool: MAX
    kernel_size: 3
    stride: 1
    pad: 1
  }
}
layer {
  name: "inception_4a/pool_proj"
  type: "Convolution"
  bottom: "inception_4a/pool"
  top: "inception_4a/pool_proj"
  param {
    lr_mult: 1
    decay_mult: 1
  }
  param {
    lr_mult: 2
    decay_mult: 0
  }
  convolution_param {
    num_output: 64
    kernel_size: 1
    weight_filler {
      type: "xavier"
      std: 0.1
    }
    bias_filler {
      type: "constant"
      value: 0.2
    }
  }
}
layer {
  name: "inception_4a/relu_pool_proj"
  type: "ReLU"
  bottom: "inception_4a/pool_proj"
  top: "inception_4a/pool_proj"
}
layer {
  name: "inception_4a/output"
  type: "Concat"
  bottom: "inception_4a/1x1"
  bottom: "inception_4a/3x3"
  bottom: "inception_4a/5x5"
  bottom: "inception_4a/pool_proj"
  top: "inception_4a/output"
}
layer {
  name: "loss1/ave_pool"
  type: "Pooling"
  bottom: "inception_4a/output"
  top: "loss1/ave_pool"
  pooling_param {
    pool: AVE
    kernel_size: 5
    stride: 3
  }
}
layer {
  name: "loss1/conv"
  type: "Convolution"
  bottom: "loss1/ave_pool"
  top: "loss1/conv"
  param {
    lr_mult: 1
    decay_mult: 1
  }
  param {
    lr_mult: 2
    decay_mult: 0
  }
  convolution_param {
    num_output: 128
    kernel_size: 1
    weight_filler {
      type: "xavier"
      std: 0.08
    }
    bias_filler {
      type: "constant"
      value: 0.2
    }
  }
}
layer {
  name: "loss1/relu_conv"
  type: "ReLU"
  bottom: "loss1/conv"
  top: "loss1/conv"
}
layer {
  name: "loss1/fc"
  type: "InnerProduct"
  bottom: "loss1/conv"
  top: "loss1/fc"
  param {
    lr_mult: 1
    decay_mult: 1
  }
  param {
    lr_mult: 2
    decay_mult: 0
  }
  inner_product_param {
    num_output: 1024
    weight_filler {
      type: "xavier"
      std: 0.02
    }
    bias_filler {
      type: "constant"
      value: 0.2
    }
  }
}
layer {
  name: "loss1/relu_fc"
  type: "ReLU"
  bottom: "loss1/fc"
  top: "loss1/fc"
}
layer {
  name: "loss1/drop_fc"
  type: "Dropout"
  bottom: "loss1/fc"
  top: "loss1/fc"
  dropout_param {
    dropout_ratio: 0.7
  }
}
layer {
  name: "loss1/classifier_plantvillage"
  type: "InnerProduct"
  bottom: "loss1/fc"
  top: "loss1/classifier_plantvillage"
  param {
    lr_mult: 1
    decay_mult: 1
  }
  param {
    lr_mult: 2
    decay_mult: 0
  }
  inner_product_param {
    num_output: 38
    weight_filler {
      type: "xavier"
      std: 0.0009765625
    }
    bias_filler {
      type: "constant"
      value: 0
    }
  }
}
layer {
  name: "inception_4b/1x1"
  type: "Convolution"
  bottom: "inception_4a/output"
  top: "inception_4b/1x1"
  param {
    lr_mult: 1
    decay_mult: 1
  }
  param {
    lr_mult: 2
    decay_mult: 0
  }
  convolution_param {
    num_output: 160
    kernel_size: 1
    weight_filler {
      type: "xavier"
      std: 0.03
    }
    bias_filler {
      type: "constant"
      value: 0.2
    }
  }
}
layer {
  name: "inception_4b/relu_1x1"
  type: "ReLU"
  bottom: "inception_4b/1x1"
  top: "inception_4b/1x1"
}
layer {
  name: "inception_4b/3x3_reduce"
  type: "Convolution"
  bottom: "inception_4a/output"
  top: "inception_4b/3x3_reduce"
  param {
    lr_mult: 1
    decay_mult: 1
  }
  param {
    lr_mult: 2
    decay_mult: 0
  }
  convolution_param {
    num_output: 112
    kernel_size: 1
    weight_filler {
      type: "xavier"
      std: 0.09
    }
    bias_filler {
      type: "constant"
      value: 0.2
    }
  }
}
layer {
  name: "inception_4b/relu_3x3_reduce"
  type: "ReLU"
  bottom: "inception_4b/3x3_reduce"
  top: "inception_4b/3x3_reduce"
}
layer {
  name: "inception_4b/3x3"
  type: "Convolution"
  bottom: "inception_4b/3x3_reduce"
  top: "inception_4b/3x3"
  param {
    lr_mult: 1
    decay_mult: 1
  }
  param {
    lr_mult: 2
    decay_mult: 0
  }
  convolution_param {
    num_output: 224
    pad: 1
    kernel_size: 3
    weight_filler {
      type: "xavier"
      std: 0.03
    }
    bias_filler {
      type: "constant"
      value: 0.2
    }
  }
}
layer {
  name: "inception_4b/relu_3x3"
  type: "ReLU"
  bottom: "inception_4b/3x3"
  top: "inception_4b/3x3"
}
layer {
  name: "inception_4b/5x5_reduce"
  type: "Convolution"
  bottom: "inception_4a/output"
  top: "inception_4b/5x5_reduce"
  param {
    lr_mult: 1
    decay_mult: 1
  }
  param {
    lr_mult: 2
    decay_mult: 0
  }
  convolution_param {
    num_output: 24
    kernel_size: 1
    weight_filler {
      type: "xavier"
      std: 0.2
    }
    bias_filler {
      type: "constant"
      value: 0.2
    }
  }
}
layer {
  name: "inception_4b/relu_5x5_reduce"
  type: "ReLU"
  bottom: "inception_4b/5x5_reduce"
  top: "inception_4b/5x5_reduce"
}
layer {
  name: "inception_4b/5x5"
  type: "Convolution"
  bottom: "inception_4b/5x5_reduce"
  top: "inception_4b/5x5"
  param {
    lr_mult: 1
    decay_mult: 1
  }
  param {
    lr_mult: 2
    decay_mult: 0
  }
  convolution_param {
    num_output: 64
    pad: 2
    kernel_size: 5
    weight_filler {
      type: "xavier"
      std: 0.03
    }
    bias_filler {
      type: "constant"
      value: 0.2
    }
  }
}
layer {
  name: "inception_4b/relu_5x5"
  type: "ReLU"
  bottom: "inception_4b/5x5"
  top: "inception_4b/5x5"
}
layer {
  name: "inception_4b/pool"
  type: "Pooling"
  bottom: "inception_4a/output"
  top: "inception_4b/pool"
  pooling_param {
    pool: MAX
    kernel_size: 3
    stride: 1
    pad: 1
  }
}
layer {
  name: "inception_4b/pool_proj"
  type: "Convolution"
  bottom: "inception_4b/pool"
  top: "inception_4b/pool_proj"
  param {
    lr_mult: 1
    decay_mult: 1
  }
  param {
    lr_mult: 2
    decay_mult: 0
  }
  convolution_param {
    num_output: 64
    kernel_size: 1
    weight_filler {
      type: "xavier"
      std: 0.1
    }
    bias_filler {
      type: "constant"
      value: 0.2
    }
  }
}
layer {
  name: "inception_4b/relu_pool_proj"
  type: "ReLU"
  bottom: "inception_4b/pool_proj"
  top: "inception_4b/pool_proj"
}
layer {
  name: "inception_4b/output"
  type: "Concat"
  bottom: "inception_4b/1x1"
  bottom: "inception_4b/3x3"
  bottom: "inception_4b/5x5"
  bottom: "inception_4b/pool_proj"
  top: "inception_4b/output"
}
layer {
  name: "inception_4c/1x1"
  type: "Convolution"
  bottom: "inception_4b/output"
  top: "inception_4c/1x1"
  param {
    lr_mult: 1
    decay_mult: 1
  }
  param {
    lr_mult: 2
    decay_mult: 0
  }
  convolution_param {
    num_output: 128
    kernel_size: 1
    weight_filler {
      type: "xavier"
      std: 0.03
    }
    bias_filler {
      type: "constant"
      value: 0.2
    }
  }
}
layer {
  name: "inception_4c/relu_1x1"
  type: "ReLU"
  bottom: "inception_4c/1x1"
  top: "inception_4c/1x1"
}
layer {
  name: "inception_4c/3x3_reduce"
  type: "Convolution"
  bottom: "inception_4b/output"
  top: "inception_4c/3x3_reduce"
  param {
    lr_mult: 1
    decay_mult: 1
  }
  param {
    lr_mult: 2
    decay_mult: 0
  }
  convolution_param {
    num_output: 128
    kernel_size: 1
    weight_filler {
      type: "xavier"
      std: 0.09
    }
    bias_filler {
      type: "constant"
      value: 0.2
    }
  }
}
layer {
  name: "inception_4c/relu_3x3_reduce"
  type: "ReLU"
  bottom: "inception_4c/3x3_reduce"
  top: "inception_4c/3x3_reduce"
}
layer {
  name: "inception_4c/3x3"
  type: "Convolution"
  bottom: "inception_4c/3x3_reduce"
  top: "inception_4c/3x3"
  param {
    lr_mult: 1
    decay_mult: 1
  }
  param {
    lr_mult: 2
    decay_mult: 0
  }
  convolution_param {
    num_output: 256
    pad: 1
    kernel_size: 3
    weight_filler {
      type: "xavier"
      std: 0.03
    }
    bias_filler {
      type: "constant"
      value: 0.2
    }
  }
}
layer {
  name: "inception_4c/relu_3x3"
  type: "ReLU"
  bottom: "inception_4c/3x3"
  top: "inception_4c/3x3"
}
layer {
  name: "inception_4c/5x5_reduce"
  type: "Convolution"
  bottom: "inception_4b/output"
  top: "inception_4c/5x5_reduce"
  param {
    lr_mult: 1
    decay_mult: 1
  }
  param {
    lr_mult: 2
    decay_mult: 0
  }
  convolution_param {
    num_output: 24
    kernel_size: 1
    weight_filler {
      type: "xavier"
      std: 0.2
    }
    bias_filler {
      type: "constant"
      value: 0.2
    }
  }
}
layer {
  name: "inception_4c/relu_5x5_reduce"
  type: "ReLU"
  bottom: "inception_4c/5x5_reduce"
  top: "inception_4c/5x5_reduce"
}
layer {
  name: "inception_4c/5x5"
  type: "Convolution"
  bottom: "inception_4c/5x5_reduce"
  top: "inception_4c/5x5"
  param {
    lr_mult: 1
    decay_mult: 1
  }
  param {
    lr_mult: 2
    decay_mult: 0
  }
  convolution_param {
    num_output: 64
    pad: 2
    kernel_size: 5
    weight_filler {
      type: "xavier"
      std: 0.03
    }
    bias_filler {
      type: "constant"
      value: 0.2
    }
  }
}
layer {
  name: "inception_4c/relu_5x5"
  type: "ReLU"
  bottom: "inception_4c/5x5"
  top: "inception_4c/5x5"
}
layer {
  name: "inception_4c/pool"
  type: "Pooling"
  bottom: "inception_4b/output"
  top: "inception_4c/pool"
  pooling_param {
    pool: MAX
    kernel_size: 3
    stride: 1
    pad: 1
  }
}
layer {
  name: "inception_4c/pool_proj"
  type: "Convolution"
  bottom: "inception_4c/pool"
  top: "inception_4c/pool_proj"
  param {
    lr_mult: 1
    decay_mult: 1
  }
  param {
    lr_mult: 2
    decay_mult: 0
  }
  convolution_param {
    num_output: 64
    kernel_size: 1
    weight_filler {
      type: "xavier"
      std: 0.1
    }
    bias_filler {
      type: "constant"
      value: 0.2
    }
  }
}
layer {
  name: "inception_4c/relu_pool_proj"
  type: "ReLU"
  bottom: "inception_4c/pool_proj"
  top: "inception_4c/pool_proj"
}
layer {
  name: "inception_4c/output"
  type: "Concat"
  bottom: "inception_4c/1x1"
  bottom: "inception_4c/3x3"
  bottom: "inception_4c/5x5"
  bottom: "inception_4c/pool_proj"
  top: "inception_4c/output"
}
layer {
  name: "inception_4d/1x1"
  type: "Convolution"
  bottom: "inception_4c/output"
  top: "inception_4d/1x1"
  param {
    lr_mult: 1
    decay_mult: 1
  }
  param {
    lr_mult: 2
    decay_mult: 0
  }
  convolution_param {
    num_output: 112
    kernel_size: 1
    weight_filler {
      type: "xavier"
      std: 0.03
    }
    bias_filler {
      type: "constant"
      value: 0.2
    }
  }
}
layer {
  name: "inception_4d/relu_1x1"
  type: "ReLU"
  bottom: "inception_4d/1x1"
  top: "inception_4d/1x1"
}
layer {
  name: "inception_4d/3x3_reduce"
  type: "Convolution"
  bottom: "inception_4c/output"
  top: "inception_4d/3x3_reduce"
  param {
    lr_mult: 1
    decay_mult: 1
  }
  param {
    lr_mult: 2
    decay_mult: 0
  }
  convolution_param {
    num_output: 144
    kernel_size: 1
    weight_filler {
      type: "xavier"
      std: 0.09
    }
    bias_filler {
      type: "constant"
      value: 0.2
    }
  }
}
layer {
  name: "inception_4d/relu_3x3_reduce"
  type: "ReLU"
  bottom: "inception_4d/3x3_reduce"
  top: "inception_4d/3x3_reduce"
}
layer {
  name: "inception_4d/3x3"
  type: "Convolution"
  bottom: "inception_4d/3x3_reduce"
  top: "inception_4d/3x3"
  param {
    lr_mult: 1
    decay_mult: 1
  }
  param {
    lr_mult: 2
    decay_mult: 0
  }
  convolution_param {
    num_output: 288
    pad: 1
    kernel_size: 3
    weight_filler {
      type: "xavier"
      std: 0.03
    }
    bias_filler {
      type: "constant"
      value: 0.2
    }
  }
}
layer {
  name: "inception_4d/relu_3x3"
  type: "ReLU"
  bottom: "inception_4d/3x3"
  top: "inception_4d/3x3"
}
layer {
  name: "inception_4d/5x5_reduce"
  type: "Convolution"
  bottom: "inception_4c/output"
  top: "inception_4d/5x5_reduce"
  param {
    lr_mult: 1
    decay_mult: 1
  }
  param {
    lr_mult: 2
    decay_mult: 0
  }
  convolution_param {
    num_output: 32
    kernel_size: 1
    weight_filler {
      type: "xavier"
      std: 0.2
    }
    bias_filler {
      type: "constant"
      value: 0.2
    }
  }
}
layer {
  name: "inception_4d/relu_5x5_reduce"
  type: "ReLU"
  bottom: "inception_4d/5x5_reduce"
  top: "inception_4d/5x5_reduce"
}
layer {
  name: "inception_4d/5x5"
  type: "Convolution"
  bottom: "inception_4d/5x5_reduce"
  top: "inception_4d/5x5"
  param {
    lr_mult: 1
    decay_mult: 1
  }
  param {
    lr_mult: 2
    decay_mult: 0
  }
  convolution_param {
    num_output: 64
    pad: 2
    kernel_size: 5
    weight_filler {
      type: "xavier"
      std: 0.03
    }
    bias_filler {
      type: "constant"
      value: 0.2
    }
  }
}
layer {
  name: "inception_4d/relu_5x5"
  type: "ReLU"
  bottom: "inception_4d/5x5"
  top: "inception_4d/5x5"
}
layer {
  name: "inception_4d/pool"
  type: "Pooling"
  bottom: "inception_4c/output"
  top: "inception_4d/pool"
  pooling_param {
    pool: MAX
    kernel_size: 3
    stride: 1
    pad: 1
  }
}
layer {
  name: "inception_4d/pool_proj"
  type: "Convolution"
  bottom: "inception_4d/pool"
  top: "inception_4d/pool_proj"
  param {
    lr_mult: 1
    decay_mult: 1
  }
  param {
    lr_mult: 2
    decay_mult: 0
  }
  convolution_param {
    num_output: 64
    kernel_size: 1
    weight_filler {
      type: "xavier"
      std: 0.1
    }
    bias_filler {
      type: "constant"
      value: 0.2
    }
  }
}
layer {
  name: "inception_4d/relu_pool_proj"
  type: "ReLU"
  bottom: "inception_4d/pool_proj"
  top: "inception_4d/pool_proj"
}
layer {
  name: "inception_4d/output"
  type: "Concat"
  bottom: "inception_4d/1x1"
  bottom: "inception_4d/3x3"
  bottom: "inception_4d/5x5"
  bottom: "inception_4d/pool_proj"
  top: "inception_4d/output"
}
layer {
  name: "loss2/ave_pool"
  type: "Pooling"
  bottom: "inception_4d/output"
  top: "loss2/ave_pool"
  pooling_param {
    pool: AVE
    kernel_size: 5
    stride: 3
  }
}
layer {
  name: "loss2/conv"
  type: "Convolution"
  bottom: "loss2/ave_pool"
  top: "loss2/conv"
  param {
    lr_mult: 1
    decay_mult: 1
  }
  param {
    lr_mult: 2
    decay_mult: 0
  }
  convolution_param {
    num_output: 128
    kernel_size: 1
    weight_filler {
      type: "xavier"
      std: 0.08
    }
    bias_filler {
      type: "constant"
      value: 0.2
    }
  }
}
layer {
  name: "loss2/relu_conv"
  type: "ReLU"
  bottom: "loss2/conv"
  top: "loss2/conv"
}
layer {
  name: "loss2/fc"
  type: "InnerProduct"
  bottom: "loss2/conv"
  top: "loss2/fc"
  param {
    lr_mult: 1
    decay_mult: 1
  }
  param {
    lr_mult: 2
    decay_mult: 0
  }
  inner_product_param {
    num_output: 1024
    weight_filler {
      type: "xavier"
      std: 0.02
    }
    bias_filler {
      type: "constant"
      value: 0.2
    }
  }
}
layer {
  name: "loss2/relu_fc"
  type: "ReLU"
  bottom: "loss2/fc"
  top: "loss2/fc"
}
layer {
  name: "loss2/drop_fc"
  type: "Dropout"
  bottom: "loss2/fc"
  top: "loss2/fc"
  dropout_param {
    dropout_ratio: 0.7
  }
}
layer {
  name: "loss2/classifier_plantvillage"
  type: "InnerProduct"
  bottom: "loss2/fc"
  top: "loss2/classifier_plantvillage"
  param {
    lr_mult: 1
    decay_mult: 1
  }
  param {
    lr_mult: 2
    decay_mult: 0
  }
  inner_product_param {
    num_output: 38
    weight_filler {
      type: "xavier"
      std: 0.0009765625
    }
    bias_filler {
      type: "constant"
      value: 0
    }
  }
}
layer {
  name: "inception_4e/1x1"
  type: "Convolution"
  bottom: "inception_4d/output"
  top: "inception_4e/1x1"
  param {
    lr_mult: 1
    decay_mult: 1
  }
  param {
    lr_mult: 2
    decay_mult: 0
  }
  convolution_param {
    num_output: 256
    kernel_size: 1
    weight_filler {
      type: "xavier"
      std: 0.03
    }
    bias_filler {
      type: "constant"
      value: 0.2
    }
  }
}
layer {
  name: "inception_4e/relu_1x1"
  type: "ReLU"
  bottom: "inception_4e/1x1"
  top: "inception_4e/1x1"
}
layer {
  name: "inception_4e/3x3_reduce"
  type: "Convolution"
  bottom: "inception_4d/output"
  top: "inception_4e/3x3_reduce"
  param {
    lr_mult: 1
    decay_mult: 1
  }
  param {
    lr_mult: 2
    decay_mult: 0
  }
  convolution_param {
    num_output: 160
    kernel_size: 1
    weight_filler {
      type: "xavier"
      std: 0.09
    }
    bias_filler {
      type: "constant"
      value: 0.2
    }
  }
}
layer {
  name: "inception_4e/relu_3x3_reduce"
  type: "ReLU"
  bottom: "inception_4e/3x3_reduce"
  top: "inception_4e/3x3_reduce"
}
layer {
  name: "inception_4e/3x3"
  type: "Convolution"
  bottom: "inception_4e/3x3_reduce"
  top: "inception_4e/3x3"
  param {
    lr_mult: 1
    decay_mult: 1
  }
  param {
    lr_mult: 2
    decay_mult: 0
  }
  convolution_param {
    num_output: 320
    pad: 1
    kernel_size: 3
    weight_filler {
      type: "xavier"
      std: 0.03
    }
    bias_filler {
      type: "constant"
      value: 0.2
    }
  }
}
layer {
  name: "inception_4e/relu_3x3"
  type: "ReLU"
  bottom: "inception_4e/3x3"
  top: "inception_4e/3x3"
}
layer {
  name: "inception_4e/5x5_reduce"
  type: "Convolution"
  bottom: "inception_4d/output"
  top: "inception_4e/5x5_reduce"
  param {
    lr_mult: 1
    decay_mult: 1
  }
  param {
    lr_mult: 2
    decay_mult: 0
  }
  convolution_param {
    num_output: 32
    kernel_size: 1
    weight_filler {
      type: "xavier"
      std: 0.2
    }
    bias_filler {
      type: "constant"
      value: 0.2
    }
  }
}
layer {
  name: "inception_4e/relu_5x5_reduce"
  type: "ReLU"
  bottom: "inception_4e/5x5_reduce"
  top: "inception_4e/5x5_reduce"
}
layer {
  name: "inception_4e/5x5"
  type: "Convolution"
  bottom: "inception_4e/5x5_reduce"
  top: "inception_4e/
I0403 14:43:59.117358  1866 layer_factory.hpp:77] Creating layer data
I0403 14:43:59.117990  1866 net.cpp:91] Creating Layer data
I0403 14:43:59.118022  1866 net.cpp:399] data -> data
I0403 14:43:59.118073  1866 net.cpp:399] data -> label
I0403 14:43:59.118111  1866 data_transformer.cpp:25] Loading mean file from: /home/mohanty/data/final_dataset/lmdb/grayscale-20-80/mean.binaryproto
I0403 14:43:59.130990  1869 db_lmdb.cpp:38] Opened lmdb /home/mohanty/data/final_dataset/lmdb/grayscale-20-80/test_db
I0403 14:43:59.134526  1866 data_layer.cpp:41] output data size: 24,3,224,224
I0403 14:43:59.163183  1866 net.cpp:141] Setting up data
I0403 14:43:59.163291  1866 net.cpp:148] Top shape: 24 3 224 224 (3612672)
I0403 14:43:59.163316  1866 net.cpp:148] Top shape: 24 (24)
I0403 14:43:59.163332  1866 net.cpp:156] Memory required for data: 14450784
I0403 14:43:59.163360  1866 layer_factory.hpp:77] Creating layer label_data_1_split
I0403 14:43:59.163388  1866 net.cpp:91] Creating Layer label_data_1_split
I0403 14:43:59.163405  1866 net.cpp:425] label_data_1_split <- label
I0403 14:43:59.163437  1866 net.cpp:399] label_data_1_split -> label_data_1_split_0
I0403 14:43:59.163465  1866 net.cpp:399] label_data_1_split -> label_data_1_split_1
I0403 14:43:59.163488  1866 net.cpp:399] label_data_1_split -> label_data_1_split_2
I0403 14:43:59.163511  1866 net.cpp:399] label_data_1_split -> label_data_1_split_3
I0403 14:43:59.163532  1866 net.cpp:399] label_data_1_split -> label_data_1_split_4
I0403 14:43:59.163552  1866 net.cpp:399] label_data_1_split -> label_data_1_split_5
I0403 14:43:59.163573  1866 net.cpp:399] label_data_1_split -> label_data_1_split_6
I0403 14:43:59.163594  1866 net.cpp:399] label_data_1_split -> label_data_1_split_7
I0403 14:43:59.163615  1866 net.cpp:399] label_data_1_split -> label_data_1_split_8
I0403 14:43:59.163636  1866 net.cpp:399] label_data_1_split -> label_data_1_split_9
I0403 14:43:59.163760  1866 net.cpp:141] Setting up label_data_1_split
I0403 14:43:59.163785  1866 net.cpp:148] Top shape: 24 (24)
I0403 14:43:59.163803  1866 net.cpp:148] Top shape: 24 (24)
I0403 14:43:59.163820  1866 net.cpp:148] Top shape: 24 (24)
I0403 14:43:59.163837  1866 net.cpp:148] Top shape: 24 (24)
I0403 14:43:59.163854  1866 net.cpp:148] Top shape: 24 (24)
I0403 14:43:59.163871  1866 net.cpp:148] Top shape: 24 (24)
I0403 14:43:59.163887  1866 net.cpp:148] Top shape: 24 (24)
I0403 14:43:59.163903  1866 net.cpp:148] Top shape: 24 (24)
I0403 14:43:59.163920  1866 net.cpp:148] Top shape: 24 (24)
I0403 14:43:59.163938  1866 net.cpp:148] Top shape: 24 (24)
I0403 14:43:59.163978  1866 net.cpp:156] Memory required for data: 14451744
I0403 14:43:59.163995  1866 layer_factory.hpp:77] Creating layer conv1/7x7_s2
I0403 14:43:59.164028  1866 net.cpp:91] Creating Layer conv1/7x7_s2
I0403 14:43:59.164047  1866 net.cpp:425] conv1/7x7_s2 <- data
I0403 14:43:59.164067  1866 net.cpp:399] conv1/7x7_s2 -> conv1/7x7_s2
I0403 14:43:59.306826  1866 net.cpp:141] Setting up conv1/7x7_s2
I0403 14:43:59.306915  1866 net.cpp:148] Top shape: 24 64 112 112 (19267584)
I0403 14:43:59.306933  1866 net.cpp:156] Memory required for data: 91522080
I0403 14:43:59.306965  1866 layer_factory.hpp:77] Creating layer conv1/relu_7x7
I0403 14:43:59.306993  1866 net.cpp:91] Creating Layer conv1/relu_7x7
I0403 14:43:59.307013  1866 net.cpp:425] conv1/relu_7x7 <- conv1/7x7_s2
I0403 14:43:59.307032  1866 net.cpp:386] conv1/relu_7x7 -> conv1/7x7_s2 (in-place)
I0403 14:43:59.307293  1866 net.cpp:141] Setting up conv1/relu_7x7
I0403 14:43:59.307322  1866 net.cpp:148] Top shape: 24 64 112 112 (19267584)
I0403 14:43:59.307338  1866 net.cpp:156] Memory required for data: 168592416
I0403 14:43:59.307354  1866 layer_factory.hpp:77] Creating layer pool1/3x3_s2
I0403 14:43:59.307379  1866 net.cpp:91] Creating Layer pool1/3x3_s2
I0403 14:43:59.307397  1866 net.cpp:425] pool1/3x3_s2 <- conv1/7x7_s2
I0403 14:43:59.307417  1866 net.cpp:399] pool1/3x3_s2 -> pool1/3x3_s2
I0403 14:43:59.307505  1866 net.cpp:141] Setting up pool1/3x3_s2
I0403 14:43:59.307530  1866 net.cpp:148] Top shape: 24 64 56 56 (4816896)
I0403 14:43:59.307546  1866 net.cpp:156] Memory required for data: 187860000
I0403 14:43:59.307562  1866 layer_factory.hpp:77] Creating layer pool1/norm1
I0403 14:43:59.307587  1866 net.cpp:91] Creating Layer pool1/norm1
I0403 14:43:59.307606  1866 net.cpp:425] pool1/norm1 <- pool1/3x3_s2
I0403 14:43:59.307626  1866 net.cpp:399] pool1/norm1 -> pool1/norm1
I0403 14:43:59.307945  1866 net.cpp:141] Setting up pool1/norm1
I0403 14:43:59.307974  1866 net.cpp:148] Top shape: 24 64 56 56 (4816896)
I0403 14:43:59.307991  1866 net.cpp:156] Memory required for data: 207127584
I0403 14:43:59.308008  1866 layer_factory.hpp:77] Creating layer conv2/3x3_reduce
I0403 14:43:59.308033  1866 net.cpp:91] Creating Layer conv2/3x3_reduce
I0403 14:43:59.308053  1866 net.cpp:425] conv2/3x3_reduce <- pool1/norm1
I0403 14:43:59.308071  1866 net.cpp:399] conv2/3x3_reduce -> conv2/3x3_reduce
I0403 14:43:59.309460  1866 net.cpp:141] Setting up conv2/3x3_reduce
I0403 14:43:59.309492  1866 net.cpp:148] Top shape: 24 64 56 56 (4816896)
I0403 14:43:59.309509  1866 net.cpp:156] Memory required for data: 226395168
I0403 14:43:59.309532  1866 layer_factory.hpp:77] Creating layer conv2/relu_3x3_reduce
I0403 14:43:59.309552  1866 net.cpp:91] Creating Layer conv2/relu_3x3_reduce
I0403 14:43:59.309571  1866 net.cpp:425] conv2/relu_3x3_reduce <- conv2/3x3_reduce
I0403 14:43:59.309588  1866 net.cpp:386] conv2/relu_3x3_reduce -> conv2/3x3_reduce (in-place)
I0403 14:43:59.309854  1866 net.cpp:141] Setting up conv2/relu_3x3_reduce
I0403 14:43:59.309882  1866 net.cpp:148] Top shape: 24 64 56 56 (4816896)
I0403 14:43:59.309900  1866 net.cpp:156] Memory required for data: 245662752
I0403 14:43:59.309916  1866 layer_factory.hpp:77] Creating layer conv2/3x3
I0403 14:43:59.309962  1866 net.cpp:91] Creating Layer conv2/3x3
I0403 14:43:59.309983  1866 net.cpp:425] conv2/3x3 <- conv2/3x3_reduce
I0403 14:43:59.310005  1866 net.cpp:399] conv2/3x3 -> conv2/3x3
I0403 14:43:59.312417  1866 net.cpp:141] Setting up conv2/3x3
I0403 14:43:59.312449  1866 net.cpp:148] Top shape: 24 192 56 56 (14450688)
I0403 14:43:59.312469  1866 net.cpp:156] Memory required for data: 303465504
I0403 14:43:59.312494  1866 layer_factory.hpp:77] Creating layer conv2/relu_3x3
I0403 14:43:59.312515  1866 net.cpp:91] Creating Layer conv2/relu_3x3
I0403 14:43:59.312531  1866 net.cpp:425] conv2/relu_3x3 <- conv2/3x3
I0403 14:43:59.312551  1866 net.cpp:386] conv2/relu_3x3 -> conv2/3x3 (in-place)
I0403 14:43:59.312739  1866 net.cpp:141] Setting up conv2/relu_3x3
I0403 14:43:59.312769  1866 net.cpp:148] Top shape: 24 192 56 56 (14450688)
I0403 14:43:59.312819  1866 net.cpp:156] Memory required for data: 361268256
I0403 14:43:59.312835  1866 layer_factory.hpp:77] Creating layer conv2/norm2
I0403 14:43:59.312855  1866 net.cpp:91] Creating Layer conv2/norm2
I0403 14:43:59.312872  1866 net.cpp:425] conv2/norm2 <- conv2/3x3
I0403 14:43:59.312894  1866 net.cpp:399] conv2/norm2 -> conv2/norm2
I0403 14:43:59.313228  1866 net.cpp:141] Setting up conv2/norm2
I0403 14:43:59.313258  1866 net.cpp:148] Top shape: 24 192 56 56 (14450688)
I0403 14:43:59.313274  1866 net.cpp:156] Memory required for data: 419071008
I0403 14:43:59.313292  1866 layer_factory.hpp:77] Creating layer pool2/3x3_s2
I0403 14:43:59.313310  1866 net.cpp:91] Creating Layer pool2/3x3_s2
I0403 14:43:59.313328  1866 net.cpp:425] pool2/3x3_s2 <- conv2/norm2
I0403 14:43:59.313349  1866 net.cpp:399] pool2/3x3_s2 -> pool2/3x3_s2
I0403 14:43:59.313431  1866 net.cpp:141] Setting up pool2/3x3_s2
I0403 14:43:59.313460  1866 net.cpp:148] Top shape: 24 192 28 28 (3612672)
I0403 14:43:59.313477  1866 net.cpp:156] Memory required for data: 433521696
I0403 14:43:59.313493  1866 layer_factory.hpp:77] Creating layer pool2/3x3_s2_pool2/3x3_s2_0_split
I0403 14:43:59.313513  1866 net.cpp:91] Creating Layer pool2/3x3_s2_pool2/3x3_s2_0_split
I0403 14:43:59.313529  1866 net.cpp:425] pool2/3x3_s2_pool2/3x3_s2_0_split <- pool2/3x3_s2
I0403 14:43:59.313549  1866 net.cpp:399] pool2/3x3_s2_pool2/3x3_s2_0_split -> pool2/3x3_s2_pool2/3x3_s2_0_split_0
I0403 14:43:59.313571  1866 net.cpp:399] pool2/3x3_s2_pool2/3x3_s2_0_split -> pool2/3x3_s2_pool2/3x3_s2_0_split_1
I0403 14:43:59.313593  1866 net.cpp:399] pool2/3x3_s2_pool2/3x3_s2_0_split -> pool2/3x3_s2_pool2/3x3_s2_0_split_2
I0403 14:43:59.313614  1866 net.cpp:399] pool2/3x3_s2_pool2/3x3_s2_0_split -> pool2/3x3_s2_pool2/3x3_s2_0_split_3
I0403 14:43:59.313689  1866 net.cpp:141] Setting up pool2/3x3_s2_pool2/3x3_s2_0_split
I0403 14:43:59.313714  1866 net.cpp:148] Top shape: 24 192 28 28 (3612672)
I0403 14:43:59.313731  1866 net.cpp:148] Top shape: 24 192 28 28 (3612672)
I0403 14:43:59.313748  1866 net.cpp:148] Top shape: 24 192 28 28 (3612672)
I0403 14:43:59.313765  1866 net.cpp:148] Top shape: 24 192 28 28 (3612672)
I0403 14:43:59.313779  1866 net.cpp:156] Memory required for data: 491324448
I0403 14:43:59.313794  1866 layer_factory.hpp:77] Creating layer inception_3a/1x1
I0403 14:43:59.313820  1866 net.cpp:91] Creating Layer inception_3a/1x1
I0403 14:43:59.313838  1866 net.cpp:425] inception_3a/1x1 <- pool2/3x3_s2_pool2/3x3_s2_0_split_0
I0403 14:43:59.313858  1866 net.cpp:399] inception_3a/1x1 -> inception_3a/1x1
I0403 14:43:59.315459  1866 net.cpp:141] Setting up inception_3a/1x1
I0403 14:43:59.315488  1866 net.cpp:148] Top shape: 24 64 28 28 (1204224)
I0403 14:43:59.315505  1866 net.cpp:156] Memory required for data: 496141344
I0403 14:43:59.315524  1866 layer_factory.hpp:77] Creating layer inception_3a/relu_1x1
I0403 14:43:59.315546  1866 net.cpp:91] Creating Layer inception_3a/relu_1x1
I0403 14:43:59.315563  1866 net.cpp:425] inception_3a/relu_1x1 <- inception_3a/1x1
I0403 14:43:59.315582  1866 net.cpp:386] inception_3a/relu_1x1 -> inception_3a/1x1 (in-place)
I0403 14:43:59.315759  1866 net.cpp:141] Setting up inception_3a/relu_1x1
I0403 14:43:59.315785  1866 net.cpp:148] Top shape: 24 64 28 28 (1204224)
I0403 14:43:59.315804  1866 net.cpp:156] Memory required for data: 500958240
I0403 14:43:59.315819  1866 layer_factory.hpp:77] Creating layer inception_3a/3x3_reduce
I0403 14:43:59.315840  1866 net.cpp:91] Creating Layer inception_3a/3x3_reduce
I0403 14:43:59.315857  1866 net.cpp:425] inception_3a/3x3_reduce <- pool2/3x3_s2_pool2/3x3_s2_0_split_1
I0403 14:43:59.315879  1866 net.cpp:399] inception_3a/3x3_reduce -> inception_3a/3x3_reduce
I0403 14:43:59.317665  1866 net.cpp:141] Setting up inception_3a/3x3_reduce
I0403 14:43:59.317694  1866 net.cpp:148] Top shape: 24 96 28 28 (1806336)
I0403 14:43:59.317711  1866 net.cpp:156] Memory required for data: 508183584
I0403 14:43:59.317736  1866 layer_factory.hpp:77] Creating layer inception_3a/relu_3x3_reduce
I0403 14:43:59.317772  1866 net.cpp:91] Creating Layer inception_3a/relu_3x3_reduce
I0403 14:43:59.317790  1866 net.cpp:425] inception_3a/relu_3x3_reduce <- inception_3a/3x3_reduce
I0403 14:43:59.317809  1866 net.cpp:386] inception_3a/relu_3x3_reduce -> inception_3a/3x3_reduce (in-place)
I0403 14:43:59.317997  1866 net.cpp:141] Setting up inception_3a/relu_3x3_reduce
I0403 14:43:59.318023  1866 net.cpp:148] Top shape: 24 96 28 28 (1806336)
I0403 14:43:59.318039  1866 net.cpp:156] Memory required for data: 515408928
I0403 14:43:59.318054  1866 layer_factory.hpp:77] Creating layer inception_3a/3x3
I0403 14:43:59.318078  1866 net.cpp:91] Creating Layer inception_3a/3x3
I0403 14:43:59.318095  1866 net.cpp:425] inception_3a/3x3 <- inception_3a/3x3_reduce
I0403 14:43:59.318119  1866 net.cpp:399] inception_3a/3x3 -> inception_3a/3x3
I0403 14:43:59.319835  1866 net.cpp:141] Setting up inception_3a/3x3
I0403 14:43:59.319864  1866 net.cpp:148] Top shape: 24 128 28 28 (2408448)
I0403 14:43:59.319880  1866 net.cpp:156] Memory required for data: 525042720
I0403 14:43:59.319900  1866 layer_factory.hpp:77] Creating layer inception_3a/relu_3x3
I0403 14:43:59.319921  1866 net.cpp:91] Creating Layer inception_3a/relu_3x3
I0403 14:43:59.319938  1866 net.cpp:425] inception_3a/relu_3x3 <- inception_3a/3x3
I0403 14:43:59.319957  1866 net.cpp:386] inception_3a/relu_3x3 -> inception_3a/3x3 (in-place)
I0403 14:43:59.320237  1866 net.cpp:141] Setting up inception_3a/relu_3x3
I0403 14:43:59.320266  1866 net.cpp:148] Top shape: 24 128 28 28 (2408448)
I0403 14:43:59.320281  1866 net.cpp:156] Memory required for data: 534676512
I0403 14:43:59.320297  1866 layer_factory.hpp:77] Creating layer inception_3a/5x5_reduce
I0403 14:43:59.320320  1866 net.cpp:91] Creating Layer inception_3a/5x5_reduce
I0403 14:43:59.320350  1866 net.cpp:425] inception_3a/5x5_reduce <- pool2/3x3_s2_pool2/3x3_s2_0_split_2
I0403 14:43:59.320374  1866 net.cpp:399] inception_3a/5x5_reduce -> inception_3a/5x5_reduce
I0403 14:43:59.321379  1866 net.cpp:141] Setting up inception_3a/5x5_reduce
I0403 14:43:59.321408  1866 net.cpp:148] Top shape: 24 16 28 28 (301056)
I0403 14:43:59.321425  1866 net.cpp:156] Memory required for data: 535880736
I0403 14:43:59.321444  1866 layer_factory.hpp:77] Creating layer inception_3a/relu_5x5_reduce
I0403 14:43:59.321465  1866 net.cpp:91] Creating Layer inception_3a/relu_5x5_reduce
I0403 14:43:59.321485  1866 net.cpp:425] inception_3a/relu_5x5_reduce <- inception_3a/5x5_reduce
I0403 14:43:59.321502  1866 net.cpp:386] inception_3a/relu_5x5_reduce -> inception_3a/5x5_reduce (in-place)
I0403 14:43:59.321815  1866 net.cpp:141] Setting up inception_3a/relu_5x5_reduce
I0403 14:43:59.321846  1866 net.cpp:148] Top shape: 24 16 28 28 (301056)
I0403 14:43:59.321862  1866 net.cpp:156] Memory required for data: 537084960
I0403 14:43:59.321878  1866 layer_factory.hpp:77] Creating layer inception_3a/5x5
I0403 14:43:59.321902  1866 net.cpp:91] Creating Layer inception_3a/5x5
I0403 14:43:59.321920  1866 net.cpp:425] inception_3a/5x5 <- inception_3a/5x5_reduce
I0403 14:43:59.321940  1866 net.cpp:399] inception_3a/5x5 -> inception_3a/5x5
I0403 14:43:59.323002  1866 net.cpp:141] Setting up inception_3a/5x5
I0403 14:43:59.323030  1866 net.cpp:148] Top shape: 24 32 28 28 (602112)
I0403 14:43:59.323046  1866 net.cpp:156] Memory required for data: 539493408
I0403 14:43:59.323066  1866 layer_factory.hpp:77] Creating layer inception_3a/relu_5x5
I0403 14:43:59.323086  1866 net.cpp:91] Creating Layer inception_3a/relu_5x5
I0403 14:43:59.323104  1866 net.cpp:425] inception_3a/relu_5x5 <- inception_3a/5x5
I0403 14:43:59.323122  1866 net.cpp:386] inception_3a/relu_5x5 -> inception_3a/5x5 (in-place)
I0403 14:43:59.323307  1866 net.cpp:141] Setting up inception_3a/relu_5x5
I0403 14:43:59.323336  1866 net.cpp:148] Top shape: 24 32 28 28 (602112)
I0403 14:43:59.323354  1866 net.cpp:156] Memory required for data: 541901856
I0403 14:43:59.323369  1866 layer_factory.hpp:77] Creating layer inception_3a/pool
I0403 14:43:59.323387  1866 net.cpp:91] Creating Layer inception_3a/pool
I0403 14:43:59.323418  1866 net.cpp:425] inception_3a/pool <- pool2/3x3_s2_pool2/3x3_s2_0_split_3
I0403 14:43:59.323437  1866 net.cpp:399] inception_3a/pool -> inception_3a/pool
I0403 14:43:59.323501  1866 net.cpp:141] Setting up inception_3a/pool
I0403 14:43:59.323526  1866 net.cpp:148] Top shape: 24 192 28 28 (3612672)
I0403 14:43:59.323541  1866 net.cpp:156] Memory required for data: 556352544
I0403 14:43:59.323556  1866 layer_factory.hpp:77] Creating layer inception_3a/pool_proj
I0403 14:43:59.323578  1866 net.cpp:91] Creating Layer inception_3a/pool_proj
I0403 14:43:59.323596  1866 net.cpp:425] inception_3a/pool_proj <- inception_3a/pool
I0403 14:43:59.323619  1866 net.cpp:399] inception_3a/pool_proj -> inception_3a/pool_proj
I0403 14:43:59.324633  1866 net.cpp:141] Setting up inception_3a/pool_proj
I0403 14:43:59.324662  1866 net.cpp:148] Top shape: 24 32 28 28 (602112)
I0403 14:43:59.324678  1866 net.cpp:156] Memory required for data: 558760992
I0403 14:43:59.324700  1866 layer_factory.hpp:77] Creating layer inception_3a/relu_pool_proj
I0403 14:43:59.324723  1866 net.cpp:91] Creating Layer inception_3a/relu_pool_proj
I0403 14:43:59.324739  1866 net.cpp:425] inception_3a/relu_pool_proj <- inception_3a/pool_proj
I0403 14:43:59.324758  1866 net.cpp:386] inception_3a/relu_pool_proj -> inception_3a/pool_proj (in-place)
I0403 14:43:59.325043  1866 net.cpp:141] Setting up inception_3a/relu_pool_proj
I0403 14:43:59.325070  1866 net.cpp:148] Top shape: 24 32 28 28 (602112)
I0403 14:43:59.325086  1866 net.cpp:156] Memory required for data: 561169440
I0403 14:43:59.325103  1866 layer_factory.hpp:77] Creating layer inception_3a/output
I0403 14:43:59.325122  1866 net.cpp:91] Creating Layer inception_3a/output
I0403 14:43:59.325140  1866 net.cpp:425] inception_3a/output <- inception_3a/1x1
I0403 14:43:59.325157  1866 net.cpp:425] inception_3a/output <- inception_3a/3x3
I0403 14:43:59.325175  1866 net.cpp:425] inception_3a/output <- inception_3a/5x5
I0403 14:43:59.325196  1866 net.cpp:425] inception_3a/output <- inception_3a/pool_proj
I0403 14:43:59.325215  1866 net.cpp:399] inception_3a/output -> inception_3a/output
I0403 14:43:59.325264  1866 net.cpp:141] Setting up inception_3a/output
I0403 14:43:59.325289  1866 net.cpp:148] Top shape: 24 256 28 28 (4816896)
I0403 14:43:59.325304  1866 net.cpp:156] Memory required for data: 580437024
I0403 14:43:59.325319  1866 layer_factory.hpp:77] Creating layer inception_3a/output_inception_3a/output_0_split
I0403 14:43:59.325335  1866 net.cpp:91] Creating Layer inception_3a/output_inception_3a/output_0_split
I0403 14:43:59.325351  1866 net.cpp:425] inception_3a/output_inception_3a/output_0_split <- inception_3a/output
I0403 14:43:59.325371  1866 net.cpp:399] inception_3a/output_inception_3a/output_0_split -> inception_3a/output_inception_3a/output_0_split_0
I0403 14:43:59.325393  1866 net.cpp:399] inception_3a/output_inception_3a/output_0_split -> inception_3a/output_inception_3a/output_0_split_1
I0403 14:43:59.325418  1866 net.cpp:399] inception_3a/output_inception_3a/output_0_split -> inception_3a/output_inception_3a/output_0_split_2
I0403 14:43:59.325441  1866 net.cpp:399] inception_3a/output_inception_3a/output_0_split -> inception_3a/output_inception_3a/output_0_split_3
I0403 14:43:59.325518  1866 net.cpp:141] Setting up inception_3a/output_inception_3a/output_0_split
I0403 14:43:59.325541  1866 net.cpp:148] Top shape: 24 256 28 28 (4816896)
I0403 14:43:59.325559  1866 net.cpp:148] Top shape: 24 256 28 28 (4816896)
I0403 14:43:59.325575  1866 net.cpp:148] Top shape: 24 256 28 28 (4816896)
I0403 14:43:59.325592  1866 net.cpp:148] Top shape: 24 256 28 28 (4816896)
I0403 14:43:59.325605  1866 net.cpp:156] Memory required for data: 657507360
I0403 14:43:59.325620  1866 layer_factory.hpp:77] Creating layer inception_3b/1x1
I0403 14:43:59.325644  1866 net.cpp:91] Creating Layer inception_3b/1x1
I0403 14:43:59.325661  1866 net.cpp:425] inception_3b/1x1 <- inception_3a/output_inception_3a/output_0_split_0
I0403 14:43:59.325683  1866 net.cpp:399] inception_3b/1x1 -> inception_3b/1x1
I0403 14:43:59.326884  1866 net.cpp:141] Setting up inception_3b/1x1
I0403 14:43:59.326925  1866 net.cpp:148] Top shape: 24 128 28 28 (2408448)
I0403 14:43:59.326941  1866 net.cpp:156] Memory required for data: 667141152
I0403 14:43:59.326961  1866 layer_factory.hpp:77] Creating layer inception_3b/relu_1x1
I0403 14:43:59.326982  1866 net.cpp:91] Creating Layer inception_3b/relu_1x1
I0403 14:43:59.326999  1866 net.cpp:425] inception_3b/relu_1x1 <- inception_3b/1x1
I0403 14:43:59.327018  1866 net.cpp:386] inception_3b/relu_1x1 -> inception_3b/1x1 (in-place)
I0403 14:43:59.327199  1866 net.cpp:141] Setting up inception_3b/relu_1x1
I0403 14:43:59.327226  1866 net.cpp:148] Top shape: 24 128 28 28 (2408448)
I0403 14:43:59.327241  1866 net.cpp:156] Memory required for data: 676774944
I0403 14:43:59.327257  1866 layer_factory.hpp:77] Creating layer inception_3b/3x3_reduce
I0403 14:43:59.327280  1866 net.cpp:91] Creating Layer inception_3b/3x3_reduce
I0403 14:43:59.327299  1866 net.cpp:425] inception_3b/3x3_reduce <- inception_3a/output_inception_3a/output_0_split_1
I0403 14:43:59.327322  1866 net.cpp:399] inception_3b/3x3_reduce -> inception_3b/3x3_reduce
I0403 14:43:59.328536  1866 net.cpp:141] Setting up inception_3b/3x3_reduce
I0403 14:43:59.328567  1866 net.cpp:148] Top shape: 24 128 28 28 (2408448)
I0403 14:43:59.328583  1866 net.cpp:156] Memory required for data: 686408736
I0403 14:43:59.328603  1866 layer_factory.hpp:77] Creating layer inception_3b/relu_3x3_reduce
I0403 14:43:59.328622  1866 net.cpp:91] Creating Layer inception_3b/relu_3x3_reduce
I0403 14:43:59.328640  1866 net.cpp:425] inception_3b/relu_3x3_reduce <- inception_3b/3x3_reduce
I0403 14:43:59.328660  1866 net.cpp:386] inception_3b/relu_3x3_reduce -> inception_3b/3x3_reduce (in-place)
I0403 14:43:59.328842  1866 net.cpp:141] Setting up inception_3b/relu_3x3_reduce
I0403 14:43:59.328869  1866 net.cpp:148] Top shape: 24 128 28 28 (2408448)
I0403 14:43:59.328886  1866 net.cpp:156] Memory required for data: 696042528
I0403 14:43:59.328902  1866 layer_factory.hpp:77] Creating layer inception_3b/3x3
I0403 14:43:59.328928  1866 net.cpp:91] Creating Layer inception_3b/3x3
I0403 14:43:59.328948  1866 net.cpp:425] inception_3b/3x3 <- inception_3b/3x3_reduce
I0403 14:43:59.328969  1866 net.cpp:399] inception_3b/3x3 -> inception_3b/3x3
I0403 14:43:59.332018  1866 net.cpp:141] Setting up inception_3b/3x3
I0403 14:43:59.332049  1866 net.cpp:148] Top shape: 24 192 28 28 (3612672)
I0403 14:43:59.332067  1866 net.cpp:156] Memory required for data: 710493216
I0403 14:43:59.332087  1866 layer_factory.hpp:77] Creating layer inception_3b/relu_3x3
I0403 14:43:59.332108  1866 net.cpp:91] Creating Layer inception_3b/relu_3x3
I0403 14:43:59.332128  1866 net.cpp:425] inception_3b/relu_3x3 <- inception_3b/3x3
I0403 14:43:59.332145  1866 net.cpp:386] inception_3b/relu_3x3 -> inception_3b/3x3 (in-place)
I0403 14:43:59.332455  1866 net.cpp:141] Setting up inception_3b/relu_3x3
I0403 14:43:59.332492  1866 net.cpp:148] Top shape: 24 192 28 28 (3612672)
I0403 14:43:59.332509  1866 net.cpp:156] Memory required for data: 724943904
I0403 14:43:59.332525  1866 layer_factory.hpp:77] Creating layer inception_3b/5x5_reduce
I0403 14:43:59.332551  1866 net.cpp:91] Creating Layer inception_3b/5x5_reduce
I0403 14:43:59.332569  1866 net.cpp:425] inception_3b/5x5_reduce <- inception_3a/output_inception_3a/output_0_split_2
I0403 14:43:59.332592  1866 net.cpp:399] inception_3b/5x5_reduce -> inception_3b/5x5_reduce
I0403 14:43:59.333647  1866 net.cpp:141] Setting up inception_3b/5x5_reduce
I0403 14:43:59.333678  1866 net.cpp:148] Top shape: 24 32 28 28 (602112)
I0403 14:43:59.333693  1866 net.cpp:156] Memory required for data: 727352352
I0403 14:43:59.333714  1866 layer_factory.hpp:77] Creating layer inception_3b/relu_5x5_reduce
I0403 14:43:59.333735  1866 net.cpp:91] Creating Layer inception_3b/relu_5x5_reduce
I0403 14:43:59.333753  1866 net.cpp:425] inception_3b/relu_5x5_reduce <- inception_3b/5x5_reduce
I0403 14:43:59.333772  1866 net.cpp:386] inception_3b/relu_5x5_reduce -> inception_3b/5x5_reduce (in-place)
I0403 14:43:59.333972  1866 net.cpp:141] Setting up inception_3b/relu_5x5_reduce
I0403 14:43:59.334002  1866 net.cpp:148] Top shape: 24 32 28 28 (602112)
I0403 14:43:59.334019  1866 net.cpp:156] Memory required for data: 729760800
I0403 14:43:59.334035  1866 layer_factory.hpp:77] Creating layer inception_3b/5x5
I0403 14:43:59.334059  1866 net.cpp:91] Creating Layer inception_3b/5x5
I0403 14:43:59.334077  1866 net.cpp:425] inception_3b/5x5 <- inception_3b/5x5_reduce
I0403 14:43:59.334098  1866 net.cpp:399] inception_3b/5x5 -> inception_3b/5x5
I0403 14:43:59.336156  1866 net.cpp:141] Setting up inception_3b/5x5
I0403 14:43:59.336190  1866 net.cpp:148] Top shape: 24 96 28 28 (1806336)
I0403 14:43:59.336210  1866 net.cpp:156] Memory required for data: 736986144
I0403 14:43:59.336230  1866 layer_factory.hpp:77] Creating layer inception_3b/relu_5x5
I0403 14:43:59.336248  1866 net.cpp:91] Creating Layer inception_3b/relu_5x5
I0403 14:43:59.336266  1866 net.cpp:425] inception_3b/relu_5x5 <- inception_3b/5x5
I0403 14:43:59.336287  1866 net.cpp:386] inception_3b/relu_5x5 -> inception_3b/5x5 (in-place)
I0403 14:43:59.336490  1866 net.cpp:141] Setting up inception_3b/relu_5x5
I0403 14:43:59.336518  1866 net.cpp:148] Top shape: 24 96 28 28 (1806336)
I0403 14:43:59.336534  1866 net.cpp:156] Memory required for data: 744211488
I0403 14:43:59.336549  1866 layer_factory.hpp:77] Creating layer inception_3b/pool
I0403 14:43:59.336567  1866 net.cpp:91] Creating Layer inception_3b/pool
I0403 14:43:59.336585  1866 net.cpp:425] inception_3b/pool <- inception_3a/output_inception_3a/output_0_split_3
I0403 14:43:59.336604  1866 net.cpp:399] inception_3b/pool -> inception_3b/pool
I0403 14:43:59.336663  1866 net.cpp:141] Setting up inception_3b/pool
I0403 14:43:59.336688  1866 net.cpp:148] Top shape: 24 256 28 28 (4816896)
I0403 14:43:59.336704  1866 net.cpp:156] Memory required for data: 763479072
I0403 14:43:59.336719  1866 layer_factory.hpp:77] Creating layer inception_3b/pool_proj
I0403 14:43:59.336742  1866 net.cpp:91] Creating Layer inception_3b/pool_proj
I0403 14:43:59.336760  1866 net.cpp:425] inception_3b/pool_proj <- inception_3b/pool
I0403 14:43:59.336783  1866 net.cpp:399] inception_3b/pool_proj -> inception_3b/pool_proj
I0403 14:43:59.337888  1866 net.cpp:141] Setting up inception_3b/pool_proj
I0403 14:43:59.337918  1866 net.cpp:148] Top shape: 24 64 28 28 (1204224)
I0403 14:43:59.337935  1866 net.cpp:156] Memory required for data: 768295968
I0403 14:43:59.337954  1866 layer_factory.hpp:77] Creating layer inception_3b/relu_pool_proj
I0403 14:43:59.337972  1866 net.cpp:91] Creating Layer inception_3b/relu_pool_proj
I0403 14:43:59.337988  1866 net.cpp:425] inception_3b/relu_pool_proj <- inception_3b/pool_proj
I0403 14:43:59.338006  1866 net.cpp:386] inception_3b/relu_pool_proj -> inception_3b/pool_proj (in-place)
I0403 14:43:59.338405  1866 net.cpp:141] Setting up inception_3b/relu_pool_proj
I0403 14:43:59.338433  1866 net.cpp:148] Top shape: 24 64 28 28 (1204224)
I0403 14:43:59.338448  1866 net.cpp:156] Memory required for data: 773112864
I0403 14:43:59.338464  1866 layer_factory.hpp:77] Creating layer inception_3b/output
I0403 14:43:59.338484  1866 net.cpp:91] Creating Layer inception_3b/output
I0403 14:43:59.338500  1866 net.cpp:425] inception_3b/output <- inception_3b/1x1
I0403 14:43:59.338517  1866 net.cpp:425] inception_3b/output <- inception_3b/3x3
I0403 14:43:59.338533  1866 net.cpp:425] inception_3b/output <- inception_3b/5x5
I0403 14:43:59.338551  1866 net.cpp:425] inception_3b/output <- inception_3b/pool_proj
I0403 14:43:59.338567  1866 net.cpp:399] inception_3b/output -> inception_3b/output
I0403 14:43:59.338611  1866 net.cpp:141] Setting up inception_3b/output
I0403 14:43:59.338635  1866 net.cpp:148] Top shape: 24 480 28 28 (9031680)
I0403 14:43:59.338650  1866 net.cpp:156] Memory required for data: 809239584
I0403 14:43:59.338665  1866 layer_factory.hpp:77] Creating layer pool3/3x3_s2
I0403 14:43:59.338682  1866 net.cpp:91] Creating Layer pool3/3x3_s2
I0403 14:43:59.338698  1866 net.cpp:425] pool3/3x3_s2 <- inception_3b/output
I0403 14:43:59.338733  1866 net.cpp:399] pool3/3x3_s2 -> pool3/3x3_s2
I0403 14:43:59.338793  1866 net.cpp:141] Setting up pool3/3x3_s2
I0403 14:43:59.338816  1866 net.cpp:148] Top shape: 24 480 14 14 (2257920)
I0403 14:43:59.338831  1866 net.cpp:156] Memory required for data: 818271264
I0403 14:43:59.338846  1866 layer_factory.hpp:77] Creating layer pool3/3x3_s2_pool3/3x3_s2_0_split
I0403 14:43:59.338863  1866 net.cpp:91] Creating Layer pool3/3x3_s2_pool3/3x3_s2_0_split
I0403 14:43:59.338879  1866 net.cpp:425] pool3/3x3_s2_pool3/3x3_s2_0_split <- pool3/3x3_s2
I0403 14:43:59.338898  1866 net.cpp:399] pool3/3x3_s2_pool3/3x3_s2_0_split -> pool3/3x3_s2_pool3/3x3_s2_0_split_0
I0403 14:43:59.338919  1866 net.cpp:399] pool3/3x3_s2_pool3/3x3_s2_0_split -> pool3/3x3_s2_pool3/3x3_s2_0_split_1
I0403 14:43:59.338939  1866 net.cpp:399] pool3/3x3_s2_pool3/3x3_s2_0_split -> pool3/3x3_s2_pool3/3x3_s2_0_split_2
I0403 14:43:59.338960  1866 net.cpp:399] pool3/3x3_s2_pool3/3x3_s2_0_split -> pool3/3x3_s2_pool3/3x3_s2_0_split_3
I0403 14:43:59.339035  1866 net.cpp:141] Setting up pool3/3x3_s2_pool3/3x3_s2_0_split
I0403 14:43:59.339061  1866 net.cpp:148] Top shape: 24 480 14 14 (2257920)
I0403 14:43:59.339078  1866 net.cpp:148] Top shape: 24 480 14 14 (2257920)
I0403 14:43:59.339094  1866 net.cpp:148] Top shape: 24 480 14 14 (2257920)
I0403 14:43:59.339110  1866 net.cpp:148] Top shape: 24 480 14 14 (2257920)
I0403 14:43:59.339124  1866 net.cpp:156] Memory required for data: 854397984
I0403 14:43:59.339139  1866 layer_factory.hpp:77] Creating layer inception_4a/1x1
I0403 14:43:59.339160  1866 net.cpp:91] Creating Layer inception_4a/1x1
I0403 14:43:59.339181  1866 net.cpp:425] inception_4a/1x1 <- pool3/3x3_s2_pool3/3x3_s2_0_split_0
I0403 14:43:59.339202  1866 net.cpp:399] inception_4a/1x1 -> inception_4a/1x1
I0403 14:43:59.340766  1866 net.cpp:141] Setting up inception_4a/1x1
I0403 14:43:59.340795  1866 net.cpp:148] Top shape: 24 192 14 14 (903168)
I0403 14:43:59.340811  1866 net.cpp:156] Memory required for data: 858010656
I0403 14:43:59.340831  1866 layer_factory.hpp:77] Creating layer inception_4a/relu_1x1
I0403 14:43:59.340848  1866 net.cpp:91] Creating Layer inception_4a/relu_1x1
I0403 14:43:59.340864  1866 net.cpp:425] inception_4a/relu_1x1 <- inception_4a/1x1
I0403 14:43:59.340883  1866 net.cpp:386] inception_4a/relu_1x1 -> inception_4a/1x1 (in-place)
I0403 14:43:59.341058  1866 net.cpp:141] Setting up inception_4a/relu_1x1
I0403 14:43:59.341084  1866 net.cpp:148] Top shape: 24 192 14 14 (903168)
I0403 14:43:59.341099  1866 net.cpp:156] Memory required for data: 861623328
I0403 14:43:59.341114  1866 layer_factory.hpp:77] Creating layer inception_4a/3x3_reduce
I0403 14:43:59.341135  1866 net.cpp:91] Creating Layer inception_4a/3x3_reduce
I0403 14:43:59.341152  1866 net.cpp:425] inception_4a/3x3_reduce <- pool3/3x3_s2_pool3/3x3_s2_0_split_1
I0403 14:43:59.341173  1866 net.cpp:399] inception_4a/3x3_reduce -> inception_4a/3x3_reduce
I0403 14:43:59.342442  1866 net.cpp:141] Setting up inception_4a/3x3_reduce
I0403 14:43:59.342474  1866 net.cpp:148] Top shape: 24 96 14 14 (451584)
I0403 14:43:59.342490  1866 net.cpp:156] Memory required for data: 863429664
I0403 14:43:59.342516  1866 layer_factory.hpp:77] Creating layer inception_4a/relu_3x3_reduce
I0403 14:43:59.342536  1866 net.cpp:91] Creating Layer inception_4a/relu_3x3_reduce
I0403 14:43:59.342552  1866 net.cpp:425] inception_4a/relu_3x3_reduce <- inception_4a/3x3_reduce
I0403 14:43:59.342571  1866 net.cpp:386] inception_4a/relu_3x3_reduce -> inception_4a/3x3_reduce (in-place)
I0403 14:43:59.342741  1866 net.cpp:141] Setting up inception_4a/relu_3x3_reduce
I0403 14:43:59.342767  1866 net.cpp:148] Top shape: 24 96 14 14 (451584)
I0403 14:43:59.342782  1866 net.cpp:156] Memory required for data: 865236000
I0403 14:43:59.342795  1866 layer_factory.hpp:77] Creating layer inception_4a/3x3
I0403 14:43:59.342818  1866 net.cpp:91] Creating Layer inception_4a/3x3
I0403 14:43:59.342834  1866 net.cpp:425] inception_4a/3x3 <- inception_4a/3x3_reduce
I0403 14:43:59.342855  1866 net.cpp:399] inception_4a/3x3 -> inception_4a/3x3
I0403 14:43:59.345588  1866 net.cpp:141] Setting up inception_4a/3x3
I0403 14:43:59.345618  1866 net.cpp:148] Top shape: 24 208 14 14 (978432)
I0403 14:43:59.345634  1866 net.cpp:156] Memory required for data: 869149728
I0403 14:43:59.345652  1866 layer_factory.hpp:77] Creating layer inception_4a/relu_3x3
I0403 14:43:59.345671  1866 net.cpp:91] Creating Layer inception_4a/relu_3x3
I0403 14:43:59.345687  1866 net.cpp:425] inception_4a/relu_3x3 <- inception_4a/3x3
I0403 14:43:59.345708  1866 net.cpp:386] inception_4a/relu_3x3 -> inception_4a/3x3 (in-place)
I0403 14:43:59.345994  1866 net.cpp:141] Setting up inception_4a/relu_3x3
I0403 14:43:59.346022  1866 net.cpp:148] Top shape: 24 208 14 14 (978432)
I0403 14:43:59.346037  1866 net.cpp:156] Memory required for data: 873063456
I0403 14:43:59.346053  1866 layer_factory.hpp:77] Creating layer inception_4a/5x5_reduce
I0403 14:43:59.346076  1866 net.cpp:91] Creating Layer inception_4a/5x5_reduce
I0403 14:43:59.346094  1866 net.cpp:425] inception_4a/5x5_reduce <- pool3/3x3_s2_pool3/3x3_s2_0_split_2
I0403 14:43:59.346117  1866 net.cpp:399] inception_4a/5x5_reduce -> inception_4a/5x5_reduce
I0403 14:43:59.347151  1866 net.cpp:141] Setting up inception_4a/5x5_reduce
I0403 14:43:59.347183  1866 net.cpp:148] Top shape: 24 16 14 14 (75264)
I0403 14:43:59.347200  1866 net.cpp:156] Memory required for data: 873364512
I0403 14:43:59.347220  1866 layer_factory.hpp:77] Creating layer inception_4a/relu_5x5_reduce
I0403 14:43:59.347241  1866 net.cpp:91] Creating Layer inception_4a/relu_5x5_reduce
I0403 14:43:59.347259  1866 net.cpp:425] inception_4a/relu_5x5_reduce <- inception_4a/5x5_reduce
I0403 14:43:59.347278  1866 net.cpp:386] inception_4a/relu_5x5_reduce -> inception_4a/5x5_reduce (in-place)
I0403 14:43:59.347458  1866 net.cpp:141] Setting up inception_4a/relu_5x5_reduce
I0403 14:43:59.347489  1866 net.cpp:148] Top shape: 24 16 14 14 (75264)
I0403 14:43:59.347506  1866 net.cpp:156] Memory required for data: 873665568
I0403 14:43:59.347522  1866 layer_factory.hpp:77] Creating layer inception_4a/5x5
I0403 14:43:59.347545  1866 net.cpp:91] Creating Layer inception_4a/5x5
I0403 14:43:59.347563  1866 net.cpp:425] inception_4a/5x5 <- inception_4a/5x5_reduce
I0403 14:43:59.347584  1866 net.cpp:399] inception_4a/5x5 -> inception_4a/5x5
I0403 14:43:59.348693  1866 net.cpp:141] Setting up inception_4a/5x5
I0403 14:43:59.348721  1866 net.cpp:148] Top shape: 24 48 14 14 (225792)
I0403 14:43:59.348737  1866 net.cpp:156] Memory required for data: 874568736
I0403 14:43:59.348757  1866 layer_factory.hpp:77] Creating layer inception_4a/relu_5x5
I0403 14:43:59.348778  1866 net.cpp:91] Creating Layer inception_4a/relu_5x5
I0403 14:43:59.348796  1866 net.cpp:425] inception_4a/relu_5x5 <- inception_4a/5x5
I0403 14:43:59.348814  1866 net.cpp:386] inception_4a/relu_5x5 -> inception_4a/5x5 (in-place)
I0403 14:43:59.348996  1866 net.cpp:141] Setting up inception_4a/relu_5x5
I0403 14:43:59.349022  1866 net.cpp:148] Top shape: 24 48 14 14 (225792)
I0403 14:43:59.349037  1866 net.cpp:156] Memory required for data: 875471904
I0403 14:43:59.349053  1866 layer_factory.hpp:77] Creating layer inception_4a/pool
I0403 14:43:59.349071  1866 net.cpp:91] Creating Layer inception_4a/pool
I0403 14:43:59.349087  1866 net.cpp:425] inception_4a/pool <- pool3/3x3_s2_pool3/3x3_s2_0_split_3
I0403 14:43:59.349109  1866 net.cpp:399] inception_4a/pool -> inception_4a/pool
I0403 14:43:59.349171  1866 net.cpp:141] Setting up inception_4a/pool
I0403 14:43:59.349200  1866 net.cpp:148] Top shape: 24 480 14 14 (2257920)
I0403 14:43:59.349215  1866 net.cpp:156] Memory required for data: 884503584
I0403 14:43:59.349230  1866 layer_factory.hpp:77] Creating layer inception_4a/pool_proj
I0403 14:43:59.349253  1866 net.cpp:91] Creating Layer inception_4a/pool_proj
I0403 14:43:59.349272  1866 net.cpp:425] inception_4a/pool_proj <- inception_4a/pool
I0403 14:43:59.349290  1866 net.cpp:399] inception_4a/pool_proj -> inception_4a/pool_proj
I0403 14:43:59.350492  1866 net.cpp:141] Setting up inception_4a/pool_proj
I0403 14:43:59.350523  1866 net.cpp:148] Top shape: 24 64 14 14 (301056)
I0403 14:43:59.350554  1866 net.cpp:156] Memory required for data: 885707808
I0403 14:43:59.350574  1866 layer_factory.hpp:77] Creating layer inception_4a/relu_pool_proj
I0403 14:43:59.350594  1866 net.cpp:91] Creating Layer inception_4a/relu_pool_proj
I0403 14:43:59.350610  1866 net.cpp:425] inception_4a/relu_pool_proj <- inception_4a/pool_proj
I0403 14:43:59.350632  1866 net.cpp:386] inception_4a/relu_pool_proj -> inception_4a/pool_proj (in-place)
I0403 14:43:59.350920  1866 net.cpp:141] Setting up inception_4a/relu_pool_proj
I0403 14:43:59.350951  1866 net.cpp:148] Top shape: 24 64 14 14 (301056)
I0403 14:43:59.350968  1866 net.cpp:156] Memory required for data: 886912032
I0403 14:43:59.350985  1866 layer_factory.hpp:77] Creating layer inception_4a/output
I0403 14:43:59.351002  1866 net.cpp:91] Creating Layer inception_4a/output
I0403 14:43:59.351018  1866 net.cpp:425] inception_4a/output <- inception_4a/1x1
I0403 14:43:59.351037  1866 net.cpp:425] inception_4a/output <- inception_4a/3x3
I0403 14:43:59.351052  1866 net.cpp:425] inception_4a/output <- inception_4a/5x5
I0403 14:43:59.351069  1866 net.cpp:425] inception_4a/output <- inception_4a/pool_proj
I0403 14:43:59.351089  1866 net.cpp:399] inception_4a/output -> inception_4a/output
I0403 14:43:59.351135  1866 net.cpp:141] Setting up inception_4a/output
I0403 14:43:59.351160  1866 net.cpp:148] Top shape: 24 512 14 14 (2408448)
I0403 14:43:59.351176  1866 net.cpp:156] Memory required for data: 896545824
I0403 14:43:59.351196  1866 layer_factory.hpp:77] Creating layer inception_4a/output_inception_4a/output_0_split
I0403 14:43:59.351217  1866 net.cpp:91] Creating Layer inception_4a/output_inception_4a/output_0_split
I0403 14:43:59.351233  1866 net.cpp:425] inception_4a/output_inception_4a/output_0_split <- inception_4a/output
I0403 14:43:59.351253  1866 net.cpp:399] inception_4a/output_inception_4a/output_0_split -> inception_4a/output_inception_4a/output_0_split_0
I0403 14:43:59.351274  1866 net.cpp:399] inception_4a/output_inception_4a/output_0_split -> inception_4a/output_inception_4a/output_0_split_1
I0403 14:43:59.351300  1866 net.cpp:399] inception_4a/output_inception_4a/output_0_split -> inception_4a/output_inception_4a/output_0_split_2
I0403 14:43:59.351321  1866 net.cpp:399] inception_4a/output_inception_4a/output_0_split -> inception_4a/output_inception_4a/output_0_split_3
I0403 14:43:59.351342  1866 net.cpp:399] inception_4a/output_inception_4a/output_0_split -> inception_4a/output_inception_4a/output_0_split_4
I0403 14:43:59.351435  1866 net.cpp:141] Setting up inception_4a/output_inception_4a/output_0_split
I0403 14:43:59.351459  1866 net.cpp:148] Top shape: 24 512 14 14 (2408448)
I0403 14:43:59.351476  1866 net.cpp:148] Top shape: 24 512 14 14 (2408448)
I0403 14:43:59.351492  1866 net.cpp:148] Top shape: 24 512 14 14 (2408448)
I0403 14:43:59.351511  1866 net.cpp:148] Top shape: 24 512 14 14 (2408448)
I0403 14:43:59.351526  1866 net.cpp:148] Top shape: 24 512 14 14 (2408448)
I0403 14:43:59.351541  1866 net.cpp:156] Memory required for data: 944714784
I0403 14:43:59.351555  1866 layer_factory.hpp:77] Creating layer loss1/ave_pool
I0403 14:43:59.351575  1866 net.cpp:91] Creating Layer loss1/ave_pool
I0403 14:43:59.351593  1866 net.cpp:425] loss1/ave_pool <- inception_4a/output_inception_4a/output_0_split_0
I0403 14:43:59.351613  1866 net.cpp:399] loss1/ave_pool -> loss1/ave_pool
I0403 14:43:59.351824  1866 net.cpp:141] Setting up loss1/ave_pool
I0403 14:43:59.351853  1866 net.cpp:148] Top shape: 24 512 4 4 (196608)
I0403 14:43:59.351869  1866 net.cpp:156] Memory required for data: 945501216
I0403 14:43:59.351884  1866 layer_factory.hpp:77] Creating layer loss1/conv
I0403 14:43:59.351908  1866 net.cpp:91] Creating Layer loss1/conv
I0403 14:43:59.351927  1866 net.cpp:425] loss1/conv <- loss1/ave_pool
I0403 14:43:59.351945  1866 net.cpp:399] loss1/conv -> loss1/conv
I0403 14:43:59.353453  1866 net.cpp:141] Setting up loss1/conv
I0403 14:43:59.353482  1866 net.cpp:148] Top shape: 24 128 4 4 (49152)
I0403 14:43:59.353510  1866 net.cpp:156] Memory required for data: 945697824
I0403 14:43:59.353530  1866 layer_factory.hpp:77] Creating layer loss1/relu_conv
I0403 14:43:59.353551  1866 net.cpp:91] Creating Layer loss1/relu_conv
I0403 14:43:59.353569  1866 net.cpp:425] loss1/relu_conv <- loss1/conv
I0403 14:43:59.353585  1866 net.cpp:386] loss1/relu_conv -> loss1/conv (in-place)
I0403 14:43:59.353866  1866 net.cpp:141] Setting up loss1/relu_conv
I0403 14:43:59.353893  1866 net.cpp:148] Top shape: 24 128 4 4 (49152)
I0403 14:43:59.353909  1866 net.cpp:156] Memory required for data: 945894432
I0403 14:43:59.353924  1866 layer_factory.hpp:77] Creating layer loss1/fc
I0403 14:43:59.353950  1866 net.cpp:91] Creating Layer loss1/fc
I0403 14:43:59.353967  1866 net.cpp:425] loss1/fc <- loss1/conv
I0403 14:43:59.353986  1866 net.cpp:399] loss1/fc -> loss1/fc
I0403 14:43:59.371953  1866 net.cpp:141] Setting up loss1/fc
I0403 14:43:59.372020  1866 net.cpp:148] Top shape: 24 1024 (24576)
I0403 14:43:59.372036  1866 net.cpp:156] Memory required for data: 945992736
I0403 14:43:59.372057  1866 layer_factory.hpp:77] Creating layer loss1/relu_fc
I0403 14:43:59.372078  1866 net.cpp:91] Creating Layer loss1/relu_fc
I0403 14:43:59.372097  1866 net.cpp:425] loss1/relu_fc <- loss1/fc
I0403 14:43:59.372119  1866 net.cpp:386] loss1/relu_fc -> loss1/fc (in-place)
I0403 14:43:59.372360  1866 net.cpp:141] Setting up loss1/relu_fc
I0403 14:43:59.372386  1866 net.cpp:148] Top shape: 24 1024 (24576)
I0403 14:43:59.372402  1866 net.cpp:156] Memory required for data: 946091040
I0403 14:43:59.372418  1866 layer_factory.hpp:77] Creating layer loss1/drop_fc
I0403 14:43:59.372447  1866 net.cpp:91] Creating Layer loss1/drop_fc
I0403 14:43:59.372465  1866 net.cpp:425] loss1/drop_fc <- loss1/fc
I0403 14:43:59.372493  1866 net.cpp:386] loss1/drop_fc -> loss1/fc (in-place)
I0403 14:43:59.372546  1866 net.cpp:141] Setting up loss1/drop_fc
I0403 14:43:59.372572  1866 net.cpp:148] Top shape: 24 1024 (24576)
I0403 14:43:59.372588  1866 net.cpp:156] Memory required for data: 946189344
I0403 14:43:59.372604  1866 layer_factory.hpp:77] Creating layer loss1/classifier_plantvillage
I0403 14:43:59.372625  1866 net.cpp:91] Creating Layer loss1/classifier_plantvillage
I0403 14:43:59.372642  1866 net.cpp:425] loss1/classifier_plantvillage <- loss1/fc
I0403 14:43:59.372664  1866 net.cpp:399] loss1/classifier_plantvillage -> loss1/classifier_plantvillage
I0403 14:43:59.374403  1866 net.cpp:141] Setting up loss1/classifier_plantvillage
I0403 14:43:59.374433  1866 net.cpp:148] Top shape: 24 38 (912)
I0403 14:43:59.374449  1866 net.cpp:156] Memory required for data: 946192992
I0403 14:43:59.374467  1866 layer_factory.hpp:77] Creating layer loss1/classifier_plantvillage_loss1/classifier_plantvillage_0_split
I0403 14:43:59.374487  1866 net.cpp:91] Creating Layer loss1/classifier_plantvillage_loss1/classifier_plantvillage_0_split
I0403 14:43:59.374505  1866 net.cpp:425] loss1/classifier_plantvillage_loss1/classifier_plantvillage_0_split <- loss1/classifier_plantvillage
I0403 14:43:59.374524  1866 net.cpp:399] loss1/classifier_plantvillage_loss1/classifier_plantvillage_0_split -> loss1/classifier_plantvillage_loss1/classifier_plantvillage_0_split_0
I0403 14:43:59.374547  1866 net.cpp:399] loss1/classifier_plantvillage_loss1/classifier_plantvillage_0_split -> loss1/classifier_plantvillage_loss1/classifier_plantvillage_0_split_1
I0403 14:43:59.374568  1866 net.cpp:399] loss1/classifier_plantvillage_loss1/classifier_plantvillage_0_split -> loss1/classifier_plantvillage_loss1/classifier_plantvillage_0_split_2
I0403 14:43:59.374641  1866 net.cpp:141] Setting up loss1/classifier_plantvillage_loss1/classifier_plantvillage_0_split
I0403 14:43:59.374665  1866 net.cpp:148] Top shape: 24 38 (912)
I0403 14:43:59.374682  1866 net.cpp:148] Top shape: 24 38 (912)
I0403 14:43:59.374699  1866 net.cpp:148] Top shape: 24 38 (912)
I0403 14:43:59.374713  1866 net.cpp:156] Memory required for data: 946203936
I0403 14:43:59.374728  1866 layer_factory.hpp:77] Creating layer inception_4b/1x1
I0403 14:43:59.374752  1866 net.cpp:91] Creating Layer inception_4b/1x1
I0403 14:43:59.374794  1866 net.cpp:425] inception_4b/1x1 <- inception_4a/output_inception_4a/output_0_split_1
I0403 14:43:59.374815  1866 net.cpp:399] inception_4b/1x1 -> inception_4b/1x1
I0403 14:43:59.376579  1866 net.cpp:141] Setting up inception_4b/1x1
I0403 14:43:59.376610  1866 net.cpp:148] Top shape: 24 160 14 14 (752640)
I0403 14:43:59.376626  1866 net.cpp:156] Memory required for data: 949214496
I0403 14:43:59.376644  1866 layer_factory.hpp:77] Creating layer inception_4b/relu_1x1
I0403 14:43:59.376665  1866 net.cpp:91] Creating Layer inception_4b/relu_1x1
I0403 14:43:59.376683  1866 net.cpp:425] inception_4b/relu_1x1 <- inception_4b/1x1
I0403 14:43:59.376701  1866 net.cpp:386] inception_4b/relu_1x1 -> inception_4b/1x1 (in-place)
I0403 14:43:59.376884  1866 net.cpp:141] Setting up inception_4b/relu_1x1
I0403 14:43:59.376914  1866 net.cpp:148] Top shape: 24 160 14 14 (752640)
I0403 14:43:59.376929  1866 net.cpp:156] Memory required for data: 952225056
I0403 14:43:59.376945  1866 layer_factory.hpp:77] Creating layer inception_4b/3x3_reduce
I0403 14:43:59.376967  1866 net.cpp:91] Creating Layer inception_4b/3x3_reduce
I0403 14:43:59.376986  1866 net.cpp:425] inception_4b/3x3_reduce <- inception_4a/output_inception_4a/output_0_split_2
I0403 14:43:59.377005  1866 net.cpp:399] inception_4b/3x3_reduce -> inception_4b/3x3_reduce
I0403 14:43:59.378417  1866 net.cpp:141] Setting up inception_4b/3x3_reduce
I0403 14:43:59.378444  1866 net.cpp:148] Top shape: 24 112 14 14 (526848)
I0403 14:43:59.378464  1866 net.cpp:156] Memory required for data: 954332448
I0403 14:43:59.378484  1866 layer_factory.hpp:77] Creating layer inception_4b/relu_3x3_reduce
I0403 14:43:59.378504  1866 net.cpp:91] Creating Layer inception_4b/relu_3x3_reduce
I0403 14:43:59.378521  1866 net.cpp:425] inception_4b/relu_3x3_reduce <- inception_4b/3x3_reduce
I0403 14:43:59.378538  1866 net.cpp:386] inception_4b/relu_3x3_reduce -> inception_4b/3x3_reduce (in-place)
I0403 14:43:59.378829  1866 net.cpp:141] Setting up inception_4b/relu_3x3_reduce
I0403 14:43:59.378856  1866 net.cpp:148] Top shape: 24 112 14 14 (526848)
I0403 14:43:59.378875  1866 net.cpp:156] Memory required for data: 956439840
I0403 14:43:59.378891  1866 layer_factory.hpp:77] Creating layer inception_4b/3x3
I0403 14:43:59.378913  1866 net.cpp:91] Creating Layer inception_4b/3x3
I0403 14:43:59.378931  1866 net.cpp:425] inception_4b/3x3 <- inception_4b/3x3_reduce
I0403 14:43:59.378952  1866 net.cpp:399] inception_4b/3x3 -> inception_4b/3x3
I0403 14:43:59.382053  1866 net.cpp:141] Setting up inception_4b/3x3
I0403 14:43:59.382082  1866 net.cpp:148] Top shape: 24 224 14 14 (1053696)
I0403 14:43:59.382099  1866 net.cpp:156] Memory required for data: 960654624
I0403 14:43:59.382118  1866 layer_factory.hpp:77] Creating layer inception_4b/relu_3x3
I0403 14:43:59.382138  1866 net.cpp:91] Creating Layer inception_4b/relu_3x3
I0403 14:43:59.382153  1866 net.cpp:425] inception_4b/relu_3x3 <- inception_4b/3x3
I0403 14:43:59.382189  1866 net.cpp:386] inception_4b/relu_3x3 -> inception_4b/3x3 (in-place)
I0403 14:43:59.382398  1866 net.cpp:141] Setting up inception_4b/relu_3x3
I0403 14:43:59.382426  1866 net.cpp:148] Top shape: 24 224 14 14 (1053696)
I0403 14:43:59.382441  1866 net.cpp:156] Memory required for data: 964869408
I0403 14:43:59.382457  1866 layer_factory.hpp:77] Creating layer inception_4b/5x5_reduce
I0403 14:43:59.382482  1866 net.cpp:91] Creating Layer inception_4b/5x5_reduce
I0403 14:43:59.382511  1866 net.cpp:425] inception_4b/5x5_reduce <- inception_4a/output_inception_4a/output_0_split_3
I0403 14:43:59.382535  1866 net.cpp:399] inception_4b/5x5_reduce -> inception_4b/5x5_reduce
I0403 14:43:59.383656  1866 net.cpp:141] Setting up inception_4b/5x5_reduce
I0403 14:43:59.383685  1866 net.cpp:148] Top shape: 24 24 14 14 (112896)
I0403 14:43:59.383702  1866 net.cpp:156] Memory required for data: 965320992
I0403 14:43:59.383721  1866 layer_factory.hpp:77] Creating layer inception_4b/relu_5x5_reduce
I0403 14:43:59.383743  1866 net.cpp:91] Creating Layer inception_4b/relu_5x5_reduce
I0403 14:43:59.383774  1866 net.cpp:425] inception_4b/relu_5x5_reduce <- inception_4b/5x5_reduce
I0403 14:43:59.383793  1866 net.cpp:386] inception_4b/relu_5x5_reduce -> inception_4b/5x5_reduce (in-place)
I0403 14:43:59.383983  1866 net.cpp:141] Setting up inception_4b/relu_5x5_reduce
I0403 14:43:59.384012  1866 net.cpp:148] Top shape: 24 24 14 14 (112896)
I0403 14:43:59.384028  1866 net.cpp:156] Memory required for data: 965772576
I0403 14:43:59.384044  1866 layer_factory.hpp:77] Creating layer inception_4b/5x5
I0403 14:43:59.384068  1866 net.cpp:91] Creating Layer inception_4b/5x5
I0403 14:43:59.384086  1866 net.cpp:425] inception_4b/5x5 <- inception_4b/5x5_reduce
I0403 14:43:59.384105  1866 net.cpp:399] inception_4b/5x5 -> inception_4b/5x5
I0403 14:43:59.385376  1866 net.cpp:141] Setting up inception_4b/5x5
I0403 14:43:59.385406  1866 net.cpp:148] Top shape: 24 64 14 14 (301056)
I0403 14:43:59.385421  1866 net.cpp:156] Memory required for data: 966976800
I0403 14:43:59.385440  1866 layer_factory.hpp:77] Creating layer inception_4b/relu_5x5
I0403 14:43:59.385462  1866 net.cpp:91] Creating Layer inception_4b/relu_5x5
I0403 14:43:59.385479  1866 net.cpp:425] inception_4b/relu_5x5 <- inception_4b/5x5
I0403 14:43:59.385498  1866 net.cpp:386] inception_4b/relu_5x5 -> inception_4b/5x5 (in-place)
I0403 14:43:59.385790  1866 net.cpp:141] Setting up inception_4b/relu_5x5
I0403 14:43:59.385818  1866 net.cpp:148] Top shape: 24 64 14 14 (301056)
I0403 14:43:59.385834  1866 net.cpp:156] Memory required for data: 968181024
I0403 14:43:59.385849  1866 layer_factory.hpp:77] Creating layer inception_4b/pool
I0403 14:43:59.385869  1866 net.cpp:91] Creating Layer inception_4b/pool
I0403 14:43:59.385886  1866 net.cpp:425] inception_4b/pool <- inception_4a/output_inception_4a/output_0_split_4
I0403 14:43:59.385910  1866 net.cpp:399] inception_4b/pool -> inception_4b/pool
I0403 14:43:59.385979  1866 net.cpp:141] Setting up inception_4b/pool
I0403 14:43:59.386004  1866 net.cpp:148] Top shape: 24 512 14 14 (2408448)
I0403 14:43:59.386020  1866 net.cpp:156] Memory required for data: 977814816
I0403 14:43:59.386036  1866 layer_factory.hpp:77] Creating layer inception_4b/pool_proj
I0403 14:43:59.386060  1866 net.cpp:91] Creating Layer inception_4b/pool_proj
I0403 14:43:59.386080  1866 net.cpp:425] inception_4b/pool_proj <- inception_4b/pool
I0403 14:43:59.386101  1866 net.cpp:399] inception_4b/pool_proj -> inception_4b/pool_proj
I0403 14:43:59.387342  1866 net.cpp:141] Setting up inception_4b/pool_proj
I0403 14:43:59.387372  1866 net.cpp:148] Top shape: 24 64 14 14 (301056)
I0403 14:43:59.387387  1866 net.cpp:156] Memory required for data: 979019040
I0403 14:43:59.387406  1866 layer_factory.hpp:77] Creating layer inception_4b/relu_pool_proj
I0403 14:43:59.387428  1866 net.cpp:91] Creating Layer inception_4b/relu_pool_proj
I0403 14:43:59.387446  1866 net.cpp:425] inception_4b/relu_pool_proj <- inception_4b/pool_proj
I0403 14:43:59.387465  1866 net.cpp:386] inception_4b/relu_pool_proj -> inception_4b/pool_proj (in-place)
I0403 14:43:59.387650  1866 net.cpp:141] Setting up inception_4b/relu_pool_proj
I0403 14:43:59.387678  1866 net.cpp:148] Top shape: 24 64 14 14 (301056)
I0403 14:43:59.387696  1866 net.cpp:156] Memory required for data: 980223264
I0403 14:43:59.387711  1866 layer_factory.hpp:77] Creating layer inception_4b/output
I0403 14:43:59.387729  1866 net.cpp:91] Creating Layer inception_4b/output
I0403 14:43:59.387745  1866 net.cpp:425] inception_4b/output <- inception_4b/1x1
I0403 14:43:59.387763  1866 net.cpp:425] inception_4b/output <- inception_4b/3x3
I0403 14:43:59.387779  1866 net.cpp:425] inception_4b/output <- inception_4b/5x5
I0403 14:43:59.387796  1866 net.cpp:425] inception_4b/output <- inception_4b/pool_proj
I0403 14:43:59.387814  1866 net.cpp:399] inception_4b/output -> inception_4b/output
I0403 14:43:59.387866  1866 net.cpp:141] Setting up inception_4b/output
I0403 14:43:59.387889  1866 net.cpp:148] Top shape: 24 512 14 14 (2408448)
I0403 14:43:59.387904  1866 net.cpp:156] Memory required for data: 989857056
I0403 14:43:59.387933  1866 layer_factory.hpp:77] Creating layer inception_4b/output_inception_4b/output_0_split
I0403 14:43:59.387954  1866 net.cpp:91] Creating Layer inception_4b/output_inception_4b/output_0_split
I0403 14:43:59.387972  1866 net.cpp:425] inception_4b/output_inception_4b/output_0_split <- inception_4b/output
I0403 14:43:59.387991  1866 net.cpp:399] inception_4b/output_inception_4b/output_0_split -> inception_4b/output_inception_4b/output_0_split_0
I0403 14:43:59.388012  1866 net.cpp:399] inception_4b/output_inception_4b/output_0_split -> inception_4b/output_inception_4b/output_0_split_1
I0403 14:43:59.388034  1866 net.cpp:399] inception_4b/output_inception_4b/output_0_split -> inception_4b/output_inception_4b/output_0_split_2
I0403 14:43:59.388056  1866 net.cpp:399] inception_4b/output_inception_4b/output_0_split -> inception_4b/output_inception_4b/output_0_split_3
I0403 14:43:59.388144  1866 net.cpp:141] Setting up inception_4b/output_inception_4b/output_0_split
I0403 14:43:59.388166  1866 net.cpp:148] Top shape: 24 512 14 14 (2408448)
I0403 14:43:59.388191  1866 net.cpp:148] Top shape: 24 512 14 14 (2408448)
I0403 14:43:59.388211  1866 net.cpp:148] Top shape: 24 512 14 14 (2408448)
I0403 14:43:59.388226  1866 net.cpp:148] Top shape: 24 512 14 14 (2408448)
I0403 14:43:59.388242  1866 net.cpp:156] Memory required for data: 1028392224
I0403 14:43:59.388257  1866 layer_factory.hpp:77] Creating layer inception_4c/1x1
I0403 14:43:59.388279  1866 net.cpp:91] Creating Layer inception_4c/1x1
I0403 14:43:59.388298  1866 net.cpp:425] inception_4c/1x1 <- inception_4b/output_inception_4b/output_0_split_0
I0403 14:43:59.388319  1866 net.cpp:399] inception_4c/1x1 -> inception_4c/1x1
I0403 14:43:59.389798  1866 net.cpp:141] Setting up inception_4c/1x1
I0403 14:43:59.389830  1866 net.cpp:148] Top shape: 24 128 14 14 (602112)
I0403 14:43:59.389847  1866 net.cpp:156] Memory required for data: 1030800672
I0403 14:43:59.389866  1866 layer_factory.hpp:77] Creating layer inception_4c/relu_1x1
I0403 14:43:59.389885  1866 net.cpp:91] Creating Layer inception_4c/relu_1x1
I0403 14:43:59.389904  1866 net.cpp:425] inception_4c/relu_1x1 <- inception_4c/1x1
I0403 14:43:59.389924  1866 net.cpp:386] inception_4c/relu_1x1 -> inception_4c/1x1 (in-place)
I0403 14:43:59.390108  1866 net.cpp:141] Setting up inception_4c/relu_1x1
I0403 14:43:59.390136  1866 net.cpp:148] Top shape: 24 128 14 14 (602112)
I0403 14:43:59.390151  1866 net.cpp:156] Memory required for data: 1033209120
I0403 14:43:59.390166  1866 layer_factory.hpp:77] Creating layer inception_4c/3x3_reduce
I0403 14:43:59.390195  1866 net.cpp:91] Creating Layer inception_4c/3x3_reduce
I0403 14:43:59.390214  1866 net.cpp:425] inception_4c/3x3_reduce <- inception_4b/output_inception_4b/output_0_split_1
I0403 14:43:59.390239  1866 net.cpp:399] inception_4c/3x3_reduce -> inception_4c/3x3_reduce
I0403 14:43:59.392231  1866 net.cpp:141] Setting up inception_4c/3x3_reduce
I0403 14:43:59.392263  1866 net.cpp:148] Top shape: 24 128 14 14 (602112)
I0403 14:43:59.392279  1866 net.cpp:156] Memory required for data: 1035617568
I0403 14:43:59.392299  1866 layer_factory.hpp:77] Creating layer inception_4c/relu_3x3_reduce
I0403 14:43:59.392320  1866 net.cpp:91] Creating Layer inception_4c/relu_3x3_reduce
I0403 14:43:59.392338  1866 net.cpp:425] inception_4c/relu_3x3_reduce <- inception_4c/3x3_reduce
I0403 14:43:59.392355  1866 net.cpp:386] inception_4c/relu_3x3_reduce -> inception_4c/3x3_reduce (in-place)
I0403 14:43:59.392648  1866 net.cpp:141] Setting up inception_4c/relu_3x3_reduce
I0403 14:43:59.392675  1866 net.cpp:148] Top shape: 24 128 14 14 (602112)
I0403 14:43:59.392693  1866 net.cpp:156] Memory required for data: 1038026016
I0403 14:43:59.392707  1866 layer_factory.hpp:77] Creating layer inception_4c/3x3
I0403 14:43:59.392731  1866 net.cpp:91] Creating Layer inception_4c/3x3
I0403 14:43:59.392750  1866 net.cpp:425] inception_4c/3x3 <- inception_4c/3x3_reduce
I0403 14:43:59.392771  1866 net.cpp:399] inception_4c/3x3 -> inception_4c/3x3
I0403 14:43:59.396481  1866 net.cpp:141] Setting up inception_4c/3x3
I0403 14:43:59.396523  1866 net.cpp:148] Top shape: 24 256 14 14 (1204224)
I0403 14:43:59.396541  1866 net.cpp:156] Memory required for data: 1042842912
I0403 14:43:59.396576  1866 layer_factory.hpp:77] Creating layer inception_4c/relu_3x3
I0403 14:43:59.396600  1866 net.cpp:91] Creating Layer inception_4c/relu_3x3
I0403 14:43:59.396617  1866 net.cpp:425] inception_4c/relu_3x3 <- inception_4c/3x3
I0403 14:43:59.396636  1866 net.cpp:386] inception_4c/relu_3x3 -> inception_4c/3x3 (in-place)
I0403 14:43:59.396819  1866 net.cpp:141] Setting up inception_4c/relu_3x3
I0403 14:43:59.396847  1866 net.cpp:148] Top shape: 24 256 14 14 (1204224)
I0403 14:43:59.396862  1866 net.cpp:156] Memory required for data: 1047659808
I0403 14:43:59.396878  1866 layer_factory.hpp:77] Creating layer inception_4c/5x5_reduce
I0403 14:43:59.396900  1866 net.cpp:91] Creating Layer inception_4c/5x5_reduce
I0403 14:43:59.396919  1866 net.cpp:425] inception_4c/5x5_reduce <- inception_4b/output_inception_4b/output_0_split_2
I0403 14:43:59.396942  1866 net.cpp:399] inception_4c/5x5_reduce -> inception_4c/5x5_reduce
I0403 14:43:59.398066  1866 net.cpp:141] Setting up inception_4c/5x5_reduce
I0403 14:43:59.398095  1866 net.cpp:148] Top shape: 24 24 14 14 (112896)
I0403 14:43:59.398111  1866 net.cpp:156] Memory required for data: 1048111392
I0403 14:43:59.398131  1866 layer_factory.hpp:77] Creating layer inception_4c/relu_5x5_reduce
I0403 14:43:59.398152  1866 net.cpp:91] Creating Layer inception_4c/relu_5x5_reduce
I0403 14:43:59.398170  1866 net.cpp:425] inception_4c/relu_5x5_reduce <- inception_4c/5x5_reduce
I0403 14:43:59.398196  1866 net.cpp:386] inception_4c/relu_5x5_reduce -> inception_4c/5x5_reduce (in-place)
I0403 14:43:59.398386  1866 net.cpp:141] Setting up inception_4c/relu_5x5_reduce
I0403 14:43:59.398413  1866 net.cpp:148] Top shape: 24 24 14 14 (112896)
I0403 14:43:59.398430  1866 net.cpp:156] Memory required for data: 1048562976
I0403 14:43:59.398447  1866 layer_factory.hpp:77] Creating layer inception_4c/5x5
I0403 14:43:59.398471  1866 net.cpp:91] Creating Layer inception_4c/5x5
I0403 14:43:59.398489  1866 net.cpp:425] inception_4c/5x5 <- inception_4c/5x5_reduce
I0403 14:43:59.398509  1866 net.cpp:399] inception_4c/5x5 -> inception_4c/5x5
I0403 14:43:59.399775  1866 net.cpp:141] Setting up inception_4c/5x5
I0403 14:43:59.399806  1866 net.cpp:148] Top shape: 24 64 14 14 (301056)
I0403 14:43:59.399823  1866 net.cpp:156] Memory required for data: 1049767200
I0403 14:43:59.399843  1866 layer_factory.hpp:77] Creating layer inception_4c/relu_5x5
I0403 14:43:59.399862  1866 net.cpp:91] Creating Layer inception_4c/relu_5x5
I0403 14:43:59.399879  1866 net.cpp:425] inception_4c/relu_5x5 <- inception_4c/5x5
I0403 14:43:59.399899  1866 net.cpp:386] inception_4c/relu_5x5 -> inception_4c/5x5 (in-place)
I0403 14:43:59.400216  1866 net.cpp:141] Setting up inception_4c/relu_5x5
I0403 14:43:59.400246  1866 net.cpp:148] Top shape: 24 64 14 14 (301056)
I0403 14:43:59.400262  1866 net.cpp:156] Memory required for data: 1050971424
I0403 14:43:59.400279  1866 layer_factory.hpp:77] Creating layer inception_4c/pool
I0403 14:43:59.400297  1866 net.cpp:91] Creating Layer inception_4c/pool
I0403 14:43:59.400315  1866 net.cpp:425] inception_4c/pool <- inception_4b/output_inception_4b/output_0_split_3
I0403 14:43:59.400334  1866 net.cpp:399] inception_4c/pool -> inception_4c/pool
I0403 14:43:59.400403  1866 net.cpp:141] Setting up inception_4c/pool
I0403 14:43:59.400426  1866 net.cpp:148] Top shape: 24 512 14 14 (2408448)
I0403 14:43:59.400442  1866 net.cpp:156] Memory required for data: 1060605216
I0403 14:43:59.400457  1866 layer_factory.hpp:77] Creating layer inception_4c/pool_proj
I0403 14:43:59.400480  1866 net.cpp:91] Creating Layer inception_4c/pool_proj
I0403 14:43:59.400498  1866 net.cpp:425] inception_4c/pool_proj <- inception_4c/pool
I0403 14:43:59.400521  1866 net.cpp:399] inception_4c/pool_proj -> inception_4c/pool_proj
I0403 14:43:59.401844  1866 net.cpp:141] Setting up inception_4c/pool_proj
I0403 14:43:59.401875  1866 net.cpp:148] Top shape: 24 64 14 14 (301056)
I0403 14:43:59.401903  1866 net.cpp:156] Memory required for data: 1061809440
I0403 14:43:59.401923  1866 layer_factory.hpp:77] Creating layer inception_4c/relu_pool_proj
I0403 14:43:59.401944  1866 net.cpp:91] Creating Layer inception_4c/relu_pool_proj
I0403 14:43:59.401962  1866 net.cpp:425] inception_4c/relu_pool_proj <- inception_4c/pool_proj
I0403 14:43:59.401979  1866 net.cpp:386] inception_4c/relu_pool_proj -> inception_4c/pool_proj (in-place)
I0403 14:43:59.402159  1866 net.cpp:141] Setting up inception_4c/relu_pool_proj
I0403 14:43:59.402199  1866 net.cpp:148] Top shape: 24 64 14 14 (301056)
I0403 14:43:59.402216  1866 net.cpp:156] Memory required for data: 1063013664
I0403 14:43:59.402232  1866 layer_factory.hpp:77] Creating layer inception_4c/output
I0403 14:43:59.402250  1866 net.cpp:91] Creating Layer inception_4c/output
I0403 14:43:59.402266  1866 net.cpp:425] inception_4c/output <- inception_4c/1x1
I0403 14:43:59.402283  1866 net.cpp:425] inception_4c/output <- inception_4c/3x3
I0403 14:43:59.402300  1866 net.cpp:425] inception_4c/output <- inception_4c/5x5
I0403 14:43:59.402317  1866 net.cpp:425] inception_4c/output <- inception_4c/pool_proj
I0403 14:43:59.402333  1866 net.cpp:399] inception_4c/output -> inception_4c/output
I0403 14:43:59.402381  1866 net.cpp:141] Setting up inception_4c/output
I0403 14:43:59.402405  1866 net.cpp:148] Top shape: 24 512 14 14 (2408448)
I0403 14:43:59.402420  1866 net.cpp:156] Memory required for data: 1072647456
I0403 14:43:59.402436  1866 layer_factory.hpp:77] Creating layer inception_4c/output_inception_4c/output_0_split
I0403 14:43:59.402454  1866 net.cpp:91] Creating Layer inception_4c/output_inception_4c/output_0_split
I0403 14:43:59.402470  1866 net.cpp:425] inception_4c/output_inception_4c/output_0_split <- inception_4c/output
I0403 14:43:59.402488  1866 net.cpp:399] inception_4c/output_inception_4c/output_0_split -> inception_4c/output_inception_4c/output_0_split_0
I0403 14:43:59.402508  1866 net.cpp:399] inception_4c/output_inception_4c/output_0_split -> inception_4c/output_inception_4c/output_0_split_1
I0403 14:43:59.402530  1866 net.cpp:399] inception_4c/output_inception_4c/output_0_split -> inception_4c/output_inception_4c/output_0_split_2
I0403 14:43:59.402551  1866 net.cpp:399] inception_4c/output_inception_4c/output_0_split -> inception_4c/output_inception_4c/output_0_split_3
I0403 14:43:59.402637  1866 net.cpp:141] Setting up inception_4c/output_inception_4c/output_0_split
I0403 14:43:59.402662  1866 net.cpp:148] Top shape: 24 512 14 14 (2408448)
I0403 14:43:59.402678  1866 net.cpp:148] Top shape: 24 512 14 14 (2408448)
I0403 14:43:59.402693  1866 net.cpp:148] Top shape: 24 512 14 14 (2408448)
I0403 14:43:59.402709  1866 net.cpp:148] Top shape: 24 512 14 14 (2408448)
I0403 14:43:59.402724  1866 net.cpp:156] Memory required for data: 1111182624
I0403 14:43:59.402737  1866 layer_factory.hpp:77] Creating layer inception_4d/1x1
I0403 14:43:59.402760  1866 net.cpp:91] Creating Layer inception_4d/1x1
I0403 14:43:59.402776  1866 net.cpp:425] inception_4d/1x1 <- inception_4c/output_inception_4c/output_0_split_0
I0403 14:43:59.402801  1866 net.cpp:399] inception_4d/1x1 -> inception_4d/1x1
I0403 14:43:59.404201  1866 net.cpp:141] Setting up inception_4d/1x1
I0403 14:43:59.404229  1866 net.cpp:148] Top shape: 24 112 14 14 (526848)
I0403 14:43:59.404245  1866 net.cpp:156] Memory required for data: 1113290016
I0403 14:43:59.404264  1866 layer_factory.hpp:77] Creating layer inception_4d/relu_1x1
I0403 14:43:59.404283  1866 net.cpp:91] Creating Layer inception_4d/relu_1x1
I0403 14:43:59.404299  1866 net.cpp:425] inception_4d/relu_1x1 <- inception_4d/1x1
I0403 14:43:59.404320  1866 net.cpp:386] inception_4d/relu_1x1 -> inception_4d/1x1 (in-place)
I0403 14:43:59.404505  1866 net.cpp:141] Setting up inception_4d/relu_1x1
I0403 14:43:59.404530  1866 net.cpp:148] Top shape: 24 112 14 14 (526848)
I0403 14:43:59.404544  1866 net.cpp:156] Memory required for data: 1115397408
I0403 14:43:59.404561  1866 layer_factory.hpp:77] Creating layer inception_4d/3x3_reduce
I0403 14:43:59.404597  1866 net.cpp:91] Creating Layer inception_4d/3x3_reduce
I0403 14:43:59.404615  1866 net.cpp:425] inception_4d/3x3_reduce <- inception_4c/output_inception_4c/output_0_split_1
I0403 14:43:59.404636  1866 net.cpp:399] inception_4d/3x3_reduce -> inception_4d/3x3_reduce
I0403 14:43:59.406141  1866 net.cpp:141] Setting up inception_4d/3x3_reduce
I0403 14:43:59.406172  1866 net.cpp:148] Top shape: 24 144 14 14 (677376)
I0403 14:43:59.406194  1866 net.cpp:156] Memory required for data: 1118106912
I0403 14:43:59.406214  1866 layer_factory.hpp:77] Creating layer inception_4d/relu_3x3_reduce
I0403 14:43:59.406232  1866 net.cpp:91] Creating Layer inception_4d/relu_3x3_reduce
I0403 14:43:59.406249  1866 net.cpp:425] inception_4d/relu_3x3_reduce <- inception_4d/3x3_reduce
I0403 14:43:59.406270  1866 net.cpp:386] inception_4d/relu_3x3_reduce -> inception_4d/3x3_reduce (in-place)
I0403 14:43:59.406556  1866 net.cpp:141] Setting up inception_4d/relu_3x3_reduce
I0403 14:43:59.406584  1866 net.cpp:148] Top shape: 24 144 14 14 (677376)
I0403 14:43:59.406601  1866 net.cpp:156] Memory required for data: 1120816416
I0403 14:43:59.406616  1866 layer_factory.hpp:77] Creating layer inception_4d/3x3
I0403 14:43:59.406640  1866 net.cpp:91] Creating Layer inception_4d/3x3
I0403 14:43:59.406656  1866 net.cpp:425] inception_4d/3x3 <- inception_4d/3x3_reduce
I0403 14:43:59.406675  1866 net.cpp:399] inception_4d/3x3 -> inception_4d/3x3
I0403 14:43:59.410917  1866 net.cpp:141] Setting up inception_4d/3x3
I0403 14:43:59.410945  1866 net.cpp:148] Top shape: 24 288 14 14 (1354752)
I0403 14:43:59.410961  1866 net.cpp:156] Memory required for data: 1126235424
I0403 14:43:59.410979  1866 layer_factory.hpp:77] Creating layer inception_4d/relu_3x3
I0403 14:43:59.411000  1866 net.cpp:91] Creating Layer inception_4d/relu_3x3
I0403 14:43:59.411018  1866 net.cpp:425] inception_4d/relu_3x3 <- inception_4d/3x3
I0403 14:43:59.411036  1866 net.cpp:386] inception_4d/relu_3x3 -> inception_4d/3x3 (in-place)
I0403 14:43:59.411226  1866 net.cpp:141] Setting up inception_4d/relu_3x3
I0403 14:43:59.411252  1866 net.cpp:148] Top shape: 24 288 14 14 (1354752)
I0403 14:43:59.411267  1866 net.cpp:156] Memory required for data: 1131654432
I0403 14:43:59.411281  1866 layer_factory.hpp:77] Creating layer inception_4d/5x5_reduce
I0403 14:43:59.411304  1866 net.cpp:91] Creating Layer inception_4d/5x5_reduce
I0403 14:43:59.411322  1866 net.cpp:425] inception_4d/5x5_reduce <- inception_4c/output_inception_4c/output_0_split_2
I0403 14:43:59.411345  1866 net.cpp:399] inception_4d/5x5_reduce -> inception_4d/5x5_reduce
I0403 14:43:59.412497  1866 net.cpp:141] Setting up inception_4d/5x5_reduce
I0403 14:43:59.412524  1866 net.cpp:148] Top shape: 24 32 14 14 (150528)
I0403 14:43:59.412540  1866 net.cpp:156] Memory required for data: 1132256544
I0403 14:43:59.412559  1866 layer_factory.hpp:77] Creating layer inception_4d/relu_5x5_reduce
I0403 14:43:59.412578  1866 net.cpp:91] Creating Layer inception_4d/relu_5x5_reduce
I0403 14:43:59.412595  1866 net.cpp:425] inception_4d/relu_5x5_reduce <- inception_4d/5x5_reduce
I0403 14:43:59.412616  1866 net.cpp:386] inception_4d/relu_5x5_reduce -> inception_4d/5x5_reduce (in-place)
I0403 14:43:59.412801  1866 net.cpp:141] Setting up inception_4d/relu_5x5_reduce
I0403 14:43:59.412827  1866 net.cpp:148] Top shape: 24 32 14 14 (150528)
I0403 14:43:59.412842  1866 net.cpp:156] Memory required for data: 1132858656
I0403 14:43:59.412856  1866 layer_factory.hpp:77] Creating layer inception_4d/5x5
I0403 14:43:59.412879  1866 net.cpp:91] Creating Layer inception_4d/5x5
I0403 14:43:59.412897  1866 net.cpp:425] inception_4d/5x5 <- inception_4d/5x5_reduce
I0403 14:43:59.412919  1866 net.cpp:399] inception_4d/5x5 -> inception_4d/5x5
I0403 14:43:59.414402  1866 net.cpp:141] Setting up inception_4d/5x5
I0403 14:43:59.414430  1866 net.cpp:148] Top shape: 24 64 14 14 (301056)
I0403 14:43:59.414449  1866 net.cpp:156] Memory required for data: 1134062880
I0403 14:43:59.414469  1866 layer_factory.hpp:77] Creating layer inception_4d/relu_5x5
I0403 14:43:59.414502  1866 net.cpp:91] Creating Layer inception_4d/relu_5x5
I0403 14:43:59.414520  1866 net.cpp:425] inception_4d/relu_5x5 <- inception_4d/5x5
I0403 14:43:59.414538  1866 net.cpp:386] inception_4d/relu_5x5 -> inception_4d/5x5 (in-place)
I0403 14:43:59.414839  1866 net.cpp:141] Setting up inception_4d/relu_5x5
I0403 14:43:59.414865  1866 net.cpp:148] Top shape: 24 64 14 14 (301056)
I0403 14:43:59.414886  1866 net.cpp:156] Memory required for data: 1135267104
I0403 14:43:59.414901  1866 layer_factory.hpp:77] Creating layer inception_4d/pool
I0403 14:43:59.414919  1866 net.cpp:91] Creating Layer inception_4d/pool
I0403 14:43:59.414937  1866 net.cpp:425] inception_4d/pool <- inception_4c/output_inception_4c/output_0_split_3
I0403 14:43:59.414958  1866 net.cpp:399] inception_4d/pool -> inception_4d/pool
I0403 14:43:59.415025  1866 net.cpp:141] Setting up inception_4d/pool
I0403 14:43:59.415050  1866 net.cpp:148] Top shape: 24 512 14 14 (2408448)
I0403 14:43:59.415065  1866 net.cpp:156] Memory required for data: 1144900896
I0403 14:43:59.415079  1866 layer_factory.hpp:77] Creating layer inception_4d/pool_proj
I0403 14:43:59.415102  1866 net.cpp:91] Creating Layer inception_4d/pool_proj
I0403 14:43:59.415118  1866 net.cpp:425] inception_4d/pool_proj <- inception_4d/pool
I0403 14:43:59.415140  1866 net.cpp:399] inception_4d/pool_proj -> inception_4d/pool_proj
I0403 14:43:59.416909  1866 net.cpp:141] Setting up inception_4d/pool_proj
I0403 14:43:59.416939  1866 net.cpp:148] Top shape: 24 64 14 14 (301056)
I0403 14:43:59.416954  1866 net.cpp:156] Memory required for data: 1146105120
I0403 14:43:59.416972  1866 layer_factory.hpp:77] Creating layer inception_4d/relu_pool_proj
I0403 14:43:59.416992  1866 net.cpp:91] Creating Layer inception_4d/relu_pool_proj
I0403 14:43:59.417011  1866 net.cpp:425] inception_4d/relu_pool_proj <- inception_4d/pool_proj
I0403 14:43:59.417028  1866 net.cpp:386] inception_4d/relu_pool_proj -> inception_4d/pool_proj (in-place)
I0403 14:43:59.417220  1866 net.cpp:141] Setting up inception_4d/relu_pool_proj
I0403 14:43:59.417246  1866 net.cpp:148] Top shape: 24 64 14 14 (301056)
I0403 14:43:59.417261  1866 net.cpp:156] Memory required for data: 1147309344
I0403 14:43:59.417276  1866 layer_factory.hpp:77] Creating layer inception_4d/output
I0403 14:43:59.417296  1866 net.cpp:91] Creating Layer inception_4d/output
I0403 14:43:59.417314  1866 net.cpp:425] inception_4d/output <- inception_4d/1x1
I0403 14:43:59.417330  1866 net.cpp:425] inception_4d/output <- inception_4d/3x3
I0403 14:43:59.417346  1866 net.cpp:425] inception_4d/output <- inception_4d/5x5
I0403 14:43:59.417362  1866 net.cpp:425] inception_4d/output <- inception_4d/pool_proj
I0403 14:43:59.417381  1866 net.cpp:399] inception_4d/output -> inception_4d/output
I0403 14:43:59.417429  1866 net.cpp:141] Setting up inception_4d/output
I0403 14:43:59.417454  1866 net.cpp:148] Top shape: 24 528 14 14 (2483712)
I0403 14:43:59.417469  1866 net.cpp:156] Memory required for data: 1157244192
I0403 14:43:59.417484  1866 layer_factory.hpp:77] Creating layer inception_4d/output_inception_4d/output_0_split
I0403 14:43:59.417501  1866 net.cpp:91] Creating Layer inception_4d/output_inception_4d/output_0_split
I0403 14:43:59.417517  1866 net.cpp:425] inception_4d/output_inception_4d/output_0_split <- inception_4d/output
I0403 14:43:59.417537  1866 net.cpp:399] inception_4d/output_inception_4d/output_0_split -> inception_4d/output_inception_4d/output_0_split_0
I0403 14:43:59.417559  1866 net.cpp:399] inception_4d/output_inception_4d/output_0_split -> inception_4d/output_inception_4d/output_0_split_1
I0403 14:43:59.417582  1866 net.cpp:399] inception_4d/output_inception_4d/output_0_split -> inception_4d/output_inception_4d/output_0_split_2
I0403 14:43:59.417603  1866 net.cpp:399] inception_4d/output_inception_4d/output_0_split -> inception_4d/output_inception_4d/output_0_split_3
I0403 14:43:59.417625  1866 net.cpp:399] inception_4d/output_inception_4d/output_0_split -> inception_4d/output_inception_4d/output_0_split_4
I0403 14:43:59.417732  1866 net.cpp:141] Setting up inception_4d/output_inception_4d/output_0_split
I0403 14:43:59.417768  1866 net.cpp:148] Top shape: 24 528 14 14 (2483712)
I0403 14:43:59.417786  1866 net.cpp:148] Top shape: 24 528 14 14 (2483712)
I0403 14:43:59.417803  1866 net.cpp:148] Top shape: 24 528 14 14 (2483712)
I0403 14:43:59.417819  1866 net.cpp:148] Top shape: 24 528 14 14 (2483712)
I0403 14:43:59.417834  1866 net.cpp:148] Top shape: 24 528 14 14 (2483712)
I0403 14:43:59.417848  1866 net.cpp:156] Memory required for data: 1206918432
I0403 14:43:59.417863  1866 layer_factory.hpp:77] Creating layer loss2/ave_pool
I0403 14:43:59.417881  1866 net.cpp:91] Creating Layer loss2/ave_pool
I0403 14:43:59.417897  1866 net.cpp:425] loss2/ave_pool <- inception_4d/output_inception_4d/output_0_split_0
I0403 14:43:59.417918  1866 net.cpp:399] loss2/ave_pool -> loss2/ave_pool
I0403 14:43:59.418270  1866 net.cpp:141] Setting up loss2/ave_pool
I0403 14:43:59.418299  1866 net.cpp:148] Top shape: 24 528 4 4 (202752)
I0403 14:43:59.418315  1866 net.cpp:156] Memory required for data: 1207729440
I0403 14:43:59.418331  1866 layer_factory.hpp:77] Creating layer loss2/conv
I0403 14:43:59.418355  1866 net.cpp:91] Creating Layer loss2/conv
I0403 14:43:59.418375  1866 net.cpp:425] loss2/conv <- loss2/ave_pool
I0403 14:43:59.418397  1866 net.cpp:399] loss2/conv -> loss2/conv
I0403 14:43:59.420370  1866 net.cpp:141] Setting up loss2/conv
I0403 14:43:59.420400  1866 net.cpp:148] Top shape: 24 128 4 4 (49152)
I0403 14:43:59.420416  1866 net.cpp:156] Memory required for data: 1207926048
I0403 14:43:59.420436  1866 layer_factory.hpp:77] Creating layer loss2/relu_conv
I0403 14:43:59.420457  1866 net.cpp:91] Creating Layer loss2/relu_conv
I0403 14:43:59.420475  1866 net.cpp:425] loss2/relu_conv <- loss2/conv
I0403 14:43:59.420493  1866 net.cpp:386] loss2/relu_conv -> loss2/conv (in-place)
I0403 14:43:59.420788  1866 net.cpp:141] Setting up loss2/relu_conv
I0403 14:43:59.420814  1866 net.cpp:148] Top shape: 24 128 4 4 (49152)
I0403 14:43:59.420830  1866 net.cpp:156] Memory required for data: 1208122656
I0403 14:43:59.420846  1866 layer_factory.hpp:77] Creating layer loss2/fc
I0403 14:43:59.420868  1866 net.cpp:91] Creating Layer loss2/fc
I0403 14:43:59.420886  1866 net.cpp:425] loss2/fc <- loss2/conv
I0403 14:43:59.420909  1866 net.cpp:399] loss2/fc -> loss2/fc
I0403 14:43:59.439229  1866 net.cpp:141] Setting up loss2/fc
I0403 14:43:59.439292  1866 net.cpp:148] Top shape: 24 1024 (24576)
I0403 14:43:59.439308  1866 net.cpp:156] Memory required for data: 1208220960
I0403 14:43:59.439328  1866 layer_factory.hpp:77] Creating layer loss2/relu_fc
I0403 14:43:59.439349  1866 net.cpp:91] Creating Layer loss2/relu_fc
I0403 14:43:59.439368  1866 net.cpp:425] loss2/relu_fc <- loss2/fc
I0403 14:43:59.439389  1866 net.cpp:386] loss2/relu_fc -> loss2/fc (in-place)
I0403 14:43:59.439734  1866 net.cpp:141] Setting up loss2/relu_fc
I0403 14:43:59.439760  1866 net.cpp:148] Top shape: 24 1024 (24576)
I0403 14:43:59.439776  1866 net.cpp:156] Memory required for data: 1208319264
I0403 14:43:59.439792  1866 layer_factory.hpp:77] Creating layer loss2/drop_fc
I0403 14:43:59.439810  1866 net.cpp:91] Creating Layer loss2/drop_fc
I0403 14:43:59.439828  1866 net.cpp:425] loss2/drop_fc <- loss2/fc
I0403 14:43:59.439848  1866 net.cpp:386] loss2/drop_fc -> loss2/fc (in-place)
I0403 14:43:59.439901  1866 net.cpp:141] Setting up loss2/drop_fc
I0403 14:43:59.439924  1866 net.cpp:148] Top shape: 24 1024 (24576)
I0403 14:43:59.439939  1866 net.cpp:156] Memory required for data: 1208417568
I0403 14:43:59.439954  1866 layer_factory.hpp:77] Creating layer loss2/classifier_plantvillage
I0403 14:43:59.439973  1866 net.cpp:91] Creating Layer loss2/classifier_plantvillage
I0403 14:43:59.439990  1866 net.cpp:425] loss2/classifier_plantvillage <- loss2/fc
I0403 14:43:59.440012  1866 net.cpp:399] loss2/classifier_plantvillage -> loss2/classifier_plantvillage
I0403 14:43:59.440433  1866 net.cpp:141] Setting up loss2/classifier_plantvillage
I0403 14:43:59.440459  1866 net.cpp:148] Top shape: 24 38 (912)
I0403 14:43:59.440493  1866 net.cpp:156] Memory required for data: 1208421216
I0403 14:43:59.440513  1866 layer_factory.hpp:77] Creating layer loss2/classifier_plantvillage_loss2/classifier_plantvillage_0_split
I0403 14:43:59.440534  1866 net.cpp:91] Creating Layer loss2/classifier_plantvillage_loss2/classifier_plantvillage_0_split
I0403 14:43:59.440558  1866 net.cpp:425] loss2/classifier_plantvillage_loss2/classifier_plantvillage_0_split <- loss2/classifier_plantvillage
I0403 14:43:59.440577  1866 net.cpp:399] loss2/classifier_plantvillage_loss2/classifier_plantvillage_0_split -> loss2/classifier_plantvillage_loss2/classifier_plantvillage_0_split_0
I0403 14:43:59.440599  1866 net.cpp:399] loss2/classifier_plantvillage_loss2/classifier_plantvillage_0_split -> loss2/classifier_plantvillage_loss2/classifier_plantvillage_0_split_1
I0403 14:43:59.440621  1866 net.cpp:399] loss2/classifier_plantvillage_loss2/classifier_plantvillage_0_split -> loss2/classifier_plantvillage_loss2/classifier_plantvillage_0_split_2
I0403 14:43:59.440699  1866 net.cpp:141] Setting up loss2/classifier_plantvillage_loss2/classifier_plantvillage_0_split
I0403 14:43:59.440723  1866 net.cpp:148] Top shape: 24 38 (912)
I0403 14:43:59.440739  1866 net.cpp:148] Top shape: 24 38 (912)
I0403 14:43:59.440757  1866 net.cpp:148] Top shape: 24 38 (912)
I0403 14:43:59.440769  1866 net.cpp:156] Memory required for data: 1208432160
I0403 14:43:59.440784  1866 layer_factory.hpp:77] Creating layer inception_4e/1x1
I0403 14:43:59.440807  1866 net.cpp:91] Creating Layer inception_4e/1x1
I0403 14:43:59.440825  1866 net.cpp:425] inception_4e/1x1 <- inception_4d/output_inception_4d/output_0_split_1
I0403 14:43:59.440845  1866 net.cpp:399] inception_4e/1x1 -> inception_4e/1x1
I0403 14:43:59.442721  1866 net.cpp:141] Setting up inception_4e/1x1
I0403 14:43:59.442752  1866 net.cpp:148] Top shape: 24 256 14 14 (1204224)
I0403 14:43:59.442770  1866 net.cpp:156] Memory required for data: 1213249056
I0403 14:43:59.442787  1866 layer_factory.hpp:77] Creating layer inception_4e/relu_1x1
I0403 14:43:59.442806  1866 net.cpp:91] Creating Layer inception_4e/relu_1x1
I0403 14:43:59.442823  1866 net.cpp:425] inception_4e/relu_1x1 <- inception_4e/1x1
I0403 14:43:59.442842  1866 net.cpp:386] inception_4e/relu_1x1 -> inception_4e/1x1 (in-place)
I0403 14:43:59.443138  1866 net.cpp:141] Setting up inception_4e/relu_1x1
I0403 14:43:59.443167  1866 net.cpp:148] Top shape: 24 256 14 14 (1204224)
I0403 14:43:59.443189  1866 net.cpp:156] Memory required for data: 1218065952
I0403 14:43:59.443207  1866 layer_factory.hpp:77] Creating layer inception_4e/3x3_reduce
I0403 14:43:59.443228  1866 net.cpp:91] Creating Layer inception_4e/3x3_reduce
I0403 14:43:59.443246  1866 net.cpp:425] inception_4e/3x3_reduce <- inception_4d/output_inception_4d/output_0_split_2
I0403 14:43:59.443265  1866 net.cpp:399] inception_4e/3x3_reduce -> inception_4e/3x3_reduce
I0403 14:43:59.445405  1866 net.cpp:141] Setting up inception_4e/3x3_reduce
I0403 14:43:59.445433  1866 net.cpp:148] Top shape: 24 160 14 14 (752640)
I0403 14:43:59.445448  1866 net.cpp:156] Memory required for data: 1221076512
I0403 14:43:59.445467  1866 layer_factory.hpp:77] Creating layer inception_4e/relu_3x3_reduce
I0403 14:43:59.445488  1866 net.cpp:91] Creating Layer inception_4e/relu_3x3_reduce
I0403 14:43:59.445504  1866 net.cpp:425] inception_4e/relu_3x3_reduce <- inception_4e/3x3_reduce
I0403 14:43:59.445523  1866 net.cpp:386] inception_4e/relu_3x3_reduce -> inception_4e/3x3_reduce (in-place)
I0403 14:43:59.445708  1866 net.cpp:141] Setting up inception_4e/relu_3x3_reduce
I0403 14:43:59.445736  1866 net.cpp:148] Top shape: 24 160 14 14 (752640)
I0403 14:43:59.445752  1866 net.cpp:156] Memory required for data: 1224087072
I0403 14:43:59.445767  1866 layer_factory.hpp:77] Creating layer inception_4e/3x3
I0403 14:43:59.445790  1866 net.cpp:91] Creating Layer inception_4e/3x3
I0403 14:43:59.445807  1866 net.cpp:425] inception_4e/3x3 <- inception_4e/3x3_reduce
I0403 14:43:59.445827  1866 net.cpp:399] inception_4e/3x3 -> inception_4e/3x3
I0403 14:43:59.450846  1866 net.cpp:141] Setting up inception_4e/3x3
I0403 14:43:59.450889  1866 net.cpp:148] Top shape: 24 320 14 14 (1505280)
I0403 14:43:59.450906  1866 net.cpp:156] Memory required for data: 1230108192
I0403 14:43:59.450924  1866 layer_factory.hpp:77] Creating layer inception_4e/relu_3x3
I0403 14:43:59.450942  1866 net.cpp:91] Creating Layer inception_4e/relu_3x3
I0403 14:43:59.450958  1866 net.cpp:425] inception_4e/relu_3x3 <- inception_4e/3x3
I0403 14:43:59.450978  1866 net.cpp:386] inception_4e/relu_3x3 -> inception_4e/3x3 (in-place)
I0403 14:43:59.451275  1866 net.cpp:141] Setting up inception_4e/relu_3x3
I0403 14:43:59.451302  1866 net.cpp:148] Top shape: 24 320 14 14 (1505280)
I0403 14:43:59.451316  1866 net.cpp:156] Memory required for data: 1236129312
I0403 14:43:59.451331  1866 layer_factory.hpp:77] Creating layer inception_4e/5x5_reduce
I0403 14:43:59.451355  1866 net.cpp:91] Creating Layer inception_4e/5x5_reduce
I0403 14:43:59.451372  1866 net.cpp:425] inception_4e/5x5_reduce <- inception_4d/output_inception_4d/output_0_split_3
I0403 14:43:59.451393  1866 net.cpp:399] inception_4e/5x5_reduce -> inception_4e/5x5_reduce
I0403 14:43:59.452478  1866 net.cpp:141] Setting up inception_4e/5x5_reduce
I0403 14:43:59.452505  1866 net.cpp:148] Top shape: 24 32 14 14 (150528)
I0403 14:43:59.452520  1866 net.cpp:156] Memory required for data: 1236731424
I0403 14:43:59.452538  1866 layer_factory.hpp:77] Creating layer inception_4e/relu_5x5_reduce
I0403 14:43:59.452561  1866 net.cpp:91] Creating Layer inception_4e/relu_5x5_reduce
I0403 14:43:59.452579  1866 net.cpp:425] inception_4e/relu_5x5_reduce <- inception_4e/5x5_reduce
I0403 14:43:59.452596  1866 net.cpp:386] inception_4e/relu_5x5_reduce -> inception_4e/5x5_reduce (in-place)
I0403 14:43:59.452886  1866 net.cpp:141] Setting up inception_4e/relu_5x5_reduce
I0403 14:43:59.452913  1866 net.cpp:148] Top shape: 24 32 14 14 (150528)
I0403 14:43:59.452927  1866 net.cpp:156] Memory required for data: 1237333536
I0403 14:43:59.452942  1866 layer_factory.hpp:77] Creating layer inception_4e/5x5
I0403 14:43:59.452981  1866 net.cpp:91] Creating Layer inception_4e/5x5
I0403 14:43:59.452999  1866 net.cpp:425] inception_4e/5x5 <- inception_4e/5x5_reduce
I0403 14:43:59.453021  1866 net.cpp:399] inception_4e/5x5 -> inception_4e/5x5
I0403 14:43:59.454893  1866 net.cpp:141] Setting up inception_4e/5x5
I0403 14:43:59.454921  1866 net.cpp:148] Top shape: 24 128 14 14 (602112)
I0403 14:43:59.454937  1866 net.cpp:156] Memory required for data: 1239741984
I0403 14:43:59.454957  1866 layer_factory.hpp:77] Creating layer inception_4e/relu_5x5
I0403 14:43:59.454990  1866 net.cpp:91] Creating Layer inception_4e/relu_5x5
I0403 14:43:59.455008  1866 net.cpp:425] inception_4e/relu_5x5 <- inception_4e/5x5
I0403 14:43:59.455027  1866 net.cpp:386] inception_4e/relu_5x5 -> inception_4e/5x5 (in-place)
I0403 14:43:59.455232  1866 net.cpp:141] Setting up inception_4e/relu_5x5
I0403 14:43:59.455258  1866 net.cpp:148] Top shape: 24 128 14 14 (602112)
I0403 14:43:59.455273  1866 net.cpp:156] Memory required for data: 1242150432
I0403 14:43:59.455288  1866 layer_factory.hpp:77] Creating layer inception_4e/pool
I0403 14:43:59.455320  1866 net.cpp:91] Creating Layer inception_4e/pool
I0403 14:43:59.455338  1866 net.cpp:425] inception_4e/pool <- inception_4d/output_inception_4d/output_0_split_4
I0403 14:43:59.455356  1866 net.cpp:399] inception_4e/pool -> inception_4e/pool
I0403 14:43:59.455427  1866 net.cpp:141] Setting up inception_4e/pool
I0403 14:43:59.455451  1866 net.cpp:148] Top shape: 24 528 14 14 (2483712)
I0403 14:43:59.455466  1866 net.cpp:156] Memory required for data: 1252085280
I0403 14:43:59.455479  1866 layer_factory.hpp:77] Creating layer inception_4e/pool_proj
I0403 14:43:59.455500  1866 net.cpp:91] Creating Layer inception_4e/pool_proj
I0403 14:43:59.455518  1866 net.cpp:425] inception_4e/pool_proj <- inception_4e/pool
I0403 14:43:59.455538  1866 net.cpp:399] inception_4e/pool_proj -> inception_4e/pool_proj
I0403 14:43:59.457029  1866 net.cpp:141] Setting up inception_4e/pool_proj
I0403 14:43:59.457068  1866 net.cpp:148] Top shape: 24 128 14 14 (602112)
I0403 14:43:59.457084  1866 net.cpp:156] Memory required for data: 1254493728
I0403 14:43:59.457103  1866 layer_factory.hpp:77] Creating layer inception_4e/relu_pool_proj
I0403 14:43:59.457124  1866 net.cpp:91] Creating Layer inception_4e/relu_pool_proj
I0403 14:43:59.457141  1866 net.cpp:425] inception_4e/relu_pool_proj <- inception_4e/pool_proj
I0403 14:43:59.457159  1866 net.cpp:386] inception_4e/relu_pool_proj -> inception_4e/pool_proj (in-place)
I0403 14:43:59.457455  1866 net.cpp:141] Setting up inception_4e/relu_pool_proj
I0403 14:43:59.457482  1866 net.cpp:148] Top shape: 24 128 14 14 (602112)
I0403 14:43:59.457497  1866 net.cpp:156] Memory required for data: 1256902176
I0403 14:43:59.457514  1866 layer_factory.hpp:77] Creating layer inception_4e/output
I0403 14:43:59.457531  1866 net.cpp:91] Creating Layer inception_4e/output
I0403 14:43:59.457547  1866 net.cpp:425] inception_4e/output <- inception_4e/1x1
I0403 14:43:59.457566  1866 net.cpp:425] inception_4e/output <- inception_4e/3x3
I0403 14:43:59.457581  1866 net.cpp:425] inception_4e/output <- inception_4e/5x5
I0403 14:43:59.457597  1866 net.cpp:425] inception_4e/output <- inception_4e/pool_proj
I0403 14:43:59.457617  1866 net.cpp:399] inception_4e/output -> inception_4e/output
I0403 14:43:59.457667  1866 net.cpp:141] Setting up inception_4e/output
I0403 14:43:59.457693  1866 net.cpp:148] Top shape: 24 832 14 14 (3913728)
I0403 14:43:59.457710  1866 net.cpp:156] Memory required for data: 1272557088
I0403 14:43:59.457725  1866 layer_factory.hpp:77] Creating layer pool4/3x3_s2
I0403 14:43:59.457741  1866 net.cpp:91] Creating Layer pool4/3x3_s2
I0403 14:43:59.457757  1866 net.cpp:425] pool4/3x3_s2 <- inception_4e/output
I0403 14:43:59.457778  1866 net.cpp:399] pool4/3x3_s2 -> pool4/3x3_s2
I0403 14:43:59.457845  1866 net.cpp:141] Setting up pool4/3x3_s2
I0403 14:43:59.457869  1866 net.cpp:148] Top shape: 24 832 7 7 (978432)
I0403 14:43:59.457883  1866 net.cpp:156] Memory required for data: 1276470816
I0403 14:43:59.457897  1866 layer_factory.hpp:77] Creating layer pool4/3x3_s2_pool4/3x3_s2_0_split
I0403 14:43:59.457917  1866 net.cpp:91] Creating Layer pool4/3x3_s2_pool4/3x3_s2_0_split
I0403 14:43:59.457934  1866 net.cpp:425] pool4/3x3_s2_pool4/3x3_s2_0_split <- pool4/3x3_s2
I0403 14:43:59.457952  1866 net.cpp:399] pool4/3x3_s2_pool4/3x3_s2_0_split -> pool4/3x3_s2_pool4/3x3_s2_0_split_0
I0403 14:43:59.457973  1866 net.cpp:399] pool4/3x3_s2_pool4/3x3_s2_0_split -> pool4/3x3_s2_pool4/3x3_s2_0_split_1
I0403 14:43:59.457994  1866 net.cpp:399] pool4/3x3_s2_pool4/3x3_s2_0_split -> pool4/3x3_s2_pool4/3x3_s2_0_split_2
I0403 14:43:59.458016  1866 net.cpp:399] pool4/3x3_s2_pool4/3x3_s2_0_split -> pool4/3x3_s2_pool4/3x3_s2_0_split_3
I0403 14:43:59.458108  1866 net.cpp:141] Setting up pool4/3x3_s2_pool4/3x3_s2_0_split
I0403 14:43:59.458132  1866 net.cpp:148] Top shape: 24 832 7 7 (978432)
I0403 14:43:59.458148  1866 net.cpp:148] Top shape: 24 832 7 7 (978432)
I0403 14:43:59.458165  1866 net.cpp:148] Top shape: 24 832 7 7 (978432)
I0403 14:43:59.458189  1866 net.cpp:148] Top shape: 24 832 7 7 (978432)
I0403 14:43:59.458204  1866 net.cpp:156] Memory required for data: 1292125728
I0403 14:43:59.458219  1866 layer_factory.hpp:77] Creating layer inception_5a/1x1
I0403 14:43:59.458240  1866 net.cpp:91] Creating Layer inception_5a/1x1
I0403 14:43:59.458257  1866 net.cpp:425] inception_5a/1x1 <- pool4/3x3_s2_pool4/3x3_s2_0_split_0
I0403 14:43:59.458279  1866 net.cpp:399] inception_5a/1x1 -> inception_5a/1x1
I0403 14:43:59.461130  1866 net.cpp:141] Setting up inception_5a/1x1
I0403 14:43:59.461159  1866 net.cpp:148] Top shape: 24 256 7 7 (301056)
I0403 14:43:59.461175  1866 net.cpp:156] Memory required for data: 1293329952
I0403 14:43:59.461200  1866 layer_factory.hpp:77] Creating layer inception_5a/relu_1x1
I0403 14:43:59.461222  1866 net.cpp:91] Creating Layer inception_5a/relu_1x1
I0403 14:43:59.461239  1866 net.cpp:425] inception_5a/relu_1x1 <- inception_5a/1x1
I0403 14:43:59.461258  1866 net.cpp:386] inception_5a/relu_1x1 -> inception_5a/1x1 (in-place)
I0403 14:43:59.461578  1866 net.cpp:141] Setting up inception_5a/relu_1x1
I0403 14:43:59.461604  1866 net.cpp:148] Top shape: 24 256 7 7 (301056)
I0403 14:43:59.461621  1866 net.cpp:156] Memory required for data: 1294534176
I0403 14:43:59.461635  1866 layer_factory.hpp:77] Creating layer inception_5a/3x3_reduce
I0403 14:43:59.461658  1866 net.cpp:91] Creating Layer inception_5a/3x3_reduce
I0403 14:43:59.461675  1866 net.cpp:425] inception_5a/3x3_reduce <- pool4/3x3_s2_pool4/3x3_s2_0_split_1
I0403 14:43:59.461696  1866 net.cpp:399] inception_5a/3x3_reduce -> inception_5a/3x3_reduce
I0403 14:43:59.464213  1866 net.cpp:141] Setting up inception_5a/3x3_reduce
I0403 14:43:59.464243  1866 net.cpp:148] Top shape: 24 160 7 7 (188160)
I0403 14:43:59.464259  1866 net.cpp:156] Memory required for data: 1295286816
I0403 14:43:59.464278  1866 layer_factory.hpp:77] Creating layer inception_5a/relu_3x3_reduce
I0403 14:43:59.464296  1866 net.cpp:91] Creating Layer inception_5a/relu_3x3_reduce
I0403 14:43:59.464314  1866 net.cpp:425] inception_5a/relu_3x3_reduce <- inception_5a/3x3_reduce
I0403 14:43:59.464334  1866 net.cpp:386] inception_5a/relu_3x3_reduce -> inception_5a/3x3_reduce (in-place)
I0403 14:43:59.464520  1866 net.cpp:141] Setting up inception_5a/relu_3x3_reduce
I0403 14:43:59.464545  1866 net.cpp:148] Top shape: 24 160 7 7 (188160)
I0403 14:43:59.464561  1866 net.cpp:156] Memory required for data: 1296039456
I0403 14:43:59.464576  1866 layer_factory.hpp:77] Creating layer inception_5a/3x3
I0403 14:43:59.464598  1866 net.cpp:91] Creating Layer inception_5a/3x3
I0403 14:43:59.464617  1866 net.cpp:425] inception_5a/3x3 <- inception_5a/3x3_reduce
I0403 14:43:59.464642  1866 net.cpp:399] inception_5a/3x3 -> inception_5a/3x3
I0403 14:43:59.469714  1866 net.cpp:141] Setting up inception_5a/3x3
I0403 14:43:59.469744  1866 net.cpp:148] Top shape: 24 320 7 7 (376320)
I0403 14:43:59.469760  1866 net.cpp:156] Memory required for data: 1297544736
I0403 14:43:59.469779  1866 layer_factory.hpp:77] Creating layer inception_5a/relu_3x3
I0403 14:43:59.469800  1866 net.cpp:91] Creating Layer inception_5a/relu_3x3
I0403 14:43:59.469817  1866 net.cpp:425] inception_5a/relu_3x3 <- inception_5a/3x3
I0403 14:43:59.469835  1866 net.cpp:386] inception_5a/relu_3x3 -> inception_5a/3x3 (in-place)
I0403 14:43:59.470136  1866 net.cpp:141] Setting up inception_5a/relu_3x3
I0403 14:43:59.470162  1866 net.cpp:148] Top shape: 24 320 7 7 (376320)
I0403 14:43:59.470187  1866 net.cpp:156] Memory required for data: 1299050016
I0403 14:43:59.470203  1866 layer_factory.hpp:77] Creating layer inception_5a/5x5_reduce
I0403 14:43:59.470227  1866 net.cpp:91] Creating Layer inception_5a/5x5_reduce
I0403 14:43:59.470244  1866 net.cpp:425] inception_5a/5x5_reduce <- pool4/3x3_s2_pool4/3x3_s2_0_split_2
I0403 14:43:59.470268  1866 net.cpp:399] inception_5a/5x5_reduce -> inception_5a/5x5_reduce
I0403 14:43:59.471441  1866 net.cpp:141] Setting up inception_5a/5x5_reduce
I0403 14:43:59.471468  1866 net.cpp:148] Top shape: 24 32 7 7 (37632)
I0403 14:43:59.471483  1866 net.cpp:156] Memory required for data: 1299200544
I0403 14:43:59.471501  1866 layer_factory.hpp:77] Creating layer inception_5a/relu_5x5_reduce
I0403 14:43:59.471521  1866 net.cpp:91] Creating Layer inception_5a/relu_5x5_reduce
I0403 14:43:59.471539  1866 net.cpp:425] inception_5a/relu_5x5_reduce <- inception_5a/5x5_reduce
I0403 14:43:59.471556  1866 net.cpp:386] inception_5a/relu_5x5_reduce -> inception_5a/5x5_reduce (in-place)
I0403 14:43:59.471849  1866 net.cpp:141] Setting up inception_5a/relu_5x5_reduce
I0403 14:43:59.471875  1866 net.cpp:148] Top shape: 24 32 7 7 (37632)
I0403 14:43:59.471890  1866 net.cpp:156] Memory required for data: 1299351072
I0403 14:43:59.471904  1866 layer_factory.hpp:77] Creating layer inception_5a/5x5
I0403 14:43:59.471928  1866 net.cpp:91] Creating Layer inception_5a/5x5
I0403 14:43:59.471946  1866 net.cpp:425] inception_5a/5x5 <- inception_5a/5x5_reduce
I0403 14:43:59.471964  1866 net.cpp:399] inception_5a/5x5 -> inception_5a/5x5
I0403 14:43:59.473723  1866 net.cpp:141] Setting up inception_5a/5x5
I0403 14:43:59.473762  1866 net.cpp:148] Top shape: 24 128 7 7 (150528)
I0403 14:43:59.473778  1866 net.cpp:156] Memory required for data: 1299953184
I0403 14:43:59.473798  1866 layer_factory.hpp:77] Creating layer inception_5a/relu_5x5
I0403 14:43:59.473817  1866 net.cpp:91] Creating Layer inception_5a/relu_5x5
I0403 14:43:59.473834  1866 net.cpp:425] inception_5a/relu_5x5 <- inception_5a/5x5
I0403 14:43:59.473851  1866 net.cpp:386] inception_5a/relu_5x5 -> inception_5a/5x5 (in-place)
I0403 14:43:59.474052  1866 net.cpp:141] Setting up inception_5a/relu_5x5
I0403 14:43:59.474078  1866 net.cpp:148] Top shape: 24 128 7 7 (150528)
I0403 14:43:59.474093  1866 net.cpp:156] Memory required for data: 1300555296
I0403 14:43:59.474108  1866 layer_factory.hpp:77] Creating layer inception_5a/pool
I0403 14:43:59.474128  1866 net.cpp:91] Creating Layer inception_5a/pool
I0403 14:43:59.474144  1866 net.cpp:425] inception_5a/pool <- pool4/3x3_s2_pool4/3x3_s2_0_split_3
I0403 14:43:59.474164  1866 net.cpp:399] inception_5a/pool -> inception_5a/pool
I0403 14:43:59.474241  1866 net.cpp:141] Setting up inception_5a/pool
I0403 14:43:59.474266  1866 net.cpp:148] Top shape: 24 832 7 7 (978432)
I0403 14:43:59.474280  1866 net.cpp:156] Memory required for data: 1304469024
I0403 14:43:59.474295  1866 layer_factory.hpp:77] Creating layer inception_5a/pool_proj
I0403 14:43:59.474319  1866 net.cpp:91] Creating Layer inception_5a/pool_proj
I0403 14:43:59.474349  1866 net.cpp:425] inception_5a/pool_proj <- inception_5a/pool
I0403 14:43:59.474369  1866 net.cpp:399] inception_5a/pool_proj -> inception_5a/pool_proj
I0403 14:43:59.476635  1866 net.cpp:141] Setting up inception_5a/pool_proj
I0403 14:43:59.476665  1866 net.cpp:148] Top shape: 24 128 7 7 (150528)
I0403 14:43:59.476680  1866 net.cpp:156] Memory required for data: 1305071136
I0403 14:43:59.476697  1866 layer_factory.hpp:77] Creating layer inception_5a/relu_pool_proj
I0403 14:43:59.476714  1866 net.cpp:91] Creating Layer inception_5a/relu_pool_proj
I0403 14:43:59.476730  1866 net.cpp:425] inception_5a/relu_pool_proj <- inception_5a/pool_proj
I0403 14:43:59.476750  1866 net.cpp:386] inception_5a/relu_pool_proj -> inception_5a/pool_proj (in-place)
I0403 14:43:59.477046  1866 net.cpp:141] Setting up inception_5a/relu_pool_proj
I0403 14:43:59.477072  1866 net.cpp:148] Top shape: 24 128 7 7 (150528)
I0403 14:43:59.477087  1866 net.cpp:156] Memory required for data: 1305673248
I0403 14:43:59.477102  1866 layer_factory.hpp:77] Creating layer inception_5a/output
I0403 14:43:59.477118  1866 net.cpp:91] Creating Layer inception_5a/output
I0403 14:43:59.477133  1866 net.cpp:425] inception_5a/output <- inception_5a/1x1
I0403 14:43:59.477150  1866 net.cpp:425] inception_5a/output <- inception_5a/3x3
I0403 14:43:59.477185  1866 net.cpp:425] inception_5a/output <- inception_5a/5x5
I0403 14:43:59.477202  1866 net.cpp:425] inception_5a/output <- inception_5a/pool_proj
I0403 14:43:59.477222  1866 net.cpp:399] inception_5a/output -> inception_5a/output
I0403 14:43:59.477463  1866 net.cpp:141] Setting up inception_5a/output
I0403 14:43:59.477505  1866 net.cpp:148] Top shape: 24 832 7 7 (978432)
I0403 14:43:59.477521  1866 net.cpp:156] Memory required for data: 1309586976
I0403 14:43:59.477537  1866 layer_factory.hpp:77] Creating layer inception_5a/output_inception_5a/output_0_split
I0403 14:43:59.477555  1866 net.cpp:91] Creating Layer inception_5a/output_inception_5a/output_0_split
I0403 14:43:59.477571  1866 net.cpp:425] inception_5a/output_inception_5a/output_0_split <- inception_5a/output
I0403 14:43:59.477589  1866 net.cpp:399] inception_5a/output_inception_5a/output_0_split -> inception_5a/output_inception_5a/output_0_split_0
I0403 14:43:59.477612  1866 net.cpp:399] inception_5a/output_inception_5a/output_0_split -> inception_5a/output_inception_5a/output_0_split_1
I0403 14:43:59.477634  1866 net.cpp:399] inception_5a/output_inception_5a/output_0_split -> inception_5a/output_inception_5a/output_0_split_2
I0403 14:43:59.477656  1866 net.cpp:399] inception_5a/output_inception_5a/output_0_split -> inception_5a/output_inception_5a/output_0_split_3
I0403 14:43:59.477768  1866 net.cpp:141] Setting up inception_5a/output_inception_5a/output_0_split
I0403 14:43:59.477792  1866 net.cpp:148] Top shape: 24 832 7 7 (978432)
I0403 14:43:59.477809  1866 net.cpp:148] Top shape: 24 832 7 7 (978432)
I0403 14:43:59.477825  1866 net.cpp:148] Top shape: 24 832 7 7 (978432)
I0403 14:43:59.477840  1866 net.cpp:148] Top shape: 24 832 7 7 (978432)
I0403 14:43:59.477854  1866 net.cpp:156] Memory required for data: 1325241888
I0403 14:43:59.477869  1866 layer_factory.hpp:77] Creating layer inception_5b/1x1
I0403 14:43:59.477892  1866 net.cpp:91] Creating Layer inception_5b/1x1
I0403 14:43:59.477910  1866 net.cpp:425] inception_5b/1x1 <- inception_5a/output_inception_5a/output_0_split_0
I0403 14:43:59.477929  1866 net.cpp:399] inception_5b/1x1 -> inception_5b/1x1
I0403 14:43:59.481824  1866 net.cpp:141] Setting up inception_5b/1x1
I0403 14:43:59.481854  1866 net.cpp:148] Top shape: 24 384 7 7 (451584)
I0403 14:43:59.481870  1866 net.cpp:156] Memory required for data: 1327048224
I0403 14:43:59.481889  1866 layer_factory.hpp:77] Creating layer inception_5b/relu_1x1
I0403 14:43:59.481907  1866 net.cpp:91] Creating Layer inception_5b/relu_1x1
I0403 14:43:59.481923  1866 net.cpp:425] inception_5b/relu_1x1 <- inception_5b/1x1
I0403 14:43:59.481945  1866 net.cpp:386] inception_5b/relu_1x1 -> inception_5b/1x1 (in-place)
I0403 14:43:59.482280  1866 net.cpp:141] Setting up inception_5b/relu_1x1
I0403 14:43:59.482307  1866 net.cpp:148] Top shape: 24 384 7 7 (451584)
I0403 14:43:59.482323  1866 net.cpp:156] Memory required for data: 1328854560
I0403 14:43:59.482338  1866 layer_factory.hpp:77] Creating layer inception_5b/3x3_reduce
I0403 14:43:59.482362  1866 net.cpp:91] Creating Layer inception_5b/3x3_reduce
I0403 14:43:59.482380  1866 net.cpp:425] inception_5b/3x3_reduce <- inception_5a/output_inception_5a/output_0_split_1
I0403 14:43:59.482404  1866 net.cpp:399] inception_5b/3x3_reduce -> inception_5b/3x3_reduce
I0403 14:43:59.485128  1866 net.cpp:141] Setting up inception_5b/3x3_reduce
I0403 14:43:59.485157  1866 net.cpp:148] Top shape: 24 192 7 7 (225792)
I0403 14:43:59.485173  1866 net.cpp:156] Memory required for data: 1329757728
I0403 14:43:59.485200  1866 layer_factory.hpp:77] Creating layer inception_5b/relu_3x3_reduce
I0403 14:43:59.485220  1866 net.cpp:91] Creating Layer inception_5b/relu_3x3_reduce
I0403 14:43:59.485236  1866 net.cpp:425] inception_5b/relu_3x3_reduce <- inception_5b/3x3_reduce
I0403 14:43:59.485257  1866 net.cpp:386] inception_5b/relu_3x3_reduce -> inception_5b/3x3_reduce (in-place)
I0403 14:43:59.485451  1866 net.cpp:141] Setting up inception_5b/relu_3x3_reduce
I0403 14:43:59.485477  1866 net.cpp:148] Top shape: 24 192 7 7 (225792)
I0403 14:43:59.485492  1866 net.cpp:156] Memory required for data: 1330660896
I0403 14:43:59.485507  1866 layer_factory.hpp:77] Creating layer inception_5b/3x3
I0403 14:43:59.485529  1866 net.cpp:91] Creating Layer inception_5b/3x3
I0403 14:43:59.485548  1866 net.cpp:425] inception_5b/3x3 <- inception_5b/3x3_reduce
I0403 14:43:59.485569  1866 net.cpp:399] inception_5b/3x3 -> inception_5b/3x3
I0403 14:43:59.492451  1866 net.cpp:141] Setting up inception_5b/3x3
I0403 14:43:59.492482  1866 net.cpp:148] Top shape: 24 384 7 7 (451584)
I0403 14:43:59.492499  1866 net.cpp:156] Memory required for data: 1332467232
I0403 14:43:59.492518  1866 layer_factory.hpp:77] Creating layer inception_5b/relu_3x3
I0403 14:43:59.492537  1866 net.cpp:91] Creating Layer inception_5b/relu_3x3
I0403 14:43:59.492553  1866 net.cpp:425] inception_5b/relu_3x3 <- inception_5b/3x3
I0403 14:43:59.492573  1866 net.cpp:386] inception_5b/relu_3x3 -> inception_5b/3x3 (in-place)
I0403 14:43:59.492877  1866 net.cpp:141] Setting up inception_5b/relu_3x3
I0403 14:43:59.492902  1866 net.cpp:148] Top shape: 24 384 7 7 (451584)
I0403 14:43:59.492918  1866 net.cpp:156] Memory required for data: 1334273568
I0403 14:43:59.492933  1866 layer_factory.hpp:77] Creating layer inception_5b/5x5_reduce
I0403 14:43:59.492988  1866 net.cpp:91] Creating Layer inception_5b/5x5_reduce
I0403 14:43:59.493010  1866 net.cpp:425] inception_5b/5x5_reduce <- inception_5a/output_inception_5a/output_0_split_2
I0403 14:43:59.493036  1866 net.cpp:399] inception_5b/5x5_reduce -> inception_5b/5x5_reduce
I0403 14:43:59.494349  1866 net.cpp:141] Setting up inception_5b/5x5_reduce
I0403 14:43:59.494376  1866 net.cpp:148] Top shape: 24 48 7 7 (56448)
I0403 14:43:59.494392  1866 net.cpp:156] Memory required for data: 1334499360
I0403 14:43:59.494411  1866 layer_factory.hpp:77] Creating layer inception_5b/relu_5x5_reduce
I0403 14:43:59.494432  1866 net.cpp:91] Creating Layer inception_5b/relu_5x5_reduce
I0403 14:43:59.494451  1866 net.cpp:425] inception_5b/relu_5x5_reduce <- inception_5b/5x5_reduce
I0403 14:43:59.494468  1866 net.cpp:386] inception_5b/relu_5x5_reduce -> inception_5b/5x5_reduce (in-place)
I0403 14:43:59.494861  1866 net.cpp:141] Setting up inception_5b/relu_5x5_reduce
I0403 14:43:59.494889  1866 net.cpp:148] Top shape: 24 48 7 7 (56448)
I0403 14:43:59.494906  1866 net.cpp:156] Memory required for data: 1334725152
I0403 14:43:59.494921  1866 layer_factory.hpp:77] Creating layer inception_5b/5x5
I0403 14:43:59.494942  1866 net.cpp:91] Creating Layer inception_5b/5x5
I0403 14:43:59.494971  1866 net.cpp:425] inception_5b/5x5 <- inception_5b/5x5_reduce
I0403 14:43:59.494990  1866 net.cpp:399] inception_5b/5x5 -> inception_5b/5x5
I0403 14:43:59.497161  1866 net.cpp:141] Setting up inception_5b/5x5
I0403 14:43:59.497195  1866 net.cpp:148] Top shape: 24 128 7 7 (150528)
I0403 14:43:59.497210  1866 net.cpp:156] Memory required for data: 1335327264
I0403 14:43:59.497228  1866 layer_factory.hpp:77] Creating layer inception_5b/relu_5x5
I0403 14:43:59.497249  1866 net.cpp:91] Creating Layer inception_5b/relu_5x5
I0403 14:43:59.497267  1866 net.cpp:425] inception_5b/relu_5x5 <- inception_5b/5x5
I0403 14:43:59.497284  1866 net.cpp:386] inception_5b/relu_5x5 -> inception_5b/5x5 (in-place)
I0403 14:43:59.497473  1866 net.cpp:141] Setting up inception_5b/relu_5x5
I0403 14:43:59.497501  1866 net.cpp:148] Top shape: 24 128 7 7 (150528)
I0403 14:43:59.497517  1866 net.cpp:156] Memory required for data: 1335929376
I0403 14:43:59.497532  1866 layer_factory.hpp:77] Creating layer inception_5b/pool
I0403 14:43:59.497550  1866 net.cpp:91] Creating Layer inception_5b/pool
I0403 14:43:59.497565  1866 net.cpp:425] inception_5b/pool <- inception_5a/output_inception_5a/output_0_split_3
I0403 14:43:59.497584  1866 net.cpp:399] inception_5b/pool -> inception_5b/pool
I0403 14:43:59.497656  1866 net.cpp:141] Setting up inception_5b/pool
I0403 14:43:59.497680  1866 net.cpp:148] Top shape: 24 832 7 7 (978432)
I0403 14:43:59.497696  1866 net.cpp:156] Memory required for data: 1339843104
I0403 14:43:59.497710  1866 layer_factory.hpp:77] Creating layer inception_5b/pool_proj
I0403 14:43:59.497731  1866 net.cpp:91] Creating Layer inception_5b/pool_proj
I0403 14:43:59.497750  1866 net.cpp:425] inception_5b/pool_proj <- inception_5b/pool
I0403 14:43:59.497771  1866 net.cpp:399] inception_5b/pool_proj -> inception_5b/pool_proj
I0403 14:43:59.500092  1866 net.cpp:141] Setting up inception_5b/pool_proj
I0403 14:43:59.500120  1866 net.cpp:148] Top shape: 24 128 7 7 (150528)
I0403 14:43:59.500136  1866 net.cpp:156] Memory required for data: 1340445216
I0403 14:43:59.500154  1866 layer_factory.hpp:77] Creating layer inception_5b/relu_pool_proj
I0403 14:43:59.500175  1866 net.cpp:91] Creating Layer inception_5b/relu_pool_proj
I0403 14:43:59.500200  1866 net.cpp:425] inception_5b/relu_pool_proj <- inception_5b/pool_proj
I0403 14:43:59.500216  1866 net.cpp:386] inception_5b/relu_pool_proj -> inception_5b/pool_proj (in-place)
I0403 14:43:59.500512  1866 net.cpp:141] Setting up inception_5b/relu_pool_proj
I0403 14:43:59.500538  1866 net.cpp:148] Top shape: 24 128 7 7 (150528)
I0403 14:43:59.500553  1866 net.cpp:156] Memory required for data: 1341047328
I0403 14:43:59.500568  1866 layer_factory.hpp:77] Creating layer inception_5b/output
I0403 14:43:59.500586  1866 net.cpp:91] Creating Layer inception_5b/output
I0403 14:43:59.500615  1866 net.cpp:425] inception_5b/output <- inception_5b/1x1
I0403 14:43:59.500635  1866 net.cpp:425] inception_5b/output <- inception_5b/3x3
I0403 14:43:59.500653  1866 net.cpp:425] inception_5b/output <- inception_5b/5x5
I0403 14:43:59.500669  1866 net.cpp:425] inception_5b/output <- inception_5b/pool_proj
I0403 14:43:59.500686  1866 net.cpp:399] inception_5b/output -> inception_5b/output
I0403 14:43:59.500737  1866 net.cpp:141] Setting up inception_5b/output
I0403 14:43:59.500762  1866 net.cpp:148] Top shape: 24 1024 7 7 (1204224)
I0403 14:43:59.500778  1866 net.cpp:156] Memory required for data: 1345864224
I0403 14:43:59.500792  1866 layer_factory.hpp:77] Creating layer pool5/7x7_s1
I0403 14:43:59.500810  1866 net.cpp:91] Creating Layer pool5/7x7_s1
I0403 14:43:59.500826  1866 net.cpp:425] pool5/7x7_s1 <- inception_5b/output
I0403 14:43:59.500847  1866 net.cpp:399] pool5/7x7_s1 -> pool5/7x7_s1
I0403 14:43:59.501058  1866 net.cpp:141] Setting up pool5/7x7_s1
I0403 14:43:59.501085  1866 net.cpp:148] Top shape: 24 1024 1 1 (24576)
I0403 14:43:59.501098  1866 net.cpp:156] Memory required for data: 1345962528
I0403 14:43:59.501113  1866 layer_factory.hpp:77] Creating layer pool5/drop_7x7_s1
I0403 14:43:59.501135  1866 net.cpp:91] Creating Layer pool5/drop_7x7_s1
I0403 14:43:59.501152  1866 net.cpp:425] pool5/drop_7x7_s1 <- pool5/7x7_s1
I0403 14:43:59.501169  1866 net.cpp:386] pool5/drop_7x7_s1 -> pool5/7x7_s1 (in-place)
I0403 14:43:59.501226  1866 net.cpp:141] Setting up pool5/drop_7x7_s1
I0403 14:43:59.501262  1866 net.cpp:148] Top shape: 24 1024 1 1 (24576)
I0403 14:43:59.501277  1866 net.cpp:156] Memory required for data: 1346060832
I0403 14:43:59.501292  1866 layer_factory.hpp:77] Creating layer loss3/classifier_plantvillage
I0403 14:43:59.501312  1866 net.cpp:91] Creating Layer loss3/classifier_plantvillage
I0403 14:43:59.501327  1866 net.cpp:425] loss3/classifier_plantvillage <- pool5/7x7_s1
I0403 14:43:59.501349  1866 net.cpp:399] loss3/classifier_plantvillage -> loss3/classifier_plantvillage
I0403 14:43:59.501785  1866 net.cpp:141] Setting up loss3/classifier_plantvillage
I0403 14:43:59.501808  1866 net.cpp:148] Top shape: 24 38 (912)
I0403 14:43:59.501822  1866 net.cpp:156] Memory required for data: 1346064480
I0403 14:43:59.501842  1866 layer_factory.hpp:77] Creating layer loss3/classifier_plantvillage_loss3/classifier_plantvillage_0_split
I0403 14:43:59.501859  1866 net.cpp:91] Creating Layer loss3/classifier_plantvillage_loss3/classifier_plantvillage_0_split
I0403 14:43:59.501875  1866 net.cpp:425] loss3/classifier_plantvillage_loss3/classifier_plantvillage_0_split <- loss3/classifier_plantvillage
I0403 14:43:59.501896  1866 net.cpp:399] loss3/classifier_plantvillage_loss3/classifier_plantvillage_0_split -> loss3/classifier_plantvillage_loss3/classifier_plantvillage_0_split_0
I0403 14:43:59.501916  1866 net.cpp:399] loss3/classifier_plantvillage_loss3/classifier_plantvillage_0_split -> loss3/classifier_plantvillage_loss3/classifier_plantvillage_0_split_1
I0403 14:43:59.501937  1866 net.cpp:399] loss3/classifier_plantvillage_loss3/classifier_plantvillage_0_split -> loss3/classifier_plantvillage_loss3/classifier_plantvillage_0_split_2
I0403 14:43:59.501957  1866 net.cpp:399] loss3/classifier_plantvillage_loss3/classifier_plantvillage_0_split -> loss3/classifier_plantvillage_loss3/classifier_plantvillage_0_split_3
I0403 14:43:59.502059  1866 net.cpp:141] Setting up loss3/classifier_plantvillage_loss3/classifier_plantvillage_0_split
I0403 14:43:59.502082  1866 net.cpp:148] Top shape: 24 38 (912)
I0403 14:43:59.502097  1866 net.cpp:148] Top shape: 24 38 (912)
I0403 14:43:59.502112  1866 net.cpp:148] Top shape: 24 38 (912)
I0403 14:43:59.502127  1866 net.cpp:148] Top shape: 24 38 (912)
I0403 14:43:59.502141  1866 net.cpp:156] Memory required for data: 1346079072
I0403 14:43:59.502156  1866 layer_factory.hpp:77] Creating layer loss1/loss
I0403 14:43:59.502189  1866 net.cpp:91] Creating Layer loss1/loss
I0403 14:43:59.502210  1866 net.cpp:425] loss1/loss <- loss1/classifier_plantvillage_loss1/classifier_plantvillage_0_split_0
I0403 14:43:59.502241  1866 net.cpp:425] loss1/loss <- label_data_1_split_0
…
