…
I0403 13:42:49.507845 32725 net.cpp:313] The NetState phase (1) differed from the phase (0) specified by a rule in layer data
I0403 13:42:49.509066 32725 net.cpp:49] Initializing net from parameters: 
state {
  phase: TEST
}
layer {
  name: "data"
  type: "Data"
  top: "data"
  top: "label"
  include {
    phase: TEST
  }
  transform_param {
    mirror: false
    crop_size: 224
    mean_file: "/home/mohanty/data/final_dataset/lmdb/grayscale-20-80/mean.binaryproto"
  }
  data_param {
    source: "/home/mohanty/data/final_dataset/lmdb/grayscale-20-80/test_db"
    batch_size: 24
    backend: LMDB
  }
}
layer {
  name: "conv1/7x7_s2"
  type: "Convolution"
  bottom: "data"
  top: "conv1/7x7_s2"
  param {
    lr_mult: 1
    decay_mult: 1
  }
  param {
    lr_mult: 2
    decay_mult: 0
  }
  convolution_param {
    num_output: 64
    pad: 3
    kernel_size: 7
    stride: 2
    weight_filler {
      type: "xavier"
      std: 0.1
    }
    bias_filler {
      type: "constant"
      value: 0.2
    }
  }
}
layer {
  name: "conv1/relu_7x7"
  type: "ReLU"
  bottom: "conv1/7x7_s2"
  top: "conv1/7x7_s2"
}
layer {
  name: "pool1/3x3_s2"
  type: "Pooling"
  bottom: "conv1/7x7_s2"
  top: "pool1/3x3_s2"
  pooling_param {
    pool: MAX
    kernel_size: 3
    stride: 2
  }
}
layer {
  name: "pool1/norm1"
  type: "LRN"
  bottom: "pool1/3x3_s2"
  top: "pool1/norm1"
  lrn_param {
    local_size: 5
    alpha: 0.0001
    beta: 0.75
  }
}
layer {
  name: "conv2/3x3_reduce"
  type: "Convolution"
  bottom: "pool1/norm1"
  top: "conv2/3x3_reduce"
  param {
    lr_mult: 1
    decay_mult: 1
  }
  param {
    lr_mult: 2
    decay_mult: 0
  }
  convolution_param {
    num_output: 64
    kernel_size: 1
    weight_filler {
      type: "xavier"
      std: 0.1
    }
    bias_filler {
      type: "constant"
      value: 0.2
    }
  }
}
layer {
  name: "conv2/relu_3x3_reduce"
  type: "ReLU"
  bottom: "conv2/3x3_reduce"
  top: "conv2/3x3_reduce"
}
layer {
  name: "conv2/3x3"
  type: "Convolution"
  bottom: "conv2/3x3_reduce"
  top: "conv2/3x3"
  param {
    lr_mult: 1
    decay_mult: 1
  }
  param {
    lr_mult: 2
    decay_mult: 0
  }
  convolution_param {
    num_output: 192
    pad: 1
    kernel_size: 3
    weight_filler {
      type: "xavier"
      std: 0.03
    }
    bias_filler {
      type: "constant"
      value: 0.2
    }
  }
}
layer {
  name: "conv2/relu_3x3"
  type: "ReLU"
  bottom: "conv2/3x3"
  top: "conv2/3x3"
}
layer {
  name: "conv2/norm2"
  type: "LRN"
  bottom: "conv2/3x3"
  top: "conv2/norm2"
  lrn_param {
    local_size: 5
    alpha: 0.0001
    beta: 0.75
  }
}
layer {
  name: "pool2/3x3_s2"
  type: "Pooling"
  bottom: "conv2/norm2"
  top: "pool2/3x3_s2"
  pooling_param {
    pool: MAX
    kernel_size: 3
    stride: 2
  }
}
layer {
  name: "inception_3a/1x1"
  type: "Convolution"
  bottom: "pool2/3x3_s2"
  top: "inception_3a/1x1"
  param {
    lr_mult: 1
    decay_mult: 1
  }
  param {
    lr_mult: 2
    decay_mult: 0
  }
  convolution_param {
    num_output: 64
    kernel_size: 1
    weight_filler {
      type: "xavier"
      std: 0.03
    }
    bias_filler {
      type: "constant"
      value: 0.2
    }
  }
}
layer {
  name: "inception_3a/relu_1x1"
  type: "ReLU"
  bottom: "inception_3a/1x1"
  top: "inception_3a/1x1"
}
layer {
  name: "inception_3a/3x3_reduce"
  type: "Convolution"
  bottom: "pool2/3x3_s2"
  top: "inception_3a/3x3_reduce"
  param {
    lr_mult: 1
    decay_mult: 1
  }
  param {
    lr_mult: 2
    decay_mult: 0
  }
  convolution_param {
    num_output: 96
    kernel_size: 1
    weight_filler {
      type: "xavier"
      std: 0.09
    }
    bias_filler {
      type: "constant"
      value: 0.2
    }
  }
}
layer {
  name: "inception_3a/relu_3x3_reduce"
  type: "ReLU"
  bottom: "inception_3a/3x3_reduce"
  top: "inception_3a/3x3_reduce"
}
layer {
  name: "inception_3a/3x3"
  type: "Convolution"
  bottom: "inception_3a/3x3_reduce"
  top: "inception_3a/3x3"
  param {
    lr_mult: 1
    decay_mult: 1
  }
  param {
    lr_mult: 2
    decay_mult: 0
  }
  convolution_param {
    num_output: 128
    pad: 1
    kernel_size: 3
    weight_filler {
      type: "xavier"
      std: 0.03
    }
    bias_filler {
      type: "constant"
      value: 0.2
    }
  }
}
layer {
  name: "inception_3a/relu_3x3"
  type: "ReLU"
  bottom: "inception_3a/3x3"
  top: "inception_3a/3x3"
}
layer {
  name: "inception_3a/5x5_reduce"
  type: "Convolution"
  bottom: "pool2/3x3_s2"
  top: "inception_3a/5x5_reduce"
  param {
    lr_mult: 1
    decay_mult: 1
  }
  param {
    lr_mult: 2
    decay_mult: 0
  }
  convolution_param {
    num_output: 16
    kernel_size: 1
    weight_filler {
      type: "xavier"
      std: 0.2
    }
    bias_filler {
      type: "constant"
      value: 0.2
    }
  }
}
layer {
  name: "inception_3a/relu_5x5_reduce"
  type: "ReLU"
  bottom: "inception_3a/5x5_reduce"
  top: "inception_3a/5x5_reduce"
}
layer {
  name: "inception_3a/5x5"
  type: "Convolution"
  bottom: "inception_3a/5x5_reduce"
  top: "inception_3a/5x5"
  param {
    lr_mult: 1
    decay_mult: 1
  }
  param {
    lr_mult: 2
    decay_mult: 0
  }
  convolution_param {
    num_output: 32
    pad: 2
    kernel_size: 5
    weight_filler {
      type: "xavier"
      std: 0.03
    }
    bias_filler {
      type: "constant"
      value: 0.2
    }
  }
}
layer {
  name: "inception_3a/relu_5x5"
  type: "ReLU"
  bottom: "inception_3a/5x5"
  top: "inception_3a/5x5"
}
layer {
  name: "inception_3a/pool"
  type: "Pooling"
  bottom: "pool2/3x3_s2"
  top: "inception_3a/pool"
  pooling_param {
    pool: MAX
    kernel_size: 3
    stride: 1
    pad: 1
  }
}
layer {
  name: "inception_3a/pool_proj"
  type: "Convolution"
  bottom: "inception_3a/pool"
  top: "inception_3a/pool_proj"
  param {
    lr_mult: 1
    decay_mult: 1
  }
  param {
    lr_mult: 2
    decay_mult: 0
  }
  convolution_param {
    num_output: 32
    kernel_size: 1
    weight_filler {
      type: "xavier"
      std: 0.1
    }
    bias_filler {
      type: "constant"
      value: 0.2
    }
  }
}
layer {
  name: "inception_3a/relu_pool_proj"
  type: "ReLU"
  bottom: "inception_3a/pool_proj"
  top: "inception_3a/pool_proj"
}
layer {
  name: "inception_3a/output"
  type: "Concat"
  bottom: "inception_3a/1x1"
  bottom: "inception_3a/3x3"
  bottom: "inception_3a/5x5"
  bottom: "inception_3a/pool_proj"
  top: "inception_3a/output"
}
layer {
  name: "inception_3b/1x1"
  type: "Convolution"
  bottom: "inception_3a/output"
  top: "inception_3b/1x1"
  param {
    lr_mult: 1
    decay_mult: 1
  }
  param {
    lr_mult: 2
    decay_mult: 0
  }
  convolution_param {
    num_output: 128
    kernel_size: 1
    weight_filler {
      type: "xavier"
      std: 0.03
    }
    bias_filler {
      type: "constant"
      value: 0.2
    }
  }
}
layer {
  name: "inception_3b/relu_1x1"
  type: "ReLU"
  bottom: "inception_3b/1x1"
  top: "inception_3b/1x1"
}
layer {
  name: "inception_3b/3x3_reduce"
  type: "Convolution"
  bottom: "inception_3a/output"
  top: "inception_3b/3x3_reduce"
  param {
    lr_mult: 1
    decay_mult: 1
  }
  param {
    lr_mult: 2
    decay_mult: 0
  }
  convolution_param {
    num_output: 128
    kernel_size: 1
    weight_filler {
      type: "xavier"
      std: 0.09
    }
    bias_filler {
      type: "constant"
      value: 0.2
    }
  }
}
layer {
  name: "inception_3b/relu_3x3_reduce"
  type: "ReLU"
  bottom: "inception_3b/3x3_reduce"
  top: "inception_3b/3x3_reduce"
}
layer {
  name: "inception_3b/3x3"
  type: "Convolution"
  bottom: "inception_3b/3x3_reduce"
  top: "inception_3b/3x3"
  param {
    lr_mult: 1
    decay_mult: 1
  }
  param {
    lr_mult: 2
    decay_mult: 0
  }
  convolution_param {
    num_output: 192
    pad: 1
    kernel_size: 3
    weight_filler {
      type: "xavier"
      std: 0.03
    }
    bias_filler {
      type: "constant"
      value: 0.2
    }
  }
}
layer {
  name: "inception_3b/relu_3x3"
  type: "ReLU"
  bottom: "inception_3b/3x3"
  top: "inception_3b/3x3"
}
layer {
  name: "inception_3b/5x5_reduce"
  type: "Convolution"
  bottom: "inception_3a/output"
  top: "inception_3b/5x5_reduce"
  param {
    lr_mult: 1
    decay_mult: 1
  }
  param {
    lr_mult: 2
    decay_mult: 0
  }
  convolution_param {
    num_output: 32
    kernel_size: 1
    weight_filler {
      type: "xavier"
      std: 0.2
    }
    bias_filler {
      type: "constant"
      value: 0.2
    }
  }
}
layer {
  name: "inception_3b/relu_5x5_reduce"
  type: "ReLU"
  bottom: "inception_3b/5x5_reduce"
  top: "inception_3b/5x5_reduce"
}
layer {
  name: "inception_3b/5x5"
  type: "Convolution"
  bottom: "inception_3b/5x5_reduce"
  top: "inception_3b/5x5"
  param {
    lr_mult: 1
    decay_mult: 1
  }
  param {
    lr_mult: 2
    decay_mult: 0
  }
  convolution_param {
    num_output: 96
    pad: 2
    kernel_size: 5
    weight_filler {
      type: "xavier"
      std: 0.03
    }
    bias_filler {
      type: "constant"
      value: 0.2
    }
  }
}
layer {
  name: "inception_3b/relu_5x5"
  type: "ReLU"
  bottom: "inception_3b/5x5"
  top: "inception_3b/5x5"
}
layer {
  name: "inception_3b/pool"
  type: "Pooling"
  bottom: "inception_3a/output"
  top: "inception_3b/pool"
  pooling_param {
    pool: MAX
    kernel_size: 3
    stride: 1
    pad: 1
  }
}
layer {
  name: "inception_3b/pool_proj"
  type: "Convolution"
  bottom: "inception_3b/pool"
  top: "inception_3b/pool_proj"
  param {
    lr_mult: 1
    decay_mult: 1
  }
  param {
    lr_mult: 2
    decay_mult: 0
  }
  convolution_param {
    num_output: 64
    kernel_size: 1
    weight_filler {
      type: "xavier"
      std: 0.1
    }
    bias_filler {
      type: "constant"
      value: 0.2
    }
  }
}
layer {
  name: "inception_3b/relu_pool_proj"
  type: "ReLU"
  bottom: "inception_3b/pool_proj"
  top: "inception_3b/pool_proj"
}
layer {
  name: "inception_3b/output"
  type: "Concat"
  bottom: "inception_3b/1x1"
  bottom: "inception_3b/3x3"
  bottom: "inception_3b/5x5"
  bottom: "inception_3b/pool_proj"
  top: "inception_3b/output"
}
layer {
  name: "pool3/3x3_s2"
  type: "Pooling"
  bottom: "inception_3b/output"
  top: "pool3/3x3_s2"
  pooling_param {
    pool: MAX
    kernel_size: 3
    stride: 2
  }
}
layer {
  name: "inception_4a/1x1"
  type: "Convolution"
  bottom: "pool3/3x3_s2"
  top: "inception_4a/1x1"
  param {
    lr_mult: 1
    decay_mult: 1
  }
  param {
    lr_mult: 2
    decay_mult: 0
  }
  convolution_param {
    num_output: 192
    kernel_size: 1
    weight_filler {
      type: "xavier"
      std: 0.03
    }
    bias_filler {
      type: "constant"
      value: 0.2
    }
  }
}
layer {
  name: "inception_4a/relu_1x1"
  type: "ReLU"
  bottom: "inception_4a/1x1"
  top: "inception_4a/1x1"
}
layer {
  name: "inception_4a/3x3_reduce"
  type: "Convolution"
  bottom: "pool3/3x3_s2"
  top: "inception_4a/3x3_reduce"
  param {
    lr_mult: 1
    decay_mult: 1
  }
  param {
    lr_mult: 2
    decay_mult: 0
  }
  convolution_param {
    num_output: 96
    kernel_size: 1
    weight_filler {
      type: "xavier"
      std: 0.09
    }
    bias_filler {
      type: "constant"
      value: 0.2
    }
  }
}
layer {
  name: "inception_4a/relu_3x3_reduce"
  type: "ReLU"
  bottom: "inception_4a/3x3_reduce"
  top: "inception_4a/3x3_reduce"
}
layer {
  name: "inception_4a/3x3"
  type: "Convolution"
  bottom: "inception_4a/3x3_reduce"
  top: "inception_4a/3x3"
  param {
    lr_mult: 1
    decay_mult: 1
  }
  param {
    lr_mult: 2
    decay_mult: 0
  }
  convolution_param {
    num_output: 208
    pad: 1
    kernel_size: 3
    weight_filler {
      type: "xavier"
      std: 0.03
    }
    bias_filler {
      type: "constant"
      value: 0.2
    }
  }
}
layer {
  name: "inception_4a/relu_3x3"
  type: "ReLU"
  bottom: "inception_4a/3x3"
  top: "inception_4a/3x3"
}
layer {
  name: "inception_4a/5x5_reduce"
  type: "Convolution"
  bottom: "pool3/3x3_s2"
  top: "inception_4a/5x5_reduce"
  param {
    lr_mult: 1
    decay_mult: 1
  }
  param {
    lr_mult: 2
    decay_mult: 0
  }
  convolution_param {
    num_output: 16
    kernel_size: 1
    weight_filler {
      type: "xavier"
      std: 0.2
    }
    bias_filler {
      type: "constant"
      value: 0.2
    }
  }
}
layer {
  name: "inception_4a/relu_5x5_reduce"
  type: "ReLU"
  bottom: "inception_4a/5x5_reduce"
  top: "inception_4a/5x5_reduce"
}
layer {
  name: "inception_4a/5x5"
  type: "Convolution"
  bottom: "inception_4a/5x5_reduce"
  top: "inception_4a/5x5"
  param {
    lr_mult: 1
    decay_mult: 1
  }
  param {
    lr_mult: 2
    decay_mult: 0
  }
  convolution_param {
    num_output: 48
    pad: 2
    kernel_size: 5
    weight_filler {
      type: "xavier"
      std: 0.03
    }
    bias_filler {
      type: "constant"
      value: 0.2
    }
  }
}
layer {
  name: "inception_4a/relu_5x5"
  type: "ReLU"
  bottom: "inception_4a/5x5"
  top: "inception_4a/5x5"
}
layer {
  name: "inception_4a/pool"
  type: "Pooling"
  bottom: "pool3/3x3_s2"
  top: "inception_4a/pool"
  pooling_param {
    pool: MAX
    kernel_size: 3
    stride: 1
    pad: 1
  }
}
layer {
  name: "inception_4a/pool_proj"
  type: "Convolution"
  bottom: "inception_4a/pool"
  top: "inception_4a/pool_proj"
  param {
    lr_mult: 1
    decay_mult: 1
  }
  param {
    lr_mult: 2
    decay_mult: 0
  }
  convolution_param {
    num_output: 64
    kernel_size: 1
    weight_filler {
      type: "xavier"
      std: 0.1
    }
    bias_filler {
      type: "constant"
      value: 0.2
    }
  }
}
layer {
  name: "inception_4a/relu_pool_proj"
  type: "ReLU"
  bottom: "inception_4a/pool_proj"
  top: "inception_4a/pool_proj"
}
layer {
  name: "inception_4a/output"
  type: "Concat"
  bottom: "inception_4a/1x1"
  bottom: "inception_4a/3x3"
  bottom: "inception_4a/5x5"
  bottom: "inception_4a/pool_proj"
  top: "inception_4a/output"
}
layer {
  name: "loss1/ave_pool"
  type: "Pooling"
  bottom: "inception_4a/output"
  top: "loss1/ave_pool"
  pooling_param {
    pool: AVE
    kernel_size: 5
    stride: 3
  }
}
layer {
  name: "loss1/conv"
  type: "Convolution"
  bottom: "loss1/ave_pool"
  top: "loss1/conv"
  param {
    lr_mult: 1
    decay_mult: 1
  }
  param {
    lr_mult: 2
    decay_mult: 0
  }
  convolution_param {
    num_output: 128
    kernel_size: 1
    weight_filler {
      type: "xavier"
      std: 0.08
    }
    bias_filler {
      type: "constant"
      value: 0.2
    }
  }
}
layer {
  name: "loss1/relu_conv"
  type: "ReLU"
  bottom: "loss1/conv"
  top: "loss1/conv"
}
layer {
  name: "loss1/fc"
  type: "InnerProduct"
  bottom: "loss1/conv"
  top: "loss1/fc"
  param {
    lr_mult: 1
    decay_mult: 1
  }
  param {
    lr_mult: 2
    decay_mult: 0
  }
  inner_product_param {
    num_output: 1024
    weight_filler {
      type: "xavier"
      std: 0.02
    }
    bias_filler {
      type: "constant"
      value: 0.2
    }
  }
}
layer {
  name: "loss1/relu_fc"
  type: "ReLU"
  bottom: "loss1/fc"
  top: "loss1/fc"
}
layer {
  name: "loss1/drop_fc"
  type: "Dropout"
  bottom: "loss1/fc"
  top: "loss1/fc"
  dropout_param {
    dropout_ratio: 0.7
  }
}
layer {
  name: "loss1/classifier_plantvillage"
  type: "InnerProduct"
  bottom: "loss1/fc"
  top: "loss1/classifier_plantvillage"
  param {
    lr_mult: 1
    decay_mult: 1
  }
  param {
    lr_mult: 2
    decay_mult: 0
  }
  inner_product_param {
    num_output: 38
    weight_filler {
      type: "xavier"
      std: 0.0009765625
    }
    bias_filler {
      type: "constant"
      value: 0
    }
  }
}
layer {
  name: "inception_4b/1x1"
  type: "Convolution"
  bottom: "inception_4a/output"
  top: "inception_4b/1x1"
  param {
    lr_mult: 1
    decay_mult: 1
  }
  param {
    lr_mult: 2
    decay_mult: 0
  }
  convolution_param {
    num_output: 160
    kernel_size: 1
    weight_filler {
      type: "xavier"
      std: 0.03
    }
    bias_filler {
      type: "constant"
      value: 0.2
    }
  }
}
layer {
  name: "inception_4b/relu_1x1"
  type: "ReLU"
  bottom: "inception_4b/1x1"
  top: "inception_4b/1x1"
}
layer {
  name: "inception_4b/3x3_reduce"
  type: "Convolution"
  bottom: "inception_4a/output"
  top: "inception_4b/3x3_reduce"
  param {
    lr_mult: 1
    decay_mult: 1
  }
  param {
    lr_mult: 2
    decay_mult: 0
  }
  convolution_param {
    num_output: 112
    kernel_size: 1
    weight_filler {
      type: "xavier"
      std: 0.09
    }
    bias_filler {
      type: "constant"
      value: 0.2
    }
  }
}
layer {
  name: "inception_4b/relu_3x3_reduce"
  type: "ReLU"
  bottom: "inception_4b/3x3_reduce"
  top: "inception_4b/3x3_reduce"
}
layer {
  name: "inception_4b/3x3"
  type: "Convolution"
  bottom: "inception_4b/3x3_reduce"
  top: "inception_4b/3x3"
  param {
    lr_mult: 1
    decay_mult: 1
  }
  param {
    lr_mult: 2
    decay_mult: 0
  }
  convolution_param {
    num_output: 224
    pad: 1
    kernel_size: 3
    weight_filler {
      type: "xavier"
      std: 0.03
    }
    bias_filler {
      type: "constant"
      value: 0.2
    }
  }
}
layer {
  name: "inception_4b/relu_3x3"
  type: "ReLU"
  bottom: "inception_4b/3x3"
  top: "inception_4b/3x3"
}
layer {
  name: "inception_4b/5x5_reduce"
  type: "Convolution"
  bottom: "inception_4a/output"
  top: "inception_4b/5x5_reduce"
  param {
    lr_mult: 1
    decay_mult: 1
  }
  param {
    lr_mult: 2
    decay_mult: 0
  }
  convolution_param {
    num_output: 24
    kernel_size: 1
    weight_filler {
      type: "xavier"
      std: 0.2
    }
    bias_filler {
      type: "constant"
      value: 0.2
    }
  }
}
layer {
  name: "inception_4b/relu_5x5_reduce"
  type: "ReLU"
  bottom: "inception_4b/5x5_reduce"
  top: "inception_4b/5x5_reduce"
}
layer {
  name: "inception_4b/5x5"
  type: "Convolution"
  bottom: "inception_4b/5x5_reduce"
  top: "inception_4b/5x5"
  param {
    lr_mult: 1
    decay_mult: 1
  }
  param {
    lr_mult: 2
    decay_mult: 0
  }
  convolution_param {
    num_output: 64
    pad: 2
    kernel_size: 5
    weight_filler {
      type: "xavier"
      std: 0.03
    }
    bias_filler {
      type: "constant"
      value: 0.2
    }
  }
}
layer {
  name: "inception_4b/relu_5x5"
  type: "ReLU"
  bottom: "inception_4b/5x5"
  top: "inception_4b/5x5"
}
layer {
  name: "inception_4b/pool"
  type: "Pooling"
  bottom: "inception_4a/output"
  top: "inception_4b/pool"
  pooling_param {
    pool: MAX
    kernel_size: 3
    stride: 1
    pad: 1
  }
}
layer {
  name: "inception_4b/pool_proj"
  type: "Convolution"
  bottom: "inception_4b/pool"
  top: "inception_4b/pool_proj"
  param {
    lr_mult: 1
    decay_mult: 1
  }
  param {
    lr_mult: 2
    decay_mult: 0
  }
  convolution_param {
    num_output: 64
    kernel_size: 1
    weight_filler {
      type: "xavier"
      std: 0.1
    }
    bias_filler {
      type: "constant"
      value: 0.2
    }
  }
}
layer {
  name: "inception_4b/relu_pool_proj"
  type: "ReLU"
  bottom: "inception_4b/pool_proj"
  top: "inception_4b/pool_proj"
}
layer {
  name: "inception_4b/output"
  type: "Concat"
  bottom: "inception_4b/1x1"
  bottom: "inception_4b/3x3"
  bottom: "inception_4b/5x5"
  bottom: "inception_4b/pool_proj"
  top: "inception_4b/output"
}
layer {
  name: "inception_4c/1x1"
  type: "Convolution"
  bottom: "inception_4b/output"
  top: "inception_4c/1x1"
  param {
    lr_mult: 1
    decay_mult: 1
  }
  param {
    lr_mult: 2
    decay_mult: 0
  }
  convolution_param {
    num_output: 128
    kernel_size: 1
    weight_filler {
      type: "xavier"
      std: 0.03
    }
    bias_filler {
      type: "constant"
      value: 0.2
    }
  }
}
layer {
  name: "inception_4c/relu_1x1"
  type: "ReLU"
  bottom: "inception_4c/1x1"
  top: "inception_4c/1x1"
}
layer {
  name: "inception_4c/3x3_reduce"
  type: "Convolution"
  bottom: "inception_4b/output"
  top: "inception_4c/3x3_reduce"
  param {
    lr_mult: 1
    decay_mult: 1
  }
  param {
    lr_mult: 2
    decay_mult: 0
  }
  convolution_param {
    num_output: 128
    kernel_size: 1
    weight_filler {
      type: "xavier"
      std: 0.09
    }
    bias_filler {
      type: "constant"
      value: 0.2
    }
  }
}
layer {
  name: "inception_4c/relu_3x3_reduce"
  type: "ReLU"
  bottom: "inception_4c/3x3_reduce"
  top: "inception_4c/3x3_reduce"
}
layer {
  name: "inception_4c/3x3"
  type: "Convolution"
  bottom: "inception_4c/3x3_reduce"
  top: "inception_4c/3x3"
  param {
    lr_mult: 1
    decay_mult: 1
  }
  param {
    lr_mult: 2
    decay_mult: 0
  }
  convolution_param {
    num_output: 256
    pad: 1
    kernel_size: 3
    weight_filler {
      type: "xavier"
      std: 0.03
    }
    bias_filler {
      type: "constant"
      value: 0.2
    }
  }
}
layer {
  name: "inception_4c/relu_3x3"
  type: "ReLU"
  bottom: "inception_4c/3x3"
  top: "inception_4c/3x3"
}
layer {
  name: "inception_4c/5x5_reduce"
  type: "Convolution"
  bottom: "inception_4b/output"
  top: "inception_4c/5x5_reduce"
  param {
    lr_mult: 1
    decay_mult: 1
  }
  param {
    lr_mult: 2
    decay_mult: 0
  }
  convolution_param {
    num_output: 24
    kernel_size: 1
    weight_filler {
      type: "xavier"
      std: 0.2
    }
    bias_filler {
      type: "constant"
      value: 0.2
    }
  }
}
layer {
  name: "inception_4c/relu_5x5_reduce"
  type: "ReLU"
  bottom: "inception_4c/5x5_reduce"
  top: "inception_4c/5x5_reduce"
}
layer {
  name: "inception_4c/5x5"
  type: "Convolution"
  bottom: "inception_4c/5x5_reduce"
  top: "inception_4c/5x5"
  param {
    lr_mult: 1
    decay_mult: 1
  }
  param {
    lr_mult: 2
    decay_mult: 0
  }
  convolution_param {
    num_output: 64
    pad: 2
    kernel_size: 5
    weight_filler {
      type: "xavier"
      std: 0.03
    }
    bias_filler {
      type: "constant"
      value: 0.2
    }
  }
}
layer {
  name: "inception_4c/relu_5x5"
  type: "ReLU"
  bottom: "inception_4c/5x5"
  top: "inception_4c/5x5"
}
layer {
  name: "inception_4c/pool"
  type: "Pooling"
  bottom: "inception_4b/output"
  top: "inception_4c/pool"
  pooling_param {
    pool: MAX
    kernel_size: 3
    stride: 1
    pad: 1
  }
}
layer {
  name: "inception_4c/pool_proj"
  type: "Convolution"
  bottom: "inception_4c/pool"
  top: "inception_4c/pool_proj"
  param {
    lr_mult: 1
    decay_mult: 1
  }
  param {
    lr_mult: 2
    decay_mult: 0
  }
  convolution_param {
    num_output: 64
    kernel_size: 1
    weight_filler {
      type: "xavier"
      std: 0.1
    }
    bias_filler {
      type: "constant"
      value: 0.2
    }
  }
}
layer {
  name: "inception_4c/relu_pool_proj"
  type: "ReLU"
  bottom: "inception_4c/pool_proj"
  top: "inception_4c/pool_proj"
}
layer {
  name: "inception_4c/output"
  type: "Concat"
  bottom: "inception_4c/1x1"
  bottom: "inception_4c/3x3"
  bottom: "inception_4c/5x5"
  bottom: "inception_4c/pool_proj"
  top: "inception_4c/output"
}
layer {
  name: "inception_4d/1x1"
  type: "Convolution"
  bottom: "inception_4c/output"
  top: "inception_4d/1x1"
  param {
    lr_mult: 1
    decay_mult: 1
  }
  param {
    lr_mult: 2
    decay_mult: 0
  }
  convolution_param {
    num_output: 112
    kernel_size: 1
    weight_filler {
      type: "xavier"
      std: 0.03
    }
    bias_filler {
      type: "constant"
      value: 0.2
    }
  }
}
layer {
  name: "inception_4d/relu_1x1"
  type: "ReLU"
  bottom: "inception_4d/1x1"
  top: "inception_4d/1x1"
}
layer {
  name: "inception_4d/3x3_reduce"
  type: "Convolution"
  bottom: "inception_4c/output"
  top: "inception_4d/3x3_reduce"
  param {
    lr_mult: 1
    decay_mult: 1
  }
  param {
    lr_mult: 2
    decay_mult: 0
  }
  convolution_param {
    num_output: 144
    kernel_size: 1
    weight_filler {
      type: "xavier"
      std: 0.09
    }
    bias_filler {
      type: "constant"
      value: 0.2
    }
  }
}
layer {
  name: "inception_4d/relu_3x3_reduce"
  type: "ReLU"
  bottom: "inception_4d/3x3_reduce"
  top: "inception_4d/3x3_reduce"
}
layer {
  name: "inception_4d/3x3"
  type: "Convolution"
  bottom: "inception_4d/3x3_reduce"
  top: "inception_4d/3x3"
  param {
    lr_mult: 1
    decay_mult: 1
  }
  param {
    lr_mult: 2
    decay_mult: 0
  }
  convolution_param {
    num_output: 288
    pad: 1
    kernel_size: 3
    weight_filler {
      type: "xavier"
      std: 0.03
    }
    bias_filler {
      type: "constant"
      value: 0.2
    }
  }
}
layer {
  name: "inception_4d/relu_3x3"
  type: "ReLU"
  bottom: "inception_4d/3x3"
  top: "inception_4d/3x3"
}
layer {
  name: "inception_4d/5x5_reduce"
  type: "Convolution"
  bottom: "inception_4c/output"
  top: "inception_4d/5x5_reduce"
  param {
    lr_mult: 1
    decay_mult: 1
  }
  param {
    lr_mult: 2
    decay_mult: 0
  }
  convolution_param {
    num_output: 32
    kernel_size: 1
    weight_filler {
      type: "xavier"
      std: 0.2
    }
    bias_filler {
      type: "constant"
      value: 0.2
    }
  }
}
layer {
  name: "inception_4d/relu_5x5_reduce"
  type: "ReLU"
  bottom: "inception_4d/5x5_reduce"
  top: "inception_4d/5x5_reduce"
}
layer {
  name: "inception_4d/5x5"
  type: "Convolution"
  bottom: "inception_4d/5x5_reduce"
  top: "inception_4d/5x5"
  param {
    lr_mult: 1
    decay_mult: 1
  }
  param {
    lr_mult: 2
    decay_mult: 0
  }
  convolution_param {
    num_output: 64
    pad: 2
    kernel_size: 5
    weight_filler {
      type: "xavier"
      std: 0.03
    }
    bias_filler {
      type: "constant"
      value: 0.2
    }
  }
}
layer {
  name: "inception_4d/relu_5x5"
  type: "ReLU"
  bottom: "inception_4d/5x5"
  top: "inception_4d/5x5"
}
layer {
  name: "inception_4d/pool"
  type: "Pooling"
  bottom: "inception_4c/output"
  top: "inception_4d/pool"
  pooling_param {
    pool: MAX
    kernel_size: 3
    stride: 1
    pad: 1
  }
}
layer {
  name: "inception_4d/pool_proj"
  type: "Convolution"
  bottom: "inception_4d/pool"
  top: "inception_4d/pool_proj"
  param {
    lr_mult: 1
    decay_mult: 1
  }
  param {
    lr_mult: 2
    decay_mult: 0
  }
  convolution_param {
    num_output: 64
    kernel_size: 1
    weight_filler {
      type: "xavier"
      std: 0.1
    }
    bias_filler {
      type: "constant"
      value: 0.2
    }
  }
}
layer {
  name: "inception_4d/relu_pool_proj"
  type: "ReLU"
  bottom: "inception_4d/pool_proj"
  top: "inception_4d/pool_proj"
}
layer {
  name: "inception_4d/output"
  type: "Concat"
  bottom: "inception_4d/1x1"
  bottom: "inception_4d/3x3"
  bottom: "inception_4d/5x5"
  bottom: "inception_4d/pool_proj"
  top: "inception_4d/output"
}
layer {
  name: "loss2/ave_pool"
  type: "Pooling"
  bottom: "inception_4d/output"
  top: "loss2/ave_pool"
  pooling_param {
    pool: AVE
    kernel_size: 5
    stride: 3
  }
}
layer {
  name: "loss2/conv"
  type: "Convolution"
  bottom: "loss2/ave_pool"
  top: "loss2/conv"
  param {
    lr_mult: 1
    decay_mult: 1
  }
  param {
    lr_mult: 2
    decay_mult: 0
  }
  convolution_param {
    num_output: 128
    kernel_size: 1
    weight_filler {
      type: "xavier"
      std: 0.08
    }
    bias_filler {
      type: "constant"
      value: 0.2
    }
  }
}
layer {
  name: "loss2/relu_conv"
  type: "ReLU"
  bottom: "loss2/conv"
  top: "loss2/conv"
}
layer {
  name: "loss2/fc"
  type: "InnerProduct"
  bottom: "loss2/conv"
  top: "loss2/fc"
  param {
    lr_mult: 1
    decay_mult: 1
  }
  param {
    lr_mult: 2
    decay_mult: 0
  }
  inner_product_param {
    num_output: 1024
    weight_filler {
      type: "xavier"
      std: 0.02
    }
    bias_filler {
      type: "constant"
      value: 0.2
    }
  }
}
layer {
  name: "loss2/relu_fc"
  type: "ReLU"
  bottom: "loss2/fc"
  top: "loss2/fc"
}
layer {
  name: "loss2/drop_fc"
  type: "Dropout"
  bottom: "loss2/fc"
  top: "loss2/fc"
  dropout_param {
    dropout_ratio: 0.7
  }
}
layer {
  name: "loss2/classifier_plantvillage"
  type: "InnerProduct"
  bottom: "loss2/fc"
  top: "loss2/classifier_plantvillage"
  param {
    lr_mult: 1
    decay_mult: 1
  }
  param {
    lr_mult: 2
    decay_mult: 0
  }
  inner_product_param {
    num_output: 38
    weight_filler {
      type: "xavier"
      std: 0.0009765625
    }
    bias_filler {
      type: "constant"
      value: 0
    }
  }
}
layer {
  name: "inception_4e/1x1"
  type: "Convolution"
  bottom: "inception_4d/output"
  top: "inception_4e/1x1"
  param {
    lr_mult: 1
    decay_mult: 1
  }
  param {
    lr_mult: 2
    decay_mult: 0
  }
  convolution_param {
    num_output: 256
    kernel_size: 1
    weight_filler {
      type: "xavier"
      std: 0.03
    }
    bias_filler {
      type: "constant"
      value: 0.2
    }
  }
}
layer {
  name: "inception_4e/relu_1x1"
  type: "ReLU"
  bottom: "inception_4e/1x1"
  top: "inception_4e/1x1"
}
layer {
  name: "inception_4e/3x3_reduce"
  type: "Convolution"
  bottom: "inception_4d/output"
  top: "inception_4e/3x3_reduce"
  param {
    lr_mult: 1
    decay_mult: 1
  }
  param {
    lr_mult: 2
    decay_mult: 0
  }
  convolution_param {
    num_output: 160
    kernel_size: 1
    weight_filler {
      type: "xavier"
      std: 0.09
    }
    bias_filler {
      type: "constant"
      value: 0.2
    }
  }
}
layer {
  name: "inception_4e/relu_3x3_reduce"
  type: "ReLU"
  bottom: "inception_4e/3x3_reduce"
  top: "inception_4e/3x3_reduce"
}
layer {
  name: "inception_4e/3x3"
  type: "Convolution"
  bottom: "inception_4e/3x3_reduce"
  top: "inception_4e/3x3"
  param {
    lr_mult: 1
    decay_mult: 1
  }
  param {
    lr_mult: 2
    decay_mult: 0
  }
  convolution_param {
    num_output: 320
    pad: 1
    kernel_size: 3
    weight_filler {
      type: "xavier"
      std: 0.03
    }
    bias_filler {
      type: "constant"
      value: 0.2
    }
  }
}
layer {
  name: "inception_4e/relu_3x3"
  type: "ReLU"
  bottom: "inception_4e/3x3"
  top: "inception_4e/3x3"
}
layer {
  name: "inception_4e/5x5_reduce"
  type: "Convolution"
  bottom: "inception_4d/output"
  top: "inception_4e/5x5_reduce"
  param {
    lr_mult: 1
    decay_mult: 1
  }
  param {
    lr_mult: 2
    decay_mult: 0
  }
  convolution_param {
    num_output: 32
    kernel_size: 1
    weight_filler {
      type: "xavier"
      std: 0.2
    }
    bias_filler {
      type: "constant"
      value: 0.2
    }
  }
}
layer {
  name: "inception_4e/relu_5x5_reduce"
  type: "ReLU"
  bottom: "inception_4e/5x5_reduce"
  top: "inception_4e/5x5_reduce"
}
layer {
  name: "inception_4e/5x5"
  type: "Convolution"
  bottom: "inception_4e/5x5_reduce"
  top: "inception_4e/
I0403 13:42:49.510395 32725 layer_factory.hpp:77] Creating layer data
I0403 13:42:49.511034 32725 net.cpp:91] Creating Layer data
I0403 13:42:49.511072 32725 net.cpp:399] data -> data
I0403 13:42:49.511126 32725 net.cpp:399] data -> label
I0403 13:42:49.511164 32725 data_transformer.cpp:25] Loading mean file from: /home/mohanty/data/final_dataset/lmdb/grayscale-20-80/mean.binaryproto
I0403 13:42:49.514231 32728 db_lmdb.cpp:38] Opened lmdb /home/mohanty/data/final_dataset/lmdb/grayscale-20-80/test_db
I0403 13:42:49.525861 32725 data_layer.cpp:41] output data size: 24,3,224,224
I0403 13:42:49.553448 32725 net.cpp:141] Setting up data
I0403 13:42:49.553551 32725 net.cpp:148] Top shape: 24 3 224 224 (3612672)
I0403 13:42:49.553575 32725 net.cpp:148] Top shape: 24 (24)
I0403 13:42:49.553591 32725 net.cpp:156] Memory required for data: 14450784
I0403 13:42:49.553618 32725 layer_factory.hpp:77] Creating layer label_data_1_split
I0403 13:42:49.553647 32725 net.cpp:91] Creating Layer label_data_1_split
I0403 13:42:49.553665 32725 net.cpp:425] label_data_1_split <- label
I0403 13:42:49.553697 32725 net.cpp:399] label_data_1_split -> label_data_1_split_0
I0403 13:42:49.553726 32725 net.cpp:399] label_data_1_split -> label_data_1_split_1
I0403 13:42:49.553748 32725 net.cpp:399] label_data_1_split -> label_data_1_split_2
I0403 13:42:49.553771 32725 net.cpp:399] label_data_1_split -> label_data_1_split_3
I0403 13:42:49.553791 32725 net.cpp:399] label_data_1_split -> label_data_1_split_4
I0403 13:42:49.553812 32725 net.cpp:399] label_data_1_split -> label_data_1_split_5
I0403 13:42:49.553833 32725 net.cpp:399] label_data_1_split -> label_data_1_split_6
I0403 13:42:49.553854 32725 net.cpp:399] label_data_1_split -> label_data_1_split_7
I0403 13:42:49.553876 32725 net.cpp:399] label_data_1_split -> label_data_1_split_8
I0403 13:42:49.553899 32725 net.cpp:399] label_data_1_split -> label_data_1_split_9
I0403 13:42:49.554019 32725 net.cpp:141] Setting up label_data_1_split
I0403 13:42:49.554044 32725 net.cpp:148] Top shape: 24 (24)
I0403 13:42:49.554061 32725 net.cpp:148] Top shape: 24 (24)
I0403 13:42:49.554078 32725 net.cpp:148] Top shape: 24 (24)
I0403 13:42:49.554095 32725 net.cpp:148] Top shape: 24 (24)
I0403 13:42:49.554111 32725 net.cpp:148] Top shape: 24 (24)
I0403 13:42:49.554127 32725 net.cpp:148] Top shape: 24 (24)
I0403 13:42:49.554144 32725 net.cpp:148] Top shape: 24 (24)
I0403 13:42:49.554160 32725 net.cpp:148] Top shape: 24 (24)
I0403 13:42:49.554177 32725 net.cpp:148] Top shape: 24 (24)
I0403 13:42:49.554194 32725 net.cpp:148] Top shape: 24 (24)
I0403 13:42:49.554245 32725 net.cpp:156] Memory required for data: 14451744
I0403 13:42:49.554263 32725 layer_factory.hpp:77] Creating layer conv1/7x7_s2
I0403 13:42:49.554297 32725 net.cpp:91] Creating Layer conv1/7x7_s2
I0403 13:42:49.554316 32725 net.cpp:425] conv1/7x7_s2 <- data
I0403 13:42:49.554337 32725 net.cpp:399] conv1/7x7_s2 -> conv1/7x7_s2
I0403 13:42:49.696766 32725 net.cpp:141] Setting up conv1/7x7_s2
I0403 13:42:49.696858 32725 net.cpp:148] Top shape: 24 64 112 112 (19267584)
I0403 13:42:49.696877 32725 net.cpp:156] Memory required for data: 91522080
I0403 13:42:49.696909 32725 layer_factory.hpp:77] Creating layer conv1/relu_7x7
I0403 13:42:49.696941 32725 net.cpp:91] Creating Layer conv1/relu_7x7
I0403 13:42:49.696961 32725 net.cpp:425] conv1/relu_7x7 <- conv1/7x7_s2
I0403 13:42:49.696982 32725 net.cpp:386] conv1/relu_7x7 -> conv1/7x7_s2 (in-place)
I0403 13:42:49.697274 32725 net.cpp:141] Setting up conv1/relu_7x7
I0403 13:42:49.697302 32725 net.cpp:148] Top shape: 24 64 112 112 (19267584)
I0403 13:42:49.697319 32725 net.cpp:156] Memory required for data: 168592416
I0403 13:42:49.697335 32725 layer_factory.hpp:77] Creating layer pool1/3x3_s2
I0403 13:42:49.697362 32725 net.cpp:91] Creating Layer pool1/3x3_s2
I0403 13:42:49.697381 32725 net.cpp:425] pool1/3x3_s2 <- conv1/7x7_s2
I0403 13:42:49.697402 32725 net.cpp:399] pool1/3x3_s2 -> pool1/3x3_s2
I0403 13:42:49.697485 32725 net.cpp:141] Setting up pool1/3x3_s2
I0403 13:42:49.697511 32725 net.cpp:148] Top shape: 24 64 56 56 (4816896)
I0403 13:42:49.697526 32725 net.cpp:156] Memory required for data: 187860000
I0403 13:42:49.697543 32725 layer_factory.hpp:77] Creating layer pool1/norm1
I0403 13:42:49.697571 32725 net.cpp:91] Creating Layer pool1/norm1
I0403 13:42:49.697592 32725 net.cpp:425] pool1/norm1 <- pool1/3x3_s2
I0403 13:42:49.697610 32725 net.cpp:399] pool1/norm1 -> pool1/norm1
I0403 13:42:49.697937 32725 net.cpp:141] Setting up pool1/norm1
I0403 13:42:49.697964 32725 net.cpp:148] Top shape: 24 64 56 56 (4816896)
I0403 13:42:49.697981 32725 net.cpp:156] Memory required for data: 207127584
I0403 13:42:49.697996 32725 layer_factory.hpp:77] Creating layer conv2/3x3_reduce
I0403 13:42:49.698027 32725 net.cpp:91] Creating Layer conv2/3x3_reduce
I0403 13:42:49.698086 32725 net.cpp:425] conv2/3x3_reduce <- pool1/norm1
I0403 13:42:49.698109 32725 net.cpp:399] conv2/3x3_reduce -> conv2/3x3_reduce
I0403 13:42:49.699581 32725 net.cpp:141] Setting up conv2/3x3_reduce
I0403 13:42:49.699615 32725 net.cpp:148] Top shape: 24 64 56 56 (4816896)
I0403 13:42:49.699633 32725 net.cpp:156] Memory required for data: 226395168
I0403 13:42:49.699656 32725 layer_factory.hpp:77] Creating layer conv2/relu_3x3_reduce
I0403 13:42:49.699676 32725 net.cpp:91] Creating Layer conv2/relu_3x3_reduce
I0403 13:42:49.699733 32725 net.cpp:425] conv2/relu_3x3_reduce <- conv2/3x3_reduce
I0403 13:42:49.699756 32725 net.cpp:386] conv2/relu_3x3_reduce -> conv2/3x3_reduce (in-place)
I0403 13:42:49.700047 32725 net.cpp:141] Setting up conv2/relu_3x3_reduce
I0403 13:42:49.700076 32725 net.cpp:148] Top shape: 24 64 56 56 (4816896)
I0403 13:42:49.700093 32725 net.cpp:156] Memory required for data: 245662752
I0403 13:42:49.700109 32725 layer_factory.hpp:77] Creating layer conv2/3x3
I0403 13:42:49.700134 32725 net.cpp:91] Creating Layer conv2/3x3
I0403 13:42:49.700153 32725 net.cpp:425] conv2/3x3 <- conv2/3x3_reduce
I0403 13:42:49.700173 32725 net.cpp:399] conv2/3x3 -> conv2/3x3
I0403 13:42:49.702605 32725 net.cpp:141] Setting up conv2/3x3
I0403 13:42:49.702641 32725 net.cpp:148] Top shape: 24 192 56 56 (14450688)
I0403 13:42:49.702661 32725 net.cpp:156] Memory required for data: 303465504
I0403 13:42:49.702685 32725 layer_factory.hpp:77] Creating layer conv2/relu_3x3
I0403 13:42:49.702705 32725 net.cpp:91] Creating Layer conv2/relu_3x3
I0403 13:42:49.702724 32725 net.cpp:425] conv2/relu_3x3 <- conv2/3x3
I0403 13:42:49.702746 32725 net.cpp:386] conv2/relu_3x3 -> conv2/3x3 (in-place)
I0403 13:42:49.702934 32725 net.cpp:141] Setting up conv2/relu_3x3
I0403 13:42:49.702961 32725 net.cpp:148] Top shape: 24 192 56 56 (14450688)
I0403 13:42:49.703009 32725 net.cpp:156] Memory required for data: 361268256
I0403 13:42:49.703027 32725 layer_factory.hpp:77] Creating layer conv2/norm2
I0403 13:42:49.703048 32725 net.cpp:91] Creating Layer conv2/norm2
I0403 13:42:49.703065 32725 net.cpp:425] conv2/norm2 <- conv2/3x3
I0403 13:42:49.703084 32725 net.cpp:399] conv2/norm2 -> conv2/norm2
I0403 13:42:49.703444 32725 net.cpp:141] Setting up conv2/norm2
I0403 13:42:49.703474 32725 net.cpp:148] Top shape: 24 192 56 56 (14450688)
I0403 13:42:49.703490 32725 net.cpp:156] Memory required for data: 419071008
I0403 13:42:49.703505 32725 layer_factory.hpp:77] Creating layer pool2/3x3_s2
I0403 13:42:49.703529 32725 net.cpp:91] Creating Layer pool2/3x3_s2
I0403 13:42:49.703547 32725 net.cpp:425] pool2/3x3_s2 <- conv2/norm2
I0403 13:42:49.703567 32725 net.cpp:399] pool2/3x3_s2 -> pool2/3x3_s2
I0403 13:42:49.703624 32725 net.cpp:141] Setting up pool2/3x3_s2
I0403 13:42:49.703649 32725 net.cpp:148] Top shape: 24 192 28 28 (3612672)
I0403 13:42:49.703663 32725 net.cpp:156] Memory required for data: 433521696
I0403 13:42:49.703680 32725 layer_factory.hpp:77] Creating layer pool2/3x3_s2_pool2/3x3_s2_0_split
I0403 13:42:49.703698 32725 net.cpp:91] Creating Layer pool2/3x3_s2_pool2/3x3_s2_0_split
I0403 13:42:49.703716 32725 net.cpp:425] pool2/3x3_s2_pool2/3x3_s2_0_split <- pool2/3x3_s2
I0403 13:42:49.703737 32725 net.cpp:399] pool2/3x3_s2_pool2/3x3_s2_0_split -> pool2/3x3_s2_pool2/3x3_s2_0_split_0
I0403 13:42:49.703758 32725 net.cpp:399] pool2/3x3_s2_pool2/3x3_s2_0_split -> pool2/3x3_s2_pool2/3x3_s2_0_split_1
I0403 13:42:49.703779 32725 net.cpp:399] pool2/3x3_s2_pool2/3x3_s2_0_split -> pool2/3x3_s2_pool2/3x3_s2_0_split_2
I0403 13:42:49.703800 32725 net.cpp:399] pool2/3x3_s2_pool2/3x3_s2_0_split -> pool2/3x3_s2_pool2/3x3_s2_0_split_3
I0403 13:42:49.703876 32725 net.cpp:141] Setting up pool2/3x3_s2_pool2/3x3_s2_0_split
I0403 13:42:49.703899 32725 net.cpp:148] Top shape: 24 192 28 28 (3612672)
I0403 13:42:49.703917 32725 net.cpp:148] Top shape: 24 192 28 28 (3612672)
I0403 13:42:49.703934 32725 net.cpp:148] Top shape: 24 192 28 28 (3612672)
I0403 13:42:49.703950 32725 net.cpp:148] Top shape: 24 192 28 28 (3612672)
I0403 13:42:49.703965 32725 net.cpp:156] Memory required for data: 491324448
I0403 13:42:49.703981 32725 layer_factory.hpp:77] Creating layer inception_3a/1x1
I0403 13:42:49.704005 32725 net.cpp:91] Creating Layer inception_3a/1x1
I0403 13:42:49.704023 32725 net.cpp:425] inception_3a/1x1 <- pool2/3x3_s2_pool2/3x3_s2_0_split_0
I0403 13:42:49.704046 32725 net.cpp:399] inception_3a/1x1 -> inception_3a/1x1
I0403 13:42:49.705730 32725 net.cpp:141] Setting up inception_3a/1x1
I0403 13:42:49.705765 32725 net.cpp:148] Top shape: 24 64 28 28 (1204224)
I0403 13:42:49.705783 32725 net.cpp:156] Memory required for data: 496141344
I0403 13:42:49.705804 32725 layer_factory.hpp:77] Creating layer inception_3a/relu_1x1
I0403 13:42:49.705823 32725 net.cpp:91] Creating Layer inception_3a/relu_1x1
I0403 13:42:49.705842 32725 net.cpp:425] inception_3a/relu_1x1 <- inception_3a/1x1
I0403 13:42:49.705859 32725 net.cpp:386] inception_3a/relu_1x1 -> inception_3a/1x1 (in-place)
I0403 13:42:49.706044 32725 net.cpp:141] Setting up inception_3a/relu_1x1
I0403 13:42:49.706073 32725 net.cpp:148] Top shape: 24 64 28 28 (1204224)
I0403 13:42:49.706090 32725 net.cpp:156] Memory required for data: 500958240
I0403 13:42:49.706105 32725 layer_factory.hpp:77] Creating layer inception_3a/3x3_reduce
I0403 13:42:49.706130 32725 net.cpp:91] Creating Layer inception_3a/3x3_reduce
I0403 13:42:49.706148 32725 net.cpp:425] inception_3a/3x3_reduce <- pool2/3x3_s2_pool2/3x3_s2_0_split_1
I0403 13:42:49.706171 32725 net.cpp:399] inception_3a/3x3_reduce -> inception_3a/3x3_reduce
I0403 13:42:49.707978 32725 net.cpp:141] Setting up inception_3a/3x3_reduce
I0403 13:42:49.708011 32725 net.cpp:148] Top shape: 24 96 28 28 (1806336)
I0403 13:42:49.708029 32725 net.cpp:156] Memory required for data: 508183584
I0403 13:42:49.708055 32725 layer_factory.hpp:77] Creating layer inception_3a/relu_3x3_reduce
I0403 13:42:49.708094 32725 net.cpp:91] Creating Layer inception_3a/relu_3x3_reduce
I0403 13:42:49.708113 32725 net.cpp:425] inception_3a/relu_3x3_reduce <- inception_3a/3x3_reduce
I0403 13:42:49.708137 32725 net.cpp:386] inception_3a/relu_3x3_reduce -> inception_3a/3x3_reduce (in-place)
I0403 13:42:49.708336 32725 net.cpp:141] Setting up inception_3a/relu_3x3_reduce
I0403 13:42:49.708364 32725 net.cpp:148] Top shape: 24 96 28 28 (1806336)
I0403 13:42:49.708381 32725 net.cpp:156] Memory required for data: 515408928
I0403 13:42:49.708398 32725 layer_factory.hpp:77] Creating layer inception_3a/3x3
I0403 13:42:49.708423 32725 net.cpp:91] Creating Layer inception_3a/3x3
I0403 13:42:49.708444 32725 net.cpp:425] inception_3a/3x3 <- inception_3a/3x3_reduce
I0403 13:42:49.708466 32725 net.cpp:399] inception_3a/3x3 -> inception_3a/3x3
I0403 13:42:49.710247 32725 net.cpp:141] Setting up inception_3a/3x3
I0403 13:42:49.710280 32725 net.cpp:148] Top shape: 24 128 28 28 (2408448)
I0403 13:42:49.710299 32725 net.cpp:156] Memory required for data: 525042720
I0403 13:42:49.710319 32725 layer_factory.hpp:77] Creating layer inception_3a/relu_3x3
I0403 13:42:49.710338 32725 net.cpp:91] Creating Layer inception_3a/relu_3x3
I0403 13:42:49.710356 32725 net.cpp:425] inception_3a/relu_3x3 <- inception_3a/3x3
I0403 13:42:49.710378 32725 net.cpp:386] inception_3a/relu_3x3 -> inception_3a/3x3 (in-place)
I0403 13:42:49.710692 32725 net.cpp:141] Setting up inception_3a/relu_3x3
I0403 13:42:49.710723 32725 net.cpp:148] Top shape: 24 128 28 28 (2408448)
I0403 13:42:49.710741 32725 net.cpp:156] Memory required for data: 534676512
I0403 13:42:49.710757 32725 layer_factory.hpp:77] Creating layer inception_3a/5x5_reduce
I0403 13:42:49.710783 32725 net.cpp:91] Creating Layer inception_3a/5x5_reduce
I0403 13:42:49.710803 32725 net.cpp:425] inception_3a/5x5_reduce <- pool2/3x3_s2_pool2/3x3_s2_0_split_2
I0403 13:42:49.710825 32725 net.cpp:399] inception_3a/5x5_reduce -> inception_3a/5x5_reduce
I0403 13:42:49.711843 32725 net.cpp:141] Setting up inception_3a/5x5_reduce
I0403 13:42:49.711871 32725 net.cpp:148] Top shape: 24 16 28 28 (301056)
I0403 13:42:49.711887 32725 net.cpp:156] Memory required for data: 535880736
I0403 13:42:49.711907 32725 layer_factory.hpp:77] Creating layer inception_3a/relu_5x5_reduce
I0403 13:42:49.711926 32725 net.cpp:91] Creating Layer inception_3a/relu_5x5_reduce
I0403 13:42:49.711943 32725 net.cpp:425] inception_3a/relu_5x5_reduce <- inception_3a/5x5_reduce
I0403 13:42:49.711966 32725 net.cpp:386] inception_3a/relu_5x5_reduce -> inception_3a/5x5_reduce (in-place)
I0403 13:42:49.712311 32725 net.cpp:141] Setting up inception_3a/relu_5x5_reduce
I0403 13:42:49.712339 32725 net.cpp:148] Top shape: 24 16 28 28 (301056)
I0403 13:42:49.712355 32725 net.cpp:156] Memory required for data: 537084960
I0403 13:42:49.712373 32725 layer_factory.hpp:77] Creating layer inception_3a/5x5
I0403 13:42:49.712396 32725 net.cpp:91] Creating Layer inception_3a/5x5
I0403 13:42:49.712415 32725 net.cpp:425] inception_3a/5x5 <- inception_3a/5x5_reduce
I0403 13:42:49.712440 32725 net.cpp:399] inception_3a/5x5 -> inception_3a/5x5
I0403 13:42:49.713522 32725 net.cpp:141] Setting up inception_3a/5x5
I0403 13:42:49.713557 32725 net.cpp:148] Top shape: 24 32 28 28 (602112)
I0403 13:42:49.713577 32725 net.cpp:156] Memory required for data: 539493408
I0403 13:42:49.713598 32725 layer_factory.hpp:77] Creating layer inception_3a/relu_5x5
I0403 13:42:49.713618 32725 net.cpp:91] Creating Layer inception_3a/relu_5x5
I0403 13:42:49.713635 32725 net.cpp:425] inception_3a/relu_5x5 <- inception_3a/5x5
I0403 13:42:49.713654 32725 net.cpp:386] inception_3a/relu_5x5 -> inception_3a/5x5 (in-place)
I0403 13:42:49.713871 32725 net.cpp:141] Setting up inception_3a/relu_5x5
I0403 13:42:49.713898 32725 net.cpp:148] Top shape: 24 32 28 28 (602112)
I0403 13:42:49.713915 32725 net.cpp:156] Memory required for data: 541901856
I0403 13:42:49.713932 32725 layer_factory.hpp:77] Creating layer inception_3a/pool
I0403 13:42:49.713951 32725 net.cpp:91] Creating Layer inception_3a/pool
I0403 13:42:49.713985 32725 net.cpp:425] inception_3a/pool <- pool2/3x3_s2_pool2/3x3_s2_0_split_3
I0403 13:42:49.714010 32725 net.cpp:399] inception_3a/pool -> inception_3a/pool
I0403 13:42:49.714071 32725 net.cpp:141] Setting up inception_3a/pool
I0403 13:42:49.714100 32725 net.cpp:148] Top shape: 24 192 28 28 (3612672)
I0403 13:42:49.714118 32725 net.cpp:156] Memory required for data: 556352544
I0403 13:42:49.714133 32725 layer_factory.hpp:77] Creating layer inception_3a/pool_proj
I0403 13:42:49.714157 32725 net.cpp:91] Creating Layer inception_3a/pool_proj
I0403 13:42:49.714176 32725 net.cpp:425] inception_3a/pool_proj <- inception_3a/pool
I0403 13:42:49.714196 32725 net.cpp:399] inception_3a/pool_proj -> inception_3a/pool_proj
I0403 13:42:49.715224 32725 net.cpp:141] Setting up inception_3a/pool_proj
I0403 13:42:49.715255 32725 net.cpp:148] Top shape: 24 32 28 28 (602112)
I0403 13:42:49.715273 32725 net.cpp:156] Memory required for data: 558760992
I0403 13:42:49.715301 32725 layer_factory.hpp:77] Creating layer inception_3a/relu_pool_proj
I0403 13:42:49.715322 32725 net.cpp:91] Creating Layer inception_3a/relu_pool_proj
I0403 13:42:49.715342 32725 net.cpp:425] inception_3a/relu_pool_proj <- inception_3a/pool_proj
I0403 13:42:49.715363 32725 net.cpp:386] inception_3a/relu_pool_proj -> inception_3a/pool_proj (in-place)
I0403 13:42:49.715710 32725 net.cpp:141] Setting up inception_3a/relu_pool_proj
I0403 13:42:49.715744 32725 net.cpp:148] Top shape: 24 32 28 28 (602112)
I0403 13:42:49.715760 32725 net.cpp:156] Memory required for data: 561169440
I0403 13:42:49.715777 32725 layer_factory.hpp:77] Creating layer inception_3a/output
I0403 13:42:49.715797 32725 net.cpp:91] Creating Layer inception_3a/output
I0403 13:42:49.715816 32725 net.cpp:425] inception_3a/output <- inception_3a/1x1
I0403 13:42:49.715834 32725 net.cpp:425] inception_3a/output <- inception_3a/3x3
I0403 13:42:49.715852 32725 net.cpp:425] inception_3a/output <- inception_3a/5x5
I0403 13:42:49.715872 32725 net.cpp:425] inception_3a/output <- inception_3a/pool_proj
I0403 13:42:49.715888 32725 net.cpp:399] inception_3a/output -> inception_3a/output
I0403 13:42:49.715940 32725 net.cpp:141] Setting up inception_3a/output
I0403 13:42:49.715966 32725 net.cpp:148] Top shape: 24 256 28 28 (4816896)
I0403 13:42:49.715983 32725 net.cpp:156] Memory required for data: 580437024
I0403 13:42:49.715999 32725 layer_factory.hpp:77] Creating layer inception_3a/output_inception_3a/output_0_split
I0403 13:42:49.716022 32725 net.cpp:91] Creating Layer inception_3a/output_inception_3a/output_0_split
I0403 13:42:49.716039 32725 net.cpp:425] inception_3a/output_inception_3a/output_0_split <- inception_3a/output
I0403 13:42:49.716059 32725 net.cpp:399] inception_3a/output_inception_3a/output_0_split -> inception_3a/output_inception_3a/output_0_split_0
I0403 13:42:49.716080 32725 net.cpp:399] inception_3a/output_inception_3a/output_0_split -> inception_3a/output_inception_3a/output_0_split_1
I0403 13:42:49.716106 32725 net.cpp:399] inception_3a/output_inception_3a/output_0_split -> inception_3a/output_inception_3a/output_0_split_2
I0403 13:42:49.716131 32725 net.cpp:399] inception_3a/output_inception_3a/output_0_split -> inception_3a/output_inception_3a/output_0_split_3
I0403 13:42:49.716215 32725 net.cpp:141] Setting up inception_3a/output_inception_3a/output_0_split
I0403 13:42:49.716243 32725 net.cpp:148] Top shape: 24 256 28 28 (4816896)
I0403 13:42:49.716261 32725 net.cpp:148] Top shape: 24 256 28 28 (4816896)
I0403 13:42:49.716279 32725 net.cpp:148] Top shape: 24 256 28 28 (4816896)
I0403 13:42:49.716295 32725 net.cpp:148] Top shape: 24 256 28 28 (4816896)
I0403 13:42:49.716310 32725 net.cpp:156] Memory required for data: 657507360
I0403 13:42:49.716326 32725 layer_factory.hpp:77] Creating layer inception_3b/1x1
I0403 13:42:49.716353 32725 net.cpp:91] Creating Layer inception_3b/1x1
I0403 13:42:49.716372 32725 net.cpp:425] inception_3b/1x1 <- inception_3a/output_inception_3a/output_0_split_0
I0403 13:42:49.716392 32725 net.cpp:399] inception_3b/1x1 -> inception_3b/1x1
I0403 13:42:49.717599 32725 net.cpp:141] Setting up inception_3b/1x1
I0403 13:42:49.717643 32725 net.cpp:148] Top shape: 24 128 28 28 (2408448)
I0403 13:42:49.717661 32725 net.cpp:156] Memory required for data: 667141152
I0403 13:42:49.717681 32725 layer_factory.hpp:77] Creating layer inception_3b/relu_1x1
I0403 13:42:49.717705 32725 net.cpp:91] Creating Layer inception_3b/relu_1x1
I0403 13:42:49.717725 32725 net.cpp:425] inception_3b/relu_1x1 <- inception_3b/1x1
I0403 13:42:49.717743 32725 net.cpp:386] inception_3b/relu_1x1 -> inception_3b/1x1 (in-place)
I0403 13:42:49.717931 32725 net.cpp:141] Setting up inception_3b/relu_1x1
I0403 13:42:49.717958 32725 net.cpp:148] Top shape: 24 128 28 28 (2408448)
I0403 13:42:49.717975 32725 net.cpp:156] Memory required for data: 676774944
I0403 13:42:49.717993 32725 layer_factory.hpp:77] Creating layer inception_3b/3x3_reduce
I0403 13:42:49.718016 32725 net.cpp:91] Creating Layer inception_3b/3x3_reduce
I0403 13:42:49.718035 32725 net.cpp:425] inception_3b/3x3_reduce <- inception_3a/output_inception_3a/output_0_split_1
I0403 13:42:49.718060 32725 net.cpp:399] inception_3b/3x3_reduce -> inception_3b/3x3_reduce
I0403 13:42:49.719269 32725 net.cpp:141] Setting up inception_3b/3x3_reduce
I0403 13:42:49.719300 32725 net.cpp:148] Top shape: 24 128 28 28 (2408448)
I0403 13:42:49.719317 32725 net.cpp:156] Memory required for data: 686408736
I0403 13:42:49.719338 32725 layer_factory.hpp:77] Creating layer inception_3b/relu_3x3_reduce
I0403 13:42:49.719363 32725 net.cpp:91] Creating Layer inception_3b/relu_3x3_reduce
I0403 13:42:49.719383 32725 net.cpp:425] inception_3b/relu_3x3_reduce <- inception_3b/3x3_reduce
I0403 13:42:49.719401 32725 net.cpp:386] inception_3b/relu_3x3_reduce -> inception_3b/3x3_reduce (in-place)
I0403 13:42:49.719586 32725 net.cpp:141] Setting up inception_3b/relu_3x3_reduce
I0403 13:42:49.719617 32725 net.cpp:148] Top shape: 24 128 28 28 (2408448)
I0403 13:42:49.719635 32725 net.cpp:156] Memory required for data: 696042528
I0403 13:42:49.719651 32725 layer_factory.hpp:77] Creating layer inception_3b/3x3
I0403 13:42:49.719678 32725 net.cpp:91] Creating Layer inception_3b/3x3
I0403 13:42:49.719699 32725 net.cpp:425] inception_3b/3x3 <- inception_3b/3x3_reduce
I0403 13:42:49.719722 32725 net.cpp:399] inception_3b/3x3 -> inception_3b/3x3
I0403 13:42:49.722800 32725 net.cpp:141] Setting up inception_3b/3x3
I0403 13:42:49.722833 32725 net.cpp:148] Top shape: 24 192 28 28 (3612672)
I0403 13:42:49.722852 32725 net.cpp:156] Memory required for data: 710493216
I0403 13:42:49.722873 32725 layer_factory.hpp:77] Creating layer inception_3b/relu_3x3
I0403 13:42:49.722893 32725 net.cpp:91] Creating Layer inception_3b/relu_3x3
I0403 13:42:49.722911 32725 net.cpp:425] inception_3b/relu_3x3 <- inception_3b/3x3
I0403 13:42:49.722934 32725 net.cpp:386] inception_3b/relu_3x3 -> inception_3b/3x3 (in-place)
I0403 13:42:49.723232 32725 net.cpp:141] Setting up inception_3b/relu_3x3
I0403 13:42:49.723263 32725 net.cpp:148] Top shape: 24 192 28 28 (3612672)
I0403 13:42:49.723278 32725 net.cpp:156] Memory required for data: 724943904
I0403 13:42:49.723294 32725 layer_factory.hpp:77] Creating layer inception_3b/5x5_reduce
I0403 13:42:49.723318 32725 net.cpp:91] Creating Layer inception_3b/5x5_reduce
I0403 13:42:49.723337 32725 net.cpp:425] inception_3b/5x5_reduce <- inception_3a/output_inception_3a/output_0_split_2
I0403 13:42:49.723361 32725 net.cpp:399] inception_3b/5x5_reduce -> inception_3b/5x5_reduce
I0403 13:42:49.724408 32725 net.cpp:141] Setting up inception_3b/5x5_reduce
I0403 13:42:49.724442 32725 net.cpp:148] Top shape: 24 32 28 28 (602112)
I0403 13:42:49.724460 32725 net.cpp:156] Memory required for data: 727352352
I0403 13:42:49.724481 32725 layer_factory.hpp:77] Creating layer inception_3b/relu_5x5_reduce
I0403 13:42:49.724500 32725 net.cpp:91] Creating Layer inception_3b/relu_5x5_reduce
I0403 13:42:49.724519 32725 net.cpp:425] inception_3b/relu_5x5_reduce <- inception_3b/5x5_reduce
I0403 13:42:49.724537 32725 net.cpp:386] inception_3b/relu_5x5_reduce -> inception_3b/5x5_reduce (in-place)
I0403 13:42:49.724741 32725 net.cpp:141] Setting up inception_3b/relu_5x5_reduce
I0403 13:42:49.724769 32725 net.cpp:148] Top shape: 24 32 28 28 (602112)
I0403 13:42:49.724786 32725 net.cpp:156] Memory required for data: 729760800
I0403 13:42:49.724802 32725 layer_factory.hpp:77] Creating layer inception_3b/5x5
I0403 13:42:49.724828 32725 net.cpp:91] Creating Layer inception_3b/5x5
I0403 13:42:49.724848 32725 net.cpp:425] inception_3b/5x5 <- inception_3b/5x5_reduce
I0403 13:42:49.724869 32725 net.cpp:399] inception_3b/5x5 -> inception_3b/5x5
I0403 13:42:49.726938 32725 net.cpp:141] Setting up inception_3b/5x5
I0403 13:42:49.726970 32725 net.cpp:148] Top shape: 24 96 28 28 (1806336)
I0403 13:42:49.726987 32725 net.cpp:156] Memory required for data: 736986144
I0403 13:42:49.727008 32725 layer_factory.hpp:77] Creating layer inception_3b/relu_5x5
I0403 13:42:49.727030 32725 net.cpp:91] Creating Layer inception_3b/relu_5x5
I0403 13:42:49.727048 32725 net.cpp:425] inception_3b/relu_5x5 <- inception_3b/5x5
I0403 13:42:49.727066 32725 net.cpp:386] inception_3b/relu_5x5 -> inception_3b/5x5 (in-place)
I0403 13:42:49.727274 32725 net.cpp:141] Setting up inception_3b/relu_5x5
I0403 13:42:49.727301 32725 net.cpp:148] Top shape: 24 96 28 28 (1806336)
I0403 13:42:49.727319 32725 net.cpp:156] Memory required for data: 744211488
I0403 13:42:49.727335 32725 layer_factory.hpp:77] Creating layer inception_3b/pool
I0403 13:42:49.727355 32725 net.cpp:91] Creating Layer inception_3b/pool
I0403 13:42:49.727372 32725 net.cpp:425] inception_3b/pool <- inception_3a/output_inception_3a/output_0_split_3
I0403 13:42:49.727392 32725 net.cpp:399] inception_3b/pool -> inception_3b/pool
I0403 13:42:49.727452 32725 net.cpp:141] Setting up inception_3b/pool
I0403 13:42:49.727478 32725 net.cpp:148] Top shape: 24 256 28 28 (4816896)
I0403 13:42:49.727493 32725 net.cpp:156] Memory required for data: 763479072
I0403 13:42:49.727507 32725 layer_factory.hpp:77] Creating layer inception_3b/pool_proj
I0403 13:42:49.727531 32725 net.cpp:91] Creating Layer inception_3b/pool_proj
I0403 13:42:49.727550 32725 net.cpp:425] inception_3b/pool_proj <- inception_3b/pool
I0403 13:42:49.727571 32725 net.cpp:399] inception_3b/pool_proj -> inception_3b/pool_proj
I0403 13:42:49.728708 32725 net.cpp:141] Setting up inception_3b/pool_proj
I0403 13:42:49.728739 32725 net.cpp:148] Top shape: 24 64 28 28 (1204224)
I0403 13:42:49.728755 32725 net.cpp:156] Memory required for data: 768295968
I0403 13:42:49.728776 32725 layer_factory.hpp:77] Creating layer inception_3b/relu_pool_proj
I0403 13:42:49.728799 32725 net.cpp:91] Creating Layer inception_3b/relu_pool_proj
I0403 13:42:49.728818 32725 net.cpp:425] inception_3b/relu_pool_proj <- inception_3b/pool_proj
I0403 13:42:49.728837 32725 net.cpp:386] inception_3b/relu_pool_proj -> inception_3b/pool_proj (in-place)
I0403 13:42:49.729264 32725 net.cpp:141] Setting up inception_3b/relu_pool_proj
I0403 13:42:49.729293 32725 net.cpp:148] Top shape: 24 64 28 28 (1204224)
I0403 13:42:49.729310 32725 net.cpp:156] Memory required for data: 773112864
I0403 13:42:49.729327 32725 layer_factory.hpp:77] Creating layer inception_3b/output
I0403 13:42:49.729346 32725 net.cpp:91] Creating Layer inception_3b/output
I0403 13:42:49.729363 32725 net.cpp:425] inception_3b/output <- inception_3b/1x1
I0403 13:42:49.729380 32725 net.cpp:425] inception_3b/output <- inception_3b/3x3
I0403 13:42:49.729398 32725 net.cpp:425] inception_3b/output <- inception_3b/5x5
I0403 13:42:49.729416 32725 net.cpp:425] inception_3b/output <- inception_3b/pool_proj
I0403 13:42:49.729440 32725 net.cpp:399] inception_3b/output -> inception_3b/output
I0403 13:42:49.729487 32725 net.cpp:141] Setting up inception_3b/output
I0403 13:42:49.729516 32725 net.cpp:148] Top shape: 24 480 28 28 (9031680)
I0403 13:42:49.729532 32725 net.cpp:156] Memory required for data: 809239584
I0403 13:42:49.729547 32725 layer_factory.hpp:77] Creating layer pool3/3x3_s2
I0403 13:42:49.729565 32725 net.cpp:91] Creating Layer pool3/3x3_s2
I0403 13:42:49.729583 32725 net.cpp:425] pool3/3x3_s2 <- inception_3b/output
I0403 13:42:49.729619 32725 net.cpp:399] pool3/3x3_s2 -> pool3/3x3_s2
I0403 13:42:49.729683 32725 net.cpp:141] Setting up pool3/3x3_s2
I0403 13:42:49.729707 32725 net.cpp:148] Top shape: 24 480 14 14 (2257920)
I0403 13:42:49.729723 32725 net.cpp:156] Memory required for data: 818271264
I0403 13:42:49.729738 32725 layer_factory.hpp:77] Creating layer pool3/3x3_s2_pool3/3x3_s2_0_split
I0403 13:42:49.729756 32725 net.cpp:91] Creating Layer pool3/3x3_s2_pool3/3x3_s2_0_split
I0403 13:42:49.729773 32725 net.cpp:425] pool3/3x3_s2_pool3/3x3_s2_0_split <- pool3/3x3_s2
I0403 13:42:49.729794 32725 net.cpp:399] pool3/3x3_s2_pool3/3x3_s2_0_split -> pool3/3x3_s2_pool3/3x3_s2_0_split_0
I0403 13:42:49.729815 32725 net.cpp:399] pool3/3x3_s2_pool3/3x3_s2_0_split -> pool3/3x3_s2_pool3/3x3_s2_0_split_1
I0403 13:42:49.729836 32725 net.cpp:399] pool3/3x3_s2_pool3/3x3_s2_0_split -> pool3/3x3_s2_pool3/3x3_s2_0_split_2
I0403 13:42:49.729859 32725 net.cpp:399] pool3/3x3_s2_pool3/3x3_s2_0_split -> pool3/3x3_s2_pool3/3x3_s2_0_split_3
I0403 13:42:49.729941 32725 net.cpp:141] Setting up pool3/3x3_s2_pool3/3x3_s2_0_split
I0403 13:42:49.729965 32725 net.cpp:148] Top shape: 24 480 14 14 (2257920)
I0403 13:42:49.729984 32725 net.cpp:148] Top shape: 24 480 14 14 (2257920)
I0403 13:42:49.730000 32725 net.cpp:148] Top shape: 24 480 14 14 (2257920)
I0403 13:42:49.730016 32725 net.cpp:148] Top shape: 24 480 14 14 (2257920)
I0403 13:42:49.730031 32725 net.cpp:156] Memory required for data: 854397984
I0403 13:42:49.730046 32725 layer_factory.hpp:77] Creating layer inception_4a/1x1
I0403 13:42:49.730069 32725 net.cpp:91] Creating Layer inception_4a/1x1
I0403 13:42:49.730088 32725 net.cpp:425] inception_4a/1x1 <- pool3/3x3_s2_pool3/3x3_s2_0_split_0
I0403 13:42:49.730110 32725 net.cpp:399] inception_4a/1x1 -> inception_4a/1x1
I0403 13:42:49.731767 32725 net.cpp:141] Setting up inception_4a/1x1
I0403 13:42:49.731797 32725 net.cpp:148] Top shape: 24 192 14 14 (903168)
I0403 13:42:49.731815 32725 net.cpp:156] Memory required for data: 858010656
I0403 13:42:49.731835 32725 layer_factory.hpp:77] Creating layer inception_4a/relu_1x1
I0403 13:42:49.731858 32725 net.cpp:91] Creating Layer inception_4a/relu_1x1
I0403 13:42:49.731878 32725 net.cpp:425] inception_4a/relu_1x1 <- inception_4a/1x1
I0403 13:42:49.731896 32725 net.cpp:386] inception_4a/relu_1x1 -> inception_4a/1x1 (in-place)
I0403 13:42:49.732084 32725 net.cpp:141] Setting up inception_4a/relu_1x1
I0403 13:42:49.732110 32725 net.cpp:148] Top shape: 24 192 14 14 (903168)
I0403 13:42:49.732127 32725 net.cpp:156] Memory required for data: 861623328
I0403 13:42:49.732143 32725 layer_factory.hpp:77] Creating layer inception_4a/3x3_reduce
I0403 13:42:49.732172 32725 net.cpp:91] Creating Layer inception_4a/3x3_reduce
I0403 13:42:49.732192 32725 net.cpp:425] inception_4a/3x3_reduce <- pool3/3x3_s2_pool3/3x3_s2_0_split_1
I0403 13:42:49.732218 32725 net.cpp:399] inception_4a/3x3_reduce -> inception_4a/3x3_reduce
I0403 13:42:49.733580 32725 net.cpp:141] Setting up inception_4a/3x3_reduce
I0403 13:42:49.733611 32725 net.cpp:148] Top shape: 24 96 14 14 (451584)
I0403 13:42:49.733628 32725 net.cpp:156] Memory required for data: 863429664
I0403 13:42:49.733659 32725 layer_factory.hpp:77] Creating layer inception_4a/relu_3x3_reduce
I0403 13:42:49.733681 32725 net.cpp:91] Creating Layer inception_4a/relu_3x3_reduce
I0403 13:42:49.733700 32725 net.cpp:425] inception_4a/relu_3x3_reduce <- inception_4a/3x3_reduce
I0403 13:42:49.733721 32725 net.cpp:386] inception_4a/relu_3x3_reduce -> inception_4a/3x3_reduce (in-place)
I0403 13:42:49.733908 32725 net.cpp:141] Setting up inception_4a/relu_3x3_reduce
I0403 13:42:49.733935 32725 net.cpp:148] Top shape: 24 96 14 14 (451584)
I0403 13:42:49.733950 32725 net.cpp:156] Memory required for data: 865236000
I0403 13:42:49.733965 32725 layer_factory.hpp:77] Creating layer inception_4a/3x3
I0403 13:42:49.733989 32725 net.cpp:91] Creating Layer inception_4a/3x3
I0403 13:42:49.734009 32725 net.cpp:425] inception_4a/3x3 <- inception_4a/3x3_reduce
I0403 13:42:49.734030 32725 net.cpp:399] inception_4a/3x3 -> inception_4a/3x3
I0403 13:42:49.736856 32725 net.cpp:141] Setting up inception_4a/3x3
I0403 13:42:49.736891 32725 net.cpp:148] Top shape: 24 208 14 14 (978432)
I0403 13:42:49.736910 32725 net.cpp:156] Memory required for data: 869149728
I0403 13:42:49.736930 32725 layer_factory.hpp:77] Creating layer inception_4a/relu_3x3
I0403 13:42:49.736950 32725 net.cpp:91] Creating Layer inception_4a/relu_3x3
I0403 13:42:49.736968 32725 net.cpp:425] inception_4a/relu_3x3 <- inception_4a/3x3
I0403 13:42:49.736987 32725 net.cpp:386] inception_4a/relu_3x3 -> inception_4a/3x3 (in-place)
I0403 13:42:49.737287 32725 net.cpp:141] Setting up inception_4a/relu_3x3
I0403 13:42:49.737319 32725 net.cpp:148] Top shape: 24 208 14 14 (978432)
I0403 13:42:49.737336 32725 net.cpp:156] Memory required for data: 873063456
I0403 13:42:49.737354 32725 layer_factory.hpp:77] Creating layer inception_4a/5x5_reduce
I0403 13:42:49.737375 32725 net.cpp:91] Creating Layer inception_4a/5x5_reduce
I0403 13:42:49.737393 32725 net.cpp:425] inception_4a/5x5_reduce <- pool3/3x3_s2_pool3/3x3_s2_0_split_2
I0403 13:42:49.737416 32725 net.cpp:399] inception_4a/5x5_reduce -> inception_4a/5x5_reduce
I0403 13:42:49.738507 32725 net.cpp:141] Setting up inception_4a/5x5_reduce
I0403 13:42:49.738540 32725 net.cpp:148] Top shape: 24 16 14 14 (75264)
I0403 13:42:49.738559 32725 net.cpp:156] Memory required for data: 873364512
I0403 13:42:49.738579 32725 layer_factory.hpp:77] Creating layer inception_4a/relu_5x5_reduce
I0403 13:42:49.738600 32725 net.cpp:91] Creating Layer inception_4a/relu_5x5_reduce
I0403 13:42:49.738618 32725 net.cpp:425] inception_4a/relu_5x5_reduce <- inception_4a/5x5_reduce
I0403 13:42:49.738636 32725 net.cpp:386] inception_4a/relu_5x5_reduce -> inception_4a/5x5_reduce (in-place)
I0403 13:42:49.738831 32725 net.cpp:141] Setting up inception_4a/relu_5x5_reduce
I0403 13:42:49.738857 32725 net.cpp:148] Top shape: 24 16 14 14 (75264)
I0403 13:42:49.738873 32725 net.cpp:156] Memory required for data: 873665568
I0403 13:42:49.738888 32725 layer_factory.hpp:77] Creating layer inception_4a/5x5
I0403 13:42:49.738911 32725 net.cpp:91] Creating Layer inception_4a/5x5
I0403 13:42:49.738930 32725 net.cpp:425] inception_4a/5x5 <- inception_4a/5x5_reduce
I0403 13:42:49.738953 32725 net.cpp:399] inception_4a/5x5 -> inception_4a/5x5
I0403 13:42:49.740115 32725 net.cpp:141] Setting up inception_4a/5x5
I0403 13:42:49.740146 32725 net.cpp:148] Top shape: 24 48 14 14 (225792)
I0403 13:42:49.740164 32725 net.cpp:156] Memory required for data: 874568736
I0403 13:42:49.740185 32725 layer_factory.hpp:77] Creating layer inception_4a/relu_5x5
I0403 13:42:49.740206 32725 net.cpp:91] Creating Layer inception_4a/relu_5x5
I0403 13:42:49.740228 32725 net.cpp:425] inception_4a/relu_5x5 <- inception_4a/5x5
I0403 13:42:49.740252 32725 net.cpp:386] inception_4a/relu_5x5 -> inception_4a/5x5 (in-place)
I0403 13:42:49.740447 32725 net.cpp:141] Setting up inception_4a/relu_5x5
I0403 13:42:49.740475 32725 net.cpp:148] Top shape: 24 48 14 14 (225792)
I0403 13:42:49.740491 32725 net.cpp:156] Memory required for data: 875471904
I0403 13:42:49.740509 32725 layer_factory.hpp:77] Creating layer inception_4a/pool
I0403 13:42:49.740530 32725 net.cpp:91] Creating Layer inception_4a/pool
I0403 13:42:49.740550 32725 net.cpp:425] inception_4a/pool <- pool3/3x3_s2_pool3/3x3_s2_0_split_3
I0403 13:42:49.740569 32725 net.cpp:399] inception_4a/pool -> inception_4a/pool
I0403 13:42:49.740638 32725 net.cpp:141] Setting up inception_4a/pool
I0403 13:42:49.740664 32725 net.cpp:148] Top shape: 24 480 14 14 (2257920)
I0403 13:42:49.740681 32725 net.cpp:156] Memory required for data: 884503584
I0403 13:42:49.740697 32725 layer_factory.hpp:77] Creating layer inception_4a/pool_proj
I0403 13:42:49.740721 32725 net.cpp:91] Creating Layer inception_4a/pool_proj
I0403 13:42:49.740739 32725 net.cpp:425] inception_4a/pool_proj <- inception_4a/pool
I0403 13:42:49.740762 32725 net.cpp:399] inception_4a/pool_proj -> inception_4a/pool_proj
I0403 13:42:49.742000 32725 net.cpp:141] Setting up inception_4a/pool_proj
I0403 13:42:49.742032 32725 net.cpp:148] Top shape: 24 64 14 14 (301056)
I0403 13:42:49.742063 32725 net.cpp:156] Memory required for data: 885707808
I0403 13:42:49.742084 32725 layer_factory.hpp:77] Creating layer inception_4a/relu_pool_proj
I0403 13:42:49.742106 32725 net.cpp:91] Creating Layer inception_4a/relu_pool_proj
I0403 13:42:49.742126 32725 net.cpp:425] inception_4a/relu_pool_proj <- inception_4a/pool_proj
I0403 13:42:49.742146 32725 net.cpp:386] inception_4a/relu_pool_proj -> inception_4a/pool_proj (in-place)
I0403 13:42:49.742454 32725 net.cpp:141] Setting up inception_4a/relu_pool_proj
I0403 13:42:49.742481 32725 net.cpp:148] Top shape: 24 64 14 14 (301056)
I0403 13:42:49.742497 32725 net.cpp:156] Memory required for data: 886912032
I0403 13:42:49.742513 32725 layer_factory.hpp:77] Creating layer inception_4a/output
I0403 13:42:49.742532 32725 net.cpp:91] Creating Layer inception_4a/output
I0403 13:42:49.742549 32725 net.cpp:425] inception_4a/output <- inception_4a/1x1
I0403 13:42:49.742568 32725 net.cpp:425] inception_4a/output <- inception_4a/3x3
I0403 13:42:49.742583 32725 net.cpp:425] inception_4a/output <- inception_4a/5x5
I0403 13:42:49.742600 32725 net.cpp:425] inception_4a/output <- inception_4a/pool_proj
I0403 13:42:49.742621 32725 net.cpp:399] inception_4a/output -> inception_4a/output
I0403 13:42:49.742672 32725 net.cpp:141] Setting up inception_4a/output
I0403 13:42:49.742697 32725 net.cpp:148] Top shape: 24 512 14 14 (2408448)
I0403 13:42:49.742712 32725 net.cpp:156] Memory required for data: 896545824
I0403 13:42:49.742728 32725 layer_factory.hpp:77] Creating layer inception_4a/output_inception_4a/output_0_split
I0403 13:42:49.742748 32725 net.cpp:91] Creating Layer inception_4a/output_inception_4a/output_0_split
I0403 13:42:49.742764 32725 net.cpp:425] inception_4a/output_inception_4a/output_0_split <- inception_4a/output
I0403 13:42:49.742785 32725 net.cpp:399] inception_4a/output_inception_4a/output_0_split -> inception_4a/output_inception_4a/output_0_split_0
I0403 13:42:49.742810 32725 net.cpp:399] inception_4a/output_inception_4a/output_0_split -> inception_4a/output_inception_4a/output_0_split_1
I0403 13:42:49.742832 32725 net.cpp:399] inception_4a/output_inception_4a/output_0_split -> inception_4a/output_inception_4a/output_0_split_2
I0403 13:42:49.742854 32725 net.cpp:399] inception_4a/output_inception_4a/output_0_split -> inception_4a/output_inception_4a/output_0_split_3
I0403 13:42:49.742876 32725 net.cpp:399] inception_4a/output_inception_4a/output_0_split -> inception_4a/output_inception_4a/output_0_split_4
I0403 13:42:49.742972 32725 net.cpp:141] Setting up inception_4a/output_inception_4a/output_0_split
I0403 13:42:49.743000 32725 net.cpp:148] Top shape: 24 512 14 14 (2408448)
I0403 13:42:49.743018 32725 net.cpp:148] Top shape: 24 512 14 14 (2408448)
I0403 13:42:49.743036 32725 net.cpp:148] Top shape: 24 512 14 14 (2408448)
I0403 13:42:49.743052 32725 net.cpp:148] Top shape: 24 512 14 14 (2408448)
I0403 13:42:49.743069 32725 net.cpp:148] Top shape: 24 512 14 14 (2408448)
I0403 13:42:49.743084 32725 net.cpp:156] Memory required for data: 944714784
I0403 13:42:49.743100 32725 layer_factory.hpp:77] Creating layer loss1/ave_pool
I0403 13:42:49.743119 32725 net.cpp:91] Creating Layer loss1/ave_pool
I0403 13:42:49.743136 32725 net.cpp:425] loss1/ave_pool <- inception_4a/output_inception_4a/output_0_split_0
I0403 13:42:49.743158 32725 net.cpp:399] loss1/ave_pool -> loss1/ave_pool
I0403 13:42:49.743396 32725 net.cpp:141] Setting up loss1/ave_pool
I0403 13:42:49.743425 32725 net.cpp:148] Top shape: 24 512 4 4 (196608)
I0403 13:42:49.743441 32725 net.cpp:156] Memory required for data: 945501216
I0403 13:42:49.743456 32725 layer_factory.hpp:77] Creating layer loss1/conv
I0403 13:42:49.743480 32725 net.cpp:91] Creating Layer loss1/conv
I0403 13:42:49.743499 32725 net.cpp:425] loss1/conv <- loss1/ave_pool
I0403 13:42:49.743522 32725 net.cpp:399] loss1/conv -> loss1/conv
I0403 13:42:49.745053 32725 net.cpp:141] Setting up loss1/conv
I0403 13:42:49.745087 32725 net.cpp:148] Top shape: 24 128 4 4 (49152)
I0403 13:42:49.745120 32725 net.cpp:156] Memory required for data: 945697824
I0403 13:42:49.745141 32725 layer_factory.hpp:77] Creating layer loss1/relu_conv
I0403 13:42:49.745162 32725 net.cpp:91] Creating Layer loss1/relu_conv
I0403 13:42:49.745179 32725 net.cpp:425] loss1/relu_conv <- loss1/conv
I0403 13:42:49.745198 32725 net.cpp:386] loss1/relu_conv -> loss1/conv (in-place)
I0403 13:42:49.745504 32725 net.cpp:141] Setting up loss1/relu_conv
I0403 13:42:49.745534 32725 net.cpp:148] Top shape: 24 128 4 4 (49152)
I0403 13:42:49.745550 32725 net.cpp:156] Memory required for data: 945894432
I0403 13:42:49.745566 32725 layer_factory.hpp:77] Creating layer loss1/fc
I0403 13:42:49.745591 32725 net.cpp:91] Creating Layer loss1/fc
I0403 13:42:49.745610 32725 net.cpp:425] loss1/fc <- loss1/conv
I0403 13:42:49.745633 32725 net.cpp:399] loss1/fc -> loss1/fc
I0403 13:42:49.764395 32725 net.cpp:141] Setting up loss1/fc
I0403 13:42:49.764456 32725 net.cpp:148] Top shape: 24 1024 (24576)
I0403 13:42:49.764473 32725 net.cpp:156] Memory required for data: 945992736
I0403 13:42:49.764495 32725 layer_factory.hpp:77] Creating layer loss1/relu_fc
I0403 13:42:49.764519 32725 net.cpp:91] Creating Layer loss1/relu_fc
I0403 13:42:49.764539 32725 net.cpp:425] loss1/relu_fc <- loss1/fc
I0403 13:42:49.764557 32725 net.cpp:386] loss1/relu_fc -> loss1/fc (in-place)
I0403 13:42:49.764781 32725 net.cpp:141] Setting up loss1/relu_fc
I0403 13:42:49.764808 32725 net.cpp:148] Top shape: 24 1024 (24576)
I0403 13:42:49.764823 32725 net.cpp:156] Memory required for data: 946091040
I0403 13:42:49.764840 32725 layer_factory.hpp:77] Creating layer loss1/drop_fc
I0403 13:42:49.764873 32725 net.cpp:91] Creating Layer loss1/drop_fc
I0403 13:42:49.764890 32725 net.cpp:425] loss1/drop_fc <- loss1/fc
I0403 13:42:49.764909 32725 net.cpp:386] loss1/drop_fc -> loss1/fc (in-place)
I0403 13:42:49.764966 32725 net.cpp:141] Setting up loss1/drop_fc
I0403 13:42:49.764991 32725 net.cpp:148] Top shape: 24 1024 (24576)
I0403 13:42:49.765007 32725 net.cpp:156] Memory required for data: 946189344
I0403 13:42:49.765022 32725 layer_factory.hpp:77] Creating layer loss1/classifier_plantvillage
I0403 13:42:49.765043 32725 net.cpp:91] Creating Layer loss1/classifier_plantvillage
I0403 13:42:49.765060 32725 net.cpp:425] loss1/classifier_plantvillage <- loss1/fc
I0403 13:42:49.765084 32725 net.cpp:399] loss1/classifier_plantvillage -> loss1/classifier_plantvillage
I0403 13:42:49.766052 32725 net.cpp:141] Setting up loss1/classifier_plantvillage
I0403 13:42:49.766085 32725 net.cpp:148] Top shape: 24 38 (912)
I0403 13:42:49.766103 32725 net.cpp:156] Memory required for data: 946192992
I0403 13:42:49.766124 32725 layer_factory.hpp:77] Creating layer loss1/classifier_plantvillage_loss1/classifier_plantvillage_0_split
I0403 13:42:49.766144 32725 net.cpp:91] Creating Layer loss1/classifier_plantvillage_loss1/classifier_plantvillage_0_split
I0403 13:42:49.766161 32725 net.cpp:425] loss1/classifier_plantvillage_loss1/classifier_plantvillage_0_split <- loss1/classifier_plantvillage
I0403 13:42:49.766180 32725 net.cpp:399] loss1/classifier_plantvillage_loss1/classifier_plantvillage_0_split -> loss1/classifier_plantvillage_loss1/classifier_plantvillage_0_split_0
I0403 13:42:49.766202 32725 net.cpp:399] loss1/classifier_plantvillage_loss1/classifier_plantvillage_0_split -> loss1/classifier_plantvillage_loss1/classifier_plantvillage_0_split_1
I0403 13:42:49.766229 32725 net.cpp:399] loss1/classifier_plantvillage_loss1/classifier_plantvillage_0_split -> loss1/classifier_plantvillage_loss1/classifier_plantvillage_0_split_2
I0403 13:42:49.766304 32725 net.cpp:141] Setting up loss1/classifier_plantvillage_loss1/classifier_plantvillage_0_split
I0403 13:42:49.766329 32725 net.cpp:148] Top shape: 24 38 (912)
I0403 13:42:49.766345 32725 net.cpp:148] Top shape: 24 38 (912)
I0403 13:42:49.766362 32725 net.cpp:148] Top shape: 24 38 (912)
I0403 13:42:49.766376 32725 net.cpp:156] Memory required for data: 946203936
I0403 13:42:49.766392 32725 layer_factory.hpp:77] Creating layer inception_4b/1x1
I0403 13:42:49.766414 32725 net.cpp:91] Creating Layer inception_4b/1x1
I0403 13:42:49.766455 32725 net.cpp:425] inception_4b/1x1 <- inception_4a/output_inception_4a/output_0_split_1
I0403 13:42:49.766480 32725 net.cpp:399] inception_4b/1x1 -> inception_4b/1x1
I0403 13:42:49.768275 32725 net.cpp:141] Setting up inception_4b/1x1
I0403 13:42:49.768308 32725 net.cpp:148] Top shape: 24 160 14 14 (752640)
I0403 13:42:49.768326 32725 net.cpp:156] Memory required for data: 949214496
I0403 13:42:49.768347 32725 layer_factory.hpp:77] Creating layer inception_4b/relu_1x1
I0403 13:42:49.768368 32725 net.cpp:91] Creating Layer inception_4b/relu_1x1
I0403 13:42:49.768386 32725 net.cpp:425] inception_4b/relu_1x1 <- inception_4b/1x1
I0403 13:42:49.768405 32725 net.cpp:386] inception_4b/relu_1x1 -> inception_4b/1x1 (in-place)
I0403 13:42:49.768604 32725 net.cpp:141] Setting up inception_4b/relu_1x1
I0403 13:42:49.768631 32725 net.cpp:148] Top shape: 24 160 14 14 (752640)
I0403 13:42:49.768647 32725 net.cpp:156] Memory required for data: 952225056
I0403 13:42:49.768664 32725 layer_factory.hpp:77] Creating layer inception_4b/3x3_reduce
I0403 13:42:49.768687 32725 net.cpp:91] Creating Layer inception_4b/3x3_reduce
I0403 13:42:49.768707 32725 net.cpp:425] inception_4b/3x3_reduce <- inception_4a/output_inception_4a/output_0_split_2
I0403 13:42:49.768731 32725 net.cpp:399] inception_4b/3x3_reduce -> inception_4b/3x3_reduce
I0403 13:42:49.770176 32725 net.cpp:141] Setting up inception_4b/3x3_reduce
I0403 13:42:49.770213 32725 net.cpp:148] Top shape: 24 112 14 14 (526848)
I0403 13:42:49.770233 32725 net.cpp:156] Memory required for data: 954332448
I0403 13:42:49.770254 32725 layer_factory.hpp:77] Creating layer inception_4b/relu_3x3_reduce
I0403 13:42:49.770273 32725 net.cpp:91] Creating Layer inception_4b/relu_3x3_reduce
I0403 13:42:49.770292 32725 net.cpp:425] inception_4b/relu_3x3_reduce <- inception_4b/3x3_reduce
I0403 13:42:49.770313 32725 net.cpp:386] inception_4b/relu_3x3_reduce -> inception_4b/3x3_reduce (in-place)
I0403 13:42:49.770612 32725 net.cpp:141] Setting up inception_4b/relu_3x3_reduce
I0403 13:42:49.770642 32725 net.cpp:148] Top shape: 24 112 14 14 (526848)
I0403 13:42:49.770659 32725 net.cpp:156] Memory required for data: 956439840
I0403 13:42:49.770675 32725 layer_factory.hpp:77] Creating layer inception_4b/3x3
I0403 13:42:49.770700 32725 net.cpp:91] Creating Layer inception_4b/3x3
I0403 13:42:49.770720 32725 net.cpp:425] inception_4b/3x3 <- inception_4b/3x3_reduce
I0403 13:42:49.770742 32725 net.cpp:399] inception_4b/3x3 -> inception_4b/3x3
I0403 13:42:49.773919 32725 net.cpp:141] Setting up inception_4b/3x3
I0403 13:42:49.773952 32725 net.cpp:148] Top shape: 24 224 14 14 (1053696)
I0403 13:42:49.773969 32725 net.cpp:156] Memory required for data: 960654624
I0403 13:42:49.773990 32725 layer_factory.hpp:77] Creating layer inception_4b/relu_3x3
I0403 13:42:49.774013 32725 net.cpp:91] Creating Layer inception_4b/relu_3x3
I0403 13:42:49.774036 32725 net.cpp:425] inception_4b/relu_3x3 <- inception_4b/3x3
I0403 13:42:49.774056 32725 net.cpp:386] inception_4b/relu_3x3 -> inception_4b/3x3 (in-place)
I0403 13:42:49.774260 32725 net.cpp:141] Setting up inception_4b/relu_3x3
I0403 13:42:49.774288 32725 net.cpp:148] Top shape: 24 224 14 14 (1053696)
I0403 13:42:49.774304 32725 net.cpp:156] Memory required for data: 964869408
I0403 13:42:49.774320 32725 layer_factory.hpp:77] Creating layer inception_4b/5x5_reduce
I0403 13:42:49.774344 32725 net.cpp:91] Creating Layer inception_4b/5x5_reduce
I0403 13:42:49.774363 32725 net.cpp:425] inception_4b/5x5_reduce <- inception_4a/output_inception_4a/output_0_split_3
I0403 13:42:49.774384 32725 net.cpp:399] inception_4b/5x5_reduce -> inception_4b/5x5_reduce
I0403 13:42:49.775548 32725 net.cpp:141] Setting up inception_4b/5x5_reduce
I0403 13:42:49.775580 32725 net.cpp:148] Top shape: 24 24 14 14 (112896)
I0403 13:42:49.775599 32725 net.cpp:156] Memory required for data: 965320992
I0403 13:42:49.775619 32725 layer_factory.hpp:77] Creating layer inception_4b/relu_5x5_reduce
I0403 13:42:49.775638 32725 net.cpp:91] Creating Layer inception_4b/relu_5x5_reduce
I0403 13:42:49.775671 32725 net.cpp:425] inception_4b/relu_5x5_reduce <- inception_4b/5x5_reduce
I0403 13:42:49.775693 32725 net.cpp:386] inception_4b/relu_5x5_reduce -> inception_4b/5x5_reduce (in-place)
I0403 13:42:49.775889 32725 net.cpp:141] Setting up inception_4b/relu_5x5_reduce
I0403 13:42:49.775915 32725 net.cpp:148] Top shape: 24 24 14 14 (112896)
I0403 13:42:49.775931 32725 net.cpp:156] Memory required for data: 965772576
I0403 13:42:49.775946 32725 layer_factory.hpp:77] Creating layer inception_4b/5x5
I0403 13:42:49.775970 32725 net.cpp:91] Creating Layer inception_4b/5x5
I0403 13:42:49.775990 32725 net.cpp:425] inception_4b/5x5 <- inception_4b/5x5_reduce
I0403 13:42:49.776013 32725 net.cpp:399] inception_4b/5x5 -> inception_4b/5x5
I0403 13:42:49.777328 32725 net.cpp:141] Setting up inception_4b/5x5
I0403 13:42:49.777360 32725 net.cpp:148] Top shape: 24 64 14 14 (301056)
I0403 13:42:49.777379 32725 net.cpp:156] Memory required for data: 966976800
I0403 13:42:49.777398 32725 layer_factory.hpp:77] Creating layer inception_4b/relu_5x5
I0403 13:42:49.777418 32725 net.cpp:91] Creating Layer inception_4b/relu_5x5
I0403 13:42:49.777437 32725 net.cpp:425] inception_4b/relu_5x5 <- inception_4b/5x5
I0403 13:42:49.777456 32725 net.cpp:386] inception_4b/relu_5x5 -> inception_4b/5x5 (in-place)
I0403 13:42:49.777761 32725 net.cpp:141] Setting up inception_4b/relu_5x5
I0403 13:42:49.777792 32725 net.cpp:148] Top shape: 24 64 14 14 (301056)
I0403 13:42:49.777808 32725 net.cpp:156] Memory required for data: 968181024
I0403 13:42:49.777824 32725 layer_factory.hpp:77] Creating layer inception_4b/pool
I0403 13:42:49.777844 32725 net.cpp:91] Creating Layer inception_4b/pool
I0403 13:42:49.777863 32725 net.cpp:425] inception_4b/pool <- inception_4a/output_inception_4a/output_0_split_4
I0403 13:42:49.777881 32725 net.cpp:399] inception_4b/pool -> inception_4b/pool
I0403 13:42:49.777953 32725 net.cpp:141] Setting up inception_4b/pool
I0403 13:42:49.777979 32725 net.cpp:148] Top shape: 24 512 14 14 (2408448)
I0403 13:42:49.777994 32725 net.cpp:156] Memory required for data: 977814816
I0403 13:42:49.778010 32725 layer_factory.hpp:77] Creating layer inception_4b/pool_proj
I0403 13:42:49.778033 32725 net.cpp:91] Creating Layer inception_4b/pool_proj
I0403 13:42:49.778053 32725 net.cpp:425] inception_4b/pool_proj <- inception_4b/pool
I0403 13:42:49.778074 32725 net.cpp:399] inception_4b/pool_proj -> inception_4b/pool_proj
I0403 13:42:49.779366 32725 net.cpp:141] Setting up inception_4b/pool_proj
I0403 13:42:49.779397 32725 net.cpp:148] Top shape: 24 64 14 14 (301056)
I0403 13:42:49.779414 32725 net.cpp:156] Memory required for data: 979019040
I0403 13:42:49.779436 32725 layer_factory.hpp:77] Creating layer inception_4b/relu_pool_proj
I0403 13:42:49.779455 32725 net.cpp:91] Creating Layer inception_4b/relu_pool_proj
I0403 13:42:49.779472 32725 net.cpp:425] inception_4b/relu_pool_proj <- inception_4b/pool_proj
I0403 13:42:49.779495 32725 net.cpp:386] inception_4b/relu_pool_proj -> inception_4b/pool_proj (in-place)
I0403 13:42:49.779691 32725 net.cpp:141] Setting up inception_4b/relu_pool_proj
I0403 13:42:49.779717 32725 net.cpp:148] Top shape: 24 64 14 14 (301056)
I0403 13:42:49.779733 32725 net.cpp:156] Memory required for data: 980223264
I0403 13:42:49.779750 32725 layer_factory.hpp:77] Creating layer inception_4b/output
I0403 13:42:49.779769 32725 net.cpp:91] Creating Layer inception_4b/output
I0403 13:42:49.779786 32725 net.cpp:425] inception_4b/output <- inception_4b/1x1
I0403 13:42:49.779803 32725 net.cpp:425] inception_4b/output <- inception_4b/3x3
I0403 13:42:49.779821 32725 net.cpp:425] inception_4b/output <- inception_4b/5x5
I0403 13:42:49.779839 32725 net.cpp:425] inception_4b/output <- inception_4b/pool_proj
I0403 13:42:49.779860 32725 net.cpp:399] inception_4b/output -> inception_4b/output
I0403 13:42:49.779911 32725 net.cpp:141] Setting up inception_4b/output
I0403 13:42:49.779937 32725 net.cpp:148] Top shape: 24 512 14 14 (2408448)
I0403 13:42:49.779953 32725 net.cpp:156] Memory required for data: 989857056
I0403 13:42:49.779984 32725 layer_factory.hpp:77] Creating layer inception_4b/output_inception_4b/output_0_split
I0403 13:42:49.780004 32725 net.cpp:91] Creating Layer inception_4b/output_inception_4b/output_0_split
I0403 13:42:49.780021 32725 net.cpp:425] inception_4b/output_inception_4b/output_0_split <- inception_4b/output
I0403 13:42:49.780043 32725 net.cpp:399] inception_4b/output_inception_4b/output_0_split -> inception_4b/output_inception_4b/output_0_split_0
I0403 13:42:49.780066 32725 net.cpp:399] inception_4b/output_inception_4b/output_0_split -> inception_4b/output_inception_4b/output_0_split_1
I0403 13:42:49.780087 32725 net.cpp:399] inception_4b/output_inception_4b/output_0_split -> inception_4b/output_inception_4b/output_0_split_2
I0403 13:42:49.780108 32725 net.cpp:399] inception_4b/output_inception_4b/output_0_split -> inception_4b/output_inception_4b/output_0_split_3
I0403 13:42:49.780196 32725 net.cpp:141] Setting up inception_4b/output_inception_4b/output_0_split
I0403 13:42:49.780225 32725 net.cpp:148] Top shape: 24 512 14 14 (2408448)
I0403 13:42:49.780247 32725 net.cpp:148] Top shape: 24 512 14 14 (2408448)
I0403 13:42:49.780266 32725 net.cpp:148] Top shape: 24 512 14 14 (2408448)
I0403 13:42:49.780282 32725 net.cpp:148] Top shape: 24 512 14 14 (2408448)
I0403 13:42:49.780297 32725 net.cpp:156] Memory required for data: 1028392224
I0403 13:42:49.780313 32725 layer_factory.hpp:77] Creating layer inception_4c/1x1
I0403 13:42:49.780333 32725 net.cpp:91] Creating Layer inception_4c/1x1
I0403 13:42:49.780351 32725 net.cpp:425] inception_4c/1x1 <- inception_4b/output_inception_4b/output_0_split_0
I0403 13:42:49.780375 32725 net.cpp:399] inception_4c/1x1 -> inception_4c/1x1
I0403 13:42:49.781906 32725 net.cpp:141] Setting up inception_4c/1x1
I0403 13:42:49.781936 32725 net.cpp:148] Top shape: 24 128 14 14 (602112)
I0403 13:42:49.781954 32725 net.cpp:156] Memory required for data: 1030800672
I0403 13:42:49.781973 32725 layer_factory.hpp:77] Creating layer inception_4c/relu_1x1
I0403 13:42:49.781996 32725 net.cpp:91] Creating Layer inception_4c/relu_1x1
I0403 13:42:49.782016 32725 net.cpp:425] inception_4c/relu_1x1 <- inception_4c/1x1
I0403 13:42:49.782034 32725 net.cpp:386] inception_4c/relu_1x1 -> inception_4c/1x1 (in-place)
I0403 13:42:49.782235 32725 net.cpp:141] Setting up inception_4c/relu_1x1
I0403 13:42:49.782261 32725 net.cpp:148] Top shape: 24 128 14 14 (602112)
I0403 13:42:49.782277 32725 net.cpp:156] Memory required for data: 1033209120
I0403 13:42:49.782294 32725 layer_factory.hpp:77] Creating layer inception_4c/3x3_reduce
I0403 13:42:49.782318 32725 net.cpp:91] Creating Layer inception_4c/3x3_reduce
I0403 13:42:49.782337 32725 net.cpp:425] inception_4c/3x3_reduce <- inception_4b/output_inception_4b/output_0_split_1
I0403 13:42:49.782358 32725 net.cpp:399] inception_4c/3x3_reduce -> inception_4c/3x3_reduce
I0403 13:42:49.784415 32725 net.cpp:141] Setting up inception_4c/3x3_reduce
I0403 13:42:49.784447 32725 net.cpp:148] Top shape: 24 128 14 14 (602112)
I0403 13:42:49.784463 32725 net.cpp:156] Memory required for data: 1035617568
I0403 13:42:49.784482 32725 layer_factory.hpp:77] Creating layer inception_4c/relu_3x3_reduce
I0403 13:42:49.784503 32725 net.cpp:91] Creating Layer inception_4c/relu_3x3_reduce
I0403 13:42:49.784521 32725 net.cpp:425] inception_4c/relu_3x3_reduce <- inception_4c/3x3_reduce
I0403 13:42:49.784539 32725 net.cpp:386] inception_4c/relu_3x3_reduce -> inception_4c/3x3_reduce (in-place)
I0403 13:42:49.784838 32725 net.cpp:141] Setting up inception_4c/relu_3x3_reduce
I0403 13:42:49.784865 32725 net.cpp:148] Top shape: 24 128 14 14 (602112)
I0403 13:42:49.784881 32725 net.cpp:156] Memory required for data: 1038026016
I0403 13:42:49.784896 32725 layer_factory.hpp:77] Creating layer inception_4c/3x3
I0403 13:42:49.784922 32725 net.cpp:91] Creating Layer inception_4c/3x3
I0403 13:42:49.784940 32725 net.cpp:425] inception_4c/3x3 <- inception_4c/3x3_reduce
I0403 13:42:49.784960 32725 net.cpp:399] inception_4c/3x3 -> inception_4c/3x3
I0403 13:42:49.788779 32725 net.cpp:141] Setting up inception_4c/3x3
I0403 13:42:49.788825 32725 net.cpp:148] Top shape: 24 256 14 14 (1204224)
I0403 13:42:49.788842 32725 net.cpp:156] Memory required for data: 1042842912
I0403 13:42:49.788877 32725 layer_factory.hpp:77] Creating layer inception_4c/relu_3x3
I0403 13:42:49.788898 32725 net.cpp:91] Creating Layer inception_4c/relu_3x3
I0403 13:42:49.788915 32725 net.cpp:425] inception_4c/relu_3x3 <- inception_4c/3x3
I0403 13:42:49.788933 32725 net.cpp:386] inception_4c/relu_3x3 -> inception_4c/3x3 (in-place)
I0403 13:42:49.789125 32725 net.cpp:141] Setting up inception_4c/relu_3x3
I0403 13:42:49.789154 32725 net.cpp:148] Top shape: 24 256 14 14 (1204224)
I0403 13:42:49.789170 32725 net.cpp:156] Memory required for data: 1047659808
I0403 13:42:49.789186 32725 layer_factory.hpp:77] Creating layer inception_4c/5x5_reduce
I0403 13:42:49.789213 32725 net.cpp:91] Creating Layer inception_4c/5x5_reduce
I0403 13:42:49.789233 32725 net.cpp:425] inception_4c/5x5_reduce <- inception_4b/output_inception_4b/output_0_split_2
I0403 13:42:49.789253 32725 net.cpp:399] inception_4c/5x5_reduce -> inception_4c/5x5_reduce
I0403 13:42:49.790408 32725 net.cpp:141] Setting up inception_4c/5x5_reduce
I0403 13:42:49.790443 32725 net.cpp:148] Top shape: 24 24 14 14 (112896)
I0403 13:42:49.790462 32725 net.cpp:156] Memory required for data: 1048111392
I0403 13:42:49.790482 32725 layer_factory.hpp:77] Creating layer inception_4c/relu_5x5_reduce
I0403 13:42:49.790500 32725 net.cpp:91] Creating Layer inception_4c/relu_5x5_reduce
I0403 13:42:49.790518 32725 net.cpp:425] inception_4c/relu_5x5_reduce <- inception_4c/5x5_reduce
I0403 13:42:49.790539 32725 net.cpp:386] inception_4c/relu_5x5_reduce -> inception_4c/5x5_reduce (in-place)
I0403 13:42:49.790736 32725 net.cpp:141] Setting up inception_4c/relu_5x5_reduce
I0403 13:42:49.790762 32725 net.cpp:148] Top shape: 24 24 14 14 (112896)
I0403 13:42:49.790778 32725 net.cpp:156] Memory required for data: 1048562976
I0403 13:42:49.790794 32725 layer_factory.hpp:77] Creating layer inception_4c/5x5
I0403 13:42:49.790817 32725 net.cpp:91] Creating Layer inception_4c/5x5
I0403 13:42:49.790837 32725 net.cpp:425] inception_4c/5x5 <- inception_4c/5x5_reduce
I0403 13:42:49.790859 32725 net.cpp:399] inception_4c/5x5 -> inception_4c/5x5
I0403 13:42:49.792188 32725 net.cpp:141] Setting up inception_4c/5x5
I0403 13:42:49.792222 32725 net.cpp:148] Top shape: 24 64 14 14 (301056)
I0403 13:42:49.792239 32725 net.cpp:156] Memory required for data: 1049767200
I0403 13:42:49.792259 32725 layer_factory.hpp:77] Creating layer inception_4c/relu_5x5
I0403 13:42:49.792281 32725 net.cpp:91] Creating Layer inception_4c/relu_5x5
I0403 13:42:49.792299 32725 net.cpp:425] inception_4c/relu_5x5 <- inception_4c/5x5
I0403 13:42:49.792318 32725 net.cpp:386] inception_4c/relu_5x5 -> inception_4c/5x5 (in-place)
I0403 13:42:49.792623 32725 net.cpp:141] Setting up inception_4c/relu_5x5
I0403 13:42:49.792651 32725 net.cpp:148] Top shape: 24 64 14 14 (301056)
I0403 13:42:49.792667 32725 net.cpp:156] Memory required for data: 1050971424
I0403 13:42:49.792683 32725 layer_factory.hpp:77] Creating layer inception_4c/pool
I0403 13:42:49.792702 32725 net.cpp:91] Creating Layer inception_4c/pool
I0403 13:42:49.792721 32725 net.cpp:425] inception_4c/pool <- inception_4b/output_inception_4b/output_0_split_3
I0403 13:42:49.792742 32725 net.cpp:399] inception_4c/pool -> inception_4c/pool
I0403 13:42:49.792814 32725 net.cpp:141] Setting up inception_4c/pool
I0403 13:42:49.792840 32725 net.cpp:148] Top shape: 24 512 14 14 (2408448)
I0403 13:42:49.792855 32725 net.cpp:156] Memory required for data: 1060605216
I0403 13:42:49.792871 32725 layer_factory.hpp:77] Creating layer inception_4c/pool_proj
I0403 13:42:49.792896 32725 net.cpp:91] Creating Layer inception_4c/pool_proj
I0403 13:42:49.792913 32725 net.cpp:425] inception_4c/pool_proj <- inception_4c/pool
I0403 13:42:49.792937 32725 net.cpp:399] inception_4c/pool_proj -> inception_4c/pool_proj
I0403 13:42:49.794262 32725 net.cpp:141] Setting up inception_4c/pool_proj
I0403 13:42:49.794294 32725 net.cpp:148] Top shape: 24 64 14 14 (301056)
I0403 13:42:49.794325 32725 net.cpp:156] Memory required for data: 1061809440
I0403 13:42:49.794345 32725 layer_factory.hpp:77] Creating layer inception_4c/relu_pool_proj
I0403 13:42:49.794364 32725 net.cpp:91] Creating Layer inception_4c/relu_pool_proj
I0403 13:42:49.794381 32725 net.cpp:425] inception_4c/relu_pool_proj <- inception_4c/pool_proj
I0403 13:42:49.794399 32725 net.cpp:386] inception_4c/relu_pool_proj -> inception_4c/pool_proj (in-place)
I0403 13:42:49.794595 32725 net.cpp:141] Setting up inception_4c/relu_pool_proj
I0403 13:42:49.794621 32725 net.cpp:148] Top shape: 24 64 14 14 (301056)
I0403 13:42:49.794636 32725 net.cpp:156] Memory required for data: 1063013664
I0403 13:42:49.794654 32725 layer_factory.hpp:77] Creating layer inception_4c/output
I0403 13:42:49.794672 32725 net.cpp:91] Creating Layer inception_4c/output
I0403 13:42:49.794688 32725 net.cpp:425] inception_4c/output <- inception_4c/1x1
I0403 13:42:49.794706 32725 net.cpp:425] inception_4c/output <- inception_4c/3x3
I0403 13:42:49.794723 32725 net.cpp:425] inception_4c/output <- inception_4c/5x5
I0403 13:42:49.794739 32725 net.cpp:425] inception_4c/output <- inception_4c/pool_proj
I0403 13:42:49.794760 32725 net.cpp:399] inception_4c/output -> inception_4c/output
I0403 13:42:49.794822 32725 net.cpp:141] Setting up inception_4c/output
I0403 13:42:49.794849 32725 net.cpp:148] Top shape: 24 512 14 14 (2408448)
I0403 13:42:49.794865 32725 net.cpp:156] Memory required for data: 1072647456
I0403 13:42:49.794881 32725 layer_factory.hpp:77] Creating layer inception_4c/output_inception_4c/output_0_split
I0403 13:42:49.794899 32725 net.cpp:91] Creating Layer inception_4c/output_inception_4c/output_0_split
I0403 13:42:49.794916 32725 net.cpp:425] inception_4c/output_inception_4c/output_0_split <- inception_4c/output
I0403 13:42:49.794939 32725 net.cpp:399] inception_4c/output_inception_4c/output_0_split -> inception_4c/output_inception_4c/output_0_split_0
I0403 13:42:49.794960 32725 net.cpp:399] inception_4c/output_inception_4c/output_0_split -> inception_4c/output_inception_4c/output_0_split_1
I0403 13:42:49.794982 32725 net.cpp:399] inception_4c/output_inception_4c/output_0_split -> inception_4c/output_inception_4c/output_0_split_2
I0403 13:42:49.795003 32725 net.cpp:399] inception_4c/output_inception_4c/output_0_split -> inception_4c/output_inception_4c/output_0_split_3
I0403 13:42:49.795094 32725 net.cpp:141] Setting up inception_4c/output_inception_4c/output_0_split
I0403 13:42:49.795130 32725 net.cpp:148] Top shape: 24 512 14 14 (2408448)
I0403 13:42:49.795146 32725 net.cpp:148] Top shape: 24 512 14 14 (2408448)
I0403 13:42:49.795162 32725 net.cpp:148] Top shape: 24 512 14 14 (2408448)
I0403 13:42:49.795178 32725 net.cpp:148] Top shape: 24 512 14 14 (2408448)
I0403 13:42:49.795192 32725 net.cpp:156] Memory required for data: 1111182624
I0403 13:42:49.795212 32725 layer_factory.hpp:77] Creating layer inception_4d/1x1
I0403 13:42:49.795235 32725 net.cpp:91] Creating Layer inception_4d/1x1
I0403 13:42:49.795253 32725 net.cpp:425] inception_4d/1x1 <- inception_4c/output_inception_4c/output_0_split_0
I0403 13:42:49.795275 32725 net.cpp:399] inception_4d/1x1 -> inception_4d/1x1
I0403 13:42:49.796749 32725 net.cpp:141] Setting up inception_4d/1x1
I0403 13:42:49.796779 32725 net.cpp:148] Top shape: 24 112 14 14 (526848)
I0403 13:42:49.796795 32725 net.cpp:156] Memory required for data: 1113290016
I0403 13:42:49.796826 32725 layer_factory.hpp:77] Creating layer inception_4d/relu_1x1
I0403 13:42:49.796847 32725 net.cpp:91] Creating Layer inception_4d/relu_1x1
I0403 13:42:49.796865 32725 net.cpp:425] inception_4d/relu_1x1 <- inception_4d/1x1
I0403 13:42:49.796883 32725 net.cpp:386] inception_4d/relu_1x1 -> inception_4d/1x1 (in-place)
I0403 13:42:49.797075 32725 net.cpp:141] Setting up inception_4d/relu_1x1
I0403 13:42:49.797102 32725 net.cpp:148] Top shape: 24 112 14 14 (526848)
I0403 13:42:49.797118 32725 net.cpp:156] Memory required for data: 1115397408
I0403 13:42:49.797134 32725 layer_factory.hpp:77] Creating layer inception_4d/3x3_reduce
I0403 13:42:49.797171 32725 net.cpp:91] Creating Layer inception_4d/3x3_reduce
I0403 13:42:49.797189 32725 net.cpp:425] inception_4d/3x3_reduce <- inception_4c/output_inception_4c/output_0_split_1
I0403 13:42:49.797214 32725 net.cpp:399] inception_4d/3x3_reduce -> inception_4d/3x3_reduce
I0403 13:42:49.798818 32725 net.cpp:141] Setting up inception_4d/3x3_reduce
I0403 13:42:49.798848 32725 net.cpp:148] Top shape: 24 144 14 14 (677376)
I0403 13:42:49.798866 32725 net.cpp:156] Memory required for data: 1118106912
I0403 13:42:49.798884 32725 layer_factory.hpp:77] Creating layer inception_4d/relu_3x3_reduce
I0403 13:42:49.798905 32725 net.cpp:91] Creating Layer inception_4d/relu_3x3_reduce
I0403 13:42:49.798924 32725 net.cpp:425] inception_4d/relu_3x3_reduce <- inception_4d/3x3_reduce
I0403 13:42:49.798943 32725 net.cpp:386] inception_4d/relu_3x3_reduce -> inception_4d/3x3_reduce (in-place)
I0403 13:42:49.799254 32725 net.cpp:141] Setting up inception_4d/relu_3x3_reduce
I0403 13:42:49.799281 32725 net.cpp:148] Top shape: 24 144 14 14 (677376)
I0403 13:42:49.799296 32725 net.cpp:156] Memory required for data: 1120816416
I0403 13:42:49.799312 32725 layer_factory.hpp:77] Creating layer inception_4d/3x3
I0403 13:42:49.799335 32725 net.cpp:91] Creating Layer inception_4d/3x3
I0403 13:42:49.799355 32725 net.cpp:425] inception_4d/3x3 <- inception_4d/3x3_reduce
I0403 13:42:49.799376 32725 net.cpp:399] inception_4d/3x3 -> inception_4d/3x3
I0403 13:42:49.803879 32725 net.cpp:141] Setting up inception_4d/3x3
I0403 13:42:49.803907 32725 net.cpp:148] Top shape: 24 288 14 14 (1354752)
I0403 13:42:49.803925 32725 net.cpp:156] Memory required for data: 1126235424
I0403 13:42:49.803943 32725 layer_factory.hpp:77] Creating layer inception_4d/relu_3x3
I0403 13:42:49.803964 32725 net.cpp:91] Creating Layer inception_4d/relu_3x3
I0403 13:42:49.803982 32725 net.cpp:425] inception_4d/relu_3x3 <- inception_4d/3x3
I0403 13:42:49.804000 32725 net.cpp:386] inception_4d/relu_3x3 -> inception_4d/3x3 (in-place)
I0403 13:42:49.804191 32725 net.cpp:141] Setting up inception_4d/relu_3x3
I0403 13:42:49.804224 32725 net.cpp:148] Top shape: 24 288 14 14 (1354752)
I0403 13:42:49.804240 32725 net.cpp:156] Memory required for data: 1131654432
I0403 13:42:49.804256 32725 layer_factory.hpp:77] Creating layer inception_4d/5x5_reduce
I0403 13:42:49.804280 32725 net.cpp:91] Creating Layer inception_4d/5x5_reduce
I0403 13:42:49.804297 32725 net.cpp:425] inception_4d/5x5_reduce <- inception_4c/output_inception_4c/output_0_split_2
I0403 13:42:49.804319 32725 net.cpp:399] inception_4d/5x5_reduce -> inception_4d/5x5_reduce
I0403 13:42:49.805555 32725 net.cpp:141] Setting up inception_4d/5x5_reduce
I0403 13:42:49.805584 32725 net.cpp:148] Top shape: 24 32 14 14 (150528)
I0403 13:42:49.805599 32725 net.cpp:156] Memory required for data: 1132256544
I0403 13:42:49.805619 32725 layer_factory.hpp:77] Creating layer inception_4d/relu_5x5_reduce
I0403 13:42:49.805641 32725 net.cpp:91] Creating Layer inception_4d/relu_5x5_reduce
I0403 13:42:49.805660 32725 net.cpp:425] inception_4d/relu_5x5_reduce <- inception_4d/5x5_reduce
I0403 13:42:49.805677 32725 net.cpp:386] inception_4d/relu_5x5_reduce -> inception_4d/5x5_reduce (in-place)
I0403 13:42:49.805876 32725 net.cpp:141] Setting up inception_4d/relu_5x5_reduce
I0403 13:42:49.805907 32725 net.cpp:148] Top shape: 24 32 14 14 (150528)
I0403 13:42:49.805922 32725 net.cpp:156] Memory required for data: 1132858656
I0403 13:42:49.805938 32725 layer_factory.hpp:77] Creating layer inception_4d/5x5
I0403 13:42:49.805961 32725 net.cpp:91] Creating Layer inception_4d/5x5
I0403 13:42:49.805979 32725 net.cpp:425] inception_4d/5x5 <- inception_4d/5x5_reduce
I0403 13:42:49.805999 32725 net.cpp:399] inception_4d/5x5 -> inception_4d/5x5
I0403 13:42:49.807570 32725 net.cpp:141] Setting up inception_4d/5x5
I0403 13:42:49.807603 32725 net.cpp:148] Top shape: 24 64 14 14 (301056)
I0403 13:42:49.807621 32725 net.cpp:156] Memory required for data: 1134062880
I0403 13:42:49.807641 32725 layer_factory.hpp:77] Creating layer inception_4d/relu_5x5
I0403 13:42:49.807677 32725 net.cpp:91] Creating Layer inception_4d/relu_5x5
I0403 13:42:49.807694 32725 net.cpp:425] inception_4d/relu_5x5 <- inception_4d/5x5
I0403 13:42:49.807716 32725 net.cpp:386] inception_4d/relu_5x5 -> inception_4d/5x5 (in-place)
I0403 13:42:49.808045 32725 net.cpp:141] Setting up inception_4d/relu_5x5
I0403 13:42:49.808076 32725 net.cpp:148] Top shape: 24 64 14 14 (301056)
I0403 13:42:49.808092 32725 net.cpp:156] Memory required for data: 1135267104
I0403 13:42:49.808109 32725 layer_factory.hpp:77] Creating layer inception_4d/pool
I0403 13:42:49.808127 32725 net.cpp:91] Creating Layer inception_4d/pool
I0403 13:42:49.808145 32725 net.cpp:425] inception_4d/pool <- inception_4c/output_inception_4c/output_0_split_3
I0403 13:42:49.808167 32725 net.cpp:399] inception_4d/pool -> inception_4d/pool
I0403 13:42:49.808254 32725 net.cpp:141] Setting up inception_4d/pool
I0403 13:42:49.808280 32725 net.cpp:148] Top shape: 24 512 14 14 (2408448)
I0403 13:42:49.808295 32725 net.cpp:156] Memory required for data: 1144900896
I0403 13:42:49.808311 32725 layer_factory.hpp:77] Creating layer inception_4d/pool_proj
I0403 13:42:49.808334 32725 net.cpp:91] Creating Layer inception_4d/pool_proj
I0403 13:42:49.808353 32725 net.cpp:425] inception_4d/pool_proj <- inception_4d/pool
I0403 13:42:49.808373 32725 net.cpp:399] inception_4d/pool_proj -> inception_4d/pool_proj
I0403 13:42:49.810219 32725 net.cpp:141] Setting up inception_4d/pool_proj
I0403 13:42:49.810248 32725 net.cpp:148] Top shape: 24 64 14 14 (301056)
I0403 13:42:49.810264 32725 net.cpp:156] Memory required for data: 1146105120
I0403 13:42:49.810283 32725 layer_factory.hpp:77] Creating layer inception_4d/relu_pool_proj
I0403 13:42:49.810304 32725 net.cpp:91] Creating Layer inception_4d/relu_pool_proj
I0403 13:42:49.810322 32725 net.cpp:425] inception_4d/relu_pool_proj <- inception_4d/pool_proj
I0403 13:42:49.810341 32725 net.cpp:386] inception_4d/relu_pool_proj -> inception_4d/pool_proj (in-place)
I0403 13:42:49.810535 32725 net.cpp:141] Setting up inception_4d/relu_pool_proj
I0403 13:42:49.810564 32725 net.cpp:148] Top shape: 24 64 14 14 (301056)
I0403 13:42:49.810578 32725 net.cpp:156] Memory required for data: 1147309344
I0403 13:42:49.810595 32725 layer_factory.hpp:77] Creating layer inception_4d/output
I0403 13:42:49.810612 32725 net.cpp:91] Creating Layer inception_4d/output
I0403 13:42:49.810629 32725 net.cpp:425] inception_4d/output <- inception_4d/1x1
I0403 13:42:49.810647 32725 net.cpp:425] inception_4d/output <- inception_4d/3x3
I0403 13:42:49.810664 32725 net.cpp:425] inception_4d/output <- inception_4d/5x5
I0403 13:42:49.810680 32725 net.cpp:425] inception_4d/output <- inception_4d/pool_proj
I0403 13:42:49.810698 32725 net.cpp:399] inception_4d/output -> inception_4d/output
I0403 13:42:49.810750 32725 net.cpp:141] Setting up inception_4d/output
I0403 13:42:49.810775 32725 net.cpp:148] Top shape: 24 528 14 14 (2483712)
I0403 13:42:49.810789 32725 net.cpp:156] Memory required for data: 1157244192
I0403 13:42:49.810806 32725 layer_factory.hpp:77] Creating layer inception_4d/output_inception_4d/output_0_split
I0403 13:42:49.810825 32725 net.cpp:91] Creating Layer inception_4d/output_inception_4d/output_0_split
I0403 13:42:49.810842 32725 net.cpp:425] inception_4d/output_inception_4d/output_0_split <- inception_4d/output
I0403 13:42:49.810861 32725 net.cpp:399] inception_4d/output_inception_4d/output_0_split -> inception_4d/output_inception_4d/output_0_split_0
I0403 13:42:49.810883 32725 net.cpp:399] inception_4d/output_inception_4d/output_0_split -> inception_4d/output_inception_4d/output_0_split_1
I0403 13:42:49.810907 32725 net.cpp:399] inception_4d/output_inception_4d/output_0_split -> inception_4d/output_inception_4d/output_0_split_2
I0403 13:42:49.810930 32725 net.cpp:399] inception_4d/output_inception_4d/output_0_split -> inception_4d/output_inception_4d/output_0_split_3
I0403 13:42:49.810950 32725 net.cpp:399] inception_4d/output_inception_4d/output_0_split -> inception_4d/output_inception_4d/output_0_split_4
I0403 13:42:49.811072 32725 net.cpp:141] Setting up inception_4d/output_inception_4d/output_0_split
I0403 13:42:49.811110 32725 net.cpp:148] Top shape: 24 528 14 14 (2483712)
I0403 13:42:49.811128 32725 net.cpp:148] Top shape: 24 528 14 14 (2483712)
I0403 13:42:49.811146 32725 net.cpp:148] Top shape: 24 528 14 14 (2483712)
I0403 13:42:49.811162 32725 net.cpp:148] Top shape: 24 528 14 14 (2483712)
I0403 13:42:49.811179 32725 net.cpp:148] Top shape: 24 528 14 14 (2483712)
I0403 13:42:49.811194 32725 net.cpp:156] Memory required for data: 1206918432
I0403 13:42:49.811214 32725 layer_factory.hpp:77] Creating layer loss2/ave_pool
I0403 13:42:49.811239 32725 net.cpp:91] Creating Layer loss2/ave_pool
I0403 13:42:49.811256 32725 net.cpp:425] loss2/ave_pool <- inception_4d/output_inception_4d/output_0_split_0
I0403 13:42:49.811276 32725 net.cpp:399] loss2/ave_pool -> loss2/ave_pool
I0403 13:42:49.811630 32725 net.cpp:141] Setting up loss2/ave_pool
I0403 13:42:49.811656 32725 net.cpp:148] Top shape: 24 528 4 4 (202752)
I0403 13:42:49.811672 32725 net.cpp:156] Memory required for data: 1207729440
I0403 13:42:49.811686 32725 layer_factory.hpp:77] Creating layer loss2/conv
I0403 13:42:49.811712 32725 net.cpp:91] Creating Layer loss2/conv
I0403 13:42:49.811729 32725 net.cpp:425] loss2/conv <- loss2/ave_pool
I0403 13:42:49.811748 32725 net.cpp:399] loss2/conv -> loss2/conv
I0403 13:42:49.813719 32725 net.cpp:141] Setting up loss2/conv
I0403 13:42:49.813750 32725 net.cpp:148] Top shape: 24 128 4 4 (49152)
I0403 13:42:49.813766 32725 net.cpp:156] Memory required for data: 1207926048
I0403 13:42:49.813784 32725 layer_factory.hpp:77] Creating layer loss2/relu_conv
I0403 13:42:49.813803 32725 net.cpp:91] Creating Layer loss2/relu_conv
I0403 13:42:49.813820 32725 net.cpp:425] loss2/relu_conv <- loss2/conv
I0403 13:42:49.813859 32725 net.cpp:386] loss2/relu_conv -> loss2/conv (in-place)
I0403 13:42:49.814159 32725 net.cpp:141] Setting up loss2/relu_conv
I0403 13:42:49.814187 32725 net.cpp:148] Top shape: 24 128 4 4 (49152)
I0403 13:42:49.814201 32725 net.cpp:156] Memory required for data: 1208122656
I0403 13:42:49.814221 32725 layer_factory.hpp:77] Creating layer loss2/fc
I0403 13:42:49.814242 32725 net.cpp:91] Creating Layer loss2/fc
I0403 13:42:49.814260 32725 net.cpp:425] loss2/fc <- loss2/conv
I0403 13:42:49.814281 32725 net.cpp:399] loss2/fc -> loss2/fc
I0403 13:42:49.832309 32725 net.cpp:141] Setting up loss2/fc
I0403 13:42:49.832365 32725 net.cpp:148] Top shape: 24 1024 (24576)
I0403 13:42:49.832381 32725 net.cpp:156] Memory required for data: 1208220960
I0403 13:42:49.832402 32725 layer_factory.hpp:77] Creating layer loss2/relu_fc
I0403 13:42:49.832422 32725 net.cpp:91] Creating Layer loss2/relu_fc
I0403 13:42:49.832440 32725 net.cpp:425] loss2/relu_fc <- loss2/fc
I0403 13:42:49.832459 32725 net.cpp:386] loss2/relu_fc -> loss2/fc (in-place)
I0403 13:42:49.832803 32725 net.cpp:141] Setting up loss2/relu_fc
I0403 13:42:49.832847 32725 net.cpp:148] Top shape: 24 1024 (24576)
I0403 13:42:49.832864 32725 net.cpp:156] Memory required for data: 1208319264
I0403 13:42:49.832881 32725 layer_factory.hpp:77] Creating layer loss2/drop_fc
I0403 13:42:49.832901 32725 net.cpp:91] Creating Layer loss2/drop_fc
I0403 13:42:49.832917 32725 net.cpp:425] loss2/drop_fc <- loss2/fc
I0403 13:42:49.832934 32725 net.cpp:386] loss2/drop_fc -> loss2/fc (in-place)
I0403 13:42:49.832988 32725 net.cpp:141] Setting up loss2/drop_fc
I0403 13:42:49.833012 32725 net.cpp:148] Top shape: 24 1024 (24576)
I0403 13:42:49.833026 32725 net.cpp:156] Memory required for data: 1208417568
I0403 13:42:49.833042 32725 layer_factory.hpp:77] Creating layer loss2/classifier_plantvillage
I0403 13:42:49.833065 32725 net.cpp:91] Creating Layer loss2/classifier_plantvillage
I0403 13:42:49.833081 32725 net.cpp:425] loss2/classifier_plantvillage <- loss2/fc
I0403 13:42:49.833101 32725 net.cpp:399] loss2/classifier_plantvillage -> loss2/classifier_plantvillage
I0403 13:42:49.833541 32725 net.cpp:141] Setting up loss2/classifier_plantvillage
I0403 13:42:49.833566 32725 net.cpp:148] Top shape: 24 38 (912)
I0403 13:42:49.833606 32725 net.cpp:156] Memory required for data: 1208421216
I0403 13:42:49.833626 32725 layer_factory.hpp:77] Creating layer loss2/classifier_plantvillage_loss2/classifier_plantvillage_0_split
I0403 13:42:49.833644 32725 net.cpp:91] Creating Layer loss2/classifier_plantvillage_loss2/classifier_plantvillage_0_split
I0403 13:42:49.833660 32725 net.cpp:425] loss2/classifier_plantvillage_loss2/classifier_plantvillage_0_split <- loss2/classifier_plantvillage
I0403 13:42:49.833681 32725 net.cpp:399] loss2/classifier_plantvillage_loss2/classifier_plantvillage_0_split -> loss2/classifier_plantvillage_loss2/classifier_plantvillage_0_split_0
I0403 13:42:49.833703 32725 net.cpp:399] loss2/classifier_plantvillage_loss2/classifier_plantvillage_0_split -> loss2/classifier_plantvillage_loss2/classifier_plantvillage_0_split_1
I0403 13:42:49.833724 32725 net.cpp:399] loss2/classifier_plantvillage_loss2/classifier_plantvillage_0_split -> loss2/classifier_plantvillage_loss2/classifier_plantvillage_0_split_2
I0403 13:42:49.833801 32725 net.cpp:141] Setting up loss2/classifier_plantvillage_loss2/classifier_plantvillage_0_split
I0403 13:42:49.833827 32725 net.cpp:148] Top shape: 24 38 (912)
I0403 13:42:49.833842 32725 net.cpp:148] Top shape: 24 38 (912)
I0403 13:42:49.833858 32725 net.cpp:148] Top shape: 24 38 (912)
I0403 13:42:49.833873 32725 net.cpp:156] Memory required for data: 1208432160
I0403 13:42:49.833887 32725 layer_factory.hpp:77] Creating layer inception_4e/1x1
I0403 13:42:49.833910 32725 net.cpp:91] Creating Layer inception_4e/1x1
I0403 13:42:49.833928 32725 net.cpp:425] inception_4e/1x1 <- inception_4d/output_inception_4d/output_0_split_1
I0403 13:42:49.833948 32725 net.cpp:399] inception_4e/1x1 -> inception_4e/1x1
I0403 13:42:49.835927 32725 net.cpp:141] Setting up inception_4e/1x1
I0403 13:42:49.835957 32725 net.cpp:148] Top shape: 24 256 14 14 (1204224)
I0403 13:42:49.835973 32725 net.cpp:156] Memory required for data: 1213249056
I0403 13:42:49.835993 32725 layer_factory.hpp:77] Creating layer inception_4e/relu_1x1
I0403 13:42:49.836011 32725 net.cpp:91] Creating Layer inception_4e/relu_1x1
I0403 13:42:49.836031 32725 net.cpp:425] inception_4e/relu_1x1 <- inception_4e/1x1
I0403 13:42:49.836050 32725 net.cpp:386] inception_4e/relu_1x1 -> inception_4e/1x1 (in-place)
I0403 13:42:49.836360 32725 net.cpp:141] Setting up inception_4e/relu_1x1
I0403 13:42:49.836388 32725 net.cpp:148] Top shape: 24 256 14 14 (1204224)
I0403 13:42:49.836405 32725 net.cpp:156] Memory required for data: 1218065952
I0403 13:42:49.836422 32725 layer_factory.hpp:77] Creating layer inception_4e/3x3_reduce
I0403 13:42:49.836446 32725 net.cpp:91] Creating Layer inception_4e/3x3_reduce
I0403 13:42:49.836465 32725 net.cpp:425] inception_4e/3x3_reduce <- inception_4d/output_inception_4d/output_0_split_2
I0403 13:42:49.836488 32725 net.cpp:399] inception_4e/3x3_reduce -> inception_4e/3x3_reduce
I0403 13:42:49.838678 32725 net.cpp:141] Setting up inception_4e/3x3_reduce
I0403 13:42:49.838713 32725 net.cpp:148] Top shape: 24 160 14 14 (752640)
I0403 13:42:49.838731 32725 net.cpp:156] Memory required for data: 1221076512
I0403 13:42:49.838749 32725 layer_factory.hpp:77] Creating layer inception_4e/relu_3x3_reduce
I0403 13:42:49.838768 32725 net.cpp:91] Creating Layer inception_4e/relu_3x3_reduce
I0403 13:42:49.838784 32725 net.cpp:425] inception_4e/relu_3x3_reduce <- inception_4e/3x3_reduce
I0403 13:42:49.838805 32725 net.cpp:386] inception_4e/relu_3x3_reduce -> inception_4e/3x3_reduce (in-place)
I0403 13:42:49.838997 32725 net.cpp:141] Setting up inception_4e/relu_3x3_reduce
I0403 13:42:49.839025 32725 net.cpp:148] Top shape: 24 160 14 14 (752640)
I0403 13:42:49.839040 32725 net.cpp:156] Memory required for data: 1224087072
I0403 13:42:49.839056 32725 layer_factory.hpp:77] Creating layer inception_4e/3x3
I0403 13:42:49.839078 32725 net.cpp:91] Creating Layer inception_4e/3x3
I0403 13:42:49.839098 32725 net.cpp:425] inception_4e/3x3 <- inception_4e/3x3_reduce
I0403 13:42:49.839120 32725 net.cpp:399] inception_4e/3x3 -> inception_4e/3x3
I0403 13:42:49.844302 32725 net.cpp:141] Setting up inception_4e/3x3
I0403 13:42:49.844348 32725 net.cpp:148] Top shape: 24 320 14 14 (1505280)
I0403 13:42:49.844367 32725 net.cpp:156] Memory required for data: 1230108192
I0403 13:42:49.844385 32725 layer_factory.hpp:77] Creating layer inception_4e/relu_3x3
I0403 13:42:49.844408 32725 net.cpp:91] Creating Layer inception_4e/relu_3x3
I0403 13:42:49.844426 32725 net.cpp:425] inception_4e/relu_3x3 <- inception_4e/3x3
I0403 13:42:49.844445 32725 net.cpp:386] inception_4e/relu_3x3 -> inception_4e/3x3 (in-place)
I0403 13:42:49.844763 32725 net.cpp:141] Setting up inception_4e/relu_3x3
I0403 13:42:49.844789 32725 net.cpp:148] Top shape: 24 320 14 14 (1505280)
I0403 13:42:49.844805 32725 net.cpp:156] Memory required for data: 1236129312
I0403 13:42:49.844820 32725 layer_factory.hpp:77] Creating layer inception_4e/5x5_reduce
I0403 13:42:49.844844 32725 net.cpp:91] Creating Layer inception_4e/5x5_reduce
I0403 13:42:49.844862 32725 net.cpp:425] inception_4e/5x5_reduce <- inception_4d/output_inception_4d/output_0_split_3
I0403 13:42:49.844884 32725 net.cpp:399] inception_4e/5x5_reduce -> inception_4e/5x5_reduce
I0403 13:42:49.846004 32725 net.cpp:141] Setting up inception_4e/5x5_reduce
I0403 13:42:49.846036 32725 net.cpp:148] Top shape: 24 32 14 14 (150528)
I0403 13:42:49.846053 32725 net.cpp:156] Memory required for data: 1236731424
I0403 13:42:49.846072 32725 layer_factory.hpp:77] Creating layer inception_4e/relu_5x5_reduce
I0403 13:42:49.846091 32725 net.cpp:91] Creating Layer inception_4e/relu_5x5_reduce
I0403 13:42:49.846108 32725 net.cpp:425] inception_4e/relu_5x5_reduce <- inception_4e/5x5_reduce
I0403 13:42:49.846128 32725 net.cpp:386] inception_4e/relu_5x5_reduce -> inception_4e/5x5_reduce (in-place)
I0403 13:42:49.846439 32725 net.cpp:141] Setting up inception_4e/relu_5x5_reduce
I0403 13:42:49.846468 32725 net.cpp:148] Top shape: 24 32 14 14 (150528)
I0403 13:42:49.846485 32725 net.cpp:156] Memory required for data: 1237333536
I0403 13:42:49.846500 32725 layer_factory.hpp:77] Creating layer inception_4e/5x5
I0403 13:42:49.846544 32725 net.cpp:91] Creating Layer inception_4e/5x5
I0403 13:42:49.846562 32725 net.cpp:425] inception_4e/5x5 <- inception_4e/5x5_reduce
I0403 13:42:49.846583 32725 net.cpp:399] inception_4e/5x5 -> inception_4e/5x5
I0403 13:42:49.848534 32725 net.cpp:141] Setting up inception_4e/5x5
I0403 13:42:49.848564 32725 net.cpp:148] Top shape: 24 128 14 14 (602112)
I0403 13:42:49.848582 32725 net.cpp:156] Memory required for data: 1239741984
I0403 13:42:49.848606 32725 layer_factory.hpp:77] Creating layer inception_4e/relu_5x5
I0403 13:42:49.848628 32725 net.cpp:91] Creating Layer inception_4e/relu_5x5
I0403 13:42:49.848645 32725 net.cpp:425] inception_4e/relu_5x5 <- inception_4e/5x5
I0403 13:42:49.848664 32725 net.cpp:386] inception_4e/relu_5x5 -> inception_4e/5x5 (in-place)
I0403 13:42:49.848873 32725 net.cpp:141] Setting up inception_4e/relu_5x5
I0403 13:42:49.848899 32725 net.cpp:148] Top shape: 24 128 14 14 (602112)
I0403 13:42:49.848914 32725 net.cpp:156] Memory required for data: 1242150432
I0403 13:42:49.848930 32725 layer_factory.hpp:77] Creating layer inception_4e/pool
I0403 13:42:49.848949 32725 net.cpp:91] Creating Layer inception_4e/pool
I0403 13:42:49.848966 32725 net.cpp:425] inception_4e/pool <- inception_4d/output_inception_4d/output_0_split_4
I0403 13:42:49.848987 32725 net.cpp:399] inception_4e/pool -> inception_4e/pool
I0403 13:42:49.849062 32725 net.cpp:141] Setting up inception_4e/pool
I0403 13:42:49.849086 32725 net.cpp:148] Top shape: 24 528 14 14 (2483712)
I0403 13:42:49.849102 32725 net.cpp:156] Memory required for data: 1252085280
I0403 13:42:49.849117 32725 layer_factory.hpp:77] Creating layer inception_4e/pool_proj
I0403 13:42:49.849141 32725 net.cpp:91] Creating Layer inception_4e/pool_proj
I0403 13:42:49.849159 32725 net.cpp:425] inception_4e/pool_proj <- inception_4e/pool
I0403 13:42:49.849179 32725 net.cpp:399] inception_4e/pool_proj -> inception_4e/pool_proj
I0403 13:42:49.850791 32725 net.cpp:141] Setting up inception_4e/pool_proj
I0403 13:42:49.850834 32725 net.cpp:148] Top shape: 24 128 14 14 (602112)
I0403 13:42:49.850852 32725 net.cpp:156] Memory required for data: 1254493728
I0403 13:42:49.850872 32725 layer_factory.hpp:77] Creating layer inception_4e/relu_pool_proj
I0403 13:42:49.850893 32725 net.cpp:91] Creating Layer inception_4e/relu_pool_proj
I0403 13:42:49.850911 32725 net.cpp:425] inception_4e/relu_pool_proj <- inception_4e/pool_proj
I0403 13:42:49.850929 32725 net.cpp:386] inception_4e/relu_pool_proj -> inception_4e/pool_proj (in-place)
I0403 13:42:49.851241 32725 net.cpp:141] Setting up inception_4e/relu_pool_proj
I0403 13:42:49.851269 32725 net.cpp:148] Top shape: 24 128 14 14 (602112)
I0403 13:42:49.851284 32725 net.cpp:156] Memory required for data: 1256902176
I0403 13:42:49.851299 32725 layer_factory.hpp:77] Creating layer inception_4e/output
I0403 13:42:49.851320 32725 net.cpp:91] Creating Layer inception_4e/output
I0403 13:42:49.851337 32725 net.cpp:425] inception_4e/output <- inception_4e/1x1
I0403 13:42:49.851354 32725 net.cpp:425] inception_4e/output <- inception_4e/3x3
I0403 13:42:49.851372 32725 net.cpp:425] inception_4e/output <- inception_4e/5x5
I0403 13:42:49.851388 32725 net.cpp:425] inception_4e/output <- inception_4e/pool_proj
I0403 13:42:49.851407 32725 net.cpp:399] inception_4e/output -> inception_4e/output
I0403 13:42:49.851459 32725 net.cpp:141] Setting up inception_4e/output
I0403 13:42:49.851483 32725 net.cpp:148] Top shape: 24 832 14 14 (3913728)
I0403 13:42:49.851500 32725 net.cpp:156] Memory required for data: 1272557088
I0403 13:42:49.851516 32725 layer_factory.hpp:77] Creating layer pool4/3x3_s2
I0403 13:42:49.851533 32725 net.cpp:91] Creating Layer pool4/3x3_s2
I0403 13:42:49.851549 32725 net.cpp:425] pool4/3x3_s2 <- inception_4e/output
I0403 13:42:49.851572 32725 net.cpp:399] pool4/3x3_s2 -> pool4/3x3_s2
I0403 13:42:49.851640 32725 net.cpp:141] Setting up pool4/3x3_s2
I0403 13:42:49.851665 32725 net.cpp:148] Top shape: 24 832 7 7 (978432)
I0403 13:42:49.851680 32725 net.cpp:156] Memory required for data: 1276470816
I0403 13:42:49.851696 32725 layer_factory.hpp:77] Creating layer pool4/3x3_s2_pool4/3x3_s2_0_split
I0403 13:42:49.851717 32725 net.cpp:91] Creating Layer pool4/3x3_s2_pool4/3x3_s2_0_split
I0403 13:42:49.851734 32725 net.cpp:425] pool4/3x3_s2_pool4/3x3_s2_0_split <- pool4/3x3_s2
I0403 13:42:49.851754 32725 net.cpp:399] pool4/3x3_s2_pool4/3x3_s2_0_split -> pool4/3x3_s2_pool4/3x3_s2_0_split_0
I0403 13:42:49.851776 32725 net.cpp:399] pool4/3x3_s2_pool4/3x3_s2_0_split -> pool4/3x3_s2_pool4/3x3_s2_0_split_1
I0403 13:42:49.851797 32725 net.cpp:399] pool4/3x3_s2_pool4/3x3_s2_0_split -> pool4/3x3_s2_pool4/3x3_s2_0_split_2
I0403 13:42:49.851819 32725 net.cpp:399] pool4/3x3_s2_pool4/3x3_s2_0_split -> pool4/3x3_s2_pool4/3x3_s2_0_split_3
I0403 13:42:49.851913 32725 net.cpp:141] Setting up pool4/3x3_s2_pool4/3x3_s2_0_split
I0403 13:42:49.851939 32725 net.cpp:148] Top shape: 24 832 7 7 (978432)
I0403 13:42:49.851956 32725 net.cpp:148] Top shape: 24 832 7 7 (978432)
I0403 13:42:49.851974 32725 net.cpp:148] Top shape: 24 832 7 7 (978432)
I0403 13:42:49.851990 32725 net.cpp:148] Top shape: 24 832 7 7 (978432)
I0403 13:42:49.852005 32725 net.cpp:156] Memory required for data: 1292125728
I0403 13:42:49.852020 32725 layer_factory.hpp:77] Creating layer inception_5a/1x1
I0403 13:42:49.852043 32725 net.cpp:91] Creating Layer inception_5a/1x1
I0403 13:42:49.852061 32725 net.cpp:425] inception_5a/1x1 <- pool4/3x3_s2_pool4/3x3_s2_0_split_0
I0403 13:42:49.852082 32725 net.cpp:399] inception_5a/1x1 -> inception_5a/1x1
I0403 13:42:49.855079 32725 net.cpp:141] Setting up inception_5a/1x1
I0403 13:42:49.855113 32725 net.cpp:148] Top shape: 24 256 7 7 (301056)
I0403 13:42:49.855132 32725 net.cpp:156] Memory required for data: 1293329952
I0403 13:42:49.855152 32725 layer_factory.hpp:77] Creating layer inception_5a/relu_1x1
I0403 13:42:49.855171 32725 net.cpp:91] Creating Layer inception_5a/relu_1x1
I0403 13:42:49.855190 32725 net.cpp:425] inception_5a/relu_1x1 <- inception_5a/1x1
I0403 13:42:49.855213 32725 net.cpp:386] inception_5a/relu_1x1 -> inception_5a/1x1 (in-place)
I0403 13:42:49.855538 32725 net.cpp:141] Setting up inception_5a/relu_1x1
I0403 13:42:49.855567 32725 net.cpp:148] Top shape: 24 256 7 7 (301056)
I0403 13:42:49.855583 32725 net.cpp:156] Memory required for data: 1294534176
I0403 13:42:49.855599 32725 layer_factory.hpp:77] Creating layer inception_5a/3x3_reduce
I0403 13:42:49.855623 32725 net.cpp:91] Creating Layer inception_5a/3x3_reduce
I0403 13:42:49.855643 32725 net.cpp:425] inception_5a/3x3_reduce <- pool4/3x3_s2_pool4/3x3_s2_0_split_1
I0403 13:42:49.855662 32725 net.cpp:399] inception_5a/3x3_reduce -> inception_5a/3x3_reduce
I0403 13:42:49.858242 32725 net.cpp:141] Setting up inception_5a/3x3_reduce
I0403 13:42:49.858273 32725 net.cpp:148] Top shape: 24 160 7 7 (188160)
I0403 13:42:49.858289 32725 net.cpp:156] Memory required for data: 1295286816
I0403 13:42:49.858309 32725 layer_factory.hpp:77] Creating layer inception_5a/relu_3x3_reduce
I0403 13:42:49.858333 32725 net.cpp:91] Creating Layer inception_5a/relu_3x3_reduce
I0403 13:42:49.858352 32725 net.cpp:425] inception_5a/relu_3x3_reduce <- inception_5a/3x3_reduce
I0403 13:42:49.858371 32725 net.cpp:386] inception_5a/relu_3x3_reduce -> inception_5a/3x3_reduce (in-place)
I0403 13:42:49.858567 32725 net.cpp:141] Setting up inception_5a/relu_3x3_reduce
I0403 13:42:49.858595 32725 net.cpp:148] Top shape: 24 160 7 7 (188160)
I0403 13:42:49.858611 32725 net.cpp:156] Memory required for data: 1296039456
I0403 13:42:49.858628 32725 layer_factory.hpp:77] Creating layer inception_5a/3x3
I0403 13:42:49.858651 32725 net.cpp:91] Creating Layer inception_5a/3x3
I0403 13:42:49.858669 32725 net.cpp:425] inception_5a/3x3 <- inception_5a/3x3_reduce
I0403 13:42:49.858690 32725 net.cpp:399] inception_5a/3x3 -> inception_5a/3x3
I0403 13:42:49.863965 32725 net.cpp:141] Setting up inception_5a/3x3
I0403 13:42:49.864001 32725 net.cpp:148] Top shape: 24 320 7 7 (376320)
I0403 13:42:49.864019 32725 net.cpp:156] Memory required for data: 1297544736
I0403 13:42:49.864040 32725 layer_factory.hpp:77] Creating layer inception_5a/relu_3x3
I0403 13:42:49.864058 32725 net.cpp:91] Creating Layer inception_5a/relu_3x3
I0403 13:42:49.864076 32725 net.cpp:425] inception_5a/relu_3x3 <- inception_5a/3x3
I0403 13:42:49.864097 32725 net.cpp:386] inception_5a/relu_3x3 -> inception_5a/3x3 (in-place)
I0403 13:42:49.864423 32725 net.cpp:141] Setting up inception_5a/relu_3x3
I0403 13:42:49.864454 32725 net.cpp:148] Top shape: 24 320 7 7 (376320)
I0403 13:42:49.864470 32725 net.cpp:156] Memory required for data: 1299050016
I0403 13:42:49.864485 32725 layer_factory.hpp:77] Creating layer inception_5a/5x5_reduce
I0403 13:42:49.864509 32725 net.cpp:91] Creating Layer inception_5a/5x5_reduce
I0403 13:42:49.864529 32725 net.cpp:425] inception_5a/5x5_reduce <- pool4/3x3_s2_pool4/3x3_s2_0_split_2
I0403 13:42:49.864549 32725 net.cpp:399] inception_5a/5x5_reduce -> inception_5a/5x5_reduce
I0403 13:42:49.865810 32725 net.cpp:141] Setting up inception_5a/5x5_reduce
I0403 13:42:49.865844 32725 net.cpp:148] Top shape: 24 32 7 7 (37632)
I0403 13:42:49.865861 32725 net.cpp:156] Memory required for data: 1299200544
I0403 13:42:49.865881 32725 layer_factory.hpp:77] Creating layer inception_5a/relu_5x5_reduce
I0403 13:42:49.865900 32725 net.cpp:91] Creating Layer inception_5a/relu_5x5_reduce
I0403 13:42:49.865918 32725 net.cpp:425] inception_5a/relu_5x5_reduce <- inception_5a/5x5_reduce
I0403 13:42:49.865938 32725 net.cpp:386] inception_5a/relu_5x5_reduce -> inception_5a/5x5_reduce (in-place)
I0403 13:42:49.866261 32725 net.cpp:141] Setting up inception_5a/relu_5x5_reduce
I0403 13:42:49.866287 32725 net.cpp:148] Top shape: 24 32 7 7 (37632)
I0403 13:42:49.866302 32725 net.cpp:156] Memory required for data: 1299351072
I0403 13:42:49.866318 32725 layer_factory.hpp:77] Creating layer inception_5a/5x5
I0403 13:42:49.866341 32725 net.cpp:91] Creating Layer inception_5a/5x5
I0403 13:42:49.866360 32725 net.cpp:425] inception_5a/5x5 <- inception_5a/5x5_reduce
I0403 13:42:49.866382 32725 net.cpp:399] inception_5a/5x5 -> inception_5a/5x5
I0403 13:42:49.868173 32725 net.cpp:141] Setting up inception_5a/5x5
I0403 13:42:49.868224 32725 net.cpp:148] Top shape: 24 128 7 7 (150528)
I0403 13:42:49.868245 32725 net.cpp:156] Memory required for data: 1299953184
I0403 13:42:49.868264 32725 layer_factory.hpp:77] Creating layer inception_5a/relu_5x5
I0403 13:42:49.868284 32725 net.cpp:91] Creating Layer inception_5a/relu_5x5
I0403 13:42:49.868304 32725 net.cpp:425] inception_5a/relu_5x5 <- inception_5a/5x5
I0403 13:42:49.868326 32725 net.cpp:386] inception_5a/relu_5x5 -> inception_5a/5x5 (in-place)
I0403 13:42:49.868526 32725 net.cpp:141] Setting up inception_5a/relu_5x5
I0403 13:42:49.868553 32725 net.cpp:148] Top shape: 24 128 7 7 (150528)
I0403 13:42:49.868571 32725 net.cpp:156] Memory required for data: 1300555296
I0403 13:42:49.868585 32725 layer_factory.hpp:77] Creating layer inception_5a/pool
I0403 13:42:49.868605 32725 net.cpp:91] Creating Layer inception_5a/pool
I0403 13:42:49.868623 32725 net.cpp:425] inception_5a/pool <- pool4/3x3_s2_pool4/3x3_s2_0_split_3
I0403 13:42:49.868643 32725 net.cpp:399] inception_5a/pool -> inception_5a/pool
I0403 13:42:49.868716 32725 net.cpp:141] Setting up inception_5a/pool
I0403 13:42:49.868741 32725 net.cpp:148] Top shape: 24 832 7 7 (978432)
I0403 13:42:49.868757 32725 net.cpp:156] Memory required for data: 1304469024
I0403 13:42:49.868772 32725 layer_factory.hpp:77] Creating layer inception_5a/pool_proj
I0403 13:42:49.868796 32725 net.cpp:91] Creating Layer inception_5a/pool_proj
I0403 13:42:49.868814 32725 net.cpp:425] inception_5a/pool_proj <- inception_5a/pool
I0403 13:42:49.868834 32725 net.cpp:399] inception_5a/pool_proj -> inception_5a/pool_proj
I0403 13:42:49.871280 32725 net.cpp:141] Setting up inception_5a/pool_proj
I0403 13:42:49.871311 32725 net.cpp:148] Top shape: 24 128 7 7 (150528)
I0403 13:42:49.871330 32725 net.cpp:156] Memory required for data: 1305071136
I0403 13:42:49.871351 32725 layer_factory.hpp:77] Creating layer inception_5a/relu_pool_proj
I0403 13:42:49.871369 32725 net.cpp:91] Creating Layer inception_5a/relu_pool_proj
I0403 13:42:49.871387 32725 net.cpp:425] inception_5a/relu_pool_proj <- inception_5a/pool_proj
I0403 13:42:49.871404 32725 net.cpp:386] inception_5a/relu_pool_proj -> inception_5a/pool_proj (in-place)
I0403 13:42:49.871713 32725 net.cpp:141] Setting up inception_5a/relu_pool_proj
I0403 13:42:49.871742 32725 net.cpp:148] Top shape: 24 128 7 7 (150528)
I0403 13:42:49.871758 32725 net.cpp:156] Memory required for data: 1305673248
I0403 13:42:49.871774 32725 layer_factory.hpp:77] Creating layer inception_5a/output
I0403 13:42:49.871793 32725 net.cpp:91] Creating Layer inception_5a/output
I0403 13:42:49.871809 32725 net.cpp:425] inception_5a/output <- inception_5a/1x1
I0403 13:42:49.871825 32725 net.cpp:425] inception_5a/output <- inception_5a/3x3
I0403 13:42:49.871841 32725 net.cpp:425] inception_5a/output <- inception_5a/5x5
I0403 13:42:49.871858 32725 net.cpp:425] inception_5a/output <- inception_5a/pool_proj
I0403 13:42:49.871876 32725 net.cpp:399] inception_5a/output -> inception_5a/output
I0403 13:42:49.871939 32725 net.cpp:141] Setting up inception_5a/output
I0403 13:42:49.871964 32725 net.cpp:148] Top shape: 24 832 7 7 (978432)
I0403 13:42:49.871979 32725 net.cpp:156] Memory required for data: 1309586976
I0403 13:42:49.871994 32725 layer_factory.hpp:77] Creating layer inception_5a/output_inception_5a/output_0_split
I0403 13:42:49.872012 32725 net.cpp:91] Creating Layer inception_5a/output_inception_5a/output_0_split
I0403 13:42:49.872030 32725 net.cpp:425] inception_5a/output_inception_5a/output_0_split <- inception_5a/output
I0403 13:42:49.872050 32725 net.cpp:399] inception_5a/output_inception_5a/output_0_split -> inception_5a/output_inception_5a/output_0_split_0
I0403 13:42:49.872071 32725 net.cpp:399] inception_5a/output_inception_5a/output_0_split -> inception_5a/output_inception_5a/output_0_split_1
I0403 13:42:49.872092 32725 net.cpp:399] inception_5a/output_inception_5a/output_0_split -> inception_5a/output_inception_5a/output_0_split_2
I0403 13:42:49.872112 32725 net.cpp:399] inception_5a/output_inception_5a/output_0_split -> inception_5a/output_inception_5a/output_0_split_3
I0403 13:42:49.872237 32725 net.cpp:141] Setting up inception_5a/output_inception_5a/output_0_split
I0403 13:42:49.872277 32725 net.cpp:148] Top shape: 24 832 7 7 (978432)
I0403 13:42:49.872293 32725 net.cpp:148] Top shape: 24 832 7 7 (978432)
I0403 13:42:49.872310 32725 net.cpp:148] Top shape: 24 832 7 7 (978432)
I0403 13:42:49.872326 32725 net.cpp:148] Top shape: 24 832 7 7 (978432)
I0403 13:42:49.872341 32725 net.cpp:156] Memory required for data: 1325241888
I0403 13:42:49.872357 32725 layer_factory.hpp:77] Creating layer inception_5b/1x1
I0403 13:42:49.872381 32725 net.cpp:91] Creating Layer inception_5b/1x1
I0403 13:42:49.872400 32725 net.cpp:425] inception_5b/1x1 <- inception_5a/output_inception_5a/output_0_split_0
I0403 13:42:49.872423 32725 net.cpp:399] inception_5b/1x1 -> inception_5b/1x1
I0403 13:42:49.876425 32725 net.cpp:141] Setting up inception_5b/1x1
I0403 13:42:49.876458 32725 net.cpp:148] Top shape: 24 384 7 7 (451584)
I0403 13:42:49.876477 32725 net.cpp:156] Memory required for data: 1327048224
I0403 13:42:49.876497 32725 layer_factory.hpp:77] Creating layer inception_5b/relu_1x1
I0403 13:42:49.876518 32725 net.cpp:91] Creating Layer inception_5b/relu_1x1
I0403 13:42:49.876535 32725 net.cpp:425] inception_5b/relu_1x1 <- inception_5b/1x1
I0403 13:42:49.876554 32725 net.cpp:386] inception_5b/relu_1x1 -> inception_5b/1x1 (in-place)
I0403 13:42:49.876870 32725 net.cpp:141] Setting up inception_5b/relu_1x1
I0403 13:42:49.876899 32725 net.cpp:148] Top shape: 24 384 7 7 (451584)
I0403 13:42:49.876914 32725 net.cpp:156] Memory required for data: 1328854560
I0403 13:42:49.876931 32725 layer_factory.hpp:77] Creating layer inception_5b/3x3_reduce
I0403 13:42:49.876955 32725 net.cpp:91] Creating Layer inception_5b/3x3_reduce
I0403 13:42:49.876974 32725 net.cpp:425] inception_5b/3x3_reduce <- inception_5a/output_inception_5a/output_0_split_1
I0403 13:42:49.876997 32725 net.cpp:399] inception_5b/3x3_reduce -> inception_5b/3x3_reduce
I0403 13:42:49.879786 32725 net.cpp:141] Setting up inception_5b/3x3_reduce
I0403 13:42:49.879818 32725 net.cpp:148] Top shape: 24 192 7 7 (225792)
I0403 13:42:49.879835 32725 net.cpp:156] Memory required for data: 1329757728
I0403 13:42:49.879856 32725 layer_factory.hpp:77] Creating layer inception_5b/relu_3x3_reduce
I0403 13:42:49.879878 32725 net.cpp:91] Creating Layer inception_5b/relu_3x3_reduce
I0403 13:42:49.879896 32725 net.cpp:425] inception_5b/relu_3x3_reduce <- inception_5b/3x3_reduce
I0403 13:42:49.879915 32725 net.cpp:386] inception_5b/relu_3x3_reduce -> inception_5b/3x3_reduce (in-place)
I0403 13:42:49.880115 32725 net.cpp:141] Setting up inception_5b/relu_3x3_reduce
I0403 13:42:49.880144 32725 net.cpp:148] Top shape: 24 192 7 7 (225792)
I0403 13:42:49.880162 32725 net.cpp:156] Memory required for data: 1330660896
I0403 13:42:49.880179 32725 layer_factory.hpp:77] Creating layer inception_5b/3x3
I0403 13:42:49.880203 32725 net.cpp:91] Creating Layer inception_5b/3x3
I0403 13:42:49.880224 32725 net.cpp:425] inception_5b/3x3 <- inception_5b/3x3_reduce
I0403 13:42:49.880245 32725 net.cpp:399] inception_5b/3x3 -> inception_5b/3x3
I0403 13:42:49.887176 32725 net.cpp:141] Setting up inception_5b/3x3
I0403 13:42:49.887214 32725 net.cpp:148] Top shape: 24 384 7 7 (451584)
I0403 13:42:49.887234 32725 net.cpp:156] Memory required for data: 1332467232
I0403 13:42:49.887254 32725 layer_factory.hpp:77] Creating layer inception_5b/relu_3x3
I0403 13:42:49.887274 32725 net.cpp:91] Creating Layer inception_5b/relu_3x3
I0403 13:42:49.887292 32725 net.cpp:425] inception_5b/relu_3x3 <- inception_5b/3x3
I0403 13:42:49.887312 32725 net.cpp:386] inception_5b/relu_3x3 -> inception_5b/3x3 (in-place)
I0403 13:42:49.887622 32725 net.cpp:141] Setting up inception_5b/relu_3x3
I0403 13:42:49.887651 32725 net.cpp:148] Top shape: 24 384 7 7 (451584)
I0403 13:42:49.887667 32725 net.cpp:156] Memory required for data: 1334273568
I0403 13:42:49.887683 32725 layer_factory.hpp:77] Creating layer inception_5b/5x5_reduce
I0403 13:42:49.887723 32725 net.cpp:91] Creating Layer inception_5b/5x5_reduce
I0403 13:42:49.887742 32725 net.cpp:425] inception_5b/5x5_reduce <- inception_5a/output_inception_5a/output_0_split_2
I0403 13:42:49.887765 32725 net.cpp:399] inception_5b/5x5_reduce -> inception_5b/5x5_reduce
I0403 13:42:49.889101 32725 net.cpp:141] Setting up inception_5b/5x5_reduce
I0403 13:42:49.889132 32725 net.cpp:148] Top shape: 24 48 7 7 (56448)
I0403 13:42:49.889149 32725 net.cpp:156] Memory required for data: 1334499360
I0403 13:42:49.889168 32725 layer_factory.hpp:77] Creating layer inception_5b/relu_5x5_reduce
I0403 13:42:49.889191 32725 net.cpp:91] Creating Layer inception_5b/relu_5x5_reduce
I0403 13:42:49.889215 32725 net.cpp:425] inception_5b/relu_5x5_reduce <- inception_5b/5x5_reduce
I0403 13:42:49.889236 32725 net.cpp:386] inception_5b/relu_5x5_reduce -> inception_5b/5x5_reduce (in-place)
I0403 13:42:49.889629 32725 net.cpp:141] Setting up inception_5b/relu_5x5_reduce
I0403 13:42:49.889658 32725 net.cpp:148] Top shape: 24 48 7 7 (56448)
I0403 13:42:49.889675 32725 net.cpp:156] Memory required for data: 1334725152
I0403 13:42:49.889693 32725 layer_factory.hpp:77] Creating layer inception_5b/5x5
I0403 13:42:49.889714 32725 net.cpp:91] Creating Layer inception_5b/5x5
I0403 13:42:49.889734 32725 net.cpp:425] inception_5b/5x5 <- inception_5b/5x5_reduce
I0403 13:42:49.889755 32725 net.cpp:399] inception_5b/5x5 -> inception_5b/5x5
I0403 13:42:49.891924 32725 net.cpp:141] Setting up inception_5b/5x5
I0403 13:42:49.891957 32725 net.cpp:148] Top shape: 24 128 7 7 (150528)
I0403 13:42:49.891974 32725 net.cpp:156] Memory required for data: 1335327264
I0403 13:42:49.891994 32725 layer_factory.hpp:77] Creating layer inception_5b/relu_5x5
I0403 13:42:49.892014 32725 net.cpp:91] Creating Layer inception_5b/relu_5x5
I0403 13:42:49.892031 32725 net.cpp:425] inception_5b/relu_5x5 <- inception_5b/5x5
I0403 13:42:49.892053 32725 net.cpp:386] inception_5b/relu_5x5 -> inception_5b/5x5 (in-place)
I0403 13:42:49.892264 32725 net.cpp:141] Setting up inception_5b/relu_5x5
I0403 13:42:49.892292 32725 net.cpp:148] Top shape: 24 128 7 7 (150528)
I0403 13:42:49.892308 32725 net.cpp:156] Memory required for data: 1335929376
I0403 13:42:49.892324 32725 layer_factory.hpp:77] Creating layer inception_5b/pool
I0403 13:42:49.892344 32725 net.cpp:91] Creating Layer inception_5b/pool
I0403 13:42:49.892362 32725 net.cpp:425] inception_5b/pool <- inception_5a/output_inception_5a/output_0_split_3
I0403 13:42:49.892384 32725 net.cpp:399] inception_5b/pool -> inception_5b/pool
I0403 13:42:49.892460 32725 net.cpp:141] Setting up inception_5b/pool
I0403 13:42:49.892487 32725 net.cpp:148] Top shape: 24 832 7 7 (978432)
I0403 13:42:49.892501 32725 net.cpp:156] Memory required for data: 1339843104
I0403 13:42:49.892516 32725 layer_factory.hpp:77] Creating layer inception_5b/pool_proj
I0403 13:42:49.892539 32725 net.cpp:91] Creating Layer inception_5b/pool_proj
I0403 13:42:49.892559 32725 net.cpp:425] inception_5b/pool_proj <- inception_5b/pool
I0403 13:42:49.892580 32725 net.cpp:399] inception_5b/pool_proj -> inception_5b/pool_proj
I0403 13:42:49.895012 32725 net.cpp:141] Setting up inception_5b/pool_proj
I0403 13:42:49.895045 32725 net.cpp:148] Top shape: 24 128 7 7 (150528)
I0403 13:42:49.895061 32725 net.cpp:156] Memory required for data: 1340445216
I0403 13:42:49.895081 32725 layer_factory.hpp:77] Creating layer inception_5b/relu_pool_proj
I0403 13:42:49.895102 32725 net.cpp:91] Creating Layer inception_5b/relu_pool_proj
I0403 13:42:49.895119 32725 net.cpp:425] inception_5b/relu_pool_proj <- inception_5b/pool_proj
I0403 13:42:49.895138 32725 net.cpp:386] inception_5b/relu_pool_proj -> inception_5b/pool_proj (in-place)
I0403 13:42:49.895462 32725 net.cpp:141] Setting up inception_5b/relu_pool_proj
I0403 13:42:49.895488 32725 net.cpp:148] Top shape: 24 128 7 7 (150528)
I0403 13:42:49.895503 32725 net.cpp:156] Memory required for data: 1341047328
I0403 13:42:49.895519 32725 layer_factory.hpp:77] Creating layer inception_5b/output
I0403 13:42:49.895540 32725 net.cpp:91] Creating Layer inception_5b/output
I0403 13:42:49.895571 32725 net.cpp:425] inception_5b/output <- inception_5b/1x1
I0403 13:42:49.895591 32725 net.cpp:425] inception_5b/output <- inception_5b/3x3
I0403 13:42:49.895607 32725 net.cpp:425] inception_5b/output <- inception_5b/5x5
I0403 13:42:49.895624 32725 net.cpp:425] inception_5b/output <- inception_5b/pool_proj
I0403 13:42:49.895642 32725 net.cpp:399] inception_5b/output -> inception_5b/output
I0403 13:42:49.895699 32725 net.cpp:141] Setting up inception_5b/output
I0403 13:42:49.895725 32725 net.cpp:148] Top shape: 24 1024 7 7 (1204224)
I0403 13:42:49.895740 32725 net.cpp:156] Memory required for data: 1345864224
I0403 13:42:49.895755 32725 layer_factory.hpp:77] Creating layer pool5/7x7_s1
I0403 13:42:49.895772 32725 net.cpp:91] Creating Layer pool5/7x7_s1
I0403 13:42:49.895789 32725 net.cpp:425] pool5/7x7_s1 <- inception_5b/output
I0403 13:42:49.895812 32725 net.cpp:399] pool5/7x7_s1 -> pool5/7x7_s1
I0403 13:42:49.896039 32725 net.cpp:141] Setting up pool5/7x7_s1
I0403 13:42:49.896067 32725 net.cpp:148] Top shape: 24 1024 1 1 (24576)
I0403 13:42:49.896083 32725 net.cpp:156] Memory required for data: 1345962528
I0403 13:42:49.896100 32725 layer_factory.hpp:77] Creating layer pool5/drop_7x7_s1
I0403 13:42:49.896118 32725 net.cpp:91] Creating Layer pool5/drop_7x7_s1
I0403 13:42:49.896134 32725 net.cpp:425] pool5/drop_7x7_s1 <- pool5/7x7_s1
I0403 13:42:49.896157 32725 net.cpp:386] pool5/drop_7x7_s1 -> pool5/7x7_s1 (in-place)
I0403 13:42:49.896214 32725 net.cpp:141] Setting up pool5/drop_7x7_s1
I0403 13:42:49.896237 32725 net.cpp:148] Top shape: 24 1024 1 1 (24576)
I0403 13:42:49.896252 32725 net.cpp:156] Memory required for data: 1346060832
I0403 13:42:49.896267 32725 layer_factory.hpp:77] Creating layer loss3/classifier_plantvillage
I0403 13:42:49.896289 32725 net.cpp:91] Creating Layer loss3/classifier_plantvillage
I0403 13:42:49.896307 32725 net.cpp:425] loss3/classifier_plantvillage <- pool5/7x7_s1
I0403 13:42:49.896328 32725 net.cpp:399] loss3/classifier_plantvillage -> loss3/classifier_plantvillage
I0403 13:42:49.896772 32725 net.cpp:141] Setting up loss3/classifier_plantvillage
I0403 13:42:49.896798 32725 net.cpp:148] Top shape: 24 38 (912)
I0403 13:42:49.896813 32725 net.cpp:156] Memory required for data: 1346064480
I0403 13:42:49.896831 32725 layer_factory.hpp:77] Creating layer loss3/classifier_plantvillage_loss3/classifier_plantvillage_0_split
I0403 13:42:49.896850 32725 net.cpp:91] Creating Layer loss3/classifier_plantvillage_loss3/classifier_plantvillage_0_split
I0403 13:42:49.896872 32725 net.cpp:425] loss3/classifier_plantvillage_loss3/classifier_plantvillage_0_split <- loss3/classifier_plantvillage
I0403 13:42:49.896890 32725 net.cpp:399] loss3/classifier_plantvillage_loss3/classifier_plantvillage_0_split -> loss3/classifier_plantvillage_loss3/classifier_plantvillage_0_split_0
I0403 13:42:49.896910 32725 net.cpp:399] loss3/classifier_plantvillage_loss3/classifier_plantvillage_0_split -> loss3/classifier_plantvillage_loss3/classifier_plantvillage_0_split_1
I0403 13:42:49.896931 32725 net.cpp:399] loss3/classifier_plantvillage_loss3/classifier_plantvillage_0_split -> loss3/classifier_plantvillage_loss3/classifier_plantvillage_0_split_2
I0403 13:42:49.896951 32725 net.cpp:399] loss3/classifier_plantvillage_loss3/classifier_plantvillage_0_split -> loss3/classifier_plantvillage_loss3/classifier_plantvillage_0_split_3
I0403 13:42:49.897058 32725 net.cpp:141] Setting up loss3/classifier_plantvillage_loss3/classifier_plantvillage_0_split
I0403 13:42:49.897081 32725 net.cpp:148] Top shape: 24 38 (912)
I0403 13:42:49.897099 32725 net.cpp:148] Top shape: 24 38 (912)
I0403 13:42:49.897114 32725 net.cpp:148] Top shape: 24 38 (912)
I0403 13:42:49.897130 32725 net.cpp:148] Top shape: 24 38 (912)
I0403 13:42:49.897145 32725 net.cpp:156] Memory required for data: 1346079072
I0403 13:42:49.897159 32725 layer_factory.hpp:77] Creating layer loss1/loss
I0403 13:42:49.897182 32725 net.cpp:91] Creating Layer loss1/loss
I0403 13:42:49.897202 32725 net.cpp:425] loss1/loss <- loss1/classifier_plantvillage_loss1/classifier_plantvillage_0_split_0
I0403 13:42:49.897238 32725 net.cpp:425] loss1/loss <- label_data_1_split_0
…
