…
I0403 14:35:38.271414  1624 net.cpp:313] The NetState phase (1) differed from the phase (0) specified by a rule in layer data
I0403 14:35:38.272610  1624 net.cpp:49] Initializing net from parameters: 
state {
  phase: TEST
}
layer {
  name: "data"
  type: "Data"
  top: "data"
  top: "label"
  include {
    phase: TEST
  }
  transform_param {
    mirror: false
    crop_size: 224
    mean_file: "/home/mohanty/data/final_dataset/lmdb/grayscale-20-80/mean.binaryproto"
  }
  data_param {
    source: "/home/mohanty/data/final_dataset/lmdb/grayscale-20-80/test_db"
    batch_size: 24
    backend: LMDB
  }
}
layer {
  name: "conv1/7x7_s2"
  type: "Convolution"
  bottom: "data"
  top: "conv1/7x7_s2"
  param {
    lr_mult: 1
    decay_mult: 1
  }
  param {
    lr_mult: 2
    decay_mult: 0
  }
  convolution_param {
    num_output: 64
    pad: 3
    kernel_size: 7
    stride: 2
    weight_filler {
      type: "xavier"
      std: 0.1
    }
    bias_filler {
      type: "constant"
      value: 0.2
    }
  }
}
layer {
  name: "conv1/relu_7x7"
  type: "ReLU"
  bottom: "conv1/7x7_s2"
  top: "conv1/7x7_s2"
}
layer {
  name: "pool1/3x3_s2"
  type: "Pooling"
  bottom: "conv1/7x7_s2"
  top: "pool1/3x3_s2"
  pooling_param {
    pool: MAX
    kernel_size: 3
    stride: 2
  }
}
layer {
  name: "pool1/norm1"
  type: "LRN"
  bottom: "pool1/3x3_s2"
  top: "pool1/norm1"
  lrn_param {
    local_size: 5
    alpha: 0.0001
    beta: 0.75
  }
}
layer {
  name: "conv2/3x3_reduce"
  type: "Convolution"
  bottom: "pool1/norm1"
  top: "conv2/3x3_reduce"
  param {
    lr_mult: 1
    decay_mult: 1
  }
  param {
    lr_mult: 2
    decay_mult: 0
  }
  convolution_param {
    num_output: 64
    kernel_size: 1
    weight_filler {
      type: "xavier"
      std: 0.1
    }
    bias_filler {
      type: "constant"
      value: 0.2
    }
  }
}
layer {
  name: "conv2/relu_3x3_reduce"
  type: "ReLU"
  bottom: "conv2/3x3_reduce"
  top: "conv2/3x3_reduce"
}
layer {
  name: "conv2/3x3"
  type: "Convolution"
  bottom: "conv2/3x3_reduce"
  top: "conv2/3x3"
  param {
    lr_mult: 1
    decay_mult: 1
  }
  param {
    lr_mult: 2
    decay_mult: 0
  }
  convolution_param {
    num_output: 192
    pad: 1
    kernel_size: 3
    weight_filler {
      type: "xavier"
      std: 0.03
    }
    bias_filler {
      type: "constant"
      value: 0.2
    }
  }
}
layer {
  name: "conv2/relu_3x3"
  type: "ReLU"
  bottom: "conv2/3x3"
  top: "conv2/3x3"
}
layer {
  name: "conv2/norm2"
  type: "LRN"
  bottom: "conv2/3x3"
  top: "conv2/norm2"
  lrn_param {
    local_size: 5
    alpha: 0.0001
    beta: 0.75
  }
}
layer {
  name: "pool2/3x3_s2"
  type: "Pooling"
  bottom: "conv2/norm2"
  top: "pool2/3x3_s2"
  pooling_param {
    pool: MAX
    kernel_size: 3
    stride: 2
  }
}
layer {
  name: "inception_3a/1x1"
  type: "Convolution"
  bottom: "pool2/3x3_s2"
  top: "inception_3a/1x1"
  param {
    lr_mult: 1
    decay_mult: 1
  }
  param {
    lr_mult: 2
    decay_mult: 0
  }
  convolution_param {
    num_output: 64
    kernel_size: 1
    weight_filler {
      type: "xavier"
      std: 0.03
    }
    bias_filler {
      type: "constant"
      value: 0.2
    }
  }
}
layer {
  name: "inception_3a/relu_1x1"
  type: "ReLU"
  bottom: "inception_3a/1x1"
  top: "inception_3a/1x1"
}
layer {
  name: "inception_3a/3x3_reduce"
  type: "Convolution"
  bottom: "pool2/3x3_s2"
  top: "inception_3a/3x3_reduce"
  param {
    lr_mult: 1
    decay_mult: 1
  }
  param {
    lr_mult: 2
    decay_mult: 0
  }
  convolution_param {
    num_output: 96
    kernel_size: 1
    weight_filler {
      type: "xavier"
      std: 0.09
    }
    bias_filler {
      type: "constant"
      value: 0.2
    }
  }
}
layer {
  name: "inception_3a/relu_3x3_reduce"
  type: "ReLU"
  bottom: "inception_3a/3x3_reduce"
  top: "inception_3a/3x3_reduce"
}
layer {
  name: "inception_3a/3x3"
  type: "Convolution"
  bottom: "inception_3a/3x3_reduce"
  top: "inception_3a/3x3"
  param {
    lr_mult: 1
    decay_mult: 1
  }
  param {
    lr_mult: 2
    decay_mult: 0
  }
  convolution_param {
    num_output: 128
    pad: 1
    kernel_size: 3
    weight_filler {
      type: "xavier"
      std: 0.03
    }
    bias_filler {
      type: "constant"
      value: 0.2
    }
  }
}
layer {
  name: "inception_3a/relu_3x3"
  type: "ReLU"
  bottom: "inception_3a/3x3"
  top: "inception_3a/3x3"
}
layer {
  name: "inception_3a/5x5_reduce"
  type: "Convolution"
  bottom: "pool2/3x3_s2"
  top: "inception_3a/5x5_reduce"
  param {
    lr_mult: 1
    decay_mult: 1
  }
  param {
    lr_mult: 2
    decay_mult: 0
  }
  convolution_param {
    num_output: 16
    kernel_size: 1
    weight_filler {
      type: "xavier"
      std: 0.2
    }
    bias_filler {
      type: "constant"
      value: 0.2
    }
  }
}
layer {
  name: "inception_3a/relu_5x5_reduce"
  type: "ReLU"
  bottom: "inception_3a/5x5_reduce"
  top: "inception_3a/5x5_reduce"
}
layer {
  name: "inception_3a/5x5"
  type: "Convolution"
  bottom: "inception_3a/5x5_reduce"
  top: "inception_3a/5x5"
  param {
    lr_mult: 1
    decay_mult: 1
  }
  param {
    lr_mult: 2
    decay_mult: 0
  }
  convolution_param {
    num_output: 32
    pad: 2
    kernel_size: 5
    weight_filler {
      type: "xavier"
      std: 0.03
    }
    bias_filler {
      type: "constant"
      value: 0.2
    }
  }
}
layer {
  name: "inception_3a/relu_5x5"
  type: "ReLU"
  bottom: "inception_3a/5x5"
  top: "inception_3a/5x5"
}
layer {
  name: "inception_3a/pool"
  type: "Pooling"
  bottom: "pool2/3x3_s2"
  top: "inception_3a/pool"
  pooling_param {
    pool: MAX
    kernel_size: 3
    stride: 1
    pad: 1
  }
}
layer {
  name: "inception_3a/pool_proj"
  type: "Convolution"
  bottom: "inception_3a/pool"
  top: "inception_3a/pool_proj"
  param {
    lr_mult: 1
    decay_mult: 1
  }
  param {
    lr_mult: 2
    decay_mult: 0
  }
  convolution_param {
    num_output: 32
    kernel_size: 1
    weight_filler {
      type: "xavier"
      std: 0.1
    }
    bias_filler {
      type: "constant"
      value: 0.2
    }
  }
}
layer {
  name: "inception_3a/relu_pool_proj"
  type: "ReLU"
  bottom: "inception_3a/pool_proj"
  top: "inception_3a/pool_proj"
}
layer {
  name: "inception_3a/output"
  type: "Concat"
  bottom: "inception_3a/1x1"
  bottom: "inception_3a/3x3"
  bottom: "inception_3a/5x5"
  bottom: "inception_3a/pool_proj"
  top: "inception_3a/output"
}
layer {
  name: "inception_3b/1x1"
  type: "Convolution"
  bottom: "inception_3a/output"
  top: "inception_3b/1x1"
  param {
    lr_mult: 1
    decay_mult: 1
  }
  param {
    lr_mult: 2
    decay_mult: 0
  }
  convolution_param {
    num_output: 128
    kernel_size: 1
    weight_filler {
      type: "xavier"
      std: 0.03
    }
    bias_filler {
      type: "constant"
      value: 0.2
    }
  }
}
layer {
  name: "inception_3b/relu_1x1"
  type: "ReLU"
  bottom: "inception_3b/1x1"
  top: "inception_3b/1x1"
}
layer {
  name: "inception_3b/3x3_reduce"
  type: "Convolution"
  bottom: "inception_3a/output"
  top: "inception_3b/3x3_reduce"
  param {
    lr_mult: 1
    decay_mult: 1
  }
  param {
    lr_mult: 2
    decay_mult: 0
  }
  convolution_param {
    num_output: 128
    kernel_size: 1
    weight_filler {
      type: "xavier"
      std: 0.09
    }
    bias_filler {
      type: "constant"
      value: 0.2
    }
  }
}
layer {
  name: "inception_3b/relu_3x3_reduce"
  type: "ReLU"
  bottom: "inception_3b/3x3_reduce"
  top: "inception_3b/3x3_reduce"
}
layer {
  name: "inception_3b/3x3"
  type: "Convolution"
  bottom: "inception_3b/3x3_reduce"
  top: "inception_3b/3x3"
  param {
    lr_mult: 1
    decay_mult: 1
  }
  param {
    lr_mult: 2
    decay_mult: 0
  }
  convolution_param {
    num_output: 192
    pad: 1
    kernel_size: 3
    weight_filler {
      type: "xavier"
      std: 0.03
    }
    bias_filler {
      type: "constant"
      value: 0.2
    }
  }
}
layer {
  name: "inception_3b/relu_3x3"
  type: "ReLU"
  bottom: "inception_3b/3x3"
  top: "inception_3b/3x3"
}
layer {
  name: "inception_3b/5x5_reduce"
  type: "Convolution"
  bottom: "inception_3a/output"
  top: "inception_3b/5x5_reduce"
  param {
    lr_mult: 1
    decay_mult: 1
  }
  param {
    lr_mult: 2
    decay_mult: 0
  }
  convolution_param {
    num_output: 32
    kernel_size: 1
    weight_filler {
      type: "xavier"
      std: 0.2
    }
    bias_filler {
      type: "constant"
      value: 0.2
    }
  }
}
layer {
  name: "inception_3b/relu_5x5_reduce"
  type: "ReLU"
  bottom: "inception_3b/5x5_reduce"
  top: "inception_3b/5x5_reduce"
}
layer {
  name: "inception_3b/5x5"
  type: "Convolution"
  bottom: "inception_3b/5x5_reduce"
  top: "inception_3b/5x5"
  param {
    lr_mult: 1
    decay_mult: 1
  }
  param {
    lr_mult: 2
    decay_mult: 0
  }
  convolution_param {
    num_output: 96
    pad: 2
    kernel_size: 5
    weight_filler {
      type: "xavier"
      std: 0.03
    }
    bias_filler {
      type: "constant"
      value: 0.2
    }
  }
}
layer {
  name: "inception_3b/relu_5x5"
  type: "ReLU"
  bottom: "inception_3b/5x5"
  top: "inception_3b/5x5"
}
layer {
  name: "inception_3b/pool"
  type: "Pooling"
  bottom: "inception_3a/output"
  top: "inception_3b/pool"
  pooling_param {
    pool: MAX
    kernel_size: 3
    stride: 1
    pad: 1
  }
}
layer {
  name: "inception_3b/pool_proj"
  type: "Convolution"
  bottom: "inception_3b/pool"
  top: "inception_3b/pool_proj"
  param {
    lr_mult: 1
    decay_mult: 1
  }
  param {
    lr_mult: 2
    decay_mult: 0
  }
  convolution_param {
    num_output: 64
    kernel_size: 1
    weight_filler {
      type: "xavier"
      std: 0.1
    }
    bias_filler {
      type: "constant"
      value: 0.2
    }
  }
}
layer {
  name: "inception_3b/relu_pool_proj"
  type: "ReLU"
  bottom: "inception_3b/pool_proj"
  top: "inception_3b/pool_proj"
}
layer {
  name: "inception_3b/output"
  type: "Concat"
  bottom: "inception_3b/1x1"
  bottom: "inception_3b/3x3"
  bottom: "inception_3b/5x5"
  bottom: "inception_3b/pool_proj"
  top: "inception_3b/output"
}
layer {
  name: "pool3/3x3_s2"
  type: "Pooling"
  bottom: "inception_3b/output"
  top: "pool3/3x3_s2"
  pooling_param {
    pool: MAX
    kernel_size: 3
    stride: 2
  }
}
layer {
  name: "inception_4a/1x1"
  type: "Convolution"
  bottom: "pool3/3x3_s2"
  top: "inception_4a/1x1"
  param {
    lr_mult: 1
    decay_mult: 1
  }
  param {
    lr_mult: 2
    decay_mult: 0
  }
  convolution_param {
    num_output: 192
    kernel_size: 1
    weight_filler {
      type: "xavier"
      std: 0.03
    }
    bias_filler {
      type: "constant"
      value: 0.2
    }
  }
}
layer {
  name: "inception_4a/relu_1x1"
  type: "ReLU"
  bottom: "inception_4a/1x1"
  top: "inception_4a/1x1"
}
layer {
  name: "inception_4a/3x3_reduce"
  type: "Convolution"
  bottom: "pool3/3x3_s2"
  top: "inception_4a/3x3_reduce"
  param {
    lr_mult: 1
    decay_mult: 1
  }
  param {
    lr_mult: 2
    decay_mult: 0
  }
  convolution_param {
    num_output: 96
    kernel_size: 1
    weight_filler {
      type: "xavier"
      std: 0.09
    }
    bias_filler {
      type: "constant"
      value: 0.2
    }
  }
}
layer {
  name: "inception_4a/relu_3x3_reduce"
  type: "ReLU"
  bottom: "inception_4a/3x3_reduce"
  top: "inception_4a/3x3_reduce"
}
layer {
  name: "inception_4a/3x3"
  type: "Convolution"
  bottom: "inception_4a/3x3_reduce"
  top: "inception_4a/3x3"
  param {
    lr_mult: 1
    decay_mult: 1
  }
  param {
    lr_mult: 2
    decay_mult: 0
  }
  convolution_param {
    num_output: 208
    pad: 1
    kernel_size: 3
    weight_filler {
      type: "xavier"
      std: 0.03
    }
    bias_filler {
      type: "constant"
      value: 0.2
    }
  }
}
layer {
  name: "inception_4a/relu_3x3"
  type: "ReLU"
  bottom: "inception_4a/3x3"
  top: "inception_4a/3x3"
}
layer {
  name: "inception_4a/5x5_reduce"
  type: "Convolution"
  bottom: "pool3/3x3_s2"
  top: "inception_4a/5x5_reduce"
  param {
    lr_mult: 1
    decay_mult: 1
  }
  param {
    lr_mult: 2
    decay_mult: 0
  }
  convolution_param {
    num_output: 16
    kernel_size: 1
    weight_filler {
      type: "xavier"
      std: 0.2
    }
    bias_filler {
      type: "constant"
      value: 0.2
    }
  }
}
layer {
  name: "inception_4a/relu_5x5_reduce"
  type: "ReLU"
  bottom: "inception_4a/5x5_reduce"
  top: "inception_4a/5x5_reduce"
}
layer {
  name: "inception_4a/5x5"
  type: "Convolution"
  bottom: "inception_4a/5x5_reduce"
  top: "inception_4a/5x5"
  param {
    lr_mult: 1
    decay_mult: 1
  }
  param {
    lr_mult: 2
    decay_mult: 0
  }
  convolution_param {
    num_output: 48
    pad: 2
    kernel_size: 5
    weight_filler {
      type: "xavier"
      std: 0.03
    }
    bias_filler {
      type: "constant"
      value: 0.2
    }
  }
}
layer {
  name: "inception_4a/relu_5x5"
  type: "ReLU"
  bottom: "inception_4a/5x5"
  top: "inception_4a/5x5"
}
layer {
  name: "inception_4a/pool"
  type: "Pooling"
  bottom: "pool3/3x3_s2"
  top: "inception_4a/pool"
  pooling_param {
    pool: MAX
    kernel_size: 3
    stride: 1
    pad: 1
  }
}
layer {
  name: "inception_4a/pool_proj"
  type: "Convolution"
  bottom: "inception_4a/pool"
  top: "inception_4a/pool_proj"
  param {
    lr_mult: 1
    decay_mult: 1
  }
  param {
    lr_mult: 2
    decay_mult: 0
  }
  convolution_param {
    num_output: 64
    kernel_size: 1
    weight_filler {
      type: "xavier"
      std: 0.1
    }
    bias_filler {
      type: "constant"
      value: 0.2
    }
  }
}
layer {
  name: "inception_4a/relu_pool_proj"
  type: "ReLU"
  bottom: "inception_4a/pool_proj"
  top: "inception_4a/pool_proj"
}
layer {
  name: "inception_4a/output"
  type: "Concat"
  bottom: "inception_4a/1x1"
  bottom: "inception_4a/3x3"
  bottom: "inception_4a/5x5"
  bottom: "inception_4a/pool_proj"
  top: "inception_4a/output"
}
layer {
  name: "loss1/ave_pool"
  type: "Pooling"
  bottom: "inception_4a/output"
  top: "loss1/ave_pool"
  pooling_param {
    pool: AVE
    kernel_size: 5
    stride: 3
  }
}
layer {
  name: "loss1/conv"
  type: "Convolution"
  bottom: "loss1/ave_pool"
  top: "loss1/conv"
  param {
    lr_mult: 1
    decay_mult: 1
  }
  param {
    lr_mult: 2
    decay_mult: 0
  }
  convolution_param {
    num_output: 128
    kernel_size: 1
    weight_filler {
      type: "xavier"
      std: 0.08
    }
    bias_filler {
      type: "constant"
      value: 0.2
    }
  }
}
layer {
  name: "loss1/relu_conv"
  type: "ReLU"
  bottom: "loss1/conv"
  top: "loss1/conv"
}
layer {
  name: "loss1/fc"
  type: "InnerProduct"
  bottom: "loss1/conv"
  top: "loss1/fc"
  param {
    lr_mult: 1
    decay_mult: 1
  }
  param {
    lr_mult: 2
    decay_mult: 0
  }
  inner_product_param {
    num_output: 1024
    weight_filler {
      type: "xavier"
      std: 0.02
    }
    bias_filler {
      type: "constant"
      value: 0.2
    }
  }
}
layer {
  name: "loss1/relu_fc"
  type: "ReLU"
  bottom: "loss1/fc"
  top: "loss1/fc"
}
layer {
  name: "loss1/drop_fc"
  type: "Dropout"
  bottom: "loss1/fc"
  top: "loss1/fc"
  dropout_param {
    dropout_ratio: 0.7
  }
}
layer {
  name: "loss1/classifier_plantvillage"
  type: "InnerProduct"
  bottom: "loss1/fc"
  top: "loss1/classifier_plantvillage"
  param {
    lr_mult: 1
    decay_mult: 1
  }
  param {
    lr_mult: 2
    decay_mult: 0
  }
  inner_product_param {
    num_output: 38
    weight_filler {
      type: "xavier"
      std: 0.0009765625
    }
    bias_filler {
      type: "constant"
      value: 0
    }
  }
}
layer {
  name: "inception_4b/1x1"
  type: "Convolution"
  bottom: "inception_4a/output"
  top: "inception_4b/1x1"
  param {
    lr_mult: 1
    decay_mult: 1
  }
  param {
    lr_mult: 2
    decay_mult: 0
  }
  convolution_param {
    num_output: 160
    kernel_size: 1
    weight_filler {
      type: "xavier"
      std: 0.03
    }
    bias_filler {
      type: "constant"
      value: 0.2
    }
  }
}
layer {
  name: "inception_4b/relu_1x1"
  type: "ReLU"
  bottom: "inception_4b/1x1"
  top: "inception_4b/1x1"
}
layer {
  name: "inception_4b/3x3_reduce"
  type: "Convolution"
  bottom: "inception_4a/output"
  top: "inception_4b/3x3_reduce"
  param {
    lr_mult: 1
    decay_mult: 1
  }
  param {
    lr_mult: 2
    decay_mult: 0
  }
  convolution_param {
    num_output: 112
    kernel_size: 1
    weight_filler {
      type: "xavier"
      std: 0.09
    }
    bias_filler {
      type: "constant"
      value: 0.2
    }
  }
}
layer {
  name: "inception_4b/relu_3x3_reduce"
  type: "ReLU"
  bottom: "inception_4b/3x3_reduce"
  top: "inception_4b/3x3_reduce"
}
layer {
  name: "inception_4b/3x3"
  type: "Convolution"
  bottom: "inception_4b/3x3_reduce"
  top: "inception_4b/3x3"
  param {
    lr_mult: 1
    decay_mult: 1
  }
  param {
    lr_mult: 2
    decay_mult: 0
  }
  convolution_param {
    num_output: 224
    pad: 1
    kernel_size: 3
    weight_filler {
      type: "xavier"
      std: 0.03
    }
    bias_filler {
      type: "constant"
      value: 0.2
    }
  }
}
layer {
  name: "inception_4b/relu_3x3"
  type: "ReLU"
  bottom: "inception_4b/3x3"
  top: "inception_4b/3x3"
}
layer {
  name: "inception_4b/5x5_reduce"
  type: "Convolution"
  bottom: "inception_4a/output"
  top: "inception_4b/5x5_reduce"
  param {
    lr_mult: 1
    decay_mult: 1
  }
  param {
    lr_mult: 2
    decay_mult: 0
  }
  convolution_param {
    num_output: 24
    kernel_size: 1
    weight_filler {
      type: "xavier"
      std: 0.2
    }
    bias_filler {
      type: "constant"
      value: 0.2
    }
  }
}
layer {
  name: "inception_4b/relu_5x5_reduce"
  type: "ReLU"
  bottom: "inception_4b/5x5_reduce"
  top: "inception_4b/5x5_reduce"
}
layer {
  name: "inception_4b/5x5"
  type: "Convolution"
  bottom: "inception_4b/5x5_reduce"
  top: "inception_4b/5x5"
  param {
    lr_mult: 1
    decay_mult: 1
  }
  param {
    lr_mult: 2
    decay_mult: 0
  }
  convolution_param {
    num_output: 64
    pad: 2
    kernel_size: 5
    weight_filler {
      type: "xavier"
      std: 0.03
    }
    bias_filler {
      type: "constant"
      value: 0.2
    }
  }
}
layer {
  name: "inception_4b/relu_5x5"
  type: "ReLU"
  bottom: "inception_4b/5x5"
  top: "inception_4b/5x5"
}
layer {
  name: "inception_4b/pool"
  type: "Pooling"
  bottom: "inception_4a/output"
  top: "inception_4b/pool"
  pooling_param {
    pool: MAX
    kernel_size: 3
    stride: 1
    pad: 1
  }
}
layer {
  name: "inception_4b/pool_proj"
  type: "Convolution"
  bottom: "inception_4b/pool"
  top: "inception_4b/pool_proj"
  param {
    lr_mult: 1
    decay_mult: 1
  }
  param {
    lr_mult: 2
    decay_mult: 0
  }
  convolution_param {
    num_output: 64
    kernel_size: 1
    weight_filler {
      type: "xavier"
      std: 0.1
    }
    bias_filler {
      type: "constant"
      value: 0.2
    }
  }
}
layer {
  name: "inception_4b/relu_pool_proj"
  type: "ReLU"
  bottom: "inception_4b/pool_proj"
  top: "inception_4b/pool_proj"
}
layer {
  name: "inception_4b/output"
  type: "Concat"
  bottom: "inception_4b/1x1"
  bottom: "inception_4b/3x3"
  bottom: "inception_4b/5x5"
  bottom: "inception_4b/pool_proj"
  top: "inception_4b/output"
}
layer {
  name: "inception_4c/1x1"
  type: "Convolution"
  bottom: "inception_4b/output"
  top: "inception_4c/1x1"
  param {
    lr_mult: 1
    decay_mult: 1
  }
  param {
    lr_mult: 2
    decay_mult: 0
  }
  convolution_param {
    num_output: 128
    kernel_size: 1
    weight_filler {
      type: "xavier"
      std: 0.03
    }
    bias_filler {
      type: "constant"
      value: 0.2
    }
  }
}
layer {
  name: "inception_4c/relu_1x1"
  type: "ReLU"
  bottom: "inception_4c/1x1"
  top: "inception_4c/1x1"
}
layer {
  name: "inception_4c/3x3_reduce"
  type: "Convolution"
  bottom: "inception_4b/output"
  top: "inception_4c/3x3_reduce"
  param {
    lr_mult: 1
    decay_mult: 1
  }
  param {
    lr_mult: 2
    decay_mult: 0
  }
  convolution_param {
    num_output: 128
    kernel_size: 1
    weight_filler {
      type: "xavier"
      std: 0.09
    }
    bias_filler {
      type: "constant"
      value: 0.2
    }
  }
}
layer {
  name: "inception_4c/relu_3x3_reduce"
  type: "ReLU"
  bottom: "inception_4c/3x3_reduce"
  top: "inception_4c/3x3_reduce"
}
layer {
  name: "inception_4c/3x3"
  type: "Convolution"
  bottom: "inception_4c/3x3_reduce"
  top: "inception_4c/3x3"
  param {
    lr_mult: 1
    decay_mult: 1
  }
  param {
    lr_mult: 2
    decay_mult: 0
  }
  convolution_param {
    num_output: 256
    pad: 1
    kernel_size: 3
    weight_filler {
      type: "xavier"
      std: 0.03
    }
    bias_filler {
      type: "constant"
      value: 0.2
    }
  }
}
layer {
  name: "inception_4c/relu_3x3"
  type: "ReLU"
  bottom: "inception_4c/3x3"
  top: "inception_4c/3x3"
}
layer {
  name: "inception_4c/5x5_reduce"
  type: "Convolution"
  bottom: "inception_4b/output"
  top: "inception_4c/5x5_reduce"
  param {
    lr_mult: 1
    decay_mult: 1
  }
  param {
    lr_mult: 2
    decay_mult: 0
  }
  convolution_param {
    num_output: 24
    kernel_size: 1
    weight_filler {
      type: "xavier"
      std: 0.2
    }
    bias_filler {
      type: "constant"
      value: 0.2
    }
  }
}
layer {
  name: "inception_4c/relu_5x5_reduce"
  type: "ReLU"
  bottom: "inception_4c/5x5_reduce"
  top: "inception_4c/5x5_reduce"
}
layer {
  name: "inception_4c/5x5"
  type: "Convolution"
  bottom: "inception_4c/5x5_reduce"
  top: "inception_4c/5x5"
  param {
    lr_mult: 1
    decay_mult: 1
  }
  param {
    lr_mult: 2
    decay_mult: 0
  }
  convolution_param {
    num_output: 64
    pad: 2
    kernel_size: 5
    weight_filler {
      type: "xavier"
      std: 0.03
    }
    bias_filler {
      type: "constant"
      value: 0.2
    }
  }
}
layer {
  name: "inception_4c/relu_5x5"
  type: "ReLU"
  bottom: "inception_4c/5x5"
  top: "inception_4c/5x5"
}
layer {
  name: "inception_4c/pool"
  type: "Pooling"
  bottom: "inception_4b/output"
  top: "inception_4c/pool"
  pooling_param {
    pool: MAX
    kernel_size: 3
    stride: 1
    pad: 1
  }
}
layer {
  name: "inception_4c/pool_proj"
  type: "Convolution"
  bottom: "inception_4c/pool"
  top: "inception_4c/pool_proj"
  param {
    lr_mult: 1
    decay_mult: 1
  }
  param {
    lr_mult: 2
    decay_mult: 0
  }
  convolution_param {
    num_output: 64
    kernel_size: 1
    weight_filler {
      type: "xavier"
      std: 0.1
    }
    bias_filler {
      type: "constant"
      value: 0.2
    }
  }
}
layer {
  name: "inception_4c/relu_pool_proj"
  type: "ReLU"
  bottom: "inception_4c/pool_proj"
  top: "inception_4c/pool_proj"
}
layer {
  name: "inception_4c/output"
  type: "Concat"
  bottom: "inception_4c/1x1"
  bottom: "inception_4c/3x3"
  bottom: "inception_4c/5x5"
  bottom: "inception_4c/pool_proj"
  top: "inception_4c/output"
}
layer {
  name: "inception_4d/1x1"
  type: "Convolution"
  bottom: "inception_4c/output"
  top: "inception_4d/1x1"
  param {
    lr_mult: 1
    decay_mult: 1
  }
  param {
    lr_mult: 2
    decay_mult: 0
  }
  convolution_param {
    num_output: 112
    kernel_size: 1
    weight_filler {
      type: "xavier"
      std: 0.03
    }
    bias_filler {
      type: "constant"
      value: 0.2
    }
  }
}
layer {
  name: "inception_4d/relu_1x1"
  type: "ReLU"
  bottom: "inception_4d/1x1"
  top: "inception_4d/1x1"
}
layer {
  name: "inception_4d/3x3_reduce"
  type: "Convolution"
  bottom: "inception_4c/output"
  top: "inception_4d/3x3_reduce"
  param {
    lr_mult: 1
    decay_mult: 1
  }
  param {
    lr_mult: 2
    decay_mult: 0
  }
  convolution_param {
    num_output: 144
    kernel_size: 1
    weight_filler {
      type: "xavier"
      std: 0.09
    }
    bias_filler {
      type: "constant"
      value: 0.2
    }
  }
}
layer {
  name: "inception_4d/relu_3x3_reduce"
  type: "ReLU"
  bottom: "inception_4d/3x3_reduce"
  top: "inception_4d/3x3_reduce"
}
layer {
  name: "inception_4d/3x3"
  type: "Convolution"
  bottom: "inception_4d/3x3_reduce"
  top: "inception_4d/3x3"
  param {
    lr_mult: 1
    decay_mult: 1
  }
  param {
    lr_mult: 2
    decay_mult: 0
  }
  convolution_param {
    num_output: 288
    pad: 1
    kernel_size: 3
    weight_filler {
      type: "xavier"
      std: 0.03
    }
    bias_filler {
      type: "constant"
      value: 0.2
    }
  }
}
layer {
  name: "inception_4d/relu_3x3"
  type: "ReLU"
  bottom: "inception_4d/3x3"
  top: "inception_4d/3x3"
}
layer {
  name: "inception_4d/5x5_reduce"
  type: "Convolution"
  bottom: "inception_4c/output"
  top: "inception_4d/5x5_reduce"
  param {
    lr_mult: 1
    decay_mult: 1
  }
  param {
    lr_mult: 2
    decay_mult: 0
  }
  convolution_param {
    num_output: 32
    kernel_size: 1
    weight_filler {
      type: "xavier"
      std: 0.2
    }
    bias_filler {
      type: "constant"
      value: 0.2
    }
  }
}
layer {
  name: "inception_4d/relu_5x5_reduce"
  type: "ReLU"
  bottom: "inception_4d/5x5_reduce"
  top: "inception_4d/5x5_reduce"
}
layer {
  name: "inception_4d/5x5"
  type: "Convolution"
  bottom: "inception_4d/5x5_reduce"
  top: "inception_4d/5x5"
  param {
    lr_mult: 1
    decay_mult: 1
  }
  param {
    lr_mult: 2
    decay_mult: 0
  }
  convolution_param {
    num_output: 64
    pad: 2
    kernel_size: 5
    weight_filler {
      type: "xavier"
      std: 0.03
    }
    bias_filler {
      type: "constant"
      value: 0.2
    }
  }
}
layer {
  name: "inception_4d/relu_5x5"
  type: "ReLU"
  bottom: "inception_4d/5x5"
  top: "inception_4d/5x5"
}
layer {
  name: "inception_4d/pool"
  type: "Pooling"
  bottom: "inception_4c/output"
  top: "inception_4d/pool"
  pooling_param {
    pool: MAX
    kernel_size: 3
    stride: 1
    pad: 1
  }
}
layer {
  name: "inception_4d/pool_proj"
  type: "Convolution"
  bottom: "inception_4d/pool"
  top: "inception_4d/pool_proj"
  param {
    lr_mult: 1
    decay_mult: 1
  }
  param {
    lr_mult: 2
    decay_mult: 0
  }
  convolution_param {
    num_output: 64
    kernel_size: 1
    weight_filler {
      type: "xavier"
      std: 0.1
    }
    bias_filler {
      type: "constant"
      value: 0.2
    }
  }
}
layer {
  name: "inception_4d/relu_pool_proj"
  type: "ReLU"
  bottom: "inception_4d/pool_proj"
  top: "inception_4d/pool_proj"
}
layer {
  name: "inception_4d/output"
  type: "Concat"
  bottom: "inception_4d/1x1"
  bottom: "inception_4d/3x3"
  bottom: "inception_4d/5x5"
  bottom: "inception_4d/pool_proj"
  top: "inception_4d/output"
}
layer {
  name: "loss2/ave_pool"
  type: "Pooling"
  bottom: "inception_4d/output"
  top: "loss2/ave_pool"
  pooling_param {
    pool: AVE
    kernel_size: 5
    stride: 3
  }
}
layer {
  name: "loss2/conv"
  type: "Convolution"
  bottom: "loss2/ave_pool"
  top: "loss2/conv"
  param {
    lr_mult: 1
    decay_mult: 1
  }
  param {
    lr_mult: 2
    decay_mult: 0
  }
  convolution_param {
    num_output: 128
    kernel_size: 1
    weight_filler {
      type: "xavier"
      std: 0.08
    }
    bias_filler {
      type: "constant"
      value: 0.2
    }
  }
}
layer {
  name: "loss2/relu_conv"
  type: "ReLU"
  bottom: "loss2/conv"
  top: "loss2/conv"
}
layer {
  name: "loss2/fc"
  type: "InnerProduct"
  bottom: "loss2/conv"
  top: "loss2/fc"
  param {
    lr_mult: 1
    decay_mult: 1
  }
  param {
    lr_mult: 2
    decay_mult: 0
  }
  inner_product_param {
    num_output: 1024
    weight_filler {
      type: "xavier"
      std: 0.02
    }
    bias_filler {
      type: "constant"
      value: 0.2
    }
  }
}
layer {
  name: "loss2/relu_fc"
  type: "ReLU"
  bottom: "loss2/fc"
  top: "loss2/fc"
}
layer {
  name: "loss2/drop_fc"
  type: "Dropout"
  bottom: "loss2/fc"
  top: "loss2/fc"
  dropout_param {
    dropout_ratio: 0.7
  }
}
layer {
  name: "loss2/classifier_plantvillage"
  type: "InnerProduct"
  bottom: "loss2/fc"
  top: "loss2/classifier_plantvillage"
  param {
    lr_mult: 1
    decay_mult: 1
  }
  param {
    lr_mult: 2
    decay_mult: 0
  }
  inner_product_param {
    num_output: 38
    weight_filler {
      type: "xavier"
      std: 0.0009765625
    }
    bias_filler {
      type: "constant"
      value: 0
    }
  }
}
layer {
  name: "inception_4e/1x1"
  type: "Convolution"
  bottom: "inception_4d/output"
  top: "inception_4e/1x1"
  param {
    lr_mult: 1
    decay_mult: 1
  }
  param {
    lr_mult: 2
    decay_mult: 0
  }
  convolution_param {
    num_output: 256
    kernel_size: 1
    weight_filler {
      type: "xavier"
      std: 0.03
    }
    bias_filler {
      type: "constant"
      value: 0.2
    }
  }
}
layer {
  name: "inception_4e/relu_1x1"
  type: "ReLU"
  bottom: "inception_4e/1x1"
  top: "inception_4e/1x1"
}
layer {
  name: "inception_4e/3x3_reduce"
  type: "Convolution"
  bottom: "inception_4d/output"
  top: "inception_4e/3x3_reduce"
  param {
    lr_mult: 1
    decay_mult: 1
  }
  param {
    lr_mult: 2
    decay_mult: 0
  }
  convolution_param {
    num_output: 160
    kernel_size: 1
    weight_filler {
      type: "xavier"
      std: 0.09
    }
    bias_filler {
      type: "constant"
      value: 0.2
    }
  }
}
layer {
  name: "inception_4e/relu_3x3_reduce"
  type: "ReLU"
  bottom: "inception_4e/3x3_reduce"
  top: "inception_4e/3x3_reduce"
}
layer {
  name: "inception_4e/3x3"
  type: "Convolution"
  bottom: "inception_4e/3x3_reduce"
  top: "inception_4e/3x3"
  param {
    lr_mult: 1
    decay_mult: 1
  }
  param {
    lr_mult: 2
    decay_mult: 0
  }
  convolution_param {
    num_output: 320
    pad: 1
    kernel_size: 3
    weight_filler {
      type: "xavier"
      std: 0.03
    }
    bias_filler {
      type: "constant"
      value: 0.2
    }
  }
}
layer {
  name: "inception_4e/relu_3x3"
  type: "ReLU"
  bottom: "inception_4e/3x3"
  top: "inception_4e/3x3"
}
layer {
  name: "inception_4e/5x5_reduce"
  type: "Convolution"
  bottom: "inception_4d/output"
  top: "inception_4e/5x5_reduce"
  param {
    lr_mult: 1
    decay_mult: 1
  }
  param {
    lr_mult: 2
    decay_mult: 0
  }
  convolution_param {
    num_output: 32
    kernel_size: 1
    weight_filler {
      type: "xavier"
      std: 0.2
    }
    bias_filler {
      type: "constant"
      value: 0.2
    }
  }
}
layer {
  name: "inception_4e/relu_5x5_reduce"
  type: "ReLU"
  bottom: "inception_4e/5x5_reduce"
  top: "inception_4e/5x5_reduce"
}
layer {
  name: "inception_4e/5x5"
  type: "Convolution"
  bottom: "inception_4e/5x5_reduce"
  top: "inception_4e/
I0403 14:35:38.273922  1624 layer_factory.hpp:77] Creating layer data
I0403 14:35:38.274539  1624 net.cpp:91] Creating Layer data
I0403 14:35:38.274570  1624 net.cpp:399] data -> data
I0403 14:35:38.274623  1624 net.cpp:399] data -> label
I0403 14:35:38.274660  1624 data_transformer.cpp:25] Loading mean file from: /home/mohanty/data/final_dataset/lmdb/grayscale-20-80/mean.binaryproto
I0403 14:35:38.275913  1627 db_lmdb.cpp:38] Opened lmdb /home/mohanty/data/final_dataset/lmdb/grayscale-20-80/test_db
I0403 14:35:38.288126  1624 data_layer.cpp:41] output data size: 24,3,224,224
I0403 14:35:38.315580  1624 net.cpp:141] Setting up data
I0403 14:35:38.315690  1624 net.cpp:148] Top shape: 24 3 224 224 (3612672)
I0403 14:35:38.315716  1624 net.cpp:148] Top shape: 24 (24)
I0403 14:35:38.315734  1624 net.cpp:156] Memory required for data: 14450784
I0403 14:35:38.315763  1624 layer_factory.hpp:77] Creating layer label_data_1_split
I0403 14:35:38.315791  1624 net.cpp:91] Creating Layer label_data_1_split
I0403 14:35:38.315809  1624 net.cpp:425] label_data_1_split <- label
I0403 14:35:38.315841  1624 net.cpp:399] label_data_1_split -> label_data_1_split_0
I0403 14:35:38.315871  1624 net.cpp:399] label_data_1_split -> label_data_1_split_1
I0403 14:35:38.315894  1624 net.cpp:399] label_data_1_split -> label_data_1_split_2
I0403 14:35:38.315915  1624 net.cpp:399] label_data_1_split -> label_data_1_split_3
I0403 14:35:38.315935  1624 net.cpp:399] label_data_1_split -> label_data_1_split_4
I0403 14:35:38.315956  1624 net.cpp:399] label_data_1_split -> label_data_1_split_5
I0403 14:35:38.315976  1624 net.cpp:399] label_data_1_split -> label_data_1_split_6
I0403 14:35:38.315999  1624 net.cpp:399] label_data_1_split -> label_data_1_split_7
I0403 14:35:38.316020  1624 net.cpp:399] label_data_1_split -> label_data_1_split_8
I0403 14:35:38.316040  1624 net.cpp:399] label_data_1_split -> label_data_1_split_9
I0403 14:35:38.316161  1624 net.cpp:141] Setting up label_data_1_split
I0403 14:35:38.316215  1624 net.cpp:148] Top shape: 24 (24)
I0403 14:35:38.316236  1624 net.cpp:148] Top shape: 24 (24)
I0403 14:35:38.316253  1624 net.cpp:148] Top shape: 24 (24)
I0403 14:35:38.316270  1624 net.cpp:148] Top shape: 24 (24)
I0403 14:35:38.316287  1624 net.cpp:148] Top shape: 24 (24)
I0403 14:35:38.316301  1624 net.cpp:148] Top shape: 24 (24)
I0403 14:35:38.316318  1624 net.cpp:148] Top shape: 24 (24)
I0403 14:35:38.316334  1624 net.cpp:148] Top shape: 24 (24)
I0403 14:35:38.316349  1624 net.cpp:148] Top shape: 24 (24)
I0403 14:35:38.316366  1624 net.cpp:148] Top shape: 24 (24)
I0403 14:35:38.316411  1624 net.cpp:156] Memory required for data: 14451744
I0403 14:35:38.316427  1624 layer_factory.hpp:77] Creating layer conv1/7x7_s2
I0403 14:35:38.316459  1624 net.cpp:91] Creating Layer conv1/7x7_s2
I0403 14:35:38.316488  1624 net.cpp:425] conv1/7x7_s2 <- data
I0403 14:35:38.316506  1624 net.cpp:399] conv1/7x7_s2 -> conv1/7x7_s2
I0403 14:35:38.456676  1624 net.cpp:141] Setting up conv1/7x7_s2
I0403 14:35:38.456784  1624 net.cpp:148] Top shape: 24 64 112 112 (19267584)
I0403 14:35:38.456804  1624 net.cpp:156] Memory required for data: 91522080
I0403 14:35:38.456837  1624 layer_factory.hpp:77] Creating layer conv1/relu_7x7
I0403 14:35:38.456866  1624 net.cpp:91] Creating Layer conv1/relu_7x7
I0403 14:35:38.456884  1624 net.cpp:425] conv1/relu_7x7 <- conv1/7x7_s2
I0403 14:35:38.456903  1624 net.cpp:386] conv1/relu_7x7 -> conv1/7x7_s2 (in-place)
I0403 14:35:38.457171  1624 net.cpp:141] Setting up conv1/relu_7x7
I0403 14:35:38.457204  1624 net.cpp:148] Top shape: 24 64 112 112 (19267584)
I0403 14:35:38.457221  1624 net.cpp:156] Memory required for data: 168592416
I0403 14:35:38.457236  1624 layer_factory.hpp:77] Creating layer pool1/3x3_s2
I0403 14:35:38.457259  1624 net.cpp:91] Creating Layer pool1/3x3_s2
I0403 14:35:38.457276  1624 net.cpp:425] pool1/3x3_s2 <- conv1/7x7_s2
I0403 14:35:38.457294  1624 net.cpp:399] pool1/3x3_s2 -> pool1/3x3_s2
I0403 14:35:38.457370  1624 net.cpp:141] Setting up pool1/3x3_s2
I0403 14:35:38.457392  1624 net.cpp:148] Top shape: 24 64 56 56 (4816896)
I0403 14:35:38.457406  1624 net.cpp:156] Memory required for data: 187860000
I0403 14:35:38.457422  1624 layer_factory.hpp:77] Creating layer pool1/norm1
I0403 14:35:38.457448  1624 net.cpp:91] Creating Layer pool1/norm1
I0403 14:35:38.457468  1624 net.cpp:425] pool1/norm1 <- pool1/3x3_s2
I0403 14:35:38.457484  1624 net.cpp:399] pool1/norm1 -> pool1/norm1
I0403 14:35:38.457784  1624 net.cpp:141] Setting up pool1/norm1
I0403 14:35:38.457811  1624 net.cpp:148] Top shape: 24 64 56 56 (4816896)
I0403 14:35:38.457826  1624 net.cpp:156] Memory required for data: 207127584
I0403 14:35:38.457840  1624 layer_factory.hpp:77] Creating layer conv2/3x3_reduce
I0403 14:35:38.457869  1624 net.cpp:91] Creating Layer conv2/3x3_reduce
I0403 14:35:38.457885  1624 net.cpp:425] conv2/3x3_reduce <- pool1/norm1
I0403 14:35:38.457903  1624 net.cpp:399] conv2/3x3_reduce -> conv2/3x3_reduce
I0403 14:35:38.459352  1624 net.cpp:141] Setting up conv2/3x3_reduce
I0403 14:35:38.459380  1624 net.cpp:148] Top shape: 24 64 56 56 (4816896)
I0403 14:35:38.459395  1624 net.cpp:156] Memory required for data: 226395168
I0403 14:35:38.459416  1624 layer_factory.hpp:77] Creating layer conv2/relu_3x3_reduce
I0403 14:35:38.459437  1624 net.cpp:91] Creating Layer conv2/relu_3x3_reduce
I0403 14:35:38.459452  1624 net.cpp:425] conv2/relu_3x3_reduce <- conv2/3x3_reduce
I0403 14:35:38.459470  1624 net.cpp:386] conv2/relu_3x3_reduce -> conv2/3x3_reduce (in-place)
I0403 14:35:38.459735  1624 net.cpp:141] Setting up conv2/relu_3x3_reduce
I0403 14:35:38.459761  1624 net.cpp:148] Top shape: 24 64 56 56 (4816896)
I0403 14:35:38.459776  1624 net.cpp:156] Memory required for data: 245662752
I0403 14:35:38.459791  1624 layer_factory.hpp:77] Creating layer conv2/3x3
I0403 14:35:38.459815  1624 net.cpp:91] Creating Layer conv2/3x3
I0403 14:35:38.459831  1624 net.cpp:425] conv2/3x3 <- conv2/3x3_reduce
I0403 14:35:38.459853  1624 net.cpp:399] conv2/3x3 -> conv2/3x3
I0403 14:35:38.462246  1624 net.cpp:141] Setting up conv2/3x3
I0403 14:35:38.462276  1624 net.cpp:148] Top shape: 24 192 56 56 (14450688)
I0403 14:35:38.462292  1624 net.cpp:156] Memory required for data: 303465504
I0403 14:35:38.462313  1624 layer_factory.hpp:77] Creating layer conv2/relu_3x3
I0403 14:35:38.462335  1624 net.cpp:91] Creating Layer conv2/relu_3x3
I0403 14:35:38.462350  1624 net.cpp:425] conv2/relu_3x3 <- conv2/3x3
I0403 14:35:38.462368  1624 net.cpp:386] conv2/relu_3x3 -> conv2/3x3 (in-place)
I0403 14:35:38.462540  1624 net.cpp:141] Setting up conv2/relu_3x3
I0403 14:35:38.462566  1624 net.cpp:148] Top shape: 24 192 56 56 (14450688)
I0403 14:35:38.462611  1624 net.cpp:156] Memory required for data: 361268256
I0403 14:35:38.462626  1624 layer_factory.hpp:77] Creating layer conv2/norm2
I0403 14:35:38.462644  1624 net.cpp:91] Creating Layer conv2/norm2
I0403 14:35:38.462659  1624 net.cpp:425] conv2/norm2 <- conv2/3x3
I0403 14:35:38.462679  1624 net.cpp:399] conv2/norm2 -> conv2/norm2
I0403 14:35:38.462977  1624 net.cpp:141] Setting up conv2/norm2
I0403 14:35:38.463003  1624 net.cpp:148] Top shape: 24 192 56 56 (14450688)
I0403 14:35:38.463018  1624 net.cpp:156] Memory required for data: 419071008
I0403 14:35:38.463033  1624 layer_factory.hpp:77] Creating layer pool2/3x3_s2
I0403 14:35:38.463050  1624 net.cpp:91] Creating Layer pool2/3x3_s2
I0403 14:35:38.463078  1624 net.cpp:425] pool2/3x3_s2 <- conv2/norm2
I0403 14:35:38.463099  1624 net.cpp:399] pool2/3x3_s2 -> pool2/3x3_s2
I0403 14:35:38.463155  1624 net.cpp:141] Setting up pool2/3x3_s2
I0403 14:35:38.463191  1624 net.cpp:148] Top shape: 24 192 28 28 (3612672)
I0403 14:35:38.463209  1624 net.cpp:156] Memory required for data: 433521696
I0403 14:35:38.463223  1624 layer_factory.hpp:77] Creating layer pool2/3x3_s2_pool2/3x3_s2_0_split
I0403 14:35:38.463241  1624 net.cpp:91] Creating Layer pool2/3x3_s2_pool2/3x3_s2_0_split
I0403 14:35:38.463256  1624 net.cpp:425] pool2/3x3_s2_pool2/3x3_s2_0_split <- pool2/3x3_s2
I0403 14:35:38.463274  1624 net.cpp:399] pool2/3x3_s2_pool2/3x3_s2_0_split -> pool2/3x3_s2_pool2/3x3_s2_0_split_0
I0403 14:35:38.463294  1624 net.cpp:399] pool2/3x3_s2_pool2/3x3_s2_0_split -> pool2/3x3_s2_pool2/3x3_s2_0_split_1
I0403 14:35:38.463315  1624 net.cpp:399] pool2/3x3_s2_pool2/3x3_s2_0_split -> pool2/3x3_s2_pool2/3x3_s2_0_split_2
I0403 14:35:38.463372  1624 net.cpp:399] pool2/3x3_s2_pool2/3x3_s2_0_split -> pool2/3x3_s2_pool2/3x3_s2_0_split_3
I0403 14:35:38.463448  1624 net.cpp:141] Setting up pool2/3x3_s2_pool2/3x3_s2_0_split
I0403 14:35:38.463471  1624 net.cpp:148] Top shape: 24 192 28 28 (3612672)
I0403 14:35:38.463487  1624 net.cpp:148] Top shape: 24 192 28 28 (3612672)
I0403 14:35:38.463503  1624 net.cpp:148] Top shape: 24 192 28 28 (3612672)
I0403 14:35:38.463520  1624 net.cpp:148] Top shape: 24 192 28 28 (3612672)
I0403 14:35:38.463533  1624 net.cpp:156] Memory required for data: 491324448
I0403 14:35:38.463547  1624 layer_factory.hpp:77] Creating layer inception_3a/1x1
I0403 14:35:38.463582  1624 net.cpp:91] Creating Layer inception_3a/1x1
I0403 14:35:38.463600  1624 net.cpp:425] inception_3a/1x1 <- pool2/3x3_s2_pool2/3x3_s2_0_split_0
I0403 14:35:38.463624  1624 net.cpp:399] inception_3a/1x1 -> inception_3a/1x1
I0403 14:35:38.465157  1624 net.cpp:141] Setting up inception_3a/1x1
I0403 14:35:38.465190  1624 net.cpp:148] Top shape: 24 64 28 28 (1204224)
I0403 14:35:38.465221  1624 net.cpp:156] Memory required for data: 496141344
I0403 14:35:38.465242  1624 layer_factory.hpp:77] Creating layer inception_3a/relu_1x1
I0403 14:35:38.465263  1624 net.cpp:91] Creating Layer inception_3a/relu_1x1
I0403 14:35:38.465279  1624 net.cpp:425] inception_3a/relu_1x1 <- inception_3a/1x1
I0403 14:35:38.465299  1624 net.cpp:386] inception_3a/relu_1x1 -> inception_3a/1x1 (in-place)
I0403 14:35:38.465471  1624 net.cpp:141] Setting up inception_3a/relu_1x1
I0403 14:35:38.465497  1624 net.cpp:148] Top shape: 24 64 28 28 (1204224)
I0403 14:35:38.465512  1624 net.cpp:156] Memory required for data: 500958240
I0403 14:35:38.465525  1624 layer_factory.hpp:77] Creating layer inception_3a/3x3_reduce
I0403 14:35:38.465559  1624 net.cpp:91] Creating Layer inception_3a/3x3_reduce
I0403 14:35:38.465576  1624 net.cpp:425] inception_3a/3x3_reduce <- pool2/3x3_s2_pool2/3x3_s2_0_split_1
I0403 14:35:38.465596  1624 net.cpp:399] inception_3a/3x3_reduce -> inception_3a/3x3_reduce
I0403 14:35:38.467252  1624 net.cpp:141] Setting up inception_3a/3x3_reduce
I0403 14:35:38.467280  1624 net.cpp:148] Top shape: 24 96 28 28 (1806336)
I0403 14:35:38.467295  1624 net.cpp:156] Memory required for data: 508183584
I0403 14:35:38.467315  1624 layer_factory.hpp:77] Creating layer inception_3a/relu_3x3_reduce
I0403 14:35:38.467351  1624 net.cpp:91] Creating Layer inception_3a/relu_3x3_reduce
I0403 14:35:38.467368  1624 net.cpp:425] inception_3a/relu_3x3_reduce <- inception_3a/3x3_reduce
I0403 14:35:38.467386  1624 net.cpp:386] inception_3a/relu_3x3_reduce -> inception_3a/3x3_reduce (in-place)
I0403 14:35:38.467560  1624 net.cpp:141] Setting up inception_3a/relu_3x3_reduce
I0403 14:35:38.467586  1624 net.cpp:148] Top shape: 24 96 28 28 (1806336)
I0403 14:35:38.467600  1624 net.cpp:156] Memory required for data: 515408928
I0403 14:35:38.467614  1624 layer_factory.hpp:77] Creating layer inception_3a/3x3
I0403 14:35:38.467638  1624 net.cpp:91] Creating Layer inception_3a/3x3
I0403 14:35:38.467654  1624 net.cpp:425] inception_3a/3x3 <- inception_3a/3x3_reduce
I0403 14:35:38.467674  1624 net.cpp:399] inception_3a/3x3 -> inception_3a/3x3
I0403 14:35:38.469297  1624 net.cpp:141] Setting up inception_3a/3x3
I0403 14:35:38.469326  1624 net.cpp:148] Top shape: 24 128 28 28 (2408448)
I0403 14:35:38.469339  1624 net.cpp:156] Memory required for data: 525042720
I0403 14:35:38.469357  1624 layer_factory.hpp:77] Creating layer inception_3a/relu_3x3
I0403 14:35:38.469377  1624 net.cpp:91] Creating Layer inception_3a/relu_3x3
I0403 14:35:38.469393  1624 net.cpp:425] inception_3a/relu_3x3 <- inception_3a/3x3
I0403 14:35:38.469409  1624 net.cpp:386] inception_3a/relu_3x3 -> inception_3a/3x3 (in-place)
I0403 14:35:38.469676  1624 net.cpp:141] Setting up inception_3a/relu_3x3
I0403 14:35:38.469701  1624 net.cpp:148] Top shape: 24 128 28 28 (2408448)
I0403 14:35:38.469715  1624 net.cpp:156] Memory required for data: 534676512
I0403 14:35:38.469729  1624 layer_factory.hpp:77] Creating layer inception_3a/5x5_reduce
I0403 14:35:38.469750  1624 net.cpp:91] Creating Layer inception_3a/5x5_reduce
I0403 14:35:38.469766  1624 net.cpp:425] inception_3a/5x5_reduce <- pool2/3x3_s2_pool2/3x3_s2_0_split_2
I0403 14:35:38.469785  1624 net.cpp:399] inception_3a/5x5_reduce -> inception_3a/5x5_reduce
I0403 14:35:38.470736  1624 net.cpp:141] Setting up inception_3a/5x5_reduce
I0403 14:35:38.470762  1624 net.cpp:148] Top shape: 24 16 28 28 (301056)
I0403 14:35:38.470777  1624 net.cpp:156] Memory required for data: 535880736
I0403 14:35:38.470794  1624 layer_factory.hpp:77] Creating layer inception_3a/relu_5x5_reduce
I0403 14:35:38.470813  1624 net.cpp:91] Creating Layer inception_3a/relu_5x5_reduce
I0403 14:35:38.470829  1624 net.cpp:425] inception_3a/relu_5x5_reduce <- inception_3a/5x5_reduce
I0403 14:35:38.470845  1624 net.cpp:386] inception_3a/relu_5x5_reduce -> inception_3a/5x5_reduce (in-place)
I0403 14:35:38.471132  1624 net.cpp:141] Setting up inception_3a/relu_5x5_reduce
I0403 14:35:38.471159  1624 net.cpp:148] Top shape: 24 16 28 28 (301056)
I0403 14:35:38.471174  1624 net.cpp:156] Memory required for data: 537084960
I0403 14:35:38.471194  1624 layer_factory.hpp:77] Creating layer inception_3a/5x5
I0403 14:35:38.471216  1624 net.cpp:91] Creating Layer inception_3a/5x5
I0403 14:35:38.471233  1624 net.cpp:425] inception_3a/5x5 <- inception_3a/5x5_reduce
I0403 14:35:38.471251  1624 net.cpp:399] inception_3a/5x5 -> inception_3a/5x5
I0403 14:35:38.472250  1624 net.cpp:141] Setting up inception_3a/5x5
I0403 14:35:38.472276  1624 net.cpp:148] Top shape: 24 32 28 28 (602112)
I0403 14:35:38.472291  1624 net.cpp:156] Memory required for data: 539493408
I0403 14:35:38.472309  1624 layer_factory.hpp:77] Creating layer inception_3a/relu_5x5
I0403 14:35:38.472328  1624 net.cpp:91] Creating Layer inception_3a/relu_5x5
I0403 14:35:38.472344  1624 net.cpp:425] inception_3a/relu_5x5 <- inception_3a/5x5
I0403 14:35:38.472362  1624 net.cpp:386] inception_3a/relu_5x5 -> inception_3a/5x5 (in-place)
I0403 14:35:38.472523  1624 net.cpp:141] Setting up inception_3a/relu_5x5
I0403 14:35:38.472548  1624 net.cpp:148] Top shape: 24 32 28 28 (602112)
I0403 14:35:38.472566  1624 net.cpp:156] Memory required for data: 541901856
I0403 14:35:38.472580  1624 layer_factory.hpp:77] Creating layer inception_3a/pool
I0403 14:35:38.472597  1624 net.cpp:91] Creating Layer inception_3a/pool
I0403 14:35:38.472625  1624 net.cpp:425] inception_3a/pool <- pool2/3x3_s2_pool2/3x3_s2_0_split_3
I0403 14:35:38.472645  1624 net.cpp:399] inception_3a/pool -> inception_3a/pool
I0403 14:35:38.472702  1624 net.cpp:141] Setting up inception_3a/pool
I0403 14:35:38.472723  1624 net.cpp:148] Top shape: 24 192 28 28 (3612672)
I0403 14:35:38.472738  1624 net.cpp:156] Memory required for data: 556352544
I0403 14:35:38.472751  1624 layer_factory.hpp:77] Creating layer inception_3a/pool_proj
I0403 14:35:38.472772  1624 net.cpp:91] Creating Layer inception_3a/pool_proj
I0403 14:35:38.472789  1624 net.cpp:425] inception_3a/pool_proj <- inception_3a/pool
I0403 14:35:38.472810  1624 net.cpp:399] inception_3a/pool_proj -> inception_3a/pool_proj
I0403 14:35:38.473785  1624 net.cpp:141] Setting up inception_3a/pool_proj
I0403 14:35:38.473812  1624 net.cpp:148] Top shape: 24 32 28 28 (602112)
I0403 14:35:38.473827  1624 net.cpp:156] Memory required for data: 558760992
I0403 14:35:38.473848  1624 layer_factory.hpp:77] Creating layer inception_3a/relu_pool_proj
I0403 14:35:38.473868  1624 net.cpp:91] Creating Layer inception_3a/relu_pool_proj
I0403 14:35:38.473884  1624 net.cpp:425] inception_3a/relu_pool_proj <- inception_3a/pool_proj
I0403 14:35:38.473901  1624 net.cpp:386] inception_3a/relu_pool_proj -> inception_3a/pool_proj (in-place)
I0403 14:35:38.474176  1624 net.cpp:141] Setting up inception_3a/relu_pool_proj
I0403 14:35:38.474206  1624 net.cpp:148] Top shape: 24 32 28 28 (602112)
I0403 14:35:38.474221  1624 net.cpp:156] Memory required for data: 561169440
I0403 14:35:38.474236  1624 layer_factory.hpp:77] Creating layer inception_3a/output
I0403 14:35:38.474253  1624 net.cpp:91] Creating Layer inception_3a/output
I0403 14:35:38.474268  1624 net.cpp:425] inception_3a/output <- inception_3a/1x1
I0403 14:35:38.474284  1624 net.cpp:425] inception_3a/output <- inception_3a/3x3
I0403 14:35:38.474299  1624 net.cpp:425] inception_3a/output <- inception_3a/5x5
I0403 14:35:38.474315  1624 net.cpp:425] inception_3a/output <- inception_3a/pool_proj
I0403 14:35:38.474334  1624 net.cpp:399] inception_3a/output -> inception_3a/output
I0403 14:35:38.474381  1624 net.cpp:141] Setting up inception_3a/output
I0403 14:35:38.474405  1624 net.cpp:148] Top shape: 24 256 28 28 (4816896)
I0403 14:35:38.474418  1624 net.cpp:156] Memory required for data: 580437024
I0403 14:35:38.474432  1624 layer_factory.hpp:77] Creating layer inception_3a/output_inception_3a/output_0_split
I0403 14:35:38.474449  1624 net.cpp:91] Creating Layer inception_3a/output_inception_3a/output_0_split
I0403 14:35:38.474478  1624 net.cpp:425] inception_3a/output_inception_3a/output_0_split <- inception_3a/output
I0403 14:35:38.474495  1624 net.cpp:399] inception_3a/output_inception_3a/output_0_split -> inception_3a/output_inception_3a/output_0_split_0
I0403 14:35:38.474515  1624 net.cpp:399] inception_3a/output_inception_3a/output_0_split -> inception_3a/output_inception_3a/output_0_split_1
I0403 14:35:38.474536  1624 net.cpp:399] inception_3a/output_inception_3a/output_0_split -> inception_3a/output_inception_3a/output_0_split_2
I0403 14:35:38.474560  1624 net.cpp:399] inception_3a/output_inception_3a/output_0_split -> inception_3a/output_inception_3a/output_0_split_3
I0403 14:35:38.474632  1624 net.cpp:141] Setting up inception_3a/output_inception_3a/output_0_split
I0403 14:35:38.474655  1624 net.cpp:148] Top shape: 24 256 28 28 (4816896)
I0403 14:35:38.474671  1624 net.cpp:148] Top shape: 24 256 28 28 (4816896)
I0403 14:35:38.474688  1624 net.cpp:148] Top shape: 24 256 28 28 (4816896)
I0403 14:35:38.474701  1624 net.cpp:148] Top shape: 24 256 28 28 (4816896)
I0403 14:35:38.474714  1624 net.cpp:156] Memory required for data: 657507360
I0403 14:35:38.474728  1624 layer_factory.hpp:77] Creating layer inception_3b/1x1
I0403 14:35:38.474750  1624 net.cpp:91] Creating Layer inception_3b/1x1
I0403 14:35:38.474767  1624 net.cpp:425] inception_3b/1x1 <- inception_3a/output_inception_3a/output_0_split_0
I0403 14:35:38.474787  1624 net.cpp:399] inception_3b/1x1 -> inception_3b/1x1
I0403 14:35:38.475910  1624 net.cpp:141] Setting up inception_3b/1x1
I0403 14:35:38.475949  1624 net.cpp:148] Top shape: 24 128 28 28 (2408448)
I0403 14:35:38.475963  1624 net.cpp:156] Memory required for data: 667141152
I0403 14:35:38.475980  1624 layer_factory.hpp:77] Creating layer inception_3b/relu_1x1
I0403 14:35:38.475997  1624 net.cpp:91] Creating Layer inception_3b/relu_1x1
I0403 14:35:38.476011  1624 net.cpp:425] inception_3b/relu_1x1 <- inception_3b/1x1
I0403 14:35:38.476032  1624 net.cpp:386] inception_3b/relu_1x1 -> inception_3b/1x1 (in-place)
I0403 14:35:38.476204  1624 net.cpp:141] Setting up inception_3b/relu_1x1
I0403 14:35:38.476228  1624 net.cpp:148] Top shape: 24 128 28 28 (2408448)
I0403 14:35:38.476243  1624 net.cpp:156] Memory required for data: 676774944
I0403 14:35:38.476256  1624 layer_factory.hpp:77] Creating layer inception_3b/3x3_reduce
I0403 14:35:38.476277  1624 net.cpp:91] Creating Layer inception_3b/3x3_reduce
I0403 14:35:38.476294  1624 net.cpp:425] inception_3b/3x3_reduce <- inception_3a/output_inception_3a/output_0_split_1
I0403 14:35:38.476315  1624 net.cpp:399] inception_3b/3x3_reduce -> inception_3b/3x3_reduce
I0403 14:35:38.477432  1624 net.cpp:141] Setting up inception_3b/3x3_reduce
I0403 14:35:38.477459  1624 net.cpp:148] Top shape: 24 128 28 28 (2408448)
I0403 14:35:38.477473  1624 net.cpp:156] Memory required for data: 686408736
I0403 14:35:38.477490  1624 layer_factory.hpp:77] Creating layer inception_3b/relu_3x3_reduce
I0403 14:35:38.477507  1624 net.cpp:91] Creating Layer inception_3b/relu_3x3_reduce
I0403 14:35:38.477524  1624 net.cpp:425] inception_3b/relu_3x3_reduce <- inception_3b/3x3_reduce
I0403 14:35:38.477542  1624 net.cpp:386] inception_3b/relu_3x3_reduce -> inception_3b/3x3_reduce (in-place)
I0403 14:35:38.477706  1624 net.cpp:141] Setting up inception_3b/relu_3x3_reduce
I0403 14:35:38.477730  1624 net.cpp:148] Top shape: 24 128 28 28 (2408448)
I0403 14:35:38.477743  1624 net.cpp:156] Memory required for data: 696042528
I0403 14:35:38.477757  1624 layer_factory.hpp:77] Creating layer inception_3b/3x3
I0403 14:35:38.477782  1624 net.cpp:91] Creating Layer inception_3b/3x3
I0403 14:35:38.477799  1624 net.cpp:425] inception_3b/3x3 <- inception_3b/3x3_reduce
I0403 14:35:38.477818  1624 net.cpp:399] inception_3b/3x3 -> inception_3b/3x3
I0403 14:35:38.480675  1624 net.cpp:141] Setting up inception_3b/3x3
I0403 14:35:38.480705  1624 net.cpp:148] Top shape: 24 192 28 28 (3612672)
I0403 14:35:38.480720  1624 net.cpp:156] Memory required for data: 710493216
I0403 14:35:38.480738  1624 layer_factory.hpp:77] Creating layer inception_3b/relu_3x3
I0403 14:35:38.480757  1624 net.cpp:91] Creating Layer inception_3b/relu_3x3
I0403 14:35:38.480773  1624 net.cpp:425] inception_3b/relu_3x3 <- inception_3b/3x3
I0403 14:35:38.480789  1624 net.cpp:386] inception_3b/relu_3x3 -> inception_3b/3x3 (in-place)
I0403 14:35:38.481060  1624 net.cpp:141] Setting up inception_3b/relu_3x3
I0403 14:35:38.481086  1624 net.cpp:148] Top shape: 24 192 28 28 (3612672)
I0403 14:35:38.481099  1624 net.cpp:156] Memory required for data: 724943904
I0403 14:35:38.481113  1624 layer_factory.hpp:77] Creating layer inception_3b/5x5_reduce
I0403 14:35:38.481137  1624 net.cpp:91] Creating Layer inception_3b/5x5_reduce
I0403 14:35:38.481153  1624 net.cpp:425] inception_3b/5x5_reduce <- inception_3a/output_inception_3a/output_0_split_2
I0403 14:35:38.481173  1624 net.cpp:399] inception_3b/5x5_reduce -> inception_3b/5x5_reduce
I0403 14:35:38.482162  1624 net.cpp:141] Setting up inception_3b/5x5_reduce
I0403 14:35:38.482193  1624 net.cpp:148] Top shape: 24 32 28 28 (602112)
I0403 14:35:38.482208  1624 net.cpp:156] Memory required for data: 727352352
I0403 14:35:38.482226  1624 layer_factory.hpp:77] Creating layer inception_3b/relu_5x5_reduce
I0403 14:35:38.482245  1624 net.cpp:91] Creating Layer inception_3b/relu_5x5_reduce
I0403 14:35:38.482260  1624 net.cpp:425] inception_3b/relu_5x5_reduce <- inception_3b/5x5_reduce
I0403 14:35:38.482277  1624 net.cpp:386] inception_3b/relu_5x5_reduce -> inception_3b/5x5_reduce (in-place)
I0403 14:35:38.482460  1624 net.cpp:141] Setting up inception_3b/relu_5x5_reduce
I0403 14:35:38.482486  1624 net.cpp:148] Top shape: 24 32 28 28 (602112)
I0403 14:35:38.482501  1624 net.cpp:156] Memory required for data: 729760800
I0403 14:35:38.482516  1624 layer_factory.hpp:77] Creating layer inception_3b/5x5
I0403 14:35:38.482534  1624 net.cpp:91] Creating Layer inception_3b/5x5
I0403 14:35:38.482549  1624 net.cpp:425] inception_3b/5x5 <- inception_3b/5x5_reduce
I0403 14:35:38.482569  1624 net.cpp:399] inception_3b/5x5 -> inception_3b/5x5
I0403 14:35:38.484525  1624 net.cpp:141] Setting up inception_3b/5x5
I0403 14:35:38.484554  1624 net.cpp:148] Top shape: 24 96 28 28 (1806336)
I0403 14:35:38.484567  1624 net.cpp:156] Memory required for data: 736986144
I0403 14:35:38.484586  1624 layer_factory.hpp:77] Creating layer inception_3b/relu_5x5
I0403 14:35:38.484602  1624 net.cpp:91] Creating Layer inception_3b/relu_5x5
I0403 14:35:38.484617  1624 net.cpp:425] inception_3b/relu_5x5 <- inception_3b/5x5
I0403 14:35:38.484635  1624 net.cpp:386] inception_3b/relu_5x5 -> inception_3b/5x5 (in-place)
I0403 14:35:38.484818  1624 net.cpp:141] Setting up inception_3b/relu_5x5
I0403 14:35:38.484843  1624 net.cpp:148] Top shape: 24 96 28 28 (1806336)
I0403 14:35:38.484858  1624 net.cpp:156] Memory required for data: 744211488
I0403 14:35:38.484872  1624 layer_factory.hpp:77] Creating layer inception_3b/pool
I0403 14:35:38.484889  1624 net.cpp:91] Creating Layer inception_3b/pool
I0403 14:35:38.484904  1624 net.cpp:425] inception_3b/pool <- inception_3a/output_inception_3a/output_0_split_3
I0403 14:35:38.484920  1624 net.cpp:399] inception_3b/pool -> inception_3b/pool
I0403 14:35:38.484973  1624 net.cpp:141] Setting up inception_3b/pool
I0403 14:35:38.484995  1624 net.cpp:148] Top shape: 24 256 28 28 (4816896)
I0403 14:35:38.485009  1624 net.cpp:156] Memory required for data: 763479072
I0403 14:35:38.485023  1624 layer_factory.hpp:77] Creating layer inception_3b/pool_proj
I0403 14:35:38.485045  1624 net.cpp:91] Creating Layer inception_3b/pool_proj
I0403 14:35:38.485062  1624 net.cpp:425] inception_3b/pool_proj <- inception_3b/pool
I0403 14:35:38.485081  1624 net.cpp:399] inception_3b/pool_proj -> inception_3b/pool_proj
I0403 14:35:38.486136  1624 net.cpp:141] Setting up inception_3b/pool_proj
I0403 14:35:38.486166  1624 net.cpp:148] Top shape: 24 64 28 28 (1204224)
I0403 14:35:38.486186  1624 net.cpp:156] Memory required for data: 768295968
I0403 14:35:38.486205  1624 layer_factory.hpp:77] Creating layer inception_3b/relu_pool_proj
I0403 14:35:38.486223  1624 net.cpp:91] Creating Layer inception_3b/relu_pool_proj
I0403 14:35:38.486239  1624 net.cpp:425] inception_3b/relu_pool_proj <- inception_3b/pool_proj
I0403 14:35:38.486256  1624 net.cpp:386] inception_3b/relu_pool_proj -> inception_3b/pool_proj (in-place)
I0403 14:35:38.486649  1624 net.cpp:141] Setting up inception_3b/relu_pool_proj
I0403 14:35:38.486675  1624 net.cpp:148] Top shape: 24 64 28 28 (1204224)
I0403 14:35:38.486690  1624 net.cpp:156] Memory required for data: 773112864
I0403 14:35:38.486703  1624 layer_factory.hpp:77] Creating layer inception_3b/output
I0403 14:35:38.486723  1624 net.cpp:91] Creating Layer inception_3b/output
I0403 14:35:38.486739  1624 net.cpp:425] inception_3b/output <- inception_3b/1x1
I0403 14:35:38.486755  1624 net.cpp:425] inception_3b/output <- inception_3b/3x3
I0403 14:35:38.486770  1624 net.cpp:425] inception_3b/output <- inception_3b/5x5
I0403 14:35:38.486785  1624 net.cpp:425] inception_3b/output <- inception_3b/pool_proj
I0403 14:35:38.486802  1624 net.cpp:399] inception_3b/output -> inception_3b/output
I0403 14:35:38.486847  1624 net.cpp:141] Setting up inception_3b/output
I0403 14:35:38.486870  1624 net.cpp:148] Top shape: 24 480 28 28 (9031680)
I0403 14:35:38.486883  1624 net.cpp:156] Memory required for data: 809239584
I0403 14:35:38.486897  1624 layer_factory.hpp:77] Creating layer pool3/3x3_s2
I0403 14:35:38.486914  1624 net.cpp:91] Creating Layer pool3/3x3_s2
I0403 14:35:38.486930  1624 net.cpp:425] pool3/3x3_s2 <- inception_3b/output
I0403 14:35:38.486965  1624 net.cpp:399] pool3/3x3_s2 -> pool3/3x3_s2
I0403 14:35:38.487023  1624 net.cpp:141] Setting up pool3/3x3_s2
I0403 14:35:38.487046  1624 net.cpp:148] Top shape: 24 480 14 14 (2257920)
I0403 14:35:38.487061  1624 net.cpp:156] Memory required for data: 818271264
I0403 14:35:38.487074  1624 layer_factory.hpp:77] Creating layer pool3/3x3_s2_pool3/3x3_s2_0_split
I0403 14:35:38.487093  1624 net.cpp:91] Creating Layer pool3/3x3_s2_pool3/3x3_s2_0_split
I0403 14:35:38.487109  1624 net.cpp:425] pool3/3x3_s2_pool3/3x3_s2_0_split <- pool3/3x3_s2
I0403 14:35:38.487128  1624 net.cpp:399] pool3/3x3_s2_pool3/3x3_s2_0_split -> pool3/3x3_s2_pool3/3x3_s2_0_split_0
I0403 14:35:38.487149  1624 net.cpp:399] pool3/3x3_s2_pool3/3x3_s2_0_split -> pool3/3x3_s2_pool3/3x3_s2_0_split_1
I0403 14:35:38.487169  1624 net.cpp:399] pool3/3x3_s2_pool3/3x3_s2_0_split -> pool3/3x3_s2_pool3/3x3_s2_0_split_2
I0403 14:35:38.487192  1624 net.cpp:399] pool3/3x3_s2_pool3/3x3_s2_0_split -> pool3/3x3_s2_pool3/3x3_s2_0_split_3
I0403 14:35:38.487269  1624 net.cpp:141] Setting up pool3/3x3_s2_pool3/3x3_s2_0_split
I0403 14:35:38.487294  1624 net.cpp:148] Top shape: 24 480 14 14 (2257920)
I0403 14:35:38.487311  1624 net.cpp:148] Top shape: 24 480 14 14 (2257920)
I0403 14:35:38.487328  1624 net.cpp:148] Top shape: 24 480 14 14 (2257920)
I0403 14:35:38.487342  1624 net.cpp:148] Top shape: 24 480 14 14 (2257920)
I0403 14:35:38.487356  1624 net.cpp:156] Memory required for data: 854397984
I0403 14:35:38.487370  1624 layer_factory.hpp:77] Creating layer inception_4a/1x1
I0403 14:35:38.487391  1624 net.cpp:91] Creating Layer inception_4a/1x1
I0403 14:35:38.487408  1624 net.cpp:425] inception_4a/1x1 <- pool3/3x3_s2_pool3/3x3_s2_0_split_0
I0403 14:35:38.487427  1624 net.cpp:399] inception_4a/1x1 -> inception_4a/1x1
I0403 14:35:38.488989  1624 net.cpp:141] Setting up inception_4a/1x1
I0403 14:35:38.489020  1624 net.cpp:148] Top shape: 24 192 14 14 (903168)
I0403 14:35:38.489037  1624 net.cpp:156] Memory required for data: 858010656
I0403 14:35:38.489055  1624 layer_factory.hpp:77] Creating layer inception_4a/relu_1x1
I0403 14:35:38.489073  1624 net.cpp:91] Creating Layer inception_4a/relu_1x1
I0403 14:35:38.489089  1624 net.cpp:425] inception_4a/relu_1x1 <- inception_4a/1x1
I0403 14:35:38.489105  1624 net.cpp:386] inception_4a/relu_1x1 -> inception_4a/1x1 (in-place)
I0403 14:35:38.489281  1624 net.cpp:141] Setting up inception_4a/relu_1x1
I0403 14:35:38.489305  1624 net.cpp:148] Top shape: 24 192 14 14 (903168)
I0403 14:35:38.489320  1624 net.cpp:156] Memory required for data: 861623328
I0403 14:35:38.489333  1624 layer_factory.hpp:77] Creating layer inception_4a/3x3_reduce
I0403 14:35:38.489354  1624 net.cpp:91] Creating Layer inception_4a/3x3_reduce
I0403 14:35:38.489370  1624 net.cpp:425] inception_4a/3x3_reduce <- pool3/3x3_s2_pool3/3x3_s2_0_split_1
I0403 14:35:38.489392  1624 net.cpp:399] inception_4a/3x3_reduce -> inception_4a/3x3_reduce
I0403 14:35:38.490653  1624 net.cpp:141] Setting up inception_4a/3x3_reduce
I0403 14:35:38.490684  1624 net.cpp:148] Top shape: 24 96 14 14 (451584)
I0403 14:35:38.490700  1624 net.cpp:156] Memory required for data: 863429664
I0403 14:35:38.490725  1624 layer_factory.hpp:77] Creating layer inception_4a/relu_3x3_reduce
I0403 14:35:38.490746  1624 net.cpp:91] Creating Layer inception_4a/relu_3x3_reduce
I0403 14:35:38.490761  1624 net.cpp:425] inception_4a/relu_3x3_reduce <- inception_4a/3x3_reduce
I0403 14:35:38.490777  1624 net.cpp:386] inception_4a/relu_3x3_reduce -> inception_4a/3x3_reduce (in-place)
I0403 14:35:38.490942  1624 net.cpp:141] Setting up inception_4a/relu_3x3_reduce
I0403 14:35:38.490967  1624 net.cpp:148] Top shape: 24 96 14 14 (451584)
I0403 14:35:38.490983  1624 net.cpp:156] Memory required for data: 865236000
I0403 14:35:38.490996  1624 layer_factory.hpp:77] Creating layer inception_4a/3x3
I0403 14:35:38.491017  1624 net.cpp:91] Creating Layer inception_4a/3x3
I0403 14:35:38.491034  1624 net.cpp:425] inception_4a/3x3 <- inception_4a/3x3_reduce
I0403 14:35:38.491055  1624 net.cpp:399] inception_4a/3x3 -> inception_4a/3x3
I0403 14:35:38.493721  1624 net.cpp:141] Setting up inception_4a/3x3
I0403 14:35:38.493764  1624 net.cpp:148] Top shape: 24 208 14 14 (978432)
I0403 14:35:38.493780  1624 net.cpp:156] Memory required for data: 869149728
I0403 14:35:38.493799  1624 layer_factory.hpp:77] Creating layer inception_4a/relu_3x3
I0403 14:35:38.493818  1624 net.cpp:91] Creating Layer inception_4a/relu_3x3
I0403 14:35:38.493834  1624 net.cpp:425] inception_4a/relu_3x3 <- inception_4a/3x3
I0403 14:35:38.493852  1624 net.cpp:386] inception_4a/relu_3x3 -> inception_4a/3x3 (in-place)
I0403 14:35:38.494129  1624 net.cpp:141] Setting up inception_4a/relu_3x3
I0403 14:35:38.494155  1624 net.cpp:148] Top shape: 24 208 14 14 (978432)
I0403 14:35:38.494169  1624 net.cpp:156] Memory required for data: 873063456
I0403 14:35:38.494189  1624 layer_factory.hpp:77] Creating layer inception_4a/5x5_reduce
I0403 14:35:38.494212  1624 net.cpp:91] Creating Layer inception_4a/5x5_reduce
I0403 14:35:38.494230  1624 net.cpp:425] inception_4a/5x5_reduce <- pool3/3x3_s2_pool3/3x3_s2_0_split_2
I0403 14:35:38.494251  1624 net.cpp:399] inception_4a/5x5_reduce -> inception_4a/5x5_reduce
I0403 14:35:38.495288  1624 net.cpp:141] Setting up inception_4a/5x5_reduce
I0403 14:35:38.495317  1624 net.cpp:148] Top shape: 24 16 14 14 (75264)
I0403 14:35:38.495334  1624 net.cpp:156] Memory required for data: 873364512
I0403 14:35:38.495353  1624 layer_factory.hpp:77] Creating layer inception_4a/relu_5x5_reduce
I0403 14:35:38.495375  1624 net.cpp:91] Creating Layer inception_4a/relu_5x5_reduce
I0403 14:35:38.495393  1624 net.cpp:425] inception_4a/relu_5x5_reduce <- inception_4a/5x5_reduce
I0403 14:35:38.495411  1624 net.cpp:386] inception_4a/relu_5x5_reduce -> inception_4a/5x5_reduce (in-place)
I0403 14:35:38.495615  1624 net.cpp:141] Setting up inception_4a/relu_5x5_reduce
I0403 14:35:38.495638  1624 net.cpp:148] Top shape: 24 16 14 14 (75264)
I0403 14:35:38.495657  1624 net.cpp:156] Memory required for data: 873665568
I0403 14:35:38.495672  1624 layer_factory.hpp:77] Creating layer inception_4a/5x5
I0403 14:35:38.495692  1624 net.cpp:91] Creating Layer inception_4a/5x5
I0403 14:35:38.495707  1624 net.cpp:425] inception_4a/5x5 <- inception_4a/5x5_reduce
I0403 14:35:38.495728  1624 net.cpp:399] inception_4a/5x5 -> inception_4a/5x5
I0403 14:35:38.496803  1624 net.cpp:141] Setting up inception_4a/5x5
I0403 14:35:38.496830  1624 net.cpp:148] Top shape: 24 48 14 14 (225792)
I0403 14:35:38.496845  1624 net.cpp:156] Memory required for data: 874568736
I0403 14:35:38.496865  1624 layer_factory.hpp:77] Creating layer inception_4a/relu_5x5
I0403 14:35:38.496884  1624 net.cpp:91] Creating Layer inception_4a/relu_5x5
I0403 14:35:38.496901  1624 net.cpp:425] inception_4a/relu_5x5 <- inception_4a/5x5
I0403 14:35:38.496917  1624 net.cpp:386] inception_4a/relu_5x5 -> inception_4a/5x5 (in-place)
I0403 14:35:38.497090  1624 net.cpp:141] Setting up inception_4a/relu_5x5
I0403 14:35:38.497115  1624 net.cpp:148] Top shape: 24 48 14 14 (225792)
I0403 14:35:38.497130  1624 net.cpp:156] Memory required for data: 875471904
I0403 14:35:38.497144  1624 layer_factory.hpp:77] Creating layer inception_4a/pool
I0403 14:35:38.497161  1624 net.cpp:91] Creating Layer inception_4a/pool
I0403 14:35:38.497181  1624 net.cpp:425] inception_4a/pool <- pool3/3x3_s2_pool3/3x3_s2_0_split_3
I0403 14:35:38.497202  1624 net.cpp:399] inception_4a/pool -> inception_4a/pool
I0403 14:35:38.497269  1624 net.cpp:141] Setting up inception_4a/pool
I0403 14:35:38.497292  1624 net.cpp:148] Top shape: 24 480 14 14 (2257920)
I0403 14:35:38.497308  1624 net.cpp:156] Memory required for data: 884503584
I0403 14:35:38.497321  1624 layer_factory.hpp:77] Creating layer inception_4a/pool_proj
I0403 14:35:38.497344  1624 net.cpp:91] Creating Layer inception_4a/pool_proj
I0403 14:35:38.497361  1624 net.cpp:425] inception_4a/pool_proj <- inception_4a/pool
I0403 14:35:38.497380  1624 net.cpp:399] inception_4a/pool_proj -> inception_4a/pool_proj
I0403 14:35:38.498536  1624 net.cpp:141] Setting up inception_4a/pool_proj
I0403 14:35:38.498567  1624 net.cpp:148] Top shape: 24 64 14 14 (301056)
I0403 14:35:38.498600  1624 net.cpp:156] Memory required for data: 885707808
I0403 14:35:38.498620  1624 layer_factory.hpp:77] Creating layer inception_4a/relu_pool_proj
I0403 14:35:38.498637  1624 net.cpp:91] Creating Layer inception_4a/relu_pool_proj
I0403 14:35:38.498652  1624 net.cpp:425] inception_4a/relu_pool_proj <- inception_4a/pool_proj
I0403 14:35:38.498673  1624 net.cpp:386] inception_4a/relu_pool_proj -> inception_4a/pool_proj (in-place)
I0403 14:35:38.498951  1624 net.cpp:141] Setting up inception_4a/relu_pool_proj
I0403 14:35:38.498980  1624 net.cpp:148] Top shape: 24 64 14 14 (301056)
I0403 14:35:38.498996  1624 net.cpp:156] Memory required for data: 886912032
I0403 14:35:38.499011  1624 layer_factory.hpp:77] Creating layer inception_4a/output
I0403 14:35:38.499027  1624 net.cpp:91] Creating Layer inception_4a/output
I0403 14:35:38.499043  1624 net.cpp:425] inception_4a/output <- inception_4a/1x1
I0403 14:35:38.499059  1624 net.cpp:425] inception_4a/output <- inception_4a/3x3
I0403 14:35:38.499075  1624 net.cpp:425] inception_4a/output <- inception_4a/5x5
I0403 14:35:38.499090  1624 net.cpp:425] inception_4a/output <- inception_4a/pool_proj
I0403 14:35:38.499107  1624 net.cpp:399] inception_4a/output -> inception_4a/output
I0403 14:35:38.499152  1624 net.cpp:141] Setting up inception_4a/output
I0403 14:35:38.499176  1624 net.cpp:148] Top shape: 24 512 14 14 (2408448)
I0403 14:35:38.499196  1624 net.cpp:156] Memory required for data: 896545824
I0403 14:35:38.499209  1624 layer_factory.hpp:77] Creating layer inception_4a/output_inception_4a/output_0_split
I0403 14:35:38.499229  1624 net.cpp:91] Creating Layer inception_4a/output_inception_4a/output_0_split
I0403 14:35:38.499245  1624 net.cpp:425] inception_4a/output_inception_4a/output_0_split <- inception_4a/output
I0403 14:35:38.499264  1624 net.cpp:399] inception_4a/output_inception_4a/output_0_split -> inception_4a/output_inception_4a/output_0_split_0
I0403 14:35:38.499282  1624 net.cpp:399] inception_4a/output_inception_4a/output_0_split -> inception_4a/output_inception_4a/output_0_split_1
I0403 14:35:38.499305  1624 net.cpp:399] inception_4a/output_inception_4a/output_0_split -> inception_4a/output_inception_4a/output_0_split_2
I0403 14:35:38.499325  1624 net.cpp:399] inception_4a/output_inception_4a/output_0_split -> inception_4a/output_inception_4a/output_0_split_3
I0403 14:35:38.499346  1624 net.cpp:399] inception_4a/output_inception_4a/output_0_split -> inception_4a/output_inception_4a/output_0_split_4
I0403 14:35:38.499436  1624 net.cpp:141] Setting up inception_4a/output_inception_4a/output_0_split
I0403 14:35:38.499459  1624 net.cpp:148] Top shape: 24 512 14 14 (2408448)
I0403 14:35:38.499475  1624 net.cpp:148] Top shape: 24 512 14 14 (2408448)
I0403 14:35:38.499490  1624 net.cpp:148] Top shape: 24 512 14 14 (2408448)
I0403 14:35:38.499506  1624 net.cpp:148] Top shape: 24 512 14 14 (2408448)
I0403 14:35:38.499521  1624 net.cpp:148] Top shape: 24 512 14 14 (2408448)
I0403 14:35:38.499534  1624 net.cpp:156] Memory required for data: 944714784
I0403 14:35:38.499549  1624 layer_factory.hpp:77] Creating layer loss1/ave_pool
I0403 14:35:38.499567  1624 net.cpp:91] Creating Layer loss1/ave_pool
I0403 14:35:38.499583  1624 net.cpp:425] loss1/ave_pool <- inception_4a/output_inception_4a/output_0_split_0
I0403 14:35:38.499601  1624 net.cpp:399] loss1/ave_pool -> loss1/ave_pool
I0403 14:35:38.499821  1624 net.cpp:141] Setting up loss1/ave_pool
I0403 14:35:38.499850  1624 net.cpp:148] Top shape: 24 512 4 4 (196608)
I0403 14:35:38.499866  1624 net.cpp:156] Memory required for data: 945501216
I0403 14:35:38.499881  1624 layer_factory.hpp:77] Creating layer loss1/conv
I0403 14:35:38.499903  1624 net.cpp:91] Creating Layer loss1/conv
I0403 14:35:38.499922  1624 net.cpp:425] loss1/conv <- loss1/ave_pool
I0403 14:35:38.499940  1624 net.cpp:399] loss1/conv -> loss1/conv
I0403 14:35:38.501360  1624 net.cpp:141] Setting up loss1/conv
I0403 14:35:38.501387  1624 net.cpp:148] Top shape: 24 128 4 4 (49152)
I0403 14:35:38.501415  1624 net.cpp:156] Memory required for data: 945697824
I0403 14:35:38.501435  1624 layer_factory.hpp:77] Creating layer loss1/relu_conv
I0403 14:35:38.501456  1624 net.cpp:91] Creating Layer loss1/relu_conv
I0403 14:35:38.501471  1624 net.cpp:425] loss1/relu_conv <- loss1/conv
I0403 14:35:38.501489  1624 net.cpp:386] loss1/relu_conv -> loss1/conv (in-place)
I0403 14:35:38.501757  1624 net.cpp:141] Setting up loss1/relu_conv
I0403 14:35:38.501782  1624 net.cpp:148] Top shape: 24 128 4 4 (49152)
I0403 14:35:38.501796  1624 net.cpp:156] Memory required for data: 945894432
I0403 14:35:38.501812  1624 layer_factory.hpp:77] Creating layer loss1/fc
I0403 14:35:38.501835  1624 net.cpp:91] Creating Layer loss1/fc
I0403 14:35:38.501852  1624 net.cpp:425] loss1/fc <- loss1/conv
I0403 14:35:38.501873  1624 net.cpp:399] loss1/fc -> loss1/fc
I0403 14:35:38.519558  1624 net.cpp:141] Setting up loss1/fc
I0403 14:35:38.519603  1624 net.cpp:148] Top shape: 24 1024 (24576)
I0403 14:35:38.519620  1624 net.cpp:156] Memory required for data: 945992736
I0403 14:35:38.519640  1624 layer_factory.hpp:77] Creating layer loss1/relu_fc
I0403 14:35:38.519659  1624 net.cpp:91] Creating Layer loss1/relu_fc
I0403 14:35:38.519676  1624 net.cpp:425] loss1/relu_fc <- loss1/fc
I0403 14:35:38.519695  1624 net.cpp:386] loss1/relu_fc -> loss1/fc (in-place)
I0403 14:35:38.519889  1624 net.cpp:141] Setting up loss1/relu_fc
I0403 14:35:38.519915  1624 net.cpp:148] Top shape: 24 1024 (24576)
I0403 14:35:38.519930  1624 net.cpp:156] Memory required for data: 946091040
I0403 14:35:38.519945  1624 layer_factory.hpp:77] Creating layer loss1/drop_fc
I0403 14:35:38.519973  1624 net.cpp:91] Creating Layer loss1/drop_fc
I0403 14:35:38.519990  1624 net.cpp:425] loss1/drop_fc <- loss1/fc
I0403 14:35:38.520009  1624 net.cpp:386] loss1/drop_fc -> loss1/fc (in-place)
I0403 14:35:38.520061  1624 net.cpp:141] Setting up loss1/drop_fc
I0403 14:35:38.520083  1624 net.cpp:148] Top shape: 24 1024 (24576)
I0403 14:35:38.520097  1624 net.cpp:156] Memory required for data: 946189344
I0403 14:35:38.520112  1624 layer_factory.hpp:77] Creating layer loss1/classifier_plantvillage
I0403 14:35:38.520134  1624 net.cpp:91] Creating Layer loss1/classifier_plantvillage
I0403 14:35:38.520150  1624 net.cpp:425] loss1/classifier_plantvillage <- loss1/fc
I0403 14:35:38.520172  1624 net.cpp:399] loss1/classifier_plantvillage -> loss1/classifier_plantvillage
I0403 14:35:38.521077  1624 net.cpp:141] Setting up loss1/classifier_plantvillage
I0403 14:35:38.521106  1624 net.cpp:148] Top shape: 24 38 (912)
I0403 14:35:38.521121  1624 net.cpp:156] Memory required for data: 946192992
I0403 14:35:38.521137  1624 layer_factory.hpp:77] Creating layer loss1/classifier_plantvillage_loss1/classifier_plantvillage_0_split
I0403 14:35:38.521155  1624 net.cpp:91] Creating Layer loss1/classifier_plantvillage_loss1/classifier_plantvillage_0_split
I0403 14:35:38.521170  1624 net.cpp:425] loss1/classifier_plantvillage_loss1/classifier_plantvillage_0_split <- loss1/classifier_plantvillage
I0403 14:35:38.521203  1624 net.cpp:399] loss1/classifier_plantvillage_loss1/classifier_plantvillage_0_split -> loss1/classifier_plantvillage_loss1/classifier_plantvillage_0_split_0
I0403 14:35:38.521225  1624 net.cpp:399] loss1/classifier_plantvillage_loss1/classifier_plantvillage_0_split -> loss1/classifier_plantvillage_loss1/classifier_plantvillage_0_split_1
I0403 14:35:38.521246  1624 net.cpp:399] loss1/classifier_plantvillage_loss1/classifier_plantvillage_0_split -> loss1/classifier_plantvillage_loss1/classifier_plantvillage_0_split_2
I0403 14:35:38.521311  1624 net.cpp:141] Setting up loss1/classifier_plantvillage_loss1/classifier_plantvillage_0_split
I0403 14:35:38.521333  1624 net.cpp:148] Top shape: 24 38 (912)
I0403 14:35:38.521349  1624 net.cpp:148] Top shape: 24 38 (912)
I0403 14:35:38.521364  1624 net.cpp:148] Top shape: 24 38 (912)
I0403 14:35:38.521378  1624 net.cpp:156] Memory required for data: 946203936
I0403 14:35:38.521392  1624 layer_factory.hpp:77] Creating layer inception_4b/1x1
I0403 14:35:38.521415  1624 net.cpp:91] Creating Layer inception_4b/1x1
I0403 14:35:38.521461  1624 net.cpp:425] inception_4b/1x1 <- inception_4a/output_inception_4a/output_0_split_1
I0403 14:35:38.521488  1624 net.cpp:399] inception_4b/1x1 -> inception_4b/1x1
I0403 14:35:38.523140  1624 net.cpp:141] Setting up inception_4b/1x1
I0403 14:35:38.523169  1624 net.cpp:148] Top shape: 24 160 14 14 (752640)
I0403 14:35:38.523201  1624 net.cpp:156] Memory required for data: 949214496
I0403 14:35:38.523222  1624 layer_factory.hpp:77] Creating layer inception_4b/relu_1x1
I0403 14:35:38.523241  1624 net.cpp:91] Creating Layer inception_4b/relu_1x1
I0403 14:35:38.523257  1624 net.cpp:425] inception_4b/relu_1x1 <- inception_4b/1x1
I0403 14:35:38.523277  1624 net.cpp:386] inception_4b/relu_1x1 -> inception_4b/1x1 (in-place)
I0403 14:35:38.523460  1624 net.cpp:141] Setting up inception_4b/relu_1x1
I0403 14:35:38.523485  1624 net.cpp:148] Top shape: 24 160 14 14 (752640)
I0403 14:35:38.523499  1624 net.cpp:156] Memory required for data: 952225056
I0403 14:35:38.523514  1624 layer_factory.hpp:77] Creating layer inception_4b/3x3_reduce
I0403 14:35:38.523536  1624 net.cpp:91] Creating Layer inception_4b/3x3_reduce
I0403 14:35:38.523553  1624 net.cpp:425] inception_4b/3x3_reduce <- inception_4a/output_inception_4a/output_0_split_2
I0403 14:35:38.523574  1624 net.cpp:399] inception_4b/3x3_reduce -> inception_4b/3x3_reduce
I0403 14:35:38.524924  1624 net.cpp:141] Setting up inception_4b/3x3_reduce
I0403 14:35:38.524955  1624 net.cpp:148] Top shape: 24 112 14 14 (526848)
I0403 14:35:38.524969  1624 net.cpp:156] Memory required for data: 954332448
I0403 14:35:38.524988  1624 layer_factory.hpp:77] Creating layer inception_4b/relu_3x3_reduce
I0403 14:35:38.525010  1624 net.cpp:91] Creating Layer inception_4b/relu_3x3_reduce
I0403 14:35:38.525027  1624 net.cpp:425] inception_4b/relu_3x3_reduce <- inception_4b/3x3_reduce
I0403 14:35:38.525046  1624 net.cpp:386] inception_4b/relu_3x3_reduce -> inception_4b/3x3_reduce (in-place)
I0403 14:35:38.525331  1624 net.cpp:141] Setting up inception_4b/relu_3x3_reduce
I0403 14:35:38.525358  1624 net.cpp:148] Top shape: 24 112 14 14 (526848)
I0403 14:35:38.525374  1624 net.cpp:156] Memory required for data: 956439840
I0403 14:35:38.525389  1624 layer_factory.hpp:77] Creating layer inception_4b/3x3
I0403 14:35:38.525413  1624 net.cpp:91] Creating Layer inception_4b/3x3
I0403 14:35:38.525432  1624 net.cpp:425] inception_4b/3x3 <- inception_4b/3x3_reduce
I0403 14:35:38.525454  1624 net.cpp:399] inception_4b/3x3 -> inception_4b/3x3
I0403 14:35:38.528429  1624 net.cpp:141] Setting up inception_4b/3x3
I0403 14:35:38.528462  1624 net.cpp:148] Top shape: 24 224 14 14 (1053696)
I0403 14:35:38.528480  1624 net.cpp:156] Memory required for data: 960654624
I0403 14:35:38.528498  1624 layer_factory.hpp:77] Creating layer inception_4b/relu_3x3
I0403 14:35:38.528517  1624 net.cpp:91] Creating Layer inception_4b/relu_3x3
I0403 14:35:38.528532  1624 net.cpp:425] inception_4b/relu_3x3 <- inception_4b/3x3
I0403 14:35:38.528551  1624 net.cpp:386] inception_4b/relu_3x3 -> inception_4b/3x3 (in-place)
I0403 14:35:38.528733  1624 net.cpp:141] Setting up inception_4b/relu_3x3
I0403 14:35:38.528759  1624 net.cpp:148] Top shape: 24 224 14 14 (1053696)
I0403 14:35:38.528772  1624 net.cpp:156] Memory required for data: 964869408
I0403 14:35:38.528786  1624 layer_factory.hpp:77] Creating layer inception_4b/5x5_reduce
I0403 14:35:38.528810  1624 net.cpp:91] Creating Layer inception_4b/5x5_reduce
I0403 14:35:38.528826  1624 net.cpp:425] inception_4b/5x5_reduce <- inception_4a/output_inception_4a/output_0_split_3
I0403 14:35:38.528847  1624 net.cpp:399] inception_4b/5x5_reduce -> inception_4b/5x5_reduce
I0403 14:35:38.529927  1624 net.cpp:141] Setting up inception_4b/5x5_reduce
I0403 14:35:38.529956  1624 net.cpp:148] Top shape: 24 24 14 14 (112896)
I0403 14:35:38.529973  1624 net.cpp:156] Memory required for data: 965320992
I0403 14:35:38.529991  1624 layer_factory.hpp:77] Creating layer inception_4b/relu_5x5_reduce
I0403 14:35:38.530014  1624 net.cpp:91] Creating Layer inception_4b/relu_5x5_reduce
I0403 14:35:38.530046  1624 net.cpp:425] inception_4b/relu_5x5_reduce <- inception_4b/5x5_reduce
I0403 14:35:38.530066  1624 net.cpp:386] inception_4b/relu_5x5_reduce -> inception_4b/5x5_reduce (in-place)
I0403 14:35:38.530251  1624 net.cpp:141] Setting up inception_4b/relu_5x5_reduce
I0403 14:35:38.530277  1624 net.cpp:148] Top shape: 24 24 14 14 (112896)
I0403 14:35:38.530290  1624 net.cpp:156] Memory required for data: 965772576
I0403 14:35:38.530305  1624 layer_factory.hpp:77] Creating layer inception_4b/5x5
I0403 14:35:38.530328  1624 net.cpp:91] Creating Layer inception_4b/5x5
I0403 14:35:38.530345  1624 net.cpp:425] inception_4b/5x5 <- inception_4b/5x5_reduce
I0403 14:35:38.530364  1624 net.cpp:399] inception_4b/5x5 -> inception_4b/5x5
I0403 14:35:38.531581  1624 net.cpp:141] Setting up inception_4b/5x5
I0403 14:35:38.531611  1624 net.cpp:148] Top shape: 24 64 14 14 (301056)
I0403 14:35:38.531627  1624 net.cpp:156] Memory required for data: 966976800
I0403 14:35:38.531646  1624 layer_factory.hpp:77] Creating layer inception_4b/relu_5x5
I0403 14:35:38.531664  1624 net.cpp:91] Creating Layer inception_4b/relu_5x5
I0403 14:35:38.531682  1624 net.cpp:425] inception_4b/relu_5x5 <- inception_4b/5x5
I0403 14:35:38.531702  1624 net.cpp:386] inception_4b/relu_5x5 -> inception_4b/5x5 (in-place)
I0403 14:35:38.531985  1624 net.cpp:141] Setting up inception_4b/relu_5x5
I0403 14:35:38.532011  1624 net.cpp:148] Top shape: 24 64 14 14 (301056)
I0403 14:35:38.532026  1624 net.cpp:156] Memory required for data: 968181024
I0403 14:35:38.532040  1624 layer_factory.hpp:77] Creating layer inception_4b/pool
I0403 14:35:38.532058  1624 net.cpp:91] Creating Layer inception_4b/pool
I0403 14:35:38.532073  1624 net.cpp:425] inception_4b/pool <- inception_4a/output_inception_4a/output_0_split_4
I0403 14:35:38.532095  1624 net.cpp:399] inception_4b/pool -> inception_4b/pool
I0403 14:35:38.532162  1624 net.cpp:141] Setting up inception_4b/pool
I0403 14:35:38.532189  1624 net.cpp:148] Top shape: 24 512 14 14 (2408448)
I0403 14:35:38.532204  1624 net.cpp:156] Memory required for data: 977814816
I0403 14:35:38.532219  1624 layer_factory.hpp:77] Creating layer inception_4b/pool_proj
I0403 14:35:38.532243  1624 net.cpp:91] Creating Layer inception_4b/pool_proj
I0403 14:35:38.532259  1624 net.cpp:425] inception_4b/pool_proj <- inception_4b/pool
I0403 14:35:38.532277  1624 net.cpp:399] inception_4b/pool_proj -> inception_4b/pool_proj
I0403 14:35:38.533485  1624 net.cpp:141] Setting up inception_4b/pool_proj
I0403 14:35:38.533515  1624 net.cpp:148] Top shape: 24 64 14 14 (301056)
I0403 14:35:38.533531  1624 net.cpp:156] Memory required for data: 979019040
I0403 14:35:38.533550  1624 layer_factory.hpp:77] Creating layer inception_4b/relu_pool_proj
I0403 14:35:38.533570  1624 net.cpp:91] Creating Layer inception_4b/relu_pool_proj
I0403 14:35:38.533586  1624 net.cpp:425] inception_4b/relu_pool_proj <- inception_4b/pool_proj
I0403 14:35:38.533603  1624 net.cpp:386] inception_4b/relu_pool_proj -> inception_4b/pool_proj (in-place)
I0403 14:35:38.533789  1624 net.cpp:141] Setting up inception_4b/relu_pool_proj
I0403 14:35:38.533815  1624 net.cpp:148] Top shape: 24 64 14 14 (301056)
I0403 14:35:38.533830  1624 net.cpp:156] Memory required for data: 980223264
I0403 14:35:38.533844  1624 layer_factory.hpp:77] Creating layer inception_4b/output
I0403 14:35:38.533861  1624 net.cpp:91] Creating Layer inception_4b/output
I0403 14:35:38.533876  1624 net.cpp:425] inception_4b/output <- inception_4b/1x1
I0403 14:35:38.533892  1624 net.cpp:425] inception_4b/output <- inception_4b/3x3
I0403 14:35:38.533908  1624 net.cpp:425] inception_4b/output <- inception_4b/5x5
I0403 14:35:38.533923  1624 net.cpp:425] inception_4b/output <- inception_4b/pool_proj
I0403 14:35:38.533939  1624 net.cpp:399] inception_4b/output -> inception_4b/output
I0403 14:35:38.533987  1624 net.cpp:141] Setting up inception_4b/output
I0403 14:35:38.534009  1624 net.cpp:148] Top shape: 24 512 14 14 (2408448)
I0403 14:35:38.534024  1624 net.cpp:156] Memory required for data: 989857056
I0403 14:35:38.534051  1624 layer_factory.hpp:77] Creating layer inception_4b/output_inception_4b/output_0_split
I0403 14:35:38.534071  1624 net.cpp:91] Creating Layer inception_4b/output_inception_4b/output_0_split
I0403 14:35:38.534087  1624 net.cpp:425] inception_4b/output_inception_4b/output_0_split <- inception_4b/output
I0403 14:35:38.534104  1624 net.cpp:399] inception_4b/output_inception_4b/output_0_split -> inception_4b/output_inception_4b/output_0_split_0
I0403 14:35:38.534123  1624 net.cpp:399] inception_4b/output_inception_4b/output_0_split -> inception_4b/output_inception_4b/output_0_split_1
I0403 14:35:38.534143  1624 net.cpp:399] inception_4b/output_inception_4b/output_0_split -> inception_4b/output_inception_4b/output_0_split_2
I0403 14:35:38.534163  1624 net.cpp:399] inception_4b/output_inception_4b/output_0_split -> inception_4b/output_inception_4b/output_0_split_3
I0403 14:35:38.534251  1624 net.cpp:141] Setting up inception_4b/output_inception_4b/output_0_split
I0403 14:35:38.534274  1624 net.cpp:148] Top shape: 24 512 14 14 (2408448)
I0403 14:35:38.534291  1624 net.cpp:148] Top shape: 24 512 14 14 (2408448)
I0403 14:35:38.534306  1624 net.cpp:148] Top shape: 24 512 14 14 (2408448)
I0403 14:35:38.534320  1624 net.cpp:148] Top shape: 24 512 14 14 (2408448)
I0403 14:35:38.534334  1624 net.cpp:156] Memory required for data: 1028392224
I0403 14:35:38.534348  1624 layer_factory.hpp:77] Creating layer inception_4c/1x1
I0403 14:35:38.534369  1624 net.cpp:91] Creating Layer inception_4c/1x1
I0403 14:35:38.534386  1624 net.cpp:425] inception_4c/1x1 <- inception_4b/output_inception_4b/output_0_split_0
I0403 14:35:38.534407  1624 net.cpp:399] inception_4c/1x1 -> inception_4c/1x1
I0403 14:35:38.535838  1624 net.cpp:141] Setting up inception_4c/1x1
I0403 14:35:38.535871  1624 net.cpp:148] Top shape: 24 128 14 14 (602112)
I0403 14:35:38.535889  1624 net.cpp:156] Memory required for data: 1030800672
I0403 14:35:38.535909  1624 layer_factory.hpp:77] Creating layer inception_4c/relu_1x1
I0403 14:35:38.535928  1624 net.cpp:91] Creating Layer inception_4c/relu_1x1
I0403 14:35:38.535943  1624 net.cpp:425] inception_4c/relu_1x1 <- inception_4c/1x1
I0403 14:35:38.535960  1624 net.cpp:386] inception_4c/relu_1x1 -> inception_4c/1x1 (in-place)
I0403 14:35:38.536139  1624 net.cpp:141] Setting up inception_4c/relu_1x1
I0403 14:35:38.536164  1624 net.cpp:148] Top shape: 24 128 14 14 (602112)
I0403 14:35:38.536182  1624 net.cpp:156] Memory required for data: 1033209120
I0403 14:35:38.536197  1624 layer_factory.hpp:77] Creating layer inception_4c/3x3_reduce
I0403 14:35:38.536219  1624 net.cpp:91] Creating Layer inception_4c/3x3_reduce
I0403 14:35:38.536237  1624 net.cpp:425] inception_4c/3x3_reduce <- inception_4b/output_inception_4b/output_0_split_1
I0403 14:35:38.536259  1624 net.cpp:399] inception_4c/3x3_reduce -> inception_4c/3x3_reduce
I0403 14:35:38.538221  1624 net.cpp:141] Setting up inception_4c/3x3_reduce
I0403 14:35:38.538251  1624 net.cpp:148] Top shape: 24 128 14 14 (602112)
I0403 14:35:38.538267  1624 net.cpp:156] Memory required for data: 1035617568
I0403 14:35:38.538286  1624 layer_factory.hpp:77] Creating layer inception_4c/relu_3x3_reduce
I0403 14:35:38.538306  1624 net.cpp:91] Creating Layer inception_4c/relu_3x3_reduce
I0403 14:35:38.538323  1624 net.cpp:425] inception_4c/relu_3x3_reduce <- inception_4c/3x3_reduce
I0403 14:35:38.538341  1624 net.cpp:386] inception_4c/relu_3x3_reduce -> inception_4c/3x3_reduce (in-place)
I0403 14:35:38.538626  1624 net.cpp:141] Setting up inception_4c/relu_3x3_reduce
I0403 14:35:38.538655  1624 net.cpp:148] Top shape: 24 128 14 14 (602112)
I0403 14:35:38.538671  1624 net.cpp:156] Memory required for data: 1038026016
I0403 14:35:38.538686  1624 layer_factory.hpp:77] Creating layer inception_4c/3x3
I0403 14:35:38.538708  1624 net.cpp:91] Creating Layer inception_4c/3x3
I0403 14:35:38.538725  1624 net.cpp:425] inception_4c/3x3 <- inception_4c/3x3_reduce
I0403 14:35:38.538748  1624 net.cpp:399] inception_4c/3x3 -> inception_4c/3x3
I0403 14:35:38.542392  1624 net.cpp:141] Setting up inception_4c/3x3
I0403 14:35:38.542435  1624 net.cpp:148] Top shape: 24 256 14 14 (1204224)
I0403 14:35:38.542453  1624 net.cpp:156] Memory required for data: 1042842912
I0403 14:35:38.542487  1624 layer_factory.hpp:77] Creating layer inception_4c/relu_3x3
I0403 14:35:38.542510  1624 net.cpp:91] Creating Layer inception_4c/relu_3x3
I0403 14:35:38.542528  1624 net.cpp:425] inception_4c/relu_3x3 <- inception_4c/3x3
I0403 14:35:38.542546  1624 net.cpp:386] inception_4c/relu_3x3 -> inception_4c/3x3 (in-place)
I0403 14:35:38.542724  1624 net.cpp:141] Setting up inception_4c/relu_3x3
I0403 14:35:38.542749  1624 net.cpp:148] Top shape: 24 256 14 14 (1204224)
I0403 14:35:38.542763  1624 net.cpp:156] Memory required for data: 1047659808
I0403 14:35:38.542778  1624 layer_factory.hpp:77] Creating layer inception_4c/5x5_reduce
I0403 14:35:38.542800  1624 net.cpp:91] Creating Layer inception_4c/5x5_reduce
I0403 14:35:38.542816  1624 net.cpp:425] inception_4c/5x5_reduce <- inception_4b/output_inception_4b/output_0_split_2
I0403 14:35:38.542837  1624 net.cpp:399] inception_4c/5x5_reduce -> inception_4c/5x5_reduce
I0403 14:35:38.543942  1624 net.cpp:141] Setting up inception_4c/5x5_reduce
I0403 14:35:38.543970  1624 net.cpp:148] Top shape: 24 24 14 14 (112896)
I0403 14:35:38.543985  1624 net.cpp:156] Memory required for data: 1048111392
I0403 14:35:38.544003  1624 layer_factory.hpp:77] Creating layer inception_4c/relu_5x5_reduce
I0403 14:35:38.544025  1624 net.cpp:91] Creating Layer inception_4c/relu_5x5_reduce
I0403 14:35:38.544042  1624 net.cpp:425] inception_4c/relu_5x5_reduce <- inception_4c/5x5_reduce
I0403 14:35:38.544059  1624 net.cpp:386] inception_4c/relu_5x5_reduce -> inception_4c/5x5_reduce (in-place)
I0403 14:35:38.544247  1624 net.cpp:141] Setting up inception_4c/relu_5x5_reduce
I0403 14:35:38.544272  1624 net.cpp:148] Top shape: 24 24 14 14 (112896)
I0403 14:35:38.544286  1624 net.cpp:156] Memory required for data: 1048562976
I0403 14:35:38.544301  1624 layer_factory.hpp:77] Creating layer inception_4c/5x5
I0403 14:35:38.544324  1624 net.cpp:91] Creating Layer inception_4c/5x5
I0403 14:35:38.544340  1624 net.cpp:425] inception_4c/5x5 <- inception_4c/5x5_reduce
I0403 14:35:38.544359  1624 net.cpp:399] inception_4c/5x5 -> inception_4c/5x5
I0403 14:35:38.545593  1624 net.cpp:141] Setting up inception_4c/5x5
I0403 14:35:38.545624  1624 net.cpp:148] Top shape: 24 64 14 14 (301056)
I0403 14:35:38.545814  1624 net.cpp:156] Memory required for data: 1049767200
I0403 14:35:38.545867  1624 layer_factory.hpp:77] Creating layer inception_4c/relu_5x5
I0403 14:35:38.545887  1624 net.cpp:91] Creating Layer inception_4c/relu_5x5
I0403 14:35:38.545905  1624 net.cpp:425] inception_4c/relu_5x5 <- inception_4c/5x5
I0403 14:35:38.545923  1624 net.cpp:386] inception_4c/relu_5x5 -> inception_4c/5x5 (in-place)
I0403 14:35:38.546221  1624 net.cpp:141] Setting up inception_4c/relu_5x5
I0403 14:35:38.546249  1624 net.cpp:148] Top shape: 24 64 14 14 (301056)
I0403 14:35:38.546267  1624 net.cpp:156] Memory required for data: 1050971424
I0403 14:35:38.546283  1624 layer_factory.hpp:77] Creating layer inception_4c/pool
I0403 14:35:38.546300  1624 net.cpp:91] Creating Layer inception_4c/pool
I0403 14:35:38.546316  1624 net.cpp:425] inception_4c/pool <- inception_4b/output_inception_4b/output_0_split_3
I0403 14:35:38.546334  1624 net.cpp:399] inception_4c/pool -> inception_4c/pool
I0403 14:35:38.546399  1624 net.cpp:141] Setting up inception_4c/pool
I0403 14:35:38.546423  1624 net.cpp:148] Top shape: 24 512 14 14 (2408448)
I0403 14:35:38.546439  1624 net.cpp:156] Memory required for data: 1060605216
I0403 14:35:38.546454  1624 layer_factory.hpp:77] Creating layer inception_4c/pool_proj
I0403 14:35:38.546478  1624 net.cpp:91] Creating Layer inception_4c/pool_proj
I0403 14:35:38.546495  1624 net.cpp:425] inception_4c/pool_proj <- inception_4c/pool
I0403 14:35:38.546515  1624 net.cpp:399] inception_4c/pool_proj -> inception_4c/pool_proj
I0403 14:35:38.547731  1624 net.cpp:141] Setting up inception_4c/pool_proj
I0403 14:35:38.547760  1624 net.cpp:148] Top shape: 24 64 14 14 (301056)
I0403 14:35:38.547790  1624 net.cpp:156] Memory required for data: 1061809440
I0403 14:35:38.547809  1624 layer_factory.hpp:77] Creating layer inception_4c/relu_pool_proj
I0403 14:35:38.547832  1624 net.cpp:91] Creating Layer inception_4c/relu_pool_proj
I0403 14:35:38.547849  1624 net.cpp:425] inception_4c/relu_pool_proj <- inception_4c/pool_proj
I0403 14:35:38.547868  1624 net.cpp:386] inception_4c/relu_pool_proj -> inception_4c/pool_proj (in-place)
I0403 14:35:38.548048  1624 net.cpp:141] Setting up inception_4c/relu_pool_proj
I0403 14:35:38.548074  1624 net.cpp:148] Top shape: 24 64 14 14 (301056)
I0403 14:35:38.548089  1624 net.cpp:156] Memory required for data: 1063013664
I0403 14:35:38.548104  1624 layer_factory.hpp:77] Creating layer inception_4c/output
I0403 14:35:38.548120  1624 net.cpp:91] Creating Layer inception_4c/output
I0403 14:35:38.548135  1624 net.cpp:425] inception_4c/output <- inception_4c/1x1
I0403 14:35:38.548149  1624 net.cpp:425] inception_4c/output <- inception_4c/3x3
I0403 14:35:38.548164  1624 net.cpp:425] inception_4c/output <- inception_4c/5x5
I0403 14:35:38.548184  1624 net.cpp:425] inception_4c/output <- inception_4c/pool_proj
I0403 14:35:38.548202  1624 net.cpp:399] inception_4c/output -> inception_4c/output
I0403 14:35:38.548251  1624 net.cpp:141] Setting up inception_4c/output
I0403 14:35:38.548274  1624 net.cpp:148] Top shape: 24 512 14 14 (2408448)
I0403 14:35:38.548288  1624 net.cpp:156] Memory required for data: 1072647456
I0403 14:35:38.548302  1624 layer_factory.hpp:77] Creating layer inception_4c/output_inception_4c/output_0_split
I0403 14:35:38.548319  1624 net.cpp:91] Creating Layer inception_4c/output_inception_4c/output_0_split
I0403 14:35:38.548337  1624 net.cpp:425] inception_4c/output_inception_4c/output_0_split <- inception_4c/output
I0403 14:35:38.548354  1624 net.cpp:399] inception_4c/output_inception_4c/output_0_split -> inception_4c/output_inception_4c/output_0_split_0
I0403 14:35:38.548373  1624 net.cpp:399] inception_4c/output_inception_4c/output_0_split -> inception_4c/output_inception_4c/output_0_split_1
I0403 14:35:38.548393  1624 net.cpp:399] inception_4c/output_inception_4c/output_0_split -> inception_4c/output_inception_4c/output_0_split_2
I0403 14:35:38.548413  1624 net.cpp:399] inception_4c/output_inception_4c/output_0_split -> inception_4c/output_inception_4c/output_0_split_3
I0403 14:35:38.548497  1624 net.cpp:141] Setting up inception_4c/output_inception_4c/output_0_split
I0403 14:35:38.548521  1624 net.cpp:148] Top shape: 24 512 14 14 (2408448)
I0403 14:35:38.548535  1624 net.cpp:148] Top shape: 24 512 14 14 (2408448)
I0403 14:35:38.548550  1624 net.cpp:148] Top shape: 24 512 14 14 (2408448)
I0403 14:35:38.548565  1624 net.cpp:148] Top shape: 24 512 14 14 (2408448)
I0403 14:35:38.548579  1624 net.cpp:156] Memory required for data: 1111182624
I0403 14:35:38.548593  1624 layer_factory.hpp:77] Creating layer inception_4d/1x1
I0403 14:35:38.548615  1624 net.cpp:91] Creating Layer inception_4d/1x1
I0403 14:35:38.548632  1624 net.cpp:425] inception_4d/1x1 <- inception_4c/output_inception_4c/output_0_split_0
I0403 14:35:38.548655  1624 net.cpp:399] inception_4d/1x1 -> inception_4d/1x1
I0403 14:35:38.550034  1624 net.cpp:141] Setting up inception_4d/1x1
I0403 14:35:38.550065  1624 net.cpp:148] Top shape: 24 112 14 14 (526848)
I0403 14:35:38.550081  1624 net.cpp:156] Memory required for data: 1113290016
I0403 14:35:38.550098  1624 layer_factory.hpp:77] Creating layer inception_4d/relu_1x1
I0403 14:35:38.550117  1624 net.cpp:91] Creating Layer inception_4d/relu_1x1
I0403 14:35:38.550134  1624 net.cpp:425] inception_4d/relu_1x1 <- inception_4d/1x1
I0403 14:35:38.550153  1624 net.cpp:386] inception_4d/relu_1x1 -> inception_4d/1x1 (in-place)
I0403 14:35:38.550343  1624 net.cpp:141] Setting up inception_4d/relu_1x1
I0403 14:35:38.550369  1624 net.cpp:148] Top shape: 24 112 14 14 (526848)
I0403 14:35:38.550384  1624 net.cpp:156] Memory required for data: 1115397408
I0403 14:35:38.550398  1624 layer_factory.hpp:77] Creating layer inception_4d/3x3_reduce
I0403 14:35:38.550436  1624 net.cpp:91] Creating Layer inception_4d/3x3_reduce
I0403 14:35:38.550456  1624 net.cpp:425] inception_4d/3x3_reduce <- inception_4c/output_inception_4c/output_0_split_1
I0403 14:35:38.550479  1624 net.cpp:399] inception_4d/3x3_reduce -> inception_4d/3x3_reduce
I0403 14:35:38.551985  1624 net.cpp:141] Setting up inception_4d/3x3_reduce
I0403 14:35:38.552016  1624 net.cpp:148] Top shape: 24 144 14 14 (677376)
I0403 14:35:38.552033  1624 net.cpp:156] Memory required for data: 1118106912
I0403 14:35:38.552052  1624 layer_factory.hpp:77] Creating layer inception_4d/relu_3x3_reduce
I0403 14:35:38.552072  1624 net.cpp:91] Creating Layer inception_4d/relu_3x3_reduce
I0403 14:35:38.552088  1624 net.cpp:425] inception_4d/relu_3x3_reduce <- inception_4d/3x3_reduce
I0403 14:35:38.552109  1624 net.cpp:386] inception_4d/relu_3x3_reduce -> inception_4d/3x3_reduce (in-place)
I0403 14:35:38.552413  1624 net.cpp:141] Setting up inception_4d/relu_3x3_reduce
I0403 14:35:38.552444  1624 net.cpp:148] Top shape: 24 144 14 14 (677376)
I0403 14:35:38.552460  1624 net.cpp:156] Memory required for data: 1120816416
I0403 14:35:38.552475  1624 layer_factory.hpp:77] Creating layer inception_4d/3x3
I0403 14:35:38.552498  1624 net.cpp:91] Creating Layer inception_4d/3x3
I0403 14:35:38.552517  1624 net.cpp:425] inception_4d/3x3 <- inception_4d/3x3_reduce
I0403 14:35:38.552537  1624 net.cpp:399] inception_4d/3x3 -> inception_4d/3x3
I0403 14:35:38.556864  1624 net.cpp:141] Setting up inception_4d/3x3
I0403 14:35:38.556895  1624 net.cpp:148] Top shape: 24 288 14 14 (1354752)
I0403 14:35:38.556911  1624 net.cpp:156] Memory required for data: 1126235424
I0403 14:35:38.556931  1624 layer_factory.hpp:77] Creating layer inception_4d/relu_3x3
I0403 14:35:38.556949  1624 net.cpp:91] Creating Layer inception_4d/relu_3x3
I0403 14:35:38.556964  1624 net.cpp:425] inception_4d/relu_3x3 <- inception_4d/3x3
I0403 14:35:38.556984  1624 net.cpp:386] inception_4d/relu_3x3 -> inception_4d/3x3 (in-place)
I0403 14:35:38.557166  1624 net.cpp:141] Setting up inception_4d/relu_3x3
I0403 14:35:38.557196  1624 net.cpp:148] Top shape: 24 288 14 14 (1354752)
I0403 14:35:38.557212  1624 net.cpp:156] Memory required for data: 1131654432
I0403 14:35:38.557227  1624 layer_factory.hpp:77] Creating layer inception_4d/5x5_reduce
I0403 14:35:38.557250  1624 net.cpp:91] Creating Layer inception_4d/5x5_reduce
I0403 14:35:38.557267  1624 net.cpp:425] inception_4d/5x5_reduce <- inception_4c/output_inception_4c/output_0_split_2
I0403 14:35:38.557289  1624 net.cpp:399] inception_4d/5x5_reduce -> inception_4d/5x5_reduce
I0403 14:35:38.558446  1624 net.cpp:141] Setting up inception_4d/5x5_reduce
I0403 14:35:38.558477  1624 net.cpp:148] Top shape: 24 32 14 14 (150528)
I0403 14:35:38.558493  1624 net.cpp:156] Memory required for data: 1132256544
I0403 14:35:38.558513  1624 layer_factory.hpp:77] Creating layer inception_4d/relu_5x5_reduce
I0403 14:35:38.558531  1624 net.cpp:91] Creating Layer inception_4d/relu_5x5_reduce
I0403 14:35:38.558547  1624 net.cpp:425] inception_4d/relu_5x5_reduce <- inception_4d/5x5_reduce
I0403 14:35:38.558568  1624 net.cpp:386] inception_4d/relu_5x5_reduce -> inception_4d/5x5_reduce (in-place)
I0403 14:35:38.558753  1624 net.cpp:141] Setting up inception_4d/relu_5x5_reduce
I0403 14:35:38.558779  1624 net.cpp:148] Top shape: 24 32 14 14 (150528)
I0403 14:35:38.558795  1624 net.cpp:156] Memory required for data: 1132858656
I0403 14:35:38.558810  1624 layer_factory.hpp:77] Creating layer inception_4d/5x5
I0403 14:35:38.558835  1624 net.cpp:91] Creating Layer inception_4d/5x5
I0403 14:35:38.558856  1624 net.cpp:425] inception_4d/5x5 <- inception_4d/5x5_reduce
I0403 14:35:38.558876  1624 net.cpp:399] inception_4d/5x5 -> inception_4d/5x5
I0403 14:35:38.560380  1624 net.cpp:141] Setting up inception_4d/5x5
I0403 14:35:38.560408  1624 net.cpp:148] Top shape: 24 64 14 14 (301056)
I0403 14:35:38.560425  1624 net.cpp:156] Memory required for data: 1134062880
I0403 14:35:38.560446  1624 layer_factory.hpp:77] Creating layer inception_4d/relu_5x5
I0403 14:35:38.560483  1624 net.cpp:91] Creating Layer inception_4d/relu_5x5
I0403 14:35:38.560503  1624 net.cpp:425] inception_4d/relu_5x5 <- inception_4d/5x5
I0403 14:35:38.560523  1624 net.cpp:386] inception_4d/relu_5x5 -> inception_4d/5x5 (in-place)
I0403 14:35:38.560822  1624 net.cpp:141] Setting up inception_4d/relu_5x5
I0403 14:35:38.560849  1624 net.cpp:148] Top shape: 24 64 14 14 (301056)
I0403 14:35:38.560864  1624 net.cpp:156] Memory required for data: 1135267104
I0403 14:35:38.560880  1624 layer_factory.hpp:77] Creating layer inception_4d/pool
I0403 14:35:38.560901  1624 net.cpp:91] Creating Layer inception_4d/pool
I0403 14:35:38.560919  1624 net.cpp:425] inception_4d/pool <- inception_4c/output_inception_4c/output_0_split_3
I0403 14:35:38.560936  1624 net.cpp:399] inception_4d/pool -> inception_4d/pool
I0403 14:35:38.561003  1624 net.cpp:141] Setting up inception_4d/pool
I0403 14:35:38.561029  1624 net.cpp:148] Top shape: 24 512 14 14 (2408448)
I0403 14:35:38.561044  1624 net.cpp:156] Memory required for data: 1144900896
I0403 14:35:38.561059  1624 layer_factory.hpp:77] Creating layer inception_4d/pool_proj
I0403 14:35:38.561081  1624 net.cpp:91] Creating Layer inception_4d/pool_proj
I0403 14:35:38.561099  1624 net.cpp:425] inception_4d/pool_proj <- inception_4d/pool
I0403 14:35:38.561120  1624 net.cpp:399] inception_4d/pool_proj -> inception_4d/pool_proj
I0403 14:35:38.562878  1624 net.cpp:141] Setting up inception_4d/pool_proj
I0403 14:35:38.562908  1624 net.cpp:148] Top shape: 24 64 14 14 (301056)
I0403 14:35:38.562924  1624 net.cpp:156] Memory required for data: 1146105120
I0403 14:35:38.562943  1624 layer_factory.hpp:77] Creating layer inception_4d/relu_pool_proj
I0403 14:35:38.562961  1624 net.cpp:91] Creating Layer inception_4d/relu_pool_proj
I0403 14:35:38.562976  1624 net.cpp:425] inception_4d/relu_pool_proj <- inception_4d/pool_proj
I0403 14:35:38.562997  1624 net.cpp:386] inception_4d/relu_pool_proj -> inception_4d/pool_proj (in-place)
I0403 14:35:38.563191  1624 net.cpp:141] Setting up inception_4d/relu_pool_proj
I0403 14:35:38.563217  1624 net.cpp:148] Top shape: 24 64 14 14 (301056)
I0403 14:35:38.563231  1624 net.cpp:156] Memory required for data: 1147309344
I0403 14:35:38.563246  1624 layer_factory.hpp:77] Creating layer inception_4d/output
I0403 14:35:38.563262  1624 net.cpp:91] Creating Layer inception_4d/output
I0403 14:35:38.563277  1624 net.cpp:425] inception_4d/output <- inception_4d/1x1
I0403 14:35:38.563297  1624 net.cpp:425] inception_4d/output <- inception_4d/3x3
I0403 14:35:38.563313  1624 net.cpp:425] inception_4d/output <- inception_4d/5x5
I0403 14:35:38.563328  1624 net.cpp:425] inception_4d/output <- inception_4d/pool_proj
I0403 14:35:38.563345  1624 net.cpp:399] inception_4d/output -> inception_4d/output
I0403 14:35:38.563395  1624 net.cpp:141] Setting up inception_4d/output
I0403 14:35:38.563417  1624 net.cpp:148] Top shape: 24 528 14 14 (2483712)
I0403 14:35:38.563431  1624 net.cpp:156] Memory required for data: 1157244192
I0403 14:35:38.563446  1624 layer_factory.hpp:77] Creating layer inception_4d/output_inception_4d/output_0_split
I0403 14:35:38.563462  1624 net.cpp:91] Creating Layer inception_4d/output_inception_4d/output_0_split
I0403 14:35:38.563477  1624 net.cpp:425] inception_4d/output_inception_4d/output_0_split <- inception_4d/output
I0403 14:35:38.563496  1624 net.cpp:399] inception_4d/output_inception_4d/output_0_split -> inception_4d/output_inception_4d/output_0_split_0
I0403 14:35:38.563518  1624 net.cpp:399] inception_4d/output_inception_4d/output_0_split -> inception_4d/output_inception_4d/output_0_split_1
I0403 14:35:38.563537  1624 net.cpp:399] inception_4d/output_inception_4d/output_0_split -> inception_4d/output_inception_4d/output_0_split_2
I0403 14:35:38.563558  1624 net.cpp:399] inception_4d/output_inception_4d/output_0_split -> inception_4d/output_inception_4d/output_0_split_3
I0403 14:35:38.563577  1624 net.cpp:399] inception_4d/output_inception_4d/output_0_split -> inception_4d/output_inception_4d/output_0_split_4
I0403 14:35:38.563681  1624 net.cpp:141] Setting up inception_4d/output_inception_4d/output_0_split
I0403 14:35:38.563717  1624 net.cpp:148] Top shape: 24 528 14 14 (2483712)
I0403 14:35:38.563733  1624 net.cpp:148] Top shape: 24 528 14 14 (2483712)
I0403 14:35:38.563751  1624 net.cpp:148] Top shape: 24 528 14 14 (2483712)
I0403 14:35:38.563766  1624 net.cpp:148] Top shape: 24 528 14 14 (2483712)
I0403 14:35:38.563781  1624 net.cpp:148] Top shape: 24 528 14 14 (2483712)
I0403 14:35:38.563794  1624 net.cpp:156] Memory required for data: 1206918432
I0403 14:35:38.563808  1624 layer_factory.hpp:77] Creating layer loss2/ave_pool
I0403 14:35:38.563827  1624 net.cpp:91] Creating Layer loss2/ave_pool
I0403 14:35:38.563841  1624 net.cpp:425] loss2/ave_pool <- inception_4d/output_inception_4d/output_0_split_0
I0403 14:35:38.563861  1624 net.cpp:399] loss2/ave_pool -> loss2/ave_pool
I0403 14:35:38.564173  1624 net.cpp:141] Setting up loss2/ave_pool
I0403 14:35:38.564203  1624 net.cpp:148] Top shape: 24 528 4 4 (202752)
I0403 14:35:38.564218  1624 net.cpp:156] Memory required for data: 1207729440
I0403 14:35:38.564234  1624 layer_factory.hpp:77] Creating layer loss2/conv
I0403 14:35:38.564256  1624 net.cpp:91] Creating Layer loss2/conv
I0403 14:35:38.564273  1624 net.cpp:425] loss2/conv <- loss2/ave_pool
I0403 14:35:38.564294  1624 net.cpp:399] loss2/conv -> loss2/conv
I0403 14:35:38.566210  1624 net.cpp:141] Setting up loss2/conv
I0403 14:35:38.566238  1624 net.cpp:148] Top shape: 24 128 4 4 (49152)
I0403 14:35:38.566254  1624 net.cpp:156] Memory required for data: 1207926048
I0403 14:35:38.566272  1624 layer_factory.hpp:77] Creating layer loss2/relu_conv
I0403 14:35:38.566293  1624 net.cpp:91] Creating Layer loss2/relu_conv
I0403 14:35:38.566308  1624 net.cpp:425] loss2/relu_conv <- loss2/conv
I0403 14:35:38.566326  1624 net.cpp:386] loss2/relu_conv -> loss2/conv (in-place)
I0403 14:35:38.566715  1624 net.cpp:141] Setting up loss2/relu_conv
I0403 14:35:38.566751  1624 net.cpp:148] Top shape: 24 128 4 4 (49152)
I0403 14:35:38.566766  1624 net.cpp:156] Memory required for data: 1208122656
I0403 14:35:38.566781  1624 layer_factory.hpp:77] Creating layer loss2/fc
I0403 14:35:38.566802  1624 net.cpp:91] Creating Layer loss2/fc
I0403 14:35:38.566818  1624 net.cpp:425] loss2/fc <- loss2/conv
I0403 14:35:38.566838  1624 net.cpp:399] loss2/fc -> loss2/fc
I0403 14:35:38.584481  1624 net.cpp:141] Setting up loss2/fc
I0403 14:35:38.584535  1624 net.cpp:148] Top shape: 24 1024 (24576)
I0403 14:35:38.584550  1624 net.cpp:156] Memory required for data: 1208220960
I0403 14:35:38.584570  1624 layer_factory.hpp:77] Creating layer loss2/relu_fc
I0403 14:35:38.584590  1624 net.cpp:91] Creating Layer loss2/relu_fc
I0403 14:35:38.584606  1624 net.cpp:425] loss2/relu_fc <- loss2/fc
I0403 14:35:38.584627  1624 net.cpp:386] loss2/relu_fc -> loss2/fc (in-place)
I0403 14:35:38.584959  1624 net.cpp:141] Setting up loss2/relu_fc
I0403 14:35:38.584985  1624 net.cpp:148] Top shape: 24 1024 (24576)
I0403 14:35:38.585000  1624 net.cpp:156] Memory required for data: 1208319264
I0403 14:35:38.585014  1624 layer_factory.hpp:77] Creating layer loss2/drop_fc
I0403 14:35:38.585032  1624 net.cpp:91] Creating Layer loss2/drop_fc
I0403 14:35:38.585048  1624 net.cpp:425] loss2/drop_fc <- loss2/fc
I0403 14:35:38.585067  1624 net.cpp:386] loss2/drop_fc -> loss2/fc (in-place)
I0403 14:35:38.585117  1624 net.cpp:141] Setting up loss2/drop_fc
I0403 14:35:38.585142  1624 net.cpp:148] Top shape: 24 1024 (24576)
I0403 14:35:38.585158  1624 net.cpp:156] Memory required for data: 1208417568
I0403 14:35:38.585172  1624 layer_factory.hpp:77] Creating layer loss2/classifier_plantvillage
I0403 14:35:38.585196  1624 net.cpp:91] Creating Layer loss2/classifier_plantvillage
I0403 14:35:38.585212  1624 net.cpp:425] loss2/classifier_plantvillage <- loss2/fc
I0403 14:35:38.585237  1624 net.cpp:399] loss2/classifier_plantvillage -> loss2/classifier_plantvillage
I0403 14:35:38.585651  1624 net.cpp:141] Setting up loss2/classifier_plantvillage
I0403 14:35:38.585676  1624 net.cpp:148] Top shape: 24 38 (912)
I0403 14:35:38.585716  1624 net.cpp:156] Memory required for data: 1208421216
I0403 14:35:38.585733  1624 layer_factory.hpp:77] Creating layer loss2/classifier_plantvillage_loss2/classifier_plantvillage_0_split
I0403 14:35:38.585755  1624 net.cpp:91] Creating Layer loss2/classifier_plantvillage_loss2/classifier_plantvillage_0_split
I0403 14:35:38.585772  1624 net.cpp:425] loss2/classifier_plantvillage_loss2/classifier_plantvillage_0_split <- loss2/classifier_plantvillage
I0403 14:35:38.585789  1624 net.cpp:399] loss2/classifier_plantvillage_loss2/classifier_plantvillage_0_split -> loss2/classifier_plantvillage_loss2/classifier_plantvillage_0_split_0
I0403 14:35:38.585810  1624 net.cpp:399] loss2/classifier_plantvillage_loss2/classifier_plantvillage_0_split -> loss2/classifier_plantvillage_loss2/classifier_plantvillage_0_split_1
I0403 14:35:38.585831  1624 net.cpp:399] loss2/classifier_plantvillage_loss2/classifier_plantvillage_0_split -> loss2/classifier_plantvillage_loss2/classifier_plantvillage_0_split_2
I0403 14:35:38.585907  1624 net.cpp:141] Setting up loss2/classifier_plantvillage_loss2/classifier_plantvillage_0_split
I0403 14:35:38.585932  1624 net.cpp:148] Top shape: 24 38 (912)
I0403 14:35:38.585947  1624 net.cpp:148] Top shape: 24 38 (912)
I0403 14:35:38.585963  1624 net.cpp:148] Top shape: 24 38 (912)
I0403 14:35:38.585975  1624 net.cpp:156] Memory required for data: 1208432160
I0403 14:35:38.585989  1624 layer_factory.hpp:77] Creating layer inception_4e/1x1
I0403 14:35:38.586012  1624 net.cpp:91] Creating Layer inception_4e/1x1
I0403 14:35:38.586030  1624 net.cpp:425] inception_4e/1x1 <- inception_4d/output_inception_4d/output_0_split_1
I0403 14:35:38.586050  1624 net.cpp:399] inception_4e/1x1 -> inception_4e/1x1
I0403 14:35:38.587909  1624 net.cpp:141] Setting up inception_4e/1x1
I0403 14:35:38.587940  1624 net.cpp:148] Top shape: 24 256 14 14 (1204224)
I0403 14:35:38.587957  1624 net.cpp:156] Memory required for data: 1213249056
I0403 14:35:38.587975  1624 layer_factory.hpp:77] Creating layer inception_4e/relu_1x1
I0403 14:35:38.587993  1624 net.cpp:91] Creating Layer inception_4e/relu_1x1
I0403 14:35:38.588008  1624 net.cpp:425] inception_4e/relu_1x1 <- inception_4e/1x1
I0403 14:35:38.588026  1624 net.cpp:386] inception_4e/relu_1x1 -> inception_4e/1x1 (in-place)
I0403 14:35:38.588327  1624 net.cpp:141] Setting up inception_4e/relu_1x1
I0403 14:35:38.588357  1624 net.cpp:148] Top shape: 24 256 14 14 (1204224)
I0403 14:35:38.588374  1624 net.cpp:156] Memory required for data: 1218065952
I0403 14:35:38.588389  1624 layer_factory.hpp:77] Creating layer inception_4e/3x3_reduce
I0403 14:35:38.588410  1624 net.cpp:91] Creating Layer inception_4e/3x3_reduce
I0403 14:35:38.588428  1624 net.cpp:425] inception_4e/3x3_reduce <- inception_4d/output_inception_4d/output_0_split_2
I0403 14:35:38.588449  1624 net.cpp:399] inception_4e/3x3_reduce -> inception_4e/3x3_reduce
I0403 14:35:38.590608  1624 net.cpp:141] Setting up inception_4e/3x3_reduce
I0403 14:35:38.590638  1624 net.cpp:148] Top shape: 24 160 14 14 (752640)
I0403 14:35:38.590654  1624 net.cpp:156] Memory required for data: 1221076512
I0403 14:35:38.590674  1624 layer_factory.hpp:77] Creating layer inception_4e/relu_3x3_reduce
I0403 14:35:38.590694  1624 net.cpp:91] Creating Layer inception_4e/relu_3x3_reduce
I0403 14:35:38.590713  1624 net.cpp:425] inception_4e/relu_3x3_reduce <- inception_4e/3x3_reduce
I0403 14:35:38.590729  1624 net.cpp:386] inception_4e/relu_3x3_reduce -> inception_4e/3x3_reduce (in-place)
I0403 14:35:38.590911  1624 net.cpp:141] Setting up inception_4e/relu_3x3_reduce
I0403 14:35:38.590939  1624 net.cpp:148] Top shape: 24 160 14 14 (752640)
I0403 14:35:38.590955  1624 net.cpp:156] Memory required for data: 1224087072
I0403 14:35:38.590972  1624 layer_factory.hpp:77] Creating layer inception_4e/3x3
I0403 14:35:38.590996  1624 net.cpp:91] Creating Layer inception_4e/3x3
I0403 14:35:38.591013  1624 net.cpp:425] inception_4e/3x3 <- inception_4e/3x3_reduce
I0403 14:35:38.591032  1624 net.cpp:399] inception_4e/3x3 -> inception_4e/3x3
I0403 14:35:38.596040  1624 net.cpp:141] Setting up inception_4e/3x3
I0403 14:35:38.596088  1624 net.cpp:148] Top shape: 24 320 14 14 (1505280)
I0403 14:35:38.596107  1624 net.cpp:156] Memory required for data: 1230108192
I0403 14:35:38.596127  1624 layer_factory.hpp:77] Creating layer inception_4e/relu_3x3
I0403 14:35:38.596145  1624 net.cpp:91] Creating Layer inception_4e/relu_3x3
I0403 14:35:38.596160  1624 net.cpp:425] inception_4e/relu_3x3 <- inception_4e/3x3
I0403 14:35:38.596182  1624 net.cpp:386] inception_4e/relu_3x3 -> inception_4e/3x3 (in-place)
I0403 14:35:38.596487  1624 net.cpp:141] Setting up inception_4e/relu_3x3
I0403 14:35:38.596513  1624 net.cpp:148] Top shape: 24 320 14 14 (1505280)
I0403 14:35:38.596527  1624 net.cpp:156] Memory required for data: 1236129312
I0403 14:35:38.596544  1624 layer_factory.hpp:77] Creating layer inception_4e/5x5_reduce
I0403 14:35:38.596566  1624 net.cpp:91] Creating Layer inception_4e/5x5_reduce
I0403 14:35:38.596583  1624 net.cpp:425] inception_4e/5x5_reduce <- inception_4d/output_inception_4d/output_0_split_3
I0403 14:35:38.596604  1624 net.cpp:399] inception_4e/5x5_reduce -> inception_4e/5x5_reduce
I0403 14:35:38.597682  1624 net.cpp:141] Setting up inception_4e/5x5_reduce
I0403 14:35:38.597709  1624 net.cpp:148] Top shape: 24 32 14 14 (150528)
I0403 14:35:38.597725  1624 net.cpp:156] Memory required for data: 1236731424
I0403 14:35:38.597743  1624 layer_factory.hpp:77] Creating layer inception_4e/relu_5x5_reduce
I0403 14:35:38.597764  1624 net.cpp:91] Creating Layer inception_4e/relu_5x5_reduce
I0403 14:35:38.597780  1624 net.cpp:425] inception_4e/relu_5x5_reduce <- inception_4e/5x5_reduce
I0403 14:35:38.597797  1624 net.cpp:386] inception_4e/relu_5x5_reduce -> inception_4e/5x5_reduce (in-place)
I0403 14:35:38.598095  1624 net.cpp:141] Setting up inception_4e/relu_5x5_reduce
I0403 14:35:38.598122  1624 net.cpp:148] Top shape: 24 32 14 14 (150528)
I0403 14:35:38.598139  1624 net.cpp:156] Memory required for data: 1237333536
I0403 14:35:38.598153  1624 layer_factory.hpp:77] Creating layer inception_4e/5x5
I0403 14:35:38.598197  1624 net.cpp:91] Creating Layer inception_4e/5x5
I0403 14:35:38.598217  1624 net.cpp:425] inception_4e/5x5 <- inception_4e/5x5_reduce
I0403 14:35:38.598238  1624 net.cpp:399] inception_4e/5x5 -> inception_4e/5x5
I0403 14:35:38.600087  1624 net.cpp:141] Setting up inception_4e/5x5
I0403 14:35:38.600116  1624 net.cpp:148] Top shape: 24 128 14 14 (602112)
I0403 14:35:38.600132  1624 net.cpp:156] Memory required for data: 1239741984
I0403 14:35:38.600152  1624 layer_factory.hpp:77] Creating layer inception_4e/relu_5x5
I0403 14:35:38.600172  1624 net.cpp:91] Creating Layer inception_4e/relu_5x5
I0403 14:35:38.600194  1624 net.cpp:425] inception_4e/relu_5x5 <- inception_4e/5x5
I0403 14:35:38.600213  1624 net.cpp:386] inception_4e/relu_5x5 -> inception_4e/5x5 (in-place)
I0403 14:35:38.600407  1624 net.cpp:141] Setting up inception_4e/relu_5x5
I0403 14:35:38.600432  1624 net.cpp:148] Top shape: 24 128 14 14 (602112)
I0403 14:35:38.600446  1624 net.cpp:156] Memory required for data: 1242150432
I0403 14:35:38.600461  1624 layer_factory.hpp:77] Creating layer inception_4e/pool
I0403 14:35:38.600481  1624 net.cpp:91] Creating Layer inception_4e/pool
I0403 14:35:38.600497  1624 net.cpp:425] inception_4e/pool <- inception_4d/output_inception_4d/output_0_split_4
I0403 14:35:38.600515  1624 net.cpp:399] inception_4e/pool -> inception_4e/pool
I0403 14:35:38.600586  1624 net.cpp:141] Setting up inception_4e/pool
I0403 14:35:38.600610  1624 net.cpp:148] Top shape: 24 528 14 14 (2483712)
I0403 14:35:38.600625  1624 net.cpp:156] Memory required for data: 1252085280
I0403 14:35:38.600638  1624 layer_factory.hpp:77] Creating layer inception_4e/pool_proj
I0403 14:35:38.600661  1624 net.cpp:91] Creating Layer inception_4e/pool_proj
I0403 14:35:38.600677  1624 net.cpp:425] inception_4e/pool_proj <- inception_4e/pool
I0403 14:35:38.600698  1624 net.cpp:399] inception_4e/pool_proj -> inception_4e/pool_proj
I0403 14:35:38.602205  1624 net.cpp:141] Setting up inception_4e/pool_proj
I0403 14:35:38.602246  1624 net.cpp:148] Top shape: 24 128 14 14 (602112)
I0403 14:35:38.602263  1624 net.cpp:156] Memory required for data: 1254493728
I0403 14:35:38.602283  1624 layer_factory.hpp:77] Creating layer inception_4e/relu_pool_proj
I0403 14:35:38.602300  1624 net.cpp:91] Creating Layer inception_4e/relu_pool_proj
I0403 14:35:38.602319  1624 net.cpp:425] inception_4e/relu_pool_proj <- inception_4e/pool_proj
I0403 14:35:38.602337  1624 net.cpp:386] inception_4e/relu_pool_proj -> inception_4e/pool_proj (in-place)
I0403 14:35:38.602632  1624 net.cpp:141] Setting up inception_4e/relu_pool_proj
I0403 14:35:38.602658  1624 net.cpp:148] Top shape: 24 128 14 14 (602112)
I0403 14:35:38.602674  1624 net.cpp:156] Memory required for data: 1256902176
I0403 14:35:38.602687  1624 layer_factory.hpp:77] Creating layer inception_4e/output
I0403 14:35:38.602705  1624 net.cpp:91] Creating Layer inception_4e/output
I0403 14:35:38.602720  1624 net.cpp:425] inception_4e/output <- inception_4e/1x1
I0403 14:35:38.602736  1624 net.cpp:425] inception_4e/output <- inception_4e/3x3
I0403 14:35:38.602751  1624 net.cpp:425] inception_4e/output <- inception_4e/5x5
I0403 14:35:38.602767  1624 net.cpp:425] inception_4e/output <- inception_4e/pool_proj
I0403 14:35:38.602787  1624 net.cpp:399] inception_4e/output -> inception_4e/output
I0403 14:35:38.602835  1624 net.cpp:141] Setting up inception_4e/output
I0403 14:35:38.602864  1624 net.cpp:148] Top shape: 24 832 14 14 (3913728)
I0403 14:35:38.602879  1624 net.cpp:156] Memory required for data: 1272557088
I0403 14:35:38.602893  1624 layer_factory.hpp:77] Creating layer pool4/3x3_s2
I0403 14:35:38.602910  1624 net.cpp:91] Creating Layer pool4/3x3_s2
I0403 14:35:38.602926  1624 net.cpp:425] pool4/3x3_s2 <- inception_4e/output
I0403 14:35:38.602947  1624 net.cpp:399] pool4/3x3_s2 -> pool4/3x3_s2
I0403 14:35:38.603013  1624 net.cpp:141] Setting up pool4/3x3_s2
I0403 14:35:38.603037  1624 net.cpp:148] Top shape: 24 832 7 7 (978432)
I0403 14:35:38.603051  1624 net.cpp:156] Memory required for data: 1276470816
I0403 14:35:38.603065  1624 layer_factory.hpp:77] Creating layer pool4/3x3_s2_pool4/3x3_s2_0_split
I0403 14:35:38.603085  1624 net.cpp:91] Creating Layer pool4/3x3_s2_pool4/3x3_s2_0_split
I0403 14:35:38.603101  1624 net.cpp:425] pool4/3x3_s2_pool4/3x3_s2_0_split <- pool4/3x3_s2
I0403 14:35:38.603118  1624 net.cpp:399] pool4/3x3_s2_pool4/3x3_s2_0_split -> pool4/3x3_s2_pool4/3x3_s2_0_split_0
I0403 14:35:38.603137  1624 net.cpp:399] pool4/3x3_s2_pool4/3x3_s2_0_split -> pool4/3x3_s2_pool4/3x3_s2_0_split_1
I0403 14:35:38.603157  1624 net.cpp:399] pool4/3x3_s2_pool4/3x3_s2_0_split -> pool4/3x3_s2_pool4/3x3_s2_0_split_2
I0403 14:35:38.603186  1624 net.cpp:399] pool4/3x3_s2_pool4/3x3_s2_0_split -> pool4/3x3_s2_pool4/3x3_s2_0_split_3
I0403 14:35:38.603284  1624 net.cpp:141] Setting up pool4/3x3_s2_pool4/3x3_s2_0_split
I0403 14:35:38.603307  1624 net.cpp:148] Top shape: 24 832 7 7 (978432)
I0403 14:35:38.603323  1624 net.cpp:148] Top shape: 24 832 7 7 (978432)
I0403 14:35:38.603340  1624 net.cpp:148] Top shape: 24 832 7 7 (978432)
I0403 14:35:38.603355  1624 net.cpp:148] Top shape: 24 832 7 7 (978432)
I0403 14:35:38.603368  1624 net.cpp:156] Memory required for data: 1292125728
I0403 14:35:38.603382  1624 layer_factory.hpp:77] Creating layer inception_5a/1x1
I0403 14:35:38.603404  1624 net.cpp:91] Creating Layer inception_5a/1x1
I0403 14:35:38.603421  1624 net.cpp:425] inception_5a/1x1 <- pool4/3x3_s2_pool4/3x3_s2_0_split_0
I0403 14:35:38.603442  1624 net.cpp:399] inception_5a/1x1 -> inception_5a/1x1
I0403 14:35:38.606300  1624 net.cpp:141] Setting up inception_5a/1x1
I0403 14:35:38.606330  1624 net.cpp:148] Top shape: 24 256 7 7 (301056)
I0403 14:35:38.606346  1624 net.cpp:156] Memory required for data: 1293329952
I0403 14:35:38.606365  1624 layer_factory.hpp:77] Creating layer inception_5a/relu_1x1
I0403 14:35:38.606386  1624 net.cpp:91] Creating Layer inception_5a/relu_1x1
I0403 14:35:38.606405  1624 net.cpp:425] inception_5a/relu_1x1 <- inception_5a/1x1
I0403 14:35:38.606423  1624 net.cpp:386] inception_5a/relu_1x1 -> inception_5a/1x1 (in-place)
I0403 14:35:38.606734  1624 net.cpp:141] Setting up inception_5a/relu_1x1
I0403 14:35:38.606760  1624 net.cpp:148] Top shape: 24 256 7 7 (301056)
I0403 14:35:38.606776  1624 net.cpp:156] Memory required for data: 1294534176
I0403 14:35:38.606791  1624 layer_factory.hpp:77] Creating layer inception_5a/3x3_reduce
I0403 14:35:38.606813  1624 net.cpp:91] Creating Layer inception_5a/3x3_reduce
I0403 14:35:38.606832  1624 net.cpp:425] inception_5a/3x3_reduce <- pool4/3x3_s2_pool4/3x3_s2_0_split_1
I0403 14:35:38.606854  1624 net.cpp:399] inception_5a/3x3_reduce -> inception_5a/3x3_reduce
I0403 14:35:38.609303  1624 net.cpp:141] Setting up inception_5a/3x3_reduce
I0403 14:35:38.609335  1624 net.cpp:148] Top shape: 24 160 7 7 (188160)
I0403 14:35:38.609354  1624 net.cpp:156] Memory required for data: 1295286816
I0403 14:35:38.609372  1624 layer_factory.hpp:77] Creating layer inception_5a/relu_3x3_reduce
I0403 14:35:38.609391  1624 net.cpp:91] Creating Layer inception_5a/relu_3x3_reduce
I0403 14:35:38.609408  1624 net.cpp:425] inception_5a/relu_3x3_reduce <- inception_5a/3x3_reduce
I0403 14:35:38.609428  1624 net.cpp:386] inception_5a/relu_3x3_reduce -> inception_5a/3x3_reduce (in-place)
I0403 14:35:38.609616  1624 net.cpp:141] Setting up inception_5a/relu_3x3_reduce
I0403 14:35:38.609642  1624 net.cpp:148] Top shape: 24 160 7 7 (188160)
I0403 14:35:38.609655  1624 net.cpp:156] Memory required for data: 1296039456
I0403 14:35:38.609671  1624 layer_factory.hpp:77] Creating layer inception_5a/3x3
I0403 14:35:38.609693  1624 net.cpp:91] Creating Layer inception_5a/3x3
I0403 14:35:38.609710  1624 net.cpp:425] inception_5a/3x3 <- inception_5a/3x3_reduce
I0403 14:35:38.609732  1624 net.cpp:399] inception_5a/3x3 -> inception_5a/3x3
I0403 14:35:38.614785  1624 net.cpp:141] Setting up inception_5a/3x3
I0403 14:35:38.614815  1624 net.cpp:148] Top shape: 24 320 7 7 (376320)
I0403 14:35:38.614831  1624 net.cpp:156] Memory required for data: 1297544736
I0403 14:35:38.614850  1624 layer_factory.hpp:77] Creating layer inception_5a/relu_3x3
I0403 14:35:38.614869  1624 net.cpp:91] Creating Layer inception_5a/relu_3x3
I0403 14:35:38.614886  1624 net.cpp:425] inception_5a/relu_3x3 <- inception_5a/3x3
I0403 14:35:38.614903  1624 net.cpp:386] inception_5a/relu_3x3 -> inception_5a/3x3 (in-place)
I0403 14:35:38.615202  1624 net.cpp:141] Setting up inception_5a/relu_3x3
I0403 14:35:38.615228  1624 net.cpp:148] Top shape: 24 320 7 7 (376320)
I0403 14:35:38.615243  1624 net.cpp:156] Memory required for data: 1299050016
I0403 14:35:38.615257  1624 layer_factory.hpp:77] Creating layer inception_5a/5x5_reduce
I0403 14:35:38.615280  1624 net.cpp:91] Creating Layer inception_5a/5x5_reduce
I0403 14:35:38.615298  1624 net.cpp:425] inception_5a/5x5_reduce <- pool4/3x3_s2_pool4/3x3_s2_0_split_2
I0403 14:35:38.615319  1624 net.cpp:399] inception_5a/5x5_reduce -> inception_5a/5x5_reduce
I0403 14:35:38.616493  1624 net.cpp:141] Setting up inception_5a/5x5_reduce
I0403 14:35:38.616523  1624 net.cpp:148] Top shape: 24 32 7 7 (37632)
I0403 14:35:38.616539  1624 net.cpp:156] Memory required for data: 1299200544
I0403 14:35:38.616556  1624 layer_factory.hpp:77] Creating layer inception_5a/relu_5x5_reduce
I0403 14:35:38.616588  1624 net.cpp:91] Creating Layer inception_5a/relu_5x5_reduce
I0403 14:35:38.616605  1624 net.cpp:425] inception_5a/relu_5x5_reduce <- inception_5a/5x5_reduce
I0403 14:35:38.616623  1624 net.cpp:386] inception_5a/relu_5x5_reduce -> inception_5a/5x5_reduce (in-place)
I0403 14:35:38.616946  1624 net.cpp:141] Setting up inception_5a/relu_5x5_reduce
I0403 14:35:38.616971  1624 net.cpp:148] Top shape: 24 32 7 7 (37632)
I0403 14:35:38.616986  1624 net.cpp:156] Memory required for data: 1299351072
I0403 14:35:38.617002  1624 layer_factory.hpp:77] Creating layer inception_5a/5x5
I0403 14:35:38.617025  1624 net.cpp:91] Creating Layer inception_5a/5x5
I0403 14:35:38.617045  1624 net.cpp:425] inception_5a/5x5 <- inception_5a/5x5_reduce
I0403 14:35:38.617064  1624 net.cpp:399] inception_5a/5x5 -> inception_5a/5x5
I0403 14:35:38.618801  1624 net.cpp:141] Setting up inception_5a/5x5
I0403 14:35:38.618844  1624 net.cpp:148] Top shape: 24 128 7 7 (150528)
I0403 14:35:38.618860  1624 net.cpp:156] Memory required for data: 1299953184
I0403 14:35:38.618877  1624 layer_factory.hpp:77] Creating layer inception_5a/relu_5x5
I0403 14:35:38.618898  1624 net.cpp:91] Creating Layer inception_5a/relu_5x5
I0403 14:35:38.618914  1624 net.cpp:425] inception_5a/relu_5x5 <- inception_5a/5x5
I0403 14:35:38.618932  1624 net.cpp:386] inception_5a/relu_5x5 -> inception_5a/5x5 (in-place)
I0403 14:35:38.619123  1624 net.cpp:141] Setting up inception_5a/relu_5x5
I0403 14:35:38.619148  1624 net.cpp:148] Top shape: 24 128 7 7 (150528)
I0403 14:35:38.619163  1624 net.cpp:156] Memory required for data: 1300555296
I0403 14:35:38.619180  1624 layer_factory.hpp:77] Creating layer inception_5a/pool
I0403 14:35:38.619201  1624 net.cpp:91] Creating Layer inception_5a/pool
I0403 14:35:38.619218  1624 net.cpp:425] inception_5a/pool <- pool4/3x3_s2_pool4/3x3_s2_0_split_3
I0403 14:35:38.619236  1624 net.cpp:399] inception_5a/pool -> inception_5a/pool
I0403 14:35:38.619307  1624 net.cpp:141] Setting up inception_5a/pool
I0403 14:35:38.619331  1624 net.cpp:148] Top shape: 24 832 7 7 (978432)
I0403 14:35:38.619346  1624 net.cpp:156] Memory required for data: 1304469024
I0403 14:35:38.619360  1624 layer_factory.hpp:77] Creating layer inception_5a/pool_proj
I0403 14:35:38.619384  1624 net.cpp:91] Creating Layer inception_5a/pool_proj
I0403 14:35:38.619400  1624 net.cpp:425] inception_5a/pool_proj <- inception_5a/pool
I0403 14:35:38.619421  1624 net.cpp:399] inception_5a/pool_proj -> inception_5a/pool_proj
I0403 14:35:38.621703  1624 net.cpp:141] Setting up inception_5a/pool_proj
I0403 14:35:38.621732  1624 net.cpp:148] Top shape: 24 128 7 7 (150528)
I0403 14:35:38.621747  1624 net.cpp:156] Memory required for data: 1305071136
I0403 14:35:38.621765  1624 layer_factory.hpp:77] Creating layer inception_5a/relu_pool_proj
I0403 14:35:38.621783  1624 net.cpp:91] Creating Layer inception_5a/relu_pool_proj
I0403 14:35:38.621799  1624 net.cpp:425] inception_5a/relu_pool_proj <- inception_5a/pool_proj
I0403 14:35:38.621819  1624 net.cpp:386] inception_5a/relu_pool_proj -> inception_5a/pool_proj (in-place)
I0403 14:35:38.622117  1624 net.cpp:141] Setting up inception_5a/relu_pool_proj
I0403 14:35:38.622143  1624 net.cpp:148] Top shape: 24 128 7 7 (150528)
I0403 14:35:38.622159  1624 net.cpp:156] Memory required for data: 1305673248
I0403 14:35:38.622174  1624 layer_factory.hpp:77] Creating layer inception_5a/output
I0403 14:35:38.622195  1624 net.cpp:91] Creating Layer inception_5a/output
I0403 14:35:38.622211  1624 net.cpp:425] inception_5a/output <- inception_5a/1x1
I0403 14:35:38.622228  1624 net.cpp:425] inception_5a/output <- inception_5a/3x3
I0403 14:35:38.622244  1624 net.cpp:425] inception_5a/output <- inception_5a/5x5
I0403 14:35:38.622261  1624 net.cpp:425] inception_5a/output <- inception_5a/pool_proj
I0403 14:35:38.622279  1624 net.cpp:399] inception_5a/output -> inception_5a/output
I0403 14:35:38.622329  1624 net.cpp:141] Setting up inception_5a/output
I0403 14:35:38.622355  1624 net.cpp:148] Top shape: 24 832 7 7 (978432)
I0403 14:35:38.622370  1624 net.cpp:156] Memory required for data: 1309586976
I0403 14:35:38.622385  1624 layer_factory.hpp:77] Creating layer inception_5a/output_inception_5a/output_0_split
I0403 14:35:38.622402  1624 net.cpp:91] Creating Layer inception_5a/output_inception_5a/output_0_split
I0403 14:35:38.622417  1624 net.cpp:425] inception_5a/output_inception_5a/output_0_split <- inception_5a/output
I0403 14:35:38.622433  1624 net.cpp:399] inception_5a/output_inception_5a/output_0_split -> inception_5a/output_inception_5a/output_0_split_0
I0403 14:35:38.622462  1624 net.cpp:399] inception_5a/output_inception_5a/output_0_split -> inception_5a/output_inception_5a/output_0_split_1
I0403 14:35:38.622483  1624 net.cpp:399] inception_5a/output_inception_5a/output_0_split -> inception_5a/output_inception_5a/output_0_split_2
I0403 14:35:38.622503  1624 net.cpp:399] inception_5a/output_inception_5a/output_0_split -> inception_5a/output_inception_5a/output_0_split_3
I0403 14:35:38.622622  1624 net.cpp:141] Setting up inception_5a/output_inception_5a/output_0_split
I0403 14:35:38.622647  1624 net.cpp:148] Top shape: 24 832 7 7 (978432)
I0403 14:35:38.622668  1624 net.cpp:148] Top shape: 24 832 7 7 (978432)
I0403 14:35:38.622685  1624 net.cpp:148] Top shape: 24 832 7 7 (978432)
I0403 14:35:38.622701  1624 net.cpp:148] Top shape: 24 832 7 7 (978432)
I0403 14:35:38.622715  1624 net.cpp:156] Memory required for data: 1325241888
I0403 14:35:38.622743  1624 layer_factory.hpp:77] Creating layer inception_5b/1x1
I0403 14:35:38.622766  1624 net.cpp:91] Creating Layer inception_5b/1x1
I0403 14:35:38.622792  1624 net.cpp:425] inception_5b/1x1 <- inception_5a/output_inception_5a/output_0_split_0
I0403 14:35:38.622813  1624 net.cpp:399] inception_5b/1x1 -> inception_5b/1x1
I0403 14:35:38.626585  1624 net.cpp:141] Setting up inception_5b/1x1
I0403 14:35:38.626616  1624 net.cpp:148] Top shape: 24 384 7 7 (451584)
I0403 14:35:38.626632  1624 net.cpp:156] Memory required for data: 1327048224
I0403 14:35:38.626651  1624 layer_factory.hpp:77] Creating layer inception_5b/relu_1x1
I0403 14:35:38.626667  1624 net.cpp:91] Creating Layer inception_5b/relu_1x1
I0403 14:35:38.626683  1624 net.cpp:425] inception_5b/relu_1x1 <- inception_5b/1x1
I0403 14:35:38.626703  1624 net.cpp:386] inception_5b/relu_1x1 -> inception_5b/1x1 (in-place)
I0403 14:35:38.627002  1624 net.cpp:141] Setting up inception_5b/relu_1x1
I0403 14:35:38.627027  1624 net.cpp:148] Top shape: 24 384 7 7 (451584)
I0403 14:35:38.627043  1624 net.cpp:156] Memory required for data: 1328854560
I0403 14:35:38.627056  1624 layer_factory.hpp:77] Creating layer inception_5b/3x3_reduce
I0403 14:35:38.627079  1624 net.cpp:91] Creating Layer inception_5b/3x3_reduce
I0403 14:35:38.627094  1624 net.cpp:425] inception_5b/3x3_reduce <- inception_5a/output_inception_5a/output_0_split_1
I0403 14:35:38.627115  1624 net.cpp:399] inception_5b/3x3_reduce -> inception_5b/3x3_reduce
I0403 14:35:38.629804  1624 net.cpp:141] Setting up inception_5b/3x3_reduce
I0403 14:35:38.629832  1624 net.cpp:148] Top shape: 24 192 7 7 (225792)
I0403 14:35:38.629848  1624 net.cpp:156] Memory required for data: 1329757728
I0403 14:35:38.629865  1624 layer_factory.hpp:77] Creating layer inception_5b/relu_3x3_reduce
I0403 14:35:38.629883  1624 net.cpp:91] Creating Layer inception_5b/relu_3x3_reduce
I0403 14:35:38.629897  1624 net.cpp:425] inception_5b/relu_3x3_reduce <- inception_5b/3x3_reduce
I0403 14:35:38.629916  1624 net.cpp:386] inception_5b/relu_3x3_reduce -> inception_5b/3x3_reduce (in-place)
I0403 14:35:38.630100  1624 net.cpp:141] Setting up inception_5b/relu_3x3_reduce
I0403 14:35:38.630123  1624 net.cpp:148] Top shape: 24 192 7 7 (225792)
I0403 14:35:38.630136  1624 net.cpp:156] Memory required for data: 1330660896
I0403 14:35:38.630151  1624 layer_factory.hpp:77] Creating layer inception_5b/3x3
I0403 14:35:38.630172  1624 net.cpp:91] Creating Layer inception_5b/3x3
I0403 14:35:38.630194  1624 net.cpp:425] inception_5b/3x3 <- inception_5b/3x3_reduce
I0403 14:35:38.630215  1624 net.cpp:399] inception_5b/3x3 -> inception_5b/3x3
I0403 14:35:38.636926  1624 net.cpp:141] Setting up inception_5b/3x3
I0403 14:35:38.636960  1624 net.cpp:148] Top shape: 24 384 7 7 (451584)
I0403 14:35:38.636975  1624 net.cpp:156] Memory required for data: 1332467232
I0403 14:35:38.636993  1624 layer_factory.hpp:77] Creating layer inception_5b/relu_3x3
I0403 14:35:38.637011  1624 net.cpp:91] Creating Layer inception_5b/relu_3x3
I0403 14:35:38.637027  1624 net.cpp:425] inception_5b/relu_3x3 <- inception_5b/3x3
I0403 14:35:38.637047  1624 net.cpp:386] inception_5b/relu_3x3 -> inception_5b/3x3 (in-place)
I0403 14:35:38.637349  1624 net.cpp:141] Setting up inception_5b/relu_3x3
I0403 14:35:38.637377  1624 net.cpp:148] Top shape: 24 384 7 7 (451584)
I0403 14:35:38.637392  1624 net.cpp:156] Memory required for data: 1334273568
I0403 14:35:38.637406  1624 layer_factory.hpp:77] Creating layer inception_5b/5x5_reduce
I0403 14:35:38.637446  1624 net.cpp:91] Creating Layer inception_5b/5x5_reduce
I0403 14:35:38.637465  1624 net.cpp:425] inception_5b/5x5_reduce <- inception_5a/output_inception_5a/output_0_split_2
I0403 14:35:38.637490  1624 net.cpp:399] inception_5b/5x5_reduce -> inception_5b/5x5_reduce
I0403 14:35:38.638772  1624 net.cpp:141] Setting up inception_5b/5x5_reduce
I0403 14:35:38.638802  1624 net.cpp:148] Top shape: 24 48 7 7 (56448)
I0403 14:35:38.638818  1624 net.cpp:156] Memory required for data: 1334499360
I0403 14:35:38.638835  1624 layer_factory.hpp:77] Creating layer inception_5b/relu_5x5_reduce
I0403 14:35:38.638852  1624 net.cpp:91] Creating Layer inception_5b/relu_5x5_reduce
I0403 14:35:38.638871  1624 net.cpp:425] inception_5b/relu_5x5_reduce <- inception_5b/5x5_reduce
I0403 14:35:38.638890  1624 net.cpp:386] inception_5b/relu_5x5_reduce -> inception_5b/5x5_reduce (in-place)
I0403 14:35:38.639266  1624 net.cpp:141] Setting up inception_5b/relu_5x5_reduce
I0403 14:35:38.639292  1624 net.cpp:148] Top shape: 24 48 7 7 (56448)
I0403 14:35:38.639307  1624 net.cpp:156] Memory required for data: 1334725152
I0403 14:35:38.639322  1624 layer_factory.hpp:77] Creating layer inception_5b/5x5
I0403 14:35:38.639341  1624 net.cpp:91] Creating Layer inception_5b/5x5
I0403 14:35:38.639358  1624 net.cpp:425] inception_5b/5x5 <- inception_5b/5x5_reduce
I0403 14:35:38.639377  1624 net.cpp:399] inception_5b/5x5 -> inception_5b/5x5
I0403 14:35:38.641532  1624 net.cpp:141] Setting up inception_5b/5x5
I0403 14:35:38.641561  1624 net.cpp:148] Top shape: 24 128 7 7 (150528)
I0403 14:35:38.641576  1624 net.cpp:156] Memory required for data: 1335327264
I0403 14:35:38.641593  1624 layer_factory.hpp:77] Creating layer inception_5b/relu_5x5
I0403 14:35:38.641624  1624 net.cpp:91] Creating Layer inception_5b/relu_5x5
I0403 14:35:38.641640  1624 net.cpp:425] inception_5b/relu_5x5 <- inception_5b/5x5
I0403 14:35:38.641657  1624 net.cpp:386] inception_5b/relu_5x5 -> inception_5b/5x5 (in-place)
I0403 14:35:38.641844  1624 net.cpp:141] Setting up inception_5b/relu_5x5
I0403 14:35:38.641870  1624 net.cpp:148] Top shape: 24 128 7 7 (150528)
I0403 14:35:38.641885  1624 net.cpp:156] Memory required for data: 1335929376
I0403 14:35:38.641899  1624 layer_factory.hpp:77] Creating layer inception_5b/pool
I0403 14:35:38.641916  1624 net.cpp:91] Creating Layer inception_5b/pool
I0403 14:35:38.641932  1624 net.cpp:425] inception_5b/pool <- inception_5a/output_inception_5a/output_0_split_3
I0403 14:35:38.641950  1624 net.cpp:399] inception_5b/pool -> inception_5b/pool
I0403 14:35:38.642021  1624 net.cpp:141] Setting up inception_5b/pool
I0403 14:35:38.642043  1624 net.cpp:148] Top shape: 24 832 7 7 (978432)
I0403 14:35:38.642058  1624 net.cpp:156] Memory required for data: 1339843104
I0403 14:35:38.642071  1624 layer_factory.hpp:77] Creating layer inception_5b/pool_proj
I0403 14:35:38.642093  1624 net.cpp:91] Creating Layer inception_5b/pool_proj
I0403 14:35:38.642109  1624 net.cpp:425] inception_5b/pool_proj <- inception_5b/pool
I0403 14:35:38.642129  1624 net.cpp:399] inception_5b/pool_proj -> inception_5b/pool_proj
I0403 14:35:38.644513  1624 net.cpp:141] Setting up inception_5b/pool_proj
I0403 14:35:38.644544  1624 net.cpp:148] Top shape: 24 128 7 7 (150528)
I0403 14:35:38.644561  1624 net.cpp:156] Memory required for data: 1340445216
I0403 14:35:38.644579  1624 layer_factory.hpp:77] Creating layer inception_5b/relu_pool_proj
I0403 14:35:38.644600  1624 net.cpp:91] Creating Layer inception_5b/relu_pool_proj
I0403 14:35:38.644629  1624 net.cpp:425] inception_5b/relu_pool_proj <- inception_5b/pool_proj
I0403 14:35:38.644647  1624 net.cpp:386] inception_5b/relu_pool_proj -> inception_5b/pool_proj (in-place)
I0403 14:35:38.644947  1624 net.cpp:141] Setting up inception_5b/relu_pool_proj
I0403 14:35:38.644973  1624 net.cpp:148] Top shape: 24 128 7 7 (150528)
I0403 14:35:38.644986  1624 net.cpp:156] Memory required for data: 1341047328
I0403 14:35:38.645001  1624 layer_factory.hpp:77] Creating layer inception_5b/output
I0403 14:35:38.645018  1624 net.cpp:91] Creating Layer inception_5b/output
I0403 14:35:38.645050  1624 net.cpp:425] inception_5b/output <- inception_5b/1x1
I0403 14:35:38.645067  1624 net.cpp:425] inception_5b/output <- inception_5b/3x3
I0403 14:35:38.645083  1624 net.cpp:425] inception_5b/output <- inception_5b/5x5
I0403 14:35:38.645098  1624 net.cpp:425] inception_5b/output <- inception_5b/pool_proj
I0403 14:35:38.645117  1624 net.cpp:399] inception_5b/output -> inception_5b/output
I0403 14:35:38.645169  1624 net.cpp:141] Setting up inception_5b/output
I0403 14:35:38.645200  1624 net.cpp:148] Top shape: 24 1024 7 7 (1204224)
I0403 14:35:38.645215  1624 net.cpp:156] Memory required for data: 1345864224
I0403 14:35:38.645231  1624 layer_factory.hpp:77] Creating layer pool5/7x7_s1
I0403 14:35:38.645247  1624 net.cpp:91] Creating Layer pool5/7x7_s1
I0403 14:35:38.645262  1624 net.cpp:425] pool5/7x7_s1 <- inception_5b/output
I0403 14:35:38.645283  1624 net.cpp:399] pool5/7x7_s1 -> pool5/7x7_s1
I0403 14:35:38.645516  1624 net.cpp:141] Setting up pool5/7x7_s1
I0403 14:35:38.645542  1624 net.cpp:148] Top shape: 24 1024 1 1 (24576)
I0403 14:35:38.645557  1624 net.cpp:156] Memory required for data: 1345962528
I0403 14:35:38.645572  1624 layer_factory.hpp:77] Creating layer pool5/drop_7x7_s1
I0403 14:35:38.645592  1624 net.cpp:91] Creating Layer pool5/drop_7x7_s1
I0403 14:35:38.645620  1624 net.cpp:425] pool5/drop_7x7_s1 <- pool5/7x7_s1
I0403 14:35:38.645637  1624 net.cpp:386] pool5/drop_7x7_s1 -> pool5/7x7_s1 (in-place)
I0403 14:35:38.645685  1624 net.cpp:141] Setting up pool5/drop_7x7_s1
I0403 14:35:38.645710  1624 net.cpp:148] Top shape: 24 1024 1 1 (24576)
I0403 14:35:38.645725  1624 net.cpp:156] Memory required for data: 1346060832
I0403 14:35:38.645740  1624 layer_factory.hpp:77] Creating layer loss3/classifier_plantvillage
I0403 14:35:38.645758  1624 net.cpp:91] Creating Layer loss3/classifier_plantvillage
I0403 14:35:38.645773  1624 net.cpp:425] loss3/classifier_plantvillage <- pool5/7x7_s1
I0403 14:35:38.645794  1624 net.cpp:399] loss3/classifier_plantvillage -> loss3/classifier_plantvillage
I0403 14:35:38.646231  1624 net.cpp:141] Setting up loss3/classifier_plantvillage
I0403 14:35:38.646257  1624 net.cpp:148] Top shape: 24 38 (912)
I0403 14:35:38.646273  1624 net.cpp:156] Memory required for data: 1346064480
I0403 14:35:38.646291  1624 layer_factory.hpp:77] Creating layer loss3/classifier_plantvillage_loss3/classifier_plantvillage_0_split
I0403 14:35:38.646309  1624 net.cpp:91] Creating Layer loss3/classifier_plantvillage_loss3/classifier_plantvillage_0_split
I0403 14:35:38.646337  1624 net.cpp:425] loss3/classifier_plantvillage_loss3/classifier_plantvillage_0_split <- loss3/classifier_plantvillage
I0403 14:35:38.646354  1624 net.cpp:399] loss3/classifier_plantvillage_loss3/classifier_plantvillage_0_split -> loss3/classifier_plantvillage_loss3/classifier_plantvillage_0_split_0
I0403 14:35:38.646378  1624 net.cpp:399] loss3/classifier_plantvillage_loss3/classifier_plantvillage_0_split -> loss3/classifier_plantvillage_loss3/classifier_plantvillage_0_split_1
I0403 14:35:38.646400  1624 net.cpp:399] loss3/classifier_plantvillage_loss3/classifier_plantvillage_0_split -> loss3/classifier_plantvillage_loss3/classifier_plantvillage_0_split_2
I0403 14:35:38.646421  1624 net.cpp:399] loss3/classifier_plantvillage_loss3/classifier_plantvillage_0_split -> loss3/classifier_plantvillage_loss3/classifier_plantvillage_0_split_3
I0403 14:35:38.646528  1624 net.cpp:141] Setting up loss3/classifier_plantvillage_loss3/classifier_plantvillage_0_split
I0403 14:35:38.646551  1624 net.cpp:148] Top shape: 24 38 (912)
I0403 14:35:38.646566  1624 net.cpp:148] Top shape: 24 38 (912)
I0403 14:35:38.646582  1624 net.cpp:148] Top shape: 24 38 (912)
I0403 14:35:38.646597  1624 net.cpp:148] Top shape: 24 38 (912)
I0403 14:35:38.646623  1624 net.cpp:156] Memory required for data: 1346079072
I0403 14:35:38.646637  1624 layer_factory.hpp:77] Creating layer loss1/loss
I0403 14:35:38.646661  1624 net.cpp:91] Creating Layer loss1/loss
I0403 14:35:38.646678  1624 net.cpp:425] loss1/loss <- loss1/classifier_plantvillage_loss1/classifier_plantvillage_0_split_0
I0403 14:35:38.646708  1624 net.cpp:425] loss1/loss <- label_data_1_split_0
…
