…
I0403 13:51:08.629241   431 net.cpp:313] The NetState phase (1) differed from the phase (0) specified by a rule in layer data
I0403 13:51:08.630445   431 net.cpp:49] Initializing net from parameters: 
state {
  phase: TEST
}
layer {
  name: "data"
  type: "Data"
  top: "data"
  top: "label"
  include {
    phase: TEST
  }
  transform_param {
    mirror: false
    crop_size: 224
    mean_file: "/home/mohanty/data/final_dataset/lmdb/grayscale-20-80/mean.binaryproto"
  }
  data_param {
    source: "/home/mohanty/data/final_dataset/lmdb/grayscale-20-80/test_db"
    batch_size: 24
    backend: LMDB
  }
}
layer {
  name: "conv1/7x7_s2"
  type: "Convolution"
  bottom: "data"
  top: "conv1/7x7_s2"
  param {
    lr_mult: 1
    decay_mult: 1
  }
  param {
    lr_mult: 2
    decay_mult: 0
  }
  convolution_param {
    num_output: 64
    pad: 3
    kernel_size: 7
    stride: 2
    weight_filler {
      type: "xavier"
      std: 0.1
    }
    bias_filler {
      type: "constant"
      value: 0.2
    }
  }
}
layer {
  name: "conv1/relu_7x7"
  type: "ReLU"
  bottom: "conv1/7x7_s2"
  top: "conv1/7x7_s2"
}
layer {
  name: "pool1/3x3_s2"
  type: "Pooling"
  bottom: "conv1/7x7_s2"
  top: "pool1/3x3_s2"
  pooling_param {
    pool: MAX
    kernel_size: 3
    stride: 2
  }
}
layer {
  name: "pool1/norm1"
  type: "LRN"
  bottom: "pool1/3x3_s2"
  top: "pool1/norm1"
  lrn_param {
    local_size: 5
    alpha: 0.0001
    beta: 0.75
  }
}
layer {
  name: "conv2/3x3_reduce"
  type: "Convolution"
  bottom: "pool1/norm1"
  top: "conv2/3x3_reduce"
  param {
    lr_mult: 1
    decay_mult: 1
  }
  param {
    lr_mult: 2
    decay_mult: 0
  }
  convolution_param {
    num_output: 64
    kernel_size: 1
    weight_filler {
      type: "xavier"
      std: 0.1
    }
    bias_filler {
      type: "constant"
      value: 0.2
    }
  }
}
layer {
  name: "conv2/relu_3x3_reduce"
  type: "ReLU"
  bottom: "conv2/3x3_reduce"
  top: "conv2/3x3_reduce"
}
layer {
  name: "conv2/3x3"
  type: "Convolution"
  bottom: "conv2/3x3_reduce"
  top: "conv2/3x3"
  param {
    lr_mult: 1
    decay_mult: 1
  }
  param {
    lr_mult: 2
    decay_mult: 0
  }
  convolution_param {
    num_output: 192
    pad: 1
    kernel_size: 3
    weight_filler {
      type: "xavier"
      std: 0.03
    }
    bias_filler {
      type: "constant"
      value: 0.2
    }
  }
}
layer {
  name: "conv2/relu_3x3"
  type: "ReLU"
  bottom: "conv2/3x3"
  top: "conv2/3x3"
}
layer {
  name: "conv2/norm2"
  type: "LRN"
  bottom: "conv2/3x3"
  top: "conv2/norm2"
  lrn_param {
    local_size: 5
    alpha: 0.0001
    beta: 0.75
  }
}
layer {
  name: "pool2/3x3_s2"
  type: "Pooling"
  bottom: "conv2/norm2"
  top: "pool2/3x3_s2"
  pooling_param {
    pool: MAX
    kernel_size: 3
    stride: 2
  }
}
layer {
  name: "inception_3a/1x1"
  type: "Convolution"
  bottom: "pool2/3x3_s2"
  top: "inception_3a/1x1"
  param {
    lr_mult: 1
    decay_mult: 1
  }
  param {
    lr_mult: 2
    decay_mult: 0
  }
  convolution_param {
    num_output: 64
    kernel_size: 1
    weight_filler {
      type: "xavier"
      std: 0.03
    }
    bias_filler {
      type: "constant"
      value: 0.2
    }
  }
}
layer {
  name: "inception_3a/relu_1x1"
  type: "ReLU"
  bottom: "inception_3a/1x1"
  top: "inception_3a/1x1"
}
layer {
  name: "inception_3a/3x3_reduce"
  type: "Convolution"
  bottom: "pool2/3x3_s2"
  top: "inception_3a/3x3_reduce"
  param {
    lr_mult: 1
    decay_mult: 1
  }
  param {
    lr_mult: 2
    decay_mult: 0
  }
  convolution_param {
    num_output: 96
    kernel_size: 1
    weight_filler {
      type: "xavier"
      std: 0.09
    }
    bias_filler {
      type: "constant"
      value: 0.2
    }
  }
}
layer {
  name: "inception_3a/relu_3x3_reduce"
  type: "ReLU"
  bottom: "inception_3a/3x3_reduce"
  top: "inception_3a/3x3_reduce"
}
layer {
  name: "inception_3a/3x3"
  type: "Convolution"
  bottom: "inception_3a/3x3_reduce"
  top: "inception_3a/3x3"
  param {
    lr_mult: 1
    decay_mult: 1
  }
  param {
    lr_mult: 2
    decay_mult: 0
  }
  convolution_param {
    num_output: 128
    pad: 1
    kernel_size: 3
    weight_filler {
      type: "xavier"
      std: 0.03
    }
    bias_filler {
      type: "constant"
      value: 0.2
    }
  }
}
layer {
  name: "inception_3a/relu_3x3"
  type: "ReLU"
  bottom: "inception_3a/3x3"
  top: "inception_3a/3x3"
}
layer {
  name: "inception_3a/5x5_reduce"
  type: "Convolution"
  bottom: "pool2/3x3_s2"
  top: "inception_3a/5x5_reduce"
  param {
    lr_mult: 1
    decay_mult: 1
  }
  param {
    lr_mult: 2
    decay_mult: 0
  }
  convolution_param {
    num_output: 16
    kernel_size: 1
    weight_filler {
      type: "xavier"
      std: 0.2
    }
    bias_filler {
      type: "constant"
      value: 0.2
    }
  }
}
layer {
  name: "inception_3a/relu_5x5_reduce"
  type: "ReLU"
  bottom: "inception_3a/5x5_reduce"
  top: "inception_3a/5x5_reduce"
}
layer {
  name: "inception_3a/5x5"
  type: "Convolution"
  bottom: "inception_3a/5x5_reduce"
  top: "inception_3a/5x5"
  param {
    lr_mult: 1
    decay_mult: 1
  }
  param {
    lr_mult: 2
    decay_mult: 0
  }
  convolution_param {
    num_output: 32
    pad: 2
    kernel_size: 5
    weight_filler {
      type: "xavier"
      std: 0.03
    }
    bias_filler {
      type: "constant"
      value: 0.2
    }
  }
}
layer {
  name: "inception_3a/relu_5x5"
  type: "ReLU"
  bottom: "inception_3a/5x5"
  top: "inception_3a/5x5"
}
layer {
  name: "inception_3a/pool"
  type: "Pooling"
  bottom: "pool2/3x3_s2"
  top: "inception_3a/pool"
  pooling_param {
    pool: MAX
    kernel_size: 3
    stride: 1
    pad: 1
  }
}
layer {
  name: "inception_3a/pool_proj"
  type: "Convolution"
  bottom: "inception_3a/pool"
  top: "inception_3a/pool_proj"
  param {
    lr_mult: 1
    decay_mult: 1
  }
  param {
    lr_mult: 2
    decay_mult: 0
  }
  convolution_param {
    num_output: 32
    kernel_size: 1
    weight_filler {
      type: "xavier"
      std: 0.1
    }
    bias_filler {
      type: "constant"
      value: 0.2
    }
  }
}
layer {
  name: "inception_3a/relu_pool_proj"
  type: "ReLU"
  bottom: "inception_3a/pool_proj"
  top: "inception_3a/pool_proj"
}
layer {
  name: "inception_3a/output"
  type: "Concat"
  bottom: "inception_3a/1x1"
  bottom: "inception_3a/3x3"
  bottom: "inception_3a/5x5"
  bottom: "inception_3a/pool_proj"
  top: "inception_3a/output"
}
layer {
  name: "inception_3b/1x1"
  type: "Convolution"
  bottom: "inception_3a/output"
  top: "inception_3b/1x1"
  param {
    lr_mult: 1
    decay_mult: 1
  }
  param {
    lr_mult: 2
    decay_mult: 0
  }
  convolution_param {
    num_output: 128
    kernel_size: 1
    weight_filler {
      type: "xavier"
      std: 0.03
    }
    bias_filler {
      type: "constant"
      value: 0.2
    }
  }
}
layer {
  name: "inception_3b/relu_1x1"
  type: "ReLU"
  bottom: "inception_3b/1x1"
  top: "inception_3b/1x1"
}
layer {
  name: "inception_3b/3x3_reduce"
  type: "Convolution"
  bottom: "inception_3a/output"
  top: "inception_3b/3x3_reduce"
  param {
    lr_mult: 1
    decay_mult: 1
  }
  param {
    lr_mult: 2
    decay_mult: 0
  }
  convolution_param {
    num_output: 128
    kernel_size: 1
    weight_filler {
      type: "xavier"
      std: 0.09
    }
    bias_filler {
      type: "constant"
      value: 0.2
    }
  }
}
layer {
  name: "inception_3b/relu_3x3_reduce"
  type: "ReLU"
  bottom: "inception_3b/3x3_reduce"
  top: "inception_3b/3x3_reduce"
}
layer {
  name: "inception_3b/3x3"
  type: "Convolution"
  bottom: "inception_3b/3x3_reduce"
  top: "inception_3b/3x3"
  param {
    lr_mult: 1
    decay_mult: 1
  }
  param {
    lr_mult: 2
    decay_mult: 0
  }
  convolution_param {
    num_output: 192
    pad: 1
    kernel_size: 3
    weight_filler {
      type: "xavier"
      std: 0.03
    }
    bias_filler {
      type: "constant"
      value: 0.2
    }
  }
}
layer {
  name: "inception_3b/relu_3x3"
  type: "ReLU"
  bottom: "inception_3b/3x3"
  top: "inception_3b/3x3"
}
layer {
  name: "inception_3b/5x5_reduce"
  type: "Convolution"
  bottom: "inception_3a/output"
  top: "inception_3b/5x5_reduce"
  param {
    lr_mult: 1
    decay_mult: 1
  }
  param {
    lr_mult: 2
    decay_mult: 0
  }
  convolution_param {
    num_output: 32
    kernel_size: 1
    weight_filler {
      type: "xavier"
      std: 0.2
    }
    bias_filler {
      type: "constant"
      value: 0.2
    }
  }
}
layer {
  name: "inception_3b/relu_5x5_reduce"
  type: "ReLU"
  bottom: "inception_3b/5x5_reduce"
  top: "inception_3b/5x5_reduce"
}
layer {
  name: "inception_3b/5x5"
  type: "Convolution"
  bottom: "inception_3b/5x5_reduce"
  top: "inception_3b/5x5"
  param {
    lr_mult: 1
    decay_mult: 1
  }
  param {
    lr_mult: 2
    decay_mult: 0
  }
  convolution_param {
    num_output: 96
    pad: 2
    kernel_size: 5
    weight_filler {
      type: "xavier"
      std: 0.03
    }
    bias_filler {
      type: "constant"
      value: 0.2
    }
  }
}
layer {
  name: "inception_3b/relu_5x5"
  type: "ReLU"
  bottom: "inception_3b/5x5"
  top: "inception_3b/5x5"
}
layer {
  name: "inception_3b/pool"
  type: "Pooling"
  bottom: "inception_3a/output"
  top: "inception_3b/pool"
  pooling_param {
    pool: MAX
    kernel_size: 3
    stride: 1
    pad: 1
  }
}
layer {
  name: "inception_3b/pool_proj"
  type: "Convolution"
  bottom: "inception_3b/pool"
  top: "inception_3b/pool_proj"
  param {
    lr_mult: 1
    decay_mult: 1
  }
  param {
    lr_mult: 2
    decay_mult: 0
  }
  convolution_param {
    num_output: 64
    kernel_size: 1
    weight_filler {
      type: "xavier"
      std: 0.1
    }
    bias_filler {
      type: "constant"
      value: 0.2
    }
  }
}
layer {
  name: "inception_3b/relu_pool_proj"
  type: "ReLU"
  bottom: "inception_3b/pool_proj"
  top: "inception_3b/pool_proj"
}
layer {
  name: "inception_3b/output"
  type: "Concat"
  bottom: "inception_3b/1x1"
  bottom: "inception_3b/3x3"
  bottom: "inception_3b/5x5"
  bottom: "inception_3b/pool_proj"
  top: "inception_3b/output"
}
layer {
  name: "pool3/3x3_s2"
  type: "Pooling"
  bottom: "inception_3b/output"
  top: "pool3/3x3_s2"
  pooling_param {
    pool: MAX
    kernel_size: 3
    stride: 2
  }
}
layer {
  name: "inception_4a/1x1"
  type: "Convolution"
  bottom: "pool3/3x3_s2"
  top: "inception_4a/1x1"
  param {
    lr_mult: 1
    decay_mult: 1
  }
  param {
    lr_mult: 2
    decay_mult: 0
  }
  convolution_param {
    num_output: 192
    kernel_size: 1
    weight_filler {
      type: "xavier"
      std: 0.03
    }
    bias_filler {
      type: "constant"
      value: 0.2
    }
  }
}
layer {
  name: "inception_4a/relu_1x1"
  type: "ReLU"
  bottom: "inception_4a/1x1"
  top: "inception_4a/1x1"
}
layer {
  name: "inception_4a/3x3_reduce"
  type: "Convolution"
  bottom: "pool3/3x3_s2"
  top: "inception_4a/3x3_reduce"
  param {
    lr_mult: 1
    decay_mult: 1
  }
  param {
    lr_mult: 2
    decay_mult: 0
  }
  convolution_param {
    num_output: 96
    kernel_size: 1
    weight_filler {
      type: "xavier"
      std: 0.09
    }
    bias_filler {
      type: "constant"
      value: 0.2
    }
  }
}
layer {
  name: "inception_4a/relu_3x3_reduce"
  type: "ReLU"
  bottom: "inception_4a/3x3_reduce"
  top: "inception_4a/3x3_reduce"
}
layer {
  name: "inception_4a/3x3"
  type: "Convolution"
  bottom: "inception_4a/3x3_reduce"
  top: "inception_4a/3x3"
  param {
    lr_mult: 1
    decay_mult: 1
  }
  param {
    lr_mult: 2
    decay_mult: 0
  }
  convolution_param {
    num_output: 208
    pad: 1
    kernel_size: 3
    weight_filler {
      type: "xavier"
      std: 0.03
    }
    bias_filler {
      type: "constant"
      value: 0.2
    }
  }
}
layer {
  name: "inception_4a/relu_3x3"
  type: "ReLU"
  bottom: "inception_4a/3x3"
  top: "inception_4a/3x3"
}
layer {
  name: "inception_4a/5x5_reduce"
  type: "Convolution"
  bottom: "pool3/3x3_s2"
  top: "inception_4a/5x5_reduce"
  param {
    lr_mult: 1
    decay_mult: 1
  }
  param {
    lr_mult: 2
    decay_mult: 0
  }
  convolution_param {
    num_output: 16
    kernel_size: 1
    weight_filler {
      type: "xavier"
      std: 0.2
    }
    bias_filler {
      type: "constant"
      value: 0.2
    }
  }
}
layer {
  name: "inception_4a/relu_5x5_reduce"
  type: "ReLU"
  bottom: "inception_4a/5x5_reduce"
  top: "inception_4a/5x5_reduce"
}
layer {
  name: "inception_4a/5x5"
  type: "Convolution"
  bottom: "inception_4a/5x5_reduce"
  top: "inception_4a/5x5"
  param {
    lr_mult: 1
    decay_mult: 1
  }
  param {
    lr_mult: 2
    decay_mult: 0
  }
  convolution_param {
    num_output: 48
    pad: 2
    kernel_size: 5
    weight_filler {
      type: "xavier"
      std: 0.03
    }
    bias_filler {
      type: "constant"
      value: 0.2
    }
  }
}
layer {
  name: "inception_4a/relu_5x5"
  type: "ReLU"
  bottom: "inception_4a/5x5"
  top: "inception_4a/5x5"
}
layer {
  name: "inception_4a/pool"
  type: "Pooling"
  bottom: "pool3/3x3_s2"
  top: "inception_4a/pool"
  pooling_param {
    pool: MAX
    kernel_size: 3
    stride: 1
    pad: 1
  }
}
layer {
  name: "inception_4a/pool_proj"
  type: "Convolution"
  bottom: "inception_4a/pool"
  top: "inception_4a/pool_proj"
  param {
    lr_mult: 1
    decay_mult: 1
  }
  param {
    lr_mult: 2
    decay_mult: 0
  }
  convolution_param {
    num_output: 64
    kernel_size: 1
    weight_filler {
      type: "xavier"
      std: 0.1
    }
    bias_filler {
      type: "constant"
      value: 0.2
    }
  }
}
layer {
  name: "inception_4a/relu_pool_proj"
  type: "ReLU"
  bottom: "inception_4a/pool_proj"
  top: "inception_4a/pool_proj"
}
layer {
  name: "inception_4a/output"
  type: "Concat"
  bottom: "inception_4a/1x1"
  bottom: "inception_4a/3x3"
  bottom: "inception_4a/5x5"
  bottom: "inception_4a/pool_proj"
  top: "inception_4a/output"
}
layer {
  name: "loss1/ave_pool"
  type: "Pooling"
  bottom: "inception_4a/output"
  top: "loss1/ave_pool"
  pooling_param {
    pool: AVE
    kernel_size: 5
    stride: 3
  }
}
layer {
  name: "loss1/conv"
  type: "Convolution"
  bottom: "loss1/ave_pool"
  top: "loss1/conv"
  param {
    lr_mult: 1
    decay_mult: 1
  }
  param {
    lr_mult: 2
    decay_mult: 0
  }
  convolution_param {
    num_output: 128
    kernel_size: 1
    weight_filler {
      type: "xavier"
      std: 0.08
    }
    bias_filler {
      type: "constant"
      value: 0.2
    }
  }
}
layer {
  name: "loss1/relu_conv"
  type: "ReLU"
  bottom: "loss1/conv"
  top: "loss1/conv"
}
layer {
  name: "loss1/fc"
  type: "InnerProduct"
  bottom: "loss1/conv"
  top: "loss1/fc"
  param {
    lr_mult: 1
    decay_mult: 1
  }
  param {
    lr_mult: 2
    decay_mult: 0
  }
  inner_product_param {
    num_output: 1024
    weight_filler {
      type: "xavier"
      std: 0.02
    }
    bias_filler {
      type: "constant"
      value: 0.2
    }
  }
}
layer {
  name: "loss1/relu_fc"
  type: "ReLU"
  bottom: "loss1/fc"
  top: "loss1/fc"
}
layer {
  name: "loss1/drop_fc"
  type: "Dropout"
  bottom: "loss1/fc"
  top: "loss1/fc"
  dropout_param {
    dropout_ratio: 0.7
  }
}
layer {
  name: "loss1/classifier_plantvillage"
  type: "InnerProduct"
  bottom: "loss1/fc"
  top: "loss1/classifier_plantvillage"
  param {
    lr_mult: 1
    decay_mult: 1
  }
  param {
    lr_mult: 2
    decay_mult: 0
  }
  inner_product_param {
    num_output: 38
    weight_filler {
      type: "xavier"
      std: 0.0009765625
    }
    bias_filler {
      type: "constant"
      value: 0
    }
  }
}
layer {
  name: "inception_4b/1x1"
  type: "Convolution"
  bottom: "inception_4a/output"
  top: "inception_4b/1x1"
  param {
    lr_mult: 1
    decay_mult: 1
  }
  param {
    lr_mult: 2
    decay_mult: 0
  }
  convolution_param {
    num_output: 160
    kernel_size: 1
    weight_filler {
      type: "xavier"
      std: 0.03
    }
    bias_filler {
      type: "constant"
      value: 0.2
    }
  }
}
layer {
  name: "inception_4b/relu_1x1"
  type: "ReLU"
  bottom: "inception_4b/1x1"
  top: "inception_4b/1x1"
}
layer {
  name: "inception_4b/3x3_reduce"
  type: "Convolution"
  bottom: "inception_4a/output"
  top: "inception_4b/3x3_reduce"
  param {
    lr_mult: 1
    decay_mult: 1
  }
  param {
    lr_mult: 2
    decay_mult: 0
  }
  convolution_param {
    num_output: 112
    kernel_size: 1
    weight_filler {
      type: "xavier"
      std: 0.09
    }
    bias_filler {
      type: "constant"
      value: 0.2
    }
  }
}
layer {
  name: "inception_4b/relu_3x3_reduce"
  type: "ReLU"
  bottom: "inception_4b/3x3_reduce"
  top: "inception_4b/3x3_reduce"
}
layer {
  name: "inception_4b/3x3"
  type: "Convolution"
  bottom: "inception_4b/3x3_reduce"
  top: "inception_4b/3x3"
  param {
    lr_mult: 1
    decay_mult: 1
  }
  param {
    lr_mult: 2
    decay_mult: 0
  }
  convolution_param {
    num_output: 224
    pad: 1
    kernel_size: 3
    weight_filler {
      type: "xavier"
      std: 0.03
    }
    bias_filler {
      type: "constant"
      value: 0.2
    }
  }
}
layer {
  name: "inception_4b/relu_3x3"
  type: "ReLU"
  bottom: "inception_4b/3x3"
  top: "inception_4b/3x3"
}
layer {
  name: "inception_4b/5x5_reduce"
  type: "Convolution"
  bottom: "inception_4a/output"
  top: "inception_4b/5x5_reduce"
  param {
    lr_mult: 1
    decay_mult: 1
  }
  param {
    lr_mult: 2
    decay_mult: 0
  }
  convolution_param {
    num_output: 24
    kernel_size: 1
    weight_filler {
      type: "xavier"
      std: 0.2
    }
    bias_filler {
      type: "constant"
      value: 0.2
    }
  }
}
layer {
  name: "inception_4b/relu_5x5_reduce"
  type: "ReLU"
  bottom: "inception_4b/5x5_reduce"
  top: "inception_4b/5x5_reduce"
}
layer {
  name: "inception_4b/5x5"
  type: "Convolution"
  bottom: "inception_4b/5x5_reduce"
  top: "inception_4b/5x5"
  param {
    lr_mult: 1
    decay_mult: 1
  }
  param {
    lr_mult: 2
    decay_mult: 0
  }
  convolution_param {
    num_output: 64
    pad: 2
    kernel_size: 5
    weight_filler {
      type: "xavier"
      std: 0.03
    }
    bias_filler {
      type: "constant"
      value: 0.2
    }
  }
}
layer {
  name: "inception_4b/relu_5x5"
  type: "ReLU"
  bottom: "inception_4b/5x5"
  top: "inception_4b/5x5"
}
layer {
  name: "inception_4b/pool"
  type: "Pooling"
  bottom: "inception_4a/output"
  top: "inception_4b/pool"
  pooling_param {
    pool: MAX
    kernel_size: 3
    stride: 1
    pad: 1
  }
}
layer {
  name: "inception_4b/pool_proj"
  type: "Convolution"
  bottom: "inception_4b/pool"
  top: "inception_4b/pool_proj"
  param {
    lr_mult: 1
    decay_mult: 1
  }
  param {
    lr_mult: 2
    decay_mult: 0
  }
  convolution_param {
    num_output: 64
    kernel_size: 1
    weight_filler {
      type: "xavier"
      std: 0.1
    }
    bias_filler {
      type: "constant"
      value: 0.2
    }
  }
}
layer {
  name: "inception_4b/relu_pool_proj"
  type: "ReLU"
  bottom: "inception_4b/pool_proj"
  top: "inception_4b/pool_proj"
}
layer {
  name: "inception_4b/output"
  type: "Concat"
  bottom: "inception_4b/1x1"
  bottom: "inception_4b/3x3"
  bottom: "inception_4b/5x5"
  bottom: "inception_4b/pool_proj"
  top: "inception_4b/output"
}
layer {
  name: "inception_4c/1x1"
  type: "Convolution"
  bottom: "inception_4b/output"
  top: "inception_4c/1x1"
  param {
    lr_mult: 1
    decay_mult: 1
  }
  param {
    lr_mult: 2
    decay_mult: 0
  }
  convolution_param {
    num_output: 128
    kernel_size: 1
    weight_filler {
      type: "xavier"
      std: 0.03
    }
    bias_filler {
      type: "constant"
      value: 0.2
    }
  }
}
layer {
  name: "inception_4c/relu_1x1"
  type: "ReLU"
  bottom: "inception_4c/1x1"
  top: "inception_4c/1x1"
}
layer {
  name: "inception_4c/3x3_reduce"
  type: "Convolution"
  bottom: "inception_4b/output"
  top: "inception_4c/3x3_reduce"
  param {
    lr_mult: 1
    decay_mult: 1
  }
  param {
    lr_mult: 2
    decay_mult: 0
  }
  convolution_param {
    num_output: 128
    kernel_size: 1
    weight_filler {
      type: "xavier"
      std: 0.09
    }
    bias_filler {
      type: "constant"
      value: 0.2
    }
  }
}
layer {
  name: "inception_4c/relu_3x3_reduce"
  type: "ReLU"
  bottom: "inception_4c/3x3_reduce"
  top: "inception_4c/3x3_reduce"
}
layer {
  name: "inception_4c/3x3"
  type: "Convolution"
  bottom: "inception_4c/3x3_reduce"
  top: "inception_4c/3x3"
  param {
    lr_mult: 1
    decay_mult: 1
  }
  param {
    lr_mult: 2
    decay_mult: 0
  }
  convolution_param {
    num_output: 256
    pad: 1
    kernel_size: 3
    weight_filler {
      type: "xavier"
      std: 0.03
    }
    bias_filler {
      type: "constant"
      value: 0.2
    }
  }
}
layer {
  name: "inception_4c/relu_3x3"
  type: "ReLU"
  bottom: "inception_4c/3x3"
  top: "inception_4c/3x3"
}
layer {
  name: "inception_4c/5x5_reduce"
  type: "Convolution"
  bottom: "inception_4b/output"
  top: "inception_4c/5x5_reduce"
  param {
    lr_mult: 1
    decay_mult: 1
  }
  param {
    lr_mult: 2
    decay_mult: 0
  }
  convolution_param {
    num_output: 24
    kernel_size: 1
    weight_filler {
      type: "xavier"
      std: 0.2
    }
    bias_filler {
      type: "constant"
      value: 0.2
    }
  }
}
layer {
  name: "inception_4c/relu_5x5_reduce"
  type: "ReLU"
  bottom: "inception_4c/5x5_reduce"
  top: "inception_4c/5x5_reduce"
}
layer {
  name: "inception_4c/5x5"
  type: "Convolution"
  bottom: "inception_4c/5x5_reduce"
  top: "inception_4c/5x5"
  param {
    lr_mult: 1
    decay_mult: 1
  }
  param {
    lr_mult: 2
    decay_mult: 0
  }
  convolution_param {
    num_output: 64
    pad: 2
    kernel_size: 5
    weight_filler {
      type: "xavier"
      std: 0.03
    }
    bias_filler {
      type: "constant"
      value: 0.2
    }
  }
}
layer {
  name: "inception_4c/relu_5x5"
  type: "ReLU"
  bottom: "inception_4c/5x5"
  top: "inception_4c/5x5"
}
layer {
  name: "inception_4c/pool"
  type: "Pooling"
  bottom: "inception_4b/output"
  top: "inception_4c/pool"
  pooling_param {
    pool: MAX
    kernel_size: 3
    stride: 1
    pad: 1
  }
}
layer {
  name: "inception_4c/pool_proj"
  type: "Convolution"
  bottom: "inception_4c/pool"
  top: "inception_4c/pool_proj"
  param {
    lr_mult: 1
    decay_mult: 1
  }
  param {
    lr_mult: 2
    decay_mult: 0
  }
  convolution_param {
    num_output: 64
    kernel_size: 1
    weight_filler {
      type: "xavier"
      std: 0.1
    }
    bias_filler {
      type: "constant"
      value: 0.2
    }
  }
}
layer {
  name: "inception_4c/relu_pool_proj"
  type: "ReLU"
  bottom: "inception_4c/pool_proj"
  top: "inception_4c/pool_proj"
}
layer {
  name: "inception_4c/output"
  type: "Concat"
  bottom: "inception_4c/1x1"
  bottom: "inception_4c/3x3"
  bottom: "inception_4c/5x5"
  bottom: "inception_4c/pool_proj"
  top: "inception_4c/output"
}
layer {
  name: "inception_4d/1x1"
  type: "Convolution"
  bottom: "inception_4c/output"
  top: "inception_4d/1x1"
  param {
    lr_mult: 1
    decay_mult: 1
  }
  param {
    lr_mult: 2
    decay_mult: 0
  }
  convolution_param {
    num_output: 112
    kernel_size: 1
    weight_filler {
      type: "xavier"
      std: 0.03
    }
    bias_filler {
      type: "constant"
      value: 0.2
    }
  }
}
layer {
  name: "inception_4d/relu_1x1"
  type: "ReLU"
  bottom: "inception_4d/1x1"
  top: "inception_4d/1x1"
}
layer {
  name: "inception_4d/3x3_reduce"
  type: "Convolution"
  bottom: "inception_4c/output"
  top: "inception_4d/3x3_reduce"
  param {
    lr_mult: 1
    decay_mult: 1
  }
  param {
    lr_mult: 2
    decay_mult: 0
  }
  convolution_param {
    num_output: 144
    kernel_size: 1
    weight_filler {
      type: "xavier"
      std: 0.09
    }
    bias_filler {
      type: "constant"
      value: 0.2
    }
  }
}
layer {
  name: "inception_4d/relu_3x3_reduce"
  type: "ReLU"
  bottom: "inception_4d/3x3_reduce"
  top: "inception_4d/3x3_reduce"
}
layer {
  name: "inception_4d/3x3"
  type: "Convolution"
  bottom: "inception_4d/3x3_reduce"
  top: "inception_4d/3x3"
  param {
    lr_mult: 1
    decay_mult: 1
  }
  param {
    lr_mult: 2
    decay_mult: 0
  }
  convolution_param {
    num_output: 288
    pad: 1
    kernel_size: 3
    weight_filler {
      type: "xavier"
      std: 0.03
    }
    bias_filler {
      type: "constant"
      value: 0.2
    }
  }
}
layer {
  name: "inception_4d/relu_3x3"
  type: "ReLU"
  bottom: "inception_4d/3x3"
  top: "inception_4d/3x3"
}
layer {
  name: "inception_4d/5x5_reduce"
  type: "Convolution"
  bottom: "inception_4c/output"
  top: "inception_4d/5x5_reduce"
  param {
    lr_mult: 1
    decay_mult: 1
  }
  param {
    lr_mult: 2
    decay_mult: 0
  }
  convolution_param {
    num_output: 32
    kernel_size: 1
    weight_filler {
      type: "xavier"
      std: 0.2
    }
    bias_filler {
      type: "constant"
      value: 0.2
    }
  }
}
layer {
  name: "inception_4d/relu_5x5_reduce"
  type: "ReLU"
  bottom: "inception_4d/5x5_reduce"
  top: "inception_4d/5x5_reduce"
}
layer {
  name: "inception_4d/5x5"
  type: "Convolution"
  bottom: "inception_4d/5x5_reduce"
  top: "inception_4d/5x5"
  param {
    lr_mult: 1
    decay_mult: 1
  }
  param {
    lr_mult: 2
    decay_mult: 0
  }
  convolution_param {
    num_output: 64
    pad: 2
    kernel_size: 5
    weight_filler {
      type: "xavier"
      std: 0.03
    }
    bias_filler {
      type: "constant"
      value: 0.2
    }
  }
}
layer {
  name: "inception_4d/relu_5x5"
  type: "ReLU"
  bottom: "inception_4d/5x5"
  top: "inception_4d/5x5"
}
layer {
  name: "inception_4d/pool"
  type: "Pooling"
  bottom: "inception_4c/output"
  top: "inception_4d/pool"
  pooling_param {
    pool: MAX
    kernel_size: 3
    stride: 1
    pad: 1
  }
}
layer {
  name: "inception_4d/pool_proj"
  type: "Convolution"
  bottom: "inception_4d/pool"
  top: "inception_4d/pool_proj"
  param {
    lr_mult: 1
    decay_mult: 1
  }
  param {
    lr_mult: 2
    decay_mult: 0
  }
  convolution_param {
    num_output: 64
    kernel_size: 1
    weight_filler {
      type: "xavier"
      std: 0.1
    }
    bias_filler {
      type: "constant"
      value: 0.2
    }
  }
}
layer {
  name: "inception_4d/relu_pool_proj"
  type: "ReLU"
  bottom: "inception_4d/pool_proj"
  top: "inception_4d/pool_proj"
}
layer {
  name: "inception_4d/output"
  type: "Concat"
  bottom: "inception_4d/1x1"
  bottom: "inception_4d/3x3"
  bottom: "inception_4d/5x5"
  bottom: "inception_4d/pool_proj"
  top: "inception_4d/output"
}
layer {
  name: "loss2/ave_pool"
  type: "Pooling"
  bottom: "inception_4d/output"
  top: "loss2/ave_pool"
  pooling_param {
    pool: AVE
    kernel_size: 5
    stride: 3
  }
}
layer {
  name: "loss2/conv"
  type: "Convolution"
  bottom: "loss2/ave_pool"
  top: "loss2/conv"
  param {
    lr_mult: 1
    decay_mult: 1
  }
  param {
    lr_mult: 2
    decay_mult: 0
  }
  convolution_param {
    num_output: 128
    kernel_size: 1
    weight_filler {
      type: "xavier"
      std: 0.08
    }
    bias_filler {
      type: "constant"
      value: 0.2
    }
  }
}
layer {
  name: "loss2/relu_conv"
  type: "ReLU"
  bottom: "loss2/conv"
  top: "loss2/conv"
}
layer {
  name: "loss2/fc"
  type: "InnerProduct"
  bottom: "loss2/conv"
  top: "loss2/fc"
  param {
    lr_mult: 1
    decay_mult: 1
  }
  param {
    lr_mult: 2
    decay_mult: 0
  }
  inner_product_param {
    num_output: 1024
    weight_filler {
      type: "xavier"
      std: 0.02
    }
    bias_filler {
      type: "constant"
      value: 0.2
    }
  }
}
layer {
  name: "loss2/relu_fc"
  type: "ReLU"
  bottom: "loss2/fc"
  top: "loss2/fc"
}
layer {
  name: "loss2/drop_fc"
  type: "Dropout"
  bottom: "loss2/fc"
  top: "loss2/fc"
  dropout_param {
    dropout_ratio: 0.7
  }
}
layer {
  name: "loss2/classifier_plantvillage"
  type: "InnerProduct"
  bottom: "loss2/fc"
  top: "loss2/classifier_plantvillage"
  param {
    lr_mult: 1
    decay_mult: 1
  }
  param {
    lr_mult: 2
    decay_mult: 0
  }
  inner_product_param {
    num_output: 38
    weight_filler {
      type: "xavier"
      std: 0.0009765625
    }
    bias_filler {
      type: "constant"
      value: 0
    }
  }
}
layer {
  name: "inception_4e/1x1"
  type: "Convolution"
  bottom: "inception_4d/output"
  top: "inception_4e/1x1"
  param {
    lr_mult: 1
    decay_mult: 1
  }
  param {
    lr_mult: 2
    decay_mult: 0
  }
  convolution_param {
    num_output: 256
    kernel_size: 1
    weight_filler {
      type: "xavier"
      std: 0.03
    }
    bias_filler {
      type: "constant"
      value: 0.2
    }
  }
}
layer {
  name: "inception_4e/relu_1x1"
  type: "ReLU"
  bottom: "inception_4e/1x1"
  top: "inception_4e/1x1"
}
layer {
  name: "inception_4e/3x3_reduce"
  type: "Convolution"
  bottom: "inception_4d/output"
  top: "inception_4e/3x3_reduce"
  param {
    lr_mult: 1
    decay_mult: 1
  }
  param {
    lr_mult: 2
    decay_mult: 0
  }
  convolution_param {
    num_output: 160
    kernel_size: 1
    weight_filler {
      type: "xavier"
      std: 0.09
    }
    bias_filler {
      type: "constant"
      value: 0.2
    }
  }
}
layer {
  name: "inception_4e/relu_3x3_reduce"
  type: "ReLU"
  bottom: "inception_4e/3x3_reduce"
  top: "inception_4e/3x3_reduce"
}
layer {
  name: "inception_4e/3x3"
  type: "Convolution"
  bottom: "inception_4e/3x3_reduce"
  top: "inception_4e/3x3"
  param {
    lr_mult: 1
    decay_mult: 1
  }
  param {
    lr_mult: 2
    decay_mult: 0
  }
  convolution_param {
    num_output: 320
    pad: 1
    kernel_size: 3
    weight_filler {
      type: "xavier"
      std: 0.03
    }
    bias_filler {
      type: "constant"
      value: 0.2
    }
  }
}
layer {
  name: "inception_4e/relu_3x3"
  type: "ReLU"
  bottom: "inception_4e/3x3"
  top: "inception_4e/3x3"
}
layer {
  name: "inception_4e/5x5_reduce"
  type: "Convolution"
  bottom: "inception_4d/output"
  top: "inception_4e/5x5_reduce"
  param {
    lr_mult: 1
    decay_mult: 1
  }
  param {
    lr_mult: 2
    decay_mult: 0
  }
  convolution_param {
    num_output: 32
    kernel_size: 1
    weight_filler {
      type: "xavier"
      std: 0.2
    }
    bias_filler {
      type: "constant"
      value: 0.2
    }
  }
}
layer {
  name: "inception_4e/relu_5x5_reduce"
  type: "ReLU"
  bottom: "inception_4e/5x5_reduce"
  top: "inception_4e/5x5_reduce"
}
layer {
  name: "inception_4e/5x5"
  type: "Convolution"
  bottom: "inception_4e/5x5_reduce"
  top: "inception_4e/
I0403 13:51:08.631745   431 layer_factory.hpp:77] Creating layer data
I0403 13:51:08.632369   431 net.cpp:91] Creating Layer data
I0403 13:51:08.632405   431 net.cpp:399] data -> data
I0403 13:51:08.632457   431 net.cpp:399] data -> label
I0403 13:51:08.632495   431 data_transformer.cpp:25] Loading mean file from: /home/mohanty/data/final_dataset/lmdb/grayscale-20-80/mean.binaryproto
I0403 13:51:08.635119   436 db_lmdb.cpp:38] Opened lmdb /home/mohanty/data/final_dataset/lmdb/grayscale-20-80/test_db
I0403 13:51:08.646013   431 data_layer.cpp:41] output data size: 24,3,224,224
I0403 13:51:08.673144   431 net.cpp:141] Setting up data
I0403 13:51:08.673259   431 net.cpp:148] Top shape: 24 3 224 224 (3612672)
I0403 13:51:08.673283   431 net.cpp:148] Top shape: 24 (24)
I0403 13:51:08.673298   431 net.cpp:156] Memory required for data: 14450784
I0403 13:51:08.673327   431 layer_factory.hpp:77] Creating layer label_data_1_split
I0403 13:51:08.673355   431 net.cpp:91] Creating Layer label_data_1_split
I0403 13:51:08.673374   431 net.cpp:425] label_data_1_split <- label
I0403 13:51:08.673408   431 net.cpp:399] label_data_1_split -> label_data_1_split_0
I0403 13:51:08.673435   431 net.cpp:399] label_data_1_split -> label_data_1_split_1
I0403 13:51:08.673457   431 net.cpp:399] label_data_1_split -> label_data_1_split_2
I0403 13:51:08.673478   431 net.cpp:399] label_data_1_split -> label_data_1_split_3
I0403 13:51:08.673499   431 net.cpp:399] label_data_1_split -> label_data_1_split_4
I0403 13:51:08.673521   431 net.cpp:399] label_data_1_split -> label_data_1_split_5
I0403 13:51:08.673542   431 net.cpp:399] label_data_1_split -> label_data_1_split_6
I0403 13:51:08.673563   431 net.cpp:399] label_data_1_split -> label_data_1_split_7
I0403 13:51:08.673583   431 net.cpp:399] label_data_1_split -> label_data_1_split_8
I0403 13:51:08.673604   431 net.cpp:399] label_data_1_split -> label_data_1_split_9
I0403 13:51:08.673727   431 net.cpp:141] Setting up label_data_1_split
I0403 13:51:08.673750   431 net.cpp:148] Top shape: 24 (24)
I0403 13:51:08.673768   431 net.cpp:148] Top shape: 24 (24)
I0403 13:51:08.673785   431 net.cpp:148] Top shape: 24 (24)
I0403 13:51:08.673801   431 net.cpp:148] Top shape: 24 (24)
I0403 13:51:08.673818   431 net.cpp:148] Top shape: 24 (24)
I0403 13:51:08.673835   431 net.cpp:148] Top shape: 24 (24)
I0403 13:51:08.673851   431 net.cpp:148] Top shape: 24 (24)
I0403 13:51:08.673867   431 net.cpp:148] Top shape: 24 (24)
I0403 13:51:08.673883   431 net.cpp:148] Top shape: 24 (24)
I0403 13:51:08.673902   431 net.cpp:148] Top shape: 24 (24)
I0403 13:51:08.673948   431 net.cpp:156] Memory required for data: 14451744
I0403 13:51:08.673965   431 layer_factory.hpp:77] Creating layer conv1/7x7_s2
I0403 13:51:08.673998   431 net.cpp:91] Creating Layer conv1/7x7_s2
I0403 13:51:08.674017   431 net.cpp:425] conv1/7x7_s2 <- data
I0403 13:51:08.674037   431 net.cpp:399] conv1/7x7_s2 -> conv1/7x7_s2
I0403 13:51:08.817704   431 net.cpp:141] Setting up conv1/7x7_s2
I0403 13:51:08.817795   431 net.cpp:148] Top shape: 24 64 112 112 (19267584)
I0403 13:51:08.817813   431 net.cpp:156] Memory required for data: 91522080
I0403 13:51:08.817844   431 layer_factory.hpp:77] Creating layer conv1/relu_7x7
I0403 13:51:08.817873   431 net.cpp:91] Creating Layer conv1/relu_7x7
I0403 13:51:08.817891   431 net.cpp:425] conv1/relu_7x7 <- conv1/7x7_s2
I0403 13:51:08.817910   431 net.cpp:386] conv1/relu_7x7 -> conv1/7x7_s2 (in-place)
I0403 13:51:08.818187   431 net.cpp:141] Setting up conv1/relu_7x7
I0403 13:51:08.818220   431 net.cpp:148] Top shape: 24 64 112 112 (19267584)
I0403 13:51:08.818238   431 net.cpp:156] Memory required for data: 168592416
I0403 13:51:08.818254   431 layer_factory.hpp:77] Creating layer pool1/3x3_s2
I0403 13:51:08.818279   431 net.cpp:91] Creating Layer pool1/3x3_s2
I0403 13:51:08.818298   431 net.cpp:425] pool1/3x3_s2 <- conv1/7x7_s2
I0403 13:51:08.818317   431 net.cpp:399] pool1/3x3_s2 -> pool1/3x3_s2
I0403 13:51:08.818393   431 net.cpp:141] Setting up pool1/3x3_s2
I0403 13:51:08.818418   431 net.cpp:148] Top shape: 24 64 56 56 (4816896)
I0403 13:51:08.818435   431 net.cpp:156] Memory required for data: 187860000
I0403 13:51:08.818464   431 layer_factory.hpp:77] Creating layer pool1/norm1
I0403 13:51:08.818488   431 net.cpp:91] Creating Layer pool1/norm1
I0403 13:51:08.818506   431 net.cpp:425] pool1/norm1 <- pool1/3x3_s2
I0403 13:51:08.818524   431 net.cpp:399] pool1/norm1 -> pool1/norm1
I0403 13:51:08.818816   431 net.cpp:141] Setting up pool1/norm1
I0403 13:51:08.818867   431 net.cpp:148] Top shape: 24 64 56 56 (4816896)
I0403 13:51:08.818886   431 net.cpp:156] Memory required for data: 207127584
I0403 13:51:08.818902   431 layer_factory.hpp:77] Creating layer conv2/3x3_reduce
I0403 13:51:08.818928   431 net.cpp:91] Creating Layer conv2/3x3_reduce
I0403 13:51:08.818945   431 net.cpp:425] conv2/3x3_reduce <- pool1/norm1
I0403 13:51:08.818964   431 net.cpp:399] conv2/3x3_reduce -> conv2/3x3_reduce
I0403 13:51:08.820345   431 net.cpp:141] Setting up conv2/3x3_reduce
I0403 13:51:08.820375   431 net.cpp:148] Top shape: 24 64 56 56 (4816896)
I0403 13:51:08.820391   431 net.cpp:156] Memory required for data: 226395168
I0403 13:51:08.820413   431 layer_factory.hpp:77] Creating layer conv2/relu_3x3_reduce
I0403 13:51:08.820432   431 net.cpp:91] Creating Layer conv2/relu_3x3_reduce
I0403 13:51:08.820448   431 net.cpp:425] conv2/relu_3x3_reduce <- conv2/3x3_reduce
I0403 13:51:08.820466   431 net.cpp:386] conv2/relu_3x3_reduce -> conv2/3x3_reduce (in-place)
I0403 13:51:08.820752   431 net.cpp:141] Setting up conv2/relu_3x3_reduce
I0403 13:51:08.820780   431 net.cpp:148] Top shape: 24 64 56 56 (4816896)
I0403 13:51:08.820796   431 net.cpp:156] Memory required for data: 245662752
I0403 13:51:08.820812   431 layer_factory.hpp:77] Creating layer conv2/3x3
I0403 13:51:08.820834   431 net.cpp:91] Creating Layer conv2/3x3
I0403 13:51:08.820852   431 net.cpp:425] conv2/3x3 <- conv2/3x3_reduce
I0403 13:51:08.820870   431 net.cpp:399] conv2/3x3 -> conv2/3x3
I0403 13:51:08.823166   431 net.cpp:141] Setting up conv2/3x3
I0403 13:51:08.823197   431 net.cpp:148] Top shape: 24 192 56 56 (14450688)
I0403 13:51:08.823227   431 net.cpp:156] Memory required for data: 303465504
I0403 13:51:08.823251   431 layer_factory.hpp:77] Creating layer conv2/relu_3x3
I0403 13:51:08.823271   431 net.cpp:91] Creating Layer conv2/relu_3x3
I0403 13:51:08.823287   431 net.cpp:425] conv2/relu_3x3 <- conv2/3x3
I0403 13:51:08.823305   431 net.cpp:386] conv2/relu_3x3 -> conv2/3x3 (in-place)
I0403 13:51:08.823469   431 net.cpp:141] Setting up conv2/relu_3x3
I0403 13:51:08.823495   431 net.cpp:148] Top shape: 24 192 56 56 (14450688)
I0403 13:51:08.823540   431 net.cpp:156] Memory required for data: 361268256
I0403 13:51:08.823557   431 layer_factory.hpp:77] Creating layer conv2/norm2
I0403 13:51:08.823576   431 net.cpp:91] Creating Layer conv2/norm2
I0403 13:51:08.823593   431 net.cpp:425] conv2/norm2 <- conv2/3x3
I0403 13:51:08.823611   431 net.cpp:399] conv2/norm2 -> conv2/norm2
I0403 13:51:08.823916   431 net.cpp:141] Setting up conv2/norm2
I0403 13:51:08.823942   431 net.cpp:148] Top shape: 24 192 56 56 (14450688)
I0403 13:51:08.823958   431 net.cpp:156] Memory required for data: 419071008
I0403 13:51:08.823972   431 layer_factory.hpp:77] Creating layer pool2/3x3_s2
I0403 13:51:08.823990   431 net.cpp:91] Creating Layer pool2/3x3_s2
I0403 13:51:08.824005   431 net.cpp:425] pool2/3x3_s2 <- conv2/norm2
I0403 13:51:08.824023   431 net.cpp:399] pool2/3x3_s2 -> pool2/3x3_s2
I0403 13:51:08.824072   431 net.cpp:141] Setting up pool2/3x3_s2
I0403 13:51:08.824095   431 net.cpp:148] Top shape: 24 192 28 28 (3612672)
I0403 13:51:08.824108   431 net.cpp:156] Memory required for data: 433521696
I0403 13:51:08.824123   431 layer_factory.hpp:77] Creating layer pool2/3x3_s2_pool2/3x3_s2_0_split
I0403 13:51:08.824141   431 net.cpp:91] Creating Layer pool2/3x3_s2_pool2/3x3_s2_0_split
I0403 13:51:08.824156   431 net.cpp:425] pool2/3x3_s2_pool2/3x3_s2_0_split <- pool2/3x3_s2
I0403 13:51:08.824172   431 net.cpp:399] pool2/3x3_s2_pool2/3x3_s2_0_split -> pool2/3x3_s2_pool2/3x3_s2_0_split_0
I0403 13:51:08.824192   431 net.cpp:399] pool2/3x3_s2_pool2/3x3_s2_0_split -> pool2/3x3_s2_pool2/3x3_s2_0_split_1
I0403 13:51:08.824215   431 net.cpp:399] pool2/3x3_s2_pool2/3x3_s2_0_split -> pool2/3x3_s2_pool2/3x3_s2_0_split_2
I0403 13:51:08.824237   431 net.cpp:399] pool2/3x3_s2_pool2/3x3_s2_0_split -> pool2/3x3_s2_pool2/3x3_s2_0_split_3
I0403 13:51:08.824301   431 net.cpp:141] Setting up pool2/3x3_s2_pool2/3x3_s2_0_split
I0403 13:51:08.824323   431 net.cpp:148] Top shape: 24 192 28 28 (3612672)
I0403 13:51:08.824339   431 net.cpp:148] Top shape: 24 192 28 28 (3612672)
I0403 13:51:08.824355   431 net.cpp:148] Top shape: 24 192 28 28 (3612672)
I0403 13:51:08.824370   431 net.cpp:148] Top shape: 24 192 28 28 (3612672)
I0403 13:51:08.824384   431 net.cpp:156] Memory required for data: 491324448
I0403 13:51:08.824399   431 layer_factory.hpp:77] Creating layer inception_3a/1x1
I0403 13:51:08.824420   431 net.cpp:91] Creating Layer inception_3a/1x1
I0403 13:51:08.824439   431 net.cpp:425] inception_3a/1x1 <- pool2/3x3_s2_pool2/3x3_s2_0_split_0
I0403 13:51:08.824456   431 net.cpp:399] inception_3a/1x1 -> inception_3a/1x1
I0403 13:51:08.825968   431 net.cpp:141] Setting up inception_3a/1x1
I0403 13:51:08.825997   431 net.cpp:148] Top shape: 24 64 28 28 (1204224)
I0403 13:51:08.826014   431 net.cpp:156] Memory required for data: 496141344
I0403 13:51:08.826031   431 layer_factory.hpp:77] Creating layer inception_3a/relu_1x1
I0403 13:51:08.826052   431 net.cpp:91] Creating Layer inception_3a/relu_1x1
I0403 13:51:08.826069   431 net.cpp:425] inception_3a/relu_1x1 <- inception_3a/1x1
I0403 13:51:08.826087   431 net.cpp:386] inception_3a/relu_1x1 -> inception_3a/1x1 (in-place)
I0403 13:51:08.826267   431 net.cpp:141] Setting up inception_3a/relu_1x1
I0403 13:51:08.826297   431 net.cpp:148] Top shape: 24 64 28 28 (1204224)
I0403 13:51:08.826313   431 net.cpp:156] Memory required for data: 500958240
I0403 13:51:08.826328   431 layer_factory.hpp:77] Creating layer inception_3a/3x3_reduce
I0403 13:51:08.826351   431 net.cpp:91] Creating Layer inception_3a/3x3_reduce
I0403 13:51:08.826369   431 net.cpp:425] inception_3a/3x3_reduce <- pool2/3x3_s2_pool2/3x3_s2_0_split_1
I0403 13:51:08.826386   431 net.cpp:399] inception_3a/3x3_reduce -> inception_3a/3x3_reduce
I0403 13:51:08.828104   431 net.cpp:141] Setting up inception_3a/3x3_reduce
I0403 13:51:08.828133   431 net.cpp:148] Top shape: 24 96 28 28 (1806336)
I0403 13:51:08.828150   431 net.cpp:156] Memory required for data: 508183584
I0403 13:51:08.828171   431 layer_factory.hpp:77] Creating layer inception_3a/relu_3x3_reduce
I0403 13:51:08.828213   431 net.cpp:91] Creating Layer inception_3a/relu_3x3_reduce
I0403 13:51:08.828233   431 net.cpp:425] inception_3a/relu_3x3_reduce <- inception_3a/3x3_reduce
I0403 13:51:08.828253   431 net.cpp:386] inception_3a/relu_3x3_reduce -> inception_3a/3x3_reduce (in-place)
I0403 13:51:08.828438   431 net.cpp:141] Setting up inception_3a/relu_3x3_reduce
I0403 13:51:08.828462   431 net.cpp:148] Top shape: 24 96 28 28 (1806336)
I0403 13:51:08.828477   431 net.cpp:156] Memory required for data: 515408928
I0403 13:51:08.828492   431 layer_factory.hpp:77] Creating layer inception_3a/3x3
I0403 13:51:08.828515   431 net.cpp:91] Creating Layer inception_3a/3x3
I0403 13:51:08.828531   431 net.cpp:425] inception_3a/3x3 <- inception_3a/3x3_reduce
I0403 13:51:08.828553   431 net.cpp:399] inception_3a/3x3 -> inception_3a/3x3
I0403 13:51:08.830194   431 net.cpp:141] Setting up inception_3a/3x3
I0403 13:51:08.830265   431 net.cpp:148] Top shape: 24 128 28 28 (2408448)
I0403 13:51:08.830284   431 net.cpp:156] Memory required for data: 525042720
I0403 13:51:08.830303   431 layer_factory.hpp:77] Creating layer inception_3a/relu_3x3
I0403 13:51:08.830322   431 net.cpp:91] Creating Layer inception_3a/relu_3x3
I0403 13:51:08.830338   431 net.cpp:425] inception_3a/relu_3x3 <- inception_3a/3x3
I0403 13:51:08.830355   431 net.cpp:386] inception_3a/relu_3x3 -> inception_3a/3x3 (in-place)
I0403 13:51:08.830629   431 net.cpp:141] Setting up inception_3a/relu_3x3
I0403 13:51:08.830657   431 net.cpp:148] Top shape: 24 128 28 28 (2408448)
I0403 13:51:08.830673   431 net.cpp:156] Memory required for data: 534676512
I0403 13:51:08.830687   431 layer_factory.hpp:77] Creating layer inception_3a/5x5_reduce
I0403 13:51:08.830710   431 net.cpp:91] Creating Layer inception_3a/5x5_reduce
I0403 13:51:08.830727   431 net.cpp:425] inception_3a/5x5_reduce <- pool2/3x3_s2_pool2/3x3_s2_0_split_2
I0403 13:51:08.830745   431 net.cpp:399] inception_3a/5x5_reduce -> inception_3a/5x5_reduce
I0403 13:51:08.831702   431 net.cpp:141] Setting up inception_3a/5x5_reduce
I0403 13:51:08.831732   431 net.cpp:148] Top shape: 24 16 28 28 (301056)
I0403 13:51:08.831748   431 net.cpp:156] Memory required for data: 535880736
I0403 13:51:08.831765   431 layer_factory.hpp:77] Creating layer inception_3a/relu_5x5_reduce
I0403 13:51:08.831784   431 net.cpp:91] Creating Layer inception_3a/relu_5x5_reduce
I0403 13:51:08.831799   431 net.cpp:425] inception_3a/relu_5x5_reduce <- inception_3a/5x5_reduce
I0403 13:51:08.831820   431 net.cpp:386] inception_3a/relu_5x5_reduce -> inception_3a/5x5_reduce (in-place)
I0403 13:51:08.832121   431 net.cpp:141] Setting up inception_3a/relu_5x5_reduce
I0403 13:51:08.832149   431 net.cpp:148] Top shape: 24 16 28 28 (301056)
I0403 13:51:08.832164   431 net.cpp:156] Memory required for data: 537084960
I0403 13:51:08.832177   431 layer_factory.hpp:77] Creating layer inception_3a/5x5
I0403 13:51:08.832201   431 net.cpp:91] Creating Layer inception_3a/5x5
I0403 13:51:08.832223   431 net.cpp:425] inception_3a/5x5 <- inception_3a/5x5_reduce
I0403 13:51:08.832245   431 net.cpp:399] inception_3a/5x5 -> inception_3a/5x5
I0403 13:51:08.833268   431 net.cpp:141] Setting up inception_3a/5x5
I0403 13:51:08.833298   431 net.cpp:148] Top shape: 24 32 28 28 (602112)
I0403 13:51:08.833314   431 net.cpp:156] Memory required for data: 539493408
I0403 13:51:08.833333   431 layer_factory.hpp:77] Creating layer inception_3a/relu_5x5
I0403 13:51:08.833351   431 net.cpp:91] Creating Layer inception_3a/relu_5x5
I0403 13:51:08.833366   431 net.cpp:425] inception_3a/relu_5x5 <- inception_3a/5x5
I0403 13:51:08.833384   431 net.cpp:386] inception_3a/relu_5x5 -> inception_3a/5x5 (in-place)
I0403 13:51:08.833559   431 net.cpp:141] Setting up inception_3a/relu_5x5
I0403 13:51:08.833585   431 net.cpp:148] Top shape: 24 32 28 28 (602112)
I0403 13:51:08.833600   431 net.cpp:156] Memory required for data: 541901856
I0403 13:51:08.833614   431 layer_factory.hpp:77] Creating layer inception_3a/pool
I0403 13:51:08.833632   431 net.cpp:91] Creating Layer inception_3a/pool
I0403 13:51:08.833662   431 net.cpp:425] inception_3a/pool <- pool2/3x3_s2_pool2/3x3_s2_0_split_3
I0403 13:51:08.833683   431 net.cpp:399] inception_3a/pool -> inception_3a/pool
I0403 13:51:08.833740   431 net.cpp:141] Setting up inception_3a/pool
I0403 13:51:08.833766   431 net.cpp:148] Top shape: 24 192 28 28 (3612672)
I0403 13:51:08.833781   431 net.cpp:156] Memory required for data: 556352544
I0403 13:51:08.833796   431 layer_factory.hpp:77] Creating layer inception_3a/pool_proj
I0403 13:51:08.833818   431 net.cpp:91] Creating Layer inception_3a/pool_proj
I0403 13:51:08.833837   431 net.cpp:425] inception_3a/pool_proj <- inception_3a/pool
I0403 13:51:08.833855   431 net.cpp:399] inception_3a/pool_proj -> inception_3a/pool_proj
I0403 13:51:08.834825   431 net.cpp:141] Setting up inception_3a/pool_proj
I0403 13:51:08.834852   431 net.cpp:148] Top shape: 24 32 28 28 (602112)
I0403 13:51:08.834868   431 net.cpp:156] Memory required for data: 558760992
I0403 13:51:08.834892   431 layer_factory.hpp:77] Creating layer inception_3a/relu_pool_proj
I0403 13:51:08.834913   431 net.cpp:91] Creating Layer inception_3a/relu_pool_proj
I0403 13:51:08.834929   431 net.cpp:425] inception_3a/relu_pool_proj <- inception_3a/pool_proj
I0403 13:51:08.834951   431 net.cpp:386] inception_3a/relu_pool_proj -> inception_3a/pool_proj (in-place)
I0403 13:51:08.835232   431 net.cpp:141] Setting up inception_3a/relu_pool_proj
I0403 13:51:08.835259   431 net.cpp:148] Top shape: 24 32 28 28 (602112)
I0403 13:51:08.835275   431 net.cpp:156] Memory required for data: 561169440
I0403 13:51:08.835290   431 layer_factory.hpp:77] Creating layer inception_3a/output
I0403 13:51:08.835307   431 net.cpp:91] Creating Layer inception_3a/output
I0403 13:51:08.835324   431 net.cpp:425] inception_3a/output <- inception_3a/1x1
I0403 13:51:08.835340   431 net.cpp:425] inception_3a/output <- inception_3a/3x3
I0403 13:51:08.835355   431 net.cpp:425] inception_3a/output <- inception_3a/5x5
I0403 13:51:08.835371   431 net.cpp:425] inception_3a/output <- inception_3a/pool_proj
I0403 13:51:08.835388   431 net.cpp:399] inception_3a/output -> inception_3a/output
I0403 13:51:08.835436   431 net.cpp:141] Setting up inception_3a/output
I0403 13:51:08.835459   431 net.cpp:148] Top shape: 24 256 28 28 (4816896)
I0403 13:51:08.835485   431 net.cpp:156] Memory required for data: 580437024
I0403 13:51:08.835501   431 layer_factory.hpp:77] Creating layer inception_3a/output_inception_3a/output_0_split
I0403 13:51:08.835521   431 net.cpp:91] Creating Layer inception_3a/output_inception_3a/output_0_split
I0403 13:51:08.835537   431 net.cpp:425] inception_3a/output_inception_3a/output_0_split <- inception_3a/output
I0403 13:51:08.835556   431 net.cpp:399] inception_3a/output_inception_3a/output_0_split -> inception_3a/output_inception_3a/output_0_split_0
I0403 13:51:08.835575   431 net.cpp:399] inception_3a/output_inception_3a/output_0_split -> inception_3a/output_inception_3a/output_0_split_1
I0403 13:51:08.835602   431 net.cpp:399] inception_3a/output_inception_3a/output_0_split -> inception_3a/output_inception_3a/output_0_split_2
I0403 13:51:08.835624   431 net.cpp:399] inception_3a/output_inception_3a/output_0_split -> inception_3a/output_inception_3a/output_0_split_3
I0403 13:51:08.835702   431 net.cpp:141] Setting up inception_3a/output_inception_3a/output_0_split
I0403 13:51:08.835726   431 net.cpp:148] Top shape: 24 256 28 28 (4816896)
I0403 13:51:08.835741   431 net.cpp:148] Top shape: 24 256 28 28 (4816896)
I0403 13:51:08.835770   431 net.cpp:148] Top shape: 24 256 28 28 (4816896)
I0403 13:51:08.835786   431 net.cpp:148] Top shape: 24 256 28 28 (4816896)
I0403 13:51:08.835800   431 net.cpp:156] Memory required for data: 657507360
I0403 13:51:08.835815   431 layer_factory.hpp:77] Creating layer inception_3b/1x1
I0403 13:51:08.835839   431 net.cpp:91] Creating Layer inception_3b/1x1
I0403 13:51:08.835856   431 net.cpp:425] inception_3b/1x1 <- inception_3a/output_inception_3a/output_0_split_0
I0403 13:51:08.835875   431 net.cpp:399] inception_3b/1x1 -> inception_3b/1x1
I0403 13:51:08.837016   431 net.cpp:141] Setting up inception_3b/1x1
I0403 13:51:08.837055   431 net.cpp:148] Top shape: 24 128 28 28 (2408448)
I0403 13:51:08.837070   431 net.cpp:156] Memory required for data: 667141152
I0403 13:51:08.837090   431 layer_factory.hpp:77] Creating layer inception_3b/relu_1x1
I0403 13:51:08.837110   431 net.cpp:91] Creating Layer inception_3b/relu_1x1
I0403 13:51:08.837127   431 net.cpp:425] inception_3b/relu_1x1 <- inception_3b/1x1
I0403 13:51:08.837157   431 net.cpp:386] inception_3b/relu_1x1 -> inception_3b/1x1 (in-place)
I0403 13:51:08.837359   431 net.cpp:141] Setting up inception_3b/relu_1x1
I0403 13:51:08.837386   431 net.cpp:148] Top shape: 24 128 28 28 (2408448)
I0403 13:51:08.837402   431 net.cpp:156] Memory required for data: 676774944
I0403 13:51:08.837417   431 layer_factory.hpp:77] Creating layer inception_3b/3x3_reduce
I0403 13:51:08.837451   431 net.cpp:91] Creating Layer inception_3b/3x3_reduce
I0403 13:51:08.837468   431 net.cpp:425] inception_3b/3x3_reduce <- inception_3a/output_inception_3a/output_0_split_1
I0403 13:51:08.837487   431 net.cpp:399] inception_3b/3x3_reduce -> inception_3b/3x3_reduce
I0403 13:51:08.838665   431 net.cpp:141] Setting up inception_3b/3x3_reduce
I0403 13:51:08.838691   431 net.cpp:148] Top shape: 24 128 28 28 (2408448)
I0403 13:51:08.838706   431 net.cpp:156] Memory required for data: 686408736
I0403 13:51:08.838724   431 layer_factory.hpp:77] Creating layer inception_3b/relu_3x3_reduce
I0403 13:51:08.838747   431 net.cpp:91] Creating Layer inception_3b/relu_3x3_reduce
I0403 13:51:08.838764   431 net.cpp:425] inception_3b/relu_3x3_reduce <- inception_3b/3x3_reduce
I0403 13:51:08.838781   431 net.cpp:386] inception_3b/relu_3x3_reduce -> inception_3b/3x3_reduce (in-place)
I0403 13:51:08.838955   431 net.cpp:141] Setting up inception_3b/relu_3x3_reduce
I0403 13:51:08.838982   431 net.cpp:148] Top shape: 24 128 28 28 (2408448)
I0403 13:51:08.838997   431 net.cpp:156] Memory required for data: 696042528
I0403 13:51:08.839012   431 layer_factory.hpp:77] Creating layer inception_3b/3x3
I0403 13:51:08.839036   431 net.cpp:91] Creating Layer inception_3b/3x3
I0403 13:51:08.839054   431 net.cpp:425] inception_3b/3x3 <- inception_3b/3x3_reduce
I0403 13:51:08.839076   431 net.cpp:399] inception_3b/3x3 -> inception_3b/3x3
I0403 13:51:08.842002   431 net.cpp:141] Setting up inception_3b/3x3
I0403 13:51:08.842034   431 net.cpp:148] Top shape: 24 192 28 28 (3612672)
I0403 13:51:08.842051   431 net.cpp:156] Memory required for data: 710493216
I0403 13:51:08.842069   431 layer_factory.hpp:77] Creating layer inception_3b/relu_3x3
I0403 13:51:08.842087   431 net.cpp:91] Creating Layer inception_3b/relu_3x3
I0403 13:51:08.842103   431 net.cpp:425] inception_3b/relu_3x3 <- inception_3b/3x3
I0403 13:51:08.842120   431 net.cpp:386] inception_3b/relu_3x3 -> inception_3b/3x3 (in-place)
I0403 13:51:08.842416   431 net.cpp:141] Setting up inception_3b/relu_3x3
I0403 13:51:08.842445   431 net.cpp:148] Top shape: 24 192 28 28 (3612672)
I0403 13:51:08.842460   431 net.cpp:156] Memory required for data: 724943904
I0403 13:51:08.842475   431 layer_factory.hpp:77] Creating layer inception_3b/5x5_reduce
I0403 13:51:08.842497   431 net.cpp:91] Creating Layer inception_3b/5x5_reduce
I0403 13:51:08.842514   431 net.cpp:425] inception_3b/5x5_reduce <- inception_3a/output_inception_3a/output_0_split_2
I0403 13:51:08.842536   431 net.cpp:399] inception_3b/5x5_reduce -> inception_3b/5x5_reduce
I0403 13:51:08.843564   431 net.cpp:141] Setting up inception_3b/5x5_reduce
I0403 13:51:08.843595   431 net.cpp:148] Top shape: 24 32 28 28 (602112)
I0403 13:51:08.843611   431 net.cpp:156] Memory required for data: 727352352
I0403 13:51:08.843631   431 layer_factory.hpp:77] Creating layer inception_3b/relu_5x5_reduce
I0403 13:51:08.843649   431 net.cpp:91] Creating Layer inception_3b/relu_5x5_reduce
I0403 13:51:08.843665   431 net.cpp:425] inception_3b/relu_5x5_reduce <- inception_3b/5x5_reduce
I0403 13:51:08.843683   431 net.cpp:386] inception_3b/relu_5x5_reduce -> inception_3b/5x5_reduce (in-place)
I0403 13:51:08.843894   431 net.cpp:141] Setting up inception_3b/relu_5x5_reduce
I0403 13:51:08.843919   431 net.cpp:148] Top shape: 24 32 28 28 (602112)
I0403 13:51:08.843933   431 net.cpp:156] Memory required for data: 729760800
I0403 13:51:08.843948   431 layer_factory.hpp:77] Creating layer inception_3b/5x5
I0403 13:51:08.843971   431 net.cpp:91] Creating Layer inception_3b/5x5
I0403 13:51:08.843988   431 net.cpp:425] inception_3b/5x5 <- inception_3b/5x5_reduce
I0403 13:51:08.844010   431 net.cpp:399] inception_3b/5x5 -> inception_3b/5x5
I0403 13:51:08.845971   431 net.cpp:141] Setting up inception_3b/5x5
I0403 13:51:08.846000   431 net.cpp:148] Top shape: 24 96 28 28 (1806336)
I0403 13:51:08.846015   431 net.cpp:156] Memory required for data: 736986144
I0403 13:51:08.846034   431 layer_factory.hpp:77] Creating layer inception_3b/relu_5x5
I0403 13:51:08.846053   431 net.cpp:91] Creating Layer inception_3b/relu_5x5
I0403 13:51:08.846071   431 net.cpp:425] inception_3b/relu_5x5 <- inception_3b/5x5
I0403 13:51:08.846088   431 net.cpp:386] inception_3b/relu_5x5 -> inception_3b/5x5 (in-place)
I0403 13:51:08.846288   431 net.cpp:141] Setting up inception_3b/relu_5x5
I0403 13:51:08.846313   431 net.cpp:148] Top shape: 24 96 28 28 (1806336)
I0403 13:51:08.846328   431 net.cpp:156] Memory required for data: 744211488
I0403 13:51:08.846343   431 layer_factory.hpp:77] Creating layer inception_3b/pool
I0403 13:51:08.846360   431 net.cpp:91] Creating Layer inception_3b/pool
I0403 13:51:08.846376   431 net.cpp:425] inception_3b/pool <- inception_3a/output_inception_3a/output_0_split_3
I0403 13:51:08.846395   431 net.cpp:399] inception_3b/pool -> inception_3b/pool
I0403 13:51:08.846451   431 net.cpp:141] Setting up inception_3b/pool
I0403 13:51:08.846474   431 net.cpp:148] Top shape: 24 256 28 28 (4816896)
I0403 13:51:08.846488   431 net.cpp:156] Memory required for data: 763479072
I0403 13:51:08.846503   431 layer_factory.hpp:77] Creating layer inception_3b/pool_proj
I0403 13:51:08.846525   431 net.cpp:91] Creating Layer inception_3b/pool_proj
I0403 13:51:08.846544   431 net.cpp:425] inception_3b/pool_proj <- inception_3b/pool
I0403 13:51:08.846565   431 net.cpp:399] inception_3b/pool_proj -> inception_3b/pool_proj
I0403 13:51:08.847627   431 net.cpp:141] Setting up inception_3b/pool_proj
I0403 13:51:08.847656   431 net.cpp:148] Top shape: 24 64 28 28 (1204224)
I0403 13:51:08.847671   431 net.cpp:156] Memory required for data: 768295968
I0403 13:51:08.847689   431 layer_factory.hpp:77] Creating layer inception_3b/relu_pool_proj
I0403 13:51:08.847707   431 net.cpp:91] Creating Layer inception_3b/relu_pool_proj
I0403 13:51:08.847725   431 net.cpp:425] inception_3b/relu_pool_proj <- inception_3b/pool_proj
I0403 13:51:08.847743   431 net.cpp:386] inception_3b/relu_pool_proj -> inception_3b/pool_proj (in-place)
I0403 13:51:08.848137   431 net.cpp:141] Setting up inception_3b/relu_pool_proj
I0403 13:51:08.848163   431 net.cpp:148] Top shape: 24 64 28 28 (1204224)
I0403 13:51:08.848178   431 net.cpp:156] Memory required for data: 773112864
I0403 13:51:08.848193   431 layer_factory.hpp:77] Creating layer inception_3b/output
I0403 13:51:08.848215   431 net.cpp:91] Creating Layer inception_3b/output
I0403 13:51:08.848232   431 net.cpp:425] inception_3b/output <- inception_3b/1x1
I0403 13:51:08.848248   431 net.cpp:425] inception_3b/output <- inception_3b/3x3
I0403 13:51:08.848264   431 net.cpp:425] inception_3b/output <- inception_3b/5x5
I0403 13:51:08.848279   431 net.cpp:425] inception_3b/output <- inception_3b/pool_proj
I0403 13:51:08.848299   431 net.cpp:399] inception_3b/output -> inception_3b/output
I0403 13:51:08.848342   431 net.cpp:141] Setting up inception_3b/output
I0403 13:51:08.848367   431 net.cpp:148] Top shape: 24 480 28 28 (9031680)
I0403 13:51:08.848382   431 net.cpp:156] Memory required for data: 809239584
I0403 13:51:08.848397   431 layer_factory.hpp:77] Creating layer pool3/3x3_s2
I0403 13:51:08.848414   431 net.cpp:91] Creating Layer pool3/3x3_s2
I0403 13:51:08.848430   431 net.cpp:425] pool3/3x3_s2 <- inception_3b/output
I0403 13:51:08.848464   431 net.cpp:399] pool3/3x3_s2 -> pool3/3x3_s2
I0403 13:51:08.848526   431 net.cpp:141] Setting up pool3/3x3_s2
I0403 13:51:08.848549   431 net.cpp:148] Top shape: 24 480 14 14 (2257920)
I0403 13:51:08.848564   431 net.cpp:156] Memory required for data: 818271264
I0403 13:51:08.848578   431 layer_factory.hpp:77] Creating layer pool3/3x3_s2_pool3/3x3_s2_0_split
I0403 13:51:08.848595   431 net.cpp:91] Creating Layer pool3/3x3_s2_pool3/3x3_s2_0_split
I0403 13:51:08.848610   431 net.cpp:425] pool3/3x3_s2_pool3/3x3_s2_0_split <- pool3/3x3_s2
I0403 13:51:08.848629   431 net.cpp:399] pool3/3x3_s2_pool3/3x3_s2_0_split -> pool3/3x3_s2_pool3/3x3_s2_0_split_0
I0403 13:51:08.848650   431 net.cpp:399] pool3/3x3_s2_pool3/3x3_s2_0_split -> pool3/3x3_s2_pool3/3x3_s2_0_split_1
I0403 13:51:08.848670   431 net.cpp:399] pool3/3x3_s2_pool3/3x3_s2_0_split -> pool3/3x3_s2_pool3/3x3_s2_0_split_2
I0403 13:51:08.848688   431 net.cpp:399] pool3/3x3_s2_pool3/3x3_s2_0_split -> pool3/3x3_s2_pool3/3x3_s2_0_split_3
I0403 13:51:08.848767   431 net.cpp:141] Setting up pool3/3x3_s2_pool3/3x3_s2_0_split
I0403 13:51:08.848790   431 net.cpp:148] Top shape: 24 480 14 14 (2257920)
I0403 13:51:08.848806   431 net.cpp:148] Top shape: 24 480 14 14 (2257920)
I0403 13:51:08.848822   431 net.cpp:148] Top shape: 24 480 14 14 (2257920)
I0403 13:51:08.848837   431 net.cpp:148] Top shape: 24 480 14 14 (2257920)
I0403 13:51:08.848851   431 net.cpp:156] Memory required for data: 854397984
I0403 13:51:08.848865   431 layer_factory.hpp:77] Creating layer inception_4a/1x1
I0403 13:51:08.848888   431 net.cpp:91] Creating Layer inception_4a/1x1
I0403 13:51:08.848906   431 net.cpp:425] inception_4a/1x1 <- pool3/3x3_s2_pool3/3x3_s2_0_split_0
I0403 13:51:08.848927   431 net.cpp:399] inception_4a/1x1 -> inception_4a/1x1
I0403 13:51:08.850533   431 net.cpp:141] Setting up inception_4a/1x1
I0403 13:51:08.850560   431 net.cpp:148] Top shape: 24 192 14 14 (903168)
I0403 13:51:08.850576   431 net.cpp:156] Memory required for data: 858010656
I0403 13:51:08.850594   431 layer_factory.hpp:77] Creating layer inception_4a/relu_1x1
I0403 13:51:08.850615   431 net.cpp:91] Creating Layer inception_4a/relu_1x1
I0403 13:51:08.850631   431 net.cpp:425] inception_4a/relu_1x1 <- inception_4a/1x1
I0403 13:51:08.850648   431 net.cpp:386] inception_4a/relu_1x1 -> inception_4a/1x1 (in-place)
I0403 13:51:08.850826   431 net.cpp:141] Setting up inception_4a/relu_1x1
I0403 13:51:08.850852   431 net.cpp:148] Top shape: 24 192 14 14 (903168)
I0403 13:51:08.850867   431 net.cpp:156] Memory required for data: 861623328
I0403 13:51:08.850881   431 layer_factory.hpp:77] Creating layer inception_4a/3x3_reduce
I0403 13:51:08.850904   431 net.cpp:91] Creating Layer inception_4a/3x3_reduce
I0403 13:51:08.850924   431 net.cpp:425] inception_4a/3x3_reduce <- pool3/3x3_s2_pool3/3x3_s2_0_split_1
I0403 13:51:08.850942   431 net.cpp:399] inception_4a/3x3_reduce -> inception_4a/3x3_reduce
I0403 13:51:08.852233   431 net.cpp:141] Setting up inception_4a/3x3_reduce
I0403 13:51:08.852262   431 net.cpp:148] Top shape: 24 96 14 14 (451584)
I0403 13:51:08.852277   431 net.cpp:156] Memory required for data: 863429664
I0403 13:51:08.852303   431 layer_factory.hpp:77] Creating layer inception_4a/relu_3x3_reduce
I0403 13:51:08.852324   431 net.cpp:91] Creating Layer inception_4a/relu_3x3_reduce
I0403 13:51:08.852339   431 net.cpp:425] inception_4a/relu_3x3_reduce <- inception_4a/3x3_reduce
I0403 13:51:08.852360   431 net.cpp:386] inception_4a/relu_3x3_reduce -> inception_4a/3x3_reduce (in-place)
I0403 13:51:08.852541   431 net.cpp:141] Setting up inception_4a/relu_3x3_reduce
I0403 13:51:08.852566   431 net.cpp:148] Top shape: 24 96 14 14 (451584)
I0403 13:51:08.852581   431 net.cpp:156] Memory required for data: 865236000
I0403 13:51:08.852596   431 layer_factory.hpp:77] Creating layer inception_4a/3x3
I0403 13:51:08.852619   431 net.cpp:91] Creating Layer inception_4a/3x3
I0403 13:51:08.852643   431 net.cpp:425] inception_4a/3x3 <- inception_4a/3x3_reduce
I0403 13:51:08.852664   431 net.cpp:399] inception_4a/3x3 -> inception_4a/3x3
I0403 13:51:08.855391   431 net.cpp:141] Setting up inception_4a/3x3
I0403 13:51:08.855418   431 net.cpp:148] Top shape: 24 208 14 14 (978432)
I0403 13:51:08.855435   431 net.cpp:156] Memory required for data: 869149728
I0403 13:51:08.855453   431 layer_factory.hpp:77] Creating layer inception_4a/relu_3x3
I0403 13:51:08.855473   431 net.cpp:91] Creating Layer inception_4a/relu_3x3
I0403 13:51:08.855490   431 net.cpp:425] inception_4a/relu_3x3 <- inception_4a/3x3
I0403 13:51:08.855506   431 net.cpp:386] inception_4a/relu_3x3 -> inception_4a/3x3 (in-place)
I0403 13:51:08.855787   431 net.cpp:141] Setting up inception_4a/relu_3x3
I0403 13:51:08.855813   431 net.cpp:148] Top shape: 24 208 14 14 (978432)
I0403 13:51:08.855828   431 net.cpp:156] Memory required for data: 873063456
I0403 13:51:08.855842   431 layer_factory.hpp:77] Creating layer inception_4a/5x5_reduce
I0403 13:51:08.855864   431 net.cpp:91] Creating Layer inception_4a/5x5_reduce
I0403 13:51:08.855880   431 net.cpp:425] inception_4a/5x5_reduce <- pool3/3x3_s2_pool3/3x3_s2_0_split_2
I0403 13:51:08.855901   431 net.cpp:399] inception_4a/5x5_reduce -> inception_4a/5x5_reduce
I0403 13:51:08.856950   431 net.cpp:141] Setting up inception_4a/5x5_reduce
I0403 13:51:08.856977   431 net.cpp:148] Top shape: 24 16 14 14 (75264)
I0403 13:51:08.856993   431 net.cpp:156] Memory required for data: 873364512
I0403 13:51:08.857012   431 layer_factory.hpp:77] Creating layer inception_4a/relu_5x5_reduce
I0403 13:51:08.857029   431 net.cpp:91] Creating Layer inception_4a/relu_5x5_reduce
I0403 13:51:08.857044   431 net.cpp:425] inception_4a/relu_5x5_reduce <- inception_4a/5x5_reduce
I0403 13:51:08.857061   431 net.cpp:386] inception_4a/relu_5x5_reduce -> inception_4a/5x5_reduce (in-place)
I0403 13:51:08.857246   431 net.cpp:141] Setting up inception_4a/relu_5x5_reduce
I0403 13:51:08.857272   431 net.cpp:148] Top shape: 24 16 14 14 (75264)
I0403 13:51:08.857288   431 net.cpp:156] Memory required for data: 873665568
I0403 13:51:08.857302   431 layer_factory.hpp:77] Creating layer inception_4a/5x5
I0403 13:51:08.857323   431 net.cpp:91] Creating Layer inception_4a/5x5
I0403 13:51:08.857342   431 net.cpp:425] inception_4a/5x5 <- inception_4a/5x5_reduce
I0403 13:51:08.857359   431 net.cpp:399] inception_4a/5x5 -> inception_4a/5x5
I0403 13:51:08.858469   431 net.cpp:141] Setting up inception_4a/5x5
I0403 13:51:08.858495   431 net.cpp:148] Top shape: 24 48 14 14 (225792)
I0403 13:51:08.858510   431 net.cpp:156] Memory required for data: 874568736
I0403 13:51:08.858528   431 layer_factory.hpp:77] Creating layer inception_4a/relu_5x5
I0403 13:51:08.858546   431 net.cpp:91] Creating Layer inception_4a/relu_5x5
I0403 13:51:08.858561   431 net.cpp:425] inception_4a/relu_5x5 <- inception_4a/5x5
I0403 13:51:08.858579   431 net.cpp:386] inception_4a/relu_5x5 -> inception_4a/5x5 (in-place)
I0403 13:51:08.858755   431 net.cpp:141] Setting up inception_4a/relu_5x5
I0403 13:51:08.858779   431 net.cpp:148] Top shape: 24 48 14 14 (225792)
I0403 13:51:08.858794   431 net.cpp:156] Memory required for data: 875471904
I0403 13:51:08.858809   431 layer_factory.hpp:77] Creating layer inception_4a/pool
I0403 13:51:08.858829   431 net.cpp:91] Creating Layer inception_4a/pool
I0403 13:51:08.858844   431 net.cpp:425] inception_4a/pool <- pool3/3x3_s2_pool3/3x3_s2_0_split_3
I0403 13:51:08.858862   431 net.cpp:399] inception_4a/pool -> inception_4a/pool
I0403 13:51:08.858922   431 net.cpp:141] Setting up inception_4a/pool
I0403 13:51:08.858945   431 net.cpp:148] Top shape: 24 480 14 14 (2257920)
I0403 13:51:08.858959   431 net.cpp:156] Memory required for data: 884503584
I0403 13:51:08.858973   431 layer_factory.hpp:77] Creating layer inception_4a/pool_proj
I0403 13:51:08.858994   431 net.cpp:91] Creating Layer inception_4a/pool_proj
I0403 13:51:08.859010   431 net.cpp:425] inception_4a/pool_proj <- inception_4a/pool
I0403 13:51:08.859030   431 net.cpp:399] inception_4a/pool_proj -> inception_4a/pool_proj
I0403 13:51:08.860240   431 net.cpp:141] Setting up inception_4a/pool_proj
I0403 13:51:08.860267   431 net.cpp:148] Top shape: 24 64 14 14 (301056)
I0403 13:51:08.860296   431 net.cpp:156] Memory required for data: 885707808
I0403 13:51:08.860316   431 layer_factory.hpp:77] Creating layer inception_4a/relu_pool_proj
I0403 13:51:08.860332   431 net.cpp:91] Creating Layer inception_4a/relu_pool_proj
I0403 13:51:08.860348   431 net.cpp:425] inception_4a/relu_pool_proj <- inception_4a/pool_proj
I0403 13:51:08.860368   431 net.cpp:386] inception_4a/relu_pool_proj -> inception_4a/pool_proj (in-place)
I0403 13:51:08.860649   431 net.cpp:141] Setting up inception_4a/relu_pool_proj
I0403 13:51:08.860674   431 net.cpp:148] Top shape: 24 64 14 14 (301056)
I0403 13:51:08.860689   431 net.cpp:156] Memory required for data: 886912032
I0403 13:51:08.860703   431 layer_factory.hpp:77] Creating layer inception_4a/output
I0403 13:51:08.860720   431 net.cpp:91] Creating Layer inception_4a/output
I0403 13:51:08.860735   431 net.cpp:425] inception_4a/output <- inception_4a/1x1
I0403 13:51:08.860751   431 net.cpp:425] inception_4a/output <- inception_4a/3x3
I0403 13:51:08.860766   431 net.cpp:425] inception_4a/output <- inception_4a/5x5
I0403 13:51:08.860781   431 net.cpp:425] inception_4a/output <- inception_4a/pool_proj
I0403 13:51:08.860800   431 net.cpp:399] inception_4a/output -> inception_4a/output
I0403 13:51:08.860842   431 net.cpp:141] Setting up inception_4a/output
I0403 13:51:08.860867   431 net.cpp:148] Top shape: 24 512 14 14 (2408448)
I0403 13:51:08.860882   431 net.cpp:156] Memory required for data: 896545824
I0403 13:51:08.860898   431 layer_factory.hpp:77] Creating layer inception_4a/output_inception_4a/output_0_split
I0403 13:51:08.860914   431 net.cpp:91] Creating Layer inception_4a/output_inception_4a/output_0_split
I0403 13:51:08.860929   431 net.cpp:425] inception_4a/output_inception_4a/output_0_split <- inception_4a/output
I0403 13:51:08.860960   431 net.cpp:399] inception_4a/output_inception_4a/output_0_split -> inception_4a/output_inception_4a/output_0_split_0
I0403 13:51:08.860981   431 net.cpp:399] inception_4a/output_inception_4a/output_0_split -> inception_4a/output_inception_4a/output_0_split_1
I0403 13:51:08.861003   431 net.cpp:399] inception_4a/output_inception_4a/output_0_split -> inception_4a/output_inception_4a/output_0_split_2
I0403 13:51:08.861024   431 net.cpp:399] inception_4a/output_inception_4a/output_0_split -> inception_4a/output_inception_4a/output_0_split_3
I0403 13:51:08.861044   431 net.cpp:399] inception_4a/output_inception_4a/output_0_split -> inception_4a/output_inception_4a/output_0_split_4
I0403 13:51:08.861136   431 net.cpp:141] Setting up inception_4a/output_inception_4a/output_0_split
I0403 13:51:08.861161   431 net.cpp:148] Top shape: 24 512 14 14 (2408448)
I0403 13:51:08.861178   431 net.cpp:148] Top shape: 24 512 14 14 (2408448)
I0403 13:51:08.861194   431 net.cpp:148] Top shape: 24 512 14 14 (2408448)
I0403 13:51:08.861214   431 net.cpp:148] Top shape: 24 512 14 14 (2408448)
I0403 13:51:08.861232   431 net.cpp:148] Top shape: 24 512 14 14 (2408448)
I0403 13:51:08.861245   431 net.cpp:156] Memory required for data: 944714784
I0403 13:51:08.861259   431 layer_factory.hpp:77] Creating layer loss1/ave_pool
I0403 13:51:08.861289   431 net.cpp:91] Creating Layer loss1/ave_pool
I0403 13:51:08.861304   431 net.cpp:425] loss1/ave_pool <- inception_4a/output_inception_4a/output_0_split_0
I0403 13:51:08.861321   431 net.cpp:399] loss1/ave_pool -> loss1/ave_pool
I0403 13:51:08.861528   431 net.cpp:141] Setting up loss1/ave_pool
I0403 13:51:08.861553   431 net.cpp:148] Top shape: 24 512 4 4 (196608)
I0403 13:51:08.861567   431 net.cpp:156] Memory required for data: 945501216
I0403 13:51:08.861582   431 layer_factory.hpp:77] Creating layer loss1/conv
I0403 13:51:08.861603   431 net.cpp:91] Creating Layer loss1/conv
I0403 13:51:08.861620   431 net.cpp:425] loss1/conv <- loss1/ave_pool
I0403 13:51:08.861640   431 net.cpp:399] loss1/conv -> loss1/conv
I0403 13:51:08.863059   431 net.cpp:141] Setting up loss1/conv
I0403 13:51:08.863085   431 net.cpp:148] Top shape: 24 128 4 4 (49152)
I0403 13:51:08.863113   431 net.cpp:156] Memory required for data: 945697824
I0403 13:51:08.863131   431 layer_factory.hpp:77] Creating layer loss1/relu_conv
I0403 13:51:08.863152   431 net.cpp:91] Creating Layer loss1/relu_conv
I0403 13:51:08.863168   431 net.cpp:425] loss1/relu_conv <- loss1/conv
I0403 13:51:08.863184   431 net.cpp:386] loss1/relu_conv -> loss1/conv (in-place)
I0403 13:51:08.863472   431 net.cpp:141] Setting up loss1/relu_conv
I0403 13:51:08.863498   431 net.cpp:148] Top shape: 24 128 4 4 (49152)
I0403 13:51:08.863512   431 net.cpp:156] Memory required for data: 945894432
I0403 13:51:08.863528   431 layer_factory.hpp:77] Creating layer loss1/fc
I0403 13:51:08.863553   431 net.cpp:91] Creating Layer loss1/fc
I0403 13:51:08.863569   431 net.cpp:425] loss1/fc <- loss1/conv
I0403 13:51:08.863590   431 net.cpp:399] loss1/fc -> loss1/fc
I0403 13:51:08.881222   431 net.cpp:141] Setting up loss1/fc
I0403 13:51:08.881279   431 net.cpp:148] Top shape: 24 1024 (24576)
I0403 13:51:08.881294   431 net.cpp:156] Memory required for data: 945992736
I0403 13:51:08.881314   431 layer_factory.hpp:77] Creating layer loss1/relu_fc
I0403 13:51:08.881333   431 net.cpp:91] Creating Layer loss1/relu_fc
I0403 13:51:08.881350   431 net.cpp:425] loss1/relu_fc <- loss1/fc
I0403 13:51:08.881369   431 net.cpp:386] loss1/relu_fc -> loss1/fc (in-place)
I0403 13:51:08.881580   431 net.cpp:141] Setting up loss1/relu_fc
I0403 13:51:08.881605   431 net.cpp:148] Top shape: 24 1024 (24576)
I0403 13:51:08.881619   431 net.cpp:156] Memory required for data: 946091040
I0403 13:51:08.881633   431 layer_factory.hpp:77] Creating layer loss1/drop_fc
I0403 13:51:08.881661   431 net.cpp:91] Creating Layer loss1/drop_fc
I0403 13:51:08.881678   431 net.cpp:425] loss1/drop_fc <- loss1/fc
I0403 13:51:08.881696   431 net.cpp:386] loss1/drop_fc -> loss1/fc (in-place)
I0403 13:51:08.881747   431 net.cpp:141] Setting up loss1/drop_fc
I0403 13:51:08.881770   431 net.cpp:148] Top shape: 24 1024 (24576)
I0403 13:51:08.881785   431 net.cpp:156] Memory required for data: 946189344
I0403 13:51:08.881800   431 layer_factory.hpp:77] Creating layer loss1/classifier_plantvillage
I0403 13:51:08.881819   431 net.cpp:91] Creating Layer loss1/classifier_plantvillage
I0403 13:51:08.881834   431 net.cpp:425] loss1/classifier_plantvillage <- loss1/fc
I0403 13:51:08.881855   431 net.cpp:399] loss1/classifier_plantvillage -> loss1/classifier_plantvillage
I0403 13:51:08.882823   431 net.cpp:141] Setting up loss1/classifier_plantvillage
I0403 13:51:08.882850   431 net.cpp:148] Top shape: 24 38 (912)
I0403 13:51:08.882865   431 net.cpp:156] Memory required for data: 946192992
I0403 13:51:08.882884   431 layer_factory.hpp:77] Creating layer loss1/classifier_plantvillage_loss1/classifier_plantvillage_0_split
I0403 13:51:08.882905   431 net.cpp:91] Creating Layer loss1/classifier_plantvillage_loss1/classifier_plantvillage_0_split
I0403 13:51:08.882920   431 net.cpp:425] loss1/classifier_plantvillage_loss1/classifier_plantvillage_0_split <- loss1/classifier_plantvillage
I0403 13:51:08.882937   431 net.cpp:399] loss1/classifier_plantvillage_loss1/classifier_plantvillage_0_split -> loss1/classifier_plantvillage_loss1/classifier_plantvillage_0_split_0
I0403 13:51:08.882956   431 net.cpp:399] loss1/classifier_plantvillage_loss1/classifier_plantvillage_0_split -> loss1/classifier_plantvillage_loss1/classifier_plantvillage_0_split_1
I0403 13:51:08.882977   431 net.cpp:399] loss1/classifier_plantvillage_loss1/classifier_plantvillage_0_split -> loss1/classifier_plantvillage_loss1/classifier_plantvillage_0_split_2
I0403 13:51:08.883043   431 net.cpp:141] Setting up loss1/classifier_plantvillage_loss1/classifier_plantvillage_0_split
I0403 13:51:08.883066   431 net.cpp:148] Top shape: 24 38 (912)
I0403 13:51:08.883081   431 net.cpp:148] Top shape: 24 38 (912)
I0403 13:51:08.883096   431 net.cpp:148] Top shape: 24 38 (912)
I0403 13:51:08.883111   431 net.cpp:156] Memory required for data: 946203936
I0403 13:51:08.883126   431 layer_factory.hpp:77] Creating layer inception_4b/1x1
I0403 13:51:08.883146   431 net.cpp:91] Creating Layer inception_4b/1x1
I0403 13:51:08.883184   431 net.cpp:425] inception_4b/1x1 <- inception_4a/output_inception_4a/output_0_split_1
I0403 13:51:08.883206   431 net.cpp:399] inception_4b/1x1 -> inception_4b/1x1
I0403 13:51:08.884930   431 net.cpp:141] Setting up inception_4b/1x1
I0403 13:51:08.884958   431 net.cpp:148] Top shape: 24 160 14 14 (752640)
I0403 13:51:08.884975   431 net.cpp:156] Memory required for data: 949214496
I0403 13:51:08.884994   431 layer_factory.hpp:77] Creating layer inception_4b/relu_1x1
I0403 13:51:08.885012   431 net.cpp:91] Creating Layer inception_4b/relu_1x1
I0403 13:51:08.885028   431 net.cpp:425] inception_4b/relu_1x1 <- inception_4b/1x1
I0403 13:51:08.885045   431 net.cpp:386] inception_4b/relu_1x1 -> inception_4b/1x1 (in-place)
I0403 13:51:08.885229   431 net.cpp:141] Setting up inception_4b/relu_1x1
I0403 13:51:08.885256   431 net.cpp:148] Top shape: 24 160 14 14 (752640)
I0403 13:51:08.885270   431 net.cpp:156] Memory required for data: 952225056
I0403 13:51:08.885285   431 layer_factory.hpp:77] Creating layer inception_4b/3x3_reduce
I0403 13:51:08.885306   431 net.cpp:91] Creating Layer inception_4b/3x3_reduce
I0403 13:51:08.885324   431 net.cpp:425] inception_4b/3x3_reduce <- inception_4a/output_inception_4a/output_0_split_2
I0403 13:51:08.885341   431 net.cpp:399] inception_4b/3x3_reduce -> inception_4b/3x3_reduce
I0403 13:51:08.886719   431 net.cpp:141] Setting up inception_4b/3x3_reduce
I0403 13:51:08.886749   431 net.cpp:148] Top shape: 24 112 14 14 (526848)
I0403 13:51:08.886765   431 net.cpp:156] Memory required for data: 954332448
I0403 13:51:08.886785   431 layer_factory.hpp:77] Creating layer inception_4b/relu_3x3_reduce
I0403 13:51:08.886813   431 net.cpp:91] Creating Layer inception_4b/relu_3x3_reduce
I0403 13:51:08.886831   431 net.cpp:425] inception_4b/relu_3x3_reduce <- inception_4b/3x3_reduce
I0403 13:51:08.886850   431 net.cpp:386] inception_4b/relu_3x3_reduce -> inception_4b/3x3_reduce (in-place)
I0403 13:51:08.887150   431 net.cpp:141] Setting up inception_4b/relu_3x3_reduce
I0403 13:51:08.887179   431 net.cpp:148] Top shape: 24 112 14 14 (526848)
I0403 13:51:08.887195   431 net.cpp:156] Memory required for data: 956439840
I0403 13:51:08.887213   431 layer_factory.hpp:77] Creating layer inception_4b/3x3
I0403 13:51:08.887236   431 net.cpp:91] Creating Layer inception_4b/3x3
I0403 13:51:08.887253   431 net.cpp:425] inception_4b/3x3 <- inception_4b/3x3_reduce
I0403 13:51:08.887271   431 net.cpp:399] inception_4b/3x3 -> inception_4b/3x3
I0403 13:51:08.890240   431 net.cpp:141] Setting up inception_4b/3x3
I0403 13:51:08.890269   431 net.cpp:148] Top shape: 24 224 14 14 (1053696)
I0403 13:51:08.890283   431 net.cpp:156] Memory required for data: 960654624
I0403 13:51:08.890301   431 layer_factory.hpp:77] Creating layer inception_4b/relu_3x3
I0403 13:51:08.890321   431 net.cpp:91] Creating Layer inception_4b/relu_3x3
I0403 13:51:08.890338   431 net.cpp:425] inception_4b/relu_3x3 <- inception_4b/3x3
I0403 13:51:08.890355   431 net.cpp:386] inception_4b/relu_3x3 -> inception_4b/3x3 (in-place)
I0403 13:51:08.890537   431 net.cpp:141] Setting up inception_4b/relu_3x3
I0403 13:51:08.890560   431 net.cpp:148] Top shape: 24 224 14 14 (1053696)
I0403 13:51:08.890574   431 net.cpp:156] Memory required for data: 964869408
I0403 13:51:08.890588   431 layer_factory.hpp:77] Creating layer inception_4b/5x5_reduce
I0403 13:51:08.890614   431 net.cpp:91] Creating Layer inception_4b/5x5_reduce
I0403 13:51:08.890630   431 net.cpp:425] inception_4b/5x5_reduce <- inception_4a/output_inception_4a/output_0_split_3
I0403 13:51:08.890650   431 net.cpp:399] inception_4b/5x5_reduce -> inception_4b/5x5_reduce
I0403 13:51:08.891785   431 net.cpp:141] Setting up inception_4b/5x5_reduce
I0403 13:51:08.891814   431 net.cpp:148] Top shape: 24 24 14 14 (112896)
I0403 13:51:08.891830   431 net.cpp:156] Memory required for data: 965320992
I0403 13:51:08.891849   431 layer_factory.hpp:77] Creating layer inception_4b/relu_5x5_reduce
I0403 13:51:08.891865   431 net.cpp:91] Creating Layer inception_4b/relu_5x5_reduce
I0403 13:51:08.891896   431 net.cpp:425] inception_4b/relu_5x5_reduce <- inception_4b/5x5_reduce
I0403 13:51:08.891916   431 net.cpp:386] inception_4b/relu_5x5_reduce -> inception_4b/5x5_reduce (in-place)
I0403 13:51:08.892102   431 net.cpp:141] Setting up inception_4b/relu_5x5_reduce
I0403 13:51:08.892125   431 net.cpp:148] Top shape: 24 24 14 14 (112896)
I0403 13:51:08.892139   431 net.cpp:156] Memory required for data: 965772576
I0403 13:51:08.892154   431 layer_factory.hpp:77] Creating layer inception_4b/5x5
I0403 13:51:08.892175   431 net.cpp:91] Creating Layer inception_4b/5x5
I0403 13:51:08.892192   431 net.cpp:425] inception_4b/5x5 <- inception_4b/5x5_reduce
I0403 13:51:08.892217   431 net.cpp:399] inception_4b/5x5 -> inception_4b/5x5
I0403 13:51:08.893465   431 net.cpp:141] Setting up inception_4b/5x5
I0403 13:51:08.893493   431 net.cpp:148] Top shape: 24 64 14 14 (301056)
I0403 13:51:08.893509   431 net.cpp:156] Memory required for data: 966976800
I0403 13:51:08.893528   431 layer_factory.hpp:77] Creating layer inception_4b/relu_5x5
I0403 13:51:08.893545   431 net.cpp:91] Creating Layer inception_4b/relu_5x5
I0403 13:51:08.893561   431 net.cpp:425] inception_4b/relu_5x5 <- inception_4b/5x5
I0403 13:51:08.893579   431 net.cpp:386] inception_4b/relu_5x5 -> inception_4b/5x5 (in-place)
I0403 13:51:08.893857   431 net.cpp:141] Setting up inception_4b/relu_5x5
I0403 13:51:08.893885   431 net.cpp:148] Top shape: 24 64 14 14 (301056)
I0403 13:51:08.893901   431 net.cpp:156] Memory required for data: 968181024
I0403 13:51:08.893916   431 layer_factory.hpp:77] Creating layer inception_4b/pool
I0403 13:51:08.893934   431 net.cpp:91] Creating Layer inception_4b/pool
I0403 13:51:08.893949   431 net.cpp:425] inception_4b/pool <- inception_4a/output_inception_4a/output_0_split_4
I0403 13:51:08.893966   431 net.cpp:399] inception_4b/pool -> inception_4b/pool
I0403 13:51:08.894032   431 net.cpp:141] Setting up inception_4b/pool
I0403 13:51:08.894055   431 net.cpp:148] Top shape: 24 512 14 14 (2408448)
I0403 13:51:08.894070   431 net.cpp:156] Memory required for data: 977814816
I0403 13:51:08.894084   431 layer_factory.hpp:77] Creating layer inception_4b/pool_proj
I0403 13:51:08.894105   431 net.cpp:91] Creating Layer inception_4b/pool_proj
I0403 13:51:08.894122   431 net.cpp:425] inception_4b/pool_proj <- inception_4b/pool
I0403 13:51:08.894143   431 net.cpp:399] inception_4b/pool_proj -> inception_4b/pool_proj
I0403 13:51:08.895359   431 net.cpp:141] Setting up inception_4b/pool_proj
I0403 13:51:08.895390   431 net.cpp:148] Top shape: 24 64 14 14 (301056)
I0403 13:51:08.895406   431 net.cpp:156] Memory required for data: 979019040
I0403 13:51:08.895423   431 layer_factory.hpp:77] Creating layer inception_4b/relu_pool_proj
I0403 13:51:08.895442   431 net.cpp:91] Creating Layer inception_4b/relu_pool_proj
I0403 13:51:08.895457   431 net.cpp:425] inception_4b/relu_pool_proj <- inception_4b/pool_proj
I0403 13:51:08.895474   431 net.cpp:386] inception_4b/relu_pool_proj -> inception_4b/pool_proj (in-place)
I0403 13:51:08.895658   431 net.cpp:141] Setting up inception_4b/relu_pool_proj
I0403 13:51:08.895681   431 net.cpp:148] Top shape: 24 64 14 14 (301056)
I0403 13:51:08.895695   431 net.cpp:156] Memory required for data: 980223264
I0403 13:51:08.895709   431 layer_factory.hpp:77] Creating layer inception_4b/output
I0403 13:51:08.895726   431 net.cpp:91] Creating Layer inception_4b/output
I0403 13:51:08.895741   431 net.cpp:425] inception_4b/output <- inception_4b/1x1
I0403 13:51:08.895757   431 net.cpp:425] inception_4b/output <- inception_4b/3x3
I0403 13:51:08.895772   431 net.cpp:425] inception_4b/output <- inception_4b/5x5
I0403 13:51:08.895788   431 net.cpp:425] inception_4b/output <- inception_4b/pool_proj
I0403 13:51:08.895807   431 net.cpp:399] inception_4b/output -> inception_4b/output
I0403 13:51:08.895851   431 net.cpp:141] Setting up inception_4b/output
I0403 13:51:08.895876   431 net.cpp:148] Top shape: 24 512 14 14 (2408448)
I0403 13:51:08.895891   431 net.cpp:156] Memory required for data: 989857056
I0403 13:51:08.895920   431 layer_factory.hpp:77] Creating layer inception_4b/output_inception_4b/output_0_split
I0403 13:51:08.895948   431 net.cpp:91] Creating Layer inception_4b/output_inception_4b/output_0_split
I0403 13:51:08.895966   431 net.cpp:425] inception_4b/output_inception_4b/output_0_split <- inception_4b/output
I0403 13:51:08.895983   431 net.cpp:399] inception_4b/output_inception_4b/output_0_split -> inception_4b/output_inception_4b/output_0_split_0
I0403 13:51:08.896006   431 net.cpp:399] inception_4b/output_inception_4b/output_0_split -> inception_4b/output_inception_4b/output_0_split_1
I0403 13:51:08.896028   431 net.cpp:399] inception_4b/output_inception_4b/output_0_split -> inception_4b/output_inception_4b/output_0_split_2
I0403 13:51:08.896047   431 net.cpp:399] inception_4b/output_inception_4b/output_0_split -> inception_4b/output_inception_4b/output_0_split_3
I0403 13:51:08.896131   431 net.cpp:141] Setting up inception_4b/output_inception_4b/output_0_split
I0403 13:51:08.896154   431 net.cpp:148] Top shape: 24 512 14 14 (2408448)
I0403 13:51:08.896170   431 net.cpp:148] Top shape: 24 512 14 14 (2408448)
I0403 13:51:08.896186   431 net.cpp:148] Top shape: 24 512 14 14 (2408448)
I0403 13:51:08.896201   431 net.cpp:148] Top shape: 24 512 14 14 (2408448)
I0403 13:51:08.896220   431 net.cpp:156] Memory required for data: 1028392224
I0403 13:51:08.896236   431 layer_factory.hpp:77] Creating layer inception_4c/1x1
I0403 13:51:08.896270   431 net.cpp:91] Creating Layer inception_4c/1x1
I0403 13:51:08.896286   431 net.cpp:425] inception_4c/1x1 <- inception_4b/output_inception_4b/output_0_split_0
I0403 13:51:08.896306   431 net.cpp:399] inception_4c/1x1 -> inception_4c/1x1
I0403 13:51:08.897748   431 net.cpp:141] Setting up inception_4c/1x1
I0403 13:51:08.897775   431 net.cpp:148] Top shape: 24 128 14 14 (602112)
I0403 13:51:08.897790   431 net.cpp:156] Memory required for data: 1030800672
I0403 13:51:08.897807   431 layer_factory.hpp:77] Creating layer inception_4c/relu_1x1
I0403 13:51:08.897827   431 net.cpp:91] Creating Layer inception_4c/relu_1x1
I0403 13:51:08.897843   431 net.cpp:425] inception_4c/relu_1x1 <- inception_4c/1x1
I0403 13:51:08.897860   431 net.cpp:386] inception_4c/relu_1x1 -> inception_4c/1x1 (in-place)
I0403 13:51:08.898038   431 net.cpp:141] Setting up inception_4c/relu_1x1
I0403 13:51:08.898062   431 net.cpp:148] Top shape: 24 128 14 14 (602112)
I0403 13:51:08.898077   431 net.cpp:156] Memory required for data: 1033209120
I0403 13:51:08.898092   431 layer_factory.hpp:77] Creating layer inception_4c/3x3_reduce
I0403 13:51:08.898114   431 net.cpp:91] Creating Layer inception_4c/3x3_reduce
I0403 13:51:08.898131   431 net.cpp:425] inception_4c/3x3_reduce <- inception_4b/output_inception_4b/output_0_split_1
I0403 13:51:08.898152   431 net.cpp:399] inception_4c/3x3_reduce -> inception_4c/3x3_reduce
I0403 13:51:08.900094   431 net.cpp:141] Setting up inception_4c/3x3_reduce
I0403 13:51:08.900121   431 net.cpp:148] Top shape: 24 128 14 14 (602112)
I0403 13:51:08.900136   431 net.cpp:156] Memory required for data: 1035617568
I0403 13:51:08.900156   431 layer_factory.hpp:77] Creating layer inception_4c/relu_3x3_reduce
I0403 13:51:08.900174   431 net.cpp:91] Creating Layer inception_4c/relu_3x3_reduce
I0403 13:51:08.900192   431 net.cpp:425] inception_4c/relu_3x3_reduce <- inception_4c/3x3_reduce
I0403 13:51:08.900212   431 net.cpp:386] inception_4c/relu_3x3_reduce -> inception_4c/3x3_reduce (in-place)
I0403 13:51:08.900516   431 net.cpp:141] Setting up inception_4c/relu_3x3_reduce
I0403 13:51:08.900542   431 net.cpp:148] Top shape: 24 128 14 14 (602112)
I0403 13:51:08.900555   431 net.cpp:156] Memory required for data: 1038026016
I0403 13:51:08.900571   431 layer_factory.hpp:77] Creating layer inception_4c/3x3
I0403 13:51:08.900595   431 net.cpp:91] Creating Layer inception_4c/3x3
I0403 13:51:08.900614   431 net.cpp:425] inception_4c/3x3 <- inception_4c/3x3_reduce
I0403 13:51:08.900632   431 net.cpp:399] inception_4c/3x3 -> inception_4c/3x3
I0403 13:51:08.904281   431 net.cpp:141] Setting up inception_4c/3x3
I0403 13:51:08.904325   431 net.cpp:148] Top shape: 24 256 14 14 (1204224)
I0403 13:51:08.904341   431 net.cpp:156] Memory required for data: 1042842912
I0403 13:51:08.904374   431 layer_factory.hpp:77] Creating layer inception_4c/relu_3x3
I0403 13:51:08.904394   431 net.cpp:91] Creating Layer inception_4c/relu_3x3
I0403 13:51:08.904410   431 net.cpp:425] inception_4c/relu_3x3 <- inception_4c/3x3
I0403 13:51:08.904428   431 net.cpp:386] inception_4c/relu_3x3 -> inception_4c/3x3 (in-place)
I0403 13:51:08.904610   431 net.cpp:141] Setting up inception_4c/relu_3x3
I0403 13:51:08.904636   431 net.cpp:148] Top shape: 24 256 14 14 (1204224)
I0403 13:51:08.904652   431 net.cpp:156] Memory required for data: 1047659808
I0403 13:51:08.904666   431 layer_factory.hpp:77] Creating layer inception_4c/5x5_reduce
I0403 13:51:08.904690   431 net.cpp:91] Creating Layer inception_4c/5x5_reduce
I0403 13:51:08.904706   431 net.cpp:425] inception_4c/5x5_reduce <- inception_4b/output_inception_4b/output_0_split_2
I0403 13:51:08.904724   431 net.cpp:399] inception_4c/5x5_reduce -> inception_4c/5x5_reduce
I0403 13:51:08.905797   431 net.cpp:141] Setting up inception_4c/5x5_reduce
I0403 13:51:08.905827   431 net.cpp:148] Top shape: 24 24 14 14 (112896)
I0403 13:51:08.905841   431 net.cpp:156] Memory required for data: 1048111392
I0403 13:51:08.905860   431 layer_factory.hpp:77] Creating layer inception_4c/relu_5x5_reduce
I0403 13:51:08.905877   431 net.cpp:91] Creating Layer inception_4c/relu_5x5_reduce
I0403 13:51:08.905894   431 net.cpp:425] inception_4c/relu_5x5_reduce <- inception_4c/5x5_reduce
I0403 13:51:08.905912   431 net.cpp:386] inception_4c/relu_5x5_reduce -> inception_4c/5x5_reduce (in-place)
I0403 13:51:08.906095   431 net.cpp:141] Setting up inception_4c/relu_5x5_reduce
I0403 13:51:08.906118   431 net.cpp:148] Top shape: 24 24 14 14 (112896)
I0403 13:51:08.906133   431 net.cpp:156] Memory required for data: 1048562976
I0403 13:51:08.906148   431 layer_factory.hpp:77] Creating layer inception_4c/5x5
I0403 13:51:08.906172   431 net.cpp:91] Creating Layer inception_4c/5x5
I0403 13:51:08.906189   431 net.cpp:425] inception_4c/5x5 <- inception_4c/5x5_reduce
I0403 13:51:08.906214   431 net.cpp:399] inception_4c/5x5 -> inception_4c/5x5
I0403 13:51:08.907441   431 net.cpp:141] Setting up inception_4c/5x5
I0403 13:51:08.907469   431 net.cpp:148] Top shape: 24 64 14 14 (301056)
I0403 13:51:08.907482   431 net.cpp:156] Memory required for data: 1049767200
I0403 13:51:08.907500   431 layer_factory.hpp:77] Creating layer inception_4c/relu_5x5
I0403 13:51:08.907517   431 net.cpp:91] Creating Layer inception_4c/relu_5x5
I0403 13:51:08.907533   431 net.cpp:425] inception_4c/relu_5x5 <- inception_4c/5x5
I0403 13:51:08.907552   431 net.cpp:386] inception_4c/relu_5x5 -> inception_4c/5x5 (in-place)
I0403 13:51:08.907837   431 net.cpp:141] Setting up inception_4c/relu_5x5
I0403 13:51:08.907863   431 net.cpp:148] Top shape: 24 64 14 14 (301056)
I0403 13:51:08.907877   431 net.cpp:156] Memory required for data: 1050971424
I0403 13:51:08.907891   431 layer_factory.hpp:77] Creating layer inception_4c/pool
I0403 13:51:08.907909   431 net.cpp:91] Creating Layer inception_4c/pool
I0403 13:51:08.907924   431 net.cpp:425] inception_4c/pool <- inception_4b/output_inception_4b/output_0_split_3
I0403 13:51:08.907944   431 net.cpp:399] inception_4c/pool -> inception_4c/pool
I0403 13:51:08.908009   431 net.cpp:141] Setting up inception_4c/pool
I0403 13:51:08.908033   431 net.cpp:148] Top shape: 24 512 14 14 (2408448)
I0403 13:51:08.908048   431 net.cpp:156] Memory required for data: 1060605216
I0403 13:51:08.908062   431 layer_factory.hpp:77] Creating layer inception_4c/pool_proj
I0403 13:51:08.908084   431 net.cpp:91] Creating Layer inception_4c/pool_proj
I0403 13:51:08.908100   431 net.cpp:425] inception_4c/pool_proj <- inception_4c/pool
I0403 13:51:08.908119   431 net.cpp:399] inception_4c/pool_proj -> inception_4c/pool_proj
I0403 13:51:08.909370   431 net.cpp:141] Setting up inception_4c/pool_proj
I0403 13:51:08.909400   431 net.cpp:148] Top shape: 24 64 14 14 (301056)
I0403 13:51:08.909428   431 net.cpp:156] Memory required for data: 1061809440
I0403 13:51:08.909448   431 layer_factory.hpp:77] Creating layer inception_4c/relu_pool_proj
I0403 13:51:08.909466   431 net.cpp:91] Creating Layer inception_4c/relu_pool_proj
I0403 13:51:08.909482   431 net.cpp:425] inception_4c/relu_pool_proj <- inception_4c/pool_proj
I0403 13:51:08.909497   431 net.cpp:386] inception_4c/relu_pool_proj -> inception_4c/pool_proj (in-place)
I0403 13:51:08.909700   431 net.cpp:141] Setting up inception_4c/relu_pool_proj
I0403 13:51:08.909725   431 net.cpp:148] Top shape: 24 64 14 14 (301056)
I0403 13:51:08.909739   431 net.cpp:156] Memory required for data: 1063013664
I0403 13:51:08.909755   431 layer_factory.hpp:77] Creating layer inception_4c/output
I0403 13:51:08.909771   431 net.cpp:91] Creating Layer inception_4c/output
I0403 13:51:08.909787   431 net.cpp:425] inception_4c/output <- inception_4c/1x1
I0403 13:51:08.909803   431 net.cpp:425] inception_4c/output <- inception_4c/3x3
I0403 13:51:08.909819   431 net.cpp:425] inception_4c/output <- inception_4c/5x5
I0403 13:51:08.909835   431 net.cpp:425] inception_4c/output <- inception_4c/pool_proj
I0403 13:51:08.909857   431 net.cpp:399] inception_4c/output -> inception_4c/output
I0403 13:51:08.909903   431 net.cpp:141] Setting up inception_4c/output
I0403 13:51:08.909925   431 net.cpp:148] Top shape: 24 512 14 14 (2408448)
I0403 13:51:08.909940   431 net.cpp:156] Memory required for data: 1072647456
I0403 13:51:08.909955   431 layer_factory.hpp:77] Creating layer inception_4c/output_inception_4c/output_0_split
I0403 13:51:08.909973   431 net.cpp:91] Creating Layer inception_4c/output_inception_4c/output_0_split
I0403 13:51:08.909989   431 net.cpp:425] inception_4c/output_inception_4c/output_0_split <- inception_4c/output
I0403 13:51:08.910007   431 net.cpp:399] inception_4c/output_inception_4c/output_0_split -> inception_4c/output_inception_4c/output_0_split_0
I0403 13:51:08.910029   431 net.cpp:399] inception_4c/output_inception_4c/output_0_split -> inception_4c/output_inception_4c/output_0_split_1
I0403 13:51:08.910050   431 net.cpp:399] inception_4c/output_inception_4c/output_0_split -> inception_4c/output_inception_4c/output_0_split_2
I0403 13:51:08.910070   431 net.cpp:399] inception_4c/output_inception_4c/output_0_split -> inception_4c/output_inception_4c/output_0_split_3
I0403 13:51:08.910156   431 net.cpp:141] Setting up inception_4c/output_inception_4c/output_0_split
I0403 13:51:08.910178   431 net.cpp:148] Top shape: 24 512 14 14 (2408448)
I0403 13:51:08.910194   431 net.cpp:148] Top shape: 24 512 14 14 (2408448)
I0403 13:51:08.910214   431 net.cpp:148] Top shape: 24 512 14 14 (2408448)
I0403 13:51:08.910230   431 net.cpp:148] Top shape: 24 512 14 14 (2408448)
I0403 13:51:08.910245   431 net.cpp:156] Memory required for data: 1111182624
I0403 13:51:08.910260   431 layer_factory.hpp:77] Creating layer inception_4d/1x1
I0403 13:51:08.910281   431 net.cpp:91] Creating Layer inception_4d/1x1
I0403 13:51:08.910300   431 net.cpp:425] inception_4d/1x1 <- inception_4c/output_inception_4c/output_0_split_0
I0403 13:51:08.910320   431 net.cpp:399] inception_4d/1x1 -> inception_4d/1x1
I0403 13:51:08.911716   431 net.cpp:141] Setting up inception_4d/1x1
I0403 13:51:08.911744   431 net.cpp:148] Top shape: 24 112 14 14 (526848)
I0403 13:51:08.911761   431 net.cpp:156] Memory required for data: 1113290016
I0403 13:51:08.911778   431 layer_factory.hpp:77] Creating layer inception_4d/relu_1x1
I0403 13:51:08.911799   431 net.cpp:91] Creating Layer inception_4d/relu_1x1
I0403 13:51:08.911815   431 net.cpp:425] inception_4d/relu_1x1 <- inception_4d/1x1
I0403 13:51:08.911835   431 net.cpp:386] inception_4d/relu_1x1 -> inception_4d/1x1 (in-place)
I0403 13:51:08.912024   431 net.cpp:141] Setting up inception_4d/relu_1x1
I0403 13:51:08.912050   431 net.cpp:148] Top shape: 24 112 14 14 (526848)
I0403 13:51:08.912063   431 net.cpp:156] Memory required for data: 1115397408
I0403 13:51:08.912078   431 layer_factory.hpp:77] Creating layer inception_4d/3x3_reduce
I0403 13:51:08.912117   431 net.cpp:91] Creating Layer inception_4d/3x3_reduce
I0403 13:51:08.912135   431 net.cpp:425] inception_4d/3x3_reduce <- inception_4c/output_inception_4c/output_0_split_1
I0403 13:51:08.912155   431 net.cpp:399] inception_4d/3x3_reduce -> inception_4d/3x3_reduce
I0403 13:51:08.913694   431 net.cpp:141] Setting up inception_4d/3x3_reduce
I0403 13:51:08.913722   431 net.cpp:148] Top shape: 24 144 14 14 (677376)
I0403 13:51:08.913738   431 net.cpp:156] Memory required for data: 1118106912
I0403 13:51:08.913755   431 layer_factory.hpp:77] Creating layer inception_4d/relu_3x3_reduce
I0403 13:51:08.913774   431 net.cpp:91] Creating Layer inception_4d/relu_3x3_reduce
I0403 13:51:08.913789   431 net.cpp:425] inception_4d/relu_3x3_reduce <- inception_4d/3x3_reduce
I0403 13:51:08.913810   431 net.cpp:386] inception_4d/relu_3x3_reduce -> inception_4d/3x3_reduce (in-place)
I0403 13:51:08.914106   431 net.cpp:141] Setting up inception_4d/relu_3x3_reduce
I0403 13:51:08.914132   431 net.cpp:148] Top shape: 24 144 14 14 (677376)
I0403 13:51:08.914146   431 net.cpp:156] Memory required for data: 1120816416
I0403 13:51:08.914161   431 layer_factory.hpp:77] Creating layer inception_4d/3x3
I0403 13:51:08.914183   431 net.cpp:91] Creating Layer inception_4d/3x3
I0403 13:51:08.914201   431 net.cpp:425] inception_4d/3x3 <- inception_4d/3x3_reduce
I0403 13:51:08.914227   431 net.cpp:399] inception_4d/3x3 -> inception_4d/3x3
I0403 13:51:08.918511   431 net.cpp:141] Setting up inception_4d/3x3
I0403 13:51:08.918540   431 net.cpp:148] Top shape: 24 288 14 14 (1354752)
I0403 13:51:08.918555   431 net.cpp:156] Memory required for data: 1126235424
I0403 13:51:08.918575   431 layer_factory.hpp:77] Creating layer inception_4d/relu_3x3
I0403 13:51:08.918594   431 net.cpp:91] Creating Layer inception_4d/relu_3x3
I0403 13:51:08.918612   431 net.cpp:425] inception_4d/relu_3x3 <- inception_4d/3x3
I0403 13:51:08.918629   431 net.cpp:386] inception_4d/relu_3x3 -> inception_4d/3x3 (in-place)
I0403 13:51:08.918818   431 net.cpp:141] Setting up inception_4d/relu_3x3
I0403 13:51:08.918845   431 net.cpp:148] Top shape: 24 288 14 14 (1354752)
I0403 13:51:08.918861   431 net.cpp:156] Memory required for data: 1131654432
I0403 13:51:08.918876   431 layer_factory.hpp:77] Creating layer inception_4d/5x5_reduce
I0403 13:51:08.918898   431 net.cpp:91] Creating Layer inception_4d/5x5_reduce
I0403 13:51:08.918915   431 net.cpp:425] inception_4d/5x5_reduce <- inception_4c/output_inception_4c/output_0_split_2
I0403 13:51:08.918936   431 net.cpp:399] inception_4d/5x5_reduce -> inception_4d/5x5_reduce
I0403 13:51:08.920099   431 net.cpp:141] Setting up inception_4d/5x5_reduce
I0403 13:51:08.920126   431 net.cpp:148] Top shape: 24 32 14 14 (150528)
I0403 13:51:08.920142   431 net.cpp:156] Memory required for data: 1132256544
I0403 13:51:08.920159   431 layer_factory.hpp:77] Creating layer inception_4d/relu_5x5_reduce
I0403 13:51:08.920179   431 net.cpp:91] Creating Layer inception_4d/relu_5x5_reduce
I0403 13:51:08.920197   431 net.cpp:425] inception_4d/relu_5x5_reduce <- inception_4d/5x5_reduce
I0403 13:51:08.920219   431 net.cpp:386] inception_4d/relu_5x5_reduce -> inception_4d/5x5_reduce (in-place)
I0403 13:51:08.920414   431 net.cpp:141] Setting up inception_4d/relu_5x5_reduce
I0403 13:51:08.920442   431 net.cpp:148] Top shape: 24 32 14 14 (150528)
I0403 13:51:08.920457   431 net.cpp:156] Memory required for data: 1132858656
I0403 13:51:08.920472   431 layer_factory.hpp:77] Creating layer inception_4d/5x5
I0403 13:51:08.920495   431 net.cpp:91] Creating Layer inception_4d/5x5
I0403 13:51:08.920512   431 net.cpp:425] inception_4d/5x5 <- inception_4d/5x5_reduce
I0403 13:51:08.920531   431 net.cpp:399] inception_4d/5x5 -> inception_4d/5x5
I0403 13:51:08.922026   431 net.cpp:141] Setting up inception_4d/5x5
I0403 13:51:08.922055   431 net.cpp:148] Top shape: 24 64 14 14 (301056)
I0403 13:51:08.922071   431 net.cpp:156] Memory required for data: 1134062880
I0403 13:51:08.922091   431 layer_factory.hpp:77] Creating layer inception_4d/relu_5x5
I0403 13:51:08.922123   431 net.cpp:91] Creating Layer inception_4d/relu_5x5
I0403 13:51:08.922140   431 net.cpp:425] inception_4d/relu_5x5 <- inception_4d/5x5
I0403 13:51:08.922160   431 net.cpp:386] inception_4d/relu_5x5 -> inception_4d/5x5 (in-place)
I0403 13:51:08.922471   431 net.cpp:141] Setting up inception_4d/relu_5x5
I0403 13:51:08.922499   431 net.cpp:148] Top shape: 24 64 14 14 (301056)
I0403 13:51:08.922515   431 net.cpp:156] Memory required for data: 1135267104
I0403 13:51:08.922530   431 layer_factory.hpp:77] Creating layer inception_4d/pool
I0403 13:51:08.922549   431 net.cpp:91] Creating Layer inception_4d/pool
I0403 13:51:08.922564   431 net.cpp:425] inception_4d/pool <- inception_4c/output_inception_4c/output_0_split_3
I0403 13:51:08.922585   431 net.cpp:399] inception_4d/pool -> inception_4d/pool
I0403 13:51:08.922652   431 net.cpp:141] Setting up inception_4d/pool
I0403 13:51:08.922675   431 net.cpp:148] Top shape: 24 512 14 14 (2408448)
I0403 13:51:08.922689   431 net.cpp:156] Memory required for data: 1144900896
I0403 13:51:08.922704   431 layer_factory.hpp:77] Creating layer inception_4d/pool_proj
I0403 13:51:08.922726   431 net.cpp:91] Creating Layer inception_4d/pool_proj
I0403 13:51:08.922742   431 net.cpp:425] inception_4d/pool_proj <- inception_4d/pool
I0403 13:51:08.922765   431 net.cpp:399] inception_4d/pool_proj -> inception_4d/pool_proj
I0403 13:51:08.924614   431 net.cpp:141] Setting up inception_4d/pool_proj
I0403 13:51:08.924643   431 net.cpp:148] Top shape: 24 64 14 14 (301056)
I0403 13:51:08.924659   431 net.cpp:156] Memory required for data: 1146105120
I0403 13:51:08.924679   431 layer_factory.hpp:77] Creating layer inception_4d/relu_pool_proj
I0403 13:51:08.924698   431 net.cpp:91] Creating Layer inception_4d/relu_pool_proj
I0403 13:51:08.924715   431 net.cpp:425] inception_4d/relu_pool_proj <- inception_4d/pool_proj
I0403 13:51:08.924733   431 net.cpp:386] inception_4d/relu_pool_proj -> inception_4d/pool_proj (in-place)
I0403 13:51:08.924922   431 net.cpp:141] Setting up inception_4d/relu_pool_proj
I0403 13:51:08.924948   431 net.cpp:148] Top shape: 24 64 14 14 (301056)
I0403 13:51:08.924963   431 net.cpp:156] Memory required for data: 1147309344
I0403 13:51:08.924979   431 layer_factory.hpp:77] Creating layer inception_4d/output
I0403 13:51:08.924995   431 net.cpp:91] Creating Layer inception_4d/output
I0403 13:51:08.925011   431 net.cpp:425] inception_4d/output <- inception_4d/1x1
I0403 13:51:08.925027   431 net.cpp:425] inception_4d/output <- inception_4d/3x3
I0403 13:51:08.925043   431 net.cpp:425] inception_4d/output <- inception_4d/5x5
I0403 13:51:08.925060   431 net.cpp:425] inception_4d/output <- inception_4d/pool_proj
I0403 13:51:08.925076   431 net.cpp:399] inception_4d/output -> inception_4d/output
I0403 13:51:08.925124   431 net.cpp:141] Setting up inception_4d/output
I0403 13:51:08.925148   431 net.cpp:148] Top shape: 24 528 14 14 (2483712)
I0403 13:51:08.925161   431 net.cpp:156] Memory required for data: 1157244192
I0403 13:51:08.925176   431 layer_factory.hpp:77] Creating layer inception_4d/output_inception_4d/output_0_split
I0403 13:51:08.925199   431 net.cpp:91] Creating Layer inception_4d/output_inception_4d/output_0_split
I0403 13:51:08.925220   431 net.cpp:425] inception_4d/output_inception_4d/output_0_split <- inception_4d/output
I0403 13:51:08.925238   431 net.cpp:399] inception_4d/output_inception_4d/output_0_split -> inception_4d/output_inception_4d/output_0_split_0
I0403 13:51:08.925258   431 net.cpp:399] inception_4d/output_inception_4d/output_0_split -> inception_4d/output_inception_4d/output_0_split_1
I0403 13:51:08.925279   431 net.cpp:399] inception_4d/output_inception_4d/output_0_split -> inception_4d/output_inception_4d/output_0_split_2
I0403 13:51:08.925302   431 net.cpp:399] inception_4d/output_inception_4d/output_0_split -> inception_4d/output_inception_4d/output_0_split_3
I0403 13:51:08.925324   431 net.cpp:399] inception_4d/output_inception_4d/output_0_split -> inception_4d/output_inception_4d/output_0_split_4
I0403 13:51:08.925428   431 net.cpp:141] Setting up inception_4d/output_inception_4d/output_0_split
I0403 13:51:08.925464   431 net.cpp:148] Top shape: 24 528 14 14 (2483712)
I0403 13:51:08.925482   431 net.cpp:148] Top shape: 24 528 14 14 (2483712)
I0403 13:51:08.925498   431 net.cpp:148] Top shape: 24 528 14 14 (2483712)
I0403 13:51:08.925513   431 net.cpp:148] Top shape: 24 528 14 14 (2483712)
I0403 13:51:08.925529   431 net.cpp:148] Top shape: 24 528 14 14 (2483712)
I0403 13:51:08.925544   431 net.cpp:156] Memory required for data: 1206918432
I0403 13:51:08.925559   431 layer_factory.hpp:77] Creating layer loss2/ave_pool
I0403 13:51:08.925580   431 net.cpp:91] Creating Layer loss2/ave_pool
I0403 13:51:08.925596   431 net.cpp:425] loss2/ave_pool <- inception_4d/output_inception_4d/output_0_split_0
I0403 13:51:08.925616   431 net.cpp:399] loss2/ave_pool -> loss2/ave_pool
I0403 13:51:08.925932   431 net.cpp:141] Setting up loss2/ave_pool
I0403 13:51:08.925958   431 net.cpp:148] Top shape: 24 528 4 4 (202752)
I0403 13:51:08.925973   431 net.cpp:156] Memory required for data: 1207729440
I0403 13:51:08.925988   431 layer_factory.hpp:77] Creating layer loss2/conv
I0403 13:51:08.926012   431 net.cpp:91] Creating Layer loss2/conv
I0403 13:51:08.926028   431 net.cpp:425] loss2/conv <- loss2/ave_pool
I0403 13:51:08.926049   431 net.cpp:399] loss2/conv -> loss2/conv
I0403 13:51:08.927965   431 net.cpp:141] Setting up loss2/conv
I0403 13:51:08.927994   431 net.cpp:148] Top shape: 24 128 4 4 (49152)
I0403 13:51:08.928009   431 net.cpp:156] Memory required for data: 1207926048
I0403 13:51:08.928027   431 layer_factory.hpp:77] Creating layer loss2/relu_conv
I0403 13:51:08.928045   431 net.cpp:91] Creating Layer loss2/relu_conv
I0403 13:51:08.928062   431 net.cpp:425] loss2/relu_conv <- loss2/conv
I0403 13:51:08.928081   431 net.cpp:386] loss2/relu_conv -> loss2/conv (in-place)
I0403 13:51:08.928376   431 net.cpp:141] Setting up loss2/relu_conv
I0403 13:51:08.928402   431 net.cpp:148] Top shape: 24 128 4 4 (49152)
I0403 13:51:08.928417   431 net.cpp:156] Memory required for data: 1208122656
I0403 13:51:08.928434   431 layer_factory.hpp:77] Creating layer loss2/fc
I0403 13:51:08.928453   431 net.cpp:91] Creating Layer loss2/fc
I0403 13:51:08.928469   431 net.cpp:425] loss2/fc <- loss2/conv
I0403 13:51:08.928490   431 net.cpp:399] loss2/fc -> loss2/fc
I0403 13:51:08.946203   431 net.cpp:141] Setting up loss2/fc
I0403 13:51:08.946267   431 net.cpp:148] Top shape: 24 1024 (24576)
I0403 13:51:08.946285   431 net.cpp:156] Memory required for data: 1208220960
I0403 13:51:08.946305   431 layer_factory.hpp:77] Creating layer loss2/relu_fc
I0403 13:51:08.946326   431 net.cpp:91] Creating Layer loss2/relu_fc
I0403 13:51:08.946342   431 net.cpp:425] loss2/relu_fc <- loss2/fc
I0403 13:51:08.946362   431 net.cpp:386] loss2/relu_fc -> loss2/fc (in-place)
I0403 13:51:08.946708   431 net.cpp:141] Setting up loss2/relu_fc
I0403 13:51:08.946738   431 net.cpp:148] Top shape: 24 1024 (24576)
I0403 13:51:08.946753   431 net.cpp:156] Memory required for data: 1208319264
I0403 13:51:08.946768   431 layer_factory.hpp:77] Creating layer loss2/drop_fc
I0403 13:51:08.946785   431 net.cpp:91] Creating Layer loss2/drop_fc
I0403 13:51:08.946801   431 net.cpp:425] loss2/drop_fc <- loss2/fc
I0403 13:51:08.946820   431 net.cpp:386] loss2/drop_fc -> loss2/fc (in-place)
I0403 13:51:08.946871   431 net.cpp:141] Setting up loss2/drop_fc
I0403 13:51:08.946894   431 net.cpp:148] Top shape: 24 1024 (24576)
I0403 13:51:08.946908   431 net.cpp:156] Memory required for data: 1208417568
I0403 13:51:08.946923   431 layer_factory.hpp:77] Creating layer loss2/classifier_plantvillage
I0403 13:51:08.946944   431 net.cpp:91] Creating Layer loss2/classifier_plantvillage
I0403 13:51:08.946960   431 net.cpp:425] loss2/classifier_plantvillage <- loss2/fc
I0403 13:51:08.946979   431 net.cpp:399] loss2/classifier_plantvillage -> loss2/classifier_plantvillage
I0403 13:51:08.947397   431 net.cpp:141] Setting up loss2/classifier_plantvillage
I0403 13:51:08.947423   431 net.cpp:148] Top shape: 24 38 (912)
I0403 13:51:08.947463   431 net.cpp:156] Memory required for data: 1208421216
I0403 13:51:08.947482   431 layer_factory.hpp:77] Creating layer loss2/classifier_plantvillage_loss2/classifier_plantvillage_0_split
I0403 13:51:08.947500   431 net.cpp:91] Creating Layer loss2/classifier_plantvillage_loss2/classifier_plantvillage_0_split
I0403 13:51:08.947516   431 net.cpp:425] loss2/classifier_plantvillage_loss2/classifier_plantvillage_0_split <- loss2/classifier_plantvillage
I0403 13:51:08.947536   431 net.cpp:399] loss2/classifier_plantvillage_loss2/classifier_plantvillage_0_split -> loss2/classifier_plantvillage_loss2/classifier_plantvillage_0_split_0
I0403 13:51:08.947558   431 net.cpp:399] loss2/classifier_plantvillage_loss2/classifier_plantvillage_0_split -> loss2/classifier_plantvillage_loss2/classifier_plantvillage_0_split_1
I0403 13:51:08.947578   431 net.cpp:399] loss2/classifier_plantvillage_loss2/classifier_plantvillage_0_split -> loss2/classifier_plantvillage_loss2/classifier_plantvillage_0_split_2
I0403 13:51:08.947656   431 net.cpp:141] Setting up loss2/classifier_plantvillage_loss2/classifier_plantvillage_0_split
I0403 13:51:08.947681   431 net.cpp:148] Top shape: 24 38 (912)
I0403 13:51:08.947700   431 net.cpp:148] Top shape: 24 38 (912)
I0403 13:51:08.947715   431 net.cpp:148] Top shape: 24 38 (912)
I0403 13:51:08.947728   431 net.cpp:156] Memory required for data: 1208432160
I0403 13:51:08.947743   431 layer_factory.hpp:77] Creating layer inception_4e/1x1
I0403 13:51:08.947768   431 net.cpp:91] Creating Layer inception_4e/1x1
I0403 13:51:08.947787   431 net.cpp:425] inception_4e/1x1 <- inception_4d/output_inception_4d/output_0_split_1
I0403 13:51:08.947805   431 net.cpp:399] inception_4e/1x1 -> inception_4e/1x1
I0403 13:51:08.949681   431 net.cpp:141] Setting up inception_4e/1x1
I0403 13:51:08.949714   431 net.cpp:148] Top shape: 24 256 14 14 (1204224)
I0403 13:51:08.949730   431 net.cpp:156] Memory required for data: 1213249056
I0403 13:51:08.949749   431 layer_factory.hpp:77] Creating layer inception_4e/relu_1x1
I0403 13:51:08.949767   431 net.cpp:91] Creating Layer inception_4e/relu_1x1
I0403 13:51:08.949784   431 net.cpp:425] inception_4e/relu_1x1 <- inception_4e/1x1
I0403 13:51:08.949803   431 net.cpp:386] inception_4e/relu_1x1 -> inception_4e/1x1 (in-place)
I0403 13:51:08.950103   431 net.cpp:141] Setting up inception_4e/relu_1x1
I0403 13:51:08.950130   431 net.cpp:148] Top shape: 24 256 14 14 (1204224)
I0403 13:51:08.950146   431 net.cpp:156] Memory required for data: 1218065952
I0403 13:51:08.950161   431 layer_factory.hpp:77] Creating layer inception_4e/3x3_reduce
I0403 13:51:08.950184   431 net.cpp:91] Creating Layer inception_4e/3x3_reduce
I0403 13:51:08.950202   431 net.cpp:425] inception_4e/3x3_reduce <- inception_4d/output_inception_4d/output_0_split_2
I0403 13:51:08.950228   431 net.cpp:399] inception_4e/3x3_reduce -> inception_4e/3x3_reduce
I0403 13:51:08.952399   431 net.cpp:141] Setting up inception_4e/3x3_reduce
I0403 13:51:08.952430   431 net.cpp:148] Top shape: 24 160 14 14 (752640)
I0403 13:51:08.952445   431 net.cpp:156] Memory required for data: 1221076512
I0403 13:51:08.952464   431 layer_factory.hpp:77] Creating layer inception_4e/relu_3x3_reduce
I0403 13:51:08.952482   431 net.cpp:91] Creating Layer inception_4e/relu_3x3_reduce
I0403 13:51:08.952498   431 net.cpp:425] inception_4e/relu_3x3_reduce <- inception_4e/3x3_reduce
I0403 13:51:08.952515   431 net.cpp:386] inception_4e/relu_3x3_reduce -> inception_4e/3x3_reduce (in-place)
I0403 13:51:08.952711   431 net.cpp:141] Setting up inception_4e/relu_3x3_reduce
I0403 13:51:08.952736   431 net.cpp:148] Top shape: 24 160 14 14 (752640)
I0403 13:51:08.952751   431 net.cpp:156] Memory required for data: 1224087072
I0403 13:51:08.952766   431 layer_factory.hpp:77] Creating layer inception_4e/3x3
I0403 13:51:08.952788   431 net.cpp:91] Creating Layer inception_4e/3x3
I0403 13:51:08.952805   431 net.cpp:425] inception_4e/3x3 <- inception_4e/3x3_reduce
I0403 13:51:08.952826   431 net.cpp:399] inception_4e/3x3 -> inception_4e/3x3
I0403 13:51:08.957911   431 net.cpp:141] Setting up inception_4e/3x3
I0403 13:51:08.957954   431 net.cpp:148] Top shape: 24 320 14 14 (1505280)
I0403 13:51:08.957972   431 net.cpp:156] Memory required for data: 1230108192
I0403 13:51:08.957990   431 layer_factory.hpp:77] Creating layer inception_4e/relu_3x3
I0403 13:51:08.958011   431 net.cpp:91] Creating Layer inception_4e/relu_3x3
I0403 13:51:08.958029   431 net.cpp:425] inception_4e/relu_3x3 <- inception_4e/3x3
I0403 13:51:08.958046   431 net.cpp:386] inception_4e/relu_3x3 -> inception_4e/3x3 (in-place)
I0403 13:51:08.958355   431 net.cpp:141] Setting up inception_4e/relu_3x3
I0403 13:51:08.958382   431 net.cpp:148] Top shape: 24 320 14 14 (1505280)
I0403 13:51:08.958397   431 net.cpp:156] Memory required for data: 1236129312
I0403 13:51:08.958412   431 layer_factory.hpp:77] Creating layer inception_4e/5x5_reduce
I0403 13:51:08.958434   431 net.cpp:91] Creating Layer inception_4e/5x5_reduce
I0403 13:51:08.958451   431 net.cpp:425] inception_4e/5x5_reduce <- inception_4d/output_inception_4d/output_0_split_3
I0403 13:51:08.958473   431 net.cpp:399] inception_4e/5x5_reduce -> inception_4e/5x5_reduce
I0403 13:51:08.959573   431 net.cpp:141] Setting up inception_4e/5x5_reduce
I0403 13:51:08.959604   431 net.cpp:148] Top shape: 24 32 14 14 (150528)
I0403 13:51:08.959619   431 net.cpp:156] Memory required for data: 1236731424
I0403 13:51:08.959638   431 layer_factory.hpp:77] Creating layer inception_4e/relu_5x5_reduce
I0403 13:51:08.959656   431 net.cpp:91] Creating Layer inception_4e/relu_5x5_reduce
I0403 13:51:08.959672   431 net.cpp:425] inception_4e/relu_5x5_reduce <- inception_4e/5x5_reduce
I0403 13:51:08.959692   431 net.cpp:386] inception_4e/relu_5x5_reduce -> inception_4e/5x5_reduce (in-place)
I0403 13:51:08.959995   431 net.cpp:141] Setting up inception_4e/relu_5x5_reduce
I0403 13:51:08.960022   431 net.cpp:148] Top shape: 24 32 14 14 (150528)
I0403 13:51:08.960038   431 net.cpp:156] Memory required for data: 1237333536
I0403 13:51:08.960053   431 layer_factory.hpp:77] Creating layer inception_4e/5x5
I0403 13:51:08.960095   431 net.cpp:91] Creating Layer inception_4e/5x5
I0403 13:51:08.960114   431 net.cpp:425] inception_4e/5x5 <- inception_4e/5x5_reduce
I0403 13:51:08.960134   431 net.cpp:399] inception_4e/5x5 -> inception_4e/5x5
I0403 13:51:08.962021   431 net.cpp:141] Setting up inception_4e/5x5
I0403 13:51:08.962049   431 net.cpp:148] Top shape: 24 128 14 14 (602112)
I0403 13:51:08.962065   431 net.cpp:156] Memory required for data: 1239741984
I0403 13:51:08.962085   431 layer_factory.hpp:77] Creating layer inception_4e/relu_5x5
I0403 13:51:08.962105   431 net.cpp:91] Creating Layer inception_4e/relu_5x5
I0403 13:51:08.962122   431 net.cpp:425] inception_4e/relu_5x5 <- inception_4e/5x5
I0403 13:51:08.962141   431 net.cpp:386] inception_4e/relu_5x5 -> inception_4e/5x5 (in-place)
I0403 13:51:08.962347   431 net.cpp:141] Setting up inception_4e/relu_5x5
I0403 13:51:08.962371   431 net.cpp:148] Top shape: 24 128 14 14 (602112)
I0403 13:51:08.962386   431 net.cpp:156] Memory required for data: 1242150432
I0403 13:51:08.962401   431 layer_factory.hpp:77] Creating layer inception_4e/pool
I0403 13:51:08.962419   431 net.cpp:91] Creating Layer inception_4e/pool
I0403 13:51:08.962437   431 net.cpp:425] inception_4e/pool <- inception_4d/output_inception_4d/output_0_split_4
I0403 13:51:08.962460   431 net.cpp:399] inception_4e/pool -> inception_4e/pool
I0403 13:51:08.962532   431 net.cpp:141] Setting up inception_4e/pool
I0403 13:51:08.962554   431 net.cpp:148] Top shape: 24 528 14 14 (2483712)
I0403 13:51:08.962569   431 net.cpp:156] Memory required for data: 1252085280
I0403 13:51:08.962584   431 layer_factory.hpp:77] Creating layer inception_4e/pool_proj
I0403 13:51:08.962607   431 net.cpp:91] Creating Layer inception_4e/pool_proj
I0403 13:51:08.962625   431 net.cpp:425] inception_4e/pool_proj <- inception_4e/pool
I0403 13:51:08.962643   431 net.cpp:399] inception_4e/pool_proj -> inception_4e/pool_proj
I0403 13:51:08.964223   431 net.cpp:141] Setting up inception_4e/pool_proj
I0403 13:51:08.964262   431 net.cpp:148] Top shape: 24 128 14 14 (602112)
I0403 13:51:08.964278   431 net.cpp:156] Memory required for data: 1254493728
I0403 13:51:08.964298   431 layer_factory.hpp:77] Creating layer inception_4e/relu_pool_proj
I0403 13:51:08.964318   431 net.cpp:91] Creating Layer inception_4e/relu_pool_proj
I0403 13:51:08.964335   431 net.cpp:425] inception_4e/relu_pool_proj <- inception_4e/pool_proj
I0403 13:51:08.964352   431 net.cpp:386] inception_4e/relu_pool_proj -> inception_4e/pool_proj (in-place)
I0403 13:51:08.964653   431 net.cpp:141] Setting up inception_4e/relu_pool_proj
I0403 13:51:08.964678   431 net.cpp:148] Top shape: 24 128 14 14 (602112)
I0403 13:51:08.964692   431 net.cpp:156] Memory required for data: 1256902176
I0403 13:51:08.964707   431 layer_factory.hpp:77] Creating layer inception_4e/output
I0403 13:51:08.964727   431 net.cpp:91] Creating Layer inception_4e/output
I0403 13:51:08.964745   431 net.cpp:425] inception_4e/output <- inception_4e/1x1
I0403 13:51:08.964761   431 net.cpp:425] inception_4e/output <- inception_4e/3x3
I0403 13:51:08.964776   431 net.cpp:425] inception_4e/output <- inception_4e/5x5
I0403 13:51:08.964792   431 net.cpp:425] inception_4e/output <- inception_4e/pool_proj
I0403 13:51:08.964809   431 net.cpp:399] inception_4e/output -> inception_4e/output
I0403 13:51:08.964860   431 net.cpp:141] Setting up inception_4e/output
I0403 13:51:08.964884   431 net.cpp:148] Top shape: 24 832 14 14 (3913728)
I0403 13:51:08.964898   431 net.cpp:156] Memory required for data: 1272557088
I0403 13:51:08.964912   431 layer_factory.hpp:77] Creating layer pool4/3x3_s2
I0403 13:51:08.964931   431 net.cpp:91] Creating Layer pool4/3x3_s2
I0403 13:51:08.964946   431 net.cpp:425] pool4/3x3_s2 <- inception_4e/output
I0403 13:51:08.964967   431 net.cpp:399] pool4/3x3_s2 -> pool4/3x3_s2
I0403 13:51:08.965034   431 net.cpp:141] Setting up pool4/3x3_s2
I0403 13:51:08.965057   431 net.cpp:148] Top shape: 24 832 7 7 (978432)
I0403 13:51:08.965071   431 net.cpp:156] Memory required for data: 1276470816
I0403 13:51:08.965086   431 layer_factory.hpp:77] Creating layer pool4/3x3_s2_pool4/3x3_s2_0_split
I0403 13:51:08.965106   431 net.cpp:91] Creating Layer pool4/3x3_s2_pool4/3x3_s2_0_split
I0403 13:51:08.965123   431 net.cpp:425] pool4/3x3_s2_pool4/3x3_s2_0_split <- pool4/3x3_s2
I0403 13:51:08.965143   431 net.cpp:399] pool4/3x3_s2_pool4/3x3_s2_0_split -> pool4/3x3_s2_pool4/3x3_s2_0_split_0
I0403 13:51:08.965164   431 net.cpp:399] pool4/3x3_s2_pool4/3x3_s2_0_split -> pool4/3x3_s2_pool4/3x3_s2_0_split_1
I0403 13:51:08.965185   431 net.cpp:399] pool4/3x3_s2_pool4/3x3_s2_0_split -> pool4/3x3_s2_pool4/3x3_s2_0_split_2
I0403 13:51:08.965205   431 net.cpp:399] pool4/3x3_s2_pool4/3x3_s2_0_split -> pool4/3x3_s2_pool4/3x3_s2_0_split_3
I0403 13:51:08.965301   431 net.cpp:141] Setting up pool4/3x3_s2_pool4/3x3_s2_0_split
I0403 13:51:08.965325   431 net.cpp:148] Top shape: 24 832 7 7 (978432)
I0403 13:51:08.965349   431 net.cpp:148] Top shape: 24 832 7 7 (978432)
I0403 13:51:08.965366   431 net.cpp:148] Top shape: 24 832 7 7 (978432)
I0403 13:51:08.965383   431 net.cpp:148] Top shape: 24 832 7 7 (978432)
I0403 13:51:08.965396   431 net.cpp:156] Memory required for data: 1292125728
I0403 13:51:08.965410   431 layer_factory.hpp:77] Creating layer inception_5a/1x1
I0403 13:51:08.965430   431 net.cpp:91] Creating Layer inception_5a/1x1
I0403 13:51:08.965446   431 net.cpp:425] inception_5a/1x1 <- pool4/3x3_s2_pool4/3x3_s2_0_split_0
I0403 13:51:08.965468   431 net.cpp:399] inception_5a/1x1 -> inception_5a/1x1
I0403 13:51:08.968377   431 net.cpp:141] Setting up inception_5a/1x1
I0403 13:51:08.968410   431 net.cpp:148] Top shape: 24 256 7 7 (301056)
I0403 13:51:08.968427   431 net.cpp:156] Memory required for data: 1293329952
I0403 13:51:08.968447   431 layer_factory.hpp:77] Creating layer inception_5a/relu_1x1
I0403 13:51:08.968466   431 net.cpp:91] Creating Layer inception_5a/relu_1x1
I0403 13:51:08.968482   431 net.cpp:425] inception_5a/relu_1x1 <- inception_5a/1x1
I0403 13:51:08.968500   431 net.cpp:386] inception_5a/relu_1x1 -> inception_5a/1x1 (in-place)
I0403 13:51:08.968817   431 net.cpp:141] Setting up inception_5a/relu_1x1
I0403 13:51:08.968847   431 net.cpp:148] Top shape: 24 256 7 7 (301056)
I0403 13:51:08.968863   431 net.cpp:156] Memory required for data: 1294534176
I0403 13:51:08.968878   431 layer_factory.hpp:77] Creating layer inception_5a/3x3_reduce
I0403 13:51:08.968900   431 net.cpp:91] Creating Layer inception_5a/3x3_reduce
I0403 13:51:08.968919   431 net.cpp:425] inception_5a/3x3_reduce <- pool4/3x3_s2_pool4/3x3_s2_0_split_1
I0403 13:51:08.968937   431 net.cpp:399] inception_5a/3x3_reduce -> inception_5a/3x3_reduce
I0403 13:51:08.971431   431 net.cpp:141] Setting up inception_5a/3x3_reduce
I0403 13:51:08.971460   431 net.cpp:148] Top shape: 24 160 7 7 (188160)
I0403 13:51:08.971489   431 net.cpp:156] Memory required for data: 1295286816
I0403 13:51:08.971508   431 layer_factory.hpp:77] Creating layer inception_5a/relu_3x3_reduce
I0403 13:51:08.971529   431 net.cpp:91] Creating Layer inception_5a/relu_3x3_reduce
I0403 13:51:08.971549   431 net.cpp:425] inception_5a/relu_3x3_reduce <- inception_5a/3x3_reduce
I0403 13:51:08.971568   431 net.cpp:386] inception_5a/relu_3x3_reduce -> inception_5a/3x3_reduce (in-place)
I0403 13:51:08.971781   431 net.cpp:141] Setting up inception_5a/relu_3x3_reduce
I0403 13:51:08.971809   431 net.cpp:148] Top shape: 24 160 7 7 (188160)
I0403 13:51:08.971825   431 net.cpp:156] Memory required for data: 1296039456
I0403 13:51:08.971853   431 layer_factory.hpp:77] Creating layer inception_5a/3x3
I0403 13:51:08.971879   431 net.cpp:91] Creating Layer inception_5a/3x3
I0403 13:51:08.971897   431 net.cpp:425] inception_5a/3x3 <- inception_5a/3x3_reduce
I0403 13:51:08.971918   431 net.cpp:399] inception_5a/3x3 -> inception_5a/3x3
I0403 13:51:08.977000   431 net.cpp:141] Setting up inception_5a/3x3
I0403 13:51:08.977032   431 net.cpp:148] Top shape: 24 320 7 7 (376320)
I0403 13:51:08.977049   431 net.cpp:156] Memory required for data: 1297544736
I0403 13:51:08.977068   431 layer_factory.hpp:77] Creating layer inception_5a/relu_3x3
I0403 13:51:08.977089   431 net.cpp:91] Creating Layer inception_5a/relu_3x3
I0403 13:51:08.977108   431 net.cpp:425] inception_5a/relu_3x3 <- inception_5a/3x3
I0403 13:51:08.977125   431 net.cpp:386] inception_5a/relu_3x3 -> inception_5a/3x3 (in-place)
I0403 13:51:08.977437   431 net.cpp:141] Setting up inception_5a/relu_3x3
I0403 13:51:08.977464   431 net.cpp:148] Top shape: 24 320 7 7 (376320)
I0403 13:51:08.977479   431 net.cpp:156] Memory required for data: 1299050016
I0403 13:51:08.977494   431 layer_factory.hpp:77] Creating layer inception_5a/5x5_reduce
I0403 13:51:08.977519   431 net.cpp:91] Creating Layer inception_5a/5x5_reduce
I0403 13:51:08.977537   431 net.cpp:425] inception_5a/5x5_reduce <- pool4/3x3_s2_pool4/3x3_s2_0_split_2
I0403 13:51:08.977556   431 net.cpp:399] inception_5a/5x5_reduce -> inception_5a/5x5_reduce
I0403 13:51:08.978755   431 net.cpp:141] Setting up inception_5a/5x5_reduce
I0403 13:51:08.978787   431 net.cpp:148] Top shape: 24 32 7 7 (37632)
I0403 13:51:08.978806   431 net.cpp:156] Memory required for data: 1299200544
I0403 13:51:08.978827   431 layer_factory.hpp:77] Creating layer inception_5a/relu_5x5_reduce
I0403 13:51:08.978845   431 net.cpp:91] Creating Layer inception_5a/relu_5x5_reduce
I0403 13:51:08.978862   431 net.cpp:425] inception_5a/relu_5x5_reduce <- inception_5a/5x5_reduce
I0403 13:51:08.978880   431 net.cpp:386] inception_5a/relu_5x5_reduce -> inception_5a/5x5_reduce (in-place)
I0403 13:51:08.979190   431 net.cpp:141] Setting up inception_5a/relu_5x5_reduce
I0403 13:51:08.979220   431 net.cpp:148] Top shape: 24 32 7 7 (37632)
I0403 13:51:08.979236   431 net.cpp:156] Memory required for data: 1299351072
I0403 13:51:08.979251   431 layer_factory.hpp:77] Creating layer inception_5a/5x5
I0403 13:51:08.979274   431 net.cpp:91] Creating Layer inception_5a/5x5
I0403 13:51:08.979291   431 net.cpp:425] inception_5a/5x5 <- inception_5a/5x5_reduce
I0403 13:51:08.979313   431 net.cpp:399] inception_5a/5x5 -> inception_5a/5x5
I0403 13:51:08.981060   431 net.cpp:141] Setting up inception_5a/5x5
I0403 13:51:08.981101   431 net.cpp:148] Top shape: 24 128 7 7 (150528)
I0403 13:51:08.981118   431 net.cpp:156] Memory required for data: 1299953184
I0403 13:51:08.981138   431 layer_factory.hpp:77] Creating layer inception_5a/relu_5x5
I0403 13:51:08.981159   431 net.cpp:91] Creating Layer inception_5a/relu_5x5
I0403 13:51:08.981178   431 net.cpp:425] inception_5a/relu_5x5 <- inception_5a/5x5
I0403 13:51:08.981194   431 net.cpp:386] inception_5a/relu_5x5 -> inception_5a/5x5 (in-place)
I0403 13:51:08.981397   431 net.cpp:141] Setting up inception_5a/relu_5x5
I0403 13:51:08.981421   431 net.cpp:148] Top shape: 24 128 7 7 (150528)
I0403 13:51:08.981439   431 net.cpp:156] Memory required for data: 1300555296
I0403 13:51:08.981454   431 layer_factory.hpp:77] Creating layer inception_5a/pool
I0403 13:51:08.981472   431 net.cpp:91] Creating Layer inception_5a/pool
I0403 13:51:08.981488   431 net.cpp:425] inception_5a/pool <- pool4/3x3_s2_pool4/3x3_s2_0_split_3
I0403 13:51:08.981509   431 net.cpp:399] inception_5a/pool -> inception_5a/pool
I0403 13:51:08.981581   431 net.cpp:141] Setting up inception_5a/pool
I0403 13:51:08.981606   431 net.cpp:148] Top shape: 24 832 7 7 (978432)
I0403 13:51:08.981621   431 net.cpp:156] Memory required for data: 1304469024
I0403 13:51:08.981634   431 layer_factory.hpp:77] Creating layer inception_5a/pool_proj
I0403 13:51:08.981658   431 net.cpp:91] Creating Layer inception_5a/pool_proj
I0403 13:51:08.981675   431 net.cpp:425] inception_5a/pool_proj <- inception_5a/pool
I0403 13:51:08.981694   431 net.cpp:399] inception_5a/pool_proj -> inception_5a/pool_proj
I0403 13:51:08.984024   431 net.cpp:141] Setting up inception_5a/pool_proj
I0403 13:51:08.984052   431 net.cpp:148] Top shape: 24 128 7 7 (150528)
I0403 13:51:08.984068   431 net.cpp:156] Memory required for data: 1305071136
I0403 13:51:08.984086   431 layer_factory.hpp:77] Creating layer inception_5a/relu_pool_proj
I0403 13:51:08.984107   431 net.cpp:91] Creating Layer inception_5a/relu_pool_proj
I0403 13:51:08.984125   431 net.cpp:425] inception_5a/relu_pool_proj <- inception_5a/pool_proj
I0403 13:51:08.984143   431 net.cpp:386] inception_5a/relu_pool_proj -> inception_5a/pool_proj (in-place)
I0403 13:51:08.984449   431 net.cpp:141] Setting up inception_5a/relu_pool_proj
I0403 13:51:08.984475   431 net.cpp:148] Top shape: 24 128 7 7 (150528)
I0403 13:51:08.984490   431 net.cpp:156] Memory required for data: 1305673248
I0403 13:51:08.984505   431 layer_factory.hpp:77] Creating layer inception_5a/output
I0403 13:51:08.984525   431 net.cpp:91] Creating Layer inception_5a/output
I0403 13:51:08.984541   431 net.cpp:425] inception_5a/output <- inception_5a/1x1
I0403 13:51:08.984560   431 net.cpp:425] inception_5a/output <- inception_5a/3x3
I0403 13:51:08.984575   431 net.cpp:425] inception_5a/output <- inception_5a/5x5
I0403 13:51:08.984591   431 net.cpp:425] inception_5a/output <- inception_5a/pool_proj
I0403 13:51:08.984608   431 net.cpp:399] inception_5a/output -> inception_5a/output
I0403 13:51:08.984660   431 net.cpp:141] Setting up inception_5a/output
I0403 13:51:08.984684   431 net.cpp:148] Top shape: 24 832 7 7 (978432)
I0403 13:51:08.984699   431 net.cpp:156] Memory required for data: 1309586976
I0403 13:51:08.984714   431 layer_factory.hpp:77] Creating layer inception_5a/output_inception_5a/output_0_split
I0403 13:51:08.984732   431 net.cpp:91] Creating Layer inception_5a/output_inception_5a/output_0_split
I0403 13:51:08.984747   431 net.cpp:425] inception_5a/output_inception_5a/output_0_split <- inception_5a/output
I0403 13:51:08.984767   431 net.cpp:399] inception_5a/output_inception_5a/output_0_split -> inception_5a/output_inception_5a/output_0_split_0
I0403 13:51:08.984788   431 net.cpp:399] inception_5a/output_inception_5a/output_0_split -> inception_5a/output_inception_5a/output_0_split_1
I0403 13:51:08.984809   431 net.cpp:399] inception_5a/output_inception_5a/output_0_split -> inception_5a/output_inception_5a/output_0_split_2
I0403 13:51:08.984832   431 net.cpp:399] inception_5a/output_inception_5a/output_0_split -> inception_5a/output_inception_5a/output_0_split_3
I0403 13:51:08.984946   431 net.cpp:141] Setting up inception_5a/output_inception_5a/output_0_split
I0403 13:51:08.984972   431 net.cpp:148] Top shape: 24 832 7 7 (978432)
I0403 13:51:08.984987   431 net.cpp:148] Top shape: 24 832 7 7 (978432)
I0403 13:51:08.985002   431 net.cpp:148] Top shape: 24 832 7 7 (978432)
I0403 13:51:08.985018   431 net.cpp:148] Top shape: 24 832 7 7 (978432)
I0403 13:51:08.985033   431 net.cpp:156] Memory required for data: 1325241888
I0403 13:51:08.985047   431 layer_factory.hpp:77] Creating layer inception_5b/1x1
I0403 13:51:08.985070   431 net.cpp:91] Creating Layer inception_5b/1x1
I0403 13:51:08.985087   431 net.cpp:425] inception_5b/1x1 <- inception_5a/output_inception_5a/output_0_split_0
I0403 13:51:08.985110   431 net.cpp:399] inception_5b/1x1 -> inception_5b/1x1
I0403 13:51:08.988943   431 net.cpp:141] Setting up inception_5b/1x1
I0403 13:51:08.988976   431 net.cpp:148] Top shape: 24 384 7 7 (451584)
I0403 13:51:08.988993   431 net.cpp:156] Memory required for data: 1327048224
I0403 13:51:08.989012   431 layer_factory.hpp:77] Creating layer inception_5b/relu_1x1
I0403 13:51:08.989034   431 net.cpp:91] Creating Layer inception_5b/relu_1x1
I0403 13:51:08.989053   431 net.cpp:425] inception_5b/relu_1x1 <- inception_5b/1x1
I0403 13:51:08.989070   431 net.cpp:386] inception_5b/relu_1x1 -> inception_5b/1x1 (in-place)
I0403 13:51:08.989385   431 net.cpp:141] Setting up inception_5b/relu_1x1
I0403 13:51:08.989413   431 net.cpp:148] Top shape: 24 384 7 7 (451584)
I0403 13:51:08.989428   431 net.cpp:156] Memory required for data: 1328854560
I0403 13:51:08.989444   431 layer_factory.hpp:77] Creating layer inception_5b/3x3_reduce
I0403 13:51:08.989465   431 net.cpp:91] Creating Layer inception_5b/3x3_reduce
I0403 13:51:08.989483   431 net.cpp:425] inception_5b/3x3_reduce <- inception_5a/output_inception_5a/output_0_split_1
I0403 13:51:08.989506   431 net.cpp:399] inception_5b/3x3_reduce -> inception_5b/3x3_reduce
I0403 13:51:08.992230   431 net.cpp:141] Setting up inception_5b/3x3_reduce
I0403 13:51:08.992261   431 net.cpp:148] Top shape: 24 192 7 7 (225792)
I0403 13:51:08.992277   431 net.cpp:156] Memory required for data: 1329757728
I0403 13:51:08.992297   431 layer_factory.hpp:77] Creating layer inception_5b/relu_3x3_reduce
I0403 13:51:08.992318   431 net.cpp:91] Creating Layer inception_5b/relu_3x3_reduce
I0403 13:51:08.992337   431 net.cpp:425] inception_5b/relu_3x3_reduce <- inception_5b/3x3_reduce
I0403 13:51:08.992355   431 net.cpp:386] inception_5b/relu_3x3_reduce -> inception_5b/3x3_reduce (in-place)
I0403 13:51:08.992573   431 net.cpp:141] Setting up inception_5b/relu_3x3_reduce
I0403 13:51:08.992599   431 net.cpp:148] Top shape: 24 192 7 7 (225792)
I0403 13:51:08.992615   431 net.cpp:156] Memory required for data: 1330660896
I0403 13:51:08.992630   431 layer_factory.hpp:77] Creating layer inception_5b/3x3
I0403 13:51:08.992653   431 net.cpp:91] Creating Layer inception_5b/3x3
I0403 13:51:08.992671   431 net.cpp:425] inception_5b/3x3 <- inception_5b/3x3_reduce
I0403 13:51:08.992691   431 net.cpp:399] inception_5b/3x3 -> inception_5b/3x3
I0403 13:51:08.999652   431 net.cpp:141] Setting up inception_5b/3x3
I0403 13:51:08.999687   431 net.cpp:148] Top shape: 24 384 7 7 (451584)
I0403 13:51:08.999703   431 net.cpp:156] Memory required for data: 1332467232
I0403 13:51:08.999724   431 layer_factory.hpp:77] Creating layer inception_5b/relu_3x3
I0403 13:51:08.999747   431 net.cpp:91] Creating Layer inception_5b/relu_3x3
I0403 13:51:08.999764   431 net.cpp:425] inception_5b/relu_3x3 <- inception_5b/3x3
I0403 13:51:08.999783   431 net.cpp:386] inception_5b/relu_3x3 -> inception_5b/3x3 (in-place)
I0403 13:51:09.000097   431 net.cpp:141] Setting up inception_5b/relu_3x3
I0403 13:51:09.000125   431 net.cpp:148] Top shape: 24 384 7 7 (451584)
I0403 13:51:09.000141   431 net.cpp:156] Memory required for data: 1334273568
I0403 13:51:09.000157   431 layer_factory.hpp:77] Creating layer inception_5b/5x5_reduce
I0403 13:51:09.000200   431 net.cpp:91] Creating Layer inception_5b/5x5_reduce
I0403 13:51:09.000224   431 net.cpp:425] inception_5b/5x5_reduce <- inception_5a/output_inception_5a/output_0_split_2
I0403 13:51:09.000247   431 net.cpp:399] inception_5b/5x5_reduce -> inception_5b/5x5_reduce
I0403 13:51:09.001682   431 net.cpp:141] Setting up inception_5b/5x5_reduce
I0403 13:51:09.001710   431 net.cpp:148] Top shape: 24 48 7 7 (56448)
I0403 13:51:09.001726   431 net.cpp:156] Memory required for data: 1334499360
I0403 13:51:09.001746   431 layer_factory.hpp:77] Creating layer inception_5b/relu_5x5_reduce
I0403 13:51:09.001766   431 net.cpp:91] Creating Layer inception_5b/relu_5x5_reduce
I0403 13:51:09.001785   431 net.cpp:425] inception_5b/relu_5x5_reduce <- inception_5b/5x5_reduce
I0403 13:51:09.001803   431 net.cpp:386] inception_5b/relu_5x5_reduce -> inception_5b/5x5_reduce (in-place)
I0403 13:51:09.002193   431 net.cpp:141] Setting up inception_5b/relu_5x5_reduce
I0403 13:51:09.002224   431 net.cpp:148] Top shape: 24 48 7 7 (56448)
I0403 13:51:09.002241   431 net.cpp:156] Memory required for data: 1334725152
I0403 13:51:09.002256   431 layer_factory.hpp:77] Creating layer inception_5b/5x5
I0403 13:51:09.002277   431 net.cpp:91] Creating Layer inception_5b/5x5
I0403 13:51:09.002295   431 net.cpp:425] inception_5b/5x5 <- inception_5b/5x5_reduce
I0403 13:51:09.002315   431 net.cpp:399] inception_5b/5x5 -> inception_5b/5x5
I0403 13:51:09.004501   431 net.cpp:141] Setting up inception_5b/5x5
I0403 13:51:09.004535   431 net.cpp:148] Top shape: 24 128 7 7 (150528)
I0403 13:51:09.004552   431 net.cpp:156] Memory required for data: 1335327264
I0403 13:51:09.004572   431 layer_factory.hpp:77] Creating layer inception_5b/relu_5x5
I0403 13:51:09.004590   431 net.cpp:91] Creating Layer inception_5b/relu_5x5
I0403 13:51:09.004607   431 net.cpp:425] inception_5b/relu_5x5 <- inception_5b/5x5
I0403 13:51:09.004626   431 net.cpp:386] inception_5b/relu_5x5 -> inception_5b/5x5 (in-place)
I0403 13:51:09.004835   431 net.cpp:141] Setting up inception_5b/relu_5x5
I0403 13:51:09.004861   431 net.cpp:148] Top shape: 24 128 7 7 (150528)
I0403 13:51:09.004876   431 net.cpp:156] Memory required for data: 1335929376
I0403 13:51:09.004891   431 layer_factory.hpp:77] Creating layer inception_5b/pool
I0403 13:51:09.004911   431 net.cpp:91] Creating Layer inception_5b/pool
I0403 13:51:09.004927   431 net.cpp:425] inception_5b/pool <- inception_5a/output_inception_5a/output_0_split_3
I0403 13:51:09.004950   431 net.cpp:399] inception_5b/pool -> inception_5b/pool
I0403 13:51:09.005025   431 net.cpp:141] Setting up inception_5b/pool
I0403 13:51:09.005053   431 net.cpp:148] Top shape: 24 832 7 7 (978432)
I0403 13:51:09.005069   431 net.cpp:156] Memory required for data: 1339843104
I0403 13:51:09.005084   431 layer_factory.hpp:77] Creating layer inception_5b/pool_proj
I0403 13:51:09.005106   431 net.cpp:91] Creating Layer inception_5b/pool_proj
I0403 13:51:09.005125   431 net.cpp:425] inception_5b/pool_proj <- inception_5b/pool
I0403 13:51:09.005144   431 net.cpp:399] inception_5b/pool_proj -> inception_5b/pool_proj
I0403 13:51:09.007570   431 net.cpp:141] Setting up inception_5b/pool_proj
I0403 13:51:09.007601   431 net.cpp:148] Top shape: 24 128 7 7 (150528)
I0403 13:51:09.007618   431 net.cpp:156] Memory required for data: 1340445216
I0403 13:51:09.007639   431 layer_factory.hpp:77] Creating layer inception_5b/relu_pool_proj
I0403 13:51:09.007660   431 net.cpp:91] Creating Layer inception_5b/relu_pool_proj
I0403 13:51:09.007679   431 net.cpp:425] inception_5b/relu_pool_proj <- inception_5b/pool_proj
I0403 13:51:09.007699   431 net.cpp:386] inception_5b/relu_pool_proj -> inception_5b/pool_proj (in-place)
I0403 13:51:09.008018   431 net.cpp:141] Setting up inception_5b/relu_pool_proj
I0403 13:51:09.008044   431 net.cpp:148] Top shape: 24 128 7 7 (150528)
I0403 13:51:09.008060   431 net.cpp:156] Memory required for data: 1341047328
I0403 13:51:09.008076   431 layer_factory.hpp:77] Creating layer inception_5b/output
I0403 13:51:09.008096   431 net.cpp:91] Creating Layer inception_5b/output
I0403 13:51:09.008129   431 net.cpp:425] inception_5b/output <- inception_5b/1x1
I0403 13:51:09.008147   431 net.cpp:425] inception_5b/output <- inception_5b/3x3
I0403 13:51:09.008165   431 net.cpp:425] inception_5b/output <- inception_5b/5x5
I0403 13:51:09.008183   431 net.cpp:425] inception_5b/output <- inception_5b/pool_proj
I0403 13:51:09.008199   431 net.cpp:399] inception_5b/output -> inception_5b/output
I0403 13:51:09.008261   431 net.cpp:141] Setting up inception_5b/output
I0403 13:51:09.008286   431 net.cpp:148] Top shape: 24 1024 7 7 (1204224)
I0403 13:51:09.008301   431 net.cpp:156] Memory required for data: 1345864224
I0403 13:51:09.008316   431 layer_factory.hpp:77] Creating layer pool5/7x7_s1
I0403 13:51:09.008334   431 net.cpp:91] Creating Layer pool5/7x7_s1
I0403 13:51:09.008352   431 net.cpp:425] pool5/7x7_s1 <- inception_5b/output
I0403 13:51:09.008373   431 net.cpp:399] pool5/7x7_s1 -> pool5/7x7_s1
I0403 13:51:09.008605   431 net.cpp:141] Setting up pool5/7x7_s1
I0403 13:51:09.008632   431 net.cpp:148] Top shape: 24 1024 1 1 (24576)
I0403 13:51:09.008649   431 net.cpp:156] Memory required for data: 1345962528
I0403 13:51:09.008664   431 layer_factory.hpp:77] Creating layer pool5/drop_7x7_s1
I0403 13:51:09.008682   431 net.cpp:91] Creating Layer pool5/drop_7x7_s1
I0403 13:51:09.008699   431 net.cpp:425] pool5/drop_7x7_s1 <- pool5/7x7_s1
I0403 13:51:09.008718   431 net.cpp:386] pool5/drop_7x7_s1 -> pool5/7x7_s1 (in-place)
I0403 13:51:09.008771   431 net.cpp:141] Setting up pool5/drop_7x7_s1
I0403 13:51:09.008795   431 net.cpp:148] Top shape: 24 1024 1 1 (24576)
I0403 13:51:09.008810   431 net.cpp:156] Memory required for data: 1346060832
I0403 13:51:09.008826   431 layer_factory.hpp:77] Creating layer loss3/classifier_plantvillage
I0403 13:51:09.008848   431 net.cpp:91] Creating Layer loss3/classifier_plantvillage
I0403 13:51:09.008867   431 net.cpp:425] loss3/classifier_plantvillage <- pool5/7x7_s1
I0403 13:51:09.008887   431 net.cpp:399] loss3/classifier_plantvillage -> loss3/classifier_plantvillage
I0403 13:51:09.009333   431 net.cpp:141] Setting up loss3/classifier_plantvillage
I0403 13:51:09.009361   431 net.cpp:148] Top shape: 24 38 (912)
I0403 13:51:09.009377   431 net.cpp:156] Memory required for data: 1346064480
I0403 13:51:09.009397   431 layer_factory.hpp:77] Creating layer loss3/classifier_plantvillage_loss3/classifier_plantvillage_0_split
I0403 13:51:09.009418   431 net.cpp:91] Creating Layer loss3/classifier_plantvillage_loss3/classifier_plantvillage_0_split
I0403 13:51:09.009434   431 net.cpp:425] loss3/classifier_plantvillage_loss3/classifier_plantvillage_0_split <- loss3/classifier_plantvillage
I0403 13:51:09.009456   431 net.cpp:399] loss3/classifier_plantvillage_loss3/classifier_plantvillage_0_split -> loss3/classifier_plantvillage_loss3/classifier_plantvillage_0_split_0
I0403 13:51:09.009479   431 net.cpp:399] loss3/classifier_plantvillage_loss3/classifier_plantvillage_0_split -> loss3/classifier_plantvillage_loss3/classifier_plantvillage_0_split_1
I0403 13:51:09.009500   431 net.cpp:399] loss3/classifier_plantvillage_loss3/classifier_plantvillage_0_split -> loss3/classifier_plantvillage_loss3/classifier_plantvillage_0_split_2
I0403 13:51:09.009521   431 net.cpp:399] loss3/classifier_plantvillage_loss3/classifier_plantvillage_0_split -> loss3/classifier_plantvillage_loss3/classifier_plantvillage_0_split_3
I0403 13:51:09.009629   431 net.cpp:141] Setting up loss3/classifier_plantvillage_loss3/classifier_plantvillage_0_split
I0403 13:51:09.009654   431 net.cpp:148] Top shape: 24 38 (912)
I0403 13:51:09.009670   431 net.cpp:148] Top shape: 24 38 (912)
I0403 13:51:09.009685   431 net.cpp:148] Top shape: 24 38 (912)
I0403 13:51:09.009702   431 net.cpp:148] Top shape: 24 38 (912)
I0403 13:51:09.009716   431 net.cpp:156] Memory required for data: 1346079072
I0403 13:51:09.009732   431 layer_factory.hpp:77] Creating layer loss1/loss
I0403 13:51:09.009754   431 net.cpp:91] Creating Layer loss1/loss
I0403 13:51:09.009773   431 net.cpp:425] loss1/loss <- loss1/classifier_plantvillage_loss1/classifier_plantvillage_0_split_0
I0403 13:51:09.009805   431 net.cpp:425] loss1/loss <- label_data_1_split_0
…
