…
I0403 13:48:21.773357   374 net.cpp:313] The NetState phase (1) differed from the phase (0) specified by a rule in layer data
I0403 13:48:21.774550   374 net.cpp:49] Initializing net from parameters: 
state {
  phase: TEST
}
layer {
  name: "data"
  type: "Data"
  top: "data"
  top: "label"
  include {
    phase: TEST
  }
  transform_param {
    mirror: false
    crop_size: 224
    mean_file: "/home/mohanty/data/final_dataset/lmdb/grayscale-20-80/mean.binaryproto"
  }
  data_param {
    source: "/home/mohanty/data/final_dataset/lmdb/grayscale-20-80/test_db"
    batch_size: 24
    backend: LMDB
  }
}
layer {
  name: "conv1/7x7_s2"
  type: "Convolution"
  bottom: "data"
  top: "conv1/7x7_s2"
  param {
    lr_mult: 1
    decay_mult: 1
  }
  param {
    lr_mult: 2
    decay_mult: 0
  }
  convolution_param {
    num_output: 64
    pad: 3
    kernel_size: 7
    stride: 2
    weight_filler {
      type: "xavier"
      std: 0.1
    }
    bias_filler {
      type: "constant"
      value: 0.2
    }
  }
}
layer {
  name: "conv1/relu_7x7"
  type: "ReLU"
  bottom: "conv1/7x7_s2"
  top: "conv1/7x7_s2"
}
layer {
  name: "pool1/3x3_s2"
  type: "Pooling"
  bottom: "conv1/7x7_s2"
  top: "pool1/3x3_s2"
  pooling_param {
    pool: MAX
    kernel_size: 3
    stride: 2
  }
}
layer {
  name: "pool1/norm1"
  type: "LRN"
  bottom: "pool1/3x3_s2"
  top: "pool1/norm1"
  lrn_param {
    local_size: 5
    alpha: 0.0001
    beta: 0.75
  }
}
layer {
  name: "conv2/3x3_reduce"
  type: "Convolution"
  bottom: "pool1/norm1"
  top: "conv2/3x3_reduce"
  param {
    lr_mult: 1
    decay_mult: 1
  }
  param {
    lr_mult: 2
    decay_mult: 0
  }
  convolution_param {
    num_output: 64
    kernel_size: 1
    weight_filler {
      type: "xavier"
      std: 0.1
    }
    bias_filler {
      type: "constant"
      value: 0.2
    }
  }
}
layer {
  name: "conv2/relu_3x3_reduce"
  type: "ReLU"
  bottom: "conv2/3x3_reduce"
  top: "conv2/3x3_reduce"
}
layer {
  name: "conv2/3x3"
  type: "Convolution"
  bottom: "conv2/3x3_reduce"
  top: "conv2/3x3"
  param {
    lr_mult: 1
    decay_mult: 1
  }
  param {
    lr_mult: 2
    decay_mult: 0
  }
  convolution_param {
    num_output: 192
    pad: 1
    kernel_size: 3
    weight_filler {
      type: "xavier"
      std: 0.03
    }
    bias_filler {
      type: "constant"
      value: 0.2
    }
  }
}
layer {
  name: "conv2/relu_3x3"
  type: "ReLU"
  bottom: "conv2/3x3"
  top: "conv2/3x3"
}
layer {
  name: "conv2/norm2"
  type: "LRN"
  bottom: "conv2/3x3"
  top: "conv2/norm2"
  lrn_param {
    local_size: 5
    alpha: 0.0001
    beta: 0.75
  }
}
layer {
  name: "pool2/3x3_s2"
  type: "Pooling"
  bottom: "conv2/norm2"
  top: "pool2/3x3_s2"
  pooling_param {
    pool: MAX
    kernel_size: 3
    stride: 2
  }
}
layer {
  name: "inception_3a/1x1"
  type: "Convolution"
  bottom: "pool2/3x3_s2"
  top: "inception_3a/1x1"
  param {
    lr_mult: 1
    decay_mult: 1
  }
  param {
    lr_mult: 2
    decay_mult: 0
  }
  convolution_param {
    num_output: 64
    kernel_size: 1
    weight_filler {
      type: "xavier"
      std: 0.03
    }
    bias_filler {
      type: "constant"
      value: 0.2
    }
  }
}
layer {
  name: "inception_3a/relu_1x1"
  type: "ReLU"
  bottom: "inception_3a/1x1"
  top: "inception_3a/1x1"
}
layer {
  name: "inception_3a/3x3_reduce"
  type: "Convolution"
  bottom: "pool2/3x3_s2"
  top: "inception_3a/3x3_reduce"
  param {
    lr_mult: 1
    decay_mult: 1
  }
  param {
    lr_mult: 2
    decay_mult: 0
  }
  convolution_param {
    num_output: 96
    kernel_size: 1
    weight_filler {
      type: "xavier"
      std: 0.09
    }
    bias_filler {
      type: "constant"
      value: 0.2
    }
  }
}
layer {
  name: "inception_3a/relu_3x3_reduce"
  type: "ReLU"
  bottom: "inception_3a/3x3_reduce"
  top: "inception_3a/3x3_reduce"
}
layer {
  name: "inception_3a/3x3"
  type: "Convolution"
  bottom: "inception_3a/3x3_reduce"
  top: "inception_3a/3x3"
  param {
    lr_mult: 1
    decay_mult: 1
  }
  param {
    lr_mult: 2
    decay_mult: 0
  }
  convolution_param {
    num_output: 128
    pad: 1
    kernel_size: 3
    weight_filler {
      type: "xavier"
      std: 0.03
    }
    bias_filler {
      type: "constant"
      value: 0.2
    }
  }
}
layer {
  name: "inception_3a/relu_3x3"
  type: "ReLU"
  bottom: "inception_3a/3x3"
  top: "inception_3a/3x3"
}
layer {
  name: "inception_3a/5x5_reduce"
  type: "Convolution"
  bottom: "pool2/3x3_s2"
  top: "inception_3a/5x5_reduce"
  param {
    lr_mult: 1
    decay_mult: 1
  }
  param {
    lr_mult: 2
    decay_mult: 0
  }
  convolution_param {
    num_output: 16
    kernel_size: 1
    weight_filler {
      type: "xavier"
      std: 0.2
    }
    bias_filler {
      type: "constant"
      value: 0.2
    }
  }
}
layer {
  name: "inception_3a/relu_5x5_reduce"
  type: "ReLU"
  bottom: "inception_3a/5x5_reduce"
  top: "inception_3a/5x5_reduce"
}
layer {
  name: "inception_3a/5x5"
  type: "Convolution"
  bottom: "inception_3a/5x5_reduce"
  top: "inception_3a/5x5"
  param {
    lr_mult: 1
    decay_mult: 1
  }
  param {
    lr_mult: 2
    decay_mult: 0
  }
  convolution_param {
    num_output: 32
    pad: 2
    kernel_size: 5
    weight_filler {
      type: "xavier"
      std: 0.03
    }
    bias_filler {
      type: "constant"
      value: 0.2
    }
  }
}
layer {
  name: "inception_3a/relu_5x5"
  type: "ReLU"
  bottom: "inception_3a/5x5"
  top: "inception_3a/5x5"
}
layer {
  name: "inception_3a/pool"
  type: "Pooling"
  bottom: "pool2/3x3_s2"
  top: "inception_3a/pool"
  pooling_param {
    pool: MAX
    kernel_size: 3
    stride: 1
    pad: 1
  }
}
layer {
  name: "inception_3a/pool_proj"
  type: "Convolution"
  bottom: "inception_3a/pool"
  top: "inception_3a/pool_proj"
  param {
    lr_mult: 1
    decay_mult: 1
  }
  param {
    lr_mult: 2
    decay_mult: 0
  }
  convolution_param {
    num_output: 32
    kernel_size: 1
    weight_filler {
      type: "xavier"
      std: 0.1
    }
    bias_filler {
      type: "constant"
      value: 0.2
    }
  }
}
layer {
  name: "inception_3a/relu_pool_proj"
  type: "ReLU"
  bottom: "inception_3a/pool_proj"
  top: "inception_3a/pool_proj"
}
layer {
  name: "inception_3a/output"
  type: "Concat"
  bottom: "inception_3a/1x1"
  bottom: "inception_3a/3x3"
  bottom: "inception_3a/5x5"
  bottom: "inception_3a/pool_proj"
  top: "inception_3a/output"
}
layer {
  name: "inception_3b/1x1"
  type: "Convolution"
  bottom: "inception_3a/output"
  top: "inception_3b/1x1"
  param {
    lr_mult: 1
    decay_mult: 1
  }
  param {
    lr_mult: 2
    decay_mult: 0
  }
  convolution_param {
    num_output: 128
    kernel_size: 1
    weight_filler {
      type: "xavier"
      std: 0.03
    }
    bias_filler {
      type: "constant"
      value: 0.2
    }
  }
}
layer {
  name: "inception_3b/relu_1x1"
  type: "ReLU"
  bottom: "inception_3b/1x1"
  top: "inception_3b/1x1"
}
layer {
  name: "inception_3b/3x3_reduce"
  type: "Convolution"
  bottom: "inception_3a/output"
  top: "inception_3b/3x3_reduce"
  param {
    lr_mult: 1
    decay_mult: 1
  }
  param {
    lr_mult: 2
    decay_mult: 0
  }
  convolution_param {
    num_output: 128
    kernel_size: 1
    weight_filler {
      type: "xavier"
      std: 0.09
    }
    bias_filler {
      type: "constant"
      value: 0.2
    }
  }
}
layer {
  name: "inception_3b/relu_3x3_reduce"
  type: "ReLU"
  bottom: "inception_3b/3x3_reduce"
  top: "inception_3b/3x3_reduce"
}
layer {
  name: "inception_3b/3x3"
  type: "Convolution"
  bottom: "inception_3b/3x3_reduce"
  top: "inception_3b/3x3"
  param {
    lr_mult: 1
    decay_mult: 1
  }
  param {
    lr_mult: 2
    decay_mult: 0
  }
  convolution_param {
    num_output: 192
    pad: 1
    kernel_size: 3
    weight_filler {
      type: "xavier"
      std: 0.03
    }
    bias_filler {
      type: "constant"
      value: 0.2
    }
  }
}
layer {
  name: "inception_3b/relu_3x3"
  type: "ReLU"
  bottom: "inception_3b/3x3"
  top: "inception_3b/3x3"
}
layer {
  name: "inception_3b/5x5_reduce"
  type: "Convolution"
  bottom: "inception_3a/output"
  top: "inception_3b/5x5_reduce"
  param {
    lr_mult: 1
    decay_mult: 1
  }
  param {
    lr_mult: 2
    decay_mult: 0
  }
  convolution_param {
    num_output: 32
    kernel_size: 1
    weight_filler {
      type: "xavier"
      std: 0.2
    }
    bias_filler {
      type: "constant"
      value: 0.2
    }
  }
}
layer {
  name: "inception_3b/relu_5x5_reduce"
  type: "ReLU"
  bottom: "inception_3b/5x5_reduce"
  top: "inception_3b/5x5_reduce"
}
layer {
  name: "inception_3b/5x5"
  type: "Convolution"
  bottom: "inception_3b/5x5_reduce"
  top: "inception_3b/5x5"
  param {
    lr_mult: 1
    decay_mult: 1
  }
  param {
    lr_mult: 2
    decay_mult: 0
  }
  convolution_param {
    num_output: 96
    pad: 2
    kernel_size: 5
    weight_filler {
      type: "xavier"
      std: 0.03
    }
    bias_filler {
      type: "constant"
      value: 0.2
    }
  }
}
layer {
  name: "inception_3b/relu_5x5"
  type: "ReLU"
  bottom: "inception_3b/5x5"
  top: "inception_3b/5x5"
}
layer {
  name: "inception_3b/pool"
  type: "Pooling"
  bottom: "inception_3a/output"
  top: "inception_3b/pool"
  pooling_param {
    pool: MAX
    kernel_size: 3
    stride: 1
    pad: 1
  }
}
layer {
  name: "inception_3b/pool_proj"
  type: "Convolution"
  bottom: "inception_3b/pool"
  top: "inception_3b/pool_proj"
  param {
    lr_mult: 1
    decay_mult: 1
  }
  param {
    lr_mult: 2
    decay_mult: 0
  }
  convolution_param {
    num_output: 64
    kernel_size: 1
    weight_filler {
      type: "xavier"
      std: 0.1
    }
    bias_filler {
      type: "constant"
      value: 0.2
    }
  }
}
layer {
  name: "inception_3b/relu_pool_proj"
  type: "ReLU"
  bottom: "inception_3b/pool_proj"
  top: "inception_3b/pool_proj"
}
layer {
  name: "inception_3b/output"
  type: "Concat"
  bottom: "inception_3b/1x1"
  bottom: "inception_3b/3x3"
  bottom: "inception_3b/5x5"
  bottom: "inception_3b/pool_proj"
  top: "inception_3b/output"
}
layer {
  name: "pool3/3x3_s2"
  type: "Pooling"
  bottom: "inception_3b/output"
  top: "pool3/3x3_s2"
  pooling_param {
    pool: MAX
    kernel_size: 3
    stride: 2
  }
}
layer {
  name: "inception_4a/1x1"
  type: "Convolution"
  bottom: "pool3/3x3_s2"
  top: "inception_4a/1x1"
  param {
    lr_mult: 1
    decay_mult: 1
  }
  param {
    lr_mult: 2
    decay_mult: 0
  }
  convolution_param {
    num_output: 192
    kernel_size: 1
    weight_filler {
      type: "xavier"
      std: 0.03
    }
    bias_filler {
      type: "constant"
      value: 0.2
    }
  }
}
layer {
  name: "inception_4a/relu_1x1"
  type: "ReLU"
  bottom: "inception_4a/1x1"
  top: "inception_4a/1x1"
}
layer {
  name: "inception_4a/3x3_reduce"
  type: "Convolution"
  bottom: "pool3/3x3_s2"
  top: "inception_4a/3x3_reduce"
  param {
    lr_mult: 1
    decay_mult: 1
  }
  param {
    lr_mult: 2
    decay_mult: 0
  }
  convolution_param {
    num_output: 96
    kernel_size: 1
    weight_filler {
      type: "xavier"
      std: 0.09
    }
    bias_filler {
      type: "constant"
      value: 0.2
    }
  }
}
layer {
  name: "inception_4a/relu_3x3_reduce"
  type: "ReLU"
  bottom: "inception_4a/3x3_reduce"
  top: "inception_4a/3x3_reduce"
}
layer {
  name: "inception_4a/3x3"
  type: "Convolution"
  bottom: "inception_4a/3x3_reduce"
  top: "inception_4a/3x3"
  param {
    lr_mult: 1
    decay_mult: 1
  }
  param {
    lr_mult: 2
    decay_mult: 0
  }
  convolution_param {
    num_output: 208
    pad: 1
    kernel_size: 3
    weight_filler {
      type: "xavier"
      std: 0.03
    }
    bias_filler {
      type: "constant"
      value: 0.2
    }
  }
}
layer {
  name: "inception_4a/relu_3x3"
  type: "ReLU"
  bottom: "inception_4a/3x3"
  top: "inception_4a/3x3"
}
layer {
  name: "inception_4a/5x5_reduce"
  type: "Convolution"
  bottom: "pool3/3x3_s2"
  top: "inception_4a/5x5_reduce"
  param {
    lr_mult: 1
    decay_mult: 1
  }
  param {
    lr_mult: 2
    decay_mult: 0
  }
  convolution_param {
    num_output: 16
    kernel_size: 1
    weight_filler {
      type: "xavier"
      std: 0.2
    }
    bias_filler {
      type: "constant"
      value: 0.2
    }
  }
}
layer {
  name: "inception_4a/relu_5x5_reduce"
  type: "ReLU"
  bottom: "inception_4a/5x5_reduce"
  top: "inception_4a/5x5_reduce"
}
layer {
  name: "inception_4a/5x5"
  type: "Convolution"
  bottom: "inception_4a/5x5_reduce"
  top: "inception_4a/5x5"
  param {
    lr_mult: 1
    decay_mult: 1
  }
  param {
    lr_mult: 2
    decay_mult: 0
  }
  convolution_param {
    num_output: 48
    pad: 2
    kernel_size: 5
    weight_filler {
      type: "xavier"
      std: 0.03
    }
    bias_filler {
      type: "constant"
      value: 0.2
    }
  }
}
layer {
  name: "inception_4a/relu_5x5"
  type: "ReLU"
  bottom: "inception_4a/5x5"
  top: "inception_4a/5x5"
}
layer {
  name: "inception_4a/pool"
  type: "Pooling"
  bottom: "pool3/3x3_s2"
  top: "inception_4a/pool"
  pooling_param {
    pool: MAX
    kernel_size: 3
    stride: 1
    pad: 1
  }
}
layer {
  name: "inception_4a/pool_proj"
  type: "Convolution"
  bottom: "inception_4a/pool"
  top: "inception_4a/pool_proj"
  param {
    lr_mult: 1
    decay_mult: 1
  }
  param {
    lr_mult: 2
    decay_mult: 0
  }
  convolution_param {
    num_output: 64
    kernel_size: 1
    weight_filler {
      type: "xavier"
      std: 0.1
    }
    bias_filler {
      type: "constant"
      value: 0.2
    }
  }
}
layer {
  name: "inception_4a/relu_pool_proj"
  type: "ReLU"
  bottom: "inception_4a/pool_proj"
  top: "inception_4a/pool_proj"
}
layer {
  name: "inception_4a/output"
  type: "Concat"
  bottom: "inception_4a/1x1"
  bottom: "inception_4a/3x3"
  bottom: "inception_4a/5x5"
  bottom: "inception_4a/pool_proj"
  top: "inception_4a/output"
}
layer {
  name: "loss1/ave_pool"
  type: "Pooling"
  bottom: "inception_4a/output"
  top: "loss1/ave_pool"
  pooling_param {
    pool: AVE
    kernel_size: 5
    stride: 3
  }
}
layer {
  name: "loss1/conv"
  type: "Convolution"
  bottom: "loss1/ave_pool"
  top: "loss1/conv"
  param {
    lr_mult: 1
    decay_mult: 1
  }
  param {
    lr_mult: 2
    decay_mult: 0
  }
  convolution_param {
    num_output: 128
    kernel_size: 1
    weight_filler {
      type: "xavier"
      std: 0.08
    }
    bias_filler {
      type: "constant"
      value: 0.2
    }
  }
}
layer {
  name: "loss1/relu_conv"
  type: "ReLU"
  bottom: "loss1/conv"
  top: "loss1/conv"
}
layer {
  name: "loss1/fc"
  type: "InnerProduct"
  bottom: "loss1/conv"
  top: "loss1/fc"
  param {
    lr_mult: 1
    decay_mult: 1
  }
  param {
    lr_mult: 2
    decay_mult: 0
  }
  inner_product_param {
    num_output: 1024
    weight_filler {
      type: "xavier"
      std: 0.02
    }
    bias_filler {
      type: "constant"
      value: 0.2
    }
  }
}
layer {
  name: "loss1/relu_fc"
  type: "ReLU"
  bottom: "loss1/fc"
  top: "loss1/fc"
}
layer {
  name: "loss1/drop_fc"
  type: "Dropout"
  bottom: "loss1/fc"
  top: "loss1/fc"
  dropout_param {
    dropout_ratio: 0.7
  }
}
layer {
  name: "loss1/classifier_plantvillage"
  type: "InnerProduct"
  bottom: "loss1/fc"
  top: "loss1/classifier_plantvillage"
  param {
    lr_mult: 1
    decay_mult: 1
  }
  param {
    lr_mult: 2
    decay_mult: 0
  }
  inner_product_param {
    num_output: 38
    weight_filler {
      type: "xavier"
      std: 0.0009765625
    }
    bias_filler {
      type: "constant"
      value: 0
    }
  }
}
layer {
  name: "inception_4b/1x1"
  type: "Convolution"
  bottom: "inception_4a/output"
  top: "inception_4b/1x1"
  param {
    lr_mult: 1
    decay_mult: 1
  }
  param {
    lr_mult: 2
    decay_mult: 0
  }
  convolution_param {
    num_output: 160
    kernel_size: 1
    weight_filler {
      type: "xavier"
      std: 0.03
    }
    bias_filler {
      type: "constant"
      value: 0.2
    }
  }
}
layer {
  name: "inception_4b/relu_1x1"
  type: "ReLU"
  bottom: "inception_4b/1x1"
  top: "inception_4b/1x1"
}
layer {
  name: "inception_4b/3x3_reduce"
  type: "Convolution"
  bottom: "inception_4a/output"
  top: "inception_4b/3x3_reduce"
  param {
    lr_mult: 1
    decay_mult: 1
  }
  param {
    lr_mult: 2
    decay_mult: 0
  }
  convolution_param {
    num_output: 112
    kernel_size: 1
    weight_filler {
      type: "xavier"
      std: 0.09
    }
    bias_filler {
      type: "constant"
      value: 0.2
    }
  }
}
layer {
  name: "inception_4b/relu_3x3_reduce"
  type: "ReLU"
  bottom: "inception_4b/3x3_reduce"
  top: "inception_4b/3x3_reduce"
}
layer {
  name: "inception_4b/3x3"
  type: "Convolution"
  bottom: "inception_4b/3x3_reduce"
  top: "inception_4b/3x3"
  param {
    lr_mult: 1
    decay_mult: 1
  }
  param {
    lr_mult: 2
    decay_mult: 0
  }
  convolution_param {
    num_output: 224
    pad: 1
    kernel_size: 3
    weight_filler {
      type: "xavier"
      std: 0.03
    }
    bias_filler {
      type: "constant"
      value: 0.2
    }
  }
}
layer {
  name: "inception_4b/relu_3x3"
  type: "ReLU"
  bottom: "inception_4b/3x3"
  top: "inception_4b/3x3"
}
layer {
  name: "inception_4b/5x5_reduce"
  type: "Convolution"
  bottom: "inception_4a/output"
  top: "inception_4b/5x5_reduce"
  param {
    lr_mult: 1
    decay_mult: 1
  }
  param {
    lr_mult: 2
    decay_mult: 0
  }
  convolution_param {
    num_output: 24
    kernel_size: 1
    weight_filler {
      type: "xavier"
      std: 0.2
    }
    bias_filler {
      type: "constant"
      value: 0.2
    }
  }
}
layer {
  name: "inception_4b/relu_5x5_reduce"
  type: "ReLU"
  bottom: "inception_4b/5x5_reduce"
  top: "inception_4b/5x5_reduce"
}
layer {
  name: "inception_4b/5x5"
  type: "Convolution"
  bottom: "inception_4b/5x5_reduce"
  top: "inception_4b/5x5"
  param {
    lr_mult: 1
    decay_mult: 1
  }
  param {
    lr_mult: 2
    decay_mult: 0
  }
  convolution_param {
    num_output: 64
    pad: 2
    kernel_size: 5
    weight_filler {
      type: "xavier"
      std: 0.03
    }
    bias_filler {
      type: "constant"
      value: 0.2
    }
  }
}
layer {
  name: "inception_4b/relu_5x5"
  type: "ReLU"
  bottom: "inception_4b/5x5"
  top: "inception_4b/5x5"
}
layer {
  name: "inception_4b/pool"
  type: "Pooling"
  bottom: "inception_4a/output"
  top: "inception_4b/pool"
  pooling_param {
    pool: MAX
    kernel_size: 3
    stride: 1
    pad: 1
  }
}
layer {
  name: "inception_4b/pool_proj"
  type: "Convolution"
  bottom: "inception_4b/pool"
  top: "inception_4b/pool_proj"
  param {
    lr_mult: 1
    decay_mult: 1
  }
  param {
    lr_mult: 2
    decay_mult: 0
  }
  convolution_param {
    num_output: 64
    kernel_size: 1
    weight_filler {
      type: "xavier"
      std: 0.1
    }
    bias_filler {
      type: "constant"
      value: 0.2
    }
  }
}
layer {
  name: "inception_4b/relu_pool_proj"
  type: "ReLU"
  bottom: "inception_4b/pool_proj"
  top: "inception_4b/pool_proj"
}
layer {
  name: "inception_4b/output"
  type: "Concat"
  bottom: "inception_4b/1x1"
  bottom: "inception_4b/3x3"
  bottom: "inception_4b/5x5"
  bottom: "inception_4b/pool_proj"
  top: "inception_4b/output"
}
layer {
  name: "inception_4c/1x1"
  type: "Convolution"
  bottom: "inception_4b/output"
  top: "inception_4c/1x1"
  param {
    lr_mult: 1
    decay_mult: 1
  }
  param {
    lr_mult: 2
    decay_mult: 0
  }
  convolution_param {
    num_output: 128
    kernel_size: 1
    weight_filler {
      type: "xavier"
      std: 0.03
    }
    bias_filler {
      type: "constant"
      value: 0.2
    }
  }
}
layer {
  name: "inception_4c/relu_1x1"
  type: "ReLU"
  bottom: "inception_4c/1x1"
  top: "inception_4c/1x1"
}
layer {
  name: "inception_4c/3x3_reduce"
  type: "Convolution"
  bottom: "inception_4b/output"
  top: "inception_4c/3x3_reduce"
  param {
    lr_mult: 1
    decay_mult: 1
  }
  param {
    lr_mult: 2
    decay_mult: 0
  }
  convolution_param {
    num_output: 128
    kernel_size: 1
    weight_filler {
      type: "xavier"
      std: 0.09
    }
    bias_filler {
      type: "constant"
      value: 0.2
    }
  }
}
layer {
  name: "inception_4c/relu_3x3_reduce"
  type: "ReLU"
  bottom: "inception_4c/3x3_reduce"
  top: "inception_4c/3x3_reduce"
}
layer {
  name: "inception_4c/3x3"
  type: "Convolution"
  bottom: "inception_4c/3x3_reduce"
  top: "inception_4c/3x3"
  param {
    lr_mult: 1
    decay_mult: 1
  }
  param {
    lr_mult: 2
    decay_mult: 0
  }
  convolution_param {
    num_output: 256
    pad: 1
    kernel_size: 3
    weight_filler {
      type: "xavier"
      std: 0.03
    }
    bias_filler {
      type: "constant"
      value: 0.2
    }
  }
}
layer {
  name: "inception_4c/relu_3x3"
  type: "ReLU"
  bottom: "inception_4c/3x3"
  top: "inception_4c/3x3"
}
layer {
  name: "inception_4c/5x5_reduce"
  type: "Convolution"
  bottom: "inception_4b/output"
  top: "inception_4c/5x5_reduce"
  param {
    lr_mult: 1
    decay_mult: 1
  }
  param {
    lr_mult: 2
    decay_mult: 0
  }
  convolution_param {
    num_output: 24
    kernel_size: 1
    weight_filler {
      type: "xavier"
      std: 0.2
    }
    bias_filler {
      type: "constant"
      value: 0.2
    }
  }
}
layer {
  name: "inception_4c/relu_5x5_reduce"
  type: "ReLU"
  bottom: "inception_4c/5x5_reduce"
  top: "inception_4c/5x5_reduce"
}
layer {
  name: "inception_4c/5x5"
  type: "Convolution"
  bottom: "inception_4c/5x5_reduce"
  top: "inception_4c/5x5"
  param {
    lr_mult: 1
    decay_mult: 1
  }
  param {
    lr_mult: 2
    decay_mult: 0
  }
  convolution_param {
    num_output: 64
    pad: 2
    kernel_size: 5
    weight_filler {
      type: "xavier"
      std: 0.03
    }
    bias_filler {
      type: "constant"
      value: 0.2
    }
  }
}
layer {
  name: "inception_4c/relu_5x5"
  type: "ReLU"
  bottom: "inception_4c/5x5"
  top: "inception_4c/5x5"
}
layer {
  name: "inception_4c/pool"
  type: "Pooling"
  bottom: "inception_4b/output"
  top: "inception_4c/pool"
  pooling_param {
    pool: MAX
    kernel_size: 3
    stride: 1
    pad: 1
  }
}
layer {
  name: "inception_4c/pool_proj"
  type: "Convolution"
  bottom: "inception_4c/pool"
  top: "inception_4c/pool_proj"
  param {
    lr_mult: 1
    decay_mult: 1
  }
  param {
    lr_mult: 2
    decay_mult: 0
  }
  convolution_param {
    num_output: 64
    kernel_size: 1
    weight_filler {
      type: "xavier"
      std: 0.1
    }
    bias_filler {
      type: "constant"
      value: 0.2
    }
  }
}
layer {
  name: "inception_4c/relu_pool_proj"
  type: "ReLU"
  bottom: "inception_4c/pool_proj"
  top: "inception_4c/pool_proj"
}
layer {
  name: "inception_4c/output"
  type: "Concat"
  bottom: "inception_4c/1x1"
  bottom: "inception_4c/3x3"
  bottom: "inception_4c/5x5"
  bottom: "inception_4c/pool_proj"
  top: "inception_4c/output"
}
layer {
  name: "inception_4d/1x1"
  type: "Convolution"
  bottom: "inception_4c/output"
  top: "inception_4d/1x1"
  param {
    lr_mult: 1
    decay_mult: 1
  }
  param {
    lr_mult: 2
    decay_mult: 0
  }
  convolution_param {
    num_output: 112
    kernel_size: 1
    weight_filler {
      type: "xavier"
      std: 0.03
    }
    bias_filler {
      type: "constant"
      value: 0.2
    }
  }
}
layer {
  name: "inception_4d/relu_1x1"
  type: "ReLU"
  bottom: "inception_4d/1x1"
  top: "inception_4d/1x1"
}
layer {
  name: "inception_4d/3x3_reduce"
  type: "Convolution"
  bottom: "inception_4c/output"
  top: "inception_4d/3x3_reduce"
  param {
    lr_mult: 1
    decay_mult: 1
  }
  param {
    lr_mult: 2
    decay_mult: 0
  }
  convolution_param {
    num_output: 144
    kernel_size: 1
    weight_filler {
      type: "xavier"
      std: 0.09
    }
    bias_filler {
      type: "constant"
      value: 0.2
    }
  }
}
layer {
  name: "inception_4d/relu_3x3_reduce"
  type: "ReLU"
  bottom: "inception_4d/3x3_reduce"
  top: "inception_4d/3x3_reduce"
}
layer {
  name: "inception_4d/3x3"
  type: "Convolution"
  bottom: "inception_4d/3x3_reduce"
  top: "inception_4d/3x3"
  param {
    lr_mult: 1
    decay_mult: 1
  }
  param {
    lr_mult: 2
    decay_mult: 0
  }
  convolution_param {
    num_output: 288
    pad: 1
    kernel_size: 3
    weight_filler {
      type: "xavier"
      std: 0.03
    }
    bias_filler {
      type: "constant"
      value: 0.2
    }
  }
}
layer {
  name: "inception_4d/relu_3x3"
  type: "ReLU"
  bottom: "inception_4d/3x3"
  top: "inception_4d/3x3"
}
layer {
  name: "inception_4d/5x5_reduce"
  type: "Convolution"
  bottom: "inception_4c/output"
  top: "inception_4d/5x5_reduce"
  param {
    lr_mult: 1
    decay_mult: 1
  }
  param {
    lr_mult: 2
    decay_mult: 0
  }
  convolution_param {
    num_output: 32
    kernel_size: 1
    weight_filler {
      type: "xavier"
      std: 0.2
    }
    bias_filler {
      type: "constant"
      value: 0.2
    }
  }
}
layer {
  name: "inception_4d/relu_5x5_reduce"
  type: "ReLU"
  bottom: "inception_4d/5x5_reduce"
  top: "inception_4d/5x5_reduce"
}
layer {
  name: "inception_4d/5x5"
  type: "Convolution"
  bottom: "inception_4d/5x5_reduce"
  top: "inception_4d/5x5"
  param {
    lr_mult: 1
    decay_mult: 1
  }
  param {
    lr_mult: 2
    decay_mult: 0
  }
  convolution_param {
    num_output: 64
    pad: 2
    kernel_size: 5
    weight_filler {
      type: "xavier"
      std: 0.03
    }
    bias_filler {
      type: "constant"
      value: 0.2
    }
  }
}
layer {
  name: "inception_4d/relu_5x5"
  type: "ReLU"
  bottom: "inception_4d/5x5"
  top: "inception_4d/5x5"
}
layer {
  name: "inception_4d/pool"
  type: "Pooling"
  bottom: "inception_4c/output"
  top: "inception_4d/pool"
  pooling_param {
    pool: MAX
    kernel_size: 3
    stride: 1
    pad: 1
  }
}
layer {
  name: "inception_4d/pool_proj"
  type: "Convolution"
  bottom: "inception_4d/pool"
  top: "inception_4d/pool_proj"
  param {
    lr_mult: 1
    decay_mult: 1
  }
  param {
    lr_mult: 2
    decay_mult: 0
  }
  convolution_param {
    num_output: 64
    kernel_size: 1
    weight_filler {
      type: "xavier"
      std: 0.1
    }
    bias_filler {
      type: "constant"
      value: 0.2
    }
  }
}
layer {
  name: "inception_4d/relu_pool_proj"
  type: "ReLU"
  bottom: "inception_4d/pool_proj"
  top: "inception_4d/pool_proj"
}
layer {
  name: "inception_4d/output"
  type: "Concat"
  bottom: "inception_4d/1x1"
  bottom: "inception_4d/3x3"
  bottom: "inception_4d/5x5"
  bottom: "inception_4d/pool_proj"
  top: "inception_4d/output"
}
layer {
  name: "loss2/ave_pool"
  type: "Pooling"
  bottom: "inception_4d/output"
  top: "loss2/ave_pool"
  pooling_param {
    pool: AVE
    kernel_size: 5
    stride: 3
  }
}
layer {
  name: "loss2/conv"
  type: "Convolution"
  bottom: "loss2/ave_pool"
  top: "loss2/conv"
  param {
    lr_mult: 1
    decay_mult: 1
  }
  param {
    lr_mult: 2
    decay_mult: 0
  }
  convolution_param {
    num_output: 128
    kernel_size: 1
    weight_filler {
      type: "xavier"
      std: 0.08
    }
    bias_filler {
      type: "constant"
      value: 0.2
    }
  }
}
layer {
  name: "loss2/relu_conv"
  type: "ReLU"
  bottom: "loss2/conv"
  top: "loss2/conv"
}
layer {
  name: "loss2/fc"
  type: "InnerProduct"
  bottom: "loss2/conv"
  top: "loss2/fc"
  param {
    lr_mult: 1
    decay_mult: 1
  }
  param {
    lr_mult: 2
    decay_mult: 0
  }
  inner_product_param {
    num_output: 1024
    weight_filler {
      type: "xavier"
      std: 0.02
    }
    bias_filler {
      type: "constant"
      value: 0.2
    }
  }
}
layer {
  name: "loss2/relu_fc"
  type: "ReLU"
  bottom: "loss2/fc"
  top: "loss2/fc"
}
layer {
  name: "loss2/drop_fc"
  type: "Dropout"
  bottom: "loss2/fc"
  top: "loss2/fc"
  dropout_param {
    dropout_ratio: 0.7
  }
}
layer {
  name: "loss2/classifier_plantvillage"
  type: "InnerProduct"
  bottom: "loss2/fc"
  top: "loss2/classifier_plantvillage"
  param {
    lr_mult: 1
    decay_mult: 1
  }
  param {
    lr_mult: 2
    decay_mult: 0
  }
  inner_product_param {
    num_output: 38
    weight_filler {
      type: "xavier"
      std: 0.0009765625
    }
    bias_filler {
      type: "constant"
      value: 0
    }
  }
}
layer {
  name: "inception_4e/1x1"
  type: "Convolution"
  bottom: "inception_4d/output"
  top: "inception_4e/1x1"
  param {
    lr_mult: 1
    decay_mult: 1
  }
  param {
    lr_mult: 2
    decay_mult: 0
  }
  convolution_param {
    num_output: 256
    kernel_size: 1
    weight_filler {
      type: "xavier"
      std: 0.03
    }
    bias_filler {
      type: "constant"
      value: 0.2
    }
  }
}
layer {
  name: "inception_4e/relu_1x1"
  type: "ReLU"
  bottom: "inception_4e/1x1"
  top: "inception_4e/1x1"
}
layer {
  name: "inception_4e/3x3_reduce"
  type: "Convolution"
  bottom: "inception_4d/output"
  top: "inception_4e/3x3_reduce"
  param {
    lr_mult: 1
    decay_mult: 1
  }
  param {
    lr_mult: 2
    decay_mult: 0
  }
  convolution_param {
    num_output: 160
    kernel_size: 1
    weight_filler {
      type: "xavier"
      std: 0.09
    }
    bias_filler {
      type: "constant"
      value: 0.2
    }
  }
}
layer {
  name: "inception_4e/relu_3x3_reduce"
  type: "ReLU"
  bottom: "inception_4e/3x3_reduce"
  top: "inception_4e/3x3_reduce"
}
layer {
  name: "inception_4e/3x3"
  type: "Convolution"
  bottom: "inception_4e/3x3_reduce"
  top: "inception_4e/3x3"
  param {
    lr_mult: 1
    decay_mult: 1
  }
  param {
    lr_mult: 2
    decay_mult: 0
  }
  convolution_param {
    num_output: 320
    pad: 1
    kernel_size: 3
    weight_filler {
      type: "xavier"
      std: 0.03
    }
    bias_filler {
      type: "constant"
      value: 0.2
    }
  }
}
layer {
  name: "inception_4e/relu_3x3"
  type: "ReLU"
  bottom: "inception_4e/3x3"
  top: "inception_4e/3x3"
}
layer {
  name: "inception_4e/5x5_reduce"
  type: "Convolution"
  bottom: "inception_4d/output"
  top: "inception_4e/5x5_reduce"
  param {
    lr_mult: 1
    decay_mult: 1
  }
  param {
    lr_mult: 2
    decay_mult: 0
  }
  convolution_param {
    num_output: 32
    kernel_size: 1
    weight_filler {
      type: "xavier"
      std: 0.2
    }
    bias_filler {
      type: "constant"
      value: 0.2
    }
  }
}
layer {
  name: "inception_4e/relu_5x5_reduce"
  type: "ReLU"
  bottom: "inception_4e/5x5_reduce"
  top: "inception_4e/5x5_reduce"
}
layer {
  name: "inception_4e/5x5"
  type: "Convolution"
  bottom: "inception_4e/5x5_reduce"
  top: "inception_4e/
I0403 13:48:21.775773   374 layer_factory.hpp:77] Creating layer data
I0403 13:48:21.776388   374 net.cpp:91] Creating Layer data
I0403 13:48:21.776419   374 net.cpp:399] data -> data
I0403 13:48:21.776474   374 net.cpp:399] data -> label
I0403 13:48:21.776511   374 data_transformer.cpp:25] Loading mean file from: /home/mohanty/data/final_dataset/lmdb/grayscale-20-80/mean.binaryproto
I0403 13:48:21.779422   377 db_lmdb.cpp:38] Opened lmdb /home/mohanty/data/final_dataset/lmdb/grayscale-20-80/test_db
I0403 13:48:21.790240   374 data_layer.cpp:41] output data size: 24,3,224,224
I0403 13:48:21.817785   374 net.cpp:141] Setting up data
I0403 13:48:21.817886   374 net.cpp:148] Top shape: 24 3 224 224 (3612672)
I0403 13:48:21.817910   374 net.cpp:148] Top shape: 24 (24)
I0403 13:48:21.817926   374 net.cpp:156] Memory required for data: 14450784
I0403 13:48:21.817955   374 layer_factory.hpp:77] Creating layer label_data_1_split
I0403 13:48:21.817982   374 net.cpp:91] Creating Layer label_data_1_split
I0403 13:48:21.818001   374 net.cpp:425] label_data_1_split <- label
I0403 13:48:21.818034   374 net.cpp:399] label_data_1_split -> label_data_1_split_0
I0403 13:48:21.818063   374 net.cpp:399] label_data_1_split -> label_data_1_split_1
I0403 13:48:21.818085   374 net.cpp:399] label_data_1_split -> label_data_1_split_2
I0403 13:48:21.818107   374 net.cpp:399] label_data_1_split -> label_data_1_split_3
I0403 13:48:21.818128   374 net.cpp:399] label_data_1_split -> label_data_1_split_4
I0403 13:48:21.818150   374 net.cpp:399] label_data_1_split -> label_data_1_split_5
I0403 13:48:21.818171   374 net.cpp:399] label_data_1_split -> label_data_1_split_6
I0403 13:48:21.818200   374 net.cpp:399] label_data_1_split -> label_data_1_split_7
I0403 13:48:21.818222   374 net.cpp:399] label_data_1_split -> label_data_1_split_8
I0403 13:48:21.818244   374 net.cpp:399] label_data_1_split -> label_data_1_split_9
I0403 13:48:21.818366   374 net.cpp:141] Setting up label_data_1_split
I0403 13:48:21.818390   374 net.cpp:148] Top shape: 24 (24)
I0403 13:48:21.818408   374 net.cpp:148] Top shape: 24 (24)
I0403 13:48:21.818426   374 net.cpp:148] Top shape: 24 (24)
I0403 13:48:21.818442   374 net.cpp:148] Top shape: 24 (24)
I0403 13:48:21.818459   374 net.cpp:148] Top shape: 24 (24)
I0403 13:48:21.818475   374 net.cpp:148] Top shape: 24 (24)
I0403 13:48:21.818492   374 net.cpp:148] Top shape: 24 (24)
I0403 13:48:21.818509   374 net.cpp:148] Top shape: 24 (24)
I0403 13:48:21.818526   374 net.cpp:148] Top shape: 24 (24)
I0403 13:48:21.818543   374 net.cpp:148] Top shape: 24 (24)
I0403 13:48:21.818588   374 net.cpp:156] Memory required for data: 14451744
I0403 13:48:21.818606   374 layer_factory.hpp:77] Creating layer conv1/7x7_s2
I0403 13:48:21.818639   374 net.cpp:91] Creating Layer conv1/7x7_s2
I0403 13:48:21.818658   374 net.cpp:425] conv1/7x7_s2 <- data
I0403 13:48:21.818680   374 net.cpp:399] conv1/7x7_s2 -> conv1/7x7_s2
I0403 13:48:21.957799   374 net.cpp:141] Setting up conv1/7x7_s2
I0403 13:48:21.957890   374 net.cpp:148] Top shape: 24 64 112 112 (19267584)
I0403 13:48:21.957908   374 net.cpp:156] Memory required for data: 91522080
I0403 13:48:21.957942   374 layer_factory.hpp:77] Creating layer conv1/relu_7x7
I0403 13:48:21.957968   374 net.cpp:91] Creating Layer conv1/relu_7x7
I0403 13:48:21.957988   374 net.cpp:425] conv1/relu_7x7 <- conv1/7x7_s2
I0403 13:48:21.958009   374 net.cpp:386] conv1/relu_7x7 -> conv1/7x7_s2 (in-place)
I0403 13:48:21.958307   374 net.cpp:141] Setting up conv1/relu_7x7
I0403 13:48:21.958335   374 net.cpp:148] Top shape: 24 64 112 112 (19267584)
I0403 13:48:21.958353   374 net.cpp:156] Memory required for data: 168592416
I0403 13:48:21.958367   374 layer_factory.hpp:77] Creating layer pool1/3x3_s2
I0403 13:48:21.958394   374 net.cpp:91] Creating Layer pool1/3x3_s2
I0403 13:48:21.958411   374 net.cpp:425] pool1/3x3_s2 <- conv1/7x7_s2
I0403 13:48:21.958431   374 net.cpp:399] pool1/3x3_s2 -> pool1/3x3_s2
I0403 13:48:21.958505   374 net.cpp:141] Setting up pool1/3x3_s2
I0403 13:48:21.958530   374 net.cpp:148] Top shape: 24 64 56 56 (4816896)
I0403 13:48:21.958546   374 net.cpp:156] Memory required for data: 187860000
I0403 13:48:21.958561   374 layer_factory.hpp:77] Creating layer pool1/norm1
I0403 13:48:21.958586   374 net.cpp:91] Creating Layer pool1/norm1
I0403 13:48:21.958605   374 net.cpp:425] pool1/norm1 <- pool1/3x3_s2
I0403 13:48:21.958622   374 net.cpp:399] pool1/norm1 -> pool1/norm1
I0403 13:48:21.958911   374 net.cpp:141] Setting up pool1/norm1
I0403 13:48:21.958940   374 net.cpp:148] Top shape: 24 64 56 56 (4816896)
I0403 13:48:21.958956   374 net.cpp:156] Memory required for data: 207127584
I0403 13:48:21.958972   374 layer_factory.hpp:77] Creating layer conv2/3x3_reduce
I0403 13:48:21.958998   374 net.cpp:91] Creating Layer conv2/3x3_reduce
I0403 13:48:21.959017   374 net.cpp:425] conv2/3x3_reduce <- pool1/norm1
I0403 13:48:21.959035   374 net.cpp:399] conv2/3x3_reduce -> conv2/3x3_reduce
I0403 13:48:21.960465   374 net.cpp:141] Setting up conv2/3x3_reduce
I0403 13:48:21.960495   374 net.cpp:148] Top shape: 24 64 56 56 (4816896)
I0403 13:48:21.960512   374 net.cpp:156] Memory required for data: 226395168
I0403 13:48:21.960533   374 layer_factory.hpp:77] Creating layer conv2/relu_3x3_reduce
I0403 13:48:21.960553   374 net.cpp:91] Creating Layer conv2/relu_3x3_reduce
I0403 13:48:21.960571   374 net.cpp:425] conv2/relu_3x3_reduce <- conv2/3x3_reduce
I0403 13:48:21.960588   374 net.cpp:386] conv2/relu_3x3_reduce -> conv2/3x3_reduce (in-place)
I0403 13:48:21.960844   374 net.cpp:141] Setting up conv2/relu_3x3_reduce
I0403 13:48:21.960870   374 net.cpp:148] Top shape: 24 64 56 56 (4816896)
I0403 13:48:21.960887   374 net.cpp:156] Memory required for data: 245662752
I0403 13:48:21.960903   374 layer_factory.hpp:77] Creating layer conv2/3x3
I0403 13:48:21.960925   374 net.cpp:91] Creating Layer conv2/3x3
I0403 13:48:21.960942   374 net.cpp:425] conv2/3x3 <- conv2/3x3_reduce
I0403 13:48:21.960961   374 net.cpp:399] conv2/3x3 -> conv2/3x3
I0403 13:48:21.963209   374 net.cpp:141] Setting up conv2/3x3
I0403 13:48:21.963240   374 net.cpp:148] Top shape: 24 192 56 56 (14450688)
I0403 13:48:21.963256   374 net.cpp:156] Memory required for data: 303465504
I0403 13:48:21.963277   374 layer_factory.hpp:77] Creating layer conv2/relu_3x3
I0403 13:48:21.963299   374 net.cpp:91] Creating Layer conv2/relu_3x3
I0403 13:48:21.963315   374 net.cpp:425] conv2/relu_3x3 <- conv2/3x3
I0403 13:48:21.963335   374 net.cpp:386] conv2/relu_3x3 -> conv2/3x3 (in-place)
I0403 13:48:21.963491   374 net.cpp:141] Setting up conv2/relu_3x3
I0403 13:48:21.963517   374 net.cpp:148] Top shape: 24 192 56 56 (14450688)
I0403 13:48:21.963564   374 net.cpp:156] Memory required for data: 361268256
I0403 13:48:21.963580   374 layer_factory.hpp:77] Creating layer conv2/norm2
I0403 13:48:21.963599   374 net.cpp:91] Creating Layer conv2/norm2
I0403 13:48:21.963615   374 net.cpp:425] conv2/norm2 <- conv2/3x3
I0403 13:48:21.963634   374 net.cpp:399] conv2/norm2 -> conv2/norm2
I0403 13:48:21.963912   374 net.cpp:141] Setting up conv2/norm2
I0403 13:48:21.963939   374 net.cpp:148] Top shape: 24 192 56 56 (14450688)
I0403 13:48:21.963954   374 net.cpp:156] Memory required for data: 419071008
I0403 13:48:21.963970   374 layer_factory.hpp:77] Creating layer pool2/3x3_s2
I0403 13:48:21.963989   374 net.cpp:91] Creating Layer pool2/3x3_s2
I0403 13:48:21.964004   374 net.cpp:425] pool2/3x3_s2 <- conv2/norm2
I0403 13:48:21.964022   374 net.cpp:399] pool2/3x3_s2 -> pool2/3x3_s2
I0403 13:48:21.964071   374 net.cpp:141] Setting up pool2/3x3_s2
I0403 13:48:21.964094   374 net.cpp:148] Top shape: 24 192 28 28 (3612672)
I0403 13:48:21.964109   374 net.cpp:156] Memory required for data: 433521696
I0403 13:48:21.964125   374 layer_factory.hpp:77] Creating layer pool2/3x3_s2_pool2/3x3_s2_0_split
I0403 13:48:21.964143   374 net.cpp:91] Creating Layer pool2/3x3_s2_pool2/3x3_s2_0_split
I0403 13:48:21.964159   374 net.cpp:425] pool2/3x3_s2_pool2/3x3_s2_0_split <- pool2/3x3_s2
I0403 13:48:21.964175   374 net.cpp:399] pool2/3x3_s2_pool2/3x3_s2_0_split -> pool2/3x3_s2_pool2/3x3_s2_0_split_0
I0403 13:48:21.964205   374 net.cpp:399] pool2/3x3_s2_pool2/3x3_s2_0_split -> pool2/3x3_s2_pool2/3x3_s2_0_split_1
I0403 13:48:21.964224   374 net.cpp:399] pool2/3x3_s2_pool2/3x3_s2_0_split -> pool2/3x3_s2_pool2/3x3_s2_0_split_2
I0403 13:48:21.964246   374 net.cpp:399] pool2/3x3_s2_pool2/3x3_s2_0_split -> pool2/3x3_s2_pool2/3x3_s2_0_split_3
I0403 13:48:21.964309   374 net.cpp:141] Setting up pool2/3x3_s2_pool2/3x3_s2_0_split
I0403 13:48:21.964331   374 net.cpp:148] Top shape: 24 192 28 28 (3612672)
I0403 13:48:21.964349   374 net.cpp:148] Top shape: 24 192 28 28 (3612672)
I0403 13:48:21.964364   374 net.cpp:148] Top shape: 24 192 28 28 (3612672)
I0403 13:48:21.964380   374 net.cpp:148] Top shape: 24 192 28 28 (3612672)
I0403 13:48:21.964393   374 net.cpp:156] Memory required for data: 491324448
I0403 13:48:21.964408   374 layer_factory.hpp:77] Creating layer inception_3a/1x1
I0403 13:48:21.964428   374 net.cpp:91] Creating Layer inception_3a/1x1
I0403 13:48:21.964445   374 net.cpp:425] inception_3a/1x1 <- pool2/3x3_s2_pool2/3x3_s2_0_split_0
I0403 13:48:21.964463   374 net.cpp:399] inception_3a/1x1 -> inception_3a/1x1
I0403 13:48:21.965931   374 net.cpp:141] Setting up inception_3a/1x1
I0403 13:48:21.965961   374 net.cpp:148] Top shape: 24 64 28 28 (1204224)
I0403 13:48:21.965977   374 net.cpp:156] Memory required for data: 496141344
I0403 13:48:21.965996   374 layer_factory.hpp:77] Creating layer inception_3a/relu_1x1
I0403 13:48:21.966015   374 net.cpp:91] Creating Layer inception_3a/relu_1x1
I0403 13:48:21.966032   374 net.cpp:425] inception_3a/relu_1x1 <- inception_3a/1x1
I0403 13:48:21.966053   374 net.cpp:386] inception_3a/relu_1x1 -> inception_3a/1x1 (in-place)
I0403 13:48:21.966230   374 net.cpp:141] Setting up inception_3a/relu_1x1
I0403 13:48:21.966255   374 net.cpp:148] Top shape: 24 64 28 28 (1204224)
I0403 13:48:21.966270   374 net.cpp:156] Memory required for data: 500958240
I0403 13:48:21.966285   374 layer_factory.hpp:77] Creating layer inception_3a/3x3_reduce
I0403 13:48:21.966308   374 net.cpp:91] Creating Layer inception_3a/3x3_reduce
I0403 13:48:21.966326   374 net.cpp:425] inception_3a/3x3_reduce <- pool2/3x3_s2_pool2/3x3_s2_0_split_1
I0403 13:48:21.966346   374 net.cpp:399] inception_3a/3x3_reduce -> inception_3a/3x3_reduce
I0403 13:48:21.968030   374 net.cpp:141] Setting up inception_3a/3x3_reduce
I0403 13:48:21.968061   374 net.cpp:148] Top shape: 24 96 28 28 (1806336)
I0403 13:48:21.968077   374 net.cpp:156] Memory required for data: 508183584
I0403 13:48:21.968098   374 layer_factory.hpp:77] Creating layer inception_3a/relu_3x3_reduce
I0403 13:48:21.968135   374 net.cpp:91] Creating Layer inception_3a/relu_3x3_reduce
I0403 13:48:21.968153   374 net.cpp:425] inception_3a/relu_3x3_reduce <- inception_3a/3x3_reduce
I0403 13:48:21.968173   374 net.cpp:386] inception_3a/relu_3x3_reduce -> inception_3a/3x3_reduce (in-place)
I0403 13:48:21.968356   374 net.cpp:141] Setting up inception_3a/relu_3x3_reduce
I0403 13:48:21.968386   374 net.cpp:148] Top shape: 24 96 28 28 (1806336)
I0403 13:48:21.968402   374 net.cpp:156] Memory required for data: 515408928
I0403 13:48:21.968417   374 layer_factory.hpp:77] Creating layer inception_3a/3x3
I0403 13:48:21.968441   374 net.cpp:91] Creating Layer inception_3a/3x3
I0403 13:48:21.968461   374 net.cpp:425] inception_3a/3x3 <- inception_3a/3x3_reduce
I0403 13:48:21.968482   374 net.cpp:399] inception_3a/3x3 -> inception_3a/3x3
I0403 13:48:21.970103   374 net.cpp:141] Setting up inception_3a/3x3
I0403 13:48:21.970131   374 net.cpp:148] Top shape: 24 128 28 28 (2408448)
I0403 13:48:21.970147   374 net.cpp:156] Memory required for data: 525042720
I0403 13:48:21.970165   374 layer_factory.hpp:77] Creating layer inception_3a/relu_3x3
I0403 13:48:21.970192   374 net.cpp:91] Creating Layer inception_3a/relu_3x3
I0403 13:48:21.970211   374 net.cpp:425] inception_3a/relu_3x3 <- inception_3a/3x3
I0403 13:48:21.970229   374 net.cpp:386] inception_3a/relu_3x3 -> inception_3a/3x3 (in-place)
I0403 13:48:21.970499   374 net.cpp:141] Setting up inception_3a/relu_3x3
I0403 13:48:21.970525   374 net.cpp:148] Top shape: 24 128 28 28 (2408448)
I0403 13:48:21.970541   374 net.cpp:156] Memory required for data: 534676512
I0403 13:48:21.970556   374 layer_factory.hpp:77] Creating layer inception_3a/5x5_reduce
I0403 13:48:21.970577   374 net.cpp:91] Creating Layer inception_3a/5x5_reduce
I0403 13:48:21.970595   374 net.cpp:425] inception_3a/5x5_reduce <- pool2/3x3_s2_pool2/3x3_s2_0_split_2
I0403 13:48:21.970616   374 net.cpp:399] inception_3a/5x5_reduce -> inception_3a/5x5_reduce
I0403 13:48:21.971566   374 net.cpp:141] Setting up inception_3a/5x5_reduce
I0403 13:48:21.971595   374 net.cpp:148] Top shape: 24 16 28 28 (301056)
I0403 13:48:21.971609   374 net.cpp:156] Memory required for data: 535880736
I0403 13:48:21.971628   374 layer_factory.hpp:77] Creating layer inception_3a/relu_5x5_reduce
I0403 13:48:21.971649   374 net.cpp:91] Creating Layer inception_3a/relu_5x5_reduce
I0403 13:48:21.971667   374 net.cpp:425] inception_3a/relu_5x5_reduce <- inception_3a/5x5_reduce
I0403 13:48:21.971684   374 net.cpp:386] inception_3a/relu_5x5_reduce -> inception_3a/5x5_reduce (in-place)
I0403 13:48:21.971978   374 net.cpp:141] Setting up inception_3a/relu_5x5_reduce
I0403 13:48:21.972004   374 net.cpp:148] Top shape: 24 16 28 28 (301056)
I0403 13:48:21.972019   374 net.cpp:156] Memory required for data: 537084960
I0403 13:48:21.972035   374 layer_factory.hpp:77] Creating layer inception_3a/5x5
I0403 13:48:21.972059   374 net.cpp:91] Creating Layer inception_3a/5x5
I0403 13:48:21.972077   374 net.cpp:425] inception_3a/5x5 <- inception_3a/5x5_reduce
I0403 13:48:21.972096   374 net.cpp:399] inception_3a/5x5 -> inception_3a/5x5
I0403 13:48:21.973101   374 net.cpp:141] Setting up inception_3a/5x5
I0403 13:48:21.973129   374 net.cpp:148] Top shape: 24 32 28 28 (602112)
I0403 13:48:21.973145   374 net.cpp:156] Memory required for data: 539493408
I0403 13:48:21.973165   374 layer_factory.hpp:77] Creating layer inception_3a/relu_5x5
I0403 13:48:21.973188   374 net.cpp:91] Creating Layer inception_3a/relu_5x5
I0403 13:48:21.973206   374 net.cpp:425] inception_3a/relu_5x5 <- inception_3a/5x5
I0403 13:48:21.973227   374 net.cpp:386] inception_3a/relu_5x5 -> inception_3a/5x5 (in-place)
I0403 13:48:21.973397   374 net.cpp:141] Setting up inception_3a/relu_5x5
I0403 13:48:21.973422   374 net.cpp:148] Top shape: 24 32 28 28 (602112)
I0403 13:48:21.973436   374 net.cpp:156] Memory required for data: 541901856
I0403 13:48:21.973451   374 layer_factory.hpp:77] Creating layer inception_3a/pool
I0403 13:48:21.973471   374 net.cpp:91] Creating Layer inception_3a/pool
I0403 13:48:21.973501   374 net.cpp:425] inception_3a/pool <- pool2/3x3_s2_pool2/3x3_s2_0_split_3
I0403 13:48:21.973520   374 net.cpp:399] inception_3a/pool -> inception_3a/pool
I0403 13:48:21.973578   374 net.cpp:141] Setting up inception_3a/pool
I0403 13:48:21.973603   374 net.cpp:148] Top shape: 24 192 28 28 (3612672)
I0403 13:48:21.973618   374 net.cpp:156] Memory required for data: 556352544
I0403 13:48:21.973633   374 layer_factory.hpp:77] Creating layer inception_3a/pool_proj
I0403 13:48:21.973654   374 net.cpp:91] Creating Layer inception_3a/pool_proj
I0403 13:48:21.973672   374 net.cpp:425] inception_3a/pool_proj <- inception_3a/pool
I0403 13:48:21.973695   374 net.cpp:399] inception_3a/pool_proj -> inception_3a/pool_proj
I0403 13:48:21.974645   374 net.cpp:141] Setting up inception_3a/pool_proj
I0403 13:48:21.974674   374 net.cpp:148] Top shape: 24 32 28 28 (602112)
I0403 13:48:21.974690   374 net.cpp:156] Memory required for data: 558760992
I0403 13:48:21.974712   374 layer_factory.hpp:77] Creating layer inception_3a/relu_pool_proj
I0403 13:48:21.974733   374 net.cpp:91] Creating Layer inception_3a/relu_pool_proj
I0403 13:48:21.974750   374 net.cpp:425] inception_3a/relu_pool_proj <- inception_3a/pool_proj
I0403 13:48:21.974768   374 net.cpp:386] inception_3a/relu_pool_proj -> inception_3a/pool_proj (in-place)
I0403 13:48:21.975041   374 net.cpp:141] Setting up inception_3a/relu_pool_proj
I0403 13:48:21.975069   374 net.cpp:148] Top shape: 24 32 28 28 (602112)
I0403 13:48:21.975083   374 net.cpp:156] Memory required for data: 561169440
I0403 13:48:21.975098   374 layer_factory.hpp:77] Creating layer inception_3a/output
I0403 13:48:21.975117   374 net.cpp:91] Creating Layer inception_3a/output
I0403 13:48:21.975132   374 net.cpp:425] inception_3a/output <- inception_3a/1x1
I0403 13:48:21.975148   374 net.cpp:425] inception_3a/output <- inception_3a/3x3
I0403 13:48:21.975164   374 net.cpp:425] inception_3a/output <- inception_3a/5x5
I0403 13:48:21.975188   374 net.cpp:425] inception_3a/output <- inception_3a/pool_proj
I0403 13:48:21.975208   374 net.cpp:399] inception_3a/output -> inception_3a/output
I0403 13:48:21.975258   374 net.cpp:141] Setting up inception_3a/output
I0403 13:48:21.975282   374 net.cpp:148] Top shape: 24 256 28 28 (4816896)
I0403 13:48:21.975296   374 net.cpp:156] Memory required for data: 580437024
I0403 13:48:21.975311   374 layer_factory.hpp:77] Creating layer inception_3a/output_inception_3a/output_0_split
I0403 13:48:21.975328   374 net.cpp:91] Creating Layer inception_3a/output_inception_3a/output_0_split
I0403 13:48:21.975344   374 net.cpp:425] inception_3a/output_inception_3a/output_0_split <- inception_3a/output
I0403 13:48:21.975363   374 net.cpp:399] inception_3a/output_inception_3a/output_0_split -> inception_3a/output_inception_3a/output_0_split_0
I0403 13:48:21.975385   374 net.cpp:399] inception_3a/output_inception_3a/output_0_split -> inception_3a/output_inception_3a/output_0_split_1
I0403 13:48:21.975407   374 net.cpp:399] inception_3a/output_inception_3a/output_0_split -> inception_3a/output_inception_3a/output_0_split_2
I0403 13:48:21.975428   374 net.cpp:399] inception_3a/output_inception_3a/output_0_split -> inception_3a/output_inception_3a/output_0_split_3
I0403 13:48:21.975505   374 net.cpp:141] Setting up inception_3a/output_inception_3a/output_0_split
I0403 13:48:21.975529   374 net.cpp:148] Top shape: 24 256 28 28 (4816896)
I0403 13:48:21.975546   374 net.cpp:148] Top shape: 24 256 28 28 (4816896)
I0403 13:48:21.975564   374 net.cpp:148] Top shape: 24 256 28 28 (4816896)
I0403 13:48:21.975579   374 net.cpp:148] Top shape: 24 256 28 28 (4816896)
I0403 13:48:21.975594   374 net.cpp:156] Memory required for data: 657507360
I0403 13:48:21.975607   374 layer_factory.hpp:77] Creating layer inception_3b/1x1
I0403 13:48:21.975630   374 net.cpp:91] Creating Layer inception_3b/1x1
I0403 13:48:21.975647   374 net.cpp:425] inception_3b/1x1 <- inception_3a/output_inception_3a/output_0_split_0
I0403 13:48:21.975669   374 net.cpp:399] inception_3b/1x1 -> inception_3b/1x1
I0403 13:48:21.976800   374 net.cpp:141] Setting up inception_3b/1x1
I0403 13:48:21.976840   374 net.cpp:148] Top shape: 24 128 28 28 (2408448)
I0403 13:48:21.976856   374 net.cpp:156] Memory required for data: 667141152
I0403 13:48:21.976876   374 layer_factory.hpp:77] Creating layer inception_3b/relu_1x1
I0403 13:48:21.976894   374 net.cpp:91] Creating Layer inception_3b/relu_1x1
I0403 13:48:21.976910   374 net.cpp:425] inception_3b/relu_1x1 <- inception_3b/1x1
I0403 13:48:21.976932   374 net.cpp:386] inception_3b/relu_1x1 -> inception_3b/1x1 (in-place)
I0403 13:48:21.977102   374 net.cpp:141] Setting up inception_3b/relu_1x1
I0403 13:48:21.977126   374 net.cpp:148] Top shape: 24 128 28 28 (2408448)
I0403 13:48:21.977141   374 net.cpp:156] Memory required for data: 676774944
I0403 13:48:21.977156   374 layer_factory.hpp:77] Creating layer inception_3b/3x3_reduce
I0403 13:48:21.977185   374 net.cpp:91] Creating Layer inception_3b/3x3_reduce
I0403 13:48:21.977203   374 net.cpp:425] inception_3b/3x3_reduce <- inception_3a/output_inception_3a/output_0_split_1
I0403 13:48:21.977226   374 net.cpp:399] inception_3b/3x3_reduce -> inception_3b/3x3_reduce
I0403 13:48:21.978377   374 net.cpp:141] Setting up inception_3b/3x3_reduce
I0403 13:48:21.978405   374 net.cpp:148] Top shape: 24 128 28 28 (2408448)
I0403 13:48:21.978421   374 net.cpp:156] Memory required for data: 686408736
I0403 13:48:21.978440   374 layer_factory.hpp:77] Creating layer inception_3b/relu_3x3_reduce
I0403 13:48:21.978458   374 net.cpp:91] Creating Layer inception_3b/relu_3x3_reduce
I0403 13:48:21.978476   374 net.cpp:425] inception_3b/relu_3x3_reduce <- inception_3b/3x3_reduce
I0403 13:48:21.978494   374 net.cpp:386] inception_3b/relu_3x3_reduce -> inception_3b/3x3_reduce (in-place)
I0403 13:48:21.978668   374 net.cpp:141] Setting up inception_3b/relu_3x3_reduce
I0403 13:48:21.978693   374 net.cpp:148] Top shape: 24 128 28 28 (2408448)
I0403 13:48:21.978708   374 net.cpp:156] Memory required for data: 696042528
I0403 13:48:21.978723   374 layer_factory.hpp:77] Creating layer inception_3b/3x3
I0403 13:48:21.978749   374 net.cpp:91] Creating Layer inception_3b/3x3
I0403 13:48:21.978766   374 net.cpp:425] inception_3b/3x3 <- inception_3b/3x3_reduce
I0403 13:48:21.978785   374 net.cpp:399] inception_3b/3x3 -> inception_3b/3x3
I0403 13:48:21.981770   374 net.cpp:141] Setting up inception_3b/3x3
I0403 13:48:21.981798   374 net.cpp:148] Top shape: 24 192 28 28 (3612672)
I0403 13:48:21.981814   374 net.cpp:156] Memory required for data: 710493216
I0403 13:48:21.981834   374 layer_factory.hpp:77] Creating layer inception_3b/relu_3x3
I0403 13:48:21.981855   374 net.cpp:91] Creating Layer inception_3b/relu_3x3
I0403 13:48:21.981873   374 net.cpp:425] inception_3b/relu_3x3 <- inception_3b/3x3
I0403 13:48:21.981891   374 net.cpp:386] inception_3b/relu_3x3 -> inception_3b/3x3 (in-place)
I0403 13:48:21.982173   374 net.cpp:141] Setting up inception_3b/relu_3x3
I0403 13:48:21.982211   374 net.cpp:148] Top shape: 24 192 28 28 (3612672)
I0403 13:48:21.982228   374 net.cpp:156] Memory required for data: 724943904
I0403 13:48:21.982244   374 layer_factory.hpp:77] Creating layer inception_3b/5x5_reduce
I0403 13:48:21.982269   374 net.cpp:91] Creating Layer inception_3b/5x5_reduce
I0403 13:48:21.982287   374 net.cpp:425] inception_3b/5x5_reduce <- inception_3a/output_inception_3a/output_0_split_2
I0403 13:48:21.982311   374 net.cpp:399] inception_3b/5x5_reduce -> inception_3b/5x5_reduce
I0403 13:48:21.983326   374 net.cpp:141] Setting up inception_3b/5x5_reduce
I0403 13:48:21.983355   374 net.cpp:148] Top shape: 24 32 28 28 (602112)
I0403 13:48:21.983371   374 net.cpp:156] Memory required for data: 727352352
I0403 13:48:21.983391   374 layer_factory.hpp:77] Creating layer inception_3b/relu_5x5_reduce
I0403 13:48:21.983412   374 net.cpp:91] Creating Layer inception_3b/relu_5x5_reduce
I0403 13:48:21.983429   374 net.cpp:425] inception_3b/relu_5x5_reduce <- inception_3b/5x5_reduce
I0403 13:48:21.983448   374 net.cpp:386] inception_3b/relu_5x5_reduce -> inception_3b/5x5_reduce (in-place)
I0403 13:48:21.983641   374 net.cpp:141] Setting up inception_3b/relu_5x5_reduce
I0403 13:48:21.983669   374 net.cpp:148] Top shape: 24 32 28 28 (602112)
I0403 13:48:21.983685   374 net.cpp:156] Memory required for data: 729760800
I0403 13:48:21.983700   374 layer_factory.hpp:77] Creating layer inception_3b/5x5
I0403 13:48:21.983721   374 net.cpp:91] Creating Layer inception_3b/5x5
I0403 13:48:21.983738   374 net.cpp:425] inception_3b/5x5 <- inception_3b/5x5_reduce
I0403 13:48:21.983760   374 net.cpp:399] inception_3b/5x5 -> inception_3b/5x5
I0403 13:48:21.985781   374 net.cpp:141] Setting up inception_3b/5x5
I0403 13:48:21.985811   374 net.cpp:148] Top shape: 24 96 28 28 (1806336)
I0403 13:48:21.985827   374 net.cpp:156] Memory required for data: 736986144
I0403 13:48:21.985847   374 layer_factory.hpp:77] Creating layer inception_3b/relu_5x5
I0403 13:48:21.985865   374 net.cpp:91] Creating Layer inception_3b/relu_5x5
I0403 13:48:21.985882   374 net.cpp:425] inception_3b/relu_5x5 <- inception_3b/5x5
I0403 13:48:21.985903   374 net.cpp:386] inception_3b/relu_5x5 -> inception_3b/5x5 (in-place)
I0403 13:48:21.986099   374 net.cpp:141] Setting up inception_3b/relu_5x5
I0403 13:48:21.986125   374 net.cpp:148] Top shape: 24 96 28 28 (1806336)
I0403 13:48:21.986140   374 net.cpp:156] Memory required for data: 744211488
I0403 13:48:21.986155   374 layer_factory.hpp:77] Creating layer inception_3b/pool
I0403 13:48:21.986174   374 net.cpp:91] Creating Layer inception_3b/pool
I0403 13:48:21.986199   374 net.cpp:425] inception_3b/pool <- inception_3a/output_inception_3a/output_0_split_3
I0403 13:48:21.986218   374 net.cpp:399] inception_3b/pool -> inception_3b/pool
I0403 13:48:21.986279   374 net.cpp:141] Setting up inception_3b/pool
I0403 13:48:21.986304   374 net.cpp:148] Top shape: 24 256 28 28 (4816896)
I0403 13:48:21.986318   374 net.cpp:156] Memory required for data: 763479072
I0403 13:48:21.986333   374 layer_factory.hpp:77] Creating layer inception_3b/pool_proj
I0403 13:48:21.986356   374 net.cpp:91] Creating Layer inception_3b/pool_proj
I0403 13:48:21.986374   374 net.cpp:425] inception_3b/pool_proj <- inception_3b/pool
I0403 13:48:21.986397   374 net.cpp:399] inception_3b/pool_proj -> inception_3b/pool_proj
I0403 13:48:21.987467   374 net.cpp:141] Setting up inception_3b/pool_proj
I0403 13:48:21.987498   374 net.cpp:148] Top shape: 24 64 28 28 (1204224)
I0403 13:48:21.987514   374 net.cpp:156] Memory required for data: 768295968
I0403 13:48:21.987534   374 layer_factory.hpp:77] Creating layer inception_3b/relu_pool_proj
I0403 13:48:21.987552   374 net.cpp:91] Creating Layer inception_3b/relu_pool_proj
I0403 13:48:21.987570   374 net.cpp:425] inception_3b/relu_pool_proj <- inception_3b/pool_proj
I0403 13:48:21.987587   374 net.cpp:386] inception_3b/relu_pool_proj -> inception_3b/pool_proj (in-place)
I0403 13:48:21.987987   374 net.cpp:141] Setting up inception_3b/relu_pool_proj
I0403 13:48:21.988013   374 net.cpp:148] Top shape: 24 64 28 28 (1204224)
I0403 13:48:21.988029   374 net.cpp:156] Memory required for data: 773112864
I0403 13:48:21.988044   374 layer_factory.hpp:77] Creating layer inception_3b/output
I0403 13:48:21.988065   374 net.cpp:91] Creating Layer inception_3b/output
I0403 13:48:21.988082   374 net.cpp:425] inception_3b/output <- inception_3b/1x1
I0403 13:48:21.988100   374 net.cpp:425] inception_3b/output <- inception_3b/3x3
I0403 13:48:21.988116   374 net.cpp:425] inception_3b/output <- inception_3b/5x5
I0403 13:48:21.988133   374 net.cpp:425] inception_3b/output <- inception_3b/pool_proj
I0403 13:48:21.988152   374 net.cpp:399] inception_3b/output -> inception_3b/output
I0403 13:48:21.988205   374 net.cpp:141] Setting up inception_3b/output
I0403 13:48:21.988229   374 net.cpp:148] Top shape: 24 480 28 28 (9031680)
I0403 13:48:21.988245   374 net.cpp:156] Memory required for data: 809239584
I0403 13:48:21.988260   374 layer_factory.hpp:77] Creating layer pool3/3x3_s2
I0403 13:48:21.988277   374 net.cpp:91] Creating Layer pool3/3x3_s2
I0403 13:48:21.988294   374 net.cpp:425] pool3/3x3_s2 <- inception_3b/output
I0403 13:48:21.988330   374 net.cpp:399] pool3/3x3_s2 -> pool3/3x3_s2
I0403 13:48:21.988391   374 net.cpp:141] Setting up pool3/3x3_s2
I0403 13:48:21.988416   374 net.cpp:148] Top shape: 24 480 14 14 (2257920)
I0403 13:48:21.988431   374 net.cpp:156] Memory required for data: 818271264
I0403 13:48:21.988446   374 layer_factory.hpp:77] Creating layer pool3/3x3_s2_pool3/3x3_s2_0_split
I0403 13:48:21.988467   374 net.cpp:91] Creating Layer pool3/3x3_s2_pool3/3x3_s2_0_split
I0403 13:48:21.988484   374 net.cpp:425] pool3/3x3_s2_pool3/3x3_s2_0_split <- pool3/3x3_s2
I0403 13:48:21.988504   374 net.cpp:399] pool3/3x3_s2_pool3/3x3_s2_0_split -> pool3/3x3_s2_pool3/3x3_s2_0_split_0
I0403 13:48:21.988525   374 net.cpp:399] pool3/3x3_s2_pool3/3x3_s2_0_split -> pool3/3x3_s2_pool3/3x3_s2_0_split_1
I0403 13:48:21.988545   374 net.cpp:399] pool3/3x3_s2_pool3/3x3_s2_0_split -> pool3/3x3_s2_pool3/3x3_s2_0_split_2
I0403 13:48:21.988566   374 net.cpp:399] pool3/3x3_s2_pool3/3x3_s2_0_split -> pool3/3x3_s2_pool3/3x3_s2_0_split_3
I0403 13:48:21.988644   374 net.cpp:141] Setting up pool3/3x3_s2_pool3/3x3_s2_0_split
I0403 13:48:21.988672   374 net.cpp:148] Top shape: 24 480 14 14 (2257920)
I0403 13:48:21.988692   374 net.cpp:148] Top shape: 24 480 14 14 (2257920)
I0403 13:48:21.988708   374 net.cpp:148] Top shape: 24 480 14 14 (2257920)
I0403 13:48:21.988725   374 net.cpp:148] Top shape: 24 480 14 14 (2257920)
I0403 13:48:21.988739   374 net.cpp:156] Memory required for data: 854397984
I0403 13:48:21.988754   374 layer_factory.hpp:77] Creating layer inception_4a/1x1
I0403 13:48:21.988775   374 net.cpp:91] Creating Layer inception_4a/1x1
I0403 13:48:21.988791   374 net.cpp:425] inception_4a/1x1 <- pool3/3x3_s2_pool3/3x3_s2_0_split_0
I0403 13:48:21.988813   374 net.cpp:399] inception_4a/1x1 -> inception_4a/1x1
I0403 13:48:21.990417   374 net.cpp:141] Setting up inception_4a/1x1
I0403 13:48:21.990448   374 net.cpp:148] Top shape: 24 192 14 14 (903168)
I0403 13:48:21.990464   374 net.cpp:156] Memory required for data: 858010656
I0403 13:48:21.990484   374 layer_factory.hpp:77] Creating layer inception_4a/relu_1x1
I0403 13:48:21.990502   374 net.cpp:91] Creating Layer inception_4a/relu_1x1
I0403 13:48:21.990520   374 net.cpp:425] inception_4a/relu_1x1 <- inception_4a/1x1
I0403 13:48:21.990537   374 net.cpp:386] inception_4a/relu_1x1 -> inception_4a/1x1 (in-place)
I0403 13:48:21.990718   374 net.cpp:141] Setting up inception_4a/relu_1x1
I0403 13:48:21.990744   374 net.cpp:148] Top shape: 24 192 14 14 (903168)
I0403 13:48:21.990759   374 net.cpp:156] Memory required for data: 861623328
I0403 13:48:21.990774   374 layer_factory.hpp:77] Creating layer inception_4a/3x3_reduce
I0403 13:48:21.990797   374 net.cpp:91] Creating Layer inception_4a/3x3_reduce
I0403 13:48:21.990815   374 net.cpp:425] inception_4a/3x3_reduce <- pool3/3x3_s2_pool3/3x3_s2_0_split_1
I0403 13:48:21.990838   374 net.cpp:399] inception_4a/3x3_reduce -> inception_4a/3x3_reduce
I0403 13:48:21.992149   374 net.cpp:141] Setting up inception_4a/3x3_reduce
I0403 13:48:21.992192   374 net.cpp:148] Top shape: 24 96 14 14 (451584)
I0403 13:48:21.992213   374 net.cpp:156] Memory required for data: 863429664
I0403 13:48:21.992238   374 layer_factory.hpp:77] Creating layer inception_4a/relu_3x3_reduce
I0403 13:48:21.992259   374 net.cpp:91] Creating Layer inception_4a/relu_3x3_reduce
I0403 13:48:21.992276   374 net.cpp:425] inception_4a/relu_3x3_reduce <- inception_4a/3x3_reduce
I0403 13:48:21.992295   374 net.cpp:386] inception_4a/relu_3x3_reduce -> inception_4a/3x3_reduce (in-place)
I0403 13:48:21.992480   374 net.cpp:141] Setting up inception_4a/relu_3x3_reduce
I0403 13:48:21.992507   374 net.cpp:148] Top shape: 24 96 14 14 (451584)
I0403 13:48:21.992524   374 net.cpp:156] Memory required for data: 865236000
I0403 13:48:21.992539   374 layer_factory.hpp:77] Creating layer inception_4a/3x3
I0403 13:48:21.992563   374 net.cpp:91] Creating Layer inception_4a/3x3
I0403 13:48:21.992581   374 net.cpp:425] inception_4a/3x3 <- inception_4a/3x3_reduce
I0403 13:48:21.992604   374 net.cpp:399] inception_4a/3x3 -> inception_4a/3x3
I0403 13:48:21.995368   374 net.cpp:141] Setting up inception_4a/3x3
I0403 13:48:21.995398   374 net.cpp:148] Top shape: 24 208 14 14 (978432)
I0403 13:48:21.995414   374 net.cpp:156] Memory required for data: 869149728
I0403 13:48:21.995432   374 layer_factory.hpp:77] Creating layer inception_4a/relu_3x3
I0403 13:48:21.995451   374 net.cpp:91] Creating Layer inception_4a/relu_3x3
I0403 13:48:21.995468   374 net.cpp:425] inception_4a/relu_3x3 <- inception_4a/3x3
I0403 13:48:21.995488   374 net.cpp:386] inception_4a/relu_3x3 -> inception_4a/3x3 (in-place)
I0403 13:48:21.995771   374 net.cpp:141] Setting up inception_4a/relu_3x3
I0403 13:48:21.995798   374 net.cpp:148] Top shape: 24 208 14 14 (978432)
I0403 13:48:21.995813   374 net.cpp:156] Memory required for data: 873063456
I0403 13:48:21.995828   374 layer_factory.hpp:77] Creating layer inception_4a/5x5_reduce
I0403 13:48:21.995852   374 net.cpp:91] Creating Layer inception_4a/5x5_reduce
I0403 13:48:21.995870   374 net.cpp:425] inception_4a/5x5_reduce <- pool3/3x3_s2_pool3/3x3_s2_0_split_2
I0403 13:48:21.995893   374 net.cpp:399] inception_4a/5x5_reduce -> inception_4a/5x5_reduce
I0403 13:48:21.996938   374 net.cpp:141] Setting up inception_4a/5x5_reduce
I0403 13:48:21.996966   374 net.cpp:148] Top shape: 24 16 14 14 (75264)
I0403 13:48:21.996984   374 net.cpp:156] Memory required for data: 873364512
I0403 13:48:21.997002   374 layer_factory.hpp:77] Creating layer inception_4a/relu_5x5_reduce
I0403 13:48:21.997021   374 net.cpp:91] Creating Layer inception_4a/relu_5x5_reduce
I0403 13:48:21.997037   374 net.cpp:425] inception_4a/relu_5x5_reduce <- inception_4a/5x5_reduce
I0403 13:48:21.997058   374 net.cpp:386] inception_4a/relu_5x5_reduce -> inception_4a/5x5_reduce (in-place)
I0403 13:48:21.997246   374 net.cpp:141] Setting up inception_4a/relu_5x5_reduce
I0403 13:48:21.997272   374 net.cpp:148] Top shape: 24 16 14 14 (75264)
I0403 13:48:21.997287   374 net.cpp:156] Memory required for data: 873665568
I0403 13:48:21.997303   374 layer_factory.hpp:77] Creating layer inception_4a/5x5
I0403 13:48:21.997329   374 net.cpp:91] Creating Layer inception_4a/5x5
I0403 13:48:21.997349   374 net.cpp:425] inception_4a/5x5 <- inception_4a/5x5_reduce
I0403 13:48:21.997370   374 net.cpp:399] inception_4a/5x5 -> inception_4a/5x5
I0403 13:48:21.998476   374 net.cpp:141] Setting up inception_4a/5x5
I0403 13:48:21.998503   374 net.cpp:148] Top shape: 24 48 14 14 (225792)
I0403 13:48:21.998519   374 net.cpp:156] Memory required for data: 874568736
I0403 13:48:21.998538   374 layer_factory.hpp:77] Creating layer inception_4a/relu_5x5
I0403 13:48:21.998558   374 net.cpp:91] Creating Layer inception_4a/relu_5x5
I0403 13:48:21.998576   374 net.cpp:425] inception_4a/relu_5x5 <- inception_4a/5x5
I0403 13:48:21.998594   374 net.cpp:386] inception_4a/relu_5x5 -> inception_4a/5x5 (in-place)
I0403 13:48:21.998776   374 net.cpp:141] Setting up inception_4a/relu_5x5
I0403 13:48:21.998803   374 net.cpp:148] Top shape: 24 48 14 14 (225792)
I0403 13:48:21.998818   374 net.cpp:156] Memory required for data: 875471904
I0403 13:48:21.998834   374 layer_factory.hpp:77] Creating layer inception_4a/pool
I0403 13:48:21.998852   374 net.cpp:91] Creating Layer inception_4a/pool
I0403 13:48:21.998869   374 net.cpp:425] inception_4a/pool <- pool3/3x3_s2_pool3/3x3_s2_0_split_3
I0403 13:48:21.998890   374 net.cpp:399] inception_4a/pool -> inception_4a/pool
I0403 13:48:21.998953   374 net.cpp:141] Setting up inception_4a/pool
I0403 13:48:21.998978   374 net.cpp:148] Top shape: 24 480 14 14 (2257920)
I0403 13:48:21.998993   374 net.cpp:156] Memory required for data: 884503584
I0403 13:48:21.999008   374 layer_factory.hpp:77] Creating layer inception_4a/pool_proj
I0403 13:48:21.999033   374 net.cpp:91] Creating Layer inception_4a/pool_proj
I0403 13:48:21.999052   374 net.cpp:425] inception_4a/pool_proj <- inception_4a/pool
I0403 13:48:21.999071   374 net.cpp:399] inception_4a/pool_proj -> inception_4a/pool_proj
I0403 13:48:22.000267   374 net.cpp:141] Setting up inception_4a/pool_proj
I0403 13:48:22.000299   374 net.cpp:148] Top shape: 24 64 14 14 (301056)
I0403 13:48:22.000330   374 net.cpp:156] Memory required for data: 885707808
I0403 13:48:22.000350   374 layer_factory.hpp:77] Creating layer inception_4a/relu_pool_proj
I0403 13:48:22.000370   374 net.cpp:91] Creating Layer inception_4a/relu_pool_proj
I0403 13:48:22.000386   374 net.cpp:425] inception_4a/relu_pool_proj <- inception_4a/pool_proj
I0403 13:48:22.000408   374 net.cpp:386] inception_4a/relu_pool_proj -> inception_4a/pool_proj (in-place)
I0403 13:48:22.000694   374 net.cpp:141] Setting up inception_4a/relu_pool_proj
I0403 13:48:22.000726   374 net.cpp:148] Top shape: 24 64 14 14 (301056)
I0403 13:48:22.000743   374 net.cpp:156] Memory required for data: 886912032
I0403 13:48:22.000759   374 layer_factory.hpp:77] Creating layer inception_4a/output
I0403 13:48:22.000777   374 net.cpp:91] Creating Layer inception_4a/output
I0403 13:48:22.000793   374 net.cpp:425] inception_4a/output <- inception_4a/1x1
I0403 13:48:22.000810   374 net.cpp:425] inception_4a/output <- inception_4a/3x3
I0403 13:48:22.000828   374 net.cpp:425] inception_4a/output <- inception_4a/5x5
I0403 13:48:22.000844   374 net.cpp:425] inception_4a/output <- inception_4a/pool_proj
I0403 13:48:22.000861   374 net.cpp:399] inception_4a/output -> inception_4a/output
I0403 13:48:22.000910   374 net.cpp:141] Setting up inception_4a/output
I0403 13:48:22.000934   374 net.cpp:148] Top shape: 24 512 14 14 (2408448)
I0403 13:48:22.000949   374 net.cpp:156] Memory required for data: 896545824
I0403 13:48:22.000965   374 layer_factory.hpp:77] Creating layer inception_4a/output_inception_4a/output_0_split
I0403 13:48:22.000987   374 net.cpp:91] Creating Layer inception_4a/output_inception_4a/output_0_split
I0403 13:48:22.001003   374 net.cpp:425] inception_4a/output_inception_4a/output_0_split <- inception_4a/output
I0403 13:48:22.001022   374 net.cpp:399] inception_4a/output_inception_4a/output_0_split -> inception_4a/output_inception_4a/output_0_split_0
I0403 13:48:22.001044   374 net.cpp:399] inception_4a/output_inception_4a/output_0_split -> inception_4a/output_inception_4a/output_0_split_1
I0403 13:48:22.001065   374 net.cpp:399] inception_4a/output_inception_4a/output_0_split -> inception_4a/output_inception_4a/output_0_split_2
I0403 13:48:22.001090   374 net.cpp:399] inception_4a/output_inception_4a/output_0_split -> inception_4a/output_inception_4a/output_0_split_3
I0403 13:48:22.001111   374 net.cpp:399] inception_4a/output_inception_4a/output_0_split -> inception_4a/output_inception_4a/output_0_split_4
I0403 13:48:22.001214   374 net.cpp:141] Setting up inception_4a/output_inception_4a/output_0_split
I0403 13:48:22.001240   374 net.cpp:148] Top shape: 24 512 14 14 (2408448)
I0403 13:48:22.001257   374 net.cpp:148] Top shape: 24 512 14 14 (2408448)
I0403 13:48:22.001273   374 net.cpp:148] Top shape: 24 512 14 14 (2408448)
I0403 13:48:22.001291   374 net.cpp:148] Top shape: 24 512 14 14 (2408448)
I0403 13:48:22.001307   374 net.cpp:148] Top shape: 24 512 14 14 (2408448)
I0403 13:48:22.001322   374 net.cpp:156] Memory required for data: 944714784
I0403 13:48:22.001337   374 layer_factory.hpp:77] Creating layer loss1/ave_pool
I0403 13:48:22.001354   374 net.cpp:91] Creating Layer loss1/ave_pool
I0403 13:48:22.001370   374 net.cpp:425] loss1/ave_pool <- inception_4a/output_inception_4a/output_0_split_0
I0403 13:48:22.001392   374 net.cpp:399] loss1/ave_pool -> loss1/ave_pool
I0403 13:48:22.001602   374 net.cpp:141] Setting up loss1/ave_pool
I0403 13:48:22.001631   374 net.cpp:148] Top shape: 24 512 4 4 (196608)
I0403 13:48:22.001647   374 net.cpp:156] Memory required for data: 945501216
I0403 13:48:22.001663   374 layer_factory.hpp:77] Creating layer loss1/conv
I0403 13:48:22.001687   374 net.cpp:91] Creating Layer loss1/conv
I0403 13:48:22.001703   374 net.cpp:425] loss1/conv <- loss1/ave_pool
I0403 13:48:22.001724   374 net.cpp:399] loss1/conv -> loss1/conv
I0403 13:48:22.003171   374 net.cpp:141] Setting up loss1/conv
I0403 13:48:22.003207   374 net.cpp:148] Top shape: 24 128 4 4 (49152)
I0403 13:48:22.003237   374 net.cpp:156] Memory required for data: 945697824
I0403 13:48:22.003258   374 layer_factory.hpp:77] Creating layer loss1/relu_conv
I0403 13:48:22.003278   374 net.cpp:91] Creating Layer loss1/relu_conv
I0403 13:48:22.003293   374 net.cpp:425] loss1/relu_conv <- loss1/conv
I0403 13:48:22.003314   374 net.cpp:386] loss1/relu_conv -> loss1/conv (in-place)
I0403 13:48:22.003602   374 net.cpp:141] Setting up loss1/relu_conv
I0403 13:48:22.003628   374 net.cpp:148] Top shape: 24 128 4 4 (49152)
I0403 13:48:22.003644   374 net.cpp:156] Memory required for data: 945894432
I0403 13:48:22.003659   374 layer_factory.hpp:77] Creating layer loss1/fc
I0403 13:48:22.003684   374 net.cpp:91] Creating Layer loss1/fc
I0403 13:48:22.003702   374 net.cpp:425] loss1/fc <- loss1/conv
I0403 13:48:22.003725   374 net.cpp:399] loss1/fc -> loss1/fc
I0403 13:48:22.022328   374 net.cpp:141] Setting up loss1/fc
I0403 13:48:22.022387   374 net.cpp:148] Top shape: 24 1024 (24576)
I0403 13:48:22.022404   374 net.cpp:156] Memory required for data: 945992736
I0403 13:48:22.022425   374 layer_factory.hpp:77] Creating layer loss1/relu_fc
I0403 13:48:22.022446   374 net.cpp:91] Creating Layer loss1/relu_fc
I0403 13:48:22.022464   374 net.cpp:425] loss1/relu_fc <- loss1/fc
I0403 13:48:22.022482   374 net.cpp:386] loss1/relu_fc -> loss1/fc (in-place)
I0403 13:48:22.022696   374 net.cpp:141] Setting up loss1/relu_fc
I0403 13:48:22.022721   374 net.cpp:148] Top shape: 24 1024 (24576)
I0403 13:48:22.022735   374 net.cpp:156] Memory required for data: 946091040
I0403 13:48:22.022752   374 layer_factory.hpp:77] Creating layer loss1/drop_fc
I0403 13:48:22.022780   374 net.cpp:91] Creating Layer loss1/drop_fc
I0403 13:48:22.022799   374 net.cpp:425] loss1/drop_fc <- loss1/fc
I0403 13:48:22.022819   374 net.cpp:386] loss1/drop_fc -> loss1/fc (in-place)
I0403 13:48:22.022872   374 net.cpp:141] Setting up loss1/drop_fc
I0403 13:48:22.022897   374 net.cpp:148] Top shape: 24 1024 (24576)
I0403 13:48:22.022912   374 net.cpp:156] Memory required for data: 946189344
I0403 13:48:22.022927   374 layer_factory.hpp:77] Creating layer loss1/classifier_plantvillage
I0403 13:48:22.022950   374 net.cpp:91] Creating Layer loss1/classifier_plantvillage
I0403 13:48:22.022969   374 net.cpp:425] loss1/classifier_plantvillage <- loss1/fc
I0403 13:48:22.022990   374 net.cpp:399] loss1/classifier_plantvillage -> loss1/classifier_plantvillage
I0403 13:48:22.023942   374 net.cpp:141] Setting up loss1/classifier_plantvillage
I0403 13:48:22.023972   374 net.cpp:148] Top shape: 24 38 (912)
I0403 13:48:22.023988   374 net.cpp:156] Memory required for data: 946192992
I0403 13:48:22.024006   374 layer_factory.hpp:77] Creating layer loss1/classifier_plantvillage_loss1/classifier_plantvillage_0_split
I0403 13:48:22.024025   374 net.cpp:91] Creating Layer loss1/classifier_plantvillage_loss1/classifier_plantvillage_0_split
I0403 13:48:22.024042   374 net.cpp:425] loss1/classifier_plantvillage_loss1/classifier_plantvillage_0_split <- loss1/classifier_plantvillage
I0403 13:48:22.024063   374 net.cpp:399] loss1/classifier_plantvillage_loss1/classifier_plantvillage_0_split -> loss1/classifier_plantvillage_loss1/classifier_plantvillage_0_split_0
I0403 13:48:22.024085   374 net.cpp:399] loss1/classifier_plantvillage_loss1/classifier_plantvillage_0_split -> loss1/classifier_plantvillage_loss1/classifier_plantvillage_0_split_1
I0403 13:48:22.024106   374 net.cpp:399] loss1/classifier_plantvillage_loss1/classifier_plantvillage_0_split -> loss1/classifier_plantvillage_loss1/classifier_plantvillage_0_split_2
I0403 13:48:22.024181   374 net.cpp:141] Setting up loss1/classifier_plantvillage_loss1/classifier_plantvillage_0_split
I0403 13:48:22.024206   374 net.cpp:148] Top shape: 24 38 (912)
I0403 13:48:22.024224   374 net.cpp:148] Top shape: 24 38 (912)
I0403 13:48:22.024240   374 net.cpp:148] Top shape: 24 38 (912)
I0403 13:48:22.024253   374 net.cpp:156] Memory required for data: 946203936
I0403 13:48:22.024269   374 layer_factory.hpp:77] Creating layer inception_4b/1x1
I0403 13:48:22.024293   374 net.cpp:91] Creating Layer inception_4b/1x1
I0403 13:48:22.024336   374 net.cpp:425] inception_4b/1x1 <- inception_4a/output_inception_4a/output_0_split_1
I0403 13:48:22.024358   374 net.cpp:399] inception_4b/1x1 -> inception_4b/1x1
I0403 13:48:22.026072   374 net.cpp:141] Setting up inception_4b/1x1
I0403 13:48:22.026103   374 net.cpp:148] Top shape: 24 160 14 14 (752640)
I0403 13:48:22.026119   374 net.cpp:156] Memory required for data: 949214496
I0403 13:48:22.026139   374 layer_factory.hpp:77] Creating layer inception_4b/relu_1x1
I0403 13:48:22.026157   374 net.cpp:91] Creating Layer inception_4b/relu_1x1
I0403 13:48:22.026175   374 net.cpp:425] inception_4b/relu_1x1 <- inception_4b/1x1
I0403 13:48:22.026202   374 net.cpp:386] inception_4b/relu_1x1 -> inception_4b/1x1 (in-place)
I0403 13:48:22.026389   374 net.cpp:141] Setting up inception_4b/relu_1x1
I0403 13:48:22.026415   374 net.cpp:148] Top shape: 24 160 14 14 (752640)
I0403 13:48:22.026430   374 net.cpp:156] Memory required for data: 952225056
I0403 13:48:22.026446   374 layer_factory.hpp:77] Creating layer inception_4b/3x3_reduce
I0403 13:48:22.026469   374 net.cpp:91] Creating Layer inception_4b/3x3_reduce
I0403 13:48:22.026489   374 net.cpp:425] inception_4b/3x3_reduce <- inception_4a/output_inception_4a/output_0_split_2
I0403 13:48:22.026512   374 net.cpp:399] inception_4b/3x3_reduce -> inception_4b/3x3_reduce
I0403 13:48:22.027905   374 net.cpp:141] Setting up inception_4b/3x3_reduce
I0403 13:48:22.027933   374 net.cpp:148] Top shape: 24 112 14 14 (526848)
I0403 13:48:22.027951   374 net.cpp:156] Memory required for data: 954332448
I0403 13:48:22.027969   374 layer_factory.hpp:77] Creating layer inception_4b/relu_3x3_reduce
I0403 13:48:22.027992   374 net.cpp:91] Creating Layer inception_4b/relu_3x3_reduce
I0403 13:48:22.028009   374 net.cpp:425] inception_4b/relu_3x3_reduce <- inception_4b/3x3_reduce
I0403 13:48:22.028028   374 net.cpp:386] inception_4b/relu_3x3_reduce -> inception_4b/3x3_reduce (in-place)
I0403 13:48:22.028324   374 net.cpp:141] Setting up inception_4b/relu_3x3_reduce
I0403 13:48:22.028350   374 net.cpp:148] Top shape: 24 112 14 14 (526848)
I0403 13:48:22.028367   374 net.cpp:156] Memory required for data: 956439840
I0403 13:48:22.028381   374 layer_factory.hpp:77] Creating layer inception_4b/3x3
I0403 13:48:22.028405   374 net.cpp:91] Creating Layer inception_4b/3x3
I0403 13:48:22.028424   374 net.cpp:425] inception_4b/3x3 <- inception_4b/3x3_reduce
I0403 13:48:22.028445   374 net.cpp:399] inception_4b/3x3 -> inception_4b/3x3
I0403 13:48:22.031510   374 net.cpp:141] Setting up inception_4b/3x3
I0403 13:48:22.031543   374 net.cpp:148] Top shape: 24 224 14 14 (1053696)
I0403 13:48:22.031560   374 net.cpp:156] Memory required for data: 960654624
I0403 13:48:22.031579   374 layer_factory.hpp:77] Creating layer inception_4b/relu_3x3
I0403 13:48:22.031599   374 net.cpp:91] Creating Layer inception_4b/relu_3x3
I0403 13:48:22.031615   374 net.cpp:425] inception_4b/relu_3x3 <- inception_4b/3x3
I0403 13:48:22.031635   374 net.cpp:386] inception_4b/relu_3x3 -> inception_4b/3x3 (in-place)
I0403 13:48:22.031822   374 net.cpp:141] Setting up inception_4b/relu_3x3
I0403 13:48:22.031848   374 net.cpp:148] Top shape: 24 224 14 14 (1053696)
I0403 13:48:22.031864   374 net.cpp:156] Memory required for data: 964869408
I0403 13:48:22.031879   374 layer_factory.hpp:77] Creating layer inception_4b/5x5_reduce
I0403 13:48:22.031903   374 net.cpp:91] Creating Layer inception_4b/5x5_reduce
I0403 13:48:22.031921   374 net.cpp:425] inception_4b/5x5_reduce <- inception_4a/output_inception_4a/output_0_split_3
I0403 13:48:22.031944   374 net.cpp:399] inception_4b/5x5_reduce -> inception_4b/5x5_reduce
I0403 13:48:22.033094   374 net.cpp:141] Setting up inception_4b/5x5_reduce
I0403 13:48:22.033123   374 net.cpp:148] Top shape: 24 24 14 14 (112896)
I0403 13:48:22.033139   374 net.cpp:156] Memory required for data: 965320992
I0403 13:48:22.033159   374 layer_factory.hpp:77] Creating layer inception_4b/relu_5x5_reduce
I0403 13:48:22.033187   374 net.cpp:91] Creating Layer inception_4b/relu_5x5_reduce
I0403 13:48:22.033221   374 net.cpp:425] inception_4b/relu_5x5_reduce <- inception_4b/5x5_reduce
I0403 13:48:22.033241   374 net.cpp:386] inception_4b/relu_5x5_reduce -> inception_4b/5x5_reduce (in-place)
I0403 13:48:22.033432   374 net.cpp:141] Setting up inception_4b/relu_5x5_reduce
I0403 13:48:22.033457   374 net.cpp:148] Top shape: 24 24 14 14 (112896)
I0403 13:48:22.033473   374 net.cpp:156] Memory required for data: 965772576
I0403 13:48:22.033488   374 layer_factory.hpp:77] Creating layer inception_4b/5x5
I0403 13:48:22.033512   374 net.cpp:91] Creating Layer inception_4b/5x5
I0403 13:48:22.033531   374 net.cpp:425] inception_4b/5x5 <- inception_4b/5x5_reduce
I0403 13:48:22.033551   374 net.cpp:399] inception_4b/5x5 -> inception_4b/5x5
I0403 13:48:22.034809   374 net.cpp:141] Setting up inception_4b/5x5
I0403 13:48:22.034837   374 net.cpp:148] Top shape: 24 64 14 14 (301056)
I0403 13:48:22.034853   374 net.cpp:156] Memory required for data: 966976800
I0403 13:48:22.034873   374 layer_factory.hpp:77] Creating layer inception_4b/relu_5x5
I0403 13:48:22.034890   374 net.cpp:91] Creating Layer inception_4b/relu_5x5
I0403 13:48:22.034907   374 net.cpp:425] inception_4b/relu_5x5 <- inception_4b/5x5
I0403 13:48:22.034929   374 net.cpp:386] inception_4b/relu_5x5 -> inception_4b/5x5 (in-place)
I0403 13:48:22.035226   374 net.cpp:141] Setting up inception_4b/relu_5x5
I0403 13:48:22.035254   374 net.cpp:148] Top shape: 24 64 14 14 (301056)
I0403 13:48:22.035269   374 net.cpp:156] Memory required for data: 968181024
I0403 13:48:22.035284   374 layer_factory.hpp:77] Creating layer inception_4b/pool
I0403 13:48:22.035303   374 net.cpp:91] Creating Layer inception_4b/pool
I0403 13:48:22.035320   374 net.cpp:425] inception_4b/pool <- inception_4a/output_inception_4a/output_0_split_4
I0403 13:48:22.035342   374 net.cpp:399] inception_4b/pool -> inception_4b/pool
I0403 13:48:22.035408   374 net.cpp:141] Setting up inception_4b/pool
I0403 13:48:22.035432   374 net.cpp:148] Top shape: 24 512 14 14 (2408448)
I0403 13:48:22.035449   374 net.cpp:156] Memory required for data: 977814816
I0403 13:48:22.035464   374 layer_factory.hpp:77] Creating layer inception_4b/pool_proj
I0403 13:48:22.035488   374 net.cpp:91] Creating Layer inception_4b/pool_proj
I0403 13:48:22.035506   374 net.cpp:425] inception_4b/pool_proj <- inception_4b/pool
I0403 13:48:22.035526   374 net.cpp:399] inception_4b/pool_proj -> inception_4b/pool_proj
I0403 13:48:22.036770   374 net.cpp:141] Setting up inception_4b/pool_proj
I0403 13:48:22.036798   374 net.cpp:148] Top shape: 24 64 14 14 (301056)
I0403 13:48:22.036814   374 net.cpp:156] Memory required for data: 979019040
I0403 13:48:22.036834   374 layer_factory.hpp:77] Creating layer inception_4b/relu_pool_proj
I0403 13:48:22.036855   374 net.cpp:91] Creating Layer inception_4b/relu_pool_proj
I0403 13:48:22.036872   374 net.cpp:425] inception_4b/relu_pool_proj <- inception_4b/pool_proj
I0403 13:48:22.036891   374 net.cpp:386] inception_4b/relu_pool_proj -> inception_4b/pool_proj (in-place)
I0403 13:48:22.037073   374 net.cpp:141] Setting up inception_4b/relu_pool_proj
I0403 13:48:22.037101   374 net.cpp:148] Top shape: 24 64 14 14 (301056)
I0403 13:48:22.037117   374 net.cpp:156] Memory required for data: 980223264
I0403 13:48:22.037132   374 layer_factory.hpp:77] Creating layer inception_4b/output
I0403 13:48:22.037150   374 net.cpp:91] Creating Layer inception_4b/output
I0403 13:48:22.037166   374 net.cpp:425] inception_4b/output <- inception_4b/1x1
I0403 13:48:22.037189   374 net.cpp:425] inception_4b/output <- inception_4b/3x3
I0403 13:48:22.037207   374 net.cpp:425] inception_4b/output <- inception_4b/5x5
I0403 13:48:22.037225   374 net.cpp:425] inception_4b/output <- inception_4b/pool_proj
I0403 13:48:22.037243   374 net.cpp:399] inception_4b/output -> inception_4b/output
I0403 13:48:22.037295   374 net.cpp:141] Setting up inception_4b/output
I0403 13:48:22.037319   374 net.cpp:148] Top shape: 24 512 14 14 (2408448)
I0403 13:48:22.037334   374 net.cpp:156] Memory required for data: 989857056
I0403 13:48:22.037364   374 layer_factory.hpp:77] Creating layer inception_4b/output_inception_4b/output_0_split
I0403 13:48:22.037384   374 net.cpp:91] Creating Layer inception_4b/output_inception_4b/output_0_split
I0403 13:48:22.037402   374 net.cpp:425] inception_4b/output_inception_4b/output_0_split <- inception_4b/output
I0403 13:48:22.037421   374 net.cpp:399] inception_4b/output_inception_4b/output_0_split -> inception_4b/output_inception_4b/output_0_split_0
I0403 13:48:22.037441   374 net.cpp:399] inception_4b/output_inception_4b/output_0_split -> inception_4b/output_inception_4b/output_0_split_1
I0403 13:48:22.037463   374 net.cpp:399] inception_4b/output_inception_4b/output_0_split -> inception_4b/output_inception_4b/output_0_split_2
I0403 13:48:22.037483   374 net.cpp:399] inception_4b/output_inception_4b/output_0_split -> inception_4b/output_inception_4b/output_0_split_3
I0403 13:48:22.037574   374 net.cpp:141] Setting up inception_4b/output_inception_4b/output_0_split
I0403 13:48:22.037597   374 net.cpp:148] Top shape: 24 512 14 14 (2408448)
I0403 13:48:22.037614   374 net.cpp:148] Top shape: 24 512 14 14 (2408448)
I0403 13:48:22.037631   374 net.cpp:148] Top shape: 24 512 14 14 (2408448)
I0403 13:48:22.037647   374 net.cpp:148] Top shape: 24 512 14 14 (2408448)
I0403 13:48:22.037662   374 net.cpp:156] Memory required for data: 1028392224
I0403 13:48:22.037677   374 layer_factory.hpp:77] Creating layer inception_4c/1x1
I0403 13:48:22.037699   374 net.cpp:91] Creating Layer inception_4c/1x1
I0403 13:48:22.037717   374 net.cpp:425] inception_4c/1x1 <- inception_4b/output_inception_4b/output_0_split_0
I0403 13:48:22.037739   374 net.cpp:399] inception_4c/1x1 -> inception_4c/1x1
I0403 13:48:22.039224   374 net.cpp:141] Setting up inception_4c/1x1
I0403 13:48:22.039257   374 net.cpp:148] Top shape: 24 128 14 14 (602112)
I0403 13:48:22.039274   374 net.cpp:156] Memory required for data: 1030800672
I0403 13:48:22.039294   374 layer_factory.hpp:77] Creating layer inception_4c/relu_1x1
I0403 13:48:22.039312   374 net.cpp:91] Creating Layer inception_4c/relu_1x1
I0403 13:48:22.039329   374 net.cpp:425] inception_4c/relu_1x1 <- inception_4c/1x1
I0403 13:48:22.039347   374 net.cpp:386] inception_4c/relu_1x1 -> inception_4c/1x1 (in-place)
I0403 13:48:22.039535   374 net.cpp:141] Setting up inception_4c/relu_1x1
I0403 13:48:22.039559   374 net.cpp:148] Top shape: 24 128 14 14 (602112)
I0403 13:48:22.039574   374 net.cpp:156] Memory required for data: 1033209120
I0403 13:48:22.039589   374 layer_factory.hpp:77] Creating layer inception_4c/3x3_reduce
I0403 13:48:22.039613   374 net.cpp:91] Creating Layer inception_4c/3x3_reduce
I0403 13:48:22.039631   374 net.cpp:425] inception_4c/3x3_reduce <- inception_4b/output_inception_4b/output_0_split_1
I0403 13:48:22.039654   374 net.cpp:399] inception_4c/3x3_reduce -> inception_4c/3x3_reduce
I0403 13:48:22.041656   374 net.cpp:141] Setting up inception_4c/3x3_reduce
I0403 13:48:22.041687   374 net.cpp:148] Top shape: 24 128 14 14 (602112)
I0403 13:48:22.041704   374 net.cpp:156] Memory required for data: 1035617568
I0403 13:48:22.041723   374 layer_factory.hpp:77] Creating layer inception_4c/relu_3x3_reduce
I0403 13:48:22.041744   374 net.cpp:91] Creating Layer inception_4c/relu_3x3_reduce
I0403 13:48:22.041762   374 net.cpp:425] inception_4c/relu_3x3_reduce <- inception_4c/3x3_reduce
I0403 13:48:22.041780   374 net.cpp:386] inception_4c/relu_3x3_reduce -> inception_4c/3x3_reduce (in-place)
I0403 13:48:22.042070   374 net.cpp:141] Setting up inception_4c/relu_3x3_reduce
I0403 13:48:22.042098   374 net.cpp:148] Top shape: 24 128 14 14 (602112)
I0403 13:48:22.042112   374 net.cpp:156] Memory required for data: 1038026016
I0403 13:48:22.042129   374 layer_factory.hpp:77] Creating layer inception_4c/3x3
I0403 13:48:22.042151   374 net.cpp:91] Creating Layer inception_4c/3x3
I0403 13:48:22.042170   374 net.cpp:425] inception_4c/3x3 <- inception_4c/3x3_reduce
I0403 13:48:22.042209   374 net.cpp:399] inception_4c/3x3 -> inception_4c/3x3
I0403 13:48:22.045915   374 net.cpp:141] Setting up inception_4c/3x3
I0403 13:48:22.045958   374 net.cpp:148] Top shape: 24 256 14 14 (1204224)
I0403 13:48:22.045975   374 net.cpp:156] Memory required for data: 1042842912
I0403 13:48:22.046010   374 layer_factory.hpp:77] Creating layer inception_4c/relu_3x3
I0403 13:48:22.046033   374 net.cpp:91] Creating Layer inception_4c/relu_3x3
I0403 13:48:22.046051   374 net.cpp:425] inception_4c/relu_3x3 <- inception_4c/3x3
I0403 13:48:22.046069   374 net.cpp:386] inception_4c/relu_3x3 -> inception_4c/3x3 (in-place)
I0403 13:48:22.046260   374 net.cpp:141] Setting up inception_4c/relu_3x3
I0403 13:48:22.046288   374 net.cpp:148] Top shape: 24 256 14 14 (1204224)
I0403 13:48:22.046303   374 net.cpp:156] Memory required for data: 1047659808
I0403 13:48:22.046317   374 layer_factory.hpp:77] Creating layer inception_4c/5x5_reduce
I0403 13:48:22.046340   374 net.cpp:91] Creating Layer inception_4c/5x5_reduce
I0403 13:48:22.046360   374 net.cpp:425] inception_4c/5x5_reduce <- inception_4b/output_inception_4b/output_0_split_2
I0403 13:48:22.046381   374 net.cpp:399] inception_4c/5x5_reduce -> inception_4c/5x5_reduce
I0403 13:48:22.047500   374 net.cpp:141] Setting up inception_4c/5x5_reduce
I0403 13:48:22.047529   374 net.cpp:148] Top shape: 24 24 14 14 (112896)
I0403 13:48:22.047544   374 net.cpp:156] Memory required for data: 1048111392
I0403 13:48:22.047564   374 layer_factory.hpp:77] Creating layer inception_4c/relu_5x5_reduce
I0403 13:48:22.047585   374 net.cpp:91] Creating Layer inception_4c/relu_5x5_reduce
I0403 13:48:22.047602   374 net.cpp:425] inception_4c/relu_5x5_reduce <- inception_4c/5x5_reduce
I0403 13:48:22.047621   374 net.cpp:386] inception_4c/relu_5x5_reduce -> inception_4c/5x5_reduce (in-place)
I0403 13:48:22.047811   374 net.cpp:141] Setting up inception_4c/relu_5x5_reduce
I0403 13:48:22.047835   374 net.cpp:148] Top shape: 24 24 14 14 (112896)
I0403 13:48:22.047850   374 net.cpp:156] Memory required for data: 1048562976
I0403 13:48:22.047866   374 layer_factory.hpp:77] Creating layer inception_4c/5x5
I0403 13:48:22.047890   374 net.cpp:91] Creating Layer inception_4c/5x5
I0403 13:48:22.047909   374 net.cpp:425] inception_4c/5x5 <- inception_4c/5x5_reduce
I0403 13:48:22.047929   374 net.cpp:399] inception_4c/5x5 -> inception_4c/5x5
I0403 13:48:22.049212   374 net.cpp:141] Setting up inception_4c/5x5
I0403 13:48:22.049242   374 net.cpp:148] Top shape: 24 64 14 14 (301056)
I0403 13:48:22.049260   374 net.cpp:156] Memory required for data: 1049767200
I0403 13:48:22.049279   374 layer_factory.hpp:77] Creating layer inception_4c/relu_5x5
I0403 13:48:22.049299   374 net.cpp:91] Creating Layer inception_4c/relu_5x5
I0403 13:48:22.049315   374 net.cpp:425] inception_4c/relu_5x5 <- inception_4c/5x5
I0403 13:48:22.049334   374 net.cpp:386] inception_4c/relu_5x5 -> inception_4c/5x5 (in-place)
I0403 13:48:22.049631   374 net.cpp:141] Setting up inception_4c/relu_5x5
I0403 13:48:22.049660   374 net.cpp:148] Top shape: 24 64 14 14 (301056)
I0403 13:48:22.049677   374 net.cpp:156] Memory required for data: 1050971424
I0403 13:48:22.049692   374 layer_factory.hpp:77] Creating layer inception_4c/pool
I0403 13:48:22.049710   374 net.cpp:91] Creating Layer inception_4c/pool
I0403 13:48:22.049727   374 net.cpp:425] inception_4c/pool <- inception_4b/output_inception_4b/output_0_split_3
I0403 13:48:22.049746   374 net.cpp:399] inception_4c/pool -> inception_4c/pool
I0403 13:48:22.049814   374 net.cpp:141] Setting up inception_4c/pool
I0403 13:48:22.049839   374 net.cpp:148] Top shape: 24 512 14 14 (2408448)
I0403 13:48:22.049854   374 net.cpp:156] Memory required for data: 1060605216
I0403 13:48:22.049870   374 layer_factory.hpp:77] Creating layer inception_4c/pool_proj
I0403 13:48:22.049893   374 net.cpp:91] Creating Layer inception_4c/pool_proj
I0403 13:48:22.049911   374 net.cpp:425] inception_4c/pool_proj <- inception_4c/pool
I0403 13:48:22.049933   374 net.cpp:399] inception_4c/pool_proj -> inception_4c/pool_proj
I0403 13:48:22.051201   374 net.cpp:141] Setting up inception_4c/pool_proj
I0403 13:48:22.051230   374 net.cpp:148] Top shape: 24 64 14 14 (301056)
I0403 13:48:22.051260   374 net.cpp:156] Memory required for data: 1061809440
I0403 13:48:22.051280   374 layer_factory.hpp:77] Creating layer inception_4c/relu_pool_proj
I0403 13:48:22.051303   374 net.cpp:91] Creating Layer inception_4c/relu_pool_proj
I0403 13:48:22.051321   374 net.cpp:425] inception_4c/relu_pool_proj <- inception_4c/pool_proj
I0403 13:48:22.051340   374 net.cpp:386] inception_4c/relu_pool_proj -> inception_4c/pool_proj (in-place)
I0403 13:48:22.051529   374 net.cpp:141] Setting up inception_4c/relu_pool_proj
I0403 13:48:22.051554   374 net.cpp:148] Top shape: 24 64 14 14 (301056)
I0403 13:48:22.051573   374 net.cpp:156] Memory required for data: 1063013664
I0403 13:48:22.051589   374 layer_factory.hpp:77] Creating layer inception_4c/output
I0403 13:48:22.051606   374 net.cpp:91] Creating Layer inception_4c/output
I0403 13:48:22.051622   374 net.cpp:425] inception_4c/output <- inception_4c/1x1
I0403 13:48:22.051640   374 net.cpp:425] inception_4c/output <- inception_4c/3x3
I0403 13:48:22.051656   374 net.cpp:425] inception_4c/output <- inception_4c/5x5
I0403 13:48:22.051672   374 net.cpp:425] inception_4c/output <- inception_4c/pool_proj
I0403 13:48:22.051690   374 net.cpp:399] inception_4c/output -> inception_4c/output
I0403 13:48:22.051740   374 net.cpp:141] Setting up inception_4c/output
I0403 13:48:22.051764   374 net.cpp:148] Top shape: 24 512 14 14 (2408448)
I0403 13:48:22.051779   374 net.cpp:156] Memory required for data: 1072647456
I0403 13:48:22.051795   374 layer_factory.hpp:77] Creating layer inception_4c/output_inception_4c/output_0_split
I0403 13:48:22.051812   374 net.cpp:91] Creating Layer inception_4c/output_inception_4c/output_0_split
I0403 13:48:22.051828   374 net.cpp:425] inception_4c/output_inception_4c/output_0_split <- inception_4c/output
I0403 13:48:22.051848   374 net.cpp:399] inception_4c/output_inception_4c/output_0_split -> inception_4c/output_inception_4c/output_0_split_0
I0403 13:48:22.051870   374 net.cpp:399] inception_4c/output_inception_4c/output_0_split -> inception_4c/output_inception_4c/output_0_split_1
I0403 13:48:22.051892   374 net.cpp:399] inception_4c/output_inception_4c/output_0_split -> inception_4c/output_inception_4c/output_0_split_2
I0403 13:48:22.051913   374 net.cpp:399] inception_4c/output_inception_4c/output_0_split -> inception_4c/output_inception_4c/output_0_split_3
I0403 13:48:22.052001   374 net.cpp:141] Setting up inception_4c/output_inception_4c/output_0_split
I0403 13:48:22.052024   374 net.cpp:148] Top shape: 24 512 14 14 (2408448)
I0403 13:48:22.052042   374 net.cpp:148] Top shape: 24 512 14 14 (2408448)
I0403 13:48:22.052058   374 net.cpp:148] Top shape: 24 512 14 14 (2408448)
I0403 13:48:22.052074   374 net.cpp:148] Top shape: 24 512 14 14 (2408448)
I0403 13:48:22.052088   374 net.cpp:156] Memory required for data: 1111182624
I0403 13:48:22.052103   374 layer_factory.hpp:77] Creating layer inception_4d/1x1
I0403 13:48:22.052127   374 net.cpp:91] Creating Layer inception_4d/1x1
I0403 13:48:22.052145   374 net.cpp:425] inception_4d/1x1 <- inception_4c/output_inception_4c/output_0_split_0
I0403 13:48:22.052170   374 net.cpp:399] inception_4d/1x1 -> inception_4d/1x1
I0403 13:48:22.053623   374 net.cpp:141] Setting up inception_4d/1x1
I0403 13:48:22.053653   374 net.cpp:148] Top shape: 24 112 14 14 (526848)
I0403 13:48:22.053668   374 net.cpp:156] Memory required for data: 1113290016
I0403 13:48:22.053688   374 layer_factory.hpp:77] Creating layer inception_4d/relu_1x1
I0403 13:48:22.053706   374 net.cpp:91] Creating Layer inception_4d/relu_1x1
I0403 13:48:22.053724   374 net.cpp:425] inception_4d/relu_1x1 <- inception_4d/1x1
I0403 13:48:22.053743   374 net.cpp:386] inception_4d/relu_1x1 -> inception_4d/1x1 (in-place)
I0403 13:48:22.053936   374 net.cpp:141] Setting up inception_4d/relu_1x1
I0403 13:48:22.053961   374 net.cpp:148] Top shape: 24 112 14 14 (526848)
I0403 13:48:22.053975   374 net.cpp:156] Memory required for data: 1115397408
I0403 13:48:22.053992   374 layer_factory.hpp:77] Creating layer inception_4d/3x3_reduce
I0403 13:48:22.054028   374 net.cpp:91] Creating Layer inception_4d/3x3_reduce
I0403 13:48:22.054047   374 net.cpp:425] inception_4d/3x3_reduce <- inception_4c/output_inception_4c/output_0_split_1
I0403 13:48:22.054070   374 net.cpp:399] inception_4d/3x3_reduce -> inception_4d/3x3_reduce
I0403 13:48:22.055646   374 net.cpp:141] Setting up inception_4d/3x3_reduce
I0403 13:48:22.055675   374 net.cpp:148] Top shape: 24 144 14 14 (677376)
I0403 13:48:22.055691   374 net.cpp:156] Memory required for data: 1118106912
I0403 13:48:22.055709   374 layer_factory.hpp:77] Creating layer inception_4d/relu_3x3_reduce
I0403 13:48:22.055730   374 net.cpp:91] Creating Layer inception_4d/relu_3x3_reduce
I0403 13:48:22.055748   374 net.cpp:425] inception_4d/relu_3x3_reduce <- inception_4d/3x3_reduce
I0403 13:48:22.055766   374 net.cpp:386] inception_4d/relu_3x3_reduce -> inception_4d/3x3_reduce (in-place)
I0403 13:48:22.056066   374 net.cpp:141] Setting up inception_4d/relu_3x3_reduce
I0403 13:48:22.056092   374 net.cpp:148] Top shape: 24 144 14 14 (677376)
I0403 13:48:22.056107   374 net.cpp:156] Memory required for data: 1120816416
I0403 13:48:22.056123   374 layer_factory.hpp:77] Creating layer inception_4d/3x3
I0403 13:48:22.056148   374 net.cpp:91] Creating Layer inception_4d/3x3
I0403 13:48:22.056166   374 net.cpp:425] inception_4d/3x3 <- inception_4d/3x3_reduce
I0403 13:48:22.056192   374 net.cpp:399] inception_4d/3x3 -> inception_4d/3x3
I0403 13:48:22.060611   374 net.cpp:141] Setting up inception_4d/3x3
I0403 13:48:22.060644   374 net.cpp:148] Top shape: 24 288 14 14 (1354752)
I0403 13:48:22.060662   374 net.cpp:156] Memory required for data: 1126235424
I0403 13:48:22.060683   374 layer_factory.hpp:77] Creating layer inception_4d/relu_3x3
I0403 13:48:22.060701   374 net.cpp:91] Creating Layer inception_4d/relu_3x3
I0403 13:48:22.060719   374 net.cpp:425] inception_4d/relu_3x3 <- inception_4d/3x3
I0403 13:48:22.060739   374 net.cpp:386] inception_4d/relu_3x3 -> inception_4d/3x3 (in-place)
I0403 13:48:22.060930   374 net.cpp:141] Setting up inception_4d/relu_3x3
I0403 13:48:22.060956   374 net.cpp:148] Top shape: 24 288 14 14 (1354752)
I0403 13:48:22.060971   374 net.cpp:156] Memory required for data: 1131654432
I0403 13:48:22.060986   374 layer_factory.hpp:77] Creating layer inception_4d/5x5_reduce
I0403 13:48:22.061009   374 net.cpp:91] Creating Layer inception_4d/5x5_reduce
I0403 13:48:22.061028   374 net.cpp:425] inception_4d/5x5_reduce <- inception_4c/output_inception_4c/output_0_split_2
I0403 13:48:22.061050   374 net.cpp:399] inception_4d/5x5_reduce -> inception_4d/5x5_reduce
I0403 13:48:22.062247   374 net.cpp:141] Setting up inception_4d/5x5_reduce
I0403 13:48:22.062276   374 net.cpp:148] Top shape: 24 32 14 14 (150528)
I0403 13:48:22.062294   374 net.cpp:156] Memory required for data: 1132256544
I0403 13:48:22.062312   374 layer_factory.hpp:77] Creating layer inception_4d/relu_5x5_reduce
I0403 13:48:22.062330   374 net.cpp:91] Creating Layer inception_4d/relu_5x5_reduce
I0403 13:48:22.062347   374 net.cpp:425] inception_4d/relu_5x5_reduce <- inception_4d/5x5_reduce
I0403 13:48:22.062368   374 net.cpp:386] inception_4d/relu_5x5_reduce -> inception_4d/5x5_reduce (in-place)
I0403 13:48:22.062561   374 net.cpp:141] Setting up inception_4d/relu_5x5_reduce
I0403 13:48:22.062587   374 net.cpp:148] Top shape: 24 32 14 14 (150528)
I0403 13:48:22.062602   374 net.cpp:156] Memory required for data: 1132858656
I0403 13:48:22.062618   374 layer_factory.hpp:77] Creating layer inception_4d/5x5
I0403 13:48:22.062640   374 net.cpp:91] Creating Layer inception_4d/5x5
I0403 13:48:22.062659   374 net.cpp:425] inception_4d/5x5 <- inception_4d/5x5_reduce
I0403 13:48:22.062681   374 net.cpp:399] inception_4d/5x5 -> inception_4d/5x5
I0403 13:48:22.064213   374 net.cpp:141] Setting up inception_4d/5x5
I0403 13:48:22.064241   374 net.cpp:148] Top shape: 24 64 14 14 (301056)
I0403 13:48:22.064259   374 net.cpp:156] Memory required for data: 1134062880
I0403 13:48:22.064277   374 layer_factory.hpp:77] Creating layer inception_4d/relu_5x5
I0403 13:48:22.064314   374 net.cpp:91] Creating Layer inception_4d/relu_5x5
I0403 13:48:22.064332   374 net.cpp:425] inception_4d/relu_5x5 <- inception_4d/5x5
I0403 13:48:22.064350   374 net.cpp:386] inception_4d/relu_5x5 -> inception_4d/5x5 (in-place)
I0403 13:48:22.064661   374 net.cpp:141] Setting up inception_4d/relu_5x5
I0403 13:48:22.064687   374 net.cpp:148] Top shape: 24 64 14 14 (301056)
I0403 13:48:22.064703   374 net.cpp:156] Memory required for data: 1135267104
I0403 13:48:22.064718   374 layer_factory.hpp:77] Creating layer inception_4d/pool
I0403 13:48:22.064741   374 net.cpp:91] Creating Layer inception_4d/pool
I0403 13:48:22.064759   374 net.cpp:425] inception_4d/pool <- inception_4c/output_inception_4c/output_0_split_3
I0403 13:48:22.064779   374 net.cpp:399] inception_4d/pool -> inception_4d/pool
I0403 13:48:22.064848   374 net.cpp:141] Setting up inception_4d/pool
I0403 13:48:22.064873   374 net.cpp:148] Top shape: 24 512 14 14 (2408448)
I0403 13:48:22.064889   374 net.cpp:156] Memory required for data: 1144900896
I0403 13:48:22.064904   374 layer_factory.hpp:77] Creating layer inception_4d/pool_proj
I0403 13:48:22.064929   374 net.cpp:91] Creating Layer inception_4d/pool_proj
I0403 13:48:22.064946   374 net.cpp:425] inception_4d/pool_proj <- inception_4d/pool
I0403 13:48:22.064968   374 net.cpp:399] inception_4d/pool_proj -> inception_4d/pool_proj
I0403 13:48:22.066818   374 net.cpp:141] Setting up inception_4d/pool_proj
I0403 13:48:22.066850   374 net.cpp:148] Top shape: 24 64 14 14 (301056)
I0403 13:48:22.066869   374 net.cpp:156] Memory required for data: 1146105120
I0403 13:48:22.066887   374 layer_factory.hpp:77] Creating layer inception_4d/relu_pool_proj
I0403 13:48:22.066905   374 net.cpp:91] Creating Layer inception_4d/relu_pool_proj
I0403 13:48:22.066922   374 net.cpp:425] inception_4d/relu_pool_proj <- inception_4d/pool_proj
I0403 13:48:22.066943   374 net.cpp:386] inception_4d/relu_pool_proj -> inception_4d/pool_proj (in-place)
I0403 13:48:22.067137   374 net.cpp:141] Setting up inception_4d/relu_pool_proj
I0403 13:48:22.067162   374 net.cpp:148] Top shape: 24 64 14 14 (301056)
I0403 13:48:22.067183   374 net.cpp:156] Memory required for data: 1147309344
I0403 13:48:22.067200   374 layer_factory.hpp:77] Creating layer inception_4d/output
I0403 13:48:22.067219   374 net.cpp:91] Creating Layer inception_4d/output
I0403 13:48:22.067236   374 net.cpp:425] inception_4d/output <- inception_4d/1x1
I0403 13:48:22.067253   374 net.cpp:425] inception_4d/output <- inception_4d/3x3
I0403 13:48:22.067270   374 net.cpp:425] inception_4d/output <- inception_4d/5x5
I0403 13:48:22.067287   374 net.cpp:425] inception_4d/output <- inception_4d/pool_proj
I0403 13:48:22.067307   374 net.cpp:399] inception_4d/output -> inception_4d/output
I0403 13:48:22.067360   374 net.cpp:141] Setting up inception_4d/output
I0403 13:48:22.067385   374 net.cpp:148] Top shape: 24 528 14 14 (2483712)
I0403 13:48:22.067401   374 net.cpp:156] Memory required for data: 1157244192
I0403 13:48:22.067417   374 layer_factory.hpp:77] Creating layer inception_4d/output_inception_4d/output_0_split
I0403 13:48:22.067436   374 net.cpp:91] Creating Layer inception_4d/output_inception_4d/output_0_split
I0403 13:48:22.067452   374 net.cpp:425] inception_4d/output_inception_4d/output_0_split <- inception_4d/output
I0403 13:48:22.067474   374 net.cpp:399] inception_4d/output_inception_4d/output_0_split -> inception_4d/output_inception_4d/output_0_split_0
I0403 13:48:22.067497   374 net.cpp:399] inception_4d/output_inception_4d/output_0_split -> inception_4d/output_inception_4d/output_0_split_1
I0403 13:48:22.067519   374 net.cpp:399] inception_4d/output_inception_4d/output_0_split -> inception_4d/output_inception_4d/output_0_split_2
I0403 13:48:22.067541   374 net.cpp:399] inception_4d/output_inception_4d/output_0_split -> inception_4d/output_inception_4d/output_0_split_3
I0403 13:48:22.067562   374 net.cpp:399] inception_4d/output_inception_4d/output_0_split -> inception_4d/output_inception_4d/output_0_split_4
I0403 13:48:22.067667   374 net.cpp:141] Setting up inception_4d/output_inception_4d/output_0_split
I0403 13:48:22.067710   374 net.cpp:148] Top shape: 24 528 14 14 (2483712)
I0403 13:48:22.067730   374 net.cpp:148] Top shape: 24 528 14 14 (2483712)
I0403 13:48:22.067746   374 net.cpp:148] Top shape: 24 528 14 14 (2483712)
I0403 13:48:22.067764   374 net.cpp:148] Top shape: 24 528 14 14 (2483712)
I0403 13:48:22.067780   374 net.cpp:148] Top shape: 24 528 14 14 (2483712)
I0403 13:48:22.067793   374 net.cpp:156] Memory required for data: 1206918432
I0403 13:48:22.067808   374 layer_factory.hpp:77] Creating layer loss2/ave_pool
I0403 13:48:22.067826   374 net.cpp:91] Creating Layer loss2/ave_pool
I0403 13:48:22.067847   374 net.cpp:425] loss2/ave_pool <- inception_4d/output_inception_4d/output_0_split_0
I0403 13:48:22.067873   374 net.cpp:399] loss2/ave_pool -> loss2/ave_pool
I0403 13:48:22.068203   374 net.cpp:141] Setting up loss2/ave_pool
I0403 13:48:22.068230   374 net.cpp:148] Top shape: 24 528 4 4 (202752)
I0403 13:48:22.068253   374 net.cpp:156] Memory required for data: 1207729440
I0403 13:48:22.068267   374 layer_factory.hpp:77] Creating layer loss2/conv
I0403 13:48:22.068296   374 net.cpp:91] Creating Layer loss2/conv
I0403 13:48:22.068315   374 net.cpp:425] loss2/conv <- loss2/ave_pool
I0403 13:48:22.068337   374 net.cpp:399] loss2/conv -> loss2/conv
I0403 13:48:22.070292   374 net.cpp:141] Setting up loss2/conv
I0403 13:48:22.070322   374 net.cpp:148] Top shape: 24 128 4 4 (49152)
I0403 13:48:22.070336   374 net.cpp:156] Memory required for data: 1207926048
I0403 13:48:22.070355   374 layer_factory.hpp:77] Creating layer loss2/relu_conv
I0403 13:48:22.070376   374 net.cpp:91] Creating Layer loss2/relu_conv
I0403 13:48:22.070394   374 net.cpp:425] loss2/relu_conv <- loss2/conv
I0403 13:48:22.070412   374 net.cpp:386] loss2/relu_conv -> loss2/conv (in-place)
I0403 13:48:22.070698   374 net.cpp:141] Setting up loss2/relu_conv
I0403 13:48:22.070726   374 net.cpp:148] Top shape: 24 128 4 4 (49152)
I0403 13:48:22.070742   374 net.cpp:156] Memory required for data: 1208122656
I0403 13:48:22.070758   374 layer_factory.hpp:77] Creating layer loss2/fc
I0403 13:48:22.070782   374 net.cpp:91] Creating Layer loss2/fc
I0403 13:48:22.070801   374 net.cpp:425] loss2/fc <- loss2/conv
I0403 13:48:22.070823   374 net.cpp:399] loss2/fc -> loss2/fc
I0403 13:48:22.089110   374 net.cpp:141] Setting up loss2/fc
I0403 13:48:22.089170   374 net.cpp:148] Top shape: 24 1024 (24576)
I0403 13:48:22.089193   374 net.cpp:156] Memory required for data: 1208220960
I0403 13:48:22.089215   374 layer_factory.hpp:77] Creating layer loss2/relu_fc
I0403 13:48:22.089236   374 net.cpp:91] Creating Layer loss2/relu_fc
I0403 13:48:22.089253   374 net.cpp:425] loss2/relu_fc <- loss2/fc
I0403 13:48:22.089274   374 net.cpp:386] loss2/relu_fc -> loss2/fc (in-place)
I0403 13:48:22.089629   374 net.cpp:141] Setting up loss2/relu_fc
I0403 13:48:22.089658   374 net.cpp:148] Top shape: 24 1024 (24576)
I0403 13:48:22.089673   374 net.cpp:156] Memory required for data: 1208319264
I0403 13:48:22.089689   374 layer_factory.hpp:77] Creating layer loss2/drop_fc
I0403 13:48:22.089709   374 net.cpp:91] Creating Layer loss2/drop_fc
I0403 13:48:22.089725   374 net.cpp:425] loss2/drop_fc <- loss2/fc
I0403 13:48:22.089745   374 net.cpp:386] loss2/drop_fc -> loss2/fc (in-place)
I0403 13:48:22.089799   374 net.cpp:141] Setting up loss2/drop_fc
I0403 13:48:22.089826   374 net.cpp:148] Top shape: 24 1024 (24576)
I0403 13:48:22.089843   374 net.cpp:156] Memory required for data: 1208417568
I0403 13:48:22.089859   374 layer_factory.hpp:77] Creating layer loss2/classifier_plantvillage
I0403 13:48:22.089879   374 net.cpp:91] Creating Layer loss2/classifier_plantvillage
I0403 13:48:22.089895   374 net.cpp:425] loss2/classifier_plantvillage <- loss2/fc
I0403 13:48:22.089918   374 net.cpp:399] loss2/classifier_plantvillage -> loss2/classifier_plantvillage
I0403 13:48:22.090353   374 net.cpp:141] Setting up loss2/classifier_plantvillage
I0403 13:48:22.090378   374 net.cpp:148] Top shape: 24 38 (912)
I0403 13:48:22.090420   374 net.cpp:156] Memory required for data: 1208421216
I0403 13:48:22.090440   374 layer_factory.hpp:77] Creating layer loss2/classifier_plantvillage_loss2/classifier_plantvillage_0_split
I0403 13:48:22.090461   374 net.cpp:91] Creating Layer loss2/classifier_plantvillage_loss2/classifier_plantvillage_0_split
I0403 13:48:22.090478   374 net.cpp:425] loss2/classifier_plantvillage_loss2/classifier_plantvillage_0_split <- loss2/classifier_plantvillage
I0403 13:48:22.090497   374 net.cpp:399] loss2/classifier_plantvillage_loss2/classifier_plantvillage_0_split -> loss2/classifier_plantvillage_loss2/classifier_plantvillage_0_split_0
I0403 13:48:22.090517   374 net.cpp:399] loss2/classifier_plantvillage_loss2/classifier_plantvillage_0_split -> loss2/classifier_plantvillage_loss2/classifier_plantvillage_0_split_1
I0403 13:48:22.090543   374 net.cpp:399] loss2/classifier_plantvillage_loss2/classifier_plantvillage_0_split -> loss2/classifier_plantvillage_loss2/classifier_plantvillage_0_split_2
I0403 13:48:22.090620   374 net.cpp:141] Setting up loss2/classifier_plantvillage_loss2/classifier_plantvillage_0_split
I0403 13:48:22.090644   374 net.cpp:148] Top shape: 24 38 (912)
I0403 13:48:22.090661   374 net.cpp:148] Top shape: 24 38 (912)
I0403 13:48:22.090677   374 net.cpp:148] Top shape: 24 38 (912)
I0403 13:48:22.090689   374 net.cpp:156] Memory required for data: 1208432160
I0403 13:48:22.090704   374 layer_factory.hpp:77] Creating layer inception_4e/1x1
I0403 13:48:22.090728   374 net.cpp:91] Creating Layer inception_4e/1x1
I0403 13:48:22.090746   374 net.cpp:425] inception_4e/1x1 <- inception_4d/output_inception_4d/output_0_split_1
I0403 13:48:22.090765   374 net.cpp:399] inception_4e/1x1 -> inception_4e/1x1
I0403 13:48:22.092656   374 net.cpp:141] Setting up inception_4e/1x1
I0403 13:48:22.092685   374 net.cpp:148] Top shape: 24 256 14 14 (1204224)
I0403 13:48:22.092701   374 net.cpp:156] Memory required for data: 1213249056
I0403 13:48:22.092720   374 layer_factory.hpp:77] Creating layer inception_4e/relu_1x1
I0403 13:48:22.092742   374 net.cpp:91] Creating Layer inception_4e/relu_1x1
I0403 13:48:22.092758   374 net.cpp:425] inception_4e/relu_1x1 <- inception_4e/1x1
I0403 13:48:22.092775   374 net.cpp:386] inception_4e/relu_1x1 -> inception_4e/1x1 (in-place)
I0403 13:48:22.093088   374 net.cpp:141] Setting up inception_4e/relu_1x1
I0403 13:48:22.093116   374 net.cpp:148] Top shape: 24 256 14 14 (1204224)
I0403 13:48:22.093132   374 net.cpp:156] Memory required for data: 1218065952
I0403 13:48:22.093148   374 layer_factory.hpp:77] Creating layer inception_4e/3x3_reduce
I0403 13:48:22.093171   374 net.cpp:91] Creating Layer inception_4e/3x3_reduce
I0403 13:48:22.093196   374 net.cpp:425] inception_4e/3x3_reduce <- inception_4d/output_inception_4d/output_0_split_2
I0403 13:48:22.093219   374 net.cpp:399] inception_4e/3x3_reduce -> inception_4e/3x3_reduce
I0403 13:48:22.095356   374 net.cpp:141] Setting up inception_4e/3x3_reduce
I0403 13:48:22.095386   374 net.cpp:148] Top shape: 24 160 14 14 (752640)
I0403 13:48:22.095402   374 net.cpp:156] Memory required for data: 1221076512
I0403 13:48:22.095420   374 layer_factory.hpp:77] Creating layer inception_4e/relu_3x3_reduce
I0403 13:48:22.095443   374 net.cpp:91] Creating Layer inception_4e/relu_3x3_reduce
I0403 13:48:22.095461   374 net.cpp:425] inception_4e/relu_3x3_reduce <- inception_4e/3x3_reduce
I0403 13:48:22.095480   374 net.cpp:386] inception_4e/relu_3x3_reduce -> inception_4e/3x3_reduce (in-place)
I0403 13:48:22.095661   374 net.cpp:141] Setting up inception_4e/relu_3x3_reduce
I0403 13:48:22.095687   374 net.cpp:148] Top shape: 24 160 14 14 (752640)
I0403 13:48:22.095702   374 net.cpp:156] Memory required for data: 1224087072
I0403 13:48:22.095717   374 layer_factory.hpp:77] Creating layer inception_4e/3x3
I0403 13:48:22.095738   374 net.cpp:91] Creating Layer inception_4e/3x3
I0403 13:48:22.095757   374 net.cpp:425] inception_4e/3x3 <- inception_4e/3x3_reduce
I0403 13:48:22.095775   374 net.cpp:399] inception_4e/3x3 -> inception_4e/3x3
I0403 13:48:22.100826   374 net.cpp:141] Setting up inception_4e/3x3
I0403 13:48:22.100872   374 net.cpp:148] Top shape: 24 320 14 14 (1505280)
I0403 13:48:22.100890   374 net.cpp:156] Memory required for data: 1230108192
I0403 13:48:22.100910   374 layer_factory.hpp:77] Creating layer inception_4e/relu_3x3
I0403 13:48:22.100929   374 net.cpp:91] Creating Layer inception_4e/relu_3x3
I0403 13:48:22.100945   374 net.cpp:425] inception_4e/relu_3x3 <- inception_4e/3x3
I0403 13:48:22.100963   374 net.cpp:386] inception_4e/relu_3x3 -> inception_4e/3x3 (in-place)
I0403 13:48:22.101271   374 net.cpp:141] Setting up inception_4e/relu_3x3
I0403 13:48:22.101299   374 net.cpp:148] Top shape: 24 320 14 14 (1505280)
I0403 13:48:22.101315   374 net.cpp:156] Memory required for data: 1236129312
I0403 13:48:22.101330   374 layer_factory.hpp:77] Creating layer inception_4e/5x5_reduce
I0403 13:48:22.101353   374 net.cpp:91] Creating Layer inception_4e/5x5_reduce
I0403 13:48:22.101372   374 net.cpp:425] inception_4e/5x5_reduce <- inception_4d/output_inception_4d/output_0_split_3
I0403 13:48:22.101394   374 net.cpp:399] inception_4e/5x5_reduce -> inception_4e/5x5_reduce
I0403 13:48:22.102478   374 net.cpp:141] Setting up inception_4e/5x5_reduce
I0403 13:48:22.102505   374 net.cpp:148] Top shape: 24 32 14 14 (150528)
I0403 13:48:22.102522   374 net.cpp:156] Memory required for data: 1236731424
I0403 13:48:22.102540   374 layer_factory.hpp:77] Creating layer inception_4e/relu_5x5_reduce
I0403 13:48:22.102563   374 net.cpp:91] Creating Layer inception_4e/relu_5x5_reduce
I0403 13:48:22.102592   374 net.cpp:425] inception_4e/relu_5x5_reduce <- inception_4e/5x5_reduce
I0403 13:48:22.102609   374 net.cpp:386] inception_4e/relu_5x5_reduce -> inception_4e/5x5_reduce (in-place)
I0403 13:48:22.102900   374 net.cpp:141] Setting up inception_4e/relu_5x5_reduce
I0403 13:48:22.102926   374 net.cpp:148] Top shape: 24 32 14 14 (150528)
I0403 13:48:22.102942   374 net.cpp:156] Memory required for data: 1237333536
I0403 13:48:22.102957   374 layer_factory.hpp:77] Creating layer inception_4e/5x5
I0403 13:48:22.102998   374 net.cpp:91] Creating Layer inception_4e/5x5
I0403 13:48:22.103018   374 net.cpp:425] inception_4e/5x5 <- inception_4e/5x5_reduce
I0403 13:48:22.103036   374 net.cpp:399] inception_4e/5x5 -> inception_4e/5x5
I0403 13:48:22.104914   374 net.cpp:141] Setting up inception_4e/5x5
I0403 13:48:22.104943   374 net.cpp:148] Top shape: 24 128 14 14 (602112)
I0403 13:48:22.104960   374 net.cpp:156] Memory required for data: 1239741984
I0403 13:48:22.104979   374 layer_factory.hpp:77] Creating layer inception_4e/relu_5x5
I0403 13:48:22.105000   374 net.cpp:91] Creating Layer inception_4e/relu_5x5
I0403 13:48:22.105016   374 net.cpp:425] inception_4e/relu_5x5 <- inception_4e/5x5
I0403 13:48:22.105034   374 net.cpp:386] inception_4e/relu_5x5 -> inception_4e/5x5 (in-place)
I0403 13:48:22.105232   374 net.cpp:141] Setting up inception_4e/relu_5x5
I0403 13:48:22.105255   374 net.cpp:148] Top shape: 24 128 14 14 (602112)
I0403 13:48:22.105270   374 net.cpp:156] Memory required for data: 1242150432
I0403 13:48:22.105284   374 layer_factory.hpp:77] Creating layer inception_4e/pool
I0403 13:48:22.105317   374 net.cpp:91] Creating Layer inception_4e/pool
I0403 13:48:22.105335   374 net.cpp:425] inception_4e/pool <- inception_4d/output_inception_4d/output_0_split_4
I0403 13:48:22.105355   374 net.cpp:399] inception_4e/pool -> inception_4e/pool
I0403 13:48:22.105427   374 net.cpp:141] Setting up inception_4e/pool
I0403 13:48:22.105453   374 net.cpp:148] Top shape: 24 528 14 14 (2483712)
I0403 13:48:22.105466   374 net.cpp:156] Memory required for data: 1252085280
I0403 13:48:22.105481   374 layer_factory.hpp:77] Creating layer inception_4e/pool_proj
I0403 13:48:22.105504   374 net.cpp:91] Creating Layer inception_4e/pool_proj
I0403 13:48:22.105522   374 net.cpp:425] inception_4e/pool_proj <- inception_4e/pool
I0403 13:48:22.105543   374 net.cpp:399] inception_4e/pool_proj -> inception_4e/pool_proj
I0403 13:48:22.107038   374 net.cpp:141] Setting up inception_4e/pool_proj
I0403 13:48:22.107079   374 net.cpp:148] Top shape: 24 128 14 14 (602112)
I0403 13:48:22.107097   374 net.cpp:156] Memory required for data: 1254493728
I0403 13:48:22.107116   374 layer_factory.hpp:77] Creating layer inception_4e/relu_pool_proj
I0403 13:48:22.107147   374 net.cpp:91] Creating Layer inception_4e/relu_pool_proj
I0403 13:48:22.107164   374 net.cpp:425] inception_4e/relu_pool_proj <- inception_4e/pool_proj
I0403 13:48:22.107192   374 net.cpp:386] inception_4e/relu_pool_proj -> inception_4e/pool_proj (in-place)
I0403 13:48:22.107481   374 net.cpp:141] Setting up inception_4e/relu_pool_proj
I0403 13:48:22.107507   374 net.cpp:148] Top shape: 24 128 14 14 (602112)
I0403 13:48:22.107522   374 net.cpp:156] Memory required for data: 1256902176
I0403 13:48:22.107537   374 layer_factory.hpp:77] Creating layer inception_4e/output
I0403 13:48:22.107555   374 net.cpp:91] Creating Layer inception_4e/output
I0403 13:48:22.107570   374 net.cpp:425] inception_4e/output <- inception_4e/1x1
I0403 13:48:22.107586   374 net.cpp:425] inception_4e/output <- inception_4e/3x3
I0403 13:48:22.107602   374 net.cpp:425] inception_4e/output <- inception_4e/5x5
I0403 13:48:22.107619   374 net.cpp:425] inception_4e/output <- inception_4e/pool_proj
I0403 13:48:22.107637   374 net.cpp:399] inception_4e/output -> inception_4e/output
I0403 13:48:22.107686   374 net.cpp:141] Setting up inception_4e/output
I0403 13:48:22.107712   374 net.cpp:148] Top shape: 24 832 14 14 (3913728)
I0403 13:48:22.107728   374 net.cpp:156] Memory required for data: 1272557088
I0403 13:48:22.107743   374 layer_factory.hpp:77] Creating layer pool4/3x3_s2
I0403 13:48:22.107759   374 net.cpp:91] Creating Layer pool4/3x3_s2
I0403 13:48:22.107774   374 net.cpp:425] pool4/3x3_s2 <- inception_4e/output
I0403 13:48:22.107796   374 net.cpp:399] pool4/3x3_s2 -> pool4/3x3_s2
I0403 13:48:22.107861   374 net.cpp:141] Setting up pool4/3x3_s2
I0403 13:48:22.107884   374 net.cpp:148] Top shape: 24 832 7 7 (978432)
I0403 13:48:22.107899   374 net.cpp:156] Memory required for data: 1276470816
I0403 13:48:22.107913   374 layer_factory.hpp:77] Creating layer pool4/3x3_s2_pool4/3x3_s2_0_split
I0403 13:48:22.107933   374 net.cpp:91] Creating Layer pool4/3x3_s2_pool4/3x3_s2_0_split
I0403 13:48:22.107949   374 net.cpp:425] pool4/3x3_s2_pool4/3x3_s2_0_split <- pool4/3x3_s2
I0403 13:48:22.107966   374 net.cpp:399] pool4/3x3_s2_pool4/3x3_s2_0_split -> pool4/3x3_s2_pool4/3x3_s2_0_split_0
I0403 13:48:22.107987   374 net.cpp:399] pool4/3x3_s2_pool4/3x3_s2_0_split -> pool4/3x3_s2_pool4/3x3_s2_0_split_1
I0403 13:48:22.108007   374 net.cpp:399] pool4/3x3_s2_pool4/3x3_s2_0_split -> pool4/3x3_s2_pool4/3x3_s2_0_split_2
I0403 13:48:22.108027   374 net.cpp:399] pool4/3x3_s2_pool4/3x3_s2_0_split -> pool4/3x3_s2_pool4/3x3_s2_0_split_3
I0403 13:48:22.108116   374 net.cpp:141] Setting up pool4/3x3_s2_pool4/3x3_s2_0_split
I0403 13:48:22.108140   374 net.cpp:148] Top shape: 24 832 7 7 (978432)
I0403 13:48:22.108156   374 net.cpp:148] Top shape: 24 832 7 7 (978432)
I0403 13:48:22.108172   374 net.cpp:148] Top shape: 24 832 7 7 (978432)
I0403 13:48:22.108193   374 net.cpp:148] Top shape: 24 832 7 7 (978432)
I0403 13:48:22.108220   374 net.cpp:156] Memory required for data: 1292125728
I0403 13:48:22.108235   374 layer_factory.hpp:77] Creating layer inception_5a/1x1
I0403 13:48:22.108258   374 net.cpp:91] Creating Layer inception_5a/1x1
I0403 13:48:22.108276   374 net.cpp:425] inception_5a/1x1 <- pool4/3x3_s2_pool4/3x3_s2_0_split_0
I0403 13:48:22.108297   374 net.cpp:399] inception_5a/1x1 -> inception_5a/1x1
I0403 13:48:22.111279   374 net.cpp:141] Setting up inception_5a/1x1
I0403 13:48:22.111310   374 net.cpp:148] Top shape: 24 256 7 7 (301056)
I0403 13:48:22.111326   374 net.cpp:156] Memory required for data: 1293329952
I0403 13:48:22.111346   374 layer_factory.hpp:77] Creating layer inception_5a/relu_1x1
I0403 13:48:22.111366   374 net.cpp:91] Creating Layer inception_5a/relu_1x1
I0403 13:48:22.111383   374 net.cpp:425] inception_5a/relu_1x1 <- inception_5a/1x1
I0403 13:48:22.111402   374 net.cpp:386] inception_5a/relu_1x1 -> inception_5a/1x1 (in-place)
I0403 13:48:22.111726   374 net.cpp:141] Setting up inception_5a/relu_1x1
I0403 13:48:22.111752   374 net.cpp:148] Top shape: 24 256 7 7 (301056)
I0403 13:48:22.111768   374 net.cpp:156] Memory required for data: 1294534176
I0403 13:48:22.111783   374 layer_factory.hpp:77] Creating layer inception_5a/3x3_reduce
I0403 13:48:22.111804   374 net.cpp:91] Creating Layer inception_5a/3x3_reduce
I0403 13:48:22.111822   374 net.cpp:425] inception_5a/3x3_reduce <- pool4/3x3_s2_pool4/3x3_s2_0_split_1
I0403 13:48:22.111845   374 net.cpp:399] inception_5a/3x3_reduce -> inception_5a/3x3_reduce
I0403 13:48:22.114357   374 net.cpp:141] Setting up inception_5a/3x3_reduce
I0403 13:48:22.114389   374 net.cpp:148] Top shape: 24 160 7 7 (188160)
I0403 13:48:22.114406   374 net.cpp:156] Memory required for data: 1295286816
I0403 13:48:22.114425   374 layer_factory.hpp:77] Creating layer inception_5a/relu_3x3_reduce
I0403 13:48:22.114444   374 net.cpp:91] Creating Layer inception_5a/relu_3x3_reduce
I0403 13:48:22.114460   374 net.cpp:425] inception_5a/relu_3x3_reduce <- inception_5a/3x3_reduce
I0403 13:48:22.114480   374 net.cpp:386] inception_5a/relu_3x3_reduce -> inception_5a/3x3_reduce (in-place)
I0403 13:48:22.114676   374 net.cpp:141] Setting up inception_5a/relu_3x3_reduce
I0403 13:48:22.114701   374 net.cpp:148] Top shape: 24 160 7 7 (188160)
I0403 13:48:22.114714   374 net.cpp:156] Memory required for data: 1296039456
I0403 13:48:22.114729   374 layer_factory.hpp:77] Creating layer inception_5a/3x3
I0403 13:48:22.114751   374 net.cpp:91] Creating Layer inception_5a/3x3
I0403 13:48:22.114768   374 net.cpp:425] inception_5a/3x3 <- inception_5a/3x3_reduce
I0403 13:48:22.114792   374 net.cpp:399] inception_5a/3x3 -> inception_5a/3x3
I0403 13:48:22.119791   374 net.cpp:141] Setting up inception_5a/3x3
I0403 13:48:22.119822   374 net.cpp:148] Top shape: 24 320 7 7 (376320)
I0403 13:48:22.119838   374 net.cpp:156] Memory required for data: 1297544736
I0403 13:48:22.119858   374 layer_factory.hpp:77] Creating layer inception_5a/relu_3x3
I0403 13:48:22.119880   374 net.cpp:91] Creating Layer inception_5a/relu_3x3
I0403 13:48:22.119899   374 net.cpp:425] inception_5a/relu_3x3 <- inception_5a/3x3
I0403 13:48:22.119917   374 net.cpp:386] inception_5a/relu_3x3 -> inception_5a/3x3 (in-place)
I0403 13:48:22.120211   374 net.cpp:141] Setting up inception_5a/relu_3x3
I0403 13:48:22.120239   374 net.cpp:148] Top shape: 24 320 7 7 (376320)
I0403 13:48:22.120254   374 net.cpp:156] Memory required for data: 1299050016
I0403 13:48:22.120270   374 layer_factory.hpp:77] Creating layer inception_5a/5x5_reduce
I0403 13:48:22.120295   374 net.cpp:91] Creating Layer inception_5a/5x5_reduce
I0403 13:48:22.120312   374 net.cpp:425] inception_5a/5x5_reduce <- pool4/3x3_s2_pool4/3x3_s2_0_split_2
I0403 13:48:22.120337   374 net.cpp:399] inception_5a/5x5_reduce -> inception_5a/5x5_reduce
I0403 13:48:22.121475   374 net.cpp:141] Setting up inception_5a/5x5_reduce
I0403 13:48:22.121503   374 net.cpp:148] Top shape: 24 32 7 7 (37632)
I0403 13:48:22.121521   374 net.cpp:156] Memory required for data: 1299200544
I0403 13:48:22.121541   374 layer_factory.hpp:77] Creating layer inception_5a/relu_5x5_reduce
I0403 13:48:22.121562   374 net.cpp:91] Creating Layer inception_5a/relu_5x5_reduce
I0403 13:48:22.121580   374 net.cpp:425] inception_5a/relu_5x5_reduce <- inception_5a/5x5_reduce
I0403 13:48:22.121599   374 net.cpp:386] inception_5a/relu_5x5_reduce -> inception_5a/5x5_reduce (in-place)
I0403 13:48:22.121893   374 net.cpp:141] Setting up inception_5a/relu_5x5_reduce
I0403 13:48:22.121920   374 net.cpp:148] Top shape: 24 32 7 7 (37632)
I0403 13:48:22.121937   374 net.cpp:156] Memory required for data: 1299351072
I0403 13:48:22.121953   374 layer_factory.hpp:77] Creating layer inception_5a/5x5
I0403 13:48:22.121975   374 net.cpp:91] Creating Layer inception_5a/5x5
I0403 13:48:22.121994   374 net.cpp:425] inception_5a/5x5 <- inception_5a/5x5_reduce
I0403 13:48:22.122015   374 net.cpp:399] inception_5a/5x5 -> inception_5a/5x5
I0403 13:48:22.123735   374 net.cpp:141] Setting up inception_5a/5x5
I0403 13:48:22.123776   374 net.cpp:148] Top shape: 24 128 7 7 (150528)
I0403 13:48:22.123795   374 net.cpp:156] Memory required for data: 1299953184
I0403 13:48:22.123814   374 layer_factory.hpp:77] Creating layer inception_5a/relu_5x5
I0403 13:48:22.123836   374 net.cpp:91] Creating Layer inception_5a/relu_5x5
I0403 13:48:22.123853   374 net.cpp:425] inception_5a/relu_5x5 <- inception_5a/5x5
I0403 13:48:22.123872   374 net.cpp:386] inception_5a/relu_5x5 -> inception_5a/5x5 (in-place)
I0403 13:48:22.124063   374 net.cpp:141] Setting up inception_5a/relu_5x5
I0403 13:48:22.124089   374 net.cpp:148] Top shape: 24 128 7 7 (150528)
I0403 13:48:22.124102   374 net.cpp:156] Memory required for data: 1300555296
I0403 13:48:22.124119   374 layer_factory.hpp:77] Creating layer inception_5a/pool
I0403 13:48:22.124138   374 net.cpp:91] Creating Layer inception_5a/pool
I0403 13:48:22.124156   374 net.cpp:425] inception_5a/pool <- pool4/3x3_s2_pool4/3x3_s2_0_split_3
I0403 13:48:22.124176   374 net.cpp:399] inception_5a/pool -> inception_5a/pool
I0403 13:48:22.124254   374 net.cpp:141] Setting up inception_5a/pool
I0403 13:48:22.124279   374 net.cpp:148] Top shape: 24 832 7 7 (978432)
I0403 13:48:22.124294   374 net.cpp:156] Memory required for data: 1304469024
I0403 13:48:22.124308   374 layer_factory.hpp:77] Creating layer inception_5a/pool_proj
I0403 13:48:22.124332   374 net.cpp:91] Creating Layer inception_5a/pool_proj
I0403 13:48:22.124351   374 net.cpp:425] inception_5a/pool_proj <- inception_5a/pool
I0403 13:48:22.124372   374 net.cpp:399] inception_5a/pool_proj -> inception_5a/pool_proj
I0403 13:48:22.126659   374 net.cpp:141] Setting up inception_5a/pool_proj
I0403 13:48:22.126691   374 net.cpp:148] Top shape: 24 128 7 7 (150528)
I0403 13:48:22.126709   374 net.cpp:156] Memory required for data: 1305071136
I0403 13:48:22.126729   374 layer_factory.hpp:77] Creating layer inception_5a/relu_pool_proj
I0403 13:48:22.126749   374 net.cpp:91] Creating Layer inception_5a/relu_pool_proj
I0403 13:48:22.126765   374 net.cpp:425] inception_5a/relu_pool_proj <- inception_5a/pool_proj
I0403 13:48:22.126786   374 net.cpp:386] inception_5a/relu_pool_proj -> inception_5a/pool_proj (in-place)
I0403 13:48:22.127086   374 net.cpp:141] Setting up inception_5a/relu_pool_proj
I0403 13:48:22.127113   374 net.cpp:148] Top shape: 24 128 7 7 (150528)
I0403 13:48:22.127128   374 net.cpp:156] Memory required for data: 1305673248
I0403 13:48:22.127143   374 layer_factory.hpp:77] Creating layer inception_5a/output
I0403 13:48:22.127161   374 net.cpp:91] Creating Layer inception_5a/output
I0403 13:48:22.127182   374 net.cpp:425] inception_5a/output <- inception_5a/1x1
I0403 13:48:22.127202   374 net.cpp:425] inception_5a/output <- inception_5a/3x3
I0403 13:48:22.127220   374 net.cpp:425] inception_5a/output <- inception_5a/5x5
I0403 13:48:22.127238   374 net.cpp:425] inception_5a/output <- inception_5a/pool_proj
I0403 13:48:22.127256   374 net.cpp:399] inception_5a/output -> inception_5a/output
I0403 13:48:22.127308   374 net.cpp:141] Setting up inception_5a/output
I0403 13:48:22.127334   374 net.cpp:148] Top shape: 24 832 7 7 (978432)
I0403 13:48:22.127351   374 net.cpp:156] Memory required for data: 1309586976
I0403 13:48:22.127365   374 layer_factory.hpp:77] Creating layer inception_5a/output_inception_5a/output_0_split
I0403 13:48:22.127383   374 net.cpp:91] Creating Layer inception_5a/output_inception_5a/output_0_split
I0403 13:48:22.127399   374 net.cpp:425] inception_5a/output_inception_5a/output_0_split <- inception_5a/output
I0403 13:48:22.127416   374 net.cpp:399] inception_5a/output_inception_5a/output_0_split -> inception_5a/output_inception_5a/output_0_split_0
I0403 13:48:22.127437   374 net.cpp:399] inception_5a/output_inception_5a/output_0_split -> inception_5a/output_inception_5a/output_0_split_1
I0403 13:48:22.127460   374 net.cpp:399] inception_5a/output_inception_5a/output_0_split -> inception_5a/output_inception_5a/output_0_split_2
I0403 13:48:22.127483   374 net.cpp:399] inception_5a/output_inception_5a/output_0_split -> inception_5a/output_inception_5a/output_0_split_3
I0403 13:48:22.127598   374 net.cpp:141] Setting up inception_5a/output_inception_5a/output_0_split
I0403 13:48:22.127621   374 net.cpp:148] Top shape: 24 832 7 7 (978432)
I0403 13:48:22.127638   374 net.cpp:148] Top shape: 24 832 7 7 (978432)
I0403 13:48:22.127655   374 net.cpp:148] Top shape: 24 832 7 7 (978432)
I0403 13:48:22.127671   374 net.cpp:148] Top shape: 24 832 7 7 (978432)
I0403 13:48:22.127686   374 net.cpp:156] Memory required for data: 1325241888
I0403 13:48:22.127701   374 layer_factory.hpp:77] Creating layer inception_5b/1x1
I0403 13:48:22.127722   374 net.cpp:91] Creating Layer inception_5b/1x1
I0403 13:48:22.127740   374 net.cpp:425] inception_5b/1x1 <- inception_5a/output_inception_5a/output_0_split_0
I0403 13:48:22.127761   374 net.cpp:399] inception_5b/1x1 -> inception_5b/1x1
I0403 13:48:22.131552   374 net.cpp:141] Setting up inception_5b/1x1
I0403 13:48:22.131587   374 net.cpp:148] Top shape: 24 384 7 7 (451584)
I0403 13:48:22.131605   374 net.cpp:156] Memory required for data: 1327048224
I0403 13:48:22.131625   374 layer_factory.hpp:77] Creating layer inception_5b/relu_1x1
I0403 13:48:22.131646   374 net.cpp:91] Creating Layer inception_5b/relu_1x1
I0403 13:48:22.131664   374 net.cpp:425] inception_5b/relu_1x1 <- inception_5b/1x1
I0403 13:48:22.131685   374 net.cpp:386] inception_5b/relu_1x1 -> inception_5b/1x1 (in-place)
I0403 13:48:22.131989   374 net.cpp:141] Setting up inception_5b/relu_1x1
I0403 13:48:22.132019   374 net.cpp:148] Top shape: 24 384 7 7 (451584)
I0403 13:48:22.132035   374 net.cpp:156] Memory required for data: 1328854560
I0403 13:48:22.132050   374 layer_factory.hpp:77] Creating layer inception_5b/3x3_reduce
I0403 13:48:22.132073   374 net.cpp:91] Creating Layer inception_5b/3x3_reduce
I0403 13:48:22.132091   374 net.cpp:425] inception_5b/3x3_reduce <- inception_5a/output_inception_5a/output_0_split_1
I0403 13:48:22.132110   374 net.cpp:399] inception_5b/3x3_reduce -> inception_5b/3x3_reduce
I0403 13:48:22.134826   374 net.cpp:141] Setting up inception_5b/3x3_reduce
I0403 13:48:22.134858   374 net.cpp:148] Top shape: 24 192 7 7 (225792)
I0403 13:48:22.134876   374 net.cpp:156] Memory required for data: 1329757728
I0403 13:48:22.134896   374 layer_factory.hpp:77] Creating layer inception_5b/relu_3x3_reduce
I0403 13:48:22.134915   374 net.cpp:91] Creating Layer inception_5b/relu_3x3_reduce
I0403 13:48:22.134933   374 net.cpp:425] inception_5b/relu_3x3_reduce <- inception_5b/3x3_reduce
I0403 13:48:22.134954   374 net.cpp:386] inception_5b/relu_3x3_reduce -> inception_5b/3x3_reduce (in-place)
I0403 13:48:22.135148   374 net.cpp:141] Setting up inception_5b/relu_3x3_reduce
I0403 13:48:22.135174   374 net.cpp:148] Top shape: 24 192 7 7 (225792)
I0403 13:48:22.135195   374 net.cpp:156] Memory required for data: 1330660896
I0403 13:48:22.135211   374 layer_factory.hpp:77] Creating layer inception_5b/3x3
I0403 13:48:22.135234   374 net.cpp:91] Creating Layer inception_5b/3x3
I0403 13:48:22.135252   374 net.cpp:425] inception_5b/3x3 <- inception_5b/3x3_reduce
I0403 13:48:22.135273   374 net.cpp:399] inception_5b/3x3 -> inception_5b/3x3
I0403 13:48:22.142253   374 net.cpp:141] Setting up inception_5b/3x3
I0403 13:48:22.142285   374 net.cpp:148] Top shape: 24 384 7 7 (451584)
I0403 13:48:22.142303   374 net.cpp:156] Memory required for data: 1332467232
I0403 13:48:22.142323   374 layer_factory.hpp:77] Creating layer inception_5b/relu_3x3
I0403 13:48:22.142343   374 net.cpp:91] Creating Layer inception_5b/relu_3x3
I0403 13:48:22.142360   374 net.cpp:425] inception_5b/relu_3x3 <- inception_5b/3x3
I0403 13:48:22.142382   374 net.cpp:386] inception_5b/relu_3x3 -> inception_5b/3x3 (in-place)
I0403 13:48:22.142693   374 net.cpp:141] Setting up inception_5b/relu_3x3
I0403 13:48:22.142719   374 net.cpp:148] Top shape: 24 384 7 7 (451584)
I0403 13:48:22.142735   374 net.cpp:156] Memory required for data: 1334273568
I0403 13:48:22.142750   374 layer_factory.hpp:77] Creating layer inception_5b/5x5_reduce
I0403 13:48:22.142801   374 net.cpp:91] Creating Layer inception_5b/5x5_reduce
I0403 13:48:22.142820   374 net.cpp:425] inception_5b/5x5_reduce <- inception_5a/output_inception_5a/output_0_split_2
I0403 13:48:22.142853   374 net.cpp:399] inception_5b/5x5_reduce -> inception_5b/5x5_reduce
I0403 13:48:22.144161   374 net.cpp:141] Setting up inception_5b/5x5_reduce
I0403 13:48:22.144198   374 net.cpp:148] Top shape: 24 48 7 7 (56448)
I0403 13:48:22.144217   374 net.cpp:156] Memory required for data: 1334499360
I0403 13:48:22.144235   374 layer_factory.hpp:77] Creating layer inception_5b/relu_5x5_reduce
I0403 13:48:22.144254   374 net.cpp:91] Creating Layer inception_5b/relu_5x5_reduce
I0403 13:48:22.144273   374 net.cpp:425] inception_5b/relu_5x5_reduce <- inception_5b/5x5_reduce
I0403 13:48:22.144294   374 net.cpp:386] inception_5b/relu_5x5_reduce -> inception_5b/5x5_reduce (in-place)
I0403 13:48:22.144681   374 net.cpp:141] Setting up inception_5b/relu_5x5_reduce
I0403 13:48:22.144709   374 net.cpp:148] Top shape: 24 48 7 7 (56448)
I0403 13:48:22.144726   374 net.cpp:156] Memory required for data: 1334725152
I0403 13:48:22.144742   374 layer_factory.hpp:77] Creating layer inception_5b/5x5
I0403 13:48:22.144763   374 net.cpp:91] Creating Layer inception_5b/5x5
I0403 13:48:22.144784   374 net.cpp:425] inception_5b/5x5 <- inception_5b/5x5_reduce
I0403 13:48:22.144804   374 net.cpp:399] inception_5b/5x5 -> inception_5b/5x5
I0403 13:48:22.146903   374 net.cpp:141] Setting up inception_5b/5x5
I0403 13:48:22.146934   374 net.cpp:148] Top shape: 24 128 7 7 (150528)
I0403 13:48:22.146950   374 net.cpp:156] Memory required for data: 1335327264
I0403 13:48:22.146970   374 layer_factory.hpp:77] Creating layer inception_5b/relu_5x5
I0403 13:48:22.146991   374 net.cpp:91] Creating Layer inception_5b/relu_5x5
I0403 13:48:22.147009   374 net.cpp:425] inception_5b/relu_5x5 <- inception_5b/5x5
I0403 13:48:22.147028   374 net.cpp:386] inception_5b/relu_5x5 -> inception_5b/5x5 (in-place)
I0403 13:48:22.147230   374 net.cpp:141] Setting up inception_5b/relu_5x5
I0403 13:48:22.147263   374 net.cpp:148] Top shape: 24 128 7 7 (150528)
I0403 13:48:22.147279   374 net.cpp:156] Memory required for data: 1335929376
I0403 13:48:22.147296   374 layer_factory.hpp:77] Creating layer inception_5b/pool
I0403 13:48:22.147315   374 net.cpp:91] Creating Layer inception_5b/pool
I0403 13:48:22.147332   374 net.cpp:425] inception_5b/pool <- inception_5a/output_inception_5a/output_0_split_3
I0403 13:48:22.147352   374 net.cpp:399] inception_5b/pool -> inception_5b/pool
I0403 13:48:22.147428   374 net.cpp:141] Setting up inception_5b/pool
I0403 13:48:22.147452   374 net.cpp:148] Top shape: 24 832 7 7 (978432)
I0403 13:48:22.147469   374 net.cpp:156] Memory required for data: 1339843104
I0403 13:48:22.147482   374 layer_factory.hpp:77] Creating layer inception_5b/pool_proj
I0403 13:48:22.147514   374 net.cpp:91] Creating Layer inception_5b/pool_proj
I0403 13:48:22.147532   374 net.cpp:425] inception_5b/pool_proj <- inception_5b/pool
I0403 13:48:22.147555   374 net.cpp:399] inception_5b/pool_proj -> inception_5b/pool_proj
I0403 13:48:22.149883   374 net.cpp:141] Setting up inception_5b/pool_proj
I0403 13:48:22.149914   374 net.cpp:148] Top shape: 24 128 7 7 (150528)
I0403 13:48:22.149931   374 net.cpp:156] Memory required for data: 1340445216
I0403 13:48:22.149950   374 layer_factory.hpp:77] Creating layer inception_5b/relu_pool_proj
I0403 13:48:22.149972   374 net.cpp:91] Creating Layer inception_5b/relu_pool_proj
I0403 13:48:22.149993   374 net.cpp:425] inception_5b/relu_pool_proj <- inception_5b/pool_proj
I0403 13:48:22.150013   374 net.cpp:386] inception_5b/relu_pool_proj -> inception_5b/pool_proj (in-place)
I0403 13:48:22.150321   374 net.cpp:141] Setting up inception_5b/relu_pool_proj
I0403 13:48:22.150349   374 net.cpp:148] Top shape: 24 128 7 7 (150528)
I0403 13:48:22.150367   374 net.cpp:156] Memory required for data: 1341047328
I0403 13:48:22.150382   374 layer_factory.hpp:77] Creating layer inception_5b/output
I0403 13:48:22.150400   374 net.cpp:91] Creating Layer inception_5b/output
I0403 13:48:22.150432   374 net.cpp:425] inception_5b/output <- inception_5b/1x1
I0403 13:48:22.150451   374 net.cpp:425] inception_5b/output <- inception_5b/3x3
I0403 13:48:22.150470   374 net.cpp:425] inception_5b/output <- inception_5b/5x5
I0403 13:48:22.150487   374 net.cpp:425] inception_5b/output <- inception_5b/pool_proj
I0403 13:48:22.150516   374 net.cpp:399] inception_5b/output -> inception_5b/output
I0403 13:48:22.150568   374 net.cpp:141] Setting up inception_5b/output
I0403 13:48:22.150594   374 net.cpp:148] Top shape: 24 1024 7 7 (1204224)
I0403 13:48:22.150611   374 net.cpp:156] Memory required for data: 1345864224
I0403 13:48:22.150626   374 layer_factory.hpp:77] Creating layer pool5/7x7_s1
I0403 13:48:22.150645   374 net.cpp:91] Creating Layer pool5/7x7_s1
I0403 13:48:22.150661   374 net.cpp:425] pool5/7x7_s1 <- inception_5b/output
I0403 13:48:22.150683   374 net.cpp:399] pool5/7x7_s1 -> pool5/7x7_s1
I0403 13:48:22.150902   374 net.cpp:141] Setting up pool5/7x7_s1
I0403 13:48:22.150926   374 net.cpp:148] Top shape: 24 1024 1 1 (24576)
I0403 13:48:22.150943   374 net.cpp:156] Memory required for data: 1345962528
I0403 13:48:22.150959   374 layer_factory.hpp:77] Creating layer pool5/drop_7x7_s1
I0403 13:48:22.150976   374 net.cpp:91] Creating Layer pool5/drop_7x7_s1
I0403 13:48:22.150997   374 net.cpp:425] pool5/drop_7x7_s1 <- pool5/7x7_s1
I0403 13:48:22.151016   374 net.cpp:386] pool5/drop_7x7_s1 -> pool5/7x7_s1 (in-place)
I0403 13:48:22.151065   374 net.cpp:141] Setting up pool5/drop_7x7_s1
I0403 13:48:22.151092   374 net.cpp:148] Top shape: 24 1024 1 1 (24576)
I0403 13:48:22.151108   374 net.cpp:156] Memory required for data: 1346060832
I0403 13:48:22.151123   374 layer_factory.hpp:77] Creating layer loss3/classifier_plantvillage
I0403 13:48:22.151142   374 net.cpp:91] Creating Layer loss3/classifier_plantvillage
I0403 13:48:22.151160   374 net.cpp:425] loss3/classifier_plantvillage <- pool5/7x7_s1
I0403 13:48:22.151186   374 net.cpp:399] loss3/classifier_plantvillage -> loss3/classifier_plantvillage
I0403 13:48:22.151621   374 net.cpp:141] Setting up loss3/classifier_plantvillage
I0403 13:48:22.151648   374 net.cpp:148] Top shape: 24 38 (912)
I0403 13:48:22.151664   374 net.cpp:156] Memory required for data: 1346064480
I0403 13:48:22.151684   374 layer_factory.hpp:77] Creating layer loss3/classifier_plantvillage_loss3/classifier_plantvillage_0_split
I0403 13:48:22.151701   374 net.cpp:91] Creating Layer loss3/classifier_plantvillage_loss3/classifier_plantvillage_0_split
I0403 13:48:22.151718   374 net.cpp:425] loss3/classifier_plantvillage_loss3/classifier_plantvillage_0_split <- loss3/classifier_plantvillage
I0403 13:48:22.151736   374 net.cpp:399] loss3/classifier_plantvillage_loss3/classifier_plantvillage_0_split -> loss3/classifier_plantvillage_loss3/classifier_plantvillage_0_split_0
I0403 13:48:22.151760   374 net.cpp:399] loss3/classifier_plantvillage_loss3/classifier_plantvillage_0_split -> loss3/classifier_plantvillage_loss3/classifier_plantvillage_0_split_1
I0403 13:48:22.151783   374 net.cpp:399] loss3/classifier_plantvillage_loss3/classifier_plantvillage_0_split -> loss3/classifier_plantvillage_loss3/classifier_plantvillage_0_split_2
I0403 13:48:22.151814   374 net.cpp:399] loss3/classifier_plantvillage_loss3/classifier_plantvillage_0_split -> loss3/classifier_plantvillage_loss3/classifier_plantvillage_0_split_3
I0403 13:48:22.151918   374 net.cpp:141] Setting up loss3/classifier_plantvillage_loss3/classifier_plantvillage_0_split
I0403 13:48:22.151942   374 net.cpp:148] Top shape: 24 38 (912)
I0403 13:48:22.151959   374 net.cpp:148] Top shape: 24 38 (912)
I0403 13:48:22.151975   374 net.cpp:148] Top shape: 24 38 (912)
I0403 13:48:22.151991   374 net.cpp:148] Top shape: 24 38 (912)
I0403 13:48:22.152005   374 net.cpp:156] Memory required for data: 1346079072
I0403 13:48:22.152019   374 layer_factory.hpp:77] Creating layer loss1/loss
I0403 13:48:22.152043   374 net.cpp:91] Creating Layer loss1/loss
I0403 13:48:22.152062   374 net.cpp:425] loss1/loss <- loss1/classifier_plantvillage_loss1/classifier_plantvillage_0_split_0
I0403 13:48:22.152092   374 net.cpp:425] loss1/loss <- label_data_1_split_0
…
