…
I0403 13:40:01.343891 32676 net.cpp:313] The NetState phase (1) differed from the phase (0) specified by a rule in layer data
I0403 13:40:01.345053 32676 net.cpp:49] Initializing net from parameters: 
state {
  phase: TEST
}
layer {
  name: "data"
  type: "Data"
  top: "data"
  top: "label"
  include {
    phase: TEST
  }
  transform_param {
    mirror: false
    crop_size: 224
    mean_file: "/home/mohanty/data/final_dataset/lmdb/grayscale-20-80/mean.binaryproto"
  }
  data_param {
    source: "/home/mohanty/data/final_dataset/lmdb/grayscale-20-80/test_db"
    batch_size: 24
    backend: LMDB
  }
}
layer {
  name: "conv1/7x7_s2"
  type: "Convolution"
  bottom: "data"
  top: "conv1/7x7_s2"
  param {
    lr_mult: 1
    decay_mult: 1
  }
  param {
    lr_mult: 2
    decay_mult: 0
  }
  convolution_param {
    num_output: 64
    pad: 3
    kernel_size: 7
    stride: 2
    weight_filler {
      type: "xavier"
      std: 0.1
    }
    bias_filler {
      type: "constant"
      value: 0.2
    }
  }
}
layer {
  name: "conv1/relu_7x7"
  type: "ReLU"
  bottom: "conv1/7x7_s2"
  top: "conv1/7x7_s2"
}
layer {
  name: "pool1/3x3_s2"
  type: "Pooling"
  bottom: "conv1/7x7_s2"
  top: "pool1/3x3_s2"
  pooling_param {
    pool: MAX
    kernel_size: 3
    stride: 2
  }
}
layer {
  name: "pool1/norm1"
  type: "LRN"
  bottom: "pool1/3x3_s2"
  top: "pool1/norm1"
  lrn_param {
    local_size: 5
    alpha: 0.0001
    beta: 0.75
  }
}
layer {
  name: "conv2/3x3_reduce"
  type: "Convolution"
  bottom: "pool1/norm1"
  top: "conv2/3x3_reduce"
  param {
    lr_mult: 1
    decay_mult: 1
  }
  param {
    lr_mult: 2
    decay_mult: 0
  }
  convolution_param {
    num_output: 64
    kernel_size: 1
    weight_filler {
      type: "xavier"
      std: 0.1
    }
    bias_filler {
      type: "constant"
      value: 0.2
    }
  }
}
layer {
  name: "conv2/relu_3x3_reduce"
  type: "ReLU"
  bottom: "conv2/3x3_reduce"
  top: "conv2/3x3_reduce"
}
layer {
  name: "conv2/3x3"
  type: "Convolution"
  bottom: "conv2/3x3_reduce"
  top: "conv2/3x3"
  param {
    lr_mult: 1
    decay_mult: 1
  }
  param {
    lr_mult: 2
    decay_mult: 0
  }
  convolution_param {
    num_output: 192
    pad: 1
    kernel_size: 3
    weight_filler {
      type: "xavier"
      std: 0.03
    }
    bias_filler {
      type: "constant"
      value: 0.2
    }
  }
}
layer {
  name: "conv2/relu_3x3"
  type: "ReLU"
  bottom: "conv2/3x3"
  top: "conv2/3x3"
}
layer {
  name: "conv2/norm2"
  type: "LRN"
  bottom: "conv2/3x3"
  top: "conv2/norm2"
  lrn_param {
    local_size: 5
    alpha: 0.0001
    beta: 0.75
  }
}
layer {
  name: "pool2/3x3_s2"
  type: "Pooling"
  bottom: "conv2/norm2"
  top: "pool2/3x3_s2"
  pooling_param {
    pool: MAX
    kernel_size: 3
    stride: 2
  }
}
layer {
  name: "inception_3a/1x1"
  type: "Convolution"
  bottom: "pool2/3x3_s2"
  top: "inception_3a/1x1"
  param {
    lr_mult: 1
    decay_mult: 1
  }
  param {
    lr_mult: 2
    decay_mult: 0
  }
  convolution_param {
    num_output: 64
    kernel_size: 1
    weight_filler {
      type: "xavier"
      std: 0.03
    }
    bias_filler {
      type: "constant"
      value: 0.2
    }
  }
}
layer {
  name: "inception_3a/relu_1x1"
  type: "ReLU"
  bottom: "inception_3a/1x1"
  top: "inception_3a/1x1"
}
layer {
  name: "inception_3a/3x3_reduce"
  type: "Convolution"
  bottom: "pool2/3x3_s2"
  top: "inception_3a/3x3_reduce"
  param {
    lr_mult: 1
    decay_mult: 1
  }
  param {
    lr_mult: 2
    decay_mult: 0
  }
  convolution_param {
    num_output: 96
    kernel_size: 1
    weight_filler {
      type: "xavier"
      std: 0.09
    }
    bias_filler {
      type: "constant"
      value: 0.2
    }
  }
}
layer {
  name: "inception_3a/relu_3x3_reduce"
  type: "ReLU"
  bottom: "inception_3a/3x3_reduce"
  top: "inception_3a/3x3_reduce"
}
layer {
  name: "inception_3a/3x3"
  type: "Convolution"
  bottom: "inception_3a/3x3_reduce"
  top: "inception_3a/3x3"
  param {
    lr_mult: 1
    decay_mult: 1
  }
  param {
    lr_mult: 2
    decay_mult: 0
  }
  convolution_param {
    num_output: 128
    pad: 1
    kernel_size: 3
    weight_filler {
      type: "xavier"
      std: 0.03
    }
    bias_filler {
      type: "constant"
      value: 0.2
    }
  }
}
layer {
  name: "inception_3a/relu_3x3"
  type: "ReLU"
  bottom: "inception_3a/3x3"
  top: "inception_3a/3x3"
}
layer {
  name: "inception_3a/5x5_reduce"
  type: "Convolution"
  bottom: "pool2/3x3_s2"
  top: "inception_3a/5x5_reduce"
  param {
    lr_mult: 1
    decay_mult: 1
  }
  param {
    lr_mult: 2
    decay_mult: 0
  }
  convolution_param {
    num_output: 16
    kernel_size: 1
    weight_filler {
      type: "xavier"
      std: 0.2
    }
    bias_filler {
      type: "constant"
      value: 0.2
    }
  }
}
layer {
  name: "inception_3a/relu_5x5_reduce"
  type: "ReLU"
  bottom: "inception_3a/5x5_reduce"
  top: "inception_3a/5x5_reduce"
}
layer {
  name: "inception_3a/5x5"
  type: "Convolution"
  bottom: "inception_3a/5x5_reduce"
  top: "inception_3a/5x5"
  param {
    lr_mult: 1
    decay_mult: 1
  }
  param {
    lr_mult: 2
    decay_mult: 0
  }
  convolution_param {
    num_output: 32
    pad: 2
    kernel_size: 5
    weight_filler {
      type: "xavier"
      std: 0.03
    }
    bias_filler {
      type: "constant"
      value: 0.2
    }
  }
}
layer {
  name: "inception_3a/relu_5x5"
  type: "ReLU"
  bottom: "inception_3a/5x5"
  top: "inception_3a/5x5"
}
layer {
  name: "inception_3a/pool"
  type: "Pooling"
  bottom: "pool2/3x3_s2"
  top: "inception_3a/pool"
  pooling_param {
    pool: MAX
    kernel_size: 3
    stride: 1
    pad: 1
  }
}
layer {
  name: "inception_3a/pool_proj"
  type: "Convolution"
  bottom: "inception_3a/pool"
  top: "inception_3a/pool_proj"
  param {
    lr_mult: 1
    decay_mult: 1
  }
  param {
    lr_mult: 2
    decay_mult: 0
  }
  convolution_param {
    num_output: 32
    kernel_size: 1
    weight_filler {
      type: "xavier"
      std: 0.1
    }
    bias_filler {
      type: "constant"
      value: 0.2
    }
  }
}
layer {
  name: "inception_3a/relu_pool_proj"
  type: "ReLU"
  bottom: "inception_3a/pool_proj"
  top: "inception_3a/pool_proj"
}
layer {
  name: "inception_3a/output"
  type: "Concat"
  bottom: "inception_3a/1x1"
  bottom: "inception_3a/3x3"
  bottom: "inception_3a/5x5"
  bottom: "inception_3a/pool_proj"
  top: "inception_3a/output"
}
layer {
  name: "inception_3b/1x1"
  type: "Convolution"
  bottom: "inception_3a/output"
  top: "inception_3b/1x1"
  param {
    lr_mult: 1
    decay_mult: 1
  }
  param {
    lr_mult: 2
    decay_mult: 0
  }
  convolution_param {
    num_output: 128
    kernel_size: 1
    weight_filler {
      type: "xavier"
      std: 0.03
    }
    bias_filler {
      type: "constant"
      value: 0.2
    }
  }
}
layer {
  name: "inception_3b/relu_1x1"
  type: "ReLU"
  bottom: "inception_3b/1x1"
  top: "inception_3b/1x1"
}
layer {
  name: "inception_3b/3x3_reduce"
  type: "Convolution"
  bottom: "inception_3a/output"
  top: "inception_3b/3x3_reduce"
  param {
    lr_mult: 1
    decay_mult: 1
  }
  param {
    lr_mult: 2
    decay_mult: 0
  }
  convolution_param {
    num_output: 128
    kernel_size: 1
    weight_filler {
      type: "xavier"
      std: 0.09
    }
    bias_filler {
      type: "constant"
      value: 0.2
    }
  }
}
layer {
  name: "inception_3b/relu_3x3_reduce"
  type: "ReLU"
  bottom: "inception_3b/3x3_reduce"
  top: "inception_3b/3x3_reduce"
}
layer {
  name: "inception_3b/3x3"
  type: "Convolution"
  bottom: "inception_3b/3x3_reduce"
  top: "inception_3b/3x3"
  param {
    lr_mult: 1
    decay_mult: 1
  }
  param {
    lr_mult: 2
    decay_mult: 0
  }
  convolution_param {
    num_output: 192
    pad: 1
    kernel_size: 3
    weight_filler {
      type: "xavier"
      std: 0.03
    }
    bias_filler {
      type: "constant"
      value: 0.2
    }
  }
}
layer {
  name: "inception_3b/relu_3x3"
  type: "ReLU"
  bottom: "inception_3b/3x3"
  top: "inception_3b/3x3"
}
layer {
  name: "inception_3b/5x5_reduce"
  type: "Convolution"
  bottom: "inception_3a/output"
  top: "inception_3b/5x5_reduce"
  param {
    lr_mult: 1
    decay_mult: 1
  }
  param {
    lr_mult: 2
    decay_mult: 0
  }
  convolution_param {
    num_output: 32
    kernel_size: 1
    weight_filler {
      type: "xavier"
      std: 0.2
    }
    bias_filler {
      type: "constant"
      value: 0.2
    }
  }
}
layer {
  name: "inception_3b/relu_5x5_reduce"
  type: "ReLU"
  bottom: "inception_3b/5x5_reduce"
  top: "inception_3b/5x5_reduce"
}
layer {
  name: "inception_3b/5x5"
  type: "Convolution"
  bottom: "inception_3b/5x5_reduce"
  top: "inception_3b/5x5"
  param {
    lr_mult: 1
    decay_mult: 1
  }
  param {
    lr_mult: 2
    decay_mult: 0
  }
  convolution_param {
    num_output: 96
    pad: 2
    kernel_size: 5
    weight_filler {
      type: "xavier"
      std: 0.03
    }
    bias_filler {
      type: "constant"
      value: 0.2
    }
  }
}
layer {
  name: "inception_3b/relu_5x5"
  type: "ReLU"
  bottom: "inception_3b/5x5"
  top: "inception_3b/5x5"
}
layer {
  name: "inception_3b/pool"
  type: "Pooling"
  bottom: "inception_3a/output"
  top: "inception_3b/pool"
  pooling_param {
    pool: MAX
    kernel_size: 3
    stride: 1
    pad: 1
  }
}
layer {
  name: "inception_3b/pool_proj"
  type: "Convolution"
  bottom: "inception_3b/pool"
  top: "inception_3b/pool_proj"
  param {
    lr_mult: 1
    decay_mult: 1
  }
  param {
    lr_mult: 2
    decay_mult: 0
  }
  convolution_param {
    num_output: 64
    kernel_size: 1
    weight_filler {
      type: "xavier"
      std: 0.1
    }
    bias_filler {
      type: "constant"
      value: 0.2
    }
  }
}
layer {
  name: "inception_3b/relu_pool_proj"
  type: "ReLU"
  bottom: "inception_3b/pool_proj"
  top: "inception_3b/pool_proj"
}
layer {
  name: "inception_3b/output"
  type: "Concat"
  bottom: "inception_3b/1x1"
  bottom: "inception_3b/3x3"
  bottom: "inception_3b/5x5"
  bottom: "inception_3b/pool_proj"
  top: "inception_3b/output"
}
layer {
  name: "pool3/3x3_s2"
  type: "Pooling"
  bottom: "inception_3b/output"
  top: "pool3/3x3_s2"
  pooling_param {
    pool: MAX
    kernel_size: 3
    stride: 2
  }
}
layer {
  name: "inception_4a/1x1"
  type: "Convolution"
  bottom: "pool3/3x3_s2"
  top: "inception_4a/1x1"
  param {
    lr_mult: 1
    decay_mult: 1
  }
  param {
    lr_mult: 2
    decay_mult: 0
  }
  convolution_param {
    num_output: 192
    kernel_size: 1
    weight_filler {
      type: "xavier"
      std: 0.03
    }
    bias_filler {
      type: "constant"
      value: 0.2
    }
  }
}
layer {
  name: "inception_4a/relu_1x1"
  type: "ReLU"
  bottom: "inception_4a/1x1"
  top: "inception_4a/1x1"
}
layer {
  name: "inception_4a/3x3_reduce"
  type: "Convolution"
  bottom: "pool3/3x3_s2"
  top: "inception_4a/3x3_reduce"
  param {
    lr_mult: 1
    decay_mult: 1
  }
  param {
    lr_mult: 2
    decay_mult: 0
  }
  convolution_param {
    num_output: 96
    kernel_size: 1
    weight_filler {
      type: "xavier"
      std: 0.09
    }
    bias_filler {
      type: "constant"
      value: 0.2
    }
  }
}
layer {
  name: "inception_4a/relu_3x3_reduce"
  type: "ReLU"
  bottom: "inception_4a/3x3_reduce"
  top: "inception_4a/3x3_reduce"
}
layer {
  name: "inception_4a/3x3"
  type: "Convolution"
  bottom: "inception_4a/3x3_reduce"
  top: "inception_4a/3x3"
  param {
    lr_mult: 1
    decay_mult: 1
  }
  param {
    lr_mult: 2
    decay_mult: 0
  }
  convolution_param {
    num_output: 208
    pad: 1
    kernel_size: 3
    weight_filler {
      type: "xavier"
      std: 0.03
    }
    bias_filler {
      type: "constant"
      value: 0.2
    }
  }
}
layer {
  name: "inception_4a/relu_3x3"
  type: "ReLU"
  bottom: "inception_4a/3x3"
  top: "inception_4a/3x3"
}
layer {
  name: "inception_4a/5x5_reduce"
  type: "Convolution"
  bottom: "pool3/3x3_s2"
  top: "inception_4a/5x5_reduce"
  param {
    lr_mult: 1
    decay_mult: 1
  }
  param {
    lr_mult: 2
    decay_mult: 0
  }
  convolution_param {
    num_output: 16
    kernel_size: 1
    weight_filler {
      type: "xavier"
      std: 0.2
    }
    bias_filler {
      type: "constant"
      value: 0.2
    }
  }
}
layer {
  name: "inception_4a/relu_5x5_reduce"
  type: "ReLU"
  bottom: "inception_4a/5x5_reduce"
  top: "inception_4a/5x5_reduce"
}
layer {
  name: "inception_4a/5x5"
  type: "Convolution"
  bottom: "inception_4a/5x5_reduce"
  top: "inception_4a/5x5"
  param {
    lr_mult: 1
    decay_mult: 1
  }
  param {
    lr_mult: 2
    decay_mult: 0
  }
  convolution_param {
    num_output: 48
    pad: 2
    kernel_size: 5
    weight_filler {
      type: "xavier"
      std: 0.03
    }
    bias_filler {
      type: "constant"
      value: 0.2
    }
  }
}
layer {
  name: "inception_4a/relu_5x5"
  type: "ReLU"
  bottom: "inception_4a/5x5"
  top: "inception_4a/5x5"
}
layer {
  name: "inception_4a/pool"
  type: "Pooling"
  bottom: "pool3/3x3_s2"
  top: "inception_4a/pool"
  pooling_param {
    pool: MAX
    kernel_size: 3
    stride: 1
    pad: 1
  }
}
layer {
  name: "inception_4a/pool_proj"
  type: "Convolution"
  bottom: "inception_4a/pool"
  top: "inception_4a/pool_proj"
  param {
    lr_mult: 1
    decay_mult: 1
  }
  param {
    lr_mult: 2
    decay_mult: 0
  }
  convolution_param {
    num_output: 64
    kernel_size: 1
    weight_filler {
      type: "xavier"
      std: 0.1
    }
    bias_filler {
      type: "constant"
      value: 0.2
    }
  }
}
layer {
  name: "inception_4a/relu_pool_proj"
  type: "ReLU"
  bottom: "inception_4a/pool_proj"
  top: "inception_4a/pool_proj"
}
layer {
  name: "inception_4a/output"
  type: "Concat"
  bottom: "inception_4a/1x1"
  bottom: "inception_4a/3x3"
  bottom: "inception_4a/5x5"
  bottom: "inception_4a/pool_proj"
  top: "inception_4a/output"
}
layer {
  name: "loss1/ave_pool"
  type: "Pooling"
  bottom: "inception_4a/output"
  top: "loss1/ave_pool"
  pooling_param {
    pool: AVE
    kernel_size: 5
    stride: 3
  }
}
layer {
  name: "loss1/conv"
  type: "Convolution"
  bottom: "loss1/ave_pool"
  top: "loss1/conv"
  param {
    lr_mult: 1
    decay_mult: 1
  }
  param {
    lr_mult: 2
    decay_mult: 0
  }
  convolution_param {
    num_output: 128
    kernel_size: 1
    weight_filler {
      type: "xavier"
      std: 0.08
    }
    bias_filler {
      type: "constant"
      value: 0.2
    }
  }
}
layer {
  name: "loss1/relu_conv"
  type: "ReLU"
  bottom: "loss1/conv"
  top: "loss1/conv"
}
layer {
  name: "loss1/fc"
  type: "InnerProduct"
  bottom: "loss1/conv"
  top: "loss1/fc"
  param {
    lr_mult: 1
    decay_mult: 1
  }
  param {
    lr_mult: 2
    decay_mult: 0
  }
  inner_product_param {
    num_output: 1024
    weight_filler {
      type: "xavier"
      std: 0.02
    }
    bias_filler {
      type: "constant"
      value: 0.2
    }
  }
}
layer {
  name: "loss1/relu_fc"
  type: "ReLU"
  bottom: "loss1/fc"
  top: "loss1/fc"
}
layer {
  name: "loss1/drop_fc"
  type: "Dropout"
  bottom: "loss1/fc"
  top: "loss1/fc"
  dropout_param {
    dropout_ratio: 0.7
  }
}
layer {
  name: "loss1/classifier_plantvillage"
  type: "InnerProduct"
  bottom: "loss1/fc"
  top: "loss1/classifier_plantvillage"
  param {
    lr_mult: 1
    decay_mult: 1
  }
  param {
    lr_mult: 2
    decay_mult: 0
  }
  inner_product_param {
    num_output: 38
    weight_filler {
      type: "xavier"
      std: 0.0009765625
    }
    bias_filler {
      type: "constant"
      value: 0
    }
  }
}
layer {
  name: "inception_4b/1x1"
  type: "Convolution"
  bottom: "inception_4a/output"
  top: "inception_4b/1x1"
  param {
    lr_mult: 1
    decay_mult: 1
  }
  param {
    lr_mult: 2
    decay_mult: 0
  }
  convolution_param {
    num_output: 160
    kernel_size: 1
    weight_filler {
      type: "xavier"
      std: 0.03
    }
    bias_filler {
      type: "constant"
      value: 0.2
    }
  }
}
layer {
  name: "inception_4b/relu_1x1"
  type: "ReLU"
  bottom: "inception_4b/1x1"
  top: "inception_4b/1x1"
}
layer {
  name: "inception_4b/3x3_reduce"
  type: "Convolution"
  bottom: "inception_4a/output"
  top: "inception_4b/3x3_reduce"
  param {
    lr_mult: 1
    decay_mult: 1
  }
  param {
    lr_mult: 2
    decay_mult: 0
  }
  convolution_param {
    num_output: 112
    kernel_size: 1
    weight_filler {
      type: "xavier"
      std: 0.09
    }
    bias_filler {
      type: "constant"
      value: 0.2
    }
  }
}
layer {
  name: "inception_4b/relu_3x3_reduce"
  type: "ReLU"
  bottom: "inception_4b/3x3_reduce"
  top: "inception_4b/3x3_reduce"
}
layer {
  name: "inception_4b/3x3"
  type: "Convolution"
  bottom: "inception_4b/3x3_reduce"
  top: "inception_4b/3x3"
  param {
    lr_mult: 1
    decay_mult: 1
  }
  param {
    lr_mult: 2
    decay_mult: 0
  }
  convolution_param {
    num_output: 224
    pad: 1
    kernel_size: 3
    weight_filler {
      type: "xavier"
      std: 0.03
    }
    bias_filler {
      type: "constant"
      value: 0.2
    }
  }
}
layer {
  name: "inception_4b/relu_3x3"
  type: "ReLU"
  bottom: "inception_4b/3x3"
  top: "inception_4b/3x3"
}
layer {
  name: "inception_4b/5x5_reduce"
  type: "Convolution"
  bottom: "inception_4a/output"
  top: "inception_4b/5x5_reduce"
  param {
    lr_mult: 1
    decay_mult: 1
  }
  param {
    lr_mult: 2
    decay_mult: 0
  }
  convolution_param {
    num_output: 24
    kernel_size: 1
    weight_filler {
      type: "xavier"
      std: 0.2
    }
    bias_filler {
      type: "constant"
      value: 0.2
    }
  }
}
layer {
  name: "inception_4b/relu_5x5_reduce"
  type: "ReLU"
  bottom: "inception_4b/5x5_reduce"
  top: "inception_4b/5x5_reduce"
}
layer {
  name: "inception_4b/5x5"
  type: "Convolution"
  bottom: "inception_4b/5x5_reduce"
  top: "inception_4b/5x5"
  param {
    lr_mult: 1
    decay_mult: 1
  }
  param {
    lr_mult: 2
    decay_mult: 0
  }
  convolution_param {
    num_output: 64
    pad: 2
    kernel_size: 5
    weight_filler {
      type: "xavier"
      std: 0.03
    }
    bias_filler {
      type: "constant"
      value: 0.2
    }
  }
}
layer {
  name: "inception_4b/relu_5x5"
  type: "ReLU"
  bottom: "inception_4b/5x5"
  top: "inception_4b/5x5"
}
layer {
  name: "inception_4b/pool"
  type: "Pooling"
  bottom: "inception_4a/output"
  top: "inception_4b/pool"
  pooling_param {
    pool: MAX
    kernel_size: 3
    stride: 1
    pad: 1
  }
}
layer {
  name: "inception_4b/pool_proj"
  type: "Convolution"
  bottom: "inception_4b/pool"
  top: "inception_4b/pool_proj"
  param {
    lr_mult: 1
    decay_mult: 1
  }
  param {
    lr_mult: 2
    decay_mult: 0
  }
  convolution_param {
    num_output: 64
    kernel_size: 1
    weight_filler {
      type: "xavier"
      std: 0.1
    }
    bias_filler {
      type: "constant"
      value: 0.2
    }
  }
}
layer {
  name: "inception_4b/relu_pool_proj"
  type: "ReLU"
  bottom: "inception_4b/pool_proj"
  top: "inception_4b/pool_proj"
}
layer {
  name: "inception_4b/output"
  type: "Concat"
  bottom: "inception_4b/1x1"
  bottom: "inception_4b/3x3"
  bottom: "inception_4b/5x5"
  bottom: "inception_4b/pool_proj"
  top: "inception_4b/output"
}
layer {
  name: "inception_4c/1x1"
  type: "Convolution"
  bottom: "inception_4b/output"
  top: "inception_4c/1x1"
  param {
    lr_mult: 1
    decay_mult: 1
  }
  param {
    lr_mult: 2
    decay_mult: 0
  }
  convolution_param {
    num_output: 128
    kernel_size: 1
    weight_filler {
      type: "xavier"
      std: 0.03
    }
    bias_filler {
      type: "constant"
      value: 0.2
    }
  }
}
layer {
  name: "inception_4c/relu_1x1"
  type: "ReLU"
  bottom: "inception_4c/1x1"
  top: "inception_4c/1x1"
}
layer {
  name: "inception_4c/3x3_reduce"
  type: "Convolution"
  bottom: "inception_4b/output"
  top: "inception_4c/3x3_reduce"
  param {
    lr_mult: 1
    decay_mult: 1
  }
  param {
    lr_mult: 2
    decay_mult: 0
  }
  convolution_param {
    num_output: 128
    kernel_size: 1
    weight_filler {
      type: "xavier"
      std: 0.09
    }
    bias_filler {
      type: "constant"
      value: 0.2
    }
  }
}
layer {
  name: "inception_4c/relu_3x3_reduce"
  type: "ReLU"
  bottom: "inception_4c/3x3_reduce"
  top: "inception_4c/3x3_reduce"
}
layer {
  name: "inception_4c/3x3"
  type: "Convolution"
  bottom: "inception_4c/3x3_reduce"
  top: "inception_4c/3x3"
  param {
    lr_mult: 1
    decay_mult: 1
  }
  param {
    lr_mult: 2
    decay_mult: 0
  }
  convolution_param {
    num_output: 256
    pad: 1
    kernel_size: 3
    weight_filler {
      type: "xavier"
      std: 0.03
    }
    bias_filler {
      type: "constant"
      value: 0.2
    }
  }
}
layer {
  name: "inception_4c/relu_3x3"
  type: "ReLU"
  bottom: "inception_4c/3x3"
  top: "inception_4c/3x3"
}
layer {
  name: "inception_4c/5x5_reduce"
  type: "Convolution"
  bottom: "inception_4b/output"
  top: "inception_4c/5x5_reduce"
  param {
    lr_mult: 1
    decay_mult: 1
  }
  param {
    lr_mult: 2
    decay_mult: 0
  }
  convolution_param {
    num_output: 24
    kernel_size: 1
    weight_filler {
      type: "xavier"
      std: 0.2
    }
    bias_filler {
      type: "constant"
      value: 0.2
    }
  }
}
layer {
  name: "inception_4c/relu_5x5_reduce"
  type: "ReLU"
  bottom: "inception_4c/5x5_reduce"
  top: "inception_4c/5x5_reduce"
}
layer {
  name: "inception_4c/5x5"
  type: "Convolution"
  bottom: "inception_4c/5x5_reduce"
  top: "inception_4c/5x5"
  param {
    lr_mult: 1
    decay_mult: 1
  }
  param {
    lr_mult: 2
    decay_mult: 0
  }
  convolution_param {
    num_output: 64
    pad: 2
    kernel_size: 5
    weight_filler {
      type: "xavier"
      std: 0.03
    }
    bias_filler {
      type: "constant"
      value: 0.2
    }
  }
}
layer {
  name: "inception_4c/relu_5x5"
  type: "ReLU"
  bottom: "inception_4c/5x5"
  top: "inception_4c/5x5"
}
layer {
  name: "inception_4c/pool"
  type: "Pooling"
  bottom: "inception_4b/output"
  top: "inception_4c/pool"
  pooling_param {
    pool: MAX
    kernel_size: 3
    stride: 1
    pad: 1
  }
}
layer {
  name: "inception_4c/pool_proj"
  type: "Convolution"
  bottom: "inception_4c/pool"
  top: "inception_4c/pool_proj"
  param {
    lr_mult: 1
    decay_mult: 1
  }
  param {
    lr_mult: 2
    decay_mult: 0
  }
  convolution_param {
    num_output: 64
    kernel_size: 1
    weight_filler {
      type: "xavier"
      std: 0.1
    }
    bias_filler {
      type: "constant"
      value: 0.2
    }
  }
}
layer {
  name: "inception_4c/relu_pool_proj"
  type: "ReLU"
  bottom: "inception_4c/pool_proj"
  top: "inception_4c/pool_proj"
}
layer {
  name: "inception_4c/output"
  type: "Concat"
  bottom: "inception_4c/1x1"
  bottom: "inception_4c/3x3"
  bottom: "inception_4c/5x5"
  bottom: "inception_4c/pool_proj"
  top: "inception_4c/output"
}
layer {
  name: "inception_4d/1x1"
  type: "Convolution"
  bottom: "inception_4c/output"
  top: "inception_4d/1x1"
  param {
    lr_mult: 1
    decay_mult: 1
  }
  param {
    lr_mult: 2
    decay_mult: 0
  }
  convolution_param {
    num_output: 112
    kernel_size: 1
    weight_filler {
      type: "xavier"
      std: 0.03
    }
    bias_filler {
      type: "constant"
      value: 0.2
    }
  }
}
layer {
  name: "inception_4d/relu_1x1"
  type: "ReLU"
  bottom: "inception_4d/1x1"
  top: "inception_4d/1x1"
}
layer {
  name: "inception_4d/3x3_reduce"
  type: "Convolution"
  bottom: "inception_4c/output"
  top: "inception_4d/3x3_reduce"
  param {
    lr_mult: 1
    decay_mult: 1
  }
  param {
    lr_mult: 2
    decay_mult: 0
  }
  convolution_param {
    num_output: 144
    kernel_size: 1
    weight_filler {
      type: "xavier"
      std: 0.09
    }
    bias_filler {
      type: "constant"
      value: 0.2
    }
  }
}
layer {
  name: "inception_4d/relu_3x3_reduce"
  type: "ReLU"
  bottom: "inception_4d/3x3_reduce"
  top: "inception_4d/3x3_reduce"
}
layer {
  name: "inception_4d/3x3"
  type: "Convolution"
  bottom: "inception_4d/3x3_reduce"
  top: "inception_4d/3x3"
  param {
    lr_mult: 1
    decay_mult: 1
  }
  param {
    lr_mult: 2
    decay_mult: 0
  }
  convolution_param {
    num_output: 288
    pad: 1
    kernel_size: 3
    weight_filler {
      type: "xavier"
      std: 0.03
    }
    bias_filler {
      type: "constant"
      value: 0.2
    }
  }
}
layer {
  name: "inception_4d/relu_3x3"
  type: "ReLU"
  bottom: "inception_4d/3x3"
  top: "inception_4d/3x3"
}
layer {
  name: "inception_4d/5x5_reduce"
  type: "Convolution"
  bottom: "inception_4c/output"
  top: "inception_4d/5x5_reduce"
  param {
    lr_mult: 1
    decay_mult: 1
  }
  param {
    lr_mult: 2
    decay_mult: 0
  }
  convolution_param {
    num_output: 32
    kernel_size: 1
    weight_filler {
      type: "xavier"
      std: 0.2
    }
    bias_filler {
      type: "constant"
      value: 0.2
    }
  }
}
layer {
  name: "inception_4d/relu_5x5_reduce"
  type: "ReLU"
  bottom: "inception_4d/5x5_reduce"
  top: "inception_4d/5x5_reduce"
}
layer {
  name: "inception_4d/5x5"
  type: "Convolution"
  bottom: "inception_4d/5x5_reduce"
  top: "inception_4d/5x5"
  param {
    lr_mult: 1
    decay_mult: 1
  }
  param {
    lr_mult: 2
    decay_mult: 0
  }
  convolution_param {
    num_output: 64
    pad: 2
    kernel_size: 5
    weight_filler {
      type: "xavier"
      std: 0.03
    }
    bias_filler {
      type: "constant"
      value: 0.2
    }
  }
}
layer {
  name: "inception_4d/relu_5x5"
  type: "ReLU"
  bottom: "inception_4d/5x5"
  top: "inception_4d/5x5"
}
layer {
  name: "inception_4d/pool"
  type: "Pooling"
  bottom: "inception_4c/output"
  top: "inception_4d/pool"
  pooling_param {
    pool: MAX
    kernel_size: 3
    stride: 1
    pad: 1
  }
}
layer {
  name: "inception_4d/pool_proj"
  type: "Convolution"
  bottom: "inception_4d/pool"
  top: "inception_4d/pool_proj"
  param {
    lr_mult: 1
    decay_mult: 1
  }
  param {
    lr_mult: 2
    decay_mult: 0
  }
  convolution_param {
    num_output: 64
    kernel_size: 1
    weight_filler {
      type: "xavier"
      std: 0.1
    }
    bias_filler {
      type: "constant"
      value: 0.2
    }
  }
}
layer {
  name: "inception_4d/relu_pool_proj"
  type: "ReLU"
  bottom: "inception_4d/pool_proj"
  top: "inception_4d/pool_proj"
}
layer {
  name: "inception_4d/output"
  type: "Concat"
  bottom: "inception_4d/1x1"
  bottom: "inception_4d/3x3"
  bottom: "inception_4d/5x5"
  bottom: "inception_4d/pool_proj"
  top: "inception_4d/output"
}
layer {
  name: "loss2/ave_pool"
  type: "Pooling"
  bottom: "inception_4d/output"
  top: "loss2/ave_pool"
  pooling_param {
    pool: AVE
    kernel_size: 5
    stride: 3
  }
}
layer {
  name: "loss2/conv"
  type: "Convolution"
  bottom: "loss2/ave_pool"
  top: "loss2/conv"
  param {
    lr_mult: 1
    decay_mult: 1
  }
  param {
    lr_mult: 2
    decay_mult: 0
  }
  convolution_param {
    num_output: 128
    kernel_size: 1
    weight_filler {
      type: "xavier"
      std: 0.08
    }
    bias_filler {
      type: "constant"
      value: 0.2
    }
  }
}
layer {
  name: "loss2/relu_conv"
  type: "ReLU"
  bottom: "loss2/conv"
  top: "loss2/conv"
}
layer {
  name: "loss2/fc"
  type: "InnerProduct"
  bottom: "loss2/conv"
  top: "loss2/fc"
  param {
    lr_mult: 1
    decay_mult: 1
  }
  param {
    lr_mult: 2
    decay_mult: 0
  }
  inner_product_param {
    num_output: 1024
    weight_filler {
      type: "xavier"
      std: 0.02
    }
    bias_filler {
      type: "constant"
      value: 0.2
    }
  }
}
layer {
  name: "loss2/relu_fc"
  type: "ReLU"
  bottom: "loss2/fc"
  top: "loss2/fc"
}
layer {
  name: "loss2/drop_fc"
  type: "Dropout"
  bottom: "loss2/fc"
  top: "loss2/fc"
  dropout_param {
    dropout_ratio: 0.7
  }
}
layer {
  name: "loss2/classifier_plantvillage"
  type: "InnerProduct"
  bottom: "loss2/fc"
  top: "loss2/classifier_plantvillage"
  param {
    lr_mult: 1
    decay_mult: 1
  }
  param {
    lr_mult: 2
    decay_mult: 0
  }
  inner_product_param {
    num_output: 38
    weight_filler {
      type: "xavier"
      std: 0.0009765625
    }
    bias_filler {
      type: "constant"
      value: 0
    }
  }
}
layer {
  name: "inception_4e/1x1"
  type: "Convolution"
  bottom: "inception_4d/output"
  top: "inception_4e/1x1"
  param {
    lr_mult: 1
    decay_mult: 1
  }
  param {
    lr_mult: 2
    decay_mult: 0
  }
  convolution_param {
    num_output: 256
    kernel_size: 1
    weight_filler {
      type: "xavier"
      std: 0.03
    }
    bias_filler {
      type: "constant"
      value: 0.2
    }
  }
}
layer {
  name: "inception_4e/relu_1x1"
  type: "ReLU"
  bottom: "inception_4e/1x1"
  top: "inception_4e/1x1"
}
layer {
  name: "inception_4e/3x3_reduce"
  type: "Convolution"
  bottom: "inception_4d/output"
  top: "inception_4e/3x3_reduce"
  param {
    lr_mult: 1
    decay_mult: 1
  }
  param {
    lr_mult: 2
    decay_mult: 0
  }
  convolution_param {
    num_output: 160
    kernel_size: 1
    weight_filler {
      type: "xavier"
      std: 0.09
    }
    bias_filler {
      type: "constant"
      value: 0.2
    }
  }
}
layer {
  name: "inception_4e/relu_3x3_reduce"
  type: "ReLU"
  bottom: "inception_4e/3x3_reduce"
  top: "inception_4e/3x3_reduce"
}
layer {
  name: "inception_4e/3x3"
  type: "Convolution"
  bottom: "inception_4e/3x3_reduce"
  top: "inception_4e/3x3"
  param {
    lr_mult: 1
    decay_mult: 1
  }
  param {
    lr_mult: 2
    decay_mult: 0
  }
  convolution_param {
    num_output: 320
    pad: 1
    kernel_size: 3
    weight_filler {
      type: "xavier"
      std: 0.03
    }
    bias_filler {
      type: "constant"
      value: 0.2
    }
  }
}
layer {
  name: "inception_4e/relu_3x3"
  type: "ReLU"
  bottom: "inception_4e/3x3"
  top: "inception_4e/3x3"
}
layer {
  name: "inception_4e/5x5_reduce"
  type: "Convolution"
  bottom: "inception_4d/output"
  top: "inception_4e/5x5_reduce"
  param {
    lr_mult: 1
    decay_mult: 1
  }
  param {
    lr_mult: 2
    decay_mult: 0
  }
  convolution_param {
    num_output: 32
    kernel_size: 1
    weight_filler {
      type: "xavier"
      std: 0.2
    }
    bias_filler {
      type: "constant"
      value: 0.2
    }
  }
}
layer {
  name: "inception_4e/relu_5x5_reduce"
  type: "ReLU"
  bottom: "inception_4e/5x5_reduce"
  top: "inception_4e/5x5_reduce"
}
layer {
  name: "inception_4e/5x5"
  type: "Convolution"
  bottom: "inception_4e/5x5_reduce"
  top: "inception_4e/
I0403 13:40:01.346422 32676 layer_factory.hpp:77] Creating layer data
I0403 13:40:01.347035 32676 net.cpp:91] Creating Layer data
I0403 13:40:01.347071 32676 net.cpp:399] data -> data
I0403 13:40:01.347123 32676 net.cpp:399] data -> label
I0403 13:40:01.347160 32676 data_transformer.cpp:25] Loading mean file from: /home/mohanty/data/final_dataset/lmdb/grayscale-20-80/mean.binaryproto
I0403 13:40:01.349807 32679 db_lmdb.cpp:38] Opened lmdb /home/mohanty/data/final_dataset/lmdb/grayscale-20-80/test_db
I0403 13:40:01.360441 32676 data_layer.cpp:41] output data size: 24,3,224,224
I0403 13:40:01.387495 32676 net.cpp:141] Setting up data
I0403 13:40:01.387598 32676 net.cpp:148] Top shape: 24 3 224 224 (3612672)
I0403 13:40:01.387621 32676 net.cpp:148] Top shape: 24 (24)
I0403 13:40:01.387636 32676 net.cpp:156] Memory required for data: 14450784
I0403 13:40:01.387663 32676 layer_factory.hpp:77] Creating layer label_data_1_split
I0403 13:40:01.387689 32676 net.cpp:91] Creating Layer label_data_1_split
I0403 13:40:01.387707 32676 net.cpp:425] label_data_1_split <- label
I0403 13:40:01.387738 32676 net.cpp:399] label_data_1_split -> label_data_1_split_0
I0403 13:40:01.387766 32676 net.cpp:399] label_data_1_split -> label_data_1_split_1
I0403 13:40:01.387787 32676 net.cpp:399] label_data_1_split -> label_data_1_split_2
I0403 13:40:01.387809 32676 net.cpp:399] label_data_1_split -> label_data_1_split_3
I0403 13:40:01.387828 32676 net.cpp:399] label_data_1_split -> label_data_1_split_4
I0403 13:40:01.387848 32676 net.cpp:399] label_data_1_split -> label_data_1_split_5
I0403 13:40:01.387867 32676 net.cpp:399] label_data_1_split -> label_data_1_split_6
I0403 13:40:01.387889 32676 net.cpp:399] label_data_1_split -> label_data_1_split_7
I0403 13:40:01.387922 32676 net.cpp:399] label_data_1_split -> label_data_1_split_8
I0403 13:40:01.387943 32676 net.cpp:399] label_data_1_split -> label_data_1_split_9
I0403 13:40:01.388067 32676 net.cpp:141] Setting up label_data_1_split
I0403 13:40:01.388092 32676 net.cpp:148] Top shape: 24 (24)
I0403 13:40:01.388109 32676 net.cpp:148] Top shape: 24 (24)
I0403 13:40:01.388125 32676 net.cpp:148] Top shape: 24 (24)
I0403 13:40:01.388142 32676 net.cpp:148] Top shape: 24 (24)
I0403 13:40:01.388159 32676 net.cpp:148] Top shape: 24 (24)
I0403 13:40:01.388175 32676 net.cpp:148] Top shape: 24 (24)
I0403 13:40:01.388191 32676 net.cpp:148] Top shape: 24 (24)
I0403 13:40:01.388207 32676 net.cpp:148] Top shape: 24 (24)
I0403 13:40:01.388228 32676 net.cpp:148] Top shape: 24 (24)
I0403 13:40:01.388257 32676 net.cpp:148] Top shape: 24 (24)
I0403 13:40:01.388303 32676 net.cpp:156] Memory required for data: 14451744
I0403 13:40:01.388319 32676 layer_factory.hpp:77] Creating layer conv1/7x7_s2
I0403 13:40:01.388351 32676 net.cpp:91] Creating Layer conv1/7x7_s2
I0403 13:40:01.388370 32676 net.cpp:425] conv1/7x7_s2 <- data
I0403 13:40:01.388389 32676 net.cpp:399] conv1/7x7_s2 -> conv1/7x7_s2
I0403 13:40:01.528879 32676 net.cpp:141] Setting up conv1/7x7_s2
I0403 13:40:01.528954 32676 net.cpp:148] Top shape: 24 64 112 112 (19267584)
I0403 13:40:01.528973 32676 net.cpp:156] Memory required for data: 91522080
I0403 13:40:01.529006 32676 layer_factory.hpp:77] Creating layer conv1/relu_7x7
I0403 13:40:01.529033 32676 net.cpp:91] Creating Layer conv1/relu_7x7
I0403 13:40:01.529052 32676 net.cpp:425] conv1/relu_7x7 <- conv1/7x7_s2
I0403 13:40:01.529083 32676 net.cpp:386] conv1/relu_7x7 -> conv1/7x7_s2 (in-place)
I0403 13:40:01.529350 32676 net.cpp:141] Setting up conv1/relu_7x7
I0403 13:40:01.529378 32676 net.cpp:148] Top shape: 24 64 112 112 (19267584)
I0403 13:40:01.529393 32676 net.cpp:156] Memory required for data: 168592416
I0403 13:40:01.529408 32676 layer_factory.hpp:77] Creating layer pool1/3x3_s2
I0403 13:40:01.529434 32676 net.cpp:91] Creating Layer pool1/3x3_s2
I0403 13:40:01.529451 32676 net.cpp:425] pool1/3x3_s2 <- conv1/7x7_s2
I0403 13:40:01.529472 32676 net.cpp:399] pool1/3x3_s2 -> pool1/3x3_s2
I0403 13:40:01.529546 32676 net.cpp:141] Setting up pool1/3x3_s2
I0403 13:40:01.529570 32676 net.cpp:148] Top shape: 24 64 56 56 (4816896)
I0403 13:40:01.529587 32676 net.cpp:156] Memory required for data: 187860000
I0403 13:40:01.529602 32676 layer_factory.hpp:77] Creating layer pool1/norm1
I0403 13:40:01.529625 32676 net.cpp:91] Creating Layer pool1/norm1
I0403 13:40:01.529644 32676 net.cpp:425] pool1/norm1 <- pool1/3x3_s2
I0403 13:40:01.529662 32676 net.cpp:399] pool1/norm1 -> pool1/norm1
I0403 13:40:01.529950 32676 net.cpp:141] Setting up pool1/norm1
I0403 13:40:01.529978 32676 net.cpp:148] Top shape: 24 64 56 56 (4816896)
I0403 13:40:01.529994 32676 net.cpp:156] Memory required for data: 207127584
I0403 13:40:01.530009 32676 layer_factory.hpp:77] Creating layer conv2/3x3_reduce
I0403 13:40:01.530035 32676 net.cpp:91] Creating Layer conv2/3x3_reduce
I0403 13:40:01.530051 32676 net.cpp:425] conv2/3x3_reduce <- pool1/norm1
I0403 13:40:01.530071 32676 net.cpp:399] conv2/3x3_reduce -> conv2/3x3_reduce
I0403 13:40:01.531461 32676 net.cpp:141] Setting up conv2/3x3_reduce
I0403 13:40:01.531491 32676 net.cpp:148] Top shape: 24 64 56 56 (4816896)
I0403 13:40:01.531507 32676 net.cpp:156] Memory required for data: 226395168
I0403 13:40:01.531529 32676 layer_factory.hpp:77] Creating layer conv2/relu_3x3_reduce
I0403 13:40:01.531549 32676 net.cpp:91] Creating Layer conv2/relu_3x3_reduce
I0403 13:40:01.531566 32676 net.cpp:425] conv2/relu_3x3_reduce <- conv2/3x3_reduce
I0403 13:40:01.531587 32676 net.cpp:386] conv2/relu_3x3_reduce -> conv2/3x3_reduce (in-place)
I0403 13:40:01.531869 32676 net.cpp:141] Setting up conv2/relu_3x3_reduce
I0403 13:40:01.531898 32676 net.cpp:148] Top shape: 24 64 56 56 (4816896)
I0403 13:40:01.531913 32676 net.cpp:156] Memory required for data: 245662752
I0403 13:40:01.531929 32676 layer_factory.hpp:77] Creating layer conv2/3x3
I0403 13:40:01.531957 32676 net.cpp:91] Creating Layer conv2/3x3
I0403 13:40:01.531976 32676 net.cpp:425] conv2/3x3 <- conv2/3x3_reduce
I0403 13:40:01.531999 32676 net.cpp:399] conv2/3x3 -> conv2/3x3
I0403 13:40:01.534467 32676 net.cpp:141] Setting up conv2/3x3
I0403 13:40:01.534497 32676 net.cpp:148] Top shape: 24 192 56 56 (14450688)
I0403 13:40:01.534513 32676 net.cpp:156] Memory required for data: 303465504
I0403 13:40:01.534534 32676 layer_factory.hpp:77] Creating layer conv2/relu_3x3
I0403 13:40:01.534553 32676 net.cpp:91] Creating Layer conv2/relu_3x3
I0403 13:40:01.534569 32676 net.cpp:425] conv2/relu_3x3 <- conv2/3x3
I0403 13:40:01.534587 32676 net.cpp:386] conv2/relu_3x3 -> conv2/3x3 (in-place)
I0403 13:40:01.534760 32676 net.cpp:141] Setting up conv2/relu_3x3
I0403 13:40:01.534787 32676 net.cpp:148] Top shape: 24 192 56 56 (14450688)
I0403 13:40:01.534832 32676 net.cpp:156] Memory required for data: 361268256
I0403 13:40:01.534847 32676 layer_factory.hpp:77] Creating layer conv2/norm2
I0403 13:40:01.534867 32676 net.cpp:91] Creating Layer conv2/norm2
I0403 13:40:01.534881 32676 net.cpp:425] conv2/norm2 <- conv2/3x3
I0403 13:40:01.534901 32676 net.cpp:399] conv2/norm2 -> conv2/norm2
I0403 13:40:01.535207 32676 net.cpp:141] Setting up conv2/norm2
I0403 13:40:01.535248 32676 net.cpp:148] Top shape: 24 192 56 56 (14450688)
I0403 13:40:01.535264 32676 net.cpp:156] Memory required for data: 419071008
I0403 13:40:01.535279 32676 layer_factory.hpp:77] Creating layer pool2/3x3_s2
I0403 13:40:01.535296 32676 net.cpp:91] Creating Layer pool2/3x3_s2
I0403 13:40:01.535313 32676 net.cpp:425] pool2/3x3_s2 <- conv2/norm2
I0403 13:40:01.535333 32676 net.cpp:399] pool2/3x3_s2 -> pool2/3x3_s2
I0403 13:40:01.535387 32676 net.cpp:141] Setting up pool2/3x3_s2
I0403 13:40:01.535410 32676 net.cpp:148] Top shape: 24 192 28 28 (3612672)
I0403 13:40:01.535425 32676 net.cpp:156] Memory required for data: 433521696
I0403 13:40:01.535440 32676 layer_factory.hpp:77] Creating layer pool2/3x3_s2_pool2/3x3_s2_0_split
I0403 13:40:01.535460 32676 net.cpp:91] Creating Layer pool2/3x3_s2_pool2/3x3_s2_0_split
I0403 13:40:01.535477 32676 net.cpp:425] pool2/3x3_s2_pool2/3x3_s2_0_split <- pool2/3x3_s2
I0403 13:40:01.535495 32676 net.cpp:399] pool2/3x3_s2_pool2/3x3_s2_0_split -> pool2/3x3_s2_pool2/3x3_s2_0_split_0
I0403 13:40:01.535514 32676 net.cpp:399] pool2/3x3_s2_pool2/3x3_s2_0_split -> pool2/3x3_s2_pool2/3x3_s2_0_split_1
I0403 13:40:01.535538 32676 net.cpp:399] pool2/3x3_s2_pool2/3x3_s2_0_split -> pool2/3x3_s2_pool2/3x3_s2_0_split_2
I0403 13:40:01.535558 32676 net.cpp:399] pool2/3x3_s2_pool2/3x3_s2_0_split -> pool2/3x3_s2_pool2/3x3_s2_0_split_3
I0403 13:40:01.535640 32676 net.cpp:141] Setting up pool2/3x3_s2_pool2/3x3_s2_0_split
I0403 13:40:01.535661 32676 net.cpp:148] Top shape: 24 192 28 28 (3612672)
I0403 13:40:01.535678 32676 net.cpp:148] Top shape: 24 192 28 28 (3612672)
I0403 13:40:01.535693 32676 net.cpp:148] Top shape: 24 192 28 28 (3612672)
I0403 13:40:01.535709 32676 net.cpp:148] Top shape: 24 192 28 28 (3612672)
I0403 13:40:01.535722 32676 net.cpp:156] Memory required for data: 491324448
I0403 13:40:01.535735 32676 layer_factory.hpp:77] Creating layer inception_3a/1x1
I0403 13:40:01.535758 32676 net.cpp:91] Creating Layer inception_3a/1x1
I0403 13:40:01.535774 32676 net.cpp:425] inception_3a/1x1 <- pool2/3x3_s2_pool2/3x3_s2_0_split_0
I0403 13:40:01.535795 32676 net.cpp:399] inception_3a/1x1 -> inception_3a/1x1
I0403 13:40:01.537345 32676 net.cpp:141] Setting up inception_3a/1x1
I0403 13:40:01.537374 32676 net.cpp:148] Top shape: 24 64 28 28 (1204224)
I0403 13:40:01.537389 32676 net.cpp:156] Memory required for data: 496141344
I0403 13:40:01.537408 32676 layer_factory.hpp:77] Creating layer inception_3a/relu_1x1
I0403 13:40:01.537425 32676 net.cpp:91] Creating Layer inception_3a/relu_1x1
I0403 13:40:01.537441 32676 net.cpp:425] inception_3a/relu_1x1 <- inception_3a/1x1
I0403 13:40:01.537461 32676 net.cpp:386] inception_3a/relu_1x1 -> inception_3a/1x1 (in-place)
I0403 13:40:01.537633 32676 net.cpp:141] Setting up inception_3a/relu_1x1
I0403 13:40:01.537658 32676 net.cpp:148] Top shape: 24 64 28 28 (1204224)
I0403 13:40:01.537672 32676 net.cpp:156] Memory required for data: 500958240
I0403 13:40:01.537686 32676 layer_factory.hpp:77] Creating layer inception_3a/3x3_reduce
I0403 13:40:01.537708 32676 net.cpp:91] Creating Layer inception_3a/3x3_reduce
I0403 13:40:01.537725 32676 net.cpp:425] inception_3a/3x3_reduce <- pool2/3x3_s2_pool2/3x3_s2_0_split_1
I0403 13:40:01.537749 32676 net.cpp:399] inception_3a/3x3_reduce -> inception_3a/3x3_reduce
I0403 13:40:01.539515 32676 net.cpp:141] Setting up inception_3a/3x3_reduce
I0403 13:40:01.539546 32676 net.cpp:148] Top shape: 24 96 28 28 (1806336)
I0403 13:40:01.539563 32676 net.cpp:156] Memory required for data: 508183584
I0403 13:40:01.539587 32676 layer_factory.hpp:77] Creating layer inception_3a/relu_3x3_reduce
I0403 13:40:01.539625 32676 net.cpp:91] Creating Layer inception_3a/relu_3x3_reduce
I0403 13:40:01.539645 32676 net.cpp:425] inception_3a/relu_3x3_reduce <- inception_3a/3x3_reduce
I0403 13:40:01.539664 32676 net.cpp:386] inception_3a/relu_3x3_reduce -> inception_3a/3x3_reduce (in-place)
I0403 13:40:01.539867 32676 net.cpp:141] Setting up inception_3a/relu_3x3_reduce
I0403 13:40:01.539892 32676 net.cpp:148] Top shape: 24 96 28 28 (1806336)
I0403 13:40:01.539907 32676 net.cpp:156] Memory required for data: 515408928
I0403 13:40:01.539922 32676 layer_factory.hpp:77] Creating layer inception_3a/3x3
I0403 13:40:01.539945 32676 net.cpp:91] Creating Layer inception_3a/3x3
I0403 13:40:01.539963 32676 net.cpp:425] inception_3a/3x3 <- inception_3a/3x3_reduce
I0403 13:40:01.539986 32676 net.cpp:399] inception_3a/3x3 -> inception_3a/3x3
I0403 13:40:01.541739 32676 net.cpp:141] Setting up inception_3a/3x3
I0403 13:40:01.541780 32676 net.cpp:148] Top shape: 24 128 28 28 (2408448)
I0403 13:40:01.541797 32676 net.cpp:156] Memory required for data: 525042720
I0403 13:40:01.541818 32676 layer_factory.hpp:77] Creating layer inception_3a/relu_3x3
I0403 13:40:01.541839 32676 net.cpp:91] Creating Layer inception_3a/relu_3x3
I0403 13:40:01.541857 32676 net.cpp:425] inception_3a/relu_3x3 <- inception_3a/3x3
I0403 13:40:01.541874 32676 net.cpp:386] inception_3a/relu_3x3 -> inception_3a/3x3 (in-place)
I0403 13:40:01.542174 32676 net.cpp:141] Setting up inception_3a/relu_3x3
I0403 13:40:01.542201 32676 net.cpp:148] Top shape: 24 128 28 28 (2408448)
I0403 13:40:01.542222 32676 net.cpp:156] Memory required for data: 534676512
I0403 13:40:01.542238 32676 layer_factory.hpp:77] Creating layer inception_3a/5x5_reduce
I0403 13:40:01.542261 32676 net.cpp:91] Creating Layer inception_3a/5x5_reduce
I0403 13:40:01.542279 32676 net.cpp:425] inception_3a/5x5_reduce <- pool2/3x3_s2_pool2/3x3_s2_0_split_2
I0403 13:40:01.542300 32676 net.cpp:399] inception_3a/5x5_reduce -> inception_3a/5x5_reduce
I0403 13:40:01.543287 32676 net.cpp:141] Setting up inception_3a/5x5_reduce
I0403 13:40:01.543316 32676 net.cpp:148] Top shape: 24 16 28 28 (301056)
I0403 13:40:01.543332 32676 net.cpp:156] Memory required for data: 535880736
I0403 13:40:01.543350 32676 layer_factory.hpp:77] Creating layer inception_3a/relu_5x5_reduce
I0403 13:40:01.543370 32676 net.cpp:91] Creating Layer inception_3a/relu_5x5_reduce
I0403 13:40:01.543387 32676 net.cpp:425] inception_3a/relu_5x5_reduce <- inception_3a/5x5_reduce
I0403 13:40:01.543406 32676 net.cpp:386] inception_3a/relu_5x5_reduce -> inception_3a/5x5_reduce (in-place)
I0403 13:40:01.543726 32676 net.cpp:141] Setting up inception_3a/relu_5x5_reduce
I0403 13:40:01.543756 32676 net.cpp:148] Top shape: 24 16 28 28 (301056)
I0403 13:40:01.543773 32676 net.cpp:156] Memory required for data: 537084960
I0403 13:40:01.543800 32676 layer_factory.hpp:77] Creating layer inception_3a/5x5
I0403 13:40:01.543823 32676 net.cpp:91] Creating Layer inception_3a/5x5
I0403 13:40:01.543840 32676 net.cpp:425] inception_3a/5x5 <- inception_3a/5x5_reduce
I0403 13:40:01.543859 32676 net.cpp:399] inception_3a/5x5 -> inception_3a/5x5
I0403 13:40:01.544890 32676 net.cpp:141] Setting up inception_3a/5x5
I0403 13:40:01.544919 32676 net.cpp:148] Top shape: 24 32 28 28 (602112)
I0403 13:40:01.544934 32676 net.cpp:156] Memory required for data: 539493408
I0403 13:40:01.544952 32676 layer_factory.hpp:77] Creating layer inception_3a/relu_5x5
I0403 13:40:01.544972 32676 net.cpp:91] Creating Layer inception_3a/relu_5x5
I0403 13:40:01.544989 32676 net.cpp:425] inception_3a/relu_5x5 <- inception_3a/5x5
I0403 13:40:01.545007 32676 net.cpp:386] inception_3a/relu_5x5 -> inception_3a/5x5 (in-place)
I0403 13:40:01.545202 32676 net.cpp:141] Setting up inception_3a/relu_5x5
I0403 13:40:01.545233 32676 net.cpp:148] Top shape: 24 32 28 28 (602112)
I0403 13:40:01.545248 32676 net.cpp:156] Memory required for data: 541901856
I0403 13:40:01.545264 32676 layer_factory.hpp:77] Creating layer inception_3a/pool
I0403 13:40:01.545285 32676 net.cpp:91] Creating Layer inception_3a/pool
I0403 13:40:01.545317 32676 net.cpp:425] inception_3a/pool <- pool2/3x3_s2_pool2/3x3_s2_0_split_3
I0403 13:40:01.545337 32676 net.cpp:399] inception_3a/pool -> inception_3a/pool
I0403 13:40:01.545411 32676 net.cpp:141] Setting up inception_3a/pool
I0403 13:40:01.545435 32676 net.cpp:148] Top shape: 24 192 28 28 (3612672)
I0403 13:40:01.545450 32676 net.cpp:156] Memory required for data: 556352544
I0403 13:40:01.545466 32676 layer_factory.hpp:77] Creating layer inception_3a/pool_proj
I0403 13:40:01.545490 32676 net.cpp:91] Creating Layer inception_3a/pool_proj
I0403 13:40:01.545506 32676 net.cpp:425] inception_3a/pool_proj <- inception_3a/pool
I0403 13:40:01.545529 32676 net.cpp:399] inception_3a/pool_proj -> inception_3a/pool_proj
I0403 13:40:01.546511 32676 net.cpp:141] Setting up inception_3a/pool_proj
I0403 13:40:01.546541 32676 net.cpp:148] Top shape: 24 32 28 28 (602112)
I0403 13:40:01.546558 32676 net.cpp:156] Memory required for data: 558760992
I0403 13:40:01.546581 32676 layer_factory.hpp:77] Creating layer inception_3a/relu_pool_proj
I0403 13:40:01.546602 32676 net.cpp:91] Creating Layer inception_3a/relu_pool_proj
I0403 13:40:01.546632 32676 net.cpp:425] inception_3a/relu_pool_proj <- inception_3a/pool_proj
I0403 13:40:01.546651 32676 net.cpp:386] inception_3a/relu_pool_proj -> inception_3a/pool_proj (in-place)
I0403 13:40:01.546936 32676 net.cpp:141] Setting up inception_3a/relu_pool_proj
I0403 13:40:01.546964 32676 net.cpp:148] Top shape: 24 32 28 28 (602112)
I0403 13:40:01.546980 32676 net.cpp:156] Memory required for data: 561169440
I0403 13:40:01.546995 32676 layer_factory.hpp:77] Creating layer inception_3a/output
I0403 13:40:01.547014 32676 net.cpp:91] Creating Layer inception_3a/output
I0403 13:40:01.547034 32676 net.cpp:425] inception_3a/output <- inception_3a/1x1
I0403 13:40:01.547052 32676 net.cpp:425] inception_3a/output <- inception_3a/3x3
I0403 13:40:01.547070 32676 net.cpp:425] inception_3a/output <- inception_3a/5x5
I0403 13:40:01.547085 32676 net.cpp:425] inception_3a/output <- inception_3a/pool_proj
I0403 13:40:01.547102 32676 net.cpp:399] inception_3a/output -> inception_3a/output
I0403 13:40:01.547150 32676 net.cpp:141] Setting up inception_3a/output
I0403 13:40:01.547189 32676 net.cpp:148] Top shape: 24 256 28 28 (4816896)
I0403 13:40:01.547205 32676 net.cpp:156] Memory required for data: 580437024
I0403 13:40:01.547224 32676 layer_factory.hpp:77] Creating layer inception_3a/output_inception_3a/output_0_split
I0403 13:40:01.547242 32676 net.cpp:91] Creating Layer inception_3a/output_inception_3a/output_0_split
I0403 13:40:01.547258 32676 net.cpp:425] inception_3a/output_inception_3a/output_0_split <- inception_3a/output
I0403 13:40:01.547278 32676 net.cpp:399] inception_3a/output_inception_3a/output_0_split -> inception_3a/output_inception_3a/output_0_split_0
I0403 13:40:01.547299 32676 net.cpp:399] inception_3a/output_inception_3a/output_0_split -> inception_3a/output_inception_3a/output_0_split_1
I0403 13:40:01.547323 32676 net.cpp:399] inception_3a/output_inception_3a/output_0_split -> inception_3a/output_inception_3a/output_0_split_2
I0403 13:40:01.547344 32676 net.cpp:399] inception_3a/output_inception_3a/output_0_split -> inception_3a/output_inception_3a/output_0_split_3
I0403 13:40:01.547420 32676 net.cpp:141] Setting up inception_3a/output_inception_3a/output_0_split
I0403 13:40:01.547443 32676 net.cpp:148] Top shape: 24 256 28 28 (4816896)
I0403 13:40:01.547461 32676 net.cpp:148] Top shape: 24 256 28 28 (4816896)
I0403 13:40:01.547477 32676 net.cpp:148] Top shape: 24 256 28 28 (4816896)
I0403 13:40:01.547492 32676 net.cpp:148] Top shape: 24 256 28 28 (4816896)
I0403 13:40:01.547507 32676 net.cpp:156] Memory required for data: 657507360
I0403 13:40:01.547521 32676 layer_factory.hpp:77] Creating layer inception_3b/1x1
I0403 13:40:01.547544 32676 net.cpp:91] Creating Layer inception_3b/1x1
I0403 13:40:01.547562 32676 net.cpp:425] inception_3b/1x1 <- inception_3a/output_inception_3a/output_0_split_0
I0403 13:40:01.547582 32676 net.cpp:399] inception_3b/1x1 -> inception_3b/1x1
I0403 13:40:01.548769 32676 net.cpp:141] Setting up inception_3b/1x1
I0403 13:40:01.548811 32676 net.cpp:148] Top shape: 24 128 28 28 (2408448)
I0403 13:40:01.548828 32676 net.cpp:156] Memory required for data: 667141152
I0403 13:40:01.548847 32676 layer_factory.hpp:77] Creating layer inception_3b/relu_1x1
I0403 13:40:01.548866 32676 net.cpp:91] Creating Layer inception_3b/relu_1x1
I0403 13:40:01.548882 32676 net.cpp:425] inception_3b/relu_1x1 <- inception_3b/1x1
I0403 13:40:01.548900 32676 net.cpp:386] inception_3b/relu_1x1 -> inception_3b/1x1 (in-place)
I0403 13:40:01.549079 32676 net.cpp:141] Setting up inception_3b/relu_1x1
I0403 13:40:01.549105 32676 net.cpp:148] Top shape: 24 128 28 28 (2408448)
I0403 13:40:01.549119 32676 net.cpp:156] Memory required for data: 676774944
I0403 13:40:01.549134 32676 layer_factory.hpp:77] Creating layer inception_3b/3x3_reduce
I0403 13:40:01.549156 32676 net.cpp:91] Creating Layer inception_3b/3x3_reduce
I0403 13:40:01.549175 32676 net.cpp:425] inception_3b/3x3_reduce <- inception_3a/output_inception_3a/output_0_split_1
I0403 13:40:01.549196 32676 net.cpp:399] inception_3b/3x3_reduce -> inception_3b/3x3_reduce
I0403 13:40:01.550389 32676 net.cpp:141] Setting up inception_3b/3x3_reduce
I0403 13:40:01.550420 32676 net.cpp:148] Top shape: 24 128 28 28 (2408448)
I0403 13:40:01.550436 32676 net.cpp:156] Memory required for data: 686408736
I0403 13:40:01.550454 32676 layer_factory.hpp:77] Creating layer inception_3b/relu_3x3_reduce
I0403 13:40:01.550474 32676 net.cpp:91] Creating Layer inception_3b/relu_3x3_reduce
I0403 13:40:01.550490 32676 net.cpp:425] inception_3b/relu_3x3_reduce <- inception_3b/3x3_reduce
I0403 13:40:01.550510 32676 net.cpp:386] inception_3b/relu_3x3_reduce -> inception_3b/3x3_reduce (in-place)
I0403 13:40:01.550686 32676 net.cpp:141] Setting up inception_3b/relu_3x3_reduce
I0403 13:40:01.550712 32676 net.cpp:148] Top shape: 24 128 28 28 (2408448)
I0403 13:40:01.550727 32676 net.cpp:156] Memory required for data: 696042528
I0403 13:40:01.550741 32676 layer_factory.hpp:77] Creating layer inception_3b/3x3
I0403 13:40:01.550767 32676 net.cpp:91] Creating Layer inception_3b/3x3
I0403 13:40:01.550786 32676 net.cpp:425] inception_3b/3x3 <- inception_3b/3x3_reduce
I0403 13:40:01.550806 32676 net.cpp:399] inception_3b/3x3 -> inception_3b/3x3
I0403 13:40:01.553874 32676 net.cpp:141] Setting up inception_3b/3x3
I0403 13:40:01.553903 32676 net.cpp:148] Top shape: 24 192 28 28 (3612672)
I0403 13:40:01.553920 32676 net.cpp:156] Memory required for data: 710493216
I0403 13:40:01.553938 32676 layer_factory.hpp:77] Creating layer inception_3b/relu_3x3
I0403 13:40:01.553961 32676 net.cpp:91] Creating Layer inception_3b/relu_3x3
I0403 13:40:01.553977 32676 net.cpp:425] inception_3b/relu_3x3 <- inception_3b/3x3
I0403 13:40:01.553997 32676 net.cpp:386] inception_3b/relu_3x3 -> inception_3b/3x3 (in-place)
I0403 13:40:01.554292 32676 net.cpp:141] Setting up inception_3b/relu_3x3
I0403 13:40:01.554319 32676 net.cpp:148] Top shape: 24 192 28 28 (3612672)
I0403 13:40:01.554335 32676 net.cpp:156] Memory required for data: 724943904
I0403 13:40:01.554352 32676 layer_factory.hpp:77] Creating layer inception_3b/5x5_reduce
I0403 13:40:01.554374 32676 net.cpp:91] Creating Layer inception_3b/5x5_reduce
I0403 13:40:01.554394 32676 net.cpp:425] inception_3b/5x5_reduce <- inception_3a/output_inception_3a/output_0_split_2
I0403 13:40:01.554417 32676 net.cpp:399] inception_3b/5x5_reduce -> inception_3b/5x5_reduce
I0403 13:40:01.555479 32676 net.cpp:141] Setting up inception_3b/5x5_reduce
I0403 13:40:01.555506 32676 net.cpp:148] Top shape: 24 32 28 28 (602112)
I0403 13:40:01.555522 32676 net.cpp:156] Memory required for data: 727352352
I0403 13:40:01.555541 32676 layer_factory.hpp:77] Creating layer inception_3b/relu_5x5_reduce
I0403 13:40:01.555562 32676 net.cpp:91] Creating Layer inception_3b/relu_5x5_reduce
I0403 13:40:01.555578 32676 net.cpp:425] inception_3b/relu_5x5_reduce <- inception_3b/5x5_reduce
I0403 13:40:01.555596 32676 net.cpp:386] inception_3b/relu_5x5_reduce -> inception_3b/5x5_reduce (in-place)
I0403 13:40:01.555789 32676 net.cpp:141] Setting up inception_3b/relu_5x5_reduce
I0403 13:40:01.555815 32676 net.cpp:148] Top shape: 24 32 28 28 (602112)
I0403 13:40:01.555830 32676 net.cpp:156] Memory required for data: 729760800
I0403 13:40:01.555845 32676 layer_factory.hpp:77] Creating layer inception_3b/5x5
I0403 13:40:01.555871 32676 net.cpp:91] Creating Layer inception_3b/5x5
I0403 13:40:01.555888 32676 net.cpp:425] inception_3b/5x5 <- inception_3b/5x5_reduce
I0403 13:40:01.555908 32676 net.cpp:399] inception_3b/5x5 -> inception_3b/5x5
I0403 13:40:01.557899 32676 net.cpp:141] Setting up inception_3b/5x5
I0403 13:40:01.557930 32676 net.cpp:148] Top shape: 24 96 28 28 (1806336)
I0403 13:40:01.557946 32676 net.cpp:156] Memory required for data: 736986144
I0403 13:40:01.557965 32676 layer_factory.hpp:77] Creating layer inception_3b/relu_5x5
I0403 13:40:01.557982 32676 net.cpp:91] Creating Layer inception_3b/relu_5x5
I0403 13:40:01.557998 32676 net.cpp:425] inception_3b/relu_5x5 <- inception_3b/5x5
I0403 13:40:01.558039 32676 net.cpp:386] inception_3b/relu_5x5 -> inception_3b/5x5 (in-place)
I0403 13:40:01.558250 32676 net.cpp:141] Setting up inception_3b/relu_5x5
I0403 13:40:01.558276 32676 net.cpp:148] Top shape: 24 96 28 28 (1806336)
I0403 13:40:01.558302 32676 net.cpp:156] Memory required for data: 744211488
I0403 13:40:01.558317 32676 layer_factory.hpp:77] Creating layer inception_3b/pool
I0403 13:40:01.558334 32676 net.cpp:91] Creating Layer inception_3b/pool
I0403 13:40:01.558362 32676 net.cpp:425] inception_3b/pool <- inception_3a/output_inception_3a/output_0_split_3
I0403 13:40:01.558382 32676 net.cpp:399] inception_3b/pool -> inception_3b/pool
I0403 13:40:01.558451 32676 net.cpp:141] Setting up inception_3b/pool
I0403 13:40:01.558475 32676 net.cpp:148] Top shape: 24 256 28 28 (4816896)
I0403 13:40:01.558495 32676 net.cpp:156] Memory required for data: 763479072
I0403 13:40:01.558509 32676 layer_factory.hpp:77] Creating layer inception_3b/pool_proj
I0403 13:40:01.558533 32676 net.cpp:91] Creating Layer inception_3b/pool_proj
I0403 13:40:01.558552 32676 net.cpp:425] inception_3b/pool_proj <- inception_3b/pool
I0403 13:40:01.558571 32676 net.cpp:399] inception_3b/pool_proj -> inception_3b/pool_proj
I0403 13:40:01.559625 32676 net.cpp:141] Setting up inception_3b/pool_proj
I0403 13:40:01.559653 32676 net.cpp:148] Top shape: 24 64 28 28 (1204224)
I0403 13:40:01.559667 32676 net.cpp:156] Memory required for data: 768295968
I0403 13:40:01.559685 32676 layer_factory.hpp:77] Creating layer inception_3b/relu_pool_proj
I0403 13:40:01.559705 32676 net.cpp:91] Creating Layer inception_3b/relu_pool_proj
I0403 13:40:01.559722 32676 net.cpp:425] inception_3b/relu_pool_proj <- inception_3b/pool_proj
I0403 13:40:01.559739 32676 net.cpp:386] inception_3b/relu_pool_proj -> inception_3b/pool_proj (in-place)
I0403 13:40:01.560140 32676 net.cpp:141] Setting up inception_3b/relu_pool_proj
I0403 13:40:01.560178 32676 net.cpp:148] Top shape: 24 64 28 28 (1204224)
I0403 13:40:01.560194 32676 net.cpp:156] Memory required for data: 773112864
I0403 13:40:01.560211 32676 layer_factory.hpp:77] Creating layer inception_3b/output
I0403 13:40:01.560233 32676 net.cpp:91] Creating Layer inception_3b/output
I0403 13:40:01.560250 32676 net.cpp:425] inception_3b/output <- inception_3b/1x1
I0403 13:40:01.560266 32676 net.cpp:425] inception_3b/output <- inception_3b/3x3
I0403 13:40:01.560283 32676 net.cpp:425] inception_3b/output <- inception_3b/5x5
I0403 13:40:01.560298 32676 net.cpp:425] inception_3b/output <- inception_3b/pool_proj
I0403 13:40:01.560315 32676 net.cpp:399] inception_3b/output -> inception_3b/output
I0403 13:40:01.560361 32676 net.cpp:141] Setting up inception_3b/output
I0403 13:40:01.560384 32676 net.cpp:148] Top shape: 24 480 28 28 (9031680)
I0403 13:40:01.560398 32676 net.cpp:156] Memory required for data: 809239584
I0403 13:40:01.560412 32676 layer_factory.hpp:77] Creating layer pool3/3x3_s2
I0403 13:40:01.560430 32676 net.cpp:91] Creating Layer pool3/3x3_s2
I0403 13:40:01.560457 32676 net.cpp:425] pool3/3x3_s2 <- inception_3b/output
I0403 13:40:01.560490 32676 net.cpp:399] pool3/3x3_s2 -> pool3/3x3_s2
I0403 13:40:01.560547 32676 net.cpp:141] Setting up pool3/3x3_s2
I0403 13:40:01.560570 32676 net.cpp:148] Top shape: 24 480 14 14 (2257920)
I0403 13:40:01.560585 32676 net.cpp:156] Memory required for data: 818271264
I0403 13:40:01.560598 32676 layer_factory.hpp:77] Creating layer pool3/3x3_s2_pool3/3x3_s2_0_split
I0403 13:40:01.560616 32676 net.cpp:91] Creating Layer pool3/3x3_s2_pool3/3x3_s2_0_split
I0403 13:40:01.560629 32676 net.cpp:425] pool3/3x3_s2_pool3/3x3_s2_0_split <- pool3/3x3_s2
I0403 13:40:01.560647 32676 net.cpp:399] pool3/3x3_s2_pool3/3x3_s2_0_split -> pool3/3x3_s2_pool3/3x3_s2_0_split_0
I0403 13:40:01.560667 32676 net.cpp:399] pool3/3x3_s2_pool3/3x3_s2_0_split -> pool3/3x3_s2_pool3/3x3_s2_0_split_1
I0403 13:40:01.560688 32676 net.cpp:399] pool3/3x3_s2_pool3/3x3_s2_0_split -> pool3/3x3_s2_pool3/3x3_s2_0_split_2
I0403 13:40:01.560708 32676 net.cpp:399] pool3/3x3_s2_pool3/3x3_s2_0_split -> pool3/3x3_s2_pool3/3x3_s2_0_split_3
I0403 13:40:01.560781 32676 net.cpp:141] Setting up pool3/3x3_s2_pool3/3x3_s2_0_split
I0403 13:40:01.560803 32676 net.cpp:148] Top shape: 24 480 14 14 (2257920)
I0403 13:40:01.560818 32676 net.cpp:148] Top shape: 24 480 14 14 (2257920)
I0403 13:40:01.560833 32676 net.cpp:148] Top shape: 24 480 14 14 (2257920)
I0403 13:40:01.560848 32676 net.cpp:148] Top shape: 24 480 14 14 (2257920)
I0403 13:40:01.560861 32676 net.cpp:156] Memory required for data: 854397984
I0403 13:40:01.560876 32676 layer_factory.hpp:77] Creating layer inception_4a/1x1
I0403 13:40:01.560899 32676 net.cpp:91] Creating Layer inception_4a/1x1
I0403 13:40:01.560915 32676 net.cpp:425] inception_4a/1x1 <- pool3/3x3_s2_pool3/3x3_s2_0_split_0
I0403 13:40:01.560933 32676 net.cpp:399] inception_4a/1x1 -> inception_4a/1x1
I0403 13:40:01.562492 32676 net.cpp:141] Setting up inception_4a/1x1
I0403 13:40:01.562521 32676 net.cpp:148] Top shape: 24 192 14 14 (903168)
I0403 13:40:01.562537 32676 net.cpp:156] Memory required for data: 858010656
I0403 13:40:01.562556 32676 layer_factory.hpp:77] Creating layer inception_4a/relu_1x1
I0403 13:40:01.562573 32676 net.cpp:91] Creating Layer inception_4a/relu_1x1
I0403 13:40:01.562588 32676 net.cpp:425] inception_4a/relu_1x1 <- inception_4a/1x1
I0403 13:40:01.562608 32676 net.cpp:386] inception_4a/relu_1x1 -> inception_4a/1x1 (in-place)
I0403 13:40:01.562796 32676 net.cpp:141] Setting up inception_4a/relu_1x1
I0403 13:40:01.562821 32676 net.cpp:148] Top shape: 24 192 14 14 (903168)
I0403 13:40:01.562835 32676 net.cpp:156] Memory required for data: 861623328
I0403 13:40:01.562850 32676 layer_factory.hpp:77] Creating layer inception_4a/3x3_reduce
I0403 13:40:01.562872 32676 net.cpp:91] Creating Layer inception_4a/3x3_reduce
I0403 13:40:01.562890 32676 net.cpp:425] inception_4a/3x3_reduce <- pool3/3x3_s2_pool3/3x3_s2_0_split_1
I0403 13:40:01.562912 32676 net.cpp:399] inception_4a/3x3_reduce -> inception_4a/3x3_reduce
I0403 13:40:01.564194 32676 net.cpp:141] Setting up inception_4a/3x3_reduce
I0403 13:40:01.564229 32676 net.cpp:148] Top shape: 24 96 14 14 (451584)
I0403 13:40:01.564244 32676 net.cpp:156] Memory required for data: 863429664
I0403 13:40:01.564267 32676 layer_factory.hpp:77] Creating layer inception_4a/relu_3x3_reduce
I0403 13:40:01.564288 32676 net.cpp:91] Creating Layer inception_4a/relu_3x3_reduce
I0403 13:40:01.564306 32676 net.cpp:425] inception_4a/relu_3x3_reduce <- inception_4a/3x3_reduce
I0403 13:40:01.564322 32676 net.cpp:386] inception_4a/relu_3x3_reduce -> inception_4a/3x3_reduce (in-place)
I0403 13:40:01.564499 32676 net.cpp:141] Setting up inception_4a/relu_3x3_reduce
I0403 13:40:01.564525 32676 net.cpp:148] Top shape: 24 96 14 14 (451584)
I0403 13:40:01.564539 32676 net.cpp:156] Memory required for data: 865236000
I0403 13:40:01.564553 32676 layer_factory.hpp:77] Creating layer inception_4a/3x3
I0403 13:40:01.564575 32676 net.cpp:91] Creating Layer inception_4a/3x3
I0403 13:40:01.564592 32676 net.cpp:425] inception_4a/3x3 <- inception_4a/3x3_reduce
I0403 13:40:01.564613 32676 net.cpp:399] inception_4a/3x3 -> inception_4a/3x3
I0403 13:40:01.567255 32676 net.cpp:141] Setting up inception_4a/3x3
I0403 13:40:01.567286 32676 net.cpp:148] Top shape: 24 208 14 14 (978432)
I0403 13:40:01.567301 32676 net.cpp:156] Memory required for data: 869149728
I0403 13:40:01.567319 32676 layer_factory.hpp:77] Creating layer inception_4a/relu_3x3
I0403 13:40:01.567337 32676 net.cpp:91] Creating Layer inception_4a/relu_3x3
I0403 13:40:01.567353 32676 net.cpp:425] inception_4a/relu_3x3 <- inception_4a/3x3
I0403 13:40:01.567371 32676 net.cpp:386] inception_4a/relu_3x3 -> inception_4a/3x3 (in-place)
I0403 13:40:01.567658 32676 net.cpp:141] Setting up inception_4a/relu_3x3
I0403 13:40:01.567683 32676 net.cpp:148] Top shape: 24 208 14 14 (978432)
I0403 13:40:01.567698 32676 net.cpp:156] Memory required for data: 873063456
I0403 13:40:01.567713 32676 layer_factory.hpp:77] Creating layer inception_4a/5x5_reduce
I0403 13:40:01.567735 32676 net.cpp:91] Creating Layer inception_4a/5x5_reduce
I0403 13:40:01.567751 32676 net.cpp:425] inception_4a/5x5_reduce <- pool3/3x3_s2_pool3/3x3_s2_0_split_2
I0403 13:40:01.567772 32676 net.cpp:399] inception_4a/5x5_reduce -> inception_4a/5x5_reduce
I0403 13:40:01.568789 32676 net.cpp:141] Setting up inception_4a/5x5_reduce
I0403 13:40:01.568816 32676 net.cpp:148] Top shape: 24 16 14 14 (75264)
I0403 13:40:01.568832 32676 net.cpp:156] Memory required for data: 873364512
I0403 13:40:01.568850 32676 layer_factory.hpp:77] Creating layer inception_4a/relu_5x5_reduce
I0403 13:40:01.568871 32676 net.cpp:91] Creating Layer inception_4a/relu_5x5_reduce
I0403 13:40:01.568888 32676 net.cpp:425] inception_4a/relu_5x5_reduce <- inception_4a/5x5_reduce
I0403 13:40:01.568905 32676 net.cpp:386] inception_4a/relu_5x5_reduce -> inception_4a/5x5_reduce (in-place)
I0403 13:40:01.569090 32676 net.cpp:141] Setting up inception_4a/relu_5x5_reduce
I0403 13:40:01.569113 32676 net.cpp:148] Top shape: 24 16 14 14 (75264)
I0403 13:40:01.569128 32676 net.cpp:156] Memory required for data: 873665568
I0403 13:40:01.569142 32676 layer_factory.hpp:77] Creating layer inception_4a/5x5
I0403 13:40:01.569164 32676 net.cpp:91] Creating Layer inception_4a/5x5
I0403 13:40:01.569180 32676 net.cpp:425] inception_4a/5x5 <- inception_4a/5x5_reduce
I0403 13:40:01.569200 32676 net.cpp:399] inception_4a/5x5 -> inception_4a/5x5
I0403 13:40:01.570257 32676 net.cpp:141] Setting up inception_4a/5x5
I0403 13:40:01.570284 32676 net.cpp:148] Top shape: 24 48 14 14 (225792)
I0403 13:40:01.570299 32676 net.cpp:156] Memory required for data: 874568736
I0403 13:40:01.570317 32676 layer_factory.hpp:77] Creating layer inception_4a/relu_5x5
I0403 13:40:01.570336 32676 net.cpp:91] Creating Layer inception_4a/relu_5x5
I0403 13:40:01.570353 32676 net.cpp:425] inception_4a/relu_5x5 <- inception_4a/5x5
I0403 13:40:01.570369 32676 net.cpp:386] inception_4a/relu_5x5 -> inception_4a/5x5 (in-place)
I0403 13:40:01.570567 32676 net.cpp:141] Setting up inception_4a/relu_5x5
I0403 13:40:01.570596 32676 net.cpp:148] Top shape: 24 48 14 14 (225792)
I0403 13:40:01.570613 32676 net.cpp:156] Memory required for data: 875471904
I0403 13:40:01.570627 32676 layer_factory.hpp:77] Creating layer inception_4a/pool
I0403 13:40:01.570646 32676 net.cpp:91] Creating Layer inception_4a/pool
I0403 13:40:01.570660 32676 net.cpp:425] inception_4a/pool <- pool3/3x3_s2_pool3/3x3_s2_0_split_3
I0403 13:40:01.570680 32676 net.cpp:399] inception_4a/pool -> inception_4a/pool
I0403 13:40:01.570751 32676 net.cpp:141] Setting up inception_4a/pool
I0403 13:40:01.570775 32676 net.cpp:148] Top shape: 24 480 14 14 (2257920)
I0403 13:40:01.570791 32676 net.cpp:156] Memory required for data: 884503584
I0403 13:40:01.570803 32676 layer_factory.hpp:77] Creating layer inception_4a/pool_proj
I0403 13:40:01.570825 32676 net.cpp:91] Creating Layer inception_4a/pool_proj
I0403 13:40:01.570842 32676 net.cpp:425] inception_4a/pool_proj <- inception_4a/pool
I0403 13:40:01.570861 32676 net.cpp:399] inception_4a/pool_proj -> inception_4a/pool_proj
I0403 13:40:01.572003 32676 net.cpp:141] Setting up inception_4a/pool_proj
I0403 13:40:01.572034 32676 net.cpp:148] Top shape: 24 64 14 14 (301056)
I0403 13:40:01.572062 32676 net.cpp:156] Memory required for data: 885707808
I0403 13:40:01.572082 32676 layer_factory.hpp:77] Creating layer inception_4a/relu_pool_proj
I0403 13:40:01.572098 32676 net.cpp:91] Creating Layer inception_4a/relu_pool_proj
I0403 13:40:01.572114 32676 net.cpp:425] inception_4a/relu_pool_proj <- inception_4a/pool_proj
I0403 13:40:01.572131 32676 net.cpp:386] inception_4a/relu_pool_proj -> inception_4a/pool_proj (in-place)
I0403 13:40:01.572427 32676 net.cpp:141] Setting up inception_4a/relu_pool_proj
I0403 13:40:01.572456 32676 net.cpp:148] Top shape: 24 64 14 14 (301056)
I0403 13:40:01.572473 32676 net.cpp:156] Memory required for data: 886912032
I0403 13:40:01.572486 32676 layer_factory.hpp:77] Creating layer inception_4a/output
I0403 13:40:01.572504 32676 net.cpp:91] Creating Layer inception_4a/output
I0403 13:40:01.572520 32676 net.cpp:425] inception_4a/output <- inception_4a/1x1
I0403 13:40:01.572535 32676 net.cpp:425] inception_4a/output <- inception_4a/3x3
I0403 13:40:01.572559 32676 net.cpp:425] inception_4a/output <- inception_4a/5x5
I0403 13:40:01.572576 32676 net.cpp:425] inception_4a/output <- inception_4a/pool_proj
I0403 13:40:01.572592 32676 net.cpp:399] inception_4a/output -> inception_4a/output
I0403 13:40:01.572638 32676 net.cpp:141] Setting up inception_4a/output
I0403 13:40:01.572660 32676 net.cpp:148] Top shape: 24 512 14 14 (2408448)
I0403 13:40:01.572674 32676 net.cpp:156] Memory required for data: 896545824
I0403 13:40:01.572688 32676 layer_factory.hpp:77] Creating layer inception_4a/output_inception_4a/output_0_split
I0403 13:40:01.572708 32676 net.cpp:91] Creating Layer inception_4a/output_inception_4a/output_0_split
I0403 13:40:01.572724 32676 net.cpp:425] inception_4a/output_inception_4a/output_0_split <- inception_4a/output
I0403 13:40:01.572741 32676 net.cpp:399] inception_4a/output_inception_4a/output_0_split -> inception_4a/output_inception_4a/output_0_split_0
I0403 13:40:01.572762 32676 net.cpp:399] inception_4a/output_inception_4a/output_0_split -> inception_4a/output_inception_4a/output_0_split_1
I0403 13:40:01.572782 32676 net.cpp:399] inception_4a/output_inception_4a/output_0_split -> inception_4a/output_inception_4a/output_0_split_2
I0403 13:40:01.572803 32676 net.cpp:399] inception_4a/output_inception_4a/output_0_split -> inception_4a/output_inception_4a/output_0_split_3
I0403 13:40:01.572825 32676 net.cpp:399] inception_4a/output_inception_4a/output_0_split -> inception_4a/output_inception_4a/output_0_split_4
I0403 13:40:01.572921 32676 net.cpp:141] Setting up inception_4a/output_inception_4a/output_0_split
I0403 13:40:01.572944 32676 net.cpp:148] Top shape: 24 512 14 14 (2408448)
I0403 13:40:01.572960 32676 net.cpp:148] Top shape: 24 512 14 14 (2408448)
I0403 13:40:01.572976 32676 net.cpp:148] Top shape: 24 512 14 14 (2408448)
I0403 13:40:01.572991 32676 net.cpp:148] Top shape: 24 512 14 14 (2408448)
I0403 13:40:01.573006 32676 net.cpp:148] Top shape: 24 512 14 14 (2408448)
I0403 13:40:01.573019 32676 net.cpp:156] Memory required for data: 944714784
I0403 13:40:01.573034 32676 layer_factory.hpp:77] Creating layer loss1/ave_pool
I0403 13:40:01.573051 32676 net.cpp:91] Creating Layer loss1/ave_pool
I0403 13:40:01.573070 32676 net.cpp:425] loss1/ave_pool <- inception_4a/output_inception_4a/output_0_split_0
I0403 13:40:01.573087 32676 net.cpp:399] loss1/ave_pool -> loss1/ave_pool
I0403 13:40:01.573307 32676 net.cpp:141] Setting up loss1/ave_pool
I0403 13:40:01.573335 32676 net.cpp:148] Top shape: 24 512 4 4 (196608)
I0403 13:40:01.573351 32676 net.cpp:156] Memory required for data: 945501216
I0403 13:40:01.573365 32676 layer_factory.hpp:77] Creating layer loss1/conv
I0403 13:40:01.573388 32676 net.cpp:91] Creating Layer loss1/conv
I0403 13:40:01.573405 32676 net.cpp:425] loss1/conv <- loss1/ave_pool
I0403 13:40:01.573424 32676 net.cpp:399] loss1/conv -> loss1/conv
I0403 13:40:01.574859 32676 net.cpp:141] Setting up loss1/conv
I0403 13:40:01.574887 32676 net.cpp:148] Top shape: 24 128 4 4 (49152)
I0403 13:40:01.574918 32676 net.cpp:156] Memory required for data: 945697824
I0403 13:40:01.574936 32676 layer_factory.hpp:77] Creating layer loss1/relu_conv
I0403 13:40:01.574954 32676 net.cpp:91] Creating Layer loss1/relu_conv
I0403 13:40:01.574970 32676 net.cpp:425] loss1/relu_conv <- loss1/conv
I0403 13:40:01.574990 32676 net.cpp:386] loss1/relu_conv -> loss1/conv (in-place)
I0403 13:40:01.575276 32676 net.cpp:141] Setting up loss1/relu_conv
I0403 13:40:01.575302 32676 net.cpp:148] Top shape: 24 128 4 4 (49152)
I0403 13:40:01.575317 32676 net.cpp:156] Memory required for data: 945894432
I0403 13:40:01.575332 32676 layer_factory.hpp:77] Creating layer loss1/fc
I0403 13:40:01.575356 32676 net.cpp:91] Creating Layer loss1/fc
I0403 13:40:01.575373 32676 net.cpp:425] loss1/fc <- loss1/conv
I0403 13:40:01.575394 32676 net.cpp:399] loss1/fc -> loss1/fc
I0403 13:40:01.593575 32676 net.cpp:141] Setting up loss1/fc
I0403 13:40:01.593638 32676 net.cpp:148] Top shape: 24 1024 (24576)
I0403 13:40:01.593654 32676 net.cpp:156] Memory required for data: 945992736
I0403 13:40:01.593674 32676 layer_factory.hpp:77] Creating layer loss1/relu_fc
I0403 13:40:01.593696 32676 net.cpp:91] Creating Layer loss1/relu_fc
I0403 13:40:01.593715 32676 net.cpp:425] loss1/relu_fc <- loss1/fc
I0403 13:40:01.593734 32676 net.cpp:386] loss1/relu_fc -> loss1/fc (in-place)
I0403 13:40:01.593945 32676 net.cpp:141] Setting up loss1/relu_fc
I0403 13:40:01.593971 32676 net.cpp:148] Top shape: 24 1024 (24576)
I0403 13:40:01.593984 32676 net.cpp:156] Memory required for data: 946091040
I0403 13:40:01.593998 32676 layer_factory.hpp:77] Creating layer loss1/drop_fc
I0403 13:40:01.594027 32676 net.cpp:91] Creating Layer loss1/drop_fc
I0403 13:40:01.594043 32676 net.cpp:425] loss1/drop_fc <- loss1/fc
I0403 13:40:01.594063 32676 net.cpp:386] loss1/drop_fc -> loss1/fc (in-place)
I0403 13:40:01.594116 32676 net.cpp:141] Setting up loss1/drop_fc
I0403 13:40:01.594140 32676 net.cpp:148] Top shape: 24 1024 (24576)
I0403 13:40:01.594153 32676 net.cpp:156] Memory required for data: 946189344
I0403 13:40:01.594168 32676 layer_factory.hpp:77] Creating layer loss1/classifier_plantvillage
I0403 13:40:01.594190 32676 net.cpp:91] Creating Layer loss1/classifier_plantvillage
I0403 13:40:01.594211 32676 net.cpp:425] loss1/classifier_plantvillage <- loss1/fc
I0403 13:40:01.594233 32676 net.cpp:399] loss1/classifier_plantvillage -> loss1/classifier_plantvillage
I0403 13:40:01.595212 32676 net.cpp:141] Setting up loss1/classifier_plantvillage
I0403 13:40:01.595249 32676 net.cpp:148] Top shape: 24 38 (912)
I0403 13:40:01.595266 32676 net.cpp:156] Memory required for data: 946192992
I0403 13:40:01.595284 32676 layer_factory.hpp:77] Creating layer loss1/classifier_plantvillage_loss1/classifier_plantvillage_0_split
I0403 13:40:01.595304 32676 net.cpp:91] Creating Layer loss1/classifier_plantvillage_loss1/classifier_plantvillage_0_split
I0403 13:40:01.595319 32676 net.cpp:425] loss1/classifier_plantvillage_loss1/classifier_plantvillage_0_split <- loss1/classifier_plantvillage
I0403 13:40:01.595338 32676 net.cpp:399] loss1/classifier_plantvillage_loss1/classifier_plantvillage_0_split -> loss1/classifier_plantvillage_loss1/classifier_plantvillage_0_split_0
I0403 13:40:01.595360 32676 net.cpp:399] loss1/classifier_plantvillage_loss1/classifier_plantvillage_0_split -> loss1/classifier_plantvillage_loss1/classifier_plantvillage_0_split_1
I0403 13:40:01.595381 32676 net.cpp:399] loss1/classifier_plantvillage_loss1/classifier_plantvillage_0_split -> loss1/classifier_plantvillage_loss1/classifier_plantvillage_0_split_2
I0403 13:40:01.595446 32676 net.cpp:141] Setting up loss1/classifier_plantvillage_loss1/classifier_plantvillage_0_split
I0403 13:40:01.595469 32676 net.cpp:148] Top shape: 24 38 (912)
I0403 13:40:01.595485 32676 net.cpp:148] Top shape: 24 38 (912)
I0403 13:40:01.595501 32676 net.cpp:148] Top shape: 24 38 (912)
I0403 13:40:01.595525 32676 net.cpp:156] Memory required for data: 946203936
I0403 13:40:01.595538 32676 layer_factory.hpp:77] Creating layer inception_4b/1x1
I0403 13:40:01.595562 32676 net.cpp:91] Creating Layer inception_4b/1x1
I0403 13:40:01.595605 32676 net.cpp:425] inception_4b/1x1 <- inception_4a/output_inception_4a/output_0_split_1
I0403 13:40:01.595626 32676 net.cpp:399] inception_4b/1x1 -> inception_4b/1x1
I0403 13:40:01.597306 32676 net.cpp:141] Setting up inception_4b/1x1
I0403 13:40:01.597334 32676 net.cpp:148] Top shape: 24 160 14 14 (752640)
I0403 13:40:01.597349 32676 net.cpp:156] Memory required for data: 949214496
I0403 13:40:01.597368 32676 layer_factory.hpp:77] Creating layer inception_4b/relu_1x1
I0403 13:40:01.597388 32676 net.cpp:91] Creating Layer inception_4b/relu_1x1
I0403 13:40:01.597404 32676 net.cpp:425] inception_4b/relu_1x1 <- inception_4b/1x1
I0403 13:40:01.597421 32676 net.cpp:386] inception_4b/relu_1x1 -> inception_4b/1x1 (in-place)
I0403 13:40:01.597599 32676 net.cpp:141] Setting up inception_4b/relu_1x1
I0403 13:40:01.597623 32676 net.cpp:148] Top shape: 24 160 14 14 (752640)
I0403 13:40:01.597637 32676 net.cpp:156] Memory required for data: 952225056
I0403 13:40:01.597651 32676 layer_factory.hpp:77] Creating layer inception_4b/3x3_reduce
I0403 13:40:01.597676 32676 net.cpp:91] Creating Layer inception_4b/3x3_reduce
I0403 13:40:01.597694 32676 net.cpp:425] inception_4b/3x3_reduce <- inception_4a/output_inception_4a/output_0_split_2
I0403 13:40:01.597715 32676 net.cpp:399] inception_4b/3x3_reduce -> inception_4b/3x3_reduce
I0403 13:40:01.599081 32676 net.cpp:141] Setting up inception_4b/3x3_reduce
I0403 13:40:01.599107 32676 net.cpp:148] Top shape: 24 112 14 14 (526848)
I0403 13:40:01.599123 32676 net.cpp:156] Memory required for data: 954332448
I0403 13:40:01.599140 32676 layer_factory.hpp:77] Creating layer inception_4b/relu_3x3_reduce
I0403 13:40:01.599160 32676 net.cpp:91] Creating Layer inception_4b/relu_3x3_reduce
I0403 13:40:01.599177 32676 net.cpp:425] inception_4b/relu_3x3_reduce <- inception_4b/3x3_reduce
I0403 13:40:01.599195 32676 net.cpp:386] inception_4b/relu_3x3_reduce -> inception_4b/3x3_reduce (in-place)
I0403 13:40:01.599484 32676 net.cpp:141] Setting up inception_4b/relu_3x3_reduce
I0403 13:40:01.599510 32676 net.cpp:148] Top shape: 24 112 14 14 (526848)
I0403 13:40:01.599525 32676 net.cpp:156] Memory required for data: 956439840
I0403 13:40:01.599540 32676 layer_factory.hpp:77] Creating layer inception_4b/3x3
I0403 13:40:01.599562 32676 net.cpp:91] Creating Layer inception_4b/3x3
I0403 13:40:01.599580 32676 net.cpp:425] inception_4b/3x3 <- inception_4b/3x3_reduce
I0403 13:40:01.599601 32676 net.cpp:399] inception_4b/3x3 -> inception_4b/3x3
I0403 13:40:01.602603 32676 net.cpp:141] Setting up inception_4b/3x3
I0403 13:40:01.602634 32676 net.cpp:148] Top shape: 24 224 14 14 (1053696)
I0403 13:40:01.602649 32676 net.cpp:156] Memory required for data: 960654624
I0403 13:40:01.602669 32676 layer_factory.hpp:77] Creating layer inception_4b/relu_3x3
I0403 13:40:01.602686 32676 net.cpp:91] Creating Layer inception_4b/relu_3x3
I0403 13:40:01.602702 32676 net.cpp:425] inception_4b/relu_3x3 <- inception_4b/3x3
I0403 13:40:01.602721 32676 net.cpp:386] inception_4b/relu_3x3 -> inception_4b/3x3 (in-place)
I0403 13:40:01.602905 32676 net.cpp:141] Setting up inception_4b/relu_3x3
I0403 13:40:01.602929 32676 net.cpp:148] Top shape: 24 224 14 14 (1053696)
I0403 13:40:01.602943 32676 net.cpp:156] Memory required for data: 964869408
I0403 13:40:01.602958 32676 layer_factory.hpp:77] Creating layer inception_4b/5x5_reduce
I0403 13:40:01.602980 32676 net.cpp:91] Creating Layer inception_4b/5x5_reduce
I0403 13:40:01.602998 32676 net.cpp:425] inception_4b/5x5_reduce <- inception_4a/output_inception_4a/output_0_split_3
I0403 13:40:01.603019 32676 net.cpp:399] inception_4b/5x5_reduce -> inception_4b/5x5_reduce
I0403 13:40:01.604120 32676 net.cpp:141] Setting up inception_4b/5x5_reduce
I0403 13:40:01.604146 32676 net.cpp:148] Top shape: 24 24 14 14 (112896)
I0403 13:40:01.604162 32676 net.cpp:156] Memory required for data: 965320992
I0403 13:40:01.604181 32676 layer_factory.hpp:77] Creating layer inception_4b/relu_5x5_reduce
I0403 13:40:01.604202 32676 net.cpp:91] Creating Layer inception_4b/relu_5x5_reduce
I0403 13:40:01.604236 32676 net.cpp:425] inception_4b/relu_5x5_reduce <- inception_4b/5x5_reduce
I0403 13:40:01.604255 32676 net.cpp:386] inception_4b/relu_5x5_reduce -> inception_4b/5x5_reduce (in-place)
I0403 13:40:01.604440 32676 net.cpp:141] Setting up inception_4b/relu_5x5_reduce
I0403 13:40:01.604468 32676 net.cpp:148] Top shape: 24 24 14 14 (112896)
I0403 13:40:01.604485 32676 net.cpp:156] Memory required for data: 965772576
I0403 13:40:01.604499 32676 layer_factory.hpp:77] Creating layer inception_4b/5x5
I0403 13:40:01.604518 32676 net.cpp:91] Creating Layer inception_4b/5x5
I0403 13:40:01.604534 32676 net.cpp:425] inception_4b/5x5 <- inception_4b/5x5_reduce
I0403 13:40:01.604555 32676 net.cpp:399] inception_4b/5x5 -> inception_4b/5x5
I0403 13:40:01.605789 32676 net.cpp:141] Setting up inception_4b/5x5
I0403 13:40:01.605818 32676 net.cpp:148] Top shape: 24 64 14 14 (301056)
I0403 13:40:01.605834 32676 net.cpp:156] Memory required for data: 966976800
I0403 13:40:01.605851 32676 layer_factory.hpp:77] Creating layer inception_4b/relu_5x5
I0403 13:40:01.605870 32676 net.cpp:91] Creating Layer inception_4b/relu_5x5
I0403 13:40:01.605887 32676 net.cpp:425] inception_4b/relu_5x5 <- inception_4b/5x5
I0403 13:40:01.605904 32676 net.cpp:386] inception_4b/relu_5x5 -> inception_4b/5x5 (in-place)
I0403 13:40:01.606189 32676 net.cpp:141] Setting up inception_4b/relu_5x5
I0403 13:40:01.606220 32676 net.cpp:148] Top shape: 24 64 14 14 (301056)
I0403 13:40:01.606235 32676 net.cpp:156] Memory required for data: 968181024
I0403 13:40:01.606251 32676 layer_factory.hpp:77] Creating layer inception_4b/pool
I0403 13:40:01.606268 32676 net.cpp:91] Creating Layer inception_4b/pool
I0403 13:40:01.606287 32676 net.cpp:425] inception_4b/pool <- inception_4a/output_inception_4a/output_0_split_4
I0403 13:40:01.606308 32676 net.cpp:399] inception_4b/pool -> inception_4b/pool
I0403 13:40:01.606374 32676 net.cpp:141] Setting up inception_4b/pool
I0403 13:40:01.606400 32676 net.cpp:148] Top shape: 24 512 14 14 (2408448)
I0403 13:40:01.606415 32676 net.cpp:156] Memory required for data: 977814816
I0403 13:40:01.606429 32676 layer_factory.hpp:77] Creating layer inception_4b/pool_proj
I0403 13:40:01.606451 32676 net.cpp:91] Creating Layer inception_4b/pool_proj
I0403 13:40:01.606469 32676 net.cpp:425] inception_4b/pool_proj <- inception_4b/pool
I0403 13:40:01.606487 32676 net.cpp:399] inception_4b/pool_proj -> inception_4b/pool_proj
I0403 13:40:01.607697 32676 net.cpp:141] Setting up inception_4b/pool_proj
I0403 13:40:01.607724 32676 net.cpp:148] Top shape: 24 64 14 14 (301056)
I0403 13:40:01.607743 32676 net.cpp:156] Memory required for data: 979019040
I0403 13:40:01.607760 32676 layer_factory.hpp:77] Creating layer inception_4b/relu_pool_proj
I0403 13:40:01.607780 32676 net.cpp:91] Creating Layer inception_4b/relu_pool_proj
I0403 13:40:01.607796 32676 net.cpp:425] inception_4b/relu_pool_proj <- inception_4b/pool_proj
I0403 13:40:01.607815 32676 net.cpp:386] inception_4b/relu_pool_proj -> inception_4b/pool_proj (in-place)
I0403 13:40:01.607992 32676 net.cpp:141] Setting up inception_4b/relu_pool_proj
I0403 13:40:01.608017 32676 net.cpp:148] Top shape: 24 64 14 14 (301056)
I0403 13:40:01.608032 32676 net.cpp:156] Memory required for data: 980223264
I0403 13:40:01.608047 32676 layer_factory.hpp:77] Creating layer inception_4b/output
I0403 13:40:01.608065 32676 net.cpp:91] Creating Layer inception_4b/output
I0403 13:40:01.608081 32676 net.cpp:425] inception_4b/output <- inception_4b/1x1
I0403 13:40:01.608098 32676 net.cpp:425] inception_4b/output <- inception_4b/3x3
I0403 13:40:01.608114 32676 net.cpp:425] inception_4b/output <- inception_4b/5x5
I0403 13:40:01.608129 32676 net.cpp:425] inception_4b/output <- inception_4b/pool_proj
I0403 13:40:01.608145 32676 net.cpp:399] inception_4b/output -> inception_4b/output
I0403 13:40:01.608193 32676 net.cpp:141] Setting up inception_4b/output
I0403 13:40:01.608220 32676 net.cpp:148] Top shape: 24 512 14 14 (2408448)
I0403 13:40:01.608235 32676 net.cpp:156] Memory required for data: 989857056
I0403 13:40:01.608263 32676 layer_factory.hpp:77] Creating layer inception_4b/output_inception_4b/output_0_split
I0403 13:40:01.608281 32676 net.cpp:91] Creating Layer inception_4b/output_inception_4b/output_0_split
I0403 13:40:01.608297 32676 net.cpp:425] inception_4b/output_inception_4b/output_0_split <- inception_4b/output
I0403 13:40:01.608317 32676 net.cpp:399] inception_4b/output_inception_4b/output_0_split -> inception_4b/output_inception_4b/output_0_split_0
I0403 13:40:01.608338 32676 net.cpp:399] inception_4b/output_inception_4b/output_0_split -> inception_4b/output_inception_4b/output_0_split_1
I0403 13:40:01.608358 32676 net.cpp:399] inception_4b/output_inception_4b/output_0_split -> inception_4b/output_inception_4b/output_0_split_2
I0403 13:40:01.608378 32676 net.cpp:399] inception_4b/output_inception_4b/output_0_split -> inception_4b/output_inception_4b/output_0_split_3
I0403 13:40:01.608464 32676 net.cpp:141] Setting up inception_4b/output_inception_4b/output_0_split
I0403 13:40:01.608489 32676 net.cpp:148] Top shape: 24 512 14 14 (2408448)
I0403 13:40:01.608505 32676 net.cpp:148] Top shape: 24 512 14 14 (2408448)
I0403 13:40:01.608520 32676 net.cpp:148] Top shape: 24 512 14 14 (2408448)
I0403 13:40:01.608536 32676 net.cpp:148] Top shape: 24 512 14 14 (2408448)
I0403 13:40:01.608549 32676 net.cpp:156] Memory required for data: 1028392224
I0403 13:40:01.608564 32676 layer_factory.hpp:77] Creating layer inception_4c/1x1
I0403 13:40:01.608585 32676 net.cpp:91] Creating Layer inception_4c/1x1
I0403 13:40:01.608603 32676 net.cpp:425] inception_4c/1x1 <- inception_4b/output_inception_4b/output_0_split_0
I0403 13:40:01.608623 32676 net.cpp:399] inception_4c/1x1 -> inception_4c/1x1
I0403 13:40:01.610056 32676 net.cpp:141] Setting up inception_4c/1x1
I0403 13:40:01.610085 32676 net.cpp:148] Top shape: 24 128 14 14 (602112)
I0403 13:40:01.610100 32676 net.cpp:156] Memory required for data: 1030800672
I0403 13:40:01.610117 32676 layer_factory.hpp:77] Creating layer inception_4c/relu_1x1
I0403 13:40:01.610138 32676 net.cpp:91] Creating Layer inception_4c/relu_1x1
I0403 13:40:01.610155 32676 net.cpp:425] inception_4c/relu_1x1 <- inception_4c/1x1
I0403 13:40:01.610172 32676 net.cpp:386] inception_4c/relu_1x1 -> inception_4c/1x1 (in-place)
I0403 13:40:01.610360 32676 net.cpp:141] Setting up inception_4c/relu_1x1
I0403 13:40:01.610385 32676 net.cpp:148] Top shape: 24 128 14 14 (602112)
I0403 13:40:01.610400 32676 net.cpp:156] Memory required for data: 1033209120
I0403 13:40:01.610415 32676 layer_factory.hpp:77] Creating layer inception_4c/3x3_reduce
I0403 13:40:01.610437 32676 net.cpp:91] Creating Layer inception_4c/3x3_reduce
I0403 13:40:01.610455 32676 net.cpp:425] inception_4c/3x3_reduce <- inception_4b/output_inception_4b/output_0_split_1
I0403 13:40:01.610476 32676 net.cpp:399] inception_4c/3x3_reduce -> inception_4c/3x3_reduce
I0403 13:40:01.612433 32676 net.cpp:141] Setting up inception_4c/3x3_reduce
I0403 13:40:01.612462 32676 net.cpp:148] Top shape: 24 128 14 14 (602112)
I0403 13:40:01.612478 32676 net.cpp:156] Memory required for data: 1035617568
I0403 13:40:01.612496 32676 layer_factory.hpp:77] Creating layer inception_4c/relu_3x3_reduce
I0403 13:40:01.612514 32676 net.cpp:91] Creating Layer inception_4c/relu_3x3_reduce
I0403 13:40:01.612529 32676 net.cpp:425] inception_4c/relu_3x3_reduce <- inception_4c/3x3_reduce
I0403 13:40:01.612548 32676 net.cpp:386] inception_4c/relu_3x3_reduce -> inception_4c/3x3_reduce (in-place)
I0403 13:40:01.612836 32676 net.cpp:141] Setting up inception_4c/relu_3x3_reduce
I0403 13:40:01.612862 32676 net.cpp:148] Top shape: 24 128 14 14 (602112)
I0403 13:40:01.612877 32676 net.cpp:156] Memory required for data: 1038026016
I0403 13:40:01.612891 32676 layer_factory.hpp:77] Creating layer inception_4c/3x3
I0403 13:40:01.612915 32676 net.cpp:91] Creating Layer inception_4c/3x3
I0403 13:40:01.612932 32676 net.cpp:425] inception_4c/3x3 <- inception_4c/3x3_reduce
I0403 13:40:01.612952 32676 net.cpp:399] inception_4c/3x3 -> inception_4c/3x3
I0403 13:40:01.616586 32676 net.cpp:141] Setting up inception_4c/3x3
I0403 13:40:01.616628 32676 net.cpp:148] Top shape: 24 256 14 14 (1204224)
I0403 13:40:01.616644 32676 net.cpp:156] Memory required for data: 1042842912
I0403 13:40:01.616677 32676 layer_factory.hpp:77] Creating layer inception_4c/relu_3x3
I0403 13:40:01.616698 32676 net.cpp:91] Creating Layer inception_4c/relu_3x3
I0403 13:40:01.616716 32676 net.cpp:425] inception_4c/relu_3x3 <- inception_4c/3x3
I0403 13:40:01.616734 32676 net.cpp:386] inception_4c/relu_3x3 -> inception_4c/3x3 (in-place)
I0403 13:40:01.616916 32676 net.cpp:141] Setting up inception_4c/relu_3x3
I0403 13:40:01.616940 32676 net.cpp:148] Top shape: 24 256 14 14 (1204224)
I0403 13:40:01.616955 32676 net.cpp:156] Memory required for data: 1047659808
I0403 13:40:01.616969 32676 layer_factory.hpp:77] Creating layer inception_4c/5x5_reduce
I0403 13:40:01.616996 32676 net.cpp:91] Creating Layer inception_4c/5x5_reduce
I0403 13:40:01.617012 32676 net.cpp:425] inception_4c/5x5_reduce <- inception_4b/output_inception_4b/output_0_split_2
I0403 13:40:01.617033 32676 net.cpp:399] inception_4c/5x5_reduce -> inception_4c/5x5_reduce
I0403 13:40:01.618131 32676 net.cpp:141] Setting up inception_4c/5x5_reduce
I0403 13:40:01.618160 32676 net.cpp:148] Top shape: 24 24 14 14 (112896)
I0403 13:40:01.618176 32676 net.cpp:156] Memory required for data: 1048111392
I0403 13:40:01.618196 32676 layer_factory.hpp:77] Creating layer inception_4c/relu_5x5_reduce
I0403 13:40:01.618217 32676 net.cpp:91] Creating Layer inception_4c/relu_5x5_reduce
I0403 13:40:01.618235 32676 net.cpp:425] inception_4c/relu_5x5_reduce <- inception_4c/5x5_reduce
I0403 13:40:01.618254 32676 net.cpp:386] inception_4c/relu_5x5_reduce -> inception_4c/5x5_reduce (in-place)
I0403 13:40:01.618438 32676 net.cpp:141] Setting up inception_4c/relu_5x5_reduce
I0403 13:40:01.618463 32676 net.cpp:148] Top shape: 24 24 14 14 (112896)
I0403 13:40:01.618479 32676 net.cpp:156] Memory required for data: 1048562976
I0403 13:40:01.618494 32676 layer_factory.hpp:77] Creating layer inception_4c/5x5
I0403 13:40:01.618515 32676 net.cpp:91] Creating Layer inception_4c/5x5
I0403 13:40:01.618532 32676 net.cpp:425] inception_4c/5x5 <- inception_4c/5x5_reduce
I0403 13:40:01.618553 32676 net.cpp:399] inception_4c/5x5 -> inception_4c/5x5
I0403 13:40:01.619803 32676 net.cpp:141] Setting up inception_4c/5x5
I0403 13:40:01.619832 32676 net.cpp:148] Top shape: 24 64 14 14 (301056)
I0403 13:40:01.619845 32676 net.cpp:156] Memory required for data: 1049767200
I0403 13:40:01.619864 32676 layer_factory.hpp:77] Creating layer inception_4c/relu_5x5
I0403 13:40:01.619884 32676 net.cpp:91] Creating Layer inception_4c/relu_5x5
I0403 13:40:01.619901 32676 net.cpp:425] inception_4c/relu_5x5 <- inception_4c/5x5
I0403 13:40:01.619918 32676 net.cpp:386] inception_4c/relu_5x5 -> inception_4c/5x5 (in-place)
I0403 13:40:01.620204 32676 net.cpp:141] Setting up inception_4c/relu_5x5
I0403 13:40:01.620237 32676 net.cpp:148] Top shape: 24 64 14 14 (301056)
I0403 13:40:01.620251 32676 net.cpp:156] Memory required for data: 1050971424
I0403 13:40:01.620266 32676 layer_factory.hpp:77] Creating layer inception_4c/pool
I0403 13:40:01.620286 32676 net.cpp:91] Creating Layer inception_4c/pool
I0403 13:40:01.620303 32676 net.cpp:425] inception_4c/pool <- inception_4b/output_inception_4b/output_0_split_3
I0403 13:40:01.620321 32676 net.cpp:399] inception_4c/pool -> inception_4c/pool
I0403 13:40:01.620388 32676 net.cpp:141] Setting up inception_4c/pool
I0403 13:40:01.620411 32676 net.cpp:148] Top shape: 24 512 14 14 (2408448)
I0403 13:40:01.620426 32676 net.cpp:156] Memory required for data: 1060605216
I0403 13:40:01.620441 32676 layer_factory.hpp:77] Creating layer inception_4c/pool_proj
I0403 13:40:01.620465 32676 net.cpp:91] Creating Layer inception_4c/pool_proj
I0403 13:40:01.620482 32676 net.cpp:425] inception_4c/pool_proj <- inception_4c/pool
I0403 13:40:01.620503 32676 net.cpp:399] inception_4c/pool_proj -> inception_4c/pool_proj
I0403 13:40:01.621726 32676 net.cpp:141] Setting up inception_4c/pool_proj
I0403 13:40:01.621754 32676 net.cpp:148] Top shape: 24 64 14 14 (301056)
I0403 13:40:01.621783 32676 net.cpp:156] Memory required for data: 1061809440
I0403 13:40:01.621803 32676 layer_factory.hpp:77] Creating layer inception_4c/relu_pool_proj
I0403 13:40:01.621824 32676 net.cpp:91] Creating Layer inception_4c/relu_pool_proj
I0403 13:40:01.621841 32676 net.cpp:425] inception_4c/relu_pool_proj <- inception_4c/pool_proj
I0403 13:40:01.621860 32676 net.cpp:386] inception_4c/relu_pool_proj -> inception_4c/pool_proj (in-place)
I0403 13:40:01.622043 32676 net.cpp:141] Setting up inception_4c/relu_pool_proj
I0403 13:40:01.622067 32676 net.cpp:148] Top shape: 24 64 14 14 (301056)
I0403 13:40:01.622082 32676 net.cpp:156] Memory required for data: 1063013664
I0403 13:40:01.622097 32676 layer_factory.hpp:77] Creating layer inception_4c/output
I0403 13:40:01.622117 32676 net.cpp:91] Creating Layer inception_4c/output
I0403 13:40:01.622133 32676 net.cpp:425] inception_4c/output <- inception_4c/1x1
I0403 13:40:01.622149 32676 net.cpp:425] inception_4c/output <- inception_4c/3x3
I0403 13:40:01.622165 32676 net.cpp:425] inception_4c/output <- inception_4c/5x5
I0403 13:40:01.622181 32676 net.cpp:425] inception_4c/output <- inception_4c/pool_proj
I0403 13:40:01.622197 32676 net.cpp:399] inception_4c/output -> inception_4c/output
I0403 13:40:01.622251 32676 net.cpp:141] Setting up inception_4c/output
I0403 13:40:01.622274 32676 net.cpp:148] Top shape: 24 512 14 14 (2408448)
I0403 13:40:01.622288 32676 net.cpp:156] Memory required for data: 1072647456
I0403 13:40:01.622303 32676 layer_factory.hpp:77] Creating layer inception_4c/output_inception_4c/output_0_split
I0403 13:40:01.622319 32676 net.cpp:91] Creating Layer inception_4c/output_inception_4c/output_0_split
I0403 13:40:01.622334 32676 net.cpp:425] inception_4c/output_inception_4c/output_0_split <- inception_4c/output
I0403 13:40:01.622354 32676 net.cpp:399] inception_4c/output_inception_4c/output_0_split -> inception_4c/output_inception_4c/output_0_split_0
I0403 13:40:01.622375 32676 net.cpp:399] inception_4c/output_inception_4c/output_0_split -> inception_4c/output_inception_4c/output_0_split_1
I0403 13:40:01.622395 32676 net.cpp:399] inception_4c/output_inception_4c/output_0_split -> inception_4c/output_inception_4c/output_0_split_2
I0403 13:40:01.622416 32676 net.cpp:399] inception_4c/output_inception_4c/output_0_split -> inception_4c/output_inception_4c/output_0_split_3
I0403 13:40:01.622505 32676 net.cpp:141] Setting up inception_4c/output_inception_4c/output_0_split
I0403 13:40:01.622530 32676 net.cpp:148] Top shape: 24 512 14 14 (2408448)
I0403 13:40:01.622547 32676 net.cpp:148] Top shape: 24 512 14 14 (2408448)
I0403 13:40:01.622562 32676 net.cpp:148] Top shape: 24 512 14 14 (2408448)
I0403 13:40:01.622577 32676 net.cpp:148] Top shape: 24 512 14 14 (2408448)
I0403 13:40:01.622591 32676 net.cpp:156] Memory required for data: 1111182624
I0403 13:40:01.622606 32676 layer_factory.hpp:77] Creating layer inception_4d/1x1
I0403 13:40:01.622627 32676 net.cpp:91] Creating Layer inception_4d/1x1
I0403 13:40:01.622643 32676 net.cpp:425] inception_4d/1x1 <- inception_4c/output_inception_4c/output_0_split_0
I0403 13:40:01.622663 32676 net.cpp:399] inception_4d/1x1 -> inception_4d/1x1
I0403 13:40:01.624148 32676 net.cpp:141] Setting up inception_4d/1x1
I0403 13:40:01.624179 32676 net.cpp:148] Top shape: 24 112 14 14 (526848)
I0403 13:40:01.624196 32676 net.cpp:156] Memory required for data: 1113290016
I0403 13:40:01.624219 32676 layer_factory.hpp:77] Creating layer inception_4d/relu_1x1
I0403 13:40:01.624239 32676 net.cpp:91] Creating Layer inception_4d/relu_1x1
I0403 13:40:01.624256 32676 net.cpp:425] inception_4d/relu_1x1 <- inception_4d/1x1
I0403 13:40:01.624276 32676 net.cpp:386] inception_4d/relu_1x1 -> inception_4d/1x1 (in-place)
I0403 13:40:01.624467 32676 net.cpp:141] Setting up inception_4d/relu_1x1
I0403 13:40:01.624493 32676 net.cpp:148] Top shape: 24 112 14 14 (526848)
I0403 13:40:01.624508 32676 net.cpp:156] Memory required for data: 1115397408
I0403 13:40:01.624523 32676 layer_factory.hpp:77] Creating layer inception_4d/3x3_reduce
I0403 13:40:01.624562 32676 net.cpp:91] Creating Layer inception_4d/3x3_reduce
I0403 13:40:01.624582 32676 net.cpp:425] inception_4d/3x3_reduce <- inception_4c/output_inception_4c/output_0_split_1
I0403 13:40:01.624604 32676 net.cpp:399] inception_4d/3x3_reduce -> inception_4d/3x3_reduce
I0403 13:40:01.626168 32676 net.cpp:141] Setting up inception_4d/3x3_reduce
I0403 13:40:01.626199 32676 net.cpp:148] Top shape: 24 144 14 14 (677376)
I0403 13:40:01.626220 32676 net.cpp:156] Memory required for data: 1118106912
I0403 13:40:01.626240 32676 layer_factory.hpp:77] Creating layer inception_4d/relu_3x3_reduce
I0403 13:40:01.626258 32676 net.cpp:91] Creating Layer inception_4d/relu_3x3_reduce
I0403 13:40:01.626276 32676 net.cpp:425] inception_4d/relu_3x3_reduce <- inception_4d/3x3_reduce
I0403 13:40:01.626292 32676 net.cpp:386] inception_4d/relu_3x3_reduce -> inception_4d/3x3_reduce (in-place)
I0403 13:40:01.626592 32676 net.cpp:141] Setting up inception_4d/relu_3x3_reduce
I0403 13:40:01.626622 32676 net.cpp:148] Top shape: 24 144 14 14 (677376)
I0403 13:40:01.626637 32676 net.cpp:156] Memory required for data: 1120816416
I0403 13:40:01.626652 32676 layer_factory.hpp:77] Creating layer inception_4d/3x3
I0403 13:40:01.626673 32676 net.cpp:91] Creating Layer inception_4d/3x3
I0403 13:40:01.626689 32676 net.cpp:425] inception_4d/3x3 <- inception_4d/3x3_reduce
I0403 13:40:01.626711 32676 net.cpp:399] inception_4d/3x3 -> inception_4d/3x3
I0403 13:40:01.631129 32676 net.cpp:141] Setting up inception_4d/3x3
I0403 13:40:01.631160 32676 net.cpp:148] Top shape: 24 288 14 14 (1354752)
I0403 13:40:01.631176 32676 net.cpp:156] Memory required for data: 1126235424
I0403 13:40:01.631196 32676 layer_factory.hpp:77] Creating layer inception_4d/relu_3x3
I0403 13:40:01.631218 32676 net.cpp:91] Creating Layer inception_4d/relu_3x3
I0403 13:40:01.631237 32676 net.cpp:425] inception_4d/relu_3x3 <- inception_4d/3x3
I0403 13:40:01.631256 32676 net.cpp:386] inception_4d/relu_3x3 -> inception_4d/3x3 (in-place)
I0403 13:40:01.631450 32676 net.cpp:141] Setting up inception_4d/relu_3x3
I0403 13:40:01.631477 32676 net.cpp:148] Top shape: 24 288 14 14 (1354752)
I0403 13:40:01.631492 32676 net.cpp:156] Memory required for data: 1131654432
I0403 13:40:01.631506 32676 layer_factory.hpp:77] Creating layer inception_4d/5x5_reduce
I0403 13:40:01.631530 32676 net.cpp:91] Creating Layer inception_4d/5x5_reduce
I0403 13:40:01.631547 32676 net.cpp:425] inception_4d/5x5_reduce <- inception_4c/output_inception_4c/output_0_split_2
I0403 13:40:01.631569 32676 net.cpp:399] inception_4d/5x5_reduce -> inception_4d/5x5_reduce
I0403 13:40:01.632779 32676 net.cpp:141] Setting up inception_4d/5x5_reduce
I0403 13:40:01.632810 32676 net.cpp:148] Top shape: 24 32 14 14 (150528)
I0403 13:40:01.632827 32676 net.cpp:156] Memory required for data: 1132256544
I0403 13:40:01.632845 32676 layer_factory.hpp:77] Creating layer inception_4d/relu_5x5_reduce
I0403 13:40:01.632863 32676 net.cpp:91] Creating Layer inception_4d/relu_5x5_reduce
I0403 13:40:01.632879 32676 net.cpp:425] inception_4d/relu_5x5_reduce <- inception_4d/5x5_reduce
I0403 13:40:01.632900 32676 net.cpp:386] inception_4d/relu_5x5_reduce -> inception_4d/5x5_reduce (in-place)
I0403 13:40:01.633098 32676 net.cpp:141] Setting up inception_4d/relu_5x5_reduce
I0403 13:40:01.633123 32676 net.cpp:148] Top shape: 24 32 14 14 (150528)
I0403 13:40:01.633138 32676 net.cpp:156] Memory required for data: 1132858656
I0403 13:40:01.633153 32676 layer_factory.hpp:77] Creating layer inception_4d/5x5
I0403 13:40:01.633175 32676 net.cpp:91] Creating Layer inception_4d/5x5
I0403 13:40:01.633193 32676 net.cpp:425] inception_4d/5x5 <- inception_4d/5x5_reduce
I0403 13:40:01.633225 32676 net.cpp:399] inception_4d/5x5 -> inception_4d/5x5
I0403 13:40:01.634763 32676 net.cpp:141] Setting up inception_4d/5x5
I0403 13:40:01.634790 32676 net.cpp:148] Top shape: 24 64 14 14 (301056)
I0403 13:40:01.634806 32676 net.cpp:156] Memory required for data: 1134062880
I0403 13:40:01.634825 32676 layer_factory.hpp:77] Creating layer inception_4d/relu_5x5
I0403 13:40:01.634863 32676 net.cpp:91] Creating Layer inception_4d/relu_5x5
I0403 13:40:01.634881 32676 net.cpp:425] inception_4d/relu_5x5 <- inception_4d/5x5
I0403 13:40:01.634899 32676 net.cpp:386] inception_4d/relu_5x5 -> inception_4d/5x5 (in-place)
I0403 13:40:01.635212 32676 net.cpp:141] Setting up inception_4d/relu_5x5
I0403 13:40:01.635241 32676 net.cpp:148] Top shape: 24 64 14 14 (301056)
I0403 13:40:01.635256 32676 net.cpp:156] Memory required for data: 1135267104
I0403 13:40:01.635270 32676 layer_factory.hpp:77] Creating layer inception_4d/pool
I0403 13:40:01.635291 32676 net.cpp:91] Creating Layer inception_4d/pool
I0403 13:40:01.635309 32676 net.cpp:425] inception_4d/pool <- inception_4c/output_inception_4c/output_0_split_3
I0403 13:40:01.635329 32676 net.cpp:399] inception_4d/pool -> inception_4d/pool
I0403 13:40:01.635401 32676 net.cpp:141] Setting up inception_4d/pool
I0403 13:40:01.635424 32676 net.cpp:148] Top shape: 24 512 14 14 (2408448)
I0403 13:40:01.635439 32676 net.cpp:156] Memory required for data: 1144900896
I0403 13:40:01.635453 32676 layer_factory.hpp:77] Creating layer inception_4d/pool_proj
I0403 13:40:01.635478 32676 net.cpp:91] Creating Layer inception_4d/pool_proj
I0403 13:40:01.635495 32676 net.cpp:425] inception_4d/pool_proj <- inception_4d/pool
I0403 13:40:01.635516 32676 net.cpp:399] inception_4d/pool_proj -> inception_4d/pool_proj
I0403 13:40:01.637375 32676 net.cpp:141] Setting up inception_4d/pool_proj
I0403 13:40:01.637405 32676 net.cpp:148] Top shape: 24 64 14 14 (301056)
I0403 13:40:01.637421 32676 net.cpp:156] Memory required for data: 1146105120
I0403 13:40:01.637440 32676 layer_factory.hpp:77] Creating layer inception_4d/relu_pool_proj
I0403 13:40:01.637459 32676 net.cpp:91] Creating Layer inception_4d/relu_pool_proj
I0403 13:40:01.637475 32676 net.cpp:425] inception_4d/relu_pool_proj <- inception_4d/pool_proj
I0403 13:40:01.637495 32676 net.cpp:386] inception_4d/relu_pool_proj -> inception_4d/pool_proj (in-place)
I0403 13:40:01.637693 32676 net.cpp:141] Setting up inception_4d/relu_pool_proj
I0403 13:40:01.637719 32676 net.cpp:148] Top shape: 24 64 14 14 (301056)
I0403 13:40:01.637734 32676 net.cpp:156] Memory required for data: 1147309344
I0403 13:40:01.637749 32676 layer_factory.hpp:77] Creating layer inception_4d/output
I0403 13:40:01.637766 32676 net.cpp:91] Creating Layer inception_4d/output
I0403 13:40:01.637786 32676 net.cpp:425] inception_4d/output <- inception_4d/1x1
I0403 13:40:01.637804 32676 net.cpp:425] inception_4d/output <- inception_4d/3x3
I0403 13:40:01.637820 32676 net.cpp:425] inception_4d/output <- inception_4d/5x5
I0403 13:40:01.637836 32676 net.cpp:425] inception_4d/output <- inception_4d/pool_proj
I0403 13:40:01.637853 32676 net.cpp:399] inception_4d/output -> inception_4d/output
I0403 13:40:01.637902 32676 net.cpp:141] Setting up inception_4d/output
I0403 13:40:01.637929 32676 net.cpp:148] Top shape: 24 528 14 14 (2483712)
I0403 13:40:01.637945 32676 net.cpp:156] Memory required for data: 1157244192
I0403 13:40:01.637960 32676 layer_factory.hpp:77] Creating layer inception_4d/output_inception_4d/output_0_split
I0403 13:40:01.637979 32676 net.cpp:91] Creating Layer inception_4d/output_inception_4d/output_0_split
I0403 13:40:01.637995 32676 net.cpp:425] inception_4d/output_inception_4d/output_0_split <- inception_4d/output
I0403 13:40:01.638015 32676 net.cpp:399] inception_4d/output_inception_4d/output_0_split -> inception_4d/output_inception_4d/output_0_split_0
I0403 13:40:01.638037 32676 net.cpp:399] inception_4d/output_inception_4d/output_0_split -> inception_4d/output_inception_4d/output_0_split_1
I0403 13:40:01.638059 32676 net.cpp:399] inception_4d/output_inception_4d/output_0_split -> inception_4d/output_inception_4d/output_0_split_2
I0403 13:40:01.638080 32676 net.cpp:399] inception_4d/output_inception_4d/output_0_split -> inception_4d/output_inception_4d/output_0_split_3
I0403 13:40:01.638100 32676 net.cpp:399] inception_4d/output_inception_4d/output_0_split -> inception_4d/output_inception_4d/output_0_split_4
I0403 13:40:01.638214 32676 net.cpp:141] Setting up inception_4d/output_inception_4d/output_0_split
I0403 13:40:01.638252 32676 net.cpp:148] Top shape: 24 528 14 14 (2483712)
I0403 13:40:01.638272 32676 net.cpp:148] Top shape: 24 528 14 14 (2483712)
I0403 13:40:01.638288 32676 net.cpp:148] Top shape: 24 528 14 14 (2483712)
I0403 13:40:01.638303 32676 net.cpp:148] Top shape: 24 528 14 14 (2483712)
I0403 13:40:01.638319 32676 net.cpp:148] Top shape: 24 528 14 14 (2483712)
I0403 13:40:01.638334 32676 net.cpp:156] Memory required for data: 1206918432
I0403 13:40:01.638348 32676 layer_factory.hpp:77] Creating layer loss2/ave_pool
I0403 13:40:01.638366 32676 net.cpp:91] Creating Layer loss2/ave_pool
I0403 13:40:01.638382 32676 net.cpp:425] loss2/ave_pool <- inception_4d/output_inception_4d/output_0_split_0
I0403 13:40:01.638403 32676 net.cpp:399] loss2/ave_pool -> loss2/ave_pool
I0403 13:40:01.638728 32676 net.cpp:141] Setting up loss2/ave_pool
I0403 13:40:01.638754 32676 net.cpp:148] Top shape: 24 528 4 4 (202752)
I0403 13:40:01.638770 32676 net.cpp:156] Memory required for data: 1207729440
I0403 13:40:01.638785 32676 layer_factory.hpp:77] Creating layer loss2/conv
I0403 13:40:01.638808 32676 net.cpp:91] Creating Layer loss2/conv
I0403 13:40:01.638828 32676 net.cpp:425] loss2/conv <- loss2/ave_pool
I0403 13:40:01.638849 32676 net.cpp:399] loss2/conv -> loss2/conv
I0403 13:40:01.640821 32676 net.cpp:141] Setting up loss2/conv
I0403 13:40:01.640851 32676 net.cpp:148] Top shape: 24 128 4 4 (49152)
I0403 13:40:01.640866 32676 net.cpp:156] Memory required for data: 1207926048
I0403 13:40:01.640885 32676 layer_factory.hpp:77] Creating layer loss2/relu_conv
I0403 13:40:01.640907 32676 net.cpp:91] Creating Layer loss2/relu_conv
I0403 13:40:01.640923 32676 net.cpp:425] loss2/relu_conv <- loss2/conv
I0403 13:40:01.640941 32676 net.cpp:386] loss2/relu_conv -> loss2/conv (in-place)
I0403 13:40:01.641242 32676 net.cpp:141] Setting up loss2/relu_conv
I0403 13:40:01.641268 32676 net.cpp:148] Top shape: 24 128 4 4 (49152)
I0403 13:40:01.641283 32676 net.cpp:156] Memory required for data: 1208122656
I0403 13:40:01.641299 32676 layer_factory.hpp:77] Creating layer loss2/fc
I0403 13:40:01.641321 32676 net.cpp:91] Creating Layer loss2/fc
I0403 13:40:01.641338 32676 net.cpp:425] loss2/fc <- loss2/conv
I0403 13:40:01.641358 32676 net.cpp:399] loss2/fc -> loss2/fc
I0403 13:40:01.659126 32676 net.cpp:141] Setting up loss2/fc
I0403 13:40:01.659188 32676 net.cpp:148] Top shape: 24 1024 (24576)
I0403 13:40:01.659203 32676 net.cpp:156] Memory required for data: 1208220960
I0403 13:40:01.659226 32676 layer_factory.hpp:77] Creating layer loss2/relu_fc
I0403 13:40:01.659246 32676 net.cpp:91] Creating Layer loss2/relu_fc
I0403 13:40:01.659265 32676 net.cpp:425] loss2/relu_fc <- loss2/fc
I0403 13:40:01.659286 32676 net.cpp:386] loss2/relu_fc -> loss2/fc (in-place)
I0403 13:40:01.659636 32676 net.cpp:141] Setting up loss2/relu_fc
I0403 13:40:01.659662 32676 net.cpp:148] Top shape: 24 1024 (24576)
I0403 13:40:01.659677 32676 net.cpp:156] Memory required for data: 1208319264
I0403 13:40:01.659692 32676 layer_factory.hpp:77] Creating layer loss2/drop_fc
I0403 13:40:01.659709 32676 net.cpp:91] Creating Layer loss2/drop_fc
I0403 13:40:01.659724 32676 net.cpp:425] loss2/drop_fc <- loss2/fc
I0403 13:40:01.659744 32676 net.cpp:386] loss2/drop_fc -> loss2/fc (in-place)
I0403 13:40:01.659795 32676 net.cpp:141] Setting up loss2/drop_fc
I0403 13:40:01.659821 32676 net.cpp:148] Top shape: 24 1024 (24576)
I0403 13:40:01.659835 32676 net.cpp:156] Memory required for data: 1208417568
I0403 13:40:01.659849 32676 layer_factory.hpp:77] Creating layer loss2/classifier_plantvillage
I0403 13:40:01.659868 32676 net.cpp:91] Creating Layer loss2/classifier_plantvillage
I0403 13:40:01.659883 32676 net.cpp:425] loss2/classifier_plantvillage <- loss2/fc
I0403 13:40:01.659904 32676 net.cpp:399] loss2/classifier_plantvillage -> loss2/classifier_plantvillage
I0403 13:40:01.660320 32676 net.cpp:141] Setting up loss2/classifier_plantvillage
I0403 13:40:01.660348 32676 net.cpp:148] Top shape: 24 38 (912)
I0403 13:40:01.660387 32676 net.cpp:156] Memory required for data: 1208421216
I0403 13:40:01.660406 32676 layer_factory.hpp:77] Creating layer loss2/classifier_plantvillage_loss2/classifier_plantvillage_0_split
I0403 13:40:01.660424 32676 net.cpp:91] Creating Layer loss2/classifier_plantvillage_loss2/classifier_plantvillage_0_split
I0403 13:40:01.660440 32676 net.cpp:425] loss2/classifier_plantvillage_loss2/classifier_plantvillage_0_split <- loss2/classifier_plantvillage
I0403 13:40:01.660459 32676 net.cpp:399] loss2/classifier_plantvillage_loss2/classifier_plantvillage_0_split -> loss2/classifier_plantvillage_loss2/classifier_plantvillage_0_split_0
I0403 13:40:01.660478 32676 net.cpp:399] loss2/classifier_plantvillage_loss2/classifier_plantvillage_0_split -> loss2/classifier_plantvillage_loss2/classifier_plantvillage_0_split_1
I0403 13:40:01.660498 32676 net.cpp:399] loss2/classifier_plantvillage_loss2/classifier_plantvillage_0_split -> loss2/classifier_plantvillage_loss2/classifier_plantvillage_0_split_2
I0403 13:40:01.660578 32676 net.cpp:141] Setting up loss2/classifier_plantvillage_loss2/classifier_plantvillage_0_split
I0403 13:40:01.660601 32676 net.cpp:148] Top shape: 24 38 (912)
I0403 13:40:01.660617 32676 net.cpp:148] Top shape: 24 38 (912)
I0403 13:40:01.660632 32676 net.cpp:148] Top shape: 24 38 (912)
I0403 13:40:01.660646 32676 net.cpp:156] Memory required for data: 1208432160
I0403 13:40:01.660660 32676 layer_factory.hpp:77] Creating layer inception_4e/1x1
I0403 13:40:01.660681 32676 net.cpp:91] Creating Layer inception_4e/1x1
I0403 13:40:01.660698 32676 net.cpp:425] inception_4e/1x1 <- inception_4d/output_inception_4d/output_0_split_1
I0403 13:40:01.660720 32676 net.cpp:399] inception_4e/1x1 -> inception_4e/1x1
I0403 13:40:01.662600 32676 net.cpp:141] Setting up inception_4e/1x1
I0403 13:40:01.662628 32676 net.cpp:148] Top shape: 24 256 14 14 (1204224)
I0403 13:40:01.662642 32676 net.cpp:156] Memory required for data: 1213249056
I0403 13:40:01.662660 32676 layer_factory.hpp:77] Creating layer inception_4e/relu_1x1
I0403 13:40:01.662680 32676 net.cpp:91] Creating Layer inception_4e/relu_1x1
I0403 13:40:01.662696 32676 net.cpp:425] inception_4e/relu_1x1 <- inception_4e/1x1
I0403 13:40:01.662714 32676 net.cpp:386] inception_4e/relu_1x1 -> inception_4e/1x1 (in-place)
I0403 13:40:01.663010 32676 net.cpp:141] Setting up inception_4e/relu_1x1
I0403 13:40:01.663036 32676 net.cpp:148] Top shape: 24 256 14 14 (1204224)
I0403 13:40:01.663051 32676 net.cpp:156] Memory required for data: 1218065952
I0403 13:40:01.663065 32676 layer_factory.hpp:77] Creating layer inception_4e/3x3_reduce
I0403 13:40:01.663087 32676 net.cpp:91] Creating Layer inception_4e/3x3_reduce
I0403 13:40:01.663106 32676 net.cpp:425] inception_4e/3x3_reduce <- inception_4d/output_inception_4d/output_0_split_2
I0403 13:40:01.663125 32676 net.cpp:399] inception_4e/3x3_reduce -> inception_4e/3x3_reduce
I0403 13:40:01.665289 32676 net.cpp:141] Setting up inception_4e/3x3_reduce
I0403 13:40:01.665318 32676 net.cpp:148] Top shape: 24 160 14 14 (752640)
I0403 13:40:01.665333 32676 net.cpp:156] Memory required for data: 1221076512
I0403 13:40:01.665352 32676 layer_factory.hpp:77] Creating layer inception_4e/relu_3x3_reduce
I0403 13:40:01.665372 32676 net.cpp:91] Creating Layer inception_4e/relu_3x3_reduce
I0403 13:40:01.665390 32676 net.cpp:425] inception_4e/relu_3x3_reduce <- inception_4e/3x3_reduce
I0403 13:40:01.665406 32676 net.cpp:386] inception_4e/relu_3x3_reduce -> inception_4e/3x3_reduce (in-place)
I0403 13:40:01.665596 32676 net.cpp:141] Setting up inception_4e/relu_3x3_reduce
I0403 13:40:01.665621 32676 net.cpp:148] Top shape: 24 160 14 14 (752640)
I0403 13:40:01.665635 32676 net.cpp:156] Memory required for data: 1224087072
I0403 13:40:01.665649 32676 layer_factory.hpp:77] Creating layer inception_4e/3x3
I0403 13:40:01.665673 32676 net.cpp:91] Creating Layer inception_4e/3x3
I0403 13:40:01.665691 32676 net.cpp:425] inception_4e/3x3 <- inception_4e/3x3_reduce
I0403 13:40:01.665710 32676 net.cpp:399] inception_4e/3x3 -> inception_4e/3x3
I0403 13:40:01.670781 32676 net.cpp:141] Setting up inception_4e/3x3
I0403 13:40:01.670825 32676 net.cpp:148] Top shape: 24 320 14 14 (1505280)
I0403 13:40:01.670841 32676 net.cpp:156] Memory required for data: 1230108192
I0403 13:40:01.670861 32676 layer_factory.hpp:77] Creating layer inception_4e/relu_3x3
I0403 13:40:01.670879 32676 net.cpp:91] Creating Layer inception_4e/relu_3x3
I0403 13:40:01.670897 32676 net.cpp:425] inception_4e/relu_3x3 <- inception_4e/3x3
I0403 13:40:01.670913 32676 net.cpp:386] inception_4e/relu_3x3 -> inception_4e/3x3 (in-place)
I0403 13:40:01.671232 32676 net.cpp:141] Setting up inception_4e/relu_3x3
I0403 13:40:01.671262 32676 net.cpp:148] Top shape: 24 320 14 14 (1505280)
I0403 13:40:01.671278 32676 net.cpp:156] Memory required for data: 1236129312
I0403 13:40:01.671293 32676 layer_factory.hpp:77] Creating layer inception_4e/5x5_reduce
I0403 13:40:01.671316 32676 net.cpp:91] Creating Layer inception_4e/5x5_reduce
I0403 13:40:01.671334 32676 net.cpp:425] inception_4e/5x5_reduce <- inception_4d/output_inception_4d/output_0_split_3
I0403 13:40:01.671353 32676 net.cpp:399] inception_4e/5x5_reduce -> inception_4e/5x5_reduce
I0403 13:40:01.672461 32676 net.cpp:141] Setting up inception_4e/5x5_reduce
I0403 13:40:01.672488 32676 net.cpp:148] Top shape: 24 32 14 14 (150528)
I0403 13:40:01.672504 32676 net.cpp:156] Memory required for data: 1236731424
I0403 13:40:01.672523 32676 layer_factory.hpp:77] Creating layer inception_4e/relu_5x5_reduce
I0403 13:40:01.672543 32676 net.cpp:91] Creating Layer inception_4e/relu_5x5_reduce
I0403 13:40:01.672559 32676 net.cpp:425] inception_4e/relu_5x5_reduce <- inception_4e/5x5_reduce
I0403 13:40:01.672576 32676 net.cpp:386] inception_4e/relu_5x5_reduce -> inception_4e/5x5_reduce (in-place)
I0403 13:40:01.672874 32676 net.cpp:141] Setting up inception_4e/relu_5x5_reduce
I0403 13:40:01.672900 32676 net.cpp:148] Top shape: 24 32 14 14 (150528)
I0403 13:40:01.672915 32676 net.cpp:156] Memory required for data: 1237333536
I0403 13:40:01.672930 32676 layer_factory.hpp:77] Creating layer inception_4e/5x5
I0403 13:40:01.672971 32676 net.cpp:91] Creating Layer inception_4e/5x5
I0403 13:40:01.672989 32676 net.cpp:425] inception_4e/5x5 <- inception_4e/5x5_reduce
I0403 13:40:01.673013 32676 net.cpp:399] inception_4e/5x5 -> inception_4e/5x5
I0403 13:40:01.674899 32676 net.cpp:141] Setting up inception_4e/5x5
I0403 13:40:01.674927 32676 net.cpp:148] Top shape: 24 128 14 14 (602112)
I0403 13:40:01.674942 32676 net.cpp:156] Memory required for data: 1239741984
I0403 13:40:01.674962 32676 layer_factory.hpp:77] Creating layer inception_4e/relu_5x5
I0403 13:40:01.674979 32676 net.cpp:91] Creating Layer inception_4e/relu_5x5
I0403 13:40:01.674996 32676 net.cpp:425] inception_4e/relu_5x5 <- inception_4e/5x5
I0403 13:40:01.675015 32676 net.cpp:386] inception_4e/relu_5x5 -> inception_4e/5x5 (in-place)
I0403 13:40:01.675215 32676 net.cpp:141] Setting up inception_4e/relu_5x5
I0403 13:40:01.675241 32676 net.cpp:148] Top shape: 24 128 14 14 (602112)
I0403 13:40:01.675256 32676 net.cpp:156] Memory required for data: 1242150432
I0403 13:40:01.675269 32676 layer_factory.hpp:77] Creating layer inception_4e/pool
I0403 13:40:01.675290 32676 net.cpp:91] Creating Layer inception_4e/pool
I0403 13:40:01.675307 32676 net.cpp:425] inception_4e/pool <- inception_4d/output_inception_4d/output_0_split_4
I0403 13:40:01.675325 32676 net.cpp:399] inception_4e/pool -> inception_4e/pool
I0403 13:40:01.675398 32676 net.cpp:141] Setting up inception_4e/pool
I0403 13:40:01.675422 32676 net.cpp:148] Top shape: 24 528 14 14 (2483712)
I0403 13:40:01.675436 32676 net.cpp:156] Memory required for data: 1252085280
I0403 13:40:01.675451 32676 layer_factory.hpp:77] Creating layer inception_4e/pool_proj
I0403 13:40:01.675475 32676 net.cpp:91] Creating Layer inception_4e/pool_proj
I0403 13:40:01.675493 32676 net.cpp:425] inception_4e/pool_proj <- inception_4e/pool
I0403 13:40:01.675513 32676 net.cpp:399] inception_4e/pool_proj -> inception_4e/pool_proj
I0403 13:40:01.677031 32676 net.cpp:141] Setting up inception_4e/pool_proj
I0403 13:40:01.677070 32676 net.cpp:148] Top shape: 24 128 14 14 (602112)
I0403 13:40:01.677086 32676 net.cpp:156] Memory required for data: 1254493728
I0403 13:40:01.677104 32676 layer_factory.hpp:77] Creating layer inception_4e/relu_pool_proj
I0403 13:40:01.677122 32676 net.cpp:91] Creating Layer inception_4e/relu_pool_proj
I0403 13:40:01.677139 32676 net.cpp:425] inception_4e/relu_pool_proj <- inception_4e/pool_proj
I0403 13:40:01.677158 32676 net.cpp:386] inception_4e/relu_pool_proj -> inception_4e/pool_proj (in-place)
I0403 13:40:01.677459 32676 net.cpp:141] Setting up inception_4e/relu_pool_proj
I0403 13:40:01.677485 32676 net.cpp:148] Top shape: 24 128 14 14 (602112)
I0403 13:40:01.677500 32676 net.cpp:156] Memory required for data: 1256902176
I0403 13:40:01.677515 32676 layer_factory.hpp:77] Creating layer inception_4e/output
I0403 13:40:01.677532 32676 net.cpp:91] Creating Layer inception_4e/output
I0403 13:40:01.677548 32676 net.cpp:425] inception_4e/output <- inception_4e/1x1
I0403 13:40:01.677566 32676 net.cpp:425] inception_4e/output <- inception_4e/3x3
I0403 13:40:01.677582 32676 net.cpp:425] inception_4e/output <- inception_4e/5x5
I0403 13:40:01.677598 32676 net.cpp:425] inception_4e/output <- inception_4e/pool_proj
I0403 13:40:01.677618 32676 net.cpp:399] inception_4e/output -> inception_4e/output
I0403 13:40:01.677669 32676 net.cpp:141] Setting up inception_4e/output
I0403 13:40:01.677696 32676 net.cpp:148] Top shape: 24 832 14 14 (3913728)
I0403 13:40:01.677712 32676 net.cpp:156] Memory required for data: 1272557088
I0403 13:40:01.677726 32676 layer_factory.hpp:77] Creating layer pool4/3x3_s2
I0403 13:40:01.677744 32676 net.cpp:91] Creating Layer pool4/3x3_s2
I0403 13:40:01.677759 32676 net.cpp:425] pool4/3x3_s2 <- inception_4e/output
I0403 13:40:01.677778 32676 net.cpp:399] pool4/3x3_s2 -> pool4/3x3_s2
I0403 13:40:01.677846 32676 net.cpp:141] Setting up pool4/3x3_s2
I0403 13:40:01.677870 32676 net.cpp:148] Top shape: 24 832 7 7 (978432)
I0403 13:40:01.677886 32676 net.cpp:156] Memory required for data: 1276470816
I0403 13:40:01.677899 32676 layer_factory.hpp:77] Creating layer pool4/3x3_s2_pool4/3x3_s2_0_split
I0403 13:40:01.677917 32676 net.cpp:91] Creating Layer pool4/3x3_s2_pool4/3x3_s2_0_split
I0403 13:40:01.677932 32676 net.cpp:425] pool4/3x3_s2_pool4/3x3_s2_0_split <- pool4/3x3_s2
I0403 13:40:01.677950 32676 net.cpp:399] pool4/3x3_s2_pool4/3x3_s2_0_split -> pool4/3x3_s2_pool4/3x3_s2_0_split_0
I0403 13:40:01.677973 32676 net.cpp:399] pool4/3x3_s2_pool4/3x3_s2_0_split -> pool4/3x3_s2_pool4/3x3_s2_0_split_1
I0403 13:40:01.677994 32676 net.cpp:399] pool4/3x3_s2_pool4/3x3_s2_0_split -> pool4/3x3_s2_pool4/3x3_s2_0_split_2
I0403 13:40:01.678014 32676 net.cpp:399] pool4/3x3_s2_pool4/3x3_s2_0_split -> pool4/3x3_s2_pool4/3x3_s2_0_split_3
I0403 13:40:01.678110 32676 net.cpp:141] Setting up pool4/3x3_s2_pool4/3x3_s2_0_split
I0403 13:40:01.678134 32676 net.cpp:148] Top shape: 24 832 7 7 (978432)
I0403 13:40:01.678150 32676 net.cpp:148] Top shape: 24 832 7 7 (978432)
I0403 13:40:01.678165 32676 net.cpp:148] Top shape: 24 832 7 7 (978432)
I0403 13:40:01.678179 32676 net.cpp:148] Top shape: 24 832 7 7 (978432)
I0403 13:40:01.678194 32676 net.cpp:156] Memory required for data: 1292125728
I0403 13:40:01.678211 32676 layer_factory.hpp:77] Creating layer inception_5a/1x1
I0403 13:40:01.678236 32676 net.cpp:91] Creating Layer inception_5a/1x1
I0403 13:40:01.678253 32676 net.cpp:425] inception_5a/1x1 <- pool4/3x3_s2_pool4/3x3_s2_0_split_0
I0403 13:40:01.678274 32676 net.cpp:399] inception_5a/1x1 -> inception_5a/1x1
I0403 13:40:01.681216 32676 net.cpp:141] Setting up inception_5a/1x1
I0403 13:40:01.681246 32676 net.cpp:148] Top shape: 24 256 7 7 (301056)
I0403 13:40:01.681262 32676 net.cpp:156] Memory required for data: 1293329952
I0403 13:40:01.681280 32676 layer_factory.hpp:77] Creating layer inception_5a/relu_1x1
I0403 13:40:01.681301 32676 net.cpp:91] Creating Layer inception_5a/relu_1x1
I0403 13:40:01.681318 32676 net.cpp:425] inception_5a/relu_1x1 <- inception_5a/1x1
I0403 13:40:01.681336 32676 net.cpp:386] inception_5a/relu_1x1 -> inception_5a/1x1 (in-place)
I0403 13:40:01.681658 32676 net.cpp:141] Setting up inception_5a/relu_1x1
I0403 13:40:01.681685 32676 net.cpp:148] Top shape: 24 256 7 7 (301056)
I0403 13:40:01.681700 32676 net.cpp:156] Memory required for data: 1294534176
I0403 13:40:01.681715 32676 layer_factory.hpp:77] Creating layer inception_5a/3x3_reduce
I0403 13:40:01.681737 32676 net.cpp:91] Creating Layer inception_5a/3x3_reduce
I0403 13:40:01.681756 32676 net.cpp:425] inception_5a/3x3_reduce <- pool4/3x3_s2_pool4/3x3_s2_0_split_1
I0403 13:40:01.681777 32676 net.cpp:399] inception_5a/3x3_reduce -> inception_5a/3x3_reduce
I0403 13:40:01.684335 32676 net.cpp:141] Setting up inception_5a/3x3_reduce
I0403 13:40:01.684370 32676 net.cpp:148] Top shape: 24 160 7 7 (188160)
I0403 13:40:01.684387 32676 net.cpp:156] Memory required for data: 1295286816
I0403 13:40:01.684406 32676 layer_factory.hpp:77] Creating layer inception_5a/relu_3x3_reduce
I0403 13:40:01.684424 32676 net.cpp:91] Creating Layer inception_5a/relu_3x3_reduce
I0403 13:40:01.684442 32676 net.cpp:425] inception_5a/relu_3x3_reduce <- inception_5a/3x3_reduce
I0403 13:40:01.684461 32676 net.cpp:386] inception_5a/relu_3x3_reduce -> inception_5a/3x3_reduce (in-place)
I0403 13:40:01.684659 32676 net.cpp:141] Setting up inception_5a/relu_3x3_reduce
I0403 13:40:01.684685 32676 net.cpp:148] Top shape: 24 160 7 7 (188160)
I0403 13:40:01.684700 32676 net.cpp:156] Memory required for data: 1296039456
I0403 13:40:01.684715 32676 layer_factory.hpp:77] Creating layer inception_5a/3x3
I0403 13:40:01.684737 32676 net.cpp:91] Creating Layer inception_5a/3x3
I0403 13:40:01.684756 32676 net.cpp:425] inception_5a/3x3 <- inception_5a/3x3_reduce
I0403 13:40:01.684778 32676 net.cpp:399] inception_5a/3x3 -> inception_5a/3x3
I0403 13:40:01.689945 32676 net.cpp:141] Setting up inception_5a/3x3
I0403 13:40:01.689975 32676 net.cpp:148] Top shape: 24 320 7 7 (376320)
I0403 13:40:01.689990 32676 net.cpp:156] Memory required for data: 1297544736
I0403 13:40:01.690008 32676 layer_factory.hpp:77] Creating layer inception_5a/relu_3x3
I0403 13:40:01.690026 32676 net.cpp:91] Creating Layer inception_5a/relu_3x3
I0403 13:40:01.690042 32676 net.cpp:425] inception_5a/relu_3x3 <- inception_5a/3x3
I0403 13:40:01.690062 32676 net.cpp:386] inception_5a/relu_3x3 -> inception_5a/3x3 (in-place)
I0403 13:40:01.690366 32676 net.cpp:141] Setting up inception_5a/relu_3x3
I0403 13:40:01.690392 32676 net.cpp:148] Top shape: 24 320 7 7 (376320)
I0403 13:40:01.690407 32676 net.cpp:156] Memory required for data: 1299050016
I0403 13:40:01.690423 32676 layer_factory.hpp:77] Creating layer inception_5a/5x5_reduce
I0403 13:40:01.690444 32676 net.cpp:91] Creating Layer inception_5a/5x5_reduce
I0403 13:40:01.690464 32676 net.cpp:425] inception_5a/5x5_reduce <- pool4/3x3_s2_pool4/3x3_s2_0_split_2
I0403 13:40:01.690485 32676 net.cpp:399] inception_5a/5x5_reduce -> inception_5a/5x5_reduce
I0403 13:40:01.691720 32676 net.cpp:141] Setting up inception_5a/5x5_reduce
I0403 13:40:01.691751 32676 net.cpp:148] Top shape: 24 32 7 7 (37632)
I0403 13:40:01.691766 32676 net.cpp:156] Memory required for data: 1299200544
I0403 13:40:01.691784 32676 layer_factory.hpp:77] Creating layer inception_5a/relu_5x5_reduce
I0403 13:40:01.691802 32676 net.cpp:91] Creating Layer inception_5a/relu_5x5_reduce
I0403 13:40:01.691819 32676 net.cpp:425] inception_5a/relu_5x5_reduce <- inception_5a/5x5_reduce
I0403 13:40:01.691836 32676 net.cpp:386] inception_5a/relu_5x5_reduce -> inception_5a/5x5_reduce (in-place)
I0403 13:40:01.692142 32676 net.cpp:141] Setting up inception_5a/relu_5x5_reduce
I0403 13:40:01.692168 32676 net.cpp:148] Top shape: 24 32 7 7 (37632)
I0403 13:40:01.692183 32676 net.cpp:156] Memory required for data: 1299351072
I0403 13:40:01.692198 32676 layer_factory.hpp:77] Creating layer inception_5a/5x5
I0403 13:40:01.692224 32676 net.cpp:91] Creating Layer inception_5a/5x5
I0403 13:40:01.692242 32676 net.cpp:425] inception_5a/5x5 <- inception_5a/5x5_reduce
I0403 13:40:01.692265 32676 net.cpp:399] inception_5a/5x5 -> inception_5a/5x5
I0403 13:40:01.694064 32676 net.cpp:141] Setting up inception_5a/5x5
I0403 13:40:01.694106 32676 net.cpp:148] Top shape: 24 128 7 7 (150528)
I0403 13:40:01.694123 32676 net.cpp:156] Memory required for data: 1299953184
I0403 13:40:01.694141 32676 layer_factory.hpp:77] Creating layer inception_5a/relu_5x5
I0403 13:40:01.694160 32676 net.cpp:91] Creating Layer inception_5a/relu_5x5
I0403 13:40:01.694176 32676 net.cpp:425] inception_5a/relu_5x5 <- inception_5a/5x5
I0403 13:40:01.694196 32676 net.cpp:386] inception_5a/relu_5x5 -> inception_5a/5x5 (in-place)
I0403 13:40:01.694407 32676 net.cpp:141] Setting up inception_5a/relu_5x5
I0403 13:40:01.694432 32676 net.cpp:148] Top shape: 24 128 7 7 (150528)
I0403 13:40:01.694447 32676 net.cpp:156] Memory required for data: 1300555296
I0403 13:40:01.694461 32676 layer_factory.hpp:77] Creating layer inception_5a/pool
I0403 13:40:01.694480 32676 net.cpp:91] Creating Layer inception_5a/pool
I0403 13:40:01.694497 32676 net.cpp:425] inception_5a/pool <- pool4/3x3_s2_pool4/3x3_s2_0_split_3
I0403 13:40:01.694515 32676 net.cpp:399] inception_5a/pool -> inception_5a/pool
I0403 13:40:01.694602 32676 net.cpp:141] Setting up inception_5a/pool
I0403 13:40:01.694627 32676 net.cpp:148] Top shape: 24 832 7 7 (978432)
I0403 13:40:01.694641 32676 net.cpp:156] Memory required for data: 1304469024
I0403 13:40:01.694655 32676 layer_factory.hpp:77] Creating layer inception_5a/pool_proj
I0403 13:40:01.694677 32676 net.cpp:91] Creating Layer inception_5a/pool_proj
I0403 13:40:01.694695 32676 net.cpp:425] inception_5a/pool_proj <- inception_5a/pool
I0403 13:40:01.694717 32676 net.cpp:399] inception_5a/pool_proj -> inception_5a/pool_proj
I0403 13:40:01.697082 32676 net.cpp:141] Setting up inception_5a/pool_proj
I0403 13:40:01.697116 32676 net.cpp:148] Top shape: 24 128 7 7 (150528)
I0403 13:40:01.697134 32676 net.cpp:156] Memory required for data: 1305071136
I0403 13:40:01.697154 32676 layer_factory.hpp:77] Creating layer inception_5a/relu_pool_proj
I0403 13:40:01.697171 32676 net.cpp:91] Creating Layer inception_5a/relu_pool_proj
I0403 13:40:01.697188 32676 net.cpp:425] inception_5a/relu_pool_proj <- inception_5a/pool_proj
I0403 13:40:01.697212 32676 net.cpp:386] inception_5a/relu_pool_proj -> inception_5a/pool_proj (in-place)
I0403 13:40:01.697556 32676 net.cpp:141] Setting up inception_5a/relu_pool_proj
I0403 13:40:01.697583 32676 net.cpp:148] Top shape: 24 128 7 7 (150528)
I0403 13:40:01.697599 32676 net.cpp:156] Memory required for data: 1305673248
I0403 13:40:01.697613 32676 layer_factory.hpp:77] Creating layer inception_5a/output
I0403 13:40:01.697631 32676 net.cpp:91] Creating Layer inception_5a/output
I0403 13:40:01.697648 32676 net.cpp:425] inception_5a/output <- inception_5a/1x1
I0403 13:40:01.697664 32676 net.cpp:425] inception_5a/output <- inception_5a/3x3
I0403 13:40:01.697680 32676 net.cpp:425] inception_5a/output <- inception_5a/5x5
I0403 13:40:01.697708 32676 net.cpp:425] inception_5a/output <- inception_5a/pool_proj
I0403 13:40:01.697727 32676 net.cpp:399] inception_5a/output -> inception_5a/output
I0403 13:40:01.697777 32676 net.cpp:141] Setting up inception_5a/output
I0403 13:40:01.697798 32676 net.cpp:148] Top shape: 24 832 7 7 (978432)
I0403 13:40:01.697813 32676 net.cpp:156] Memory required for data: 1309586976
I0403 13:40:01.697827 32676 layer_factory.hpp:77] Creating layer inception_5a/output_inception_5a/output_0_split
I0403 13:40:01.697847 32676 net.cpp:91] Creating Layer inception_5a/output_inception_5a/output_0_split
I0403 13:40:01.697862 32676 net.cpp:425] inception_5a/output_inception_5a/output_0_split <- inception_5a/output
I0403 13:40:01.697880 32676 net.cpp:399] inception_5a/output_inception_5a/output_0_split -> inception_5a/output_inception_5a/output_0_split_0
I0403 13:40:01.697903 32676 net.cpp:399] inception_5a/output_inception_5a/output_0_split -> inception_5a/output_inception_5a/output_0_split_1
I0403 13:40:01.697924 32676 net.cpp:399] inception_5a/output_inception_5a/output_0_split -> inception_5a/output_inception_5a/output_0_split_2
I0403 13:40:01.697945 32676 net.cpp:399] inception_5a/output_inception_5a/output_0_split -> inception_5a/output_inception_5a/output_0_split_3
I0403 13:40:01.698053 32676 net.cpp:141] Setting up inception_5a/output_inception_5a/output_0_split
I0403 13:40:01.698077 32676 net.cpp:148] Top shape: 24 832 7 7 (978432)
I0403 13:40:01.698093 32676 net.cpp:148] Top shape: 24 832 7 7 (978432)
I0403 13:40:01.698108 32676 net.cpp:148] Top shape: 24 832 7 7 (978432)
I0403 13:40:01.698123 32676 net.cpp:148] Top shape: 24 832 7 7 (978432)
I0403 13:40:01.698137 32676 net.cpp:156] Memory required for data: 1325241888
I0403 13:40:01.698149 32676 layer_factory.hpp:77] Creating layer inception_5b/1x1
I0403 13:40:01.698171 32676 net.cpp:91] Creating Layer inception_5b/1x1
I0403 13:40:01.698189 32676 net.cpp:425] inception_5b/1x1 <- inception_5a/output_inception_5a/output_0_split_0
I0403 13:40:01.698212 32676 net.cpp:399] inception_5b/1x1 -> inception_5b/1x1
I0403 13:40:01.702019 32676 net.cpp:141] Setting up inception_5b/1x1
I0403 13:40:01.702050 32676 net.cpp:148] Top shape: 24 384 7 7 (451584)
I0403 13:40:01.702066 32676 net.cpp:156] Memory required for data: 1327048224
I0403 13:40:01.702085 32676 layer_factory.hpp:77] Creating layer inception_5b/relu_1x1
I0403 13:40:01.702101 32676 net.cpp:91] Creating Layer inception_5b/relu_1x1
I0403 13:40:01.702116 32676 net.cpp:425] inception_5b/relu_1x1 <- inception_5b/1x1
I0403 13:40:01.702136 32676 net.cpp:386] inception_5b/relu_1x1 -> inception_5b/1x1 (in-place)
I0403 13:40:01.702438 32676 net.cpp:141] Setting up inception_5b/relu_1x1
I0403 13:40:01.702466 32676 net.cpp:148] Top shape: 24 384 7 7 (451584)
I0403 13:40:01.702481 32676 net.cpp:156] Memory required for data: 1328854560
I0403 13:40:01.702497 32676 layer_factory.hpp:77] Creating layer inception_5b/3x3_reduce
I0403 13:40:01.702519 32676 net.cpp:91] Creating Layer inception_5b/3x3_reduce
I0403 13:40:01.702536 32676 net.cpp:425] inception_5b/3x3_reduce <- inception_5a/output_inception_5a/output_0_split_1
I0403 13:40:01.702555 32676 net.cpp:399] inception_5b/3x3_reduce -> inception_5b/3x3_reduce
I0403 13:40:01.705245 32676 net.cpp:141] Setting up inception_5b/3x3_reduce
I0403 13:40:01.705276 32676 net.cpp:148] Top shape: 24 192 7 7 (225792)
I0403 13:40:01.705291 32676 net.cpp:156] Memory required for data: 1329757728
I0403 13:40:01.705309 32676 layer_factory.hpp:77] Creating layer inception_5b/relu_3x3_reduce
I0403 13:40:01.705327 32676 net.cpp:91] Creating Layer inception_5b/relu_3x3_reduce
I0403 13:40:01.705341 32676 net.cpp:425] inception_5b/relu_3x3_reduce <- inception_5b/3x3_reduce
I0403 13:40:01.705360 32676 net.cpp:386] inception_5b/relu_3x3_reduce -> inception_5b/3x3_reduce (in-place)
I0403 13:40:01.705548 32676 net.cpp:141] Setting up inception_5b/relu_3x3_reduce
I0403 13:40:01.705571 32676 net.cpp:148] Top shape: 24 192 7 7 (225792)
I0403 13:40:01.705585 32676 net.cpp:156] Memory required for data: 1330660896
I0403 13:40:01.705600 32676 layer_factory.hpp:77] Creating layer inception_5b/3x3
I0403 13:40:01.705621 32676 net.cpp:91] Creating Layer inception_5b/3x3
I0403 13:40:01.705638 32676 net.cpp:425] inception_5b/3x3 <- inception_5b/3x3_reduce
I0403 13:40:01.705659 32676 net.cpp:399] inception_5b/3x3 -> inception_5b/3x3
I0403 13:40:01.712373 32676 net.cpp:141] Setting up inception_5b/3x3
I0403 13:40:01.712406 32676 net.cpp:148] Top shape: 24 384 7 7 (451584)
I0403 13:40:01.712422 32676 net.cpp:156] Memory required for data: 1332467232
I0403 13:40:01.712441 32676 layer_factory.hpp:77] Creating layer inception_5b/relu_3x3
I0403 13:40:01.712458 32676 net.cpp:91] Creating Layer inception_5b/relu_3x3
I0403 13:40:01.712474 32676 net.cpp:425] inception_5b/relu_3x3 <- inception_5b/3x3
I0403 13:40:01.712494 32676 net.cpp:386] inception_5b/relu_3x3 -> inception_5b/3x3 (in-place)
I0403 13:40:01.712797 32676 net.cpp:141] Setting up inception_5b/relu_3x3
I0403 13:40:01.712823 32676 net.cpp:148] Top shape: 24 384 7 7 (451584)
I0403 13:40:01.712838 32676 net.cpp:156] Memory required for data: 1334273568
I0403 13:40:01.712853 32676 layer_factory.hpp:77] Creating layer inception_5b/5x5_reduce
I0403 13:40:01.712894 32676 net.cpp:91] Creating Layer inception_5b/5x5_reduce
I0403 13:40:01.712913 32676 net.cpp:425] inception_5b/5x5_reduce <- inception_5a/output_inception_5a/output_0_split_2
I0403 13:40:01.712934 32676 net.cpp:399] inception_5b/5x5_reduce -> inception_5b/5x5_reduce
I0403 13:40:01.714246 32676 net.cpp:141] Setting up inception_5b/5x5_reduce
I0403 13:40:01.714273 32676 net.cpp:148] Top shape: 24 48 7 7 (56448)
I0403 13:40:01.714289 32676 net.cpp:156] Memory required for data: 1334499360
I0403 13:40:01.714308 32676 layer_factory.hpp:77] Creating layer inception_5b/relu_5x5_reduce
I0403 13:40:01.714324 32676 net.cpp:91] Creating Layer inception_5b/relu_5x5_reduce
I0403 13:40:01.714341 32676 net.cpp:425] inception_5b/relu_5x5_reduce <- inception_5b/5x5_reduce
I0403 13:40:01.714360 32676 net.cpp:386] inception_5b/relu_5x5_reduce -> inception_5b/5x5_reduce (in-place)
I0403 13:40:01.714736 32676 net.cpp:141] Setting up inception_5b/relu_5x5_reduce
I0403 13:40:01.714763 32676 net.cpp:148] Top shape: 24 48 7 7 (56448)
I0403 13:40:01.714779 32676 net.cpp:156] Memory required for data: 1334725152
I0403 13:40:01.714793 32676 layer_factory.hpp:77] Creating layer inception_5b/5x5
I0403 13:40:01.714814 32676 net.cpp:91] Creating Layer inception_5b/5x5
I0403 13:40:01.714831 32676 net.cpp:425] inception_5b/5x5 <- inception_5b/5x5_reduce
I0403 13:40:01.714850 32676 net.cpp:399] inception_5b/5x5 -> inception_5b/5x5
I0403 13:40:01.716969 32676 net.cpp:141] Setting up inception_5b/5x5
I0403 13:40:01.716996 32676 net.cpp:148] Top shape: 24 128 7 7 (150528)
I0403 13:40:01.717011 32676 net.cpp:156] Memory required for data: 1335327264
I0403 13:40:01.717028 32676 layer_factory.hpp:77] Creating layer inception_5b/relu_5x5
I0403 13:40:01.717047 32676 net.cpp:91] Creating Layer inception_5b/relu_5x5
I0403 13:40:01.717064 32676 net.cpp:425] inception_5b/relu_5x5 <- inception_5b/5x5
I0403 13:40:01.717082 32676 net.cpp:386] inception_5b/relu_5x5 -> inception_5b/5x5 (in-place)
I0403 13:40:01.717288 32676 net.cpp:141] Setting up inception_5b/relu_5x5
I0403 13:40:01.717311 32676 net.cpp:148] Top shape: 24 128 7 7 (150528)
I0403 13:40:01.717325 32676 net.cpp:156] Memory required for data: 1335929376
I0403 13:40:01.717339 32676 layer_factory.hpp:77] Creating layer inception_5b/pool
I0403 13:40:01.717360 32676 net.cpp:91] Creating Layer inception_5b/pool
I0403 13:40:01.717376 32676 net.cpp:425] inception_5b/pool <- inception_5a/output_inception_5a/output_0_split_3
I0403 13:40:01.717394 32676 net.cpp:399] inception_5b/pool -> inception_5b/pool
I0403 13:40:01.717468 32676 net.cpp:141] Setting up inception_5b/pool
I0403 13:40:01.717491 32676 net.cpp:148] Top shape: 24 832 7 7 (978432)
I0403 13:40:01.717506 32676 net.cpp:156] Memory required for data: 1339843104
I0403 13:40:01.717519 32676 layer_factory.hpp:77] Creating layer inception_5b/pool_proj
I0403 13:40:01.717541 32676 net.cpp:91] Creating Layer inception_5b/pool_proj
I0403 13:40:01.717560 32676 net.cpp:425] inception_5b/pool_proj <- inception_5b/pool
I0403 13:40:01.717579 32676 net.cpp:399] inception_5b/pool_proj -> inception_5b/pool_proj
I0403 13:40:01.719936 32676 net.cpp:141] Setting up inception_5b/pool_proj
I0403 13:40:01.719964 32676 net.cpp:148] Top shape: 24 128 7 7 (150528)
I0403 13:40:01.719980 32676 net.cpp:156] Memory required for data: 1340445216
I0403 13:40:01.719998 32676 layer_factory.hpp:77] Creating layer inception_5b/relu_pool_proj
I0403 13:40:01.720016 32676 net.cpp:91] Creating Layer inception_5b/relu_pool_proj
I0403 13:40:01.720031 32676 net.cpp:425] inception_5b/relu_pool_proj <- inception_5b/pool_proj
I0403 13:40:01.720052 32676 net.cpp:386] inception_5b/relu_pool_proj -> inception_5b/pool_proj (in-place)
I0403 13:40:01.720353 32676 net.cpp:141] Setting up inception_5b/relu_pool_proj
I0403 13:40:01.720379 32676 net.cpp:148] Top shape: 24 128 7 7 (150528)
I0403 13:40:01.720393 32676 net.cpp:156] Memory required for data: 1341047328
I0403 13:40:01.720407 32676 layer_factory.hpp:77] Creating layer inception_5b/output
I0403 13:40:01.720424 32676 net.cpp:91] Creating Layer inception_5b/output
I0403 13:40:01.720453 32676 net.cpp:425] inception_5b/output <- inception_5b/1x1
I0403 13:40:01.720474 32676 net.cpp:425] inception_5b/output <- inception_5b/3x3
I0403 13:40:01.720489 32676 net.cpp:425] inception_5b/output <- inception_5b/5x5
I0403 13:40:01.720504 32676 net.cpp:425] inception_5b/output <- inception_5b/pool_proj
I0403 13:40:01.720523 32676 net.cpp:399] inception_5b/output -> inception_5b/output
I0403 13:40:01.720576 32676 net.cpp:141] Setting up inception_5b/output
I0403 13:40:01.720600 32676 net.cpp:148] Top shape: 24 1024 7 7 (1204224)
I0403 13:40:01.720615 32676 net.cpp:156] Memory required for data: 1345864224
I0403 13:40:01.720629 32676 layer_factory.hpp:77] Creating layer pool5/7x7_s1
I0403 13:40:01.720646 32676 net.cpp:91] Creating Layer pool5/7x7_s1
I0403 13:40:01.720661 32676 net.cpp:425] pool5/7x7_s1 <- inception_5b/output
I0403 13:40:01.720679 32676 net.cpp:399] pool5/7x7_s1 -> pool5/7x7_s1
I0403 13:40:01.720895 32676 net.cpp:141] Setting up pool5/7x7_s1
I0403 13:40:01.720918 32676 net.cpp:148] Top shape: 24 1024 1 1 (24576)
I0403 13:40:01.720932 32676 net.cpp:156] Memory required for data: 1345962528
I0403 13:40:01.720947 32676 layer_factory.hpp:77] Creating layer pool5/drop_7x7_s1
I0403 13:40:01.720963 32676 net.cpp:91] Creating Layer pool5/drop_7x7_s1
I0403 13:40:01.720978 32676 net.cpp:425] pool5/drop_7x7_s1 <- pool5/7x7_s1
I0403 13:40:01.720998 32676 net.cpp:386] pool5/drop_7x7_s1 -> pool5/7x7_s1 (in-place)
I0403 13:40:01.721047 32676 net.cpp:141] Setting up pool5/drop_7x7_s1
I0403 13:40:01.721072 32676 net.cpp:148] Top shape: 24 1024 1 1 (24576)
I0403 13:40:01.721086 32676 net.cpp:156] Memory required for data: 1346060832
I0403 13:40:01.721101 32676 layer_factory.hpp:77] Creating layer loss3/classifier_plantvillage
I0403 13:40:01.721118 32676 net.cpp:91] Creating Layer loss3/classifier_plantvillage
I0403 13:40:01.721134 32676 net.cpp:425] loss3/classifier_plantvillage <- pool5/7x7_s1
I0403 13:40:01.721165 32676 net.cpp:399] loss3/classifier_plantvillage -> loss3/classifier_plantvillage
I0403 13:40:01.721616 32676 net.cpp:141] Setting up loss3/classifier_plantvillage
I0403 13:40:01.721640 32676 net.cpp:148] Top shape: 24 38 (912)
I0403 13:40:01.721654 32676 net.cpp:156] Memory required for data: 1346064480
I0403 13:40:01.721671 32676 layer_factory.hpp:77] Creating layer loss3/classifier_plantvillage_loss3/classifier_plantvillage_0_split
I0403 13:40:01.721693 32676 net.cpp:91] Creating Layer loss3/classifier_plantvillage_loss3/classifier_plantvillage_0_split
I0403 13:40:01.721709 32676 net.cpp:425] loss3/classifier_plantvillage_loss3/classifier_plantvillage_0_split <- loss3/classifier_plantvillage
I0403 13:40:01.721726 32676 net.cpp:399] loss3/classifier_plantvillage_loss3/classifier_plantvillage_0_split -> loss3/classifier_plantvillage_loss3/classifier_plantvillage_0_split_0
I0403 13:40:01.721750 32676 net.cpp:399] loss3/classifier_plantvillage_loss3/classifier_plantvillage_0_split -> loss3/classifier_plantvillage_loss3/classifier_plantvillage_0_split_1
I0403 13:40:01.721771 32676 net.cpp:399] loss3/classifier_plantvillage_loss3/classifier_plantvillage_0_split -> loss3/classifier_plantvillage_loss3/classifier_plantvillage_0_split_2
I0403 13:40:01.721791 32676 net.cpp:399] loss3/classifier_plantvillage_loss3/classifier_plantvillage_0_split -> loss3/classifier_plantvillage_loss3/classifier_plantvillage_0_split_3
I0403 13:40:01.721890 32676 net.cpp:141] Setting up loss3/classifier_plantvillage_loss3/classifier_plantvillage_0_split
I0403 13:40:01.721912 32676 net.cpp:148] Top shape: 24 38 (912)
I0403 13:40:01.721928 32676 net.cpp:148] Top shape: 24 38 (912)
I0403 13:40:01.721942 32676 net.cpp:148] Top shape: 24 38 (912)
I0403 13:40:01.721957 32676 net.cpp:148] Top shape: 24 38 (912)
I0403 13:40:01.721971 32676 net.cpp:156] Memory required for data: 1346079072
I0403 13:40:01.721983 32676 layer_factory.hpp:77] Creating layer loss1/loss
I0403 13:40:01.722005 32676 net.cpp:91] Creating Layer loss1/loss
I0403 13:40:01.722021 32676 net.cpp:425] loss1/loss <- loss1/classifier_plantvillage_loss1/classifier_plantvillage_0_split_0
I0403 13:40:01.722054 32676 net.cpp:425] loss1/loss <- label_data_1_split_0
…
