…
I0403 14:38:25.678236  1682 net.cpp:313] The NetState phase (1) differed from the phase (0) specified by a rule in layer data
I0403 14:38:25.679461  1682 net.cpp:49] Initializing net from parameters: 
state {
  phase: TEST
}
layer {
  name: "data"
  type: "Data"
  top: "data"
  top: "label"
  include {
    phase: TEST
  }
  transform_param {
    mirror: false
    crop_size: 224
    mean_file: "/home/mohanty/data/final_dataset/lmdb/grayscale-20-80/mean.binaryproto"
  }
  data_param {
    source: "/home/mohanty/data/final_dataset/lmdb/grayscale-20-80/test_db"
    batch_size: 24
    backend: LMDB
  }
}
layer {
  name: "conv1/7x7_s2"
  type: "Convolution"
  bottom: "data"
  top: "conv1/7x7_s2"
  param {
    lr_mult: 1
    decay_mult: 1
  }
  param {
    lr_mult: 2
    decay_mult: 0
  }
  convolution_param {
    num_output: 64
    pad: 3
    kernel_size: 7
    stride: 2
    weight_filler {
      type: "xavier"
      std: 0.1
    }
    bias_filler {
      type: "constant"
      value: 0.2
    }
  }
}
layer {
  name: "conv1/relu_7x7"
  type: "ReLU"
  bottom: "conv1/7x7_s2"
  top: "conv1/7x7_s2"
}
layer {
  name: "pool1/3x3_s2"
  type: "Pooling"
  bottom: "conv1/7x7_s2"
  top: "pool1/3x3_s2"
  pooling_param {
    pool: MAX
    kernel_size: 3
    stride: 2
  }
}
layer {
  name: "pool1/norm1"
  type: "LRN"
  bottom: "pool1/3x3_s2"
  top: "pool1/norm1"
  lrn_param {
    local_size: 5
    alpha: 0.0001
    beta: 0.75
  }
}
layer {
  name: "conv2/3x3_reduce"
  type: "Convolution"
  bottom: "pool1/norm1"
  top: "conv2/3x3_reduce"
  param {
    lr_mult: 1
    decay_mult: 1
  }
  param {
    lr_mult: 2
    decay_mult: 0
  }
  convolution_param {
    num_output: 64
    kernel_size: 1
    weight_filler {
      type: "xavier"
      std: 0.1
    }
    bias_filler {
      type: "constant"
      value: 0.2
    }
  }
}
layer {
  name: "conv2/relu_3x3_reduce"
  type: "ReLU"
  bottom: "conv2/3x3_reduce"
  top: "conv2/3x3_reduce"
}
layer {
  name: "conv2/3x3"
  type: "Convolution"
  bottom: "conv2/3x3_reduce"
  top: "conv2/3x3"
  param {
    lr_mult: 1
    decay_mult: 1
  }
  param {
    lr_mult: 2
    decay_mult: 0
  }
  convolution_param {
    num_output: 192
    pad: 1
    kernel_size: 3
    weight_filler {
      type: "xavier"
      std: 0.03
    }
    bias_filler {
      type: "constant"
      value: 0.2
    }
  }
}
layer {
  name: "conv2/relu_3x3"
  type: "ReLU"
  bottom: "conv2/3x3"
  top: "conv2/3x3"
}
layer {
  name: "conv2/norm2"
  type: "LRN"
  bottom: "conv2/3x3"
  top: "conv2/norm2"
  lrn_param {
    local_size: 5
    alpha: 0.0001
    beta: 0.75
  }
}
layer {
  name: "pool2/3x3_s2"
  type: "Pooling"
  bottom: "conv2/norm2"
  top: "pool2/3x3_s2"
  pooling_param {
    pool: MAX
    kernel_size: 3
    stride: 2
  }
}
layer {
  name: "inception_3a/1x1"
  type: "Convolution"
  bottom: "pool2/3x3_s2"
  top: "inception_3a/1x1"
  param {
    lr_mult: 1
    decay_mult: 1
  }
  param {
    lr_mult: 2
    decay_mult: 0
  }
  convolution_param {
    num_output: 64
    kernel_size: 1
    weight_filler {
      type: "xavier"
      std: 0.03
    }
    bias_filler {
      type: "constant"
      value: 0.2
    }
  }
}
layer {
  name: "inception_3a/relu_1x1"
  type: "ReLU"
  bottom: "inception_3a/1x1"
  top: "inception_3a/1x1"
}
layer {
  name: "inception_3a/3x3_reduce"
  type: "Convolution"
  bottom: "pool2/3x3_s2"
  top: "inception_3a/3x3_reduce"
  param {
    lr_mult: 1
    decay_mult: 1
  }
  param {
    lr_mult: 2
    decay_mult: 0
  }
  convolution_param {
    num_output: 96
    kernel_size: 1
    weight_filler {
      type: "xavier"
      std: 0.09
    }
    bias_filler {
      type: "constant"
      value: 0.2
    }
  }
}
layer {
  name: "inception_3a/relu_3x3_reduce"
  type: "ReLU"
  bottom: "inception_3a/3x3_reduce"
  top: "inception_3a/3x3_reduce"
}
layer {
  name: "inception_3a/3x3"
  type: "Convolution"
  bottom: "inception_3a/3x3_reduce"
  top: "inception_3a/3x3"
  param {
    lr_mult: 1
    decay_mult: 1
  }
  param {
    lr_mult: 2
    decay_mult: 0
  }
  convolution_param {
    num_output: 128
    pad: 1
    kernel_size: 3
    weight_filler {
      type: "xavier"
      std: 0.03
    }
    bias_filler {
      type: "constant"
      value: 0.2
    }
  }
}
layer {
  name: "inception_3a/relu_3x3"
  type: "ReLU"
  bottom: "inception_3a/3x3"
  top: "inception_3a/3x3"
}
layer {
  name: "inception_3a/5x5_reduce"
  type: "Convolution"
  bottom: "pool2/3x3_s2"
  top: "inception_3a/5x5_reduce"
  param {
    lr_mult: 1
    decay_mult: 1
  }
  param {
    lr_mult: 2
    decay_mult: 0
  }
  convolution_param {
    num_output: 16
    kernel_size: 1
    weight_filler {
      type: "xavier"
      std: 0.2
    }
    bias_filler {
      type: "constant"
      value: 0.2
    }
  }
}
layer {
  name: "inception_3a/relu_5x5_reduce"
  type: "ReLU"
  bottom: "inception_3a/5x5_reduce"
  top: "inception_3a/5x5_reduce"
}
layer {
  name: "inception_3a/5x5"
  type: "Convolution"
  bottom: "inception_3a/5x5_reduce"
  top: "inception_3a/5x5"
  param {
    lr_mult: 1
    decay_mult: 1
  }
  param {
    lr_mult: 2
    decay_mult: 0
  }
  convolution_param {
    num_output: 32
    pad: 2
    kernel_size: 5
    weight_filler {
      type: "xavier"
      std: 0.03
    }
    bias_filler {
      type: "constant"
      value: 0.2
    }
  }
}
layer {
  name: "inception_3a/relu_5x5"
  type: "ReLU"
  bottom: "inception_3a/5x5"
  top: "inception_3a/5x5"
}
layer {
  name: "inception_3a/pool"
  type: "Pooling"
  bottom: "pool2/3x3_s2"
  top: "inception_3a/pool"
  pooling_param {
    pool: MAX
    kernel_size: 3
    stride: 1
    pad: 1
  }
}
layer {
  name: "inception_3a/pool_proj"
  type: "Convolution"
  bottom: "inception_3a/pool"
  top: "inception_3a/pool_proj"
  param {
    lr_mult: 1
    decay_mult: 1
  }
  param {
    lr_mult: 2
    decay_mult: 0
  }
  convolution_param {
    num_output: 32
    kernel_size: 1
    weight_filler {
      type: "xavier"
      std: 0.1
    }
    bias_filler {
      type: "constant"
      value: 0.2
    }
  }
}
layer {
  name: "inception_3a/relu_pool_proj"
  type: "ReLU"
  bottom: "inception_3a/pool_proj"
  top: "inception_3a/pool_proj"
}
layer {
  name: "inception_3a/output"
  type: "Concat"
  bottom: "inception_3a/1x1"
  bottom: "inception_3a/3x3"
  bottom: "inception_3a/5x5"
  bottom: "inception_3a/pool_proj"
  top: "inception_3a/output"
}
layer {
  name: "inception_3b/1x1"
  type: "Convolution"
  bottom: "inception_3a/output"
  top: "inception_3b/1x1"
  param {
    lr_mult: 1
    decay_mult: 1
  }
  param {
    lr_mult: 2
    decay_mult: 0
  }
  convolution_param {
    num_output: 128
    kernel_size: 1
    weight_filler {
      type: "xavier"
      std: 0.03
    }
    bias_filler {
      type: "constant"
      value: 0.2
    }
  }
}
layer {
  name: "inception_3b/relu_1x1"
  type: "ReLU"
  bottom: "inception_3b/1x1"
  top: "inception_3b/1x1"
}
layer {
  name: "inception_3b/3x3_reduce"
  type: "Convolution"
  bottom: "inception_3a/output"
  top: "inception_3b/3x3_reduce"
  param {
    lr_mult: 1
    decay_mult: 1
  }
  param {
    lr_mult: 2
    decay_mult: 0
  }
  convolution_param {
    num_output: 128
    kernel_size: 1
    weight_filler {
      type: "xavier"
      std: 0.09
    }
    bias_filler {
      type: "constant"
      value: 0.2
    }
  }
}
layer {
  name: "inception_3b/relu_3x3_reduce"
  type: "ReLU"
  bottom: "inception_3b/3x3_reduce"
  top: "inception_3b/3x3_reduce"
}
layer {
  name: "inception_3b/3x3"
  type: "Convolution"
  bottom: "inception_3b/3x3_reduce"
  top: "inception_3b/3x3"
  param {
    lr_mult: 1
    decay_mult: 1
  }
  param {
    lr_mult: 2
    decay_mult: 0
  }
  convolution_param {
    num_output: 192
    pad: 1
    kernel_size: 3
    weight_filler {
      type: "xavier"
      std: 0.03
    }
    bias_filler {
      type: "constant"
      value: 0.2
    }
  }
}
layer {
  name: "inception_3b/relu_3x3"
  type: "ReLU"
  bottom: "inception_3b/3x3"
  top: "inception_3b/3x3"
}
layer {
  name: "inception_3b/5x5_reduce"
  type: "Convolution"
  bottom: "inception_3a/output"
  top: "inception_3b/5x5_reduce"
  param {
    lr_mult: 1
    decay_mult: 1
  }
  param {
    lr_mult: 2
    decay_mult: 0
  }
  convolution_param {
    num_output: 32
    kernel_size: 1
    weight_filler {
      type: "xavier"
      std: 0.2
    }
    bias_filler {
      type: "constant"
      value: 0.2
    }
  }
}
layer {
  name: "inception_3b/relu_5x5_reduce"
  type: "ReLU"
  bottom: "inception_3b/5x5_reduce"
  top: "inception_3b/5x5_reduce"
}
layer {
  name: "inception_3b/5x5"
  type: "Convolution"
  bottom: "inception_3b/5x5_reduce"
  top: "inception_3b/5x5"
  param {
    lr_mult: 1
    decay_mult: 1
  }
  param {
    lr_mult: 2
    decay_mult: 0
  }
  convolution_param {
    num_output: 96
    pad: 2
    kernel_size: 5
    weight_filler {
      type: "xavier"
      std: 0.03
    }
    bias_filler {
      type: "constant"
      value: 0.2
    }
  }
}
layer {
  name: "inception_3b/relu_5x5"
  type: "ReLU"
  bottom: "inception_3b/5x5"
  top: "inception_3b/5x5"
}
layer {
  name: "inception_3b/pool"
  type: "Pooling"
  bottom: "inception_3a/output"
  top: "inception_3b/pool"
  pooling_param {
    pool: MAX
    kernel_size: 3
    stride: 1
    pad: 1
  }
}
layer {
  name: "inception_3b/pool_proj"
  type: "Convolution"
  bottom: "inception_3b/pool"
  top: "inception_3b/pool_proj"
  param {
    lr_mult: 1
    decay_mult: 1
  }
  param {
    lr_mult: 2
    decay_mult: 0
  }
  convolution_param {
    num_output: 64
    kernel_size: 1
    weight_filler {
      type: "xavier"
      std: 0.1
    }
    bias_filler {
      type: "constant"
      value: 0.2
    }
  }
}
layer {
  name: "inception_3b/relu_pool_proj"
  type: "ReLU"
  bottom: "inception_3b/pool_proj"
  top: "inception_3b/pool_proj"
}
layer {
  name: "inception_3b/output"
  type: "Concat"
  bottom: "inception_3b/1x1"
  bottom: "inception_3b/3x3"
  bottom: "inception_3b/5x5"
  bottom: "inception_3b/pool_proj"
  top: "inception_3b/output"
}
layer {
  name: "pool3/3x3_s2"
  type: "Pooling"
  bottom: "inception_3b/output"
  top: "pool3/3x3_s2"
  pooling_param {
    pool: MAX
    kernel_size: 3
    stride: 2
  }
}
layer {
  name: "inception_4a/1x1"
  type: "Convolution"
  bottom: "pool3/3x3_s2"
  top: "inception_4a/1x1"
  param {
    lr_mult: 1
    decay_mult: 1
  }
  param {
    lr_mult: 2
    decay_mult: 0
  }
  convolution_param {
    num_output: 192
    kernel_size: 1
    weight_filler {
      type: "xavier"
      std: 0.03
    }
    bias_filler {
      type: "constant"
      value: 0.2
    }
  }
}
layer {
  name: "inception_4a/relu_1x1"
  type: "ReLU"
  bottom: "inception_4a/1x1"
  top: "inception_4a/1x1"
}
layer {
  name: "inception_4a/3x3_reduce"
  type: "Convolution"
  bottom: "pool3/3x3_s2"
  top: "inception_4a/3x3_reduce"
  param {
    lr_mult: 1
    decay_mult: 1
  }
  param {
    lr_mult: 2
    decay_mult: 0
  }
  convolution_param {
    num_output: 96
    kernel_size: 1
    weight_filler {
      type: "xavier"
      std: 0.09
    }
    bias_filler {
      type: "constant"
      value: 0.2
    }
  }
}
layer {
  name: "inception_4a/relu_3x3_reduce"
  type: "ReLU"
  bottom: "inception_4a/3x3_reduce"
  top: "inception_4a/3x3_reduce"
}
layer {
  name: "inception_4a/3x3"
  type: "Convolution"
  bottom: "inception_4a/3x3_reduce"
  top: "inception_4a/3x3"
  param {
    lr_mult: 1
    decay_mult: 1
  }
  param {
    lr_mult: 2
    decay_mult: 0
  }
  convolution_param {
    num_output: 208
    pad: 1
    kernel_size: 3
    weight_filler {
      type: "xavier"
      std: 0.03
    }
    bias_filler {
      type: "constant"
      value: 0.2
    }
  }
}
layer {
  name: "inception_4a/relu_3x3"
  type: "ReLU"
  bottom: "inception_4a/3x3"
  top: "inception_4a/3x3"
}
layer {
  name: "inception_4a/5x5_reduce"
  type: "Convolution"
  bottom: "pool3/3x3_s2"
  top: "inception_4a/5x5_reduce"
  param {
    lr_mult: 1
    decay_mult: 1
  }
  param {
    lr_mult: 2
    decay_mult: 0
  }
  convolution_param {
    num_output: 16
    kernel_size: 1
    weight_filler {
      type: "xavier"
      std: 0.2
    }
    bias_filler {
      type: "constant"
      value: 0.2
    }
  }
}
layer {
  name: "inception_4a/relu_5x5_reduce"
  type: "ReLU"
  bottom: "inception_4a/5x5_reduce"
  top: "inception_4a/5x5_reduce"
}
layer {
  name: "inception_4a/5x5"
  type: "Convolution"
  bottom: "inception_4a/5x5_reduce"
  top: "inception_4a/5x5"
  param {
    lr_mult: 1
    decay_mult: 1
  }
  param {
    lr_mult: 2
    decay_mult: 0
  }
  convolution_param {
    num_output: 48
    pad: 2
    kernel_size: 5
    weight_filler {
      type: "xavier"
      std: 0.03
    }
    bias_filler {
      type: "constant"
      value: 0.2
    }
  }
}
layer {
  name: "inception_4a/relu_5x5"
  type: "ReLU"
  bottom: "inception_4a/5x5"
  top: "inception_4a/5x5"
}
layer {
  name: "inception_4a/pool"
  type: "Pooling"
  bottom: "pool3/3x3_s2"
  top: "inception_4a/pool"
  pooling_param {
    pool: MAX
    kernel_size: 3
    stride: 1
    pad: 1
  }
}
layer {
  name: "inception_4a/pool_proj"
  type: "Convolution"
  bottom: "inception_4a/pool"
  top: "inception_4a/pool_proj"
  param {
    lr_mult: 1
    decay_mult: 1
  }
  param {
    lr_mult: 2
    decay_mult: 0
  }
  convolution_param {
    num_output: 64
    kernel_size: 1
    weight_filler {
      type: "xavier"
      std: 0.1
    }
    bias_filler {
      type: "constant"
      value: 0.2
    }
  }
}
layer {
  name: "inception_4a/relu_pool_proj"
  type: "ReLU"
  bottom: "inception_4a/pool_proj"
  top: "inception_4a/pool_proj"
}
layer {
  name: "inception_4a/output"
  type: "Concat"
  bottom: "inception_4a/1x1"
  bottom: "inception_4a/3x3"
  bottom: "inception_4a/5x5"
  bottom: "inception_4a/pool_proj"
  top: "inception_4a/output"
}
layer {
  name: "loss1/ave_pool"
  type: "Pooling"
  bottom: "inception_4a/output"
  top: "loss1/ave_pool"
  pooling_param {
    pool: AVE
    kernel_size: 5
    stride: 3
  }
}
layer {
  name: "loss1/conv"
  type: "Convolution"
  bottom: "loss1/ave_pool"
  top: "loss1/conv"
  param {
    lr_mult: 1
    decay_mult: 1
  }
  param {
    lr_mult: 2
    decay_mult: 0
  }
  convolution_param {
    num_output: 128
    kernel_size: 1
    weight_filler {
      type: "xavier"
      std: 0.08
    }
    bias_filler {
      type: "constant"
      value: 0.2
    }
  }
}
layer {
  name: "loss1/relu_conv"
  type: "ReLU"
  bottom: "loss1/conv"
  top: "loss1/conv"
}
layer {
  name: "loss1/fc"
  type: "InnerProduct"
  bottom: "loss1/conv"
  top: "loss1/fc"
  param {
    lr_mult: 1
    decay_mult: 1
  }
  param {
    lr_mult: 2
    decay_mult: 0
  }
  inner_product_param {
    num_output: 1024
    weight_filler {
      type: "xavier"
      std: 0.02
    }
    bias_filler {
      type: "constant"
      value: 0.2
    }
  }
}
layer {
  name: "loss1/relu_fc"
  type: "ReLU"
  bottom: "loss1/fc"
  top: "loss1/fc"
}
layer {
  name: "loss1/drop_fc"
  type: "Dropout"
  bottom: "loss1/fc"
  top: "loss1/fc"
  dropout_param {
    dropout_ratio: 0.7
  }
}
layer {
  name: "loss1/classifier_plantvillage"
  type: "InnerProduct"
  bottom: "loss1/fc"
  top: "loss1/classifier_plantvillage"
  param {
    lr_mult: 1
    decay_mult: 1
  }
  param {
    lr_mult: 2
    decay_mult: 0
  }
  inner_product_param {
    num_output: 38
    weight_filler {
      type: "xavier"
      std: 0.0009765625
    }
    bias_filler {
      type: "constant"
      value: 0
    }
  }
}
layer {
  name: "inception_4b/1x1"
  type: "Convolution"
  bottom: "inception_4a/output"
  top: "inception_4b/1x1"
  param {
    lr_mult: 1
    decay_mult: 1
  }
  param {
    lr_mult: 2
    decay_mult: 0
  }
  convolution_param {
    num_output: 160
    kernel_size: 1
    weight_filler {
      type: "xavier"
      std: 0.03
    }
    bias_filler {
      type: "constant"
      value: 0.2
    }
  }
}
layer {
  name: "inception_4b/relu_1x1"
  type: "ReLU"
  bottom: "inception_4b/1x1"
  top: "inception_4b/1x1"
}
layer {
  name: "inception_4b/3x3_reduce"
  type: "Convolution"
  bottom: "inception_4a/output"
  top: "inception_4b/3x3_reduce"
  param {
    lr_mult: 1
    decay_mult: 1
  }
  param {
    lr_mult: 2
    decay_mult: 0
  }
  convolution_param {
    num_output: 112
    kernel_size: 1
    weight_filler {
      type: "xavier"
      std: 0.09
    }
    bias_filler {
      type: "constant"
      value: 0.2
    }
  }
}
layer {
  name: "inception_4b/relu_3x3_reduce"
  type: "ReLU"
  bottom: "inception_4b/3x3_reduce"
  top: "inception_4b/3x3_reduce"
}
layer {
  name: "inception_4b/3x3"
  type: "Convolution"
  bottom: "inception_4b/3x3_reduce"
  top: "inception_4b/3x3"
  param {
    lr_mult: 1
    decay_mult: 1
  }
  param {
    lr_mult: 2
    decay_mult: 0
  }
  convolution_param {
    num_output: 224
    pad: 1
    kernel_size: 3
    weight_filler {
      type: "xavier"
      std: 0.03
    }
    bias_filler {
      type: "constant"
      value: 0.2
    }
  }
}
layer {
  name: "inception_4b/relu_3x3"
  type: "ReLU"
  bottom: "inception_4b/3x3"
  top: "inception_4b/3x3"
}
layer {
  name: "inception_4b/5x5_reduce"
  type: "Convolution"
  bottom: "inception_4a/output"
  top: "inception_4b/5x5_reduce"
  param {
    lr_mult: 1
    decay_mult: 1
  }
  param {
    lr_mult: 2
    decay_mult: 0
  }
  convolution_param {
    num_output: 24
    kernel_size: 1
    weight_filler {
      type: "xavier"
      std: 0.2
    }
    bias_filler {
      type: "constant"
      value: 0.2
    }
  }
}
layer {
  name: "inception_4b/relu_5x5_reduce"
  type: "ReLU"
  bottom: "inception_4b/5x5_reduce"
  top: "inception_4b/5x5_reduce"
}
layer {
  name: "inception_4b/5x5"
  type: "Convolution"
  bottom: "inception_4b/5x5_reduce"
  top: "inception_4b/5x5"
  param {
    lr_mult: 1
    decay_mult: 1
  }
  param {
    lr_mult: 2
    decay_mult: 0
  }
  convolution_param {
    num_output: 64
    pad: 2
    kernel_size: 5
    weight_filler {
      type: "xavier"
      std: 0.03
    }
    bias_filler {
      type: "constant"
      value: 0.2
    }
  }
}
layer {
  name: "inception_4b/relu_5x5"
  type: "ReLU"
  bottom: "inception_4b/5x5"
  top: "inception_4b/5x5"
}
layer {
  name: "inception_4b/pool"
  type: "Pooling"
  bottom: "inception_4a/output"
  top: "inception_4b/pool"
  pooling_param {
    pool: MAX
    kernel_size: 3
    stride: 1
    pad: 1
  }
}
layer {
  name: "inception_4b/pool_proj"
  type: "Convolution"
  bottom: "inception_4b/pool"
  top: "inception_4b/pool_proj"
  param {
    lr_mult: 1
    decay_mult: 1
  }
  param {
    lr_mult: 2
    decay_mult: 0
  }
  convolution_param {
    num_output: 64
    kernel_size: 1
    weight_filler {
      type: "xavier"
      std: 0.1
    }
    bias_filler {
      type: "constant"
      value: 0.2
    }
  }
}
layer {
  name: "inception_4b/relu_pool_proj"
  type: "ReLU"
  bottom: "inception_4b/pool_proj"
  top: "inception_4b/pool_proj"
}
layer {
  name: "inception_4b/output"
  type: "Concat"
  bottom: "inception_4b/1x1"
  bottom: "inception_4b/3x3"
  bottom: "inception_4b/5x5"
  bottom: "inception_4b/pool_proj"
  top: "inception_4b/output"
}
layer {
  name: "inception_4c/1x1"
  type: "Convolution"
  bottom: "inception_4b/output"
  top: "inception_4c/1x1"
  param {
    lr_mult: 1
    decay_mult: 1
  }
  param {
    lr_mult: 2
    decay_mult: 0
  }
  convolution_param {
    num_output: 128
    kernel_size: 1
    weight_filler {
      type: "xavier"
      std: 0.03
    }
    bias_filler {
      type: "constant"
      value: 0.2
    }
  }
}
layer {
  name: "inception_4c/relu_1x1"
  type: "ReLU"
  bottom: "inception_4c/1x1"
  top: "inception_4c/1x1"
}
layer {
  name: "inception_4c/3x3_reduce"
  type: "Convolution"
  bottom: "inception_4b/output"
  top: "inception_4c/3x3_reduce"
  param {
    lr_mult: 1
    decay_mult: 1
  }
  param {
    lr_mult: 2
    decay_mult: 0
  }
  convolution_param {
    num_output: 128
    kernel_size: 1
    weight_filler {
      type: "xavier"
      std: 0.09
    }
    bias_filler {
      type: "constant"
      value: 0.2
    }
  }
}
layer {
  name: "inception_4c/relu_3x3_reduce"
  type: "ReLU"
  bottom: "inception_4c/3x3_reduce"
  top: "inception_4c/3x3_reduce"
}
layer {
  name: "inception_4c/3x3"
  type: "Convolution"
  bottom: "inception_4c/3x3_reduce"
  top: "inception_4c/3x3"
  param {
    lr_mult: 1
    decay_mult: 1
  }
  param {
    lr_mult: 2
    decay_mult: 0
  }
  convolution_param {
    num_output: 256
    pad: 1
    kernel_size: 3
    weight_filler {
      type: "xavier"
      std: 0.03
    }
    bias_filler {
      type: "constant"
      value: 0.2
    }
  }
}
layer {
  name: "inception_4c/relu_3x3"
  type: "ReLU"
  bottom: "inception_4c/3x3"
  top: "inception_4c/3x3"
}
layer {
  name: "inception_4c/5x5_reduce"
  type: "Convolution"
  bottom: "inception_4b/output"
  top: "inception_4c/5x5_reduce"
  param {
    lr_mult: 1
    decay_mult: 1
  }
  param {
    lr_mult: 2
    decay_mult: 0
  }
  convolution_param {
    num_output: 24
    kernel_size: 1
    weight_filler {
      type: "xavier"
      std: 0.2
    }
    bias_filler {
      type: "constant"
      value: 0.2
    }
  }
}
layer {
  name: "inception_4c/relu_5x5_reduce"
  type: "ReLU"
  bottom: "inception_4c/5x5_reduce"
  top: "inception_4c/5x5_reduce"
}
layer {
  name: "inception_4c/5x5"
  type: "Convolution"
  bottom: "inception_4c/5x5_reduce"
  top: "inception_4c/5x5"
  param {
    lr_mult: 1
    decay_mult: 1
  }
  param {
    lr_mult: 2
    decay_mult: 0
  }
  convolution_param {
    num_output: 64
    pad: 2
    kernel_size: 5
    weight_filler {
      type: "xavier"
      std: 0.03
    }
    bias_filler {
      type: "constant"
      value: 0.2
    }
  }
}
layer {
  name: "inception_4c/relu_5x5"
  type: "ReLU"
  bottom: "inception_4c/5x5"
  top: "inception_4c/5x5"
}
layer {
  name: "inception_4c/pool"
  type: "Pooling"
  bottom: "inception_4b/output"
  top: "inception_4c/pool"
  pooling_param {
    pool: MAX
    kernel_size: 3
    stride: 1
    pad: 1
  }
}
layer {
  name: "inception_4c/pool_proj"
  type: "Convolution"
  bottom: "inception_4c/pool"
  top: "inception_4c/pool_proj"
  param {
    lr_mult: 1
    decay_mult: 1
  }
  param {
    lr_mult: 2
    decay_mult: 0
  }
  convolution_param {
    num_output: 64
    kernel_size: 1
    weight_filler {
      type: "xavier"
      std: 0.1
    }
    bias_filler {
      type: "constant"
      value: 0.2
    }
  }
}
layer {
  name: "inception_4c/relu_pool_proj"
  type: "ReLU"
  bottom: "inception_4c/pool_proj"
  top: "inception_4c/pool_proj"
}
layer {
  name: "inception_4c/output"
  type: "Concat"
  bottom: "inception_4c/1x1"
  bottom: "inception_4c/3x3"
  bottom: "inception_4c/5x5"
  bottom: "inception_4c/pool_proj"
  top: "inception_4c/output"
}
layer {
  name: "inception_4d/1x1"
  type: "Convolution"
  bottom: "inception_4c/output"
  top: "inception_4d/1x1"
  param {
    lr_mult: 1
    decay_mult: 1
  }
  param {
    lr_mult: 2
    decay_mult: 0
  }
  convolution_param {
    num_output: 112
    kernel_size: 1
    weight_filler {
      type: "xavier"
      std: 0.03
    }
    bias_filler {
      type: "constant"
      value: 0.2
    }
  }
}
layer {
  name: "inception_4d/relu_1x1"
  type: "ReLU"
  bottom: "inception_4d/1x1"
  top: "inception_4d/1x1"
}
layer {
  name: "inception_4d/3x3_reduce"
  type: "Convolution"
  bottom: "inception_4c/output"
  top: "inception_4d/3x3_reduce"
  param {
    lr_mult: 1
    decay_mult: 1
  }
  param {
    lr_mult: 2
    decay_mult: 0
  }
  convolution_param {
    num_output: 144
    kernel_size: 1
    weight_filler {
      type: "xavier"
      std: 0.09
    }
    bias_filler {
      type: "constant"
      value: 0.2
    }
  }
}
layer {
  name: "inception_4d/relu_3x3_reduce"
  type: "ReLU"
  bottom: "inception_4d/3x3_reduce"
  top: "inception_4d/3x3_reduce"
}
layer {
  name: "inception_4d/3x3"
  type: "Convolution"
  bottom: "inception_4d/3x3_reduce"
  top: "inception_4d/3x3"
  param {
    lr_mult: 1
    decay_mult: 1
  }
  param {
    lr_mult: 2
    decay_mult: 0
  }
  convolution_param {
    num_output: 288
    pad: 1
    kernel_size: 3
    weight_filler {
      type: "xavier"
      std: 0.03
    }
    bias_filler {
      type: "constant"
      value: 0.2
    }
  }
}
layer {
  name: "inception_4d/relu_3x3"
  type: "ReLU"
  bottom: "inception_4d/3x3"
  top: "inception_4d/3x3"
}
layer {
  name: "inception_4d/5x5_reduce"
  type: "Convolution"
  bottom: "inception_4c/output"
  top: "inception_4d/5x5_reduce"
  param {
    lr_mult: 1
    decay_mult: 1
  }
  param {
    lr_mult: 2
    decay_mult: 0
  }
  convolution_param {
    num_output: 32
    kernel_size: 1
    weight_filler {
      type: "xavier"
      std: 0.2
    }
    bias_filler {
      type: "constant"
      value: 0.2
    }
  }
}
layer {
  name: "inception_4d/relu_5x5_reduce"
  type: "ReLU"
  bottom: "inception_4d/5x5_reduce"
  top: "inception_4d/5x5_reduce"
}
layer {
  name: "inception_4d/5x5"
  type: "Convolution"
  bottom: "inception_4d/5x5_reduce"
  top: "inception_4d/5x5"
  param {
    lr_mult: 1
    decay_mult: 1
  }
  param {
    lr_mult: 2
    decay_mult: 0
  }
  convolution_param {
    num_output: 64
    pad: 2
    kernel_size: 5
    weight_filler {
      type: "xavier"
      std: 0.03
    }
    bias_filler {
      type: "constant"
      value: 0.2
    }
  }
}
layer {
  name: "inception_4d/relu_5x5"
  type: "ReLU"
  bottom: "inception_4d/5x5"
  top: "inception_4d/5x5"
}
layer {
  name: "inception_4d/pool"
  type: "Pooling"
  bottom: "inception_4c/output"
  top: "inception_4d/pool"
  pooling_param {
    pool: MAX
    kernel_size: 3
    stride: 1
    pad: 1
  }
}
layer {
  name: "inception_4d/pool_proj"
  type: "Convolution"
  bottom: "inception_4d/pool"
  top: "inception_4d/pool_proj"
  param {
    lr_mult: 1
    decay_mult: 1
  }
  param {
    lr_mult: 2
    decay_mult: 0
  }
  convolution_param {
    num_output: 64
    kernel_size: 1
    weight_filler {
      type: "xavier"
      std: 0.1
    }
    bias_filler {
      type: "constant"
      value: 0.2
    }
  }
}
layer {
  name: "inception_4d/relu_pool_proj"
  type: "ReLU"
  bottom: "inception_4d/pool_proj"
  top: "inception_4d/pool_proj"
}
layer {
  name: "inception_4d/output"
  type: "Concat"
  bottom: "inception_4d/1x1"
  bottom: "inception_4d/3x3"
  bottom: "inception_4d/5x5"
  bottom: "inception_4d/pool_proj"
  top: "inception_4d/output"
}
layer {
  name: "loss2/ave_pool"
  type: "Pooling"
  bottom: "inception_4d/output"
  top: "loss2/ave_pool"
  pooling_param {
    pool: AVE
    kernel_size: 5
    stride: 3
  }
}
layer {
  name: "loss2/conv"
  type: "Convolution"
  bottom: "loss2/ave_pool"
  top: "loss2/conv"
  param {
    lr_mult: 1
    decay_mult: 1
  }
  param {
    lr_mult: 2
    decay_mult: 0
  }
  convolution_param {
    num_output: 128
    kernel_size: 1
    weight_filler {
      type: "xavier"
      std: 0.08
    }
    bias_filler {
      type: "constant"
      value: 0.2
    }
  }
}
layer {
  name: "loss2/relu_conv"
  type: "ReLU"
  bottom: "loss2/conv"
  top: "loss2/conv"
}
layer {
  name: "loss2/fc"
  type: "InnerProduct"
  bottom: "loss2/conv"
  top: "loss2/fc"
  param {
    lr_mult: 1
    decay_mult: 1
  }
  param {
    lr_mult: 2
    decay_mult: 0
  }
  inner_product_param {
    num_output: 1024
    weight_filler {
      type: "xavier"
      std: 0.02
    }
    bias_filler {
      type: "constant"
      value: 0.2
    }
  }
}
layer {
  name: "loss2/relu_fc"
  type: "ReLU"
  bottom: "loss2/fc"
  top: "loss2/fc"
}
layer {
  name: "loss2/drop_fc"
  type: "Dropout"
  bottom: "loss2/fc"
  top: "loss2/fc"
  dropout_param {
    dropout_ratio: 0.7
  }
}
layer {
  name: "loss2/classifier_plantvillage"
  type: "InnerProduct"
  bottom: "loss2/fc"
  top: "loss2/classifier_plantvillage"
  param {
    lr_mult: 1
    decay_mult: 1
  }
  param {
    lr_mult: 2
    decay_mult: 0
  }
  inner_product_param {
    num_output: 38
    weight_filler {
      type: "xavier"
      std: 0.0009765625
    }
    bias_filler {
      type: "constant"
      value: 0
    }
  }
}
layer {
  name: "inception_4e/1x1"
  type: "Convolution"
  bottom: "inception_4d/output"
  top: "inception_4e/1x1"
  param {
    lr_mult: 1
    decay_mult: 1
  }
  param {
    lr_mult: 2
    decay_mult: 0
  }
  convolution_param {
    num_output: 256
    kernel_size: 1
    weight_filler {
      type: "xavier"
      std: 0.03
    }
    bias_filler {
      type: "constant"
      value: 0.2
    }
  }
}
layer {
  name: "inception_4e/relu_1x1"
  type: "ReLU"
  bottom: "inception_4e/1x1"
  top: "inception_4e/1x1"
}
layer {
  name: "inception_4e/3x3_reduce"
  type: "Convolution"
  bottom: "inception_4d/output"
  top: "inception_4e/3x3_reduce"
  param {
    lr_mult: 1
    decay_mult: 1
  }
  param {
    lr_mult: 2
    decay_mult: 0
  }
  convolution_param {
    num_output: 160
    kernel_size: 1
    weight_filler {
      type: "xavier"
      std: 0.09
    }
    bias_filler {
      type: "constant"
      value: 0.2
    }
  }
}
layer {
  name: "inception_4e/relu_3x3_reduce"
  type: "ReLU"
  bottom: "inception_4e/3x3_reduce"
  top: "inception_4e/3x3_reduce"
}
layer {
  name: "inception_4e/3x3"
  type: "Convolution"
  bottom: "inception_4e/3x3_reduce"
  top: "inception_4e/3x3"
  param {
    lr_mult: 1
    decay_mult: 1
  }
  param {
    lr_mult: 2
    decay_mult: 0
  }
  convolution_param {
    num_output: 320
    pad: 1
    kernel_size: 3
    weight_filler {
      type: "xavier"
      std: 0.03
    }
    bias_filler {
      type: "constant"
      value: 0.2
    }
  }
}
layer {
  name: "inception_4e/relu_3x3"
  type: "ReLU"
  bottom: "inception_4e/3x3"
  top: "inception_4e/3x3"
}
layer {
  name: "inception_4e/5x5_reduce"
  type: "Convolution"
  bottom: "inception_4d/output"
  top: "inception_4e/5x5_reduce"
  param {
    lr_mult: 1
    decay_mult: 1
  }
  param {
    lr_mult: 2
    decay_mult: 0
  }
  convolution_param {
    num_output: 32
    kernel_size: 1
    weight_filler {
      type: "xavier"
      std: 0.2
    }
    bias_filler {
      type: "constant"
      value: 0.2
    }
  }
}
layer {
  name: "inception_4e/relu_5x5_reduce"
  type: "ReLU"
  bottom: "inception_4e/5x5_reduce"
  top: "inception_4e/5x5_reduce"
}
layer {
  name: "inception_4e/5x5"
  type: "Convolution"
  bottom: "inception_4e/5x5_reduce"
  top: "inception_4e/
I0403 14:38:25.680737  1682 layer_factory.hpp:77] Creating layer data
I0403 14:38:25.681380  1682 net.cpp:91] Creating Layer data
I0403 14:38:25.681414  1682 net.cpp:399] data -> data
I0403 14:38:25.681468  1682 net.cpp:399] data -> label
I0403 14:38:25.681504  1682 data_transformer.cpp:25] Loading mean file from: /home/mohanty/data/final_dataset/lmdb/grayscale-20-80/mean.binaryproto
I0403 14:38:25.682783  1687 db_lmdb.cpp:38] Opened lmdb /home/mohanty/data/final_dataset/lmdb/grayscale-20-80/test_db
I0403 14:38:25.694957  1682 data_layer.cpp:41] output data size: 24,3,224,224
I0403 14:38:25.722748  1682 net.cpp:141] Setting up data
I0403 14:38:25.722846  1682 net.cpp:148] Top shape: 24 3 224 224 (3612672)
I0403 14:38:25.722870  1682 net.cpp:148] Top shape: 24 (24)
I0403 14:38:25.722887  1682 net.cpp:156] Memory required for data: 14450784
I0403 14:38:25.722914  1682 layer_factory.hpp:77] Creating layer label_data_1_split
I0403 14:38:25.722941  1682 net.cpp:91] Creating Layer label_data_1_split
I0403 14:38:25.722960  1682 net.cpp:425] label_data_1_split <- label
I0403 14:38:25.722992  1682 net.cpp:399] label_data_1_split -> label_data_1_split_0
I0403 14:38:25.723021  1682 net.cpp:399] label_data_1_split -> label_data_1_split_1
I0403 14:38:25.723043  1682 net.cpp:399] label_data_1_split -> label_data_1_split_2
I0403 14:38:25.723065  1682 net.cpp:399] label_data_1_split -> label_data_1_split_3
I0403 14:38:25.723086  1682 net.cpp:399] label_data_1_split -> label_data_1_split_4
I0403 14:38:25.723106  1682 net.cpp:399] label_data_1_split -> label_data_1_split_5
I0403 14:38:25.723126  1682 net.cpp:399] label_data_1_split -> label_data_1_split_6
I0403 14:38:25.723148  1682 net.cpp:399] label_data_1_split -> label_data_1_split_7
I0403 14:38:25.723170  1682 net.cpp:399] label_data_1_split -> label_data_1_split_8
I0403 14:38:25.723218  1682 net.cpp:399] label_data_1_split -> label_data_1_split_9
I0403 14:38:25.723345  1682 net.cpp:141] Setting up label_data_1_split
I0403 14:38:25.723371  1682 net.cpp:148] Top shape: 24 (24)
I0403 14:38:25.723388  1682 net.cpp:148] Top shape: 24 (24)
I0403 14:38:25.723405  1682 net.cpp:148] Top shape: 24 (24)
I0403 14:38:25.723423  1682 net.cpp:148] Top shape: 24 (24)
I0403 14:38:25.723438  1682 net.cpp:148] Top shape: 24 (24)
I0403 14:38:25.723455  1682 net.cpp:148] Top shape: 24 (24)
I0403 14:38:25.723472  1682 net.cpp:148] Top shape: 24 (24)
I0403 14:38:25.723489  1682 net.cpp:148] Top shape: 24 (24)
I0403 14:38:25.723505  1682 net.cpp:148] Top shape: 24 (24)
I0403 14:38:25.723522  1682 net.cpp:148] Top shape: 24 (24)
I0403 14:38:25.723570  1682 net.cpp:156] Memory required for data: 14451744
I0403 14:38:25.723587  1682 layer_factory.hpp:77] Creating layer conv1/7x7_s2
I0403 14:38:25.723621  1682 net.cpp:91] Creating Layer conv1/7x7_s2
I0403 14:38:25.723640  1682 net.cpp:425] conv1/7x7_s2 <- data
I0403 14:38:25.723660  1682 net.cpp:399] conv1/7x7_s2 -> conv1/7x7_s2
I0403 14:38:25.869500  1682 net.cpp:141] Setting up conv1/7x7_s2
I0403 14:38:25.869591  1682 net.cpp:148] Top shape: 24 64 112 112 (19267584)
I0403 14:38:25.869609  1682 net.cpp:156] Memory required for data: 91522080
I0403 14:38:25.869642  1682 layer_factory.hpp:77] Creating layer conv1/relu_7x7
I0403 14:38:25.869668  1682 net.cpp:91] Creating Layer conv1/relu_7x7
I0403 14:38:25.869688  1682 net.cpp:425] conv1/relu_7x7 <- conv1/7x7_s2
I0403 14:38:25.869707  1682 net.cpp:386] conv1/relu_7x7 -> conv1/7x7_s2 (in-place)
I0403 14:38:25.870013  1682 net.cpp:141] Setting up conv1/relu_7x7
I0403 14:38:25.870043  1682 net.cpp:148] Top shape: 24 64 112 112 (19267584)
I0403 14:38:25.870066  1682 net.cpp:156] Memory required for data: 168592416
I0403 14:38:25.870082  1682 layer_factory.hpp:77] Creating layer pool1/3x3_s2
I0403 14:38:25.870110  1682 net.cpp:91] Creating Layer pool1/3x3_s2
I0403 14:38:25.870128  1682 net.cpp:425] pool1/3x3_s2 <- conv1/7x7_s2
I0403 14:38:25.870159  1682 net.cpp:399] pool1/3x3_s2 -> pool1/3x3_s2
I0403 14:38:25.870236  1682 net.cpp:141] Setting up pool1/3x3_s2
I0403 14:38:25.870261  1682 net.cpp:148] Top shape: 24 64 56 56 (4816896)
I0403 14:38:25.870277  1682 net.cpp:156] Memory required for data: 187860000
I0403 14:38:25.870292  1682 layer_factory.hpp:77] Creating layer pool1/norm1
I0403 14:38:25.870318  1682 net.cpp:91] Creating Layer pool1/norm1
I0403 14:38:25.870335  1682 net.cpp:425] pool1/norm1 <- pool1/3x3_s2
I0403 14:38:25.870354  1682 net.cpp:399] pool1/norm1 -> pool1/norm1
I0403 14:38:25.870641  1682 net.cpp:141] Setting up pool1/norm1
I0403 14:38:25.870669  1682 net.cpp:148] Top shape: 24 64 56 56 (4816896)
I0403 14:38:25.870685  1682 net.cpp:156] Memory required for data: 207127584
I0403 14:38:25.870702  1682 layer_factory.hpp:77] Creating layer conv2/3x3_reduce
I0403 14:38:25.870726  1682 net.cpp:91] Creating Layer conv2/3x3_reduce
I0403 14:38:25.870743  1682 net.cpp:425] conv2/3x3_reduce <- pool1/norm1
I0403 14:38:25.870761  1682 net.cpp:399] conv2/3x3_reduce -> conv2/3x3_reduce
I0403 14:38:25.872195  1682 net.cpp:141] Setting up conv2/3x3_reduce
I0403 14:38:25.872227  1682 net.cpp:148] Top shape: 24 64 56 56 (4816896)
I0403 14:38:25.872243  1682 net.cpp:156] Memory required for data: 226395168
I0403 14:38:25.872267  1682 layer_factory.hpp:77] Creating layer conv2/relu_3x3_reduce
I0403 14:38:25.872287  1682 net.cpp:91] Creating Layer conv2/relu_3x3_reduce
I0403 14:38:25.872303  1682 net.cpp:425] conv2/relu_3x3_reduce <- conv2/3x3_reduce
I0403 14:38:25.872320  1682 net.cpp:386] conv2/relu_3x3_reduce -> conv2/3x3_reduce (in-place)
I0403 14:38:25.872584  1682 net.cpp:141] Setting up conv2/relu_3x3_reduce
I0403 14:38:25.872612  1682 net.cpp:148] Top shape: 24 64 56 56 (4816896)
I0403 14:38:25.872628  1682 net.cpp:156] Memory required for data: 245662752
I0403 14:38:25.872645  1682 layer_factory.hpp:77] Creating layer conv2/3x3
I0403 14:38:25.872668  1682 net.cpp:91] Creating Layer conv2/3x3
I0403 14:38:25.872686  1682 net.cpp:425] conv2/3x3 <- conv2/3x3_reduce
I0403 14:38:25.872705  1682 net.cpp:399] conv2/3x3 -> conv2/3x3
I0403 14:38:25.875146  1682 net.cpp:141] Setting up conv2/3x3
I0403 14:38:25.875181  1682 net.cpp:148] Top shape: 24 192 56 56 (14450688)
I0403 14:38:25.875200  1682 net.cpp:156] Memory required for data: 303465504
I0403 14:38:25.875221  1682 layer_factory.hpp:77] Creating layer conv2/relu_3x3
I0403 14:38:25.875246  1682 net.cpp:91] Creating Layer conv2/relu_3x3
I0403 14:38:25.875263  1682 net.cpp:425] conv2/relu_3x3 <- conv2/3x3
I0403 14:38:25.875280  1682 net.cpp:386] conv2/relu_3x3 -> conv2/3x3 (in-place)
I0403 14:38:25.875458  1682 net.cpp:141] Setting up conv2/relu_3x3
I0403 14:38:25.875484  1682 net.cpp:148] Top shape: 24 192 56 56 (14450688)
I0403 14:38:25.875543  1682 net.cpp:156] Memory required for data: 361268256
I0403 14:38:25.875560  1682 layer_factory.hpp:77] Creating layer conv2/norm2
I0403 14:38:25.875581  1682 net.cpp:91] Creating Layer conv2/norm2
I0403 14:38:25.875597  1682 net.cpp:425] conv2/norm2 <- conv2/3x3
I0403 14:38:25.875617  1682 net.cpp:399] conv2/norm2 -> conv2/norm2
I0403 14:38:25.875916  1682 net.cpp:141] Setting up conv2/norm2
I0403 14:38:25.875946  1682 net.cpp:148] Top shape: 24 192 56 56 (14450688)
I0403 14:38:25.875962  1682 net.cpp:156] Memory required for data: 419071008
I0403 14:38:25.875977  1682 layer_factory.hpp:77] Creating layer pool2/3x3_s2
I0403 14:38:25.875994  1682 net.cpp:91] Creating Layer pool2/3x3_s2
I0403 14:38:25.876010  1682 net.cpp:425] pool2/3x3_s2 <- conv2/norm2
I0403 14:38:25.876030  1682 net.cpp:399] pool2/3x3_s2 -> pool2/3x3_s2
I0403 14:38:25.876080  1682 net.cpp:141] Setting up pool2/3x3_s2
I0403 14:38:25.876106  1682 net.cpp:148] Top shape: 24 192 28 28 (3612672)
I0403 14:38:25.876121  1682 net.cpp:156] Memory required for data: 433521696
I0403 14:38:25.876137  1682 layer_factory.hpp:77] Creating layer pool2/3x3_s2_pool2/3x3_s2_0_split
I0403 14:38:25.876153  1682 net.cpp:91] Creating Layer pool2/3x3_s2_pool2/3x3_s2_0_split
I0403 14:38:25.876168  1682 net.cpp:425] pool2/3x3_s2_pool2/3x3_s2_0_split <- pool2/3x3_s2
I0403 14:38:25.876190  1682 net.cpp:399] pool2/3x3_s2_pool2/3x3_s2_0_split -> pool2/3x3_s2_pool2/3x3_s2_0_split_0
I0403 14:38:25.876211  1682 net.cpp:399] pool2/3x3_s2_pool2/3x3_s2_0_split -> pool2/3x3_s2_pool2/3x3_s2_0_split_1
I0403 14:38:25.876235  1682 net.cpp:399] pool2/3x3_s2_pool2/3x3_s2_0_split -> pool2/3x3_s2_pool2/3x3_s2_0_split_2
I0403 14:38:25.876256  1682 net.cpp:399] pool2/3x3_s2_pool2/3x3_s2_0_split -> pool2/3x3_s2_pool2/3x3_s2_0_split_3
I0403 14:38:25.876327  1682 net.cpp:141] Setting up pool2/3x3_s2_pool2/3x3_s2_0_split
I0403 14:38:25.876348  1682 net.cpp:148] Top shape: 24 192 28 28 (3612672)
I0403 14:38:25.876364  1682 net.cpp:148] Top shape: 24 192 28 28 (3612672)
I0403 14:38:25.876379  1682 net.cpp:148] Top shape: 24 192 28 28 (3612672)
I0403 14:38:25.876395  1682 net.cpp:148] Top shape: 24 192 28 28 (3612672)
I0403 14:38:25.876410  1682 net.cpp:156] Memory required for data: 491324448
I0403 14:38:25.876425  1682 layer_factory.hpp:77] Creating layer inception_3a/1x1
I0403 14:38:25.876448  1682 net.cpp:91] Creating Layer inception_3a/1x1
I0403 14:38:25.876468  1682 net.cpp:425] inception_3a/1x1 <- pool2/3x3_s2_pool2/3x3_s2_0_split_0
I0403 14:38:25.876489  1682 net.cpp:399] inception_3a/1x1 -> inception_3a/1x1
I0403 14:38:25.878059  1682 net.cpp:141] Setting up inception_3a/1x1
I0403 14:38:25.878089  1682 net.cpp:148] Top shape: 24 64 28 28 (1204224)
I0403 14:38:25.878106  1682 net.cpp:156] Memory required for data: 496141344
I0403 14:38:25.878125  1682 layer_factory.hpp:77] Creating layer inception_3a/relu_1x1
I0403 14:38:25.878144  1682 net.cpp:91] Creating Layer inception_3a/relu_1x1
I0403 14:38:25.878160  1682 net.cpp:425] inception_3a/relu_1x1 <- inception_3a/1x1
I0403 14:38:25.878185  1682 net.cpp:386] inception_3a/relu_1x1 -> inception_3a/1x1 (in-place)
I0403 14:38:25.878363  1682 net.cpp:141] Setting up inception_3a/relu_1x1
I0403 14:38:25.878389  1682 net.cpp:148] Top shape: 24 64 28 28 (1204224)
I0403 14:38:25.878406  1682 net.cpp:156] Memory required for data: 500958240
I0403 14:38:25.878420  1682 layer_factory.hpp:77] Creating layer inception_3a/3x3_reduce
I0403 14:38:25.878443  1682 net.cpp:91] Creating Layer inception_3a/3x3_reduce
I0403 14:38:25.878461  1682 net.cpp:425] inception_3a/3x3_reduce <- pool2/3x3_s2_pool2/3x3_s2_0_split_1
I0403 14:38:25.878484  1682 net.cpp:399] inception_3a/3x3_reduce -> inception_3a/3x3_reduce
I0403 14:38:25.880254  1682 net.cpp:141] Setting up inception_3a/3x3_reduce
I0403 14:38:25.880285  1682 net.cpp:148] Top shape: 24 96 28 28 (1806336)
I0403 14:38:25.880302  1682 net.cpp:156] Memory required for data: 508183584
I0403 14:38:25.880326  1682 layer_factory.hpp:77] Creating layer inception_3a/relu_3x3_reduce
I0403 14:38:25.880365  1682 net.cpp:91] Creating Layer inception_3a/relu_3x3_reduce
I0403 14:38:25.880384  1682 net.cpp:425] inception_3a/relu_3x3_reduce <- inception_3a/3x3_reduce
I0403 14:38:25.880403  1682 net.cpp:386] inception_3a/relu_3x3_reduce -> inception_3a/3x3_reduce (in-place)
I0403 14:38:25.880601  1682 net.cpp:141] Setting up inception_3a/relu_3x3_reduce
I0403 14:38:25.880628  1682 net.cpp:148] Top shape: 24 96 28 28 (1806336)
I0403 14:38:25.880645  1682 net.cpp:156] Memory required for data: 515408928
I0403 14:38:25.880661  1682 layer_factory.hpp:77] Creating layer inception_3a/3x3
I0403 14:38:25.880684  1682 net.cpp:91] Creating Layer inception_3a/3x3
I0403 14:38:25.880702  1682 net.cpp:425] inception_3a/3x3 <- inception_3a/3x3_reduce
I0403 14:38:25.880720  1682 net.cpp:399] inception_3a/3x3 -> inception_3a/3x3
I0403 14:38:25.882472  1682 net.cpp:141] Setting up inception_3a/3x3
I0403 14:38:25.882501  1682 net.cpp:148] Top shape: 24 128 28 28 (2408448)
I0403 14:38:25.882519  1682 net.cpp:156] Memory required for data: 525042720
I0403 14:38:25.882537  1682 layer_factory.hpp:77] Creating layer inception_3a/relu_3x3
I0403 14:38:25.882560  1682 net.cpp:91] Creating Layer inception_3a/relu_3x3
I0403 14:38:25.882577  1682 net.cpp:425] inception_3a/relu_3x3 <- inception_3a/3x3
I0403 14:38:25.882596  1682 net.cpp:386] inception_3a/relu_3x3 -> inception_3a/3x3 (in-place)
I0403 14:38:25.882887  1682 net.cpp:141] Setting up inception_3a/relu_3x3
I0403 14:38:25.882915  1682 net.cpp:148] Top shape: 24 128 28 28 (2408448)
I0403 14:38:25.882931  1682 net.cpp:156] Memory required for data: 534676512
I0403 14:38:25.882947  1682 layer_factory.hpp:77] Creating layer inception_3a/5x5_reduce
I0403 14:38:25.882971  1682 net.cpp:91] Creating Layer inception_3a/5x5_reduce
I0403 14:38:25.882989  1682 net.cpp:425] inception_3a/5x5_reduce <- pool2/3x3_s2_pool2/3x3_s2_0_split_2
I0403 14:38:25.883011  1682 net.cpp:399] inception_3a/5x5_reduce -> inception_3a/5x5_reduce
I0403 14:38:25.884024  1682 net.cpp:141] Setting up inception_3a/5x5_reduce
I0403 14:38:25.884053  1682 net.cpp:148] Top shape: 24 16 28 28 (301056)
I0403 14:38:25.884070  1682 net.cpp:156] Memory required for data: 535880736
I0403 14:38:25.884089  1682 layer_factory.hpp:77] Creating layer inception_3a/relu_5x5_reduce
I0403 14:38:25.884111  1682 net.cpp:91] Creating Layer inception_3a/relu_5x5_reduce
I0403 14:38:25.884130  1682 net.cpp:425] inception_3a/relu_5x5_reduce <- inception_3a/5x5_reduce
I0403 14:38:25.884148  1682 net.cpp:386] inception_3a/relu_5x5_reduce -> inception_3a/5x5_reduce (in-place)
I0403 14:38:25.884461  1682 net.cpp:141] Setting up inception_3a/relu_5x5_reduce
I0403 14:38:25.884490  1682 net.cpp:148] Top shape: 24 16 28 28 (301056)
I0403 14:38:25.884505  1682 net.cpp:156] Memory required for data: 537084960
I0403 14:38:25.884521  1682 layer_factory.hpp:77] Creating layer inception_3a/5x5
I0403 14:38:25.884546  1682 net.cpp:91] Creating Layer inception_3a/5x5
I0403 14:38:25.884565  1682 net.cpp:425] inception_3a/5x5 <- inception_3a/5x5_reduce
I0403 14:38:25.884585  1682 net.cpp:399] inception_3a/5x5 -> inception_3a/5x5
I0403 14:38:25.885637  1682 net.cpp:141] Setting up inception_3a/5x5
I0403 14:38:25.885666  1682 net.cpp:148] Top shape: 24 32 28 28 (602112)
I0403 14:38:25.885682  1682 net.cpp:156] Memory required for data: 539493408
I0403 14:38:25.885702  1682 layer_factory.hpp:77] Creating layer inception_3a/relu_5x5
I0403 14:38:25.885721  1682 net.cpp:91] Creating Layer inception_3a/relu_5x5
I0403 14:38:25.885738  1682 net.cpp:425] inception_3a/relu_5x5 <- inception_3a/5x5
I0403 14:38:25.885761  1682 net.cpp:386] inception_3a/relu_5x5 -> inception_3a/5x5 (in-place)
I0403 14:38:25.885942  1682 net.cpp:141] Setting up inception_3a/relu_5x5
I0403 14:38:25.885968  1682 net.cpp:148] Top shape: 24 32 28 28 (602112)
I0403 14:38:25.885984  1682 net.cpp:156] Memory required for data: 541901856
I0403 14:38:25.885999  1682 layer_factory.hpp:77] Creating layer inception_3a/pool
I0403 14:38:25.886020  1682 net.cpp:91] Creating Layer inception_3a/pool
I0403 14:38:25.886052  1682 net.cpp:425] inception_3a/pool <- pool2/3x3_s2_pool2/3x3_s2_0_split_3
I0403 14:38:25.886071  1682 net.cpp:399] inception_3a/pool -> inception_3a/pool
I0403 14:38:25.886132  1682 net.cpp:141] Setting up inception_3a/pool
I0403 14:38:25.886157  1682 net.cpp:148] Top shape: 24 192 28 28 (3612672)
I0403 14:38:25.886173  1682 net.cpp:156] Memory required for data: 556352544
I0403 14:38:25.886193  1682 layer_factory.hpp:77] Creating layer inception_3a/pool_proj
I0403 14:38:25.886220  1682 net.cpp:91] Creating Layer inception_3a/pool_proj
I0403 14:38:25.886240  1682 net.cpp:425] inception_3a/pool_proj <- inception_3a/pool
I0403 14:38:25.886261  1682 net.cpp:399] inception_3a/pool_proj -> inception_3a/pool_proj
I0403 14:38:25.887256  1682 net.cpp:141] Setting up inception_3a/pool_proj
I0403 14:38:25.887287  1682 net.cpp:148] Top shape: 24 32 28 28 (602112)
I0403 14:38:25.887305  1682 net.cpp:156] Memory required for data: 558760992
I0403 14:38:25.887326  1682 layer_factory.hpp:77] Creating layer inception_3a/relu_pool_proj
I0403 14:38:25.887347  1682 net.cpp:91] Creating Layer inception_3a/relu_pool_proj
I0403 14:38:25.887365  1682 net.cpp:425] inception_3a/relu_pool_proj <- inception_3a/pool_proj
I0403 14:38:25.887382  1682 net.cpp:386] inception_3a/relu_pool_proj -> inception_3a/pool_proj (in-place)
I0403 14:38:25.887665  1682 net.cpp:141] Setting up inception_3a/relu_pool_proj
I0403 14:38:25.887691  1682 net.cpp:148] Top shape: 24 32 28 28 (602112)
I0403 14:38:25.887707  1682 net.cpp:156] Memory required for data: 561169440
I0403 14:38:25.887722  1682 layer_factory.hpp:77] Creating layer inception_3a/output
I0403 14:38:25.887742  1682 net.cpp:91] Creating Layer inception_3a/output
I0403 14:38:25.887758  1682 net.cpp:425] inception_3a/output <- inception_3a/1x1
I0403 14:38:25.887774  1682 net.cpp:425] inception_3a/output <- inception_3a/3x3
I0403 14:38:25.887790  1682 net.cpp:425] inception_3a/output <- inception_3a/5x5
I0403 14:38:25.887805  1682 net.cpp:425] inception_3a/output <- inception_3a/pool_proj
I0403 14:38:25.887825  1682 net.cpp:399] inception_3a/output -> inception_3a/output
I0403 14:38:25.887876  1682 net.cpp:141] Setting up inception_3a/output
I0403 14:38:25.887899  1682 net.cpp:148] Top shape: 24 256 28 28 (4816896)
I0403 14:38:25.887914  1682 net.cpp:156] Memory required for data: 580437024
I0403 14:38:25.887929  1682 layer_factory.hpp:77] Creating layer inception_3a/output_inception_3a/output_0_split
I0403 14:38:25.887946  1682 net.cpp:91] Creating Layer inception_3a/output_inception_3a/output_0_split
I0403 14:38:25.887961  1682 net.cpp:425] inception_3a/output_inception_3a/output_0_split <- inception_3a/output
I0403 14:38:25.887981  1682 net.cpp:399] inception_3a/output_inception_3a/output_0_split -> inception_3a/output_inception_3a/output_0_split_0
I0403 14:38:25.888003  1682 net.cpp:399] inception_3a/output_inception_3a/output_0_split -> inception_3a/output_inception_3a/output_0_split_1
I0403 14:38:25.888039  1682 net.cpp:399] inception_3a/output_inception_3a/output_0_split -> inception_3a/output_inception_3a/output_0_split_2
I0403 14:38:25.888062  1682 net.cpp:399] inception_3a/output_inception_3a/output_0_split -> inception_3a/output_inception_3a/output_0_split_3
I0403 14:38:25.888144  1682 net.cpp:141] Setting up inception_3a/output_inception_3a/output_0_split
I0403 14:38:25.888167  1682 net.cpp:148] Top shape: 24 256 28 28 (4816896)
I0403 14:38:25.888191  1682 net.cpp:148] Top shape: 24 256 28 28 (4816896)
I0403 14:38:25.888208  1682 net.cpp:148] Top shape: 24 256 28 28 (4816896)
I0403 14:38:25.888226  1682 net.cpp:148] Top shape: 24 256 28 28 (4816896)
I0403 14:38:25.888239  1682 net.cpp:156] Memory required for data: 657507360
I0403 14:38:25.888254  1682 layer_factory.hpp:77] Creating layer inception_3b/1x1
I0403 14:38:25.888278  1682 net.cpp:91] Creating Layer inception_3b/1x1
I0403 14:38:25.888296  1682 net.cpp:425] inception_3b/1x1 <- inception_3a/output_inception_3a/output_0_split_0
I0403 14:38:25.888319  1682 net.cpp:399] inception_3b/1x1 -> inception_3b/1x1
I0403 14:38:25.889511  1682 net.cpp:141] Setting up inception_3b/1x1
I0403 14:38:25.889555  1682 net.cpp:148] Top shape: 24 128 28 28 (2408448)
I0403 14:38:25.889574  1682 net.cpp:156] Memory required for data: 667141152
I0403 14:38:25.889591  1682 layer_factory.hpp:77] Creating layer inception_3b/relu_1x1
I0403 14:38:25.889611  1682 net.cpp:91] Creating Layer inception_3b/relu_1x1
I0403 14:38:25.889626  1682 net.cpp:425] inception_3b/relu_1x1 <- inception_3b/1x1
I0403 14:38:25.889647  1682 net.cpp:386] inception_3b/relu_1x1 -> inception_3b/1x1 (in-place)
I0403 14:38:25.889822  1682 net.cpp:141] Setting up inception_3b/relu_1x1
I0403 14:38:25.889847  1682 net.cpp:148] Top shape: 24 128 28 28 (2408448)
I0403 14:38:25.889874  1682 net.cpp:156] Memory required for data: 676774944
I0403 14:38:25.889890  1682 layer_factory.hpp:77] Creating layer inception_3b/3x3_reduce
I0403 14:38:25.889914  1682 net.cpp:91] Creating Layer inception_3b/3x3_reduce
I0403 14:38:25.889933  1682 net.cpp:425] inception_3b/3x3_reduce <- inception_3a/output_inception_3a/output_0_split_1
I0403 14:38:25.889955  1682 net.cpp:399] inception_3b/3x3_reduce -> inception_3b/3x3_reduce
I0403 14:38:25.891124  1682 net.cpp:141] Setting up inception_3b/3x3_reduce
I0403 14:38:25.891152  1682 net.cpp:148] Top shape: 24 128 28 28 (2408448)
I0403 14:38:25.891168  1682 net.cpp:156] Memory required for data: 686408736
I0403 14:38:25.891194  1682 layer_factory.hpp:77] Creating layer inception_3b/relu_3x3_reduce
I0403 14:38:25.891214  1682 net.cpp:91] Creating Layer inception_3b/relu_3x3_reduce
I0403 14:38:25.891232  1682 net.cpp:425] inception_3b/relu_3x3_reduce <- inception_3b/3x3_reduce
I0403 14:38:25.891252  1682 net.cpp:386] inception_3b/relu_3x3_reduce -> inception_3b/3x3_reduce (in-place)
I0403 14:38:25.891427  1682 net.cpp:141] Setting up inception_3b/relu_3x3_reduce
I0403 14:38:25.891451  1682 net.cpp:148] Top shape: 24 128 28 28 (2408448)
I0403 14:38:25.891469  1682 net.cpp:156] Memory required for data: 696042528
I0403 14:38:25.891484  1682 layer_factory.hpp:77] Creating layer inception_3b/3x3
I0403 14:38:25.891510  1682 net.cpp:91] Creating Layer inception_3b/3x3
I0403 14:38:25.891528  1682 net.cpp:425] inception_3b/3x3 <- inception_3b/3x3_reduce
I0403 14:38:25.891547  1682 net.cpp:399] inception_3b/3x3 -> inception_3b/3x3
I0403 14:38:25.894718  1682 net.cpp:141] Setting up inception_3b/3x3
I0403 14:38:25.894749  1682 net.cpp:148] Top shape: 24 192 28 28 (3612672)
I0403 14:38:25.894765  1682 net.cpp:156] Memory required for data: 710493216
I0403 14:38:25.894784  1682 layer_factory.hpp:77] Creating layer inception_3b/relu_3x3
I0403 14:38:25.894805  1682 net.cpp:91] Creating Layer inception_3b/relu_3x3
I0403 14:38:25.894822  1682 net.cpp:425] inception_3b/relu_3x3 <- inception_3b/3x3
I0403 14:38:25.894840  1682 net.cpp:386] inception_3b/relu_3x3 -> inception_3b/3x3 (in-place)
I0403 14:38:25.895125  1682 net.cpp:141] Setting up inception_3b/relu_3x3
I0403 14:38:25.895153  1682 net.cpp:148] Top shape: 24 192 28 28 (3612672)
I0403 14:38:25.895169  1682 net.cpp:156] Memory required for data: 724943904
I0403 14:38:25.895190  1682 layer_factory.hpp:77] Creating layer inception_3b/5x5_reduce
I0403 14:38:25.895215  1682 net.cpp:91] Creating Layer inception_3b/5x5_reduce
I0403 14:38:25.895233  1682 net.cpp:425] inception_3b/5x5_reduce <- inception_3a/output_inception_3a/output_0_split_2
I0403 14:38:25.895256  1682 net.cpp:399] inception_3b/5x5_reduce -> inception_3b/5x5_reduce
I0403 14:38:25.896314  1682 net.cpp:141] Setting up inception_3b/5x5_reduce
I0403 14:38:25.896343  1682 net.cpp:148] Top shape: 24 32 28 28 (602112)
I0403 14:38:25.896358  1682 net.cpp:156] Memory required for data: 727352352
I0403 14:38:25.896378  1682 layer_factory.hpp:77] Creating layer inception_3b/relu_5x5_reduce
I0403 14:38:25.896395  1682 net.cpp:91] Creating Layer inception_3b/relu_5x5_reduce
I0403 14:38:25.896412  1682 net.cpp:425] inception_3b/relu_5x5_reduce <- inception_3b/5x5_reduce
I0403 14:38:25.896431  1682 net.cpp:386] inception_3b/relu_5x5_reduce -> inception_3b/5x5_reduce (in-place)
I0403 14:38:25.896618  1682 net.cpp:141] Setting up inception_3b/relu_5x5_reduce
I0403 14:38:25.896643  1682 net.cpp:148] Top shape: 24 32 28 28 (602112)
I0403 14:38:25.896658  1682 net.cpp:156] Memory required for data: 729760800
I0403 14:38:25.896672  1682 layer_factory.hpp:77] Creating layer inception_3b/5x5
I0403 14:38:25.896695  1682 net.cpp:91] Creating Layer inception_3b/5x5
I0403 14:38:25.896713  1682 net.cpp:425] inception_3b/5x5 <- inception_3b/5x5_reduce
I0403 14:38:25.896733  1682 net.cpp:399] inception_3b/5x5 -> inception_3b/5x5
I0403 14:38:25.898772  1682 net.cpp:141] Setting up inception_3b/5x5
I0403 14:38:25.898802  1682 net.cpp:148] Top shape: 24 96 28 28 (1806336)
I0403 14:38:25.898818  1682 net.cpp:156] Memory required for data: 736986144
I0403 14:38:25.898838  1682 layer_factory.hpp:77] Creating layer inception_3b/relu_5x5
I0403 14:38:25.898856  1682 net.cpp:91] Creating Layer inception_3b/relu_5x5
I0403 14:38:25.898872  1682 net.cpp:425] inception_3b/relu_5x5 <- inception_3b/5x5
I0403 14:38:25.898891  1682 net.cpp:386] inception_3b/relu_5x5 -> inception_3b/5x5 (in-place)
I0403 14:38:25.899085  1682 net.cpp:141] Setting up inception_3b/relu_5x5
I0403 14:38:25.899111  1682 net.cpp:148] Top shape: 24 96 28 28 (1806336)
I0403 14:38:25.899126  1682 net.cpp:156] Memory required for data: 744211488
I0403 14:38:25.899140  1682 layer_factory.hpp:77] Creating layer inception_3b/pool
I0403 14:38:25.899159  1682 net.cpp:91] Creating Layer inception_3b/pool
I0403 14:38:25.899175  1682 net.cpp:425] inception_3b/pool <- inception_3a/output_inception_3a/output_0_split_3
I0403 14:38:25.899199  1682 net.cpp:399] inception_3b/pool -> inception_3b/pool
I0403 14:38:25.899260  1682 net.cpp:141] Setting up inception_3b/pool
I0403 14:38:25.899283  1682 net.cpp:148] Top shape: 24 256 28 28 (4816896)
I0403 14:38:25.899298  1682 net.cpp:156] Memory required for data: 763479072
I0403 14:38:25.899314  1682 layer_factory.hpp:77] Creating layer inception_3b/pool_proj
I0403 14:38:25.899338  1682 net.cpp:91] Creating Layer inception_3b/pool_proj
I0403 14:38:25.899355  1682 net.cpp:425] inception_3b/pool_proj <- inception_3b/pool
I0403 14:38:25.899376  1682 net.cpp:399] inception_3b/pool_proj -> inception_3b/pool_proj
I0403 14:38:25.900449  1682 net.cpp:141] Setting up inception_3b/pool_proj
I0403 14:38:25.900480  1682 net.cpp:148] Top shape: 24 64 28 28 (1204224)
I0403 14:38:25.900496  1682 net.cpp:156] Memory required for data: 768295968
I0403 14:38:25.900516  1682 layer_factory.hpp:77] Creating layer inception_3b/relu_pool_proj
I0403 14:38:25.900534  1682 net.cpp:91] Creating Layer inception_3b/relu_pool_proj
I0403 14:38:25.900552  1682 net.cpp:425] inception_3b/relu_pool_proj <- inception_3b/pool_proj
I0403 14:38:25.900568  1682 net.cpp:386] inception_3b/relu_pool_proj -> inception_3b/pool_proj (in-place)
I0403 14:38:25.900971  1682 net.cpp:141] Setting up inception_3b/relu_pool_proj
I0403 14:38:25.900998  1682 net.cpp:148] Top shape: 24 64 28 28 (1204224)
I0403 14:38:25.901015  1682 net.cpp:156] Memory required for data: 773112864
I0403 14:38:25.901029  1682 layer_factory.hpp:77] Creating layer inception_3b/output
I0403 14:38:25.901049  1682 net.cpp:91] Creating Layer inception_3b/output
I0403 14:38:25.901067  1682 net.cpp:425] inception_3b/output <- inception_3b/1x1
I0403 14:38:25.901083  1682 net.cpp:425] inception_3b/output <- inception_3b/3x3
I0403 14:38:25.901100  1682 net.cpp:425] inception_3b/output <- inception_3b/5x5
I0403 14:38:25.901116  1682 net.cpp:425] inception_3b/output <- inception_3b/pool_proj
I0403 14:38:25.901134  1682 net.cpp:399] inception_3b/output -> inception_3b/output
I0403 14:38:25.901183  1682 net.cpp:141] Setting up inception_3b/output
I0403 14:38:25.901207  1682 net.cpp:148] Top shape: 24 480 28 28 (9031680)
I0403 14:38:25.901222  1682 net.cpp:156] Memory required for data: 809239584
I0403 14:38:25.901237  1682 layer_factory.hpp:77] Creating layer pool3/3x3_s2
I0403 14:38:25.901255  1682 net.cpp:91] Creating Layer pool3/3x3_s2
I0403 14:38:25.901271  1682 net.cpp:425] pool3/3x3_s2 <- inception_3b/output
I0403 14:38:25.901307  1682 net.cpp:399] pool3/3x3_s2 -> pool3/3x3_s2
I0403 14:38:25.901366  1682 net.cpp:141] Setting up pool3/3x3_s2
I0403 14:38:25.901391  1682 net.cpp:148] Top shape: 24 480 14 14 (2257920)
I0403 14:38:25.901404  1682 net.cpp:156] Memory required for data: 818271264
I0403 14:38:25.901419  1682 layer_factory.hpp:77] Creating layer pool3/3x3_s2_pool3/3x3_s2_0_split
I0403 14:38:25.901439  1682 net.cpp:91] Creating Layer pool3/3x3_s2_pool3/3x3_s2_0_split
I0403 14:38:25.901455  1682 net.cpp:425] pool3/3x3_s2_pool3/3x3_s2_0_split <- pool3/3x3_s2
I0403 14:38:25.901476  1682 net.cpp:399] pool3/3x3_s2_pool3/3x3_s2_0_split -> pool3/3x3_s2_pool3/3x3_s2_0_split_0
I0403 14:38:25.901497  1682 net.cpp:399] pool3/3x3_s2_pool3/3x3_s2_0_split -> pool3/3x3_s2_pool3/3x3_s2_0_split_1
I0403 14:38:25.901517  1682 net.cpp:399] pool3/3x3_s2_pool3/3x3_s2_0_split -> pool3/3x3_s2_pool3/3x3_s2_0_split_2
I0403 14:38:25.901537  1682 net.cpp:399] pool3/3x3_s2_pool3/3x3_s2_0_split -> pool3/3x3_s2_pool3/3x3_s2_0_split_3
I0403 14:38:25.901615  1682 net.cpp:141] Setting up pool3/3x3_s2_pool3/3x3_s2_0_split
I0403 14:38:25.901638  1682 net.cpp:148] Top shape: 24 480 14 14 (2257920)
I0403 14:38:25.901659  1682 net.cpp:148] Top shape: 24 480 14 14 (2257920)
I0403 14:38:25.901674  1682 net.cpp:148] Top shape: 24 480 14 14 (2257920)
I0403 14:38:25.901690  1682 net.cpp:148] Top shape: 24 480 14 14 (2257920)
I0403 14:38:25.901705  1682 net.cpp:156] Memory required for data: 854397984
I0403 14:38:25.901720  1682 layer_factory.hpp:77] Creating layer inception_4a/1x1
I0403 14:38:25.901739  1682 net.cpp:91] Creating Layer inception_4a/1x1
I0403 14:38:25.901757  1682 net.cpp:425] inception_4a/1x1 <- pool3/3x3_s2_pool3/3x3_s2_0_split_0
I0403 14:38:25.901777  1682 net.cpp:399] inception_4a/1x1 -> inception_4a/1x1
I0403 14:38:25.903379  1682 net.cpp:141] Setting up inception_4a/1x1
I0403 14:38:25.903410  1682 net.cpp:148] Top shape: 24 192 14 14 (903168)
I0403 14:38:25.903427  1682 net.cpp:156] Memory required for data: 858010656
I0403 14:38:25.903446  1682 layer_factory.hpp:77] Creating layer inception_4a/relu_1x1
I0403 14:38:25.903466  1682 net.cpp:91] Creating Layer inception_4a/relu_1x1
I0403 14:38:25.903483  1682 net.cpp:425] inception_4a/relu_1x1 <- inception_4a/1x1
I0403 14:38:25.903501  1682 net.cpp:386] inception_4a/relu_1x1 -> inception_4a/1x1 (in-place)
I0403 14:38:25.903683  1682 net.cpp:141] Setting up inception_4a/relu_1x1
I0403 14:38:25.903708  1682 net.cpp:148] Top shape: 24 192 14 14 (903168)
I0403 14:38:25.903723  1682 net.cpp:156] Memory required for data: 861623328
I0403 14:38:25.903739  1682 layer_factory.hpp:77] Creating layer inception_4a/3x3_reduce
I0403 14:38:25.903761  1682 net.cpp:91] Creating Layer inception_4a/3x3_reduce
I0403 14:38:25.903779  1682 net.cpp:425] inception_4a/3x3_reduce <- pool3/3x3_s2_pool3/3x3_s2_0_split_1
I0403 14:38:25.903800  1682 net.cpp:399] inception_4a/3x3_reduce -> inception_4a/3x3_reduce
I0403 14:38:25.905092  1682 net.cpp:141] Setting up inception_4a/3x3_reduce
I0403 14:38:25.905120  1682 net.cpp:148] Top shape: 24 96 14 14 (451584)
I0403 14:38:25.905136  1682 net.cpp:156] Memory required for data: 863429664
I0403 14:38:25.905164  1682 layer_factory.hpp:77] Creating layer inception_4a/relu_3x3_reduce
I0403 14:38:25.905189  1682 net.cpp:91] Creating Layer inception_4a/relu_3x3_reduce
I0403 14:38:25.905206  1682 net.cpp:425] inception_4a/relu_3x3_reduce <- inception_4a/3x3_reduce
I0403 14:38:25.905225  1682 net.cpp:386] inception_4a/relu_3x3_reduce -> inception_4a/3x3_reduce (in-place)
I0403 14:38:25.905402  1682 net.cpp:141] Setting up inception_4a/relu_3x3_reduce
I0403 14:38:25.905431  1682 net.cpp:148] Top shape: 24 96 14 14 (451584)
I0403 14:38:25.905446  1682 net.cpp:156] Memory required for data: 865236000
I0403 14:38:25.905462  1682 layer_factory.hpp:77] Creating layer inception_4a/3x3
I0403 14:38:25.905483  1682 net.cpp:91] Creating Layer inception_4a/3x3
I0403 14:38:25.905501  1682 net.cpp:425] inception_4a/3x3 <- inception_4a/3x3_reduce
I0403 14:38:25.905520  1682 net.cpp:399] inception_4a/3x3 -> inception_4a/3x3
I0403 14:38:25.908295  1682 net.cpp:141] Setting up inception_4a/3x3
I0403 14:38:25.908324  1682 net.cpp:148] Top shape: 24 208 14 14 (978432)
I0403 14:38:25.908340  1682 net.cpp:156] Memory required for data: 869149728
I0403 14:38:25.908360  1682 layer_factory.hpp:77] Creating layer inception_4a/relu_3x3
I0403 14:38:25.908377  1682 net.cpp:91] Creating Layer inception_4a/relu_3x3
I0403 14:38:25.908395  1682 net.cpp:425] inception_4a/relu_3x3 <- inception_4a/3x3
I0403 14:38:25.908414  1682 net.cpp:386] inception_4a/relu_3x3 -> inception_4a/3x3 (in-place)
I0403 14:38:25.908704  1682 net.cpp:141] Setting up inception_4a/relu_3x3
I0403 14:38:25.908730  1682 net.cpp:148] Top shape: 24 208 14 14 (978432)
I0403 14:38:25.908746  1682 net.cpp:156] Memory required for data: 873063456
I0403 14:38:25.908759  1682 layer_factory.hpp:77] Creating layer inception_4a/5x5_reduce
I0403 14:38:25.908782  1682 net.cpp:91] Creating Layer inception_4a/5x5_reduce
I0403 14:38:25.908800  1682 net.cpp:425] inception_4a/5x5_reduce <- pool3/3x3_s2_pool3/3x3_s2_0_split_2
I0403 14:38:25.908823  1682 net.cpp:399] inception_4a/5x5_reduce -> inception_4a/5x5_reduce
I0403 14:38:25.909834  1682 net.cpp:141] Setting up inception_4a/5x5_reduce
I0403 14:38:25.909862  1682 net.cpp:148] Top shape: 24 16 14 14 (75264)
I0403 14:38:25.909878  1682 net.cpp:156] Memory required for data: 873364512
I0403 14:38:25.909896  1682 layer_factory.hpp:77] Creating layer inception_4a/relu_5x5_reduce
I0403 14:38:25.909914  1682 net.cpp:91] Creating Layer inception_4a/relu_5x5_reduce
I0403 14:38:25.909929  1682 net.cpp:425] inception_4a/relu_5x5_reduce <- inception_4a/5x5_reduce
I0403 14:38:25.909948  1682 net.cpp:386] inception_4a/relu_5x5_reduce -> inception_4a/5x5_reduce (in-place)
I0403 14:38:25.910125  1682 net.cpp:141] Setting up inception_4a/relu_5x5_reduce
I0403 14:38:25.910150  1682 net.cpp:148] Top shape: 24 16 14 14 (75264)
I0403 14:38:25.910164  1682 net.cpp:156] Memory required for data: 873665568
I0403 14:38:25.910183  1682 layer_factory.hpp:77] Creating layer inception_4a/5x5
I0403 14:38:25.910223  1682 net.cpp:91] Creating Layer inception_4a/5x5
I0403 14:38:25.910240  1682 net.cpp:425] inception_4a/5x5 <- inception_4a/5x5_reduce
I0403 14:38:25.910262  1682 net.cpp:399] inception_4a/5x5 -> inception_4a/5x5
I0403 14:38:25.911365  1682 net.cpp:141] Setting up inception_4a/5x5
I0403 14:38:25.911392  1682 net.cpp:148] Top shape: 24 48 14 14 (225792)
I0403 14:38:25.911408  1682 net.cpp:156] Memory required for data: 874568736
I0403 14:38:25.911427  1682 layer_factory.hpp:77] Creating layer inception_4a/relu_5x5
I0403 14:38:25.911447  1682 net.cpp:91] Creating Layer inception_4a/relu_5x5
I0403 14:38:25.911466  1682 net.cpp:425] inception_4a/relu_5x5 <- inception_4a/5x5
I0403 14:38:25.911484  1682 net.cpp:386] inception_4a/relu_5x5 -> inception_4a/5x5 (in-place)
I0403 14:38:25.911662  1682 net.cpp:141] Setting up inception_4a/relu_5x5
I0403 14:38:25.911689  1682 net.cpp:148] Top shape: 24 48 14 14 (225792)
I0403 14:38:25.911705  1682 net.cpp:156] Memory required for data: 875471904
I0403 14:38:25.911720  1682 layer_factory.hpp:77] Creating layer inception_4a/pool
I0403 14:38:25.911737  1682 net.cpp:91] Creating Layer inception_4a/pool
I0403 14:38:25.911753  1682 net.cpp:425] inception_4a/pool <- pool3/3x3_s2_pool3/3x3_s2_0_split_3
I0403 14:38:25.911772  1682 net.cpp:399] inception_4a/pool -> inception_4a/pool
I0403 14:38:25.911834  1682 net.cpp:141] Setting up inception_4a/pool
I0403 14:38:25.911856  1682 net.cpp:148] Top shape: 24 480 14 14 (2257920)
I0403 14:38:25.911871  1682 net.cpp:156] Memory required for data: 884503584
I0403 14:38:25.911885  1682 layer_factory.hpp:77] Creating layer inception_4a/pool_proj
I0403 14:38:25.911908  1682 net.cpp:91] Creating Layer inception_4a/pool_proj
I0403 14:38:25.911927  1682 net.cpp:425] inception_4a/pool_proj <- inception_4a/pool
I0403 14:38:25.911945  1682 net.cpp:399] inception_4a/pool_proj -> inception_4a/pool_proj
I0403 14:38:25.913112  1682 net.cpp:141] Setting up inception_4a/pool_proj
I0403 14:38:25.913141  1682 net.cpp:148] Top shape: 24 64 14 14 (301056)
I0403 14:38:25.913172  1682 net.cpp:156] Memory required for data: 885707808
I0403 14:38:25.913221  1682 layer_factory.hpp:77] Creating layer inception_4a/relu_pool_proj
I0403 14:38:25.913245  1682 net.cpp:91] Creating Layer inception_4a/relu_pool_proj
I0403 14:38:25.913264  1682 net.cpp:425] inception_4a/relu_pool_proj <- inception_4a/pool_proj
I0403 14:38:25.913282  1682 net.cpp:386] inception_4a/relu_pool_proj -> inception_4a/pool_proj (in-place)
I0403 14:38:25.913574  1682 net.cpp:141] Setting up inception_4a/relu_pool_proj
I0403 14:38:25.913601  1682 net.cpp:148] Top shape: 24 64 14 14 (301056)
I0403 14:38:25.913616  1682 net.cpp:156] Memory required for data: 886912032
I0403 14:38:25.913631  1682 layer_factory.hpp:77] Creating layer inception_4a/output
I0403 14:38:25.913651  1682 net.cpp:91] Creating Layer inception_4a/output
I0403 14:38:25.913668  1682 net.cpp:425] inception_4a/output <- inception_4a/1x1
I0403 14:38:25.913686  1682 net.cpp:425] inception_4a/output <- inception_4a/3x3
I0403 14:38:25.913702  1682 net.cpp:425] inception_4a/output <- inception_4a/5x5
I0403 14:38:25.913718  1682 net.cpp:425] inception_4a/output <- inception_4a/pool_proj
I0403 14:38:25.913735  1682 net.cpp:399] inception_4a/output -> inception_4a/output
I0403 14:38:25.913782  1682 net.cpp:141] Setting up inception_4a/output
I0403 14:38:25.913805  1682 net.cpp:148] Top shape: 24 512 14 14 (2408448)
I0403 14:38:25.913820  1682 net.cpp:156] Memory required for data: 896545824
I0403 14:38:25.913836  1682 layer_factory.hpp:77] Creating layer inception_4a/output_inception_4a/output_0_split
I0403 14:38:25.913853  1682 net.cpp:91] Creating Layer inception_4a/output_inception_4a/output_0_split
I0403 14:38:25.913869  1682 net.cpp:425] inception_4a/output_inception_4a/output_0_split <- inception_4a/output
I0403 14:38:25.913889  1682 net.cpp:399] inception_4a/output_inception_4a/output_0_split -> inception_4a/output_inception_4a/output_0_split_0
I0403 14:38:25.913911  1682 net.cpp:399] inception_4a/output_inception_4a/output_0_split -> inception_4a/output_inception_4a/output_0_split_1
I0403 14:38:25.913933  1682 net.cpp:399] inception_4a/output_inception_4a/output_0_split -> inception_4a/output_inception_4a/output_0_split_2
I0403 14:38:25.913957  1682 net.cpp:399] inception_4a/output_inception_4a/output_0_split -> inception_4a/output_inception_4a/output_0_split_3
I0403 14:38:25.913977  1682 net.cpp:399] inception_4a/output_inception_4a/output_0_split -> inception_4a/output_inception_4a/output_0_split_4
I0403 14:38:25.914072  1682 net.cpp:141] Setting up inception_4a/output_inception_4a/output_0_split
I0403 14:38:25.914095  1682 net.cpp:148] Top shape: 24 512 14 14 (2408448)
I0403 14:38:25.914113  1682 net.cpp:148] Top shape: 24 512 14 14 (2408448)
I0403 14:38:25.914129  1682 net.cpp:148] Top shape: 24 512 14 14 (2408448)
I0403 14:38:25.914144  1682 net.cpp:148] Top shape: 24 512 14 14 (2408448)
I0403 14:38:25.914160  1682 net.cpp:148] Top shape: 24 512 14 14 (2408448)
I0403 14:38:25.914175  1682 net.cpp:156] Memory required for data: 944714784
I0403 14:38:25.914196  1682 layer_factory.hpp:77] Creating layer loss1/ave_pool
I0403 14:38:25.914213  1682 net.cpp:91] Creating Layer loss1/ave_pool
I0403 14:38:25.914230  1682 net.cpp:425] loss1/ave_pool <- inception_4a/output_inception_4a/output_0_split_0
I0403 14:38:25.914250  1682 net.cpp:399] loss1/ave_pool -> loss1/ave_pool
I0403 14:38:25.914464  1682 net.cpp:141] Setting up loss1/ave_pool
I0403 14:38:25.914492  1682 net.cpp:148] Top shape: 24 512 4 4 (196608)
I0403 14:38:25.914508  1682 net.cpp:156] Memory required for data: 945501216
I0403 14:38:25.914525  1682 layer_factory.hpp:77] Creating layer loss1/conv
I0403 14:38:25.914547  1682 net.cpp:91] Creating Layer loss1/conv
I0403 14:38:25.914566  1682 net.cpp:425] loss1/conv <- loss1/ave_pool
I0403 14:38:25.914584  1682 net.cpp:399] loss1/conv -> loss1/conv
I0403 14:38:25.916029  1682 net.cpp:141] Setting up loss1/conv
I0403 14:38:25.916057  1682 net.cpp:148] Top shape: 24 128 4 4 (49152)
I0403 14:38:25.916088  1682 net.cpp:156] Memory required for data: 945697824
I0403 14:38:25.916108  1682 layer_factory.hpp:77] Creating layer loss1/relu_conv
I0403 14:38:25.916126  1682 net.cpp:91] Creating Layer loss1/relu_conv
I0403 14:38:25.916143  1682 net.cpp:425] loss1/relu_conv <- loss1/conv
I0403 14:38:25.916163  1682 net.cpp:386] loss1/relu_conv -> loss1/conv (in-place)
I0403 14:38:25.916476  1682 net.cpp:141] Setting up loss1/relu_conv
I0403 14:38:25.916515  1682 net.cpp:148] Top shape: 24 128 4 4 (49152)
I0403 14:38:25.916530  1682 net.cpp:156] Memory required for data: 945894432
I0403 14:38:25.916546  1682 layer_factory.hpp:77] Creating layer loss1/fc
I0403 14:38:25.916570  1682 net.cpp:91] Creating Layer loss1/fc
I0403 14:38:25.916589  1682 net.cpp:425] loss1/fc <- loss1/conv
I0403 14:38:25.916611  1682 net.cpp:399] loss1/fc -> loss1/fc
I0403 14:38:25.935081  1682 net.cpp:141] Setting up loss1/fc
I0403 14:38:25.935144  1682 net.cpp:148] Top shape: 24 1024 (24576)
I0403 14:38:25.935160  1682 net.cpp:156] Memory required for data: 945992736
I0403 14:38:25.935184  1682 layer_factory.hpp:77] Creating layer loss1/relu_fc
I0403 14:38:25.935206  1682 net.cpp:91] Creating Layer loss1/relu_fc
I0403 14:38:25.935225  1682 net.cpp:425] loss1/relu_fc <- loss1/fc
I0403 14:38:25.935243  1682 net.cpp:386] loss1/relu_fc -> loss1/fc (in-place)
I0403 14:38:25.935452  1682 net.cpp:141] Setting up loss1/relu_fc
I0403 14:38:25.935477  1682 net.cpp:148] Top shape: 24 1024 (24576)
I0403 14:38:25.935493  1682 net.cpp:156] Memory required for data: 946091040
I0403 14:38:25.935508  1682 layer_factory.hpp:77] Creating layer loss1/drop_fc
I0403 14:38:25.935535  1682 net.cpp:91] Creating Layer loss1/drop_fc
I0403 14:38:25.935554  1682 net.cpp:425] loss1/drop_fc <- loss1/fc
I0403 14:38:25.935572  1682 net.cpp:386] loss1/drop_fc -> loss1/fc (in-place)
I0403 14:38:25.935623  1682 net.cpp:141] Setting up loss1/drop_fc
I0403 14:38:25.935647  1682 net.cpp:148] Top shape: 24 1024 (24576)
I0403 14:38:25.935662  1682 net.cpp:156] Memory required for data: 946189344
I0403 14:38:25.935677  1682 layer_factory.hpp:77] Creating layer loss1/classifier_plantvillage
I0403 14:38:25.935699  1682 net.cpp:91] Creating Layer loss1/classifier_plantvillage
I0403 14:38:25.935716  1682 net.cpp:425] loss1/classifier_plantvillage <- loss1/fc
I0403 14:38:25.935734  1682 net.cpp:399] loss1/classifier_plantvillage -> loss1/classifier_plantvillage
I0403 14:38:25.936660  1682 net.cpp:141] Setting up loss1/classifier_plantvillage
I0403 14:38:25.936691  1682 net.cpp:148] Top shape: 24 38 (912)
I0403 14:38:25.936705  1682 net.cpp:156] Memory required for data: 946192992
I0403 14:38:25.936723  1682 layer_factory.hpp:77] Creating layer loss1/classifier_plantvillage_loss1/classifier_plantvillage_0_split
I0403 14:38:25.936743  1682 net.cpp:91] Creating Layer loss1/classifier_plantvillage_loss1/classifier_plantvillage_0_split
I0403 14:38:25.936758  1682 net.cpp:425] loss1/classifier_plantvillage_loss1/classifier_plantvillage_0_split <- loss1/classifier_plantvillage
I0403 14:38:25.936776  1682 net.cpp:399] loss1/classifier_plantvillage_loss1/classifier_plantvillage_0_split -> loss1/classifier_plantvillage_loss1/classifier_plantvillage_0_split_0
I0403 14:38:25.936800  1682 net.cpp:399] loss1/classifier_plantvillage_loss1/classifier_plantvillage_0_split -> loss1/classifier_plantvillage_loss1/classifier_plantvillage_0_split_1
I0403 14:38:25.936821  1682 net.cpp:399] loss1/classifier_plantvillage_loss1/classifier_plantvillage_0_split -> loss1/classifier_plantvillage_loss1/classifier_plantvillage_0_split_2
I0403 14:38:25.936887  1682 net.cpp:141] Setting up loss1/classifier_plantvillage_loss1/classifier_plantvillage_0_split
I0403 14:38:25.936910  1682 net.cpp:148] Top shape: 24 38 (912)
I0403 14:38:25.936926  1682 net.cpp:148] Top shape: 24 38 (912)
I0403 14:38:25.936941  1682 net.cpp:148] Top shape: 24 38 (912)
I0403 14:38:25.936955  1682 net.cpp:156] Memory required for data: 946203936
I0403 14:38:25.936971  1682 layer_factory.hpp:77] Creating layer inception_4b/1x1
I0403 14:38:25.936993  1682 net.cpp:91] Creating Layer inception_4b/1x1
I0403 14:38:25.937028  1682 net.cpp:425] inception_4b/1x1 <- inception_4a/output_inception_4a/output_0_split_1
I0403 14:38:25.937050  1682 net.cpp:399] inception_4b/1x1 -> inception_4b/1x1
I0403 14:38:25.938802  1682 net.cpp:141] Setting up inception_4b/1x1
I0403 14:38:25.938829  1682 net.cpp:148] Top shape: 24 160 14 14 (752640)
I0403 14:38:25.938845  1682 net.cpp:156] Memory required for data: 949214496
I0403 14:38:25.938863  1682 layer_factory.hpp:77] Creating layer inception_4b/relu_1x1
I0403 14:38:25.938882  1682 net.cpp:91] Creating Layer inception_4b/relu_1x1
I0403 14:38:25.938899  1682 net.cpp:425] inception_4b/relu_1x1 <- inception_4b/1x1
I0403 14:38:25.938918  1682 net.cpp:386] inception_4b/relu_1x1 -> inception_4b/1x1 (in-place)
I0403 14:38:25.939098  1682 net.cpp:141] Setting up inception_4b/relu_1x1
I0403 14:38:25.939123  1682 net.cpp:148] Top shape: 24 160 14 14 (752640)
I0403 14:38:25.939139  1682 net.cpp:156] Memory required for data: 952225056
I0403 14:38:25.939153  1682 layer_factory.hpp:77] Creating layer inception_4b/3x3_reduce
I0403 14:38:25.939182  1682 net.cpp:91] Creating Layer inception_4b/3x3_reduce
I0403 14:38:25.939201  1682 net.cpp:425] inception_4b/3x3_reduce <- inception_4a/output_inception_4a/output_0_split_2
I0403 14:38:25.939225  1682 net.cpp:399] inception_4b/3x3_reduce -> inception_4b/3x3_reduce
I0403 14:38:25.940579  1682 net.cpp:141] Setting up inception_4b/3x3_reduce
I0403 14:38:25.940606  1682 net.cpp:148] Top shape: 24 112 14 14 (526848)
I0403 14:38:25.940623  1682 net.cpp:156] Memory required for data: 954332448
I0403 14:38:25.940640  1682 layer_factory.hpp:77] Creating layer inception_4b/relu_3x3_reduce
I0403 14:38:25.940662  1682 net.cpp:91] Creating Layer inception_4b/relu_3x3_reduce
I0403 14:38:25.940680  1682 net.cpp:425] inception_4b/relu_3x3_reduce <- inception_4b/3x3_reduce
I0403 14:38:25.940697  1682 net.cpp:386] inception_4b/relu_3x3_reduce -> inception_4b/3x3_reduce (in-place)
I0403 14:38:25.940984  1682 net.cpp:141] Setting up inception_4b/relu_3x3_reduce
I0403 14:38:25.941011  1682 net.cpp:148] Top shape: 24 112 14 14 (526848)
I0403 14:38:25.941026  1682 net.cpp:156] Memory required for data: 956439840
I0403 14:38:25.941041  1682 layer_factory.hpp:77] Creating layer inception_4b/3x3
I0403 14:38:25.941064  1682 net.cpp:91] Creating Layer inception_4b/3x3
I0403 14:38:25.941082  1682 net.cpp:425] inception_4b/3x3 <- inception_4b/3x3_reduce
I0403 14:38:25.941103  1682 net.cpp:399] inception_4b/3x3 -> inception_4b/3x3
I0403 14:38:25.944134  1682 net.cpp:141] Setting up inception_4b/3x3
I0403 14:38:25.944169  1682 net.cpp:148] Top shape: 24 224 14 14 (1053696)
I0403 14:38:25.944193  1682 net.cpp:156] Memory required for data: 960654624
I0403 14:38:25.944213  1682 layer_factory.hpp:77] Creating layer inception_4b/relu_3x3
I0403 14:38:25.944232  1682 net.cpp:91] Creating Layer inception_4b/relu_3x3
I0403 14:38:25.944249  1682 net.cpp:425] inception_4b/relu_3x3 <- inception_4b/3x3
I0403 14:38:25.944267  1682 net.cpp:386] inception_4b/relu_3x3 -> inception_4b/3x3 (in-place)
I0403 14:38:25.944448  1682 net.cpp:141] Setting up inception_4b/relu_3x3
I0403 14:38:25.944473  1682 net.cpp:148] Top shape: 24 224 14 14 (1053696)
I0403 14:38:25.944488  1682 net.cpp:156] Memory required for data: 964869408
I0403 14:38:25.944502  1682 layer_factory.hpp:77] Creating layer inception_4b/5x5_reduce
I0403 14:38:25.944525  1682 net.cpp:91] Creating Layer inception_4b/5x5_reduce
I0403 14:38:25.944543  1682 net.cpp:425] inception_4b/5x5_reduce <- inception_4a/output_inception_4a/output_0_split_3
I0403 14:38:25.944564  1682 net.cpp:399] inception_4b/5x5_reduce -> inception_4b/5x5_reduce
I0403 14:38:25.945641  1682 net.cpp:141] Setting up inception_4b/5x5_reduce
I0403 14:38:25.945668  1682 net.cpp:148] Top shape: 24 24 14 14 (112896)
I0403 14:38:25.945684  1682 net.cpp:156] Memory required for data: 965320992
I0403 14:38:25.945703  1682 layer_factory.hpp:77] Creating layer inception_4b/relu_5x5_reduce
I0403 14:38:25.945724  1682 net.cpp:91] Creating Layer inception_4b/relu_5x5_reduce
I0403 14:38:25.945754  1682 net.cpp:425] inception_4b/relu_5x5_reduce <- inception_4b/5x5_reduce
I0403 14:38:25.945772  1682 net.cpp:386] inception_4b/relu_5x5_reduce -> inception_4b/5x5_reduce (in-place)
I0403 14:38:25.945955  1682 net.cpp:141] Setting up inception_4b/relu_5x5_reduce
I0403 14:38:25.945979  1682 net.cpp:148] Top shape: 24 24 14 14 (112896)
I0403 14:38:25.945994  1682 net.cpp:156] Memory required for data: 965772576
I0403 14:38:25.946009  1682 layer_factory.hpp:77] Creating layer inception_4b/5x5
I0403 14:38:25.946033  1682 net.cpp:91] Creating Layer inception_4b/5x5
I0403 14:38:25.946050  1682 net.cpp:425] inception_4b/5x5 <- inception_4b/5x5_reduce
I0403 14:38:25.946069  1682 net.cpp:399] inception_4b/5x5 -> inception_4b/5x5
I0403 14:38:25.947296  1682 net.cpp:141] Setting up inception_4b/5x5
I0403 14:38:25.947324  1682 net.cpp:148] Top shape: 24 64 14 14 (301056)
I0403 14:38:25.947340  1682 net.cpp:156] Memory required for data: 966976800
I0403 14:38:25.947360  1682 layer_factory.hpp:77] Creating layer inception_4b/relu_5x5
I0403 14:38:25.947378  1682 net.cpp:91] Creating Layer inception_4b/relu_5x5
I0403 14:38:25.947394  1682 net.cpp:425] inception_4b/relu_5x5 <- inception_4b/5x5
I0403 14:38:25.947414  1682 net.cpp:386] inception_4b/relu_5x5 -> inception_4b/5x5 (in-place)
I0403 14:38:25.947700  1682 net.cpp:141] Setting up inception_4b/relu_5x5
I0403 14:38:25.947726  1682 net.cpp:148] Top shape: 24 64 14 14 (301056)
I0403 14:38:25.947741  1682 net.cpp:156] Memory required for data: 968181024
I0403 14:38:25.947756  1682 layer_factory.hpp:77] Creating layer inception_4b/pool
I0403 14:38:25.947774  1682 net.cpp:91] Creating Layer inception_4b/pool
I0403 14:38:25.947791  1682 net.cpp:425] inception_4b/pool <- inception_4a/output_inception_4a/output_0_split_4
I0403 14:38:25.947811  1682 net.cpp:399] inception_4b/pool -> inception_4b/pool
I0403 14:38:25.947876  1682 net.cpp:141] Setting up inception_4b/pool
I0403 14:38:25.947899  1682 net.cpp:148] Top shape: 24 512 14 14 (2408448)
I0403 14:38:25.947913  1682 net.cpp:156] Memory required for data: 977814816
I0403 14:38:25.947928  1682 layer_factory.hpp:77] Creating layer inception_4b/pool_proj
I0403 14:38:25.947952  1682 net.cpp:91] Creating Layer inception_4b/pool_proj
I0403 14:38:25.947969  1682 net.cpp:425] inception_4b/pool_proj <- inception_4b/pool
I0403 14:38:25.947988  1682 net.cpp:399] inception_4b/pool_proj -> inception_4b/pool_proj
I0403 14:38:25.949198  1682 net.cpp:141] Setting up inception_4b/pool_proj
I0403 14:38:25.949225  1682 net.cpp:148] Top shape: 24 64 14 14 (301056)
I0403 14:38:25.949240  1682 net.cpp:156] Memory required for data: 979019040
I0403 14:38:25.949259  1682 layer_factory.hpp:77] Creating layer inception_4b/relu_pool_proj
I0403 14:38:25.949280  1682 net.cpp:91] Creating Layer inception_4b/relu_pool_proj
I0403 14:38:25.949297  1682 net.cpp:425] inception_4b/relu_pool_proj <- inception_4b/pool_proj
I0403 14:38:25.949314  1682 net.cpp:386] inception_4b/relu_pool_proj -> inception_4b/pool_proj (in-place)
I0403 14:38:25.949493  1682 net.cpp:141] Setting up inception_4b/relu_pool_proj
I0403 14:38:25.949518  1682 net.cpp:148] Top shape: 24 64 14 14 (301056)
I0403 14:38:25.949537  1682 net.cpp:156] Memory required for data: 980223264
I0403 14:38:25.949551  1682 layer_factory.hpp:77] Creating layer inception_4b/output
I0403 14:38:25.949569  1682 net.cpp:91] Creating Layer inception_4b/output
I0403 14:38:25.949584  1682 net.cpp:425] inception_4b/output <- inception_4b/1x1
I0403 14:38:25.949602  1682 net.cpp:425] inception_4b/output <- inception_4b/3x3
I0403 14:38:25.949617  1682 net.cpp:425] inception_4b/output <- inception_4b/5x5
I0403 14:38:25.949632  1682 net.cpp:425] inception_4b/output <- inception_4b/pool_proj
I0403 14:38:25.949650  1682 net.cpp:399] inception_4b/output -> inception_4b/output
I0403 14:38:25.949697  1682 net.cpp:141] Setting up inception_4b/output
I0403 14:38:25.949719  1682 net.cpp:148] Top shape: 24 512 14 14 (2408448)
I0403 14:38:25.949733  1682 net.cpp:156] Memory required for data: 989857056
I0403 14:38:25.949761  1682 layer_factory.hpp:77] Creating layer inception_4b/output_inception_4b/output_0_split
I0403 14:38:25.949780  1682 net.cpp:91] Creating Layer inception_4b/output_inception_4b/output_0_split
I0403 14:38:25.949796  1682 net.cpp:425] inception_4b/output_inception_4b/output_0_split <- inception_4b/output
I0403 14:38:25.949816  1682 net.cpp:399] inception_4b/output_inception_4b/output_0_split -> inception_4b/output_inception_4b/output_0_split_0
I0403 14:38:25.949837  1682 net.cpp:399] inception_4b/output_inception_4b/output_0_split -> inception_4b/output_inception_4b/output_0_split_1
I0403 14:38:25.949858  1682 net.cpp:399] inception_4b/output_inception_4b/output_0_split -> inception_4b/output_inception_4b/output_0_split_2
I0403 14:38:25.949878  1682 net.cpp:399] inception_4b/output_inception_4b/output_0_split -> inception_4b/output_inception_4b/output_0_split_3
I0403 14:38:25.949960  1682 net.cpp:141] Setting up inception_4b/output_inception_4b/output_0_split
I0403 14:38:25.949985  1682 net.cpp:148] Top shape: 24 512 14 14 (2408448)
I0403 14:38:25.950001  1682 net.cpp:148] Top shape: 24 512 14 14 (2408448)
I0403 14:38:25.950016  1682 net.cpp:148] Top shape: 24 512 14 14 (2408448)
I0403 14:38:25.950031  1682 net.cpp:148] Top shape: 24 512 14 14 (2408448)
I0403 14:38:25.950044  1682 net.cpp:156] Memory required for data: 1028392224
I0403 14:38:25.950058  1682 layer_factory.hpp:77] Creating layer inception_4c/1x1
I0403 14:38:25.950080  1682 net.cpp:91] Creating Layer inception_4c/1x1
I0403 14:38:25.950098  1682 net.cpp:425] inception_4c/1x1 <- inception_4b/output_inception_4b/output_0_split_0
I0403 14:38:25.950119  1682 net.cpp:399] inception_4c/1x1 -> inception_4c/1x1
I0403 14:38:25.951550  1682 net.cpp:141] Setting up inception_4c/1x1
I0403 14:38:25.951581  1682 net.cpp:148] Top shape: 24 128 14 14 (602112)
I0403 14:38:25.951597  1682 net.cpp:156] Memory required for data: 1030800672
I0403 14:38:25.951616  1682 layer_factory.hpp:77] Creating layer inception_4c/relu_1x1
I0403 14:38:25.951634  1682 net.cpp:91] Creating Layer inception_4c/relu_1x1
I0403 14:38:25.951650  1682 net.cpp:425] inception_4c/relu_1x1 <- inception_4c/1x1
I0403 14:38:25.951668  1682 net.cpp:386] inception_4c/relu_1x1 -> inception_4c/1x1 (in-place)
I0403 14:38:25.951848  1682 net.cpp:141] Setting up inception_4c/relu_1x1
I0403 14:38:25.951875  1682 net.cpp:148] Top shape: 24 128 14 14 (602112)
I0403 14:38:25.951890  1682 net.cpp:156] Memory required for data: 1033209120
I0403 14:38:25.951905  1682 layer_factory.hpp:77] Creating layer inception_4c/3x3_reduce
I0403 14:38:25.951926  1682 net.cpp:91] Creating Layer inception_4c/3x3_reduce
I0403 14:38:25.951944  1682 net.cpp:425] inception_4c/3x3_reduce <- inception_4b/output_inception_4b/output_0_split_1
I0403 14:38:25.951966  1682 net.cpp:399] inception_4c/3x3_reduce -> inception_4c/3x3_reduce
I0403 14:38:25.953901  1682 net.cpp:141] Setting up inception_4c/3x3_reduce
I0403 14:38:25.953929  1682 net.cpp:148] Top shape: 24 128 14 14 (602112)
I0403 14:38:25.953944  1682 net.cpp:156] Memory required for data: 1035617568
I0403 14:38:25.953963  1682 layer_factory.hpp:77] Creating layer inception_4c/relu_3x3_reduce
I0403 14:38:25.953980  1682 net.cpp:91] Creating Layer inception_4c/relu_3x3_reduce
I0403 14:38:25.953996  1682 net.cpp:425] inception_4c/relu_3x3_reduce <- inception_4c/3x3_reduce
I0403 14:38:25.954017  1682 net.cpp:386] inception_4c/relu_3x3_reduce -> inception_4c/3x3_reduce (in-place)
I0403 14:38:25.954309  1682 net.cpp:141] Setting up inception_4c/relu_3x3_reduce
I0403 14:38:25.954335  1682 net.cpp:148] Top shape: 24 128 14 14 (602112)
I0403 14:38:25.954351  1682 net.cpp:156] Memory required for data: 1038026016
I0403 14:38:25.954365  1682 layer_factory.hpp:77] Creating layer inception_4c/3x3
I0403 14:38:25.954388  1682 net.cpp:91] Creating Layer inception_4c/3x3
I0403 14:38:25.954406  1682 net.cpp:425] inception_4c/3x3 <- inception_4c/3x3_reduce
I0403 14:38:25.954427  1682 net.cpp:399] inception_4c/3x3 -> inception_4c/3x3
I0403 14:38:25.958034  1682 net.cpp:141] Setting up inception_4c/3x3
I0403 14:38:25.958076  1682 net.cpp:148] Top shape: 24 256 14 14 (1204224)
I0403 14:38:25.958092  1682 net.cpp:156] Memory required for data: 1042842912
I0403 14:38:25.958127  1682 layer_factory.hpp:77] Creating layer inception_4c/relu_3x3
I0403 14:38:25.958148  1682 net.cpp:91] Creating Layer inception_4c/relu_3x3
I0403 14:38:25.958164  1682 net.cpp:425] inception_4c/relu_3x3 <- inception_4c/3x3
I0403 14:38:25.958190  1682 net.cpp:386] inception_4c/relu_3x3 -> inception_4c/3x3 (in-place)
I0403 14:38:25.958376  1682 net.cpp:141] Setting up inception_4c/relu_3x3
I0403 14:38:25.958400  1682 net.cpp:148] Top shape: 24 256 14 14 (1204224)
I0403 14:38:25.958415  1682 net.cpp:156] Memory required for data: 1047659808
I0403 14:38:25.958431  1682 layer_factory.hpp:77] Creating layer inception_4c/5x5_reduce
I0403 14:38:25.958452  1682 net.cpp:91] Creating Layer inception_4c/5x5_reduce
I0403 14:38:25.958470  1682 net.cpp:425] inception_4c/5x5_reduce <- inception_4b/output_inception_4b/output_0_split_2
I0403 14:38:25.958492  1682 net.cpp:399] inception_4c/5x5_reduce -> inception_4c/5x5_reduce
I0403 14:38:25.959584  1682 net.cpp:141] Setting up inception_4c/5x5_reduce
I0403 14:38:25.959612  1682 net.cpp:148] Top shape: 24 24 14 14 (112896)
I0403 14:38:25.959627  1682 net.cpp:156] Memory required for data: 1048111392
I0403 14:38:25.959646  1682 layer_factory.hpp:77] Creating layer inception_4c/relu_5x5_reduce
I0403 14:38:25.959666  1682 net.cpp:91] Creating Layer inception_4c/relu_5x5_reduce
I0403 14:38:25.959683  1682 net.cpp:425] inception_4c/relu_5x5_reduce <- inception_4c/5x5_reduce
I0403 14:38:25.959700  1682 net.cpp:386] inception_4c/relu_5x5_reduce -> inception_4c/5x5_reduce (in-place)
I0403 14:38:25.959882  1682 net.cpp:141] Setting up inception_4c/relu_5x5_reduce
I0403 14:38:25.959906  1682 net.cpp:148] Top shape: 24 24 14 14 (112896)
I0403 14:38:25.959921  1682 net.cpp:156] Memory required for data: 1048562976
I0403 14:38:25.959938  1682 layer_factory.hpp:77] Creating layer inception_4c/5x5
I0403 14:38:25.959960  1682 net.cpp:91] Creating Layer inception_4c/5x5
I0403 14:38:25.959978  1682 net.cpp:425] inception_4c/5x5 <- inception_4c/5x5_reduce
I0403 14:38:25.959997  1682 net.cpp:399] inception_4c/5x5 -> inception_4c/5x5
I0403 14:38:25.961237  1682 net.cpp:141] Setting up inception_4c/5x5
I0403 14:38:25.961266  1682 net.cpp:148] Top shape: 24 64 14 14 (301056)
I0403 14:38:25.961280  1682 net.cpp:156] Memory required for data: 1049767200
I0403 14:38:25.961299  1682 layer_factory.hpp:77] Creating layer inception_4c/relu_5x5
I0403 14:38:25.961320  1682 net.cpp:91] Creating Layer inception_4c/relu_5x5
I0403 14:38:25.961336  1682 net.cpp:425] inception_4c/relu_5x5 <- inception_4c/5x5
I0403 14:38:25.961354  1682 net.cpp:386] inception_4c/relu_5x5 -> inception_4c/5x5 (in-place)
I0403 14:38:25.961640  1682 net.cpp:141] Setting up inception_4c/relu_5x5
I0403 14:38:25.961666  1682 net.cpp:148] Top shape: 24 64 14 14 (301056)
I0403 14:38:25.961681  1682 net.cpp:156] Memory required for data: 1050971424
I0403 14:38:25.961696  1682 layer_factory.hpp:77] Creating layer inception_4c/pool
I0403 14:38:25.961719  1682 net.cpp:91] Creating Layer inception_4c/pool
I0403 14:38:25.961737  1682 net.cpp:425] inception_4c/pool <- inception_4b/output_inception_4b/output_0_split_3
I0403 14:38:25.961755  1682 net.cpp:399] inception_4c/pool -> inception_4c/pool
I0403 14:38:25.961822  1682 net.cpp:141] Setting up inception_4c/pool
I0403 14:38:25.961844  1682 net.cpp:148] Top shape: 24 512 14 14 (2408448)
I0403 14:38:25.961858  1682 net.cpp:156] Memory required for data: 1060605216
I0403 14:38:25.961874  1682 layer_factory.hpp:77] Creating layer inception_4c/pool_proj
I0403 14:38:25.961895  1682 net.cpp:91] Creating Layer inception_4c/pool_proj
I0403 14:38:25.961913  1682 net.cpp:425] inception_4c/pool_proj <- inception_4c/pool
I0403 14:38:25.961935  1682 net.cpp:399] inception_4c/pool_proj -> inception_4c/pool_proj
I0403 14:38:25.963244  1682 net.cpp:141] Setting up inception_4c/pool_proj
I0403 14:38:25.963274  1682 net.cpp:148] Top shape: 24 64 14 14 (301056)
I0403 14:38:25.963304  1682 net.cpp:156] Memory required for data: 1061809440
I0403 14:38:25.963325  1682 layer_factory.hpp:77] Creating layer inception_4c/relu_pool_proj
I0403 14:38:25.963342  1682 net.cpp:91] Creating Layer inception_4c/relu_pool_proj
I0403 14:38:25.963358  1682 net.cpp:425] inception_4c/relu_pool_proj <- inception_4c/pool_proj
I0403 14:38:25.963379  1682 net.cpp:386] inception_4c/relu_pool_proj -> inception_4c/pool_proj (in-place)
I0403 14:38:25.963567  1682 net.cpp:141] Setting up inception_4c/relu_pool_proj
I0403 14:38:25.963592  1682 net.cpp:148] Top shape: 24 64 14 14 (301056)
I0403 14:38:25.963608  1682 net.cpp:156] Memory required for data: 1063013664
I0403 14:38:25.963623  1682 layer_factory.hpp:77] Creating layer inception_4c/output
I0403 14:38:25.963642  1682 net.cpp:91] Creating Layer inception_4c/output
I0403 14:38:25.963660  1682 net.cpp:425] inception_4c/output <- inception_4c/1x1
I0403 14:38:25.963676  1682 net.cpp:425] inception_4c/output <- inception_4c/3x3
I0403 14:38:25.963693  1682 net.cpp:425] inception_4c/output <- inception_4c/5x5
I0403 14:38:25.963709  1682 net.cpp:425] inception_4c/output <- inception_4c/pool_proj
I0403 14:38:25.963727  1682 net.cpp:399] inception_4c/output -> inception_4c/output
I0403 14:38:25.963776  1682 net.cpp:141] Setting up inception_4c/output
I0403 14:38:25.963800  1682 net.cpp:148] Top shape: 24 512 14 14 (2408448)
I0403 14:38:25.963815  1682 net.cpp:156] Memory required for data: 1072647456
I0403 14:38:25.963830  1682 layer_factory.hpp:77] Creating layer inception_4c/output_inception_4c/output_0_split
I0403 14:38:25.963848  1682 net.cpp:91] Creating Layer inception_4c/output_inception_4c/output_0_split
I0403 14:38:25.963865  1682 net.cpp:425] inception_4c/output_inception_4c/output_0_split <- inception_4c/output
I0403 14:38:25.963884  1682 net.cpp:399] inception_4c/output_inception_4c/output_0_split -> inception_4c/output_inception_4c/output_0_split_0
I0403 14:38:25.963906  1682 net.cpp:399] inception_4c/output_inception_4c/output_0_split -> inception_4c/output_inception_4c/output_0_split_1
I0403 14:38:25.963927  1682 net.cpp:399] inception_4c/output_inception_4c/output_0_split -> inception_4c/output_inception_4c/output_0_split_2
I0403 14:38:25.963948  1682 net.cpp:399] inception_4c/output_inception_4c/output_0_split -> inception_4c/output_inception_4c/output_0_split_3
I0403 14:38:25.964035  1682 net.cpp:141] Setting up inception_4c/output_inception_4c/output_0_split
I0403 14:38:25.964058  1682 net.cpp:148] Top shape: 24 512 14 14 (2408448)
I0403 14:38:25.964076  1682 net.cpp:148] Top shape: 24 512 14 14 (2408448)
I0403 14:38:25.964092  1682 net.cpp:148] Top shape: 24 512 14 14 (2408448)
I0403 14:38:25.964108  1682 net.cpp:148] Top shape: 24 512 14 14 (2408448)
I0403 14:38:25.964123  1682 net.cpp:156] Memory required for data: 1111182624
I0403 14:38:25.964138  1682 layer_factory.hpp:77] Creating layer inception_4d/1x1
I0403 14:38:25.964161  1682 net.cpp:91] Creating Layer inception_4d/1x1
I0403 14:38:25.964185  1682 net.cpp:425] inception_4d/1x1 <- inception_4c/output_inception_4c/output_0_split_0
I0403 14:38:25.964210  1682 net.cpp:399] inception_4d/1x1 -> inception_4d/1x1
I0403 14:38:25.965632  1682 net.cpp:141] Setting up inception_4d/1x1
I0403 14:38:25.965663  1682 net.cpp:148] Top shape: 24 112 14 14 (526848)
I0403 14:38:25.965680  1682 net.cpp:156] Memory required for data: 1113290016
I0403 14:38:25.965699  1682 layer_factory.hpp:77] Creating layer inception_4d/relu_1x1
I0403 14:38:25.965718  1682 net.cpp:91] Creating Layer inception_4d/relu_1x1
I0403 14:38:25.965734  1682 net.cpp:425] inception_4d/relu_1x1 <- inception_4d/1x1
I0403 14:38:25.965754  1682 net.cpp:386] inception_4d/relu_1x1 -> inception_4d/1x1 (in-place)
I0403 14:38:25.965950  1682 net.cpp:141] Setting up inception_4d/relu_1x1
I0403 14:38:25.965975  1682 net.cpp:148] Top shape: 24 112 14 14 (526848)
I0403 14:38:25.965989  1682 net.cpp:156] Memory required for data: 1115397408
I0403 14:38:25.966006  1682 layer_factory.hpp:77] Creating layer inception_4d/3x3_reduce
I0403 14:38:25.966042  1682 net.cpp:91] Creating Layer inception_4d/3x3_reduce
I0403 14:38:25.966061  1682 net.cpp:425] inception_4d/3x3_reduce <- inception_4c/output_inception_4c/output_0_split_1
I0403 14:38:25.966084  1682 net.cpp:399] inception_4d/3x3_reduce -> inception_4d/3x3_reduce
I0403 14:38:25.967649  1682 net.cpp:141] Setting up inception_4d/3x3_reduce
I0403 14:38:25.967677  1682 net.cpp:148] Top shape: 24 144 14 14 (677376)
I0403 14:38:25.967694  1682 net.cpp:156] Memory required for data: 1118106912
I0403 14:38:25.967712  1682 layer_factory.hpp:77] Creating layer inception_4d/relu_3x3_reduce
I0403 14:38:25.967733  1682 net.cpp:91] Creating Layer inception_4d/relu_3x3_reduce
I0403 14:38:25.967751  1682 net.cpp:425] inception_4d/relu_3x3_reduce <- inception_4d/3x3_reduce
I0403 14:38:25.967768  1682 net.cpp:386] inception_4d/relu_3x3_reduce -> inception_4d/3x3_reduce (in-place)
I0403 14:38:25.968065  1682 net.cpp:141] Setting up inception_4d/relu_3x3_reduce
I0403 14:38:25.968092  1682 net.cpp:148] Top shape: 24 144 14 14 (677376)
I0403 14:38:25.968108  1682 net.cpp:156] Memory required for data: 1120816416
I0403 14:38:25.968123  1682 layer_factory.hpp:77] Creating layer inception_4d/3x3
I0403 14:38:25.968147  1682 net.cpp:91] Creating Layer inception_4d/3x3
I0403 14:38:25.968166  1682 net.cpp:425] inception_4d/3x3 <- inception_4d/3x3_reduce
I0403 14:38:25.968192  1682 net.cpp:399] inception_4d/3x3 -> inception_4d/3x3
I0403 14:38:25.972622  1682 net.cpp:141] Setting up inception_4d/3x3
I0403 14:38:25.972654  1682 net.cpp:148] Top shape: 24 288 14 14 (1354752)
I0403 14:38:25.972672  1682 net.cpp:156] Memory required for data: 1126235424
I0403 14:38:25.972692  1682 layer_factory.hpp:77] Creating layer inception_4d/relu_3x3
I0403 14:38:25.972712  1682 net.cpp:91] Creating Layer inception_4d/relu_3x3
I0403 14:38:25.972728  1682 net.cpp:425] inception_4d/relu_3x3 <- inception_4d/3x3
I0403 14:38:25.972748  1682 net.cpp:386] inception_4d/relu_3x3 -> inception_4d/3x3 (in-place)
I0403 14:38:25.972939  1682 net.cpp:141] Setting up inception_4d/relu_3x3
I0403 14:38:25.972965  1682 net.cpp:148] Top shape: 24 288 14 14 (1354752)
I0403 14:38:25.972980  1682 net.cpp:156] Memory required for data: 1131654432
I0403 14:38:25.972995  1682 layer_factory.hpp:77] Creating layer inception_4d/5x5_reduce
I0403 14:38:25.973017  1682 net.cpp:91] Creating Layer inception_4d/5x5_reduce
I0403 14:38:25.973036  1682 net.cpp:425] inception_4d/5x5_reduce <- inception_4c/output_inception_4c/output_0_split_2
I0403 14:38:25.973058  1682 net.cpp:399] inception_4d/5x5_reduce -> inception_4d/5x5_reduce
I0403 14:38:25.974282  1682 net.cpp:141] Setting up inception_4d/5x5_reduce
I0403 14:38:25.974313  1682 net.cpp:148] Top shape: 24 32 14 14 (150528)
I0403 14:38:25.974328  1682 net.cpp:156] Memory required for data: 1132256544
I0403 14:38:25.974349  1682 layer_factory.hpp:77] Creating layer inception_4d/relu_5x5_reduce
I0403 14:38:25.974369  1682 net.cpp:91] Creating Layer inception_4d/relu_5x5_reduce
I0403 14:38:25.974385  1682 net.cpp:425] inception_4d/relu_5x5_reduce <- inception_4d/5x5_reduce
I0403 14:38:25.974408  1682 net.cpp:386] inception_4d/relu_5x5_reduce -> inception_4d/5x5_reduce (in-place)
I0403 14:38:25.974620  1682 net.cpp:141] Setting up inception_4d/relu_5x5_reduce
I0403 14:38:25.974645  1682 net.cpp:148] Top shape: 24 32 14 14 (150528)
I0403 14:38:25.974660  1682 net.cpp:156] Memory required for data: 1132858656
I0403 14:38:25.974675  1682 layer_factory.hpp:77] Creating layer inception_4d/5x5
I0403 14:38:25.974699  1682 net.cpp:91] Creating Layer inception_4d/5x5
I0403 14:38:25.974717  1682 net.cpp:425] inception_4d/5x5 <- inception_4d/5x5_reduce
I0403 14:38:25.974740  1682 net.cpp:399] inception_4d/5x5 -> inception_4d/5x5
I0403 14:38:25.976275  1682 net.cpp:141] Setting up inception_4d/5x5
I0403 14:38:25.976305  1682 net.cpp:148] Top shape: 24 64 14 14 (301056)
I0403 14:38:25.976320  1682 net.cpp:156] Memory required for data: 1134062880
I0403 14:38:25.976341  1682 layer_factory.hpp:77] Creating layer inception_4d/relu_5x5
I0403 14:38:25.976377  1682 net.cpp:91] Creating Layer inception_4d/relu_5x5
I0403 14:38:25.976395  1682 net.cpp:425] inception_4d/relu_5x5 <- inception_4d/5x5
I0403 14:38:25.976413  1682 net.cpp:386] inception_4d/relu_5x5 -> inception_4d/5x5 (in-place)
I0403 14:38:25.976723  1682 net.cpp:141] Setting up inception_4d/relu_5x5
I0403 14:38:25.976750  1682 net.cpp:148] Top shape: 24 64 14 14 (301056)
I0403 14:38:25.976766  1682 net.cpp:156] Memory required for data: 1135267104
I0403 14:38:25.976783  1682 layer_factory.hpp:77] Creating layer inception_4d/pool
I0403 14:38:25.976804  1682 net.cpp:91] Creating Layer inception_4d/pool
I0403 14:38:25.976821  1682 net.cpp:425] inception_4d/pool <- inception_4c/output_inception_4c/output_0_split_3
I0403 14:38:25.976840  1682 net.cpp:399] inception_4d/pool -> inception_4d/pool
I0403 14:38:25.976908  1682 net.cpp:141] Setting up inception_4d/pool
I0403 14:38:25.976933  1682 net.cpp:148] Top shape: 24 512 14 14 (2408448)
I0403 14:38:25.976948  1682 net.cpp:156] Memory required for data: 1144900896
I0403 14:38:25.976963  1682 layer_factory.hpp:77] Creating layer inception_4d/pool_proj
I0403 14:38:25.976986  1682 net.cpp:91] Creating Layer inception_4d/pool_proj
I0403 14:38:25.977005  1682 net.cpp:425] inception_4d/pool_proj <- inception_4d/pool
I0403 14:38:25.977025  1682 net.cpp:399] inception_4d/pool_proj -> inception_4d/pool_proj
I0403 14:38:25.978837  1682 net.cpp:141] Setting up inception_4d/pool_proj
I0403 14:38:25.978869  1682 net.cpp:148] Top shape: 24 64 14 14 (301056)
I0403 14:38:25.978886  1682 net.cpp:156] Memory required for data: 1146105120
I0403 14:38:25.978905  1682 layer_factory.hpp:77] Creating layer inception_4d/relu_pool_proj
I0403 14:38:25.978924  1682 net.cpp:91] Creating Layer inception_4d/relu_pool_proj
I0403 14:38:25.978941  1682 net.cpp:425] inception_4d/relu_pool_proj <- inception_4d/pool_proj
I0403 14:38:25.978961  1682 net.cpp:386] inception_4d/relu_pool_proj -> inception_4d/pool_proj (in-place)
I0403 14:38:25.979154  1682 net.cpp:141] Setting up inception_4d/relu_pool_proj
I0403 14:38:25.979187  1682 net.cpp:148] Top shape: 24 64 14 14 (301056)
I0403 14:38:25.979204  1682 net.cpp:156] Memory required for data: 1147309344
I0403 14:38:25.979219  1682 layer_factory.hpp:77] Creating layer inception_4d/output
I0403 14:38:25.979238  1682 net.cpp:91] Creating Layer inception_4d/output
I0403 14:38:25.979254  1682 net.cpp:425] inception_4d/output <- inception_4d/1x1
I0403 14:38:25.979271  1682 net.cpp:425] inception_4d/output <- inception_4d/3x3
I0403 14:38:25.979288  1682 net.cpp:425] inception_4d/output <- inception_4d/5x5
I0403 14:38:25.979305  1682 net.cpp:425] inception_4d/output <- inception_4d/pool_proj
I0403 14:38:25.979324  1682 net.cpp:399] inception_4d/output -> inception_4d/output
I0403 14:38:25.979377  1682 net.cpp:141] Setting up inception_4d/output
I0403 14:38:25.979400  1682 net.cpp:148] Top shape: 24 528 14 14 (2483712)
I0403 14:38:25.979415  1682 net.cpp:156] Memory required for data: 1157244192
I0403 14:38:25.979429  1682 layer_factory.hpp:77] Creating layer inception_4d/output_inception_4d/output_0_split
I0403 14:38:25.979447  1682 net.cpp:91] Creating Layer inception_4d/output_inception_4d/output_0_split
I0403 14:38:25.979465  1682 net.cpp:425] inception_4d/output_inception_4d/output_0_split <- inception_4d/output
I0403 14:38:25.979485  1682 net.cpp:399] inception_4d/output_inception_4d/output_0_split -> inception_4d/output_inception_4d/output_0_split_0
I0403 14:38:25.979507  1682 net.cpp:399] inception_4d/output_inception_4d/output_0_split -> inception_4d/output_inception_4d/output_0_split_1
I0403 14:38:25.979529  1682 net.cpp:399] inception_4d/output_inception_4d/output_0_split -> inception_4d/output_inception_4d/output_0_split_2
I0403 14:38:25.979550  1682 net.cpp:399] inception_4d/output_inception_4d/output_0_split -> inception_4d/output_inception_4d/output_0_split_3
I0403 14:38:25.979573  1682 net.cpp:399] inception_4d/output_inception_4d/output_0_split -> inception_4d/output_inception_4d/output_0_split_4
I0403 14:38:25.979676  1682 net.cpp:141] Setting up inception_4d/output_inception_4d/output_0_split
I0403 14:38:25.979714  1682 net.cpp:148] Top shape: 24 528 14 14 (2483712)
I0403 14:38:25.979733  1682 net.cpp:148] Top shape: 24 528 14 14 (2483712)
I0403 14:38:25.979749  1682 net.cpp:148] Top shape: 24 528 14 14 (2483712)
I0403 14:38:25.979765  1682 net.cpp:148] Top shape: 24 528 14 14 (2483712)
I0403 14:38:25.979781  1682 net.cpp:148] Top shape: 24 528 14 14 (2483712)
I0403 14:38:25.979796  1682 net.cpp:156] Memory required for data: 1206918432
I0403 14:38:25.979811  1682 layer_factory.hpp:77] Creating layer loss2/ave_pool
I0403 14:38:25.979830  1682 net.cpp:91] Creating Layer loss2/ave_pool
I0403 14:38:25.979846  1682 net.cpp:425] loss2/ave_pool <- inception_4d/output_inception_4d/output_0_split_0
I0403 14:38:25.979868  1682 net.cpp:399] loss2/ave_pool -> loss2/ave_pool
I0403 14:38:25.980214  1682 net.cpp:141] Setting up loss2/ave_pool
I0403 14:38:25.980244  1682 net.cpp:148] Top shape: 24 528 4 4 (202752)
I0403 14:38:25.980262  1682 net.cpp:156] Memory required for data: 1207729440
I0403 14:38:25.980278  1682 layer_factory.hpp:77] Creating layer loss2/conv
I0403 14:38:25.980304  1682 net.cpp:91] Creating Layer loss2/conv
I0403 14:38:25.980324  1682 net.cpp:425] loss2/conv <- loss2/ave_pool
I0403 14:38:25.980346  1682 net.cpp:399] loss2/conv -> loss2/conv
I0403 14:38:25.982321  1682 net.cpp:141] Setting up loss2/conv
I0403 14:38:25.982350  1682 net.cpp:148] Top shape: 24 128 4 4 (49152)
I0403 14:38:25.982367  1682 net.cpp:156] Memory required for data: 1207926048
I0403 14:38:25.982385  1682 layer_factory.hpp:77] Creating layer loss2/relu_conv
I0403 14:38:25.982405  1682 net.cpp:91] Creating Layer loss2/relu_conv
I0403 14:38:25.982422  1682 net.cpp:425] loss2/relu_conv <- loss2/conv
I0403 14:38:25.982440  1682 net.cpp:386] loss2/relu_conv -> loss2/conv (in-place)
I0403 14:38:25.982729  1682 net.cpp:141] Setting up loss2/relu_conv
I0403 14:38:25.982756  1682 net.cpp:148] Top shape: 24 128 4 4 (49152)
I0403 14:38:25.982771  1682 net.cpp:156] Memory required for data: 1208122656
I0403 14:38:25.982786  1682 layer_factory.hpp:77] Creating layer loss2/fc
I0403 14:38:25.982808  1682 net.cpp:91] Creating Layer loss2/fc
I0403 14:38:25.982825  1682 net.cpp:425] loss2/fc <- loss2/conv
I0403 14:38:25.982846  1682 net.cpp:399] loss2/fc -> loss2/fc
I0403 14:38:26.000571  1682 net.cpp:141] Setting up loss2/fc
I0403 14:38:26.000623  1682 net.cpp:148] Top shape: 24 1024 (24576)
I0403 14:38:26.000639  1682 net.cpp:156] Memory required for data: 1208220960
I0403 14:38:26.000659  1682 layer_factory.hpp:77] Creating layer loss2/relu_fc
I0403 14:38:26.000679  1682 net.cpp:91] Creating Layer loss2/relu_fc
I0403 14:38:26.000696  1682 net.cpp:425] loss2/relu_fc <- loss2/fc
I0403 14:38:26.000716  1682 net.cpp:386] loss2/relu_fc -> loss2/fc (in-place)
I0403 14:38:26.001054  1682 net.cpp:141] Setting up loss2/relu_fc
I0403 14:38:26.001080  1682 net.cpp:148] Top shape: 24 1024 (24576)
I0403 14:38:26.001096  1682 net.cpp:156] Memory required for data: 1208319264
I0403 14:38:26.001111  1682 layer_factory.hpp:77] Creating layer loss2/drop_fc
I0403 14:38:26.001129  1682 net.cpp:91] Creating Layer loss2/drop_fc
I0403 14:38:26.001145  1682 net.cpp:425] loss2/drop_fc <- loss2/fc
I0403 14:38:26.001164  1682 net.cpp:386] loss2/drop_fc -> loss2/fc (in-place)
I0403 14:38:26.001221  1682 net.cpp:141] Setting up loss2/drop_fc
I0403 14:38:26.001247  1682 net.cpp:148] Top shape: 24 1024 (24576)
I0403 14:38:26.001262  1682 net.cpp:156] Memory required for data: 1208417568
I0403 14:38:26.001278  1682 layer_factory.hpp:77] Creating layer loss2/classifier_plantvillage
I0403 14:38:26.001297  1682 net.cpp:91] Creating Layer loss2/classifier_plantvillage
I0403 14:38:26.001313  1682 net.cpp:425] loss2/classifier_plantvillage <- loss2/fc
I0403 14:38:26.001335  1682 net.cpp:399] loss2/classifier_plantvillage -> loss2/classifier_plantvillage
I0403 14:38:26.001746  1682 net.cpp:141] Setting up loss2/classifier_plantvillage
I0403 14:38:26.001770  1682 net.cpp:148] Top shape: 24 38 (912)
I0403 14:38:26.001809  1682 net.cpp:156] Memory required for data: 1208421216
I0403 14:38:26.001828  1682 layer_factory.hpp:77] Creating layer loss2/classifier_plantvillage_loss2/classifier_plantvillage_0_split
I0403 14:38:26.001849  1682 net.cpp:91] Creating Layer loss2/classifier_plantvillage_loss2/classifier_plantvillage_0_split
I0403 14:38:26.001866  1682 net.cpp:425] loss2/classifier_plantvillage_loss2/classifier_plantvillage_0_split <- loss2/classifier_plantvillage
I0403 14:38:26.001884  1682 net.cpp:399] loss2/classifier_plantvillage_loss2/classifier_plantvillage_0_split -> loss2/classifier_plantvillage_loss2/classifier_plantvillage_0_split_0
I0403 14:38:26.001904  1682 net.cpp:399] loss2/classifier_plantvillage_loss2/classifier_plantvillage_0_split -> loss2/classifier_plantvillage_loss2/classifier_plantvillage_0_split_1
I0403 14:38:26.001929  1682 net.cpp:399] loss2/classifier_plantvillage_loss2/classifier_plantvillage_0_split -> loss2/classifier_plantvillage_loss2/classifier_plantvillage_0_split_2
I0403 14:38:26.002005  1682 net.cpp:141] Setting up loss2/classifier_plantvillage_loss2/classifier_plantvillage_0_split
I0403 14:38:26.002028  1682 net.cpp:148] Top shape: 24 38 (912)
I0403 14:38:26.002044  1682 net.cpp:148] Top shape: 24 38 (912)
I0403 14:38:26.002059  1682 net.cpp:148] Top shape: 24 38 (912)
I0403 14:38:26.002074  1682 net.cpp:156] Memory required for data: 1208432160
I0403 14:38:26.002087  1682 layer_factory.hpp:77] Creating layer inception_4e/1x1
I0403 14:38:26.002110  1682 net.cpp:91] Creating Layer inception_4e/1x1
I0403 14:38:26.002130  1682 net.cpp:425] inception_4e/1x1 <- inception_4d/output_inception_4d/output_0_split_1
I0403 14:38:26.002148  1682 net.cpp:399] inception_4e/1x1 -> inception_4e/1x1
I0403 14:38:26.004017  1682 net.cpp:141] Setting up inception_4e/1x1
I0403 14:38:26.004046  1682 net.cpp:148] Top shape: 24 256 14 14 (1204224)
I0403 14:38:26.004062  1682 net.cpp:156] Memory required for data: 1213249056
I0403 14:38:26.004081  1682 layer_factory.hpp:77] Creating layer inception_4e/relu_1x1
I0403 14:38:26.004101  1682 net.cpp:91] Creating Layer inception_4e/relu_1x1
I0403 14:38:26.004118  1682 net.cpp:425] inception_4e/relu_1x1 <- inception_4e/1x1
I0403 14:38:26.004137  1682 net.cpp:386] inception_4e/relu_1x1 -> inception_4e/1x1 (in-place)
I0403 14:38:26.004461  1682 net.cpp:141] Setting up inception_4e/relu_1x1
I0403 14:38:26.004487  1682 net.cpp:148] Top shape: 24 256 14 14 (1204224)
I0403 14:38:26.004503  1682 net.cpp:156] Memory required for data: 1218065952
I0403 14:38:26.004519  1682 layer_factory.hpp:77] Creating layer inception_4e/3x3_reduce
I0403 14:38:26.004555  1682 net.cpp:91] Creating Layer inception_4e/3x3_reduce
I0403 14:38:26.004572  1682 net.cpp:425] inception_4e/3x3_reduce <- inception_4d/output_inception_4d/output_0_split_2
I0403 14:38:26.004595  1682 net.cpp:399] inception_4e/3x3_reduce -> inception_4e/3x3_reduce
I0403 14:38:26.006760  1682 net.cpp:141] Setting up inception_4e/3x3_reduce
I0403 14:38:26.006791  1682 net.cpp:148] Top shape: 24 160 14 14 (752640)
I0403 14:38:26.006808  1682 net.cpp:156] Memory required for data: 1221076512
I0403 14:38:26.006826  1682 layer_factory.hpp:77] Creating layer inception_4e/relu_3x3_reduce
I0403 14:38:26.006846  1682 net.cpp:91] Creating Layer inception_4e/relu_3x3_reduce
I0403 14:38:26.006863  1682 net.cpp:425] inception_4e/relu_3x3_reduce <- inception_4e/3x3_reduce
I0403 14:38:26.006881  1682 net.cpp:386] inception_4e/relu_3x3_reduce -> inception_4e/3x3_reduce (in-place)
I0403 14:38:26.007077  1682 net.cpp:141] Setting up inception_4e/relu_3x3_reduce
I0403 14:38:26.007104  1682 net.cpp:148] Top shape: 24 160 14 14 (752640)
I0403 14:38:26.007119  1682 net.cpp:156] Memory required for data: 1224087072
I0403 14:38:26.007133  1682 layer_factory.hpp:77] Creating layer inception_4e/3x3
I0403 14:38:26.007153  1682 net.cpp:91] Creating Layer inception_4e/3x3
I0403 14:38:26.007169  1682 net.cpp:425] inception_4e/3x3 <- inception_4e/3x3_reduce
I0403 14:38:26.007197  1682 net.cpp:399] inception_4e/3x3 -> inception_4e/3x3
I0403 14:38:26.012197  1682 net.cpp:141] Setting up inception_4e/3x3
I0403 14:38:26.012239  1682 net.cpp:148] Top shape: 24 320 14 14 (1505280)
I0403 14:38:26.012258  1682 net.cpp:156] Memory required for data: 1230108192
I0403 14:38:26.012289  1682 layer_factory.hpp:77] Creating layer inception_4e/relu_3x3
I0403 14:38:26.012306  1682 net.cpp:91] Creating Layer inception_4e/relu_3x3
I0403 14:38:26.012322  1682 net.cpp:425] inception_4e/relu_3x3 <- inception_4e/3x3
I0403 14:38:26.012339  1682 net.cpp:386] inception_4e/relu_3x3 -> inception_4e/3x3 (in-place)
I0403 14:38:26.012648  1682 net.cpp:141] Setting up inception_4e/relu_3x3
I0403 14:38:26.012676  1682 net.cpp:148] Top shape: 24 320 14 14 (1505280)
I0403 14:38:26.012691  1682 net.cpp:156] Memory required for data: 1236129312
I0403 14:38:26.012706  1682 layer_factory.hpp:77] Creating layer inception_4e/5x5_reduce
I0403 14:38:26.012728  1682 net.cpp:91] Creating Layer inception_4e/5x5_reduce
I0403 14:38:26.012745  1682 net.cpp:425] inception_4e/5x5_reduce <- inception_4d/output_inception_4d/output_0_split_3
I0403 14:38:26.012766  1682 net.cpp:399] inception_4e/5x5_reduce -> inception_4e/5x5_reduce
I0403 14:38:26.013849  1682 net.cpp:141] Setting up inception_4e/5x5_reduce
I0403 14:38:26.013876  1682 net.cpp:148] Top shape: 24 32 14 14 (150528)
I0403 14:38:26.013891  1682 net.cpp:156] Memory required for data: 1236731424
I0403 14:38:26.013909  1682 layer_factory.hpp:77] Creating layer inception_4e/relu_5x5_reduce
I0403 14:38:26.013929  1682 net.cpp:91] Creating Layer inception_4e/relu_5x5_reduce
I0403 14:38:26.013945  1682 net.cpp:425] inception_4e/relu_5x5_reduce <- inception_4e/5x5_reduce
I0403 14:38:26.013962  1682 net.cpp:386] inception_4e/relu_5x5_reduce -> inception_4e/5x5_reduce (in-place)
I0403 14:38:26.014262  1682 net.cpp:141] Setting up inception_4e/relu_5x5_reduce
I0403 14:38:26.014287  1682 net.cpp:148] Top shape: 24 32 14 14 (150528)
I0403 14:38:26.014302  1682 net.cpp:156] Memory required for data: 1237333536
I0403 14:38:26.014317  1682 layer_factory.hpp:77] Creating layer inception_4e/5x5
I0403 14:38:26.014356  1682 net.cpp:91] Creating Layer inception_4e/5x5
I0403 14:38:26.014374  1682 net.cpp:425] inception_4e/5x5 <- inception_4e/5x5_reduce
I0403 14:38:26.014394  1682 net.cpp:399] inception_4e/5x5 -> inception_4e/5x5
I0403 14:38:26.016257  1682 net.cpp:141] Setting up inception_4e/5x5
I0403 14:38:26.016284  1682 net.cpp:148] Top shape: 24 128 14 14 (602112)
I0403 14:38:26.016300  1682 net.cpp:156] Memory required for data: 1239741984
I0403 14:38:26.016319  1682 layer_factory.hpp:77] Creating layer inception_4e/relu_5x5
I0403 14:38:26.016336  1682 net.cpp:91] Creating Layer inception_4e/relu_5x5
I0403 14:38:26.016355  1682 net.cpp:425] inception_4e/relu_5x5 <- inception_4e/5x5
I0403 14:38:26.016372  1682 net.cpp:386] inception_4e/relu_5x5 -> inception_4e/5x5 (in-place)
I0403 14:38:26.016564  1682 net.cpp:141] Setting up inception_4e/relu_5x5
I0403 14:38:26.016588  1682 net.cpp:148] Top shape: 24 128 14 14 (602112)
I0403 14:38:26.016602  1682 net.cpp:156] Memory required for data: 1242150432
I0403 14:38:26.016616  1682 layer_factory.hpp:77] Creating layer inception_4e/pool
I0403 14:38:26.016638  1682 net.cpp:91] Creating Layer inception_4e/pool
I0403 14:38:26.016654  1682 net.cpp:425] inception_4e/pool <- inception_4d/output_inception_4d/output_0_split_4
I0403 14:38:26.016672  1682 net.cpp:399] inception_4e/pool -> inception_4e/pool
I0403 14:38:26.016742  1682 net.cpp:141] Setting up inception_4e/pool
I0403 14:38:26.016764  1682 net.cpp:148] Top shape: 24 528 14 14 (2483712)
I0403 14:38:26.016778  1682 net.cpp:156] Memory required for data: 1252085280
I0403 14:38:26.016804  1682 layer_factory.hpp:77] Creating layer inception_4e/pool_proj
I0403 14:38:26.016827  1682 net.cpp:91] Creating Layer inception_4e/pool_proj
I0403 14:38:26.016846  1682 net.cpp:425] inception_4e/pool_proj <- inception_4e/pool
I0403 14:38:26.016867  1682 net.cpp:399] inception_4e/pool_proj -> inception_4e/pool_proj
I0403 14:38:26.018438  1682 net.cpp:141] Setting up inception_4e/pool_proj
I0403 14:38:26.018481  1682 net.cpp:148] Top shape: 24 128 14 14 (602112)
I0403 14:38:26.018497  1682 net.cpp:156] Memory required for data: 1254493728
I0403 14:38:26.018517  1682 layer_factory.hpp:77] Creating layer inception_4e/relu_pool_proj
I0403 14:38:26.018534  1682 net.cpp:91] Creating Layer inception_4e/relu_pool_proj
I0403 14:38:26.018551  1682 net.cpp:425] inception_4e/relu_pool_proj <- inception_4e/pool_proj
I0403 14:38:26.018584  1682 net.cpp:386] inception_4e/relu_pool_proj -> inception_4e/pool_proj (in-place)
I0403 14:38:26.018892  1682 net.cpp:141] Setting up inception_4e/relu_pool_proj
I0403 14:38:26.018932  1682 net.cpp:148] Top shape: 24 128 14 14 (602112)
I0403 14:38:26.018949  1682 net.cpp:156] Memory required for data: 1256902176
I0403 14:38:26.018964  1682 layer_factory.hpp:77] Creating layer inception_4e/output
I0403 14:38:26.018980  1682 net.cpp:91] Creating Layer inception_4e/output
I0403 14:38:26.018996  1682 net.cpp:425] inception_4e/output <- inception_4e/1x1
I0403 14:38:26.019013  1682 net.cpp:425] inception_4e/output <- inception_4e/3x3
I0403 14:38:26.019029  1682 net.cpp:425] inception_4e/output <- inception_4e/5x5
I0403 14:38:26.019045  1682 net.cpp:425] inception_4e/output <- inception_4e/pool_proj
I0403 14:38:26.019064  1682 net.cpp:399] inception_4e/output -> inception_4e/output
I0403 14:38:26.019114  1682 net.cpp:141] Setting up inception_4e/output
I0403 14:38:26.019139  1682 net.cpp:148] Top shape: 24 832 14 14 (3913728)
I0403 14:38:26.019152  1682 net.cpp:156] Memory required for data: 1272557088
I0403 14:38:26.019166  1682 layer_factory.hpp:77] Creating layer pool4/3x3_s2
I0403 14:38:26.019192  1682 net.cpp:91] Creating Layer pool4/3x3_s2
I0403 14:38:26.019210  1682 net.cpp:425] pool4/3x3_s2 <- inception_4e/output
I0403 14:38:26.019228  1682 net.cpp:399] pool4/3x3_s2 -> pool4/3x3_s2
I0403 14:38:26.019297  1682 net.cpp:141] Setting up pool4/3x3_s2
I0403 14:38:26.019321  1682 net.cpp:148] Top shape: 24 832 7 7 (978432)
I0403 14:38:26.019336  1682 net.cpp:156] Memory required for data: 1276470816
I0403 14:38:26.019351  1682 layer_factory.hpp:77] Creating layer pool4/3x3_s2_pool4/3x3_s2_0_split
I0403 14:38:26.019371  1682 net.cpp:91] Creating Layer pool4/3x3_s2_pool4/3x3_s2_0_split
I0403 14:38:26.019387  1682 net.cpp:425] pool4/3x3_s2_pool4/3x3_s2_0_split <- pool4/3x3_s2
I0403 14:38:26.019403  1682 net.cpp:399] pool4/3x3_s2_pool4/3x3_s2_0_split -> pool4/3x3_s2_pool4/3x3_s2_0_split_0
I0403 14:38:26.019423  1682 net.cpp:399] pool4/3x3_s2_pool4/3x3_s2_0_split -> pool4/3x3_s2_pool4/3x3_s2_0_split_1
I0403 14:38:26.019443  1682 net.cpp:399] pool4/3x3_s2_pool4/3x3_s2_0_split -> pool4/3x3_s2_pool4/3x3_s2_0_split_2
I0403 14:38:26.019464  1682 net.cpp:399] pool4/3x3_s2_pool4/3x3_s2_0_split -> pool4/3x3_s2_pool4/3x3_s2_0_split_3
I0403 14:38:26.019556  1682 net.cpp:141] Setting up pool4/3x3_s2_pool4/3x3_s2_0_split
I0403 14:38:26.019578  1682 net.cpp:148] Top shape: 24 832 7 7 (978432)
I0403 14:38:26.019594  1682 net.cpp:148] Top shape: 24 832 7 7 (978432)
I0403 14:38:26.019610  1682 net.cpp:148] Top shape: 24 832 7 7 (978432)
I0403 14:38:26.019625  1682 net.cpp:148] Top shape: 24 832 7 7 (978432)
I0403 14:38:26.019639  1682 net.cpp:156] Memory required for data: 1292125728
I0403 14:38:26.019654  1682 layer_factory.hpp:77] Creating layer inception_5a/1x1
I0403 14:38:26.019675  1682 net.cpp:91] Creating Layer inception_5a/1x1
I0403 14:38:26.019695  1682 net.cpp:425] inception_5a/1x1 <- pool4/3x3_s2_pool4/3x3_s2_0_split_0
I0403 14:38:26.019716  1682 net.cpp:399] inception_5a/1x1 -> inception_5a/1x1
I0403 14:38:26.022680  1682 net.cpp:141] Setting up inception_5a/1x1
I0403 14:38:26.022711  1682 net.cpp:148] Top shape: 24 256 7 7 (301056)
I0403 14:38:26.022727  1682 net.cpp:156] Memory required for data: 1293329952
I0403 14:38:26.022747  1682 layer_factory.hpp:77] Creating layer inception_5a/relu_1x1
I0403 14:38:26.022766  1682 net.cpp:91] Creating Layer inception_5a/relu_1x1
I0403 14:38:26.022783  1682 net.cpp:425] inception_5a/relu_1x1 <- inception_5a/1x1
I0403 14:38:26.022801  1682 net.cpp:386] inception_5a/relu_1x1 -> inception_5a/1x1 (in-place)
I0403 14:38:26.023115  1682 net.cpp:141] Setting up inception_5a/relu_1x1
I0403 14:38:26.023141  1682 net.cpp:148] Top shape: 24 256 7 7 (301056)
I0403 14:38:26.023157  1682 net.cpp:156] Memory required for data: 1294534176
I0403 14:38:26.023174  1682 layer_factory.hpp:77] Creating layer inception_5a/3x3_reduce
I0403 14:38:26.023203  1682 net.cpp:91] Creating Layer inception_5a/3x3_reduce
I0403 14:38:26.023222  1682 net.cpp:425] inception_5a/3x3_reduce <- pool4/3x3_s2_pool4/3x3_s2_0_split_1
I0403 14:38:26.023246  1682 net.cpp:399] inception_5a/3x3_reduce -> inception_5a/3x3_reduce
I0403 14:38:26.025761  1682 net.cpp:141] Setting up inception_5a/3x3_reduce
I0403 14:38:26.025795  1682 net.cpp:148] Top shape: 24 160 7 7 (188160)
I0403 14:38:26.025812  1682 net.cpp:156] Memory required for data: 1295286816
I0403 14:38:26.025832  1682 layer_factory.hpp:77] Creating layer inception_5a/relu_3x3_reduce
I0403 14:38:26.025851  1682 net.cpp:91] Creating Layer inception_5a/relu_3x3_reduce
I0403 14:38:26.025868  1682 net.cpp:425] inception_5a/relu_3x3_reduce <- inception_5a/3x3_reduce
I0403 14:38:26.025888  1682 net.cpp:386] inception_5a/relu_3x3_reduce -> inception_5a/3x3_reduce (in-place)
I0403 14:38:26.026080  1682 net.cpp:141] Setting up inception_5a/relu_3x3_reduce
I0403 14:38:26.026106  1682 net.cpp:148] Top shape: 24 160 7 7 (188160)
I0403 14:38:26.026120  1682 net.cpp:156] Memory required for data: 1296039456
I0403 14:38:26.026136  1682 layer_factory.hpp:77] Creating layer inception_5a/3x3
I0403 14:38:26.026160  1682 net.cpp:91] Creating Layer inception_5a/3x3
I0403 14:38:26.026182  1682 net.cpp:425] inception_5a/3x3 <- inception_5a/3x3_reduce
I0403 14:38:26.026208  1682 net.cpp:399] inception_5a/3x3 -> inception_5a/3x3
I0403 14:38:26.031390  1682 net.cpp:141] Setting up inception_5a/3x3
I0403 14:38:26.031421  1682 net.cpp:148] Top shape: 24 320 7 7 (376320)
I0403 14:38:26.031437  1682 net.cpp:156] Memory required for data: 1297544736
I0403 14:38:26.031456  1682 layer_factory.hpp:77] Creating layer inception_5a/relu_3x3
I0403 14:38:26.031476  1682 net.cpp:91] Creating Layer inception_5a/relu_3x3
I0403 14:38:26.031493  1682 net.cpp:425] inception_5a/relu_3x3 <- inception_5a/3x3
I0403 14:38:26.031510  1682 net.cpp:386] inception_5a/relu_3x3 -> inception_5a/3x3 (in-place)
I0403 14:38:26.031811  1682 net.cpp:141] Setting up inception_5a/relu_3x3
I0403 14:38:26.031837  1682 net.cpp:148] Top shape: 24 320 7 7 (376320)
I0403 14:38:26.031852  1682 net.cpp:156] Memory required for data: 1299050016
I0403 14:38:26.031867  1682 layer_factory.hpp:77] Creating layer inception_5a/5x5_reduce
I0403 14:38:26.031890  1682 net.cpp:91] Creating Layer inception_5a/5x5_reduce
I0403 14:38:26.031908  1682 net.cpp:425] inception_5a/5x5_reduce <- pool4/3x3_s2_pool4/3x3_s2_0_split_2
I0403 14:38:26.031930  1682 net.cpp:399] inception_5a/5x5_reduce -> inception_5a/5x5_reduce
I0403 14:38:26.033149  1682 net.cpp:141] Setting up inception_5a/5x5_reduce
I0403 14:38:26.033184  1682 net.cpp:148] Top shape: 24 32 7 7 (37632)
I0403 14:38:26.033201  1682 net.cpp:156] Memory required for data: 1299200544
I0403 14:38:26.033221  1682 layer_factory.hpp:77] Creating layer inception_5a/relu_5x5_reduce
I0403 14:38:26.033241  1682 net.cpp:91] Creating Layer inception_5a/relu_5x5_reduce
I0403 14:38:26.033258  1682 net.cpp:425] inception_5a/relu_5x5_reduce <- inception_5a/5x5_reduce
I0403 14:38:26.033275  1682 net.cpp:386] inception_5a/relu_5x5_reduce -> inception_5a/5x5_reduce (in-place)
I0403 14:38:26.033584  1682 net.cpp:141] Setting up inception_5a/relu_5x5_reduce
I0403 14:38:26.033610  1682 net.cpp:148] Top shape: 24 32 7 7 (37632)
I0403 14:38:26.033627  1682 net.cpp:156] Memory required for data: 1299351072
I0403 14:38:26.033640  1682 layer_factory.hpp:77] Creating layer inception_5a/5x5
I0403 14:38:26.033663  1682 net.cpp:91] Creating Layer inception_5a/5x5
I0403 14:38:26.033681  1682 net.cpp:425] inception_5a/5x5 <- inception_5a/5x5_reduce
I0403 14:38:26.033702  1682 net.cpp:399] inception_5a/5x5 -> inception_5a/5x5
I0403 14:38:26.035490  1682 net.cpp:141] Setting up inception_5a/5x5
I0403 14:38:26.035531  1682 net.cpp:148] Top shape: 24 128 7 7 (150528)
I0403 14:38:26.035547  1682 net.cpp:156] Memory required for data: 1299953184
I0403 14:38:26.035567  1682 layer_factory.hpp:77] Creating layer inception_5a/relu_5x5
I0403 14:38:26.035588  1682 net.cpp:91] Creating Layer inception_5a/relu_5x5
I0403 14:38:26.035605  1682 net.cpp:425] inception_5a/relu_5x5 <- inception_5a/5x5
I0403 14:38:26.035660  1682 net.cpp:386] inception_5a/relu_5x5 -> inception_5a/5x5 (in-place)
I0403 14:38:26.035856  1682 net.cpp:141] Setting up inception_5a/relu_5x5
I0403 14:38:26.035882  1682 net.cpp:148] Top shape: 24 128 7 7 (150528)
I0403 14:38:26.035897  1682 net.cpp:156] Memory required for data: 1300555296
I0403 14:38:26.035912  1682 layer_factory.hpp:77] Creating layer inception_5a/pool
I0403 14:38:26.035933  1682 net.cpp:91] Creating Layer inception_5a/pool
I0403 14:38:26.035951  1682 net.cpp:425] inception_5a/pool <- pool4/3x3_s2_pool4/3x3_s2_0_split_3
I0403 14:38:26.035969  1682 net.cpp:399] inception_5a/pool -> inception_5a/pool
I0403 14:38:26.036041  1682 net.cpp:141] Setting up inception_5a/pool
I0403 14:38:26.036065  1682 net.cpp:148] Top shape: 24 832 7 7 (978432)
I0403 14:38:26.036079  1682 net.cpp:156] Memory required for data: 1304469024
I0403 14:38:26.036094  1682 layer_factory.hpp:77] Creating layer inception_5a/pool_proj
I0403 14:38:26.036116  1682 net.cpp:91] Creating Layer inception_5a/pool_proj
I0403 14:38:26.036134  1682 net.cpp:425] inception_5a/pool_proj <- inception_5a/pool
I0403 14:38:26.036154  1682 net.cpp:399] inception_5a/pool_proj -> inception_5a/pool_proj
I0403 14:38:26.038477  1682 net.cpp:141] Setting up inception_5a/pool_proj
I0403 14:38:26.038507  1682 net.cpp:148] Top shape: 24 128 7 7 (150528)
I0403 14:38:26.038523  1682 net.cpp:156] Memory required for data: 1305071136
I0403 14:38:26.038542  1682 layer_factory.hpp:77] Creating layer inception_5a/relu_pool_proj
I0403 14:38:26.038559  1682 net.cpp:91] Creating Layer inception_5a/relu_pool_proj
I0403 14:38:26.038588  1682 net.cpp:425] inception_5a/relu_pool_proj <- inception_5a/pool_proj
I0403 14:38:26.038605  1682 net.cpp:386] inception_5a/relu_pool_proj -> inception_5a/pool_proj (in-place)
I0403 14:38:26.038894  1682 net.cpp:141] Setting up inception_5a/relu_pool_proj
I0403 14:38:26.038920  1682 net.cpp:148] Top shape: 24 128 7 7 (150528)
I0403 14:38:26.038935  1682 net.cpp:156] Memory required for data: 1305673248
I0403 14:38:26.038949  1682 layer_factory.hpp:77] Creating layer inception_5a/output
I0403 14:38:26.038966  1682 net.cpp:91] Creating Layer inception_5a/output
I0403 14:38:26.038982  1682 net.cpp:425] inception_5a/output <- inception_5a/1x1
I0403 14:38:26.038998  1682 net.cpp:425] inception_5a/output <- inception_5a/3x3
I0403 14:38:26.039014  1682 net.cpp:425] inception_5a/output <- inception_5a/5x5
I0403 14:38:26.039031  1682 net.cpp:425] inception_5a/output <- inception_5a/pool_proj
I0403 14:38:26.039049  1682 net.cpp:399] inception_5a/output -> inception_5a/output
I0403 14:38:26.039098  1682 net.cpp:141] Setting up inception_5a/output
I0403 14:38:26.039122  1682 net.cpp:148] Top shape: 24 832 7 7 (978432)
I0403 14:38:26.039137  1682 net.cpp:156] Memory required for data: 1309586976
I0403 14:38:26.039151  1682 layer_factory.hpp:77] Creating layer inception_5a/output_inception_5a/output_0_split
I0403 14:38:26.039168  1682 net.cpp:91] Creating Layer inception_5a/output_inception_5a/output_0_split
I0403 14:38:26.039189  1682 net.cpp:425] inception_5a/output_inception_5a/output_0_split <- inception_5a/output
I0403 14:38:26.039207  1682 net.cpp:399] inception_5a/output_inception_5a/output_0_split -> inception_5a/output_inception_5a/output_0_split_0
I0403 14:38:26.039239  1682 net.cpp:399] inception_5a/output_inception_5a/output_0_split -> inception_5a/output_inception_5a/output_0_split_1
I0403 14:38:26.039264  1682 net.cpp:399] inception_5a/output_inception_5a/output_0_split -> inception_5a/output_inception_5a/output_0_split_2
I0403 14:38:26.039288  1682 net.cpp:399] inception_5a/output_inception_5a/output_0_split -> inception_5a/output_inception_5a/output_0_split_3
I0403 14:38:26.039399  1682 net.cpp:141] Setting up inception_5a/output_inception_5a/output_0_split
I0403 14:38:26.039422  1682 net.cpp:148] Top shape: 24 832 7 7 (978432)
I0403 14:38:26.039439  1682 net.cpp:148] Top shape: 24 832 7 7 (978432)
I0403 14:38:26.039455  1682 net.cpp:148] Top shape: 24 832 7 7 (978432)
I0403 14:38:26.039470  1682 net.cpp:148] Top shape: 24 832 7 7 (978432)
I0403 14:38:26.039484  1682 net.cpp:156] Memory required for data: 1325241888
I0403 14:38:26.039499  1682 layer_factory.hpp:77] Creating layer inception_5b/1x1
I0403 14:38:26.039520  1682 net.cpp:91] Creating Layer inception_5b/1x1
I0403 14:38:26.039537  1682 net.cpp:425] inception_5b/1x1 <- inception_5a/output_inception_5a/output_0_split_0
I0403 14:38:26.039572  1682 net.cpp:399] inception_5b/1x1 -> inception_5b/1x1
I0403 14:38:26.043316  1682 net.cpp:141] Setting up inception_5b/1x1
I0403 14:38:26.043349  1682 net.cpp:148] Top shape: 24 384 7 7 (451584)
I0403 14:38:26.043365  1682 net.cpp:156] Memory required for data: 1327048224
I0403 14:38:26.043382  1682 layer_factory.hpp:77] Creating layer inception_5b/relu_1x1
I0403 14:38:26.043401  1682 net.cpp:91] Creating Layer inception_5b/relu_1x1
I0403 14:38:26.043416  1682 net.cpp:425] inception_5b/relu_1x1 <- inception_5b/1x1
I0403 14:38:26.043436  1682 net.cpp:386] inception_5b/relu_1x1 -> inception_5b/1x1 (in-place)
I0403 14:38:26.043732  1682 net.cpp:141] Setting up inception_5b/relu_1x1
I0403 14:38:26.043761  1682 net.cpp:148] Top shape: 24 384 7 7 (451584)
I0403 14:38:26.043776  1682 net.cpp:156] Memory required for data: 1328854560
I0403 14:38:26.043789  1682 layer_factory.hpp:77] Creating layer inception_5b/3x3_reduce
I0403 14:38:26.043812  1682 net.cpp:91] Creating Layer inception_5b/3x3_reduce
I0403 14:38:26.043830  1682 net.cpp:425] inception_5b/3x3_reduce <- inception_5a/output_inception_5a/output_0_split_1
I0403 14:38:26.043849  1682 net.cpp:399] inception_5b/3x3_reduce -> inception_5b/3x3_reduce
I0403 14:38:26.046551  1682 net.cpp:141] Setting up inception_5b/3x3_reduce
I0403 14:38:26.046581  1682 net.cpp:148] Top shape: 24 192 7 7 (225792)
I0403 14:38:26.046597  1682 net.cpp:156] Memory required for data: 1329757728
I0403 14:38:26.046614  1682 layer_factory.hpp:77] Creating layer inception_5b/relu_3x3_reduce
I0403 14:38:26.046633  1682 net.cpp:91] Creating Layer inception_5b/relu_3x3_reduce
I0403 14:38:26.046648  1682 net.cpp:425] inception_5b/relu_3x3_reduce <- inception_5b/3x3_reduce
I0403 14:38:26.046668  1682 net.cpp:386] inception_5b/relu_3x3_reduce -> inception_5b/3x3_reduce (in-place)
I0403 14:38:26.046854  1682 net.cpp:141] Setting up inception_5b/relu_3x3_reduce
I0403 14:38:26.046879  1682 net.cpp:148] Top shape: 24 192 7 7 (225792)
I0403 14:38:26.046892  1682 net.cpp:156] Memory required for data: 1330660896
I0403 14:38:26.046906  1682 layer_factory.hpp:77] Creating layer inception_5b/3x3
I0403 14:38:26.046928  1682 net.cpp:91] Creating Layer inception_5b/3x3
I0403 14:38:26.046947  1682 net.cpp:425] inception_5b/3x3 <- inception_5b/3x3_reduce
I0403 14:38:26.046967  1682 net.cpp:399] inception_5b/3x3 -> inception_5b/3x3
I0403 14:38:26.053689  1682 net.cpp:141] Setting up inception_5b/3x3
I0403 14:38:26.053717  1682 net.cpp:148] Top shape: 24 384 7 7 (451584)
I0403 14:38:26.053733  1682 net.cpp:156] Memory required for data: 1332467232
I0403 14:38:26.053751  1682 layer_factory.hpp:77] Creating layer inception_5b/relu_3x3
I0403 14:38:26.053768  1682 net.cpp:91] Creating Layer inception_5b/relu_3x3
I0403 14:38:26.053784  1682 net.cpp:425] inception_5b/relu_3x3 <- inception_5b/3x3
I0403 14:38:26.053803  1682 net.cpp:386] inception_5b/relu_3x3 -> inception_5b/3x3 (in-place)
I0403 14:38:26.054100  1682 net.cpp:141] Setting up inception_5b/relu_3x3
I0403 14:38:26.054126  1682 net.cpp:148] Top shape: 24 384 7 7 (451584)
I0403 14:38:26.054141  1682 net.cpp:156] Memory required for data: 1334273568
I0403 14:38:26.054154  1682 layer_factory.hpp:77] Creating layer inception_5b/5x5_reduce
I0403 14:38:26.054199  1682 net.cpp:91] Creating Layer inception_5b/5x5_reduce
I0403 14:38:26.054219  1682 net.cpp:425] inception_5b/5x5_reduce <- inception_5a/output_inception_5a/output_0_split_2
I0403 14:38:26.054241  1682 net.cpp:399] inception_5b/5x5_reduce -> inception_5b/5x5_reduce
I0403 14:38:26.055521  1682 net.cpp:141] Setting up inception_5b/5x5_reduce
I0403 14:38:26.055549  1682 net.cpp:148] Top shape: 24 48 7 7 (56448)
I0403 14:38:26.055565  1682 net.cpp:156] Memory required for data: 1334499360
I0403 14:38:26.055583  1682 layer_factory.hpp:77] Creating layer inception_5b/relu_5x5_reduce
I0403 14:38:26.055600  1682 net.cpp:91] Creating Layer inception_5b/relu_5x5_reduce
I0403 14:38:26.055616  1682 net.cpp:425] inception_5b/relu_5x5_reduce <- inception_5b/5x5_reduce
I0403 14:38:26.055636  1682 net.cpp:386] inception_5b/relu_5x5_reduce -> inception_5b/5x5_reduce (in-place)
I0403 14:38:26.056002  1682 net.cpp:141] Setting up inception_5b/relu_5x5_reduce
I0403 14:38:26.056028  1682 net.cpp:148] Top shape: 24 48 7 7 (56448)
I0403 14:38:26.056043  1682 net.cpp:156] Memory required for data: 1334725152
I0403 14:38:26.056057  1682 layer_factory.hpp:77] Creating layer inception_5b/5x5
I0403 14:38:26.056077  1682 net.cpp:91] Creating Layer inception_5b/5x5
I0403 14:38:26.056094  1682 net.cpp:425] inception_5b/5x5 <- inception_5b/5x5_reduce
I0403 14:38:26.056113  1682 net.cpp:399] inception_5b/5x5 -> inception_5b/5x5
I0403 14:38:26.058187  1682 net.cpp:141] Setting up inception_5b/5x5
I0403 14:38:26.058215  1682 net.cpp:148] Top shape: 24 128 7 7 (150528)
I0403 14:38:26.058231  1682 net.cpp:156] Memory required for data: 1335327264
I0403 14:38:26.058249  1682 layer_factory.hpp:77] Creating layer inception_5b/relu_5x5
I0403 14:38:26.058269  1682 net.cpp:91] Creating Layer inception_5b/relu_5x5
I0403 14:38:26.058287  1682 net.cpp:425] inception_5b/relu_5x5 <- inception_5b/5x5
I0403 14:38:26.058305  1682 net.cpp:386] inception_5b/relu_5x5 -> inception_5b/5x5 (in-place)
I0403 14:38:26.058511  1682 net.cpp:141] Setting up inception_5b/relu_5x5
I0403 14:38:26.058534  1682 net.cpp:148] Top shape: 24 128 7 7 (150528)
I0403 14:38:26.058548  1682 net.cpp:156] Memory required for data: 1335929376
I0403 14:38:26.058563  1682 layer_factory.hpp:77] Creating layer inception_5b/pool
I0403 14:38:26.058583  1682 net.cpp:91] Creating Layer inception_5b/pool
I0403 14:38:26.058600  1682 net.cpp:425] inception_5b/pool <- inception_5a/output_inception_5a/output_0_split_3
I0403 14:38:26.058617  1682 net.cpp:399] inception_5b/pool -> inception_5b/pool
I0403 14:38:26.058689  1682 net.cpp:141] Setting up inception_5b/pool
I0403 14:38:26.058712  1682 net.cpp:148] Top shape: 24 832 7 7 (978432)
I0403 14:38:26.058727  1682 net.cpp:156] Memory required for data: 1339843104
I0403 14:38:26.058740  1682 layer_factory.hpp:77] Creating layer inception_5b/pool_proj
I0403 14:38:26.058761  1682 net.cpp:91] Creating Layer inception_5b/pool_proj
I0403 14:38:26.058779  1682 net.cpp:425] inception_5b/pool_proj <- inception_5b/pool
I0403 14:38:26.058799  1682 net.cpp:399] inception_5b/pool_proj -> inception_5b/pool_proj
I0403 14:38:26.061125  1682 net.cpp:141] Setting up inception_5b/pool_proj
I0403 14:38:26.061153  1682 net.cpp:148] Top shape: 24 128 7 7 (150528)
I0403 14:38:26.061168  1682 net.cpp:156] Memory required for data: 1340445216
I0403 14:38:26.061194  1682 layer_factory.hpp:77] Creating layer inception_5b/relu_pool_proj
I0403 14:38:26.061213  1682 net.cpp:91] Creating Layer inception_5b/relu_pool_proj
I0403 14:38:26.061229  1682 net.cpp:425] inception_5b/relu_pool_proj <- inception_5b/pool_proj
I0403 14:38:26.061249  1682 net.cpp:386] inception_5b/relu_pool_proj -> inception_5b/pool_proj (in-place)
I0403 14:38:26.061561  1682 net.cpp:141] Setting up inception_5b/relu_pool_proj
I0403 14:38:26.061588  1682 net.cpp:148] Top shape: 24 128 7 7 (150528)
I0403 14:38:26.061602  1682 net.cpp:156] Memory required for data: 1341047328
I0403 14:38:26.061619  1682 layer_factory.hpp:77] Creating layer inception_5b/output
I0403 14:38:26.061635  1682 net.cpp:91] Creating Layer inception_5b/output
I0403 14:38:26.061666  1682 net.cpp:425] inception_5b/output <- inception_5b/1x1
I0403 14:38:26.061684  1682 net.cpp:425] inception_5b/output <- inception_5b/3x3
I0403 14:38:26.061700  1682 net.cpp:425] inception_5b/output <- inception_5b/5x5
I0403 14:38:26.061717  1682 net.cpp:425] inception_5b/output <- inception_5b/pool_proj
I0403 14:38:26.061738  1682 net.cpp:399] inception_5b/output -> inception_5b/output
I0403 14:38:26.061789  1682 net.cpp:141] Setting up inception_5b/output
I0403 14:38:26.061826  1682 net.cpp:148] Top shape: 24 1024 7 7 (1204224)
I0403 14:38:26.061841  1682 net.cpp:156] Memory required for data: 1345864224
I0403 14:38:26.061856  1682 layer_factory.hpp:77] Creating layer pool5/7x7_s1
I0403 14:38:26.061872  1682 net.cpp:91] Creating Layer pool5/7x7_s1
I0403 14:38:26.061887  1682 net.cpp:425] pool5/7x7_s1 <- inception_5b/output
I0403 14:38:26.061909  1682 net.cpp:399] pool5/7x7_s1 -> pool5/7x7_s1
I0403 14:38:26.062122  1682 net.cpp:141] Setting up pool5/7x7_s1
I0403 14:38:26.062146  1682 net.cpp:148] Top shape: 24 1024 1 1 (24576)
I0403 14:38:26.062161  1682 net.cpp:156] Memory required for data: 1345962528
I0403 14:38:26.062186  1682 layer_factory.hpp:77] Creating layer pool5/drop_7x7_s1
I0403 14:38:26.062207  1682 net.cpp:91] Creating Layer pool5/drop_7x7_s1
I0403 14:38:26.062223  1682 net.cpp:425] pool5/drop_7x7_s1 <- pool5/7x7_s1
I0403 14:38:26.062242  1682 net.cpp:386] pool5/drop_7x7_s1 -> pool5/7x7_s1 (in-place)
I0403 14:38:26.062291  1682 net.cpp:141] Setting up pool5/drop_7x7_s1
I0403 14:38:26.062316  1682 net.cpp:148] Top shape: 24 1024 1 1 (24576)
I0403 14:38:26.062330  1682 net.cpp:156] Memory required for data: 1346060832
I0403 14:38:26.062345  1682 layer_factory.hpp:77] Creating layer loss3/classifier_plantvillage
I0403 14:38:26.062364  1682 net.cpp:91] Creating Layer loss3/classifier_plantvillage
I0403 14:38:26.062381  1682 net.cpp:425] loss3/classifier_plantvillage <- pool5/7x7_s1
I0403 14:38:26.062400  1682 net.cpp:399] loss3/classifier_plantvillage -> loss3/classifier_plantvillage
I0403 14:38:26.062813  1682 net.cpp:141] Setting up loss3/classifier_plantvillage
I0403 14:38:26.062840  1682 net.cpp:148] Top shape: 24 38 (912)
I0403 14:38:26.062855  1682 net.cpp:156] Memory required for data: 1346064480
I0403 14:38:26.062873  1682 layer_factory.hpp:77] Creating layer loss3/classifier_plantvillage_loss3/classifier_plantvillage_0_split
I0403 14:38:26.062892  1682 net.cpp:91] Creating Layer loss3/classifier_plantvillage_loss3/classifier_plantvillage_0_split
I0403 14:38:26.062907  1682 net.cpp:425] loss3/classifier_plantvillage_loss3/classifier_plantvillage_0_split <- loss3/classifier_plantvillage
I0403 14:38:26.062924  1682 net.cpp:399] loss3/classifier_plantvillage_loss3/classifier_plantvillage_0_split -> loss3/classifier_plantvillage_loss3/classifier_plantvillage_0_split_0
I0403 14:38:26.062944  1682 net.cpp:399] loss3/classifier_plantvillage_loss3/classifier_plantvillage_0_split -> loss3/classifier_plantvillage_loss3/classifier_plantvillage_0_split_1
I0403 14:38:26.062968  1682 net.cpp:399] loss3/classifier_plantvillage_loss3/classifier_plantvillage_0_split -> loss3/classifier_plantvillage_loss3/classifier_plantvillage_0_split_2
I0403 14:38:26.062990  1682 net.cpp:399] loss3/classifier_plantvillage_loss3/classifier_plantvillage_0_split -> loss3/classifier_plantvillage_loss3/classifier_plantvillage_0_split_3
I0403 14:38:26.063088  1682 net.cpp:141] Setting up loss3/classifier_plantvillage_loss3/classifier_plantvillage_0_split
I0403 14:38:26.063110  1682 net.cpp:148] Top shape: 24 38 (912)
I0403 14:38:26.063127  1682 net.cpp:148] Top shape: 24 38 (912)
I0403 14:38:26.063141  1682 net.cpp:148] Top shape: 24 38 (912)
I0403 14:38:26.063169  1682 net.cpp:148] Top shape: 24 38 (912)
I0403 14:38:26.063194  1682 net.cpp:156] Memory required for data: 1346079072
I0403 14:38:26.063210  1682 layer_factory.hpp:77] Creating layer loss1/loss
I0403 14:38:26.063246  1682 net.cpp:91] Creating Layer loss1/loss
I0403 14:38:26.063266  1682 net.cpp:425] loss1/loss <- loss1/classifier_plantvillage_loss1/classifier_plantvillage_0_split_0
I0403 14:38:26.063311  1682 net.cpp:425] loss1/loss <- label_data_1_split_0
…
