…
I0403 13:34:28.876263 32577 net.cpp:313] The NetState phase (1) differed from the phase (0) specified by a rule in layer data
I0403 13:34:28.877496 32577 net.cpp:49] Initializing net from parameters: 
state {
  phase: TEST
}
layer {
  name: "data"
  type: "Data"
  top: "data"
  top: "label"
  include {
    phase: TEST
  }
  transform_param {
    mirror: false
    crop_size: 224
    mean_file: "/home/mohanty/data/final_dataset/lmdb/grayscale-20-80/mean.binaryproto"
  }
  data_param {
    source: "/home/mohanty/data/final_dataset/lmdb/grayscale-20-80/test_db"
    batch_size: 24
    backend: LMDB
  }
}
layer {
  name: "conv1/7x7_s2"
  type: "Convolution"
  bottom: "data"
  top: "conv1/7x7_s2"
  param {
    lr_mult: 1
    decay_mult: 1
  }
  param {
    lr_mult: 2
    decay_mult: 0
  }
  convolution_param {
    num_output: 64
    pad: 3
    kernel_size: 7
    stride: 2
    weight_filler {
      type: "xavier"
      std: 0.1
    }
    bias_filler {
      type: "constant"
      value: 0.2
    }
  }
}
layer {
  name: "conv1/relu_7x7"
  type: "ReLU"
  bottom: "conv1/7x7_s2"
  top: "conv1/7x7_s2"
}
layer {
  name: "pool1/3x3_s2"
  type: "Pooling"
  bottom: "conv1/7x7_s2"
  top: "pool1/3x3_s2"
  pooling_param {
    pool: MAX
    kernel_size: 3
    stride: 2
  }
}
layer {
  name: "pool1/norm1"
  type: "LRN"
  bottom: "pool1/3x3_s2"
  top: "pool1/norm1"
  lrn_param {
    local_size: 5
    alpha: 0.0001
    beta: 0.75
  }
}
layer {
  name: "conv2/3x3_reduce"
  type: "Convolution"
  bottom: "pool1/norm1"
  top: "conv2/3x3_reduce"
  param {
    lr_mult: 1
    decay_mult: 1
  }
  param {
    lr_mult: 2
    decay_mult: 0
  }
  convolution_param {
    num_output: 64
    kernel_size: 1
    weight_filler {
      type: "xavier"
      std: 0.1
    }
    bias_filler {
      type: "constant"
      value: 0.2
    }
  }
}
layer {
  name: "conv2/relu_3x3_reduce"
  type: "ReLU"
  bottom: "conv2/3x3_reduce"
  top: "conv2/3x3_reduce"
}
layer {
  name: "conv2/3x3"
  type: "Convolution"
  bottom: "conv2/3x3_reduce"
  top: "conv2/3x3"
  param {
    lr_mult: 1
    decay_mult: 1
  }
  param {
    lr_mult: 2
    decay_mult: 0
  }
  convolution_param {
    num_output: 192
    pad: 1
    kernel_size: 3
    weight_filler {
      type: "xavier"
      std: 0.03
    }
    bias_filler {
      type: "constant"
      value: 0.2
    }
  }
}
layer {
  name: "conv2/relu_3x3"
  type: "ReLU"
  bottom: "conv2/3x3"
  top: "conv2/3x3"
}
layer {
  name: "conv2/norm2"
  type: "LRN"
  bottom: "conv2/3x3"
  top: "conv2/norm2"
  lrn_param {
    local_size: 5
    alpha: 0.0001
    beta: 0.75
  }
}
layer {
  name: "pool2/3x3_s2"
  type: "Pooling"
  bottom: "conv2/norm2"
  top: "pool2/3x3_s2"
  pooling_param {
    pool: MAX
    kernel_size: 3
    stride: 2
  }
}
layer {
  name: "inception_3a/1x1"
  type: "Convolution"
  bottom: "pool2/3x3_s2"
  top: "inception_3a/1x1"
  param {
    lr_mult: 1
    decay_mult: 1
  }
  param {
    lr_mult: 2
    decay_mult: 0
  }
  convolution_param {
    num_output: 64
    kernel_size: 1
    weight_filler {
      type: "xavier"
      std: 0.03
    }
    bias_filler {
      type: "constant"
      value: 0.2
    }
  }
}
layer {
  name: "inception_3a/relu_1x1"
  type: "ReLU"
  bottom: "inception_3a/1x1"
  top: "inception_3a/1x1"
}
layer {
  name: "inception_3a/3x3_reduce"
  type: "Convolution"
  bottom: "pool2/3x3_s2"
  top: "inception_3a/3x3_reduce"
  param {
    lr_mult: 1
    decay_mult: 1
  }
  param {
    lr_mult: 2
    decay_mult: 0
  }
  convolution_param {
    num_output: 96
    kernel_size: 1
    weight_filler {
      type: "xavier"
      std: 0.09
    }
    bias_filler {
      type: "constant"
      value: 0.2
    }
  }
}
layer {
  name: "inception_3a/relu_3x3_reduce"
  type: "ReLU"
  bottom: "inception_3a/3x3_reduce"
  top: "inception_3a/3x3_reduce"
}
layer {
  name: "inception_3a/3x3"
  type: "Convolution"
  bottom: "inception_3a/3x3_reduce"
  top: "inception_3a/3x3"
  param {
    lr_mult: 1
    decay_mult: 1
  }
  param {
    lr_mult: 2
    decay_mult: 0
  }
  convolution_param {
    num_output: 128
    pad: 1
    kernel_size: 3
    weight_filler {
      type: "xavier"
      std: 0.03
    }
    bias_filler {
      type: "constant"
      value: 0.2
    }
  }
}
layer {
  name: "inception_3a/relu_3x3"
  type: "ReLU"
  bottom: "inception_3a/3x3"
  top: "inception_3a/3x3"
}
layer {
  name: "inception_3a/5x5_reduce"
  type: "Convolution"
  bottom: "pool2/3x3_s2"
  top: "inception_3a/5x5_reduce"
  param {
    lr_mult: 1
    decay_mult: 1
  }
  param {
    lr_mult: 2
    decay_mult: 0
  }
  convolution_param {
    num_output: 16
    kernel_size: 1
    weight_filler {
      type: "xavier"
      std: 0.2
    }
    bias_filler {
      type: "constant"
      value: 0.2
    }
  }
}
layer {
  name: "inception_3a/relu_5x5_reduce"
  type: "ReLU"
  bottom: "inception_3a/5x5_reduce"
  top: "inception_3a/5x5_reduce"
}
layer {
  name: "inception_3a/5x5"
  type: "Convolution"
  bottom: "inception_3a/5x5_reduce"
  top: "inception_3a/5x5"
  param {
    lr_mult: 1
    decay_mult: 1
  }
  param {
    lr_mult: 2
    decay_mult: 0
  }
  convolution_param {
    num_output: 32
    pad: 2
    kernel_size: 5
    weight_filler {
      type: "xavier"
      std: 0.03
    }
    bias_filler {
      type: "constant"
      value: 0.2
    }
  }
}
layer {
  name: "inception_3a/relu_5x5"
  type: "ReLU"
  bottom: "inception_3a/5x5"
  top: "inception_3a/5x5"
}
layer {
  name: "inception_3a/pool"
  type: "Pooling"
  bottom: "pool2/3x3_s2"
  top: "inception_3a/pool"
  pooling_param {
    pool: MAX
    kernel_size: 3
    stride: 1
    pad: 1
  }
}
layer {
  name: "inception_3a/pool_proj"
  type: "Convolution"
  bottom: "inception_3a/pool"
  top: "inception_3a/pool_proj"
  param {
    lr_mult: 1
    decay_mult: 1
  }
  param {
    lr_mult: 2
    decay_mult: 0
  }
  convolution_param {
    num_output: 32
    kernel_size: 1
    weight_filler {
      type: "xavier"
      std: 0.1
    }
    bias_filler {
      type: "constant"
      value: 0.2
    }
  }
}
layer {
  name: "inception_3a/relu_pool_proj"
  type: "ReLU"
  bottom: "inception_3a/pool_proj"
  top: "inception_3a/pool_proj"
}
layer {
  name: "inception_3a/output"
  type: "Concat"
  bottom: "inception_3a/1x1"
  bottom: "inception_3a/3x3"
  bottom: "inception_3a/5x5"
  bottom: "inception_3a/pool_proj"
  top: "inception_3a/output"
}
layer {
  name: "inception_3b/1x1"
  type: "Convolution"
  bottom: "inception_3a/output"
  top: "inception_3b/1x1"
  param {
    lr_mult: 1
    decay_mult: 1
  }
  param {
    lr_mult: 2
    decay_mult: 0
  }
  convolution_param {
    num_output: 128
    kernel_size: 1
    weight_filler {
      type: "xavier"
      std: 0.03
    }
    bias_filler {
      type: "constant"
      value: 0.2
    }
  }
}
layer {
  name: "inception_3b/relu_1x1"
  type: "ReLU"
  bottom: "inception_3b/1x1"
  top: "inception_3b/1x1"
}
layer {
  name: "inception_3b/3x3_reduce"
  type: "Convolution"
  bottom: "inception_3a/output"
  top: "inception_3b/3x3_reduce"
  param {
    lr_mult: 1
    decay_mult: 1
  }
  param {
    lr_mult: 2
    decay_mult: 0
  }
  convolution_param {
    num_output: 128
    kernel_size: 1
    weight_filler {
      type: "xavier"
      std: 0.09
    }
    bias_filler {
      type: "constant"
      value: 0.2
    }
  }
}
layer {
  name: "inception_3b/relu_3x3_reduce"
  type: "ReLU"
  bottom: "inception_3b/3x3_reduce"
  top: "inception_3b/3x3_reduce"
}
layer {
  name: "inception_3b/3x3"
  type: "Convolution"
  bottom: "inception_3b/3x3_reduce"
  top: "inception_3b/3x3"
  param {
    lr_mult: 1
    decay_mult: 1
  }
  param {
    lr_mult: 2
    decay_mult: 0
  }
  convolution_param {
    num_output: 192
    pad: 1
    kernel_size: 3
    weight_filler {
      type: "xavier"
      std: 0.03
    }
    bias_filler {
      type: "constant"
      value: 0.2
    }
  }
}
layer {
  name: "inception_3b/relu_3x3"
  type: "ReLU"
  bottom: "inception_3b/3x3"
  top: "inception_3b/3x3"
}
layer {
  name: "inception_3b/5x5_reduce"
  type: "Convolution"
  bottom: "inception_3a/output"
  top: "inception_3b/5x5_reduce"
  param {
    lr_mult: 1
    decay_mult: 1
  }
  param {
    lr_mult: 2
    decay_mult: 0
  }
  convolution_param {
    num_output: 32
    kernel_size: 1
    weight_filler {
      type: "xavier"
      std: 0.2
    }
    bias_filler {
      type: "constant"
      value: 0.2
    }
  }
}
layer {
  name: "inception_3b/relu_5x5_reduce"
  type: "ReLU"
  bottom: "inception_3b/5x5_reduce"
  top: "inception_3b/5x5_reduce"
}
layer {
  name: "inception_3b/5x5"
  type: "Convolution"
  bottom: "inception_3b/5x5_reduce"
  top: "inception_3b/5x5"
  param {
    lr_mult: 1
    decay_mult: 1
  }
  param {
    lr_mult: 2
    decay_mult: 0
  }
  convolution_param {
    num_output: 96
    pad: 2
    kernel_size: 5
    weight_filler {
      type: "xavier"
      std: 0.03
    }
    bias_filler {
      type: "constant"
      value: 0.2
    }
  }
}
layer {
  name: "inception_3b/relu_5x5"
  type: "ReLU"
  bottom: "inception_3b/5x5"
  top: "inception_3b/5x5"
}
layer {
  name: "inception_3b/pool"
  type: "Pooling"
  bottom: "inception_3a/output"
  top: "inception_3b/pool"
  pooling_param {
    pool: MAX
    kernel_size: 3
    stride: 1
    pad: 1
  }
}
layer {
  name: "inception_3b/pool_proj"
  type: "Convolution"
  bottom: "inception_3b/pool"
  top: "inception_3b/pool_proj"
  param {
    lr_mult: 1
    decay_mult: 1
  }
  param {
    lr_mult: 2
    decay_mult: 0
  }
  convolution_param {
    num_output: 64
    kernel_size: 1
    weight_filler {
      type: "xavier"
      std: 0.1
    }
    bias_filler {
      type: "constant"
      value: 0.2
    }
  }
}
layer {
  name: "inception_3b/relu_pool_proj"
  type: "ReLU"
  bottom: "inception_3b/pool_proj"
  top: "inception_3b/pool_proj"
}
layer {
  name: "inception_3b/output"
  type: "Concat"
  bottom: "inception_3b/1x1"
  bottom: "inception_3b/3x3"
  bottom: "inception_3b/5x5"
  bottom: "inception_3b/pool_proj"
  top: "inception_3b/output"
}
layer {
  name: "pool3/3x3_s2"
  type: "Pooling"
  bottom: "inception_3b/output"
  top: "pool3/3x3_s2"
  pooling_param {
    pool: MAX
    kernel_size: 3
    stride: 2
  }
}
layer {
  name: "inception_4a/1x1"
  type: "Convolution"
  bottom: "pool3/3x3_s2"
  top: "inception_4a/1x1"
  param {
    lr_mult: 1
    decay_mult: 1
  }
  param {
    lr_mult: 2
    decay_mult: 0
  }
  convolution_param {
    num_output: 192
    kernel_size: 1
    weight_filler {
      type: "xavier"
      std: 0.03
    }
    bias_filler {
      type: "constant"
      value: 0.2
    }
  }
}
layer {
  name: "inception_4a/relu_1x1"
  type: "ReLU"
  bottom: "inception_4a/1x1"
  top: "inception_4a/1x1"
}
layer {
  name: "inception_4a/3x3_reduce"
  type: "Convolution"
  bottom: "pool3/3x3_s2"
  top: "inception_4a/3x3_reduce"
  param {
    lr_mult: 1
    decay_mult: 1
  }
  param {
    lr_mult: 2
    decay_mult: 0
  }
  convolution_param {
    num_output: 96
    kernel_size: 1
    weight_filler {
      type: "xavier"
      std: 0.09
    }
    bias_filler {
      type: "constant"
      value: 0.2
    }
  }
}
layer {
  name: "inception_4a/relu_3x3_reduce"
  type: "ReLU"
  bottom: "inception_4a/3x3_reduce"
  top: "inception_4a/3x3_reduce"
}
layer {
  name: "inception_4a/3x3"
  type: "Convolution"
  bottom: "inception_4a/3x3_reduce"
  top: "inception_4a/3x3"
  param {
    lr_mult: 1
    decay_mult: 1
  }
  param {
    lr_mult: 2
    decay_mult: 0
  }
  convolution_param {
    num_output: 208
    pad: 1
    kernel_size: 3
    weight_filler {
      type: "xavier"
      std: 0.03
    }
    bias_filler {
      type: "constant"
      value: 0.2
    }
  }
}
layer {
  name: "inception_4a/relu_3x3"
  type: "ReLU"
  bottom: "inception_4a/3x3"
  top: "inception_4a/3x3"
}
layer {
  name: "inception_4a/5x5_reduce"
  type: "Convolution"
  bottom: "pool3/3x3_s2"
  top: "inception_4a/5x5_reduce"
  param {
    lr_mult: 1
    decay_mult: 1
  }
  param {
    lr_mult: 2
    decay_mult: 0
  }
  convolution_param {
    num_output: 16
    kernel_size: 1
    weight_filler {
      type: "xavier"
      std: 0.2
    }
    bias_filler {
      type: "constant"
      value: 0.2
    }
  }
}
layer {
  name: "inception_4a/relu_5x5_reduce"
  type: "ReLU"
  bottom: "inception_4a/5x5_reduce"
  top: "inception_4a/5x5_reduce"
}
layer {
  name: "inception_4a/5x5"
  type: "Convolution"
  bottom: "inception_4a/5x5_reduce"
  top: "inception_4a/5x5"
  param {
    lr_mult: 1
    decay_mult: 1
  }
  param {
    lr_mult: 2
    decay_mult: 0
  }
  convolution_param {
    num_output: 48
    pad: 2
    kernel_size: 5
    weight_filler {
      type: "xavier"
      std: 0.03
    }
    bias_filler {
      type: "constant"
      value: 0.2
    }
  }
}
layer {
  name: "inception_4a/relu_5x5"
  type: "ReLU"
  bottom: "inception_4a/5x5"
  top: "inception_4a/5x5"
}
layer {
  name: "inception_4a/pool"
  type: "Pooling"
  bottom: "pool3/3x3_s2"
  top: "inception_4a/pool"
  pooling_param {
    pool: MAX
    kernel_size: 3
    stride: 1
    pad: 1
  }
}
layer {
  name: "inception_4a/pool_proj"
  type: "Convolution"
  bottom: "inception_4a/pool"
  top: "inception_4a/pool_proj"
  param {
    lr_mult: 1
    decay_mult: 1
  }
  param {
    lr_mult: 2
    decay_mult: 0
  }
  convolution_param {
    num_output: 64
    kernel_size: 1
    weight_filler {
      type: "xavier"
      std: 0.1
    }
    bias_filler {
      type: "constant"
      value: 0.2
    }
  }
}
layer {
  name: "inception_4a/relu_pool_proj"
  type: "ReLU"
  bottom: "inception_4a/pool_proj"
  top: "inception_4a/pool_proj"
}
layer {
  name: "inception_4a/output"
  type: "Concat"
  bottom: "inception_4a/1x1"
  bottom: "inception_4a/3x3"
  bottom: "inception_4a/5x5"
  bottom: "inception_4a/pool_proj"
  top: "inception_4a/output"
}
layer {
  name: "loss1/ave_pool"
  type: "Pooling"
  bottom: "inception_4a/output"
  top: "loss1/ave_pool"
  pooling_param {
    pool: AVE
    kernel_size: 5
    stride: 3
  }
}
layer {
  name: "loss1/conv"
  type: "Convolution"
  bottom: "loss1/ave_pool"
  top: "loss1/conv"
  param {
    lr_mult: 1
    decay_mult: 1
  }
  param {
    lr_mult: 2
    decay_mult: 0
  }
  convolution_param {
    num_output: 128
    kernel_size: 1
    weight_filler {
      type: "xavier"
      std: 0.08
    }
    bias_filler {
      type: "constant"
      value: 0.2
    }
  }
}
layer {
  name: "loss1/relu_conv"
  type: "ReLU"
  bottom: "loss1/conv"
  top: "loss1/conv"
}
layer {
  name: "loss1/fc"
  type: "InnerProduct"
  bottom: "loss1/conv"
  top: "loss1/fc"
  param {
    lr_mult: 1
    decay_mult: 1
  }
  param {
    lr_mult: 2
    decay_mult: 0
  }
  inner_product_param {
    num_output: 1024
    weight_filler {
      type: "xavier"
      std: 0.02
    }
    bias_filler {
      type: "constant"
      value: 0.2
    }
  }
}
layer {
  name: "loss1/relu_fc"
  type: "ReLU"
  bottom: "loss1/fc"
  top: "loss1/fc"
}
layer {
  name: "loss1/drop_fc"
  type: "Dropout"
  bottom: "loss1/fc"
  top: "loss1/fc"
  dropout_param {
    dropout_ratio: 0.7
  }
}
layer {
  name: "loss1/classifier_plantvillage"
  type: "InnerProduct"
  bottom: "loss1/fc"
  top: "loss1/classifier_plantvillage"
  param {
    lr_mult: 1
    decay_mult: 1
  }
  param {
    lr_mult: 2
    decay_mult: 0
  }
  inner_product_param {
    num_output: 38
    weight_filler {
      type: "xavier"
      std: 0.0009765625
    }
    bias_filler {
      type: "constant"
      value: 0
    }
  }
}
layer {
  name: "inception_4b/1x1"
  type: "Convolution"
  bottom: "inception_4a/output"
  top: "inception_4b/1x1"
  param {
    lr_mult: 1
    decay_mult: 1
  }
  param {
    lr_mult: 2
    decay_mult: 0
  }
  convolution_param {
    num_output: 160
    kernel_size: 1
    weight_filler {
      type: "xavier"
      std: 0.03
    }
    bias_filler {
      type: "constant"
      value: 0.2
    }
  }
}
layer {
  name: "inception_4b/relu_1x1"
  type: "ReLU"
  bottom: "inception_4b/1x1"
  top: "inception_4b/1x1"
}
layer {
  name: "inception_4b/3x3_reduce"
  type: "Convolution"
  bottom: "inception_4a/output"
  top: "inception_4b/3x3_reduce"
  param {
    lr_mult: 1
    decay_mult: 1
  }
  param {
    lr_mult: 2
    decay_mult: 0
  }
  convolution_param {
    num_output: 112
    kernel_size: 1
    weight_filler {
      type: "xavier"
      std: 0.09
    }
    bias_filler {
      type: "constant"
      value: 0.2
    }
  }
}
layer {
  name: "inception_4b/relu_3x3_reduce"
  type: "ReLU"
  bottom: "inception_4b/3x3_reduce"
  top: "inception_4b/3x3_reduce"
}
layer {
  name: "inception_4b/3x3"
  type: "Convolution"
  bottom: "inception_4b/3x3_reduce"
  top: "inception_4b/3x3"
  param {
    lr_mult: 1
    decay_mult: 1
  }
  param {
    lr_mult: 2
    decay_mult: 0
  }
  convolution_param {
    num_output: 224
    pad: 1
    kernel_size: 3
    weight_filler {
      type: "xavier"
      std: 0.03
    }
    bias_filler {
      type: "constant"
      value: 0.2
    }
  }
}
layer {
  name: "inception_4b/relu_3x3"
  type: "ReLU"
  bottom: "inception_4b/3x3"
  top: "inception_4b/3x3"
}
layer {
  name: "inception_4b/5x5_reduce"
  type: "Convolution"
  bottom: "inception_4a/output"
  top: "inception_4b/5x5_reduce"
  param {
    lr_mult: 1
    decay_mult: 1
  }
  param {
    lr_mult: 2
    decay_mult: 0
  }
  convolution_param {
    num_output: 24
    kernel_size: 1
    weight_filler {
      type: "xavier"
      std: 0.2
    }
    bias_filler {
      type: "constant"
      value: 0.2
    }
  }
}
layer {
  name: "inception_4b/relu_5x5_reduce"
  type: "ReLU"
  bottom: "inception_4b/5x5_reduce"
  top: "inception_4b/5x5_reduce"
}
layer {
  name: "inception_4b/5x5"
  type: "Convolution"
  bottom: "inception_4b/5x5_reduce"
  top: "inception_4b/5x5"
  param {
    lr_mult: 1
    decay_mult: 1
  }
  param {
    lr_mult: 2
    decay_mult: 0
  }
  convolution_param {
    num_output: 64
    pad: 2
    kernel_size: 5
    weight_filler {
      type: "xavier"
      std: 0.03
    }
    bias_filler {
      type: "constant"
      value: 0.2
    }
  }
}
layer {
  name: "inception_4b/relu_5x5"
  type: "ReLU"
  bottom: "inception_4b/5x5"
  top: "inception_4b/5x5"
}
layer {
  name: "inception_4b/pool"
  type: "Pooling"
  bottom: "inception_4a/output"
  top: "inception_4b/pool"
  pooling_param {
    pool: MAX
    kernel_size: 3
    stride: 1
    pad: 1
  }
}
layer {
  name: "inception_4b/pool_proj"
  type: "Convolution"
  bottom: "inception_4b/pool"
  top: "inception_4b/pool_proj"
  param {
    lr_mult: 1
    decay_mult: 1
  }
  param {
    lr_mult: 2
    decay_mult: 0
  }
  convolution_param {
    num_output: 64
    kernel_size: 1
    weight_filler {
      type: "xavier"
      std: 0.1
    }
    bias_filler {
      type: "constant"
      value: 0.2
    }
  }
}
layer {
  name: "inception_4b/relu_pool_proj"
  type: "ReLU"
  bottom: "inception_4b/pool_proj"
  top: "inception_4b/pool_proj"
}
layer {
  name: "inception_4b/output"
  type: "Concat"
  bottom: "inception_4b/1x1"
  bottom: "inception_4b/3x3"
  bottom: "inception_4b/5x5"
  bottom: "inception_4b/pool_proj"
  top: "inception_4b/output"
}
layer {
  name: "inception_4c/1x1"
  type: "Convolution"
  bottom: "inception_4b/output"
  top: "inception_4c/1x1"
  param {
    lr_mult: 1
    decay_mult: 1
  }
  param {
    lr_mult: 2
    decay_mult: 0
  }
  convolution_param {
    num_output: 128
    kernel_size: 1
    weight_filler {
      type: "xavier"
      std: 0.03
    }
    bias_filler {
      type: "constant"
      value: 0.2
    }
  }
}
layer {
  name: "inception_4c/relu_1x1"
  type: "ReLU"
  bottom: "inception_4c/1x1"
  top: "inception_4c/1x1"
}
layer {
  name: "inception_4c/3x3_reduce"
  type: "Convolution"
  bottom: "inception_4b/output"
  top: "inception_4c/3x3_reduce"
  param {
    lr_mult: 1
    decay_mult: 1
  }
  param {
    lr_mult: 2
    decay_mult: 0
  }
  convolution_param {
    num_output: 128
    kernel_size: 1
    weight_filler {
      type: "xavier"
      std: 0.09
    }
    bias_filler {
      type: "constant"
      value: 0.2
    }
  }
}
layer {
  name: "inception_4c/relu_3x3_reduce"
  type: "ReLU"
  bottom: "inception_4c/3x3_reduce"
  top: "inception_4c/3x3_reduce"
}
layer {
  name: "inception_4c/3x3"
  type: "Convolution"
  bottom: "inception_4c/3x3_reduce"
  top: "inception_4c/3x3"
  param {
    lr_mult: 1
    decay_mult: 1
  }
  param {
    lr_mult: 2
    decay_mult: 0
  }
  convolution_param {
    num_output: 256
    pad: 1
    kernel_size: 3
    weight_filler {
      type: "xavier"
      std: 0.03
    }
    bias_filler {
      type: "constant"
      value: 0.2
    }
  }
}
layer {
  name: "inception_4c/relu_3x3"
  type: "ReLU"
  bottom: "inception_4c/3x3"
  top: "inception_4c/3x3"
}
layer {
  name: "inception_4c/5x5_reduce"
  type: "Convolution"
  bottom: "inception_4b/output"
  top: "inception_4c/5x5_reduce"
  param {
    lr_mult: 1
    decay_mult: 1
  }
  param {
    lr_mult: 2
    decay_mult: 0
  }
  convolution_param {
    num_output: 24
    kernel_size: 1
    weight_filler {
      type: "xavier"
      std: 0.2
    }
    bias_filler {
      type: "constant"
      value: 0.2
    }
  }
}
layer {
  name: "inception_4c/relu_5x5_reduce"
  type: "ReLU"
  bottom: "inception_4c/5x5_reduce"
  top: "inception_4c/5x5_reduce"
}
layer {
  name: "inception_4c/5x5"
  type: "Convolution"
  bottom: "inception_4c/5x5_reduce"
  top: "inception_4c/5x5"
  param {
    lr_mult: 1
    decay_mult: 1
  }
  param {
    lr_mult: 2
    decay_mult: 0
  }
  convolution_param {
    num_output: 64
    pad: 2
    kernel_size: 5
    weight_filler {
      type: "xavier"
      std: 0.03
    }
    bias_filler {
      type: "constant"
      value: 0.2
    }
  }
}
layer {
  name: "inception_4c/relu_5x5"
  type: "ReLU"
  bottom: "inception_4c/5x5"
  top: "inception_4c/5x5"
}
layer {
  name: "inception_4c/pool"
  type: "Pooling"
  bottom: "inception_4b/output"
  top: "inception_4c/pool"
  pooling_param {
    pool: MAX
    kernel_size: 3
    stride: 1
    pad: 1
  }
}
layer {
  name: "inception_4c/pool_proj"
  type: "Convolution"
  bottom: "inception_4c/pool"
  top: "inception_4c/pool_proj"
  param {
    lr_mult: 1
    decay_mult: 1
  }
  param {
    lr_mult: 2
    decay_mult: 0
  }
  convolution_param {
    num_output: 64
    kernel_size: 1
    weight_filler {
      type: "xavier"
      std: 0.1
    }
    bias_filler {
      type: "constant"
      value: 0.2
    }
  }
}
layer {
  name: "inception_4c/relu_pool_proj"
  type: "ReLU"
  bottom: "inception_4c/pool_proj"
  top: "inception_4c/pool_proj"
}
layer {
  name: "inception_4c/output"
  type: "Concat"
  bottom: "inception_4c/1x1"
  bottom: "inception_4c/3x3"
  bottom: "inception_4c/5x5"
  bottom: "inception_4c/pool_proj"
  top: "inception_4c/output"
}
layer {
  name: "inception_4d/1x1"
  type: "Convolution"
  bottom: "inception_4c/output"
  top: "inception_4d/1x1"
  param {
    lr_mult: 1
    decay_mult: 1
  }
  param {
    lr_mult: 2
    decay_mult: 0
  }
  convolution_param {
    num_output: 112
    kernel_size: 1
    weight_filler {
      type: "xavier"
      std: 0.03
    }
    bias_filler {
      type: "constant"
      value: 0.2
    }
  }
}
layer {
  name: "inception_4d/relu_1x1"
  type: "ReLU"
  bottom: "inception_4d/1x1"
  top: "inception_4d/1x1"
}
layer {
  name: "inception_4d/3x3_reduce"
  type: "Convolution"
  bottom: "inception_4c/output"
  top: "inception_4d/3x3_reduce"
  param {
    lr_mult: 1
    decay_mult: 1
  }
  param {
    lr_mult: 2
    decay_mult: 0
  }
  convolution_param {
    num_output: 144
    kernel_size: 1
    weight_filler {
      type: "xavier"
      std: 0.09
    }
    bias_filler {
      type: "constant"
      value: 0.2
    }
  }
}
layer {
  name: "inception_4d/relu_3x3_reduce"
  type: "ReLU"
  bottom: "inception_4d/3x3_reduce"
  top: "inception_4d/3x3_reduce"
}
layer {
  name: "inception_4d/3x3"
  type: "Convolution"
  bottom: "inception_4d/3x3_reduce"
  top: "inception_4d/3x3"
  param {
    lr_mult: 1
    decay_mult: 1
  }
  param {
    lr_mult: 2
    decay_mult: 0
  }
  convolution_param {
    num_output: 288
    pad: 1
    kernel_size: 3
    weight_filler {
      type: "xavier"
      std: 0.03
    }
    bias_filler {
      type: "constant"
      value: 0.2
    }
  }
}
layer {
  name: "inception_4d/relu_3x3"
  type: "ReLU"
  bottom: "inception_4d/3x3"
  top: "inception_4d/3x3"
}
layer {
  name: "inception_4d/5x5_reduce"
  type: "Convolution"
  bottom: "inception_4c/output"
  top: "inception_4d/5x5_reduce"
  param {
    lr_mult: 1
    decay_mult: 1
  }
  param {
    lr_mult: 2
    decay_mult: 0
  }
  convolution_param {
    num_output: 32
    kernel_size: 1
    weight_filler {
      type: "xavier"
      std: 0.2
    }
    bias_filler {
      type: "constant"
      value: 0.2
    }
  }
}
layer {
  name: "inception_4d/relu_5x5_reduce"
  type: "ReLU"
  bottom: "inception_4d/5x5_reduce"
  top: "inception_4d/5x5_reduce"
}
layer {
  name: "inception_4d/5x5"
  type: "Convolution"
  bottom: "inception_4d/5x5_reduce"
  top: "inception_4d/5x5"
  param {
    lr_mult: 1
    decay_mult: 1
  }
  param {
    lr_mult: 2
    decay_mult: 0
  }
  convolution_param {
    num_output: 64
    pad: 2
    kernel_size: 5
    weight_filler {
      type: "xavier"
      std: 0.03
    }
    bias_filler {
      type: "constant"
      value: 0.2
    }
  }
}
layer {
  name: "inception_4d/relu_5x5"
  type: "ReLU"
  bottom: "inception_4d/5x5"
  top: "inception_4d/5x5"
}
layer {
  name: "inception_4d/pool"
  type: "Pooling"
  bottom: "inception_4c/output"
  top: "inception_4d/pool"
  pooling_param {
    pool: MAX
    kernel_size: 3
    stride: 1
    pad: 1
  }
}
layer {
  name: "inception_4d/pool_proj"
  type: "Convolution"
  bottom: "inception_4d/pool"
  top: "inception_4d/pool_proj"
  param {
    lr_mult: 1
    decay_mult: 1
  }
  param {
    lr_mult: 2
    decay_mult: 0
  }
  convolution_param {
    num_output: 64
    kernel_size: 1
    weight_filler {
      type: "xavier"
      std: 0.1
    }
    bias_filler {
      type: "constant"
      value: 0.2
    }
  }
}
layer {
  name: "inception_4d/relu_pool_proj"
  type: "ReLU"
  bottom: "inception_4d/pool_proj"
  top: "inception_4d/pool_proj"
}
layer {
  name: "inception_4d/output"
  type: "Concat"
  bottom: "inception_4d/1x1"
  bottom: "inception_4d/3x3"
  bottom: "inception_4d/5x5"
  bottom: "inception_4d/pool_proj"
  top: "inception_4d/output"
}
layer {
  name: "loss2/ave_pool"
  type: "Pooling"
  bottom: "inception_4d/output"
  top: "loss2/ave_pool"
  pooling_param {
    pool: AVE
    kernel_size: 5
    stride: 3
  }
}
layer {
  name: "loss2/conv"
  type: "Convolution"
  bottom: "loss2/ave_pool"
  top: "loss2/conv"
  param {
    lr_mult: 1
    decay_mult: 1
  }
  param {
    lr_mult: 2
    decay_mult: 0
  }
  convolution_param {
    num_output: 128
    kernel_size: 1
    weight_filler {
      type: "xavier"
      std: 0.08
    }
    bias_filler {
      type: "constant"
      value: 0.2
    }
  }
}
layer {
  name: "loss2/relu_conv"
  type: "ReLU"
  bottom: "loss2/conv"
  top: "loss2/conv"
}
layer {
  name: "loss2/fc"
  type: "InnerProduct"
  bottom: "loss2/conv"
  top: "loss2/fc"
  param {
    lr_mult: 1
    decay_mult: 1
  }
  param {
    lr_mult: 2
    decay_mult: 0
  }
  inner_product_param {
    num_output: 1024
    weight_filler {
      type: "xavier"
      std: 0.02
    }
    bias_filler {
      type: "constant"
      value: 0.2
    }
  }
}
layer {
  name: "loss2/relu_fc"
  type: "ReLU"
  bottom: "loss2/fc"
  top: "loss2/fc"
}
layer {
  name: "loss2/drop_fc"
  type: "Dropout"
  bottom: "loss2/fc"
  top: "loss2/fc"
  dropout_param {
    dropout_ratio: 0.7
  }
}
layer {
  name: "loss2/classifier_plantvillage"
  type: "InnerProduct"
  bottom: "loss2/fc"
  top: "loss2/classifier_plantvillage"
  param {
    lr_mult: 1
    decay_mult: 1
  }
  param {
    lr_mult: 2
    decay_mult: 0
  }
  inner_product_param {
    num_output: 38
    weight_filler {
      type: "xavier"
      std: 0.0009765625
    }
    bias_filler {
      type: "constant"
      value: 0
    }
  }
}
layer {
  name: "inception_4e/1x1"
  type: "Convolution"
  bottom: "inception_4d/output"
  top: "inception_4e/1x1"
  param {
    lr_mult: 1
    decay_mult: 1
  }
  param {
    lr_mult: 2
    decay_mult: 0
  }
  convolution_param {
    num_output: 256
    kernel_size: 1
    weight_filler {
      type: "xavier"
      std: 0.03
    }
    bias_filler {
      type: "constant"
      value: 0.2
    }
  }
}
layer {
  name: "inception_4e/relu_1x1"
  type: "ReLU"
  bottom: "inception_4e/1x1"
  top: "inception_4e/1x1"
}
layer {
  name: "inception_4e/3x3_reduce"
  type: "Convolution"
  bottom: "inception_4d/output"
  top: "inception_4e/3x3_reduce"
  param {
    lr_mult: 1
    decay_mult: 1
  }
  param {
    lr_mult: 2
    decay_mult: 0
  }
  convolution_param {
    num_output: 160
    kernel_size: 1
    weight_filler {
      type: "xavier"
      std: 0.09
    }
    bias_filler {
      type: "constant"
      value: 0.2
    }
  }
}
layer {
  name: "inception_4e/relu_3x3_reduce"
  type: "ReLU"
  bottom: "inception_4e/3x3_reduce"
  top: "inception_4e/3x3_reduce"
}
layer {
  name: "inception_4e/3x3"
  type: "Convolution"
  bottom: "inception_4e/3x3_reduce"
  top: "inception_4e/3x3"
  param {
    lr_mult: 1
    decay_mult: 1
  }
  param {
    lr_mult: 2
    decay_mult: 0
  }
  convolution_param {
    num_output: 320
    pad: 1
    kernel_size: 3
    weight_filler {
      type: "xavier"
      std: 0.03
    }
    bias_filler {
      type: "constant"
      value: 0.2
    }
  }
}
layer {
  name: "inception_4e/relu_3x3"
  type: "ReLU"
  bottom: "inception_4e/3x3"
  top: "inception_4e/3x3"
}
layer {
  name: "inception_4e/5x5_reduce"
  type: "Convolution"
  bottom: "inception_4d/output"
  top: "inception_4e/5x5_reduce"
  param {
    lr_mult: 1
    decay_mult: 1
  }
  param {
    lr_mult: 2
    decay_mult: 0
  }
  convolution_param {
    num_output: 32
    kernel_size: 1
    weight_filler {
      type: "xavier"
      std: 0.2
    }
    bias_filler {
      type: "constant"
      value: 0.2
    }
  }
}
layer {
  name: "inception_4e/relu_5x5_reduce"
  type: "ReLU"
  bottom: "inception_4e/5x5_reduce"
  top: "inception_4e/5x5_reduce"
}
layer {
  name: "inception_4e/5x5"
  type: "Convolution"
  bottom: "inception_4e/5x5_reduce"
  top: "inception_4e/
I0403 13:34:28.878834 32577 layer_factory.hpp:77] Creating layer data
I0403 13:34:28.879468 32577 net.cpp:91] Creating Layer data
I0403 13:34:28.879499 32577 net.cpp:399] data -> data
I0403 13:34:28.879554 32577 net.cpp:399] data -> label
I0403 13:34:28.879592 32577 data_transformer.cpp:25] Loading mean file from: /home/mohanty/data/final_dataset/lmdb/grayscale-20-80/mean.binaryproto
I0403 13:34:28.898519 32581 db_lmdb.cpp:38] Opened lmdb /home/mohanty/data/final_dataset/lmdb/grayscale-20-80/test_db
I0403 13:34:28.903415 32577 data_layer.cpp:41] output data size: 24,3,224,224
I0403 13:34:28.931219 32577 net.cpp:141] Setting up data
I0403 13:34:28.931327 32577 net.cpp:148] Top shape: 24 3 224 224 (3612672)
I0403 13:34:28.931350 32577 net.cpp:148] Top shape: 24 (24)
I0403 13:34:28.931366 32577 net.cpp:156] Memory required for data: 14450784
I0403 13:34:28.931396 32577 layer_factory.hpp:77] Creating layer label_data_1_split
I0403 13:34:28.931423 32577 net.cpp:91] Creating Layer label_data_1_split
I0403 13:34:28.931442 32577 net.cpp:425] label_data_1_split <- label
I0403 13:34:28.931475 32577 net.cpp:399] label_data_1_split -> label_data_1_split_0
I0403 13:34:28.931504 32577 net.cpp:399] label_data_1_split -> label_data_1_split_1
I0403 13:34:28.931527 32577 net.cpp:399] label_data_1_split -> label_data_1_split_2
I0403 13:34:28.931561 32577 net.cpp:399] label_data_1_split -> label_data_1_split_3
I0403 13:34:28.931581 32577 net.cpp:399] label_data_1_split -> label_data_1_split_4
I0403 13:34:28.931602 32577 net.cpp:399] label_data_1_split -> label_data_1_split_5
I0403 13:34:28.931622 32577 net.cpp:399] label_data_1_split -> label_data_1_split_6
I0403 13:34:28.931644 32577 net.cpp:399] label_data_1_split -> label_data_1_split_7
I0403 13:34:28.931665 32577 net.cpp:399] label_data_1_split -> label_data_1_split_8
I0403 13:34:28.931687 32577 net.cpp:399] label_data_1_split -> label_data_1_split_9
I0403 13:34:28.931807 32577 net.cpp:141] Setting up label_data_1_split
I0403 13:34:28.931831 32577 net.cpp:148] Top shape: 24 (24)
I0403 13:34:28.931849 32577 net.cpp:148] Top shape: 24 (24)
I0403 13:34:28.931864 32577 net.cpp:148] Top shape: 24 (24)
I0403 13:34:28.931881 32577 net.cpp:148] Top shape: 24 (24)
I0403 13:34:28.931896 32577 net.cpp:148] Top shape: 24 (24)
I0403 13:34:28.931912 32577 net.cpp:148] Top shape: 24 (24)
I0403 13:34:28.931928 32577 net.cpp:148] Top shape: 24 (24)
I0403 13:34:28.931943 32577 net.cpp:148] Top shape: 24 (24)
I0403 13:34:28.931959 32577 net.cpp:148] Top shape: 24 (24)
I0403 13:34:28.931975 32577 net.cpp:148] Top shape: 24 (24)
I0403 13:34:28.932020 32577 net.cpp:156] Memory required for data: 14451744
I0403 13:34:28.932037 32577 layer_factory.hpp:77] Creating layer conv1/7x7_s2
I0403 13:34:28.932070 32577 net.cpp:91] Creating Layer conv1/7x7_s2
I0403 13:34:28.932088 32577 net.cpp:425] conv1/7x7_s2 <- data
I0403 13:34:28.932107 32577 net.cpp:399] conv1/7x7_s2 -> conv1/7x7_s2
I0403 13:34:29.084427 32577 net.cpp:141] Setting up conv1/7x7_s2
I0403 13:34:29.084496 32577 net.cpp:148] Top shape: 24 64 112 112 (19267584)
I0403 13:34:29.084514 32577 net.cpp:156] Memory required for data: 91522080
I0403 13:34:29.084547 32577 layer_factory.hpp:77] Creating layer conv1/relu_7x7
I0403 13:34:29.084575 32577 net.cpp:91] Creating Layer conv1/relu_7x7
I0403 13:34:29.084595 32577 net.cpp:425] conv1/relu_7x7 <- conv1/7x7_s2
I0403 13:34:29.084616 32577 net.cpp:386] conv1/relu_7x7 -> conv1/7x7_s2 (in-place)
I0403 13:34:29.084908 32577 net.cpp:141] Setting up conv1/relu_7x7
I0403 13:34:29.084936 32577 net.cpp:148] Top shape: 24 64 112 112 (19267584)
I0403 13:34:29.084952 32577 net.cpp:156] Memory required for data: 168592416
I0403 13:34:29.084969 32577 layer_factory.hpp:77] Creating layer pool1/3x3_s2
I0403 13:34:29.084996 32577 net.cpp:91] Creating Layer pool1/3x3_s2
I0403 13:34:29.085016 32577 net.cpp:425] pool1/3x3_s2 <- conv1/7x7_s2
I0403 13:34:29.085034 32577 net.cpp:399] pool1/3x3_s2 -> pool1/3x3_s2
I0403 13:34:29.085113 32577 net.cpp:141] Setting up pool1/3x3_s2
I0403 13:34:29.085137 32577 net.cpp:148] Top shape: 24 64 56 56 (4816896)
I0403 13:34:29.085153 32577 net.cpp:156] Memory required for data: 187860000
I0403 13:34:29.085170 32577 layer_factory.hpp:77] Creating layer pool1/norm1
I0403 13:34:29.085216 32577 net.cpp:91] Creating Layer pool1/norm1
I0403 13:34:29.085237 32577 net.cpp:425] pool1/norm1 <- pool1/3x3_s2
I0403 13:34:29.085255 32577 net.cpp:399] pool1/norm1 -> pool1/norm1
I0403 13:34:29.085559 32577 net.cpp:141] Setting up pool1/norm1
I0403 13:34:29.085588 32577 net.cpp:148] Top shape: 24 64 56 56 (4816896)
I0403 13:34:29.085604 32577 net.cpp:156] Memory required for data: 207127584
I0403 13:34:29.085621 32577 layer_factory.hpp:77] Creating layer conv2/3x3_reduce
I0403 13:34:29.085646 32577 net.cpp:91] Creating Layer conv2/3x3_reduce
I0403 13:34:29.085664 32577 net.cpp:425] conv2/3x3_reduce <- pool1/norm1
I0403 13:34:29.085685 32577 net.cpp:399] conv2/3x3_reduce -> conv2/3x3_reduce
I0403 13:34:29.087096 32577 net.cpp:141] Setting up conv2/3x3_reduce
I0403 13:34:29.087126 32577 net.cpp:148] Top shape: 24 64 56 56 (4816896)
I0403 13:34:29.087142 32577 net.cpp:156] Memory required for data: 226395168
I0403 13:34:29.087167 32577 layer_factory.hpp:77] Creating layer conv2/relu_3x3_reduce
I0403 13:34:29.087193 32577 net.cpp:91] Creating Layer conv2/relu_3x3_reduce
I0403 13:34:29.087211 32577 net.cpp:425] conv2/relu_3x3_reduce <- conv2/3x3_reduce
I0403 13:34:29.087230 32577 net.cpp:386] conv2/relu_3x3_reduce -> conv2/3x3_reduce (in-place)
I0403 13:34:29.087502 32577 net.cpp:141] Setting up conv2/relu_3x3_reduce
I0403 13:34:29.087530 32577 net.cpp:148] Top shape: 24 64 56 56 (4816896)
I0403 13:34:29.087548 32577 net.cpp:156] Memory required for data: 245662752
I0403 13:34:29.087563 32577 layer_factory.hpp:77] Creating layer conv2/3x3
I0403 13:34:29.087587 32577 net.cpp:91] Creating Layer conv2/3x3
I0403 13:34:29.087605 32577 net.cpp:425] conv2/3x3 <- conv2/3x3_reduce
I0403 13:34:29.087625 32577 net.cpp:399] conv2/3x3 -> conv2/3x3
I0403 13:34:29.089983 32577 net.cpp:141] Setting up conv2/3x3
I0403 13:34:29.090014 32577 net.cpp:148] Top shape: 24 192 56 56 (14450688)
I0403 13:34:29.090032 32577 net.cpp:156] Memory required for data: 303465504
I0403 13:34:29.090055 32577 layer_factory.hpp:77] Creating layer conv2/relu_3x3
I0403 13:34:29.090076 32577 net.cpp:91] Creating Layer conv2/relu_3x3
I0403 13:34:29.090093 32577 net.cpp:425] conv2/relu_3x3 <- conv2/3x3
I0403 13:34:29.090111 32577 net.cpp:386] conv2/relu_3x3 -> conv2/3x3 (in-place)
I0403 13:34:29.090291 32577 net.cpp:141] Setting up conv2/relu_3x3
I0403 13:34:29.090317 32577 net.cpp:148] Top shape: 24 192 56 56 (14450688)
I0403 13:34:29.090365 32577 net.cpp:156] Memory required for data: 361268256
I0403 13:34:29.090383 32577 layer_factory.hpp:77] Creating layer conv2/norm2
I0403 13:34:29.090402 32577 net.cpp:91] Creating Layer conv2/norm2
I0403 13:34:29.090420 32577 net.cpp:425] conv2/norm2 <- conv2/3x3
I0403 13:34:29.090440 32577 net.cpp:399] conv2/norm2 -> conv2/norm2
I0403 13:34:29.090739 32577 net.cpp:141] Setting up conv2/norm2
I0403 13:34:29.090769 32577 net.cpp:148] Top shape: 24 192 56 56 (14450688)
I0403 13:34:29.090785 32577 net.cpp:156] Memory required for data: 419071008
I0403 13:34:29.090801 32577 layer_factory.hpp:77] Creating layer pool2/3x3_s2
I0403 13:34:29.090821 32577 net.cpp:91] Creating Layer pool2/3x3_s2
I0403 13:34:29.090837 32577 net.cpp:425] pool2/3x3_s2 <- conv2/norm2
I0403 13:34:29.090855 32577 net.cpp:399] pool2/3x3_s2 -> pool2/3x3_s2
I0403 13:34:29.090909 32577 net.cpp:141] Setting up pool2/3x3_s2
I0403 13:34:29.090934 32577 net.cpp:148] Top shape: 24 192 28 28 (3612672)
I0403 13:34:29.090950 32577 net.cpp:156] Memory required for data: 433521696
I0403 13:34:29.090965 32577 layer_factory.hpp:77] Creating layer pool2/3x3_s2_pool2/3x3_s2_0_split
I0403 13:34:29.090984 32577 net.cpp:91] Creating Layer pool2/3x3_s2_pool2/3x3_s2_0_split
I0403 13:34:29.091001 32577 net.cpp:425] pool2/3x3_s2_pool2/3x3_s2_0_split <- pool2/3x3_s2
I0403 13:34:29.091019 32577 net.cpp:399] pool2/3x3_s2_pool2/3x3_s2_0_split -> pool2/3x3_s2_pool2/3x3_s2_0_split_0
I0403 13:34:29.091040 32577 net.cpp:399] pool2/3x3_s2_pool2/3x3_s2_0_split -> pool2/3x3_s2_pool2/3x3_s2_0_split_1
I0403 13:34:29.091061 32577 net.cpp:399] pool2/3x3_s2_pool2/3x3_s2_0_split -> pool2/3x3_s2_pool2/3x3_s2_0_split_2
I0403 13:34:29.091084 32577 net.cpp:399] pool2/3x3_s2_pool2/3x3_s2_0_split -> pool2/3x3_s2_pool2/3x3_s2_0_split_3
I0403 13:34:29.091151 32577 net.cpp:141] Setting up pool2/3x3_s2_pool2/3x3_s2_0_split
I0403 13:34:29.091176 32577 net.cpp:148] Top shape: 24 192 28 28 (3612672)
I0403 13:34:29.091200 32577 net.cpp:148] Top shape: 24 192 28 28 (3612672)
I0403 13:34:29.091218 32577 net.cpp:148] Top shape: 24 192 28 28 (3612672)
I0403 13:34:29.091234 32577 net.cpp:148] Top shape: 24 192 28 28 (3612672)
I0403 13:34:29.091249 32577 net.cpp:156] Memory required for data: 491324448
I0403 13:34:29.091264 32577 layer_factory.hpp:77] Creating layer inception_3a/1x1
I0403 13:34:29.091286 32577 net.cpp:91] Creating Layer inception_3a/1x1
I0403 13:34:29.091305 32577 net.cpp:425] inception_3a/1x1 <- pool2/3x3_s2_pool2/3x3_s2_0_split_0
I0403 13:34:29.091325 32577 net.cpp:399] inception_3a/1x1 -> inception_3a/1x1
I0403 13:34:29.092912 32577 net.cpp:141] Setting up inception_3a/1x1
I0403 13:34:29.092943 32577 net.cpp:148] Top shape: 24 64 28 28 (1204224)
I0403 13:34:29.092962 32577 net.cpp:156] Memory required for data: 496141344
I0403 13:34:29.092981 32577 layer_factory.hpp:77] Creating layer inception_3a/relu_1x1
I0403 13:34:29.093000 32577 net.cpp:91] Creating Layer inception_3a/relu_1x1
I0403 13:34:29.093017 32577 net.cpp:425] inception_3a/relu_1x1 <- inception_3a/1x1
I0403 13:34:29.093039 32577 net.cpp:386] inception_3a/relu_1x1 -> inception_3a/1x1 (in-place)
I0403 13:34:29.093230 32577 net.cpp:141] Setting up inception_3a/relu_1x1
I0403 13:34:29.093256 32577 net.cpp:148] Top shape: 24 64 28 28 (1204224)
I0403 13:34:29.093272 32577 net.cpp:156] Memory required for data: 500958240
I0403 13:34:29.093288 32577 layer_factory.hpp:77] Creating layer inception_3a/3x3_reduce
I0403 13:34:29.093312 32577 net.cpp:91] Creating Layer inception_3a/3x3_reduce
I0403 13:34:29.093330 32577 net.cpp:425] inception_3a/3x3_reduce <- pool2/3x3_s2_pool2/3x3_s2_0_split_1
I0403 13:34:29.093353 32577 net.cpp:399] inception_3a/3x3_reduce -> inception_3a/3x3_reduce
I0403 13:34:29.095137 32577 net.cpp:141] Setting up inception_3a/3x3_reduce
I0403 13:34:29.095170 32577 net.cpp:148] Top shape: 24 96 28 28 (1806336)
I0403 13:34:29.095194 32577 net.cpp:156] Memory required for data: 508183584
I0403 13:34:29.095218 32577 layer_factory.hpp:77] Creating layer inception_3a/relu_3x3_reduce
I0403 13:34:29.095258 32577 net.cpp:91] Creating Layer inception_3a/relu_3x3_reduce
I0403 13:34:29.095278 32577 net.cpp:425] inception_3a/relu_3x3_reduce <- inception_3a/3x3_reduce
I0403 13:34:29.095298 32577 net.cpp:386] inception_3a/relu_3x3_reduce -> inception_3a/3x3_reduce (in-place)
I0403 13:34:29.095489 32577 net.cpp:141] Setting up inception_3a/relu_3x3_reduce
I0403 13:34:29.095517 32577 net.cpp:148] Top shape: 24 96 28 28 (1806336)
I0403 13:34:29.095535 32577 net.cpp:156] Memory required for data: 515408928
I0403 13:34:29.095551 32577 layer_factory.hpp:77] Creating layer inception_3a/3x3
I0403 13:34:29.095574 32577 net.cpp:91] Creating Layer inception_3a/3x3
I0403 13:34:29.095592 32577 net.cpp:425] inception_3a/3x3 <- inception_3a/3x3_reduce
I0403 13:34:29.095613 32577 net.cpp:399] inception_3a/3x3 -> inception_3a/3x3
I0403 13:34:29.097342 32577 net.cpp:141] Setting up inception_3a/3x3
I0403 13:34:29.097371 32577 net.cpp:148] Top shape: 24 128 28 28 (2408448)
I0403 13:34:29.097388 32577 net.cpp:156] Memory required for data: 525042720
I0403 13:34:29.097407 32577 layer_factory.hpp:77] Creating layer inception_3a/relu_3x3
I0403 13:34:29.097426 32577 net.cpp:91] Creating Layer inception_3a/relu_3x3
I0403 13:34:29.097443 32577 net.cpp:425] inception_3a/relu_3x3 <- inception_3a/3x3
I0403 13:34:29.097465 32577 net.cpp:386] inception_3a/relu_3x3 -> inception_3a/3x3 (in-place)
I0403 13:34:29.097750 32577 net.cpp:141] Setting up inception_3a/relu_3x3
I0403 13:34:29.097779 32577 net.cpp:148] Top shape: 24 128 28 28 (2408448)
I0403 13:34:29.097795 32577 net.cpp:156] Memory required for data: 534676512
I0403 13:34:29.097810 32577 layer_factory.hpp:77] Creating layer inception_3a/5x5_reduce
I0403 13:34:29.097834 32577 net.cpp:91] Creating Layer inception_3a/5x5_reduce
I0403 13:34:29.097853 32577 net.cpp:425] inception_3a/5x5_reduce <- pool2/3x3_s2_pool2/3x3_s2_0_split_2
I0403 13:34:29.097875 32577 net.cpp:399] inception_3a/5x5_reduce -> inception_3a/5x5_reduce
I0403 13:34:29.098878 32577 net.cpp:141] Setting up inception_3a/5x5_reduce
I0403 13:34:29.098907 32577 net.cpp:148] Top shape: 24 16 28 28 (301056)
I0403 13:34:29.098923 32577 net.cpp:156] Memory required for data: 535880736
I0403 13:34:29.098942 32577 layer_factory.hpp:77] Creating layer inception_3a/relu_5x5_reduce
I0403 13:34:29.098963 32577 net.cpp:91] Creating Layer inception_3a/relu_5x5_reduce
I0403 13:34:29.098981 32577 net.cpp:425] inception_3a/relu_5x5_reduce <- inception_3a/5x5_reduce
I0403 13:34:29.098999 32577 net.cpp:386] inception_3a/relu_5x5_reduce -> inception_3a/5x5_reduce (in-place)
I0403 13:34:29.099395 32577 net.cpp:141] Setting up inception_3a/relu_5x5_reduce
I0403 13:34:29.099422 32577 net.cpp:148] Top shape: 24 16 28 28 (301056)
I0403 13:34:29.099438 32577 net.cpp:156] Memory required for data: 537084960
I0403 13:34:29.099453 32577 layer_factory.hpp:77] Creating layer inception_3a/5x5
I0403 13:34:29.099478 32577 net.cpp:91] Creating Layer inception_3a/5x5
I0403 13:34:29.099495 32577 net.cpp:425] inception_3a/5x5 <- inception_3a/5x5_reduce
I0403 13:34:29.099517 32577 net.cpp:399] inception_3a/5x5 -> inception_3a/5x5
I0403 13:34:29.100574 32577 net.cpp:141] Setting up inception_3a/5x5
I0403 13:34:29.100601 32577 net.cpp:148] Top shape: 24 32 28 28 (602112)
I0403 13:34:29.100617 32577 net.cpp:156] Memory required for data: 539493408
I0403 13:34:29.100637 32577 layer_factory.hpp:77] Creating layer inception_3a/relu_5x5
I0403 13:34:29.100656 32577 net.cpp:91] Creating Layer inception_3a/relu_5x5
I0403 13:34:29.100672 32577 net.cpp:425] inception_3a/relu_5x5 <- inception_3a/5x5
I0403 13:34:29.100692 32577 net.cpp:386] inception_3a/relu_5x5 -> inception_3a/5x5 (in-place)
I0403 13:34:29.100886 32577 net.cpp:141] Setting up inception_3a/relu_5x5
I0403 13:34:29.100913 32577 net.cpp:148] Top shape: 24 32 28 28 (602112)
I0403 13:34:29.100929 32577 net.cpp:156] Memory required for data: 541901856
I0403 13:34:29.100944 32577 layer_factory.hpp:77] Creating layer inception_3a/pool
I0403 13:34:29.100965 32577 net.cpp:91] Creating Layer inception_3a/pool
I0403 13:34:29.100996 32577 net.cpp:425] inception_3a/pool <- pool2/3x3_s2_pool2/3x3_s2_0_split_3
I0403 13:34:29.101017 32577 net.cpp:399] inception_3a/pool -> inception_3a/pool
I0403 13:34:29.101091 32577 net.cpp:141] Setting up inception_3a/pool
I0403 13:34:29.101115 32577 net.cpp:148] Top shape: 24 192 28 28 (3612672)
I0403 13:34:29.101130 32577 net.cpp:156] Memory required for data: 556352544
I0403 13:34:29.101145 32577 layer_factory.hpp:77] Creating layer inception_3a/pool_proj
I0403 13:34:29.101187 32577 net.cpp:91] Creating Layer inception_3a/pool_proj
I0403 13:34:29.101207 32577 net.cpp:425] inception_3a/pool_proj <- inception_3a/pool
I0403 13:34:29.101230 32577 net.cpp:399] inception_3a/pool_proj -> inception_3a/pool_proj
I0403 13:34:29.102242 32577 net.cpp:141] Setting up inception_3a/pool_proj
I0403 13:34:29.102273 32577 net.cpp:148] Top shape: 24 32 28 28 (602112)
I0403 13:34:29.102290 32577 net.cpp:156] Memory required for data: 558760992
I0403 13:34:29.102313 32577 layer_factory.hpp:77] Creating layer inception_3a/relu_pool_proj
I0403 13:34:29.102334 32577 net.cpp:91] Creating Layer inception_3a/relu_pool_proj
I0403 13:34:29.102350 32577 net.cpp:425] inception_3a/relu_pool_proj <- inception_3a/pool_proj
I0403 13:34:29.102368 32577 net.cpp:386] inception_3a/relu_pool_proj -> inception_3a/pool_proj (in-place)
I0403 13:34:29.102671 32577 net.cpp:141] Setting up inception_3a/relu_pool_proj
I0403 13:34:29.102700 32577 net.cpp:148] Top shape: 24 32 28 28 (602112)
I0403 13:34:29.102730 32577 net.cpp:156] Memory required for data: 561169440
I0403 13:34:29.102744 32577 layer_factory.hpp:77] Creating layer inception_3a/output
I0403 13:34:29.102763 32577 net.cpp:91] Creating Layer inception_3a/output
I0403 13:34:29.102779 32577 net.cpp:425] inception_3a/output <- inception_3a/1x1
I0403 13:34:29.102797 32577 net.cpp:425] inception_3a/output <- inception_3a/3x3
I0403 13:34:29.102813 32577 net.cpp:425] inception_3a/output <- inception_3a/5x5
I0403 13:34:29.102829 32577 net.cpp:425] inception_3a/output <- inception_3a/pool_proj
I0403 13:34:29.102849 32577 net.cpp:399] inception_3a/output -> inception_3a/output
I0403 13:34:29.122233 32577 net.cpp:141] Setting up inception_3a/output
I0403 13:34:29.122270 32577 net.cpp:148] Top shape: 24 256 28 28 (4816896)
I0403 13:34:29.122288 32577 net.cpp:156] Memory required for data: 580437024
I0403 13:34:29.122304 32577 layer_factory.hpp:77] Creating layer inception_3a/output_inception_3a/output_0_split
I0403 13:34:29.122323 32577 net.cpp:91] Creating Layer inception_3a/output_inception_3a/output_0_split
I0403 13:34:29.122340 32577 net.cpp:425] inception_3a/output_inception_3a/output_0_split <- inception_3a/output
I0403 13:34:29.122359 32577 net.cpp:399] inception_3a/output_inception_3a/output_0_split -> inception_3a/output_inception_3a/output_0_split_0
I0403 13:34:29.122380 32577 net.cpp:399] inception_3a/output_inception_3a/output_0_split -> inception_3a/output_inception_3a/output_0_split_1
I0403 13:34:29.122408 32577 net.cpp:399] inception_3a/output_inception_3a/output_0_split -> inception_3a/output_inception_3a/output_0_split_2
I0403 13:34:29.122432 32577 net.cpp:399] inception_3a/output_inception_3a/output_0_split -> inception_3a/output_inception_3a/output_0_split_3
I0403 13:34:29.122519 32577 net.cpp:141] Setting up inception_3a/output_inception_3a/output_0_split
I0403 13:34:29.122546 32577 net.cpp:148] Top shape: 24 256 28 28 (4816896)
I0403 13:34:29.122565 32577 net.cpp:148] Top shape: 24 256 28 28 (4816896)
I0403 13:34:29.122582 32577 net.cpp:148] Top shape: 24 256 28 28 (4816896)
I0403 13:34:29.122598 32577 net.cpp:148] Top shape: 24 256 28 28 (4816896)
I0403 13:34:29.122612 32577 net.cpp:156] Memory required for data: 657507360
I0403 13:34:29.122627 32577 layer_factory.hpp:77] Creating layer inception_3b/1x1
I0403 13:34:29.122653 32577 net.cpp:91] Creating Layer inception_3b/1x1
I0403 13:34:29.122671 32577 net.cpp:425] inception_3b/1x1 <- inception_3a/output_inception_3a/output_0_split_0
I0403 13:34:29.122691 32577 net.cpp:399] inception_3b/1x1 -> inception_3b/1x1
I0403 13:34:29.123920 32577 net.cpp:141] Setting up inception_3b/1x1
I0403 13:34:29.123970 32577 net.cpp:148] Top shape: 24 128 28 28 (2408448)
I0403 13:34:29.123987 32577 net.cpp:156] Memory required for data: 667141152
I0403 13:34:29.124007 32577 layer_factory.hpp:77] Creating layer inception_3b/relu_1x1
I0403 13:34:29.124027 32577 net.cpp:91] Creating Layer inception_3b/relu_1x1
I0403 13:34:29.124043 32577 net.cpp:425] inception_3b/relu_1x1 <- inception_3b/1x1
I0403 13:34:29.124064 32577 net.cpp:386] inception_3b/relu_1x1 -> inception_3b/1x1 (in-place)
I0403 13:34:29.124255 32577 net.cpp:141] Setting up inception_3b/relu_1x1
I0403 13:34:29.124281 32577 net.cpp:148] Top shape: 24 128 28 28 (2408448)
I0403 13:34:29.124297 32577 net.cpp:156] Memory required for data: 676774944
I0403 13:34:29.124313 32577 layer_factory.hpp:77] Creating layer inception_3b/3x3_reduce
I0403 13:34:29.124337 32577 net.cpp:91] Creating Layer inception_3b/3x3_reduce
I0403 13:34:29.124356 32577 net.cpp:425] inception_3b/3x3_reduce <- inception_3a/output_inception_3a/output_0_split_1
I0403 13:34:29.124382 32577 net.cpp:399] inception_3b/3x3_reduce -> inception_3b/3x3_reduce
I0403 13:34:29.125609 32577 net.cpp:141] Setting up inception_3b/3x3_reduce
I0403 13:34:29.125641 32577 net.cpp:148] Top shape: 24 128 28 28 (2408448)
I0403 13:34:29.125658 32577 net.cpp:156] Memory required for data: 686408736
I0403 13:34:29.125677 32577 layer_factory.hpp:77] Creating layer inception_3b/relu_3x3_reduce
I0403 13:34:29.125697 32577 net.cpp:91] Creating Layer inception_3b/relu_3x3_reduce
I0403 13:34:29.125715 32577 net.cpp:425] inception_3b/relu_3x3_reduce <- inception_3b/3x3_reduce
I0403 13:34:29.125733 32577 net.cpp:386] inception_3b/relu_3x3_reduce -> inception_3b/3x3_reduce (in-place)
I0403 13:34:29.125928 32577 net.cpp:141] Setting up inception_3b/relu_3x3_reduce
I0403 13:34:29.125954 32577 net.cpp:148] Top shape: 24 128 28 28 (2408448)
I0403 13:34:29.125969 32577 net.cpp:156] Memory required for data: 696042528
I0403 13:34:29.125987 32577 layer_factory.hpp:77] Creating layer inception_3b/3x3
I0403 13:34:29.126013 32577 net.cpp:91] Creating Layer inception_3b/3x3
I0403 13:34:29.126032 32577 net.cpp:425] inception_3b/3x3 <- inception_3b/3x3_reduce
I0403 13:34:29.126055 32577 net.cpp:399] inception_3b/3x3 -> inception_3b/3x3
I0403 13:34:29.129123 32577 net.cpp:141] Setting up inception_3b/3x3
I0403 13:34:29.129155 32577 net.cpp:148] Top shape: 24 192 28 28 (3612672)
I0403 13:34:29.129171 32577 net.cpp:156] Memory required for data: 710493216
I0403 13:34:29.129199 32577 layer_factory.hpp:77] Creating layer inception_3b/relu_3x3
I0403 13:34:29.129220 32577 net.cpp:91] Creating Layer inception_3b/relu_3x3
I0403 13:34:29.129237 32577 net.cpp:425] inception_3b/relu_3x3 <- inception_3b/3x3
I0403 13:34:29.129258 32577 net.cpp:386] inception_3b/relu_3x3 -> inception_3b/3x3 (in-place)
I0403 13:34:29.129550 32577 net.cpp:141] Setting up inception_3b/relu_3x3
I0403 13:34:29.129580 32577 net.cpp:148] Top shape: 24 192 28 28 (3612672)
I0403 13:34:29.129595 32577 net.cpp:156] Memory required for data: 724943904
I0403 13:34:29.129611 32577 layer_factory.hpp:77] Creating layer inception_3b/5x5_reduce
I0403 13:34:29.129634 32577 net.cpp:91] Creating Layer inception_3b/5x5_reduce
I0403 13:34:29.129652 32577 net.cpp:425] inception_3b/5x5_reduce <- inception_3a/output_inception_3a/output_0_split_2
I0403 13:34:29.129676 32577 net.cpp:399] inception_3b/5x5_reduce -> inception_3b/5x5_reduce
I0403 13:34:29.130715 32577 net.cpp:141] Setting up inception_3b/5x5_reduce
I0403 13:34:29.130745 32577 net.cpp:148] Top shape: 24 32 28 28 (602112)
I0403 13:34:29.130761 32577 net.cpp:156] Memory required for data: 727352352
I0403 13:34:29.130780 32577 layer_factory.hpp:77] Creating layer inception_3b/relu_5x5_reduce
I0403 13:34:29.130800 32577 net.cpp:91] Creating Layer inception_3b/relu_5x5_reduce
I0403 13:34:29.130817 32577 net.cpp:425] inception_3b/relu_5x5_reduce <- inception_3b/5x5_reduce
I0403 13:34:29.130838 32577 net.cpp:386] inception_3b/relu_5x5_reduce -> inception_3b/5x5_reduce (in-place)
I0403 13:34:29.131037 32577 net.cpp:141] Setting up inception_3b/relu_5x5_reduce
I0403 13:34:29.131063 32577 net.cpp:148] Top shape: 24 32 28 28 (602112)
I0403 13:34:29.131079 32577 net.cpp:156] Memory required for data: 729760800
I0403 13:34:29.131095 32577 layer_factory.hpp:77] Creating layer inception_3b/5x5
I0403 13:34:29.131119 32577 net.cpp:91] Creating Layer inception_3b/5x5
I0403 13:34:29.131137 32577 net.cpp:425] inception_3b/5x5 <- inception_3b/5x5_reduce
I0403 13:34:29.131160 32577 net.cpp:399] inception_3b/5x5 -> inception_3b/5x5
I0403 13:34:29.133249 32577 net.cpp:141] Setting up inception_3b/5x5
I0403 13:34:29.133283 32577 net.cpp:148] Top shape: 24 96 28 28 (1806336)
I0403 13:34:29.133301 32577 net.cpp:156] Memory required for data: 736986144
I0403 13:34:29.133319 32577 layer_factory.hpp:77] Creating layer inception_3b/relu_5x5
I0403 13:34:29.133339 32577 net.cpp:91] Creating Layer inception_3b/relu_5x5
I0403 13:34:29.133357 32577 net.cpp:425] inception_3b/relu_5x5 <- inception_3b/5x5
I0403 13:34:29.133375 32577 net.cpp:386] inception_3b/relu_5x5 -> inception_3b/5x5 (in-place)
I0403 13:34:29.133576 32577 net.cpp:141] Setting up inception_3b/relu_5x5
I0403 13:34:29.133604 32577 net.cpp:148] Top shape: 24 96 28 28 (1806336)
I0403 13:34:29.133620 32577 net.cpp:156] Memory required for data: 744211488
I0403 13:34:29.133635 32577 layer_factory.hpp:77] Creating layer inception_3b/pool
I0403 13:34:29.133654 32577 net.cpp:91] Creating Layer inception_3b/pool
I0403 13:34:29.133671 32577 net.cpp:425] inception_3b/pool <- inception_3a/output_inception_3a/output_0_split_3
I0403 13:34:29.133690 32577 net.cpp:399] inception_3b/pool -> inception_3b/pool
I0403 13:34:29.133750 32577 net.cpp:141] Setting up inception_3b/pool
I0403 13:34:29.133777 32577 net.cpp:148] Top shape: 24 256 28 28 (4816896)
I0403 13:34:29.133793 32577 net.cpp:156] Memory required for data: 763479072
I0403 13:34:29.133808 32577 layer_factory.hpp:77] Creating layer inception_3b/pool_proj
I0403 13:34:29.133831 32577 net.cpp:91] Creating Layer inception_3b/pool_proj
I0403 13:34:29.133849 32577 net.cpp:425] inception_3b/pool_proj <- inception_3b/pool
I0403 13:34:29.133869 32577 net.cpp:399] inception_3b/pool_proj -> inception_3b/pool_proj
I0403 13:34:29.135020 32577 net.cpp:141] Setting up inception_3b/pool_proj
I0403 13:34:29.135047 32577 net.cpp:148] Top shape: 24 64 28 28 (1204224)
I0403 13:34:29.135064 32577 net.cpp:156] Memory required for data: 768295968
I0403 13:34:29.135083 32577 layer_factory.hpp:77] Creating layer inception_3b/relu_pool_proj
I0403 13:34:29.135105 32577 net.cpp:91] Creating Layer inception_3b/relu_pool_proj
I0403 13:34:29.135123 32577 net.cpp:425] inception_3b/relu_pool_proj <- inception_3b/pool_proj
I0403 13:34:29.135143 32577 net.cpp:386] inception_3b/relu_pool_proj -> inception_3b/pool_proj (in-place)
I0403 13:34:29.135568 32577 net.cpp:141] Setting up inception_3b/relu_pool_proj
I0403 13:34:29.135596 32577 net.cpp:148] Top shape: 24 64 28 28 (1204224)
I0403 13:34:29.135612 32577 net.cpp:156] Memory required for data: 773112864
I0403 13:34:29.135627 32577 layer_factory.hpp:77] Creating layer inception_3b/output
I0403 13:34:29.135646 32577 net.cpp:91] Creating Layer inception_3b/output
I0403 13:34:29.135663 32577 net.cpp:425] inception_3b/output <- inception_3b/1x1
I0403 13:34:29.135680 32577 net.cpp:425] inception_3b/output <- inception_3b/3x3
I0403 13:34:29.135697 32577 net.cpp:425] inception_3b/output <- inception_3b/5x5
I0403 13:34:29.135715 32577 net.cpp:425] inception_3b/output <- inception_3b/pool_proj
I0403 13:34:29.135735 32577 net.cpp:399] inception_3b/output -> inception_3b/output
I0403 13:34:29.135785 32577 net.cpp:141] Setting up inception_3b/output
I0403 13:34:29.135809 32577 net.cpp:148] Top shape: 24 480 28 28 (9031680)
I0403 13:34:29.135825 32577 net.cpp:156] Memory required for data: 809239584
I0403 13:34:29.135840 32577 layer_factory.hpp:77] Creating layer pool3/3x3_s2
I0403 13:34:29.135859 32577 net.cpp:91] Creating Layer pool3/3x3_s2
I0403 13:34:29.135875 32577 net.cpp:425] pool3/3x3_s2 <- inception_3b/output
I0403 13:34:29.135911 32577 net.cpp:399] pool3/3x3_s2 -> pool3/3x3_s2
I0403 13:34:29.135975 32577 net.cpp:141] Setting up pool3/3x3_s2
I0403 13:34:29.135999 32577 net.cpp:148] Top shape: 24 480 14 14 (2257920)
I0403 13:34:29.136014 32577 net.cpp:156] Memory required for data: 818271264
I0403 13:34:29.136030 32577 layer_factory.hpp:77] Creating layer pool3/3x3_s2_pool3/3x3_s2_0_split
I0403 13:34:29.136051 32577 net.cpp:91] Creating Layer pool3/3x3_s2_pool3/3x3_s2_0_split
I0403 13:34:29.136067 32577 net.cpp:425] pool3/3x3_s2_pool3/3x3_s2_0_split <- pool3/3x3_s2
I0403 13:34:29.136085 32577 net.cpp:399] pool3/3x3_s2_pool3/3x3_s2_0_split -> pool3/3x3_s2_pool3/3x3_s2_0_split_0
I0403 13:34:29.136109 32577 net.cpp:399] pool3/3x3_s2_pool3/3x3_s2_0_split -> pool3/3x3_s2_pool3/3x3_s2_0_split_1
I0403 13:34:29.136132 32577 net.cpp:399] pool3/3x3_s2_pool3/3x3_s2_0_split -> pool3/3x3_s2_pool3/3x3_s2_0_split_2
I0403 13:34:29.136152 32577 net.cpp:399] pool3/3x3_s2_pool3/3x3_s2_0_split -> pool3/3x3_s2_pool3/3x3_s2_0_split_3
I0403 13:34:29.136241 32577 net.cpp:141] Setting up pool3/3x3_s2_pool3/3x3_s2_0_split
I0403 13:34:29.136267 32577 net.cpp:148] Top shape: 24 480 14 14 (2257920)
I0403 13:34:29.136284 32577 net.cpp:148] Top shape: 24 480 14 14 (2257920)
I0403 13:34:29.136301 32577 net.cpp:148] Top shape: 24 480 14 14 (2257920)
I0403 13:34:29.136317 32577 net.cpp:148] Top shape: 24 480 14 14 (2257920)
I0403 13:34:29.136332 32577 net.cpp:156] Memory required for data: 854397984
I0403 13:34:29.136348 32577 layer_factory.hpp:77] Creating layer inception_4a/1x1
I0403 13:34:29.136371 32577 net.cpp:91] Creating Layer inception_4a/1x1
I0403 13:34:29.136389 32577 net.cpp:425] inception_4a/1x1 <- pool3/3x3_s2_pool3/3x3_s2_0_split_0
I0403 13:34:29.136411 32577 net.cpp:399] inception_4a/1x1 -> inception_4a/1x1
I0403 13:34:29.138106 32577 net.cpp:141] Setting up inception_4a/1x1
I0403 13:34:29.138134 32577 net.cpp:148] Top shape: 24 192 14 14 (903168)
I0403 13:34:29.138150 32577 net.cpp:156] Memory required for data: 858010656
I0403 13:34:29.138170 32577 layer_factory.hpp:77] Creating layer inception_4a/relu_1x1
I0403 13:34:29.138200 32577 net.cpp:91] Creating Layer inception_4a/relu_1x1
I0403 13:34:29.138218 32577 net.cpp:425] inception_4a/relu_1x1 <- inception_4a/1x1
I0403 13:34:29.138237 32577 net.cpp:386] inception_4a/relu_1x1 -> inception_4a/1x1 (in-place)
I0403 13:34:29.138422 32577 net.cpp:141] Setting up inception_4a/relu_1x1
I0403 13:34:29.138452 32577 net.cpp:148] Top shape: 24 192 14 14 (903168)
I0403 13:34:29.138468 32577 net.cpp:156] Memory required for data: 861623328
I0403 13:34:29.138484 32577 layer_factory.hpp:77] Creating layer inception_4a/3x3_reduce
I0403 13:34:29.138510 32577 net.cpp:91] Creating Layer inception_4a/3x3_reduce
I0403 13:34:29.138528 32577 net.cpp:425] inception_4a/3x3_reduce <- pool3/3x3_s2_pool3/3x3_s2_0_split_1
I0403 13:34:29.138548 32577 net.cpp:399] inception_4a/3x3_reduce -> inception_4a/3x3_reduce
I0403 13:34:29.139914 32577 net.cpp:141] Setting up inception_4a/3x3_reduce
I0403 13:34:29.139941 32577 net.cpp:148] Top shape: 24 96 14 14 (451584)
I0403 13:34:29.139957 32577 net.cpp:156] Memory required for data: 863429664
I0403 13:34:29.139987 32577 layer_factory.hpp:77] Creating layer inception_4a/relu_3x3_reduce
I0403 13:34:29.140012 32577 net.cpp:91] Creating Layer inception_4a/relu_3x3_reduce
I0403 13:34:29.140029 32577 net.cpp:425] inception_4a/relu_3x3_reduce <- inception_4a/3x3_reduce
I0403 13:34:29.140048 32577 net.cpp:386] inception_4a/relu_3x3_reduce -> inception_4a/3x3_reduce (in-place)
I0403 13:34:29.140244 32577 net.cpp:141] Setting up inception_4a/relu_3x3_reduce
I0403 13:34:29.140271 32577 net.cpp:148] Top shape: 24 96 14 14 (451584)
I0403 13:34:29.140288 32577 net.cpp:156] Memory required for data: 865236000
I0403 13:34:29.140305 32577 layer_factory.hpp:77] Creating layer inception_4a/3x3
I0403 13:34:29.140328 32577 net.cpp:91] Creating Layer inception_4a/3x3
I0403 13:34:29.140347 32577 net.cpp:425] inception_4a/3x3 <- inception_4a/3x3_reduce
I0403 13:34:29.140367 32577 net.cpp:399] inception_4a/3x3 -> inception_4a/3x3
I0403 13:34:29.143205 32577 net.cpp:141] Setting up inception_4a/3x3
I0403 13:34:29.143239 32577 net.cpp:148] Top shape: 24 208 14 14 (978432)
I0403 13:34:29.143255 32577 net.cpp:156] Memory required for data: 869149728
I0403 13:34:29.143275 32577 layer_factory.hpp:77] Creating layer inception_4a/relu_3x3
I0403 13:34:29.143295 32577 net.cpp:91] Creating Layer inception_4a/relu_3x3
I0403 13:34:29.143311 32577 net.cpp:425] inception_4a/relu_3x3 <- inception_4a/3x3
I0403 13:34:29.143332 32577 net.cpp:386] inception_4a/relu_3x3 -> inception_4a/3x3 (in-place)
I0403 13:34:29.143623 32577 net.cpp:141] Setting up inception_4a/relu_3x3
I0403 13:34:29.143654 32577 net.cpp:148] Top shape: 24 208 14 14 (978432)
I0403 13:34:29.143671 32577 net.cpp:156] Memory required for data: 873063456
I0403 13:34:29.143687 32577 layer_factory.hpp:77] Creating layer inception_4a/5x5_reduce
I0403 13:34:29.143712 32577 net.cpp:91] Creating Layer inception_4a/5x5_reduce
I0403 13:34:29.143729 32577 net.cpp:425] inception_4a/5x5_reduce <- pool3/3x3_s2_pool3/3x3_s2_0_split_2
I0403 13:34:29.143749 32577 net.cpp:399] inception_4a/5x5_reduce -> inception_4a/5x5_reduce
I0403 13:34:29.144848 32577 net.cpp:141] Setting up inception_4a/5x5_reduce
I0403 13:34:29.144876 32577 net.cpp:148] Top shape: 24 16 14 14 (75264)
I0403 13:34:29.144893 32577 net.cpp:156] Memory required for data: 873364512
I0403 13:34:29.144912 32577 layer_factory.hpp:77] Creating layer inception_4a/relu_5x5_reduce
I0403 13:34:29.144932 32577 net.cpp:91] Creating Layer inception_4a/relu_5x5_reduce
I0403 13:34:29.144948 32577 net.cpp:425] inception_4a/relu_5x5_reduce <- inception_4a/5x5_reduce
I0403 13:34:29.144969 32577 net.cpp:386] inception_4a/relu_5x5_reduce -> inception_4a/5x5_reduce (in-place)
I0403 13:34:29.145156 32577 net.cpp:141] Setting up inception_4a/relu_5x5_reduce
I0403 13:34:29.145190 32577 net.cpp:148] Top shape: 24 16 14 14 (75264)
I0403 13:34:29.145207 32577 net.cpp:156] Memory required for data: 873665568
I0403 13:34:29.145223 32577 layer_factory.hpp:77] Creating layer inception_4a/5x5
I0403 13:34:29.145246 32577 net.cpp:91] Creating Layer inception_4a/5x5
I0403 13:34:29.145264 32577 net.cpp:425] inception_4a/5x5 <- inception_4a/5x5_reduce
I0403 13:34:29.145287 32577 net.cpp:399] inception_4a/5x5 -> inception_4a/5x5
I0403 13:34:29.146456 32577 net.cpp:141] Setting up inception_4a/5x5
I0403 13:34:29.146482 32577 net.cpp:148] Top shape: 24 48 14 14 (225792)
I0403 13:34:29.146499 32577 net.cpp:156] Memory required for data: 874568736
I0403 13:34:29.146518 32577 layer_factory.hpp:77] Creating layer inception_4a/relu_5x5
I0403 13:34:29.146540 32577 net.cpp:91] Creating Layer inception_4a/relu_5x5
I0403 13:34:29.146559 32577 net.cpp:425] inception_4a/relu_5x5 <- inception_4a/5x5
I0403 13:34:29.146577 32577 net.cpp:386] inception_4a/relu_5x5 -> inception_4a/5x5 (in-place)
I0403 13:34:29.146764 32577 net.cpp:141] Setting up inception_4a/relu_5x5
I0403 13:34:29.146793 32577 net.cpp:148] Top shape: 24 48 14 14 (225792)
I0403 13:34:29.146811 32577 net.cpp:156] Memory required for data: 875471904
I0403 13:34:29.146826 32577 layer_factory.hpp:77] Creating layer inception_4a/pool
I0403 13:34:29.146844 32577 net.cpp:91] Creating Layer inception_4a/pool
I0403 13:34:29.146862 32577 net.cpp:425] inception_4a/pool <- pool3/3x3_s2_pool3/3x3_s2_0_split_3
I0403 13:34:29.146880 32577 net.cpp:399] inception_4a/pool -> inception_4a/pool
I0403 13:34:29.146947 32577 net.cpp:141] Setting up inception_4a/pool
I0403 13:34:29.146971 32577 net.cpp:148] Top shape: 24 480 14 14 (2257920)
I0403 13:34:29.146987 32577 net.cpp:156] Memory required for data: 884503584
I0403 13:34:29.147003 32577 layer_factory.hpp:77] Creating layer inception_4a/pool_proj
I0403 13:34:29.147027 32577 net.cpp:91] Creating Layer inception_4a/pool_proj
I0403 13:34:29.147045 32577 net.cpp:425] inception_4a/pool_proj <- inception_4a/pool
I0403 13:34:29.147068 32577 net.cpp:399] inception_4a/pool_proj -> inception_4a/pool_proj
I0403 13:34:29.148324 32577 net.cpp:141] Setting up inception_4a/pool_proj
I0403 13:34:29.148353 32577 net.cpp:148] Top shape: 24 64 14 14 (301056)
I0403 13:34:29.148386 32577 net.cpp:156] Memory required for data: 885707808
I0403 13:34:29.148406 32577 layer_factory.hpp:77] Creating layer inception_4a/relu_pool_proj
I0403 13:34:29.148428 32577 net.cpp:91] Creating Layer inception_4a/relu_pool_proj
I0403 13:34:29.148447 32577 net.cpp:425] inception_4a/relu_pool_proj <- inception_4a/pool_proj
I0403 13:34:29.148465 32577 net.cpp:386] inception_4a/relu_pool_proj -> inception_4a/pool_proj (in-place)
I0403 13:34:29.148838 32577 net.cpp:141] Setting up inception_4a/relu_pool_proj
I0403 13:34:29.148865 32577 net.cpp:148] Top shape: 24 64 14 14 (301056)
I0403 13:34:29.148881 32577 net.cpp:156] Memory required for data: 886912032
I0403 13:34:29.148896 32577 layer_factory.hpp:77] Creating layer inception_4a/output
I0403 13:34:29.148917 32577 net.cpp:91] Creating Layer inception_4a/output
I0403 13:34:29.148934 32577 net.cpp:425] inception_4a/output <- inception_4a/1x1
I0403 13:34:29.148950 32577 net.cpp:425] inception_4a/output <- inception_4a/3x3
I0403 13:34:29.148968 32577 net.cpp:425] inception_4a/output <- inception_4a/5x5
I0403 13:34:29.148984 32577 net.cpp:425] inception_4a/output <- inception_4a/pool_proj
I0403 13:34:29.149001 32577 net.cpp:399] inception_4a/output -> inception_4a/output
I0403 13:34:29.149050 32577 net.cpp:141] Setting up inception_4a/output
I0403 13:34:29.149075 32577 net.cpp:148] Top shape: 24 512 14 14 (2408448)
I0403 13:34:29.149090 32577 net.cpp:156] Memory required for data: 896545824
I0403 13:34:29.149103 32577 layer_factory.hpp:77] Creating layer inception_4a/output_inception_4a/output_0_split
I0403 13:34:29.149121 32577 net.cpp:91] Creating Layer inception_4a/output_inception_4a/output_0_split
I0403 13:34:29.149137 32577 net.cpp:425] inception_4a/output_inception_4a/output_0_split <- inception_4a/output
I0403 13:34:29.149158 32577 net.cpp:399] inception_4a/output_inception_4a/output_0_split -> inception_4a/output_inception_4a/output_0_split_0
I0403 13:34:29.149199 32577 net.cpp:399] inception_4a/output_inception_4a/output_0_split -> inception_4a/output_inception_4a/output_0_split_1
I0403 13:34:29.149224 32577 net.cpp:399] inception_4a/output_inception_4a/output_0_split -> inception_4a/output_inception_4a/output_0_split_2
I0403 13:34:29.149246 32577 net.cpp:399] inception_4a/output_inception_4a/output_0_split -> inception_4a/output_inception_4a/output_0_split_3
I0403 13:34:29.149271 32577 net.cpp:399] inception_4a/output_inception_4a/output_0_split -> inception_4a/output_inception_4a/output_0_split_4
I0403 13:34:29.149371 32577 net.cpp:141] Setting up inception_4a/output_inception_4a/output_0_split
I0403 13:34:29.149396 32577 net.cpp:148] Top shape: 24 512 14 14 (2408448)
I0403 13:34:29.149415 32577 net.cpp:148] Top shape: 24 512 14 14 (2408448)
I0403 13:34:29.149430 32577 net.cpp:148] Top shape: 24 512 14 14 (2408448)
I0403 13:34:29.149446 32577 net.cpp:148] Top shape: 24 512 14 14 (2408448)
I0403 13:34:29.149462 32577 net.cpp:148] Top shape: 24 512 14 14 (2408448)
I0403 13:34:29.149490 32577 net.cpp:156] Memory required for data: 944714784
I0403 13:34:29.149507 32577 layer_factory.hpp:77] Creating layer loss1/ave_pool
I0403 13:34:29.149525 32577 net.cpp:91] Creating Layer loss1/ave_pool
I0403 13:34:29.149541 32577 net.cpp:425] loss1/ave_pool <- inception_4a/output_inception_4a/output_0_split_0
I0403 13:34:29.149561 32577 net.cpp:399] loss1/ave_pool -> loss1/ave_pool
I0403 13:34:29.149796 32577 net.cpp:141] Setting up loss1/ave_pool
I0403 13:34:29.149821 32577 net.cpp:148] Top shape: 24 512 4 4 (196608)
I0403 13:34:29.149837 32577 net.cpp:156] Memory required for data: 945501216
I0403 13:34:29.149852 32577 layer_factory.hpp:77] Creating layer loss1/conv
I0403 13:34:29.149875 32577 net.cpp:91] Creating Layer loss1/conv
I0403 13:34:29.149894 32577 net.cpp:425] loss1/conv <- loss1/ave_pool
I0403 13:34:29.149914 32577 net.cpp:399] loss1/conv -> loss1/conv
I0403 13:34:29.151367 32577 net.cpp:141] Setting up loss1/conv
I0403 13:34:29.151397 32577 net.cpp:148] Top shape: 24 128 4 4 (49152)
I0403 13:34:29.151428 32577 net.cpp:156] Memory required for data: 945697824
I0403 13:34:29.151448 32577 layer_factory.hpp:77] Creating layer loss1/relu_conv
I0403 13:34:29.151468 32577 net.cpp:91] Creating Layer loss1/relu_conv
I0403 13:34:29.151484 32577 net.cpp:425] loss1/relu_conv <- loss1/conv
I0403 13:34:29.151504 32577 net.cpp:386] loss1/relu_conv -> loss1/conv (in-place)
I0403 13:34:29.151794 32577 net.cpp:141] Setting up loss1/relu_conv
I0403 13:34:29.151823 32577 net.cpp:148] Top shape: 24 128 4 4 (49152)
I0403 13:34:29.151839 32577 net.cpp:156] Memory required for data: 945894432
I0403 13:34:29.151854 32577 layer_factory.hpp:77] Creating layer loss1/fc
I0403 13:34:29.151878 32577 net.cpp:91] Creating Layer loss1/fc
I0403 13:34:29.151896 32577 net.cpp:425] loss1/fc <- loss1/conv
I0403 13:34:29.151917 32577 net.cpp:399] loss1/fc -> loss1/fc
I0403 13:34:29.170768 32577 net.cpp:141] Setting up loss1/fc
I0403 13:34:29.170838 32577 net.cpp:148] Top shape: 24 1024 (24576)
I0403 13:34:29.170855 32577 net.cpp:156] Memory required for data: 945992736
I0403 13:34:29.170877 32577 layer_factory.hpp:77] Creating layer loss1/relu_fc
I0403 13:34:29.170899 32577 net.cpp:91] Creating Layer loss1/relu_fc
I0403 13:34:29.170917 32577 net.cpp:425] loss1/relu_fc <- loss1/fc
I0403 13:34:29.170936 32577 net.cpp:386] loss1/relu_fc -> loss1/fc (in-place)
I0403 13:34:29.171159 32577 net.cpp:141] Setting up loss1/relu_fc
I0403 13:34:29.171196 32577 net.cpp:148] Top shape: 24 1024 (24576)
I0403 13:34:29.171213 32577 net.cpp:156] Memory required for data: 946091040
I0403 13:34:29.171229 32577 layer_factory.hpp:77] Creating layer loss1/drop_fc
I0403 13:34:29.171260 32577 net.cpp:91] Creating Layer loss1/drop_fc
I0403 13:34:29.171278 32577 net.cpp:425] loss1/drop_fc <- loss1/fc
I0403 13:34:29.171298 32577 net.cpp:386] loss1/drop_fc -> loss1/fc (in-place)
I0403 13:34:29.171355 32577 net.cpp:141] Setting up loss1/drop_fc
I0403 13:34:29.171380 32577 net.cpp:148] Top shape: 24 1024 (24576)
I0403 13:34:29.171394 32577 net.cpp:156] Memory required for data: 946189344
I0403 13:34:29.171411 32577 layer_factory.hpp:77] Creating layer loss1/classifier_plantvillage
I0403 13:34:29.171435 32577 net.cpp:91] Creating Layer loss1/classifier_plantvillage
I0403 13:34:29.171453 32577 net.cpp:425] loss1/classifier_plantvillage <- loss1/fc
I0403 13:34:29.171473 32577 net.cpp:399] loss1/classifier_plantvillage -> loss1/classifier_plantvillage
I0403 13:34:29.172463 32577 net.cpp:141] Setting up loss1/classifier_plantvillage
I0403 13:34:29.172498 32577 net.cpp:148] Top shape: 24 38 (912)
I0403 13:34:29.172515 32577 net.cpp:156] Memory required for data: 946192992
I0403 13:34:29.172534 32577 layer_factory.hpp:77] Creating layer loss1/classifier_plantvillage_loss1/classifier_plantvillage_0_split
I0403 13:34:29.172554 32577 net.cpp:91] Creating Layer loss1/classifier_plantvillage_loss1/classifier_plantvillage_0_split
I0403 13:34:29.172571 32577 net.cpp:425] loss1/classifier_plantvillage_loss1/classifier_plantvillage_0_split <- loss1/classifier_plantvillage
I0403 13:34:29.172590 32577 net.cpp:399] loss1/classifier_plantvillage_loss1/classifier_plantvillage_0_split -> loss1/classifier_plantvillage_loss1/classifier_plantvillage_0_split_0
I0403 13:34:29.172612 32577 net.cpp:399] loss1/classifier_plantvillage_loss1/classifier_plantvillage_0_split -> loss1/classifier_plantvillage_loss1/classifier_plantvillage_0_split_1
I0403 13:34:29.172636 32577 net.cpp:399] loss1/classifier_plantvillage_loss1/classifier_plantvillage_0_split -> loss1/classifier_plantvillage_loss1/classifier_plantvillage_0_split_2
I0403 13:34:29.172709 32577 net.cpp:141] Setting up loss1/classifier_plantvillage_loss1/classifier_plantvillage_0_split
I0403 13:34:29.172734 32577 net.cpp:148] Top shape: 24 38 (912)
I0403 13:34:29.172750 32577 net.cpp:148] Top shape: 24 38 (912)
I0403 13:34:29.172766 32577 net.cpp:148] Top shape: 24 38 (912)
I0403 13:34:29.172781 32577 net.cpp:156] Memory required for data: 946203936
I0403 13:34:29.172796 32577 layer_factory.hpp:77] Creating layer inception_4b/1x1
I0403 13:34:29.172819 32577 net.cpp:91] Creating Layer inception_4b/1x1
I0403 13:34:29.172863 32577 net.cpp:425] inception_4b/1x1 <- inception_4a/output_inception_4a/output_0_split_1
I0403 13:34:29.172888 32577 net.cpp:399] inception_4b/1x1 -> inception_4b/1x1
I0403 13:34:29.174667 32577 net.cpp:141] Setting up inception_4b/1x1
I0403 13:34:29.174696 32577 net.cpp:148] Top shape: 24 160 14 14 (752640)
I0403 13:34:29.174713 32577 net.cpp:156] Memory required for data: 949214496
I0403 13:34:29.174732 32577 layer_factory.hpp:77] Creating layer inception_4b/relu_1x1
I0403 13:34:29.174751 32577 net.cpp:91] Creating Layer inception_4b/relu_1x1
I0403 13:34:29.174767 32577 net.cpp:425] inception_4b/relu_1x1 <- inception_4b/1x1
I0403 13:34:29.174788 32577 net.cpp:386] inception_4b/relu_1x1 -> inception_4b/1x1 (in-place)
I0403 13:34:29.174970 32577 net.cpp:141] Setting up inception_4b/relu_1x1
I0403 13:34:29.174995 32577 net.cpp:148] Top shape: 24 160 14 14 (752640)
I0403 13:34:29.175011 32577 net.cpp:156] Memory required for data: 952225056
I0403 13:34:29.175026 32577 layer_factory.hpp:77] Creating layer inception_4b/3x3_reduce
I0403 13:34:29.175050 32577 net.cpp:91] Creating Layer inception_4b/3x3_reduce
I0403 13:34:29.175067 32577 net.cpp:425] inception_4b/3x3_reduce <- inception_4a/output_inception_4a/output_0_split_2
I0403 13:34:29.175093 32577 net.cpp:399] inception_4b/3x3_reduce -> inception_4b/3x3_reduce
I0403 13:34:29.176570 32577 net.cpp:141] Setting up inception_4b/3x3_reduce
I0403 13:34:29.176599 32577 net.cpp:148] Top shape: 24 112 14 14 (526848)
I0403 13:34:29.176614 32577 net.cpp:156] Memory required for data: 954332448
I0403 13:34:29.176635 32577 layer_factory.hpp:77] Creating layer inception_4b/relu_3x3_reduce
I0403 13:34:29.176656 32577 net.cpp:91] Creating Layer inception_4b/relu_3x3_reduce
I0403 13:34:29.176674 32577 net.cpp:425] inception_4b/relu_3x3_reduce <- inception_4b/3x3_reduce
I0403 13:34:29.176692 32577 net.cpp:386] inception_4b/relu_3x3_reduce -> inception_4b/3x3_reduce (in-place)
I0403 13:34:29.176985 32577 net.cpp:141] Setting up inception_4b/relu_3x3_reduce
I0403 13:34:29.177013 32577 net.cpp:148] Top shape: 24 112 14 14 (526848)
I0403 13:34:29.177028 32577 net.cpp:156] Memory required for data: 956439840
I0403 13:34:29.177044 32577 layer_factory.hpp:77] Creating layer inception_4b/3x3
I0403 13:34:29.177068 32577 net.cpp:91] Creating Layer inception_4b/3x3
I0403 13:34:29.177086 32577 net.cpp:425] inception_4b/3x3 <- inception_4b/3x3_reduce
I0403 13:34:29.177109 32577 net.cpp:399] inception_4b/3x3 -> inception_4b/3x3
I0403 13:34:29.180171 32577 net.cpp:141] Setting up inception_4b/3x3
I0403 13:34:29.180222 32577 net.cpp:148] Top shape: 24 224 14 14 (1053696)
I0403 13:34:29.180243 32577 net.cpp:156] Memory required for data: 960654624
I0403 13:34:29.180263 32577 layer_factory.hpp:77] Creating layer inception_4b/relu_3x3
I0403 13:34:29.180282 32577 net.cpp:91] Creating Layer inception_4b/relu_3x3
I0403 13:34:29.180300 32577 net.cpp:425] inception_4b/relu_3x3 <- inception_4b/3x3
I0403 13:34:29.180318 32577 net.cpp:386] inception_4b/relu_3x3 -> inception_4b/3x3 (in-place)
I0403 13:34:29.180523 32577 net.cpp:141] Setting up inception_4b/relu_3x3
I0403 13:34:29.180552 32577 net.cpp:148] Top shape: 24 224 14 14 (1053696)
I0403 13:34:29.180567 32577 net.cpp:156] Memory required for data: 964869408
I0403 13:34:29.180583 32577 layer_factory.hpp:77] Creating layer inception_4b/5x5_reduce
I0403 13:34:29.180606 32577 net.cpp:91] Creating Layer inception_4b/5x5_reduce
I0403 13:34:29.180624 32577 net.cpp:425] inception_4b/5x5_reduce <- inception_4a/output_inception_4a/output_0_split_3
I0403 13:34:29.180644 32577 net.cpp:399] inception_4b/5x5_reduce -> inception_4b/5x5_reduce
I0403 13:34:29.181921 32577 net.cpp:141] Setting up inception_4b/5x5_reduce
I0403 13:34:29.181947 32577 net.cpp:148] Top shape: 24 24 14 14 (112896)
I0403 13:34:29.181963 32577 net.cpp:156] Memory required for data: 965320992
I0403 13:34:29.181982 32577 layer_factory.hpp:77] Creating layer inception_4b/relu_5x5_reduce
I0403 13:34:29.182001 32577 net.cpp:91] Creating Layer inception_4b/relu_5x5_reduce
I0403 13:34:29.182035 32577 net.cpp:425] inception_4b/relu_5x5_reduce <- inception_4b/5x5_reduce
I0403 13:34:29.182056 32577 net.cpp:386] inception_4b/relu_5x5_reduce -> inception_4b/5x5_reduce (in-place)
I0403 13:34:29.182260 32577 net.cpp:141] Setting up inception_4b/relu_5x5_reduce
I0403 13:34:29.182286 32577 net.cpp:148] Top shape: 24 24 14 14 (112896)
I0403 13:34:29.182301 32577 net.cpp:156] Memory required for data: 965772576
I0403 13:34:29.182317 32577 layer_factory.hpp:77] Creating layer inception_4b/5x5
I0403 13:34:29.182340 32577 net.cpp:91] Creating Layer inception_4b/5x5
I0403 13:34:29.182358 32577 net.cpp:425] inception_4b/5x5 <- inception_4b/5x5_reduce
I0403 13:34:29.182380 32577 net.cpp:399] inception_4b/5x5 -> inception_4b/5x5
I0403 13:34:29.183641 32577 net.cpp:141] Setting up inception_4b/5x5
I0403 13:34:29.183670 32577 net.cpp:148] Top shape: 24 64 14 14 (301056)
I0403 13:34:29.183686 32577 net.cpp:156] Memory required for data: 966976800
I0403 13:34:29.183704 32577 layer_factory.hpp:77] Creating layer inception_4b/relu_5x5
I0403 13:34:29.183723 32577 net.cpp:91] Creating Layer inception_4b/relu_5x5
I0403 13:34:29.183740 32577 net.cpp:425] inception_4b/relu_5x5 <- inception_4b/5x5
I0403 13:34:29.183761 32577 net.cpp:386] inception_4b/relu_5x5 -> inception_4b/5x5 (in-place)
I0403 13:34:29.184056 32577 net.cpp:141] Setting up inception_4b/relu_5x5
I0403 13:34:29.184083 32577 net.cpp:148] Top shape: 24 64 14 14 (301056)
I0403 13:34:29.184099 32577 net.cpp:156] Memory required for data: 968181024
I0403 13:34:29.184114 32577 layer_factory.hpp:77] Creating layer inception_4b/pool
I0403 13:34:29.184134 32577 net.cpp:91] Creating Layer inception_4b/pool
I0403 13:34:29.184151 32577 net.cpp:425] inception_4b/pool <- inception_4a/output_inception_4a/output_0_split_4
I0403 13:34:29.184172 32577 net.cpp:399] inception_4b/pool -> inception_4b/pool
I0403 13:34:29.184263 32577 net.cpp:141] Setting up inception_4b/pool
I0403 13:34:29.184288 32577 net.cpp:148] Top shape: 24 512 14 14 (2408448)
I0403 13:34:29.184303 32577 net.cpp:156] Memory required for data: 977814816
I0403 13:34:29.184319 32577 layer_factory.hpp:77] Creating layer inception_4b/pool_proj
I0403 13:34:29.184345 32577 net.cpp:91] Creating Layer inception_4b/pool_proj
I0403 13:34:29.184363 32577 net.cpp:425] inception_4b/pool_proj <- inception_4b/pool
I0403 13:34:29.184383 32577 net.cpp:399] inception_4b/pool_proj -> inception_4b/pool_proj
I0403 13:34:29.185636 32577 net.cpp:141] Setting up inception_4b/pool_proj
I0403 13:34:29.185664 32577 net.cpp:148] Top shape: 24 64 14 14 (301056)
I0403 13:34:29.185680 32577 net.cpp:156] Memory required for data: 979019040
I0403 13:34:29.185699 32577 layer_factory.hpp:77] Creating layer inception_4b/relu_pool_proj
I0403 13:34:29.185719 32577 net.cpp:91] Creating Layer inception_4b/relu_pool_proj
I0403 13:34:29.185735 32577 net.cpp:425] inception_4b/relu_pool_proj <- inception_4b/pool_proj
I0403 13:34:29.185756 32577 net.cpp:386] inception_4b/relu_pool_proj -> inception_4b/pool_proj (in-place)
I0403 13:34:29.185942 32577 net.cpp:141] Setting up inception_4b/relu_pool_proj
I0403 13:34:29.185969 32577 net.cpp:148] Top shape: 24 64 14 14 (301056)
I0403 13:34:29.185984 32577 net.cpp:156] Memory required for data: 980223264
I0403 13:34:29.186000 32577 layer_factory.hpp:77] Creating layer inception_4b/output
I0403 13:34:29.186022 32577 net.cpp:91] Creating Layer inception_4b/output
I0403 13:34:29.186038 32577 net.cpp:425] inception_4b/output <- inception_4b/1x1
I0403 13:34:29.186055 32577 net.cpp:425] inception_4b/output <- inception_4b/3x3
I0403 13:34:29.186072 32577 net.cpp:425] inception_4b/output <- inception_4b/5x5
I0403 13:34:29.186089 32577 net.cpp:425] inception_4b/output <- inception_4b/pool_proj
I0403 13:34:29.186106 32577 net.cpp:399] inception_4b/output -> inception_4b/output
I0403 13:34:29.186157 32577 net.cpp:141] Setting up inception_4b/output
I0403 13:34:29.186202 32577 net.cpp:148] Top shape: 24 512 14 14 (2408448)
I0403 13:34:29.186219 32577 net.cpp:156] Memory required for data: 989857056
I0403 13:34:29.186250 32577 layer_factory.hpp:77] Creating layer inception_4b/output_inception_4b/output_0_split
I0403 13:34:29.186270 32577 net.cpp:91] Creating Layer inception_4b/output_inception_4b/output_0_split
I0403 13:34:29.186287 32577 net.cpp:425] inception_4b/output_inception_4b/output_0_split <- inception_4b/output
I0403 13:34:29.186310 32577 net.cpp:399] inception_4b/output_inception_4b/output_0_split -> inception_4b/output_inception_4b/output_0_split_0
I0403 13:34:29.186332 32577 net.cpp:399] inception_4b/output_inception_4b/output_0_split -> inception_4b/output_inception_4b/output_0_split_1
I0403 13:34:29.186354 32577 net.cpp:399] inception_4b/output_inception_4b/output_0_split -> inception_4b/output_inception_4b/output_0_split_2
I0403 13:34:29.186378 32577 net.cpp:399] inception_4b/output_inception_4b/output_0_split -> inception_4b/output_inception_4b/output_0_split_3
I0403 13:34:29.186466 32577 net.cpp:141] Setting up inception_4b/output_inception_4b/output_0_split
I0403 13:34:29.186504 32577 net.cpp:148] Top shape: 24 512 14 14 (2408448)
I0403 13:34:29.186522 32577 net.cpp:148] Top shape: 24 512 14 14 (2408448)
I0403 13:34:29.186538 32577 net.cpp:148] Top shape: 24 512 14 14 (2408448)
I0403 13:34:29.186554 32577 net.cpp:148] Top shape: 24 512 14 14 (2408448)
I0403 13:34:29.186568 32577 net.cpp:156] Memory required for data: 1028392224
I0403 13:34:29.186583 32577 layer_factory.hpp:77] Creating layer inception_4c/1x1
I0403 13:34:29.186607 32577 net.cpp:91] Creating Layer inception_4c/1x1
I0403 13:34:29.186625 32577 net.cpp:425] inception_4c/1x1 <- inception_4b/output_inception_4b/output_0_split_0
I0403 13:34:29.186645 32577 net.cpp:399] inception_4c/1x1 -> inception_4c/1x1
I0403 13:34:29.188156 32577 net.cpp:141] Setting up inception_4c/1x1
I0403 13:34:29.188206 32577 net.cpp:148] Top shape: 24 128 14 14 (602112)
I0403 13:34:29.188225 32577 net.cpp:156] Memory required for data: 1030800672
I0403 13:34:29.188244 32577 layer_factory.hpp:77] Creating layer inception_4c/relu_1x1
I0403 13:34:29.188266 32577 net.cpp:91] Creating Layer inception_4c/relu_1x1
I0403 13:34:29.188284 32577 net.cpp:425] inception_4c/relu_1x1 <- inception_4c/1x1
I0403 13:34:29.188302 32577 net.cpp:386] inception_4c/relu_1x1 -> inception_4c/1x1 (in-place)
I0403 13:34:29.188508 32577 net.cpp:141] Setting up inception_4c/relu_1x1
I0403 13:34:29.188534 32577 net.cpp:148] Top shape: 24 128 14 14 (602112)
I0403 13:34:29.188550 32577 net.cpp:156] Memory required for data: 1033209120
I0403 13:34:29.188566 32577 layer_factory.hpp:77] Creating layer inception_4c/3x3_reduce
I0403 13:34:29.188590 32577 net.cpp:91] Creating Layer inception_4c/3x3_reduce
I0403 13:34:29.188607 32577 net.cpp:425] inception_4c/3x3_reduce <- inception_4b/output_inception_4b/output_0_split_1
I0403 13:34:29.188628 32577 net.cpp:399] inception_4c/3x3_reduce -> inception_4c/3x3_reduce
I0403 13:34:29.190628 32577 net.cpp:141] Setting up inception_4c/3x3_reduce
I0403 13:34:29.190660 32577 net.cpp:148] Top shape: 24 128 14 14 (602112)
I0403 13:34:29.190677 32577 net.cpp:156] Memory required for data: 1035617568
I0403 13:34:29.190696 32577 layer_factory.hpp:77] Creating layer inception_4c/relu_3x3_reduce
I0403 13:34:29.190714 32577 net.cpp:91] Creating Layer inception_4c/relu_3x3_reduce
I0403 13:34:29.190732 32577 net.cpp:425] inception_4c/relu_3x3_reduce <- inception_4c/3x3_reduce
I0403 13:34:29.190754 32577 net.cpp:386] inception_4c/relu_3x3_reduce -> inception_4c/3x3_reduce (in-place)
I0403 13:34:29.191046 32577 net.cpp:141] Setting up inception_4c/relu_3x3_reduce
I0403 13:34:29.191076 32577 net.cpp:148] Top shape: 24 128 14 14 (602112)
I0403 13:34:29.191092 32577 net.cpp:156] Memory required for data: 1038026016
I0403 13:34:29.191108 32577 layer_factory.hpp:77] Creating layer inception_4c/3x3
I0403 13:34:29.191133 32577 net.cpp:91] Creating Layer inception_4c/3x3
I0403 13:34:29.191154 32577 net.cpp:425] inception_4c/3x3 <- inception_4c/3x3_reduce
I0403 13:34:29.191174 32577 net.cpp:399] inception_4c/3x3 -> inception_4c/3x3
I0403 13:34:29.194938 32577 net.cpp:141] Setting up inception_4c/3x3
I0403 13:34:29.194983 32577 net.cpp:148] Top shape: 24 256 14 14 (1204224)
I0403 13:34:29.194999 32577 net.cpp:156] Memory required for data: 1042842912
I0403 13:34:29.195034 32577 layer_factory.hpp:77] Creating layer inception_4c/relu_3x3
I0403 13:34:29.195055 32577 net.cpp:91] Creating Layer inception_4c/relu_3x3
I0403 13:34:29.195073 32577 net.cpp:425] inception_4c/relu_3x3 <- inception_4c/3x3
I0403 13:34:29.195093 32577 net.cpp:386] inception_4c/relu_3x3 -> inception_4c/3x3 (in-place)
I0403 13:34:29.195308 32577 net.cpp:141] Setting up inception_4c/relu_3x3
I0403 13:34:29.195335 32577 net.cpp:148] Top shape: 24 256 14 14 (1204224)
I0403 13:34:29.195351 32577 net.cpp:156] Memory required for data: 1047659808
I0403 13:34:29.195368 32577 layer_factory.hpp:77] Creating layer inception_4c/5x5_reduce
I0403 13:34:29.195392 32577 net.cpp:91] Creating Layer inception_4c/5x5_reduce
I0403 13:34:29.195411 32577 net.cpp:425] inception_4c/5x5_reduce <- inception_4b/output_inception_4b/output_0_split_2
I0403 13:34:29.195435 32577 net.cpp:399] inception_4c/5x5_reduce -> inception_4c/5x5_reduce
I0403 13:34:29.196605 32577 net.cpp:141] Setting up inception_4c/5x5_reduce
I0403 13:34:29.196633 32577 net.cpp:148] Top shape: 24 24 14 14 (112896)
I0403 13:34:29.196650 32577 net.cpp:156] Memory required for data: 1048111392
I0403 13:34:29.196668 32577 layer_factory.hpp:77] Creating layer inception_4c/relu_5x5_reduce
I0403 13:34:29.196687 32577 net.cpp:91] Creating Layer inception_4c/relu_5x5_reduce
I0403 13:34:29.196704 32577 net.cpp:425] inception_4c/relu_5x5_reduce <- inception_4c/5x5_reduce
I0403 13:34:29.196725 32577 net.cpp:386] inception_4c/relu_5x5_reduce -> inception_4c/5x5_reduce (in-place)
I0403 13:34:29.196913 32577 net.cpp:141] Setting up inception_4c/relu_5x5_reduce
I0403 13:34:29.196938 32577 net.cpp:148] Top shape: 24 24 14 14 (112896)
I0403 13:34:29.196952 32577 net.cpp:156] Memory required for data: 1048562976
I0403 13:34:29.196969 32577 layer_factory.hpp:77] Creating layer inception_4c/5x5
I0403 13:34:29.196991 32577 net.cpp:91] Creating Layer inception_4c/5x5
I0403 13:34:29.197010 32577 net.cpp:425] inception_4c/5x5 <- inception_4c/5x5_reduce
I0403 13:34:29.197046 32577 net.cpp:399] inception_4c/5x5 -> inception_4c/5x5
I0403 13:34:29.198362 32577 net.cpp:141] Setting up inception_4c/5x5
I0403 13:34:29.198392 32577 net.cpp:148] Top shape: 24 64 14 14 (301056)
I0403 13:34:29.198408 32577 net.cpp:156] Memory required for data: 1049767200
I0403 13:34:29.198428 32577 layer_factory.hpp:77] Creating layer inception_4c/relu_5x5
I0403 13:34:29.198451 32577 net.cpp:91] Creating Layer inception_4c/relu_5x5
I0403 13:34:29.198469 32577 net.cpp:425] inception_4c/relu_5x5 <- inception_4c/5x5
I0403 13:34:29.198487 32577 net.cpp:386] inception_4c/relu_5x5 -> inception_4c/5x5 (in-place)
I0403 13:34:29.198801 32577 net.cpp:141] Setting up inception_4c/relu_5x5
I0403 13:34:29.198828 32577 net.cpp:148] Top shape: 24 64 14 14 (301056)
I0403 13:34:29.198844 32577 net.cpp:156] Memory required for data: 1050971424
I0403 13:34:29.198859 32577 layer_factory.hpp:77] Creating layer inception_4c/pool
I0403 13:34:29.198881 32577 net.cpp:91] Creating Layer inception_4c/pool
I0403 13:34:29.198899 32577 net.cpp:425] inception_4c/pool <- inception_4b/output_inception_4b/output_0_split_3
I0403 13:34:29.198918 32577 net.cpp:399] inception_4c/pool -> inception_4c/pool
I0403 13:34:29.198989 32577 net.cpp:141] Setting up inception_4c/pool
I0403 13:34:29.199014 32577 net.cpp:148] Top shape: 24 512 14 14 (2408448)
I0403 13:34:29.199029 32577 net.cpp:156] Memory required for data: 1060605216
I0403 13:34:29.199045 32577 layer_factory.hpp:77] Creating layer inception_4c/pool_proj
I0403 13:34:29.199069 32577 net.cpp:91] Creating Layer inception_4c/pool_proj
I0403 13:34:29.199087 32577 net.cpp:425] inception_4c/pool_proj <- inception_4c/pool
I0403 13:34:29.199108 32577 net.cpp:399] inception_4c/pool_proj -> inception_4c/pool_proj
I0403 13:34:29.200394 32577 net.cpp:141] Setting up inception_4c/pool_proj
I0403 13:34:29.200424 32577 net.cpp:148] Top shape: 24 64 14 14 (301056)
I0403 13:34:29.200455 32577 net.cpp:156] Memory required for data: 1061809440
I0403 13:34:29.200476 32577 layer_factory.hpp:77] Creating layer inception_4c/relu_pool_proj
I0403 13:34:29.200508 32577 net.cpp:91] Creating Layer inception_4c/relu_pool_proj
I0403 13:34:29.200525 32577 net.cpp:425] inception_4c/relu_pool_proj <- inception_4c/pool_proj
I0403 13:34:29.200546 32577 net.cpp:386] inception_4c/relu_pool_proj -> inception_4c/pool_proj (in-place)
I0403 13:34:29.200734 32577 net.cpp:141] Setting up inception_4c/relu_pool_proj
I0403 13:34:29.200760 32577 net.cpp:148] Top shape: 24 64 14 14 (301056)
I0403 13:34:29.200775 32577 net.cpp:156] Memory required for data: 1063013664
I0403 13:34:29.200791 32577 layer_factory.hpp:77] Creating layer inception_4c/output
I0403 13:34:29.200811 32577 net.cpp:91] Creating Layer inception_4c/output
I0403 13:34:29.200829 32577 net.cpp:425] inception_4c/output <- inception_4c/1x1
I0403 13:34:29.200845 32577 net.cpp:425] inception_4c/output <- inception_4c/3x3
I0403 13:34:29.200862 32577 net.cpp:425] inception_4c/output <- inception_4c/5x5
I0403 13:34:29.200880 32577 net.cpp:425] inception_4c/output <- inception_4c/pool_proj
I0403 13:34:29.200896 32577 net.cpp:399] inception_4c/output -> inception_4c/output
I0403 13:34:29.200945 32577 net.cpp:141] Setting up inception_4c/output
I0403 13:34:29.200970 32577 net.cpp:148] Top shape: 24 512 14 14 (2408448)
I0403 13:34:29.200986 32577 net.cpp:156] Memory required for data: 1072647456
I0403 13:34:29.201002 32577 layer_factory.hpp:77] Creating layer inception_4c/output_inception_4c/output_0_split
I0403 13:34:29.201020 32577 net.cpp:91] Creating Layer inception_4c/output_inception_4c/output_0_split
I0403 13:34:29.201035 32577 net.cpp:425] inception_4c/output_inception_4c/output_0_split <- inception_4c/output
I0403 13:34:29.201056 32577 net.cpp:399] inception_4c/output_inception_4c/output_0_split -> inception_4c/output_inception_4c/output_0_split_0
I0403 13:34:29.201079 32577 net.cpp:399] inception_4c/output_inception_4c/output_0_split -> inception_4c/output_inception_4c/output_0_split_1
I0403 13:34:29.201100 32577 net.cpp:399] inception_4c/output_inception_4c/output_0_split -> inception_4c/output_inception_4c/output_0_split_2
I0403 13:34:29.201122 32577 net.cpp:399] inception_4c/output_inception_4c/output_0_split -> inception_4c/output_inception_4c/output_0_split_3
I0403 13:34:29.201220 32577 net.cpp:141] Setting up inception_4c/output_inception_4c/output_0_split
I0403 13:34:29.201246 32577 net.cpp:148] Top shape: 24 512 14 14 (2408448)
I0403 13:34:29.201264 32577 net.cpp:148] Top shape: 24 512 14 14 (2408448)
I0403 13:34:29.201280 32577 net.cpp:148] Top shape: 24 512 14 14 (2408448)
I0403 13:34:29.201297 32577 net.cpp:148] Top shape: 24 512 14 14 (2408448)
I0403 13:34:29.201311 32577 net.cpp:156] Memory required for data: 1111182624
I0403 13:34:29.201326 32577 layer_factory.hpp:77] Creating layer inception_4d/1x1
I0403 13:34:29.201349 32577 net.cpp:91] Creating Layer inception_4d/1x1
I0403 13:34:29.201367 32577 net.cpp:425] inception_4d/1x1 <- inception_4c/output_inception_4c/output_0_split_0
I0403 13:34:29.201386 32577 net.cpp:399] inception_4d/1x1 -> inception_4d/1x1
I0403 13:34:29.202827 32577 net.cpp:141] Setting up inception_4d/1x1
I0403 13:34:29.202858 32577 net.cpp:148] Top shape: 24 112 14 14 (526848)
I0403 13:34:29.202875 32577 net.cpp:156] Memory required for data: 1113290016
I0403 13:34:29.202894 32577 layer_factory.hpp:77] Creating layer inception_4d/relu_1x1
I0403 13:34:29.202913 32577 net.cpp:91] Creating Layer inception_4d/relu_1x1
I0403 13:34:29.202929 32577 net.cpp:425] inception_4d/relu_1x1 <- inception_4d/1x1
I0403 13:34:29.202947 32577 net.cpp:386] inception_4d/relu_1x1 -> inception_4d/1x1 (in-place)
I0403 13:34:29.203140 32577 net.cpp:141] Setting up inception_4d/relu_1x1
I0403 13:34:29.203167 32577 net.cpp:148] Top shape: 24 112 14 14 (526848)
I0403 13:34:29.203191 32577 net.cpp:156] Memory required for data: 1115397408
I0403 13:34:29.203207 32577 layer_factory.hpp:77] Creating layer inception_4d/3x3_reduce
I0403 13:34:29.203245 32577 net.cpp:91] Creating Layer inception_4d/3x3_reduce
I0403 13:34:29.203276 32577 net.cpp:425] inception_4d/3x3_reduce <- inception_4c/output_inception_4c/output_0_split_1
I0403 13:34:29.203299 32577 net.cpp:399] inception_4d/3x3_reduce -> inception_4d/3x3_reduce
I0403 13:34:29.204910 32577 net.cpp:141] Setting up inception_4d/3x3_reduce
I0403 13:34:29.204936 32577 net.cpp:148] Top shape: 24 144 14 14 (677376)
I0403 13:34:29.204952 32577 net.cpp:156] Memory required for data: 1118106912
I0403 13:34:29.204972 32577 layer_factory.hpp:77] Creating layer inception_4d/relu_3x3_reduce
I0403 13:34:29.204993 32577 net.cpp:91] Creating Layer inception_4d/relu_3x3_reduce
I0403 13:34:29.205010 32577 net.cpp:425] inception_4d/relu_3x3_reduce <- inception_4d/3x3_reduce
I0403 13:34:29.205029 32577 net.cpp:386] inception_4d/relu_3x3_reduce -> inception_4d/3x3_reduce (in-place)
I0403 13:34:29.205351 32577 net.cpp:141] Setting up inception_4d/relu_3x3_reduce
I0403 13:34:29.205380 32577 net.cpp:148] Top shape: 24 144 14 14 (677376)
I0403 13:34:29.205396 32577 net.cpp:156] Memory required for data: 1120816416
I0403 13:34:29.205412 32577 layer_factory.hpp:77] Creating layer inception_4d/3x3
I0403 13:34:29.205436 32577 net.cpp:91] Creating Layer inception_4d/3x3
I0403 13:34:29.205456 32577 net.cpp:425] inception_4d/3x3 <- inception_4d/3x3_reduce
I0403 13:34:29.205479 32577 net.cpp:399] inception_4d/3x3 -> inception_4d/3x3
I0403 13:34:29.210036 32577 net.cpp:141] Setting up inception_4d/3x3
I0403 13:34:29.210068 32577 net.cpp:148] Top shape: 24 288 14 14 (1354752)
I0403 13:34:29.210086 32577 net.cpp:156] Memory required for data: 1126235424
I0403 13:34:29.210106 32577 layer_factory.hpp:77] Creating layer inception_4d/relu_3x3
I0403 13:34:29.210126 32577 net.cpp:91] Creating Layer inception_4d/relu_3x3
I0403 13:34:29.210144 32577 net.cpp:425] inception_4d/relu_3x3 <- inception_4d/3x3
I0403 13:34:29.210165 32577 net.cpp:386] inception_4d/relu_3x3 -> inception_4d/3x3 (in-place)
I0403 13:34:29.210367 32577 net.cpp:141] Setting up inception_4d/relu_3x3
I0403 13:34:29.210394 32577 net.cpp:148] Top shape: 24 288 14 14 (1354752)
I0403 13:34:29.210410 32577 net.cpp:156] Memory required for data: 1131654432
I0403 13:34:29.210427 32577 layer_factory.hpp:77] Creating layer inception_4d/5x5_reduce
I0403 13:34:29.210450 32577 net.cpp:91] Creating Layer inception_4d/5x5_reduce
I0403 13:34:29.210469 32577 net.cpp:425] inception_4d/5x5_reduce <- inception_4c/output_inception_4c/output_0_split_2
I0403 13:34:29.210491 32577 net.cpp:399] inception_4d/5x5_reduce -> inception_4d/5x5_reduce
I0403 13:34:29.211719 32577 net.cpp:141] Setting up inception_4d/5x5_reduce
I0403 13:34:29.211753 32577 net.cpp:148] Top shape: 24 32 14 14 (150528)
I0403 13:34:29.211771 32577 net.cpp:156] Memory required for data: 1132256544
I0403 13:34:29.211791 32577 layer_factory.hpp:77] Creating layer inception_4d/relu_5x5_reduce
I0403 13:34:29.211810 32577 net.cpp:91] Creating Layer inception_4d/relu_5x5_reduce
I0403 13:34:29.211828 32577 net.cpp:425] inception_4d/relu_5x5_reduce <- inception_4d/5x5_reduce
I0403 13:34:29.211846 32577 net.cpp:386] inception_4d/relu_5x5_reduce -> inception_4d/5x5_reduce (in-place)
I0403 13:34:29.212047 32577 net.cpp:141] Setting up inception_4d/relu_5x5_reduce
I0403 13:34:29.212074 32577 net.cpp:148] Top shape: 24 32 14 14 (150528)
I0403 13:34:29.212090 32577 net.cpp:156] Memory required for data: 1132858656
I0403 13:34:29.212106 32577 layer_factory.hpp:77] Creating layer inception_4d/5x5
I0403 13:34:29.212131 32577 net.cpp:91] Creating Layer inception_4d/5x5
I0403 13:34:29.212148 32577 net.cpp:425] inception_4d/5x5 <- inception_4d/5x5_reduce
I0403 13:34:29.212172 32577 net.cpp:399] inception_4d/5x5 -> inception_4d/5x5
I0403 13:34:29.213768 32577 net.cpp:141] Setting up inception_4d/5x5
I0403 13:34:29.213798 32577 net.cpp:148] Top shape: 24 64 14 14 (301056)
I0403 13:34:29.213814 32577 net.cpp:156] Memory required for data: 1134062880
I0403 13:34:29.213835 32577 layer_factory.hpp:77] Creating layer inception_4d/relu_5x5
I0403 13:34:29.213872 32577 net.cpp:91] Creating Layer inception_4d/relu_5x5
I0403 13:34:29.213891 32577 net.cpp:425] inception_4d/relu_5x5 <- inception_4d/5x5
I0403 13:34:29.213910 32577 net.cpp:386] inception_4d/relu_5x5 -> inception_4d/5x5 (in-place)
I0403 13:34:29.214233 32577 net.cpp:141] Setting up inception_4d/relu_5x5
I0403 13:34:29.214262 32577 net.cpp:148] Top shape: 24 64 14 14 (301056)
I0403 13:34:29.214277 32577 net.cpp:156] Memory required for data: 1135267104
I0403 13:34:29.214293 32577 layer_factory.hpp:77] Creating layer inception_4d/pool
I0403 13:34:29.214313 32577 net.cpp:91] Creating Layer inception_4d/pool
I0403 13:34:29.214332 32577 net.cpp:425] inception_4d/pool <- inception_4c/output_inception_4c/output_0_split_3
I0403 13:34:29.214352 32577 net.cpp:399] inception_4d/pool -> inception_4d/pool
I0403 13:34:29.214424 32577 net.cpp:141] Setting up inception_4d/pool
I0403 13:34:29.214449 32577 net.cpp:148] Top shape: 24 512 14 14 (2408448)
I0403 13:34:29.214464 32577 net.cpp:156] Memory required for data: 1144900896
I0403 13:34:29.214480 32577 layer_factory.hpp:77] Creating layer inception_4d/pool_proj
I0403 13:34:29.214504 32577 net.cpp:91] Creating Layer inception_4d/pool_proj
I0403 13:34:29.214521 32577 net.cpp:425] inception_4d/pool_proj <- inception_4d/pool
I0403 13:34:29.214545 32577 net.cpp:399] inception_4d/pool_proj -> inception_4d/pool_proj
I0403 13:34:29.216413 32577 net.cpp:141] Setting up inception_4d/pool_proj
I0403 13:34:29.216446 32577 net.cpp:148] Top shape: 24 64 14 14 (301056)
I0403 13:34:29.216464 32577 net.cpp:156] Memory required for data: 1146105120
I0403 13:34:29.216483 32577 layer_factory.hpp:77] Creating layer inception_4d/relu_pool_proj
I0403 13:34:29.216503 32577 net.cpp:91] Creating Layer inception_4d/relu_pool_proj
I0403 13:34:29.216521 32577 net.cpp:425] inception_4d/relu_pool_proj <- inception_4d/pool_proj
I0403 13:34:29.216541 32577 net.cpp:386] inception_4d/relu_pool_proj -> inception_4d/pool_proj (in-place)
I0403 13:34:29.216737 32577 net.cpp:141] Setting up inception_4d/relu_pool_proj
I0403 13:34:29.216764 32577 net.cpp:148] Top shape: 24 64 14 14 (301056)
I0403 13:34:29.216780 32577 net.cpp:156] Memory required for data: 1147309344
I0403 13:34:29.216795 32577 layer_factory.hpp:77] Creating layer inception_4d/output
I0403 13:34:29.216814 32577 net.cpp:91] Creating Layer inception_4d/output
I0403 13:34:29.216831 32577 net.cpp:425] inception_4d/output <- inception_4d/1x1
I0403 13:34:29.216850 32577 net.cpp:425] inception_4d/output <- inception_4d/3x3
I0403 13:34:29.216866 32577 net.cpp:425] inception_4d/output <- inception_4d/5x5
I0403 13:34:29.216882 32577 net.cpp:425] inception_4d/output <- inception_4d/pool_proj
I0403 13:34:29.216903 32577 net.cpp:399] inception_4d/output -> inception_4d/output
I0403 13:34:29.216954 32577 net.cpp:141] Setting up inception_4d/output
I0403 13:34:29.216982 32577 net.cpp:148] Top shape: 24 528 14 14 (2483712)
I0403 13:34:29.217000 32577 net.cpp:156] Memory required for data: 1157244192
I0403 13:34:29.217015 32577 layer_factory.hpp:77] Creating layer inception_4d/output_inception_4d/output_0_split
I0403 13:34:29.217033 32577 net.cpp:91] Creating Layer inception_4d/output_inception_4d/output_0_split
I0403 13:34:29.217051 32577 net.cpp:425] inception_4d/output_inception_4d/output_0_split <- inception_4d/output
I0403 13:34:29.217068 32577 net.cpp:399] inception_4d/output_inception_4d/output_0_split -> inception_4d/output_inception_4d/output_0_split_0
I0403 13:34:29.217093 32577 net.cpp:399] inception_4d/output_inception_4d/output_0_split -> inception_4d/output_inception_4d/output_0_split_1
I0403 13:34:29.217118 32577 net.cpp:399] inception_4d/output_inception_4d/output_0_split -> inception_4d/output_inception_4d/output_0_split_2
I0403 13:34:29.217140 32577 net.cpp:399] inception_4d/output_inception_4d/output_0_split -> inception_4d/output_inception_4d/output_0_split_3
I0403 13:34:29.217162 32577 net.cpp:399] inception_4d/output_inception_4d/output_0_split -> inception_4d/output_inception_4d/output_0_split_4
I0403 13:34:29.217280 32577 net.cpp:141] Setting up inception_4d/output_inception_4d/output_0_split
I0403 13:34:29.217317 32577 net.cpp:148] Top shape: 24 528 14 14 (2483712)
I0403 13:34:29.217339 32577 net.cpp:148] Top shape: 24 528 14 14 (2483712)
I0403 13:34:29.217356 32577 net.cpp:148] Top shape: 24 528 14 14 (2483712)
I0403 13:34:29.217372 32577 net.cpp:148] Top shape: 24 528 14 14 (2483712)
I0403 13:34:29.217388 32577 net.cpp:148] Top shape: 24 528 14 14 (2483712)
I0403 13:34:29.217403 32577 net.cpp:156] Memory required for data: 1206918432
I0403 13:34:29.217418 32577 layer_factory.hpp:77] Creating layer loss2/ave_pool
I0403 13:34:29.217437 32577 net.cpp:91] Creating Layer loss2/ave_pool
I0403 13:34:29.217454 32577 net.cpp:425] loss2/ave_pool <- inception_4d/output_inception_4d/output_0_split_0
I0403 13:34:29.217473 32577 net.cpp:399] loss2/ave_pool -> loss2/ave_pool
I0403 13:34:29.217806 32577 net.cpp:141] Setting up loss2/ave_pool
I0403 13:34:29.217839 32577 net.cpp:148] Top shape: 24 528 4 4 (202752)
I0403 13:34:29.217856 32577 net.cpp:156] Memory required for data: 1207729440
I0403 13:34:29.217874 32577 layer_factory.hpp:77] Creating layer loss2/conv
I0403 13:34:29.217897 32577 net.cpp:91] Creating Layer loss2/conv
I0403 13:34:29.217916 32577 net.cpp:425] loss2/conv <- loss2/ave_pool
I0403 13:34:29.217936 32577 net.cpp:399] loss2/conv -> loss2/conv
I0403 13:34:29.219967 32577 net.cpp:141] Setting up loss2/conv
I0403 13:34:29.219996 32577 net.cpp:148] Top shape: 24 128 4 4 (49152)
I0403 13:34:29.220013 32577 net.cpp:156] Memory required for data: 1207926048
I0403 13:34:29.220032 32577 layer_factory.hpp:77] Creating layer loss2/relu_conv
I0403 13:34:29.220055 32577 net.cpp:91] Creating Layer loss2/relu_conv
I0403 13:34:29.220073 32577 net.cpp:425] loss2/relu_conv <- loss2/conv
I0403 13:34:29.220093 32577 net.cpp:386] loss2/relu_conv -> loss2/conv (in-place)
I0403 13:34:29.220402 32577 net.cpp:141] Setting up loss2/relu_conv
I0403 13:34:29.220429 32577 net.cpp:148] Top shape: 24 128 4 4 (49152)
I0403 13:34:29.220446 32577 net.cpp:156] Memory required for data: 1208122656
I0403 13:34:29.220463 32577 layer_factory.hpp:77] Creating layer loss2/fc
I0403 13:34:29.220485 32577 net.cpp:91] Creating Layer loss2/fc
I0403 13:34:29.220504 32577 net.cpp:425] loss2/fc <- loss2/conv
I0403 13:34:29.220525 32577 net.cpp:399] loss2/fc -> loss2/fc
I0403 13:34:29.238876 32577 net.cpp:141] Setting up loss2/fc
I0403 13:34:29.238941 32577 net.cpp:148] Top shape: 24 1024 (24576)
I0403 13:34:29.238957 32577 net.cpp:156] Memory required for data: 1208220960
I0403 13:34:29.238978 32577 layer_factory.hpp:77] Creating layer loss2/relu_fc
I0403 13:34:29.238998 32577 net.cpp:91] Creating Layer loss2/relu_fc
I0403 13:34:29.239017 32577 net.cpp:425] loss2/relu_fc <- loss2/fc
I0403 13:34:29.239038 32577 net.cpp:386] loss2/relu_fc -> loss2/fc (in-place)
I0403 13:34:29.239406 32577 net.cpp:141] Setting up loss2/relu_fc
I0403 13:34:29.239442 32577 net.cpp:148] Top shape: 24 1024 (24576)
I0403 13:34:29.239459 32577 net.cpp:156] Memory required for data: 1208319264
I0403 13:34:29.239475 32577 layer_factory.hpp:77] Creating layer loss2/drop_fc
I0403 13:34:29.239493 32577 net.cpp:91] Creating Layer loss2/drop_fc
I0403 13:34:29.239511 32577 net.cpp:425] loss2/drop_fc <- loss2/fc
I0403 13:34:29.239531 32577 net.cpp:386] loss2/drop_fc -> loss2/fc (in-place)
I0403 13:34:29.239583 32577 net.cpp:141] Setting up loss2/drop_fc
I0403 13:34:29.239606 32577 net.cpp:148] Top shape: 24 1024 (24576)
I0403 13:34:29.239622 32577 net.cpp:156] Memory required for data: 1208417568
I0403 13:34:29.239636 32577 layer_factory.hpp:77] Creating layer loss2/classifier_plantvillage
I0403 13:34:29.239660 32577 net.cpp:91] Creating Layer loss2/classifier_plantvillage
I0403 13:34:29.239677 32577 net.cpp:425] loss2/classifier_plantvillage <- loss2/fc
I0403 13:34:29.239699 32577 net.cpp:399] loss2/classifier_plantvillage -> loss2/classifier_plantvillage
I0403 13:34:29.240130 32577 net.cpp:141] Setting up loss2/classifier_plantvillage
I0403 13:34:29.240155 32577 net.cpp:148] Top shape: 24 38 (912)
I0403 13:34:29.240205 32577 net.cpp:156] Memory required for data: 1208421216
I0403 13:34:29.240224 32577 layer_factory.hpp:77] Creating layer loss2/classifier_plantvillage_loss2/classifier_plantvillage_0_split
I0403 13:34:29.240244 32577 net.cpp:91] Creating Layer loss2/classifier_plantvillage_loss2/classifier_plantvillage_0_split
I0403 13:34:29.240262 32577 net.cpp:425] loss2/classifier_plantvillage_loss2/classifier_plantvillage_0_split <- loss2/classifier_plantvillage
I0403 13:34:29.240283 32577 net.cpp:399] loss2/classifier_plantvillage_loss2/classifier_plantvillage_0_split -> loss2/classifier_plantvillage_loss2/classifier_plantvillage_0_split_0
I0403 13:34:29.240305 32577 net.cpp:399] loss2/classifier_plantvillage_loss2/classifier_plantvillage_0_split -> loss2/classifier_plantvillage_loss2/classifier_plantvillage_0_split_1
I0403 13:34:29.240329 32577 net.cpp:399] loss2/classifier_plantvillage_loss2/classifier_plantvillage_0_split -> loss2/classifier_plantvillage_loss2/classifier_plantvillage_0_split_2
I0403 13:34:29.240411 32577 net.cpp:141] Setting up loss2/classifier_plantvillage_loss2/classifier_plantvillage_0_split
I0403 13:34:29.240434 32577 net.cpp:148] Top shape: 24 38 (912)
I0403 13:34:29.240452 32577 net.cpp:148] Top shape: 24 38 (912)
I0403 13:34:29.240468 32577 net.cpp:148] Top shape: 24 38 (912)
I0403 13:34:29.240481 32577 net.cpp:156] Memory required for data: 1208432160
I0403 13:34:29.240496 32577 layer_factory.hpp:77] Creating layer inception_4e/1x1
I0403 13:34:29.240520 32577 net.cpp:91] Creating Layer inception_4e/1x1
I0403 13:34:29.240540 32577 net.cpp:425] inception_4e/1x1 <- inception_4d/output_inception_4d/output_0_split_1
I0403 13:34:29.240559 32577 net.cpp:399] inception_4e/1x1 -> inception_4e/1x1
I0403 13:34:29.242499 32577 net.cpp:141] Setting up inception_4e/1x1
I0403 13:34:29.242528 32577 net.cpp:148] Top shape: 24 256 14 14 (1204224)
I0403 13:34:29.242544 32577 net.cpp:156] Memory required for data: 1213249056
I0403 13:34:29.242564 32577 layer_factory.hpp:77] Creating layer inception_4e/relu_1x1
I0403 13:34:29.242596 32577 net.cpp:91] Creating Layer inception_4e/relu_1x1
I0403 13:34:29.242614 32577 net.cpp:425] inception_4e/relu_1x1 <- inception_4e/1x1
I0403 13:34:29.242631 32577 net.cpp:386] inception_4e/relu_1x1 -> inception_4e/1x1 (in-place)
I0403 13:34:29.242928 32577 net.cpp:141] Setting up inception_4e/relu_1x1
I0403 13:34:29.242954 32577 net.cpp:148] Top shape: 24 256 14 14 (1204224)
I0403 13:34:29.242969 32577 net.cpp:156] Memory required for data: 1218065952
I0403 13:34:29.242985 32577 layer_factory.hpp:77] Creating layer inception_4e/3x3_reduce
I0403 13:34:29.243007 32577 net.cpp:91] Creating Layer inception_4e/3x3_reduce
I0403 13:34:29.243024 32577 net.cpp:425] inception_4e/3x3_reduce <- inception_4d/output_inception_4d/output_0_split_2
I0403 13:34:29.243046 32577 net.cpp:399] inception_4e/3x3_reduce -> inception_4e/3x3_reduce
I0403 13:34:29.245270 32577 net.cpp:141] Setting up inception_4e/3x3_reduce
I0403 13:34:29.245299 32577 net.cpp:148] Top shape: 24 160 14 14 (752640)
I0403 13:34:29.245316 32577 net.cpp:156] Memory required for data: 1221076512
I0403 13:34:29.245335 32577 layer_factory.hpp:77] Creating layer inception_4e/relu_3x3_reduce
I0403 13:34:29.245353 32577 net.cpp:91] Creating Layer inception_4e/relu_3x3_reduce
I0403 13:34:29.245369 32577 net.cpp:425] inception_4e/relu_3x3_reduce <- inception_4e/3x3_reduce
I0403 13:34:29.245388 32577 net.cpp:386] inception_4e/relu_3x3_reduce -> inception_4e/3x3_reduce (in-place)
I0403 13:34:29.245581 32577 net.cpp:141] Setting up inception_4e/relu_3x3_reduce
I0403 13:34:29.245607 32577 net.cpp:148] Top shape: 24 160 14 14 (752640)
I0403 13:34:29.245622 32577 net.cpp:156] Memory required for data: 1224087072
I0403 13:34:29.245637 32577 layer_factory.hpp:77] Creating layer inception_4e/3x3
I0403 13:34:29.245661 32577 net.cpp:91] Creating Layer inception_4e/3x3
I0403 13:34:29.245678 32577 net.cpp:425] inception_4e/3x3 <- inception_4e/3x3_reduce
I0403 13:34:29.245699 32577 net.cpp:399] inception_4e/3x3 -> inception_4e/3x3
I0403 13:34:29.250926 32577 net.cpp:141] Setting up inception_4e/3x3
I0403 13:34:29.250967 32577 net.cpp:148] Top shape: 24 320 14 14 (1505280)
I0403 13:34:29.250983 32577 net.cpp:156] Memory required for data: 1230108192
I0403 13:34:29.251001 32577 layer_factory.hpp:77] Creating layer inception_4e/relu_3x3
I0403 13:34:29.251022 32577 net.cpp:91] Creating Layer inception_4e/relu_3x3
I0403 13:34:29.251039 32577 net.cpp:425] inception_4e/relu_3x3 <- inception_4e/3x3
I0403 13:34:29.251057 32577 net.cpp:386] inception_4e/relu_3x3 -> inception_4e/3x3 (in-place)
I0403 13:34:29.251379 32577 net.cpp:141] Setting up inception_4e/relu_3x3
I0403 13:34:29.251407 32577 net.cpp:148] Top shape: 24 320 14 14 (1505280)
I0403 13:34:29.251436 32577 net.cpp:156] Memory required for data: 1236129312
I0403 13:34:29.251454 32577 layer_factory.hpp:77] Creating layer inception_4e/5x5_reduce
I0403 13:34:29.251479 32577 net.cpp:91] Creating Layer inception_4e/5x5_reduce
I0403 13:34:29.251498 32577 net.cpp:425] inception_4e/5x5_reduce <- inception_4d/output_inception_4d/output_0_split_3
I0403 13:34:29.251519 32577 net.cpp:399] inception_4e/5x5_reduce -> inception_4e/5x5_reduce
I0403 13:34:29.252641 32577 net.cpp:141] Setting up inception_4e/5x5_reduce
I0403 13:34:29.252670 32577 net.cpp:148] Top shape: 24 32 14 14 (150528)
I0403 13:34:29.252686 32577 net.cpp:156] Memory required for data: 1236731424
I0403 13:34:29.252703 32577 layer_factory.hpp:77] Creating layer inception_4e/relu_5x5_reduce
I0403 13:34:29.252724 32577 net.cpp:91] Creating Layer inception_4e/relu_5x5_reduce
I0403 13:34:29.252742 32577 net.cpp:425] inception_4e/relu_5x5_reduce <- inception_4e/5x5_reduce
I0403 13:34:29.252758 32577 net.cpp:386] inception_4e/relu_5x5_reduce -> inception_4e/5x5_reduce (in-place)
I0403 13:34:29.253064 32577 net.cpp:141] Setting up inception_4e/relu_5x5_reduce
I0403 13:34:29.253103 32577 net.cpp:148] Top shape: 24 32 14 14 (150528)
I0403 13:34:29.253119 32577 net.cpp:156] Memory required for data: 1237333536
I0403 13:34:29.253135 32577 layer_factory.hpp:77] Creating layer inception_4e/5x5
I0403 13:34:29.253176 32577 net.cpp:91] Creating Layer inception_4e/5x5
I0403 13:34:29.253202 32577 net.cpp:425] inception_4e/5x5 <- inception_4e/5x5_reduce
I0403 13:34:29.253223 32577 net.cpp:399] inception_4e/5x5 -> inception_4e/5x5
I0403 13:34:29.255169 32577 net.cpp:141] Setting up inception_4e/5x5
I0403 13:34:29.255206 32577 net.cpp:148] Top shape: 24 128 14 14 (602112)
I0403 13:34:29.255224 32577 net.cpp:156] Memory required for data: 1239741984
I0403 13:34:29.255244 32577 layer_factory.hpp:77] Creating layer inception_4e/relu_5x5
I0403 13:34:29.255264 32577 net.cpp:91] Creating Layer inception_4e/relu_5x5
I0403 13:34:29.255280 32577 net.cpp:425] inception_4e/relu_5x5 <- inception_4e/5x5
I0403 13:34:29.255301 32577 net.cpp:386] inception_4e/relu_5x5 -> inception_4e/5x5 (in-place)
I0403 13:34:29.255503 32577 net.cpp:141] Setting up inception_4e/relu_5x5
I0403 13:34:29.255529 32577 net.cpp:148] Top shape: 24 128 14 14 (602112)
I0403 13:34:29.255544 32577 net.cpp:156] Memory required for data: 1242150432
I0403 13:34:29.255560 32577 layer_factory.hpp:77] Creating layer inception_4e/pool
I0403 13:34:29.255591 32577 net.cpp:91] Creating Layer inception_4e/pool
I0403 13:34:29.255609 32577 net.cpp:425] inception_4e/pool <- inception_4d/output_inception_4d/output_0_split_4
I0403 13:34:29.255628 32577 net.cpp:399] inception_4e/pool -> inception_4e/pool
I0403 13:34:29.255700 32577 net.cpp:141] Setting up inception_4e/pool
I0403 13:34:29.255724 32577 net.cpp:148] Top shape: 24 528 14 14 (2483712)
I0403 13:34:29.255739 32577 net.cpp:156] Memory required for data: 1252085280
I0403 13:34:29.255753 32577 layer_factory.hpp:77] Creating layer inception_4e/pool_proj
I0403 13:34:29.255777 32577 net.cpp:91] Creating Layer inception_4e/pool_proj
I0403 13:34:29.255795 32577 net.cpp:425] inception_4e/pool_proj <- inception_4e/pool
I0403 13:34:29.255815 32577 net.cpp:399] inception_4e/pool_proj -> inception_4e/pool_proj
I0403 13:34:29.257360 32577 net.cpp:141] Setting up inception_4e/pool_proj
I0403 13:34:29.257401 32577 net.cpp:148] Top shape: 24 128 14 14 (602112)
I0403 13:34:29.257419 32577 net.cpp:156] Memory required for data: 1254493728
I0403 13:34:29.257437 32577 layer_factory.hpp:77] Creating layer inception_4e/relu_pool_proj
I0403 13:34:29.257455 32577 net.cpp:91] Creating Layer inception_4e/relu_pool_proj
I0403 13:34:29.257472 32577 net.cpp:425] inception_4e/relu_pool_proj <- inception_4e/pool_proj
I0403 13:34:29.257493 32577 net.cpp:386] inception_4e/relu_pool_proj -> inception_4e/pool_proj (in-place)
I0403 13:34:29.257787 32577 net.cpp:141] Setting up inception_4e/relu_pool_proj
I0403 13:34:29.257815 32577 net.cpp:148] Top shape: 24 128 14 14 (602112)
I0403 13:34:29.257833 32577 net.cpp:156] Memory required for data: 1256902176
I0403 13:34:29.257848 32577 layer_factory.hpp:77] Creating layer inception_4e/output
I0403 13:34:29.257865 32577 net.cpp:91] Creating Layer inception_4e/output
I0403 13:34:29.257894 32577 net.cpp:425] inception_4e/output <- inception_4e/1x1
I0403 13:34:29.257911 32577 net.cpp:425] inception_4e/output <- inception_4e/3x3
I0403 13:34:29.257930 32577 net.cpp:425] inception_4e/output <- inception_4e/5x5
I0403 13:34:29.257946 32577 net.cpp:425] inception_4e/output <- inception_4e/pool_proj
I0403 13:34:29.257966 32577 net.cpp:399] inception_4e/output -> inception_4e/output
I0403 13:34:29.258018 32577 net.cpp:141] Setting up inception_4e/output
I0403 13:34:29.258043 32577 net.cpp:148] Top shape: 24 832 14 14 (3913728)
I0403 13:34:29.258057 32577 net.cpp:156] Memory required for data: 1272557088
I0403 13:34:29.258072 32577 layer_factory.hpp:77] Creating layer pool4/3x3_s2
I0403 13:34:29.258093 32577 net.cpp:91] Creating Layer pool4/3x3_s2
I0403 13:34:29.258111 32577 net.cpp:425] pool4/3x3_s2 <- inception_4e/output
I0403 13:34:29.258129 32577 net.cpp:399] pool4/3x3_s2 -> pool4/3x3_s2
I0403 13:34:29.258222 32577 net.cpp:141] Setting up pool4/3x3_s2
I0403 13:34:29.258246 32577 net.cpp:148] Top shape: 24 832 7 7 (978432)
I0403 13:34:29.258260 32577 net.cpp:156] Memory required for data: 1276470816
I0403 13:34:29.258276 32577 layer_factory.hpp:77] Creating layer pool4/3x3_s2_pool4/3x3_s2_0_split
I0403 13:34:29.258306 32577 net.cpp:91] Creating Layer pool4/3x3_s2_pool4/3x3_s2_0_split
I0403 13:34:29.258322 32577 net.cpp:425] pool4/3x3_s2_pool4/3x3_s2_0_split <- pool4/3x3_s2
I0403 13:34:29.258342 32577 net.cpp:399] pool4/3x3_s2_pool4/3x3_s2_0_split -> pool4/3x3_s2_pool4/3x3_s2_0_split_0
I0403 13:34:29.258364 32577 net.cpp:399] pool4/3x3_s2_pool4/3x3_s2_0_split -> pool4/3x3_s2_pool4/3x3_s2_0_split_1
I0403 13:34:29.258386 32577 net.cpp:399] pool4/3x3_s2_pool4/3x3_s2_0_split -> pool4/3x3_s2_pool4/3x3_s2_0_split_2
I0403 13:34:29.258409 32577 net.cpp:399] pool4/3x3_s2_pool4/3x3_s2_0_split -> pool4/3x3_s2_pool4/3x3_s2_0_split_3
I0403 13:34:29.258503 32577 net.cpp:141] Setting up pool4/3x3_s2_pool4/3x3_s2_0_split
I0403 13:34:29.258527 32577 net.cpp:148] Top shape: 24 832 7 7 (978432)
I0403 13:34:29.258544 32577 net.cpp:148] Top shape: 24 832 7 7 (978432)
I0403 13:34:29.258560 32577 net.cpp:148] Top shape: 24 832 7 7 (978432)
I0403 13:34:29.258589 32577 net.cpp:148] Top shape: 24 832 7 7 (978432)
I0403 13:34:29.258602 32577 net.cpp:156] Memory required for data: 1292125728
I0403 13:34:29.258617 32577 layer_factory.hpp:77] Creating layer inception_5a/1x1
I0403 13:34:29.258640 32577 net.cpp:91] Creating Layer inception_5a/1x1
I0403 13:34:29.258657 32577 net.cpp:425] inception_5a/1x1 <- pool4/3x3_s2_pool4/3x3_s2_0_split_0
I0403 13:34:29.258678 32577 net.cpp:399] inception_5a/1x1 -> inception_5a/1x1
I0403 13:34:29.261674 32577 net.cpp:141] Setting up inception_5a/1x1
I0403 13:34:29.261701 32577 net.cpp:148] Top shape: 24 256 7 7 (301056)
I0403 13:34:29.261718 32577 net.cpp:156] Memory required for data: 1293329952
I0403 13:34:29.261735 32577 layer_factory.hpp:77] Creating layer inception_5a/relu_1x1
I0403 13:34:29.261754 32577 net.cpp:91] Creating Layer inception_5a/relu_1x1
I0403 13:34:29.261770 32577 net.cpp:425] inception_5a/relu_1x1 <- inception_5a/1x1
I0403 13:34:29.261790 32577 net.cpp:386] inception_5a/relu_1x1 -> inception_5a/1x1 (in-place)
I0403 13:34:29.262101 32577 net.cpp:141] Setting up inception_5a/relu_1x1
I0403 13:34:29.262127 32577 net.cpp:148] Top shape: 24 256 7 7 (301056)
I0403 13:34:29.262143 32577 net.cpp:156] Memory required for data: 1294534176
I0403 13:34:29.262158 32577 layer_factory.hpp:77] Creating layer inception_5a/3x3_reduce
I0403 13:34:29.262209 32577 net.cpp:91] Creating Layer inception_5a/3x3_reduce
I0403 13:34:29.262231 32577 net.cpp:425] inception_5a/3x3_reduce <- pool4/3x3_s2_pool4/3x3_s2_0_split_1
I0403 13:34:29.262264 32577 net.cpp:399] inception_5a/3x3_reduce -> inception_5a/3x3_reduce
I0403 13:34:29.264884 32577 net.cpp:141] Setting up inception_5a/3x3_reduce
I0403 13:34:29.264914 32577 net.cpp:148] Top shape: 24 160 7 7 (188160)
I0403 13:34:29.264930 32577 net.cpp:156] Memory required for data: 1295286816
I0403 13:34:29.264948 32577 layer_factory.hpp:77] Creating layer inception_5a/relu_3x3_reduce
I0403 13:34:29.264968 32577 net.cpp:91] Creating Layer inception_5a/relu_3x3_reduce
I0403 13:34:29.264986 32577 net.cpp:425] inception_5a/relu_3x3_reduce <- inception_5a/3x3_reduce
I0403 13:34:29.265003 32577 net.cpp:386] inception_5a/relu_3x3_reduce -> inception_5a/3x3_reduce (in-place)
I0403 13:34:29.265199 32577 net.cpp:141] Setting up inception_5a/relu_3x3_reduce
I0403 13:34:29.265223 32577 net.cpp:148] Top shape: 24 160 7 7 (188160)
I0403 13:34:29.265239 32577 net.cpp:156] Memory required for data: 1296039456
I0403 13:34:29.265252 32577 layer_factory.hpp:77] Creating layer inception_5a/3x3
I0403 13:34:29.265275 32577 net.cpp:91] Creating Layer inception_5a/3x3
I0403 13:34:29.265295 32577 net.cpp:425] inception_5a/3x3 <- inception_5a/3x3_reduce
I0403 13:34:29.265316 32577 net.cpp:399] inception_5a/3x3 -> inception_5a/3x3
I0403 13:34:29.270532 32577 net.cpp:141] Setting up inception_5a/3x3
I0403 13:34:29.270565 32577 net.cpp:148] Top shape: 24 320 7 7 (376320)
I0403 13:34:29.270582 32577 net.cpp:156] Memory required for data: 1297544736
I0403 13:34:29.270601 32577 layer_factory.hpp:77] Creating layer inception_5a/relu_3x3
I0403 13:34:29.270618 32577 net.cpp:91] Creating Layer inception_5a/relu_3x3
I0403 13:34:29.270634 32577 net.cpp:425] inception_5a/relu_3x3 <- inception_5a/3x3
I0403 13:34:29.270654 32577 net.cpp:386] inception_5a/relu_3x3 -> inception_5a/3x3 (in-place)
I0403 13:34:29.270967 32577 net.cpp:141] Setting up inception_5a/relu_3x3
I0403 13:34:29.270995 32577 net.cpp:148] Top shape: 24 320 7 7 (376320)
I0403 13:34:29.271011 32577 net.cpp:156] Memory required for data: 1299050016
I0403 13:34:29.271028 32577 layer_factory.hpp:77] Creating layer inception_5a/5x5_reduce
I0403 13:34:29.271062 32577 net.cpp:91] Creating Layer inception_5a/5x5_reduce
I0403 13:34:29.271080 32577 net.cpp:425] inception_5a/5x5_reduce <- pool4/3x3_s2_pool4/3x3_s2_0_split_2
I0403 13:34:29.271102 32577 net.cpp:399] inception_5a/5x5_reduce -> inception_5a/5x5_reduce
I0403 13:34:29.272335 32577 net.cpp:141] Setting up inception_5a/5x5_reduce
I0403 13:34:29.272366 32577 net.cpp:148] Top shape: 24 32 7 7 (37632)
I0403 13:34:29.272382 32577 net.cpp:156] Memory required for data: 1299200544
I0403 13:34:29.272403 32577 layer_factory.hpp:77] Creating layer inception_5a/relu_5x5_reduce
I0403 13:34:29.272423 32577 net.cpp:91] Creating Layer inception_5a/relu_5x5_reduce
I0403 13:34:29.272439 32577 net.cpp:425] inception_5a/relu_5x5_reduce <- inception_5a/5x5_reduce
I0403 13:34:29.272460 32577 net.cpp:386] inception_5a/relu_5x5_reduce -> inception_5a/5x5_reduce (in-place)
I0403 13:34:29.272791 32577 net.cpp:141] Setting up inception_5a/relu_5x5_reduce
I0403 13:34:29.272817 32577 net.cpp:148] Top shape: 24 32 7 7 (37632)
I0403 13:34:29.272833 32577 net.cpp:156] Memory required for data: 1299351072
I0403 13:34:29.272848 32577 layer_factory.hpp:77] Creating layer inception_5a/5x5
I0403 13:34:29.272871 32577 net.cpp:91] Creating Layer inception_5a/5x5
I0403 13:34:29.272889 32577 net.cpp:425] inception_5a/5x5 <- inception_5a/5x5_reduce
I0403 13:34:29.272910 32577 net.cpp:399] inception_5a/5x5 -> inception_5a/5x5
I0403 13:34:29.274719 32577 net.cpp:141] Setting up inception_5a/5x5
I0403 13:34:29.274762 32577 net.cpp:148] Top shape: 24 128 7 7 (150528)
I0403 13:34:29.274780 32577 net.cpp:156] Memory required for data: 1299953184
I0403 13:34:29.274797 32577 layer_factory.hpp:77] Creating layer inception_5a/relu_5x5
I0403 13:34:29.274816 32577 net.cpp:91] Creating Layer inception_5a/relu_5x5
I0403 13:34:29.274832 32577 net.cpp:425] inception_5a/relu_5x5 <- inception_5a/5x5
I0403 13:34:29.274852 32577 net.cpp:386] inception_5a/relu_5x5 -> inception_5a/5x5 (in-place)
I0403 13:34:29.275043 32577 net.cpp:141] Setting up inception_5a/relu_5x5
I0403 13:34:29.275068 32577 net.cpp:148] Top shape: 24 128 7 7 (150528)
I0403 13:34:29.275084 32577 net.cpp:156] Memory required for data: 1300555296
I0403 13:34:29.275099 32577 layer_factory.hpp:77] Creating layer inception_5a/pool
I0403 13:34:29.275116 32577 net.cpp:91] Creating Layer inception_5a/pool
I0403 13:34:29.275132 32577 net.cpp:425] inception_5a/pool <- pool4/3x3_s2_pool4/3x3_s2_0_split_3
I0403 13:34:29.275152 32577 net.cpp:399] inception_5a/pool -> inception_5a/pool
I0403 13:34:29.275233 32577 net.cpp:141] Setting up inception_5a/pool
I0403 13:34:29.275257 32577 net.cpp:148] Top shape: 24 832 7 7 (978432)
I0403 13:34:29.275272 32577 net.cpp:156] Memory required for data: 1304469024
I0403 13:34:29.275286 32577 layer_factory.hpp:77] Creating layer inception_5a/pool_proj
I0403 13:34:29.275308 32577 net.cpp:91] Creating Layer inception_5a/pool_proj
I0403 13:34:29.275326 32577 net.cpp:425] inception_5a/pool_proj <- inception_5a/pool
I0403 13:34:29.275346 32577 net.cpp:399] inception_5a/pool_proj -> inception_5a/pool_proj
I0403 13:34:29.277649 32577 net.cpp:141] Setting up inception_5a/pool_proj
I0403 13:34:29.277681 32577 net.cpp:148] Top shape: 24 128 7 7 (150528)
I0403 13:34:29.277698 32577 net.cpp:156] Memory required for data: 1305071136
I0403 13:34:29.277716 32577 layer_factory.hpp:77] Creating layer inception_5a/relu_pool_proj
I0403 13:34:29.277734 32577 net.cpp:91] Creating Layer inception_5a/relu_pool_proj
I0403 13:34:29.277751 32577 net.cpp:425] inception_5a/relu_pool_proj <- inception_5a/pool_proj
I0403 13:34:29.277768 32577 net.cpp:386] inception_5a/relu_pool_proj -> inception_5a/pool_proj (in-place)
I0403 13:34:29.278066 32577 net.cpp:141] Setting up inception_5a/relu_pool_proj
I0403 13:34:29.278095 32577 net.cpp:148] Top shape: 24 128 7 7 (150528)
I0403 13:34:29.278110 32577 net.cpp:156] Memory required for data: 1305673248
I0403 13:34:29.278126 32577 layer_factory.hpp:77] Creating layer inception_5a/output
I0403 13:34:29.278143 32577 net.cpp:91] Creating Layer inception_5a/output
I0403 13:34:29.278158 32577 net.cpp:425] inception_5a/output <- inception_5a/1x1
I0403 13:34:29.278175 32577 net.cpp:425] inception_5a/output <- inception_5a/3x3
I0403 13:34:29.278200 32577 net.cpp:425] inception_5a/output <- inception_5a/5x5
I0403 13:34:29.278229 32577 net.cpp:425] inception_5a/output <- inception_5a/pool_proj
I0403 13:34:29.278247 32577 net.cpp:399] inception_5a/output -> inception_5a/output
I0403 13:34:29.278302 32577 net.cpp:141] Setting up inception_5a/output
I0403 13:34:29.278326 32577 net.cpp:148] Top shape: 24 832 7 7 (978432)
I0403 13:34:29.278342 32577 net.cpp:156] Memory required for data: 1309586976
I0403 13:34:29.278357 32577 layer_factory.hpp:77] Creating layer inception_5a/output_inception_5a/output_0_split
I0403 13:34:29.278378 32577 net.cpp:91] Creating Layer inception_5a/output_inception_5a/output_0_split
I0403 13:34:29.278393 32577 net.cpp:425] inception_5a/output_inception_5a/output_0_split <- inception_5a/output
I0403 13:34:29.278412 32577 net.cpp:399] inception_5a/output_inception_5a/output_0_split -> inception_5a/output_inception_5a/output_0_split_0
I0403 13:34:29.278434 32577 net.cpp:399] inception_5a/output_inception_5a/output_0_split -> inception_5a/output_inception_5a/output_0_split_1
I0403 13:34:29.278455 32577 net.cpp:399] inception_5a/output_inception_5a/output_0_split -> inception_5a/output_inception_5a/output_0_split_2
I0403 13:34:29.278477 32577 net.cpp:399] inception_5a/output_inception_5a/output_0_split -> inception_5a/output_inception_5a/output_0_split_3
I0403 13:34:29.278604 32577 net.cpp:141] Setting up inception_5a/output_inception_5a/output_0_split
I0403 13:34:29.278628 32577 net.cpp:148] Top shape: 24 832 7 7 (978432)
I0403 13:34:29.278645 32577 net.cpp:148] Top shape: 24 832 7 7 (978432)
I0403 13:34:29.278661 32577 net.cpp:148] Top shape: 24 832 7 7 (978432)
I0403 13:34:29.278676 32577 net.cpp:148] Top shape: 24 832 7 7 (978432)
I0403 13:34:29.278690 32577 net.cpp:156] Memory required for data: 1325241888
I0403 13:34:29.278705 32577 layer_factory.hpp:77] Creating layer inception_5b/1x1
I0403 13:34:29.278728 32577 net.cpp:91] Creating Layer inception_5b/1x1
I0403 13:34:29.278745 32577 net.cpp:425] inception_5b/1x1 <- inception_5a/output_inception_5a/output_0_split_0
I0403 13:34:29.278766 32577 net.cpp:399] inception_5b/1x1 -> inception_5b/1x1
I0403 13:34:29.282701 32577 net.cpp:141] Setting up inception_5b/1x1
I0403 13:34:29.282733 32577 net.cpp:148] Top shape: 24 384 7 7 (451584)
I0403 13:34:29.282750 32577 net.cpp:156] Memory required for data: 1327048224
I0403 13:34:29.282769 32577 layer_factory.hpp:77] Creating layer inception_5b/relu_1x1
I0403 13:34:29.282790 32577 net.cpp:91] Creating Layer inception_5b/relu_1x1
I0403 13:34:29.282807 32577 net.cpp:425] inception_5b/relu_1x1 <- inception_5b/1x1
I0403 13:34:29.282825 32577 net.cpp:386] inception_5b/relu_1x1 -> inception_5b/1x1 (in-place)
I0403 13:34:29.283139 32577 net.cpp:141] Setting up inception_5b/relu_1x1
I0403 13:34:29.283165 32577 net.cpp:148] Top shape: 24 384 7 7 (451584)
I0403 13:34:29.283188 32577 net.cpp:156] Memory required for data: 1328854560
I0403 13:34:29.283205 32577 layer_factory.hpp:77] Creating layer inception_5b/3x3_reduce
I0403 13:34:29.283231 32577 net.cpp:91] Creating Layer inception_5b/3x3_reduce
I0403 13:34:29.283260 32577 net.cpp:425] inception_5b/3x3_reduce <- inception_5a/output_inception_5a/output_0_split_1
I0403 13:34:29.283279 32577 net.cpp:399] inception_5b/3x3_reduce -> inception_5b/3x3_reduce
I0403 13:34:29.286010 32577 net.cpp:141] Setting up inception_5b/3x3_reduce
I0403 13:34:29.286041 32577 net.cpp:148] Top shape: 24 192 7 7 (225792)
I0403 13:34:29.286058 32577 net.cpp:156] Memory required for data: 1329757728
I0403 13:34:29.286077 32577 layer_factory.hpp:77] Creating layer inception_5b/relu_3x3_reduce
I0403 13:34:29.286095 32577 net.cpp:91] Creating Layer inception_5b/relu_3x3_reduce
I0403 13:34:29.286110 32577 net.cpp:425] inception_5b/relu_3x3_reduce <- inception_5b/3x3_reduce
I0403 13:34:29.286128 32577 net.cpp:386] inception_5b/relu_3x3_reduce -> inception_5b/3x3_reduce (in-place)
I0403 13:34:29.286345 32577 net.cpp:141] Setting up inception_5b/relu_3x3_reduce
I0403 13:34:29.286370 32577 net.cpp:148] Top shape: 24 192 7 7 (225792)
I0403 13:34:29.286386 32577 net.cpp:156] Memory required for data: 1330660896
I0403 13:34:29.286401 32577 layer_factory.hpp:77] Creating layer inception_5b/3x3
I0403 13:34:29.286425 32577 net.cpp:91] Creating Layer inception_5b/3x3
I0403 13:34:29.286443 32577 net.cpp:425] inception_5b/3x3 <- inception_5b/3x3_reduce
I0403 13:34:29.286466 32577 net.cpp:399] inception_5b/3x3 -> inception_5b/3x3
I0403 13:34:29.293269 32577 net.cpp:141] Setting up inception_5b/3x3
I0403 13:34:29.293303 32577 net.cpp:148] Top shape: 24 384 7 7 (451584)
I0403 13:34:29.293319 32577 net.cpp:156] Memory required for data: 1332467232
I0403 13:34:29.293339 32577 layer_factory.hpp:77] Creating layer inception_5b/relu_3x3
I0403 13:34:29.293359 32577 net.cpp:91] Creating Layer inception_5b/relu_3x3
I0403 13:34:29.293375 32577 net.cpp:425] inception_5b/relu_3x3 <- inception_5b/3x3
I0403 13:34:29.293395 32577 net.cpp:386] inception_5b/relu_3x3 -> inception_5b/3x3 (in-place)
I0403 13:34:29.293696 32577 net.cpp:141] Setting up inception_5b/relu_3x3
I0403 13:34:29.293725 32577 net.cpp:148] Top shape: 24 384 7 7 (451584)
I0403 13:34:29.293741 32577 net.cpp:156] Memory required for data: 1334273568
I0403 13:34:29.293756 32577 layer_factory.hpp:77] Creating layer inception_5b/5x5_reduce
I0403 13:34:29.293795 32577 net.cpp:91] Creating Layer inception_5b/5x5_reduce
I0403 13:34:29.293814 32577 net.cpp:425] inception_5b/5x5_reduce <- inception_5a/output_inception_5a/output_0_split_2
I0403 13:34:29.293833 32577 net.cpp:399] inception_5b/5x5_reduce -> inception_5b/5x5_reduce
I0403 13:34:29.295133 32577 net.cpp:141] Setting up inception_5b/5x5_reduce
I0403 13:34:29.295162 32577 net.cpp:148] Top shape: 24 48 7 7 (56448)
I0403 13:34:29.295186 32577 net.cpp:156] Memory required for data: 1334499360
I0403 13:34:29.295205 32577 layer_factory.hpp:77] Creating layer inception_5b/relu_5x5_reduce
I0403 13:34:29.295223 32577 net.cpp:91] Creating Layer inception_5b/relu_5x5_reduce
I0403 13:34:29.295240 32577 net.cpp:425] inception_5b/relu_5x5_reduce <- inception_5b/5x5_reduce
I0403 13:34:29.295272 32577 net.cpp:386] inception_5b/relu_5x5_reduce -> inception_5b/5x5_reduce (in-place)
I0403 13:34:29.295668 32577 net.cpp:141] Setting up inception_5b/relu_5x5_reduce
I0403 13:34:29.295694 32577 net.cpp:148] Top shape: 24 48 7 7 (56448)
I0403 13:34:29.295709 32577 net.cpp:156] Memory required for data: 1334725152
I0403 13:34:29.295725 32577 layer_factory.hpp:77] Creating layer inception_5b/5x5
I0403 13:34:29.295745 32577 net.cpp:91] Creating Layer inception_5b/5x5
I0403 13:34:29.295763 32577 net.cpp:425] inception_5b/5x5 <- inception_5b/5x5_reduce
I0403 13:34:29.295781 32577 net.cpp:399] inception_5b/5x5 -> inception_5b/5x5
I0403 13:34:29.297883 32577 net.cpp:141] Setting up inception_5b/5x5
I0403 13:34:29.297911 32577 net.cpp:148] Top shape: 24 128 7 7 (150528)
I0403 13:34:29.297927 32577 net.cpp:156] Memory required for data: 1335327264
I0403 13:34:29.297945 32577 layer_factory.hpp:77] Creating layer inception_5b/relu_5x5
I0403 13:34:29.297965 32577 net.cpp:91] Creating Layer inception_5b/relu_5x5
I0403 13:34:29.297981 32577 net.cpp:425] inception_5b/relu_5x5 <- inception_5b/5x5
I0403 13:34:29.298001 32577 net.cpp:386] inception_5b/relu_5x5 -> inception_5b/5x5 (in-place)
I0403 13:34:29.298202 32577 net.cpp:141] Setting up inception_5b/relu_5x5
I0403 13:34:29.298226 32577 net.cpp:148] Top shape: 24 128 7 7 (150528)
I0403 13:34:29.298241 32577 net.cpp:156] Memory required for data: 1335929376
I0403 13:34:29.298256 32577 layer_factory.hpp:77] Creating layer inception_5b/pool
I0403 13:34:29.298277 32577 net.cpp:91] Creating Layer inception_5b/pool
I0403 13:34:29.298295 32577 net.cpp:425] inception_5b/pool <- inception_5a/output_inception_5a/output_0_split_3
I0403 13:34:29.298313 32577 net.cpp:399] inception_5b/pool -> inception_5b/pool
I0403 13:34:29.298388 32577 net.cpp:141] Setting up inception_5b/pool
I0403 13:34:29.298411 32577 net.cpp:148] Top shape: 24 832 7 7 (978432)
I0403 13:34:29.298425 32577 net.cpp:156] Memory required for data: 1339843104
I0403 13:34:29.298440 32577 layer_factory.hpp:77] Creating layer inception_5b/pool_proj
I0403 13:34:29.298462 32577 net.cpp:91] Creating Layer inception_5b/pool_proj
I0403 13:34:29.298480 32577 net.cpp:425] inception_5b/pool_proj <- inception_5b/pool
I0403 13:34:29.298501 32577 net.cpp:399] inception_5b/pool_proj -> inception_5b/pool_proj
I0403 13:34:29.300876 32577 net.cpp:141] Setting up inception_5b/pool_proj
I0403 13:34:29.300909 32577 net.cpp:148] Top shape: 24 128 7 7 (150528)
I0403 13:34:29.300925 32577 net.cpp:156] Memory required for data: 1340445216
I0403 13:34:29.300945 32577 layer_factory.hpp:77] Creating layer inception_5b/relu_pool_proj
I0403 13:34:29.300963 32577 net.cpp:91] Creating Layer inception_5b/relu_pool_proj
I0403 13:34:29.300981 32577 net.cpp:425] inception_5b/relu_pool_proj <- inception_5b/pool_proj
I0403 13:34:29.301002 32577 net.cpp:386] inception_5b/relu_pool_proj -> inception_5b/pool_proj (in-place)
I0403 13:34:29.301311 32577 net.cpp:141] Setting up inception_5b/relu_pool_proj
I0403 13:34:29.301338 32577 net.cpp:148] Top shape: 24 128 7 7 (150528)
I0403 13:34:29.301354 32577 net.cpp:156] Memory required for data: 1341047328
I0403 13:34:29.301369 32577 layer_factory.hpp:77] Creating layer inception_5b/output
I0403 13:34:29.301388 32577 net.cpp:91] Creating Layer inception_5b/output
I0403 13:34:29.301417 32577 net.cpp:425] inception_5b/output <- inception_5b/1x1
I0403 13:34:29.301435 32577 net.cpp:425] inception_5b/output <- inception_5b/3x3
I0403 13:34:29.301451 32577 net.cpp:425] inception_5b/output <- inception_5b/5x5
I0403 13:34:29.301468 32577 net.cpp:425] inception_5b/output <- inception_5b/pool_proj
I0403 13:34:29.301488 32577 net.cpp:399] inception_5b/output -> inception_5b/output
I0403 13:34:29.301542 32577 net.cpp:141] Setting up inception_5b/output
I0403 13:34:29.301565 32577 net.cpp:148] Top shape: 24 1024 7 7 (1204224)
I0403 13:34:29.301579 32577 net.cpp:156] Memory required for data: 1345864224
I0403 13:34:29.301594 32577 layer_factory.hpp:77] Creating layer pool5/7x7_s1
I0403 13:34:29.301615 32577 net.cpp:91] Creating Layer pool5/7x7_s1
I0403 13:34:29.301632 32577 net.cpp:425] pool5/7x7_s1 <- inception_5b/output
I0403 13:34:29.301651 32577 net.cpp:399] pool5/7x7_s1 -> pool5/7x7_s1
I0403 13:34:29.301868 32577 net.cpp:141] Setting up pool5/7x7_s1
I0403 13:34:29.301894 32577 net.cpp:148] Top shape: 24 1024 1 1 (24576)
I0403 13:34:29.301909 32577 net.cpp:156] Memory required for data: 1345962528
I0403 13:34:29.301924 32577 layer_factory.hpp:77] Creating layer pool5/drop_7x7_s1
I0403 13:34:29.301942 32577 net.cpp:91] Creating Layer pool5/drop_7x7_s1
I0403 13:34:29.301959 32577 net.cpp:425] pool5/drop_7x7_s1 <- pool5/7x7_s1
I0403 13:34:29.301977 32577 net.cpp:386] pool5/drop_7x7_s1 -> pool5/7x7_s1 (in-place)
I0403 13:34:29.302028 32577 net.cpp:141] Setting up pool5/drop_7x7_s1
I0403 13:34:29.302052 32577 net.cpp:148] Top shape: 24 1024 1 1 (24576)
I0403 13:34:29.302065 32577 net.cpp:156] Memory required for data: 1346060832
I0403 13:34:29.302080 32577 layer_factory.hpp:77] Creating layer loss3/classifier_plantvillage
I0403 13:34:29.302103 32577 net.cpp:91] Creating Layer loss3/classifier_plantvillage
I0403 13:34:29.302119 32577 net.cpp:425] loss3/classifier_plantvillage <- pool5/7x7_s1
I0403 13:34:29.302142 32577 net.cpp:399] loss3/classifier_plantvillage -> loss3/classifier_plantvillage
I0403 13:34:29.302628 32577 net.cpp:141] Setting up loss3/classifier_plantvillage
I0403 13:34:29.302652 32577 net.cpp:148] Top shape: 24 38 (912)
I0403 13:34:29.302667 32577 net.cpp:156] Memory required for data: 1346064480
I0403 13:34:29.302685 32577 layer_factory.hpp:77] Creating layer loss3/classifier_plantvillage_loss3/classifier_plantvillage_0_split
I0403 13:34:29.302706 32577 net.cpp:91] Creating Layer loss3/classifier_plantvillage_loss3/classifier_plantvillage_0_split
I0403 13:34:29.302723 32577 net.cpp:425] loss3/classifier_plantvillage_loss3/classifier_plantvillage_0_split <- loss3/classifier_plantvillage
I0403 13:34:29.302742 32577 net.cpp:399] loss3/classifier_plantvillage_loss3/classifier_plantvillage_0_split -> loss3/classifier_plantvillage_loss3/classifier_plantvillage_0_split_0
I0403 13:34:29.302762 32577 net.cpp:399] loss3/classifier_plantvillage_loss3/classifier_plantvillage_0_split -> loss3/classifier_plantvillage_loss3/classifier_plantvillage_0_split_1
I0403 13:34:29.302781 32577 net.cpp:399] loss3/classifier_plantvillage_loss3/classifier_plantvillage_0_split -> loss3/classifier_plantvillage_loss3/classifier_plantvillage_0_split_2
I0403 13:34:29.302804 32577 net.cpp:399] loss3/classifier_plantvillage_loss3/classifier_plantvillage_0_split -> loss3/classifier_plantvillage_loss3/classifier_plantvillage_0_split_3
I0403 13:34:29.302909 32577 net.cpp:141] Setting up loss3/classifier_plantvillage_loss3/classifier_plantvillage_0_split
I0403 13:34:29.302932 32577 net.cpp:148] Top shape: 24 38 (912)
I0403 13:34:29.302948 32577 net.cpp:148] Top shape: 24 38 (912)
I0403 13:34:29.302964 32577 net.cpp:148] Top shape: 24 38 (912)
I0403 13:34:29.302978 32577 net.cpp:148] Top shape: 24 38 (912)
I0403 13:34:29.302992 32577 net.cpp:156] Memory required for data: 1346079072
I0403 13:34:29.303007 32577 layer_factory.hpp:77] Creating layer loss1/loss
I0403 13:34:29.303030 32577 net.cpp:91] Creating Layer loss1/loss
I0403 13:34:29.303046 32577 net.cpp:425] loss1/loss <- loss1/classifier_plantvillage_loss1/classifier_plantvillage_0_split_0
I0403 13:34:29.303077 32577 net.cpp:425] loss1/loss <- label_data_1_split_0
…
