…
I0403 13:56:41.757248   542 net.cpp:313] The NetState phase (1) differed from the phase (0) specified by a rule in layer data
I0403 13:56:41.758450   542 net.cpp:49] Initializing net from parameters: 
state {
  phase: TEST
}
layer {
  name: "data"
  type: "Data"
  top: "data"
  top: "label"
  include {
    phase: TEST
  }
  transform_param {
    mirror: false
    crop_size: 224
    mean_file: "/home/mohanty/data/final_dataset/lmdb/grayscale-20-80/mean.binaryproto"
  }
  data_param {
    source: "/home/mohanty/data/final_dataset/lmdb/grayscale-20-80/test_db"
    batch_size: 24
    backend: LMDB
  }
}
layer {
  name: "conv1/7x7_s2"
  type: "Convolution"
  bottom: "data"
  top: "conv1/7x7_s2"
  param {
    lr_mult: 1
    decay_mult: 1
  }
  param {
    lr_mult: 2
    decay_mult: 0
  }
  convolution_param {
    num_output: 64
    pad: 3
    kernel_size: 7
    stride: 2
    weight_filler {
      type: "xavier"
      std: 0.1
    }
    bias_filler {
      type: "constant"
      value: 0.2
    }
  }
}
layer {
  name: "conv1/relu_7x7"
  type: "ReLU"
  bottom: "conv1/7x7_s2"
  top: "conv1/7x7_s2"
}
layer {
  name: "pool1/3x3_s2"
  type: "Pooling"
  bottom: "conv1/7x7_s2"
  top: "pool1/3x3_s2"
  pooling_param {
    pool: MAX
    kernel_size: 3
    stride: 2
  }
}
layer {
  name: "pool1/norm1"
  type: "LRN"
  bottom: "pool1/3x3_s2"
  top: "pool1/norm1"
  lrn_param {
    local_size: 5
    alpha: 0.0001
    beta: 0.75
  }
}
layer {
  name: "conv2/3x3_reduce"
  type: "Convolution"
  bottom: "pool1/norm1"
  top: "conv2/3x3_reduce"
  param {
    lr_mult: 1
    decay_mult: 1
  }
  param {
    lr_mult: 2
    decay_mult: 0
  }
  convolution_param {
    num_output: 64
    kernel_size: 1
    weight_filler {
      type: "xavier"
      std: 0.1
    }
    bias_filler {
      type: "constant"
      value: 0.2
    }
  }
}
layer {
  name: "conv2/relu_3x3_reduce"
  type: "ReLU"
  bottom: "conv2/3x3_reduce"
  top: "conv2/3x3_reduce"
}
layer {
  name: "conv2/3x3"
  type: "Convolution"
  bottom: "conv2/3x3_reduce"
  top: "conv2/3x3"
  param {
    lr_mult: 1
    decay_mult: 1
  }
  param {
    lr_mult: 2
    decay_mult: 0
  }
  convolution_param {
    num_output: 192
    pad: 1
    kernel_size: 3
    weight_filler {
      type: "xavier"
      std: 0.03
    }
    bias_filler {
      type: "constant"
      value: 0.2
    }
  }
}
layer {
  name: "conv2/relu_3x3"
  type: "ReLU"
  bottom: "conv2/3x3"
  top: "conv2/3x3"
}
layer {
  name: "conv2/norm2"
  type: "LRN"
  bottom: "conv2/3x3"
  top: "conv2/norm2"
  lrn_param {
    local_size: 5
    alpha: 0.0001
    beta: 0.75
  }
}
layer {
  name: "pool2/3x3_s2"
  type: "Pooling"
  bottom: "conv2/norm2"
  top: "pool2/3x3_s2"
  pooling_param {
    pool: MAX
    kernel_size: 3
    stride: 2
  }
}
layer {
  name: "inception_3a/1x1"
  type: "Convolution"
  bottom: "pool2/3x3_s2"
  top: "inception_3a/1x1"
  param {
    lr_mult: 1
    decay_mult: 1
  }
  param {
    lr_mult: 2
    decay_mult: 0
  }
  convolution_param {
    num_output: 64
    kernel_size: 1
    weight_filler {
      type: "xavier"
      std: 0.03
    }
    bias_filler {
      type: "constant"
      value: 0.2
    }
  }
}
layer {
  name: "inception_3a/relu_1x1"
  type: "ReLU"
  bottom: "inception_3a/1x1"
  top: "inception_3a/1x1"
}
layer {
  name: "inception_3a/3x3_reduce"
  type: "Convolution"
  bottom: "pool2/3x3_s2"
  top: "inception_3a/3x3_reduce"
  param {
    lr_mult: 1
    decay_mult: 1
  }
  param {
    lr_mult: 2
    decay_mult: 0
  }
  convolution_param {
    num_output: 96
    kernel_size: 1
    weight_filler {
      type: "xavier"
      std: 0.09
    }
    bias_filler {
      type: "constant"
      value: 0.2
    }
  }
}
layer {
  name: "inception_3a/relu_3x3_reduce"
  type: "ReLU"
  bottom: "inception_3a/3x3_reduce"
  top: "inception_3a/3x3_reduce"
}
layer {
  name: "inception_3a/3x3"
  type: "Convolution"
  bottom: "inception_3a/3x3_reduce"
  top: "inception_3a/3x3"
  param {
    lr_mult: 1
    decay_mult: 1
  }
  param {
    lr_mult: 2
    decay_mult: 0
  }
  convolution_param {
    num_output: 128
    pad: 1
    kernel_size: 3
    weight_filler {
      type: "xavier"
      std: 0.03
    }
    bias_filler {
      type: "constant"
      value: 0.2
    }
  }
}
layer {
  name: "inception_3a/relu_3x3"
  type: "ReLU"
  bottom: "inception_3a/3x3"
  top: "inception_3a/3x3"
}
layer {
  name: "inception_3a/5x5_reduce"
  type: "Convolution"
  bottom: "pool2/3x3_s2"
  top: "inception_3a/5x5_reduce"
  param {
    lr_mult: 1
    decay_mult: 1
  }
  param {
    lr_mult: 2
    decay_mult: 0
  }
  convolution_param {
    num_output: 16
    kernel_size: 1
    weight_filler {
      type: "xavier"
      std: 0.2
    }
    bias_filler {
      type: "constant"
      value: 0.2
    }
  }
}
layer {
  name: "inception_3a/relu_5x5_reduce"
  type: "ReLU"
  bottom: "inception_3a/5x5_reduce"
  top: "inception_3a/5x5_reduce"
}
layer {
  name: "inception_3a/5x5"
  type: "Convolution"
  bottom: "inception_3a/5x5_reduce"
  top: "inception_3a/5x5"
  param {
    lr_mult: 1
    decay_mult: 1
  }
  param {
    lr_mult: 2
    decay_mult: 0
  }
  convolution_param {
    num_output: 32
    pad: 2
    kernel_size: 5
    weight_filler {
      type: "xavier"
      std: 0.03
    }
    bias_filler {
      type: "constant"
      value: 0.2
    }
  }
}
layer {
  name: "inception_3a/relu_5x5"
  type: "ReLU"
  bottom: "inception_3a/5x5"
  top: "inception_3a/5x5"
}
layer {
  name: "inception_3a/pool"
  type: "Pooling"
  bottom: "pool2/3x3_s2"
  top: "inception_3a/pool"
  pooling_param {
    pool: MAX
    kernel_size: 3
    stride: 1
    pad: 1
  }
}
layer {
  name: "inception_3a/pool_proj"
  type: "Convolution"
  bottom: "inception_3a/pool"
  top: "inception_3a/pool_proj"
  param {
    lr_mult: 1
    decay_mult: 1
  }
  param {
    lr_mult: 2
    decay_mult: 0
  }
  convolution_param {
    num_output: 32
    kernel_size: 1
    weight_filler {
      type: "xavier"
      std: 0.1
    }
    bias_filler {
      type: "constant"
      value: 0.2
    }
  }
}
layer {
  name: "inception_3a/relu_pool_proj"
  type: "ReLU"
  bottom: "inception_3a/pool_proj"
  top: "inception_3a/pool_proj"
}
layer {
  name: "inception_3a/output"
  type: "Concat"
  bottom: "inception_3a/1x1"
  bottom: "inception_3a/3x3"
  bottom: "inception_3a/5x5"
  bottom: "inception_3a/pool_proj"
  top: "inception_3a/output"
}
layer {
  name: "inception_3b/1x1"
  type: "Convolution"
  bottom: "inception_3a/output"
  top: "inception_3b/1x1"
  param {
    lr_mult: 1
    decay_mult: 1
  }
  param {
    lr_mult: 2
    decay_mult: 0
  }
  convolution_param {
    num_output: 128
    kernel_size: 1
    weight_filler {
      type: "xavier"
      std: 0.03
    }
    bias_filler {
      type: "constant"
      value: 0.2
    }
  }
}
layer {
  name: "inception_3b/relu_1x1"
  type: "ReLU"
  bottom: "inception_3b/1x1"
  top: "inception_3b/1x1"
}
layer {
  name: "inception_3b/3x3_reduce"
  type: "Convolution"
  bottom: "inception_3a/output"
  top: "inception_3b/3x3_reduce"
  param {
    lr_mult: 1
    decay_mult: 1
  }
  param {
    lr_mult: 2
    decay_mult: 0
  }
  convolution_param {
    num_output: 128
    kernel_size: 1
    weight_filler {
      type: "xavier"
      std: 0.09
    }
    bias_filler {
      type: "constant"
      value: 0.2
    }
  }
}
layer {
  name: "inception_3b/relu_3x3_reduce"
  type: "ReLU"
  bottom: "inception_3b/3x3_reduce"
  top: "inception_3b/3x3_reduce"
}
layer {
  name: "inception_3b/3x3"
  type: "Convolution"
  bottom: "inception_3b/3x3_reduce"
  top: "inception_3b/3x3"
  param {
    lr_mult: 1
    decay_mult: 1
  }
  param {
    lr_mult: 2
    decay_mult: 0
  }
  convolution_param {
    num_output: 192
    pad: 1
    kernel_size: 3
    weight_filler {
      type: "xavier"
      std: 0.03
    }
    bias_filler {
      type: "constant"
      value: 0.2
    }
  }
}
layer {
  name: "inception_3b/relu_3x3"
  type: "ReLU"
  bottom: "inception_3b/3x3"
  top: "inception_3b/3x3"
}
layer {
  name: "inception_3b/5x5_reduce"
  type: "Convolution"
  bottom: "inception_3a/output"
  top: "inception_3b/5x5_reduce"
  param {
    lr_mult: 1
    decay_mult: 1
  }
  param {
    lr_mult: 2
    decay_mult: 0
  }
  convolution_param {
    num_output: 32
    kernel_size: 1
    weight_filler {
      type: "xavier"
      std: 0.2
    }
    bias_filler {
      type: "constant"
      value: 0.2
    }
  }
}
layer {
  name: "inception_3b/relu_5x5_reduce"
  type: "ReLU"
  bottom: "inception_3b/5x5_reduce"
  top: "inception_3b/5x5_reduce"
}
layer {
  name: "inception_3b/5x5"
  type: "Convolution"
  bottom: "inception_3b/5x5_reduce"
  top: "inception_3b/5x5"
  param {
    lr_mult: 1
    decay_mult: 1
  }
  param {
    lr_mult: 2
    decay_mult: 0
  }
  convolution_param {
    num_output: 96
    pad: 2
    kernel_size: 5
    weight_filler {
      type: "xavier"
      std: 0.03
    }
    bias_filler {
      type: "constant"
      value: 0.2
    }
  }
}
layer {
  name: "inception_3b/relu_5x5"
  type: "ReLU"
  bottom: "inception_3b/5x5"
  top: "inception_3b/5x5"
}
layer {
  name: "inception_3b/pool"
  type: "Pooling"
  bottom: "inception_3a/output"
  top: "inception_3b/pool"
  pooling_param {
    pool: MAX
    kernel_size: 3
    stride: 1
    pad: 1
  }
}
layer {
  name: "inception_3b/pool_proj"
  type: "Convolution"
  bottom: "inception_3b/pool"
  top: "inception_3b/pool_proj"
  param {
    lr_mult: 1
    decay_mult: 1
  }
  param {
    lr_mult: 2
    decay_mult: 0
  }
  convolution_param {
    num_output: 64
    kernel_size: 1
    weight_filler {
      type: "xavier"
      std: 0.1
    }
    bias_filler {
      type: "constant"
      value: 0.2
    }
  }
}
layer {
  name: "inception_3b/relu_pool_proj"
  type: "ReLU"
  bottom: "inception_3b/pool_proj"
  top: "inception_3b/pool_proj"
}
layer {
  name: "inception_3b/output"
  type: "Concat"
  bottom: "inception_3b/1x1"
  bottom: "inception_3b/3x3"
  bottom: "inception_3b/5x5"
  bottom: "inception_3b/pool_proj"
  top: "inception_3b/output"
}
layer {
  name: "pool3/3x3_s2"
  type: "Pooling"
  bottom: "inception_3b/output"
  top: "pool3/3x3_s2"
  pooling_param {
    pool: MAX
    kernel_size: 3
    stride: 2
  }
}
layer {
  name: "inception_4a/1x1"
  type: "Convolution"
  bottom: "pool3/3x3_s2"
  top: "inception_4a/1x1"
  param {
    lr_mult: 1
    decay_mult: 1
  }
  param {
    lr_mult: 2
    decay_mult: 0
  }
  convolution_param {
    num_output: 192
    kernel_size: 1
    weight_filler {
      type: "xavier"
      std: 0.03
    }
    bias_filler {
      type: "constant"
      value: 0.2
    }
  }
}
layer {
  name: "inception_4a/relu_1x1"
  type: "ReLU"
  bottom: "inception_4a/1x1"
  top: "inception_4a/1x1"
}
layer {
  name: "inception_4a/3x3_reduce"
  type: "Convolution"
  bottom: "pool3/3x3_s2"
  top: "inception_4a/3x3_reduce"
  param {
    lr_mult: 1
    decay_mult: 1
  }
  param {
    lr_mult: 2
    decay_mult: 0
  }
  convolution_param {
    num_output: 96
    kernel_size: 1
    weight_filler {
      type: "xavier"
      std: 0.09
    }
    bias_filler {
      type: "constant"
      value: 0.2
    }
  }
}
layer {
  name: "inception_4a/relu_3x3_reduce"
  type: "ReLU"
  bottom: "inception_4a/3x3_reduce"
  top: "inception_4a/3x3_reduce"
}
layer {
  name: "inception_4a/3x3"
  type: "Convolution"
  bottom: "inception_4a/3x3_reduce"
  top: "inception_4a/3x3"
  param {
    lr_mult: 1
    decay_mult: 1
  }
  param {
    lr_mult: 2
    decay_mult: 0
  }
  convolution_param {
    num_output: 208
    pad: 1
    kernel_size: 3
    weight_filler {
      type: "xavier"
      std: 0.03
    }
    bias_filler {
      type: "constant"
      value: 0.2
    }
  }
}
layer {
  name: "inception_4a/relu_3x3"
  type: "ReLU"
  bottom: "inception_4a/3x3"
  top: "inception_4a/3x3"
}
layer {
  name: "inception_4a/5x5_reduce"
  type: "Convolution"
  bottom: "pool3/3x3_s2"
  top: "inception_4a/5x5_reduce"
  param {
    lr_mult: 1
    decay_mult: 1
  }
  param {
    lr_mult: 2
    decay_mult: 0
  }
  convolution_param {
    num_output: 16
    kernel_size: 1
    weight_filler {
      type: "xavier"
      std: 0.2
    }
    bias_filler {
      type: "constant"
      value: 0.2
    }
  }
}
layer {
  name: "inception_4a/relu_5x5_reduce"
  type: "ReLU"
  bottom: "inception_4a/5x5_reduce"
  top: "inception_4a/5x5_reduce"
}
layer {
  name: "inception_4a/5x5"
  type: "Convolution"
  bottom: "inception_4a/5x5_reduce"
  top: "inception_4a/5x5"
  param {
    lr_mult: 1
    decay_mult: 1
  }
  param {
    lr_mult: 2
    decay_mult: 0
  }
  convolution_param {
    num_output: 48
    pad: 2
    kernel_size: 5
    weight_filler {
      type: "xavier"
      std: 0.03
    }
    bias_filler {
      type: "constant"
      value: 0.2
    }
  }
}
layer {
  name: "inception_4a/relu_5x5"
  type: "ReLU"
  bottom: "inception_4a/5x5"
  top: "inception_4a/5x5"
}
layer {
  name: "inception_4a/pool"
  type: "Pooling"
  bottom: "pool3/3x3_s2"
  top: "inception_4a/pool"
  pooling_param {
    pool: MAX
    kernel_size: 3
    stride: 1
    pad: 1
  }
}
layer {
  name: "inception_4a/pool_proj"
  type: "Convolution"
  bottom: "inception_4a/pool"
  top: "inception_4a/pool_proj"
  param {
    lr_mult: 1
    decay_mult: 1
  }
  param {
    lr_mult: 2
    decay_mult: 0
  }
  convolution_param {
    num_output: 64
    kernel_size: 1
    weight_filler {
      type: "xavier"
      std: 0.1
    }
    bias_filler {
      type: "constant"
      value: 0.2
    }
  }
}
layer {
  name: "inception_4a/relu_pool_proj"
  type: "ReLU"
  bottom: "inception_4a/pool_proj"
  top: "inception_4a/pool_proj"
}
layer {
  name: "inception_4a/output"
  type: "Concat"
  bottom: "inception_4a/1x1"
  bottom: "inception_4a/3x3"
  bottom: "inception_4a/5x5"
  bottom: "inception_4a/pool_proj"
  top: "inception_4a/output"
}
layer {
  name: "loss1/ave_pool"
  type: "Pooling"
  bottom: "inception_4a/output"
  top: "loss1/ave_pool"
  pooling_param {
    pool: AVE
    kernel_size: 5
    stride: 3
  }
}
layer {
  name: "loss1/conv"
  type: "Convolution"
  bottom: "loss1/ave_pool"
  top: "loss1/conv"
  param {
    lr_mult: 1
    decay_mult: 1
  }
  param {
    lr_mult: 2
    decay_mult: 0
  }
  convolution_param {
    num_output: 128
    kernel_size: 1
    weight_filler {
      type: "xavier"
      std: 0.08
    }
    bias_filler {
      type: "constant"
      value: 0.2
    }
  }
}
layer {
  name: "loss1/relu_conv"
  type: "ReLU"
  bottom: "loss1/conv"
  top: "loss1/conv"
}
layer {
  name: "loss1/fc"
  type: "InnerProduct"
  bottom: "loss1/conv"
  top: "loss1/fc"
  param {
    lr_mult: 1
    decay_mult: 1
  }
  param {
    lr_mult: 2
    decay_mult: 0
  }
  inner_product_param {
    num_output: 1024
    weight_filler {
      type: "xavier"
      std: 0.02
    }
    bias_filler {
      type: "constant"
      value: 0.2
    }
  }
}
layer {
  name: "loss1/relu_fc"
  type: "ReLU"
  bottom: "loss1/fc"
  top: "loss1/fc"
}
layer {
  name: "loss1/drop_fc"
  type: "Dropout"
  bottom: "loss1/fc"
  top: "loss1/fc"
  dropout_param {
    dropout_ratio: 0.7
  }
}
layer {
  name: "loss1/classifier_plantvillage"
  type: "InnerProduct"
  bottom: "loss1/fc"
  top: "loss1/classifier_plantvillage"
  param {
    lr_mult: 1
    decay_mult: 1
  }
  param {
    lr_mult: 2
    decay_mult: 0
  }
  inner_product_param {
    num_output: 38
    weight_filler {
      type: "xavier"
      std: 0.0009765625
    }
    bias_filler {
      type: "constant"
      value: 0
    }
  }
}
layer {
  name: "inception_4b/1x1"
  type: "Convolution"
  bottom: "inception_4a/output"
  top: "inception_4b/1x1"
  param {
    lr_mult: 1
    decay_mult: 1
  }
  param {
    lr_mult: 2
    decay_mult: 0
  }
  convolution_param {
    num_output: 160
    kernel_size: 1
    weight_filler {
      type: "xavier"
      std: 0.03
    }
    bias_filler {
      type: "constant"
      value: 0.2
    }
  }
}
layer {
  name: "inception_4b/relu_1x1"
  type: "ReLU"
  bottom: "inception_4b/1x1"
  top: "inception_4b/1x1"
}
layer {
  name: "inception_4b/3x3_reduce"
  type: "Convolution"
  bottom: "inception_4a/output"
  top: "inception_4b/3x3_reduce"
  param {
    lr_mult: 1
    decay_mult: 1
  }
  param {
    lr_mult: 2
    decay_mult: 0
  }
  convolution_param {
    num_output: 112
    kernel_size: 1
    weight_filler {
      type: "xavier"
      std: 0.09
    }
    bias_filler {
      type: "constant"
      value: 0.2
    }
  }
}
layer {
  name: "inception_4b/relu_3x3_reduce"
  type: "ReLU"
  bottom: "inception_4b/3x3_reduce"
  top: "inception_4b/3x3_reduce"
}
layer {
  name: "inception_4b/3x3"
  type: "Convolution"
  bottom: "inception_4b/3x3_reduce"
  top: "inception_4b/3x3"
  param {
    lr_mult: 1
    decay_mult: 1
  }
  param {
    lr_mult: 2
    decay_mult: 0
  }
  convolution_param {
    num_output: 224
    pad: 1
    kernel_size: 3
    weight_filler {
      type: "xavier"
      std: 0.03
    }
    bias_filler {
      type: "constant"
      value: 0.2
    }
  }
}
layer {
  name: "inception_4b/relu_3x3"
  type: "ReLU"
  bottom: "inception_4b/3x3"
  top: "inception_4b/3x3"
}
layer {
  name: "inception_4b/5x5_reduce"
  type: "Convolution"
  bottom: "inception_4a/output"
  top: "inception_4b/5x5_reduce"
  param {
    lr_mult: 1
    decay_mult: 1
  }
  param {
    lr_mult: 2
    decay_mult: 0
  }
  convolution_param {
    num_output: 24
    kernel_size: 1
    weight_filler {
      type: "xavier"
      std: 0.2
    }
    bias_filler {
      type: "constant"
      value: 0.2
    }
  }
}
layer {
  name: "inception_4b/relu_5x5_reduce"
  type: "ReLU"
  bottom: "inception_4b/5x5_reduce"
  top: "inception_4b/5x5_reduce"
}
layer {
  name: "inception_4b/5x5"
  type: "Convolution"
  bottom: "inception_4b/5x5_reduce"
  top: "inception_4b/5x5"
  param {
    lr_mult: 1
    decay_mult: 1
  }
  param {
    lr_mult: 2
    decay_mult: 0
  }
  convolution_param {
    num_output: 64
    pad: 2
    kernel_size: 5
    weight_filler {
      type: "xavier"
      std: 0.03
    }
    bias_filler {
      type: "constant"
      value: 0.2
    }
  }
}
layer {
  name: "inception_4b/relu_5x5"
  type: "ReLU"
  bottom: "inception_4b/5x5"
  top: "inception_4b/5x5"
}
layer {
  name: "inception_4b/pool"
  type: "Pooling"
  bottom: "inception_4a/output"
  top: "inception_4b/pool"
  pooling_param {
    pool: MAX
    kernel_size: 3
    stride: 1
    pad: 1
  }
}
layer {
  name: "inception_4b/pool_proj"
  type: "Convolution"
  bottom: "inception_4b/pool"
  top: "inception_4b/pool_proj"
  param {
    lr_mult: 1
    decay_mult: 1
  }
  param {
    lr_mult: 2
    decay_mult: 0
  }
  convolution_param {
    num_output: 64
    kernel_size: 1
    weight_filler {
      type: "xavier"
      std: 0.1
    }
    bias_filler {
      type: "constant"
      value: 0.2
    }
  }
}
layer {
  name: "inception_4b/relu_pool_proj"
  type: "ReLU"
  bottom: "inception_4b/pool_proj"
  top: "inception_4b/pool_proj"
}
layer {
  name: "inception_4b/output"
  type: "Concat"
  bottom: "inception_4b/1x1"
  bottom: "inception_4b/3x3"
  bottom: "inception_4b/5x5"
  bottom: "inception_4b/pool_proj"
  top: "inception_4b/output"
}
layer {
  name: "inception_4c/1x1"
  type: "Convolution"
  bottom: "inception_4b/output"
  top: "inception_4c/1x1"
  param {
    lr_mult: 1
    decay_mult: 1
  }
  param {
    lr_mult: 2
    decay_mult: 0
  }
  convolution_param {
    num_output: 128
    kernel_size: 1
    weight_filler {
      type: "xavier"
      std: 0.03
    }
    bias_filler {
      type: "constant"
      value: 0.2
    }
  }
}
layer {
  name: "inception_4c/relu_1x1"
  type: "ReLU"
  bottom: "inception_4c/1x1"
  top: "inception_4c/1x1"
}
layer {
  name: "inception_4c/3x3_reduce"
  type: "Convolution"
  bottom: "inception_4b/output"
  top: "inception_4c/3x3_reduce"
  param {
    lr_mult: 1
    decay_mult: 1
  }
  param {
    lr_mult: 2
    decay_mult: 0
  }
  convolution_param {
    num_output: 128
    kernel_size: 1
    weight_filler {
      type: "xavier"
      std: 0.09
    }
    bias_filler {
      type: "constant"
      value: 0.2
    }
  }
}
layer {
  name: "inception_4c/relu_3x3_reduce"
  type: "ReLU"
  bottom: "inception_4c/3x3_reduce"
  top: "inception_4c/3x3_reduce"
}
layer {
  name: "inception_4c/3x3"
  type: "Convolution"
  bottom: "inception_4c/3x3_reduce"
  top: "inception_4c/3x3"
  param {
    lr_mult: 1
    decay_mult: 1
  }
  param {
    lr_mult: 2
    decay_mult: 0
  }
  convolution_param {
    num_output: 256
    pad: 1
    kernel_size: 3
    weight_filler {
      type: "xavier"
      std: 0.03
    }
    bias_filler {
      type: "constant"
      value: 0.2
    }
  }
}
layer {
  name: "inception_4c/relu_3x3"
  type: "ReLU"
  bottom: "inception_4c/3x3"
  top: "inception_4c/3x3"
}
layer {
  name: "inception_4c/5x5_reduce"
  type: "Convolution"
  bottom: "inception_4b/output"
  top: "inception_4c/5x5_reduce"
  param {
    lr_mult: 1
    decay_mult: 1
  }
  param {
    lr_mult: 2
    decay_mult: 0
  }
  convolution_param {
    num_output: 24
    kernel_size: 1
    weight_filler {
      type: "xavier"
      std: 0.2
    }
    bias_filler {
      type: "constant"
      value: 0.2
    }
  }
}
layer {
  name: "inception_4c/relu_5x5_reduce"
  type: "ReLU"
  bottom: "inception_4c/5x5_reduce"
  top: "inception_4c/5x5_reduce"
}
layer {
  name: "inception_4c/5x5"
  type: "Convolution"
  bottom: "inception_4c/5x5_reduce"
  top: "inception_4c/5x5"
  param {
    lr_mult: 1
    decay_mult: 1
  }
  param {
    lr_mult: 2
    decay_mult: 0
  }
  convolution_param {
    num_output: 64
    pad: 2
    kernel_size: 5
    weight_filler {
      type: "xavier"
      std: 0.03
    }
    bias_filler {
      type: "constant"
      value: 0.2
    }
  }
}
layer {
  name: "inception_4c/relu_5x5"
  type: "ReLU"
  bottom: "inception_4c/5x5"
  top: "inception_4c/5x5"
}
layer {
  name: "inception_4c/pool"
  type: "Pooling"
  bottom: "inception_4b/output"
  top: "inception_4c/pool"
  pooling_param {
    pool: MAX
    kernel_size: 3
    stride: 1
    pad: 1
  }
}
layer {
  name: "inception_4c/pool_proj"
  type: "Convolution"
  bottom: "inception_4c/pool"
  top: "inception_4c/pool_proj"
  param {
    lr_mult: 1
    decay_mult: 1
  }
  param {
    lr_mult: 2
    decay_mult: 0
  }
  convolution_param {
    num_output: 64
    kernel_size: 1
    weight_filler {
      type: "xavier"
      std: 0.1
    }
    bias_filler {
      type: "constant"
      value: 0.2
    }
  }
}
layer {
  name: "inception_4c/relu_pool_proj"
  type: "ReLU"
  bottom: "inception_4c/pool_proj"
  top: "inception_4c/pool_proj"
}
layer {
  name: "inception_4c/output"
  type: "Concat"
  bottom: "inception_4c/1x1"
  bottom: "inception_4c/3x3"
  bottom: "inception_4c/5x5"
  bottom: "inception_4c/pool_proj"
  top: "inception_4c/output"
}
layer {
  name: "inception_4d/1x1"
  type: "Convolution"
  bottom: "inception_4c/output"
  top: "inception_4d/1x1"
  param {
    lr_mult: 1
    decay_mult: 1
  }
  param {
    lr_mult: 2
    decay_mult: 0
  }
  convolution_param {
    num_output: 112
    kernel_size: 1
    weight_filler {
      type: "xavier"
      std: 0.03
    }
    bias_filler {
      type: "constant"
      value: 0.2
    }
  }
}
layer {
  name: "inception_4d/relu_1x1"
  type: "ReLU"
  bottom: "inception_4d/1x1"
  top: "inception_4d/1x1"
}
layer {
  name: "inception_4d/3x3_reduce"
  type: "Convolution"
  bottom: "inception_4c/output"
  top: "inception_4d/3x3_reduce"
  param {
    lr_mult: 1
    decay_mult: 1
  }
  param {
    lr_mult: 2
    decay_mult: 0
  }
  convolution_param {
    num_output: 144
    kernel_size: 1
    weight_filler {
      type: "xavier"
      std: 0.09
    }
    bias_filler {
      type: "constant"
      value: 0.2
    }
  }
}
layer {
  name: "inception_4d/relu_3x3_reduce"
  type: "ReLU"
  bottom: "inception_4d/3x3_reduce"
  top: "inception_4d/3x3_reduce"
}
layer {
  name: "inception_4d/3x3"
  type: "Convolution"
  bottom: "inception_4d/3x3_reduce"
  top: "inception_4d/3x3"
  param {
    lr_mult: 1
    decay_mult: 1
  }
  param {
    lr_mult: 2
    decay_mult: 0
  }
  convolution_param {
    num_output: 288
    pad: 1
    kernel_size: 3
    weight_filler {
      type: "xavier"
      std: 0.03
    }
    bias_filler {
      type: "constant"
      value: 0.2
    }
  }
}
layer {
  name: "inception_4d/relu_3x3"
  type: "ReLU"
  bottom: "inception_4d/3x3"
  top: "inception_4d/3x3"
}
layer {
  name: "inception_4d/5x5_reduce"
  type: "Convolution"
  bottom: "inception_4c/output"
  top: "inception_4d/5x5_reduce"
  param {
    lr_mult: 1
    decay_mult: 1
  }
  param {
    lr_mult: 2
    decay_mult: 0
  }
  convolution_param {
    num_output: 32
    kernel_size: 1
    weight_filler {
      type: "xavier"
      std: 0.2
    }
    bias_filler {
      type: "constant"
      value: 0.2
    }
  }
}
layer {
  name: "inception_4d/relu_5x5_reduce"
  type: "ReLU"
  bottom: "inception_4d/5x5_reduce"
  top: "inception_4d/5x5_reduce"
}
layer {
  name: "inception_4d/5x5"
  type: "Convolution"
  bottom: "inception_4d/5x5_reduce"
  top: "inception_4d/5x5"
  param {
    lr_mult: 1
    decay_mult: 1
  }
  param {
    lr_mult: 2
    decay_mult: 0
  }
  convolution_param {
    num_output: 64
    pad: 2
    kernel_size: 5
    weight_filler {
      type: "xavier"
      std: 0.03
    }
    bias_filler {
      type: "constant"
      value: 0.2
    }
  }
}
layer {
  name: "inception_4d/relu_5x5"
  type: "ReLU"
  bottom: "inception_4d/5x5"
  top: "inception_4d/5x5"
}
layer {
  name: "inception_4d/pool"
  type: "Pooling"
  bottom: "inception_4c/output"
  top: "inception_4d/pool"
  pooling_param {
    pool: MAX
    kernel_size: 3
    stride: 1
    pad: 1
  }
}
layer {
  name: "inception_4d/pool_proj"
  type: "Convolution"
  bottom: "inception_4d/pool"
  top: "inception_4d/pool_proj"
  param {
    lr_mult: 1
    decay_mult: 1
  }
  param {
    lr_mult: 2
    decay_mult: 0
  }
  convolution_param {
    num_output: 64
    kernel_size: 1
    weight_filler {
      type: "xavier"
      std: 0.1
    }
    bias_filler {
      type: "constant"
      value: 0.2
    }
  }
}
layer {
  name: "inception_4d/relu_pool_proj"
  type: "ReLU"
  bottom: "inception_4d/pool_proj"
  top: "inception_4d/pool_proj"
}
layer {
  name: "inception_4d/output"
  type: "Concat"
  bottom: "inception_4d/1x1"
  bottom: "inception_4d/3x3"
  bottom: "inception_4d/5x5"
  bottom: "inception_4d/pool_proj"
  top: "inception_4d/output"
}
layer {
  name: "loss2/ave_pool"
  type: "Pooling"
  bottom: "inception_4d/output"
  top: "loss2/ave_pool"
  pooling_param {
    pool: AVE
    kernel_size: 5
    stride: 3
  }
}
layer {
  name: "loss2/conv"
  type: "Convolution"
  bottom: "loss2/ave_pool"
  top: "loss2/conv"
  param {
    lr_mult: 1
    decay_mult: 1
  }
  param {
    lr_mult: 2
    decay_mult: 0
  }
  convolution_param {
    num_output: 128
    kernel_size: 1
    weight_filler {
      type: "xavier"
      std: 0.08
    }
    bias_filler {
      type: "constant"
      value: 0.2
    }
  }
}
layer {
  name: "loss2/relu_conv"
  type: "ReLU"
  bottom: "loss2/conv"
  top: "loss2/conv"
}
layer {
  name: "loss2/fc"
  type: "InnerProduct"
  bottom: "loss2/conv"
  top: "loss2/fc"
  param {
    lr_mult: 1
    decay_mult: 1
  }
  param {
    lr_mult: 2
    decay_mult: 0
  }
  inner_product_param {
    num_output: 1024
    weight_filler {
      type: "xavier"
      std: 0.02
    }
    bias_filler {
      type: "constant"
      value: 0.2
    }
  }
}
layer {
  name: "loss2/relu_fc"
  type: "ReLU"
  bottom: "loss2/fc"
  top: "loss2/fc"
}
layer {
  name: "loss2/drop_fc"
  type: "Dropout"
  bottom: "loss2/fc"
  top: "loss2/fc"
  dropout_param {
    dropout_ratio: 0.7
  }
}
layer {
  name: "loss2/classifier_plantvillage"
  type: "InnerProduct"
  bottom: "loss2/fc"
  top: "loss2/classifier_plantvillage"
  param {
    lr_mult: 1
    decay_mult: 1
  }
  param {
    lr_mult: 2
    decay_mult: 0
  }
  inner_product_param {
    num_output: 38
    weight_filler {
      type: "xavier"
      std: 0.0009765625
    }
    bias_filler {
      type: "constant"
      value: 0
    }
  }
}
layer {
  name: "inception_4e/1x1"
  type: "Convolution"
  bottom: "inception_4d/output"
  top: "inception_4e/1x1"
  param {
    lr_mult: 1
    decay_mult: 1
  }
  param {
    lr_mult: 2
    decay_mult: 0
  }
  convolution_param {
    num_output: 256
    kernel_size: 1
    weight_filler {
      type: "xavier"
      std: 0.03
    }
    bias_filler {
      type: "constant"
      value: 0.2
    }
  }
}
layer {
  name: "inception_4e/relu_1x1"
  type: "ReLU"
  bottom: "inception_4e/1x1"
  top: "inception_4e/1x1"
}
layer {
  name: "inception_4e/3x3_reduce"
  type: "Convolution"
  bottom: "inception_4d/output"
  top: "inception_4e/3x3_reduce"
  param {
    lr_mult: 1
    decay_mult: 1
  }
  param {
    lr_mult: 2
    decay_mult: 0
  }
  convolution_param {
    num_output: 160
    kernel_size: 1
    weight_filler {
      type: "xavier"
      std: 0.09
    }
    bias_filler {
      type: "constant"
      value: 0.2
    }
  }
}
layer {
  name: "inception_4e/relu_3x3_reduce"
  type: "ReLU"
  bottom: "inception_4e/3x3_reduce"
  top: "inception_4e/3x3_reduce"
}
layer {
  name: "inception_4e/3x3"
  type: "Convolution"
  bottom: "inception_4e/3x3_reduce"
  top: "inception_4e/3x3"
  param {
    lr_mult: 1
    decay_mult: 1
  }
  param {
    lr_mult: 2
    decay_mult: 0
  }
  convolution_param {
    num_output: 320
    pad: 1
    kernel_size: 3
    weight_filler {
      type: "xavier"
      std: 0.03
    }
    bias_filler {
      type: "constant"
      value: 0.2
    }
  }
}
layer {
  name: "inception_4e/relu_3x3"
  type: "ReLU"
  bottom: "inception_4e/3x3"
  top: "inception_4e/3x3"
}
layer {
  name: "inception_4e/5x5_reduce"
  type: "Convolution"
  bottom: "inception_4d/output"
  top: "inception_4e/5x5_reduce"
  param {
    lr_mult: 1
    decay_mult: 1
  }
  param {
    lr_mult: 2
    decay_mult: 0
  }
  convolution_param {
    num_output: 32
    kernel_size: 1
    weight_filler {
      type: "xavier"
      std: 0.2
    }
    bias_filler {
      type: "constant"
      value: 0.2
    }
  }
}
layer {
  name: "inception_4e/relu_5x5_reduce"
  type: "ReLU"
  bottom: "inception_4e/5x5_reduce"
  top: "inception_4e/5x5_reduce"
}
layer {
  name: "inception_4e/5x5"
  type: "Convolution"
  bottom: "inception_4e/5x5_reduce"
  top: "inception_4e/
I0403 13:56:41.759713   542 layer_factory.hpp:77] Creating layer data
I0403 13:56:41.760344   542 net.cpp:91] Creating Layer data
I0403 13:56:41.760378   542 net.cpp:399] data -> data
I0403 13:56:41.760431   542 net.cpp:399] data -> label
I0403 13:56:41.760468   542 data_transformer.cpp:25] Loading mean file from: /home/mohanty/data/final_dataset/lmdb/grayscale-20-80/mean.binaryproto
I0403 13:56:41.762922   545 db_lmdb.cpp:38] Opened lmdb /home/mohanty/data/final_dataset/lmdb/grayscale-20-80/test_db
I0403 13:56:41.773903   542 data_layer.cpp:41] output data size: 24,3,224,224
I0403 13:56:41.801471   542 net.cpp:141] Setting up data
I0403 13:56:41.801569   542 net.cpp:148] Top shape: 24 3 224 224 (3612672)
I0403 13:56:41.801592   542 net.cpp:148] Top shape: 24 (24)
I0403 13:56:41.801609   542 net.cpp:156] Memory required for data: 14450784
I0403 13:56:41.801635   542 layer_factory.hpp:77] Creating layer label_data_1_split
I0403 13:56:41.801662   542 net.cpp:91] Creating Layer label_data_1_split
I0403 13:56:41.801681   542 net.cpp:425] label_data_1_split <- label
I0403 13:56:41.801714   542 net.cpp:399] label_data_1_split -> label_data_1_split_0
I0403 13:56:41.801743   542 net.cpp:399] label_data_1_split -> label_data_1_split_1
I0403 13:56:41.801765   542 net.cpp:399] label_data_1_split -> label_data_1_split_2
I0403 13:56:41.801787   542 net.cpp:399] label_data_1_split -> label_data_1_split_3
I0403 13:56:41.801806   542 net.cpp:399] label_data_1_split -> label_data_1_split_4
I0403 13:56:41.801827   542 net.cpp:399] label_data_1_split -> label_data_1_split_5
I0403 13:56:41.801846   542 net.cpp:399] label_data_1_split -> label_data_1_split_6
I0403 13:56:41.801869   542 net.cpp:399] label_data_1_split -> label_data_1_split_7
I0403 13:56:41.801889   542 net.cpp:399] label_data_1_split -> label_data_1_split_8
I0403 13:56:41.801910   542 net.cpp:399] label_data_1_split -> label_data_1_split_9
I0403 13:56:41.802032   542 net.cpp:141] Setting up label_data_1_split
I0403 13:56:41.802058   542 net.cpp:148] Top shape: 24 (24)
I0403 13:56:41.802078   542 net.cpp:148] Top shape: 24 (24)
I0403 13:56:41.802094   542 net.cpp:148] Top shape: 24 (24)
I0403 13:56:41.802111   542 net.cpp:148] Top shape: 24 (24)
I0403 13:56:41.802127   542 net.cpp:148] Top shape: 24 (24)
I0403 13:56:41.802144   542 net.cpp:148] Top shape: 24 (24)
I0403 13:56:41.802160   542 net.cpp:148] Top shape: 24 (24)
I0403 13:56:41.802194   542 net.cpp:148] Top shape: 24 (24)
I0403 13:56:41.802214   542 net.cpp:148] Top shape: 24 (24)
I0403 13:56:41.802232   542 net.cpp:148] Top shape: 24 (24)
I0403 13:56:41.802278   542 net.cpp:156] Memory required for data: 14451744
I0403 13:56:41.802296   542 layer_factory.hpp:77] Creating layer conv1/7x7_s2
I0403 13:56:41.802328   542 net.cpp:91] Creating Layer conv1/7x7_s2
I0403 13:56:41.802347   542 net.cpp:425] conv1/7x7_s2 <- data
I0403 13:56:41.802367   542 net.cpp:399] conv1/7x7_s2 -> conv1/7x7_s2
I0403 13:56:41.946032   542 net.cpp:141] Setting up conv1/7x7_s2
I0403 13:56:41.946126   542 net.cpp:148] Top shape: 24 64 112 112 (19267584)
I0403 13:56:41.946146   542 net.cpp:156] Memory required for data: 91522080
I0403 13:56:41.946182   542 layer_factory.hpp:77] Creating layer conv1/relu_7x7
I0403 13:56:41.946213   542 net.cpp:91] Creating Layer conv1/relu_7x7
I0403 13:56:41.946233   542 net.cpp:425] conv1/relu_7x7 <- conv1/7x7_s2
I0403 13:56:41.946265   542 net.cpp:386] conv1/relu_7x7 -> conv1/7x7_s2 (in-place)
I0403 13:56:41.946560   542 net.cpp:141] Setting up conv1/relu_7x7
I0403 13:56:41.946589   542 net.cpp:148] Top shape: 24 64 112 112 (19267584)
I0403 13:56:41.946605   542 net.cpp:156] Memory required for data: 168592416
I0403 13:56:41.946621   542 layer_factory.hpp:77] Creating layer pool1/3x3_s2
I0403 13:56:41.946647   542 net.cpp:91] Creating Layer pool1/3x3_s2
I0403 13:56:41.946666   542 net.cpp:425] pool1/3x3_s2 <- conv1/7x7_s2
I0403 13:56:41.946686   542 net.cpp:399] pool1/3x3_s2 -> pool1/3x3_s2
I0403 13:56:41.946758   542 net.cpp:141] Setting up pool1/3x3_s2
I0403 13:56:41.946784   542 net.cpp:148] Top shape: 24 64 56 56 (4816896)
I0403 13:56:41.946799   542 net.cpp:156] Memory required for data: 187860000
I0403 13:56:41.946815   542 layer_factory.hpp:77] Creating layer pool1/norm1
I0403 13:56:41.946840   542 net.cpp:91] Creating Layer pool1/norm1
I0403 13:56:41.946857   542 net.cpp:425] pool1/norm1 <- pool1/3x3_s2
I0403 13:56:41.946876   542 net.cpp:399] pool1/norm1 -> pool1/norm1
I0403 13:56:41.947161   542 net.cpp:141] Setting up pool1/norm1
I0403 13:56:41.947195   542 net.cpp:148] Top shape: 24 64 56 56 (4816896)
I0403 13:56:41.947211   542 net.cpp:156] Memory required for data: 207127584
I0403 13:56:41.947227   542 layer_factory.hpp:77] Creating layer conv2/3x3_reduce
I0403 13:56:41.947252   542 net.cpp:91] Creating Layer conv2/3x3_reduce
I0403 13:56:41.947270   542 net.cpp:425] conv2/3x3_reduce <- pool1/norm1
I0403 13:56:41.947289   542 net.cpp:399] conv2/3x3_reduce -> conv2/3x3_reduce
I0403 13:56:41.948681   542 net.cpp:141] Setting up conv2/3x3_reduce
I0403 13:56:41.948712   542 net.cpp:148] Top shape: 24 64 56 56 (4816896)
I0403 13:56:41.948729   542 net.cpp:156] Memory required for data: 226395168
I0403 13:56:41.948751   542 layer_factory.hpp:77] Creating layer conv2/relu_3x3_reduce
I0403 13:56:41.948771   542 net.cpp:91] Creating Layer conv2/relu_3x3_reduce
I0403 13:56:41.948788   542 net.cpp:425] conv2/relu_3x3_reduce <- conv2/3x3_reduce
I0403 13:56:41.948806   542 net.cpp:386] conv2/relu_3x3_reduce -> conv2/3x3_reduce (in-place)
I0403 13:56:41.949060   542 net.cpp:141] Setting up conv2/relu_3x3_reduce
I0403 13:56:41.949090   542 net.cpp:148] Top shape: 24 64 56 56 (4816896)
I0403 13:56:41.949105   542 net.cpp:156] Memory required for data: 245662752
I0403 13:56:41.949121   542 layer_factory.hpp:77] Creating layer conv2/3x3
I0403 13:56:41.949144   542 net.cpp:91] Creating Layer conv2/3x3
I0403 13:56:41.949162   542 net.cpp:425] conv2/3x3 <- conv2/3x3_reduce
I0403 13:56:41.949185   542 net.cpp:399] conv2/3x3 -> conv2/3x3
I0403 13:56:41.951637   542 net.cpp:141] Setting up conv2/3x3
I0403 13:56:41.951668   542 net.cpp:148] Top shape: 24 192 56 56 (14450688)
I0403 13:56:41.951684   542 net.cpp:156] Memory required for data: 303465504
I0403 13:56:41.951706   542 layer_factory.hpp:77] Creating layer conv2/relu_3x3
I0403 13:56:41.951728   542 net.cpp:91] Creating Layer conv2/relu_3x3
I0403 13:56:41.951746   542 net.cpp:425] conv2/relu_3x3 <- conv2/3x3
I0403 13:56:41.951764   542 net.cpp:386] conv2/relu_3x3 -> conv2/3x3 (in-place)
I0403 13:56:41.951948   542 net.cpp:141] Setting up conv2/relu_3x3
I0403 13:56:41.951974   542 net.cpp:148] Top shape: 24 192 56 56 (14450688)
I0403 13:56:41.952023   542 net.cpp:156] Memory required for data: 361268256
I0403 13:56:41.952039   542 layer_factory.hpp:77] Creating layer conv2/norm2
I0403 13:56:41.952057   542 net.cpp:91] Creating Layer conv2/norm2
I0403 13:56:41.952075   542 net.cpp:425] conv2/norm2 <- conv2/3x3
I0403 13:56:41.952095   542 net.cpp:399] conv2/norm2 -> conv2/norm2
I0403 13:56:41.952416   542 net.cpp:141] Setting up conv2/norm2
I0403 13:56:41.952445   542 net.cpp:148] Top shape: 24 192 56 56 (14450688)
I0403 13:56:41.952461   542 net.cpp:156] Memory required for data: 419071008
I0403 13:56:41.952476   542 layer_factory.hpp:77] Creating layer pool2/3x3_s2
I0403 13:56:41.952494   542 net.cpp:91] Creating Layer pool2/3x3_s2
I0403 13:56:41.952510   542 net.cpp:425] pool2/3x3_s2 <- conv2/norm2
I0403 13:56:41.952544   542 net.cpp:399] pool2/3x3_s2 -> pool2/3x3_s2
I0403 13:56:41.952601   542 net.cpp:141] Setting up pool2/3x3_s2
I0403 13:56:41.952625   542 net.cpp:148] Top shape: 24 192 28 28 (3612672)
I0403 13:56:41.952641   542 net.cpp:156] Memory required for data: 433521696
I0403 13:56:41.952658   542 layer_factory.hpp:77] Creating layer pool2/3x3_s2_pool2/3x3_s2_0_split
I0403 13:56:41.952679   542 net.cpp:91] Creating Layer pool2/3x3_s2_pool2/3x3_s2_0_split
I0403 13:56:41.952697   542 net.cpp:425] pool2/3x3_s2_pool2/3x3_s2_0_split <- pool2/3x3_s2
I0403 13:56:41.952718   542 net.cpp:399] pool2/3x3_s2_pool2/3x3_s2_0_split -> pool2/3x3_s2_pool2/3x3_s2_0_split_0
I0403 13:56:41.952740   542 net.cpp:399] pool2/3x3_s2_pool2/3x3_s2_0_split -> pool2/3x3_s2_pool2/3x3_s2_0_split_1
I0403 13:56:41.952762   542 net.cpp:399] pool2/3x3_s2_pool2/3x3_s2_0_split -> pool2/3x3_s2_pool2/3x3_s2_0_split_2
I0403 13:56:41.952782   542 net.cpp:399] pool2/3x3_s2_pool2/3x3_s2_0_split -> pool2/3x3_s2_pool2/3x3_s2_0_split_3
I0403 13:56:41.952865   542 net.cpp:141] Setting up pool2/3x3_s2_pool2/3x3_s2_0_split
I0403 13:56:41.952890   542 net.cpp:148] Top shape: 24 192 28 28 (3612672)
I0403 13:56:41.952909   542 net.cpp:148] Top shape: 24 192 28 28 (3612672)
I0403 13:56:41.952926   542 net.cpp:148] Top shape: 24 192 28 28 (3612672)
I0403 13:56:41.952942   542 net.cpp:148] Top shape: 24 192 28 28 (3612672)
I0403 13:56:41.952956   542 net.cpp:156] Memory required for data: 491324448
I0403 13:56:41.952971   542 layer_factory.hpp:77] Creating layer inception_3a/1x1
I0403 13:56:41.952994   542 net.cpp:91] Creating Layer inception_3a/1x1
I0403 13:56:41.953012   542 net.cpp:425] inception_3a/1x1 <- pool2/3x3_s2_pool2/3x3_s2_0_split_0
I0403 13:56:41.953032   542 net.cpp:399] inception_3a/1x1 -> inception_3a/1x1
I0403 13:56:41.954651   542 net.cpp:141] Setting up inception_3a/1x1
I0403 13:56:41.954682   542 net.cpp:148] Top shape: 24 64 28 28 (1204224)
I0403 13:56:41.954700   542 net.cpp:156] Memory required for data: 496141344
I0403 13:56:41.954720   542 layer_factory.hpp:77] Creating layer inception_3a/relu_1x1
I0403 13:56:41.954742   542 net.cpp:91] Creating Layer inception_3a/relu_1x1
I0403 13:56:41.954771   542 net.cpp:425] inception_3a/relu_1x1 <- inception_3a/1x1
I0403 13:56:41.954789   542 net.cpp:386] inception_3a/relu_1x1 -> inception_3a/1x1 (in-place)
I0403 13:56:41.954965   542 net.cpp:141] Setting up inception_3a/relu_1x1
I0403 13:56:41.954993   542 net.cpp:148] Top shape: 24 64 28 28 (1204224)
I0403 13:56:41.955009   542 net.cpp:156] Memory required for data: 500958240
I0403 13:56:41.955024   542 layer_factory.hpp:77] Creating layer inception_3a/3x3_reduce
I0403 13:56:41.955046   542 net.cpp:91] Creating Layer inception_3a/3x3_reduce
I0403 13:56:41.955065   542 net.cpp:425] inception_3a/3x3_reduce <- pool2/3x3_s2_pool2/3x3_s2_0_split_1
I0403 13:56:41.955085   542 net.cpp:399] inception_3a/3x3_reduce -> inception_3a/3x3_reduce
I0403 13:56:41.956773   542 net.cpp:141] Setting up inception_3a/3x3_reduce
I0403 13:56:41.956804   542 net.cpp:148] Top shape: 24 96 28 28 (1806336)
I0403 13:56:41.956820   542 net.cpp:156] Memory required for data: 508183584
I0403 13:56:41.956840   542 layer_factory.hpp:77] Creating layer inception_3a/relu_3x3_reduce
I0403 13:56:41.956878   542 net.cpp:91] Creating Layer inception_3a/relu_3x3_reduce
I0403 13:56:41.956897   542 net.cpp:425] inception_3a/relu_3x3_reduce <- inception_3a/3x3_reduce
I0403 13:56:41.956918   542 net.cpp:386] inception_3a/relu_3x3_reduce -> inception_3a/3x3_reduce (in-place)
I0403 13:56:41.957098   542 net.cpp:141] Setting up inception_3a/relu_3x3_reduce
I0403 13:56:41.957124   542 net.cpp:148] Top shape: 24 96 28 28 (1806336)
I0403 13:56:41.957140   542 net.cpp:156] Memory required for data: 515408928
I0403 13:56:41.957154   542 layer_factory.hpp:77] Creating layer inception_3a/3x3
I0403 13:56:41.957180   542 net.cpp:91] Creating Layer inception_3a/3x3
I0403 13:56:41.957200   542 net.cpp:425] inception_3a/3x3 <- inception_3a/3x3_reduce
I0403 13:56:41.957221   542 net.cpp:399] inception_3a/3x3 -> inception_3a/3x3
I0403 13:56:41.958885   542 net.cpp:141] Setting up inception_3a/3x3
I0403 13:56:41.958916   542 net.cpp:148] Top shape: 24 128 28 28 (2408448)
I0403 13:56:41.958935   542 net.cpp:156] Memory required for data: 525042720
I0403 13:56:41.958955   542 layer_factory.hpp:77] Creating layer inception_3a/relu_3x3
I0403 13:56:41.958973   542 net.cpp:91] Creating Layer inception_3a/relu_3x3
I0403 13:56:41.958991   542 net.cpp:425] inception_3a/relu_3x3 <- inception_3a/3x3
I0403 13:56:41.959008   542 net.cpp:386] inception_3a/relu_3x3 -> inception_3a/3x3 (in-place)
I0403 13:56:41.959290   542 net.cpp:141] Setting up inception_3a/relu_3x3
I0403 13:56:41.959321   542 net.cpp:148] Top shape: 24 128 28 28 (2408448)
I0403 13:56:41.959337   542 net.cpp:156] Memory required for data: 534676512
I0403 13:56:41.959353   542 layer_factory.hpp:77] Creating layer inception_3a/5x5_reduce
I0403 13:56:41.959374   542 net.cpp:91] Creating Layer inception_3a/5x5_reduce
I0403 13:56:41.959391   542 net.cpp:425] inception_3a/5x5_reduce <- pool2/3x3_s2_pool2/3x3_s2_0_split_2
I0403 13:56:41.959414   542 net.cpp:399] inception_3a/5x5_reduce -> inception_3a/5x5_reduce
I0403 13:56:41.960391   542 net.cpp:141] Setting up inception_3a/5x5_reduce
I0403 13:56:41.960422   542 net.cpp:148] Top shape: 24 16 28 28 (301056)
I0403 13:56:41.960439   542 net.cpp:156] Memory required for data: 535880736
I0403 13:56:41.960459   542 layer_factory.hpp:77] Creating layer inception_3a/relu_5x5_reduce
I0403 13:56:41.960477   542 net.cpp:91] Creating Layer inception_3a/relu_5x5_reduce
I0403 13:56:41.960494   542 net.cpp:425] inception_3a/relu_5x5_reduce <- inception_3a/5x5_reduce
I0403 13:56:41.960511   542 net.cpp:386] inception_3a/relu_5x5_reduce -> inception_3a/5x5_reduce (in-place)
I0403 13:56:41.960819   542 net.cpp:141] Setting up inception_3a/relu_5x5_reduce
I0403 13:56:41.960845   542 net.cpp:148] Top shape: 24 16 28 28 (301056)
I0403 13:56:41.960861   542 net.cpp:156] Memory required for data: 537084960
I0403 13:56:41.960877   542 layer_factory.hpp:77] Creating layer inception_3a/5x5
I0403 13:56:41.960901   542 net.cpp:91] Creating Layer inception_3a/5x5
I0403 13:56:41.960919   542 net.cpp:425] inception_3a/5x5 <- inception_3a/5x5_reduce
I0403 13:56:41.960942   542 net.cpp:399] inception_3a/5x5 -> inception_3a/5x5
I0403 13:56:41.961972   542 net.cpp:141] Setting up inception_3a/5x5
I0403 13:56:41.962000   542 net.cpp:148] Top shape: 24 32 28 28 (602112)
I0403 13:56:41.962016   542 net.cpp:156] Memory required for data: 539493408
I0403 13:56:41.962038   542 layer_factory.hpp:77] Creating layer inception_3a/relu_5x5
I0403 13:56:41.962061   542 net.cpp:91] Creating Layer inception_3a/relu_5x5
I0403 13:56:41.962080   542 net.cpp:425] inception_3a/relu_5x5 <- inception_3a/5x5
I0403 13:56:41.962098   542 net.cpp:386] inception_3a/relu_5x5 -> inception_3a/5x5 (in-place)
I0403 13:56:41.962306   542 net.cpp:141] Setting up inception_3a/relu_5x5
I0403 13:56:41.962337   542 net.cpp:148] Top shape: 24 32 28 28 (602112)
I0403 13:56:41.962353   542 net.cpp:156] Memory required for data: 541901856
I0403 13:56:41.962370   542 layer_factory.hpp:77] Creating layer inception_3a/pool
I0403 13:56:41.962389   542 net.cpp:91] Creating Layer inception_3a/pool
I0403 13:56:41.962421   542 net.cpp:425] inception_3a/pool <- pool2/3x3_s2_pool2/3x3_s2_0_split_3
I0403 13:56:41.962445   542 net.cpp:399] inception_3a/pool -> inception_3a/pool
I0403 13:56:41.962517   542 net.cpp:141] Setting up inception_3a/pool
I0403 13:56:41.962541   542 net.cpp:148] Top shape: 24 192 28 28 (3612672)
I0403 13:56:41.962556   542 net.cpp:156] Memory required for data: 556352544
I0403 13:56:41.962573   542 layer_factory.hpp:77] Creating layer inception_3a/pool_proj
I0403 13:56:41.962595   542 net.cpp:91] Creating Layer inception_3a/pool_proj
I0403 13:56:41.962613   542 net.cpp:425] inception_3a/pool_proj <- inception_3a/pool
I0403 13:56:41.962635   542 net.cpp:399] inception_3a/pool_proj -> inception_3a/pool_proj
I0403 13:56:41.963616   542 net.cpp:141] Setting up inception_3a/pool_proj
I0403 13:56:41.963646   542 net.cpp:148] Top shape: 24 32 28 28 (602112)
I0403 13:56:41.963662   542 net.cpp:156] Memory required for data: 558760992
I0403 13:56:41.963687   542 layer_factory.hpp:77] Creating layer inception_3a/relu_pool_proj
I0403 13:56:41.963708   542 net.cpp:91] Creating Layer inception_3a/relu_pool_proj
I0403 13:56:41.963726   542 net.cpp:425] inception_3a/relu_pool_proj <- inception_3a/pool_proj
I0403 13:56:41.963743   542 net.cpp:386] inception_3a/relu_pool_proj -> inception_3a/pool_proj (in-place)
I0403 13:56:41.964022   542 net.cpp:141] Setting up inception_3a/relu_pool_proj
I0403 13:56:41.964052   542 net.cpp:148] Top shape: 24 32 28 28 (602112)
I0403 13:56:41.964069   542 net.cpp:156] Memory required for data: 561169440
I0403 13:56:41.964085   542 layer_factory.hpp:77] Creating layer inception_3a/output
I0403 13:56:41.964103   542 net.cpp:91] Creating Layer inception_3a/output
I0403 13:56:41.964120   542 net.cpp:425] inception_3a/output <- inception_3a/1x1
I0403 13:56:41.964138   542 net.cpp:425] inception_3a/output <- inception_3a/3x3
I0403 13:56:41.964154   542 net.cpp:425] inception_3a/output <- inception_3a/5x5
I0403 13:56:41.964171   542 net.cpp:425] inception_3a/output <- inception_3a/pool_proj
I0403 13:56:41.964195   542 net.cpp:399] inception_3a/output -> inception_3a/output
I0403 13:56:41.964246   542 net.cpp:141] Setting up inception_3a/output
I0403 13:56:41.964269   542 net.cpp:148] Top shape: 24 256 28 28 (4816896)
I0403 13:56:41.964284   542 net.cpp:156] Memory required for data: 580437024
I0403 13:56:41.964300   542 layer_factory.hpp:77] Creating layer inception_3a/output_inception_3a/output_0_split
I0403 13:56:41.964318   542 net.cpp:91] Creating Layer inception_3a/output_inception_3a/output_0_split
I0403 13:56:41.964334   542 net.cpp:425] inception_3a/output_inception_3a/output_0_split <- inception_3a/output
I0403 13:56:41.964356   542 net.cpp:399] inception_3a/output_inception_3a/output_0_split -> inception_3a/output_inception_3a/output_0_split_0
I0403 13:56:41.964377   542 net.cpp:399] inception_3a/output_inception_3a/output_0_split -> inception_3a/output_inception_3a/output_0_split_1
I0403 13:56:41.964402   542 net.cpp:399] inception_3a/output_inception_3a/output_0_split -> inception_3a/output_inception_3a/output_0_split_2
I0403 13:56:41.964426   542 net.cpp:399] inception_3a/output_inception_3a/output_0_split -> inception_3a/output_inception_3a/output_0_split_3
I0403 13:56:41.964504   542 net.cpp:141] Setting up inception_3a/output_inception_3a/output_0_split
I0403 13:56:41.964529   542 net.cpp:148] Top shape: 24 256 28 28 (4816896)
I0403 13:56:41.964545   542 net.cpp:148] Top shape: 24 256 28 28 (4816896)
I0403 13:56:41.964562   542 net.cpp:148] Top shape: 24 256 28 28 (4816896)
I0403 13:56:41.964578   542 net.cpp:148] Top shape: 24 256 28 28 (4816896)
I0403 13:56:41.964592   542 net.cpp:156] Memory required for data: 657507360
I0403 13:56:41.964607   542 layer_factory.hpp:77] Creating layer inception_3b/1x1
I0403 13:56:41.964630   542 net.cpp:91] Creating Layer inception_3b/1x1
I0403 13:56:41.964648   542 net.cpp:425] inception_3b/1x1 <- inception_3a/output_inception_3a/output_0_split_0
I0403 13:56:41.964670   542 net.cpp:399] inception_3b/1x1 -> inception_3b/1x1
I0403 13:56:41.965844   542 net.cpp:141] Setting up inception_3b/1x1
I0403 13:56:41.965885   542 net.cpp:148] Top shape: 24 128 28 28 (2408448)
I0403 13:56:41.965901   542 net.cpp:156] Memory required for data: 667141152
I0403 13:56:41.965920   542 layer_factory.hpp:77] Creating layer inception_3b/relu_1x1
I0403 13:56:41.965942   542 net.cpp:91] Creating Layer inception_3b/relu_1x1
I0403 13:56:41.965960   542 net.cpp:425] inception_3b/relu_1x1 <- inception_3b/1x1
I0403 13:56:41.965978   542 net.cpp:386] inception_3b/relu_1x1 -> inception_3b/1x1 (in-place)
I0403 13:56:41.966159   542 net.cpp:141] Setting up inception_3b/relu_1x1
I0403 13:56:41.966192   542 net.cpp:148] Top shape: 24 128 28 28 (2408448)
I0403 13:56:41.966209   542 net.cpp:156] Memory required for data: 676774944
I0403 13:56:41.966225   542 layer_factory.hpp:77] Creating layer inception_3b/3x3_reduce
I0403 13:56:41.966248   542 net.cpp:91] Creating Layer inception_3b/3x3_reduce
I0403 13:56:41.966267   542 net.cpp:425] inception_3b/3x3_reduce <- inception_3a/output_inception_3a/output_0_split_1
I0403 13:56:41.966287   542 net.cpp:399] inception_3b/3x3_reduce -> inception_3b/3x3_reduce
I0403 13:56:41.967483   542 net.cpp:141] Setting up inception_3b/3x3_reduce
I0403 13:56:41.967512   542 net.cpp:148] Top shape: 24 128 28 28 (2408448)
I0403 13:56:41.967530   542 net.cpp:156] Memory required for data: 686408736
I0403 13:56:41.967550   542 layer_factory.hpp:77] Creating layer inception_3b/relu_3x3_reduce
I0403 13:56:41.967571   542 net.cpp:91] Creating Layer inception_3b/relu_3x3_reduce
I0403 13:56:41.967589   542 net.cpp:425] inception_3b/relu_3x3_reduce <- inception_3b/3x3_reduce
I0403 13:56:41.967608   542 net.cpp:386] inception_3b/relu_3x3_reduce -> inception_3b/3x3_reduce (in-place)
I0403 13:56:41.967790   542 net.cpp:141] Setting up inception_3b/relu_3x3_reduce
I0403 13:56:41.967818   542 net.cpp:148] Top shape: 24 128 28 28 (2408448)
I0403 13:56:41.967833   542 net.cpp:156] Memory required for data: 696042528
I0403 13:56:41.967850   542 layer_factory.hpp:77] Creating layer inception_3b/3x3
I0403 13:56:41.967878   542 net.cpp:91] Creating Layer inception_3b/3x3
I0403 13:56:41.967897   542 net.cpp:425] inception_3b/3x3 <- inception_3b/3x3_reduce
I0403 13:56:41.967921   542 net.cpp:399] inception_3b/3x3 -> inception_3b/3x3
I0403 13:56:41.970983   542 net.cpp:141] Setting up inception_3b/3x3
I0403 13:56:41.971016   542 net.cpp:148] Top shape: 24 192 28 28 (3612672)
I0403 13:56:41.971034   542 net.cpp:156] Memory required for data: 710493216
I0403 13:56:41.971053   542 layer_factory.hpp:77] Creating layer inception_3b/relu_3x3
I0403 13:56:41.971073   542 net.cpp:91] Creating Layer inception_3b/relu_3x3
I0403 13:56:41.971091   542 net.cpp:425] inception_3b/relu_3x3 <- inception_3b/3x3
I0403 13:56:41.971109   542 net.cpp:386] inception_3b/relu_3x3 -> inception_3b/3x3 (in-place)
I0403 13:56:41.971406   542 net.cpp:141] Setting up inception_3b/relu_3x3
I0403 13:56:41.971437   542 net.cpp:148] Top shape: 24 192 28 28 (3612672)
I0403 13:56:41.971454   542 net.cpp:156] Memory required for data: 724943904
I0403 13:56:41.971472   542 layer_factory.hpp:77] Creating layer inception_3b/5x5_reduce
I0403 13:56:41.971494   542 net.cpp:91] Creating Layer inception_3b/5x5_reduce
I0403 13:56:41.971511   542 net.cpp:425] inception_3b/5x5_reduce <- inception_3a/output_inception_3a/output_0_split_2
I0403 13:56:41.971534   542 net.cpp:399] inception_3b/5x5_reduce -> inception_3b/5x5_reduce
I0403 13:56:41.972581   542 net.cpp:141] Setting up inception_3b/5x5_reduce
I0403 13:56:41.972611   542 net.cpp:148] Top shape: 24 32 28 28 (602112)
I0403 13:56:41.972628   542 net.cpp:156] Memory required for data: 727352352
I0403 13:56:41.972648   542 layer_factory.hpp:77] Creating layer inception_3b/relu_5x5_reduce
I0403 13:56:41.972673   542 net.cpp:91] Creating Layer inception_3b/relu_5x5_reduce
I0403 13:56:41.972692   542 net.cpp:425] inception_3b/relu_5x5_reduce <- inception_3b/5x5_reduce
I0403 13:56:41.972710   542 net.cpp:386] inception_3b/relu_5x5_reduce -> inception_3b/5x5_reduce (in-place)
I0403 13:56:41.972915   542 net.cpp:141] Setting up inception_3b/relu_5x5_reduce
I0403 13:56:41.972946   542 net.cpp:148] Top shape: 24 32 28 28 (602112)
I0403 13:56:41.972962   542 net.cpp:156] Memory required for data: 729760800
I0403 13:56:41.972980   542 layer_factory.hpp:77] Creating layer inception_3b/5x5
I0403 13:56:41.973003   542 net.cpp:91] Creating Layer inception_3b/5x5
I0403 13:56:41.973021   542 net.cpp:425] inception_3b/5x5 <- inception_3b/5x5_reduce
I0403 13:56:41.973042   542 net.cpp:399] inception_3b/5x5 -> inception_3b/5x5
I0403 13:56:41.975122   542 net.cpp:141] Setting up inception_3b/5x5
I0403 13:56:41.975153   542 net.cpp:148] Top shape: 24 96 28 28 (1806336)
I0403 13:56:41.975169   542 net.cpp:156] Memory required for data: 736986144
I0403 13:56:41.975195   542 layer_factory.hpp:77] Creating layer inception_3b/relu_5x5
I0403 13:56:41.975219   542 net.cpp:91] Creating Layer inception_3b/relu_5x5
I0403 13:56:41.975237   542 net.cpp:425] inception_3b/relu_5x5 <- inception_3b/5x5
I0403 13:56:41.975255   542 net.cpp:386] inception_3b/relu_5x5 -> inception_3b/5x5 (in-place)
I0403 13:56:41.975461   542 net.cpp:141] Setting up inception_3b/relu_5x5
I0403 13:56:41.975488   542 net.cpp:148] Top shape: 24 96 28 28 (1806336)
I0403 13:56:41.975505   542 net.cpp:156] Memory required for data: 744211488
I0403 13:56:41.975522   542 layer_factory.hpp:77] Creating layer inception_3b/pool
I0403 13:56:41.975540   542 net.cpp:91] Creating Layer inception_3b/pool
I0403 13:56:41.975558   542 net.cpp:425] inception_3b/pool <- inception_3a/output_inception_3a/output_0_split_3
I0403 13:56:41.975576   542 net.cpp:399] inception_3b/pool -> inception_3b/pool
I0403 13:56:41.975636   542 net.cpp:141] Setting up inception_3b/pool
I0403 13:56:41.975661   542 net.cpp:148] Top shape: 24 256 28 28 (4816896)
I0403 13:56:41.975677   542 net.cpp:156] Memory required for data: 763479072
I0403 13:56:41.975692   542 layer_factory.hpp:77] Creating layer inception_3b/pool_proj
I0403 13:56:41.975718   542 net.cpp:91] Creating Layer inception_3b/pool_proj
I0403 13:56:41.975736   542 net.cpp:425] inception_3b/pool_proj <- inception_3b/pool
I0403 13:56:41.975759   542 net.cpp:399] inception_3b/pool_proj -> inception_3b/pool_proj
I0403 13:56:41.976882   542 net.cpp:141] Setting up inception_3b/pool_proj
I0403 13:56:41.976914   542 net.cpp:148] Top shape: 24 64 28 28 (1204224)
I0403 13:56:41.976933   542 net.cpp:156] Memory required for data: 768295968
I0403 13:56:41.976954   542 layer_factory.hpp:77] Creating layer inception_3b/relu_pool_proj
I0403 13:56:41.976974   542 net.cpp:91] Creating Layer inception_3b/relu_pool_proj
I0403 13:56:41.976990   542 net.cpp:425] inception_3b/relu_pool_proj <- inception_3b/pool_proj
I0403 13:56:41.977011   542 net.cpp:386] inception_3b/relu_pool_proj -> inception_3b/pool_proj (in-place)
I0403 13:56:41.977429   542 net.cpp:141] Setting up inception_3b/relu_pool_proj
I0403 13:56:41.977461   542 net.cpp:148] Top shape: 24 64 28 28 (1204224)
I0403 13:56:41.977479   542 net.cpp:156] Memory required for data: 773112864
I0403 13:56:41.977496   542 layer_factory.hpp:77] Creating layer inception_3b/output
I0403 13:56:41.977515   542 net.cpp:91] Creating Layer inception_3b/output
I0403 13:56:41.977532   542 net.cpp:425] inception_3b/output <- inception_3b/1x1
I0403 13:56:41.977550   542 net.cpp:425] inception_3b/output <- inception_3b/3x3
I0403 13:56:41.977567   542 net.cpp:425] inception_3b/output <- inception_3b/5x5
I0403 13:56:41.977584   542 net.cpp:425] inception_3b/output <- inception_3b/pool_proj
I0403 13:56:41.977603   542 net.cpp:399] inception_3b/output -> inception_3b/output
I0403 13:56:41.977651   542 net.cpp:141] Setting up inception_3b/output
I0403 13:56:41.977675   542 net.cpp:148] Top shape: 24 480 28 28 (9031680)
I0403 13:56:41.977691   542 net.cpp:156] Memory required for data: 809239584
I0403 13:56:41.977707   542 layer_factory.hpp:77] Creating layer pool3/3x3_s2
I0403 13:56:41.977728   542 net.cpp:91] Creating Layer pool3/3x3_s2
I0403 13:56:41.977746   542 net.cpp:425] pool3/3x3_s2 <- inception_3b/output
I0403 13:56:41.977782   542 net.cpp:399] pool3/3x3_s2 -> pool3/3x3_s2
I0403 13:56:41.977845   542 net.cpp:141] Setting up pool3/3x3_s2
I0403 13:56:41.977869   542 net.cpp:148] Top shape: 24 480 14 14 (2257920)
I0403 13:56:41.977885   542 net.cpp:156] Memory required for data: 818271264
I0403 13:56:41.977901   542 layer_factory.hpp:77] Creating layer pool3/3x3_s2_pool3/3x3_s2_0_split
I0403 13:56:41.977919   542 net.cpp:91] Creating Layer pool3/3x3_s2_pool3/3x3_s2_0_split
I0403 13:56:41.977936   542 net.cpp:425] pool3/3x3_s2_pool3/3x3_s2_0_split <- pool3/3x3_s2
I0403 13:56:41.977957   542 net.cpp:399] pool3/3x3_s2_pool3/3x3_s2_0_split -> pool3/3x3_s2_pool3/3x3_s2_0_split_0
I0403 13:56:41.977978   542 net.cpp:399] pool3/3x3_s2_pool3/3x3_s2_0_split -> pool3/3x3_s2_pool3/3x3_s2_0_split_1
I0403 13:56:41.977999   542 net.cpp:399] pool3/3x3_s2_pool3/3x3_s2_0_split -> pool3/3x3_s2_pool3/3x3_s2_0_split_2
I0403 13:56:41.978020   542 net.cpp:399] pool3/3x3_s2_pool3/3x3_s2_0_split -> pool3/3x3_s2_pool3/3x3_s2_0_split_3
I0403 13:56:41.978101   542 net.cpp:141] Setting up pool3/3x3_s2_pool3/3x3_s2_0_split
I0403 13:56:41.978127   542 net.cpp:148] Top shape: 24 480 14 14 (2257920)
I0403 13:56:41.978147   542 net.cpp:148] Top shape: 24 480 14 14 (2257920)
I0403 13:56:41.978163   542 net.cpp:148] Top shape: 24 480 14 14 (2257920)
I0403 13:56:41.978183   542 net.cpp:148] Top shape: 24 480 14 14 (2257920)
I0403 13:56:41.978199   542 net.cpp:156] Memory required for data: 854397984
I0403 13:56:41.978215   542 layer_factory.hpp:77] Creating layer inception_4a/1x1
I0403 13:56:41.978240   542 net.cpp:91] Creating Layer inception_4a/1x1
I0403 13:56:41.978257   542 net.cpp:425] inception_4a/1x1 <- pool3/3x3_s2_pool3/3x3_s2_0_split_0
I0403 13:56:41.978278   542 net.cpp:399] inception_4a/1x1 -> inception_4a/1x1
I0403 13:56:41.979943   542 net.cpp:141] Setting up inception_4a/1x1
I0403 13:56:41.979974   542 net.cpp:148] Top shape: 24 192 14 14 (903168)
I0403 13:56:41.979990   542 net.cpp:156] Memory required for data: 858010656
I0403 13:56:41.980010   542 layer_factory.hpp:77] Creating layer inception_4a/relu_1x1
I0403 13:56:41.980029   542 net.cpp:91] Creating Layer inception_4a/relu_1x1
I0403 13:56:41.980047   542 net.cpp:425] inception_4a/relu_1x1 <- inception_4a/1x1
I0403 13:56:41.980068   542 net.cpp:386] inception_4a/relu_1x1 -> inception_4a/1x1 (in-place)
I0403 13:56:41.980268   542 net.cpp:141] Setting up inception_4a/relu_1x1
I0403 13:56:41.980295   542 net.cpp:148] Top shape: 24 192 14 14 (903168)
I0403 13:56:41.980310   542 net.cpp:156] Memory required for data: 861623328
I0403 13:56:41.980327   542 layer_factory.hpp:77] Creating layer inception_4a/3x3_reduce
I0403 13:56:41.980350   542 net.cpp:91] Creating Layer inception_4a/3x3_reduce
I0403 13:56:41.980370   542 net.cpp:425] inception_4a/3x3_reduce <- pool3/3x3_s2_pool3/3x3_s2_0_split_1
I0403 13:56:41.980391   542 net.cpp:399] inception_4a/3x3_reduce -> inception_4a/3x3_reduce
I0403 13:56:41.981762   542 net.cpp:141] Setting up inception_4a/3x3_reduce
I0403 13:56:41.981792   542 net.cpp:148] Top shape: 24 96 14 14 (451584)
I0403 13:56:41.981809   542 net.cpp:156] Memory required for data: 863429664
I0403 13:56:41.981837   542 layer_factory.hpp:77] Creating layer inception_4a/relu_3x3_reduce
I0403 13:56:41.981858   542 net.cpp:91] Creating Layer inception_4a/relu_3x3_reduce
I0403 13:56:41.981876   542 net.cpp:425] inception_4a/relu_3x3_reduce <- inception_4a/3x3_reduce
I0403 13:56:41.981897   542 net.cpp:386] inception_4a/relu_3x3_reduce -> inception_4a/3x3_reduce (in-place)
I0403 13:56:41.982084   542 net.cpp:141] Setting up inception_4a/relu_3x3_reduce
I0403 13:56:41.982112   542 net.cpp:148] Top shape: 24 96 14 14 (451584)
I0403 13:56:41.982128   542 net.cpp:156] Memory required for data: 865236000
I0403 13:56:41.982144   542 layer_factory.hpp:77] Creating layer inception_4a/3x3
I0403 13:56:41.982168   542 net.cpp:91] Creating Layer inception_4a/3x3
I0403 13:56:41.982192   542 net.cpp:425] inception_4a/3x3 <- inception_4a/3x3_reduce
I0403 13:56:41.982215   542 net.cpp:399] inception_4a/3x3 -> inception_4a/3x3
I0403 13:56:41.985036   542 net.cpp:141] Setting up inception_4a/3x3
I0403 13:56:41.985067   542 net.cpp:148] Top shape: 24 208 14 14 (978432)
I0403 13:56:41.985085   542 net.cpp:156] Memory required for data: 869149728
I0403 13:56:41.985105   542 layer_factory.hpp:77] Creating layer inception_4a/relu_3x3
I0403 13:56:41.985126   542 net.cpp:91] Creating Layer inception_4a/relu_3x3
I0403 13:56:41.985144   542 net.cpp:425] inception_4a/relu_3x3 <- inception_4a/3x3
I0403 13:56:41.985163   542 net.cpp:386] inception_4a/relu_3x3 -> inception_4a/3x3 (in-place)
I0403 13:56:41.985466   542 net.cpp:141] Setting up inception_4a/relu_3x3
I0403 13:56:41.985494   542 net.cpp:148] Top shape: 24 208 14 14 (978432)
I0403 13:56:41.985510   542 net.cpp:156] Memory required for data: 873063456
I0403 13:56:41.985527   542 layer_factory.hpp:77] Creating layer inception_4a/5x5_reduce
I0403 13:56:41.985551   542 net.cpp:91] Creating Layer inception_4a/5x5_reduce
I0403 13:56:41.985570   542 net.cpp:425] inception_4a/5x5_reduce <- pool3/3x3_s2_pool3/3x3_s2_0_split_2
I0403 13:56:41.985594   542 net.cpp:399] inception_4a/5x5_reduce -> inception_4a/5x5_reduce
I0403 13:56:41.986707   542 net.cpp:141] Setting up inception_4a/5x5_reduce
I0403 13:56:41.986735   542 net.cpp:148] Top shape: 24 16 14 14 (75264)
I0403 13:56:41.986752   542 net.cpp:156] Memory required for data: 873364512
I0403 13:56:41.986771   542 layer_factory.hpp:77] Creating layer inception_4a/relu_5x5_reduce
I0403 13:56:41.986793   542 net.cpp:91] Creating Layer inception_4a/relu_5x5_reduce
I0403 13:56:41.986810   542 net.cpp:425] inception_4a/relu_5x5_reduce <- inception_4a/5x5_reduce
I0403 13:56:41.986829   542 net.cpp:386] inception_4a/relu_5x5_reduce -> inception_4a/5x5_reduce (in-place)
I0403 13:56:41.987015   542 net.cpp:141] Setting up inception_4a/relu_5x5_reduce
I0403 13:56:41.987043   542 net.cpp:148] Top shape: 24 16 14 14 (75264)
I0403 13:56:41.987059   542 net.cpp:156] Memory required for data: 873665568
I0403 13:56:41.987076   542 layer_factory.hpp:77] Creating layer inception_4a/5x5
I0403 13:56:41.987098   542 net.cpp:91] Creating Layer inception_4a/5x5
I0403 13:56:41.987117   542 net.cpp:425] inception_4a/5x5 <- inception_4a/5x5_reduce
I0403 13:56:41.987138   542 net.cpp:399] inception_4a/5x5 -> inception_4a/5x5
I0403 13:56:41.988258   542 net.cpp:141] Setting up inception_4a/5x5
I0403 13:56:41.988289   542 net.cpp:148] Top shape: 24 48 14 14 (225792)
I0403 13:56:41.988306   542 net.cpp:156] Memory required for data: 874568736
I0403 13:56:41.988327   542 layer_factory.hpp:77] Creating layer inception_4a/relu_5x5
I0403 13:56:41.988344   542 net.cpp:91] Creating Layer inception_4a/relu_5x5
I0403 13:56:41.988361   542 net.cpp:425] inception_4a/relu_5x5 <- inception_4a/5x5
I0403 13:56:41.988381   542 net.cpp:386] inception_4a/relu_5x5 -> inception_4a/5x5 (in-place)
I0403 13:56:41.988569   542 net.cpp:141] Setting up inception_4a/relu_5x5
I0403 13:56:41.988595   542 net.cpp:148] Top shape: 24 48 14 14 (225792)
I0403 13:56:41.988611   542 net.cpp:156] Memory required for data: 875471904
I0403 13:56:41.988626   542 layer_factory.hpp:77] Creating layer inception_4a/pool
I0403 13:56:41.988646   542 net.cpp:91] Creating Layer inception_4a/pool
I0403 13:56:41.988665   542 net.cpp:425] inception_4a/pool <- pool3/3x3_s2_pool3/3x3_s2_0_split_3
I0403 13:56:41.988683   542 net.cpp:399] inception_4a/pool -> inception_4a/pool
I0403 13:56:41.988746   542 net.cpp:141] Setting up inception_4a/pool
I0403 13:56:41.988770   542 net.cpp:148] Top shape: 24 480 14 14 (2257920)
I0403 13:56:41.988786   542 net.cpp:156] Memory required for data: 884503584
I0403 13:56:41.988801   542 layer_factory.hpp:77] Creating layer inception_4a/pool_proj
I0403 13:56:41.988824   542 net.cpp:91] Creating Layer inception_4a/pool_proj
I0403 13:56:41.988842   542 net.cpp:425] inception_4a/pool_proj <- inception_4a/pool
I0403 13:56:41.988865   542 net.cpp:399] inception_4a/pool_proj -> inception_4a/pool_proj
I0403 13:56:41.990064   542 net.cpp:141] Setting up inception_4a/pool_proj
I0403 13:56:41.990093   542 net.cpp:148] Top shape: 24 64 14 14 (301056)
I0403 13:56:41.990124   542 net.cpp:156] Memory required for data: 885707808
I0403 13:56:41.990144   542 layer_factory.hpp:77] Creating layer inception_4a/relu_pool_proj
I0403 13:56:41.990164   542 net.cpp:91] Creating Layer inception_4a/relu_pool_proj
I0403 13:56:41.990187   542 net.cpp:425] inception_4a/relu_pool_proj <- inception_4a/pool_proj
I0403 13:56:41.990211   542 net.cpp:386] inception_4a/relu_pool_proj -> inception_4a/pool_proj (in-place)
I0403 13:56:41.990502   542 net.cpp:141] Setting up inception_4a/relu_pool_proj
I0403 13:56:41.990531   542 net.cpp:148] Top shape: 24 64 14 14 (301056)
I0403 13:56:41.990546   542 net.cpp:156] Memory required for data: 886912032
I0403 13:56:41.990562   542 layer_factory.hpp:77] Creating layer inception_4a/output
I0403 13:56:41.990581   542 net.cpp:91] Creating Layer inception_4a/output
I0403 13:56:41.990597   542 net.cpp:425] inception_4a/output <- inception_4a/1x1
I0403 13:56:41.990613   542 net.cpp:425] inception_4a/output <- inception_4a/3x3
I0403 13:56:41.990630   542 net.cpp:425] inception_4a/output <- inception_4a/5x5
I0403 13:56:41.990648   542 net.cpp:425] inception_4a/output <- inception_4a/pool_proj
I0403 13:56:41.990667   542 net.cpp:399] inception_4a/output -> inception_4a/output
I0403 13:56:41.990715   542 net.cpp:141] Setting up inception_4a/output
I0403 13:56:41.990741   542 net.cpp:148] Top shape: 24 512 14 14 (2408448)
I0403 13:56:41.990757   542 net.cpp:156] Memory required for data: 896545824
I0403 13:56:41.990772   542 layer_factory.hpp:77] Creating layer inception_4a/output_inception_4a/output_0_split
I0403 13:56:41.990790   542 net.cpp:91] Creating Layer inception_4a/output_inception_4a/output_0_split
I0403 13:56:41.990806   542 net.cpp:425] inception_4a/output_inception_4a/output_0_split <- inception_4a/output
I0403 13:56:41.990825   542 net.cpp:399] inception_4a/output_inception_4a/output_0_split -> inception_4a/output_inception_4a/output_0_split_0
I0403 13:56:41.990849   542 net.cpp:399] inception_4a/output_inception_4a/output_0_split -> inception_4a/output_inception_4a/output_0_split_1
I0403 13:56:41.990871   542 net.cpp:399] inception_4a/output_inception_4a/output_0_split -> inception_4a/output_inception_4a/output_0_split_2
I0403 13:56:41.990892   542 net.cpp:399] inception_4a/output_inception_4a/output_0_split -> inception_4a/output_inception_4a/output_0_split_3
I0403 13:56:41.990912   542 net.cpp:399] inception_4a/output_inception_4a/output_0_split -> inception_4a/output_inception_4a/output_0_split_4
I0403 13:56:41.991008   542 net.cpp:141] Setting up inception_4a/output_inception_4a/output_0_split
I0403 13:56:41.991034   542 net.cpp:148] Top shape: 24 512 14 14 (2408448)
I0403 13:56:41.991050   542 net.cpp:148] Top shape: 24 512 14 14 (2408448)
I0403 13:56:41.991066   542 net.cpp:148] Top shape: 24 512 14 14 (2408448)
I0403 13:56:41.991083   542 net.cpp:148] Top shape: 24 512 14 14 (2408448)
I0403 13:56:41.991099   542 net.cpp:148] Top shape: 24 512 14 14 (2408448)
I0403 13:56:41.991113   542 net.cpp:156] Memory required for data: 944714784
I0403 13:56:41.991129   542 layer_factory.hpp:77] Creating layer loss1/ave_pool
I0403 13:56:41.991150   542 net.cpp:91] Creating Layer loss1/ave_pool
I0403 13:56:41.991168   542 net.cpp:425] loss1/ave_pool <- inception_4a/output_inception_4a/output_0_split_0
I0403 13:56:41.991191   542 net.cpp:399] loss1/ave_pool -> loss1/ave_pool
I0403 13:56:41.991410   542 net.cpp:141] Setting up loss1/ave_pool
I0403 13:56:41.991437   542 net.cpp:148] Top shape: 24 512 4 4 (196608)
I0403 13:56:41.991453   542 net.cpp:156] Memory required for data: 945501216
I0403 13:56:41.991469   542 layer_factory.hpp:77] Creating layer loss1/conv
I0403 13:56:41.991502   542 net.cpp:91] Creating Layer loss1/conv
I0403 13:56:41.991519   542 net.cpp:425] loss1/conv <- loss1/ave_pool
I0403 13:56:41.991541   542 net.cpp:399] loss1/conv -> loss1/conv
I0403 13:56:41.993028   542 net.cpp:141] Setting up loss1/conv
I0403 13:56:41.993057   542 net.cpp:148] Top shape: 24 128 4 4 (49152)
I0403 13:56:41.993088   542 net.cpp:156] Memory required for data: 945697824
I0403 13:56:41.993108   542 layer_factory.hpp:77] Creating layer loss1/relu_conv
I0403 13:56:41.993129   542 net.cpp:91] Creating Layer loss1/relu_conv
I0403 13:56:41.993149   542 net.cpp:425] loss1/relu_conv <- loss1/conv
I0403 13:56:41.993167   542 net.cpp:386] loss1/relu_conv -> loss1/conv (in-place)
I0403 13:56:41.993468   542 net.cpp:141] Setting up loss1/relu_conv
I0403 13:56:41.993496   542 net.cpp:148] Top shape: 24 128 4 4 (49152)
I0403 13:56:41.993511   542 net.cpp:156] Memory required for data: 945894432
I0403 13:56:41.993527   542 layer_factory.hpp:77] Creating layer loss1/fc
I0403 13:56:41.993554   542 net.cpp:91] Creating Layer loss1/fc
I0403 13:56:41.993573   542 net.cpp:425] loss1/fc <- loss1/conv
I0403 13:56:41.993592   542 net.cpp:399] loss1/fc -> loss1/fc
I0403 13:56:42.011816   542 net.cpp:141] Setting up loss1/fc
I0403 13:56:42.011874   542 net.cpp:148] Top shape: 24 1024 (24576)
I0403 13:56:42.011891   542 net.cpp:156] Memory required for data: 945992736
I0403 13:56:42.011911   542 layer_factory.hpp:77] Creating layer loss1/relu_fc
I0403 13:56:42.011931   542 net.cpp:91] Creating Layer loss1/relu_fc
I0403 13:56:42.011947   542 net.cpp:425] loss1/relu_fc <- loss1/fc
I0403 13:56:42.011968   542 net.cpp:386] loss1/relu_fc -> loss1/fc (in-place)
I0403 13:56:42.012198   542 net.cpp:141] Setting up loss1/relu_fc
I0403 13:56:42.012225   542 net.cpp:148] Top shape: 24 1024 (24576)
I0403 13:56:42.012241   542 net.cpp:156] Memory required for data: 946091040
I0403 13:56:42.012256   542 layer_factory.hpp:77] Creating layer loss1/drop_fc
I0403 13:56:42.012287   542 net.cpp:91] Creating Layer loss1/drop_fc
I0403 13:56:42.012305   542 net.cpp:425] loss1/drop_fc <- loss1/fc
I0403 13:56:42.012325   542 net.cpp:386] loss1/drop_fc -> loss1/fc (in-place)
I0403 13:56:42.012377   542 net.cpp:141] Setting up loss1/drop_fc
I0403 13:56:42.012406   542 net.cpp:148] Top shape: 24 1024 (24576)
I0403 13:56:42.012423   542 net.cpp:156] Memory required for data: 946189344
I0403 13:56:42.012440   542 layer_factory.hpp:77] Creating layer loss1/classifier_plantvillage
I0403 13:56:42.012460   542 net.cpp:91] Creating Layer loss1/classifier_plantvillage
I0403 13:56:42.012476   542 net.cpp:425] loss1/classifier_plantvillage <- loss1/fc
I0403 13:56:42.012497   542 net.cpp:399] loss1/classifier_plantvillage -> loss1/classifier_plantvillage
I0403 13:56:42.013445   542 net.cpp:141] Setting up loss1/classifier_plantvillage
I0403 13:56:42.013475   542 net.cpp:148] Top shape: 24 38 (912)
I0403 13:56:42.013492   542 net.cpp:156] Memory required for data: 946192992
I0403 13:56:42.013511   542 layer_factory.hpp:77] Creating layer loss1/classifier_plantvillage_loss1/classifier_plantvillage_0_split
I0403 13:56:42.013532   542 net.cpp:91] Creating Layer loss1/classifier_plantvillage_loss1/classifier_plantvillage_0_split
I0403 13:56:42.013550   542 net.cpp:425] loss1/classifier_plantvillage_loss1/classifier_plantvillage_0_split <- loss1/classifier_plantvillage
I0403 13:56:42.013568   542 net.cpp:399] loss1/classifier_plantvillage_loss1/classifier_plantvillage_0_split -> loss1/classifier_plantvillage_loss1/classifier_plantvillage_0_split_0
I0403 13:56:42.013589   542 net.cpp:399] loss1/classifier_plantvillage_loss1/classifier_plantvillage_0_split -> loss1/classifier_plantvillage_loss1/classifier_plantvillage_0_split_1
I0403 13:56:42.013612   542 net.cpp:399] loss1/classifier_plantvillage_loss1/classifier_plantvillage_0_split -> loss1/classifier_plantvillage_loss1/classifier_plantvillage_0_split_2
I0403 13:56:42.013679   542 net.cpp:141] Setting up loss1/classifier_plantvillage_loss1/classifier_plantvillage_0_split
I0403 13:56:42.013705   542 net.cpp:148] Top shape: 24 38 (912)
I0403 13:56:42.013723   542 net.cpp:148] Top shape: 24 38 (912)
I0403 13:56:42.013739   542 net.cpp:148] Top shape: 24 38 (912)
I0403 13:56:42.013753   542 net.cpp:156] Memory required for data: 946203936
I0403 13:56:42.013769   542 layer_factory.hpp:77] Creating layer inception_4b/1x1
I0403 13:56:42.013790   542 net.cpp:91] Creating Layer inception_4b/1x1
I0403 13:56:42.013831   542 net.cpp:425] inception_4b/1x1 <- inception_4a/output_inception_4a/output_0_split_1
I0403 13:56:42.013854   542 net.cpp:399] inception_4b/1x1 -> inception_4b/1x1
I0403 13:56:42.015586   542 net.cpp:141] Setting up inception_4b/1x1
I0403 13:56:42.015617   542 net.cpp:148] Top shape: 24 160 14 14 (752640)
I0403 13:56:42.015633   542 net.cpp:156] Memory required for data: 949214496
I0403 13:56:42.015653   542 layer_factory.hpp:77] Creating layer inception_4b/relu_1x1
I0403 13:56:42.015674   542 net.cpp:91] Creating Layer inception_4b/relu_1x1
I0403 13:56:42.015692   542 net.cpp:425] inception_4b/relu_1x1 <- inception_4b/1x1
I0403 13:56:42.015710   542 net.cpp:386] inception_4b/relu_1x1 -> inception_4b/1x1 (in-place)
I0403 13:56:42.015900   542 net.cpp:141] Setting up inception_4b/relu_1x1
I0403 13:56:42.015929   542 net.cpp:148] Top shape: 24 160 14 14 (752640)
I0403 13:56:42.015946   542 net.cpp:156] Memory required for data: 952225056
I0403 13:56:42.015962   542 layer_factory.hpp:77] Creating layer inception_4b/3x3_reduce
I0403 13:56:42.015985   542 net.cpp:91] Creating Layer inception_4b/3x3_reduce
I0403 13:56:42.016003   542 net.cpp:425] inception_4b/3x3_reduce <- inception_4a/output_inception_4a/output_0_split_2
I0403 13:56:42.016023   542 net.cpp:399] inception_4b/3x3_reduce -> inception_4b/3x3_reduce
I0403 13:56:42.017448   542 net.cpp:141] Setting up inception_4b/3x3_reduce
I0403 13:56:42.017482   542 net.cpp:148] Top shape: 24 112 14 14 (526848)
I0403 13:56:42.017498   542 net.cpp:156] Memory required for data: 954332448
I0403 13:56:42.017519   542 layer_factory.hpp:77] Creating layer inception_4b/relu_3x3_reduce
I0403 13:56:42.017539   542 net.cpp:91] Creating Layer inception_4b/relu_3x3_reduce
I0403 13:56:42.017557   542 net.cpp:425] inception_4b/relu_3x3_reduce <- inception_4b/3x3_reduce
I0403 13:56:42.017578   542 net.cpp:386] inception_4b/relu_3x3_reduce -> inception_4b/3x3_reduce (in-place)
I0403 13:56:42.017879   542 net.cpp:141] Setting up inception_4b/relu_3x3_reduce
I0403 13:56:42.017910   542 net.cpp:148] Top shape: 24 112 14 14 (526848)
I0403 13:56:42.017926   542 net.cpp:156] Memory required for data: 956439840
I0403 13:56:42.017943   542 layer_factory.hpp:77] Creating layer inception_4b/3x3
I0403 13:56:42.017967   542 net.cpp:91] Creating Layer inception_4b/3x3
I0403 13:56:42.017985   542 net.cpp:425] inception_4b/3x3 <- inception_4b/3x3_reduce
I0403 13:56:42.018007   542 net.cpp:399] inception_4b/3x3 -> inception_4b/3x3
I0403 13:56:42.021174   542 net.cpp:141] Setting up inception_4b/3x3
I0403 13:56:42.021209   542 net.cpp:148] Top shape: 24 224 14 14 (1053696)
I0403 13:56:42.021226   542 net.cpp:156] Memory required for data: 960654624
I0403 13:56:42.021246   542 layer_factory.hpp:77] Creating layer inception_4b/relu_3x3
I0403 13:56:42.021270   542 net.cpp:91] Creating Layer inception_4b/relu_3x3
I0403 13:56:42.021287   542 net.cpp:425] inception_4b/relu_3x3 <- inception_4b/3x3
I0403 13:56:42.021307   542 net.cpp:386] inception_4b/relu_3x3 -> inception_4b/3x3 (in-place)
I0403 13:56:42.021500   542 net.cpp:141] Setting up inception_4b/relu_3x3
I0403 13:56:42.021528   542 net.cpp:148] Top shape: 24 224 14 14 (1053696)
I0403 13:56:42.021544   542 net.cpp:156] Memory required for data: 964869408
I0403 13:56:42.021560   542 layer_factory.hpp:77] Creating layer inception_4b/5x5_reduce
I0403 13:56:42.021584   542 net.cpp:91] Creating Layer inception_4b/5x5_reduce
I0403 13:56:42.021602   542 net.cpp:425] inception_4b/5x5_reduce <- inception_4a/output_inception_4a/output_0_split_3
I0403 13:56:42.021626   542 net.cpp:399] inception_4b/5x5_reduce -> inception_4b/5x5_reduce
I0403 13:56:42.022785   542 net.cpp:141] Setting up inception_4b/5x5_reduce
I0403 13:56:42.022814   542 net.cpp:148] Top shape: 24 24 14 14 (112896)
I0403 13:56:42.022830   542 net.cpp:156] Memory required for data: 965320992
I0403 13:56:42.022851   542 layer_factory.hpp:77] Creating layer inception_4b/relu_5x5_reduce
I0403 13:56:42.022873   542 net.cpp:91] Creating Layer inception_4b/relu_5x5_reduce
I0403 13:56:42.022905   542 net.cpp:425] inception_4b/relu_5x5_reduce <- inception_4b/5x5_reduce
I0403 13:56:42.022925   542 net.cpp:386] inception_4b/relu_5x5_reduce -> inception_4b/5x5_reduce (in-place)
I0403 13:56:42.023120   542 net.cpp:141] Setting up inception_4b/relu_5x5_reduce
I0403 13:56:42.023147   542 net.cpp:148] Top shape: 24 24 14 14 (112896)
I0403 13:56:42.023164   542 net.cpp:156] Memory required for data: 965772576
I0403 13:56:42.023190   542 layer_factory.hpp:77] Creating layer inception_4b/5x5
I0403 13:56:42.023217   542 net.cpp:91] Creating Layer inception_4b/5x5
I0403 13:56:42.023237   542 net.cpp:425] inception_4b/5x5 <- inception_4b/5x5_reduce
I0403 13:56:42.023260   542 net.cpp:399] inception_4b/5x5 -> inception_4b/5x5
I0403 13:56:42.024749   542 net.cpp:141] Setting up inception_4b/5x5
I0403 13:56:42.024780   542 net.cpp:148] Top shape: 24 64 14 14 (301056)
I0403 13:56:42.024797   542 net.cpp:156] Memory required for data: 966976800
I0403 13:56:42.024817   542 layer_factory.hpp:77] Creating layer inception_4b/relu_5x5
I0403 13:56:42.024838   542 net.cpp:91] Creating Layer inception_4b/relu_5x5
I0403 13:56:42.024857   542 net.cpp:425] inception_4b/relu_5x5 <- inception_4b/5x5
I0403 13:56:42.024876   542 net.cpp:386] inception_4b/relu_5x5 -> inception_4b/5x5 (in-place)
I0403 13:56:42.025195   542 net.cpp:141] Setting up inception_4b/relu_5x5
I0403 13:56:42.025224   542 net.cpp:148] Top shape: 24 64 14 14 (301056)
I0403 13:56:42.025240   542 net.cpp:156] Memory required for data: 968181024
I0403 13:56:42.025256   542 layer_factory.hpp:77] Creating layer inception_4b/pool
I0403 13:56:42.025279   542 net.cpp:91] Creating Layer inception_4b/pool
I0403 13:56:42.025297   542 net.cpp:425] inception_4b/pool <- inception_4a/output_inception_4a/output_0_split_4
I0403 13:56:42.025316   542 net.cpp:399] inception_4b/pool -> inception_4b/pool
I0403 13:56:42.025390   542 net.cpp:141] Setting up inception_4b/pool
I0403 13:56:42.025416   542 net.cpp:148] Top shape: 24 512 14 14 (2408448)
I0403 13:56:42.025435   542 net.cpp:156] Memory required for data: 977814816
I0403 13:56:42.025451   542 layer_factory.hpp:77] Creating layer inception_4b/pool_proj
I0403 13:56:42.025475   542 net.cpp:91] Creating Layer inception_4b/pool_proj
I0403 13:56:42.025493   542 net.cpp:425] inception_4b/pool_proj <- inception_4b/pool
I0403 13:56:42.025516   542 net.cpp:399] inception_4b/pool_proj -> inception_4b/pool_proj
I0403 13:56:42.026810   542 net.cpp:141] Setting up inception_4b/pool_proj
I0403 13:56:42.026840   542 net.cpp:148] Top shape: 24 64 14 14 (301056)
I0403 13:56:42.026861   542 net.cpp:156] Memory required for data: 979019040
I0403 13:56:42.026882   542 layer_factory.hpp:77] Creating layer inception_4b/relu_pool_proj
I0403 13:56:42.026901   542 net.cpp:91] Creating Layer inception_4b/relu_pool_proj
I0403 13:56:42.026918   542 net.cpp:425] inception_4b/relu_pool_proj <- inception_4b/pool_proj
I0403 13:56:42.026937   542 net.cpp:386] inception_4b/relu_pool_proj -> inception_4b/pool_proj (in-place)
I0403 13:56:42.027132   542 net.cpp:141] Setting up inception_4b/relu_pool_proj
I0403 13:56:42.027160   542 net.cpp:148] Top shape: 24 64 14 14 (301056)
I0403 13:56:42.027182   542 net.cpp:156] Memory required for data: 980223264
I0403 13:56:42.027200   542 layer_factory.hpp:77] Creating layer inception_4b/output
I0403 13:56:42.027220   542 net.cpp:91] Creating Layer inception_4b/output
I0403 13:56:42.027236   542 net.cpp:425] inception_4b/output <- inception_4b/1x1
I0403 13:56:42.027254   542 net.cpp:425] inception_4b/output <- inception_4b/3x3
I0403 13:56:42.027271   542 net.cpp:425] inception_4b/output <- inception_4b/5x5
I0403 13:56:42.027288   542 net.cpp:425] inception_4b/output <- inception_4b/pool_proj
I0403 13:56:42.027309   542 net.cpp:399] inception_4b/output -> inception_4b/output
I0403 13:56:42.027359   542 net.cpp:141] Setting up inception_4b/output
I0403 13:56:42.027384   542 net.cpp:148] Top shape: 24 512 14 14 (2408448)
I0403 13:56:42.027400   542 net.cpp:156] Memory required for data: 989857056
I0403 13:56:42.027431   542 layer_factory.hpp:77] Creating layer inception_4b/output_inception_4b/output_0_split
I0403 13:56:42.027452   542 net.cpp:91] Creating Layer inception_4b/output_inception_4b/output_0_split
I0403 13:56:42.027470   542 net.cpp:425] inception_4b/output_inception_4b/output_0_split <- inception_4b/output
I0403 13:56:42.027490   542 net.cpp:399] inception_4b/output_inception_4b/output_0_split -> inception_4b/output_inception_4b/output_0_split_0
I0403 13:56:42.027511   542 net.cpp:399] inception_4b/output_inception_4b/output_0_split -> inception_4b/output_inception_4b/output_0_split_1
I0403 13:56:42.027536   542 net.cpp:399] inception_4b/output_inception_4b/output_0_split -> inception_4b/output_inception_4b/output_0_split_2
I0403 13:56:42.027559   542 net.cpp:399] inception_4b/output_inception_4b/output_0_split -> inception_4b/output_inception_4b/output_0_split_3
I0403 13:56:42.027647   542 net.cpp:141] Setting up inception_4b/output_inception_4b/output_0_split
I0403 13:56:42.027672   542 net.cpp:148] Top shape: 24 512 14 14 (2408448)
I0403 13:56:42.027688   542 net.cpp:148] Top shape: 24 512 14 14 (2408448)
I0403 13:56:42.027705   542 net.cpp:148] Top shape: 24 512 14 14 (2408448)
I0403 13:56:42.027722   542 net.cpp:148] Top shape: 24 512 14 14 (2408448)
I0403 13:56:42.027737   542 net.cpp:156] Memory required for data: 1028392224
I0403 13:56:42.027753   542 layer_factory.hpp:77] Creating layer inception_4c/1x1
I0403 13:56:42.027777   542 net.cpp:91] Creating Layer inception_4c/1x1
I0403 13:56:42.027796   542 net.cpp:425] inception_4c/1x1 <- inception_4b/output_inception_4b/output_0_split_0
I0403 13:56:42.027820   542 net.cpp:399] inception_4c/1x1 -> inception_4c/1x1
I0403 13:56:42.029400   542 net.cpp:141] Setting up inception_4c/1x1
I0403 13:56:42.029433   542 net.cpp:148] Top shape: 24 128 14 14 (602112)
I0403 13:56:42.029451   542 net.cpp:156] Memory required for data: 1030800672
I0403 13:56:42.029474   542 layer_factory.hpp:77] Creating layer inception_4c/relu_1x1
I0403 13:56:42.029492   542 net.cpp:91] Creating Layer inception_4c/relu_1x1
I0403 13:56:42.029510   542 net.cpp:425] inception_4c/relu_1x1 <- inception_4c/1x1
I0403 13:56:42.029531   542 net.cpp:386] inception_4c/relu_1x1 -> inception_4c/1x1 (in-place)
I0403 13:56:42.029722   542 net.cpp:141] Setting up inception_4c/relu_1x1
I0403 13:56:42.029750   542 net.cpp:148] Top shape: 24 128 14 14 (602112)
I0403 13:56:42.029767   542 net.cpp:156] Memory required for data: 1033209120
I0403 13:56:42.029781   542 layer_factory.hpp:77] Creating layer inception_4c/3x3_reduce
I0403 13:56:42.029805   542 net.cpp:91] Creating Layer inception_4c/3x3_reduce
I0403 13:56:42.029824   542 net.cpp:425] inception_4c/3x3_reduce <- inception_4b/output_inception_4b/output_0_split_1
I0403 13:56:42.029846   542 net.cpp:399] inception_4c/3x3_reduce -> inception_4c/3x3_reduce
I0403 13:56:42.031919   542 net.cpp:141] Setting up inception_4c/3x3_reduce
I0403 13:56:42.031949   542 net.cpp:148] Top shape: 24 128 14 14 (602112)
I0403 13:56:42.031966   542 net.cpp:156] Memory required for data: 1035617568
I0403 13:56:42.031986   542 layer_factory.hpp:77] Creating layer inception_4c/relu_3x3_reduce
I0403 13:56:42.032008   542 net.cpp:91] Creating Layer inception_4c/relu_3x3_reduce
I0403 13:56:42.032027   542 net.cpp:425] inception_4c/relu_3x3_reduce <- inception_4c/3x3_reduce
I0403 13:56:42.032047   542 net.cpp:386] inception_4c/relu_3x3_reduce -> inception_4c/3x3_reduce (in-place)
I0403 13:56:42.032354   542 net.cpp:141] Setting up inception_4c/relu_3x3_reduce
I0403 13:56:42.032382   542 net.cpp:148] Top shape: 24 128 14 14 (602112)
I0403 13:56:42.032399   542 net.cpp:156] Memory required for data: 1038026016
I0403 13:56:42.032415   542 layer_factory.hpp:77] Creating layer inception_4c/3x3
I0403 13:56:42.032439   542 net.cpp:91] Creating Layer inception_4c/3x3
I0403 13:56:42.032459   542 net.cpp:425] inception_4c/3x3 <- inception_4c/3x3_reduce
I0403 13:56:42.032482   542 net.cpp:399] inception_4c/3x3 -> inception_4c/3x3
I0403 13:56:42.036319   542 net.cpp:141] Setting up inception_4c/3x3
I0403 13:56:42.036363   542 net.cpp:148] Top shape: 24 256 14 14 (1204224)
I0403 13:56:42.036381   542 net.cpp:156] Memory required for data: 1042842912
I0403 13:56:42.036440   542 layer_factory.hpp:77] Creating layer inception_4c/relu_3x3
I0403 13:56:42.036468   542 net.cpp:91] Creating Layer inception_4c/relu_3x3
I0403 13:56:42.036485   542 net.cpp:425] inception_4c/relu_3x3 <- inception_4c/3x3
I0403 13:56:42.036504   542 net.cpp:386] inception_4c/relu_3x3 -> inception_4c/3x3 (in-place)
I0403 13:56:42.036702   542 net.cpp:141] Setting up inception_4c/relu_3x3
I0403 13:56:42.036730   542 net.cpp:148] Top shape: 24 256 14 14 (1204224)
I0403 13:56:42.036746   542 net.cpp:156] Memory required for data: 1047659808
I0403 13:56:42.036761   542 layer_factory.hpp:77] Creating layer inception_4c/5x5_reduce
I0403 13:56:42.036787   542 net.cpp:91] Creating Layer inception_4c/5x5_reduce
I0403 13:56:42.036806   542 net.cpp:425] inception_4c/5x5_reduce <- inception_4b/output_inception_4b/output_0_split_2
I0403 13:56:42.036828   542 net.cpp:399] inception_4c/5x5_reduce -> inception_4c/5x5_reduce
I0403 13:56:42.037988   542 net.cpp:141] Setting up inception_4c/5x5_reduce
I0403 13:56:42.038018   542 net.cpp:148] Top shape: 24 24 14 14 (112896)
I0403 13:56:42.038035   542 net.cpp:156] Memory required for data: 1048111392
I0403 13:56:42.038055   542 layer_factory.hpp:77] Creating layer inception_4c/relu_5x5_reduce
I0403 13:56:42.038077   542 net.cpp:91] Creating Layer inception_4c/relu_5x5_reduce
I0403 13:56:42.038096   542 net.cpp:425] inception_4c/relu_5x5_reduce <- inception_4c/5x5_reduce
I0403 13:56:42.038115   542 net.cpp:386] inception_4c/relu_5x5_reduce -> inception_4c/5x5_reduce (in-place)
I0403 13:56:42.038317   542 net.cpp:141] Setting up inception_4c/relu_5x5_reduce
I0403 13:56:42.038344   542 net.cpp:148] Top shape: 24 24 14 14 (112896)
I0403 13:56:42.038360   542 net.cpp:156] Memory required for data: 1048562976
I0403 13:56:42.038377   542 layer_factory.hpp:77] Creating layer inception_4c/5x5
I0403 13:56:42.038400   542 net.cpp:91] Creating Layer inception_4c/5x5
I0403 13:56:42.038419   542 net.cpp:425] inception_4c/5x5 <- inception_4c/5x5_reduce
I0403 13:56:42.038442   542 net.cpp:399] inception_4c/5x5 -> inception_4c/5x5
I0403 13:56:42.039770   542 net.cpp:141] Setting up inception_4c/5x5
I0403 13:56:42.039803   542 net.cpp:148] Top shape: 24 64 14 14 (301056)
I0403 13:56:42.039819   542 net.cpp:156] Memory required for data: 1049767200
I0403 13:56:42.039839   542 layer_factory.hpp:77] Creating layer inception_4c/relu_5x5
I0403 13:56:42.039858   542 net.cpp:91] Creating Layer inception_4c/relu_5x5
I0403 13:56:42.039876   542 net.cpp:425] inception_4c/relu_5x5 <- inception_4c/5x5
I0403 13:56:42.039897   542 net.cpp:386] inception_4c/relu_5x5 -> inception_4c/5x5 (in-place)
I0403 13:56:42.040217   542 net.cpp:141] Setting up inception_4c/relu_5x5
I0403 13:56:42.040248   542 net.cpp:148] Top shape: 24 64 14 14 (301056)
I0403 13:56:42.040266   542 net.cpp:156] Memory required for data: 1050971424
I0403 13:56:42.040282   542 layer_factory.hpp:77] Creating layer inception_4c/pool
I0403 13:56:42.040302   542 net.cpp:91] Creating Layer inception_4c/pool
I0403 13:56:42.040318   542 net.cpp:425] inception_4c/pool <- inception_4b/output_inception_4b/output_0_split_3
I0403 13:56:42.040340   542 net.cpp:399] inception_4c/pool -> inception_4c/pool
I0403 13:56:42.040410   542 net.cpp:141] Setting up inception_4c/pool
I0403 13:56:42.040438   542 net.cpp:148] Top shape: 24 512 14 14 (2408448)
I0403 13:56:42.040454   542 net.cpp:156] Memory required for data: 1060605216
I0403 13:56:42.040472   542 layer_factory.hpp:77] Creating layer inception_4c/pool_proj
I0403 13:56:42.040493   542 net.cpp:91] Creating Layer inception_4c/pool_proj
I0403 13:56:42.040510   542 net.cpp:425] inception_4c/pool_proj <- inception_4c/pool
I0403 13:56:42.040532   542 net.cpp:399] inception_4c/pool_proj -> inception_4c/pool_proj
I0403 13:56:42.041843   542 net.cpp:141] Setting up inception_4c/pool_proj
I0403 13:56:42.041873   542 net.cpp:148] Top shape: 24 64 14 14 (301056)
I0403 13:56:42.041904   542 net.cpp:156] Memory required for data: 1061809440
I0403 13:56:42.041925   542 layer_factory.hpp:77] Creating layer inception_4c/relu_pool_proj
I0403 13:56:42.041949   542 net.cpp:91] Creating Layer inception_4c/relu_pool_proj
I0403 13:56:42.041967   542 net.cpp:425] inception_4c/relu_pool_proj <- inception_4c/pool_proj
I0403 13:56:42.041986   542 net.cpp:386] inception_4c/relu_pool_proj -> inception_4c/pool_proj (in-place)
I0403 13:56:42.042191   542 net.cpp:141] Setting up inception_4c/relu_pool_proj
I0403 13:56:42.042220   542 net.cpp:148] Top shape: 24 64 14 14 (301056)
I0403 13:56:42.042237   542 net.cpp:156] Memory required for data: 1063013664
I0403 13:56:42.042253   542 layer_factory.hpp:77] Creating layer inception_4c/output
I0403 13:56:42.042270   542 net.cpp:91] Creating Layer inception_4c/output
I0403 13:56:42.042287   542 net.cpp:425] inception_4c/output <- inception_4c/1x1
I0403 13:56:42.042304   542 net.cpp:425] inception_4c/output <- inception_4c/3x3
I0403 13:56:42.042322   542 net.cpp:425] inception_4c/output <- inception_4c/5x5
I0403 13:56:42.042338   542 net.cpp:425] inception_4c/output <- inception_4c/pool_proj
I0403 13:56:42.042359   542 net.cpp:399] inception_4c/output -> inception_4c/output
I0403 13:56:42.042410   542 net.cpp:141] Setting up inception_4c/output
I0403 13:56:42.042434   542 net.cpp:148] Top shape: 24 512 14 14 (2408448)
I0403 13:56:42.042449   542 net.cpp:156] Memory required for data: 1072647456
I0403 13:56:42.042466   542 layer_factory.hpp:77] Creating layer inception_4c/output_inception_4c/output_0_split
I0403 13:56:42.042489   542 net.cpp:91] Creating Layer inception_4c/output_inception_4c/output_0_split
I0403 13:56:42.042505   542 net.cpp:425] inception_4c/output_inception_4c/output_0_split <- inception_4c/output
I0403 13:56:42.042523   542 net.cpp:399] inception_4c/output_inception_4c/output_0_split -> inception_4c/output_inception_4c/output_0_split_0
I0403 13:56:42.042544   542 net.cpp:399] inception_4c/output_inception_4c/output_0_split -> inception_4c/output_inception_4c/output_0_split_1
I0403 13:56:42.042568   542 net.cpp:399] inception_4c/output_inception_4c/output_0_split -> inception_4c/output_inception_4c/output_0_split_2
I0403 13:56:42.042590   542 net.cpp:399] inception_4c/output_inception_4c/output_0_split -> inception_4c/output_inception_4c/output_0_split_3
I0403 13:56:42.042681   542 net.cpp:141] Setting up inception_4c/output_inception_4c/output_0_split
I0403 13:56:42.042706   542 net.cpp:148] Top shape: 24 512 14 14 (2408448)
I0403 13:56:42.042724   542 net.cpp:148] Top shape: 24 512 14 14 (2408448)
I0403 13:56:42.042742   542 net.cpp:148] Top shape: 24 512 14 14 (2408448)
I0403 13:56:42.042758   542 net.cpp:148] Top shape: 24 512 14 14 (2408448)
I0403 13:56:42.042773   542 net.cpp:156] Memory required for data: 1111182624
I0403 13:56:42.042788   542 layer_factory.hpp:77] Creating layer inception_4d/1x1
I0403 13:56:42.042812   542 net.cpp:91] Creating Layer inception_4d/1x1
I0403 13:56:42.042831   542 net.cpp:425] inception_4d/1x1 <- inception_4c/output_inception_4c/output_0_split_0
I0403 13:56:42.042855   542 net.cpp:399] inception_4d/1x1 -> inception_4d/1x1
I0403 13:56:42.044351   542 net.cpp:141] Setting up inception_4d/1x1
I0403 13:56:42.044381   542 net.cpp:148] Top shape: 24 112 14 14 (526848)
I0403 13:56:42.044399   542 net.cpp:156] Memory required for data: 1113290016
I0403 13:56:42.044419   542 layer_factory.hpp:77] Creating layer inception_4d/relu_1x1
I0403 13:56:42.044440   542 net.cpp:91] Creating Layer inception_4d/relu_1x1
I0403 13:56:42.044458   542 net.cpp:425] inception_4d/relu_1x1 <- inception_4d/1x1
I0403 13:56:42.044477   542 net.cpp:386] inception_4d/relu_1x1 -> inception_4d/1x1 (in-place)
I0403 13:56:42.044677   542 net.cpp:141] Setting up inception_4d/relu_1x1
I0403 13:56:42.044704   542 net.cpp:148] Top shape: 24 112 14 14 (526848)
I0403 13:56:42.044719   542 net.cpp:156] Memory required for data: 1115397408
I0403 13:56:42.044735   542 layer_factory.hpp:77] Creating layer inception_4d/3x3_reduce
I0403 13:56:42.044775   542 net.cpp:91] Creating Layer inception_4d/3x3_reduce
I0403 13:56:42.044795   542 net.cpp:425] inception_4d/3x3_reduce <- inception_4c/output_inception_4c/output_0_split_1
I0403 13:56:42.044816   542 net.cpp:399] inception_4d/3x3_reduce -> inception_4d/3x3_reduce
I0403 13:56:42.046437   542 net.cpp:141] Setting up inception_4d/3x3_reduce
I0403 13:56:42.046468   542 net.cpp:148] Top shape: 24 144 14 14 (677376)
I0403 13:56:42.046485   542 net.cpp:156] Memory required for data: 1118106912
I0403 13:56:42.046504   542 layer_factory.hpp:77] Creating layer inception_4d/relu_3x3_reduce
I0403 13:56:42.046525   542 net.cpp:91] Creating Layer inception_4d/relu_3x3_reduce
I0403 13:56:42.046541   542 net.cpp:425] inception_4d/relu_3x3_reduce <- inception_4d/3x3_reduce
I0403 13:56:42.046562   542 net.cpp:386] inception_4d/relu_3x3_reduce -> inception_4d/3x3_reduce (in-place)
I0403 13:56:42.046872   542 net.cpp:141] Setting up inception_4d/relu_3x3_reduce
I0403 13:56:42.046900   542 net.cpp:148] Top shape: 24 144 14 14 (677376)
I0403 13:56:42.046916   542 net.cpp:156] Memory required for data: 1120816416
I0403 13:56:42.046932   542 layer_factory.hpp:77] Creating layer inception_4d/3x3
I0403 13:56:42.046957   542 net.cpp:91] Creating Layer inception_4d/3x3
I0403 13:56:42.046975   542 net.cpp:425] inception_4d/3x3 <- inception_4d/3x3_reduce
I0403 13:56:42.046998   542 net.cpp:399] inception_4d/3x3 -> inception_4d/3x3
I0403 13:56:42.051543   542 net.cpp:141] Setting up inception_4d/3x3
I0403 13:56:42.051575   542 net.cpp:148] Top shape: 24 288 14 14 (1354752)
I0403 13:56:42.051592   542 net.cpp:156] Memory required for data: 1126235424
I0403 13:56:42.051612   542 layer_factory.hpp:77] Creating layer inception_4d/relu_3x3
I0403 13:56:42.051635   542 net.cpp:91] Creating Layer inception_4d/relu_3x3
I0403 13:56:42.051652   542 net.cpp:425] inception_4d/relu_3x3 <- inception_4d/3x3
I0403 13:56:42.051671   542 net.cpp:386] inception_4d/relu_3x3 -> inception_4d/3x3 (in-place)
I0403 13:56:42.051870   542 net.cpp:141] Setting up inception_4d/relu_3x3
I0403 13:56:42.051899   542 net.cpp:148] Top shape: 24 288 14 14 (1354752)
I0403 13:56:42.051916   542 net.cpp:156] Memory required for data: 1131654432
I0403 13:56:42.051933   542 layer_factory.hpp:77] Creating layer inception_4d/5x5_reduce
I0403 13:56:42.051956   542 net.cpp:91] Creating Layer inception_4d/5x5_reduce
I0403 13:56:42.051975   542 net.cpp:425] inception_4d/5x5_reduce <- inception_4c/output_inception_4c/output_0_split_2
I0403 13:56:42.051996   542 net.cpp:399] inception_4d/5x5_reduce -> inception_4d/5x5_reduce
I0403 13:56:42.053256   542 net.cpp:141] Setting up inception_4d/5x5_reduce
I0403 13:56:42.053285   542 net.cpp:148] Top shape: 24 32 14 14 (150528)
I0403 13:56:42.053303   542 net.cpp:156] Memory required for data: 1132256544
I0403 13:56:42.053323   542 layer_factory.hpp:77] Creating layer inception_4d/relu_5x5_reduce
I0403 13:56:42.053345   542 net.cpp:91] Creating Layer inception_4d/relu_5x5_reduce
I0403 13:56:42.053364   542 net.cpp:425] inception_4d/relu_5x5_reduce <- inception_4d/5x5_reduce
I0403 13:56:42.053382   542 net.cpp:386] inception_4d/relu_5x5_reduce -> inception_4d/5x5_reduce (in-place)
I0403 13:56:42.053587   542 net.cpp:141] Setting up inception_4d/relu_5x5_reduce
I0403 13:56:42.053614   542 net.cpp:148] Top shape: 24 32 14 14 (150528)
I0403 13:56:42.053632   542 net.cpp:156] Memory required for data: 1132858656
I0403 13:56:42.053647   542 layer_factory.hpp:77] Creating layer inception_4d/5x5
I0403 13:56:42.053673   542 net.cpp:91] Creating Layer inception_4d/5x5
I0403 13:56:42.053692   542 net.cpp:425] inception_4d/5x5 <- inception_4d/5x5_reduce
I0403 13:56:42.053712   542 net.cpp:399] inception_4d/5x5 -> inception_4d/5x5
I0403 13:56:42.055320   542 net.cpp:141] Setting up inception_4d/5x5
I0403 13:56:42.055351   542 net.cpp:148] Top shape: 24 64 14 14 (301056)
I0403 13:56:42.055371   542 net.cpp:156] Memory required for data: 1134062880
I0403 13:56:42.055392   542 layer_factory.hpp:77] Creating layer inception_4d/relu_5x5
I0403 13:56:42.055426   542 net.cpp:91] Creating Layer inception_4d/relu_5x5
I0403 13:56:42.055444   542 net.cpp:425] inception_4d/relu_5x5 <- inception_4d/5x5
I0403 13:56:42.055466   542 net.cpp:386] inception_4d/relu_5x5 -> inception_4d/5x5 (in-place)
I0403 13:56:42.055795   542 net.cpp:141] Setting up inception_4d/relu_5x5
I0403 13:56:42.055826   542 net.cpp:148] Top shape: 24 64 14 14 (301056)
I0403 13:56:42.055845   542 net.cpp:156] Memory required for data: 1135267104
I0403 13:56:42.055860   542 layer_factory.hpp:77] Creating layer inception_4d/pool
I0403 13:56:42.055879   542 net.cpp:91] Creating Layer inception_4d/pool
I0403 13:56:42.055897   542 net.cpp:425] inception_4d/pool <- inception_4c/output_inception_4c/output_0_split_3
I0403 13:56:42.055920   542 net.cpp:399] inception_4d/pool -> inception_4d/pool
I0403 13:56:42.055992   542 net.cpp:141] Setting up inception_4d/pool
I0403 13:56:42.056018   542 net.cpp:148] Top shape: 24 512 14 14 (2408448)
I0403 13:56:42.056033   542 net.cpp:156] Memory required for data: 1144900896
I0403 13:56:42.056049   542 layer_factory.hpp:77] Creating layer inception_4d/pool_proj
I0403 13:56:42.056072   542 net.cpp:91] Creating Layer inception_4d/pool_proj
I0403 13:56:42.056092   542 net.cpp:425] inception_4d/pool_proj <- inception_4d/pool
I0403 13:56:42.056113   542 net.cpp:399] inception_4d/pool_proj -> inception_4d/pool_proj
I0403 13:56:42.058017   542 net.cpp:141] Setting up inception_4d/pool_proj
I0403 13:56:42.058048   542 net.cpp:148] Top shape: 24 64 14 14 (301056)
I0403 13:56:42.058065   542 net.cpp:156] Memory required for data: 1146105120
I0403 13:56:42.058086   542 layer_factory.hpp:77] Creating layer inception_4d/relu_pool_proj
I0403 13:56:42.058107   542 net.cpp:91] Creating Layer inception_4d/relu_pool_proj
I0403 13:56:42.058126   542 net.cpp:425] inception_4d/relu_pool_proj <- inception_4d/pool_proj
I0403 13:56:42.058145   542 net.cpp:386] inception_4d/relu_pool_proj -> inception_4d/pool_proj (in-place)
I0403 13:56:42.058349   542 net.cpp:141] Setting up inception_4d/relu_pool_proj
I0403 13:56:42.058380   542 net.cpp:148] Top shape: 24 64 14 14 (301056)
I0403 13:56:42.058398   542 net.cpp:156] Memory required for data: 1147309344
I0403 13:56:42.058413   542 layer_factory.hpp:77] Creating layer inception_4d/output
I0403 13:56:42.058432   542 net.cpp:91] Creating Layer inception_4d/output
I0403 13:56:42.058449   542 net.cpp:425] inception_4d/output <- inception_4d/1x1
I0403 13:56:42.058468   542 net.cpp:425] inception_4d/output <- inception_4d/3x3
I0403 13:56:42.058486   542 net.cpp:425] inception_4d/output <- inception_4d/5x5
I0403 13:56:42.058503   542 net.cpp:425] inception_4d/output <- inception_4d/pool_proj
I0403 13:56:42.058521   542 net.cpp:399] inception_4d/output -> inception_4d/output
I0403 13:56:42.058574   542 net.cpp:141] Setting up inception_4d/output
I0403 13:56:42.058600   542 net.cpp:148] Top shape: 24 528 14 14 (2483712)
I0403 13:56:42.058615   542 net.cpp:156] Memory required for data: 1157244192
I0403 13:56:42.058631   542 layer_factory.hpp:77] Creating layer inception_4d/output_inception_4d/output_0_split
I0403 13:56:42.058653   542 net.cpp:91] Creating Layer inception_4d/output_inception_4d/output_0_split
I0403 13:56:42.058671   542 net.cpp:425] inception_4d/output_inception_4d/output_0_split <- inception_4d/output
I0403 13:56:42.058691   542 net.cpp:399] inception_4d/output_inception_4d/output_0_split -> inception_4d/output_inception_4d/output_0_split_0
I0403 13:56:42.058712   542 net.cpp:399] inception_4d/output_inception_4d/output_0_split -> inception_4d/output_inception_4d/output_0_split_1
I0403 13:56:42.058733   542 net.cpp:399] inception_4d/output_inception_4d/output_0_split -> inception_4d/output_inception_4d/output_0_split_2
I0403 13:56:42.058754   542 net.cpp:399] inception_4d/output_inception_4d/output_0_split -> inception_4d/output_inception_4d/output_0_split_3
I0403 13:56:42.058779   542 net.cpp:399] inception_4d/output_inception_4d/output_0_split -> inception_4d/output_inception_4d/output_0_split_4
I0403 13:56:42.058894   542 net.cpp:141] Setting up inception_4d/output_inception_4d/output_0_split
I0403 13:56:42.058933   542 net.cpp:148] Top shape: 24 528 14 14 (2483712)
I0403 13:56:42.058951   542 net.cpp:148] Top shape: 24 528 14 14 (2483712)
I0403 13:56:42.058967   542 net.cpp:148] Top shape: 24 528 14 14 (2483712)
I0403 13:56:42.058984   542 net.cpp:148] Top shape: 24 528 14 14 (2483712)
I0403 13:56:42.059001   542 net.cpp:148] Top shape: 24 528 14 14 (2483712)
I0403 13:56:42.059016   542 net.cpp:156] Memory required for data: 1206918432
I0403 13:56:42.059031   542 layer_factory.hpp:77] Creating layer loss2/ave_pool
I0403 13:56:42.059051   542 net.cpp:91] Creating Layer loss2/ave_pool
I0403 13:56:42.059067   542 net.cpp:425] loss2/ave_pool <- inception_4d/output_inception_4d/output_0_split_0
I0403 13:56:42.059113   542 net.cpp:399] loss2/ave_pool -> loss2/ave_pool
I0403 13:56:42.059455   542 net.cpp:141] Setting up loss2/ave_pool
I0403 13:56:42.059484   542 net.cpp:148] Top shape: 24 528 4 4 (202752)
I0403 13:56:42.059500   542 net.cpp:156] Memory required for data: 1207729440
I0403 13:56:42.059516   542 layer_factory.hpp:77] Creating layer loss2/conv
I0403 13:56:42.059542   542 net.cpp:91] Creating Layer loss2/conv
I0403 13:56:42.059562   542 net.cpp:425] loss2/conv <- loss2/ave_pool
I0403 13:56:42.059586   542 net.cpp:399] loss2/conv -> loss2/conv
I0403 13:56:42.061614   542 net.cpp:141] Setting up loss2/conv
I0403 13:56:42.061647   542 net.cpp:148] Top shape: 24 128 4 4 (49152)
I0403 13:56:42.061666   542 net.cpp:156] Memory required for data: 1207926048
I0403 13:56:42.061686   542 layer_factory.hpp:77] Creating layer loss2/relu_conv
I0403 13:56:42.061704   542 net.cpp:91] Creating Layer loss2/relu_conv
I0403 13:56:42.061722   542 net.cpp:425] loss2/relu_conv <- loss2/conv
I0403 13:56:42.061741   542 net.cpp:386] loss2/relu_conv -> loss2/conv (in-place)
I0403 13:56:42.062046   542 net.cpp:141] Setting up loss2/relu_conv
I0403 13:56:42.062077   542 net.cpp:148] Top shape: 24 128 4 4 (49152)
I0403 13:56:42.062094   542 net.cpp:156] Memory required for data: 1208122656
I0403 13:56:42.062111   542 layer_factory.hpp:77] Creating layer loss2/fc
I0403 13:56:42.062132   542 net.cpp:91] Creating Layer loss2/fc
I0403 13:56:42.062150   542 net.cpp:425] loss2/fc <- loss2/conv
I0403 13:56:42.062171   542 net.cpp:399] loss2/fc -> loss2/fc
I0403 13:56:42.081086   542 net.cpp:141] Setting up loss2/fc
I0403 13:56:42.081126   542 net.cpp:148] Top shape: 24 1024 (24576)
I0403 13:56:42.081142   542 net.cpp:156] Memory required for data: 1208220960
I0403 13:56:42.081163   542 layer_factory.hpp:77] Creating layer loss2/relu_fc
I0403 13:56:42.081190   542 net.cpp:91] Creating Layer loss2/relu_fc
I0403 13:56:42.081210   542 net.cpp:425] loss2/relu_fc <- loss2/fc
I0403 13:56:42.081230   542 net.cpp:386] loss2/relu_fc -> loss2/fc (in-place)
I0403 13:56:42.081593   542 net.cpp:141] Setting up loss2/relu_fc
I0403 13:56:42.081619   542 net.cpp:148] Top shape: 24 1024 (24576)
I0403 13:56:42.081635   542 net.cpp:156] Memory required for data: 1208319264
I0403 13:56:42.081650   542 layer_factory.hpp:77] Creating layer loss2/drop_fc
I0403 13:56:42.081673   542 net.cpp:91] Creating Layer loss2/drop_fc
I0403 13:56:42.081691   542 net.cpp:425] loss2/drop_fc <- loss2/fc
I0403 13:56:42.081709   542 net.cpp:386] loss2/drop_fc -> loss2/fc (in-place)
I0403 13:56:42.081779   542 net.cpp:141] Setting up loss2/drop_fc
I0403 13:56:42.081804   542 net.cpp:148] Top shape: 24 1024 (24576)
I0403 13:56:42.081818   542 net.cpp:156] Memory required for data: 1208417568
I0403 13:56:42.081835   542 layer_factory.hpp:77] Creating layer loss2/classifier_plantvillage
I0403 13:56:42.081854   542 net.cpp:91] Creating Layer loss2/classifier_plantvillage
I0403 13:56:42.081876   542 net.cpp:425] loss2/classifier_plantvillage <- loss2/fc
I0403 13:56:42.081895   542 net.cpp:399] loss2/classifier_plantvillage -> loss2/classifier_plantvillage
I0403 13:56:42.082345   542 net.cpp:141] Setting up loss2/classifier_plantvillage
I0403 13:56:42.082371   542 net.cpp:148] Top shape: 24 38 (912)
I0403 13:56:42.082409   542 net.cpp:156] Memory required for data: 1208421216
I0403 13:56:42.082429   542 layer_factory.hpp:77] Creating layer loss2/classifier_plantvillage_loss2/classifier_plantvillage_0_split
I0403 13:56:42.082448   542 net.cpp:91] Creating Layer loss2/classifier_plantvillage_loss2/classifier_plantvillage_0_split
I0403 13:56:42.082468   542 net.cpp:425] loss2/classifier_plantvillage_loss2/classifier_plantvillage_0_split <- loss2/classifier_plantvillage
I0403 13:56:42.082489   542 net.cpp:399] loss2/classifier_plantvillage_loss2/classifier_plantvillage_0_split -> loss2/classifier_plantvillage_loss2/classifier_plantvillage_0_split_0
I0403 13:56:42.082511   542 net.cpp:399] loss2/classifier_plantvillage_loss2/classifier_plantvillage_0_split -> loss2/classifier_plantvillage_loss2/classifier_plantvillage_0_split_1
I0403 13:56:42.082532   542 net.cpp:399] loss2/classifier_plantvillage_loss2/classifier_plantvillage_0_split -> loss2/classifier_plantvillage_loss2/classifier_plantvillage_0_split_2
I0403 13:56:42.082612   542 net.cpp:141] Setting up loss2/classifier_plantvillage_loss2/classifier_plantvillage_0_split
I0403 13:56:42.082639   542 net.cpp:148] Top shape: 24 38 (912)
I0403 13:56:42.082658   542 net.cpp:148] Top shape: 24 38 (912)
I0403 13:56:42.082674   542 net.cpp:148] Top shape: 24 38 (912)
I0403 13:56:42.082687   542 net.cpp:156] Memory required for data: 1208432160
I0403 13:56:42.082702   542 layer_factory.hpp:77] Creating layer inception_4e/1x1
I0403 13:56:42.082727   542 net.cpp:91] Creating Layer inception_4e/1x1
I0403 13:56:42.082746   542 net.cpp:425] inception_4e/1x1 <- inception_4d/output_inception_4d/output_0_split_1
I0403 13:56:42.082767   542 net.cpp:399] inception_4e/1x1 -> inception_4e/1x1
I0403 13:56:42.084746   542 net.cpp:141] Setting up inception_4e/1x1
I0403 13:56:42.084779   542 net.cpp:148] Top shape: 24 256 14 14 (1204224)
I0403 13:56:42.084795   542 net.cpp:156] Memory required for data: 1213249056
I0403 13:56:42.084815   542 layer_factory.hpp:77] Creating layer inception_4e/relu_1x1
I0403 13:56:42.084833   542 net.cpp:91] Creating Layer inception_4e/relu_1x1
I0403 13:56:42.084851   542 net.cpp:425] inception_4e/relu_1x1 <- inception_4e/1x1
I0403 13:56:42.084872   542 net.cpp:386] inception_4e/relu_1x1 -> inception_4e/1x1 (in-place)
I0403 13:56:42.085208   542 net.cpp:141] Setting up inception_4e/relu_1x1
I0403 13:56:42.085239   542 net.cpp:148] Top shape: 24 256 14 14 (1204224)
I0403 13:56:42.085256   542 net.cpp:156] Memory required for data: 1218065952
I0403 13:56:42.085273   542 layer_factory.hpp:77] Creating layer inception_4e/3x3_reduce
I0403 13:56:42.085307   542 net.cpp:91] Creating Layer inception_4e/3x3_reduce
I0403 13:56:42.085326   542 net.cpp:425] inception_4e/3x3_reduce <- inception_4d/output_inception_4d/output_0_split_2
I0403 13:56:42.085346   542 net.cpp:399] inception_4e/3x3_reduce -> inception_4e/3x3_reduce
I0403 13:56:42.087617   542 net.cpp:141] Setting up inception_4e/3x3_reduce
I0403 13:56:42.087651   542 net.cpp:148] Top shape: 24 160 14 14 (752640)
I0403 13:56:42.087667   542 net.cpp:156] Memory required for data: 1221076512
I0403 13:56:42.087687   542 layer_factory.hpp:77] Creating layer inception_4e/relu_3x3_reduce
I0403 13:56:42.087707   542 net.cpp:91] Creating Layer inception_4e/relu_3x3_reduce
I0403 13:56:42.087723   542 net.cpp:425] inception_4e/relu_3x3_reduce <- inception_4e/3x3_reduce
I0403 13:56:42.087740   542 net.cpp:386] inception_4e/relu_3x3_reduce -> inception_4e/3x3_reduce (in-place)
I0403 13:56:42.087939   542 net.cpp:141] Setting up inception_4e/relu_3x3_reduce
I0403 13:56:42.087967   542 net.cpp:148] Top shape: 24 160 14 14 (752640)
I0403 13:56:42.087983   542 net.cpp:156] Memory required for data: 1224087072
I0403 13:56:42.087998   542 layer_factory.hpp:77] Creating layer inception_4e/3x3
I0403 13:56:42.088021   542 net.cpp:91] Creating Layer inception_4e/3x3
I0403 13:56:42.088039   542 net.cpp:425] inception_4e/3x3 <- inception_4e/3x3_reduce
I0403 13:56:42.088063   542 net.cpp:399] inception_4e/3x3 -> inception_4e/3x3
I0403 13:56:42.093367   542 net.cpp:141] Setting up inception_4e/3x3
I0403 13:56:42.093411   542 net.cpp:148] Top shape: 24 320 14 14 (1505280)
I0403 13:56:42.093430   542 net.cpp:156] Memory required for data: 1230108192
I0403 13:56:42.093451   542 layer_factory.hpp:77] Creating layer inception_4e/relu_3x3
I0403 13:56:42.093469   542 net.cpp:91] Creating Layer inception_4e/relu_3x3
I0403 13:56:42.093487   542 net.cpp:425] inception_4e/relu_3x3 <- inception_4e/3x3
I0403 13:56:42.093509   542 net.cpp:386] inception_4e/relu_3x3 -> inception_4e/3x3 (in-place)
I0403 13:56:42.093834   542 net.cpp:141] Setting up inception_4e/relu_3x3
I0403 13:56:42.093861   542 net.cpp:148] Top shape: 24 320 14 14 (1505280)
I0403 13:56:42.093878   542 net.cpp:156] Memory required for data: 1236129312
I0403 13:56:42.093894   542 layer_factory.hpp:77] Creating layer inception_4e/5x5_reduce
I0403 13:56:42.093916   542 net.cpp:91] Creating Layer inception_4e/5x5_reduce
I0403 13:56:42.093935   542 net.cpp:425] inception_4e/5x5_reduce <- inception_4d/output_inception_4d/output_0_split_3
I0403 13:56:42.093957   542 net.cpp:399] inception_4e/5x5_reduce -> inception_4e/5x5_reduce
I0403 13:56:42.095123   542 net.cpp:141] Setting up inception_4e/5x5_reduce
I0403 13:56:42.095154   542 net.cpp:148] Top shape: 24 32 14 14 (150528)
I0403 13:56:42.095170   542 net.cpp:156] Memory required for data: 1236731424
I0403 13:56:42.095194   542 layer_factory.hpp:77] Creating layer inception_4e/relu_5x5_reduce
I0403 13:56:42.095214   542 net.cpp:91] Creating Layer inception_4e/relu_5x5_reduce
I0403 13:56:42.095232   542 net.cpp:425] inception_4e/relu_5x5_reduce <- inception_4e/5x5_reduce
I0403 13:56:42.095252   542 net.cpp:386] inception_4e/relu_5x5_reduce -> inception_4e/5x5_reduce (in-place)
I0403 13:56:42.095566   542 net.cpp:141] Setting up inception_4e/relu_5x5_reduce
I0403 13:56:42.095595   542 net.cpp:148] Top shape: 24 32 14 14 (150528)
I0403 13:56:42.095613   542 net.cpp:156] Memory required for data: 1237333536
I0403 13:56:42.095628   542 layer_factory.hpp:77] Creating layer inception_4e/5x5
I0403 13:56:42.095669   542 net.cpp:91] Creating Layer inception_4e/5x5
I0403 13:56:42.095690   542 net.cpp:425] inception_4e/5x5 <- inception_4e/5x5_reduce
I0403 13:56:42.095710   542 net.cpp:399] inception_4e/5x5 -> inception_4e/5x5
I0403 13:56:42.097671   542 net.cpp:141] Setting up inception_4e/5x5
I0403 13:56:42.097700   542 net.cpp:148] Top shape: 24 128 14 14 (602112)
I0403 13:56:42.097717   542 net.cpp:156] Memory required for data: 1239741984
I0403 13:56:42.097736   542 layer_factory.hpp:77] Creating layer inception_4e/relu_5x5
I0403 13:56:42.097757   542 net.cpp:91] Creating Layer inception_4e/relu_5x5
I0403 13:56:42.097775   542 net.cpp:425] inception_4e/relu_5x5 <- inception_4e/5x5
I0403 13:56:42.097793   542 net.cpp:386] inception_4e/relu_5x5 -> inception_4e/5x5 (in-place)
I0403 13:56:42.098014   542 net.cpp:141] Setting up inception_4e/relu_5x5
I0403 13:56:42.098043   542 net.cpp:148] Top shape: 24 128 14 14 (602112)
I0403 13:56:42.098060   542 net.cpp:156] Memory required for data: 1242150432
I0403 13:56:42.098076   542 layer_factory.hpp:77] Creating layer inception_4e/pool
I0403 13:56:42.098096   542 net.cpp:91] Creating Layer inception_4e/pool
I0403 13:56:42.098114   542 net.cpp:425] inception_4e/pool <- inception_4d/output_inception_4d/output_0_split_4
I0403 13:56:42.098135   542 net.cpp:399] inception_4e/pool -> inception_4e/pool
I0403 13:56:42.098217   542 net.cpp:141] Setting up inception_4e/pool
I0403 13:56:42.098242   542 net.cpp:148] Top shape: 24 528 14 14 (2483712)
I0403 13:56:42.098269   542 net.cpp:156] Memory required for data: 1252085280
I0403 13:56:42.098284   542 layer_factory.hpp:77] Creating layer inception_4e/pool_proj
I0403 13:56:42.098307   542 net.cpp:91] Creating Layer inception_4e/pool_proj
I0403 13:56:42.098325   542 net.cpp:425] inception_4e/pool_proj <- inception_4e/pool
I0403 13:56:42.098347   542 net.cpp:399] inception_4e/pool_proj -> inception_4e/pool_proj
I0403 13:56:42.099953   542 net.cpp:141] Setting up inception_4e/pool_proj
I0403 13:56:42.099994   542 net.cpp:148] Top shape: 24 128 14 14 (602112)
I0403 13:56:42.100013   542 net.cpp:156] Memory required for data: 1254493728
I0403 13:56:42.100033   542 layer_factory.hpp:77] Creating layer inception_4e/relu_pool_proj
I0403 13:56:42.100054   542 net.cpp:91] Creating Layer inception_4e/relu_pool_proj
I0403 13:56:42.100072   542 net.cpp:425] inception_4e/relu_pool_proj <- inception_4e/pool_proj
I0403 13:56:42.100091   542 net.cpp:386] inception_4e/relu_pool_proj -> inception_4e/pool_proj (in-place)
I0403 13:56:42.100416   542 net.cpp:141] Setting up inception_4e/relu_pool_proj
I0403 13:56:42.100445   542 net.cpp:148] Top shape: 24 128 14 14 (602112)
I0403 13:56:42.100461   542 net.cpp:156] Memory required for data: 1256902176
I0403 13:56:42.100477   542 layer_factory.hpp:77] Creating layer inception_4e/output
I0403 13:56:42.100497   542 net.cpp:91] Creating Layer inception_4e/output
I0403 13:56:42.100513   542 net.cpp:425] inception_4e/output <- inception_4e/1x1
I0403 13:56:42.100530   542 net.cpp:425] inception_4e/output <- inception_4e/3x3
I0403 13:56:42.100548   542 net.cpp:425] inception_4e/output <- inception_4e/5x5
I0403 13:56:42.100565   542 net.cpp:425] inception_4e/output <- inception_4e/pool_proj
I0403 13:56:42.100586   542 net.cpp:399] inception_4e/output -> inception_4e/output
I0403 13:56:42.100643   542 net.cpp:141] Setting up inception_4e/output
I0403 13:56:42.100669   542 net.cpp:148] Top shape: 24 832 14 14 (3913728)
I0403 13:56:42.100684   542 net.cpp:156] Memory required for data: 1272557088
I0403 13:56:42.100700   542 layer_factory.hpp:77] Creating layer pool4/3x3_s2
I0403 13:56:42.100719   542 net.cpp:91] Creating Layer pool4/3x3_s2
I0403 13:56:42.100736   542 net.cpp:425] pool4/3x3_s2 <- inception_4e/output
I0403 13:56:42.100759   542 net.cpp:399] pool4/3x3_s2 -> pool4/3x3_s2
I0403 13:56:42.100831   542 net.cpp:141] Setting up pool4/3x3_s2
I0403 13:56:42.100855   542 net.cpp:148] Top shape: 24 832 7 7 (978432)
I0403 13:56:42.100872   542 net.cpp:156] Memory required for data: 1276470816
I0403 13:56:42.100886   542 layer_factory.hpp:77] Creating layer pool4/3x3_s2_pool4/3x3_s2_0_split
I0403 13:56:42.100908   542 net.cpp:91] Creating Layer pool4/3x3_s2_pool4/3x3_s2_0_split
I0403 13:56:42.100926   542 net.cpp:425] pool4/3x3_s2_pool4/3x3_s2_0_split <- pool4/3x3_s2
I0403 13:56:42.100945   542 net.cpp:399] pool4/3x3_s2_pool4/3x3_s2_0_split -> pool4/3x3_s2_pool4/3x3_s2_0_split_0
I0403 13:56:42.100968   542 net.cpp:399] pool4/3x3_s2_pool4/3x3_s2_0_split -> pool4/3x3_s2_pool4/3x3_s2_0_split_1
I0403 13:56:42.100989   542 net.cpp:399] pool4/3x3_s2_pool4/3x3_s2_0_split -> pool4/3x3_s2_pool4/3x3_s2_0_split_2
I0403 13:56:42.101011   542 net.cpp:399] pool4/3x3_s2_pool4/3x3_s2_0_split -> pool4/3x3_s2_pool4/3x3_s2_0_split_3
I0403 13:56:42.101107   542 net.cpp:141] Setting up pool4/3x3_s2_pool4/3x3_s2_0_split
I0403 13:56:42.101132   542 net.cpp:148] Top shape: 24 832 7 7 (978432)
I0403 13:56:42.101150   542 net.cpp:148] Top shape: 24 832 7 7 (978432)
I0403 13:56:42.101166   542 net.cpp:148] Top shape: 24 832 7 7 (978432)
I0403 13:56:42.101187   542 net.cpp:148] Top shape: 24 832 7 7 (978432)
I0403 13:56:42.101203   542 net.cpp:156] Memory required for data: 1292125728
I0403 13:56:42.101218   542 layer_factory.hpp:77] Creating layer inception_5a/1x1
I0403 13:56:42.101243   542 net.cpp:91] Creating Layer inception_5a/1x1
I0403 13:56:42.101261   542 net.cpp:425] inception_5a/1x1 <- pool4/3x3_s2_pool4/3x3_s2_0_split_0
I0403 13:56:42.101284   542 net.cpp:399] inception_5a/1x1 -> inception_5a/1x1
I0403 13:56:42.104267   542 net.cpp:141] Setting up inception_5a/1x1
I0403 13:56:42.104296   542 net.cpp:148] Top shape: 24 256 7 7 (301056)
I0403 13:56:42.104328   542 net.cpp:156] Memory required for data: 1293329952
I0403 13:56:42.104348   542 layer_factory.hpp:77] Creating layer inception_5a/relu_1x1
I0403 13:56:42.104368   542 net.cpp:91] Creating Layer inception_5a/relu_1x1
I0403 13:56:42.104385   542 net.cpp:425] inception_5a/relu_1x1 <- inception_5a/1x1
I0403 13:56:42.104403   542 net.cpp:386] inception_5a/relu_1x1 -> inception_5a/1x1 (in-place)
I0403 13:56:42.104737   542 net.cpp:141] Setting up inception_5a/relu_1x1
I0403 13:56:42.104763   542 net.cpp:148] Top shape: 24 256 7 7 (301056)
I0403 13:56:42.104780   542 net.cpp:156] Memory required for data: 1294534176
I0403 13:56:42.104796   542 layer_factory.hpp:77] Creating layer inception_5a/3x3_reduce
I0403 13:56:42.104816   542 net.cpp:91] Creating Layer inception_5a/3x3_reduce
I0403 13:56:42.104833   542 net.cpp:425] inception_5a/3x3_reduce <- pool4/3x3_s2_pool4/3x3_s2_0_split_1
I0403 13:56:42.104858   542 net.cpp:399] inception_5a/3x3_reduce -> inception_5a/3x3_reduce
I0403 13:56:42.107386   542 net.cpp:141] Setting up inception_5a/3x3_reduce
I0403 13:56:42.107416   542 net.cpp:148] Top shape: 24 160 7 7 (188160)
I0403 13:56:42.107434   542 net.cpp:156] Memory required for data: 1295286816
I0403 13:56:42.107453   542 layer_factory.hpp:77] Creating layer inception_5a/relu_3x3_reduce
I0403 13:56:42.107471   542 net.cpp:91] Creating Layer inception_5a/relu_3x3_reduce
I0403 13:56:42.107488   542 net.cpp:425] inception_5a/relu_3x3_reduce <- inception_5a/3x3_reduce
I0403 13:56:42.107509   542 net.cpp:386] inception_5a/relu_3x3_reduce -> inception_5a/3x3_reduce (in-place)
I0403 13:56:42.107705   542 net.cpp:141] Setting up inception_5a/relu_3x3_reduce
I0403 13:56:42.107733   542 net.cpp:148] Top shape: 24 160 7 7 (188160)
I0403 13:56:42.107748   542 net.cpp:156] Memory required for data: 1296039456
I0403 13:56:42.107763   542 layer_factory.hpp:77] Creating layer inception_5a/3x3
I0403 13:56:42.107785   542 net.cpp:91] Creating Layer inception_5a/3x3
I0403 13:56:42.107803   542 net.cpp:425] inception_5a/3x3 <- inception_5a/3x3_reduce
I0403 13:56:42.107826   542 net.cpp:399] inception_5a/3x3 -> inception_5a/3x3
I0403 13:56:42.113029   542 net.cpp:141] Setting up inception_5a/3x3
I0403 13:56:42.113059   542 net.cpp:148] Top shape: 24 320 7 7 (376320)
I0403 13:56:42.113076   542 net.cpp:156] Memory required for data: 1297544736
I0403 13:56:42.113095   542 layer_factory.hpp:77] Creating layer inception_5a/relu_3x3
I0403 13:56:42.113116   542 net.cpp:91] Creating Layer inception_5a/relu_3x3
I0403 13:56:42.113133   542 net.cpp:425] inception_5a/relu_3x3 <- inception_5a/3x3
I0403 13:56:42.113152   542 net.cpp:386] inception_5a/relu_3x3 -> inception_5a/3x3 (in-place)
I0403 13:56:42.113469   542 net.cpp:141] Setting up inception_5a/relu_3x3
I0403 13:56:42.113497   542 net.cpp:148] Top shape: 24 320 7 7 (376320)
I0403 13:56:42.113513   542 net.cpp:156] Memory required for data: 1299050016
I0403 13:56:42.113531   542 layer_factory.hpp:77] Creating layer inception_5a/5x5_reduce
I0403 13:56:42.113557   542 net.cpp:91] Creating Layer inception_5a/5x5_reduce
I0403 13:56:42.113577   542 net.cpp:425] inception_5a/5x5_reduce <- pool4/3x3_s2_pool4/3x3_s2_0_split_2
I0403 13:56:42.113597   542 net.cpp:399] inception_5a/5x5_reduce -> inception_5a/5x5_reduce
I0403 13:56:42.114835   542 net.cpp:141] Setting up inception_5a/5x5_reduce
I0403 13:56:42.114866   542 net.cpp:148] Top shape: 24 32 7 7 (37632)
I0403 13:56:42.114882   542 net.cpp:156] Memory required for data: 1299200544
I0403 13:56:42.114902   542 layer_factory.hpp:77] Creating layer inception_5a/relu_5x5_reduce
I0403 13:56:42.114920   542 net.cpp:91] Creating Layer inception_5a/relu_5x5_reduce
I0403 13:56:42.114936   542 net.cpp:425] inception_5a/relu_5x5_reduce <- inception_5a/5x5_reduce
I0403 13:56:42.114954   542 net.cpp:386] inception_5a/relu_5x5_reduce -> inception_5a/5x5_reduce (in-place)
I0403 13:56:42.115274   542 net.cpp:141] Setting up inception_5a/relu_5x5_reduce
I0403 13:56:42.115304   542 net.cpp:148] Top shape: 24 32 7 7 (37632)
I0403 13:56:42.115320   542 net.cpp:156] Memory required for data: 1299351072
I0403 13:56:42.115336   542 layer_factory.hpp:77] Creating layer inception_5a/5x5
I0403 13:56:42.115360   542 net.cpp:91] Creating Layer inception_5a/5x5
I0403 13:56:42.115378   542 net.cpp:425] inception_5a/5x5 <- inception_5a/5x5_reduce
I0403 13:56:42.115398   542 net.cpp:399] inception_5a/5x5 -> inception_5a/5x5
I0403 13:56:42.117208   542 net.cpp:141] Setting up inception_5a/5x5
I0403 13:56:42.117249   542 net.cpp:148] Top shape: 24 128 7 7 (150528)
I0403 13:56:42.117266   542 net.cpp:156] Memory required for data: 1299953184
I0403 13:56:42.117286   542 layer_factory.hpp:77] Creating layer inception_5a/relu_5x5
I0403 13:56:42.117306   542 net.cpp:91] Creating Layer inception_5a/relu_5x5
I0403 13:56:42.117324   542 net.cpp:425] inception_5a/relu_5x5 <- inception_5a/5x5
I0403 13:56:42.117343   542 net.cpp:386] inception_5a/relu_5x5 -> inception_5a/5x5 (in-place)
I0403 13:56:42.117542   542 net.cpp:141] Setting up inception_5a/relu_5x5
I0403 13:56:42.117571   542 net.cpp:148] Top shape: 24 128 7 7 (150528)
I0403 13:56:42.117588   542 net.cpp:156] Memory required for data: 1300555296
I0403 13:56:42.117604   542 layer_factory.hpp:77] Creating layer inception_5a/pool
I0403 13:56:42.117622   542 net.cpp:91] Creating Layer inception_5a/pool
I0403 13:56:42.117638   542 net.cpp:425] inception_5a/pool <- pool4/3x3_s2_pool4/3x3_s2_0_split_3
I0403 13:56:42.117660   542 net.cpp:399] inception_5a/pool -> inception_5a/pool
I0403 13:56:42.117735   542 net.cpp:141] Setting up inception_5a/pool
I0403 13:56:42.117759   542 net.cpp:148] Top shape: 24 832 7 7 (978432)
I0403 13:56:42.117775   542 net.cpp:156] Memory required for data: 1304469024
I0403 13:56:42.117791   542 layer_factory.hpp:77] Creating layer inception_5a/pool_proj
I0403 13:56:42.117816   542 net.cpp:91] Creating Layer inception_5a/pool_proj
I0403 13:56:42.117835   542 net.cpp:425] inception_5a/pool_proj <- inception_5a/pool
I0403 13:56:42.117854   542 net.cpp:399] inception_5a/pool_proj -> inception_5a/pool_proj
I0403 13:56:42.120282   542 net.cpp:141] Setting up inception_5a/pool_proj
I0403 13:56:42.120313   542 net.cpp:148] Top shape: 24 128 7 7 (150528)
I0403 13:56:42.120329   542 net.cpp:156] Memory required for data: 1305071136
I0403 13:56:42.120348   542 layer_factory.hpp:77] Creating layer inception_5a/relu_pool_proj
I0403 13:56:42.120369   542 net.cpp:91] Creating Layer inception_5a/relu_pool_proj
I0403 13:56:42.120386   542 net.cpp:425] inception_5a/relu_pool_proj <- inception_5a/pool_proj
I0403 13:56:42.120404   542 net.cpp:386] inception_5a/relu_pool_proj -> inception_5a/pool_proj (in-place)
I0403 13:56:42.120715   542 net.cpp:141] Setting up inception_5a/relu_pool_proj
I0403 13:56:42.120743   542 net.cpp:148] Top shape: 24 128 7 7 (150528)
I0403 13:56:42.120759   542 net.cpp:156] Memory required for data: 1305673248
I0403 13:56:42.120774   542 layer_factory.hpp:77] Creating layer inception_5a/output
I0403 13:56:42.120795   542 net.cpp:91] Creating Layer inception_5a/output
I0403 13:56:42.120813   542 net.cpp:425] inception_5a/output <- inception_5a/1x1
I0403 13:56:42.120831   542 net.cpp:425] inception_5a/output <- inception_5a/3x3
I0403 13:56:42.120847   542 net.cpp:425] inception_5a/output <- inception_5a/5x5
I0403 13:56:42.120863   542 net.cpp:425] inception_5a/output <- inception_5a/pool_proj
I0403 13:56:42.120882   542 net.cpp:399] inception_5a/output -> inception_5a/output
I0403 13:56:42.120935   542 net.cpp:141] Setting up inception_5a/output
I0403 13:56:42.120960   542 net.cpp:148] Top shape: 24 832 7 7 (978432)
I0403 13:56:42.120975   542 net.cpp:156] Memory required for data: 1309586976
I0403 13:56:42.120991   542 layer_factory.hpp:77] Creating layer inception_5a/output_inception_5a/output_0_split
I0403 13:56:42.121009   542 net.cpp:91] Creating Layer inception_5a/output_inception_5a/output_0_split
I0403 13:56:42.121026   542 net.cpp:425] inception_5a/output_inception_5a/output_0_split <- inception_5a/output
I0403 13:56:42.121045   542 net.cpp:399] inception_5a/output_inception_5a/output_0_split -> inception_5a/output_inception_5a/output_0_split_0
I0403 13:56:42.121068   542 net.cpp:399] inception_5a/output_inception_5a/output_0_split -> inception_5a/output_inception_5a/output_0_split_1
I0403 13:56:42.121088   542 net.cpp:399] inception_5a/output_inception_5a/output_0_split -> inception_5a/output_inception_5a/output_0_split_2
I0403 13:56:42.121109   542 net.cpp:399] inception_5a/output_inception_5a/output_0_split -> inception_5a/output_inception_5a/output_0_split_3
I0403 13:56:42.121230   542 net.cpp:141] Setting up inception_5a/output_inception_5a/output_0_split
I0403 13:56:42.121258   542 net.cpp:148] Top shape: 24 832 7 7 (978432)
I0403 13:56:42.121278   542 net.cpp:148] Top shape: 24 832 7 7 (978432)
I0403 13:56:42.121294   542 net.cpp:148] Top shape: 24 832 7 7 (978432)
I0403 13:56:42.121309   542 net.cpp:148] Top shape: 24 832 7 7 (978432)
I0403 13:56:42.121323   542 net.cpp:156] Memory required for data: 1325241888
I0403 13:56:42.121340   542 layer_factory.hpp:77] Creating layer inception_5b/1x1
I0403 13:56:42.121361   542 net.cpp:91] Creating Layer inception_5b/1x1
I0403 13:56:42.121381   542 net.cpp:425] inception_5b/1x1 <- inception_5a/output_inception_5a/output_0_split_0
I0403 13:56:42.121400   542 net.cpp:399] inception_5b/1x1 -> inception_5b/1x1
I0403 13:56:42.127776   542 net.cpp:141] Setting up inception_5b/1x1
I0403 13:56:42.127810   542 net.cpp:148] Top shape: 24 384 7 7 (451584)
I0403 13:56:42.127825   542 net.cpp:156] Memory required for data: 1327048224
I0403 13:56:42.127846   542 layer_factory.hpp:77] Creating layer inception_5b/relu_1x1
I0403 13:56:42.127866   542 net.cpp:91] Creating Layer inception_5b/relu_1x1
I0403 13:56:42.127882   542 net.cpp:425] inception_5b/relu_1x1 <- inception_5b/1x1
I0403 13:56:42.127903   542 net.cpp:386] inception_5b/relu_1x1 -> inception_5b/1x1 (in-place)
I0403 13:56:42.128243   542 net.cpp:141] Setting up inception_5b/relu_1x1
I0403 13:56:42.128271   542 net.cpp:148] Top shape: 24 384 7 7 (451584)
I0403 13:56:42.128288   542 net.cpp:156] Memory required for data: 1328854560
I0403 13:56:42.128304   542 layer_factory.hpp:77] Creating layer inception_5b/3x3_reduce
I0403 13:56:42.128329   542 net.cpp:91] Creating Layer inception_5b/3x3_reduce
I0403 13:56:42.128347   542 net.cpp:425] inception_5b/3x3_reduce <- inception_5a/output_inception_5a/output_0_split_1
I0403 13:56:42.128372   542 net.cpp:399] inception_5b/3x3_reduce -> inception_5b/3x3_reduce
I0403 13:56:42.131304   542 net.cpp:141] Setting up inception_5b/3x3_reduce
I0403 13:56:42.131335   542 net.cpp:148] Top shape: 24 192 7 7 (225792)
I0403 13:56:42.131352   542 net.cpp:156] Memory required for data: 1329757728
I0403 13:56:42.131372   542 layer_factory.hpp:77] Creating layer inception_5b/relu_3x3_reduce
I0403 13:56:42.131394   542 net.cpp:91] Creating Layer inception_5b/relu_3x3_reduce
I0403 13:56:42.131413   542 net.cpp:425] inception_5b/relu_3x3_reduce <- inception_5b/3x3_reduce
I0403 13:56:42.131433   542 net.cpp:386] inception_5b/relu_3x3_reduce -> inception_5b/3x3_reduce (in-place)
I0403 13:56:42.131642   542 net.cpp:141] Setting up inception_5b/relu_3x3_reduce
I0403 13:56:42.131671   542 net.cpp:148] Top shape: 24 192 7 7 (225792)
I0403 13:56:42.131687   542 net.cpp:156] Memory required for data: 1330660896
I0403 13:56:42.131702   542 layer_factory.hpp:77] Creating layer inception_5b/3x3
I0403 13:56:42.131728   542 net.cpp:91] Creating Layer inception_5b/3x3
I0403 13:56:42.131747   542 net.cpp:425] inception_5b/3x3 <- inception_5b/3x3_reduce
I0403 13:56:42.131767   542 net.cpp:399] inception_5b/3x3 -> inception_5b/3x3
I0403 13:56:42.139158   542 net.cpp:141] Setting up inception_5b/3x3
I0403 13:56:42.139196   542 net.cpp:148] Top shape: 24 384 7 7 (451584)
I0403 13:56:42.139214   542 net.cpp:156] Memory required for data: 1332467232
I0403 13:56:42.139233   542 layer_factory.hpp:77] Creating layer inception_5b/relu_3x3
I0403 13:56:42.139256   542 net.cpp:91] Creating Layer inception_5b/relu_3x3
I0403 13:56:42.139273   542 net.cpp:425] inception_5b/relu_3x3 <- inception_5b/3x3
I0403 13:56:42.139292   542 net.cpp:386] inception_5b/relu_3x3 -> inception_5b/3x3 (in-place)
I0403 13:56:42.139607   542 net.cpp:141] Setting up inception_5b/relu_3x3
I0403 13:56:42.139636   542 net.cpp:148] Top shape: 24 384 7 7 (451584)
I0403 13:56:42.139652   542 net.cpp:156] Memory required for data: 1334273568
I0403 13:56:42.139667   542 layer_factory.hpp:77] Creating layer inception_5b/5x5_reduce
I0403 13:56:42.139708   542 net.cpp:91] Creating Layer inception_5b/5x5_reduce
I0403 13:56:42.139729   542 net.cpp:425] inception_5b/5x5_reduce <- inception_5a/output_inception_5a/output_0_split_2
I0403 13:56:42.139750   542 net.cpp:399] inception_5b/5x5_reduce -> inception_5b/5x5_reduce
I0403 13:56:42.141089   542 net.cpp:141] Setting up inception_5b/5x5_reduce
I0403 13:56:42.141119   542 net.cpp:148] Top shape: 24 48 7 7 (56448)
I0403 13:56:42.141134   542 net.cpp:156] Memory required for data: 1334499360
I0403 13:56:42.141155   542 layer_factory.hpp:77] Creating layer inception_5b/relu_5x5_reduce
I0403 13:56:42.141175   542 net.cpp:91] Creating Layer inception_5b/relu_5x5_reduce
I0403 13:56:42.141201   542 net.cpp:425] inception_5b/relu_5x5_reduce <- inception_5b/5x5_reduce
I0403 13:56:42.141219   542 net.cpp:386] inception_5b/relu_5x5_reduce -> inception_5b/5x5_reduce (in-place)
I0403 13:56:42.141607   542 net.cpp:141] Setting up inception_5b/relu_5x5_reduce
I0403 13:56:42.141635   542 net.cpp:148] Top shape: 24 48 7 7 (56448)
I0403 13:56:42.141651   542 net.cpp:156] Memory required for data: 1334725152
I0403 13:56:42.141667   542 layer_factory.hpp:77] Creating layer inception_5b/5x5
I0403 13:56:42.141688   542 net.cpp:91] Creating Layer inception_5b/5x5
I0403 13:56:42.141706   542 net.cpp:425] inception_5b/5x5 <- inception_5b/5x5_reduce
I0403 13:56:42.141726   542 net.cpp:399] inception_5b/5x5 -> inception_5b/5x5
I0403 13:56:42.143903   542 net.cpp:141] Setting up inception_5b/5x5
I0403 13:56:42.143932   542 net.cpp:148] Top shape: 24 128 7 7 (150528)
I0403 13:56:42.143951   542 net.cpp:156] Memory required for data: 1335327264
I0403 13:56:42.143971   542 layer_factory.hpp:77] Creating layer inception_5b/relu_5x5
I0403 13:56:42.143990   542 net.cpp:91] Creating Layer inception_5b/relu_5x5
I0403 13:56:42.144007   542 net.cpp:425] inception_5b/relu_5x5 <- inception_5b/5x5
I0403 13:56:42.144026   542 net.cpp:386] inception_5b/relu_5x5 -> inception_5b/5x5 (in-place)
I0403 13:56:42.144238   542 net.cpp:141] Setting up inception_5b/relu_5x5
I0403 13:56:42.144268   542 net.cpp:148] Top shape: 24 128 7 7 (150528)
I0403 13:56:42.144284   542 net.cpp:156] Memory required for data: 1335929376
I0403 13:56:42.144299   542 layer_factory.hpp:77] Creating layer inception_5b/pool
I0403 13:56:42.144318   542 net.cpp:91] Creating Layer inception_5b/pool
I0403 13:56:42.144336   542 net.cpp:425] inception_5b/pool <- inception_5a/output_inception_5a/output_0_split_3
I0403 13:56:42.144357   542 net.cpp:399] inception_5b/pool -> inception_5b/pool
I0403 13:56:42.144433   542 net.cpp:141] Setting up inception_5b/pool
I0403 13:56:42.144460   542 net.cpp:148] Top shape: 24 832 7 7 (978432)
I0403 13:56:42.144476   542 net.cpp:156] Memory required for data: 1339843104
I0403 13:56:42.144491   542 layer_factory.hpp:77] Creating layer inception_5b/pool_proj
I0403 13:56:42.144512   542 net.cpp:91] Creating Layer inception_5b/pool_proj
I0403 13:56:42.144529   542 net.cpp:425] inception_5b/pool_proj <- inception_5b/pool
I0403 13:56:42.144551   542 net.cpp:399] inception_5b/pool_proj -> inception_5b/pool_proj
I0403 13:56:42.146971   542 net.cpp:141] Setting up inception_5b/pool_proj
I0403 13:56:42.147002   542 net.cpp:148] Top shape: 24 128 7 7 (150528)
I0403 13:56:42.147018   542 net.cpp:156] Memory required for data: 1340445216
I0403 13:56:42.147037   542 layer_factory.hpp:77] Creating layer inception_5b/relu_pool_proj
I0403 13:56:42.147058   542 net.cpp:91] Creating Layer inception_5b/relu_pool_proj
I0403 13:56:42.147078   542 net.cpp:425] inception_5b/relu_pool_proj <- inception_5b/pool_proj
I0403 13:56:42.147095   542 net.cpp:386] inception_5b/relu_pool_proj -> inception_5b/pool_proj (in-place)
I0403 13:56:42.147420   542 net.cpp:141] Setting up inception_5b/relu_pool_proj
I0403 13:56:42.147449   542 net.cpp:148] Top shape: 24 128 7 7 (150528)
I0403 13:56:42.147464   542 net.cpp:156] Memory required for data: 1341047328
I0403 13:56:42.147480   542 layer_factory.hpp:77] Creating layer inception_5b/output
I0403 13:56:42.147502   542 net.cpp:91] Creating Layer inception_5b/output
I0403 13:56:42.147533   542 net.cpp:425] inception_5b/output <- inception_5b/1x1
I0403 13:56:42.147552   542 net.cpp:425] inception_5b/output <- inception_5b/3x3
I0403 13:56:42.147569   542 net.cpp:425] inception_5b/output <- inception_5b/5x5
I0403 13:56:42.147585   542 net.cpp:425] inception_5b/output <- inception_5b/pool_proj
I0403 13:56:42.147603   542 net.cpp:399] inception_5b/output -> inception_5b/output
I0403 13:56:42.147660   542 net.cpp:141] Setting up inception_5b/output
I0403 13:56:42.147685   542 net.cpp:148] Top shape: 24 1024 7 7 (1204224)
I0403 13:56:42.147701   542 net.cpp:156] Memory required for data: 1345864224
I0403 13:56:42.147716   542 layer_factory.hpp:77] Creating layer pool5/7x7_s1
I0403 13:56:42.147733   542 net.cpp:91] Creating Layer pool5/7x7_s1
I0403 13:56:42.147749   542 net.cpp:425] pool5/7x7_s1 <- inception_5b/output
I0403 13:56:42.147771   542 net.cpp:399] pool5/7x7_s1 -> pool5/7x7_s1
I0403 13:56:42.148000   542 net.cpp:141] Setting up pool5/7x7_s1
I0403 13:56:42.148026   542 net.cpp:148] Top shape: 24 1024 1 1 (24576)
I0403 13:56:42.148042   542 net.cpp:156] Memory required for data: 1345962528
I0403 13:56:42.148057   542 layer_factory.hpp:77] Creating layer pool5/drop_7x7_s1
I0403 13:56:42.148078   542 net.cpp:91] Creating Layer pool5/drop_7x7_s1
I0403 13:56:42.148095   542 net.cpp:425] pool5/drop_7x7_s1 <- pool5/7x7_s1
I0403 13:56:42.148114   542 net.cpp:386] pool5/drop_7x7_s1 -> pool5/7x7_s1 (in-place)
I0403 13:56:42.148169   542 net.cpp:141] Setting up pool5/drop_7x7_s1
I0403 13:56:42.148198   542 net.cpp:148] Top shape: 24 1024 1 1 (24576)
I0403 13:56:42.148214   542 net.cpp:156] Memory required for data: 1346060832
I0403 13:56:42.148229   542 layer_factory.hpp:77] Creating layer loss3/classifier_plantvillage
I0403 13:56:42.148250   542 net.cpp:91] Creating Layer loss3/classifier_plantvillage
I0403 13:56:42.148267   542 net.cpp:425] loss3/classifier_plantvillage <- pool5/7x7_s1
I0403 13:56:42.148289   542 net.cpp:399] loss3/classifier_plantvillage -> loss3/classifier_plantvillage
I0403 13:56:42.148741   542 net.cpp:141] Setting up loss3/classifier_plantvillage
I0403 13:56:42.148767   542 net.cpp:148] Top shape: 24 38 (912)
I0403 13:56:42.148782   542 net.cpp:156] Memory required for data: 1346064480
I0403 13:56:42.148802   542 layer_factory.hpp:77] Creating layer loss3/classifier_plantvillage_loss3/classifier_plantvillage_0_split
I0403 13:56:42.148820   542 net.cpp:91] Creating Layer loss3/classifier_plantvillage_loss3/classifier_plantvillage_0_split
I0403 13:56:42.148838   542 net.cpp:425] loss3/classifier_plantvillage_loss3/classifier_plantvillage_0_split <- loss3/classifier_plantvillage
I0403 13:56:42.148859   542 net.cpp:399] loss3/classifier_plantvillage_loss3/classifier_plantvillage_0_split -> loss3/classifier_plantvillage_loss3/classifier_plantvillage_0_split_0
I0403 13:56:42.148880   542 net.cpp:399] loss3/classifier_plantvillage_loss3/classifier_plantvillage_0_split -> loss3/classifier_plantvillage_loss3/classifier_plantvillage_0_split_1
I0403 13:56:42.148900   542 net.cpp:399] loss3/classifier_plantvillage_loss3/classifier_plantvillage_0_split -> loss3/classifier_plantvillage_loss3/classifier_plantvillage_0_split_2
I0403 13:56:42.148922   542 net.cpp:399] loss3/classifier_plantvillage_loss3/classifier_plantvillage_0_split -> loss3/classifier_plantvillage_loss3/classifier_plantvillage_0_split_3
I0403 13:56:42.149029   542 net.cpp:141] Setting up loss3/classifier_plantvillage_loss3/classifier_plantvillage_0_split
I0403 13:56:42.149052   542 net.cpp:148] Top shape: 24 38 (912)
I0403 13:56:42.149070   542 net.cpp:148] Top shape: 24 38 (912)
I0403 13:56:42.149086   542 net.cpp:148] Top shape: 24 38 (912)
I0403 13:56:42.149101   542 net.cpp:148] Top shape: 24 38 (912)
I0403 13:56:42.149116   542 net.cpp:156] Memory required for data: 1346079072
I0403 13:56:42.149130   542 layer_factory.hpp:77] Creating layer loss1/loss
I0403 13:56:42.149153   542 net.cpp:91] Creating Layer loss1/loss
I0403 13:56:42.149171   542 net.cpp:425] loss1/loss <- loss1/classifier_plantvillage_loss1/classifier_plantvillage_0_split_0
I0403 13:56:42.149210   542 net.cpp:425] loss1/loss <- label_data_1_split_0
…
