…
I0403 14:27:18.079305  1313 net.cpp:313] The NetState phase (1) differed from the phase (0) specified by a rule in layer data
I0403 14:27:18.080754  1313 net.cpp:49] Initializing net from parameters: 
state {
  phase: TEST
}
layer {
  name: "data"
  type: "Data"
  top: "data"
  top: "label"
  include {
    phase: TEST
  }
  transform_param {
    mirror: false
    crop_size: 224
    mean_file: "/home/mohanty/data/final_dataset/lmdb/grayscale-20-80/mean.binaryproto"
  }
  data_param {
    source: "/home/mohanty/data/final_dataset/lmdb/grayscale-20-80/test_db"
    batch_size: 24
    backend: LMDB
  }
}
layer {
  name: "conv1/7x7_s2"
  type: "Convolution"
  bottom: "data"
  top: "conv1/7x7_s2"
  param {
    lr_mult: 1
    decay_mult: 1
  }
  param {
    lr_mult: 2
    decay_mult: 0
  }
  convolution_param {
    num_output: 64
    pad: 3
    kernel_size: 7
    stride: 2
    weight_filler {
      type: "xavier"
      std: 0.1
    }
    bias_filler {
      type: "constant"
      value: 0.2
    }
  }
}
layer {
  name: "conv1/relu_7x7"
  type: "ReLU"
  bottom: "conv1/7x7_s2"
  top: "conv1/7x7_s2"
}
layer {
  name: "pool1/3x3_s2"
  type: "Pooling"
  bottom: "conv1/7x7_s2"
  top: "pool1/3x3_s2"
  pooling_param {
    pool: MAX
    kernel_size: 3
    stride: 2
  }
}
layer {
  name: "pool1/norm1"
  type: "LRN"
  bottom: "pool1/3x3_s2"
  top: "pool1/norm1"
  lrn_param {
    local_size: 5
    alpha: 0.0001
    beta: 0.75
  }
}
layer {
  name: "conv2/3x3_reduce"
  type: "Convolution"
  bottom: "pool1/norm1"
  top: "conv2/3x3_reduce"
  param {
    lr_mult: 1
    decay_mult: 1
  }
  param {
    lr_mult: 2
    decay_mult: 0
  }
  convolution_param {
    num_output: 64
    kernel_size: 1
    weight_filler {
      type: "xavier"
      std: 0.1
    }
    bias_filler {
      type: "constant"
      value: 0.2
    }
  }
}
layer {
  name: "conv2/relu_3x3_reduce"
  type: "ReLU"
  bottom: "conv2/3x3_reduce"
  top: "conv2/3x3_reduce"
}
layer {
  name: "conv2/3x3"
  type: "Convolution"
  bottom: "conv2/3x3_reduce"
  top: "conv2/3x3"
  param {
    lr_mult: 1
    decay_mult: 1
  }
  param {
    lr_mult: 2
    decay_mult: 0
  }
  convolution_param {
    num_output: 192
    pad: 1
    kernel_size: 3
    weight_filler {
      type: "xavier"
      std: 0.03
    }
    bias_filler {
      type: "constant"
      value: 0.2
    }
  }
}
layer {
  name: "conv2/relu_3x3"
  type: "ReLU"
  bottom: "conv2/3x3"
  top: "conv2/3x3"
}
layer {
  name: "conv2/norm2"
  type: "LRN"
  bottom: "conv2/3x3"
  top: "conv2/norm2"
  lrn_param {
    local_size: 5
    alpha: 0.0001
    beta: 0.75
  }
}
layer {
  name: "pool2/3x3_s2"
  type: "Pooling"
  bottom: "conv2/norm2"
  top: "pool2/3x3_s2"
  pooling_param {
    pool: MAX
    kernel_size: 3
    stride: 2
  }
}
layer {
  name: "inception_3a/1x1"
  type: "Convolution"
  bottom: "pool2/3x3_s2"
  top: "inception_3a/1x1"
  param {
    lr_mult: 1
    decay_mult: 1
  }
  param {
    lr_mult: 2
    decay_mult: 0
  }
  convolution_param {
    num_output: 64
    kernel_size: 1
    weight_filler {
      type: "xavier"
      std: 0.03
    }
    bias_filler {
      type: "constant"
      value: 0.2
    }
  }
}
layer {
  name: "inception_3a/relu_1x1"
  type: "ReLU"
  bottom: "inception_3a/1x1"
  top: "inception_3a/1x1"
}
layer {
  name: "inception_3a/3x3_reduce"
  type: "Convolution"
  bottom: "pool2/3x3_s2"
  top: "inception_3a/3x3_reduce"
  param {
    lr_mult: 1
    decay_mult: 1
  }
  param {
    lr_mult: 2
    decay_mult: 0
  }
  convolution_param {
    num_output: 96
    kernel_size: 1
    weight_filler {
      type: "xavier"
      std: 0.09
    }
    bias_filler {
      type: "constant"
      value: 0.2
    }
  }
}
layer {
  name: "inception_3a/relu_3x3_reduce"
  type: "ReLU"
  bottom: "inception_3a/3x3_reduce"
  top: "inception_3a/3x3_reduce"
}
layer {
  name: "inception_3a/3x3"
  type: "Convolution"
  bottom: "inception_3a/3x3_reduce"
  top: "inception_3a/3x3"
  param {
    lr_mult: 1
    decay_mult: 1
  }
  param {
    lr_mult: 2
    decay_mult: 0
  }
  convolution_param {
    num_output: 128
    pad: 1
    kernel_size: 3
    weight_filler {
      type: "xavier"
      std: 0.03
    }
    bias_filler {
      type: "constant"
      value: 0.2
    }
  }
}
layer {
  name: "inception_3a/relu_3x3"
  type: "ReLU"
  bottom: "inception_3a/3x3"
  top: "inception_3a/3x3"
}
layer {
  name: "inception_3a/5x5_reduce"
  type: "Convolution"
  bottom: "pool2/3x3_s2"
  top: "inception_3a/5x5_reduce"
  param {
    lr_mult: 1
    decay_mult: 1
  }
  param {
    lr_mult: 2
    decay_mult: 0
  }
  convolution_param {
    num_output: 16
    kernel_size: 1
    weight_filler {
      type: "xavier"
      std: 0.2
    }
    bias_filler {
      type: "constant"
      value: 0.2
    }
  }
}
layer {
  name: "inception_3a/relu_5x5_reduce"
  type: "ReLU"
  bottom: "inception_3a/5x5_reduce"
  top: "inception_3a/5x5_reduce"
}
layer {
  name: "inception_3a/5x5"
  type: "Convolution"
  bottom: "inception_3a/5x5_reduce"
  top: "inception_3a/5x5"
  param {
    lr_mult: 1
    decay_mult: 1
  }
  param {
    lr_mult: 2
    decay_mult: 0
  }
  convolution_param {
    num_output: 32
    pad: 2
    kernel_size: 5
    weight_filler {
      type: "xavier"
      std: 0.03
    }
    bias_filler {
      type: "constant"
      value: 0.2
    }
  }
}
layer {
  name: "inception_3a/relu_5x5"
  type: "ReLU"
  bottom: "inception_3a/5x5"
  top: "inception_3a/5x5"
}
layer {
  name: "inception_3a/pool"
  type: "Pooling"
  bottom: "pool2/3x3_s2"
  top: "inception_3a/pool"
  pooling_param {
    pool: MAX
    kernel_size: 3
    stride: 1
    pad: 1
  }
}
layer {
  name: "inception_3a/pool_proj"
  type: "Convolution"
  bottom: "inception_3a/pool"
  top: "inception_3a/pool_proj"
  param {
    lr_mult: 1
    decay_mult: 1
  }
  param {
    lr_mult: 2
    decay_mult: 0
  }
  convolution_param {
    num_output: 32
    kernel_size: 1
    weight_filler {
      type: "xavier"
      std: 0.1
    }
    bias_filler {
      type: "constant"
      value: 0.2
    }
  }
}
layer {
  name: "inception_3a/relu_pool_proj"
  type: "ReLU"
  bottom: "inception_3a/pool_proj"
  top: "inception_3a/pool_proj"
}
layer {
  name: "inception_3a/output"
  type: "Concat"
  bottom: "inception_3a/1x1"
  bottom: "inception_3a/3x3"
  bottom: "inception_3a/5x5"
  bottom: "inception_3a/pool_proj"
  top: "inception_3a/output"
}
layer {
  name: "inception_3b/1x1"
  type: "Convolution"
  bottom: "inception_3a/output"
  top: "inception_3b/1x1"
  param {
    lr_mult: 1
    decay_mult: 1
  }
  param {
    lr_mult: 2
    decay_mult: 0
  }
  convolution_param {
    num_output: 128
    kernel_size: 1
    weight_filler {
      type: "xavier"
      std: 0.03
    }
    bias_filler {
      type: "constant"
      value: 0.2
    }
  }
}
layer {
  name: "inception_3b/relu_1x1"
  type: "ReLU"
  bottom: "inception_3b/1x1"
  top: "inception_3b/1x1"
}
layer {
  name: "inception_3b/3x3_reduce"
  type: "Convolution"
  bottom: "inception_3a/output"
  top: "inception_3b/3x3_reduce"
  param {
    lr_mult: 1
    decay_mult: 1
  }
  param {
    lr_mult: 2
    decay_mult: 0
  }
  convolution_param {
    num_output: 128
    kernel_size: 1
    weight_filler {
      type: "xavier"
      std: 0.09
    }
    bias_filler {
      type: "constant"
      value: 0.2
    }
  }
}
layer {
  name: "inception_3b/relu_3x3_reduce"
  type: "ReLU"
  bottom: "inception_3b/3x3_reduce"
  top: "inception_3b/3x3_reduce"
}
layer {
  name: "inception_3b/3x3"
  type: "Convolution"
  bottom: "inception_3b/3x3_reduce"
  top: "inception_3b/3x3"
  param {
    lr_mult: 1
    decay_mult: 1
  }
  param {
    lr_mult: 2
    decay_mult: 0
  }
  convolution_param {
    num_output: 192
    pad: 1
    kernel_size: 3
    weight_filler {
      type: "xavier"
      std: 0.03
    }
    bias_filler {
      type: "constant"
      value: 0.2
    }
  }
}
layer {
  name: "inception_3b/relu_3x3"
  type: "ReLU"
  bottom: "inception_3b/3x3"
  top: "inception_3b/3x3"
}
layer {
  name: "inception_3b/5x5_reduce"
  type: "Convolution"
  bottom: "inception_3a/output"
  top: "inception_3b/5x5_reduce"
  param {
    lr_mult: 1
    decay_mult: 1
  }
  param {
    lr_mult: 2
    decay_mult: 0
  }
  convolution_param {
    num_output: 32
    kernel_size: 1
    weight_filler {
      type: "xavier"
      std: 0.2
    }
    bias_filler {
      type: "constant"
      value: 0.2
    }
  }
}
layer {
  name: "inception_3b/relu_5x5_reduce"
  type: "ReLU"
  bottom: "inception_3b/5x5_reduce"
  top: "inception_3b/5x5_reduce"
}
layer {
  name: "inception_3b/5x5"
  type: "Convolution"
  bottom: "inception_3b/5x5_reduce"
  top: "inception_3b/5x5"
  param {
    lr_mult: 1
    decay_mult: 1
  }
  param {
    lr_mult: 2
    decay_mult: 0
  }
  convolution_param {
    num_output: 96
    pad: 2
    kernel_size: 5
    weight_filler {
      type: "xavier"
      std: 0.03
    }
    bias_filler {
      type: "constant"
      value: 0.2
    }
  }
}
layer {
  name: "inception_3b/relu_5x5"
  type: "ReLU"
  bottom: "inception_3b/5x5"
  top: "inception_3b/5x5"
}
layer {
  name: "inception_3b/pool"
  type: "Pooling"
  bottom: "inception_3a/output"
  top: "inception_3b/pool"
  pooling_param {
    pool: MAX
    kernel_size: 3
    stride: 1
    pad: 1
  }
}
layer {
  name: "inception_3b/pool_proj"
  type: "Convolution"
  bottom: "inception_3b/pool"
  top: "inception_3b/pool_proj"
  param {
    lr_mult: 1
    decay_mult: 1
  }
  param {
    lr_mult: 2
    decay_mult: 0
  }
  convolution_param {
    num_output: 64
    kernel_size: 1
    weight_filler {
      type: "xavier"
      std: 0.1
    }
    bias_filler {
      type: "constant"
      value: 0.2
    }
  }
}
layer {
  name: "inception_3b/relu_pool_proj"
  type: "ReLU"
  bottom: "inception_3b/pool_proj"
  top: "inception_3b/pool_proj"
}
layer {
  name: "inception_3b/output"
  type: "Concat"
  bottom: "inception_3b/1x1"
  bottom: "inception_3b/3x3"
  bottom: "inception_3b/5x5"
  bottom: "inception_3b/pool_proj"
  top: "inception_3b/output"
}
layer {
  name: "pool3/3x3_s2"
  type: "Pooling"
  bottom: "inception_3b/output"
  top: "pool3/3x3_s2"
  pooling_param {
    pool: MAX
    kernel_size: 3
    stride: 2
  }
}
layer {
  name: "inception_4a/1x1"
  type: "Convolution"
  bottom: "pool3/3x3_s2"
  top: "inception_4a/1x1"
  param {
    lr_mult: 1
    decay_mult: 1
  }
  param {
    lr_mult: 2
    decay_mult: 0
  }
  convolution_param {
    num_output: 192
    kernel_size: 1
    weight_filler {
      type: "xavier"
      std: 0.03
    }
    bias_filler {
      type: "constant"
      value: 0.2
    }
  }
}
layer {
  name: "inception_4a/relu_1x1"
  type: "ReLU"
  bottom: "inception_4a/1x1"
  top: "inception_4a/1x1"
}
layer {
  name: "inception_4a/3x3_reduce"
  type: "Convolution"
  bottom: "pool3/3x3_s2"
  top: "inception_4a/3x3_reduce"
  param {
    lr_mult: 1
    decay_mult: 1
  }
  param {
    lr_mult: 2
    decay_mult: 0
  }
  convolution_param {
    num_output: 96
    kernel_size: 1
    weight_filler {
      type: "xavier"
      std: 0.09
    }
    bias_filler {
      type: "constant"
      value: 0.2
    }
  }
}
layer {
  name: "inception_4a/relu_3x3_reduce"
  type: "ReLU"
  bottom: "inception_4a/3x3_reduce"
  top: "inception_4a/3x3_reduce"
}
layer {
  name: "inception_4a/3x3"
  type: "Convolution"
  bottom: "inception_4a/3x3_reduce"
  top: "inception_4a/3x3"
  param {
    lr_mult: 1
    decay_mult: 1
  }
  param {
    lr_mult: 2
    decay_mult: 0
  }
  convolution_param {
    num_output: 208
    pad: 1
    kernel_size: 3
    weight_filler {
      type: "xavier"
      std: 0.03
    }
    bias_filler {
      type: "constant"
      value: 0.2
    }
  }
}
layer {
  name: "inception_4a/relu_3x3"
  type: "ReLU"
  bottom: "inception_4a/3x3"
  top: "inception_4a/3x3"
}
layer {
  name: "inception_4a/5x5_reduce"
  type: "Convolution"
  bottom: "pool3/3x3_s2"
  top: "inception_4a/5x5_reduce"
  param {
    lr_mult: 1
    decay_mult: 1
  }
  param {
    lr_mult: 2
    decay_mult: 0
  }
  convolution_param {
    num_output: 16
    kernel_size: 1
    weight_filler {
      type: "xavier"
      std: 0.2
    }
    bias_filler {
      type: "constant"
      value: 0.2
    }
  }
}
layer {
  name: "inception_4a/relu_5x5_reduce"
  type: "ReLU"
  bottom: "inception_4a/5x5_reduce"
  top: "inception_4a/5x5_reduce"
}
layer {
  name: "inception_4a/5x5"
  type: "Convolution"
  bottom: "inception_4a/5x5_reduce"
  top: "inception_4a/5x5"
  param {
    lr_mult: 1
    decay_mult: 1
  }
  param {
    lr_mult: 2
    decay_mult: 0
  }
  convolution_param {
    num_output: 48
    pad: 2
    kernel_size: 5
    weight_filler {
      type: "xavier"
      std: 0.03
    }
    bias_filler {
      type: "constant"
      value: 0.2
    }
  }
}
layer {
  name: "inception_4a/relu_5x5"
  type: "ReLU"
  bottom: "inception_4a/5x5"
  top: "inception_4a/5x5"
}
layer {
  name: "inception_4a/pool"
  type: "Pooling"
  bottom: "pool3/3x3_s2"
  top: "inception_4a/pool"
  pooling_param {
    pool: MAX
    kernel_size: 3
    stride: 1
    pad: 1
  }
}
layer {
  name: "inception_4a/pool_proj"
  type: "Convolution"
  bottom: "inception_4a/pool"
  top: "inception_4a/pool_proj"
  param {
    lr_mult: 1
    decay_mult: 1
  }
  param {
    lr_mult: 2
    decay_mult: 0
  }
  convolution_param {
    num_output: 64
    kernel_size: 1
    weight_filler {
      type: "xavier"
      std: 0.1
    }
    bias_filler {
      type: "constant"
      value: 0.2
    }
  }
}
layer {
  name: "inception_4a/relu_pool_proj"
  type: "ReLU"
  bottom: "inception_4a/pool_proj"
  top: "inception_4a/pool_proj"
}
layer {
  name: "inception_4a/output"
  type: "Concat"
  bottom: "inception_4a/1x1"
  bottom: "inception_4a/3x3"
  bottom: "inception_4a/5x5"
  bottom: "inception_4a/pool_proj"
  top: "inception_4a/output"
}
layer {
  name: "loss1/ave_pool"
  type: "Pooling"
  bottom: "inception_4a/output"
  top: "loss1/ave_pool"
  pooling_param {
    pool: AVE
    kernel_size: 5
    stride: 3
  }
}
layer {
  name: "loss1/conv"
  type: "Convolution"
  bottom: "loss1/ave_pool"
  top: "loss1/conv"
  param {
    lr_mult: 1
    decay_mult: 1
  }
  param {
    lr_mult: 2
    decay_mult: 0
  }
  convolution_param {
    num_output: 128
    kernel_size: 1
    weight_filler {
      type: "xavier"
      std: 0.08
    }
    bias_filler {
      type: "constant"
      value: 0.2
    }
  }
}
layer {
  name: "loss1/relu_conv"
  type: "ReLU"
  bottom: "loss1/conv"
  top: "loss1/conv"
}
layer {
  name: "loss1/fc"
  type: "InnerProduct"
  bottom: "loss1/conv"
  top: "loss1/fc"
  param {
    lr_mult: 1
    decay_mult: 1
  }
  param {
    lr_mult: 2
    decay_mult: 0
  }
  inner_product_param {
    num_output: 1024
    weight_filler {
      type: "xavier"
      std: 0.02
    }
    bias_filler {
      type: "constant"
      value: 0.2
    }
  }
}
layer {
  name: "loss1/relu_fc"
  type: "ReLU"
  bottom: "loss1/fc"
  top: "loss1/fc"
}
layer {
  name: "loss1/drop_fc"
  type: "Dropout"
  bottom: "loss1/fc"
  top: "loss1/fc"
  dropout_param {
    dropout_ratio: 0.7
  }
}
layer {
  name: "loss1/classifier_plantvillage"
  type: "InnerProduct"
  bottom: "loss1/fc"
  top: "loss1/classifier_plantvillage"
  param {
    lr_mult: 1
    decay_mult: 1
  }
  param {
    lr_mult: 2
    decay_mult: 0
  }
  inner_product_param {
    num_output: 38
    weight_filler {
      type: "xavier"
      std: 0.0009765625
    }
    bias_filler {
      type: "constant"
      value: 0
    }
  }
}
layer {
  name: "inception_4b/1x1"
  type: "Convolution"
  bottom: "inception_4a/output"
  top: "inception_4b/1x1"
  param {
    lr_mult: 1
    decay_mult: 1
  }
  param {
    lr_mult: 2
    decay_mult: 0
  }
  convolution_param {
    num_output: 160
    kernel_size: 1
    weight_filler {
      type: "xavier"
      std: 0.03
    }
    bias_filler {
      type: "constant"
      value: 0.2
    }
  }
}
layer {
  name: "inception_4b/relu_1x1"
  type: "ReLU"
  bottom: "inception_4b/1x1"
  top: "inception_4b/1x1"
}
layer {
  name: "inception_4b/3x3_reduce"
  type: "Convolution"
  bottom: "inception_4a/output"
  top: "inception_4b/3x3_reduce"
  param {
    lr_mult: 1
    decay_mult: 1
  }
  param {
    lr_mult: 2
    decay_mult: 0
  }
  convolution_param {
    num_output: 112
    kernel_size: 1
    weight_filler {
      type: "xavier"
      std: 0.09
    }
    bias_filler {
      type: "constant"
      value: 0.2
    }
  }
}
layer {
  name: "inception_4b/relu_3x3_reduce"
  type: "ReLU"
  bottom: "inception_4b/3x3_reduce"
  top: "inception_4b/3x3_reduce"
}
layer {
  name: "inception_4b/3x3"
  type: "Convolution"
  bottom: "inception_4b/3x3_reduce"
  top: "inception_4b/3x3"
  param {
    lr_mult: 1
    decay_mult: 1
  }
  param {
    lr_mult: 2
    decay_mult: 0
  }
  convolution_param {
    num_output: 224
    pad: 1
    kernel_size: 3
    weight_filler {
      type: "xavier"
      std: 0.03
    }
    bias_filler {
      type: "constant"
      value: 0.2
    }
  }
}
layer {
  name: "inception_4b/relu_3x3"
  type: "ReLU"
  bottom: "inception_4b/3x3"
  top: "inception_4b/3x3"
}
layer {
  name: "inception_4b/5x5_reduce"
  type: "Convolution"
  bottom: "inception_4a/output"
  top: "inception_4b/5x5_reduce"
  param {
    lr_mult: 1
    decay_mult: 1
  }
  param {
    lr_mult: 2
    decay_mult: 0
  }
  convolution_param {
    num_output: 24
    kernel_size: 1
    weight_filler {
      type: "xavier"
      std: 0.2
    }
    bias_filler {
      type: "constant"
      value: 0.2
    }
  }
}
layer {
  name: "inception_4b/relu_5x5_reduce"
  type: "ReLU"
  bottom: "inception_4b/5x5_reduce"
  top: "inception_4b/5x5_reduce"
}
layer {
  name: "inception_4b/5x5"
  type: "Convolution"
  bottom: "inception_4b/5x5_reduce"
  top: "inception_4b/5x5"
  param {
    lr_mult: 1
    decay_mult: 1
  }
  param {
    lr_mult: 2
    decay_mult: 0
  }
  convolution_param {
    num_output: 64
    pad: 2
    kernel_size: 5
    weight_filler {
      type: "xavier"
      std: 0.03
    }
    bias_filler {
      type: "constant"
      value: 0.2
    }
  }
}
layer {
  name: "inception_4b/relu_5x5"
  type: "ReLU"
  bottom: "inception_4b/5x5"
  top: "inception_4b/5x5"
}
layer {
  name: "inception_4b/pool"
  type: "Pooling"
  bottom: "inception_4a/output"
  top: "inception_4b/pool"
  pooling_param {
    pool: MAX
    kernel_size: 3
    stride: 1
    pad: 1
  }
}
layer {
  name: "inception_4b/pool_proj"
  type: "Convolution"
  bottom: "inception_4b/pool"
  top: "inception_4b/pool_proj"
  param {
    lr_mult: 1
    decay_mult: 1
  }
  param {
    lr_mult: 2
    decay_mult: 0
  }
  convolution_param {
    num_output: 64
    kernel_size: 1
    weight_filler {
      type: "xavier"
      std: 0.1
    }
    bias_filler {
      type: "constant"
      value: 0.2
    }
  }
}
layer {
  name: "inception_4b/relu_pool_proj"
  type: "ReLU"
  bottom: "inception_4b/pool_proj"
  top: "inception_4b/pool_proj"
}
layer {
  name: "inception_4b/output"
  type: "Concat"
  bottom: "inception_4b/1x1"
  bottom: "inception_4b/3x3"
  bottom: "inception_4b/5x5"
  bottom: "inception_4b/pool_proj"
  top: "inception_4b/output"
}
layer {
  name: "inception_4c/1x1"
  type: "Convolution"
  bottom: "inception_4b/output"
  top: "inception_4c/1x1"
  param {
    lr_mult: 1
    decay_mult: 1
  }
  param {
    lr_mult: 2
    decay_mult: 0
  }
  convolution_param {
    num_output: 128
    kernel_size: 1
    weight_filler {
      type: "xavier"
      std: 0.03
    }
    bias_filler {
      type: "constant"
      value: 0.2
    }
  }
}
layer {
  name: "inception_4c/relu_1x1"
  type: "ReLU"
  bottom: "inception_4c/1x1"
  top: "inception_4c/1x1"
}
layer {
  name: "inception_4c/3x3_reduce"
  type: "Convolution"
  bottom: "inception_4b/output"
  top: "inception_4c/3x3_reduce"
  param {
    lr_mult: 1
    decay_mult: 1
  }
  param {
    lr_mult: 2
    decay_mult: 0
  }
  convolution_param {
    num_output: 128
    kernel_size: 1
    weight_filler {
      type: "xavier"
      std: 0.09
    }
    bias_filler {
      type: "constant"
      value: 0.2
    }
  }
}
layer {
  name: "inception_4c/relu_3x3_reduce"
  type: "ReLU"
  bottom: "inception_4c/3x3_reduce"
  top: "inception_4c/3x3_reduce"
}
layer {
  name: "inception_4c/3x3"
  type: "Convolution"
  bottom: "inception_4c/3x3_reduce"
  top: "inception_4c/3x3"
  param {
    lr_mult: 1
    decay_mult: 1
  }
  param {
    lr_mult: 2
    decay_mult: 0
  }
  convolution_param {
    num_output: 256
    pad: 1
    kernel_size: 3
    weight_filler {
      type: "xavier"
      std: 0.03
    }
    bias_filler {
      type: "constant"
      value: 0.2
    }
  }
}
layer {
  name: "inception_4c/relu_3x3"
  type: "ReLU"
  bottom: "inception_4c/3x3"
  top: "inception_4c/3x3"
}
layer {
  name: "inception_4c/5x5_reduce"
  type: "Convolution"
  bottom: "inception_4b/output"
  top: "inception_4c/5x5_reduce"
  param {
    lr_mult: 1
    decay_mult: 1
  }
  param {
    lr_mult: 2
    decay_mult: 0
  }
  convolution_param {
    num_output: 24
    kernel_size: 1
    weight_filler {
      type: "xavier"
      std: 0.2
    }
    bias_filler {
      type: "constant"
      value: 0.2
    }
  }
}
layer {
  name: "inception_4c/relu_5x5_reduce"
  type: "ReLU"
  bottom: "inception_4c/5x5_reduce"
  top: "inception_4c/5x5_reduce"
}
layer {
  name: "inception_4c/5x5"
  type: "Convolution"
  bottom: "inception_4c/5x5_reduce"
  top: "inception_4c/5x5"
  param {
    lr_mult: 1
    decay_mult: 1
  }
  param {
    lr_mult: 2
    decay_mult: 0
  }
  convolution_param {
    num_output: 64
    pad: 2
    kernel_size: 5
    weight_filler {
      type: "xavier"
      std: 0.03
    }
    bias_filler {
      type: "constant"
      value: 0.2
    }
  }
}
layer {
  name: "inception_4c/relu_5x5"
  type: "ReLU"
  bottom: "inception_4c/5x5"
  top: "inception_4c/5x5"
}
layer {
  name: "inception_4c/pool"
  type: "Pooling"
  bottom: "inception_4b/output"
  top: "inception_4c/pool"
  pooling_param {
    pool: MAX
    kernel_size: 3
    stride: 1
    pad: 1
  }
}
layer {
  name: "inception_4c/pool_proj"
  type: "Convolution"
  bottom: "inception_4c/pool"
  top: "inception_4c/pool_proj"
  param {
    lr_mult: 1
    decay_mult: 1
  }
  param {
    lr_mult: 2
    decay_mult: 0
  }
  convolution_param {
    num_output: 64
    kernel_size: 1
    weight_filler {
      type: "xavier"
      std: 0.1
    }
    bias_filler {
      type: "constant"
      value: 0.2
    }
  }
}
layer {
  name: "inception_4c/relu_pool_proj"
  type: "ReLU"
  bottom: "inception_4c/pool_proj"
  top: "inception_4c/pool_proj"
}
layer {
  name: "inception_4c/output"
  type: "Concat"
  bottom: "inception_4c/1x1"
  bottom: "inception_4c/3x3"
  bottom: "inception_4c/5x5"
  bottom: "inception_4c/pool_proj"
  top: "inception_4c/output"
}
layer {
  name: "inception_4d/1x1"
  type: "Convolution"
  bottom: "inception_4c/output"
  top: "inception_4d/1x1"
  param {
    lr_mult: 1
    decay_mult: 1
  }
  param {
    lr_mult: 2
    decay_mult: 0
  }
  convolution_param {
    num_output: 112
    kernel_size: 1
    weight_filler {
      type: "xavier"
      std: 0.03
    }
    bias_filler {
      type: "constant"
      value: 0.2
    }
  }
}
layer {
  name: "inception_4d/relu_1x1"
  type: "ReLU"
  bottom: "inception_4d/1x1"
  top: "inception_4d/1x1"
}
layer {
  name: "inception_4d/3x3_reduce"
  type: "Convolution"
  bottom: "inception_4c/output"
  top: "inception_4d/3x3_reduce"
  param {
    lr_mult: 1
    decay_mult: 1
  }
  param {
    lr_mult: 2
    decay_mult: 0
  }
  convolution_param {
    num_output: 144
    kernel_size: 1
    weight_filler {
      type: "xavier"
      std: 0.09
    }
    bias_filler {
      type: "constant"
      value: 0.2
    }
  }
}
layer {
  name: "inception_4d/relu_3x3_reduce"
  type: "ReLU"
  bottom: "inception_4d/3x3_reduce"
  top: "inception_4d/3x3_reduce"
}
layer {
  name: "inception_4d/3x3"
  type: "Convolution"
  bottom: "inception_4d/3x3_reduce"
  top: "inception_4d/3x3"
  param {
    lr_mult: 1
    decay_mult: 1
  }
  param {
    lr_mult: 2
    decay_mult: 0
  }
  convolution_param {
    num_output: 288
    pad: 1
    kernel_size: 3
    weight_filler {
      type: "xavier"
      std: 0.03
    }
    bias_filler {
      type: "constant"
      value: 0.2
    }
  }
}
layer {
  name: "inception_4d/relu_3x3"
  type: "ReLU"
  bottom: "inception_4d/3x3"
  top: "inception_4d/3x3"
}
layer {
  name: "inception_4d/5x5_reduce"
  type: "Convolution"
  bottom: "inception_4c/output"
  top: "inception_4d/5x5_reduce"
  param {
    lr_mult: 1
    decay_mult: 1
  }
  param {
    lr_mult: 2
    decay_mult: 0
  }
  convolution_param {
    num_output: 32
    kernel_size: 1
    weight_filler {
      type: "xavier"
      std: 0.2
    }
    bias_filler {
      type: "constant"
      value: 0.2
    }
  }
}
layer {
  name: "inception_4d/relu_5x5_reduce"
  type: "ReLU"
  bottom: "inception_4d/5x5_reduce"
  top: "inception_4d/5x5_reduce"
}
layer {
  name: "inception_4d/5x5"
  type: "Convolution"
  bottom: "inception_4d/5x5_reduce"
  top: "inception_4d/5x5"
  param {
    lr_mult: 1
    decay_mult: 1
  }
  param {
    lr_mult: 2
    decay_mult: 0
  }
  convolution_param {
    num_output: 64
    pad: 2
    kernel_size: 5
    weight_filler {
      type: "xavier"
      std: 0.03
    }
    bias_filler {
      type: "constant"
      value: 0.2
    }
  }
}
layer {
  name: "inception_4d/relu_5x5"
  type: "ReLU"
  bottom: "inception_4d/5x5"
  top: "inception_4d/5x5"
}
layer {
  name: "inception_4d/pool"
  type: "Pooling"
  bottom: "inception_4c/output"
  top: "inception_4d/pool"
  pooling_param {
    pool: MAX
    kernel_size: 3
    stride: 1
    pad: 1
  }
}
layer {
  name: "inception_4d/pool_proj"
  type: "Convolution"
  bottom: "inception_4d/pool"
  top: "inception_4d/pool_proj"
  param {
    lr_mult: 1
    decay_mult: 1
  }
  param {
    lr_mult: 2
    decay_mult: 0
  }
  convolution_param {
    num_output: 64
    kernel_size: 1
    weight_filler {
      type: "xavier"
      std: 0.1
    }
    bias_filler {
      type: "constant"
      value: 0.2
    }
  }
}
layer {
  name: "inception_4d/relu_pool_proj"
  type: "ReLU"
  bottom: "inception_4d/pool_proj"
  top: "inception_4d/pool_proj"
}
layer {
  name: "inception_4d/output"
  type: "Concat"
  bottom: "inception_4d/1x1"
  bottom: "inception_4d/3x3"
  bottom: "inception_4d/5x5"
  bottom: "inception_4d/pool_proj"
  top: "inception_4d/output"
}
layer {
  name: "loss2/ave_pool"
  type: "Pooling"
  bottom: "inception_4d/output"
  top: "loss2/ave_pool"
  pooling_param {
    pool: AVE
    kernel_size: 5
    stride: 3
  }
}
layer {
  name: "loss2/conv"
  type: "Convolution"
  bottom: "loss2/ave_pool"
  top: "loss2/conv"
  param {
    lr_mult: 1
    decay_mult: 1
  }
  param {
    lr_mult: 2
    decay_mult: 0
  }
  convolution_param {
    num_output: 128
    kernel_size: 1
    weight_filler {
      type: "xavier"
      std: 0.08
    }
    bias_filler {
      type: "constant"
      value: 0.2
    }
  }
}
layer {
  name: "loss2/relu_conv"
  type: "ReLU"
  bottom: "loss2/conv"
  top: "loss2/conv"
}
layer {
  name: "loss2/fc"
  type: "InnerProduct"
  bottom: "loss2/conv"
  top: "loss2/fc"
  param {
    lr_mult: 1
    decay_mult: 1
  }
  param {
    lr_mult: 2
    decay_mult: 0
  }
  inner_product_param {
    num_output: 1024
    weight_filler {
      type: "xavier"
      std: 0.02
    }
    bias_filler {
      type: "constant"
      value: 0.2
    }
  }
}
layer {
  name: "loss2/relu_fc"
  type: "ReLU"
  bottom: "loss2/fc"
  top: "loss2/fc"
}
layer {
  name: "loss2/drop_fc"
  type: "Dropout"
  bottom: "loss2/fc"
  top: "loss2/fc"
  dropout_param {
    dropout_ratio: 0.7
  }
}
layer {
  name: "loss2/classifier_plantvillage"
  type: "InnerProduct"
  bottom: "loss2/fc"
  top: "loss2/classifier_plantvillage"
  param {
    lr_mult: 1
    decay_mult: 1
  }
  param {
    lr_mult: 2
    decay_mult: 0
  }
  inner_product_param {
    num_output: 38
    weight_filler {
      type: "xavier"
      std: 0.0009765625
    }
    bias_filler {
      type: "constant"
      value: 0
    }
  }
}
layer {
  name: "inception_4e/1x1"
  type: "Convolution"
  bottom: "inception_4d/output"
  top: "inception_4e/1x1"
  param {
    lr_mult: 1
    decay_mult: 1
  }
  param {
    lr_mult: 2
    decay_mult: 0
  }
  convolution_param {
    num_output: 256
    kernel_size: 1
    weight_filler {
      type: "xavier"
      std: 0.03
    }
    bias_filler {
      type: "constant"
      value: 0.2
    }
  }
}
layer {
  name: "inception_4e/relu_1x1"
  type: "ReLU"
  bottom: "inception_4e/1x1"
  top: "inception_4e/1x1"
}
layer {
  name: "inception_4e/3x3_reduce"
  type: "Convolution"
  bottom: "inception_4d/output"
  top: "inception_4e/3x3_reduce"
  param {
    lr_mult: 1
    decay_mult: 1
  }
  param {
    lr_mult: 2
    decay_mult: 0
  }
  convolution_param {
    num_output: 160
    kernel_size: 1
    weight_filler {
      type: "xavier"
      std: 0.09
    }
    bias_filler {
      type: "constant"
      value: 0.2
    }
  }
}
layer {
  name: "inception_4e/relu_3x3_reduce"
  type: "ReLU"
  bottom: "inception_4e/3x3_reduce"
  top: "inception_4e/3x3_reduce"
}
layer {
  name: "inception_4e/3x3"
  type: "Convolution"
  bottom: "inception_4e/3x3_reduce"
  top: "inception_4e/3x3"
  param {
    lr_mult: 1
    decay_mult: 1
  }
  param {
    lr_mult: 2
    decay_mult: 0
  }
  convolution_param {
    num_output: 320
    pad: 1
    kernel_size: 3
    weight_filler {
      type: "xavier"
      std: 0.03
    }
    bias_filler {
      type: "constant"
      value: 0.2
    }
  }
}
layer {
  name: "inception_4e/relu_3x3"
  type: "ReLU"
  bottom: "inception_4e/3x3"
  top: "inception_4e/3x3"
}
layer {
  name: "inception_4e/5x5_reduce"
  type: "Convolution"
  bottom: "inception_4d/output"
  top: "inception_4e/5x5_reduce"
  param {
    lr_mult: 1
    decay_mult: 1
  }
  param {
    lr_mult: 2
    decay_mult: 0
  }
  convolution_param {
    num_output: 32
    kernel_size: 1
    weight_filler {
      type: "xavier"
      std: 0.2
    }
    bias_filler {
      type: "constant"
      value: 0.2
    }
  }
}
layer {
  name: "inception_4e/relu_5x5_reduce"
  type: "ReLU"
  bottom: "inception_4e/5x5_reduce"
  top: "inception_4e/5x5_reduce"
}
layer {
  name: "inception_4e/5x5"
  type: "Convolution"
  bottom: "inception_4e/5x5_reduce"
  top: "inception_4e/
I0403 14:27:18.082315  1313 layer_factory.hpp:77] Creating layer data
I0403 14:27:18.083039  1313 net.cpp:91] Creating Layer data
I0403 14:27:18.083075  1313 net.cpp:399] data -> data
I0403 14:27:18.083130  1313 net.cpp:399] data -> label
I0403 14:27:18.083233  1313 data_transformer.cpp:25] Loading mean file from: /home/mohanty/data/final_dataset/lmdb/grayscale-20-80/mean.binaryproto
I0403 14:27:18.086110  1318 db_lmdb.cpp:38] Opened lmdb /home/mohanty/data/final_dataset/lmdb/grayscale-20-80/test_db
I0403 14:27:18.098847  1313 data_layer.cpp:41] output data size: 24,3,224,224
I0403 14:27:18.130143  1313 net.cpp:141] Setting up data
I0403 14:27:18.130237  1313 net.cpp:148] Top shape: 24 3 224 224 (3612672)
I0403 14:27:18.130264  1313 net.cpp:148] Top shape: 24 (24)
I0403 14:27:18.130283  1313 net.cpp:156] Memory required for data: 14450784
I0403 14:27:18.130313  1313 layer_factory.hpp:77] Creating layer label_data_1_split
I0403 14:27:18.130344  1313 net.cpp:91] Creating Layer label_data_1_split
I0403 14:27:18.130365  1313 net.cpp:425] label_data_1_split <- label
I0403 14:27:18.130403  1313 net.cpp:399] label_data_1_split -> label_data_1_split_0
I0403 14:27:18.130434  1313 net.cpp:399] label_data_1_split -> label_data_1_split_1
I0403 14:27:18.130467  1313 net.cpp:399] label_data_1_split -> label_data_1_split_2
I0403 14:27:18.130679  1313 net.cpp:399] label_data_1_split -> label_data_1_split_3
I0403 14:27:18.130748  1313 net.cpp:399] label_data_1_split -> label_data_1_split_4
I0403 14:27:18.130777  1313 net.cpp:399] label_data_1_split -> label_data_1_split_5
I0403 14:27:18.130802  1313 net.cpp:399] label_data_1_split -> label_data_1_split_6
I0403 14:27:18.130828  1313 net.cpp:399] label_data_1_split -> label_data_1_split_7
I0403 14:27:18.130852  1313 net.cpp:399] label_data_1_split -> label_data_1_split_8
I0403 14:27:18.130877  1313 net.cpp:399] label_data_1_split -> label_data_1_split_9
I0403 14:27:18.131016  1313 net.cpp:141] Setting up label_data_1_split
I0403 14:27:18.131044  1313 net.cpp:148] Top shape: 24 (24)
I0403 14:27:18.131065  1313 net.cpp:148] Top shape: 24 (24)
I0403 14:27:18.131084  1313 net.cpp:148] Top shape: 24 (24)
I0403 14:27:18.131103  1313 net.cpp:148] Top shape: 24 (24)
I0403 14:27:18.131122  1313 net.cpp:148] Top shape: 24 (24)
I0403 14:27:18.131141  1313 net.cpp:148] Top shape: 24 (24)
I0403 14:27:18.131160  1313 net.cpp:148] Top shape: 24 (24)
I0403 14:27:18.131186  1313 net.cpp:148] Top shape: 24 (24)
I0403 14:27:18.131207  1313 net.cpp:148] Top shape: 24 (24)
I0403 14:27:18.131227  1313 net.cpp:148] Top shape: 24 (24)
I0403 14:27:18.131273  1313 net.cpp:156] Memory required for data: 14451744
I0403 14:27:18.131292  1313 layer_factory.hpp:77] Creating layer conv1/7x7_s2
I0403 14:27:18.131330  1313 net.cpp:91] Creating Layer conv1/7x7_s2
I0403 14:27:18.131353  1313 net.cpp:425] conv1/7x7_s2 <- data
I0403 14:27:18.131376  1313 net.cpp:399] conv1/7x7_s2 -> conv1/7x7_s2
I0403 14:27:18.293063  1313 net.cpp:141] Setting up conv1/7x7_s2
I0403 14:27:18.293160  1313 net.cpp:148] Top shape: 24 64 112 112 (19267584)
I0403 14:27:18.293190  1313 net.cpp:156] Memory required for data: 91522080
I0403 14:27:18.293227  1313 layer_factory.hpp:77] Creating layer conv1/relu_7x7
I0403 14:27:18.293262  1313 net.cpp:91] Creating Layer conv1/relu_7x7
I0403 14:27:18.293283  1313 net.cpp:425] conv1/relu_7x7 <- conv1/7x7_s2
I0403 14:27:18.293308  1313 net.cpp:386] conv1/relu_7x7 -> conv1/7x7_s2 (in-place)
I0403 14:27:18.293627  1313 net.cpp:141] Setting up conv1/relu_7x7
I0403 14:27:18.293689  1313 net.cpp:148] Top shape: 24 64 112 112 (19267584)
I0403 14:27:18.293710  1313 net.cpp:156] Memory required for data: 168592416
I0403 14:27:18.293730  1313 layer_factory.hpp:77] Creating layer pool1/3x3_s2
I0403 14:27:18.293759  1313 net.cpp:91] Creating Layer pool1/3x3_s2
I0403 14:27:18.293781  1313 net.cpp:425] pool1/3x3_s2 <- conv1/7x7_s2
I0403 14:27:18.293804  1313 net.cpp:399] pool1/3x3_s2 -> pool1/3x3_s2
I0403 14:27:18.293895  1313 net.cpp:141] Setting up pool1/3x3_s2
I0403 14:27:18.293925  1313 net.cpp:148] Top shape: 24 64 56 56 (4816896)
I0403 14:27:18.293942  1313 net.cpp:156] Memory required for data: 187860000
I0403 14:27:18.293959  1313 layer_factory.hpp:77] Creating layer pool1/norm1
I0403 14:27:18.293989  1313 net.cpp:91] Creating Layer pool1/norm1
I0403 14:27:18.294010  1313 net.cpp:425] pool1/norm1 <- pool1/3x3_s2
I0403 14:27:18.294033  1313 net.cpp:399] pool1/norm1 -> pool1/norm1
I0403 14:27:18.294394  1313 net.cpp:141] Setting up pool1/norm1
I0403 14:27:18.294428  1313 net.cpp:148] Top shape: 24 64 56 56 (4816896)
I0403 14:27:18.294446  1313 net.cpp:156] Memory required for data: 207127584
I0403 14:27:18.294466  1313 layer_factory.hpp:77] Creating layer conv2/3x3_reduce
I0403 14:27:18.294495  1313 net.cpp:91] Creating Layer conv2/3x3_reduce
I0403 14:27:18.294517  1313 net.cpp:425] conv2/3x3_reduce <- pool1/norm1
I0403 14:27:18.294539  1313 net.cpp:399] conv2/3x3_reduce -> conv2/3x3_reduce
I0403 14:27:18.296172  1313 net.cpp:141] Setting up conv2/3x3_reduce
I0403 14:27:18.296216  1313 net.cpp:148] Top shape: 24 64 56 56 (4816896)
I0403 14:27:18.296236  1313 net.cpp:156] Memory required for data: 226395168
I0403 14:27:18.296262  1313 layer_factory.hpp:77] Creating layer conv2/relu_3x3_reduce
I0403 14:27:18.296284  1313 net.cpp:91] Creating Layer conv2/relu_3x3_reduce
I0403 14:27:18.296304  1313 net.cpp:425] conv2/relu_3x3_reduce <- conv2/3x3_reduce
I0403 14:27:18.296325  1313 net.cpp:386] conv2/relu_3x3_reduce -> conv2/3x3_reduce (in-place)
I0403 14:27:18.296635  1313 net.cpp:141] Setting up conv2/relu_3x3_reduce
I0403 14:27:18.296668  1313 net.cpp:148] Top shape: 24 64 56 56 (4816896)
I0403 14:27:18.296686  1313 net.cpp:156] Memory required for data: 245662752
I0403 14:27:18.296705  1313 layer_factory.hpp:77] Creating layer conv2/3x3
I0403 14:27:18.296732  1313 net.cpp:91] Creating Layer conv2/3x3
I0403 14:27:18.296754  1313 net.cpp:425] conv2/3x3 <- conv2/3x3_reduce
I0403 14:27:18.296777  1313 net.cpp:399] conv2/3x3 -> conv2/3x3
I0403 14:27:18.299559  1313 net.cpp:141] Setting up conv2/3x3
I0403 14:27:18.299599  1313 net.cpp:148] Top shape: 24 192 56 56 (14450688)
I0403 14:27:18.299620  1313 net.cpp:156] Memory required for data: 303465504
I0403 14:27:18.299646  1313 layer_factory.hpp:77] Creating layer conv2/relu_3x3
I0403 14:27:18.299671  1313 net.cpp:91] Creating Layer conv2/relu_3x3
I0403 14:27:18.299691  1313 net.cpp:425] conv2/relu_3x3 <- conv2/3x3
I0403 14:27:18.299715  1313 net.cpp:386] conv2/relu_3x3 -> conv2/3x3 (in-place)
I0403 14:27:18.299937  1313 net.cpp:141] Setting up conv2/relu_3x3
I0403 14:27:18.299968  1313 net.cpp:148] Top shape: 24 192 56 56 (14450688)
I0403 14:27:18.300019  1313 net.cpp:156] Memory required for data: 361268256
I0403 14:27:18.300040  1313 layer_factory.hpp:77] Creating layer conv2/norm2
I0403 14:27:18.300065  1313 net.cpp:91] Creating Layer conv2/norm2
I0403 14:27:18.300086  1313 net.cpp:425] conv2/norm2 <- conv2/3x3
I0403 14:27:18.300107  1313 net.cpp:399] conv2/norm2 -> conv2/norm2
I0403 14:27:18.300483  1313 net.cpp:141] Setting up conv2/norm2
I0403 14:27:18.300518  1313 net.cpp:148] Top shape: 24 192 56 56 (14450688)
I0403 14:27:18.300536  1313 net.cpp:156] Memory required for data: 419071008
I0403 14:27:18.300554  1313 layer_factory.hpp:77] Creating layer pool2/3x3_s2
I0403 14:27:18.300580  1313 net.cpp:91] Creating Layer pool2/3x3_s2
I0403 14:27:18.300601  1313 net.cpp:425] pool2/3x3_s2 <- conv2/norm2
I0403 14:27:18.300622  1313 net.cpp:399] pool2/3x3_s2 -> pool2/3x3_s2
I0403 14:27:18.300688  1313 net.cpp:141] Setting up pool2/3x3_s2
I0403 14:27:18.300717  1313 net.cpp:148] Top shape: 24 192 28 28 (3612672)
I0403 14:27:18.300735  1313 net.cpp:156] Memory required for data: 433521696
I0403 14:27:18.300753  1313 layer_factory.hpp:77] Creating layer pool2/3x3_s2_pool2/3x3_s2_0_split
I0403 14:27:18.300776  1313 net.cpp:91] Creating Layer pool2/3x3_s2_pool2/3x3_s2_0_split
I0403 14:27:18.300796  1313 net.cpp:425] pool2/3x3_s2_pool2/3x3_s2_0_split <- pool2/3x3_s2
I0403 14:27:18.300819  1313 net.cpp:399] pool2/3x3_s2_pool2/3x3_s2_0_split -> pool2/3x3_s2_pool2/3x3_s2_0_split_0
I0403 14:27:18.300845  1313 net.cpp:399] pool2/3x3_s2_pool2/3x3_s2_0_split -> pool2/3x3_s2_pool2/3x3_s2_0_split_1
I0403 14:27:18.300869  1313 net.cpp:399] pool2/3x3_s2_pool2/3x3_s2_0_split -> pool2/3x3_s2_pool2/3x3_s2_0_split_2
I0403 14:27:18.300894  1313 net.cpp:399] pool2/3x3_s2_pool2/3x3_s2_0_split -> pool2/3x3_s2_pool2/3x3_s2_0_split_3
I0403 14:27:18.300979  1313 net.cpp:141] Setting up pool2/3x3_s2_pool2/3x3_s2_0_split
I0403 14:27:18.301007  1313 net.cpp:148] Top shape: 24 192 28 28 (3612672)
I0403 14:27:18.301028  1313 net.cpp:148] Top shape: 24 192 28 28 (3612672)
I0403 14:27:18.301046  1313 net.cpp:148] Top shape: 24 192 28 28 (3612672)
I0403 14:27:18.301065  1313 net.cpp:148] Top shape: 24 192 28 28 (3612672)
I0403 14:27:18.301081  1313 net.cpp:156] Memory required for data: 491324448
I0403 14:27:18.301100  1313 layer_factory.hpp:77] Creating layer inception_3a/1x1
I0403 14:27:18.301127  1313 net.cpp:91] Creating Layer inception_3a/1x1
I0403 14:27:18.301151  1313 net.cpp:425] inception_3a/1x1 <- pool2/3x3_s2_pool2/3x3_s2_0_split_0
I0403 14:27:18.301175  1313 net.cpp:399] inception_3a/1x1 -> inception_3a/1x1
I0403 14:27:18.303004  1313 net.cpp:141] Setting up inception_3a/1x1
I0403 14:27:18.303043  1313 net.cpp:148] Top shape: 24 64 28 28 (1204224)
I0403 14:27:18.303064  1313 net.cpp:156] Memory required for data: 496141344
I0403 14:27:18.303088  1313 layer_factory.hpp:77] Creating layer inception_3a/relu_1x1
I0403 14:27:18.303112  1313 net.cpp:91] Creating Layer inception_3a/relu_1x1
I0403 14:27:18.303131  1313 net.cpp:425] inception_3a/relu_1x1 <- inception_3a/1x1
I0403 14:27:18.303153  1313 net.cpp:386] inception_3a/relu_1x1 -> inception_3a/1x1 (in-place)
I0403 14:27:18.303380  1313 net.cpp:141] Setting up inception_3a/relu_1x1
I0403 14:27:18.303411  1313 net.cpp:148] Top shape: 24 64 28 28 (1204224)
I0403 14:27:18.303431  1313 net.cpp:156] Memory required for data: 500958240
I0403 14:27:18.303449  1313 layer_factory.hpp:77] Creating layer inception_3a/3x3_reduce
I0403 14:27:18.303478  1313 net.cpp:91] Creating Layer inception_3a/3x3_reduce
I0403 14:27:18.303498  1313 net.cpp:425] inception_3a/3x3_reduce <- pool2/3x3_s2_pool2/3x3_s2_0_split_1
I0403 14:27:18.303525  1313 net.cpp:399] inception_3a/3x3_reduce -> inception_3a/3x3_reduce
I0403 14:27:18.305543  1313 net.cpp:141] Setting up inception_3a/3x3_reduce
I0403 14:27:18.305579  1313 net.cpp:148] Top shape: 24 96 28 28 (1806336)
I0403 14:27:18.305598  1313 net.cpp:156] Memory required for data: 508183584
I0403 14:27:18.305627  1313 layer_factory.hpp:77] Creating layer inception_3a/relu_3x3_reduce
I0403 14:27:18.305670  1313 net.cpp:91] Creating Layer inception_3a/relu_3x3_reduce
I0403 14:27:18.305692  1313 net.cpp:425] inception_3a/relu_3x3_reduce <- inception_3a/3x3_reduce
I0403 14:27:18.305717  1313 net.cpp:386] inception_3a/relu_3x3_reduce -> inception_3a/3x3_reduce (in-place)
I0403 14:27:18.305939  1313 net.cpp:141] Setting up inception_3a/relu_3x3_reduce
I0403 14:27:18.305969  1313 net.cpp:148] Top shape: 24 96 28 28 (1806336)
I0403 14:27:18.305987  1313 net.cpp:156] Memory required for data: 515408928
I0403 14:27:18.306006  1313 layer_factory.hpp:77] Creating layer inception_3a/3x3
I0403 14:27:18.306035  1313 net.cpp:91] Creating Layer inception_3a/3x3
I0403 14:27:18.306057  1313 net.cpp:425] inception_3a/3x3 <- inception_3a/3x3_reduce
I0403 14:27:18.306084  1313 net.cpp:399] inception_3a/3x3 -> inception_3a/3x3
I0403 14:27:18.308109  1313 net.cpp:141] Setting up inception_3a/3x3
I0403 14:27:18.308146  1313 net.cpp:148] Top shape: 24 128 28 28 (2408448)
I0403 14:27:18.308166  1313 net.cpp:156] Memory required for data: 525042720
I0403 14:27:18.308197  1313 layer_factory.hpp:77] Creating layer inception_3a/relu_3x3
I0403 14:27:18.308221  1313 net.cpp:91] Creating Layer inception_3a/relu_3x3
I0403 14:27:18.308241  1313 net.cpp:425] inception_3a/relu_3x3 <- inception_3a/3x3
I0403 14:27:18.308266  1313 net.cpp:386] inception_3a/relu_3x3 -> inception_3a/3x3 (in-place)
I0403 14:27:18.308604  1313 net.cpp:141] Setting up inception_3a/relu_3x3
I0403 14:27:18.308640  1313 net.cpp:148] Top shape: 24 128 28 28 (2408448)
I0403 14:27:18.308658  1313 net.cpp:156] Memory required for data: 534676512
I0403 14:27:18.308677  1313 layer_factory.hpp:77] Creating layer inception_3a/5x5_reduce
I0403 14:27:18.308706  1313 net.cpp:91] Creating Layer inception_3a/5x5_reduce
I0403 14:27:18.308727  1313 net.cpp:425] inception_3a/5x5_reduce <- pool2/3x3_s2_pool2/3x3_s2_0_split_2
I0403 14:27:18.308753  1313 net.cpp:399] inception_3a/5x5_reduce -> inception_3a/5x5_reduce
I0403 14:27:18.309927  1313 net.cpp:141] Setting up inception_3a/5x5_reduce
I0403 14:27:18.309962  1313 net.cpp:148] Top shape: 24 16 28 28 (301056)
I0403 14:27:18.309981  1313 net.cpp:156] Memory required for data: 535880736
I0403 14:27:18.310004  1313 layer_factory.hpp:77] Creating layer inception_3a/relu_5x5_reduce
I0403 14:27:18.310026  1313 net.cpp:91] Creating Layer inception_3a/relu_5x5_reduce
I0403 14:27:18.310046  1313 net.cpp:425] inception_3a/relu_5x5_reduce <- inception_3a/5x5_reduce
I0403 14:27:18.310071  1313 net.cpp:386] inception_3a/relu_5x5_reduce -> inception_3a/5x5_reduce (in-place)
I0403 14:27:18.310442  1313 net.cpp:141] Setting up inception_3a/relu_5x5_reduce
I0403 14:27:18.310474  1313 net.cpp:148] Top shape: 24 16 28 28 (301056)
I0403 14:27:18.310493  1313 net.cpp:156] Memory required for data: 537084960
I0403 14:27:18.310513  1313 layer_factory.hpp:77] Creating layer inception_3a/5x5
I0403 14:27:18.310540  1313 net.cpp:91] Creating Layer inception_3a/5x5
I0403 14:27:18.310562  1313 net.cpp:425] inception_3a/5x5 <- inception_3a/5x5_reduce
I0403 14:27:18.310588  1313 net.cpp:399] inception_3a/5x5 -> inception_3a/5x5
I0403 14:27:18.311815  1313 net.cpp:141] Setting up inception_3a/5x5
I0403 14:27:18.311852  1313 net.cpp:148] Top shape: 24 32 28 28 (602112)
I0403 14:27:18.311872  1313 net.cpp:156] Memory required for data: 539493408
I0403 14:27:18.311895  1313 layer_factory.hpp:77] Creating layer inception_3a/relu_5x5
I0403 14:27:18.311918  1313 net.cpp:91] Creating Layer inception_3a/relu_5x5
I0403 14:27:18.311939  1313 net.cpp:425] inception_3a/relu_5x5 <- inception_3a/5x5
I0403 14:27:18.311959  1313 net.cpp:386] inception_3a/relu_5x5 -> inception_3a/5x5 (in-place)
I0403 14:27:18.312170  1313 net.cpp:141] Setting up inception_3a/relu_5x5
I0403 14:27:18.312217  1313 net.cpp:148] Top shape: 24 32 28 28 (602112)
I0403 14:27:18.312237  1313 net.cpp:156] Memory required for data: 541901856
I0403 14:27:18.312254  1313 layer_factory.hpp:77] Creating layer inception_3a/pool
I0403 14:27:18.312278  1313 net.cpp:91] Creating Layer inception_3a/pool
I0403 14:27:18.312314  1313 net.cpp:425] inception_3a/pool <- pool2/3x3_s2_pool2/3x3_s2_0_split_3
I0403 14:27:18.312341  1313 net.cpp:399] inception_3a/pool -> inception_3a/pool
I0403 14:27:18.312412  1313 net.cpp:141] Setting up inception_3a/pool
I0403 14:27:18.312443  1313 net.cpp:148] Top shape: 24 192 28 28 (3612672)
I0403 14:27:18.312461  1313 net.cpp:156] Memory required for data: 556352544
I0403 14:27:18.312481  1313 layer_factory.hpp:77] Creating layer inception_3a/pool_proj
I0403 14:27:18.312508  1313 net.cpp:91] Creating Layer inception_3a/pool_proj
I0403 14:27:18.312530  1313 net.cpp:425] inception_3a/pool_proj <- inception_3a/pool
I0403 14:27:18.312553  1313 net.cpp:399] inception_3a/pool_proj -> inception_3a/pool_proj
I0403 14:27:18.313709  1313 net.cpp:141] Setting up inception_3a/pool_proj
I0403 14:27:18.313743  1313 net.cpp:148] Top shape: 24 32 28 28 (602112)
I0403 14:27:18.313763  1313 net.cpp:156] Memory required for data: 558760992
I0403 14:27:18.313792  1313 layer_factory.hpp:77] Creating layer inception_3a/relu_pool_proj
I0403 14:27:18.313817  1313 net.cpp:91] Creating Layer inception_3a/relu_pool_proj
I0403 14:27:18.313838  1313 net.cpp:425] inception_3a/relu_pool_proj <- inception_3a/pool_proj
I0403 14:27:18.313863  1313 net.cpp:386] inception_3a/relu_pool_proj -> inception_3a/pool_proj (in-place)
I0403 14:27:18.314194  1313 net.cpp:141] Setting up inception_3a/relu_pool_proj
I0403 14:27:18.314230  1313 net.cpp:148] Top shape: 24 32 28 28 (602112)
I0403 14:27:18.314250  1313 net.cpp:156] Memory required for data: 561169440
I0403 14:27:18.314270  1313 layer_factory.hpp:77] Creating layer inception_3a/output
I0403 14:27:18.314292  1313 net.cpp:91] Creating Layer inception_3a/output
I0403 14:27:18.314312  1313 net.cpp:425] inception_3a/output <- inception_3a/1x1
I0403 14:27:18.314334  1313 net.cpp:425] inception_3a/output <- inception_3a/3x3
I0403 14:27:18.314354  1313 net.cpp:425] inception_3a/output <- inception_3a/5x5
I0403 14:27:18.314373  1313 net.cpp:425] inception_3a/output <- inception_3a/pool_proj
I0403 14:27:18.314395  1313 net.cpp:399] inception_3a/output -> inception_3a/output
I0403 14:27:18.314455  1313 net.cpp:141] Setting up inception_3a/output
I0403 14:27:18.314482  1313 net.cpp:148] Top shape: 24 256 28 28 (4816896)
I0403 14:27:18.314501  1313 net.cpp:156] Memory required for data: 580437024
I0403 14:27:18.314517  1313 layer_factory.hpp:77] Creating layer inception_3a/output_inception_3a/output_0_split
I0403 14:27:18.314541  1313 net.cpp:91] Creating Layer inception_3a/output_inception_3a/output_0_split
I0403 14:27:18.314560  1313 net.cpp:425] inception_3a/output_inception_3a/output_0_split <- inception_3a/output
I0403 14:27:18.314582  1313 net.cpp:399] inception_3a/output_inception_3a/output_0_split -> inception_3a/output_inception_3a/output_0_split_0
I0403 14:27:18.314607  1313 net.cpp:399] inception_3a/output_inception_3a/output_0_split -> inception_3a/output_inception_3a/output_0_split_1
I0403 14:27:18.314640  1313 net.cpp:399] inception_3a/output_inception_3a/output_0_split -> inception_3a/output_inception_3a/output_0_split_2
I0403 14:27:18.314666  1313 net.cpp:399] inception_3a/output_inception_3a/output_0_split -> inception_3a/output_inception_3a/output_0_split_3
I0403 14:27:18.314755  1313 net.cpp:141] Setting up inception_3a/output_inception_3a/output_0_split
I0403 14:27:18.314782  1313 net.cpp:148] Top shape: 24 256 28 28 (4816896)
I0403 14:27:18.314802  1313 net.cpp:148] Top shape: 24 256 28 28 (4816896)
I0403 14:27:18.314822  1313 net.cpp:148] Top shape: 24 256 28 28 (4816896)
I0403 14:27:18.314841  1313 net.cpp:148] Top shape: 24 256 28 28 (4816896)
I0403 14:27:18.314857  1313 net.cpp:156] Memory required for data: 657507360
I0403 14:27:18.314875  1313 layer_factory.hpp:77] Creating layer inception_3b/1x1
I0403 14:27:18.314903  1313 net.cpp:91] Creating Layer inception_3b/1x1
I0403 14:27:18.314925  1313 net.cpp:425] inception_3b/1x1 <- inception_3a/output_inception_3a/output_0_split_0
I0403 14:27:18.314949  1313 net.cpp:399] inception_3b/1x1 -> inception_3b/1x1
I0403 14:27:18.316324  1313 net.cpp:141] Setting up inception_3b/1x1
I0403 14:27:18.316372  1313 net.cpp:148] Top shape: 24 128 28 28 (2408448)
I0403 14:27:18.316391  1313 net.cpp:156] Memory required for data: 667141152
I0403 14:27:18.316414  1313 layer_factory.hpp:77] Creating layer inception_3b/relu_1x1
I0403 14:27:18.316439  1313 net.cpp:91] Creating Layer inception_3b/relu_1x1
I0403 14:27:18.316460  1313 net.cpp:425] inception_3b/relu_1x1 <- inception_3b/1x1
I0403 14:27:18.316481  1313 net.cpp:386] inception_3b/relu_1x1 -> inception_3b/1x1 (in-place)
I0403 14:27:18.316694  1313 net.cpp:141] Setting up inception_3b/relu_1x1
I0403 14:27:18.316725  1313 net.cpp:148] Top shape: 24 128 28 28 (2408448)
I0403 14:27:18.316743  1313 net.cpp:156] Memory required for data: 676774944
I0403 14:27:18.316761  1313 layer_factory.hpp:77] Creating layer inception_3b/3x3_reduce
I0403 14:27:18.316788  1313 net.cpp:91] Creating Layer inception_3b/3x3_reduce
I0403 14:27:18.316809  1313 net.cpp:425] inception_3b/3x3_reduce <- inception_3a/output_inception_3a/output_0_split_1
I0403 14:27:18.316836  1313 net.cpp:399] inception_3b/3x3_reduce -> inception_3b/3x3_reduce
I0403 14:27:18.318202  1313 net.cpp:141] Setting up inception_3b/3x3_reduce
I0403 14:27:18.318235  1313 net.cpp:148] Top shape: 24 128 28 28 (2408448)
I0403 14:27:18.318254  1313 net.cpp:156] Memory required for data: 686408736
I0403 14:27:18.318276  1313 layer_factory.hpp:77] Creating layer inception_3b/relu_3x3_reduce
I0403 14:27:18.318303  1313 net.cpp:91] Creating Layer inception_3b/relu_3x3_reduce
I0403 14:27:18.318323  1313 net.cpp:425] inception_3b/relu_3x3_reduce <- inception_3b/3x3_reduce
I0403 14:27:18.318346  1313 net.cpp:386] inception_3b/relu_3x3_reduce -> inception_3b/3x3_reduce (in-place)
I0403 14:27:18.318554  1313 net.cpp:141] Setting up inception_3b/relu_3x3_reduce
I0403 14:27:18.318588  1313 net.cpp:148] Top shape: 24 128 28 28 (2408448)
I0403 14:27:18.318605  1313 net.cpp:156] Memory required for data: 696042528
I0403 14:27:18.318624  1313 layer_factory.hpp:77] Creating layer inception_3b/3x3
I0403 14:27:18.318655  1313 net.cpp:91] Creating Layer inception_3b/3x3
I0403 14:27:18.318676  1313 net.cpp:425] inception_3b/3x3 <- inception_3b/3x3_reduce
I0403 14:27:18.318704  1313 net.cpp:399] inception_3b/3x3 -> inception_3b/3x3
I0403 14:27:18.322223  1313 net.cpp:141] Setting up inception_3b/3x3
I0403 14:27:18.322263  1313 net.cpp:148] Top shape: 24 192 28 28 (3612672)
I0403 14:27:18.322283  1313 net.cpp:156] Memory required for data: 710493216
I0403 14:27:18.322305  1313 layer_factory.hpp:77] Creating layer inception_3b/relu_3x3
I0403 14:27:18.322327  1313 net.cpp:91] Creating Layer inception_3b/relu_3x3
I0403 14:27:18.322347  1313 net.cpp:425] inception_3b/relu_3x3 <- inception_3b/3x3
I0403 14:27:18.322371  1313 net.cpp:386] inception_3b/relu_3x3 -> inception_3b/3x3 (in-place)
I0403 14:27:18.322702  1313 net.cpp:141] Setting up inception_3b/relu_3x3
I0403 14:27:18.322738  1313 net.cpp:148] Top shape: 24 192 28 28 (3612672)
I0403 14:27:18.322757  1313 net.cpp:156] Memory required for data: 724943904
I0403 14:27:18.322775  1313 layer_factory.hpp:77] Creating layer inception_3b/5x5_reduce
I0403 14:27:18.322803  1313 net.cpp:91] Creating Layer inception_3b/5x5_reduce
I0403 14:27:18.322827  1313 net.cpp:425] inception_3b/5x5_reduce <- inception_3a/output_inception_3a/output_0_split_2
I0403 14:27:18.322855  1313 net.cpp:399] inception_3b/5x5_reduce -> inception_3b/5x5_reduce
I0403 14:27:18.324054  1313 net.cpp:141] Setting up inception_3b/5x5_reduce
I0403 14:27:18.324091  1313 net.cpp:148] Top shape: 24 32 28 28 (602112)
I0403 14:27:18.324111  1313 net.cpp:156] Memory required for data: 727352352
I0403 14:27:18.324133  1313 layer_factory.hpp:77] Creating layer inception_3b/relu_5x5_reduce
I0403 14:27:18.324156  1313 net.cpp:91] Creating Layer inception_3b/relu_5x5_reduce
I0403 14:27:18.324174  1313 net.cpp:425] inception_3b/relu_5x5_reduce <- inception_3b/5x5_reduce
I0403 14:27:18.324204  1313 net.cpp:386] inception_3b/relu_5x5_reduce -> inception_3b/5x5_reduce (in-place)
I0403 14:27:18.324441  1313 net.cpp:141] Setting up inception_3b/relu_5x5_reduce
I0403 14:27:18.324472  1313 net.cpp:148] Top shape: 24 32 28 28 (602112)
I0403 14:27:18.324491  1313 net.cpp:156] Memory required for data: 729760800
I0403 14:27:18.324508  1313 layer_factory.hpp:77] Creating layer inception_3b/5x5
I0403 14:27:18.324537  1313 net.cpp:91] Creating Layer inception_3b/5x5
I0403 14:27:18.324558  1313 net.cpp:425] inception_3b/5x5 <- inception_3b/5x5_reduce
I0403 14:27:18.324584  1313 net.cpp:399] inception_3b/5x5 -> inception_3b/5x5
I0403 14:27:18.326938  1313 net.cpp:141] Setting up inception_3b/5x5
I0403 14:27:18.326973  1313 net.cpp:148] Top shape: 24 96 28 28 (1806336)
I0403 14:27:18.326992  1313 net.cpp:156] Memory required for data: 736986144
I0403 14:27:18.327014  1313 layer_factory.hpp:77] Creating layer inception_3b/relu_5x5
I0403 14:27:18.327040  1313 net.cpp:91] Creating Layer inception_3b/relu_5x5
I0403 14:27:18.327061  1313 net.cpp:425] inception_3b/relu_5x5 <- inception_3b/5x5
I0403 14:27:18.327083  1313 net.cpp:386] inception_3b/relu_5x5 -> inception_3b/5x5 (in-place)
I0403 14:27:18.327325  1313 net.cpp:141] Setting up inception_3b/relu_5x5
I0403 14:27:18.327356  1313 net.cpp:148] Top shape: 24 96 28 28 (1806336)
I0403 14:27:18.327374  1313 net.cpp:156] Memory required for data: 744211488
I0403 14:27:18.327392  1313 layer_factory.hpp:77] Creating layer inception_3b/pool
I0403 14:27:18.327415  1313 net.cpp:91] Creating Layer inception_3b/pool
I0403 14:27:18.327435  1313 net.cpp:425] inception_3b/pool <- inception_3a/output_inception_3a/output_0_split_3
I0403 14:27:18.327458  1313 net.cpp:399] inception_3b/pool -> inception_3b/pool
I0403 14:27:18.327525  1313 net.cpp:141] Setting up inception_3b/pool
I0403 14:27:18.327553  1313 net.cpp:148] Top shape: 24 256 28 28 (4816896)
I0403 14:27:18.327571  1313 net.cpp:156] Memory required for data: 763479072
I0403 14:27:18.327589  1313 layer_factory.hpp:77] Creating layer inception_3b/pool_proj
I0403 14:27:18.327616  1313 net.cpp:91] Creating Layer inception_3b/pool_proj
I0403 14:27:18.327638  1313 net.cpp:425] inception_3b/pool_proj <- inception_3b/pool
I0403 14:27:18.327663  1313 net.cpp:399] inception_3b/pool_proj -> inception_3b/pool_proj
I0403 14:27:18.328936  1313 net.cpp:141] Setting up inception_3b/pool_proj
I0403 14:27:18.328971  1313 net.cpp:148] Top shape: 24 64 28 28 (1204224)
I0403 14:27:18.328990  1313 net.cpp:156] Memory required for data: 768295968
I0403 14:27:18.329013  1313 layer_factory.hpp:77] Creating layer inception_3b/relu_pool_proj
I0403 14:27:18.329040  1313 net.cpp:91] Creating Layer inception_3b/relu_pool_proj
I0403 14:27:18.329061  1313 net.cpp:425] inception_3b/relu_pool_proj <- inception_3b/pool_proj
I0403 14:27:18.329082  1313 net.cpp:386] inception_3b/relu_pool_proj -> inception_3b/pool_proj (in-place)
I0403 14:27:18.329555  1313 net.cpp:141] Setting up inception_3b/relu_pool_proj
I0403 14:27:18.329588  1313 net.cpp:148] Top shape: 24 64 28 28 (1204224)
I0403 14:27:18.329607  1313 net.cpp:156] Memory required for data: 773112864
I0403 14:27:18.329627  1313 layer_factory.hpp:77] Creating layer inception_3b/output
I0403 14:27:18.329648  1313 net.cpp:91] Creating Layer inception_3b/output
I0403 14:27:18.329669  1313 net.cpp:425] inception_3b/output <- inception_3b/1x1
I0403 14:27:18.329689  1313 net.cpp:425] inception_3b/output <- inception_3b/3x3
I0403 14:27:18.329710  1313 net.cpp:425] inception_3b/output <- inception_3b/5x5
I0403 14:27:18.329730  1313 net.cpp:425] inception_3b/output <- inception_3b/pool_proj
I0403 14:27:18.329754  1313 net.cpp:399] inception_3b/output -> inception_3b/output
I0403 14:27:18.329807  1313 net.cpp:141] Setting up inception_3b/output
I0403 14:27:18.329840  1313 net.cpp:148] Top shape: 24 480 28 28 (9031680)
I0403 14:27:18.329860  1313 net.cpp:156] Memory required for data: 809239584
I0403 14:27:18.329879  1313 layer_factory.hpp:77] Creating layer pool3/3x3_s2
I0403 14:27:18.329901  1313 net.cpp:91] Creating Layer pool3/3x3_s2
I0403 14:27:18.329921  1313 net.cpp:425] pool3/3x3_s2 <- inception_3b/output
I0403 14:27:18.329962  1313 net.cpp:399] pool3/3x3_s2 -> pool3/3x3_s2
I0403 14:27:18.330034  1313 net.cpp:141] Setting up pool3/3x3_s2
I0403 14:27:18.330062  1313 net.cpp:148] Top shape: 24 480 14 14 (2257920)
I0403 14:27:18.330080  1313 net.cpp:156] Memory required for data: 818271264
I0403 14:27:18.330098  1313 layer_factory.hpp:77] Creating layer pool3/3x3_s2_pool3/3x3_s2_0_split
I0403 14:27:18.330119  1313 net.cpp:91] Creating Layer pool3/3x3_s2_pool3/3x3_s2_0_split
I0403 14:27:18.330139  1313 net.cpp:425] pool3/3x3_s2_pool3/3x3_s2_0_split <- pool3/3x3_s2
I0403 14:27:18.330163  1313 net.cpp:399] pool3/3x3_s2_pool3/3x3_s2_0_split -> pool3/3x3_s2_pool3/3x3_s2_0_split_0
I0403 14:27:18.330194  1313 net.cpp:399] pool3/3x3_s2_pool3/3x3_s2_0_split -> pool3/3x3_s2_pool3/3x3_s2_0_split_1
I0403 14:27:18.330220  1313 net.cpp:399] pool3/3x3_s2_pool3/3x3_s2_0_split -> pool3/3x3_s2_pool3/3x3_s2_0_split_2
I0403 14:27:18.330247  1313 net.cpp:399] pool3/3x3_s2_pool3/3x3_s2_0_split -> pool3/3x3_s2_pool3/3x3_s2_0_split_3
I0403 14:27:18.330339  1313 net.cpp:141] Setting up pool3/3x3_s2_pool3/3x3_s2_0_split
I0403 14:27:18.330366  1313 net.cpp:148] Top shape: 24 480 14 14 (2257920)
I0403 14:27:18.330386  1313 net.cpp:148] Top shape: 24 480 14 14 (2257920)
I0403 14:27:18.330406  1313 net.cpp:148] Top shape: 24 480 14 14 (2257920)
I0403 14:27:18.330425  1313 net.cpp:148] Top shape: 24 480 14 14 (2257920)
I0403 14:27:18.330442  1313 net.cpp:156] Memory required for data: 854397984
I0403 14:27:18.330461  1313 layer_factory.hpp:77] Creating layer inception_4a/1x1
I0403 14:27:18.330670  1313 net.cpp:91] Creating Layer inception_4a/1x1
I0403 14:27:18.330732  1313 net.cpp:425] inception_4a/1x1 <- pool3/3x3_s2_pool3/3x3_s2_0_split_0
I0403 14:27:18.330765  1313 net.cpp:399] inception_4a/1x1 -> inception_4a/1x1
I0403 14:27:18.332685  1313 net.cpp:141] Setting up inception_4a/1x1
I0403 14:27:18.332720  1313 net.cpp:148] Top shape: 24 192 14 14 (903168)
I0403 14:27:18.332739  1313 net.cpp:156] Memory required for data: 858010656
I0403 14:27:18.332762  1313 layer_factory.hpp:77] Creating layer inception_4a/relu_1x1
I0403 14:27:18.332789  1313 net.cpp:91] Creating Layer inception_4a/relu_1x1
I0403 14:27:18.332809  1313 net.cpp:425] inception_4a/relu_1x1 <- inception_4a/1x1
I0403 14:27:18.332833  1313 net.cpp:386] inception_4a/relu_1x1 -> inception_4a/1x1 (in-place)
I0403 14:27:18.333047  1313 net.cpp:141] Setting up inception_4a/relu_1x1
I0403 14:27:18.333081  1313 net.cpp:148] Top shape: 24 192 14 14 (903168)
I0403 14:27:18.333101  1313 net.cpp:156] Memory required for data: 861623328
I0403 14:27:18.333120  1313 layer_factory.hpp:77] Creating layer inception_4a/3x3_reduce
I0403 14:27:18.333150  1313 net.cpp:91] Creating Layer inception_4a/3x3_reduce
I0403 14:27:18.333173  1313 net.cpp:425] inception_4a/3x3_reduce <- pool3/3x3_s2_pool3/3x3_s2_0_split_1
I0403 14:27:18.333205  1313 net.cpp:399] inception_4a/3x3_reduce -> inception_4a/3x3_reduce
I0403 14:27:18.334761  1313 net.cpp:141] Setting up inception_4a/3x3_reduce
I0403 14:27:18.334796  1313 net.cpp:148] Top shape: 24 96 14 14 (451584)
I0403 14:27:18.334816  1313 net.cpp:156] Memory required for data: 863429664
I0403 14:27:18.334848  1313 layer_factory.hpp:77] Creating layer inception_4a/relu_3x3_reduce
I0403 14:27:18.334873  1313 net.cpp:91] Creating Layer inception_4a/relu_3x3_reduce
I0403 14:27:18.334893  1313 net.cpp:425] inception_4a/relu_3x3_reduce <- inception_4a/3x3_reduce
I0403 14:27:18.334918  1313 net.cpp:386] inception_4a/relu_3x3_reduce -> inception_4a/3x3_reduce (in-place)
I0403 14:27:18.335134  1313 net.cpp:141] Setting up inception_4a/relu_3x3_reduce
I0403 14:27:18.335165  1313 net.cpp:148] Top shape: 24 96 14 14 (451584)
I0403 14:27:18.335191  1313 net.cpp:156] Memory required for data: 865236000
I0403 14:27:18.335211  1313 layer_factory.hpp:77] Creating layer inception_4a/3x3
I0403 14:27:18.335239  1313 net.cpp:91] Creating Layer inception_4a/3x3
I0403 14:27:18.335263  1313 net.cpp:425] inception_4a/3x3 <- inception_4a/3x3_reduce
I0403 14:27:18.335289  1313 net.cpp:399] inception_4a/3x3 -> inception_4a/3x3
I0403 14:27:18.338529  1313 net.cpp:141] Setting up inception_4a/3x3
I0403 14:27:18.338567  1313 net.cpp:148] Top shape: 24 208 14 14 (978432)
I0403 14:27:18.338590  1313 net.cpp:156] Memory required for data: 869149728
I0403 14:27:18.338613  1313 layer_factory.hpp:77] Creating layer inception_4a/relu_3x3
I0403 14:27:18.338636  1313 net.cpp:91] Creating Layer inception_4a/relu_3x3
I0403 14:27:18.338656  1313 net.cpp:425] inception_4a/relu_3x3 <- inception_4a/3x3
I0403 14:27:18.338677  1313 net.cpp:386] inception_4a/relu_3x3 -> inception_4a/3x3 (in-place)
I0403 14:27:18.339017  1313 net.cpp:141] Setting up inception_4a/relu_3x3
I0403 14:27:18.339049  1313 net.cpp:148] Top shape: 24 208 14 14 (978432)
I0403 14:27:18.339071  1313 net.cpp:156] Memory required for data: 873063456
I0403 14:27:18.339090  1313 layer_factory.hpp:77] Creating layer inception_4a/5x5_reduce
I0403 14:27:18.339114  1313 net.cpp:91] Creating Layer inception_4a/5x5_reduce
I0403 14:27:18.339135  1313 net.cpp:425] inception_4a/5x5_reduce <- pool3/3x3_s2_pool3/3x3_s2_0_split_2
I0403 14:27:18.339161  1313 net.cpp:399] inception_4a/5x5_reduce -> inception_4a/5x5_reduce
I0403 14:27:18.340425  1313 net.cpp:141] Setting up inception_4a/5x5_reduce
I0403 14:27:18.340463  1313 net.cpp:148] Top shape: 24 16 14 14 (75264)
I0403 14:27:18.340483  1313 net.cpp:156] Memory required for data: 873364512
I0403 14:27:18.340507  1313 layer_factory.hpp:77] Creating layer inception_4a/relu_5x5_reduce
I0403 14:27:18.340528  1313 net.cpp:91] Creating Layer inception_4a/relu_5x5_reduce
I0403 14:27:18.340548  1313 net.cpp:425] inception_4a/relu_5x5_reduce <- inception_4a/5x5_reduce
I0403 14:27:18.340570  1313 net.cpp:386] inception_4a/relu_5x5_reduce -> inception_4a/5x5_reduce (in-place)
I0403 14:27:18.340793  1313 net.cpp:141] Setting up inception_4a/relu_5x5_reduce
I0403 14:27:18.340824  1313 net.cpp:148] Top shape: 24 16 14 14 (75264)
I0403 14:27:18.340843  1313 net.cpp:156] Memory required for data: 873665568
I0403 14:27:18.340863  1313 layer_factory.hpp:77] Creating layer inception_4a/5x5
I0403 14:27:18.340890  1313 net.cpp:91] Creating Layer inception_4a/5x5
I0403 14:27:18.340912  1313 net.cpp:425] inception_4a/5x5 <- inception_4a/5x5_reduce
I0403 14:27:18.340939  1313 net.cpp:399] inception_4a/5x5 -> inception_4a/5x5
I0403 14:27:18.342332  1313 net.cpp:141] Setting up inception_4a/5x5
I0403 14:27:18.342366  1313 net.cpp:148] Top shape: 24 48 14 14 (225792)
I0403 14:27:18.342386  1313 net.cpp:156] Memory required for data: 874568736
I0403 14:27:18.342409  1313 layer_factory.hpp:77] Creating layer inception_4a/relu_5x5
I0403 14:27:18.342432  1313 net.cpp:91] Creating Layer inception_4a/relu_5x5
I0403 14:27:18.342452  1313 net.cpp:425] inception_4a/relu_5x5 <- inception_4a/5x5
I0403 14:27:18.342475  1313 net.cpp:386] inception_4a/relu_5x5 -> inception_4a/5x5 (in-place)
I0403 14:27:18.342697  1313 net.cpp:141] Setting up inception_4a/relu_5x5
I0403 14:27:18.342727  1313 net.cpp:148] Top shape: 24 48 14 14 (225792)
I0403 14:27:18.342746  1313 net.cpp:156] Memory required for data: 875471904
I0403 14:27:18.342763  1313 layer_factory.hpp:77] Creating layer inception_4a/pool
I0403 14:27:18.342788  1313 net.cpp:91] Creating Layer inception_4a/pool
I0403 14:27:18.342808  1313 net.cpp:425] inception_4a/pool <- pool3/3x3_s2_pool3/3x3_s2_0_split_3
I0403 14:27:18.342831  1313 net.cpp:399] inception_4a/pool -> inception_4a/pool
I0403 14:27:18.342906  1313 net.cpp:141] Setting up inception_4a/pool
I0403 14:27:18.342934  1313 net.cpp:148] Top shape: 24 480 14 14 (2257920)
I0403 14:27:18.342952  1313 net.cpp:156] Memory required for data: 884503584
I0403 14:27:18.342970  1313 layer_factory.hpp:77] Creating layer inception_4a/pool_proj
I0403 14:27:18.342998  1313 net.cpp:91] Creating Layer inception_4a/pool_proj
I0403 14:27:18.343019  1313 net.cpp:425] inception_4a/pool_proj <- inception_4a/pool
I0403 14:27:18.343046  1313 net.cpp:399] inception_4a/pool_proj -> inception_4a/pool_proj
I0403 14:27:18.344493  1313 net.cpp:141] Setting up inception_4a/pool_proj
I0403 14:27:18.344530  1313 net.cpp:148] Top shape: 24 64 14 14 (301056)
I0403 14:27:18.344568  1313 net.cpp:156] Memory required for data: 885707808
I0403 14:27:18.344593  1313 layer_factory.hpp:77] Creating layer inception_4a/relu_pool_proj
I0403 14:27:18.344617  1313 net.cpp:91] Creating Layer inception_4a/relu_pool_proj
I0403 14:27:18.344640  1313 net.cpp:425] inception_4a/relu_pool_proj <- inception_4a/pool_proj
I0403 14:27:18.344661  1313 net.cpp:386] inception_4a/relu_pool_proj -> inception_4a/pool_proj (in-place)
I0403 14:27:18.345005  1313 net.cpp:141] Setting up inception_4a/relu_pool_proj
I0403 14:27:18.345037  1313 net.cpp:148] Top shape: 24 64 14 14 (301056)
I0403 14:27:18.345055  1313 net.cpp:156] Memory required for data: 886912032
I0403 14:27:18.345074  1313 layer_factory.hpp:77] Creating layer inception_4a/output
I0403 14:27:18.345095  1313 net.cpp:91] Creating Layer inception_4a/output
I0403 14:27:18.345115  1313 net.cpp:425] inception_4a/output <- inception_4a/1x1
I0403 14:27:18.345135  1313 net.cpp:425] inception_4a/output <- inception_4a/3x3
I0403 14:27:18.345155  1313 net.cpp:425] inception_4a/output <- inception_4a/5x5
I0403 14:27:18.345175  1313 net.cpp:425] inception_4a/output <- inception_4a/pool_proj
I0403 14:27:18.345207  1313 net.cpp:399] inception_4a/output -> inception_4a/output
I0403 14:27:18.345265  1313 net.cpp:141] Setting up inception_4a/output
I0403 14:27:18.345293  1313 net.cpp:148] Top shape: 24 512 14 14 (2408448)
I0403 14:27:18.345310  1313 net.cpp:156] Memory required for data: 896545824
I0403 14:27:18.345329  1313 layer_factory.hpp:77] Creating layer inception_4a/output_inception_4a/output_0_split
I0403 14:27:18.345350  1313 net.cpp:91] Creating Layer inception_4a/output_inception_4a/output_0_split
I0403 14:27:18.345371  1313 net.cpp:425] inception_4a/output_inception_4a/output_0_split <- inception_4a/output
I0403 14:27:18.345394  1313 net.cpp:399] inception_4a/output_inception_4a/output_0_split -> inception_4a/output_inception_4a/output_0_split_0
I0403 14:27:18.345420  1313 net.cpp:399] inception_4a/output_inception_4a/output_0_split -> inception_4a/output_inception_4a/output_0_split_1
I0403 14:27:18.345446  1313 net.cpp:399] inception_4a/output_inception_4a/output_0_split -> inception_4a/output_inception_4a/output_0_split_2
I0403 14:27:18.345471  1313 net.cpp:399] inception_4a/output_inception_4a/output_0_split -> inception_4a/output_inception_4a/output_0_split_3
I0403 14:27:18.345496  1313 net.cpp:399] inception_4a/output_inception_4a/output_0_split -> inception_4a/output_inception_4a/output_0_split_4
I0403 14:27:18.345609  1313 net.cpp:141] Setting up inception_4a/output_inception_4a/output_0_split
I0403 14:27:18.345640  1313 net.cpp:148] Top shape: 24 512 14 14 (2408448)
I0403 14:27:18.345661  1313 net.cpp:148] Top shape: 24 512 14 14 (2408448)
I0403 14:27:18.345681  1313 net.cpp:148] Top shape: 24 512 14 14 (2408448)
I0403 14:27:18.345700  1313 net.cpp:148] Top shape: 24 512 14 14 (2408448)
I0403 14:27:18.345720  1313 net.cpp:148] Top shape: 24 512 14 14 (2408448)
I0403 14:27:18.345736  1313 net.cpp:156] Memory required for data: 944714784
I0403 14:27:18.345753  1313 layer_factory.hpp:77] Creating layer loss1/ave_pool
I0403 14:27:18.345777  1313 net.cpp:91] Creating Layer loss1/ave_pool
I0403 14:27:18.345795  1313 net.cpp:425] loss1/ave_pool <- inception_4a/output_inception_4a/output_0_split_0
I0403 14:27:18.345818  1313 net.cpp:399] loss1/ave_pool -> loss1/ave_pool
I0403 14:27:18.346076  1313 net.cpp:141] Setting up loss1/ave_pool
I0403 14:27:18.346107  1313 net.cpp:148] Top shape: 24 512 4 4 (196608)
I0403 14:27:18.346124  1313 net.cpp:156] Memory required for data: 945501216
I0403 14:27:18.346143  1313 layer_factory.hpp:77] Creating layer loss1/conv
I0403 14:27:18.346170  1313 net.cpp:91] Creating Layer loss1/conv
I0403 14:27:18.346200  1313 net.cpp:425] loss1/conv <- loss1/ave_pool
I0403 14:27:18.346230  1313 net.cpp:399] loss1/conv -> loss1/conv
I0403 14:27:18.347955  1313 net.cpp:141] Setting up loss1/conv
I0403 14:27:18.347992  1313 net.cpp:148] Top shape: 24 128 4 4 (49152)
I0403 14:27:18.348029  1313 net.cpp:156] Memory required for data: 945697824
I0403 14:27:18.348053  1313 layer_factory.hpp:77] Creating layer loss1/relu_conv
I0403 14:27:18.348075  1313 net.cpp:91] Creating Layer loss1/relu_conv
I0403 14:27:18.348095  1313 net.cpp:425] loss1/relu_conv <- loss1/conv
I0403 14:27:18.348117  1313 net.cpp:386] loss1/relu_conv -> loss1/conv (in-place)
I0403 14:27:18.348466  1313 net.cpp:141] Setting up loss1/relu_conv
I0403 14:27:18.348501  1313 net.cpp:148] Top shape: 24 128 4 4 (49152)
I0403 14:27:18.348521  1313 net.cpp:156] Memory required for data: 945894432
I0403 14:27:18.348541  1313 layer_factory.hpp:77] Creating layer loss1/fc
I0403 14:27:18.348569  1313 net.cpp:91] Creating Layer loss1/fc
I0403 14:27:18.348592  1313 net.cpp:425] loss1/fc <- loss1/conv
I0403 14:27:18.348618  1313 net.cpp:399] loss1/fc -> loss1/fc
I0403 14:27:18.370339  1313 net.cpp:141] Setting up loss1/fc
I0403 14:27:18.370414  1313 net.cpp:148] Top shape: 24 1024 (24576)
I0403 14:27:18.370434  1313 net.cpp:156] Memory required for data: 945992736
I0403 14:27:18.370458  1313 layer_factory.hpp:77] Creating layer loss1/relu_fc
I0403 14:27:18.370489  1313 net.cpp:91] Creating Layer loss1/relu_fc
I0403 14:27:18.370512  1313 net.cpp:425] loss1/relu_fc <- loss1/fc
I0403 14:27:18.370537  1313 net.cpp:386] loss1/relu_fc -> loss1/fc (in-place)
I0403 14:27:18.370803  1313 net.cpp:141] Setting up loss1/relu_fc
I0403 14:27:18.370833  1313 net.cpp:148] Top shape: 24 1024 (24576)
I0403 14:27:18.370851  1313 net.cpp:156] Memory required for data: 946091040
I0403 14:27:18.370870  1313 layer_factory.hpp:77] Creating layer loss1/drop_fc
I0403 14:27:18.370908  1313 net.cpp:91] Creating Layer loss1/drop_fc
I0403 14:27:18.370930  1313 net.cpp:425] loss1/drop_fc <- loss1/fc
I0403 14:27:18.370952  1313 net.cpp:386] loss1/drop_fc -> loss1/fc (in-place)
I0403 14:27:18.371019  1313 net.cpp:141] Setting up loss1/drop_fc
I0403 14:27:18.371047  1313 net.cpp:148] Top shape: 24 1024 (24576)
I0403 14:27:18.371064  1313 net.cpp:156] Memory required for data: 946189344
I0403 14:27:18.371083  1313 layer_factory.hpp:77] Creating layer loss1/classifier_plantvillage
I0403 14:27:18.371107  1313 net.cpp:91] Creating Layer loss1/classifier_plantvillage
I0403 14:27:18.371127  1313 net.cpp:425] loss1/classifier_plantvillage <- loss1/fc
I0403 14:27:18.371153  1313 net.cpp:399] loss1/classifier_plantvillage -> loss1/classifier_plantvillage
I0403 14:27:18.372290  1313 net.cpp:141] Setting up loss1/classifier_plantvillage
I0403 14:27:18.372328  1313 net.cpp:148] Top shape: 24 38 (912)
I0403 14:27:18.372347  1313 net.cpp:156] Memory required for data: 946192992
I0403 14:27:18.372370  1313 layer_factory.hpp:77] Creating layer loss1/classifier_plantvillage_loss1/classifier_plantvillage_0_split
I0403 14:27:18.372392  1313 net.cpp:91] Creating Layer loss1/classifier_plantvillage_loss1/classifier_plantvillage_0_split
I0403 14:27:18.372413  1313 net.cpp:425] loss1/classifier_plantvillage_loss1/classifier_plantvillage_0_split <- loss1/classifier_plantvillage
I0403 14:27:18.372436  1313 net.cpp:399] loss1/classifier_plantvillage_loss1/classifier_plantvillage_0_split -> loss1/classifier_plantvillage_loss1/classifier_plantvillage_0_split_0
I0403 14:27:18.372460  1313 net.cpp:399] loss1/classifier_plantvillage_loss1/classifier_plantvillage_0_split -> loss1/classifier_plantvillage_loss1/classifier_plantvillage_0_split_1
I0403 14:27:18.372485  1313 net.cpp:399] loss1/classifier_plantvillage_loss1/classifier_plantvillage_0_split -> loss1/classifier_plantvillage_loss1/classifier_plantvillage_0_split_2
I0403 14:27:18.372567  1313 net.cpp:141] Setting up loss1/classifier_plantvillage_loss1/classifier_plantvillage_0_split
I0403 14:27:18.372596  1313 net.cpp:148] Top shape: 24 38 (912)
I0403 14:27:18.372614  1313 net.cpp:148] Top shape: 24 38 (912)
I0403 14:27:18.372633  1313 net.cpp:148] Top shape: 24 38 (912)
I0403 14:27:18.372650  1313 net.cpp:156] Memory required for data: 946203936
I0403 14:27:18.372668  1313 layer_factory.hpp:77] Creating layer inception_4b/1x1
I0403 14:27:18.372695  1313 net.cpp:91] Creating Layer inception_4b/1x1
I0403 14:27:18.372746  1313 net.cpp:425] inception_4b/1x1 <- inception_4a/output_inception_4a/output_0_split_1
I0403 14:27:18.372774  1313 net.cpp:399] inception_4b/1x1 -> inception_4b/1x1
I0403 14:27:18.374832  1313 net.cpp:141] Setting up inception_4b/1x1
I0403 14:27:18.374871  1313 net.cpp:148] Top shape: 24 160 14 14 (752640)
I0403 14:27:18.374891  1313 net.cpp:156] Memory required for data: 949214496
I0403 14:27:18.374913  1313 layer_factory.hpp:77] Creating layer inception_4b/relu_1x1
I0403 14:27:18.374935  1313 net.cpp:91] Creating Layer inception_4b/relu_1x1
I0403 14:27:18.374956  1313 net.cpp:425] inception_4b/relu_1x1 <- inception_4b/1x1
I0403 14:27:18.374977  1313 net.cpp:386] inception_4b/relu_1x1 -> inception_4b/1x1 (in-place)
I0403 14:27:18.375216  1313 net.cpp:141] Setting up inception_4b/relu_1x1
I0403 14:27:18.375247  1313 net.cpp:148] Top shape: 24 160 14 14 (752640)
I0403 14:27:18.375265  1313 net.cpp:156] Memory required for data: 952225056
I0403 14:27:18.375283  1313 layer_factory.hpp:77] Creating layer inception_4b/3x3_reduce
I0403 14:27:18.375310  1313 net.cpp:91] Creating Layer inception_4b/3x3_reduce
I0403 14:27:18.375334  1313 net.cpp:425] inception_4b/3x3_reduce <- inception_4a/output_inception_4a/output_0_split_2
I0403 14:27:18.375360  1313 net.cpp:399] inception_4b/3x3_reduce -> inception_4b/3x3_reduce
I0403 14:27:18.377025  1313 net.cpp:141] Setting up inception_4b/3x3_reduce
I0403 14:27:18.377064  1313 net.cpp:148] Top shape: 24 112 14 14 (526848)
I0403 14:27:18.377085  1313 net.cpp:156] Memory required for data: 954332448
I0403 14:27:18.377107  1313 layer_factory.hpp:77] Creating layer inception_4b/relu_3x3_reduce
I0403 14:27:18.377130  1313 net.cpp:91] Creating Layer inception_4b/relu_3x3_reduce
I0403 14:27:18.377151  1313 net.cpp:425] inception_4b/relu_3x3_reduce <- inception_4b/3x3_reduce
I0403 14:27:18.377177  1313 net.cpp:386] inception_4b/relu_3x3_reduce -> inception_4b/3x3_reduce (in-place)
I0403 14:27:18.377528  1313 net.cpp:141] Setting up inception_4b/relu_3x3_reduce
I0403 14:27:18.377563  1313 net.cpp:148] Top shape: 24 112 14 14 (526848)
I0403 14:27:18.377583  1313 net.cpp:156] Memory required for data: 956439840
I0403 14:27:18.377600  1313 layer_factory.hpp:77] Creating layer inception_4b/3x3
I0403 14:27:18.377629  1313 net.cpp:91] Creating Layer inception_4b/3x3
I0403 14:27:18.377650  1313 net.cpp:425] inception_4b/3x3 <- inception_4b/3x3_reduce
I0403 14:27:18.377678  1313 net.cpp:399] inception_4b/3x3 -> inception_4b/3x3
I0403 14:27:18.381336  1313 net.cpp:141] Setting up inception_4b/3x3
I0403 14:27:18.381373  1313 net.cpp:148] Top shape: 24 224 14 14 (1053696)
I0403 14:27:18.381392  1313 net.cpp:156] Memory required for data: 960654624
I0403 14:27:18.381417  1313 layer_factory.hpp:77] Creating layer inception_4b/relu_3x3
I0403 14:27:18.381441  1313 net.cpp:91] Creating Layer inception_4b/relu_3x3
I0403 14:27:18.381464  1313 net.cpp:425] inception_4b/relu_3x3 <- inception_4b/3x3
I0403 14:27:18.381486  1313 net.cpp:386] inception_4b/relu_3x3 -> inception_4b/3x3 (in-place)
I0403 14:27:18.381713  1313 net.cpp:141] Setting up inception_4b/relu_3x3
I0403 14:27:18.381743  1313 net.cpp:148] Top shape: 24 224 14 14 (1053696)
I0403 14:27:18.381762  1313 net.cpp:156] Memory required for data: 964869408
I0403 14:27:18.381780  1313 layer_factory.hpp:77] Creating layer inception_4b/5x5_reduce
I0403 14:27:18.381808  1313 net.cpp:91] Creating Layer inception_4b/5x5_reduce
I0403 14:27:18.381831  1313 net.cpp:425] inception_4b/5x5_reduce <- inception_4a/output_inception_4a/output_0_split_3
I0403 14:27:18.381855  1313 net.cpp:399] inception_4b/5x5_reduce -> inception_4b/5x5_reduce
I0403 14:27:18.383208  1313 net.cpp:141] Setting up inception_4b/5x5_reduce
I0403 14:27:18.383244  1313 net.cpp:148] Top shape: 24 24 14 14 (112896)
I0403 14:27:18.383265  1313 net.cpp:156] Memory required for data: 965320992
I0403 14:27:18.383288  1313 layer_factory.hpp:77] Creating layer inception_4b/relu_5x5_reduce
I0403 14:27:18.383311  1313 net.cpp:91] Creating Layer inception_4b/relu_5x5_reduce
I0403 14:27:18.383348  1313 net.cpp:425] inception_4b/relu_5x5_reduce <- inception_4b/5x5_reduce
I0403 14:27:18.383374  1313 net.cpp:386] inception_4b/relu_5x5_reduce -> inception_4b/5x5_reduce (in-place)
I0403 14:27:18.383601  1313 net.cpp:141] Setting up inception_4b/relu_5x5_reduce
I0403 14:27:18.383632  1313 net.cpp:148] Top shape: 24 24 14 14 (112896)
I0403 14:27:18.383651  1313 net.cpp:156] Memory required for data: 965772576
I0403 14:27:18.383669  1313 layer_factory.hpp:77] Creating layer inception_4b/5x5
I0403 14:27:18.383697  1313 net.cpp:91] Creating Layer inception_4b/5x5
I0403 14:27:18.383719  1313 net.cpp:425] inception_4b/5x5 <- inception_4b/5x5_reduce
I0403 14:27:18.383747  1313 net.cpp:399] inception_4b/5x5 -> inception_4b/5x5
I0403 14:27:18.385273  1313 net.cpp:141] Setting up inception_4b/5x5
I0403 14:27:18.385313  1313 net.cpp:148] Top shape: 24 64 14 14 (301056)
I0403 14:27:18.385334  1313 net.cpp:156] Memory required for data: 966976800
I0403 14:27:18.385356  1313 layer_factory.hpp:77] Creating layer inception_4b/relu_5x5
I0403 14:27:18.385380  1313 net.cpp:91] Creating Layer inception_4b/relu_5x5
I0403 14:27:18.385399  1313 net.cpp:425] inception_4b/relu_5x5 <- inception_4b/5x5
I0403 14:27:18.385421  1313 net.cpp:386] inception_4b/relu_5x5 -> inception_4b/5x5 (in-place)
I0403 14:27:18.385779  1313 net.cpp:141] Setting up inception_4b/relu_5x5
I0403 14:27:18.385813  1313 net.cpp:148] Top shape: 24 64 14 14 (301056)
I0403 14:27:18.385833  1313 net.cpp:156] Memory required for data: 968181024
I0403 14:27:18.385850  1313 layer_factory.hpp:77] Creating layer inception_4b/pool
I0403 14:27:18.385874  1313 net.cpp:91] Creating Layer inception_4b/pool
I0403 14:27:18.385893  1313 net.cpp:425] inception_4b/pool <- inception_4a/output_inception_4a/output_0_split_4
I0403 14:27:18.385916  1313 net.cpp:399] inception_4b/pool -> inception_4b/pool
I0403 14:27:18.385998  1313 net.cpp:141] Setting up inception_4b/pool
I0403 14:27:18.386026  1313 net.cpp:148] Top shape: 24 512 14 14 (2408448)
I0403 14:27:18.386044  1313 net.cpp:156] Memory required for data: 977814816
I0403 14:27:18.386061  1313 layer_factory.hpp:77] Creating layer inception_4b/pool_proj
I0403 14:27:18.386088  1313 net.cpp:91] Creating Layer inception_4b/pool_proj
I0403 14:27:18.386111  1313 net.cpp:425] inception_4b/pool_proj <- inception_4b/pool
I0403 14:27:18.386137  1313 net.cpp:399] inception_4b/pool_proj -> inception_4b/pool_proj
I0403 14:27:18.387636  1313 net.cpp:141] Setting up inception_4b/pool_proj
I0403 14:27:18.387673  1313 net.cpp:148] Top shape: 24 64 14 14 (301056)
I0403 14:27:18.387693  1313 net.cpp:156] Memory required for data: 979019040
I0403 14:27:18.387715  1313 layer_factory.hpp:77] Creating layer inception_4b/relu_pool_proj
I0403 14:27:18.387737  1313 net.cpp:91] Creating Layer inception_4b/relu_pool_proj
I0403 14:27:18.387758  1313 net.cpp:425] inception_4b/relu_pool_proj <- inception_4b/pool_proj
I0403 14:27:18.387784  1313 net.cpp:386] inception_4b/relu_pool_proj -> inception_4b/pool_proj (in-place)
I0403 14:27:18.388008  1313 net.cpp:141] Setting up inception_4b/relu_pool_proj
I0403 14:27:18.388038  1313 net.cpp:148] Top shape: 24 64 14 14 (301056)
I0403 14:27:18.388056  1313 net.cpp:156] Memory required for data: 980223264
I0403 14:27:18.388075  1313 layer_factory.hpp:77] Creating layer inception_4b/output
I0403 14:27:18.388099  1313 net.cpp:91] Creating Layer inception_4b/output
I0403 14:27:18.388119  1313 net.cpp:425] inception_4b/output <- inception_4b/1x1
I0403 14:27:18.388140  1313 net.cpp:425] inception_4b/output <- inception_4b/3x3
I0403 14:27:18.388160  1313 net.cpp:425] inception_4b/output <- inception_4b/5x5
I0403 14:27:18.388190  1313 net.cpp:425] inception_4b/output <- inception_4b/pool_proj
I0403 14:27:18.388214  1313 net.cpp:399] inception_4b/output -> inception_4b/output
I0403 14:27:18.388273  1313 net.cpp:141] Setting up inception_4b/output
I0403 14:27:18.388303  1313 net.cpp:148] Top shape: 24 512 14 14 (2408448)
I0403 14:27:18.388324  1313 net.cpp:156] Memory required for data: 989857056
I0403 14:27:18.388360  1313 layer_factory.hpp:77] Creating layer inception_4b/output_inception_4b/output_0_split
I0403 14:27:18.388382  1313 net.cpp:91] Creating Layer inception_4b/output_inception_4b/output_0_split
I0403 14:27:18.388402  1313 net.cpp:425] inception_4b/output_inception_4b/output_0_split <- inception_4b/output
I0403 14:27:18.388428  1313 net.cpp:399] inception_4b/output_inception_4b/output_0_split -> inception_4b/output_inception_4b/output_0_split_0
I0403 14:27:18.388453  1313 net.cpp:399] inception_4b/output_inception_4b/output_0_split -> inception_4b/output_inception_4b/output_0_split_1
I0403 14:27:18.388479  1313 net.cpp:399] inception_4b/output_inception_4b/output_0_split -> inception_4b/output_inception_4b/output_0_split_2
I0403 14:27:18.388504  1313 net.cpp:399] inception_4b/output_inception_4b/output_0_split -> inception_4b/output_inception_4b/output_0_split_3
I0403 14:27:18.388608  1313 net.cpp:141] Setting up inception_4b/output_inception_4b/output_0_split
I0403 14:27:18.388636  1313 net.cpp:148] Top shape: 24 512 14 14 (2408448)
I0403 14:27:18.388661  1313 net.cpp:148] Top shape: 24 512 14 14 (2408448)
I0403 14:27:18.388681  1313 net.cpp:148] Top shape: 24 512 14 14 (2408448)
I0403 14:27:18.388701  1313 net.cpp:148] Top shape: 24 512 14 14 (2408448)
I0403 14:27:18.388718  1313 net.cpp:156] Memory required for data: 1028392224
I0403 14:27:18.388736  1313 layer_factory.hpp:77] Creating layer inception_4c/1x1
I0403 14:27:18.388761  1313 net.cpp:91] Creating Layer inception_4c/1x1
I0403 14:27:18.388782  1313 net.cpp:425] inception_4c/1x1 <- inception_4b/output_inception_4b/output_0_split_0
I0403 14:27:18.388808  1313 net.cpp:399] inception_4c/1x1 -> inception_4c/1x1
I0403 14:27:18.390588  1313 net.cpp:141] Setting up inception_4c/1x1
I0403 14:27:18.390622  1313 net.cpp:148] Top shape: 24 128 14 14 (602112)
I0403 14:27:18.390642  1313 net.cpp:156] Memory required for data: 1030800672
I0403 14:27:18.390666  1313 layer_factory.hpp:77] Creating layer inception_4c/relu_1x1
I0403 14:27:18.390691  1313 net.cpp:91] Creating Layer inception_4c/relu_1x1
I0403 14:27:18.390712  1313 net.cpp:425] inception_4c/relu_1x1 <- inception_4c/1x1
I0403 14:27:18.390734  1313 net.cpp:386] inception_4c/relu_1x1 -> inception_4c/1x1 (in-place)
I0403 14:27:18.390957  1313 net.cpp:141] Setting up inception_4c/relu_1x1
I0403 14:27:18.390990  1313 net.cpp:148] Top shape: 24 128 14 14 (602112)
I0403 14:27:18.391007  1313 net.cpp:156] Memory required for data: 1033209120
I0403 14:27:18.391026  1313 layer_factory.hpp:77] Creating layer inception_4c/3x3_reduce
I0403 14:27:18.391055  1313 net.cpp:91] Creating Layer inception_4c/3x3_reduce
I0403 14:27:18.391078  1313 net.cpp:425] inception_4c/3x3_reduce <- inception_4b/output_inception_4b/output_0_split_1
I0403 14:27:18.391101  1313 net.cpp:399] inception_4c/3x3_reduce -> inception_4c/3x3_reduce
I0403 14:27:18.393477  1313 net.cpp:141] Setting up inception_4c/3x3_reduce
I0403 14:27:18.393513  1313 net.cpp:148] Top shape: 24 128 14 14 (602112)
I0403 14:27:18.393532  1313 net.cpp:156] Memory required for data: 1035617568
I0403 14:27:18.393555  1313 layer_factory.hpp:77] Creating layer inception_4c/relu_3x3_reduce
I0403 14:27:18.393581  1313 net.cpp:91] Creating Layer inception_4c/relu_3x3_reduce
I0403 14:27:18.393601  1313 net.cpp:425] inception_4c/relu_3x3_reduce <- inception_4c/3x3_reduce
I0403 14:27:18.393623  1313 net.cpp:386] inception_4c/relu_3x3_reduce -> inception_4c/3x3_reduce (in-place)
I0403 14:27:18.393976  1313 net.cpp:141] Setting up inception_4c/relu_3x3_reduce
I0403 14:27:18.394009  1313 net.cpp:148] Top shape: 24 128 14 14 (602112)
I0403 14:27:18.394028  1313 net.cpp:156] Memory required for data: 1038026016
I0403 14:27:18.394047  1313 layer_factory.hpp:77] Creating layer inception_4c/3x3
I0403 14:27:18.394079  1313 net.cpp:91] Creating Layer inception_4c/3x3
I0403 14:27:18.394101  1313 net.cpp:425] inception_4c/3x3 <- inception_4c/3x3_reduce
I0403 14:27:18.394125  1313 net.cpp:399] inception_4c/3x3 -> inception_4c/3x3
I0403 14:27:18.398526  1313 net.cpp:141] Setting up inception_4c/3x3
I0403 14:27:18.398581  1313 net.cpp:148] Top shape: 24 256 14 14 (1204224)
I0403 14:27:18.398602  1313 net.cpp:156] Memory required for data: 1042842912
I0403 14:27:18.398643  1313 layer_factory.hpp:77] Creating layer inception_4c/relu_3x3
I0403 14:27:18.398668  1313 net.cpp:91] Creating Layer inception_4c/relu_3x3
I0403 14:27:18.398687  1313 net.cpp:425] inception_4c/relu_3x3 <- inception_4c/3x3
I0403 14:27:18.398710  1313 net.cpp:386] inception_4c/relu_3x3 -> inception_4c/3x3 (in-place)
I0403 14:27:18.398936  1313 net.cpp:141] Setting up inception_4c/relu_3x3
I0403 14:27:18.398969  1313 net.cpp:148] Top shape: 24 256 14 14 (1204224)
I0403 14:27:18.398988  1313 net.cpp:156] Memory required for data: 1047659808
I0403 14:27:18.399008  1313 layer_factory.hpp:77] Creating layer inception_4c/5x5_reduce
I0403 14:27:18.399035  1313 net.cpp:91] Creating Layer inception_4c/5x5_reduce
I0403 14:27:18.399057  1313 net.cpp:425] inception_4c/5x5_reduce <- inception_4b/output_inception_4b/output_0_split_2
I0403 14:27:18.399081  1313 net.cpp:399] inception_4c/5x5_reduce -> inception_4c/5x5_reduce
I0403 14:27:18.400441  1313 net.cpp:141] Setting up inception_4c/5x5_reduce
I0403 14:27:18.400478  1313 net.cpp:148] Top shape: 24 24 14 14 (112896)
I0403 14:27:18.400508  1313 net.cpp:156] Memory required for data: 1048111392
I0403 14:27:18.400533  1313 layer_factory.hpp:77] Creating layer inception_4c/relu_5x5_reduce
I0403 14:27:18.400557  1313 net.cpp:91] Creating Layer inception_4c/relu_5x5_reduce
I0403 14:27:18.400575  1313 net.cpp:425] inception_4c/relu_5x5_reduce <- inception_4c/5x5_reduce
I0403 14:27:18.400599  1313 net.cpp:386] inception_4c/relu_5x5_reduce -> inception_4c/5x5_reduce (in-place)
I0403 14:27:18.400827  1313 net.cpp:141] Setting up inception_4c/relu_5x5_reduce
I0403 14:27:18.400857  1313 net.cpp:148] Top shape: 24 24 14 14 (112896)
I0403 14:27:18.400876  1313 net.cpp:156] Memory required for data: 1048562976
I0403 14:27:18.400894  1313 layer_factory.hpp:77] Creating layer inception_4c/5x5
I0403 14:27:18.400921  1313 net.cpp:91] Creating Layer inception_4c/5x5
I0403 14:27:18.400944  1313 net.cpp:425] inception_4c/5x5 <- inception_4c/5x5_reduce
I0403 14:27:18.400971  1313 net.cpp:399] inception_4c/5x5 -> inception_4c/5x5
I0403 14:27:18.402523  1313 net.cpp:141] Setting up inception_4c/5x5
I0403 14:27:18.402556  1313 net.cpp:148] Top shape: 24 64 14 14 (301056)
I0403 14:27:18.402576  1313 net.cpp:156] Memory required for data: 1049767200
I0403 14:27:18.402600  1313 layer_factory.hpp:77] Creating layer inception_4c/relu_5x5
I0403 14:27:18.402624  1313 net.cpp:91] Creating Layer inception_4c/relu_5x5
I0403 14:27:18.402645  1313 net.cpp:425] inception_4c/relu_5x5 <- inception_4c/5x5
I0403 14:27:18.402667  1313 net.cpp:386] inception_4c/relu_5x5 -> inception_4c/5x5 (in-place)
I0403 14:27:18.403019  1313 net.cpp:141] Setting up inception_4c/relu_5x5
I0403 14:27:18.403051  1313 net.cpp:148] Top shape: 24 64 14 14 (301056)
I0403 14:27:18.403069  1313 net.cpp:156] Memory required for data: 1050971424
I0403 14:27:18.403090  1313 layer_factory.hpp:77] Creating layer inception_4c/pool
I0403 14:27:18.403112  1313 net.cpp:91] Creating Layer inception_4c/pool
I0403 14:27:18.403132  1313 net.cpp:425] inception_4c/pool <- inception_4b/output_inception_4b/output_0_split_3
I0403 14:27:18.403158  1313 net.cpp:399] inception_4c/pool -> inception_4c/pool
I0403 14:27:18.403246  1313 net.cpp:141] Setting up inception_4c/pool
I0403 14:27:18.403276  1313 net.cpp:148] Top shape: 24 512 14 14 (2408448)
I0403 14:27:18.403295  1313 net.cpp:156] Memory required for data: 1060605216
I0403 14:27:18.403312  1313 layer_factory.hpp:77] Creating layer inception_4c/pool_proj
I0403 14:27:18.403340  1313 net.cpp:91] Creating Layer inception_4c/pool_proj
I0403 14:27:18.403362  1313 net.cpp:425] inception_4c/pool_proj <- inception_4c/pool
I0403 14:27:18.403388  1313 net.cpp:399] inception_4c/pool_proj -> inception_4c/pool_proj
I0403 14:27:18.404886  1313 net.cpp:141] Setting up inception_4c/pool_proj
I0403 14:27:18.404924  1313 net.cpp:148] Top shape: 24 64 14 14 (301056)
I0403 14:27:18.404961  1313 net.cpp:156] Memory required for data: 1061809440
I0403 14:27:18.404986  1313 layer_factory.hpp:77] Creating layer inception_4c/relu_pool_proj
I0403 14:27:18.405009  1313 net.cpp:91] Creating Layer inception_4c/relu_pool_proj
I0403 14:27:18.405028  1313 net.cpp:425] inception_4c/relu_pool_proj <- inception_4c/pool_proj
I0403 14:27:18.405050  1313 net.cpp:386] inception_4c/relu_pool_proj -> inception_4c/pool_proj (in-place)
I0403 14:27:18.405292  1313 net.cpp:141] Setting up inception_4c/relu_pool_proj
I0403 14:27:18.405323  1313 net.cpp:148] Top shape: 24 64 14 14 (301056)
I0403 14:27:18.405339  1313 net.cpp:156] Memory required for data: 1063013664
I0403 14:27:18.405359  1313 layer_factory.hpp:77] Creating layer inception_4c/output
I0403 14:27:18.405380  1313 net.cpp:91] Creating Layer inception_4c/output
I0403 14:27:18.405400  1313 net.cpp:425] inception_4c/output <- inception_4c/1x1
I0403 14:27:18.405419  1313 net.cpp:425] inception_4c/output <- inception_4c/3x3
I0403 14:27:18.405439  1313 net.cpp:425] inception_4c/output <- inception_4c/5x5
I0403 14:27:18.405460  1313 net.cpp:425] inception_4c/output <- inception_4c/pool_proj
I0403 14:27:18.405484  1313 net.cpp:399] inception_4c/output -> inception_4c/output
I0403 14:27:18.405541  1313 net.cpp:141] Setting up inception_4c/output
I0403 14:27:18.405571  1313 net.cpp:148] Top shape: 24 512 14 14 (2408448)
I0403 14:27:18.405591  1313 net.cpp:156] Memory required for data: 1072647456
I0403 14:27:18.405609  1313 layer_factory.hpp:77] Creating layer inception_4c/output_inception_4c/output_0_split
I0403 14:27:18.405630  1313 net.cpp:91] Creating Layer inception_4c/output_inception_4c/output_0_split
I0403 14:27:18.405649  1313 net.cpp:425] inception_4c/output_inception_4c/output_0_split <- inception_4c/output
I0403 14:27:18.405673  1313 net.cpp:399] inception_4c/output_inception_4c/output_0_split -> inception_4c/output_inception_4c/output_0_split_0
I0403 14:27:18.405699  1313 net.cpp:399] inception_4c/output_inception_4c/output_0_split -> inception_4c/output_inception_4c/output_0_split_1
I0403 14:27:18.405725  1313 net.cpp:399] inception_4c/output_inception_4c/output_0_split -> inception_4c/output_inception_4c/output_0_split_2
I0403 14:27:18.405751  1313 net.cpp:399] inception_4c/output_inception_4c/output_0_split -> inception_4c/output_inception_4c/output_0_split_3
I0403 14:27:18.405855  1313 net.cpp:141] Setting up inception_4c/output_inception_4c/output_0_split
I0403 14:27:18.405882  1313 net.cpp:148] Top shape: 24 512 14 14 (2408448)
I0403 14:27:18.405902  1313 net.cpp:148] Top shape: 24 512 14 14 (2408448)
I0403 14:27:18.405922  1313 net.cpp:148] Top shape: 24 512 14 14 (2408448)
I0403 14:27:18.405941  1313 net.cpp:148] Top shape: 24 512 14 14 (2408448)
I0403 14:27:18.405958  1313 net.cpp:156] Memory required for data: 1111182624
I0403 14:27:18.405975  1313 layer_factory.hpp:77] Creating layer inception_4d/1x1
I0403 14:27:18.406003  1313 net.cpp:91] Creating Layer inception_4d/1x1
I0403 14:27:18.406024  1313 net.cpp:425] inception_4d/1x1 <- inception_4c/output_inception_4c/output_0_split_0
I0403 14:27:18.406051  1313 net.cpp:399] inception_4d/1x1 -> inception_4d/1x1
I0403 14:27:18.407764  1313 net.cpp:141] Setting up inception_4d/1x1
I0403 14:27:18.407799  1313 net.cpp:148] Top shape: 24 112 14 14 (526848)
I0403 14:27:18.407819  1313 net.cpp:156] Memory required for data: 1113290016
I0403 14:27:18.407841  1313 layer_factory.hpp:77] Creating layer inception_4d/relu_1x1
I0403 14:27:18.407866  1313 net.cpp:91] Creating Layer inception_4d/relu_1x1
I0403 14:27:18.407887  1313 net.cpp:425] inception_4d/relu_1x1 <- inception_4d/1x1
I0403 14:27:18.407909  1313 net.cpp:386] inception_4d/relu_1x1 -> inception_4d/1x1 (in-place)
I0403 14:27:18.408143  1313 net.cpp:141] Setting up inception_4d/relu_1x1
I0403 14:27:18.408174  1313 net.cpp:148] Top shape: 24 112 14 14 (526848)
I0403 14:27:18.408201  1313 net.cpp:156] Memory required for data: 1115397408
I0403 14:27:18.408220  1313 layer_factory.hpp:77] Creating layer inception_4d/3x3_reduce
I0403 14:27:18.408263  1313 net.cpp:91] Creating Layer inception_4d/3x3_reduce
I0403 14:27:18.408288  1313 net.cpp:425] inception_4d/3x3_reduce <- inception_4c/output_inception_4c/output_0_split_1
I0403 14:27:18.408311  1313 net.cpp:399] inception_4d/3x3_reduce -> inception_4d/3x3_reduce
I0403 14:27:18.410166  1313 net.cpp:141] Setting up inception_4d/3x3_reduce
I0403 14:27:18.410207  1313 net.cpp:148] Top shape: 24 144 14 14 (677376)
I0403 14:27:18.410226  1313 net.cpp:156] Memory required for data: 1118106912
I0403 14:27:18.410249  1313 layer_factory.hpp:77] Creating layer inception_4d/relu_3x3_reduce
I0403 14:27:18.410274  1313 net.cpp:91] Creating Layer inception_4d/relu_3x3_reduce
I0403 14:27:18.410295  1313 net.cpp:425] inception_4d/relu_3x3_reduce <- inception_4d/3x3_reduce
I0403 14:27:18.410316  1313 net.cpp:386] inception_4d/relu_3x3_reduce -> inception_4d/3x3_reduce (in-place)
I0403 14:27:18.410670  1313 net.cpp:141] Setting up inception_4d/relu_3x3_reduce
I0403 14:27:18.410701  1313 net.cpp:148] Top shape: 24 144 14 14 (677376)
I0403 14:27:18.410720  1313 net.cpp:156] Memory required for data: 1120816416
I0403 14:27:18.410739  1313 layer_factory.hpp:77] Creating layer inception_4d/3x3
I0403 14:27:18.410768  1313 net.cpp:91] Creating Layer inception_4d/3x3
I0403 14:27:18.410789  1313 net.cpp:425] inception_4d/3x3 <- inception_4d/3x3_reduce
I0403 14:27:18.410816  1313 net.cpp:399] inception_4d/3x3 -> inception_4d/3x3
I0403 14:27:18.416066  1313 net.cpp:141] Setting up inception_4d/3x3
I0403 14:27:18.416102  1313 net.cpp:148] Top shape: 24 288 14 14 (1354752)
I0403 14:27:18.416122  1313 net.cpp:156] Memory required for data: 1126235424
I0403 14:27:18.416144  1313 layer_factory.hpp:77] Creating layer inception_4d/relu_3x3
I0403 14:27:18.416169  1313 net.cpp:91] Creating Layer inception_4d/relu_3x3
I0403 14:27:18.416199  1313 net.cpp:425] inception_4d/relu_3x3 <- inception_4d/3x3
I0403 14:27:18.416223  1313 net.cpp:386] inception_4d/relu_3x3 -> inception_4d/3x3 (in-place)
I0403 14:27:18.416450  1313 net.cpp:141] Setting up inception_4d/relu_3x3
I0403 14:27:18.416482  1313 net.cpp:148] Top shape: 24 288 14 14 (1354752)
I0403 14:27:18.416501  1313 net.cpp:156] Memory required for data: 1131654432
I0403 14:27:18.416519  1313 layer_factory.hpp:77] Creating layer inception_4d/5x5_reduce
I0403 14:27:18.416548  1313 net.cpp:91] Creating Layer inception_4d/5x5_reduce
I0403 14:27:18.416570  1313 net.cpp:425] inception_4d/5x5_reduce <- inception_4c/output_inception_4c/output_0_split_2
I0403 14:27:18.416596  1313 net.cpp:399] inception_4d/5x5_reduce -> inception_4d/5x5_reduce
I0403 14:27:18.418030  1313 net.cpp:141] Setting up inception_4d/5x5_reduce
I0403 14:27:18.418066  1313 net.cpp:148] Top shape: 24 32 14 14 (150528)
I0403 14:27:18.418084  1313 net.cpp:156] Memory required for data: 1132256544
I0403 14:27:18.418107  1313 layer_factory.hpp:77] Creating layer inception_4d/relu_5x5_reduce
I0403 14:27:18.418133  1313 net.cpp:91] Creating Layer inception_4d/relu_5x5_reduce
I0403 14:27:18.418153  1313 net.cpp:425] inception_4d/relu_5x5_reduce <- inception_4d/5x5_reduce
I0403 14:27:18.418175  1313 net.cpp:386] inception_4d/relu_5x5_reduce -> inception_4d/5x5_reduce (in-place)
I0403 14:27:18.418421  1313 net.cpp:141] Setting up inception_4d/relu_5x5_reduce
I0403 14:27:18.418453  1313 net.cpp:148] Top shape: 24 32 14 14 (150528)
I0403 14:27:18.418473  1313 net.cpp:156] Memory required for data: 1132858656
I0403 14:27:18.418491  1313 layer_factory.hpp:77] Creating layer inception_4d/5x5
I0403 14:27:18.418519  1313 net.cpp:91] Creating Layer inception_4d/5x5
I0403 14:27:18.418541  1313 net.cpp:425] inception_4d/5x5 <- inception_4d/5x5_reduce
I0403 14:27:18.418565  1313 net.cpp:399] inception_4d/5x5 -> inception_4d/5x5
I0403 14:27:18.420394  1313 net.cpp:141] Setting up inception_4d/5x5
I0403 14:27:18.420430  1313 net.cpp:148] Top shape: 24 64 14 14 (301056)
I0403 14:27:18.420451  1313 net.cpp:156] Memory required for data: 1134062880
I0403 14:27:18.420475  1313 layer_factory.hpp:77] Creating layer inception_4d/relu_5x5
I0403 14:27:18.420516  1313 net.cpp:91] Creating Layer inception_4d/relu_5x5
I0403 14:27:18.420537  1313 net.cpp:425] inception_4d/relu_5x5 <- inception_4d/5x5
I0403 14:27:18.420563  1313 net.cpp:386] inception_4d/relu_5x5 -> inception_4d/5x5 (in-place)
I0403 14:27:18.420928  1313 net.cpp:141] Setting up inception_4d/relu_5x5
I0403 14:27:18.420963  1313 net.cpp:148] Top shape: 24 64 14 14 (301056)
I0403 14:27:18.420982  1313 net.cpp:156] Memory required for data: 1135267104
I0403 14:27:18.421001  1313 layer_factory.hpp:77] Creating layer inception_4d/pool
I0403 14:27:18.421023  1313 net.cpp:91] Creating Layer inception_4d/pool
I0403 14:27:18.421043  1313 net.cpp:425] inception_4d/pool <- inception_4c/output_inception_4c/output_0_split_3
I0403 14:27:18.421068  1313 net.cpp:399] inception_4d/pool -> inception_4d/pool
I0403 14:27:18.421149  1313 net.cpp:141] Setting up inception_4d/pool
I0403 14:27:18.421188  1313 net.cpp:148] Top shape: 24 512 14 14 (2408448)
I0403 14:27:18.421210  1313 net.cpp:156] Memory required for data: 1144900896
I0403 14:27:18.421227  1313 layer_factory.hpp:77] Creating layer inception_4d/pool_proj
I0403 14:27:18.421254  1313 net.cpp:91] Creating Layer inception_4d/pool_proj
I0403 14:27:18.421277  1313 net.cpp:425] inception_4d/pool_proj <- inception_4d/pool
I0403 14:27:18.421300  1313 net.cpp:399] inception_4d/pool_proj -> inception_4d/pool_proj
I0403 14:27:18.423478  1313 net.cpp:141] Setting up inception_4d/pool_proj
I0403 14:27:18.423516  1313 net.cpp:148] Top shape: 24 64 14 14 (301056)
I0403 14:27:18.423534  1313 net.cpp:156] Memory required for data: 1146105120
I0403 14:27:18.423557  1313 layer_factory.hpp:77] Creating layer inception_4d/relu_pool_proj
I0403 14:27:18.423583  1313 net.cpp:91] Creating Layer inception_4d/relu_pool_proj
I0403 14:27:18.423605  1313 net.cpp:425] inception_4d/relu_pool_proj <- inception_4d/pool_proj
I0403 14:27:18.423629  1313 net.cpp:386] inception_4d/relu_pool_proj -> inception_4d/pool_proj (in-place)
I0403 14:27:18.423856  1313 net.cpp:141] Setting up inception_4d/relu_pool_proj
I0403 14:27:18.423888  1313 net.cpp:148] Top shape: 24 64 14 14 (301056)
I0403 14:27:18.423907  1313 net.cpp:156] Memory required for data: 1147309344
I0403 14:27:18.423926  1313 layer_factory.hpp:77] Creating layer inception_4d/output
I0403 14:27:18.423949  1313 net.cpp:91] Creating Layer inception_4d/output
I0403 14:27:18.423969  1313 net.cpp:425] inception_4d/output <- inception_4d/1x1
I0403 14:27:18.423990  1313 net.cpp:425] inception_4d/output <- inception_4d/3x3
I0403 14:27:18.424011  1313 net.cpp:425] inception_4d/output <- inception_4d/5x5
I0403 14:27:18.424031  1313 net.cpp:425] inception_4d/output <- inception_4d/pool_proj
I0403 14:27:18.424054  1313 net.cpp:399] inception_4d/output -> inception_4d/output
I0403 14:27:18.424116  1313 net.cpp:141] Setting up inception_4d/output
I0403 14:27:18.424145  1313 net.cpp:148] Top shape: 24 528 14 14 (2483712)
I0403 14:27:18.424165  1313 net.cpp:156] Memory required for data: 1157244192
I0403 14:27:18.424192  1313 layer_factory.hpp:77] Creating layer inception_4d/output_inception_4d/output_0_split
I0403 14:27:18.424219  1313 net.cpp:91] Creating Layer inception_4d/output_inception_4d/output_0_split
I0403 14:27:18.424242  1313 net.cpp:425] inception_4d/output_inception_4d/output_0_split <- inception_4d/output
I0403 14:27:18.424264  1313 net.cpp:399] inception_4d/output_inception_4d/output_0_split -> inception_4d/output_inception_4d/output_0_split_0
I0403 14:27:18.424290  1313 net.cpp:399] inception_4d/output_inception_4d/output_0_split -> inception_4d/output_inception_4d/output_0_split_1
I0403 14:27:18.424319  1313 net.cpp:399] inception_4d/output_inception_4d/output_0_split -> inception_4d/output_inception_4d/output_0_split_2
I0403 14:27:18.424345  1313 net.cpp:399] inception_4d/output_inception_4d/output_0_split -> inception_4d/output_inception_4d/output_0_split_3
I0403 14:27:18.424371  1313 net.cpp:399] inception_4d/output_inception_4d/output_0_split -> inception_4d/output_inception_4d/output_0_split_4
I0403 14:27:18.424500  1313 net.cpp:141] Setting up inception_4d/output_inception_4d/output_0_split
I0403 14:27:18.424546  1313 net.cpp:148] Top shape: 24 528 14 14 (2483712)
I0403 14:27:18.424566  1313 net.cpp:148] Top shape: 24 528 14 14 (2483712)
I0403 14:27:18.424584  1313 net.cpp:148] Top shape: 24 528 14 14 (2483712)
I0403 14:27:18.424604  1313 net.cpp:148] Top shape: 24 528 14 14 (2483712)
I0403 14:27:18.424624  1313 net.cpp:148] Top shape: 24 528 14 14 (2483712)
I0403 14:27:18.424641  1313 net.cpp:156] Memory required for data: 1206918432
I0403 14:27:18.424660  1313 layer_factory.hpp:77] Creating layer loss2/ave_pool
I0403 14:27:18.424685  1313 net.cpp:91] Creating Layer loss2/ave_pool
I0403 14:27:18.424706  1313 net.cpp:425] loss2/ave_pool <- inception_4d/output_inception_4d/output_0_split_0
I0403 14:27:18.424731  1313 net.cpp:399] loss2/ave_pool -> loss2/ave_pool
I0403 14:27:18.425112  1313 net.cpp:141] Setting up loss2/ave_pool
I0403 14:27:18.425144  1313 net.cpp:148] Top shape: 24 528 4 4 (202752)
I0403 14:27:18.425163  1313 net.cpp:156] Memory required for data: 1207729440
I0403 14:27:18.425189  1313 layer_factory.hpp:77] Creating layer loss2/conv
I0403 14:27:18.425221  1313 net.cpp:91] Creating Layer loss2/conv
I0403 14:27:18.425245  1313 net.cpp:425] loss2/conv <- loss2/ave_pool
I0403 14:27:18.425268  1313 net.cpp:399] loss2/conv -> loss2/conv
I0403 14:27:18.427582  1313 net.cpp:141] Setting up loss2/conv
I0403 14:27:18.427618  1313 net.cpp:148] Top shape: 24 128 4 4 (49152)
I0403 14:27:18.427639  1313 net.cpp:156] Memory required for data: 1207926048
I0403 14:27:18.427662  1313 layer_factory.hpp:77] Creating layer loss2/relu_conv
I0403 14:27:18.427685  1313 net.cpp:91] Creating Layer loss2/relu_conv
I0403 14:27:18.427706  1313 net.cpp:425] loss2/relu_conv <- loss2/conv
I0403 14:27:18.427729  1313 net.cpp:386] loss2/relu_conv -> loss2/conv (in-place)
I0403 14:27:18.428076  1313 net.cpp:141] Setting up loss2/relu_conv
I0403 14:27:18.428109  1313 net.cpp:148] Top shape: 24 128 4 4 (49152)
I0403 14:27:18.428129  1313 net.cpp:156] Memory required for data: 1208122656
I0403 14:27:18.428148  1313 layer_factory.hpp:77] Creating layer loss2/fc
I0403 14:27:18.428174  1313 net.cpp:91] Creating Layer loss2/fc
I0403 14:27:18.428200  1313 net.cpp:425] loss2/fc <- loss2/conv
I0403 14:27:18.428228  1313 net.cpp:399] loss2/fc -> loss2/fc
I0403 14:27:18.449939  1313 net.cpp:141] Setting up loss2/fc
I0403 14:27:18.450014  1313 net.cpp:148] Top shape: 24 1024 (24576)
I0403 14:27:18.450034  1313 net.cpp:156] Memory required for data: 1208220960
I0403 14:27:18.450060  1313 layer_factory.hpp:77] Creating layer loss2/relu_fc
I0403 14:27:18.450085  1313 net.cpp:91] Creating Layer loss2/relu_fc
I0403 14:27:18.450108  1313 net.cpp:425] loss2/relu_fc <- loss2/fc
I0403 14:27:18.450131  1313 net.cpp:386] loss2/relu_fc -> loss2/fc (in-place)
I0403 14:27:18.450577  1313 net.cpp:141] Setting up loss2/relu_fc
I0403 14:27:18.450613  1313 net.cpp:148] Top shape: 24 1024 (24576)
I0403 14:27:18.450634  1313 net.cpp:156] Memory required for data: 1208319264
I0403 14:27:18.450654  1313 layer_factory.hpp:77] Creating layer loss2/drop_fc
I0403 14:27:18.450676  1313 net.cpp:91] Creating Layer loss2/drop_fc
I0403 14:27:18.450697  1313 net.cpp:425] loss2/drop_fc <- loss2/fc
I0403 14:27:18.450719  1313 net.cpp:386] loss2/drop_fc -> loss2/fc (in-place)
I0403 14:27:18.450784  1313 net.cpp:141] Setting up loss2/drop_fc
I0403 14:27:18.450812  1313 net.cpp:148] Top shape: 24 1024 (24576)
I0403 14:27:18.450830  1313 net.cpp:156] Memory required for data: 1208417568
I0403 14:27:18.450847  1313 layer_factory.hpp:77] Creating layer loss2/classifier_plantvillage
I0403 14:27:18.450875  1313 net.cpp:91] Creating Layer loss2/classifier_plantvillage
I0403 14:27:18.450896  1313 net.cpp:425] loss2/classifier_plantvillage <- loss2/fc
I0403 14:27:18.450919  1313 net.cpp:399] loss2/classifier_plantvillage -> loss2/classifier_plantvillage
I0403 14:27:18.451433  1313 net.cpp:141] Setting up loss2/classifier_plantvillage
I0403 14:27:18.451464  1313 net.cpp:148] Top shape: 24 38 (912)
I0403 14:27:18.451514  1313 net.cpp:156] Memory required for data: 1208421216
I0403 14:27:18.451536  1313 layer_factory.hpp:77] Creating layer loss2/classifier_plantvillage_loss2/classifier_plantvillage_0_split
I0403 14:27:18.451560  1313 net.cpp:91] Creating Layer loss2/classifier_plantvillage_loss2/classifier_plantvillage_0_split
I0403 14:27:18.451581  1313 net.cpp:425] loss2/classifier_plantvillage_loss2/classifier_plantvillage_0_split <- loss2/classifier_plantvillage
I0403 14:27:18.451607  1313 net.cpp:399] loss2/classifier_plantvillage_loss2/classifier_plantvillage_0_split -> loss2/classifier_plantvillage_loss2/classifier_plantvillage_0_split_0
I0403 14:27:18.451633  1313 net.cpp:399] loss2/classifier_plantvillage_loss2/classifier_plantvillage_0_split -> loss2/classifier_plantvillage_loss2/classifier_plantvillage_0_split_1
I0403 14:27:18.451658  1313 net.cpp:399] loss2/classifier_plantvillage_loss2/classifier_plantvillage_0_split -> loss2/classifier_plantvillage_loss2/classifier_plantvillage_0_split_2
I0403 14:27:18.451755  1313 net.cpp:141] Setting up loss2/classifier_plantvillage_loss2/classifier_plantvillage_0_split
I0403 14:27:18.451782  1313 net.cpp:148] Top shape: 24 38 (912)
I0403 14:27:18.451803  1313 net.cpp:148] Top shape: 24 38 (912)
I0403 14:27:18.451822  1313 net.cpp:148] Top shape: 24 38 (912)
I0403 14:27:18.451840  1313 net.cpp:156] Memory required for data: 1208432160
I0403 14:27:18.451858  1313 layer_factory.hpp:77] Creating layer inception_4e/1x1
I0403 14:27:18.451887  1313 net.cpp:91] Creating Layer inception_4e/1x1
I0403 14:27:18.451910  1313 net.cpp:425] inception_4e/1x1 <- inception_4d/output_inception_4d/output_0_split_1
I0403 14:27:18.451935  1313 net.cpp:399] inception_4e/1x1 -> inception_4e/1x1
I0403 14:27:18.454247  1313 net.cpp:141] Setting up inception_4e/1x1
I0403 14:27:18.454282  1313 net.cpp:148] Top shape: 24 256 14 14 (1204224)
I0403 14:27:18.454301  1313 net.cpp:156] Memory required for data: 1213249056
I0403 14:27:18.454324  1313 layer_factory.hpp:77] Creating layer inception_4e/relu_1x1
I0403 14:27:18.454346  1313 net.cpp:91] Creating Layer inception_4e/relu_1x1
I0403 14:27:18.454370  1313 net.cpp:425] inception_4e/relu_1x1 <- inception_4e/1x1
I0403 14:27:18.454392  1313 net.cpp:386] inception_4e/relu_1x1 -> inception_4e/1x1 (in-place)
I0403 14:27:18.454751  1313 net.cpp:141] Setting up inception_4e/relu_1x1
I0403 14:27:18.454782  1313 net.cpp:148] Top shape: 24 256 14 14 (1204224)
I0403 14:27:18.454802  1313 net.cpp:156] Memory required for data: 1218065952
I0403 14:27:18.454819  1313 layer_factory.hpp:77] Creating layer inception_4e/3x3_reduce
I0403 14:27:18.454848  1313 net.cpp:91] Creating Layer inception_4e/3x3_reduce
I0403 14:27:18.454869  1313 net.cpp:425] inception_4e/3x3_reduce <- inception_4d/output_inception_4d/output_0_split_2
I0403 14:27:18.454897  1313 net.cpp:399] inception_4e/3x3_reduce -> inception_4e/3x3_reduce
I0403 14:27:18.457509  1313 net.cpp:141] Setting up inception_4e/3x3_reduce
I0403 14:27:18.457545  1313 net.cpp:148] Top shape: 24 160 14 14 (752640)
I0403 14:27:18.457564  1313 net.cpp:156] Memory required for data: 1221076512
I0403 14:27:18.457587  1313 layer_factory.hpp:77] Creating layer inception_4e/relu_3x3_reduce
I0403 14:27:18.457610  1313 net.cpp:91] Creating Layer inception_4e/relu_3x3_reduce
I0403 14:27:18.457630  1313 net.cpp:425] inception_4e/relu_3x3_reduce <- inception_4e/3x3_reduce
I0403 14:27:18.457654  1313 net.cpp:386] inception_4e/relu_3x3_reduce -> inception_4e/3x3_reduce (in-place)
I0403 14:27:18.457886  1313 net.cpp:141] Setting up inception_4e/relu_3x3_reduce
I0403 14:27:18.457917  1313 net.cpp:148] Top shape: 24 160 14 14 (752640)
I0403 14:27:18.457936  1313 net.cpp:156] Memory required for data: 1224087072
I0403 14:27:18.457954  1313 layer_factory.hpp:77] Creating layer inception_4e/3x3
I0403 14:27:18.457981  1313 net.cpp:91] Creating Layer inception_4e/3x3
I0403 14:27:18.458004  1313 net.cpp:425] inception_4e/3x3 <- inception_4e/3x3_reduce
I0403 14:27:18.458030  1313 net.cpp:399] inception_4e/3x3 -> inception_4e/3x3
I0403 14:27:18.464195  1313 net.cpp:141] Setting up inception_4e/3x3
I0403 14:27:18.464247  1313 net.cpp:148] Top shape: 24 320 14 14 (1505280)
I0403 14:27:18.464267  1313 net.cpp:156] Memory required for data: 1230108192
I0403 14:27:18.464290  1313 layer_factory.hpp:77] Creating layer inception_4e/relu_3x3
I0403 14:27:18.464315  1313 net.cpp:91] Creating Layer inception_4e/relu_3x3
I0403 14:27:18.464336  1313 net.cpp:425] inception_4e/relu_3x3 <- inception_4e/3x3
I0403 14:27:18.464359  1313 net.cpp:386] inception_4e/relu_3x3 -> inception_4e/3x3 (in-place)
I0403 14:27:18.464728  1313 net.cpp:141] Setting up inception_4e/relu_3x3
I0403 14:27:18.464761  1313 net.cpp:148] Top shape: 24 320 14 14 (1505280)
I0403 14:27:18.464781  1313 net.cpp:156] Memory required for data: 1236129312
I0403 14:27:18.464799  1313 layer_factory.hpp:77] Creating layer inception_4e/5x5_reduce
I0403 14:27:18.464829  1313 net.cpp:91] Creating Layer inception_4e/5x5_reduce
I0403 14:27:18.464851  1313 net.cpp:425] inception_4e/5x5_reduce <- inception_4d/output_inception_4d/output_0_split_3
I0403 14:27:18.464877  1313 net.cpp:399] inception_4e/5x5_reduce -> inception_4e/5x5_reduce
I0403 14:27:18.466217  1313 net.cpp:141] Setting up inception_4e/5x5_reduce
I0403 14:27:18.466253  1313 net.cpp:148] Top shape: 24 32 14 14 (150528)
I0403 14:27:18.466274  1313 net.cpp:156] Memory required for data: 1236731424
I0403 14:27:18.466296  1313 layer_factory.hpp:77] Creating layer inception_4e/relu_5x5_reduce
I0403 14:27:18.466318  1313 net.cpp:91] Creating Layer inception_4e/relu_5x5_reduce
I0403 14:27:18.466338  1313 net.cpp:425] inception_4e/relu_5x5_reduce <- inception_4e/5x5_reduce
I0403 14:27:18.466362  1313 net.cpp:386] inception_4e/relu_5x5_reduce -> inception_4e/5x5_reduce (in-place)
I0403 14:27:18.466728  1313 net.cpp:141] Setting up inception_4e/relu_5x5_reduce
I0403 14:27:18.466763  1313 net.cpp:148] Top shape: 24 32 14 14 (150528)
I0403 14:27:18.466784  1313 net.cpp:156] Memory required for data: 1237333536
I0403 14:27:18.466802  1313 layer_factory.hpp:77] Creating layer inception_4e/5x5
I0403 14:27:18.466850  1313 net.cpp:91] Creating Layer inception_4e/5x5
I0403 14:27:18.466873  1313 net.cpp:425] inception_4e/5x5 <- inception_4e/5x5_reduce
I0403 14:27:18.466897  1313 net.cpp:399] inception_4e/5x5 -> inception_4e/5x5
I0403 14:27:18.469169  1313 net.cpp:141] Setting up inception_4e/5x5
I0403 14:27:18.469210  1313 net.cpp:148] Top shape: 24 128 14 14 (602112)
I0403 14:27:18.469230  1313 net.cpp:156] Memory required for data: 1239741984
I0403 14:27:18.469257  1313 layer_factory.hpp:77] Creating layer inception_4e/relu_5x5
I0403 14:27:18.469281  1313 net.cpp:91] Creating Layer inception_4e/relu_5x5
I0403 14:27:18.469303  1313 net.cpp:425] inception_4e/relu_5x5 <- inception_4e/5x5
I0403 14:27:18.469324  1313 net.cpp:386] inception_4e/relu_5x5 -> inception_4e/5x5 (in-place)
I0403 14:27:18.469570  1313 net.cpp:141] Setting up inception_4e/relu_5x5
I0403 14:27:18.469601  1313 net.cpp:148] Top shape: 24 128 14 14 (602112)
I0403 14:27:18.469619  1313 net.cpp:156] Memory required for data: 1242150432
I0403 14:27:18.469637  1313 layer_factory.hpp:77] Creating layer inception_4e/pool
I0403 14:27:18.469660  1313 net.cpp:91] Creating Layer inception_4e/pool
I0403 14:27:18.469681  1313 net.cpp:425] inception_4e/pool <- inception_4d/output_inception_4d/output_0_split_4
I0403 14:27:18.469705  1313 net.cpp:399] inception_4e/pool -> inception_4e/pool
I0403 14:27:18.469794  1313 net.cpp:141] Setting up inception_4e/pool
I0403 14:27:18.469822  1313 net.cpp:148] Top shape: 24 528 14 14 (2483712)
I0403 14:27:18.469841  1313 net.cpp:156] Memory required for data: 1252085280
I0403 14:27:18.469858  1313 layer_factory.hpp:77] Creating layer inception_4e/pool_proj
I0403 14:27:18.469887  1313 net.cpp:91] Creating Layer inception_4e/pool_proj
I0403 14:27:18.469910  1313 net.cpp:425] inception_4e/pool_proj <- inception_4e/pool
I0403 14:27:18.469933  1313 net.cpp:399] inception_4e/pool_proj -> inception_4e/pool_proj
I0403 14:27:18.471794  1313 net.cpp:141] Setting up inception_4e/pool_proj
I0403 14:27:18.471843  1313 net.cpp:148] Top shape: 24 128 14 14 (602112)
I0403 14:27:18.471863  1313 net.cpp:156] Memory required for data: 1254493728
I0403 14:27:18.471887  1313 layer_factory.hpp:77] Creating layer inception_4e/relu_pool_proj
I0403 14:27:18.471912  1313 net.cpp:91] Creating Layer inception_4e/relu_pool_proj
I0403 14:27:18.471935  1313 net.cpp:425] inception_4e/relu_pool_proj <- inception_4e/pool_proj
I0403 14:27:18.471957  1313 net.cpp:386] inception_4e/relu_pool_proj -> inception_4e/pool_proj (in-place)
I0403 14:27:18.472334  1313 net.cpp:141] Setting up inception_4e/relu_pool_proj
I0403 14:27:18.472367  1313 net.cpp:148] Top shape: 24 128 14 14 (602112)
I0403 14:27:18.472386  1313 net.cpp:156] Memory required for data: 1256902176
I0403 14:27:18.472404  1313 layer_factory.hpp:77] Creating layer inception_4e/output
I0403 14:27:18.472429  1313 net.cpp:91] Creating Layer inception_4e/output
I0403 14:27:18.472450  1313 net.cpp:425] inception_4e/output <- inception_4e/1x1
I0403 14:27:18.472470  1313 net.cpp:425] inception_4e/output <- inception_4e/3x3
I0403 14:27:18.472491  1313 net.cpp:425] inception_4e/output <- inception_4e/5x5
I0403 14:27:18.472511  1313 net.cpp:425] inception_4e/output <- inception_4e/pool_proj
I0403 14:27:18.472532  1313 net.cpp:399] inception_4e/output -> inception_4e/output
I0403 14:27:18.472597  1313 net.cpp:141] Setting up inception_4e/output
I0403 14:27:18.472625  1313 net.cpp:148] Top shape: 24 832 14 14 (3913728)
I0403 14:27:18.472645  1313 net.cpp:156] Memory required for data: 1272557088
I0403 14:27:18.472663  1313 layer_factory.hpp:77] Creating layer pool4/3x3_s2
I0403 14:27:18.472686  1313 net.cpp:91] Creating Layer pool4/3x3_s2
I0403 14:27:18.472704  1313 net.cpp:425] pool4/3x3_s2 <- inception_4e/output
I0403 14:27:18.472730  1313 net.cpp:399] pool4/3x3_s2 -> pool4/3x3_s2
I0403 14:27:18.472812  1313 net.cpp:141] Setting up pool4/3x3_s2
I0403 14:27:18.472841  1313 net.cpp:148] Top shape: 24 832 7 7 (978432)
I0403 14:27:18.472859  1313 net.cpp:156] Memory required for data: 1276470816
I0403 14:27:18.472877  1313 layer_factory.hpp:77] Creating layer pool4/3x3_s2_pool4/3x3_s2_0_split
I0403 14:27:18.472903  1313 net.cpp:91] Creating Layer pool4/3x3_s2_pool4/3x3_s2_0_split
I0403 14:27:18.472924  1313 net.cpp:425] pool4/3x3_s2_pool4/3x3_s2_0_split <- pool4/3x3_s2
I0403 14:27:18.472949  1313 net.cpp:399] pool4/3x3_s2_pool4/3x3_s2_0_split -> pool4/3x3_s2_pool4/3x3_s2_0_split_0
I0403 14:27:18.472975  1313 net.cpp:399] pool4/3x3_s2_pool4/3x3_s2_0_split -> pool4/3x3_s2_pool4/3x3_s2_0_split_1
I0403 14:27:18.473000  1313 net.cpp:399] pool4/3x3_s2_pool4/3x3_s2_0_split -> pool4/3x3_s2_pool4/3x3_s2_0_split_2
I0403 14:27:18.473024  1313 net.cpp:399] pool4/3x3_s2_pool4/3x3_s2_0_split -> pool4/3x3_s2_pool4/3x3_s2_0_split_3
I0403 14:27:18.473132  1313 net.cpp:141] Setting up pool4/3x3_s2_pool4/3x3_s2_0_split
I0403 14:27:18.473163  1313 net.cpp:148] Top shape: 24 832 7 7 (978432)
I0403 14:27:18.473191  1313 net.cpp:148] Top shape: 24 832 7 7 (978432)
I0403 14:27:18.473212  1313 net.cpp:148] Top shape: 24 832 7 7 (978432)
I0403 14:27:18.473232  1313 net.cpp:148] Top shape: 24 832 7 7 (978432)
I0403 14:27:18.473248  1313 net.cpp:156] Memory required for data: 1292125728
I0403 14:27:18.473266  1313 layer_factory.hpp:77] Creating layer inception_5a/1x1
I0403 14:27:18.473294  1313 net.cpp:91] Creating Layer inception_5a/1x1
I0403 14:27:18.473316  1313 net.cpp:425] inception_5a/1x1 <- pool4/3x3_s2_pool4/3x3_s2_0_split_0
I0403 14:27:18.473340  1313 net.cpp:399] inception_5a/1x1 -> inception_5a/1x1
I0403 14:27:18.476835  1313 net.cpp:141] Setting up inception_5a/1x1
I0403 14:27:18.476873  1313 net.cpp:148] Top shape: 24 256 7 7 (301056)
I0403 14:27:18.476893  1313 net.cpp:156] Memory required for data: 1293329952
I0403 14:27:18.476917  1313 layer_factory.hpp:77] Creating layer inception_5a/relu_1x1
I0403 14:27:18.476938  1313 net.cpp:91] Creating Layer inception_5a/relu_1x1
I0403 14:27:18.476958  1313 net.cpp:425] inception_5a/relu_1x1 <- inception_5a/1x1
I0403 14:27:18.476982  1313 net.cpp:386] inception_5a/relu_1x1 -> inception_5a/1x1 (in-place)
I0403 14:27:18.477376  1313 net.cpp:141] Setting up inception_5a/relu_1x1
I0403 14:27:18.477412  1313 net.cpp:148] Top shape: 24 256 7 7 (301056)
I0403 14:27:18.477432  1313 net.cpp:156] Memory required for data: 1294534176
I0403 14:27:18.477452  1313 layer_factory.hpp:77] Creating layer inception_5a/3x3_reduce
I0403 14:27:18.477479  1313 net.cpp:91] Creating Layer inception_5a/3x3_reduce
I0403 14:27:18.477501  1313 net.cpp:425] inception_5a/3x3_reduce <- pool4/3x3_s2_pool4/3x3_s2_0_split_1
I0403 14:27:18.477525  1313 net.cpp:399] inception_5a/3x3_reduce -> inception_5a/3x3_reduce
I0403 14:27:18.480530  1313 net.cpp:141] Setting up inception_5a/3x3_reduce
I0403 14:27:18.480566  1313 net.cpp:148] Top shape: 24 160 7 7 (188160)
I0403 14:27:18.480586  1313 net.cpp:156] Memory required for data: 1295286816
I0403 14:27:18.480608  1313 layer_factory.hpp:77] Creating layer inception_5a/relu_3x3_reduce
I0403 14:27:18.480633  1313 net.cpp:91] Creating Layer inception_5a/relu_3x3_reduce
I0403 14:27:18.480654  1313 net.cpp:425] inception_5a/relu_3x3_reduce <- inception_5a/3x3_reduce
I0403 14:27:18.480676  1313 net.cpp:386] inception_5a/relu_3x3_reduce -> inception_5a/3x3_reduce (in-place)
I0403 14:27:18.480909  1313 net.cpp:141] Setting up inception_5a/relu_3x3_reduce
I0403 14:27:18.480942  1313 net.cpp:148] Top shape: 24 160 7 7 (188160)
I0403 14:27:18.480962  1313 net.cpp:156] Memory required for data: 1296039456
I0403 14:27:18.480980  1313 layer_factory.hpp:77] Creating layer inception_5a/3x3
I0403 14:27:18.481009  1313 net.cpp:91] Creating Layer inception_5a/3x3
I0403 14:27:18.481031  1313 net.cpp:425] inception_5a/3x3 <- inception_5a/3x3_reduce
I0403 14:27:18.481055  1313 net.cpp:399] inception_5a/3x3 -> inception_5a/3x3
I0403 14:27:18.487421  1313 net.cpp:141] Setting up inception_5a/3x3
I0403 14:27:18.487462  1313 net.cpp:148] Top shape: 24 320 7 7 (376320)
I0403 14:27:18.487483  1313 net.cpp:156] Memory required for data: 1297544736
I0403 14:27:18.487506  1313 layer_factory.hpp:77] Creating layer inception_5a/relu_3x3
I0403 14:27:18.487529  1313 net.cpp:91] Creating Layer inception_5a/relu_3x3
I0403 14:27:18.487550  1313 net.cpp:425] inception_5a/relu_3x3 <- inception_5a/3x3
I0403 14:27:18.487574  1313 net.cpp:386] inception_5a/relu_3x3 -> inception_5a/3x3 (in-place)
I0403 14:27:18.487936  1313 net.cpp:141] Setting up inception_5a/relu_3x3
I0403 14:27:18.487972  1313 net.cpp:148] Top shape: 24 320 7 7 (376320)
I0403 14:27:18.487992  1313 net.cpp:156] Memory required for data: 1299050016
I0403 14:27:18.488010  1313 layer_factory.hpp:77] Creating layer inception_5a/5x5_reduce
I0403 14:27:18.488039  1313 net.cpp:91] Creating Layer inception_5a/5x5_reduce
I0403 14:27:18.488062  1313 net.cpp:425] inception_5a/5x5_reduce <- pool4/3x3_s2_pool4/3x3_s2_0_split_2
I0403 14:27:18.488086  1313 net.cpp:399] inception_5a/5x5_reduce -> inception_5a/5x5_reduce
I0403 14:27:18.489547  1313 net.cpp:141] Setting up inception_5a/5x5_reduce
I0403 14:27:18.489585  1313 net.cpp:148] Top shape: 24 32 7 7 (37632)
I0403 14:27:18.489606  1313 net.cpp:156] Memory required for data: 1299200544
I0403 14:27:18.489629  1313 layer_factory.hpp:77] Creating layer inception_5a/relu_5x5_reduce
I0403 14:27:18.489651  1313 net.cpp:91] Creating Layer inception_5a/relu_5x5_reduce
I0403 14:27:18.489672  1313 net.cpp:425] inception_5a/relu_5x5_reduce <- inception_5a/5x5_reduce
I0403 14:27:18.489697  1313 net.cpp:386] inception_5a/relu_5x5_reduce -> inception_5a/5x5_reduce (in-place)
I0403 14:27:18.490069  1313 net.cpp:141] Setting up inception_5a/relu_5x5_reduce
I0403 14:27:18.490103  1313 net.cpp:148] Top shape: 24 32 7 7 (37632)
I0403 14:27:18.490120  1313 net.cpp:156] Memory required for data: 1299351072
I0403 14:27:18.490139  1313 layer_factory.hpp:77] Creating layer inception_5a/5x5
I0403 14:27:18.490166  1313 net.cpp:91] Creating Layer inception_5a/5x5
I0403 14:27:18.490196  1313 net.cpp:425] inception_5a/5x5 <- inception_5a/5x5_reduce
I0403 14:27:18.490226  1313 net.cpp:399] inception_5a/5x5 -> inception_5a/5x5
I0403 14:27:18.492367  1313 net.cpp:141] Setting up inception_5a/5x5
I0403 14:27:18.492419  1313 net.cpp:148] Top shape: 24 128 7 7 (150528)
I0403 14:27:18.492440  1313 net.cpp:156] Memory required for data: 1299953184
I0403 14:27:18.492463  1313 layer_factory.hpp:77] Creating layer inception_5a/relu_5x5
I0403 14:27:18.492493  1313 net.cpp:91] Creating Layer inception_5a/relu_5x5
I0403 14:27:18.492514  1313 net.cpp:425] inception_5a/relu_5x5 <- inception_5a/5x5
I0403 14:27:18.492544  1313 net.cpp:386] inception_5a/relu_5x5 -> inception_5a/5x5 (in-place)
I0403 14:27:18.492780  1313 net.cpp:141] Setting up inception_5a/relu_5x5
I0403 14:27:18.492810  1313 net.cpp:148] Top shape: 24 128 7 7 (150528)
I0403 14:27:18.492828  1313 net.cpp:156] Memory required for data: 1300555296
I0403 14:27:18.492848  1313 layer_factory.hpp:77] Creating layer inception_5a/pool
I0403 14:27:18.492871  1313 net.cpp:91] Creating Layer inception_5a/pool
I0403 14:27:18.492892  1313 net.cpp:425] inception_5a/pool <- pool4/3x3_s2_pool4/3x3_s2_0_split_3
I0403 14:27:18.492918  1313 net.cpp:399] inception_5a/pool -> inception_5a/pool
I0403 14:27:18.493005  1313 net.cpp:141] Setting up inception_5a/pool
I0403 14:27:18.493034  1313 net.cpp:148] Top shape: 24 832 7 7 (978432)
I0403 14:27:18.493052  1313 net.cpp:156] Memory required for data: 1304469024
I0403 14:27:18.493072  1313 layer_factory.hpp:77] Creating layer inception_5a/pool_proj
I0403 14:27:18.493100  1313 net.cpp:91] Creating Layer inception_5a/pool_proj
I0403 14:27:18.493122  1313 net.cpp:425] inception_5a/pool_proj <- inception_5a/pool
I0403 14:27:18.493146  1313 net.cpp:399] inception_5a/pool_proj -> inception_5a/pool_proj
I0403 14:27:18.495925  1313 net.cpp:141] Setting up inception_5a/pool_proj
I0403 14:27:18.495965  1313 net.cpp:148] Top shape: 24 128 7 7 (150528)
I0403 14:27:18.495985  1313 net.cpp:156] Memory required for data: 1305071136
I0403 14:27:18.496008  1313 layer_factory.hpp:77] Creating layer inception_5a/relu_pool_proj
I0403 14:27:18.496031  1313 net.cpp:91] Creating Layer inception_5a/relu_pool_proj
I0403 14:27:18.496052  1313 net.cpp:425] inception_5a/relu_pool_proj <- inception_5a/pool_proj
I0403 14:27:18.496074  1313 net.cpp:386] inception_5a/relu_pool_proj -> inception_5a/pool_proj (in-place)
I0403 14:27:18.496444  1313 net.cpp:141] Setting up inception_5a/relu_pool_proj
I0403 14:27:18.496479  1313 net.cpp:148] Top shape: 24 128 7 7 (150528)
I0403 14:27:18.496498  1313 net.cpp:156] Memory required for data: 1305673248
I0403 14:27:18.496517  1313 layer_factory.hpp:77] Creating layer inception_5a/output
I0403 14:27:18.496539  1313 net.cpp:91] Creating Layer inception_5a/output
I0403 14:27:18.496559  1313 net.cpp:425] inception_5a/output <- inception_5a/1x1
I0403 14:27:18.496580  1313 net.cpp:425] inception_5a/output <- inception_5a/3x3
I0403 14:27:18.496600  1313 net.cpp:425] inception_5a/output <- inception_5a/5x5
I0403 14:27:18.496621  1313 net.cpp:425] inception_5a/output <- inception_5a/pool_proj
I0403 14:27:18.496642  1313 net.cpp:399] inception_5a/output -> inception_5a/output
I0403 14:27:18.496706  1313 net.cpp:141] Setting up inception_5a/output
I0403 14:27:18.496734  1313 net.cpp:148] Top shape: 24 832 7 7 (978432)
I0403 14:27:18.496754  1313 net.cpp:156] Memory required for data: 1309586976
I0403 14:27:18.496773  1313 layer_factory.hpp:77] Creating layer inception_5a/output_inception_5a/output_0_split
I0403 14:27:18.496794  1313 net.cpp:91] Creating Layer inception_5a/output_inception_5a/output_0_split
I0403 14:27:18.496814  1313 net.cpp:425] inception_5a/output_inception_5a/output_0_split <- inception_5a/output
I0403 14:27:18.496840  1313 net.cpp:399] inception_5a/output_inception_5a/output_0_split -> inception_5a/output_inception_5a/output_0_split_0
I0403 14:27:18.496865  1313 net.cpp:399] inception_5a/output_inception_5a/output_0_split -> inception_5a/output_inception_5a/output_0_split_1
I0403 14:27:18.496891  1313 net.cpp:399] inception_5a/output_inception_5a/output_0_split -> inception_5a/output_inception_5a/output_0_split_2
I0403 14:27:18.496917  1313 net.cpp:399] inception_5a/output_inception_5a/output_0_split -> inception_5a/output_inception_5a/output_0_split_3
I0403 14:27:18.497053  1313 net.cpp:141] Setting up inception_5a/output_inception_5a/output_0_split
I0403 14:27:18.497083  1313 net.cpp:148] Top shape: 24 832 7 7 (978432)
I0403 14:27:18.497103  1313 net.cpp:148] Top shape: 24 832 7 7 (978432)
I0403 14:27:18.497123  1313 net.cpp:148] Top shape: 24 832 7 7 (978432)
I0403 14:27:18.497141  1313 net.cpp:148] Top shape: 24 832 7 7 (978432)
I0403 14:27:18.497159  1313 net.cpp:156] Memory required for data: 1325241888
I0403 14:27:18.497186  1313 layer_factory.hpp:77] Creating layer inception_5b/1x1
I0403 14:27:18.497217  1313 net.cpp:91] Creating Layer inception_5b/1x1
I0403 14:27:18.497249  1313 net.cpp:425] inception_5b/1x1 <- inception_5a/output_inception_5a/output_0_split_0
I0403 14:27:18.497277  1313 net.cpp:399] inception_5b/1x1 -> inception_5b/1x1
I0403 14:27:18.501893  1313 net.cpp:141] Setting up inception_5b/1x1
I0403 14:27:18.501930  1313 net.cpp:148] Top shape: 24 384 7 7 (451584)
I0403 14:27:18.501950  1313 net.cpp:156] Memory required for data: 1327048224
I0403 14:27:18.501972  1313 layer_factory.hpp:77] Creating layer inception_5b/relu_1x1
I0403 14:27:18.501997  1313 net.cpp:91] Creating Layer inception_5b/relu_1x1
I0403 14:27:18.502019  1313 net.cpp:425] inception_5b/relu_1x1 <- inception_5b/1x1
I0403 14:27:18.502040  1313 net.cpp:386] inception_5b/relu_1x1 -> inception_5b/1x1 (in-place)
I0403 14:27:18.502431  1313 net.cpp:141] Setting up inception_5b/relu_1x1
I0403 14:27:18.502465  1313 net.cpp:148] Top shape: 24 384 7 7 (451584)
I0403 14:27:18.502483  1313 net.cpp:156] Memory required for data: 1328854560
I0403 14:27:18.502502  1313 layer_factory.hpp:77] Creating layer inception_5b/3x3_reduce
I0403 14:27:18.502531  1313 net.cpp:91] Creating Layer inception_5b/3x3_reduce
I0403 14:27:18.502553  1313 net.cpp:425] inception_5b/3x3_reduce <- inception_5a/output_inception_5a/output_0_split_1
I0403 14:27:18.502583  1313 net.cpp:399] inception_5b/3x3_reduce -> inception_5b/3x3_reduce
I0403 14:27:18.505846  1313 net.cpp:141] Setting up inception_5b/3x3_reduce
I0403 14:27:18.505883  1313 net.cpp:148] Top shape: 24 192 7 7 (225792)
I0403 14:27:18.505903  1313 net.cpp:156] Memory required for data: 1329757728
I0403 14:27:18.505928  1313 layer_factory.hpp:77] Creating layer inception_5b/relu_3x3_reduce
I0403 14:27:18.505954  1313 net.cpp:91] Creating Layer inception_5b/relu_3x3_reduce
I0403 14:27:18.505975  1313 net.cpp:425] inception_5b/relu_3x3_reduce <- inception_5b/3x3_reduce
I0403 14:27:18.505996  1313 net.cpp:386] inception_5b/relu_3x3_reduce -> inception_5b/3x3_reduce (in-place)
I0403 14:27:18.506245  1313 net.cpp:141] Setting up inception_5b/relu_3x3_reduce
I0403 14:27:18.506278  1313 net.cpp:148] Top shape: 24 192 7 7 (225792)
I0403 14:27:18.506299  1313 net.cpp:156] Memory required for data: 1330660896
I0403 14:27:18.506317  1313 layer_factory.hpp:77] Creating layer inception_5b/3x3
I0403 14:27:18.506345  1313 net.cpp:91] Creating Layer inception_5b/3x3
I0403 14:27:18.506367  1313 net.cpp:425] inception_5b/3x3 <- inception_5b/3x3_reduce
I0403 14:27:18.506392  1313 net.cpp:399] inception_5b/3x3 -> inception_5b/3x3
I0403 14:27:18.514683  1313 net.cpp:141] Setting up inception_5b/3x3
I0403 14:27:18.514722  1313 net.cpp:148] Top shape: 24 384 7 7 (451584)
I0403 14:27:18.514744  1313 net.cpp:156] Memory required for data: 1332467232
I0403 14:27:18.514766  1313 layer_factory.hpp:77] Creating layer inception_5b/relu_3x3
I0403 14:27:18.514789  1313 net.cpp:91] Creating Layer inception_5b/relu_3x3
I0403 14:27:18.514811  1313 net.cpp:425] inception_5b/relu_3x3 <- inception_5b/3x3
I0403 14:27:18.514833  1313 net.cpp:386] inception_5b/relu_3x3 -> inception_5b/3x3 (in-place)
I0403 14:27:18.515208  1313 net.cpp:141] Setting up inception_5b/relu_3x3
I0403 14:27:18.515244  1313 net.cpp:148] Top shape: 24 384 7 7 (451584)
I0403 14:27:18.515264  1313 net.cpp:156] Memory required for data: 1334273568
I0403 14:27:18.515282  1313 layer_factory.hpp:77] Creating layer inception_5b/5x5_reduce
I0403 14:27:18.515326  1313 net.cpp:91] Creating Layer inception_5b/5x5_reduce
I0403 14:27:18.515348  1313 net.cpp:425] inception_5b/5x5_reduce <- inception_5a/output_inception_5a/output_0_split_2
I0403 14:27:18.515377  1313 net.cpp:399] inception_5b/5x5_reduce -> inception_5b/5x5_reduce
I0403 14:27:18.516947  1313 net.cpp:141] Setting up inception_5b/5x5_reduce
I0403 14:27:18.516983  1313 net.cpp:148] Top shape: 24 48 7 7 (56448)
I0403 14:27:18.517001  1313 net.cpp:156] Memory required for data: 1334499360
I0403 14:27:18.517024  1313 layer_factory.hpp:77] Creating layer inception_5b/relu_5x5_reduce
I0403 14:27:18.517050  1313 net.cpp:91] Creating Layer inception_5b/relu_5x5_reduce
I0403 14:27:18.517072  1313 net.cpp:425] inception_5b/relu_5x5_reduce <- inception_5b/5x5_reduce
I0403 14:27:18.517094  1313 net.cpp:386] inception_5b/relu_5x5_reduce -> inception_5b/5x5_reduce (in-place)
I0403 14:27:18.517556  1313 net.cpp:141] Setting up inception_5b/relu_5x5_reduce
I0403 14:27:18.517590  1313 net.cpp:148] Top shape: 24 48 7 7 (56448)
I0403 14:27:18.517608  1313 net.cpp:156] Memory required for data: 1334725152
I0403 14:27:18.517627  1313 layer_factory.hpp:77] Creating layer inception_5b/5x5
I0403 14:27:18.517652  1313 net.cpp:91] Creating Layer inception_5b/5x5
I0403 14:27:18.517674  1313 net.cpp:425] inception_5b/5x5 <- inception_5b/5x5_reduce
I0403 14:27:18.517699  1313 net.cpp:399] inception_5b/5x5 -> inception_5b/5x5
I0403 14:27:18.520253  1313 net.cpp:141] Setting up inception_5b/5x5
I0403 14:27:18.520290  1313 net.cpp:148] Top shape: 24 128 7 7 (150528)
I0403 14:27:18.520310  1313 net.cpp:156] Memory required for data: 1335327264
I0403 14:27:18.520334  1313 layer_factory.hpp:77] Creating layer inception_5b/relu_5x5
I0403 14:27:18.520356  1313 net.cpp:91] Creating Layer inception_5b/relu_5x5
I0403 14:27:18.520377  1313 net.cpp:425] inception_5b/relu_5x5 <- inception_5b/5x5
I0403 14:27:18.520401  1313 net.cpp:386] inception_5b/relu_5x5 -> inception_5b/5x5 (in-place)
I0403 14:27:18.520647  1313 net.cpp:141] Setting up inception_5b/relu_5x5
I0403 14:27:18.520678  1313 net.cpp:148] Top shape: 24 128 7 7 (150528)
I0403 14:27:18.520695  1313 net.cpp:156] Memory required for data: 1335929376
I0403 14:27:18.520714  1313 layer_factory.hpp:77] Creating layer inception_5b/pool
I0403 14:27:18.520736  1313 net.cpp:91] Creating Layer inception_5b/pool
I0403 14:27:18.520756  1313 net.cpp:425] inception_5b/pool <- inception_5a/output_inception_5a/output_0_split_3
I0403 14:27:18.520781  1313 net.cpp:399] inception_5b/pool -> inception_5b/pool
I0403 14:27:18.520872  1313 net.cpp:141] Setting up inception_5b/pool
I0403 14:27:18.520902  1313 net.cpp:148] Top shape: 24 832 7 7 (978432)
I0403 14:27:18.520920  1313 net.cpp:156] Memory required for data: 1339843104
I0403 14:27:18.520941  1313 layer_factory.hpp:77] Creating layer inception_5b/pool_proj
I0403 14:27:18.520967  1313 net.cpp:91] Creating Layer inception_5b/pool_proj
I0403 14:27:18.520989  1313 net.cpp:425] inception_5b/pool_proj <- inception_5b/pool
I0403 14:27:18.521015  1313 net.cpp:399] inception_5b/pool_proj -> inception_5b/pool_proj
I0403 14:27:18.523849  1313 net.cpp:141] Setting up inception_5b/pool_proj
I0403 14:27:18.523886  1313 net.cpp:148] Top shape: 24 128 7 7 (150528)
I0403 14:27:18.523908  1313 net.cpp:156] Memory required for data: 1340445216
I0403 14:27:18.523931  1313 layer_factory.hpp:77] Creating layer inception_5b/relu_pool_proj
I0403 14:27:18.523957  1313 net.cpp:91] Creating Layer inception_5b/relu_pool_proj
I0403 14:27:18.523978  1313 net.cpp:425] inception_5b/relu_pool_proj <- inception_5b/pool_proj
I0403 14:27:18.524000  1313 net.cpp:386] inception_5b/relu_pool_proj -> inception_5b/pool_proj (in-place)
I0403 14:27:18.524374  1313 net.cpp:141] Setting up inception_5b/relu_pool_proj
I0403 14:27:18.524407  1313 net.cpp:148] Top shape: 24 128 7 7 (150528)
I0403 14:27:18.524426  1313 net.cpp:156] Memory required for data: 1341047328
I0403 14:27:18.524444  1313 layer_factory.hpp:77] Creating layer inception_5b/output
I0403 14:27:18.524469  1313 net.cpp:91] Creating Layer inception_5b/output
I0403 14:27:18.524507  1313 net.cpp:425] inception_5b/output <- inception_5b/1x1
I0403 14:27:18.524530  1313 net.cpp:425] inception_5b/output <- inception_5b/3x3
I0403 14:27:18.524551  1313 net.cpp:425] inception_5b/output <- inception_5b/5x5
I0403 14:27:18.524572  1313 net.cpp:425] inception_5b/output <- inception_5b/pool_proj
I0403 14:27:18.524593  1313 net.cpp:399] inception_5b/output -> inception_5b/output
I0403 14:27:18.524659  1313 net.cpp:141] Setting up inception_5b/output
I0403 14:27:18.524688  1313 net.cpp:148] Top shape: 24 1024 7 7 (1204224)
I0403 14:27:18.524708  1313 net.cpp:156] Memory required for data: 1345864224
I0403 14:27:18.524725  1313 layer_factory.hpp:77] Creating layer pool5/7x7_s1
I0403 14:27:18.524750  1313 net.cpp:91] Creating Layer pool5/7x7_s1
I0403 14:27:18.524770  1313 net.cpp:425] pool5/7x7_s1 <- inception_5b/output
I0403 14:27:18.524792  1313 net.cpp:399] pool5/7x7_s1 -> pool5/7x7_s1
I0403 14:27:18.525058  1313 net.cpp:141] Setting up pool5/7x7_s1
I0403 14:27:18.525092  1313 net.cpp:148] Top shape: 24 1024 1 1 (24576)
I0403 14:27:18.525111  1313 net.cpp:156] Memory required for data: 1345962528
I0403 14:27:18.525130  1313 layer_factory.hpp:77] Creating layer pool5/drop_7x7_s1
I0403 14:27:18.525153  1313 net.cpp:91] Creating Layer pool5/drop_7x7_s1
I0403 14:27:18.525174  1313 net.cpp:425] pool5/drop_7x7_s1 <- pool5/7x7_s1
I0403 14:27:18.525207  1313 net.cpp:386] pool5/drop_7x7_s1 -> pool5/7x7_s1 (in-place)
I0403 14:27:18.525269  1313 net.cpp:141] Setting up pool5/drop_7x7_s1
I0403 14:27:18.525298  1313 net.cpp:148] Top shape: 24 1024 1 1 (24576)
I0403 14:27:18.525317  1313 net.cpp:156] Memory required for data: 1346060832
I0403 14:27:18.525336  1313 layer_factory.hpp:77] Creating layer loss3/classifier_plantvillage
I0403 14:27:18.525363  1313 net.cpp:91] Creating Layer loss3/classifier_plantvillage
I0403 14:27:18.525385  1313 net.cpp:425] loss3/classifier_plantvillage <- pool5/7x7_s1
I0403 14:27:18.525411  1313 net.cpp:399] loss3/classifier_plantvillage -> loss3/classifier_plantvillage
I0403 14:27:18.525938  1313 net.cpp:141] Setting up loss3/classifier_plantvillage
I0403 14:27:18.525967  1313 net.cpp:148] Top shape: 24 38 (912)
I0403 14:27:18.525985  1313 net.cpp:156] Memory required for data: 1346064480
I0403 14:27:18.526006  1313 layer_factory.hpp:77] Creating layer loss3/classifier_plantvillage_loss3/classifier_plantvillage_0_split
I0403 14:27:18.526029  1313 net.cpp:91] Creating Layer loss3/classifier_plantvillage_loss3/classifier_plantvillage_0_split
I0403 14:27:18.526056  1313 net.cpp:425] loss3/classifier_plantvillage_loss3/classifier_plantvillage_0_split <- loss3/classifier_plantvillage
I0403 14:27:18.526078  1313 net.cpp:399] loss3/classifier_plantvillage_loss3/classifier_plantvillage_0_split -> loss3/classifier_plantvillage_loss3/classifier_plantvillage_0_split_0
I0403 14:27:18.526103  1313 net.cpp:399] loss3/classifier_plantvillage_loss3/classifier_plantvillage_0_split -> loss3/classifier_plantvillage_loss3/classifier_plantvillage_0_split_1
I0403 14:27:18.526129  1313 net.cpp:399] loss3/classifier_plantvillage_loss3/classifier_plantvillage_0_split -> loss3/classifier_plantvillage_loss3/classifier_plantvillage_0_split_2
I0403 14:27:18.526154  1313 net.cpp:399] loss3/classifier_plantvillage_loss3/classifier_plantvillage_0_split -> loss3/classifier_plantvillage_loss3/classifier_plantvillage_0_split_3
I0403 14:27:18.526284  1313 net.cpp:141] Setting up loss3/classifier_plantvillage_loss3/classifier_plantvillage_0_split
I0403 14:27:18.526314  1313 net.cpp:148] Top shape: 24 38 (912)
I0403 14:27:18.526334  1313 net.cpp:148] Top shape: 24 38 (912)
I0403 14:27:18.526353  1313 net.cpp:148] Top shape: 24 38 (912)
I0403 14:27:18.526373  1313 net.cpp:148] Top shape: 24 38 (912)
I0403 14:27:18.526391  1313 net.cpp:156] Memory required for data: 1346079072
I0403 14:27:18.526407  1313 layer_factory.hpp:77] Creating layer loss1/loss
I0403 14:27:18.526437  1313 net.cpp:91] Creating Layer loss1/loss
I0403 14:27:18.526458  1313 net.cpp:425] loss1/loss <- loss1/classifier_plantvillage_loss1/classifier_plantvillage_0_split_0
I0403 14:27:18.526495  1313 net.cpp:425] loss1/loss <- label_data_1_split_0
…
