…
I0403 14:52:21.257081  2082 net.cpp:313] The NetState phase (1) differed from the phase (0) specified by a rule in layer data
I0403 14:52:21.258201  2082 net.cpp:49] Initializing net from parameters: 
state {
  phase: TEST
}
layer {
  name: "data"
  type: "Data"
  top: "data"
  top: "label"
  include {
    phase: TEST
  }
  transform_param {
    mirror: false
    crop_size: 224
    mean_file: "/home/mohanty/data/final_dataset/lmdb/grayscale-20-80/mean.binaryproto"
  }
  data_param {
    source: "/home/mohanty/data/final_dataset/lmdb/grayscale-20-80/test_db"
    batch_size: 24
    backend: LMDB
  }
}
layer {
  name: "conv1/7x7_s2"
  type: "Convolution"
  bottom: "data"
  top: "conv1/7x7_s2"
  param {
    lr_mult: 1
    decay_mult: 1
  }
  param {
    lr_mult: 2
    decay_mult: 0
  }
  convolution_param {
    num_output: 64
    pad: 3
    kernel_size: 7
    stride: 2
    weight_filler {
      type: "xavier"
      std: 0.1
    }
    bias_filler {
      type: "constant"
      value: 0.2
    }
  }
}
layer {
  name: "conv1/relu_7x7"
  type: "ReLU"
  bottom: "conv1/7x7_s2"
  top: "conv1/7x7_s2"
}
layer {
  name: "pool1/3x3_s2"
  type: "Pooling"
  bottom: "conv1/7x7_s2"
  top: "pool1/3x3_s2"
  pooling_param {
    pool: MAX
    kernel_size: 3
    stride: 2
  }
}
layer {
  name: "pool1/norm1"
  type: "LRN"
  bottom: "pool1/3x3_s2"
  top: "pool1/norm1"
  lrn_param {
    local_size: 5
    alpha: 0.0001
    beta: 0.75
  }
}
layer {
  name: "conv2/3x3_reduce"
  type: "Convolution"
  bottom: "pool1/norm1"
  top: "conv2/3x3_reduce"
  param {
    lr_mult: 1
    decay_mult: 1
  }
  param {
    lr_mult: 2
    decay_mult: 0
  }
  convolution_param {
    num_output: 64
    kernel_size: 1
    weight_filler {
      type: "xavier"
      std: 0.1
    }
    bias_filler {
      type: "constant"
      value: 0.2
    }
  }
}
layer {
  name: "conv2/relu_3x3_reduce"
  type: "ReLU"
  bottom: "conv2/3x3_reduce"
  top: "conv2/3x3_reduce"
}
layer {
  name: "conv2/3x3"
  type: "Convolution"
  bottom: "conv2/3x3_reduce"
  top: "conv2/3x3"
  param {
    lr_mult: 1
    decay_mult: 1
  }
  param {
    lr_mult: 2
    decay_mult: 0
  }
  convolution_param {
    num_output: 192
    pad: 1
    kernel_size: 3
    weight_filler {
      type: "xavier"
      std: 0.03
    }
    bias_filler {
      type: "constant"
      value: 0.2
    }
  }
}
layer {
  name: "conv2/relu_3x3"
  type: "ReLU"
  bottom: "conv2/3x3"
  top: "conv2/3x3"
}
layer {
  name: "conv2/norm2"
  type: "LRN"
  bottom: "conv2/3x3"
  top: "conv2/norm2"
  lrn_param {
    local_size: 5
    alpha: 0.0001
    beta: 0.75
  }
}
layer {
  name: "pool2/3x3_s2"
  type: "Pooling"
  bottom: "conv2/norm2"
  top: "pool2/3x3_s2"
  pooling_param {
    pool: MAX
    kernel_size: 3
    stride: 2
  }
}
layer {
  name: "inception_3a/1x1"
  type: "Convolution"
  bottom: "pool2/3x3_s2"
  top: "inception_3a/1x1"
  param {
    lr_mult: 1
    decay_mult: 1
  }
  param {
    lr_mult: 2
    decay_mult: 0
  }
  convolution_param {
    num_output: 64
    kernel_size: 1
    weight_filler {
      type: "xavier"
      std: 0.03
    }
    bias_filler {
      type: "constant"
      value: 0.2
    }
  }
}
layer {
  name: "inception_3a/relu_1x1"
  type: "ReLU"
  bottom: "inception_3a/1x1"
  top: "inception_3a/1x1"
}
layer {
  name: "inception_3a/3x3_reduce"
  type: "Convolution"
  bottom: "pool2/3x3_s2"
  top: "inception_3a/3x3_reduce"
  param {
    lr_mult: 1
    decay_mult: 1
  }
  param {
    lr_mult: 2
    decay_mult: 0
  }
  convolution_param {
    num_output: 96
    kernel_size: 1
    weight_filler {
      type: "xavier"
      std: 0.09
    }
    bias_filler {
      type: "constant"
      value: 0.2
    }
  }
}
layer {
  name: "inception_3a/relu_3x3_reduce"
  type: "ReLU"
  bottom: "inception_3a/3x3_reduce"
  top: "inception_3a/3x3_reduce"
}
layer {
  name: "inception_3a/3x3"
  type: "Convolution"
  bottom: "inception_3a/3x3_reduce"
  top: "inception_3a/3x3"
  param {
    lr_mult: 1
    decay_mult: 1
  }
  param {
    lr_mult: 2
    decay_mult: 0
  }
  convolution_param {
    num_output: 128
    pad: 1
    kernel_size: 3
    weight_filler {
      type: "xavier"
      std: 0.03
    }
    bias_filler {
      type: "constant"
      value: 0.2
    }
  }
}
layer {
  name: "inception_3a/relu_3x3"
  type: "ReLU"
  bottom: "inception_3a/3x3"
  top: "inception_3a/3x3"
}
layer {
  name: "inception_3a/5x5_reduce"
  type: "Convolution"
  bottom: "pool2/3x3_s2"
  top: "inception_3a/5x5_reduce"
  param {
    lr_mult: 1
    decay_mult: 1
  }
  param {
    lr_mult: 2
    decay_mult: 0
  }
  convolution_param {
    num_output: 16
    kernel_size: 1
    weight_filler {
      type: "xavier"
      std: 0.2
    }
    bias_filler {
      type: "constant"
      value: 0.2
    }
  }
}
layer {
  name: "inception_3a/relu_5x5_reduce"
  type: "ReLU"
  bottom: "inception_3a/5x5_reduce"
  top: "inception_3a/5x5_reduce"
}
layer {
  name: "inception_3a/5x5"
  type: "Convolution"
  bottom: "inception_3a/5x5_reduce"
  top: "inception_3a/5x5"
  param {
    lr_mult: 1
    decay_mult: 1
  }
  param {
    lr_mult: 2
    decay_mult: 0
  }
  convolution_param {
    num_output: 32
    pad: 2
    kernel_size: 5
    weight_filler {
      type: "xavier"
      std: 0.03
    }
    bias_filler {
      type: "constant"
      value: 0.2
    }
  }
}
layer {
  name: "inception_3a/relu_5x5"
  type: "ReLU"
  bottom: "inception_3a/5x5"
  top: "inception_3a/5x5"
}
layer {
  name: "inception_3a/pool"
  type: "Pooling"
  bottom: "pool2/3x3_s2"
  top: "inception_3a/pool"
  pooling_param {
    pool: MAX
    kernel_size: 3
    stride: 1
    pad: 1
  }
}
layer {
  name: "inception_3a/pool_proj"
  type: "Convolution"
  bottom: "inception_3a/pool"
  top: "inception_3a/pool_proj"
  param {
    lr_mult: 1
    decay_mult: 1
  }
  param {
    lr_mult: 2
    decay_mult: 0
  }
  convolution_param {
    num_output: 32
    kernel_size: 1
    weight_filler {
      type: "xavier"
      std: 0.1
    }
    bias_filler {
      type: "constant"
      value: 0.2
    }
  }
}
layer {
  name: "inception_3a/relu_pool_proj"
  type: "ReLU"
  bottom: "inception_3a/pool_proj"
  top: "inception_3a/pool_proj"
}
layer {
  name: "inception_3a/output"
  type: "Concat"
  bottom: "inception_3a/1x1"
  bottom: "inception_3a/3x3"
  bottom: "inception_3a/5x5"
  bottom: "inception_3a/pool_proj"
  top: "inception_3a/output"
}
layer {
  name: "inception_3b/1x1"
  type: "Convolution"
  bottom: "inception_3a/output"
  top: "inception_3b/1x1"
  param {
    lr_mult: 1
    decay_mult: 1
  }
  param {
    lr_mult: 2
    decay_mult: 0
  }
  convolution_param {
    num_output: 128
    kernel_size: 1
    weight_filler {
      type: "xavier"
      std: 0.03
    }
    bias_filler {
      type: "constant"
      value: 0.2
    }
  }
}
layer {
  name: "inception_3b/relu_1x1"
  type: "ReLU"
  bottom: "inception_3b/1x1"
  top: "inception_3b/1x1"
}
layer {
  name: "inception_3b/3x3_reduce"
  type: "Convolution"
  bottom: "inception_3a/output"
  top: "inception_3b/3x3_reduce"
  param {
    lr_mult: 1
    decay_mult: 1
  }
  param {
    lr_mult: 2
    decay_mult: 0
  }
  convolution_param {
    num_output: 128
    kernel_size: 1
    weight_filler {
      type: "xavier"
      std: 0.09
    }
    bias_filler {
      type: "constant"
      value: 0.2
    }
  }
}
layer {
  name: "inception_3b/relu_3x3_reduce"
  type: "ReLU"
  bottom: "inception_3b/3x3_reduce"
  top: "inception_3b/3x3_reduce"
}
layer {
  name: "inception_3b/3x3"
  type: "Convolution"
  bottom: "inception_3b/3x3_reduce"
  top: "inception_3b/3x3"
  param {
    lr_mult: 1
    decay_mult: 1
  }
  param {
    lr_mult: 2
    decay_mult: 0
  }
  convolution_param {
    num_output: 192
    pad: 1
    kernel_size: 3
    weight_filler {
      type: "xavier"
      std: 0.03
    }
    bias_filler {
      type: "constant"
      value: 0.2
    }
  }
}
layer {
  name: "inception_3b/relu_3x3"
  type: "ReLU"
  bottom: "inception_3b/3x3"
  top: "inception_3b/3x3"
}
layer {
  name: "inception_3b/5x5_reduce"
  type: "Convolution"
  bottom: "inception_3a/output"
  top: "inception_3b/5x5_reduce"
  param {
    lr_mult: 1
    decay_mult: 1
  }
  param {
    lr_mult: 2
    decay_mult: 0
  }
  convolution_param {
    num_output: 32
    kernel_size: 1
    weight_filler {
      type: "xavier"
      std: 0.2
    }
    bias_filler {
      type: "constant"
      value: 0.2
    }
  }
}
layer {
  name: "inception_3b/relu_5x5_reduce"
  type: "ReLU"
  bottom: "inception_3b/5x5_reduce"
  top: "inception_3b/5x5_reduce"
}
layer {
  name: "inception_3b/5x5"
  type: "Convolution"
  bottom: "inception_3b/5x5_reduce"
  top: "inception_3b/5x5"
  param {
    lr_mult: 1
    decay_mult: 1
  }
  param {
    lr_mult: 2
    decay_mult: 0
  }
  convolution_param {
    num_output: 96
    pad: 2
    kernel_size: 5
    weight_filler {
      type: "xavier"
      std: 0.03
    }
    bias_filler {
      type: "constant"
      value: 0.2
    }
  }
}
layer {
  name: "inception_3b/relu_5x5"
  type: "ReLU"
  bottom: "inception_3b/5x5"
  top: "inception_3b/5x5"
}
layer {
  name: "inception_3b/pool"
  type: "Pooling"
  bottom: "inception_3a/output"
  top: "inception_3b/pool"
  pooling_param {
    pool: MAX
    kernel_size: 3
    stride: 1
    pad: 1
  }
}
layer {
  name: "inception_3b/pool_proj"
  type: "Convolution"
  bottom: "inception_3b/pool"
  top: "inception_3b/pool_proj"
  param {
    lr_mult: 1
    decay_mult: 1
  }
  param {
    lr_mult: 2
    decay_mult: 0
  }
  convolution_param {
    num_output: 64
    kernel_size: 1
    weight_filler {
      type: "xavier"
      std: 0.1
    }
    bias_filler {
      type: "constant"
      value: 0.2
    }
  }
}
layer {
  name: "inception_3b/relu_pool_proj"
  type: "ReLU"
  bottom: "inception_3b/pool_proj"
  top: "inception_3b/pool_proj"
}
layer {
  name: "inception_3b/output"
  type: "Concat"
  bottom: "inception_3b/1x1"
  bottom: "inception_3b/3x3"
  bottom: "inception_3b/5x5"
  bottom: "inception_3b/pool_proj"
  top: "inception_3b/output"
}
layer {
  name: "pool3/3x3_s2"
  type: "Pooling"
  bottom: "inception_3b/output"
  top: "pool3/3x3_s2"
  pooling_param {
    pool: MAX
    kernel_size: 3
    stride: 2
  }
}
layer {
  name: "inception_4a/1x1"
  type: "Convolution"
  bottom: "pool3/3x3_s2"
  top: "inception_4a/1x1"
  param {
    lr_mult: 1
    decay_mult: 1
  }
  param {
    lr_mult: 2
    decay_mult: 0
  }
  convolution_param {
    num_output: 192
    kernel_size: 1
    weight_filler {
      type: "xavier"
      std: 0.03
    }
    bias_filler {
      type: "constant"
      value: 0.2
    }
  }
}
layer {
  name: "inception_4a/relu_1x1"
  type: "ReLU"
  bottom: "inception_4a/1x1"
  top: "inception_4a/1x1"
}
layer {
  name: "inception_4a/3x3_reduce"
  type: "Convolution"
  bottom: "pool3/3x3_s2"
  top: "inception_4a/3x3_reduce"
  param {
    lr_mult: 1
    decay_mult: 1
  }
  param {
    lr_mult: 2
    decay_mult: 0
  }
  convolution_param {
    num_output: 96
    kernel_size: 1
    weight_filler {
      type: "xavier"
      std: 0.09
    }
    bias_filler {
      type: "constant"
      value: 0.2
    }
  }
}
layer {
  name: "inception_4a/relu_3x3_reduce"
  type: "ReLU"
  bottom: "inception_4a/3x3_reduce"
  top: "inception_4a/3x3_reduce"
}
layer {
  name: "inception_4a/3x3"
  type: "Convolution"
  bottom: "inception_4a/3x3_reduce"
  top: "inception_4a/3x3"
  param {
    lr_mult: 1
    decay_mult: 1
  }
  param {
    lr_mult: 2
    decay_mult: 0
  }
  convolution_param {
    num_output: 208
    pad: 1
    kernel_size: 3
    weight_filler {
      type: "xavier"
      std: 0.03
    }
    bias_filler {
      type: "constant"
      value: 0.2
    }
  }
}
layer {
  name: "inception_4a/relu_3x3"
  type: "ReLU"
  bottom: "inception_4a/3x3"
  top: "inception_4a/3x3"
}
layer {
  name: "inception_4a/5x5_reduce"
  type: "Convolution"
  bottom: "pool3/3x3_s2"
  top: "inception_4a/5x5_reduce"
  param {
    lr_mult: 1
    decay_mult: 1
  }
  param {
    lr_mult: 2
    decay_mult: 0
  }
  convolution_param {
    num_output: 16
    kernel_size: 1
    weight_filler {
      type: "xavier"
      std: 0.2
    }
    bias_filler {
      type: "constant"
      value: 0.2
    }
  }
}
layer {
  name: "inception_4a/relu_5x5_reduce"
  type: "ReLU"
  bottom: "inception_4a/5x5_reduce"
  top: "inception_4a/5x5_reduce"
}
layer {
  name: "inception_4a/5x5"
  type: "Convolution"
  bottom: "inception_4a/5x5_reduce"
  top: "inception_4a/5x5"
  param {
    lr_mult: 1
    decay_mult: 1
  }
  param {
    lr_mult: 2
    decay_mult: 0
  }
  convolution_param {
    num_output: 48
    pad: 2
    kernel_size: 5
    weight_filler {
      type: "xavier"
      std: 0.03
    }
    bias_filler {
      type: "constant"
      value: 0.2
    }
  }
}
layer {
  name: "inception_4a/relu_5x5"
  type: "ReLU"
  bottom: "inception_4a/5x5"
  top: "inception_4a/5x5"
}
layer {
  name: "inception_4a/pool"
  type: "Pooling"
  bottom: "pool3/3x3_s2"
  top: "inception_4a/pool"
  pooling_param {
    pool: MAX
    kernel_size: 3
    stride: 1
    pad: 1
  }
}
layer {
  name: "inception_4a/pool_proj"
  type: "Convolution"
  bottom: "inception_4a/pool"
  top: "inception_4a/pool_proj"
  param {
    lr_mult: 1
    decay_mult: 1
  }
  param {
    lr_mult: 2
    decay_mult: 0
  }
  convolution_param {
    num_output: 64
    kernel_size: 1
    weight_filler {
      type: "xavier"
      std: 0.1
    }
    bias_filler {
      type: "constant"
      value: 0.2
    }
  }
}
layer {
  name: "inception_4a/relu_pool_proj"
  type: "ReLU"
  bottom: "inception_4a/pool_proj"
  top: "inception_4a/pool_proj"
}
layer {
  name: "inception_4a/output"
  type: "Concat"
  bottom: "inception_4a/1x1"
  bottom: "inception_4a/3x3"
  bottom: "inception_4a/5x5"
  bottom: "inception_4a/pool_proj"
  top: "inception_4a/output"
}
layer {
  name: "loss1/ave_pool"
  type: "Pooling"
  bottom: "inception_4a/output"
  top: "loss1/ave_pool"
  pooling_param {
    pool: AVE
    kernel_size: 5
    stride: 3
  }
}
layer {
  name: "loss1/conv"
  type: "Convolution"
  bottom: "loss1/ave_pool"
  top: "loss1/conv"
  param {
    lr_mult: 1
    decay_mult: 1
  }
  param {
    lr_mult: 2
    decay_mult: 0
  }
  convolution_param {
    num_output: 128
    kernel_size: 1
    weight_filler {
      type: "xavier"
      std: 0.08
    }
    bias_filler {
      type: "constant"
      value: 0.2
    }
  }
}
layer {
  name: "loss1/relu_conv"
  type: "ReLU"
  bottom: "loss1/conv"
  top: "loss1/conv"
}
layer {
  name: "loss1/fc"
  type: "InnerProduct"
  bottom: "loss1/conv"
  top: "loss1/fc"
  param {
    lr_mult: 1
    decay_mult: 1
  }
  param {
    lr_mult: 2
    decay_mult: 0
  }
  inner_product_param {
    num_output: 1024
    weight_filler {
      type: "xavier"
      std: 0.02
    }
    bias_filler {
      type: "constant"
      value: 0.2
    }
  }
}
layer {
  name: "loss1/relu_fc"
  type: "ReLU"
  bottom: "loss1/fc"
  top: "loss1/fc"
}
layer {
  name: "loss1/drop_fc"
  type: "Dropout"
  bottom: "loss1/fc"
  top: "loss1/fc"
  dropout_param {
    dropout_ratio: 0.7
  }
}
layer {
  name: "loss1/classifier_plantvillage"
  type: "InnerProduct"
  bottom: "loss1/fc"
  top: "loss1/classifier_plantvillage"
  param {
    lr_mult: 1
    decay_mult: 1
  }
  param {
    lr_mult: 2
    decay_mult: 0
  }
  inner_product_param {
    num_output: 38
    weight_filler {
      type: "xavier"
      std: 0.0009765625
    }
    bias_filler {
      type: "constant"
      value: 0
    }
  }
}
layer {
  name: "inception_4b/1x1"
  type: "Convolution"
  bottom: "inception_4a/output"
  top: "inception_4b/1x1"
  param {
    lr_mult: 1
    decay_mult: 1
  }
  param {
    lr_mult: 2
    decay_mult: 0
  }
  convolution_param {
    num_output: 160
    kernel_size: 1
    weight_filler {
      type: "xavier"
      std: 0.03
    }
    bias_filler {
      type: "constant"
      value: 0.2
    }
  }
}
layer {
  name: "inception_4b/relu_1x1"
  type: "ReLU"
  bottom: "inception_4b/1x1"
  top: "inception_4b/1x1"
}
layer {
  name: "inception_4b/3x3_reduce"
  type: "Convolution"
  bottom: "inception_4a/output"
  top: "inception_4b/3x3_reduce"
  param {
    lr_mult: 1
    decay_mult: 1
  }
  param {
    lr_mult: 2
    decay_mult: 0
  }
  convolution_param {
    num_output: 112
    kernel_size: 1
    weight_filler {
      type: "xavier"
      std: 0.09
    }
    bias_filler {
      type: "constant"
      value: 0.2
    }
  }
}
layer {
  name: "inception_4b/relu_3x3_reduce"
  type: "ReLU"
  bottom: "inception_4b/3x3_reduce"
  top: "inception_4b/3x3_reduce"
}
layer {
  name: "inception_4b/3x3"
  type: "Convolution"
  bottom: "inception_4b/3x3_reduce"
  top: "inception_4b/3x3"
  param {
    lr_mult: 1
    decay_mult: 1
  }
  param {
    lr_mult: 2
    decay_mult: 0
  }
  convolution_param {
    num_output: 224
    pad: 1
    kernel_size: 3
    weight_filler {
      type: "xavier"
      std: 0.03
    }
    bias_filler {
      type: "constant"
      value: 0.2
    }
  }
}
layer {
  name: "inception_4b/relu_3x3"
  type: "ReLU"
  bottom: "inception_4b/3x3"
  top: "inception_4b/3x3"
}
layer {
  name: "inception_4b/5x5_reduce"
  type: "Convolution"
  bottom: "inception_4a/output"
  top: "inception_4b/5x5_reduce"
  param {
    lr_mult: 1
    decay_mult: 1
  }
  param {
    lr_mult: 2
    decay_mult: 0
  }
  convolution_param {
    num_output: 24
    kernel_size: 1
    weight_filler {
      type: "xavier"
      std: 0.2
    }
    bias_filler {
      type: "constant"
      value: 0.2
    }
  }
}
layer {
  name: "inception_4b/relu_5x5_reduce"
  type: "ReLU"
  bottom: "inception_4b/5x5_reduce"
  top: "inception_4b/5x5_reduce"
}
layer {
  name: "inception_4b/5x5"
  type: "Convolution"
  bottom: "inception_4b/5x5_reduce"
  top: "inception_4b/5x5"
  param {
    lr_mult: 1
    decay_mult: 1
  }
  param {
    lr_mult: 2
    decay_mult: 0
  }
  convolution_param {
    num_output: 64
    pad: 2
    kernel_size: 5
    weight_filler {
      type: "xavier"
      std: 0.03
    }
    bias_filler {
      type: "constant"
      value: 0.2
    }
  }
}
layer {
  name: "inception_4b/relu_5x5"
  type: "ReLU"
  bottom: "inception_4b/5x5"
  top: "inception_4b/5x5"
}
layer {
  name: "inception_4b/pool"
  type: "Pooling"
  bottom: "inception_4a/output"
  top: "inception_4b/pool"
  pooling_param {
    pool: MAX
    kernel_size: 3
    stride: 1
    pad: 1
  }
}
layer {
  name: "inception_4b/pool_proj"
  type: "Convolution"
  bottom: "inception_4b/pool"
  top: "inception_4b/pool_proj"
  param {
    lr_mult: 1
    decay_mult: 1
  }
  param {
    lr_mult: 2
    decay_mult: 0
  }
  convolution_param {
    num_output: 64
    kernel_size: 1
    weight_filler {
      type: "xavier"
      std: 0.1
    }
    bias_filler {
      type: "constant"
      value: 0.2
    }
  }
}
layer {
  name: "inception_4b/relu_pool_proj"
  type: "ReLU"
  bottom: "inception_4b/pool_proj"
  top: "inception_4b/pool_proj"
}
layer {
  name: "inception_4b/output"
  type: "Concat"
  bottom: "inception_4b/1x1"
  bottom: "inception_4b/3x3"
  bottom: "inception_4b/5x5"
  bottom: "inception_4b/pool_proj"
  top: "inception_4b/output"
}
layer {
  name: "inception_4c/1x1"
  type: "Convolution"
  bottom: "inception_4b/output"
  top: "inception_4c/1x1"
  param {
    lr_mult: 1
    decay_mult: 1
  }
  param {
    lr_mult: 2
    decay_mult: 0
  }
  convolution_param {
    num_output: 128
    kernel_size: 1
    weight_filler {
      type: "xavier"
      std: 0.03
    }
    bias_filler {
      type: "constant"
      value: 0.2
    }
  }
}
layer {
  name: "inception_4c/relu_1x1"
  type: "ReLU"
  bottom: "inception_4c/1x1"
  top: "inception_4c/1x1"
}
layer {
  name: "inception_4c/3x3_reduce"
  type: "Convolution"
  bottom: "inception_4b/output"
  top: "inception_4c/3x3_reduce"
  param {
    lr_mult: 1
    decay_mult: 1
  }
  param {
    lr_mult: 2
    decay_mult: 0
  }
  convolution_param {
    num_output: 128
    kernel_size: 1
    weight_filler {
      type: "xavier"
      std: 0.09
    }
    bias_filler {
      type: "constant"
      value: 0.2
    }
  }
}
layer {
  name: "inception_4c/relu_3x3_reduce"
  type: "ReLU"
  bottom: "inception_4c/3x3_reduce"
  top: "inception_4c/3x3_reduce"
}
layer {
  name: "inception_4c/3x3"
  type: "Convolution"
  bottom: "inception_4c/3x3_reduce"
  top: "inception_4c/3x3"
  param {
    lr_mult: 1
    decay_mult: 1
  }
  param {
    lr_mult: 2
    decay_mult: 0
  }
  convolution_param {
    num_output: 256
    pad: 1
    kernel_size: 3
    weight_filler {
      type: "xavier"
      std: 0.03
    }
    bias_filler {
      type: "constant"
      value: 0.2
    }
  }
}
layer {
  name: "inception_4c/relu_3x3"
  type: "ReLU"
  bottom: "inception_4c/3x3"
  top: "inception_4c/3x3"
}
layer {
  name: "inception_4c/5x5_reduce"
  type: "Convolution"
  bottom: "inception_4b/output"
  top: "inception_4c/5x5_reduce"
  param {
    lr_mult: 1
    decay_mult: 1
  }
  param {
    lr_mult: 2
    decay_mult: 0
  }
  convolution_param {
    num_output: 24
    kernel_size: 1
    weight_filler {
      type: "xavier"
      std: 0.2
    }
    bias_filler {
      type: "constant"
      value: 0.2
    }
  }
}
layer {
  name: "inception_4c/relu_5x5_reduce"
  type: "ReLU"
  bottom: "inception_4c/5x5_reduce"
  top: "inception_4c/5x5_reduce"
}
layer {
  name: "inception_4c/5x5"
  type: "Convolution"
  bottom: "inception_4c/5x5_reduce"
  top: "inception_4c/5x5"
  param {
    lr_mult: 1
    decay_mult: 1
  }
  param {
    lr_mult: 2
    decay_mult: 0
  }
  convolution_param {
    num_output: 64
    pad: 2
    kernel_size: 5
    weight_filler {
      type: "xavier"
      std: 0.03
    }
    bias_filler {
      type: "constant"
      value: 0.2
    }
  }
}
layer {
  name: "inception_4c/relu_5x5"
  type: "ReLU"
  bottom: "inception_4c/5x5"
  top: "inception_4c/5x5"
}
layer {
  name: "inception_4c/pool"
  type: "Pooling"
  bottom: "inception_4b/output"
  top: "inception_4c/pool"
  pooling_param {
    pool: MAX
    kernel_size: 3
    stride: 1
    pad: 1
  }
}
layer {
  name: "inception_4c/pool_proj"
  type: "Convolution"
  bottom: "inception_4c/pool"
  top: "inception_4c/pool_proj"
  param {
    lr_mult: 1
    decay_mult: 1
  }
  param {
    lr_mult: 2
    decay_mult: 0
  }
  convolution_param {
    num_output: 64
    kernel_size: 1
    weight_filler {
      type: "xavier"
      std: 0.1
    }
    bias_filler {
      type: "constant"
      value: 0.2
    }
  }
}
layer {
  name: "inception_4c/relu_pool_proj"
  type: "ReLU"
  bottom: "inception_4c/pool_proj"
  top: "inception_4c/pool_proj"
}
layer {
  name: "inception_4c/output"
  type: "Concat"
  bottom: "inception_4c/1x1"
  bottom: "inception_4c/3x3"
  bottom: "inception_4c/5x5"
  bottom: "inception_4c/pool_proj"
  top: "inception_4c/output"
}
layer {
  name: "inception_4d/1x1"
  type: "Convolution"
  bottom: "inception_4c/output"
  top: "inception_4d/1x1"
  param {
    lr_mult: 1
    decay_mult: 1
  }
  param {
    lr_mult: 2
    decay_mult: 0
  }
  convolution_param {
    num_output: 112
    kernel_size: 1
    weight_filler {
      type: "xavier"
      std: 0.03
    }
    bias_filler {
      type: "constant"
      value: 0.2
    }
  }
}
layer {
  name: "inception_4d/relu_1x1"
  type: "ReLU"
  bottom: "inception_4d/1x1"
  top: "inception_4d/1x1"
}
layer {
  name: "inception_4d/3x3_reduce"
  type: "Convolution"
  bottom: "inception_4c/output"
  top: "inception_4d/3x3_reduce"
  param {
    lr_mult: 1
    decay_mult: 1
  }
  param {
    lr_mult: 2
    decay_mult: 0
  }
  convolution_param {
    num_output: 144
    kernel_size: 1
    weight_filler {
      type: "xavier"
      std: 0.09
    }
    bias_filler {
      type: "constant"
      value: 0.2
    }
  }
}
layer {
  name: "inception_4d/relu_3x3_reduce"
  type: "ReLU"
  bottom: "inception_4d/3x3_reduce"
  top: "inception_4d/3x3_reduce"
}
layer {
  name: "inception_4d/3x3"
  type: "Convolution"
  bottom: "inception_4d/3x3_reduce"
  top: "inception_4d/3x3"
  param {
    lr_mult: 1
    decay_mult: 1
  }
  param {
    lr_mult: 2
    decay_mult: 0
  }
  convolution_param {
    num_output: 288
    pad: 1
    kernel_size: 3
    weight_filler {
      type: "xavier"
      std: 0.03
    }
    bias_filler {
      type: "constant"
      value: 0.2
    }
  }
}
layer {
  name: "inception_4d/relu_3x3"
  type: "ReLU"
  bottom: "inception_4d/3x3"
  top: "inception_4d/3x3"
}
layer {
  name: "inception_4d/5x5_reduce"
  type: "Convolution"
  bottom: "inception_4c/output"
  top: "inception_4d/5x5_reduce"
  param {
    lr_mult: 1
    decay_mult: 1
  }
  param {
    lr_mult: 2
    decay_mult: 0
  }
  convolution_param {
    num_output: 32
    kernel_size: 1
    weight_filler {
      type: "xavier"
      std: 0.2
    }
    bias_filler {
      type: "constant"
      value: 0.2
    }
  }
}
layer {
  name: "inception_4d/relu_5x5_reduce"
  type: "ReLU"
  bottom: "inception_4d/5x5_reduce"
  top: "inception_4d/5x5_reduce"
}
layer {
  name: "inception_4d/5x5"
  type: "Convolution"
  bottom: "inception_4d/5x5_reduce"
  top: "inception_4d/5x5"
  param {
    lr_mult: 1
    decay_mult: 1
  }
  param {
    lr_mult: 2
    decay_mult: 0
  }
  convolution_param {
    num_output: 64
    pad: 2
    kernel_size: 5
    weight_filler {
      type: "xavier"
      std: 0.03
    }
    bias_filler {
      type: "constant"
      value: 0.2
    }
  }
}
layer {
  name: "inception_4d/relu_5x5"
  type: "ReLU"
  bottom: "inception_4d/5x5"
  top: "inception_4d/5x5"
}
layer {
  name: "inception_4d/pool"
  type: "Pooling"
  bottom: "inception_4c/output"
  top: "inception_4d/pool"
  pooling_param {
    pool: MAX
    kernel_size: 3
    stride: 1
    pad: 1
  }
}
layer {
  name: "inception_4d/pool_proj"
  type: "Convolution"
  bottom: "inception_4d/pool"
  top: "inception_4d/pool_proj"
  param {
    lr_mult: 1
    decay_mult: 1
  }
  param {
    lr_mult: 2
    decay_mult: 0
  }
  convolution_param {
    num_output: 64
    kernel_size: 1
    weight_filler {
      type: "xavier"
      std: 0.1
    }
    bias_filler {
      type: "constant"
      value: 0.2
    }
  }
}
layer {
  name: "inception_4d/relu_pool_proj"
  type: "ReLU"
  bottom: "inception_4d/pool_proj"
  top: "inception_4d/pool_proj"
}
layer {
  name: "inception_4d/output"
  type: "Concat"
  bottom: "inception_4d/1x1"
  bottom: "inception_4d/3x3"
  bottom: "inception_4d/5x5"
  bottom: "inception_4d/pool_proj"
  top: "inception_4d/output"
}
layer {
  name: "loss2/ave_pool"
  type: "Pooling"
  bottom: "inception_4d/output"
  top: "loss2/ave_pool"
  pooling_param {
    pool: AVE
    kernel_size: 5
    stride: 3
  }
}
layer {
  name: "loss2/conv"
  type: "Convolution"
  bottom: "loss2/ave_pool"
  top: "loss2/conv"
  param {
    lr_mult: 1
    decay_mult: 1
  }
  param {
    lr_mult: 2
    decay_mult: 0
  }
  convolution_param {
    num_output: 128
    kernel_size: 1
    weight_filler {
      type: "xavier"
      std: 0.08
    }
    bias_filler {
      type: "constant"
      value: 0.2
    }
  }
}
layer {
  name: "loss2/relu_conv"
  type: "ReLU"
  bottom: "loss2/conv"
  top: "loss2/conv"
}
layer {
  name: "loss2/fc"
  type: "InnerProduct"
  bottom: "loss2/conv"
  top: "loss2/fc"
  param {
    lr_mult: 1
    decay_mult: 1
  }
  param {
    lr_mult: 2
    decay_mult: 0
  }
  inner_product_param {
    num_output: 1024
    weight_filler {
      type: "xavier"
      std: 0.02
    }
    bias_filler {
      type: "constant"
      value: 0.2
    }
  }
}
layer {
  name: "loss2/relu_fc"
  type: "ReLU"
  bottom: "loss2/fc"
  top: "loss2/fc"
}
layer {
  name: "loss2/drop_fc"
  type: "Dropout"
  bottom: "loss2/fc"
  top: "loss2/fc"
  dropout_param {
    dropout_ratio: 0.7
  }
}
layer {
  name: "loss2/classifier_plantvillage"
  type: "InnerProduct"
  bottom: "loss2/fc"
  top: "loss2/classifier_plantvillage"
  param {
    lr_mult: 1
    decay_mult: 1
  }
  param {
    lr_mult: 2
    decay_mult: 0
  }
  inner_product_param {
    num_output: 38
    weight_filler {
      type: "xavier"
      std: 0.0009765625
    }
    bias_filler {
      type: "constant"
      value: 0
    }
  }
}
layer {
  name: "inception_4e/1x1"
  type: "Convolution"
  bottom: "inception_4d/output"
  top: "inception_4e/1x1"
  param {
    lr_mult: 1
    decay_mult: 1
  }
  param {
    lr_mult: 2
    decay_mult: 0
  }
  convolution_param {
    num_output: 256
    kernel_size: 1
    weight_filler {
      type: "xavier"
      std: 0.03
    }
    bias_filler {
      type: "constant"
      value: 0.2
    }
  }
}
layer {
  name: "inception_4e/relu_1x1"
  type: "ReLU"
  bottom: "inception_4e/1x1"
  top: "inception_4e/1x1"
}
layer {
  name: "inception_4e/3x3_reduce"
  type: "Convolution"
  bottom: "inception_4d/output"
  top: "inception_4e/3x3_reduce"
  param {
    lr_mult: 1
    decay_mult: 1
  }
  param {
    lr_mult: 2
    decay_mult: 0
  }
  convolution_param {
    num_output: 160
    kernel_size: 1
    weight_filler {
      type: "xavier"
      std: 0.09
    }
    bias_filler {
      type: "constant"
      value: 0.2
    }
  }
}
layer {
  name: "inception_4e/relu_3x3_reduce"
  type: "ReLU"
  bottom: "inception_4e/3x3_reduce"
  top: "inception_4e/3x3_reduce"
}
layer {
  name: "inception_4e/3x3"
  type: "Convolution"
  bottom: "inception_4e/3x3_reduce"
  top: "inception_4e/3x3"
  param {
    lr_mult: 1
    decay_mult: 1
  }
  param {
    lr_mult: 2
    decay_mult: 0
  }
  convolution_param {
    num_output: 320
    pad: 1
    kernel_size: 3
    weight_filler {
      type: "xavier"
      std: 0.03
    }
    bias_filler {
      type: "constant"
      value: 0.2
    }
  }
}
layer {
  name: "inception_4e/relu_3x3"
  type: "ReLU"
  bottom: "inception_4e/3x3"
  top: "inception_4e/3x3"
}
layer {
  name: "inception_4e/5x5_reduce"
  type: "Convolution"
  bottom: "inception_4d/output"
  top: "inception_4e/5x5_reduce"
  param {
    lr_mult: 1
    decay_mult: 1
  }
  param {
    lr_mult: 2
    decay_mult: 0
  }
  convolution_param {
    num_output: 32
    kernel_size: 1
    weight_filler {
      type: "xavier"
      std: 0.2
    }
    bias_filler {
      type: "constant"
      value: 0.2
    }
  }
}
layer {
  name: "inception_4e/relu_5x5_reduce"
  type: "ReLU"
  bottom: "inception_4e/5x5_reduce"
  top: "inception_4e/5x5_reduce"
}
layer {
  name: "inception_4e/5x5"
  type: "Convolution"
  bottom: "inception_4e/5x5_reduce"
  top: "inception_4e/
I0403 14:52:21.259491  2082 layer_factory.hpp:77] Creating layer data
I0403 14:52:21.260093  2082 net.cpp:91] Creating Layer data
I0403 14:52:21.260128  2082 net.cpp:399] data -> data
I0403 14:52:21.260177  2082 net.cpp:399] data -> label
I0403 14:52:21.260217  2082 data_transformer.cpp:25] Loading mean file from: /home/mohanty/data/final_dataset/lmdb/grayscale-20-80/mean.binaryproto
I0403 14:52:21.261428  2087 db_lmdb.cpp:38] Opened lmdb /home/mohanty/data/final_dataset/lmdb/grayscale-20-80/test_db
I0403 14:52:21.273109  2082 data_layer.cpp:41] output data size: 24,3,224,224
I0403 14:52:21.299685  2082 net.cpp:141] Setting up data
I0403 14:52:21.299785  2082 net.cpp:148] Top shape: 24 3 224 224 (3612672)
I0403 14:52:21.299808  2082 net.cpp:148] Top shape: 24 (24)
I0403 14:52:21.299823  2082 net.cpp:156] Memory required for data: 14450784
I0403 14:52:21.299849  2082 layer_factory.hpp:77] Creating layer label_data_1_split
I0403 14:52:21.299875  2082 net.cpp:91] Creating Layer label_data_1_split
I0403 14:52:21.299893  2082 net.cpp:425] label_data_1_split <- label
I0403 14:52:21.299924  2082 net.cpp:399] label_data_1_split -> label_data_1_split_0
I0403 14:52:21.299952  2082 net.cpp:399] label_data_1_split -> label_data_1_split_1
I0403 14:52:21.299973  2082 net.cpp:399] label_data_1_split -> label_data_1_split_2
I0403 14:52:21.299993  2082 net.cpp:399] label_data_1_split -> label_data_1_split_3
I0403 14:52:21.300012  2082 net.cpp:399] label_data_1_split -> label_data_1_split_4
I0403 14:52:21.300032  2082 net.cpp:399] label_data_1_split -> label_data_1_split_5
I0403 14:52:21.300051  2082 net.cpp:399] label_data_1_split -> label_data_1_split_6
I0403 14:52:21.300071  2082 net.cpp:399] label_data_1_split -> label_data_1_split_7
I0403 14:52:21.300091  2082 net.cpp:399] label_data_1_split -> label_data_1_split_8
I0403 14:52:21.300110  2082 net.cpp:399] label_data_1_split -> label_data_1_split_9
I0403 14:52:21.300233  2082 net.cpp:141] Setting up label_data_1_split
I0403 14:52:21.300258  2082 net.cpp:148] Top shape: 24 (24)
I0403 14:52:21.300276  2082 net.cpp:148] Top shape: 24 (24)
I0403 14:52:21.300292  2082 net.cpp:148] Top shape: 24 (24)
I0403 14:52:21.300307  2082 net.cpp:148] Top shape: 24 (24)
I0403 14:52:21.300323  2082 net.cpp:148] Top shape: 24 (24)
I0403 14:52:21.300339  2082 net.cpp:148] Top shape: 24 (24)
I0403 14:52:21.300354  2082 net.cpp:148] Top shape: 24 (24)
I0403 14:52:21.300370  2082 net.cpp:148] Top shape: 24 (24)
I0403 14:52:21.300385  2082 net.cpp:148] Top shape: 24 (24)
I0403 14:52:21.300402  2082 net.cpp:148] Top shape: 24 (24)
I0403 14:52:21.300446  2082 net.cpp:156] Memory required for data: 14451744
I0403 14:52:21.300462  2082 layer_factory.hpp:77] Creating layer conv1/7x7_s2
I0403 14:52:21.300493  2082 net.cpp:91] Creating Layer conv1/7x7_s2
I0403 14:52:21.300510  2082 net.cpp:425] conv1/7x7_s2 <- data
I0403 14:52:21.300530  2082 net.cpp:399] conv1/7x7_s2 -> conv1/7x7_s2
I0403 14:52:21.439743  2082 net.cpp:141] Setting up conv1/7x7_s2
I0403 14:52:21.439831  2082 net.cpp:148] Top shape: 24 64 112 112 (19267584)
I0403 14:52:21.439849  2082 net.cpp:156] Memory required for data: 91522080
I0403 14:52:21.439882  2082 layer_factory.hpp:77] Creating layer conv1/relu_7x7
I0403 14:52:21.439910  2082 net.cpp:91] Creating Layer conv1/relu_7x7
I0403 14:52:21.439929  2082 net.cpp:425] conv1/relu_7x7 <- conv1/7x7_s2
I0403 14:52:21.439949  2082 net.cpp:386] conv1/relu_7x7 -> conv1/7x7_s2 (in-place)
I0403 14:52:21.440246  2082 net.cpp:141] Setting up conv1/relu_7x7
I0403 14:52:21.440276  2082 net.cpp:148] Top shape: 24 64 112 112 (19267584)
I0403 14:52:21.440294  2082 net.cpp:156] Memory required for data: 168592416
I0403 14:52:21.440309  2082 layer_factory.hpp:77] Creating layer pool1/3x3_s2
I0403 14:52:21.440332  2082 net.cpp:91] Creating Layer pool1/3x3_s2
I0403 14:52:21.440351  2082 net.cpp:425] pool1/3x3_s2 <- conv1/7x7_s2
I0403 14:52:21.440373  2082 net.cpp:399] pool1/3x3_s2 -> pool1/3x3_s2
I0403 14:52:21.440451  2082 net.cpp:141] Setting up pool1/3x3_s2
I0403 14:52:21.440476  2082 net.cpp:148] Top shape: 24 64 56 56 (4816896)
I0403 14:52:21.440491  2082 net.cpp:156] Memory required for data: 187860000
I0403 14:52:21.440506  2082 layer_factory.hpp:77] Creating layer pool1/norm1
I0403 14:52:21.440534  2082 net.cpp:91] Creating Layer pool1/norm1
I0403 14:52:21.440552  2082 net.cpp:425] pool1/norm1 <- pool1/3x3_s2
I0403 14:52:21.440572  2082 net.cpp:399] pool1/norm1 -> pool1/norm1
I0403 14:52:21.440882  2082 net.cpp:141] Setting up pool1/norm1
I0403 14:52:21.440913  2082 net.cpp:148] Top shape: 24 64 56 56 (4816896)
I0403 14:52:21.440930  2082 net.cpp:156] Memory required for data: 207127584
I0403 14:52:21.440946  2082 layer_factory.hpp:77] Creating layer conv2/3x3_reduce
I0403 14:52:21.440973  2082 net.cpp:91] Creating Layer conv2/3x3_reduce
I0403 14:52:21.440990  2082 net.cpp:425] conv2/3x3_reduce <- pool1/norm1
I0403 14:52:21.441009  2082 net.cpp:399] conv2/3x3_reduce -> conv2/3x3_reduce
I0403 14:52:21.442443  2082 net.cpp:141] Setting up conv2/3x3_reduce
I0403 14:52:21.442473  2082 net.cpp:148] Top shape: 24 64 56 56 (4816896)
I0403 14:52:21.442489  2082 net.cpp:156] Memory required for data: 226395168
I0403 14:52:21.442513  2082 layer_factory.hpp:77] Creating layer conv2/relu_3x3_reduce
I0403 14:52:21.442533  2082 net.cpp:91] Creating Layer conv2/relu_3x3_reduce
I0403 14:52:21.442548  2082 net.cpp:425] conv2/relu_3x3_reduce <- conv2/3x3_reduce
I0403 14:52:21.442565  2082 net.cpp:386] conv2/relu_3x3_reduce -> conv2/3x3_reduce (in-place)
I0403 14:52:21.442860  2082 net.cpp:141] Setting up conv2/relu_3x3_reduce
I0403 14:52:21.442888  2082 net.cpp:148] Top shape: 24 64 56 56 (4816896)
I0403 14:52:21.442904  2082 net.cpp:156] Memory required for data: 245662752
I0403 14:52:21.442919  2082 layer_factory.hpp:77] Creating layer conv2/3x3
I0403 14:52:21.442945  2082 net.cpp:91] Creating Layer conv2/3x3
I0403 14:52:21.442962  2082 net.cpp:425] conv2/3x3 <- conv2/3x3_reduce
I0403 14:52:21.442984  2082 net.cpp:399] conv2/3x3 -> conv2/3x3
I0403 14:52:21.445394  2082 net.cpp:141] Setting up conv2/3x3
I0403 14:52:21.445425  2082 net.cpp:148] Top shape: 24 192 56 56 (14450688)
I0403 14:52:21.445441  2082 net.cpp:156] Memory required for data: 303465504
I0403 14:52:21.445466  2082 layer_factory.hpp:77] Creating layer conv2/relu_3x3
I0403 14:52:21.445487  2082 net.cpp:91] Creating Layer conv2/relu_3x3
I0403 14:52:21.445503  2082 net.cpp:425] conv2/relu_3x3 <- conv2/3x3
I0403 14:52:21.445523  2082 net.cpp:386] conv2/relu_3x3 -> conv2/3x3 (in-place)
I0403 14:52:21.445713  2082 net.cpp:141] Setting up conv2/relu_3x3
I0403 14:52:21.445741  2082 net.cpp:148] Top shape: 24 192 56 56 (14450688)
I0403 14:52:21.445790  2082 net.cpp:156] Memory required for data: 361268256
I0403 14:52:21.445806  2082 layer_factory.hpp:77] Creating layer conv2/norm2
I0403 14:52:21.445825  2082 net.cpp:91] Creating Layer conv2/norm2
I0403 14:52:21.445847  2082 net.cpp:425] conv2/norm2 <- conv2/3x3
I0403 14:52:21.445864  2082 net.cpp:399] conv2/norm2 -> conv2/norm2
I0403 14:52:21.446185  2082 net.cpp:141] Setting up conv2/norm2
I0403 14:52:21.446218  2082 net.cpp:148] Top shape: 24 192 56 56 (14450688)
I0403 14:52:21.446235  2082 net.cpp:156] Memory required for data: 419071008
I0403 14:52:21.446251  2082 layer_factory.hpp:77] Creating layer pool2/3x3_s2
I0403 14:52:21.446272  2082 net.cpp:91] Creating Layer pool2/3x3_s2
I0403 14:52:21.446290  2082 net.cpp:425] pool2/3x3_s2 <- conv2/norm2
I0403 14:52:21.446307  2082 net.cpp:399] pool2/3x3_s2 -> pool2/3x3_s2
I0403 14:52:21.446367  2082 net.cpp:141] Setting up pool2/3x3_s2
I0403 14:52:21.446390  2082 net.cpp:148] Top shape: 24 192 28 28 (3612672)
I0403 14:52:21.446405  2082 net.cpp:156] Memory required for data: 433521696
I0403 14:52:21.446420  2082 layer_factory.hpp:77] Creating layer pool2/3x3_s2_pool2/3x3_s2_0_split
I0403 14:52:21.446439  2082 net.cpp:91] Creating Layer pool2/3x3_s2_pool2/3x3_s2_0_split
I0403 14:52:21.446455  2082 net.cpp:425] pool2/3x3_s2_pool2/3x3_s2_0_split <- pool2/3x3_s2
I0403 14:52:21.446475  2082 net.cpp:399] pool2/3x3_s2_pool2/3x3_s2_0_split -> pool2/3x3_s2_pool2/3x3_s2_0_split_0
I0403 14:52:21.446496  2082 net.cpp:399] pool2/3x3_s2_pool2/3x3_s2_0_split -> pool2/3x3_s2_pool2/3x3_s2_0_split_1
I0403 14:52:21.446516  2082 net.cpp:399] pool2/3x3_s2_pool2/3x3_s2_0_split -> pool2/3x3_s2_pool2/3x3_s2_0_split_2
I0403 14:52:21.446535  2082 net.cpp:399] pool2/3x3_s2_pool2/3x3_s2_0_split -> pool2/3x3_s2_pool2/3x3_s2_0_split_3
I0403 14:52:21.446609  2082 net.cpp:141] Setting up pool2/3x3_s2_pool2/3x3_s2_0_split
I0403 14:52:21.446633  2082 net.cpp:148] Top shape: 24 192 28 28 (3612672)
I0403 14:52:21.446650  2082 net.cpp:148] Top shape: 24 192 28 28 (3612672)
I0403 14:52:21.446666  2082 net.cpp:148] Top shape: 24 192 28 28 (3612672)
I0403 14:52:21.446683  2082 net.cpp:148] Top shape: 24 192 28 28 (3612672)
I0403 14:52:21.446698  2082 net.cpp:156] Memory required for data: 491324448
I0403 14:52:21.446712  2082 layer_factory.hpp:77] Creating layer inception_3a/1x1
I0403 14:52:21.446738  2082 net.cpp:91] Creating Layer inception_3a/1x1
I0403 14:52:21.446755  2082 net.cpp:425] inception_3a/1x1 <- pool2/3x3_s2_pool2/3x3_s2_0_split_0
I0403 14:52:21.446775  2082 net.cpp:399] inception_3a/1x1 -> inception_3a/1x1
I0403 14:52:21.448377  2082 net.cpp:141] Setting up inception_3a/1x1
I0403 14:52:21.448408  2082 net.cpp:148] Top shape: 24 64 28 28 (1204224)
I0403 14:52:21.448426  2082 net.cpp:156] Memory required for data: 496141344
I0403 14:52:21.448446  2082 layer_factory.hpp:77] Creating layer inception_3a/relu_1x1
I0403 14:52:21.448467  2082 net.cpp:91] Creating Layer inception_3a/relu_1x1
I0403 14:52:21.448483  2082 net.cpp:425] inception_3a/relu_1x1 <- inception_3a/1x1
I0403 14:52:21.448503  2082 net.cpp:386] inception_3a/relu_1x1 -> inception_3a/1x1 (in-place)
I0403 14:52:21.448694  2082 net.cpp:141] Setting up inception_3a/relu_1x1
I0403 14:52:21.448724  2082 net.cpp:148] Top shape: 24 64 28 28 (1204224)
I0403 14:52:21.448740  2082 net.cpp:156] Memory required for data: 500958240
I0403 14:52:21.448755  2082 layer_factory.hpp:77] Creating layer inception_3a/3x3_reduce
I0403 14:52:21.448778  2082 net.cpp:91] Creating Layer inception_3a/3x3_reduce
I0403 14:52:21.448796  2082 net.cpp:425] inception_3a/3x3_reduce <- pool2/3x3_s2_pool2/3x3_s2_0_split_1
I0403 14:52:21.448817  2082 net.cpp:399] inception_3a/3x3_reduce -> inception_3a/3x3_reduce
I0403 14:52:21.450634  2082 net.cpp:141] Setting up inception_3a/3x3_reduce
I0403 14:52:21.450664  2082 net.cpp:148] Top shape: 24 96 28 28 (1806336)
I0403 14:52:21.450681  2082 net.cpp:156] Memory required for data: 508183584
I0403 14:52:21.450707  2082 layer_factory.hpp:77] Creating layer inception_3a/relu_3x3_reduce
I0403 14:52:21.450744  2082 net.cpp:91] Creating Layer inception_3a/relu_3x3_reduce
I0403 14:52:21.450762  2082 net.cpp:425] inception_3a/relu_3x3_reduce <- inception_3a/3x3_reduce
I0403 14:52:21.450780  2082 net.cpp:386] inception_3a/relu_3x3_reduce -> inception_3a/3x3_reduce (in-place)
I0403 14:52:21.450985  2082 net.cpp:141] Setting up inception_3a/relu_3x3_reduce
I0403 14:52:21.451012  2082 net.cpp:148] Top shape: 24 96 28 28 (1806336)
I0403 14:52:21.451028  2082 net.cpp:156] Memory required for data: 515408928
I0403 14:52:21.451045  2082 layer_factory.hpp:77] Creating layer inception_3a/3x3
I0403 14:52:21.451068  2082 net.cpp:91] Creating Layer inception_3a/3x3
I0403 14:52:21.451087  2082 net.cpp:425] inception_3a/3x3 <- inception_3a/3x3_reduce
I0403 14:52:21.451108  2082 net.cpp:399] inception_3a/3x3 -> inception_3a/3x3
I0403 14:52:21.452839  2082 net.cpp:141] Setting up inception_3a/3x3
I0403 14:52:21.452868  2082 net.cpp:148] Top shape: 24 128 28 28 (2408448)
I0403 14:52:21.452884  2082 net.cpp:156] Memory required for data: 525042720
I0403 14:52:21.452903  2082 layer_factory.hpp:77] Creating layer inception_3a/relu_3x3
I0403 14:52:21.452925  2082 net.cpp:91] Creating Layer inception_3a/relu_3x3
I0403 14:52:21.452944  2082 net.cpp:425] inception_3a/relu_3x3 <- inception_3a/3x3
I0403 14:52:21.452960  2082 net.cpp:386] inception_3a/relu_3x3 -> inception_3a/3x3 (in-place)
I0403 14:52:21.453253  2082 net.cpp:141] Setting up inception_3a/relu_3x3
I0403 14:52:21.453279  2082 net.cpp:148] Top shape: 24 128 28 28 (2408448)
I0403 14:52:21.453294  2082 net.cpp:156] Memory required for data: 534676512
I0403 14:52:21.453310  2082 layer_factory.hpp:77] Creating layer inception_3a/5x5_reduce
I0403 14:52:21.453335  2082 net.cpp:91] Creating Layer inception_3a/5x5_reduce
I0403 14:52:21.453351  2082 net.cpp:425] inception_3a/5x5_reduce <- pool2/3x3_s2_pool2/3x3_s2_0_split_2
I0403 14:52:21.453369  2082 net.cpp:399] inception_3a/5x5_reduce -> inception_3a/5x5_reduce
I0403 14:52:21.454365  2082 net.cpp:141] Setting up inception_3a/5x5_reduce
I0403 14:52:21.454396  2082 net.cpp:148] Top shape: 24 16 28 28 (301056)
I0403 14:52:21.454412  2082 net.cpp:156] Memory required for data: 535880736
I0403 14:52:21.454432  2082 layer_factory.hpp:77] Creating layer inception_3a/relu_5x5_reduce
I0403 14:52:21.454449  2082 net.cpp:91] Creating Layer inception_3a/relu_5x5_reduce
I0403 14:52:21.454466  2082 net.cpp:425] inception_3a/relu_5x5_reduce <- inception_3a/5x5_reduce
I0403 14:52:21.454488  2082 net.cpp:386] inception_3a/relu_5x5_reduce -> inception_3a/5x5_reduce (in-place)
I0403 14:52:21.454795  2082 net.cpp:141] Setting up inception_3a/relu_5x5_reduce
I0403 14:52:21.454824  2082 net.cpp:148] Top shape: 24 16 28 28 (301056)
I0403 14:52:21.454840  2082 net.cpp:156] Memory required for data: 537084960
I0403 14:52:21.454855  2082 layer_factory.hpp:77] Creating layer inception_3a/5x5
I0403 14:52:21.454879  2082 net.cpp:91] Creating Layer inception_3a/5x5
I0403 14:52:21.454895  2082 net.cpp:425] inception_3a/5x5 <- inception_3a/5x5_reduce
I0403 14:52:21.454915  2082 net.cpp:399] inception_3a/5x5 -> inception_3a/5x5
I0403 14:52:21.455948  2082 net.cpp:141] Setting up inception_3a/5x5
I0403 14:52:21.455976  2082 net.cpp:148] Top shape: 24 32 28 28 (602112)
I0403 14:52:21.455992  2082 net.cpp:156] Memory required for data: 539493408
I0403 14:52:21.456010  2082 layer_factory.hpp:77] Creating layer inception_3a/relu_5x5
I0403 14:52:21.456032  2082 net.cpp:91] Creating Layer inception_3a/relu_5x5
I0403 14:52:21.456048  2082 net.cpp:425] inception_3a/relu_5x5 <- inception_3a/5x5
I0403 14:52:21.456066  2082 net.cpp:386] inception_3a/relu_5x5 -> inception_3a/5x5 (in-place)
I0403 14:52:21.456259  2082 net.cpp:141] Setting up inception_3a/relu_5x5
I0403 14:52:21.456287  2082 net.cpp:148] Top shape: 24 32 28 28 (602112)
I0403 14:52:21.456303  2082 net.cpp:156] Memory required for data: 541901856
I0403 14:52:21.456318  2082 layer_factory.hpp:77] Creating layer inception_3a/pool
I0403 14:52:21.456336  2082 net.cpp:91] Creating Layer inception_3a/pool
I0403 14:52:21.456367  2082 net.cpp:425] inception_3a/pool <- pool2/3x3_s2_pool2/3x3_s2_0_split_3
I0403 14:52:21.456387  2082 net.cpp:399] inception_3a/pool -> inception_3a/pool
I0403 14:52:21.456446  2082 net.cpp:141] Setting up inception_3a/pool
I0403 14:52:21.456470  2082 net.cpp:148] Top shape: 24 192 28 28 (3612672)
I0403 14:52:21.456485  2082 net.cpp:156] Memory required for data: 556352544
I0403 14:52:21.456499  2082 layer_factory.hpp:77] Creating layer inception_3a/pool_proj
I0403 14:52:21.456521  2082 net.cpp:91] Creating Layer inception_3a/pool_proj
I0403 14:52:21.456547  2082 net.cpp:425] inception_3a/pool_proj <- inception_3a/pool
I0403 14:52:21.456569  2082 net.cpp:399] inception_3a/pool_proj -> inception_3a/pool_proj
I0403 14:52:21.457551  2082 net.cpp:141] Setting up inception_3a/pool_proj
I0403 14:52:21.457581  2082 net.cpp:148] Top shape: 24 32 28 28 (602112)
I0403 14:52:21.457595  2082 net.cpp:156] Memory required for data: 558760992
I0403 14:52:21.457620  2082 layer_factory.hpp:77] Creating layer inception_3a/relu_pool_proj
I0403 14:52:21.457640  2082 net.cpp:91] Creating Layer inception_3a/relu_pool_proj
I0403 14:52:21.457656  2082 net.cpp:425] inception_3a/relu_pool_proj <- inception_3a/pool_proj
I0403 14:52:21.457676  2082 net.cpp:386] inception_3a/relu_pool_proj -> inception_3a/pool_proj (in-place)
I0403 14:52:21.457957  2082 net.cpp:141] Setting up inception_3a/relu_pool_proj
I0403 14:52:21.457983  2082 net.cpp:148] Top shape: 24 32 28 28 (602112)
I0403 14:52:21.457998  2082 net.cpp:156] Memory required for data: 561169440
I0403 14:52:21.458014  2082 layer_factory.hpp:77] Creating layer inception_3a/output
I0403 14:52:21.458034  2082 net.cpp:91] Creating Layer inception_3a/output
I0403 14:52:21.458050  2082 net.cpp:425] inception_3a/output <- inception_3a/1x1
I0403 14:52:21.458067  2082 net.cpp:425] inception_3a/output <- inception_3a/3x3
I0403 14:52:21.458084  2082 net.cpp:425] inception_3a/output <- inception_3a/5x5
I0403 14:52:21.458099  2082 net.cpp:425] inception_3a/output <- inception_3a/pool_proj
I0403 14:52:21.458117  2082 net.cpp:399] inception_3a/output -> inception_3a/output
I0403 14:52:21.458165  2082 net.cpp:141] Setting up inception_3a/output
I0403 14:52:21.458190  2082 net.cpp:148] Top shape: 24 256 28 28 (4816896)
I0403 14:52:21.458205  2082 net.cpp:156] Memory required for data: 580437024
I0403 14:52:21.458225  2082 layer_factory.hpp:77] Creating layer inception_3a/output_inception_3a/output_0_split
I0403 14:52:21.458243  2082 net.cpp:91] Creating Layer inception_3a/output_inception_3a/output_0_split
I0403 14:52:21.458261  2082 net.cpp:425] inception_3a/output_inception_3a/output_0_split <- inception_3a/output
I0403 14:52:21.458281  2082 net.cpp:399] inception_3a/output_inception_3a/output_0_split -> inception_3a/output_inception_3a/output_0_split_0
I0403 14:52:21.458302  2082 net.cpp:399] inception_3a/output_inception_3a/output_0_split -> inception_3a/output_inception_3a/output_0_split_1
I0403 14:52:21.458326  2082 net.cpp:399] inception_3a/output_inception_3a/output_0_split -> inception_3a/output_inception_3a/output_0_split_2
I0403 14:52:21.458348  2082 net.cpp:399] inception_3a/output_inception_3a/output_0_split -> inception_3a/output_inception_3a/output_0_split_3
I0403 14:52:21.458422  2082 net.cpp:141] Setting up inception_3a/output_inception_3a/output_0_split
I0403 14:52:21.458446  2082 net.cpp:148] Top shape: 24 256 28 28 (4816896)
I0403 14:52:21.458470  2082 net.cpp:148] Top shape: 24 256 28 28 (4816896)
I0403 14:52:21.458487  2082 net.cpp:148] Top shape: 24 256 28 28 (4816896)
I0403 14:52:21.458503  2082 net.cpp:148] Top shape: 24 256 28 28 (4816896)
I0403 14:52:21.458516  2082 net.cpp:156] Memory required for data: 657507360
I0403 14:52:21.458530  2082 layer_factory.hpp:77] Creating layer inception_3b/1x1
I0403 14:52:21.458551  2082 net.cpp:91] Creating Layer inception_3b/1x1
I0403 14:52:21.458567  2082 net.cpp:425] inception_3b/1x1 <- inception_3a/output_inception_3a/output_0_split_0
I0403 14:52:21.458588  2082 net.cpp:399] inception_3b/1x1 -> inception_3b/1x1
I0403 14:52:21.459751  2082 net.cpp:141] Setting up inception_3b/1x1
I0403 14:52:21.459791  2082 net.cpp:148] Top shape: 24 128 28 28 (2408448)
I0403 14:52:21.459808  2082 net.cpp:156] Memory required for data: 667141152
I0403 14:52:21.459826  2082 layer_factory.hpp:77] Creating layer inception_3b/relu_1x1
I0403 14:52:21.459846  2082 net.cpp:91] Creating Layer inception_3b/relu_1x1
I0403 14:52:21.459863  2082 net.cpp:425] inception_3b/relu_1x1 <- inception_3b/1x1
I0403 14:52:21.459882  2082 net.cpp:386] inception_3b/relu_1x1 -> inception_3b/1x1 (in-place)
I0403 14:52:21.460059  2082 net.cpp:141] Setting up inception_3b/relu_1x1
I0403 14:52:21.460085  2082 net.cpp:148] Top shape: 24 128 28 28 (2408448)
I0403 14:52:21.460100  2082 net.cpp:156] Memory required for data: 676774944
I0403 14:52:21.460114  2082 layer_factory.hpp:77] Creating layer inception_3b/3x3_reduce
I0403 14:52:21.460139  2082 net.cpp:91] Creating Layer inception_3b/3x3_reduce
I0403 14:52:21.460156  2082 net.cpp:425] inception_3b/3x3_reduce <- inception_3a/output_inception_3a/output_0_split_1
I0403 14:52:21.460176  2082 net.cpp:399] inception_3b/3x3_reduce -> inception_3b/3x3_reduce
I0403 14:52:21.461338  2082 net.cpp:141] Setting up inception_3b/3x3_reduce
I0403 14:52:21.461365  2082 net.cpp:148] Top shape: 24 128 28 28 (2408448)
I0403 14:52:21.461383  2082 net.cpp:156] Memory required for data: 686408736
I0403 14:52:21.461401  2082 layer_factory.hpp:77] Creating layer inception_3b/relu_3x3_reduce
I0403 14:52:21.461422  2082 net.cpp:91] Creating Layer inception_3b/relu_3x3_reduce
I0403 14:52:21.461439  2082 net.cpp:425] inception_3b/relu_3x3_reduce <- inception_3b/3x3_reduce
I0403 14:52:21.461457  2082 net.cpp:386] inception_3b/relu_3x3_reduce -> inception_3b/3x3_reduce (in-place)
I0403 14:52:21.461637  2082 net.cpp:141] Setting up inception_3b/relu_3x3_reduce
I0403 14:52:21.461664  2082 net.cpp:148] Top shape: 24 128 28 28 (2408448)
I0403 14:52:21.461679  2082 net.cpp:156] Memory required for data: 696042528
I0403 14:52:21.461694  2082 layer_factory.hpp:77] Creating layer inception_3b/3x3
I0403 14:52:21.461719  2082 net.cpp:91] Creating Layer inception_3b/3x3
I0403 14:52:21.461736  2082 net.cpp:425] inception_3b/3x3 <- inception_3b/3x3_reduce
I0403 14:52:21.461758  2082 net.cpp:399] inception_3b/3x3 -> inception_3b/3x3
I0403 14:52:21.464828  2082 net.cpp:141] Setting up inception_3b/3x3
I0403 14:52:21.464857  2082 net.cpp:148] Top shape: 24 192 28 28 (3612672)
I0403 14:52:21.464874  2082 net.cpp:156] Memory required for data: 710493216
I0403 14:52:21.464895  2082 layer_factory.hpp:77] Creating layer inception_3b/relu_3x3
I0403 14:52:21.464915  2082 net.cpp:91] Creating Layer inception_3b/relu_3x3
I0403 14:52:21.464931  2082 net.cpp:425] inception_3b/relu_3x3 <- inception_3b/3x3
I0403 14:52:21.464951  2082 net.cpp:386] inception_3b/relu_3x3 -> inception_3b/3x3 (in-place)
I0403 14:52:21.465241  2082 net.cpp:141] Setting up inception_3b/relu_3x3
I0403 14:52:21.465270  2082 net.cpp:148] Top shape: 24 192 28 28 (3612672)
I0403 14:52:21.465286  2082 net.cpp:156] Memory required for data: 724943904
I0403 14:52:21.465301  2082 layer_factory.hpp:77] Creating layer inception_3b/5x5_reduce
I0403 14:52:21.465327  2082 net.cpp:91] Creating Layer inception_3b/5x5_reduce
I0403 14:52:21.465345  2082 net.cpp:425] inception_3b/5x5_reduce <- inception_3a/output_inception_3a/output_0_split_2
I0403 14:52:21.465365  2082 net.cpp:399] inception_3b/5x5_reduce -> inception_3b/5x5_reduce
I0403 14:52:21.466414  2082 net.cpp:141] Setting up inception_3b/5x5_reduce
I0403 14:52:21.466444  2082 net.cpp:148] Top shape: 24 32 28 28 (602112)
I0403 14:52:21.466460  2082 net.cpp:156] Memory required for data: 727352352
I0403 14:52:21.466480  2082 layer_factory.hpp:77] Creating layer inception_3b/relu_5x5_reduce
I0403 14:52:21.466501  2082 net.cpp:91] Creating Layer inception_3b/relu_5x5_reduce
I0403 14:52:21.466518  2082 net.cpp:425] inception_3b/relu_5x5_reduce <- inception_3b/5x5_reduce
I0403 14:52:21.466536  2082 net.cpp:386] inception_3b/relu_5x5_reduce -> inception_3b/5x5_reduce (in-place)
I0403 14:52:21.466737  2082 net.cpp:141] Setting up inception_3b/relu_5x5_reduce
I0403 14:52:21.466765  2082 net.cpp:148] Top shape: 24 32 28 28 (602112)
I0403 14:52:21.466781  2082 net.cpp:156] Memory required for data: 729760800
I0403 14:52:21.466796  2082 layer_factory.hpp:77] Creating layer inception_3b/5x5
I0403 14:52:21.466820  2082 net.cpp:91] Creating Layer inception_3b/5x5
I0403 14:52:21.466838  2082 net.cpp:425] inception_3b/5x5 <- inception_3b/5x5_reduce
I0403 14:52:21.466861  2082 net.cpp:399] inception_3b/5x5 -> inception_3b/5x5
I0403 14:52:21.468930  2082 net.cpp:141] Setting up inception_3b/5x5
I0403 14:52:21.468961  2082 net.cpp:148] Top shape: 24 96 28 28 (1806336)
I0403 14:52:21.468978  2082 net.cpp:156] Memory required for data: 736986144
I0403 14:52:21.468997  2082 layer_factory.hpp:77] Creating layer inception_3b/relu_5x5
I0403 14:52:21.469019  2082 net.cpp:91] Creating Layer inception_3b/relu_5x5
I0403 14:52:21.469036  2082 net.cpp:425] inception_3b/relu_5x5 <- inception_3b/5x5
I0403 14:52:21.469054  2082 net.cpp:386] inception_3b/relu_5x5 -> inception_3b/5x5 (in-place)
I0403 14:52:21.469266  2082 net.cpp:141] Setting up inception_3b/relu_5x5
I0403 14:52:21.469293  2082 net.cpp:148] Top shape: 24 96 28 28 (1806336)
I0403 14:52:21.469308  2082 net.cpp:156] Memory required for data: 744211488
I0403 14:52:21.469324  2082 layer_factory.hpp:77] Creating layer inception_3b/pool
I0403 14:52:21.469342  2082 net.cpp:91] Creating Layer inception_3b/pool
I0403 14:52:21.469359  2082 net.cpp:425] inception_3b/pool <- inception_3a/output_inception_3a/output_0_split_3
I0403 14:52:21.469377  2082 net.cpp:399] inception_3b/pool -> inception_3b/pool
I0403 14:52:21.469437  2082 net.cpp:141] Setting up inception_3b/pool
I0403 14:52:21.469462  2082 net.cpp:148] Top shape: 24 256 28 28 (4816896)
I0403 14:52:21.469477  2082 net.cpp:156] Memory required for data: 763479072
I0403 14:52:21.469492  2082 layer_factory.hpp:77] Creating layer inception_3b/pool_proj
I0403 14:52:21.469516  2082 net.cpp:91] Creating Layer inception_3b/pool_proj
I0403 14:52:21.469534  2082 net.cpp:425] inception_3b/pool_proj <- inception_3b/pool
I0403 14:52:21.469555  2082 net.cpp:399] inception_3b/pool_proj -> inception_3b/pool_proj
I0403 14:52:21.470661  2082 net.cpp:141] Setting up inception_3b/pool_proj
I0403 14:52:21.470690  2082 net.cpp:148] Top shape: 24 64 28 28 (1204224)
I0403 14:52:21.470707  2082 net.cpp:156] Memory required for data: 768295968
I0403 14:52:21.470726  2082 layer_factory.hpp:77] Creating layer inception_3b/relu_pool_proj
I0403 14:52:21.470743  2082 net.cpp:91] Creating Layer inception_3b/relu_pool_proj
I0403 14:52:21.470759  2082 net.cpp:425] inception_3b/relu_pool_proj <- inception_3b/pool_proj
I0403 14:52:21.470780  2082 net.cpp:386] inception_3b/relu_pool_proj -> inception_3b/pool_proj (in-place)
I0403 14:52:21.471191  2082 net.cpp:141] Setting up inception_3b/relu_pool_proj
I0403 14:52:21.471227  2082 net.cpp:148] Top shape: 24 64 28 28 (1204224)
I0403 14:52:21.471246  2082 net.cpp:156] Memory required for data: 773112864
I0403 14:52:21.471261  2082 layer_factory.hpp:77] Creating layer inception_3b/output
I0403 14:52:21.471279  2082 net.cpp:91] Creating Layer inception_3b/output
I0403 14:52:21.471297  2082 net.cpp:425] inception_3b/output <- inception_3b/1x1
I0403 14:52:21.471313  2082 net.cpp:425] inception_3b/output <- inception_3b/3x3
I0403 14:52:21.471330  2082 net.cpp:425] inception_3b/output <- inception_3b/5x5
I0403 14:52:21.471348  2082 net.cpp:425] inception_3b/output <- inception_3b/pool_proj
I0403 14:52:21.471365  2082 net.cpp:399] inception_3b/output -> inception_3b/output
I0403 14:52:21.471415  2082 net.cpp:141] Setting up inception_3b/output
I0403 14:52:21.471438  2082 net.cpp:148] Top shape: 24 480 28 28 (9031680)
I0403 14:52:21.471454  2082 net.cpp:156] Memory required for data: 809239584
I0403 14:52:21.471469  2082 layer_factory.hpp:77] Creating layer pool3/3x3_s2
I0403 14:52:21.471489  2082 net.cpp:91] Creating Layer pool3/3x3_s2
I0403 14:52:21.471508  2082 net.cpp:425] pool3/3x3_s2 <- inception_3b/output
I0403 14:52:21.471542  2082 net.cpp:399] pool3/3x3_s2 -> pool3/3x3_s2
I0403 14:52:21.471606  2082 net.cpp:141] Setting up pool3/3x3_s2
I0403 14:52:21.471629  2082 net.cpp:148] Top shape: 24 480 14 14 (2257920)
I0403 14:52:21.471644  2082 net.cpp:156] Memory required for data: 818271264
I0403 14:52:21.471660  2082 layer_factory.hpp:77] Creating layer pool3/3x3_s2_pool3/3x3_s2_0_split
I0403 14:52:21.471678  2082 net.cpp:91] Creating Layer pool3/3x3_s2_pool3/3x3_s2_0_split
I0403 14:52:21.471694  2082 net.cpp:425] pool3/3x3_s2_pool3/3x3_s2_0_split <- pool3/3x3_s2
I0403 14:52:21.471714  2082 net.cpp:399] pool3/3x3_s2_pool3/3x3_s2_0_split -> pool3/3x3_s2_pool3/3x3_s2_0_split_0
I0403 14:52:21.471735  2082 net.cpp:399] pool3/3x3_s2_pool3/3x3_s2_0_split -> pool3/3x3_s2_pool3/3x3_s2_0_split_1
I0403 14:52:21.471755  2082 net.cpp:399] pool3/3x3_s2_pool3/3x3_s2_0_split -> pool3/3x3_s2_pool3/3x3_s2_0_split_2
I0403 14:52:21.471776  2082 net.cpp:399] pool3/3x3_s2_pool3/3x3_s2_0_split -> pool3/3x3_s2_pool3/3x3_s2_0_split_3
I0403 14:52:21.471855  2082 net.cpp:141] Setting up pool3/3x3_s2_pool3/3x3_s2_0_split
I0403 14:52:21.471884  2082 net.cpp:148] Top shape: 24 480 14 14 (2257920)
I0403 14:52:21.471902  2082 net.cpp:148] Top shape: 24 480 14 14 (2257920)
I0403 14:52:21.471920  2082 net.cpp:148] Top shape: 24 480 14 14 (2257920)
I0403 14:52:21.471936  2082 net.cpp:148] Top shape: 24 480 14 14 (2257920)
I0403 14:52:21.471951  2082 net.cpp:156] Memory required for data: 854397984
I0403 14:52:21.471966  2082 layer_factory.hpp:77] Creating layer inception_4a/1x1
I0403 14:52:21.471989  2082 net.cpp:91] Creating Layer inception_4a/1x1
I0403 14:52:21.472007  2082 net.cpp:425] inception_4a/1x1 <- pool3/3x3_s2_pool3/3x3_s2_0_split_0
I0403 14:52:21.472029  2082 net.cpp:399] inception_4a/1x1 -> inception_4a/1x1
I0403 14:52:21.473691  2082 net.cpp:141] Setting up inception_4a/1x1
I0403 14:52:21.473721  2082 net.cpp:148] Top shape: 24 192 14 14 (903168)
I0403 14:52:21.473737  2082 net.cpp:156] Memory required for data: 858010656
I0403 14:52:21.473757  2082 layer_factory.hpp:77] Creating layer inception_4a/relu_1x1
I0403 14:52:21.473774  2082 net.cpp:91] Creating Layer inception_4a/relu_1x1
I0403 14:52:21.473790  2082 net.cpp:425] inception_4a/relu_1x1 <- inception_4a/1x1
I0403 14:52:21.473811  2082 net.cpp:386] inception_4a/relu_1x1 -> inception_4a/1x1 (in-place)
I0403 14:52:21.473996  2082 net.cpp:141] Setting up inception_4a/relu_1x1
I0403 14:52:21.474022  2082 net.cpp:148] Top shape: 24 192 14 14 (903168)
I0403 14:52:21.474037  2082 net.cpp:156] Memory required for data: 861623328
I0403 14:52:21.474052  2082 layer_factory.hpp:77] Creating layer inception_4a/3x3_reduce
I0403 14:52:21.474076  2082 net.cpp:91] Creating Layer inception_4a/3x3_reduce
I0403 14:52:21.474093  2082 net.cpp:425] inception_4a/3x3_reduce <- pool3/3x3_s2_pool3/3x3_s2_0_split_1
I0403 14:52:21.474117  2082 net.cpp:399] inception_4a/3x3_reduce -> inception_4a/3x3_reduce
I0403 14:52:21.475471  2082 net.cpp:141] Setting up inception_4a/3x3_reduce
I0403 14:52:21.475502  2082 net.cpp:148] Top shape: 24 96 14 14 (451584)
I0403 14:52:21.475519  2082 net.cpp:156] Memory required for data: 863429664
I0403 14:52:21.475545  2082 layer_factory.hpp:77] Creating layer inception_4a/relu_3x3_reduce
I0403 14:52:21.475566  2082 net.cpp:91] Creating Layer inception_4a/relu_3x3_reduce
I0403 14:52:21.475582  2082 net.cpp:425] inception_4a/relu_3x3_reduce <- inception_4a/3x3_reduce
I0403 14:52:21.475600  2082 net.cpp:386] inception_4a/relu_3x3_reduce -> inception_4a/3x3_reduce (in-place)
I0403 14:52:21.475787  2082 net.cpp:141] Setting up inception_4a/relu_3x3_reduce
I0403 14:52:21.475813  2082 net.cpp:148] Top shape: 24 96 14 14 (451584)
I0403 14:52:21.475829  2082 net.cpp:156] Memory required for data: 865236000
I0403 14:52:21.475844  2082 layer_factory.hpp:77] Creating layer inception_4a/3x3
I0403 14:52:21.475867  2082 net.cpp:91] Creating Layer inception_4a/3x3
I0403 14:52:21.475885  2082 net.cpp:425] inception_4a/3x3 <- inception_4a/3x3_reduce
I0403 14:52:21.475908  2082 net.cpp:399] inception_4a/3x3 -> inception_4a/3x3
I0403 14:52:21.478734  2082 net.cpp:141] Setting up inception_4a/3x3
I0403 14:52:21.478765  2082 net.cpp:148] Top shape: 24 208 14 14 (978432)
I0403 14:52:21.478780  2082 net.cpp:156] Memory required for data: 869149728
I0403 14:52:21.478799  2082 layer_factory.hpp:77] Creating layer inception_4a/relu_3x3
I0403 14:52:21.478821  2082 net.cpp:91] Creating Layer inception_4a/relu_3x3
I0403 14:52:21.478839  2082 net.cpp:425] inception_4a/relu_3x3 <- inception_4a/3x3
I0403 14:52:21.478857  2082 net.cpp:386] inception_4a/relu_3x3 -> inception_4a/3x3 (in-place)
I0403 14:52:21.479147  2082 net.cpp:141] Setting up inception_4a/relu_3x3
I0403 14:52:21.479176  2082 net.cpp:148] Top shape: 24 208 14 14 (978432)
I0403 14:52:21.479190  2082 net.cpp:156] Memory required for data: 873063456
I0403 14:52:21.479207  2082 layer_factory.hpp:77] Creating layer inception_4a/5x5_reduce
I0403 14:52:21.479238  2082 net.cpp:91] Creating Layer inception_4a/5x5_reduce
I0403 14:52:21.479256  2082 net.cpp:425] inception_4a/5x5_reduce <- pool3/3x3_s2_pool3/3x3_s2_0_split_2
I0403 14:52:21.479279  2082 net.cpp:399] inception_4a/5x5_reduce -> inception_4a/5x5_reduce
I0403 14:52:21.480352  2082 net.cpp:141] Setting up inception_4a/5x5_reduce
I0403 14:52:21.480381  2082 net.cpp:148] Top shape: 24 16 14 14 (75264)
I0403 14:52:21.480397  2082 net.cpp:156] Memory required for data: 873364512
I0403 14:52:21.480417  2082 layer_factory.hpp:77] Creating layer inception_4a/relu_5x5_reduce
I0403 14:52:21.480437  2082 net.cpp:91] Creating Layer inception_4a/relu_5x5_reduce
I0403 14:52:21.480455  2082 net.cpp:425] inception_4a/relu_5x5_reduce <- inception_4a/5x5_reduce
I0403 14:52:21.480473  2082 net.cpp:386] inception_4a/relu_5x5_reduce -> inception_4a/5x5_reduce (in-place)
I0403 14:52:21.480664  2082 net.cpp:141] Setting up inception_4a/relu_5x5_reduce
I0403 14:52:21.480696  2082 net.cpp:148] Top shape: 24 16 14 14 (75264)
I0403 14:52:21.480712  2082 net.cpp:156] Memory required for data: 873665568
I0403 14:52:21.480727  2082 layer_factory.hpp:77] Creating layer inception_4a/5x5
I0403 14:52:21.480751  2082 net.cpp:91] Creating Layer inception_4a/5x5
I0403 14:52:21.480768  2082 net.cpp:425] inception_4a/5x5 <- inception_4a/5x5_reduce
I0403 14:52:21.480788  2082 net.cpp:399] inception_4a/5x5 -> inception_4a/5x5
I0403 14:52:21.481946  2082 net.cpp:141] Setting up inception_4a/5x5
I0403 14:52:21.481978  2082 net.cpp:148] Top shape: 24 48 14 14 (225792)
I0403 14:52:21.481995  2082 net.cpp:156] Memory required for data: 874568736
I0403 14:52:21.482014  2082 layer_factory.hpp:77] Creating layer inception_4a/relu_5x5
I0403 14:52:21.482033  2082 net.cpp:91] Creating Layer inception_4a/relu_5x5
I0403 14:52:21.482050  2082 net.cpp:425] inception_4a/relu_5x5 <- inception_4a/5x5
I0403 14:52:21.482071  2082 net.cpp:386] inception_4a/relu_5x5 -> inception_4a/5x5 (in-place)
I0403 14:52:21.482278  2082 net.cpp:141] Setting up inception_4a/relu_5x5
I0403 14:52:21.482306  2082 net.cpp:148] Top shape: 24 48 14 14 (225792)
I0403 14:52:21.482321  2082 net.cpp:156] Memory required for data: 875471904
I0403 14:52:21.482336  2082 layer_factory.hpp:77] Creating layer inception_4a/pool
I0403 14:52:21.482367  2082 net.cpp:91] Creating Layer inception_4a/pool
I0403 14:52:21.482383  2082 net.cpp:425] inception_4a/pool <- pool3/3x3_s2_pool3/3x3_s2_0_split_3
I0403 14:52:21.482404  2082 net.cpp:399] inception_4a/pool -> inception_4a/pool
I0403 14:52:21.482467  2082 net.cpp:141] Setting up inception_4a/pool
I0403 14:52:21.482491  2082 net.cpp:148] Top shape: 24 480 14 14 (2257920)
I0403 14:52:21.482506  2082 net.cpp:156] Memory required for data: 884503584
I0403 14:52:21.482520  2082 layer_factory.hpp:77] Creating layer inception_4a/pool_proj
I0403 14:52:21.482544  2082 net.cpp:91] Creating Layer inception_4a/pool_proj
I0403 14:52:21.482561  2082 net.cpp:425] inception_4a/pool_proj <- inception_4a/pool
I0403 14:52:21.482580  2082 net.cpp:399] inception_4a/pool_proj -> inception_4a/pool_proj
I0403 14:52:21.483788  2082 net.cpp:141] Setting up inception_4a/pool_proj
I0403 14:52:21.483819  2082 net.cpp:148] Top shape: 24 64 14 14 (301056)
I0403 14:52:21.483850  2082 net.cpp:156] Memory required for data: 885707808
I0403 14:52:21.483871  2082 layer_factory.hpp:77] Creating layer inception_4a/relu_pool_proj
I0403 14:52:21.483888  2082 net.cpp:91] Creating Layer inception_4a/relu_pool_proj
I0403 14:52:21.483904  2082 net.cpp:425] inception_4a/relu_pool_proj <- inception_4a/pool_proj
I0403 14:52:21.483925  2082 net.cpp:386] inception_4a/relu_pool_proj -> inception_4a/pool_proj (in-place)
I0403 14:52:21.484223  2082 net.cpp:141] Setting up inception_4a/relu_pool_proj
I0403 14:52:21.484257  2082 net.cpp:148] Top shape: 24 64 14 14 (301056)
I0403 14:52:21.484275  2082 net.cpp:156] Memory required for data: 886912032
I0403 14:52:21.484292  2082 layer_factory.hpp:77] Creating layer inception_4a/output
I0403 14:52:21.484308  2082 net.cpp:91] Creating Layer inception_4a/output
I0403 14:52:21.484324  2082 net.cpp:425] inception_4a/output <- inception_4a/1x1
I0403 14:52:21.484341  2082 net.cpp:425] inception_4a/output <- inception_4a/3x3
I0403 14:52:21.484359  2082 net.cpp:425] inception_4a/output <- inception_4a/5x5
I0403 14:52:21.484375  2082 net.cpp:425] inception_4a/output <- inception_4a/pool_proj
I0403 14:52:21.484393  2082 net.cpp:399] inception_4a/output -> inception_4a/output
I0403 14:52:21.484439  2082 net.cpp:141] Setting up inception_4a/output
I0403 14:52:21.484463  2082 net.cpp:148] Top shape: 24 512 14 14 (2408448)
I0403 14:52:21.484478  2082 net.cpp:156] Memory required for data: 896545824
I0403 14:52:21.484493  2082 layer_factory.hpp:77] Creating layer inception_4a/output_inception_4a/output_0_split
I0403 14:52:21.484513  2082 net.cpp:91] Creating Layer inception_4a/output_inception_4a/output_0_split
I0403 14:52:21.484530  2082 net.cpp:425] inception_4a/output_inception_4a/output_0_split <- inception_4a/output
I0403 14:52:21.484547  2082 net.cpp:399] inception_4a/output_inception_4a/output_0_split -> inception_4a/output_inception_4a/output_0_split_0
I0403 14:52:21.484571  2082 net.cpp:399] inception_4a/output_inception_4a/output_0_split -> inception_4a/output_inception_4a/output_0_split_1
I0403 14:52:21.484592  2082 net.cpp:399] inception_4a/output_inception_4a/output_0_split -> inception_4a/output_inception_4a/output_0_split_2
I0403 14:52:21.484612  2082 net.cpp:399] inception_4a/output_inception_4a/output_0_split -> inception_4a/output_inception_4a/output_0_split_3
I0403 14:52:21.484633  2082 net.cpp:399] inception_4a/output_inception_4a/output_0_split -> inception_4a/output_inception_4a/output_0_split_4
I0403 14:52:21.484746  2082 net.cpp:141] Setting up inception_4a/output_inception_4a/output_0_split
I0403 14:52:21.484771  2082 net.cpp:148] Top shape: 24 512 14 14 (2408448)
I0403 14:52:21.484789  2082 net.cpp:148] Top shape: 24 512 14 14 (2408448)
I0403 14:52:21.484805  2082 net.cpp:148] Top shape: 24 512 14 14 (2408448)
I0403 14:52:21.484822  2082 net.cpp:148] Top shape: 24 512 14 14 (2408448)
I0403 14:52:21.484838  2082 net.cpp:148] Top shape: 24 512 14 14 (2408448)
I0403 14:52:21.484853  2082 net.cpp:156] Memory required for data: 944714784
I0403 14:52:21.484869  2082 layer_factory.hpp:77] Creating layer loss1/ave_pool
I0403 14:52:21.484889  2082 net.cpp:91] Creating Layer loss1/ave_pool
I0403 14:52:21.484906  2082 net.cpp:425] loss1/ave_pool <- inception_4a/output_inception_4a/output_0_split_0
I0403 14:52:21.484925  2082 net.cpp:399] loss1/ave_pool -> loss1/ave_pool
I0403 14:52:21.485153  2082 net.cpp:141] Setting up loss1/ave_pool
I0403 14:52:21.485179  2082 net.cpp:148] Top shape: 24 512 4 4 (196608)
I0403 14:52:21.485194  2082 net.cpp:156] Memory required for data: 945501216
I0403 14:52:21.485216  2082 layer_factory.hpp:77] Creating layer loss1/conv
I0403 14:52:21.485241  2082 net.cpp:91] Creating Layer loss1/conv
I0403 14:52:21.485260  2082 net.cpp:425] loss1/conv <- loss1/ave_pool
I0403 14:52:21.485280  2082 net.cpp:399] loss1/conv -> loss1/conv
I0403 14:52:21.486734  2082 net.cpp:141] Setting up loss1/conv
I0403 14:52:21.486763  2082 net.cpp:148] Top shape: 24 128 4 4 (49152)
I0403 14:52:21.486793  2082 net.cpp:156] Memory required for data: 945697824
I0403 14:52:21.486812  2082 layer_factory.hpp:77] Creating layer loss1/relu_conv
I0403 14:52:21.486834  2082 net.cpp:91] Creating Layer loss1/relu_conv
I0403 14:52:21.486850  2082 net.cpp:425] loss1/relu_conv <- loss1/conv
I0403 14:52:21.486868  2082 net.cpp:386] loss1/relu_conv -> loss1/conv (in-place)
I0403 14:52:21.487156  2082 net.cpp:141] Setting up loss1/relu_conv
I0403 14:52:21.487184  2082 net.cpp:148] Top shape: 24 128 4 4 (49152)
I0403 14:52:21.487198  2082 net.cpp:156] Memory required for data: 945894432
I0403 14:52:21.487221  2082 layer_factory.hpp:77] Creating layer loss1/fc
I0403 14:52:21.487248  2082 net.cpp:91] Creating Layer loss1/fc
I0403 14:52:21.487267  2082 net.cpp:425] loss1/fc <- loss1/conv
I0403 14:52:21.487285  2082 net.cpp:399] loss1/fc -> loss1/fc
I0403 14:52:21.505600  2082 net.cpp:141] Setting up loss1/fc
I0403 14:52:21.505656  2082 net.cpp:148] Top shape: 24 1024 (24576)
I0403 14:52:21.505672  2082 net.cpp:156] Memory required for data: 945992736
I0403 14:52:21.505692  2082 layer_factory.hpp:77] Creating layer loss1/relu_fc
I0403 14:52:21.505712  2082 net.cpp:91] Creating Layer loss1/relu_fc
I0403 14:52:21.505729  2082 net.cpp:425] loss1/relu_fc <- loss1/fc
I0403 14:52:21.505749  2082 net.cpp:386] loss1/relu_fc -> loss1/fc (in-place)
I0403 14:52:21.505957  2082 net.cpp:141] Setting up loss1/relu_fc
I0403 14:52:21.505983  2082 net.cpp:148] Top shape: 24 1024 (24576)
I0403 14:52:21.506000  2082 net.cpp:156] Memory required for data: 946091040
I0403 14:52:21.506014  2082 layer_factory.hpp:77] Creating layer loss1/drop_fc
I0403 14:52:21.506045  2082 net.cpp:91] Creating Layer loss1/drop_fc
I0403 14:52:21.506063  2082 net.cpp:425] loss1/drop_fc <- loss1/fc
I0403 14:52:21.506081  2082 net.cpp:386] loss1/drop_fc -> loss1/fc (in-place)
I0403 14:52:21.506134  2082 net.cpp:141] Setting up loss1/drop_fc
I0403 14:52:21.506160  2082 net.cpp:148] Top shape: 24 1024 (24576)
I0403 14:52:21.506175  2082 net.cpp:156] Memory required for data: 946189344
I0403 14:52:21.506192  2082 layer_factory.hpp:77] Creating layer loss1/classifier_plantvillage
I0403 14:52:21.506217  2082 net.cpp:91] Creating Layer loss1/classifier_plantvillage
I0403 14:52:21.506234  2082 net.cpp:425] loss1/classifier_plantvillage <- loss1/fc
I0403 14:52:21.506258  2082 net.cpp:399] loss1/classifier_plantvillage -> loss1/classifier_plantvillage
I0403 14:52:21.507191  2082 net.cpp:141] Setting up loss1/classifier_plantvillage
I0403 14:52:21.507226  2082 net.cpp:148] Top shape: 24 38 (912)
I0403 14:52:21.507243  2082 net.cpp:156] Memory required for data: 946192992
I0403 14:52:21.507261  2082 layer_factory.hpp:77] Creating layer loss1/classifier_plantvillage_loss1/classifier_plantvillage_0_split
I0403 14:52:21.507279  2082 net.cpp:91] Creating Layer loss1/classifier_plantvillage_loss1/classifier_plantvillage_0_split
I0403 14:52:21.507295  2082 net.cpp:425] loss1/classifier_plantvillage_loss1/classifier_plantvillage_0_split <- loss1/classifier_plantvillage
I0403 14:52:21.507316  2082 net.cpp:399] loss1/classifier_plantvillage_loss1/classifier_plantvillage_0_split -> loss1/classifier_plantvillage_loss1/classifier_plantvillage_0_split_0
I0403 14:52:21.507338  2082 net.cpp:399] loss1/classifier_plantvillage_loss1/classifier_plantvillage_0_split -> loss1/classifier_plantvillage_loss1/classifier_plantvillage_0_split_1
I0403 14:52:21.507359  2082 net.cpp:399] loss1/classifier_plantvillage_loss1/classifier_plantvillage_0_split -> loss1/classifier_plantvillage_loss1/classifier_plantvillage_0_split_2
I0403 14:52:21.507431  2082 net.cpp:141] Setting up loss1/classifier_plantvillage_loss1/classifier_plantvillage_0_split
I0403 14:52:21.507455  2082 net.cpp:148] Top shape: 24 38 (912)
I0403 14:52:21.507472  2082 net.cpp:148] Top shape: 24 38 (912)
I0403 14:52:21.507488  2082 net.cpp:148] Top shape: 24 38 (912)
I0403 14:52:21.507500  2082 net.cpp:156] Memory required for data: 946203936
I0403 14:52:21.507515  2082 layer_factory.hpp:77] Creating layer inception_4b/1x1
I0403 14:52:21.507539  2082 net.cpp:91] Creating Layer inception_4b/1x1
I0403 14:52:21.507580  2082 net.cpp:425] inception_4b/1x1 <- inception_4a/output_inception_4a/output_0_split_1
I0403 14:52:21.507601  2082 net.cpp:399] inception_4b/1x1 -> inception_4b/1x1
I0403 14:52:21.509371  2082 net.cpp:141] Setting up inception_4b/1x1
I0403 14:52:21.509400  2082 net.cpp:148] Top shape: 24 160 14 14 (752640)
I0403 14:52:21.509416  2082 net.cpp:156] Memory required for data: 949214496
I0403 14:52:21.509434  2082 layer_factory.hpp:77] Creating layer inception_4b/relu_1x1
I0403 14:52:21.509455  2082 net.cpp:91] Creating Layer inception_4b/relu_1x1
I0403 14:52:21.509472  2082 net.cpp:425] inception_4b/relu_1x1 <- inception_4b/1x1
I0403 14:52:21.509491  2082 net.cpp:386] inception_4b/relu_1x1 -> inception_4b/1x1 (in-place)
I0403 14:52:21.509675  2082 net.cpp:141] Setting up inception_4b/relu_1x1
I0403 14:52:21.509702  2082 net.cpp:148] Top shape: 24 160 14 14 (752640)
I0403 14:52:21.509717  2082 net.cpp:156] Memory required for data: 952225056
I0403 14:52:21.509732  2082 layer_factory.hpp:77] Creating layer inception_4b/3x3_reduce
I0403 14:52:21.509757  2082 net.cpp:91] Creating Layer inception_4b/3x3_reduce
I0403 14:52:21.509774  2082 net.cpp:425] inception_4b/3x3_reduce <- inception_4a/output_inception_4a/output_0_split_2
I0403 14:52:21.509793  2082 net.cpp:399] inception_4b/3x3_reduce -> inception_4b/3x3_reduce
I0403 14:52:21.511185  2082 net.cpp:141] Setting up inception_4b/3x3_reduce
I0403 14:52:21.511224  2082 net.cpp:148] Top shape: 24 112 14 14 (526848)
I0403 14:52:21.511242  2082 net.cpp:156] Memory required for data: 954332448
I0403 14:52:21.511261  2082 layer_factory.hpp:77] Creating layer inception_4b/relu_3x3_reduce
I0403 14:52:21.511279  2082 net.cpp:91] Creating Layer inception_4b/relu_3x3_reduce
I0403 14:52:21.511296  2082 net.cpp:425] inception_4b/relu_3x3_reduce <- inception_4b/3x3_reduce
I0403 14:52:21.511313  2082 net.cpp:386] inception_4b/relu_3x3_reduce -> inception_4b/3x3_reduce (in-place)
I0403 14:52:21.511606  2082 net.cpp:141] Setting up inception_4b/relu_3x3_reduce
I0403 14:52:21.511636  2082 net.cpp:148] Top shape: 24 112 14 14 (526848)
I0403 14:52:21.511651  2082 net.cpp:156] Memory required for data: 956439840
I0403 14:52:21.511667  2082 layer_factory.hpp:77] Creating layer inception_4b/3x3
I0403 14:52:21.511689  2082 net.cpp:91] Creating Layer inception_4b/3x3
I0403 14:52:21.511706  2082 net.cpp:425] inception_4b/3x3 <- inception_4b/3x3_reduce
I0403 14:52:21.511726  2082 net.cpp:399] inception_4b/3x3 -> inception_4b/3x3
I0403 14:52:21.514935  2082 net.cpp:141] Setting up inception_4b/3x3
I0403 14:52:21.514966  2082 net.cpp:148] Top shape: 24 224 14 14 (1053696)
I0403 14:52:21.514982  2082 net.cpp:156] Memory required for data: 960654624
I0403 14:52:21.515002  2082 layer_factory.hpp:77] Creating layer inception_4b/relu_3x3
I0403 14:52:21.515020  2082 net.cpp:91] Creating Layer inception_4b/relu_3x3
I0403 14:52:21.515038  2082 net.cpp:425] inception_4b/relu_3x3 <- inception_4b/3x3
I0403 14:52:21.515058  2082 net.cpp:386] inception_4b/relu_3x3 -> inception_4b/3x3 (in-place)
I0403 14:52:21.515257  2082 net.cpp:141] Setting up inception_4b/relu_3x3
I0403 14:52:21.515285  2082 net.cpp:148] Top shape: 24 224 14 14 (1053696)
I0403 14:52:21.515300  2082 net.cpp:156] Memory required for data: 964869408
I0403 14:52:21.515316  2082 layer_factory.hpp:77] Creating layer inception_4b/5x5_reduce
I0403 14:52:21.515338  2082 net.cpp:91] Creating Layer inception_4b/5x5_reduce
I0403 14:52:21.515357  2082 net.cpp:425] inception_4b/5x5_reduce <- inception_4a/output_inception_4a/output_0_split_3
I0403 14:52:21.515380  2082 net.cpp:399] inception_4b/5x5_reduce -> inception_4b/5x5_reduce
I0403 14:52:21.516549  2082 net.cpp:141] Setting up inception_4b/5x5_reduce
I0403 14:52:21.516578  2082 net.cpp:148] Top shape: 24 24 14 14 (112896)
I0403 14:52:21.516594  2082 net.cpp:156] Memory required for data: 965320992
I0403 14:52:21.516614  2082 layer_factory.hpp:77] Creating layer inception_4b/relu_5x5_reduce
I0403 14:52:21.516636  2082 net.cpp:91] Creating Layer inception_4b/relu_5x5_reduce
I0403 14:52:21.516669  2082 net.cpp:425] inception_4b/relu_5x5_reduce <- inception_4b/5x5_reduce
I0403 14:52:21.516688  2082 net.cpp:386] inception_4b/relu_5x5_reduce -> inception_4b/5x5_reduce (in-place)
I0403 14:52:21.516888  2082 net.cpp:141] Setting up inception_4b/relu_5x5_reduce
I0403 14:52:21.516916  2082 net.cpp:148] Top shape: 24 24 14 14 (112896)
I0403 14:52:21.516933  2082 net.cpp:156] Memory required for data: 965772576
I0403 14:52:21.516949  2082 layer_factory.hpp:77] Creating layer inception_4b/5x5
I0403 14:52:21.516973  2082 net.cpp:91] Creating Layer inception_4b/5x5
I0403 14:52:21.516990  2082 net.cpp:425] inception_4b/5x5 <- inception_4b/5x5_reduce
I0403 14:52:21.517010  2082 net.cpp:399] inception_4b/5x5 -> inception_4b/5x5
I0403 14:52:21.518323  2082 net.cpp:141] Setting up inception_4b/5x5
I0403 14:52:21.518352  2082 net.cpp:148] Top shape: 24 64 14 14 (301056)
I0403 14:52:21.518368  2082 net.cpp:156] Memory required for data: 966976800
I0403 14:52:21.518388  2082 layer_factory.hpp:77] Creating layer inception_4b/relu_5x5
I0403 14:52:21.518409  2082 net.cpp:91] Creating Layer inception_4b/relu_5x5
I0403 14:52:21.518426  2082 net.cpp:425] inception_4b/relu_5x5 <- inception_4b/5x5
I0403 14:52:21.518445  2082 net.cpp:386] inception_4b/relu_5x5 -> inception_4b/5x5 (in-place)
I0403 14:52:21.518743  2082 net.cpp:141] Setting up inception_4b/relu_5x5
I0403 14:52:21.518771  2082 net.cpp:148] Top shape: 24 64 14 14 (301056)
I0403 14:52:21.518787  2082 net.cpp:156] Memory required for data: 968181024
I0403 14:52:21.518802  2082 layer_factory.hpp:77] Creating layer inception_4b/pool
I0403 14:52:21.518824  2082 net.cpp:91] Creating Layer inception_4b/pool
I0403 14:52:21.518841  2082 net.cpp:425] inception_4b/pool <- inception_4a/output_inception_4a/output_0_split_4
I0403 14:52:21.518862  2082 net.cpp:399] inception_4b/pool -> inception_4b/pool
I0403 14:52:21.518931  2082 net.cpp:141] Setting up inception_4b/pool
I0403 14:52:21.518956  2082 net.cpp:148] Top shape: 24 512 14 14 (2408448)
I0403 14:52:21.518971  2082 net.cpp:156] Memory required for data: 977814816
I0403 14:52:21.518987  2082 layer_factory.hpp:77] Creating layer inception_4b/pool_proj
I0403 14:52:21.519011  2082 net.cpp:91] Creating Layer inception_4b/pool_proj
I0403 14:52:21.519028  2082 net.cpp:425] inception_4b/pool_proj <- inception_4b/pool
I0403 14:52:21.519050  2082 net.cpp:399] inception_4b/pool_proj -> inception_4b/pool_proj
I0403 14:52:21.520330  2082 net.cpp:141] Setting up inception_4b/pool_proj
I0403 14:52:21.520360  2082 net.cpp:148] Top shape: 24 64 14 14 (301056)
I0403 14:52:21.520376  2082 net.cpp:156] Memory required for data: 979019040
I0403 14:52:21.520396  2082 layer_factory.hpp:77] Creating layer inception_4b/relu_pool_proj
I0403 14:52:21.520416  2082 net.cpp:91] Creating Layer inception_4b/relu_pool_proj
I0403 14:52:21.520434  2082 net.cpp:425] inception_4b/relu_pool_proj <- inception_4b/pool_proj
I0403 14:52:21.520452  2082 net.cpp:386] inception_4b/relu_pool_proj -> inception_4b/pool_proj (in-place)
I0403 14:52:21.520653  2082 net.cpp:141] Setting up inception_4b/relu_pool_proj
I0403 14:52:21.520681  2082 net.cpp:148] Top shape: 24 64 14 14 (301056)
I0403 14:52:21.520697  2082 net.cpp:156] Memory required for data: 980223264
I0403 14:52:21.520712  2082 layer_factory.hpp:77] Creating layer inception_4b/output
I0403 14:52:21.520730  2082 net.cpp:91] Creating Layer inception_4b/output
I0403 14:52:21.520747  2082 net.cpp:425] inception_4b/output <- inception_4b/1x1
I0403 14:52:21.520764  2082 net.cpp:425] inception_4b/output <- inception_4b/3x3
I0403 14:52:21.520781  2082 net.cpp:425] inception_4b/output <- inception_4b/5x5
I0403 14:52:21.520798  2082 net.cpp:425] inception_4b/output <- inception_4b/pool_proj
I0403 14:52:21.520817  2082 net.cpp:399] inception_4b/output -> inception_4b/output
I0403 14:52:21.520867  2082 net.cpp:141] Setting up inception_4b/output
I0403 14:52:21.520891  2082 net.cpp:148] Top shape: 24 512 14 14 (2408448)
I0403 14:52:21.520906  2082 net.cpp:156] Memory required for data: 989857056
I0403 14:52:21.520936  2082 layer_factory.hpp:77] Creating layer inception_4b/output_inception_4b/output_0_split
I0403 14:52:21.520957  2082 net.cpp:91] Creating Layer inception_4b/output_inception_4b/output_0_split
I0403 14:52:21.520973  2082 net.cpp:425] inception_4b/output_inception_4b/output_0_split <- inception_4b/output
I0403 14:52:21.520992  2082 net.cpp:399] inception_4b/output_inception_4b/output_0_split -> inception_4b/output_inception_4b/output_0_split_0
I0403 14:52:21.521013  2082 net.cpp:399] inception_4b/output_inception_4b/output_0_split -> inception_4b/output_inception_4b/output_0_split_1
I0403 14:52:21.521033  2082 net.cpp:399] inception_4b/output_inception_4b/output_0_split -> inception_4b/output_inception_4b/output_0_split_2
I0403 14:52:21.521056  2082 net.cpp:399] inception_4b/output_inception_4b/output_0_split -> inception_4b/output_inception_4b/output_0_split_3
I0403 14:52:21.521145  2082 net.cpp:141] Setting up inception_4b/output_inception_4b/output_0_split
I0403 14:52:21.521170  2082 net.cpp:148] Top shape: 24 512 14 14 (2408448)
I0403 14:52:21.521188  2082 net.cpp:148] Top shape: 24 512 14 14 (2408448)
I0403 14:52:21.521203  2082 net.cpp:148] Top shape: 24 512 14 14 (2408448)
I0403 14:52:21.521227  2082 net.cpp:148] Top shape: 24 512 14 14 (2408448)
I0403 14:52:21.521244  2082 net.cpp:156] Memory required for data: 1028392224
I0403 14:52:21.521258  2082 layer_factory.hpp:77] Creating layer inception_4c/1x1
I0403 14:52:21.521282  2082 net.cpp:91] Creating Layer inception_4c/1x1
I0403 14:52:21.521301  2082 net.cpp:425] inception_4c/1x1 <- inception_4b/output_inception_4b/output_0_split_0
I0403 14:52:21.521322  2082 net.cpp:399] inception_4c/1x1 -> inception_4c/1x1
I0403 14:52:21.522855  2082 net.cpp:141] Setting up inception_4c/1x1
I0403 14:52:21.522886  2082 net.cpp:148] Top shape: 24 128 14 14 (602112)
I0403 14:52:21.522902  2082 net.cpp:156] Memory required for data: 1030800672
I0403 14:52:21.522922  2082 layer_factory.hpp:77] Creating layer inception_4c/relu_1x1
I0403 14:52:21.522940  2082 net.cpp:91] Creating Layer inception_4c/relu_1x1
I0403 14:52:21.522958  2082 net.cpp:425] inception_4c/relu_1x1 <- inception_4c/1x1
I0403 14:52:21.522979  2082 net.cpp:386] inception_4c/relu_1x1 -> inception_4c/1x1 (in-place)
I0403 14:52:21.523172  2082 net.cpp:141] Setting up inception_4c/relu_1x1
I0403 14:52:21.523198  2082 net.cpp:148] Top shape: 24 128 14 14 (602112)
I0403 14:52:21.523221  2082 net.cpp:156] Memory required for data: 1033209120
I0403 14:52:21.523238  2082 layer_factory.hpp:77] Creating layer inception_4c/3x3_reduce
I0403 14:52:21.523262  2082 net.cpp:91] Creating Layer inception_4c/3x3_reduce
I0403 14:52:21.523283  2082 net.cpp:425] inception_4c/3x3_reduce <- inception_4b/output_inception_4b/output_0_split_1
I0403 14:52:21.523306  2082 net.cpp:399] inception_4c/3x3_reduce -> inception_4c/3x3_reduce
I0403 14:52:21.525367  2082 net.cpp:141] Setting up inception_4c/3x3_reduce
I0403 14:52:21.525398  2082 net.cpp:148] Top shape: 24 128 14 14 (602112)
I0403 14:52:21.525414  2082 net.cpp:156] Memory required for data: 1035617568
I0403 14:52:21.525434  2082 layer_factory.hpp:77] Creating layer inception_4c/relu_3x3_reduce
I0403 14:52:21.525454  2082 net.cpp:91] Creating Layer inception_4c/relu_3x3_reduce
I0403 14:52:21.525472  2082 net.cpp:425] inception_4c/relu_3x3_reduce <- inception_4c/3x3_reduce
I0403 14:52:21.525490  2082 net.cpp:386] inception_4c/relu_3x3_reduce -> inception_4c/3x3_reduce (in-place)
I0403 14:52:21.525791  2082 net.cpp:141] Setting up inception_4c/relu_3x3_reduce
I0403 14:52:21.525820  2082 net.cpp:148] Top shape: 24 128 14 14 (602112)
I0403 14:52:21.525835  2082 net.cpp:156] Memory required for data: 1038026016
I0403 14:52:21.525851  2082 layer_factory.hpp:77] Creating layer inception_4c/3x3
I0403 14:52:21.525874  2082 net.cpp:91] Creating Layer inception_4c/3x3
I0403 14:52:21.525892  2082 net.cpp:425] inception_4c/3x3 <- inception_4c/3x3_reduce
I0403 14:52:21.525916  2082 net.cpp:399] inception_4c/3x3 -> inception_4c/3x3
I0403 14:52:21.529773  2082 net.cpp:141] Setting up inception_4c/3x3
I0403 14:52:21.529819  2082 net.cpp:148] Top shape: 24 256 14 14 (1204224)
I0403 14:52:21.529835  2082 net.cpp:156] Memory required for data: 1042842912
I0403 14:52:21.529870  2082 layer_factory.hpp:77] Creating layer inception_4c/relu_3x3
I0403 14:52:21.529893  2082 net.cpp:91] Creating Layer inception_4c/relu_3x3
I0403 14:52:21.529911  2082 net.cpp:425] inception_4c/relu_3x3 <- inception_4c/3x3
I0403 14:52:21.529929  2082 net.cpp:386] inception_4c/relu_3x3 -> inception_4c/3x3 (in-place)
I0403 14:52:21.530123  2082 net.cpp:141] Setting up inception_4c/relu_3x3
I0403 14:52:21.530150  2082 net.cpp:148] Top shape: 24 256 14 14 (1204224)
I0403 14:52:21.530169  2082 net.cpp:156] Memory required for data: 1047659808
I0403 14:52:21.530184  2082 layer_factory.hpp:77] Creating layer inception_4c/5x5_reduce
I0403 14:52:21.530205  2082 net.cpp:91] Creating Layer inception_4c/5x5_reduce
I0403 14:52:21.530230  2082 net.cpp:425] inception_4c/5x5_reduce <- inception_4b/output_inception_4b/output_0_split_2
I0403 14:52:21.530261  2082 net.cpp:399] inception_4c/5x5_reduce -> inception_4c/5x5_reduce
I0403 14:52:21.531424  2082 net.cpp:141] Setting up inception_4c/5x5_reduce
I0403 14:52:21.531452  2082 net.cpp:148] Top shape: 24 24 14 14 (112896)
I0403 14:52:21.531468  2082 net.cpp:156] Memory required for data: 1048111392
I0403 14:52:21.531487  2082 layer_factory.hpp:77] Creating layer inception_4c/relu_5x5_reduce
I0403 14:52:21.531509  2082 net.cpp:91] Creating Layer inception_4c/relu_5x5_reduce
I0403 14:52:21.531536  2082 net.cpp:425] inception_4c/relu_5x5_reduce <- inception_4c/5x5_reduce
I0403 14:52:21.531555  2082 net.cpp:386] inception_4c/relu_5x5_reduce -> inception_4c/5x5_reduce (in-place)
I0403 14:52:21.531751  2082 net.cpp:141] Setting up inception_4c/relu_5x5_reduce
I0403 14:52:21.531780  2082 net.cpp:148] Top shape: 24 24 14 14 (112896)
I0403 14:52:21.531796  2082 net.cpp:156] Memory required for data: 1048562976
I0403 14:52:21.531812  2082 layer_factory.hpp:77] Creating layer inception_4c/5x5
I0403 14:52:21.531836  2082 net.cpp:91] Creating Layer inception_4c/5x5
I0403 14:52:21.531853  2082 net.cpp:425] inception_4c/5x5 <- inception_4c/5x5_reduce
I0403 14:52:21.531872  2082 net.cpp:399] inception_4c/5x5 -> inception_4c/5x5
I0403 14:52:21.533174  2082 net.cpp:141] Setting up inception_4c/5x5
I0403 14:52:21.533205  2082 net.cpp:148] Top shape: 24 64 14 14 (301056)
I0403 14:52:21.533228  2082 net.cpp:156] Memory required for data: 1049767200
I0403 14:52:21.533247  2082 layer_factory.hpp:77] Creating layer inception_4c/relu_5x5
I0403 14:52:21.533265  2082 net.cpp:91] Creating Layer inception_4c/relu_5x5
I0403 14:52:21.533282  2082 net.cpp:425] inception_4c/relu_5x5 <- inception_4c/5x5
I0403 14:52:21.533304  2082 net.cpp:386] inception_4c/relu_5x5 -> inception_4c/5x5 (in-place)
I0403 14:52:21.533603  2082 net.cpp:141] Setting up inception_4c/relu_5x5
I0403 14:52:21.533633  2082 net.cpp:148] Top shape: 24 64 14 14 (301056)
I0403 14:52:21.533648  2082 net.cpp:156] Memory required for data: 1050971424
I0403 14:52:21.533664  2082 layer_factory.hpp:77] Creating layer inception_4c/pool
I0403 14:52:21.533682  2082 net.cpp:91] Creating Layer inception_4c/pool
I0403 14:52:21.533699  2082 net.cpp:425] inception_4c/pool <- inception_4b/output_inception_4b/output_0_split_3
I0403 14:52:21.533720  2082 net.cpp:399] inception_4c/pool -> inception_4c/pool
I0403 14:52:21.533787  2082 net.cpp:141] Setting up inception_4c/pool
I0403 14:52:21.533812  2082 net.cpp:148] Top shape: 24 512 14 14 (2408448)
I0403 14:52:21.533825  2082 net.cpp:156] Memory required for data: 1060605216
I0403 14:52:21.533840  2082 layer_factory.hpp:77] Creating layer inception_4c/pool_proj
I0403 14:52:21.533864  2082 net.cpp:91] Creating Layer inception_4c/pool_proj
I0403 14:52:21.533881  2082 net.cpp:425] inception_4c/pool_proj <- inception_4c/pool
I0403 14:52:21.533900  2082 net.cpp:399] inception_4c/pool_proj -> inception_4c/pool_proj
I0403 14:52:21.535166  2082 net.cpp:141] Setting up inception_4c/pool_proj
I0403 14:52:21.535194  2082 net.cpp:148] Top shape: 24 64 14 14 (301056)
I0403 14:52:21.535231  2082 net.cpp:156] Memory required for data: 1061809440
I0403 14:52:21.535251  2082 layer_factory.hpp:77] Creating layer inception_4c/relu_pool_proj
I0403 14:52:21.535272  2082 net.cpp:91] Creating Layer inception_4c/relu_pool_proj
I0403 14:52:21.535290  2082 net.cpp:425] inception_4c/relu_pool_proj <- inception_4c/pool_proj
I0403 14:52:21.535307  2082 net.cpp:386] inception_4c/relu_pool_proj -> inception_4c/pool_proj (in-place)
I0403 14:52:21.535495  2082 net.cpp:141] Setting up inception_4c/relu_pool_proj
I0403 14:52:21.535523  2082 net.cpp:148] Top shape: 24 64 14 14 (301056)
I0403 14:52:21.535538  2082 net.cpp:156] Memory required for data: 1063013664
I0403 14:52:21.535553  2082 layer_factory.hpp:77] Creating layer inception_4c/output
I0403 14:52:21.535572  2082 net.cpp:91] Creating Layer inception_4c/output
I0403 14:52:21.535586  2082 net.cpp:425] inception_4c/output <- inception_4c/1x1
I0403 14:52:21.535604  2082 net.cpp:425] inception_4c/output <- inception_4c/3x3
I0403 14:52:21.535619  2082 net.cpp:425] inception_4c/output <- inception_4c/5x5
I0403 14:52:21.535635  2082 net.cpp:425] inception_4c/output <- inception_4c/pool_proj
I0403 14:52:21.535651  2082 net.cpp:399] inception_4c/output -> inception_4c/output
I0403 14:52:21.535701  2082 net.cpp:141] Setting up inception_4c/output
I0403 14:52:21.535724  2082 net.cpp:148] Top shape: 24 512 14 14 (2408448)
I0403 14:52:21.535738  2082 net.cpp:156] Memory required for data: 1072647456
I0403 14:52:21.535753  2082 layer_factory.hpp:77] Creating layer inception_4c/output_inception_4c/output_0_split
I0403 14:52:21.535773  2082 net.cpp:91] Creating Layer inception_4c/output_inception_4c/output_0_split
I0403 14:52:21.535789  2082 net.cpp:425] inception_4c/output_inception_4c/output_0_split <- inception_4c/output
I0403 14:52:21.535806  2082 net.cpp:399] inception_4c/output_inception_4c/output_0_split -> inception_4c/output_inception_4c/output_0_split_0
I0403 14:52:21.535825  2082 net.cpp:399] inception_4c/output_inception_4c/output_0_split -> inception_4c/output_inception_4c/output_0_split_1
I0403 14:52:21.535845  2082 net.cpp:399] inception_4c/output_inception_4c/output_0_split -> inception_4c/output_inception_4c/output_0_split_2
I0403 14:52:21.535867  2082 net.cpp:399] inception_4c/output_inception_4c/output_0_split -> inception_4c/output_inception_4c/output_0_split_3
I0403 14:52:21.535959  2082 net.cpp:141] Setting up inception_4c/output_inception_4c/output_0_split
I0403 14:52:21.535982  2082 net.cpp:148] Top shape: 24 512 14 14 (2408448)
I0403 14:52:21.535998  2082 net.cpp:148] Top shape: 24 512 14 14 (2408448)
I0403 14:52:21.536015  2082 net.cpp:148] Top shape: 24 512 14 14 (2408448)
I0403 14:52:21.536031  2082 net.cpp:148] Top shape: 24 512 14 14 (2408448)
I0403 14:52:21.536044  2082 net.cpp:156] Memory required for data: 1111182624
I0403 14:52:21.536058  2082 layer_factory.hpp:77] Creating layer inception_4d/1x1
I0403 14:52:21.536082  2082 net.cpp:91] Creating Layer inception_4d/1x1
I0403 14:52:21.536099  2082 net.cpp:425] inception_4d/1x1 <- inception_4c/output_inception_4c/output_0_split_0
I0403 14:52:21.536121  2082 net.cpp:399] inception_4d/1x1 -> inception_4d/1x1
I0403 14:52:21.537554  2082 net.cpp:141] Setting up inception_4d/1x1
I0403 14:52:21.537582  2082 net.cpp:148] Top shape: 24 112 14 14 (526848)
I0403 14:52:21.537597  2082 net.cpp:156] Memory required for data: 1113290016
I0403 14:52:21.537616  2082 layer_factory.hpp:77] Creating layer inception_4d/relu_1x1
I0403 14:52:21.537634  2082 net.cpp:91] Creating Layer inception_4d/relu_1x1
I0403 14:52:21.537650  2082 net.cpp:425] inception_4d/relu_1x1 <- inception_4d/1x1
I0403 14:52:21.537670  2082 net.cpp:386] inception_4d/relu_1x1 -> inception_4d/1x1 (in-place)
I0403 14:52:21.537861  2082 net.cpp:141] Setting up inception_4d/relu_1x1
I0403 14:52:21.537886  2082 net.cpp:148] Top shape: 24 112 14 14 (526848)
I0403 14:52:21.537901  2082 net.cpp:156] Memory required for data: 1115397408
I0403 14:52:21.537916  2082 layer_factory.hpp:77] Creating layer inception_4d/3x3_reduce
I0403 14:52:21.537953  2082 net.cpp:91] Creating Layer inception_4d/3x3_reduce
I0403 14:52:21.537971  2082 net.cpp:425] inception_4d/3x3_reduce <- inception_4c/output_inception_4c/output_0_split_1
I0403 14:52:21.537993  2082 net.cpp:399] inception_4d/3x3_reduce -> inception_4d/3x3_reduce
I0403 14:52:21.539558  2082 net.cpp:141] Setting up inception_4d/3x3_reduce
I0403 14:52:21.539589  2082 net.cpp:148] Top shape: 24 144 14 14 (677376)
I0403 14:52:21.539605  2082 net.cpp:156] Memory required for data: 1118106912
I0403 14:52:21.539624  2082 layer_factory.hpp:77] Creating layer inception_4d/relu_3x3_reduce
I0403 14:52:21.539644  2082 net.cpp:91] Creating Layer inception_4d/relu_3x3_reduce
I0403 14:52:21.539659  2082 net.cpp:425] inception_4d/relu_3x3_reduce <- inception_4d/3x3_reduce
I0403 14:52:21.539680  2082 net.cpp:386] inception_4d/relu_3x3_reduce -> inception_4d/3x3_reduce (in-place)
I0403 14:52:21.539978  2082 net.cpp:141] Setting up inception_4d/relu_3x3_reduce
I0403 14:52:21.540006  2082 net.cpp:148] Top shape: 24 144 14 14 (677376)
I0403 14:52:21.540022  2082 net.cpp:156] Memory required for data: 1120816416
I0403 14:52:21.540036  2082 layer_factory.hpp:77] Creating layer inception_4d/3x3
I0403 14:52:21.540060  2082 net.cpp:91] Creating Layer inception_4d/3x3
I0403 14:52:21.540077  2082 net.cpp:425] inception_4d/3x3 <- inception_4d/3x3_reduce
I0403 14:52:21.540096  2082 net.cpp:399] inception_4d/3x3 -> inception_4d/3x3
I0403 14:52:21.544520  2082 net.cpp:141] Setting up inception_4d/3x3
I0403 14:52:21.544561  2082 net.cpp:148] Top shape: 24 288 14 14 (1354752)
I0403 14:52:21.544577  2082 net.cpp:156] Memory required for data: 1126235424
I0403 14:52:21.544597  2082 layer_factory.hpp:77] Creating layer inception_4d/relu_3x3
I0403 14:52:21.544618  2082 net.cpp:91] Creating Layer inception_4d/relu_3x3
I0403 14:52:21.544636  2082 net.cpp:425] inception_4d/relu_3x3 <- inception_4d/3x3
I0403 14:52:21.544653  2082 net.cpp:386] inception_4d/relu_3x3 -> inception_4d/3x3 (in-place)
I0403 14:52:21.544844  2082 net.cpp:141] Setting up inception_4d/relu_3x3
I0403 14:52:21.544870  2082 net.cpp:148] Top shape: 24 288 14 14 (1354752)
I0403 14:52:21.544885  2082 net.cpp:156] Memory required for data: 1131654432
I0403 14:52:21.544900  2082 layer_factory.hpp:77] Creating layer inception_4d/5x5_reduce
I0403 14:52:21.544924  2082 net.cpp:91] Creating Layer inception_4d/5x5_reduce
I0403 14:52:21.544942  2082 net.cpp:425] inception_4d/5x5_reduce <- inception_4c/output_inception_4c/output_0_split_2
I0403 14:52:21.544962  2082 net.cpp:399] inception_4d/5x5_reduce -> inception_4d/5x5_reduce
I0403 14:52:21.546151  2082 net.cpp:141] Setting up inception_4d/5x5_reduce
I0403 14:52:21.546180  2082 net.cpp:148] Top shape: 24 32 14 14 (150528)
I0403 14:52:21.546196  2082 net.cpp:156] Memory required for data: 1132256544
I0403 14:52:21.546221  2082 layer_factory.hpp:77] Creating layer inception_4d/relu_5x5_reduce
I0403 14:52:21.546244  2082 net.cpp:91] Creating Layer inception_4d/relu_5x5_reduce
I0403 14:52:21.546262  2082 net.cpp:425] inception_4d/relu_5x5_reduce <- inception_4d/5x5_reduce
I0403 14:52:21.546279  2082 net.cpp:386] inception_4d/relu_5x5_reduce -> inception_4d/5x5_reduce (in-place)
I0403 14:52:21.546473  2082 net.cpp:141] Setting up inception_4d/relu_5x5_reduce
I0403 14:52:21.546499  2082 net.cpp:148] Top shape: 24 32 14 14 (150528)
I0403 14:52:21.546514  2082 net.cpp:156] Memory required for data: 1132858656
I0403 14:52:21.546528  2082 layer_factory.hpp:77] Creating layer inception_4d/5x5
I0403 14:52:21.546551  2082 net.cpp:91] Creating Layer inception_4d/5x5
I0403 14:52:21.546569  2082 net.cpp:425] inception_4d/5x5 <- inception_4d/5x5_reduce
I0403 14:52:21.546591  2082 net.cpp:399] inception_4d/5x5 -> inception_4d/5x5
I0403 14:52:21.548121  2082 net.cpp:141] Setting up inception_4d/5x5
I0403 14:52:21.548152  2082 net.cpp:148] Top shape: 24 64 14 14 (301056)
I0403 14:52:21.548169  2082 net.cpp:156] Memory required for data: 1134062880
I0403 14:52:21.548189  2082 layer_factory.hpp:77] Creating layer inception_4d/relu_5x5
I0403 14:52:21.548229  2082 net.cpp:91] Creating Layer inception_4d/relu_5x5
I0403 14:52:21.548248  2082 net.cpp:425] inception_4d/relu_5x5 <- inception_4d/5x5
I0403 14:52:21.548265  2082 net.cpp:386] inception_4d/relu_5x5 -> inception_4d/5x5 (in-place)
I0403 14:52:21.548580  2082 net.cpp:141] Setting up inception_4d/relu_5x5
I0403 14:52:21.548611  2082 net.cpp:148] Top shape: 24 64 14 14 (301056)
I0403 14:52:21.548629  2082 net.cpp:156] Memory required for data: 1135267104
I0403 14:52:21.548643  2082 layer_factory.hpp:77] Creating layer inception_4d/pool
I0403 14:52:21.548661  2082 net.cpp:91] Creating Layer inception_4d/pool
I0403 14:52:21.548678  2082 net.cpp:425] inception_4d/pool <- inception_4c/output_inception_4c/output_0_split_3
I0403 14:52:21.548696  2082 net.cpp:399] inception_4d/pool -> inception_4d/pool
I0403 14:52:21.548768  2082 net.cpp:141] Setting up inception_4d/pool
I0403 14:52:21.548792  2082 net.cpp:148] Top shape: 24 512 14 14 (2408448)
I0403 14:52:21.548806  2082 net.cpp:156] Memory required for data: 1144900896
I0403 14:52:21.548821  2082 layer_factory.hpp:77] Creating layer inception_4d/pool_proj
I0403 14:52:21.548843  2082 net.cpp:91] Creating Layer inception_4d/pool_proj
I0403 14:52:21.548861  2082 net.cpp:425] inception_4d/pool_proj <- inception_4d/pool
I0403 14:52:21.548883  2082 net.cpp:399] inception_4d/pool_proj -> inception_4d/pool_proj
I0403 14:52:21.550704  2082 net.cpp:141] Setting up inception_4d/pool_proj
I0403 14:52:21.550734  2082 net.cpp:148] Top shape: 24 64 14 14 (301056)
I0403 14:52:21.550752  2082 net.cpp:156] Memory required for data: 1146105120
I0403 14:52:21.550771  2082 layer_factory.hpp:77] Creating layer inception_4d/relu_pool_proj
I0403 14:52:21.550791  2082 net.cpp:91] Creating Layer inception_4d/relu_pool_proj
I0403 14:52:21.550808  2082 net.cpp:425] inception_4d/relu_pool_proj <- inception_4d/pool_proj
I0403 14:52:21.550827  2082 net.cpp:386] inception_4d/relu_pool_proj -> inception_4d/pool_proj (in-place)
I0403 14:52:21.551019  2082 net.cpp:141] Setting up inception_4d/relu_pool_proj
I0403 14:52:21.551044  2082 net.cpp:148] Top shape: 24 64 14 14 (301056)
I0403 14:52:21.551060  2082 net.cpp:156] Memory required for data: 1147309344
I0403 14:52:21.551075  2082 layer_factory.hpp:77] Creating layer inception_4d/output
I0403 14:52:21.551095  2082 net.cpp:91] Creating Layer inception_4d/output
I0403 14:52:21.551112  2082 net.cpp:425] inception_4d/output <- inception_4d/1x1
I0403 14:52:21.551128  2082 net.cpp:425] inception_4d/output <- inception_4d/3x3
I0403 14:52:21.551156  2082 net.cpp:425] inception_4d/output <- inception_4d/5x5
I0403 14:52:21.551172  2082 net.cpp:425] inception_4d/output <- inception_4d/pool_proj
I0403 14:52:21.551188  2082 net.cpp:399] inception_4d/output -> inception_4d/output
I0403 14:52:21.551259  2082 net.cpp:141] Setting up inception_4d/output
I0403 14:52:21.551285  2082 net.cpp:148] Top shape: 24 528 14 14 (2483712)
I0403 14:52:21.551300  2082 net.cpp:156] Memory required for data: 1157244192
I0403 14:52:21.551313  2082 layer_factory.hpp:77] Creating layer inception_4d/output_inception_4d/output_0_split
I0403 14:52:21.551332  2082 net.cpp:91] Creating Layer inception_4d/output_inception_4d/output_0_split
I0403 14:52:21.551347  2082 net.cpp:425] inception_4d/output_inception_4d/output_0_split <- inception_4d/output
I0403 14:52:21.551368  2082 net.cpp:399] inception_4d/output_inception_4d/output_0_split -> inception_4d/output_inception_4d/output_0_split_0
I0403 14:52:21.551390  2082 net.cpp:399] inception_4d/output_inception_4d/output_0_split -> inception_4d/output_inception_4d/output_0_split_1
I0403 14:52:21.551411  2082 net.cpp:399] inception_4d/output_inception_4d/output_0_split -> inception_4d/output_inception_4d/output_0_split_2
I0403 14:52:21.551432  2082 net.cpp:399] inception_4d/output_inception_4d/output_0_split -> inception_4d/output_inception_4d/output_0_split_3
I0403 14:52:21.551456  2082 net.cpp:399] inception_4d/output_inception_4d/output_0_split -> inception_4d/output_inception_4d/output_0_split_4
I0403 14:52:21.551570  2082 net.cpp:141] Setting up inception_4d/output_inception_4d/output_0_split
I0403 14:52:21.551609  2082 net.cpp:148] Top shape: 24 528 14 14 (2483712)
I0403 14:52:21.551626  2082 net.cpp:148] Top shape: 24 528 14 14 (2483712)
I0403 14:52:21.551642  2082 net.cpp:148] Top shape: 24 528 14 14 (2483712)
I0403 14:52:21.551658  2082 net.cpp:148] Top shape: 24 528 14 14 (2483712)
I0403 14:52:21.551674  2082 net.cpp:148] Top shape: 24 528 14 14 (2483712)
I0403 14:52:21.551688  2082 net.cpp:156] Memory required for data: 1206918432
I0403 14:52:21.551703  2082 layer_factory.hpp:77] Creating layer loss2/ave_pool
I0403 14:52:21.551720  2082 net.cpp:91] Creating Layer loss2/ave_pool
I0403 14:52:21.551736  2082 net.cpp:425] loss2/ave_pool <- inception_4d/output_inception_4d/output_0_split_0
I0403 14:52:21.551759  2082 net.cpp:399] loss2/ave_pool -> loss2/ave_pool
I0403 14:52:21.552089  2082 net.cpp:141] Setting up loss2/ave_pool
I0403 14:52:21.552116  2082 net.cpp:148] Top shape: 24 528 4 4 (202752)
I0403 14:52:21.552131  2082 net.cpp:156] Memory required for data: 1207729440
I0403 14:52:21.552147  2082 layer_factory.hpp:77] Creating layer loss2/conv
I0403 14:52:21.552170  2082 net.cpp:91] Creating Layer loss2/conv
I0403 14:52:21.552187  2082 net.cpp:425] loss2/conv <- loss2/ave_pool
I0403 14:52:21.552222  2082 net.cpp:399] loss2/conv -> loss2/conv
I0403 14:52:21.554236  2082 net.cpp:141] Setting up loss2/conv
I0403 14:52:21.554273  2082 net.cpp:148] Top shape: 24 128 4 4 (49152)
I0403 14:52:21.554289  2082 net.cpp:156] Memory required for data: 1207926048
I0403 14:52:21.554311  2082 layer_factory.hpp:77] Creating layer loss2/relu_conv
I0403 14:52:21.554329  2082 net.cpp:91] Creating Layer loss2/relu_conv
I0403 14:52:21.554347  2082 net.cpp:425] loss2/relu_conv <- loss2/conv
I0403 14:52:21.554364  2082 net.cpp:386] loss2/relu_conv -> loss2/conv (in-place)
I0403 14:52:21.554677  2082 net.cpp:141] Setting up loss2/relu_conv
I0403 14:52:21.554705  2082 net.cpp:148] Top shape: 24 128 4 4 (49152)
I0403 14:52:21.554721  2082 net.cpp:156] Memory required for data: 1208122656
I0403 14:52:21.554738  2082 layer_factory.hpp:77] Creating layer loss2/fc
I0403 14:52:21.554760  2082 net.cpp:91] Creating Layer loss2/fc
I0403 14:52:21.554779  2082 net.cpp:425] loss2/fc <- loss2/conv
I0403 14:52:21.554802  2082 net.cpp:399] loss2/fc -> loss2/fc
I0403 14:52:21.573330  2082 net.cpp:141] Setting up loss2/fc
I0403 14:52:21.573385  2082 net.cpp:148] Top shape: 24 1024 (24576)
I0403 14:52:21.573401  2082 net.cpp:156] Memory required for data: 1208220960
I0403 14:52:21.573421  2082 layer_factory.hpp:77] Creating layer loss2/relu_fc
I0403 14:52:21.573443  2082 net.cpp:91] Creating Layer loss2/relu_fc
I0403 14:52:21.573462  2082 net.cpp:425] loss2/relu_fc <- loss2/fc
I0403 14:52:21.573480  2082 net.cpp:386] loss2/relu_fc -> loss2/fc (in-place)
I0403 14:52:21.573820  2082 net.cpp:141] Setting up loss2/relu_fc
I0403 14:52:21.573848  2082 net.cpp:148] Top shape: 24 1024 (24576)
I0403 14:52:21.573863  2082 net.cpp:156] Memory required for data: 1208319264
I0403 14:52:21.573878  2082 layer_factory.hpp:77] Creating layer loss2/drop_fc
I0403 14:52:21.573897  2082 net.cpp:91] Creating Layer loss2/drop_fc
I0403 14:52:21.573915  2082 net.cpp:425] loss2/drop_fc <- loss2/fc
I0403 14:52:21.573932  2082 net.cpp:386] loss2/drop_fc -> loss2/fc (in-place)
I0403 14:52:21.573983  2082 net.cpp:141] Setting up loss2/drop_fc
I0403 14:52:21.574007  2082 net.cpp:148] Top shape: 24 1024 (24576)
I0403 14:52:21.574021  2082 net.cpp:156] Memory required for data: 1208417568
I0403 14:52:21.574035  2082 layer_factory.hpp:77] Creating layer loss2/classifier_plantvillage
I0403 14:52:21.574054  2082 net.cpp:91] Creating Layer loss2/classifier_plantvillage
I0403 14:52:21.574070  2082 net.cpp:425] loss2/classifier_plantvillage <- loss2/fc
I0403 14:52:21.574091  2082 net.cpp:399] loss2/classifier_plantvillage -> loss2/classifier_plantvillage
I0403 14:52:21.574532  2082 net.cpp:141] Setting up loss2/classifier_plantvillage
I0403 14:52:21.574558  2082 net.cpp:148] Top shape: 24 38 (912)
I0403 14:52:21.574611  2082 net.cpp:156] Memory required for data: 1208421216
I0403 14:52:21.574631  2082 layer_factory.hpp:77] Creating layer loss2/classifier_plantvillage_loss2/classifier_plantvillage_0_split
I0403 14:52:21.574651  2082 net.cpp:91] Creating Layer loss2/classifier_plantvillage_loss2/classifier_plantvillage_0_split
I0403 14:52:21.574668  2082 net.cpp:425] loss2/classifier_plantvillage_loss2/classifier_plantvillage_0_split <- loss2/classifier_plantvillage
I0403 14:52:21.574688  2082 net.cpp:399] loss2/classifier_plantvillage_loss2/classifier_plantvillage_0_split -> loss2/classifier_plantvillage_loss2/classifier_plantvillage_0_split_0
I0403 14:52:21.574709  2082 net.cpp:399] loss2/classifier_plantvillage_loss2/classifier_plantvillage_0_split -> loss2/classifier_plantvillage_loss2/classifier_plantvillage_0_split_1
I0403 14:52:21.574729  2082 net.cpp:399] loss2/classifier_plantvillage_loss2/classifier_plantvillage_0_split -> loss2/classifier_plantvillage_loss2/classifier_plantvillage_0_split_2
I0403 14:52:21.574805  2082 net.cpp:141] Setting up loss2/classifier_plantvillage_loss2/classifier_plantvillage_0_split
I0403 14:52:21.574828  2082 net.cpp:148] Top shape: 24 38 (912)
I0403 14:52:21.574844  2082 net.cpp:148] Top shape: 24 38 (912)
I0403 14:52:21.574859  2082 net.cpp:148] Top shape: 24 38 (912)
I0403 14:52:21.574873  2082 net.cpp:156] Memory required for data: 1208432160
I0403 14:52:21.574888  2082 layer_factory.hpp:77] Creating layer inception_4e/1x1
I0403 14:52:21.574911  2082 net.cpp:91] Creating Layer inception_4e/1x1
I0403 14:52:21.574929  2082 net.cpp:425] inception_4e/1x1 <- inception_4d/output_inception_4d/output_0_split_1
I0403 14:52:21.574949  2082 net.cpp:399] inception_4e/1x1 -> inception_4e/1x1
I0403 14:52:21.576856  2082 net.cpp:141] Setting up inception_4e/1x1
I0403 14:52:21.576887  2082 net.cpp:148] Top shape: 24 256 14 14 (1204224)
I0403 14:52:21.576903  2082 net.cpp:156] Memory required for data: 1213249056
I0403 14:52:21.576921  2082 layer_factory.hpp:77] Creating layer inception_4e/relu_1x1
I0403 14:52:21.576938  2082 net.cpp:91] Creating Layer inception_4e/relu_1x1
I0403 14:52:21.576954  2082 net.cpp:425] inception_4e/relu_1x1 <- inception_4e/1x1
I0403 14:52:21.576972  2082 net.cpp:386] inception_4e/relu_1x1 -> inception_4e/1x1 (in-place)
I0403 14:52:21.577277  2082 net.cpp:141] Setting up inception_4e/relu_1x1
I0403 14:52:21.577306  2082 net.cpp:148] Top shape: 24 256 14 14 (1204224)
I0403 14:52:21.577322  2082 net.cpp:156] Memory required for data: 1218065952
I0403 14:52:21.577337  2082 layer_factory.hpp:77] Creating layer inception_4e/3x3_reduce
I0403 14:52:21.577358  2082 net.cpp:91] Creating Layer inception_4e/3x3_reduce
I0403 14:52:21.577376  2082 net.cpp:425] inception_4e/3x3_reduce <- inception_4d/output_inception_4d/output_0_split_2
I0403 14:52:21.577395  2082 net.cpp:399] inception_4e/3x3_reduce -> inception_4e/3x3_reduce
I0403 14:52:21.579568  2082 net.cpp:141] Setting up inception_4e/3x3_reduce
I0403 14:52:21.579598  2082 net.cpp:148] Top shape: 24 160 14 14 (752640)
I0403 14:52:21.579627  2082 net.cpp:156] Memory required for data: 1221076512
I0403 14:52:21.579645  2082 layer_factory.hpp:77] Creating layer inception_4e/relu_3x3_reduce
I0403 14:52:21.579666  2082 net.cpp:91] Creating Layer inception_4e/relu_3x3_reduce
I0403 14:52:21.579684  2082 net.cpp:425] inception_4e/relu_3x3_reduce <- inception_4e/3x3_reduce
I0403 14:52:21.579701  2082 net.cpp:386] inception_4e/relu_3x3_reduce -> inception_4e/3x3_reduce (in-place)
I0403 14:52:21.579895  2082 net.cpp:141] Setting up inception_4e/relu_3x3_reduce
I0403 14:52:21.579931  2082 net.cpp:148] Top shape: 24 160 14 14 (752640)
I0403 14:52:21.579946  2082 net.cpp:156] Memory required for data: 1224087072
I0403 14:52:21.579962  2082 layer_factory.hpp:77] Creating layer inception_4e/3x3
I0403 14:52:21.579983  2082 net.cpp:91] Creating Layer inception_4e/3x3
I0403 14:52:21.580001  2082 net.cpp:425] inception_4e/3x3 <- inception_4e/3x3_reduce
I0403 14:52:21.580023  2082 net.cpp:399] inception_4e/3x3 -> inception_4e/3x3
I0403 14:52:21.585122  2082 net.cpp:141] Setting up inception_4e/3x3
I0403 14:52:21.585167  2082 net.cpp:148] Top shape: 24 320 14 14 (1505280)
I0403 14:52:21.585185  2082 net.cpp:156] Memory required for data: 1230108192
I0403 14:52:21.585202  2082 layer_factory.hpp:77] Creating layer inception_4e/relu_3x3
I0403 14:52:21.585229  2082 net.cpp:91] Creating Layer inception_4e/relu_3x3
I0403 14:52:21.585247  2082 net.cpp:425] inception_4e/relu_3x3 <- inception_4e/3x3
I0403 14:52:21.585268  2082 net.cpp:386] inception_4e/relu_3x3 -> inception_4e/3x3 (in-place)
I0403 14:52:21.585579  2082 net.cpp:141] Setting up inception_4e/relu_3x3
I0403 14:52:21.585607  2082 net.cpp:148] Top shape: 24 320 14 14 (1505280)
I0403 14:52:21.585623  2082 net.cpp:156] Memory required for data: 1236129312
I0403 14:52:21.585638  2082 layer_factory.hpp:77] Creating layer inception_4e/5x5_reduce
I0403 14:52:21.585660  2082 net.cpp:91] Creating Layer inception_4e/5x5_reduce
I0403 14:52:21.585678  2082 net.cpp:425] inception_4e/5x5_reduce <- inception_4d/output_inception_4d/output_0_split_3
I0403 14:52:21.585701  2082 net.cpp:399] inception_4e/5x5_reduce -> inception_4e/5x5_reduce
I0403 14:52:21.586827  2082 net.cpp:141] Setting up inception_4e/5x5_reduce
I0403 14:52:21.586859  2082 net.cpp:148] Top shape: 24 32 14 14 (150528)
I0403 14:52:21.586875  2082 net.cpp:156] Memory required for data: 1236731424
I0403 14:52:21.586894  2082 layer_factory.hpp:77] Creating layer inception_4e/relu_5x5_reduce
I0403 14:52:21.586912  2082 net.cpp:91] Creating Layer inception_4e/relu_5x5_reduce
I0403 14:52:21.586928  2082 net.cpp:425] inception_4e/relu_5x5_reduce <- inception_4e/5x5_reduce
I0403 14:52:21.586946  2082 net.cpp:386] inception_4e/relu_5x5_reduce -> inception_4e/5x5_reduce (in-place)
I0403 14:52:21.587270  2082 net.cpp:141] Setting up inception_4e/relu_5x5_reduce
I0403 14:52:21.587298  2082 net.cpp:148] Top shape: 24 32 14 14 (150528)
I0403 14:52:21.587314  2082 net.cpp:156] Memory required for data: 1237333536
I0403 14:52:21.587329  2082 layer_factory.hpp:77] Creating layer inception_4e/5x5
I0403 14:52:21.587368  2082 net.cpp:91] Creating Layer inception_4e/5x5
I0403 14:52:21.587388  2082 net.cpp:425] inception_4e/5x5 <- inception_4e/5x5_reduce
I0403 14:52:21.587407  2082 net.cpp:399] inception_4e/5x5 -> inception_4e/5x5
I0403 14:52:21.589320  2082 net.cpp:141] Setting up inception_4e/5x5
I0403 14:52:21.589347  2082 net.cpp:148] Top shape: 24 128 14 14 (602112)
I0403 14:52:21.589364  2082 net.cpp:156] Memory required for data: 1239741984
I0403 14:52:21.589381  2082 layer_factory.hpp:77] Creating layer inception_4e/relu_5x5
I0403 14:52:21.589402  2082 net.cpp:91] Creating Layer inception_4e/relu_5x5
I0403 14:52:21.589419  2082 net.cpp:425] inception_4e/relu_5x5 <- inception_4e/5x5
I0403 14:52:21.589444  2082 net.cpp:386] inception_4e/relu_5x5 -> inception_4e/5x5 (in-place)
I0403 14:52:21.589643  2082 net.cpp:141] Setting up inception_4e/relu_5x5
I0403 14:52:21.589670  2082 net.cpp:148] Top shape: 24 128 14 14 (602112)
I0403 14:52:21.589685  2082 net.cpp:156] Memory required for data: 1242150432
I0403 14:52:21.589700  2082 layer_factory.hpp:77] Creating layer inception_4e/pool
I0403 14:52:21.589720  2082 net.cpp:91] Creating Layer inception_4e/pool
I0403 14:52:21.589735  2082 net.cpp:425] inception_4e/pool <- inception_4d/output_inception_4d/output_0_split_4
I0403 14:52:21.589756  2082 net.cpp:399] inception_4e/pool -> inception_4e/pool
I0403 14:52:21.589828  2082 net.cpp:141] Setting up inception_4e/pool
I0403 14:52:21.589851  2082 net.cpp:148] Top shape: 24 528 14 14 (2483712)
I0403 14:52:21.589865  2082 net.cpp:156] Memory required for data: 1252085280
I0403 14:52:21.589879  2082 layer_factory.hpp:77] Creating layer inception_4e/pool_proj
I0403 14:52:21.589901  2082 net.cpp:91] Creating Layer inception_4e/pool_proj
I0403 14:52:21.589918  2082 net.cpp:425] inception_4e/pool_proj <- inception_4e/pool
I0403 14:52:21.589939  2082 net.cpp:399] inception_4e/pool_proj -> inception_4e/pool_proj
I0403 14:52:21.591493  2082 net.cpp:141] Setting up inception_4e/pool_proj
I0403 14:52:21.591536  2082 net.cpp:148] Top shape: 24 128 14 14 (602112)
I0403 14:52:21.591552  2082 net.cpp:156] Memory required for data: 1254493728
I0403 14:52:21.591570  2082 layer_factory.hpp:77] Creating layer inception_4e/relu_pool_proj
I0403 14:52:21.591590  2082 net.cpp:91] Creating Layer inception_4e/relu_pool_proj
I0403 14:52:21.591608  2082 net.cpp:425] inception_4e/relu_pool_proj <- inception_4e/pool_proj
I0403 14:52:21.591625  2082 net.cpp:386] inception_4e/relu_pool_proj -> inception_4e/pool_proj (in-place)
I0403 14:52:21.591917  2082 net.cpp:141] Setting up inception_4e/relu_pool_proj
I0403 14:52:21.591943  2082 net.cpp:148] Top shape: 24 128 14 14 (602112)
I0403 14:52:21.591958  2082 net.cpp:156] Memory required for data: 1256902176
I0403 14:52:21.591974  2082 layer_factory.hpp:77] Creating layer inception_4e/output
I0403 14:52:21.591990  2082 net.cpp:91] Creating Layer inception_4e/output
I0403 14:52:21.592010  2082 net.cpp:425] inception_4e/output <- inception_4e/1x1
I0403 14:52:21.592025  2082 net.cpp:425] inception_4e/output <- inception_4e/3x3
I0403 14:52:21.592041  2082 net.cpp:425] inception_4e/output <- inception_4e/5x5
I0403 14:52:21.592057  2082 net.cpp:425] inception_4e/output <- inception_4e/pool_proj
I0403 14:52:21.592073  2082 net.cpp:399] inception_4e/output -> inception_4e/output
I0403 14:52:21.592136  2082 net.cpp:141] Setting up inception_4e/output
I0403 14:52:21.592166  2082 net.cpp:148] Top shape: 24 832 14 14 (3913728)
I0403 14:52:21.592182  2082 net.cpp:156] Memory required for data: 1272557088
I0403 14:52:21.592198  2082 layer_factory.hpp:77] Creating layer pool4/3x3_s2
I0403 14:52:21.592229  2082 net.cpp:91] Creating Layer pool4/3x3_s2
I0403 14:52:21.592248  2082 net.cpp:425] pool4/3x3_s2 <- inception_4e/output
I0403 14:52:21.592270  2082 net.cpp:399] pool4/3x3_s2 -> pool4/3x3_s2
I0403 14:52:21.592340  2082 net.cpp:141] Setting up pool4/3x3_s2
I0403 14:52:21.592366  2082 net.cpp:148] Top shape: 24 832 7 7 (978432)
I0403 14:52:21.592382  2082 net.cpp:156] Memory required for data: 1276470816
I0403 14:52:21.592397  2082 layer_factory.hpp:77] Creating layer pool4/3x3_s2_pool4/3x3_s2_0_split
I0403 14:52:21.592414  2082 net.cpp:91] Creating Layer pool4/3x3_s2_pool4/3x3_s2_0_split
I0403 14:52:21.592430  2082 net.cpp:425] pool4/3x3_s2_pool4/3x3_s2_0_split <- pool4/3x3_s2
I0403 14:52:21.592448  2082 net.cpp:399] pool4/3x3_s2_pool4/3x3_s2_0_split -> pool4/3x3_s2_pool4/3x3_s2_0_split_0
I0403 14:52:21.592468  2082 net.cpp:399] pool4/3x3_s2_pool4/3x3_s2_0_split -> pool4/3x3_s2_pool4/3x3_s2_0_split_1
I0403 14:52:21.592491  2082 net.cpp:399] pool4/3x3_s2_pool4/3x3_s2_0_split -> pool4/3x3_s2_pool4/3x3_s2_0_split_2
I0403 14:52:21.592514  2082 net.cpp:399] pool4/3x3_s2_pool4/3x3_s2_0_split -> pool4/3x3_s2_pool4/3x3_s2_0_split_3
I0403 14:52:21.592607  2082 net.cpp:141] Setting up pool4/3x3_s2_pool4/3x3_s2_0_split
I0403 14:52:21.592629  2082 net.cpp:148] Top shape: 24 832 7 7 (978432)
I0403 14:52:21.592646  2082 net.cpp:148] Top shape: 24 832 7 7 (978432)
I0403 14:52:21.592663  2082 net.cpp:148] Top shape: 24 832 7 7 (978432)
I0403 14:52:21.592679  2082 net.cpp:148] Top shape: 24 832 7 7 (978432)
I0403 14:52:21.592692  2082 net.cpp:156] Memory required for data: 1292125728
I0403 14:52:21.592706  2082 layer_factory.hpp:77] Creating layer inception_5a/1x1
I0403 14:52:21.592728  2082 net.cpp:91] Creating Layer inception_5a/1x1
I0403 14:52:21.592746  2082 net.cpp:425] inception_5a/1x1 <- pool4/3x3_s2_pool4/3x3_s2_0_split_0
I0403 14:52:21.592767  2082 net.cpp:399] inception_5a/1x1 -> inception_5a/1x1
I0403 14:52:21.595762  2082 net.cpp:141] Setting up inception_5a/1x1
I0403 14:52:21.595793  2082 net.cpp:148] Top shape: 24 256 7 7 (301056)
I0403 14:52:21.595808  2082 net.cpp:156] Memory required for data: 1293329952
I0403 14:52:21.595827  2082 layer_factory.hpp:77] Creating layer inception_5a/relu_1x1
I0403 14:52:21.595847  2082 net.cpp:91] Creating Layer inception_5a/relu_1x1
I0403 14:52:21.595865  2082 net.cpp:425] inception_5a/relu_1x1 <- inception_5a/1x1
I0403 14:52:21.595882  2082 net.cpp:386] inception_5a/relu_1x1 -> inception_5a/1x1 (in-place)
I0403 14:52:21.596207  2082 net.cpp:141] Setting up inception_5a/relu_1x1
I0403 14:52:21.596240  2082 net.cpp:148] Top shape: 24 256 7 7 (301056)
I0403 14:52:21.596256  2082 net.cpp:156] Memory required for data: 1294534176
I0403 14:52:21.596271  2082 layer_factory.hpp:77] Creating layer inception_5a/3x3_reduce
I0403 14:52:21.596293  2082 net.cpp:91] Creating Layer inception_5a/3x3_reduce
I0403 14:52:21.596313  2082 net.cpp:425] inception_5a/3x3_reduce <- pool4/3x3_s2_pool4/3x3_s2_0_split_1
I0403 14:52:21.596333  2082 net.cpp:399] inception_5a/3x3_reduce -> inception_5a/3x3_reduce
I0403 14:52:21.598875  2082 net.cpp:141] Setting up inception_5a/3x3_reduce
I0403 14:52:21.598906  2082 net.cpp:148] Top shape: 24 160 7 7 (188160)
I0403 14:52:21.598922  2082 net.cpp:156] Memory required for data: 1295286816
I0403 14:52:21.598939  2082 layer_factory.hpp:77] Creating layer inception_5a/relu_3x3_reduce
I0403 14:52:21.598959  2082 net.cpp:91] Creating Layer inception_5a/relu_3x3_reduce
I0403 14:52:21.598978  2082 net.cpp:425] inception_5a/relu_3x3_reduce <- inception_5a/3x3_reduce
I0403 14:52:21.598995  2082 net.cpp:386] inception_5a/relu_3x3_reduce -> inception_5a/3x3_reduce (in-place)
I0403 14:52:21.599187  2082 net.cpp:141] Setting up inception_5a/relu_3x3_reduce
I0403 14:52:21.599220  2082 net.cpp:148] Top shape: 24 160 7 7 (188160)
I0403 14:52:21.599237  2082 net.cpp:156] Memory required for data: 1296039456
I0403 14:52:21.599252  2082 layer_factory.hpp:77] Creating layer inception_5a/3x3
I0403 14:52:21.599275  2082 net.cpp:91] Creating Layer inception_5a/3x3
I0403 14:52:21.599293  2082 net.cpp:425] inception_5a/3x3 <- inception_5a/3x3_reduce
I0403 14:52:21.599318  2082 net.cpp:399] inception_5a/3x3 -> inception_5a/3x3
I0403 14:52:21.604526  2082 net.cpp:141] Setting up inception_5a/3x3
I0403 14:52:21.604557  2082 net.cpp:148] Top shape: 24 320 7 7 (376320)
I0403 14:52:21.604573  2082 net.cpp:156] Memory required for data: 1297544736
I0403 14:52:21.604593  2082 layer_factory.hpp:77] Creating layer inception_5a/relu_3x3
I0403 14:52:21.604614  2082 net.cpp:91] Creating Layer inception_5a/relu_3x3
I0403 14:52:21.604631  2082 net.cpp:425] inception_5a/relu_3x3 <- inception_5a/3x3
I0403 14:52:21.604648  2082 net.cpp:386] inception_5a/relu_3x3 -> inception_5a/3x3 (in-place)
I0403 14:52:21.604970  2082 net.cpp:141] Setting up inception_5a/relu_3x3
I0403 14:52:21.604996  2082 net.cpp:148] Top shape: 24 320 7 7 (376320)
I0403 14:52:21.605011  2082 net.cpp:156] Memory required for data: 1299050016
I0403 14:52:21.605026  2082 layer_factory.hpp:77] Creating layer inception_5a/5x5_reduce
I0403 14:52:21.605048  2082 net.cpp:91] Creating Layer inception_5a/5x5_reduce
I0403 14:52:21.605065  2082 net.cpp:425] inception_5a/5x5_reduce <- pool4/3x3_s2_pool4/3x3_s2_0_split_2
I0403 14:52:21.605087  2082 net.cpp:399] inception_5a/5x5_reduce -> inception_5a/5x5_reduce
I0403 14:52:21.606288  2082 net.cpp:141] Setting up inception_5a/5x5_reduce
I0403 14:52:21.606317  2082 net.cpp:148] Top shape: 24 32 7 7 (37632)
I0403 14:52:21.606333  2082 net.cpp:156] Memory required for data: 1299200544
I0403 14:52:21.606364  2082 layer_factory.hpp:77] Creating layer inception_5a/relu_5x5_reduce
I0403 14:52:21.606385  2082 net.cpp:91] Creating Layer inception_5a/relu_5x5_reduce
I0403 14:52:21.606402  2082 net.cpp:425] inception_5a/relu_5x5_reduce <- inception_5a/5x5_reduce
I0403 14:52:21.606420  2082 net.cpp:386] inception_5a/relu_5x5_reduce -> inception_5a/5x5_reduce (in-place)
I0403 14:52:21.606740  2082 net.cpp:141] Setting up inception_5a/relu_5x5_reduce
I0403 14:52:21.606770  2082 net.cpp:148] Top shape: 24 32 7 7 (37632)
I0403 14:52:21.606786  2082 net.cpp:156] Memory required for data: 1299351072
I0403 14:52:21.606801  2082 layer_factory.hpp:77] Creating layer inception_5a/5x5
I0403 14:52:21.606822  2082 net.cpp:91] Creating Layer inception_5a/5x5
I0403 14:52:21.606839  2082 net.cpp:425] inception_5a/5x5 <- inception_5a/5x5_reduce
I0403 14:52:21.606858  2082 net.cpp:399] inception_5a/5x5 -> inception_5a/5x5
I0403 14:52:21.608628  2082 net.cpp:141] Setting up inception_5a/5x5
I0403 14:52:21.608669  2082 net.cpp:148] Top shape: 24 128 7 7 (150528)
I0403 14:52:21.608685  2082 net.cpp:156] Memory required for data: 1299953184
I0403 14:52:21.608702  2082 layer_factory.hpp:77] Creating layer inception_5a/relu_5x5
I0403 14:52:21.608723  2082 net.cpp:91] Creating Layer inception_5a/relu_5x5
I0403 14:52:21.608739  2082 net.cpp:425] inception_5a/relu_5x5 <- inception_5a/5x5
I0403 14:52:21.608757  2082 net.cpp:386] inception_5a/relu_5x5 -> inception_5a/5x5 (in-place)
I0403 14:52:21.608948  2082 net.cpp:141] Setting up inception_5a/relu_5x5
I0403 14:52:21.608975  2082 net.cpp:148] Top shape: 24 128 7 7 (150528)
I0403 14:52:21.608990  2082 net.cpp:156] Memory required for data: 1300555296
I0403 14:52:21.609005  2082 layer_factory.hpp:77] Creating layer inception_5a/pool
I0403 14:52:21.609022  2082 net.cpp:91] Creating Layer inception_5a/pool
I0403 14:52:21.609038  2082 net.cpp:425] inception_5a/pool <- pool4/3x3_s2_pool4/3x3_s2_0_split_3
I0403 14:52:21.609058  2082 net.cpp:399] inception_5a/pool -> inception_5a/pool
I0403 14:52:21.609129  2082 net.cpp:141] Setting up inception_5a/pool
I0403 14:52:21.609153  2082 net.cpp:148] Top shape: 24 832 7 7 (978432)
I0403 14:52:21.609168  2082 net.cpp:156] Memory required for data: 1304469024
I0403 14:52:21.609182  2082 layer_factory.hpp:77] Creating layer inception_5a/pool_proj
I0403 14:52:21.609205  2082 net.cpp:91] Creating Layer inception_5a/pool_proj
I0403 14:52:21.609230  2082 net.cpp:425] inception_5a/pool_proj <- inception_5a/pool
I0403 14:52:21.609252  2082 net.cpp:399] inception_5a/pool_proj -> inception_5a/pool_proj
I0403 14:52:21.611624  2082 net.cpp:141] Setting up inception_5a/pool_proj
I0403 14:52:21.611668  2082 net.cpp:148] Top shape: 24 128 7 7 (150528)
I0403 14:52:21.611685  2082 net.cpp:156] Memory required for data: 1305071136
I0403 14:52:21.611706  2082 layer_factory.hpp:77] Creating layer inception_5a/relu_pool_proj
I0403 14:52:21.611726  2082 net.cpp:91] Creating Layer inception_5a/relu_pool_proj
I0403 14:52:21.611745  2082 net.cpp:425] inception_5a/relu_pool_proj <- inception_5a/pool_proj
I0403 14:52:21.611764  2082 net.cpp:386] inception_5a/relu_pool_proj -> inception_5a/pool_proj (in-place)
I0403 14:52:21.612085  2082 net.cpp:141] Setting up inception_5a/relu_pool_proj
I0403 14:52:21.612112  2082 net.cpp:148] Top shape: 24 128 7 7 (150528)
I0403 14:52:21.612128  2082 net.cpp:156] Memory required for data: 1305673248
I0403 14:52:21.612143  2082 layer_factory.hpp:77] Creating layer inception_5a/output
I0403 14:52:21.612160  2082 net.cpp:91] Creating Layer inception_5a/output
I0403 14:52:21.612176  2082 net.cpp:425] inception_5a/output <- inception_5a/1x1
I0403 14:52:21.612193  2082 net.cpp:425] inception_5a/output <- inception_5a/3x3
I0403 14:52:21.612221  2082 net.cpp:425] inception_5a/output <- inception_5a/5x5
I0403 14:52:21.612241  2082 net.cpp:425] inception_5a/output <- inception_5a/pool_proj
I0403 14:52:21.612262  2082 net.cpp:399] inception_5a/output -> inception_5a/output
I0403 14:52:21.612318  2082 net.cpp:141] Setting up inception_5a/output
I0403 14:52:21.612342  2082 net.cpp:148] Top shape: 24 832 7 7 (978432)
I0403 14:52:21.612356  2082 net.cpp:156] Memory required for data: 1309586976
I0403 14:52:21.612370  2082 layer_factory.hpp:77] Creating layer inception_5a/output_inception_5a/output_0_split
I0403 14:52:21.612387  2082 net.cpp:91] Creating Layer inception_5a/output_inception_5a/output_0_split
I0403 14:52:21.612403  2082 net.cpp:425] inception_5a/output_inception_5a/output_0_split <- inception_5a/output
I0403 14:52:21.612423  2082 net.cpp:399] inception_5a/output_inception_5a/output_0_split -> inception_5a/output_inception_5a/output_0_split_0
I0403 14:52:21.612445  2082 net.cpp:399] inception_5a/output_inception_5a/output_0_split -> inception_5a/output_inception_5a/output_0_split_1
I0403 14:52:21.612467  2082 net.cpp:399] inception_5a/output_inception_5a/output_0_split -> inception_5a/output_inception_5a/output_0_split_2
I0403 14:52:21.612486  2082 net.cpp:399] inception_5a/output_inception_5a/output_0_split -> inception_5a/output_inception_5a/output_0_split_3
I0403 14:52:21.612603  2082 net.cpp:141] Setting up inception_5a/output_inception_5a/output_0_split
I0403 14:52:21.612627  2082 net.cpp:148] Top shape: 24 832 7 7 (978432)
I0403 14:52:21.612644  2082 net.cpp:148] Top shape: 24 832 7 7 (978432)
I0403 14:52:21.612660  2082 net.cpp:148] Top shape: 24 832 7 7 (978432)
I0403 14:52:21.612676  2082 net.cpp:148] Top shape: 24 832 7 7 (978432)
I0403 14:52:21.612690  2082 net.cpp:156] Memory required for data: 1325241888
I0403 14:52:21.612704  2082 layer_factory.hpp:77] Creating layer inception_5b/1x1
I0403 14:52:21.612728  2082 net.cpp:91] Creating Layer inception_5b/1x1
I0403 14:52:21.612746  2082 net.cpp:425] inception_5b/1x1 <- inception_5a/output_inception_5a/output_0_split_0
I0403 14:52:21.612766  2082 net.cpp:399] inception_5b/1x1 -> inception_5b/1x1
I0403 14:52:21.616797  2082 net.cpp:141] Setting up inception_5b/1x1
I0403 14:52:21.616830  2082 net.cpp:148] Top shape: 24 384 7 7 (451584)
I0403 14:52:21.616847  2082 net.cpp:156] Memory required for data: 1327048224
I0403 14:52:21.616866  2082 layer_factory.hpp:77] Creating layer inception_5b/relu_1x1
I0403 14:52:21.616888  2082 net.cpp:91] Creating Layer inception_5b/relu_1x1
I0403 14:52:21.616904  2082 net.cpp:425] inception_5b/relu_1x1 <- inception_5b/1x1
I0403 14:52:21.616922  2082 net.cpp:386] inception_5b/relu_1x1 -> inception_5b/1x1 (in-place)
I0403 14:52:21.617260  2082 net.cpp:141] Setting up inception_5b/relu_1x1
I0403 14:52:21.617288  2082 net.cpp:148] Top shape: 24 384 7 7 (451584)
I0403 14:52:21.617305  2082 net.cpp:156] Memory required for data: 1328854560
I0403 14:52:21.617321  2082 layer_factory.hpp:77] Creating layer inception_5b/3x3_reduce
I0403 14:52:21.617344  2082 net.cpp:91] Creating Layer inception_5b/3x3_reduce
I0403 14:52:21.617363  2082 net.cpp:425] inception_5b/3x3_reduce <- inception_5a/output_inception_5a/output_0_split_1
I0403 14:52:21.617386  2082 net.cpp:399] inception_5b/3x3_reduce -> inception_5b/3x3_reduce
I0403 14:52:21.620206  2082 net.cpp:141] Setting up inception_5b/3x3_reduce
I0403 14:52:21.620244  2082 net.cpp:148] Top shape: 24 192 7 7 (225792)
I0403 14:52:21.620260  2082 net.cpp:156] Memory required for data: 1329757728
I0403 14:52:21.620278  2082 layer_factory.hpp:77] Creating layer inception_5b/relu_3x3_reduce
I0403 14:52:21.620298  2082 net.cpp:91] Creating Layer inception_5b/relu_3x3_reduce
I0403 14:52:21.620316  2082 net.cpp:425] inception_5b/relu_3x3_reduce <- inception_5b/3x3_reduce
I0403 14:52:21.620333  2082 net.cpp:386] inception_5b/relu_3x3_reduce -> inception_5b/3x3_reduce (in-place)
I0403 14:52:21.620532  2082 net.cpp:141] Setting up inception_5b/relu_3x3_reduce
I0403 14:52:21.620558  2082 net.cpp:148] Top shape: 24 192 7 7 (225792)
I0403 14:52:21.620573  2082 net.cpp:156] Memory required for data: 1330660896
I0403 14:52:21.620587  2082 layer_factory.hpp:77] Creating layer inception_5b/3x3
I0403 14:52:21.620610  2082 net.cpp:91] Creating Layer inception_5b/3x3
I0403 14:52:21.620628  2082 net.cpp:425] inception_5b/3x3 <- inception_5b/3x3_reduce
I0403 14:52:21.620650  2082 net.cpp:399] inception_5b/3x3 -> inception_5b/3x3
I0403 14:52:21.627722  2082 net.cpp:141] Setting up inception_5b/3x3
I0403 14:52:21.627753  2082 net.cpp:148] Top shape: 24 384 7 7 (451584)
I0403 14:52:21.627769  2082 net.cpp:156] Memory required for data: 1332467232
I0403 14:52:21.627789  2082 layer_factory.hpp:77] Creating layer inception_5b/relu_3x3
I0403 14:52:21.627810  2082 net.cpp:91] Creating Layer inception_5b/relu_3x3
I0403 14:52:21.627827  2082 net.cpp:425] inception_5b/relu_3x3 <- inception_5b/3x3
I0403 14:52:21.627846  2082 net.cpp:386] inception_5b/relu_3x3 -> inception_5b/3x3 (in-place)
I0403 14:52:21.628154  2082 net.cpp:141] Setting up inception_5b/relu_3x3
I0403 14:52:21.628182  2082 net.cpp:148] Top shape: 24 384 7 7 (451584)
I0403 14:52:21.628197  2082 net.cpp:156] Memory required for data: 1334273568
I0403 14:52:21.628218  2082 layer_factory.hpp:77] Creating layer inception_5b/5x5_reduce
I0403 14:52:21.628260  2082 net.cpp:91] Creating Layer inception_5b/5x5_reduce
I0403 14:52:21.628280  2082 net.cpp:425] inception_5b/5x5_reduce <- inception_5a/output_inception_5a/output_0_split_2
I0403 14:52:21.628304  2082 net.cpp:399] inception_5b/5x5_reduce -> inception_5b/5x5_reduce
I0403 14:52:21.629631  2082 net.cpp:141] Setting up inception_5b/5x5_reduce
I0403 14:52:21.629658  2082 net.cpp:148] Top shape: 24 48 7 7 (56448)
I0403 14:52:21.629673  2082 net.cpp:156] Memory required for data: 1334499360
I0403 14:52:21.629693  2082 layer_factory.hpp:77] Creating layer inception_5b/relu_5x5_reduce
I0403 14:52:21.629712  2082 net.cpp:91] Creating Layer inception_5b/relu_5x5_reduce
I0403 14:52:21.629730  2082 net.cpp:425] inception_5b/relu_5x5_reduce <- inception_5b/5x5_reduce
I0403 14:52:21.629747  2082 net.cpp:386] inception_5b/relu_5x5_reduce -> inception_5b/5x5_reduce (in-place)
I0403 14:52:21.630125  2082 net.cpp:141] Setting up inception_5b/relu_5x5_reduce
I0403 14:52:21.630151  2082 net.cpp:148] Top shape: 24 48 7 7 (56448)
I0403 14:52:21.630165  2082 net.cpp:156] Memory required for data: 1334725152
I0403 14:52:21.630180  2082 layer_factory.hpp:77] Creating layer inception_5b/5x5
I0403 14:52:21.630200  2082 net.cpp:91] Creating Layer inception_5b/5x5
I0403 14:52:21.630224  2082 net.cpp:425] inception_5b/5x5 <- inception_5b/5x5_reduce
I0403 14:52:21.630244  2082 net.cpp:399] inception_5b/5x5 -> inception_5b/5x5
I0403 14:52:21.632419  2082 net.cpp:141] Setting up inception_5b/5x5
I0403 14:52:21.632448  2082 net.cpp:148] Top shape: 24 128 7 7 (150528)
I0403 14:52:21.632464  2082 net.cpp:156] Memory required for data: 1335327264
I0403 14:52:21.632483  2082 layer_factory.hpp:77] Creating layer inception_5b/relu_5x5
I0403 14:52:21.632504  2082 net.cpp:91] Creating Layer inception_5b/relu_5x5
I0403 14:52:21.632521  2082 net.cpp:425] inception_5b/relu_5x5 <- inception_5b/5x5
I0403 14:52:21.632539  2082 net.cpp:386] inception_5b/relu_5x5 -> inception_5b/5x5 (in-place)
I0403 14:52:21.632740  2082 net.cpp:141] Setting up inception_5b/relu_5x5
I0403 14:52:21.632768  2082 net.cpp:148] Top shape: 24 128 7 7 (150528)
I0403 14:52:21.632784  2082 net.cpp:156] Memory required for data: 1335929376
I0403 14:52:21.632799  2082 layer_factory.hpp:77] Creating layer inception_5b/pool
I0403 14:52:21.632818  2082 net.cpp:91] Creating Layer inception_5b/pool
I0403 14:52:21.632835  2082 net.cpp:425] inception_5b/pool <- inception_5a/output_inception_5a/output_0_split_3
I0403 14:52:21.632856  2082 net.cpp:399] inception_5b/pool -> inception_5b/pool
I0403 14:52:21.632931  2082 net.cpp:141] Setting up inception_5b/pool
I0403 14:52:21.632956  2082 net.cpp:148] Top shape: 24 832 7 7 (978432)
I0403 14:52:21.632972  2082 net.cpp:156] Memory required for data: 1339843104
I0403 14:52:21.632987  2082 layer_factory.hpp:77] Creating layer inception_5b/pool_proj
I0403 14:52:21.633013  2082 net.cpp:91] Creating Layer inception_5b/pool_proj
I0403 14:52:21.633030  2082 net.cpp:425] inception_5b/pool_proj <- inception_5b/pool
I0403 14:52:21.633050  2082 net.cpp:399] inception_5b/pool_proj -> inception_5b/pool_proj
I0403 14:52:21.635457  2082 net.cpp:141] Setting up inception_5b/pool_proj
I0403 14:52:21.635488  2082 net.cpp:148] Top shape: 24 128 7 7 (150528)
I0403 14:52:21.635504  2082 net.cpp:156] Memory required for data: 1340445216
I0403 14:52:21.635524  2082 layer_factory.hpp:77] Creating layer inception_5b/relu_pool_proj
I0403 14:52:21.635545  2082 net.cpp:91] Creating Layer inception_5b/relu_pool_proj
I0403 14:52:21.635562  2082 net.cpp:425] inception_5b/relu_pool_proj <- inception_5b/pool_proj
I0403 14:52:21.635579  2082 net.cpp:386] inception_5b/relu_pool_proj -> inception_5b/pool_proj (in-place)
I0403 14:52:21.635895  2082 net.cpp:141] Setting up inception_5b/relu_pool_proj
I0403 14:52:21.635922  2082 net.cpp:148] Top shape: 24 128 7 7 (150528)
I0403 14:52:21.635937  2082 net.cpp:156] Memory required for data: 1341047328
I0403 14:52:21.635952  2082 layer_factory.hpp:77] Creating layer inception_5b/output
I0403 14:52:21.635973  2082 net.cpp:91] Creating Layer inception_5b/output
I0403 14:52:21.636004  2082 net.cpp:425] inception_5b/output <- inception_5b/1x1
I0403 14:52:21.636023  2082 net.cpp:425] inception_5b/output <- inception_5b/3x3
I0403 14:52:21.636040  2082 net.cpp:425] inception_5b/output <- inception_5b/5x5
I0403 14:52:21.636056  2082 net.cpp:425] inception_5b/output <- inception_5b/pool_proj
I0403 14:52:21.636073  2082 net.cpp:399] inception_5b/output -> inception_5b/output
I0403 14:52:21.636128  2082 net.cpp:141] Setting up inception_5b/output
I0403 14:52:21.636153  2082 net.cpp:148] Top shape: 24 1024 7 7 (1204224)
I0403 14:52:21.636168  2082 net.cpp:156] Memory required for data: 1345864224
I0403 14:52:21.636183  2082 layer_factory.hpp:77] Creating layer pool5/7x7_s1
I0403 14:52:21.636200  2082 net.cpp:91] Creating Layer pool5/7x7_s1
I0403 14:52:21.636224  2082 net.cpp:425] pool5/7x7_s1 <- inception_5b/output
I0403 14:52:21.636247  2082 net.cpp:399] pool5/7x7_s1 -> pool5/7x7_s1
I0403 14:52:21.636473  2082 net.cpp:141] Setting up pool5/7x7_s1
I0403 14:52:21.636499  2082 net.cpp:148] Top shape: 24 1024 1 1 (24576)
I0403 14:52:21.636514  2082 net.cpp:156] Memory required for data: 1345962528
I0403 14:52:21.636529  2082 layer_factory.hpp:77] Creating layer pool5/drop_7x7_s1
I0403 14:52:21.636555  2082 net.cpp:91] Creating Layer pool5/drop_7x7_s1
I0403 14:52:21.636572  2082 net.cpp:425] pool5/drop_7x7_s1 <- pool5/7x7_s1
I0403 14:52:21.636590  2082 net.cpp:386] pool5/drop_7x7_s1 -> pool5/7x7_s1 (in-place)
I0403 14:52:21.636643  2082 net.cpp:141] Setting up pool5/drop_7x7_s1
I0403 14:52:21.636667  2082 net.cpp:148] Top shape: 24 1024 1 1 (24576)
I0403 14:52:21.636682  2082 net.cpp:156] Memory required for data: 1346060832
I0403 14:52:21.636698  2082 layer_factory.hpp:77] Creating layer loss3/classifier_plantvillage
I0403 14:52:21.636719  2082 net.cpp:91] Creating Layer loss3/classifier_plantvillage
I0403 14:52:21.636736  2082 net.cpp:425] loss3/classifier_plantvillage <- pool5/7x7_s1
I0403 14:52:21.636754  2082 net.cpp:399] loss3/classifier_plantvillage -> loss3/classifier_plantvillage
I0403 14:52:21.637195  2082 net.cpp:141] Setting up loss3/classifier_plantvillage
I0403 14:52:21.637228  2082 net.cpp:148] Top shape: 24 38 (912)
I0403 14:52:21.637243  2082 net.cpp:156] Memory required for data: 1346064480
I0403 14:52:21.637261  2082 layer_factory.hpp:77] Creating layer loss3/classifier_plantvillage_loss3/classifier_plantvillage_0_split
I0403 14:52:21.637280  2082 net.cpp:91] Creating Layer loss3/classifier_plantvillage_loss3/classifier_plantvillage_0_split
I0403 14:52:21.637296  2082 net.cpp:425] loss3/classifier_plantvillage_loss3/classifier_plantvillage_0_split <- loss3/classifier_plantvillage
I0403 14:52:21.637317  2082 net.cpp:399] loss3/classifier_plantvillage_loss3/classifier_plantvillage_0_split -> loss3/classifier_plantvillage_loss3/classifier_plantvillage_0_split_0
I0403 14:52:21.637339  2082 net.cpp:399] loss3/classifier_plantvillage_loss3/classifier_plantvillage_0_split -> loss3/classifier_plantvillage_loss3/classifier_plantvillage_0_split_1
I0403 14:52:21.637361  2082 net.cpp:399] loss3/classifier_plantvillage_loss3/classifier_plantvillage_0_split -> loss3/classifier_plantvillage_loss3/classifier_plantvillage_0_split_2
I0403 14:52:21.637380  2082 net.cpp:399] loss3/classifier_plantvillage_loss3/classifier_plantvillage_0_split -> loss3/classifier_plantvillage_loss3/classifier_plantvillage_0_split_3
I0403 14:52:21.637487  2082 net.cpp:141] Setting up loss3/classifier_plantvillage_loss3/classifier_plantvillage_0_split
I0403 14:52:21.637513  2082 net.cpp:148] Top shape: 24 38 (912)
I0403 14:52:21.637531  2082 net.cpp:148] Top shape: 24 38 (912)
I0403 14:52:21.637545  2082 net.cpp:148] Top shape: 24 38 (912)
I0403 14:52:21.637562  2082 net.cpp:148] Top shape: 24 38 (912)
I0403 14:52:21.637575  2082 net.cpp:156] Memory required for data: 1346079072
I0403 14:52:21.637590  2082 layer_factory.hpp:77] Creating layer loss1/loss
I0403 14:52:21.637612  2082 net.cpp:91] Creating Layer loss1/loss
I0403 14:52:21.637630  2082 net.cpp:425] loss1/loss <- loss1/classifier_plantvillage_loss1/classifier_plantvillage_0_split_0
I0403 14:52:21.637661  2082 net.cpp:425] loss1/loss <- label_data_1_split_0
…
