…
I0403 13:37:15.179764 32623 net.cpp:313] The NetState phase (1) differed from the phase (0) specified by a rule in layer data
I0403 13:37:15.180924 32623 net.cpp:49] Initializing net from parameters: 
state {
  phase: TEST
}
layer {
  name: "data"
  type: "Data"
  top: "data"
  top: "label"
  include {
    phase: TEST
  }
  transform_param {
    mirror: false
    crop_size: 224
    mean_file: "/home/mohanty/data/final_dataset/lmdb/grayscale-20-80/mean.binaryproto"
  }
  data_param {
    source: "/home/mohanty/data/final_dataset/lmdb/grayscale-20-80/test_db"
    batch_size: 24
    backend: LMDB
  }
}
layer {
  name: "conv1/7x7_s2"
  type: "Convolution"
  bottom: "data"
  top: "conv1/7x7_s2"
  param {
    lr_mult: 1
    decay_mult: 1
  }
  param {
    lr_mult: 2
    decay_mult: 0
  }
  convolution_param {
    num_output: 64
    pad: 3
    kernel_size: 7
    stride: 2
    weight_filler {
      type: "xavier"
      std: 0.1
    }
    bias_filler {
      type: "constant"
      value: 0.2
    }
  }
}
layer {
  name: "conv1/relu_7x7"
  type: "ReLU"
  bottom: "conv1/7x7_s2"
  top: "conv1/7x7_s2"
}
layer {
  name: "pool1/3x3_s2"
  type: "Pooling"
  bottom: "conv1/7x7_s2"
  top: "pool1/3x3_s2"
  pooling_param {
    pool: MAX
    kernel_size: 3
    stride: 2
  }
}
layer {
  name: "pool1/norm1"
  type: "LRN"
  bottom: "pool1/3x3_s2"
  top: "pool1/norm1"
  lrn_param {
    local_size: 5
    alpha: 0.0001
    beta: 0.75
  }
}
layer {
  name: "conv2/3x3_reduce"
  type: "Convolution"
  bottom: "pool1/norm1"
  top: "conv2/3x3_reduce"
  param {
    lr_mult: 1
    decay_mult: 1
  }
  param {
    lr_mult: 2
    decay_mult: 0
  }
  convolution_param {
    num_output: 64
    kernel_size: 1
    weight_filler {
      type: "xavier"
      std: 0.1
    }
    bias_filler {
      type: "constant"
      value: 0.2
    }
  }
}
layer {
  name: "conv2/relu_3x3_reduce"
  type: "ReLU"
  bottom: "conv2/3x3_reduce"
  top: "conv2/3x3_reduce"
}
layer {
  name: "conv2/3x3"
  type: "Convolution"
  bottom: "conv2/3x3_reduce"
  top: "conv2/3x3"
  param {
    lr_mult: 1
    decay_mult: 1
  }
  param {
    lr_mult: 2
    decay_mult: 0
  }
  convolution_param {
    num_output: 192
    pad: 1
    kernel_size: 3
    weight_filler {
      type: "xavier"
      std: 0.03
    }
    bias_filler {
      type: "constant"
      value: 0.2
    }
  }
}
layer {
  name: "conv2/relu_3x3"
  type: "ReLU"
  bottom: "conv2/3x3"
  top: "conv2/3x3"
}
layer {
  name: "conv2/norm2"
  type: "LRN"
  bottom: "conv2/3x3"
  top: "conv2/norm2"
  lrn_param {
    local_size: 5
    alpha: 0.0001
    beta: 0.75
  }
}
layer {
  name: "pool2/3x3_s2"
  type: "Pooling"
  bottom: "conv2/norm2"
  top: "pool2/3x3_s2"
  pooling_param {
    pool: MAX
    kernel_size: 3
    stride: 2
  }
}
layer {
  name: "inception_3a/1x1"
  type: "Convolution"
  bottom: "pool2/3x3_s2"
  top: "inception_3a/1x1"
  param {
    lr_mult: 1
    decay_mult: 1
  }
  param {
    lr_mult: 2
    decay_mult: 0
  }
  convolution_param {
    num_output: 64
    kernel_size: 1
    weight_filler {
      type: "xavier"
      std: 0.03
    }
    bias_filler {
      type: "constant"
      value: 0.2
    }
  }
}
layer {
  name: "inception_3a/relu_1x1"
  type: "ReLU"
  bottom: "inception_3a/1x1"
  top: "inception_3a/1x1"
}
layer {
  name: "inception_3a/3x3_reduce"
  type: "Convolution"
  bottom: "pool2/3x3_s2"
  top: "inception_3a/3x3_reduce"
  param {
    lr_mult: 1
    decay_mult: 1
  }
  param {
    lr_mult: 2
    decay_mult: 0
  }
  convolution_param {
    num_output: 96
    kernel_size: 1
    weight_filler {
      type: "xavier"
      std: 0.09
    }
    bias_filler {
      type: "constant"
      value: 0.2
    }
  }
}
layer {
  name: "inception_3a/relu_3x3_reduce"
  type: "ReLU"
  bottom: "inception_3a/3x3_reduce"
  top: "inception_3a/3x3_reduce"
}
layer {
  name: "inception_3a/3x3"
  type: "Convolution"
  bottom: "inception_3a/3x3_reduce"
  top: "inception_3a/3x3"
  param {
    lr_mult: 1
    decay_mult: 1
  }
  param {
    lr_mult: 2
    decay_mult: 0
  }
  convolution_param {
    num_output: 128
    pad: 1
    kernel_size: 3
    weight_filler {
      type: "xavier"
      std: 0.03
    }
    bias_filler {
      type: "constant"
      value: 0.2
    }
  }
}
layer {
  name: "inception_3a/relu_3x3"
  type: "ReLU"
  bottom: "inception_3a/3x3"
  top: "inception_3a/3x3"
}
layer {
  name: "inception_3a/5x5_reduce"
  type: "Convolution"
  bottom: "pool2/3x3_s2"
  top: "inception_3a/5x5_reduce"
  param {
    lr_mult: 1
    decay_mult: 1
  }
  param {
    lr_mult: 2
    decay_mult: 0
  }
  convolution_param {
    num_output: 16
    kernel_size: 1
    weight_filler {
      type: "xavier"
      std: 0.2
    }
    bias_filler {
      type: "constant"
      value: 0.2
    }
  }
}
layer {
  name: "inception_3a/relu_5x5_reduce"
  type: "ReLU"
  bottom: "inception_3a/5x5_reduce"
  top: "inception_3a/5x5_reduce"
}
layer {
  name: "inception_3a/5x5"
  type: "Convolution"
  bottom: "inception_3a/5x5_reduce"
  top: "inception_3a/5x5"
  param {
    lr_mult: 1
    decay_mult: 1
  }
  param {
    lr_mult: 2
    decay_mult: 0
  }
  convolution_param {
    num_output: 32
    pad: 2
    kernel_size: 5
    weight_filler {
      type: "xavier"
      std: 0.03
    }
    bias_filler {
      type: "constant"
      value: 0.2
    }
  }
}
layer {
  name: "inception_3a/relu_5x5"
  type: "ReLU"
  bottom: "inception_3a/5x5"
  top: "inception_3a/5x5"
}
layer {
  name: "inception_3a/pool"
  type: "Pooling"
  bottom: "pool2/3x3_s2"
  top: "inception_3a/pool"
  pooling_param {
    pool: MAX
    kernel_size: 3
    stride: 1
    pad: 1
  }
}
layer {
  name: "inception_3a/pool_proj"
  type: "Convolution"
  bottom: "inception_3a/pool"
  top: "inception_3a/pool_proj"
  param {
    lr_mult: 1
    decay_mult: 1
  }
  param {
    lr_mult: 2
    decay_mult: 0
  }
  convolution_param {
    num_output: 32
    kernel_size: 1
    weight_filler {
      type: "xavier"
      std: 0.1
    }
    bias_filler {
      type: "constant"
      value: 0.2
    }
  }
}
layer {
  name: "inception_3a/relu_pool_proj"
  type: "ReLU"
  bottom: "inception_3a/pool_proj"
  top: "inception_3a/pool_proj"
}
layer {
  name: "inception_3a/output"
  type: "Concat"
  bottom: "inception_3a/1x1"
  bottom: "inception_3a/3x3"
  bottom: "inception_3a/5x5"
  bottom: "inception_3a/pool_proj"
  top: "inception_3a/output"
}
layer {
  name: "inception_3b/1x1"
  type: "Convolution"
  bottom: "inception_3a/output"
  top: "inception_3b/1x1"
  param {
    lr_mult: 1
    decay_mult: 1
  }
  param {
    lr_mult: 2
    decay_mult: 0
  }
  convolution_param {
    num_output: 128
    kernel_size: 1
    weight_filler {
      type: "xavier"
      std: 0.03
    }
    bias_filler {
      type: "constant"
      value: 0.2
    }
  }
}
layer {
  name: "inception_3b/relu_1x1"
  type: "ReLU"
  bottom: "inception_3b/1x1"
  top: "inception_3b/1x1"
}
layer {
  name: "inception_3b/3x3_reduce"
  type: "Convolution"
  bottom: "inception_3a/output"
  top: "inception_3b/3x3_reduce"
  param {
    lr_mult: 1
    decay_mult: 1
  }
  param {
    lr_mult: 2
    decay_mult: 0
  }
  convolution_param {
    num_output: 128
    kernel_size: 1
    weight_filler {
      type: "xavier"
      std: 0.09
    }
    bias_filler {
      type: "constant"
      value: 0.2
    }
  }
}
layer {
  name: "inception_3b/relu_3x3_reduce"
  type: "ReLU"
  bottom: "inception_3b/3x3_reduce"
  top: "inception_3b/3x3_reduce"
}
layer {
  name: "inception_3b/3x3"
  type: "Convolution"
  bottom: "inception_3b/3x3_reduce"
  top: "inception_3b/3x3"
  param {
    lr_mult: 1
    decay_mult: 1
  }
  param {
    lr_mult: 2
    decay_mult: 0
  }
  convolution_param {
    num_output: 192
    pad: 1
    kernel_size: 3
    weight_filler {
      type: "xavier"
      std: 0.03
    }
    bias_filler {
      type: "constant"
      value: 0.2
    }
  }
}
layer {
  name: "inception_3b/relu_3x3"
  type: "ReLU"
  bottom: "inception_3b/3x3"
  top: "inception_3b/3x3"
}
layer {
  name: "inception_3b/5x5_reduce"
  type: "Convolution"
  bottom: "inception_3a/output"
  top: "inception_3b/5x5_reduce"
  param {
    lr_mult: 1
    decay_mult: 1
  }
  param {
    lr_mult: 2
    decay_mult: 0
  }
  convolution_param {
    num_output: 32
    kernel_size: 1
    weight_filler {
      type: "xavier"
      std: 0.2
    }
    bias_filler {
      type: "constant"
      value: 0.2
    }
  }
}
layer {
  name: "inception_3b/relu_5x5_reduce"
  type: "ReLU"
  bottom: "inception_3b/5x5_reduce"
  top: "inception_3b/5x5_reduce"
}
layer {
  name: "inception_3b/5x5"
  type: "Convolution"
  bottom: "inception_3b/5x5_reduce"
  top: "inception_3b/5x5"
  param {
    lr_mult: 1
    decay_mult: 1
  }
  param {
    lr_mult: 2
    decay_mult: 0
  }
  convolution_param {
    num_output: 96
    pad: 2
    kernel_size: 5
    weight_filler {
      type: "xavier"
      std: 0.03
    }
    bias_filler {
      type: "constant"
      value: 0.2
    }
  }
}
layer {
  name: "inception_3b/relu_5x5"
  type: "ReLU"
  bottom: "inception_3b/5x5"
  top: "inception_3b/5x5"
}
layer {
  name: "inception_3b/pool"
  type: "Pooling"
  bottom: "inception_3a/output"
  top: "inception_3b/pool"
  pooling_param {
    pool: MAX
    kernel_size: 3
    stride: 1
    pad: 1
  }
}
layer {
  name: "inception_3b/pool_proj"
  type: "Convolution"
  bottom: "inception_3b/pool"
  top: "inception_3b/pool_proj"
  param {
    lr_mult: 1
    decay_mult: 1
  }
  param {
    lr_mult: 2
    decay_mult: 0
  }
  convolution_param {
    num_output: 64
    kernel_size: 1
    weight_filler {
      type: "xavier"
      std: 0.1
    }
    bias_filler {
      type: "constant"
      value: 0.2
    }
  }
}
layer {
  name: "inception_3b/relu_pool_proj"
  type: "ReLU"
  bottom: "inception_3b/pool_proj"
  top: "inception_3b/pool_proj"
}
layer {
  name: "inception_3b/output"
  type: "Concat"
  bottom: "inception_3b/1x1"
  bottom: "inception_3b/3x3"
  bottom: "inception_3b/5x5"
  bottom: "inception_3b/pool_proj"
  top: "inception_3b/output"
}
layer {
  name: "pool3/3x3_s2"
  type: "Pooling"
  bottom: "inception_3b/output"
  top: "pool3/3x3_s2"
  pooling_param {
    pool: MAX
    kernel_size: 3
    stride: 2
  }
}
layer {
  name: "inception_4a/1x1"
  type: "Convolution"
  bottom: "pool3/3x3_s2"
  top: "inception_4a/1x1"
  param {
    lr_mult: 1
    decay_mult: 1
  }
  param {
    lr_mult: 2
    decay_mult: 0
  }
  convolution_param {
    num_output: 192
    kernel_size: 1
    weight_filler {
      type: "xavier"
      std: 0.03
    }
    bias_filler {
      type: "constant"
      value: 0.2
    }
  }
}
layer {
  name: "inception_4a/relu_1x1"
  type: "ReLU"
  bottom: "inception_4a/1x1"
  top: "inception_4a/1x1"
}
layer {
  name: "inception_4a/3x3_reduce"
  type: "Convolution"
  bottom: "pool3/3x3_s2"
  top: "inception_4a/3x3_reduce"
  param {
    lr_mult: 1
    decay_mult: 1
  }
  param {
    lr_mult: 2
    decay_mult: 0
  }
  convolution_param {
    num_output: 96
    kernel_size: 1
    weight_filler {
      type: "xavier"
      std: 0.09
    }
    bias_filler {
      type: "constant"
      value: 0.2
    }
  }
}
layer {
  name: "inception_4a/relu_3x3_reduce"
  type: "ReLU"
  bottom: "inception_4a/3x3_reduce"
  top: "inception_4a/3x3_reduce"
}
layer {
  name: "inception_4a/3x3"
  type: "Convolution"
  bottom: "inception_4a/3x3_reduce"
  top: "inception_4a/3x3"
  param {
    lr_mult: 1
    decay_mult: 1
  }
  param {
    lr_mult: 2
    decay_mult: 0
  }
  convolution_param {
    num_output: 208
    pad: 1
    kernel_size: 3
    weight_filler {
      type: "xavier"
      std: 0.03
    }
    bias_filler {
      type: "constant"
      value: 0.2
    }
  }
}
layer {
  name: "inception_4a/relu_3x3"
  type: "ReLU"
  bottom: "inception_4a/3x3"
  top: "inception_4a/3x3"
}
layer {
  name: "inception_4a/5x5_reduce"
  type: "Convolution"
  bottom: "pool3/3x3_s2"
  top: "inception_4a/5x5_reduce"
  param {
    lr_mult: 1
    decay_mult: 1
  }
  param {
    lr_mult: 2
    decay_mult: 0
  }
  convolution_param {
    num_output: 16
    kernel_size: 1
    weight_filler {
      type: "xavier"
      std: 0.2
    }
    bias_filler {
      type: "constant"
      value: 0.2
    }
  }
}
layer {
  name: "inception_4a/relu_5x5_reduce"
  type: "ReLU"
  bottom: "inception_4a/5x5_reduce"
  top: "inception_4a/5x5_reduce"
}
layer {
  name: "inception_4a/5x5"
  type: "Convolution"
  bottom: "inception_4a/5x5_reduce"
  top: "inception_4a/5x5"
  param {
    lr_mult: 1
    decay_mult: 1
  }
  param {
    lr_mult: 2
    decay_mult: 0
  }
  convolution_param {
    num_output: 48
    pad: 2
    kernel_size: 5
    weight_filler {
      type: "xavier"
      std: 0.03
    }
    bias_filler {
      type: "constant"
      value: 0.2
    }
  }
}
layer {
  name: "inception_4a/relu_5x5"
  type: "ReLU"
  bottom: "inception_4a/5x5"
  top: "inception_4a/5x5"
}
layer {
  name: "inception_4a/pool"
  type: "Pooling"
  bottom: "pool3/3x3_s2"
  top: "inception_4a/pool"
  pooling_param {
    pool: MAX
    kernel_size: 3
    stride: 1
    pad: 1
  }
}
layer {
  name: "inception_4a/pool_proj"
  type: "Convolution"
  bottom: "inception_4a/pool"
  top: "inception_4a/pool_proj"
  param {
    lr_mult: 1
    decay_mult: 1
  }
  param {
    lr_mult: 2
    decay_mult: 0
  }
  convolution_param {
    num_output: 64
    kernel_size: 1
    weight_filler {
      type: "xavier"
      std: 0.1
    }
    bias_filler {
      type: "constant"
      value: 0.2
    }
  }
}
layer {
  name: "inception_4a/relu_pool_proj"
  type: "ReLU"
  bottom: "inception_4a/pool_proj"
  top: "inception_4a/pool_proj"
}
layer {
  name: "inception_4a/output"
  type: "Concat"
  bottom: "inception_4a/1x1"
  bottom: "inception_4a/3x3"
  bottom: "inception_4a/5x5"
  bottom: "inception_4a/pool_proj"
  top: "inception_4a/output"
}
layer {
  name: "loss1/ave_pool"
  type: "Pooling"
  bottom: "inception_4a/output"
  top: "loss1/ave_pool"
  pooling_param {
    pool: AVE
    kernel_size: 5
    stride: 3
  }
}
layer {
  name: "loss1/conv"
  type: "Convolution"
  bottom: "loss1/ave_pool"
  top: "loss1/conv"
  param {
    lr_mult: 1
    decay_mult: 1
  }
  param {
    lr_mult: 2
    decay_mult: 0
  }
  convolution_param {
    num_output: 128
    kernel_size: 1
    weight_filler {
      type: "xavier"
      std: 0.08
    }
    bias_filler {
      type: "constant"
      value: 0.2
    }
  }
}
layer {
  name: "loss1/relu_conv"
  type: "ReLU"
  bottom: "loss1/conv"
  top: "loss1/conv"
}
layer {
  name: "loss1/fc"
  type: "InnerProduct"
  bottom: "loss1/conv"
  top: "loss1/fc"
  param {
    lr_mult: 1
    decay_mult: 1
  }
  param {
    lr_mult: 2
    decay_mult: 0
  }
  inner_product_param {
    num_output: 1024
    weight_filler {
      type: "xavier"
      std: 0.02
    }
    bias_filler {
      type: "constant"
      value: 0.2
    }
  }
}
layer {
  name: "loss1/relu_fc"
  type: "ReLU"
  bottom: "loss1/fc"
  top: "loss1/fc"
}
layer {
  name: "loss1/drop_fc"
  type: "Dropout"
  bottom: "loss1/fc"
  top: "loss1/fc"
  dropout_param {
    dropout_ratio: 0.7
  }
}
layer {
  name: "loss1/classifier_plantvillage"
  type: "InnerProduct"
  bottom: "loss1/fc"
  top: "loss1/classifier_plantvillage"
  param {
    lr_mult: 1
    decay_mult: 1
  }
  param {
    lr_mult: 2
    decay_mult: 0
  }
  inner_product_param {
    num_output: 38
    weight_filler {
      type: "xavier"
      std: 0.0009765625
    }
    bias_filler {
      type: "constant"
      value: 0
    }
  }
}
layer {
  name: "inception_4b/1x1"
  type: "Convolution"
  bottom: "inception_4a/output"
  top: "inception_4b/1x1"
  param {
    lr_mult: 1
    decay_mult: 1
  }
  param {
    lr_mult: 2
    decay_mult: 0
  }
  convolution_param {
    num_output: 160
    kernel_size: 1
    weight_filler {
      type: "xavier"
      std: 0.03
    }
    bias_filler {
      type: "constant"
      value: 0.2
    }
  }
}
layer {
  name: "inception_4b/relu_1x1"
  type: "ReLU"
  bottom: "inception_4b/1x1"
  top: "inception_4b/1x1"
}
layer {
  name: "inception_4b/3x3_reduce"
  type: "Convolution"
  bottom: "inception_4a/output"
  top: "inception_4b/3x3_reduce"
  param {
    lr_mult: 1
    decay_mult: 1
  }
  param {
    lr_mult: 2
    decay_mult: 0
  }
  convolution_param {
    num_output: 112
    kernel_size: 1
    weight_filler {
      type: "xavier"
      std: 0.09
    }
    bias_filler {
      type: "constant"
      value: 0.2
    }
  }
}
layer {
  name: "inception_4b/relu_3x3_reduce"
  type: "ReLU"
  bottom: "inception_4b/3x3_reduce"
  top: "inception_4b/3x3_reduce"
}
layer {
  name: "inception_4b/3x3"
  type: "Convolution"
  bottom: "inception_4b/3x3_reduce"
  top: "inception_4b/3x3"
  param {
    lr_mult: 1
    decay_mult: 1
  }
  param {
    lr_mult: 2
    decay_mult: 0
  }
  convolution_param {
    num_output: 224
    pad: 1
    kernel_size: 3
    weight_filler {
      type: "xavier"
      std: 0.03
    }
    bias_filler {
      type: "constant"
      value: 0.2
    }
  }
}
layer {
  name: "inception_4b/relu_3x3"
  type: "ReLU"
  bottom: "inception_4b/3x3"
  top: "inception_4b/3x3"
}
layer {
  name: "inception_4b/5x5_reduce"
  type: "Convolution"
  bottom: "inception_4a/output"
  top: "inception_4b/5x5_reduce"
  param {
    lr_mult: 1
    decay_mult: 1
  }
  param {
    lr_mult: 2
    decay_mult: 0
  }
  convolution_param {
    num_output: 24
    kernel_size: 1
    weight_filler {
      type: "xavier"
      std: 0.2
    }
    bias_filler {
      type: "constant"
      value: 0.2
    }
  }
}
layer {
  name: "inception_4b/relu_5x5_reduce"
  type: "ReLU"
  bottom: "inception_4b/5x5_reduce"
  top: "inception_4b/5x5_reduce"
}
layer {
  name: "inception_4b/5x5"
  type: "Convolution"
  bottom: "inception_4b/5x5_reduce"
  top: "inception_4b/5x5"
  param {
    lr_mult: 1
    decay_mult: 1
  }
  param {
    lr_mult: 2
    decay_mult: 0
  }
  convolution_param {
    num_output: 64
    pad: 2
    kernel_size: 5
    weight_filler {
      type: "xavier"
      std: 0.03
    }
    bias_filler {
      type: "constant"
      value: 0.2
    }
  }
}
layer {
  name: "inception_4b/relu_5x5"
  type: "ReLU"
  bottom: "inception_4b/5x5"
  top: "inception_4b/5x5"
}
layer {
  name: "inception_4b/pool"
  type: "Pooling"
  bottom: "inception_4a/output"
  top: "inception_4b/pool"
  pooling_param {
    pool: MAX
    kernel_size: 3
    stride: 1
    pad: 1
  }
}
layer {
  name: "inception_4b/pool_proj"
  type: "Convolution"
  bottom: "inception_4b/pool"
  top: "inception_4b/pool_proj"
  param {
    lr_mult: 1
    decay_mult: 1
  }
  param {
    lr_mult: 2
    decay_mult: 0
  }
  convolution_param {
    num_output: 64
    kernel_size: 1
    weight_filler {
      type: "xavier"
      std: 0.1
    }
    bias_filler {
      type: "constant"
      value: 0.2
    }
  }
}
layer {
  name: "inception_4b/relu_pool_proj"
  type: "ReLU"
  bottom: "inception_4b/pool_proj"
  top: "inception_4b/pool_proj"
}
layer {
  name: "inception_4b/output"
  type: "Concat"
  bottom: "inception_4b/1x1"
  bottom: "inception_4b/3x3"
  bottom: "inception_4b/5x5"
  bottom: "inception_4b/pool_proj"
  top: "inception_4b/output"
}
layer {
  name: "inception_4c/1x1"
  type: "Convolution"
  bottom: "inception_4b/output"
  top: "inception_4c/1x1"
  param {
    lr_mult: 1
    decay_mult: 1
  }
  param {
    lr_mult: 2
    decay_mult: 0
  }
  convolution_param {
    num_output: 128
    kernel_size: 1
    weight_filler {
      type: "xavier"
      std: 0.03
    }
    bias_filler {
      type: "constant"
      value: 0.2
    }
  }
}
layer {
  name: "inception_4c/relu_1x1"
  type: "ReLU"
  bottom: "inception_4c/1x1"
  top: "inception_4c/1x1"
}
layer {
  name: "inception_4c/3x3_reduce"
  type: "Convolution"
  bottom: "inception_4b/output"
  top: "inception_4c/3x3_reduce"
  param {
    lr_mult: 1
    decay_mult: 1
  }
  param {
    lr_mult: 2
    decay_mult: 0
  }
  convolution_param {
    num_output: 128
    kernel_size: 1
    weight_filler {
      type: "xavier"
      std: 0.09
    }
    bias_filler {
      type: "constant"
      value: 0.2
    }
  }
}
layer {
  name: "inception_4c/relu_3x3_reduce"
  type: "ReLU"
  bottom: "inception_4c/3x3_reduce"
  top: "inception_4c/3x3_reduce"
}
layer {
  name: "inception_4c/3x3"
  type: "Convolution"
  bottom: "inception_4c/3x3_reduce"
  top: "inception_4c/3x3"
  param {
    lr_mult: 1
    decay_mult: 1
  }
  param {
    lr_mult: 2
    decay_mult: 0
  }
  convolution_param {
    num_output: 256
    pad: 1
    kernel_size: 3
    weight_filler {
      type: "xavier"
      std: 0.03
    }
    bias_filler {
      type: "constant"
      value: 0.2
    }
  }
}
layer {
  name: "inception_4c/relu_3x3"
  type: "ReLU"
  bottom: "inception_4c/3x3"
  top: "inception_4c/3x3"
}
layer {
  name: "inception_4c/5x5_reduce"
  type: "Convolution"
  bottom: "inception_4b/output"
  top: "inception_4c/5x5_reduce"
  param {
    lr_mult: 1
    decay_mult: 1
  }
  param {
    lr_mult: 2
    decay_mult: 0
  }
  convolution_param {
    num_output: 24
    kernel_size: 1
    weight_filler {
      type: "xavier"
      std: 0.2
    }
    bias_filler {
      type: "constant"
      value: 0.2
    }
  }
}
layer {
  name: "inception_4c/relu_5x5_reduce"
  type: "ReLU"
  bottom: "inception_4c/5x5_reduce"
  top: "inception_4c/5x5_reduce"
}
layer {
  name: "inception_4c/5x5"
  type: "Convolution"
  bottom: "inception_4c/5x5_reduce"
  top: "inception_4c/5x5"
  param {
    lr_mult: 1
    decay_mult: 1
  }
  param {
    lr_mult: 2
    decay_mult: 0
  }
  convolution_param {
    num_output: 64
    pad: 2
    kernel_size: 5
    weight_filler {
      type: "xavier"
      std: 0.03
    }
    bias_filler {
      type: "constant"
      value: 0.2
    }
  }
}
layer {
  name: "inception_4c/relu_5x5"
  type: "ReLU"
  bottom: "inception_4c/5x5"
  top: "inception_4c/5x5"
}
layer {
  name: "inception_4c/pool"
  type: "Pooling"
  bottom: "inception_4b/output"
  top: "inception_4c/pool"
  pooling_param {
    pool: MAX
    kernel_size: 3
    stride: 1
    pad: 1
  }
}
layer {
  name: "inception_4c/pool_proj"
  type: "Convolution"
  bottom: "inception_4c/pool"
  top: "inception_4c/pool_proj"
  param {
    lr_mult: 1
    decay_mult: 1
  }
  param {
    lr_mult: 2
    decay_mult: 0
  }
  convolution_param {
    num_output: 64
    kernel_size: 1
    weight_filler {
      type: "xavier"
      std: 0.1
    }
    bias_filler {
      type: "constant"
      value: 0.2
    }
  }
}
layer {
  name: "inception_4c/relu_pool_proj"
  type: "ReLU"
  bottom: "inception_4c/pool_proj"
  top: "inception_4c/pool_proj"
}
layer {
  name: "inception_4c/output"
  type: "Concat"
  bottom: "inception_4c/1x1"
  bottom: "inception_4c/3x3"
  bottom: "inception_4c/5x5"
  bottom: "inception_4c/pool_proj"
  top: "inception_4c/output"
}
layer {
  name: "inception_4d/1x1"
  type: "Convolution"
  bottom: "inception_4c/output"
  top: "inception_4d/1x1"
  param {
    lr_mult: 1
    decay_mult: 1
  }
  param {
    lr_mult: 2
    decay_mult: 0
  }
  convolution_param {
    num_output: 112
    kernel_size: 1
    weight_filler {
      type: "xavier"
      std: 0.03
    }
    bias_filler {
      type: "constant"
      value: 0.2
    }
  }
}
layer {
  name: "inception_4d/relu_1x1"
  type: "ReLU"
  bottom: "inception_4d/1x1"
  top: "inception_4d/1x1"
}
layer {
  name: "inception_4d/3x3_reduce"
  type: "Convolution"
  bottom: "inception_4c/output"
  top: "inception_4d/3x3_reduce"
  param {
    lr_mult: 1
    decay_mult: 1
  }
  param {
    lr_mult: 2
    decay_mult: 0
  }
  convolution_param {
    num_output: 144
    kernel_size: 1
    weight_filler {
      type: "xavier"
      std: 0.09
    }
    bias_filler {
      type: "constant"
      value: 0.2
    }
  }
}
layer {
  name: "inception_4d/relu_3x3_reduce"
  type: "ReLU"
  bottom: "inception_4d/3x3_reduce"
  top: "inception_4d/3x3_reduce"
}
layer {
  name: "inception_4d/3x3"
  type: "Convolution"
  bottom: "inception_4d/3x3_reduce"
  top: "inception_4d/3x3"
  param {
    lr_mult: 1
    decay_mult: 1
  }
  param {
    lr_mult: 2
    decay_mult: 0
  }
  convolution_param {
    num_output: 288
    pad: 1
    kernel_size: 3
    weight_filler {
      type: "xavier"
      std: 0.03
    }
    bias_filler {
      type: "constant"
      value: 0.2
    }
  }
}
layer {
  name: "inception_4d/relu_3x3"
  type: "ReLU"
  bottom: "inception_4d/3x3"
  top: "inception_4d/3x3"
}
layer {
  name: "inception_4d/5x5_reduce"
  type: "Convolution"
  bottom: "inception_4c/output"
  top: "inception_4d/5x5_reduce"
  param {
    lr_mult: 1
    decay_mult: 1
  }
  param {
    lr_mult: 2
    decay_mult: 0
  }
  convolution_param {
    num_output: 32
    kernel_size: 1
    weight_filler {
      type: "xavier"
      std: 0.2
    }
    bias_filler {
      type: "constant"
      value: 0.2
    }
  }
}
layer {
  name: "inception_4d/relu_5x5_reduce"
  type: "ReLU"
  bottom: "inception_4d/5x5_reduce"
  top: "inception_4d/5x5_reduce"
}
layer {
  name: "inception_4d/5x5"
  type: "Convolution"
  bottom: "inception_4d/5x5_reduce"
  top: "inception_4d/5x5"
  param {
    lr_mult: 1
    decay_mult: 1
  }
  param {
    lr_mult: 2
    decay_mult: 0
  }
  convolution_param {
    num_output: 64
    pad: 2
    kernel_size: 5
    weight_filler {
      type: "xavier"
      std: 0.03
    }
    bias_filler {
      type: "constant"
      value: 0.2
    }
  }
}
layer {
  name: "inception_4d/relu_5x5"
  type: "ReLU"
  bottom: "inception_4d/5x5"
  top: "inception_4d/5x5"
}
layer {
  name: "inception_4d/pool"
  type: "Pooling"
  bottom: "inception_4c/output"
  top: "inception_4d/pool"
  pooling_param {
    pool: MAX
    kernel_size: 3
    stride: 1
    pad: 1
  }
}
layer {
  name: "inception_4d/pool_proj"
  type: "Convolution"
  bottom: "inception_4d/pool"
  top: "inception_4d/pool_proj"
  param {
    lr_mult: 1
    decay_mult: 1
  }
  param {
    lr_mult: 2
    decay_mult: 0
  }
  convolution_param {
    num_output: 64
    kernel_size: 1
    weight_filler {
      type: "xavier"
      std: 0.1
    }
    bias_filler {
      type: "constant"
      value: 0.2
    }
  }
}
layer {
  name: "inception_4d/relu_pool_proj"
  type: "ReLU"
  bottom: "inception_4d/pool_proj"
  top: "inception_4d/pool_proj"
}
layer {
  name: "inception_4d/output"
  type: "Concat"
  bottom: "inception_4d/1x1"
  bottom: "inception_4d/3x3"
  bottom: "inception_4d/5x5"
  bottom: "inception_4d/pool_proj"
  top: "inception_4d/output"
}
layer {
  name: "loss2/ave_pool"
  type: "Pooling"
  bottom: "inception_4d/output"
  top: "loss2/ave_pool"
  pooling_param {
    pool: AVE
    kernel_size: 5
    stride: 3
  }
}
layer {
  name: "loss2/conv"
  type: "Convolution"
  bottom: "loss2/ave_pool"
  top: "loss2/conv"
  param {
    lr_mult: 1
    decay_mult: 1
  }
  param {
    lr_mult: 2
    decay_mult: 0
  }
  convolution_param {
    num_output: 128
    kernel_size: 1
    weight_filler {
      type: "xavier"
      std: 0.08
    }
    bias_filler {
      type: "constant"
      value: 0.2
    }
  }
}
layer {
  name: "loss2/relu_conv"
  type: "ReLU"
  bottom: "loss2/conv"
  top: "loss2/conv"
}
layer {
  name: "loss2/fc"
  type: "InnerProduct"
  bottom: "loss2/conv"
  top: "loss2/fc"
  param {
    lr_mult: 1
    decay_mult: 1
  }
  param {
    lr_mult: 2
    decay_mult: 0
  }
  inner_product_param {
    num_output: 1024
    weight_filler {
      type: "xavier"
      std: 0.02
    }
    bias_filler {
      type: "constant"
      value: 0.2
    }
  }
}
layer {
  name: "loss2/relu_fc"
  type: "ReLU"
  bottom: "loss2/fc"
  top: "loss2/fc"
}
layer {
  name: "loss2/drop_fc"
  type: "Dropout"
  bottom: "loss2/fc"
  top: "loss2/fc"
  dropout_param {
    dropout_ratio: 0.7
  }
}
layer {
  name: "loss2/classifier_plantvillage"
  type: "InnerProduct"
  bottom: "loss2/fc"
  top: "loss2/classifier_plantvillage"
  param {
    lr_mult: 1
    decay_mult: 1
  }
  param {
    lr_mult: 2
    decay_mult: 0
  }
  inner_product_param {
    num_output: 38
    weight_filler {
      type: "xavier"
      std: 0.0009765625
    }
    bias_filler {
      type: "constant"
      value: 0
    }
  }
}
layer {
  name: "inception_4e/1x1"
  type: "Convolution"
  bottom: "inception_4d/output"
  top: "inception_4e/1x1"
  param {
    lr_mult: 1
    decay_mult: 1
  }
  param {
    lr_mult: 2
    decay_mult: 0
  }
  convolution_param {
    num_output: 256
    kernel_size: 1
    weight_filler {
      type: "xavier"
      std: 0.03
    }
    bias_filler {
      type: "constant"
      value: 0.2
    }
  }
}
layer {
  name: "inception_4e/relu_1x1"
  type: "ReLU"
  bottom: "inception_4e/1x1"
  top: "inception_4e/1x1"
}
layer {
  name: "inception_4e/3x3_reduce"
  type: "Convolution"
  bottom: "inception_4d/output"
  top: "inception_4e/3x3_reduce"
  param {
    lr_mult: 1
    decay_mult: 1
  }
  param {
    lr_mult: 2
    decay_mult: 0
  }
  convolution_param {
    num_output: 160
    kernel_size: 1
    weight_filler {
      type: "xavier"
      std: 0.09
    }
    bias_filler {
      type: "constant"
      value: 0.2
    }
  }
}
layer {
  name: "inception_4e/relu_3x3_reduce"
  type: "ReLU"
  bottom: "inception_4e/3x3_reduce"
  top: "inception_4e/3x3_reduce"
}
layer {
  name: "inception_4e/3x3"
  type: "Convolution"
  bottom: "inception_4e/3x3_reduce"
  top: "inception_4e/3x3"
  param {
    lr_mult: 1
    decay_mult: 1
  }
  param {
    lr_mult: 2
    decay_mult: 0
  }
  convolution_param {
    num_output: 320
    pad: 1
    kernel_size: 3
    weight_filler {
      type: "xavier"
      std: 0.03
    }
    bias_filler {
      type: "constant"
      value: 0.2
    }
  }
}
layer {
  name: "inception_4e/relu_3x3"
  type: "ReLU"
  bottom: "inception_4e/3x3"
  top: "inception_4e/3x3"
}
layer {
  name: "inception_4e/5x5_reduce"
  type: "Convolution"
  bottom: "inception_4d/output"
  top: "inception_4e/5x5_reduce"
  param {
    lr_mult: 1
    decay_mult: 1
  }
  param {
    lr_mult: 2
    decay_mult: 0
  }
  convolution_param {
    num_output: 32
    kernel_size: 1
    weight_filler {
      type: "xavier"
      std: 0.2
    }
    bias_filler {
      type: "constant"
      value: 0.2
    }
  }
}
layer {
  name: "inception_4e/relu_5x5_reduce"
  type: "ReLU"
  bottom: "inception_4e/5x5_reduce"
  top: "inception_4e/5x5_reduce"
}
layer {
  name: "inception_4e/5x5"
  type: "Convolution"
  bottom: "inception_4e/5x5_reduce"
  top: "inception_4e/
I0403 13:37:15.182237 32623 layer_factory.hpp:77] Creating layer data
I0403 13:37:15.182863 32623 net.cpp:91] Creating Layer data
I0403 13:37:15.182894 32623 net.cpp:399] data -> data
I0403 13:37:15.182945 32623 net.cpp:399] data -> label
I0403 13:37:15.182982 32623 data_transformer.cpp:25] Loading mean file from: /home/mohanty/data/final_dataset/lmdb/grayscale-20-80/mean.binaryproto
I0403 13:37:15.185665 32626 db_lmdb.cpp:38] Opened lmdb /home/mohanty/data/final_dataset/lmdb/grayscale-20-80/test_db
I0403 13:37:15.196324 32623 data_layer.cpp:41] output data size: 24,3,224,224
I0403 13:37:15.223687 32623 net.cpp:141] Setting up data
I0403 13:37:15.223793 32623 net.cpp:148] Top shape: 24 3 224 224 (3612672)
I0403 13:37:15.223816 32623 net.cpp:148] Top shape: 24 (24)
I0403 13:37:15.223832 32623 net.cpp:156] Memory required for data: 14450784
I0403 13:37:15.223860 32623 layer_factory.hpp:77] Creating layer label_data_1_split
I0403 13:37:15.223889 32623 net.cpp:91] Creating Layer label_data_1_split
I0403 13:37:15.223907 32623 net.cpp:425] label_data_1_split <- label
I0403 13:37:15.223940 32623 net.cpp:399] label_data_1_split -> label_data_1_split_0
I0403 13:37:15.223969 32623 net.cpp:399] label_data_1_split -> label_data_1_split_1
I0403 13:37:15.223991 32623 net.cpp:399] label_data_1_split -> label_data_1_split_2
I0403 13:37:15.224014 32623 net.cpp:399] label_data_1_split -> label_data_1_split_3
I0403 13:37:15.224035 32623 net.cpp:399] label_data_1_split -> label_data_1_split_4
I0403 13:37:15.224056 32623 net.cpp:399] label_data_1_split -> label_data_1_split_5
I0403 13:37:15.224076 32623 net.cpp:399] label_data_1_split -> label_data_1_split_6
I0403 13:37:15.224098 32623 net.cpp:399] label_data_1_split -> label_data_1_split_7
I0403 13:37:15.224118 32623 net.cpp:399] label_data_1_split -> label_data_1_split_8
I0403 13:37:15.224139 32623 net.cpp:399] label_data_1_split -> label_data_1_split_9
I0403 13:37:15.224287 32623 net.cpp:141] Setting up label_data_1_split
I0403 13:37:15.224311 32623 net.cpp:148] Top shape: 24 (24)
I0403 13:37:15.224329 32623 net.cpp:148] Top shape: 24 (24)
I0403 13:37:15.224346 32623 net.cpp:148] Top shape: 24 (24)
I0403 13:37:15.224362 32623 net.cpp:148] Top shape: 24 (24)
I0403 13:37:15.224380 32623 net.cpp:148] Top shape: 24 (24)
I0403 13:37:15.224395 32623 net.cpp:148] Top shape: 24 (24)
I0403 13:37:15.224411 32623 net.cpp:148] Top shape: 24 (24)
I0403 13:37:15.224428 32623 net.cpp:148] Top shape: 24 (24)
I0403 13:37:15.224444 32623 net.cpp:148] Top shape: 24 (24)
I0403 13:37:15.224460 32623 net.cpp:148] Top shape: 24 (24)
I0403 13:37:15.224515 32623 net.cpp:156] Memory required for data: 14451744
I0403 13:37:15.224539 32623 layer_factory.hpp:77] Creating layer conv1/7x7_s2
I0403 13:37:15.224571 32623 net.cpp:91] Creating Layer conv1/7x7_s2
I0403 13:37:15.224591 32623 net.cpp:425] conv1/7x7_s2 <- data
I0403 13:37:15.224611 32623 net.cpp:399] conv1/7x7_s2 -> conv1/7x7_s2
I0403 13:37:15.360090 32623 net.cpp:141] Setting up conv1/7x7_s2
I0403 13:37:15.360157 32623 net.cpp:148] Top shape: 24 64 112 112 (19267584)
I0403 13:37:15.360175 32623 net.cpp:156] Memory required for data: 91522080
I0403 13:37:15.360206 32623 layer_factory.hpp:77] Creating layer conv1/relu_7x7
I0403 13:37:15.360242 32623 net.cpp:91] Creating Layer conv1/relu_7x7
I0403 13:37:15.360263 32623 net.cpp:425] conv1/relu_7x7 <- conv1/7x7_s2
I0403 13:37:15.360283 32623 net.cpp:386] conv1/relu_7x7 -> conv1/7x7_s2 (in-place)
I0403 13:37:15.360564 32623 net.cpp:141] Setting up conv1/relu_7x7
I0403 13:37:15.360591 32623 net.cpp:148] Top shape: 24 64 112 112 (19267584)
I0403 13:37:15.360607 32623 net.cpp:156] Memory required for data: 168592416
I0403 13:37:15.360623 32623 layer_factory.hpp:77] Creating layer pool1/3x3_s2
I0403 13:37:15.360651 32623 net.cpp:91] Creating Layer pool1/3x3_s2
I0403 13:37:15.360668 32623 net.cpp:425] pool1/3x3_s2 <- conv1/7x7_s2
I0403 13:37:15.360688 32623 net.cpp:399] pool1/3x3_s2 -> pool1/3x3_s2
I0403 13:37:15.360766 32623 net.cpp:141] Setting up pool1/3x3_s2
I0403 13:37:15.360791 32623 net.cpp:148] Top shape: 24 64 56 56 (4816896)
I0403 13:37:15.360807 32623 net.cpp:156] Memory required for data: 187860000
I0403 13:37:15.360821 32623 layer_factory.hpp:77] Creating layer pool1/norm1
I0403 13:37:15.360848 32623 net.cpp:91] Creating Layer pool1/norm1
I0403 13:37:15.360867 32623 net.cpp:425] pool1/norm1 <- pool1/3x3_s2
I0403 13:37:15.360884 32623 net.cpp:399] pool1/norm1 -> pool1/norm1
I0403 13:37:15.361202 32623 net.cpp:141] Setting up pool1/norm1
I0403 13:37:15.361238 32623 net.cpp:148] Top shape: 24 64 56 56 (4816896)
I0403 13:37:15.361254 32623 net.cpp:156] Memory required for data: 207127584
I0403 13:37:15.361270 32623 layer_factory.hpp:77] Creating layer conv2/3x3_reduce
I0403 13:37:15.361299 32623 net.cpp:91] Creating Layer conv2/3x3_reduce
I0403 13:37:15.361316 32623 net.cpp:425] conv2/3x3_reduce <- pool1/norm1
I0403 13:37:15.361340 32623 net.cpp:399] conv2/3x3_reduce -> conv2/3x3_reduce
I0403 13:37:15.362820 32623 net.cpp:141] Setting up conv2/3x3_reduce
I0403 13:37:15.362853 32623 net.cpp:148] Top shape: 24 64 56 56 (4816896)
I0403 13:37:15.362870 32623 net.cpp:156] Memory required for data: 226395168
I0403 13:37:15.362892 32623 layer_factory.hpp:77] Creating layer conv2/relu_3x3_reduce
I0403 13:37:15.362912 32623 net.cpp:91] Creating Layer conv2/relu_3x3_reduce
I0403 13:37:15.362928 32623 net.cpp:425] conv2/relu_3x3_reduce <- conv2/3x3_reduce
I0403 13:37:15.362948 32623 net.cpp:386] conv2/relu_3x3_reduce -> conv2/3x3_reduce (in-place)
I0403 13:37:15.363257 32623 net.cpp:141] Setting up conv2/relu_3x3_reduce
I0403 13:37:15.363286 32623 net.cpp:148] Top shape: 24 64 56 56 (4816896)
I0403 13:37:15.363302 32623 net.cpp:156] Memory required for data: 245662752
I0403 13:37:15.363319 32623 layer_factory.hpp:77] Creating layer conv2/3x3
I0403 13:37:15.363345 32623 net.cpp:91] Creating Layer conv2/3x3
I0403 13:37:15.363363 32623 net.cpp:425] conv2/3x3 <- conv2/3x3_reduce
I0403 13:37:15.363387 32623 net.cpp:399] conv2/3x3 -> conv2/3x3
I0403 13:37:15.365756 32623 net.cpp:141] Setting up conv2/3x3
I0403 13:37:15.365787 32623 net.cpp:148] Top shape: 24 192 56 56 (14450688)
I0403 13:37:15.365803 32623 net.cpp:156] Memory required for data: 303465504
I0403 13:37:15.365825 32623 layer_factory.hpp:77] Creating layer conv2/relu_3x3
I0403 13:37:15.365844 32623 net.cpp:91] Creating Layer conv2/relu_3x3
I0403 13:37:15.365859 32623 net.cpp:425] conv2/relu_3x3 <- conv2/3x3
I0403 13:37:15.365880 32623 net.cpp:386] conv2/relu_3x3 -> conv2/3x3 (in-place)
I0403 13:37:15.366063 32623 net.cpp:141] Setting up conv2/relu_3x3
I0403 13:37:15.366089 32623 net.cpp:148] Top shape: 24 192 56 56 (14450688)
I0403 13:37:15.366152 32623 net.cpp:156] Memory required for data: 361268256
I0403 13:37:15.366169 32623 layer_factory.hpp:77] Creating layer conv2/norm2
I0403 13:37:15.366191 32623 net.cpp:91] Creating Layer conv2/norm2
I0403 13:37:15.366214 32623 net.cpp:425] conv2/norm2 <- conv2/3x3
I0403 13:37:15.366238 32623 net.cpp:399] conv2/norm2 -> conv2/norm2
I0403 13:37:15.366564 32623 net.cpp:141] Setting up conv2/norm2
I0403 13:37:15.366607 32623 net.cpp:148] Top shape: 24 192 56 56 (14450688)
I0403 13:37:15.366623 32623 net.cpp:156] Memory required for data: 419071008
I0403 13:37:15.366639 32623 layer_factory.hpp:77] Creating layer pool2/3x3_s2
I0403 13:37:15.366658 32623 net.cpp:91] Creating Layer pool2/3x3_s2
I0403 13:37:15.366674 32623 net.cpp:425] pool2/3x3_s2 <- conv2/norm2
I0403 13:37:15.366694 32623 net.cpp:399] pool2/3x3_s2 -> pool2/3x3_s2
I0403 13:37:15.366750 32623 net.cpp:141] Setting up pool2/3x3_s2
I0403 13:37:15.366772 32623 net.cpp:148] Top shape: 24 192 28 28 (3612672)
I0403 13:37:15.366788 32623 net.cpp:156] Memory required for data: 433521696
I0403 13:37:15.366803 32623 layer_factory.hpp:77] Creating layer pool2/3x3_s2_pool2/3x3_s2_0_split
I0403 13:37:15.366823 32623 net.cpp:91] Creating Layer pool2/3x3_s2_pool2/3x3_s2_0_split
I0403 13:37:15.366839 32623 net.cpp:425] pool2/3x3_s2_pool2/3x3_s2_0_split <- pool2/3x3_s2
I0403 13:37:15.366858 32623 net.cpp:399] pool2/3x3_s2_pool2/3x3_s2_0_split -> pool2/3x3_s2_pool2/3x3_s2_0_split_0
I0403 13:37:15.366878 32623 net.cpp:399] pool2/3x3_s2_pool2/3x3_s2_0_split -> pool2/3x3_s2_pool2/3x3_s2_0_split_1
I0403 13:37:15.366900 32623 net.cpp:399] pool2/3x3_s2_pool2/3x3_s2_0_split -> pool2/3x3_s2_pool2/3x3_s2_0_split_2
I0403 13:37:15.366924 32623 net.cpp:399] pool2/3x3_s2_pool2/3x3_s2_0_split -> pool2/3x3_s2_pool2/3x3_s2_0_split_3
I0403 13:37:15.366997 32623 net.cpp:141] Setting up pool2/3x3_s2_pool2/3x3_s2_0_split
I0403 13:37:15.367019 32623 net.cpp:148] Top shape: 24 192 28 28 (3612672)
I0403 13:37:15.367035 32623 net.cpp:148] Top shape: 24 192 28 28 (3612672)
I0403 13:37:15.367051 32623 net.cpp:148] Top shape: 24 192 28 28 (3612672)
I0403 13:37:15.367066 32623 net.cpp:148] Top shape: 24 192 28 28 (3612672)
I0403 13:37:15.367082 32623 net.cpp:156] Memory required for data: 491324448
I0403 13:37:15.367097 32623 layer_factory.hpp:77] Creating layer inception_3a/1x1
I0403 13:37:15.367120 32623 net.cpp:91] Creating Layer inception_3a/1x1
I0403 13:37:15.367137 32623 net.cpp:425] inception_3a/1x1 <- pool2/3x3_s2_pool2/3x3_s2_0_split_0
I0403 13:37:15.367158 32623 net.cpp:399] inception_3a/1x1 -> inception_3a/1x1
I0403 13:37:15.368782 32623 net.cpp:141] Setting up inception_3a/1x1
I0403 13:37:15.368815 32623 net.cpp:148] Top shape: 24 64 28 28 (1204224)
I0403 13:37:15.368834 32623 net.cpp:156] Memory required for data: 496141344
I0403 13:37:15.368854 32623 layer_factory.hpp:77] Creating layer inception_3a/relu_1x1
I0403 13:37:15.368873 32623 net.cpp:91] Creating Layer inception_3a/relu_1x1
I0403 13:37:15.368891 32623 net.cpp:425] inception_3a/relu_1x1 <- inception_3a/1x1
I0403 13:37:15.368912 32623 net.cpp:386] inception_3a/relu_1x1 -> inception_3a/1x1 (in-place)
I0403 13:37:15.369096 32623 net.cpp:141] Setting up inception_3a/relu_1x1
I0403 13:37:15.369122 32623 net.cpp:148] Top shape: 24 64 28 28 (1204224)
I0403 13:37:15.369138 32623 net.cpp:156] Memory required for data: 500958240
I0403 13:37:15.369153 32623 layer_factory.hpp:77] Creating layer inception_3a/3x3_reduce
I0403 13:37:15.369176 32623 net.cpp:91] Creating Layer inception_3a/3x3_reduce
I0403 13:37:15.369194 32623 net.cpp:425] inception_3a/3x3_reduce <- pool2/3x3_s2_pool2/3x3_s2_0_split_1
I0403 13:37:15.369221 32623 net.cpp:399] inception_3a/3x3_reduce -> inception_3a/3x3_reduce
I0403 13:37:15.370982 32623 net.cpp:141] Setting up inception_3a/3x3_reduce
I0403 13:37:15.371012 32623 net.cpp:148] Top shape: 24 96 28 28 (1806336)
I0403 13:37:15.371029 32623 net.cpp:156] Memory required for data: 508183584
I0403 13:37:15.371052 32623 layer_factory.hpp:77] Creating layer inception_3a/relu_3x3_reduce
I0403 13:37:15.371094 32623 net.cpp:91] Creating Layer inception_3a/relu_3x3_reduce
I0403 13:37:15.371114 32623 net.cpp:425] inception_3a/relu_3x3_reduce <- inception_3a/3x3_reduce
I0403 13:37:15.371132 32623 net.cpp:386] inception_3a/relu_3x3_reduce -> inception_3a/3x3_reduce (in-place)
I0403 13:37:15.371333 32623 net.cpp:141] Setting up inception_3a/relu_3x3_reduce
I0403 13:37:15.371362 32623 net.cpp:148] Top shape: 24 96 28 28 (1806336)
I0403 13:37:15.371378 32623 net.cpp:156] Memory required for data: 515408928
I0403 13:37:15.371394 32623 layer_factory.hpp:77] Creating layer inception_3a/3x3
I0403 13:37:15.371417 32623 net.cpp:91] Creating Layer inception_3a/3x3
I0403 13:37:15.371438 32623 net.cpp:425] inception_3a/3x3 <- inception_3a/3x3_reduce
I0403 13:37:15.371459 32623 net.cpp:399] inception_3a/3x3 -> inception_3a/3x3
I0403 13:37:15.373194 32623 net.cpp:141] Setting up inception_3a/3x3
I0403 13:37:15.373236 32623 net.cpp:148] Top shape: 24 128 28 28 (2408448)
I0403 13:37:15.373255 32623 net.cpp:156] Memory required for data: 525042720
I0403 13:37:15.373275 32623 layer_factory.hpp:77] Creating layer inception_3a/relu_3x3
I0403 13:37:15.373297 32623 net.cpp:91] Creating Layer inception_3a/relu_3x3
I0403 13:37:15.373314 32623 net.cpp:425] inception_3a/relu_3x3 <- inception_3a/3x3
I0403 13:37:15.373332 32623 net.cpp:386] inception_3a/relu_3x3 -> inception_3a/3x3 (in-place)
I0403 13:37:15.373620 32623 net.cpp:141] Setting up inception_3a/relu_3x3
I0403 13:37:15.373648 32623 net.cpp:148] Top shape: 24 128 28 28 (2408448)
I0403 13:37:15.373664 32623 net.cpp:156] Memory required for data: 534676512
I0403 13:37:15.373680 32623 layer_factory.hpp:77] Creating layer inception_3a/5x5_reduce
I0403 13:37:15.373704 32623 net.cpp:91] Creating Layer inception_3a/5x5_reduce
I0403 13:37:15.373723 32623 net.cpp:425] inception_3a/5x5_reduce <- pool2/3x3_s2_pool2/3x3_s2_0_split_2
I0403 13:37:15.373744 32623 net.cpp:399] inception_3a/5x5_reduce -> inception_3a/5x5_reduce
I0403 13:37:15.374790 32623 net.cpp:141] Setting up inception_3a/5x5_reduce
I0403 13:37:15.374820 32623 net.cpp:148] Top shape: 24 16 28 28 (301056)
I0403 13:37:15.374837 32623 net.cpp:156] Memory required for data: 535880736
I0403 13:37:15.374857 32623 layer_factory.hpp:77] Creating layer inception_3a/relu_5x5_reduce
I0403 13:37:15.374879 32623 net.cpp:91] Creating Layer inception_3a/relu_5x5_reduce
I0403 13:37:15.374897 32623 net.cpp:425] inception_3a/relu_5x5_reduce <- inception_3a/5x5_reduce
I0403 13:37:15.374915 32623 net.cpp:386] inception_3a/relu_5x5_reduce -> inception_3a/5x5_reduce (in-place)
I0403 13:37:15.375232 32623 net.cpp:141] Setting up inception_3a/relu_5x5_reduce
I0403 13:37:15.375262 32623 net.cpp:148] Top shape: 24 16 28 28 (301056)
I0403 13:37:15.375280 32623 net.cpp:156] Memory required for data: 537084960
I0403 13:37:15.375296 32623 layer_factory.hpp:77] Creating layer inception_3a/5x5
I0403 13:37:15.375318 32623 net.cpp:91] Creating Layer inception_3a/5x5
I0403 13:37:15.375335 32623 net.cpp:425] inception_3a/5x5 <- inception_3a/5x5_reduce
I0403 13:37:15.375357 32623 net.cpp:399] inception_3a/5x5 -> inception_3a/5x5
I0403 13:37:15.376416 32623 net.cpp:141] Setting up inception_3a/5x5
I0403 13:37:15.376446 32623 net.cpp:148] Top shape: 24 32 28 28 (602112)
I0403 13:37:15.376462 32623 net.cpp:156] Memory required for data: 539493408
I0403 13:37:15.376482 32623 layer_factory.hpp:77] Creating layer inception_3a/relu_5x5
I0403 13:37:15.376499 32623 net.cpp:91] Creating Layer inception_3a/relu_5x5
I0403 13:37:15.376518 32623 net.cpp:425] inception_3a/relu_5x5 <- inception_3a/5x5
I0403 13:37:15.376536 32623 net.cpp:386] inception_3a/relu_5x5 -> inception_3a/5x5 (in-place)
I0403 13:37:15.376713 32623 net.cpp:141] Setting up inception_3a/relu_5x5
I0403 13:37:15.376737 32623 net.cpp:148] Top shape: 24 32 28 28 (602112)
I0403 13:37:15.376752 32623 net.cpp:156] Memory required for data: 541901856
I0403 13:37:15.376768 32623 layer_factory.hpp:77] Creating layer inception_3a/pool
I0403 13:37:15.376790 32623 net.cpp:91] Creating Layer inception_3a/pool
I0403 13:37:15.376821 32623 net.cpp:425] inception_3a/pool <- pool2/3x3_s2_pool2/3x3_s2_0_split_3
I0403 13:37:15.376839 32623 net.cpp:399] inception_3a/pool -> inception_3a/pool
I0403 13:37:15.376901 32623 net.cpp:141] Setting up inception_3a/pool
I0403 13:37:15.376925 32623 net.cpp:148] Top shape: 24 192 28 28 (3612672)
I0403 13:37:15.376940 32623 net.cpp:156] Memory required for data: 556352544
I0403 13:37:15.376955 32623 layer_factory.hpp:77] Creating layer inception_3a/pool_proj
I0403 13:37:15.376978 32623 net.cpp:91] Creating Layer inception_3a/pool_proj
I0403 13:37:15.376994 32623 net.cpp:425] inception_3a/pool_proj <- inception_3a/pool
I0403 13:37:15.377017 32623 net.cpp:399] inception_3a/pool_proj -> inception_3a/pool_proj
I0403 13:37:15.377997 32623 net.cpp:141] Setting up inception_3a/pool_proj
I0403 13:37:15.378028 32623 net.cpp:148] Top shape: 24 32 28 28 (602112)
I0403 13:37:15.378044 32623 net.cpp:156] Memory required for data: 558760992
I0403 13:37:15.378067 32623 layer_factory.hpp:77] Creating layer inception_3a/relu_pool_proj
I0403 13:37:15.378088 32623 net.cpp:91] Creating Layer inception_3a/relu_pool_proj
I0403 13:37:15.378105 32623 net.cpp:425] inception_3a/relu_pool_proj <- inception_3a/pool_proj
I0403 13:37:15.378123 32623 net.cpp:386] inception_3a/relu_pool_proj -> inception_3a/pool_proj (in-place)
I0403 13:37:15.378414 32623 net.cpp:141] Setting up inception_3a/relu_pool_proj
I0403 13:37:15.378443 32623 net.cpp:148] Top shape: 24 32 28 28 (602112)
I0403 13:37:15.378459 32623 net.cpp:156] Memory required for data: 561169440
I0403 13:37:15.378475 32623 layer_factory.hpp:77] Creating layer inception_3a/output
I0403 13:37:15.378494 32623 net.cpp:91] Creating Layer inception_3a/output
I0403 13:37:15.378509 32623 net.cpp:425] inception_3a/output <- inception_3a/1x1
I0403 13:37:15.378526 32623 net.cpp:425] inception_3a/output <- inception_3a/3x3
I0403 13:37:15.378542 32623 net.cpp:425] inception_3a/output <- inception_3a/5x5
I0403 13:37:15.378558 32623 net.cpp:425] inception_3a/output <- inception_3a/pool_proj
I0403 13:37:15.378577 32623 net.cpp:399] inception_3a/output -> inception_3a/output
I0403 13:37:15.378626 32623 net.cpp:141] Setting up inception_3a/output
I0403 13:37:15.378654 32623 net.cpp:148] Top shape: 24 256 28 28 (4816896)
I0403 13:37:15.378669 32623 net.cpp:156] Memory required for data: 580437024
I0403 13:37:15.378685 32623 layer_factory.hpp:77] Creating layer inception_3a/output_inception_3a/output_0_split
I0403 13:37:15.378702 32623 net.cpp:91] Creating Layer inception_3a/output_inception_3a/output_0_split
I0403 13:37:15.378718 32623 net.cpp:425] inception_3a/output_inception_3a/output_0_split <- inception_3a/output
I0403 13:37:15.378737 32623 net.cpp:399] inception_3a/output_inception_3a/output_0_split -> inception_3a/output_inception_3a/output_0_split_0
I0403 13:37:15.378759 32623 net.cpp:399] inception_3a/output_inception_3a/output_0_split -> inception_3a/output_inception_3a/output_0_split_1
I0403 13:37:15.378782 32623 net.cpp:399] inception_3a/output_inception_3a/output_0_split -> inception_3a/output_inception_3a/output_0_split_2
I0403 13:37:15.378805 32623 net.cpp:399] inception_3a/output_inception_3a/output_0_split -> inception_3a/output_inception_3a/output_0_split_3
I0403 13:37:15.378881 32623 net.cpp:141] Setting up inception_3a/output_inception_3a/output_0_split
I0403 13:37:15.378904 32623 net.cpp:148] Top shape: 24 256 28 28 (4816896)
I0403 13:37:15.378921 32623 net.cpp:148] Top shape: 24 256 28 28 (4816896)
I0403 13:37:15.378937 32623 net.cpp:148] Top shape: 24 256 28 28 (4816896)
I0403 13:37:15.378953 32623 net.cpp:148] Top shape: 24 256 28 28 (4816896)
I0403 13:37:15.378968 32623 net.cpp:156] Memory required for data: 657507360
I0403 13:37:15.378983 32623 layer_factory.hpp:77] Creating layer inception_3b/1x1
I0403 13:37:15.379004 32623 net.cpp:91] Creating Layer inception_3b/1x1
I0403 13:37:15.379022 32623 net.cpp:425] inception_3b/1x1 <- inception_3a/output_inception_3a/output_0_split_0
I0403 13:37:15.379045 32623 net.cpp:399] inception_3b/1x1 -> inception_3b/1x1
I0403 13:37:15.380219 32623 net.cpp:141] Setting up inception_3b/1x1
I0403 13:37:15.380260 32623 net.cpp:148] Top shape: 24 128 28 28 (2408448)
I0403 13:37:15.380277 32623 net.cpp:156] Memory required for data: 667141152
I0403 13:37:15.380296 32623 layer_factory.hpp:77] Creating layer inception_3b/relu_1x1
I0403 13:37:15.380316 32623 net.cpp:91] Creating Layer inception_3b/relu_1x1
I0403 13:37:15.380331 32623 net.cpp:425] inception_3b/relu_1x1 <- inception_3b/1x1
I0403 13:37:15.380352 32623 net.cpp:386] inception_3b/relu_1x1 -> inception_3b/1x1 (in-place)
I0403 13:37:15.380528 32623 net.cpp:141] Setting up inception_3b/relu_1x1
I0403 13:37:15.380554 32623 net.cpp:148] Top shape: 24 128 28 28 (2408448)
I0403 13:37:15.380570 32623 net.cpp:156] Memory required for data: 676774944
I0403 13:37:15.380585 32623 layer_factory.hpp:77] Creating layer inception_3b/3x3_reduce
I0403 13:37:15.380609 32623 net.cpp:91] Creating Layer inception_3b/3x3_reduce
I0403 13:37:15.380626 32623 net.cpp:425] inception_3b/3x3_reduce <- inception_3a/output_inception_3a/output_0_split_1
I0403 13:37:15.380647 32623 net.cpp:399] inception_3b/3x3_reduce -> inception_3b/3x3_reduce
I0403 13:37:15.381829 32623 net.cpp:141] Setting up inception_3b/3x3_reduce
I0403 13:37:15.381860 32623 net.cpp:148] Top shape: 24 128 28 28 (2408448)
I0403 13:37:15.381877 32623 net.cpp:156] Memory required for data: 686408736
I0403 13:37:15.381896 32623 layer_factory.hpp:77] Creating layer inception_3b/relu_3x3_reduce
I0403 13:37:15.381914 32623 net.cpp:91] Creating Layer inception_3b/relu_3x3_reduce
I0403 13:37:15.381930 32623 net.cpp:425] inception_3b/relu_3x3_reduce <- inception_3b/3x3_reduce
I0403 13:37:15.381950 32623 net.cpp:386] inception_3b/relu_3x3_reduce -> inception_3b/3x3_reduce (in-place)
I0403 13:37:15.382130 32623 net.cpp:141] Setting up inception_3b/relu_3x3_reduce
I0403 13:37:15.382155 32623 net.cpp:148] Top shape: 24 128 28 28 (2408448)
I0403 13:37:15.382170 32623 net.cpp:156] Memory required for data: 696042528
I0403 13:37:15.382185 32623 layer_factory.hpp:77] Creating layer inception_3b/3x3
I0403 13:37:15.382215 32623 net.cpp:91] Creating Layer inception_3b/3x3
I0403 13:37:15.382236 32623 net.cpp:425] inception_3b/3x3 <- inception_3b/3x3_reduce
I0403 13:37:15.382256 32623 net.cpp:399] inception_3b/3x3 -> inception_3b/3x3
I0403 13:37:15.385242 32623 net.cpp:141] Setting up inception_3b/3x3
I0403 13:37:15.385272 32623 net.cpp:148] Top shape: 24 192 28 28 (3612672)
I0403 13:37:15.385288 32623 net.cpp:156] Memory required for data: 710493216
I0403 13:37:15.385308 32623 layer_factory.hpp:77] Creating layer inception_3b/relu_3x3
I0403 13:37:15.385329 32623 net.cpp:91] Creating Layer inception_3b/relu_3x3
I0403 13:37:15.385345 32623 net.cpp:425] inception_3b/relu_3x3 <- inception_3b/3x3
I0403 13:37:15.385363 32623 net.cpp:386] inception_3b/relu_3x3 -> inception_3b/3x3 (in-place)
I0403 13:37:15.385644 32623 net.cpp:141] Setting up inception_3b/relu_3x3
I0403 13:37:15.385673 32623 net.cpp:148] Top shape: 24 192 28 28 (3612672)
I0403 13:37:15.385687 32623 net.cpp:156] Memory required for data: 724943904
I0403 13:37:15.385704 32623 layer_factory.hpp:77] Creating layer inception_3b/5x5_reduce
I0403 13:37:15.385730 32623 net.cpp:91] Creating Layer inception_3b/5x5_reduce
I0403 13:37:15.385748 32623 net.cpp:425] inception_3b/5x5_reduce <- inception_3a/output_inception_3a/output_0_split_2
I0403 13:37:15.385771 32623 net.cpp:399] inception_3b/5x5_reduce -> inception_3b/5x5_reduce
I0403 13:37:15.386785 32623 net.cpp:141] Setting up inception_3b/5x5_reduce
I0403 13:37:15.386814 32623 net.cpp:148] Top shape: 24 32 28 28 (602112)
I0403 13:37:15.386831 32623 net.cpp:156] Memory required for data: 727352352
I0403 13:37:15.386849 32623 layer_factory.hpp:77] Creating layer inception_3b/relu_5x5_reduce
I0403 13:37:15.386870 32623 net.cpp:91] Creating Layer inception_3b/relu_5x5_reduce
I0403 13:37:15.386888 32623 net.cpp:425] inception_3b/relu_5x5_reduce <- inception_3b/5x5_reduce
I0403 13:37:15.386905 32623 net.cpp:386] inception_3b/relu_5x5_reduce -> inception_3b/5x5_reduce (in-place)
I0403 13:37:15.387130 32623 net.cpp:141] Setting up inception_3b/relu_5x5_reduce
I0403 13:37:15.387164 32623 net.cpp:148] Top shape: 24 32 28 28 (602112)
I0403 13:37:15.387179 32623 net.cpp:156] Memory required for data: 729760800
I0403 13:37:15.387195 32623 layer_factory.hpp:77] Creating layer inception_3b/5x5
I0403 13:37:15.387222 32623 net.cpp:91] Creating Layer inception_3b/5x5
I0403 13:37:15.387240 32623 net.cpp:425] inception_3b/5x5 <- inception_3b/5x5_reduce
I0403 13:37:15.387262 32623 net.cpp:399] inception_3b/5x5 -> inception_3b/5x5
I0403 13:37:15.389238 32623 net.cpp:141] Setting up inception_3b/5x5
I0403 13:37:15.389271 32623 net.cpp:148] Top shape: 24 96 28 28 (1806336)
I0403 13:37:15.389286 32623 net.cpp:156] Memory required for data: 736986144
I0403 13:37:15.389305 32623 layer_factory.hpp:77] Creating layer inception_3b/relu_5x5
I0403 13:37:15.389322 32623 net.cpp:91] Creating Layer inception_3b/relu_5x5
I0403 13:37:15.389338 32623 net.cpp:425] inception_3b/relu_5x5 <- inception_3b/5x5
I0403 13:37:15.389358 32623 net.cpp:386] inception_3b/relu_5x5 -> inception_3b/5x5 (in-place)
I0403 13:37:15.389549 32623 net.cpp:141] Setting up inception_3b/relu_5x5
I0403 13:37:15.389575 32623 net.cpp:148] Top shape: 24 96 28 28 (1806336)
I0403 13:37:15.389590 32623 net.cpp:156] Memory required for data: 744211488
I0403 13:37:15.389605 32623 layer_factory.hpp:77] Creating layer inception_3b/pool
I0403 13:37:15.389621 32623 net.cpp:91] Creating Layer inception_3b/pool
I0403 13:37:15.389637 32623 net.cpp:425] inception_3b/pool <- inception_3a/output_inception_3a/output_0_split_3
I0403 13:37:15.389655 32623 net.cpp:399] inception_3b/pool -> inception_3b/pool
I0403 13:37:15.389713 32623 net.cpp:141] Setting up inception_3b/pool
I0403 13:37:15.389735 32623 net.cpp:148] Top shape: 24 256 28 28 (4816896)
I0403 13:37:15.389750 32623 net.cpp:156] Memory required for data: 763479072
I0403 13:37:15.389765 32623 layer_factory.hpp:77] Creating layer inception_3b/pool_proj
I0403 13:37:15.389788 32623 net.cpp:91] Creating Layer inception_3b/pool_proj
I0403 13:37:15.389806 32623 net.cpp:425] inception_3b/pool_proj <- inception_3b/pool
I0403 13:37:15.389824 32623 net.cpp:399] inception_3b/pool_proj -> inception_3b/pool_proj
I0403 13:37:15.390871 32623 net.cpp:141] Setting up inception_3b/pool_proj
I0403 13:37:15.390897 32623 net.cpp:148] Top shape: 24 64 28 28 (1204224)
I0403 13:37:15.390913 32623 net.cpp:156] Memory required for data: 768295968
I0403 13:37:15.390931 32623 layer_factory.hpp:77] Creating layer inception_3b/relu_pool_proj
I0403 13:37:15.390951 32623 net.cpp:91] Creating Layer inception_3b/relu_pool_proj
I0403 13:37:15.390969 32623 net.cpp:425] inception_3b/relu_pool_proj <- inception_3b/pool_proj
I0403 13:37:15.390985 32623 net.cpp:386] inception_3b/relu_pool_proj -> inception_3b/pool_proj (in-place)
I0403 13:37:15.391382 32623 net.cpp:141] Setting up inception_3b/relu_pool_proj
I0403 13:37:15.391408 32623 net.cpp:148] Top shape: 24 64 28 28 (1204224)
I0403 13:37:15.391423 32623 net.cpp:156] Memory required for data: 773112864
I0403 13:37:15.391438 32623 layer_factory.hpp:77] Creating layer inception_3b/output
I0403 13:37:15.391458 32623 net.cpp:91] Creating Layer inception_3b/output
I0403 13:37:15.391476 32623 net.cpp:425] inception_3b/output <- inception_3b/1x1
I0403 13:37:15.391492 32623 net.cpp:425] inception_3b/output <- inception_3b/3x3
I0403 13:37:15.391510 32623 net.cpp:425] inception_3b/output <- inception_3b/5x5
I0403 13:37:15.391525 32623 net.cpp:425] inception_3b/output <- inception_3b/pool_proj
I0403 13:37:15.391541 32623 net.cpp:399] inception_3b/output -> inception_3b/output
I0403 13:37:15.391585 32623 net.cpp:141] Setting up inception_3b/output
I0403 13:37:15.391608 32623 net.cpp:148] Top shape: 24 480 28 28 (9031680)
I0403 13:37:15.391623 32623 net.cpp:156] Memory required for data: 809239584
I0403 13:37:15.391638 32623 layer_factory.hpp:77] Creating layer pool3/3x3_s2
I0403 13:37:15.391655 32623 net.cpp:91] Creating Layer pool3/3x3_s2
I0403 13:37:15.391670 32623 net.cpp:425] pool3/3x3_s2 <- inception_3b/output
I0403 13:37:15.391705 32623 net.cpp:399] pool3/3x3_s2 -> pool3/3x3_s2
I0403 13:37:15.391763 32623 net.cpp:141] Setting up pool3/3x3_s2
I0403 13:37:15.391788 32623 net.cpp:148] Top shape: 24 480 14 14 (2257920)
I0403 13:37:15.391803 32623 net.cpp:156] Memory required for data: 818271264
I0403 13:37:15.391819 32623 layer_factory.hpp:77] Creating layer pool3/3x3_s2_pool3/3x3_s2_0_split
I0403 13:37:15.391835 32623 net.cpp:91] Creating Layer pool3/3x3_s2_pool3/3x3_s2_0_split
I0403 13:37:15.391850 32623 net.cpp:425] pool3/3x3_s2_pool3/3x3_s2_0_split <- pool3/3x3_s2
I0403 13:37:15.391866 32623 net.cpp:399] pool3/3x3_s2_pool3/3x3_s2_0_split -> pool3/3x3_s2_pool3/3x3_s2_0_split_0
I0403 13:37:15.391891 32623 net.cpp:399] pool3/3x3_s2_pool3/3x3_s2_0_split -> pool3/3x3_s2_pool3/3x3_s2_0_split_1
I0403 13:37:15.391911 32623 net.cpp:399] pool3/3x3_s2_pool3/3x3_s2_0_split -> pool3/3x3_s2_pool3/3x3_s2_0_split_2
I0403 13:37:15.391932 32623 net.cpp:399] pool3/3x3_s2_pool3/3x3_s2_0_split -> pool3/3x3_s2_pool3/3x3_s2_0_split_3
I0403 13:37:15.392009 32623 net.cpp:141] Setting up pool3/3x3_s2_pool3/3x3_s2_0_split
I0403 13:37:15.392030 32623 net.cpp:148] Top shape: 24 480 14 14 (2257920)
I0403 13:37:15.392046 32623 net.cpp:148] Top shape: 24 480 14 14 (2257920)
I0403 13:37:15.392061 32623 net.cpp:148] Top shape: 24 480 14 14 (2257920)
I0403 13:37:15.392076 32623 net.cpp:148] Top shape: 24 480 14 14 (2257920)
I0403 13:37:15.392091 32623 net.cpp:156] Memory required for data: 854397984
I0403 13:37:15.392104 32623 layer_factory.hpp:77] Creating layer inception_4a/1x1
I0403 13:37:15.392127 32623 net.cpp:91] Creating Layer inception_4a/1x1
I0403 13:37:15.392144 32623 net.cpp:425] inception_4a/1x1 <- pool3/3x3_s2_pool3/3x3_s2_0_split_0
I0403 13:37:15.392163 32623 net.cpp:399] inception_4a/1x1 -> inception_4a/1x1
I0403 13:37:15.393771 32623 net.cpp:141] Setting up inception_4a/1x1
I0403 13:37:15.393800 32623 net.cpp:148] Top shape: 24 192 14 14 (903168)
I0403 13:37:15.393815 32623 net.cpp:156] Memory required for data: 858010656
I0403 13:37:15.393833 32623 layer_factory.hpp:77] Creating layer inception_4a/relu_1x1
I0403 13:37:15.393853 32623 net.cpp:91] Creating Layer inception_4a/relu_1x1
I0403 13:37:15.393868 32623 net.cpp:425] inception_4a/relu_1x1 <- inception_4a/1x1
I0403 13:37:15.393887 32623 net.cpp:386] inception_4a/relu_1x1 -> inception_4a/1x1 (in-place)
I0403 13:37:15.394062 32623 net.cpp:141] Setting up inception_4a/relu_1x1
I0403 13:37:15.394088 32623 net.cpp:148] Top shape: 24 192 14 14 (903168)
I0403 13:37:15.394103 32623 net.cpp:156] Memory required for data: 861623328
I0403 13:37:15.394117 32623 layer_factory.hpp:77] Creating layer inception_4a/3x3_reduce
I0403 13:37:15.394140 32623 net.cpp:91] Creating Layer inception_4a/3x3_reduce
I0403 13:37:15.394156 32623 net.cpp:425] inception_4a/3x3_reduce <- pool3/3x3_s2_pool3/3x3_s2_0_split_1
I0403 13:37:15.394177 32623 net.cpp:399] inception_4a/3x3_reduce -> inception_4a/3x3_reduce
I0403 13:37:15.395470 32623 net.cpp:141] Setting up inception_4a/3x3_reduce
I0403 13:37:15.395500 32623 net.cpp:148] Top shape: 24 96 14 14 (451584)
I0403 13:37:15.395516 32623 net.cpp:156] Memory required for data: 863429664
I0403 13:37:15.395540 32623 layer_factory.hpp:77] Creating layer inception_4a/relu_3x3_reduce
I0403 13:37:15.395562 32623 net.cpp:91] Creating Layer inception_4a/relu_3x3_reduce
I0403 13:37:15.395579 32623 net.cpp:425] inception_4a/relu_3x3_reduce <- inception_4a/3x3_reduce
I0403 13:37:15.395597 32623 net.cpp:386] inception_4a/relu_3x3_reduce -> inception_4a/3x3_reduce (in-place)
I0403 13:37:15.395773 32623 net.cpp:141] Setting up inception_4a/relu_3x3_reduce
I0403 13:37:15.395800 32623 net.cpp:148] Top shape: 24 96 14 14 (451584)
I0403 13:37:15.395817 32623 net.cpp:156] Memory required for data: 865236000
I0403 13:37:15.395831 32623 layer_factory.hpp:77] Creating layer inception_4a/3x3
I0403 13:37:15.395854 32623 net.cpp:91] Creating Layer inception_4a/3x3
I0403 13:37:15.395870 32623 net.cpp:425] inception_4a/3x3 <- inception_4a/3x3_reduce
I0403 13:37:15.395891 32623 net.cpp:399] inception_4a/3x3 -> inception_4a/3x3
I0403 13:37:15.398564 32623 net.cpp:141] Setting up inception_4a/3x3
I0403 13:37:15.398596 32623 net.cpp:148] Top shape: 24 208 14 14 (978432)
I0403 13:37:15.398612 32623 net.cpp:156] Memory required for data: 869149728
I0403 13:37:15.398630 32623 layer_factory.hpp:77] Creating layer inception_4a/relu_3x3
I0403 13:37:15.398648 32623 net.cpp:91] Creating Layer inception_4a/relu_3x3
I0403 13:37:15.398663 32623 net.cpp:425] inception_4a/relu_3x3 <- inception_4a/3x3
I0403 13:37:15.398682 32623 net.cpp:386] inception_4a/relu_3x3 -> inception_4a/3x3 (in-place)
I0403 13:37:15.398957 32623 net.cpp:141] Setting up inception_4a/relu_3x3
I0403 13:37:15.398985 32623 net.cpp:148] Top shape: 24 208 14 14 (978432)
I0403 13:37:15.399001 32623 net.cpp:156] Memory required for data: 873063456
I0403 13:37:15.399018 32623 layer_factory.hpp:77] Creating layer inception_4a/5x5_reduce
I0403 13:37:15.399041 32623 net.cpp:91] Creating Layer inception_4a/5x5_reduce
I0403 13:37:15.399058 32623 net.cpp:425] inception_4a/5x5_reduce <- pool3/3x3_s2_pool3/3x3_s2_0_split_2
I0403 13:37:15.399077 32623 net.cpp:399] inception_4a/5x5_reduce -> inception_4a/5x5_reduce
I0403 13:37:15.400094 32623 net.cpp:141] Setting up inception_4a/5x5_reduce
I0403 13:37:15.400121 32623 net.cpp:148] Top shape: 24 16 14 14 (75264)
I0403 13:37:15.400137 32623 net.cpp:156] Memory required for data: 873364512
I0403 13:37:15.400156 32623 layer_factory.hpp:77] Creating layer inception_4a/relu_5x5_reduce
I0403 13:37:15.400173 32623 net.cpp:91] Creating Layer inception_4a/relu_5x5_reduce
I0403 13:37:15.400192 32623 net.cpp:425] inception_4a/relu_5x5_reduce <- inception_4a/5x5_reduce
I0403 13:37:15.400214 32623 net.cpp:386] inception_4a/relu_5x5_reduce -> inception_4a/5x5_reduce (in-place)
I0403 13:37:15.400424 32623 net.cpp:141] Setting up inception_4a/relu_5x5_reduce
I0403 13:37:15.400450 32623 net.cpp:148] Top shape: 24 16 14 14 (75264)
I0403 13:37:15.400465 32623 net.cpp:156] Memory required for data: 873665568
I0403 13:37:15.400480 32623 layer_factory.hpp:77] Creating layer inception_4a/5x5
I0403 13:37:15.400503 32623 net.cpp:91] Creating Layer inception_4a/5x5
I0403 13:37:15.400521 32623 net.cpp:425] inception_4a/5x5 <- inception_4a/5x5_reduce
I0403 13:37:15.400542 32623 net.cpp:399] inception_4a/5x5 -> inception_4a/5x5
I0403 13:37:15.401659 32623 net.cpp:141] Setting up inception_4a/5x5
I0403 13:37:15.401687 32623 net.cpp:148] Top shape: 24 48 14 14 (225792)
I0403 13:37:15.401703 32623 net.cpp:156] Memory required for data: 874568736
I0403 13:37:15.401722 32623 layer_factory.hpp:77] Creating layer inception_4a/relu_5x5
I0403 13:37:15.401744 32623 net.cpp:91] Creating Layer inception_4a/relu_5x5
I0403 13:37:15.401760 32623 net.cpp:425] inception_4a/relu_5x5 <- inception_4a/5x5
I0403 13:37:15.401778 32623 net.cpp:386] inception_4a/relu_5x5 -> inception_4a/5x5 (in-place)
I0403 13:37:15.401963 32623 net.cpp:141] Setting up inception_4a/relu_5x5
I0403 13:37:15.401991 32623 net.cpp:148] Top shape: 24 48 14 14 (225792)
I0403 13:37:15.402009 32623 net.cpp:156] Memory required for data: 875471904
I0403 13:37:15.402024 32623 layer_factory.hpp:77] Creating layer inception_4a/pool
I0403 13:37:15.402041 32623 net.cpp:91] Creating Layer inception_4a/pool
I0403 13:37:15.402057 32623 net.cpp:425] inception_4a/pool <- pool3/3x3_s2_pool3/3x3_s2_0_split_3
I0403 13:37:15.402077 32623 net.cpp:399] inception_4a/pool -> inception_4a/pool
I0403 13:37:15.402140 32623 net.cpp:141] Setting up inception_4a/pool
I0403 13:37:15.402164 32623 net.cpp:148] Top shape: 24 480 14 14 (2257920)
I0403 13:37:15.402179 32623 net.cpp:156] Memory required for data: 884503584
I0403 13:37:15.402194 32623 layer_factory.hpp:77] Creating layer inception_4a/pool_proj
I0403 13:37:15.402220 32623 net.cpp:91] Creating Layer inception_4a/pool_proj
I0403 13:37:15.402240 32623 net.cpp:425] inception_4a/pool_proj <- inception_4a/pool
I0403 13:37:15.402261 32623 net.cpp:399] inception_4a/pool_proj -> inception_4a/pool_proj
I0403 13:37:15.403470 32623 net.cpp:141] Setting up inception_4a/pool_proj
I0403 13:37:15.403501 32623 net.cpp:148] Top shape: 24 64 14 14 (301056)
I0403 13:37:15.403533 32623 net.cpp:156] Memory required for data: 885707808
I0403 13:37:15.403553 32623 layer_factory.hpp:77] Creating layer inception_4a/relu_pool_proj
I0403 13:37:15.403571 32623 net.cpp:91] Creating Layer inception_4a/relu_pool_proj
I0403 13:37:15.403587 32623 net.cpp:425] inception_4a/relu_pool_proj <- inception_4a/pool_proj
I0403 13:37:15.403604 32623 net.cpp:386] inception_4a/relu_pool_proj -> inception_4a/pool_proj (in-place)
I0403 13:37:15.403895 32623 net.cpp:141] Setting up inception_4a/relu_pool_proj
I0403 13:37:15.403925 32623 net.cpp:148] Top shape: 24 64 14 14 (301056)
I0403 13:37:15.403942 32623 net.cpp:156] Memory required for data: 886912032
I0403 13:37:15.403959 32623 layer_factory.hpp:77] Creating layer inception_4a/output
I0403 13:37:15.403975 32623 net.cpp:91] Creating Layer inception_4a/output
I0403 13:37:15.403991 32623 net.cpp:425] inception_4a/output <- inception_4a/1x1
I0403 13:37:15.404008 32623 net.cpp:425] inception_4a/output <- inception_4a/3x3
I0403 13:37:15.404024 32623 net.cpp:425] inception_4a/output <- inception_4a/5x5
I0403 13:37:15.404041 32623 net.cpp:425] inception_4a/output <- inception_4a/pool_proj
I0403 13:37:15.404058 32623 net.cpp:399] inception_4a/output -> inception_4a/output
I0403 13:37:15.404105 32623 net.cpp:141] Setting up inception_4a/output
I0403 13:37:15.404129 32623 net.cpp:148] Top shape: 24 512 14 14 (2408448)
I0403 13:37:15.404145 32623 net.cpp:156] Memory required for data: 896545824
I0403 13:37:15.404158 32623 layer_factory.hpp:77] Creating layer inception_4a/output_inception_4a/output_0_split
I0403 13:37:15.404180 32623 net.cpp:91] Creating Layer inception_4a/output_inception_4a/output_0_split
I0403 13:37:15.404196 32623 net.cpp:425] inception_4a/output_inception_4a/output_0_split <- inception_4a/output
I0403 13:37:15.404218 32623 net.cpp:399] inception_4a/output_inception_4a/output_0_split -> inception_4a/output_inception_4a/output_0_split_0
I0403 13:37:15.404242 32623 net.cpp:399] inception_4a/output_inception_4a/output_0_split -> inception_4a/output_inception_4a/output_0_split_1
I0403 13:37:15.404263 32623 net.cpp:399] inception_4a/output_inception_4a/output_0_split -> inception_4a/output_inception_4a/output_0_split_2
I0403 13:37:15.404284 32623 net.cpp:399] inception_4a/output_inception_4a/output_0_split -> inception_4a/output_inception_4a/output_0_split_3
I0403 13:37:15.404306 32623 net.cpp:399] inception_4a/output_inception_4a/output_0_split -> inception_4a/output_inception_4a/output_0_split_4
I0403 13:37:15.404405 32623 net.cpp:141] Setting up inception_4a/output_inception_4a/output_0_split
I0403 13:37:15.404429 32623 net.cpp:148] Top shape: 24 512 14 14 (2408448)
I0403 13:37:15.404446 32623 net.cpp:148] Top shape: 24 512 14 14 (2408448)
I0403 13:37:15.404463 32623 net.cpp:148] Top shape: 24 512 14 14 (2408448)
I0403 13:37:15.404479 32623 net.cpp:148] Top shape: 24 512 14 14 (2408448)
I0403 13:37:15.404495 32623 net.cpp:148] Top shape: 24 512 14 14 (2408448)
I0403 13:37:15.404508 32623 net.cpp:156] Memory required for data: 944714784
I0403 13:37:15.404522 32623 layer_factory.hpp:77] Creating layer loss1/ave_pool
I0403 13:37:15.404541 32623 net.cpp:91] Creating Layer loss1/ave_pool
I0403 13:37:15.404556 32623 net.cpp:425] loss1/ave_pool <- inception_4a/output_inception_4a/output_0_split_0
I0403 13:37:15.404577 32623 net.cpp:399] loss1/ave_pool -> loss1/ave_pool
I0403 13:37:15.404789 32623 net.cpp:141] Setting up loss1/ave_pool
I0403 13:37:15.404819 32623 net.cpp:148] Top shape: 24 512 4 4 (196608)
I0403 13:37:15.404834 32623 net.cpp:156] Memory required for data: 945501216
I0403 13:37:15.404850 32623 layer_factory.hpp:77] Creating layer loss1/conv
I0403 13:37:15.404872 32623 net.cpp:91] Creating Layer loss1/conv
I0403 13:37:15.404889 32623 net.cpp:425] loss1/conv <- loss1/ave_pool
I0403 13:37:15.404908 32623 net.cpp:399] loss1/conv -> loss1/conv
I0403 13:37:15.406366 32623 net.cpp:141] Setting up loss1/conv
I0403 13:37:15.406397 32623 net.cpp:148] Top shape: 24 128 4 4 (49152)
I0403 13:37:15.406429 32623 net.cpp:156] Memory required for data: 945697824
I0403 13:37:15.406448 32623 layer_factory.hpp:77] Creating layer loss1/relu_conv
I0403 13:37:15.406468 32623 net.cpp:91] Creating Layer loss1/relu_conv
I0403 13:37:15.406484 32623 net.cpp:425] loss1/relu_conv <- loss1/conv
I0403 13:37:15.406504 32623 net.cpp:386] loss1/relu_conv -> loss1/conv (in-place)
I0403 13:37:15.406795 32623 net.cpp:141] Setting up loss1/relu_conv
I0403 13:37:15.406826 32623 net.cpp:148] Top shape: 24 128 4 4 (49152)
I0403 13:37:15.406841 32623 net.cpp:156] Memory required for data: 945894432
I0403 13:37:15.406857 32623 layer_factory.hpp:77] Creating layer loss1/fc
I0403 13:37:15.406882 32623 net.cpp:91] Creating Layer loss1/fc
I0403 13:37:15.406899 32623 net.cpp:425] loss1/fc <- loss1/conv
I0403 13:37:15.406920 32623 net.cpp:399] loss1/fc -> loss1/fc
I0403 13:37:15.424983 32623 net.cpp:141] Setting up loss1/fc
I0403 13:37:15.425045 32623 net.cpp:148] Top shape: 24 1024 (24576)
I0403 13:37:15.425060 32623 net.cpp:156] Memory required for data: 945992736
I0403 13:37:15.425079 32623 layer_factory.hpp:77] Creating layer loss1/relu_fc
I0403 13:37:15.425102 32623 net.cpp:91] Creating Layer loss1/relu_fc
I0403 13:37:15.425119 32623 net.cpp:425] loss1/relu_fc <- loss1/fc
I0403 13:37:15.425138 32623 net.cpp:386] loss1/relu_fc -> loss1/fc (in-place)
I0403 13:37:15.425354 32623 net.cpp:141] Setting up loss1/relu_fc
I0403 13:37:15.425379 32623 net.cpp:148] Top shape: 24 1024 (24576)
I0403 13:37:15.425395 32623 net.cpp:156] Memory required for data: 946091040
I0403 13:37:15.425408 32623 layer_factory.hpp:77] Creating layer loss1/drop_fc
I0403 13:37:15.425437 32623 net.cpp:91] Creating Layer loss1/drop_fc
I0403 13:37:15.425456 32623 net.cpp:425] loss1/drop_fc <- loss1/fc
I0403 13:37:15.425475 32623 net.cpp:386] loss1/drop_fc -> loss1/fc (in-place)
I0403 13:37:15.425528 32623 net.cpp:141] Setting up loss1/drop_fc
I0403 13:37:15.425550 32623 net.cpp:148] Top shape: 24 1024 (24576)
I0403 13:37:15.425565 32623 net.cpp:156] Memory required for data: 946189344
I0403 13:37:15.425580 32623 layer_factory.hpp:77] Creating layer loss1/classifier_plantvillage
I0403 13:37:15.425603 32623 net.cpp:91] Creating Layer loss1/classifier_plantvillage
I0403 13:37:15.425621 32623 net.cpp:425] loss1/classifier_plantvillage <- loss1/fc
I0403 13:37:15.425642 32623 net.cpp:399] loss1/classifier_plantvillage -> loss1/classifier_plantvillage
I0403 13:37:15.426579 32623 net.cpp:141] Setting up loss1/classifier_plantvillage
I0403 13:37:15.426610 32623 net.cpp:148] Top shape: 24 38 (912)
I0403 13:37:15.426626 32623 net.cpp:156] Memory required for data: 946192992
I0403 13:37:15.426645 32623 layer_factory.hpp:77] Creating layer loss1/classifier_plantvillage_loss1/classifier_plantvillage_0_split
I0403 13:37:15.426663 32623 net.cpp:91] Creating Layer loss1/classifier_plantvillage_loss1/classifier_plantvillage_0_split
I0403 13:37:15.426679 32623 net.cpp:425] loss1/classifier_plantvillage_loss1/classifier_plantvillage_0_split <- loss1/classifier_plantvillage
I0403 13:37:15.426699 32623 net.cpp:399] loss1/classifier_plantvillage_loss1/classifier_plantvillage_0_split -> loss1/classifier_plantvillage_loss1/classifier_plantvillage_0_split_0
I0403 13:37:15.426719 32623 net.cpp:399] loss1/classifier_plantvillage_loss1/classifier_plantvillage_0_split -> loss1/classifier_plantvillage_loss1/classifier_plantvillage_0_split_1
I0403 13:37:15.426740 32623 net.cpp:399] loss1/classifier_plantvillage_loss1/classifier_plantvillage_0_split -> loss1/classifier_plantvillage_loss1/classifier_plantvillage_0_split_2
I0403 13:37:15.426806 32623 net.cpp:141] Setting up loss1/classifier_plantvillage_loss1/classifier_plantvillage_0_split
I0403 13:37:15.426829 32623 net.cpp:148] Top shape: 24 38 (912)
I0403 13:37:15.426846 32623 net.cpp:148] Top shape: 24 38 (912)
I0403 13:37:15.426862 32623 net.cpp:148] Top shape: 24 38 (912)
I0403 13:37:15.426875 32623 net.cpp:156] Memory required for data: 946203936
I0403 13:37:15.426889 32623 layer_factory.hpp:77] Creating layer inception_4b/1x1
I0403 13:37:15.426913 32623 net.cpp:91] Creating Layer inception_4b/1x1
I0403 13:37:15.426956 32623 net.cpp:425] inception_4b/1x1 <- inception_4a/output_inception_4a/output_0_split_1
I0403 13:37:15.426976 32623 net.cpp:399] inception_4b/1x1 -> inception_4b/1x1
I0403 13:37:15.428702 32623 net.cpp:141] Setting up inception_4b/1x1
I0403 13:37:15.428730 32623 net.cpp:148] Top shape: 24 160 14 14 (752640)
I0403 13:37:15.428746 32623 net.cpp:156] Memory required for data: 949214496
I0403 13:37:15.428764 32623 layer_factory.hpp:77] Creating layer inception_4b/relu_1x1
I0403 13:37:15.428782 32623 net.cpp:91] Creating Layer inception_4b/relu_1x1
I0403 13:37:15.428798 32623 net.cpp:425] inception_4b/relu_1x1 <- inception_4b/1x1
I0403 13:37:15.428818 32623 net.cpp:386] inception_4b/relu_1x1 -> inception_4b/1x1 (in-place)
I0403 13:37:15.428998 32623 net.cpp:141] Setting up inception_4b/relu_1x1
I0403 13:37:15.429023 32623 net.cpp:148] Top shape: 24 160 14 14 (752640)
I0403 13:37:15.429039 32623 net.cpp:156] Memory required for data: 952225056
I0403 13:37:15.429054 32623 layer_factory.hpp:77] Creating layer inception_4b/3x3_reduce
I0403 13:37:15.429075 32623 net.cpp:91] Creating Layer inception_4b/3x3_reduce
I0403 13:37:15.429092 32623 net.cpp:425] inception_4b/3x3_reduce <- inception_4a/output_inception_4a/output_0_split_2
I0403 13:37:15.429113 32623 net.cpp:399] inception_4b/3x3_reduce -> inception_4b/3x3_reduce
I0403 13:37:15.430476 32623 net.cpp:141] Setting up inception_4b/3x3_reduce
I0403 13:37:15.430505 32623 net.cpp:148] Top shape: 24 112 14 14 (526848)
I0403 13:37:15.430519 32623 net.cpp:156] Memory required for data: 954332448
I0403 13:37:15.430537 32623 layer_factory.hpp:77] Creating layer inception_4b/relu_3x3_reduce
I0403 13:37:15.430557 32623 net.cpp:91] Creating Layer inception_4b/relu_3x3_reduce
I0403 13:37:15.430573 32623 net.cpp:425] inception_4b/relu_3x3_reduce <- inception_4b/3x3_reduce
I0403 13:37:15.430590 32623 net.cpp:386] inception_4b/relu_3x3_reduce -> inception_4b/3x3_reduce (in-place)
I0403 13:37:15.430874 32623 net.cpp:141] Setting up inception_4b/relu_3x3_reduce
I0403 13:37:15.430902 32623 net.cpp:148] Top shape: 24 112 14 14 (526848)
I0403 13:37:15.430917 32623 net.cpp:156] Memory required for data: 956439840
I0403 13:37:15.430932 32623 layer_factory.hpp:77] Creating layer inception_4b/3x3
I0403 13:37:15.430954 32623 net.cpp:91] Creating Layer inception_4b/3x3
I0403 13:37:15.430971 32623 net.cpp:425] inception_4b/3x3 <- inception_4b/3x3_reduce
I0403 13:37:15.430992 32623 net.cpp:399] inception_4b/3x3 -> inception_4b/3x3
I0403 13:37:15.433982 32623 net.cpp:141] Setting up inception_4b/3x3
I0403 13:37:15.434013 32623 net.cpp:148] Top shape: 24 224 14 14 (1053696)
I0403 13:37:15.434029 32623 net.cpp:156] Memory required for data: 960654624
I0403 13:37:15.434048 32623 layer_factory.hpp:77] Creating layer inception_4b/relu_3x3
I0403 13:37:15.434067 32623 net.cpp:91] Creating Layer inception_4b/relu_3x3
I0403 13:37:15.434082 32623 net.cpp:425] inception_4b/relu_3x3 <- inception_4b/3x3
I0403 13:37:15.434101 32623 net.cpp:386] inception_4b/relu_3x3 -> inception_4b/3x3 (in-place)
I0403 13:37:15.434288 32623 net.cpp:141] Setting up inception_4b/relu_3x3
I0403 13:37:15.434314 32623 net.cpp:148] Top shape: 24 224 14 14 (1053696)
I0403 13:37:15.434329 32623 net.cpp:156] Memory required for data: 964869408
I0403 13:37:15.434343 32623 layer_factory.hpp:77] Creating layer inception_4b/5x5_reduce
I0403 13:37:15.434365 32623 net.cpp:91] Creating Layer inception_4b/5x5_reduce
I0403 13:37:15.434383 32623 net.cpp:425] inception_4b/5x5_reduce <- inception_4a/output_inception_4a/output_0_split_3
I0403 13:37:15.434406 32623 net.cpp:399] inception_4b/5x5_reduce -> inception_4b/5x5_reduce
I0403 13:37:15.435499 32623 net.cpp:141] Setting up inception_4b/5x5_reduce
I0403 13:37:15.435528 32623 net.cpp:148] Top shape: 24 24 14 14 (112896)
I0403 13:37:15.435542 32623 net.cpp:156] Memory required for data: 965320992
I0403 13:37:15.435561 32623 layer_factory.hpp:77] Creating layer inception_4b/relu_5x5_reduce
I0403 13:37:15.435578 32623 net.cpp:91] Creating Layer inception_4b/relu_5x5_reduce
I0403 13:37:15.435609 32623 net.cpp:425] inception_4b/relu_5x5_reduce <- inception_4b/5x5_reduce
I0403 13:37:15.435631 32623 net.cpp:386] inception_4b/relu_5x5_reduce -> inception_4b/5x5_reduce (in-place)
I0403 13:37:15.435817 32623 net.cpp:141] Setting up inception_4b/relu_5x5_reduce
I0403 13:37:15.435842 32623 net.cpp:148] Top shape: 24 24 14 14 (112896)
I0403 13:37:15.435858 32623 net.cpp:156] Memory required for data: 965772576
I0403 13:37:15.435871 32623 layer_factory.hpp:77] Creating layer inception_4b/5x5
I0403 13:37:15.435894 32623 net.cpp:91] Creating Layer inception_4b/5x5
I0403 13:37:15.435911 32623 net.cpp:425] inception_4b/5x5 <- inception_4b/5x5_reduce
I0403 13:37:15.435932 32623 net.cpp:399] inception_4b/5x5 -> inception_4b/5x5
I0403 13:37:15.437168 32623 net.cpp:141] Setting up inception_4b/5x5
I0403 13:37:15.437196 32623 net.cpp:148] Top shape: 24 64 14 14 (301056)
I0403 13:37:15.437216 32623 net.cpp:156] Memory required for data: 966976800
I0403 13:37:15.437237 32623 layer_factory.hpp:77] Creating layer inception_4b/relu_5x5
I0403 13:37:15.437254 32623 net.cpp:91] Creating Layer inception_4b/relu_5x5
I0403 13:37:15.437270 32623 net.cpp:425] inception_4b/relu_5x5 <- inception_4b/5x5
I0403 13:37:15.437290 32623 net.cpp:386] inception_4b/relu_5x5 -> inception_4b/5x5 (in-place)
I0403 13:37:15.437575 32623 net.cpp:141] Setting up inception_4b/relu_5x5
I0403 13:37:15.437602 32623 net.cpp:148] Top shape: 24 64 14 14 (301056)
I0403 13:37:15.437618 32623 net.cpp:156] Memory required for data: 968181024
I0403 13:37:15.437633 32623 layer_factory.hpp:77] Creating layer inception_4b/pool
I0403 13:37:15.437651 32623 net.cpp:91] Creating Layer inception_4b/pool
I0403 13:37:15.437667 32623 net.cpp:425] inception_4b/pool <- inception_4a/output_inception_4a/output_0_split_4
I0403 13:37:15.437688 32623 net.cpp:399] inception_4b/pool -> inception_4b/pool
I0403 13:37:15.437754 32623 net.cpp:141] Setting up inception_4b/pool
I0403 13:37:15.437780 32623 net.cpp:148] Top shape: 24 512 14 14 (2408448)
I0403 13:37:15.437795 32623 net.cpp:156] Memory required for data: 977814816
I0403 13:37:15.437809 32623 layer_factory.hpp:77] Creating layer inception_4b/pool_proj
I0403 13:37:15.437831 32623 net.cpp:91] Creating Layer inception_4b/pool_proj
I0403 13:37:15.437849 32623 net.cpp:425] inception_4b/pool_proj <- inception_4b/pool
I0403 13:37:15.437867 32623 net.cpp:399] inception_4b/pool_proj -> inception_4b/pool_proj
I0403 13:37:15.439084 32623 net.cpp:141] Setting up inception_4b/pool_proj
I0403 13:37:15.439110 32623 net.cpp:148] Top shape: 24 64 14 14 (301056)
I0403 13:37:15.439126 32623 net.cpp:156] Memory required for data: 979019040
I0403 13:37:15.439144 32623 layer_factory.hpp:77] Creating layer inception_4b/relu_pool_proj
I0403 13:37:15.439164 32623 net.cpp:91] Creating Layer inception_4b/relu_pool_proj
I0403 13:37:15.439182 32623 net.cpp:425] inception_4b/relu_pool_proj <- inception_4b/pool_proj
I0403 13:37:15.439198 32623 net.cpp:386] inception_4b/relu_pool_proj -> inception_4b/pool_proj (in-place)
I0403 13:37:15.439388 32623 net.cpp:141] Setting up inception_4b/relu_pool_proj
I0403 13:37:15.439414 32623 net.cpp:148] Top shape: 24 64 14 14 (301056)
I0403 13:37:15.439429 32623 net.cpp:156] Memory required for data: 980223264
I0403 13:37:15.439445 32623 layer_factory.hpp:77] Creating layer inception_4b/output
I0403 13:37:15.439465 32623 net.cpp:91] Creating Layer inception_4b/output
I0403 13:37:15.439481 32623 net.cpp:425] inception_4b/output <- inception_4b/1x1
I0403 13:37:15.439498 32623 net.cpp:425] inception_4b/output <- inception_4b/3x3
I0403 13:37:15.439514 32623 net.cpp:425] inception_4b/output <- inception_4b/5x5
I0403 13:37:15.439530 32623 net.cpp:425] inception_4b/output <- inception_4b/pool_proj
I0403 13:37:15.439546 32623 net.cpp:399] inception_4b/output -> inception_4b/output
I0403 13:37:15.439594 32623 net.cpp:141] Setting up inception_4b/output
I0403 13:37:15.439616 32623 net.cpp:148] Top shape: 24 512 14 14 (2408448)
I0403 13:37:15.439631 32623 net.cpp:156] Memory required for data: 989857056
I0403 13:37:15.439659 32623 layer_factory.hpp:77] Creating layer inception_4b/output_inception_4b/output_0_split
I0403 13:37:15.439677 32623 net.cpp:91] Creating Layer inception_4b/output_inception_4b/output_0_split
I0403 13:37:15.439692 32623 net.cpp:425] inception_4b/output_inception_4b/output_0_split <- inception_4b/output
I0403 13:37:15.439712 32623 net.cpp:399] inception_4b/output_inception_4b/output_0_split -> inception_4b/output_inception_4b/output_0_split_0
I0403 13:37:15.439733 32623 net.cpp:399] inception_4b/output_inception_4b/output_0_split -> inception_4b/output_inception_4b/output_0_split_1
I0403 13:37:15.439754 32623 net.cpp:399] inception_4b/output_inception_4b/output_0_split -> inception_4b/output_inception_4b/output_0_split_2
I0403 13:37:15.439774 32623 net.cpp:399] inception_4b/output_inception_4b/output_0_split -> inception_4b/output_inception_4b/output_0_split_3
I0403 13:37:15.439860 32623 net.cpp:141] Setting up inception_4b/output_inception_4b/output_0_split
I0403 13:37:15.439887 32623 net.cpp:148] Top shape: 24 512 14 14 (2408448)
I0403 13:37:15.439903 32623 net.cpp:148] Top shape: 24 512 14 14 (2408448)
I0403 13:37:15.439918 32623 net.cpp:148] Top shape: 24 512 14 14 (2408448)
I0403 13:37:15.439935 32623 net.cpp:148] Top shape: 24 512 14 14 (2408448)
I0403 13:37:15.439952 32623 net.cpp:156] Memory required for data: 1028392224
I0403 13:37:15.439966 32623 layer_factory.hpp:77] Creating layer inception_4c/1x1
I0403 13:37:15.439990 32623 net.cpp:91] Creating Layer inception_4c/1x1
I0403 13:37:15.440006 32623 net.cpp:425] inception_4c/1x1 <- inception_4b/output_inception_4b/output_0_split_0
I0403 13:37:15.440026 32623 net.cpp:399] inception_4c/1x1 -> inception_4c/1x1
I0403 13:37:15.441531 32623 net.cpp:141] Setting up inception_4c/1x1
I0403 13:37:15.441571 32623 net.cpp:148] Top shape: 24 128 14 14 (602112)
I0403 13:37:15.441587 32623 net.cpp:156] Memory required for data: 1030800672
I0403 13:37:15.441606 32623 layer_factory.hpp:77] Creating layer inception_4c/relu_1x1
I0403 13:37:15.441627 32623 net.cpp:91] Creating Layer inception_4c/relu_1x1
I0403 13:37:15.441643 32623 net.cpp:425] inception_4c/relu_1x1 <- inception_4c/1x1
I0403 13:37:15.441661 32623 net.cpp:386] inception_4c/relu_1x1 -> inception_4c/1x1 (in-place)
I0403 13:37:15.441843 32623 net.cpp:141] Setting up inception_4c/relu_1x1
I0403 13:37:15.441867 32623 net.cpp:148] Top shape: 24 128 14 14 (602112)
I0403 13:37:15.441882 32623 net.cpp:156] Memory required for data: 1033209120
I0403 13:37:15.441897 32623 layer_factory.hpp:77] Creating layer inception_4c/3x3_reduce
I0403 13:37:15.441931 32623 net.cpp:91] Creating Layer inception_4c/3x3_reduce
I0403 13:37:15.441947 32623 net.cpp:425] inception_4c/3x3_reduce <- inception_4b/output_inception_4b/output_0_split_1
I0403 13:37:15.441967 32623 net.cpp:399] inception_4c/3x3_reduce -> inception_4c/3x3_reduce
I0403 13:37:15.443920 32623 net.cpp:141] Setting up inception_4c/3x3_reduce
I0403 13:37:15.443948 32623 net.cpp:148] Top shape: 24 128 14 14 (602112)
I0403 13:37:15.443964 32623 net.cpp:156] Memory required for data: 1035617568
I0403 13:37:15.443984 32623 layer_factory.hpp:77] Creating layer inception_4c/relu_3x3_reduce
I0403 13:37:15.444000 32623 net.cpp:91] Creating Layer inception_4c/relu_3x3_reduce
I0403 13:37:15.444015 32623 net.cpp:425] inception_4c/relu_3x3_reduce <- inception_4c/3x3_reduce
I0403 13:37:15.444036 32623 net.cpp:386] inception_4c/relu_3x3_reduce -> inception_4c/3x3_reduce (in-place)
I0403 13:37:15.444326 32623 net.cpp:141] Setting up inception_4c/relu_3x3_reduce
I0403 13:37:15.444353 32623 net.cpp:148] Top shape: 24 128 14 14 (602112)
I0403 13:37:15.444368 32623 net.cpp:156] Memory required for data: 1038026016
I0403 13:37:15.444396 32623 layer_factory.hpp:77] Creating layer inception_4c/3x3
I0403 13:37:15.444417 32623 net.cpp:91] Creating Layer inception_4c/3x3
I0403 13:37:15.444437 32623 net.cpp:425] inception_4c/3x3 <- inception_4c/3x3_reduce
I0403 13:37:15.444456 32623 net.cpp:399] inception_4c/3x3 -> inception_4c/3x3
I0403 13:37:15.448035 32623 net.cpp:141] Setting up inception_4c/3x3
I0403 13:37:15.448076 32623 net.cpp:148] Top shape: 24 256 14 14 (1204224)
I0403 13:37:15.448092 32623 net.cpp:156] Memory required for data: 1042842912
I0403 13:37:15.448125 32623 layer_factory.hpp:77] Creating layer inception_4c/relu_3x3
I0403 13:37:15.448148 32623 net.cpp:91] Creating Layer inception_4c/relu_3x3
I0403 13:37:15.448165 32623 net.cpp:425] inception_4c/relu_3x3 <- inception_4c/3x3
I0403 13:37:15.448182 32623 net.cpp:386] inception_4c/relu_3x3 -> inception_4c/3x3 (in-place)
I0403 13:37:15.448367 32623 net.cpp:141] Setting up inception_4c/relu_3x3
I0403 13:37:15.448392 32623 net.cpp:148] Top shape: 24 256 14 14 (1204224)
I0403 13:37:15.448407 32623 net.cpp:156] Memory required for data: 1047659808
I0403 13:37:15.448422 32623 layer_factory.hpp:77] Creating layer inception_4c/5x5_reduce
I0403 13:37:15.448447 32623 net.cpp:91] Creating Layer inception_4c/5x5_reduce
I0403 13:37:15.448465 32623 net.cpp:425] inception_4c/5x5_reduce <- inception_4b/output_inception_4b/output_0_split_2
I0403 13:37:15.448487 32623 net.cpp:399] inception_4c/5x5_reduce -> inception_4c/5x5_reduce
I0403 13:37:15.449582 32623 net.cpp:141] Setting up inception_4c/5x5_reduce
I0403 13:37:15.449609 32623 net.cpp:148] Top shape: 24 24 14 14 (112896)
I0403 13:37:15.449625 32623 net.cpp:156] Memory required for data: 1048111392
I0403 13:37:15.449642 32623 layer_factory.hpp:77] Creating layer inception_4c/relu_5x5_reduce
I0403 13:37:15.449659 32623 net.cpp:91] Creating Layer inception_4c/relu_5x5_reduce
I0403 13:37:15.449674 32623 net.cpp:425] inception_4c/relu_5x5_reduce <- inception_4c/5x5_reduce
I0403 13:37:15.449693 32623 net.cpp:386] inception_4c/relu_5x5_reduce -> inception_4c/5x5_reduce (in-place)
I0403 13:37:15.449874 32623 net.cpp:141] Setting up inception_4c/relu_5x5_reduce
I0403 13:37:15.449898 32623 net.cpp:148] Top shape: 24 24 14 14 (112896)
I0403 13:37:15.449913 32623 net.cpp:156] Memory required for data: 1048562976
I0403 13:37:15.449926 32623 layer_factory.hpp:77] Creating layer inception_4c/5x5
I0403 13:37:15.449949 32623 net.cpp:91] Creating Layer inception_4c/5x5
I0403 13:37:15.449965 32623 net.cpp:425] inception_4c/5x5 <- inception_4c/5x5_reduce
I0403 13:37:15.449985 32623 net.cpp:399] inception_4c/5x5 -> inception_4c/5x5
I0403 13:37:15.451282 32623 net.cpp:141] Setting up inception_4c/5x5
I0403 13:37:15.451309 32623 net.cpp:148] Top shape: 24 64 14 14 (301056)
I0403 13:37:15.451325 32623 net.cpp:156] Memory required for data: 1049767200
I0403 13:37:15.451344 32623 layer_factory.hpp:77] Creating layer inception_4c/relu_5x5
I0403 13:37:15.451364 32623 net.cpp:91] Creating Layer inception_4c/relu_5x5
I0403 13:37:15.451380 32623 net.cpp:425] inception_4c/relu_5x5 <- inception_4c/5x5
I0403 13:37:15.451397 32623 net.cpp:386] inception_4c/relu_5x5 -> inception_4c/5x5 (in-place)
I0403 13:37:15.451685 32623 net.cpp:141] Setting up inception_4c/relu_5x5
I0403 13:37:15.451712 32623 net.cpp:148] Top shape: 24 64 14 14 (301056)
I0403 13:37:15.451727 32623 net.cpp:156] Memory required for data: 1050971424
I0403 13:37:15.451742 32623 layer_factory.hpp:77] Creating layer inception_4c/pool
I0403 13:37:15.451762 32623 net.cpp:91] Creating Layer inception_4c/pool
I0403 13:37:15.451779 32623 net.cpp:425] inception_4c/pool <- inception_4b/output_inception_4b/output_0_split_3
I0403 13:37:15.451797 32623 net.cpp:399] inception_4c/pool -> inception_4c/pool
I0403 13:37:15.451879 32623 net.cpp:141] Setting up inception_4c/pool
I0403 13:37:15.451903 32623 net.cpp:148] Top shape: 24 512 14 14 (2408448)
I0403 13:37:15.451918 32623 net.cpp:156] Memory required for data: 1060605216
I0403 13:37:15.451933 32623 layer_factory.hpp:77] Creating layer inception_4c/pool_proj
I0403 13:37:15.451956 32623 net.cpp:91] Creating Layer inception_4c/pool_proj
I0403 13:37:15.451973 32623 net.cpp:425] inception_4c/pool_proj <- inception_4c/pool
I0403 13:37:15.451994 32623 net.cpp:399] inception_4c/pool_proj -> inception_4c/pool_proj
I0403 13:37:15.453274 32623 net.cpp:141] Setting up inception_4c/pool_proj
I0403 13:37:15.453304 32623 net.cpp:148] Top shape: 24 64 14 14 (301056)
I0403 13:37:15.453335 32623 net.cpp:156] Memory required for data: 1061809440
I0403 13:37:15.453354 32623 layer_factory.hpp:77] Creating layer inception_4c/relu_pool_proj
I0403 13:37:15.453375 32623 net.cpp:91] Creating Layer inception_4c/relu_pool_proj
I0403 13:37:15.453392 32623 net.cpp:425] inception_4c/relu_pool_proj <- inception_4c/pool_proj
I0403 13:37:15.453410 32623 net.cpp:386] inception_4c/relu_pool_proj -> inception_4c/pool_proj (in-place)
I0403 13:37:15.453599 32623 net.cpp:141] Setting up inception_4c/relu_pool_proj
I0403 13:37:15.453626 32623 net.cpp:148] Top shape: 24 64 14 14 (301056)
I0403 13:37:15.453641 32623 net.cpp:156] Memory required for data: 1063013664
I0403 13:37:15.453656 32623 layer_factory.hpp:77] Creating layer inception_4c/output
I0403 13:37:15.453675 32623 net.cpp:91] Creating Layer inception_4c/output
I0403 13:37:15.453692 32623 net.cpp:425] inception_4c/output <- inception_4c/1x1
I0403 13:37:15.453709 32623 net.cpp:425] inception_4c/output <- inception_4c/3x3
I0403 13:37:15.453725 32623 net.cpp:425] inception_4c/output <- inception_4c/5x5
I0403 13:37:15.453742 32623 net.cpp:425] inception_4c/output <- inception_4c/pool_proj
I0403 13:37:15.453759 32623 net.cpp:399] inception_4c/output -> inception_4c/output
I0403 13:37:15.453821 32623 net.cpp:141] Setting up inception_4c/output
I0403 13:37:15.453843 32623 net.cpp:148] Top shape: 24 512 14 14 (2408448)
I0403 13:37:15.453857 32623 net.cpp:156] Memory required for data: 1072647456
I0403 13:37:15.453873 32623 layer_factory.hpp:77] Creating layer inception_4c/output_inception_4c/output_0_split
I0403 13:37:15.453891 32623 net.cpp:91] Creating Layer inception_4c/output_inception_4c/output_0_split
I0403 13:37:15.453905 32623 net.cpp:425] inception_4c/output_inception_4c/output_0_split <- inception_4c/output
I0403 13:37:15.453924 32623 net.cpp:399] inception_4c/output_inception_4c/output_0_split -> inception_4c/output_inception_4c/output_0_split_0
I0403 13:37:15.453944 32623 net.cpp:399] inception_4c/output_inception_4c/output_0_split -> inception_4c/output_inception_4c/output_0_split_1
I0403 13:37:15.453964 32623 net.cpp:399] inception_4c/output_inception_4c/output_0_split -> inception_4c/output_inception_4c/output_0_split_2
I0403 13:37:15.453985 32623 net.cpp:399] inception_4c/output_inception_4c/output_0_split -> inception_4c/output_inception_4c/output_0_split_3
I0403 13:37:15.454076 32623 net.cpp:141] Setting up inception_4c/output_inception_4c/output_0_split
I0403 13:37:15.454102 32623 net.cpp:148] Top shape: 24 512 14 14 (2408448)
I0403 13:37:15.454118 32623 net.cpp:148] Top shape: 24 512 14 14 (2408448)
I0403 13:37:15.454133 32623 net.cpp:148] Top shape: 24 512 14 14 (2408448)
I0403 13:37:15.454149 32623 net.cpp:148] Top shape: 24 512 14 14 (2408448)
I0403 13:37:15.454162 32623 net.cpp:156] Memory required for data: 1111182624
I0403 13:37:15.454177 32623 layer_factory.hpp:77] Creating layer inception_4d/1x1
I0403 13:37:15.454200 32623 net.cpp:91] Creating Layer inception_4d/1x1
I0403 13:37:15.454221 32623 net.cpp:425] inception_4d/1x1 <- inception_4c/output_inception_4c/output_0_split_0
I0403 13:37:15.454241 32623 net.cpp:399] inception_4d/1x1 -> inception_4d/1x1
I0403 13:37:15.455667 32623 net.cpp:141] Setting up inception_4d/1x1
I0403 13:37:15.455698 32623 net.cpp:148] Top shape: 24 112 14 14 (526848)
I0403 13:37:15.455713 32623 net.cpp:156] Memory required for data: 1113290016
I0403 13:37:15.455732 32623 layer_factory.hpp:77] Creating layer inception_4d/relu_1x1
I0403 13:37:15.455751 32623 net.cpp:91] Creating Layer inception_4d/relu_1x1
I0403 13:37:15.455768 32623 net.cpp:425] inception_4d/relu_1x1 <- inception_4d/1x1
I0403 13:37:15.455787 32623 net.cpp:386] inception_4d/relu_1x1 -> inception_4d/1x1 (in-place)
I0403 13:37:15.455979 32623 net.cpp:141] Setting up inception_4d/relu_1x1
I0403 13:37:15.456004 32623 net.cpp:148] Top shape: 24 112 14 14 (526848)
I0403 13:37:15.456019 32623 net.cpp:156] Memory required for data: 1115397408
I0403 13:37:15.456035 32623 layer_factory.hpp:77] Creating layer inception_4d/3x3_reduce
I0403 13:37:15.456073 32623 net.cpp:91] Creating Layer inception_4d/3x3_reduce
I0403 13:37:15.456091 32623 net.cpp:425] inception_4d/3x3_reduce <- inception_4c/output_inception_4c/output_0_split_1
I0403 13:37:15.456113 32623 net.cpp:399] inception_4d/3x3_reduce -> inception_4d/3x3_reduce
I0403 13:37:15.457695 32623 net.cpp:141] Setting up inception_4d/3x3_reduce
I0403 13:37:15.457722 32623 net.cpp:148] Top shape: 24 144 14 14 (677376)
I0403 13:37:15.457738 32623 net.cpp:156] Memory required for data: 1118106912
I0403 13:37:15.457757 32623 layer_factory.hpp:77] Creating layer inception_4d/relu_3x3_reduce
I0403 13:37:15.457779 32623 net.cpp:91] Creating Layer inception_4d/relu_3x3_reduce
I0403 13:37:15.457797 32623 net.cpp:425] inception_4d/relu_3x3_reduce <- inception_4d/3x3_reduce
I0403 13:37:15.457814 32623 net.cpp:386] inception_4d/relu_3x3_reduce -> inception_4d/3x3_reduce (in-place)
I0403 13:37:15.458111 32623 net.cpp:141] Setting up inception_4d/relu_3x3_reduce
I0403 13:37:15.458138 32623 net.cpp:148] Top shape: 24 144 14 14 (677376)
I0403 13:37:15.458158 32623 net.cpp:156] Memory required for data: 1120816416
I0403 13:37:15.458173 32623 layer_factory.hpp:77] Creating layer inception_4d/3x3
I0403 13:37:15.458194 32623 net.cpp:91] Creating Layer inception_4d/3x3
I0403 13:37:15.458214 32623 net.cpp:425] inception_4d/3x3 <- inception_4d/3x3_reduce
I0403 13:37:15.458240 32623 net.cpp:399] inception_4d/3x3 -> inception_4d/3x3
I0403 13:37:15.462692 32623 net.cpp:141] Setting up inception_4d/3x3
I0403 13:37:15.462725 32623 net.cpp:148] Top shape: 24 288 14 14 (1354752)
I0403 13:37:15.462741 32623 net.cpp:156] Memory required for data: 1126235424
I0403 13:37:15.462760 32623 layer_factory.hpp:77] Creating layer inception_4d/relu_3x3
I0403 13:37:15.462779 32623 net.cpp:91] Creating Layer inception_4d/relu_3x3
I0403 13:37:15.462796 32623 net.cpp:425] inception_4d/relu_3x3 <- inception_4d/3x3
I0403 13:37:15.462816 32623 net.cpp:386] inception_4d/relu_3x3 -> inception_4d/3x3 (in-place)
I0403 13:37:15.463009 32623 net.cpp:141] Setting up inception_4d/relu_3x3
I0403 13:37:15.463037 32623 net.cpp:148] Top shape: 24 288 14 14 (1354752)
I0403 13:37:15.463052 32623 net.cpp:156] Memory required for data: 1131654432
I0403 13:37:15.463066 32623 layer_factory.hpp:77] Creating layer inception_4d/5x5_reduce
I0403 13:37:15.463089 32623 net.cpp:91] Creating Layer inception_4d/5x5_reduce
I0403 13:37:15.463107 32623 net.cpp:425] inception_4d/5x5_reduce <- inception_4c/output_inception_4c/output_0_split_2
I0403 13:37:15.463130 32623 net.cpp:399] inception_4d/5x5_reduce -> inception_4d/5x5_reduce
I0403 13:37:15.464321 32623 net.cpp:141] Setting up inception_4d/5x5_reduce
I0403 13:37:15.464351 32623 net.cpp:148] Top shape: 24 32 14 14 (150528)
I0403 13:37:15.464367 32623 net.cpp:156] Memory required for data: 1132256544
I0403 13:37:15.464385 32623 layer_factory.hpp:77] Creating layer inception_4d/relu_5x5_reduce
I0403 13:37:15.464403 32623 net.cpp:91] Creating Layer inception_4d/relu_5x5_reduce
I0403 13:37:15.464419 32623 net.cpp:425] inception_4d/relu_5x5_reduce <- inception_4d/5x5_reduce
I0403 13:37:15.464440 32623 net.cpp:386] inception_4d/relu_5x5_reduce -> inception_4d/5x5_reduce (in-place)
I0403 13:37:15.464643 32623 net.cpp:141] Setting up inception_4d/relu_5x5_reduce
I0403 13:37:15.464668 32623 net.cpp:148] Top shape: 24 32 14 14 (150528)
I0403 13:37:15.464684 32623 net.cpp:156] Memory required for data: 1132858656
I0403 13:37:15.464697 32623 layer_factory.hpp:77] Creating layer inception_4d/5x5
I0403 13:37:15.464720 32623 net.cpp:91] Creating Layer inception_4d/5x5
I0403 13:37:15.464738 32623 net.cpp:425] inception_4d/5x5 <- inception_4d/5x5_reduce
I0403 13:37:15.464761 32623 net.cpp:399] inception_4d/5x5 -> inception_4d/5x5
I0403 13:37:15.466292 32623 net.cpp:141] Setting up inception_4d/5x5
I0403 13:37:15.466320 32623 net.cpp:148] Top shape: 24 64 14 14 (301056)
I0403 13:37:15.466336 32623 net.cpp:156] Memory required for data: 1134062880
I0403 13:37:15.466356 32623 layer_factory.hpp:77] Creating layer inception_4d/relu_5x5
I0403 13:37:15.466392 32623 net.cpp:91] Creating Layer inception_4d/relu_5x5
I0403 13:37:15.466411 32623 net.cpp:425] inception_4d/relu_5x5 <- inception_4d/5x5
I0403 13:37:15.466429 32623 net.cpp:386] inception_4d/relu_5x5 -> inception_4d/5x5 (in-place)
I0403 13:37:15.466742 32623 net.cpp:141] Setting up inception_4d/relu_5x5
I0403 13:37:15.466768 32623 net.cpp:148] Top shape: 24 64 14 14 (301056)
I0403 13:37:15.466784 32623 net.cpp:156] Memory required for data: 1135267104
I0403 13:37:15.466799 32623 layer_factory.hpp:77] Creating layer inception_4d/pool
I0403 13:37:15.466819 32623 net.cpp:91] Creating Layer inception_4d/pool
I0403 13:37:15.466835 32623 net.cpp:425] inception_4d/pool <- inception_4c/output_inception_4c/output_0_split_3
I0403 13:37:15.466856 32623 net.cpp:399] inception_4d/pool -> inception_4d/pool
I0403 13:37:15.466928 32623 net.cpp:141] Setting up inception_4d/pool
I0403 13:37:15.466953 32623 net.cpp:148] Top shape: 24 512 14 14 (2408448)
I0403 13:37:15.466966 32623 net.cpp:156] Memory required for data: 1144900896
I0403 13:37:15.466982 32623 layer_factory.hpp:77] Creating layer inception_4d/pool_proj
I0403 13:37:15.467005 32623 net.cpp:91] Creating Layer inception_4d/pool_proj
I0403 13:37:15.467022 32623 net.cpp:425] inception_4d/pool_proj <- inception_4d/pool
I0403 13:37:15.467043 32623 net.cpp:399] inception_4d/pool_proj -> inception_4d/pool_proj
I0403 13:37:15.468904 32623 net.cpp:141] Setting up inception_4d/pool_proj
I0403 13:37:15.468935 32623 net.cpp:148] Top shape: 24 64 14 14 (301056)
I0403 13:37:15.468951 32623 net.cpp:156] Memory required for data: 1146105120
I0403 13:37:15.468989 32623 layer_factory.hpp:77] Creating layer inception_4d/relu_pool_proj
I0403 13:37:15.469007 32623 net.cpp:91] Creating Layer inception_4d/relu_pool_proj
I0403 13:37:15.469023 32623 net.cpp:425] inception_4d/relu_pool_proj <- inception_4d/pool_proj
I0403 13:37:15.469043 32623 net.cpp:386] inception_4d/relu_pool_proj -> inception_4d/pool_proj (in-place)
I0403 13:37:15.469238 32623 net.cpp:141] Setting up inception_4d/relu_pool_proj
I0403 13:37:15.469262 32623 net.cpp:148] Top shape: 24 64 14 14 (301056)
I0403 13:37:15.469277 32623 net.cpp:156] Memory required for data: 1147309344
I0403 13:37:15.469292 32623 layer_factory.hpp:77] Creating layer inception_4d/output
I0403 13:37:15.469310 32623 net.cpp:91] Creating Layer inception_4d/output
I0403 13:37:15.469326 32623 net.cpp:425] inception_4d/output <- inception_4d/1x1
I0403 13:37:15.469341 32623 net.cpp:425] inception_4d/output <- inception_4d/3x3
I0403 13:37:15.469362 32623 net.cpp:425] inception_4d/output <- inception_4d/5x5
I0403 13:37:15.469377 32623 net.cpp:425] inception_4d/output <- inception_4d/pool_proj
I0403 13:37:15.469394 32623 net.cpp:399] inception_4d/output -> inception_4d/output
I0403 13:37:15.469442 32623 net.cpp:141] Setting up inception_4d/output
I0403 13:37:15.469468 32623 net.cpp:148] Top shape: 24 528 14 14 (2483712)
I0403 13:37:15.469483 32623 net.cpp:156] Memory required for data: 1157244192
I0403 13:37:15.469498 32623 layer_factory.hpp:77] Creating layer inception_4d/output_inception_4d/output_0_split
I0403 13:37:15.469516 32623 net.cpp:91] Creating Layer inception_4d/output_inception_4d/output_0_split
I0403 13:37:15.469532 32623 net.cpp:425] inception_4d/output_inception_4d/output_0_split <- inception_4d/output
I0403 13:37:15.469552 32623 net.cpp:399] inception_4d/output_inception_4d/output_0_split -> inception_4d/output_inception_4d/output_0_split_0
I0403 13:37:15.469573 32623 net.cpp:399] inception_4d/output_inception_4d/output_0_split -> inception_4d/output_inception_4d/output_0_split_1
I0403 13:37:15.469594 32623 net.cpp:399] inception_4d/output_inception_4d/output_0_split -> inception_4d/output_inception_4d/output_0_split_2
I0403 13:37:15.469615 32623 net.cpp:399] inception_4d/output_inception_4d/output_0_split -> inception_4d/output_inception_4d/output_0_split_3
I0403 13:37:15.469635 32623 net.cpp:399] inception_4d/output_inception_4d/output_0_split -> inception_4d/output_inception_4d/output_0_split_4
I0403 13:37:15.469743 32623 net.cpp:141] Setting up inception_4d/output_inception_4d/output_0_split
I0403 13:37:15.469779 32623 net.cpp:148] Top shape: 24 528 14 14 (2483712)
I0403 13:37:15.469797 32623 net.cpp:148] Top shape: 24 528 14 14 (2483712)
I0403 13:37:15.469815 32623 net.cpp:148] Top shape: 24 528 14 14 (2483712)
I0403 13:37:15.469830 32623 net.cpp:148] Top shape: 24 528 14 14 (2483712)
I0403 13:37:15.469846 32623 net.cpp:148] Top shape: 24 528 14 14 (2483712)
I0403 13:37:15.469859 32623 net.cpp:156] Memory required for data: 1206918432
I0403 13:37:15.469873 32623 layer_factory.hpp:77] Creating layer loss2/ave_pool
I0403 13:37:15.469892 32623 net.cpp:91] Creating Layer loss2/ave_pool
I0403 13:37:15.469907 32623 net.cpp:425] loss2/ave_pool <- inception_4d/output_inception_4d/output_0_split_0
I0403 13:37:15.469928 32623 net.cpp:399] loss2/ave_pool -> loss2/ave_pool
I0403 13:37:15.470252 32623 net.cpp:141] Setting up loss2/ave_pool
I0403 13:37:15.470278 32623 net.cpp:148] Top shape: 24 528 4 4 (202752)
I0403 13:37:15.470293 32623 net.cpp:156] Memory required for data: 1207729440
I0403 13:37:15.470309 32623 layer_factory.hpp:77] Creating layer loss2/conv
I0403 13:37:15.470330 32623 net.cpp:91] Creating Layer loss2/conv
I0403 13:37:15.470348 32623 net.cpp:425] loss2/conv <- loss2/ave_pool
I0403 13:37:15.470371 32623 net.cpp:399] loss2/conv -> loss2/conv
I0403 13:37:15.472295 32623 net.cpp:141] Setting up loss2/conv
I0403 13:37:15.472322 32623 net.cpp:148] Top shape: 24 128 4 4 (49152)
I0403 13:37:15.472337 32623 net.cpp:156] Memory required for data: 1207926048
I0403 13:37:15.472368 32623 layer_factory.hpp:77] Creating layer loss2/relu_conv
I0403 13:37:15.472388 32623 net.cpp:91] Creating Layer loss2/relu_conv
I0403 13:37:15.472405 32623 net.cpp:425] loss2/relu_conv <- loss2/conv
I0403 13:37:15.472422 32623 net.cpp:386] loss2/relu_conv -> loss2/conv (in-place)
I0403 13:37:15.472726 32623 net.cpp:141] Setting up loss2/relu_conv
I0403 13:37:15.472753 32623 net.cpp:148] Top shape: 24 128 4 4 (49152)
I0403 13:37:15.472766 32623 net.cpp:156] Memory required for data: 1208122656
I0403 13:37:15.472781 32623 layer_factory.hpp:77] Creating layer loss2/fc
I0403 13:37:15.472802 32623 net.cpp:91] Creating Layer loss2/fc
I0403 13:37:15.472820 32623 net.cpp:425] loss2/fc <- loss2/conv
I0403 13:37:15.472837 32623 net.cpp:399] loss2/fc -> loss2/fc
I0403 13:37:15.490355 32623 net.cpp:141] Setting up loss2/fc
I0403 13:37:15.490412 32623 net.cpp:148] Top shape: 24 1024 (24576)
I0403 13:37:15.490427 32623 net.cpp:156] Memory required for data: 1208220960
I0403 13:37:15.490447 32623 layer_factory.hpp:77] Creating layer loss2/relu_fc
I0403 13:37:15.490468 32623 net.cpp:91] Creating Layer loss2/relu_fc
I0403 13:37:15.490483 32623 net.cpp:425] loss2/relu_fc <- loss2/fc
I0403 13:37:15.490504 32623 net.cpp:386] loss2/relu_fc -> loss2/fc (in-place)
I0403 13:37:15.490831 32623 net.cpp:141] Setting up loss2/relu_fc
I0403 13:37:15.490856 32623 net.cpp:148] Top shape: 24 1024 (24576)
I0403 13:37:15.490871 32623 net.cpp:156] Memory required for data: 1208319264
I0403 13:37:15.490886 32623 layer_factory.hpp:77] Creating layer loss2/drop_fc
I0403 13:37:15.490903 32623 net.cpp:91] Creating Layer loss2/drop_fc
I0403 13:37:15.490919 32623 net.cpp:425] loss2/drop_fc <- loss2/fc
I0403 13:37:15.490938 32623 net.cpp:386] loss2/drop_fc -> loss2/fc (in-place)
I0403 13:37:15.490988 32623 net.cpp:141] Setting up loss2/drop_fc
I0403 13:37:15.491011 32623 net.cpp:148] Top shape: 24 1024 (24576)
I0403 13:37:15.491025 32623 net.cpp:156] Memory required for data: 1208417568
I0403 13:37:15.491039 32623 layer_factory.hpp:77] Creating layer loss2/classifier_plantvillage
I0403 13:37:15.491060 32623 net.cpp:91] Creating Layer loss2/classifier_plantvillage
I0403 13:37:15.491076 32623 net.cpp:425] loss2/classifier_plantvillage <- loss2/fc
I0403 13:37:15.491096 32623 net.cpp:399] loss2/classifier_plantvillage -> loss2/classifier_plantvillage
I0403 13:37:15.491502 32623 net.cpp:141] Setting up loss2/classifier_plantvillage
I0403 13:37:15.491528 32623 net.cpp:148] Top shape: 24 38 (912)
I0403 13:37:15.491565 32623 net.cpp:156] Memory required for data: 1208421216
I0403 13:37:15.491585 32623 layer_factory.hpp:77] Creating layer loss2/classifier_plantvillage_loss2/classifier_plantvillage_0_split
I0403 13:37:15.491602 32623 net.cpp:91] Creating Layer loss2/classifier_plantvillage_loss2/classifier_plantvillage_0_split
I0403 13:37:15.491618 32623 net.cpp:425] loss2/classifier_plantvillage_loss2/classifier_plantvillage_0_split <- loss2/classifier_plantvillage
I0403 13:37:15.491636 32623 net.cpp:399] loss2/classifier_plantvillage_loss2/classifier_plantvillage_0_split -> loss2/classifier_plantvillage_loss2/classifier_plantvillage_0_split_0
I0403 13:37:15.491654 32623 net.cpp:399] loss2/classifier_plantvillage_loss2/classifier_plantvillage_0_split -> loss2/classifier_plantvillage_loss2/classifier_plantvillage_0_split_1
I0403 13:37:15.491674 32623 net.cpp:399] loss2/classifier_plantvillage_loss2/classifier_plantvillage_0_split -> loss2/classifier_plantvillage_loss2/classifier_plantvillage_0_split_2
I0403 13:37:15.491752 32623 net.cpp:141] Setting up loss2/classifier_plantvillage_loss2/classifier_plantvillage_0_split
I0403 13:37:15.491775 32623 net.cpp:148] Top shape: 24 38 (912)
I0403 13:37:15.491791 32623 net.cpp:148] Top shape: 24 38 (912)
I0403 13:37:15.491806 32623 net.cpp:148] Top shape: 24 38 (912)
I0403 13:37:15.491818 32623 net.cpp:156] Memory required for data: 1208432160
I0403 13:37:15.491832 32623 layer_factory.hpp:77] Creating layer inception_4e/1x1
I0403 13:37:15.491853 32623 net.cpp:91] Creating Layer inception_4e/1x1
I0403 13:37:15.491869 32623 net.cpp:425] inception_4e/1x1 <- inception_4d/output_inception_4d/output_0_split_1
I0403 13:37:15.491890 32623 net.cpp:399] inception_4e/1x1 -> inception_4e/1x1
I0403 13:37:15.493782 32623 net.cpp:141] Setting up inception_4e/1x1
I0403 13:37:15.493809 32623 net.cpp:148] Top shape: 24 256 14 14 (1204224)
I0403 13:37:15.493825 32623 net.cpp:156] Memory required for data: 1213249056
I0403 13:37:15.493844 32623 layer_factory.hpp:77] Creating layer inception_4e/relu_1x1
I0403 13:37:15.493863 32623 net.cpp:91] Creating Layer inception_4e/relu_1x1
I0403 13:37:15.493880 32623 net.cpp:425] inception_4e/relu_1x1 <- inception_4e/1x1
I0403 13:37:15.493896 32623 net.cpp:386] inception_4e/relu_1x1 -> inception_4e/1x1 (in-place)
I0403 13:37:15.494189 32623 net.cpp:141] Setting up inception_4e/relu_1x1
I0403 13:37:15.494220 32623 net.cpp:148] Top shape: 24 256 14 14 (1204224)
I0403 13:37:15.494235 32623 net.cpp:156] Memory required for data: 1218065952
I0403 13:37:15.494251 32623 layer_factory.hpp:77] Creating layer inception_4e/3x3_reduce
I0403 13:37:15.494272 32623 net.cpp:91] Creating Layer inception_4e/3x3_reduce
I0403 13:37:15.494289 32623 net.cpp:425] inception_4e/3x3_reduce <- inception_4d/output_inception_4d/output_0_split_2
I0403 13:37:15.494309 32623 net.cpp:399] inception_4e/3x3_reduce -> inception_4e/3x3_reduce
I0403 13:37:15.496449 32623 net.cpp:141] Setting up inception_4e/3x3_reduce
I0403 13:37:15.496479 32623 net.cpp:148] Top shape: 24 160 14 14 (752640)
I0403 13:37:15.496495 32623 net.cpp:156] Memory required for data: 1221076512
I0403 13:37:15.496512 32623 layer_factory.hpp:77] Creating layer inception_4e/relu_3x3_reduce
I0403 13:37:15.496532 32623 net.cpp:91] Creating Layer inception_4e/relu_3x3_reduce
I0403 13:37:15.496549 32623 net.cpp:425] inception_4e/relu_3x3_reduce <- inception_4e/3x3_reduce
I0403 13:37:15.496567 32623 net.cpp:386] inception_4e/relu_3x3_reduce -> inception_4e/3x3_reduce (in-place)
I0403 13:37:15.496753 32623 net.cpp:141] Setting up inception_4e/relu_3x3_reduce
I0403 13:37:15.496778 32623 net.cpp:148] Top shape: 24 160 14 14 (752640)
I0403 13:37:15.496794 32623 net.cpp:156] Memory required for data: 1224087072
I0403 13:37:15.496809 32623 layer_factory.hpp:77] Creating layer inception_4e/3x3
I0403 13:37:15.496834 32623 net.cpp:91] Creating Layer inception_4e/3x3
I0403 13:37:15.496850 32623 net.cpp:425] inception_4e/3x3 <- inception_4e/3x3_reduce
I0403 13:37:15.496870 32623 net.cpp:399] inception_4e/3x3 -> inception_4e/3x3
I0403 13:37:15.501916 32623 net.cpp:141] Setting up inception_4e/3x3
I0403 13:37:15.501956 32623 net.cpp:148] Top shape: 24 320 14 14 (1505280)
I0403 13:37:15.501973 32623 net.cpp:156] Memory required for data: 1230108192
I0403 13:37:15.501991 32623 layer_factory.hpp:77] Creating layer inception_4e/relu_3x3
I0403 13:37:15.502012 32623 net.cpp:91] Creating Layer inception_4e/relu_3x3
I0403 13:37:15.502028 32623 net.cpp:425] inception_4e/relu_3x3 <- inception_4e/3x3
I0403 13:37:15.502046 32623 net.cpp:386] inception_4e/relu_3x3 -> inception_4e/3x3 (in-place)
I0403 13:37:15.502354 32623 net.cpp:141] Setting up inception_4e/relu_3x3
I0403 13:37:15.502382 32623 net.cpp:148] Top shape: 24 320 14 14 (1505280)
I0403 13:37:15.502398 32623 net.cpp:156] Memory required for data: 1236129312
I0403 13:37:15.502413 32623 layer_factory.hpp:77] Creating layer inception_4e/5x5_reduce
I0403 13:37:15.502439 32623 net.cpp:91] Creating Layer inception_4e/5x5_reduce
I0403 13:37:15.502456 32623 net.cpp:425] inception_4e/5x5_reduce <- inception_4d/output_inception_4d/output_0_split_3
I0403 13:37:15.502476 32623 net.cpp:399] inception_4e/5x5_reduce -> inception_4e/5x5_reduce
I0403 13:37:15.503568 32623 net.cpp:141] Setting up inception_4e/5x5_reduce
I0403 13:37:15.503597 32623 net.cpp:148] Top shape: 24 32 14 14 (150528)
I0403 13:37:15.503612 32623 net.cpp:156] Memory required for data: 1236731424
I0403 13:37:15.503630 32623 layer_factory.hpp:77] Creating layer inception_4e/relu_5x5_reduce
I0403 13:37:15.503651 32623 net.cpp:91] Creating Layer inception_4e/relu_5x5_reduce
I0403 13:37:15.503667 32623 net.cpp:425] inception_4e/relu_5x5_reduce <- inception_4e/5x5_reduce
I0403 13:37:15.503685 32623 net.cpp:386] inception_4e/relu_5x5_reduce -> inception_4e/5x5_reduce (in-place)
I0403 13:37:15.503989 32623 net.cpp:141] Setting up inception_4e/relu_5x5_reduce
I0403 13:37:15.504016 32623 net.cpp:148] Top shape: 24 32 14 14 (150528)
I0403 13:37:15.504031 32623 net.cpp:156] Memory required for data: 1237333536
I0403 13:37:15.504045 32623 layer_factory.hpp:77] Creating layer inception_4e/5x5
I0403 13:37:15.504084 32623 net.cpp:91] Creating Layer inception_4e/5x5
I0403 13:37:15.504103 32623 net.cpp:425] inception_4e/5x5 <- inception_4e/5x5_reduce
I0403 13:37:15.504122 32623 net.cpp:399] inception_4e/5x5 -> inception_4e/5x5
I0403 13:37:15.506034 32623 net.cpp:141] Setting up inception_4e/5x5
I0403 13:37:15.506063 32623 net.cpp:148] Top shape: 24 128 14 14 (602112)
I0403 13:37:15.506079 32623 net.cpp:156] Memory required for data: 1239741984
I0403 13:37:15.506099 32623 layer_factory.hpp:77] Creating layer inception_4e/relu_5x5
I0403 13:37:15.506119 32623 net.cpp:91] Creating Layer inception_4e/relu_5x5
I0403 13:37:15.506135 32623 net.cpp:425] inception_4e/relu_5x5 <- inception_4e/5x5
I0403 13:37:15.506155 32623 net.cpp:386] inception_4e/relu_5x5 -> inception_4e/5x5 (in-place)
I0403 13:37:15.506366 32623 net.cpp:141] Setting up inception_4e/relu_5x5
I0403 13:37:15.506392 32623 net.cpp:148] Top shape: 24 128 14 14 (602112)
I0403 13:37:15.506407 32623 net.cpp:156] Memory required for data: 1242150432
I0403 13:37:15.506422 32623 layer_factory.hpp:77] Creating layer inception_4e/pool
I0403 13:37:15.506444 32623 net.cpp:91] Creating Layer inception_4e/pool
I0403 13:37:15.506461 32623 net.cpp:425] inception_4e/pool <- inception_4d/output_inception_4d/output_0_split_4
I0403 13:37:15.506480 32623 net.cpp:399] inception_4e/pool -> inception_4e/pool
I0403 13:37:15.506554 32623 net.cpp:141] Setting up inception_4e/pool
I0403 13:37:15.506579 32623 net.cpp:148] Top shape: 24 528 14 14 (2483712)
I0403 13:37:15.506594 32623 net.cpp:156] Memory required for data: 1252085280
I0403 13:37:15.506609 32623 layer_factory.hpp:77] Creating layer inception_4e/pool_proj
I0403 13:37:15.506633 32623 net.cpp:91] Creating Layer inception_4e/pool_proj
I0403 13:37:15.506651 32623 net.cpp:425] inception_4e/pool_proj <- inception_4e/pool
I0403 13:37:15.506672 32623 net.cpp:399] inception_4e/pool_proj -> inception_4e/pool_proj
I0403 13:37:15.508241 32623 net.cpp:141] Setting up inception_4e/pool_proj
I0403 13:37:15.508282 32623 net.cpp:148] Top shape: 24 128 14 14 (602112)
I0403 13:37:15.508298 32623 net.cpp:156] Memory required for data: 1254493728
I0403 13:37:15.508317 32623 layer_factory.hpp:77] Creating layer inception_4e/relu_pool_proj
I0403 13:37:15.508337 32623 net.cpp:91] Creating Layer inception_4e/relu_pool_proj
I0403 13:37:15.508353 32623 net.cpp:425] inception_4e/relu_pool_proj <- inception_4e/pool_proj
I0403 13:37:15.508373 32623 net.cpp:386] inception_4e/relu_pool_proj -> inception_4e/pool_proj (in-place)
I0403 13:37:15.508677 32623 net.cpp:141] Setting up inception_4e/relu_pool_proj
I0403 13:37:15.508703 32623 net.cpp:148] Top shape: 24 128 14 14 (602112)
I0403 13:37:15.508718 32623 net.cpp:156] Memory required for data: 1256902176
I0403 13:37:15.508734 32623 layer_factory.hpp:77] Creating layer inception_4e/output
I0403 13:37:15.508752 32623 net.cpp:91] Creating Layer inception_4e/output
I0403 13:37:15.508769 32623 net.cpp:425] inception_4e/output <- inception_4e/1x1
I0403 13:37:15.508785 32623 net.cpp:425] inception_4e/output <- inception_4e/3x3
I0403 13:37:15.508800 32623 net.cpp:425] inception_4e/output <- inception_4e/5x5
I0403 13:37:15.508816 32623 net.cpp:425] inception_4e/output <- inception_4e/pool_proj
I0403 13:37:15.508836 32623 net.cpp:399] inception_4e/output -> inception_4e/output
I0403 13:37:15.508889 32623 net.cpp:141] Setting up inception_4e/output
I0403 13:37:15.508915 32623 net.cpp:148] Top shape: 24 832 14 14 (3913728)
I0403 13:37:15.508931 32623 net.cpp:156] Memory required for data: 1272557088
I0403 13:37:15.508947 32623 layer_factory.hpp:77] Creating layer pool4/3x3_s2
I0403 13:37:15.508965 32623 net.cpp:91] Creating Layer pool4/3x3_s2
I0403 13:37:15.508981 32623 net.cpp:425] pool4/3x3_s2 <- inception_4e/output
I0403 13:37:15.509001 32623 net.cpp:399] pool4/3x3_s2 -> pool4/3x3_s2
I0403 13:37:15.509071 32623 net.cpp:141] Setting up pool4/3x3_s2
I0403 13:37:15.509095 32623 net.cpp:148] Top shape: 24 832 7 7 (978432)
I0403 13:37:15.509110 32623 net.cpp:156] Memory required for data: 1276470816
I0403 13:37:15.509124 32623 layer_factory.hpp:77] Creating layer pool4/3x3_s2_pool4/3x3_s2_0_split
I0403 13:37:15.509142 32623 net.cpp:91] Creating Layer pool4/3x3_s2_pool4/3x3_s2_0_split
I0403 13:37:15.509158 32623 net.cpp:425] pool4/3x3_s2_pool4/3x3_s2_0_split <- pool4/3x3_s2
I0403 13:37:15.509178 32623 net.cpp:399] pool4/3x3_s2_pool4/3x3_s2_0_split -> pool4/3x3_s2_pool4/3x3_s2_0_split_0
I0403 13:37:15.509199 32623 net.cpp:399] pool4/3x3_s2_pool4/3x3_s2_0_split -> pool4/3x3_s2_pool4/3x3_s2_0_split_1
I0403 13:37:15.509227 32623 net.cpp:399] pool4/3x3_s2_pool4/3x3_s2_0_split -> pool4/3x3_s2_pool4/3x3_s2_0_split_2
I0403 13:37:15.509248 32623 net.cpp:399] pool4/3x3_s2_pool4/3x3_s2_0_split -> pool4/3x3_s2_pool4/3x3_s2_0_split_3
I0403 13:37:15.509344 32623 net.cpp:141] Setting up pool4/3x3_s2_pool4/3x3_s2_0_split
I0403 13:37:15.509368 32623 net.cpp:148] Top shape: 24 832 7 7 (978432)
I0403 13:37:15.509385 32623 net.cpp:148] Top shape: 24 832 7 7 (978432)
I0403 13:37:15.509402 32623 net.cpp:148] Top shape: 24 832 7 7 (978432)
I0403 13:37:15.509418 32623 net.cpp:148] Top shape: 24 832 7 7 (978432)
I0403 13:37:15.509433 32623 net.cpp:156] Memory required for data: 1292125728
I0403 13:37:15.509448 32623 layer_factory.hpp:77] Creating layer inception_5a/1x1
I0403 13:37:15.509470 32623 net.cpp:91] Creating Layer inception_5a/1x1
I0403 13:37:15.509488 32623 net.cpp:425] inception_5a/1x1 <- pool4/3x3_s2_pool4/3x3_s2_0_split_0
I0403 13:37:15.509510 32623 net.cpp:399] inception_5a/1x1 -> inception_5a/1x1
I0403 13:37:15.512466 32623 net.cpp:141] Setting up inception_5a/1x1
I0403 13:37:15.512496 32623 net.cpp:148] Top shape: 24 256 7 7 (301056)
I0403 13:37:15.512512 32623 net.cpp:156] Memory required for data: 1293329952
I0403 13:37:15.512531 32623 layer_factory.hpp:77] Creating layer inception_5a/relu_1x1
I0403 13:37:15.512552 32623 net.cpp:91] Creating Layer inception_5a/relu_1x1
I0403 13:37:15.512569 32623 net.cpp:425] inception_5a/relu_1x1 <- inception_5a/1x1
I0403 13:37:15.512588 32623 net.cpp:386] inception_5a/relu_1x1 -> inception_5a/1x1 (in-place)
I0403 13:37:15.512912 32623 net.cpp:141] Setting up inception_5a/relu_1x1
I0403 13:37:15.512938 32623 net.cpp:148] Top shape: 24 256 7 7 (301056)
I0403 13:37:15.512955 32623 net.cpp:156] Memory required for data: 1294534176
I0403 13:37:15.512970 32623 layer_factory.hpp:77] Creating layer inception_5a/3x3_reduce
I0403 13:37:15.512994 32623 net.cpp:91] Creating Layer inception_5a/3x3_reduce
I0403 13:37:15.513011 32623 net.cpp:425] inception_5a/3x3_reduce <- pool4/3x3_s2_pool4/3x3_s2_0_split_1
I0403 13:37:15.513033 32623 net.cpp:399] inception_5a/3x3_reduce -> inception_5a/3x3_reduce
I0403 13:37:15.515590 32623 net.cpp:141] Setting up inception_5a/3x3_reduce
I0403 13:37:15.515622 32623 net.cpp:148] Top shape: 24 160 7 7 (188160)
I0403 13:37:15.515640 32623 net.cpp:156] Memory required for data: 1295286816
I0403 13:37:15.515660 32623 layer_factory.hpp:77] Creating layer inception_5a/relu_3x3_reduce
I0403 13:37:15.515678 32623 net.cpp:91] Creating Layer inception_5a/relu_3x3_reduce
I0403 13:37:15.515696 32623 net.cpp:425] inception_5a/relu_3x3_reduce <- inception_5a/3x3_reduce
I0403 13:37:15.515712 32623 net.cpp:386] inception_5a/relu_3x3_reduce -> inception_5a/3x3_reduce (in-place)
I0403 13:37:15.515911 32623 net.cpp:141] Setting up inception_5a/relu_3x3_reduce
I0403 13:37:15.515938 32623 net.cpp:148] Top shape: 24 160 7 7 (188160)
I0403 13:37:15.515952 32623 net.cpp:156] Memory required for data: 1296039456
I0403 13:37:15.515969 32623 layer_factory.hpp:77] Creating layer inception_5a/3x3
I0403 13:37:15.515991 32623 net.cpp:91] Creating Layer inception_5a/3x3
I0403 13:37:15.516010 32623 net.cpp:425] inception_5a/3x3 <- inception_5a/3x3_reduce
I0403 13:37:15.516031 32623 net.cpp:399] inception_5a/3x3 -> inception_5a/3x3
I0403 13:37:15.521227 32623 net.cpp:141] Setting up inception_5a/3x3
I0403 13:37:15.521261 32623 net.cpp:148] Top shape: 24 320 7 7 (376320)
I0403 13:37:15.521277 32623 net.cpp:156] Memory required for data: 1297544736
I0403 13:37:15.521296 32623 layer_factory.hpp:77] Creating layer inception_5a/relu_3x3
I0403 13:37:15.521314 32623 net.cpp:91] Creating Layer inception_5a/relu_3x3
I0403 13:37:15.521330 32623 net.cpp:425] inception_5a/relu_3x3 <- inception_5a/3x3
I0403 13:37:15.521352 32623 net.cpp:386] inception_5a/relu_3x3 -> inception_5a/3x3 (in-place)
I0403 13:37:15.521658 32623 net.cpp:141] Setting up inception_5a/relu_3x3
I0403 13:37:15.521685 32623 net.cpp:148] Top shape: 24 320 7 7 (376320)
I0403 13:37:15.521700 32623 net.cpp:156] Memory required for data: 1299050016
I0403 13:37:15.521716 32623 layer_factory.hpp:77] Creating layer inception_5a/5x5_reduce
I0403 13:37:15.521739 32623 net.cpp:91] Creating Layer inception_5a/5x5_reduce
I0403 13:37:15.521757 32623 net.cpp:425] inception_5a/5x5_reduce <- pool4/3x3_s2_pool4/3x3_s2_0_split_2
I0403 13:37:15.521780 32623 net.cpp:399] inception_5a/5x5_reduce -> inception_5a/5x5_reduce
I0403 13:37:15.523013 32623 net.cpp:141] Setting up inception_5a/5x5_reduce
I0403 13:37:15.523043 32623 net.cpp:148] Top shape: 24 32 7 7 (37632)
I0403 13:37:15.523059 32623 net.cpp:156] Memory required for data: 1299200544
I0403 13:37:15.523079 32623 layer_factory.hpp:77] Creating layer inception_5a/relu_5x5_reduce
I0403 13:37:15.523100 32623 net.cpp:91] Creating Layer inception_5a/relu_5x5_reduce
I0403 13:37:15.523118 32623 net.cpp:425] inception_5a/relu_5x5_reduce <- inception_5a/5x5_reduce
I0403 13:37:15.523135 32623 net.cpp:386] inception_5a/relu_5x5_reduce -> inception_5a/5x5_reduce (in-place)
I0403 13:37:15.523454 32623 net.cpp:141] Setting up inception_5a/relu_5x5_reduce
I0403 13:37:15.523483 32623 net.cpp:148] Top shape: 24 32 7 7 (37632)
I0403 13:37:15.523510 32623 net.cpp:156] Memory required for data: 1299351072
I0403 13:37:15.523525 32623 layer_factory.hpp:77] Creating layer inception_5a/5x5
I0403 13:37:15.523547 32623 net.cpp:91] Creating Layer inception_5a/5x5
I0403 13:37:15.523564 32623 net.cpp:425] inception_5a/5x5 <- inception_5a/5x5_reduce
I0403 13:37:15.523586 32623 net.cpp:399] inception_5a/5x5 -> inception_5a/5x5
I0403 13:37:15.525332 32623 net.cpp:141] Setting up inception_5a/5x5
I0403 13:37:15.525373 32623 net.cpp:148] Top shape: 24 128 7 7 (150528)
I0403 13:37:15.525390 32623 net.cpp:156] Memory required for data: 1299953184
I0403 13:37:15.525408 32623 layer_factory.hpp:77] Creating layer inception_5a/relu_5x5
I0403 13:37:15.525427 32623 net.cpp:91] Creating Layer inception_5a/relu_5x5
I0403 13:37:15.525444 32623 net.cpp:425] inception_5a/relu_5x5 <- inception_5a/5x5
I0403 13:37:15.525463 32623 net.cpp:386] inception_5a/relu_5x5 -> inception_5a/5x5 (in-place)
I0403 13:37:15.525656 32623 net.cpp:141] Setting up inception_5a/relu_5x5
I0403 13:37:15.525681 32623 net.cpp:148] Top shape: 24 128 7 7 (150528)
I0403 13:37:15.525696 32623 net.cpp:156] Memory required for data: 1300555296
I0403 13:37:15.525710 32623 layer_factory.hpp:77] Creating layer inception_5a/pool
I0403 13:37:15.525732 32623 net.cpp:91] Creating Layer inception_5a/pool
I0403 13:37:15.525749 32623 net.cpp:425] inception_5a/pool <- pool4/3x3_s2_pool4/3x3_s2_0_split_3
I0403 13:37:15.525768 32623 net.cpp:399] inception_5a/pool -> inception_5a/pool
I0403 13:37:15.525840 32623 net.cpp:141] Setting up inception_5a/pool
I0403 13:37:15.525863 32623 net.cpp:148] Top shape: 24 832 7 7 (978432)
I0403 13:37:15.525878 32623 net.cpp:156] Memory required for data: 1304469024
I0403 13:37:15.525892 32623 layer_factory.hpp:77] Creating layer inception_5a/pool_proj
I0403 13:37:15.525914 32623 net.cpp:91] Creating Layer inception_5a/pool_proj
I0403 13:37:15.525933 32623 net.cpp:425] inception_5a/pool_proj <- inception_5a/pool
I0403 13:37:15.525952 32623 net.cpp:399] inception_5a/pool_proj -> inception_5a/pool_proj
I0403 13:37:15.528290 32623 net.cpp:141] Setting up inception_5a/pool_proj
I0403 13:37:15.528321 32623 net.cpp:148] Top shape: 24 128 7 7 (150528)
I0403 13:37:15.528338 32623 net.cpp:156] Memory required for data: 1305071136
I0403 13:37:15.528357 32623 layer_factory.hpp:77] Creating layer inception_5a/relu_pool_proj
I0403 13:37:15.528375 32623 net.cpp:91] Creating Layer inception_5a/relu_pool_proj
I0403 13:37:15.528393 32623 net.cpp:425] inception_5a/relu_pool_proj <- inception_5a/pool_proj
I0403 13:37:15.528411 32623 net.cpp:386] inception_5a/relu_pool_proj -> inception_5a/pool_proj (in-place)
I0403 13:37:15.528709 32623 net.cpp:141] Setting up inception_5a/relu_pool_proj
I0403 13:37:15.528738 32623 net.cpp:148] Top shape: 24 128 7 7 (150528)
I0403 13:37:15.528754 32623 net.cpp:156] Memory required for data: 1305673248
I0403 13:37:15.528769 32623 layer_factory.hpp:77] Creating layer inception_5a/output
I0403 13:37:15.528786 32623 net.cpp:91] Creating Layer inception_5a/output
I0403 13:37:15.528802 32623 net.cpp:425] inception_5a/output <- inception_5a/1x1
I0403 13:37:15.528820 32623 net.cpp:425] inception_5a/output <- inception_5a/3x3
I0403 13:37:15.528836 32623 net.cpp:425] inception_5a/output <- inception_5a/5x5
I0403 13:37:15.528851 32623 net.cpp:425] inception_5a/output <- inception_5a/pool_proj
I0403 13:37:15.528870 32623 net.cpp:399] inception_5a/output -> inception_5a/output
I0403 13:37:15.528919 32623 net.cpp:141] Setting up inception_5a/output
I0403 13:37:15.528944 32623 net.cpp:148] Top shape: 24 832 7 7 (978432)
I0403 13:37:15.528957 32623 net.cpp:156] Memory required for data: 1309586976
I0403 13:37:15.528971 32623 layer_factory.hpp:77] Creating layer inception_5a/output_inception_5a/output_0_split
I0403 13:37:15.528992 32623 net.cpp:91] Creating Layer inception_5a/output_inception_5a/output_0_split
I0403 13:37:15.529008 32623 net.cpp:425] inception_5a/output_inception_5a/output_0_split <- inception_5a/output
I0403 13:37:15.529026 32623 net.cpp:399] inception_5a/output_inception_5a/output_0_split -> inception_5a/output_inception_5a/output_0_split_0
I0403 13:37:15.529045 32623 net.cpp:399] inception_5a/output_inception_5a/output_0_split -> inception_5a/output_inception_5a/output_0_split_1
I0403 13:37:15.529068 32623 net.cpp:399] inception_5a/output_inception_5a/output_0_split -> inception_5a/output_inception_5a/output_0_split_2
I0403 13:37:15.529089 32623 net.cpp:399] inception_5a/output_inception_5a/output_0_split -> inception_5a/output_inception_5a/output_0_split_3
I0403 13:37:15.529201 32623 net.cpp:141] Setting up inception_5a/output_inception_5a/output_0_split
I0403 13:37:15.529229 32623 net.cpp:148] Top shape: 24 832 7 7 (978432)
I0403 13:37:15.529245 32623 net.cpp:148] Top shape: 24 832 7 7 (978432)
I0403 13:37:15.529260 32623 net.cpp:148] Top shape: 24 832 7 7 (978432)
I0403 13:37:15.529276 32623 net.cpp:148] Top shape: 24 832 7 7 (978432)
I0403 13:37:15.529289 32623 net.cpp:156] Memory required for data: 1325241888
I0403 13:37:15.529304 32623 layer_factory.hpp:77] Creating layer inception_5b/1x1
I0403 13:37:15.529327 32623 net.cpp:91] Creating Layer inception_5b/1x1
I0403 13:37:15.529345 32623 net.cpp:425] inception_5b/1x1 <- inception_5a/output_inception_5a/output_0_split_0
I0403 13:37:15.529366 32623 net.cpp:399] inception_5b/1x1 -> inception_5b/1x1
I0403 13:37:15.533174 32623 net.cpp:141] Setting up inception_5b/1x1
I0403 13:37:15.533205 32623 net.cpp:148] Top shape: 24 384 7 7 (451584)
I0403 13:37:15.533232 32623 net.cpp:156] Memory required for data: 1327048224
I0403 13:37:15.533252 32623 layer_factory.hpp:77] Creating layer inception_5b/relu_1x1
I0403 13:37:15.533270 32623 net.cpp:91] Creating Layer inception_5b/relu_1x1
I0403 13:37:15.533287 32623 net.cpp:425] inception_5b/relu_1x1 <- inception_5b/1x1
I0403 13:37:15.533303 32623 net.cpp:386] inception_5b/relu_1x1 -> inception_5b/1x1 (in-place)
I0403 13:37:15.533645 32623 net.cpp:141] Setting up inception_5b/relu_1x1
I0403 13:37:15.533674 32623 net.cpp:148] Top shape: 24 384 7 7 (451584)
I0403 13:37:15.533690 32623 net.cpp:156] Memory required for data: 1328854560
I0403 13:37:15.533704 32623 layer_factory.hpp:77] Creating layer inception_5b/3x3_reduce
I0403 13:37:15.533726 32623 net.cpp:91] Creating Layer inception_5b/3x3_reduce
I0403 13:37:15.533745 32623 net.cpp:425] inception_5b/3x3_reduce <- inception_5a/output_inception_5a/output_0_split_1
I0403 13:37:15.533763 32623 net.cpp:399] inception_5b/3x3_reduce -> inception_5b/3x3_reduce
I0403 13:37:15.536509 32623 net.cpp:141] Setting up inception_5b/3x3_reduce
I0403 13:37:15.536540 32623 net.cpp:148] Top shape: 24 192 7 7 (225792)
I0403 13:37:15.536556 32623 net.cpp:156] Memory required for data: 1329757728
I0403 13:37:15.536576 32623 layer_factory.hpp:77] Creating layer inception_5b/relu_3x3_reduce
I0403 13:37:15.536593 32623 net.cpp:91] Creating Layer inception_5b/relu_3x3_reduce
I0403 13:37:15.536610 32623 net.cpp:425] inception_5b/relu_3x3_reduce <- inception_5b/3x3_reduce
I0403 13:37:15.536629 32623 net.cpp:386] inception_5b/relu_3x3_reduce -> inception_5b/3x3_reduce (in-place)
I0403 13:37:15.536825 32623 net.cpp:141] Setting up inception_5b/relu_3x3_reduce
I0403 13:37:15.536850 32623 net.cpp:148] Top shape: 24 192 7 7 (225792)
I0403 13:37:15.536865 32623 net.cpp:156] Memory required for data: 1330660896
I0403 13:37:15.536880 32623 layer_factory.hpp:77] Creating layer inception_5b/3x3
I0403 13:37:15.536900 32623 net.cpp:91] Creating Layer inception_5b/3x3
I0403 13:37:15.536919 32623 net.cpp:425] inception_5b/3x3 <- inception_5b/3x3_reduce
I0403 13:37:15.536941 32623 net.cpp:399] inception_5b/3x3 -> inception_5b/3x3
I0403 13:37:15.543753 32623 net.cpp:141] Setting up inception_5b/3x3
I0403 13:37:15.543787 32623 net.cpp:148] Top shape: 24 384 7 7 (451584)
I0403 13:37:15.543803 32623 net.cpp:156] Memory required for data: 1332467232
I0403 13:37:15.543822 32623 layer_factory.hpp:77] Creating layer inception_5b/relu_3x3
I0403 13:37:15.543839 32623 net.cpp:91] Creating Layer inception_5b/relu_3x3
I0403 13:37:15.543855 32623 net.cpp:425] inception_5b/relu_3x3 <- inception_5b/3x3
I0403 13:37:15.543875 32623 net.cpp:386] inception_5b/relu_3x3 -> inception_5b/3x3 (in-place)
I0403 13:37:15.544174 32623 net.cpp:141] Setting up inception_5b/relu_3x3
I0403 13:37:15.544203 32623 net.cpp:148] Top shape: 24 384 7 7 (451584)
I0403 13:37:15.544224 32623 net.cpp:156] Memory required for data: 1334273568
I0403 13:37:15.544239 32623 layer_factory.hpp:77] Creating layer inception_5b/5x5_reduce
I0403 13:37:15.544281 32623 net.cpp:91] Creating Layer inception_5b/5x5_reduce
I0403 13:37:15.544299 32623 net.cpp:425] inception_5b/5x5_reduce <- inception_5a/output_inception_5a/output_0_split_2
I0403 13:37:15.544318 32623 net.cpp:399] inception_5b/5x5_reduce -> inception_5b/5x5_reduce
I0403 13:37:15.545626 32623 net.cpp:141] Setting up inception_5b/5x5_reduce
I0403 13:37:15.545653 32623 net.cpp:148] Top shape: 24 48 7 7 (56448)
I0403 13:37:15.545670 32623 net.cpp:156] Memory required for data: 1334499360
I0403 13:37:15.545687 32623 layer_factory.hpp:77] Creating layer inception_5b/relu_5x5_reduce
I0403 13:37:15.545706 32623 net.cpp:91] Creating Layer inception_5b/relu_5x5_reduce
I0403 13:37:15.545722 32623 net.cpp:425] inception_5b/relu_5x5_reduce <- inception_5b/5x5_reduce
I0403 13:37:15.545740 32623 net.cpp:386] inception_5b/relu_5x5_reduce -> inception_5b/5x5_reduce (in-place)
I0403 13:37:15.546118 32623 net.cpp:141] Setting up inception_5b/relu_5x5_reduce
I0403 13:37:15.546145 32623 net.cpp:148] Top shape: 24 48 7 7 (56448)
I0403 13:37:15.546159 32623 net.cpp:156] Memory required for data: 1334725152
I0403 13:37:15.546175 32623 layer_factory.hpp:77] Creating layer inception_5b/5x5
I0403 13:37:15.546195 32623 net.cpp:91] Creating Layer inception_5b/5x5
I0403 13:37:15.546214 32623 net.cpp:425] inception_5b/5x5 <- inception_5b/5x5_reduce
I0403 13:37:15.546236 32623 net.cpp:399] inception_5b/5x5 -> inception_5b/5x5
I0403 13:37:15.548352 32623 net.cpp:141] Setting up inception_5b/5x5
I0403 13:37:15.548380 32623 net.cpp:148] Top shape: 24 128 7 7 (150528)
I0403 13:37:15.548395 32623 net.cpp:156] Memory required for data: 1335327264
I0403 13:37:15.548414 32623 layer_factory.hpp:77] Creating layer inception_5b/relu_5x5
I0403 13:37:15.548434 32623 net.cpp:91] Creating Layer inception_5b/relu_5x5
I0403 13:37:15.548451 32623 net.cpp:425] inception_5b/relu_5x5 <- inception_5b/5x5
I0403 13:37:15.548470 32623 net.cpp:386] inception_5b/relu_5x5 -> inception_5b/5x5 (in-place)
I0403 13:37:15.548666 32623 net.cpp:141] Setting up inception_5b/relu_5x5
I0403 13:37:15.548691 32623 net.cpp:148] Top shape: 24 128 7 7 (150528)
I0403 13:37:15.548705 32623 net.cpp:156] Memory required for data: 1335929376
I0403 13:37:15.548719 32623 layer_factory.hpp:77] Creating layer inception_5b/pool
I0403 13:37:15.548743 32623 net.cpp:91] Creating Layer inception_5b/pool
I0403 13:37:15.548758 32623 net.cpp:425] inception_5b/pool <- inception_5a/output_inception_5a/output_0_split_3
I0403 13:37:15.548777 32623 net.cpp:399] inception_5b/pool -> inception_5b/pool
I0403 13:37:15.548853 32623 net.cpp:141] Setting up inception_5b/pool
I0403 13:37:15.548877 32623 net.cpp:148] Top shape: 24 832 7 7 (978432)
I0403 13:37:15.548892 32623 net.cpp:156] Memory required for data: 1339843104
I0403 13:37:15.548905 32623 layer_factory.hpp:77] Creating layer inception_5b/pool_proj
I0403 13:37:15.548928 32623 net.cpp:91] Creating Layer inception_5b/pool_proj
I0403 13:37:15.548945 32623 net.cpp:425] inception_5b/pool_proj <- inception_5b/pool
I0403 13:37:15.548966 32623 net.cpp:399] inception_5b/pool_proj -> inception_5b/pool_proj
I0403 13:37:15.551308 32623 net.cpp:141] Setting up inception_5b/pool_proj
I0403 13:37:15.551337 32623 net.cpp:148] Top shape: 24 128 7 7 (150528)
I0403 13:37:15.551352 32623 net.cpp:156] Memory required for data: 1340445216
I0403 13:37:15.551372 32623 layer_factory.hpp:77] Creating layer inception_5b/relu_pool_proj
I0403 13:37:15.551388 32623 net.cpp:91] Creating Layer inception_5b/relu_pool_proj
I0403 13:37:15.551404 32623 net.cpp:425] inception_5b/relu_pool_proj <- inception_5b/pool_proj
I0403 13:37:15.551424 32623 net.cpp:386] inception_5b/relu_pool_proj -> inception_5b/pool_proj (in-place)
I0403 13:37:15.551725 32623 net.cpp:141] Setting up inception_5b/relu_pool_proj
I0403 13:37:15.551751 32623 net.cpp:148] Top shape: 24 128 7 7 (150528)
I0403 13:37:15.551766 32623 net.cpp:156] Memory required for data: 1341047328
I0403 13:37:15.551781 32623 layer_factory.hpp:77] Creating layer inception_5b/output
I0403 13:37:15.551798 32623 net.cpp:91] Creating Layer inception_5b/output
I0403 13:37:15.551829 32623 net.cpp:425] inception_5b/output <- inception_5b/1x1
I0403 13:37:15.551847 32623 net.cpp:425] inception_5b/output <- inception_5b/3x3
I0403 13:37:15.551863 32623 net.cpp:425] inception_5b/output <- inception_5b/5x5
I0403 13:37:15.551879 32623 net.cpp:425] inception_5b/output <- inception_5b/pool_proj
I0403 13:37:15.551898 32623 net.cpp:399] inception_5b/output -> inception_5b/output
I0403 13:37:15.551950 32623 net.cpp:141] Setting up inception_5b/output
I0403 13:37:15.551977 32623 net.cpp:148] Top shape: 24 1024 7 7 (1204224)
I0403 13:37:15.551992 32623 net.cpp:156] Memory required for data: 1345864224
I0403 13:37:15.552007 32623 layer_factory.hpp:77] Creating layer pool5/7x7_s1
I0403 13:37:15.552024 32623 net.cpp:91] Creating Layer pool5/7x7_s1
I0403 13:37:15.552040 32623 net.cpp:425] pool5/7x7_s1 <- inception_5b/output
I0403 13:37:15.552058 32623 net.cpp:399] pool5/7x7_s1 -> pool5/7x7_s1
I0403 13:37:15.552286 32623 net.cpp:141] Setting up pool5/7x7_s1
I0403 13:37:15.552311 32623 net.cpp:148] Top shape: 24 1024 1 1 (24576)
I0403 13:37:15.552327 32623 net.cpp:156] Memory required for data: 1345962528
I0403 13:37:15.552342 32623 layer_factory.hpp:77] Creating layer pool5/drop_7x7_s1
I0403 13:37:15.552361 32623 net.cpp:91] Creating Layer pool5/drop_7x7_s1
I0403 13:37:15.552376 32623 net.cpp:425] pool5/drop_7x7_s1 <- pool5/7x7_s1
I0403 13:37:15.552395 32623 net.cpp:386] pool5/drop_7x7_s1 -> pool5/7x7_s1 (in-place)
I0403 13:37:15.552446 32623 net.cpp:141] Setting up pool5/drop_7x7_s1
I0403 13:37:15.552472 32623 net.cpp:148] Top shape: 24 1024 1 1 (24576)
I0403 13:37:15.552487 32623 net.cpp:156] Memory required for data: 1346060832
I0403 13:37:15.552503 32623 layer_factory.hpp:77] Creating layer loss3/classifier_plantvillage
I0403 13:37:15.552523 32623 net.cpp:91] Creating Layer loss3/classifier_plantvillage
I0403 13:37:15.552539 32623 net.cpp:425] loss3/classifier_plantvillage <- pool5/7x7_s1
I0403 13:37:15.552559 32623 net.cpp:399] loss3/classifier_plantvillage -> loss3/classifier_plantvillage
I0403 13:37:15.552994 32623 net.cpp:141] Setting up loss3/classifier_plantvillage
I0403 13:37:15.553019 32623 net.cpp:148] Top shape: 24 38 (912)
I0403 13:37:15.553033 32623 net.cpp:156] Memory required for data: 1346064480
I0403 13:37:15.553051 32623 layer_factory.hpp:77] Creating layer loss3/classifier_plantvillage_loss3/classifier_plantvillage_0_split
I0403 13:37:15.553072 32623 net.cpp:91] Creating Layer loss3/classifier_plantvillage_loss3/classifier_plantvillage_0_split
I0403 13:37:15.553088 32623 net.cpp:425] loss3/classifier_plantvillage_loss3/classifier_plantvillage_0_split <- loss3/classifier_plantvillage
I0403 13:37:15.553107 32623 net.cpp:399] loss3/classifier_plantvillage_loss3/classifier_plantvillage_0_split -> loss3/classifier_plantvillage_loss3/classifier_plantvillage_0_split_0
I0403 13:37:15.553128 32623 net.cpp:399] loss3/classifier_plantvillage_loss3/classifier_plantvillage_0_split -> loss3/classifier_plantvillage_loss3/classifier_plantvillage_0_split_1
I0403 13:37:15.553150 32623 net.cpp:399] loss3/classifier_plantvillage_loss3/classifier_plantvillage_0_split -> loss3/classifier_plantvillage_loss3/classifier_plantvillage_0_split_2
I0403 13:37:15.553171 32623 net.cpp:399] loss3/classifier_plantvillage_loss3/classifier_plantvillage_0_split -> loss3/classifier_plantvillage_loss3/classifier_plantvillage_0_split_3
I0403 13:37:15.553287 32623 net.cpp:141] Setting up loss3/classifier_plantvillage_loss3/classifier_plantvillage_0_split
I0403 13:37:15.553311 32623 net.cpp:148] Top shape: 24 38 (912)
I0403 13:37:15.553328 32623 net.cpp:148] Top shape: 24 38 (912)
I0403 13:37:15.553342 32623 net.cpp:148] Top shape: 24 38 (912)
I0403 13:37:15.553359 32623 net.cpp:148] Top shape: 24 38 (912)
I0403 13:37:15.553371 32623 net.cpp:156] Memory required for data: 1346079072
I0403 13:37:15.553386 32623 layer_factory.hpp:77] Creating layer loss1/loss
I0403 13:37:15.553407 32623 net.cpp:91] Creating Layer loss1/loss
I0403 13:37:15.553426 32623 net.cpp:425] loss1/loss <- loss1/classifier_plantvillage_loss1/classifier_plantvillage_0_split_0
I0403 13:37:15.553457 32623 net.cpp:425] loss1/loss <- label_data_1_split_0
…
