…
I0403 14:55:08.045622  2156 net.cpp:313] The NetState phase (1) differed from the phase (0) specified by a rule in layer data
I0403 14:55:08.046751  2156 net.cpp:49] Initializing net from parameters: 
state {
  phase: TEST
}
layer {
  name: "data"
  type: "Data"
  top: "data"
  top: "label"
  include {
    phase: TEST
  }
  transform_param {
    mirror: false
    crop_size: 224
    mean_file: "/home/mohanty/data/final_dataset/lmdb/grayscale-20-80/mean.binaryproto"
  }
  data_param {
    source: "/home/mohanty/data/final_dataset/lmdb/grayscale-20-80/test_db"
    batch_size: 24
    backend: LMDB
  }
}
layer {
  name: "conv1/7x7_s2"
  type: "Convolution"
  bottom: "data"
  top: "conv1/7x7_s2"
  param {
    lr_mult: 1
    decay_mult: 1
  }
  param {
    lr_mult: 2
    decay_mult: 0
  }
  convolution_param {
    num_output: 64
    pad: 3
    kernel_size: 7
    stride: 2
    weight_filler {
      type: "xavier"
      std: 0.1
    }
    bias_filler {
      type: "constant"
      value: 0.2
    }
  }
}
layer {
  name: "conv1/relu_7x7"
  type: "ReLU"
  bottom: "conv1/7x7_s2"
  top: "conv1/7x7_s2"
}
layer {
  name: "pool1/3x3_s2"
  type: "Pooling"
  bottom: "conv1/7x7_s2"
  top: "pool1/3x3_s2"
  pooling_param {
    pool: MAX
    kernel_size: 3
    stride: 2
  }
}
layer {
  name: "pool1/norm1"
  type: "LRN"
  bottom: "pool1/3x3_s2"
  top: "pool1/norm1"
  lrn_param {
    local_size: 5
    alpha: 0.0001
    beta: 0.75
  }
}
layer {
  name: "conv2/3x3_reduce"
  type: "Convolution"
  bottom: "pool1/norm1"
  top: "conv2/3x3_reduce"
  param {
    lr_mult: 1
    decay_mult: 1
  }
  param {
    lr_mult: 2
    decay_mult: 0
  }
  convolution_param {
    num_output: 64
    kernel_size: 1
    weight_filler {
      type: "xavier"
      std: 0.1
    }
    bias_filler {
      type: "constant"
      value: 0.2
    }
  }
}
layer {
  name: "conv2/relu_3x3_reduce"
  type: "ReLU"
  bottom: "conv2/3x3_reduce"
  top: "conv2/3x3_reduce"
}
layer {
  name: "conv2/3x3"
  type: "Convolution"
  bottom: "conv2/3x3_reduce"
  top: "conv2/3x3"
  param {
    lr_mult: 1
    decay_mult: 1
  }
  param {
    lr_mult: 2
    decay_mult: 0
  }
  convolution_param {
    num_output: 192
    pad: 1
    kernel_size: 3
    weight_filler {
      type: "xavier"
      std: 0.03
    }
    bias_filler {
      type: "constant"
      value: 0.2
    }
  }
}
layer {
  name: "conv2/relu_3x3"
  type: "ReLU"
  bottom: "conv2/3x3"
  top: "conv2/3x3"
}
layer {
  name: "conv2/norm2"
  type: "LRN"
  bottom: "conv2/3x3"
  top: "conv2/norm2"
  lrn_param {
    local_size: 5
    alpha: 0.0001
    beta: 0.75
  }
}
layer {
  name: "pool2/3x3_s2"
  type: "Pooling"
  bottom: "conv2/norm2"
  top: "pool2/3x3_s2"
  pooling_param {
    pool: MAX
    kernel_size: 3
    stride: 2
  }
}
layer {
  name: "inception_3a/1x1"
  type: "Convolution"
  bottom: "pool2/3x3_s2"
  top: "inception_3a/1x1"
  param {
    lr_mult: 1
    decay_mult: 1
  }
  param {
    lr_mult: 2
    decay_mult: 0
  }
  convolution_param {
    num_output: 64
    kernel_size: 1
    weight_filler {
      type: "xavier"
      std: 0.03
    }
    bias_filler {
      type: "constant"
      value: 0.2
    }
  }
}
layer {
  name: "inception_3a/relu_1x1"
  type: "ReLU"
  bottom: "inception_3a/1x1"
  top: "inception_3a/1x1"
}
layer {
  name: "inception_3a/3x3_reduce"
  type: "Convolution"
  bottom: "pool2/3x3_s2"
  top: "inception_3a/3x3_reduce"
  param {
    lr_mult: 1
    decay_mult: 1
  }
  param {
    lr_mult: 2
    decay_mult: 0
  }
  convolution_param {
    num_output: 96
    kernel_size: 1
    weight_filler {
      type: "xavier"
      std: 0.09
    }
    bias_filler {
      type: "constant"
      value: 0.2
    }
  }
}
layer {
  name: "inception_3a/relu_3x3_reduce"
  type: "ReLU"
  bottom: "inception_3a/3x3_reduce"
  top: "inception_3a/3x3_reduce"
}
layer {
  name: "inception_3a/3x3"
  type: "Convolution"
  bottom: "inception_3a/3x3_reduce"
  top: "inception_3a/3x3"
  param {
    lr_mult: 1
    decay_mult: 1
  }
  param {
    lr_mult: 2
    decay_mult: 0
  }
  convolution_param {
    num_output: 128
    pad: 1
    kernel_size: 3
    weight_filler {
      type: "xavier"
      std: 0.03
    }
    bias_filler {
      type: "constant"
      value: 0.2
    }
  }
}
layer {
  name: "inception_3a/relu_3x3"
  type: "ReLU"
  bottom: "inception_3a/3x3"
  top: "inception_3a/3x3"
}
layer {
  name: "inception_3a/5x5_reduce"
  type: "Convolution"
  bottom: "pool2/3x3_s2"
  top: "inception_3a/5x5_reduce"
  param {
    lr_mult: 1
    decay_mult: 1
  }
  param {
    lr_mult: 2
    decay_mult: 0
  }
  convolution_param {
    num_output: 16
    kernel_size: 1
    weight_filler {
      type: "xavier"
      std: 0.2
    }
    bias_filler {
      type: "constant"
      value: 0.2
    }
  }
}
layer {
  name: "inception_3a/relu_5x5_reduce"
  type: "ReLU"
  bottom: "inception_3a/5x5_reduce"
  top: "inception_3a/5x5_reduce"
}
layer {
  name: "inception_3a/5x5"
  type: "Convolution"
  bottom: "inception_3a/5x5_reduce"
  top: "inception_3a/5x5"
  param {
    lr_mult: 1
    decay_mult: 1
  }
  param {
    lr_mult: 2
    decay_mult: 0
  }
  convolution_param {
    num_output: 32
    pad: 2
    kernel_size: 5
    weight_filler {
      type: "xavier"
      std: 0.03
    }
    bias_filler {
      type: "constant"
      value: 0.2
    }
  }
}
layer {
  name: "inception_3a/relu_5x5"
  type: "ReLU"
  bottom: "inception_3a/5x5"
  top: "inception_3a/5x5"
}
layer {
  name: "inception_3a/pool"
  type: "Pooling"
  bottom: "pool2/3x3_s2"
  top: "inception_3a/pool"
  pooling_param {
    pool: MAX
    kernel_size: 3
    stride: 1
    pad: 1
  }
}
layer {
  name: "inception_3a/pool_proj"
  type: "Convolution"
  bottom: "inception_3a/pool"
  top: "inception_3a/pool_proj"
  param {
    lr_mult: 1
    decay_mult: 1
  }
  param {
    lr_mult: 2
    decay_mult: 0
  }
  convolution_param {
    num_output: 32
    kernel_size: 1
    weight_filler {
      type: "xavier"
      std: 0.1
    }
    bias_filler {
      type: "constant"
      value: 0.2
    }
  }
}
layer {
  name: "inception_3a/relu_pool_proj"
  type: "ReLU"
  bottom: "inception_3a/pool_proj"
  top: "inception_3a/pool_proj"
}
layer {
  name: "inception_3a/output"
  type: "Concat"
  bottom: "inception_3a/1x1"
  bottom: "inception_3a/3x3"
  bottom: "inception_3a/5x5"
  bottom: "inception_3a/pool_proj"
  top: "inception_3a/output"
}
layer {
  name: "inception_3b/1x1"
  type: "Convolution"
  bottom: "inception_3a/output"
  top: "inception_3b/1x1"
  param {
    lr_mult: 1
    decay_mult: 1
  }
  param {
    lr_mult: 2
    decay_mult: 0
  }
  convolution_param {
    num_output: 128
    kernel_size: 1
    weight_filler {
      type: "xavier"
      std: 0.03
    }
    bias_filler {
      type: "constant"
      value: 0.2
    }
  }
}
layer {
  name: "inception_3b/relu_1x1"
  type: "ReLU"
  bottom: "inception_3b/1x1"
  top: "inception_3b/1x1"
}
layer {
  name: "inception_3b/3x3_reduce"
  type: "Convolution"
  bottom: "inception_3a/output"
  top: "inception_3b/3x3_reduce"
  param {
    lr_mult: 1
    decay_mult: 1
  }
  param {
    lr_mult: 2
    decay_mult: 0
  }
  convolution_param {
    num_output: 128
    kernel_size: 1
    weight_filler {
      type: "xavier"
      std: 0.09
    }
    bias_filler {
      type: "constant"
      value: 0.2
    }
  }
}
layer {
  name: "inception_3b/relu_3x3_reduce"
  type: "ReLU"
  bottom: "inception_3b/3x3_reduce"
  top: "inception_3b/3x3_reduce"
}
layer {
  name: "inception_3b/3x3"
  type: "Convolution"
  bottom: "inception_3b/3x3_reduce"
  top: "inception_3b/3x3"
  param {
    lr_mult: 1
    decay_mult: 1
  }
  param {
    lr_mult: 2
    decay_mult: 0
  }
  convolution_param {
    num_output: 192
    pad: 1
    kernel_size: 3
    weight_filler {
      type: "xavier"
      std: 0.03
    }
    bias_filler {
      type: "constant"
      value: 0.2
    }
  }
}
layer {
  name: "inception_3b/relu_3x3"
  type: "ReLU"
  bottom: "inception_3b/3x3"
  top: "inception_3b/3x3"
}
layer {
  name: "inception_3b/5x5_reduce"
  type: "Convolution"
  bottom: "inception_3a/output"
  top: "inception_3b/5x5_reduce"
  param {
    lr_mult: 1
    decay_mult: 1
  }
  param {
    lr_mult: 2
    decay_mult: 0
  }
  convolution_param {
    num_output: 32
    kernel_size: 1
    weight_filler {
      type: "xavier"
      std: 0.2
    }
    bias_filler {
      type: "constant"
      value: 0.2
    }
  }
}
layer {
  name: "inception_3b/relu_5x5_reduce"
  type: "ReLU"
  bottom: "inception_3b/5x5_reduce"
  top: "inception_3b/5x5_reduce"
}
layer {
  name: "inception_3b/5x5"
  type: "Convolution"
  bottom: "inception_3b/5x5_reduce"
  top: "inception_3b/5x5"
  param {
    lr_mult: 1
    decay_mult: 1
  }
  param {
    lr_mult: 2
    decay_mult: 0
  }
  convolution_param {
    num_output: 96
    pad: 2
    kernel_size: 5
    weight_filler {
      type: "xavier"
      std: 0.03
    }
    bias_filler {
      type: "constant"
      value: 0.2
    }
  }
}
layer {
  name: "inception_3b/relu_5x5"
  type: "ReLU"
  bottom: "inception_3b/5x5"
  top: "inception_3b/5x5"
}
layer {
  name: "inception_3b/pool"
  type: "Pooling"
  bottom: "inception_3a/output"
  top: "inception_3b/pool"
  pooling_param {
    pool: MAX
    kernel_size: 3
    stride: 1
    pad: 1
  }
}
layer {
  name: "inception_3b/pool_proj"
  type: "Convolution"
  bottom: "inception_3b/pool"
  top: "inception_3b/pool_proj"
  param {
    lr_mult: 1
    decay_mult: 1
  }
  param {
    lr_mult: 2
    decay_mult: 0
  }
  convolution_param {
    num_output: 64
    kernel_size: 1
    weight_filler {
      type: "xavier"
      std: 0.1
    }
    bias_filler {
      type: "constant"
      value: 0.2
    }
  }
}
layer {
  name: "inception_3b/relu_pool_proj"
  type: "ReLU"
  bottom: "inception_3b/pool_proj"
  top: "inception_3b/pool_proj"
}
layer {
  name: "inception_3b/output"
  type: "Concat"
  bottom: "inception_3b/1x1"
  bottom: "inception_3b/3x3"
  bottom: "inception_3b/5x5"
  bottom: "inception_3b/pool_proj"
  top: "inception_3b/output"
}
layer {
  name: "pool3/3x3_s2"
  type: "Pooling"
  bottom: "inception_3b/output"
  top: "pool3/3x3_s2"
  pooling_param {
    pool: MAX
    kernel_size: 3
    stride: 2
  }
}
layer {
  name: "inception_4a/1x1"
  type: "Convolution"
  bottom: "pool3/3x3_s2"
  top: "inception_4a/1x1"
  param {
    lr_mult: 1
    decay_mult: 1
  }
  param {
    lr_mult: 2
    decay_mult: 0
  }
  convolution_param {
    num_output: 192
    kernel_size: 1
    weight_filler {
      type: "xavier"
      std: 0.03
    }
    bias_filler {
      type: "constant"
      value: 0.2
    }
  }
}
layer {
  name: "inception_4a/relu_1x1"
  type: "ReLU"
  bottom: "inception_4a/1x1"
  top: "inception_4a/1x1"
}
layer {
  name: "inception_4a/3x3_reduce"
  type: "Convolution"
  bottom: "pool3/3x3_s2"
  top: "inception_4a/3x3_reduce"
  param {
    lr_mult: 1
    decay_mult: 1
  }
  param {
    lr_mult: 2
    decay_mult: 0
  }
  convolution_param {
    num_output: 96
    kernel_size: 1
    weight_filler {
      type: "xavier"
      std: 0.09
    }
    bias_filler {
      type: "constant"
      value: 0.2
    }
  }
}
layer {
  name: "inception_4a/relu_3x3_reduce"
  type: "ReLU"
  bottom: "inception_4a/3x3_reduce"
  top: "inception_4a/3x3_reduce"
}
layer {
  name: "inception_4a/3x3"
  type: "Convolution"
  bottom: "inception_4a/3x3_reduce"
  top: "inception_4a/3x3"
  param {
    lr_mult: 1
    decay_mult: 1
  }
  param {
    lr_mult: 2
    decay_mult: 0
  }
  convolution_param {
    num_output: 208
    pad: 1
    kernel_size: 3
    weight_filler {
      type: "xavier"
      std: 0.03
    }
    bias_filler {
      type: "constant"
      value: 0.2
    }
  }
}
layer {
  name: "inception_4a/relu_3x3"
  type: "ReLU"
  bottom: "inception_4a/3x3"
  top: "inception_4a/3x3"
}
layer {
  name: "inception_4a/5x5_reduce"
  type: "Convolution"
  bottom: "pool3/3x3_s2"
  top: "inception_4a/5x5_reduce"
  param {
    lr_mult: 1
    decay_mult: 1
  }
  param {
    lr_mult: 2
    decay_mult: 0
  }
  convolution_param {
    num_output: 16
    kernel_size: 1
    weight_filler {
      type: "xavier"
      std: 0.2
    }
    bias_filler {
      type: "constant"
      value: 0.2
    }
  }
}
layer {
  name: "inception_4a/relu_5x5_reduce"
  type: "ReLU"
  bottom: "inception_4a/5x5_reduce"
  top: "inception_4a/5x5_reduce"
}
layer {
  name: "inception_4a/5x5"
  type: "Convolution"
  bottom: "inception_4a/5x5_reduce"
  top: "inception_4a/5x5"
  param {
    lr_mult: 1
    decay_mult: 1
  }
  param {
    lr_mult: 2
    decay_mult: 0
  }
  convolution_param {
    num_output: 48
    pad: 2
    kernel_size: 5
    weight_filler {
      type: "xavier"
      std: 0.03
    }
    bias_filler {
      type: "constant"
      value: 0.2
    }
  }
}
layer {
  name: "inception_4a/relu_5x5"
  type: "ReLU"
  bottom: "inception_4a/5x5"
  top: "inception_4a/5x5"
}
layer {
  name: "inception_4a/pool"
  type: "Pooling"
  bottom: "pool3/3x3_s2"
  top: "inception_4a/pool"
  pooling_param {
    pool: MAX
    kernel_size: 3
    stride: 1
    pad: 1
  }
}
layer {
  name: "inception_4a/pool_proj"
  type: "Convolution"
  bottom: "inception_4a/pool"
  top: "inception_4a/pool_proj"
  param {
    lr_mult: 1
    decay_mult: 1
  }
  param {
    lr_mult: 2
    decay_mult: 0
  }
  convolution_param {
    num_output: 64
    kernel_size: 1
    weight_filler {
      type: "xavier"
      std: 0.1
    }
    bias_filler {
      type: "constant"
      value: 0.2
    }
  }
}
layer {
  name: "inception_4a/relu_pool_proj"
  type: "ReLU"
  bottom: "inception_4a/pool_proj"
  top: "inception_4a/pool_proj"
}
layer {
  name: "inception_4a/output"
  type: "Concat"
  bottom: "inception_4a/1x1"
  bottom: "inception_4a/3x3"
  bottom: "inception_4a/5x5"
  bottom: "inception_4a/pool_proj"
  top: "inception_4a/output"
}
layer {
  name: "loss1/ave_pool"
  type: "Pooling"
  bottom: "inception_4a/output"
  top: "loss1/ave_pool"
  pooling_param {
    pool: AVE
    kernel_size: 5
    stride: 3
  }
}
layer {
  name: "loss1/conv"
  type: "Convolution"
  bottom: "loss1/ave_pool"
  top: "loss1/conv"
  param {
    lr_mult: 1
    decay_mult: 1
  }
  param {
    lr_mult: 2
    decay_mult: 0
  }
  convolution_param {
    num_output: 128
    kernel_size: 1
    weight_filler {
      type: "xavier"
      std: 0.08
    }
    bias_filler {
      type: "constant"
      value: 0.2
    }
  }
}
layer {
  name: "loss1/relu_conv"
  type: "ReLU"
  bottom: "loss1/conv"
  top: "loss1/conv"
}
layer {
  name: "loss1/fc"
  type: "InnerProduct"
  bottom: "loss1/conv"
  top: "loss1/fc"
  param {
    lr_mult: 1
    decay_mult: 1
  }
  param {
    lr_mult: 2
    decay_mult: 0
  }
  inner_product_param {
    num_output: 1024
    weight_filler {
      type: "xavier"
      std: 0.02
    }
    bias_filler {
      type: "constant"
      value: 0.2
    }
  }
}
layer {
  name: "loss1/relu_fc"
  type: "ReLU"
  bottom: "loss1/fc"
  top: "loss1/fc"
}
layer {
  name: "loss1/drop_fc"
  type: "Dropout"
  bottom: "loss1/fc"
  top: "loss1/fc"
  dropout_param {
    dropout_ratio: 0.7
  }
}
layer {
  name: "loss1/classifier_plantvillage"
  type: "InnerProduct"
  bottom: "loss1/fc"
  top: "loss1/classifier_plantvillage"
  param {
    lr_mult: 1
    decay_mult: 1
  }
  param {
    lr_mult: 2
    decay_mult: 0
  }
  inner_product_param {
    num_output: 38
    weight_filler {
      type: "xavier"
      std: 0.0009765625
    }
    bias_filler {
      type: "constant"
      value: 0
    }
  }
}
layer {
  name: "inception_4b/1x1"
  type: "Convolution"
  bottom: "inception_4a/output"
  top: "inception_4b/1x1"
  param {
    lr_mult: 1
    decay_mult: 1
  }
  param {
    lr_mult: 2
    decay_mult: 0
  }
  convolution_param {
    num_output: 160
    kernel_size: 1
    weight_filler {
      type: "xavier"
      std: 0.03
    }
    bias_filler {
      type: "constant"
      value: 0.2
    }
  }
}
layer {
  name: "inception_4b/relu_1x1"
  type: "ReLU"
  bottom: "inception_4b/1x1"
  top: "inception_4b/1x1"
}
layer {
  name: "inception_4b/3x3_reduce"
  type: "Convolution"
  bottom: "inception_4a/output"
  top: "inception_4b/3x3_reduce"
  param {
    lr_mult: 1
    decay_mult: 1
  }
  param {
    lr_mult: 2
    decay_mult: 0
  }
  convolution_param {
    num_output: 112
    kernel_size: 1
    weight_filler {
      type: "xavier"
      std: 0.09
    }
    bias_filler {
      type: "constant"
      value: 0.2
    }
  }
}
layer {
  name: "inception_4b/relu_3x3_reduce"
  type: "ReLU"
  bottom: "inception_4b/3x3_reduce"
  top: "inception_4b/3x3_reduce"
}
layer {
  name: "inception_4b/3x3"
  type: "Convolution"
  bottom: "inception_4b/3x3_reduce"
  top: "inception_4b/3x3"
  param {
    lr_mult: 1
    decay_mult: 1
  }
  param {
    lr_mult: 2
    decay_mult: 0
  }
  convolution_param {
    num_output: 224
    pad: 1
    kernel_size: 3
    weight_filler {
      type: "xavier"
      std: 0.03
    }
    bias_filler {
      type: "constant"
      value: 0.2
    }
  }
}
layer {
  name: "inception_4b/relu_3x3"
  type: "ReLU"
  bottom: "inception_4b/3x3"
  top: "inception_4b/3x3"
}
layer {
  name: "inception_4b/5x5_reduce"
  type: "Convolution"
  bottom: "inception_4a/output"
  top: "inception_4b/5x5_reduce"
  param {
    lr_mult: 1
    decay_mult: 1
  }
  param {
    lr_mult: 2
    decay_mult: 0
  }
  convolution_param {
    num_output: 24
    kernel_size: 1
    weight_filler {
      type: "xavier"
      std: 0.2
    }
    bias_filler {
      type: "constant"
      value: 0.2
    }
  }
}
layer {
  name: "inception_4b/relu_5x5_reduce"
  type: "ReLU"
  bottom: "inception_4b/5x5_reduce"
  top: "inception_4b/5x5_reduce"
}
layer {
  name: "inception_4b/5x5"
  type: "Convolution"
  bottom: "inception_4b/5x5_reduce"
  top: "inception_4b/5x5"
  param {
    lr_mult: 1
    decay_mult: 1
  }
  param {
    lr_mult: 2
    decay_mult: 0
  }
  convolution_param {
    num_output: 64
    pad: 2
    kernel_size: 5
    weight_filler {
      type: "xavier"
      std: 0.03
    }
    bias_filler {
      type: "constant"
      value: 0.2
    }
  }
}
layer {
  name: "inception_4b/relu_5x5"
  type: "ReLU"
  bottom: "inception_4b/5x5"
  top: "inception_4b/5x5"
}
layer {
  name: "inception_4b/pool"
  type: "Pooling"
  bottom: "inception_4a/output"
  top: "inception_4b/pool"
  pooling_param {
    pool: MAX
    kernel_size: 3
    stride: 1
    pad: 1
  }
}
layer {
  name: "inception_4b/pool_proj"
  type: "Convolution"
  bottom: "inception_4b/pool"
  top: "inception_4b/pool_proj"
  param {
    lr_mult: 1
    decay_mult: 1
  }
  param {
    lr_mult: 2
    decay_mult: 0
  }
  convolution_param {
    num_output: 64
    kernel_size: 1
    weight_filler {
      type: "xavier"
      std: 0.1
    }
    bias_filler {
      type: "constant"
      value: 0.2
    }
  }
}
layer {
  name: "inception_4b/relu_pool_proj"
  type: "ReLU"
  bottom: "inception_4b/pool_proj"
  top: "inception_4b/pool_proj"
}
layer {
  name: "inception_4b/output"
  type: "Concat"
  bottom: "inception_4b/1x1"
  bottom: "inception_4b/3x3"
  bottom: "inception_4b/5x5"
  bottom: "inception_4b/pool_proj"
  top: "inception_4b/output"
}
layer {
  name: "inception_4c/1x1"
  type: "Convolution"
  bottom: "inception_4b/output"
  top: "inception_4c/1x1"
  param {
    lr_mult: 1
    decay_mult: 1
  }
  param {
    lr_mult: 2
    decay_mult: 0
  }
  convolution_param {
    num_output: 128
    kernel_size: 1
    weight_filler {
      type: "xavier"
      std: 0.03
    }
    bias_filler {
      type: "constant"
      value: 0.2
    }
  }
}
layer {
  name: "inception_4c/relu_1x1"
  type: "ReLU"
  bottom: "inception_4c/1x1"
  top: "inception_4c/1x1"
}
layer {
  name: "inception_4c/3x3_reduce"
  type: "Convolution"
  bottom: "inception_4b/output"
  top: "inception_4c/3x3_reduce"
  param {
    lr_mult: 1
    decay_mult: 1
  }
  param {
    lr_mult: 2
    decay_mult: 0
  }
  convolution_param {
    num_output: 128
    kernel_size: 1
    weight_filler {
      type: "xavier"
      std: 0.09
    }
    bias_filler {
      type: "constant"
      value: 0.2
    }
  }
}
layer {
  name: "inception_4c/relu_3x3_reduce"
  type: "ReLU"
  bottom: "inception_4c/3x3_reduce"
  top: "inception_4c/3x3_reduce"
}
layer {
  name: "inception_4c/3x3"
  type: "Convolution"
  bottom: "inception_4c/3x3_reduce"
  top: "inception_4c/3x3"
  param {
    lr_mult: 1
    decay_mult: 1
  }
  param {
    lr_mult: 2
    decay_mult: 0
  }
  convolution_param {
    num_output: 256
    pad: 1
    kernel_size: 3
    weight_filler {
      type: "xavier"
      std: 0.03
    }
    bias_filler {
      type: "constant"
      value: 0.2
    }
  }
}
layer {
  name: "inception_4c/relu_3x3"
  type: "ReLU"
  bottom: "inception_4c/3x3"
  top: "inception_4c/3x3"
}
layer {
  name: "inception_4c/5x5_reduce"
  type: "Convolution"
  bottom: "inception_4b/output"
  top: "inception_4c/5x5_reduce"
  param {
    lr_mult: 1
    decay_mult: 1
  }
  param {
    lr_mult: 2
    decay_mult: 0
  }
  convolution_param {
    num_output: 24
    kernel_size: 1
    weight_filler {
      type: "xavier"
      std: 0.2
    }
    bias_filler {
      type: "constant"
      value: 0.2
    }
  }
}
layer {
  name: "inception_4c/relu_5x5_reduce"
  type: "ReLU"
  bottom: "inception_4c/5x5_reduce"
  top: "inception_4c/5x5_reduce"
}
layer {
  name: "inception_4c/5x5"
  type: "Convolution"
  bottom: "inception_4c/5x5_reduce"
  top: "inception_4c/5x5"
  param {
    lr_mult: 1
    decay_mult: 1
  }
  param {
    lr_mult: 2
    decay_mult: 0
  }
  convolution_param {
    num_output: 64
    pad: 2
    kernel_size: 5
    weight_filler {
      type: "xavier"
      std: 0.03
    }
    bias_filler {
      type: "constant"
      value: 0.2
    }
  }
}
layer {
  name: "inception_4c/relu_5x5"
  type: "ReLU"
  bottom: "inception_4c/5x5"
  top: "inception_4c/5x5"
}
layer {
  name: "inception_4c/pool"
  type: "Pooling"
  bottom: "inception_4b/output"
  top: "inception_4c/pool"
  pooling_param {
    pool: MAX
    kernel_size: 3
    stride: 1
    pad: 1
  }
}
layer {
  name: "inception_4c/pool_proj"
  type: "Convolution"
  bottom: "inception_4c/pool"
  top: "inception_4c/pool_proj"
  param {
    lr_mult: 1
    decay_mult: 1
  }
  param {
    lr_mult: 2
    decay_mult: 0
  }
  convolution_param {
    num_output: 64
    kernel_size: 1
    weight_filler {
      type: "xavier"
      std: 0.1
    }
    bias_filler {
      type: "constant"
      value: 0.2
    }
  }
}
layer {
  name: "inception_4c/relu_pool_proj"
  type: "ReLU"
  bottom: "inception_4c/pool_proj"
  top: "inception_4c/pool_proj"
}
layer {
  name: "inception_4c/output"
  type: "Concat"
  bottom: "inception_4c/1x1"
  bottom: "inception_4c/3x3"
  bottom: "inception_4c/5x5"
  bottom: "inception_4c/pool_proj"
  top: "inception_4c/output"
}
layer {
  name: "inception_4d/1x1"
  type: "Convolution"
  bottom: "inception_4c/output"
  top: "inception_4d/1x1"
  param {
    lr_mult: 1
    decay_mult: 1
  }
  param {
    lr_mult: 2
    decay_mult: 0
  }
  convolution_param {
    num_output: 112
    kernel_size: 1
    weight_filler {
      type: "xavier"
      std: 0.03
    }
    bias_filler {
      type: "constant"
      value: 0.2
    }
  }
}
layer {
  name: "inception_4d/relu_1x1"
  type: "ReLU"
  bottom: "inception_4d/1x1"
  top: "inception_4d/1x1"
}
layer {
  name: "inception_4d/3x3_reduce"
  type: "Convolution"
  bottom: "inception_4c/output"
  top: "inception_4d/3x3_reduce"
  param {
    lr_mult: 1
    decay_mult: 1
  }
  param {
    lr_mult: 2
    decay_mult: 0
  }
  convolution_param {
    num_output: 144
    kernel_size: 1
    weight_filler {
      type: "xavier"
      std: 0.09
    }
    bias_filler {
      type: "constant"
      value: 0.2
    }
  }
}
layer {
  name: "inception_4d/relu_3x3_reduce"
  type: "ReLU"
  bottom: "inception_4d/3x3_reduce"
  top: "inception_4d/3x3_reduce"
}
layer {
  name: "inception_4d/3x3"
  type: "Convolution"
  bottom: "inception_4d/3x3_reduce"
  top: "inception_4d/3x3"
  param {
    lr_mult: 1
    decay_mult: 1
  }
  param {
    lr_mult: 2
    decay_mult: 0
  }
  convolution_param {
    num_output: 288
    pad: 1
    kernel_size: 3
    weight_filler {
      type: "xavier"
      std: 0.03
    }
    bias_filler {
      type: "constant"
      value: 0.2
    }
  }
}
layer {
  name: "inception_4d/relu_3x3"
  type: "ReLU"
  bottom: "inception_4d/3x3"
  top: "inception_4d/3x3"
}
layer {
  name: "inception_4d/5x5_reduce"
  type: "Convolution"
  bottom: "inception_4c/output"
  top: "inception_4d/5x5_reduce"
  param {
    lr_mult: 1
    decay_mult: 1
  }
  param {
    lr_mult: 2
    decay_mult: 0
  }
  convolution_param {
    num_output: 32
    kernel_size: 1
    weight_filler {
      type: "xavier"
      std: 0.2
    }
    bias_filler {
      type: "constant"
      value: 0.2
    }
  }
}
layer {
  name: "inception_4d/relu_5x5_reduce"
  type: "ReLU"
  bottom: "inception_4d/5x5_reduce"
  top: "inception_4d/5x5_reduce"
}
layer {
  name: "inception_4d/5x5"
  type: "Convolution"
  bottom: "inception_4d/5x5_reduce"
  top: "inception_4d/5x5"
  param {
    lr_mult: 1
    decay_mult: 1
  }
  param {
    lr_mult: 2
    decay_mult: 0
  }
  convolution_param {
    num_output: 64
    pad: 2
    kernel_size: 5
    weight_filler {
      type: "xavier"
      std: 0.03
    }
    bias_filler {
      type: "constant"
      value: 0.2
    }
  }
}
layer {
  name: "inception_4d/relu_5x5"
  type: "ReLU"
  bottom: "inception_4d/5x5"
  top: "inception_4d/5x5"
}
layer {
  name: "inception_4d/pool"
  type: "Pooling"
  bottom: "inception_4c/output"
  top: "inception_4d/pool"
  pooling_param {
    pool: MAX
    kernel_size: 3
    stride: 1
    pad: 1
  }
}
layer {
  name: "inception_4d/pool_proj"
  type: "Convolution"
  bottom: "inception_4d/pool"
  top: "inception_4d/pool_proj"
  param {
    lr_mult: 1
    decay_mult: 1
  }
  param {
    lr_mult: 2
    decay_mult: 0
  }
  convolution_param {
    num_output: 64
    kernel_size: 1
    weight_filler {
      type: "xavier"
      std: 0.1
    }
    bias_filler {
      type: "constant"
      value: 0.2
    }
  }
}
layer {
  name: "inception_4d/relu_pool_proj"
  type: "ReLU"
  bottom: "inception_4d/pool_proj"
  top: "inception_4d/pool_proj"
}
layer {
  name: "inception_4d/output"
  type: "Concat"
  bottom: "inception_4d/1x1"
  bottom: "inception_4d/3x3"
  bottom: "inception_4d/5x5"
  bottom: "inception_4d/pool_proj"
  top: "inception_4d/output"
}
layer {
  name: "loss2/ave_pool"
  type: "Pooling"
  bottom: "inception_4d/output"
  top: "loss2/ave_pool"
  pooling_param {
    pool: AVE
    kernel_size: 5
    stride: 3
  }
}
layer {
  name: "loss2/conv"
  type: "Convolution"
  bottom: "loss2/ave_pool"
  top: "loss2/conv"
  param {
    lr_mult: 1
    decay_mult: 1
  }
  param {
    lr_mult: 2
    decay_mult: 0
  }
  convolution_param {
    num_output: 128
    kernel_size: 1
    weight_filler {
      type: "xavier"
      std: 0.08
    }
    bias_filler {
      type: "constant"
      value: 0.2
    }
  }
}
layer {
  name: "loss2/relu_conv"
  type: "ReLU"
  bottom: "loss2/conv"
  top: "loss2/conv"
}
layer {
  name: "loss2/fc"
  type: "InnerProduct"
  bottom: "loss2/conv"
  top: "loss2/fc"
  param {
    lr_mult: 1
    decay_mult: 1
  }
  param {
    lr_mult: 2
    decay_mult: 0
  }
  inner_product_param {
    num_output: 1024
    weight_filler {
      type: "xavier"
      std: 0.02
    }
    bias_filler {
      type: "constant"
      value: 0.2
    }
  }
}
layer {
  name: "loss2/relu_fc"
  type: "ReLU"
  bottom: "loss2/fc"
  top: "loss2/fc"
}
layer {
  name: "loss2/drop_fc"
  type: "Dropout"
  bottom: "loss2/fc"
  top: "loss2/fc"
  dropout_param {
    dropout_ratio: 0.7
  }
}
layer {
  name: "loss2/classifier_plantvillage"
  type: "InnerProduct"
  bottom: "loss2/fc"
  top: "loss2/classifier_plantvillage"
  param {
    lr_mult: 1
    decay_mult: 1
  }
  param {
    lr_mult: 2
    decay_mult: 0
  }
  inner_product_param {
    num_output: 38
    weight_filler {
      type: "xavier"
      std: 0.0009765625
    }
    bias_filler {
      type: "constant"
      value: 0
    }
  }
}
layer {
  name: "inception_4e/1x1"
  type: "Convolution"
  bottom: "inception_4d/output"
  top: "inception_4e/1x1"
  param {
    lr_mult: 1
    decay_mult: 1
  }
  param {
    lr_mult: 2
    decay_mult: 0
  }
  convolution_param {
    num_output: 256
    kernel_size: 1
    weight_filler {
      type: "xavier"
      std: 0.03
    }
    bias_filler {
      type: "constant"
      value: 0.2
    }
  }
}
layer {
  name: "inception_4e/relu_1x1"
  type: "ReLU"
  bottom: "inception_4e/1x1"
  top: "inception_4e/1x1"
}
layer {
  name: "inception_4e/3x3_reduce"
  type: "Convolution"
  bottom: "inception_4d/output"
  top: "inception_4e/3x3_reduce"
  param {
    lr_mult: 1
    decay_mult: 1
  }
  param {
    lr_mult: 2
    decay_mult: 0
  }
  convolution_param {
    num_output: 160
    kernel_size: 1
    weight_filler {
      type: "xavier"
      std: 0.09
    }
    bias_filler {
      type: "constant"
      value: 0.2
    }
  }
}
layer {
  name: "inception_4e/relu_3x3_reduce"
  type: "ReLU"
  bottom: "inception_4e/3x3_reduce"
  top: "inception_4e/3x3_reduce"
}
layer {
  name: "inception_4e/3x3"
  type: "Convolution"
  bottom: "inception_4e/3x3_reduce"
  top: "inception_4e/3x3"
  param {
    lr_mult: 1
    decay_mult: 1
  }
  param {
    lr_mult: 2
    decay_mult: 0
  }
  convolution_param {
    num_output: 320
    pad: 1
    kernel_size: 3
    weight_filler {
      type: "xavier"
      std: 0.03
    }
    bias_filler {
      type: "constant"
      value: 0.2
    }
  }
}
layer {
  name: "inception_4e/relu_3x3"
  type: "ReLU"
  bottom: "inception_4e/3x3"
  top: "inception_4e/3x3"
}
layer {
  name: "inception_4e/5x5_reduce"
  type: "Convolution"
  bottom: "inception_4d/output"
  top: "inception_4e/5x5_reduce"
  param {
    lr_mult: 1
    decay_mult: 1
  }
  param {
    lr_mult: 2
    decay_mult: 0
  }
  convolution_param {
    num_output: 32
    kernel_size: 1
    weight_filler {
      type: "xavier"
      std: 0.2
    }
    bias_filler {
      type: "constant"
      value: 0.2
    }
  }
}
layer {
  name: "inception_4e/relu_5x5_reduce"
  type: "ReLU"
  bottom: "inception_4e/5x5_reduce"
  top: "inception_4e/5x5_reduce"
}
layer {
  name: "inception_4e/5x5"
  type: "Convolution"
  bottom: "inception_4e/5x5_reduce"
  top: "inception_4e/
I0403 14:55:08.048066  2156 layer_factory.hpp:77] Creating layer data
I0403 14:55:08.048672  2156 net.cpp:91] Creating Layer data
I0403 14:55:08.048703  2156 net.cpp:399] data -> data
I0403 14:55:08.048755  2156 net.cpp:399] data -> label
I0403 14:55:08.048792  2156 data_transformer.cpp:25] Loading mean file from: /home/mohanty/data/final_dataset/lmdb/grayscale-20-80/mean.binaryproto
I0403 14:55:08.049996  2159 db_lmdb.cpp:38] Opened lmdb /home/mohanty/data/final_dataset/lmdb/grayscale-20-80/test_db
I0403 14:55:08.061949  2156 data_layer.cpp:41] output data size: 24,3,224,224
I0403 14:55:08.089355  2156 net.cpp:141] Setting up data
I0403 14:55:08.089455  2156 net.cpp:148] Top shape: 24 3 224 224 (3612672)
I0403 14:55:08.089478  2156 net.cpp:148] Top shape: 24 (24)
I0403 14:55:08.089494  2156 net.cpp:156] Memory required for data: 14450784
I0403 14:55:08.089522  2156 layer_factory.hpp:77] Creating layer label_data_1_split
I0403 14:55:08.089550  2156 net.cpp:91] Creating Layer label_data_1_split
I0403 14:55:08.089568  2156 net.cpp:425] label_data_1_split <- label
I0403 14:55:08.089601  2156 net.cpp:399] label_data_1_split -> label_data_1_split_0
I0403 14:55:08.089629  2156 net.cpp:399] label_data_1_split -> label_data_1_split_1
I0403 14:55:08.089651  2156 net.cpp:399] label_data_1_split -> label_data_1_split_2
I0403 14:55:08.089673  2156 net.cpp:399] label_data_1_split -> label_data_1_split_3
I0403 14:55:08.089694  2156 net.cpp:399] label_data_1_split -> label_data_1_split_4
I0403 14:55:08.089714  2156 net.cpp:399] label_data_1_split -> label_data_1_split_5
I0403 14:55:08.089733  2156 net.cpp:399] label_data_1_split -> label_data_1_split_6
I0403 14:55:08.089754  2156 net.cpp:399] label_data_1_split -> label_data_1_split_7
I0403 14:55:08.089774  2156 net.cpp:399] label_data_1_split -> label_data_1_split_8
I0403 14:55:08.089795  2156 net.cpp:399] label_data_1_split -> label_data_1_split_9
I0403 14:55:08.089915  2156 net.cpp:141] Setting up label_data_1_split
I0403 14:55:08.089938  2156 net.cpp:148] Top shape: 24 (24)
I0403 14:55:08.089956  2156 net.cpp:148] Top shape: 24 (24)
I0403 14:55:08.089973  2156 net.cpp:148] Top shape: 24 (24)
I0403 14:55:08.089990  2156 net.cpp:148] Top shape: 24 (24)
I0403 14:55:08.090006  2156 net.cpp:148] Top shape: 24 (24)
I0403 14:55:08.090023  2156 net.cpp:148] Top shape: 24 (24)
I0403 14:55:08.090040  2156 net.cpp:148] Top shape: 24 (24)
I0403 14:55:08.090056  2156 net.cpp:148] Top shape: 24 (24)
I0403 14:55:08.090073  2156 net.cpp:148] Top shape: 24 (24)
I0403 14:55:08.090090  2156 net.cpp:148] Top shape: 24 (24)
I0403 14:55:08.090134  2156 net.cpp:156] Memory required for data: 14451744
I0403 14:55:08.090152  2156 layer_factory.hpp:77] Creating layer conv1/7x7_s2
I0403 14:55:08.090185  2156 net.cpp:91] Creating Layer conv1/7x7_s2
I0403 14:55:08.090204  2156 net.cpp:425] conv1/7x7_s2 <- data
I0403 14:55:08.090231  2156 net.cpp:399] conv1/7x7_s2 -> conv1/7x7_s2
I0403 14:55:08.229636  2156 net.cpp:141] Setting up conv1/7x7_s2
I0403 14:55:08.229701  2156 net.cpp:148] Top shape: 24 64 112 112 (19267584)
I0403 14:55:08.229718  2156 net.cpp:156] Memory required for data: 91522080
I0403 14:55:08.229750  2156 layer_factory.hpp:77] Creating layer conv1/relu_7x7
I0403 14:55:08.229780  2156 net.cpp:91] Creating Layer conv1/relu_7x7
I0403 14:55:08.229800  2156 net.cpp:425] conv1/relu_7x7 <- conv1/7x7_s2
I0403 14:55:08.229820  2156 net.cpp:386] conv1/relu_7x7 -> conv1/7x7_s2 (in-place)
I0403 14:55:08.230104  2156 net.cpp:141] Setting up conv1/relu_7x7
I0403 14:55:08.230131  2156 net.cpp:148] Top shape: 24 64 112 112 (19267584)
I0403 14:55:08.230149  2156 net.cpp:156] Memory required for data: 168592416
I0403 14:55:08.230165  2156 layer_factory.hpp:77] Creating layer pool1/3x3_s2
I0403 14:55:08.230192  2156 net.cpp:91] Creating Layer pool1/3x3_s2
I0403 14:55:08.230216  2156 net.cpp:425] pool1/3x3_s2 <- conv1/7x7_s2
I0403 14:55:08.230240  2156 net.cpp:399] pool1/3x3_s2 -> pool1/3x3_s2
I0403 14:55:08.230319  2156 net.cpp:141] Setting up pool1/3x3_s2
I0403 14:55:08.230343  2156 net.cpp:148] Top shape: 24 64 56 56 (4816896)
I0403 14:55:08.230358  2156 net.cpp:156] Memory required for data: 187860000
I0403 14:55:08.230375  2156 layer_factory.hpp:77] Creating layer pool1/norm1
I0403 14:55:08.230402  2156 net.cpp:91] Creating Layer pool1/norm1
I0403 14:55:08.230422  2156 net.cpp:425] pool1/norm1 <- pool1/3x3_s2
I0403 14:55:08.230440  2156 net.cpp:399] pool1/norm1 -> pool1/norm1
I0403 14:55:08.230751  2156 net.cpp:141] Setting up pool1/norm1
I0403 14:55:08.230782  2156 net.cpp:148] Top shape: 24 64 56 56 (4816896)
I0403 14:55:08.230798  2156 net.cpp:156] Memory required for data: 207127584
I0403 14:55:08.230814  2156 layer_factory.hpp:77] Creating layer conv2/3x3_reduce
I0403 14:55:08.230842  2156 net.cpp:91] Creating Layer conv2/3x3_reduce
I0403 14:55:08.230861  2156 net.cpp:425] conv2/3x3_reduce <- pool1/norm1
I0403 14:55:08.230881  2156 net.cpp:399] conv2/3x3_reduce -> conv2/3x3_reduce
I0403 14:55:08.232383  2156 net.cpp:141] Setting up conv2/3x3_reduce
I0403 14:55:08.232414  2156 net.cpp:148] Top shape: 24 64 56 56 (4816896)
I0403 14:55:08.232429  2156 net.cpp:156] Memory required for data: 226395168
I0403 14:55:08.232452  2156 layer_factory.hpp:77] Creating layer conv2/relu_3x3_reduce
I0403 14:55:08.232476  2156 net.cpp:91] Creating Layer conv2/relu_3x3_reduce
I0403 14:55:08.232494  2156 net.cpp:425] conv2/relu_3x3_reduce <- conv2/3x3_reduce
I0403 14:55:08.232512  2156 net.cpp:386] conv2/relu_3x3_reduce -> conv2/3x3_reduce (in-place)
I0403 14:55:08.232785  2156 net.cpp:141] Setting up conv2/relu_3x3_reduce
I0403 14:55:08.232813  2156 net.cpp:148] Top shape: 24 64 56 56 (4816896)
I0403 14:55:08.232867  2156 net.cpp:156] Memory required for data: 245662752
I0403 14:55:08.232885  2156 layer_factory.hpp:77] Creating layer conv2/3x3
I0403 14:55:08.232910  2156 net.cpp:91] Creating Layer conv2/3x3
I0403 14:55:08.232929  2156 net.cpp:425] conv2/3x3 <- conv2/3x3_reduce
I0403 14:55:08.232952  2156 net.cpp:399] conv2/3x3 -> conv2/3x3
I0403 14:55:08.235342  2156 net.cpp:141] Setting up conv2/3x3
I0403 14:55:08.235373  2156 net.cpp:148] Top shape: 24 192 56 56 (14450688)
I0403 14:55:08.235389  2156 net.cpp:156] Memory required for data: 303465504
I0403 14:55:08.235411  2156 layer_factory.hpp:77] Creating layer conv2/relu_3x3
I0403 14:55:08.235436  2156 net.cpp:91] Creating Layer conv2/relu_3x3
I0403 14:55:08.235455  2156 net.cpp:425] conv2/relu_3x3 <- conv2/3x3
I0403 14:55:08.235476  2156 net.cpp:386] conv2/relu_3x3 -> conv2/3x3 (in-place)
I0403 14:55:08.235658  2156 net.cpp:141] Setting up conv2/relu_3x3
I0403 14:55:08.235687  2156 net.cpp:148] Top shape: 24 192 56 56 (14450688)
I0403 14:55:08.235733  2156 net.cpp:156] Memory required for data: 361268256
I0403 14:55:08.235750  2156 layer_factory.hpp:77] Creating layer conv2/norm2
I0403 14:55:08.235770  2156 net.cpp:91] Creating Layer conv2/norm2
I0403 14:55:08.235787  2156 net.cpp:425] conv2/norm2 <- conv2/3x3
I0403 14:55:08.235810  2156 net.cpp:399] conv2/norm2 -> conv2/norm2
I0403 14:55:08.236121  2156 net.cpp:141] Setting up conv2/norm2
I0403 14:55:08.236150  2156 net.cpp:148] Top shape: 24 192 56 56 (14450688)
I0403 14:55:08.236166  2156 net.cpp:156] Memory required for data: 419071008
I0403 14:55:08.236181  2156 layer_factory.hpp:77] Creating layer pool2/3x3_s2
I0403 14:55:08.236225  2156 net.cpp:91] Creating Layer pool2/3x3_s2
I0403 14:55:08.236245  2156 net.cpp:425] pool2/3x3_s2 <- conv2/norm2
I0403 14:55:08.236268  2156 net.cpp:399] pool2/3x3_s2 -> pool2/3x3_s2
I0403 14:55:08.236326  2156 net.cpp:141] Setting up pool2/3x3_s2
I0403 14:55:08.236352  2156 net.cpp:148] Top shape: 24 192 28 28 (3612672)
I0403 14:55:08.236397  2156 net.cpp:156] Memory required for data: 433521696
I0403 14:55:08.236414  2156 layer_factory.hpp:77] Creating layer pool2/3x3_s2_pool2/3x3_s2_0_split
I0403 14:55:08.236438  2156 net.cpp:91] Creating Layer pool2/3x3_s2_pool2/3x3_s2_0_split
I0403 14:55:08.236457  2156 net.cpp:425] pool2/3x3_s2_pool2/3x3_s2_0_split <- pool2/3x3_s2
I0403 14:55:08.236479  2156 net.cpp:399] pool2/3x3_s2_pool2/3x3_s2_0_split -> pool2/3x3_s2_pool2/3x3_s2_0_split_0
I0403 14:55:08.236500  2156 net.cpp:399] pool2/3x3_s2_pool2/3x3_s2_0_split -> pool2/3x3_s2_pool2/3x3_s2_0_split_1
I0403 14:55:08.236522  2156 net.cpp:399] pool2/3x3_s2_pool2/3x3_s2_0_split -> pool2/3x3_s2_pool2/3x3_s2_0_split_2
I0403 14:55:08.236543  2156 net.cpp:399] pool2/3x3_s2_pool2/3x3_s2_0_split -> pool2/3x3_s2_pool2/3x3_s2_0_split_3
I0403 14:55:08.236618  2156 net.cpp:141] Setting up pool2/3x3_s2_pool2/3x3_s2_0_split
I0403 14:55:08.236644  2156 net.cpp:148] Top shape: 24 192 28 28 (3612672)
I0403 14:55:08.236662  2156 net.cpp:148] Top shape: 24 192 28 28 (3612672)
I0403 14:55:08.236680  2156 net.cpp:148] Top shape: 24 192 28 28 (3612672)
I0403 14:55:08.236696  2156 net.cpp:148] Top shape: 24 192 28 28 (3612672)
I0403 14:55:08.236712  2156 net.cpp:156] Memory required for data: 491324448
I0403 14:55:08.236729  2156 layer_factory.hpp:77] Creating layer inception_3a/1x1
I0403 14:55:08.236754  2156 net.cpp:91] Creating Layer inception_3a/1x1
I0403 14:55:08.236773  2156 net.cpp:425] inception_3a/1x1 <- pool2/3x3_s2_pool2/3x3_s2_0_split_0
I0403 14:55:08.236796  2156 net.cpp:399] inception_3a/1x1 -> inception_3a/1x1
I0403 14:55:08.238430  2156 net.cpp:141] Setting up inception_3a/1x1
I0403 14:55:08.238462  2156 net.cpp:148] Top shape: 24 64 28 28 (1204224)
I0403 14:55:08.238479  2156 net.cpp:156] Memory required for data: 496141344
I0403 14:55:08.238499  2156 layer_factory.hpp:77] Creating layer inception_3a/relu_1x1
I0403 14:55:08.238523  2156 net.cpp:91] Creating Layer inception_3a/relu_1x1
I0403 14:55:08.238541  2156 net.cpp:425] inception_3a/relu_1x1 <- inception_3a/1x1
I0403 14:55:08.238560  2156 net.cpp:386] inception_3a/relu_1x1 -> inception_3a/1x1 (in-place)
I0403 14:55:08.238744  2156 net.cpp:141] Setting up inception_3a/relu_1x1
I0403 14:55:08.238771  2156 net.cpp:148] Top shape: 24 64 28 28 (1204224)
I0403 14:55:08.238788  2156 net.cpp:156] Memory required for data: 500958240
I0403 14:55:08.238804  2156 layer_factory.hpp:77] Creating layer inception_3a/3x3_reduce
I0403 14:55:08.238831  2156 net.cpp:91] Creating Layer inception_3a/3x3_reduce
I0403 14:55:08.238850  2156 net.cpp:425] inception_3a/3x3_reduce <- pool2/3x3_s2_pool2/3x3_s2_0_split_1
I0403 14:55:08.238872  2156 net.cpp:399] inception_3a/3x3_reduce -> inception_3a/3x3_reduce
I0403 14:55:08.240686  2156 net.cpp:141] Setting up inception_3a/3x3_reduce
I0403 14:55:08.240716  2156 net.cpp:148] Top shape: 24 96 28 28 (1806336)
I0403 14:55:08.240733  2156 net.cpp:156] Memory required for data: 508183584
I0403 14:55:08.240757  2156 layer_factory.hpp:77] Creating layer inception_3a/relu_3x3_reduce
I0403 14:55:08.240797  2156 net.cpp:91] Creating Layer inception_3a/relu_3x3_reduce
I0403 14:55:08.240818  2156 net.cpp:425] inception_3a/relu_3x3_reduce <- inception_3a/3x3_reduce
I0403 14:55:08.240838  2156 net.cpp:386] inception_3a/relu_3x3_reduce -> inception_3a/3x3_reduce (in-place)
I0403 14:55:08.241031  2156 net.cpp:141] Setting up inception_3a/relu_3x3_reduce
I0403 14:55:08.241058  2156 net.cpp:148] Top shape: 24 96 28 28 (1806336)
I0403 14:55:08.241075  2156 net.cpp:156] Memory required for data: 515408928
I0403 14:55:08.241091  2156 layer_factory.hpp:77] Creating layer inception_3a/3x3
I0403 14:55:08.241116  2156 net.cpp:91] Creating Layer inception_3a/3x3
I0403 14:55:08.241135  2156 net.cpp:425] inception_3a/3x3 <- inception_3a/3x3_reduce
I0403 14:55:08.241160  2156 net.cpp:399] inception_3a/3x3 -> inception_3a/3x3
I0403 14:55:08.242933  2156 net.cpp:141] Setting up inception_3a/3x3
I0403 14:55:08.242962  2156 net.cpp:148] Top shape: 24 128 28 28 (2408448)
I0403 14:55:08.242980  2156 net.cpp:156] Memory required for data: 525042720
I0403 14:55:08.243000  2156 layer_factory.hpp:77] Creating layer inception_3a/relu_3x3
I0403 14:55:08.243022  2156 net.cpp:91] Creating Layer inception_3a/relu_3x3
I0403 14:55:08.243041  2156 net.cpp:425] inception_3a/relu_3x3 <- inception_3a/3x3
I0403 14:55:08.243060  2156 net.cpp:386] inception_3a/relu_3x3 -> inception_3a/3x3 (in-place)
I0403 14:55:08.243367  2156 net.cpp:141] Setting up inception_3a/relu_3x3
I0403 14:55:08.243396  2156 net.cpp:148] Top shape: 24 128 28 28 (2408448)
I0403 14:55:08.243412  2156 net.cpp:156] Memory required for data: 534676512
I0403 14:55:08.243428  2156 layer_factory.hpp:77] Creating layer inception_3a/5x5_reduce
I0403 14:55:08.243453  2156 net.cpp:91] Creating Layer inception_3a/5x5_reduce
I0403 14:55:08.243473  2156 net.cpp:425] inception_3a/5x5_reduce <- pool2/3x3_s2_pool2/3x3_s2_0_split_2
I0403 14:55:08.243495  2156 net.cpp:399] inception_3a/5x5_reduce -> inception_3a/5x5_reduce
I0403 14:55:08.244499  2156 net.cpp:141] Setting up inception_3a/5x5_reduce
I0403 14:55:08.244542  2156 net.cpp:148] Top shape: 24 16 28 28 (301056)
I0403 14:55:08.244560  2156 net.cpp:156] Memory required for data: 535880736
I0403 14:55:08.244580  2156 layer_factory.hpp:77] Creating layer inception_3a/relu_5x5_reduce
I0403 14:55:08.244599  2156 net.cpp:91] Creating Layer inception_3a/relu_5x5_reduce
I0403 14:55:08.244617  2156 net.cpp:425] inception_3a/relu_5x5_reduce <- inception_3a/5x5_reduce
I0403 14:55:08.244635  2156 net.cpp:386] inception_3a/relu_5x5_reduce -> inception_3a/5x5_reduce (in-place)
I0403 14:55:08.244938  2156 net.cpp:141] Setting up inception_3a/relu_5x5_reduce
I0403 14:55:08.244967  2156 net.cpp:148] Top shape: 24 16 28 28 (301056)
I0403 14:55:08.244984  2156 net.cpp:156] Memory required for data: 537084960
I0403 14:55:08.245000  2156 layer_factory.hpp:77] Creating layer inception_3a/5x5
I0403 14:55:08.245024  2156 net.cpp:91] Creating Layer inception_3a/5x5
I0403 14:55:08.245043  2156 net.cpp:425] inception_3a/5x5 <- inception_3a/5x5_reduce
I0403 14:55:08.245064  2156 net.cpp:399] inception_3a/5x5 -> inception_3a/5x5
I0403 14:55:08.246094  2156 net.cpp:141] Setting up inception_3a/5x5
I0403 14:55:08.246122  2156 net.cpp:148] Top shape: 24 32 28 28 (602112)
I0403 14:55:08.246139  2156 net.cpp:156] Memory required for data: 539493408
I0403 14:55:08.246158  2156 layer_factory.hpp:77] Creating layer inception_3a/relu_5x5
I0403 14:55:08.246181  2156 net.cpp:91] Creating Layer inception_3a/relu_5x5
I0403 14:55:08.246198  2156 net.cpp:425] inception_3a/relu_5x5 <- inception_3a/5x5
I0403 14:55:08.246235  2156 net.cpp:386] inception_3a/relu_5x5 -> inception_3a/5x5 (in-place)
I0403 14:55:08.246420  2156 net.cpp:141] Setting up inception_3a/relu_5x5
I0403 14:55:08.246446  2156 net.cpp:148] Top shape: 24 32 28 28 (602112)
I0403 14:55:08.246464  2156 net.cpp:156] Memory required for data: 541901856
I0403 14:55:08.246480  2156 layer_factory.hpp:77] Creating layer inception_3a/pool
I0403 14:55:08.246502  2156 net.cpp:91] Creating Layer inception_3a/pool
I0403 14:55:08.246546  2156 net.cpp:425] inception_3a/pool <- pool2/3x3_s2_pool2/3x3_s2_0_split_3
I0403 14:55:08.246567  2156 net.cpp:399] inception_3a/pool -> inception_3a/pool
I0403 14:55:08.246628  2156 net.cpp:141] Setting up inception_3a/pool
I0403 14:55:08.246652  2156 net.cpp:148] Top shape: 24 192 28 28 (3612672)
I0403 14:55:08.246668  2156 net.cpp:156] Memory required for data: 556352544
I0403 14:55:08.246683  2156 layer_factory.hpp:77] Creating layer inception_3a/pool_proj
I0403 14:55:08.246706  2156 net.cpp:91] Creating Layer inception_3a/pool_proj
I0403 14:55:08.246726  2156 net.cpp:425] inception_3a/pool_proj <- inception_3a/pool
I0403 14:55:08.246748  2156 net.cpp:399] inception_3a/pool_proj -> inception_3a/pool_proj
I0403 14:55:08.247742  2156 net.cpp:141] Setting up inception_3a/pool_proj
I0403 14:55:08.247773  2156 net.cpp:148] Top shape: 24 32 28 28 (602112)
I0403 14:55:08.247791  2156 net.cpp:156] Memory required for data: 558760992
I0403 14:55:08.247817  2156 layer_factory.hpp:77] Creating layer inception_3a/relu_pool_proj
I0403 14:55:08.247838  2156 net.cpp:91] Creating Layer inception_3a/relu_pool_proj
I0403 14:55:08.247854  2156 net.cpp:425] inception_3a/relu_pool_proj <- inception_3a/pool_proj
I0403 14:55:08.247874  2156 net.cpp:386] inception_3a/relu_pool_proj -> inception_3a/pool_proj (in-place)
I0403 14:55:08.248154  2156 net.cpp:141] Setting up inception_3a/relu_pool_proj
I0403 14:55:08.248181  2156 net.cpp:148] Top shape: 24 32 28 28 (602112)
I0403 14:55:08.248198  2156 net.cpp:156] Memory required for data: 561169440
I0403 14:55:08.248219  2156 layer_factory.hpp:77] Creating layer inception_3a/output
I0403 14:55:08.248241  2156 net.cpp:91] Creating Layer inception_3a/output
I0403 14:55:08.248260  2156 net.cpp:425] inception_3a/output <- inception_3a/1x1
I0403 14:55:08.248277  2156 net.cpp:425] inception_3a/output <- inception_3a/3x3
I0403 14:55:08.248294  2156 net.cpp:425] inception_3a/output <- inception_3a/5x5
I0403 14:55:08.248312  2156 net.cpp:425] inception_3a/output <- inception_3a/pool_proj
I0403 14:55:08.248329  2156 net.cpp:399] inception_3a/output -> inception_3a/output
I0403 14:55:08.248379  2156 net.cpp:141] Setting up inception_3a/output
I0403 14:55:08.248404  2156 net.cpp:148] Top shape: 24 256 28 28 (4816896)
I0403 14:55:08.248420  2156 net.cpp:156] Memory required for data: 580437024
I0403 14:55:08.248436  2156 layer_factory.hpp:77] Creating layer inception_3a/output_inception_3a/output_0_split
I0403 14:55:08.248455  2156 net.cpp:91] Creating Layer inception_3a/output_inception_3a/output_0_split
I0403 14:55:08.248472  2156 net.cpp:425] inception_3a/output_inception_3a/output_0_split <- inception_3a/output
I0403 14:55:08.248493  2156 net.cpp:399] inception_3a/output_inception_3a/output_0_split -> inception_3a/output_inception_3a/output_0_split_0
I0403 14:55:08.248515  2156 net.cpp:399] inception_3a/output_inception_3a/output_0_split -> inception_3a/output_inception_3a/output_0_split_1
I0403 14:55:08.248539  2156 net.cpp:399] inception_3a/output_inception_3a/output_0_split -> inception_3a/output_inception_3a/output_0_split_2
I0403 14:55:08.248564  2156 net.cpp:399] inception_3a/output_inception_3a/output_0_split -> inception_3a/output_inception_3a/output_0_split_3
I0403 14:55:08.248641  2156 net.cpp:141] Setting up inception_3a/output_inception_3a/output_0_split
I0403 14:55:08.248664  2156 net.cpp:148] Top shape: 24 256 28 28 (4816896)
I0403 14:55:08.248682  2156 net.cpp:148] Top shape: 24 256 28 28 (4816896)
I0403 14:55:08.248699  2156 net.cpp:148] Top shape: 24 256 28 28 (4816896)
I0403 14:55:08.248716  2156 net.cpp:148] Top shape: 24 256 28 28 (4816896)
I0403 14:55:08.248731  2156 net.cpp:156] Memory required for data: 657507360
I0403 14:55:08.248747  2156 layer_factory.hpp:77] Creating layer inception_3b/1x1
I0403 14:55:08.248771  2156 net.cpp:91] Creating Layer inception_3b/1x1
I0403 14:55:08.248790  2156 net.cpp:425] inception_3b/1x1 <- inception_3a/output_inception_3a/output_0_split_0
I0403 14:55:08.248812  2156 net.cpp:399] inception_3b/1x1 -> inception_3b/1x1
I0403 14:55:08.250006  2156 net.cpp:141] Setting up inception_3b/1x1
I0403 14:55:08.250047  2156 net.cpp:148] Top shape: 24 128 28 28 (2408448)
I0403 14:55:08.250064  2156 net.cpp:156] Memory required for data: 667141152
I0403 14:55:08.250083  2156 layer_factory.hpp:77] Creating layer inception_3b/relu_1x1
I0403 14:55:08.250102  2156 net.cpp:91] Creating Layer inception_3b/relu_1x1
I0403 14:55:08.250119  2156 net.cpp:425] inception_3b/relu_1x1 <- inception_3b/1x1
I0403 14:55:08.250139  2156 net.cpp:386] inception_3b/relu_1x1 -> inception_3b/1x1 (in-place)
I0403 14:55:08.250326  2156 net.cpp:141] Setting up inception_3b/relu_1x1
I0403 14:55:08.250352  2156 net.cpp:148] Top shape: 24 128 28 28 (2408448)
I0403 14:55:08.250368  2156 net.cpp:156] Memory required for data: 676774944
I0403 14:55:08.250383  2156 layer_factory.hpp:77] Creating layer inception_3b/3x3_reduce
I0403 14:55:08.250407  2156 net.cpp:91] Creating Layer inception_3b/3x3_reduce
I0403 14:55:08.250427  2156 net.cpp:425] inception_3b/3x3_reduce <- inception_3a/output_inception_3a/output_0_split_1
I0403 14:55:08.250449  2156 net.cpp:399] inception_3b/3x3_reduce -> inception_3b/3x3_reduce
I0403 14:55:08.251646  2156 net.cpp:141] Setting up inception_3b/3x3_reduce
I0403 14:55:08.251675  2156 net.cpp:148] Top shape: 24 128 28 28 (2408448)
I0403 14:55:08.251693  2156 net.cpp:156] Memory required for data: 686408736
I0403 14:55:08.251711  2156 layer_factory.hpp:77] Creating layer inception_3b/relu_3x3_reduce
I0403 14:55:08.251734  2156 net.cpp:91] Creating Layer inception_3b/relu_3x3_reduce
I0403 14:55:08.251751  2156 net.cpp:425] inception_3b/relu_3x3_reduce <- inception_3b/3x3_reduce
I0403 14:55:08.251770  2156 net.cpp:386] inception_3b/relu_3x3_reduce -> inception_3b/3x3_reduce (in-place)
I0403 14:55:08.251948  2156 net.cpp:141] Setting up inception_3b/relu_3x3_reduce
I0403 14:55:08.251974  2156 net.cpp:148] Top shape: 24 128 28 28 (2408448)
I0403 14:55:08.251989  2156 net.cpp:156] Memory required for data: 696042528
I0403 14:55:08.252005  2156 layer_factory.hpp:77] Creating layer inception_3b/3x3
I0403 14:55:08.252032  2156 net.cpp:91] Creating Layer inception_3b/3x3
I0403 14:55:08.252053  2156 net.cpp:425] inception_3b/3x3 <- inception_3b/3x3_reduce
I0403 14:55:08.252073  2156 net.cpp:399] inception_3b/3x3 -> inception_3b/3x3
I0403 14:55:08.255120  2156 net.cpp:141] Setting up inception_3b/3x3
I0403 14:55:08.255151  2156 net.cpp:148] Top shape: 24 192 28 28 (3612672)
I0403 14:55:08.255167  2156 net.cpp:156] Memory required for data: 710493216
I0403 14:55:08.255187  2156 layer_factory.hpp:77] Creating layer inception_3b/relu_3x3
I0403 14:55:08.255211  2156 net.cpp:91] Creating Layer inception_3b/relu_3x3
I0403 14:55:08.255231  2156 net.cpp:425] inception_3b/relu_3x3 <- inception_3b/3x3
I0403 14:55:08.255250  2156 net.cpp:386] inception_3b/relu_3x3 -> inception_3b/3x3 (in-place)
I0403 14:55:08.255545  2156 net.cpp:141] Setting up inception_3b/relu_3x3
I0403 14:55:08.255573  2156 net.cpp:148] Top shape: 24 192 28 28 (3612672)
I0403 14:55:08.255589  2156 net.cpp:156] Memory required for data: 724943904
I0403 14:55:08.255604  2156 layer_factory.hpp:77] Creating layer inception_3b/5x5_reduce
I0403 14:55:08.255628  2156 net.cpp:91] Creating Layer inception_3b/5x5_reduce
I0403 14:55:08.255646  2156 net.cpp:425] inception_3b/5x5_reduce <- inception_3a/output_inception_3a/output_0_split_2
I0403 14:55:08.255669  2156 net.cpp:399] inception_3b/5x5_reduce -> inception_3b/5x5_reduce
I0403 14:55:08.256703  2156 net.cpp:141] Setting up inception_3b/5x5_reduce
I0403 14:55:08.256731  2156 net.cpp:148] Top shape: 24 32 28 28 (602112)
I0403 14:55:08.256747  2156 net.cpp:156] Memory required for data: 727352352
I0403 14:55:08.256767  2156 layer_factory.hpp:77] Creating layer inception_3b/relu_5x5_reduce
I0403 14:55:08.256786  2156 net.cpp:91] Creating Layer inception_3b/relu_5x5_reduce
I0403 14:55:08.256804  2156 net.cpp:425] inception_3b/relu_5x5_reduce <- inception_3b/5x5_reduce
I0403 14:55:08.256822  2156 net.cpp:386] inception_3b/relu_5x5_reduce -> inception_3b/5x5_reduce (in-place)
I0403 14:55:08.257016  2156 net.cpp:141] Setting up inception_3b/relu_5x5_reduce
I0403 14:55:08.257043  2156 net.cpp:148] Top shape: 24 32 28 28 (602112)
I0403 14:55:08.257060  2156 net.cpp:156] Memory required for data: 729760800
I0403 14:55:08.257076  2156 layer_factory.hpp:77] Creating layer inception_3b/5x5
I0403 14:55:08.257098  2156 net.cpp:91] Creating Layer inception_3b/5x5
I0403 14:55:08.257115  2156 net.cpp:425] inception_3b/5x5 <- inception_3b/5x5_reduce
I0403 14:55:08.257135  2156 net.cpp:399] inception_3b/5x5 -> inception_3b/5x5
I0403 14:55:08.259152  2156 net.cpp:141] Setting up inception_3b/5x5
I0403 14:55:08.259181  2156 net.cpp:148] Top shape: 24 96 28 28 (1806336)
I0403 14:55:08.259196  2156 net.cpp:156] Memory required for data: 736986144
I0403 14:55:08.259219  2156 layer_factory.hpp:77] Creating layer inception_3b/relu_5x5
I0403 14:55:08.259240  2156 net.cpp:91] Creating Layer inception_3b/relu_5x5
I0403 14:55:08.259260  2156 net.cpp:425] inception_3b/relu_5x5 <- inception_3b/5x5
I0403 14:55:08.259279  2156 net.cpp:386] inception_3b/relu_5x5 -> inception_3b/5x5 (in-place)
I0403 14:55:08.259469  2156 net.cpp:141] Setting up inception_3b/relu_5x5
I0403 14:55:08.259495  2156 net.cpp:148] Top shape: 24 96 28 28 (1806336)
I0403 14:55:08.259510  2156 net.cpp:156] Memory required for data: 744211488
I0403 14:55:08.259526  2156 layer_factory.hpp:77] Creating layer inception_3b/pool
I0403 14:55:08.259544  2156 net.cpp:91] Creating Layer inception_3b/pool
I0403 14:55:08.259560  2156 net.cpp:425] inception_3b/pool <- inception_3a/output_inception_3a/output_0_split_3
I0403 14:55:08.259579  2156 net.cpp:399] inception_3b/pool -> inception_3b/pool
I0403 14:55:08.259637  2156 net.cpp:141] Setting up inception_3b/pool
I0403 14:55:08.259660  2156 net.cpp:148] Top shape: 24 256 28 28 (4816896)
I0403 14:55:08.259676  2156 net.cpp:156] Memory required for data: 763479072
I0403 14:55:08.259691  2156 layer_factory.hpp:77] Creating layer inception_3b/pool_proj
I0403 14:55:08.259714  2156 net.cpp:91] Creating Layer inception_3b/pool_proj
I0403 14:55:08.259732  2156 net.cpp:425] inception_3b/pool_proj <- inception_3b/pool
I0403 14:55:08.259753  2156 net.cpp:399] inception_3b/pool_proj -> inception_3b/pool_proj
I0403 14:55:08.260809  2156 net.cpp:141] Setting up inception_3b/pool_proj
I0403 14:55:08.260839  2156 net.cpp:148] Top shape: 24 64 28 28 (1204224)
I0403 14:55:08.260856  2156 net.cpp:156] Memory required for data: 768295968
I0403 14:55:08.260876  2156 layer_factory.hpp:77] Creating layer inception_3b/relu_pool_proj
I0403 14:55:08.260895  2156 net.cpp:91] Creating Layer inception_3b/relu_pool_proj
I0403 14:55:08.260911  2156 net.cpp:425] inception_3b/relu_pool_proj <- inception_3b/pool_proj
I0403 14:55:08.260933  2156 net.cpp:386] inception_3b/relu_pool_proj -> inception_3b/pool_proj (in-place)
I0403 14:55:08.261348  2156 net.cpp:141] Setting up inception_3b/relu_pool_proj
I0403 14:55:08.261376  2156 net.cpp:148] Top shape: 24 64 28 28 (1204224)
I0403 14:55:08.261394  2156 net.cpp:156] Memory required for data: 773112864
I0403 14:55:08.261409  2156 layer_factory.hpp:77] Creating layer inception_3b/output
I0403 14:55:08.261428  2156 net.cpp:91] Creating Layer inception_3b/output
I0403 14:55:08.261445  2156 net.cpp:425] inception_3b/output <- inception_3b/1x1
I0403 14:55:08.261462  2156 net.cpp:425] inception_3b/output <- inception_3b/3x3
I0403 14:55:08.261481  2156 net.cpp:425] inception_3b/output <- inception_3b/5x5
I0403 14:55:08.261497  2156 net.cpp:425] inception_3b/output <- inception_3b/pool_proj
I0403 14:55:08.261528  2156 net.cpp:399] inception_3b/output -> inception_3b/output
I0403 14:55:08.261574  2156 net.cpp:141] Setting up inception_3b/output
I0403 14:55:08.261596  2156 net.cpp:148] Top shape: 24 480 28 28 (9031680)
I0403 14:55:08.261610  2156 net.cpp:156] Memory required for data: 809239584
I0403 14:55:08.261626  2156 layer_factory.hpp:77] Creating layer pool3/3x3_s2
I0403 14:55:08.261647  2156 net.cpp:91] Creating Layer pool3/3x3_s2
I0403 14:55:08.261663  2156 net.cpp:425] pool3/3x3_s2 <- inception_3b/output
I0403 14:55:08.261698  2156 net.cpp:399] pool3/3x3_s2 -> pool3/3x3_s2
I0403 14:55:08.261757  2156 net.cpp:141] Setting up pool3/3x3_s2
I0403 14:55:08.261780  2156 net.cpp:148] Top shape: 24 480 14 14 (2257920)
I0403 14:55:08.261795  2156 net.cpp:156] Memory required for data: 818271264
I0403 14:55:08.261811  2156 layer_factory.hpp:77] Creating layer pool3/3x3_s2_pool3/3x3_s2_0_split
I0403 14:55:08.261829  2156 net.cpp:91] Creating Layer pool3/3x3_s2_pool3/3x3_s2_0_split
I0403 14:55:08.261844  2156 net.cpp:425] pool3/3x3_s2_pool3/3x3_s2_0_split <- pool3/3x3_s2
I0403 14:55:08.261864  2156 net.cpp:399] pool3/3x3_s2_pool3/3x3_s2_0_split -> pool3/3x3_s2_pool3/3x3_s2_0_split_0
I0403 14:55:08.261885  2156 net.cpp:399] pool3/3x3_s2_pool3/3x3_s2_0_split -> pool3/3x3_s2_pool3/3x3_s2_0_split_1
I0403 14:55:08.261906  2156 net.cpp:399] pool3/3x3_s2_pool3/3x3_s2_0_split -> pool3/3x3_s2_pool3/3x3_s2_0_split_2
I0403 14:55:08.261926  2156 net.cpp:399] pool3/3x3_s2_pool3/3x3_s2_0_split -> pool3/3x3_s2_pool3/3x3_s2_0_split_3
I0403 14:55:08.262019  2156 net.cpp:141] Setting up pool3/3x3_s2_pool3/3x3_s2_0_split
I0403 14:55:08.262045  2156 net.cpp:148] Top shape: 24 480 14 14 (2257920)
I0403 14:55:08.262064  2156 net.cpp:148] Top shape: 24 480 14 14 (2257920)
I0403 14:55:08.262082  2156 net.cpp:148] Top shape: 24 480 14 14 (2257920)
I0403 14:55:08.262099  2156 net.cpp:148] Top shape: 24 480 14 14 (2257920)
I0403 14:55:08.262115  2156 net.cpp:156] Memory required for data: 854397984
I0403 14:55:08.262130  2156 layer_factory.hpp:77] Creating layer inception_4a/1x1
I0403 14:55:08.262153  2156 net.cpp:91] Creating Layer inception_4a/1x1
I0403 14:55:08.262171  2156 net.cpp:425] inception_4a/1x1 <- pool3/3x3_s2_pool3/3x3_s2_0_split_0
I0403 14:55:08.262192  2156 net.cpp:399] inception_4a/1x1 -> inception_4a/1x1
I0403 14:55:08.263820  2156 net.cpp:141] Setting up inception_4a/1x1
I0403 14:55:08.263855  2156 net.cpp:148] Top shape: 24 192 14 14 (903168)
I0403 14:55:08.263871  2156 net.cpp:156] Memory required for data: 858010656
I0403 14:55:08.263891  2156 layer_factory.hpp:77] Creating layer inception_4a/relu_1x1
I0403 14:55:08.263909  2156 net.cpp:91] Creating Layer inception_4a/relu_1x1
I0403 14:55:08.263926  2156 net.cpp:425] inception_4a/relu_1x1 <- inception_4a/1x1
I0403 14:55:08.263947  2156 net.cpp:386] inception_4a/relu_1x1 -> inception_4a/1x1 (in-place)
I0403 14:55:08.264124  2156 net.cpp:141] Setting up inception_4a/relu_1x1
I0403 14:55:08.264149  2156 net.cpp:148] Top shape: 24 192 14 14 (903168)
I0403 14:55:08.264164  2156 net.cpp:156] Memory required for data: 861623328
I0403 14:55:08.264179  2156 layer_factory.hpp:77] Creating layer inception_4a/3x3_reduce
I0403 14:55:08.264204  2156 net.cpp:91] Creating Layer inception_4a/3x3_reduce
I0403 14:55:08.264231  2156 net.cpp:425] inception_4a/3x3_reduce <- pool3/3x3_s2_pool3/3x3_s2_0_split_1
I0403 14:55:08.264255  2156 net.cpp:399] inception_4a/3x3_reduce -> inception_4a/3x3_reduce
I0403 14:55:08.265532  2156 net.cpp:141] Setting up inception_4a/3x3_reduce
I0403 14:55:08.265561  2156 net.cpp:148] Top shape: 24 96 14 14 (451584)
I0403 14:55:08.265578  2156 net.cpp:156] Memory required for data: 863429664
I0403 14:55:08.265600  2156 layer_factory.hpp:77] Creating layer inception_4a/relu_3x3_reduce
I0403 14:55:08.265625  2156 net.cpp:91] Creating Layer inception_4a/relu_3x3_reduce
I0403 14:55:08.265641  2156 net.cpp:425] inception_4a/relu_3x3_reduce <- inception_4a/3x3_reduce
I0403 14:55:08.265661  2156 net.cpp:386] inception_4a/relu_3x3_reduce -> inception_4a/3x3_reduce (in-place)
I0403 14:55:08.265836  2156 net.cpp:141] Setting up inception_4a/relu_3x3_reduce
I0403 14:55:08.265861  2156 net.cpp:148] Top shape: 24 96 14 14 (451584)
I0403 14:55:08.265877  2156 net.cpp:156] Memory required for data: 865236000
I0403 14:55:08.265893  2156 layer_factory.hpp:77] Creating layer inception_4a/3x3
I0403 14:55:08.265916  2156 net.cpp:91] Creating Layer inception_4a/3x3
I0403 14:55:08.265935  2156 net.cpp:425] inception_4a/3x3 <- inception_4a/3x3_reduce
I0403 14:55:08.265957  2156 net.cpp:399] inception_4a/3x3 -> inception_4a/3x3
I0403 14:55:08.268749  2156 net.cpp:141] Setting up inception_4a/3x3
I0403 14:55:08.268779  2156 net.cpp:148] Top shape: 24 208 14 14 (978432)
I0403 14:55:08.268795  2156 net.cpp:156] Memory required for data: 869149728
I0403 14:55:08.268815  2156 layer_factory.hpp:77] Creating layer inception_4a/relu_3x3
I0403 14:55:08.268837  2156 net.cpp:91] Creating Layer inception_4a/relu_3x3
I0403 14:55:08.268856  2156 net.cpp:425] inception_4a/relu_3x3 <- inception_4a/3x3
I0403 14:55:08.268874  2156 net.cpp:386] inception_4a/relu_3x3 -> inception_4a/3x3 (in-place)
I0403 14:55:08.269170  2156 net.cpp:141] Setting up inception_4a/relu_3x3
I0403 14:55:08.269197  2156 net.cpp:148] Top shape: 24 208 14 14 (978432)
I0403 14:55:08.269217  2156 net.cpp:156] Memory required for data: 873063456
I0403 14:55:08.269234  2156 layer_factory.hpp:77] Creating layer inception_4a/5x5_reduce
I0403 14:55:08.269263  2156 net.cpp:91] Creating Layer inception_4a/5x5_reduce
I0403 14:55:08.269281  2156 net.cpp:425] inception_4a/5x5_reduce <- pool3/3x3_s2_pool3/3x3_s2_0_split_2
I0403 14:55:08.269304  2156 net.cpp:399] inception_4a/5x5_reduce -> inception_4a/5x5_reduce
I0403 14:55:08.270373  2156 net.cpp:141] Setting up inception_4a/5x5_reduce
I0403 14:55:08.270402  2156 net.cpp:148] Top shape: 24 16 14 14 (75264)
I0403 14:55:08.270419  2156 net.cpp:156] Memory required for data: 873364512
I0403 14:55:08.270440  2156 layer_factory.hpp:77] Creating layer inception_4a/relu_5x5_reduce
I0403 14:55:08.270462  2156 net.cpp:91] Creating Layer inception_4a/relu_5x5_reduce
I0403 14:55:08.270481  2156 net.cpp:425] inception_4a/relu_5x5_reduce <- inception_4a/5x5_reduce
I0403 14:55:08.270500  2156 net.cpp:386] inception_4a/relu_5x5_reduce -> inception_4a/5x5_reduce (in-place)
I0403 14:55:08.270699  2156 net.cpp:141] Setting up inception_4a/relu_5x5_reduce
I0403 14:55:08.270726  2156 net.cpp:148] Top shape: 24 16 14 14 (75264)
I0403 14:55:08.270742  2156 net.cpp:156] Memory required for data: 873665568
I0403 14:55:08.270758  2156 layer_factory.hpp:77] Creating layer inception_4a/5x5
I0403 14:55:08.270783  2156 net.cpp:91] Creating Layer inception_4a/5x5
I0403 14:55:08.270802  2156 net.cpp:425] inception_4a/5x5 <- inception_4a/5x5_reduce
I0403 14:55:08.270823  2156 net.cpp:399] inception_4a/5x5 -> inception_4a/5x5
I0403 14:55:08.271978  2156 net.cpp:141] Setting up inception_4a/5x5
I0403 14:55:08.272009  2156 net.cpp:148] Top shape: 24 48 14 14 (225792)
I0403 14:55:08.272027  2156 net.cpp:156] Memory required for data: 874568736
I0403 14:55:08.272047  2156 layer_factory.hpp:77] Creating layer inception_4a/relu_5x5
I0403 14:55:08.272065  2156 net.cpp:91] Creating Layer inception_4a/relu_5x5
I0403 14:55:08.272081  2156 net.cpp:425] inception_4a/relu_5x5 <- inception_4a/5x5
I0403 14:55:08.272100  2156 net.cpp:386] inception_4a/relu_5x5 -> inception_4a/5x5 (in-place)
I0403 14:55:08.272299  2156 net.cpp:141] Setting up inception_4a/relu_5x5
I0403 14:55:08.272326  2156 net.cpp:148] Top shape: 24 48 14 14 (225792)
I0403 14:55:08.272342  2156 net.cpp:156] Memory required for data: 875471904
I0403 14:55:08.272358  2156 layer_factory.hpp:77] Creating layer inception_4a/pool
I0403 14:55:08.272378  2156 net.cpp:91] Creating Layer inception_4a/pool
I0403 14:55:08.272395  2156 net.cpp:425] inception_4a/pool <- pool3/3x3_s2_pool3/3x3_s2_0_split_3
I0403 14:55:08.272418  2156 net.cpp:399] inception_4a/pool -> inception_4a/pool
I0403 14:55:08.272481  2156 net.cpp:141] Setting up inception_4a/pool
I0403 14:55:08.272508  2156 net.cpp:148] Top shape: 24 480 14 14 (2257920)
I0403 14:55:08.272526  2156 net.cpp:156] Memory required for data: 884503584
I0403 14:55:08.272541  2156 layer_factory.hpp:77] Creating layer inception_4a/pool_proj
I0403 14:55:08.272564  2156 net.cpp:91] Creating Layer inception_4a/pool_proj
I0403 14:55:08.272584  2156 net.cpp:425] inception_4a/pool_proj <- inception_4a/pool
I0403 14:55:08.272604  2156 net.cpp:399] inception_4a/pool_proj -> inception_4a/pool_proj
I0403 14:55:08.273809  2156 net.cpp:141] Setting up inception_4a/pool_proj
I0403 14:55:08.273841  2156 net.cpp:148] Top shape: 24 64 14 14 (301056)
I0403 14:55:08.273874  2156 net.cpp:156] Memory required for data: 885707808
I0403 14:55:08.273895  2156 layer_factory.hpp:77] Creating layer inception_4a/relu_pool_proj
I0403 14:55:08.273915  2156 net.cpp:91] Creating Layer inception_4a/relu_pool_proj
I0403 14:55:08.273931  2156 net.cpp:425] inception_4a/relu_pool_proj <- inception_4a/pool_proj
I0403 14:55:08.273952  2156 net.cpp:386] inception_4a/relu_pool_proj -> inception_4a/pool_proj (in-place)
I0403 14:55:08.274251  2156 net.cpp:141] Setting up inception_4a/relu_pool_proj
I0403 14:55:08.274282  2156 net.cpp:148] Top shape: 24 64 14 14 (301056)
I0403 14:55:08.274298  2156 net.cpp:156] Memory required for data: 886912032
I0403 14:55:08.274314  2156 layer_factory.hpp:77] Creating layer inception_4a/output
I0403 14:55:08.274334  2156 net.cpp:91] Creating Layer inception_4a/output
I0403 14:55:08.274351  2156 net.cpp:425] inception_4a/output <- inception_4a/1x1
I0403 14:55:08.274369  2156 net.cpp:425] inception_4a/output <- inception_4a/3x3
I0403 14:55:08.274385  2156 net.cpp:425] inception_4a/output <- inception_4a/5x5
I0403 14:55:08.274402  2156 net.cpp:425] inception_4a/output <- inception_4a/pool_proj
I0403 14:55:08.274421  2156 net.cpp:399] inception_4a/output -> inception_4a/output
I0403 14:55:08.274469  2156 net.cpp:141] Setting up inception_4a/output
I0403 14:55:08.274494  2156 net.cpp:148] Top shape: 24 512 14 14 (2408448)
I0403 14:55:08.274510  2156 net.cpp:156] Memory required for data: 896545824
I0403 14:55:08.274526  2156 layer_factory.hpp:77] Creating layer inception_4a/output_inception_4a/output_0_split
I0403 14:55:08.274547  2156 net.cpp:91] Creating Layer inception_4a/output_inception_4a/output_0_split
I0403 14:55:08.274565  2156 net.cpp:425] inception_4a/output_inception_4a/output_0_split <- inception_4a/output
I0403 14:55:08.274585  2156 net.cpp:399] inception_4a/output_inception_4a/output_0_split -> inception_4a/output_inception_4a/output_0_split_0
I0403 14:55:08.274606  2156 net.cpp:399] inception_4a/output_inception_4a/output_0_split -> inception_4a/output_inception_4a/output_0_split_1
I0403 14:55:08.274631  2156 net.cpp:399] inception_4a/output_inception_4a/output_0_split -> inception_4a/output_inception_4a/output_0_split_2
I0403 14:55:08.274653  2156 net.cpp:399] inception_4a/output_inception_4a/output_0_split -> inception_4a/output_inception_4a/output_0_split_3
I0403 14:55:08.274674  2156 net.cpp:399] inception_4a/output_inception_4a/output_0_split -> inception_4a/output_inception_4a/output_0_split_4
I0403 14:55:08.274770  2156 net.cpp:141] Setting up inception_4a/output_inception_4a/output_0_split
I0403 14:55:08.274794  2156 net.cpp:148] Top shape: 24 512 14 14 (2408448)
I0403 14:55:08.274812  2156 net.cpp:148] Top shape: 24 512 14 14 (2408448)
I0403 14:55:08.274832  2156 net.cpp:148] Top shape: 24 512 14 14 (2408448)
I0403 14:55:08.274848  2156 net.cpp:148] Top shape: 24 512 14 14 (2408448)
I0403 14:55:08.274866  2156 net.cpp:148] Top shape: 24 512 14 14 (2408448)
I0403 14:55:08.274881  2156 net.cpp:156] Memory required for data: 944714784
I0403 14:55:08.274896  2156 layer_factory.hpp:77] Creating layer loss1/ave_pool
I0403 14:55:08.274919  2156 net.cpp:91] Creating Layer loss1/ave_pool
I0403 14:55:08.274936  2156 net.cpp:425] loss1/ave_pool <- inception_4a/output_inception_4a/output_0_split_0
I0403 14:55:08.274956  2156 net.cpp:399] loss1/ave_pool -> loss1/ave_pool
I0403 14:55:08.275171  2156 net.cpp:141] Setting up loss1/ave_pool
I0403 14:55:08.275198  2156 net.cpp:148] Top shape: 24 512 4 4 (196608)
I0403 14:55:08.275223  2156 net.cpp:156] Memory required for data: 945501216
I0403 14:55:08.275239  2156 layer_factory.hpp:77] Creating layer loss1/conv
I0403 14:55:08.275275  2156 net.cpp:91] Creating Layer loss1/conv
I0403 14:55:08.275295  2156 net.cpp:425] loss1/conv <- loss1/ave_pool
I0403 14:55:08.275318  2156 net.cpp:399] loss1/conv -> loss1/conv
I0403 14:55:08.276829  2156 net.cpp:141] Setting up loss1/conv
I0403 14:55:08.276857  2156 net.cpp:148] Top shape: 24 128 4 4 (49152)
I0403 14:55:08.276888  2156 net.cpp:156] Memory required for data: 945697824
I0403 14:55:08.276908  2156 layer_factory.hpp:77] Creating layer loss1/relu_conv
I0403 14:55:08.276931  2156 net.cpp:91] Creating Layer loss1/relu_conv
I0403 14:55:08.276948  2156 net.cpp:425] loss1/relu_conv <- loss1/conv
I0403 14:55:08.276968  2156 net.cpp:386] loss1/relu_conv -> loss1/conv (in-place)
I0403 14:55:08.277263  2156 net.cpp:141] Setting up loss1/relu_conv
I0403 14:55:08.277290  2156 net.cpp:148] Top shape: 24 128 4 4 (49152)
I0403 14:55:08.277307  2156 net.cpp:156] Memory required for data: 945894432
I0403 14:55:08.277323  2156 layer_factory.hpp:77] Creating layer loss1/fc
I0403 14:55:08.277353  2156 net.cpp:91] Creating Layer loss1/fc
I0403 14:55:08.277372  2156 net.cpp:425] loss1/fc <- loss1/conv
I0403 14:55:08.277393  2156 net.cpp:399] loss1/fc -> loss1/fc
I0403 14:55:08.295701  2156 net.cpp:141] Setting up loss1/fc
I0403 14:55:08.295749  2156 net.cpp:148] Top shape: 24 1024 (24576)
I0403 14:55:08.295766  2156 net.cpp:156] Memory required for data: 945992736
I0403 14:55:08.295788  2156 layer_factory.hpp:77] Creating layer loss1/relu_fc
I0403 14:55:08.295809  2156 net.cpp:91] Creating Layer loss1/relu_fc
I0403 14:55:08.295825  2156 net.cpp:425] loss1/relu_fc <- loss1/fc
I0403 14:55:08.295846  2156 net.cpp:386] loss1/relu_fc -> loss1/fc (in-place)
I0403 14:55:08.296088  2156 net.cpp:141] Setting up loss1/relu_fc
I0403 14:55:08.296114  2156 net.cpp:148] Top shape: 24 1024 (24576)
I0403 14:55:08.296130  2156 net.cpp:156] Memory required for data: 946091040
I0403 14:55:08.296146  2156 layer_factory.hpp:77] Creating layer loss1/drop_fc
I0403 14:55:08.296175  2156 net.cpp:91] Creating Layer loss1/drop_fc
I0403 14:55:08.296195  2156 net.cpp:425] loss1/drop_fc <- loss1/fc
I0403 14:55:08.296219  2156 net.cpp:386] loss1/drop_fc -> loss1/fc (in-place)
I0403 14:55:08.296274  2156 net.cpp:141] Setting up loss1/drop_fc
I0403 14:55:08.296298  2156 net.cpp:148] Top shape: 24 1024 (24576)
I0403 14:55:08.296314  2156 net.cpp:156] Memory required for data: 946189344
I0403 14:55:08.296329  2156 layer_factory.hpp:77] Creating layer loss1/classifier_plantvillage
I0403 14:55:08.296365  2156 net.cpp:91] Creating Layer loss1/classifier_plantvillage
I0403 14:55:08.296382  2156 net.cpp:425] loss1/classifier_plantvillage <- loss1/fc
I0403 14:55:08.296403  2156 net.cpp:399] loss1/classifier_plantvillage -> loss1/classifier_plantvillage
I0403 14:55:08.297310  2156 net.cpp:141] Setting up loss1/classifier_plantvillage
I0403 14:55:08.297338  2156 net.cpp:148] Top shape: 24 38 (912)
I0403 14:55:08.297354  2156 net.cpp:156] Memory required for data: 946192992
I0403 14:55:08.297372  2156 layer_factory.hpp:77] Creating layer loss1/classifier_plantvillage_loss1/classifier_plantvillage_0_split
I0403 14:55:08.297391  2156 net.cpp:91] Creating Layer loss1/classifier_plantvillage_loss1/classifier_plantvillage_0_split
I0403 14:55:08.297407  2156 net.cpp:425] loss1/classifier_plantvillage_loss1/classifier_plantvillage_0_split <- loss1/classifier_plantvillage
I0403 14:55:08.297442  2156 net.cpp:399] loss1/classifier_plantvillage_loss1/classifier_plantvillage_0_split -> loss1/classifier_plantvillage_loss1/classifier_plantvillage_0_split_0
I0403 14:55:08.297467  2156 net.cpp:399] loss1/classifier_plantvillage_loss1/classifier_plantvillage_0_split -> loss1/classifier_plantvillage_loss1/classifier_plantvillage_0_split_1
I0403 14:55:08.297489  2156 net.cpp:399] loss1/classifier_plantvillage_loss1/classifier_plantvillage_0_split -> loss1/classifier_plantvillage_loss1/classifier_plantvillage_0_split_2
I0403 14:55:08.297556  2156 net.cpp:141] Setting up loss1/classifier_plantvillage_loss1/classifier_plantvillage_0_split
I0403 14:55:08.297582  2156 net.cpp:148] Top shape: 24 38 (912)
I0403 14:55:08.297600  2156 net.cpp:148] Top shape: 24 38 (912)
I0403 14:55:08.297617  2156 net.cpp:148] Top shape: 24 38 (912)
I0403 14:55:08.297631  2156 net.cpp:156] Memory required for data: 946203936
I0403 14:55:08.297647  2156 layer_factory.hpp:77] Creating layer inception_4b/1x1
I0403 14:55:08.297669  2156 net.cpp:91] Creating Layer inception_4b/1x1
I0403 14:55:08.297710  2156 net.cpp:425] inception_4b/1x1 <- inception_4a/output_inception_4a/output_0_split_1
I0403 14:55:08.297731  2156 net.cpp:399] inception_4b/1x1 -> inception_4b/1x1
I0403 14:55:08.299430  2156 net.cpp:141] Setting up inception_4b/1x1
I0403 14:55:08.299460  2156 net.cpp:148] Top shape: 24 160 14 14 (752640)
I0403 14:55:08.299477  2156 net.cpp:156] Memory required for data: 949214496
I0403 14:55:08.299497  2156 layer_factory.hpp:77] Creating layer inception_4b/relu_1x1
I0403 14:55:08.299520  2156 net.cpp:91] Creating Layer inception_4b/relu_1x1
I0403 14:55:08.299538  2156 net.cpp:425] inception_4b/relu_1x1 <- inception_4b/1x1
I0403 14:55:08.299569  2156 net.cpp:386] inception_4b/relu_1x1 -> inception_4b/1x1 (in-place)
I0403 14:55:08.299751  2156 net.cpp:141] Setting up inception_4b/relu_1x1
I0403 14:55:08.299775  2156 net.cpp:148] Top shape: 24 160 14 14 (752640)
I0403 14:55:08.299792  2156 net.cpp:156] Memory required for data: 952225056
I0403 14:55:08.299806  2156 layer_factory.hpp:77] Creating layer inception_4b/3x3_reduce
I0403 14:55:08.299831  2156 net.cpp:91] Creating Layer inception_4b/3x3_reduce
I0403 14:55:08.299849  2156 net.cpp:425] inception_4b/3x3_reduce <- inception_4a/output_inception_4a/output_0_split_2
I0403 14:55:08.299870  2156 net.cpp:399] inception_4b/3x3_reduce -> inception_4b/3x3_reduce
I0403 14:55:08.301239  2156 net.cpp:141] Setting up inception_4b/3x3_reduce
I0403 14:55:08.301266  2156 net.cpp:148] Top shape: 24 112 14 14 (526848)
I0403 14:55:08.301282  2156 net.cpp:156] Memory required for data: 954332448
I0403 14:55:08.301301  2156 layer_factory.hpp:77] Creating layer inception_4b/relu_3x3_reduce
I0403 14:55:08.301322  2156 net.cpp:91] Creating Layer inception_4b/relu_3x3_reduce
I0403 14:55:08.301342  2156 net.cpp:425] inception_4b/relu_3x3_reduce <- inception_4b/3x3_reduce
I0403 14:55:08.301359  2156 net.cpp:386] inception_4b/relu_3x3_reduce -> inception_4b/3x3_reduce (in-place)
I0403 14:55:08.301642  2156 net.cpp:141] Setting up inception_4b/relu_3x3_reduce
I0403 14:55:08.301668  2156 net.cpp:148] Top shape: 24 112 14 14 (526848)
I0403 14:55:08.301684  2156 net.cpp:156] Memory required for data: 956439840
I0403 14:55:08.301700  2156 layer_factory.hpp:77] Creating layer inception_4b/3x3
I0403 14:55:08.301724  2156 net.cpp:91] Creating Layer inception_4b/3x3
I0403 14:55:08.301743  2156 net.cpp:425] inception_4b/3x3 <- inception_4b/3x3_reduce
I0403 14:55:08.301764  2156 net.cpp:399] inception_4b/3x3 -> inception_4b/3x3
I0403 14:55:08.304841  2156 net.cpp:141] Setting up inception_4b/3x3
I0403 14:55:08.304870  2156 net.cpp:148] Top shape: 24 224 14 14 (1053696)
I0403 14:55:08.304888  2156 net.cpp:156] Memory required for data: 960654624
I0403 14:55:08.304906  2156 layer_factory.hpp:77] Creating layer inception_4b/relu_3x3
I0403 14:55:08.304925  2156 net.cpp:91] Creating Layer inception_4b/relu_3x3
I0403 14:55:08.304941  2156 net.cpp:425] inception_4b/relu_3x3 <- inception_4b/3x3
I0403 14:55:08.304961  2156 net.cpp:386] inception_4b/relu_3x3 -> inception_4b/3x3 (in-place)
I0403 14:55:08.305138  2156 net.cpp:141] Setting up inception_4b/relu_3x3
I0403 14:55:08.305163  2156 net.cpp:148] Top shape: 24 224 14 14 (1053696)
I0403 14:55:08.305178  2156 net.cpp:156] Memory required for data: 964869408
I0403 14:55:08.305193  2156 layer_factory.hpp:77] Creating layer inception_4b/5x5_reduce
I0403 14:55:08.305223  2156 net.cpp:91] Creating Layer inception_4b/5x5_reduce
I0403 14:55:08.305243  2156 net.cpp:425] inception_4b/5x5_reduce <- inception_4a/output_inception_4a/output_0_split_3
I0403 14:55:08.305264  2156 net.cpp:399] inception_4b/5x5_reduce -> inception_4b/5x5_reduce
I0403 14:55:08.306352  2156 net.cpp:141] Setting up inception_4b/5x5_reduce
I0403 14:55:08.306381  2156 net.cpp:148] Top shape: 24 24 14 14 (112896)
I0403 14:55:08.306397  2156 net.cpp:156] Memory required for data: 965320992
I0403 14:55:08.306417  2156 layer_factory.hpp:77] Creating layer inception_4b/relu_5x5_reduce
I0403 14:55:08.306439  2156 net.cpp:91] Creating Layer inception_4b/relu_5x5_reduce
I0403 14:55:08.306484  2156 net.cpp:425] inception_4b/relu_5x5_reduce <- inception_4b/5x5_reduce
I0403 14:55:08.306504  2156 net.cpp:386] inception_4b/relu_5x5_reduce -> inception_4b/5x5_reduce (in-place)
I0403 14:55:08.306694  2156 net.cpp:141] Setting up inception_4b/relu_5x5_reduce
I0403 14:55:08.306720  2156 net.cpp:148] Top shape: 24 24 14 14 (112896)
I0403 14:55:08.306735  2156 net.cpp:156] Memory required for data: 965772576
I0403 14:55:08.306751  2156 layer_factory.hpp:77] Creating layer inception_4b/5x5
I0403 14:55:08.306772  2156 net.cpp:91] Creating Layer inception_4b/5x5
I0403 14:55:08.306789  2156 net.cpp:425] inception_4b/5x5 <- inception_4b/5x5_reduce
I0403 14:55:08.306808  2156 net.cpp:399] inception_4b/5x5 -> inception_4b/5x5
I0403 14:55:08.308014  2156 net.cpp:141] Setting up inception_4b/5x5
I0403 14:55:08.308043  2156 net.cpp:148] Top shape: 24 64 14 14 (301056)
I0403 14:55:08.308058  2156 net.cpp:156] Memory required for data: 966976800
I0403 14:55:08.308078  2156 layer_factory.hpp:77] Creating layer inception_4b/relu_5x5
I0403 14:55:08.308099  2156 net.cpp:91] Creating Layer inception_4b/relu_5x5
I0403 14:55:08.308115  2156 net.cpp:425] inception_4b/relu_5x5 <- inception_4b/5x5
I0403 14:55:08.308133  2156 net.cpp:386] inception_4b/relu_5x5 -> inception_4b/5x5 (in-place)
I0403 14:55:08.308450  2156 net.cpp:141] Setting up inception_4b/relu_5x5
I0403 14:55:08.308476  2156 net.cpp:148] Top shape: 24 64 14 14 (301056)
I0403 14:55:08.308492  2156 net.cpp:156] Memory required for data: 968181024
I0403 14:55:08.308508  2156 layer_factory.hpp:77] Creating layer inception_4b/pool
I0403 14:55:08.308531  2156 net.cpp:91] Creating Layer inception_4b/pool
I0403 14:55:08.308562  2156 net.cpp:425] inception_4b/pool <- inception_4a/output_inception_4a/output_0_split_4
I0403 14:55:08.308579  2156 net.cpp:399] inception_4b/pool -> inception_4b/pool
I0403 14:55:08.308645  2156 net.cpp:141] Setting up inception_4b/pool
I0403 14:55:08.308667  2156 net.cpp:148] Top shape: 24 512 14 14 (2408448)
I0403 14:55:08.308682  2156 net.cpp:156] Memory required for data: 977814816
I0403 14:55:08.308697  2156 layer_factory.hpp:77] Creating layer inception_4b/pool_proj
I0403 14:55:08.308719  2156 net.cpp:91] Creating Layer inception_4b/pool_proj
I0403 14:55:08.308737  2156 net.cpp:425] inception_4b/pool_proj <- inception_4b/pool
I0403 14:55:08.308758  2156 net.cpp:399] inception_4b/pool_proj -> inception_4b/pool_proj
I0403 14:55:08.309960  2156 net.cpp:141] Setting up inception_4b/pool_proj
I0403 14:55:08.309986  2156 net.cpp:148] Top shape: 24 64 14 14 (301056)
I0403 14:55:08.310003  2156 net.cpp:156] Memory required for data: 979019040
I0403 14:55:08.310020  2156 layer_factory.hpp:77] Creating layer inception_4b/relu_pool_proj
I0403 14:55:08.310042  2156 net.cpp:91] Creating Layer inception_4b/relu_pool_proj
I0403 14:55:08.310060  2156 net.cpp:425] inception_4b/relu_pool_proj <- inception_4b/pool_proj
I0403 14:55:08.310077  2156 net.cpp:386] inception_4b/relu_pool_proj -> inception_4b/pool_proj (in-place)
I0403 14:55:08.310276  2156 net.cpp:141] Setting up inception_4b/relu_pool_proj
I0403 14:55:08.310303  2156 net.cpp:148] Top shape: 24 64 14 14 (301056)
I0403 14:55:08.310319  2156 net.cpp:156] Memory required for data: 980223264
I0403 14:55:08.310335  2156 layer_factory.hpp:77] Creating layer inception_4b/output
I0403 14:55:08.310354  2156 net.cpp:91] Creating Layer inception_4b/output
I0403 14:55:08.310370  2156 net.cpp:425] inception_4b/output <- inception_4b/1x1
I0403 14:55:08.310387  2156 net.cpp:425] inception_4b/output <- inception_4b/3x3
I0403 14:55:08.310405  2156 net.cpp:425] inception_4b/output <- inception_4b/5x5
I0403 14:55:08.310421  2156 net.cpp:425] inception_4b/output <- inception_4b/pool_proj
I0403 14:55:08.310439  2156 net.cpp:399] inception_4b/output -> inception_4b/output
I0403 14:55:08.310488  2156 net.cpp:141] Setting up inception_4b/output
I0403 14:55:08.310511  2156 net.cpp:148] Top shape: 24 512 14 14 (2408448)
I0403 14:55:08.310528  2156 net.cpp:156] Memory required for data: 989857056
I0403 14:55:08.310567  2156 layer_factory.hpp:77] Creating layer inception_4b/output_inception_4b/output_0_split
I0403 14:55:08.310586  2156 net.cpp:91] Creating Layer inception_4b/output_inception_4b/output_0_split
I0403 14:55:08.310602  2156 net.cpp:425] inception_4b/output_inception_4b/output_0_split <- inception_4b/output
I0403 14:55:08.310622  2156 net.cpp:399] inception_4b/output_inception_4b/output_0_split -> inception_4b/output_inception_4b/output_0_split_0
I0403 14:55:08.310643  2156 net.cpp:399] inception_4b/output_inception_4b/output_0_split -> inception_4b/output_inception_4b/output_0_split_1
I0403 14:55:08.310664  2156 net.cpp:399] inception_4b/output_inception_4b/output_0_split -> inception_4b/output_inception_4b/output_0_split_2
I0403 14:55:08.310688  2156 net.cpp:399] inception_4b/output_inception_4b/output_0_split -> inception_4b/output_inception_4b/output_0_split_3
I0403 14:55:08.310771  2156 net.cpp:141] Setting up inception_4b/output_inception_4b/output_0_split
I0403 14:55:08.310794  2156 net.cpp:148] Top shape: 24 512 14 14 (2408448)
I0403 14:55:08.310811  2156 net.cpp:148] Top shape: 24 512 14 14 (2408448)
I0403 14:55:08.310827  2156 net.cpp:148] Top shape: 24 512 14 14 (2408448)
I0403 14:55:08.310843  2156 net.cpp:148] Top shape: 24 512 14 14 (2408448)
I0403 14:55:08.310858  2156 net.cpp:156] Memory required for data: 1028392224
I0403 14:55:08.310873  2156 layer_factory.hpp:77] Creating layer inception_4c/1x1
I0403 14:55:08.310895  2156 net.cpp:91] Creating Layer inception_4c/1x1
I0403 14:55:08.310914  2156 net.cpp:425] inception_4c/1x1 <- inception_4b/output_inception_4b/output_0_split_0
I0403 14:55:08.310935  2156 net.cpp:399] inception_4c/1x1 -> inception_4c/1x1
I0403 14:55:08.312397  2156 net.cpp:141] Setting up inception_4c/1x1
I0403 14:55:08.312428  2156 net.cpp:148] Top shape: 24 128 14 14 (602112)
I0403 14:55:08.312445  2156 net.cpp:156] Memory required for data: 1030800672
I0403 14:55:08.312465  2156 layer_factory.hpp:77] Creating layer inception_4c/relu_1x1
I0403 14:55:08.312484  2156 net.cpp:91] Creating Layer inception_4c/relu_1x1
I0403 14:55:08.312500  2156 net.cpp:425] inception_4c/relu_1x1 <- inception_4c/1x1
I0403 14:55:08.312533  2156 net.cpp:386] inception_4c/relu_1x1 -> inception_4c/1x1 (in-place)
I0403 14:55:08.312707  2156 net.cpp:141] Setting up inception_4c/relu_1x1
I0403 14:55:08.312732  2156 net.cpp:148] Top shape: 24 128 14 14 (602112)
I0403 14:55:08.312747  2156 net.cpp:156] Memory required for data: 1033209120
I0403 14:55:08.312762  2156 layer_factory.hpp:77] Creating layer inception_4c/3x3_reduce
I0403 14:55:08.312785  2156 net.cpp:91] Creating Layer inception_4c/3x3_reduce
I0403 14:55:08.312803  2156 net.cpp:425] inception_4c/3x3_reduce <- inception_4b/output_inception_4b/output_0_split_1
I0403 14:55:08.312825  2156 net.cpp:399] inception_4c/3x3_reduce -> inception_4c/3x3_reduce
I0403 14:55:08.314818  2156 net.cpp:141] Setting up inception_4c/3x3_reduce
I0403 14:55:08.314846  2156 net.cpp:148] Top shape: 24 128 14 14 (602112)
I0403 14:55:08.314862  2156 net.cpp:156] Memory required for data: 1035617568
I0403 14:55:08.314882  2156 layer_factory.hpp:77] Creating layer inception_4c/relu_3x3_reduce
I0403 14:55:08.314903  2156 net.cpp:91] Creating Layer inception_4c/relu_3x3_reduce
I0403 14:55:08.314921  2156 net.cpp:425] inception_4c/relu_3x3_reduce <- inception_4c/3x3_reduce
I0403 14:55:08.314939  2156 net.cpp:386] inception_4c/relu_3x3_reduce -> inception_4c/3x3_reduce (in-place)
I0403 14:55:08.315232  2156 net.cpp:141] Setting up inception_4c/relu_3x3_reduce
I0403 14:55:08.315258  2156 net.cpp:148] Top shape: 24 128 14 14 (602112)
I0403 14:55:08.315275  2156 net.cpp:156] Memory required for data: 1038026016
I0403 14:55:08.315290  2156 layer_factory.hpp:77] Creating layer inception_4c/3x3
I0403 14:55:08.315315  2156 net.cpp:91] Creating Layer inception_4c/3x3
I0403 14:55:08.315332  2156 net.cpp:425] inception_4c/3x3 <- inception_4c/3x3_reduce
I0403 14:55:08.315356  2156 net.cpp:399] inception_4c/3x3 -> inception_4c/3x3
I0403 14:55:08.319088  2156 net.cpp:141] Setting up inception_4c/3x3
I0403 14:55:08.319133  2156 net.cpp:148] Top shape: 24 256 14 14 (1204224)
I0403 14:55:08.319150  2156 net.cpp:156] Memory required for data: 1042842912
I0403 14:55:08.319185  2156 layer_factory.hpp:77] Creating layer inception_4c/relu_3x3
I0403 14:55:08.319214  2156 net.cpp:91] Creating Layer inception_4c/relu_3x3
I0403 14:55:08.319236  2156 net.cpp:425] inception_4c/relu_3x3 <- inception_4c/3x3
I0403 14:55:08.319254  2156 net.cpp:386] inception_4c/relu_3x3 -> inception_4c/3x3 (in-place)
I0403 14:55:08.319445  2156 net.cpp:141] Setting up inception_4c/relu_3x3
I0403 14:55:08.319471  2156 net.cpp:148] Top shape: 24 256 14 14 (1204224)
I0403 14:55:08.319488  2156 net.cpp:156] Memory required for data: 1047659808
I0403 14:55:08.319504  2156 layer_factory.hpp:77] Creating layer inception_4c/5x5_reduce
I0403 14:55:08.319526  2156 net.cpp:91] Creating Layer inception_4c/5x5_reduce
I0403 14:55:08.319545  2156 net.cpp:425] inception_4c/5x5_reduce <- inception_4b/output_inception_4b/output_0_split_2
I0403 14:55:08.319568  2156 net.cpp:399] inception_4c/5x5_reduce -> inception_4c/5x5_reduce
I0403 14:55:08.320735  2156 net.cpp:141] Setting up inception_4c/5x5_reduce
I0403 14:55:08.320763  2156 net.cpp:148] Top shape: 24 24 14 14 (112896)
I0403 14:55:08.320780  2156 net.cpp:156] Memory required for data: 1048111392
I0403 14:55:08.320798  2156 layer_factory.hpp:77] Creating layer inception_4c/relu_5x5_reduce
I0403 14:55:08.320819  2156 net.cpp:91] Creating Layer inception_4c/relu_5x5_reduce
I0403 14:55:08.320837  2156 net.cpp:425] inception_4c/relu_5x5_reduce <- inception_4c/5x5_reduce
I0403 14:55:08.320857  2156 net.cpp:386] inception_4c/relu_5x5_reduce -> inception_4c/5x5_reduce (in-place)
I0403 14:55:08.321041  2156 net.cpp:141] Setting up inception_4c/relu_5x5_reduce
I0403 14:55:08.321069  2156 net.cpp:148] Top shape: 24 24 14 14 (112896)
I0403 14:55:08.321084  2156 net.cpp:156] Memory required for data: 1048562976
I0403 14:55:08.321100  2156 layer_factory.hpp:77] Creating layer inception_4c/5x5
I0403 14:55:08.321122  2156 net.cpp:91] Creating Layer inception_4c/5x5
I0403 14:55:08.321141  2156 net.cpp:425] inception_4c/5x5 <- inception_4c/5x5_reduce
I0403 14:55:08.321173  2156 net.cpp:399] inception_4c/5x5 -> inception_4c/5x5
I0403 14:55:08.322491  2156 net.cpp:141] Setting up inception_4c/5x5
I0403 14:55:08.322521  2156 net.cpp:148] Top shape: 24 64 14 14 (301056)
I0403 14:55:08.322551  2156 net.cpp:156] Memory required for data: 1049767200
I0403 14:55:08.322571  2156 layer_factory.hpp:77] Creating layer inception_4c/relu_5x5
I0403 14:55:08.322589  2156 net.cpp:91] Creating Layer inception_4c/relu_5x5
I0403 14:55:08.322607  2156 net.cpp:425] inception_4c/relu_5x5 <- inception_4c/5x5
I0403 14:55:08.322626  2156 net.cpp:386] inception_4c/relu_5x5 -> inception_4c/5x5 (in-place)
I0403 14:55:08.322932  2156 net.cpp:141] Setting up inception_4c/relu_5x5
I0403 14:55:08.322962  2156 net.cpp:148] Top shape: 24 64 14 14 (301056)
I0403 14:55:08.322978  2156 net.cpp:156] Memory required for data: 1050971424
I0403 14:55:08.322994  2156 layer_factory.hpp:77] Creating layer inception_4c/pool
I0403 14:55:08.323014  2156 net.cpp:91] Creating Layer inception_4c/pool
I0403 14:55:08.323031  2156 net.cpp:425] inception_4c/pool <- inception_4b/output_inception_4b/output_0_split_3
I0403 14:55:08.323052  2156 net.cpp:399] inception_4c/pool -> inception_4c/pool
I0403 14:55:08.323122  2156 net.cpp:141] Setting up inception_4c/pool
I0403 14:55:08.323145  2156 net.cpp:148] Top shape: 24 512 14 14 (2408448)
I0403 14:55:08.323161  2156 net.cpp:156] Memory required for data: 1060605216
I0403 14:55:08.323178  2156 layer_factory.hpp:77] Creating layer inception_4c/pool_proj
I0403 14:55:08.323201  2156 net.cpp:91] Creating Layer inception_4c/pool_proj
I0403 14:55:08.323238  2156 net.cpp:425] inception_4c/pool_proj <- inception_4c/pool
I0403 14:55:08.323261  2156 net.cpp:399] inception_4c/pool_proj -> inception_4c/pool_proj
I0403 14:55:08.324524  2156 net.cpp:141] Setting up inception_4c/pool_proj
I0403 14:55:08.324564  2156 net.cpp:148] Top shape: 24 64 14 14 (301056)
I0403 14:55:08.324595  2156 net.cpp:156] Memory required for data: 1061809440
I0403 14:55:08.324618  2156 layer_factory.hpp:77] Creating layer inception_4c/relu_pool_proj
I0403 14:55:08.324641  2156 net.cpp:91] Creating Layer inception_4c/relu_pool_proj
I0403 14:55:08.324661  2156 net.cpp:425] inception_4c/relu_pool_proj <- inception_4c/pool_proj
I0403 14:55:08.324679  2156 net.cpp:386] inception_4c/relu_pool_proj -> inception_4c/pool_proj (in-place)
I0403 14:55:08.324872  2156 net.cpp:141] Setting up inception_4c/relu_pool_proj
I0403 14:55:08.324899  2156 net.cpp:148] Top shape: 24 64 14 14 (301056)
I0403 14:55:08.324915  2156 net.cpp:156] Memory required for data: 1063013664
I0403 14:55:08.324931  2156 layer_factory.hpp:77] Creating layer inception_4c/output
I0403 14:55:08.324950  2156 net.cpp:91] Creating Layer inception_4c/output
I0403 14:55:08.324967  2156 net.cpp:425] inception_4c/output <- inception_4c/1x1
I0403 14:55:08.324985  2156 net.cpp:425] inception_4c/output <- inception_4c/3x3
I0403 14:55:08.325001  2156 net.cpp:425] inception_4c/output <- inception_4c/5x5
I0403 14:55:08.325018  2156 net.cpp:425] inception_4c/output <- inception_4c/pool_proj
I0403 14:55:08.325037  2156 net.cpp:399] inception_4c/output -> inception_4c/output
I0403 14:55:08.325086  2156 net.cpp:141] Setting up inception_4c/output
I0403 14:55:08.325110  2156 net.cpp:148] Top shape: 24 512 14 14 (2408448)
I0403 14:55:08.325126  2156 net.cpp:156] Memory required for data: 1072647456
I0403 14:55:08.325141  2156 layer_factory.hpp:77] Creating layer inception_4c/output_inception_4c/output_0_split
I0403 14:55:08.325160  2156 net.cpp:91] Creating Layer inception_4c/output_inception_4c/output_0_split
I0403 14:55:08.325177  2156 net.cpp:425] inception_4c/output_inception_4c/output_0_split <- inception_4c/output
I0403 14:55:08.325198  2156 net.cpp:399] inception_4c/output_inception_4c/output_0_split -> inception_4c/output_inception_4c/output_0_split_0
I0403 14:55:08.325228  2156 net.cpp:399] inception_4c/output_inception_4c/output_0_split -> inception_4c/output_inception_4c/output_0_split_1
I0403 14:55:08.325263  2156 net.cpp:399] inception_4c/output_inception_4c/output_0_split -> inception_4c/output_inception_4c/output_0_split_2
I0403 14:55:08.325289  2156 net.cpp:399] inception_4c/output_inception_4c/output_0_split -> inception_4c/output_inception_4c/output_0_split_3
I0403 14:55:08.325384  2156 net.cpp:141] Setting up inception_4c/output_inception_4c/output_0_split
I0403 14:55:08.325409  2156 net.cpp:148] Top shape: 24 512 14 14 (2408448)
I0403 14:55:08.325428  2156 net.cpp:148] Top shape: 24 512 14 14 (2408448)
I0403 14:55:08.325445  2156 net.cpp:148] Top shape: 24 512 14 14 (2408448)
I0403 14:55:08.325462  2156 net.cpp:148] Top shape: 24 512 14 14 (2408448)
I0403 14:55:08.325479  2156 net.cpp:156] Memory required for data: 1111182624
I0403 14:55:08.325495  2156 layer_factory.hpp:77] Creating layer inception_4d/1x1
I0403 14:55:08.325518  2156 net.cpp:91] Creating Layer inception_4d/1x1
I0403 14:55:08.325551  2156 net.cpp:425] inception_4d/1x1 <- inception_4c/output_inception_4c/output_0_split_0
I0403 14:55:08.325572  2156 net.cpp:399] inception_4d/1x1 -> inception_4d/1x1
I0403 14:55:08.327036  2156 net.cpp:141] Setting up inception_4d/1x1
I0403 14:55:08.327065  2156 net.cpp:148] Top shape: 24 112 14 14 (526848)
I0403 14:55:08.327081  2156 net.cpp:156] Memory required for data: 1113290016
I0403 14:55:08.327100  2156 layer_factory.hpp:77] Creating layer inception_4d/relu_1x1
I0403 14:55:08.327119  2156 net.cpp:91] Creating Layer inception_4d/relu_1x1
I0403 14:55:08.327137  2156 net.cpp:425] inception_4d/relu_1x1 <- inception_4d/1x1
I0403 14:55:08.327158  2156 net.cpp:386] inception_4d/relu_1x1 -> inception_4d/1x1 (in-place)
I0403 14:55:08.327358  2156 net.cpp:141] Setting up inception_4d/relu_1x1
I0403 14:55:08.327383  2156 net.cpp:148] Top shape: 24 112 14 14 (526848)
I0403 14:55:08.327399  2156 net.cpp:156] Memory required for data: 1115397408
I0403 14:55:08.327415  2156 layer_factory.hpp:77] Creating layer inception_4d/3x3_reduce
I0403 14:55:08.327453  2156 net.cpp:91] Creating Layer inception_4d/3x3_reduce
I0403 14:55:08.327472  2156 net.cpp:425] inception_4d/3x3_reduce <- inception_4c/output_inception_4c/output_0_split_1
I0403 14:55:08.327496  2156 net.cpp:399] inception_4d/3x3_reduce -> inception_4d/3x3_reduce
I0403 14:55:08.329099  2156 net.cpp:141] Setting up inception_4d/3x3_reduce
I0403 14:55:08.329130  2156 net.cpp:148] Top shape: 24 144 14 14 (677376)
I0403 14:55:08.329146  2156 net.cpp:156] Memory required for data: 1118106912
I0403 14:55:08.329180  2156 layer_factory.hpp:77] Creating layer inception_4d/relu_3x3_reduce
I0403 14:55:08.329198  2156 net.cpp:91] Creating Layer inception_4d/relu_3x3_reduce
I0403 14:55:08.329223  2156 net.cpp:425] inception_4d/relu_3x3_reduce <- inception_4d/3x3_reduce
I0403 14:55:08.329246  2156 net.cpp:386] inception_4d/relu_3x3_reduce -> inception_4d/3x3_reduce (in-place)
I0403 14:55:08.329630  2156 net.cpp:141] Setting up inception_4d/relu_3x3_reduce
I0403 14:55:08.329661  2156 net.cpp:148] Top shape: 24 144 14 14 (677376)
I0403 14:55:08.329691  2156 net.cpp:156] Memory required for data: 1120816416
I0403 14:55:08.329707  2156 layer_factory.hpp:77] Creating layer inception_4d/3x3
I0403 14:55:08.329732  2156 net.cpp:91] Creating Layer inception_4d/3x3
I0403 14:55:08.329751  2156 net.cpp:425] inception_4d/3x3 <- inception_4d/3x3_reduce
I0403 14:55:08.329771  2156 net.cpp:399] inception_4d/3x3 -> inception_4d/3x3
I0403 14:55:08.334195  2156 net.cpp:141] Setting up inception_4d/3x3
I0403 14:55:08.334228  2156 net.cpp:148] Top shape: 24 288 14 14 (1354752)
I0403 14:55:08.334245  2156 net.cpp:156] Memory required for data: 1126235424
I0403 14:55:08.334264  2156 layer_factory.hpp:77] Creating layer inception_4d/relu_3x3
I0403 14:55:08.334283  2156 net.cpp:91] Creating Layer inception_4d/relu_3x3
I0403 14:55:08.334300  2156 net.cpp:425] inception_4d/relu_3x3 <- inception_4d/3x3
I0403 14:55:08.334321  2156 net.cpp:386] inception_4d/relu_3x3 -> inception_4d/3x3 (in-place)
I0403 14:55:08.334509  2156 net.cpp:141] Setting up inception_4d/relu_3x3
I0403 14:55:08.334534  2156 net.cpp:148] Top shape: 24 288 14 14 (1354752)
I0403 14:55:08.334549  2156 net.cpp:156] Memory required for data: 1131654432
I0403 14:55:08.334565  2156 layer_factory.hpp:77] Creating layer inception_4d/5x5_reduce
I0403 14:55:08.334589  2156 net.cpp:91] Creating Layer inception_4d/5x5_reduce
I0403 14:55:08.334607  2156 net.cpp:425] inception_4d/5x5_reduce <- inception_4c/output_inception_4c/output_0_split_2
I0403 14:55:08.334630  2156 net.cpp:399] inception_4d/5x5_reduce -> inception_4d/5x5_reduce
I0403 14:55:08.335896  2156 net.cpp:141] Setting up inception_4d/5x5_reduce
I0403 14:55:08.335922  2156 net.cpp:148] Top shape: 24 32 14 14 (150528)
I0403 14:55:08.335937  2156 net.cpp:156] Memory required for data: 1132256544
I0403 14:55:08.335957  2156 layer_factory.hpp:77] Creating layer inception_4d/relu_5x5_reduce
I0403 14:55:08.335976  2156 net.cpp:91] Creating Layer inception_4d/relu_5x5_reduce
I0403 14:55:08.335994  2156 net.cpp:425] inception_4d/relu_5x5_reduce <- inception_4d/5x5_reduce
I0403 14:55:08.336011  2156 net.cpp:386] inception_4d/relu_5x5_reduce -> inception_4d/5x5_reduce (in-place)
I0403 14:55:08.336194  2156 net.cpp:141] Setting up inception_4d/relu_5x5_reduce
I0403 14:55:08.336221  2156 net.cpp:148] Top shape: 24 32 14 14 (150528)
I0403 14:55:08.336237  2156 net.cpp:156] Memory required for data: 1132858656
I0403 14:55:08.336252  2156 layer_factory.hpp:77] Creating layer inception_4d/5x5
I0403 14:55:08.336277  2156 net.cpp:91] Creating Layer inception_4d/5x5
I0403 14:55:08.336294  2156 net.cpp:425] inception_4d/5x5 <- inception_4d/5x5_reduce
I0403 14:55:08.336315  2156 net.cpp:399] inception_4d/5x5 -> inception_4d/5x5
I0403 14:55:08.337828  2156 net.cpp:141] Setting up inception_4d/5x5
I0403 14:55:08.337855  2156 net.cpp:148] Top shape: 24 64 14 14 (301056)
I0403 14:55:08.337870  2156 net.cpp:156] Memory required for data: 1134062880
I0403 14:55:08.337889  2156 layer_factory.hpp:77] Creating layer inception_4d/relu_5x5
I0403 14:55:08.337924  2156 net.cpp:91] Creating Layer inception_4d/relu_5x5
I0403 14:55:08.337944  2156 net.cpp:425] inception_4d/relu_5x5 <- inception_4d/5x5
I0403 14:55:08.337960  2156 net.cpp:386] inception_4d/relu_5x5 -> inception_4d/5x5 (in-place)
I0403 14:55:08.338263  2156 net.cpp:141] Setting up inception_4d/relu_5x5
I0403 14:55:08.338289  2156 net.cpp:148] Top shape: 24 64 14 14 (301056)
I0403 14:55:08.338304  2156 net.cpp:156] Memory required for data: 1135267104
I0403 14:55:08.338318  2156 layer_factory.hpp:77] Creating layer inception_4d/pool
I0403 14:55:08.338340  2156 net.cpp:91] Creating Layer inception_4d/pool
I0403 14:55:08.338356  2156 net.cpp:425] inception_4d/pool <- inception_4c/output_inception_4c/output_0_split_3
I0403 14:55:08.338376  2156 net.cpp:399] inception_4d/pool -> inception_4d/pool
I0403 14:55:08.338441  2156 net.cpp:141] Setting up inception_4d/pool
I0403 14:55:08.338466  2156 net.cpp:148] Top shape: 24 512 14 14 (2408448)
I0403 14:55:08.338481  2156 net.cpp:156] Memory required for data: 1144900896
I0403 14:55:08.338496  2156 layer_factory.hpp:77] Creating layer inception_4d/pool_proj
I0403 14:55:08.338518  2156 net.cpp:91] Creating Layer inception_4d/pool_proj
I0403 14:55:08.338536  2156 net.cpp:425] inception_4d/pool_proj <- inception_4d/pool
I0403 14:55:08.338557  2156 net.cpp:399] inception_4d/pool_proj -> inception_4d/pool_proj
I0403 14:55:08.340337  2156 net.cpp:141] Setting up inception_4d/pool_proj
I0403 14:55:08.340366  2156 net.cpp:148] Top shape: 24 64 14 14 (301056)
I0403 14:55:08.340383  2156 net.cpp:156] Memory required for data: 1146105120
I0403 14:55:08.340402  2156 layer_factory.hpp:77] Creating layer inception_4d/relu_pool_proj
I0403 14:55:08.340421  2156 net.cpp:91] Creating Layer inception_4d/relu_pool_proj
I0403 14:55:08.340438  2156 net.cpp:425] inception_4d/relu_pool_proj <- inception_4d/pool_proj
I0403 14:55:08.340458  2156 net.cpp:386] inception_4d/relu_pool_proj -> inception_4d/pool_proj (in-place)
I0403 14:55:08.340654  2156 net.cpp:141] Setting up inception_4d/relu_pool_proj
I0403 14:55:08.340679  2156 net.cpp:148] Top shape: 24 64 14 14 (301056)
I0403 14:55:08.340705  2156 net.cpp:156] Memory required for data: 1147309344
I0403 14:55:08.340721  2156 layer_factory.hpp:77] Creating layer inception_4d/output
I0403 14:55:08.340742  2156 net.cpp:91] Creating Layer inception_4d/output
I0403 14:55:08.340760  2156 net.cpp:425] inception_4d/output <- inception_4d/1x1
I0403 14:55:08.340777  2156 net.cpp:425] inception_4d/output <- inception_4d/3x3
I0403 14:55:08.340795  2156 net.cpp:425] inception_4d/output <- inception_4d/5x5
I0403 14:55:08.340811  2156 net.cpp:425] inception_4d/output <- inception_4d/pool_proj
I0403 14:55:08.340828  2156 net.cpp:399] inception_4d/output -> inception_4d/output
I0403 14:55:08.340878  2156 net.cpp:141] Setting up inception_4d/output
I0403 14:55:08.340903  2156 net.cpp:148] Top shape: 24 528 14 14 (2483712)
I0403 14:55:08.340916  2156 net.cpp:156] Memory required for data: 1157244192
I0403 14:55:08.340932  2156 layer_factory.hpp:77] Creating layer inception_4d/output_inception_4d/output_0_split
I0403 14:55:08.340950  2156 net.cpp:91] Creating Layer inception_4d/output_inception_4d/output_0_split
I0403 14:55:08.340967  2156 net.cpp:425] inception_4d/output_inception_4d/output_0_split <- inception_4d/output
I0403 14:55:08.340987  2156 net.cpp:399] inception_4d/output_inception_4d/output_0_split -> inception_4d/output_inception_4d/output_0_split_0
I0403 14:55:08.341009  2156 net.cpp:399] inception_4d/output_inception_4d/output_0_split -> inception_4d/output_inception_4d/output_0_split_1
I0403 14:55:08.341043  2156 net.cpp:399] inception_4d/output_inception_4d/output_0_split -> inception_4d/output_inception_4d/output_0_split_2
I0403 14:55:08.341063  2156 net.cpp:399] inception_4d/output_inception_4d/output_0_split -> inception_4d/output_inception_4d/output_0_split_3
I0403 14:55:08.341084  2156 net.cpp:399] inception_4d/output_inception_4d/output_0_split -> inception_4d/output_inception_4d/output_0_split_4
I0403 14:55:08.341189  2156 net.cpp:141] Setting up inception_4d/output_inception_4d/output_0_split
I0403 14:55:08.341228  2156 net.cpp:148] Top shape: 24 528 14 14 (2483712)
I0403 14:55:08.341245  2156 net.cpp:148] Top shape: 24 528 14 14 (2483712)
I0403 14:55:08.341262  2156 net.cpp:148] Top shape: 24 528 14 14 (2483712)
I0403 14:55:08.341277  2156 net.cpp:148] Top shape: 24 528 14 14 (2483712)
I0403 14:55:08.341294  2156 net.cpp:148] Top shape: 24 528 14 14 (2483712)
I0403 14:55:08.341307  2156 net.cpp:156] Memory required for data: 1206918432
I0403 14:55:08.341322  2156 layer_factory.hpp:77] Creating layer loss2/ave_pool
I0403 14:55:08.341341  2156 net.cpp:91] Creating Layer loss2/ave_pool
I0403 14:55:08.341357  2156 net.cpp:425] loss2/ave_pool <- inception_4d/output_inception_4d/output_0_split_0
I0403 14:55:08.341379  2156 net.cpp:399] loss2/ave_pool -> loss2/ave_pool
I0403 14:55:08.341686  2156 net.cpp:141] Setting up loss2/ave_pool
I0403 14:55:08.341711  2156 net.cpp:148] Top shape: 24 528 4 4 (202752)
I0403 14:55:08.341727  2156 net.cpp:156] Memory required for data: 1207729440
I0403 14:55:08.341742  2156 layer_factory.hpp:77] Creating layer loss2/conv
I0403 14:55:08.341764  2156 net.cpp:91] Creating Layer loss2/conv
I0403 14:55:08.341783  2156 net.cpp:425] loss2/conv <- loss2/ave_pool
I0403 14:55:08.341804  2156 net.cpp:399] loss2/conv -> loss2/conv
I0403 14:55:08.343762  2156 net.cpp:141] Setting up loss2/conv
I0403 14:55:08.343806  2156 net.cpp:148] Top shape: 24 128 4 4 (49152)
I0403 14:55:08.343822  2156 net.cpp:156] Memory required for data: 1207926048
I0403 14:55:08.343842  2156 layer_factory.hpp:77] Creating layer loss2/relu_conv
I0403 14:55:08.343861  2156 net.cpp:91] Creating Layer loss2/relu_conv
I0403 14:55:08.343879  2156 net.cpp:425] loss2/relu_conv <- loss2/conv
I0403 14:55:08.343897  2156 net.cpp:386] loss2/relu_conv -> loss2/conv (in-place)
I0403 14:55:08.344190  2156 net.cpp:141] Setting up loss2/relu_conv
I0403 14:55:08.344238  2156 net.cpp:148] Top shape: 24 128 4 4 (49152)
I0403 14:55:08.344255  2156 net.cpp:156] Memory required for data: 1208122656
I0403 14:55:08.344272  2156 layer_factory.hpp:77] Creating layer loss2/fc
I0403 14:55:08.344293  2156 net.cpp:91] Creating Layer loss2/fc
I0403 14:55:08.344311  2156 net.cpp:425] loss2/fc <- loss2/conv
I0403 14:55:08.344334  2156 net.cpp:399] loss2/fc -> loss2/fc
I0403 14:55:08.362207  2156 net.cpp:141] Setting up loss2/fc
I0403 14:55:08.362269  2156 net.cpp:148] Top shape: 24 1024 (24576)
I0403 14:55:08.362285  2156 net.cpp:156] Memory required for data: 1208220960
I0403 14:55:08.362306  2156 layer_factory.hpp:77] Creating layer loss2/relu_fc
I0403 14:55:08.362329  2156 net.cpp:91] Creating Layer loss2/relu_fc
I0403 14:55:08.362347  2156 net.cpp:425] loss2/relu_fc <- loss2/fc
I0403 14:55:08.362366  2156 net.cpp:386] loss2/relu_fc -> loss2/fc (in-place)
I0403 14:55:08.362696  2156 net.cpp:141] Setting up loss2/relu_fc
I0403 14:55:08.362723  2156 net.cpp:148] Top shape: 24 1024 (24576)
I0403 14:55:08.362740  2156 net.cpp:156] Memory required for data: 1208319264
I0403 14:55:08.362756  2156 layer_factory.hpp:77] Creating layer loss2/drop_fc
I0403 14:55:08.362776  2156 net.cpp:91] Creating Layer loss2/drop_fc
I0403 14:55:08.362794  2156 net.cpp:425] loss2/drop_fc <- loss2/fc
I0403 14:55:08.362812  2156 net.cpp:386] loss2/drop_fc -> loss2/fc (in-place)
I0403 14:55:08.362864  2156 net.cpp:141] Setting up loss2/drop_fc
I0403 14:55:08.362889  2156 net.cpp:148] Top shape: 24 1024 (24576)
I0403 14:55:08.362905  2156 net.cpp:156] Memory required for data: 1208417568
I0403 14:55:08.362920  2156 layer_factory.hpp:77] Creating layer loss2/classifier_plantvillage
I0403 14:55:08.362941  2156 net.cpp:91] Creating Layer loss2/classifier_plantvillage
I0403 14:55:08.362957  2156 net.cpp:425] loss2/classifier_plantvillage <- loss2/fc
I0403 14:55:08.362978  2156 net.cpp:399] loss2/classifier_plantvillage -> loss2/classifier_plantvillage
I0403 14:55:08.363423  2156 net.cpp:141] Setting up loss2/classifier_plantvillage
I0403 14:55:08.363450  2156 net.cpp:148] Top shape: 24 38 (912)
I0403 14:55:08.363492  2156 net.cpp:156] Memory required for data: 1208421216
I0403 14:55:08.363524  2156 layer_factory.hpp:77] Creating layer loss2/classifier_plantvillage_loss2/classifier_plantvillage_0_split
I0403 14:55:08.363544  2156 net.cpp:91] Creating Layer loss2/classifier_plantvillage_loss2/classifier_plantvillage_0_split
I0403 14:55:08.363560  2156 net.cpp:425] loss2/classifier_plantvillage_loss2/classifier_plantvillage_0_split <- loss2/classifier_plantvillage
I0403 14:55:08.363579  2156 net.cpp:399] loss2/classifier_plantvillage_loss2/classifier_plantvillage_0_split -> loss2/classifier_plantvillage_loss2/classifier_plantvillage_0_split_0
I0403 14:55:08.363603  2156 net.cpp:399] loss2/classifier_plantvillage_loss2/classifier_plantvillage_0_split -> loss2/classifier_plantvillage_loss2/classifier_plantvillage_0_split_1
I0403 14:55:08.363627  2156 net.cpp:399] loss2/classifier_plantvillage_loss2/classifier_plantvillage_0_split -> loss2/classifier_plantvillage_loss2/classifier_plantvillage_0_split_2
I0403 14:55:08.363705  2156 net.cpp:141] Setting up loss2/classifier_plantvillage_loss2/classifier_plantvillage_0_split
I0403 14:55:08.363729  2156 net.cpp:148] Top shape: 24 38 (912)
I0403 14:55:08.363746  2156 net.cpp:148] Top shape: 24 38 (912)
I0403 14:55:08.363764  2156 net.cpp:148] Top shape: 24 38 (912)
I0403 14:55:08.363778  2156 net.cpp:156] Memory required for data: 1208432160
I0403 14:55:08.363795  2156 layer_factory.hpp:77] Creating layer inception_4e/1x1
I0403 14:55:08.363818  2156 net.cpp:91] Creating Layer inception_4e/1x1
I0403 14:55:08.363837  2156 net.cpp:425] inception_4e/1x1 <- inception_4d/output_inception_4d/output_0_split_1
I0403 14:55:08.363858  2156 net.cpp:399] inception_4e/1x1 -> inception_4e/1x1
I0403 14:55:08.365722  2156 net.cpp:141] Setting up inception_4e/1x1
I0403 14:55:08.365751  2156 net.cpp:148] Top shape: 24 256 14 14 (1204224)
I0403 14:55:08.365767  2156 net.cpp:156] Memory required for data: 1213249056
I0403 14:55:08.365787  2156 layer_factory.hpp:77] Creating layer inception_4e/relu_1x1
I0403 14:55:08.365808  2156 net.cpp:91] Creating Layer inception_4e/relu_1x1
I0403 14:55:08.365824  2156 net.cpp:425] inception_4e/relu_1x1 <- inception_4e/1x1
I0403 14:55:08.365841  2156 net.cpp:386] inception_4e/relu_1x1 -> inception_4e/1x1 (in-place)
I0403 14:55:08.366142  2156 net.cpp:141] Setting up inception_4e/relu_1x1
I0403 14:55:08.366169  2156 net.cpp:148] Top shape: 24 256 14 14 (1204224)
I0403 14:55:08.366184  2156 net.cpp:156] Memory required for data: 1218065952
I0403 14:55:08.366200  2156 layer_factory.hpp:77] Creating layer inception_4e/3x3_reduce
I0403 14:55:08.366230  2156 net.cpp:91] Creating Layer inception_4e/3x3_reduce
I0403 14:55:08.366250  2156 net.cpp:425] inception_4e/3x3_reduce <- inception_4d/output_inception_4d/output_0_split_2
I0403 14:55:08.366269  2156 net.cpp:399] inception_4e/3x3_reduce -> inception_4e/3x3_reduce
I0403 14:55:08.368423  2156 net.cpp:141] Setting up inception_4e/3x3_reduce
I0403 14:55:08.368453  2156 net.cpp:148] Top shape: 24 160 14 14 (752640)
I0403 14:55:08.368469  2156 net.cpp:156] Memory required for data: 1221076512
I0403 14:55:08.368489  2156 layer_factory.hpp:77] Creating layer inception_4e/relu_3x3_reduce
I0403 14:55:08.368523  2156 net.cpp:91] Creating Layer inception_4e/relu_3x3_reduce
I0403 14:55:08.368541  2156 net.cpp:425] inception_4e/relu_3x3_reduce <- inception_4e/3x3_reduce
I0403 14:55:08.368559  2156 net.cpp:386] inception_4e/relu_3x3_reduce -> inception_4e/3x3_reduce (in-place)
I0403 14:55:08.368746  2156 net.cpp:141] Setting up inception_4e/relu_3x3_reduce
I0403 14:55:08.368773  2156 net.cpp:148] Top shape: 24 160 14 14 (752640)
I0403 14:55:08.368790  2156 net.cpp:156] Memory required for data: 1224087072
I0403 14:55:08.368805  2156 layer_factory.hpp:77] Creating layer inception_4e/3x3
I0403 14:55:08.368829  2156 net.cpp:91] Creating Layer inception_4e/3x3
I0403 14:55:08.368847  2156 net.cpp:425] inception_4e/3x3 <- inception_4e/3x3_reduce
I0403 14:55:08.368866  2156 net.cpp:399] inception_4e/3x3 -> inception_4e/3x3
I0403 14:55:08.373956  2156 net.cpp:141] Setting up inception_4e/3x3
I0403 14:55:08.373999  2156 net.cpp:148] Top shape: 24 320 14 14 (1505280)
I0403 14:55:08.374017  2156 net.cpp:156] Memory required for data: 1230108192
I0403 14:55:08.374037  2156 layer_factory.hpp:77] Creating layer inception_4e/relu_3x3
I0403 14:55:08.374058  2156 net.cpp:91] Creating Layer inception_4e/relu_3x3
I0403 14:55:08.374075  2156 net.cpp:425] inception_4e/relu_3x3 <- inception_4e/3x3
I0403 14:55:08.374095  2156 net.cpp:386] inception_4e/relu_3x3 -> inception_4e/3x3 (in-place)
I0403 14:55:08.374402  2156 net.cpp:141] Setting up inception_4e/relu_3x3
I0403 14:55:08.374428  2156 net.cpp:148] Top shape: 24 320 14 14 (1505280)
I0403 14:55:08.374444  2156 net.cpp:156] Memory required for data: 1236129312
I0403 14:55:08.374459  2156 layer_factory.hpp:77] Creating layer inception_4e/5x5_reduce
I0403 14:55:08.374483  2156 net.cpp:91] Creating Layer inception_4e/5x5_reduce
I0403 14:55:08.374502  2156 net.cpp:425] inception_4e/5x5_reduce <- inception_4d/output_inception_4d/output_0_split_3
I0403 14:55:08.374526  2156 net.cpp:399] inception_4e/5x5_reduce -> inception_4e/5x5_reduce
I0403 14:55:08.375648  2156 net.cpp:141] Setting up inception_4e/5x5_reduce
I0403 14:55:08.375676  2156 net.cpp:148] Top shape: 24 32 14 14 (150528)
I0403 14:55:08.375694  2156 net.cpp:156] Memory required for data: 1236731424
I0403 14:55:08.375713  2156 layer_factory.hpp:77] Creating layer inception_4e/relu_5x5_reduce
I0403 14:55:08.375735  2156 net.cpp:91] Creating Layer inception_4e/relu_5x5_reduce
I0403 14:55:08.375753  2156 net.cpp:425] inception_4e/relu_5x5_reduce <- inception_4e/5x5_reduce
I0403 14:55:08.375771  2156 net.cpp:386] inception_4e/relu_5x5_reduce -> inception_4e/5x5_reduce (in-place)
I0403 14:55:08.376083  2156 net.cpp:141] Setting up inception_4e/relu_5x5_reduce
I0403 14:55:08.376111  2156 net.cpp:148] Top shape: 24 32 14 14 (150528)
I0403 14:55:08.376127  2156 net.cpp:156] Memory required for data: 1237333536
I0403 14:55:08.376142  2156 layer_factory.hpp:77] Creating layer inception_4e/5x5
I0403 14:55:08.376183  2156 net.cpp:91] Creating Layer inception_4e/5x5
I0403 14:55:08.376204  2156 net.cpp:425] inception_4e/5x5 <- inception_4e/5x5_reduce
I0403 14:55:08.376230  2156 net.cpp:399] inception_4e/5x5 -> inception_4e/5x5
I0403 14:55:08.378146  2156 net.cpp:141] Setting up inception_4e/5x5
I0403 14:55:08.378175  2156 net.cpp:148] Top shape: 24 128 14 14 (602112)
I0403 14:55:08.378192  2156 net.cpp:156] Memory required for data: 1239741984
I0403 14:55:08.378229  2156 layer_factory.hpp:77] Creating layer inception_4e/relu_5x5
I0403 14:55:08.378255  2156 net.cpp:91] Creating Layer inception_4e/relu_5x5
I0403 14:55:08.378274  2156 net.cpp:425] inception_4e/relu_5x5 <- inception_4e/5x5
I0403 14:55:08.378293  2156 net.cpp:386] inception_4e/relu_5x5 -> inception_4e/5x5 (in-place)
I0403 14:55:08.378517  2156 net.cpp:141] Setting up inception_4e/relu_5x5
I0403 14:55:08.378545  2156 net.cpp:148] Top shape: 24 128 14 14 (602112)
I0403 14:55:08.378562  2156 net.cpp:156] Memory required for data: 1242150432
I0403 14:55:08.378579  2156 layer_factory.hpp:77] Creating layer inception_4e/pool
I0403 14:55:08.378599  2156 net.cpp:91] Creating Layer inception_4e/pool
I0403 14:55:08.378617  2156 net.cpp:425] inception_4e/pool <- inception_4d/output_inception_4d/output_0_split_4
I0403 14:55:08.378635  2156 net.cpp:399] inception_4e/pool -> inception_4e/pool
I0403 14:55:08.378711  2156 net.cpp:141] Setting up inception_4e/pool
I0403 14:55:08.378736  2156 net.cpp:148] Top shape: 24 528 14 14 (2483712)
I0403 14:55:08.378751  2156 net.cpp:156] Memory required for data: 1252085280
I0403 14:55:08.378767  2156 layer_factory.hpp:77] Creating layer inception_4e/pool_proj
I0403 14:55:08.378792  2156 net.cpp:91] Creating Layer inception_4e/pool_proj
I0403 14:55:08.378809  2156 net.cpp:425] inception_4e/pool_proj <- inception_4e/pool
I0403 14:55:08.378831  2156 net.cpp:399] inception_4e/pool_proj -> inception_4e/pool_proj
I0403 14:55:08.380420  2156 net.cpp:141] Setting up inception_4e/pool_proj
I0403 14:55:08.380462  2156 net.cpp:148] Top shape: 24 128 14 14 (602112)
I0403 14:55:08.380481  2156 net.cpp:156] Memory required for data: 1254493728
I0403 14:55:08.380501  2156 layer_factory.hpp:77] Creating layer inception_4e/relu_pool_proj
I0403 14:55:08.380532  2156 net.cpp:91] Creating Layer inception_4e/relu_pool_proj
I0403 14:55:08.380549  2156 net.cpp:425] inception_4e/relu_pool_proj <- inception_4e/pool_proj
I0403 14:55:08.380570  2156 net.cpp:386] inception_4e/relu_pool_proj -> inception_4e/pool_proj (in-place)
I0403 14:55:08.380875  2156 net.cpp:141] Setting up inception_4e/relu_pool_proj
I0403 14:55:08.380903  2156 net.cpp:148] Top shape: 24 128 14 14 (602112)
I0403 14:55:08.380919  2156 net.cpp:156] Memory required for data: 1256902176
I0403 14:55:08.380935  2156 layer_factory.hpp:77] Creating layer inception_4e/output
I0403 14:55:08.380954  2156 net.cpp:91] Creating Layer inception_4e/output
I0403 14:55:08.380971  2156 net.cpp:425] inception_4e/output <- inception_4e/1x1
I0403 14:55:08.380990  2156 net.cpp:425] inception_4e/output <- inception_4e/3x3
I0403 14:55:08.381007  2156 net.cpp:425] inception_4e/output <- inception_4e/5x5
I0403 14:55:08.381024  2156 net.cpp:425] inception_4e/output <- inception_4e/pool_proj
I0403 14:55:08.381044  2156 net.cpp:399] inception_4e/output -> inception_4e/output
I0403 14:55:08.381098  2156 net.cpp:141] Setting up inception_4e/output
I0403 14:55:08.381124  2156 net.cpp:148] Top shape: 24 832 14 14 (3913728)
I0403 14:55:08.381141  2156 net.cpp:156] Memory required for data: 1272557088
I0403 14:55:08.381156  2156 layer_factory.hpp:77] Creating layer pool4/3x3_s2
I0403 14:55:08.381175  2156 net.cpp:91] Creating Layer pool4/3x3_s2
I0403 14:55:08.381192  2156 net.cpp:425] pool4/3x3_s2 <- inception_4e/output
I0403 14:55:08.381218  2156 net.cpp:399] pool4/3x3_s2 -> pool4/3x3_s2
I0403 14:55:08.381291  2156 net.cpp:141] Setting up pool4/3x3_s2
I0403 14:55:08.381317  2156 net.cpp:148] Top shape: 24 832 7 7 (978432)
I0403 14:55:08.381332  2156 net.cpp:156] Memory required for data: 1276470816
I0403 14:55:08.381348  2156 layer_factory.hpp:77] Creating layer pool4/3x3_s2_pool4/3x3_s2_0_split
I0403 14:55:08.381369  2156 net.cpp:91] Creating Layer pool4/3x3_s2_pool4/3x3_s2_0_split
I0403 14:55:08.381387  2156 net.cpp:425] pool4/3x3_s2_pool4/3x3_s2_0_split <- pool4/3x3_s2
I0403 14:55:08.381407  2156 net.cpp:399] pool4/3x3_s2_pool4/3x3_s2_0_split -> pool4/3x3_s2_pool4/3x3_s2_0_split_0
I0403 14:55:08.381428  2156 net.cpp:399] pool4/3x3_s2_pool4/3x3_s2_0_split -> pool4/3x3_s2_pool4/3x3_s2_0_split_1
I0403 14:55:08.381451  2156 net.cpp:399] pool4/3x3_s2_pool4/3x3_s2_0_split -> pool4/3x3_s2_pool4/3x3_s2_0_split_2
I0403 14:55:08.381474  2156 net.cpp:399] pool4/3x3_s2_pool4/3x3_s2_0_split -> pool4/3x3_s2_pool4/3x3_s2_0_split_3
I0403 14:55:08.381569  2156 net.cpp:141] Setting up pool4/3x3_s2_pool4/3x3_s2_0_split
I0403 14:55:08.381593  2156 net.cpp:148] Top shape: 24 832 7 7 (978432)
I0403 14:55:08.381611  2156 net.cpp:148] Top shape: 24 832 7 7 (978432)
I0403 14:55:08.381628  2156 net.cpp:148] Top shape: 24 832 7 7 (978432)
I0403 14:55:08.381646  2156 net.cpp:148] Top shape: 24 832 7 7 (978432)
I0403 14:55:08.381660  2156 net.cpp:156] Memory required for data: 1292125728
I0403 14:55:08.381676  2156 layer_factory.hpp:77] Creating layer inception_5a/1x1
I0403 14:55:08.381700  2156 net.cpp:91] Creating Layer inception_5a/1x1
I0403 14:55:08.381719  2156 net.cpp:425] inception_5a/1x1 <- pool4/3x3_s2_pool4/3x3_s2_0_split_0
I0403 14:55:08.381742  2156 net.cpp:399] inception_5a/1x1 -> inception_5a/1x1
I0403 14:55:08.384784  2156 net.cpp:141] Setting up inception_5a/1x1
I0403 14:55:08.384814  2156 net.cpp:148] Top shape: 24 256 7 7 (301056)
I0403 14:55:08.384831  2156 net.cpp:156] Memory required for data: 1293329952
I0403 14:55:08.384852  2156 layer_factory.hpp:77] Creating layer inception_5a/relu_1x1
I0403 14:55:08.384874  2156 net.cpp:91] Creating Layer inception_5a/relu_1x1
I0403 14:55:08.384892  2156 net.cpp:425] inception_5a/relu_1x1 <- inception_5a/1x1
I0403 14:55:08.384912  2156 net.cpp:386] inception_5a/relu_1x1 -> inception_5a/1x1 (in-place)
I0403 14:55:08.385253  2156 net.cpp:141] Setting up inception_5a/relu_1x1
I0403 14:55:08.385282  2156 net.cpp:148] Top shape: 24 256 7 7 (301056)
I0403 14:55:08.385298  2156 net.cpp:156] Memory required for data: 1294534176
I0403 14:55:08.385315  2156 layer_factory.hpp:77] Creating layer inception_5a/3x3_reduce
I0403 14:55:08.385340  2156 net.cpp:91] Creating Layer inception_5a/3x3_reduce
I0403 14:55:08.385360  2156 net.cpp:425] inception_5a/3x3_reduce <- pool4/3x3_s2_pool4/3x3_s2_0_split_1
I0403 14:55:08.385383  2156 net.cpp:399] inception_5a/3x3_reduce -> inception_5a/3x3_reduce
I0403 14:55:08.387946  2156 net.cpp:141] Setting up inception_5a/3x3_reduce
I0403 14:55:08.387976  2156 net.cpp:148] Top shape: 24 160 7 7 (188160)
I0403 14:55:08.387992  2156 net.cpp:156] Memory required for data: 1295286816
I0403 14:55:08.388012  2156 layer_factory.hpp:77] Creating layer inception_5a/relu_3x3_reduce
I0403 14:55:08.388031  2156 net.cpp:91] Creating Layer inception_5a/relu_3x3_reduce
I0403 14:55:08.388049  2156 net.cpp:425] inception_5a/relu_3x3_reduce <- inception_5a/3x3_reduce
I0403 14:55:08.388070  2156 net.cpp:386] inception_5a/relu_3x3_reduce -> inception_5a/3x3_reduce (in-place)
I0403 14:55:08.388286  2156 net.cpp:141] Setting up inception_5a/relu_3x3_reduce
I0403 14:55:08.388314  2156 net.cpp:148] Top shape: 24 160 7 7 (188160)
I0403 14:55:08.388329  2156 net.cpp:156] Memory required for data: 1296039456
I0403 14:55:08.388346  2156 layer_factory.hpp:77] Creating layer inception_5a/3x3
I0403 14:55:08.388373  2156 net.cpp:91] Creating Layer inception_5a/3x3
I0403 14:55:08.388392  2156 net.cpp:425] inception_5a/3x3 <- inception_5a/3x3_reduce
I0403 14:55:08.388417  2156 net.cpp:399] inception_5a/3x3 -> inception_5a/3x3
I0403 14:55:08.393702  2156 net.cpp:141] Setting up inception_5a/3x3
I0403 14:55:08.393733  2156 net.cpp:148] Top shape: 24 320 7 7 (376320)
I0403 14:55:08.393750  2156 net.cpp:156] Memory required for data: 1297544736
I0403 14:55:08.393770  2156 layer_factory.hpp:77] Creating layer inception_5a/relu_3x3
I0403 14:55:08.393792  2156 net.cpp:91] Creating Layer inception_5a/relu_3x3
I0403 14:55:08.393810  2156 net.cpp:425] inception_5a/relu_3x3 <- inception_5a/3x3
I0403 14:55:08.393829  2156 net.cpp:386] inception_5a/relu_3x3 -> inception_5a/3x3 (in-place)
I0403 14:55:08.394155  2156 net.cpp:141] Setting up inception_5a/relu_3x3
I0403 14:55:08.394181  2156 net.cpp:148] Top shape: 24 320 7 7 (376320)
I0403 14:55:08.394197  2156 net.cpp:156] Memory required for data: 1299050016
I0403 14:55:08.394217  2156 layer_factory.hpp:77] Creating layer inception_5a/5x5_reduce
I0403 14:55:08.394243  2156 net.cpp:91] Creating Layer inception_5a/5x5_reduce
I0403 14:55:08.394263  2156 net.cpp:425] inception_5a/5x5_reduce <- pool4/3x3_s2_pool4/3x3_s2_0_split_2
I0403 14:55:08.394286  2156 net.cpp:399] inception_5a/5x5_reduce -> inception_5a/5x5_reduce
I0403 14:55:08.395476  2156 net.cpp:141] Setting up inception_5a/5x5_reduce
I0403 14:55:08.395508  2156 net.cpp:148] Top shape: 24 32 7 7 (37632)
I0403 14:55:08.395525  2156 net.cpp:156] Memory required for data: 1299200544
I0403 14:55:08.395545  2156 layer_factory.hpp:77] Creating layer inception_5a/relu_5x5_reduce
I0403 14:55:08.395563  2156 net.cpp:91] Creating Layer inception_5a/relu_5x5_reduce
I0403 14:55:08.395579  2156 net.cpp:425] inception_5a/relu_5x5_reduce <- inception_5a/5x5_reduce
I0403 14:55:08.395597  2156 net.cpp:386] inception_5a/relu_5x5_reduce -> inception_5a/5x5_reduce (in-place)
I0403 14:55:08.395900  2156 net.cpp:141] Setting up inception_5a/relu_5x5_reduce
I0403 14:55:08.395927  2156 net.cpp:148] Top shape: 24 32 7 7 (37632)
I0403 14:55:08.395944  2156 net.cpp:156] Memory required for data: 1299351072
I0403 14:55:08.395961  2156 layer_factory.hpp:77] Creating layer inception_5a/5x5
I0403 14:55:08.395980  2156 net.cpp:91] Creating Layer inception_5a/5x5
I0403 14:55:08.395998  2156 net.cpp:425] inception_5a/5x5 <- inception_5a/5x5_reduce
I0403 14:55:08.396019  2156 net.cpp:399] inception_5a/5x5 -> inception_5a/5x5
I0403 14:55:08.397828  2156 net.cpp:141] Setting up inception_5a/5x5
I0403 14:55:08.397868  2156 net.cpp:148] Top shape: 24 128 7 7 (150528)
I0403 14:55:08.397886  2156 net.cpp:156] Memory required for data: 1299953184
I0403 14:55:08.397904  2156 layer_factory.hpp:77] Creating layer inception_5a/relu_5x5
I0403 14:55:08.397925  2156 net.cpp:91] Creating Layer inception_5a/relu_5x5
I0403 14:55:08.397943  2156 net.cpp:425] inception_5a/relu_5x5 <- inception_5a/5x5
I0403 14:55:08.397961  2156 net.cpp:386] inception_5a/relu_5x5 -> inception_5a/5x5 (in-place)
I0403 14:55:08.398155  2156 net.cpp:141] Setting up inception_5a/relu_5x5
I0403 14:55:08.398183  2156 net.cpp:148] Top shape: 24 128 7 7 (150528)
I0403 14:55:08.398200  2156 net.cpp:156] Memory required for data: 1300555296
I0403 14:55:08.398232  2156 layer_factory.hpp:77] Creating layer inception_5a/pool
I0403 14:55:08.398254  2156 net.cpp:91] Creating Layer inception_5a/pool
I0403 14:55:08.398272  2156 net.cpp:425] inception_5a/pool <- pool4/3x3_s2_pool4/3x3_s2_0_split_3
I0403 14:55:08.398291  2156 net.cpp:399] inception_5a/pool -> inception_5a/pool
I0403 14:55:08.398370  2156 net.cpp:141] Setting up inception_5a/pool
I0403 14:55:08.398394  2156 net.cpp:148] Top shape: 24 832 7 7 (978432)
I0403 14:55:08.398411  2156 net.cpp:156] Memory required for data: 1304469024
I0403 14:55:08.398425  2156 layer_factory.hpp:77] Creating layer inception_5a/pool_proj
I0403 14:55:08.398448  2156 net.cpp:91] Creating Layer inception_5a/pool_proj
I0403 14:55:08.398468  2156 net.cpp:425] inception_5a/pool_proj <- inception_5a/pool
I0403 14:55:08.398489  2156 net.cpp:399] inception_5a/pool_proj -> inception_5a/pool_proj
I0403 14:55:08.400832  2156 net.cpp:141] Setting up inception_5a/pool_proj
I0403 14:55:08.400861  2156 net.cpp:148] Top shape: 24 128 7 7 (150528)
I0403 14:55:08.400877  2156 net.cpp:156] Memory required for data: 1305071136
I0403 14:55:08.400897  2156 layer_factory.hpp:77] Creating layer inception_5a/relu_pool_proj
I0403 14:55:08.400918  2156 net.cpp:91] Creating Layer inception_5a/relu_pool_proj
I0403 14:55:08.400936  2156 net.cpp:425] inception_5a/relu_pool_proj <- inception_5a/pool_proj
I0403 14:55:08.400954  2156 net.cpp:386] inception_5a/relu_pool_proj -> inception_5a/pool_proj (in-place)
I0403 14:55:08.401255  2156 net.cpp:141] Setting up inception_5a/relu_pool_proj
I0403 14:55:08.401281  2156 net.cpp:148] Top shape: 24 128 7 7 (150528)
I0403 14:55:08.401298  2156 net.cpp:156] Memory required for data: 1305673248
I0403 14:55:08.401312  2156 layer_factory.hpp:77] Creating layer inception_5a/output
I0403 14:55:08.401330  2156 net.cpp:91] Creating Layer inception_5a/output
I0403 14:55:08.401347  2156 net.cpp:425] inception_5a/output <- inception_5a/1x1
I0403 14:55:08.401365  2156 net.cpp:425] inception_5a/output <- inception_5a/3x3
I0403 14:55:08.401381  2156 net.cpp:425] inception_5a/output <- inception_5a/5x5
I0403 14:55:08.401398  2156 net.cpp:425] inception_5a/output <- inception_5a/pool_proj
I0403 14:55:08.401418  2156 net.cpp:399] inception_5a/output -> inception_5a/output
I0403 14:55:08.401470  2156 net.cpp:141] Setting up inception_5a/output
I0403 14:55:08.401496  2156 net.cpp:148] Top shape: 24 832 7 7 (978432)
I0403 14:55:08.401512  2156 net.cpp:156] Memory required for data: 1309586976
I0403 14:55:08.401528  2156 layer_factory.hpp:77] Creating layer inception_5a/output_inception_5a/output_0_split
I0403 14:55:08.401546  2156 net.cpp:91] Creating Layer inception_5a/output_inception_5a/output_0_split
I0403 14:55:08.401562  2156 net.cpp:425] inception_5a/output_inception_5a/output_0_split <- inception_5a/output
I0403 14:55:08.401584  2156 net.cpp:399] inception_5a/output_inception_5a/output_0_split -> inception_5a/output_inception_5a/output_0_split_0
I0403 14:55:08.401607  2156 net.cpp:399] inception_5a/output_inception_5a/output_0_split -> inception_5a/output_inception_5a/output_0_split_1
I0403 14:55:08.401628  2156 net.cpp:399] inception_5a/output_inception_5a/output_0_split -> inception_5a/output_inception_5a/output_0_split_2
I0403 14:55:08.401649  2156 net.cpp:399] inception_5a/output_inception_5a/output_0_split -> inception_5a/output_inception_5a/output_0_split_3
I0403 14:55:08.401762  2156 net.cpp:141] Setting up inception_5a/output_inception_5a/output_0_split
I0403 14:55:08.401785  2156 net.cpp:148] Top shape: 24 832 7 7 (978432)
I0403 14:55:08.401805  2156 net.cpp:148] Top shape: 24 832 7 7 (978432)
I0403 14:55:08.401823  2156 net.cpp:148] Top shape: 24 832 7 7 (978432)
I0403 14:55:08.401839  2156 net.cpp:148] Top shape: 24 832 7 7 (978432)
I0403 14:55:08.401854  2156 net.cpp:156] Memory required for data: 1325241888
I0403 14:55:08.401868  2156 layer_factory.hpp:77] Creating layer inception_5b/1x1
I0403 14:55:08.401888  2156 net.cpp:91] Creating Layer inception_5b/1x1
I0403 14:55:08.401906  2156 net.cpp:425] inception_5b/1x1 <- inception_5a/output_inception_5a/output_0_split_0
I0403 14:55:08.401928  2156 net.cpp:399] inception_5b/1x1 -> inception_5b/1x1
I0403 14:55:08.405784  2156 net.cpp:141] Setting up inception_5b/1x1
I0403 14:55:08.405813  2156 net.cpp:148] Top shape: 24 384 7 7 (451584)
I0403 14:55:08.405830  2156 net.cpp:156] Memory required for data: 1327048224
I0403 14:55:08.405849  2156 layer_factory.hpp:77] Creating layer inception_5b/relu_1x1
I0403 14:55:08.405869  2156 net.cpp:91] Creating Layer inception_5b/relu_1x1
I0403 14:55:08.405884  2156 net.cpp:425] inception_5b/relu_1x1 <- inception_5b/1x1
I0403 14:55:08.405905  2156 net.cpp:386] inception_5b/relu_1x1 -> inception_5b/1x1 (in-place)
I0403 14:55:08.406222  2156 net.cpp:141] Setting up inception_5b/relu_1x1
I0403 14:55:08.406249  2156 net.cpp:148] Top shape: 24 384 7 7 (451584)
I0403 14:55:08.406265  2156 net.cpp:156] Memory required for data: 1328854560
I0403 14:55:08.406280  2156 layer_factory.hpp:77] Creating layer inception_5b/3x3_reduce
I0403 14:55:08.406303  2156 net.cpp:91] Creating Layer inception_5b/3x3_reduce
I0403 14:55:08.406322  2156 net.cpp:425] inception_5b/3x3_reduce <- inception_5a/output_inception_5a/output_0_split_1
I0403 14:55:08.406344  2156 net.cpp:399] inception_5b/3x3_reduce -> inception_5b/3x3_reduce
I0403 14:55:08.409046  2156 net.cpp:141] Setting up inception_5b/3x3_reduce
I0403 14:55:08.409076  2156 net.cpp:148] Top shape: 24 192 7 7 (225792)
I0403 14:55:08.409093  2156 net.cpp:156] Memory required for data: 1329757728
I0403 14:55:08.409112  2156 layer_factory.hpp:77] Creating layer inception_5b/relu_3x3_reduce
I0403 14:55:08.409133  2156 net.cpp:91] Creating Layer inception_5b/relu_3x3_reduce
I0403 14:55:08.409152  2156 net.cpp:425] inception_5b/relu_3x3_reduce <- inception_5b/3x3_reduce
I0403 14:55:08.409169  2156 net.cpp:386] inception_5b/relu_3x3_reduce -> inception_5b/3x3_reduce (in-place)
I0403 14:55:08.409384  2156 net.cpp:141] Setting up inception_5b/relu_3x3_reduce
I0403 14:55:08.409410  2156 net.cpp:148] Top shape: 24 192 7 7 (225792)
I0403 14:55:08.409426  2156 net.cpp:156] Memory required for data: 1330660896
I0403 14:55:08.409442  2156 layer_factory.hpp:77] Creating layer inception_5b/3x3
I0403 14:55:08.409466  2156 net.cpp:91] Creating Layer inception_5b/3x3
I0403 14:55:08.409485  2156 net.cpp:425] inception_5b/3x3 <- inception_5b/3x3_reduce
I0403 14:55:08.409521  2156 net.cpp:399] inception_5b/3x3 -> inception_5b/3x3
I0403 14:55:08.416314  2156 net.cpp:141] Setting up inception_5b/3x3
I0403 14:55:08.416344  2156 net.cpp:148] Top shape: 24 384 7 7 (451584)
I0403 14:55:08.416360  2156 net.cpp:156] Memory required for data: 1332467232
I0403 14:55:08.416380  2156 layer_factory.hpp:77] Creating layer inception_5b/relu_3x3
I0403 14:55:08.416401  2156 net.cpp:91] Creating Layer inception_5b/relu_3x3
I0403 14:55:08.416419  2156 net.cpp:425] inception_5b/relu_3x3 <- inception_5b/3x3
I0403 14:55:08.416437  2156 net.cpp:386] inception_5b/relu_3x3 -> inception_5b/3x3 (in-place)
I0403 14:55:08.416738  2156 net.cpp:141] Setting up inception_5b/relu_3x3
I0403 14:55:08.416765  2156 net.cpp:148] Top shape: 24 384 7 7 (451584)
I0403 14:55:08.416780  2156 net.cpp:156] Memory required for data: 1334273568
I0403 14:55:08.416796  2156 layer_factory.hpp:77] Creating layer inception_5b/5x5_reduce
I0403 14:55:08.416836  2156 net.cpp:91] Creating Layer inception_5b/5x5_reduce
I0403 14:55:08.416857  2156 net.cpp:425] inception_5b/5x5_reduce <- inception_5a/output_inception_5a/output_0_split_2
I0403 14:55:08.416879  2156 net.cpp:399] inception_5b/5x5_reduce -> inception_5b/5x5_reduce
I0403 14:55:08.418205  2156 net.cpp:141] Setting up inception_5b/5x5_reduce
I0403 14:55:08.418236  2156 net.cpp:148] Top shape: 24 48 7 7 (56448)
I0403 14:55:08.418252  2156 net.cpp:156] Memory required for data: 1334499360
I0403 14:55:08.418272  2156 layer_factory.hpp:77] Creating layer inception_5b/relu_5x5_reduce
I0403 14:55:08.418290  2156 net.cpp:91] Creating Layer inception_5b/relu_5x5_reduce
I0403 14:55:08.418308  2156 net.cpp:425] inception_5b/relu_5x5_reduce <- inception_5b/5x5_reduce
I0403 14:55:08.418328  2156 net.cpp:386] inception_5b/relu_5x5_reduce -> inception_5b/5x5_reduce (in-place)
I0403 14:55:08.418704  2156 net.cpp:141] Setting up inception_5b/relu_5x5_reduce
I0403 14:55:08.418731  2156 net.cpp:148] Top shape: 24 48 7 7 (56448)
I0403 14:55:08.418747  2156 net.cpp:156] Memory required for data: 1334725152
I0403 14:55:08.418763  2156 layer_factory.hpp:77] Creating layer inception_5b/5x5
I0403 14:55:08.418784  2156 net.cpp:91] Creating Layer inception_5b/5x5
I0403 14:55:08.418802  2156 net.cpp:425] inception_5b/5x5 <- inception_5b/5x5_reduce
I0403 14:55:08.418822  2156 net.cpp:399] inception_5b/5x5 -> inception_5b/5x5
I0403 14:55:08.420956  2156 net.cpp:141] Setting up inception_5b/5x5
I0403 14:55:08.420984  2156 net.cpp:148] Top shape: 24 128 7 7 (150528)
I0403 14:55:08.421000  2156 net.cpp:156] Memory required for data: 1335327264
I0403 14:55:08.421020  2156 layer_factory.hpp:77] Creating layer inception_5b/relu_5x5
I0403 14:55:08.421041  2156 net.cpp:91] Creating Layer inception_5b/relu_5x5
I0403 14:55:08.421058  2156 net.cpp:425] inception_5b/relu_5x5 <- inception_5b/5x5
I0403 14:55:08.421077  2156 net.cpp:386] inception_5b/relu_5x5 -> inception_5b/5x5 (in-place)
I0403 14:55:08.421279  2156 net.cpp:141] Setting up inception_5b/relu_5x5
I0403 14:55:08.421306  2156 net.cpp:148] Top shape: 24 128 7 7 (150528)
I0403 14:55:08.421324  2156 net.cpp:156] Memory required for data: 1335929376
I0403 14:55:08.421339  2156 layer_factory.hpp:77] Creating layer inception_5b/pool
I0403 14:55:08.421357  2156 net.cpp:91] Creating Layer inception_5b/pool
I0403 14:55:08.421375  2156 net.cpp:425] inception_5b/pool <- inception_5a/output_inception_5a/output_0_split_3
I0403 14:55:08.421396  2156 net.cpp:399] inception_5b/pool -> inception_5b/pool
I0403 14:55:08.421471  2156 net.cpp:141] Setting up inception_5b/pool
I0403 14:55:08.421496  2156 net.cpp:148] Top shape: 24 832 7 7 (978432)
I0403 14:55:08.421511  2156 net.cpp:156] Memory required for data: 1339843104
I0403 14:55:08.421527  2156 layer_factory.hpp:77] Creating layer inception_5b/pool_proj
I0403 14:55:08.421550  2156 net.cpp:91] Creating Layer inception_5b/pool_proj
I0403 14:55:08.421568  2156 net.cpp:425] inception_5b/pool_proj <- inception_5b/pool
I0403 14:55:08.421591  2156 net.cpp:399] inception_5b/pool_proj -> inception_5b/pool_proj
I0403 14:55:08.423945  2156 net.cpp:141] Setting up inception_5b/pool_proj
I0403 14:55:08.423974  2156 net.cpp:148] Top shape: 24 128 7 7 (150528)
I0403 14:55:08.423990  2156 net.cpp:156] Memory required for data: 1340445216
I0403 14:55:08.424010  2156 layer_factory.hpp:77] Creating layer inception_5b/relu_pool_proj
I0403 14:55:08.424031  2156 net.cpp:91] Creating Layer inception_5b/relu_pool_proj
I0403 14:55:08.424048  2156 net.cpp:425] inception_5b/relu_pool_proj <- inception_5b/pool_proj
I0403 14:55:08.424067  2156 net.cpp:386] inception_5b/relu_pool_proj -> inception_5b/pool_proj (in-place)
I0403 14:55:08.424387  2156 net.cpp:141] Setting up inception_5b/relu_pool_proj
I0403 14:55:08.424414  2156 net.cpp:148] Top shape: 24 128 7 7 (150528)
I0403 14:55:08.424430  2156 net.cpp:156] Memory required for data: 1341047328
I0403 14:55:08.424446  2156 layer_factory.hpp:77] Creating layer inception_5b/output
I0403 14:55:08.424465  2156 net.cpp:91] Creating Layer inception_5b/output
I0403 14:55:08.424499  2156 net.cpp:425] inception_5b/output <- inception_5b/1x1
I0403 14:55:08.424528  2156 net.cpp:425] inception_5b/output <- inception_5b/3x3
I0403 14:55:08.424546  2156 net.cpp:425] inception_5b/output <- inception_5b/5x5
I0403 14:55:08.424562  2156 net.cpp:425] inception_5b/output <- inception_5b/pool_proj
I0403 14:55:08.424584  2156 net.cpp:399] inception_5b/output -> inception_5b/output
I0403 14:55:08.424640  2156 net.cpp:141] Setting up inception_5b/output
I0403 14:55:08.424665  2156 net.cpp:148] Top shape: 24 1024 7 7 (1204224)
I0403 14:55:08.424680  2156 net.cpp:156] Memory required for data: 1345864224
I0403 14:55:08.424696  2156 layer_factory.hpp:77] Creating layer pool5/7x7_s1
I0403 14:55:08.424715  2156 net.cpp:91] Creating Layer pool5/7x7_s1
I0403 14:55:08.424731  2156 net.cpp:425] pool5/7x7_s1 <- inception_5b/output
I0403 14:55:08.424752  2156 net.cpp:399] pool5/7x7_s1 -> pool5/7x7_s1
I0403 14:55:08.424973  2156 net.cpp:141] Setting up pool5/7x7_s1
I0403 14:55:08.424999  2156 net.cpp:148] Top shape: 24 1024 1 1 (24576)
I0403 14:55:08.425015  2156 net.cpp:156] Memory required for data: 1345962528
I0403 14:55:08.425030  2156 layer_factory.hpp:77] Creating layer pool5/drop_7x7_s1
I0403 14:55:08.425053  2156 net.cpp:91] Creating Layer pool5/drop_7x7_s1
I0403 14:55:08.425071  2156 net.cpp:425] pool5/drop_7x7_s1 <- pool5/7x7_s1
I0403 14:55:08.425089  2156 net.cpp:386] pool5/drop_7x7_s1 -> pool5/7x7_s1 (in-place)
I0403 14:55:08.425143  2156 net.cpp:141] Setting up pool5/drop_7x7_s1
I0403 14:55:08.425166  2156 net.cpp:148] Top shape: 24 1024 1 1 (24576)
I0403 14:55:08.425181  2156 net.cpp:156] Memory required for data: 1346060832
I0403 14:55:08.425196  2156 layer_factory.hpp:77] Creating layer loss3/classifier_plantvillage
I0403 14:55:08.425221  2156 net.cpp:91] Creating Layer loss3/classifier_plantvillage
I0403 14:55:08.425240  2156 net.cpp:425] loss3/classifier_plantvillage <- pool5/7x7_s1
I0403 14:55:08.425261  2156 net.cpp:399] loss3/classifier_plantvillage -> loss3/classifier_plantvillage
I0403 14:55:08.425696  2156 net.cpp:141] Setting up loss3/classifier_plantvillage
I0403 14:55:08.425721  2156 net.cpp:148] Top shape: 24 38 (912)
I0403 14:55:08.425737  2156 net.cpp:156] Memory required for data: 1346064480
I0403 14:55:08.425757  2156 layer_factory.hpp:77] Creating layer loss3/classifier_plantvillage_loss3/classifier_plantvillage_0_split
I0403 14:55:08.425776  2156 net.cpp:91] Creating Layer loss3/classifier_plantvillage_loss3/classifier_plantvillage_0_split
I0403 14:55:08.425791  2156 net.cpp:425] loss3/classifier_plantvillage_loss3/classifier_plantvillage_0_split <- loss3/classifier_plantvillage
I0403 14:55:08.425812  2156 net.cpp:399] loss3/classifier_plantvillage_loss3/classifier_plantvillage_0_split -> loss3/classifier_plantvillage_loss3/classifier_plantvillage_0_split_0
I0403 14:55:08.425834  2156 net.cpp:399] loss3/classifier_plantvillage_loss3/classifier_plantvillage_0_split -> loss3/classifier_plantvillage_loss3/classifier_plantvillage_0_split_1
I0403 14:55:08.425855  2156 net.cpp:399] loss3/classifier_plantvillage_loss3/classifier_plantvillage_0_split -> loss3/classifier_plantvillage_loss3/classifier_plantvillage_0_split_2
I0403 14:55:08.425876  2156 net.cpp:399] loss3/classifier_plantvillage_loss3/classifier_plantvillage_0_split -> loss3/classifier_plantvillage_loss3/classifier_plantvillage_0_split_3
I0403 14:55:08.425981  2156 net.cpp:141] Setting up loss3/classifier_plantvillage_loss3/classifier_plantvillage_0_split
I0403 14:55:08.426004  2156 net.cpp:148] Top shape: 24 38 (912)
I0403 14:55:08.426022  2156 net.cpp:148] Top shape: 24 38 (912)
I0403 14:55:08.426038  2156 net.cpp:148] Top shape: 24 38 (912)
I0403 14:55:08.426055  2156 net.cpp:148] Top shape: 24 38 (912)
I0403 14:55:08.426070  2156 net.cpp:156] Memory required for data: 1346079072
I0403 14:55:08.426085  2156 layer_factory.hpp:77] Creating layer loss1/loss
I0403 14:55:08.426108  2156 net.cpp:91] Creating Layer loss1/loss
I0403 14:55:08.426127  2156 net.cpp:425] loss1/loss <- loss1/classifier_plantvillage_loss1/classifier_plantvillage_0_split_0
I0403 14:55:08.426159  2156 net.cpp:425] loss1/loss <- label_data_1_split_0
…
