…
I0403 14:18:58.292486  1121 net.cpp:313] The NetState phase (1) differed from the phase (0) specified by a rule in layer data
I0403 14:18:58.293656  1121 net.cpp:49] Initializing net from parameters: 
state {
  phase: TEST
}
layer {
  name: "data"
  type: "Data"
  top: "data"
  top: "label"
  include {
    phase: TEST
  }
  transform_param {
    mirror: false
    crop_size: 224
    mean_file: "/home/mohanty/data/final_dataset/lmdb/grayscale-20-80/mean.binaryproto"
  }
  data_param {
    source: "/home/mohanty/data/final_dataset/lmdb/grayscale-20-80/test_db"
    batch_size: 24
    backend: LMDB
  }
}
layer {
  name: "conv1/7x7_s2"
  type: "Convolution"
  bottom: "data"
  top: "conv1/7x7_s2"
  param {
    lr_mult: 1
    decay_mult: 1
  }
  param {
    lr_mult: 2
    decay_mult: 0
  }
  convolution_param {
    num_output: 64
    pad: 3
    kernel_size: 7
    stride: 2
    weight_filler {
      type: "xavier"
      std: 0.1
    }
    bias_filler {
      type: "constant"
      value: 0.2
    }
  }
}
layer {
  name: "conv1/relu_7x7"
  type: "ReLU"
  bottom: "conv1/7x7_s2"
  top: "conv1/7x7_s2"
}
layer {
  name: "pool1/3x3_s2"
  type: "Pooling"
  bottom: "conv1/7x7_s2"
  top: "pool1/3x3_s2"
  pooling_param {
    pool: MAX
    kernel_size: 3
    stride: 2
  }
}
layer {
  name: "pool1/norm1"
  type: "LRN"
  bottom: "pool1/3x3_s2"
  top: "pool1/norm1"
  lrn_param {
    local_size: 5
    alpha: 0.0001
    beta: 0.75
  }
}
layer {
  name: "conv2/3x3_reduce"
  type: "Convolution"
  bottom: "pool1/norm1"
  top: "conv2/3x3_reduce"
  param {
    lr_mult: 1
    decay_mult: 1
  }
  param {
    lr_mult: 2
    decay_mult: 0
  }
  convolution_param {
    num_output: 64
    kernel_size: 1
    weight_filler {
      type: "xavier"
      std: 0.1
    }
    bias_filler {
      type: "constant"
      value: 0.2
    }
  }
}
layer {
  name: "conv2/relu_3x3_reduce"
  type: "ReLU"
  bottom: "conv2/3x3_reduce"
  top: "conv2/3x3_reduce"
}
layer {
  name: "conv2/3x3"
  type: "Convolution"
  bottom: "conv2/3x3_reduce"
  top: "conv2/3x3"
  param {
    lr_mult: 1
    decay_mult: 1
  }
  param {
    lr_mult: 2
    decay_mult: 0
  }
  convolution_param {
    num_output: 192
    pad: 1
    kernel_size: 3
    weight_filler {
      type: "xavier"
      std: 0.03
    }
    bias_filler {
      type: "constant"
      value: 0.2
    }
  }
}
layer {
  name: "conv2/relu_3x3"
  type: "ReLU"
  bottom: "conv2/3x3"
  top: "conv2/3x3"
}
layer {
  name: "conv2/norm2"
  type: "LRN"
  bottom: "conv2/3x3"
  top: "conv2/norm2"
  lrn_param {
    local_size: 5
    alpha: 0.0001
    beta: 0.75
  }
}
layer {
  name: "pool2/3x3_s2"
  type: "Pooling"
  bottom: "conv2/norm2"
  top: "pool2/3x3_s2"
  pooling_param {
    pool: MAX
    kernel_size: 3
    stride: 2
  }
}
layer {
  name: "inception_3a/1x1"
  type: "Convolution"
  bottom: "pool2/3x3_s2"
  top: "inception_3a/1x1"
  param {
    lr_mult: 1
    decay_mult: 1
  }
  param {
    lr_mult: 2
    decay_mult: 0
  }
  convolution_param {
    num_output: 64
    kernel_size: 1
    weight_filler {
      type: "xavier"
      std: 0.03
    }
    bias_filler {
      type: "constant"
      value: 0.2
    }
  }
}
layer {
  name: "inception_3a/relu_1x1"
  type: "ReLU"
  bottom: "inception_3a/1x1"
  top: "inception_3a/1x1"
}
layer {
  name: "inception_3a/3x3_reduce"
  type: "Convolution"
  bottom: "pool2/3x3_s2"
  top: "inception_3a/3x3_reduce"
  param {
    lr_mult: 1
    decay_mult: 1
  }
  param {
    lr_mult: 2
    decay_mult: 0
  }
  convolution_param {
    num_output: 96
    kernel_size: 1
    weight_filler {
      type: "xavier"
      std: 0.09
    }
    bias_filler {
      type: "constant"
      value: 0.2
    }
  }
}
layer {
  name: "inception_3a/relu_3x3_reduce"
  type: "ReLU"
  bottom: "inception_3a/3x3_reduce"
  top: "inception_3a/3x3_reduce"
}
layer {
  name: "inception_3a/3x3"
  type: "Convolution"
  bottom: "inception_3a/3x3_reduce"
  top: "inception_3a/3x3"
  param {
    lr_mult: 1
    decay_mult: 1
  }
  param {
    lr_mult: 2
    decay_mult: 0
  }
  convolution_param {
    num_output: 128
    pad: 1
    kernel_size: 3
    weight_filler {
      type: "xavier"
      std: 0.03
    }
    bias_filler {
      type: "constant"
      value: 0.2
    }
  }
}
layer {
  name: "inception_3a/relu_3x3"
  type: "ReLU"
  bottom: "inception_3a/3x3"
  top: "inception_3a/3x3"
}
layer {
  name: "inception_3a/5x5_reduce"
  type: "Convolution"
  bottom: "pool2/3x3_s2"
  top: "inception_3a/5x5_reduce"
  param {
    lr_mult: 1
    decay_mult: 1
  }
  param {
    lr_mult: 2
    decay_mult: 0
  }
  convolution_param {
    num_output: 16
    kernel_size: 1
    weight_filler {
      type: "xavier"
      std: 0.2
    }
    bias_filler {
      type: "constant"
      value: 0.2
    }
  }
}
layer {
  name: "inception_3a/relu_5x5_reduce"
  type: "ReLU"
  bottom: "inception_3a/5x5_reduce"
  top: "inception_3a/5x5_reduce"
}
layer {
  name: "inception_3a/5x5"
  type: "Convolution"
  bottom: "inception_3a/5x5_reduce"
  top: "inception_3a/5x5"
  param {
    lr_mult: 1
    decay_mult: 1
  }
  param {
    lr_mult: 2
    decay_mult: 0
  }
  convolution_param {
    num_output: 32
    pad: 2
    kernel_size: 5
    weight_filler {
      type: "xavier"
      std: 0.03
    }
    bias_filler {
      type: "constant"
      value: 0.2
    }
  }
}
layer {
  name: "inception_3a/relu_5x5"
  type: "ReLU"
  bottom: "inception_3a/5x5"
  top: "inception_3a/5x5"
}
layer {
  name: "inception_3a/pool"
  type: "Pooling"
  bottom: "pool2/3x3_s2"
  top: "inception_3a/pool"
  pooling_param {
    pool: MAX
    kernel_size: 3
    stride: 1
    pad: 1
  }
}
layer {
  name: "inception_3a/pool_proj"
  type: "Convolution"
  bottom: "inception_3a/pool"
  top: "inception_3a/pool_proj"
  param {
    lr_mult: 1
    decay_mult: 1
  }
  param {
    lr_mult: 2
    decay_mult: 0
  }
  convolution_param {
    num_output: 32
    kernel_size: 1
    weight_filler {
      type: "xavier"
      std: 0.1
    }
    bias_filler {
      type: "constant"
      value: 0.2
    }
  }
}
layer {
  name: "inception_3a/relu_pool_proj"
  type: "ReLU"
  bottom: "inception_3a/pool_proj"
  top: "inception_3a/pool_proj"
}
layer {
  name: "inception_3a/output"
  type: "Concat"
  bottom: "inception_3a/1x1"
  bottom: "inception_3a/3x3"
  bottom: "inception_3a/5x5"
  bottom: "inception_3a/pool_proj"
  top: "inception_3a/output"
}
layer {
  name: "inception_3b/1x1"
  type: "Convolution"
  bottom: "inception_3a/output"
  top: "inception_3b/1x1"
  param {
    lr_mult: 1
    decay_mult: 1
  }
  param {
    lr_mult: 2
    decay_mult: 0
  }
  convolution_param {
    num_output: 128
    kernel_size: 1
    weight_filler {
      type: "xavier"
      std: 0.03
    }
    bias_filler {
      type: "constant"
      value: 0.2
    }
  }
}
layer {
  name: "inception_3b/relu_1x1"
  type: "ReLU"
  bottom: "inception_3b/1x1"
  top: "inception_3b/1x1"
}
layer {
  name: "inception_3b/3x3_reduce"
  type: "Convolution"
  bottom: "inception_3a/output"
  top: "inception_3b/3x3_reduce"
  param {
    lr_mult: 1
    decay_mult: 1
  }
  param {
    lr_mult: 2
    decay_mult: 0
  }
  convolution_param {
    num_output: 128
    kernel_size: 1
    weight_filler {
      type: "xavier"
      std: 0.09
    }
    bias_filler {
      type: "constant"
      value: 0.2
    }
  }
}
layer {
  name: "inception_3b/relu_3x3_reduce"
  type: "ReLU"
  bottom: "inception_3b/3x3_reduce"
  top: "inception_3b/3x3_reduce"
}
layer {
  name: "inception_3b/3x3"
  type: "Convolution"
  bottom: "inception_3b/3x3_reduce"
  top: "inception_3b/3x3"
  param {
    lr_mult: 1
    decay_mult: 1
  }
  param {
    lr_mult: 2
    decay_mult: 0
  }
  convolution_param {
    num_output: 192
    pad: 1
    kernel_size: 3
    weight_filler {
      type: "xavier"
      std: 0.03
    }
    bias_filler {
      type: "constant"
      value: 0.2
    }
  }
}
layer {
  name: "inception_3b/relu_3x3"
  type: "ReLU"
  bottom: "inception_3b/3x3"
  top: "inception_3b/3x3"
}
layer {
  name: "inception_3b/5x5_reduce"
  type: "Convolution"
  bottom: "inception_3a/output"
  top: "inception_3b/5x5_reduce"
  param {
    lr_mult: 1
    decay_mult: 1
  }
  param {
    lr_mult: 2
    decay_mult: 0
  }
  convolution_param {
    num_output: 32
    kernel_size: 1
    weight_filler {
      type: "xavier"
      std: 0.2
    }
    bias_filler {
      type: "constant"
      value: 0.2
    }
  }
}
layer {
  name: "inception_3b/relu_5x5_reduce"
  type: "ReLU"
  bottom: "inception_3b/5x5_reduce"
  top: "inception_3b/5x5_reduce"
}
layer {
  name: "inception_3b/5x5"
  type: "Convolution"
  bottom: "inception_3b/5x5_reduce"
  top: "inception_3b/5x5"
  param {
    lr_mult: 1
    decay_mult: 1
  }
  param {
    lr_mult: 2
    decay_mult: 0
  }
  convolution_param {
    num_output: 96
    pad: 2
    kernel_size: 5
    weight_filler {
      type: "xavier"
      std: 0.03
    }
    bias_filler {
      type: "constant"
      value: 0.2
    }
  }
}
layer {
  name: "inception_3b/relu_5x5"
  type: "ReLU"
  bottom: "inception_3b/5x5"
  top: "inception_3b/5x5"
}
layer {
  name: "inception_3b/pool"
  type: "Pooling"
  bottom: "inception_3a/output"
  top: "inception_3b/pool"
  pooling_param {
    pool: MAX
    kernel_size: 3
    stride: 1
    pad: 1
  }
}
layer {
  name: "inception_3b/pool_proj"
  type: "Convolution"
  bottom: "inception_3b/pool"
  top: "inception_3b/pool_proj"
  param {
    lr_mult: 1
    decay_mult: 1
  }
  param {
    lr_mult: 2
    decay_mult: 0
  }
  convolution_param {
    num_output: 64
    kernel_size: 1
    weight_filler {
      type: "xavier"
      std: 0.1
    }
    bias_filler {
      type: "constant"
      value: 0.2
    }
  }
}
layer {
  name: "inception_3b/relu_pool_proj"
  type: "ReLU"
  bottom: "inception_3b/pool_proj"
  top: "inception_3b/pool_proj"
}
layer {
  name: "inception_3b/output"
  type: "Concat"
  bottom: "inception_3b/1x1"
  bottom: "inception_3b/3x3"
  bottom: "inception_3b/5x5"
  bottom: "inception_3b/pool_proj"
  top: "inception_3b/output"
}
layer {
  name: "pool3/3x3_s2"
  type: "Pooling"
  bottom: "inception_3b/output"
  top: "pool3/3x3_s2"
  pooling_param {
    pool: MAX
    kernel_size: 3
    stride: 2
  }
}
layer {
  name: "inception_4a/1x1"
  type: "Convolution"
  bottom: "pool3/3x3_s2"
  top: "inception_4a/1x1"
  param {
    lr_mult: 1
    decay_mult: 1
  }
  param {
    lr_mult: 2
    decay_mult: 0
  }
  convolution_param {
    num_output: 192
    kernel_size: 1
    weight_filler {
      type: "xavier"
      std: 0.03
    }
    bias_filler {
      type: "constant"
      value: 0.2
    }
  }
}
layer {
  name: "inception_4a/relu_1x1"
  type: "ReLU"
  bottom: "inception_4a/1x1"
  top: "inception_4a/1x1"
}
layer {
  name: "inception_4a/3x3_reduce"
  type: "Convolution"
  bottom: "pool3/3x3_s2"
  top: "inception_4a/3x3_reduce"
  param {
    lr_mult: 1
    decay_mult: 1
  }
  param {
    lr_mult: 2
    decay_mult: 0
  }
  convolution_param {
    num_output: 96
    kernel_size: 1
    weight_filler {
      type: "xavier"
      std: 0.09
    }
    bias_filler {
      type: "constant"
      value: 0.2
    }
  }
}
layer {
  name: "inception_4a/relu_3x3_reduce"
  type: "ReLU"
  bottom: "inception_4a/3x3_reduce"
  top: "inception_4a/3x3_reduce"
}
layer {
  name: "inception_4a/3x3"
  type: "Convolution"
  bottom: "inception_4a/3x3_reduce"
  top: "inception_4a/3x3"
  param {
    lr_mult: 1
    decay_mult: 1
  }
  param {
    lr_mult: 2
    decay_mult: 0
  }
  convolution_param {
    num_output: 208
    pad: 1
    kernel_size: 3
    weight_filler {
      type: "xavier"
      std: 0.03
    }
    bias_filler {
      type: "constant"
      value: 0.2
    }
  }
}
layer {
  name: "inception_4a/relu_3x3"
  type: "ReLU"
  bottom: "inception_4a/3x3"
  top: "inception_4a/3x3"
}
layer {
  name: "inception_4a/5x5_reduce"
  type: "Convolution"
  bottom: "pool3/3x3_s2"
  top: "inception_4a/5x5_reduce"
  param {
    lr_mult: 1
    decay_mult: 1
  }
  param {
    lr_mult: 2
    decay_mult: 0
  }
  convolution_param {
    num_output: 16
    kernel_size: 1
    weight_filler {
      type: "xavier"
      std: 0.2
    }
    bias_filler {
      type: "constant"
      value: 0.2
    }
  }
}
layer {
  name: "inception_4a/relu_5x5_reduce"
  type: "ReLU"
  bottom: "inception_4a/5x5_reduce"
  top: "inception_4a/5x5_reduce"
}
layer {
  name: "inception_4a/5x5"
  type: "Convolution"
  bottom: "inception_4a/5x5_reduce"
  top: "inception_4a/5x5"
  param {
    lr_mult: 1
    decay_mult: 1
  }
  param {
    lr_mult: 2
    decay_mult: 0
  }
  convolution_param {
    num_output: 48
    pad: 2
    kernel_size: 5
    weight_filler {
      type: "xavier"
      std: 0.03
    }
    bias_filler {
      type: "constant"
      value: 0.2
    }
  }
}
layer {
  name: "inception_4a/relu_5x5"
  type: "ReLU"
  bottom: "inception_4a/5x5"
  top: "inception_4a/5x5"
}
layer {
  name: "inception_4a/pool"
  type: "Pooling"
  bottom: "pool3/3x3_s2"
  top: "inception_4a/pool"
  pooling_param {
    pool: MAX
    kernel_size: 3
    stride: 1
    pad: 1
  }
}
layer {
  name: "inception_4a/pool_proj"
  type: "Convolution"
  bottom: "inception_4a/pool"
  top: "inception_4a/pool_proj"
  param {
    lr_mult: 1
    decay_mult: 1
  }
  param {
    lr_mult: 2
    decay_mult: 0
  }
  convolution_param {
    num_output: 64
    kernel_size: 1
    weight_filler {
      type: "xavier"
      std: 0.1
    }
    bias_filler {
      type: "constant"
      value: 0.2
    }
  }
}
layer {
  name: "inception_4a/relu_pool_proj"
  type: "ReLU"
  bottom: "inception_4a/pool_proj"
  top: "inception_4a/pool_proj"
}
layer {
  name: "inception_4a/output"
  type: "Concat"
  bottom: "inception_4a/1x1"
  bottom: "inception_4a/3x3"
  bottom: "inception_4a/5x5"
  bottom: "inception_4a/pool_proj"
  top: "inception_4a/output"
}
layer {
  name: "loss1/ave_pool"
  type: "Pooling"
  bottom: "inception_4a/output"
  top: "loss1/ave_pool"
  pooling_param {
    pool: AVE
    kernel_size: 5
    stride: 3
  }
}
layer {
  name: "loss1/conv"
  type: "Convolution"
  bottom: "loss1/ave_pool"
  top: "loss1/conv"
  param {
    lr_mult: 1
    decay_mult: 1
  }
  param {
    lr_mult: 2
    decay_mult: 0
  }
  convolution_param {
    num_output: 128
    kernel_size: 1
    weight_filler {
      type: "xavier"
      std: 0.08
    }
    bias_filler {
      type: "constant"
      value: 0.2
    }
  }
}
layer {
  name: "loss1/relu_conv"
  type: "ReLU"
  bottom: "loss1/conv"
  top: "loss1/conv"
}
layer {
  name: "loss1/fc"
  type: "InnerProduct"
  bottom: "loss1/conv"
  top: "loss1/fc"
  param {
    lr_mult: 1
    decay_mult: 1
  }
  param {
    lr_mult: 2
    decay_mult: 0
  }
  inner_product_param {
    num_output: 1024
    weight_filler {
      type: "xavier"
      std: 0.02
    }
    bias_filler {
      type: "constant"
      value: 0.2
    }
  }
}
layer {
  name: "loss1/relu_fc"
  type: "ReLU"
  bottom: "loss1/fc"
  top: "loss1/fc"
}
layer {
  name: "loss1/drop_fc"
  type: "Dropout"
  bottom: "loss1/fc"
  top: "loss1/fc"
  dropout_param {
    dropout_ratio: 0.7
  }
}
layer {
  name: "loss1/classifier_plantvillage"
  type: "InnerProduct"
  bottom: "loss1/fc"
  top: "loss1/classifier_plantvillage"
  param {
    lr_mult: 1
    decay_mult: 1
  }
  param {
    lr_mult: 2
    decay_mult: 0
  }
  inner_product_param {
    num_output: 38
    weight_filler {
      type: "xavier"
      std: 0.0009765625
    }
    bias_filler {
      type: "constant"
      value: 0
    }
  }
}
layer {
  name: "inception_4b/1x1"
  type: "Convolution"
  bottom: "inception_4a/output"
  top: "inception_4b/1x1"
  param {
    lr_mult: 1
    decay_mult: 1
  }
  param {
    lr_mult: 2
    decay_mult: 0
  }
  convolution_param {
    num_output: 160
    kernel_size: 1
    weight_filler {
      type: "xavier"
      std: 0.03
    }
    bias_filler {
      type: "constant"
      value: 0.2
    }
  }
}
layer {
  name: "inception_4b/relu_1x1"
  type: "ReLU"
  bottom: "inception_4b/1x1"
  top: "inception_4b/1x1"
}
layer {
  name: "inception_4b/3x3_reduce"
  type: "Convolution"
  bottom: "inception_4a/output"
  top: "inception_4b/3x3_reduce"
  param {
    lr_mult: 1
    decay_mult: 1
  }
  param {
    lr_mult: 2
    decay_mult: 0
  }
  convolution_param {
    num_output: 112
    kernel_size: 1
    weight_filler {
      type: "xavier"
      std: 0.09
    }
    bias_filler {
      type: "constant"
      value: 0.2
    }
  }
}
layer {
  name: "inception_4b/relu_3x3_reduce"
  type: "ReLU"
  bottom: "inception_4b/3x3_reduce"
  top: "inception_4b/3x3_reduce"
}
layer {
  name: "inception_4b/3x3"
  type: "Convolution"
  bottom: "inception_4b/3x3_reduce"
  top: "inception_4b/3x3"
  param {
    lr_mult: 1
    decay_mult: 1
  }
  param {
    lr_mult: 2
    decay_mult: 0
  }
  convolution_param {
    num_output: 224
    pad: 1
    kernel_size: 3
    weight_filler {
      type: "xavier"
      std: 0.03
    }
    bias_filler {
      type: "constant"
      value: 0.2
    }
  }
}
layer {
  name: "inception_4b/relu_3x3"
  type: "ReLU"
  bottom: "inception_4b/3x3"
  top: "inception_4b/3x3"
}
layer {
  name: "inception_4b/5x5_reduce"
  type: "Convolution"
  bottom: "inception_4a/output"
  top: "inception_4b/5x5_reduce"
  param {
    lr_mult: 1
    decay_mult: 1
  }
  param {
    lr_mult: 2
    decay_mult: 0
  }
  convolution_param {
    num_output: 24
    kernel_size: 1
    weight_filler {
      type: "xavier"
      std: 0.2
    }
    bias_filler {
      type: "constant"
      value: 0.2
    }
  }
}
layer {
  name: "inception_4b/relu_5x5_reduce"
  type: "ReLU"
  bottom: "inception_4b/5x5_reduce"
  top: "inception_4b/5x5_reduce"
}
layer {
  name: "inception_4b/5x5"
  type: "Convolution"
  bottom: "inception_4b/5x5_reduce"
  top: "inception_4b/5x5"
  param {
    lr_mult: 1
    decay_mult: 1
  }
  param {
    lr_mult: 2
    decay_mult: 0
  }
  convolution_param {
    num_output: 64
    pad: 2
    kernel_size: 5
    weight_filler {
      type: "xavier"
      std: 0.03
    }
    bias_filler {
      type: "constant"
      value: 0.2
    }
  }
}
layer {
  name: "inception_4b/relu_5x5"
  type: "ReLU"
  bottom: "inception_4b/5x5"
  top: "inception_4b/5x5"
}
layer {
  name: "inception_4b/pool"
  type: "Pooling"
  bottom: "inception_4a/output"
  top: "inception_4b/pool"
  pooling_param {
    pool: MAX
    kernel_size: 3
    stride: 1
    pad: 1
  }
}
layer {
  name: "inception_4b/pool_proj"
  type: "Convolution"
  bottom: "inception_4b/pool"
  top: "inception_4b/pool_proj"
  param {
    lr_mult: 1
    decay_mult: 1
  }
  param {
    lr_mult: 2
    decay_mult: 0
  }
  convolution_param {
    num_output: 64
    kernel_size: 1
    weight_filler {
      type: "xavier"
      std: 0.1
    }
    bias_filler {
      type: "constant"
      value: 0.2
    }
  }
}
layer {
  name: "inception_4b/relu_pool_proj"
  type: "ReLU"
  bottom: "inception_4b/pool_proj"
  top: "inception_4b/pool_proj"
}
layer {
  name: "inception_4b/output"
  type: "Concat"
  bottom: "inception_4b/1x1"
  bottom: "inception_4b/3x3"
  bottom: "inception_4b/5x5"
  bottom: "inception_4b/pool_proj"
  top: "inception_4b/output"
}
layer {
  name: "inception_4c/1x1"
  type: "Convolution"
  bottom: "inception_4b/output"
  top: "inception_4c/1x1"
  param {
    lr_mult: 1
    decay_mult: 1
  }
  param {
    lr_mult: 2
    decay_mult: 0
  }
  convolution_param {
    num_output: 128
    kernel_size: 1
    weight_filler {
      type: "xavier"
      std: 0.03
    }
    bias_filler {
      type: "constant"
      value: 0.2
    }
  }
}
layer {
  name: "inception_4c/relu_1x1"
  type: "ReLU"
  bottom: "inception_4c/1x1"
  top: "inception_4c/1x1"
}
layer {
  name: "inception_4c/3x3_reduce"
  type: "Convolution"
  bottom: "inception_4b/output"
  top: "inception_4c/3x3_reduce"
  param {
    lr_mult: 1
    decay_mult: 1
  }
  param {
    lr_mult: 2
    decay_mult: 0
  }
  convolution_param {
    num_output: 128
    kernel_size: 1
    weight_filler {
      type: "xavier"
      std: 0.09
    }
    bias_filler {
      type: "constant"
      value: 0.2
    }
  }
}
layer {
  name: "inception_4c/relu_3x3_reduce"
  type: "ReLU"
  bottom: "inception_4c/3x3_reduce"
  top: "inception_4c/3x3_reduce"
}
layer {
  name: "inception_4c/3x3"
  type: "Convolution"
  bottom: "inception_4c/3x3_reduce"
  top: "inception_4c/3x3"
  param {
    lr_mult: 1
    decay_mult: 1
  }
  param {
    lr_mult: 2
    decay_mult: 0
  }
  convolution_param {
    num_output: 256
    pad: 1
    kernel_size: 3
    weight_filler {
      type: "xavier"
      std: 0.03
    }
    bias_filler {
      type: "constant"
      value: 0.2
    }
  }
}
layer {
  name: "inception_4c/relu_3x3"
  type: "ReLU"
  bottom: "inception_4c/3x3"
  top: "inception_4c/3x3"
}
layer {
  name: "inception_4c/5x5_reduce"
  type: "Convolution"
  bottom: "inception_4b/output"
  top: "inception_4c/5x5_reduce"
  param {
    lr_mult: 1
    decay_mult: 1
  }
  param {
    lr_mult: 2
    decay_mult: 0
  }
  convolution_param {
    num_output: 24
    kernel_size: 1
    weight_filler {
      type: "xavier"
      std: 0.2
    }
    bias_filler {
      type: "constant"
      value: 0.2
    }
  }
}
layer {
  name: "inception_4c/relu_5x5_reduce"
  type: "ReLU"
  bottom: "inception_4c/5x5_reduce"
  top: "inception_4c/5x5_reduce"
}
layer {
  name: "inception_4c/5x5"
  type: "Convolution"
  bottom: "inception_4c/5x5_reduce"
  top: "inception_4c/5x5"
  param {
    lr_mult: 1
    decay_mult: 1
  }
  param {
    lr_mult: 2
    decay_mult: 0
  }
  convolution_param {
    num_output: 64
    pad: 2
    kernel_size: 5
    weight_filler {
      type: "xavier"
      std: 0.03
    }
    bias_filler {
      type: "constant"
      value: 0.2
    }
  }
}
layer {
  name: "inception_4c/relu_5x5"
  type: "ReLU"
  bottom: "inception_4c/5x5"
  top: "inception_4c/5x5"
}
layer {
  name: "inception_4c/pool"
  type: "Pooling"
  bottom: "inception_4b/output"
  top: "inception_4c/pool"
  pooling_param {
    pool: MAX
    kernel_size: 3
    stride: 1
    pad: 1
  }
}
layer {
  name: "inception_4c/pool_proj"
  type: "Convolution"
  bottom: "inception_4c/pool"
  top: "inception_4c/pool_proj"
  param {
    lr_mult: 1
    decay_mult: 1
  }
  param {
    lr_mult: 2
    decay_mult: 0
  }
  convolution_param {
    num_output: 64
    kernel_size: 1
    weight_filler {
      type: "xavier"
      std: 0.1
    }
    bias_filler {
      type: "constant"
      value: 0.2
    }
  }
}
layer {
  name: "inception_4c/relu_pool_proj"
  type: "ReLU"
  bottom: "inception_4c/pool_proj"
  top: "inception_4c/pool_proj"
}
layer {
  name: "inception_4c/output"
  type: "Concat"
  bottom: "inception_4c/1x1"
  bottom: "inception_4c/3x3"
  bottom: "inception_4c/5x5"
  bottom: "inception_4c/pool_proj"
  top: "inception_4c/output"
}
layer {
  name: "inception_4d/1x1"
  type: "Convolution"
  bottom: "inception_4c/output"
  top: "inception_4d/1x1"
  param {
    lr_mult: 1
    decay_mult: 1
  }
  param {
    lr_mult: 2
    decay_mult: 0
  }
  convolution_param {
    num_output: 112
    kernel_size: 1
    weight_filler {
      type: "xavier"
      std: 0.03
    }
    bias_filler {
      type: "constant"
      value: 0.2
    }
  }
}
layer {
  name: "inception_4d/relu_1x1"
  type: "ReLU"
  bottom: "inception_4d/1x1"
  top: "inception_4d/1x1"
}
layer {
  name: "inception_4d/3x3_reduce"
  type: "Convolution"
  bottom: "inception_4c/output"
  top: "inception_4d/3x3_reduce"
  param {
    lr_mult: 1
    decay_mult: 1
  }
  param {
    lr_mult: 2
    decay_mult: 0
  }
  convolution_param {
    num_output: 144
    kernel_size: 1
    weight_filler {
      type: "xavier"
      std: 0.09
    }
    bias_filler {
      type: "constant"
      value: 0.2
    }
  }
}
layer {
  name: "inception_4d/relu_3x3_reduce"
  type: "ReLU"
  bottom: "inception_4d/3x3_reduce"
  top: "inception_4d/3x3_reduce"
}
layer {
  name: "inception_4d/3x3"
  type: "Convolution"
  bottom: "inception_4d/3x3_reduce"
  top: "inception_4d/3x3"
  param {
    lr_mult: 1
    decay_mult: 1
  }
  param {
    lr_mult: 2
    decay_mult: 0
  }
  convolution_param {
    num_output: 288
    pad: 1
    kernel_size: 3
    weight_filler {
      type: "xavier"
      std: 0.03
    }
    bias_filler {
      type: "constant"
      value: 0.2
    }
  }
}
layer {
  name: "inception_4d/relu_3x3"
  type: "ReLU"
  bottom: "inception_4d/3x3"
  top: "inception_4d/3x3"
}
layer {
  name: "inception_4d/5x5_reduce"
  type: "Convolution"
  bottom: "inception_4c/output"
  top: "inception_4d/5x5_reduce"
  param {
    lr_mult: 1
    decay_mult: 1
  }
  param {
    lr_mult: 2
    decay_mult: 0
  }
  convolution_param {
    num_output: 32
    kernel_size: 1
    weight_filler {
      type: "xavier"
      std: 0.2
    }
    bias_filler {
      type: "constant"
      value: 0.2
    }
  }
}
layer {
  name: "inception_4d/relu_5x5_reduce"
  type: "ReLU"
  bottom: "inception_4d/5x5_reduce"
  top: "inception_4d/5x5_reduce"
}
layer {
  name: "inception_4d/5x5"
  type: "Convolution"
  bottom: "inception_4d/5x5_reduce"
  top: "inception_4d/5x5"
  param {
    lr_mult: 1
    decay_mult: 1
  }
  param {
    lr_mult: 2
    decay_mult: 0
  }
  convolution_param {
    num_output: 64
    pad: 2
    kernel_size: 5
    weight_filler {
      type: "xavier"
      std: 0.03
    }
    bias_filler {
      type: "constant"
      value: 0.2
    }
  }
}
layer {
  name: "inception_4d/relu_5x5"
  type: "ReLU"
  bottom: "inception_4d/5x5"
  top: "inception_4d/5x5"
}
layer {
  name: "inception_4d/pool"
  type: "Pooling"
  bottom: "inception_4c/output"
  top: "inception_4d/pool"
  pooling_param {
    pool: MAX
    kernel_size: 3
    stride: 1
    pad: 1
  }
}
layer {
  name: "inception_4d/pool_proj"
  type: "Convolution"
  bottom: "inception_4d/pool"
  top: "inception_4d/pool_proj"
  param {
    lr_mult: 1
    decay_mult: 1
  }
  param {
    lr_mult: 2
    decay_mult: 0
  }
  convolution_param {
    num_output: 64
    kernel_size: 1
    weight_filler {
      type: "xavier"
      std: 0.1
    }
    bias_filler {
      type: "constant"
      value: 0.2
    }
  }
}
layer {
  name: "inception_4d/relu_pool_proj"
  type: "ReLU"
  bottom: "inception_4d/pool_proj"
  top: "inception_4d/pool_proj"
}
layer {
  name: "inception_4d/output"
  type: "Concat"
  bottom: "inception_4d/1x1"
  bottom: "inception_4d/3x3"
  bottom: "inception_4d/5x5"
  bottom: "inception_4d/pool_proj"
  top: "inception_4d/output"
}
layer {
  name: "loss2/ave_pool"
  type: "Pooling"
  bottom: "inception_4d/output"
  top: "loss2/ave_pool"
  pooling_param {
    pool: AVE
    kernel_size: 5
    stride: 3
  }
}
layer {
  name: "loss2/conv"
  type: "Convolution"
  bottom: "loss2/ave_pool"
  top: "loss2/conv"
  param {
    lr_mult: 1
    decay_mult: 1
  }
  param {
    lr_mult: 2
    decay_mult: 0
  }
  convolution_param {
    num_output: 128
    kernel_size: 1
    weight_filler {
      type: "xavier"
      std: 0.08
    }
    bias_filler {
      type: "constant"
      value: 0.2
    }
  }
}
layer {
  name: "loss2/relu_conv"
  type: "ReLU"
  bottom: "loss2/conv"
  top: "loss2/conv"
}
layer {
  name: "loss2/fc"
  type: "InnerProduct"
  bottom: "loss2/conv"
  top: "loss2/fc"
  param {
    lr_mult: 1
    decay_mult: 1
  }
  param {
    lr_mult: 2
    decay_mult: 0
  }
  inner_product_param {
    num_output: 1024
    weight_filler {
      type: "xavier"
      std: 0.02
    }
    bias_filler {
      type: "constant"
      value: 0.2
    }
  }
}
layer {
  name: "loss2/relu_fc"
  type: "ReLU"
  bottom: "loss2/fc"
  top: "loss2/fc"
}
layer {
  name: "loss2/drop_fc"
  type: "Dropout"
  bottom: "loss2/fc"
  top: "loss2/fc"
  dropout_param {
    dropout_ratio: 0.7
  }
}
layer {
  name: "loss2/classifier_plantvillage"
  type: "InnerProduct"
  bottom: "loss2/fc"
  top: "loss2/classifier_plantvillage"
  param {
    lr_mult: 1
    decay_mult: 1
  }
  param {
    lr_mult: 2
    decay_mult: 0
  }
  inner_product_param {
    num_output: 38
    weight_filler {
      type: "xavier"
      std: 0.0009765625
    }
    bias_filler {
      type: "constant"
      value: 0
    }
  }
}
layer {
  name: "inception_4e/1x1"
  type: "Convolution"
  bottom: "inception_4d/output"
  top: "inception_4e/1x1"
  param {
    lr_mult: 1
    decay_mult: 1
  }
  param {
    lr_mult: 2
    decay_mult: 0
  }
  convolution_param {
    num_output: 256
    kernel_size: 1
    weight_filler {
      type: "xavier"
      std: 0.03
    }
    bias_filler {
      type: "constant"
      value: 0.2
    }
  }
}
layer {
  name: "inception_4e/relu_1x1"
  type: "ReLU"
  bottom: "inception_4e/1x1"
  top: "inception_4e/1x1"
}
layer {
  name: "inception_4e/3x3_reduce"
  type: "Convolution"
  bottom: "inception_4d/output"
  top: "inception_4e/3x3_reduce"
  param {
    lr_mult: 1
    decay_mult: 1
  }
  param {
    lr_mult: 2
    decay_mult: 0
  }
  convolution_param {
    num_output: 160
    kernel_size: 1
    weight_filler {
      type: "xavier"
      std: 0.09
    }
    bias_filler {
      type: "constant"
      value: 0.2
    }
  }
}
layer {
  name: "inception_4e/relu_3x3_reduce"
  type: "ReLU"
  bottom: "inception_4e/3x3_reduce"
  top: "inception_4e/3x3_reduce"
}
layer {
  name: "inception_4e/3x3"
  type: "Convolution"
  bottom: "inception_4e/3x3_reduce"
  top: "inception_4e/3x3"
  param {
    lr_mult: 1
    decay_mult: 1
  }
  param {
    lr_mult: 2
    decay_mult: 0
  }
  convolution_param {
    num_output: 320
    pad: 1
    kernel_size: 3
    weight_filler {
      type: "xavier"
      std: 0.03
    }
    bias_filler {
      type: "constant"
      value: 0.2
    }
  }
}
layer {
  name: "inception_4e/relu_3x3"
  type: "ReLU"
  bottom: "inception_4e/3x3"
  top: "inception_4e/3x3"
}
layer {
  name: "inception_4e/5x5_reduce"
  type: "Convolution"
  bottom: "inception_4d/output"
  top: "inception_4e/5x5_reduce"
  param {
    lr_mult: 1
    decay_mult: 1
  }
  param {
    lr_mult: 2
    decay_mult: 0
  }
  convolution_param {
    num_output: 32
    kernel_size: 1
    weight_filler {
      type: "xavier"
      std: 0.2
    }
    bias_filler {
      type: "constant"
      value: 0.2
    }
  }
}
layer {
  name: "inception_4e/relu_5x5_reduce"
  type: "ReLU"
  bottom: "inception_4e/5x5_reduce"
  top: "inception_4e/5x5_reduce"
}
layer {
  name: "inception_4e/5x5"
  type: "Convolution"
  bottom: "inception_4e/5x5_reduce"
  top: "inception_4e/
I0403 14:18:58.294939  1121 layer_factory.hpp:77] Creating layer data
I0403 14:18:58.295538  1121 net.cpp:91] Creating Layer data
I0403 14:18:58.295568  1121 net.cpp:399] data -> data
I0403 14:18:58.295619  1121 net.cpp:399] data -> label
I0403 14:18:58.295656  1121 data_transformer.cpp:25] Loading mean file from: /home/mohanty/data/final_dataset/lmdb/grayscale-20-80/mean.binaryproto
I0403 14:18:58.298090  1124 db_lmdb.cpp:38] Opened lmdb /home/mohanty/data/final_dataset/lmdb/grayscale-20-80/test_db
I0403 14:18:58.309320  1121 data_layer.cpp:41] output data size: 24,3,224,224
I0403 14:18:58.337381  1121 net.cpp:141] Setting up data
I0403 14:18:58.337494  1121 net.cpp:148] Top shape: 24 3 224 224 (3612672)
I0403 14:18:58.337517  1121 net.cpp:148] Top shape: 24 (24)
I0403 14:18:58.337533  1121 net.cpp:156] Memory required for data: 14450784
I0403 14:18:58.337561  1121 layer_factory.hpp:77] Creating layer label_data_1_split
I0403 14:18:58.337589  1121 net.cpp:91] Creating Layer label_data_1_split
I0403 14:18:58.337607  1121 net.cpp:425] label_data_1_split <- label
I0403 14:18:58.337641  1121 net.cpp:399] label_data_1_split -> label_data_1_split_0
I0403 14:18:58.337667  1121 net.cpp:399] label_data_1_split -> label_data_1_split_1
I0403 14:18:58.337689  1121 net.cpp:399] label_data_1_split -> label_data_1_split_2
I0403 14:18:58.337713  1121 net.cpp:399] label_data_1_split -> label_data_1_split_3
I0403 14:18:58.337743  1121 net.cpp:399] label_data_1_split -> label_data_1_split_4
I0403 14:18:58.337766  1121 net.cpp:399] label_data_1_split -> label_data_1_split_5
I0403 14:18:58.337788  1121 net.cpp:399] label_data_1_split -> label_data_1_split_6
I0403 14:18:58.337810  1121 net.cpp:399] label_data_1_split -> label_data_1_split_7
I0403 14:18:58.337831  1121 net.cpp:399] label_data_1_split -> label_data_1_split_8
I0403 14:18:58.337852  1121 net.cpp:399] label_data_1_split -> label_data_1_split_9
I0403 14:18:58.337977  1121 net.cpp:141] Setting up label_data_1_split
I0403 14:18:58.338001  1121 net.cpp:148] Top shape: 24 (24)
I0403 14:18:58.338019  1121 net.cpp:148] Top shape: 24 (24)
I0403 14:18:58.338037  1121 net.cpp:148] Top shape: 24 (24)
I0403 14:18:58.338053  1121 net.cpp:148] Top shape: 24 (24)
I0403 14:18:58.338069  1121 net.cpp:148] Top shape: 24 (24)
I0403 14:18:58.338085  1121 net.cpp:148] Top shape: 24 (24)
I0403 14:18:58.338102  1121 net.cpp:148] Top shape: 24 (24)
I0403 14:18:58.338119  1121 net.cpp:148] Top shape: 24 (24)
I0403 14:18:58.338135  1121 net.cpp:148] Top shape: 24 (24)
I0403 14:18:58.338152  1121 net.cpp:148] Top shape: 24 (24)
I0403 14:18:58.338202  1121 net.cpp:156] Memory required for data: 14451744
I0403 14:18:58.338220  1121 layer_factory.hpp:77] Creating layer conv1/7x7_s2
I0403 14:18:58.338253  1121 net.cpp:91] Creating Layer conv1/7x7_s2
I0403 14:18:58.338273  1121 net.cpp:425] conv1/7x7_s2 <- data
I0403 14:18:58.338294  1121 net.cpp:399] conv1/7x7_s2 -> conv1/7x7_s2
I0403 14:18:58.483533  1121 net.cpp:141] Setting up conv1/7x7_s2
I0403 14:18:58.483644  1121 net.cpp:148] Top shape: 24 64 112 112 (19267584)
I0403 14:18:58.483661  1121 net.cpp:156] Memory required for data: 91522080
I0403 14:18:58.483692  1121 layer_factory.hpp:77] Creating layer conv1/relu_7x7
I0403 14:18:58.483721  1121 net.cpp:91] Creating Layer conv1/relu_7x7
I0403 14:18:58.483741  1121 net.cpp:425] conv1/relu_7x7 <- conv1/7x7_s2
I0403 14:18:58.483760  1121 net.cpp:386] conv1/relu_7x7 -> conv1/7x7_s2 (in-place)
I0403 14:18:58.484030  1121 net.cpp:141] Setting up conv1/relu_7x7
I0403 14:18:58.484056  1121 net.cpp:148] Top shape: 24 64 112 112 (19267584)
I0403 14:18:58.484073  1121 net.cpp:156] Memory required for data: 168592416
I0403 14:18:58.484089  1121 layer_factory.hpp:77] Creating layer pool1/3x3_s2
I0403 14:18:58.484115  1121 net.cpp:91] Creating Layer pool1/3x3_s2
I0403 14:18:58.484134  1121 net.cpp:425] pool1/3x3_s2 <- conv1/7x7_s2
I0403 14:18:58.484153  1121 net.cpp:399] pool1/3x3_s2 -> pool1/3x3_s2
I0403 14:18:58.484232  1121 net.cpp:141] Setting up pool1/3x3_s2
I0403 14:18:58.484257  1121 net.cpp:148] Top shape: 24 64 56 56 (4816896)
I0403 14:18:58.484273  1121 net.cpp:156] Memory required for data: 187860000
I0403 14:18:58.484302  1121 layer_factory.hpp:77] Creating layer pool1/norm1
I0403 14:18:58.484326  1121 net.cpp:91] Creating Layer pool1/norm1
I0403 14:18:58.484345  1121 net.cpp:425] pool1/norm1 <- pool1/3x3_s2
I0403 14:18:58.484364  1121 net.cpp:399] pool1/norm1 -> pool1/norm1
I0403 14:18:58.484711  1121 net.cpp:141] Setting up pool1/norm1
I0403 14:18:58.484740  1121 net.cpp:148] Top shape: 24 64 56 56 (4816896)
I0403 14:18:58.484755  1121 net.cpp:156] Memory required for data: 207127584
I0403 14:18:58.484771  1121 layer_factory.hpp:77] Creating layer conv2/3x3_reduce
I0403 14:18:58.484794  1121 net.cpp:91] Creating Layer conv2/3x3_reduce
I0403 14:18:58.484812  1121 net.cpp:425] conv2/3x3_reduce <- pool1/norm1
I0403 14:18:58.484832  1121 net.cpp:399] conv2/3x3_reduce -> conv2/3x3_reduce
I0403 14:18:58.486276  1121 net.cpp:141] Setting up conv2/3x3_reduce
I0403 14:18:58.486307  1121 net.cpp:148] Top shape: 24 64 56 56 (4816896)
I0403 14:18:58.486325  1121 net.cpp:156] Memory required for data: 226395168
I0403 14:18:58.486348  1121 layer_factory.hpp:77] Creating layer conv2/relu_3x3_reduce
I0403 14:18:58.486369  1121 net.cpp:91] Creating Layer conv2/relu_3x3_reduce
I0403 14:18:58.486387  1121 net.cpp:425] conv2/relu_3x3_reduce <- conv2/3x3_reduce
I0403 14:18:58.486429  1121 net.cpp:386] conv2/relu_3x3_reduce -> conv2/3x3_reduce (in-place)
I0403 14:18:58.486716  1121 net.cpp:141] Setting up conv2/relu_3x3_reduce
I0403 14:18:58.486744  1121 net.cpp:148] Top shape: 24 64 56 56 (4816896)
I0403 14:18:58.486760  1121 net.cpp:156] Memory required for data: 245662752
I0403 14:18:58.486778  1121 layer_factory.hpp:77] Creating layer conv2/3x3
I0403 14:18:58.486810  1121 net.cpp:91] Creating Layer conv2/3x3
I0403 14:18:58.486829  1121 net.cpp:425] conv2/3x3 <- conv2/3x3_reduce
I0403 14:18:58.486848  1121 net.cpp:399] conv2/3x3 -> conv2/3x3
I0403 14:18:58.489280  1121 net.cpp:141] Setting up conv2/3x3
I0403 14:18:58.489313  1121 net.cpp:148] Top shape: 24 192 56 56 (14450688)
I0403 14:18:58.489331  1121 net.cpp:156] Memory required for data: 303465504
I0403 14:18:58.489353  1121 layer_factory.hpp:77] Creating layer conv2/relu_3x3
I0403 14:18:58.489373  1121 net.cpp:91] Creating Layer conv2/relu_3x3
I0403 14:18:58.489390  1121 net.cpp:425] conv2/relu_3x3 <- conv2/3x3
I0403 14:18:58.489409  1121 net.cpp:386] conv2/relu_3x3 -> conv2/3x3 (in-place)
I0403 14:18:58.489588  1121 net.cpp:141] Setting up conv2/relu_3x3
I0403 14:18:58.489615  1121 net.cpp:148] Top shape: 24 192 56 56 (14450688)
I0403 14:18:58.489661  1121 net.cpp:156] Memory required for data: 361268256
I0403 14:18:58.489680  1121 layer_factory.hpp:77] Creating layer conv2/norm2
I0403 14:18:58.489699  1121 net.cpp:91] Creating Layer conv2/norm2
I0403 14:18:58.489717  1121 net.cpp:425] conv2/norm2 <- conv2/3x3
I0403 14:18:58.489737  1121 net.cpp:399] conv2/norm2 -> conv2/norm2
I0403 14:18:58.490111  1121 net.cpp:141] Setting up conv2/norm2
I0403 14:18:58.490140  1121 net.cpp:148] Top shape: 24 192 56 56 (14450688)
I0403 14:18:58.490157  1121 net.cpp:156] Memory required for data: 419071008
I0403 14:18:58.490173  1121 layer_factory.hpp:77] Creating layer pool2/3x3_s2
I0403 14:18:58.490197  1121 net.cpp:91] Creating Layer pool2/3x3_s2
I0403 14:18:58.490214  1121 net.cpp:425] pool2/3x3_s2 <- conv2/norm2
I0403 14:18:58.490234  1121 net.cpp:399] pool2/3x3_s2 -> pool2/3x3_s2
I0403 14:18:58.490288  1121 net.cpp:141] Setting up pool2/3x3_s2
I0403 14:18:58.490311  1121 net.cpp:148] Top shape: 24 192 28 28 (3612672)
I0403 14:18:58.490327  1121 net.cpp:156] Memory required for data: 433521696
I0403 14:18:58.490344  1121 layer_factory.hpp:77] Creating layer pool2/3x3_s2_pool2/3x3_s2_0_split
I0403 14:18:58.490362  1121 net.cpp:91] Creating Layer pool2/3x3_s2_pool2/3x3_s2_0_split
I0403 14:18:58.490378  1121 net.cpp:425] pool2/3x3_s2_pool2/3x3_s2_0_split <- pool2/3x3_s2
I0403 14:18:58.490398  1121 net.cpp:399] pool2/3x3_s2_pool2/3x3_s2_0_split -> pool2/3x3_s2_pool2/3x3_s2_0_split_0
I0403 14:18:58.490419  1121 net.cpp:399] pool2/3x3_s2_pool2/3x3_s2_0_split -> pool2/3x3_s2_pool2/3x3_s2_0_split_1
I0403 14:18:58.490442  1121 net.cpp:399] pool2/3x3_s2_pool2/3x3_s2_0_split -> pool2/3x3_s2_pool2/3x3_s2_0_split_2
I0403 14:18:58.490463  1121 net.cpp:399] pool2/3x3_s2_pool2/3x3_s2_0_split -> pool2/3x3_s2_pool2/3x3_s2_0_split_3
I0403 14:18:58.490533  1121 net.cpp:141] Setting up pool2/3x3_s2_pool2/3x3_s2_0_split
I0403 14:18:58.490557  1121 net.cpp:148] Top shape: 24 192 28 28 (3612672)
I0403 14:18:58.490576  1121 net.cpp:148] Top shape: 24 192 28 28 (3612672)
I0403 14:18:58.490593  1121 net.cpp:148] Top shape: 24 192 28 28 (3612672)
I0403 14:18:58.490610  1121 net.cpp:148] Top shape: 24 192 28 28 (3612672)
I0403 14:18:58.490625  1121 net.cpp:156] Memory required for data: 491324448
I0403 14:18:58.490641  1121 layer_factory.hpp:77] Creating layer inception_3a/1x1
I0403 14:18:58.490664  1121 net.cpp:91] Creating Layer inception_3a/1x1
I0403 14:18:58.490681  1121 net.cpp:425] inception_3a/1x1 <- pool2/3x3_s2_pool2/3x3_s2_0_split_0
I0403 14:18:58.490701  1121 net.cpp:399] inception_3a/1x1 -> inception_3a/1x1
I0403 14:18:58.492285  1121 net.cpp:141] Setting up inception_3a/1x1
I0403 14:18:58.492316  1121 net.cpp:148] Top shape: 24 64 28 28 (1204224)
I0403 14:18:58.492333  1121 net.cpp:156] Memory required for data: 496141344
I0403 14:18:58.492354  1121 layer_factory.hpp:77] Creating layer inception_3a/relu_1x1
I0403 14:18:58.492373  1121 net.cpp:91] Creating Layer inception_3a/relu_1x1
I0403 14:18:58.492391  1121 net.cpp:425] inception_3a/relu_1x1 <- inception_3a/1x1
I0403 14:18:58.492410  1121 net.cpp:386] inception_3a/relu_1x1 -> inception_3a/1x1 (in-place)
I0403 14:18:58.492593  1121 net.cpp:141] Setting up inception_3a/relu_1x1
I0403 14:18:58.492619  1121 net.cpp:148] Top shape: 24 64 28 28 (1204224)
I0403 14:18:58.492633  1121 net.cpp:156] Memory required for data: 500958240
I0403 14:18:58.492650  1121 layer_factory.hpp:77] Creating layer inception_3a/3x3_reduce
I0403 14:18:58.492671  1121 net.cpp:91] Creating Layer inception_3a/3x3_reduce
I0403 14:18:58.492687  1121 net.cpp:425] inception_3a/3x3_reduce <- pool2/3x3_s2_pool2/3x3_s2_0_split_1
I0403 14:18:58.492708  1121 net.cpp:399] inception_3a/3x3_reduce -> inception_3a/3x3_reduce
I0403 14:18:58.494453  1121 net.cpp:141] Setting up inception_3a/3x3_reduce
I0403 14:18:58.494484  1121 net.cpp:148] Top shape: 24 96 28 28 (1806336)
I0403 14:18:58.494503  1121 net.cpp:156] Memory required for data: 508183584
I0403 14:18:58.494527  1121 layer_factory.hpp:77] Creating layer inception_3a/relu_3x3_reduce
I0403 14:18:58.494565  1121 net.cpp:91] Creating Layer inception_3a/relu_3x3_reduce
I0403 14:18:58.494585  1121 net.cpp:425] inception_3a/relu_3x3_reduce <- inception_3a/3x3_reduce
I0403 14:18:58.494603  1121 net.cpp:386] inception_3a/relu_3x3_reduce -> inception_3a/3x3_reduce (in-place)
I0403 14:18:58.494796  1121 net.cpp:141] Setting up inception_3a/relu_3x3_reduce
I0403 14:18:58.494822  1121 net.cpp:148] Top shape: 24 96 28 28 (1806336)
I0403 14:18:58.494837  1121 net.cpp:156] Memory required for data: 515408928
I0403 14:18:58.494853  1121 layer_factory.hpp:77] Creating layer inception_3a/3x3
I0403 14:18:58.494874  1121 net.cpp:91] Creating Layer inception_3a/3x3
I0403 14:18:58.494891  1121 net.cpp:425] inception_3a/3x3 <- inception_3a/3x3_reduce
I0403 14:18:58.494913  1121 net.cpp:399] inception_3a/3x3 -> inception_3a/3x3
I0403 14:18:58.496713  1121 net.cpp:141] Setting up inception_3a/3x3
I0403 14:18:58.496747  1121 net.cpp:148] Top shape: 24 128 28 28 (2408448)
I0403 14:18:58.496764  1121 net.cpp:156] Memory required for data: 525042720
I0403 14:18:58.496784  1121 layer_factory.hpp:77] Creating layer inception_3a/relu_3x3
I0403 14:18:58.496803  1121 net.cpp:91] Creating Layer inception_3a/relu_3x3
I0403 14:18:58.496820  1121 net.cpp:425] inception_3a/relu_3x3 <- inception_3a/3x3
I0403 14:18:58.496839  1121 net.cpp:386] inception_3a/relu_3x3 -> inception_3a/3x3 (in-place)
I0403 14:18:58.497134  1121 net.cpp:141] Setting up inception_3a/relu_3x3
I0403 14:18:58.497164  1121 net.cpp:148] Top shape: 24 128 28 28 (2408448)
I0403 14:18:58.497186  1121 net.cpp:156] Memory required for data: 534676512
I0403 14:18:58.497203  1121 layer_factory.hpp:77] Creating layer inception_3a/5x5_reduce
I0403 14:18:58.497228  1121 net.cpp:91] Creating Layer inception_3a/5x5_reduce
I0403 14:18:58.497247  1121 net.cpp:425] inception_3a/5x5_reduce <- pool2/3x3_s2_pool2/3x3_s2_0_split_2
I0403 14:18:58.497267  1121 net.cpp:399] inception_3a/5x5_reduce -> inception_3a/5x5_reduce
I0403 14:18:58.498301  1121 net.cpp:141] Setting up inception_3a/5x5_reduce
I0403 14:18:58.498332  1121 net.cpp:148] Top shape: 24 16 28 28 (301056)
I0403 14:18:58.498350  1121 net.cpp:156] Memory required for data: 535880736
I0403 14:18:58.498370  1121 layer_factory.hpp:77] Creating layer inception_3a/relu_5x5_reduce
I0403 14:18:58.498389  1121 net.cpp:91] Creating Layer inception_3a/relu_5x5_reduce
I0403 14:18:58.498406  1121 net.cpp:425] inception_3a/relu_5x5_reduce <- inception_3a/5x5_reduce
I0403 14:18:58.498428  1121 net.cpp:386] inception_3a/relu_5x5_reduce -> inception_3a/5x5_reduce (in-place)
I0403 14:18:58.498740  1121 net.cpp:141] Setting up inception_3a/relu_5x5_reduce
I0403 14:18:58.498769  1121 net.cpp:148] Top shape: 24 16 28 28 (301056)
I0403 14:18:58.498785  1121 net.cpp:156] Memory required for data: 537084960
I0403 14:18:58.498801  1121 layer_factory.hpp:77] Creating layer inception_3a/5x5
I0403 14:18:58.498826  1121 net.cpp:91] Creating Layer inception_3a/5x5
I0403 14:18:58.498843  1121 net.cpp:425] inception_3a/5x5 <- inception_3a/5x5_reduce
I0403 14:18:58.498867  1121 net.cpp:399] inception_3a/5x5 -> inception_3a/5x5
I0403 14:18:58.499959  1121 net.cpp:141] Setting up inception_3a/5x5
I0403 14:18:58.499987  1121 net.cpp:148] Top shape: 24 32 28 28 (602112)
I0403 14:18:58.500007  1121 net.cpp:156] Memory required for data: 539493408
I0403 14:18:58.500027  1121 layer_factory.hpp:77] Creating layer inception_3a/relu_5x5
I0403 14:18:58.500047  1121 net.cpp:91] Creating Layer inception_3a/relu_5x5
I0403 14:18:58.500064  1121 net.cpp:425] inception_3a/relu_5x5 <- inception_3a/5x5
I0403 14:18:58.500083  1121 net.cpp:386] inception_3a/relu_5x5 -> inception_3a/5x5 (in-place)
I0403 14:18:58.500272  1121 net.cpp:141] Setting up inception_3a/relu_5x5
I0403 14:18:58.500301  1121 net.cpp:148] Top shape: 24 32 28 28 (602112)
I0403 14:18:58.500319  1121 net.cpp:156] Memory required for data: 541901856
I0403 14:18:58.500335  1121 layer_factory.hpp:77] Creating layer inception_3a/pool
I0403 14:18:58.500355  1121 net.cpp:91] Creating Layer inception_3a/pool
I0403 14:18:58.500386  1121 net.cpp:425] inception_3a/pool <- pool2/3x3_s2_pool2/3x3_s2_0_split_3
I0403 14:18:58.500411  1121 net.cpp:399] inception_3a/pool -> inception_3a/pool
I0403 14:18:58.500473  1121 net.cpp:141] Setting up inception_3a/pool
I0403 14:18:58.500500  1121 net.cpp:148] Top shape: 24 192 28 28 (3612672)
I0403 14:18:58.500516  1121 net.cpp:156] Memory required for data: 556352544
I0403 14:18:58.500533  1121 layer_factory.hpp:77] Creating layer inception_3a/pool_proj
I0403 14:18:58.500555  1121 net.cpp:91] Creating Layer inception_3a/pool_proj
I0403 14:18:58.500572  1121 net.cpp:425] inception_3a/pool_proj <- inception_3a/pool
I0403 14:18:58.500598  1121 net.cpp:399] inception_3a/pool_proj -> inception_3a/pool_proj
I0403 14:18:58.501622  1121 net.cpp:141] Setting up inception_3a/pool_proj
I0403 14:18:58.501652  1121 net.cpp:148] Top shape: 24 32 28 28 (602112)
I0403 14:18:58.501668  1121 net.cpp:156] Memory required for data: 558760992
I0403 14:18:58.501694  1121 layer_factory.hpp:77] Creating layer inception_3a/relu_pool_proj
I0403 14:18:58.501715  1121 net.cpp:91] Creating Layer inception_3a/relu_pool_proj
I0403 14:18:58.501732  1121 net.cpp:425] inception_3a/relu_pool_proj <- inception_3a/pool_proj
I0403 14:18:58.501754  1121 net.cpp:386] inception_3a/relu_pool_proj -> inception_3a/pool_proj (in-place)
I0403 14:18:58.502043  1121 net.cpp:141] Setting up inception_3a/relu_pool_proj
I0403 14:18:58.502074  1121 net.cpp:148] Top shape: 24 32 28 28 (602112)
I0403 14:18:58.502090  1121 net.cpp:156] Memory required for data: 561169440
I0403 14:18:58.502106  1121 layer_factory.hpp:77] Creating layer inception_3a/output
I0403 14:18:58.502125  1121 net.cpp:91] Creating Layer inception_3a/output
I0403 14:18:58.502142  1121 net.cpp:425] inception_3a/output <- inception_3a/1x1
I0403 14:18:58.502161  1121 net.cpp:425] inception_3a/output <- inception_3a/3x3
I0403 14:18:58.502188  1121 net.cpp:425] inception_3a/output <- inception_3a/5x5
I0403 14:18:58.502209  1121 net.cpp:425] inception_3a/output <- inception_3a/pool_proj
I0403 14:18:58.502228  1121 net.cpp:399] inception_3a/output -> inception_3a/output
I0403 14:18:58.502281  1121 net.cpp:141] Setting up inception_3a/output
I0403 14:18:58.502306  1121 net.cpp:148] Top shape: 24 256 28 28 (4816896)
I0403 14:18:58.502321  1121 net.cpp:156] Memory required for data: 580437024
I0403 14:18:58.502338  1121 layer_factory.hpp:77] Creating layer inception_3a/output_inception_3a/output_0_split
I0403 14:18:58.502359  1121 net.cpp:91] Creating Layer inception_3a/output_inception_3a/output_0_split
I0403 14:18:58.502377  1121 net.cpp:425] inception_3a/output_inception_3a/output_0_split <- inception_3a/output
I0403 14:18:58.502395  1121 net.cpp:399] inception_3a/output_inception_3a/output_0_split -> inception_3a/output_inception_3a/output_0_split_0
I0403 14:18:58.502416  1121 net.cpp:399] inception_3a/output_inception_3a/output_0_split -> inception_3a/output_inception_3a/output_0_split_1
I0403 14:18:58.502444  1121 net.cpp:399] inception_3a/output_inception_3a/output_0_split -> inception_3a/output_inception_3a/output_0_split_2
I0403 14:18:58.502466  1121 net.cpp:399] inception_3a/output_inception_3a/output_0_split -> inception_3a/output_inception_3a/output_0_split_3
I0403 14:18:58.502549  1121 net.cpp:141] Setting up inception_3a/output_inception_3a/output_0_split
I0403 14:18:58.502573  1121 net.cpp:148] Top shape: 24 256 28 28 (4816896)
I0403 14:18:58.502591  1121 net.cpp:148] Top shape: 24 256 28 28 (4816896)
I0403 14:18:58.502607  1121 net.cpp:148] Top shape: 24 256 28 28 (4816896)
I0403 14:18:58.502624  1121 net.cpp:148] Top shape: 24 256 28 28 (4816896)
I0403 14:18:58.502640  1121 net.cpp:156] Memory required for data: 657507360
I0403 14:18:58.502655  1121 layer_factory.hpp:77] Creating layer inception_3b/1x1
I0403 14:18:58.502681  1121 net.cpp:91] Creating Layer inception_3b/1x1
I0403 14:18:58.502701  1121 net.cpp:425] inception_3b/1x1 <- inception_3a/output_inception_3a/output_0_split_0
I0403 14:18:58.502720  1121 net.cpp:399] inception_3b/1x1 -> inception_3b/1x1
I0403 14:18:58.503939  1121 net.cpp:141] Setting up inception_3b/1x1
I0403 14:18:58.503980  1121 net.cpp:148] Top shape: 24 128 28 28 (2408448)
I0403 14:18:58.503998  1121 net.cpp:156] Memory required for data: 667141152
I0403 14:18:58.504017  1121 layer_factory.hpp:77] Creating layer inception_3b/relu_1x1
I0403 14:18:58.504040  1121 net.cpp:91] Creating Layer inception_3b/relu_1x1
I0403 14:18:58.504057  1121 net.cpp:425] inception_3b/relu_1x1 <- inception_3b/1x1
I0403 14:18:58.504076  1121 net.cpp:386] inception_3b/relu_1x1 -> inception_3b/1x1 (in-place)
I0403 14:18:58.504264  1121 net.cpp:141] Setting up inception_3b/relu_1x1
I0403 14:18:58.504293  1121 net.cpp:148] Top shape: 24 128 28 28 (2408448)
I0403 14:18:58.504310  1121 net.cpp:156] Memory required for data: 676774944
I0403 14:18:58.504326  1121 layer_factory.hpp:77] Creating layer inception_3b/3x3_reduce
I0403 14:18:58.504354  1121 net.cpp:91] Creating Layer inception_3b/3x3_reduce
I0403 14:18:58.504372  1121 net.cpp:425] inception_3b/3x3_reduce <- inception_3a/output_inception_3a/output_0_split_1
I0403 14:18:58.504393  1121 net.cpp:399] inception_3b/3x3_reduce -> inception_3b/3x3_reduce
I0403 14:18:58.505604  1121 net.cpp:141] Setting up inception_3b/3x3_reduce
I0403 14:18:58.505633  1121 net.cpp:148] Top shape: 24 128 28 28 (2408448)
I0403 14:18:58.505650  1121 net.cpp:156] Memory required for data: 686408736
I0403 14:18:58.505669  1121 layer_factory.hpp:77] Creating layer inception_3b/relu_3x3_reduce
I0403 14:18:58.505692  1121 net.cpp:91] Creating Layer inception_3b/relu_3x3_reduce
I0403 14:18:58.505708  1121 net.cpp:425] inception_3b/relu_3x3_reduce <- inception_3b/3x3_reduce
I0403 14:18:58.505727  1121 net.cpp:386] inception_3b/relu_3x3_reduce -> inception_3b/3x3_reduce (in-place)
I0403 14:18:58.505911  1121 net.cpp:141] Setting up inception_3b/relu_3x3_reduce
I0403 14:18:58.505939  1121 net.cpp:148] Top shape: 24 128 28 28 (2408448)
I0403 14:18:58.505956  1121 net.cpp:156] Memory required for data: 696042528
I0403 14:18:58.505972  1121 layer_factory.hpp:77] Creating layer inception_3b/3x3
I0403 14:18:58.506000  1121 net.cpp:91] Creating Layer inception_3b/3x3
I0403 14:18:58.506019  1121 net.cpp:425] inception_3b/3x3 <- inception_3b/3x3_reduce
I0403 14:18:58.506042  1121 net.cpp:399] inception_3b/3x3 -> inception_3b/3x3
I0403 14:18:58.509136  1121 net.cpp:141] Setting up inception_3b/3x3
I0403 14:18:58.509169  1121 net.cpp:148] Top shape: 24 192 28 28 (3612672)
I0403 14:18:58.509192  1121 net.cpp:156] Memory required for data: 710493216
I0403 14:18:58.509213  1121 layer_factory.hpp:77] Creating layer inception_3b/relu_3x3
I0403 14:18:58.509232  1121 net.cpp:91] Creating Layer inception_3b/relu_3x3
I0403 14:18:58.509250  1121 net.cpp:425] inception_3b/relu_3x3 <- inception_3b/3x3
I0403 14:18:58.509268  1121 net.cpp:386] inception_3b/relu_3x3 -> inception_3b/3x3 (in-place)
I0403 14:18:58.509563  1121 net.cpp:141] Setting up inception_3b/relu_3x3
I0403 14:18:58.509594  1121 net.cpp:148] Top shape: 24 192 28 28 (3612672)
I0403 14:18:58.509613  1121 net.cpp:156] Memory required for data: 724943904
I0403 14:18:58.509629  1121 layer_factory.hpp:77] Creating layer inception_3b/5x5_reduce
I0403 14:18:58.509652  1121 net.cpp:91] Creating Layer inception_3b/5x5_reduce
I0403 14:18:58.509671  1121 net.cpp:425] inception_3b/5x5_reduce <- inception_3a/output_inception_3a/output_0_split_2
I0403 14:18:58.509692  1121 net.cpp:399] inception_3b/5x5_reduce -> inception_3b/5x5_reduce
I0403 14:18:58.510745  1121 net.cpp:141] Setting up inception_3b/5x5_reduce
I0403 14:18:58.510776  1121 net.cpp:148] Top shape: 24 32 28 28 (602112)
I0403 14:18:58.510793  1121 net.cpp:156] Memory required for data: 727352352
I0403 14:18:58.510812  1121 layer_factory.hpp:77] Creating layer inception_3b/relu_5x5_reduce
I0403 14:18:58.510831  1121 net.cpp:91] Creating Layer inception_3b/relu_5x5_reduce
I0403 14:18:58.510849  1121 net.cpp:425] inception_3b/relu_5x5_reduce <- inception_3b/5x5_reduce
I0403 14:18:58.510867  1121 net.cpp:386] inception_3b/relu_5x5_reduce -> inception_3b/5x5_reduce (in-place)
I0403 14:18:58.511070  1121 net.cpp:141] Setting up inception_3b/relu_5x5_reduce
I0403 14:18:58.511098  1121 net.cpp:148] Top shape: 24 32 28 28 (602112)
I0403 14:18:58.511116  1121 net.cpp:156] Memory required for data: 729760800
I0403 14:18:58.511132  1121 layer_factory.hpp:77] Creating layer inception_3b/5x5
I0403 14:18:58.511155  1121 net.cpp:91] Creating Layer inception_3b/5x5
I0403 14:18:58.511174  1121 net.cpp:425] inception_3b/5x5 <- inception_3b/5x5_reduce
I0403 14:18:58.511203  1121 net.cpp:399] inception_3b/5x5 -> inception_3b/5x5
I0403 14:18:58.513314  1121 net.cpp:141] Setting up inception_3b/5x5
I0403 14:18:58.513347  1121 net.cpp:148] Top shape: 24 96 28 28 (1806336)
I0403 14:18:58.513365  1121 net.cpp:156] Memory required for data: 736986144
I0403 14:18:58.513384  1121 layer_factory.hpp:77] Creating layer inception_3b/relu_5x5
I0403 14:18:58.513406  1121 net.cpp:91] Creating Layer inception_3b/relu_5x5
I0403 14:18:58.513425  1121 net.cpp:425] inception_3b/relu_5x5 <- inception_3b/5x5
I0403 14:18:58.513443  1121 net.cpp:386] inception_3b/relu_5x5 -> inception_3b/5x5 (in-place)
I0403 14:18:58.513646  1121 net.cpp:141] Setting up inception_3b/relu_5x5
I0403 14:18:58.513674  1121 net.cpp:148] Top shape: 24 96 28 28 (1806336)
I0403 14:18:58.513689  1121 net.cpp:156] Memory required for data: 744211488
I0403 14:18:58.513705  1121 layer_factory.hpp:77] Creating layer inception_3b/pool
I0403 14:18:58.513725  1121 net.cpp:91] Creating Layer inception_3b/pool
I0403 14:18:58.513741  1121 net.cpp:425] inception_3b/pool <- inception_3a/output_inception_3a/output_0_split_3
I0403 14:18:58.513761  1121 net.cpp:399] inception_3b/pool -> inception_3b/pool
I0403 14:18:58.513823  1121 net.cpp:141] Setting up inception_3b/pool
I0403 14:18:58.513846  1121 net.cpp:148] Top shape: 24 256 28 28 (4816896)
I0403 14:18:58.513862  1121 net.cpp:156] Memory required for data: 763479072
I0403 14:18:58.513878  1121 layer_factory.hpp:77] Creating layer inception_3b/pool_proj
I0403 14:18:58.513902  1121 net.cpp:91] Creating Layer inception_3b/pool_proj
I0403 14:18:58.513921  1121 net.cpp:425] inception_3b/pool_proj <- inception_3b/pool
I0403 14:18:58.513942  1121 net.cpp:399] inception_3b/pool_proj -> inception_3b/pool_proj
I0403 14:18:58.515063  1121 net.cpp:141] Setting up inception_3b/pool_proj
I0403 14:18:58.515090  1121 net.cpp:148] Top shape: 24 64 28 28 (1204224)
I0403 14:18:58.515107  1121 net.cpp:156] Memory required for data: 768295968
I0403 14:18:58.515127  1121 layer_factory.hpp:77] Creating layer inception_3b/relu_pool_proj
I0403 14:18:58.515146  1121 net.cpp:91] Creating Layer inception_3b/relu_pool_proj
I0403 14:18:58.515163  1121 net.cpp:425] inception_3b/relu_pool_proj <- inception_3b/pool_proj
I0403 14:18:58.515189  1121 net.cpp:386] inception_3b/relu_pool_proj -> inception_3b/pool_proj (in-place)
I0403 14:18:58.515646  1121 net.cpp:141] Setting up inception_3b/relu_pool_proj
I0403 14:18:58.515674  1121 net.cpp:148] Top shape: 24 64 28 28 (1204224)
I0403 14:18:58.515691  1121 net.cpp:156] Memory required for data: 773112864
I0403 14:18:58.515707  1121 layer_factory.hpp:77] Creating layer inception_3b/output
I0403 14:18:58.515724  1121 net.cpp:91] Creating Layer inception_3b/output
I0403 14:18:58.515740  1121 net.cpp:425] inception_3b/output <- inception_3b/1x1
I0403 14:18:58.515758  1121 net.cpp:425] inception_3b/output <- inception_3b/3x3
I0403 14:18:58.515775  1121 net.cpp:425] inception_3b/output <- inception_3b/5x5
I0403 14:18:58.515791  1121 net.cpp:425] inception_3b/output <- inception_3b/pool_proj
I0403 14:18:58.515812  1121 net.cpp:399] inception_3b/output -> inception_3b/output
I0403 14:18:58.515864  1121 net.cpp:141] Setting up inception_3b/output
I0403 14:18:58.515887  1121 net.cpp:148] Top shape: 24 480 28 28 (9031680)
I0403 14:18:58.515907  1121 net.cpp:156] Memory required for data: 809239584
I0403 14:18:58.515923  1121 layer_factory.hpp:77] Creating layer pool3/3x3_s2
I0403 14:18:58.515940  1121 net.cpp:91] Creating Layer pool3/3x3_s2
I0403 14:18:58.515956  1121 net.cpp:425] pool3/3x3_s2 <- inception_3b/output
I0403 14:18:58.515990  1121 net.cpp:399] pool3/3x3_s2 -> pool3/3x3_s2
I0403 14:18:58.516053  1121 net.cpp:141] Setting up pool3/3x3_s2
I0403 14:18:58.516077  1121 net.cpp:148] Top shape: 24 480 14 14 (2257920)
I0403 14:18:58.516093  1121 net.cpp:156] Memory required for data: 818271264
I0403 14:18:58.516108  1121 layer_factory.hpp:77] Creating layer pool3/3x3_s2_pool3/3x3_s2_0_split
I0403 14:18:58.516126  1121 net.cpp:91] Creating Layer pool3/3x3_s2_pool3/3x3_s2_0_split
I0403 14:18:58.516142  1121 net.cpp:425] pool3/3x3_s2_pool3/3x3_s2_0_split <- pool3/3x3_s2
I0403 14:18:58.516162  1121 net.cpp:399] pool3/3x3_s2_pool3/3x3_s2_0_split -> pool3/3x3_s2_pool3/3x3_s2_0_split_0
I0403 14:18:58.516187  1121 net.cpp:399] pool3/3x3_s2_pool3/3x3_s2_0_split -> pool3/3x3_s2_pool3/3x3_s2_0_split_1
I0403 14:18:58.516211  1121 net.cpp:399] pool3/3x3_s2_pool3/3x3_s2_0_split -> pool3/3x3_s2_pool3/3x3_s2_0_split_2
I0403 14:18:58.516232  1121 net.cpp:399] pool3/3x3_s2_pool3/3x3_s2_0_split -> pool3/3x3_s2_pool3/3x3_s2_0_split_3
I0403 14:18:58.516314  1121 net.cpp:141] Setting up pool3/3x3_s2_pool3/3x3_s2_0_split
I0403 14:18:58.516337  1121 net.cpp:148] Top shape: 24 480 14 14 (2257920)
I0403 14:18:58.516355  1121 net.cpp:148] Top shape: 24 480 14 14 (2257920)
I0403 14:18:58.516371  1121 net.cpp:148] Top shape: 24 480 14 14 (2257920)
I0403 14:18:58.516386  1121 net.cpp:148] Top shape: 24 480 14 14 (2257920)
I0403 14:18:58.516402  1121 net.cpp:156] Memory required for data: 854397984
I0403 14:18:58.516417  1121 layer_factory.hpp:77] Creating layer inception_4a/1x1
I0403 14:18:58.516441  1121 net.cpp:91] Creating Layer inception_4a/1x1
I0403 14:18:58.516459  1121 net.cpp:425] inception_4a/1x1 <- pool3/3x3_s2_pool3/3x3_s2_0_split_0
I0403 14:18:58.516481  1121 net.cpp:399] inception_4a/1x1 -> inception_4a/1x1
I0403 14:18:58.518084  1121 net.cpp:141] Setting up inception_4a/1x1
I0403 14:18:58.518112  1121 net.cpp:148] Top shape: 24 192 14 14 (903168)
I0403 14:18:58.518128  1121 net.cpp:156] Memory required for data: 858010656
I0403 14:18:58.518147  1121 layer_factory.hpp:77] Creating layer inception_4a/relu_1x1
I0403 14:18:58.518168  1121 net.cpp:91] Creating Layer inception_4a/relu_1x1
I0403 14:18:58.518190  1121 net.cpp:425] inception_4a/relu_1x1 <- inception_4a/1x1
I0403 14:18:58.518208  1121 net.cpp:386] inception_4a/relu_1x1 -> inception_4a/1x1 (in-place)
I0403 14:18:58.518388  1121 net.cpp:141] Setting up inception_4a/relu_1x1
I0403 14:18:58.518412  1121 net.cpp:148] Top shape: 24 192 14 14 (903168)
I0403 14:18:58.518429  1121 net.cpp:156] Memory required for data: 861623328
I0403 14:18:58.518445  1121 layer_factory.hpp:77] Creating layer inception_4a/3x3_reduce
I0403 14:18:58.518470  1121 net.cpp:91] Creating Layer inception_4a/3x3_reduce
I0403 14:18:58.518488  1121 net.cpp:425] inception_4a/3x3_reduce <- pool3/3x3_s2_pool3/3x3_s2_0_split_1
I0403 14:18:58.518508  1121 net.cpp:399] inception_4a/3x3_reduce -> inception_4a/3x3_reduce
I0403 14:18:58.519827  1121 net.cpp:141] Setting up inception_4a/3x3_reduce
I0403 14:18:58.519855  1121 net.cpp:148] Top shape: 24 96 14 14 (451584)
I0403 14:18:58.519871  1121 net.cpp:156] Memory required for data: 863429664
I0403 14:18:58.519898  1121 layer_factory.hpp:77] Creating layer inception_4a/relu_3x3_reduce
I0403 14:18:58.519918  1121 net.cpp:91] Creating Layer inception_4a/relu_3x3_reduce
I0403 14:18:58.519935  1121 net.cpp:425] inception_4a/relu_3x3_reduce <- inception_4a/3x3_reduce
I0403 14:18:58.519955  1121 net.cpp:386] inception_4a/relu_3x3_reduce -> inception_4a/3x3_reduce (in-place)
I0403 14:18:58.520139  1121 net.cpp:141] Setting up inception_4a/relu_3x3_reduce
I0403 14:18:58.520165  1121 net.cpp:148] Top shape: 24 96 14 14 (451584)
I0403 14:18:58.520184  1121 net.cpp:156] Memory required for data: 865236000
I0403 14:18:58.520201  1121 layer_factory.hpp:77] Creating layer inception_4a/3x3
I0403 14:18:58.520225  1121 net.cpp:91] Creating Layer inception_4a/3x3
I0403 14:18:58.520242  1121 net.cpp:425] inception_4a/3x3 <- inception_4a/3x3_reduce
I0403 14:18:58.520265  1121 net.cpp:399] inception_4a/3x3 -> inception_4a/3x3
I0403 14:18:58.523025  1121 net.cpp:141] Setting up inception_4a/3x3
I0403 14:18:58.523054  1121 net.cpp:148] Top shape: 24 208 14 14 (978432)
I0403 14:18:58.523071  1121 net.cpp:156] Memory required for data: 869149728
I0403 14:18:58.523089  1121 layer_factory.hpp:77] Creating layer inception_4a/relu_3x3
I0403 14:18:58.523110  1121 net.cpp:91] Creating Layer inception_4a/relu_3x3
I0403 14:18:58.523128  1121 net.cpp:425] inception_4a/relu_3x3 <- inception_4a/3x3
I0403 14:18:58.523146  1121 net.cpp:386] inception_4a/relu_3x3 -> inception_4a/3x3 (in-place)
I0403 14:18:58.523439  1121 net.cpp:141] Setting up inception_4a/relu_3x3
I0403 14:18:58.523466  1121 net.cpp:148] Top shape: 24 208 14 14 (978432)
I0403 14:18:58.523481  1121 net.cpp:156] Memory required for data: 873063456
I0403 14:18:58.523497  1121 layer_factory.hpp:77] Creating layer inception_4a/5x5_reduce
I0403 14:18:58.523520  1121 net.cpp:91] Creating Layer inception_4a/5x5_reduce
I0403 14:18:58.523538  1121 net.cpp:425] inception_4a/5x5_reduce <- pool3/3x3_s2_pool3/3x3_s2_0_split_2
I0403 14:18:58.523561  1121 net.cpp:399] inception_4a/5x5_reduce -> inception_4a/5x5_reduce
I0403 14:18:58.524621  1121 net.cpp:141] Setting up inception_4a/5x5_reduce
I0403 14:18:58.524648  1121 net.cpp:148] Top shape: 24 16 14 14 (75264)
I0403 14:18:58.524667  1121 net.cpp:156] Memory required for data: 873364512
I0403 14:18:58.524687  1121 layer_factory.hpp:77] Creating layer inception_4a/relu_5x5_reduce
I0403 14:18:58.524705  1121 net.cpp:91] Creating Layer inception_4a/relu_5x5_reduce
I0403 14:18:58.524723  1121 net.cpp:425] inception_4a/relu_5x5_reduce <- inception_4a/5x5_reduce
I0403 14:18:58.524740  1121 net.cpp:386] inception_4a/relu_5x5_reduce -> inception_4a/5x5_reduce (in-place)
I0403 14:18:58.524922  1121 net.cpp:141] Setting up inception_4a/relu_5x5_reduce
I0403 14:18:58.524950  1121 net.cpp:148] Top shape: 24 16 14 14 (75264)
I0403 14:18:58.524966  1121 net.cpp:156] Memory required for data: 873665568
I0403 14:18:58.524981  1121 layer_factory.hpp:77] Creating layer inception_4a/5x5
I0403 14:18:58.525004  1121 net.cpp:91] Creating Layer inception_4a/5x5
I0403 14:18:58.525022  1121 net.cpp:425] inception_4a/5x5 <- inception_4a/5x5_reduce
I0403 14:18:58.525043  1121 net.cpp:399] inception_4a/5x5 -> inception_4a/5x5
I0403 14:18:58.526165  1121 net.cpp:141] Setting up inception_4a/5x5
I0403 14:18:58.526197  1121 net.cpp:148] Top shape: 24 48 14 14 (225792)
I0403 14:18:58.526213  1121 net.cpp:156] Memory required for data: 874568736
I0403 14:18:58.526232  1121 layer_factory.hpp:77] Creating layer inception_4a/relu_5x5
I0403 14:18:58.526252  1121 net.cpp:91] Creating Layer inception_4a/relu_5x5
I0403 14:18:58.526268  1121 net.cpp:425] inception_4a/relu_5x5 <- inception_4a/5x5
I0403 14:18:58.526288  1121 net.cpp:386] inception_4a/relu_5x5 -> inception_4a/5x5 (in-place)
I0403 14:18:58.526473  1121 net.cpp:141] Setting up inception_4a/relu_5x5
I0403 14:18:58.526499  1121 net.cpp:148] Top shape: 24 48 14 14 (225792)
I0403 14:18:58.526515  1121 net.cpp:156] Memory required for data: 875471904
I0403 14:18:58.526530  1121 layer_factory.hpp:77] Creating layer inception_4a/pool
I0403 14:18:58.526551  1121 net.cpp:91] Creating Layer inception_4a/pool
I0403 14:18:58.526567  1121 net.cpp:425] inception_4a/pool <- pool3/3x3_s2_pool3/3x3_s2_0_split_3
I0403 14:18:58.526587  1121 net.cpp:399] inception_4a/pool -> inception_4a/pool
I0403 14:18:58.526650  1121 net.cpp:141] Setting up inception_4a/pool
I0403 14:18:58.526674  1121 net.cpp:148] Top shape: 24 480 14 14 (2257920)
I0403 14:18:58.526690  1121 net.cpp:156] Memory required for data: 884503584
I0403 14:18:58.526705  1121 layer_factory.hpp:77] Creating layer inception_4a/pool_proj
I0403 14:18:58.526728  1121 net.cpp:91] Creating Layer inception_4a/pool_proj
I0403 14:18:58.526746  1121 net.cpp:425] inception_4a/pool_proj <- inception_4a/pool
I0403 14:18:58.526768  1121 net.cpp:399] inception_4a/pool_proj -> inception_4a/pool_proj
I0403 14:18:58.527972  1121 net.cpp:141] Setting up inception_4a/pool_proj
I0403 14:18:58.528002  1121 net.cpp:148] Top shape: 24 64 14 14 (301056)
I0403 14:18:58.528035  1121 net.cpp:156] Memory required for data: 885707808
I0403 14:18:58.528055  1121 layer_factory.hpp:77] Creating layer inception_4a/relu_pool_proj
I0403 14:18:58.528075  1121 net.cpp:91] Creating Layer inception_4a/relu_pool_proj
I0403 14:18:58.528093  1121 net.cpp:425] inception_4a/relu_pool_proj <- inception_4a/pool_proj
I0403 14:18:58.528115  1121 net.cpp:386] inception_4a/relu_pool_proj -> inception_4a/pool_proj (in-place)
I0403 14:18:58.528410  1121 net.cpp:141] Setting up inception_4a/relu_pool_proj
I0403 14:18:58.528437  1121 net.cpp:148] Top shape: 24 64 14 14 (301056)
I0403 14:18:58.528453  1121 net.cpp:156] Memory required for data: 886912032
I0403 14:18:58.528470  1121 layer_factory.hpp:77] Creating layer inception_4a/output
I0403 14:18:58.528487  1121 net.cpp:91] Creating Layer inception_4a/output
I0403 14:18:58.528503  1121 net.cpp:425] inception_4a/output <- inception_4a/1x1
I0403 14:18:58.528522  1121 net.cpp:425] inception_4a/output <- inception_4a/3x3
I0403 14:18:58.528538  1121 net.cpp:425] inception_4a/output <- inception_4a/5x5
I0403 14:18:58.528555  1121 net.cpp:425] inception_4a/output <- inception_4a/pool_proj
I0403 14:18:58.528575  1121 net.cpp:399] inception_4a/output -> inception_4a/output
I0403 14:18:58.528622  1121 net.cpp:141] Setting up inception_4a/output
I0403 14:18:58.528648  1121 net.cpp:148] Top shape: 24 512 14 14 (2408448)
I0403 14:18:58.528664  1121 net.cpp:156] Memory required for data: 896545824
I0403 14:18:58.528679  1121 layer_factory.hpp:77] Creating layer inception_4a/output_inception_4a/output_0_split
I0403 14:18:58.528697  1121 net.cpp:91] Creating Layer inception_4a/output_inception_4a/output_0_split
I0403 14:18:58.528714  1121 net.cpp:425] inception_4a/output_inception_4a/output_0_split <- inception_4a/output
I0403 14:18:58.528733  1121 net.cpp:399] inception_4a/output_inception_4a/output_0_split -> inception_4a/output_inception_4a/output_0_split_0
I0403 14:18:58.528758  1121 net.cpp:399] inception_4a/output_inception_4a/output_0_split -> inception_4a/output_inception_4a/output_0_split_1
I0403 14:18:58.528779  1121 net.cpp:399] inception_4a/output_inception_4a/output_0_split -> inception_4a/output_inception_4a/output_0_split_2
I0403 14:18:58.528801  1121 net.cpp:399] inception_4a/output_inception_4a/output_0_split -> inception_4a/output_inception_4a/output_0_split_3
I0403 14:18:58.528821  1121 net.cpp:399] inception_4a/output_inception_4a/output_0_split -> inception_4a/output_inception_4a/output_0_split_4
I0403 14:18:58.528918  1121 net.cpp:141] Setting up inception_4a/output_inception_4a/output_0_split
I0403 14:18:58.528944  1121 net.cpp:148] Top shape: 24 512 14 14 (2408448)
I0403 14:18:58.528962  1121 net.cpp:148] Top shape: 24 512 14 14 (2408448)
I0403 14:18:58.528980  1121 net.cpp:148] Top shape: 24 512 14 14 (2408448)
I0403 14:18:58.528996  1121 net.cpp:148] Top shape: 24 512 14 14 (2408448)
I0403 14:18:58.529012  1121 net.cpp:148] Top shape: 24 512 14 14 (2408448)
I0403 14:18:58.529027  1121 net.cpp:156] Memory required for data: 944714784
I0403 14:18:58.529043  1121 layer_factory.hpp:77] Creating layer loss1/ave_pool
I0403 14:18:58.529062  1121 net.cpp:91] Creating Layer loss1/ave_pool
I0403 14:18:58.529078  1121 net.cpp:425] loss1/ave_pool <- inception_4a/output_inception_4a/output_0_split_0
I0403 14:18:58.529098  1121 net.cpp:399] loss1/ave_pool -> loss1/ave_pool
I0403 14:18:58.529338  1121 net.cpp:141] Setting up loss1/ave_pool
I0403 14:18:58.529366  1121 net.cpp:148] Top shape: 24 512 4 4 (196608)
I0403 14:18:58.529381  1121 net.cpp:156] Memory required for data: 945501216
I0403 14:18:58.529398  1121 layer_factory.hpp:77] Creating layer loss1/conv
I0403 14:18:58.529422  1121 net.cpp:91] Creating Layer loss1/conv
I0403 14:18:58.529441  1121 net.cpp:425] loss1/conv <- loss1/ave_pool
I0403 14:18:58.529464  1121 net.cpp:399] loss1/conv -> loss1/conv
I0403 14:18:58.530961  1121 net.cpp:141] Setting up loss1/conv
I0403 14:18:58.530992  1121 net.cpp:148] Top shape: 24 128 4 4 (49152)
I0403 14:18:58.531023  1121 net.cpp:156] Memory required for data: 945697824
I0403 14:18:58.531044  1121 layer_factory.hpp:77] Creating layer loss1/relu_conv
I0403 14:18:58.531066  1121 net.cpp:91] Creating Layer loss1/relu_conv
I0403 14:18:58.531085  1121 net.cpp:425] loss1/relu_conv <- loss1/conv
I0403 14:18:58.531105  1121 net.cpp:386] loss1/relu_conv -> loss1/conv (in-place)
I0403 14:18:58.531540  1121 net.cpp:141] Setting up loss1/relu_conv
I0403 14:18:58.531569  1121 net.cpp:148] Top shape: 24 128 4 4 (49152)
I0403 14:18:58.531585  1121 net.cpp:156] Memory required for data: 945894432
I0403 14:18:58.531602  1121 layer_factory.hpp:77] Creating layer loss1/fc
I0403 14:18:58.531630  1121 net.cpp:91] Creating Layer loss1/fc
I0403 14:18:58.531649  1121 net.cpp:425] loss1/fc <- loss1/conv
I0403 14:18:58.531669  1121 net.cpp:399] loss1/fc -> loss1/fc
I0403 14:18:58.550534  1121 net.cpp:141] Setting up loss1/fc
I0403 14:18:58.550604  1121 net.cpp:148] Top shape: 24 1024 (24576)
I0403 14:18:58.550621  1121 net.cpp:156] Memory required for data: 945992736
I0403 14:18:58.550642  1121 layer_factory.hpp:77] Creating layer loss1/relu_fc
I0403 14:18:58.550662  1121 net.cpp:91] Creating Layer loss1/relu_fc
I0403 14:18:58.550680  1121 net.cpp:425] loss1/relu_fc <- loss1/fc
I0403 14:18:58.550703  1121 net.cpp:386] loss1/relu_fc -> loss1/fc (in-place)
I0403 14:18:58.550923  1121 net.cpp:141] Setting up loss1/relu_fc
I0403 14:18:58.550950  1121 net.cpp:148] Top shape: 24 1024 (24576)
I0403 14:18:58.550964  1121 net.cpp:156] Memory required for data: 946091040
I0403 14:18:58.550979  1121 layer_factory.hpp:77] Creating layer loss1/drop_fc
I0403 14:18:58.551012  1121 net.cpp:91] Creating Layer loss1/drop_fc
I0403 14:18:58.551028  1121 net.cpp:425] loss1/drop_fc <- loss1/fc
I0403 14:18:58.551048  1121 net.cpp:386] loss1/drop_fc -> loss1/fc (in-place)
I0403 14:18:58.551101  1121 net.cpp:141] Setting up loss1/drop_fc
I0403 14:18:58.551128  1121 net.cpp:148] Top shape: 24 1024 (24576)
I0403 14:18:58.551144  1121 net.cpp:156] Memory required for data: 946189344
I0403 14:18:58.551162  1121 layer_factory.hpp:77] Creating layer loss1/classifier_plantvillage
I0403 14:18:58.551184  1121 net.cpp:91] Creating Layer loss1/classifier_plantvillage
I0403 14:18:58.551201  1121 net.cpp:425] loss1/classifier_plantvillage <- loss1/fc
I0403 14:18:58.551223  1121 net.cpp:399] loss1/classifier_plantvillage -> loss1/classifier_plantvillage
I0403 14:18:58.552201  1121 net.cpp:141] Setting up loss1/classifier_plantvillage
I0403 14:18:58.552230  1121 net.cpp:148] Top shape: 24 38 (912)
I0403 14:18:58.552245  1121 net.cpp:156] Memory required for data: 946192992
I0403 14:18:58.552264  1121 layer_factory.hpp:77] Creating layer loss1/classifier_plantvillage_loss1/classifier_plantvillage_0_split
I0403 14:18:58.552286  1121 net.cpp:91] Creating Layer loss1/classifier_plantvillage_loss1/classifier_plantvillage_0_split
I0403 14:18:58.552304  1121 net.cpp:425] loss1/classifier_plantvillage_loss1/classifier_plantvillage_0_split <- loss1/classifier_plantvillage
I0403 14:18:58.552322  1121 net.cpp:399] loss1/classifier_plantvillage_loss1/classifier_plantvillage_0_split -> loss1/classifier_plantvillage_loss1/classifier_plantvillage_0_split_0
I0403 14:18:58.552343  1121 net.cpp:399] loss1/classifier_plantvillage_loss1/classifier_plantvillage_0_split -> loss1/classifier_plantvillage_loss1/classifier_plantvillage_0_split_1
I0403 14:18:58.552366  1121 net.cpp:399] loss1/classifier_plantvillage_loss1/classifier_plantvillage_0_split -> loss1/classifier_plantvillage_loss1/classifier_plantvillage_0_split_2
I0403 14:18:58.552436  1121 net.cpp:141] Setting up loss1/classifier_plantvillage_loss1/classifier_plantvillage_0_split
I0403 14:18:58.552459  1121 net.cpp:148] Top shape: 24 38 (912)
I0403 14:18:58.552476  1121 net.cpp:148] Top shape: 24 38 (912)
I0403 14:18:58.552492  1121 net.cpp:148] Top shape: 24 38 (912)
I0403 14:18:58.552507  1121 net.cpp:156] Memory required for data: 946203936
I0403 14:18:58.552522  1121 layer_factory.hpp:77] Creating layer inception_4b/1x1
I0403 14:18:58.552544  1121 net.cpp:91] Creating Layer inception_4b/1x1
I0403 14:18:58.552585  1121 net.cpp:425] inception_4b/1x1 <- inception_4a/output_inception_4a/output_0_split_1
I0403 14:18:58.552608  1121 net.cpp:399] inception_4b/1x1 -> inception_4b/1x1
I0403 14:18:58.554425  1121 net.cpp:141] Setting up inception_4b/1x1
I0403 14:18:58.554455  1121 net.cpp:148] Top shape: 24 160 14 14 (752640)
I0403 14:18:58.554471  1121 net.cpp:156] Memory required for data: 949214496
I0403 14:18:58.554491  1121 layer_factory.hpp:77] Creating layer inception_4b/relu_1x1
I0403 14:18:58.554512  1121 net.cpp:91] Creating Layer inception_4b/relu_1x1
I0403 14:18:58.554529  1121 net.cpp:425] inception_4b/relu_1x1 <- inception_4b/1x1
I0403 14:18:58.554548  1121 net.cpp:386] inception_4b/relu_1x1 -> inception_4b/1x1 (in-place)
I0403 14:18:58.554733  1121 net.cpp:141] Setting up inception_4b/relu_1x1
I0403 14:18:58.554761  1121 net.cpp:148] Top shape: 24 160 14 14 (752640)
I0403 14:18:58.554777  1121 net.cpp:156] Memory required for data: 952225056
I0403 14:18:58.554793  1121 layer_factory.hpp:77] Creating layer inception_4b/3x3_reduce
I0403 14:18:58.554816  1121 net.cpp:91] Creating Layer inception_4b/3x3_reduce
I0403 14:18:58.554833  1121 net.cpp:425] inception_4b/3x3_reduce <- inception_4a/output_inception_4a/output_0_split_2
I0403 14:18:58.554853  1121 net.cpp:399] inception_4b/3x3_reduce -> inception_4b/3x3_reduce
I0403 14:18:58.556258  1121 net.cpp:141] Setting up inception_4b/3x3_reduce
I0403 14:18:58.556290  1121 net.cpp:148] Top shape: 24 112 14 14 (526848)
I0403 14:18:58.556308  1121 net.cpp:156] Memory required for data: 954332448
I0403 14:18:58.556327  1121 layer_factory.hpp:77] Creating layer inception_4b/relu_3x3_reduce
I0403 14:18:58.556346  1121 net.cpp:91] Creating Layer inception_4b/relu_3x3_reduce
I0403 14:18:58.556365  1121 net.cpp:425] inception_4b/relu_3x3_reduce <- inception_4b/3x3_reduce
I0403 14:18:58.556385  1121 net.cpp:386] inception_4b/relu_3x3_reduce -> inception_4b/3x3_reduce (in-place)
I0403 14:18:58.556677  1121 net.cpp:141] Setting up inception_4b/relu_3x3_reduce
I0403 14:18:58.556706  1121 net.cpp:148] Top shape: 24 112 14 14 (526848)
I0403 14:18:58.556723  1121 net.cpp:156] Memory required for data: 956439840
I0403 14:18:58.556740  1121 layer_factory.hpp:77] Creating layer inception_4b/3x3
I0403 14:18:58.556762  1121 net.cpp:91] Creating Layer inception_4b/3x3
I0403 14:18:58.556782  1121 net.cpp:425] inception_4b/3x3 <- inception_4b/3x3_reduce
I0403 14:18:58.556802  1121 net.cpp:399] inception_4b/3x3 -> inception_4b/3x3
I0403 14:18:58.559880  1121 net.cpp:141] Setting up inception_4b/3x3
I0403 14:18:58.559911  1121 net.cpp:148] Top shape: 24 224 14 14 (1053696)
I0403 14:18:58.559927  1121 net.cpp:156] Memory required for data: 960654624
I0403 14:18:58.559947  1121 layer_factory.hpp:77] Creating layer inception_4b/relu_3x3
I0403 14:18:58.559967  1121 net.cpp:91] Creating Layer inception_4b/relu_3x3
I0403 14:18:58.559984  1121 net.cpp:425] inception_4b/relu_3x3 <- inception_4b/3x3
I0403 14:18:58.560003  1121 net.cpp:386] inception_4b/relu_3x3 -> inception_4b/3x3 (in-place)
I0403 14:18:58.560191  1121 net.cpp:141] Setting up inception_4b/relu_3x3
I0403 14:18:58.560217  1121 net.cpp:148] Top shape: 24 224 14 14 (1053696)
I0403 14:18:58.560233  1121 net.cpp:156] Memory required for data: 964869408
I0403 14:18:58.560248  1121 layer_factory.hpp:77] Creating layer inception_4b/5x5_reduce
I0403 14:18:58.560273  1121 net.cpp:91] Creating Layer inception_4b/5x5_reduce
I0403 14:18:58.560292  1121 net.cpp:425] inception_4b/5x5_reduce <- inception_4a/output_inception_4a/output_0_split_3
I0403 14:18:58.560313  1121 net.cpp:399] inception_4b/5x5_reduce -> inception_4b/5x5_reduce
I0403 14:18:58.561437  1121 net.cpp:141] Setting up inception_4b/5x5_reduce
I0403 14:18:58.561465  1121 net.cpp:148] Top shape: 24 24 14 14 (112896)
I0403 14:18:58.561481  1121 net.cpp:156] Memory required for data: 965320992
I0403 14:18:58.561501  1121 layer_factory.hpp:77] Creating layer inception_4b/relu_5x5_reduce
I0403 14:18:58.561522  1121 net.cpp:91] Creating Layer inception_4b/relu_5x5_reduce
I0403 14:18:58.561554  1121 net.cpp:425] inception_4b/relu_5x5_reduce <- inception_4b/5x5_reduce
I0403 14:18:58.561574  1121 net.cpp:386] inception_4b/relu_5x5_reduce -> inception_4b/5x5_reduce (in-place)
I0403 14:18:58.561765  1121 net.cpp:141] Setting up inception_4b/relu_5x5_reduce
I0403 14:18:58.561790  1121 net.cpp:148] Top shape: 24 24 14 14 (112896)
I0403 14:18:58.561805  1121 net.cpp:156] Memory required for data: 965772576
I0403 14:18:58.561821  1121 layer_factory.hpp:77] Creating layer inception_4b/5x5
I0403 14:18:58.561843  1121 net.cpp:91] Creating Layer inception_4b/5x5
I0403 14:18:58.561861  1121 net.cpp:425] inception_4b/5x5 <- inception_4b/5x5_reduce
I0403 14:18:58.561883  1121 net.cpp:399] inception_4b/5x5 -> inception_4b/5x5
I0403 14:18:58.563187  1121 net.cpp:141] Setting up inception_4b/5x5
I0403 14:18:58.563216  1121 net.cpp:148] Top shape: 24 64 14 14 (301056)
I0403 14:18:58.563232  1121 net.cpp:156] Memory required for data: 966976800
I0403 14:18:58.563252  1121 layer_factory.hpp:77] Creating layer inception_4b/relu_5x5
I0403 14:18:58.563274  1121 net.cpp:91] Creating Layer inception_4b/relu_5x5
I0403 14:18:58.563292  1121 net.cpp:425] inception_4b/relu_5x5 <- inception_4b/5x5
I0403 14:18:58.563310  1121 net.cpp:386] inception_4b/relu_5x5 -> inception_4b/5x5 (in-place)
I0403 14:18:58.563601  1121 net.cpp:141] Setting up inception_4b/relu_5x5
I0403 14:18:58.563628  1121 net.cpp:148] Top shape: 24 64 14 14 (301056)
I0403 14:18:58.563644  1121 net.cpp:156] Memory required for data: 968181024
I0403 14:18:58.563660  1121 layer_factory.hpp:77] Creating layer inception_4b/pool
I0403 14:18:58.563681  1121 net.cpp:91] Creating Layer inception_4b/pool
I0403 14:18:58.563699  1121 net.cpp:425] inception_4b/pool <- inception_4a/output_inception_4a/output_0_split_4
I0403 14:18:58.563719  1121 net.cpp:399] inception_4b/pool -> inception_4b/pool
I0403 14:18:58.563786  1121 net.cpp:141] Setting up inception_4b/pool
I0403 14:18:58.563809  1121 net.cpp:148] Top shape: 24 512 14 14 (2408448)
I0403 14:18:58.563824  1121 net.cpp:156] Memory required for data: 977814816
I0403 14:18:58.563840  1121 layer_factory.hpp:77] Creating layer inception_4b/pool_proj
I0403 14:18:58.563863  1121 net.cpp:91] Creating Layer inception_4b/pool_proj
I0403 14:18:58.563881  1121 net.cpp:425] inception_4b/pool_proj <- inception_4b/pool
I0403 14:18:58.563902  1121 net.cpp:399] inception_4b/pool_proj -> inception_4b/pool_proj
I0403 14:18:58.565142  1121 net.cpp:141] Setting up inception_4b/pool_proj
I0403 14:18:58.565176  1121 net.cpp:148] Top shape: 24 64 14 14 (301056)
I0403 14:18:58.565198  1121 net.cpp:156] Memory required for data: 979019040
I0403 14:18:58.565218  1121 layer_factory.hpp:77] Creating layer inception_4b/relu_pool_proj
I0403 14:18:58.565237  1121 net.cpp:91] Creating Layer inception_4b/relu_pool_proj
I0403 14:18:58.565253  1121 net.cpp:425] inception_4b/relu_pool_proj <- inception_4b/pool_proj
I0403 14:18:58.565273  1121 net.cpp:386] inception_4b/relu_pool_proj -> inception_4b/pool_proj (in-place)
I0403 14:18:58.565460  1121 net.cpp:141] Setting up inception_4b/relu_pool_proj
I0403 14:18:58.565485  1121 net.cpp:148] Top shape: 24 64 14 14 (301056)
I0403 14:18:58.565500  1121 net.cpp:156] Memory required for data: 980223264
I0403 14:18:58.565516  1121 layer_factory.hpp:77] Creating layer inception_4b/output
I0403 14:18:58.565534  1121 net.cpp:91] Creating Layer inception_4b/output
I0403 14:18:58.565551  1121 net.cpp:425] inception_4b/output <- inception_4b/1x1
I0403 14:18:58.565567  1121 net.cpp:425] inception_4b/output <- inception_4b/3x3
I0403 14:18:58.565584  1121 net.cpp:425] inception_4b/output <- inception_4b/5x5
I0403 14:18:58.565600  1121 net.cpp:425] inception_4b/output <- inception_4b/pool_proj
I0403 14:18:58.565621  1121 net.cpp:399] inception_4b/output -> inception_4b/output
I0403 14:18:58.565670  1121 net.cpp:141] Setting up inception_4b/output
I0403 14:18:58.565692  1121 net.cpp:148] Top shape: 24 512 14 14 (2408448)
I0403 14:18:58.565708  1121 net.cpp:156] Memory required for data: 989857056
I0403 14:18:58.565738  1121 layer_factory.hpp:77] Creating layer inception_4b/output_inception_4b/output_0_split
I0403 14:18:58.565760  1121 net.cpp:91] Creating Layer inception_4b/output_inception_4b/output_0_split
I0403 14:18:58.565778  1121 net.cpp:425] inception_4b/output_inception_4b/output_0_split <- inception_4b/output
I0403 14:18:58.565796  1121 net.cpp:399] inception_4b/output_inception_4b/output_0_split -> inception_4b/output_inception_4b/output_0_split_0
I0403 14:18:58.565820  1121 net.cpp:399] inception_4b/output_inception_4b/output_0_split -> inception_4b/output_inception_4b/output_0_split_1
I0403 14:18:58.565842  1121 net.cpp:399] inception_4b/output_inception_4b/output_0_split -> inception_4b/output_inception_4b/output_0_split_2
I0403 14:18:58.565865  1121 net.cpp:399] inception_4b/output_inception_4b/output_0_split -> inception_4b/output_inception_4b/output_0_split_3
I0403 14:18:58.565950  1121 net.cpp:141] Setting up inception_4b/output_inception_4b/output_0_split
I0403 14:18:58.565974  1121 net.cpp:148] Top shape: 24 512 14 14 (2408448)
I0403 14:18:58.565991  1121 net.cpp:148] Top shape: 24 512 14 14 (2408448)
I0403 14:18:58.566009  1121 net.cpp:148] Top shape: 24 512 14 14 (2408448)
I0403 14:18:58.566030  1121 net.cpp:148] Top shape: 24 512 14 14 (2408448)
I0403 14:18:58.566045  1121 net.cpp:156] Memory required for data: 1028392224
I0403 14:18:58.566059  1121 layer_factory.hpp:77] Creating layer inception_4c/1x1
I0403 14:18:58.566083  1121 net.cpp:91] Creating Layer inception_4c/1x1
I0403 14:18:58.566102  1121 net.cpp:425] inception_4c/1x1 <- inception_4b/output_inception_4b/output_0_split_0
I0403 14:18:58.566124  1121 net.cpp:399] inception_4c/1x1 -> inception_4c/1x1
I0403 14:18:58.567667  1121 net.cpp:141] Setting up inception_4c/1x1
I0403 14:18:58.567695  1121 net.cpp:148] Top shape: 24 128 14 14 (602112)
I0403 14:18:58.567711  1121 net.cpp:156] Memory required for data: 1030800672
I0403 14:18:58.567731  1121 layer_factory.hpp:77] Creating layer inception_4c/relu_1x1
I0403 14:18:58.567749  1121 net.cpp:91] Creating Layer inception_4c/relu_1x1
I0403 14:18:58.567766  1121 net.cpp:425] inception_4c/relu_1x1 <- inception_4c/1x1
I0403 14:18:58.567787  1121 net.cpp:386] inception_4c/relu_1x1 -> inception_4c/1x1 (in-place)
I0403 14:18:58.567992  1121 net.cpp:141] Setting up inception_4c/relu_1x1
I0403 14:18:58.568019  1121 net.cpp:148] Top shape: 24 128 14 14 (602112)
I0403 14:18:58.568035  1121 net.cpp:156] Memory required for data: 1033209120
I0403 14:18:58.568051  1121 layer_factory.hpp:77] Creating layer inception_4c/3x3_reduce
I0403 14:18:58.568075  1121 net.cpp:91] Creating Layer inception_4c/3x3_reduce
I0403 14:18:58.568094  1121 net.cpp:425] inception_4c/3x3_reduce <- inception_4b/output_inception_4b/output_0_split_1
I0403 14:18:58.568130  1121 net.cpp:399] inception_4c/3x3_reduce -> inception_4c/3x3_reduce
I0403 14:18:58.570125  1121 net.cpp:141] Setting up inception_4c/3x3_reduce
I0403 14:18:58.570154  1121 net.cpp:148] Top shape: 24 128 14 14 (602112)
I0403 14:18:58.570171  1121 net.cpp:156] Memory required for data: 1035617568
I0403 14:18:58.570196  1121 layer_factory.hpp:77] Creating layer inception_4c/relu_3x3_reduce
I0403 14:18:58.570219  1121 net.cpp:91] Creating Layer inception_4c/relu_3x3_reduce
I0403 14:18:58.570235  1121 net.cpp:425] inception_4c/relu_3x3_reduce <- inception_4c/3x3_reduce
I0403 14:18:58.570255  1121 net.cpp:386] inception_4c/relu_3x3_reduce -> inception_4c/3x3_reduce (in-place)
I0403 14:18:58.570547  1121 net.cpp:141] Setting up inception_4c/relu_3x3_reduce
I0403 14:18:58.570574  1121 net.cpp:148] Top shape: 24 128 14 14 (602112)
I0403 14:18:58.570590  1121 net.cpp:156] Memory required for data: 1038026016
I0403 14:18:58.570605  1121 layer_factory.hpp:77] Creating layer inception_4c/3x3
I0403 14:18:58.570629  1121 net.cpp:91] Creating Layer inception_4c/3x3
I0403 14:18:58.570648  1121 net.cpp:425] inception_4c/3x3 <- inception_4c/3x3_reduce
I0403 14:18:58.570672  1121 net.cpp:399] inception_4c/3x3 -> inception_4c/3x3
I0403 14:18:58.574424  1121 net.cpp:141] Setting up inception_4c/3x3
I0403 14:18:58.574470  1121 net.cpp:148] Top shape: 24 256 14 14 (1204224)
I0403 14:18:58.574488  1121 net.cpp:156] Memory required for data: 1042842912
I0403 14:18:58.574520  1121 layer_factory.hpp:77] Creating layer inception_4c/relu_3x3
I0403 14:18:58.574542  1121 net.cpp:91] Creating Layer inception_4c/relu_3x3
I0403 14:18:58.574558  1121 net.cpp:425] inception_4c/relu_3x3 <- inception_4c/3x3
I0403 14:18:58.574576  1121 net.cpp:386] inception_4c/relu_3x3 -> inception_4c/3x3 (in-place)
I0403 14:18:58.574771  1121 net.cpp:141] Setting up inception_4c/relu_3x3
I0403 14:18:58.574798  1121 net.cpp:148] Top shape: 24 256 14 14 (1204224)
I0403 14:18:58.574815  1121 net.cpp:156] Memory required for data: 1047659808
I0403 14:18:58.574831  1121 layer_factory.hpp:77] Creating layer inception_4c/5x5_reduce
I0403 14:18:58.574853  1121 net.cpp:91] Creating Layer inception_4c/5x5_reduce
I0403 14:18:58.574872  1121 net.cpp:425] inception_4c/5x5_reduce <- inception_4b/output_inception_4b/output_0_split_2
I0403 14:18:58.574890  1121 net.cpp:399] inception_4c/5x5_reduce -> inception_4c/5x5_reduce
I0403 14:18:58.575989  1121 net.cpp:141] Setting up inception_4c/5x5_reduce
I0403 14:18:58.576015  1121 net.cpp:148] Top shape: 24 24 14 14 (112896)
I0403 14:18:58.576031  1121 net.cpp:156] Memory required for data: 1048111392
I0403 14:18:58.576050  1121 layer_factory.hpp:77] Creating layer inception_4c/relu_5x5_reduce
I0403 14:18:58.576071  1121 net.cpp:91] Creating Layer inception_4c/relu_5x5_reduce
I0403 14:18:58.576088  1121 net.cpp:425] inception_4c/relu_5x5_reduce <- inception_4c/5x5_reduce
I0403 14:18:58.576107  1121 net.cpp:386] inception_4c/relu_5x5_reduce -> inception_4c/5x5_reduce (in-place)
I0403 14:18:58.576315  1121 net.cpp:141] Setting up inception_4c/relu_5x5_reduce
I0403 14:18:58.576340  1121 net.cpp:148] Top shape: 24 24 14 14 (112896)
I0403 14:18:58.576356  1121 net.cpp:156] Memory required for data: 1048562976
I0403 14:18:58.576371  1121 layer_factory.hpp:77] Creating layer inception_4c/5x5
I0403 14:18:58.576395  1121 net.cpp:91] Creating Layer inception_4c/5x5
I0403 14:18:58.576413  1121 net.cpp:425] inception_4c/5x5 <- inception_4c/5x5_reduce
I0403 14:18:58.576436  1121 net.cpp:399] inception_4c/5x5 -> inception_4c/5x5
I0403 14:18:58.577708  1121 net.cpp:141] Setting up inception_4c/5x5
I0403 14:18:58.577738  1121 net.cpp:148] Top shape: 24 64 14 14 (301056)
I0403 14:18:58.577754  1121 net.cpp:156] Memory required for data: 1049767200
I0403 14:18:58.577774  1121 layer_factory.hpp:77] Creating layer inception_4c/relu_5x5
I0403 14:18:58.577792  1121 net.cpp:91] Creating Layer inception_4c/relu_5x5
I0403 14:18:58.577810  1121 net.cpp:425] inception_4c/relu_5x5 <- inception_4c/5x5
I0403 14:18:58.577829  1121 net.cpp:386] inception_4c/relu_5x5 -> inception_4c/5x5 (in-place)
I0403 14:18:58.578131  1121 net.cpp:141] Setting up inception_4c/relu_5x5
I0403 14:18:58.578160  1121 net.cpp:148] Top shape: 24 64 14 14 (301056)
I0403 14:18:58.578176  1121 net.cpp:156] Memory required for data: 1050971424
I0403 14:18:58.578196  1121 layer_factory.hpp:77] Creating layer inception_4c/pool
I0403 14:18:58.578213  1121 net.cpp:91] Creating Layer inception_4c/pool
I0403 14:18:58.578230  1121 net.cpp:425] inception_4c/pool <- inception_4b/output_inception_4b/output_0_split_3
I0403 14:18:58.578253  1121 net.cpp:399] inception_4c/pool -> inception_4c/pool
I0403 14:18:58.578318  1121 net.cpp:141] Setting up inception_4c/pool
I0403 14:18:58.578343  1121 net.cpp:148] Top shape: 24 512 14 14 (2408448)
I0403 14:18:58.578359  1121 net.cpp:156] Memory required for data: 1060605216
I0403 14:18:58.578374  1121 layer_factory.hpp:77] Creating layer inception_4c/pool_proj
I0403 14:18:58.578397  1121 net.cpp:91] Creating Layer inception_4c/pool_proj
I0403 14:18:58.578415  1121 net.cpp:425] inception_4c/pool_proj <- inception_4c/pool
I0403 14:18:58.578434  1121 net.cpp:399] inception_4c/pool_proj -> inception_4c/pool_proj
I0403 14:18:58.579692  1121 net.cpp:141] Setting up inception_4c/pool_proj
I0403 14:18:58.579723  1121 net.cpp:148] Top shape: 24 64 14 14 (301056)
I0403 14:18:58.579753  1121 net.cpp:156] Memory required for data: 1061809440
I0403 14:18:58.579774  1121 layer_factory.hpp:77] Creating layer inception_4c/relu_pool_proj
I0403 14:18:58.579792  1121 net.cpp:91] Creating Layer inception_4c/relu_pool_proj
I0403 14:18:58.579809  1121 net.cpp:425] inception_4c/relu_pool_proj <- inception_4c/pool_proj
I0403 14:18:58.579828  1121 net.cpp:386] inception_4c/relu_pool_proj -> inception_4c/pool_proj (in-place)
I0403 14:18:58.580011  1121 net.cpp:141] Setting up inception_4c/relu_pool_proj
I0403 14:18:58.580039  1121 net.cpp:148] Top shape: 24 64 14 14 (301056)
I0403 14:18:58.580054  1121 net.cpp:156] Memory required for data: 1063013664
I0403 14:18:58.580070  1121 layer_factory.hpp:77] Creating layer inception_4c/output
I0403 14:18:58.580087  1121 net.cpp:91] Creating Layer inception_4c/output
I0403 14:18:58.580103  1121 net.cpp:425] inception_4c/output <- inception_4c/1x1
I0403 14:18:58.580119  1121 net.cpp:425] inception_4c/output <- inception_4c/3x3
I0403 14:18:58.580137  1121 net.cpp:425] inception_4c/output <- inception_4c/5x5
I0403 14:18:58.580152  1121 net.cpp:425] inception_4c/output <- inception_4c/pool_proj
I0403 14:18:58.580173  1121 net.cpp:399] inception_4c/output -> inception_4c/output
I0403 14:18:58.580224  1121 net.cpp:141] Setting up inception_4c/output
I0403 14:18:58.580246  1121 net.cpp:148] Top shape: 24 512 14 14 (2408448)
I0403 14:18:58.580261  1121 net.cpp:156] Memory required for data: 1072647456
I0403 14:18:58.580276  1121 layer_factory.hpp:77] Creating layer inception_4c/output_inception_4c/output_0_split
I0403 14:18:58.580296  1121 net.cpp:91] Creating Layer inception_4c/output_inception_4c/output_0_split
I0403 14:18:58.580312  1121 net.cpp:425] inception_4c/output_inception_4c/output_0_split <- inception_4c/output
I0403 14:18:58.580329  1121 net.cpp:399] inception_4c/output_inception_4c/output_0_split -> inception_4c/output_inception_4c/output_0_split_0
I0403 14:18:58.580350  1121 net.cpp:399] inception_4c/output_inception_4c/output_0_split -> inception_4c/output_inception_4c/output_0_split_1
I0403 14:18:58.580374  1121 net.cpp:399] inception_4c/output_inception_4c/output_0_split -> inception_4c/output_inception_4c/output_0_split_2
I0403 14:18:58.580394  1121 net.cpp:399] inception_4c/output_inception_4c/output_0_split -> inception_4c/output_inception_4c/output_0_split_3
I0403 14:18:58.580482  1121 net.cpp:141] Setting up inception_4c/output_inception_4c/output_0_split
I0403 14:18:58.580505  1121 net.cpp:148] Top shape: 24 512 14 14 (2408448)
I0403 14:18:58.580523  1121 net.cpp:148] Top shape: 24 512 14 14 (2408448)
I0403 14:18:58.580538  1121 net.cpp:148] Top shape: 24 512 14 14 (2408448)
I0403 14:18:58.580554  1121 net.cpp:148] Top shape: 24 512 14 14 (2408448)
I0403 14:18:58.580569  1121 net.cpp:156] Memory required for data: 1111182624
I0403 14:18:58.580582  1121 layer_factory.hpp:77] Creating layer inception_4d/1x1
I0403 14:18:58.580605  1121 net.cpp:91] Creating Layer inception_4d/1x1
I0403 14:18:58.580623  1121 net.cpp:425] inception_4d/1x1 <- inception_4c/output_inception_4c/output_0_split_0
I0403 14:18:58.580646  1121 net.cpp:399] inception_4d/1x1 -> inception_4d/1x1
I0403 14:18:58.582114  1121 net.cpp:141] Setting up inception_4d/1x1
I0403 14:18:58.582142  1121 net.cpp:148] Top shape: 24 112 14 14 (526848)
I0403 14:18:58.582159  1121 net.cpp:156] Memory required for data: 1113290016
I0403 14:18:58.582181  1121 layer_factory.hpp:77] Creating layer inception_4d/relu_1x1
I0403 14:18:58.582204  1121 net.cpp:91] Creating Layer inception_4d/relu_1x1
I0403 14:18:58.582223  1121 net.cpp:425] inception_4d/relu_1x1 <- inception_4d/1x1
I0403 14:18:58.582242  1121 net.cpp:386] inception_4d/relu_1x1 -> inception_4d/1x1 (in-place)
I0403 14:18:58.582448  1121 net.cpp:141] Setting up inception_4d/relu_1x1
I0403 14:18:58.582473  1121 net.cpp:148] Top shape: 24 112 14 14 (526848)
I0403 14:18:58.582489  1121 net.cpp:156] Memory required for data: 1115397408
I0403 14:18:58.582505  1121 layer_factory.hpp:77] Creating layer inception_4d/3x3_reduce
I0403 14:18:58.582545  1121 net.cpp:91] Creating Layer inception_4d/3x3_reduce
I0403 14:18:58.582564  1121 net.cpp:425] inception_4d/3x3_reduce <- inception_4c/output_inception_4c/output_0_split_1
I0403 14:18:58.582587  1121 net.cpp:399] inception_4d/3x3_reduce -> inception_4d/3x3_reduce
I0403 14:18:58.584183  1121 net.cpp:141] Setting up inception_4d/3x3_reduce
I0403 14:18:58.584213  1121 net.cpp:148] Top shape: 24 144 14 14 (677376)
I0403 14:18:58.584242  1121 net.cpp:156] Memory required for data: 1118106912
I0403 14:18:58.584261  1121 layer_factory.hpp:77] Creating layer inception_4d/relu_3x3_reduce
I0403 14:18:58.584280  1121 net.cpp:91] Creating Layer inception_4d/relu_3x3_reduce
I0403 14:18:58.584297  1121 net.cpp:425] inception_4d/relu_3x3_reduce <- inception_4d/3x3_reduce
I0403 14:18:58.584318  1121 net.cpp:386] inception_4d/relu_3x3_reduce -> inception_4d/3x3_reduce (in-place)
I0403 14:18:58.584615  1121 net.cpp:141] Setting up inception_4d/relu_3x3_reduce
I0403 14:18:58.584642  1121 net.cpp:148] Top shape: 24 144 14 14 (677376)
I0403 14:18:58.584658  1121 net.cpp:156] Memory required for data: 1120816416
I0403 14:18:58.584673  1121 layer_factory.hpp:77] Creating layer inception_4d/3x3
I0403 14:18:58.584697  1121 net.cpp:91] Creating Layer inception_4d/3x3
I0403 14:18:58.584714  1121 net.cpp:425] inception_4d/3x3 <- inception_4d/3x3_reduce
I0403 14:18:58.584738  1121 net.cpp:399] inception_4d/3x3 -> inception_4d/3x3
I0403 14:18:58.589257  1121 net.cpp:141] Setting up inception_4d/3x3
I0403 14:18:58.589285  1121 net.cpp:148] Top shape: 24 288 14 14 (1354752)
I0403 14:18:58.589301  1121 net.cpp:156] Memory required for data: 1126235424
I0403 14:18:58.589321  1121 layer_factory.hpp:77] Creating layer inception_4d/relu_3x3
I0403 14:18:58.589342  1121 net.cpp:91] Creating Layer inception_4d/relu_3x3
I0403 14:18:58.589359  1121 net.cpp:425] inception_4d/relu_3x3 <- inception_4d/3x3
I0403 14:18:58.589378  1121 net.cpp:386] inception_4d/relu_3x3 -> inception_4d/3x3 (in-place)
I0403 14:18:58.589565  1121 net.cpp:141] Setting up inception_4d/relu_3x3
I0403 14:18:58.589592  1121 net.cpp:148] Top shape: 24 288 14 14 (1354752)
I0403 14:18:58.589609  1121 net.cpp:156] Memory required for data: 1131654432
I0403 14:18:58.589625  1121 layer_factory.hpp:77] Creating layer inception_4d/5x5_reduce
I0403 14:18:58.589648  1121 net.cpp:91] Creating Layer inception_4d/5x5_reduce
I0403 14:18:58.589666  1121 net.cpp:425] inception_4d/5x5_reduce <- inception_4c/output_inception_4c/output_0_split_2
I0403 14:18:58.589687  1121 net.cpp:399] inception_4d/5x5_reduce -> inception_4d/5x5_reduce
I0403 14:18:58.590919  1121 net.cpp:141] Setting up inception_4d/5x5_reduce
I0403 14:18:58.590946  1121 net.cpp:148] Top shape: 24 32 14 14 (150528)
I0403 14:18:58.590963  1121 net.cpp:156] Memory required for data: 1132256544
I0403 14:18:58.590983  1121 layer_factory.hpp:77] Creating layer inception_4d/relu_5x5_reduce
I0403 14:18:58.591003  1121 net.cpp:91] Creating Layer inception_4d/relu_5x5_reduce
I0403 14:18:58.591020  1121 net.cpp:425] inception_4d/relu_5x5_reduce <- inception_4d/5x5_reduce
I0403 14:18:58.591038  1121 net.cpp:386] inception_4d/relu_5x5_reduce -> inception_4d/5x5_reduce (in-place)
I0403 14:18:58.591238  1121 net.cpp:141] Setting up inception_4d/relu_5x5_reduce
I0403 14:18:58.591262  1121 net.cpp:148] Top shape: 24 32 14 14 (150528)
I0403 14:18:58.591279  1121 net.cpp:156] Memory required for data: 1132858656
I0403 14:18:58.591294  1121 layer_factory.hpp:77] Creating layer inception_4d/5x5
I0403 14:18:58.591318  1121 net.cpp:91] Creating Layer inception_4d/5x5
I0403 14:18:58.591336  1121 net.cpp:425] inception_4d/5x5 <- inception_4d/5x5_reduce
I0403 14:18:58.591356  1121 net.cpp:399] inception_4d/5x5 -> inception_4d/5x5
I0403 14:18:58.592926  1121 net.cpp:141] Setting up inception_4d/5x5
I0403 14:18:58.592958  1121 net.cpp:148] Top shape: 24 64 14 14 (301056)
I0403 14:18:58.592975  1121 net.cpp:156] Memory required for data: 1134062880
I0403 14:18:58.592995  1121 layer_factory.hpp:77] Creating layer inception_4d/relu_5x5
I0403 14:18:58.593029  1121 net.cpp:91] Creating Layer inception_4d/relu_5x5
I0403 14:18:58.593046  1121 net.cpp:425] inception_4d/relu_5x5 <- inception_4d/5x5
I0403 14:18:58.593068  1121 net.cpp:386] inception_4d/relu_5x5 -> inception_4d/5x5 (in-place)
I0403 14:18:58.593389  1121 net.cpp:141] Setting up inception_4d/relu_5x5
I0403 14:18:58.593417  1121 net.cpp:148] Top shape: 24 64 14 14 (301056)
I0403 14:18:58.593436  1121 net.cpp:156] Memory required for data: 1135267104
I0403 14:18:58.593452  1121 layer_factory.hpp:77] Creating layer inception_4d/pool
I0403 14:18:58.593472  1121 net.cpp:91] Creating Layer inception_4d/pool
I0403 14:18:58.593488  1121 net.cpp:425] inception_4d/pool <- inception_4c/output_inception_4c/output_0_split_3
I0403 14:18:58.593509  1121 net.cpp:399] inception_4d/pool -> inception_4d/pool
I0403 14:18:58.593592  1121 net.cpp:141] Setting up inception_4d/pool
I0403 14:18:58.593618  1121 net.cpp:148] Top shape: 24 512 14 14 (2408448)
I0403 14:18:58.593634  1121 net.cpp:156] Memory required for data: 1144900896
I0403 14:18:58.593650  1121 layer_factory.hpp:77] Creating layer inception_4d/pool_proj
I0403 14:18:58.593673  1121 net.cpp:91] Creating Layer inception_4d/pool_proj
I0403 14:18:58.593693  1121 net.cpp:425] inception_4d/pool_proj <- inception_4d/pool
I0403 14:18:58.593714  1121 net.cpp:399] inception_4d/pool_proj -> inception_4d/pool_proj
I0403 14:18:58.595592  1121 net.cpp:141] Setting up inception_4d/pool_proj
I0403 14:18:58.595621  1121 net.cpp:148] Top shape: 24 64 14 14 (301056)
I0403 14:18:58.595638  1121 net.cpp:156] Memory required for data: 1146105120
I0403 14:18:58.595657  1121 layer_factory.hpp:77] Creating layer inception_4d/relu_pool_proj
I0403 14:18:58.595679  1121 net.cpp:91] Creating Layer inception_4d/relu_pool_proj
I0403 14:18:58.595696  1121 net.cpp:425] inception_4d/relu_pool_proj <- inception_4d/pool_proj
I0403 14:18:58.595715  1121 net.cpp:386] inception_4d/relu_pool_proj -> inception_4d/pool_proj (in-place)
I0403 14:18:58.595906  1121 net.cpp:141] Setting up inception_4d/relu_pool_proj
I0403 14:18:58.595933  1121 net.cpp:148] Top shape: 24 64 14 14 (301056)
I0403 14:18:58.595950  1121 net.cpp:156] Memory required for data: 1147309344
I0403 14:18:58.595965  1121 layer_factory.hpp:77] Creating layer inception_4d/output
I0403 14:18:58.595983  1121 net.cpp:91] Creating Layer inception_4d/output
I0403 14:18:58.595999  1121 net.cpp:425] inception_4d/output <- inception_4d/1x1
I0403 14:18:58.596017  1121 net.cpp:425] inception_4d/output <- inception_4d/3x3
I0403 14:18:58.596035  1121 net.cpp:425] inception_4d/output <- inception_4d/5x5
I0403 14:18:58.596051  1121 net.cpp:425] inception_4d/output <- inception_4d/pool_proj
I0403 14:18:58.596068  1121 net.cpp:399] inception_4d/output -> inception_4d/output
I0403 14:18:58.596119  1121 net.cpp:141] Setting up inception_4d/output
I0403 14:18:58.596143  1121 net.cpp:148] Top shape: 24 528 14 14 (2483712)
I0403 14:18:58.596159  1121 net.cpp:156] Memory required for data: 1157244192
I0403 14:18:58.596175  1121 layer_factory.hpp:77] Creating layer inception_4d/output_inception_4d/output_0_split
I0403 14:18:58.596201  1121 net.cpp:91] Creating Layer inception_4d/output_inception_4d/output_0_split
I0403 14:18:58.596220  1121 net.cpp:425] inception_4d/output_inception_4d/output_0_split <- inception_4d/output
I0403 14:18:58.596238  1121 net.cpp:399] inception_4d/output_inception_4d/output_0_split -> inception_4d/output_inception_4d/output_0_split_0
I0403 14:18:58.596259  1121 net.cpp:399] inception_4d/output_inception_4d/output_0_split -> inception_4d/output_inception_4d/output_0_split_1
I0403 14:18:58.596282  1121 net.cpp:399] inception_4d/output_inception_4d/output_0_split -> inception_4d/output_inception_4d/output_0_split_2
I0403 14:18:58.596305  1121 net.cpp:399] inception_4d/output_inception_4d/output_0_split -> inception_4d/output_inception_4d/output_0_split_3
I0403 14:18:58.596328  1121 net.cpp:399] inception_4d/output_inception_4d/output_0_split -> inception_4d/output_inception_4d/output_0_split_4
I0403 14:18:58.596437  1121 net.cpp:141] Setting up inception_4d/output_inception_4d/output_0_split
I0403 14:18:58.596474  1121 net.cpp:148] Top shape: 24 528 14 14 (2483712)
I0403 14:18:58.596493  1121 net.cpp:148] Top shape: 24 528 14 14 (2483712)
I0403 14:18:58.596509  1121 net.cpp:148] Top shape: 24 528 14 14 (2483712)
I0403 14:18:58.596525  1121 net.cpp:148] Top shape: 24 528 14 14 (2483712)
I0403 14:18:58.596541  1121 net.cpp:148] Top shape: 24 528 14 14 (2483712)
I0403 14:18:58.596556  1121 net.cpp:156] Memory required for data: 1206918432
I0403 14:18:58.596571  1121 layer_factory.hpp:77] Creating layer loss2/ave_pool
I0403 14:18:58.596592  1121 net.cpp:91] Creating Layer loss2/ave_pool
I0403 14:18:58.596609  1121 net.cpp:425] loss2/ave_pool <- inception_4d/output_inception_4d/output_0_split_0
I0403 14:18:58.596629  1121 net.cpp:399] loss2/ave_pool -> loss2/ave_pool
I0403 14:18:58.596987  1121 net.cpp:141] Setting up loss2/ave_pool
I0403 14:18:58.597013  1121 net.cpp:148] Top shape: 24 528 4 4 (202752)
I0403 14:18:58.597028  1121 net.cpp:156] Memory required for data: 1207729440
I0403 14:18:58.597044  1121 layer_factory.hpp:77] Creating layer loss2/conv
I0403 14:18:58.597067  1121 net.cpp:91] Creating Layer loss2/conv
I0403 14:18:58.597086  1121 net.cpp:425] loss2/conv <- loss2/ave_pool
I0403 14:18:58.597110  1121 net.cpp:399] loss2/conv -> loss2/conv
I0403 14:18:58.599114  1121 net.cpp:141] Setting up loss2/conv
I0403 14:18:58.599146  1121 net.cpp:148] Top shape: 24 128 4 4 (49152)
I0403 14:18:58.599164  1121 net.cpp:156] Memory required for data: 1207926048
I0403 14:18:58.599187  1121 layer_factory.hpp:77] Creating layer loss2/relu_conv
I0403 14:18:58.599207  1121 net.cpp:91] Creating Layer loss2/relu_conv
I0403 14:18:58.599225  1121 net.cpp:425] loss2/relu_conv <- loss2/conv
I0403 14:18:58.599247  1121 net.cpp:386] loss2/relu_conv -> loss2/conv (in-place)
I0403 14:18:58.599540  1121 net.cpp:141] Setting up loss2/relu_conv
I0403 14:18:58.599570  1121 net.cpp:148] Top shape: 24 128 4 4 (49152)
I0403 14:18:58.599586  1121 net.cpp:156] Memory required for data: 1208122656
I0403 14:18:58.599602  1121 layer_factory.hpp:77] Creating layer loss2/fc
I0403 14:18:58.599623  1121 net.cpp:91] Creating Layer loss2/fc
I0403 14:18:58.599640  1121 net.cpp:425] loss2/fc <- loss2/conv
I0403 14:18:58.599663  1121 net.cpp:399] loss2/fc -> loss2/fc
I0403 14:18:58.617832  1121 net.cpp:141] Setting up loss2/fc
I0403 14:18:58.617897  1121 net.cpp:148] Top shape: 24 1024 (24576)
I0403 14:18:58.617913  1121 net.cpp:156] Memory required for data: 1208220960
I0403 14:18:58.617934  1121 layer_factory.hpp:77] Creating layer loss2/relu_fc
I0403 14:18:58.617954  1121 net.cpp:91] Creating Layer loss2/relu_fc
I0403 14:18:58.617972  1121 net.cpp:425] loss2/relu_fc <- loss2/fc
I0403 14:18:58.617990  1121 net.cpp:386] loss2/relu_fc -> loss2/fc (in-place)
I0403 14:18:58.618345  1121 net.cpp:141] Setting up loss2/relu_fc
I0403 14:18:58.618371  1121 net.cpp:148] Top shape: 24 1024 (24576)
I0403 14:18:58.618386  1121 net.cpp:156] Memory required for data: 1208319264
I0403 14:18:58.618402  1121 layer_factory.hpp:77] Creating layer loss2/drop_fc
I0403 14:18:58.618423  1121 net.cpp:91] Creating Layer loss2/drop_fc
I0403 14:18:58.618443  1121 net.cpp:425] loss2/drop_fc <- loss2/fc
I0403 14:18:58.618459  1121 net.cpp:386] loss2/drop_fc -> loss2/fc (in-place)
I0403 14:18:58.618515  1121 net.cpp:141] Setting up loss2/drop_fc
I0403 14:18:58.618536  1121 net.cpp:148] Top shape: 24 1024 (24576)
I0403 14:18:58.618551  1121 net.cpp:156] Memory required for data: 1208417568
I0403 14:18:58.618566  1121 layer_factory.hpp:77] Creating layer loss2/classifier_plantvillage
I0403 14:18:58.618588  1121 net.cpp:91] Creating Layer loss2/classifier_plantvillage
I0403 14:18:58.618607  1121 net.cpp:425] loss2/classifier_plantvillage <- loss2/fc
I0403 14:18:58.618625  1121 net.cpp:399] loss2/classifier_plantvillage -> loss2/classifier_plantvillage
I0403 14:18:58.619041  1121 net.cpp:141] Setting up loss2/classifier_plantvillage
I0403 14:18:58.619066  1121 net.cpp:148] Top shape: 24 38 (912)
I0403 14:18:58.619107  1121 net.cpp:156] Memory required for data: 1208421216
I0403 14:18:58.619127  1121 layer_factory.hpp:77] Creating layer loss2/classifier_plantvillage_loss2/classifier_plantvillage_0_split
I0403 14:18:58.619145  1121 net.cpp:91] Creating Layer loss2/classifier_plantvillage_loss2/classifier_plantvillage_0_split
I0403 14:18:58.619161  1121 net.cpp:425] loss2/classifier_plantvillage_loss2/classifier_plantvillage_0_split <- loss2/classifier_plantvillage
I0403 14:18:58.619189  1121 net.cpp:399] loss2/classifier_plantvillage_loss2/classifier_plantvillage_0_split -> loss2/classifier_plantvillage_loss2/classifier_plantvillage_0_split_0
I0403 14:18:58.619211  1121 net.cpp:399] loss2/classifier_plantvillage_loss2/classifier_plantvillage_0_split -> loss2/classifier_plantvillage_loss2/classifier_plantvillage_0_split_1
I0403 14:18:58.619232  1121 net.cpp:399] loss2/classifier_plantvillage_loss2/classifier_plantvillage_0_split -> loss2/classifier_plantvillage_loss2/classifier_plantvillage_0_split_2
I0403 14:18:58.619313  1121 net.cpp:141] Setting up loss2/classifier_plantvillage_loss2/classifier_plantvillage_0_split
I0403 14:18:58.619338  1121 net.cpp:148] Top shape: 24 38 (912)
I0403 14:18:58.619355  1121 net.cpp:148] Top shape: 24 38 (912)
I0403 14:18:58.619371  1121 net.cpp:148] Top shape: 24 38 (912)
I0403 14:18:58.619385  1121 net.cpp:156] Memory required for data: 1208432160
I0403 14:18:58.619400  1121 layer_factory.hpp:77] Creating layer inception_4e/1x1
I0403 14:18:58.619423  1121 net.cpp:91] Creating Layer inception_4e/1x1
I0403 14:18:58.619443  1121 net.cpp:425] inception_4e/1x1 <- inception_4d/output_inception_4d/output_0_split_1
I0403 14:18:58.619463  1121 net.cpp:399] inception_4e/1x1 -> inception_4e/1x1
I0403 14:18:58.621345  1121 net.cpp:141] Setting up inception_4e/1x1
I0403 14:18:58.621374  1121 net.cpp:148] Top shape: 24 256 14 14 (1204224)
I0403 14:18:58.621392  1121 net.cpp:156] Memory required for data: 1213249056
I0403 14:18:58.621410  1121 layer_factory.hpp:77] Creating layer inception_4e/relu_1x1
I0403 14:18:58.621429  1121 net.cpp:91] Creating Layer inception_4e/relu_1x1
I0403 14:18:58.621445  1121 net.cpp:425] inception_4e/relu_1x1 <- inception_4e/1x1
I0403 14:18:58.621464  1121 net.cpp:386] inception_4e/relu_1x1 -> inception_4e/1x1 (in-place)
I0403 14:18:58.621762  1121 net.cpp:141] Setting up inception_4e/relu_1x1
I0403 14:18:58.621789  1121 net.cpp:148] Top shape: 24 256 14 14 (1204224)
I0403 14:18:58.621805  1121 net.cpp:156] Memory required for data: 1218065952
I0403 14:18:58.621821  1121 layer_factory.hpp:77] Creating layer inception_4e/3x3_reduce
I0403 14:18:58.621845  1121 net.cpp:91] Creating Layer inception_4e/3x3_reduce
I0403 14:18:58.621862  1121 net.cpp:425] inception_4e/3x3_reduce <- inception_4d/output_inception_4d/output_0_split_2
I0403 14:18:58.621881  1121 net.cpp:399] inception_4e/3x3_reduce -> inception_4e/3x3_reduce
I0403 14:18:58.624078  1121 net.cpp:141] Setting up inception_4e/3x3_reduce
I0403 14:18:58.624111  1121 net.cpp:148] Top shape: 24 160 14 14 (752640)
I0403 14:18:58.624128  1121 net.cpp:156] Memory required for data: 1221076512
I0403 14:18:58.624148  1121 layer_factory.hpp:77] Creating layer inception_4e/relu_3x3_reduce
I0403 14:18:58.624167  1121 net.cpp:91] Creating Layer inception_4e/relu_3x3_reduce
I0403 14:18:58.624189  1121 net.cpp:425] inception_4e/relu_3x3_reduce <- inception_4e/3x3_reduce
I0403 14:18:58.624208  1121 net.cpp:386] inception_4e/relu_3x3_reduce -> inception_4e/3x3_reduce (in-place)
I0403 14:18:58.624407  1121 net.cpp:141] Setting up inception_4e/relu_3x3_reduce
I0403 14:18:58.624433  1121 net.cpp:148] Top shape: 24 160 14 14 (752640)
I0403 14:18:58.624447  1121 net.cpp:156] Memory required for data: 1224087072
I0403 14:18:58.624464  1121 layer_factory.hpp:77] Creating layer inception_4e/3x3
I0403 14:18:58.624486  1121 net.cpp:91] Creating Layer inception_4e/3x3
I0403 14:18:58.624505  1121 net.cpp:425] inception_4e/3x3 <- inception_4e/3x3_reduce
I0403 14:18:58.624529  1121 net.cpp:399] inception_4e/3x3 -> inception_4e/3x3
I0403 14:18:58.629701  1121 net.cpp:141] Setting up inception_4e/3x3
I0403 14:18:58.629744  1121 net.cpp:148] Top shape: 24 320 14 14 (1505280)
I0403 14:18:58.629760  1121 net.cpp:156] Memory required for data: 1230108192
I0403 14:18:58.629779  1121 layer_factory.hpp:77] Creating layer inception_4e/relu_3x3
I0403 14:18:58.629799  1121 net.cpp:91] Creating Layer inception_4e/relu_3x3
I0403 14:18:58.629817  1121 net.cpp:425] inception_4e/relu_3x3 <- inception_4e/3x3
I0403 14:18:58.629837  1121 net.cpp:386] inception_4e/relu_3x3 -> inception_4e/3x3 (in-place)
I0403 14:18:58.630146  1121 net.cpp:141] Setting up inception_4e/relu_3x3
I0403 14:18:58.630172  1121 net.cpp:148] Top shape: 24 320 14 14 (1505280)
I0403 14:18:58.630192  1121 net.cpp:156] Memory required for data: 1236129312
I0403 14:18:58.630209  1121 layer_factory.hpp:77] Creating layer inception_4e/5x5_reduce
I0403 14:18:58.630234  1121 net.cpp:91] Creating Layer inception_4e/5x5_reduce
I0403 14:18:58.630251  1121 net.cpp:425] inception_4e/5x5_reduce <- inception_4d/output_inception_4d/output_0_split_3
I0403 14:18:58.630275  1121 net.cpp:399] inception_4e/5x5_reduce -> inception_4e/5x5_reduce
I0403 14:18:58.631397  1121 net.cpp:141] Setting up inception_4e/5x5_reduce
I0403 14:18:58.631427  1121 net.cpp:148] Top shape: 24 32 14 14 (150528)
I0403 14:18:58.631444  1121 net.cpp:156] Memory required for data: 1236731424
I0403 14:18:58.631464  1121 layer_factory.hpp:77] Creating layer inception_4e/relu_5x5_reduce
I0403 14:18:58.631484  1121 net.cpp:91] Creating Layer inception_4e/relu_5x5_reduce
I0403 14:18:58.631501  1121 net.cpp:425] inception_4e/relu_5x5_reduce <- inception_4e/5x5_reduce
I0403 14:18:58.631522  1121 net.cpp:386] inception_4e/relu_5x5_reduce -> inception_4e/5x5_reduce (in-place)
I0403 14:18:58.631829  1121 net.cpp:141] Setting up inception_4e/relu_5x5_reduce
I0403 14:18:58.631860  1121 net.cpp:148] Top shape: 24 32 14 14 (150528)
I0403 14:18:58.631875  1121 net.cpp:156] Memory required for data: 1237333536
I0403 14:18:58.631891  1121 layer_factory.hpp:77] Creating layer inception_4e/5x5
I0403 14:18:58.631933  1121 net.cpp:91] Creating Layer inception_4e/5x5
I0403 14:18:58.631953  1121 net.cpp:425] inception_4e/5x5 <- inception_4e/5x5_reduce
I0403 14:18:58.631973  1121 net.cpp:399] inception_4e/5x5 -> inception_4e/5x5
I0403 14:18:58.633950  1121 net.cpp:141] Setting up inception_4e/5x5
I0403 14:18:58.633978  1121 net.cpp:148] Top shape: 24 128 14 14 (602112)
I0403 14:18:58.633994  1121 net.cpp:156] Memory required for data: 1239741984
I0403 14:18:58.634013  1121 layer_factory.hpp:77] Creating layer inception_4e/relu_5x5
I0403 14:18:58.634034  1121 net.cpp:91] Creating Layer inception_4e/relu_5x5
I0403 14:18:58.634052  1121 net.cpp:425] inception_4e/relu_5x5 <- inception_4e/5x5
I0403 14:18:58.634069  1121 net.cpp:386] inception_4e/relu_5x5 -> inception_4e/5x5 (in-place)
I0403 14:18:58.634281  1121 net.cpp:141] Setting up inception_4e/relu_5x5
I0403 14:18:58.634307  1121 net.cpp:148] Top shape: 24 128 14 14 (602112)
I0403 14:18:58.634336  1121 net.cpp:156] Memory required for data: 1242150432
I0403 14:18:58.634352  1121 layer_factory.hpp:77] Creating layer inception_4e/pool
I0403 14:18:58.634371  1121 net.cpp:91] Creating Layer inception_4e/pool
I0403 14:18:58.634389  1121 net.cpp:425] inception_4e/pool <- inception_4d/output_inception_4d/output_0_split_4
I0403 14:18:58.634410  1121 net.cpp:399] inception_4e/pool -> inception_4e/pool
I0403 14:18:58.634485  1121 net.cpp:141] Setting up inception_4e/pool
I0403 14:18:58.634510  1121 net.cpp:148] Top shape: 24 528 14 14 (2483712)
I0403 14:18:58.634524  1121 net.cpp:156] Memory required for data: 1252085280
I0403 14:18:58.634541  1121 layer_factory.hpp:77] Creating layer inception_4e/pool_proj
I0403 14:18:58.634565  1121 net.cpp:91] Creating Layer inception_4e/pool_proj
I0403 14:18:58.634584  1121 net.cpp:425] inception_4e/pool_proj <- inception_4e/pool
I0403 14:18:58.634615  1121 net.cpp:399] inception_4e/pool_proj -> inception_4e/pool_proj
I0403 14:18:58.636212  1121 net.cpp:141] Setting up inception_4e/pool_proj
I0403 14:18:58.636253  1121 net.cpp:148] Top shape: 24 128 14 14 (602112)
I0403 14:18:58.636270  1121 net.cpp:156] Memory required for data: 1254493728
I0403 14:18:58.636288  1121 layer_factory.hpp:77] Creating layer inception_4e/relu_pool_proj
I0403 14:18:58.636308  1121 net.cpp:91] Creating Layer inception_4e/relu_pool_proj
I0403 14:18:58.636339  1121 net.cpp:425] inception_4e/relu_pool_proj <- inception_4e/pool_proj
I0403 14:18:58.636358  1121 net.cpp:386] inception_4e/relu_pool_proj -> inception_4e/pool_proj (in-place)
I0403 14:18:58.636670  1121 net.cpp:141] Setting up inception_4e/relu_pool_proj
I0403 14:18:58.636696  1121 net.cpp:148] Top shape: 24 128 14 14 (602112)
I0403 14:18:58.636711  1121 net.cpp:156] Memory required for data: 1256902176
I0403 14:18:58.636728  1121 layer_factory.hpp:77] Creating layer inception_4e/output
I0403 14:18:58.636747  1121 net.cpp:91] Creating Layer inception_4e/output
I0403 14:18:58.636764  1121 net.cpp:425] inception_4e/output <- inception_4e/1x1
I0403 14:18:58.636780  1121 net.cpp:425] inception_4e/output <- inception_4e/3x3
I0403 14:18:58.636797  1121 net.cpp:425] inception_4e/output <- inception_4e/5x5
I0403 14:18:58.636813  1121 net.cpp:425] inception_4e/output <- inception_4e/pool_proj
I0403 14:18:58.636832  1121 net.cpp:399] inception_4e/output -> inception_4e/output
I0403 14:18:58.636893  1121 net.cpp:141] Setting up inception_4e/output
I0403 14:18:58.636915  1121 net.cpp:148] Top shape: 24 832 14 14 (3913728)
I0403 14:18:58.636930  1121 net.cpp:156] Memory required for data: 1272557088
I0403 14:18:58.636945  1121 layer_factory.hpp:77] Creating layer pool4/3x3_s2
I0403 14:18:58.636962  1121 net.cpp:91] Creating Layer pool4/3x3_s2
I0403 14:18:58.636978  1121 net.cpp:425] pool4/3x3_s2 <- inception_4e/output
I0403 14:18:58.636999  1121 net.cpp:399] pool4/3x3_s2 -> pool4/3x3_s2
I0403 14:18:58.637066  1121 net.cpp:141] Setting up pool4/3x3_s2
I0403 14:18:58.637090  1121 net.cpp:148] Top shape: 24 832 7 7 (978432)
I0403 14:18:58.637105  1121 net.cpp:156] Memory required for data: 1276470816
I0403 14:18:58.637120  1121 layer_factory.hpp:77] Creating layer pool4/3x3_s2_pool4/3x3_s2_0_split
I0403 14:18:58.637141  1121 net.cpp:91] Creating Layer pool4/3x3_s2_pool4/3x3_s2_0_split
I0403 14:18:58.637158  1121 net.cpp:425] pool4/3x3_s2_pool4/3x3_s2_0_split <- pool4/3x3_s2
I0403 14:18:58.637182  1121 net.cpp:399] pool4/3x3_s2_pool4/3x3_s2_0_split -> pool4/3x3_s2_pool4/3x3_s2_0_split_0
I0403 14:18:58.637205  1121 net.cpp:399] pool4/3x3_s2_pool4/3x3_s2_0_split -> pool4/3x3_s2_pool4/3x3_s2_0_split_1
I0403 14:18:58.637225  1121 net.cpp:399] pool4/3x3_s2_pool4/3x3_s2_0_split -> pool4/3x3_s2_pool4/3x3_s2_0_split_2
I0403 14:18:58.637246  1121 net.cpp:399] pool4/3x3_s2_pool4/3x3_s2_0_split -> pool4/3x3_s2_pool4/3x3_s2_0_split_3
I0403 14:18:58.637351  1121 net.cpp:141] Setting up pool4/3x3_s2_pool4/3x3_s2_0_split
I0403 14:18:58.637375  1121 net.cpp:148] Top shape: 24 832 7 7 (978432)
I0403 14:18:58.637392  1121 net.cpp:148] Top shape: 24 832 7 7 (978432)
I0403 14:18:58.637408  1121 net.cpp:148] Top shape: 24 832 7 7 (978432)
I0403 14:18:58.637437  1121 net.cpp:148] Top shape: 24 832 7 7 (978432)
I0403 14:18:58.637452  1121 net.cpp:156] Memory required for data: 1292125728
I0403 14:18:58.637476  1121 layer_factory.hpp:77] Creating layer inception_5a/1x1
I0403 14:18:58.637501  1121 net.cpp:91] Creating Layer inception_5a/1x1
I0403 14:18:58.637519  1121 net.cpp:425] inception_5a/1x1 <- pool4/3x3_s2_pool4/3x3_s2_0_split_0
I0403 14:18:58.637542  1121 net.cpp:399] inception_5a/1x1 -> inception_5a/1x1
I0403 14:18:58.640683  1121 net.cpp:141] Setting up inception_5a/1x1
I0403 14:18:58.640717  1121 net.cpp:148] Top shape: 24 256 7 7 (301056)
I0403 14:18:58.640734  1121 net.cpp:156] Memory required for data: 1293329952
I0403 14:18:58.640754  1121 layer_factory.hpp:77] Creating layer inception_5a/relu_1x1
I0403 14:18:58.640774  1121 net.cpp:91] Creating Layer inception_5a/relu_1x1
I0403 14:18:58.640791  1121 net.cpp:425] inception_5a/relu_1x1 <- inception_5a/1x1
I0403 14:18:58.640810  1121 net.cpp:386] inception_5a/relu_1x1 -> inception_5a/1x1 (in-place)
I0403 14:18:58.641147  1121 net.cpp:141] Setting up inception_5a/relu_1x1
I0403 14:18:58.641181  1121 net.cpp:148] Top shape: 24 256 7 7 (301056)
I0403 14:18:58.641201  1121 net.cpp:156] Memory required for data: 1294534176
I0403 14:18:58.641216  1121 layer_factory.hpp:77] Creating layer inception_5a/3x3_reduce
I0403 14:18:58.641242  1121 net.cpp:91] Creating Layer inception_5a/3x3_reduce
I0403 14:18:58.641261  1121 net.cpp:425] inception_5a/3x3_reduce <- pool4/3x3_s2_pool4/3x3_s2_0_split_1
I0403 14:18:58.641283  1121 net.cpp:399] inception_5a/3x3_reduce -> inception_5a/3x3_reduce
I0403 14:18:58.643983  1121 net.cpp:141] Setting up inception_5a/3x3_reduce
I0403 14:18:58.644014  1121 net.cpp:148] Top shape: 24 160 7 7 (188160)
I0403 14:18:58.644032  1121 net.cpp:156] Memory required for data: 1295286816
I0403 14:18:58.644050  1121 layer_factory.hpp:77] Creating layer inception_5a/relu_3x3_reduce
I0403 14:18:58.644074  1121 net.cpp:91] Creating Layer inception_5a/relu_3x3_reduce
I0403 14:18:58.644093  1121 net.cpp:425] inception_5a/relu_3x3_reduce <- inception_5a/3x3_reduce
I0403 14:18:58.644111  1121 net.cpp:386] inception_5a/relu_3x3_reduce -> inception_5a/3x3_reduce (in-place)
I0403 14:18:58.644326  1121 net.cpp:141] Setting up inception_5a/relu_3x3_reduce
I0403 14:18:58.644356  1121 net.cpp:148] Top shape: 24 160 7 7 (188160)
I0403 14:18:58.644372  1121 net.cpp:156] Memory required for data: 1296039456
I0403 14:18:58.644388  1121 layer_factory.hpp:77] Creating layer inception_5a/3x3
I0403 14:18:58.644409  1121 net.cpp:91] Creating Layer inception_5a/3x3
I0403 14:18:58.644428  1121 net.cpp:425] inception_5a/3x3 <- inception_5a/3x3_reduce
I0403 14:18:58.644453  1121 net.cpp:399] inception_5a/3x3 -> inception_5a/3x3
I0403 14:18:58.649896  1121 net.cpp:141] Setting up inception_5a/3x3
I0403 14:18:58.649927  1121 net.cpp:148] Top shape: 24 320 7 7 (376320)
I0403 14:18:58.649945  1121 net.cpp:156] Memory required for data: 1297544736
I0403 14:18:58.649963  1121 layer_factory.hpp:77] Creating layer inception_5a/relu_3x3
I0403 14:18:58.649984  1121 net.cpp:91] Creating Layer inception_5a/relu_3x3
I0403 14:18:58.650002  1121 net.cpp:425] inception_5a/relu_3x3 <- inception_5a/3x3
I0403 14:18:58.650020  1121 net.cpp:386] inception_5a/relu_3x3 -> inception_5a/3x3 (in-place)
I0403 14:18:58.650352  1121 net.cpp:141] Setting up inception_5a/relu_3x3
I0403 14:18:58.650379  1121 net.cpp:148] Top shape: 24 320 7 7 (376320)
I0403 14:18:58.650396  1121 net.cpp:156] Memory required for data: 1299050016
I0403 14:18:58.650413  1121 layer_factory.hpp:77] Creating layer inception_5a/5x5_reduce
I0403 14:18:58.650439  1121 net.cpp:91] Creating Layer inception_5a/5x5_reduce
I0403 14:18:58.650459  1121 net.cpp:425] inception_5a/5x5_reduce <- pool4/3x3_s2_pool4/3x3_s2_0_split_2
I0403 14:18:58.650486  1121 net.cpp:399] inception_5a/5x5_reduce -> inception_5a/5x5_reduce
I0403 14:18:58.651780  1121 net.cpp:141] Setting up inception_5a/5x5_reduce
I0403 14:18:58.651811  1121 net.cpp:148] Top shape: 24 32 7 7 (37632)
I0403 14:18:58.651829  1121 net.cpp:156] Memory required for data: 1299200544
I0403 14:18:58.651849  1121 layer_factory.hpp:77] Creating layer inception_5a/relu_5x5_reduce
I0403 14:18:58.651867  1121 net.cpp:91] Creating Layer inception_5a/relu_5x5_reduce
I0403 14:18:58.651885  1121 net.cpp:425] inception_5a/relu_5x5_reduce <- inception_5a/5x5_reduce
I0403 14:18:58.651902  1121 net.cpp:386] inception_5a/relu_5x5_reduce -> inception_5a/5x5_reduce (in-place)
I0403 14:18:58.652230  1121 net.cpp:141] Setting up inception_5a/relu_5x5_reduce
I0403 14:18:58.652258  1121 net.cpp:148] Top shape: 24 32 7 7 (37632)
I0403 14:18:58.652276  1121 net.cpp:156] Memory required for data: 1299351072
I0403 14:18:58.652292  1121 layer_factory.hpp:77] Creating layer inception_5a/5x5
I0403 14:18:58.652317  1121 net.cpp:91] Creating Layer inception_5a/5x5
I0403 14:18:58.652335  1121 net.cpp:425] inception_5a/5x5 <- inception_5a/5x5_reduce
I0403 14:18:58.652357  1121 net.cpp:399] inception_5a/5x5 -> inception_5a/5x5
I0403 14:18:58.654237  1121 net.cpp:141] Setting up inception_5a/5x5
I0403 14:18:58.654284  1121 net.cpp:148] Top shape: 24 128 7 7 (150528)
I0403 14:18:58.654300  1121 net.cpp:156] Memory required for data: 1299953184
I0403 14:18:58.654320  1121 layer_factory.hpp:77] Creating layer inception_5a/relu_5x5
I0403 14:18:58.654342  1121 net.cpp:91] Creating Layer inception_5a/relu_5x5
I0403 14:18:58.654361  1121 net.cpp:425] inception_5a/relu_5x5 <- inception_5a/5x5
I0403 14:18:58.654381  1121 net.cpp:386] inception_5a/relu_5x5 -> inception_5a/5x5 (in-place)
I0403 14:18:58.654589  1121 net.cpp:141] Setting up inception_5a/relu_5x5
I0403 14:18:58.654628  1121 net.cpp:148] Top shape: 24 128 7 7 (150528)
I0403 14:18:58.654644  1121 net.cpp:156] Memory required for data: 1300555296
I0403 14:18:58.654659  1121 layer_factory.hpp:77] Creating layer inception_5a/pool
I0403 14:18:58.654677  1121 net.cpp:91] Creating Layer inception_5a/pool
I0403 14:18:58.654695  1121 net.cpp:425] inception_5a/pool <- pool4/3x3_s2_pool4/3x3_s2_0_split_3
I0403 14:18:58.654716  1121 net.cpp:399] inception_5a/pool -> inception_5a/pool
I0403 14:18:58.654793  1121 net.cpp:141] Setting up inception_5a/pool
I0403 14:18:58.654815  1121 net.cpp:148] Top shape: 24 832 7 7 (978432)
I0403 14:18:58.654830  1121 net.cpp:156] Memory required for data: 1304469024
I0403 14:18:58.654846  1121 layer_factory.hpp:77] Creating layer inception_5a/pool_proj
I0403 14:18:58.654875  1121 net.cpp:91] Creating Layer inception_5a/pool_proj
I0403 14:18:58.654892  1121 net.cpp:425] inception_5a/pool_proj <- inception_5a/pool
I0403 14:18:58.654913  1121 net.cpp:399] inception_5a/pool_proj -> inception_5a/pool_proj
I0403 14:18:58.657405  1121 net.cpp:141] Setting up inception_5a/pool_proj
I0403 14:18:58.657449  1121 net.cpp:148] Top shape: 24 128 7 7 (150528)
I0403 14:18:58.657466  1121 net.cpp:156] Memory required for data: 1305071136
I0403 14:18:58.657495  1121 layer_factory.hpp:77] Creating layer inception_5a/relu_pool_proj
I0403 14:18:58.657516  1121 net.cpp:91] Creating Layer inception_5a/relu_pool_proj
I0403 14:18:58.657534  1121 net.cpp:425] inception_5a/relu_pool_proj <- inception_5a/pool_proj
I0403 14:18:58.657554  1121 net.cpp:386] inception_5a/relu_pool_proj -> inception_5a/pool_proj (in-place)
I0403 14:18:58.657889  1121 net.cpp:141] Setting up inception_5a/relu_pool_proj
I0403 14:18:58.657915  1121 net.cpp:148] Top shape: 24 128 7 7 (150528)
I0403 14:18:58.657932  1121 net.cpp:156] Memory required for data: 1305673248
I0403 14:18:58.657946  1121 layer_factory.hpp:77] Creating layer inception_5a/output
I0403 14:18:58.657968  1121 net.cpp:91] Creating Layer inception_5a/output
I0403 14:18:58.657984  1121 net.cpp:425] inception_5a/output <- inception_5a/1x1
I0403 14:18:58.658001  1121 net.cpp:425] inception_5a/output <- inception_5a/3x3
I0403 14:18:58.658018  1121 net.cpp:425] inception_5a/output <- inception_5a/5x5
I0403 14:18:58.658035  1121 net.cpp:425] inception_5a/output <- inception_5a/pool_proj
I0403 14:18:58.658051  1121 net.cpp:399] inception_5a/output -> inception_5a/output
I0403 14:18:58.658105  1121 net.cpp:141] Setting up inception_5a/output
I0403 14:18:58.658128  1121 net.cpp:148] Top shape: 24 832 7 7 (978432)
I0403 14:18:58.658144  1121 net.cpp:156] Memory required for data: 1309586976
I0403 14:18:58.658159  1121 layer_factory.hpp:77] Creating layer inception_5a/output_inception_5a/output_0_split
I0403 14:18:58.658180  1121 net.cpp:91] Creating Layer inception_5a/output_inception_5a/output_0_split
I0403 14:18:58.658210  1121 net.cpp:425] inception_5a/output_inception_5a/output_0_split <- inception_5a/output
I0403 14:18:58.658231  1121 net.cpp:399] inception_5a/output_inception_5a/output_0_split -> inception_5a/output_inception_5a/output_0_split_0
I0403 14:18:58.658252  1121 net.cpp:399] inception_5a/output_inception_5a/output_0_split -> inception_5a/output_inception_5a/output_0_split_1
I0403 14:18:58.658274  1121 net.cpp:399] inception_5a/output_inception_5a/output_0_split -> inception_5a/output_inception_5a/output_0_split_2
I0403 14:18:58.658295  1121 net.cpp:399] inception_5a/output_inception_5a/output_0_split -> inception_5a/output_inception_5a/output_0_split_3
I0403 14:18:58.658429  1121 net.cpp:141] Setting up inception_5a/output_inception_5a/output_0_split
I0403 14:18:58.658457  1121 net.cpp:148] Top shape: 24 832 7 7 (978432)
I0403 14:18:58.658495  1121 net.cpp:148] Top shape: 24 832 7 7 (978432)
I0403 14:18:58.658511  1121 net.cpp:148] Top shape: 24 832 7 7 (978432)
I0403 14:18:58.658529  1121 net.cpp:148] Top shape: 24 832 7 7 (978432)
I0403 14:18:58.658542  1121 net.cpp:156] Memory required for data: 1325241888
I0403 14:18:58.658558  1121 layer_factory.hpp:77] Creating layer inception_5b/1x1
I0403 14:18:58.658586  1121 net.cpp:91] Creating Layer inception_5b/1x1
I0403 14:18:58.658617  1121 net.cpp:425] inception_5b/1x1 <- inception_5a/output_inception_5a/output_0_split_0
I0403 14:18:58.658645  1121 net.cpp:399] inception_5b/1x1 -> inception_5b/1x1
I0403 14:18:58.662757  1121 net.cpp:141] Setting up inception_5b/1x1
I0403 14:18:58.662787  1121 net.cpp:148] Top shape: 24 384 7 7 (451584)
I0403 14:18:58.662803  1121 net.cpp:156] Memory required for data: 1327048224
I0403 14:18:58.662823  1121 layer_factory.hpp:77] Creating layer inception_5b/relu_1x1
I0403 14:18:58.662843  1121 net.cpp:91] Creating Layer inception_5b/relu_1x1
I0403 14:18:58.662861  1121 net.cpp:425] inception_5b/relu_1x1 <- inception_5b/1x1
I0403 14:18:58.662879  1121 net.cpp:386] inception_5b/relu_1x1 -> inception_5b/1x1 (in-place)
I0403 14:18:58.663209  1121 net.cpp:141] Setting up inception_5b/relu_1x1
I0403 14:18:58.663236  1121 net.cpp:148] Top shape: 24 384 7 7 (451584)
I0403 14:18:58.663252  1121 net.cpp:156] Memory required for data: 1328854560
I0403 14:18:58.663269  1121 layer_factory.hpp:77] Creating layer inception_5b/3x3_reduce
I0403 14:18:58.663292  1121 net.cpp:91] Creating Layer inception_5b/3x3_reduce
I0403 14:18:58.663311  1121 net.cpp:425] inception_5b/3x3_reduce <- inception_5a/output_inception_5a/output_0_split_1
I0403 14:18:58.663347  1121 net.cpp:399] inception_5b/3x3_reduce -> inception_5b/3x3_reduce
I0403 14:18:58.666263  1121 net.cpp:141] Setting up inception_5b/3x3_reduce
I0403 14:18:58.666293  1121 net.cpp:148] Top shape: 24 192 7 7 (225792)
I0403 14:18:58.666322  1121 net.cpp:156] Memory required for data: 1329757728
I0403 14:18:58.666342  1121 layer_factory.hpp:77] Creating layer inception_5b/relu_3x3_reduce
I0403 14:18:58.666363  1121 net.cpp:91] Creating Layer inception_5b/relu_3x3_reduce
I0403 14:18:58.666381  1121 net.cpp:425] inception_5b/relu_3x3_reduce <- inception_5b/3x3_reduce
I0403 14:18:58.666401  1121 net.cpp:386] inception_5b/relu_3x3_reduce -> inception_5b/3x3_reduce (in-place)
I0403 14:18:58.666625  1121 net.cpp:141] Setting up inception_5b/relu_3x3_reduce
I0403 14:18:58.666654  1121 net.cpp:148] Top shape: 24 192 7 7 (225792)
I0403 14:18:58.666671  1121 net.cpp:156] Memory required for data: 1330660896
I0403 14:18:58.666685  1121 layer_factory.hpp:77] Creating layer inception_5b/3x3
I0403 14:18:58.666708  1121 net.cpp:91] Creating Layer inception_5b/3x3
I0403 14:18:58.666726  1121 net.cpp:425] inception_5b/3x3 <- inception_5b/3x3_reduce
I0403 14:18:58.666745  1121 net.cpp:399] inception_5b/3x3 -> inception_5b/3x3
I0403 14:18:58.673568  1121 net.cpp:141] Setting up inception_5b/3x3
I0403 14:18:58.673599  1121 net.cpp:148] Top shape: 24 384 7 7 (451584)
I0403 14:18:58.673614  1121 net.cpp:156] Memory required for data: 1332467232
I0403 14:18:58.673634  1121 layer_factory.hpp:77] Creating layer inception_5b/relu_3x3
I0403 14:18:58.673655  1121 net.cpp:91] Creating Layer inception_5b/relu_3x3
I0403 14:18:58.673672  1121 net.cpp:425] inception_5b/relu_3x3 <- inception_5b/3x3
I0403 14:18:58.673691  1121 net.cpp:386] inception_5b/relu_3x3 -> inception_5b/3x3 (in-place)
I0403 14:18:58.673988  1121 net.cpp:141] Setting up inception_5b/relu_3x3
I0403 14:18:58.674015  1121 net.cpp:148] Top shape: 24 384 7 7 (451584)
I0403 14:18:58.674031  1121 net.cpp:156] Memory required for data: 1334273568
I0403 14:18:58.674046  1121 layer_factory.hpp:77] Creating layer inception_5b/5x5_reduce
I0403 14:18:58.674087  1121 net.cpp:91] Creating Layer inception_5b/5x5_reduce
I0403 14:18:58.674105  1121 net.cpp:425] inception_5b/5x5_reduce <- inception_5a/output_inception_5a/output_0_split_2
I0403 14:18:58.674127  1121 net.cpp:399] inception_5b/5x5_reduce -> inception_5b/5x5_reduce
I0403 14:18:58.675420  1121 net.cpp:141] Setting up inception_5b/5x5_reduce
I0403 14:18:58.675449  1121 net.cpp:148] Top shape: 24 48 7 7 (56448)
I0403 14:18:58.675464  1121 net.cpp:156] Memory required for data: 1334499360
I0403 14:18:58.675483  1121 layer_factory.hpp:77] Creating layer inception_5b/relu_5x5_reduce
I0403 14:18:58.675504  1121 net.cpp:91] Creating Layer inception_5b/relu_5x5_reduce
I0403 14:18:58.675521  1121 net.cpp:425] inception_5b/relu_5x5_reduce <- inception_5b/5x5_reduce
I0403 14:18:58.675539  1121 net.cpp:386] inception_5b/relu_5x5_reduce -> inception_5b/5x5_reduce (in-place)
I0403 14:18:58.675915  1121 net.cpp:141] Setting up inception_5b/relu_5x5_reduce
I0403 14:18:58.675941  1121 net.cpp:148] Top shape: 24 48 7 7 (56448)
I0403 14:18:58.675957  1121 net.cpp:156] Memory required for data: 1334725152
I0403 14:18:58.675972  1121 layer_factory.hpp:77] Creating layer inception_5b/5x5
I0403 14:18:58.675993  1121 net.cpp:91] Creating Layer inception_5b/5x5
I0403 14:18:58.676010  1121 net.cpp:425] inception_5b/5x5 <- inception_5b/5x5_reduce
I0403 14:18:58.676029  1121 net.cpp:399] inception_5b/5x5 -> inception_5b/5x5
I0403 14:18:58.678127  1121 net.cpp:141] Setting up inception_5b/5x5
I0403 14:18:58.678155  1121 net.cpp:148] Top shape: 24 128 7 7 (150528)
I0403 14:18:58.678171  1121 net.cpp:156] Memory required for data: 1335327264
I0403 14:18:58.678195  1121 layer_factory.hpp:77] Creating layer inception_5b/relu_5x5
I0403 14:18:58.678213  1121 net.cpp:91] Creating Layer inception_5b/relu_5x5
I0403 14:18:58.678231  1121 net.cpp:425] inception_5b/relu_5x5 <- inception_5b/5x5
I0403 14:18:58.678247  1121 net.cpp:386] inception_5b/relu_5x5 -> inception_5b/5x5 (in-place)
I0403 14:18:58.678444  1121 net.cpp:141] Setting up inception_5b/relu_5x5
I0403 14:18:58.678479  1121 net.cpp:148] Top shape: 24 128 7 7 (150528)
I0403 14:18:58.678495  1121 net.cpp:156] Memory required for data: 1335929376
I0403 14:18:58.678511  1121 layer_factory.hpp:77] Creating layer inception_5b/pool
I0403 14:18:58.678529  1121 net.cpp:91] Creating Layer inception_5b/pool
I0403 14:18:58.678545  1121 net.cpp:425] inception_5b/pool <- inception_5a/output_inception_5a/output_0_split_3
I0403 14:18:58.678566  1121 net.cpp:399] inception_5b/pool -> inception_5b/pool
I0403 14:18:58.678640  1121 net.cpp:141] Setting up inception_5b/pool
I0403 14:18:58.678666  1121 net.cpp:148] Top shape: 24 832 7 7 (978432)
I0403 14:18:58.678683  1121 net.cpp:156] Memory required for data: 1339843104
I0403 14:18:58.678697  1121 layer_factory.hpp:77] Creating layer inception_5b/pool_proj
I0403 14:18:58.678719  1121 net.cpp:91] Creating Layer inception_5b/pool_proj
I0403 14:18:58.678737  1121 net.cpp:425] inception_5b/pool_proj <- inception_5b/pool
I0403 14:18:58.678756  1121 net.cpp:399] inception_5b/pool_proj -> inception_5b/pool_proj
I0403 14:18:58.681089  1121 net.cpp:141] Setting up inception_5b/pool_proj
I0403 14:18:58.681118  1121 net.cpp:148] Top shape: 24 128 7 7 (150528)
I0403 14:18:58.681134  1121 net.cpp:156] Memory required for data: 1340445216
I0403 14:18:58.681154  1121 layer_factory.hpp:77] Creating layer inception_5b/relu_pool_proj
I0403 14:18:58.681182  1121 net.cpp:91] Creating Layer inception_5b/relu_pool_proj
I0403 14:18:58.681201  1121 net.cpp:425] inception_5b/relu_pool_proj <- inception_5b/pool_proj
I0403 14:18:58.681219  1121 net.cpp:386] inception_5b/relu_pool_proj -> inception_5b/pool_proj (in-place)
I0403 14:18:58.681524  1121 net.cpp:141] Setting up inception_5b/relu_pool_proj
I0403 14:18:58.681550  1121 net.cpp:148] Top shape: 24 128 7 7 (150528)
I0403 14:18:58.681565  1121 net.cpp:156] Memory required for data: 1341047328
I0403 14:18:58.681579  1121 layer_factory.hpp:77] Creating layer inception_5b/output
I0403 14:18:58.681601  1121 net.cpp:91] Creating Layer inception_5b/output
I0403 14:18:58.681633  1121 net.cpp:425] inception_5b/output <- inception_5b/1x1
I0403 14:18:58.681651  1121 net.cpp:425] inception_5b/output <- inception_5b/3x3
I0403 14:18:58.681669  1121 net.cpp:425] inception_5b/output <- inception_5b/5x5
I0403 14:18:58.681685  1121 net.cpp:425] inception_5b/output <- inception_5b/pool_proj
I0403 14:18:58.681704  1121 net.cpp:399] inception_5b/output -> inception_5b/output
I0403 14:18:58.681758  1121 net.cpp:141] Setting up inception_5b/output
I0403 14:18:58.681782  1121 net.cpp:148] Top shape: 24 1024 7 7 (1204224)
I0403 14:18:58.681797  1121 net.cpp:156] Memory required for data: 1345864224
I0403 14:18:58.681812  1121 layer_factory.hpp:77] Creating layer pool5/7x7_s1
I0403 14:18:58.681828  1121 net.cpp:91] Creating Layer pool5/7x7_s1
I0403 14:18:58.681845  1121 net.cpp:425] pool5/7x7_s1 <- inception_5b/output
I0403 14:18:58.681866  1121 net.cpp:399] pool5/7x7_s1 -> pool5/7x7_s1
I0403 14:18:58.682085  1121 net.cpp:141] Setting up pool5/7x7_s1
I0403 14:18:58.682109  1121 net.cpp:148] Top shape: 24 1024 1 1 (24576)
I0403 14:18:58.682126  1121 net.cpp:156] Memory required for data: 1345962528
I0403 14:18:58.682140  1121 layer_factory.hpp:77] Creating layer pool5/drop_7x7_s1
I0403 14:18:58.682160  1121 net.cpp:91] Creating Layer pool5/drop_7x7_s1
I0403 14:18:58.682181  1121 net.cpp:425] pool5/drop_7x7_s1 <- pool5/7x7_s1
I0403 14:18:58.682200  1121 net.cpp:386] pool5/drop_7x7_s1 -> pool5/7x7_s1 (in-place)
I0403 14:18:58.682253  1121 net.cpp:141] Setting up pool5/drop_7x7_s1
I0403 14:18:58.682276  1121 net.cpp:148] Top shape: 24 1024 1 1 (24576)
I0403 14:18:58.682291  1121 net.cpp:156] Memory required for data: 1346060832
I0403 14:18:58.682307  1121 layer_factory.hpp:77] Creating layer loss3/classifier_plantvillage
I0403 14:18:58.682328  1121 net.cpp:91] Creating Layer loss3/classifier_plantvillage
I0403 14:18:58.682345  1121 net.cpp:425] loss3/classifier_plantvillage <- pool5/7x7_s1
I0403 14:18:58.682364  1121 net.cpp:399] loss3/classifier_plantvillage -> loss3/classifier_plantvillage
I0403 14:18:58.682797  1121 net.cpp:141] Setting up loss3/classifier_plantvillage
I0403 14:18:58.682821  1121 net.cpp:148] Top shape: 24 38 (912)
I0403 14:18:58.682837  1121 net.cpp:156] Memory required for data: 1346064480
I0403 14:18:58.682855  1121 layer_factory.hpp:77] Creating layer loss3/classifier_plantvillage_loss3/classifier_plantvillage_0_split
I0403 14:18:58.682874  1121 net.cpp:91] Creating Layer loss3/classifier_plantvillage_loss3/classifier_plantvillage_0_split
I0403 14:18:58.682890  1121 net.cpp:425] loss3/classifier_plantvillage_loss3/classifier_plantvillage_0_split <- loss3/classifier_plantvillage
I0403 14:18:58.682911  1121 net.cpp:399] loss3/classifier_plantvillage_loss3/classifier_plantvillage_0_split -> loss3/classifier_plantvillage_loss3/classifier_plantvillage_0_split_0
I0403 14:18:58.682934  1121 net.cpp:399] loss3/classifier_plantvillage_loss3/classifier_plantvillage_0_split -> loss3/classifier_plantvillage_loss3/classifier_plantvillage_0_split_1
I0403 14:18:58.682955  1121 net.cpp:399] loss3/classifier_plantvillage_loss3/classifier_plantvillage_0_split -> loss3/classifier_plantvillage_loss3/classifier_plantvillage_0_split_2
I0403 14:18:58.682976  1121 net.cpp:399] loss3/classifier_plantvillage_loss3/classifier_plantvillage_0_split -> loss3/classifier_plantvillage_loss3/classifier_plantvillage_0_split_3
I0403 14:18:58.683081  1121 net.cpp:141] Setting up loss3/classifier_plantvillage_loss3/classifier_plantvillage_0_split
I0403 14:18:58.683104  1121 net.cpp:148] Top shape: 24 38 (912)
I0403 14:18:58.683121  1121 net.cpp:148] Top shape: 24 38 (912)
I0403 14:18:58.683136  1121 net.cpp:148] Top shape: 24 38 (912)
I0403 14:18:58.683152  1121 net.cpp:148] Top shape: 24 38 (912)
I0403 14:18:58.683166  1121 net.cpp:156] Memory required for data: 1346079072
I0403 14:18:58.683192  1121 layer_factory.hpp:77] Creating layer loss1/loss
I0403 14:18:58.683217  1121 net.cpp:91] Creating Layer loss1/loss
I0403 14:18:58.683234  1121 net.cpp:425] loss1/loss <- loss1/classifier_plantvillage_loss1/classifier_plantvillage_0_split_0
I0403 14:18:58.683265  1121 net.cpp:425] loss1/loss <- label_data_1_split_0
…
