…
I0403 14:07:46.964207   858 net.cpp:313] The NetState phase (1) differed from the phase (0) specified by a rule in layer data
I0403 14:07:46.965451   858 net.cpp:49] Initializing net from parameters: 
state {
  phase: TEST
}
layer {
  name: "data"
  type: "Data"
  top: "data"
  top: "label"
  include {
    phase: TEST
  }
  transform_param {
    mirror: false
    crop_size: 224
    mean_file: "/home/mohanty/data/final_dataset/lmdb/grayscale-20-80/mean.binaryproto"
  }
  data_param {
    source: "/home/mohanty/data/final_dataset/lmdb/grayscale-20-80/test_db"
    batch_size: 24
    backend: LMDB
  }
}
layer {
  name: "conv1/7x7_s2"
  type: "Convolution"
  bottom: "data"
  top: "conv1/7x7_s2"
  param {
    lr_mult: 1
    decay_mult: 1
  }
  param {
    lr_mult: 2
    decay_mult: 0
  }
  convolution_param {
    num_output: 64
    pad: 3
    kernel_size: 7
    stride: 2
    weight_filler {
      type: "xavier"
      std: 0.1
    }
    bias_filler {
      type: "constant"
      value: 0.2
    }
  }
}
layer {
  name: "conv1/relu_7x7"
  type: "ReLU"
  bottom: "conv1/7x7_s2"
  top: "conv1/7x7_s2"
}
layer {
  name: "pool1/3x3_s2"
  type: "Pooling"
  bottom: "conv1/7x7_s2"
  top: "pool1/3x3_s2"
  pooling_param {
    pool: MAX
    kernel_size: 3
    stride: 2
  }
}
layer {
  name: "pool1/norm1"
  type: "LRN"
  bottom: "pool1/3x3_s2"
  top: "pool1/norm1"
  lrn_param {
    local_size: 5
    alpha: 0.0001
    beta: 0.75
  }
}
layer {
  name: "conv2/3x3_reduce"
  type: "Convolution"
  bottom: "pool1/norm1"
  top: "conv2/3x3_reduce"
  param {
    lr_mult: 1
    decay_mult: 1
  }
  param {
    lr_mult: 2
    decay_mult: 0
  }
  convolution_param {
    num_output: 64
    kernel_size: 1
    weight_filler {
      type: "xavier"
      std: 0.1
    }
    bias_filler {
      type: "constant"
      value: 0.2
    }
  }
}
layer {
  name: "conv2/relu_3x3_reduce"
  type: "ReLU"
  bottom: "conv2/3x3_reduce"
  top: "conv2/3x3_reduce"
}
layer {
  name: "conv2/3x3"
  type: "Convolution"
  bottom: "conv2/3x3_reduce"
  top: "conv2/3x3"
  param {
    lr_mult: 1
    decay_mult: 1
  }
  param {
    lr_mult: 2
    decay_mult: 0
  }
  convolution_param {
    num_output: 192
    pad: 1
    kernel_size: 3
    weight_filler {
      type: "xavier"
      std: 0.03
    }
    bias_filler {
      type: "constant"
      value: 0.2
    }
  }
}
layer {
  name: "conv2/relu_3x3"
  type: "ReLU"
  bottom: "conv2/3x3"
  top: "conv2/3x3"
}
layer {
  name: "conv2/norm2"
  type: "LRN"
  bottom: "conv2/3x3"
  top: "conv2/norm2"
  lrn_param {
    local_size: 5
    alpha: 0.0001
    beta: 0.75
  }
}
layer {
  name: "pool2/3x3_s2"
  type: "Pooling"
  bottom: "conv2/norm2"
  top: "pool2/3x3_s2"
  pooling_param {
    pool: MAX
    kernel_size: 3
    stride: 2
  }
}
layer {
  name: "inception_3a/1x1"
  type: "Convolution"
  bottom: "pool2/3x3_s2"
  top: "inception_3a/1x1"
  param {
    lr_mult: 1
    decay_mult: 1
  }
  param {
    lr_mult: 2
    decay_mult: 0
  }
  convolution_param {
    num_output: 64
    kernel_size: 1
    weight_filler {
      type: "xavier"
      std: 0.03
    }
    bias_filler {
      type: "constant"
      value: 0.2
    }
  }
}
layer {
  name: "inception_3a/relu_1x1"
  type: "ReLU"
  bottom: "inception_3a/1x1"
  top: "inception_3a/1x1"
}
layer {
  name: "inception_3a/3x3_reduce"
  type: "Convolution"
  bottom: "pool2/3x3_s2"
  top: "inception_3a/3x3_reduce"
  param {
    lr_mult: 1
    decay_mult: 1
  }
  param {
    lr_mult: 2
    decay_mult: 0
  }
  convolution_param {
    num_output: 96
    kernel_size: 1
    weight_filler {
      type: "xavier"
      std: 0.09
    }
    bias_filler {
      type: "constant"
      value: 0.2
    }
  }
}
layer {
  name: "inception_3a/relu_3x3_reduce"
  type: "ReLU"
  bottom: "inception_3a/3x3_reduce"
  top: "inception_3a/3x3_reduce"
}
layer {
  name: "inception_3a/3x3"
  type: "Convolution"
  bottom: "inception_3a/3x3_reduce"
  top: "inception_3a/3x3"
  param {
    lr_mult: 1
    decay_mult: 1
  }
  param {
    lr_mult: 2
    decay_mult: 0
  }
  convolution_param {
    num_output: 128
    pad: 1
    kernel_size: 3
    weight_filler {
      type: "xavier"
      std: 0.03
    }
    bias_filler {
      type: "constant"
      value: 0.2
    }
  }
}
layer {
  name: "inception_3a/relu_3x3"
  type: "ReLU"
  bottom: "inception_3a/3x3"
  top: "inception_3a/3x3"
}
layer {
  name: "inception_3a/5x5_reduce"
  type: "Convolution"
  bottom: "pool2/3x3_s2"
  top: "inception_3a/5x5_reduce"
  param {
    lr_mult: 1
    decay_mult: 1
  }
  param {
    lr_mult: 2
    decay_mult: 0
  }
  convolution_param {
    num_output: 16
    kernel_size: 1
    weight_filler {
      type: "xavier"
      std: 0.2
    }
    bias_filler {
      type: "constant"
      value: 0.2
    }
  }
}
layer {
  name: "inception_3a/relu_5x5_reduce"
  type: "ReLU"
  bottom: "inception_3a/5x5_reduce"
  top: "inception_3a/5x5_reduce"
}
layer {
  name: "inception_3a/5x5"
  type: "Convolution"
  bottom: "inception_3a/5x5_reduce"
  top: "inception_3a/5x5"
  param {
    lr_mult: 1
    decay_mult: 1
  }
  param {
    lr_mult: 2
    decay_mult: 0
  }
  convolution_param {
    num_output: 32
    pad: 2
    kernel_size: 5
    weight_filler {
      type: "xavier"
      std: 0.03
    }
    bias_filler {
      type: "constant"
      value: 0.2
    }
  }
}
layer {
  name: "inception_3a/relu_5x5"
  type: "ReLU"
  bottom: "inception_3a/5x5"
  top: "inception_3a/5x5"
}
layer {
  name: "inception_3a/pool"
  type: "Pooling"
  bottom: "pool2/3x3_s2"
  top: "inception_3a/pool"
  pooling_param {
    pool: MAX
    kernel_size: 3
    stride: 1
    pad: 1
  }
}
layer {
  name: "inception_3a/pool_proj"
  type: "Convolution"
  bottom: "inception_3a/pool"
  top: "inception_3a/pool_proj"
  param {
    lr_mult: 1
    decay_mult: 1
  }
  param {
    lr_mult: 2
    decay_mult: 0
  }
  convolution_param {
    num_output: 32
    kernel_size: 1
    weight_filler {
      type: "xavier"
      std: 0.1
    }
    bias_filler {
      type: "constant"
      value: 0.2
    }
  }
}
layer {
  name: "inception_3a/relu_pool_proj"
  type: "ReLU"
  bottom: "inception_3a/pool_proj"
  top: "inception_3a/pool_proj"
}
layer {
  name: "inception_3a/output"
  type: "Concat"
  bottom: "inception_3a/1x1"
  bottom: "inception_3a/3x3"
  bottom: "inception_3a/5x5"
  bottom: "inception_3a/pool_proj"
  top: "inception_3a/output"
}
layer {
  name: "inception_3b/1x1"
  type: "Convolution"
  bottom: "inception_3a/output"
  top: "inception_3b/1x1"
  param {
    lr_mult: 1
    decay_mult: 1
  }
  param {
    lr_mult: 2
    decay_mult: 0
  }
  convolution_param {
    num_output: 128
    kernel_size: 1
    weight_filler {
      type: "xavier"
      std: 0.03
    }
    bias_filler {
      type: "constant"
      value: 0.2
    }
  }
}
layer {
  name: "inception_3b/relu_1x1"
  type: "ReLU"
  bottom: "inception_3b/1x1"
  top: "inception_3b/1x1"
}
layer {
  name: "inception_3b/3x3_reduce"
  type: "Convolution"
  bottom: "inception_3a/output"
  top: "inception_3b/3x3_reduce"
  param {
    lr_mult: 1
    decay_mult: 1
  }
  param {
    lr_mult: 2
    decay_mult: 0
  }
  convolution_param {
    num_output: 128
    kernel_size: 1
    weight_filler {
      type: "xavier"
      std: 0.09
    }
    bias_filler {
      type: "constant"
      value: 0.2
    }
  }
}
layer {
  name: "inception_3b/relu_3x3_reduce"
  type: "ReLU"
  bottom: "inception_3b/3x3_reduce"
  top: "inception_3b/3x3_reduce"
}
layer {
  name: "inception_3b/3x3"
  type: "Convolution"
  bottom: "inception_3b/3x3_reduce"
  top: "inception_3b/3x3"
  param {
    lr_mult: 1
    decay_mult: 1
  }
  param {
    lr_mult: 2
    decay_mult: 0
  }
  convolution_param {
    num_output: 192
    pad: 1
    kernel_size: 3
    weight_filler {
      type: "xavier"
      std: 0.03
    }
    bias_filler {
      type: "constant"
      value: 0.2
    }
  }
}
layer {
  name: "inception_3b/relu_3x3"
  type: "ReLU"
  bottom: "inception_3b/3x3"
  top: "inception_3b/3x3"
}
layer {
  name: "inception_3b/5x5_reduce"
  type: "Convolution"
  bottom: "inception_3a/output"
  top: "inception_3b/5x5_reduce"
  param {
    lr_mult: 1
    decay_mult: 1
  }
  param {
    lr_mult: 2
    decay_mult: 0
  }
  convolution_param {
    num_output: 32
    kernel_size: 1
    weight_filler {
      type: "xavier"
      std: 0.2
    }
    bias_filler {
      type: "constant"
      value: 0.2
    }
  }
}
layer {
  name: "inception_3b/relu_5x5_reduce"
  type: "ReLU"
  bottom: "inception_3b/5x5_reduce"
  top: "inception_3b/5x5_reduce"
}
layer {
  name: "inception_3b/5x5"
  type: "Convolution"
  bottom: "inception_3b/5x5_reduce"
  top: "inception_3b/5x5"
  param {
    lr_mult: 1
    decay_mult: 1
  }
  param {
    lr_mult: 2
    decay_mult: 0
  }
  convolution_param {
    num_output: 96
    pad: 2
    kernel_size: 5
    weight_filler {
      type: "xavier"
      std: 0.03
    }
    bias_filler {
      type: "constant"
      value: 0.2
    }
  }
}
layer {
  name: "inception_3b/relu_5x5"
  type: "ReLU"
  bottom: "inception_3b/5x5"
  top: "inception_3b/5x5"
}
layer {
  name: "inception_3b/pool"
  type: "Pooling"
  bottom: "inception_3a/output"
  top: "inception_3b/pool"
  pooling_param {
    pool: MAX
    kernel_size: 3
    stride: 1
    pad: 1
  }
}
layer {
  name: "inception_3b/pool_proj"
  type: "Convolution"
  bottom: "inception_3b/pool"
  top: "inception_3b/pool_proj"
  param {
    lr_mult: 1
    decay_mult: 1
  }
  param {
    lr_mult: 2
    decay_mult: 0
  }
  convolution_param {
    num_output: 64
    kernel_size: 1
    weight_filler {
      type: "xavier"
      std: 0.1
    }
    bias_filler {
      type: "constant"
      value: 0.2
    }
  }
}
layer {
  name: "inception_3b/relu_pool_proj"
  type: "ReLU"
  bottom: "inception_3b/pool_proj"
  top: "inception_3b/pool_proj"
}
layer {
  name: "inception_3b/output"
  type: "Concat"
  bottom: "inception_3b/1x1"
  bottom: "inception_3b/3x3"
  bottom: "inception_3b/5x5"
  bottom: "inception_3b/pool_proj"
  top: "inception_3b/output"
}
layer {
  name: "pool3/3x3_s2"
  type: "Pooling"
  bottom: "inception_3b/output"
  top: "pool3/3x3_s2"
  pooling_param {
    pool: MAX
    kernel_size: 3
    stride: 2
  }
}
layer {
  name: "inception_4a/1x1"
  type: "Convolution"
  bottom: "pool3/3x3_s2"
  top: "inception_4a/1x1"
  param {
    lr_mult: 1
    decay_mult: 1
  }
  param {
    lr_mult: 2
    decay_mult: 0
  }
  convolution_param {
    num_output: 192
    kernel_size: 1
    weight_filler {
      type: "xavier"
      std: 0.03
    }
    bias_filler {
      type: "constant"
      value: 0.2
    }
  }
}
layer {
  name: "inception_4a/relu_1x1"
  type: "ReLU"
  bottom: "inception_4a/1x1"
  top: "inception_4a/1x1"
}
layer {
  name: "inception_4a/3x3_reduce"
  type: "Convolution"
  bottom: "pool3/3x3_s2"
  top: "inception_4a/3x3_reduce"
  param {
    lr_mult: 1
    decay_mult: 1
  }
  param {
    lr_mult: 2
    decay_mult: 0
  }
  convolution_param {
    num_output: 96
    kernel_size: 1
    weight_filler {
      type: "xavier"
      std: 0.09
    }
    bias_filler {
      type: "constant"
      value: 0.2
    }
  }
}
layer {
  name: "inception_4a/relu_3x3_reduce"
  type: "ReLU"
  bottom: "inception_4a/3x3_reduce"
  top: "inception_4a/3x3_reduce"
}
layer {
  name: "inception_4a/3x3"
  type: "Convolution"
  bottom: "inception_4a/3x3_reduce"
  top: "inception_4a/3x3"
  param {
    lr_mult: 1
    decay_mult: 1
  }
  param {
    lr_mult: 2
    decay_mult: 0
  }
  convolution_param {
    num_output: 208
    pad: 1
    kernel_size: 3
    weight_filler {
      type: "xavier"
      std: 0.03
    }
    bias_filler {
      type: "constant"
      value: 0.2
    }
  }
}
layer {
  name: "inception_4a/relu_3x3"
  type: "ReLU"
  bottom: "inception_4a/3x3"
  top: "inception_4a/3x3"
}
layer {
  name: "inception_4a/5x5_reduce"
  type: "Convolution"
  bottom: "pool3/3x3_s2"
  top: "inception_4a/5x5_reduce"
  param {
    lr_mult: 1
    decay_mult: 1
  }
  param {
    lr_mult: 2
    decay_mult: 0
  }
  convolution_param {
    num_output: 16
    kernel_size: 1
    weight_filler {
      type: "xavier"
      std: 0.2
    }
    bias_filler {
      type: "constant"
      value: 0.2
    }
  }
}
layer {
  name: "inception_4a/relu_5x5_reduce"
  type: "ReLU"
  bottom: "inception_4a/5x5_reduce"
  top: "inception_4a/5x5_reduce"
}
layer {
  name: "inception_4a/5x5"
  type: "Convolution"
  bottom: "inception_4a/5x5_reduce"
  top: "inception_4a/5x5"
  param {
    lr_mult: 1
    decay_mult: 1
  }
  param {
    lr_mult: 2
    decay_mult: 0
  }
  convolution_param {
    num_output: 48
    pad: 2
    kernel_size: 5
    weight_filler {
      type: "xavier"
      std: 0.03
    }
    bias_filler {
      type: "constant"
      value: 0.2
    }
  }
}
layer {
  name: "inception_4a/relu_5x5"
  type: "ReLU"
  bottom: "inception_4a/5x5"
  top: "inception_4a/5x5"
}
layer {
  name: "inception_4a/pool"
  type: "Pooling"
  bottom: "pool3/3x3_s2"
  top: "inception_4a/pool"
  pooling_param {
    pool: MAX
    kernel_size: 3
    stride: 1
    pad: 1
  }
}
layer {
  name: "inception_4a/pool_proj"
  type: "Convolution"
  bottom: "inception_4a/pool"
  top: "inception_4a/pool_proj"
  param {
    lr_mult: 1
    decay_mult: 1
  }
  param {
    lr_mult: 2
    decay_mult: 0
  }
  convolution_param {
    num_output: 64
    kernel_size: 1
    weight_filler {
      type: "xavier"
      std: 0.1
    }
    bias_filler {
      type: "constant"
      value: 0.2
    }
  }
}
layer {
  name: "inception_4a/relu_pool_proj"
  type: "ReLU"
  bottom: "inception_4a/pool_proj"
  top: "inception_4a/pool_proj"
}
layer {
  name: "inception_4a/output"
  type: "Concat"
  bottom: "inception_4a/1x1"
  bottom: "inception_4a/3x3"
  bottom: "inception_4a/5x5"
  bottom: "inception_4a/pool_proj"
  top: "inception_4a/output"
}
layer {
  name: "loss1/ave_pool"
  type: "Pooling"
  bottom: "inception_4a/output"
  top: "loss1/ave_pool"
  pooling_param {
    pool: AVE
    kernel_size: 5
    stride: 3
  }
}
layer {
  name: "loss1/conv"
  type: "Convolution"
  bottom: "loss1/ave_pool"
  top: "loss1/conv"
  param {
    lr_mult: 1
    decay_mult: 1
  }
  param {
    lr_mult: 2
    decay_mult: 0
  }
  convolution_param {
    num_output: 128
    kernel_size: 1
    weight_filler {
      type: "xavier"
      std: 0.08
    }
    bias_filler {
      type: "constant"
      value: 0.2
    }
  }
}
layer {
  name: "loss1/relu_conv"
  type: "ReLU"
  bottom: "loss1/conv"
  top: "loss1/conv"
}
layer {
  name: "loss1/fc"
  type: "InnerProduct"
  bottom: "loss1/conv"
  top: "loss1/fc"
  param {
    lr_mult: 1
    decay_mult: 1
  }
  param {
    lr_mult: 2
    decay_mult: 0
  }
  inner_product_param {
    num_output: 1024
    weight_filler {
      type: "xavier"
      std: 0.02
    }
    bias_filler {
      type: "constant"
      value: 0.2
    }
  }
}
layer {
  name: "loss1/relu_fc"
  type: "ReLU"
  bottom: "loss1/fc"
  top: "loss1/fc"
}
layer {
  name: "loss1/drop_fc"
  type: "Dropout"
  bottom: "loss1/fc"
  top: "loss1/fc"
  dropout_param {
    dropout_ratio: 0.7
  }
}
layer {
  name: "loss1/classifier_plantvillage"
  type: "InnerProduct"
  bottom: "loss1/fc"
  top: "loss1/classifier_plantvillage"
  param {
    lr_mult: 1
    decay_mult: 1
  }
  param {
    lr_mult: 2
    decay_mult: 0
  }
  inner_product_param {
    num_output: 38
    weight_filler {
      type: "xavier"
      std: 0.0009765625
    }
    bias_filler {
      type: "constant"
      value: 0
    }
  }
}
layer {
  name: "inception_4b/1x1"
  type: "Convolution"
  bottom: "inception_4a/output"
  top: "inception_4b/1x1"
  param {
    lr_mult: 1
    decay_mult: 1
  }
  param {
    lr_mult: 2
    decay_mult: 0
  }
  convolution_param {
    num_output: 160
    kernel_size: 1
    weight_filler {
      type: "xavier"
      std: 0.03
    }
    bias_filler {
      type: "constant"
      value: 0.2
    }
  }
}
layer {
  name: "inception_4b/relu_1x1"
  type: "ReLU"
  bottom: "inception_4b/1x1"
  top: "inception_4b/1x1"
}
layer {
  name: "inception_4b/3x3_reduce"
  type: "Convolution"
  bottom: "inception_4a/output"
  top: "inception_4b/3x3_reduce"
  param {
    lr_mult: 1
    decay_mult: 1
  }
  param {
    lr_mult: 2
    decay_mult: 0
  }
  convolution_param {
    num_output: 112
    kernel_size: 1
    weight_filler {
      type: "xavier"
      std: 0.09
    }
    bias_filler {
      type: "constant"
      value: 0.2
    }
  }
}
layer {
  name: "inception_4b/relu_3x3_reduce"
  type: "ReLU"
  bottom: "inception_4b/3x3_reduce"
  top: "inception_4b/3x3_reduce"
}
layer {
  name: "inception_4b/3x3"
  type: "Convolution"
  bottom: "inception_4b/3x3_reduce"
  top: "inception_4b/3x3"
  param {
    lr_mult: 1
    decay_mult: 1
  }
  param {
    lr_mult: 2
    decay_mult: 0
  }
  convolution_param {
    num_output: 224
    pad: 1
    kernel_size: 3
    weight_filler {
      type: "xavier"
      std: 0.03
    }
    bias_filler {
      type: "constant"
      value: 0.2
    }
  }
}
layer {
  name: "inception_4b/relu_3x3"
  type: "ReLU"
  bottom: "inception_4b/3x3"
  top: "inception_4b/3x3"
}
layer {
  name: "inception_4b/5x5_reduce"
  type: "Convolution"
  bottom: "inception_4a/output"
  top: "inception_4b/5x5_reduce"
  param {
    lr_mult: 1
    decay_mult: 1
  }
  param {
    lr_mult: 2
    decay_mult: 0
  }
  convolution_param {
    num_output: 24
    kernel_size: 1
    weight_filler {
      type: "xavier"
      std: 0.2
    }
    bias_filler {
      type: "constant"
      value: 0.2
    }
  }
}
layer {
  name: "inception_4b/relu_5x5_reduce"
  type: "ReLU"
  bottom: "inception_4b/5x5_reduce"
  top: "inception_4b/5x5_reduce"
}
layer {
  name: "inception_4b/5x5"
  type: "Convolution"
  bottom: "inception_4b/5x5_reduce"
  top: "inception_4b/5x5"
  param {
    lr_mult: 1
    decay_mult: 1
  }
  param {
    lr_mult: 2
    decay_mult: 0
  }
  convolution_param {
    num_output: 64
    pad: 2
    kernel_size: 5
    weight_filler {
      type: "xavier"
      std: 0.03
    }
    bias_filler {
      type: "constant"
      value: 0.2
    }
  }
}
layer {
  name: "inception_4b/relu_5x5"
  type: "ReLU"
  bottom: "inception_4b/5x5"
  top: "inception_4b/5x5"
}
layer {
  name: "inception_4b/pool"
  type: "Pooling"
  bottom: "inception_4a/output"
  top: "inception_4b/pool"
  pooling_param {
    pool: MAX
    kernel_size: 3
    stride: 1
    pad: 1
  }
}
layer {
  name: "inception_4b/pool_proj"
  type: "Convolution"
  bottom: "inception_4b/pool"
  top: "inception_4b/pool_proj"
  param {
    lr_mult: 1
    decay_mult: 1
  }
  param {
    lr_mult: 2
    decay_mult: 0
  }
  convolution_param {
    num_output: 64
    kernel_size: 1
    weight_filler {
      type: "xavier"
      std: 0.1
    }
    bias_filler {
      type: "constant"
      value: 0.2
    }
  }
}
layer {
  name: "inception_4b/relu_pool_proj"
  type: "ReLU"
  bottom: "inception_4b/pool_proj"
  top: "inception_4b/pool_proj"
}
layer {
  name: "inception_4b/output"
  type: "Concat"
  bottom: "inception_4b/1x1"
  bottom: "inception_4b/3x3"
  bottom: "inception_4b/5x5"
  bottom: "inception_4b/pool_proj"
  top: "inception_4b/output"
}
layer {
  name: "inception_4c/1x1"
  type: "Convolution"
  bottom: "inception_4b/output"
  top: "inception_4c/1x1"
  param {
    lr_mult: 1
    decay_mult: 1
  }
  param {
    lr_mult: 2
    decay_mult: 0
  }
  convolution_param {
    num_output: 128
    kernel_size: 1
    weight_filler {
      type: "xavier"
      std: 0.03
    }
    bias_filler {
      type: "constant"
      value: 0.2
    }
  }
}
layer {
  name: "inception_4c/relu_1x1"
  type: "ReLU"
  bottom: "inception_4c/1x1"
  top: "inception_4c/1x1"
}
layer {
  name: "inception_4c/3x3_reduce"
  type: "Convolution"
  bottom: "inception_4b/output"
  top: "inception_4c/3x3_reduce"
  param {
    lr_mult: 1
    decay_mult: 1
  }
  param {
    lr_mult: 2
    decay_mult: 0
  }
  convolution_param {
    num_output: 128
    kernel_size: 1
    weight_filler {
      type: "xavier"
      std: 0.09
    }
    bias_filler {
      type: "constant"
      value: 0.2
    }
  }
}
layer {
  name: "inception_4c/relu_3x3_reduce"
  type: "ReLU"
  bottom: "inception_4c/3x3_reduce"
  top: "inception_4c/3x3_reduce"
}
layer {
  name: "inception_4c/3x3"
  type: "Convolution"
  bottom: "inception_4c/3x3_reduce"
  top: "inception_4c/3x3"
  param {
    lr_mult: 1
    decay_mult: 1
  }
  param {
    lr_mult: 2
    decay_mult: 0
  }
  convolution_param {
    num_output: 256
    pad: 1
    kernel_size: 3
    weight_filler {
      type: "xavier"
      std: 0.03
    }
    bias_filler {
      type: "constant"
      value: 0.2
    }
  }
}
layer {
  name: "inception_4c/relu_3x3"
  type: "ReLU"
  bottom: "inception_4c/3x3"
  top: "inception_4c/3x3"
}
layer {
  name: "inception_4c/5x5_reduce"
  type: "Convolution"
  bottom: "inception_4b/output"
  top: "inception_4c/5x5_reduce"
  param {
    lr_mult: 1
    decay_mult: 1
  }
  param {
    lr_mult: 2
    decay_mult: 0
  }
  convolution_param {
    num_output: 24
    kernel_size: 1
    weight_filler {
      type: "xavier"
      std: 0.2
    }
    bias_filler {
      type: "constant"
      value: 0.2
    }
  }
}
layer {
  name: "inception_4c/relu_5x5_reduce"
  type: "ReLU"
  bottom: "inception_4c/5x5_reduce"
  top: "inception_4c/5x5_reduce"
}
layer {
  name: "inception_4c/5x5"
  type: "Convolution"
  bottom: "inception_4c/5x5_reduce"
  top: "inception_4c/5x5"
  param {
    lr_mult: 1
    decay_mult: 1
  }
  param {
    lr_mult: 2
    decay_mult: 0
  }
  convolution_param {
    num_output: 64
    pad: 2
    kernel_size: 5
    weight_filler {
      type: "xavier"
      std: 0.03
    }
    bias_filler {
      type: "constant"
      value: 0.2
    }
  }
}
layer {
  name: "inception_4c/relu_5x5"
  type: "ReLU"
  bottom: "inception_4c/5x5"
  top: "inception_4c/5x5"
}
layer {
  name: "inception_4c/pool"
  type: "Pooling"
  bottom: "inception_4b/output"
  top: "inception_4c/pool"
  pooling_param {
    pool: MAX
    kernel_size: 3
    stride: 1
    pad: 1
  }
}
layer {
  name: "inception_4c/pool_proj"
  type: "Convolution"
  bottom: "inception_4c/pool"
  top: "inception_4c/pool_proj"
  param {
    lr_mult: 1
    decay_mult: 1
  }
  param {
    lr_mult: 2
    decay_mult: 0
  }
  convolution_param {
    num_output: 64
    kernel_size: 1
    weight_filler {
      type: "xavier"
      std: 0.1
    }
    bias_filler {
      type: "constant"
      value: 0.2
    }
  }
}
layer {
  name: "inception_4c/relu_pool_proj"
  type: "ReLU"
  bottom: "inception_4c/pool_proj"
  top: "inception_4c/pool_proj"
}
layer {
  name: "inception_4c/output"
  type: "Concat"
  bottom: "inception_4c/1x1"
  bottom: "inception_4c/3x3"
  bottom: "inception_4c/5x5"
  bottom: "inception_4c/pool_proj"
  top: "inception_4c/output"
}
layer {
  name: "inception_4d/1x1"
  type: "Convolution"
  bottom: "inception_4c/output"
  top: "inception_4d/1x1"
  param {
    lr_mult: 1
    decay_mult: 1
  }
  param {
    lr_mult: 2
    decay_mult: 0
  }
  convolution_param {
    num_output: 112
    kernel_size: 1
    weight_filler {
      type: "xavier"
      std: 0.03
    }
    bias_filler {
      type: "constant"
      value: 0.2
    }
  }
}
layer {
  name: "inception_4d/relu_1x1"
  type: "ReLU"
  bottom: "inception_4d/1x1"
  top: "inception_4d/1x1"
}
layer {
  name: "inception_4d/3x3_reduce"
  type: "Convolution"
  bottom: "inception_4c/output"
  top: "inception_4d/3x3_reduce"
  param {
    lr_mult: 1
    decay_mult: 1
  }
  param {
    lr_mult: 2
    decay_mult: 0
  }
  convolution_param {
    num_output: 144
    kernel_size: 1
    weight_filler {
      type: "xavier"
      std: 0.09
    }
    bias_filler {
      type: "constant"
      value: 0.2
    }
  }
}
layer {
  name: "inception_4d/relu_3x3_reduce"
  type: "ReLU"
  bottom: "inception_4d/3x3_reduce"
  top: "inception_4d/3x3_reduce"
}
layer {
  name: "inception_4d/3x3"
  type: "Convolution"
  bottom: "inception_4d/3x3_reduce"
  top: "inception_4d/3x3"
  param {
    lr_mult: 1
    decay_mult: 1
  }
  param {
    lr_mult: 2
    decay_mult: 0
  }
  convolution_param {
    num_output: 288
    pad: 1
    kernel_size: 3
    weight_filler {
      type: "xavier"
      std: 0.03
    }
    bias_filler {
      type: "constant"
      value: 0.2
    }
  }
}
layer {
  name: "inception_4d/relu_3x3"
  type: "ReLU"
  bottom: "inception_4d/3x3"
  top: "inception_4d/3x3"
}
layer {
  name: "inception_4d/5x5_reduce"
  type: "Convolution"
  bottom: "inception_4c/output"
  top: "inception_4d/5x5_reduce"
  param {
    lr_mult: 1
    decay_mult: 1
  }
  param {
    lr_mult: 2
    decay_mult: 0
  }
  convolution_param {
    num_output: 32
    kernel_size: 1
    weight_filler {
      type: "xavier"
      std: 0.2
    }
    bias_filler {
      type: "constant"
      value: 0.2
    }
  }
}
layer {
  name: "inception_4d/relu_5x5_reduce"
  type: "ReLU"
  bottom: "inception_4d/5x5_reduce"
  top: "inception_4d/5x5_reduce"
}
layer {
  name: "inception_4d/5x5"
  type: "Convolution"
  bottom: "inception_4d/5x5_reduce"
  top: "inception_4d/5x5"
  param {
    lr_mult: 1
    decay_mult: 1
  }
  param {
    lr_mult: 2
    decay_mult: 0
  }
  convolution_param {
    num_output: 64
    pad: 2
    kernel_size: 5
    weight_filler {
      type: "xavier"
      std: 0.03
    }
    bias_filler {
      type: "constant"
      value: 0.2
    }
  }
}
layer {
  name: "inception_4d/relu_5x5"
  type: "ReLU"
  bottom: "inception_4d/5x5"
  top: "inception_4d/5x5"
}
layer {
  name: "inception_4d/pool"
  type: "Pooling"
  bottom: "inception_4c/output"
  top: "inception_4d/pool"
  pooling_param {
    pool: MAX
    kernel_size: 3
    stride: 1
    pad: 1
  }
}
layer {
  name: "inception_4d/pool_proj"
  type: "Convolution"
  bottom: "inception_4d/pool"
  top: "inception_4d/pool_proj"
  param {
    lr_mult: 1
    decay_mult: 1
  }
  param {
    lr_mult: 2
    decay_mult: 0
  }
  convolution_param {
    num_output: 64
    kernel_size: 1
    weight_filler {
      type: "xavier"
      std: 0.1
    }
    bias_filler {
      type: "constant"
      value: 0.2
    }
  }
}
layer {
  name: "inception_4d/relu_pool_proj"
  type: "ReLU"
  bottom: "inception_4d/pool_proj"
  top: "inception_4d/pool_proj"
}
layer {
  name: "inception_4d/output"
  type: "Concat"
  bottom: "inception_4d/1x1"
  bottom: "inception_4d/3x3"
  bottom: "inception_4d/5x5"
  bottom: "inception_4d/pool_proj"
  top: "inception_4d/output"
}
layer {
  name: "loss2/ave_pool"
  type: "Pooling"
  bottom: "inception_4d/output"
  top: "loss2/ave_pool"
  pooling_param {
    pool: AVE
    kernel_size: 5
    stride: 3
  }
}
layer {
  name: "loss2/conv"
  type: "Convolution"
  bottom: "loss2/ave_pool"
  top: "loss2/conv"
  param {
    lr_mult: 1
    decay_mult: 1
  }
  param {
    lr_mult: 2
    decay_mult: 0
  }
  convolution_param {
    num_output: 128
    kernel_size: 1
    weight_filler {
      type: "xavier"
      std: 0.08
    }
    bias_filler {
      type: "constant"
      value: 0.2
    }
  }
}
layer {
  name: "loss2/relu_conv"
  type: "ReLU"
  bottom: "loss2/conv"
  top: "loss2/conv"
}
layer {
  name: "loss2/fc"
  type: "InnerProduct"
  bottom: "loss2/conv"
  top: "loss2/fc"
  param {
    lr_mult: 1
    decay_mult: 1
  }
  param {
    lr_mult: 2
    decay_mult: 0
  }
  inner_product_param {
    num_output: 1024
    weight_filler {
      type: "xavier"
      std: 0.02
    }
    bias_filler {
      type: "constant"
      value: 0.2
    }
  }
}
layer {
  name: "loss2/relu_fc"
  type: "ReLU"
  bottom: "loss2/fc"
  top: "loss2/fc"
}
layer {
  name: "loss2/drop_fc"
  type: "Dropout"
  bottom: "loss2/fc"
  top: "loss2/fc"
  dropout_param {
    dropout_ratio: 0.7
  }
}
layer {
  name: "loss2/classifier_plantvillage"
  type: "InnerProduct"
  bottom: "loss2/fc"
  top: "loss2/classifier_plantvillage"
  param {
    lr_mult: 1
    decay_mult: 1
  }
  param {
    lr_mult: 2
    decay_mult: 0
  }
  inner_product_param {
    num_output: 38
    weight_filler {
      type: "xavier"
      std: 0.0009765625
    }
    bias_filler {
      type: "constant"
      value: 0
    }
  }
}
layer {
  name: "inception_4e/1x1"
  type: "Convolution"
  bottom: "inception_4d/output"
  top: "inception_4e/1x1"
  param {
    lr_mult: 1
    decay_mult: 1
  }
  param {
    lr_mult: 2
    decay_mult: 0
  }
  convolution_param {
    num_output: 256
    kernel_size: 1
    weight_filler {
      type: "xavier"
      std: 0.03
    }
    bias_filler {
      type: "constant"
      value: 0.2
    }
  }
}
layer {
  name: "inception_4e/relu_1x1"
  type: "ReLU"
  bottom: "inception_4e/1x1"
  top: "inception_4e/1x1"
}
layer {
  name: "inception_4e/3x3_reduce"
  type: "Convolution"
  bottom: "inception_4d/output"
  top: "inception_4e/3x3_reduce"
  param {
    lr_mult: 1
    decay_mult: 1
  }
  param {
    lr_mult: 2
    decay_mult: 0
  }
  convolution_param {
    num_output: 160
    kernel_size: 1
    weight_filler {
      type: "xavier"
      std: 0.09
    }
    bias_filler {
      type: "constant"
      value: 0.2
    }
  }
}
layer {
  name: "inception_4e/relu_3x3_reduce"
  type: "ReLU"
  bottom: "inception_4e/3x3_reduce"
  top: "inception_4e/3x3_reduce"
}
layer {
  name: "inception_4e/3x3"
  type: "Convolution"
  bottom: "inception_4e/3x3_reduce"
  top: "inception_4e/3x3"
  param {
    lr_mult: 1
    decay_mult: 1
  }
  param {
    lr_mult: 2
    decay_mult: 0
  }
  convolution_param {
    num_output: 320
    pad: 1
    kernel_size: 3
    weight_filler {
      type: "xavier"
      std: 0.03
    }
    bias_filler {
      type: "constant"
      value: 0.2
    }
  }
}
layer {
  name: "inception_4e/relu_3x3"
  type: "ReLU"
  bottom: "inception_4e/3x3"
  top: "inception_4e/3x3"
}
layer {
  name: "inception_4e/5x5_reduce"
  type: "Convolution"
  bottom: "inception_4d/output"
  top: "inception_4e/5x5_reduce"
  param {
    lr_mult: 1
    decay_mult: 1
  }
  param {
    lr_mult: 2
    decay_mult: 0
  }
  convolution_param {
    num_output: 32
    kernel_size: 1
    weight_filler {
      type: "xavier"
      std: 0.2
    }
    bias_filler {
      type: "constant"
      value: 0.2
    }
  }
}
layer {
  name: "inception_4e/relu_5x5_reduce"
  type: "ReLU"
  bottom: "inception_4e/5x5_reduce"
  top: "inception_4e/5x5_reduce"
}
layer {
  name: "inception_4e/5x5"
  type: "Convolution"
  bottom: "inception_4e/5x5_reduce"
  top: "inception_4e/
I0403 14:07:46.966661   858 layer_factory.hpp:77] Creating layer data
I0403 14:07:46.967281   858 net.cpp:91] Creating Layer data
I0403 14:07:46.967313   858 net.cpp:399] data -> data
I0403 14:07:46.967376   858 net.cpp:399] data -> label
I0403 14:07:46.967412   858 data_transformer.cpp:25] Loading mean file from: /home/mohanty/data/final_dataset/lmdb/grayscale-20-80/mean.binaryproto
I0403 14:07:46.971256   860 db_lmdb.cpp:38] Opened lmdb /home/mohanty/data/final_dataset/lmdb/grayscale-20-80/test_db
I0403 14:07:46.981228   858 data_layer.cpp:41] output data size: 24,3,224,224
I0403 14:07:47.009148   858 net.cpp:141] Setting up data
I0403 14:07:47.009243   858 net.cpp:148] Top shape: 24 3 224 224 (3612672)
I0403 14:07:47.009266   858 net.cpp:148] Top shape: 24 (24)
I0403 14:07:47.009281   858 net.cpp:156] Memory required for data: 14450784
I0403 14:07:47.009307   858 layer_factory.hpp:77] Creating layer label_data_1_split
I0403 14:07:47.009335   858 net.cpp:91] Creating Layer label_data_1_split
I0403 14:07:47.009351   858 net.cpp:425] label_data_1_split <- label
I0403 14:07:47.009382   858 net.cpp:399] label_data_1_split -> label_data_1_split_0
I0403 14:07:47.009409   858 net.cpp:399] label_data_1_split -> label_data_1_split_1
I0403 14:07:47.009430   858 net.cpp:399] label_data_1_split -> label_data_1_split_2
I0403 14:07:47.009451   858 net.cpp:399] label_data_1_split -> label_data_1_split_3
I0403 14:07:47.009471   858 net.cpp:399] label_data_1_split -> label_data_1_split_4
I0403 14:07:47.009491   858 net.cpp:399] label_data_1_split -> label_data_1_split_5
I0403 14:07:47.009510   858 net.cpp:399] label_data_1_split -> label_data_1_split_6
I0403 14:07:47.009531   858 net.cpp:399] label_data_1_split -> label_data_1_split_7
I0403 14:07:47.009549   858 net.cpp:399] label_data_1_split -> label_data_1_split_8
I0403 14:07:47.009570   858 net.cpp:399] label_data_1_split -> label_data_1_split_9
I0403 14:07:47.009686   858 net.cpp:141] Setting up label_data_1_split
I0403 14:07:47.009709   858 net.cpp:148] Top shape: 24 (24)
I0403 14:07:47.009727   858 net.cpp:148] Top shape: 24 (24)
I0403 14:07:47.009743   858 net.cpp:148] Top shape: 24 (24)
I0403 14:07:47.009759   858 net.cpp:148] Top shape: 24 (24)
I0403 14:07:47.009774   858 net.cpp:148] Top shape: 24 (24)
I0403 14:07:47.009790   858 net.cpp:148] Top shape: 24 (24)
I0403 14:07:47.009806   858 net.cpp:148] Top shape: 24 (24)
I0403 14:07:47.009822   858 net.cpp:148] Top shape: 24 (24)
I0403 14:07:47.009838   858 net.cpp:148] Top shape: 24 (24)
I0403 14:07:47.009855   858 net.cpp:148] Top shape: 24 (24)
I0403 14:07:47.009897   858 net.cpp:156] Memory required for data: 14451744
I0403 14:07:47.009913   858 layer_factory.hpp:77] Creating layer conv1/7x7_s2
I0403 14:07:47.009945   858 net.cpp:91] Creating Layer conv1/7x7_s2
I0403 14:07:47.009963   858 net.cpp:425] conv1/7x7_s2 <- data
I0403 14:07:47.009984   858 net.cpp:399] conv1/7x7_s2 -> conv1/7x7_s2
I0403 14:07:47.154005   858 net.cpp:141] Setting up conv1/7x7_s2
I0403 14:07:47.154096   858 net.cpp:148] Top shape: 24 64 112 112 (19267584)
I0403 14:07:47.154114   858 net.cpp:156] Memory required for data: 91522080
I0403 14:07:47.154147   858 layer_factory.hpp:77] Creating layer conv1/relu_7x7
I0403 14:07:47.154175   858 net.cpp:91] Creating Layer conv1/relu_7x7
I0403 14:07:47.154201   858 net.cpp:425] conv1/relu_7x7 <- conv1/7x7_s2
I0403 14:07:47.154220   858 net.cpp:386] conv1/relu_7x7 -> conv1/7x7_s2 (in-place)
I0403 14:07:47.154508   858 net.cpp:141] Setting up conv1/relu_7x7
I0403 14:07:47.154539   858 net.cpp:148] Top shape: 24 64 112 112 (19267584)
I0403 14:07:47.154557   858 net.cpp:156] Memory required for data: 168592416
I0403 14:07:47.154573   858 layer_factory.hpp:77] Creating layer pool1/3x3_s2
I0403 14:07:47.154598   858 net.cpp:91] Creating Layer pool1/3x3_s2
I0403 14:07:47.154640   858 net.cpp:425] pool1/3x3_s2 <- conv1/7x7_s2
I0403 14:07:47.154664   858 net.cpp:399] pool1/3x3_s2 -> pool1/3x3_s2
I0403 14:07:47.154744   858 net.cpp:141] Setting up pool1/3x3_s2
I0403 14:07:47.154769   858 net.cpp:148] Top shape: 24 64 56 56 (4816896)
I0403 14:07:47.154785   858 net.cpp:156] Memory required for data: 187860000
I0403 14:07:47.154801   858 layer_factory.hpp:77] Creating layer pool1/norm1
I0403 14:07:47.154829   858 net.cpp:91] Creating Layer pool1/norm1
I0403 14:07:47.154847   858 net.cpp:425] pool1/norm1 <- pool1/3x3_s2
I0403 14:07:47.154870   858 net.cpp:399] pool1/norm1 -> pool1/norm1
I0403 14:07:47.155194   858 net.cpp:141] Setting up pool1/norm1
I0403 14:07:47.155225   858 net.cpp:148] Top shape: 24 64 56 56 (4816896)
I0403 14:07:47.155241   858 net.cpp:156] Memory required for data: 207127584
I0403 14:07:47.155257   858 layer_factory.hpp:77] Creating layer conv2/3x3_reduce
I0403 14:07:47.155285   858 net.cpp:91] Creating Layer conv2/3x3_reduce
I0403 14:07:47.155304   858 net.cpp:425] conv2/3x3_reduce <- pool1/norm1
I0403 14:07:47.155323   858 net.cpp:399] conv2/3x3_reduce -> conv2/3x3_reduce
I0403 14:07:47.156805   858 net.cpp:141] Setting up conv2/3x3_reduce
I0403 14:07:47.156836   858 net.cpp:148] Top shape: 24 64 56 56 (4816896)
I0403 14:07:47.156852   858 net.cpp:156] Memory required for data: 226395168
I0403 14:07:47.156873   858 layer_factory.hpp:77] Creating layer conv2/relu_3x3_reduce
I0403 14:07:47.156894   858 net.cpp:91] Creating Layer conv2/relu_3x3_reduce
I0403 14:07:47.156911   858 net.cpp:425] conv2/relu_3x3_reduce <- conv2/3x3_reduce
I0403 14:07:47.156929   858 net.cpp:386] conv2/relu_3x3_reduce -> conv2/3x3_reduce (in-place)
I0403 14:07:47.157208   858 net.cpp:141] Setting up conv2/relu_3x3_reduce
I0403 14:07:47.157235   858 net.cpp:148] Top shape: 24 64 56 56 (4816896)
I0403 14:07:47.157250   858 net.cpp:156] Memory required for data: 245662752
I0403 14:07:47.157265   858 layer_factory.hpp:77] Creating layer conv2/3x3
I0403 14:07:47.157289   858 net.cpp:91] Creating Layer conv2/3x3
I0403 14:07:47.157310   858 net.cpp:425] conv2/3x3 <- conv2/3x3_reduce
I0403 14:07:47.157328   858 net.cpp:399] conv2/3x3 -> conv2/3x3
I0403 14:07:47.159680   858 net.cpp:141] Setting up conv2/3x3
I0403 14:07:47.159713   858 net.cpp:148] Top shape: 24 192 56 56 (14450688)
I0403 14:07:47.159729   858 net.cpp:156] Memory required for data: 303465504
I0403 14:07:47.159750   858 layer_factory.hpp:77] Creating layer conv2/relu_3x3
I0403 14:07:47.159772   858 net.cpp:91] Creating Layer conv2/relu_3x3
I0403 14:07:47.159790   858 net.cpp:425] conv2/relu_3x3 <- conv2/3x3
I0403 14:07:47.159806   858 net.cpp:386] conv2/relu_3x3 -> conv2/3x3 (in-place)
I0403 14:07:47.159986   858 net.cpp:141] Setting up conv2/relu_3x3
I0403 14:07:47.160012   858 net.cpp:148] Top shape: 24 192 56 56 (14450688)
I0403 14:07:47.160058   858 net.cpp:156] Memory required for data: 361268256
I0403 14:07:47.160075   858 layer_factory.hpp:77] Creating layer conv2/norm2
I0403 14:07:47.160094   858 net.cpp:91] Creating Layer conv2/norm2
I0403 14:07:47.160109   858 net.cpp:425] conv2/norm2 <- conv2/3x3
I0403 14:07:47.160130   858 net.cpp:399] conv2/norm2 -> conv2/norm2
I0403 14:07:47.160464   858 net.cpp:141] Setting up conv2/norm2
I0403 14:07:47.160491   858 net.cpp:148] Top shape: 24 192 56 56 (14450688)
I0403 14:07:47.160507   858 net.cpp:156] Memory required for data: 419071008
I0403 14:07:47.160523   858 layer_factory.hpp:77] Creating layer pool2/3x3_s2
I0403 14:07:47.160542   858 net.cpp:91] Creating Layer pool2/3x3_s2
I0403 14:07:47.160557   858 net.cpp:425] pool2/3x3_s2 <- conv2/norm2
I0403 14:07:47.160578   858 net.cpp:399] pool2/3x3_s2 -> pool2/3x3_s2
I0403 14:07:47.160634   858 net.cpp:141] Setting up pool2/3x3_s2
I0403 14:07:47.160670   858 net.cpp:148] Top shape: 24 192 28 28 (3612672)
I0403 14:07:47.160684   858 net.cpp:156] Memory required for data: 433521696
I0403 14:07:47.160699   858 layer_factory.hpp:77] Creating layer pool2/3x3_s2_pool2/3x3_s2_0_split
I0403 14:07:47.160719   858 net.cpp:91] Creating Layer pool2/3x3_s2_pool2/3x3_s2_0_split
I0403 14:07:47.160737   858 net.cpp:425] pool2/3x3_s2_pool2/3x3_s2_0_split <- pool2/3x3_s2
I0403 14:07:47.160759   858 net.cpp:399] pool2/3x3_s2_pool2/3x3_s2_0_split -> pool2/3x3_s2_pool2/3x3_s2_0_split_0
I0403 14:07:47.160780   858 net.cpp:399] pool2/3x3_s2_pool2/3x3_s2_0_split -> pool2/3x3_s2_pool2/3x3_s2_0_split_1
I0403 14:07:47.160799   858 net.cpp:399] pool2/3x3_s2_pool2/3x3_s2_0_split -> pool2/3x3_s2_pool2/3x3_s2_0_split_2
I0403 14:07:47.160820   858 net.cpp:399] pool2/3x3_s2_pool2/3x3_s2_0_split -> pool2/3x3_s2_pool2/3x3_s2_0_split_3
I0403 14:07:47.160890   858 net.cpp:141] Setting up pool2/3x3_s2_pool2/3x3_s2_0_split
I0403 14:07:47.160915   858 net.cpp:148] Top shape: 24 192 28 28 (3612672)
I0403 14:07:47.160933   858 net.cpp:148] Top shape: 24 192 28 28 (3612672)
I0403 14:07:47.160950   858 net.cpp:148] Top shape: 24 192 28 28 (3612672)
I0403 14:07:47.160966   858 net.cpp:148] Top shape: 24 192 28 28 (3612672)
I0403 14:07:47.160980   858 net.cpp:156] Memory required for data: 491324448
I0403 14:07:47.160995   858 layer_factory.hpp:77] Creating layer inception_3a/1x1
I0403 14:07:47.161015   858 net.cpp:91] Creating Layer inception_3a/1x1
I0403 14:07:47.161031   858 net.cpp:425] inception_3a/1x1 <- pool2/3x3_s2_pool2/3x3_s2_0_split_0
I0403 14:07:47.161052   858 net.cpp:399] inception_3a/1x1 -> inception_3a/1x1
I0403 14:07:47.162614   858 net.cpp:141] Setting up inception_3a/1x1
I0403 14:07:47.162644   858 net.cpp:148] Top shape: 24 64 28 28 (1204224)
I0403 14:07:47.162662   858 net.cpp:156] Memory required for data: 496141344
I0403 14:07:47.162680   858 layer_factory.hpp:77] Creating layer inception_3a/relu_1x1
I0403 14:07:47.162701   858 net.cpp:91] Creating Layer inception_3a/relu_1x1
I0403 14:07:47.162719   858 net.cpp:425] inception_3a/relu_1x1 <- inception_3a/1x1
I0403 14:07:47.162736   858 net.cpp:386] inception_3a/relu_1x1 -> inception_3a/1x1 (in-place)
I0403 14:07:47.162914   858 net.cpp:141] Setting up inception_3a/relu_1x1
I0403 14:07:47.162940   858 net.cpp:148] Top shape: 24 64 28 28 (1204224)
I0403 14:07:47.162955   858 net.cpp:156] Memory required for data: 500958240
I0403 14:07:47.162969   858 layer_factory.hpp:77] Creating layer inception_3a/3x3_reduce
I0403 14:07:47.162994   858 net.cpp:91] Creating Layer inception_3a/3x3_reduce
I0403 14:07:47.163012   858 net.cpp:425] inception_3a/3x3_reduce <- pool2/3x3_s2_pool2/3x3_s2_0_split_1
I0403 14:07:47.163031   858 net.cpp:399] inception_3a/3x3_reduce -> inception_3a/3x3_reduce
I0403 14:07:47.164757   858 net.cpp:141] Setting up inception_3a/3x3_reduce
I0403 14:07:47.164786   858 net.cpp:148] Top shape: 24 96 28 28 (1806336)
I0403 14:07:47.164803   858 net.cpp:156] Memory required for data: 508183584
I0403 14:07:47.164825   858 layer_factory.hpp:77] Creating layer inception_3a/relu_3x3_reduce
I0403 14:07:47.164865   858 net.cpp:91] Creating Layer inception_3a/relu_3x3_reduce
I0403 14:07:47.164882   858 net.cpp:425] inception_3a/relu_3x3_reduce <- inception_3a/3x3_reduce
I0403 14:07:47.164902   858 net.cpp:386] inception_3a/relu_3x3_reduce -> inception_3a/3x3_reduce (in-place)
I0403 14:07:47.165087   858 net.cpp:141] Setting up inception_3a/relu_3x3_reduce
I0403 14:07:47.165113   858 net.cpp:148] Top shape: 24 96 28 28 (1806336)
I0403 14:07:47.165128   858 net.cpp:156] Memory required for data: 515408928
I0403 14:07:47.165144   858 layer_factory.hpp:77] Creating layer inception_3a/3x3
I0403 14:07:47.165168   858 net.cpp:91] Creating Layer inception_3a/3x3
I0403 14:07:47.165189   858 net.cpp:425] inception_3a/3x3 <- inception_3a/3x3_reduce
I0403 14:07:47.165213   858 net.cpp:399] inception_3a/3x3 -> inception_3a/3x3
I0403 14:07:47.166939   858 net.cpp:141] Setting up inception_3a/3x3
I0403 14:07:47.166980   858 net.cpp:148] Top shape: 24 128 28 28 (2408448)
I0403 14:07:47.166997   858 net.cpp:156] Memory required for data: 525042720
I0403 14:07:47.167016   858 layer_factory.hpp:77] Creating layer inception_3a/relu_3x3
I0403 14:07:47.167037   858 net.cpp:91] Creating Layer inception_3a/relu_3x3
I0403 14:07:47.167052   858 net.cpp:425] inception_3a/relu_3x3 <- inception_3a/3x3
I0403 14:07:47.167070   858 net.cpp:386] inception_3a/relu_3x3 -> inception_3a/3x3 (in-place)
I0403 14:07:47.167354   858 net.cpp:141] Setting up inception_3a/relu_3x3
I0403 14:07:47.167381   858 net.cpp:148] Top shape: 24 128 28 28 (2408448)
I0403 14:07:47.167395   858 net.cpp:156] Memory required for data: 534676512
I0403 14:07:47.167410   858 layer_factory.hpp:77] Creating layer inception_3a/5x5_reduce
I0403 14:07:47.167436   858 net.cpp:91] Creating Layer inception_3a/5x5_reduce
I0403 14:07:47.167454   858 net.cpp:425] inception_3a/5x5_reduce <- pool2/3x3_s2_pool2/3x3_s2_0_split_2
I0403 14:07:47.167476   858 net.cpp:399] inception_3a/5x5_reduce -> inception_3a/5x5_reduce
I0403 14:07:47.168453   858 net.cpp:141] Setting up inception_3a/5x5_reduce
I0403 14:07:47.168484   858 net.cpp:148] Top shape: 24 16 28 28 (301056)
I0403 14:07:47.168501   858 net.cpp:156] Memory required for data: 535880736
I0403 14:07:47.168520   858 layer_factory.hpp:77] Creating layer inception_3a/relu_5x5_reduce
I0403 14:07:47.168539   858 net.cpp:91] Creating Layer inception_3a/relu_5x5_reduce
I0403 14:07:47.168555   858 net.cpp:425] inception_3a/relu_5x5_reduce <- inception_3a/5x5_reduce
I0403 14:07:47.168571   858 net.cpp:386] inception_3a/relu_5x5_reduce -> inception_3a/5x5_reduce (in-place)
I0403 14:07:47.168869   858 net.cpp:141] Setting up inception_3a/relu_5x5_reduce
I0403 14:07:47.168897   858 net.cpp:148] Top shape: 24 16 28 28 (301056)
I0403 14:07:47.168913   858 net.cpp:156] Memory required for data: 537084960
I0403 14:07:47.168928   858 layer_factory.hpp:77] Creating layer inception_3a/5x5
I0403 14:07:47.168951   858 net.cpp:91] Creating Layer inception_3a/5x5
I0403 14:07:47.168969   858 net.cpp:425] inception_3a/5x5 <- inception_3a/5x5_reduce
I0403 14:07:47.168992   858 net.cpp:399] inception_3a/5x5 -> inception_3a/5x5
I0403 14:07:47.170027   858 net.cpp:141] Setting up inception_3a/5x5
I0403 14:07:47.170054   858 net.cpp:148] Top shape: 24 32 28 28 (602112)
I0403 14:07:47.170070   858 net.cpp:156] Memory required for data: 539493408
I0403 14:07:47.170089   858 layer_factory.hpp:77] Creating layer inception_3a/relu_5x5
I0403 14:07:47.170110   858 net.cpp:91] Creating Layer inception_3a/relu_5x5
I0403 14:07:47.170126   858 net.cpp:425] inception_3a/relu_5x5 <- inception_3a/5x5
I0403 14:07:47.170145   858 net.cpp:386] inception_3a/relu_5x5 -> inception_3a/5x5 (in-place)
I0403 14:07:47.170325   858 net.cpp:141] Setting up inception_3a/relu_5x5
I0403 14:07:47.170353   858 net.cpp:148] Top shape: 24 32 28 28 (602112)
I0403 14:07:47.170369   858 net.cpp:156] Memory required for data: 541901856
I0403 14:07:47.170384   858 layer_factory.hpp:77] Creating layer inception_3a/pool
I0403 14:07:47.170402   858 net.cpp:91] Creating Layer inception_3a/pool
I0403 14:07:47.170435   858 net.cpp:425] inception_3a/pool <- pool2/3x3_s2_pool2/3x3_s2_0_split_3
I0403 14:07:47.170457   858 net.cpp:399] inception_3a/pool -> inception_3a/pool
I0403 14:07:47.170516   858 net.cpp:141] Setting up inception_3a/pool
I0403 14:07:47.170539   858 net.cpp:148] Top shape: 24 192 28 28 (3612672)
I0403 14:07:47.170553   858 net.cpp:156] Memory required for data: 556352544
I0403 14:07:47.170568   858 layer_factory.hpp:77] Creating layer inception_3a/pool_proj
I0403 14:07:47.170591   858 net.cpp:91] Creating Layer inception_3a/pool_proj
I0403 14:07:47.170608   858 net.cpp:425] inception_3a/pool_proj <- inception_3a/pool
I0403 14:07:47.170630   858 net.cpp:399] inception_3a/pool_proj -> inception_3a/pool_proj
I0403 14:07:47.171613   858 net.cpp:141] Setting up inception_3a/pool_proj
I0403 14:07:47.171641   858 net.cpp:148] Top shape: 24 32 28 28 (602112)
I0403 14:07:47.171658   858 net.cpp:156] Memory required for data: 558760992
I0403 14:07:47.171682   858 layer_factory.hpp:77] Creating layer inception_3a/relu_pool_proj
I0403 14:07:47.171703   858 net.cpp:91] Creating Layer inception_3a/relu_pool_proj
I0403 14:07:47.171720   858 net.cpp:425] inception_3a/relu_pool_proj <- inception_3a/pool_proj
I0403 14:07:47.171737   858 net.cpp:386] inception_3a/relu_pool_proj -> inception_3a/pool_proj (in-place)
I0403 14:07:47.172016   858 net.cpp:141] Setting up inception_3a/relu_pool_proj
I0403 14:07:47.172044   858 net.cpp:148] Top shape: 24 32 28 28 (602112)
I0403 14:07:47.172058   858 net.cpp:156] Memory required for data: 561169440
I0403 14:07:47.172073   858 layer_factory.hpp:77] Creating layer inception_3a/output
I0403 14:07:47.172094   858 net.cpp:91] Creating Layer inception_3a/output
I0403 14:07:47.172111   858 net.cpp:425] inception_3a/output <- inception_3a/1x1
I0403 14:07:47.172127   858 net.cpp:425] inception_3a/output <- inception_3a/3x3
I0403 14:07:47.172142   858 net.cpp:425] inception_3a/output <- inception_3a/5x5
I0403 14:07:47.172158   858 net.cpp:425] inception_3a/output <- inception_3a/pool_proj
I0403 14:07:47.172175   858 net.cpp:399] inception_3a/output -> inception_3a/output
I0403 14:07:47.172230   858 net.cpp:141] Setting up inception_3a/output
I0403 14:07:47.172253   858 net.cpp:148] Top shape: 24 256 28 28 (4816896)
I0403 14:07:47.172268   858 net.cpp:156] Memory required for data: 580437024
I0403 14:07:47.172283   858 layer_factory.hpp:77] Creating layer inception_3a/output_inception_3a/output_0_split
I0403 14:07:47.172302   858 net.cpp:91] Creating Layer inception_3a/output_inception_3a/output_0_split
I0403 14:07:47.172317   858 net.cpp:425] inception_3a/output_inception_3a/output_0_split <- inception_3a/output
I0403 14:07:47.172338   858 net.cpp:399] inception_3a/output_inception_3a/output_0_split -> inception_3a/output_inception_3a/output_0_split_0
I0403 14:07:47.172358   858 net.cpp:399] inception_3a/output_inception_3a/output_0_split -> inception_3a/output_inception_3a/output_0_split_1
I0403 14:07:47.172384   858 net.cpp:399] inception_3a/output_inception_3a/output_0_split -> inception_3a/output_inception_3a/output_0_split_2
I0403 14:07:47.172405   858 net.cpp:399] inception_3a/output_inception_3a/output_0_split -> inception_3a/output_inception_3a/output_0_split_3
I0403 14:07:47.172482   858 net.cpp:141] Setting up inception_3a/output_inception_3a/output_0_split
I0403 14:07:47.172505   858 net.cpp:148] Top shape: 24 256 28 28 (4816896)
I0403 14:07:47.172523   858 net.cpp:148] Top shape: 24 256 28 28 (4816896)
I0403 14:07:47.172538   858 net.cpp:148] Top shape: 24 256 28 28 (4816896)
I0403 14:07:47.172554   858 net.cpp:148] Top shape: 24 256 28 28 (4816896)
I0403 14:07:47.172569   858 net.cpp:156] Memory required for data: 657507360
I0403 14:07:47.172583   858 layer_factory.hpp:77] Creating layer inception_3b/1x1
I0403 14:07:47.172606   858 net.cpp:91] Creating Layer inception_3b/1x1
I0403 14:07:47.172623   858 net.cpp:425] inception_3b/1x1 <- inception_3a/output_inception_3a/output_0_split_0
I0403 14:07:47.172644   858 net.cpp:399] inception_3b/1x1 -> inception_3b/1x1
I0403 14:07:47.173815   858 net.cpp:141] Setting up inception_3b/1x1
I0403 14:07:47.173856   858 net.cpp:148] Top shape: 24 128 28 28 (2408448)
I0403 14:07:47.173871   858 net.cpp:156] Memory required for data: 667141152
I0403 14:07:47.173890   858 layer_factory.hpp:77] Creating layer inception_3b/relu_1x1
I0403 14:07:47.173912   858 net.cpp:91] Creating Layer inception_3b/relu_1x1
I0403 14:07:47.173928   858 net.cpp:425] inception_3b/relu_1x1 <- inception_3b/1x1
I0403 14:07:47.173948   858 net.cpp:386] inception_3b/relu_1x1 -> inception_3b/1x1 (in-place)
I0403 14:07:47.174141   858 net.cpp:141] Setting up inception_3b/relu_1x1
I0403 14:07:47.174167   858 net.cpp:148] Top shape: 24 128 28 28 (2408448)
I0403 14:07:47.174187   858 net.cpp:156] Memory required for data: 676774944
I0403 14:07:47.174204   858 layer_factory.hpp:77] Creating layer inception_3b/3x3_reduce
I0403 14:07:47.174228   858 net.cpp:91] Creating Layer inception_3b/3x3_reduce
I0403 14:07:47.174247   858 net.cpp:425] inception_3b/3x3_reduce <- inception_3a/output_inception_3a/output_0_split_1
I0403 14:07:47.174268   858 net.cpp:399] inception_3b/3x3_reduce -> inception_3b/3x3_reduce
I0403 14:07:47.175472   858 net.cpp:141] Setting up inception_3b/3x3_reduce
I0403 14:07:47.175513   858 net.cpp:148] Top shape: 24 128 28 28 (2408448)
I0403 14:07:47.175529   858 net.cpp:156] Memory required for data: 686408736
I0403 14:07:47.175547   858 layer_factory.hpp:77] Creating layer inception_3b/relu_3x3_reduce
I0403 14:07:47.175567   858 net.cpp:91] Creating Layer inception_3b/relu_3x3_reduce
I0403 14:07:47.175585   858 net.cpp:425] inception_3b/relu_3x3_reduce <- inception_3b/3x3_reduce
I0403 14:07:47.175602   858 net.cpp:386] inception_3b/relu_3x3_reduce -> inception_3b/3x3_reduce (in-place)
I0403 14:07:47.175776   858 net.cpp:141] Setting up inception_3b/relu_3x3_reduce
I0403 14:07:47.175801   858 net.cpp:148] Top shape: 24 128 28 28 (2408448)
I0403 14:07:47.175817   858 net.cpp:156] Memory required for data: 696042528
I0403 14:07:47.175832   858 layer_factory.hpp:77] Creating layer inception_3b/3x3
I0403 14:07:47.175858   858 net.cpp:91] Creating Layer inception_3b/3x3
I0403 14:07:47.175876   858 net.cpp:425] inception_3b/3x3 <- inception_3b/3x3_reduce
I0403 14:07:47.175895   858 net.cpp:399] inception_3b/3x3 -> inception_3b/3x3
I0403 14:07:47.178931   858 net.cpp:141] Setting up inception_3b/3x3
I0403 14:07:47.178961   858 net.cpp:148] Top shape: 24 192 28 28 (3612672)
I0403 14:07:47.178977   858 net.cpp:156] Memory required for data: 710493216
I0403 14:07:47.178995   858 layer_factory.hpp:77] Creating layer inception_3b/relu_3x3
I0403 14:07:47.179018   858 net.cpp:91] Creating Layer inception_3b/relu_3x3
I0403 14:07:47.179035   858 net.cpp:425] inception_3b/relu_3x3 <- inception_3b/3x3
I0403 14:07:47.179054   858 net.cpp:386] inception_3b/relu_3x3 -> inception_3b/3x3 (in-place)
I0403 14:07:47.179358   858 net.cpp:141] Setting up inception_3b/relu_3x3
I0403 14:07:47.179396   858 net.cpp:148] Top shape: 24 192 28 28 (3612672)
I0403 14:07:47.179412   858 net.cpp:156] Memory required for data: 724943904
I0403 14:07:47.179427   858 layer_factory.hpp:77] Creating layer inception_3b/5x5_reduce
I0403 14:07:47.179450   858 net.cpp:91] Creating Layer inception_3b/5x5_reduce
I0403 14:07:47.179467   858 net.cpp:425] inception_3b/5x5_reduce <- inception_3a/output_inception_3a/output_0_split_2
I0403 14:07:47.179491   858 net.cpp:399] inception_3b/5x5_reduce -> inception_3b/5x5_reduce
I0403 14:07:47.180500   858 net.cpp:141] Setting up inception_3b/5x5_reduce
I0403 14:07:47.180527   858 net.cpp:148] Top shape: 24 32 28 28 (602112)
I0403 14:07:47.180543   858 net.cpp:156] Memory required for data: 727352352
I0403 14:07:47.180562   858 layer_factory.hpp:77] Creating layer inception_3b/relu_5x5_reduce
I0403 14:07:47.180583   858 net.cpp:91] Creating Layer inception_3b/relu_5x5_reduce
I0403 14:07:47.180600   858 net.cpp:425] inception_3b/relu_5x5_reduce <- inception_3b/5x5_reduce
I0403 14:07:47.180618   858 net.cpp:386] inception_3b/relu_5x5_reduce -> inception_3b/5x5_reduce (in-place)
I0403 14:07:47.180812   858 net.cpp:141] Setting up inception_3b/relu_5x5_reduce
I0403 14:07:47.180840   858 net.cpp:148] Top shape: 24 32 28 28 (602112)
I0403 14:07:47.180857   858 net.cpp:156] Memory required for data: 729760800
I0403 14:07:47.180872   858 layer_factory.hpp:77] Creating layer inception_3b/5x5
I0403 14:07:47.180896   858 net.cpp:91] Creating Layer inception_3b/5x5
I0403 14:07:47.180912   858 net.cpp:425] inception_3b/5x5 <- inception_3b/5x5_reduce
I0403 14:07:47.180932   858 net.cpp:399] inception_3b/5x5 -> inception_3b/5x5
I0403 14:07:47.182968   858 net.cpp:141] Setting up inception_3b/5x5
I0403 14:07:47.182998   858 net.cpp:148] Top shape: 24 96 28 28 (1806336)
I0403 14:07:47.183014   858 net.cpp:156] Memory required for data: 736986144
I0403 14:07:47.183033   858 layer_factory.hpp:77] Creating layer inception_3b/relu_5x5
I0403 14:07:47.183054   858 net.cpp:91] Creating Layer inception_3b/relu_5x5
I0403 14:07:47.183071   858 net.cpp:425] inception_3b/relu_5x5 <- inception_3b/5x5
I0403 14:07:47.183089   858 net.cpp:386] inception_3b/relu_5x5 -> inception_3b/5x5 (in-place)
I0403 14:07:47.183296   858 net.cpp:141] Setting up inception_3b/relu_5x5
I0403 14:07:47.183322   858 net.cpp:148] Top shape: 24 96 28 28 (1806336)
I0403 14:07:47.183338   858 net.cpp:156] Memory required for data: 744211488
I0403 14:07:47.183352   858 layer_factory.hpp:77] Creating layer inception_3b/pool
I0403 14:07:47.183370   858 net.cpp:91] Creating Layer inception_3b/pool
I0403 14:07:47.183387   858 net.cpp:425] inception_3b/pool <- inception_3a/output_inception_3a/output_0_split_3
I0403 14:07:47.183405   858 net.cpp:399] inception_3b/pool -> inception_3b/pool
I0403 14:07:47.183475   858 net.cpp:141] Setting up inception_3b/pool
I0403 14:07:47.183500   858 net.cpp:148] Top shape: 24 256 28 28 (4816896)
I0403 14:07:47.183514   858 net.cpp:156] Memory required for data: 763479072
I0403 14:07:47.183529   858 layer_factory.hpp:77] Creating layer inception_3b/pool_proj
I0403 14:07:47.183552   858 net.cpp:91] Creating Layer inception_3b/pool_proj
I0403 14:07:47.183570   858 net.cpp:425] inception_3b/pool_proj <- inception_3b/pool
I0403 14:07:47.183591   858 net.cpp:399] inception_3b/pool_proj -> inception_3b/pool_proj
I0403 14:07:47.184685   858 net.cpp:141] Setting up inception_3b/pool_proj
I0403 14:07:47.184716   858 net.cpp:148] Top shape: 24 64 28 28 (1204224)
I0403 14:07:47.184732   858 net.cpp:156] Memory required for data: 768295968
I0403 14:07:47.184752   858 layer_factory.hpp:77] Creating layer inception_3b/relu_pool_proj
I0403 14:07:47.184770   858 net.cpp:91] Creating Layer inception_3b/relu_pool_proj
I0403 14:07:47.184787   858 net.cpp:425] inception_3b/relu_pool_proj <- inception_3b/pool_proj
I0403 14:07:47.184808   858 net.cpp:386] inception_3b/relu_pool_proj -> inception_3b/pool_proj (in-place)
I0403 14:07:47.185204   858 net.cpp:141] Setting up inception_3b/relu_pool_proj
I0403 14:07:47.185233   858 net.cpp:148] Top shape: 24 64 28 28 (1204224)
I0403 14:07:47.185250   858 net.cpp:156] Memory required for data: 773112864
I0403 14:07:47.185264   858 layer_factory.hpp:77] Creating layer inception_3b/output
I0403 14:07:47.185282   858 net.cpp:91] Creating Layer inception_3b/output
I0403 14:07:47.185298   858 net.cpp:425] inception_3b/output <- inception_3b/1x1
I0403 14:07:47.185315   858 net.cpp:425] inception_3b/output <- inception_3b/3x3
I0403 14:07:47.185331   858 net.cpp:425] inception_3b/output <- inception_3b/5x5
I0403 14:07:47.185348   858 net.cpp:425] inception_3b/output <- inception_3b/pool_proj
I0403 14:07:47.185364   858 net.cpp:399] inception_3b/output -> inception_3b/output
I0403 14:07:47.185410   858 net.cpp:141] Setting up inception_3b/output
I0403 14:07:47.185436   858 net.cpp:148] Top shape: 24 480 28 28 (9031680)
I0403 14:07:47.185451   858 net.cpp:156] Memory required for data: 809239584
I0403 14:07:47.185466   858 layer_factory.hpp:77] Creating layer pool3/3x3_s2
I0403 14:07:47.185484   858 net.cpp:91] Creating Layer pool3/3x3_s2
I0403 14:07:47.185502   858 net.cpp:425] pool3/3x3_s2 <- inception_3b/output
I0403 14:07:47.185546   858 net.cpp:399] pool3/3x3_s2 -> pool3/3x3_s2
I0403 14:07:47.185609   858 net.cpp:141] Setting up pool3/3x3_s2
I0403 14:07:47.185634   858 net.cpp:148] Top shape: 24 480 14 14 (2257920)
I0403 14:07:47.185649   858 net.cpp:156] Memory required for data: 818271264
I0403 14:07:47.185665   858 layer_factory.hpp:77] Creating layer pool3/3x3_s2_pool3/3x3_s2_0_split
I0403 14:07:47.185683   858 net.cpp:91] Creating Layer pool3/3x3_s2_pool3/3x3_s2_0_split
I0403 14:07:47.185698   858 net.cpp:425] pool3/3x3_s2_pool3/3x3_s2_0_split <- pool3/3x3_s2
I0403 14:07:47.185719   858 net.cpp:399] pool3/3x3_s2_pool3/3x3_s2_0_split -> pool3/3x3_s2_pool3/3x3_s2_0_split_0
I0403 14:07:47.185741   858 net.cpp:399] pool3/3x3_s2_pool3/3x3_s2_0_split -> pool3/3x3_s2_pool3/3x3_s2_0_split_1
I0403 14:07:47.185762   858 net.cpp:399] pool3/3x3_s2_pool3/3x3_s2_0_split -> pool3/3x3_s2_pool3/3x3_s2_0_split_2
I0403 14:07:47.185781   858 net.cpp:399] pool3/3x3_s2_pool3/3x3_s2_0_split -> pool3/3x3_s2_pool3/3x3_s2_0_split_3
I0403 14:07:47.185874   858 net.cpp:141] Setting up pool3/3x3_s2_pool3/3x3_s2_0_split
I0403 14:07:47.185899   858 net.cpp:148] Top shape: 24 480 14 14 (2257920)
I0403 14:07:47.185917   858 net.cpp:148] Top shape: 24 480 14 14 (2257920)
I0403 14:07:47.185935   858 net.cpp:148] Top shape: 24 480 14 14 (2257920)
I0403 14:07:47.185950   858 net.cpp:148] Top shape: 24 480 14 14 (2257920)
I0403 14:07:47.185964   858 net.cpp:156] Memory required for data: 854397984
I0403 14:07:47.185978   858 layer_factory.hpp:77] Creating layer inception_4a/1x1
I0403 14:07:47.186002   858 net.cpp:91] Creating Layer inception_4a/1x1
I0403 14:07:47.186018   858 net.cpp:425] inception_4a/1x1 <- pool3/3x3_s2_pool3/3x3_s2_0_split_0
I0403 14:07:47.186038   858 net.cpp:399] inception_4a/1x1 -> inception_4a/1x1
I0403 14:07:47.187693   858 net.cpp:141] Setting up inception_4a/1x1
I0403 14:07:47.187723   858 net.cpp:148] Top shape: 24 192 14 14 (903168)
I0403 14:07:47.187741   858 net.cpp:156] Memory required for data: 858010656
I0403 14:07:47.187760   858 layer_factory.hpp:77] Creating layer inception_4a/relu_1x1
I0403 14:07:47.187778   858 net.cpp:91] Creating Layer inception_4a/relu_1x1
I0403 14:07:47.187793   858 net.cpp:425] inception_4a/relu_1x1 <- inception_4a/1x1
I0403 14:07:47.187813   858 net.cpp:386] inception_4a/relu_1x1 -> inception_4a/1x1 (in-place)
I0403 14:07:47.187993   858 net.cpp:141] Setting up inception_4a/relu_1x1
I0403 14:07:47.188019   858 net.cpp:148] Top shape: 24 192 14 14 (903168)
I0403 14:07:47.188033   858 net.cpp:156] Memory required for data: 861623328
I0403 14:07:47.188048   858 layer_factory.hpp:77] Creating layer inception_4a/3x3_reduce
I0403 14:07:47.188071   858 net.cpp:91] Creating Layer inception_4a/3x3_reduce
I0403 14:07:47.188088   858 net.cpp:425] inception_4a/3x3_reduce <- pool3/3x3_s2_pool3/3x3_s2_0_split_1
I0403 14:07:47.188110   858 net.cpp:399] inception_4a/3x3_reduce -> inception_4a/3x3_reduce
I0403 14:07:47.189412   858 net.cpp:141] Setting up inception_4a/3x3_reduce
I0403 14:07:47.189442   858 net.cpp:148] Top shape: 24 96 14 14 (451584)
I0403 14:07:47.189458   858 net.cpp:156] Memory required for data: 863429664
I0403 14:07:47.189483   858 layer_factory.hpp:77] Creating layer inception_4a/relu_3x3_reduce
I0403 14:07:47.189503   858 net.cpp:91] Creating Layer inception_4a/relu_3x3_reduce
I0403 14:07:47.189520   858 net.cpp:425] inception_4a/relu_3x3_reduce <- inception_4a/3x3_reduce
I0403 14:07:47.189543   858 net.cpp:386] inception_4a/relu_3x3_reduce -> inception_4a/3x3_reduce (in-place)
I0403 14:07:47.189723   858 net.cpp:141] Setting up inception_4a/relu_3x3_reduce
I0403 14:07:47.189749   858 net.cpp:148] Top shape: 24 96 14 14 (451584)
I0403 14:07:47.189764   858 net.cpp:156] Memory required for data: 865236000
I0403 14:07:47.189779   858 layer_factory.hpp:77] Creating layer inception_4a/3x3
I0403 14:07:47.189800   858 net.cpp:91] Creating Layer inception_4a/3x3
I0403 14:07:47.189818   858 net.cpp:425] inception_4a/3x3 <- inception_4a/3x3_reduce
I0403 14:07:47.189839   858 net.cpp:399] inception_4a/3x3 -> inception_4a/3x3
I0403 14:07:47.192595   858 net.cpp:141] Setting up inception_4a/3x3
I0403 14:07:47.192625   858 net.cpp:148] Top shape: 24 208 14 14 (978432)
I0403 14:07:47.192641   858 net.cpp:156] Memory required for data: 869149728
I0403 14:07:47.192659   858 layer_factory.hpp:77] Creating layer inception_4a/relu_3x3
I0403 14:07:47.192679   858 net.cpp:91] Creating Layer inception_4a/relu_3x3
I0403 14:07:47.192697   858 net.cpp:425] inception_4a/relu_3x3 <- inception_4a/3x3
I0403 14:07:47.192714   858 net.cpp:386] inception_4a/relu_3x3 -> inception_4a/3x3 (in-place)
I0403 14:07:47.193001   858 net.cpp:141] Setting up inception_4a/relu_3x3
I0403 14:07:47.193027   858 net.cpp:148] Top shape: 24 208 14 14 (978432)
I0403 14:07:47.193042   858 net.cpp:156] Memory required for data: 873063456
I0403 14:07:47.193058   858 layer_factory.hpp:77] Creating layer inception_4a/5x5_reduce
I0403 14:07:47.193084   858 net.cpp:91] Creating Layer inception_4a/5x5_reduce
I0403 14:07:47.193102   858 net.cpp:425] inception_4a/5x5_reduce <- pool3/3x3_s2_pool3/3x3_s2_0_split_2
I0403 14:07:47.193123   858 net.cpp:399] inception_4a/5x5_reduce -> inception_4a/5x5_reduce
I0403 14:07:47.194175   858 net.cpp:141] Setting up inception_4a/5x5_reduce
I0403 14:07:47.194208   858 net.cpp:148] Top shape: 24 16 14 14 (75264)
I0403 14:07:47.194226   858 net.cpp:156] Memory required for data: 873364512
I0403 14:07:47.194247   858 layer_factory.hpp:77] Creating layer inception_4a/relu_5x5_reduce
I0403 14:07:47.194267   858 net.cpp:91] Creating Layer inception_4a/relu_5x5_reduce
I0403 14:07:47.194285   858 net.cpp:425] inception_4a/relu_5x5_reduce <- inception_4a/5x5_reduce
I0403 14:07:47.194303   858 net.cpp:386] inception_4a/relu_5x5_reduce -> inception_4a/5x5_reduce (in-place)
I0403 14:07:47.194515   858 net.cpp:141] Setting up inception_4a/relu_5x5_reduce
I0403 14:07:47.194543   858 net.cpp:148] Top shape: 24 16 14 14 (75264)
I0403 14:07:47.194560   858 net.cpp:156] Memory required for data: 873665568
I0403 14:07:47.194576   858 layer_factory.hpp:77] Creating layer inception_4a/5x5
I0403 14:07:47.194598   858 net.cpp:91] Creating Layer inception_4a/5x5
I0403 14:07:47.194617   858 net.cpp:425] inception_4a/5x5 <- inception_4a/5x5_reduce
I0403 14:07:47.194635   858 net.cpp:399] inception_4a/5x5 -> inception_4a/5x5
I0403 14:07:47.195739   858 net.cpp:141] Setting up inception_4a/5x5
I0403 14:07:47.195770   858 net.cpp:148] Top shape: 24 48 14 14 (225792)
I0403 14:07:47.195786   858 net.cpp:156] Memory required for data: 874568736
I0403 14:07:47.195806   858 layer_factory.hpp:77] Creating layer inception_4a/relu_5x5
I0403 14:07:47.195824   858 net.cpp:91] Creating Layer inception_4a/relu_5x5
I0403 14:07:47.195840   858 net.cpp:425] inception_4a/relu_5x5 <- inception_4a/5x5
I0403 14:07:47.195858   858 net.cpp:386] inception_4a/relu_5x5 -> inception_4a/5x5 (in-place)
I0403 14:07:47.196039   858 net.cpp:141] Setting up inception_4a/relu_5x5
I0403 14:07:47.196064   858 net.cpp:148] Top shape: 24 48 14 14 (225792)
I0403 14:07:47.196079   858 net.cpp:156] Memory required for data: 875471904
I0403 14:07:47.196094   858 layer_factory.hpp:77] Creating layer inception_4a/pool
I0403 14:07:47.196112   858 net.cpp:91] Creating Layer inception_4a/pool
I0403 14:07:47.196127   858 net.cpp:425] inception_4a/pool <- pool3/3x3_s2_pool3/3x3_s2_0_split_3
I0403 14:07:47.196148   858 net.cpp:399] inception_4a/pool -> inception_4a/pool
I0403 14:07:47.196214   858 net.cpp:141] Setting up inception_4a/pool
I0403 14:07:47.196244   858 net.cpp:148] Top shape: 24 480 14 14 (2257920)
I0403 14:07:47.196259   858 net.cpp:156] Memory required for data: 884503584
I0403 14:07:47.196274   858 layer_factory.hpp:77] Creating layer inception_4a/pool_proj
I0403 14:07:47.196296   858 net.cpp:91] Creating Layer inception_4a/pool_proj
I0403 14:07:47.196315   858 net.cpp:425] inception_4a/pool_proj <- inception_4a/pool
I0403 14:07:47.196334   858 net.cpp:399] inception_4a/pool_proj -> inception_4a/pool_proj
I0403 14:07:47.197551   858 net.cpp:141] Setting up inception_4a/pool_proj
I0403 14:07:47.197579   858 net.cpp:148] Top shape: 24 64 14 14 (301056)
I0403 14:07:47.197610   858 net.cpp:156] Memory required for data: 885707808
I0403 14:07:47.197630   858 layer_factory.hpp:77] Creating layer inception_4a/relu_pool_proj
I0403 14:07:47.197649   858 net.cpp:91] Creating Layer inception_4a/relu_pool_proj
I0403 14:07:47.197665   858 net.cpp:425] inception_4a/relu_pool_proj <- inception_4a/pool_proj
I0403 14:07:47.197687   858 net.cpp:386] inception_4a/relu_pool_proj -> inception_4a/pool_proj (in-place)
I0403 14:07:47.197979   858 net.cpp:141] Setting up inception_4a/relu_pool_proj
I0403 14:07:47.198005   858 net.cpp:148] Top shape: 24 64 14 14 (301056)
I0403 14:07:47.198021   858 net.cpp:156] Memory required for data: 886912032
I0403 14:07:47.198036   858 layer_factory.hpp:77] Creating layer inception_4a/output
I0403 14:07:47.198053   858 net.cpp:91] Creating Layer inception_4a/output
I0403 14:07:47.198070   858 net.cpp:425] inception_4a/output <- inception_4a/1x1
I0403 14:07:47.198086   858 net.cpp:425] inception_4a/output <- inception_4a/3x3
I0403 14:07:47.198102   858 net.cpp:425] inception_4a/output <- inception_4a/5x5
I0403 14:07:47.198119   858 net.cpp:425] inception_4a/output <- inception_4a/pool_proj
I0403 14:07:47.198138   858 net.cpp:399] inception_4a/output -> inception_4a/output
I0403 14:07:47.198189   858 net.cpp:141] Setting up inception_4a/output
I0403 14:07:47.198213   858 net.cpp:148] Top shape: 24 512 14 14 (2408448)
I0403 14:07:47.198230   858 net.cpp:156] Memory required for data: 896545824
I0403 14:07:47.198246   858 layer_factory.hpp:77] Creating layer inception_4a/output_inception_4a/output_0_split
I0403 14:07:47.198263   858 net.cpp:91] Creating Layer inception_4a/output_inception_4a/output_0_split
I0403 14:07:47.198279   858 net.cpp:425] inception_4a/output_inception_4a/output_0_split <- inception_4a/output
I0403 14:07:47.198297   858 net.cpp:399] inception_4a/output_inception_4a/output_0_split -> inception_4a/output_inception_4a/output_0_split_0
I0403 14:07:47.198318   858 net.cpp:399] inception_4a/output_inception_4a/output_0_split -> inception_4a/output_inception_4a/output_0_split_1
I0403 14:07:47.198341   858 net.cpp:399] inception_4a/output_inception_4a/output_0_split -> inception_4a/output_inception_4a/output_0_split_2
I0403 14:07:47.198362   858 net.cpp:399] inception_4a/output_inception_4a/output_0_split -> inception_4a/output_inception_4a/output_0_split_3
I0403 14:07:47.198384   858 net.cpp:399] inception_4a/output_inception_4a/output_0_split -> inception_4a/output_inception_4a/output_0_split_4
I0403 14:07:47.198478   858 net.cpp:141] Setting up inception_4a/output_inception_4a/output_0_split
I0403 14:07:47.198503   858 net.cpp:148] Top shape: 24 512 14 14 (2408448)
I0403 14:07:47.198518   858 net.cpp:148] Top shape: 24 512 14 14 (2408448)
I0403 14:07:47.198534   858 net.cpp:148] Top shape: 24 512 14 14 (2408448)
I0403 14:07:47.198550   858 net.cpp:148] Top shape: 24 512 14 14 (2408448)
I0403 14:07:47.198566   858 net.cpp:148] Top shape: 24 512 14 14 (2408448)
I0403 14:07:47.198580   858 net.cpp:156] Memory required for data: 944714784
I0403 14:07:47.198595   858 layer_factory.hpp:77] Creating layer loss1/ave_pool
I0403 14:07:47.198614   858 net.cpp:91] Creating Layer loss1/ave_pool
I0403 14:07:47.198632   858 net.cpp:425] loss1/ave_pool <- inception_4a/output_inception_4a/output_0_split_0
I0403 14:07:47.198650   858 net.cpp:399] loss1/ave_pool -> loss1/ave_pool
I0403 14:07:47.198859   858 net.cpp:141] Setting up loss1/ave_pool
I0403 14:07:47.198885   858 net.cpp:148] Top shape: 24 512 4 4 (196608)
I0403 14:07:47.198901   858 net.cpp:156] Memory required for data: 945501216
I0403 14:07:47.198916   858 layer_factory.hpp:77] Creating layer loss1/conv
I0403 14:07:47.198938   858 net.cpp:91] Creating Layer loss1/conv
I0403 14:07:47.198956   858 net.cpp:425] loss1/conv <- loss1/ave_pool
I0403 14:07:47.198976   858 net.cpp:399] loss1/conv -> loss1/conv
I0403 14:07:47.200404   858 net.cpp:141] Setting up loss1/conv
I0403 14:07:47.200433   858 net.cpp:148] Top shape: 24 128 4 4 (49152)
I0403 14:07:47.200462   858 net.cpp:156] Memory required for data: 945697824
I0403 14:07:47.200484   858 layer_factory.hpp:77] Creating layer loss1/relu_conv
I0403 14:07:47.200505   858 net.cpp:91] Creating Layer loss1/relu_conv
I0403 14:07:47.200521   858 net.cpp:425] loss1/relu_conv <- loss1/conv
I0403 14:07:47.200539   858 net.cpp:386] loss1/relu_conv -> loss1/conv (in-place)
I0403 14:07:47.200839   858 net.cpp:141] Setting up loss1/relu_conv
I0403 14:07:47.200867   858 net.cpp:148] Top shape: 24 128 4 4 (49152)
I0403 14:07:47.200883   858 net.cpp:156] Memory required for data: 945894432
I0403 14:07:47.200899   858 layer_factory.hpp:77] Creating layer loss1/fc
I0403 14:07:47.200927   858 net.cpp:91] Creating Layer loss1/fc
I0403 14:07:47.200945   858 net.cpp:425] loss1/fc <- loss1/conv
I0403 14:07:47.200965   858 net.cpp:399] loss1/fc -> loss1/fc
I0403 14:07:47.219231   858 net.cpp:141] Setting up loss1/fc
I0403 14:07:47.219265   858 net.cpp:148] Top shape: 24 1024 (24576)
I0403 14:07:47.219282   858 net.cpp:156] Memory required for data: 945992736
I0403 14:07:47.219301   858 layer_factory.hpp:77] Creating layer loss1/relu_fc
I0403 14:07:47.219319   858 net.cpp:91] Creating Layer loss1/relu_fc
I0403 14:07:47.219336   858 net.cpp:425] loss1/relu_fc <- loss1/fc
I0403 14:07:47.219357   858 net.cpp:386] loss1/relu_fc -> loss1/fc (in-place)
I0403 14:07:47.219547   858 net.cpp:141] Setting up loss1/relu_fc
I0403 14:07:47.219573   858 net.cpp:148] Top shape: 24 1024 (24576)
I0403 14:07:47.219588   858 net.cpp:156] Memory required for data: 946091040
I0403 14:07:47.219604   858 layer_factory.hpp:77] Creating layer loss1/drop_fc
I0403 14:07:47.219632   858 net.cpp:91] Creating Layer loss1/drop_fc
I0403 14:07:47.219650   858 net.cpp:425] loss1/drop_fc <- loss1/fc
I0403 14:07:47.219668   858 net.cpp:386] loss1/drop_fc -> loss1/fc (in-place)
I0403 14:07:47.219719   858 net.cpp:141] Setting up loss1/drop_fc
I0403 14:07:47.219745   858 net.cpp:148] Top shape: 24 1024 (24576)
I0403 14:07:47.219761   858 net.cpp:156] Memory required for data: 946189344
I0403 14:07:47.219777   858 layer_factory.hpp:77] Creating layer loss1/classifier_plantvillage
I0403 14:07:47.219795   858 net.cpp:91] Creating Layer loss1/classifier_plantvillage
I0403 14:07:47.219811   858 net.cpp:425] loss1/classifier_plantvillage <- loss1/fc
I0403 14:07:47.219831   858 net.cpp:399] loss1/classifier_plantvillage -> loss1/classifier_plantvillage
I0403 14:07:47.220784   858 net.cpp:141] Setting up loss1/classifier_plantvillage
I0403 14:07:47.220813   858 net.cpp:148] Top shape: 24 38 (912)
I0403 14:07:47.220829   858 net.cpp:156] Memory required for data: 946192992
I0403 14:07:47.220849   858 layer_factory.hpp:77] Creating layer loss1/classifier_plantvillage_loss1/classifier_plantvillage_0_split
I0403 14:07:47.220866   858 net.cpp:91] Creating Layer loss1/classifier_plantvillage_loss1/classifier_plantvillage_0_split
I0403 14:07:47.220882   858 net.cpp:425] loss1/classifier_plantvillage_loss1/classifier_plantvillage_0_split <- loss1/classifier_plantvillage
I0403 14:07:47.220903   858 net.cpp:399] loss1/classifier_plantvillage_loss1/classifier_plantvillage_0_split -> loss1/classifier_plantvillage_loss1/classifier_plantvillage_0_split_0
I0403 14:07:47.220924   858 net.cpp:399] loss1/classifier_plantvillage_loss1/classifier_plantvillage_0_split -> loss1/classifier_plantvillage_loss1/classifier_plantvillage_0_split_1
I0403 14:07:47.220947   858 net.cpp:399] loss1/classifier_plantvillage_loss1/classifier_plantvillage_0_split -> loss1/classifier_plantvillage_loss1/classifier_plantvillage_0_split_2
I0403 14:07:47.221014   858 net.cpp:141] Setting up loss1/classifier_plantvillage_loss1/classifier_plantvillage_0_split
I0403 14:07:47.221040   858 net.cpp:148] Top shape: 24 38 (912)
I0403 14:07:47.221057   858 net.cpp:148] Top shape: 24 38 (912)
I0403 14:07:47.221073   858 net.cpp:148] Top shape: 24 38 (912)
I0403 14:07:47.221088   858 net.cpp:156] Memory required for data: 946203936
I0403 14:07:47.221103   858 layer_factory.hpp:77] Creating layer inception_4b/1x1
I0403 14:07:47.221123   858 net.cpp:91] Creating Layer inception_4b/1x1
I0403 14:07:47.221156   858 net.cpp:425] inception_4b/1x1 <- inception_4a/output_inception_4a/output_0_split_1
I0403 14:07:47.221180   858 net.cpp:399] inception_4b/1x1 -> inception_4b/1x1
I0403 14:07:47.222882   858 net.cpp:141] Setting up inception_4b/1x1
I0403 14:07:47.222910   858 net.cpp:148] Top shape: 24 160 14 14 (752640)
I0403 14:07:47.222926   858 net.cpp:156] Memory required for data: 949214496
I0403 14:07:47.222944   858 layer_factory.hpp:77] Creating layer inception_4b/relu_1x1
I0403 14:07:47.222965   858 net.cpp:91] Creating Layer inception_4b/relu_1x1
I0403 14:07:47.222983   858 net.cpp:425] inception_4b/relu_1x1 <- inception_4b/1x1
I0403 14:07:47.223001   858 net.cpp:386] inception_4b/relu_1x1 -> inception_4b/1x1 (in-place)
I0403 14:07:47.223194   858 net.cpp:141] Setting up inception_4b/relu_1x1
I0403 14:07:47.223222   858 net.cpp:148] Top shape: 24 160 14 14 (752640)
I0403 14:07:47.223238   858 net.cpp:156] Memory required for data: 952225056
I0403 14:07:47.223254   858 layer_factory.hpp:77] Creating layer inception_4b/3x3_reduce
I0403 14:07:47.223278   858 net.cpp:91] Creating Layer inception_4b/3x3_reduce
I0403 14:07:47.223294   858 net.cpp:425] inception_4b/3x3_reduce <- inception_4a/output_inception_4a/output_0_split_2
I0403 14:07:47.223315   858 net.cpp:399] inception_4b/3x3_reduce -> inception_4b/3x3_reduce
I0403 14:07:47.224689   858 net.cpp:141] Setting up inception_4b/3x3_reduce
I0403 14:07:47.224717   858 net.cpp:148] Top shape: 24 112 14 14 (526848)
I0403 14:07:47.224733   858 net.cpp:156] Memory required for data: 954332448
I0403 14:07:47.224752   858 layer_factory.hpp:77] Creating layer inception_4b/relu_3x3_reduce
I0403 14:07:47.224773   858 net.cpp:91] Creating Layer inception_4b/relu_3x3_reduce
I0403 14:07:47.224792   858 net.cpp:425] inception_4b/relu_3x3_reduce <- inception_4b/3x3_reduce
I0403 14:07:47.224809   858 net.cpp:386] inception_4b/relu_3x3_reduce -> inception_4b/3x3_reduce (in-place)
I0403 14:07:47.225098   858 net.cpp:141] Setting up inception_4b/relu_3x3_reduce
I0403 14:07:47.225124   858 net.cpp:148] Top shape: 24 112 14 14 (526848)
I0403 14:07:47.225141   858 net.cpp:156] Memory required for data: 956439840
I0403 14:07:47.225155   858 layer_factory.hpp:77] Creating layer inception_4b/3x3
I0403 14:07:47.225184   858 net.cpp:91] Creating Layer inception_4b/3x3
I0403 14:07:47.225203   858 net.cpp:425] inception_4b/3x3 <- inception_4b/3x3_reduce
I0403 14:07:47.225222   858 net.cpp:399] inception_4b/3x3 -> inception_4b/3x3
I0403 14:07:47.228266   858 net.cpp:141] Setting up inception_4b/3x3
I0403 14:07:47.228296   858 net.cpp:148] Top shape: 24 224 14 14 (1053696)
I0403 14:07:47.228312   858 net.cpp:156] Memory required for data: 960654624
I0403 14:07:47.228332   858 layer_factory.hpp:77] Creating layer inception_4b/relu_3x3
I0403 14:07:47.228349   858 net.cpp:91] Creating Layer inception_4b/relu_3x3
I0403 14:07:47.228366   858 net.cpp:425] inception_4b/relu_3x3 <- inception_4b/3x3
I0403 14:07:47.228386   858 net.cpp:386] inception_4b/relu_3x3 -> inception_4b/3x3 (in-place)
I0403 14:07:47.228571   858 net.cpp:141] Setting up inception_4b/relu_3x3
I0403 14:07:47.228596   858 net.cpp:148] Top shape: 24 224 14 14 (1053696)
I0403 14:07:47.228611   858 net.cpp:156] Memory required for data: 964869408
I0403 14:07:47.228626   858 layer_factory.hpp:77] Creating layer inception_4b/5x5_reduce
I0403 14:07:47.228652   858 net.cpp:91] Creating Layer inception_4b/5x5_reduce
I0403 14:07:47.228669   858 net.cpp:425] inception_4b/5x5_reduce <- inception_4a/output_inception_4a/output_0_split_3
I0403 14:07:47.228693   858 net.cpp:399] inception_4b/5x5_reduce -> inception_4b/5x5_reduce
I0403 14:07:47.229796   858 net.cpp:141] Setting up inception_4b/5x5_reduce
I0403 14:07:47.229825   858 net.cpp:148] Top shape: 24 24 14 14 (112896)
I0403 14:07:47.229841   858 net.cpp:156] Memory required for data: 965320992
I0403 14:07:47.229861   858 layer_factory.hpp:77] Creating layer inception_4b/relu_5x5_reduce
I0403 14:07:47.229881   858 net.cpp:91] Creating Layer inception_4b/relu_5x5_reduce
I0403 14:07:47.229910   858 net.cpp:425] inception_4b/relu_5x5_reduce <- inception_4b/5x5_reduce
I0403 14:07:47.229929   858 net.cpp:386] inception_4b/relu_5x5_reduce -> inception_4b/5x5_reduce (in-place)
I0403 14:07:47.230115   858 net.cpp:141] Setting up inception_4b/relu_5x5_reduce
I0403 14:07:47.230142   858 net.cpp:148] Top shape: 24 24 14 14 (112896)
I0403 14:07:47.230159   858 net.cpp:156] Memory required for data: 965772576
I0403 14:07:47.230175   858 layer_factory.hpp:77] Creating layer inception_4b/5x5
I0403 14:07:47.230201   858 net.cpp:91] Creating Layer inception_4b/5x5
I0403 14:07:47.230219   858 net.cpp:425] inception_4b/5x5 <- inception_4b/5x5_reduce
I0403 14:07:47.230242   858 net.cpp:399] inception_4b/5x5 -> inception_4b/5x5
I0403 14:07:47.231494   858 net.cpp:141] Setting up inception_4b/5x5
I0403 14:07:47.231523   858 net.cpp:148] Top shape: 24 64 14 14 (301056)
I0403 14:07:47.231540   858 net.cpp:156] Memory required for data: 966976800
I0403 14:07:47.231559   858 layer_factory.hpp:77] Creating layer inception_4b/relu_5x5
I0403 14:07:47.231580   858 net.cpp:91] Creating Layer inception_4b/relu_5x5
I0403 14:07:47.231596   858 net.cpp:425] inception_4b/relu_5x5 <- inception_4b/5x5
I0403 14:07:47.231614   858 net.cpp:386] inception_4b/relu_5x5 -> inception_4b/5x5 (in-place)
I0403 14:07:47.231905   858 net.cpp:141] Setting up inception_4b/relu_5x5
I0403 14:07:47.231932   858 net.cpp:148] Top shape: 24 64 14 14 (301056)
I0403 14:07:47.231948   858 net.cpp:156] Memory required for data: 968181024
I0403 14:07:47.231963   858 layer_factory.hpp:77] Creating layer inception_4b/pool
I0403 14:07:47.231984   858 net.cpp:91] Creating Layer inception_4b/pool
I0403 14:07:47.232002   858 net.cpp:425] inception_4b/pool <- inception_4a/output_inception_4a/output_0_split_4
I0403 14:07:47.232020   858 net.cpp:399] inception_4b/pool -> inception_4b/pool
I0403 14:07:47.232089   858 net.cpp:141] Setting up inception_4b/pool
I0403 14:07:47.232113   858 net.cpp:148] Top shape: 24 512 14 14 (2408448)
I0403 14:07:47.232128   858 net.cpp:156] Memory required for data: 977814816
I0403 14:07:47.232142   858 layer_factory.hpp:77] Creating layer inception_4b/pool_proj
I0403 14:07:47.232167   858 net.cpp:91] Creating Layer inception_4b/pool_proj
I0403 14:07:47.232190   858 net.cpp:425] inception_4b/pool_proj <- inception_4b/pool
I0403 14:07:47.232213   858 net.cpp:399] inception_4b/pool_proj -> inception_4b/pool_proj
I0403 14:07:47.233479   858 net.cpp:141] Setting up inception_4b/pool_proj
I0403 14:07:47.233508   858 net.cpp:148] Top shape: 24 64 14 14 (301056)
I0403 14:07:47.233525   858 net.cpp:156] Memory required for data: 979019040
I0403 14:07:47.233544   858 layer_factory.hpp:77] Creating layer inception_4b/relu_pool_proj
I0403 14:07:47.233566   858 net.cpp:91] Creating Layer inception_4b/relu_pool_proj
I0403 14:07:47.233584   858 net.cpp:425] inception_4b/relu_pool_proj <- inception_4b/pool_proj
I0403 14:07:47.233603   858 net.cpp:386] inception_4b/relu_pool_proj -> inception_4b/pool_proj (in-place)
I0403 14:07:47.233795   858 net.cpp:141] Setting up inception_4b/relu_pool_proj
I0403 14:07:47.233824   858 net.cpp:148] Top shape: 24 64 14 14 (301056)
I0403 14:07:47.233840   858 net.cpp:156] Memory required for data: 980223264
I0403 14:07:47.233855   858 layer_factory.hpp:77] Creating layer inception_4b/output
I0403 14:07:47.233875   858 net.cpp:91] Creating Layer inception_4b/output
I0403 14:07:47.233891   858 net.cpp:425] inception_4b/output <- inception_4b/1x1
I0403 14:07:47.233908   858 net.cpp:425] inception_4b/output <- inception_4b/3x3
I0403 14:07:47.233925   858 net.cpp:425] inception_4b/output <- inception_4b/5x5
I0403 14:07:47.233942   858 net.cpp:425] inception_4b/output <- inception_4b/pool_proj
I0403 14:07:47.233963   858 net.cpp:399] inception_4b/output -> inception_4b/output
I0403 14:07:47.234010   858 net.cpp:141] Setting up inception_4b/output
I0403 14:07:47.234035   858 net.cpp:148] Top shape: 24 512 14 14 (2408448)
I0403 14:07:47.234050   858 net.cpp:156] Memory required for data: 989857056
I0403 14:07:47.234081   858 layer_factory.hpp:77] Creating layer inception_4b/output_inception_4b/output_0_split
I0403 14:07:47.234102   858 net.cpp:91] Creating Layer inception_4b/output_inception_4b/output_0_split
I0403 14:07:47.234119   858 net.cpp:425] inception_4b/output_inception_4b/output_0_split <- inception_4b/output
I0403 14:07:47.234138   858 net.cpp:399] inception_4b/output_inception_4b/output_0_split -> inception_4b/output_inception_4b/output_0_split_0
I0403 14:07:47.234159   858 net.cpp:399] inception_4b/output_inception_4b/output_0_split -> inception_4b/output_inception_4b/output_0_split_1
I0403 14:07:47.234189   858 net.cpp:399] inception_4b/output_inception_4b/output_0_split -> inception_4b/output_inception_4b/output_0_split_2
I0403 14:07:47.234212   858 net.cpp:399] inception_4b/output_inception_4b/output_0_split -> inception_4b/output_inception_4b/output_0_split_3
I0403 14:07:47.234302   858 net.cpp:141] Setting up inception_4b/output_inception_4b/output_0_split
I0403 14:07:47.234326   858 net.cpp:148] Top shape: 24 512 14 14 (2408448)
I0403 14:07:47.234344   858 net.cpp:148] Top shape: 24 512 14 14 (2408448)
I0403 14:07:47.234360   858 net.cpp:148] Top shape: 24 512 14 14 (2408448)
I0403 14:07:47.234376   858 net.cpp:148] Top shape: 24 512 14 14 (2408448)
I0403 14:07:47.234391   858 net.cpp:156] Memory required for data: 1028392224
I0403 14:07:47.234406   858 layer_factory.hpp:77] Creating layer inception_4c/1x1
I0403 14:07:47.234429   858 net.cpp:91] Creating Layer inception_4c/1x1
I0403 14:07:47.234447   858 net.cpp:425] inception_4c/1x1 <- inception_4b/output_inception_4b/output_0_split_0
I0403 14:07:47.234469   858 net.cpp:399] inception_4c/1x1 -> inception_4c/1x1
I0403 14:07:47.235985   858 net.cpp:141] Setting up inception_4c/1x1
I0403 14:07:47.236017   858 net.cpp:148] Top shape: 24 128 14 14 (602112)
I0403 14:07:47.236035   858 net.cpp:156] Memory required for data: 1030800672
I0403 14:07:47.236055   858 layer_factory.hpp:77] Creating layer inception_4c/relu_1x1
I0403 14:07:47.236074   858 net.cpp:91] Creating Layer inception_4c/relu_1x1
I0403 14:07:47.236091   858 net.cpp:425] inception_4c/relu_1x1 <- inception_4c/1x1
I0403 14:07:47.236114   858 net.cpp:386] inception_4c/relu_1x1 -> inception_4c/1x1 (in-place)
I0403 14:07:47.236310   858 net.cpp:141] Setting up inception_4c/relu_1x1
I0403 14:07:47.236336   858 net.cpp:148] Top shape: 24 128 14 14 (602112)
I0403 14:07:47.236351   858 net.cpp:156] Memory required for data: 1033209120
I0403 14:07:47.236367   858 layer_factory.hpp:77] Creating layer inception_4c/3x3_reduce
I0403 14:07:47.236390   858 net.cpp:91] Creating Layer inception_4c/3x3_reduce
I0403 14:07:47.236408   858 net.cpp:425] inception_4c/3x3_reduce <- inception_4b/output_inception_4b/output_0_split_1
I0403 14:07:47.236431   858 net.cpp:399] inception_4c/3x3_reduce -> inception_4c/3x3_reduce
I0403 14:07:47.238478   858 net.cpp:141] Setting up inception_4c/3x3_reduce
I0403 14:07:47.238509   858 net.cpp:148] Top shape: 24 128 14 14 (602112)
I0403 14:07:47.238525   858 net.cpp:156] Memory required for data: 1035617568
I0403 14:07:47.238545   858 layer_factory.hpp:77] Creating layer inception_4c/relu_3x3_reduce
I0403 14:07:47.238566   858 net.cpp:91] Creating Layer inception_4c/relu_3x3_reduce
I0403 14:07:47.238584   858 net.cpp:425] inception_4c/relu_3x3_reduce <- inception_4c/3x3_reduce
I0403 14:07:47.238603   858 net.cpp:386] inception_4c/relu_3x3_reduce -> inception_4c/3x3_reduce (in-place)
I0403 14:07:47.238911   858 net.cpp:141] Setting up inception_4c/relu_3x3_reduce
I0403 14:07:47.238939   858 net.cpp:148] Top shape: 24 128 14 14 (602112)
I0403 14:07:47.238955   858 net.cpp:156] Memory required for data: 1038026016
I0403 14:07:47.238970   858 layer_factory.hpp:77] Creating layer inception_4c/3x3
I0403 14:07:47.238996   858 net.cpp:91] Creating Layer inception_4c/3x3
I0403 14:07:47.239014   858 net.cpp:425] inception_4c/3x3 <- inception_4c/3x3_reduce
I0403 14:07:47.239038   858 net.cpp:399] inception_4c/3x3 -> inception_4c/3x3
I0403 14:07:47.242843   858 net.cpp:141] Setting up inception_4c/3x3
I0403 14:07:47.242887   858 net.cpp:148] Top shape: 24 256 14 14 (1204224)
I0403 14:07:47.242903   858 net.cpp:156] Memory required for data: 1042842912
I0403 14:07:47.242936   858 layer_factory.hpp:77] Creating layer inception_4c/relu_3x3
I0403 14:07:47.242960   858 net.cpp:91] Creating Layer inception_4c/relu_3x3
I0403 14:07:47.242979   858 net.cpp:425] inception_4c/relu_3x3 <- inception_4c/3x3
I0403 14:07:47.242996   858 net.cpp:386] inception_4c/relu_3x3 -> inception_4c/3x3 (in-place)
I0403 14:07:47.243196   858 net.cpp:141] Setting up inception_4c/relu_3x3
I0403 14:07:47.243222   858 net.cpp:148] Top shape: 24 256 14 14 (1204224)
I0403 14:07:47.243237   858 net.cpp:156] Memory required for data: 1047659808
I0403 14:07:47.243254   858 layer_factory.hpp:77] Creating layer inception_4c/5x5_reduce
I0403 14:07:47.243280   858 net.cpp:91] Creating Layer inception_4c/5x5_reduce
I0403 14:07:47.243299   858 net.cpp:425] inception_4c/5x5_reduce <- inception_4b/output_inception_4b/output_0_split_2
I0403 14:07:47.243319   858 net.cpp:399] inception_4c/5x5_reduce -> inception_4c/5x5_reduce
I0403 14:07:47.244479   858 net.cpp:141] Setting up inception_4c/5x5_reduce
I0403 14:07:47.244509   858 net.cpp:148] Top shape: 24 24 14 14 (112896)
I0403 14:07:47.244526   858 net.cpp:156] Memory required for data: 1048111392
I0403 14:07:47.244546   858 layer_factory.hpp:77] Creating layer inception_4c/relu_5x5_reduce
I0403 14:07:47.244567   858 net.cpp:91] Creating Layer inception_4c/relu_5x5_reduce
I0403 14:07:47.244585   858 net.cpp:425] inception_4c/relu_5x5_reduce <- inception_4c/5x5_reduce
I0403 14:07:47.244603   858 net.cpp:386] inception_4c/relu_5x5_reduce -> inception_4c/5x5_reduce (in-place)
I0403 14:07:47.244801   858 net.cpp:141] Setting up inception_4c/relu_5x5_reduce
I0403 14:07:47.244829   858 net.cpp:148] Top shape: 24 24 14 14 (112896)
I0403 14:07:47.244846   858 net.cpp:156] Memory required for data: 1048562976
I0403 14:07:47.244863   858 layer_factory.hpp:77] Creating layer inception_4c/5x5
I0403 14:07:47.244885   858 net.cpp:91] Creating Layer inception_4c/5x5
I0403 14:07:47.244904   858 net.cpp:425] inception_4c/5x5 <- inception_4c/5x5_reduce
I0403 14:07:47.244925   858 net.cpp:399] inception_4c/5x5 -> inception_4c/5x5
I0403 14:07:47.246276   858 net.cpp:141] Setting up inception_4c/5x5
I0403 14:07:47.246307   858 net.cpp:148] Top shape: 24 64 14 14 (301056)
I0403 14:07:47.246325   858 net.cpp:156] Memory required for data: 1049767200
I0403 14:07:47.246345   858 layer_factory.hpp:77] Creating layer inception_4c/relu_5x5
I0403 14:07:47.246363   858 net.cpp:91] Creating Layer inception_4c/relu_5x5
I0403 14:07:47.246379   858 net.cpp:425] inception_4c/relu_5x5 <- inception_4c/5x5
I0403 14:07:47.246400   858 net.cpp:386] inception_4c/relu_5x5 -> inception_4c/5x5 (in-place)
I0403 14:07:47.246703   858 net.cpp:141] Setting up inception_4c/relu_5x5
I0403 14:07:47.246733   858 net.cpp:148] Top shape: 24 64 14 14 (301056)
I0403 14:07:47.246750   858 net.cpp:156] Memory required for data: 1050971424
I0403 14:07:47.246767   858 layer_factory.hpp:77] Creating layer inception_4c/pool
I0403 14:07:47.246785   858 net.cpp:91] Creating Layer inception_4c/pool
I0403 14:07:47.246803   858 net.cpp:425] inception_4c/pool <- inception_4b/output_inception_4b/output_0_split_3
I0403 14:07:47.246825   858 net.cpp:399] inception_4c/pool -> inception_4c/pool
I0403 14:07:47.246893   858 net.cpp:141] Setting up inception_4c/pool
I0403 14:07:47.246918   858 net.cpp:148] Top shape: 24 512 14 14 (2408448)
I0403 14:07:47.246933   858 net.cpp:156] Memory required for data: 1060605216
I0403 14:07:47.246949   858 layer_factory.hpp:77] Creating layer inception_4c/pool_proj
I0403 14:07:47.246973   858 net.cpp:91] Creating Layer inception_4c/pool_proj
I0403 14:07:47.246990   858 net.cpp:425] inception_4c/pool_proj <- inception_4c/pool
I0403 14:07:47.247012   858 net.cpp:399] inception_4c/pool_proj -> inception_4c/pool_proj
I0403 14:07:47.248318   858 net.cpp:141] Setting up inception_4c/pool_proj
I0403 14:07:47.248348   858 net.cpp:148] Top shape: 24 64 14 14 (301056)
I0403 14:07:47.248379   858 net.cpp:156] Memory required for data: 1061809440
I0403 14:07:47.248399   858 layer_factory.hpp:77] Creating layer inception_4c/relu_pool_proj
I0403 14:07:47.248422   858 net.cpp:91] Creating Layer inception_4c/relu_pool_proj
I0403 14:07:47.248442   858 net.cpp:425] inception_4c/relu_pool_proj <- inception_4c/pool_proj
I0403 14:07:47.248459   858 net.cpp:386] inception_4c/relu_pool_proj -> inception_4c/pool_proj (in-place)
I0403 14:07:47.248657   858 net.cpp:141] Setting up inception_4c/relu_pool_proj
I0403 14:07:47.248685   858 net.cpp:148] Top shape: 24 64 14 14 (301056)
I0403 14:07:47.248703   858 net.cpp:156] Memory required for data: 1063013664
I0403 14:07:47.248718   858 layer_factory.hpp:77] Creating layer inception_4c/output
I0403 14:07:47.248736   858 net.cpp:91] Creating Layer inception_4c/output
I0403 14:07:47.248754   858 net.cpp:425] inception_4c/output <- inception_4c/1x1
I0403 14:07:47.248770   858 net.cpp:425] inception_4c/output <- inception_4c/3x3
I0403 14:07:47.248787   858 net.cpp:425] inception_4c/output <- inception_4c/5x5
I0403 14:07:47.248805   858 net.cpp:425] inception_4c/output <- inception_4c/pool_proj
I0403 14:07:47.248824   858 net.cpp:399] inception_4c/output -> inception_4c/output
I0403 14:07:47.248873   858 net.cpp:141] Setting up inception_4c/output
I0403 14:07:47.248898   858 net.cpp:148] Top shape: 24 512 14 14 (2408448)
I0403 14:07:47.248913   858 net.cpp:156] Memory required for data: 1072647456
I0403 14:07:47.248929   858 layer_factory.hpp:77] Creating layer inception_4c/output_inception_4c/output_0_split
I0403 14:07:47.248949   858 net.cpp:91] Creating Layer inception_4c/output_inception_4c/output_0_split
I0403 14:07:47.248965   858 net.cpp:425] inception_4c/output_inception_4c/output_0_split <- inception_4c/output
I0403 14:07:47.248985   858 net.cpp:399] inception_4c/output_inception_4c/output_0_split -> inception_4c/output_inception_4c/output_0_split_0
I0403 14:07:47.249006   858 net.cpp:399] inception_4c/output_inception_4c/output_0_split -> inception_4c/output_inception_4c/output_0_split_1
I0403 14:07:47.249027   858 net.cpp:399] inception_4c/output_inception_4c/output_0_split -> inception_4c/output_inception_4c/output_0_split_2
I0403 14:07:47.249052   858 net.cpp:399] inception_4c/output_inception_4c/output_0_split -> inception_4c/output_inception_4c/output_0_split_3
I0403 14:07:47.249145   858 net.cpp:141] Setting up inception_4c/output_inception_4c/output_0_split
I0403 14:07:47.249168   858 net.cpp:148] Top shape: 24 512 14 14 (2408448)
I0403 14:07:47.249191   858 net.cpp:148] Top shape: 24 512 14 14 (2408448)
I0403 14:07:47.249208   858 net.cpp:148] Top shape: 24 512 14 14 (2408448)
I0403 14:07:47.249224   858 net.cpp:148] Top shape: 24 512 14 14 (2408448)
I0403 14:07:47.249238   858 net.cpp:156] Memory required for data: 1111182624
I0403 14:07:47.249254   858 layer_factory.hpp:77] Creating layer inception_4d/1x1
I0403 14:07:47.249277   858 net.cpp:91] Creating Layer inception_4d/1x1
I0403 14:07:47.249295   858 net.cpp:425] inception_4d/1x1 <- inception_4c/output_inception_4c/output_0_split_0
I0403 14:07:47.249317   858 net.cpp:399] inception_4d/1x1 -> inception_4d/1x1
I0403 14:07:47.250793   858 net.cpp:141] Setting up inception_4d/1x1
I0403 14:07:47.250823   858 net.cpp:148] Top shape: 24 112 14 14 (526848)
I0403 14:07:47.250840   858 net.cpp:156] Memory required for data: 1113290016
I0403 14:07:47.250859   858 layer_factory.hpp:77] Creating layer inception_4d/relu_1x1
I0403 14:07:47.250881   858 net.cpp:91] Creating Layer inception_4d/relu_1x1
I0403 14:07:47.250898   858 net.cpp:425] inception_4d/relu_1x1 <- inception_4d/1x1
I0403 14:07:47.250917   858 net.cpp:386] inception_4d/relu_1x1 -> inception_4d/1x1 (in-place)
I0403 14:07:47.251112   858 net.cpp:141] Setting up inception_4d/relu_1x1
I0403 14:07:47.251139   858 net.cpp:148] Top shape: 24 112 14 14 (526848)
I0403 14:07:47.251154   858 net.cpp:156] Memory required for data: 1115397408
I0403 14:07:47.251170   858 layer_factory.hpp:77] Creating layer inception_4d/3x3_reduce
I0403 14:07:47.251212   858 net.cpp:91] Creating Layer inception_4d/3x3_reduce
I0403 14:07:47.251233   858 net.cpp:425] inception_4d/3x3_reduce <- inception_4c/output_inception_4c/output_0_split_1
I0403 14:07:47.251256   858 net.cpp:399] inception_4d/3x3_reduce -> inception_4d/3x3_reduce
I0403 14:07:47.252873   858 net.cpp:141] Setting up inception_4d/3x3_reduce
I0403 14:07:47.252902   858 net.cpp:148] Top shape: 24 144 14 14 (677376)
I0403 14:07:47.252918   858 net.cpp:156] Memory required for data: 1118106912
I0403 14:07:47.252938   858 layer_factory.hpp:77] Creating layer inception_4d/relu_3x3_reduce
I0403 14:07:47.252955   858 net.cpp:91] Creating Layer inception_4d/relu_3x3_reduce
I0403 14:07:47.252972   858 net.cpp:425] inception_4d/relu_3x3_reduce <- inception_4d/3x3_reduce
I0403 14:07:47.252995   858 net.cpp:386] inception_4d/relu_3x3_reduce -> inception_4d/3x3_reduce (in-place)
I0403 14:07:47.253304   858 net.cpp:141] Setting up inception_4d/relu_3x3_reduce
I0403 14:07:47.253331   858 net.cpp:148] Top shape: 24 144 14 14 (677376)
I0403 14:07:47.253347   858 net.cpp:156] Memory required for data: 1120816416
I0403 14:07:47.253363   858 layer_factory.hpp:77] Creating layer inception_4d/3x3
I0403 14:07:47.253386   858 net.cpp:91] Creating Layer inception_4d/3x3
I0403 14:07:47.253404   858 net.cpp:425] inception_4d/3x3 <- inception_4d/3x3_reduce
I0403 14:07:47.253427   858 net.cpp:399] inception_4d/3x3 -> inception_4d/3x3
I0403 14:07:47.257907   858 net.cpp:141] Setting up inception_4d/3x3
I0403 14:07:47.257937   858 net.cpp:148] Top shape: 24 288 14 14 (1354752)
I0403 14:07:47.257953   858 net.cpp:156] Memory required for data: 1126235424
I0403 14:07:47.257972   858 layer_factory.hpp:77] Creating layer inception_4d/relu_3x3
I0403 14:07:47.257992   858 net.cpp:91] Creating Layer inception_4d/relu_3x3
I0403 14:07:47.258009   858 net.cpp:425] inception_4d/relu_3x3 <- inception_4d/3x3
I0403 14:07:47.258028   858 net.cpp:386] inception_4d/relu_3x3 -> inception_4d/3x3 (in-place)
I0403 14:07:47.258224   858 net.cpp:141] Setting up inception_4d/relu_3x3
I0403 14:07:47.258250   858 net.cpp:148] Top shape: 24 288 14 14 (1354752)
I0403 14:07:47.258268   858 net.cpp:156] Memory required for data: 1131654432
I0403 14:07:47.258283   858 layer_factory.hpp:77] Creating layer inception_4d/5x5_reduce
I0403 14:07:47.258303   858 net.cpp:91] Creating Layer inception_4d/5x5_reduce
I0403 14:07:47.258322   858 net.cpp:425] inception_4d/5x5_reduce <- inception_4c/output_inception_4c/output_0_split_2
I0403 14:07:47.258342   858 net.cpp:399] inception_4d/5x5_reduce -> inception_4d/5x5_reduce
I0403 14:07:47.259532   858 net.cpp:141] Setting up inception_4d/5x5_reduce
I0403 14:07:47.259562   858 net.cpp:148] Top shape: 24 32 14 14 (150528)
I0403 14:07:47.259578   858 net.cpp:156] Memory required for data: 1132256544
I0403 14:07:47.259598   858 layer_factory.hpp:77] Creating layer inception_4d/relu_5x5_reduce
I0403 14:07:47.259618   858 net.cpp:91] Creating Layer inception_4d/relu_5x5_reduce
I0403 14:07:47.259635   858 net.cpp:425] inception_4d/relu_5x5_reduce <- inception_4d/5x5_reduce
I0403 14:07:47.259654   858 net.cpp:386] inception_4d/relu_5x5_reduce -> inception_4d/5x5_reduce (in-place)
I0403 14:07:47.259847   858 net.cpp:141] Setting up inception_4d/relu_5x5_reduce
I0403 14:07:47.259873   858 net.cpp:148] Top shape: 24 32 14 14 (150528)
I0403 14:07:47.259888   858 net.cpp:156] Memory required for data: 1132858656
I0403 14:07:47.259903   858 layer_factory.hpp:77] Creating layer inception_4d/5x5
I0403 14:07:47.259929   858 net.cpp:91] Creating Layer inception_4d/5x5
I0403 14:07:47.259948   858 net.cpp:425] inception_4d/5x5 <- inception_4d/5x5_reduce
I0403 14:07:47.259966   858 net.cpp:399] inception_4d/5x5 -> inception_4d/5x5
I0403 14:07:47.261488   858 net.cpp:141] Setting up inception_4d/5x5
I0403 14:07:47.261517   858 net.cpp:148] Top shape: 24 64 14 14 (301056)
I0403 14:07:47.261533   858 net.cpp:156] Memory required for data: 1134062880
I0403 14:07:47.261553   858 layer_factory.hpp:77] Creating layer inception_4d/relu_5x5
I0403 14:07:47.261587   858 net.cpp:91] Creating Layer inception_4d/relu_5x5
I0403 14:07:47.261606   858 net.cpp:425] inception_4d/relu_5x5 <- inception_4d/5x5
I0403 14:07:47.261625   858 net.cpp:386] inception_4d/relu_5x5 -> inception_4d/5x5 (in-place)
I0403 14:07:47.261936   858 net.cpp:141] Setting up inception_4d/relu_5x5
I0403 14:07:47.261963   858 net.cpp:148] Top shape: 24 64 14 14 (301056)
I0403 14:07:47.261978   858 net.cpp:156] Memory required for data: 1135267104
I0403 14:07:47.261993   858 layer_factory.hpp:77] Creating layer inception_4d/pool
I0403 14:07:47.262014   858 net.cpp:91] Creating Layer inception_4d/pool
I0403 14:07:47.262032   858 net.cpp:425] inception_4d/pool <- inception_4c/output_inception_4c/output_0_split_3
I0403 14:07:47.262050   858 net.cpp:399] inception_4d/pool -> inception_4d/pool
I0403 14:07:47.262120   858 net.cpp:141] Setting up inception_4d/pool
I0403 14:07:47.262143   858 net.cpp:148] Top shape: 24 512 14 14 (2408448)
I0403 14:07:47.262158   858 net.cpp:156] Memory required for data: 1144900896
I0403 14:07:47.262173   858 layer_factory.hpp:77] Creating layer inception_4d/pool_proj
I0403 14:07:47.262202   858 net.cpp:91] Creating Layer inception_4d/pool_proj
I0403 14:07:47.262220   858 net.cpp:425] inception_4d/pool_proj <- inception_4d/pool
I0403 14:07:47.262241   858 net.cpp:399] inception_4d/pool_proj -> inception_4d/pool_proj
I0403 14:07:47.264065   858 net.cpp:141] Setting up inception_4d/pool_proj
I0403 14:07:47.264094   858 net.cpp:148] Top shape: 24 64 14 14 (301056)
I0403 14:07:47.264111   858 net.cpp:156] Memory required for data: 1146105120
I0403 14:07:47.264130   858 layer_factory.hpp:77] Creating layer inception_4d/relu_pool_proj
I0403 14:07:47.264150   858 net.cpp:91] Creating Layer inception_4d/relu_pool_proj
I0403 14:07:47.264168   858 net.cpp:425] inception_4d/relu_pool_proj <- inception_4d/pool_proj
I0403 14:07:47.264191   858 net.cpp:386] inception_4d/relu_pool_proj -> inception_4d/pool_proj (in-place)
I0403 14:07:47.264387   858 net.cpp:141] Setting up inception_4d/relu_pool_proj
I0403 14:07:47.264413   858 net.cpp:148] Top shape: 24 64 14 14 (301056)
I0403 14:07:47.264432   858 net.cpp:156] Memory required for data: 1147309344
I0403 14:07:47.264447   858 layer_factory.hpp:77] Creating layer inception_4d/output
I0403 14:07:47.264466   858 net.cpp:91] Creating Layer inception_4d/output
I0403 14:07:47.264482   858 net.cpp:425] inception_4d/output <- inception_4d/1x1
I0403 14:07:47.264498   858 net.cpp:425] inception_4d/output <- inception_4d/3x3
I0403 14:07:47.264515   858 net.cpp:425] inception_4d/output <- inception_4d/5x5
I0403 14:07:47.264531   858 net.cpp:425] inception_4d/output <- inception_4d/pool_proj
I0403 14:07:47.264549   858 net.cpp:399] inception_4d/output -> inception_4d/output
I0403 14:07:47.264598   858 net.cpp:141] Setting up inception_4d/output
I0403 14:07:47.264622   858 net.cpp:148] Top shape: 24 528 14 14 (2483712)
I0403 14:07:47.264637   858 net.cpp:156] Memory required for data: 1157244192
I0403 14:07:47.264652   858 layer_factory.hpp:77] Creating layer inception_4d/output_inception_4d/output_0_split
I0403 14:07:47.264670   858 net.cpp:91] Creating Layer inception_4d/output_inception_4d/output_0_split
I0403 14:07:47.264690   858 net.cpp:425] inception_4d/output_inception_4d/output_0_split <- inception_4d/output
I0403 14:07:47.264708   858 net.cpp:399] inception_4d/output_inception_4d/output_0_split -> inception_4d/output_inception_4d/output_0_split_0
I0403 14:07:47.264729   858 net.cpp:399] inception_4d/output_inception_4d/output_0_split -> inception_4d/output_inception_4d/output_0_split_1
I0403 14:07:47.264750   858 net.cpp:399] inception_4d/output_inception_4d/output_0_split -> inception_4d/output_inception_4d/output_0_split_2
I0403 14:07:47.264771   858 net.cpp:399] inception_4d/output_inception_4d/output_0_split -> inception_4d/output_inception_4d/output_0_split_3
I0403 14:07:47.264791   858 net.cpp:399] inception_4d/output_inception_4d/output_0_split -> inception_4d/output_inception_4d/output_0_split_4
I0403 14:07:47.264899   858 net.cpp:141] Setting up inception_4d/output_inception_4d/output_0_split
I0403 14:07:47.264935   858 net.cpp:148] Top shape: 24 528 14 14 (2483712)
I0403 14:07:47.264951   858 net.cpp:148] Top shape: 24 528 14 14 (2483712)
I0403 14:07:47.264967   858 net.cpp:148] Top shape: 24 528 14 14 (2483712)
I0403 14:07:47.264984   858 net.cpp:148] Top shape: 24 528 14 14 (2483712)
I0403 14:07:47.265000   858 net.cpp:148] Top shape: 24 528 14 14 (2483712)
I0403 14:07:47.265014   858 net.cpp:156] Memory required for data: 1206918432
I0403 14:07:47.265029   858 layer_factory.hpp:77] Creating layer loss2/ave_pool
I0403 14:07:47.265048   858 net.cpp:91] Creating Layer loss2/ave_pool
I0403 14:07:47.265064   858 net.cpp:425] loss2/ave_pool <- inception_4d/output_inception_4d/output_0_split_0
I0403 14:07:47.265084   858 net.cpp:399] loss2/ave_pool -> loss2/ave_pool
I0403 14:07:47.265419   858 net.cpp:141] Setting up loss2/ave_pool
I0403 14:07:47.265447   858 net.cpp:148] Top shape: 24 528 4 4 (202752)
I0403 14:07:47.265463   858 net.cpp:156] Memory required for data: 1207729440
I0403 14:07:47.265478   858 layer_factory.hpp:77] Creating layer loss2/conv
I0403 14:07:47.265501   858 net.cpp:91] Creating Layer loss2/conv
I0403 14:07:47.265519   858 net.cpp:425] loss2/conv <- loss2/ave_pool
I0403 14:07:47.265542   858 net.cpp:399] loss2/conv -> loss2/conv
I0403 14:07:47.267487   858 net.cpp:141] Setting up loss2/conv
I0403 14:07:47.267518   858 net.cpp:148] Top shape: 24 128 4 4 (49152)
I0403 14:07:47.267535   858 net.cpp:156] Memory required for data: 1207926048
I0403 14:07:47.267554   858 layer_factory.hpp:77] Creating layer loss2/relu_conv
I0403 14:07:47.267572   858 net.cpp:91] Creating Layer loss2/relu_conv
I0403 14:07:47.267588   858 net.cpp:425] loss2/relu_conv <- loss2/conv
I0403 14:07:47.267606   858 net.cpp:386] loss2/relu_conv -> loss2/conv (in-place)
I0403 14:07:47.267901   858 net.cpp:141] Setting up loss2/relu_conv
I0403 14:07:47.267930   858 net.cpp:148] Top shape: 24 128 4 4 (49152)
I0403 14:07:47.267946   858 net.cpp:156] Memory required for data: 1208122656
I0403 14:07:47.267961   858 layer_factory.hpp:77] Creating layer loss2/fc
I0403 14:07:47.267981   858 net.cpp:91] Creating Layer loss2/fc
I0403 14:07:47.267998   858 net.cpp:425] loss2/fc <- loss2/conv
I0403 14:07:47.268019   858 net.cpp:399] loss2/fc -> loss2/fc
I0403 14:07:47.286767   858 net.cpp:141] Setting up loss2/fc
I0403 14:07:47.286804   858 net.cpp:148] Top shape: 24 1024 (24576)
I0403 14:07:47.286821   858 net.cpp:156] Memory required for data: 1208220960
I0403 14:07:47.286841   858 layer_factory.hpp:77] Creating layer loss2/relu_fc
I0403 14:07:47.286864   858 net.cpp:91] Creating Layer loss2/relu_fc
I0403 14:07:47.286882   858 net.cpp:425] loss2/relu_fc <- loss2/fc
I0403 14:07:47.286900   858 net.cpp:386] loss2/relu_fc -> loss2/fc (in-place)
I0403 14:07:47.287223   858 net.cpp:141] Setting up loss2/relu_fc
I0403 14:07:47.287251   858 net.cpp:148] Top shape: 24 1024 (24576)
I0403 14:07:47.287267   858 net.cpp:156] Memory required for data: 1208319264
I0403 14:07:47.287283   858 layer_factory.hpp:77] Creating layer loss2/drop_fc
I0403 14:07:47.287305   858 net.cpp:91] Creating Layer loss2/drop_fc
I0403 14:07:47.287323   858 net.cpp:425] loss2/drop_fc <- loss2/fc
I0403 14:07:47.287343   858 net.cpp:386] loss2/drop_fc -> loss2/fc (in-place)
I0403 14:07:47.287395   858 net.cpp:141] Setting up loss2/drop_fc
I0403 14:07:47.287418   858 net.cpp:148] Top shape: 24 1024 (24576)
I0403 14:07:47.287434   858 net.cpp:156] Memory required for data: 1208417568
I0403 14:07:47.287451   858 layer_factory.hpp:77] Creating layer loss2/classifier_plantvillage
I0403 14:07:47.287469   858 net.cpp:91] Creating Layer loss2/classifier_plantvillage
I0403 14:07:47.287487   858 net.cpp:425] loss2/classifier_plantvillage <- loss2/fc
I0403 14:07:47.287508   858 net.cpp:399] loss2/classifier_plantvillage -> loss2/classifier_plantvillage
I0403 14:07:47.287986   858 net.cpp:141] Setting up loss2/classifier_plantvillage
I0403 14:07:47.288023   858 net.cpp:148] Top shape: 24 38 (912)
I0403 14:07:47.288054   858 net.cpp:156] Memory required for data: 1208421216
I0403 14:07:47.288074   858 layer_factory.hpp:77] Creating layer loss2/classifier_plantvillage_loss2/classifier_plantvillage_0_split
I0403 14:07:47.288094   858 net.cpp:91] Creating Layer loss2/classifier_plantvillage_loss2/classifier_plantvillage_0_split
I0403 14:07:47.288110   858 net.cpp:425] loss2/classifier_plantvillage_loss2/classifier_plantvillage_0_split <- loss2/classifier_plantvillage
I0403 14:07:47.288127   858 net.cpp:399] loss2/classifier_plantvillage_loss2/classifier_plantvillage_0_split -> loss2/classifier_plantvillage_loss2/classifier_plantvillage_0_split_0
I0403 14:07:47.288151   858 net.cpp:399] loss2/classifier_plantvillage_loss2/classifier_plantvillage_0_split -> loss2/classifier_plantvillage_loss2/classifier_plantvillage_0_split_1
I0403 14:07:47.288173   858 net.cpp:399] loss2/classifier_plantvillage_loss2/classifier_plantvillage_0_split -> loss2/classifier_plantvillage_loss2/classifier_plantvillage_0_split_2
I0403 14:07:47.288259   858 net.cpp:141] Setting up loss2/classifier_plantvillage_loss2/classifier_plantvillage_0_split
I0403 14:07:47.288282   858 net.cpp:148] Top shape: 24 38 (912)
I0403 14:07:47.288302   858 net.cpp:148] Top shape: 24 38 (912)
I0403 14:07:47.288318   858 net.cpp:148] Top shape: 24 38 (912)
I0403 14:07:47.288332   858 net.cpp:156] Memory required for data: 1208432160
I0403 14:07:47.288347   858 layer_factory.hpp:77] Creating layer inception_4e/1x1
I0403 14:07:47.288367   858 net.cpp:91] Creating Layer inception_4e/1x1
I0403 14:07:47.288385   858 net.cpp:425] inception_4e/1x1 <- inception_4d/output_inception_4d/output_0_split_1
I0403 14:07:47.288408   858 net.cpp:399] inception_4e/1x1 -> inception_4e/1x1
I0403 14:07:47.290285   858 net.cpp:141] Setting up inception_4e/1x1
I0403 14:07:47.290316   858 net.cpp:148] Top shape: 24 256 14 14 (1204224)
I0403 14:07:47.290334   858 net.cpp:156] Memory required for data: 1213249056
I0403 14:07:47.290354   858 layer_factory.hpp:77] Creating layer inception_4e/relu_1x1
I0403 14:07:47.290371   858 net.cpp:91] Creating Layer inception_4e/relu_1x1
I0403 14:07:47.290388   858 net.cpp:425] inception_4e/relu_1x1 <- inception_4e/1x1
I0403 14:07:47.290408   858 net.cpp:386] inception_4e/relu_1x1 -> inception_4e/1x1 (in-place)
I0403 14:07:47.290711   858 net.cpp:141] Setting up inception_4e/relu_1x1
I0403 14:07:47.290740   858 net.cpp:148] Top shape: 24 256 14 14 (1204224)
I0403 14:07:47.290757   858 net.cpp:156] Memory required for data: 1218065952
I0403 14:07:47.290772   858 layer_factory.hpp:77] Creating layer inception_4e/3x3_reduce
I0403 14:07:47.290796   858 net.cpp:91] Creating Layer inception_4e/3x3_reduce
I0403 14:07:47.290812   858 net.cpp:425] inception_4e/3x3_reduce <- inception_4d/output_inception_4d/output_0_split_2
I0403 14:07:47.290832   858 net.cpp:399] inception_4e/3x3_reduce -> inception_4e/3x3_reduce
I0403 14:07:47.293015   858 net.cpp:141] Setting up inception_4e/3x3_reduce
I0403 14:07:47.293045   858 net.cpp:148] Top shape: 24 160 14 14 (752640)
I0403 14:07:47.293064   858 net.cpp:156] Memory required for data: 1221076512
I0403 14:07:47.293083   858 layer_factory.hpp:77] Creating layer inception_4e/relu_3x3_reduce
I0403 14:07:47.293102   858 net.cpp:91] Creating Layer inception_4e/relu_3x3_reduce
I0403 14:07:47.293118   858 net.cpp:425] inception_4e/relu_3x3_reduce <- inception_4e/3x3_reduce
I0403 14:07:47.293134   858 net.cpp:386] inception_4e/relu_3x3_reduce -> inception_4e/3x3_reduce (in-place)
I0403 14:07:47.293341   858 net.cpp:141] Setting up inception_4e/relu_3x3_reduce
I0403 14:07:47.293370   858 net.cpp:148] Top shape: 24 160 14 14 (752640)
I0403 14:07:47.293386   858 net.cpp:156] Memory required for data: 1224087072
I0403 14:07:47.293402   858 layer_factory.hpp:77] Creating layer inception_4e/3x3
I0403 14:07:47.293426   858 net.cpp:91] Creating Layer inception_4e/3x3
I0403 14:07:47.293443   858 net.cpp:425] inception_4e/3x3 <- inception_4e/3x3_reduce
I0403 14:07:47.293462   858 net.cpp:399] inception_4e/3x3 -> inception_4e/3x3
I0403 14:07:47.298634   858 net.cpp:141] Setting up inception_4e/3x3
I0403 14:07:47.298681   858 net.cpp:148] Top shape: 24 320 14 14 (1505280)
I0403 14:07:47.298698   858 net.cpp:156] Memory required for data: 1230108192
I0403 14:07:47.298717   858 layer_factory.hpp:77] Creating layer inception_4e/relu_3x3
I0403 14:07:47.298737   858 net.cpp:91] Creating Layer inception_4e/relu_3x3
I0403 14:07:47.298753   858 net.cpp:425] inception_4e/relu_3x3 <- inception_4e/3x3
I0403 14:07:47.298773   858 net.cpp:386] inception_4e/relu_3x3 -> inception_4e/3x3 (in-place)
I0403 14:07:47.299084   858 net.cpp:141] Setting up inception_4e/relu_3x3
I0403 14:07:47.299110   858 net.cpp:148] Top shape: 24 320 14 14 (1505280)
I0403 14:07:47.299127   858 net.cpp:156] Memory required for data: 1236129312
I0403 14:07:47.299142   858 layer_factory.hpp:77] Creating layer inception_4e/5x5_reduce
I0403 14:07:47.299166   858 net.cpp:91] Creating Layer inception_4e/5x5_reduce
I0403 14:07:47.299190   858 net.cpp:425] inception_4e/5x5_reduce <- inception_4d/output_inception_4d/output_0_split_3
I0403 14:07:47.299212   858 net.cpp:399] inception_4e/5x5_reduce -> inception_4e/5x5_reduce
I0403 14:07:47.300323   858 net.cpp:141] Setting up inception_4e/5x5_reduce
I0403 14:07:47.300351   858 net.cpp:148] Top shape: 24 32 14 14 (150528)
I0403 14:07:47.300367   858 net.cpp:156] Memory required for data: 1236731424
I0403 14:07:47.300386   858 layer_factory.hpp:77] Creating layer inception_4e/relu_5x5_reduce
I0403 14:07:47.300406   858 net.cpp:91] Creating Layer inception_4e/relu_5x5_reduce
I0403 14:07:47.300423   858 net.cpp:425] inception_4e/relu_5x5_reduce <- inception_4e/5x5_reduce
I0403 14:07:47.300442   858 net.cpp:386] inception_4e/relu_5x5_reduce -> inception_4e/5x5_reduce (in-place)
I0403 14:07:47.300752   858 net.cpp:141] Setting up inception_4e/relu_5x5_reduce
I0403 14:07:47.300779   858 net.cpp:148] Top shape: 24 32 14 14 (150528)
I0403 14:07:47.300796   858 net.cpp:156] Memory required for data: 1237333536
I0403 14:07:47.300811   858 layer_factory.hpp:77] Creating layer inception_4e/5x5
I0403 14:07:47.300851   858 net.cpp:91] Creating Layer inception_4e/5x5
I0403 14:07:47.300870   858 net.cpp:425] inception_4e/5x5 <- inception_4e/5x5_reduce
I0403 14:07:47.300891   858 net.cpp:399] inception_4e/5x5 -> inception_4e/5x5
I0403 14:07:47.302809   858 net.cpp:141] Setting up inception_4e/5x5
I0403 14:07:47.302837   858 net.cpp:148] Top shape: 24 128 14 14 (602112)
I0403 14:07:47.302855   858 net.cpp:156] Memory required for data: 1239741984
I0403 14:07:47.302873   858 layer_factory.hpp:77] Creating layer inception_4e/relu_5x5
I0403 14:07:47.302894   858 net.cpp:91] Creating Layer inception_4e/relu_5x5
I0403 14:07:47.302911   858 net.cpp:425] inception_4e/relu_5x5 <- inception_4e/5x5
I0403 14:07:47.302930   858 net.cpp:386] inception_4e/relu_5x5 -> inception_4e/5x5 (in-place)
I0403 14:07:47.303135   858 net.cpp:141] Setting up inception_4e/relu_5x5
I0403 14:07:47.303164   858 net.cpp:148] Top shape: 24 128 14 14 (602112)
I0403 14:07:47.303189   858 net.cpp:156] Memory required for data: 1242150432
I0403 14:07:47.303207   858 layer_factory.hpp:77] Creating layer inception_4e/pool
I0403 14:07:47.303225   858 net.cpp:91] Creating Layer inception_4e/pool
I0403 14:07:47.303242   858 net.cpp:425] inception_4e/pool <- inception_4d/output_inception_4d/output_0_split_4
I0403 14:07:47.303261   858 net.cpp:399] inception_4e/pool -> inception_4e/pool
I0403 14:07:47.303333   858 net.cpp:141] Setting up inception_4e/pool
I0403 14:07:47.303359   858 net.cpp:148] Top shape: 24 528 14 14 (2483712)
I0403 14:07:47.303372   858 net.cpp:156] Memory required for data: 1252085280
I0403 14:07:47.303388   858 layer_factory.hpp:77] Creating layer inception_4e/pool_proj
I0403 14:07:47.303411   858 net.cpp:91] Creating Layer inception_4e/pool_proj
I0403 14:07:47.303428   858 net.cpp:425] inception_4e/pool_proj <- inception_4e/pool
I0403 14:07:47.303449   858 net.cpp:399] inception_4e/pool_proj -> inception_4e/pool_proj
I0403 14:07:47.305003   858 net.cpp:141] Setting up inception_4e/pool_proj
I0403 14:07:47.305043   858 net.cpp:148] Top shape: 24 128 14 14 (602112)
I0403 14:07:47.305060   858 net.cpp:156] Memory required for data: 1254493728
I0403 14:07:47.305079   858 layer_factory.hpp:77] Creating layer inception_4e/relu_pool_proj
I0403 14:07:47.305099   858 net.cpp:91] Creating Layer inception_4e/relu_pool_proj
I0403 14:07:47.305116   858 net.cpp:425] inception_4e/relu_pool_proj <- inception_4e/pool_proj
I0403 14:07:47.305135   858 net.cpp:386] inception_4e/relu_pool_proj -> inception_4e/pool_proj (in-place)
I0403 14:07:47.305440   858 net.cpp:141] Setting up inception_4e/relu_pool_proj
I0403 14:07:47.305467   858 net.cpp:148] Top shape: 24 128 14 14 (602112)
I0403 14:07:47.305482   858 net.cpp:156] Memory required for data: 1256902176
I0403 14:07:47.305498   858 layer_factory.hpp:77] Creating layer inception_4e/output
I0403 14:07:47.305516   858 net.cpp:91] Creating Layer inception_4e/output
I0403 14:07:47.305532   858 net.cpp:425] inception_4e/output <- inception_4e/1x1
I0403 14:07:47.305549   858 net.cpp:425] inception_4e/output <- inception_4e/3x3
I0403 14:07:47.305567   858 net.cpp:425] inception_4e/output <- inception_4e/5x5
I0403 14:07:47.305583   858 net.cpp:425] inception_4e/output <- inception_4e/pool_proj
I0403 14:07:47.305603   858 net.cpp:399] inception_4e/output -> inception_4e/output
I0403 14:07:47.305655   858 net.cpp:141] Setting up inception_4e/output
I0403 14:07:47.305678   858 net.cpp:148] Top shape: 24 832 14 14 (3913728)
I0403 14:07:47.305693   858 net.cpp:156] Memory required for data: 1272557088
I0403 14:07:47.305708   858 layer_factory.hpp:77] Creating layer pool4/3x3_s2
I0403 14:07:47.305727   858 net.cpp:91] Creating Layer pool4/3x3_s2
I0403 14:07:47.305742   858 net.cpp:425] pool4/3x3_s2 <- inception_4e/output
I0403 14:07:47.305763   858 net.cpp:399] pool4/3x3_s2 -> pool4/3x3_s2
I0403 14:07:47.305833   858 net.cpp:141] Setting up pool4/3x3_s2
I0403 14:07:47.305857   858 net.cpp:148] Top shape: 24 832 7 7 (978432)
I0403 14:07:47.305871   858 net.cpp:156] Memory required for data: 1276470816
I0403 14:07:47.305887   858 layer_factory.hpp:77] Creating layer pool4/3x3_s2_pool4/3x3_s2_0_split
I0403 14:07:47.305907   858 net.cpp:91] Creating Layer pool4/3x3_s2_pool4/3x3_s2_0_split
I0403 14:07:47.305923   858 net.cpp:425] pool4/3x3_s2_pool4/3x3_s2_0_split <- pool4/3x3_s2
I0403 14:07:47.305941   858 net.cpp:399] pool4/3x3_s2_pool4/3x3_s2_0_split -> pool4/3x3_s2_pool4/3x3_s2_0_split_0
I0403 14:07:47.305961   858 net.cpp:399] pool4/3x3_s2_pool4/3x3_s2_0_split -> pool4/3x3_s2_pool4/3x3_s2_0_split_1
I0403 14:07:47.305985   858 net.cpp:399] pool4/3x3_s2_pool4/3x3_s2_0_split -> pool4/3x3_s2_pool4/3x3_s2_0_split_2
I0403 14:07:47.306005   858 net.cpp:399] pool4/3x3_s2_pool4/3x3_s2_0_split -> pool4/3x3_s2_pool4/3x3_s2_0_split_3
I0403 14:07:47.306102   858 net.cpp:141] Setting up pool4/3x3_s2_pool4/3x3_s2_0_split
I0403 14:07:47.306125   858 net.cpp:148] Top shape: 24 832 7 7 (978432)
I0403 14:07:47.306141   858 net.cpp:148] Top shape: 24 832 7 7 (978432)
I0403 14:07:47.306157   858 net.cpp:148] Top shape: 24 832 7 7 (978432)
I0403 14:07:47.306172   858 net.cpp:148] Top shape: 24 832 7 7 (978432)
I0403 14:07:47.306191   858 net.cpp:156] Memory required for data: 1292125728
I0403 14:07:47.306207   858 layer_factory.hpp:77] Creating layer inception_5a/1x1
I0403 14:07:47.306231   858 net.cpp:91] Creating Layer inception_5a/1x1
I0403 14:07:47.306248   858 net.cpp:425] inception_5a/1x1 <- pool4/3x3_s2_pool4/3x3_s2_0_split_0
I0403 14:07:47.306269   858 net.cpp:399] inception_5a/1x1 -> inception_5a/1x1
I0403 14:07:47.309213   858 net.cpp:141] Setting up inception_5a/1x1
I0403 14:07:47.309242   858 net.cpp:148] Top shape: 24 256 7 7 (301056)
I0403 14:07:47.309258   858 net.cpp:156] Memory required for data: 1293329952
I0403 14:07:47.309278   858 layer_factory.hpp:77] Creating layer inception_5a/relu_1x1
I0403 14:07:47.309298   858 net.cpp:91] Creating Layer inception_5a/relu_1x1
I0403 14:07:47.309315   858 net.cpp:425] inception_5a/relu_1x1 <- inception_5a/1x1
I0403 14:07:47.309334   858 net.cpp:386] inception_5a/relu_1x1 -> inception_5a/1x1 (in-place)
I0403 14:07:47.309660   858 net.cpp:141] Setting up inception_5a/relu_1x1
I0403 14:07:47.309686   858 net.cpp:148] Top shape: 24 256 7 7 (301056)
I0403 14:07:47.309702   858 net.cpp:156] Memory required for data: 1294534176
I0403 14:07:47.309717   858 layer_factory.hpp:77] Creating layer inception_5a/3x3_reduce
I0403 14:07:47.309741   858 net.cpp:91] Creating Layer inception_5a/3x3_reduce
I0403 14:07:47.309759   858 net.cpp:425] inception_5a/3x3_reduce <- pool4/3x3_s2_pool4/3x3_s2_0_split_1
I0403 14:07:47.309780   858 net.cpp:399] inception_5a/3x3_reduce -> inception_5a/3x3_reduce
I0403 14:07:47.312440   858 net.cpp:141] Setting up inception_5a/3x3_reduce
I0403 14:07:47.312470   858 net.cpp:148] Top shape: 24 160 7 7 (188160)
I0403 14:07:47.312487   858 net.cpp:156] Memory required for data: 1295286816
I0403 14:07:47.312506   858 layer_factory.hpp:77] Creating layer inception_5a/relu_3x3_reduce
I0403 14:07:47.312525   858 net.cpp:91] Creating Layer inception_5a/relu_3x3_reduce
I0403 14:07:47.312542   858 net.cpp:425] inception_5a/relu_3x3_reduce <- inception_5a/3x3_reduce
I0403 14:07:47.312562   858 net.cpp:386] inception_5a/relu_3x3_reduce -> inception_5a/3x3_reduce (in-place)
I0403 14:07:47.312757   858 net.cpp:141] Setting up inception_5a/relu_3x3_reduce
I0403 14:07:47.312783   858 net.cpp:148] Top shape: 24 160 7 7 (188160)
I0403 14:07:47.312798   858 net.cpp:156] Memory required for data: 1296039456
I0403 14:07:47.312813   858 layer_factory.hpp:77] Creating layer inception_5a/3x3
I0403 14:07:47.312836   858 net.cpp:91] Creating Layer inception_5a/3x3
I0403 14:07:47.312854   858 net.cpp:425] inception_5a/3x3 <- inception_5a/3x3_reduce
I0403 14:07:47.312876   858 net.cpp:399] inception_5a/3x3 -> inception_5a/3x3
I0403 14:07:47.318107   858 net.cpp:141] Setting up inception_5a/3x3
I0403 14:07:47.318140   858 net.cpp:148] Top shape: 24 320 7 7 (376320)
I0403 14:07:47.318156   858 net.cpp:156] Memory required for data: 1297544736
I0403 14:07:47.318174   858 layer_factory.hpp:77] Creating layer inception_5a/relu_3x3
I0403 14:07:47.318200   858 net.cpp:91] Creating Layer inception_5a/relu_3x3
I0403 14:07:47.318218   858 net.cpp:425] inception_5a/relu_3x3 <- inception_5a/3x3
I0403 14:07:47.318236   858 net.cpp:386] inception_5a/relu_3x3 -> inception_5a/3x3 (in-place)
I0403 14:07:47.318542   858 net.cpp:141] Setting up inception_5a/relu_3x3
I0403 14:07:47.318568   858 net.cpp:148] Top shape: 24 320 7 7 (376320)
I0403 14:07:47.318583   858 net.cpp:156] Memory required for data: 1299050016
I0403 14:07:47.318598   858 layer_factory.hpp:77] Creating layer inception_5a/5x5_reduce
I0403 14:07:47.318621   858 net.cpp:91] Creating Layer inception_5a/5x5_reduce
I0403 14:07:47.318640   858 net.cpp:425] inception_5a/5x5_reduce <- pool4/3x3_s2_pool4/3x3_s2_0_split_2
I0403 14:07:47.318663   858 net.cpp:399] inception_5a/5x5_reduce -> inception_5a/5x5_reduce
I0403 14:07:47.319880   858 net.cpp:141] Setting up inception_5a/5x5_reduce
I0403 14:07:47.319911   858 net.cpp:148] Top shape: 24 32 7 7 (37632)
I0403 14:07:47.319929   858 net.cpp:156] Memory required for data: 1299200544
I0403 14:07:47.319948   858 layer_factory.hpp:77] Creating layer inception_5a/relu_5x5_reduce
I0403 14:07:47.319967   858 net.cpp:91] Creating Layer inception_5a/relu_5x5_reduce
I0403 14:07:47.319984   858 net.cpp:425] inception_5a/relu_5x5_reduce <- inception_5a/5x5_reduce
I0403 14:07:47.320003   858 net.cpp:386] inception_5a/relu_5x5_reduce -> inception_5a/5x5_reduce (in-place)
I0403 14:07:47.320322   858 net.cpp:141] Setting up inception_5a/relu_5x5_reduce
I0403 14:07:47.320350   858 net.cpp:148] Top shape: 24 32 7 7 (37632)
I0403 14:07:47.320366   858 net.cpp:156] Memory required for data: 1299351072
I0403 14:07:47.320382   858 layer_factory.hpp:77] Creating layer inception_5a/5x5
I0403 14:07:47.320405   858 net.cpp:91] Creating Layer inception_5a/5x5
I0403 14:07:47.320422   858 net.cpp:425] inception_5a/5x5 <- inception_5a/5x5_reduce
I0403 14:07:47.320443   858 net.cpp:399] inception_5a/5x5 -> inception_5a/5x5
I0403 14:07:47.322268   858 net.cpp:141] Setting up inception_5a/5x5
I0403 14:07:47.322307   858 net.cpp:148] Top shape: 24 128 7 7 (150528)
I0403 14:07:47.322324   858 net.cpp:156] Memory required for data: 1299953184
I0403 14:07:47.322343   858 layer_factory.hpp:77] Creating layer inception_5a/relu_5x5
I0403 14:07:47.322365   858 net.cpp:91] Creating Layer inception_5a/relu_5x5
I0403 14:07:47.322381   858 net.cpp:425] inception_5a/relu_5x5 <- inception_5a/5x5
I0403 14:07:47.322399   858 net.cpp:386] inception_5a/relu_5x5 -> inception_5a/5x5 (in-place)
I0403 14:07:47.322597   858 net.cpp:141] Setting up inception_5a/relu_5x5
I0403 14:07:47.322623   858 net.cpp:148] Top shape: 24 128 7 7 (150528)
I0403 14:07:47.322639   858 net.cpp:156] Memory required for data: 1300555296
I0403 14:07:47.322655   858 layer_factory.hpp:77] Creating layer inception_5a/pool
I0403 14:07:47.322674   858 net.cpp:91] Creating Layer inception_5a/pool
I0403 14:07:47.322690   858 net.cpp:425] inception_5a/pool <- pool4/3x3_s2_pool4/3x3_s2_0_split_3
I0403 14:07:47.322707   858 net.cpp:399] inception_5a/pool -> inception_5a/pool
I0403 14:07:47.322787   858 net.cpp:141] Setting up inception_5a/pool
I0403 14:07:47.322810   858 net.cpp:148] Top shape: 24 832 7 7 (978432)
I0403 14:07:47.322824   858 net.cpp:156] Memory required for data: 1304469024
I0403 14:07:47.322840   858 layer_factory.hpp:77] Creating layer inception_5a/pool_proj
I0403 14:07:47.322862   858 net.cpp:91] Creating Layer inception_5a/pool_proj
I0403 14:07:47.322880   858 net.cpp:425] inception_5a/pool_proj <- inception_5a/pool
I0403 14:07:47.322901   858 net.cpp:399] inception_5a/pool_proj -> inception_5a/pool_proj
I0403 14:07:47.325284   858 net.cpp:141] Setting up inception_5a/pool_proj
I0403 14:07:47.325314   858 net.cpp:148] Top shape: 24 128 7 7 (150528)
I0403 14:07:47.325331   858 net.cpp:156] Memory required for data: 1305071136
I0403 14:07:47.325350   858 layer_factory.hpp:77] Creating layer inception_5a/relu_pool_proj
I0403 14:07:47.325371   858 net.cpp:91] Creating Layer inception_5a/relu_pool_proj
I0403 14:07:47.325389   858 net.cpp:425] inception_5a/relu_pool_proj <- inception_5a/pool_proj
I0403 14:07:47.325407   858 net.cpp:386] inception_5a/relu_pool_proj -> inception_5a/pool_proj (in-place)
I0403 14:07:47.325747   858 net.cpp:141] Setting up inception_5a/relu_pool_proj
I0403 14:07:47.325778   858 net.cpp:148] Top shape: 24 128 7 7 (150528)
I0403 14:07:47.325793   858 net.cpp:156] Memory required for data: 1305673248
I0403 14:07:47.325809   858 layer_factory.hpp:77] Creating layer inception_5a/output
I0403 14:07:47.325839   858 net.cpp:91] Creating Layer inception_5a/output
I0403 14:07:47.325858   858 net.cpp:425] inception_5a/output <- inception_5a/1x1
I0403 14:07:47.325875   858 net.cpp:425] inception_5a/output <- inception_5a/3x3
I0403 14:07:47.325892   858 net.cpp:425] inception_5a/output <- inception_5a/5x5
I0403 14:07:47.325908   858 net.cpp:425] inception_5a/output <- inception_5a/pool_proj
I0403 14:07:47.325925   858 net.cpp:399] inception_5a/output -> inception_5a/output
I0403 14:07:47.325976   858 net.cpp:141] Setting up inception_5a/output
I0403 14:07:47.326002   858 net.cpp:148] Top shape: 24 832 7 7 (978432)
I0403 14:07:47.326019   858 net.cpp:156] Memory required for data: 1309586976
I0403 14:07:47.326033   858 layer_factory.hpp:77] Creating layer inception_5a/output_inception_5a/output_0_split
I0403 14:07:47.326051   858 net.cpp:91] Creating Layer inception_5a/output_inception_5a/output_0_split
I0403 14:07:47.326066   858 net.cpp:425] inception_5a/output_inception_5a/output_0_split <- inception_5a/output
I0403 14:07:47.326087   858 net.cpp:399] inception_5a/output_inception_5a/output_0_split -> inception_5a/output_inception_5a/output_0_split_0
I0403 14:07:47.326109   858 net.cpp:399] inception_5a/output_inception_5a/output_0_split -> inception_5a/output_inception_5a/output_0_split_1
I0403 14:07:47.326130   858 net.cpp:399] inception_5a/output_inception_5a/output_0_split -> inception_5a/output_inception_5a/output_0_split_2
I0403 14:07:47.326153   858 net.cpp:399] inception_5a/output_inception_5a/output_0_split -> inception_5a/output_inception_5a/output_0_split_3
I0403 14:07:47.326273   858 net.cpp:141] Setting up inception_5a/output_inception_5a/output_0_split
I0403 14:07:47.326300   858 net.cpp:148] Top shape: 24 832 7 7 (978432)
I0403 14:07:47.326318   858 net.cpp:148] Top shape: 24 832 7 7 (978432)
I0403 14:07:47.326335   858 net.cpp:148] Top shape: 24 832 7 7 (978432)
I0403 14:07:47.326350   858 net.cpp:148] Top shape: 24 832 7 7 (978432)
I0403 14:07:47.326364   858 net.cpp:156] Memory required for data: 1325241888
I0403 14:07:47.326380   858 layer_factory.hpp:77] Creating layer inception_5b/1x1
I0403 14:07:47.326402   858 net.cpp:91] Creating Layer inception_5b/1x1
I0403 14:07:47.326421   858 net.cpp:425] inception_5b/1x1 <- inception_5a/output_inception_5a/output_0_split_0
I0403 14:07:47.326442   858 net.cpp:399] inception_5b/1x1 -> inception_5b/1x1
I0403 14:07:47.330355   858 net.cpp:141] Setting up inception_5b/1x1
I0403 14:07:47.330385   858 net.cpp:148] Top shape: 24 384 7 7 (451584)
I0403 14:07:47.330402   858 net.cpp:156] Memory required for data: 1327048224
I0403 14:07:47.330421   858 layer_factory.hpp:77] Creating layer inception_5b/relu_1x1
I0403 14:07:47.330441   858 net.cpp:91] Creating Layer inception_5b/relu_1x1
I0403 14:07:47.330458   858 net.cpp:425] inception_5b/relu_1x1 <- inception_5b/1x1
I0403 14:07:47.330478   858 net.cpp:386] inception_5b/relu_1x1 -> inception_5b/1x1 (in-place)
I0403 14:07:47.330796   858 net.cpp:141] Setting up inception_5b/relu_1x1
I0403 14:07:47.330821   858 net.cpp:148] Top shape: 24 384 7 7 (451584)
I0403 14:07:47.330837   858 net.cpp:156] Memory required for data: 1328854560
I0403 14:07:47.330852   858 layer_factory.hpp:77] Creating layer inception_5b/3x3_reduce
I0403 14:07:47.330875   858 net.cpp:91] Creating Layer inception_5b/3x3_reduce
I0403 14:07:47.330894   858 net.cpp:425] inception_5b/3x3_reduce <- inception_5a/output_inception_5a/output_0_split_1
I0403 14:07:47.330917   858 net.cpp:399] inception_5b/3x3_reduce -> inception_5b/3x3_reduce
I0403 14:07:47.333676   858 net.cpp:141] Setting up inception_5b/3x3_reduce
I0403 14:07:47.333706   858 net.cpp:148] Top shape: 24 192 7 7 (225792)
I0403 14:07:47.333724   858 net.cpp:156] Memory required for data: 1329757728
I0403 14:07:47.333742   858 layer_factory.hpp:77] Creating layer inception_5b/relu_3x3_reduce
I0403 14:07:47.333763   858 net.cpp:91] Creating Layer inception_5b/relu_3x3_reduce
I0403 14:07:47.333781   858 net.cpp:425] inception_5b/relu_3x3_reduce <- inception_5b/3x3_reduce
I0403 14:07:47.333798   858 net.cpp:386] inception_5b/relu_3x3_reduce -> inception_5b/3x3_reduce (in-place)
I0403 14:07:47.333995   858 net.cpp:141] Setting up inception_5b/relu_3x3_reduce
I0403 14:07:47.334020   858 net.cpp:148] Top shape: 24 192 7 7 (225792)
I0403 14:07:47.334035   858 net.cpp:156] Memory required for data: 1330660896
I0403 14:07:47.334050   858 layer_factory.hpp:77] Creating layer inception_5b/3x3
I0403 14:07:47.334075   858 net.cpp:91] Creating Layer inception_5b/3x3
I0403 14:07:47.334094   858 net.cpp:425] inception_5b/3x3 <- inception_5b/3x3_reduce
I0403 14:07:47.334112   858 net.cpp:399] inception_5b/3x3 -> inception_5b/3x3
I0403 14:07:47.341305   858 net.cpp:141] Setting up inception_5b/3x3
I0403 14:07:47.341337   858 net.cpp:148] Top shape: 24 384 7 7 (451584)
I0403 14:07:47.341354   858 net.cpp:156] Memory required for data: 1332467232
I0403 14:07:47.341373   858 layer_factory.hpp:77] Creating layer inception_5b/relu_3x3
I0403 14:07:47.341395   858 net.cpp:91] Creating Layer inception_5b/relu_3x3
I0403 14:07:47.341414   858 net.cpp:425] inception_5b/relu_3x3 <- inception_5b/3x3
I0403 14:07:47.341433   858 net.cpp:386] inception_5b/relu_3x3 -> inception_5b/3x3 (in-place)
I0403 14:07:47.341755   858 net.cpp:141] Setting up inception_5b/relu_3x3
I0403 14:07:47.341784   858 net.cpp:148] Top shape: 24 384 7 7 (451584)
I0403 14:07:47.341799   858 net.cpp:156] Memory required for data: 1334273568
I0403 14:07:47.341815   858 layer_factory.hpp:77] Creating layer inception_5b/5x5_reduce
I0403 14:07:47.341855   858 net.cpp:91] Creating Layer inception_5b/5x5_reduce
I0403 14:07:47.341874   858 net.cpp:425] inception_5b/5x5_reduce <- inception_5a/output_inception_5a/output_0_split_2
I0403 14:07:47.341897   858 net.cpp:399] inception_5b/5x5_reduce -> inception_5b/5x5_reduce
I0403 14:07:47.343283   858 net.cpp:141] Setting up inception_5b/5x5_reduce
I0403 14:07:47.343312   858 net.cpp:148] Top shape: 24 48 7 7 (56448)
I0403 14:07:47.343329   858 net.cpp:156] Memory required for data: 1334499360
I0403 14:07:47.343349   858 layer_factory.hpp:77] Creating layer inception_5b/relu_5x5_reduce
I0403 14:07:47.343370   858 net.cpp:91] Creating Layer inception_5b/relu_5x5_reduce
I0403 14:07:47.343389   858 net.cpp:425] inception_5b/relu_5x5_reduce <- inception_5b/5x5_reduce
I0403 14:07:47.343406   858 net.cpp:386] inception_5b/relu_5x5_reduce -> inception_5b/5x5_reduce (in-place)
I0403 14:07:47.343803   858 net.cpp:141] Setting up inception_5b/relu_5x5_reduce
I0403 14:07:47.343832   858 net.cpp:148] Top shape: 24 48 7 7 (56448)
I0403 14:07:47.343847   858 net.cpp:156] Memory required for data: 1334725152
I0403 14:07:47.343864   858 layer_factory.hpp:77] Creating layer inception_5b/5x5
I0403 14:07:47.343885   858 net.cpp:91] Creating Layer inception_5b/5x5
I0403 14:07:47.343904   858 net.cpp:425] inception_5b/5x5 <- inception_5b/5x5_reduce
I0403 14:07:47.343924   858 net.cpp:399] inception_5b/5x5 -> inception_5b/5x5
I0403 14:07:47.346123   858 net.cpp:141] Setting up inception_5b/5x5
I0403 14:07:47.346153   858 net.cpp:148] Top shape: 24 128 7 7 (150528)
I0403 14:07:47.346169   858 net.cpp:156] Memory required for data: 1335327264
I0403 14:07:47.346194   858 layer_factory.hpp:77] Creating layer inception_5b/relu_5x5
I0403 14:07:47.346216   858 net.cpp:91] Creating Layer inception_5b/relu_5x5
I0403 14:07:47.346235   858 net.cpp:425] inception_5b/relu_5x5 <- inception_5b/5x5
I0403 14:07:47.346252   858 net.cpp:386] inception_5b/relu_5x5 -> inception_5b/5x5 (in-place)
I0403 14:07:47.346462   858 net.cpp:141] Setting up inception_5b/relu_5x5
I0403 14:07:47.346492   858 net.cpp:148] Top shape: 24 128 7 7 (150528)
I0403 14:07:47.346508   858 net.cpp:156] Memory required for data: 1335929376
I0403 14:07:47.346524   858 layer_factory.hpp:77] Creating layer inception_5b/pool
I0403 14:07:47.346542   858 net.cpp:91] Creating Layer inception_5b/pool
I0403 14:07:47.346560   858 net.cpp:425] inception_5b/pool <- inception_5a/output_inception_5a/output_0_split_3
I0403 14:07:47.346581   858 net.cpp:399] inception_5b/pool -> inception_5b/pool
I0403 14:07:47.346657   858 net.cpp:141] Setting up inception_5b/pool
I0403 14:07:47.346683   858 net.cpp:148] Top shape: 24 832 7 7 (978432)
I0403 14:07:47.346698   858 net.cpp:156] Memory required for data: 1339843104
I0403 14:07:47.346712   858 layer_factory.hpp:77] Creating layer inception_5b/pool_proj
I0403 14:07:47.346735   858 net.cpp:91] Creating Layer inception_5b/pool_proj
I0403 14:07:47.346753   858 net.cpp:425] inception_5b/pool_proj <- inception_5b/pool
I0403 14:07:47.346776   858 net.cpp:399] inception_5b/pool_proj -> inception_5b/pool_proj
I0403 14:07:47.349231   858 net.cpp:141] Setting up inception_5b/pool_proj
I0403 14:07:47.349264   858 net.cpp:148] Top shape: 24 128 7 7 (150528)
I0403 14:07:47.349282   858 net.cpp:156] Memory required for data: 1340445216
I0403 14:07:47.349300   858 layer_factory.hpp:77] Creating layer inception_5b/relu_pool_proj
I0403 14:07:47.349323   858 net.cpp:91] Creating Layer inception_5b/relu_pool_proj
I0403 14:07:47.349340   858 net.cpp:425] inception_5b/relu_pool_proj <- inception_5b/pool_proj
I0403 14:07:47.349359   858 net.cpp:386] inception_5b/relu_pool_proj -> inception_5b/pool_proj (in-place)
I0403 14:07:47.349683   858 net.cpp:141] Setting up inception_5b/relu_pool_proj
I0403 14:07:47.349710   858 net.cpp:148] Top shape: 24 128 7 7 (150528)
I0403 14:07:47.349726   858 net.cpp:156] Memory required for data: 1341047328
I0403 14:07:47.349742   858 layer_factory.hpp:77] Creating layer inception_5b/output
I0403 14:07:47.349761   858 net.cpp:91] Creating Layer inception_5b/output
I0403 14:07:47.349793   858 net.cpp:425] inception_5b/output <- inception_5b/1x1
I0403 14:07:47.349812   858 net.cpp:425] inception_5b/output <- inception_5b/3x3
I0403 14:07:47.349829   858 net.cpp:425] inception_5b/output <- inception_5b/5x5
I0403 14:07:47.349845   858 net.cpp:425] inception_5b/output <- inception_5b/pool_proj
I0403 14:07:47.349866   858 net.cpp:399] inception_5b/output -> inception_5b/output
I0403 14:07:47.349923   858 net.cpp:141] Setting up inception_5b/output
I0403 14:07:47.349949   858 net.cpp:148] Top shape: 24 1024 7 7 (1204224)
I0403 14:07:47.349966   858 net.cpp:156] Memory required for data: 1345864224
I0403 14:07:47.349982   858 layer_factory.hpp:77] Creating layer pool5/7x7_s1
I0403 14:07:47.349999   858 net.cpp:91] Creating Layer pool5/7x7_s1
I0403 14:07:47.350015   858 net.cpp:425] pool5/7x7_s1 <- inception_5b/output
I0403 14:07:47.350038   858 net.cpp:399] pool5/7x7_s1 -> pool5/7x7_s1
I0403 14:07:47.350275   858 net.cpp:141] Setting up pool5/7x7_s1
I0403 14:07:47.350302   858 net.cpp:148] Top shape: 24 1024 1 1 (24576)
I0403 14:07:47.350318   858 net.cpp:156] Memory required for data: 1345962528
I0403 14:07:47.350333   858 layer_factory.hpp:77] Creating layer pool5/drop_7x7_s1
I0403 14:07:47.350354   858 net.cpp:91] Creating Layer pool5/drop_7x7_s1
I0403 14:07:47.350373   858 net.cpp:425] pool5/drop_7x7_s1 <- pool5/7x7_s1
I0403 14:07:47.350390   858 net.cpp:386] pool5/drop_7x7_s1 -> pool5/7x7_s1 (in-place)
I0403 14:07:47.350445   858 net.cpp:141] Setting up pool5/drop_7x7_s1
I0403 14:07:47.350471   858 net.cpp:148] Top shape: 24 1024 1 1 (24576)
I0403 14:07:47.350486   858 net.cpp:156] Memory required for data: 1346060832
I0403 14:07:47.350500   858 layer_factory.hpp:77] Creating layer loss3/classifier_plantvillage
I0403 14:07:47.350520   858 net.cpp:91] Creating Layer loss3/classifier_plantvillage
I0403 14:07:47.350538   858 net.cpp:425] loss3/classifier_plantvillage <- pool5/7x7_s1
I0403 14:07:47.350558   858 net.cpp:399] loss3/classifier_plantvillage -> loss3/classifier_plantvillage
I0403 14:07:47.351016   858 net.cpp:141] Setting up loss3/classifier_plantvillage
I0403 14:07:47.351042   858 net.cpp:148] Top shape: 24 38 (912)
I0403 14:07:47.351058   858 net.cpp:156] Memory required for data: 1346064480
I0403 14:07:47.351076   858 layer_factory.hpp:77] Creating layer loss3/classifier_plantvillage_loss3/classifier_plantvillage_0_split
I0403 14:07:47.351094   858 net.cpp:91] Creating Layer loss3/classifier_plantvillage_loss3/classifier_plantvillage_0_split
I0403 14:07:47.351112   858 net.cpp:425] loss3/classifier_plantvillage_loss3/classifier_plantvillage_0_split <- loss3/classifier_plantvillage
I0403 14:07:47.351133   858 net.cpp:399] loss3/classifier_plantvillage_loss3/classifier_plantvillage_0_split -> loss3/classifier_plantvillage_loss3/classifier_plantvillage_0_split_0
I0403 14:07:47.351155   858 net.cpp:399] loss3/classifier_plantvillage_loss3/classifier_plantvillage_0_split -> loss3/classifier_plantvillage_loss3/classifier_plantvillage_0_split_1
I0403 14:07:47.351181   858 net.cpp:399] loss3/classifier_plantvillage_loss3/classifier_plantvillage_0_split -> loss3/classifier_plantvillage_loss3/classifier_plantvillage_0_split_2
I0403 14:07:47.351204   858 net.cpp:399] loss3/classifier_plantvillage_loss3/classifier_plantvillage_0_split -> loss3/classifier_plantvillage_loss3/classifier_plantvillage_0_split_3
I0403 14:07:47.351312   858 net.cpp:141] Setting up loss3/classifier_plantvillage_loss3/classifier_plantvillage_0_split
I0403 14:07:47.351336   858 net.cpp:148] Top shape: 24 38 (912)
I0403 14:07:47.351353   858 net.cpp:148] Top shape: 24 38 (912)
I0403 14:07:47.351369   858 net.cpp:148] Top shape: 24 38 (912)
I0403 14:07:47.351385   858 net.cpp:148] Top shape: 24 38 (912)
I0403 14:07:47.351399   858 net.cpp:156] Memory required for data: 1346079072
I0403 14:07:47.351415   858 layer_factory.hpp:77] Creating layer loss1/loss
I0403 14:07:47.351439   858 net.cpp:91] Creating Layer loss1/loss
I0403 14:07:47.351457   858 net.cpp:425] loss1/loss <- loss1/classifier_plantvillage_loss1/classifier_plantvillage_0_split_0
I0403 14:07:47.351490   858 net.cpp:425] loss1/loss <- label_data_1_split_0
…
