…
I0403 13:59:28.505221   603 net.cpp:313] The NetState phase (1) differed from the phase (0) specified by a rule in layer data
I0403 13:59:28.506454   603 net.cpp:49] Initializing net from parameters: 
state {
  phase: TEST
}
layer {
  name: "data"
  type: "Data"
  top: "data"
  top: "label"
  include {
    phase: TEST
  }
  transform_param {
    mirror: false
    crop_size: 224
    mean_file: "/home/mohanty/data/final_dataset/lmdb/grayscale-20-80/mean.binaryproto"
  }
  data_param {
    source: "/home/mohanty/data/final_dataset/lmdb/grayscale-20-80/test_db"
    batch_size: 24
    backend: LMDB
  }
}
layer {
  name: "conv1/7x7_s2"
  type: "Convolution"
  bottom: "data"
  top: "conv1/7x7_s2"
  param {
    lr_mult: 1
    decay_mult: 1
  }
  param {
    lr_mult: 2
    decay_mult: 0
  }
  convolution_param {
    num_output: 64
    pad: 3
    kernel_size: 7
    stride: 2
    weight_filler {
      type: "xavier"
      std: 0.1
    }
    bias_filler {
      type: "constant"
      value: 0.2
    }
  }
}
layer {
  name: "conv1/relu_7x7"
  type: "ReLU"
  bottom: "conv1/7x7_s2"
  top: "conv1/7x7_s2"
}
layer {
  name: "pool1/3x3_s2"
  type: "Pooling"
  bottom: "conv1/7x7_s2"
  top: "pool1/3x3_s2"
  pooling_param {
    pool: MAX
    kernel_size: 3
    stride: 2
  }
}
layer {
  name: "pool1/norm1"
  type: "LRN"
  bottom: "pool1/3x3_s2"
  top: "pool1/norm1"
  lrn_param {
    local_size: 5
    alpha: 0.0001
    beta: 0.75
  }
}
layer {
  name: "conv2/3x3_reduce"
  type: "Convolution"
  bottom: "pool1/norm1"
  top: "conv2/3x3_reduce"
  param {
    lr_mult: 1
    decay_mult: 1
  }
  param {
    lr_mult: 2
    decay_mult: 0
  }
  convolution_param {
    num_output: 64
    kernel_size: 1
    weight_filler {
      type: "xavier"
      std: 0.1
    }
    bias_filler {
      type: "constant"
      value: 0.2
    }
  }
}
layer {
  name: "conv2/relu_3x3_reduce"
  type: "ReLU"
  bottom: "conv2/3x3_reduce"
  top: "conv2/3x3_reduce"
}
layer {
  name: "conv2/3x3"
  type: "Convolution"
  bottom: "conv2/3x3_reduce"
  top: "conv2/3x3"
  param {
    lr_mult: 1
    decay_mult: 1
  }
  param {
    lr_mult: 2
    decay_mult: 0
  }
  convolution_param {
    num_output: 192
    pad: 1
    kernel_size: 3
    weight_filler {
      type: "xavier"
      std: 0.03
    }
    bias_filler {
      type: "constant"
      value: 0.2
    }
  }
}
layer {
  name: "conv2/relu_3x3"
  type: "ReLU"
  bottom: "conv2/3x3"
  top: "conv2/3x3"
}
layer {
  name: "conv2/norm2"
  type: "LRN"
  bottom: "conv2/3x3"
  top: "conv2/norm2"
  lrn_param {
    local_size: 5
    alpha: 0.0001
    beta: 0.75
  }
}
layer {
  name: "pool2/3x3_s2"
  type: "Pooling"
  bottom: "conv2/norm2"
  top: "pool2/3x3_s2"
  pooling_param {
    pool: MAX
    kernel_size: 3
    stride: 2
  }
}
layer {
  name: "inception_3a/1x1"
  type: "Convolution"
  bottom: "pool2/3x3_s2"
  top: "inception_3a/1x1"
  param {
    lr_mult: 1
    decay_mult: 1
  }
  param {
    lr_mult: 2
    decay_mult: 0
  }
  convolution_param {
    num_output: 64
    kernel_size: 1
    weight_filler {
      type: "xavier"
      std: 0.03
    }
    bias_filler {
      type: "constant"
      value: 0.2
    }
  }
}
layer {
  name: "inception_3a/relu_1x1"
  type: "ReLU"
  bottom: "inception_3a/1x1"
  top: "inception_3a/1x1"
}
layer {
  name: "inception_3a/3x3_reduce"
  type: "Convolution"
  bottom: "pool2/3x3_s2"
  top: "inception_3a/3x3_reduce"
  param {
    lr_mult: 1
    decay_mult: 1
  }
  param {
    lr_mult: 2
    decay_mult: 0
  }
  convolution_param {
    num_output: 96
    kernel_size: 1
    weight_filler {
      type: "xavier"
      std: 0.09
    }
    bias_filler {
      type: "constant"
      value: 0.2
    }
  }
}
layer {
  name: "inception_3a/relu_3x3_reduce"
  type: "ReLU"
  bottom: "inception_3a/3x3_reduce"
  top: "inception_3a/3x3_reduce"
}
layer {
  name: "inception_3a/3x3"
  type: "Convolution"
  bottom: "inception_3a/3x3_reduce"
  top: "inception_3a/3x3"
  param {
    lr_mult: 1
    decay_mult: 1
  }
  param {
    lr_mult: 2
    decay_mult: 0
  }
  convolution_param {
    num_output: 128
    pad: 1
    kernel_size: 3
    weight_filler {
      type: "xavier"
      std: 0.03
    }
    bias_filler {
      type: "constant"
      value: 0.2
    }
  }
}
layer {
  name: "inception_3a/relu_3x3"
  type: "ReLU"
  bottom: "inception_3a/3x3"
  top: "inception_3a/3x3"
}
layer {
  name: "inception_3a/5x5_reduce"
  type: "Convolution"
  bottom: "pool2/3x3_s2"
  top: "inception_3a/5x5_reduce"
  param {
    lr_mult: 1
    decay_mult: 1
  }
  param {
    lr_mult: 2
    decay_mult: 0
  }
  convolution_param {
    num_output: 16
    kernel_size: 1
    weight_filler {
      type: "xavier"
      std: 0.2
    }
    bias_filler {
      type: "constant"
      value: 0.2
    }
  }
}
layer {
  name: "inception_3a/relu_5x5_reduce"
  type: "ReLU"
  bottom: "inception_3a/5x5_reduce"
  top: "inception_3a/5x5_reduce"
}
layer {
  name: "inception_3a/5x5"
  type: "Convolution"
  bottom: "inception_3a/5x5_reduce"
  top: "inception_3a/5x5"
  param {
    lr_mult: 1
    decay_mult: 1
  }
  param {
    lr_mult: 2
    decay_mult: 0
  }
  convolution_param {
    num_output: 32
    pad: 2
    kernel_size: 5
    weight_filler {
      type: "xavier"
      std: 0.03
    }
    bias_filler {
      type: "constant"
      value: 0.2
    }
  }
}
layer {
  name: "inception_3a/relu_5x5"
  type: "ReLU"
  bottom: "inception_3a/5x5"
  top: "inception_3a/5x5"
}
layer {
  name: "inception_3a/pool"
  type: "Pooling"
  bottom: "pool2/3x3_s2"
  top: "inception_3a/pool"
  pooling_param {
    pool: MAX
    kernel_size: 3
    stride: 1
    pad: 1
  }
}
layer {
  name: "inception_3a/pool_proj"
  type: "Convolution"
  bottom: "inception_3a/pool"
  top: "inception_3a/pool_proj"
  param {
    lr_mult: 1
    decay_mult: 1
  }
  param {
    lr_mult: 2
    decay_mult: 0
  }
  convolution_param {
    num_output: 32
    kernel_size: 1
    weight_filler {
      type: "xavier"
      std: 0.1
    }
    bias_filler {
      type: "constant"
      value: 0.2
    }
  }
}
layer {
  name: "inception_3a/relu_pool_proj"
  type: "ReLU"
  bottom: "inception_3a/pool_proj"
  top: "inception_3a/pool_proj"
}
layer {
  name: "inception_3a/output"
  type: "Concat"
  bottom: "inception_3a/1x1"
  bottom: "inception_3a/3x3"
  bottom: "inception_3a/5x5"
  bottom: "inception_3a/pool_proj"
  top: "inception_3a/output"
}
layer {
  name: "inception_3b/1x1"
  type: "Convolution"
  bottom: "inception_3a/output"
  top: "inception_3b/1x1"
  param {
    lr_mult: 1
    decay_mult: 1
  }
  param {
    lr_mult: 2
    decay_mult: 0
  }
  convolution_param {
    num_output: 128
    kernel_size: 1
    weight_filler {
      type: "xavier"
      std: 0.03
    }
    bias_filler {
      type: "constant"
      value: 0.2
    }
  }
}
layer {
  name: "inception_3b/relu_1x1"
  type: "ReLU"
  bottom: "inception_3b/1x1"
  top: "inception_3b/1x1"
}
layer {
  name: "inception_3b/3x3_reduce"
  type: "Convolution"
  bottom: "inception_3a/output"
  top: "inception_3b/3x3_reduce"
  param {
    lr_mult: 1
    decay_mult: 1
  }
  param {
    lr_mult: 2
    decay_mult: 0
  }
  convolution_param {
    num_output: 128
    kernel_size: 1
    weight_filler {
      type: "xavier"
      std: 0.09
    }
    bias_filler {
      type: "constant"
      value: 0.2
    }
  }
}
layer {
  name: "inception_3b/relu_3x3_reduce"
  type: "ReLU"
  bottom: "inception_3b/3x3_reduce"
  top: "inception_3b/3x3_reduce"
}
layer {
  name: "inception_3b/3x3"
  type: "Convolution"
  bottom: "inception_3b/3x3_reduce"
  top: "inception_3b/3x3"
  param {
    lr_mult: 1
    decay_mult: 1
  }
  param {
    lr_mult: 2
    decay_mult: 0
  }
  convolution_param {
    num_output: 192
    pad: 1
    kernel_size: 3
    weight_filler {
      type: "xavier"
      std: 0.03
    }
    bias_filler {
      type: "constant"
      value: 0.2
    }
  }
}
layer {
  name: "inception_3b/relu_3x3"
  type: "ReLU"
  bottom: "inception_3b/3x3"
  top: "inception_3b/3x3"
}
layer {
  name: "inception_3b/5x5_reduce"
  type: "Convolution"
  bottom: "inception_3a/output"
  top: "inception_3b/5x5_reduce"
  param {
    lr_mult: 1
    decay_mult: 1
  }
  param {
    lr_mult: 2
    decay_mult: 0
  }
  convolution_param {
    num_output: 32
    kernel_size: 1
    weight_filler {
      type: "xavier"
      std: 0.2
    }
    bias_filler {
      type: "constant"
      value: 0.2
    }
  }
}
layer {
  name: "inception_3b/relu_5x5_reduce"
  type: "ReLU"
  bottom: "inception_3b/5x5_reduce"
  top: "inception_3b/5x5_reduce"
}
layer {
  name: "inception_3b/5x5"
  type: "Convolution"
  bottom: "inception_3b/5x5_reduce"
  top: "inception_3b/5x5"
  param {
    lr_mult: 1
    decay_mult: 1
  }
  param {
    lr_mult: 2
    decay_mult: 0
  }
  convolution_param {
    num_output: 96
    pad: 2
    kernel_size: 5
    weight_filler {
      type: "xavier"
      std: 0.03
    }
    bias_filler {
      type: "constant"
      value: 0.2
    }
  }
}
layer {
  name: "inception_3b/relu_5x5"
  type: "ReLU"
  bottom: "inception_3b/5x5"
  top: "inception_3b/5x5"
}
layer {
  name: "inception_3b/pool"
  type: "Pooling"
  bottom: "inception_3a/output"
  top: "inception_3b/pool"
  pooling_param {
    pool: MAX
    kernel_size: 3
    stride: 1
    pad: 1
  }
}
layer {
  name: "inception_3b/pool_proj"
  type: "Convolution"
  bottom: "inception_3b/pool"
  top: "inception_3b/pool_proj"
  param {
    lr_mult: 1
    decay_mult: 1
  }
  param {
    lr_mult: 2
    decay_mult: 0
  }
  convolution_param {
    num_output: 64
    kernel_size: 1
    weight_filler {
      type: "xavier"
      std: 0.1
    }
    bias_filler {
      type: "constant"
      value: 0.2
    }
  }
}
layer {
  name: "inception_3b/relu_pool_proj"
  type: "ReLU"
  bottom: "inception_3b/pool_proj"
  top: "inception_3b/pool_proj"
}
layer {
  name: "inception_3b/output"
  type: "Concat"
  bottom: "inception_3b/1x1"
  bottom: "inception_3b/3x3"
  bottom: "inception_3b/5x5"
  bottom: "inception_3b/pool_proj"
  top: "inception_3b/output"
}
layer {
  name: "pool3/3x3_s2"
  type: "Pooling"
  bottom: "inception_3b/output"
  top: "pool3/3x3_s2"
  pooling_param {
    pool: MAX
    kernel_size: 3
    stride: 2
  }
}
layer {
  name: "inception_4a/1x1"
  type: "Convolution"
  bottom: "pool3/3x3_s2"
  top: "inception_4a/1x1"
  param {
    lr_mult: 1
    decay_mult: 1
  }
  param {
    lr_mult: 2
    decay_mult: 0
  }
  convolution_param {
    num_output: 192
    kernel_size: 1
    weight_filler {
      type: "xavier"
      std: 0.03
    }
    bias_filler {
      type: "constant"
      value: 0.2
    }
  }
}
layer {
  name: "inception_4a/relu_1x1"
  type: "ReLU"
  bottom: "inception_4a/1x1"
  top: "inception_4a/1x1"
}
layer {
  name: "inception_4a/3x3_reduce"
  type: "Convolution"
  bottom: "pool3/3x3_s2"
  top: "inception_4a/3x3_reduce"
  param {
    lr_mult: 1
    decay_mult: 1
  }
  param {
    lr_mult: 2
    decay_mult: 0
  }
  convolution_param {
    num_output: 96
    kernel_size: 1
    weight_filler {
      type: "xavier"
      std: 0.09
    }
    bias_filler {
      type: "constant"
      value: 0.2
    }
  }
}
layer {
  name: "inception_4a/relu_3x3_reduce"
  type: "ReLU"
  bottom: "inception_4a/3x3_reduce"
  top: "inception_4a/3x3_reduce"
}
layer {
  name: "inception_4a/3x3"
  type: "Convolution"
  bottom: "inception_4a/3x3_reduce"
  top: "inception_4a/3x3"
  param {
    lr_mult: 1
    decay_mult: 1
  }
  param {
    lr_mult: 2
    decay_mult: 0
  }
  convolution_param {
    num_output: 208
    pad: 1
    kernel_size: 3
    weight_filler {
      type: "xavier"
      std: 0.03
    }
    bias_filler {
      type: "constant"
      value: 0.2
    }
  }
}
layer {
  name: "inception_4a/relu_3x3"
  type: "ReLU"
  bottom: "inception_4a/3x3"
  top: "inception_4a/3x3"
}
layer {
  name: "inception_4a/5x5_reduce"
  type: "Convolution"
  bottom: "pool3/3x3_s2"
  top: "inception_4a/5x5_reduce"
  param {
    lr_mult: 1
    decay_mult: 1
  }
  param {
    lr_mult: 2
    decay_mult: 0
  }
  convolution_param {
    num_output: 16
    kernel_size: 1
    weight_filler {
      type: "xavier"
      std: 0.2
    }
    bias_filler {
      type: "constant"
      value: 0.2
    }
  }
}
layer {
  name: "inception_4a/relu_5x5_reduce"
  type: "ReLU"
  bottom: "inception_4a/5x5_reduce"
  top: "inception_4a/5x5_reduce"
}
layer {
  name: "inception_4a/5x5"
  type: "Convolution"
  bottom: "inception_4a/5x5_reduce"
  top: "inception_4a/5x5"
  param {
    lr_mult: 1
    decay_mult: 1
  }
  param {
    lr_mult: 2
    decay_mult: 0
  }
  convolution_param {
    num_output: 48
    pad: 2
    kernel_size: 5
    weight_filler {
      type: "xavier"
      std: 0.03
    }
    bias_filler {
      type: "constant"
      value: 0.2
    }
  }
}
layer {
  name: "inception_4a/relu_5x5"
  type: "ReLU"
  bottom: "inception_4a/5x5"
  top: "inception_4a/5x5"
}
layer {
  name: "inception_4a/pool"
  type: "Pooling"
  bottom: "pool3/3x3_s2"
  top: "inception_4a/pool"
  pooling_param {
    pool: MAX
    kernel_size: 3
    stride: 1
    pad: 1
  }
}
layer {
  name: "inception_4a/pool_proj"
  type: "Convolution"
  bottom: "inception_4a/pool"
  top: "inception_4a/pool_proj"
  param {
    lr_mult: 1
    decay_mult: 1
  }
  param {
    lr_mult: 2
    decay_mult: 0
  }
  convolution_param {
    num_output: 64
    kernel_size: 1
    weight_filler {
      type: "xavier"
      std: 0.1
    }
    bias_filler {
      type: "constant"
      value: 0.2
    }
  }
}
layer {
  name: "inception_4a/relu_pool_proj"
  type: "ReLU"
  bottom: "inception_4a/pool_proj"
  top: "inception_4a/pool_proj"
}
layer {
  name: "inception_4a/output"
  type: "Concat"
  bottom: "inception_4a/1x1"
  bottom: "inception_4a/3x3"
  bottom: "inception_4a/5x5"
  bottom: "inception_4a/pool_proj"
  top: "inception_4a/output"
}
layer {
  name: "loss1/ave_pool"
  type: "Pooling"
  bottom: "inception_4a/output"
  top: "loss1/ave_pool"
  pooling_param {
    pool: AVE
    kernel_size: 5
    stride: 3
  }
}
layer {
  name: "loss1/conv"
  type: "Convolution"
  bottom: "loss1/ave_pool"
  top: "loss1/conv"
  param {
    lr_mult: 1
    decay_mult: 1
  }
  param {
    lr_mult: 2
    decay_mult: 0
  }
  convolution_param {
    num_output: 128
    kernel_size: 1
    weight_filler {
      type: "xavier"
      std: 0.08
    }
    bias_filler {
      type: "constant"
      value: 0.2
    }
  }
}
layer {
  name: "loss1/relu_conv"
  type: "ReLU"
  bottom: "loss1/conv"
  top: "loss1/conv"
}
layer {
  name: "loss1/fc"
  type: "InnerProduct"
  bottom: "loss1/conv"
  top: "loss1/fc"
  param {
    lr_mult: 1
    decay_mult: 1
  }
  param {
    lr_mult: 2
    decay_mult: 0
  }
  inner_product_param {
    num_output: 1024
    weight_filler {
      type: "xavier"
      std: 0.02
    }
    bias_filler {
      type: "constant"
      value: 0.2
    }
  }
}
layer {
  name: "loss1/relu_fc"
  type: "ReLU"
  bottom: "loss1/fc"
  top: "loss1/fc"
}
layer {
  name: "loss1/drop_fc"
  type: "Dropout"
  bottom: "loss1/fc"
  top: "loss1/fc"
  dropout_param {
    dropout_ratio: 0.7
  }
}
layer {
  name: "loss1/classifier_plantvillage"
  type: "InnerProduct"
  bottom: "loss1/fc"
  top: "loss1/classifier_plantvillage"
  param {
    lr_mult: 1
    decay_mult: 1
  }
  param {
    lr_mult: 2
    decay_mult: 0
  }
  inner_product_param {
    num_output: 38
    weight_filler {
      type: "xavier"
      std: 0.0009765625
    }
    bias_filler {
      type: "constant"
      value: 0
    }
  }
}
layer {
  name: "inception_4b/1x1"
  type: "Convolution"
  bottom: "inception_4a/output"
  top: "inception_4b/1x1"
  param {
    lr_mult: 1
    decay_mult: 1
  }
  param {
    lr_mult: 2
    decay_mult: 0
  }
  convolution_param {
    num_output: 160
    kernel_size: 1
    weight_filler {
      type: "xavier"
      std: 0.03
    }
    bias_filler {
      type: "constant"
      value: 0.2
    }
  }
}
layer {
  name: "inception_4b/relu_1x1"
  type: "ReLU"
  bottom: "inception_4b/1x1"
  top: "inception_4b/1x1"
}
layer {
  name: "inception_4b/3x3_reduce"
  type: "Convolution"
  bottom: "inception_4a/output"
  top: "inception_4b/3x3_reduce"
  param {
    lr_mult: 1
    decay_mult: 1
  }
  param {
    lr_mult: 2
    decay_mult: 0
  }
  convolution_param {
    num_output: 112
    kernel_size: 1
    weight_filler {
      type: "xavier"
      std: 0.09
    }
    bias_filler {
      type: "constant"
      value: 0.2
    }
  }
}
layer {
  name: "inception_4b/relu_3x3_reduce"
  type: "ReLU"
  bottom: "inception_4b/3x3_reduce"
  top: "inception_4b/3x3_reduce"
}
layer {
  name: "inception_4b/3x3"
  type: "Convolution"
  bottom: "inception_4b/3x3_reduce"
  top: "inception_4b/3x3"
  param {
    lr_mult: 1
    decay_mult: 1
  }
  param {
    lr_mult: 2
    decay_mult: 0
  }
  convolution_param {
    num_output: 224
    pad: 1
    kernel_size: 3
    weight_filler {
      type: "xavier"
      std: 0.03
    }
    bias_filler {
      type: "constant"
      value: 0.2
    }
  }
}
layer {
  name: "inception_4b/relu_3x3"
  type: "ReLU"
  bottom: "inception_4b/3x3"
  top: "inception_4b/3x3"
}
layer {
  name: "inception_4b/5x5_reduce"
  type: "Convolution"
  bottom: "inception_4a/output"
  top: "inception_4b/5x5_reduce"
  param {
    lr_mult: 1
    decay_mult: 1
  }
  param {
    lr_mult: 2
    decay_mult: 0
  }
  convolution_param {
    num_output: 24
    kernel_size: 1
    weight_filler {
      type: "xavier"
      std: 0.2
    }
    bias_filler {
      type: "constant"
      value: 0.2
    }
  }
}
layer {
  name: "inception_4b/relu_5x5_reduce"
  type: "ReLU"
  bottom: "inception_4b/5x5_reduce"
  top: "inception_4b/5x5_reduce"
}
layer {
  name: "inception_4b/5x5"
  type: "Convolution"
  bottom: "inception_4b/5x5_reduce"
  top: "inception_4b/5x5"
  param {
    lr_mult: 1
    decay_mult: 1
  }
  param {
    lr_mult: 2
    decay_mult: 0
  }
  convolution_param {
    num_output: 64
    pad: 2
    kernel_size: 5
    weight_filler {
      type: "xavier"
      std: 0.03
    }
    bias_filler {
      type: "constant"
      value: 0.2
    }
  }
}
layer {
  name: "inception_4b/relu_5x5"
  type: "ReLU"
  bottom: "inception_4b/5x5"
  top: "inception_4b/5x5"
}
layer {
  name: "inception_4b/pool"
  type: "Pooling"
  bottom: "inception_4a/output"
  top: "inception_4b/pool"
  pooling_param {
    pool: MAX
    kernel_size: 3
    stride: 1
    pad: 1
  }
}
layer {
  name: "inception_4b/pool_proj"
  type: "Convolution"
  bottom: "inception_4b/pool"
  top: "inception_4b/pool_proj"
  param {
    lr_mult: 1
    decay_mult: 1
  }
  param {
    lr_mult: 2
    decay_mult: 0
  }
  convolution_param {
    num_output: 64
    kernel_size: 1
    weight_filler {
      type: "xavier"
      std: 0.1
    }
    bias_filler {
      type: "constant"
      value: 0.2
    }
  }
}
layer {
  name: "inception_4b/relu_pool_proj"
  type: "ReLU"
  bottom: "inception_4b/pool_proj"
  top: "inception_4b/pool_proj"
}
layer {
  name: "inception_4b/output"
  type: "Concat"
  bottom: "inception_4b/1x1"
  bottom: "inception_4b/3x3"
  bottom: "inception_4b/5x5"
  bottom: "inception_4b/pool_proj"
  top: "inception_4b/output"
}
layer {
  name: "inception_4c/1x1"
  type: "Convolution"
  bottom: "inception_4b/output"
  top: "inception_4c/1x1"
  param {
    lr_mult: 1
    decay_mult: 1
  }
  param {
    lr_mult: 2
    decay_mult: 0
  }
  convolution_param {
    num_output: 128
    kernel_size: 1
    weight_filler {
      type: "xavier"
      std: 0.03
    }
    bias_filler {
      type: "constant"
      value: 0.2
    }
  }
}
layer {
  name: "inception_4c/relu_1x1"
  type: "ReLU"
  bottom: "inception_4c/1x1"
  top: "inception_4c/1x1"
}
layer {
  name: "inception_4c/3x3_reduce"
  type: "Convolution"
  bottom: "inception_4b/output"
  top: "inception_4c/3x3_reduce"
  param {
    lr_mult: 1
    decay_mult: 1
  }
  param {
    lr_mult: 2
    decay_mult: 0
  }
  convolution_param {
    num_output: 128
    kernel_size: 1
    weight_filler {
      type: "xavier"
      std: 0.09
    }
    bias_filler {
      type: "constant"
      value: 0.2
    }
  }
}
layer {
  name: "inception_4c/relu_3x3_reduce"
  type: "ReLU"
  bottom: "inception_4c/3x3_reduce"
  top: "inception_4c/3x3_reduce"
}
layer {
  name: "inception_4c/3x3"
  type: "Convolution"
  bottom: "inception_4c/3x3_reduce"
  top: "inception_4c/3x3"
  param {
    lr_mult: 1
    decay_mult: 1
  }
  param {
    lr_mult: 2
    decay_mult: 0
  }
  convolution_param {
    num_output: 256
    pad: 1
    kernel_size: 3
    weight_filler {
      type: "xavier"
      std: 0.03
    }
    bias_filler {
      type: "constant"
      value: 0.2
    }
  }
}
layer {
  name: "inception_4c/relu_3x3"
  type: "ReLU"
  bottom: "inception_4c/3x3"
  top: "inception_4c/3x3"
}
layer {
  name: "inception_4c/5x5_reduce"
  type: "Convolution"
  bottom: "inception_4b/output"
  top: "inception_4c/5x5_reduce"
  param {
    lr_mult: 1
    decay_mult: 1
  }
  param {
    lr_mult: 2
    decay_mult: 0
  }
  convolution_param {
    num_output: 24
    kernel_size: 1
    weight_filler {
      type: "xavier"
      std: 0.2
    }
    bias_filler {
      type: "constant"
      value: 0.2
    }
  }
}
layer {
  name: "inception_4c/relu_5x5_reduce"
  type: "ReLU"
  bottom: "inception_4c/5x5_reduce"
  top: "inception_4c/5x5_reduce"
}
layer {
  name: "inception_4c/5x5"
  type: "Convolution"
  bottom: "inception_4c/5x5_reduce"
  top: "inception_4c/5x5"
  param {
    lr_mult: 1
    decay_mult: 1
  }
  param {
    lr_mult: 2
    decay_mult: 0
  }
  convolution_param {
    num_output: 64
    pad: 2
    kernel_size: 5
    weight_filler {
      type: "xavier"
      std: 0.03
    }
    bias_filler {
      type: "constant"
      value: 0.2
    }
  }
}
layer {
  name: "inception_4c/relu_5x5"
  type: "ReLU"
  bottom: "inception_4c/5x5"
  top: "inception_4c/5x5"
}
layer {
  name: "inception_4c/pool"
  type: "Pooling"
  bottom: "inception_4b/output"
  top: "inception_4c/pool"
  pooling_param {
    pool: MAX
    kernel_size: 3
    stride: 1
    pad: 1
  }
}
layer {
  name: "inception_4c/pool_proj"
  type: "Convolution"
  bottom: "inception_4c/pool"
  top: "inception_4c/pool_proj"
  param {
    lr_mult: 1
    decay_mult: 1
  }
  param {
    lr_mult: 2
    decay_mult: 0
  }
  convolution_param {
    num_output: 64
    kernel_size: 1
    weight_filler {
      type: "xavier"
      std: 0.1
    }
    bias_filler {
      type: "constant"
      value: 0.2
    }
  }
}
layer {
  name: "inception_4c/relu_pool_proj"
  type: "ReLU"
  bottom: "inception_4c/pool_proj"
  top: "inception_4c/pool_proj"
}
layer {
  name: "inception_4c/output"
  type: "Concat"
  bottom: "inception_4c/1x1"
  bottom: "inception_4c/3x3"
  bottom: "inception_4c/5x5"
  bottom: "inception_4c/pool_proj"
  top: "inception_4c/output"
}
layer {
  name: "inception_4d/1x1"
  type: "Convolution"
  bottom: "inception_4c/output"
  top: "inception_4d/1x1"
  param {
    lr_mult: 1
    decay_mult: 1
  }
  param {
    lr_mult: 2
    decay_mult: 0
  }
  convolution_param {
    num_output: 112
    kernel_size: 1
    weight_filler {
      type: "xavier"
      std: 0.03
    }
    bias_filler {
      type: "constant"
      value: 0.2
    }
  }
}
layer {
  name: "inception_4d/relu_1x1"
  type: "ReLU"
  bottom: "inception_4d/1x1"
  top: "inception_4d/1x1"
}
layer {
  name: "inception_4d/3x3_reduce"
  type: "Convolution"
  bottom: "inception_4c/output"
  top: "inception_4d/3x3_reduce"
  param {
    lr_mult: 1
    decay_mult: 1
  }
  param {
    lr_mult: 2
    decay_mult: 0
  }
  convolution_param {
    num_output: 144
    kernel_size: 1
    weight_filler {
      type: "xavier"
      std: 0.09
    }
    bias_filler {
      type: "constant"
      value: 0.2
    }
  }
}
layer {
  name: "inception_4d/relu_3x3_reduce"
  type: "ReLU"
  bottom: "inception_4d/3x3_reduce"
  top: "inception_4d/3x3_reduce"
}
layer {
  name: "inception_4d/3x3"
  type: "Convolution"
  bottom: "inception_4d/3x3_reduce"
  top: "inception_4d/3x3"
  param {
    lr_mult: 1
    decay_mult: 1
  }
  param {
    lr_mult: 2
    decay_mult: 0
  }
  convolution_param {
    num_output: 288
    pad: 1
    kernel_size: 3
    weight_filler {
      type: "xavier"
      std: 0.03
    }
    bias_filler {
      type: "constant"
      value: 0.2
    }
  }
}
layer {
  name: "inception_4d/relu_3x3"
  type: "ReLU"
  bottom: "inception_4d/3x3"
  top: "inception_4d/3x3"
}
layer {
  name: "inception_4d/5x5_reduce"
  type: "Convolution"
  bottom: "inception_4c/output"
  top: "inception_4d/5x5_reduce"
  param {
    lr_mult: 1
    decay_mult: 1
  }
  param {
    lr_mult: 2
    decay_mult: 0
  }
  convolution_param {
    num_output: 32
    kernel_size: 1
    weight_filler {
      type: "xavier"
      std: 0.2
    }
    bias_filler {
      type: "constant"
      value: 0.2
    }
  }
}
layer {
  name: "inception_4d/relu_5x5_reduce"
  type: "ReLU"
  bottom: "inception_4d/5x5_reduce"
  top: "inception_4d/5x5_reduce"
}
layer {
  name: "inception_4d/5x5"
  type: "Convolution"
  bottom: "inception_4d/5x5_reduce"
  top: "inception_4d/5x5"
  param {
    lr_mult: 1
    decay_mult: 1
  }
  param {
    lr_mult: 2
    decay_mult: 0
  }
  convolution_param {
    num_output: 64
    pad: 2
    kernel_size: 5
    weight_filler {
      type: "xavier"
      std: 0.03
    }
    bias_filler {
      type: "constant"
      value: 0.2
    }
  }
}
layer {
  name: "inception_4d/relu_5x5"
  type: "ReLU"
  bottom: "inception_4d/5x5"
  top: "inception_4d/5x5"
}
layer {
  name: "inception_4d/pool"
  type: "Pooling"
  bottom: "inception_4c/output"
  top: "inception_4d/pool"
  pooling_param {
    pool: MAX
    kernel_size: 3
    stride: 1
    pad: 1
  }
}
layer {
  name: "inception_4d/pool_proj"
  type: "Convolution"
  bottom: "inception_4d/pool"
  top: "inception_4d/pool_proj"
  param {
    lr_mult: 1
    decay_mult: 1
  }
  param {
    lr_mult: 2
    decay_mult: 0
  }
  convolution_param {
    num_output: 64
    kernel_size: 1
    weight_filler {
      type: "xavier"
      std: 0.1
    }
    bias_filler {
      type: "constant"
      value: 0.2
    }
  }
}
layer {
  name: "inception_4d/relu_pool_proj"
  type: "ReLU"
  bottom: "inception_4d/pool_proj"
  top: "inception_4d/pool_proj"
}
layer {
  name: "inception_4d/output"
  type: "Concat"
  bottom: "inception_4d/1x1"
  bottom: "inception_4d/3x3"
  bottom: "inception_4d/5x5"
  bottom: "inception_4d/pool_proj"
  top: "inception_4d/output"
}
layer {
  name: "loss2/ave_pool"
  type: "Pooling"
  bottom: "inception_4d/output"
  top: "loss2/ave_pool"
  pooling_param {
    pool: AVE
    kernel_size: 5
    stride: 3
  }
}
layer {
  name: "loss2/conv"
  type: "Convolution"
  bottom: "loss2/ave_pool"
  top: "loss2/conv"
  param {
    lr_mult: 1
    decay_mult: 1
  }
  param {
    lr_mult: 2
    decay_mult: 0
  }
  convolution_param {
    num_output: 128
    kernel_size: 1
    weight_filler {
      type: "xavier"
      std: 0.08
    }
    bias_filler {
      type: "constant"
      value: 0.2
    }
  }
}
layer {
  name: "loss2/relu_conv"
  type: "ReLU"
  bottom: "loss2/conv"
  top: "loss2/conv"
}
layer {
  name: "loss2/fc"
  type: "InnerProduct"
  bottom: "loss2/conv"
  top: "loss2/fc"
  param {
    lr_mult: 1
    decay_mult: 1
  }
  param {
    lr_mult: 2
    decay_mult: 0
  }
  inner_product_param {
    num_output: 1024
    weight_filler {
      type: "xavier"
      std: 0.02
    }
    bias_filler {
      type: "constant"
      value: 0.2
    }
  }
}
layer {
  name: "loss2/relu_fc"
  type: "ReLU"
  bottom: "loss2/fc"
  top: "loss2/fc"
}
layer {
  name: "loss2/drop_fc"
  type: "Dropout"
  bottom: "loss2/fc"
  top: "loss2/fc"
  dropout_param {
    dropout_ratio: 0.7
  }
}
layer {
  name: "loss2/classifier_plantvillage"
  type: "InnerProduct"
  bottom: "loss2/fc"
  top: "loss2/classifier_plantvillage"
  param {
    lr_mult: 1
    decay_mult: 1
  }
  param {
    lr_mult: 2
    decay_mult: 0
  }
  inner_product_param {
    num_output: 38
    weight_filler {
      type: "xavier"
      std: 0.0009765625
    }
    bias_filler {
      type: "constant"
      value: 0
    }
  }
}
layer {
  name: "inception_4e/1x1"
  type: "Convolution"
  bottom: "inception_4d/output"
  top: "inception_4e/1x1"
  param {
    lr_mult: 1
    decay_mult: 1
  }
  param {
    lr_mult: 2
    decay_mult: 0
  }
  convolution_param {
    num_output: 256
    kernel_size: 1
    weight_filler {
      type: "xavier"
      std: 0.03
    }
    bias_filler {
      type: "constant"
      value: 0.2
    }
  }
}
layer {
  name: "inception_4e/relu_1x1"
  type: "ReLU"
  bottom: "inception_4e/1x1"
  top: "inception_4e/1x1"
}
layer {
  name: "inception_4e/3x3_reduce"
  type: "Convolution"
  bottom: "inception_4d/output"
  top: "inception_4e/3x3_reduce"
  param {
    lr_mult: 1
    decay_mult: 1
  }
  param {
    lr_mult: 2
    decay_mult: 0
  }
  convolution_param {
    num_output: 160
    kernel_size: 1
    weight_filler {
      type: "xavier"
      std: 0.09
    }
    bias_filler {
      type: "constant"
      value: 0.2
    }
  }
}
layer {
  name: "inception_4e/relu_3x3_reduce"
  type: "ReLU"
  bottom: "inception_4e/3x3_reduce"
  top: "inception_4e/3x3_reduce"
}
layer {
  name: "inception_4e/3x3"
  type: "Convolution"
  bottom: "inception_4e/3x3_reduce"
  top: "inception_4e/3x3"
  param {
    lr_mult: 1
    decay_mult: 1
  }
  param {
    lr_mult: 2
    decay_mult: 0
  }
  convolution_param {
    num_output: 320
    pad: 1
    kernel_size: 3
    weight_filler {
      type: "xavier"
      std: 0.03
    }
    bias_filler {
      type: "constant"
      value: 0.2
    }
  }
}
layer {
  name: "inception_4e/relu_3x3"
  type: "ReLU"
  bottom: "inception_4e/3x3"
  top: "inception_4e/3x3"
}
layer {
  name: "inception_4e/5x5_reduce"
  type: "Convolution"
  bottom: "inception_4d/output"
  top: "inception_4e/5x5_reduce"
  param {
    lr_mult: 1
    decay_mult: 1
  }
  param {
    lr_mult: 2
    decay_mult: 0
  }
  convolution_param {
    num_output: 32
    kernel_size: 1
    weight_filler {
      type: "xavier"
      std: 0.2
    }
    bias_filler {
      type: "constant"
      value: 0.2
    }
  }
}
layer {
  name: "inception_4e/relu_5x5_reduce"
  type: "ReLU"
  bottom: "inception_4e/5x5_reduce"
  top: "inception_4e/5x5_reduce"
}
layer {
  name: "inception_4e/5x5"
  type: "Convolution"
  bottom: "inception_4e/5x5_reduce"
  top: "inception_4e/
I0403 13:59:28.507728   603 layer_factory.hpp:77] Creating layer data
I0403 13:59:28.508352   603 net.cpp:91] Creating Layer data
I0403 13:59:28.508383   603 net.cpp:399] data -> data
I0403 13:59:28.508436   603 net.cpp:399] data -> label
I0403 13:59:28.508474   603 data_transformer.cpp:25] Loading mean file from: /home/mohanty/data/final_dataset/lmdb/grayscale-20-80/mean.binaryproto
I0403 13:59:28.510917   606 db_lmdb.cpp:38] Opened lmdb /home/mohanty/data/final_dataset/lmdb/grayscale-20-80/test_db
I0403 13:59:28.521989   603 data_layer.cpp:41] output data size: 24,3,224,224
I0403 13:59:28.549072   603 net.cpp:141] Setting up data
I0403 13:59:28.549175   603 net.cpp:148] Top shape: 24 3 224 224 (3612672)
I0403 13:59:28.549204   603 net.cpp:148] Top shape: 24 (24)
I0403 13:59:28.549221   603 net.cpp:156] Memory required for data: 14450784
I0403 13:59:28.549262   603 layer_factory.hpp:77] Creating layer label_data_1_split
I0403 13:59:28.549288   603 net.cpp:91] Creating Layer label_data_1_split
I0403 13:59:28.549307   603 net.cpp:425] label_data_1_split <- label
I0403 13:59:28.549340   603 net.cpp:399] label_data_1_split -> label_data_1_split_0
I0403 13:59:28.549368   603 net.cpp:399] label_data_1_split -> label_data_1_split_1
I0403 13:59:28.549391   603 net.cpp:399] label_data_1_split -> label_data_1_split_2
I0403 13:59:28.549413   603 net.cpp:399] label_data_1_split -> label_data_1_split_3
I0403 13:59:28.549434   603 net.cpp:399] label_data_1_split -> label_data_1_split_4
I0403 13:59:28.549456   603 net.cpp:399] label_data_1_split -> label_data_1_split_5
I0403 13:59:28.549477   603 net.cpp:399] label_data_1_split -> label_data_1_split_6
I0403 13:59:28.549500   603 net.cpp:399] label_data_1_split -> label_data_1_split_7
I0403 13:59:28.549521   603 net.cpp:399] label_data_1_split -> label_data_1_split_8
I0403 13:59:28.549554   603 net.cpp:399] label_data_1_split -> label_data_1_split_9
I0403 13:59:28.549672   603 net.cpp:141] Setting up label_data_1_split
I0403 13:59:28.549696   603 net.cpp:148] Top shape: 24 (24)
I0403 13:59:28.549713   603 net.cpp:148] Top shape: 24 (24)
I0403 13:59:28.549729   603 net.cpp:148] Top shape: 24 (24)
I0403 13:59:28.549746   603 net.cpp:148] Top shape: 24 (24)
I0403 13:59:28.549760   603 net.cpp:148] Top shape: 24 (24)
I0403 13:59:28.549777   603 net.cpp:148] Top shape: 24 (24)
I0403 13:59:28.549793   603 net.cpp:148] Top shape: 24 (24)
I0403 13:59:28.549808   603 net.cpp:148] Top shape: 24 (24)
I0403 13:59:28.549824   603 net.cpp:148] Top shape: 24 (24)
I0403 13:59:28.549841   603 net.cpp:148] Top shape: 24 (24)
I0403 13:59:28.549885   603 net.cpp:156] Memory required for data: 14451744
I0403 13:59:28.549914   603 layer_factory.hpp:77] Creating layer conv1/7x7_s2
I0403 13:59:28.549947   603 net.cpp:91] Creating Layer conv1/7x7_s2
I0403 13:59:28.549967   603 net.cpp:425] conv1/7x7_s2 <- data
I0403 13:59:28.549988   603 net.cpp:399] conv1/7x7_s2 -> conv1/7x7_s2
I0403 13:59:28.688218   603 net.cpp:141] Setting up conv1/7x7_s2
I0403 13:59:28.688261   603 net.cpp:148] Top shape: 24 64 112 112 (19267584)
I0403 13:59:28.688278   603 net.cpp:156] Memory required for data: 91522080
I0403 13:59:28.688310   603 layer_factory.hpp:77] Creating layer conv1/relu_7x7
I0403 13:59:28.688336   603 net.cpp:91] Creating Layer conv1/relu_7x7
I0403 13:59:28.688355   603 net.cpp:425] conv1/relu_7x7 <- conv1/7x7_s2
I0403 13:59:28.688374   603 net.cpp:386] conv1/relu_7x7 -> conv1/7x7_s2 (in-place)
I0403 13:59:28.688642   603 net.cpp:141] Setting up conv1/relu_7x7
I0403 13:59:28.688670   603 net.cpp:148] Top shape: 24 64 112 112 (19267584)
I0403 13:59:28.688686   603 net.cpp:156] Memory required for data: 168592416
I0403 13:59:28.688702   603 layer_factory.hpp:77] Creating layer pool1/3x3_s2
I0403 13:59:28.688727   603 net.cpp:91] Creating Layer pool1/3x3_s2
I0403 13:59:28.688745   603 net.cpp:425] pool1/3x3_s2 <- conv1/7x7_s2
I0403 13:59:28.688763   603 net.cpp:399] pool1/3x3_s2 -> pool1/3x3_s2
I0403 13:59:28.688838   603 net.cpp:141] Setting up pool1/3x3_s2
I0403 13:59:28.688863   603 net.cpp:148] Top shape: 24 64 56 56 (4816896)
I0403 13:59:28.688879   603 net.cpp:156] Memory required for data: 187860000
I0403 13:59:28.688895   603 layer_factory.hpp:77] Creating layer pool1/norm1
I0403 13:59:28.688920   603 net.cpp:91] Creating Layer pool1/norm1
I0403 13:59:28.688938   603 net.cpp:425] pool1/norm1 <- pool1/3x3_s2
I0403 13:59:28.688968   603 net.cpp:399] pool1/norm1 -> pool1/norm1
I0403 13:59:28.689256   603 net.cpp:141] Setting up pool1/norm1
I0403 13:59:28.689282   603 net.cpp:148] Top shape: 24 64 56 56 (4816896)
I0403 13:59:28.689299   603 net.cpp:156] Memory required for data: 207127584
I0403 13:59:28.689314   603 layer_factory.hpp:77] Creating layer conv2/3x3_reduce
I0403 13:59:28.689338   603 net.cpp:91] Creating Layer conv2/3x3_reduce
I0403 13:59:28.689355   603 net.cpp:425] conv2/3x3_reduce <- pool1/norm1
I0403 13:59:28.689373   603 net.cpp:399] conv2/3x3_reduce -> conv2/3x3_reduce
I0403 13:59:28.690734   603 net.cpp:141] Setting up conv2/3x3_reduce
I0403 13:59:28.690778   603 net.cpp:148] Top shape: 24 64 56 56 (4816896)
I0403 13:59:28.690793   603 net.cpp:156] Memory required for data: 226395168
I0403 13:59:28.690815   603 layer_factory.hpp:77] Creating layer conv2/relu_3x3_reduce
I0403 13:59:28.690834   603 net.cpp:91] Creating Layer conv2/relu_3x3_reduce
I0403 13:59:28.690850   603 net.cpp:425] conv2/relu_3x3_reduce <- conv2/3x3_reduce
I0403 13:59:28.690867   603 net.cpp:386] conv2/relu_3x3_reduce -> conv2/3x3_reduce (in-place)
I0403 13:59:28.691124   603 net.cpp:141] Setting up conv2/relu_3x3_reduce
I0403 13:59:28.691151   603 net.cpp:148] Top shape: 24 64 56 56 (4816896)
I0403 13:59:28.691167   603 net.cpp:156] Memory required for data: 245662752
I0403 13:59:28.691190   603 layer_factory.hpp:77] Creating layer conv2/3x3
I0403 13:59:28.691213   603 net.cpp:91] Creating Layer conv2/3x3
I0403 13:59:28.691231   603 net.cpp:425] conv2/3x3 <- conv2/3x3_reduce
I0403 13:59:28.691251   603 net.cpp:399] conv2/3x3 -> conv2/3x3
I0403 13:59:28.693591   603 net.cpp:141] Setting up conv2/3x3
I0403 13:59:28.693631   603 net.cpp:148] Top shape: 24 192 56 56 (14450688)
I0403 13:59:28.693647   603 net.cpp:156] Memory required for data: 303465504
I0403 13:59:28.693670   603 layer_factory.hpp:77] Creating layer conv2/relu_3x3
I0403 13:59:28.693687   603 net.cpp:91] Creating Layer conv2/relu_3x3
I0403 13:59:28.693702   603 net.cpp:425] conv2/relu_3x3 <- conv2/3x3
I0403 13:59:28.693719   603 net.cpp:386] conv2/relu_3x3 -> conv2/3x3 (in-place)
I0403 13:59:28.693881   603 net.cpp:141] Setting up conv2/relu_3x3
I0403 13:59:28.693904   603 net.cpp:148] Top shape: 24 192 56 56 (14450688)
I0403 13:59:28.693951   603 net.cpp:156] Memory required for data: 361268256
I0403 13:59:28.693966   603 layer_factory.hpp:77] Creating layer conv2/norm2
I0403 13:59:28.693985   603 net.cpp:91] Creating Layer conv2/norm2
I0403 13:59:28.694001   603 net.cpp:425] conv2/norm2 <- conv2/3x3
I0403 13:59:28.694020   603 net.cpp:399] conv2/norm2 -> conv2/norm2
I0403 13:59:28.694329   603 net.cpp:141] Setting up conv2/norm2
I0403 13:59:28.694356   603 net.cpp:148] Top shape: 24 192 56 56 (14450688)
I0403 13:59:28.694372   603 net.cpp:156] Memory required for data: 419071008
I0403 13:59:28.694387   603 layer_factory.hpp:77] Creating layer pool2/3x3_s2
I0403 13:59:28.694406   603 net.cpp:91] Creating Layer pool2/3x3_s2
I0403 13:59:28.694422   603 net.cpp:425] pool2/3x3_s2 <- conv2/norm2
I0403 13:59:28.694442   603 net.cpp:399] pool2/3x3_s2 -> pool2/3x3_s2
I0403 13:59:28.694497   603 net.cpp:141] Setting up pool2/3x3_s2
I0403 13:59:28.694535   603 net.cpp:148] Top shape: 24 192 28 28 (3612672)
I0403 13:59:28.694550   603 net.cpp:156] Memory required for data: 433521696
I0403 13:59:28.694564   603 layer_factory.hpp:77] Creating layer pool2/3x3_s2_pool2/3x3_s2_0_split
I0403 13:59:28.694582   603 net.cpp:91] Creating Layer pool2/3x3_s2_pool2/3x3_s2_0_split
I0403 13:59:28.694598   603 net.cpp:425] pool2/3x3_s2_pool2/3x3_s2_0_split <- pool2/3x3_s2
I0403 13:59:28.694615   603 net.cpp:399] pool2/3x3_s2_pool2/3x3_s2_0_split -> pool2/3x3_s2_pool2/3x3_s2_0_split_0
I0403 13:59:28.694635   603 net.cpp:399] pool2/3x3_s2_pool2/3x3_s2_0_split -> pool2/3x3_s2_pool2/3x3_s2_0_split_1
I0403 13:59:28.694658   603 net.cpp:399] pool2/3x3_s2_pool2/3x3_s2_0_split -> pool2/3x3_s2_pool2/3x3_s2_0_split_2
I0403 13:59:28.694679   603 net.cpp:399] pool2/3x3_s2_pool2/3x3_s2_0_split -> pool2/3x3_s2_pool2/3x3_s2_0_split_3
I0403 13:59:28.694751   603 net.cpp:141] Setting up pool2/3x3_s2_pool2/3x3_s2_0_split
I0403 13:59:28.694773   603 net.cpp:148] Top shape: 24 192 28 28 (3612672)
I0403 13:59:28.694803   603 net.cpp:148] Top shape: 24 192 28 28 (3612672)
I0403 13:59:28.694819   603 net.cpp:148] Top shape: 24 192 28 28 (3612672)
I0403 13:59:28.694836   603 net.cpp:148] Top shape: 24 192 28 28 (3612672)
I0403 13:59:28.694850   603 net.cpp:156] Memory required for data: 491324448
I0403 13:59:28.694864   603 layer_factory.hpp:77] Creating layer inception_3a/1x1
I0403 13:59:28.694887   603 net.cpp:91] Creating Layer inception_3a/1x1
I0403 13:59:28.694905   603 net.cpp:425] inception_3a/1x1 <- pool2/3x3_s2_pool2/3x3_s2_0_split_0
I0403 13:59:28.694926   603 net.cpp:399] inception_3a/1x1 -> inception_3a/1x1
I0403 13:59:28.696485   603 net.cpp:141] Setting up inception_3a/1x1
I0403 13:59:28.696514   603 net.cpp:148] Top shape: 24 64 28 28 (1204224)
I0403 13:59:28.696530   603 net.cpp:156] Memory required for data: 496141344
I0403 13:59:28.696550   603 layer_factory.hpp:77] Creating layer inception_3a/relu_1x1
I0403 13:59:28.696569   603 net.cpp:91] Creating Layer inception_3a/relu_1x1
I0403 13:59:28.696585   603 net.cpp:425] inception_3a/relu_1x1 <- inception_3a/1x1
I0403 13:59:28.696605   603 net.cpp:386] inception_3a/relu_1x1 -> inception_3a/1x1 (in-place)
I0403 13:59:28.696792   603 net.cpp:141] Setting up inception_3a/relu_1x1
I0403 13:59:28.696817   603 net.cpp:148] Top shape: 24 64 28 28 (1204224)
I0403 13:59:28.696832   603 net.cpp:156] Memory required for data: 500958240
I0403 13:59:28.696848   603 layer_factory.hpp:77] Creating layer inception_3a/3x3_reduce
I0403 13:59:28.696871   603 net.cpp:91] Creating Layer inception_3a/3x3_reduce
I0403 13:59:28.696887   603 net.cpp:425] inception_3a/3x3_reduce <- pool2/3x3_s2_pool2/3x3_s2_0_split_1
I0403 13:59:28.696908   603 net.cpp:399] inception_3a/3x3_reduce -> inception_3a/3x3_reduce
I0403 13:59:28.698724   603 net.cpp:141] Setting up inception_3a/3x3_reduce
I0403 13:59:28.698753   603 net.cpp:148] Top shape: 24 96 28 28 (1806336)
I0403 13:59:28.698770   603 net.cpp:156] Memory required for data: 508183584
I0403 13:59:28.698791   603 layer_factory.hpp:77] Creating layer inception_3a/relu_3x3_reduce
I0403 13:59:28.698832   603 net.cpp:91] Creating Layer inception_3a/relu_3x3_reduce
I0403 13:59:28.698850   603 net.cpp:425] inception_3a/relu_3x3_reduce <- inception_3a/3x3_reduce
I0403 13:59:28.698868   603 net.cpp:386] inception_3a/relu_3x3_reduce -> inception_3a/3x3_reduce (in-place)
I0403 13:59:28.699057   603 net.cpp:141] Setting up inception_3a/relu_3x3_reduce
I0403 13:59:28.699085   603 net.cpp:148] Top shape: 24 96 28 28 (1806336)
I0403 13:59:28.699101   603 net.cpp:156] Memory required for data: 515408928
I0403 13:59:28.699117   603 layer_factory.hpp:77] Creating layer inception_3a/3x3
I0403 13:59:28.699141   603 net.cpp:91] Creating Layer inception_3a/3x3
I0403 13:59:28.699159   603 net.cpp:425] inception_3a/3x3 <- inception_3a/3x3_reduce
I0403 13:59:28.699185   603 net.cpp:399] inception_3a/3x3 -> inception_3a/3x3
I0403 13:59:28.700882   603 net.cpp:141] Setting up inception_3a/3x3
I0403 13:59:28.700911   603 net.cpp:148] Top shape: 24 128 28 28 (2408448)
I0403 13:59:28.700927   603 net.cpp:156] Memory required for data: 525042720
I0403 13:59:28.700944   603 layer_factory.hpp:77] Creating layer inception_3a/relu_3x3
I0403 13:59:28.700965   603 net.cpp:91] Creating Layer inception_3a/relu_3x3
I0403 13:59:28.700981   603 net.cpp:425] inception_3a/relu_3x3 <- inception_3a/3x3
I0403 13:59:28.700999   603 net.cpp:386] inception_3a/relu_3x3 -> inception_3a/3x3 (in-place)
I0403 13:59:28.701299   603 net.cpp:141] Setting up inception_3a/relu_3x3
I0403 13:59:28.701326   603 net.cpp:148] Top shape: 24 128 28 28 (2408448)
I0403 13:59:28.701342   603 net.cpp:156] Memory required for data: 534676512
I0403 13:59:28.701359   603 layer_factory.hpp:77] Creating layer inception_3a/5x5_reduce
I0403 13:59:28.701381   603 net.cpp:91] Creating Layer inception_3a/5x5_reduce
I0403 13:59:28.701400   603 net.cpp:425] inception_3a/5x5_reduce <- pool2/3x3_s2_pool2/3x3_s2_0_split_2
I0403 13:59:28.701421   603 net.cpp:399] inception_3a/5x5_reduce -> inception_3a/5x5_reduce
I0403 13:59:28.702419   603 net.cpp:141] Setting up inception_3a/5x5_reduce
I0403 13:59:28.702448   603 net.cpp:148] Top shape: 24 16 28 28 (301056)
I0403 13:59:28.702464   603 net.cpp:156] Memory required for data: 535880736
I0403 13:59:28.702483   603 layer_factory.hpp:77] Creating layer inception_3a/relu_5x5_reduce
I0403 13:59:28.702504   603 net.cpp:91] Creating Layer inception_3a/relu_5x5_reduce
I0403 13:59:28.702522   603 net.cpp:425] inception_3a/relu_5x5_reduce <- inception_3a/5x5_reduce
I0403 13:59:28.702551   603 net.cpp:386] inception_3a/relu_5x5_reduce -> inception_3a/5x5_reduce (in-place)
I0403 13:59:28.702867   603 net.cpp:141] Setting up inception_3a/relu_5x5_reduce
I0403 13:59:28.702894   603 net.cpp:148] Top shape: 24 16 28 28 (301056)
I0403 13:59:28.702910   603 net.cpp:156] Memory required for data: 537084960
I0403 13:59:28.702925   603 layer_factory.hpp:77] Creating layer inception_3a/5x5
I0403 13:59:28.702950   603 net.cpp:91] Creating Layer inception_3a/5x5
I0403 13:59:28.702981   603 net.cpp:425] inception_3a/5x5 <- inception_3a/5x5_reduce
I0403 13:59:28.703001   603 net.cpp:399] inception_3a/5x5 -> inception_3a/5x5
I0403 13:59:28.704015   603 net.cpp:141] Setting up inception_3a/5x5
I0403 13:59:28.704041   603 net.cpp:148] Top shape: 24 32 28 28 (602112)
I0403 13:59:28.704057   603 net.cpp:156] Memory required for data: 539493408
I0403 13:59:28.704076   603 layer_factory.hpp:77] Creating layer inception_3a/relu_5x5
I0403 13:59:28.704094   603 net.cpp:91] Creating Layer inception_3a/relu_5x5
I0403 13:59:28.704109   603 net.cpp:425] inception_3a/relu_5x5 <- inception_3a/5x5
I0403 13:59:28.704129   603 net.cpp:386] inception_3a/relu_5x5 -> inception_3a/5x5 (in-place)
I0403 13:59:28.704324   603 net.cpp:141] Setting up inception_3a/relu_5x5
I0403 13:59:28.704350   603 net.cpp:148] Top shape: 24 32 28 28 (602112)
I0403 13:59:28.704365   603 net.cpp:156] Memory required for data: 541901856
I0403 13:59:28.704380   603 layer_factory.hpp:77] Creating layer inception_3a/pool
I0403 13:59:28.704401   603 net.cpp:91] Creating Layer inception_3a/pool
I0403 13:59:28.704432   603 net.cpp:425] inception_3a/pool <- pool2/3x3_s2_pool2/3x3_s2_0_split_3
I0403 13:59:28.704452   603 net.cpp:399] inception_3a/pool -> inception_3a/pool
I0403 13:59:28.704511   603 net.cpp:141] Setting up inception_3a/pool
I0403 13:59:28.704535   603 net.cpp:148] Top shape: 24 192 28 28 (3612672)
I0403 13:59:28.704550   603 net.cpp:156] Memory required for data: 556352544
I0403 13:59:28.704566   603 layer_factory.hpp:77] Creating layer inception_3a/pool_proj
I0403 13:59:28.704588   603 net.cpp:91] Creating Layer inception_3a/pool_proj
I0403 13:59:28.704605   603 net.cpp:425] inception_3a/pool_proj <- inception_3a/pool
I0403 13:59:28.704640   603 net.cpp:399] inception_3a/pool_proj -> inception_3a/pool_proj
I0403 13:59:28.705602   603 net.cpp:141] Setting up inception_3a/pool_proj
I0403 13:59:28.705632   603 net.cpp:148] Top shape: 24 32 28 28 (602112)
I0403 13:59:28.705649   603 net.cpp:156] Memory required for data: 558760992
I0403 13:59:28.705672   603 layer_factory.hpp:77] Creating layer inception_3a/relu_pool_proj
I0403 13:59:28.705693   603 net.cpp:91] Creating Layer inception_3a/relu_pool_proj
I0403 13:59:28.705709   603 net.cpp:425] inception_3a/relu_pool_proj <- inception_3a/pool_proj
I0403 13:59:28.705726   603 net.cpp:386] inception_3a/relu_pool_proj -> inception_3a/pool_proj (in-place)
I0403 13:59:28.706019   603 net.cpp:141] Setting up inception_3a/relu_pool_proj
I0403 13:59:28.706045   603 net.cpp:148] Top shape: 24 32 28 28 (602112)
I0403 13:59:28.706061   603 net.cpp:156] Memory required for data: 561169440
I0403 13:59:28.706076   603 layer_factory.hpp:77] Creating layer inception_3a/output
I0403 13:59:28.706095   603 net.cpp:91] Creating Layer inception_3a/output
I0403 13:59:28.706110   603 net.cpp:425] inception_3a/output <- inception_3a/1x1
I0403 13:59:28.706127   603 net.cpp:425] inception_3a/output <- inception_3a/3x3
I0403 13:59:28.706143   603 net.cpp:425] inception_3a/output <- inception_3a/5x5
I0403 13:59:28.706159   603 net.cpp:425] inception_3a/output <- inception_3a/pool_proj
I0403 13:59:28.706198   603 net.cpp:399] inception_3a/output -> inception_3a/output
I0403 13:59:28.706261   603 net.cpp:141] Setting up inception_3a/output
I0403 13:59:28.706284   603 net.cpp:148] Top shape: 24 256 28 28 (4816896)
I0403 13:59:28.706300   603 net.cpp:156] Memory required for data: 580437024
I0403 13:59:28.706315   603 layer_factory.hpp:77] Creating layer inception_3a/output_inception_3a/output_0_split
I0403 13:59:28.706331   603 net.cpp:91] Creating Layer inception_3a/output_inception_3a/output_0_split
I0403 13:59:28.706347   603 net.cpp:425] inception_3a/output_inception_3a/output_0_split <- inception_3a/output
I0403 13:59:28.706367   603 net.cpp:399] inception_3a/output_inception_3a/output_0_split -> inception_3a/output_inception_3a/output_0_split_0
I0403 13:59:28.706388   603 net.cpp:399] inception_3a/output_inception_3a/output_0_split -> inception_3a/output_inception_3a/output_0_split_1
I0403 13:59:28.706411   603 net.cpp:399] inception_3a/output_inception_3a/output_0_split -> inception_3a/output_inception_3a/output_0_split_2
I0403 13:59:28.706434   603 net.cpp:399] inception_3a/output_inception_3a/output_0_split -> inception_3a/output_inception_3a/output_0_split_3
I0403 13:59:28.706512   603 net.cpp:141] Setting up inception_3a/output_inception_3a/output_0_split
I0403 13:59:28.706548   603 net.cpp:148] Top shape: 24 256 28 28 (4816896)
I0403 13:59:28.706564   603 net.cpp:148] Top shape: 24 256 28 28 (4816896)
I0403 13:59:28.706580   603 net.cpp:148] Top shape: 24 256 28 28 (4816896)
I0403 13:59:28.706595   603 net.cpp:148] Top shape: 24 256 28 28 (4816896)
I0403 13:59:28.706609   603 net.cpp:156] Memory required for data: 657507360
I0403 13:59:28.706624   603 layer_factory.hpp:77] Creating layer inception_3b/1x1
I0403 13:59:28.706645   603 net.cpp:91] Creating Layer inception_3b/1x1
I0403 13:59:28.706663   603 net.cpp:425] inception_3b/1x1 <- inception_3a/output_inception_3a/output_0_split_0
I0403 13:59:28.706684   603 net.cpp:399] inception_3b/1x1 -> inception_3b/1x1
I0403 13:59:28.707842   603 net.cpp:141] Setting up inception_3b/1x1
I0403 13:59:28.707883   603 net.cpp:148] Top shape: 24 128 28 28 (2408448)
I0403 13:59:28.707901   603 net.cpp:156] Memory required for data: 667141152
I0403 13:59:28.707918   603 layer_factory.hpp:77] Creating layer inception_3b/relu_1x1
I0403 13:59:28.707937   603 net.cpp:91] Creating Layer inception_3b/relu_1x1
I0403 13:59:28.707952   603 net.cpp:425] inception_3b/relu_1x1 <- inception_3b/1x1
I0403 13:59:28.707973   603 net.cpp:386] inception_3b/relu_1x1 -> inception_3b/1x1 (in-place)
I0403 13:59:28.708147   603 net.cpp:141] Setting up inception_3b/relu_1x1
I0403 13:59:28.708170   603 net.cpp:148] Top shape: 24 128 28 28 (2408448)
I0403 13:59:28.708192   603 net.cpp:156] Memory required for data: 676774944
I0403 13:59:28.708207   603 layer_factory.hpp:77] Creating layer inception_3b/3x3_reduce
I0403 13:59:28.708230   603 net.cpp:91] Creating Layer inception_3b/3x3_reduce
I0403 13:59:28.708247   603 net.cpp:425] inception_3b/3x3_reduce <- inception_3a/output_inception_3a/output_0_split_1
I0403 13:59:28.708269   603 net.cpp:399] inception_3b/3x3_reduce -> inception_3b/3x3_reduce
I0403 13:59:28.709429   603 net.cpp:141] Setting up inception_3b/3x3_reduce
I0403 13:59:28.709456   603 net.cpp:148] Top shape: 24 128 28 28 (2408448)
I0403 13:59:28.709471   603 net.cpp:156] Memory required for data: 686408736
I0403 13:59:28.709491   603 layer_factory.hpp:77] Creating layer inception_3b/relu_3x3_reduce
I0403 13:59:28.709508   603 net.cpp:91] Creating Layer inception_3b/relu_3x3_reduce
I0403 13:59:28.709525   603 net.cpp:425] inception_3b/relu_3x3_reduce <- inception_3b/3x3_reduce
I0403 13:59:28.709547   603 net.cpp:386] inception_3b/relu_3x3_reduce -> inception_3b/3x3_reduce (in-place)
I0403 13:59:28.709718   603 net.cpp:141] Setting up inception_3b/relu_3x3_reduce
I0403 13:59:28.709743   603 net.cpp:148] Top shape: 24 128 28 28 (2408448)
I0403 13:59:28.709758   603 net.cpp:156] Memory required for data: 696042528
I0403 13:59:28.709774   603 layer_factory.hpp:77] Creating layer inception_3b/3x3
I0403 13:59:28.709800   603 net.cpp:91] Creating Layer inception_3b/3x3
I0403 13:59:28.709817   603 net.cpp:425] inception_3b/3x3 <- inception_3b/3x3_reduce
I0403 13:59:28.709836   603 net.cpp:399] inception_3b/3x3 -> inception_3b/3x3
I0403 13:59:28.712833   603 net.cpp:141] Setting up inception_3b/3x3
I0403 13:59:28.712862   603 net.cpp:148] Top shape: 24 192 28 28 (3612672)
I0403 13:59:28.712877   603 net.cpp:156] Memory required for data: 710493216
I0403 13:59:28.712895   603 layer_factory.hpp:77] Creating layer inception_3b/relu_3x3
I0403 13:59:28.712916   603 net.cpp:91] Creating Layer inception_3b/relu_3x3
I0403 13:59:28.712934   603 net.cpp:425] inception_3b/relu_3x3 <- inception_3b/3x3
I0403 13:59:28.712950   603 net.cpp:386] inception_3b/relu_3x3 -> inception_3b/3x3 (in-place)
I0403 13:59:28.713238   603 net.cpp:141] Setting up inception_3b/relu_3x3
I0403 13:59:28.713264   603 net.cpp:148] Top shape: 24 192 28 28 (3612672)
I0403 13:59:28.713279   603 net.cpp:156] Memory required for data: 724943904
I0403 13:59:28.713294   603 layer_factory.hpp:77] Creating layer inception_3b/5x5_reduce
I0403 13:59:28.713317   603 net.cpp:91] Creating Layer inception_3b/5x5_reduce
I0403 13:59:28.713343   603 net.cpp:425] inception_3b/5x5_reduce <- inception_3a/output_inception_3a/output_0_split_2
I0403 13:59:28.713366   603 net.cpp:399] inception_3b/5x5_reduce -> inception_3b/5x5_reduce
I0403 13:59:28.714421   603 net.cpp:141] Setting up inception_3b/5x5_reduce
I0403 13:59:28.714449   603 net.cpp:148] Top shape: 24 32 28 28 (602112)
I0403 13:59:28.714465   603 net.cpp:156] Memory required for data: 727352352
I0403 13:59:28.714484   603 layer_factory.hpp:77] Creating layer inception_3b/relu_5x5_reduce
I0403 13:59:28.714505   603 net.cpp:91] Creating Layer inception_3b/relu_5x5_reduce
I0403 13:59:28.714522   603 net.cpp:425] inception_3b/relu_5x5_reduce <- inception_3b/5x5_reduce
I0403 13:59:28.714552   603 net.cpp:386] inception_3b/relu_5x5_reduce -> inception_3b/5x5_reduce (in-place)
I0403 13:59:28.714740   603 net.cpp:141] Setting up inception_3b/relu_5x5_reduce
I0403 13:59:28.714766   603 net.cpp:148] Top shape: 24 32 28 28 (602112)
I0403 13:59:28.714784   603 net.cpp:156] Memory required for data: 729760800
I0403 13:59:28.714799   603 layer_factory.hpp:77] Creating layer inception_3b/5x5
I0403 13:59:28.714819   603 net.cpp:91] Creating Layer inception_3b/5x5
I0403 13:59:28.714836   603 net.cpp:425] inception_3b/5x5 <- inception_3b/5x5_reduce
I0403 13:59:28.714859   603 net.cpp:399] inception_3b/5x5 -> inception_3b/5x5
I0403 13:59:28.716898   603 net.cpp:141] Setting up inception_3b/5x5
I0403 13:59:28.716928   603 net.cpp:148] Top shape: 24 96 28 28 (1806336)
I0403 13:59:28.716943   603 net.cpp:156] Memory required for data: 736986144
I0403 13:59:28.716961   603 layer_factory.hpp:77] Creating layer inception_3b/relu_5x5
I0403 13:59:28.716979   603 net.cpp:91] Creating Layer inception_3b/relu_5x5
I0403 13:59:28.716995   603 net.cpp:425] inception_3b/relu_5x5 <- inception_3b/5x5
I0403 13:59:28.717015   603 net.cpp:386] inception_3b/relu_5x5 -> inception_3b/5x5 (in-place)
I0403 13:59:28.717224   603 net.cpp:141] Setting up inception_3b/relu_5x5
I0403 13:59:28.717248   603 net.cpp:148] Top shape: 24 96 28 28 (1806336)
I0403 13:59:28.717262   603 net.cpp:156] Memory required for data: 744211488
I0403 13:59:28.717278   603 layer_factory.hpp:77] Creating layer inception_3b/pool
I0403 13:59:28.717294   603 net.cpp:91] Creating Layer inception_3b/pool
I0403 13:59:28.717310   603 net.cpp:425] inception_3b/pool <- inception_3a/output_inception_3a/output_0_split_3
I0403 13:59:28.717327   603 net.cpp:399] inception_3b/pool -> inception_3b/pool
I0403 13:59:28.717383   603 net.cpp:141] Setting up inception_3b/pool
I0403 13:59:28.717406   603 net.cpp:148] Top shape: 24 256 28 28 (4816896)
I0403 13:59:28.717420   603 net.cpp:156] Memory required for data: 763479072
I0403 13:59:28.717434   603 layer_factory.hpp:77] Creating layer inception_3b/pool_proj
I0403 13:59:28.717456   603 net.cpp:91] Creating Layer inception_3b/pool_proj
I0403 13:59:28.717473   603 net.cpp:425] inception_3b/pool_proj <- inception_3b/pool
I0403 13:59:28.717494   603 net.cpp:399] inception_3b/pool_proj -> inception_3b/pool_proj
I0403 13:59:28.718560   603 net.cpp:141] Setting up inception_3b/pool_proj
I0403 13:59:28.718591   603 net.cpp:148] Top shape: 24 64 28 28 (1204224)
I0403 13:59:28.718624   603 net.cpp:156] Memory required for data: 768295968
I0403 13:59:28.718642   603 layer_factory.hpp:77] Creating layer inception_3b/relu_pool_proj
I0403 13:59:28.718660   603 net.cpp:91] Creating Layer inception_3b/relu_pool_proj
I0403 13:59:28.718688   603 net.cpp:425] inception_3b/relu_pool_proj <- inception_3b/pool_proj
I0403 13:59:28.718705   603 net.cpp:386] inception_3b/relu_pool_proj -> inception_3b/pool_proj (in-place)
I0403 13:59:28.719125   603 net.cpp:141] Setting up inception_3b/relu_pool_proj
I0403 13:59:28.719151   603 net.cpp:148] Top shape: 24 64 28 28 (1204224)
I0403 13:59:28.719166   603 net.cpp:156] Memory required for data: 773112864
I0403 13:59:28.719185   603 layer_factory.hpp:77] Creating layer inception_3b/output
I0403 13:59:28.719205   603 net.cpp:91] Creating Layer inception_3b/output
I0403 13:59:28.719223   603 net.cpp:425] inception_3b/output <- inception_3b/1x1
I0403 13:59:28.719239   603 net.cpp:425] inception_3b/output <- inception_3b/3x3
I0403 13:59:28.719255   603 net.cpp:425] inception_3b/output <- inception_3b/5x5
I0403 13:59:28.719280   603 net.cpp:425] inception_3b/output <- inception_3b/pool_proj
I0403 13:59:28.719296   603 net.cpp:399] inception_3b/output -> inception_3b/output
I0403 13:59:28.719341   603 net.cpp:141] Setting up inception_3b/output
I0403 13:59:28.719364   603 net.cpp:148] Top shape: 24 480 28 28 (9031680)
I0403 13:59:28.719378   603 net.cpp:156] Memory required for data: 809239584
I0403 13:59:28.719393   603 layer_factory.hpp:77] Creating layer pool3/3x3_s2
I0403 13:59:28.719409   603 net.cpp:91] Creating Layer pool3/3x3_s2
I0403 13:59:28.719424   603 net.cpp:425] pool3/3x3_s2 <- inception_3b/output
I0403 13:59:28.719458   603 net.cpp:399] pool3/3x3_s2 -> pool3/3x3_s2
I0403 13:59:28.719517   603 net.cpp:141] Setting up pool3/3x3_s2
I0403 13:59:28.719540   603 net.cpp:148] Top shape: 24 480 14 14 (2257920)
I0403 13:59:28.719554   603 net.cpp:156] Memory required for data: 818271264
I0403 13:59:28.719568   603 layer_factory.hpp:77] Creating layer pool3/3x3_s2_pool3/3x3_s2_0_split
I0403 13:59:28.719588   603 net.cpp:91] Creating Layer pool3/3x3_s2_pool3/3x3_s2_0_split
I0403 13:59:28.719602   603 net.cpp:425] pool3/3x3_s2_pool3/3x3_s2_0_split <- pool3/3x3_s2
I0403 13:59:28.719621   603 net.cpp:399] pool3/3x3_s2_pool3/3x3_s2_0_split -> pool3/3x3_s2_pool3/3x3_s2_0_split_0
I0403 13:59:28.719641   603 net.cpp:399] pool3/3x3_s2_pool3/3x3_s2_0_split -> pool3/3x3_s2_pool3/3x3_s2_0_split_1
I0403 13:59:28.719661   603 net.cpp:399] pool3/3x3_s2_pool3/3x3_s2_0_split -> pool3/3x3_s2_pool3/3x3_s2_0_split_2
I0403 13:59:28.719679   603 net.cpp:399] pool3/3x3_s2_pool3/3x3_s2_0_split -> pool3/3x3_s2_pool3/3x3_s2_0_split_3
I0403 13:59:28.719753   603 net.cpp:141] Setting up pool3/3x3_s2_pool3/3x3_s2_0_split
I0403 13:59:28.719774   603 net.cpp:148] Top shape: 24 480 14 14 (2257920)
I0403 13:59:28.719792   603 net.cpp:148] Top shape: 24 480 14 14 (2257920)
I0403 13:59:28.719808   603 net.cpp:148] Top shape: 24 480 14 14 (2257920)
I0403 13:59:28.719823   603 net.cpp:148] Top shape: 24 480 14 14 (2257920)
I0403 13:59:28.719836   603 net.cpp:156] Memory required for data: 854397984
I0403 13:59:28.719851   603 layer_factory.hpp:77] Creating layer inception_4a/1x1
I0403 13:59:28.719882   603 net.cpp:91] Creating Layer inception_4a/1x1
I0403 13:59:28.719898   603 net.cpp:425] inception_4a/1x1 <- pool3/3x3_s2_pool3/3x3_s2_0_split_0
I0403 13:59:28.719921   603 net.cpp:399] inception_4a/1x1 -> inception_4a/1x1
I0403 13:59:28.721478   603 net.cpp:141] Setting up inception_4a/1x1
I0403 13:59:28.721508   603 net.cpp:148] Top shape: 24 192 14 14 (903168)
I0403 13:59:28.721524   603 net.cpp:156] Memory required for data: 858010656
I0403 13:59:28.721542   603 layer_factory.hpp:77] Creating layer inception_4a/relu_1x1
I0403 13:59:28.721560   603 net.cpp:91] Creating Layer inception_4a/relu_1x1
I0403 13:59:28.721576   603 net.cpp:425] inception_4a/relu_1x1 <- inception_4a/1x1
I0403 13:59:28.721593   603 net.cpp:386] inception_4a/relu_1x1 -> inception_4a/1x1 (in-place)
I0403 13:59:28.721784   603 net.cpp:141] Setting up inception_4a/relu_1x1
I0403 13:59:28.721808   603 net.cpp:148] Top shape: 24 192 14 14 (903168)
I0403 13:59:28.721822   603 net.cpp:156] Memory required for data: 861623328
I0403 13:59:28.721837   603 layer_factory.hpp:77] Creating layer inception_4a/3x3_reduce
I0403 13:59:28.721858   603 net.cpp:91] Creating Layer inception_4a/3x3_reduce
I0403 13:59:28.721875   603 net.cpp:425] inception_4a/3x3_reduce <- pool3/3x3_s2_pool3/3x3_s2_0_split_1
I0403 13:59:28.721896   603 net.cpp:399] inception_4a/3x3_reduce -> inception_4a/3x3_reduce
I0403 13:59:28.723191   603 net.cpp:141] Setting up inception_4a/3x3_reduce
I0403 13:59:28.723222   603 net.cpp:148] Top shape: 24 96 14 14 (451584)
I0403 13:59:28.723237   603 net.cpp:156] Memory required for data: 863429664
I0403 13:59:28.723264   603 layer_factory.hpp:77] Creating layer inception_4a/relu_3x3_reduce
I0403 13:59:28.723284   603 net.cpp:91] Creating Layer inception_4a/relu_3x3_reduce
I0403 13:59:28.723311   603 net.cpp:425] inception_4a/relu_3x3_reduce <- inception_4a/3x3_reduce
I0403 13:59:28.723328   603 net.cpp:386] inception_4a/relu_3x3_reduce -> inception_4a/3x3_reduce (in-place)
I0403 13:59:28.723497   603 net.cpp:141] Setting up inception_4a/relu_3x3_reduce
I0403 13:59:28.723523   603 net.cpp:148] Top shape: 24 96 14 14 (451584)
I0403 13:59:28.723538   603 net.cpp:156] Memory required for data: 865236000
I0403 13:59:28.723552   603 layer_factory.hpp:77] Creating layer inception_4a/3x3
I0403 13:59:28.723575   603 net.cpp:91] Creating Layer inception_4a/3x3
I0403 13:59:28.723592   603 net.cpp:425] inception_4a/3x3 <- inception_4a/3x3_reduce
I0403 13:59:28.723611   603 net.cpp:399] inception_4a/3x3 -> inception_4a/3x3
I0403 13:59:28.726263   603 net.cpp:141] Setting up inception_4a/3x3
I0403 13:59:28.726292   603 net.cpp:148] Top shape: 24 208 14 14 (978432)
I0403 13:59:28.726310   603 net.cpp:156] Memory required for data: 869149728
I0403 13:59:28.726328   603 layer_factory.hpp:77] Creating layer inception_4a/relu_3x3
I0403 13:59:28.726347   603 net.cpp:91] Creating Layer inception_4a/relu_3x3
I0403 13:59:28.726375   603 net.cpp:425] inception_4a/relu_3x3 <- inception_4a/3x3
I0403 13:59:28.726394   603 net.cpp:386] inception_4a/relu_3x3 -> inception_4a/3x3 (in-place)
I0403 13:59:28.726680   603 net.cpp:141] Setting up inception_4a/relu_3x3
I0403 13:59:28.726706   603 net.cpp:148] Top shape: 24 208 14 14 (978432)
I0403 13:59:28.726721   603 net.cpp:156] Memory required for data: 873063456
I0403 13:59:28.726734   603 layer_factory.hpp:77] Creating layer inception_4a/5x5_reduce
I0403 13:59:28.726757   603 net.cpp:91] Creating Layer inception_4a/5x5_reduce
I0403 13:59:28.726773   603 net.cpp:425] inception_4a/5x5_reduce <- pool3/3x3_s2_pool3/3x3_s2_0_split_2
I0403 13:59:28.726794   603 net.cpp:399] inception_4a/5x5_reduce -> inception_4a/5x5_reduce
I0403 13:59:28.727802   603 net.cpp:141] Setting up inception_4a/5x5_reduce
I0403 13:59:28.727829   603 net.cpp:148] Top shape: 24 16 14 14 (75264)
I0403 13:59:28.727844   603 net.cpp:156] Memory required for data: 873364512
I0403 13:59:28.727862   603 layer_factory.hpp:77] Creating layer inception_4a/relu_5x5_reduce
I0403 13:59:28.727880   603 net.cpp:91] Creating Layer inception_4a/relu_5x5_reduce
I0403 13:59:28.727908   603 net.cpp:425] inception_4a/relu_5x5_reduce <- inception_4a/5x5_reduce
I0403 13:59:28.727927   603 net.cpp:386] inception_4a/relu_5x5_reduce -> inception_4a/5x5_reduce (in-place)
I0403 13:59:28.728102   603 net.cpp:141] Setting up inception_4a/relu_5x5_reduce
I0403 13:59:28.728127   603 net.cpp:148] Top shape: 24 16 14 14 (75264)
I0403 13:59:28.728140   603 net.cpp:156] Memory required for data: 873665568
I0403 13:59:28.728166   603 layer_factory.hpp:77] Creating layer inception_4a/5x5
I0403 13:59:28.728193   603 net.cpp:91] Creating Layer inception_4a/5x5
I0403 13:59:28.728212   603 net.cpp:425] inception_4a/5x5 <- inception_4a/5x5_reduce
I0403 13:59:28.728235   603 net.cpp:399] inception_4a/5x5 -> inception_4a/5x5
I0403 13:59:28.729333   603 net.cpp:141] Setting up inception_4a/5x5
I0403 13:59:28.729360   603 net.cpp:148] Top shape: 24 48 14 14 (225792)
I0403 13:59:28.729375   603 net.cpp:156] Memory required for data: 874568736
I0403 13:59:28.729394   603 layer_factory.hpp:77] Creating layer inception_4a/relu_5x5
I0403 13:59:28.729414   603 net.cpp:91] Creating Layer inception_4a/relu_5x5
I0403 13:59:28.729431   603 net.cpp:425] inception_4a/relu_5x5 <- inception_4a/5x5
I0403 13:59:28.729447   603 net.cpp:386] inception_4a/relu_5x5 -> inception_4a/5x5 (in-place)
I0403 13:59:28.729635   603 net.cpp:141] Setting up inception_4a/relu_5x5
I0403 13:59:28.729660   603 net.cpp:148] Top shape: 24 48 14 14 (225792)
I0403 13:59:28.729676   603 net.cpp:156] Memory required for data: 875471904
I0403 13:59:28.729689   603 layer_factory.hpp:77] Creating layer inception_4a/pool
I0403 13:59:28.729707   603 net.cpp:91] Creating Layer inception_4a/pool
I0403 13:59:28.729722   603 net.cpp:425] inception_4a/pool <- pool3/3x3_s2_pool3/3x3_s2_0_split_3
I0403 13:59:28.729742   603 net.cpp:399] inception_4a/pool -> inception_4a/pool
I0403 13:59:28.729800   603 net.cpp:141] Setting up inception_4a/pool
I0403 13:59:28.729822   603 net.cpp:148] Top shape: 24 480 14 14 (2257920)
I0403 13:59:28.729836   603 net.cpp:156] Memory required for data: 884503584
I0403 13:59:28.729851   603 layer_factory.hpp:77] Creating layer inception_4a/pool_proj
I0403 13:59:28.729872   603 net.cpp:91] Creating Layer inception_4a/pool_proj
I0403 13:59:28.729892   603 net.cpp:425] inception_4a/pool_proj <- inception_4a/pool
I0403 13:59:28.729909   603 net.cpp:399] inception_4a/pool_proj -> inception_4a/pool_proj
I0403 13:59:28.731133   603 net.cpp:141] Setting up inception_4a/pool_proj
I0403 13:59:28.731163   603 net.cpp:148] Top shape: 24 64 14 14 (301056)
I0403 13:59:28.731212   603 net.cpp:156] Memory required for data: 885707808
I0403 13:59:28.731235   603 layer_factory.hpp:77] Creating layer inception_4a/relu_pool_proj
I0403 13:59:28.731254   603 net.cpp:91] Creating Layer inception_4a/relu_pool_proj
I0403 13:59:28.731271   603 net.cpp:425] inception_4a/relu_pool_proj <- inception_4a/pool_proj
I0403 13:59:28.731288   603 net.cpp:386] inception_4a/relu_pool_proj -> inception_4a/pool_proj (in-place)
I0403 13:59:28.731575   603 net.cpp:141] Setting up inception_4a/relu_pool_proj
I0403 13:59:28.731603   603 net.cpp:148] Top shape: 24 64 14 14 (301056)
I0403 13:59:28.731621   603 net.cpp:156] Memory required for data: 886912032
I0403 13:59:28.731634   603 layer_factory.hpp:77] Creating layer inception_4a/output
I0403 13:59:28.731652   603 net.cpp:91] Creating Layer inception_4a/output
I0403 13:59:28.731668   603 net.cpp:425] inception_4a/output <- inception_4a/1x1
I0403 13:59:28.731684   603 net.cpp:425] inception_4a/output <- inception_4a/3x3
I0403 13:59:28.731700   603 net.cpp:425] inception_4a/output <- inception_4a/5x5
I0403 13:59:28.731716   603 net.cpp:425] inception_4a/output <- inception_4a/pool_proj
I0403 13:59:28.731732   603 net.cpp:399] inception_4a/output -> inception_4a/output
I0403 13:59:28.731778   603 net.cpp:141] Setting up inception_4a/output
I0403 13:59:28.731801   603 net.cpp:148] Top shape: 24 512 14 14 (2408448)
I0403 13:59:28.731817   603 net.cpp:156] Memory required for data: 896545824
I0403 13:59:28.731832   603 layer_factory.hpp:77] Creating layer inception_4a/output_inception_4a/output_0_split
I0403 13:59:28.731848   603 net.cpp:91] Creating Layer inception_4a/output_inception_4a/output_0_split
I0403 13:59:28.731864   603 net.cpp:425] inception_4a/output_inception_4a/output_0_split <- inception_4a/output
I0403 13:59:28.731884   603 net.cpp:399] inception_4a/output_inception_4a/output_0_split -> inception_4a/output_inception_4a/output_0_split_0
I0403 13:59:28.731905   603 net.cpp:399] inception_4a/output_inception_4a/output_0_split -> inception_4a/output_inception_4a/output_0_split_1
I0403 13:59:28.731926   603 net.cpp:399] inception_4a/output_inception_4a/output_0_split -> inception_4a/output_inception_4a/output_0_split_2
I0403 13:59:28.731950   603 net.cpp:399] inception_4a/output_inception_4a/output_0_split -> inception_4a/output_inception_4a/output_0_split_3
I0403 13:59:28.731971   603 net.cpp:399] inception_4a/output_inception_4a/output_0_split -> inception_4a/output_inception_4a/output_0_split_4
I0403 13:59:28.732060   603 net.cpp:141] Setting up inception_4a/output_inception_4a/output_0_split
I0403 13:59:28.732084   603 net.cpp:148] Top shape: 24 512 14 14 (2408448)
I0403 13:59:28.732100   603 net.cpp:148] Top shape: 24 512 14 14 (2408448)
I0403 13:59:28.732115   603 net.cpp:148] Top shape: 24 512 14 14 (2408448)
I0403 13:59:28.732131   603 net.cpp:148] Top shape: 24 512 14 14 (2408448)
I0403 13:59:28.732146   603 net.cpp:148] Top shape: 24 512 14 14 (2408448)
I0403 13:59:28.732159   603 net.cpp:156] Memory required for data: 944714784
I0403 13:59:28.732174   603 layer_factory.hpp:77] Creating layer loss1/ave_pool
I0403 13:59:28.732205   603 net.cpp:91] Creating Layer loss1/ave_pool
I0403 13:59:28.732223   603 net.cpp:425] loss1/ave_pool <- inception_4a/output_inception_4a/output_0_split_0
I0403 13:59:28.732244   603 net.cpp:399] loss1/ave_pool -> loss1/ave_pool
I0403 13:59:28.732466   603 net.cpp:141] Setting up loss1/ave_pool
I0403 13:59:28.732496   603 net.cpp:148] Top shape: 24 512 4 4 (196608)
I0403 13:59:28.732511   603 net.cpp:156] Memory required for data: 945501216
I0403 13:59:28.732527   603 layer_factory.hpp:77] Creating layer loss1/conv
I0403 13:59:28.732549   603 net.cpp:91] Creating Layer loss1/conv
I0403 13:59:28.732568   603 net.cpp:425] loss1/conv <- loss1/ave_pool
I0403 13:59:28.732588   603 net.cpp:399] loss1/conv -> loss1/conv
I0403 13:59:28.734030   603 net.cpp:141] Setting up loss1/conv
I0403 13:59:28.734060   603 net.cpp:148] Top shape: 24 128 4 4 (49152)
I0403 13:59:28.734088   603 net.cpp:156] Memory required for data: 945697824
I0403 13:59:28.734108   603 layer_factory.hpp:77] Creating layer loss1/relu_conv
I0403 13:59:28.734127   603 net.cpp:91] Creating Layer loss1/relu_conv
I0403 13:59:28.734155   603 net.cpp:425] loss1/relu_conv <- loss1/conv
I0403 13:59:28.734175   603 net.cpp:386] loss1/relu_conv -> loss1/conv (in-place)
I0403 13:59:28.734483   603 net.cpp:141] Setting up loss1/relu_conv
I0403 13:59:28.734509   603 net.cpp:148] Top shape: 24 128 4 4 (49152)
I0403 13:59:28.734524   603 net.cpp:156] Memory required for data: 945894432
I0403 13:59:28.734552   603 layer_factory.hpp:77] Creating layer loss1/fc
I0403 13:59:28.734576   603 net.cpp:91] Creating Layer loss1/fc
I0403 13:59:28.734594   603 net.cpp:425] loss1/fc <- loss1/conv
I0403 13:59:28.734614   603 net.cpp:399] loss1/fc -> loss1/fc
I0403 13:59:28.752943   603 net.cpp:141] Setting up loss1/fc
I0403 13:59:28.753002   603 net.cpp:148] Top shape: 24 1024 (24576)
I0403 13:59:28.753018   603 net.cpp:156] Memory required for data: 945992736
I0403 13:59:28.753037   603 layer_factory.hpp:77] Creating layer loss1/relu_fc
I0403 13:59:28.753057   603 net.cpp:91] Creating Layer loss1/relu_fc
I0403 13:59:28.753077   603 net.cpp:425] loss1/relu_fc <- loss1/fc
I0403 13:59:28.753095   603 net.cpp:386] loss1/relu_fc -> loss1/fc (in-place)
I0403 13:59:28.753303   603 net.cpp:141] Setting up loss1/relu_fc
I0403 13:59:28.753326   603 net.cpp:148] Top shape: 24 1024 (24576)
I0403 13:59:28.753341   603 net.cpp:156] Memory required for data: 946091040
I0403 13:59:28.753356   603 layer_factory.hpp:77] Creating layer loss1/drop_fc
I0403 13:59:28.753383   603 net.cpp:91] Creating Layer loss1/drop_fc
I0403 13:59:28.753401   603 net.cpp:425] loss1/drop_fc <- loss1/fc
I0403 13:59:28.753420   603 net.cpp:386] loss1/drop_fc -> loss1/fc (in-place)
I0403 13:59:28.753473   603 net.cpp:141] Setting up loss1/drop_fc
I0403 13:59:28.753495   603 net.cpp:148] Top shape: 24 1024 (24576)
I0403 13:59:28.753510   603 net.cpp:156] Memory required for data: 946189344
I0403 13:59:28.753525   603 layer_factory.hpp:77] Creating layer loss1/classifier_plantvillage
I0403 13:59:28.753548   603 net.cpp:91] Creating Layer loss1/classifier_plantvillage
I0403 13:59:28.753566   603 net.cpp:425] loss1/classifier_plantvillage <- loss1/fc
I0403 13:59:28.753583   603 net.cpp:399] loss1/classifier_plantvillage -> loss1/classifier_plantvillage
I0403 13:59:28.754518   603 net.cpp:141] Setting up loss1/classifier_plantvillage
I0403 13:59:28.754560   603 net.cpp:148] Top shape: 24 38 (912)
I0403 13:59:28.754578   603 net.cpp:156] Memory required for data: 946192992
I0403 13:59:28.754596   603 layer_factory.hpp:77] Creating layer loss1/classifier_plantvillage_loss1/classifier_plantvillage_0_split
I0403 13:59:28.754614   603 net.cpp:91] Creating Layer loss1/classifier_plantvillage_loss1/classifier_plantvillage_0_split
I0403 13:59:28.754631   603 net.cpp:425] loss1/classifier_plantvillage_loss1/classifier_plantvillage_0_split <- loss1/classifier_plantvillage
I0403 13:59:28.754649   603 net.cpp:399] loss1/classifier_plantvillage_loss1/classifier_plantvillage_0_split -> loss1/classifier_plantvillage_loss1/classifier_plantvillage_0_split_0
I0403 13:59:28.754672   603 net.cpp:399] loss1/classifier_plantvillage_loss1/classifier_plantvillage_0_split -> loss1/classifier_plantvillage_loss1/classifier_plantvillage_0_split_1
I0403 13:59:28.754693   603 net.cpp:399] loss1/classifier_plantvillage_loss1/classifier_plantvillage_0_split -> loss1/classifier_plantvillage_loss1/classifier_plantvillage_0_split_2
I0403 13:59:28.754760   603 net.cpp:141] Setting up loss1/classifier_plantvillage_loss1/classifier_plantvillage_0_split
I0403 13:59:28.754783   603 net.cpp:148] Top shape: 24 38 (912)
I0403 13:59:28.754799   603 net.cpp:148] Top shape: 24 38 (912)
I0403 13:59:28.754815   603 net.cpp:148] Top shape: 24 38 (912)
I0403 13:59:28.754829   603 net.cpp:156] Memory required for data: 946203936
I0403 13:59:28.754843   603 layer_factory.hpp:77] Creating layer inception_4b/1x1
I0403 13:59:28.754863   603 net.cpp:91] Creating Layer inception_4b/1x1
I0403 13:59:28.754902   603 net.cpp:425] inception_4b/1x1 <- inception_4a/output_inception_4a/output_0_split_1
I0403 13:59:28.754925   603 net.cpp:399] inception_4b/1x1 -> inception_4b/1x1
I0403 13:59:28.756602   603 net.cpp:141] Setting up inception_4b/1x1
I0403 13:59:28.756629   603 net.cpp:148] Top shape: 24 160 14 14 (752640)
I0403 13:59:28.756645   603 net.cpp:156] Memory required for data: 949214496
I0403 13:59:28.756664   603 layer_factory.hpp:77] Creating layer inception_4b/relu_1x1
I0403 13:59:28.756681   603 net.cpp:91] Creating Layer inception_4b/relu_1x1
I0403 13:59:28.756698   603 net.cpp:425] inception_4b/relu_1x1 <- inception_4b/1x1
I0403 13:59:28.756718   603 net.cpp:386] inception_4b/relu_1x1 -> inception_4b/1x1 (in-place)
I0403 13:59:28.756897   603 net.cpp:141] Setting up inception_4b/relu_1x1
I0403 13:59:28.756922   603 net.cpp:148] Top shape: 24 160 14 14 (752640)
I0403 13:59:28.756937   603 net.cpp:156] Memory required for data: 952225056
I0403 13:59:28.756953   603 layer_factory.hpp:77] Creating layer inception_4b/3x3_reduce
I0403 13:59:28.756974   603 net.cpp:91] Creating Layer inception_4b/3x3_reduce
I0403 13:59:28.756991   603 net.cpp:425] inception_4b/3x3_reduce <- inception_4a/output_inception_4a/output_0_split_2
I0403 13:59:28.757015   603 net.cpp:399] inception_4b/3x3_reduce -> inception_4b/3x3_reduce
I0403 13:59:28.758390   603 net.cpp:141] Setting up inception_4b/3x3_reduce
I0403 13:59:28.758419   603 net.cpp:148] Top shape: 24 112 14 14 (526848)
I0403 13:59:28.758435   603 net.cpp:156] Memory required for data: 954332448
I0403 13:59:28.758453   603 layer_factory.hpp:77] Creating layer inception_4b/relu_3x3_reduce
I0403 13:59:28.758476   603 net.cpp:91] Creating Layer inception_4b/relu_3x3_reduce
I0403 13:59:28.758492   603 net.cpp:425] inception_4b/relu_3x3_reduce <- inception_4b/3x3_reduce
I0403 13:59:28.758512   603 net.cpp:386] inception_4b/relu_3x3_reduce -> inception_4b/3x3_reduce (in-place)
I0403 13:59:28.758805   603 net.cpp:141] Setting up inception_4b/relu_3x3_reduce
I0403 13:59:28.758832   603 net.cpp:148] Top shape: 24 112 14 14 (526848)
I0403 13:59:28.758847   603 net.cpp:156] Memory required for data: 956439840
I0403 13:59:28.758862   603 layer_factory.hpp:77] Creating layer inception_4b/3x3
I0403 13:59:28.758885   603 net.cpp:91] Creating Layer inception_4b/3x3
I0403 13:59:28.758903   603 net.cpp:425] inception_4b/3x3 <- inception_4b/3x3_reduce
I0403 13:59:28.758926   603 net.cpp:399] inception_4b/3x3 -> inception_4b/3x3
I0403 13:59:28.761924   603 net.cpp:141] Setting up inception_4b/3x3
I0403 13:59:28.761955   603 net.cpp:148] Top shape: 24 224 14 14 (1053696)
I0403 13:59:28.761972   603 net.cpp:156] Memory required for data: 960654624
I0403 13:59:28.761991   603 layer_factory.hpp:77] Creating layer inception_4b/relu_3x3
I0403 13:59:28.762009   603 net.cpp:91] Creating Layer inception_4b/relu_3x3
I0403 13:59:28.762027   603 net.cpp:425] inception_4b/relu_3x3 <- inception_4b/3x3
I0403 13:59:28.762043   603 net.cpp:386] inception_4b/relu_3x3 -> inception_4b/3x3 (in-place)
I0403 13:59:28.762243   603 net.cpp:141] Setting up inception_4b/relu_3x3
I0403 13:59:28.762282   603 net.cpp:148] Top shape: 24 224 14 14 (1053696)
I0403 13:59:28.762297   603 net.cpp:156] Memory required for data: 964869408
I0403 13:59:28.762313   603 layer_factory.hpp:77] Creating layer inception_4b/5x5_reduce
I0403 13:59:28.762336   603 net.cpp:91] Creating Layer inception_4b/5x5_reduce
I0403 13:59:28.762356   603 net.cpp:425] inception_4b/5x5_reduce <- inception_4a/output_inception_4a/output_0_split_3
I0403 13:59:28.762377   603 net.cpp:399] inception_4b/5x5_reduce -> inception_4b/5x5_reduce
I0403 13:59:28.763489   603 net.cpp:141] Setting up inception_4b/5x5_reduce
I0403 13:59:28.763517   603 net.cpp:148] Top shape: 24 24 14 14 (112896)
I0403 13:59:28.763533   603 net.cpp:156] Memory required for data: 965320992
I0403 13:59:28.763550   603 layer_factory.hpp:77] Creating layer inception_4b/relu_5x5_reduce
I0403 13:59:28.763571   603 net.cpp:91] Creating Layer inception_4b/relu_5x5_reduce
I0403 13:59:28.763602   603 net.cpp:425] inception_4b/relu_5x5_reduce <- inception_4b/5x5_reduce
I0403 13:59:28.763622   603 net.cpp:386] inception_4b/relu_5x5_reduce -> inception_4b/5x5_reduce (in-place)
I0403 13:59:28.763809   603 net.cpp:141] Setting up inception_4b/relu_5x5_reduce
I0403 13:59:28.763833   603 net.cpp:148] Top shape: 24 24 14 14 (112896)
I0403 13:59:28.763849   603 net.cpp:156] Memory required for data: 965772576
I0403 13:59:28.763864   603 layer_factory.hpp:77] Creating layer inception_4b/5x5
I0403 13:59:28.763887   603 net.cpp:91] Creating Layer inception_4b/5x5
I0403 13:59:28.763906   603 net.cpp:425] inception_4b/5x5 <- inception_4b/5x5_reduce
I0403 13:59:28.763924   603 net.cpp:399] inception_4b/5x5 -> inception_4b/5x5
I0403 13:59:28.765157   603 net.cpp:141] Setting up inception_4b/5x5
I0403 13:59:28.765192   603 net.cpp:148] Top shape: 24 64 14 14 (301056)
I0403 13:59:28.765209   603 net.cpp:156] Memory required for data: 966976800
I0403 13:59:28.765228   603 layer_factory.hpp:77] Creating layer inception_4b/relu_5x5
I0403 13:59:28.765245   603 net.cpp:91] Creating Layer inception_4b/relu_5x5
I0403 13:59:28.765274   603 net.cpp:425] inception_4b/relu_5x5 <- inception_4b/5x5
I0403 13:59:28.765295   603 net.cpp:386] inception_4b/relu_5x5 -> inception_4b/5x5 (in-place)
I0403 13:59:28.765600   603 net.cpp:141] Setting up inception_4b/relu_5x5
I0403 13:59:28.765626   603 net.cpp:148] Top shape: 24 64 14 14 (301056)
I0403 13:59:28.765641   603 net.cpp:156] Memory required for data: 968181024
I0403 13:59:28.765656   603 layer_factory.hpp:77] Creating layer inception_4b/pool
I0403 13:59:28.765676   603 net.cpp:91] Creating Layer inception_4b/pool
I0403 13:59:28.765691   603 net.cpp:425] inception_4b/pool <- inception_4a/output_inception_4a/output_0_split_4
I0403 13:59:28.765712   603 net.cpp:399] inception_4b/pool -> inception_4b/pool
I0403 13:59:28.765777   603 net.cpp:141] Setting up inception_4b/pool
I0403 13:59:28.765800   603 net.cpp:148] Top shape: 24 512 14 14 (2408448)
I0403 13:59:28.765815   603 net.cpp:156] Memory required for data: 977814816
I0403 13:59:28.765830   603 layer_factory.hpp:77] Creating layer inception_4b/pool_proj
I0403 13:59:28.765852   603 net.cpp:91] Creating Layer inception_4b/pool_proj
I0403 13:59:28.765871   603 net.cpp:425] inception_4b/pool_proj <- inception_4b/pool
I0403 13:59:28.765889   603 net.cpp:399] inception_4b/pool_proj -> inception_4b/pool_proj
I0403 13:59:28.767129   603 net.cpp:141] Setting up inception_4b/pool_proj
I0403 13:59:28.767156   603 net.cpp:148] Top shape: 24 64 14 14 (301056)
I0403 13:59:28.767173   603 net.cpp:156] Memory required for data: 979019040
I0403 13:59:28.767199   603 layer_factory.hpp:77] Creating layer inception_4b/relu_pool_proj
I0403 13:59:28.767220   603 net.cpp:91] Creating Layer inception_4b/relu_pool_proj
I0403 13:59:28.767236   603 net.cpp:425] inception_4b/relu_pool_proj <- inception_4b/pool_proj
I0403 13:59:28.767254   603 net.cpp:386] inception_4b/relu_pool_proj -> inception_4b/pool_proj (in-place)
I0403 13:59:28.767436   603 net.cpp:141] Setting up inception_4b/relu_pool_proj
I0403 13:59:28.767463   603 net.cpp:148] Top shape: 24 64 14 14 (301056)
I0403 13:59:28.767478   603 net.cpp:156] Memory required for data: 980223264
I0403 13:59:28.767493   603 layer_factory.hpp:77] Creating layer inception_4b/output
I0403 13:59:28.767511   603 net.cpp:91] Creating Layer inception_4b/output
I0403 13:59:28.767526   603 net.cpp:425] inception_4b/output <- inception_4b/1x1
I0403 13:59:28.767544   603 net.cpp:425] inception_4b/output <- inception_4b/3x3
I0403 13:59:28.767560   603 net.cpp:425] inception_4b/output <- inception_4b/5x5
I0403 13:59:28.767575   603 net.cpp:425] inception_4b/output <- inception_4b/pool_proj
I0403 13:59:28.767591   603 net.cpp:399] inception_4b/output -> inception_4b/output
I0403 13:59:28.767638   603 net.cpp:141] Setting up inception_4b/output
I0403 13:59:28.767662   603 net.cpp:148] Top shape: 24 512 14 14 (2408448)
I0403 13:59:28.767676   603 net.cpp:156] Memory required for data: 989857056
I0403 13:59:28.767704   603 layer_factory.hpp:77] Creating layer inception_4b/output_inception_4b/output_0_split
I0403 13:59:28.767724   603 net.cpp:91] Creating Layer inception_4b/output_inception_4b/output_0_split
I0403 13:59:28.767738   603 net.cpp:425] inception_4b/output_inception_4b/output_0_split <- inception_4b/output
I0403 13:59:28.767758   603 net.cpp:399] inception_4b/output_inception_4b/output_0_split -> inception_4b/output_inception_4b/output_0_split_0
I0403 13:59:28.767779   603 net.cpp:399] inception_4b/output_inception_4b/output_0_split -> inception_4b/output_inception_4b/output_0_split_1
I0403 13:59:28.767801   603 net.cpp:399] inception_4b/output_inception_4b/output_0_split -> inception_4b/output_inception_4b/output_0_split_2
I0403 13:59:28.767820   603 net.cpp:399] inception_4b/output_inception_4b/output_0_split -> inception_4b/output_inception_4b/output_0_split_3
I0403 13:59:28.767905   603 net.cpp:141] Setting up inception_4b/output_inception_4b/output_0_split
I0403 13:59:28.767928   603 net.cpp:148] Top shape: 24 512 14 14 (2408448)
I0403 13:59:28.767945   603 net.cpp:148] Top shape: 24 512 14 14 (2408448)
I0403 13:59:28.767961   603 net.cpp:148] Top shape: 24 512 14 14 (2408448)
I0403 13:59:28.767976   603 net.cpp:148] Top shape: 24 512 14 14 (2408448)
I0403 13:59:28.767990   603 net.cpp:156] Memory required for data: 1028392224
I0403 13:59:28.768004   603 layer_factory.hpp:77] Creating layer inception_4c/1x1
I0403 13:59:28.768026   603 net.cpp:91] Creating Layer inception_4c/1x1
I0403 13:59:28.768044   603 net.cpp:425] inception_4c/1x1 <- inception_4b/output_inception_4b/output_0_split_0
I0403 13:59:28.768065   603 net.cpp:399] inception_4c/1x1 -> inception_4c/1x1
I0403 13:59:28.769502   603 net.cpp:141] Setting up inception_4c/1x1
I0403 13:59:28.769533   603 net.cpp:148] Top shape: 24 128 14 14 (602112)
I0403 13:59:28.769549   603 net.cpp:156] Memory required for data: 1030800672
I0403 13:59:28.769568   603 layer_factory.hpp:77] Creating layer inception_4c/relu_1x1
I0403 13:59:28.769587   603 net.cpp:91] Creating Layer inception_4c/relu_1x1
I0403 13:59:28.769603   603 net.cpp:425] inception_4c/relu_1x1 <- inception_4c/1x1
I0403 13:59:28.769619   603 net.cpp:386] inception_4c/relu_1x1 -> inception_4c/1x1 (in-place)
I0403 13:59:28.769804   603 net.cpp:141] Setting up inception_4c/relu_1x1
I0403 13:59:28.769830   603 net.cpp:148] Top shape: 24 128 14 14 (602112)
I0403 13:59:28.769845   603 net.cpp:156] Memory required for data: 1033209120
I0403 13:59:28.769860   603 layer_factory.hpp:77] Creating layer inception_4c/3x3_reduce
I0403 13:59:28.769884   603 net.cpp:91] Creating Layer inception_4c/3x3_reduce
I0403 13:59:28.769902   603 net.cpp:425] inception_4c/3x3_reduce <- inception_4b/output_inception_4b/output_0_split_1
I0403 13:59:28.769924   603 net.cpp:399] inception_4c/3x3_reduce -> inception_4c/3x3_reduce
I0403 13:59:28.771899   603 net.cpp:141] Setting up inception_4c/3x3_reduce
I0403 13:59:28.771929   603 net.cpp:148] Top shape: 24 128 14 14 (602112)
I0403 13:59:28.771944   603 net.cpp:156] Memory required for data: 1035617568
I0403 13:59:28.771962   603 layer_factory.hpp:77] Creating layer inception_4c/relu_3x3_reduce
I0403 13:59:28.771981   603 net.cpp:91] Creating Layer inception_4c/relu_3x3_reduce
I0403 13:59:28.771999   603 net.cpp:425] inception_4c/relu_3x3_reduce <- inception_4c/3x3_reduce
I0403 13:59:28.772017   603 net.cpp:386] inception_4c/relu_3x3_reduce -> inception_4c/3x3_reduce (in-place)
I0403 13:59:28.772315   603 net.cpp:141] Setting up inception_4c/relu_3x3_reduce
I0403 13:59:28.772341   603 net.cpp:148] Top shape: 24 128 14 14 (602112)
I0403 13:59:28.772356   603 net.cpp:156] Memory required for data: 1038026016
I0403 13:59:28.772372   603 layer_factory.hpp:77] Creating layer inception_4c/3x3
I0403 13:59:28.772393   603 net.cpp:91] Creating Layer inception_4c/3x3
I0403 13:59:28.772411   603 net.cpp:425] inception_4c/3x3 <- inception_4c/3x3_reduce
I0403 13:59:28.772433   603 net.cpp:399] inception_4c/3x3 -> inception_4c/3x3
I0403 13:59:28.776132   603 net.cpp:141] Setting up inception_4c/3x3
I0403 13:59:28.776175   603 net.cpp:148] Top shape: 24 256 14 14 (1204224)
I0403 13:59:28.776198   603 net.cpp:156] Memory required for data: 1042842912
I0403 13:59:28.776232   603 layer_factory.hpp:77] Creating layer inception_4c/relu_3x3
I0403 13:59:28.776252   603 net.cpp:91] Creating Layer inception_4c/relu_3x3
I0403 13:59:28.776268   603 net.cpp:425] inception_4c/relu_3x3 <- inception_4c/3x3
I0403 13:59:28.776288   603 net.cpp:386] inception_4c/relu_3x3 -> inception_4c/3x3 (in-place)
I0403 13:59:28.776471   603 net.cpp:141] Setting up inception_4c/relu_3x3
I0403 13:59:28.776496   603 net.cpp:148] Top shape: 24 256 14 14 (1204224)
I0403 13:59:28.776511   603 net.cpp:156] Memory required for data: 1047659808
I0403 13:59:28.776526   603 layer_factory.hpp:77] Creating layer inception_4c/5x5_reduce
I0403 13:59:28.776548   603 net.cpp:91] Creating Layer inception_4c/5x5_reduce
I0403 13:59:28.776566   603 net.cpp:425] inception_4c/5x5_reduce <- inception_4b/output_inception_4b/output_0_split_2
I0403 13:59:28.776587   603 net.cpp:399] inception_4c/5x5_reduce -> inception_4c/5x5_reduce
I0403 13:59:28.777693   603 net.cpp:141] Setting up inception_4c/5x5_reduce
I0403 13:59:28.777719   603 net.cpp:148] Top shape: 24 24 14 14 (112896)
I0403 13:59:28.777735   603 net.cpp:156] Memory required for data: 1048111392
I0403 13:59:28.777753   603 layer_factory.hpp:77] Creating layer inception_4c/relu_5x5_reduce
I0403 13:59:28.777775   603 net.cpp:91] Creating Layer inception_4c/relu_5x5_reduce
I0403 13:59:28.777791   603 net.cpp:425] inception_4c/relu_5x5_reduce <- inception_4c/5x5_reduce
I0403 13:59:28.777808   603 net.cpp:386] inception_4c/relu_5x5_reduce -> inception_4c/5x5_reduce (in-place)
I0403 13:59:28.777994   603 net.cpp:141] Setting up inception_4c/relu_5x5_reduce
I0403 13:59:28.778019   603 net.cpp:148] Top shape: 24 24 14 14 (112896)
I0403 13:59:28.778033   603 net.cpp:156] Memory required for data: 1048562976
I0403 13:59:28.778048   603 layer_factory.hpp:77] Creating layer inception_4c/5x5
I0403 13:59:28.778074   603 net.cpp:91] Creating Layer inception_4c/5x5
I0403 13:59:28.778092   603 net.cpp:425] inception_4c/5x5 <- inception_4c/5x5_reduce
I0403 13:59:28.778111   603 net.cpp:399] inception_4c/5x5 -> inception_4c/5x5
I0403 13:59:28.779399   603 net.cpp:141] Setting up inception_4c/5x5
I0403 13:59:28.779427   603 net.cpp:148] Top shape: 24 64 14 14 (301056)
I0403 13:59:28.779445   603 net.cpp:156] Memory required for data: 1049767200
I0403 13:59:28.779464   603 layer_factory.hpp:77] Creating layer inception_4c/relu_5x5
I0403 13:59:28.779481   603 net.cpp:91] Creating Layer inception_4c/relu_5x5
I0403 13:59:28.779497   603 net.cpp:425] inception_4c/relu_5x5 <- inception_4c/5x5
I0403 13:59:28.779515   603 net.cpp:386] inception_4c/relu_5x5 -> inception_4c/5x5 (in-place)
I0403 13:59:28.779805   603 net.cpp:141] Setting up inception_4c/relu_5x5
I0403 13:59:28.779831   603 net.cpp:148] Top shape: 24 64 14 14 (301056)
I0403 13:59:28.779850   603 net.cpp:156] Memory required for data: 1050971424
I0403 13:59:28.779865   603 layer_factory.hpp:77] Creating layer inception_4c/pool
I0403 13:59:28.779882   603 net.cpp:91] Creating Layer inception_4c/pool
I0403 13:59:28.779899   603 net.cpp:425] inception_4c/pool <- inception_4b/output_inception_4b/output_0_split_3
I0403 13:59:28.779917   603 net.cpp:399] inception_4c/pool -> inception_4c/pool
I0403 13:59:28.779983   603 net.cpp:141] Setting up inception_4c/pool
I0403 13:59:28.780009   603 net.cpp:148] Top shape: 24 512 14 14 (2408448)
I0403 13:59:28.780022   603 net.cpp:156] Memory required for data: 1060605216
I0403 13:59:28.780037   603 layer_factory.hpp:77] Creating layer inception_4c/pool_proj
I0403 13:59:28.780058   603 net.cpp:91] Creating Layer inception_4c/pool_proj
I0403 13:59:28.780077   603 net.cpp:425] inception_4c/pool_proj <- inception_4c/pool
I0403 13:59:28.780098   603 net.cpp:399] inception_4c/pool_proj -> inception_4c/pool_proj
I0403 13:59:28.781357   603 net.cpp:141] Setting up inception_4c/pool_proj
I0403 13:59:28.781384   603 net.cpp:148] Top shape: 24 64 14 14 (301056)
I0403 13:59:28.781414   603 net.cpp:156] Memory required for data: 1061809440
I0403 13:59:28.781435   603 layer_factory.hpp:77] Creating layer inception_4c/relu_pool_proj
I0403 13:59:28.781452   603 net.cpp:91] Creating Layer inception_4c/relu_pool_proj
I0403 13:59:28.781471   603 net.cpp:425] inception_4c/relu_pool_proj <- inception_4c/pool_proj
I0403 13:59:28.781491   603 net.cpp:386] inception_4c/relu_pool_proj -> inception_4c/pool_proj (in-place)
I0403 13:59:28.781692   603 net.cpp:141] Setting up inception_4c/relu_pool_proj
I0403 13:59:28.781718   603 net.cpp:148] Top shape: 24 64 14 14 (301056)
I0403 13:59:28.781733   603 net.cpp:156] Memory required for data: 1063013664
I0403 13:59:28.781747   603 layer_factory.hpp:77] Creating layer inception_4c/output
I0403 13:59:28.781766   603 net.cpp:91] Creating Layer inception_4c/output
I0403 13:59:28.781783   603 net.cpp:425] inception_4c/output <- inception_4c/1x1
I0403 13:59:28.781800   603 net.cpp:425] inception_4c/output <- inception_4c/3x3
I0403 13:59:28.781816   603 net.cpp:425] inception_4c/output <- inception_4c/5x5
I0403 13:59:28.781832   603 net.cpp:425] inception_4c/output <- inception_4c/pool_proj
I0403 13:59:28.781849   603 net.cpp:399] inception_4c/output -> inception_4c/output
I0403 13:59:28.781898   603 net.cpp:141] Setting up inception_4c/output
I0403 13:59:28.781921   603 net.cpp:148] Top shape: 24 512 14 14 (2408448)
I0403 13:59:28.781936   603 net.cpp:156] Memory required for data: 1072647456
I0403 13:59:28.781950   603 layer_factory.hpp:77] Creating layer inception_4c/output_inception_4c/output_0_split
I0403 13:59:28.781967   603 net.cpp:91] Creating Layer inception_4c/output_inception_4c/output_0_split
I0403 13:59:28.782145   603 net.cpp:425] inception_4c/output_inception_4c/output_0_split <- inception_4c/output
I0403 13:59:28.782232   603 net.cpp:399] inception_4c/output_inception_4c/output_0_split -> inception_4c/output_inception_4c/output_0_split_0
I0403 13:59:28.782279   603 net.cpp:399] inception_4c/output_inception_4c/output_0_split -> inception_4c/output_inception_4c/output_0_split_1
I0403 13:59:28.782300   603 net.cpp:399] inception_4c/output_inception_4c/output_0_split -> inception_4c/output_inception_4c/output_0_split_2
I0403 13:59:28.782323   603 net.cpp:399] inception_4c/output_inception_4c/output_0_split -> inception_4c/output_inception_4c/output_0_split_3
I0403 13:59:28.782416   603 net.cpp:141] Setting up inception_4c/output_inception_4c/output_0_split
I0403 13:59:28.782441   603 net.cpp:148] Top shape: 24 512 14 14 (2408448)
I0403 13:59:28.782459   603 net.cpp:148] Top shape: 24 512 14 14 (2408448)
I0403 13:59:28.782474   603 net.cpp:148] Top shape: 24 512 14 14 (2408448)
I0403 13:59:28.782491   603 net.cpp:148] Top shape: 24 512 14 14 (2408448)
I0403 13:59:28.782505   603 net.cpp:156] Memory required for data: 1111182624
I0403 13:59:28.782521   603 layer_factory.hpp:77] Creating layer inception_4d/1x1
I0403 13:59:28.782555   603 net.cpp:91] Creating Layer inception_4d/1x1
I0403 13:59:28.782585   603 net.cpp:425] inception_4d/1x1 <- inception_4c/output_inception_4c/output_0_split_0
I0403 13:59:28.782608   603 net.cpp:399] inception_4d/1x1 -> inception_4d/1x1
I0403 13:59:28.784049   603 net.cpp:141] Setting up inception_4d/1x1
I0403 13:59:28.784078   603 net.cpp:148] Top shape: 24 112 14 14 (526848)
I0403 13:59:28.784095   603 net.cpp:156] Memory required for data: 1113290016
I0403 13:59:28.784112   603 layer_factory.hpp:77] Creating layer inception_4d/relu_1x1
I0403 13:59:28.784132   603 net.cpp:91] Creating Layer inception_4d/relu_1x1
I0403 13:59:28.784147   603 net.cpp:425] inception_4d/relu_1x1 <- inception_4d/1x1
I0403 13:59:28.784168   603 net.cpp:386] inception_4d/relu_1x1 -> inception_4d/1x1 (in-place)
I0403 13:59:28.784368   603 net.cpp:141] Setting up inception_4d/relu_1x1
I0403 13:59:28.784394   603 net.cpp:148] Top shape: 24 112 14 14 (526848)
I0403 13:59:28.784409   603 net.cpp:156] Memory required for data: 1115397408
I0403 13:59:28.784423   603 layer_factory.hpp:77] Creating layer inception_4d/3x3_reduce
I0403 13:59:28.784461   603 net.cpp:91] Creating Layer inception_4d/3x3_reduce
I0403 13:59:28.784479   603 net.cpp:425] inception_4d/3x3_reduce <- inception_4c/output_inception_4c/output_0_split_1
I0403 13:59:28.784502   603 net.cpp:399] inception_4d/3x3_reduce -> inception_4d/3x3_reduce
I0403 13:59:28.786074   603 net.cpp:141] Setting up inception_4d/3x3_reduce
I0403 13:59:28.786103   603 net.cpp:148] Top shape: 24 144 14 14 (677376)
I0403 13:59:28.786119   603 net.cpp:156] Memory required for data: 1118106912
I0403 13:59:28.786139   603 layer_factory.hpp:77] Creating layer inception_4d/relu_3x3_reduce
I0403 13:59:28.786160   603 net.cpp:91] Creating Layer inception_4d/relu_3x3_reduce
I0403 13:59:28.786185   603 net.cpp:425] inception_4d/relu_3x3_reduce <- inception_4d/3x3_reduce
I0403 13:59:28.786204   603 net.cpp:386] inception_4d/relu_3x3_reduce -> inception_4d/3x3_reduce (in-place)
I0403 13:59:28.786525   603 net.cpp:141] Setting up inception_4d/relu_3x3_reduce
I0403 13:59:28.786566   603 net.cpp:148] Top shape: 24 144 14 14 (677376)
I0403 13:59:28.786581   603 net.cpp:156] Memory required for data: 1120816416
I0403 13:59:28.786595   603 layer_factory.hpp:77] Creating layer inception_4d/3x3
I0403 13:59:28.786623   603 net.cpp:91] Creating Layer inception_4d/3x3
I0403 13:59:28.786640   603 net.cpp:425] inception_4d/3x3 <- inception_4d/3x3_reduce
I0403 13:59:28.786660   603 net.cpp:399] inception_4d/3x3 -> inception_4d/3x3
I0403 13:59:28.791159   603 net.cpp:141] Setting up inception_4d/3x3
I0403 13:59:28.791198   603 net.cpp:148] Top shape: 24 288 14 14 (1354752)
I0403 13:59:28.791216   603 net.cpp:156] Memory required for data: 1126235424
I0403 13:59:28.791235   603 layer_factory.hpp:77] Creating layer inception_4d/relu_3x3
I0403 13:59:28.791254   603 net.cpp:91] Creating Layer inception_4d/relu_3x3
I0403 13:59:28.791271   603 net.cpp:425] inception_4d/relu_3x3 <- inception_4d/3x3
I0403 13:59:28.791291   603 net.cpp:386] inception_4d/relu_3x3 -> inception_4d/3x3 (in-place)
I0403 13:59:28.791487   603 net.cpp:141] Setting up inception_4d/relu_3x3
I0403 13:59:28.791513   603 net.cpp:148] Top shape: 24 288 14 14 (1354752)
I0403 13:59:28.791528   603 net.cpp:156] Memory required for data: 1131654432
I0403 13:59:28.791543   603 layer_factory.hpp:77] Creating layer inception_4d/5x5_reduce
I0403 13:59:28.791566   603 net.cpp:91] Creating Layer inception_4d/5x5_reduce
I0403 13:59:28.791584   603 net.cpp:425] inception_4d/5x5_reduce <- inception_4c/output_inception_4c/output_0_split_2
I0403 13:59:28.791607   603 net.cpp:399] inception_4d/5x5_reduce -> inception_4d/5x5_reduce
I0403 13:59:28.792832   603 net.cpp:141] Setting up inception_4d/5x5_reduce
I0403 13:59:28.792861   603 net.cpp:148] Top shape: 24 32 14 14 (150528)
I0403 13:59:28.792876   603 net.cpp:156] Memory required for data: 1132256544
I0403 13:59:28.792896   603 layer_factory.hpp:77] Creating layer inception_4d/relu_5x5_reduce
I0403 13:59:28.792914   603 net.cpp:91] Creating Layer inception_4d/relu_5x5_reduce
I0403 13:59:28.792932   603 net.cpp:425] inception_4d/relu_5x5_reduce <- inception_4d/5x5_reduce
I0403 13:59:28.792950   603 net.cpp:386] inception_4d/relu_5x5_reduce -> inception_4d/5x5_reduce (in-place)
I0403 13:59:28.793150   603 net.cpp:141] Setting up inception_4d/relu_5x5_reduce
I0403 13:59:28.793175   603 net.cpp:148] Top shape: 24 32 14 14 (150528)
I0403 13:59:28.793198   603 net.cpp:156] Memory required for data: 1132858656
I0403 13:59:28.793215   603 layer_factory.hpp:77] Creating layer inception_4d/5x5
I0403 13:59:28.793246   603 net.cpp:91] Creating Layer inception_4d/5x5
I0403 13:59:28.793264   603 net.cpp:425] inception_4d/5x5 <- inception_4d/5x5_reduce
I0403 13:59:28.793287   603 net.cpp:399] inception_4d/5x5 -> inception_4d/5x5
I0403 13:59:28.794867   603 net.cpp:141] Setting up inception_4d/5x5
I0403 13:59:28.794895   603 net.cpp:148] Top shape: 24 64 14 14 (301056)
I0403 13:59:28.794911   603 net.cpp:156] Memory required for data: 1134062880
I0403 13:59:28.794931   603 layer_factory.hpp:77] Creating layer inception_4d/relu_5x5
I0403 13:59:28.794967   603 net.cpp:91] Creating Layer inception_4d/relu_5x5
I0403 13:59:28.794986   603 net.cpp:425] inception_4d/relu_5x5 <- inception_4d/5x5
I0403 13:59:28.795004   603 net.cpp:386] inception_4d/relu_5x5 -> inception_4d/5x5 (in-place)
I0403 13:59:28.795326   603 net.cpp:141] Setting up inception_4d/relu_5x5
I0403 13:59:28.795353   603 net.cpp:148] Top shape: 24 64 14 14 (301056)
I0403 13:59:28.795369   603 net.cpp:156] Memory required for data: 1135267104
I0403 13:59:28.795384   603 layer_factory.hpp:77] Creating layer inception_4d/pool
I0403 13:59:28.795406   603 net.cpp:91] Creating Layer inception_4d/pool
I0403 13:59:28.795424   603 net.cpp:425] inception_4d/pool <- inception_4c/output_inception_4c/output_0_split_3
I0403 13:59:28.795442   603 net.cpp:399] inception_4d/pool -> inception_4d/pool
I0403 13:59:28.795513   603 net.cpp:141] Setting up inception_4d/pool
I0403 13:59:28.795537   603 net.cpp:148] Top shape: 24 512 14 14 (2408448)
I0403 13:59:28.795552   603 net.cpp:156] Memory required for data: 1144900896
I0403 13:59:28.795567   603 layer_factory.hpp:77] Creating layer inception_4d/pool_proj
I0403 13:59:28.795590   603 net.cpp:91] Creating Layer inception_4d/pool_proj
I0403 13:59:28.795608   603 net.cpp:425] inception_4d/pool_proj <- inception_4d/pool
I0403 13:59:28.795630   603 net.cpp:399] inception_4d/pool_proj -> inception_4d/pool_proj
I0403 13:59:28.797493   603 net.cpp:141] Setting up inception_4d/pool_proj
I0403 13:59:28.797526   603 net.cpp:148] Top shape: 24 64 14 14 (301056)
I0403 13:59:28.797556   603 net.cpp:156] Memory required for data: 1146105120
I0403 13:59:28.797575   603 layer_factory.hpp:77] Creating layer inception_4d/relu_pool_proj
I0403 13:59:28.797593   603 net.cpp:91] Creating Layer inception_4d/relu_pool_proj
I0403 13:59:28.797611   603 net.cpp:425] inception_4d/relu_pool_proj <- inception_4d/pool_proj
I0403 13:59:28.797631   603 net.cpp:386] inception_4d/relu_pool_proj -> inception_4d/pool_proj (in-place)
I0403 13:59:28.797826   603 net.cpp:141] Setting up inception_4d/relu_pool_proj
I0403 13:59:28.797850   603 net.cpp:148] Top shape: 24 64 14 14 (301056)
I0403 13:59:28.797866   603 net.cpp:156] Memory required for data: 1147309344
I0403 13:59:28.797881   603 layer_factory.hpp:77] Creating layer inception_4d/output
I0403 13:59:28.797899   603 net.cpp:91] Creating Layer inception_4d/output
I0403 13:59:28.797916   603 net.cpp:425] inception_4d/output <- inception_4d/1x1
I0403 13:59:28.797933   603 net.cpp:425] inception_4d/output <- inception_4d/3x3
I0403 13:59:28.797950   603 net.cpp:425] inception_4d/output <- inception_4d/5x5
I0403 13:59:28.797966   603 net.cpp:425] inception_4d/output <- inception_4d/pool_proj
I0403 13:59:28.797986   603 net.cpp:399] inception_4d/output -> inception_4d/output
I0403 13:59:28.798039   603 net.cpp:141] Setting up inception_4d/output
I0403 13:59:28.798063   603 net.cpp:148] Top shape: 24 528 14 14 (2483712)
I0403 13:59:28.798077   603 net.cpp:156] Memory required for data: 1157244192
I0403 13:59:28.798092   603 layer_factory.hpp:77] Creating layer inception_4d/output_inception_4d/output_0_split
I0403 13:59:28.798111   603 net.cpp:91] Creating Layer inception_4d/output_inception_4d/output_0_split
I0403 13:59:28.798127   603 net.cpp:425] inception_4d/output_inception_4d/output_0_split <- inception_4d/output
I0403 13:59:28.798152   603 net.cpp:399] inception_4d/output_inception_4d/output_0_split -> inception_4d/output_inception_4d/output_0_split_0
I0403 13:59:28.798174   603 net.cpp:399] inception_4d/output_inception_4d/output_0_split -> inception_4d/output_inception_4d/output_0_split_1
I0403 13:59:28.798204   603 net.cpp:399] inception_4d/output_inception_4d/output_0_split -> inception_4d/output_inception_4d/output_0_split_2
I0403 13:59:28.798226   603 net.cpp:399] inception_4d/output_inception_4d/output_0_split -> inception_4d/output_inception_4d/output_0_split_3
I0403 13:59:28.798260   603 net.cpp:399] inception_4d/output_inception_4d/output_0_split -> inception_4d/output_inception_4d/output_0_split_4
I0403 13:59:28.798369   603 net.cpp:141] Setting up inception_4d/output_inception_4d/output_0_split
I0403 13:59:28.798410   603 net.cpp:148] Top shape: 24 528 14 14 (2483712)
I0403 13:59:28.798429   603 net.cpp:148] Top shape: 24 528 14 14 (2483712)
I0403 13:59:28.798446   603 net.cpp:148] Top shape: 24 528 14 14 (2483712)
I0403 13:59:28.798462   603 net.cpp:148] Top shape: 24 528 14 14 (2483712)
I0403 13:59:28.798478   603 net.cpp:148] Top shape: 24 528 14 14 (2483712)
I0403 13:59:28.798493   603 net.cpp:156] Memory required for data: 1206918432
I0403 13:59:28.798509   603 layer_factory.hpp:77] Creating layer loss2/ave_pool
I0403 13:59:28.798528   603 net.cpp:91] Creating Layer loss2/ave_pool
I0403 13:59:28.798557   603 net.cpp:425] loss2/ave_pool <- inception_4d/output_inception_4d/output_0_split_0
I0403 13:59:28.798579   603 net.cpp:399] loss2/ave_pool -> loss2/ave_pool
I0403 13:59:28.798903   603 net.cpp:141] Setting up loss2/ave_pool
I0403 13:59:28.798933   603 net.cpp:148] Top shape: 24 528 4 4 (202752)
I0403 13:59:28.798949   603 net.cpp:156] Memory required for data: 1207729440
I0403 13:59:28.798965   603 layer_factory.hpp:77] Creating layer loss2/conv
I0403 13:59:28.798988   603 net.cpp:91] Creating Layer loss2/conv
I0403 13:59:28.799006   603 net.cpp:425] loss2/conv <- loss2/ave_pool
I0403 13:59:28.799027   603 net.cpp:399] loss2/conv -> loss2/conv
I0403 13:59:28.801043   603 net.cpp:141] Setting up loss2/conv
I0403 13:59:28.801072   603 net.cpp:148] Top shape: 24 128 4 4 (49152)
I0403 13:59:28.801089   603 net.cpp:156] Memory required for data: 1207926048
I0403 13:59:28.801107   603 layer_factory.hpp:77] Creating layer loss2/relu_conv
I0403 13:59:28.801128   603 net.cpp:91] Creating Layer loss2/relu_conv
I0403 13:59:28.801146   603 net.cpp:425] loss2/relu_conv <- loss2/conv
I0403 13:59:28.801164   603 net.cpp:386] loss2/relu_conv -> loss2/conv (in-place)
I0403 13:59:28.801481   603 net.cpp:141] Setting up loss2/relu_conv
I0403 13:59:28.801507   603 net.cpp:148] Top shape: 24 128 4 4 (49152)
I0403 13:59:28.801522   603 net.cpp:156] Memory required for data: 1208122656
I0403 13:59:28.801538   603 layer_factory.hpp:77] Creating layer loss2/fc
I0403 13:59:28.801560   603 net.cpp:91] Creating Layer loss2/fc
I0403 13:59:28.801578   603 net.cpp:425] loss2/fc <- loss2/conv
I0403 13:59:28.801611   603 net.cpp:399] loss2/fc -> loss2/fc
I0403 13:59:28.819581   603 net.cpp:141] Setting up loss2/fc
I0403 13:59:28.819640   603 net.cpp:148] Top shape: 24 1024 (24576)
I0403 13:59:28.819658   603 net.cpp:156] Memory required for data: 1208220960
I0403 13:59:28.819677   603 layer_factory.hpp:77] Creating layer loss2/relu_fc
I0403 13:59:28.819696   603 net.cpp:91] Creating Layer loss2/relu_fc
I0403 13:59:28.819715   603 net.cpp:425] loss2/relu_fc <- loss2/fc
I0403 13:59:28.819736   603 net.cpp:386] loss2/relu_fc -> loss2/fc (in-place)
I0403 13:59:28.820081   603 net.cpp:141] Setting up loss2/relu_fc
I0403 13:59:28.820107   603 net.cpp:148] Top shape: 24 1024 (24576)
I0403 13:59:28.820122   603 net.cpp:156] Memory required for data: 1208319264
I0403 13:59:28.820137   603 layer_factory.hpp:77] Creating layer loss2/drop_fc
I0403 13:59:28.820169   603 net.cpp:91] Creating Layer loss2/drop_fc
I0403 13:59:28.820193   603 net.cpp:425] loss2/drop_fc <- loss2/fc
I0403 13:59:28.820215   603 net.cpp:386] loss2/drop_fc -> loss2/fc (in-place)
I0403 13:59:28.820279   603 net.cpp:141] Setting up loss2/drop_fc
I0403 13:59:28.820315   603 net.cpp:148] Top shape: 24 1024 (24576)
I0403 13:59:28.820334   603 net.cpp:156] Memory required for data: 1208417568
I0403 13:59:28.820353   603 layer_factory.hpp:77] Creating layer loss2/classifier_plantvillage
I0403 13:59:28.820374   603 net.cpp:91] Creating Layer loss2/classifier_plantvillage
I0403 13:59:28.820390   603 net.cpp:425] loss2/classifier_plantvillage <- loss2/fc
I0403 13:59:28.820412   603 net.cpp:399] loss2/classifier_plantvillage -> loss2/classifier_plantvillage
I0403 13:59:28.820857   603 net.cpp:141] Setting up loss2/classifier_plantvillage
I0403 13:59:28.820904   603 net.cpp:148] Top shape: 24 38 (912)
I0403 13:59:28.820956   603 net.cpp:156] Memory required for data: 1208421216
I0403 13:59:28.820981   603 layer_factory.hpp:77] Creating layer loss2/classifier_plantvillage_loss2/classifier_plantvillage_0_split
I0403 13:59:28.821012   603 net.cpp:91] Creating Layer loss2/classifier_plantvillage_loss2/classifier_plantvillage_0_split
I0403 13:59:28.821038   603 net.cpp:425] loss2/classifier_plantvillage_loss2/classifier_plantvillage_0_split <- loss2/classifier_plantvillage
I0403 13:59:28.821059   603 net.cpp:399] loss2/classifier_plantvillage_loss2/classifier_plantvillage_0_split -> loss2/classifier_plantvillage_loss2/classifier_plantvillage_0_split_0
I0403 13:59:28.821081   603 net.cpp:399] loss2/classifier_plantvillage_loss2/classifier_plantvillage_0_split -> loss2/classifier_plantvillage_loss2/classifier_plantvillage_0_split_1
I0403 13:59:28.821107   603 net.cpp:399] loss2/classifier_plantvillage_loss2/classifier_plantvillage_0_split -> loss2/classifier_plantvillage_loss2/classifier_plantvillage_0_split_2
I0403 13:59:28.821216   603 net.cpp:141] Setting up loss2/classifier_plantvillage_loss2/classifier_plantvillage_0_split
I0403 13:59:28.821247   603 net.cpp:148] Top shape: 24 38 (912)
I0403 13:59:28.821265   603 net.cpp:148] Top shape: 24 38 (912)
I0403 13:59:28.821281   603 net.cpp:148] Top shape: 24 38 (912)
I0403 13:59:28.821296   603 net.cpp:156] Memory required for data: 1208432160
I0403 13:59:28.821312   603 layer_factory.hpp:77] Creating layer inception_4e/1x1
I0403 13:59:28.821339   603 net.cpp:91] Creating Layer inception_4e/1x1
I0403 13:59:28.821359   603 net.cpp:425] inception_4e/1x1 <- inception_4d/output_inception_4d/output_0_split_1
I0403 13:59:28.821379   603 net.cpp:399] inception_4e/1x1 -> inception_4e/1x1
I0403 13:59:28.823418   603 net.cpp:141] Setting up inception_4e/1x1
I0403 13:59:28.823448   603 net.cpp:148] Top shape: 24 256 14 14 (1204224)
I0403 13:59:28.823464   603 net.cpp:156] Memory required for data: 1213249056
I0403 13:59:28.823485   603 layer_factory.hpp:77] Creating layer inception_4e/relu_1x1
I0403 13:59:28.823506   603 net.cpp:91] Creating Layer inception_4e/relu_1x1
I0403 13:59:28.823524   603 net.cpp:425] inception_4e/relu_1x1 <- inception_4e/1x1
I0403 13:59:28.823542   603 net.cpp:386] inception_4e/relu_1x1 -> inception_4e/1x1 (in-place)
I0403 13:59:28.823868   603 net.cpp:141] Setting up inception_4e/relu_1x1
I0403 13:59:28.823894   603 net.cpp:148] Top shape: 24 256 14 14 (1204224)
I0403 13:59:28.823910   603 net.cpp:156] Memory required for data: 1218065952
I0403 13:59:28.823926   603 layer_factory.hpp:77] Creating layer inception_4e/3x3_reduce
I0403 13:59:28.823950   603 net.cpp:91] Creating Layer inception_4e/3x3_reduce
I0403 13:59:28.823968   603 net.cpp:425] inception_4e/3x3_reduce <- inception_4d/output_inception_4d/output_0_split_2
I0403 13:59:28.823992   603 net.cpp:399] inception_4e/3x3_reduce -> inception_4e/3x3_reduce
I0403 13:59:28.826288   603 net.cpp:141] Setting up inception_4e/3x3_reduce
I0403 13:59:28.826318   603 net.cpp:148] Top shape: 24 160 14 14 (752640)
I0403 13:59:28.826335   603 net.cpp:156] Memory required for data: 1221076512
I0403 13:59:28.826354   603 layer_factory.hpp:77] Creating layer inception_4e/relu_3x3_reduce
I0403 13:59:28.826376   603 net.cpp:91] Creating Layer inception_4e/relu_3x3_reduce
I0403 13:59:28.826393   603 net.cpp:425] inception_4e/relu_3x3_reduce <- inception_4e/3x3_reduce
I0403 13:59:28.826411   603 net.cpp:386] inception_4e/relu_3x3_reduce -> inception_4e/3x3_reduce (in-place)
I0403 13:59:28.826614   603 net.cpp:141] Setting up inception_4e/relu_3x3_reduce
I0403 13:59:28.826643   603 net.cpp:148] Top shape: 24 160 14 14 (752640)
I0403 13:59:28.826660   603 net.cpp:156] Memory required for data: 1224087072
I0403 13:59:28.826676   603 layer_factory.hpp:77] Creating layer inception_4e/3x3
I0403 13:59:28.826701   603 net.cpp:91] Creating Layer inception_4e/3x3
I0403 13:59:28.826720   603 net.cpp:425] inception_4e/3x3 <- inception_4e/3x3_reduce
I0403 13:59:28.826740   603 net.cpp:399] inception_4e/3x3 -> inception_4e/3x3
I0403 13:59:28.832243   603 net.cpp:141] Setting up inception_4e/3x3
I0403 13:59:28.832290   603 net.cpp:148] Top shape: 24 320 14 14 (1505280)
I0403 13:59:28.832309   603 net.cpp:156] Memory required for data: 1230108192
I0403 13:59:28.832327   603 layer_factory.hpp:77] Creating layer inception_4e/relu_3x3
I0403 13:59:28.832346   603 net.cpp:91] Creating Layer inception_4e/relu_3x3
I0403 13:59:28.832365   603 net.cpp:425] inception_4e/relu_3x3 <- inception_4e/3x3
I0403 13:59:28.832382   603 net.cpp:386] inception_4e/relu_3x3 -> inception_4e/3x3 (in-place)
I0403 13:59:28.832720   603 net.cpp:141] Setting up inception_4e/relu_3x3
I0403 13:59:28.832747   603 net.cpp:148] Top shape: 24 320 14 14 (1505280)
I0403 13:59:28.832764   603 net.cpp:156] Memory required for data: 1236129312
I0403 13:59:28.832780   603 layer_factory.hpp:77] Creating layer inception_4e/5x5_reduce
I0403 13:59:28.832805   603 net.cpp:91] Creating Layer inception_4e/5x5_reduce
I0403 13:59:28.832824   603 net.cpp:425] inception_4e/5x5_reduce <- inception_4d/output_inception_4d/output_0_split_3
I0403 13:59:28.832847   603 net.cpp:399] inception_4e/5x5_reduce -> inception_4e/5x5_reduce
I0403 13:59:28.834055   603 net.cpp:141] Setting up inception_4e/5x5_reduce
I0403 13:59:28.834085   603 net.cpp:148] Top shape: 24 32 14 14 (150528)
I0403 13:59:28.834102   603 net.cpp:156] Memory required for data: 1236731424
I0403 13:59:28.834121   603 layer_factory.hpp:77] Creating layer inception_4e/relu_5x5_reduce
I0403 13:59:28.834141   603 net.cpp:91] Creating Layer inception_4e/relu_5x5_reduce
I0403 13:59:28.834159   603 net.cpp:425] inception_4e/relu_5x5_reduce <- inception_4e/5x5_reduce
I0403 13:59:28.834183   603 net.cpp:386] inception_4e/relu_5x5_reduce -> inception_4e/5x5_reduce (in-place)
I0403 13:59:28.834518   603 net.cpp:141] Setting up inception_4e/relu_5x5_reduce
I0403 13:59:28.834545   603 net.cpp:148] Top shape: 24 32 14 14 (150528)
I0403 13:59:28.834563   603 net.cpp:156] Memory required for data: 1237333536
I0403 13:59:28.834578   603 layer_factory.hpp:77] Creating layer inception_4e/5x5
I0403 13:59:28.834619   603 net.cpp:91] Creating Layer inception_4e/5x5
I0403 13:59:28.834640   603 net.cpp:425] inception_4e/5x5 <- inception_4e/5x5_reduce
I0403 13:59:28.834661   603 net.cpp:399] inception_4e/5x5 -> inception_4e/5x5
I0403 13:59:28.836666   603 net.cpp:141] Setting up inception_4e/5x5
I0403 13:59:28.836695   603 net.cpp:148] Top shape: 24 128 14 14 (602112)
I0403 13:59:28.836710   603 net.cpp:156] Memory required for data: 1239741984
I0403 13:59:28.836730   603 layer_factory.hpp:77] Creating layer inception_4e/relu_5x5
I0403 13:59:28.836752   603 net.cpp:91] Creating Layer inception_4e/relu_5x5
I0403 13:59:28.836771   603 net.cpp:425] inception_4e/relu_5x5 <- inception_4e/5x5
I0403 13:59:28.836788   603 net.cpp:386] inception_4e/relu_5x5 -> inception_4e/5x5 (in-place)
I0403 13:59:28.836995   603 net.cpp:141] Setting up inception_4e/relu_5x5
I0403 13:59:28.837034   603 net.cpp:148] Top shape: 24 128 14 14 (602112)
I0403 13:59:28.837051   603 net.cpp:156] Memory required for data: 1242150432
I0403 13:59:28.837067   603 layer_factory.hpp:77] Creating layer inception_4e/pool
I0403 13:59:28.837090   603 net.cpp:91] Creating Layer inception_4e/pool
I0403 13:59:28.837107   603 net.cpp:425] inception_4e/pool <- inception_4d/output_inception_4d/output_0_split_4
I0403 13:59:28.837126   603 net.cpp:399] inception_4e/pool -> inception_4e/pool
I0403 13:59:28.837213   603 net.cpp:141] Setting up inception_4e/pool
I0403 13:59:28.837239   603 net.cpp:148] Top shape: 24 528 14 14 (2483712)
I0403 13:59:28.837254   603 net.cpp:156] Memory required for data: 1252085280
I0403 13:59:28.837270   603 layer_factory.hpp:77] Creating layer inception_4e/pool_proj
I0403 13:59:28.837292   603 net.cpp:91] Creating Layer inception_4e/pool_proj
I0403 13:59:28.837311   603 net.cpp:425] inception_4e/pool_proj <- inception_4e/pool
I0403 13:59:28.837344   603 net.cpp:399] inception_4e/pool_proj -> inception_4e/pool_proj
I0403 13:59:28.838949   603 net.cpp:141] Setting up inception_4e/pool_proj
I0403 13:59:28.838990   603 net.cpp:148] Top shape: 24 128 14 14 (602112)
I0403 13:59:28.839007   603 net.cpp:156] Memory required for data: 1254493728
I0403 13:59:28.839026   603 layer_factory.hpp:77] Creating layer inception_4e/relu_pool_proj
I0403 13:59:28.839046   603 net.cpp:91] Creating Layer inception_4e/relu_pool_proj
I0403 13:59:28.839061   603 net.cpp:425] inception_4e/relu_pool_proj <- inception_4e/pool_proj
I0403 13:59:28.839082   603 net.cpp:386] inception_4e/relu_pool_proj -> inception_4e/pool_proj (in-place)
I0403 13:59:28.839413   603 net.cpp:141] Setting up inception_4e/relu_pool_proj
I0403 13:59:28.839442   603 net.cpp:148] Top shape: 24 128 14 14 (602112)
I0403 13:59:28.839457   603 net.cpp:156] Memory required for data: 1256902176
I0403 13:59:28.839473   603 layer_factory.hpp:77] Creating layer inception_4e/output
I0403 13:59:28.839491   603 net.cpp:91] Creating Layer inception_4e/output
I0403 13:59:28.839509   603 net.cpp:425] inception_4e/output <- inception_4e/1x1
I0403 13:59:28.839526   603 net.cpp:425] inception_4e/output <- inception_4e/3x3
I0403 13:59:28.839555   603 net.cpp:425] inception_4e/output <- inception_4e/5x5
I0403 13:59:28.839571   603 net.cpp:425] inception_4e/output <- inception_4e/pool_proj
I0403 13:59:28.839591   603 net.cpp:399] inception_4e/output -> inception_4e/output
I0403 13:59:28.839643   603 net.cpp:141] Setting up inception_4e/output
I0403 13:59:28.839668   603 net.cpp:148] Top shape: 24 832 14 14 (3913728)
I0403 13:59:28.839682   603 net.cpp:156] Memory required for data: 1272557088
I0403 13:59:28.839697   603 layer_factory.hpp:77] Creating layer pool4/3x3_s2
I0403 13:59:28.839718   603 net.cpp:91] Creating Layer pool4/3x3_s2
I0403 13:59:28.839735   603 net.cpp:425] pool4/3x3_s2 <- inception_4e/output
I0403 13:59:28.839754   603 net.cpp:399] pool4/3x3_s2 -> pool4/3x3_s2
I0403 13:59:28.839825   603 net.cpp:141] Setting up pool4/3x3_s2
I0403 13:59:28.839849   603 net.cpp:148] Top shape: 24 832 7 7 (978432)
I0403 13:59:28.839864   603 net.cpp:156] Memory required for data: 1276470816
I0403 13:59:28.839879   603 layer_factory.hpp:77] Creating layer pool4/3x3_s2_pool4/3x3_s2_0_split
I0403 13:59:28.839900   603 net.cpp:91] Creating Layer pool4/3x3_s2_pool4/3x3_s2_0_split
I0403 13:59:28.839916   603 net.cpp:425] pool4/3x3_s2_pool4/3x3_s2_0_split <- pool4/3x3_s2
I0403 13:59:28.839933   603 net.cpp:399] pool4/3x3_s2_pool4/3x3_s2_0_split -> pool4/3x3_s2_pool4/3x3_s2_0_split_0
I0403 13:59:28.839954   603 net.cpp:399] pool4/3x3_s2_pool4/3x3_s2_0_split -> pool4/3x3_s2_pool4/3x3_s2_0_split_1
I0403 13:59:28.839975   603 net.cpp:399] pool4/3x3_s2_pool4/3x3_s2_0_split -> pool4/3x3_s2_pool4/3x3_s2_0_split_2
I0403 13:59:28.839995   603 net.cpp:399] pool4/3x3_s2_pool4/3x3_s2_0_split -> pool4/3x3_s2_pool4/3x3_s2_0_split_3
I0403 13:59:28.840090   603 net.cpp:141] Setting up pool4/3x3_s2_pool4/3x3_s2_0_split
I0403 13:59:28.840114   603 net.cpp:148] Top shape: 24 832 7 7 (978432)
I0403 13:59:28.840131   603 net.cpp:148] Top shape: 24 832 7 7 (978432)
I0403 13:59:28.840147   603 net.cpp:148] Top shape: 24 832 7 7 (978432)
I0403 13:59:28.840163   603 net.cpp:148] Top shape: 24 832 7 7 (978432)
I0403 13:59:28.840183   603 net.cpp:156] Memory required for data: 1292125728
I0403 13:59:28.840200   603 layer_factory.hpp:77] Creating layer inception_5a/1x1
I0403 13:59:28.840224   603 net.cpp:91] Creating Layer inception_5a/1x1
I0403 13:59:28.840241   603 net.cpp:425] inception_5a/1x1 <- pool4/3x3_s2_pool4/3x3_s2_0_split_0
I0403 13:59:28.840263   603 net.cpp:399] inception_5a/1x1 -> inception_5a/1x1
I0403 13:59:28.843240   603 net.cpp:141] Setting up inception_5a/1x1
I0403 13:59:28.843282   603 net.cpp:148] Top shape: 24 256 7 7 (301056)
I0403 13:59:28.843299   603 net.cpp:156] Memory required for data: 1293329952
I0403 13:59:28.843319   603 layer_factory.hpp:77] Creating layer inception_5a/relu_1x1
I0403 13:59:28.843341   603 net.cpp:91] Creating Layer inception_5a/relu_1x1
I0403 13:59:28.843359   603 net.cpp:425] inception_5a/relu_1x1 <- inception_5a/1x1
I0403 13:59:28.843379   603 net.cpp:386] inception_5a/relu_1x1 -> inception_5a/1x1 (in-place)
I0403 13:59:28.843720   603 net.cpp:141] Setting up inception_5a/relu_1x1
I0403 13:59:28.843749   603 net.cpp:148] Top shape: 24 256 7 7 (301056)
I0403 13:59:28.843765   603 net.cpp:156] Memory required for data: 1294534176
I0403 13:59:28.843781   603 layer_factory.hpp:77] Creating layer inception_5a/3x3_reduce
I0403 13:59:28.843806   603 net.cpp:91] Creating Layer inception_5a/3x3_reduce
I0403 13:59:28.843824   603 net.cpp:425] inception_5a/3x3_reduce <- pool4/3x3_s2_pool4/3x3_s2_0_split_1
I0403 13:59:28.843847   603 net.cpp:399] inception_5a/3x3_reduce -> inception_5a/3x3_reduce
I0403 13:59:28.846397   603 net.cpp:141] Setting up inception_5a/3x3_reduce
I0403 13:59:28.846429   603 net.cpp:148] Top shape: 24 160 7 7 (188160)
I0403 13:59:28.846446   603 net.cpp:156] Memory required for data: 1295286816
I0403 13:59:28.846465   603 layer_factory.hpp:77] Creating layer inception_5a/relu_3x3_reduce
I0403 13:59:28.846483   603 net.cpp:91] Creating Layer inception_5a/relu_3x3_reduce
I0403 13:59:28.846501   603 net.cpp:425] inception_5a/relu_3x3_reduce <- inception_5a/3x3_reduce
I0403 13:59:28.846521   603 net.cpp:386] inception_5a/relu_3x3_reduce -> inception_5a/3x3_reduce (in-place)
I0403 13:59:28.846720   603 net.cpp:141] Setting up inception_5a/relu_3x3_reduce
I0403 13:59:28.846746   603 net.cpp:148] Top shape: 24 160 7 7 (188160)
I0403 13:59:28.846761   603 net.cpp:156] Memory required for data: 1296039456
I0403 13:59:28.846777   603 layer_factory.hpp:77] Creating layer inception_5a/3x3
I0403 13:59:28.846801   603 net.cpp:91] Creating Layer inception_5a/3x3
I0403 13:59:28.846819   603 net.cpp:425] inception_5a/3x3 <- inception_5a/3x3_reduce
I0403 13:59:28.846843   603 net.cpp:399] inception_5a/3x3 -> inception_5a/3x3
I0403 13:59:28.852133   603 net.cpp:141] Setting up inception_5a/3x3
I0403 13:59:28.852162   603 net.cpp:148] Top shape: 24 320 7 7 (376320)
I0403 13:59:28.852190   603 net.cpp:156] Memory required for data: 1297544736
I0403 13:59:28.852212   603 layer_factory.hpp:77] Creating layer inception_5a/relu_3x3
I0403 13:59:28.852233   603 net.cpp:91] Creating Layer inception_5a/relu_3x3
I0403 13:59:28.852251   603 net.cpp:425] inception_5a/relu_3x3 <- inception_5a/3x3
I0403 13:59:28.852267   603 net.cpp:386] inception_5a/relu_3x3 -> inception_5a/3x3 (in-place)
I0403 13:59:28.852571   603 net.cpp:141] Setting up inception_5a/relu_3x3
I0403 13:59:28.852598   603 net.cpp:148] Top shape: 24 320 7 7 (376320)
I0403 13:59:28.852614   603 net.cpp:156] Memory required for data: 1299050016
I0403 13:59:28.852629   603 layer_factory.hpp:77] Creating layer inception_5a/5x5_reduce
I0403 13:59:28.852651   603 net.cpp:91] Creating Layer inception_5a/5x5_reduce
I0403 13:59:28.852669   603 net.cpp:425] inception_5a/5x5_reduce <- pool4/3x3_s2_pool4/3x3_s2_0_split_2
I0403 13:59:28.852692   603 net.cpp:399] inception_5a/5x5_reduce -> inception_5a/5x5_reduce
I0403 13:59:28.853916   603 net.cpp:141] Setting up inception_5a/5x5_reduce
I0403 13:59:28.853945   603 net.cpp:148] Top shape: 24 32 7 7 (37632)
I0403 13:59:28.853960   603 net.cpp:156] Memory required for data: 1299200544
I0403 13:59:28.853979   603 layer_factory.hpp:77] Creating layer inception_5a/relu_5x5_reduce
I0403 13:59:28.853999   603 net.cpp:91] Creating Layer inception_5a/relu_5x5_reduce
I0403 13:59:28.854017   603 net.cpp:425] inception_5a/relu_5x5_reduce <- inception_5a/5x5_reduce
I0403 13:59:28.854035   603 net.cpp:386] inception_5a/relu_5x5_reduce -> inception_5a/5x5_reduce (in-place)
I0403 13:59:28.854351   603 net.cpp:141] Setting up inception_5a/relu_5x5_reduce
I0403 13:59:28.854377   603 net.cpp:148] Top shape: 24 32 7 7 (37632)
I0403 13:59:28.854393   603 net.cpp:156] Memory required for data: 1299351072
I0403 13:59:28.854408   603 layer_factory.hpp:77] Creating layer inception_5a/5x5
I0403 13:59:28.854429   603 net.cpp:91] Creating Layer inception_5a/5x5
I0403 13:59:28.854449   603 net.cpp:425] inception_5a/5x5 <- inception_5a/5x5_reduce
I0403 13:59:28.854470   603 net.cpp:399] inception_5a/5x5 -> inception_5a/5x5
I0403 13:59:28.856283   603 net.cpp:141] Setting up inception_5a/5x5
I0403 13:59:28.856326   603 net.cpp:148] Top shape: 24 128 7 7 (150528)
I0403 13:59:28.856343   603 net.cpp:156] Memory required for data: 1299953184
I0403 13:59:28.856361   603 layer_factory.hpp:77] Creating layer inception_5a/relu_5x5
I0403 13:59:28.856382   603 net.cpp:91] Creating Layer inception_5a/relu_5x5
I0403 13:59:28.856400   603 net.cpp:425] inception_5a/relu_5x5 <- inception_5a/5x5
I0403 13:59:28.856417   603 net.cpp:386] inception_5a/relu_5x5 -> inception_5a/5x5 (in-place)
I0403 13:59:28.856631   603 net.cpp:141] Setting up inception_5a/relu_5x5
I0403 13:59:28.856657   603 net.cpp:148] Top shape: 24 128 7 7 (150528)
I0403 13:59:28.856672   603 net.cpp:156] Memory required for data: 1300555296
I0403 13:59:28.856688   603 layer_factory.hpp:77] Creating layer inception_5a/pool
I0403 13:59:28.856709   603 net.cpp:91] Creating Layer inception_5a/pool
I0403 13:59:28.856726   603 net.cpp:425] inception_5a/pool <- pool4/3x3_s2_pool4/3x3_s2_0_split_3
I0403 13:59:28.856745   603 net.cpp:399] inception_5a/pool -> inception_5a/pool
I0403 13:59:28.856819   603 net.cpp:141] Setting up inception_5a/pool
I0403 13:59:28.856855   603 net.cpp:148] Top shape: 24 832 7 7 (978432)
I0403 13:59:28.856869   603 net.cpp:156] Memory required for data: 1304469024
I0403 13:59:28.856884   603 layer_factory.hpp:77] Creating layer inception_5a/pool_proj
I0403 13:59:28.856906   603 net.cpp:91] Creating Layer inception_5a/pool_proj
I0403 13:59:28.856925   603 net.cpp:425] inception_5a/pool_proj <- inception_5a/pool
I0403 13:59:28.856945   603 net.cpp:399] inception_5a/pool_proj -> inception_5a/pool_proj
I0403 13:59:28.859298   603 net.cpp:141] Setting up inception_5a/pool_proj
I0403 13:59:28.859328   603 net.cpp:148] Top shape: 24 128 7 7 (150528)
I0403 13:59:28.859344   603 net.cpp:156] Memory required for data: 1305071136
I0403 13:59:28.859364   603 layer_factory.hpp:77] Creating layer inception_5a/relu_pool_proj
I0403 13:59:28.859382   603 net.cpp:91] Creating Layer inception_5a/relu_pool_proj
I0403 13:59:28.859400   603 net.cpp:425] inception_5a/relu_pool_proj <- inception_5a/pool_proj
I0403 13:59:28.859419   603 net.cpp:386] inception_5a/relu_pool_proj -> inception_5a/pool_proj (in-place)
I0403 13:59:28.859735   603 net.cpp:141] Setting up inception_5a/relu_pool_proj
I0403 13:59:28.859761   603 net.cpp:148] Top shape: 24 128 7 7 (150528)
I0403 13:59:28.859776   603 net.cpp:156] Memory required for data: 1305673248
I0403 13:59:28.859791   603 layer_factory.hpp:77] Creating layer inception_5a/output
I0403 13:59:28.859808   603 net.cpp:91] Creating Layer inception_5a/output
I0403 13:59:28.859825   603 net.cpp:425] inception_5a/output <- inception_5a/1x1
I0403 13:59:28.859843   603 net.cpp:425] inception_5a/output <- inception_5a/3x3
I0403 13:59:28.859858   603 net.cpp:425] inception_5a/output <- inception_5a/5x5
I0403 13:59:28.859874   603 net.cpp:425] inception_5a/output <- inception_5a/pool_proj
I0403 13:59:28.859894   603 net.cpp:399] inception_5a/output -> inception_5a/output
I0403 13:59:28.859943   603 net.cpp:141] Setting up inception_5a/output
I0403 13:59:28.859971   603 net.cpp:148] Top shape: 24 832 7 7 (978432)
I0403 13:59:28.859985   603 net.cpp:156] Memory required for data: 1309586976
I0403 13:59:28.860000   603 layer_factory.hpp:77] Creating layer inception_5a/output_inception_5a/output_0_split
I0403 13:59:28.860018   603 net.cpp:91] Creating Layer inception_5a/output_inception_5a/output_0_split
I0403 13:59:28.860033   603 net.cpp:425] inception_5a/output_inception_5a/output_0_split <- inception_5a/output
I0403 13:59:28.860050   603 net.cpp:399] inception_5a/output_inception_5a/output_0_split -> inception_5a/output_inception_5a/output_0_split_0
I0403 13:59:28.860071   603 net.cpp:399] inception_5a/output_inception_5a/output_0_split -> inception_5a/output_inception_5a/output_0_split_1
I0403 13:59:28.860095   603 net.cpp:399] inception_5a/output_inception_5a/output_0_split -> inception_5a/output_inception_5a/output_0_split_2
I0403 13:59:28.860116   603 net.cpp:399] inception_5a/output_inception_5a/output_0_split -> inception_5a/output_inception_5a/output_0_split_3
I0403 13:59:28.860268   603 net.cpp:141] Setting up inception_5a/output_inception_5a/output_0_split
I0403 13:59:28.860294   603 net.cpp:148] Top shape: 24 832 7 7 (978432)
I0403 13:59:28.860311   603 net.cpp:148] Top shape: 24 832 7 7 (978432)
I0403 13:59:28.860328   603 net.cpp:148] Top shape: 24 832 7 7 (978432)
I0403 13:59:28.860344   603 net.cpp:148] Top shape: 24 832 7 7 (978432)
I0403 13:59:28.860359   603 net.cpp:156] Memory required for data: 1325241888
I0403 13:59:28.860374   603 layer_factory.hpp:77] Creating layer inception_5b/1x1
I0403 13:59:28.860397   603 net.cpp:91] Creating Layer inception_5b/1x1
I0403 13:59:28.860416   603 net.cpp:425] inception_5b/1x1 <- inception_5a/output_inception_5a/output_0_split_0
I0403 13:59:28.860440   603 net.cpp:399] inception_5b/1x1 -> inception_5b/1x1
I0403 13:59:28.864394   603 net.cpp:141] Setting up inception_5b/1x1
I0403 13:59:28.864437   603 net.cpp:148] Top shape: 24 384 7 7 (451584)
I0403 13:59:28.864454   603 net.cpp:156] Memory required for data: 1327048224
I0403 13:59:28.864475   603 layer_factory.hpp:77] Creating layer inception_5b/relu_1x1
I0403 13:59:28.864492   603 net.cpp:91] Creating Layer inception_5b/relu_1x1
I0403 13:59:28.864508   603 net.cpp:425] inception_5b/relu_1x1 <- inception_5b/1x1
I0403 13:59:28.864528   603 net.cpp:386] inception_5b/relu_1x1 -> inception_5b/1x1 (in-place)
I0403 13:59:28.864843   603 net.cpp:141] Setting up inception_5b/relu_1x1
I0403 13:59:28.864871   603 net.cpp:148] Top shape: 24 384 7 7 (451584)
I0403 13:59:28.864887   603 net.cpp:156] Memory required for data: 1328854560
I0403 13:59:28.864902   603 layer_factory.hpp:77] Creating layer inception_5b/3x3_reduce
I0403 13:59:28.864923   603 net.cpp:91] Creating Layer inception_5b/3x3_reduce
I0403 13:59:28.864941   603 net.cpp:425] inception_5b/3x3_reduce <- inception_5a/output_inception_5a/output_0_split_1
I0403 13:59:28.864960   603 net.cpp:399] inception_5b/3x3_reduce -> inception_5b/3x3_reduce
I0403 13:59:28.867712   603 net.cpp:141] Setting up inception_5b/3x3_reduce
I0403 13:59:28.867740   603 net.cpp:148] Top shape: 24 192 7 7 (225792)
I0403 13:59:28.867756   603 net.cpp:156] Memory required for data: 1329757728
I0403 13:59:28.867775   603 layer_factory.hpp:77] Creating layer inception_5b/relu_3x3_reduce
I0403 13:59:28.867794   603 net.cpp:91] Creating Layer inception_5b/relu_3x3_reduce
I0403 13:59:28.867810   603 net.cpp:425] inception_5b/relu_3x3_reduce <- inception_5b/3x3_reduce
I0403 13:59:28.867830   603 net.cpp:386] inception_5b/relu_3x3_reduce -> inception_5b/3x3_reduce (in-place)
I0403 13:59:28.868026   603 net.cpp:141] Setting up inception_5b/relu_3x3_reduce
I0403 13:59:28.868052   603 net.cpp:148] Top shape: 24 192 7 7 (225792)
I0403 13:59:28.868067   603 net.cpp:156] Memory required for data: 1330660896
I0403 13:59:28.868080   603 layer_factory.hpp:77] Creating layer inception_5b/3x3
I0403 13:59:28.868103   603 net.cpp:91] Creating Layer inception_5b/3x3
I0403 13:59:28.868120   603 net.cpp:425] inception_5b/3x3 <- inception_5b/3x3_reduce
I0403 13:59:28.868141   603 net.cpp:399] inception_5b/3x3 -> inception_5b/3x3
I0403 13:59:28.875632   603 net.cpp:141] Setting up inception_5b/3x3
I0403 13:59:28.875669   603 net.cpp:148] Top shape: 24 384 7 7 (451584)
I0403 13:59:28.875686   603 net.cpp:156] Memory required for data: 1332467232
I0403 13:59:28.875706   603 layer_factory.hpp:77] Creating layer inception_5b/relu_3x3
I0403 13:59:28.875733   603 net.cpp:91] Creating Layer inception_5b/relu_3x3
I0403 13:59:28.875751   603 net.cpp:425] inception_5b/relu_3x3 <- inception_5b/3x3
I0403 13:59:28.875773   603 net.cpp:386] inception_5b/relu_3x3 -> inception_5b/3x3 (in-place)
I0403 13:59:28.876111   603 net.cpp:141] Setting up inception_5b/relu_3x3
I0403 13:59:28.876157   603 net.cpp:148] Top shape: 24 384 7 7 (451584)
I0403 13:59:28.876184   603 net.cpp:156] Memory required for data: 1334273568
I0403 13:59:28.876202   603 layer_factory.hpp:77] Creating layer inception_5b/5x5_reduce
I0403 13:59:28.876247   603 net.cpp:91] Creating Layer inception_5b/5x5_reduce
I0403 13:59:28.876267   603 net.cpp:425] inception_5b/5x5_reduce <- inception_5a/output_inception_5a/output_0_split_2
I0403 13:59:28.876292   603 net.cpp:399] inception_5b/5x5_reduce -> inception_5b/5x5_reduce
I0403 13:59:28.877676   603 net.cpp:141] Setting up inception_5b/5x5_reduce
I0403 13:59:28.877708   603 net.cpp:148] Top shape: 24 48 7 7 (56448)
I0403 13:59:28.877727   603 net.cpp:156] Memory required for data: 1334499360
I0403 13:59:28.877748   603 layer_factory.hpp:77] Creating layer inception_5b/relu_5x5_reduce
I0403 13:59:28.877768   603 net.cpp:91] Creating Layer inception_5b/relu_5x5_reduce
I0403 13:59:28.877794   603 net.cpp:425] inception_5b/relu_5x5_reduce <- inception_5b/5x5_reduce
I0403 13:59:28.877817   603 net.cpp:386] inception_5b/relu_5x5_reduce -> inception_5b/5x5_reduce (in-place)
I0403 13:59:28.878224   603 net.cpp:141] Setting up inception_5b/relu_5x5_reduce
I0403 13:59:28.878252   603 net.cpp:148] Top shape: 24 48 7 7 (56448)
I0403 13:59:28.878268   603 net.cpp:156] Memory required for data: 1334725152
I0403 13:59:28.878284   603 layer_factory.hpp:77] Creating layer inception_5b/5x5
I0403 13:59:28.878305   603 net.cpp:91] Creating Layer inception_5b/5x5
I0403 13:59:28.878324   603 net.cpp:425] inception_5b/5x5 <- inception_5b/5x5_reduce
I0403 13:59:28.878345   603 net.cpp:399] inception_5b/5x5 -> inception_5b/5x5
I0403 13:59:28.880599   603 net.cpp:141] Setting up inception_5b/5x5
I0403 13:59:28.880631   603 net.cpp:148] Top shape: 24 128 7 7 (150528)
I0403 13:59:28.880648   603 net.cpp:156] Memory required for data: 1335327264
I0403 13:59:28.880676   603 layer_factory.hpp:77] Creating layer inception_5b/relu_5x5
I0403 13:59:28.880699   603 net.cpp:91] Creating Layer inception_5b/relu_5x5
I0403 13:59:28.880717   603 net.cpp:425] inception_5b/relu_5x5 <- inception_5b/5x5
I0403 13:59:28.880736   603 net.cpp:386] inception_5b/relu_5x5 -> inception_5b/5x5 (in-place)
I0403 13:59:28.880950   603 net.cpp:141] Setting up inception_5b/relu_5x5
I0403 13:59:28.880977   603 net.cpp:148] Top shape: 24 128 7 7 (150528)
I0403 13:59:28.880996   603 net.cpp:156] Memory required for data: 1335929376
I0403 13:59:28.881012   603 layer_factory.hpp:77] Creating layer inception_5b/pool
I0403 13:59:28.881031   603 net.cpp:91] Creating Layer inception_5b/pool
I0403 13:59:28.881049   603 net.cpp:425] inception_5b/pool <- inception_5a/output_inception_5a/output_0_split_3
I0403 13:59:28.881069   603 net.cpp:399] inception_5b/pool -> inception_5b/pool
I0403 13:59:28.881150   603 net.cpp:141] Setting up inception_5b/pool
I0403 13:59:28.881199   603 net.cpp:148] Top shape: 24 832 7 7 (978432)
I0403 13:59:28.881217   603 net.cpp:156] Memory required for data: 1339843104
I0403 13:59:28.881232   603 layer_factory.hpp:77] Creating layer inception_5b/pool_proj
I0403 13:59:28.881256   603 net.cpp:91] Creating Layer inception_5b/pool_proj
I0403 13:59:28.881280   603 net.cpp:425] inception_5b/pool_proj <- inception_5b/pool
I0403 13:59:28.881307   603 net.cpp:399] inception_5b/pool_proj -> inception_5b/pool_proj
I0403 13:59:28.883846   603 net.cpp:141] Setting up inception_5b/pool_proj
I0403 13:59:28.883878   603 net.cpp:148] Top shape: 24 128 7 7 (150528)
I0403 13:59:28.883906   603 net.cpp:156] Memory required for data: 1340445216
I0403 13:59:28.883935   603 layer_factory.hpp:77] Creating layer inception_5b/relu_pool_proj
I0403 13:59:28.883955   603 net.cpp:91] Creating Layer inception_5b/relu_pool_proj
I0403 13:59:28.883977   603 net.cpp:425] inception_5b/relu_pool_proj <- inception_5b/pool_proj
I0403 13:59:28.884002   603 net.cpp:386] inception_5b/relu_pool_proj -> inception_5b/pool_proj (in-place)
I0403 13:59:28.884338   603 net.cpp:141] Setting up inception_5b/relu_pool_proj
I0403 13:59:28.884366   603 net.cpp:148] Top shape: 24 128 7 7 (150528)
I0403 13:59:28.884383   603 net.cpp:156] Memory required for data: 1341047328
I0403 13:59:28.884400   603 layer_factory.hpp:77] Creating layer inception_5b/output
I0403 13:59:28.884419   603 net.cpp:91] Creating Layer inception_5b/output
I0403 13:59:28.884452   603 net.cpp:425] inception_5b/output <- inception_5b/1x1
I0403 13:59:28.884471   603 net.cpp:425] inception_5b/output <- inception_5b/3x3
I0403 13:59:28.884496   603 net.cpp:425] inception_5b/output <- inception_5b/5x5
I0403 13:59:28.884515   603 net.cpp:425] inception_5b/output <- inception_5b/pool_proj
I0403 13:59:28.884536   603 net.cpp:399] inception_5b/output -> inception_5b/output
I0403 13:59:28.884591   603 net.cpp:141] Setting up inception_5b/output
I0403 13:59:28.884630   603 net.cpp:148] Top shape: 24 1024 7 7 (1204224)
I0403 13:59:28.884649   603 net.cpp:156] Memory required for data: 1345864224
I0403 13:59:28.884665   603 layer_factory.hpp:77] Creating layer pool5/7x7_s1
I0403 13:59:28.884683   603 net.cpp:91] Creating Layer pool5/7x7_s1
I0403 13:59:28.884701   603 net.cpp:425] pool5/7x7_s1 <- inception_5b/output
I0403 13:59:28.884732   603 net.cpp:399] pool5/7x7_s1 -> pool5/7x7_s1
I0403 13:59:28.884979   603 net.cpp:141] Setting up pool5/7x7_s1
I0403 13:59:28.885005   603 net.cpp:148] Top shape: 24 1024 1 1 (24576)
I0403 13:59:28.885020   603 net.cpp:156] Memory required for data: 1345962528
I0403 13:59:28.885036   603 layer_factory.hpp:77] Creating layer pool5/drop_7x7_s1
I0403 13:59:28.885056   603 net.cpp:91] Creating Layer pool5/drop_7x7_s1
I0403 13:59:28.885076   603 net.cpp:425] pool5/drop_7x7_s1 <- pool5/7x7_s1
I0403 13:59:28.885098   603 net.cpp:386] pool5/drop_7x7_s1 -> pool5/7x7_s1 (in-place)
I0403 13:59:28.885151   603 net.cpp:141] Setting up pool5/drop_7x7_s1
I0403 13:59:28.885193   603 net.cpp:148] Top shape: 24 1024 1 1 (24576)
I0403 13:59:28.885211   603 net.cpp:156] Memory required for data: 1346060832
I0403 13:59:28.885226   603 layer_factory.hpp:77] Creating layer loss3/classifier_plantvillage
I0403 13:59:28.885248   603 net.cpp:91] Creating Layer loss3/classifier_plantvillage
I0403 13:59:28.885270   603 net.cpp:425] loss3/classifier_plantvillage <- pool5/7x7_s1
I0403 13:59:28.885296   603 net.cpp:399] loss3/classifier_plantvillage -> loss3/classifier_plantvillage
I0403 13:59:28.885757   603 net.cpp:141] Setting up loss3/classifier_plantvillage
I0403 13:59:28.885787   603 net.cpp:148] Top shape: 24 38 (912)
I0403 13:59:28.885802   603 net.cpp:156] Memory required for data: 1346064480
I0403 13:59:28.885823   603 layer_factory.hpp:77] Creating layer loss3/classifier_plantvillage_loss3/classifier_plantvillage_0_split
I0403 13:59:28.885843   603 net.cpp:91] Creating Layer loss3/classifier_plantvillage_loss3/classifier_plantvillage_0_split
I0403 13:59:28.885861   603 net.cpp:425] loss3/classifier_plantvillage_loss3/classifier_plantvillage_0_split <- loss3/classifier_plantvillage
I0403 13:59:28.885885   603 net.cpp:399] loss3/classifier_plantvillage_loss3/classifier_plantvillage_0_split -> loss3/classifier_plantvillage_loss3/classifier_plantvillage_0_split_0
I0403 13:59:28.885915   603 net.cpp:399] loss3/classifier_plantvillage_loss3/classifier_plantvillage_0_split -> loss3/classifier_plantvillage_loss3/classifier_plantvillage_0_split_1
I0403 13:59:28.885942   603 net.cpp:399] loss3/classifier_plantvillage_loss3/classifier_plantvillage_0_split -> loss3/classifier_plantvillage_loss3/classifier_plantvillage_0_split_2
I0403 13:59:28.885965   603 net.cpp:399] loss3/classifier_plantvillage_loss3/classifier_plantvillage_0_split -> loss3/classifier_plantvillage_loss3/classifier_plantvillage_0_split_3
I0403 13:59:28.886077   603 net.cpp:141] Setting up loss3/classifier_plantvillage_loss3/classifier_plantvillage_0_split
I0403 13:59:28.886102   603 net.cpp:148] Top shape: 24 38 (912)
I0403 13:59:28.886122   603 net.cpp:148] Top shape: 24 38 (912)
I0403 13:59:28.886142   603 net.cpp:148] Top shape: 24 38 (912)
I0403 13:59:28.886158   603 net.cpp:148] Top shape: 24 38 (912)
I0403 13:59:28.886173   603 net.cpp:156] Memory required for data: 1346079072
I0403 13:59:28.886195   603 layer_factory.hpp:77] Creating layer loss1/loss
I0403 13:59:28.886221   603 net.cpp:91] Creating Layer loss1/loss
I0403 13:59:28.886241   603 net.cpp:425] loss1/loss <- loss1/classifier_plantvillage_loss1/classifier_plantvillage_0_split_0
I0403 13:59:28.886273   603 net.cpp:425] loss1/loss <- label_data_1_split_0
…
