…
I0403 14:32:51.778343  1460 net.cpp:313] The NetState phase (1) differed from the phase (0) specified by a rule in layer data
I0403 14:32:51.779489  1460 net.cpp:49] Initializing net from parameters: 
state {
  phase: TEST
}
layer {
  name: "data"
  type: "Data"
  top: "data"
  top: "label"
  include {
    phase: TEST
  }
  transform_param {
    mirror: false
    crop_size: 224
    mean_file: "/home/mohanty/data/final_dataset/lmdb/grayscale-20-80/mean.binaryproto"
  }
  data_param {
    source: "/home/mohanty/data/final_dataset/lmdb/grayscale-20-80/test_db"
    batch_size: 24
    backend: LMDB
  }
}
layer {
  name: "conv1/7x7_s2"
  type: "Convolution"
  bottom: "data"
  top: "conv1/7x7_s2"
  param {
    lr_mult: 1
    decay_mult: 1
  }
  param {
    lr_mult: 2
    decay_mult: 0
  }
  convolution_param {
    num_output: 64
    pad: 3
    kernel_size: 7
    stride: 2
    weight_filler {
      type: "xavier"
      std: 0.1
    }
    bias_filler {
      type: "constant"
      value: 0.2
    }
  }
}
layer {
  name: "conv1/relu_7x7"
  type: "ReLU"
  bottom: "conv1/7x7_s2"
  top: "conv1/7x7_s2"
}
layer {
  name: "pool1/3x3_s2"
  type: "Pooling"
  bottom: "conv1/7x7_s2"
  top: "pool1/3x3_s2"
  pooling_param {
    pool: MAX
    kernel_size: 3
    stride: 2
  }
}
layer {
  name: "pool1/norm1"
  type: "LRN"
  bottom: "pool1/3x3_s2"
  top: "pool1/norm1"
  lrn_param {
    local_size: 5
    alpha: 0.0001
    beta: 0.75
  }
}
layer {
  name: "conv2/3x3_reduce"
  type: "Convolution"
  bottom: "pool1/norm1"
  top: "conv2/3x3_reduce"
  param {
    lr_mult: 1
    decay_mult: 1
  }
  param {
    lr_mult: 2
    decay_mult: 0
  }
  convolution_param {
    num_output: 64
    kernel_size: 1
    weight_filler {
      type: "xavier"
      std: 0.1
    }
    bias_filler {
      type: "constant"
      value: 0.2
    }
  }
}
layer {
  name: "conv2/relu_3x3_reduce"
  type: "ReLU"
  bottom: "conv2/3x3_reduce"
  top: "conv2/3x3_reduce"
}
layer {
  name: "conv2/3x3"
  type: "Convolution"
  bottom: "conv2/3x3_reduce"
  top: "conv2/3x3"
  param {
    lr_mult: 1
    decay_mult: 1
  }
  param {
    lr_mult: 2
    decay_mult: 0
  }
  convolution_param {
    num_output: 192
    pad: 1
    kernel_size: 3
    weight_filler {
      type: "xavier"
      std: 0.03
    }
    bias_filler {
      type: "constant"
      value: 0.2
    }
  }
}
layer {
  name: "conv2/relu_3x3"
  type: "ReLU"
  bottom: "conv2/3x3"
  top: "conv2/3x3"
}
layer {
  name: "conv2/norm2"
  type: "LRN"
  bottom: "conv2/3x3"
  top: "conv2/norm2"
  lrn_param {
    local_size: 5
    alpha: 0.0001
    beta: 0.75
  }
}
layer {
  name: "pool2/3x3_s2"
  type: "Pooling"
  bottom: "conv2/norm2"
  top: "pool2/3x3_s2"
  pooling_param {
    pool: MAX
    kernel_size: 3
    stride: 2
  }
}
layer {
  name: "inception_3a/1x1"
  type: "Convolution"
  bottom: "pool2/3x3_s2"
  top: "inception_3a/1x1"
  param {
    lr_mult: 1
    decay_mult: 1
  }
  param {
    lr_mult: 2
    decay_mult: 0
  }
  convolution_param {
    num_output: 64
    kernel_size: 1
    weight_filler {
      type: "xavier"
      std: 0.03
    }
    bias_filler {
      type: "constant"
      value: 0.2
    }
  }
}
layer {
  name: "inception_3a/relu_1x1"
  type: "ReLU"
  bottom: "inception_3a/1x1"
  top: "inception_3a/1x1"
}
layer {
  name: "inception_3a/3x3_reduce"
  type: "Convolution"
  bottom: "pool2/3x3_s2"
  top: "inception_3a/3x3_reduce"
  param {
    lr_mult: 1
    decay_mult: 1
  }
  param {
    lr_mult: 2
    decay_mult: 0
  }
  convolution_param {
    num_output: 96
    kernel_size: 1
    weight_filler {
      type: "xavier"
      std: 0.09
    }
    bias_filler {
      type: "constant"
      value: 0.2
    }
  }
}
layer {
  name: "inception_3a/relu_3x3_reduce"
  type: "ReLU"
  bottom: "inception_3a/3x3_reduce"
  top: "inception_3a/3x3_reduce"
}
layer {
  name: "inception_3a/3x3"
  type: "Convolution"
  bottom: "inception_3a/3x3_reduce"
  top: "inception_3a/3x3"
  param {
    lr_mult: 1
    decay_mult: 1
  }
  param {
    lr_mult: 2
    decay_mult: 0
  }
  convolution_param {
    num_output: 128
    pad: 1
    kernel_size: 3
    weight_filler {
      type: "xavier"
      std: 0.03
    }
    bias_filler {
      type: "constant"
      value: 0.2
    }
  }
}
layer {
  name: "inception_3a/relu_3x3"
  type: "ReLU"
  bottom: "inception_3a/3x3"
  top: "inception_3a/3x3"
}
layer {
  name: "inception_3a/5x5_reduce"
  type: "Convolution"
  bottom: "pool2/3x3_s2"
  top: "inception_3a/5x5_reduce"
  param {
    lr_mult: 1
    decay_mult: 1
  }
  param {
    lr_mult: 2
    decay_mult: 0
  }
  convolution_param {
    num_output: 16
    kernel_size: 1
    weight_filler {
      type: "xavier"
      std: 0.2
    }
    bias_filler {
      type: "constant"
      value: 0.2
    }
  }
}
layer {
  name: "inception_3a/relu_5x5_reduce"
  type: "ReLU"
  bottom: "inception_3a/5x5_reduce"
  top: "inception_3a/5x5_reduce"
}
layer {
  name: "inception_3a/5x5"
  type: "Convolution"
  bottom: "inception_3a/5x5_reduce"
  top: "inception_3a/5x5"
  param {
    lr_mult: 1
    decay_mult: 1
  }
  param {
    lr_mult: 2
    decay_mult: 0
  }
  convolution_param {
    num_output: 32
    pad: 2
    kernel_size: 5
    weight_filler {
      type: "xavier"
      std: 0.03
    }
    bias_filler {
      type: "constant"
      value: 0.2
    }
  }
}
layer {
  name: "inception_3a/relu_5x5"
  type: "ReLU"
  bottom: "inception_3a/5x5"
  top: "inception_3a/5x5"
}
layer {
  name: "inception_3a/pool"
  type: "Pooling"
  bottom: "pool2/3x3_s2"
  top: "inception_3a/pool"
  pooling_param {
    pool: MAX
    kernel_size: 3
    stride: 1
    pad: 1
  }
}
layer {
  name: "inception_3a/pool_proj"
  type: "Convolution"
  bottom: "inception_3a/pool"
  top: "inception_3a/pool_proj"
  param {
    lr_mult: 1
    decay_mult: 1
  }
  param {
    lr_mult: 2
    decay_mult: 0
  }
  convolution_param {
    num_output: 32
    kernel_size: 1
    weight_filler {
      type: "xavier"
      std: 0.1
    }
    bias_filler {
      type: "constant"
      value: 0.2
    }
  }
}
layer {
  name: "inception_3a/relu_pool_proj"
  type: "ReLU"
  bottom: "inception_3a/pool_proj"
  top: "inception_3a/pool_proj"
}
layer {
  name: "inception_3a/output"
  type: "Concat"
  bottom: "inception_3a/1x1"
  bottom: "inception_3a/3x3"
  bottom: "inception_3a/5x5"
  bottom: "inception_3a/pool_proj"
  top: "inception_3a/output"
}
layer {
  name: "inception_3b/1x1"
  type: "Convolution"
  bottom: "inception_3a/output"
  top: "inception_3b/1x1"
  param {
    lr_mult: 1
    decay_mult: 1
  }
  param {
    lr_mult: 2
    decay_mult: 0
  }
  convolution_param {
    num_output: 128
    kernel_size: 1
    weight_filler {
      type: "xavier"
      std: 0.03
    }
    bias_filler {
      type: "constant"
      value: 0.2
    }
  }
}
layer {
  name: "inception_3b/relu_1x1"
  type: "ReLU"
  bottom: "inception_3b/1x1"
  top: "inception_3b/1x1"
}
layer {
  name: "inception_3b/3x3_reduce"
  type: "Convolution"
  bottom: "inception_3a/output"
  top: "inception_3b/3x3_reduce"
  param {
    lr_mult: 1
    decay_mult: 1
  }
  param {
    lr_mult: 2
    decay_mult: 0
  }
  convolution_param {
    num_output: 128
    kernel_size: 1
    weight_filler {
      type: "xavier"
      std: 0.09
    }
    bias_filler {
      type: "constant"
      value: 0.2
    }
  }
}
layer {
  name: "inception_3b/relu_3x3_reduce"
  type: "ReLU"
  bottom: "inception_3b/3x3_reduce"
  top: "inception_3b/3x3_reduce"
}
layer {
  name: "inception_3b/3x3"
  type: "Convolution"
  bottom: "inception_3b/3x3_reduce"
  top: "inception_3b/3x3"
  param {
    lr_mult: 1
    decay_mult: 1
  }
  param {
    lr_mult: 2
    decay_mult: 0
  }
  convolution_param {
    num_output: 192
    pad: 1
    kernel_size: 3
    weight_filler {
      type: "xavier"
      std: 0.03
    }
    bias_filler {
      type: "constant"
      value: 0.2
    }
  }
}
layer {
  name: "inception_3b/relu_3x3"
  type: "ReLU"
  bottom: "inception_3b/3x3"
  top: "inception_3b/3x3"
}
layer {
  name: "inception_3b/5x5_reduce"
  type: "Convolution"
  bottom: "inception_3a/output"
  top: "inception_3b/5x5_reduce"
  param {
    lr_mult: 1
    decay_mult: 1
  }
  param {
    lr_mult: 2
    decay_mult: 0
  }
  convolution_param {
    num_output: 32
    kernel_size: 1
    weight_filler {
      type: "xavier"
      std: 0.2
    }
    bias_filler {
      type: "constant"
      value: 0.2
    }
  }
}
layer {
  name: "inception_3b/relu_5x5_reduce"
  type: "ReLU"
  bottom: "inception_3b/5x5_reduce"
  top: "inception_3b/5x5_reduce"
}
layer {
  name: "inception_3b/5x5"
  type: "Convolution"
  bottom: "inception_3b/5x5_reduce"
  top: "inception_3b/5x5"
  param {
    lr_mult: 1
    decay_mult: 1
  }
  param {
    lr_mult: 2
    decay_mult: 0
  }
  convolution_param {
    num_output: 96
    pad: 2
    kernel_size: 5
    weight_filler {
      type: "xavier"
      std: 0.03
    }
    bias_filler {
      type: "constant"
      value: 0.2
    }
  }
}
layer {
  name: "inception_3b/relu_5x5"
  type: "ReLU"
  bottom: "inception_3b/5x5"
  top: "inception_3b/5x5"
}
layer {
  name: "inception_3b/pool"
  type: "Pooling"
  bottom: "inception_3a/output"
  top: "inception_3b/pool"
  pooling_param {
    pool: MAX
    kernel_size: 3
    stride: 1
    pad: 1
  }
}
layer {
  name: "inception_3b/pool_proj"
  type: "Convolution"
  bottom: "inception_3b/pool"
  top: "inception_3b/pool_proj"
  param {
    lr_mult: 1
    decay_mult: 1
  }
  param {
    lr_mult: 2
    decay_mult: 0
  }
  convolution_param {
    num_output: 64
    kernel_size: 1
    weight_filler {
      type: "xavier"
      std: 0.1
    }
    bias_filler {
      type: "constant"
      value: 0.2
    }
  }
}
layer {
  name: "inception_3b/relu_pool_proj"
  type: "ReLU"
  bottom: "inception_3b/pool_proj"
  top: "inception_3b/pool_proj"
}
layer {
  name: "inception_3b/output"
  type: "Concat"
  bottom: "inception_3b/1x1"
  bottom: "inception_3b/3x3"
  bottom: "inception_3b/5x5"
  bottom: "inception_3b/pool_proj"
  top: "inception_3b/output"
}
layer {
  name: "pool3/3x3_s2"
  type: "Pooling"
  bottom: "inception_3b/output"
  top: "pool3/3x3_s2"
  pooling_param {
    pool: MAX
    kernel_size: 3
    stride: 2
  }
}
layer {
  name: "inception_4a/1x1"
  type: "Convolution"
  bottom: "pool3/3x3_s2"
  top: "inception_4a/1x1"
  param {
    lr_mult: 1
    decay_mult: 1
  }
  param {
    lr_mult: 2
    decay_mult: 0
  }
  convolution_param {
    num_output: 192
    kernel_size: 1
    weight_filler {
      type: "xavier"
      std: 0.03
    }
    bias_filler {
      type: "constant"
      value: 0.2
    }
  }
}
layer {
  name: "inception_4a/relu_1x1"
  type: "ReLU"
  bottom: "inception_4a/1x1"
  top: "inception_4a/1x1"
}
layer {
  name: "inception_4a/3x3_reduce"
  type: "Convolution"
  bottom: "pool3/3x3_s2"
  top: "inception_4a/3x3_reduce"
  param {
    lr_mult: 1
    decay_mult: 1
  }
  param {
    lr_mult: 2
    decay_mult: 0
  }
  convolution_param {
    num_output: 96
    kernel_size: 1
    weight_filler {
      type: "xavier"
      std: 0.09
    }
    bias_filler {
      type: "constant"
      value: 0.2
    }
  }
}
layer {
  name: "inception_4a/relu_3x3_reduce"
  type: "ReLU"
  bottom: "inception_4a/3x3_reduce"
  top: "inception_4a/3x3_reduce"
}
layer {
  name: "inception_4a/3x3"
  type: "Convolution"
  bottom: "inception_4a/3x3_reduce"
  top: "inception_4a/3x3"
  param {
    lr_mult: 1
    decay_mult: 1
  }
  param {
    lr_mult: 2
    decay_mult: 0
  }
  convolution_param {
    num_output: 208
    pad: 1
    kernel_size: 3
    weight_filler {
      type: "xavier"
      std: 0.03
    }
    bias_filler {
      type: "constant"
      value: 0.2
    }
  }
}
layer {
  name: "inception_4a/relu_3x3"
  type: "ReLU"
  bottom: "inception_4a/3x3"
  top: "inception_4a/3x3"
}
layer {
  name: "inception_4a/5x5_reduce"
  type: "Convolution"
  bottom: "pool3/3x3_s2"
  top: "inception_4a/5x5_reduce"
  param {
    lr_mult: 1
    decay_mult: 1
  }
  param {
    lr_mult: 2
    decay_mult: 0
  }
  convolution_param {
    num_output: 16
    kernel_size: 1
    weight_filler {
      type: "xavier"
      std: 0.2
    }
    bias_filler {
      type: "constant"
      value: 0.2
    }
  }
}
layer {
  name: "inception_4a/relu_5x5_reduce"
  type: "ReLU"
  bottom: "inception_4a/5x5_reduce"
  top: "inception_4a/5x5_reduce"
}
layer {
  name: "inception_4a/5x5"
  type: "Convolution"
  bottom: "inception_4a/5x5_reduce"
  top: "inception_4a/5x5"
  param {
    lr_mult: 1
    decay_mult: 1
  }
  param {
    lr_mult: 2
    decay_mult: 0
  }
  convolution_param {
    num_output: 48
    pad: 2
    kernel_size: 5
    weight_filler {
      type: "xavier"
      std: 0.03
    }
    bias_filler {
      type: "constant"
      value: 0.2
    }
  }
}
layer {
  name: "inception_4a/relu_5x5"
  type: "ReLU"
  bottom: "inception_4a/5x5"
  top: "inception_4a/5x5"
}
layer {
  name: "inception_4a/pool"
  type: "Pooling"
  bottom: "pool3/3x3_s2"
  top: "inception_4a/pool"
  pooling_param {
    pool: MAX
    kernel_size: 3
    stride: 1
    pad: 1
  }
}
layer {
  name: "inception_4a/pool_proj"
  type: "Convolution"
  bottom: "inception_4a/pool"
  top: "inception_4a/pool_proj"
  param {
    lr_mult: 1
    decay_mult: 1
  }
  param {
    lr_mult: 2
    decay_mult: 0
  }
  convolution_param {
    num_output: 64
    kernel_size: 1
    weight_filler {
      type: "xavier"
      std: 0.1
    }
    bias_filler {
      type: "constant"
      value: 0.2
    }
  }
}
layer {
  name: "inception_4a/relu_pool_proj"
  type: "ReLU"
  bottom: "inception_4a/pool_proj"
  top: "inception_4a/pool_proj"
}
layer {
  name: "inception_4a/output"
  type: "Concat"
  bottom: "inception_4a/1x1"
  bottom: "inception_4a/3x3"
  bottom: "inception_4a/5x5"
  bottom: "inception_4a/pool_proj"
  top: "inception_4a/output"
}
layer {
  name: "loss1/ave_pool"
  type: "Pooling"
  bottom: "inception_4a/output"
  top: "loss1/ave_pool"
  pooling_param {
    pool: AVE
    kernel_size: 5
    stride: 3
  }
}
layer {
  name: "loss1/conv"
  type: "Convolution"
  bottom: "loss1/ave_pool"
  top: "loss1/conv"
  param {
    lr_mult: 1
    decay_mult: 1
  }
  param {
    lr_mult: 2
    decay_mult: 0
  }
  convolution_param {
    num_output: 128
    kernel_size: 1
    weight_filler {
      type: "xavier"
      std: 0.08
    }
    bias_filler {
      type: "constant"
      value: 0.2
    }
  }
}
layer {
  name: "loss1/relu_conv"
  type: "ReLU"
  bottom: "loss1/conv"
  top: "loss1/conv"
}
layer {
  name: "loss1/fc"
  type: "InnerProduct"
  bottom: "loss1/conv"
  top: "loss1/fc"
  param {
    lr_mult: 1
    decay_mult: 1
  }
  param {
    lr_mult: 2
    decay_mult: 0
  }
  inner_product_param {
    num_output: 1024
    weight_filler {
      type: "xavier"
      std: 0.02
    }
    bias_filler {
      type: "constant"
      value: 0.2
    }
  }
}
layer {
  name: "loss1/relu_fc"
  type: "ReLU"
  bottom: "loss1/fc"
  top: "loss1/fc"
}
layer {
  name: "loss1/drop_fc"
  type: "Dropout"
  bottom: "loss1/fc"
  top: "loss1/fc"
  dropout_param {
    dropout_ratio: 0.7
  }
}
layer {
  name: "loss1/classifier_plantvillage"
  type: "InnerProduct"
  bottom: "loss1/fc"
  top: "loss1/classifier_plantvillage"
  param {
    lr_mult: 1
    decay_mult: 1
  }
  param {
    lr_mult: 2
    decay_mult: 0
  }
  inner_product_param {
    num_output: 38
    weight_filler {
      type: "xavier"
      std: 0.0009765625
    }
    bias_filler {
      type: "constant"
      value: 0
    }
  }
}
layer {
  name: "inception_4b/1x1"
  type: "Convolution"
  bottom: "inception_4a/output"
  top: "inception_4b/1x1"
  param {
    lr_mult: 1
    decay_mult: 1
  }
  param {
    lr_mult: 2
    decay_mult: 0
  }
  convolution_param {
    num_output: 160
    kernel_size: 1
    weight_filler {
      type: "xavier"
      std: 0.03
    }
    bias_filler {
      type: "constant"
      value: 0.2
    }
  }
}
layer {
  name: "inception_4b/relu_1x1"
  type: "ReLU"
  bottom: "inception_4b/1x1"
  top: "inception_4b/1x1"
}
layer {
  name: "inception_4b/3x3_reduce"
  type: "Convolution"
  bottom: "inception_4a/output"
  top: "inception_4b/3x3_reduce"
  param {
    lr_mult: 1
    decay_mult: 1
  }
  param {
    lr_mult: 2
    decay_mult: 0
  }
  convolution_param {
    num_output: 112
    kernel_size: 1
    weight_filler {
      type: "xavier"
      std: 0.09
    }
    bias_filler {
      type: "constant"
      value: 0.2
    }
  }
}
layer {
  name: "inception_4b/relu_3x3_reduce"
  type: "ReLU"
  bottom: "inception_4b/3x3_reduce"
  top: "inception_4b/3x3_reduce"
}
layer {
  name: "inception_4b/3x3"
  type: "Convolution"
  bottom: "inception_4b/3x3_reduce"
  top: "inception_4b/3x3"
  param {
    lr_mult: 1
    decay_mult: 1
  }
  param {
    lr_mult: 2
    decay_mult: 0
  }
  convolution_param {
    num_output: 224
    pad: 1
    kernel_size: 3
    weight_filler {
      type: "xavier"
      std: 0.03
    }
    bias_filler {
      type: "constant"
      value: 0.2
    }
  }
}
layer {
  name: "inception_4b/relu_3x3"
  type: "ReLU"
  bottom: "inception_4b/3x3"
  top: "inception_4b/3x3"
}
layer {
  name: "inception_4b/5x5_reduce"
  type: "Convolution"
  bottom: "inception_4a/output"
  top: "inception_4b/5x5_reduce"
  param {
    lr_mult: 1
    decay_mult: 1
  }
  param {
    lr_mult: 2
    decay_mult: 0
  }
  convolution_param {
    num_output: 24
    kernel_size: 1
    weight_filler {
      type: "xavier"
      std: 0.2
    }
    bias_filler {
      type: "constant"
      value: 0.2
    }
  }
}
layer {
  name: "inception_4b/relu_5x5_reduce"
  type: "ReLU"
  bottom: "inception_4b/5x5_reduce"
  top: "inception_4b/5x5_reduce"
}
layer {
  name: "inception_4b/5x5"
  type: "Convolution"
  bottom: "inception_4b/5x5_reduce"
  top: "inception_4b/5x5"
  param {
    lr_mult: 1
    decay_mult: 1
  }
  param {
    lr_mult: 2
    decay_mult: 0
  }
  convolution_param {
    num_output: 64
    pad: 2
    kernel_size: 5
    weight_filler {
      type: "xavier"
      std: 0.03
    }
    bias_filler {
      type: "constant"
      value: 0.2
    }
  }
}
layer {
  name: "inception_4b/relu_5x5"
  type: "ReLU"
  bottom: "inception_4b/5x5"
  top: "inception_4b/5x5"
}
layer {
  name: "inception_4b/pool"
  type: "Pooling"
  bottom: "inception_4a/output"
  top: "inception_4b/pool"
  pooling_param {
    pool: MAX
    kernel_size: 3
    stride: 1
    pad: 1
  }
}
layer {
  name: "inception_4b/pool_proj"
  type: "Convolution"
  bottom: "inception_4b/pool"
  top: "inception_4b/pool_proj"
  param {
    lr_mult: 1
    decay_mult: 1
  }
  param {
    lr_mult: 2
    decay_mult: 0
  }
  convolution_param {
    num_output: 64
    kernel_size: 1
    weight_filler {
      type: "xavier"
      std: 0.1
    }
    bias_filler {
      type: "constant"
      value: 0.2
    }
  }
}
layer {
  name: "inception_4b/relu_pool_proj"
  type: "ReLU"
  bottom: "inception_4b/pool_proj"
  top: "inception_4b/pool_proj"
}
layer {
  name: "inception_4b/output"
  type: "Concat"
  bottom: "inception_4b/1x1"
  bottom: "inception_4b/3x3"
  bottom: "inception_4b/5x5"
  bottom: "inception_4b/pool_proj"
  top: "inception_4b/output"
}
layer {
  name: "inception_4c/1x1"
  type: "Convolution"
  bottom: "inception_4b/output"
  top: "inception_4c/1x1"
  param {
    lr_mult: 1
    decay_mult: 1
  }
  param {
    lr_mult: 2
    decay_mult: 0
  }
  convolution_param {
    num_output: 128
    kernel_size: 1
    weight_filler {
      type: "xavier"
      std: 0.03
    }
    bias_filler {
      type: "constant"
      value: 0.2
    }
  }
}
layer {
  name: "inception_4c/relu_1x1"
  type: "ReLU"
  bottom: "inception_4c/1x1"
  top: "inception_4c/1x1"
}
layer {
  name: "inception_4c/3x3_reduce"
  type: "Convolution"
  bottom: "inception_4b/output"
  top: "inception_4c/3x3_reduce"
  param {
    lr_mult: 1
    decay_mult: 1
  }
  param {
    lr_mult: 2
    decay_mult: 0
  }
  convolution_param {
    num_output: 128
    kernel_size: 1
    weight_filler {
      type: "xavier"
      std: 0.09
    }
    bias_filler {
      type: "constant"
      value: 0.2
    }
  }
}
layer {
  name: "inception_4c/relu_3x3_reduce"
  type: "ReLU"
  bottom: "inception_4c/3x3_reduce"
  top: "inception_4c/3x3_reduce"
}
layer {
  name: "inception_4c/3x3"
  type: "Convolution"
  bottom: "inception_4c/3x3_reduce"
  top: "inception_4c/3x3"
  param {
    lr_mult: 1
    decay_mult: 1
  }
  param {
    lr_mult: 2
    decay_mult: 0
  }
  convolution_param {
    num_output: 256
    pad: 1
    kernel_size: 3
    weight_filler {
      type: "xavier"
      std: 0.03
    }
    bias_filler {
      type: "constant"
      value: 0.2
    }
  }
}
layer {
  name: "inception_4c/relu_3x3"
  type: "ReLU"
  bottom: "inception_4c/3x3"
  top: "inception_4c/3x3"
}
layer {
  name: "inception_4c/5x5_reduce"
  type: "Convolution"
  bottom: "inception_4b/output"
  top: "inception_4c/5x5_reduce"
  param {
    lr_mult: 1
    decay_mult: 1
  }
  param {
    lr_mult: 2
    decay_mult: 0
  }
  convolution_param {
    num_output: 24
    kernel_size: 1
    weight_filler {
      type: "xavier"
      std: 0.2
    }
    bias_filler {
      type: "constant"
      value: 0.2
    }
  }
}
layer {
  name: "inception_4c/relu_5x5_reduce"
  type: "ReLU"
  bottom: "inception_4c/5x5_reduce"
  top: "inception_4c/5x5_reduce"
}
layer {
  name: "inception_4c/5x5"
  type: "Convolution"
  bottom: "inception_4c/5x5_reduce"
  top: "inception_4c/5x5"
  param {
    lr_mult: 1
    decay_mult: 1
  }
  param {
    lr_mult: 2
    decay_mult: 0
  }
  convolution_param {
    num_output: 64
    pad: 2
    kernel_size: 5
    weight_filler {
      type: "xavier"
      std: 0.03
    }
    bias_filler {
      type: "constant"
      value: 0.2
    }
  }
}
layer {
  name: "inception_4c/relu_5x5"
  type: "ReLU"
  bottom: "inception_4c/5x5"
  top: "inception_4c/5x5"
}
layer {
  name: "inception_4c/pool"
  type: "Pooling"
  bottom: "inception_4b/output"
  top: "inception_4c/pool"
  pooling_param {
    pool: MAX
    kernel_size: 3
    stride: 1
    pad: 1
  }
}
layer {
  name: "inception_4c/pool_proj"
  type: "Convolution"
  bottom: "inception_4c/pool"
  top: "inception_4c/pool_proj"
  param {
    lr_mult: 1
    decay_mult: 1
  }
  param {
    lr_mult: 2
    decay_mult: 0
  }
  convolution_param {
    num_output: 64
    kernel_size: 1
    weight_filler {
      type: "xavier"
      std: 0.1
    }
    bias_filler {
      type: "constant"
      value: 0.2
    }
  }
}
layer {
  name: "inception_4c/relu_pool_proj"
  type: "ReLU"
  bottom: "inception_4c/pool_proj"
  top: "inception_4c/pool_proj"
}
layer {
  name: "inception_4c/output"
  type: "Concat"
  bottom: "inception_4c/1x1"
  bottom: "inception_4c/3x3"
  bottom: "inception_4c/5x5"
  bottom: "inception_4c/pool_proj"
  top: "inception_4c/output"
}
layer {
  name: "inception_4d/1x1"
  type: "Convolution"
  bottom: "inception_4c/output"
  top: "inception_4d/1x1"
  param {
    lr_mult: 1
    decay_mult: 1
  }
  param {
    lr_mult: 2
    decay_mult: 0
  }
  convolution_param {
    num_output: 112
    kernel_size: 1
    weight_filler {
      type: "xavier"
      std: 0.03
    }
    bias_filler {
      type: "constant"
      value: 0.2
    }
  }
}
layer {
  name: "inception_4d/relu_1x1"
  type: "ReLU"
  bottom: "inception_4d/1x1"
  top: "inception_4d/1x1"
}
layer {
  name: "inception_4d/3x3_reduce"
  type: "Convolution"
  bottom: "inception_4c/output"
  top: "inception_4d/3x3_reduce"
  param {
    lr_mult: 1
    decay_mult: 1
  }
  param {
    lr_mult: 2
    decay_mult: 0
  }
  convolution_param {
    num_output: 144
    kernel_size: 1
    weight_filler {
      type: "xavier"
      std: 0.09
    }
    bias_filler {
      type: "constant"
      value: 0.2
    }
  }
}
layer {
  name: "inception_4d/relu_3x3_reduce"
  type: "ReLU"
  bottom: "inception_4d/3x3_reduce"
  top: "inception_4d/3x3_reduce"
}
layer {
  name: "inception_4d/3x3"
  type: "Convolution"
  bottom: "inception_4d/3x3_reduce"
  top: "inception_4d/3x3"
  param {
    lr_mult: 1
    decay_mult: 1
  }
  param {
    lr_mult: 2
    decay_mult: 0
  }
  convolution_param {
    num_output: 288
    pad: 1
    kernel_size: 3
    weight_filler {
      type: "xavier"
      std: 0.03
    }
    bias_filler {
      type: "constant"
      value: 0.2
    }
  }
}
layer {
  name: "inception_4d/relu_3x3"
  type: "ReLU"
  bottom: "inception_4d/3x3"
  top: "inception_4d/3x3"
}
layer {
  name: "inception_4d/5x5_reduce"
  type: "Convolution"
  bottom: "inception_4c/output"
  top: "inception_4d/5x5_reduce"
  param {
    lr_mult: 1
    decay_mult: 1
  }
  param {
    lr_mult: 2
    decay_mult: 0
  }
  convolution_param {
    num_output: 32
    kernel_size: 1
    weight_filler {
      type: "xavier"
      std: 0.2
    }
    bias_filler {
      type: "constant"
      value: 0.2
    }
  }
}
layer {
  name: "inception_4d/relu_5x5_reduce"
  type: "ReLU"
  bottom: "inception_4d/5x5_reduce"
  top: "inception_4d/5x5_reduce"
}
layer {
  name: "inception_4d/5x5"
  type: "Convolution"
  bottom: "inception_4d/5x5_reduce"
  top: "inception_4d/5x5"
  param {
    lr_mult: 1
    decay_mult: 1
  }
  param {
    lr_mult: 2
    decay_mult: 0
  }
  convolution_param {
    num_output: 64
    pad: 2
    kernel_size: 5
    weight_filler {
      type: "xavier"
      std: 0.03
    }
    bias_filler {
      type: "constant"
      value: 0.2
    }
  }
}
layer {
  name: "inception_4d/relu_5x5"
  type: "ReLU"
  bottom: "inception_4d/5x5"
  top: "inception_4d/5x5"
}
layer {
  name: "inception_4d/pool"
  type: "Pooling"
  bottom: "inception_4c/output"
  top: "inception_4d/pool"
  pooling_param {
    pool: MAX
    kernel_size: 3
    stride: 1
    pad: 1
  }
}
layer {
  name: "inception_4d/pool_proj"
  type: "Convolution"
  bottom: "inception_4d/pool"
  top: "inception_4d/pool_proj"
  param {
    lr_mult: 1
    decay_mult: 1
  }
  param {
    lr_mult: 2
    decay_mult: 0
  }
  convolution_param {
    num_output: 64
    kernel_size: 1
    weight_filler {
      type: "xavier"
      std: 0.1
    }
    bias_filler {
      type: "constant"
      value: 0.2
    }
  }
}
layer {
  name: "inception_4d/relu_pool_proj"
  type: "ReLU"
  bottom: "inception_4d/pool_proj"
  top: "inception_4d/pool_proj"
}
layer {
  name: "inception_4d/output"
  type: "Concat"
  bottom: "inception_4d/1x1"
  bottom: "inception_4d/3x3"
  bottom: "inception_4d/5x5"
  bottom: "inception_4d/pool_proj"
  top: "inception_4d/output"
}
layer {
  name: "loss2/ave_pool"
  type: "Pooling"
  bottom: "inception_4d/output"
  top: "loss2/ave_pool"
  pooling_param {
    pool: AVE
    kernel_size: 5
    stride: 3
  }
}
layer {
  name: "loss2/conv"
  type: "Convolution"
  bottom: "loss2/ave_pool"
  top: "loss2/conv"
  param {
    lr_mult: 1
    decay_mult: 1
  }
  param {
    lr_mult: 2
    decay_mult: 0
  }
  convolution_param {
    num_output: 128
    kernel_size: 1
    weight_filler {
      type: "xavier"
      std: 0.08
    }
    bias_filler {
      type: "constant"
      value: 0.2
    }
  }
}
layer {
  name: "loss2/relu_conv"
  type: "ReLU"
  bottom: "loss2/conv"
  top: "loss2/conv"
}
layer {
  name: "loss2/fc"
  type: "InnerProduct"
  bottom: "loss2/conv"
  top: "loss2/fc"
  param {
    lr_mult: 1
    decay_mult: 1
  }
  param {
    lr_mult: 2
    decay_mult: 0
  }
  inner_product_param {
    num_output: 1024
    weight_filler {
      type: "xavier"
      std: 0.02
    }
    bias_filler {
      type: "constant"
      value: 0.2
    }
  }
}
layer {
  name: "loss2/relu_fc"
  type: "ReLU"
  bottom: "loss2/fc"
  top: "loss2/fc"
}
layer {
  name: "loss2/drop_fc"
  type: "Dropout"
  bottom: "loss2/fc"
  top: "loss2/fc"
  dropout_param {
    dropout_ratio: 0.7
  }
}
layer {
  name: "loss2/classifier_plantvillage"
  type: "InnerProduct"
  bottom: "loss2/fc"
  top: "loss2/classifier_plantvillage"
  param {
    lr_mult: 1
    decay_mult: 1
  }
  param {
    lr_mult: 2
    decay_mult: 0
  }
  inner_product_param {
    num_output: 38
    weight_filler {
      type: "xavier"
      std: 0.0009765625
    }
    bias_filler {
      type: "constant"
      value: 0
    }
  }
}
layer {
  name: "inception_4e/1x1"
  type: "Convolution"
  bottom: "inception_4d/output"
  top: "inception_4e/1x1"
  param {
    lr_mult: 1
    decay_mult: 1
  }
  param {
    lr_mult: 2
    decay_mult: 0
  }
  convolution_param {
    num_output: 256
    kernel_size: 1
    weight_filler {
      type: "xavier"
      std: 0.03
    }
    bias_filler {
      type: "constant"
      value: 0.2
    }
  }
}
layer {
  name: "inception_4e/relu_1x1"
  type: "ReLU"
  bottom: "inception_4e/1x1"
  top: "inception_4e/1x1"
}
layer {
  name: "inception_4e/3x3_reduce"
  type: "Convolution"
  bottom: "inception_4d/output"
  top: "inception_4e/3x3_reduce"
  param {
    lr_mult: 1
    decay_mult: 1
  }
  param {
    lr_mult: 2
    decay_mult: 0
  }
  convolution_param {
    num_output: 160
    kernel_size: 1
    weight_filler {
      type: "xavier"
      std: 0.09
    }
    bias_filler {
      type: "constant"
      value: 0.2
    }
  }
}
layer {
  name: "inception_4e/relu_3x3_reduce"
  type: "ReLU"
  bottom: "inception_4e/3x3_reduce"
  top: "inception_4e/3x3_reduce"
}
layer {
  name: "inception_4e/3x3"
  type: "Convolution"
  bottom: "inception_4e/3x3_reduce"
  top: "inception_4e/3x3"
  param {
    lr_mult: 1
    decay_mult: 1
  }
  param {
    lr_mult: 2
    decay_mult: 0
  }
  convolution_param {
    num_output: 320
    pad: 1
    kernel_size: 3
    weight_filler {
      type: "xavier"
      std: 0.03
    }
    bias_filler {
      type: "constant"
      value: 0.2
    }
  }
}
layer {
  name: "inception_4e/relu_3x3"
  type: "ReLU"
  bottom: "inception_4e/3x3"
  top: "inception_4e/3x3"
}
layer {
  name: "inception_4e/5x5_reduce"
  type: "Convolution"
  bottom: "inception_4d/output"
  top: "inception_4e/5x5_reduce"
  param {
    lr_mult: 1
    decay_mult: 1
  }
  param {
    lr_mult: 2
    decay_mult: 0
  }
  convolution_param {
    num_output: 32
    kernel_size: 1
    weight_filler {
      type: "xavier"
      std: 0.2
    }
    bias_filler {
      type: "constant"
      value: 0.2
    }
  }
}
layer {
  name: "inception_4e/relu_5x5_reduce"
  type: "ReLU"
  bottom: "inception_4e/5x5_reduce"
  top: "inception_4e/5x5_reduce"
}
layer {
  name: "inception_4e/5x5"
  type: "Convolution"
  bottom: "inception_4e/5x5_reduce"
  top: "inception_4e/
I0403 14:32:51.780757  1460 layer_factory.hpp:77] Creating layer data
I0403 14:32:51.781360  1460 net.cpp:91] Creating Layer data
I0403 14:32:51.781394  1460 net.cpp:399] data -> data
I0403 14:32:51.781446  1460 net.cpp:399] data -> label
I0403 14:32:51.781482  1460 data_transformer.cpp:25] Loading mean file from: /home/mohanty/data/final_dataset/lmdb/grayscale-20-80/mean.binaryproto
I0403 14:32:51.782747  1463 db_lmdb.cpp:38] Opened lmdb /home/mohanty/data/final_dataset/lmdb/grayscale-20-80/test_db
I0403 14:32:51.794612  1460 data_layer.cpp:41] output data size: 24,3,224,224
I0403 14:32:51.821574  1460 net.cpp:141] Setting up data
I0403 14:32:51.821676  1460 net.cpp:148] Top shape: 24 3 224 224 (3612672)
I0403 14:32:51.821698  1460 net.cpp:148] Top shape: 24 (24)
I0403 14:32:51.821713  1460 net.cpp:156] Memory required for data: 14450784
I0403 14:32:51.821741  1460 layer_factory.hpp:77] Creating layer label_data_1_split
I0403 14:32:51.821768  1460 net.cpp:91] Creating Layer label_data_1_split
I0403 14:32:51.821786  1460 net.cpp:425] label_data_1_split <- label
I0403 14:32:51.821818  1460 net.cpp:399] label_data_1_split -> label_data_1_split_0
I0403 14:32:51.821846  1460 net.cpp:399] label_data_1_split -> label_data_1_split_1
I0403 14:32:51.821868  1460 net.cpp:399] label_data_1_split -> label_data_1_split_2
I0403 14:32:51.821889  1460 net.cpp:399] label_data_1_split -> label_data_1_split_3
I0403 14:32:51.821909  1460 net.cpp:399] label_data_1_split -> label_data_1_split_4
I0403 14:32:51.821929  1460 net.cpp:399] label_data_1_split -> label_data_1_split_5
I0403 14:32:51.821950  1460 net.cpp:399] label_data_1_split -> label_data_1_split_6
I0403 14:32:51.821971  1460 net.cpp:399] label_data_1_split -> label_data_1_split_7
I0403 14:32:51.821991  1460 net.cpp:399] label_data_1_split -> label_data_1_split_8
I0403 14:32:51.822011  1460 net.cpp:399] label_data_1_split -> label_data_1_split_9
I0403 14:32:51.822131  1460 net.cpp:141] Setting up label_data_1_split
I0403 14:32:51.822155  1460 net.cpp:148] Top shape: 24 (24)
I0403 14:32:51.822172  1460 net.cpp:148] Top shape: 24 (24)
I0403 14:32:51.822196  1460 net.cpp:148] Top shape: 24 (24)
I0403 14:32:51.822212  1460 net.cpp:148] Top shape: 24 (24)
I0403 14:32:51.822228  1460 net.cpp:148] Top shape: 24 (24)
I0403 14:32:51.822244  1460 net.cpp:148] Top shape: 24 (24)
I0403 14:32:51.822260  1460 net.cpp:148] Top shape: 24 (24)
I0403 14:32:51.822276  1460 net.cpp:148] Top shape: 24 (24)
I0403 14:32:51.822293  1460 net.cpp:148] Top shape: 24 (24)
I0403 14:32:51.822309  1460 net.cpp:148] Top shape: 24 (24)
I0403 14:32:51.822353  1460 net.cpp:156] Memory required for data: 14451744
I0403 14:32:51.822370  1460 layer_factory.hpp:77] Creating layer conv1/7x7_s2
I0403 14:32:51.822402  1460 net.cpp:91] Creating Layer conv1/7x7_s2
I0403 14:32:51.822420  1460 net.cpp:425] conv1/7x7_s2 <- data
I0403 14:32:51.822440  1460 net.cpp:399] conv1/7x7_s2 -> conv1/7x7_s2
I0403 14:32:51.961041  1460 net.cpp:141] Setting up conv1/7x7_s2
I0403 14:32:51.961129  1460 net.cpp:148] Top shape: 24 64 112 112 (19267584)
I0403 14:32:51.961148  1460 net.cpp:156] Memory required for data: 91522080
I0403 14:32:51.961182  1460 layer_factory.hpp:77] Creating layer conv1/relu_7x7
I0403 14:32:51.961213  1460 net.cpp:91] Creating Layer conv1/relu_7x7
I0403 14:32:51.961232  1460 net.cpp:425] conv1/relu_7x7 <- conv1/7x7_s2
I0403 14:32:51.961251  1460 net.cpp:386] conv1/relu_7x7 -> conv1/7x7_s2 (in-place)
I0403 14:32:51.961529  1460 net.cpp:141] Setting up conv1/relu_7x7
I0403 14:32:51.961555  1460 net.cpp:148] Top shape: 24 64 112 112 (19267584)
I0403 14:32:51.961571  1460 net.cpp:156] Memory required for data: 168592416
I0403 14:32:51.961586  1460 layer_factory.hpp:77] Creating layer pool1/3x3_s2
I0403 14:32:51.961612  1460 net.cpp:91] Creating Layer pool1/3x3_s2
I0403 14:32:51.961630  1460 net.cpp:425] pool1/3x3_s2 <- conv1/7x7_s2
I0403 14:32:51.961649  1460 net.cpp:399] pool1/3x3_s2 -> pool1/3x3_s2
I0403 14:32:51.961726  1460 net.cpp:141] Setting up pool1/3x3_s2
I0403 14:32:51.961750  1460 net.cpp:148] Top shape: 24 64 56 56 (4816896)
I0403 14:32:51.961766  1460 net.cpp:156] Memory required for data: 187860000
I0403 14:32:51.961781  1460 layer_factory.hpp:77] Creating layer pool1/norm1
I0403 14:32:51.961807  1460 net.cpp:91] Creating Layer pool1/norm1
I0403 14:32:51.961824  1460 net.cpp:425] pool1/norm1 <- pool1/3x3_s2
I0403 14:32:51.961843  1460 net.cpp:399] pool1/norm1 -> pool1/norm1
I0403 14:32:51.962158  1460 net.cpp:141] Setting up pool1/norm1
I0403 14:32:51.962214  1460 net.cpp:148] Top shape: 24 64 56 56 (4816896)
I0403 14:32:51.962234  1460 net.cpp:156] Memory required for data: 207127584
I0403 14:32:51.962249  1460 layer_factory.hpp:77] Creating layer conv2/3x3_reduce
I0403 14:32:51.962276  1460 net.cpp:91] Creating Layer conv2/3x3_reduce
I0403 14:32:51.962296  1460 net.cpp:425] conv2/3x3_reduce <- pool1/norm1
I0403 14:32:51.962316  1460 net.cpp:399] conv2/3x3_reduce -> conv2/3x3_reduce
I0403 14:32:51.963728  1460 net.cpp:141] Setting up conv2/3x3_reduce
I0403 14:32:51.963762  1460 net.cpp:148] Top shape: 24 64 56 56 (4816896)
I0403 14:32:51.963811  1460 net.cpp:156] Memory required for data: 226395168
I0403 14:32:51.963855  1460 layer_factory.hpp:77] Creating layer conv2/relu_3x3_reduce
I0403 14:32:51.963874  1460 net.cpp:91] Creating Layer conv2/relu_3x3_reduce
I0403 14:32:51.963891  1460 net.cpp:425] conv2/relu_3x3_reduce <- conv2/3x3_reduce
I0403 14:32:51.963912  1460 net.cpp:386] conv2/relu_3x3_reduce -> conv2/3x3_reduce (in-place)
I0403 14:32:51.964202  1460 net.cpp:141] Setting up conv2/relu_3x3_reduce
I0403 14:32:51.964233  1460 net.cpp:148] Top shape: 24 64 56 56 (4816896)
I0403 14:32:51.964249  1460 net.cpp:156] Memory required for data: 245662752
I0403 14:32:51.964265  1460 layer_factory.hpp:77] Creating layer conv2/3x3
I0403 14:32:51.964288  1460 net.cpp:91] Creating Layer conv2/3x3
I0403 14:32:51.964306  1460 net.cpp:425] conv2/3x3 <- conv2/3x3_reduce
I0403 14:32:51.964328  1460 net.cpp:399] conv2/3x3 -> conv2/3x3
I0403 14:32:51.966730  1460 net.cpp:141] Setting up conv2/3x3
I0403 14:32:51.966764  1460 net.cpp:148] Top shape: 24 192 56 56 (14450688)
I0403 14:32:51.966783  1460 net.cpp:156] Memory required for data: 303465504
I0403 14:32:51.966804  1460 layer_factory.hpp:77] Creating layer conv2/relu_3x3
I0403 14:32:51.966825  1460 net.cpp:91] Creating Layer conv2/relu_3x3
I0403 14:32:51.966841  1460 net.cpp:425] conv2/relu_3x3 <- conv2/3x3
I0403 14:32:51.966861  1460 net.cpp:386] conv2/relu_3x3 -> conv2/3x3 (in-place)
I0403 14:32:51.967041  1460 net.cpp:141] Setting up conv2/relu_3x3
I0403 14:32:51.967067  1460 net.cpp:148] Top shape: 24 192 56 56 (14450688)
I0403 14:32:51.967113  1460 net.cpp:156] Memory required for data: 361268256
I0403 14:32:51.967129  1460 layer_factory.hpp:77] Creating layer conv2/norm2
I0403 14:32:51.967150  1460 net.cpp:91] Creating Layer conv2/norm2
I0403 14:32:51.967169  1460 net.cpp:425] conv2/norm2 <- conv2/3x3
I0403 14:32:51.967206  1460 net.cpp:399] conv2/norm2 -> conv2/norm2
I0403 14:32:51.967509  1460 net.cpp:141] Setting up conv2/norm2
I0403 14:32:51.967537  1460 net.cpp:148] Top shape: 24 192 56 56 (14450688)
I0403 14:32:51.967553  1460 net.cpp:156] Memory required for data: 419071008
I0403 14:32:51.967568  1460 layer_factory.hpp:77] Creating layer pool2/3x3_s2
I0403 14:32:51.967586  1460 net.cpp:91] Creating Layer pool2/3x3_s2
I0403 14:32:51.967602  1460 net.cpp:425] pool2/3x3_s2 <- conv2/norm2
I0403 14:32:51.967622  1460 net.cpp:399] pool2/3x3_s2 -> pool2/3x3_s2
I0403 14:32:51.967674  1460 net.cpp:141] Setting up pool2/3x3_s2
I0403 14:32:51.967697  1460 net.cpp:148] Top shape: 24 192 28 28 (3612672)
I0403 14:32:51.967711  1460 net.cpp:156] Memory required for data: 433521696
I0403 14:32:51.967726  1460 layer_factory.hpp:77] Creating layer pool2/3x3_s2_pool2/3x3_s2_0_split
I0403 14:32:51.967746  1460 net.cpp:91] Creating Layer pool2/3x3_s2_pool2/3x3_s2_0_split
I0403 14:32:51.967762  1460 net.cpp:425] pool2/3x3_s2_pool2/3x3_s2_0_split <- pool2/3x3_s2
I0403 14:32:51.967780  1460 net.cpp:399] pool2/3x3_s2_pool2/3x3_s2_0_split -> pool2/3x3_s2_pool2/3x3_s2_0_split_0
I0403 14:32:51.967799  1460 net.cpp:399] pool2/3x3_s2_pool2/3x3_s2_0_split -> pool2/3x3_s2_pool2/3x3_s2_0_split_1
I0403 14:32:51.967819  1460 net.cpp:399] pool2/3x3_s2_pool2/3x3_s2_0_split -> pool2/3x3_s2_pool2/3x3_s2_0_split_2
I0403 14:32:51.967841  1460 net.cpp:399] pool2/3x3_s2_pool2/3x3_s2_0_split -> pool2/3x3_s2_pool2/3x3_s2_0_split_3
I0403 14:32:51.967913  1460 net.cpp:141] Setting up pool2/3x3_s2_pool2/3x3_s2_0_split
I0403 14:32:51.967936  1460 net.cpp:148] Top shape: 24 192 28 28 (3612672)
I0403 14:32:51.967952  1460 net.cpp:148] Top shape: 24 192 28 28 (3612672)
I0403 14:32:51.967967  1460 net.cpp:148] Top shape: 24 192 28 28 (3612672)
I0403 14:32:51.967983  1460 net.cpp:148] Top shape: 24 192 28 28 (3612672)
I0403 14:32:51.967995  1460 net.cpp:156] Memory required for data: 491324448
I0403 14:32:51.968010  1460 layer_factory.hpp:77] Creating layer inception_3a/1x1
I0403 14:32:51.968032  1460 net.cpp:91] Creating Layer inception_3a/1x1
I0403 14:32:51.968049  1460 net.cpp:425] inception_3a/1x1 <- pool2/3x3_s2_pool2/3x3_s2_0_split_0
I0403 14:32:51.968071  1460 net.cpp:399] inception_3a/1x1 -> inception_3a/1x1
I0403 14:32:51.969578  1460 net.cpp:141] Setting up inception_3a/1x1
I0403 14:32:51.969606  1460 net.cpp:148] Top shape: 24 64 28 28 (1204224)
I0403 14:32:51.969622  1460 net.cpp:156] Memory required for data: 496141344
I0403 14:32:51.969640  1460 layer_factory.hpp:77] Creating layer inception_3a/relu_1x1
I0403 14:32:51.969658  1460 net.cpp:91] Creating Layer inception_3a/relu_1x1
I0403 14:32:51.969674  1460 net.cpp:425] inception_3a/relu_1x1 <- inception_3a/1x1
I0403 14:32:51.969694  1460 net.cpp:386] inception_3a/relu_1x1 -> inception_3a/1x1 (in-place)
I0403 14:32:51.969868  1460 net.cpp:141] Setting up inception_3a/relu_1x1
I0403 14:32:51.969893  1460 net.cpp:148] Top shape: 24 64 28 28 (1204224)
I0403 14:32:51.969907  1460 net.cpp:156] Memory required for data: 500958240
I0403 14:32:51.969923  1460 layer_factory.hpp:77] Creating layer inception_3a/3x3_reduce
I0403 14:32:51.969945  1460 net.cpp:91] Creating Layer inception_3a/3x3_reduce
I0403 14:32:51.969962  1460 net.cpp:425] inception_3a/3x3_reduce <- pool2/3x3_s2_pool2/3x3_s2_0_split_1
I0403 14:32:51.969983  1460 net.cpp:399] inception_3a/3x3_reduce -> inception_3a/3x3_reduce
I0403 14:32:51.971671  1460 net.cpp:141] Setting up inception_3a/3x3_reduce
I0403 14:32:51.971704  1460 net.cpp:148] Top shape: 24 96 28 28 (1806336)
I0403 14:32:51.971721  1460 net.cpp:156] Memory required for data: 508183584
I0403 14:32:51.971743  1460 layer_factory.hpp:77] Creating layer inception_3a/relu_3x3_reduce
I0403 14:32:51.971781  1460 net.cpp:91] Creating Layer inception_3a/relu_3x3_reduce
I0403 14:32:51.971801  1460 net.cpp:425] inception_3a/relu_3x3_reduce <- inception_3a/3x3_reduce
I0403 14:32:51.971819  1460 net.cpp:386] inception_3a/relu_3x3_reduce -> inception_3a/3x3_reduce (in-place)
I0403 14:32:51.972002  1460 net.cpp:141] Setting up inception_3a/relu_3x3_reduce
I0403 14:32:51.972028  1460 net.cpp:148] Top shape: 24 96 28 28 (1806336)
I0403 14:32:51.972044  1460 net.cpp:156] Memory required for data: 515408928
I0403 14:32:51.972060  1460 layer_factory.hpp:77] Creating layer inception_3a/3x3
I0403 14:32:51.972084  1460 net.cpp:91] Creating Layer inception_3a/3x3
I0403 14:32:51.972102  1460 net.cpp:425] inception_3a/3x3 <- inception_3a/3x3_reduce
I0403 14:32:51.972121  1460 net.cpp:399] inception_3a/3x3 -> inception_3a/3x3
I0403 14:32:51.973811  1460 net.cpp:141] Setting up inception_3a/3x3
I0403 14:32:51.973841  1460 net.cpp:148] Top shape: 24 128 28 28 (2408448)
I0403 14:32:51.973857  1460 net.cpp:156] Memory required for data: 525042720
I0403 14:32:51.973877  1460 layer_factory.hpp:77] Creating layer inception_3a/relu_3x3
I0403 14:32:51.973896  1460 net.cpp:91] Creating Layer inception_3a/relu_3x3
I0403 14:32:51.973913  1460 net.cpp:425] inception_3a/relu_3x3 <- inception_3a/3x3
I0403 14:32:51.973934  1460 net.cpp:386] inception_3a/relu_3x3 -> inception_3a/3x3 (in-place)
I0403 14:32:51.974217  1460 net.cpp:141] Setting up inception_3a/relu_3x3
I0403 14:32:51.974244  1460 net.cpp:148] Top shape: 24 128 28 28 (2408448)
I0403 14:32:51.974261  1460 net.cpp:156] Memory required for data: 534676512
I0403 14:32:51.974277  1460 layer_factory.hpp:77] Creating layer inception_3a/5x5_reduce
I0403 14:32:51.974299  1460 net.cpp:91] Creating Layer inception_3a/5x5_reduce
I0403 14:32:51.974318  1460 net.cpp:425] inception_3a/5x5_reduce <- pool2/3x3_s2_pool2/3x3_s2_0_split_2
I0403 14:32:51.974340  1460 net.cpp:399] inception_3a/5x5_reduce -> inception_3a/5x5_reduce
I0403 14:32:51.975324  1460 net.cpp:141] Setting up inception_3a/5x5_reduce
I0403 14:32:51.975353  1460 net.cpp:148] Top shape: 24 16 28 28 (301056)
I0403 14:32:51.975369  1460 net.cpp:156] Memory required for data: 535880736
I0403 14:32:51.975389  1460 layer_factory.hpp:77] Creating layer inception_3a/relu_5x5_reduce
I0403 14:32:51.975409  1460 net.cpp:91] Creating Layer inception_3a/relu_5x5_reduce
I0403 14:32:51.975427  1460 net.cpp:425] inception_3a/relu_5x5_reduce <- inception_3a/5x5_reduce
I0403 14:32:51.975445  1460 net.cpp:386] inception_3a/relu_5x5_reduce -> inception_3a/5x5_reduce (in-place)
I0403 14:32:51.975782  1460 net.cpp:141] Setting up inception_3a/relu_5x5_reduce
I0403 14:32:51.975808  1460 net.cpp:148] Top shape: 24 16 28 28 (301056)
I0403 14:32:51.975824  1460 net.cpp:156] Memory required for data: 537084960
I0403 14:32:51.975839  1460 layer_factory.hpp:77] Creating layer inception_3a/5x5
I0403 14:32:51.975862  1460 net.cpp:91] Creating Layer inception_3a/5x5
I0403 14:32:51.975883  1460 net.cpp:425] inception_3a/5x5 <- inception_3a/5x5_reduce
I0403 14:32:51.975901  1460 net.cpp:399] inception_3a/5x5 -> inception_3a/5x5
I0403 14:32:51.976936  1460 net.cpp:141] Setting up inception_3a/5x5
I0403 14:32:51.976964  1460 net.cpp:148] Top shape: 24 32 28 28 (602112)
I0403 14:32:51.976980  1460 net.cpp:156] Memory required for data: 539493408
I0403 14:32:51.976999  1460 layer_factory.hpp:77] Creating layer inception_3a/relu_5x5
I0403 14:32:51.977018  1460 net.cpp:91] Creating Layer inception_3a/relu_5x5
I0403 14:32:51.977035  1460 net.cpp:425] inception_3a/relu_5x5 <- inception_3a/5x5
I0403 14:32:51.977054  1460 net.cpp:386] inception_3a/relu_5x5 -> inception_3a/5x5 (in-place)
I0403 14:32:51.977236  1460 net.cpp:141] Setting up inception_3a/relu_5x5
I0403 14:32:51.977262  1460 net.cpp:148] Top shape: 24 32 28 28 (602112)
I0403 14:32:51.977277  1460 net.cpp:156] Memory required for data: 541901856
I0403 14:32:51.977291  1460 layer_factory.hpp:77] Creating layer inception_3a/pool
I0403 14:32:51.977313  1460 net.cpp:91] Creating Layer inception_3a/pool
I0403 14:32:51.977344  1460 net.cpp:425] inception_3a/pool <- pool2/3x3_s2_pool2/3x3_s2_0_split_3
I0403 14:32:51.977363  1460 net.cpp:399] inception_3a/pool -> inception_3a/pool
I0403 14:32:51.977423  1460 net.cpp:141] Setting up inception_3a/pool
I0403 14:32:51.977447  1460 net.cpp:148] Top shape: 24 192 28 28 (3612672)
I0403 14:32:51.977464  1460 net.cpp:156] Memory required for data: 556352544
I0403 14:32:51.977479  1460 layer_factory.hpp:77] Creating layer inception_3a/pool_proj
I0403 14:32:51.977501  1460 net.cpp:91] Creating Layer inception_3a/pool_proj
I0403 14:32:51.977519  1460 net.cpp:425] inception_3a/pool_proj <- inception_3a/pool
I0403 14:32:51.977541  1460 net.cpp:399] inception_3a/pool_proj -> inception_3a/pool_proj
I0403 14:32:51.978538  1460 net.cpp:141] Setting up inception_3a/pool_proj
I0403 14:32:51.978569  1460 net.cpp:148] Top shape: 24 32 28 28 (602112)
I0403 14:32:51.978585  1460 net.cpp:156] Memory required for data: 558760992
I0403 14:32:51.978608  1460 layer_factory.hpp:77] Creating layer inception_3a/relu_pool_proj
I0403 14:32:51.978631  1460 net.cpp:91] Creating Layer inception_3a/relu_pool_proj
I0403 14:32:51.978647  1460 net.cpp:425] inception_3a/relu_pool_proj <- inception_3a/pool_proj
I0403 14:32:51.978665  1460 net.cpp:386] inception_3a/relu_pool_proj -> inception_3a/pool_proj (in-place)
I0403 14:32:51.978945  1460 net.cpp:141] Setting up inception_3a/relu_pool_proj
I0403 14:32:51.978972  1460 net.cpp:148] Top shape: 24 32 28 28 (602112)
I0403 14:32:51.978987  1460 net.cpp:156] Memory required for data: 561169440
I0403 14:32:51.979002  1460 layer_factory.hpp:77] Creating layer inception_3a/output
I0403 14:32:51.979022  1460 net.cpp:91] Creating Layer inception_3a/output
I0403 14:32:51.979038  1460 net.cpp:425] inception_3a/output <- inception_3a/1x1
I0403 14:32:51.979055  1460 net.cpp:425] inception_3a/output <- inception_3a/3x3
I0403 14:32:51.979071  1460 net.cpp:425] inception_3a/output <- inception_3a/5x5
I0403 14:32:51.979087  1460 net.cpp:425] inception_3a/output <- inception_3a/pool_proj
I0403 14:32:51.979107  1460 net.cpp:399] inception_3a/output -> inception_3a/output
I0403 14:32:51.979156  1460 net.cpp:141] Setting up inception_3a/output
I0403 14:32:51.979185  1460 net.cpp:148] Top shape: 24 256 28 28 (4816896)
I0403 14:32:51.979203  1460 net.cpp:156] Memory required for data: 580437024
I0403 14:32:51.979218  1460 layer_factory.hpp:77] Creating layer inception_3a/output_inception_3a/output_0_split
I0403 14:32:51.979236  1460 net.cpp:91] Creating Layer inception_3a/output_inception_3a/output_0_split
I0403 14:32:51.979252  1460 net.cpp:425] inception_3a/output_inception_3a/output_0_split <- inception_3a/output
I0403 14:32:51.979269  1460 net.cpp:399] inception_3a/output_inception_3a/output_0_split -> inception_3a/output_inception_3a/output_0_split_0
I0403 14:32:51.979292  1460 net.cpp:399] inception_3a/output_inception_3a/output_0_split -> inception_3a/output_inception_3a/output_0_split_1
I0403 14:32:51.979316  1460 net.cpp:399] inception_3a/output_inception_3a/output_0_split -> inception_3a/output_inception_3a/output_0_split_2
I0403 14:32:51.979338  1460 net.cpp:399] inception_3a/output_inception_3a/output_0_split -> inception_3a/output_inception_3a/output_0_split_3
I0403 14:32:51.979415  1460 net.cpp:141] Setting up inception_3a/output_inception_3a/output_0_split
I0403 14:32:51.979441  1460 net.cpp:148] Top shape: 24 256 28 28 (4816896)
I0403 14:32:51.979460  1460 net.cpp:148] Top shape: 24 256 28 28 (4816896)
I0403 14:32:51.979476  1460 net.cpp:148] Top shape: 24 256 28 28 (4816896)
I0403 14:32:51.979492  1460 net.cpp:148] Top shape: 24 256 28 28 (4816896)
I0403 14:32:51.979506  1460 net.cpp:156] Memory required for data: 657507360
I0403 14:32:51.979521  1460 layer_factory.hpp:77] Creating layer inception_3b/1x1
I0403 14:32:51.979543  1460 net.cpp:91] Creating Layer inception_3b/1x1
I0403 14:32:51.979562  1460 net.cpp:425] inception_3b/1x1 <- inception_3a/output_inception_3a/output_0_split_0
I0403 14:32:51.979583  1460 net.cpp:399] inception_3b/1x1 -> inception_3b/1x1
I0403 14:32:51.980770  1460 net.cpp:141] Setting up inception_3b/1x1
I0403 14:32:51.980813  1460 net.cpp:148] Top shape: 24 128 28 28 (2408448)
I0403 14:32:51.980830  1460 net.cpp:156] Memory required for data: 667141152
I0403 14:32:51.980849  1460 layer_factory.hpp:77] Creating layer inception_3b/relu_1x1
I0403 14:32:51.980867  1460 net.cpp:91] Creating Layer inception_3b/relu_1x1
I0403 14:32:51.980885  1460 net.cpp:425] inception_3b/relu_1x1 <- inception_3b/1x1
I0403 14:32:51.980906  1460 net.cpp:386] inception_3b/relu_1x1 -> inception_3b/1x1 (in-place)
I0403 14:32:51.981083  1460 net.cpp:141] Setting up inception_3b/relu_1x1
I0403 14:32:51.981108  1460 net.cpp:148] Top shape: 24 128 28 28 (2408448)
I0403 14:32:51.981123  1460 net.cpp:156] Memory required for data: 676774944
I0403 14:32:51.981138  1460 layer_factory.hpp:77] Creating layer inception_3b/3x3_reduce
I0403 14:32:51.981161  1460 net.cpp:91] Creating Layer inception_3b/3x3_reduce
I0403 14:32:51.981184  1460 net.cpp:425] inception_3b/3x3_reduce <- inception_3a/output_inception_3a/output_0_split_1
I0403 14:32:51.981207  1460 net.cpp:399] inception_3b/3x3_reduce -> inception_3b/3x3_reduce
I0403 14:32:51.982385  1460 net.cpp:141] Setting up inception_3b/3x3_reduce
I0403 14:32:51.982417  1460 net.cpp:148] Top shape: 24 128 28 28 (2408448)
I0403 14:32:51.982434  1460 net.cpp:156] Memory required for data: 686408736
I0403 14:32:51.982455  1460 layer_factory.hpp:77] Creating layer inception_3b/relu_3x3_reduce
I0403 14:32:51.982475  1460 net.cpp:91] Creating Layer inception_3b/relu_3x3_reduce
I0403 14:32:51.982502  1460 net.cpp:425] inception_3b/relu_3x3_reduce <- inception_3b/3x3_reduce
I0403 14:32:51.982522  1460 net.cpp:386] inception_3b/relu_3x3_reduce -> inception_3b/3x3_reduce (in-place)
I0403 14:32:51.982698  1460 net.cpp:141] Setting up inception_3b/relu_3x3_reduce
I0403 14:32:51.982723  1460 net.cpp:148] Top shape: 24 128 28 28 (2408448)
I0403 14:32:51.982739  1460 net.cpp:156] Memory required for data: 696042528
I0403 14:32:51.982754  1460 layer_factory.hpp:77] Creating layer inception_3b/3x3
I0403 14:32:51.982781  1460 net.cpp:91] Creating Layer inception_3b/3x3
I0403 14:32:51.982800  1460 net.cpp:425] inception_3b/3x3 <- inception_3b/3x3_reduce
I0403 14:32:51.982820  1460 net.cpp:399] inception_3b/3x3 -> inception_3b/3x3
I0403 14:32:51.985875  1460 net.cpp:141] Setting up inception_3b/3x3
I0403 14:32:51.985904  1460 net.cpp:148] Top shape: 24 192 28 28 (3612672)
I0403 14:32:51.985920  1460 net.cpp:156] Memory required for data: 710493216
I0403 14:32:51.985939  1460 layer_factory.hpp:77] Creating layer inception_3b/relu_3x3
I0403 14:32:51.985957  1460 net.cpp:91] Creating Layer inception_3b/relu_3x3
I0403 14:32:51.985973  1460 net.cpp:425] inception_3b/relu_3x3 <- inception_3b/3x3
I0403 14:32:51.985992  1460 net.cpp:386] inception_3b/relu_3x3 -> inception_3b/3x3 (in-place)
I0403 14:32:51.986287  1460 net.cpp:141] Setting up inception_3b/relu_3x3
I0403 14:32:51.986315  1460 net.cpp:148] Top shape: 24 192 28 28 (3612672)
I0403 14:32:51.986330  1460 net.cpp:156] Memory required for data: 724943904
I0403 14:32:51.986346  1460 layer_factory.hpp:77] Creating layer inception_3b/5x5_reduce
I0403 14:32:51.986369  1460 net.cpp:91] Creating Layer inception_3b/5x5_reduce
I0403 14:32:51.986388  1460 net.cpp:425] inception_3b/5x5_reduce <- inception_3a/output_inception_3a/output_0_split_2
I0403 14:32:51.986412  1460 net.cpp:399] inception_3b/5x5_reduce -> inception_3b/5x5_reduce
I0403 14:32:51.987409  1460 net.cpp:141] Setting up inception_3b/5x5_reduce
I0403 14:32:51.987437  1460 net.cpp:148] Top shape: 24 32 28 28 (602112)
I0403 14:32:51.987453  1460 net.cpp:156] Memory required for data: 727352352
I0403 14:32:51.987473  1460 layer_factory.hpp:77] Creating layer inception_3b/relu_5x5_reduce
I0403 14:32:51.987490  1460 net.cpp:91] Creating Layer inception_3b/relu_5x5_reduce
I0403 14:32:51.987506  1460 net.cpp:425] inception_3b/relu_5x5_reduce <- inception_3b/5x5_reduce
I0403 14:32:51.987526  1460 net.cpp:386] inception_3b/relu_5x5_reduce -> inception_3b/5x5_reduce (in-place)
I0403 14:32:51.987716  1460 net.cpp:141] Setting up inception_3b/relu_5x5_reduce
I0403 14:32:51.987741  1460 net.cpp:148] Top shape: 24 32 28 28 (602112)
I0403 14:32:51.987756  1460 net.cpp:156] Memory required for data: 729760800
I0403 14:32:51.987771  1460 layer_factory.hpp:77] Creating layer inception_3b/5x5
I0403 14:32:51.987793  1460 net.cpp:91] Creating Layer inception_3b/5x5
I0403 14:32:51.987812  1460 net.cpp:425] inception_3b/5x5 <- inception_3b/5x5_reduce
I0403 14:32:51.987833  1460 net.cpp:399] inception_3b/5x5 -> inception_3b/5x5
I0403 14:32:51.989868  1460 net.cpp:141] Setting up inception_3b/5x5
I0403 14:32:51.989899  1460 net.cpp:148] Top shape: 24 96 28 28 (1806336)
I0403 14:32:51.989915  1460 net.cpp:156] Memory required for data: 736986144
I0403 14:32:51.989933  1460 layer_factory.hpp:77] Creating layer inception_3b/relu_5x5
I0403 14:32:51.989951  1460 net.cpp:91] Creating Layer inception_3b/relu_5x5
I0403 14:32:51.989966  1460 net.cpp:425] inception_3b/relu_5x5 <- inception_3b/5x5
I0403 14:32:51.989984  1460 net.cpp:386] inception_3b/relu_5x5 -> inception_3b/5x5 (in-place)
I0403 14:32:51.990172  1460 net.cpp:141] Setting up inception_3b/relu_5x5
I0403 14:32:51.990201  1460 net.cpp:148] Top shape: 24 96 28 28 (1806336)
I0403 14:32:51.990216  1460 net.cpp:156] Memory required for data: 744211488
I0403 14:32:51.990231  1460 layer_factory.hpp:77] Creating layer inception_3b/pool
I0403 14:32:51.990249  1460 net.cpp:91] Creating Layer inception_3b/pool
I0403 14:32:51.990265  1460 net.cpp:425] inception_3b/pool <- inception_3a/output_inception_3a/output_0_split_3
I0403 14:32:51.990283  1460 net.cpp:399] inception_3b/pool -> inception_3b/pool
I0403 14:32:51.990339  1460 net.cpp:141] Setting up inception_3b/pool
I0403 14:32:51.990365  1460 net.cpp:148] Top shape: 24 256 28 28 (4816896)
I0403 14:32:51.990380  1460 net.cpp:156] Memory required for data: 763479072
I0403 14:32:51.990393  1460 layer_factory.hpp:77] Creating layer inception_3b/pool_proj
I0403 14:32:51.990416  1460 net.cpp:91] Creating Layer inception_3b/pool_proj
I0403 14:32:51.990432  1460 net.cpp:425] inception_3b/pool_proj <- inception_3b/pool
I0403 14:32:51.990452  1460 net.cpp:399] inception_3b/pool_proj -> inception_3b/pool_proj
I0403 14:32:51.991506  1460 net.cpp:141] Setting up inception_3b/pool_proj
I0403 14:32:51.991533  1460 net.cpp:148] Top shape: 24 64 28 28 (1204224)
I0403 14:32:51.991549  1460 net.cpp:156] Memory required for data: 768295968
I0403 14:32:51.991567  1460 layer_factory.hpp:77] Creating layer inception_3b/relu_pool_proj
I0403 14:32:51.991587  1460 net.cpp:91] Creating Layer inception_3b/relu_pool_proj
I0403 14:32:51.991603  1460 net.cpp:425] inception_3b/relu_pool_proj <- inception_3b/pool_proj
I0403 14:32:51.991621  1460 net.cpp:386] inception_3b/relu_pool_proj -> inception_3b/pool_proj (in-place)
I0403 14:32:51.992022  1460 net.cpp:141] Setting up inception_3b/relu_pool_proj
I0403 14:32:51.992048  1460 net.cpp:148] Top shape: 24 64 28 28 (1204224)
I0403 14:32:51.992063  1460 net.cpp:156] Memory required for data: 773112864
I0403 14:32:51.992077  1460 layer_factory.hpp:77] Creating layer inception_3b/output
I0403 14:32:51.992094  1460 net.cpp:91] Creating Layer inception_3b/output
I0403 14:32:51.992110  1460 net.cpp:425] inception_3b/output <- inception_3b/1x1
I0403 14:32:51.992126  1460 net.cpp:425] inception_3b/output <- inception_3b/3x3
I0403 14:32:51.992142  1460 net.cpp:425] inception_3b/output <- inception_3b/5x5
I0403 14:32:51.992171  1460 net.cpp:425] inception_3b/output <- inception_3b/pool_proj
I0403 14:32:51.992203  1460 net.cpp:399] inception_3b/output -> inception_3b/output
I0403 14:32:51.992269  1460 net.cpp:141] Setting up inception_3b/output
I0403 14:32:51.992293  1460 net.cpp:148] Top shape: 24 480 28 28 (9031680)
I0403 14:32:51.992308  1460 net.cpp:156] Memory required for data: 809239584
I0403 14:32:51.992323  1460 layer_factory.hpp:77] Creating layer pool3/3x3_s2
I0403 14:32:51.992341  1460 net.cpp:91] Creating Layer pool3/3x3_s2
I0403 14:32:51.992358  1460 net.cpp:425] pool3/3x3_s2 <- inception_3b/output
I0403 14:32:51.992394  1460 net.cpp:399] pool3/3x3_s2 -> pool3/3x3_s2
I0403 14:32:51.992456  1460 net.cpp:141] Setting up pool3/3x3_s2
I0403 14:32:51.992492  1460 net.cpp:148] Top shape: 24 480 14 14 (2257920)
I0403 14:32:51.992507  1460 net.cpp:156] Memory required for data: 818271264
I0403 14:32:51.992534  1460 layer_factory.hpp:77] Creating layer pool3/3x3_s2_pool3/3x3_s2_0_split
I0403 14:32:51.992553  1460 net.cpp:91] Creating Layer pool3/3x3_s2_pool3/3x3_s2_0_split
I0403 14:32:51.992569  1460 net.cpp:425] pool3/3x3_s2_pool3/3x3_s2_0_split <- pool3/3x3_s2
I0403 14:32:51.992586  1460 net.cpp:399] pool3/3x3_s2_pool3/3x3_s2_0_split -> pool3/3x3_s2_pool3/3x3_s2_0_split_0
I0403 14:32:51.992609  1460 net.cpp:399] pool3/3x3_s2_pool3/3x3_s2_0_split -> pool3/3x3_s2_pool3/3x3_s2_0_split_1
I0403 14:32:51.992630  1460 net.cpp:399] pool3/3x3_s2_pool3/3x3_s2_0_split -> pool3/3x3_s2_pool3/3x3_s2_0_split_2
I0403 14:32:51.992650  1460 net.cpp:399] pool3/3x3_s2_pool3/3x3_s2_0_split -> pool3/3x3_s2_pool3/3x3_s2_0_split_3
I0403 14:32:51.992724  1460 net.cpp:141] Setting up pool3/3x3_s2_pool3/3x3_s2_0_split
I0403 14:32:51.992748  1460 net.cpp:148] Top shape: 24 480 14 14 (2257920)
I0403 14:32:51.992763  1460 net.cpp:148] Top shape: 24 480 14 14 (2257920)
I0403 14:32:51.992779  1460 net.cpp:148] Top shape: 24 480 14 14 (2257920)
I0403 14:32:51.992794  1460 net.cpp:148] Top shape: 24 480 14 14 (2257920)
I0403 14:32:51.992810  1460 net.cpp:156] Memory required for data: 854397984
I0403 14:32:51.992825  1460 layer_factory.hpp:77] Creating layer inception_4a/1x1
I0403 14:32:51.992846  1460 net.cpp:91] Creating Layer inception_4a/1x1
I0403 14:32:51.992863  1460 net.cpp:425] inception_4a/1x1 <- pool3/3x3_s2_pool3/3x3_s2_0_split_0
I0403 14:32:51.992884  1460 net.cpp:399] inception_4a/1x1 -> inception_4a/1x1
I0403 14:32:51.994446  1460 net.cpp:141] Setting up inception_4a/1x1
I0403 14:32:51.994474  1460 net.cpp:148] Top shape: 24 192 14 14 (903168)
I0403 14:32:51.994493  1460 net.cpp:156] Memory required for data: 858010656
I0403 14:32:51.994513  1460 layer_factory.hpp:77] Creating layer inception_4a/relu_1x1
I0403 14:32:51.994530  1460 net.cpp:91] Creating Layer inception_4a/relu_1x1
I0403 14:32:51.994546  1460 net.cpp:425] inception_4a/relu_1x1 <- inception_4a/1x1
I0403 14:32:51.994563  1460 net.cpp:386] inception_4a/relu_1x1 -> inception_4a/1x1 (in-place)
I0403 14:32:51.994738  1460 net.cpp:141] Setting up inception_4a/relu_1x1
I0403 14:32:51.994765  1460 net.cpp:148] Top shape: 24 192 14 14 (903168)
I0403 14:32:51.994781  1460 net.cpp:156] Memory required for data: 861623328
I0403 14:32:51.994796  1460 layer_factory.hpp:77] Creating layer inception_4a/3x3_reduce
I0403 14:32:51.994817  1460 net.cpp:91] Creating Layer inception_4a/3x3_reduce
I0403 14:32:51.994835  1460 net.cpp:425] inception_4a/3x3_reduce <- pool3/3x3_s2_pool3/3x3_s2_0_split_1
I0403 14:32:51.994854  1460 net.cpp:399] inception_4a/3x3_reduce -> inception_4a/3x3_reduce
I0403 14:32:51.996115  1460 net.cpp:141] Setting up inception_4a/3x3_reduce
I0403 14:32:51.996142  1460 net.cpp:148] Top shape: 24 96 14 14 (451584)
I0403 14:32:51.996158  1460 net.cpp:156] Memory required for data: 863429664
I0403 14:32:51.996202  1460 layer_factory.hpp:77] Creating layer inception_4a/relu_3x3_reduce
I0403 14:32:51.996224  1460 net.cpp:91] Creating Layer inception_4a/relu_3x3_reduce
I0403 14:32:51.996243  1460 net.cpp:425] inception_4a/relu_3x3_reduce <- inception_4a/3x3_reduce
I0403 14:32:51.996260  1460 net.cpp:386] inception_4a/relu_3x3_reduce -> inception_4a/3x3_reduce (in-place)
I0403 14:32:51.996439  1460 net.cpp:141] Setting up inception_4a/relu_3x3_reduce
I0403 14:32:51.996466  1460 net.cpp:148] Top shape: 24 96 14 14 (451584)
I0403 14:32:51.996481  1460 net.cpp:156] Memory required for data: 865236000
I0403 14:32:51.996497  1460 layer_factory.hpp:77] Creating layer inception_4a/3x3
I0403 14:32:51.996521  1460 net.cpp:91] Creating Layer inception_4a/3x3
I0403 14:32:51.996539  1460 net.cpp:425] inception_4a/3x3 <- inception_4a/3x3_reduce
I0403 14:32:51.996558  1460 net.cpp:399] inception_4a/3x3 -> inception_4a/3x3
I0403 14:32:51.999284  1460 net.cpp:141] Setting up inception_4a/3x3
I0403 14:32:51.999315  1460 net.cpp:148] Top shape: 24 208 14 14 (978432)
I0403 14:32:51.999330  1460 net.cpp:156] Memory required for data: 869149728
I0403 14:32:51.999349  1460 layer_factory.hpp:77] Creating layer inception_4a/relu_3x3
I0403 14:32:51.999367  1460 net.cpp:91] Creating Layer inception_4a/relu_3x3
I0403 14:32:51.999383  1460 net.cpp:425] inception_4a/relu_3x3 <- inception_4a/3x3
I0403 14:32:51.999403  1460 net.cpp:386] inception_4a/relu_3x3 -> inception_4a/3x3 (in-place)
I0403 14:32:51.999686  1460 net.cpp:141] Setting up inception_4a/relu_3x3
I0403 14:32:51.999713  1460 net.cpp:148] Top shape: 24 208 14 14 (978432)
I0403 14:32:51.999729  1460 net.cpp:156] Memory required for data: 873063456
I0403 14:32:51.999744  1460 layer_factory.hpp:77] Creating layer inception_4a/5x5_reduce
I0403 14:32:51.999768  1460 net.cpp:91] Creating Layer inception_4a/5x5_reduce
I0403 14:32:51.999786  1460 net.cpp:425] inception_4a/5x5_reduce <- pool3/3x3_s2_pool3/3x3_s2_0_split_2
I0403 14:32:51.999809  1460 net.cpp:399] inception_4a/5x5_reduce -> inception_4a/5x5_reduce
I0403 14:32:52.000849  1460 net.cpp:141] Setting up inception_4a/5x5_reduce
I0403 14:32:52.000877  1460 net.cpp:148] Top shape: 24 16 14 14 (75264)
I0403 14:32:52.000893  1460 net.cpp:156] Memory required for data: 873364512
I0403 14:32:52.000912  1460 layer_factory.hpp:77] Creating layer inception_4a/relu_5x5_reduce
I0403 14:32:52.000931  1460 net.cpp:91] Creating Layer inception_4a/relu_5x5_reduce
I0403 14:32:52.000947  1460 net.cpp:425] inception_4a/relu_5x5_reduce <- inception_4a/5x5_reduce
I0403 14:32:52.000969  1460 net.cpp:386] inception_4a/relu_5x5_reduce -> inception_4a/5x5_reduce (in-place)
I0403 14:32:52.001152  1460 net.cpp:141] Setting up inception_4a/relu_5x5_reduce
I0403 14:32:52.001183  1460 net.cpp:148] Top shape: 24 16 14 14 (75264)
I0403 14:32:52.001199  1460 net.cpp:156] Memory required for data: 873665568
I0403 14:32:52.001214  1460 layer_factory.hpp:77] Creating layer inception_4a/5x5
I0403 14:32:52.001236  1460 net.cpp:91] Creating Layer inception_4a/5x5
I0403 14:32:52.001255  1460 net.cpp:425] inception_4a/5x5 <- inception_4a/5x5_reduce
I0403 14:32:52.001276  1460 net.cpp:399] inception_4a/5x5 -> inception_4a/5x5
I0403 14:32:52.002385  1460 net.cpp:141] Setting up inception_4a/5x5
I0403 14:32:52.002413  1460 net.cpp:148] Top shape: 24 48 14 14 (225792)
I0403 14:32:52.002429  1460 net.cpp:156] Memory required for data: 874568736
I0403 14:32:52.002449  1460 layer_factory.hpp:77] Creating layer inception_4a/relu_5x5
I0403 14:32:52.002470  1460 net.cpp:91] Creating Layer inception_4a/relu_5x5
I0403 14:32:52.002487  1460 net.cpp:425] inception_4a/relu_5x5 <- inception_4a/5x5
I0403 14:32:52.002504  1460 net.cpp:386] inception_4a/relu_5x5 -> inception_4a/5x5 (in-place)
I0403 14:32:52.002683  1460 net.cpp:141] Setting up inception_4a/relu_5x5
I0403 14:32:52.002710  1460 net.cpp:148] Top shape: 24 48 14 14 (225792)
I0403 14:32:52.002727  1460 net.cpp:156] Memory required for data: 875471904
I0403 14:32:52.002742  1460 layer_factory.hpp:77] Creating layer inception_4a/pool
I0403 14:32:52.002759  1460 net.cpp:91] Creating Layer inception_4a/pool
I0403 14:32:52.002776  1460 net.cpp:425] inception_4a/pool <- pool3/3x3_s2_pool3/3x3_s2_0_split_3
I0403 14:32:52.002794  1460 net.cpp:399] inception_4a/pool -> inception_4a/pool
I0403 14:32:52.002857  1460 net.cpp:141] Setting up inception_4a/pool
I0403 14:32:52.002881  1460 net.cpp:148] Top shape: 24 480 14 14 (2257920)
I0403 14:32:52.002895  1460 net.cpp:156] Memory required for data: 884503584
I0403 14:32:52.002910  1460 layer_factory.hpp:77] Creating layer inception_4a/pool_proj
I0403 14:32:52.002933  1460 net.cpp:91] Creating Layer inception_4a/pool_proj
I0403 14:32:52.002949  1460 net.cpp:425] inception_4a/pool_proj <- inception_4a/pool
I0403 14:32:52.002970  1460 net.cpp:399] inception_4a/pool_proj -> inception_4a/pool_proj
I0403 14:32:52.004175  1460 net.cpp:141] Setting up inception_4a/pool_proj
I0403 14:32:52.004209  1460 net.cpp:148] Top shape: 24 64 14 14 (301056)
I0403 14:32:52.004240  1460 net.cpp:156] Memory required for data: 885707808
I0403 14:32:52.004259  1460 layer_factory.hpp:77] Creating layer inception_4a/relu_pool_proj
I0403 14:32:52.004282  1460 net.cpp:91] Creating Layer inception_4a/relu_pool_proj
I0403 14:32:52.004300  1460 net.cpp:425] inception_4a/relu_pool_proj <- inception_4a/pool_proj
I0403 14:32:52.004317  1460 net.cpp:386] inception_4a/relu_pool_proj -> inception_4a/pool_proj (in-place)
I0403 14:32:52.004611  1460 net.cpp:141] Setting up inception_4a/relu_pool_proj
I0403 14:32:52.004637  1460 net.cpp:148] Top shape: 24 64 14 14 (301056)
I0403 14:32:52.004652  1460 net.cpp:156] Memory required for data: 886912032
I0403 14:32:52.004667  1460 layer_factory.hpp:77] Creating layer inception_4a/output
I0403 14:32:52.004688  1460 net.cpp:91] Creating Layer inception_4a/output
I0403 14:32:52.004704  1460 net.cpp:425] inception_4a/output <- inception_4a/1x1
I0403 14:32:52.004721  1460 net.cpp:425] inception_4a/output <- inception_4a/3x3
I0403 14:32:52.004737  1460 net.cpp:425] inception_4a/output <- inception_4a/5x5
I0403 14:32:52.004755  1460 net.cpp:425] inception_4a/output <- inception_4a/pool_proj
I0403 14:32:52.004771  1460 net.cpp:399] inception_4a/output -> inception_4a/output
I0403 14:32:52.004819  1460 net.cpp:141] Setting up inception_4a/output
I0403 14:32:52.004843  1460 net.cpp:148] Top shape: 24 512 14 14 (2408448)
I0403 14:32:52.004858  1460 net.cpp:156] Memory required for data: 896545824
I0403 14:32:52.004873  1460 layer_factory.hpp:77] Creating layer inception_4a/output_inception_4a/output_0_split
I0403 14:32:52.004890  1460 net.cpp:91] Creating Layer inception_4a/output_inception_4a/output_0_split
I0403 14:32:52.004906  1460 net.cpp:425] inception_4a/output_inception_4a/output_0_split <- inception_4a/output
I0403 14:32:52.004926  1460 net.cpp:399] inception_4a/output_inception_4a/output_0_split -> inception_4a/output_inception_4a/output_0_split_0
I0403 14:32:52.004948  1460 net.cpp:399] inception_4a/output_inception_4a/output_0_split -> inception_4a/output_inception_4a/output_0_split_1
I0403 14:32:52.004969  1460 net.cpp:399] inception_4a/output_inception_4a/output_0_split -> inception_4a/output_inception_4a/output_0_split_2
I0403 14:32:52.004992  1460 net.cpp:399] inception_4a/output_inception_4a/output_0_split -> inception_4a/output_inception_4a/output_0_split_3
I0403 14:32:52.005017  1460 net.cpp:399] inception_4a/output_inception_4a/output_0_split -> inception_4a/output_inception_4a/output_0_split_4
I0403 14:32:52.005111  1460 net.cpp:141] Setting up inception_4a/output_inception_4a/output_0_split
I0403 14:32:52.005136  1460 net.cpp:148] Top shape: 24 512 14 14 (2408448)
I0403 14:32:52.005152  1460 net.cpp:148] Top shape: 24 512 14 14 (2408448)
I0403 14:32:52.005168  1460 net.cpp:148] Top shape: 24 512 14 14 (2408448)
I0403 14:32:52.005190  1460 net.cpp:148] Top shape: 24 512 14 14 (2408448)
I0403 14:32:52.005208  1460 net.cpp:148] Top shape: 24 512 14 14 (2408448)
I0403 14:32:52.005221  1460 net.cpp:156] Memory required for data: 944714784
I0403 14:32:52.005236  1460 layer_factory.hpp:77] Creating layer loss1/ave_pool
I0403 14:32:52.005254  1460 net.cpp:91] Creating Layer loss1/ave_pool
I0403 14:32:52.005270  1460 net.cpp:425] loss1/ave_pool <- inception_4a/output_inception_4a/output_0_split_0
I0403 14:32:52.005290  1460 net.cpp:399] loss1/ave_pool -> loss1/ave_pool
I0403 14:32:52.005506  1460 net.cpp:141] Setting up loss1/ave_pool
I0403 14:32:52.005530  1460 net.cpp:148] Top shape: 24 512 4 4 (196608)
I0403 14:32:52.005547  1460 net.cpp:156] Memory required for data: 945501216
I0403 14:32:52.005561  1460 layer_factory.hpp:77] Creating layer loss1/conv
I0403 14:32:52.005585  1460 net.cpp:91] Creating Layer loss1/conv
I0403 14:32:52.005604  1460 net.cpp:425] loss1/conv <- loss1/ave_pool
I0403 14:32:52.005622  1460 net.cpp:399] loss1/conv -> loss1/conv
I0403 14:32:52.007086  1460 net.cpp:141] Setting up loss1/conv
I0403 14:32:52.007115  1460 net.cpp:148] Top shape: 24 128 4 4 (49152)
I0403 14:32:52.007145  1460 net.cpp:156] Memory required for data: 945697824
I0403 14:32:52.007165  1460 layer_factory.hpp:77] Creating layer loss1/relu_conv
I0403 14:32:52.007189  1460 net.cpp:91] Creating Layer loss1/relu_conv
I0403 14:32:52.007206  1460 net.cpp:425] loss1/relu_conv <- loss1/conv
I0403 14:32:52.007226  1460 net.cpp:386] loss1/relu_conv -> loss1/conv (in-place)
I0403 14:32:52.007521  1460 net.cpp:141] Setting up loss1/relu_conv
I0403 14:32:52.007549  1460 net.cpp:148] Top shape: 24 128 4 4 (49152)
I0403 14:32:52.007565  1460 net.cpp:156] Memory required for data: 945894432
I0403 14:32:52.007580  1460 layer_factory.hpp:77] Creating layer loss1/fc
I0403 14:32:52.007603  1460 net.cpp:91] Creating Layer loss1/fc
I0403 14:32:52.007622  1460 net.cpp:425] loss1/fc <- loss1/conv
I0403 14:32:52.007643  1460 net.cpp:399] loss1/fc -> loss1/fc
I0403 14:32:52.025674  1460 net.cpp:141] Setting up loss1/fc
I0403 14:32:52.025738  1460 net.cpp:148] Top shape: 24 1024 (24576)
I0403 14:32:52.025754  1460 net.cpp:156] Memory required for data: 945992736
I0403 14:32:52.025774  1460 layer_factory.hpp:77] Creating layer loss1/relu_fc
I0403 14:32:52.025794  1460 net.cpp:91] Creating Layer loss1/relu_fc
I0403 14:32:52.025810  1460 net.cpp:425] loss1/relu_fc <- loss1/fc
I0403 14:32:52.025828  1460 net.cpp:386] loss1/relu_fc -> loss1/fc (in-place)
I0403 14:32:52.026046  1460 net.cpp:141] Setting up loss1/relu_fc
I0403 14:32:52.026073  1460 net.cpp:148] Top shape: 24 1024 (24576)
I0403 14:32:52.026088  1460 net.cpp:156] Memory required for data: 946091040
I0403 14:32:52.026104  1460 layer_factory.hpp:77] Creating layer loss1/drop_fc
I0403 14:32:52.026131  1460 net.cpp:91] Creating Layer loss1/drop_fc
I0403 14:32:52.026149  1460 net.cpp:425] loss1/drop_fc <- loss1/fc
I0403 14:32:52.026167  1460 net.cpp:386] loss1/drop_fc -> loss1/fc (in-place)
I0403 14:32:52.026227  1460 net.cpp:141] Setting up loss1/drop_fc
I0403 14:32:52.026250  1460 net.cpp:148] Top shape: 24 1024 (24576)
I0403 14:32:52.026265  1460 net.cpp:156] Memory required for data: 946189344
I0403 14:32:52.026280  1460 layer_factory.hpp:77] Creating layer loss1/classifier_plantvillage
I0403 14:32:52.026304  1460 net.cpp:91] Creating Layer loss1/classifier_plantvillage
I0403 14:32:52.026320  1460 net.cpp:425] loss1/classifier_plantvillage <- loss1/fc
I0403 14:32:52.026338  1460 net.cpp:399] loss1/classifier_plantvillage -> loss1/classifier_plantvillage
I0403 14:32:52.027269  1460 net.cpp:141] Setting up loss1/classifier_plantvillage
I0403 14:32:52.027300  1460 net.cpp:148] Top shape: 24 38 (912)
I0403 14:32:52.027317  1460 net.cpp:156] Memory required for data: 946192992
I0403 14:32:52.027334  1460 layer_factory.hpp:77] Creating layer loss1/classifier_plantvillage_loss1/classifier_plantvillage_0_split
I0403 14:32:52.027353  1460 net.cpp:91] Creating Layer loss1/classifier_plantvillage_loss1/classifier_plantvillage_0_split
I0403 14:32:52.027369  1460 net.cpp:425] loss1/classifier_plantvillage_loss1/classifier_plantvillage_0_split <- loss1/classifier_plantvillage
I0403 14:32:52.027386  1460 net.cpp:399] loss1/classifier_plantvillage_loss1/classifier_plantvillage_0_split -> loss1/classifier_plantvillage_loss1/classifier_plantvillage_0_split_0
I0403 14:32:52.027410  1460 net.cpp:399] loss1/classifier_plantvillage_loss1/classifier_plantvillage_0_split -> loss1/classifier_plantvillage_loss1/classifier_plantvillage_0_split_1
I0403 14:32:52.027447  1460 net.cpp:399] loss1/classifier_plantvillage_loss1/classifier_plantvillage_0_split -> loss1/classifier_plantvillage_loss1/classifier_plantvillage_0_split_2
I0403 14:32:52.027518  1460 net.cpp:141] Setting up loss1/classifier_plantvillage_loss1/classifier_plantvillage_0_split
I0403 14:32:52.027541  1460 net.cpp:148] Top shape: 24 38 (912)
I0403 14:32:52.027559  1460 net.cpp:148] Top shape: 24 38 (912)
I0403 14:32:52.027575  1460 net.cpp:148] Top shape: 24 38 (912)
I0403 14:32:52.027590  1460 net.cpp:156] Memory required for data: 946203936
I0403 14:32:52.027604  1460 layer_factory.hpp:77] Creating layer inception_4b/1x1
I0403 14:32:52.027626  1460 net.cpp:91] Creating Layer inception_4b/1x1
I0403 14:32:52.027668  1460 net.cpp:425] inception_4b/1x1 <- inception_4a/output_inception_4a/output_0_split_1
I0403 14:32:52.027691  1460 net.cpp:399] inception_4b/1x1 -> inception_4b/1x1
I0403 14:32:52.029389  1460 net.cpp:141] Setting up inception_4b/1x1
I0403 14:32:52.029418  1460 net.cpp:148] Top shape: 24 160 14 14 (752640)
I0403 14:32:52.029433  1460 net.cpp:156] Memory required for data: 949214496
I0403 14:32:52.029453  1460 layer_factory.hpp:77] Creating layer inception_4b/relu_1x1
I0403 14:32:52.029472  1460 net.cpp:91] Creating Layer inception_4b/relu_1x1
I0403 14:32:52.029487  1460 net.cpp:425] inception_4b/relu_1x1 <- inception_4b/1x1
I0403 14:32:52.029506  1460 net.cpp:386] inception_4b/relu_1x1 -> inception_4b/1x1 (in-place)
I0403 14:32:52.029686  1460 net.cpp:141] Setting up inception_4b/relu_1x1
I0403 14:32:52.029711  1460 net.cpp:148] Top shape: 24 160 14 14 (752640)
I0403 14:32:52.029726  1460 net.cpp:156] Memory required for data: 952225056
I0403 14:32:52.029742  1460 layer_factory.hpp:77] Creating layer inception_4b/3x3_reduce
I0403 14:32:52.029762  1460 net.cpp:91] Creating Layer inception_4b/3x3_reduce
I0403 14:32:52.029780  1460 net.cpp:425] inception_4b/3x3_reduce <- inception_4a/output_inception_4a/output_0_split_2
I0403 14:32:52.029801  1460 net.cpp:399] inception_4b/3x3_reduce -> inception_4b/3x3_reduce
I0403 14:32:52.031152  1460 net.cpp:141] Setting up inception_4b/3x3_reduce
I0403 14:32:52.031183  1460 net.cpp:148] Top shape: 24 112 14 14 (526848)
I0403 14:32:52.031201  1460 net.cpp:156] Memory required for data: 954332448
I0403 14:32:52.031219  1460 layer_factory.hpp:77] Creating layer inception_4b/relu_3x3_reduce
I0403 14:32:52.031242  1460 net.cpp:91] Creating Layer inception_4b/relu_3x3_reduce
I0403 14:32:52.031260  1460 net.cpp:425] inception_4b/relu_3x3_reduce <- inception_4b/3x3_reduce
I0403 14:32:52.031276  1460 net.cpp:386] inception_4b/relu_3x3_reduce -> inception_4b/3x3_reduce (in-place)
I0403 14:32:52.031560  1460 net.cpp:141] Setting up inception_4b/relu_3x3_reduce
I0403 14:32:52.031586  1460 net.cpp:148] Top shape: 24 112 14 14 (526848)
I0403 14:32:52.031601  1460 net.cpp:156] Memory required for data: 956439840
I0403 14:32:52.031616  1460 layer_factory.hpp:77] Creating layer inception_4b/3x3
I0403 14:32:52.031640  1460 net.cpp:91] Creating Layer inception_4b/3x3
I0403 14:32:52.031657  1460 net.cpp:425] inception_4b/3x3 <- inception_4b/3x3_reduce
I0403 14:32:52.031679  1460 net.cpp:399] inception_4b/3x3 -> inception_4b/3x3
I0403 14:32:52.034658  1460 net.cpp:141] Setting up inception_4b/3x3
I0403 14:32:52.034690  1460 net.cpp:148] Top shape: 24 224 14 14 (1053696)
I0403 14:32:52.034706  1460 net.cpp:156] Memory required for data: 960654624
I0403 14:32:52.034725  1460 layer_factory.hpp:77] Creating layer inception_4b/relu_3x3
I0403 14:32:52.034744  1460 net.cpp:91] Creating Layer inception_4b/relu_3x3
I0403 14:32:52.034760  1460 net.cpp:425] inception_4b/relu_3x3 <- inception_4b/3x3
I0403 14:32:52.034777  1460 net.cpp:386] inception_4b/relu_3x3 -> inception_4b/3x3 (in-place)
I0403 14:32:52.034958  1460 net.cpp:141] Setting up inception_4b/relu_3x3
I0403 14:32:52.034986  1460 net.cpp:148] Top shape: 24 224 14 14 (1053696)
I0403 14:32:52.035001  1460 net.cpp:156] Memory required for data: 964869408
I0403 14:32:52.035015  1460 layer_factory.hpp:77] Creating layer inception_4b/5x5_reduce
I0403 14:32:52.035039  1460 net.cpp:91] Creating Layer inception_4b/5x5_reduce
I0403 14:32:52.035058  1460 net.cpp:425] inception_4b/5x5_reduce <- inception_4a/output_inception_4a/output_0_split_3
I0403 14:32:52.035079  1460 net.cpp:399] inception_4b/5x5_reduce -> inception_4b/5x5_reduce
I0403 14:32:52.036173  1460 net.cpp:141] Setting up inception_4b/5x5_reduce
I0403 14:32:52.036204  1460 net.cpp:148] Top shape: 24 24 14 14 (112896)
I0403 14:32:52.036221  1460 net.cpp:156] Memory required for data: 965320992
I0403 14:32:52.036238  1460 layer_factory.hpp:77] Creating layer inception_4b/relu_5x5_reduce
I0403 14:32:52.036260  1460 net.cpp:91] Creating Layer inception_4b/relu_5x5_reduce
I0403 14:32:52.036291  1460 net.cpp:425] inception_4b/relu_5x5_reduce <- inception_4b/5x5_reduce
I0403 14:32:52.036309  1460 net.cpp:386] inception_4b/relu_5x5_reduce -> inception_4b/5x5_reduce (in-place)
I0403 14:32:52.036490  1460 net.cpp:141] Setting up inception_4b/relu_5x5_reduce
I0403 14:32:52.036515  1460 net.cpp:148] Top shape: 24 24 14 14 (112896)
I0403 14:32:52.036530  1460 net.cpp:156] Memory required for data: 965772576
I0403 14:32:52.036545  1460 layer_factory.hpp:77] Creating layer inception_4b/5x5
I0403 14:32:52.036567  1460 net.cpp:91] Creating Layer inception_4b/5x5
I0403 14:32:52.036584  1460 net.cpp:425] inception_4b/5x5 <- inception_4b/5x5_reduce
I0403 14:32:52.036605  1460 net.cpp:399] inception_4b/5x5 -> inception_4b/5x5
I0403 14:32:52.037834  1460 net.cpp:141] Setting up inception_4b/5x5
I0403 14:32:52.037863  1460 net.cpp:148] Top shape: 24 64 14 14 (301056)
I0403 14:32:52.037878  1460 net.cpp:156] Memory required for data: 966976800
I0403 14:32:52.037896  1460 layer_factory.hpp:77] Creating layer inception_4b/relu_5x5
I0403 14:32:52.037914  1460 net.cpp:91] Creating Layer inception_4b/relu_5x5
I0403 14:32:52.037930  1460 net.cpp:425] inception_4b/relu_5x5 <- inception_4b/5x5
I0403 14:32:52.037950  1460 net.cpp:386] inception_4b/relu_5x5 -> inception_4b/5x5 (in-place)
I0403 14:32:52.038236  1460 net.cpp:141] Setting up inception_4b/relu_5x5
I0403 14:32:52.038262  1460 net.cpp:148] Top shape: 24 64 14 14 (301056)
I0403 14:32:52.038277  1460 net.cpp:156] Memory required for data: 968181024
I0403 14:32:52.038292  1460 layer_factory.hpp:77] Creating layer inception_4b/pool
I0403 14:32:52.038311  1460 net.cpp:91] Creating Layer inception_4b/pool
I0403 14:32:52.038327  1460 net.cpp:425] inception_4b/pool <- inception_4a/output_inception_4a/output_0_split_4
I0403 14:32:52.038349  1460 net.cpp:399] inception_4b/pool -> inception_4b/pool
I0403 14:32:52.038414  1460 net.cpp:141] Setting up inception_4b/pool
I0403 14:32:52.038439  1460 net.cpp:148] Top shape: 24 512 14 14 (2408448)
I0403 14:32:52.038452  1460 net.cpp:156] Memory required for data: 977814816
I0403 14:32:52.038468  1460 layer_factory.hpp:77] Creating layer inception_4b/pool_proj
I0403 14:32:52.038492  1460 net.cpp:91] Creating Layer inception_4b/pool_proj
I0403 14:32:52.038511  1460 net.cpp:425] inception_4b/pool_proj <- inception_4b/pool
I0403 14:32:52.038529  1460 net.cpp:399] inception_4b/pool_proj -> inception_4b/pool_proj
I0403 14:32:52.039736  1460 net.cpp:141] Setting up inception_4b/pool_proj
I0403 14:32:52.039762  1460 net.cpp:148] Top shape: 24 64 14 14 (301056)
I0403 14:32:52.039778  1460 net.cpp:156] Memory required for data: 979019040
I0403 14:32:52.039796  1460 layer_factory.hpp:77] Creating layer inception_4b/relu_pool_proj
I0403 14:32:52.039813  1460 net.cpp:91] Creating Layer inception_4b/relu_pool_proj
I0403 14:32:52.039829  1460 net.cpp:425] inception_4b/relu_pool_proj <- inception_4b/pool_proj
I0403 14:32:52.039849  1460 net.cpp:386] inception_4b/relu_pool_proj -> inception_4b/pool_proj (in-place)
I0403 14:32:52.040033  1460 net.cpp:141] Setting up inception_4b/relu_pool_proj
I0403 14:32:52.040058  1460 net.cpp:148] Top shape: 24 64 14 14 (301056)
I0403 14:32:52.040072  1460 net.cpp:156] Memory required for data: 980223264
I0403 14:32:52.040087  1460 layer_factory.hpp:77] Creating layer inception_4b/output
I0403 14:32:52.040107  1460 net.cpp:91] Creating Layer inception_4b/output
I0403 14:32:52.040123  1460 net.cpp:425] inception_4b/output <- inception_4b/1x1
I0403 14:32:52.040139  1460 net.cpp:425] inception_4b/output <- inception_4b/3x3
I0403 14:32:52.040155  1460 net.cpp:425] inception_4b/output <- inception_4b/5x5
I0403 14:32:52.040170  1460 net.cpp:425] inception_4b/output <- inception_4b/pool_proj
I0403 14:32:52.040192  1460 net.cpp:399] inception_4b/output -> inception_4b/output
I0403 14:32:52.040241  1460 net.cpp:141] Setting up inception_4b/output
I0403 14:32:52.040263  1460 net.cpp:148] Top shape: 24 512 14 14 (2408448)
I0403 14:32:52.040278  1460 net.cpp:156] Memory required for data: 989857056
I0403 14:32:52.040307  1460 layer_factory.hpp:77] Creating layer inception_4b/output_inception_4b/output_0_split
I0403 14:32:52.040325  1460 net.cpp:91] Creating Layer inception_4b/output_inception_4b/output_0_split
I0403 14:32:52.040341  1460 net.cpp:425] inception_4b/output_inception_4b/output_0_split <- inception_4b/output
I0403 14:32:52.040361  1460 net.cpp:399] inception_4b/output_inception_4b/output_0_split -> inception_4b/output_inception_4b/output_0_split_0
I0403 14:32:52.040381  1460 net.cpp:399] inception_4b/output_inception_4b/output_0_split -> inception_4b/output_inception_4b/output_0_split_1
I0403 14:32:52.040401  1460 net.cpp:399] inception_4b/output_inception_4b/output_0_split -> inception_4b/output_inception_4b/output_0_split_2
I0403 14:32:52.040422  1460 net.cpp:399] inception_4b/output_inception_4b/output_0_split -> inception_4b/output_inception_4b/output_0_split_3
I0403 14:32:52.040504  1460 net.cpp:141] Setting up inception_4b/output_inception_4b/output_0_split
I0403 14:32:52.040531  1460 net.cpp:148] Top shape: 24 512 14 14 (2408448)
I0403 14:32:52.040549  1460 net.cpp:148] Top shape: 24 512 14 14 (2408448)
I0403 14:32:52.040565  1460 net.cpp:148] Top shape: 24 512 14 14 (2408448)
I0403 14:32:52.040581  1460 net.cpp:148] Top shape: 24 512 14 14 (2408448)
I0403 14:32:52.040594  1460 net.cpp:156] Memory required for data: 1028392224
I0403 14:32:52.040609  1460 layer_factory.hpp:77] Creating layer inception_4c/1x1
I0403 14:32:52.040630  1460 net.cpp:91] Creating Layer inception_4c/1x1
I0403 14:32:52.040648  1460 net.cpp:425] inception_4c/1x1 <- inception_4b/output_inception_4b/output_0_split_0
I0403 14:32:52.040668  1460 net.cpp:399] inception_4c/1x1 -> inception_4c/1x1
I0403 14:32:52.042104  1460 net.cpp:141] Setting up inception_4c/1x1
I0403 14:32:52.042131  1460 net.cpp:148] Top shape: 24 128 14 14 (602112)
I0403 14:32:52.042147  1460 net.cpp:156] Memory required for data: 1030800672
I0403 14:32:52.042165  1460 layer_factory.hpp:77] Creating layer inception_4c/relu_1x1
I0403 14:32:52.042191  1460 net.cpp:91] Creating Layer inception_4c/relu_1x1
I0403 14:32:52.042209  1460 net.cpp:425] inception_4c/relu_1x1 <- inception_4c/1x1
I0403 14:32:52.042227  1460 net.cpp:386] inception_4c/relu_1x1 -> inception_4c/1x1 (in-place)
I0403 14:32:52.042479  1460 net.cpp:141] Setting up inception_4c/relu_1x1
I0403 14:32:52.042507  1460 net.cpp:148] Top shape: 24 128 14 14 (602112)
I0403 14:32:52.042522  1460 net.cpp:156] Memory required for data: 1033209120
I0403 14:32:52.042537  1460 layer_factory.hpp:77] Creating layer inception_4c/3x3_reduce
I0403 14:32:52.042559  1460 net.cpp:91] Creating Layer inception_4c/3x3_reduce
I0403 14:32:52.042577  1460 net.cpp:425] inception_4c/3x3_reduce <- inception_4b/output_inception_4b/output_0_split_1
I0403 14:32:52.042596  1460 net.cpp:399] inception_4c/3x3_reduce -> inception_4c/3x3_reduce
I0403 14:32:52.044559  1460 net.cpp:141] Setting up inception_4c/3x3_reduce
I0403 14:32:52.044591  1460 net.cpp:148] Top shape: 24 128 14 14 (602112)
I0403 14:32:52.044608  1460 net.cpp:156] Memory required for data: 1035617568
I0403 14:32:52.044627  1460 layer_factory.hpp:77] Creating layer inception_4c/relu_3x3_reduce
I0403 14:32:52.044646  1460 net.cpp:91] Creating Layer inception_4c/relu_3x3_reduce
I0403 14:32:52.044664  1460 net.cpp:425] inception_4c/relu_3x3_reduce <- inception_4c/3x3_reduce
I0403 14:32:52.044684  1460 net.cpp:386] inception_4c/relu_3x3_reduce -> inception_4c/3x3_reduce (in-place)
I0403 14:32:52.044984  1460 net.cpp:141] Setting up inception_4c/relu_3x3_reduce
I0403 14:32:52.045012  1460 net.cpp:148] Top shape: 24 128 14 14 (602112)
I0403 14:32:52.045028  1460 net.cpp:156] Memory required for data: 1038026016
I0403 14:32:52.045043  1460 layer_factory.hpp:77] Creating layer inception_4c/3x3
I0403 14:32:52.045066  1460 net.cpp:91] Creating Layer inception_4c/3x3
I0403 14:32:52.045084  1460 net.cpp:425] inception_4c/3x3 <- inception_4c/3x3_reduce
I0403 14:32:52.045104  1460 net.cpp:399] inception_4c/3x3 -> inception_4c/3x3
I0403 14:32:52.048802  1460 net.cpp:141] Setting up inception_4c/3x3
I0403 14:32:52.048846  1460 net.cpp:148] Top shape: 24 256 14 14 (1204224)
I0403 14:32:52.048862  1460 net.cpp:156] Memory required for data: 1042842912
I0403 14:32:52.048895  1460 layer_factory.hpp:77] Creating layer inception_4c/relu_3x3
I0403 14:32:52.048916  1460 net.cpp:91] Creating Layer inception_4c/relu_3x3
I0403 14:32:52.048934  1460 net.cpp:425] inception_4c/relu_3x3 <- inception_4c/3x3
I0403 14:32:52.048954  1460 net.cpp:386] inception_4c/relu_3x3 -> inception_4c/3x3 (in-place)
I0403 14:32:52.049144  1460 net.cpp:141] Setting up inception_4c/relu_3x3
I0403 14:32:52.049170  1460 net.cpp:148] Top shape: 24 256 14 14 (1204224)
I0403 14:32:52.049190  1460 net.cpp:156] Memory required for data: 1047659808
I0403 14:32:52.049206  1460 layer_factory.hpp:77] Creating layer inception_4c/5x5_reduce
I0403 14:32:52.049232  1460 net.cpp:91] Creating Layer inception_4c/5x5_reduce
I0403 14:32:52.049250  1460 net.cpp:425] inception_4c/5x5_reduce <- inception_4b/output_inception_4b/output_0_split_2
I0403 14:32:52.049273  1460 net.cpp:399] inception_4c/5x5_reduce -> inception_4c/5x5_reduce
I0403 14:32:52.050396  1460 net.cpp:141] Setting up inception_4c/5x5_reduce
I0403 14:32:52.050425  1460 net.cpp:148] Top shape: 24 24 14 14 (112896)
I0403 14:32:52.050441  1460 net.cpp:156] Memory required for data: 1048111392
I0403 14:32:52.050459  1460 layer_factory.hpp:77] Creating layer inception_4c/relu_5x5_reduce
I0403 14:32:52.050478  1460 net.cpp:91] Creating Layer inception_4c/relu_5x5_reduce
I0403 14:32:52.050498  1460 net.cpp:425] inception_4c/relu_5x5_reduce <- inception_4c/5x5_reduce
I0403 14:32:52.050516  1460 net.cpp:386] inception_4c/relu_5x5_reduce -> inception_4c/5x5_reduce (in-place)
I0403 14:32:52.050707  1460 net.cpp:141] Setting up inception_4c/relu_5x5_reduce
I0403 14:32:52.050734  1460 net.cpp:148] Top shape: 24 24 14 14 (112896)
I0403 14:32:52.050748  1460 net.cpp:156] Memory required for data: 1048562976
I0403 14:32:52.050763  1460 layer_factory.hpp:77] Creating layer inception_4c/5x5
I0403 14:32:52.050786  1460 net.cpp:91] Creating Layer inception_4c/5x5
I0403 14:32:52.050804  1460 net.cpp:425] inception_4c/5x5 <- inception_4c/5x5_reduce
I0403 14:32:52.050827  1460 net.cpp:399] inception_4c/5x5 -> inception_4c/5x5
I0403 14:32:52.052114  1460 net.cpp:141] Setting up inception_4c/5x5
I0403 14:32:52.052144  1460 net.cpp:148] Top shape: 24 64 14 14 (301056)
I0403 14:32:52.052160  1460 net.cpp:156] Memory required for data: 1049767200
I0403 14:32:52.052182  1460 layer_factory.hpp:77] Creating layer inception_4c/relu_5x5
I0403 14:32:52.052206  1460 net.cpp:91] Creating Layer inception_4c/relu_5x5
I0403 14:32:52.052222  1460 net.cpp:425] inception_4c/relu_5x5 <- inception_4c/5x5
I0403 14:32:52.052240  1460 net.cpp:386] inception_4c/relu_5x5 -> inception_4c/5x5 (in-place)
I0403 14:32:52.052541  1460 net.cpp:141] Setting up inception_4c/relu_5x5
I0403 14:32:52.052567  1460 net.cpp:148] Top shape: 24 64 14 14 (301056)
I0403 14:32:52.052582  1460 net.cpp:156] Memory required for data: 1050971424
I0403 14:32:52.052600  1460 layer_factory.hpp:77] Creating layer inception_4c/pool
I0403 14:32:52.052621  1460 net.cpp:91] Creating Layer inception_4c/pool
I0403 14:32:52.052639  1460 net.cpp:425] inception_4c/pool <- inception_4b/output_inception_4b/output_0_split_3
I0403 14:32:52.052659  1460 net.cpp:399] inception_4c/pool -> inception_4c/pool
I0403 14:32:52.052726  1460 net.cpp:141] Setting up inception_4c/pool
I0403 14:32:52.052750  1460 net.cpp:148] Top shape: 24 512 14 14 (2408448)
I0403 14:32:52.052765  1460 net.cpp:156] Memory required for data: 1060605216
I0403 14:32:52.052780  1460 layer_factory.hpp:77] Creating layer inception_4c/pool_proj
I0403 14:32:52.052803  1460 net.cpp:91] Creating Layer inception_4c/pool_proj
I0403 14:32:52.052819  1460 net.cpp:425] inception_4c/pool_proj <- inception_4c/pool
I0403 14:32:52.052841  1460 net.cpp:399] inception_4c/pool_proj -> inception_4c/pool_proj
I0403 14:32:52.054122  1460 net.cpp:141] Setting up inception_4c/pool_proj
I0403 14:32:52.054152  1460 net.cpp:148] Top shape: 24 64 14 14 (301056)
I0403 14:32:52.054188  1460 net.cpp:156] Memory required for data: 1061809440
I0403 14:32:52.054209  1460 layer_factory.hpp:77] Creating layer inception_4c/relu_pool_proj
I0403 14:32:52.054229  1460 net.cpp:91] Creating Layer inception_4c/relu_pool_proj
I0403 14:32:52.054245  1460 net.cpp:425] inception_4c/relu_pool_proj <- inception_4c/pool_proj
I0403 14:32:52.054265  1460 net.cpp:386] inception_4c/relu_pool_proj -> inception_4c/pool_proj (in-place)
I0403 14:32:52.054456  1460 net.cpp:141] Setting up inception_4c/relu_pool_proj
I0403 14:32:52.054481  1460 net.cpp:148] Top shape: 24 64 14 14 (301056)
I0403 14:32:52.054497  1460 net.cpp:156] Memory required for data: 1063013664
I0403 14:32:52.054512  1460 layer_factory.hpp:77] Creating layer inception_4c/output
I0403 14:32:52.054532  1460 net.cpp:91] Creating Layer inception_4c/output
I0403 14:32:52.054548  1460 net.cpp:425] inception_4c/output <- inception_4c/1x1
I0403 14:32:52.054564  1460 net.cpp:425] inception_4c/output <- inception_4c/3x3
I0403 14:32:52.054581  1460 net.cpp:425] inception_4c/output <- inception_4c/5x5
I0403 14:32:52.054597  1460 net.cpp:425] inception_4c/output <- inception_4c/pool_proj
I0403 14:32:52.054615  1460 net.cpp:399] inception_4c/output -> inception_4c/output
I0403 14:32:52.054664  1460 net.cpp:141] Setting up inception_4c/output
I0403 14:32:52.054688  1460 net.cpp:148] Top shape: 24 512 14 14 (2408448)
I0403 14:32:52.054702  1460 net.cpp:156] Memory required for data: 1072647456
I0403 14:32:52.054718  1460 layer_factory.hpp:77] Creating layer inception_4c/output_inception_4c/output_0_split
I0403 14:32:52.054734  1460 net.cpp:91] Creating Layer inception_4c/output_inception_4c/output_0_split
I0403 14:32:52.054750  1460 net.cpp:425] inception_4c/output_inception_4c/output_0_split <- inception_4c/output
I0403 14:32:52.054770  1460 net.cpp:399] inception_4c/output_inception_4c/output_0_split -> inception_4c/output_inception_4c/output_0_split_0
I0403 14:32:52.054791  1460 net.cpp:399] inception_4c/output_inception_4c/output_0_split -> inception_4c/output_inception_4c/output_0_split_1
I0403 14:32:52.054812  1460 net.cpp:399] inception_4c/output_inception_4c/output_0_split -> inception_4c/output_inception_4c/output_0_split_2
I0403 14:32:52.054833  1460 net.cpp:399] inception_4c/output_inception_4c/output_0_split -> inception_4c/output_inception_4c/output_0_split_3
I0403 14:32:52.054920  1460 net.cpp:141] Setting up inception_4c/output_inception_4c/output_0_split
I0403 14:32:52.054947  1460 net.cpp:148] Top shape: 24 512 14 14 (2408448)
I0403 14:32:52.054965  1460 net.cpp:148] Top shape: 24 512 14 14 (2408448)
I0403 14:32:52.054982  1460 net.cpp:148] Top shape: 24 512 14 14 (2408448)
I0403 14:32:52.054998  1460 net.cpp:148] Top shape: 24 512 14 14 (2408448)
I0403 14:32:52.055012  1460 net.cpp:156] Memory required for data: 1111182624
I0403 14:32:52.055027  1460 layer_factory.hpp:77] Creating layer inception_4d/1x1
I0403 14:32:52.055049  1460 net.cpp:91] Creating Layer inception_4d/1x1
I0403 14:32:52.055068  1460 net.cpp:425] inception_4d/1x1 <- inception_4c/output_inception_4c/output_0_split_0
I0403 14:32:52.055088  1460 net.cpp:399] inception_4d/1x1 -> inception_4d/1x1
I0403 14:32:52.056527  1460 net.cpp:141] Setting up inception_4d/1x1
I0403 14:32:52.056558  1460 net.cpp:148] Top shape: 24 112 14 14 (526848)
I0403 14:32:52.056576  1460 net.cpp:156] Memory required for data: 1113290016
I0403 14:32:52.056594  1460 layer_factory.hpp:77] Creating layer inception_4d/relu_1x1
I0403 14:32:52.056612  1460 net.cpp:91] Creating Layer inception_4d/relu_1x1
I0403 14:32:52.056629  1460 net.cpp:425] inception_4d/relu_1x1 <- inception_4d/1x1
I0403 14:32:52.056646  1460 net.cpp:386] inception_4d/relu_1x1 -> inception_4d/1x1 (in-place)
I0403 14:32:52.056838  1460 net.cpp:141] Setting up inception_4d/relu_1x1
I0403 14:32:52.056864  1460 net.cpp:148] Top shape: 24 112 14 14 (526848)
I0403 14:32:52.056879  1460 net.cpp:156] Memory required for data: 1115397408
I0403 14:32:52.056895  1460 layer_factory.hpp:77] Creating layer inception_4d/3x3_reduce
I0403 14:32:52.056931  1460 net.cpp:91] Creating Layer inception_4d/3x3_reduce
I0403 14:32:52.056951  1460 net.cpp:425] inception_4d/3x3_reduce <- inception_4c/output_inception_4c/output_0_split_1
I0403 14:32:52.056972  1460 net.cpp:399] inception_4d/3x3_reduce -> inception_4d/3x3_reduce
I0403 14:32:52.058542  1460 net.cpp:141] Setting up inception_4d/3x3_reduce
I0403 14:32:52.058571  1460 net.cpp:148] Top shape: 24 144 14 14 (677376)
I0403 14:32:52.058588  1460 net.cpp:156] Memory required for data: 1118106912
I0403 14:32:52.058605  1460 layer_factory.hpp:77] Creating layer inception_4d/relu_3x3_reduce
I0403 14:32:52.058626  1460 net.cpp:91] Creating Layer inception_4d/relu_3x3_reduce
I0403 14:32:52.058645  1460 net.cpp:425] inception_4d/relu_3x3_reduce <- inception_4d/3x3_reduce
I0403 14:32:52.058662  1460 net.cpp:386] inception_4d/relu_3x3_reduce -> inception_4d/3x3_reduce (in-place)
I0403 14:32:52.058961  1460 net.cpp:141] Setting up inception_4d/relu_3x3_reduce
I0403 14:32:52.058989  1460 net.cpp:148] Top shape: 24 144 14 14 (677376)
I0403 14:32:52.059003  1460 net.cpp:156] Memory required for data: 1120816416
I0403 14:32:52.059018  1460 layer_factory.hpp:77] Creating layer inception_4d/3x3
I0403 14:32:52.059041  1460 net.cpp:91] Creating Layer inception_4d/3x3
I0403 14:32:52.059062  1460 net.cpp:425] inception_4d/3x3 <- inception_4d/3x3_reduce
I0403 14:32:52.059082  1460 net.cpp:399] inception_4d/3x3 -> inception_4d/3x3
I0403 14:32:52.063668  1460 net.cpp:141] Setting up inception_4d/3x3
I0403 14:32:52.063701  1460 net.cpp:148] Top shape: 24 288 14 14 (1354752)
I0403 14:32:52.063719  1460 net.cpp:156] Memory required for data: 1126235424
I0403 14:32:52.063738  1460 layer_factory.hpp:77] Creating layer inception_4d/relu_3x3
I0403 14:32:52.063757  1460 net.cpp:91] Creating Layer inception_4d/relu_3x3
I0403 14:32:52.063774  1460 net.cpp:425] inception_4d/relu_3x3 <- inception_4d/3x3
I0403 14:32:52.063796  1460 net.cpp:386] inception_4d/relu_3x3 -> inception_4d/3x3 (in-place)
I0403 14:32:52.063984  1460 net.cpp:141] Setting up inception_4d/relu_3x3
I0403 14:32:52.064010  1460 net.cpp:148] Top shape: 24 288 14 14 (1354752)
I0403 14:32:52.064025  1460 net.cpp:156] Memory required for data: 1131654432
I0403 14:32:52.064040  1460 layer_factory.hpp:77] Creating layer inception_4d/5x5_reduce
I0403 14:32:52.064064  1460 net.cpp:91] Creating Layer inception_4d/5x5_reduce
I0403 14:32:52.064082  1460 net.cpp:425] inception_4d/5x5_reduce <- inception_4c/output_inception_4c/output_0_split_2
I0403 14:32:52.064105  1460 net.cpp:399] inception_4d/5x5_reduce -> inception_4d/5x5_reduce
I0403 14:32:52.065327  1460 net.cpp:141] Setting up inception_4d/5x5_reduce
I0403 14:32:52.065357  1460 net.cpp:148] Top shape: 24 32 14 14 (150528)
I0403 14:32:52.065374  1460 net.cpp:156] Memory required for data: 1132256544
I0403 14:32:52.065392  1460 layer_factory.hpp:77] Creating layer inception_4d/relu_5x5_reduce
I0403 14:32:52.065410  1460 net.cpp:91] Creating Layer inception_4d/relu_5x5_reduce
I0403 14:32:52.065428  1460 net.cpp:425] inception_4d/relu_5x5_reduce <- inception_4d/5x5_reduce
I0403 14:32:52.065445  1460 net.cpp:386] inception_4d/relu_5x5_reduce -> inception_4d/5x5_reduce (in-place)
I0403 14:32:52.065635  1460 net.cpp:141] Setting up inception_4d/relu_5x5_reduce
I0403 14:32:52.065659  1460 net.cpp:148] Top shape: 24 32 14 14 (150528)
I0403 14:32:52.065675  1460 net.cpp:156] Memory required for data: 1132858656
I0403 14:32:52.065688  1460 layer_factory.hpp:77] Creating layer inception_4d/5x5
I0403 14:32:52.065711  1460 net.cpp:91] Creating Layer inception_4d/5x5
I0403 14:32:52.065727  1460 net.cpp:425] inception_4d/5x5 <- inception_4d/5x5_reduce
I0403 14:32:52.065748  1460 net.cpp:399] inception_4d/5x5 -> inception_4d/5x5
I0403 14:32:52.067257  1460 net.cpp:141] Setting up inception_4d/5x5
I0403 14:32:52.067286  1460 net.cpp:148] Top shape: 24 64 14 14 (301056)
I0403 14:32:52.067301  1460 net.cpp:156] Memory required for data: 1134062880
I0403 14:32:52.067319  1460 layer_factory.hpp:77] Creating layer inception_4d/relu_5x5
I0403 14:32:52.067355  1460 net.cpp:91] Creating Layer inception_4d/relu_5x5
I0403 14:32:52.067373  1460 net.cpp:425] inception_4d/relu_5x5 <- inception_4d/5x5
I0403 14:32:52.067390  1460 net.cpp:386] inception_4d/relu_5x5 -> inception_4d/5x5 (in-place)
I0403 14:32:52.067698  1460 net.cpp:141] Setting up inception_4d/relu_5x5
I0403 14:32:52.067723  1460 net.cpp:148] Top shape: 24 64 14 14 (301056)
I0403 14:32:52.067739  1460 net.cpp:156] Memory required for data: 1135267104
I0403 14:32:52.067754  1460 layer_factory.hpp:77] Creating layer inception_4d/pool
I0403 14:32:52.067773  1460 net.cpp:91] Creating Layer inception_4d/pool
I0403 14:32:52.067790  1460 net.cpp:425] inception_4d/pool <- inception_4c/output_inception_4c/output_0_split_3
I0403 14:32:52.067809  1460 net.cpp:399] inception_4d/pool -> inception_4d/pool
I0403 14:32:52.067875  1460 net.cpp:141] Setting up inception_4d/pool
I0403 14:32:52.067899  1460 net.cpp:148] Top shape: 24 512 14 14 (2408448)
I0403 14:32:52.067914  1460 net.cpp:156] Memory required for data: 1144900896
I0403 14:32:52.067929  1460 layer_factory.hpp:77] Creating layer inception_4d/pool_proj
I0403 14:32:52.067950  1460 net.cpp:91] Creating Layer inception_4d/pool_proj
I0403 14:32:52.067968  1460 net.cpp:425] inception_4d/pool_proj <- inception_4d/pool
I0403 14:32:52.067989  1460 net.cpp:399] inception_4d/pool_proj -> inception_4d/pool_proj
I0403 14:32:52.069775  1460 net.cpp:141] Setting up inception_4d/pool_proj
I0403 14:32:52.069807  1460 net.cpp:148] Top shape: 24 64 14 14 (301056)
I0403 14:32:52.069823  1460 net.cpp:156] Memory required for data: 1146105120
I0403 14:32:52.069841  1460 layer_factory.hpp:77] Creating layer inception_4d/relu_pool_proj
I0403 14:32:52.069860  1460 net.cpp:91] Creating Layer inception_4d/relu_pool_proj
I0403 14:32:52.069876  1460 net.cpp:425] inception_4d/relu_pool_proj <- inception_4d/pool_proj
I0403 14:32:52.069895  1460 net.cpp:386] inception_4d/relu_pool_proj -> inception_4d/pool_proj (in-place)
I0403 14:32:52.070083  1460 net.cpp:141] Setting up inception_4d/relu_pool_proj
I0403 14:32:52.070108  1460 net.cpp:148] Top shape: 24 64 14 14 (301056)
I0403 14:32:52.070123  1460 net.cpp:156] Memory required for data: 1147309344
I0403 14:32:52.070137  1460 layer_factory.hpp:77] Creating layer inception_4d/output
I0403 14:32:52.070155  1460 net.cpp:91] Creating Layer inception_4d/output
I0403 14:32:52.070170  1460 net.cpp:425] inception_4d/output <- inception_4d/1x1
I0403 14:32:52.070194  1460 net.cpp:425] inception_4d/output <- inception_4d/3x3
I0403 14:32:52.070211  1460 net.cpp:425] inception_4d/output <- inception_4d/5x5
I0403 14:32:52.070227  1460 net.cpp:425] inception_4d/output <- inception_4d/pool_proj
I0403 14:32:52.070246  1460 net.cpp:399] inception_4d/output -> inception_4d/output
I0403 14:32:52.070296  1460 net.cpp:141] Setting up inception_4d/output
I0403 14:32:52.070322  1460 net.cpp:148] Top shape: 24 528 14 14 (2483712)
I0403 14:32:52.070338  1460 net.cpp:156] Memory required for data: 1157244192
I0403 14:32:52.070351  1460 layer_factory.hpp:77] Creating layer inception_4d/output_inception_4d/output_0_split
I0403 14:32:52.070369  1460 net.cpp:91] Creating Layer inception_4d/output_inception_4d/output_0_split
I0403 14:32:52.070385  1460 net.cpp:425] inception_4d/output_inception_4d/output_0_split <- inception_4d/output
I0403 14:32:52.070406  1460 net.cpp:399] inception_4d/output_inception_4d/output_0_split -> inception_4d/output_inception_4d/output_0_split_0
I0403 14:32:52.070427  1460 net.cpp:399] inception_4d/output_inception_4d/output_0_split -> inception_4d/output_inception_4d/output_0_split_1
I0403 14:32:52.070448  1460 net.cpp:399] inception_4d/output_inception_4d/output_0_split -> inception_4d/output_inception_4d/output_0_split_2
I0403 14:32:52.070469  1460 net.cpp:399] inception_4d/output_inception_4d/output_0_split -> inception_4d/output_inception_4d/output_0_split_3
I0403 14:32:52.070490  1460 net.cpp:399] inception_4d/output_inception_4d/output_0_split -> inception_4d/output_inception_4d/output_0_split_4
I0403 14:32:52.070592  1460 net.cpp:141] Setting up inception_4d/output_inception_4d/output_0_split
I0403 14:32:52.070631  1460 net.cpp:148] Top shape: 24 528 14 14 (2483712)
I0403 14:32:52.070648  1460 net.cpp:148] Top shape: 24 528 14 14 (2483712)
I0403 14:32:52.070664  1460 net.cpp:148] Top shape: 24 528 14 14 (2483712)
I0403 14:32:52.070680  1460 net.cpp:148] Top shape: 24 528 14 14 (2483712)
I0403 14:32:52.070696  1460 net.cpp:148] Top shape: 24 528 14 14 (2483712)
I0403 14:32:52.070710  1460 net.cpp:156] Memory required for data: 1206918432
I0403 14:32:52.070724  1460 layer_factory.hpp:77] Creating layer loss2/ave_pool
I0403 14:32:52.070742  1460 net.cpp:91] Creating Layer loss2/ave_pool
I0403 14:32:52.070758  1460 net.cpp:425] loss2/ave_pool <- inception_4d/output_inception_4d/output_0_split_0
I0403 14:32:52.070777  1460 net.cpp:399] loss2/ave_pool -> loss2/ave_pool
I0403 14:32:52.071092  1460 net.cpp:141] Setting up loss2/ave_pool
I0403 14:32:52.071120  1460 net.cpp:148] Top shape: 24 528 4 4 (202752)
I0403 14:32:52.071136  1460 net.cpp:156] Memory required for data: 1207729440
I0403 14:32:52.071154  1460 layer_factory.hpp:77] Creating layer loss2/conv
I0403 14:32:52.071177  1460 net.cpp:91] Creating Layer loss2/conv
I0403 14:32:52.071213  1460 net.cpp:425] loss2/conv <- loss2/ave_pool
I0403 14:32:52.071233  1460 net.cpp:399] loss2/conv -> loss2/conv
I0403 14:32:52.073156  1460 net.cpp:141] Setting up loss2/conv
I0403 14:32:52.073192  1460 net.cpp:148] Top shape: 24 128 4 4 (49152)
I0403 14:32:52.073210  1460 net.cpp:156] Memory required for data: 1207926048
I0403 14:32:52.073227  1460 layer_factory.hpp:77] Creating layer loss2/relu_conv
I0403 14:32:52.073247  1460 net.cpp:91] Creating Layer loss2/relu_conv
I0403 14:32:52.073264  1460 net.cpp:425] loss2/relu_conv <- loss2/conv
I0403 14:32:52.073282  1460 net.cpp:386] loss2/relu_conv -> loss2/conv (in-place)
I0403 14:32:52.073571  1460 net.cpp:141] Setting up loss2/relu_conv
I0403 14:32:52.073598  1460 net.cpp:148] Top shape: 24 128 4 4 (49152)
I0403 14:32:52.073613  1460 net.cpp:156] Memory required for data: 1208122656
I0403 14:32:52.073627  1460 layer_factory.hpp:77] Creating layer loss2/fc
I0403 14:32:52.073648  1460 net.cpp:91] Creating Layer loss2/fc
I0403 14:32:52.073667  1460 net.cpp:425] loss2/fc <- loss2/conv
I0403 14:32:52.073685  1460 net.cpp:399] loss2/fc -> loss2/fc
I0403 14:32:52.091384  1460 net.cpp:141] Setting up loss2/fc
I0403 14:32:52.091434  1460 net.cpp:148] Top shape: 24 1024 (24576)
I0403 14:32:52.091449  1460 net.cpp:156] Memory required for data: 1208220960
I0403 14:32:52.091467  1460 layer_factory.hpp:77] Creating layer loss2/relu_fc
I0403 14:32:52.091485  1460 net.cpp:91] Creating Layer loss2/relu_fc
I0403 14:32:52.091502  1460 net.cpp:425] loss2/relu_fc <- loss2/fc
I0403 14:32:52.091522  1460 net.cpp:386] loss2/relu_fc -> loss2/fc (in-place)
I0403 14:32:52.091850  1460 net.cpp:141] Setting up loss2/relu_fc
I0403 14:32:52.091876  1460 net.cpp:148] Top shape: 24 1024 (24576)
I0403 14:32:52.091891  1460 net.cpp:156] Memory required for data: 1208319264
I0403 14:32:52.091905  1460 layer_factory.hpp:77] Creating layer loss2/drop_fc
I0403 14:32:52.091923  1460 net.cpp:91] Creating Layer loss2/drop_fc
I0403 14:32:52.091938  1460 net.cpp:425] loss2/drop_fc <- loss2/fc
I0403 14:32:52.091958  1460 net.cpp:386] loss2/drop_fc -> loss2/fc (in-place)
I0403 14:32:52.092006  1460 net.cpp:141] Setting up loss2/drop_fc
I0403 14:32:52.092031  1460 net.cpp:148] Top shape: 24 1024 (24576)
I0403 14:32:52.092046  1460 net.cpp:156] Memory required for data: 1208417568
I0403 14:32:52.092061  1460 layer_factory.hpp:77] Creating layer loss2/classifier_plantvillage
I0403 14:32:52.092077  1460 net.cpp:91] Creating Layer loss2/classifier_plantvillage
I0403 14:32:52.092093  1460 net.cpp:425] loss2/classifier_plantvillage <- loss2/fc
I0403 14:32:52.092114  1460 net.cpp:399] loss2/classifier_plantvillage -> loss2/classifier_plantvillage
I0403 14:32:52.092532  1460 net.cpp:141] Setting up loss2/classifier_plantvillage
I0403 14:32:52.092557  1460 net.cpp:148] Top shape: 24 38 (912)
I0403 14:32:52.092597  1460 net.cpp:156] Memory required for data: 1208421216
I0403 14:32:52.092615  1460 layer_factory.hpp:77] Creating layer loss2/classifier_plantvillage_loss2/classifier_plantvillage_0_split
I0403 14:32:52.092635  1460 net.cpp:91] Creating Layer loss2/classifier_plantvillage_loss2/classifier_plantvillage_0_split
I0403 14:32:52.092653  1460 net.cpp:425] loss2/classifier_plantvillage_loss2/classifier_plantvillage_0_split <- loss2/classifier_plantvillage
I0403 14:32:52.092670  1460 net.cpp:399] loss2/classifier_plantvillage_loss2/classifier_plantvillage_0_split -> loss2/classifier_plantvillage_loss2/classifier_plantvillage_0_split_0
I0403 14:32:52.092690  1460 net.cpp:399] loss2/classifier_plantvillage_loss2/classifier_plantvillage_0_split -> loss2/classifier_plantvillage_loss2/classifier_plantvillage_0_split_1
I0403 14:32:52.092710  1460 net.cpp:399] loss2/classifier_plantvillage_loss2/classifier_plantvillage_0_split -> loss2/classifier_plantvillage_loss2/classifier_plantvillage_0_split_2
I0403 14:32:52.092805  1460 net.cpp:141] Setting up loss2/classifier_plantvillage_loss2/classifier_plantvillage_0_split
I0403 14:32:52.092828  1460 net.cpp:148] Top shape: 24 38 (912)
I0403 14:32:52.092845  1460 net.cpp:148] Top shape: 24 38 (912)
I0403 14:32:52.092860  1460 net.cpp:148] Top shape: 24 38 (912)
I0403 14:32:52.092875  1460 net.cpp:156] Memory required for data: 1208432160
I0403 14:32:52.092890  1460 layer_factory.hpp:77] Creating layer inception_4e/1x1
I0403 14:32:52.092911  1460 net.cpp:91] Creating Layer inception_4e/1x1
I0403 14:32:52.092931  1460 net.cpp:425] inception_4e/1x1 <- inception_4d/output_inception_4d/output_0_split_1
I0403 14:32:52.092949  1460 net.cpp:399] inception_4e/1x1 -> inception_4e/1x1
I0403 14:32:52.094817  1460 net.cpp:141] Setting up inception_4e/1x1
I0403 14:32:52.094846  1460 net.cpp:148] Top shape: 24 256 14 14 (1204224)
I0403 14:32:52.094861  1460 net.cpp:156] Memory required for data: 1213249056
I0403 14:32:52.094879  1460 layer_factory.hpp:77] Creating layer inception_4e/relu_1x1
I0403 14:32:52.094899  1460 net.cpp:91] Creating Layer inception_4e/relu_1x1
I0403 14:32:52.094916  1460 net.cpp:425] inception_4e/relu_1x1 <- inception_4e/1x1
I0403 14:32:52.094934  1460 net.cpp:386] inception_4e/relu_1x1 -> inception_4e/1x1 (in-place)
I0403 14:32:52.095253  1460 net.cpp:141] Setting up inception_4e/relu_1x1
I0403 14:32:52.095281  1460 net.cpp:148] Top shape: 24 256 14 14 (1204224)
I0403 14:32:52.095296  1460 net.cpp:156] Memory required for data: 1218065952
I0403 14:32:52.095312  1460 layer_factory.hpp:77] Creating layer inception_4e/3x3_reduce
I0403 14:32:52.095335  1460 net.cpp:91] Creating Layer inception_4e/3x3_reduce
I0403 14:32:52.095353  1460 net.cpp:425] inception_4e/3x3_reduce <- inception_4d/output_inception_4d/output_0_split_2
I0403 14:32:52.095376  1460 net.cpp:399] inception_4e/3x3_reduce -> inception_4e/3x3_reduce
I0403 14:32:52.097543  1460 net.cpp:141] Setting up inception_4e/3x3_reduce
I0403 14:32:52.097570  1460 net.cpp:148] Top shape: 24 160 14 14 (752640)
I0403 14:32:52.097585  1460 net.cpp:156] Memory required for data: 1221076512
I0403 14:32:52.097604  1460 layer_factory.hpp:77] Creating layer inception_4e/relu_3x3_reduce
I0403 14:32:52.097621  1460 net.cpp:91] Creating Layer inception_4e/relu_3x3_reduce
I0403 14:32:52.097638  1460 net.cpp:425] inception_4e/relu_3x3_reduce <- inception_4e/3x3_reduce
I0403 14:32:52.097658  1460 net.cpp:386] inception_4e/relu_3x3_reduce -> inception_4e/3x3_reduce (in-place)
I0403 14:32:52.097849  1460 net.cpp:141] Setting up inception_4e/relu_3x3_reduce
I0403 14:32:52.097874  1460 net.cpp:148] Top shape: 24 160 14 14 (752640)
I0403 14:32:52.097889  1460 net.cpp:156] Memory required for data: 1224087072
I0403 14:32:52.097904  1460 layer_factory.hpp:77] Creating layer inception_4e/3x3
I0403 14:32:52.097926  1460 net.cpp:91] Creating Layer inception_4e/3x3
I0403 14:32:52.097944  1460 net.cpp:425] inception_4e/3x3 <- inception_4e/3x3_reduce
I0403 14:32:52.097965  1460 net.cpp:399] inception_4e/3x3 -> inception_4e/3x3
I0403 14:32:52.103098  1460 net.cpp:141] Setting up inception_4e/3x3
I0403 14:32:52.103142  1460 net.cpp:148] Top shape: 24 320 14 14 (1505280)
I0403 14:32:52.103158  1460 net.cpp:156] Memory required for data: 1230108192
I0403 14:32:52.103183  1460 layer_factory.hpp:77] Creating layer inception_4e/relu_3x3
I0403 14:32:52.103220  1460 net.cpp:91] Creating Layer inception_4e/relu_3x3
I0403 14:32:52.103237  1460 net.cpp:425] inception_4e/relu_3x3 <- inception_4e/3x3
I0403 14:32:52.103255  1460 net.cpp:386] inception_4e/relu_3x3 -> inception_4e/3x3 (in-place)
I0403 14:32:52.103598  1460 net.cpp:141] Setting up inception_4e/relu_3x3
I0403 14:32:52.103628  1460 net.cpp:148] Top shape: 24 320 14 14 (1505280)
I0403 14:32:52.103644  1460 net.cpp:156] Memory required for data: 1236129312
I0403 14:32:52.103659  1460 layer_factory.hpp:77] Creating layer inception_4e/5x5_reduce
I0403 14:32:52.103695  1460 net.cpp:91] Creating Layer inception_4e/5x5_reduce
I0403 14:32:52.103713  1460 net.cpp:425] inception_4e/5x5_reduce <- inception_4d/output_inception_4d/output_0_split_3
I0403 14:32:52.103734  1460 net.cpp:399] inception_4e/5x5_reduce -> inception_4e/5x5_reduce
I0403 14:32:52.104818  1460 net.cpp:141] Setting up inception_4e/5x5_reduce
I0403 14:32:52.104858  1460 net.cpp:148] Top shape: 24 32 14 14 (150528)
I0403 14:32:52.104874  1460 net.cpp:156] Memory required for data: 1236731424
I0403 14:32:52.104894  1460 layer_factory.hpp:77] Creating layer inception_4e/relu_5x5_reduce
I0403 14:32:52.104915  1460 net.cpp:91] Creating Layer inception_4e/relu_5x5_reduce
I0403 14:32:52.104933  1460 net.cpp:425] inception_4e/relu_5x5_reduce <- inception_4e/5x5_reduce
I0403 14:32:52.104950  1460 net.cpp:386] inception_4e/relu_5x5_reduce -> inception_4e/5x5_reduce (in-place)
I0403 14:32:52.105273  1460 net.cpp:141] Setting up inception_4e/relu_5x5_reduce
I0403 14:32:52.105298  1460 net.cpp:148] Top shape: 24 32 14 14 (150528)
I0403 14:32:52.105314  1460 net.cpp:156] Memory required for data: 1237333536
I0403 14:32:52.105329  1460 layer_factory.hpp:77] Creating layer inception_4e/5x5
I0403 14:32:52.105368  1460 net.cpp:91] Creating Layer inception_4e/5x5
I0403 14:32:52.105387  1460 net.cpp:425] inception_4e/5x5 <- inception_4e/5x5_reduce
I0403 14:32:52.105407  1460 net.cpp:399] inception_4e/5x5 -> inception_4e/5x5
I0403 14:32:52.107301  1460 net.cpp:141] Setting up inception_4e/5x5
I0403 14:32:52.107331  1460 net.cpp:148] Top shape: 24 128 14 14 (602112)
I0403 14:32:52.107347  1460 net.cpp:156] Memory required for data: 1239741984
I0403 14:32:52.107367  1460 layer_factory.hpp:77] Creating layer inception_4e/relu_5x5
I0403 14:32:52.107384  1460 net.cpp:91] Creating Layer inception_4e/relu_5x5
I0403 14:32:52.107401  1460 net.cpp:425] inception_4e/relu_5x5 <- inception_4e/5x5
I0403 14:32:52.107421  1460 net.cpp:386] inception_4e/relu_5x5 -> inception_4e/5x5 (in-place)
I0403 14:32:52.107621  1460 net.cpp:141] Setting up inception_4e/relu_5x5
I0403 14:32:52.107646  1460 net.cpp:148] Top shape: 24 128 14 14 (602112)
I0403 14:32:52.107661  1460 net.cpp:156] Memory required for data: 1242150432
I0403 14:32:52.107676  1460 layer_factory.hpp:77] Creating layer inception_4e/pool
I0403 14:32:52.107694  1460 net.cpp:91] Creating Layer inception_4e/pool
I0403 14:32:52.107710  1460 net.cpp:425] inception_4e/pool <- inception_4d/output_inception_4d/output_0_split_4
I0403 14:32:52.107731  1460 net.cpp:399] inception_4e/pool -> inception_4e/pool
I0403 14:32:52.107805  1460 net.cpp:141] Setting up inception_4e/pool
I0403 14:32:52.107827  1460 net.cpp:148] Top shape: 24 528 14 14 (2483712)
I0403 14:32:52.107842  1460 net.cpp:156] Memory required for data: 1252085280
I0403 14:32:52.107856  1460 layer_factory.hpp:77] Creating layer inception_4e/pool_proj
I0403 14:32:52.107878  1460 net.cpp:91] Creating Layer inception_4e/pool_proj
I0403 14:32:52.107897  1460 net.cpp:425] inception_4e/pool_proj <- inception_4e/pool
I0403 14:32:52.107916  1460 net.cpp:399] inception_4e/pool_proj -> inception_4e/pool_proj
I0403 14:32:52.109498  1460 net.cpp:141] Setting up inception_4e/pool_proj
I0403 14:32:52.109540  1460 net.cpp:148] Top shape: 24 128 14 14 (602112)
I0403 14:32:52.109557  1460 net.cpp:156] Memory required for data: 1254493728
I0403 14:32:52.109588  1460 layer_factory.hpp:77] Creating layer inception_4e/relu_pool_proj
I0403 14:32:52.109607  1460 net.cpp:91] Creating Layer inception_4e/relu_pool_proj
I0403 14:32:52.109624  1460 net.cpp:425] inception_4e/relu_pool_proj <- inception_4e/pool_proj
I0403 14:32:52.109644  1460 net.cpp:386] inception_4e/relu_pool_proj -> inception_4e/pool_proj (in-place)
I0403 14:32:52.109956  1460 net.cpp:141] Setting up inception_4e/relu_pool_proj
I0403 14:32:52.109983  1460 net.cpp:148] Top shape: 24 128 14 14 (602112)
I0403 14:32:52.109999  1460 net.cpp:156] Memory required for data: 1256902176
I0403 14:32:52.110014  1460 layer_factory.hpp:77] Creating layer inception_4e/output
I0403 14:32:52.110031  1460 net.cpp:91] Creating Layer inception_4e/output
I0403 14:32:52.110047  1460 net.cpp:425] inception_4e/output <- inception_4e/1x1
I0403 14:32:52.110064  1460 net.cpp:425] inception_4e/output <- inception_4e/3x3
I0403 14:32:52.110080  1460 net.cpp:425] inception_4e/output <- inception_4e/5x5
I0403 14:32:52.110096  1460 net.cpp:425] inception_4e/output <- inception_4e/pool_proj
I0403 14:32:52.110116  1460 net.cpp:399] inception_4e/output -> inception_4e/output
I0403 14:32:52.110167  1460 net.cpp:141] Setting up inception_4e/output
I0403 14:32:52.110196  1460 net.cpp:148] Top shape: 24 832 14 14 (3913728)
I0403 14:32:52.110213  1460 net.cpp:156] Memory required for data: 1272557088
I0403 14:32:52.110226  1460 layer_factory.hpp:77] Creating layer pool4/3x3_s2
I0403 14:32:52.110246  1460 net.cpp:91] Creating Layer pool4/3x3_s2
I0403 14:32:52.110262  1460 net.cpp:425] pool4/3x3_s2 <- inception_4e/output
I0403 14:32:52.110281  1460 net.cpp:399] pool4/3x3_s2 -> pool4/3x3_s2
I0403 14:32:52.110350  1460 net.cpp:141] Setting up pool4/3x3_s2
I0403 14:32:52.110374  1460 net.cpp:148] Top shape: 24 832 7 7 (978432)
I0403 14:32:52.110389  1460 net.cpp:156] Memory required for data: 1276470816
I0403 14:32:52.110404  1460 layer_factory.hpp:77] Creating layer pool4/3x3_s2_pool4/3x3_s2_0_split
I0403 14:32:52.110420  1460 net.cpp:91] Creating Layer pool4/3x3_s2_pool4/3x3_s2_0_split
I0403 14:32:52.110435  1460 net.cpp:425] pool4/3x3_s2_pool4/3x3_s2_0_split <- pool4/3x3_s2
I0403 14:32:52.110455  1460 net.cpp:399] pool4/3x3_s2_pool4/3x3_s2_0_split -> pool4/3x3_s2_pool4/3x3_s2_0_split_0
I0403 14:32:52.110476  1460 net.cpp:399] pool4/3x3_s2_pool4/3x3_s2_0_split -> pool4/3x3_s2_pool4/3x3_s2_0_split_1
I0403 14:32:52.110497  1460 net.cpp:399] pool4/3x3_s2_pool4/3x3_s2_0_split -> pool4/3x3_s2_pool4/3x3_s2_0_split_2
I0403 14:32:52.110518  1460 net.cpp:399] pool4/3x3_s2_pool4/3x3_s2_0_split -> pool4/3x3_s2_pool4/3x3_s2_0_split_3
I0403 14:32:52.110610  1460 net.cpp:141] Setting up pool4/3x3_s2_pool4/3x3_s2_0_split
I0403 14:32:52.110632  1460 net.cpp:148] Top shape: 24 832 7 7 (978432)
I0403 14:32:52.110649  1460 net.cpp:148] Top shape: 24 832 7 7 (978432)
I0403 14:32:52.110664  1460 net.cpp:148] Top shape: 24 832 7 7 (978432)
I0403 14:32:52.110680  1460 net.cpp:148] Top shape: 24 832 7 7 (978432)
I0403 14:32:52.110693  1460 net.cpp:156] Memory required for data: 1292125728
I0403 14:32:52.110708  1460 layer_factory.hpp:77] Creating layer inception_5a/1x1
I0403 14:32:52.110729  1460 net.cpp:91] Creating Layer inception_5a/1x1
I0403 14:32:52.110748  1460 net.cpp:425] inception_5a/1x1 <- pool4/3x3_s2_pool4/3x3_s2_0_split_0
I0403 14:32:52.110769  1460 net.cpp:399] inception_5a/1x1 -> inception_5a/1x1
I0403 14:32:52.113765  1460 net.cpp:141] Setting up inception_5a/1x1
I0403 14:32:52.113795  1460 net.cpp:148] Top shape: 24 256 7 7 (301056)
I0403 14:32:52.113811  1460 net.cpp:156] Memory required for data: 1293329952
I0403 14:32:52.113829  1460 layer_factory.hpp:77] Creating layer inception_5a/relu_1x1
I0403 14:32:52.113847  1460 net.cpp:91] Creating Layer inception_5a/relu_1x1
I0403 14:32:52.113863  1460 net.cpp:425] inception_5a/relu_1x1 <- inception_5a/1x1
I0403 14:32:52.113883  1460 net.cpp:386] inception_5a/relu_1x1 -> inception_5a/1x1 (in-place)
I0403 14:32:52.114212  1460 net.cpp:141] Setting up inception_5a/relu_1x1
I0403 14:32:52.114238  1460 net.cpp:148] Top shape: 24 256 7 7 (301056)
I0403 14:32:52.114266  1460 net.cpp:156] Memory required for data: 1294534176
I0403 14:32:52.114281  1460 layer_factory.hpp:77] Creating layer inception_5a/3x3_reduce
I0403 14:32:52.114305  1460 net.cpp:91] Creating Layer inception_5a/3x3_reduce
I0403 14:32:52.114323  1460 net.cpp:425] inception_5a/3x3_reduce <- pool4/3x3_s2_pool4/3x3_s2_0_split_1
I0403 14:32:52.114346  1460 net.cpp:399] inception_5a/3x3_reduce -> inception_5a/3x3_reduce
I0403 14:32:52.116895  1460 net.cpp:141] Setting up inception_5a/3x3_reduce
I0403 14:32:52.116925  1460 net.cpp:148] Top shape: 24 160 7 7 (188160)
I0403 14:32:52.116940  1460 net.cpp:156] Memory required for data: 1295286816
I0403 14:32:52.116961  1460 layer_factory.hpp:77] Creating layer inception_5a/relu_3x3_reduce
I0403 14:32:52.116978  1460 net.cpp:91] Creating Layer inception_5a/relu_3x3_reduce
I0403 14:32:52.116994  1460 net.cpp:425] inception_5a/relu_3x3_reduce <- inception_5a/3x3_reduce
I0403 14:32:52.117012  1460 net.cpp:386] inception_5a/relu_3x3_reduce -> inception_5a/3x3_reduce (in-place)
I0403 14:32:52.117228  1460 net.cpp:141] Setting up inception_5a/relu_3x3_reduce
I0403 14:32:52.117254  1460 net.cpp:148] Top shape: 24 160 7 7 (188160)
I0403 14:32:52.117269  1460 net.cpp:156] Memory required for data: 1296039456
I0403 14:32:52.117285  1460 layer_factory.hpp:77] Creating layer inception_5a/3x3
I0403 14:32:52.117306  1460 net.cpp:91] Creating Layer inception_5a/3x3
I0403 14:32:52.117326  1460 net.cpp:425] inception_5a/3x3 <- inception_5a/3x3_reduce
I0403 14:32:52.117347  1460 net.cpp:399] inception_5a/3x3 -> inception_5a/3x3
I0403 14:32:52.122411  1460 net.cpp:141] Setting up inception_5a/3x3
I0403 14:32:52.122440  1460 net.cpp:148] Top shape: 24 320 7 7 (376320)
I0403 14:32:52.122455  1460 net.cpp:156] Memory required for data: 1297544736
I0403 14:32:52.122473  1460 layer_factory.hpp:77] Creating layer inception_5a/relu_3x3
I0403 14:32:52.122491  1460 net.cpp:91] Creating Layer inception_5a/relu_3x3
I0403 14:32:52.122506  1460 net.cpp:425] inception_5a/relu_3x3 <- inception_5a/3x3
I0403 14:32:52.122525  1460 net.cpp:386] inception_5a/relu_3x3 -> inception_5a/3x3 (in-place)
I0403 14:32:52.122815  1460 net.cpp:141] Setting up inception_5a/relu_3x3
I0403 14:32:52.122841  1460 net.cpp:148] Top shape: 24 320 7 7 (376320)
I0403 14:32:52.122855  1460 net.cpp:156] Memory required for data: 1299050016
I0403 14:32:52.122870  1460 layer_factory.hpp:77] Creating layer inception_5a/5x5_reduce
I0403 14:32:52.122894  1460 net.cpp:91] Creating Layer inception_5a/5x5_reduce
I0403 14:32:52.122911  1460 net.cpp:425] inception_5a/5x5_reduce <- pool4/3x3_s2_pool4/3x3_s2_0_split_2
I0403 14:32:52.122933  1460 net.cpp:399] inception_5a/5x5_reduce -> inception_5a/5x5_reduce
I0403 14:32:52.124117  1460 net.cpp:141] Setting up inception_5a/5x5_reduce
I0403 14:32:52.124145  1460 net.cpp:148] Top shape: 24 32 7 7 (37632)
I0403 14:32:52.124161  1460 net.cpp:156] Memory required for data: 1299200544
I0403 14:32:52.124184  1460 layer_factory.hpp:77] Creating layer inception_5a/relu_5x5_reduce
I0403 14:32:52.124205  1460 net.cpp:91] Creating Layer inception_5a/relu_5x5_reduce
I0403 14:32:52.124222  1460 net.cpp:425] inception_5a/relu_5x5_reduce <- inception_5a/5x5_reduce
I0403 14:32:52.124240  1460 net.cpp:386] inception_5a/relu_5x5_reduce -> inception_5a/5x5_reduce (in-place)
I0403 14:32:52.124534  1460 net.cpp:141] Setting up inception_5a/relu_5x5_reduce
I0403 14:32:52.124559  1460 net.cpp:148] Top shape: 24 32 7 7 (37632)
I0403 14:32:52.124574  1460 net.cpp:156] Memory required for data: 1299351072
I0403 14:32:52.124588  1460 layer_factory.hpp:77] Creating layer inception_5a/5x5
I0403 14:32:52.124610  1460 net.cpp:91] Creating Layer inception_5a/5x5
I0403 14:32:52.124627  1460 net.cpp:425] inception_5a/5x5 <- inception_5a/5x5_reduce
I0403 14:32:52.124649  1460 net.cpp:399] inception_5a/5x5 -> inception_5a/5x5
I0403 14:32:52.126397  1460 net.cpp:141] Setting up inception_5a/5x5
I0403 14:32:52.126438  1460 net.cpp:148] Top shape: 24 128 7 7 (150528)
I0403 14:32:52.126454  1460 net.cpp:156] Memory required for data: 1299953184
I0403 14:32:52.126484  1460 layer_factory.hpp:77] Creating layer inception_5a/relu_5x5
I0403 14:32:52.126502  1460 net.cpp:91] Creating Layer inception_5a/relu_5x5
I0403 14:32:52.126518  1460 net.cpp:425] inception_5a/relu_5x5 <- inception_5a/5x5
I0403 14:32:52.126538  1460 net.cpp:386] inception_5a/relu_5x5 -> inception_5a/5x5 (in-place)
I0403 14:32:52.126729  1460 net.cpp:141] Setting up inception_5a/relu_5x5
I0403 14:32:52.126754  1460 net.cpp:148] Top shape: 24 128 7 7 (150528)
I0403 14:32:52.126766  1460 net.cpp:156] Memory required for data: 1300555296
I0403 14:32:52.126780  1460 layer_factory.hpp:77] Creating layer inception_5a/pool
I0403 14:32:52.126801  1460 net.cpp:91] Creating Layer inception_5a/pool
I0403 14:32:52.126817  1460 net.cpp:425] inception_5a/pool <- pool4/3x3_s2_pool4/3x3_s2_0_split_3
I0403 14:32:52.126834  1460 net.cpp:399] inception_5a/pool -> inception_5a/pool
I0403 14:32:52.126904  1460 net.cpp:141] Setting up inception_5a/pool
I0403 14:32:52.126927  1460 net.cpp:148] Top shape: 24 832 7 7 (978432)
I0403 14:32:52.126940  1460 net.cpp:156] Memory required for data: 1304469024
I0403 14:32:52.126955  1460 layer_factory.hpp:77] Creating layer inception_5a/pool_proj
I0403 14:32:52.126976  1460 net.cpp:91] Creating Layer inception_5a/pool_proj
I0403 14:32:52.126993  1460 net.cpp:425] inception_5a/pool_proj <- inception_5a/pool
I0403 14:32:52.127013  1460 net.cpp:399] inception_5a/pool_proj -> inception_5a/pool_proj
I0403 14:32:52.129340  1460 net.cpp:141] Setting up inception_5a/pool_proj
I0403 14:32:52.129372  1460 net.cpp:148] Top shape: 24 128 7 7 (150528)
I0403 14:32:52.129389  1460 net.cpp:156] Memory required for data: 1305071136
I0403 14:32:52.129407  1460 layer_factory.hpp:77] Creating layer inception_5a/relu_pool_proj
I0403 14:32:52.129425  1460 net.cpp:91] Creating Layer inception_5a/relu_pool_proj
I0403 14:32:52.129441  1460 net.cpp:425] inception_5a/relu_pool_proj <- inception_5a/pool_proj
I0403 14:32:52.129461  1460 net.cpp:386] inception_5a/relu_pool_proj -> inception_5a/pool_proj (in-place)
I0403 14:32:52.129756  1460 net.cpp:141] Setting up inception_5a/relu_pool_proj
I0403 14:32:52.129783  1460 net.cpp:148] Top shape: 24 128 7 7 (150528)
I0403 14:32:52.129798  1460 net.cpp:156] Memory required for data: 1305673248
I0403 14:32:52.129813  1460 layer_factory.hpp:77] Creating layer inception_5a/output
I0403 14:32:52.129832  1460 net.cpp:91] Creating Layer inception_5a/output
I0403 14:32:52.129848  1460 net.cpp:425] inception_5a/output <- inception_5a/1x1
I0403 14:32:52.129863  1460 net.cpp:425] inception_5a/output <- inception_5a/3x3
I0403 14:32:52.129879  1460 net.cpp:425] inception_5a/output <- inception_5a/5x5
I0403 14:32:52.129895  1460 net.cpp:425] inception_5a/output <- inception_5a/pool_proj
I0403 14:32:52.129911  1460 net.cpp:399] inception_5a/output -> inception_5a/output
I0403 14:32:52.129961  1460 net.cpp:141] Setting up inception_5a/output
I0403 14:32:52.129984  1460 net.cpp:148] Top shape: 24 832 7 7 (978432)
I0403 14:32:52.129998  1460 net.cpp:156] Memory required for data: 1309586976
I0403 14:32:52.130013  1460 layer_factory.hpp:77] Creating layer inception_5a/output_inception_5a/output_0_split
I0403 14:32:52.130031  1460 net.cpp:91] Creating Layer inception_5a/output_inception_5a/output_0_split
I0403 14:32:52.130048  1460 net.cpp:425] inception_5a/output_inception_5a/output_0_split <- inception_5a/output
I0403 14:32:52.130064  1460 net.cpp:399] inception_5a/output_inception_5a/output_0_split -> inception_5a/output_inception_5a/output_0_split_0
I0403 14:32:52.130084  1460 net.cpp:399] inception_5a/output_inception_5a/output_0_split -> inception_5a/output_inception_5a/output_0_split_1
I0403 14:32:52.130105  1460 net.cpp:399] inception_5a/output_inception_5a/output_0_split -> inception_5a/output_inception_5a/output_0_split_2
I0403 14:32:52.130128  1460 net.cpp:399] inception_5a/output_inception_5a/output_0_split -> inception_5a/output_inception_5a/output_0_split_3
I0403 14:32:52.130246  1460 net.cpp:141] Setting up inception_5a/output_inception_5a/output_0_split
I0403 14:32:52.130270  1460 net.cpp:148] Top shape: 24 832 7 7 (978432)
I0403 14:32:52.130285  1460 net.cpp:148] Top shape: 24 832 7 7 (978432)
I0403 14:32:52.130300  1460 net.cpp:148] Top shape: 24 832 7 7 (978432)
I0403 14:32:52.130316  1460 net.cpp:148] Top shape: 24 832 7 7 (978432)
I0403 14:32:52.130329  1460 net.cpp:156] Memory required for data: 1325241888
I0403 14:32:52.130343  1460 layer_factory.hpp:77] Creating layer inception_5b/1x1
I0403 14:32:52.130364  1460 net.cpp:91] Creating Layer inception_5b/1x1
I0403 14:32:52.130381  1460 net.cpp:425] inception_5b/1x1 <- inception_5a/output_inception_5a/output_0_split_0
I0403 14:32:52.130403  1460 net.cpp:399] inception_5b/1x1 -> inception_5b/1x1
I0403 14:32:52.134158  1460 net.cpp:141] Setting up inception_5b/1x1
I0403 14:32:52.134196  1460 net.cpp:148] Top shape: 24 384 7 7 (451584)
I0403 14:32:52.134214  1460 net.cpp:156] Memory required for data: 1327048224
I0403 14:32:52.134233  1460 layer_factory.hpp:77] Creating layer inception_5b/relu_1x1
I0403 14:32:52.134251  1460 net.cpp:91] Creating Layer inception_5b/relu_1x1
I0403 14:32:52.134268  1460 net.cpp:425] inception_5b/relu_1x1 <- inception_5b/1x1
I0403 14:32:52.134289  1460 net.cpp:386] inception_5b/relu_1x1 -> inception_5b/1x1 (in-place)
I0403 14:32:52.134596  1460 net.cpp:141] Setting up inception_5b/relu_1x1
I0403 14:32:52.134625  1460 net.cpp:148] Top shape: 24 384 7 7 (451584)
I0403 14:32:52.134640  1460 net.cpp:156] Memory required for data: 1328854560
I0403 14:32:52.134656  1460 layer_factory.hpp:77] Creating layer inception_5b/3x3_reduce
I0403 14:32:52.134677  1460 net.cpp:91] Creating Layer inception_5b/3x3_reduce
I0403 14:32:52.134696  1460 net.cpp:425] inception_5b/3x3_reduce <- inception_5a/output_inception_5a/output_0_split_1
I0403 14:32:52.134716  1460 net.cpp:399] inception_5b/3x3_reduce -> inception_5b/3x3_reduce
I0403 14:32:52.137431  1460 net.cpp:141] Setting up inception_5b/3x3_reduce
I0403 14:32:52.137464  1460 net.cpp:148] Top shape: 24 192 7 7 (225792)
I0403 14:32:52.137480  1460 net.cpp:156] Memory required for data: 1329757728
I0403 14:32:52.137500  1460 layer_factory.hpp:77] Creating layer inception_5b/relu_3x3_reduce
I0403 14:32:52.137517  1460 net.cpp:91] Creating Layer inception_5b/relu_3x3_reduce
I0403 14:32:52.137534  1460 net.cpp:425] inception_5b/relu_3x3_reduce <- inception_5b/3x3_reduce
I0403 14:32:52.137552  1460 net.cpp:386] inception_5b/relu_3x3_reduce -> inception_5b/3x3_reduce (in-place)
I0403 14:32:52.137748  1460 net.cpp:141] Setting up inception_5b/relu_3x3_reduce
I0403 14:32:52.137773  1460 net.cpp:148] Top shape: 24 192 7 7 (225792)
I0403 14:32:52.137787  1460 net.cpp:156] Memory required for data: 1330660896
I0403 14:32:52.137802  1460 layer_factory.hpp:77] Creating layer inception_5b/3x3
I0403 14:32:52.137825  1460 net.cpp:91] Creating Layer inception_5b/3x3
I0403 14:32:52.137842  1460 net.cpp:425] inception_5b/3x3 <- inception_5b/3x3_reduce
I0403 14:32:52.137864  1460 net.cpp:399] inception_5b/3x3 -> inception_5b/3x3
I0403 14:32:52.144676  1460 net.cpp:141] Setting up inception_5b/3x3
I0403 14:32:52.144707  1460 net.cpp:148] Top shape: 24 384 7 7 (451584)
I0403 14:32:52.144723  1460 net.cpp:156] Memory required for data: 1332467232
I0403 14:32:52.144742  1460 layer_factory.hpp:77] Creating layer inception_5b/relu_3x3
I0403 14:32:52.144760  1460 net.cpp:91] Creating Layer inception_5b/relu_3x3
I0403 14:32:52.144778  1460 net.cpp:425] inception_5b/relu_3x3 <- inception_5b/3x3
I0403 14:32:52.144798  1460 net.cpp:386] inception_5b/relu_3x3 -> inception_5b/3x3 (in-place)
I0403 14:32:52.145104  1460 net.cpp:141] Setting up inception_5b/relu_3x3
I0403 14:32:52.145133  1460 net.cpp:148] Top shape: 24 384 7 7 (451584)
I0403 14:32:52.145149  1460 net.cpp:156] Memory required for data: 1334273568
I0403 14:32:52.145164  1460 layer_factory.hpp:77] Creating layer inception_5b/5x5_reduce
I0403 14:32:52.145212  1460 net.cpp:91] Creating Layer inception_5b/5x5_reduce
I0403 14:32:52.145232  1460 net.cpp:425] inception_5b/5x5_reduce <- inception_5a/output_inception_5a/output_0_split_2
I0403 14:32:52.145254  1460 net.cpp:399] inception_5b/5x5_reduce -> inception_5b/5x5_reduce
I0403 14:32:52.146545  1460 net.cpp:141] Setting up inception_5b/5x5_reduce
I0403 14:32:52.146576  1460 net.cpp:148] Top shape: 24 48 7 7 (56448)
I0403 14:32:52.146592  1460 net.cpp:156] Memory required for data: 1334499360
I0403 14:32:52.146611  1460 layer_factory.hpp:77] Creating layer inception_5b/relu_5x5_reduce
I0403 14:32:52.146630  1460 net.cpp:91] Creating Layer inception_5b/relu_5x5_reduce
I0403 14:32:52.146646  1460 net.cpp:425] inception_5b/relu_5x5_reduce <- inception_5b/5x5_reduce
I0403 14:32:52.146667  1460 net.cpp:386] inception_5b/relu_5x5_reduce -> inception_5b/5x5_reduce (in-place)
I0403 14:32:52.147045  1460 net.cpp:141] Setting up inception_5b/relu_5x5_reduce
I0403 14:32:52.147071  1460 net.cpp:148] Top shape: 24 48 7 7 (56448)
I0403 14:32:52.147086  1460 net.cpp:156] Memory required for data: 1334725152
I0403 14:32:52.147101  1460 layer_factory.hpp:77] Creating layer inception_5b/5x5
I0403 14:32:52.147121  1460 net.cpp:91] Creating Layer inception_5b/5x5
I0403 14:32:52.147140  1460 net.cpp:425] inception_5b/5x5 <- inception_5b/5x5_reduce
I0403 14:32:52.147158  1460 net.cpp:399] inception_5b/5x5 -> inception_5b/5x5
I0403 14:32:52.149261  1460 net.cpp:141] Setting up inception_5b/5x5
I0403 14:32:52.149289  1460 net.cpp:148] Top shape: 24 128 7 7 (150528)
I0403 14:32:52.149305  1460 net.cpp:156] Memory required for data: 1335327264
I0403 14:32:52.149323  1460 layer_factory.hpp:77] Creating layer inception_5b/relu_5x5
I0403 14:32:52.149341  1460 net.cpp:91] Creating Layer inception_5b/relu_5x5
I0403 14:32:52.149358  1460 net.cpp:425] inception_5b/relu_5x5 <- inception_5b/5x5
I0403 14:32:52.149379  1460 net.cpp:386] inception_5b/relu_5x5 -> inception_5b/5x5 (in-place)
I0403 14:32:52.149577  1460 net.cpp:141] Setting up inception_5b/relu_5x5
I0403 14:32:52.149602  1460 net.cpp:148] Top shape: 24 128 7 7 (150528)
I0403 14:32:52.149616  1460 net.cpp:156] Memory required for data: 1335929376
I0403 14:32:52.149631  1460 layer_factory.hpp:77] Creating layer inception_5b/pool
I0403 14:32:52.149652  1460 net.cpp:91] Creating Layer inception_5b/pool
I0403 14:32:52.149670  1460 net.cpp:425] inception_5b/pool <- inception_5a/output_inception_5a/output_0_split_3
I0403 14:32:52.149689  1460 net.cpp:399] inception_5b/pool -> inception_5b/pool
I0403 14:32:52.149763  1460 net.cpp:141] Setting up inception_5b/pool
I0403 14:32:52.149787  1460 net.cpp:148] Top shape: 24 832 7 7 (978432)
I0403 14:32:52.149801  1460 net.cpp:156] Memory required for data: 1339843104
I0403 14:32:52.149816  1460 layer_factory.hpp:77] Creating layer inception_5b/pool_proj
I0403 14:32:52.149837  1460 net.cpp:91] Creating Layer inception_5b/pool_proj
I0403 14:32:52.149854  1460 net.cpp:425] inception_5b/pool_proj <- inception_5b/pool
I0403 14:32:52.149875  1460 net.cpp:399] inception_5b/pool_proj -> inception_5b/pool_proj
I0403 14:32:52.152242  1460 net.cpp:141] Setting up inception_5b/pool_proj
I0403 14:32:52.152272  1460 net.cpp:148] Top shape: 24 128 7 7 (150528)
I0403 14:32:52.152289  1460 net.cpp:156] Memory required for data: 1340445216
I0403 14:32:52.152308  1460 layer_factory.hpp:77] Creating layer inception_5b/relu_pool_proj
I0403 14:32:52.152326  1460 net.cpp:91] Creating Layer inception_5b/relu_pool_proj
I0403 14:32:52.152343  1460 net.cpp:425] inception_5b/relu_pool_proj <- inception_5b/pool_proj
I0403 14:32:52.152362  1460 net.cpp:386] inception_5b/relu_pool_proj -> inception_5b/pool_proj (in-place)
I0403 14:32:52.152663  1460 net.cpp:141] Setting up inception_5b/relu_pool_proj
I0403 14:32:52.152693  1460 net.cpp:148] Top shape: 24 128 7 7 (150528)
I0403 14:32:52.152709  1460 net.cpp:156] Memory required for data: 1341047328
I0403 14:32:52.152724  1460 layer_factory.hpp:77] Creating layer inception_5b/output
I0403 14:32:52.152740  1460 net.cpp:91] Creating Layer inception_5b/output
I0403 14:32:52.152770  1460 net.cpp:425] inception_5b/output <- inception_5b/1x1
I0403 14:32:52.152788  1460 net.cpp:425] inception_5b/output <- inception_5b/3x3
I0403 14:32:52.152806  1460 net.cpp:425] inception_5b/output <- inception_5b/5x5
I0403 14:32:52.152820  1460 net.cpp:425] inception_5b/output <- inception_5b/pool_proj
I0403 14:32:52.152840  1460 net.cpp:399] inception_5b/output -> inception_5b/output
I0403 14:32:52.152892  1460 net.cpp:141] Setting up inception_5b/output
I0403 14:32:52.152916  1460 net.cpp:148] Top shape: 24 1024 7 7 (1204224)
I0403 14:32:52.152931  1460 net.cpp:156] Memory required for data: 1345864224
I0403 14:32:52.152945  1460 layer_factory.hpp:77] Creating layer pool5/7x7_s1
I0403 14:32:52.152968  1460 net.cpp:91] Creating Layer pool5/7x7_s1
I0403 14:32:52.152987  1460 net.cpp:425] pool5/7x7_s1 <- inception_5b/output
I0403 14:32:52.153005  1460 net.cpp:399] pool5/7x7_s1 -> pool5/7x7_s1
I0403 14:32:52.153250  1460 net.cpp:141] Setting up pool5/7x7_s1
I0403 14:32:52.153276  1460 net.cpp:148] Top shape: 24 1024 1 1 (24576)
I0403 14:32:52.153292  1460 net.cpp:156] Memory required for data: 1345962528
I0403 14:32:52.153307  1460 layer_factory.hpp:77] Creating layer pool5/drop_7x7_s1
I0403 14:32:52.153326  1460 net.cpp:91] Creating Layer pool5/drop_7x7_s1
I0403 14:32:52.153343  1460 net.cpp:425] pool5/drop_7x7_s1 <- pool5/7x7_s1
I0403 14:32:52.153363  1460 net.cpp:386] pool5/drop_7x7_s1 -> pool5/7x7_s1 (in-place)
I0403 14:32:52.153415  1460 net.cpp:141] Setting up pool5/drop_7x7_s1
I0403 14:32:52.153442  1460 net.cpp:148] Top shape: 24 1024 1 1 (24576)
I0403 14:32:52.153458  1460 net.cpp:156] Memory required for data: 1346060832
I0403 14:32:52.153473  1460 layer_factory.hpp:77] Creating layer loss3/classifier_plantvillage
I0403 14:32:52.153493  1460 net.cpp:91] Creating Layer loss3/classifier_plantvillage
I0403 14:32:52.153511  1460 net.cpp:425] loss3/classifier_plantvillage <- pool5/7x7_s1
I0403 14:32:52.153540  1460 net.cpp:399] loss3/classifier_plantvillage -> loss3/classifier_plantvillage
I0403 14:32:52.153985  1460 net.cpp:141] Setting up loss3/classifier_plantvillage
I0403 14:32:52.154012  1460 net.cpp:148] Top shape: 24 38 (912)
I0403 14:32:52.154028  1460 net.cpp:156] Memory required for data: 1346064480
I0403 14:32:52.154047  1460 layer_factory.hpp:77] Creating layer loss3/classifier_plantvillage_loss3/classifier_plantvillage_0_split
I0403 14:32:52.154067  1460 net.cpp:91] Creating Layer loss3/classifier_plantvillage_loss3/classifier_plantvillage_0_split
I0403 14:32:52.154083  1460 net.cpp:425] loss3/classifier_plantvillage_loss3/classifier_plantvillage_0_split <- loss3/classifier_plantvillage
I0403 14:32:52.154101  1460 net.cpp:399] loss3/classifier_plantvillage_loss3/classifier_plantvillage_0_split -> loss3/classifier_plantvillage_loss3/classifier_plantvillage_0_split_0
I0403 14:32:52.154122  1460 net.cpp:399] loss3/classifier_plantvillage_loss3/classifier_plantvillage_0_split -> loss3/classifier_plantvillage_loss3/classifier_plantvillage_0_split_1
I0403 14:32:52.154144  1460 net.cpp:399] loss3/classifier_plantvillage_loss3/classifier_plantvillage_0_split -> loss3/classifier_plantvillage_loss3/classifier_plantvillage_0_split_2
I0403 14:32:52.154167  1460 net.cpp:399] loss3/classifier_plantvillage_loss3/classifier_plantvillage_0_split -> loss3/classifier_plantvillage_loss3/classifier_plantvillage_0_split_3
I0403 14:32:52.154283  1460 net.cpp:141] Setting up loss3/classifier_plantvillage_loss3/classifier_plantvillage_0_split
I0403 14:32:52.154306  1460 net.cpp:148] Top shape: 24 38 (912)
I0403 14:32:52.154323  1460 net.cpp:148] Top shape: 24 38 (912)
I0403 14:32:52.154340  1460 net.cpp:148] Top shape: 24 38 (912)
I0403 14:32:52.154356  1460 net.cpp:148] Top shape: 24 38 (912)
I0403 14:32:52.154369  1460 net.cpp:156] Memory required for data: 1346079072
I0403 14:32:52.154384  1460 layer_factory.hpp:77] Creating layer loss1/loss
I0403 14:32:52.154407  1460 net.cpp:91] Creating Layer loss1/loss
I0403 14:32:52.154424  1460 net.cpp:425] loss1/loss <- loss1/classifier_plantvillage_loss1/classifier_plantvillage_0_split_0
I0403 14:32:52.154455  1460 net.cpp:425] loss1/loss <- label_data_1_split_0
…
