…
I0403 13:45:35.400990   317 net.cpp:313] The NetState phase (1) differed from the phase (0) specified by a rule in layer data
I0403 13:45:35.402212   317 net.cpp:49] Initializing net from parameters: 
state {
  phase: TEST
}
layer {
  name: "data"
  type: "Data"
  top: "data"
  top: "label"
  include {
    phase: TEST
  }
  transform_param {
    mirror: false
    crop_size: 224
    mean_file: "/home/mohanty/data/final_dataset/lmdb/grayscale-20-80/mean.binaryproto"
  }
  data_param {
    source: "/home/mohanty/data/final_dataset/lmdb/grayscale-20-80/test_db"
    batch_size: 24
    backend: LMDB
  }
}
layer {
  name: "conv1/7x7_s2"
  type: "Convolution"
  bottom: "data"
  top: "conv1/7x7_s2"
  param {
    lr_mult: 1
    decay_mult: 1
  }
  param {
    lr_mult: 2
    decay_mult: 0
  }
  convolution_param {
    num_output: 64
    pad: 3
    kernel_size: 7
    stride: 2
    weight_filler {
      type: "xavier"
      std: 0.1
    }
    bias_filler {
      type: "constant"
      value: 0.2
    }
  }
}
layer {
  name: "conv1/relu_7x7"
  type: "ReLU"
  bottom: "conv1/7x7_s2"
  top: "conv1/7x7_s2"
}
layer {
  name: "pool1/3x3_s2"
  type: "Pooling"
  bottom: "conv1/7x7_s2"
  top: "pool1/3x3_s2"
  pooling_param {
    pool: MAX
    kernel_size: 3
    stride: 2
  }
}
layer {
  name: "pool1/norm1"
  type: "LRN"
  bottom: "pool1/3x3_s2"
  top: "pool1/norm1"
  lrn_param {
    local_size: 5
    alpha: 0.0001
    beta: 0.75
  }
}
layer {
  name: "conv2/3x3_reduce"
  type: "Convolution"
  bottom: "pool1/norm1"
  top: "conv2/3x3_reduce"
  param {
    lr_mult: 1
    decay_mult: 1
  }
  param {
    lr_mult: 2
    decay_mult: 0
  }
  convolution_param {
    num_output: 64
    kernel_size: 1
    weight_filler {
      type: "xavier"
      std: 0.1
    }
    bias_filler {
      type: "constant"
      value: 0.2
    }
  }
}
layer {
  name: "conv2/relu_3x3_reduce"
  type: "ReLU"
  bottom: "conv2/3x3_reduce"
  top: "conv2/3x3_reduce"
}
layer {
  name: "conv2/3x3"
  type: "Convolution"
  bottom: "conv2/3x3_reduce"
  top: "conv2/3x3"
  param {
    lr_mult: 1
    decay_mult: 1
  }
  param {
    lr_mult: 2
    decay_mult: 0
  }
  convolution_param {
    num_output: 192
    pad: 1
    kernel_size: 3
    weight_filler {
      type: "xavier"
      std: 0.03
    }
    bias_filler {
      type: "constant"
      value: 0.2
    }
  }
}
layer {
  name: "conv2/relu_3x3"
  type: "ReLU"
  bottom: "conv2/3x3"
  top: "conv2/3x3"
}
layer {
  name: "conv2/norm2"
  type: "LRN"
  bottom: "conv2/3x3"
  top: "conv2/norm2"
  lrn_param {
    local_size: 5
    alpha: 0.0001
    beta: 0.75
  }
}
layer {
  name: "pool2/3x3_s2"
  type: "Pooling"
  bottom: "conv2/norm2"
  top: "pool2/3x3_s2"
  pooling_param {
    pool: MAX
    kernel_size: 3
    stride: 2
  }
}
layer {
  name: "inception_3a/1x1"
  type: "Convolution"
  bottom: "pool2/3x3_s2"
  top: "inception_3a/1x1"
  param {
    lr_mult: 1
    decay_mult: 1
  }
  param {
    lr_mult: 2
    decay_mult: 0
  }
  convolution_param {
    num_output: 64
    kernel_size: 1
    weight_filler {
      type: "xavier"
      std: 0.03
    }
    bias_filler {
      type: "constant"
      value: 0.2
    }
  }
}
layer {
  name: "inception_3a/relu_1x1"
  type: "ReLU"
  bottom: "inception_3a/1x1"
  top: "inception_3a/1x1"
}
layer {
  name: "inception_3a/3x3_reduce"
  type: "Convolution"
  bottom: "pool2/3x3_s2"
  top: "inception_3a/3x3_reduce"
  param {
    lr_mult: 1
    decay_mult: 1
  }
  param {
    lr_mult: 2
    decay_mult: 0
  }
  convolution_param {
    num_output: 96
    kernel_size: 1
    weight_filler {
      type: "xavier"
      std: 0.09
    }
    bias_filler {
      type: "constant"
      value: 0.2
    }
  }
}
layer {
  name: "inception_3a/relu_3x3_reduce"
  type: "ReLU"
  bottom: "inception_3a/3x3_reduce"
  top: "inception_3a/3x3_reduce"
}
layer {
  name: "inception_3a/3x3"
  type: "Convolution"
  bottom: "inception_3a/3x3_reduce"
  top: "inception_3a/3x3"
  param {
    lr_mult: 1
    decay_mult: 1
  }
  param {
    lr_mult: 2
    decay_mult: 0
  }
  convolution_param {
    num_output: 128
    pad: 1
    kernel_size: 3
    weight_filler {
      type: "xavier"
      std: 0.03
    }
    bias_filler {
      type: "constant"
      value: 0.2
    }
  }
}
layer {
  name: "inception_3a/relu_3x3"
  type: "ReLU"
  bottom: "inception_3a/3x3"
  top: "inception_3a/3x3"
}
layer {
  name: "inception_3a/5x5_reduce"
  type: "Convolution"
  bottom: "pool2/3x3_s2"
  top: "inception_3a/5x5_reduce"
  param {
    lr_mult: 1
    decay_mult: 1
  }
  param {
    lr_mult: 2
    decay_mult: 0
  }
  convolution_param {
    num_output: 16
    kernel_size: 1
    weight_filler {
      type: "xavier"
      std: 0.2
    }
    bias_filler {
      type: "constant"
      value: 0.2
    }
  }
}
layer {
  name: "inception_3a/relu_5x5_reduce"
  type: "ReLU"
  bottom: "inception_3a/5x5_reduce"
  top: "inception_3a/5x5_reduce"
}
layer {
  name: "inception_3a/5x5"
  type: "Convolution"
  bottom: "inception_3a/5x5_reduce"
  top: "inception_3a/5x5"
  param {
    lr_mult: 1
    decay_mult: 1
  }
  param {
    lr_mult: 2
    decay_mult: 0
  }
  convolution_param {
    num_output: 32
    pad: 2
    kernel_size: 5
    weight_filler {
      type: "xavier"
      std: 0.03
    }
    bias_filler {
      type: "constant"
      value: 0.2
    }
  }
}
layer {
  name: "inception_3a/relu_5x5"
  type: "ReLU"
  bottom: "inception_3a/5x5"
  top: "inception_3a/5x5"
}
layer {
  name: "inception_3a/pool"
  type: "Pooling"
  bottom: "pool2/3x3_s2"
  top: "inception_3a/pool"
  pooling_param {
    pool: MAX
    kernel_size: 3
    stride: 1
    pad: 1
  }
}
layer {
  name: "inception_3a/pool_proj"
  type: "Convolution"
  bottom: "inception_3a/pool"
  top: "inception_3a/pool_proj"
  param {
    lr_mult: 1
    decay_mult: 1
  }
  param {
    lr_mult: 2
    decay_mult: 0
  }
  convolution_param {
    num_output: 32
    kernel_size: 1
    weight_filler {
      type: "xavier"
      std: 0.1
    }
    bias_filler {
      type: "constant"
      value: 0.2
    }
  }
}
layer {
  name: "inception_3a/relu_pool_proj"
  type: "ReLU"
  bottom: "inception_3a/pool_proj"
  top: "inception_3a/pool_proj"
}
layer {
  name: "inception_3a/output"
  type: "Concat"
  bottom: "inception_3a/1x1"
  bottom: "inception_3a/3x3"
  bottom: "inception_3a/5x5"
  bottom: "inception_3a/pool_proj"
  top: "inception_3a/output"
}
layer {
  name: "inception_3b/1x1"
  type: "Convolution"
  bottom: "inception_3a/output"
  top: "inception_3b/1x1"
  param {
    lr_mult: 1
    decay_mult: 1
  }
  param {
    lr_mult: 2
    decay_mult: 0
  }
  convolution_param {
    num_output: 128
    kernel_size: 1
    weight_filler {
      type: "xavier"
      std: 0.03
    }
    bias_filler {
      type: "constant"
      value: 0.2
    }
  }
}
layer {
  name: "inception_3b/relu_1x1"
  type: "ReLU"
  bottom: "inception_3b/1x1"
  top: "inception_3b/1x1"
}
layer {
  name: "inception_3b/3x3_reduce"
  type: "Convolution"
  bottom: "inception_3a/output"
  top: "inception_3b/3x3_reduce"
  param {
    lr_mult: 1
    decay_mult: 1
  }
  param {
    lr_mult: 2
    decay_mult: 0
  }
  convolution_param {
    num_output: 128
    kernel_size: 1
    weight_filler {
      type: "xavier"
      std: 0.09
    }
    bias_filler {
      type: "constant"
      value: 0.2
    }
  }
}
layer {
  name: "inception_3b/relu_3x3_reduce"
  type: "ReLU"
  bottom: "inception_3b/3x3_reduce"
  top: "inception_3b/3x3_reduce"
}
layer {
  name: "inception_3b/3x3"
  type: "Convolution"
  bottom: "inception_3b/3x3_reduce"
  top: "inception_3b/3x3"
  param {
    lr_mult: 1
    decay_mult: 1
  }
  param {
    lr_mult: 2
    decay_mult: 0
  }
  convolution_param {
    num_output: 192
    pad: 1
    kernel_size: 3
    weight_filler {
      type: "xavier"
      std: 0.03
    }
    bias_filler {
      type: "constant"
      value: 0.2
    }
  }
}
layer {
  name: "inception_3b/relu_3x3"
  type: "ReLU"
  bottom: "inception_3b/3x3"
  top: "inception_3b/3x3"
}
layer {
  name: "inception_3b/5x5_reduce"
  type: "Convolution"
  bottom: "inception_3a/output"
  top: "inception_3b/5x5_reduce"
  param {
    lr_mult: 1
    decay_mult: 1
  }
  param {
    lr_mult: 2
    decay_mult: 0
  }
  convolution_param {
    num_output: 32
    kernel_size: 1
    weight_filler {
      type: "xavier"
      std: 0.2
    }
    bias_filler {
      type: "constant"
      value: 0.2
    }
  }
}
layer {
  name: "inception_3b/relu_5x5_reduce"
  type: "ReLU"
  bottom: "inception_3b/5x5_reduce"
  top: "inception_3b/5x5_reduce"
}
layer {
  name: "inception_3b/5x5"
  type: "Convolution"
  bottom: "inception_3b/5x5_reduce"
  top: "inception_3b/5x5"
  param {
    lr_mult: 1
    decay_mult: 1
  }
  param {
    lr_mult: 2
    decay_mult: 0
  }
  convolution_param {
    num_output: 96
    pad: 2
    kernel_size: 5
    weight_filler {
      type: "xavier"
      std: 0.03
    }
    bias_filler {
      type: "constant"
      value: 0.2
    }
  }
}
layer {
  name: "inception_3b/relu_5x5"
  type: "ReLU"
  bottom: "inception_3b/5x5"
  top: "inception_3b/5x5"
}
layer {
  name: "inception_3b/pool"
  type: "Pooling"
  bottom: "inception_3a/output"
  top: "inception_3b/pool"
  pooling_param {
    pool: MAX
    kernel_size: 3
    stride: 1
    pad: 1
  }
}
layer {
  name: "inception_3b/pool_proj"
  type: "Convolution"
  bottom: "inception_3b/pool"
  top: "inception_3b/pool_proj"
  param {
    lr_mult: 1
    decay_mult: 1
  }
  param {
    lr_mult: 2
    decay_mult: 0
  }
  convolution_param {
    num_output: 64
    kernel_size: 1
    weight_filler {
      type: "xavier"
      std: 0.1
    }
    bias_filler {
      type: "constant"
      value: 0.2
    }
  }
}
layer {
  name: "inception_3b/relu_pool_proj"
  type: "ReLU"
  bottom: "inception_3b/pool_proj"
  top: "inception_3b/pool_proj"
}
layer {
  name: "inception_3b/output"
  type: "Concat"
  bottom: "inception_3b/1x1"
  bottom: "inception_3b/3x3"
  bottom: "inception_3b/5x5"
  bottom: "inception_3b/pool_proj"
  top: "inception_3b/output"
}
layer {
  name: "pool3/3x3_s2"
  type: "Pooling"
  bottom: "inception_3b/output"
  top: "pool3/3x3_s2"
  pooling_param {
    pool: MAX
    kernel_size: 3
    stride: 2
  }
}
layer {
  name: "inception_4a/1x1"
  type: "Convolution"
  bottom: "pool3/3x3_s2"
  top: "inception_4a/1x1"
  param {
    lr_mult: 1
    decay_mult: 1
  }
  param {
    lr_mult: 2
    decay_mult: 0
  }
  convolution_param {
    num_output: 192
    kernel_size: 1
    weight_filler {
      type: "xavier"
      std: 0.03
    }
    bias_filler {
      type: "constant"
      value: 0.2
    }
  }
}
layer {
  name: "inception_4a/relu_1x1"
  type: "ReLU"
  bottom: "inception_4a/1x1"
  top: "inception_4a/1x1"
}
layer {
  name: "inception_4a/3x3_reduce"
  type: "Convolution"
  bottom: "pool3/3x3_s2"
  top: "inception_4a/3x3_reduce"
  param {
    lr_mult: 1
    decay_mult: 1
  }
  param {
    lr_mult: 2
    decay_mult: 0
  }
  convolution_param {
    num_output: 96
    kernel_size: 1
    weight_filler {
      type: "xavier"
      std: 0.09
    }
    bias_filler {
      type: "constant"
      value: 0.2
    }
  }
}
layer {
  name: "inception_4a/relu_3x3_reduce"
  type: "ReLU"
  bottom: "inception_4a/3x3_reduce"
  top: "inception_4a/3x3_reduce"
}
layer {
  name: "inception_4a/3x3"
  type: "Convolution"
  bottom: "inception_4a/3x3_reduce"
  top: "inception_4a/3x3"
  param {
    lr_mult: 1
    decay_mult: 1
  }
  param {
    lr_mult: 2
    decay_mult: 0
  }
  convolution_param {
    num_output: 208
    pad: 1
    kernel_size: 3
    weight_filler {
      type: "xavier"
      std: 0.03
    }
    bias_filler {
      type: "constant"
      value: 0.2
    }
  }
}
layer {
  name: "inception_4a/relu_3x3"
  type: "ReLU"
  bottom: "inception_4a/3x3"
  top: "inception_4a/3x3"
}
layer {
  name: "inception_4a/5x5_reduce"
  type: "Convolution"
  bottom: "pool3/3x3_s2"
  top: "inception_4a/5x5_reduce"
  param {
    lr_mult: 1
    decay_mult: 1
  }
  param {
    lr_mult: 2
    decay_mult: 0
  }
  convolution_param {
    num_output: 16
    kernel_size: 1
    weight_filler {
      type: "xavier"
      std: 0.2
    }
    bias_filler {
      type: "constant"
      value: 0.2
    }
  }
}
layer {
  name: "inception_4a/relu_5x5_reduce"
  type: "ReLU"
  bottom: "inception_4a/5x5_reduce"
  top: "inception_4a/5x5_reduce"
}
layer {
  name: "inception_4a/5x5"
  type: "Convolution"
  bottom: "inception_4a/5x5_reduce"
  top: "inception_4a/5x5"
  param {
    lr_mult: 1
    decay_mult: 1
  }
  param {
    lr_mult: 2
    decay_mult: 0
  }
  convolution_param {
    num_output: 48
    pad: 2
    kernel_size: 5
    weight_filler {
      type: "xavier"
      std: 0.03
    }
    bias_filler {
      type: "constant"
      value: 0.2
    }
  }
}
layer {
  name: "inception_4a/relu_5x5"
  type: "ReLU"
  bottom: "inception_4a/5x5"
  top: "inception_4a/5x5"
}
layer {
  name: "inception_4a/pool"
  type: "Pooling"
  bottom: "pool3/3x3_s2"
  top: "inception_4a/pool"
  pooling_param {
    pool: MAX
    kernel_size: 3
    stride: 1
    pad: 1
  }
}
layer {
  name: "inception_4a/pool_proj"
  type: "Convolution"
  bottom: "inception_4a/pool"
  top: "inception_4a/pool_proj"
  param {
    lr_mult: 1
    decay_mult: 1
  }
  param {
    lr_mult: 2
    decay_mult: 0
  }
  convolution_param {
    num_output: 64
    kernel_size: 1
    weight_filler {
      type: "xavier"
      std: 0.1
    }
    bias_filler {
      type: "constant"
      value: 0.2
    }
  }
}
layer {
  name: "inception_4a/relu_pool_proj"
  type: "ReLU"
  bottom: "inception_4a/pool_proj"
  top: "inception_4a/pool_proj"
}
layer {
  name: "inception_4a/output"
  type: "Concat"
  bottom: "inception_4a/1x1"
  bottom: "inception_4a/3x3"
  bottom: "inception_4a/5x5"
  bottom: "inception_4a/pool_proj"
  top: "inception_4a/output"
}
layer {
  name: "loss1/ave_pool"
  type: "Pooling"
  bottom: "inception_4a/output"
  top: "loss1/ave_pool"
  pooling_param {
    pool: AVE
    kernel_size: 5
    stride: 3
  }
}
layer {
  name: "loss1/conv"
  type: "Convolution"
  bottom: "loss1/ave_pool"
  top: "loss1/conv"
  param {
    lr_mult: 1
    decay_mult: 1
  }
  param {
    lr_mult: 2
    decay_mult: 0
  }
  convolution_param {
    num_output: 128
    kernel_size: 1
    weight_filler {
      type: "xavier"
      std: 0.08
    }
    bias_filler {
      type: "constant"
      value: 0.2
    }
  }
}
layer {
  name: "loss1/relu_conv"
  type: "ReLU"
  bottom: "loss1/conv"
  top: "loss1/conv"
}
layer {
  name: "loss1/fc"
  type: "InnerProduct"
  bottom: "loss1/conv"
  top: "loss1/fc"
  param {
    lr_mult: 1
    decay_mult: 1
  }
  param {
    lr_mult: 2
    decay_mult: 0
  }
  inner_product_param {
    num_output: 1024
    weight_filler {
      type: "xavier"
      std: 0.02
    }
    bias_filler {
      type: "constant"
      value: 0.2
    }
  }
}
layer {
  name: "loss1/relu_fc"
  type: "ReLU"
  bottom: "loss1/fc"
  top: "loss1/fc"
}
layer {
  name: "loss1/drop_fc"
  type: "Dropout"
  bottom: "loss1/fc"
  top: "loss1/fc"
  dropout_param {
    dropout_ratio: 0.7
  }
}
layer {
  name: "loss1/classifier_plantvillage"
  type: "InnerProduct"
  bottom: "loss1/fc"
  top: "loss1/classifier_plantvillage"
  param {
    lr_mult: 1
    decay_mult: 1
  }
  param {
    lr_mult: 2
    decay_mult: 0
  }
  inner_product_param {
    num_output: 38
    weight_filler {
      type: "xavier"
      std: 0.0009765625
    }
    bias_filler {
      type: "constant"
      value: 0
    }
  }
}
layer {
  name: "inception_4b/1x1"
  type: "Convolution"
  bottom: "inception_4a/output"
  top: "inception_4b/1x1"
  param {
    lr_mult: 1
    decay_mult: 1
  }
  param {
    lr_mult: 2
    decay_mult: 0
  }
  convolution_param {
    num_output: 160
    kernel_size: 1
    weight_filler {
      type: "xavier"
      std: 0.03
    }
    bias_filler {
      type: "constant"
      value: 0.2
    }
  }
}
layer {
  name: "inception_4b/relu_1x1"
  type: "ReLU"
  bottom: "inception_4b/1x1"
  top: "inception_4b/1x1"
}
layer {
  name: "inception_4b/3x3_reduce"
  type: "Convolution"
  bottom: "inception_4a/output"
  top: "inception_4b/3x3_reduce"
  param {
    lr_mult: 1
    decay_mult: 1
  }
  param {
    lr_mult: 2
    decay_mult: 0
  }
  convolution_param {
    num_output: 112
    kernel_size: 1
    weight_filler {
      type: "xavier"
      std: 0.09
    }
    bias_filler {
      type: "constant"
      value: 0.2
    }
  }
}
layer {
  name: "inception_4b/relu_3x3_reduce"
  type: "ReLU"
  bottom: "inception_4b/3x3_reduce"
  top: "inception_4b/3x3_reduce"
}
layer {
  name: "inception_4b/3x3"
  type: "Convolution"
  bottom: "inception_4b/3x3_reduce"
  top: "inception_4b/3x3"
  param {
    lr_mult: 1
    decay_mult: 1
  }
  param {
    lr_mult: 2
    decay_mult: 0
  }
  convolution_param {
    num_output: 224
    pad: 1
    kernel_size: 3
    weight_filler {
      type: "xavier"
      std: 0.03
    }
    bias_filler {
      type: "constant"
      value: 0.2
    }
  }
}
layer {
  name: "inception_4b/relu_3x3"
  type: "ReLU"
  bottom: "inception_4b/3x3"
  top: "inception_4b/3x3"
}
layer {
  name: "inception_4b/5x5_reduce"
  type: "Convolution"
  bottom: "inception_4a/output"
  top: "inception_4b/5x5_reduce"
  param {
    lr_mult: 1
    decay_mult: 1
  }
  param {
    lr_mult: 2
    decay_mult: 0
  }
  convolution_param {
    num_output: 24
    kernel_size: 1
    weight_filler {
      type: "xavier"
      std: 0.2
    }
    bias_filler {
      type: "constant"
      value: 0.2
    }
  }
}
layer {
  name: "inception_4b/relu_5x5_reduce"
  type: "ReLU"
  bottom: "inception_4b/5x5_reduce"
  top: "inception_4b/5x5_reduce"
}
layer {
  name: "inception_4b/5x5"
  type: "Convolution"
  bottom: "inception_4b/5x5_reduce"
  top: "inception_4b/5x5"
  param {
    lr_mult: 1
    decay_mult: 1
  }
  param {
    lr_mult: 2
    decay_mult: 0
  }
  convolution_param {
    num_output: 64
    pad: 2
    kernel_size: 5
    weight_filler {
      type: "xavier"
      std: 0.03
    }
    bias_filler {
      type: "constant"
      value: 0.2
    }
  }
}
layer {
  name: "inception_4b/relu_5x5"
  type: "ReLU"
  bottom: "inception_4b/5x5"
  top: "inception_4b/5x5"
}
layer {
  name: "inception_4b/pool"
  type: "Pooling"
  bottom: "inception_4a/output"
  top: "inception_4b/pool"
  pooling_param {
    pool: MAX
    kernel_size: 3
    stride: 1
    pad: 1
  }
}
layer {
  name: "inception_4b/pool_proj"
  type: "Convolution"
  bottom: "inception_4b/pool"
  top: "inception_4b/pool_proj"
  param {
    lr_mult: 1
    decay_mult: 1
  }
  param {
    lr_mult: 2
    decay_mult: 0
  }
  convolution_param {
    num_output: 64
    kernel_size: 1
    weight_filler {
      type: "xavier"
      std: 0.1
    }
    bias_filler {
      type: "constant"
      value: 0.2
    }
  }
}
layer {
  name: "inception_4b/relu_pool_proj"
  type: "ReLU"
  bottom: "inception_4b/pool_proj"
  top: "inception_4b/pool_proj"
}
layer {
  name: "inception_4b/output"
  type: "Concat"
  bottom: "inception_4b/1x1"
  bottom: "inception_4b/3x3"
  bottom: "inception_4b/5x5"
  bottom: "inception_4b/pool_proj"
  top: "inception_4b/output"
}
layer {
  name: "inception_4c/1x1"
  type: "Convolution"
  bottom: "inception_4b/output"
  top: "inception_4c/1x1"
  param {
    lr_mult: 1
    decay_mult: 1
  }
  param {
    lr_mult: 2
    decay_mult: 0
  }
  convolution_param {
    num_output: 128
    kernel_size: 1
    weight_filler {
      type: "xavier"
      std: 0.03
    }
    bias_filler {
      type: "constant"
      value: 0.2
    }
  }
}
layer {
  name: "inception_4c/relu_1x1"
  type: "ReLU"
  bottom: "inception_4c/1x1"
  top: "inception_4c/1x1"
}
layer {
  name: "inception_4c/3x3_reduce"
  type: "Convolution"
  bottom: "inception_4b/output"
  top: "inception_4c/3x3_reduce"
  param {
    lr_mult: 1
    decay_mult: 1
  }
  param {
    lr_mult: 2
    decay_mult: 0
  }
  convolution_param {
    num_output: 128
    kernel_size: 1
    weight_filler {
      type: "xavier"
      std: 0.09
    }
    bias_filler {
      type: "constant"
      value: 0.2
    }
  }
}
layer {
  name: "inception_4c/relu_3x3_reduce"
  type: "ReLU"
  bottom: "inception_4c/3x3_reduce"
  top: "inception_4c/3x3_reduce"
}
layer {
  name: "inception_4c/3x3"
  type: "Convolution"
  bottom: "inception_4c/3x3_reduce"
  top: "inception_4c/3x3"
  param {
    lr_mult: 1
    decay_mult: 1
  }
  param {
    lr_mult: 2
    decay_mult: 0
  }
  convolution_param {
    num_output: 256
    pad: 1
    kernel_size: 3
    weight_filler {
      type: "xavier"
      std: 0.03
    }
    bias_filler {
      type: "constant"
      value: 0.2
    }
  }
}
layer {
  name: "inception_4c/relu_3x3"
  type: "ReLU"
  bottom: "inception_4c/3x3"
  top: "inception_4c/3x3"
}
layer {
  name: "inception_4c/5x5_reduce"
  type: "Convolution"
  bottom: "inception_4b/output"
  top: "inception_4c/5x5_reduce"
  param {
    lr_mult: 1
    decay_mult: 1
  }
  param {
    lr_mult: 2
    decay_mult: 0
  }
  convolution_param {
    num_output: 24
    kernel_size: 1
    weight_filler {
      type: "xavier"
      std: 0.2
    }
    bias_filler {
      type: "constant"
      value: 0.2
    }
  }
}
layer {
  name: "inception_4c/relu_5x5_reduce"
  type: "ReLU"
  bottom: "inception_4c/5x5_reduce"
  top: "inception_4c/5x5_reduce"
}
layer {
  name: "inception_4c/5x5"
  type: "Convolution"
  bottom: "inception_4c/5x5_reduce"
  top: "inception_4c/5x5"
  param {
    lr_mult: 1
    decay_mult: 1
  }
  param {
    lr_mult: 2
    decay_mult: 0
  }
  convolution_param {
    num_output: 64
    pad: 2
    kernel_size: 5
    weight_filler {
      type: "xavier"
      std: 0.03
    }
    bias_filler {
      type: "constant"
      value: 0.2
    }
  }
}
layer {
  name: "inception_4c/relu_5x5"
  type: "ReLU"
  bottom: "inception_4c/5x5"
  top: "inception_4c/5x5"
}
layer {
  name: "inception_4c/pool"
  type: "Pooling"
  bottom: "inception_4b/output"
  top: "inception_4c/pool"
  pooling_param {
    pool: MAX
    kernel_size: 3
    stride: 1
    pad: 1
  }
}
layer {
  name: "inception_4c/pool_proj"
  type: "Convolution"
  bottom: "inception_4c/pool"
  top: "inception_4c/pool_proj"
  param {
    lr_mult: 1
    decay_mult: 1
  }
  param {
    lr_mult: 2
    decay_mult: 0
  }
  convolution_param {
    num_output: 64
    kernel_size: 1
    weight_filler {
      type: "xavier"
      std: 0.1
    }
    bias_filler {
      type: "constant"
      value: 0.2
    }
  }
}
layer {
  name: "inception_4c/relu_pool_proj"
  type: "ReLU"
  bottom: "inception_4c/pool_proj"
  top: "inception_4c/pool_proj"
}
layer {
  name: "inception_4c/output"
  type: "Concat"
  bottom: "inception_4c/1x1"
  bottom: "inception_4c/3x3"
  bottom: "inception_4c/5x5"
  bottom: "inception_4c/pool_proj"
  top: "inception_4c/output"
}
layer {
  name: "inception_4d/1x1"
  type: "Convolution"
  bottom: "inception_4c/output"
  top: "inception_4d/1x1"
  param {
    lr_mult: 1
    decay_mult: 1
  }
  param {
    lr_mult: 2
    decay_mult: 0
  }
  convolution_param {
    num_output: 112
    kernel_size: 1
    weight_filler {
      type: "xavier"
      std: 0.03
    }
    bias_filler {
      type: "constant"
      value: 0.2
    }
  }
}
layer {
  name: "inception_4d/relu_1x1"
  type: "ReLU"
  bottom: "inception_4d/1x1"
  top: "inception_4d/1x1"
}
layer {
  name: "inception_4d/3x3_reduce"
  type: "Convolution"
  bottom: "inception_4c/output"
  top: "inception_4d/3x3_reduce"
  param {
    lr_mult: 1
    decay_mult: 1
  }
  param {
    lr_mult: 2
    decay_mult: 0
  }
  convolution_param {
    num_output: 144
    kernel_size: 1
    weight_filler {
      type: "xavier"
      std: 0.09
    }
    bias_filler {
      type: "constant"
      value: 0.2
    }
  }
}
layer {
  name: "inception_4d/relu_3x3_reduce"
  type: "ReLU"
  bottom: "inception_4d/3x3_reduce"
  top: "inception_4d/3x3_reduce"
}
layer {
  name: "inception_4d/3x3"
  type: "Convolution"
  bottom: "inception_4d/3x3_reduce"
  top: "inception_4d/3x3"
  param {
    lr_mult: 1
    decay_mult: 1
  }
  param {
    lr_mult: 2
    decay_mult: 0
  }
  convolution_param {
    num_output: 288
    pad: 1
    kernel_size: 3
    weight_filler {
      type: "xavier"
      std: 0.03
    }
    bias_filler {
      type: "constant"
      value: 0.2
    }
  }
}
layer {
  name: "inception_4d/relu_3x3"
  type: "ReLU"
  bottom: "inception_4d/3x3"
  top: "inception_4d/3x3"
}
layer {
  name: "inception_4d/5x5_reduce"
  type: "Convolution"
  bottom: "inception_4c/output"
  top: "inception_4d/5x5_reduce"
  param {
    lr_mult: 1
    decay_mult: 1
  }
  param {
    lr_mult: 2
    decay_mult: 0
  }
  convolution_param {
    num_output: 32
    kernel_size: 1
    weight_filler {
      type: "xavier"
      std: 0.2
    }
    bias_filler {
      type: "constant"
      value: 0.2
    }
  }
}
layer {
  name: "inception_4d/relu_5x5_reduce"
  type: "ReLU"
  bottom: "inception_4d/5x5_reduce"
  top: "inception_4d/5x5_reduce"
}
layer {
  name: "inception_4d/5x5"
  type: "Convolution"
  bottom: "inception_4d/5x5_reduce"
  top: "inception_4d/5x5"
  param {
    lr_mult: 1
    decay_mult: 1
  }
  param {
    lr_mult: 2
    decay_mult: 0
  }
  convolution_param {
    num_output: 64
    pad: 2
    kernel_size: 5
    weight_filler {
      type: "xavier"
      std: 0.03
    }
    bias_filler {
      type: "constant"
      value: 0.2
    }
  }
}
layer {
  name: "inception_4d/relu_5x5"
  type: "ReLU"
  bottom: "inception_4d/5x5"
  top: "inception_4d/5x5"
}
layer {
  name: "inception_4d/pool"
  type: "Pooling"
  bottom: "inception_4c/output"
  top: "inception_4d/pool"
  pooling_param {
    pool: MAX
    kernel_size: 3
    stride: 1
    pad: 1
  }
}
layer {
  name: "inception_4d/pool_proj"
  type: "Convolution"
  bottom: "inception_4d/pool"
  top: "inception_4d/pool_proj"
  param {
    lr_mult: 1
    decay_mult: 1
  }
  param {
    lr_mult: 2
    decay_mult: 0
  }
  convolution_param {
    num_output: 64
    kernel_size: 1
    weight_filler {
      type: "xavier"
      std: 0.1
    }
    bias_filler {
      type: "constant"
      value: 0.2
    }
  }
}
layer {
  name: "inception_4d/relu_pool_proj"
  type: "ReLU"
  bottom: "inception_4d/pool_proj"
  top: "inception_4d/pool_proj"
}
layer {
  name: "inception_4d/output"
  type: "Concat"
  bottom: "inception_4d/1x1"
  bottom: "inception_4d/3x3"
  bottom: "inception_4d/5x5"
  bottom: "inception_4d/pool_proj"
  top: "inception_4d/output"
}
layer {
  name: "loss2/ave_pool"
  type: "Pooling"
  bottom: "inception_4d/output"
  top: "loss2/ave_pool"
  pooling_param {
    pool: AVE
    kernel_size: 5
    stride: 3
  }
}
layer {
  name: "loss2/conv"
  type: "Convolution"
  bottom: "loss2/ave_pool"
  top: "loss2/conv"
  param {
    lr_mult: 1
    decay_mult: 1
  }
  param {
    lr_mult: 2
    decay_mult: 0
  }
  convolution_param {
    num_output: 128
    kernel_size: 1
    weight_filler {
      type: "xavier"
      std: 0.08
    }
    bias_filler {
      type: "constant"
      value: 0.2
    }
  }
}
layer {
  name: "loss2/relu_conv"
  type: "ReLU"
  bottom: "loss2/conv"
  top: "loss2/conv"
}
layer {
  name: "loss2/fc"
  type: "InnerProduct"
  bottom: "loss2/conv"
  top: "loss2/fc"
  param {
    lr_mult: 1
    decay_mult: 1
  }
  param {
    lr_mult: 2
    decay_mult: 0
  }
  inner_product_param {
    num_output: 1024
    weight_filler {
      type: "xavier"
      std: 0.02
    }
    bias_filler {
      type: "constant"
      value: 0.2
    }
  }
}
layer {
  name: "loss2/relu_fc"
  type: "ReLU"
  bottom: "loss2/fc"
  top: "loss2/fc"
}
layer {
  name: "loss2/drop_fc"
  type: "Dropout"
  bottom: "loss2/fc"
  top: "loss2/fc"
  dropout_param {
    dropout_ratio: 0.7
  }
}
layer {
  name: "loss2/classifier_plantvillage"
  type: "InnerProduct"
  bottom: "loss2/fc"
  top: "loss2/classifier_plantvillage"
  param {
    lr_mult: 1
    decay_mult: 1
  }
  param {
    lr_mult: 2
    decay_mult: 0
  }
  inner_product_param {
    num_output: 38
    weight_filler {
      type: "xavier"
      std: 0.0009765625
    }
    bias_filler {
      type: "constant"
      value: 0
    }
  }
}
layer {
  name: "inception_4e/1x1"
  type: "Convolution"
  bottom: "inception_4d/output"
  top: "inception_4e/1x1"
  param {
    lr_mult: 1
    decay_mult: 1
  }
  param {
    lr_mult: 2
    decay_mult: 0
  }
  convolution_param {
    num_output: 256
    kernel_size: 1
    weight_filler {
      type: "xavier"
      std: 0.03
    }
    bias_filler {
      type: "constant"
      value: 0.2
    }
  }
}
layer {
  name: "inception_4e/relu_1x1"
  type: "ReLU"
  bottom: "inception_4e/1x1"
  top: "inception_4e/1x1"
}
layer {
  name: "inception_4e/3x3_reduce"
  type: "Convolution"
  bottom: "inception_4d/output"
  top: "inception_4e/3x3_reduce"
  param {
    lr_mult: 1
    decay_mult: 1
  }
  param {
    lr_mult: 2
    decay_mult: 0
  }
  convolution_param {
    num_output: 160
    kernel_size: 1
    weight_filler {
      type: "xavier"
      std: 0.09
    }
    bias_filler {
      type: "constant"
      value: 0.2
    }
  }
}
layer {
  name: "inception_4e/relu_3x3_reduce"
  type: "ReLU"
  bottom: "inception_4e/3x3_reduce"
  top: "inception_4e/3x3_reduce"
}
layer {
  name: "inception_4e/3x3"
  type: "Convolution"
  bottom: "inception_4e/3x3_reduce"
  top: "inception_4e/3x3"
  param {
    lr_mult: 1
    decay_mult: 1
  }
  param {
    lr_mult: 2
    decay_mult: 0
  }
  convolution_param {
    num_output: 320
    pad: 1
    kernel_size: 3
    weight_filler {
      type: "xavier"
      std: 0.03
    }
    bias_filler {
      type: "constant"
      value: 0.2
    }
  }
}
layer {
  name: "inception_4e/relu_3x3"
  type: "ReLU"
  bottom: "inception_4e/3x3"
  top: "inception_4e/3x3"
}
layer {
  name: "inception_4e/5x5_reduce"
  type: "Convolution"
  bottom: "inception_4d/output"
  top: "inception_4e/5x5_reduce"
  param {
    lr_mult: 1
    decay_mult: 1
  }
  param {
    lr_mult: 2
    decay_mult: 0
  }
  convolution_param {
    num_output: 32
    kernel_size: 1
    weight_filler {
      type: "xavier"
      std: 0.2
    }
    bias_filler {
      type: "constant"
      value: 0.2
    }
  }
}
layer {
  name: "inception_4e/relu_5x5_reduce"
  type: "ReLU"
  bottom: "inception_4e/5x5_reduce"
  top: "inception_4e/5x5_reduce"
}
layer {
  name: "inception_4e/5x5"
  type: "Convolution"
  bottom: "inception_4e/5x5_reduce"
  top: "inception_4e/
I0403 13:45:35.403494   317 layer_factory.hpp:77] Creating layer data
I0403 13:45:35.404125   317 net.cpp:91] Creating Layer data
I0403 13:45:35.404155   317 net.cpp:399] data -> data
I0403 13:45:35.404213   317 net.cpp:399] data -> label
I0403 13:45:35.404253   317 data_transformer.cpp:25] Loading mean file from: /home/mohanty/data/final_dataset/lmdb/grayscale-20-80/mean.binaryproto
I0403 13:45:35.406803   320 db_lmdb.cpp:38] Opened lmdb /home/mohanty/data/final_dataset/lmdb/grayscale-20-80/test_db
I0403 13:45:35.417618   317 data_layer.cpp:41] output data size: 24,3,224,224
I0403 13:45:35.445689   317 net.cpp:141] Setting up data
I0403 13:45:35.445746   317 net.cpp:148] Top shape: 24 3 224 224 (3612672)
I0403 13:45:35.445768   317 net.cpp:148] Top shape: 24 (24)
I0403 13:45:35.445785   317 net.cpp:156] Memory required for data: 14450784
I0403 13:45:35.445812   317 layer_factory.hpp:77] Creating layer label_data_1_split
I0403 13:45:35.445838   317 net.cpp:91] Creating Layer label_data_1_split
I0403 13:45:35.445857   317 net.cpp:425] label_data_1_split <- label
I0403 13:45:35.445888   317 net.cpp:399] label_data_1_split -> label_data_1_split_0
I0403 13:45:35.445915   317 net.cpp:399] label_data_1_split -> label_data_1_split_1
I0403 13:45:35.445936   317 net.cpp:399] label_data_1_split -> label_data_1_split_2
I0403 13:45:35.445958   317 net.cpp:399] label_data_1_split -> label_data_1_split_3
I0403 13:45:35.445978   317 net.cpp:399] label_data_1_split -> label_data_1_split_4
I0403 13:45:35.445998   317 net.cpp:399] label_data_1_split -> label_data_1_split_5
I0403 13:45:35.446018   317 net.cpp:399] label_data_1_split -> label_data_1_split_6
I0403 13:45:35.446039   317 net.cpp:399] label_data_1_split -> label_data_1_split_7
I0403 13:45:35.446059   317 net.cpp:399] label_data_1_split -> label_data_1_split_8
I0403 13:45:35.446080   317 net.cpp:399] label_data_1_split -> label_data_1_split_9
I0403 13:45:35.446197   317 net.cpp:141] Setting up label_data_1_split
I0403 13:45:35.446236   317 net.cpp:148] Top shape: 24 (24)
I0403 13:45:35.446257   317 net.cpp:148] Top shape: 24 (24)
I0403 13:45:35.446275   317 net.cpp:148] Top shape: 24 (24)
I0403 13:45:35.446292   317 net.cpp:148] Top shape: 24 (24)
I0403 13:45:35.446310   317 net.cpp:148] Top shape: 24 (24)
I0403 13:45:35.446326   317 net.cpp:148] Top shape: 24 (24)
I0403 13:45:35.446343   317 net.cpp:148] Top shape: 24 (24)
I0403 13:45:35.446360   317 net.cpp:148] Top shape: 24 (24)
I0403 13:45:35.446377   317 net.cpp:148] Top shape: 24 (24)
I0403 13:45:35.446395   317 net.cpp:148] Top shape: 24 (24)
I0403 13:45:35.446439   317 net.cpp:156] Memory required for data: 14451744
I0403 13:45:35.446457   317 layer_factory.hpp:77] Creating layer conv1/7x7_s2
I0403 13:45:35.446491   317 net.cpp:91] Creating Layer conv1/7x7_s2
I0403 13:45:35.446511   317 net.cpp:425] conv1/7x7_s2 <- data
I0403 13:45:35.446530   317 net.cpp:399] conv1/7x7_s2 -> conv1/7x7_s2
I0403 13:45:35.590610   317 net.cpp:141] Setting up conv1/7x7_s2
I0403 13:45:35.590703   317 net.cpp:148] Top shape: 24 64 112 112 (19267584)
I0403 13:45:35.590721   317 net.cpp:156] Memory required for data: 91522080
I0403 13:45:35.590755   317 layer_factory.hpp:77] Creating layer conv1/relu_7x7
I0403 13:45:35.590785   317 net.cpp:91] Creating Layer conv1/relu_7x7
I0403 13:45:35.590803   317 net.cpp:425] conv1/relu_7x7 <- conv1/7x7_s2
I0403 13:45:35.590824   317 net.cpp:386] conv1/relu_7x7 -> conv1/7x7_s2 (in-place)
I0403 13:45:35.591094   317 net.cpp:141] Setting up conv1/relu_7x7
I0403 13:45:35.591123   317 net.cpp:148] Top shape: 24 64 112 112 (19267584)
I0403 13:45:35.591140   317 net.cpp:156] Memory required for data: 168592416
I0403 13:45:35.591157   317 layer_factory.hpp:77] Creating layer pool1/3x3_s2
I0403 13:45:35.591183   317 net.cpp:91] Creating Layer pool1/3x3_s2
I0403 13:45:35.591202   317 net.cpp:425] pool1/3x3_s2 <- conv1/7x7_s2
I0403 13:45:35.591228   317 net.cpp:399] pool1/3x3_s2 -> pool1/3x3_s2
I0403 13:45:35.591315   317 net.cpp:141] Setting up pool1/3x3_s2
I0403 13:45:35.591341   317 net.cpp:148] Top shape: 24 64 56 56 (4816896)
I0403 13:45:35.591356   317 net.cpp:156] Memory required for data: 187860000
I0403 13:45:35.591372   317 layer_factory.hpp:77] Creating layer pool1/norm1
I0403 13:45:35.591430   317 net.cpp:91] Creating Layer pool1/norm1
I0403 13:45:35.591451   317 net.cpp:425] pool1/norm1 <- pool1/3x3_s2
I0403 13:45:35.591471   317 net.cpp:399] pool1/norm1 -> pool1/norm1
I0403 13:45:35.591771   317 net.cpp:141] Setting up pool1/norm1
I0403 13:45:35.591800   317 net.cpp:148] Top shape: 24 64 56 56 (4816896)
I0403 13:45:35.591816   317 net.cpp:156] Memory required for data: 207127584
I0403 13:45:35.591833   317 layer_factory.hpp:77] Creating layer conv2/3x3_reduce
I0403 13:45:35.591861   317 net.cpp:91] Creating Layer conv2/3x3_reduce
I0403 13:45:35.591878   317 net.cpp:425] conv2/3x3_reduce <- pool1/norm1
I0403 13:45:35.591898   317 net.cpp:399] conv2/3x3_reduce -> conv2/3x3_reduce
I0403 13:45:35.593353   317 net.cpp:141] Setting up conv2/3x3_reduce
I0403 13:45:35.593387   317 net.cpp:148] Top shape: 24 64 56 56 (4816896)
I0403 13:45:35.593405   317 net.cpp:156] Memory required for data: 226395168
I0403 13:45:35.593428   317 layer_factory.hpp:77] Creating layer conv2/relu_3x3_reduce
I0403 13:45:35.593449   317 net.cpp:91] Creating Layer conv2/relu_3x3_reduce
I0403 13:45:35.593466   317 net.cpp:425] conv2/relu_3x3_reduce <- conv2/3x3_reduce
I0403 13:45:35.593485   317 net.cpp:386] conv2/relu_3x3_reduce -> conv2/3x3_reduce (in-place)
I0403 13:45:35.593770   317 net.cpp:141] Setting up conv2/relu_3x3_reduce
I0403 13:45:35.593802   317 net.cpp:148] Top shape: 24 64 56 56 (4816896)
I0403 13:45:35.593819   317 net.cpp:156] Memory required for data: 245662752
I0403 13:45:35.593837   317 layer_factory.hpp:77] Creating layer conv2/3x3
I0403 13:45:35.593863   317 net.cpp:91] Creating Layer conv2/3x3
I0403 13:45:35.593881   317 net.cpp:425] conv2/3x3 <- conv2/3x3_reduce
I0403 13:45:35.593904   317 net.cpp:399] conv2/3x3 -> conv2/3x3
I0403 13:45:35.596382   317 net.cpp:141] Setting up conv2/3x3
I0403 13:45:35.596417   317 net.cpp:148] Top shape: 24 192 56 56 (14450688)
I0403 13:45:35.596437   317 net.cpp:156] Memory required for data: 303465504
I0403 13:45:35.596460   317 layer_factory.hpp:77] Creating layer conv2/relu_3x3
I0403 13:45:35.596482   317 net.cpp:91] Creating Layer conv2/relu_3x3
I0403 13:45:35.596498   317 net.cpp:425] conv2/relu_3x3 <- conv2/3x3
I0403 13:45:35.596518   317 net.cpp:386] conv2/relu_3x3 -> conv2/3x3 (in-place)
I0403 13:45:35.596703   317 net.cpp:141] Setting up conv2/relu_3x3
I0403 13:45:35.596729   317 net.cpp:148] Top shape: 24 192 56 56 (14450688)
I0403 13:45:35.596776   317 net.cpp:156] Memory required for data: 361268256
I0403 13:45:35.596794   317 layer_factory.hpp:77] Creating layer conv2/norm2
I0403 13:45:35.596817   317 net.cpp:91] Creating Layer conv2/norm2
I0403 13:45:35.596835   317 net.cpp:425] conv2/norm2 <- conv2/3x3
I0403 13:45:35.596855   317 net.cpp:399] conv2/norm2 -> conv2/norm2
I0403 13:45:35.597167   317 net.cpp:141] Setting up conv2/norm2
I0403 13:45:35.597195   317 net.cpp:148] Top shape: 24 192 56 56 (14450688)
I0403 13:45:35.597216   317 net.cpp:156] Memory required for data: 419071008
I0403 13:45:35.597234   317 layer_factory.hpp:77] Creating layer pool2/3x3_s2
I0403 13:45:35.597256   317 net.cpp:91] Creating Layer pool2/3x3_s2
I0403 13:45:35.597275   317 net.cpp:425] pool2/3x3_s2 <- conv2/norm2
I0403 13:45:35.597295   317 net.cpp:399] pool2/3x3_s2 -> pool2/3x3_s2
I0403 13:45:35.597352   317 net.cpp:141] Setting up pool2/3x3_s2
I0403 13:45:35.597378   317 net.cpp:148] Top shape: 24 192 28 28 (3612672)
I0403 13:45:35.597393   317 net.cpp:156] Memory required for data: 433521696
I0403 13:45:35.597409   317 layer_factory.hpp:77] Creating layer pool2/3x3_s2_pool2/3x3_s2_0_split
I0403 13:45:35.597429   317 net.cpp:91] Creating Layer pool2/3x3_s2_pool2/3x3_s2_0_split
I0403 13:45:35.597445   317 net.cpp:425] pool2/3x3_s2_pool2/3x3_s2_0_split <- pool2/3x3_s2
I0403 13:45:35.597466   317 net.cpp:399] pool2/3x3_s2_pool2/3x3_s2_0_split -> pool2/3x3_s2_pool2/3x3_s2_0_split_0
I0403 13:45:35.597489   317 net.cpp:399] pool2/3x3_s2_pool2/3x3_s2_0_split -> pool2/3x3_s2_pool2/3x3_s2_0_split_1
I0403 13:45:35.597511   317 net.cpp:399] pool2/3x3_s2_pool2/3x3_s2_0_split -> pool2/3x3_s2_pool2/3x3_s2_0_split_2
I0403 13:45:35.597532   317 net.cpp:399] pool2/3x3_s2_pool2/3x3_s2_0_split -> pool2/3x3_s2_pool2/3x3_s2_0_split_3
I0403 13:45:35.597607   317 net.cpp:141] Setting up pool2/3x3_s2_pool2/3x3_s2_0_split
I0403 13:45:35.597635   317 net.cpp:148] Top shape: 24 192 28 28 (3612672)
I0403 13:45:35.597653   317 net.cpp:148] Top shape: 24 192 28 28 (3612672)
I0403 13:45:35.597671   317 net.cpp:148] Top shape: 24 192 28 28 (3612672)
I0403 13:45:35.597687   317 net.cpp:148] Top shape: 24 192 28 28 (3612672)
I0403 13:45:35.597702   317 net.cpp:156] Memory required for data: 491324448
I0403 13:45:35.597718   317 layer_factory.hpp:77] Creating layer inception_3a/1x1
I0403 13:45:35.597741   317 net.cpp:91] Creating Layer inception_3a/1x1
I0403 13:45:35.597760   317 net.cpp:425] inception_3a/1x1 <- pool2/3x3_s2_pool2/3x3_s2_0_split_0
I0403 13:45:35.597780   317 net.cpp:399] inception_3a/1x1 -> inception_3a/1x1
I0403 13:45:35.599375   317 net.cpp:141] Setting up inception_3a/1x1
I0403 13:45:35.599406   317 net.cpp:148] Top shape: 24 64 28 28 (1204224)
I0403 13:45:35.599423   317 net.cpp:156] Memory required for data: 496141344
I0403 13:45:35.599444   317 layer_factory.hpp:77] Creating layer inception_3a/relu_1x1
I0403 13:45:35.599467   317 net.cpp:91] Creating Layer inception_3a/relu_1x1
I0403 13:45:35.599485   317 net.cpp:425] inception_3a/relu_1x1 <- inception_3a/1x1
I0403 13:45:35.599504   317 net.cpp:386] inception_3a/relu_1x1 -> inception_3a/1x1 (in-place)
I0403 13:45:35.599684   317 net.cpp:141] Setting up inception_3a/relu_1x1
I0403 13:45:35.599711   317 net.cpp:148] Top shape: 24 64 28 28 (1204224)
I0403 13:45:35.599727   317 net.cpp:156] Memory required for data: 500958240
I0403 13:45:35.599743   317 layer_factory.hpp:77] Creating layer inception_3a/3x3_reduce
I0403 13:45:35.599767   317 net.cpp:91] Creating Layer inception_3a/3x3_reduce
I0403 13:45:35.599786   317 net.cpp:425] inception_3a/3x3_reduce <- pool2/3x3_s2_pool2/3x3_s2_0_split_1
I0403 13:45:35.599808   317 net.cpp:399] inception_3a/3x3_reduce -> inception_3a/3x3_reduce
I0403 13:45:35.601579   317 net.cpp:141] Setting up inception_3a/3x3_reduce
I0403 13:45:35.601614   317 net.cpp:148] Top shape: 24 96 28 28 (1806336)
I0403 13:45:35.601631   317 net.cpp:156] Memory required for data: 508183584
I0403 13:45:35.601655   317 layer_factory.hpp:77] Creating layer inception_3a/relu_3x3_reduce
I0403 13:45:35.601693   317 net.cpp:91] Creating Layer inception_3a/relu_3x3_reduce
I0403 13:45:35.601711   317 net.cpp:425] inception_3a/relu_3x3_reduce <- inception_3a/3x3_reduce
I0403 13:45:35.601732   317 net.cpp:386] inception_3a/relu_3x3_reduce -> inception_3a/3x3_reduce (in-place)
I0403 13:45:35.601925   317 net.cpp:141] Setting up inception_3a/relu_3x3_reduce
I0403 13:45:35.601953   317 net.cpp:148] Top shape: 24 96 28 28 (1806336)
I0403 13:45:35.601969   317 net.cpp:156] Memory required for data: 515408928
I0403 13:45:35.601984   317 layer_factory.hpp:77] Creating layer inception_3a/3x3
I0403 13:45:35.602008   317 net.cpp:91] Creating Layer inception_3a/3x3
I0403 13:45:35.602026   317 net.cpp:425] inception_3a/3x3 <- inception_3a/3x3_reduce
I0403 13:45:35.602051   317 net.cpp:399] inception_3a/3x3 -> inception_3a/3x3
I0403 13:45:35.603817   317 net.cpp:141] Setting up inception_3a/3x3
I0403 13:45:35.603852   317 net.cpp:148] Top shape: 24 128 28 28 (2408448)
I0403 13:45:35.603873   317 net.cpp:156] Memory required for data: 525042720
I0403 13:45:35.603893   317 layer_factory.hpp:77] Creating layer inception_3a/relu_3x3
I0403 13:45:35.603914   317 net.cpp:91] Creating Layer inception_3a/relu_3x3
I0403 13:45:35.603930   317 net.cpp:425] inception_3a/relu_3x3 <- inception_3a/3x3
I0403 13:45:35.603951   317 net.cpp:386] inception_3a/relu_3x3 -> inception_3a/3x3 (in-place)
I0403 13:45:35.604243   317 net.cpp:141] Setting up inception_3a/relu_3x3
I0403 13:45:35.604272   317 net.cpp:148] Top shape: 24 128 28 28 (2408448)
I0403 13:45:35.604290   317 net.cpp:156] Memory required for data: 534676512
I0403 13:45:35.604305   317 layer_factory.hpp:77] Creating layer inception_3a/5x5_reduce
I0403 13:45:35.604331   317 net.cpp:91] Creating Layer inception_3a/5x5_reduce
I0403 13:45:35.604348   317 net.cpp:425] inception_3a/5x5_reduce <- pool2/3x3_s2_pool2/3x3_s2_0_split_2
I0403 13:45:35.604370   317 net.cpp:399] inception_3a/5x5_reduce -> inception_3a/5x5_reduce
I0403 13:45:35.605387   317 net.cpp:141] Setting up inception_3a/5x5_reduce
I0403 13:45:35.605418   317 net.cpp:148] Top shape: 24 16 28 28 (301056)
I0403 13:45:35.605437   317 net.cpp:156] Memory required for data: 535880736
I0403 13:45:35.605458   317 layer_factory.hpp:77] Creating layer inception_3a/relu_5x5_reduce
I0403 13:45:35.605476   317 net.cpp:91] Creating Layer inception_3a/relu_5x5_reduce
I0403 13:45:35.605494   317 net.cpp:425] inception_3a/relu_5x5_reduce <- inception_3a/5x5_reduce
I0403 13:45:35.605515   317 net.cpp:386] inception_3a/relu_5x5_reduce -> inception_3a/5x5_reduce (in-place)
I0403 13:45:35.605837   317 net.cpp:141] Setting up inception_3a/relu_5x5_reduce
I0403 13:45:35.605876   317 net.cpp:148] Top shape: 24 16 28 28 (301056)
I0403 13:45:35.605892   317 net.cpp:156] Memory required for data: 537084960
I0403 13:45:35.605908   317 layer_factory.hpp:77] Creating layer inception_3a/5x5
I0403 13:45:35.605932   317 net.cpp:91] Creating Layer inception_3a/5x5
I0403 13:45:35.605950   317 net.cpp:425] inception_3a/5x5 <- inception_3a/5x5_reduce
I0403 13:45:35.605973   317 net.cpp:399] inception_3a/5x5 -> inception_3a/5x5
I0403 13:45:35.606997   317 net.cpp:141] Setting up inception_3a/5x5
I0403 13:45:35.607028   317 net.cpp:148] Top shape: 24 32 28 28 (602112)
I0403 13:45:35.607045   317 net.cpp:156] Memory required for data: 539493408
I0403 13:45:35.607064   317 layer_factory.hpp:77] Creating layer inception_3a/relu_5x5
I0403 13:45:35.607084   317 net.cpp:91] Creating Layer inception_3a/relu_5x5
I0403 13:45:35.607100   317 net.cpp:425] inception_3a/relu_5x5 <- inception_3a/5x5
I0403 13:45:35.607121   317 net.cpp:386] inception_3a/relu_5x5 -> inception_3a/5x5 (in-place)
I0403 13:45:35.607321   317 net.cpp:141] Setting up inception_3a/relu_5x5
I0403 13:45:35.607347   317 net.cpp:148] Top shape: 24 32 28 28 (602112)
I0403 13:45:35.607363   317 net.cpp:156] Memory required for data: 541901856
I0403 13:45:35.607379   317 layer_factory.hpp:77] Creating layer inception_3a/pool
I0403 13:45:35.607399   317 net.cpp:91] Creating Layer inception_3a/pool
I0403 13:45:35.607430   317 net.cpp:425] inception_3a/pool <- pool2/3x3_s2_pool2/3x3_s2_0_split_3
I0403 13:45:35.607455   317 net.cpp:399] inception_3a/pool -> inception_3a/pool
I0403 13:45:35.607534   317 net.cpp:141] Setting up inception_3a/pool
I0403 13:45:35.607558   317 net.cpp:148] Top shape: 24 192 28 28 (3612672)
I0403 13:45:35.607573   317 net.cpp:156] Memory required for data: 556352544
I0403 13:45:35.607589   317 layer_factory.hpp:77] Creating layer inception_3a/pool_proj
I0403 13:45:35.607615   317 net.cpp:91] Creating Layer inception_3a/pool_proj
I0403 13:45:35.607633   317 net.cpp:425] inception_3a/pool_proj <- inception_3a/pool
I0403 13:45:35.607653   317 net.cpp:399] inception_3a/pool_proj -> inception_3a/pool_proj
I0403 13:45:35.608633   317 net.cpp:141] Setting up inception_3a/pool_proj
I0403 13:45:35.608661   317 net.cpp:148] Top shape: 24 32 28 28 (602112)
I0403 13:45:35.608677   317 net.cpp:156] Memory required for data: 558760992
I0403 13:45:35.608702   317 layer_factory.hpp:77] Creating layer inception_3a/relu_pool_proj
I0403 13:45:35.608722   317 net.cpp:91] Creating Layer inception_3a/relu_pool_proj
I0403 13:45:35.608739   317 net.cpp:425] inception_3a/relu_pool_proj <- inception_3a/pool_proj
I0403 13:45:35.608760   317 net.cpp:386] inception_3a/relu_pool_proj -> inception_3a/pool_proj (in-place)
I0403 13:45:35.609061   317 net.cpp:141] Setting up inception_3a/relu_pool_proj
I0403 13:45:35.609092   317 net.cpp:148] Top shape: 24 32 28 28 (602112)
I0403 13:45:35.609120   317 net.cpp:156] Memory required for data: 561169440
I0403 13:45:35.609136   317 layer_factory.hpp:77] Creating layer inception_3a/output
I0403 13:45:35.609155   317 net.cpp:91] Creating Layer inception_3a/output
I0403 13:45:35.609171   317 net.cpp:425] inception_3a/output <- inception_3a/1x1
I0403 13:45:35.609189   317 net.cpp:425] inception_3a/output <- inception_3a/3x3
I0403 13:45:35.609206   317 net.cpp:425] inception_3a/output <- inception_3a/5x5
I0403 13:45:35.609228   317 net.cpp:425] inception_3a/output <- inception_3a/pool_proj
I0403 13:45:35.609249   317 net.cpp:399] inception_3a/output -> inception_3a/output
I0403 13:45:35.609297   317 net.cpp:141] Setting up inception_3a/output
I0403 13:45:35.609320   317 net.cpp:148] Top shape: 24 256 28 28 (4816896)
I0403 13:45:35.609336   317 net.cpp:156] Memory required for data: 580437024
I0403 13:45:35.609352   317 layer_factory.hpp:77] Creating layer inception_3a/output_inception_3a/output_0_split
I0403 13:45:35.609372   317 net.cpp:91] Creating Layer inception_3a/output_inception_3a/output_0_split
I0403 13:45:35.609390   317 net.cpp:425] inception_3a/output_inception_3a/output_0_split <- inception_3a/output
I0403 13:45:35.609410   317 net.cpp:399] inception_3a/output_inception_3a/output_0_split -> inception_3a/output_inception_3a/output_0_split_0
I0403 13:45:35.609431   317 net.cpp:399] inception_3a/output_inception_3a/output_0_split -> inception_3a/output_inception_3a/output_0_split_1
I0403 13:45:35.609457   317 net.cpp:399] inception_3a/output_inception_3a/output_0_split -> inception_3a/output_inception_3a/output_0_split_2
I0403 13:45:35.609479   317 net.cpp:399] inception_3a/output_inception_3a/output_0_split -> inception_3a/output_inception_3a/output_0_split_3
I0403 13:45:35.609554   317 net.cpp:141] Setting up inception_3a/output_inception_3a/output_0_split
I0403 13:45:35.609580   317 net.cpp:148] Top shape: 24 256 28 28 (4816896)
I0403 13:45:35.609598   317 net.cpp:148] Top shape: 24 256 28 28 (4816896)
I0403 13:45:35.609616   317 net.cpp:148] Top shape: 24 256 28 28 (4816896)
I0403 13:45:35.609632   317 net.cpp:148] Top shape: 24 256 28 28 (4816896)
I0403 13:45:35.609647   317 net.cpp:156] Memory required for data: 657507360
I0403 13:45:35.609661   317 layer_factory.hpp:77] Creating layer inception_3b/1x1
I0403 13:45:35.609685   317 net.cpp:91] Creating Layer inception_3b/1x1
I0403 13:45:35.609704   317 net.cpp:425] inception_3b/1x1 <- inception_3a/output_inception_3a/output_0_split_0
I0403 13:45:35.609724   317 net.cpp:399] inception_3b/1x1 -> inception_3b/1x1
I0403 13:45:35.610915   317 net.cpp:141] Setting up inception_3b/1x1
I0403 13:45:35.610956   317 net.cpp:148] Top shape: 24 128 28 28 (2408448)
I0403 13:45:35.610973   317 net.cpp:156] Memory required for data: 667141152
I0403 13:45:35.610992   317 layer_factory.hpp:77] Creating layer inception_3b/relu_1x1
I0403 13:45:35.611014   317 net.cpp:91] Creating Layer inception_3b/relu_1x1
I0403 13:45:35.611033   317 net.cpp:425] inception_3b/relu_1x1 <- inception_3b/1x1
I0403 13:45:35.611050   317 net.cpp:386] inception_3b/relu_1x1 -> inception_3b/1x1 (in-place)
I0403 13:45:35.611232   317 net.cpp:141] Setting up inception_3b/relu_1x1
I0403 13:45:35.611260   317 net.cpp:148] Top shape: 24 128 28 28 (2408448)
I0403 13:45:35.611277   317 net.cpp:156] Memory required for data: 676774944
I0403 13:45:35.611292   317 layer_factory.hpp:77] Creating layer inception_3b/3x3_reduce
I0403 13:45:35.611316   317 net.cpp:91] Creating Layer inception_3b/3x3_reduce
I0403 13:45:35.611335   317 net.cpp:425] inception_3b/3x3_reduce <- inception_3a/output_inception_3a/output_0_split_1
I0403 13:45:35.611354   317 net.cpp:399] inception_3b/3x3_reduce -> inception_3b/3x3_reduce
I0403 13:45:35.612560   317 net.cpp:141] Setting up inception_3b/3x3_reduce
I0403 13:45:35.612587   317 net.cpp:148] Top shape: 24 128 28 28 (2408448)
I0403 13:45:35.612604   317 net.cpp:156] Memory required for data: 686408736
I0403 13:45:35.612623   317 layer_factory.hpp:77] Creating layer inception_3b/relu_3x3_reduce
I0403 13:45:35.612645   317 net.cpp:91] Creating Layer inception_3b/relu_3x3_reduce
I0403 13:45:35.612663   317 net.cpp:425] inception_3b/relu_3x3_reduce <- inception_3b/3x3_reduce
I0403 13:45:35.612680   317 net.cpp:386] inception_3b/relu_3x3_reduce -> inception_3b/3x3_reduce (in-place)
I0403 13:45:35.612859   317 net.cpp:141] Setting up inception_3b/relu_3x3_reduce
I0403 13:45:35.612886   317 net.cpp:148] Top shape: 24 128 28 28 (2408448)
I0403 13:45:35.612902   317 net.cpp:156] Memory required for data: 696042528
I0403 13:45:35.612923   317 layer_factory.hpp:77] Creating layer inception_3b/3x3
I0403 13:45:35.612948   317 net.cpp:91] Creating Layer inception_3b/3x3
I0403 13:45:35.612967   317 net.cpp:425] inception_3b/3x3 <- inception_3b/3x3_reduce
I0403 13:45:35.612989   317 net.cpp:399] inception_3b/3x3 -> inception_3b/3x3
I0403 13:45:35.616034   317 net.cpp:141] Setting up inception_3b/3x3
I0403 13:45:35.616065   317 net.cpp:148] Top shape: 24 192 28 28 (3612672)
I0403 13:45:35.616080   317 net.cpp:156] Memory required for data: 710493216
I0403 13:45:35.616101   317 layer_factory.hpp:77] Creating layer inception_3b/relu_3x3
I0403 13:45:35.616119   317 net.cpp:91] Creating Layer inception_3b/relu_3x3
I0403 13:45:35.616135   317 net.cpp:425] inception_3b/relu_3x3 <- inception_3b/3x3
I0403 13:45:35.616155   317 net.cpp:386] inception_3b/relu_3x3 -> inception_3b/3x3 (in-place)
I0403 13:45:35.616435   317 net.cpp:141] Setting up inception_3b/relu_3x3
I0403 13:45:35.616462   317 net.cpp:148] Top shape: 24 192 28 28 (3612672)
I0403 13:45:35.616479   317 net.cpp:156] Memory required for data: 724943904
I0403 13:45:35.616495   317 layer_factory.hpp:77] Creating layer inception_3b/5x5_reduce
I0403 13:45:35.616520   317 net.cpp:91] Creating Layer inception_3b/5x5_reduce
I0403 13:45:35.616539   317 net.cpp:425] inception_3b/5x5_reduce <- inception_3a/output_inception_3a/output_0_split_2
I0403 13:45:35.616559   317 net.cpp:399] inception_3b/5x5_reduce -> inception_3b/5x5_reduce
I0403 13:45:35.617584   317 net.cpp:141] Setting up inception_3b/5x5_reduce
I0403 13:45:35.617614   317 net.cpp:148] Top shape: 24 32 28 28 (602112)
I0403 13:45:35.617630   317 net.cpp:156] Memory required for data: 727352352
I0403 13:45:35.617648   317 layer_factory.hpp:77] Creating layer inception_3b/relu_5x5_reduce
I0403 13:45:35.617667   317 net.cpp:91] Creating Layer inception_3b/relu_5x5_reduce
I0403 13:45:35.617683   317 net.cpp:425] inception_3b/relu_5x5_reduce <- inception_3b/5x5_reduce
I0403 13:45:35.617703   317 net.cpp:386] inception_3b/relu_5x5_reduce -> inception_3b/5x5_reduce (in-place)
I0403 13:45:35.617889   317 net.cpp:141] Setting up inception_3b/relu_5x5_reduce
I0403 13:45:35.617914   317 net.cpp:148] Top shape: 24 32 28 28 (602112)
I0403 13:45:35.617929   317 net.cpp:156] Memory required for data: 729760800
I0403 13:45:35.617944   317 layer_factory.hpp:77] Creating layer inception_3b/5x5
I0403 13:45:35.617966   317 net.cpp:91] Creating Layer inception_3b/5x5
I0403 13:45:35.617985   317 net.cpp:425] inception_3b/5x5 <- inception_3b/5x5_reduce
I0403 13:45:35.618005   317 net.cpp:399] inception_3b/5x5 -> inception_3b/5x5
I0403 13:45:35.619998   317 net.cpp:141] Setting up inception_3b/5x5
I0403 13:45:35.620028   317 net.cpp:148] Top shape: 24 96 28 28 (1806336)
I0403 13:45:35.620044   317 net.cpp:156] Memory required for data: 736986144
I0403 13:45:35.620064   317 layer_factory.hpp:77] Creating layer inception_3b/relu_5x5
I0403 13:45:35.620086   317 net.cpp:91] Creating Layer inception_3b/relu_5x5
I0403 13:45:35.620103   317 net.cpp:425] inception_3b/relu_5x5 <- inception_3b/5x5
I0403 13:45:35.620121   317 net.cpp:386] inception_3b/relu_5x5 -> inception_3b/5x5 (in-place)
I0403 13:45:35.620337   317 net.cpp:141] Setting up inception_3b/relu_5x5
I0403 13:45:35.620362   317 net.cpp:148] Top shape: 24 96 28 28 (1806336)
I0403 13:45:35.620378   317 net.cpp:156] Memory required for data: 744211488
I0403 13:45:35.620393   317 layer_factory.hpp:77] Creating layer inception_3b/pool
I0403 13:45:35.620411   317 net.cpp:91] Creating Layer inception_3b/pool
I0403 13:45:35.620427   317 net.cpp:425] inception_3b/pool <- inception_3a/output_inception_3a/output_0_split_3
I0403 13:45:35.620446   317 net.cpp:399] inception_3b/pool -> inception_3b/pool
I0403 13:45:35.620502   317 net.cpp:141] Setting up inception_3b/pool
I0403 13:45:35.620527   317 net.cpp:148] Top shape: 24 256 28 28 (4816896)
I0403 13:45:35.620540   317 net.cpp:156] Memory required for data: 763479072
I0403 13:45:35.620555   317 layer_factory.hpp:77] Creating layer inception_3b/pool_proj
I0403 13:45:35.620579   317 net.cpp:91] Creating Layer inception_3b/pool_proj
I0403 13:45:35.620597   317 net.cpp:425] inception_3b/pool_proj <- inception_3b/pool
I0403 13:45:35.620616   317 net.cpp:399] inception_3b/pool_proj -> inception_3b/pool_proj
I0403 13:45:35.621675   317 net.cpp:141] Setting up inception_3b/pool_proj
I0403 13:45:35.621703   317 net.cpp:148] Top shape: 24 64 28 28 (1204224)
I0403 13:45:35.621719   317 net.cpp:156] Memory required for data: 768295968
I0403 13:45:35.621738   317 layer_factory.hpp:77] Creating layer inception_3b/relu_pool_proj
I0403 13:45:35.621757   317 net.cpp:91] Creating Layer inception_3b/relu_pool_proj
I0403 13:45:35.621774   317 net.cpp:425] inception_3b/relu_pool_proj <- inception_3b/pool_proj
I0403 13:45:35.621795   317 net.cpp:386] inception_3b/relu_pool_proj -> inception_3b/pool_proj (in-place)
I0403 13:45:35.622202   317 net.cpp:141] Setting up inception_3b/relu_pool_proj
I0403 13:45:35.622243   317 net.cpp:148] Top shape: 24 64 28 28 (1204224)
I0403 13:45:35.622259   317 net.cpp:156] Memory required for data: 773112864
I0403 13:45:35.622275   317 layer_factory.hpp:77] Creating layer inception_3b/output
I0403 13:45:35.622293   317 net.cpp:91] Creating Layer inception_3b/output
I0403 13:45:35.622309   317 net.cpp:425] inception_3b/output <- inception_3b/1x1
I0403 13:45:35.622326   317 net.cpp:425] inception_3b/output <- inception_3b/3x3
I0403 13:45:35.622342   317 net.cpp:425] inception_3b/output <- inception_3b/5x5
I0403 13:45:35.622357   317 net.cpp:425] inception_3b/output <- inception_3b/pool_proj
I0403 13:45:35.622377   317 net.cpp:399] inception_3b/output -> inception_3b/output
I0403 13:45:35.622421   317 net.cpp:141] Setting up inception_3b/output
I0403 13:45:35.622447   317 net.cpp:148] Top shape: 24 480 28 28 (9031680)
I0403 13:45:35.622463   317 net.cpp:156] Memory required for data: 809239584
I0403 13:45:35.622478   317 layer_factory.hpp:77] Creating layer pool3/3x3_s2
I0403 13:45:35.622496   317 net.cpp:91] Creating Layer pool3/3x3_s2
I0403 13:45:35.622521   317 net.cpp:425] pool3/3x3_s2 <- inception_3b/output
I0403 13:45:35.622556   317 net.cpp:399] pool3/3x3_s2 -> pool3/3x3_s2
I0403 13:45:35.622616   317 net.cpp:141] Setting up pool3/3x3_s2
I0403 13:45:35.622638   317 net.cpp:148] Top shape: 24 480 14 14 (2257920)
I0403 13:45:35.622654   317 net.cpp:156] Memory required for data: 818271264
I0403 13:45:35.622669   317 layer_factory.hpp:77] Creating layer pool3/3x3_s2_pool3/3x3_s2_0_split
I0403 13:45:35.622691   317 net.cpp:91] Creating Layer pool3/3x3_s2_pool3/3x3_s2_0_split
I0403 13:45:35.622709   317 net.cpp:425] pool3/3x3_s2_pool3/3x3_s2_0_split <- pool3/3x3_s2
I0403 13:45:35.622725   317 net.cpp:399] pool3/3x3_s2_pool3/3x3_s2_0_split -> pool3/3x3_s2_pool3/3x3_s2_0_split_0
I0403 13:45:35.622745   317 net.cpp:399] pool3/3x3_s2_pool3/3x3_s2_0_split -> pool3/3x3_s2_pool3/3x3_s2_0_split_1
I0403 13:45:35.622766   317 net.cpp:399] pool3/3x3_s2_pool3/3x3_s2_0_split -> pool3/3x3_s2_pool3/3x3_s2_0_split_2
I0403 13:45:35.622786   317 net.cpp:399] pool3/3x3_s2_pool3/3x3_s2_0_split -> pool3/3x3_s2_pool3/3x3_s2_0_split_3
I0403 13:45:35.622861   317 net.cpp:141] Setting up pool3/3x3_s2_pool3/3x3_s2_0_split
I0403 13:45:35.622884   317 net.cpp:148] Top shape: 24 480 14 14 (2257920)
I0403 13:45:35.622901   317 net.cpp:148] Top shape: 24 480 14 14 (2257920)
I0403 13:45:35.622918   317 net.cpp:148] Top shape: 24 480 14 14 (2257920)
I0403 13:45:35.622936   317 net.cpp:148] Top shape: 24 480 14 14 (2257920)
I0403 13:45:35.622951   317 net.cpp:156] Memory required for data: 854397984
I0403 13:45:35.622966   317 layer_factory.hpp:77] Creating layer inception_4a/1x1
I0403 13:45:35.622987   317 net.cpp:91] Creating Layer inception_4a/1x1
I0403 13:45:35.623005   317 net.cpp:425] inception_4a/1x1 <- pool3/3x3_s2_pool3/3x3_s2_0_split_0
I0403 13:45:35.623026   317 net.cpp:399] inception_4a/1x1 -> inception_4a/1x1
I0403 13:45:35.624678   317 net.cpp:141] Setting up inception_4a/1x1
I0403 13:45:35.624707   317 net.cpp:148] Top shape: 24 192 14 14 (903168)
I0403 13:45:35.624723   317 net.cpp:156] Memory required for data: 858010656
I0403 13:45:35.624742   317 layer_factory.hpp:77] Creating layer inception_4a/relu_1x1
I0403 13:45:35.624764   317 net.cpp:91] Creating Layer inception_4a/relu_1x1
I0403 13:45:35.624794   317 net.cpp:425] inception_4a/relu_1x1 <- inception_4a/1x1
I0403 13:45:35.624814   317 net.cpp:386] inception_4a/relu_1x1 -> inception_4a/1x1 (in-place)
I0403 13:45:35.625000   317 net.cpp:141] Setting up inception_4a/relu_1x1
I0403 13:45:35.625028   317 net.cpp:148] Top shape: 24 192 14 14 (903168)
I0403 13:45:35.625046   317 net.cpp:156] Memory required for data: 861623328
I0403 13:45:35.625062   317 layer_factory.hpp:77] Creating layer inception_4a/3x3_reduce
I0403 13:45:35.625084   317 net.cpp:91] Creating Layer inception_4a/3x3_reduce
I0403 13:45:35.625113   317 net.cpp:425] inception_4a/3x3_reduce <- pool3/3x3_s2_pool3/3x3_s2_0_split_1
I0403 13:45:35.625135   317 net.cpp:399] inception_4a/3x3_reduce -> inception_4a/3x3_reduce
I0403 13:45:35.626452   317 net.cpp:141] Setting up inception_4a/3x3_reduce
I0403 13:45:35.626482   317 net.cpp:148] Top shape: 24 96 14 14 (451584)
I0403 13:45:35.626499   317 net.cpp:156] Memory required for data: 863429664
I0403 13:45:35.626528   317 layer_factory.hpp:77] Creating layer inception_4a/relu_3x3_reduce
I0403 13:45:35.626548   317 net.cpp:91] Creating Layer inception_4a/relu_3x3_reduce
I0403 13:45:35.626565   317 net.cpp:425] inception_4a/relu_3x3_reduce <- inception_4a/3x3_reduce
I0403 13:45:35.626586   317 net.cpp:386] inception_4a/relu_3x3_reduce -> inception_4a/3x3_reduce (in-place)
I0403 13:45:35.626781   317 net.cpp:141] Setting up inception_4a/relu_3x3_reduce
I0403 13:45:35.626806   317 net.cpp:148] Top shape: 24 96 14 14 (451584)
I0403 13:45:35.626822   317 net.cpp:156] Memory required for data: 865236000
I0403 13:45:35.626837   317 layer_factory.hpp:77] Creating layer inception_4a/3x3
I0403 13:45:35.626862   317 net.cpp:91] Creating Layer inception_4a/3x3
I0403 13:45:35.626879   317 net.cpp:425] inception_4a/3x3 <- inception_4a/3x3_reduce
I0403 13:45:35.626901   317 net.cpp:399] inception_4a/3x3 -> inception_4a/3x3
I0403 13:45:35.629672   317 net.cpp:141] Setting up inception_4a/3x3
I0403 13:45:35.629700   317 net.cpp:148] Top shape: 24 208 14 14 (978432)
I0403 13:45:35.629717   317 net.cpp:156] Memory required for data: 869149728
I0403 13:45:35.629736   317 layer_factory.hpp:77] Creating layer inception_4a/relu_3x3
I0403 13:45:35.629770   317 net.cpp:91] Creating Layer inception_4a/relu_3x3
I0403 13:45:35.629791   317 net.cpp:425] inception_4a/relu_3x3 <- inception_4a/3x3
I0403 13:45:35.629809   317 net.cpp:386] inception_4a/relu_3x3 -> inception_4a/3x3 (in-place)
I0403 13:45:35.630112   317 net.cpp:141] Setting up inception_4a/relu_3x3
I0403 13:45:35.630139   317 net.cpp:148] Top shape: 24 208 14 14 (978432)
I0403 13:45:35.630154   317 net.cpp:156] Memory required for data: 873063456
I0403 13:45:35.630170   317 layer_factory.hpp:77] Creating layer inception_4a/5x5_reduce
I0403 13:45:35.630198   317 net.cpp:91] Creating Layer inception_4a/5x5_reduce
I0403 13:45:35.630221   317 net.cpp:425] inception_4a/5x5_reduce <- pool3/3x3_s2_pool3/3x3_s2_0_split_2
I0403 13:45:35.630242   317 net.cpp:399] inception_4a/5x5_reduce -> inception_4a/5x5_reduce
I0403 13:45:35.631299   317 net.cpp:141] Setting up inception_4a/5x5_reduce
I0403 13:45:35.631330   317 net.cpp:148] Top shape: 24 16 14 14 (75264)
I0403 13:45:35.631348   317 net.cpp:156] Memory required for data: 873364512
I0403 13:45:35.631368   317 layer_factory.hpp:77] Creating layer inception_4a/relu_5x5_reduce
I0403 13:45:35.631388   317 net.cpp:91] Creating Layer inception_4a/relu_5x5_reduce
I0403 13:45:35.631407   317 net.cpp:425] inception_4a/relu_5x5_reduce <- inception_4a/5x5_reduce
I0403 13:45:35.631428   317 net.cpp:386] inception_4a/relu_5x5_reduce -> inception_4a/5x5_reduce (in-place)
I0403 13:45:35.631633   317 net.cpp:141] Setting up inception_4a/relu_5x5_reduce
I0403 13:45:35.631659   317 net.cpp:148] Top shape: 24 16 14 14 (75264)
I0403 13:45:35.631675   317 net.cpp:156] Memory required for data: 873665568
I0403 13:45:35.631690   317 layer_factory.hpp:77] Creating layer inception_4a/5x5
I0403 13:45:35.631713   317 net.cpp:91] Creating Layer inception_4a/5x5
I0403 13:45:35.631732   317 net.cpp:425] inception_4a/5x5 <- inception_4a/5x5_reduce
I0403 13:45:35.631754   317 net.cpp:399] inception_4a/5x5 -> inception_4a/5x5
I0403 13:45:35.632879   317 net.cpp:141] Setting up inception_4a/5x5
I0403 13:45:35.632907   317 net.cpp:148] Top shape: 24 48 14 14 (225792)
I0403 13:45:35.632925   317 net.cpp:156] Memory required for data: 874568736
I0403 13:45:35.632944   317 layer_factory.hpp:77] Creating layer inception_4a/relu_5x5
I0403 13:45:35.632963   317 net.cpp:91] Creating Layer inception_4a/relu_5x5
I0403 13:45:35.632984   317 net.cpp:425] inception_4a/relu_5x5 <- inception_4a/5x5
I0403 13:45:35.633004   317 net.cpp:386] inception_4a/relu_5x5 -> inception_4a/5x5 (in-place)
I0403 13:45:35.633200   317 net.cpp:141] Setting up inception_4a/relu_5x5
I0403 13:45:35.633236   317 net.cpp:148] Top shape: 24 48 14 14 (225792)
I0403 13:45:35.633252   317 net.cpp:156] Memory required for data: 875471904
I0403 13:45:35.633268   317 layer_factory.hpp:77] Creating layer inception_4a/pool
I0403 13:45:35.633290   317 net.cpp:91] Creating Layer inception_4a/pool
I0403 13:45:35.633307   317 net.cpp:425] inception_4a/pool <- pool3/3x3_s2_pool3/3x3_s2_0_split_3
I0403 13:45:35.633327   317 net.cpp:399] inception_4a/pool -> inception_4a/pool
I0403 13:45:35.633391   317 net.cpp:141] Setting up inception_4a/pool
I0403 13:45:35.633416   317 net.cpp:148] Top shape: 24 480 14 14 (2257920)
I0403 13:45:35.633433   317 net.cpp:156] Memory required for data: 884503584
I0403 13:45:35.633450   317 layer_factory.hpp:77] Creating layer inception_4a/pool_proj
I0403 13:45:35.633471   317 net.cpp:91] Creating Layer inception_4a/pool_proj
I0403 13:45:35.633489   317 net.cpp:425] inception_4a/pool_proj <- inception_4a/pool
I0403 13:45:35.633512   317 net.cpp:399] inception_4a/pool_proj -> inception_4a/pool_proj
I0403 13:45:35.634727   317 net.cpp:141] Setting up inception_4a/pool_proj
I0403 13:45:35.634755   317 net.cpp:148] Top shape: 24 64 14 14 (301056)
I0403 13:45:35.634788   317 net.cpp:156] Memory required for data: 885707808
I0403 13:45:35.634809   317 layer_factory.hpp:77] Creating layer inception_4a/relu_pool_proj
I0403 13:45:35.634831   317 net.cpp:91] Creating Layer inception_4a/relu_pool_proj
I0403 13:45:35.634850   317 net.cpp:425] inception_4a/relu_pool_proj <- inception_4a/pool_proj
I0403 13:45:35.634868   317 net.cpp:386] inception_4a/relu_pool_proj -> inception_4a/pool_proj (in-place)
I0403 13:45:35.635166   317 net.cpp:141] Setting up inception_4a/relu_pool_proj
I0403 13:45:35.635193   317 net.cpp:148] Top shape: 24 64 14 14 (301056)
I0403 13:45:35.635212   317 net.cpp:156] Memory required for data: 886912032
I0403 13:45:35.635229   317 layer_factory.hpp:77] Creating layer inception_4a/output
I0403 13:45:35.635247   317 net.cpp:91] Creating Layer inception_4a/output
I0403 13:45:35.635264   317 net.cpp:425] inception_4a/output <- inception_4a/1x1
I0403 13:45:35.635282   317 net.cpp:425] inception_4a/output <- inception_4a/3x3
I0403 13:45:35.635303   317 net.cpp:425] inception_4a/output <- inception_4a/5x5
I0403 13:45:35.635319   317 net.cpp:425] inception_4a/output <- inception_4a/pool_proj
I0403 13:45:35.635336   317 net.cpp:399] inception_4a/output -> inception_4a/output
I0403 13:45:35.635381   317 net.cpp:141] Setting up inception_4a/output
I0403 13:45:35.635407   317 net.cpp:148] Top shape: 24 512 14 14 (2408448)
I0403 13:45:35.635423   317 net.cpp:156] Memory required for data: 896545824
I0403 13:45:35.635440   317 layer_factory.hpp:77] Creating layer inception_4a/output_inception_4a/output_0_split
I0403 13:45:35.635459   317 net.cpp:91] Creating Layer inception_4a/output_inception_4a/output_0_split
I0403 13:45:35.635475   317 net.cpp:425] inception_4a/output_inception_4a/output_0_split <- inception_4a/output
I0403 13:45:35.635495   317 net.cpp:399] inception_4a/output_inception_4a/output_0_split -> inception_4a/output_inception_4a/output_0_split_0
I0403 13:45:35.635517   317 net.cpp:399] inception_4a/output_inception_4a/output_0_split -> inception_4a/output_inception_4a/output_0_split_1
I0403 13:45:35.635538   317 net.cpp:399] inception_4a/output_inception_4a/output_0_split -> inception_4a/output_inception_4a/output_0_split_2
I0403 13:45:35.635560   317 net.cpp:399] inception_4a/output_inception_4a/output_0_split -> inception_4a/output_inception_4a/output_0_split_3
I0403 13:45:35.635581   317 net.cpp:399] inception_4a/output_inception_4a/output_0_split -> inception_4a/output_inception_4a/output_0_split_4
I0403 13:45:35.635676   317 net.cpp:141] Setting up inception_4a/output_inception_4a/output_0_split
I0403 13:45:35.635700   317 net.cpp:148] Top shape: 24 512 14 14 (2408448)
I0403 13:45:35.635720   317 net.cpp:148] Top shape: 24 512 14 14 (2408448)
I0403 13:45:35.635737   317 net.cpp:148] Top shape: 24 512 14 14 (2408448)
I0403 13:45:35.635754   317 net.cpp:148] Top shape: 24 512 14 14 (2408448)
I0403 13:45:35.635771   317 net.cpp:148] Top shape: 24 512 14 14 (2408448)
I0403 13:45:35.635785   317 net.cpp:156] Memory required for data: 944714784
I0403 13:45:35.635800   317 layer_factory.hpp:77] Creating layer loss1/ave_pool
I0403 13:45:35.635819   317 net.cpp:91] Creating Layer loss1/ave_pool
I0403 13:45:35.635836   317 net.cpp:425] loss1/ave_pool <- inception_4a/output_inception_4a/output_0_split_0
I0403 13:45:35.635856   317 net.cpp:399] loss1/ave_pool -> loss1/ave_pool
I0403 13:45:35.636070   317 net.cpp:141] Setting up loss1/ave_pool
I0403 13:45:35.636096   317 net.cpp:148] Top shape: 24 512 4 4 (196608)
I0403 13:45:35.636111   317 net.cpp:156] Memory required for data: 945501216
I0403 13:45:35.636126   317 layer_factory.hpp:77] Creating layer loss1/conv
I0403 13:45:35.636149   317 net.cpp:91] Creating Layer loss1/conv
I0403 13:45:35.636168   317 net.cpp:425] loss1/conv <- loss1/ave_pool
I0403 13:45:35.636189   317 net.cpp:399] loss1/conv -> loss1/conv
I0403 13:45:35.637679   317 net.cpp:141] Setting up loss1/conv
I0403 13:45:35.637708   317 net.cpp:148] Top shape: 24 128 4 4 (49152)
I0403 13:45:35.637739   317 net.cpp:156] Memory required for data: 945697824
I0403 13:45:35.637759   317 layer_factory.hpp:77] Creating layer loss1/relu_conv
I0403 13:45:35.637781   317 net.cpp:91] Creating Layer loss1/relu_conv
I0403 13:45:35.637799   317 net.cpp:425] loss1/relu_conv <- loss1/conv
I0403 13:45:35.637816   317 net.cpp:386] loss1/relu_conv -> loss1/conv (in-place)
I0403 13:45:35.638125   317 net.cpp:141] Setting up loss1/relu_conv
I0403 13:45:35.638154   317 net.cpp:148] Top shape: 24 128 4 4 (49152)
I0403 13:45:35.638170   317 net.cpp:156] Memory required for data: 945894432
I0403 13:45:35.638200   317 layer_factory.hpp:77] Creating layer loss1/fc
I0403 13:45:35.638231   317 net.cpp:91] Creating Layer loss1/fc
I0403 13:45:35.638252   317 net.cpp:425] loss1/fc <- loss1/conv
I0403 13:45:35.638273   317 net.cpp:399] loss1/fc -> loss1/fc
I0403 13:45:35.656580   317 net.cpp:141] Setting up loss1/fc
I0403 13:45:35.656641   317 net.cpp:148] Top shape: 24 1024 (24576)
I0403 13:45:35.656656   317 net.cpp:156] Memory required for data: 945992736
I0403 13:45:35.656678   317 layer_factory.hpp:77] Creating layer loss1/relu_fc
I0403 13:45:35.656698   317 net.cpp:91] Creating Layer loss1/relu_fc
I0403 13:45:35.656716   317 net.cpp:425] loss1/relu_fc <- loss1/fc
I0403 13:45:35.656750   317 net.cpp:386] loss1/relu_fc -> loss1/fc (in-place)
I0403 13:45:35.656965   317 net.cpp:141] Setting up loss1/relu_fc
I0403 13:45:35.656992   317 net.cpp:148] Top shape: 24 1024 (24576)
I0403 13:45:35.657008   317 net.cpp:156] Memory required for data: 946091040
I0403 13:45:35.657037   317 layer_factory.hpp:77] Creating layer loss1/drop_fc
I0403 13:45:35.657066   317 net.cpp:91] Creating Layer loss1/drop_fc
I0403 13:45:35.657083   317 net.cpp:425] loss1/drop_fc <- loss1/fc
I0403 13:45:35.657101   317 net.cpp:386] loss1/drop_fc -> loss1/fc (in-place)
I0403 13:45:35.657155   317 net.cpp:141] Setting up loss1/drop_fc
I0403 13:45:35.657178   317 net.cpp:148] Top shape: 24 1024 (24576)
I0403 13:45:35.657193   317 net.cpp:156] Memory required for data: 946189344
I0403 13:45:35.657212   317 layer_factory.hpp:77] Creating layer loss1/classifier_plantvillage
I0403 13:45:35.657233   317 net.cpp:91] Creating Layer loss1/classifier_plantvillage
I0403 13:45:35.657250   317 net.cpp:425] loss1/classifier_plantvillage <- loss1/fc
I0403 13:45:35.657272   317 net.cpp:399] loss1/classifier_plantvillage -> loss1/classifier_plantvillage
I0403 13:45:35.659925   317 net.cpp:141] Setting up loss1/classifier_plantvillage
I0403 13:45:35.659955   317 net.cpp:148] Top shape: 24 38 (912)
I0403 13:45:35.659971   317 net.cpp:156] Memory required for data: 946192992
I0403 13:45:35.659991   317 layer_factory.hpp:77] Creating layer loss1/classifier_plantvillage_loss1/classifier_plantvillage_0_split
I0403 13:45:35.660014   317 net.cpp:91] Creating Layer loss1/classifier_plantvillage_loss1/classifier_plantvillage_0_split
I0403 13:45:35.660032   317 net.cpp:425] loss1/classifier_plantvillage_loss1/classifier_plantvillage_0_split <- loss1/classifier_plantvillage
I0403 13:45:35.660051   317 net.cpp:399] loss1/classifier_plantvillage_loss1/classifier_plantvillage_0_split -> loss1/classifier_plantvillage_loss1/classifier_plantvillage_0_split_0
I0403 13:45:35.660073   317 net.cpp:399] loss1/classifier_plantvillage_loss1/classifier_plantvillage_0_split -> loss1/classifier_plantvillage_loss1/classifier_plantvillage_0_split_1
I0403 13:45:35.660092   317 net.cpp:399] loss1/classifier_plantvillage_loss1/classifier_plantvillage_0_split -> loss1/classifier_plantvillage_loss1/classifier_plantvillage_0_split_2
I0403 13:45:35.660163   317 net.cpp:141] Setting up loss1/classifier_plantvillage_loss1/classifier_plantvillage_0_split
I0403 13:45:35.660187   317 net.cpp:148] Top shape: 24 38 (912)
I0403 13:45:35.660205   317 net.cpp:148] Top shape: 24 38 (912)
I0403 13:45:35.660228   317 net.cpp:148] Top shape: 24 38 (912)
I0403 13:45:35.660244   317 net.cpp:156] Memory required for data: 946203936
I0403 13:45:35.660259   317 layer_factory.hpp:77] Creating layer inception_4b/1x1
I0403 13:45:35.660285   317 net.cpp:91] Creating Layer inception_4b/1x1
I0403 13:45:35.660341   317 net.cpp:425] inception_4b/1x1 <- inception_4a/output_inception_4a/output_0_split_1
I0403 13:45:35.660362   317 net.cpp:399] inception_4b/1x1 -> inception_4b/1x1
I0403 13:45:35.662109   317 net.cpp:141] Setting up inception_4b/1x1
I0403 13:45:35.662139   317 net.cpp:148] Top shape: 24 160 14 14 (752640)
I0403 13:45:35.662156   317 net.cpp:156] Memory required for data: 949214496
I0403 13:45:35.662175   317 layer_factory.hpp:77] Creating layer inception_4b/relu_1x1
I0403 13:45:35.662197   317 net.cpp:91] Creating Layer inception_4b/relu_1x1
I0403 13:45:35.662230   317 net.cpp:425] inception_4b/relu_1x1 <- inception_4b/1x1
I0403 13:45:35.662251   317 net.cpp:386] inception_4b/relu_1x1 -> inception_4b/1x1 (in-place)
I0403 13:45:35.662441   317 net.cpp:141] Setting up inception_4b/relu_1x1
I0403 13:45:35.662467   317 net.cpp:148] Top shape: 24 160 14 14 (752640)
I0403 13:45:35.662484   317 net.cpp:156] Memory required for data: 952225056
I0403 13:45:35.662499   317 layer_factory.hpp:77] Creating layer inception_4b/3x3_reduce
I0403 13:45:35.662528   317 net.cpp:91] Creating Layer inception_4b/3x3_reduce
I0403 13:45:35.662546   317 net.cpp:425] inception_4b/3x3_reduce <- inception_4a/output_inception_4a/output_0_split_2
I0403 13:45:35.662569   317 net.cpp:399] inception_4b/3x3_reduce -> inception_4b/3x3_reduce
I0403 13:45:35.663969   317 net.cpp:141] Setting up inception_4b/3x3_reduce
I0403 13:45:35.663996   317 net.cpp:148] Top shape: 24 112 14 14 (526848)
I0403 13:45:35.664013   317 net.cpp:156] Memory required for data: 954332448
I0403 13:45:35.664032   317 layer_factory.hpp:77] Creating layer inception_4b/relu_3x3_reduce
I0403 13:45:35.664052   317 net.cpp:91] Creating Layer inception_4b/relu_3x3_reduce
I0403 13:45:35.664070   317 net.cpp:425] inception_4b/relu_3x3_reduce <- inception_4b/3x3_reduce
I0403 13:45:35.664090   317 net.cpp:386] inception_4b/relu_3x3_reduce -> inception_4b/3x3_reduce (in-place)
I0403 13:45:35.664396   317 net.cpp:141] Setting up inception_4b/relu_3x3_reduce
I0403 13:45:35.664422   317 net.cpp:148] Top shape: 24 112 14 14 (526848)
I0403 13:45:35.664438   317 net.cpp:156] Memory required for data: 956439840
I0403 13:45:35.664454   317 layer_factory.hpp:77] Creating layer inception_4b/3x3
I0403 13:45:35.664477   317 net.cpp:91] Creating Layer inception_4b/3x3
I0403 13:45:35.664496   317 net.cpp:425] inception_4b/3x3 <- inception_4b/3x3_reduce
I0403 13:45:35.664518   317 net.cpp:399] inception_4b/3x3 -> inception_4b/3x3
I0403 13:45:35.667630   317 net.cpp:141] Setting up inception_4b/3x3
I0403 13:45:35.667661   317 net.cpp:148] Top shape: 24 224 14 14 (1053696)
I0403 13:45:35.667677   317 net.cpp:156] Memory required for data: 960654624
I0403 13:45:35.667697   317 layer_factory.hpp:77] Creating layer inception_4b/relu_3x3
I0403 13:45:35.667719   317 net.cpp:91] Creating Layer inception_4b/relu_3x3
I0403 13:45:35.667737   317 net.cpp:425] inception_4b/relu_3x3 <- inception_4b/3x3
I0403 13:45:35.667755   317 net.cpp:386] inception_4b/relu_3x3 -> inception_4b/3x3 (in-place)
I0403 13:45:35.667942   317 net.cpp:141] Setting up inception_4b/relu_3x3
I0403 13:45:35.667970   317 net.cpp:148] Top shape: 24 224 14 14 (1053696)
I0403 13:45:35.667986   317 net.cpp:156] Memory required for data: 964869408
I0403 13:45:35.668002   317 layer_factory.hpp:77] Creating layer inception_4b/5x5_reduce
I0403 13:45:35.668026   317 net.cpp:91] Creating Layer inception_4b/5x5_reduce
I0403 13:45:35.668045   317 net.cpp:425] inception_4b/5x5_reduce <- inception_4a/output_inception_4a/output_0_split_3
I0403 13:45:35.668066   317 net.cpp:399] inception_4b/5x5_reduce -> inception_4b/5x5_reduce
I0403 13:45:35.669191   317 net.cpp:141] Setting up inception_4b/5x5_reduce
I0403 13:45:35.669229   317 net.cpp:148] Top shape: 24 24 14 14 (112896)
I0403 13:45:35.669247   317 net.cpp:156] Memory required for data: 965320992
I0403 13:45:35.669268   317 layer_factory.hpp:77] Creating layer inception_4b/relu_5x5_reduce
I0403 13:45:35.669287   317 net.cpp:91] Creating Layer inception_4b/relu_5x5_reduce
I0403 13:45:35.669319   317 net.cpp:425] inception_4b/relu_5x5_reduce <- inception_4b/5x5_reduce
I0403 13:45:35.669340   317 net.cpp:386] inception_4b/relu_5x5_reduce -> inception_4b/5x5_reduce (in-place)
I0403 13:45:35.669533   317 net.cpp:141] Setting up inception_4b/relu_5x5_reduce
I0403 13:45:35.669559   317 net.cpp:148] Top shape: 24 24 14 14 (112896)
I0403 13:45:35.669574   317 net.cpp:156] Memory required for data: 965772576
I0403 13:45:35.669590   317 layer_factory.hpp:77] Creating layer inception_4b/5x5
I0403 13:45:35.669615   317 net.cpp:91] Creating Layer inception_4b/5x5
I0403 13:45:35.669632   317 net.cpp:425] inception_4b/5x5 <- inception_4b/5x5_reduce
I0403 13:45:35.669656   317 net.cpp:399] inception_4b/5x5 -> inception_4b/5x5
I0403 13:45:35.670915   317 net.cpp:141] Setting up inception_4b/5x5
I0403 13:45:35.670944   317 net.cpp:148] Top shape: 24 64 14 14 (301056)
I0403 13:45:35.670960   317 net.cpp:156] Memory required for data: 966976800
I0403 13:45:35.670980   317 layer_factory.hpp:77] Creating layer inception_4b/relu_5x5
I0403 13:45:35.671001   317 net.cpp:91] Creating Layer inception_4b/relu_5x5
I0403 13:45:35.671020   317 net.cpp:425] inception_4b/relu_5x5 <- inception_4b/5x5
I0403 13:45:35.671038   317 net.cpp:386] inception_4b/relu_5x5 -> inception_4b/5x5 (in-place)
I0403 13:45:35.671339   317 net.cpp:141] Setting up inception_4b/relu_5x5
I0403 13:45:35.671365   317 net.cpp:148] Top shape: 24 64 14 14 (301056)
I0403 13:45:35.671382   317 net.cpp:156] Memory required for data: 968181024
I0403 13:45:35.671401   317 layer_factory.hpp:77] Creating layer inception_4b/pool
I0403 13:45:35.671423   317 net.cpp:91] Creating Layer inception_4b/pool
I0403 13:45:35.671442   317 net.cpp:425] inception_4b/pool <- inception_4a/output_inception_4a/output_0_split_4
I0403 13:45:35.671463   317 net.cpp:399] inception_4b/pool -> inception_4b/pool
I0403 13:45:35.671530   317 net.cpp:141] Setting up inception_4b/pool
I0403 13:45:35.671555   317 net.cpp:148] Top shape: 24 512 14 14 (2408448)
I0403 13:45:35.671571   317 net.cpp:156] Memory required for data: 977814816
I0403 13:45:35.671586   317 layer_factory.hpp:77] Creating layer inception_4b/pool_proj
I0403 13:45:35.671609   317 net.cpp:91] Creating Layer inception_4b/pool_proj
I0403 13:45:35.671629   317 net.cpp:425] inception_4b/pool_proj <- inception_4b/pool
I0403 13:45:35.671651   317 net.cpp:399] inception_4b/pool_proj -> inception_4b/pool_proj
I0403 13:45:35.672901   317 net.cpp:141] Setting up inception_4b/pool_proj
I0403 13:45:35.672933   317 net.cpp:148] Top shape: 24 64 14 14 (301056)
I0403 13:45:35.672950   317 net.cpp:156] Memory required for data: 979019040
I0403 13:45:35.672971   317 layer_factory.hpp:77] Creating layer inception_4b/relu_pool_proj
I0403 13:45:35.672991   317 net.cpp:91] Creating Layer inception_4b/relu_pool_proj
I0403 13:45:35.673007   317 net.cpp:425] inception_4b/relu_pool_proj <- inception_4b/pool_proj
I0403 13:45:35.673027   317 net.cpp:386] inception_4b/relu_pool_proj -> inception_4b/pool_proj (in-place)
I0403 13:45:35.673218   317 net.cpp:141] Setting up inception_4b/relu_pool_proj
I0403 13:45:35.673245   317 net.cpp:148] Top shape: 24 64 14 14 (301056)
I0403 13:45:35.673261   317 net.cpp:156] Memory required for data: 980223264
I0403 13:45:35.673277   317 layer_factory.hpp:77] Creating layer inception_4b/output
I0403 13:45:35.673296   317 net.cpp:91] Creating Layer inception_4b/output
I0403 13:45:35.673312   317 net.cpp:425] inception_4b/output <- inception_4b/1x1
I0403 13:45:35.673329   317 net.cpp:425] inception_4b/output <- inception_4b/3x3
I0403 13:45:35.673346   317 net.cpp:425] inception_4b/output <- inception_4b/5x5
I0403 13:45:35.673362   317 net.cpp:425] inception_4b/output <- inception_4b/pool_proj
I0403 13:45:35.673384   317 net.cpp:399] inception_4b/output -> inception_4b/output
I0403 13:45:35.673432   317 net.cpp:141] Setting up inception_4b/output
I0403 13:45:35.673459   317 net.cpp:148] Top shape: 24 512 14 14 (2408448)
I0403 13:45:35.673475   317 net.cpp:156] Memory required for data: 989857056
I0403 13:45:35.673504   317 layer_factory.hpp:77] Creating layer inception_4b/output_inception_4b/output_0_split
I0403 13:45:35.673523   317 net.cpp:91] Creating Layer inception_4b/output_inception_4b/output_0_split
I0403 13:45:35.673542   317 net.cpp:425] inception_4b/output_inception_4b/output_0_split <- inception_4b/output
I0403 13:45:35.673560   317 net.cpp:399] inception_4b/output_inception_4b/output_0_split -> inception_4b/output_inception_4b/output_0_split_0
I0403 13:45:35.673583   317 net.cpp:399] inception_4b/output_inception_4b/output_0_split -> inception_4b/output_inception_4b/output_0_split_1
I0403 13:45:35.673605   317 net.cpp:399] inception_4b/output_inception_4b/output_0_split -> inception_4b/output_inception_4b/output_0_split_2
I0403 13:45:35.673629   317 net.cpp:399] inception_4b/output_inception_4b/output_0_split -> inception_4b/output_inception_4b/output_0_split_3
I0403 13:45:35.673717   317 net.cpp:141] Setting up inception_4b/output_inception_4b/output_0_split
I0403 13:45:35.673740   317 net.cpp:148] Top shape: 24 512 14 14 (2408448)
I0403 13:45:35.673758   317 net.cpp:148] Top shape: 24 512 14 14 (2408448)
I0403 13:45:35.673774   317 net.cpp:148] Top shape: 24 512 14 14 (2408448)
I0403 13:45:35.673790   317 net.cpp:148] Top shape: 24 512 14 14 (2408448)
I0403 13:45:35.673804   317 net.cpp:156] Memory required for data: 1028392224
I0403 13:45:35.673820   317 layer_factory.hpp:77] Creating layer inception_4c/1x1
I0403 13:45:35.673845   317 net.cpp:91] Creating Layer inception_4c/1x1
I0403 13:45:35.673862   317 net.cpp:425] inception_4c/1x1 <- inception_4b/output_inception_4b/output_0_split_0
I0403 13:45:35.673882   317 net.cpp:399] inception_4c/1x1 -> inception_4c/1x1
I0403 13:45:35.675376   317 net.cpp:141] Setting up inception_4c/1x1
I0403 13:45:35.675405   317 net.cpp:148] Top shape: 24 128 14 14 (602112)
I0403 13:45:35.675421   317 net.cpp:156] Memory required for data: 1030800672
I0403 13:45:35.675441   317 layer_factory.hpp:77] Creating layer inception_4c/relu_1x1
I0403 13:45:35.675462   317 net.cpp:91] Creating Layer inception_4c/relu_1x1
I0403 13:45:35.675479   317 net.cpp:425] inception_4c/relu_1x1 <- inception_4c/1x1
I0403 13:45:35.675499   317 net.cpp:386] inception_4c/relu_1x1 -> inception_4c/1x1 (in-place)
I0403 13:45:35.675686   317 net.cpp:141] Setting up inception_4c/relu_1x1
I0403 13:45:35.675712   317 net.cpp:148] Top shape: 24 128 14 14 (602112)
I0403 13:45:35.675727   317 net.cpp:156] Memory required for data: 1033209120
I0403 13:45:35.675745   317 layer_factory.hpp:77] Creating layer inception_4c/3x3_reduce
I0403 13:45:35.675767   317 net.cpp:91] Creating Layer inception_4c/3x3_reduce
I0403 13:45:35.675786   317 net.cpp:425] inception_4c/3x3_reduce <- inception_4b/output_inception_4b/output_0_split_1
I0403 13:45:35.675808   317 net.cpp:399] inception_4c/3x3_reduce -> inception_4c/3x3_reduce
I0403 13:45:35.677899   317 net.cpp:141] Setting up inception_4c/3x3_reduce
I0403 13:45:35.677932   317 net.cpp:148] Top shape: 24 128 14 14 (602112)
I0403 13:45:35.677952   317 net.cpp:156] Memory required for data: 1035617568
I0403 13:45:35.677973   317 layer_factory.hpp:77] Creating layer inception_4c/relu_3x3_reduce
I0403 13:45:35.677991   317 net.cpp:91] Creating Layer inception_4c/relu_3x3_reduce
I0403 13:45:35.678009   317 net.cpp:425] inception_4c/relu_3x3_reduce <- inception_4c/3x3_reduce
I0403 13:45:35.678028   317 net.cpp:386] inception_4c/relu_3x3_reduce -> inception_4c/3x3_reduce (in-place)
I0403 13:45:35.678344   317 net.cpp:141] Setting up inception_4c/relu_3x3_reduce
I0403 13:45:35.678374   317 net.cpp:148] Top shape: 24 128 14 14 (602112)
I0403 13:45:35.678390   317 net.cpp:156] Memory required for data: 1038026016
I0403 13:45:35.678406   317 layer_factory.hpp:77] Creating layer inception_4c/3x3
I0403 13:45:35.678428   317 net.cpp:91] Creating Layer inception_4c/3x3
I0403 13:45:35.678447   317 net.cpp:425] inception_4c/3x3 <- inception_4c/3x3_reduce
I0403 13:45:35.678472   317 net.cpp:399] inception_4c/3x3 -> inception_4c/3x3
I0403 13:45:35.682479   317 net.cpp:141] Setting up inception_4c/3x3
I0403 13:45:35.682526   317 net.cpp:148] Top shape: 24 256 14 14 (1204224)
I0403 13:45:35.682545   317 net.cpp:156] Memory required for data: 1042842912
I0403 13:45:35.682582   317 layer_factory.hpp:77] Creating layer inception_4c/relu_3x3
I0403 13:45:35.682605   317 net.cpp:91] Creating Layer inception_4c/relu_3x3
I0403 13:45:35.682621   317 net.cpp:425] inception_4c/relu_3x3 <- inception_4c/3x3
I0403 13:45:35.682643   317 net.cpp:386] inception_4c/relu_3x3 -> inception_4c/3x3 (in-place)
I0403 13:45:35.682838   317 net.cpp:141] Setting up inception_4c/relu_3x3
I0403 13:45:35.682868   317 net.cpp:148] Top shape: 24 256 14 14 (1204224)
I0403 13:45:35.682884   317 net.cpp:156] Memory required for data: 1047659808
I0403 13:45:35.682900   317 layer_factory.hpp:77] Creating layer inception_4c/5x5_reduce
I0403 13:45:35.682925   317 net.cpp:91] Creating Layer inception_4c/5x5_reduce
I0403 13:45:35.682945   317 net.cpp:425] inception_4c/5x5_reduce <- inception_4b/output_inception_4b/output_0_split_2
I0403 13:45:35.682965   317 net.cpp:399] inception_4c/5x5_reduce -> inception_4c/5x5_reduce
I0403 13:45:35.684134   317 net.cpp:141] Setting up inception_4c/5x5_reduce
I0403 13:45:35.684165   317 net.cpp:148] Top shape: 24 24 14 14 (112896)
I0403 13:45:35.684183   317 net.cpp:156] Memory required for data: 1048111392
I0403 13:45:35.684202   317 layer_factory.hpp:77] Creating layer inception_4c/relu_5x5_reduce
I0403 13:45:35.684229   317 net.cpp:91] Creating Layer inception_4c/relu_5x5_reduce
I0403 13:45:35.684249   317 net.cpp:425] inception_4c/relu_5x5_reduce <- inception_4c/5x5_reduce
I0403 13:45:35.684268   317 net.cpp:386] inception_4c/relu_5x5_reduce -> inception_4c/5x5_reduce (in-place)
I0403 13:45:35.684468   317 net.cpp:141] Setting up inception_4c/relu_5x5_reduce
I0403 13:45:35.684494   317 net.cpp:148] Top shape: 24 24 14 14 (112896)
I0403 13:45:35.684510   317 net.cpp:156] Memory required for data: 1048562976
I0403 13:45:35.684525   317 layer_factory.hpp:77] Creating layer inception_4c/5x5
I0403 13:45:35.684551   317 net.cpp:91] Creating Layer inception_4c/5x5
I0403 13:45:35.684569   317 net.cpp:425] inception_4c/5x5 <- inception_4c/5x5_reduce
I0403 13:45:35.684592   317 net.cpp:399] inception_4c/5x5 -> inception_4c/5x5
I0403 13:45:35.685917   317 net.cpp:141] Setting up inception_4c/5x5
I0403 13:45:35.685947   317 net.cpp:148] Top shape: 24 64 14 14 (301056)
I0403 13:45:35.685963   317 net.cpp:156] Memory required for data: 1049767200
I0403 13:45:35.685983   317 layer_factory.hpp:77] Creating layer inception_4c/relu_5x5
I0403 13:45:35.686004   317 net.cpp:91] Creating Layer inception_4c/relu_5x5
I0403 13:45:35.686022   317 net.cpp:425] inception_4c/relu_5x5 <- inception_4c/5x5
I0403 13:45:35.686044   317 net.cpp:386] inception_4c/relu_5x5 -> inception_4c/5x5 (in-place)
I0403 13:45:35.686360   317 net.cpp:141] Setting up inception_4c/relu_5x5
I0403 13:45:35.686388   317 net.cpp:148] Top shape: 24 64 14 14 (301056)
I0403 13:45:35.686405   317 net.cpp:156] Memory required for data: 1050971424
I0403 13:45:35.686421   317 layer_factory.hpp:77] Creating layer inception_4c/pool
I0403 13:45:35.686441   317 net.cpp:91] Creating Layer inception_4c/pool
I0403 13:45:35.686458   317 net.cpp:425] inception_4c/pool <- inception_4b/output_inception_4b/output_0_split_3
I0403 13:45:35.686481   317 net.cpp:399] inception_4c/pool -> inception_4c/pool
I0403 13:45:35.686553   317 net.cpp:141] Setting up inception_4c/pool
I0403 13:45:35.686578   317 net.cpp:148] Top shape: 24 512 14 14 (2408448)
I0403 13:45:35.686594   317 net.cpp:156] Memory required for data: 1060605216
I0403 13:45:35.686610   317 layer_factory.hpp:77] Creating layer inception_4c/pool_proj
I0403 13:45:35.686637   317 net.cpp:91] Creating Layer inception_4c/pool_proj
I0403 13:45:35.686655   317 net.cpp:425] inception_4c/pool_proj <- inception_4c/pool
I0403 13:45:35.686676   317 net.cpp:399] inception_4c/pool_proj -> inception_4c/pool_proj
I0403 13:45:35.687988   317 net.cpp:141] Setting up inception_4c/pool_proj
I0403 13:45:35.688020   317 net.cpp:148] Top shape: 24 64 14 14 (301056)
I0403 13:45:35.688052   317 net.cpp:156] Memory required for data: 1061809440
I0403 13:45:35.688073   317 layer_factory.hpp:77] Creating layer inception_4c/relu_pool_proj
I0403 13:45:35.688093   317 net.cpp:91] Creating Layer inception_4c/relu_pool_proj
I0403 13:45:35.688112   317 net.cpp:425] inception_4c/relu_pool_proj <- inception_4c/pool_proj
I0403 13:45:35.688133   317 net.cpp:386] inception_4c/relu_pool_proj -> inception_4c/pool_proj (in-place)
I0403 13:45:35.688334   317 net.cpp:141] Setting up inception_4c/relu_pool_proj
I0403 13:45:35.688361   317 net.cpp:148] Top shape: 24 64 14 14 (301056)
I0403 13:45:35.688379   317 net.cpp:156] Memory required for data: 1063013664
I0403 13:45:35.688395   317 layer_factory.hpp:77] Creating layer inception_4c/output
I0403 13:45:35.688415   317 net.cpp:91] Creating Layer inception_4c/output
I0403 13:45:35.688431   317 net.cpp:425] inception_4c/output <- inception_4c/1x1
I0403 13:45:35.688449   317 net.cpp:425] inception_4c/output <- inception_4c/3x3
I0403 13:45:35.688467   317 net.cpp:425] inception_4c/output <- inception_4c/5x5
I0403 13:45:35.688483   317 net.cpp:425] inception_4c/output <- inception_4c/pool_proj
I0403 13:45:35.688503   317 net.cpp:399] inception_4c/output -> inception_4c/output
I0403 13:45:35.688554   317 net.cpp:141] Setting up inception_4c/output
I0403 13:45:35.688581   317 net.cpp:148] Top shape: 24 512 14 14 (2408448)
I0403 13:45:35.688597   317 net.cpp:156] Memory required for data: 1072647456
I0403 13:45:35.688614   317 layer_factory.hpp:77] Creating layer inception_4c/output_inception_4c/output_0_split
I0403 13:45:35.688632   317 net.cpp:91] Creating Layer inception_4c/output_inception_4c/output_0_split
I0403 13:45:35.688650   317 net.cpp:425] inception_4c/output_inception_4c/output_0_split <- inception_4c/output
I0403 13:45:35.688668   317 net.cpp:399] inception_4c/output_inception_4c/output_0_split -> inception_4c/output_inception_4c/output_0_split_0
I0403 13:45:35.688693   317 net.cpp:399] inception_4c/output_inception_4c/output_0_split -> inception_4c/output_inception_4c/output_0_split_1
I0403 13:45:35.688714   317 net.cpp:399] inception_4c/output_inception_4c/output_0_split -> inception_4c/output_inception_4c/output_0_split_2
I0403 13:45:35.688736   317 net.cpp:399] inception_4c/output_inception_4c/output_0_split -> inception_4c/output_inception_4c/output_0_split_3
I0403 13:45:35.688833   317 net.cpp:141] Setting up inception_4c/output_inception_4c/output_0_split
I0403 13:45:35.688858   317 net.cpp:148] Top shape: 24 512 14 14 (2408448)
I0403 13:45:35.688875   317 net.cpp:148] Top shape: 24 512 14 14 (2408448)
I0403 13:45:35.688894   317 net.cpp:148] Top shape: 24 512 14 14 (2408448)
I0403 13:45:35.688910   317 net.cpp:148] Top shape: 24 512 14 14 (2408448)
I0403 13:45:35.688925   317 net.cpp:156] Memory required for data: 1111182624
I0403 13:45:35.688941   317 layer_factory.hpp:77] Creating layer inception_4d/1x1
I0403 13:45:35.688964   317 net.cpp:91] Creating Layer inception_4d/1x1
I0403 13:45:35.688982   317 net.cpp:425] inception_4d/1x1 <- inception_4c/output_inception_4c/output_0_split_0
I0403 13:45:35.689005   317 net.cpp:399] inception_4d/1x1 -> inception_4d/1x1
I0403 13:45:35.690500   317 net.cpp:141] Setting up inception_4d/1x1
I0403 13:45:35.690529   317 net.cpp:148] Top shape: 24 112 14 14 (526848)
I0403 13:45:35.690546   317 net.cpp:156] Memory required for data: 1113290016
I0403 13:45:35.690567   317 layer_factory.hpp:77] Creating layer inception_4d/relu_1x1
I0403 13:45:35.690588   317 net.cpp:91] Creating Layer inception_4d/relu_1x1
I0403 13:45:35.690608   317 net.cpp:425] inception_4d/relu_1x1 <- inception_4d/1x1
I0403 13:45:35.690628   317 net.cpp:386] inception_4d/relu_1x1 -> inception_4d/1x1 (in-place)
I0403 13:45:35.690824   317 net.cpp:141] Setting up inception_4d/relu_1x1
I0403 13:45:35.690853   317 net.cpp:148] Top shape: 24 112 14 14 (526848)
I0403 13:45:35.690870   317 net.cpp:156] Memory required for data: 1115397408
I0403 13:45:35.690886   317 layer_factory.hpp:77] Creating layer inception_4d/3x3_reduce
I0403 13:45:35.690924   317 net.cpp:91] Creating Layer inception_4d/3x3_reduce
I0403 13:45:35.690944   317 net.cpp:425] inception_4d/3x3_reduce <- inception_4c/output_inception_4c/output_0_split_1
I0403 13:45:35.690965   317 net.cpp:399] inception_4d/3x3_reduce -> inception_4d/3x3_reduce
I0403 13:45:35.692600   317 net.cpp:141] Setting up inception_4d/3x3_reduce
I0403 13:45:35.692631   317 net.cpp:148] Top shape: 24 144 14 14 (677376)
I0403 13:45:35.692647   317 net.cpp:156] Memory required for data: 1118106912
I0403 13:45:35.692667   317 layer_factory.hpp:77] Creating layer inception_4d/relu_3x3_reduce
I0403 13:45:35.692689   317 net.cpp:91] Creating Layer inception_4d/relu_3x3_reduce
I0403 13:45:35.692708   317 net.cpp:425] inception_4d/relu_3x3_reduce <- inception_4d/3x3_reduce
I0403 13:45:35.692728   317 net.cpp:386] inception_4d/relu_3x3_reduce -> inception_4d/3x3_reduce (in-place)
I0403 13:45:35.693038   317 net.cpp:141] Setting up inception_4d/relu_3x3_reduce
I0403 13:45:35.693066   317 net.cpp:148] Top shape: 24 144 14 14 (677376)
I0403 13:45:35.693083   317 net.cpp:156] Memory required for data: 1120816416
I0403 13:45:35.693099   317 layer_factory.hpp:77] Creating layer inception_4d/3x3
I0403 13:45:35.693122   317 net.cpp:91] Creating Layer inception_4d/3x3
I0403 13:45:35.693142   317 net.cpp:425] inception_4d/3x3 <- inception_4d/3x3_reduce
I0403 13:45:35.693167   317 net.cpp:399] inception_4d/3x3 -> inception_4d/3x3
I0403 13:45:35.697674   317 net.cpp:141] Setting up inception_4d/3x3
I0403 13:45:35.697705   317 net.cpp:148] Top shape: 24 288 14 14 (1354752)
I0403 13:45:35.697721   317 net.cpp:156] Memory required for data: 1126235424
I0403 13:45:35.697741   317 layer_factory.hpp:77] Creating layer inception_4d/relu_3x3
I0403 13:45:35.697762   317 net.cpp:91] Creating Layer inception_4d/relu_3x3
I0403 13:45:35.697779   317 net.cpp:425] inception_4d/relu_3x3 <- inception_4d/3x3
I0403 13:45:35.697798   317 net.cpp:386] inception_4d/relu_3x3 -> inception_4d/3x3 (in-place)
I0403 13:45:35.697993   317 net.cpp:141] Setting up inception_4d/relu_3x3
I0403 13:45:35.698021   317 net.cpp:148] Top shape: 24 288 14 14 (1354752)
I0403 13:45:35.698037   317 net.cpp:156] Memory required for data: 1131654432
I0403 13:45:35.698052   317 layer_factory.hpp:77] Creating layer inception_4d/5x5_reduce
I0403 13:45:35.698076   317 net.cpp:91] Creating Layer inception_4d/5x5_reduce
I0403 13:45:35.698093   317 net.cpp:425] inception_4d/5x5_reduce <- inception_4c/output_inception_4c/output_0_split_2
I0403 13:45:35.698114   317 net.cpp:399] inception_4d/5x5_reduce -> inception_4d/5x5_reduce
I0403 13:45:35.699306   317 net.cpp:141] Setting up inception_4d/5x5_reduce
I0403 13:45:35.699333   317 net.cpp:148] Top shape: 24 32 14 14 (150528)
I0403 13:45:35.699349   317 net.cpp:156] Memory required for data: 1132256544
I0403 13:45:35.699369   317 layer_factory.hpp:77] Creating layer inception_4d/relu_5x5_reduce
I0403 13:45:35.699390   317 net.cpp:91] Creating Layer inception_4d/relu_5x5_reduce
I0403 13:45:35.699409   317 net.cpp:425] inception_4d/relu_5x5_reduce <- inception_4d/5x5_reduce
I0403 13:45:35.699426   317 net.cpp:386] inception_4d/relu_5x5_reduce -> inception_4d/5x5_reduce (in-place)
I0403 13:45:35.699618   317 net.cpp:141] Setting up inception_4d/relu_5x5_reduce
I0403 13:45:35.699647   317 net.cpp:148] Top shape: 24 32 14 14 (150528)
I0403 13:45:35.699663   317 net.cpp:156] Memory required for data: 1132858656
I0403 13:45:35.699679   317 layer_factory.hpp:77] Creating layer inception_4d/5x5
I0403 13:45:35.699702   317 net.cpp:91] Creating Layer inception_4d/5x5
I0403 13:45:35.699722   317 net.cpp:425] inception_4d/5x5 <- inception_4d/5x5_reduce
I0403 13:45:35.699740   317 net.cpp:399] inception_4d/5x5 -> inception_4d/5x5
I0403 13:45:35.701278   317 net.cpp:141] Setting up inception_4d/5x5
I0403 13:45:35.701306   317 net.cpp:148] Top shape: 24 64 14 14 (301056)
I0403 13:45:35.701323   317 net.cpp:156] Memory required for data: 1134062880
I0403 13:45:35.701344   317 layer_factory.hpp:77] Creating layer inception_4d/relu_5x5
I0403 13:45:35.701377   317 net.cpp:91] Creating Layer inception_4d/relu_5x5
I0403 13:45:35.701395   317 net.cpp:425] inception_4d/relu_5x5 <- inception_4d/5x5
I0403 13:45:35.701416   317 net.cpp:386] inception_4d/relu_5x5 -> inception_4d/5x5 (in-place)
I0403 13:45:35.701730   317 net.cpp:141] Setting up inception_4d/relu_5x5
I0403 13:45:35.701757   317 net.cpp:148] Top shape: 24 64 14 14 (301056)
I0403 13:45:35.701773   317 net.cpp:156] Memory required for data: 1135267104
I0403 13:45:35.701788   317 layer_factory.hpp:77] Creating layer inception_4d/pool
I0403 13:45:35.701807   317 net.cpp:91] Creating Layer inception_4d/pool
I0403 13:45:35.701824   317 net.cpp:425] inception_4d/pool <- inception_4c/output_inception_4c/output_0_split_3
I0403 13:45:35.701846   317 net.cpp:399] inception_4d/pool -> inception_4d/pool
I0403 13:45:35.701917   317 net.cpp:141] Setting up inception_4d/pool
I0403 13:45:35.701941   317 net.cpp:148] Top shape: 24 512 14 14 (2408448)
I0403 13:45:35.701957   317 net.cpp:156] Memory required for data: 1144900896
I0403 13:45:35.701972   317 layer_factory.hpp:77] Creating layer inception_4d/pool_proj
I0403 13:45:35.701997   317 net.cpp:91] Creating Layer inception_4d/pool_proj
I0403 13:45:35.702015   317 net.cpp:425] inception_4d/pool_proj <- inception_4d/pool
I0403 13:45:35.702035   317 net.cpp:399] inception_4d/pool_proj -> inception_4d/pool_proj
I0403 13:45:35.703871   317 net.cpp:141] Setting up inception_4d/pool_proj
I0403 13:45:35.703902   317 net.cpp:148] Top shape: 24 64 14 14 (301056)
I0403 13:45:35.703917   317 net.cpp:156] Memory required for data: 1146105120
I0403 13:45:35.703936   317 layer_factory.hpp:77] Creating layer inception_4d/relu_pool_proj
I0403 13:45:35.703958   317 net.cpp:91] Creating Layer inception_4d/relu_pool_proj
I0403 13:45:35.703975   317 net.cpp:425] inception_4d/relu_pool_proj <- inception_4d/pool_proj
I0403 13:45:35.703994   317 net.cpp:386] inception_4d/relu_pool_proj -> inception_4d/pool_proj (in-place)
I0403 13:45:35.704185   317 net.cpp:141] Setting up inception_4d/relu_pool_proj
I0403 13:45:35.704221   317 net.cpp:148] Top shape: 24 64 14 14 (301056)
I0403 13:45:35.704237   317 net.cpp:156] Memory required for data: 1147309344
I0403 13:45:35.704253   317 layer_factory.hpp:77] Creating layer inception_4d/output
I0403 13:45:35.704272   317 net.cpp:91] Creating Layer inception_4d/output
I0403 13:45:35.704288   317 net.cpp:425] inception_4d/output <- inception_4d/1x1
I0403 13:45:35.704305   317 net.cpp:425] inception_4d/output <- inception_4d/3x3
I0403 13:45:35.704321   317 net.cpp:425] inception_4d/output <- inception_4d/5x5
I0403 13:45:35.704339   317 net.cpp:425] inception_4d/output <- inception_4d/pool_proj
I0403 13:45:35.704358   317 net.cpp:399] inception_4d/output -> inception_4d/output
I0403 13:45:35.704407   317 net.cpp:141] Setting up inception_4d/output
I0403 13:45:35.704432   317 net.cpp:148] Top shape: 24 528 14 14 (2483712)
I0403 13:45:35.704447   317 net.cpp:156] Memory required for data: 1157244192
I0403 13:45:35.704462   317 layer_factory.hpp:77] Creating layer inception_4d/output_inception_4d/output_0_split
I0403 13:45:35.704483   317 net.cpp:91] Creating Layer inception_4d/output_inception_4d/output_0_split
I0403 13:45:35.704499   317 net.cpp:425] inception_4d/output_inception_4d/output_0_split <- inception_4d/output
I0403 13:45:35.704517   317 net.cpp:399] inception_4d/output_inception_4d/output_0_split -> inception_4d/output_inception_4d/output_0_split_0
I0403 13:45:35.704538   317 net.cpp:399] inception_4d/output_inception_4d/output_0_split -> inception_4d/output_inception_4d/output_0_split_1
I0403 13:45:35.704566   317 net.cpp:399] inception_4d/output_inception_4d/output_0_split -> inception_4d/output_inception_4d/output_0_split_2
I0403 13:45:35.704586   317 net.cpp:399] inception_4d/output_inception_4d/output_0_split -> inception_4d/output_inception_4d/output_0_split_3
I0403 13:45:35.704607   317 net.cpp:399] inception_4d/output_inception_4d/output_0_split -> inception_4d/output_inception_4d/output_0_split_4
I0403 13:45:35.704715   317 net.cpp:141] Setting up inception_4d/output_inception_4d/output_0_split
I0403 13:45:35.704751   317 net.cpp:148] Top shape: 24 528 14 14 (2483712)
I0403 13:45:35.704769   317 net.cpp:148] Top shape: 24 528 14 14 (2483712)
I0403 13:45:35.704787   317 net.cpp:148] Top shape: 24 528 14 14 (2483712)
I0403 13:45:35.704802   317 net.cpp:148] Top shape: 24 528 14 14 (2483712)
I0403 13:45:35.704818   317 net.cpp:148] Top shape: 24 528 14 14 (2483712)
I0403 13:45:35.704833   317 net.cpp:156] Memory required for data: 1206918432
I0403 13:45:35.704849   317 layer_factory.hpp:77] Creating layer loss2/ave_pool
I0403 13:45:35.704870   317 net.cpp:91] Creating Layer loss2/ave_pool
I0403 13:45:35.704887   317 net.cpp:425] loss2/ave_pool <- inception_4d/output_inception_4d/output_0_split_0
I0403 13:45:35.704907   317 net.cpp:399] loss2/ave_pool -> loss2/ave_pool
I0403 13:45:35.705237   317 net.cpp:141] Setting up loss2/ave_pool
I0403 13:45:35.705265   317 net.cpp:148] Top shape: 24 528 4 4 (202752)
I0403 13:45:35.705281   317 net.cpp:156] Memory required for data: 1207729440
I0403 13:45:35.705296   317 layer_factory.hpp:77] Creating layer loss2/conv
I0403 13:45:35.705319   317 net.cpp:91] Creating Layer loss2/conv
I0403 13:45:35.705338   317 net.cpp:425] loss2/conv <- loss2/ave_pool
I0403 13:45:35.705360   317 net.cpp:399] loss2/conv -> loss2/conv
I0403 13:45:35.707331   317 net.cpp:141] Setting up loss2/conv
I0403 13:45:35.707362   317 net.cpp:148] Top shape: 24 128 4 4 (49152)
I0403 13:45:35.707381   317 net.cpp:156] Memory required for data: 1207926048
I0403 13:45:35.707401   317 layer_factory.hpp:77] Creating layer loss2/relu_conv
I0403 13:45:35.707419   317 net.cpp:91] Creating Layer loss2/relu_conv
I0403 13:45:35.707435   317 net.cpp:425] loss2/relu_conv <- loss2/conv
I0403 13:45:35.707456   317 net.cpp:386] loss2/relu_conv -> loss2/conv (in-place)
I0403 13:45:35.707761   317 net.cpp:141] Setting up loss2/relu_conv
I0403 13:45:35.707789   317 net.cpp:148] Top shape: 24 128 4 4 (49152)
I0403 13:45:35.707806   317 net.cpp:156] Memory required for data: 1208122656
I0403 13:45:35.707823   317 layer_factory.hpp:77] Creating layer loss2/fc
I0403 13:45:35.707844   317 net.cpp:91] Creating Layer loss2/fc
I0403 13:45:35.707860   317 net.cpp:425] loss2/fc <- loss2/conv
I0403 13:45:35.707885   317 net.cpp:399] loss2/fc -> loss2/fc
I0403 13:45:35.726161   317 net.cpp:141] Setting up loss2/fc
I0403 13:45:35.726227   317 net.cpp:148] Top shape: 24 1024 (24576)
I0403 13:45:35.726244   317 net.cpp:156] Memory required for data: 1208220960
I0403 13:45:35.726266   317 layer_factory.hpp:77] Creating layer loss2/relu_fc
I0403 13:45:35.726290   317 net.cpp:91] Creating Layer loss2/relu_fc
I0403 13:45:35.726310   317 net.cpp:425] loss2/relu_fc <- loss2/fc
I0403 13:45:35.726330   317 net.cpp:386] loss2/relu_fc -> loss2/fc (in-place)
I0403 13:45:35.726686   317 net.cpp:141] Setting up loss2/relu_fc
I0403 13:45:35.726713   317 net.cpp:148] Top shape: 24 1024 (24576)
I0403 13:45:35.726729   317 net.cpp:156] Memory required for data: 1208319264
I0403 13:45:35.726745   317 layer_factory.hpp:77] Creating layer loss2/drop_fc
I0403 13:45:35.726766   317 net.cpp:91] Creating Layer loss2/drop_fc
I0403 13:45:35.726784   317 net.cpp:425] loss2/drop_fc <- loss2/fc
I0403 13:45:35.726802   317 net.cpp:386] loss2/drop_fc -> loss2/fc (in-place)
I0403 13:45:35.726857   317 net.cpp:141] Setting up loss2/drop_fc
I0403 13:45:35.726881   317 net.cpp:148] Top shape: 24 1024 (24576)
I0403 13:45:35.726897   317 net.cpp:156] Memory required for data: 1208417568
I0403 13:45:35.726913   317 layer_factory.hpp:77] Creating layer loss2/classifier_plantvillage
I0403 13:45:35.726938   317 net.cpp:91] Creating Layer loss2/classifier_plantvillage
I0403 13:45:35.726956   317 net.cpp:425] loss2/classifier_plantvillage <- loss2/fc
I0403 13:45:35.726975   317 net.cpp:399] loss2/classifier_plantvillage -> loss2/classifier_plantvillage
I0403 13:45:35.727406   317 net.cpp:141] Setting up loss2/classifier_plantvillage
I0403 13:45:35.727432   317 net.cpp:148] Top shape: 24 38 (912)
I0403 13:45:35.727474   317 net.cpp:156] Memory required for data: 1208421216
I0403 13:45:35.727494   317 layer_factory.hpp:77] Creating layer loss2/classifier_plantvillage_loss2/classifier_plantvillage_0_split
I0403 13:45:35.727514   317 net.cpp:91] Creating Layer loss2/classifier_plantvillage_loss2/classifier_plantvillage_0_split
I0403 13:45:35.727530   317 net.cpp:425] loss2/classifier_plantvillage_loss2/classifier_plantvillage_0_split <- loss2/classifier_plantvillage
I0403 13:45:35.727556   317 net.cpp:399] loss2/classifier_plantvillage_loss2/classifier_plantvillage_0_split -> loss2/classifier_plantvillage_loss2/classifier_plantvillage_0_split_0
I0403 13:45:35.727579   317 net.cpp:399] loss2/classifier_plantvillage_loss2/classifier_plantvillage_0_split -> loss2/classifier_plantvillage_loss2/classifier_plantvillage_0_split_1
I0403 13:45:35.727602   317 net.cpp:399] loss2/classifier_plantvillage_loss2/classifier_plantvillage_0_split -> loss2/classifier_plantvillage_loss2/classifier_plantvillage_0_split_2
I0403 13:45:35.727682   317 net.cpp:141] Setting up loss2/classifier_plantvillage_loss2/classifier_plantvillage_0_split
I0403 13:45:35.727708   317 net.cpp:148] Top shape: 24 38 (912)
I0403 13:45:35.727726   317 net.cpp:148] Top shape: 24 38 (912)
I0403 13:45:35.727743   317 net.cpp:148] Top shape: 24 38 (912)
I0403 13:45:35.727757   317 net.cpp:156] Memory required for data: 1208432160
I0403 13:45:35.727773   317 layer_factory.hpp:77] Creating layer inception_4e/1x1
I0403 13:45:35.727794   317 net.cpp:91] Creating Layer inception_4e/1x1
I0403 13:45:35.727813   317 net.cpp:425] inception_4e/1x1 <- inception_4d/output_inception_4d/output_0_split_1
I0403 13:45:35.727833   317 net.cpp:399] inception_4e/1x1 -> inception_4e/1x1
I0403 13:45:35.729763   317 net.cpp:141] Setting up inception_4e/1x1
I0403 13:45:35.729792   317 net.cpp:148] Top shape: 24 256 14 14 (1204224)
I0403 13:45:35.729809   317 net.cpp:156] Memory required for data: 1213249056
I0403 13:45:35.729828   317 layer_factory.hpp:77] Creating layer inception_4e/relu_1x1
I0403 13:45:35.729847   317 net.cpp:91] Creating Layer inception_4e/relu_1x1
I0403 13:45:35.729864   317 net.cpp:425] inception_4e/relu_1x1 <- inception_4e/1x1
I0403 13:45:35.729884   317 net.cpp:386] inception_4e/relu_1x1 -> inception_4e/1x1 (in-place)
I0403 13:45:35.730196   317 net.cpp:141] Setting up inception_4e/relu_1x1
I0403 13:45:35.730229   317 net.cpp:148] Top shape: 24 256 14 14 (1204224)
I0403 13:45:35.730245   317 net.cpp:156] Memory required for data: 1218065952
I0403 13:45:35.730263   317 layer_factory.hpp:77] Creating layer inception_4e/3x3_reduce
I0403 13:45:35.730288   317 net.cpp:91] Creating Layer inception_4e/3x3_reduce
I0403 13:45:35.730305   317 net.cpp:425] inception_4e/3x3_reduce <- inception_4d/output_inception_4d/output_0_split_2
I0403 13:45:35.730329   317 net.cpp:399] inception_4e/3x3_reduce -> inception_4e/3x3_reduce
I0403 13:45:35.732610   317 net.cpp:141] Setting up inception_4e/3x3_reduce
I0403 13:45:35.732643   317 net.cpp:148] Top shape: 24 160 14 14 (752640)
I0403 13:45:35.732662   317 net.cpp:156] Memory required for data: 1221076512
I0403 13:45:35.732682   317 layer_factory.hpp:77] Creating layer inception_4e/relu_3x3_reduce
I0403 13:45:35.732702   317 net.cpp:91] Creating Layer inception_4e/relu_3x3_reduce
I0403 13:45:35.732720   317 net.cpp:425] inception_4e/relu_3x3_reduce <- inception_4e/3x3_reduce
I0403 13:45:35.732743   317 net.cpp:386] inception_4e/relu_3x3_reduce -> inception_4e/3x3_reduce (in-place)
I0403 13:45:35.732940   317 net.cpp:141] Setting up inception_4e/relu_3x3_reduce
I0403 13:45:35.732967   317 net.cpp:148] Top shape: 24 160 14 14 (752640)
I0403 13:45:35.732983   317 net.cpp:156] Memory required for data: 1224087072
I0403 13:45:35.733000   317 layer_factory.hpp:77] Creating layer inception_4e/3x3
I0403 13:45:35.733023   317 net.cpp:91] Creating Layer inception_4e/3x3
I0403 13:45:35.733042   317 net.cpp:425] inception_4e/3x3 <- inception_4e/3x3_reduce
I0403 13:45:35.733065   317 net.cpp:399] inception_4e/3x3 -> inception_4e/3x3
I0403 13:45:35.738435   317 net.cpp:141] Setting up inception_4e/3x3
I0403 13:45:35.738481   317 net.cpp:148] Top shape: 24 320 14 14 (1505280)
I0403 13:45:35.738497   317 net.cpp:156] Memory required for data: 1230108192
I0403 13:45:35.738517   317 layer_factory.hpp:77] Creating layer inception_4e/relu_3x3
I0403 13:45:35.738539   317 net.cpp:91] Creating Layer inception_4e/relu_3x3
I0403 13:45:35.738557   317 net.cpp:425] inception_4e/relu_3x3 <- inception_4e/3x3
I0403 13:45:35.738576   317 net.cpp:386] inception_4e/relu_3x3 -> inception_4e/3x3 (in-place)
I0403 13:45:35.738901   317 net.cpp:141] Setting up inception_4e/relu_3x3
I0403 13:45:35.738929   317 net.cpp:148] Top shape: 24 320 14 14 (1505280)
I0403 13:45:35.738945   317 net.cpp:156] Memory required for data: 1236129312
I0403 13:45:35.738961   317 layer_factory.hpp:77] Creating layer inception_4e/5x5_reduce
I0403 13:45:35.738988   317 net.cpp:91] Creating Layer inception_4e/5x5_reduce
I0403 13:45:35.739008   317 net.cpp:425] inception_4e/5x5_reduce <- inception_4d/output_inception_4d/output_0_split_3
I0403 13:45:35.739035   317 net.cpp:399] inception_4e/5x5_reduce -> inception_4e/5x5_reduce
I0403 13:45:35.740190   317 net.cpp:141] Setting up inception_4e/5x5_reduce
I0403 13:45:35.740224   317 net.cpp:148] Top shape: 24 32 14 14 (150528)
I0403 13:45:35.740242   317 net.cpp:156] Memory required for data: 1236731424
I0403 13:45:35.740262   317 layer_factory.hpp:77] Creating layer inception_4e/relu_5x5_reduce
I0403 13:45:35.740281   317 net.cpp:91] Creating Layer inception_4e/relu_5x5_reduce
I0403 13:45:35.740299   317 net.cpp:425] inception_4e/relu_5x5_reduce <- inception_4e/5x5_reduce
I0403 13:45:35.740320   317 net.cpp:386] inception_4e/relu_5x5_reduce -> inception_4e/5x5_reduce (in-place)
I0403 13:45:35.740636   317 net.cpp:141] Setting up inception_4e/relu_5x5_reduce
I0403 13:45:35.740664   317 net.cpp:148] Top shape: 24 32 14 14 (150528)
I0403 13:45:35.740680   317 net.cpp:156] Memory required for data: 1237333536
I0403 13:45:35.740697   317 layer_factory.hpp:77] Creating layer inception_4e/5x5
I0403 13:45:35.740737   317 net.cpp:91] Creating Layer inception_4e/5x5
I0403 13:45:35.740758   317 net.cpp:425] inception_4e/5x5 <- inception_4e/5x5_reduce
I0403 13:45:35.740778   317 net.cpp:399] inception_4e/5x5 -> inception_4e/5x5
I0403 13:45:35.742764   317 net.cpp:141] Setting up inception_4e/5x5
I0403 13:45:35.742797   317 net.cpp:148] Top shape: 24 128 14 14 (602112)
I0403 13:45:35.742815   317 net.cpp:156] Memory required for data: 1239741984
I0403 13:45:35.742835   317 layer_factory.hpp:77] Creating layer inception_4e/relu_5x5
I0403 13:45:35.742856   317 net.cpp:91] Creating Layer inception_4e/relu_5x5
I0403 13:45:35.742872   317 net.cpp:425] inception_4e/relu_5x5 <- inception_4e/5x5
I0403 13:45:35.742890   317 net.cpp:386] inception_4e/relu_5x5 -> inception_4e/5x5 (in-place)
I0403 13:45:35.743104   317 net.cpp:141] Setting up inception_4e/relu_5x5
I0403 13:45:35.743131   317 net.cpp:148] Top shape: 24 128 14 14 (602112)
I0403 13:45:35.743146   317 net.cpp:156] Memory required for data: 1242150432
I0403 13:45:35.743162   317 layer_factory.hpp:77] Creating layer inception_4e/pool
I0403 13:45:35.743182   317 net.cpp:91] Creating Layer inception_4e/pool
I0403 13:45:35.743201   317 net.cpp:425] inception_4e/pool <- inception_4d/output_inception_4d/output_0_split_4
I0403 13:45:35.743232   317 net.cpp:399] inception_4e/pool -> inception_4e/pool
I0403 13:45:35.743309   317 net.cpp:141] Setting up inception_4e/pool
I0403 13:45:35.743341   317 net.cpp:148] Top shape: 24 528 14 14 (2483712)
I0403 13:45:35.743358   317 net.cpp:156] Memory required for data: 1252085280
I0403 13:45:35.743374   317 layer_factory.hpp:77] Creating layer inception_4e/pool_proj
I0403 13:45:35.743398   317 net.cpp:91] Creating Layer inception_4e/pool_proj
I0403 13:45:35.743417   317 net.cpp:425] inception_4e/pool_proj <- inception_4e/pool
I0403 13:45:35.743437   317 net.cpp:399] inception_4e/pool_proj -> inception_4e/pool_proj
I0403 13:45:35.745040   317 net.cpp:141] Setting up inception_4e/pool_proj
I0403 13:45:35.745082   317 net.cpp:148] Top shape: 24 128 14 14 (602112)
I0403 13:45:35.745103   317 net.cpp:156] Memory required for data: 1254493728
I0403 13:45:35.745124   317 layer_factory.hpp:77] Creating layer inception_4e/relu_pool_proj
I0403 13:45:35.745143   317 net.cpp:91] Creating Layer inception_4e/relu_pool_proj
I0403 13:45:35.745162   317 net.cpp:425] inception_4e/relu_pool_proj <- inception_4e/pool_proj
I0403 13:45:35.745180   317 net.cpp:386] inception_4e/relu_pool_proj -> inception_4e/pool_proj (in-place)
I0403 13:45:35.745497   317 net.cpp:141] Setting up inception_4e/relu_pool_proj
I0403 13:45:35.745525   317 net.cpp:148] Top shape: 24 128 14 14 (602112)
I0403 13:45:35.745544   317 net.cpp:156] Memory required for data: 1256902176
I0403 13:45:35.745560   317 layer_factory.hpp:77] Creating layer inception_4e/output
I0403 13:45:35.745580   317 net.cpp:91] Creating Layer inception_4e/output
I0403 13:45:35.745597   317 net.cpp:425] inception_4e/output <- inception_4e/1x1
I0403 13:45:35.745615   317 net.cpp:425] inception_4e/output <- inception_4e/3x3
I0403 13:45:35.745631   317 net.cpp:425] inception_4e/output <- inception_4e/5x5
I0403 13:45:35.745648   317 net.cpp:425] inception_4e/output <- inception_4e/pool_proj
I0403 13:45:35.745666   317 net.cpp:399] inception_4e/output -> inception_4e/output
I0403 13:45:35.745721   317 net.cpp:141] Setting up inception_4e/output
I0403 13:45:35.745746   317 net.cpp:148] Top shape: 24 832 14 14 (3913728)
I0403 13:45:35.745762   317 net.cpp:156] Memory required for data: 1272557088
I0403 13:45:35.745779   317 layer_factory.hpp:77] Creating layer pool4/3x3_s2
I0403 13:45:35.745797   317 net.cpp:91] Creating Layer pool4/3x3_s2
I0403 13:45:35.745817   317 net.cpp:425] pool4/3x3_s2 <- inception_4e/output
I0403 13:45:35.745838   317 net.cpp:399] pool4/3x3_s2 -> pool4/3x3_s2
I0403 13:45:35.745910   317 net.cpp:141] Setting up pool4/3x3_s2
I0403 13:45:35.745936   317 net.cpp:148] Top shape: 24 832 7 7 (978432)
I0403 13:45:35.745952   317 net.cpp:156] Memory required for data: 1276470816
I0403 13:45:35.745968   317 layer_factory.hpp:77] Creating layer pool4/3x3_s2_pool4/3x3_s2_0_split
I0403 13:45:35.745986   317 net.cpp:91] Creating Layer pool4/3x3_s2_pool4/3x3_s2_0_split
I0403 13:45:35.746003   317 net.cpp:425] pool4/3x3_s2_pool4/3x3_s2_0_split <- pool4/3x3_s2
I0403 13:45:35.746026   317 net.cpp:399] pool4/3x3_s2_pool4/3x3_s2_0_split -> pool4/3x3_s2_pool4/3x3_s2_0_split_0
I0403 13:45:35.746048   317 net.cpp:399] pool4/3x3_s2_pool4/3x3_s2_0_split -> pool4/3x3_s2_pool4/3x3_s2_0_split_1
I0403 13:45:35.746070   317 net.cpp:399] pool4/3x3_s2_pool4/3x3_s2_0_split -> pool4/3x3_s2_pool4/3x3_s2_0_split_2
I0403 13:45:35.746093   317 net.cpp:399] pool4/3x3_s2_pool4/3x3_s2_0_split -> pool4/3x3_s2_pool4/3x3_s2_0_split_3
I0403 13:45:35.746189   317 net.cpp:141] Setting up pool4/3x3_s2_pool4/3x3_s2_0_split
I0403 13:45:35.746222   317 net.cpp:148] Top shape: 24 832 7 7 (978432)
I0403 13:45:35.746240   317 net.cpp:148] Top shape: 24 832 7 7 (978432)
I0403 13:45:35.746258   317 net.cpp:148] Top shape: 24 832 7 7 (978432)
I0403 13:45:35.746275   317 net.cpp:148] Top shape: 24 832 7 7 (978432)
I0403 13:45:35.746290   317 net.cpp:156] Memory required for data: 1292125728
I0403 13:45:35.746306   317 layer_factory.hpp:77] Creating layer inception_5a/1x1
I0403 13:45:35.746332   317 net.cpp:91] Creating Layer inception_5a/1x1
I0403 13:45:35.746352   317 net.cpp:425] inception_5a/1x1 <- pool4/3x3_s2_pool4/3x3_s2_0_split_0
I0403 13:45:35.746372   317 net.cpp:399] inception_5a/1x1 -> inception_5a/1x1
I0403 13:45:35.749415   317 net.cpp:141] Setting up inception_5a/1x1
I0403 13:45:35.749451   317 net.cpp:148] Top shape: 24 256 7 7 (301056)
I0403 13:45:35.749469   317 net.cpp:156] Memory required for data: 1293329952
I0403 13:45:35.749490   317 layer_factory.hpp:77] Creating layer inception_5a/relu_1x1
I0403 13:45:35.749510   317 net.cpp:91] Creating Layer inception_5a/relu_1x1
I0403 13:45:35.749526   317 net.cpp:425] inception_5a/relu_1x1 <- inception_5a/1x1
I0403 13:45:35.749553   317 net.cpp:386] inception_5a/relu_1x1 -> inception_5a/1x1 (in-place)
I0403 13:45:35.749897   317 net.cpp:141] Setting up inception_5a/relu_1x1
I0403 13:45:35.749940   317 net.cpp:148] Top shape: 24 256 7 7 (301056)
I0403 13:45:35.749958   317 net.cpp:156] Memory required for data: 1294534176
I0403 13:45:35.749974   317 layer_factory.hpp:77] Creating layer inception_5a/3x3_reduce
I0403 13:45:35.750000   317 net.cpp:91] Creating Layer inception_5a/3x3_reduce
I0403 13:45:35.750018   317 net.cpp:425] inception_5a/3x3_reduce <- pool4/3x3_s2_pool4/3x3_s2_0_split_1
I0403 13:45:35.750039   317 net.cpp:399] inception_5a/3x3_reduce -> inception_5a/3x3_reduce
I0403 13:45:35.752643   317 net.cpp:141] Setting up inception_5a/3x3_reduce
I0403 13:45:35.752674   317 net.cpp:148] Top shape: 24 160 7 7 (188160)
I0403 13:45:35.752691   317 net.cpp:156] Memory required for data: 1295286816
I0403 13:45:35.752712   317 layer_factory.hpp:77] Creating layer inception_5a/relu_3x3_reduce
I0403 13:45:35.752734   317 net.cpp:91] Creating Layer inception_5a/relu_3x3_reduce
I0403 13:45:35.752753   317 net.cpp:425] inception_5a/relu_3x3_reduce <- inception_5a/3x3_reduce
I0403 13:45:35.752771   317 net.cpp:386] inception_5a/relu_3x3_reduce -> inception_5a/3x3_reduce (in-place)
I0403 13:45:35.752974   317 net.cpp:141] Setting up inception_5a/relu_3x3_reduce
I0403 13:45:35.753005   317 net.cpp:148] Top shape: 24 160 7 7 (188160)
I0403 13:45:35.753022   317 net.cpp:156] Memory required for data: 1296039456
I0403 13:45:35.753038   317 layer_factory.hpp:77] Creating layer inception_5a/3x3
I0403 13:45:35.753063   317 net.cpp:91] Creating Layer inception_5a/3x3
I0403 13:45:35.753083   317 net.cpp:425] inception_5a/3x3 <- inception_5a/3x3_reduce
I0403 13:45:35.753103   317 net.cpp:399] inception_5a/3x3 -> inception_5a/3x3
I0403 13:45:35.758461   317 net.cpp:141] Setting up inception_5a/3x3
I0403 13:45:35.758496   317 net.cpp:148] Top shape: 24 320 7 7 (376320)
I0403 13:45:35.758514   317 net.cpp:156] Memory required for data: 1297544736
I0403 13:45:35.758534   317 layer_factory.hpp:77] Creating layer inception_5a/relu_3x3
I0403 13:45:35.758554   317 net.cpp:91] Creating Layer inception_5a/relu_3x3
I0403 13:45:35.758572   317 net.cpp:425] inception_5a/relu_3x3 <- inception_5a/3x3
I0403 13:45:35.758591   317 net.cpp:386] inception_5a/relu_3x3 -> inception_5a/3x3 (in-place)
I0403 13:45:35.758908   317 net.cpp:141] Setting up inception_5a/relu_3x3
I0403 13:45:35.758939   317 net.cpp:148] Top shape: 24 320 7 7 (376320)
I0403 13:45:35.758955   317 net.cpp:156] Memory required for data: 1299050016
I0403 13:45:35.758972   317 layer_factory.hpp:77] Creating layer inception_5a/5x5_reduce
I0403 13:45:35.758997   317 net.cpp:91] Creating Layer inception_5a/5x5_reduce
I0403 13:45:35.759016   317 net.cpp:425] inception_5a/5x5_reduce <- pool4/3x3_s2_pool4/3x3_s2_0_split_2
I0403 13:45:35.759038   317 net.cpp:399] inception_5a/5x5_reduce -> inception_5a/5x5_reduce
I0403 13:45:35.760334   317 net.cpp:141] Setting up inception_5a/5x5_reduce
I0403 13:45:35.760366   317 net.cpp:148] Top shape: 24 32 7 7 (37632)
I0403 13:45:35.760383   317 net.cpp:156] Memory required for data: 1299200544
I0403 13:45:35.760403   317 layer_factory.hpp:77] Creating layer inception_5a/relu_5x5_reduce
I0403 13:45:35.760422   317 net.cpp:91] Creating Layer inception_5a/relu_5x5_reduce
I0403 13:45:35.760439   317 net.cpp:425] inception_5a/relu_5x5_reduce <- inception_5a/5x5_reduce
I0403 13:45:35.760460   317 net.cpp:386] inception_5a/relu_5x5_reduce -> inception_5a/5x5_reduce (in-place)
I0403 13:45:35.760768   317 net.cpp:141] Setting up inception_5a/relu_5x5_reduce
I0403 13:45:35.760797   317 net.cpp:148] Top shape: 24 32 7 7 (37632)
I0403 13:45:35.760814   317 net.cpp:156] Memory required for data: 1299351072
I0403 13:45:35.760830   317 layer_factory.hpp:77] Creating layer inception_5a/5x5
I0403 13:45:35.760854   317 net.cpp:91] Creating Layer inception_5a/5x5
I0403 13:45:35.760871   317 net.cpp:425] inception_5a/5x5 <- inception_5a/5x5_reduce
I0403 13:45:35.760893   317 net.cpp:399] inception_5a/5x5 -> inception_5a/5x5
I0403 13:45:35.762696   317 net.cpp:141] Setting up inception_5a/5x5
I0403 13:45:35.762742   317 net.cpp:148] Top shape: 24 128 7 7 (150528)
I0403 13:45:35.762759   317 net.cpp:156] Memory required for data: 1299953184
I0403 13:45:35.762779   317 layer_factory.hpp:77] Creating layer inception_5a/relu_5x5
I0403 13:45:35.762797   317 net.cpp:91] Creating Layer inception_5a/relu_5x5
I0403 13:45:35.762814   317 net.cpp:425] inception_5a/relu_5x5 <- inception_5a/5x5
I0403 13:45:35.762832   317 net.cpp:386] inception_5a/relu_5x5 -> inception_5a/5x5 (in-place)
I0403 13:45:35.763036   317 net.cpp:141] Setting up inception_5a/relu_5x5
I0403 13:45:35.763061   317 net.cpp:148] Top shape: 24 128 7 7 (150528)
I0403 13:45:35.763077   317 net.cpp:156] Memory required for data: 1300555296
I0403 13:45:35.763092   317 layer_factory.hpp:77] Creating layer inception_5a/pool
I0403 13:45:35.763110   317 net.cpp:91] Creating Layer inception_5a/pool
I0403 13:45:35.763128   317 net.cpp:425] inception_5a/pool <- pool4/3x3_s2_pool4/3x3_s2_0_split_3
I0403 13:45:35.763149   317 net.cpp:399] inception_5a/pool -> inception_5a/pool
I0403 13:45:35.763229   317 net.cpp:141] Setting up inception_5a/pool
I0403 13:45:35.763265   317 net.cpp:148] Top shape: 24 832 7 7 (978432)
I0403 13:45:35.763281   317 net.cpp:156] Memory required for data: 1304469024
I0403 13:45:35.763298   317 layer_factory.hpp:77] Creating layer inception_5a/pool_proj
I0403 13:45:35.763322   317 net.cpp:91] Creating Layer inception_5a/pool_proj
I0403 13:45:35.763340   317 net.cpp:425] inception_5a/pool_proj <- inception_5a/pool
I0403 13:45:35.763360   317 net.cpp:399] inception_5a/pool_proj -> inception_5a/pool_proj
I0403 13:45:35.765717   317 net.cpp:141] Setting up inception_5a/pool_proj
I0403 13:45:35.765748   317 net.cpp:148] Top shape: 24 128 7 7 (150528)
I0403 13:45:35.765763   317 net.cpp:156] Memory required for data: 1305071136
I0403 13:45:35.765784   317 layer_factory.hpp:77] Creating layer inception_5a/relu_pool_proj
I0403 13:45:35.765805   317 net.cpp:91] Creating Layer inception_5a/relu_pool_proj
I0403 13:45:35.765822   317 net.cpp:425] inception_5a/relu_pool_proj <- inception_5a/pool_proj
I0403 13:45:35.765841   317 net.cpp:386] inception_5a/relu_pool_proj -> inception_5a/pool_proj (in-place)
I0403 13:45:35.766152   317 net.cpp:141] Setting up inception_5a/relu_pool_proj
I0403 13:45:35.766180   317 net.cpp:148] Top shape: 24 128 7 7 (150528)
I0403 13:45:35.766196   317 net.cpp:156] Memory required for data: 1305673248
I0403 13:45:35.766216   317 layer_factory.hpp:77] Creating layer inception_5a/output
I0403 13:45:35.766239   317 net.cpp:91] Creating Layer inception_5a/output
I0403 13:45:35.766258   317 net.cpp:425] inception_5a/output <- inception_5a/1x1
I0403 13:45:35.766276   317 net.cpp:425] inception_5a/output <- inception_5a/3x3
I0403 13:45:35.766294   317 net.cpp:425] inception_5a/output <- inception_5a/5x5
I0403 13:45:35.766309   317 net.cpp:425] inception_5a/output <- inception_5a/pool_proj
I0403 13:45:35.766327   317 net.cpp:399] inception_5a/output -> inception_5a/output
I0403 13:45:35.766382   317 net.cpp:141] Setting up inception_5a/output
I0403 13:45:35.766407   317 net.cpp:148] Top shape: 24 832 7 7 (978432)
I0403 13:45:35.766422   317 net.cpp:156] Memory required for data: 1309586976
I0403 13:45:35.766438   317 layer_factory.hpp:77] Creating layer inception_5a/output_inception_5a/output_0_split
I0403 13:45:35.766456   317 net.cpp:91] Creating Layer inception_5a/output_inception_5a/output_0_split
I0403 13:45:35.766474   317 net.cpp:425] inception_5a/output_inception_5a/output_0_split <- inception_5a/output
I0403 13:45:35.766494   317 net.cpp:399] inception_5a/output_inception_5a/output_0_split -> inception_5a/output_inception_5a/output_0_split_0
I0403 13:45:35.766515   317 net.cpp:399] inception_5a/output_inception_5a/output_0_split -> inception_5a/output_inception_5a/output_0_split_1
I0403 13:45:35.766536   317 net.cpp:399] inception_5a/output_inception_5a/output_0_split -> inception_5a/output_inception_5a/output_0_split_2
I0403 13:45:35.766558   317 net.cpp:399] inception_5a/output_inception_5a/output_0_split -> inception_5a/output_inception_5a/output_0_split_3
I0403 13:45:35.766676   317 net.cpp:141] Setting up inception_5a/output_inception_5a/output_0_split
I0403 13:45:35.766706   317 net.cpp:148] Top shape: 24 832 7 7 (978432)
I0403 13:45:35.766724   317 net.cpp:148] Top shape: 24 832 7 7 (978432)
I0403 13:45:35.766741   317 net.cpp:148] Top shape: 24 832 7 7 (978432)
I0403 13:45:35.766758   317 net.cpp:148] Top shape: 24 832 7 7 (978432)
I0403 13:45:35.766772   317 net.cpp:156] Memory required for data: 1325241888
I0403 13:45:35.766788   317 layer_factory.hpp:77] Creating layer inception_5b/1x1
I0403 13:45:35.766810   317 net.cpp:91] Creating Layer inception_5b/1x1
I0403 13:45:35.766829   317 net.cpp:425] inception_5b/1x1 <- inception_5a/output_inception_5a/output_0_split_0
I0403 13:45:35.766851   317 net.cpp:399] inception_5b/1x1 -> inception_5b/1x1
I0403 13:45:35.770817   317 net.cpp:141] Setting up inception_5b/1x1
I0403 13:45:35.770848   317 net.cpp:148] Top shape: 24 384 7 7 (451584)
I0403 13:45:35.770864   317 net.cpp:156] Memory required for data: 1327048224
I0403 13:45:35.770884   317 layer_factory.hpp:77] Creating layer inception_5b/relu_1x1
I0403 13:45:35.770905   317 net.cpp:91] Creating Layer inception_5b/relu_1x1
I0403 13:45:35.770925   317 net.cpp:425] inception_5b/relu_1x1 <- inception_5b/1x1
I0403 13:45:35.770942   317 net.cpp:386] inception_5b/relu_1x1 -> inception_5b/1x1 (in-place)
I0403 13:45:35.771271   317 net.cpp:141] Setting up inception_5b/relu_1x1
I0403 13:45:35.771299   317 net.cpp:148] Top shape: 24 384 7 7 (451584)
I0403 13:45:35.771314   317 net.cpp:156] Memory required for data: 1328854560
I0403 13:45:35.771330   317 layer_factory.hpp:77] Creating layer inception_5b/3x3_reduce
I0403 13:45:35.771354   317 net.cpp:91] Creating Layer inception_5b/3x3_reduce
I0403 13:45:35.771373   317 net.cpp:425] inception_5b/3x3_reduce <- inception_5a/output_inception_5a/output_0_split_1
I0403 13:45:35.771396   317 net.cpp:399] inception_5b/3x3_reduce -> inception_5b/3x3_reduce
I0403 13:45:35.774180   317 net.cpp:141] Setting up inception_5b/3x3_reduce
I0403 13:45:35.774215   317 net.cpp:148] Top shape: 24 192 7 7 (225792)
I0403 13:45:35.774233   317 net.cpp:156] Memory required for data: 1329757728
I0403 13:45:35.774252   317 layer_factory.hpp:77] Creating layer inception_5b/relu_3x3_reduce
I0403 13:45:35.774274   317 net.cpp:91] Creating Layer inception_5b/relu_3x3_reduce
I0403 13:45:35.774292   317 net.cpp:425] inception_5b/relu_3x3_reduce <- inception_5b/3x3_reduce
I0403 13:45:35.774310   317 net.cpp:386] inception_5b/relu_3x3_reduce -> inception_5b/3x3_reduce (in-place)
I0403 13:45:35.774505   317 net.cpp:141] Setting up inception_5b/relu_3x3_reduce
I0403 13:45:35.774533   317 net.cpp:148] Top shape: 24 192 7 7 (225792)
I0403 13:45:35.774549   317 net.cpp:156] Memory required for data: 1330660896
I0403 13:45:35.774564   317 layer_factory.hpp:77] Creating layer inception_5b/3x3
I0403 13:45:35.774587   317 net.cpp:91] Creating Layer inception_5b/3x3
I0403 13:45:35.774605   317 net.cpp:425] inception_5b/3x3 <- inception_5b/3x3_reduce
I0403 13:45:35.774626   317 net.cpp:399] inception_5b/3x3 -> inception_5b/3x3
I0403 13:45:35.781556   317 net.cpp:141] Setting up inception_5b/3x3
I0403 13:45:35.781595   317 net.cpp:148] Top shape: 24 384 7 7 (451584)
I0403 13:45:35.781625   317 net.cpp:156] Memory required for data: 1332467232
I0403 13:45:35.781643   317 layer_factory.hpp:77] Creating layer inception_5b/relu_3x3
I0403 13:45:35.781664   317 net.cpp:91] Creating Layer inception_5b/relu_3x3
I0403 13:45:35.781682   317 net.cpp:425] inception_5b/relu_3x3 <- inception_5b/3x3
I0403 13:45:35.781700   317 net.cpp:386] inception_5b/relu_3x3 -> inception_5b/3x3 (in-place)
I0403 13:45:35.782004   317 net.cpp:141] Setting up inception_5b/relu_3x3
I0403 13:45:35.782030   317 net.cpp:148] Top shape: 24 384 7 7 (451584)
I0403 13:45:35.782045   317 net.cpp:156] Memory required for data: 1334273568
I0403 13:45:35.782060   317 layer_factory.hpp:77] Creating layer inception_5b/5x5_reduce
I0403 13:45:35.782104   317 net.cpp:91] Creating Layer inception_5b/5x5_reduce
I0403 13:45:35.782124   317 net.cpp:425] inception_5b/5x5_reduce <- inception_5a/output_inception_5a/output_0_split_2
I0403 13:45:35.782143   317 net.cpp:399] inception_5b/5x5_reduce -> inception_5b/5x5_reduce
I0403 13:45:35.783498   317 net.cpp:141] Setting up inception_5b/5x5_reduce
I0403 13:45:35.783525   317 net.cpp:148] Top shape: 24 48 7 7 (56448)
I0403 13:45:35.783541   317 net.cpp:156] Memory required for data: 1334499360
I0403 13:45:35.783560   317 layer_factory.hpp:77] Creating layer inception_5b/relu_5x5_reduce
I0403 13:45:35.783591   317 net.cpp:91] Creating Layer inception_5b/relu_5x5_reduce
I0403 13:45:35.783607   317 net.cpp:425] inception_5b/relu_5x5_reduce <- inception_5b/5x5_reduce
I0403 13:45:35.783627   317 net.cpp:386] inception_5b/relu_5x5_reduce -> inception_5b/5x5_reduce (in-place)
I0403 13:45:35.784008   317 net.cpp:141] Setting up inception_5b/relu_5x5_reduce
I0403 13:45:35.784034   317 net.cpp:148] Top shape: 24 48 7 7 (56448)
I0403 13:45:35.784050   317 net.cpp:156] Memory required for data: 1334725152
I0403 13:45:35.784065   317 layer_factory.hpp:77] Creating layer inception_5b/5x5
I0403 13:45:35.784086   317 net.cpp:91] Creating Layer inception_5b/5x5
I0403 13:45:35.784106   317 net.cpp:425] inception_5b/5x5 <- inception_5b/5x5_reduce
I0403 13:45:35.784124   317 net.cpp:399] inception_5b/5x5 -> inception_5b/5x5
I0403 13:45:35.786291   317 net.cpp:141] Setting up inception_5b/5x5
I0403 13:45:35.786322   317 net.cpp:148] Top shape: 24 128 7 7 (150528)
I0403 13:45:35.786339   317 net.cpp:156] Memory required for data: 1335327264
I0403 13:45:35.786357   317 layer_factory.hpp:77] Creating layer inception_5b/relu_5x5
I0403 13:45:35.786375   317 net.cpp:91] Creating Layer inception_5b/relu_5x5
I0403 13:45:35.786393   317 net.cpp:425] inception_5b/relu_5x5 <- inception_5b/5x5
I0403 13:45:35.786413   317 net.cpp:386] inception_5b/relu_5x5 -> inception_5b/5x5 (in-place)
I0403 13:45:35.786609   317 net.cpp:141] Setting up inception_5b/relu_5x5
I0403 13:45:35.786634   317 net.cpp:148] Top shape: 24 128 7 7 (150528)
I0403 13:45:35.786649   317 net.cpp:156] Memory required for data: 1335929376
I0403 13:45:35.786664   317 layer_factory.hpp:77] Creating layer inception_5b/pool
I0403 13:45:35.786684   317 net.cpp:91] Creating Layer inception_5b/pool
I0403 13:45:35.786702   317 net.cpp:425] inception_5b/pool <- inception_5a/output_inception_5a/output_0_split_3
I0403 13:45:35.786725   317 net.cpp:399] inception_5b/pool -> inception_5b/pool
I0403 13:45:35.786800   317 net.cpp:141] Setting up inception_5b/pool
I0403 13:45:35.786824   317 net.cpp:148] Top shape: 24 832 7 7 (978432)
I0403 13:45:35.786840   317 net.cpp:156] Memory required for data: 1339843104
I0403 13:45:35.786855   317 layer_factory.hpp:77] Creating layer inception_5b/pool_proj
I0403 13:45:35.786880   317 net.cpp:91] Creating Layer inception_5b/pool_proj
I0403 13:45:35.786896   317 net.cpp:425] inception_5b/pool_proj <- inception_5b/pool
I0403 13:45:35.786916   317 net.cpp:399] inception_5b/pool_proj -> inception_5b/pool_proj
I0403 13:45:35.789427   317 net.cpp:141] Setting up inception_5b/pool_proj
I0403 13:45:35.789459   317 net.cpp:148] Top shape: 24 128 7 7 (150528)
I0403 13:45:35.789476   317 net.cpp:156] Memory required for data: 1340445216
I0403 13:45:35.789497   317 layer_factory.hpp:77] Creating layer inception_5b/relu_pool_proj
I0403 13:45:35.789517   317 net.cpp:91] Creating Layer inception_5b/relu_pool_proj
I0403 13:45:35.789535   317 net.cpp:425] inception_5b/relu_pool_proj <- inception_5b/pool_proj
I0403 13:45:35.789553   317 net.cpp:386] inception_5b/relu_pool_proj -> inception_5b/pool_proj (in-place)
I0403 13:45:35.789876   317 net.cpp:141] Setting up inception_5b/relu_pool_proj
I0403 13:45:35.789906   317 net.cpp:148] Top shape: 24 128 7 7 (150528)
I0403 13:45:35.789921   317 net.cpp:156] Memory required for data: 1341047328
I0403 13:45:35.789937   317 layer_factory.hpp:77] Creating layer inception_5b/output
I0403 13:45:35.789957   317 net.cpp:91] Creating Layer inception_5b/output
I0403 13:45:35.789988   317 net.cpp:425] inception_5b/output <- inception_5b/1x1
I0403 13:45:35.790006   317 net.cpp:425] inception_5b/output <- inception_5b/3x3
I0403 13:45:35.790024   317 net.cpp:425] inception_5b/output <- inception_5b/5x5
I0403 13:45:35.790040   317 net.cpp:425] inception_5b/output <- inception_5b/pool_proj
I0403 13:45:35.790058   317 net.cpp:399] inception_5b/output -> inception_5b/output
I0403 13:45:35.790113   317 net.cpp:141] Setting up inception_5b/output
I0403 13:45:35.790138   317 net.cpp:148] Top shape: 24 1024 7 7 (1204224)
I0403 13:45:35.790153   317 net.cpp:156] Memory required for data: 1345864224
I0403 13:45:35.790169   317 layer_factory.hpp:77] Creating layer pool5/7x7_s1
I0403 13:45:35.790189   317 net.cpp:91] Creating Layer pool5/7x7_s1
I0403 13:45:35.790206   317 net.cpp:425] pool5/7x7_s1 <- inception_5b/output
I0403 13:45:35.790235   317 net.cpp:399] pool5/7x7_s1 -> pool5/7x7_s1
I0403 13:45:35.790462   317 net.cpp:141] Setting up pool5/7x7_s1
I0403 13:45:35.790491   317 net.cpp:148] Top shape: 24 1024 1 1 (24576)
I0403 13:45:35.790506   317 net.cpp:156] Memory required for data: 1345962528
I0403 13:45:35.790523   317 layer_factory.hpp:77] Creating layer pool5/drop_7x7_s1
I0403 13:45:35.790541   317 net.cpp:91] Creating Layer pool5/drop_7x7_s1
I0403 13:45:35.790558   317 net.cpp:425] pool5/drop_7x7_s1 <- pool5/7x7_s1
I0403 13:45:35.790576   317 net.cpp:386] pool5/drop_7x7_s1 -> pool5/7x7_s1 (in-place)
I0403 13:45:35.790629   317 net.cpp:141] Setting up pool5/drop_7x7_s1
I0403 13:45:35.790653   317 net.cpp:148] Top shape: 24 1024 1 1 (24576)
I0403 13:45:35.790668   317 net.cpp:156] Memory required for data: 1346060832
I0403 13:45:35.790684   317 layer_factory.hpp:77] Creating layer loss3/classifier_plantvillage
I0403 13:45:35.790707   317 net.cpp:91] Creating Layer loss3/classifier_plantvillage
I0403 13:45:35.790725   317 net.cpp:425] loss3/classifier_plantvillage <- pool5/7x7_s1
I0403 13:45:35.790745   317 net.cpp:399] loss3/classifier_plantvillage -> loss3/classifier_plantvillage
I0403 13:45:35.791216   317 net.cpp:141] Setting up loss3/classifier_plantvillage
I0403 13:45:35.791244   317 net.cpp:148] Top shape: 24 38 (912)
I0403 13:45:35.791260   317 net.cpp:156] Memory required for data: 1346064480
I0403 13:45:35.791280   317 layer_factory.hpp:77] Creating layer loss3/classifier_plantvillage_loss3/classifier_plantvillage_0_split
I0403 13:45:35.791298   317 net.cpp:91] Creating Layer loss3/classifier_plantvillage_loss3/classifier_plantvillage_0_split
I0403 13:45:35.791316   317 net.cpp:425] loss3/classifier_plantvillage_loss3/classifier_plantvillage_0_split <- loss3/classifier_plantvillage
I0403 13:45:35.791339   317 net.cpp:399] loss3/classifier_plantvillage_loss3/classifier_plantvillage_0_split -> loss3/classifier_plantvillage_loss3/classifier_plantvillage_0_split_0
I0403 13:45:35.791363   317 net.cpp:399] loss3/classifier_plantvillage_loss3/classifier_plantvillage_0_split -> loss3/classifier_plantvillage_loss3/classifier_plantvillage_0_split_1
I0403 13:45:35.791384   317 net.cpp:399] loss3/classifier_plantvillage_loss3/classifier_plantvillage_0_split -> loss3/classifier_plantvillage_loss3/classifier_plantvillage_0_split_2
I0403 13:45:35.791405   317 net.cpp:399] loss3/classifier_plantvillage_loss3/classifier_plantvillage_0_split -> loss3/classifier_plantvillage_loss3/classifier_plantvillage_0_split_3
I0403 13:45:35.791519   317 net.cpp:141] Setting up loss3/classifier_plantvillage_loss3/classifier_plantvillage_0_split
I0403 13:45:35.791544   317 net.cpp:148] Top shape: 24 38 (912)
I0403 13:45:35.791561   317 net.cpp:148] Top shape: 24 38 (912)
I0403 13:45:35.791579   317 net.cpp:148] Top shape: 24 38 (912)
I0403 13:45:35.791595   317 net.cpp:148] Top shape: 24 38 (912)
I0403 13:45:35.791610   317 net.cpp:156] Memory required for data: 1346079072
I0403 13:45:35.791625   317 layer_factory.hpp:77] Creating layer loss1/loss
I0403 13:45:35.791649   317 net.cpp:91] Creating Layer loss1/loss
I0403 13:45:35.791668   317 net.cpp:425] loss1/loss <- loss1/classifier_plantvillage_loss1/classifier_plantvillage_0_split_0
I0403 13:45:35.791702   317 net.cpp:425] loss1/loss <- label_data_1_split_0
…
