…
I0403 14:46:47.945071  1955 net.cpp:313] The NetState phase (1) differed from the phase (0) specified by a rule in layer data
I0403 14:46:47.946250  1955 net.cpp:49] Initializing net from parameters: 
state {
  phase: TEST
}
layer {
  name: "data"
  type: "Data"
  top: "data"
  top: "label"
  include {
    phase: TEST
  }
  transform_param {
    mirror: false
    crop_size: 224
    mean_file: "/home/mohanty/data/final_dataset/lmdb/grayscale-20-80/mean.binaryproto"
  }
  data_param {
    source: "/home/mohanty/data/final_dataset/lmdb/grayscale-20-80/test_db"
    batch_size: 24
    backend: LMDB
  }
}
layer {
  name: "conv1/7x7_s2"
  type: "Convolution"
  bottom: "data"
  top: "conv1/7x7_s2"
  param {
    lr_mult: 1
    decay_mult: 1
  }
  param {
    lr_mult: 2
    decay_mult: 0
  }
  convolution_param {
    num_output: 64
    pad: 3
    kernel_size: 7
    stride: 2
    weight_filler {
      type: "xavier"
      std: 0.1
    }
    bias_filler {
      type: "constant"
      value: 0.2
    }
  }
}
layer {
  name: "conv1/relu_7x7"
  type: "ReLU"
  bottom: "conv1/7x7_s2"
  top: "conv1/7x7_s2"
}
layer {
  name: "pool1/3x3_s2"
  type: "Pooling"
  bottom: "conv1/7x7_s2"
  top: "pool1/3x3_s2"
  pooling_param {
    pool: MAX
    kernel_size: 3
    stride: 2
  }
}
layer {
  name: "pool1/norm1"
  type: "LRN"
  bottom: "pool1/3x3_s2"
  top: "pool1/norm1"
  lrn_param {
    local_size: 5
    alpha: 0.0001
    beta: 0.75
  }
}
layer {
  name: "conv2/3x3_reduce"
  type: "Convolution"
  bottom: "pool1/norm1"
  top: "conv2/3x3_reduce"
  param {
    lr_mult: 1
    decay_mult: 1
  }
  param {
    lr_mult: 2
    decay_mult: 0
  }
  convolution_param {
    num_output: 64
    kernel_size: 1
    weight_filler {
      type: "xavier"
      std: 0.1
    }
    bias_filler {
      type: "constant"
      value: 0.2
    }
  }
}
layer {
  name: "conv2/relu_3x3_reduce"
  type: "ReLU"
  bottom: "conv2/3x3_reduce"
  top: "conv2/3x3_reduce"
}
layer {
  name: "conv2/3x3"
  type: "Convolution"
  bottom: "conv2/3x3_reduce"
  top: "conv2/3x3"
  param {
    lr_mult: 1
    decay_mult: 1
  }
  param {
    lr_mult: 2
    decay_mult: 0
  }
  convolution_param {
    num_output: 192
    pad: 1
    kernel_size: 3
    weight_filler {
      type: "xavier"
      std: 0.03
    }
    bias_filler {
      type: "constant"
      value: 0.2
    }
  }
}
layer {
  name: "conv2/relu_3x3"
  type: "ReLU"
  bottom: "conv2/3x3"
  top: "conv2/3x3"
}
layer {
  name: "conv2/norm2"
  type: "LRN"
  bottom: "conv2/3x3"
  top: "conv2/norm2"
  lrn_param {
    local_size: 5
    alpha: 0.0001
    beta: 0.75
  }
}
layer {
  name: "pool2/3x3_s2"
  type: "Pooling"
  bottom: "conv2/norm2"
  top: "pool2/3x3_s2"
  pooling_param {
    pool: MAX
    kernel_size: 3
    stride: 2
  }
}
layer {
  name: "inception_3a/1x1"
  type: "Convolution"
  bottom: "pool2/3x3_s2"
  top: "inception_3a/1x1"
  param {
    lr_mult: 1
    decay_mult: 1
  }
  param {
    lr_mult: 2
    decay_mult: 0
  }
  convolution_param {
    num_output: 64
    kernel_size: 1
    weight_filler {
      type: "xavier"
      std: 0.03
    }
    bias_filler {
      type: "constant"
      value: 0.2
    }
  }
}
layer {
  name: "inception_3a/relu_1x1"
  type: "ReLU"
  bottom: "inception_3a/1x1"
  top: "inception_3a/1x1"
}
layer {
  name: "inception_3a/3x3_reduce"
  type: "Convolution"
  bottom: "pool2/3x3_s2"
  top: "inception_3a/3x3_reduce"
  param {
    lr_mult: 1
    decay_mult: 1
  }
  param {
    lr_mult: 2
    decay_mult: 0
  }
  convolution_param {
    num_output: 96
    kernel_size: 1
    weight_filler {
      type: "xavier"
      std: 0.09
    }
    bias_filler {
      type: "constant"
      value: 0.2
    }
  }
}
layer {
  name: "inception_3a/relu_3x3_reduce"
  type: "ReLU"
  bottom: "inception_3a/3x3_reduce"
  top: "inception_3a/3x3_reduce"
}
layer {
  name: "inception_3a/3x3"
  type: "Convolution"
  bottom: "inception_3a/3x3_reduce"
  top: "inception_3a/3x3"
  param {
    lr_mult: 1
    decay_mult: 1
  }
  param {
    lr_mult: 2
    decay_mult: 0
  }
  convolution_param {
    num_output: 128
    pad: 1
    kernel_size: 3
    weight_filler {
      type: "xavier"
      std: 0.03
    }
    bias_filler {
      type: "constant"
      value: 0.2
    }
  }
}
layer {
  name: "inception_3a/relu_3x3"
  type: "ReLU"
  bottom: "inception_3a/3x3"
  top: "inception_3a/3x3"
}
layer {
  name: "inception_3a/5x5_reduce"
  type: "Convolution"
  bottom: "pool2/3x3_s2"
  top: "inception_3a/5x5_reduce"
  param {
    lr_mult: 1
    decay_mult: 1
  }
  param {
    lr_mult: 2
    decay_mult: 0
  }
  convolution_param {
    num_output: 16
    kernel_size: 1
    weight_filler {
      type: "xavier"
      std: 0.2
    }
    bias_filler {
      type: "constant"
      value: 0.2
    }
  }
}
layer {
  name: "inception_3a/relu_5x5_reduce"
  type: "ReLU"
  bottom: "inception_3a/5x5_reduce"
  top: "inception_3a/5x5_reduce"
}
layer {
  name: "inception_3a/5x5"
  type: "Convolution"
  bottom: "inception_3a/5x5_reduce"
  top: "inception_3a/5x5"
  param {
    lr_mult: 1
    decay_mult: 1
  }
  param {
    lr_mult: 2
    decay_mult: 0
  }
  convolution_param {
    num_output: 32
    pad: 2
    kernel_size: 5
    weight_filler {
      type: "xavier"
      std: 0.03
    }
    bias_filler {
      type: "constant"
      value: 0.2
    }
  }
}
layer {
  name: "inception_3a/relu_5x5"
  type: "ReLU"
  bottom: "inception_3a/5x5"
  top: "inception_3a/5x5"
}
layer {
  name: "inception_3a/pool"
  type: "Pooling"
  bottom: "pool2/3x3_s2"
  top: "inception_3a/pool"
  pooling_param {
    pool: MAX
    kernel_size: 3
    stride: 1
    pad: 1
  }
}
layer {
  name: "inception_3a/pool_proj"
  type: "Convolution"
  bottom: "inception_3a/pool"
  top: "inception_3a/pool_proj"
  param {
    lr_mult: 1
    decay_mult: 1
  }
  param {
    lr_mult: 2
    decay_mult: 0
  }
  convolution_param {
    num_output: 32
    kernel_size: 1
    weight_filler {
      type: "xavier"
      std: 0.1
    }
    bias_filler {
      type: "constant"
      value: 0.2
    }
  }
}
layer {
  name: "inception_3a/relu_pool_proj"
  type: "ReLU"
  bottom: "inception_3a/pool_proj"
  top: "inception_3a/pool_proj"
}
layer {
  name: "inception_3a/output"
  type: "Concat"
  bottom: "inception_3a/1x1"
  bottom: "inception_3a/3x3"
  bottom: "inception_3a/5x5"
  bottom: "inception_3a/pool_proj"
  top: "inception_3a/output"
}
layer {
  name: "inception_3b/1x1"
  type: "Convolution"
  bottom: "inception_3a/output"
  top: "inception_3b/1x1"
  param {
    lr_mult: 1
    decay_mult: 1
  }
  param {
    lr_mult: 2
    decay_mult: 0
  }
  convolution_param {
    num_output: 128
    kernel_size: 1
    weight_filler {
      type: "xavier"
      std: 0.03
    }
    bias_filler {
      type: "constant"
      value: 0.2
    }
  }
}
layer {
  name: "inception_3b/relu_1x1"
  type: "ReLU"
  bottom: "inception_3b/1x1"
  top: "inception_3b/1x1"
}
layer {
  name: "inception_3b/3x3_reduce"
  type: "Convolution"
  bottom: "inception_3a/output"
  top: "inception_3b/3x3_reduce"
  param {
    lr_mult: 1
    decay_mult: 1
  }
  param {
    lr_mult: 2
    decay_mult: 0
  }
  convolution_param {
    num_output: 128
    kernel_size: 1
    weight_filler {
      type: "xavier"
      std: 0.09
    }
    bias_filler {
      type: "constant"
      value: 0.2
    }
  }
}
layer {
  name: "inception_3b/relu_3x3_reduce"
  type: "ReLU"
  bottom: "inception_3b/3x3_reduce"
  top: "inception_3b/3x3_reduce"
}
layer {
  name: "inception_3b/3x3"
  type: "Convolution"
  bottom: "inception_3b/3x3_reduce"
  top: "inception_3b/3x3"
  param {
    lr_mult: 1
    decay_mult: 1
  }
  param {
    lr_mult: 2
    decay_mult: 0
  }
  convolution_param {
    num_output: 192
    pad: 1
    kernel_size: 3
    weight_filler {
      type: "xavier"
      std: 0.03
    }
    bias_filler {
      type: "constant"
      value: 0.2
    }
  }
}
layer {
  name: "inception_3b/relu_3x3"
  type: "ReLU"
  bottom: "inception_3b/3x3"
  top: "inception_3b/3x3"
}
layer {
  name: "inception_3b/5x5_reduce"
  type: "Convolution"
  bottom: "inception_3a/output"
  top: "inception_3b/5x5_reduce"
  param {
    lr_mult: 1
    decay_mult: 1
  }
  param {
    lr_mult: 2
    decay_mult: 0
  }
  convolution_param {
    num_output: 32
    kernel_size: 1
    weight_filler {
      type: "xavier"
      std: 0.2
    }
    bias_filler {
      type: "constant"
      value: 0.2
    }
  }
}
layer {
  name: "inception_3b/relu_5x5_reduce"
  type: "ReLU"
  bottom: "inception_3b/5x5_reduce"
  top: "inception_3b/5x5_reduce"
}
layer {
  name: "inception_3b/5x5"
  type: "Convolution"
  bottom: "inception_3b/5x5_reduce"
  top: "inception_3b/5x5"
  param {
    lr_mult: 1
    decay_mult: 1
  }
  param {
    lr_mult: 2
    decay_mult: 0
  }
  convolution_param {
    num_output: 96
    pad: 2
    kernel_size: 5
    weight_filler {
      type: "xavier"
      std: 0.03
    }
    bias_filler {
      type: "constant"
      value: 0.2
    }
  }
}
layer {
  name: "inception_3b/relu_5x5"
  type: "ReLU"
  bottom: "inception_3b/5x5"
  top: "inception_3b/5x5"
}
layer {
  name: "inception_3b/pool"
  type: "Pooling"
  bottom: "inception_3a/output"
  top: "inception_3b/pool"
  pooling_param {
    pool: MAX
    kernel_size: 3
    stride: 1
    pad: 1
  }
}
layer {
  name: "inception_3b/pool_proj"
  type: "Convolution"
  bottom: "inception_3b/pool"
  top: "inception_3b/pool_proj"
  param {
    lr_mult: 1
    decay_mult: 1
  }
  param {
    lr_mult: 2
    decay_mult: 0
  }
  convolution_param {
    num_output: 64
    kernel_size: 1
    weight_filler {
      type: "xavier"
      std: 0.1
    }
    bias_filler {
      type: "constant"
      value: 0.2
    }
  }
}
layer {
  name: "inception_3b/relu_pool_proj"
  type: "ReLU"
  bottom: "inception_3b/pool_proj"
  top: "inception_3b/pool_proj"
}
layer {
  name: "inception_3b/output"
  type: "Concat"
  bottom: "inception_3b/1x1"
  bottom: "inception_3b/3x3"
  bottom: "inception_3b/5x5"
  bottom: "inception_3b/pool_proj"
  top: "inception_3b/output"
}
layer {
  name: "pool3/3x3_s2"
  type: "Pooling"
  bottom: "inception_3b/output"
  top: "pool3/3x3_s2"
  pooling_param {
    pool: MAX
    kernel_size: 3
    stride: 2
  }
}
layer {
  name: "inception_4a/1x1"
  type: "Convolution"
  bottom: "pool3/3x3_s2"
  top: "inception_4a/1x1"
  param {
    lr_mult: 1
    decay_mult: 1
  }
  param {
    lr_mult: 2
    decay_mult: 0
  }
  convolution_param {
    num_output: 192
    kernel_size: 1
    weight_filler {
      type: "xavier"
      std: 0.03
    }
    bias_filler {
      type: "constant"
      value: 0.2
    }
  }
}
layer {
  name: "inception_4a/relu_1x1"
  type: "ReLU"
  bottom: "inception_4a/1x1"
  top: "inception_4a/1x1"
}
layer {
  name: "inception_4a/3x3_reduce"
  type: "Convolution"
  bottom: "pool3/3x3_s2"
  top: "inception_4a/3x3_reduce"
  param {
    lr_mult: 1
    decay_mult: 1
  }
  param {
    lr_mult: 2
    decay_mult: 0
  }
  convolution_param {
    num_output: 96
    kernel_size: 1
    weight_filler {
      type: "xavier"
      std: 0.09
    }
    bias_filler {
      type: "constant"
      value: 0.2
    }
  }
}
layer {
  name: "inception_4a/relu_3x3_reduce"
  type: "ReLU"
  bottom: "inception_4a/3x3_reduce"
  top: "inception_4a/3x3_reduce"
}
layer {
  name: "inception_4a/3x3"
  type: "Convolution"
  bottom: "inception_4a/3x3_reduce"
  top: "inception_4a/3x3"
  param {
    lr_mult: 1
    decay_mult: 1
  }
  param {
    lr_mult: 2
    decay_mult: 0
  }
  convolution_param {
    num_output: 208
    pad: 1
    kernel_size: 3
    weight_filler {
      type: "xavier"
      std: 0.03
    }
    bias_filler {
      type: "constant"
      value: 0.2
    }
  }
}
layer {
  name: "inception_4a/relu_3x3"
  type: "ReLU"
  bottom: "inception_4a/3x3"
  top: "inception_4a/3x3"
}
layer {
  name: "inception_4a/5x5_reduce"
  type: "Convolution"
  bottom: "pool3/3x3_s2"
  top: "inception_4a/5x5_reduce"
  param {
    lr_mult: 1
    decay_mult: 1
  }
  param {
    lr_mult: 2
    decay_mult: 0
  }
  convolution_param {
    num_output: 16
    kernel_size: 1
    weight_filler {
      type: "xavier"
      std: 0.2
    }
    bias_filler {
      type: "constant"
      value: 0.2
    }
  }
}
layer {
  name: "inception_4a/relu_5x5_reduce"
  type: "ReLU"
  bottom: "inception_4a/5x5_reduce"
  top: "inception_4a/5x5_reduce"
}
layer {
  name: "inception_4a/5x5"
  type: "Convolution"
  bottom: "inception_4a/5x5_reduce"
  top: "inception_4a/5x5"
  param {
    lr_mult: 1
    decay_mult: 1
  }
  param {
    lr_mult: 2
    decay_mult: 0
  }
  convolution_param {
    num_output: 48
    pad: 2
    kernel_size: 5
    weight_filler {
      type: "xavier"
      std: 0.03
    }
    bias_filler {
      type: "constant"
      value: 0.2
    }
  }
}
layer {
  name: "inception_4a/relu_5x5"
  type: "ReLU"
  bottom: "inception_4a/5x5"
  top: "inception_4a/5x5"
}
layer {
  name: "inception_4a/pool"
  type: "Pooling"
  bottom: "pool3/3x3_s2"
  top: "inception_4a/pool"
  pooling_param {
    pool: MAX
    kernel_size: 3
    stride: 1
    pad: 1
  }
}
layer {
  name: "inception_4a/pool_proj"
  type: "Convolution"
  bottom: "inception_4a/pool"
  top: "inception_4a/pool_proj"
  param {
    lr_mult: 1
    decay_mult: 1
  }
  param {
    lr_mult: 2
    decay_mult: 0
  }
  convolution_param {
    num_output: 64
    kernel_size: 1
    weight_filler {
      type: "xavier"
      std: 0.1
    }
    bias_filler {
      type: "constant"
      value: 0.2
    }
  }
}
layer {
  name: "inception_4a/relu_pool_proj"
  type: "ReLU"
  bottom: "inception_4a/pool_proj"
  top: "inception_4a/pool_proj"
}
layer {
  name: "inception_4a/output"
  type: "Concat"
  bottom: "inception_4a/1x1"
  bottom: "inception_4a/3x3"
  bottom: "inception_4a/5x5"
  bottom: "inception_4a/pool_proj"
  top: "inception_4a/output"
}
layer {
  name: "loss1/ave_pool"
  type: "Pooling"
  bottom: "inception_4a/output"
  top: "loss1/ave_pool"
  pooling_param {
    pool: AVE
    kernel_size: 5
    stride: 3
  }
}
layer {
  name: "loss1/conv"
  type: "Convolution"
  bottom: "loss1/ave_pool"
  top: "loss1/conv"
  param {
    lr_mult: 1
    decay_mult: 1
  }
  param {
    lr_mult: 2
    decay_mult: 0
  }
  convolution_param {
    num_output: 128
    kernel_size: 1
    weight_filler {
      type: "xavier"
      std: 0.08
    }
    bias_filler {
      type: "constant"
      value: 0.2
    }
  }
}
layer {
  name: "loss1/relu_conv"
  type: "ReLU"
  bottom: "loss1/conv"
  top: "loss1/conv"
}
layer {
  name: "loss1/fc"
  type: "InnerProduct"
  bottom: "loss1/conv"
  top: "loss1/fc"
  param {
    lr_mult: 1
    decay_mult: 1
  }
  param {
    lr_mult: 2
    decay_mult: 0
  }
  inner_product_param {
    num_output: 1024
    weight_filler {
      type: "xavier"
      std: 0.02
    }
    bias_filler {
      type: "constant"
      value: 0.2
    }
  }
}
layer {
  name: "loss1/relu_fc"
  type: "ReLU"
  bottom: "loss1/fc"
  top: "loss1/fc"
}
layer {
  name: "loss1/drop_fc"
  type: "Dropout"
  bottom: "loss1/fc"
  top: "loss1/fc"
  dropout_param {
    dropout_ratio: 0.7
  }
}
layer {
  name: "loss1/classifier_plantvillage"
  type: "InnerProduct"
  bottom: "loss1/fc"
  top: "loss1/classifier_plantvillage"
  param {
    lr_mult: 1
    decay_mult: 1
  }
  param {
    lr_mult: 2
    decay_mult: 0
  }
  inner_product_param {
    num_output: 38
    weight_filler {
      type: "xavier"
      std: 0.0009765625
    }
    bias_filler {
      type: "constant"
      value: 0
    }
  }
}
layer {
  name: "inception_4b/1x1"
  type: "Convolution"
  bottom: "inception_4a/output"
  top: "inception_4b/1x1"
  param {
    lr_mult: 1
    decay_mult: 1
  }
  param {
    lr_mult: 2
    decay_mult: 0
  }
  convolution_param {
    num_output: 160
    kernel_size: 1
    weight_filler {
      type: "xavier"
      std: 0.03
    }
    bias_filler {
      type: "constant"
      value: 0.2
    }
  }
}
layer {
  name: "inception_4b/relu_1x1"
  type: "ReLU"
  bottom: "inception_4b/1x1"
  top: "inception_4b/1x1"
}
layer {
  name: "inception_4b/3x3_reduce"
  type: "Convolution"
  bottom: "inception_4a/output"
  top: "inception_4b/3x3_reduce"
  param {
    lr_mult: 1
    decay_mult: 1
  }
  param {
    lr_mult: 2
    decay_mult: 0
  }
  convolution_param {
    num_output: 112
    kernel_size: 1
    weight_filler {
      type: "xavier"
      std: 0.09
    }
    bias_filler {
      type: "constant"
      value: 0.2
    }
  }
}
layer {
  name: "inception_4b/relu_3x3_reduce"
  type: "ReLU"
  bottom: "inception_4b/3x3_reduce"
  top: "inception_4b/3x3_reduce"
}
layer {
  name: "inception_4b/3x3"
  type: "Convolution"
  bottom: "inception_4b/3x3_reduce"
  top: "inception_4b/3x3"
  param {
    lr_mult: 1
    decay_mult: 1
  }
  param {
    lr_mult: 2
    decay_mult: 0
  }
  convolution_param {
    num_output: 224
    pad: 1
    kernel_size: 3
    weight_filler {
      type: "xavier"
      std: 0.03
    }
    bias_filler {
      type: "constant"
      value: 0.2
    }
  }
}
layer {
  name: "inception_4b/relu_3x3"
  type: "ReLU"
  bottom: "inception_4b/3x3"
  top: "inception_4b/3x3"
}
layer {
  name: "inception_4b/5x5_reduce"
  type: "Convolution"
  bottom: "inception_4a/output"
  top: "inception_4b/5x5_reduce"
  param {
    lr_mult: 1
    decay_mult: 1
  }
  param {
    lr_mult: 2
    decay_mult: 0
  }
  convolution_param {
    num_output: 24
    kernel_size: 1
    weight_filler {
      type: "xavier"
      std: 0.2
    }
    bias_filler {
      type: "constant"
      value: 0.2
    }
  }
}
layer {
  name: "inception_4b/relu_5x5_reduce"
  type: "ReLU"
  bottom: "inception_4b/5x5_reduce"
  top: "inception_4b/5x5_reduce"
}
layer {
  name: "inception_4b/5x5"
  type: "Convolution"
  bottom: "inception_4b/5x5_reduce"
  top: "inception_4b/5x5"
  param {
    lr_mult: 1
    decay_mult: 1
  }
  param {
    lr_mult: 2
    decay_mult: 0
  }
  convolution_param {
    num_output: 64
    pad: 2
    kernel_size: 5
    weight_filler {
      type: "xavier"
      std: 0.03
    }
    bias_filler {
      type: "constant"
      value: 0.2
    }
  }
}
layer {
  name: "inception_4b/relu_5x5"
  type: "ReLU"
  bottom: "inception_4b/5x5"
  top: "inception_4b/5x5"
}
layer {
  name: "inception_4b/pool"
  type: "Pooling"
  bottom: "inception_4a/output"
  top: "inception_4b/pool"
  pooling_param {
    pool: MAX
    kernel_size: 3
    stride: 1
    pad: 1
  }
}
layer {
  name: "inception_4b/pool_proj"
  type: "Convolution"
  bottom: "inception_4b/pool"
  top: "inception_4b/pool_proj"
  param {
    lr_mult: 1
    decay_mult: 1
  }
  param {
    lr_mult: 2
    decay_mult: 0
  }
  convolution_param {
    num_output: 64
    kernel_size: 1
    weight_filler {
      type: "xavier"
      std: 0.1
    }
    bias_filler {
      type: "constant"
      value: 0.2
    }
  }
}
layer {
  name: "inception_4b/relu_pool_proj"
  type: "ReLU"
  bottom: "inception_4b/pool_proj"
  top: "inception_4b/pool_proj"
}
layer {
  name: "inception_4b/output"
  type: "Concat"
  bottom: "inception_4b/1x1"
  bottom: "inception_4b/3x3"
  bottom: "inception_4b/5x5"
  bottom: "inception_4b/pool_proj"
  top: "inception_4b/output"
}
layer {
  name: "inception_4c/1x1"
  type: "Convolution"
  bottom: "inception_4b/output"
  top: "inception_4c/1x1"
  param {
    lr_mult: 1
    decay_mult: 1
  }
  param {
    lr_mult: 2
    decay_mult: 0
  }
  convolution_param {
    num_output: 128
    kernel_size: 1
    weight_filler {
      type: "xavier"
      std: 0.03
    }
    bias_filler {
      type: "constant"
      value: 0.2
    }
  }
}
layer {
  name: "inception_4c/relu_1x1"
  type: "ReLU"
  bottom: "inception_4c/1x1"
  top: "inception_4c/1x1"
}
layer {
  name: "inception_4c/3x3_reduce"
  type: "Convolution"
  bottom: "inception_4b/output"
  top: "inception_4c/3x3_reduce"
  param {
    lr_mult: 1
    decay_mult: 1
  }
  param {
    lr_mult: 2
    decay_mult: 0
  }
  convolution_param {
    num_output: 128
    kernel_size: 1
    weight_filler {
      type: "xavier"
      std: 0.09
    }
    bias_filler {
      type: "constant"
      value: 0.2
    }
  }
}
layer {
  name: "inception_4c/relu_3x3_reduce"
  type: "ReLU"
  bottom: "inception_4c/3x3_reduce"
  top: "inception_4c/3x3_reduce"
}
layer {
  name: "inception_4c/3x3"
  type: "Convolution"
  bottom: "inception_4c/3x3_reduce"
  top: "inception_4c/3x3"
  param {
    lr_mult: 1
    decay_mult: 1
  }
  param {
    lr_mult: 2
    decay_mult: 0
  }
  convolution_param {
    num_output: 256
    pad: 1
    kernel_size: 3
    weight_filler {
      type: "xavier"
      std: 0.03
    }
    bias_filler {
      type: "constant"
      value: 0.2
    }
  }
}
layer {
  name: "inception_4c/relu_3x3"
  type: "ReLU"
  bottom: "inception_4c/3x3"
  top: "inception_4c/3x3"
}
layer {
  name: "inception_4c/5x5_reduce"
  type: "Convolution"
  bottom: "inception_4b/output"
  top: "inception_4c/5x5_reduce"
  param {
    lr_mult: 1
    decay_mult: 1
  }
  param {
    lr_mult: 2
    decay_mult: 0
  }
  convolution_param {
    num_output: 24
    kernel_size: 1
    weight_filler {
      type: "xavier"
      std: 0.2
    }
    bias_filler {
      type: "constant"
      value: 0.2
    }
  }
}
layer {
  name: "inception_4c/relu_5x5_reduce"
  type: "ReLU"
  bottom: "inception_4c/5x5_reduce"
  top: "inception_4c/5x5_reduce"
}
layer {
  name: "inception_4c/5x5"
  type: "Convolution"
  bottom: "inception_4c/5x5_reduce"
  top: "inception_4c/5x5"
  param {
    lr_mult: 1
    decay_mult: 1
  }
  param {
    lr_mult: 2
    decay_mult: 0
  }
  convolution_param {
    num_output: 64
    pad: 2
    kernel_size: 5
    weight_filler {
      type: "xavier"
      std: 0.03
    }
    bias_filler {
      type: "constant"
      value: 0.2
    }
  }
}
layer {
  name: "inception_4c/relu_5x5"
  type: "ReLU"
  bottom: "inception_4c/5x5"
  top: "inception_4c/5x5"
}
layer {
  name: "inception_4c/pool"
  type: "Pooling"
  bottom: "inception_4b/output"
  top: "inception_4c/pool"
  pooling_param {
    pool: MAX
    kernel_size: 3
    stride: 1
    pad: 1
  }
}
layer {
  name: "inception_4c/pool_proj"
  type: "Convolution"
  bottom: "inception_4c/pool"
  top: "inception_4c/pool_proj"
  param {
    lr_mult: 1
    decay_mult: 1
  }
  param {
    lr_mult: 2
    decay_mult: 0
  }
  convolution_param {
    num_output: 64
    kernel_size: 1
    weight_filler {
      type: "xavier"
      std: 0.1
    }
    bias_filler {
      type: "constant"
      value: 0.2
    }
  }
}
layer {
  name: "inception_4c/relu_pool_proj"
  type: "ReLU"
  bottom: "inception_4c/pool_proj"
  top: "inception_4c/pool_proj"
}
layer {
  name: "inception_4c/output"
  type: "Concat"
  bottom: "inception_4c/1x1"
  bottom: "inception_4c/3x3"
  bottom: "inception_4c/5x5"
  bottom: "inception_4c/pool_proj"
  top: "inception_4c/output"
}
layer {
  name: "inception_4d/1x1"
  type: "Convolution"
  bottom: "inception_4c/output"
  top: "inception_4d/1x1"
  param {
    lr_mult: 1
    decay_mult: 1
  }
  param {
    lr_mult: 2
    decay_mult: 0
  }
  convolution_param {
    num_output: 112
    kernel_size: 1
    weight_filler {
      type: "xavier"
      std: 0.03
    }
    bias_filler {
      type: "constant"
      value: 0.2
    }
  }
}
layer {
  name: "inception_4d/relu_1x1"
  type: "ReLU"
  bottom: "inception_4d/1x1"
  top: "inception_4d/1x1"
}
layer {
  name: "inception_4d/3x3_reduce"
  type: "Convolution"
  bottom: "inception_4c/output"
  top: "inception_4d/3x3_reduce"
  param {
    lr_mult: 1
    decay_mult: 1
  }
  param {
    lr_mult: 2
    decay_mult: 0
  }
  convolution_param {
    num_output: 144
    kernel_size: 1
    weight_filler {
      type: "xavier"
      std: 0.09
    }
    bias_filler {
      type: "constant"
      value: 0.2
    }
  }
}
layer {
  name: "inception_4d/relu_3x3_reduce"
  type: "ReLU"
  bottom: "inception_4d/3x3_reduce"
  top: "inception_4d/3x3_reduce"
}
layer {
  name: "inception_4d/3x3"
  type: "Convolution"
  bottom: "inception_4d/3x3_reduce"
  top: "inception_4d/3x3"
  param {
    lr_mult: 1
    decay_mult: 1
  }
  param {
    lr_mult: 2
    decay_mult: 0
  }
  convolution_param {
    num_output: 288
    pad: 1
    kernel_size: 3
    weight_filler {
      type: "xavier"
      std: 0.03
    }
    bias_filler {
      type: "constant"
      value: 0.2
    }
  }
}
layer {
  name: "inception_4d/relu_3x3"
  type: "ReLU"
  bottom: "inception_4d/3x3"
  top: "inception_4d/3x3"
}
layer {
  name: "inception_4d/5x5_reduce"
  type: "Convolution"
  bottom: "inception_4c/output"
  top: "inception_4d/5x5_reduce"
  param {
    lr_mult: 1
    decay_mult: 1
  }
  param {
    lr_mult: 2
    decay_mult: 0
  }
  convolution_param {
    num_output: 32
    kernel_size: 1
    weight_filler {
      type: "xavier"
      std: 0.2
    }
    bias_filler {
      type: "constant"
      value: 0.2
    }
  }
}
layer {
  name: "inception_4d/relu_5x5_reduce"
  type: "ReLU"
  bottom: "inception_4d/5x5_reduce"
  top: "inception_4d/5x5_reduce"
}
layer {
  name: "inception_4d/5x5"
  type: "Convolution"
  bottom: "inception_4d/5x5_reduce"
  top: "inception_4d/5x5"
  param {
    lr_mult: 1
    decay_mult: 1
  }
  param {
    lr_mult: 2
    decay_mult: 0
  }
  convolution_param {
    num_output: 64
    pad: 2
    kernel_size: 5
    weight_filler {
      type: "xavier"
      std: 0.03
    }
    bias_filler {
      type: "constant"
      value: 0.2
    }
  }
}
layer {
  name: "inception_4d/relu_5x5"
  type: "ReLU"
  bottom: "inception_4d/5x5"
  top: "inception_4d/5x5"
}
layer {
  name: "inception_4d/pool"
  type: "Pooling"
  bottom: "inception_4c/output"
  top: "inception_4d/pool"
  pooling_param {
    pool: MAX
    kernel_size: 3
    stride: 1
    pad: 1
  }
}
layer {
  name: "inception_4d/pool_proj"
  type: "Convolution"
  bottom: "inception_4d/pool"
  top: "inception_4d/pool_proj"
  param {
    lr_mult: 1
    decay_mult: 1
  }
  param {
    lr_mult: 2
    decay_mult: 0
  }
  convolution_param {
    num_output: 64
    kernel_size: 1
    weight_filler {
      type: "xavier"
      std: 0.1
    }
    bias_filler {
      type: "constant"
      value: 0.2
    }
  }
}
layer {
  name: "inception_4d/relu_pool_proj"
  type: "ReLU"
  bottom: "inception_4d/pool_proj"
  top: "inception_4d/pool_proj"
}
layer {
  name: "inception_4d/output"
  type: "Concat"
  bottom: "inception_4d/1x1"
  bottom: "inception_4d/3x3"
  bottom: "inception_4d/5x5"
  bottom: "inception_4d/pool_proj"
  top: "inception_4d/output"
}
layer {
  name: "loss2/ave_pool"
  type: "Pooling"
  bottom: "inception_4d/output"
  top: "loss2/ave_pool"
  pooling_param {
    pool: AVE
    kernel_size: 5
    stride: 3
  }
}
layer {
  name: "loss2/conv"
  type: "Convolution"
  bottom: "loss2/ave_pool"
  top: "loss2/conv"
  param {
    lr_mult: 1
    decay_mult: 1
  }
  param {
    lr_mult: 2
    decay_mult: 0
  }
  convolution_param {
    num_output: 128
    kernel_size: 1
    weight_filler {
      type: "xavier"
      std: 0.08
    }
    bias_filler {
      type: "constant"
      value: 0.2
    }
  }
}
layer {
  name: "loss2/relu_conv"
  type: "ReLU"
  bottom: "loss2/conv"
  top: "loss2/conv"
}
layer {
  name: "loss2/fc"
  type: "InnerProduct"
  bottom: "loss2/conv"
  top: "loss2/fc"
  param {
    lr_mult: 1
    decay_mult: 1
  }
  param {
    lr_mult: 2
    decay_mult: 0
  }
  inner_product_param {
    num_output: 1024
    weight_filler {
      type: "xavier"
      std: 0.02
    }
    bias_filler {
      type: "constant"
      value: 0.2
    }
  }
}
layer {
  name: "loss2/relu_fc"
  type: "ReLU"
  bottom: "loss2/fc"
  top: "loss2/fc"
}
layer {
  name: "loss2/drop_fc"
  type: "Dropout"
  bottom: "loss2/fc"
  top: "loss2/fc"
  dropout_param {
    dropout_ratio: 0.7
  }
}
layer {
  name: "loss2/classifier_plantvillage"
  type: "InnerProduct"
  bottom: "loss2/fc"
  top: "loss2/classifier_plantvillage"
  param {
    lr_mult: 1
    decay_mult: 1
  }
  param {
    lr_mult: 2
    decay_mult: 0
  }
  inner_product_param {
    num_output: 38
    weight_filler {
      type: "xavier"
      std: 0.0009765625
    }
    bias_filler {
      type: "constant"
      value: 0
    }
  }
}
layer {
  name: "inception_4e/1x1"
  type: "Convolution"
  bottom: "inception_4d/output"
  top: "inception_4e/1x1"
  param {
    lr_mult: 1
    decay_mult: 1
  }
  param {
    lr_mult: 2
    decay_mult: 0
  }
  convolution_param {
    num_output: 256
    kernel_size: 1
    weight_filler {
      type: "xavier"
      std: 0.03
    }
    bias_filler {
      type: "constant"
      value: 0.2
    }
  }
}
layer {
  name: "inception_4e/relu_1x1"
  type: "ReLU"
  bottom: "inception_4e/1x1"
  top: "inception_4e/1x1"
}
layer {
  name: "inception_4e/3x3_reduce"
  type: "Convolution"
  bottom: "inception_4d/output"
  top: "inception_4e/3x3_reduce"
  param {
    lr_mult: 1
    decay_mult: 1
  }
  param {
    lr_mult: 2
    decay_mult: 0
  }
  convolution_param {
    num_output: 160
    kernel_size: 1
    weight_filler {
      type: "xavier"
      std: 0.09
    }
    bias_filler {
      type: "constant"
      value: 0.2
    }
  }
}
layer {
  name: "inception_4e/relu_3x3_reduce"
  type: "ReLU"
  bottom: "inception_4e/3x3_reduce"
  top: "inception_4e/3x3_reduce"
}
layer {
  name: "inception_4e/3x3"
  type: "Convolution"
  bottom: "inception_4e/3x3_reduce"
  top: "inception_4e/3x3"
  param {
    lr_mult: 1
    decay_mult: 1
  }
  param {
    lr_mult: 2
    decay_mult: 0
  }
  convolution_param {
    num_output: 320
    pad: 1
    kernel_size: 3
    weight_filler {
      type: "xavier"
      std: 0.03
    }
    bias_filler {
      type: "constant"
      value: 0.2
    }
  }
}
layer {
  name: "inception_4e/relu_3x3"
  type: "ReLU"
  bottom: "inception_4e/3x3"
  top: "inception_4e/3x3"
}
layer {
  name: "inception_4e/5x5_reduce"
  type: "Convolution"
  bottom: "inception_4d/output"
  top: "inception_4e/5x5_reduce"
  param {
    lr_mult: 1
    decay_mult: 1
  }
  param {
    lr_mult: 2
    decay_mult: 0
  }
  convolution_param {
    num_output: 32
    kernel_size: 1
    weight_filler {
      type: "xavier"
      std: 0.2
    }
    bias_filler {
      type: "constant"
      value: 0.2
    }
  }
}
layer {
  name: "inception_4e/relu_5x5_reduce"
  type: "ReLU"
  bottom: "inception_4e/5x5_reduce"
  top: "inception_4e/5x5_reduce"
}
layer {
  name: "inception_4e/5x5"
  type: "Convolution"
  bottom: "inception_4e/5x5_reduce"
  top: "inception_4e/
I0403 14:46:47.947520  1955 layer_factory.hpp:77] Creating layer data
I0403 14:46:47.948132  1955 net.cpp:91] Creating Layer data
I0403 14:46:47.948163  1955 net.cpp:399] data -> data
I0403 14:46:47.948220  1955 net.cpp:399] data -> label
I0403 14:46:47.948258  1955 data_transformer.cpp:25] Loading mean file from: /home/mohanty/data/final_dataset/lmdb/grayscale-20-80/mean.binaryproto
I0403 14:46:47.949491  1958 db_lmdb.cpp:38] Opened lmdb /home/mohanty/data/final_dataset/lmdb/grayscale-20-80/test_db
I0403 14:46:47.961324  1955 data_layer.cpp:41] output data size: 24,3,224,224
I0403 14:46:47.988725  1955 net.cpp:141] Setting up data
I0403 14:46:47.988812  1955 net.cpp:148] Top shape: 24 3 224 224 (3612672)
I0403 14:46:47.988837  1955 net.cpp:148] Top shape: 24 (24)
I0403 14:46:47.988855  1955 net.cpp:156] Memory required for data: 14450784
I0403 14:46:47.988884  1955 layer_factory.hpp:77] Creating layer label_data_1_split
I0403 14:46:47.988912  1955 net.cpp:91] Creating Layer label_data_1_split
I0403 14:46:47.988931  1955 net.cpp:425] label_data_1_split <- label
I0403 14:46:47.988965  1955 net.cpp:399] label_data_1_split -> label_data_1_split_0
I0403 14:46:47.988996  1955 net.cpp:399] label_data_1_split -> label_data_1_split_1
I0403 14:46:47.989018  1955 net.cpp:399] label_data_1_split -> label_data_1_split_2
I0403 14:46:47.989042  1955 net.cpp:399] label_data_1_split -> label_data_1_split_3
I0403 14:46:47.989063  1955 net.cpp:399] label_data_1_split -> label_data_1_split_4
I0403 14:46:47.989085  1955 net.cpp:399] label_data_1_split -> label_data_1_split_5
I0403 14:46:47.989106  1955 net.cpp:399] label_data_1_split -> label_data_1_split_6
I0403 14:46:47.989128  1955 net.cpp:399] label_data_1_split -> label_data_1_split_7
I0403 14:46:47.989150  1955 net.cpp:399] label_data_1_split -> label_data_1_split_8
I0403 14:46:47.989171  1955 net.cpp:399] label_data_1_split -> label_data_1_split_9
I0403 14:46:47.989296  1955 net.cpp:141] Setting up label_data_1_split
I0403 14:46:47.989322  1955 net.cpp:148] Top shape: 24 (24)
I0403 14:46:47.989341  1955 net.cpp:148] Top shape: 24 (24)
I0403 14:46:47.989358  1955 net.cpp:148] Top shape: 24 (24)
I0403 14:46:47.989375  1955 net.cpp:148] Top shape: 24 (24)
I0403 14:46:47.989392  1955 net.cpp:148] Top shape: 24 (24)
I0403 14:46:47.989409  1955 net.cpp:148] Top shape: 24 (24)
I0403 14:46:47.989426  1955 net.cpp:148] Top shape: 24 (24)
I0403 14:46:47.989444  1955 net.cpp:148] Top shape: 24 (24)
I0403 14:46:47.989461  1955 net.cpp:148] Top shape: 24 (24)
I0403 14:46:47.989478  1955 net.cpp:148] Top shape: 24 (24)
I0403 14:46:47.989524  1955 net.cpp:156] Memory required for data: 14451744
I0403 14:46:47.989543  1955 layer_factory.hpp:77] Creating layer conv1/7x7_s2
I0403 14:46:47.989576  1955 net.cpp:91] Creating Layer conv1/7x7_s2
I0403 14:46:47.989596  1955 net.cpp:425] conv1/7x7_s2 <- data
I0403 14:46:47.989617  1955 net.cpp:399] conv1/7x7_s2 -> conv1/7x7_s2
I0403 14:46:48.129984  1955 net.cpp:141] Setting up conv1/7x7_s2
I0403 14:46:48.130074  1955 net.cpp:148] Top shape: 24 64 112 112 (19267584)
I0403 14:46:48.130091  1955 net.cpp:156] Memory required for data: 91522080
I0403 14:46:48.130121  1955 layer_factory.hpp:77] Creating layer conv1/relu_7x7
I0403 14:46:48.130151  1955 net.cpp:91] Creating Layer conv1/relu_7x7
I0403 14:46:48.130169  1955 net.cpp:425] conv1/relu_7x7 <- conv1/7x7_s2
I0403 14:46:48.130188  1955 net.cpp:386] conv1/relu_7x7 -> conv1/7x7_s2 (in-place)
I0403 14:46:48.130462  1955 net.cpp:141] Setting up conv1/relu_7x7
I0403 14:46:48.130491  1955 net.cpp:148] Top shape: 24 64 112 112 (19267584)
I0403 14:46:48.130506  1955 net.cpp:156] Memory required for data: 168592416
I0403 14:46:48.130522  1955 layer_factory.hpp:77] Creating layer pool1/3x3_s2
I0403 14:46:48.130548  1955 net.cpp:91] Creating Layer pool1/3x3_s2
I0403 14:46:48.130566  1955 net.cpp:425] pool1/3x3_s2 <- conv1/7x7_s2
I0403 14:46:48.130585  1955 net.cpp:399] pool1/3x3_s2 -> pool1/3x3_s2
I0403 14:46:48.130661  1955 net.cpp:141] Setting up pool1/3x3_s2
I0403 14:46:48.130686  1955 net.cpp:148] Top shape: 24 64 56 56 (4816896)
I0403 14:46:48.130702  1955 net.cpp:156] Memory required for data: 187860000
I0403 14:46:48.130717  1955 layer_factory.hpp:77] Creating layer pool1/norm1
I0403 14:46:48.130741  1955 net.cpp:91] Creating Layer pool1/norm1
I0403 14:46:48.130760  1955 net.cpp:425] pool1/norm1 <- pool1/3x3_s2
I0403 14:46:48.130779  1955 net.cpp:399] pool1/norm1 -> pool1/norm1
I0403 14:46:48.131086  1955 net.cpp:141] Setting up pool1/norm1
I0403 14:46:48.131114  1955 net.cpp:148] Top shape: 24 64 56 56 (4816896)
I0403 14:46:48.131129  1955 net.cpp:156] Memory required for data: 207127584
I0403 14:46:48.131145  1955 layer_factory.hpp:77] Creating layer conv2/3x3_reduce
I0403 14:46:48.131173  1955 net.cpp:91] Creating Layer conv2/3x3_reduce
I0403 14:46:48.131191  1955 net.cpp:425] conv2/3x3_reduce <- pool1/norm1
I0403 14:46:48.131217  1955 net.cpp:399] conv2/3x3_reduce -> conv2/3x3_reduce
I0403 14:46:48.132664  1955 net.cpp:141] Setting up conv2/3x3_reduce
I0403 14:46:48.132696  1955 net.cpp:148] Top shape: 24 64 56 56 (4816896)
I0403 14:46:48.132714  1955 net.cpp:156] Memory required for data: 226395168
I0403 14:46:48.132735  1955 layer_factory.hpp:77] Creating layer conv2/relu_3x3_reduce
I0403 14:46:48.132753  1955 net.cpp:91] Creating Layer conv2/relu_3x3_reduce
I0403 14:46:48.132769  1955 net.cpp:425] conv2/relu_3x3_reduce <- conv2/3x3_reduce
I0403 14:46:48.132791  1955 net.cpp:386] conv2/relu_3x3_reduce -> conv2/3x3_reduce (in-place)
I0403 14:46:48.133087  1955 net.cpp:141] Setting up conv2/relu_3x3_reduce
I0403 14:46:48.133116  1955 net.cpp:148] Top shape: 24 64 56 56 (4816896)
I0403 14:46:48.133133  1955 net.cpp:156] Memory required for data: 245662752
I0403 14:46:48.133149  1955 layer_factory.hpp:77] Creating layer conv2/3x3
I0403 14:46:48.133174  1955 net.cpp:91] Creating Layer conv2/3x3
I0403 14:46:48.133193  1955 net.cpp:425] conv2/3x3 <- conv2/3x3_reduce
I0403 14:46:48.133224  1955 net.cpp:399] conv2/3x3 -> conv2/3x3
I0403 14:46:48.135574  1955 net.cpp:141] Setting up conv2/3x3
I0403 14:46:48.135607  1955 net.cpp:148] Top shape: 24 192 56 56 (14450688)
I0403 14:46:48.135625  1955 net.cpp:156] Memory required for data: 303465504
I0403 14:46:48.135648  1955 layer_factory.hpp:77] Creating layer conv2/relu_3x3
I0403 14:46:48.135666  1955 net.cpp:91] Creating Layer conv2/relu_3x3
I0403 14:46:48.135684  1955 net.cpp:425] conv2/relu_3x3 <- conv2/3x3
I0403 14:46:48.135704  1955 net.cpp:386] conv2/relu_3x3 -> conv2/3x3 (in-place)
I0403 14:46:48.135881  1955 net.cpp:141] Setting up conv2/relu_3x3
I0403 14:46:48.135907  1955 net.cpp:148] Top shape: 24 192 56 56 (14450688)
I0403 14:46:48.135956  1955 net.cpp:156] Memory required for data: 361268256
I0403 14:46:48.135972  1955 layer_factory.hpp:77] Creating layer conv2/norm2
I0403 14:46:48.135996  1955 net.cpp:91] Creating Layer conv2/norm2
I0403 14:46:48.136014  1955 net.cpp:425] conv2/norm2 <- conv2/3x3
I0403 14:46:48.136032  1955 net.cpp:399] conv2/norm2 -> conv2/norm2
I0403 14:46:48.136380  1955 net.cpp:141] Setting up conv2/norm2
I0403 14:46:48.136407  1955 net.cpp:148] Top shape: 24 192 56 56 (14450688)
I0403 14:46:48.136423  1955 net.cpp:156] Memory required for data: 419071008
I0403 14:46:48.136440  1955 layer_factory.hpp:77] Creating layer pool2/3x3_s2
I0403 14:46:48.136461  1955 net.cpp:91] Creating Layer pool2/3x3_s2
I0403 14:46:48.136478  1955 net.cpp:425] pool2/3x3_s2 <- conv2/norm2
I0403 14:46:48.136497  1955 net.cpp:399] pool2/3x3_s2 -> pool2/3x3_s2
I0403 14:46:48.136550  1955 net.cpp:141] Setting up pool2/3x3_s2
I0403 14:46:48.136574  1955 net.cpp:148] Top shape: 24 192 28 28 (3612672)
I0403 14:46:48.136589  1955 net.cpp:156] Memory required for data: 433521696
I0403 14:46:48.136603  1955 layer_factory.hpp:77] Creating layer pool2/3x3_s2_pool2/3x3_s2_0_split
I0403 14:46:48.136621  1955 net.cpp:91] Creating Layer pool2/3x3_s2_pool2/3x3_s2_0_split
I0403 14:46:48.136641  1955 net.cpp:425] pool2/3x3_s2_pool2/3x3_s2_0_split <- pool2/3x3_s2
I0403 14:46:48.136658  1955 net.cpp:399] pool2/3x3_s2_pool2/3x3_s2_0_split -> pool2/3x3_s2_pool2/3x3_s2_0_split_0
I0403 14:46:48.136678  1955 net.cpp:399] pool2/3x3_s2_pool2/3x3_s2_0_split -> pool2/3x3_s2_pool2/3x3_s2_0_split_1
I0403 14:46:48.136698  1955 net.cpp:399] pool2/3x3_s2_pool2/3x3_s2_0_split -> pool2/3x3_s2_pool2/3x3_s2_0_split_2
I0403 14:46:48.136718  1955 net.cpp:399] pool2/3x3_s2_pool2/3x3_s2_0_split -> pool2/3x3_s2_pool2/3x3_s2_0_split_3
I0403 14:46:48.136790  1955 net.cpp:141] Setting up pool2/3x3_s2_pool2/3x3_s2_0_split
I0403 14:46:48.136813  1955 net.cpp:148] Top shape: 24 192 28 28 (3612672)
I0403 14:46:48.136829  1955 net.cpp:148] Top shape: 24 192 28 28 (3612672)
I0403 14:46:48.136845  1955 net.cpp:148] Top shape: 24 192 28 28 (3612672)
I0403 14:46:48.136860  1955 net.cpp:148] Top shape: 24 192 28 28 (3612672)
I0403 14:46:48.136873  1955 net.cpp:156] Memory required for data: 491324448
I0403 14:46:48.136888  1955 layer_factory.hpp:77] Creating layer inception_3a/1x1
I0403 14:46:48.136911  1955 net.cpp:91] Creating Layer inception_3a/1x1
I0403 14:46:48.136929  1955 net.cpp:425] inception_3a/1x1 <- pool2/3x3_s2_pool2/3x3_s2_0_split_0
I0403 14:46:48.136950  1955 net.cpp:399] inception_3a/1x1 -> inception_3a/1x1
I0403 14:46:48.138531  1955 net.cpp:141] Setting up inception_3a/1x1
I0403 14:46:48.138563  1955 net.cpp:148] Top shape: 24 64 28 28 (1204224)
I0403 14:46:48.138581  1955 net.cpp:156] Memory required for data: 496141344
I0403 14:46:48.138600  1955 layer_factory.hpp:77] Creating layer inception_3a/relu_1x1
I0403 14:46:48.138619  1955 net.cpp:91] Creating Layer inception_3a/relu_1x1
I0403 14:46:48.138635  1955 net.cpp:425] inception_3a/relu_1x1 <- inception_3a/1x1
I0403 14:46:48.138653  1955 net.cpp:386] inception_3a/relu_1x1 -> inception_3a/1x1 (in-place)
I0403 14:46:48.138833  1955 net.cpp:141] Setting up inception_3a/relu_1x1
I0403 14:46:48.138859  1955 net.cpp:148] Top shape: 24 64 28 28 (1204224)
I0403 14:46:48.138873  1955 net.cpp:156] Memory required for data: 500958240
I0403 14:46:48.138887  1955 layer_factory.hpp:77] Creating layer inception_3a/3x3_reduce
I0403 14:46:48.138911  1955 net.cpp:91] Creating Layer inception_3a/3x3_reduce
I0403 14:46:48.138928  1955 net.cpp:425] inception_3a/3x3_reduce <- pool2/3x3_s2_pool2/3x3_s2_0_split_1
I0403 14:46:48.138952  1955 net.cpp:399] inception_3a/3x3_reduce -> inception_3a/3x3_reduce
I0403 14:46:48.140676  1955 net.cpp:141] Setting up inception_3a/3x3_reduce
I0403 14:46:48.140707  1955 net.cpp:148] Top shape: 24 96 28 28 (1806336)
I0403 14:46:48.140722  1955 net.cpp:156] Memory required for data: 508183584
I0403 14:46:48.140743  1955 layer_factory.hpp:77] Creating layer inception_3a/relu_3x3_reduce
I0403 14:46:48.140779  1955 net.cpp:91] Creating Layer inception_3a/relu_3x3_reduce
I0403 14:46:48.140799  1955 net.cpp:425] inception_3a/relu_3x3_reduce <- inception_3a/3x3_reduce
I0403 14:46:48.140816  1955 net.cpp:386] inception_3a/relu_3x3_reduce -> inception_3a/3x3_reduce (in-place)
I0403 14:46:48.140995  1955 net.cpp:141] Setting up inception_3a/relu_3x3_reduce
I0403 14:46:48.141019  1955 net.cpp:148] Top shape: 24 96 28 28 (1806336)
I0403 14:46:48.141034  1955 net.cpp:156] Memory required for data: 515408928
I0403 14:46:48.141049  1955 layer_factory.hpp:77] Creating layer inception_3a/3x3
I0403 14:46:48.141072  1955 net.cpp:91] Creating Layer inception_3a/3x3
I0403 14:46:48.141090  1955 net.cpp:425] inception_3a/3x3 <- inception_3a/3x3_reduce
I0403 14:46:48.141109  1955 net.cpp:399] inception_3a/3x3 -> inception_3a/3x3
I0403 14:46:48.142742  1955 net.cpp:141] Setting up inception_3a/3x3
I0403 14:46:48.142771  1955 net.cpp:148] Top shape: 24 128 28 28 (2408448)
I0403 14:46:48.142786  1955 net.cpp:156] Memory required for data: 525042720
I0403 14:46:48.142803  1955 layer_factory.hpp:77] Creating layer inception_3a/relu_3x3
I0403 14:46:48.142822  1955 net.cpp:91] Creating Layer inception_3a/relu_3x3
I0403 14:46:48.142838  1955 net.cpp:425] inception_3a/relu_3x3 <- inception_3a/3x3
I0403 14:46:48.142856  1955 net.cpp:386] inception_3a/relu_3x3 -> inception_3a/3x3 (in-place)
I0403 14:46:48.143131  1955 net.cpp:141] Setting up inception_3a/relu_3x3
I0403 14:46:48.143158  1955 net.cpp:148] Top shape: 24 128 28 28 (2408448)
I0403 14:46:48.143173  1955 net.cpp:156] Memory required for data: 534676512
I0403 14:46:48.143187  1955 layer_factory.hpp:77] Creating layer inception_3a/5x5_reduce
I0403 14:46:48.143219  1955 net.cpp:91] Creating Layer inception_3a/5x5_reduce
I0403 14:46:48.143240  1955 net.cpp:425] inception_3a/5x5_reduce <- pool2/3x3_s2_pool2/3x3_s2_0_split_2
I0403 14:46:48.143262  1955 net.cpp:399] inception_3a/5x5_reduce -> inception_3a/5x5_reduce
I0403 14:46:48.144199  1955 net.cpp:141] Setting up inception_3a/5x5_reduce
I0403 14:46:48.144232  1955 net.cpp:148] Top shape: 24 16 28 28 (301056)
I0403 14:46:48.144248  1955 net.cpp:156] Memory required for data: 535880736
I0403 14:46:48.144266  1955 layer_factory.hpp:77] Creating layer inception_3a/relu_5x5_reduce
I0403 14:46:48.144284  1955 net.cpp:91] Creating Layer inception_3a/relu_5x5_reduce
I0403 14:46:48.144300  1955 net.cpp:425] inception_3a/relu_5x5_reduce <- inception_3a/5x5_reduce
I0403 14:46:48.144320  1955 net.cpp:386] inception_3a/relu_5x5_reduce -> inception_3a/5x5_reduce (in-place)
I0403 14:46:48.144610  1955 net.cpp:141] Setting up inception_3a/relu_5x5_reduce
I0403 14:46:48.144636  1955 net.cpp:148] Top shape: 24 16 28 28 (301056)
I0403 14:46:48.144651  1955 net.cpp:156] Memory required for data: 537084960
I0403 14:46:48.144666  1955 layer_factory.hpp:77] Creating layer inception_3a/5x5
I0403 14:46:48.144688  1955 net.cpp:91] Creating Layer inception_3a/5x5
I0403 14:46:48.144706  1955 net.cpp:425] inception_3a/5x5 <- inception_3a/5x5_reduce
I0403 14:46:48.144729  1955 net.cpp:399] inception_3a/5x5 -> inception_3a/5x5
I0403 14:46:48.145722  1955 net.cpp:141] Setting up inception_3a/5x5
I0403 14:46:48.145753  1955 net.cpp:148] Top shape: 24 32 28 28 (602112)
I0403 14:46:48.145769  1955 net.cpp:156] Memory required for data: 539493408
I0403 14:46:48.145787  1955 layer_factory.hpp:77] Creating layer inception_3a/relu_5x5
I0403 14:46:48.145805  1955 net.cpp:91] Creating Layer inception_3a/relu_5x5
I0403 14:46:48.145822  1955 net.cpp:425] inception_3a/relu_5x5 <- inception_3a/5x5
I0403 14:46:48.145840  1955 net.cpp:386] inception_3a/relu_5x5 -> inception_3a/5x5 (in-place)
I0403 14:46:48.146014  1955 net.cpp:141] Setting up inception_3a/relu_5x5
I0403 14:46:48.146039  1955 net.cpp:148] Top shape: 24 32 28 28 (602112)
I0403 14:46:48.146054  1955 net.cpp:156] Memory required for data: 541901856
I0403 14:46:48.146069  1955 layer_factory.hpp:77] Creating layer inception_3a/pool
I0403 14:46:48.146086  1955 net.cpp:91] Creating Layer inception_3a/pool
I0403 14:46:48.146116  1955 net.cpp:425] inception_3a/pool <- pool2/3x3_s2_pool2/3x3_s2_0_split_3
I0403 14:46:48.146137  1955 net.cpp:399] inception_3a/pool -> inception_3a/pool
I0403 14:46:48.146194  1955 net.cpp:141] Setting up inception_3a/pool
I0403 14:46:48.146221  1955 net.cpp:148] Top shape: 24 192 28 28 (3612672)
I0403 14:46:48.146237  1955 net.cpp:156] Memory required for data: 556352544
I0403 14:46:48.146251  1955 layer_factory.hpp:77] Creating layer inception_3a/pool_proj
I0403 14:46:48.146275  1955 net.cpp:91] Creating Layer inception_3a/pool_proj
I0403 14:46:48.146292  1955 net.cpp:425] inception_3a/pool_proj <- inception_3a/pool
I0403 14:46:48.146313  1955 net.cpp:399] inception_3a/pool_proj -> inception_3a/pool_proj
I0403 14:46:48.147258  1955 net.cpp:141] Setting up inception_3a/pool_proj
I0403 14:46:48.147284  1955 net.cpp:148] Top shape: 24 32 28 28 (602112)
I0403 14:46:48.147300  1955 net.cpp:156] Memory required for data: 558760992
I0403 14:46:48.147325  1955 layer_factory.hpp:77] Creating layer inception_3a/relu_pool_proj
I0403 14:46:48.147343  1955 net.cpp:91] Creating Layer inception_3a/relu_pool_proj
I0403 14:46:48.147359  1955 net.cpp:425] inception_3a/relu_pool_proj <- inception_3a/pool_proj
I0403 14:46:48.147378  1955 net.cpp:386] inception_3a/relu_pool_proj -> inception_3a/pool_proj (in-place)
I0403 14:46:48.147651  1955 net.cpp:141] Setting up inception_3a/relu_pool_proj
I0403 14:46:48.147677  1955 net.cpp:148] Top shape: 24 32 28 28 (602112)
I0403 14:46:48.147691  1955 net.cpp:156] Memory required for data: 561169440
I0403 14:46:48.147706  1955 layer_factory.hpp:77] Creating layer inception_3a/output
I0403 14:46:48.147724  1955 net.cpp:91] Creating Layer inception_3a/output
I0403 14:46:48.147740  1955 net.cpp:425] inception_3a/output <- inception_3a/1x1
I0403 14:46:48.147758  1955 net.cpp:425] inception_3a/output <- inception_3a/3x3
I0403 14:46:48.147773  1955 net.cpp:425] inception_3a/output <- inception_3a/5x5
I0403 14:46:48.147789  1955 net.cpp:425] inception_3a/output <- inception_3a/pool_proj
I0403 14:46:48.147809  1955 net.cpp:399] inception_3a/output -> inception_3a/output
I0403 14:46:48.147855  1955 net.cpp:141] Setting up inception_3a/output
I0403 14:46:48.147879  1955 net.cpp:148] Top shape: 24 256 28 28 (4816896)
I0403 14:46:48.147894  1955 net.cpp:156] Memory required for data: 580437024
I0403 14:46:48.147909  1955 layer_factory.hpp:77] Creating layer inception_3a/output_inception_3a/output_0_split
I0403 14:46:48.147927  1955 net.cpp:91] Creating Layer inception_3a/output_inception_3a/output_0_split
I0403 14:46:48.147943  1955 net.cpp:425] inception_3a/output_inception_3a/output_0_split <- inception_3a/output
I0403 14:46:48.147959  1955 net.cpp:399] inception_3a/output_inception_3a/output_0_split -> inception_3a/output_inception_3a/output_0_split_0
I0403 14:46:48.147979  1955 net.cpp:399] inception_3a/output_inception_3a/output_0_split -> inception_3a/output_inception_3a/output_0_split_1
I0403 14:46:48.148005  1955 net.cpp:399] inception_3a/output_inception_3a/output_0_split -> inception_3a/output_inception_3a/output_0_split_2
I0403 14:46:48.148026  1955 net.cpp:399] inception_3a/output_inception_3a/output_0_split -> inception_3a/output_inception_3a/output_0_split_3
I0403 14:46:48.148100  1955 net.cpp:141] Setting up inception_3a/output_inception_3a/output_0_split
I0403 14:46:48.148124  1955 net.cpp:148] Top shape: 24 256 28 28 (4816896)
I0403 14:46:48.148141  1955 net.cpp:148] Top shape: 24 256 28 28 (4816896)
I0403 14:46:48.148157  1955 net.cpp:148] Top shape: 24 256 28 28 (4816896)
I0403 14:46:48.148172  1955 net.cpp:148] Top shape: 24 256 28 28 (4816896)
I0403 14:46:48.148186  1955 net.cpp:156] Memory required for data: 657507360
I0403 14:46:48.148200  1955 layer_factory.hpp:77] Creating layer inception_3b/1x1
I0403 14:46:48.148227  1955 net.cpp:91] Creating Layer inception_3b/1x1
I0403 14:46:48.148248  1955 net.cpp:425] inception_3b/1x1 <- inception_3a/output_inception_3a/output_0_split_0
I0403 14:46:48.148267  1955 net.cpp:399] inception_3b/1x1 -> inception_3b/1x1
I0403 14:46:48.149385  1955 net.cpp:141] Setting up inception_3b/1x1
I0403 14:46:48.149425  1955 net.cpp:148] Top shape: 24 128 28 28 (2408448)
I0403 14:46:48.149441  1955 net.cpp:156] Memory required for data: 667141152
I0403 14:46:48.149459  1955 layer_factory.hpp:77] Creating layer inception_3b/relu_1x1
I0403 14:46:48.149482  1955 net.cpp:91] Creating Layer inception_3b/relu_1x1
I0403 14:46:48.149498  1955 net.cpp:425] inception_3b/relu_1x1 <- inception_3b/1x1
I0403 14:46:48.149515  1955 net.cpp:386] inception_3b/relu_1x1 -> inception_3b/1x1 (in-place)
I0403 14:46:48.149688  1955 net.cpp:141] Setting up inception_3b/relu_1x1
I0403 14:46:48.149711  1955 net.cpp:148] Top shape: 24 128 28 28 (2408448)
I0403 14:46:48.149726  1955 net.cpp:156] Memory required for data: 676774944
I0403 14:46:48.149740  1955 layer_factory.hpp:77] Creating layer inception_3b/3x3_reduce
I0403 14:46:48.149763  1955 net.cpp:91] Creating Layer inception_3b/3x3_reduce
I0403 14:46:48.149780  1955 net.cpp:425] inception_3b/3x3_reduce <- inception_3a/output_inception_3a/output_0_split_1
I0403 14:46:48.149801  1955 net.cpp:399] inception_3b/3x3_reduce -> inception_3b/3x3_reduce
I0403 14:46:48.150915  1955 net.cpp:141] Setting up inception_3b/3x3_reduce
I0403 14:46:48.150946  1955 net.cpp:148] Top shape: 24 128 28 28 (2408448)
I0403 14:46:48.150961  1955 net.cpp:156] Memory required for data: 686408736
I0403 14:46:48.150979  1955 layer_factory.hpp:77] Creating layer inception_3b/relu_3x3_reduce
I0403 14:46:48.150997  1955 net.cpp:91] Creating Layer inception_3b/relu_3x3_reduce
I0403 14:46:48.151013  1955 net.cpp:425] inception_3b/relu_3x3_reduce <- inception_3b/3x3_reduce
I0403 14:46:48.151031  1955 net.cpp:386] inception_3b/relu_3x3_reduce -> inception_3b/3x3_reduce (in-place)
I0403 14:46:48.151201  1955 net.cpp:141] Setting up inception_3b/relu_3x3_reduce
I0403 14:46:48.151232  1955 net.cpp:148] Top shape: 24 128 28 28 (2408448)
I0403 14:46:48.151248  1955 net.cpp:156] Memory required for data: 696042528
I0403 14:46:48.151264  1955 layer_factory.hpp:77] Creating layer inception_3b/3x3
I0403 14:46:48.151288  1955 net.cpp:91] Creating Layer inception_3b/3x3
I0403 14:46:48.151306  1955 net.cpp:425] inception_3b/3x3 <- inception_3b/3x3_reduce
I0403 14:46:48.151327  1955 net.cpp:399] inception_3b/3x3 -> inception_3b/3x3
I0403 14:46:48.154304  1955 net.cpp:141] Setting up inception_3b/3x3
I0403 14:46:48.154331  1955 net.cpp:148] Top shape: 24 192 28 28 (3612672)
I0403 14:46:48.154346  1955 net.cpp:156] Memory required for data: 710493216
I0403 14:46:48.154364  1955 layer_factory.hpp:77] Creating layer inception_3b/relu_3x3
I0403 14:46:48.154382  1955 net.cpp:91] Creating Layer inception_3b/relu_3x3
I0403 14:46:48.154398  1955 net.cpp:425] inception_3b/relu_3x3 <- inception_3b/3x3
I0403 14:46:48.154417  1955 net.cpp:386] inception_3b/relu_3x3 -> inception_3b/3x3 (in-place)
I0403 14:46:48.154696  1955 net.cpp:141] Setting up inception_3b/relu_3x3
I0403 14:46:48.154722  1955 net.cpp:148] Top shape: 24 192 28 28 (3612672)
I0403 14:46:48.154737  1955 net.cpp:156] Memory required for data: 724943904
I0403 14:46:48.154752  1955 layer_factory.hpp:77] Creating layer inception_3b/5x5_reduce
I0403 14:46:48.154774  1955 net.cpp:91] Creating Layer inception_3b/5x5_reduce
I0403 14:46:48.154793  1955 net.cpp:425] inception_3b/5x5_reduce <- inception_3a/output_inception_3a/output_0_split_2
I0403 14:46:48.154815  1955 net.cpp:399] inception_3b/5x5_reduce -> inception_3b/5x5_reduce
I0403 14:46:48.155830  1955 net.cpp:141] Setting up inception_3b/5x5_reduce
I0403 14:46:48.155860  1955 net.cpp:148] Top shape: 24 32 28 28 (602112)
I0403 14:46:48.155875  1955 net.cpp:156] Memory required for data: 727352352
I0403 14:46:48.155894  1955 layer_factory.hpp:77] Creating layer inception_3b/relu_5x5_reduce
I0403 14:46:48.155911  1955 net.cpp:91] Creating Layer inception_3b/relu_5x5_reduce
I0403 14:46:48.155926  1955 net.cpp:425] inception_3b/relu_5x5_reduce <- inception_3b/5x5_reduce
I0403 14:46:48.155946  1955 net.cpp:386] inception_3b/relu_5x5_reduce -> inception_3b/5x5_reduce (in-place)
I0403 14:46:48.156134  1955 net.cpp:141] Setting up inception_3b/relu_5x5_reduce
I0403 14:46:48.156158  1955 net.cpp:148] Top shape: 24 32 28 28 (602112)
I0403 14:46:48.156173  1955 net.cpp:156] Memory required for data: 729760800
I0403 14:46:48.156188  1955 layer_factory.hpp:77] Creating layer inception_3b/5x5
I0403 14:46:48.156213  1955 net.cpp:91] Creating Layer inception_3b/5x5
I0403 14:46:48.156231  1955 net.cpp:425] inception_3b/5x5 <- inception_3b/5x5_reduce
I0403 14:46:48.156255  1955 net.cpp:399] inception_3b/5x5 -> inception_3b/5x5
I0403 14:46:48.158247  1955 net.cpp:141] Setting up inception_3b/5x5
I0403 14:46:48.158277  1955 net.cpp:148] Top shape: 24 96 28 28 (1806336)
I0403 14:46:48.158294  1955 net.cpp:156] Memory required for data: 736986144
I0403 14:46:48.158313  1955 layer_factory.hpp:77] Creating layer inception_3b/relu_5x5
I0403 14:46:48.158330  1955 net.cpp:91] Creating Layer inception_3b/relu_5x5
I0403 14:46:48.158346  1955 net.cpp:425] inception_3b/relu_5x5 <- inception_3b/5x5
I0403 14:46:48.158365  1955 net.cpp:386] inception_3b/relu_5x5 -> inception_3b/5x5 (in-place)
I0403 14:46:48.158556  1955 net.cpp:141] Setting up inception_3b/relu_5x5
I0403 14:46:48.158581  1955 net.cpp:148] Top shape: 24 96 28 28 (1806336)
I0403 14:46:48.158596  1955 net.cpp:156] Memory required for data: 744211488
I0403 14:46:48.158610  1955 layer_factory.hpp:77] Creating layer inception_3b/pool
I0403 14:46:48.158639  1955 net.cpp:91] Creating Layer inception_3b/pool
I0403 14:46:48.158656  1955 net.cpp:425] inception_3b/pool <- inception_3a/output_inception_3a/output_0_split_3
I0403 14:46:48.158674  1955 net.cpp:399] inception_3b/pool -> inception_3b/pool
I0403 14:46:48.158732  1955 net.cpp:141] Setting up inception_3b/pool
I0403 14:46:48.158758  1955 net.cpp:148] Top shape: 24 256 28 28 (4816896)
I0403 14:46:48.158774  1955 net.cpp:156] Memory required for data: 763479072
I0403 14:46:48.158790  1955 layer_factory.hpp:77] Creating layer inception_3b/pool_proj
I0403 14:46:48.158810  1955 net.cpp:91] Creating Layer inception_3b/pool_proj
I0403 14:46:48.158828  1955 net.cpp:425] inception_3b/pool_proj <- inception_3b/pool
I0403 14:46:48.158850  1955 net.cpp:399] inception_3b/pool_proj -> inception_3b/pool_proj
I0403 14:46:48.159945  1955 net.cpp:141] Setting up inception_3b/pool_proj
I0403 14:46:48.159972  1955 net.cpp:148] Top shape: 24 64 28 28 (1204224)
I0403 14:46:48.159987  1955 net.cpp:156] Memory required for data: 768295968
I0403 14:46:48.160006  1955 layer_factory.hpp:77] Creating layer inception_3b/relu_pool_proj
I0403 14:46:48.160028  1955 net.cpp:91] Creating Layer inception_3b/relu_pool_proj
I0403 14:46:48.160045  1955 net.cpp:425] inception_3b/relu_pool_proj <- inception_3b/pool_proj
I0403 14:46:48.160063  1955 net.cpp:386] inception_3b/relu_pool_proj -> inception_3b/pool_proj (in-place)
I0403 14:46:48.160462  1955 net.cpp:141] Setting up inception_3b/relu_pool_proj
I0403 14:46:48.160501  1955 net.cpp:148] Top shape: 24 64 28 28 (1204224)
I0403 14:46:48.160518  1955 net.cpp:156] Memory required for data: 773112864
I0403 14:46:48.160533  1955 layer_factory.hpp:77] Creating layer inception_3b/output
I0403 14:46:48.160552  1955 net.cpp:91] Creating Layer inception_3b/output
I0403 14:46:48.160568  1955 net.cpp:425] inception_3b/output <- inception_3b/1x1
I0403 14:46:48.160585  1955 net.cpp:425] inception_3b/output <- inception_3b/3x3
I0403 14:46:48.160601  1955 net.cpp:425] inception_3b/output <- inception_3b/5x5
I0403 14:46:48.160617  1955 net.cpp:425] inception_3b/output <- inception_3b/pool_proj
I0403 14:46:48.160637  1955 net.cpp:399] inception_3b/output -> inception_3b/output
I0403 14:46:48.160682  1955 net.cpp:141] Setting up inception_3b/output
I0403 14:46:48.160708  1955 net.cpp:148] Top shape: 24 480 28 28 (9031680)
I0403 14:46:48.160723  1955 net.cpp:156] Memory required for data: 809239584
I0403 14:46:48.160739  1955 layer_factory.hpp:77] Creating layer pool3/3x3_s2
I0403 14:46:48.160756  1955 net.cpp:91] Creating Layer pool3/3x3_s2
I0403 14:46:48.160773  1955 net.cpp:425] pool3/3x3_s2 <- inception_3b/output
I0403 14:46:48.160820  1955 net.cpp:399] pool3/3x3_s2 -> pool3/3x3_s2
I0403 14:46:48.160878  1955 net.cpp:141] Setting up pool3/3x3_s2
I0403 14:46:48.160902  1955 net.cpp:148] Top shape: 24 480 14 14 (2257920)
I0403 14:46:48.160917  1955 net.cpp:156] Memory required for data: 818271264
I0403 14:46:48.160930  1955 layer_factory.hpp:77] Creating layer pool3/3x3_s2_pool3/3x3_s2_0_split
I0403 14:46:48.160950  1955 net.cpp:91] Creating Layer pool3/3x3_s2_pool3/3x3_s2_0_split
I0403 14:46:48.160966  1955 net.cpp:425] pool3/3x3_s2_pool3/3x3_s2_0_split <- pool3/3x3_s2
I0403 14:46:48.160984  1955 net.cpp:399] pool3/3x3_s2_pool3/3x3_s2_0_split -> pool3/3x3_s2_pool3/3x3_s2_0_split_0
I0403 14:46:48.161002  1955 net.cpp:399] pool3/3x3_s2_pool3/3x3_s2_0_split -> pool3/3x3_s2_pool3/3x3_s2_0_split_1
I0403 14:46:48.161022  1955 net.cpp:399] pool3/3x3_s2_pool3/3x3_s2_0_split -> pool3/3x3_s2_pool3/3x3_s2_0_split_2
I0403 14:46:48.161046  1955 net.cpp:399] pool3/3x3_s2_pool3/3x3_s2_0_split -> pool3/3x3_s2_pool3/3x3_s2_0_split_3
I0403 14:46:48.161120  1955 net.cpp:141] Setting up pool3/3x3_s2_pool3/3x3_s2_0_split
I0403 14:46:48.161144  1955 net.cpp:148] Top shape: 24 480 14 14 (2257920)
I0403 14:46:48.161159  1955 net.cpp:148] Top shape: 24 480 14 14 (2257920)
I0403 14:46:48.161175  1955 net.cpp:148] Top shape: 24 480 14 14 (2257920)
I0403 14:46:48.161190  1955 net.cpp:148] Top shape: 24 480 14 14 (2257920)
I0403 14:46:48.161203  1955 net.cpp:156] Memory required for data: 854397984
I0403 14:46:48.161222  1955 layer_factory.hpp:77] Creating layer inception_4a/1x1
I0403 14:46:48.161245  1955 net.cpp:91] Creating Layer inception_4a/1x1
I0403 14:46:48.161263  1955 net.cpp:425] inception_4a/1x1 <- pool3/3x3_s2_pool3/3x3_s2_0_split_0
I0403 14:46:48.161284  1955 net.cpp:399] inception_4a/1x1 -> inception_4a/1x1
I0403 14:46:48.162870  1955 net.cpp:141] Setting up inception_4a/1x1
I0403 14:46:48.162897  1955 net.cpp:148] Top shape: 24 192 14 14 (903168)
I0403 14:46:48.162912  1955 net.cpp:156] Memory required for data: 858010656
I0403 14:46:48.162931  1955 layer_factory.hpp:77] Creating layer inception_4a/relu_1x1
I0403 14:46:48.162951  1955 net.cpp:91] Creating Layer inception_4a/relu_1x1
I0403 14:46:48.162967  1955 net.cpp:425] inception_4a/relu_1x1 <- inception_4a/1x1
I0403 14:46:48.162984  1955 net.cpp:386] inception_4a/relu_1x1 -> inception_4a/1x1 (in-place)
I0403 14:46:48.163158  1955 net.cpp:141] Setting up inception_4a/relu_1x1
I0403 14:46:48.163187  1955 net.cpp:148] Top shape: 24 192 14 14 (903168)
I0403 14:46:48.163202  1955 net.cpp:156] Memory required for data: 861623328
I0403 14:46:48.163229  1955 layer_factory.hpp:77] Creating layer inception_4a/3x3_reduce
I0403 14:46:48.163254  1955 net.cpp:91] Creating Layer inception_4a/3x3_reduce
I0403 14:46:48.163271  1955 net.cpp:425] inception_4a/3x3_reduce <- pool3/3x3_s2_pool3/3x3_s2_0_split_1
I0403 14:46:48.163291  1955 net.cpp:399] inception_4a/3x3_reduce -> inception_4a/3x3_reduce
I0403 14:46:48.164593  1955 net.cpp:141] Setting up inception_4a/3x3_reduce
I0403 14:46:48.164621  1955 net.cpp:148] Top shape: 24 96 14 14 (451584)
I0403 14:46:48.164638  1955 net.cpp:156] Memory required for data: 863429664
I0403 14:46:48.164662  1955 layer_factory.hpp:77] Creating layer inception_4a/relu_3x3_reduce
I0403 14:46:48.164683  1955 net.cpp:91] Creating Layer inception_4a/relu_3x3_reduce
I0403 14:46:48.164701  1955 net.cpp:425] inception_4a/relu_3x3_reduce <- inception_4a/3x3_reduce
I0403 14:46:48.164719  1955 net.cpp:386] inception_4a/relu_3x3_reduce -> inception_4a/3x3_reduce (in-place)
I0403 14:46:48.164892  1955 net.cpp:141] Setting up inception_4a/relu_3x3_reduce
I0403 14:46:48.164917  1955 net.cpp:148] Top shape: 24 96 14 14 (451584)
I0403 14:46:48.164932  1955 net.cpp:156] Memory required for data: 865236000
I0403 14:46:48.164947  1955 layer_factory.hpp:77] Creating layer inception_4a/3x3
I0403 14:46:48.164970  1955 net.cpp:91] Creating Layer inception_4a/3x3
I0403 14:46:48.164988  1955 net.cpp:425] inception_4a/3x3 <- inception_4a/3x3_reduce
I0403 14:46:48.165007  1955 net.cpp:399] inception_4a/3x3 -> inception_4a/3x3
I0403 14:46:48.167727  1955 net.cpp:141] Setting up inception_4a/3x3
I0403 14:46:48.167758  1955 net.cpp:148] Top shape: 24 208 14 14 (978432)
I0403 14:46:48.167774  1955 net.cpp:156] Memory required for data: 869149728
I0403 14:46:48.167793  1955 layer_factory.hpp:77] Creating layer inception_4a/relu_3x3
I0403 14:46:48.167811  1955 net.cpp:91] Creating Layer inception_4a/relu_3x3
I0403 14:46:48.167827  1955 net.cpp:425] inception_4a/relu_3x3 <- inception_4a/3x3
I0403 14:46:48.167845  1955 net.cpp:386] inception_4a/relu_3x3 -> inception_4a/3x3 (in-place)
I0403 14:46:48.168120  1955 net.cpp:141] Setting up inception_4a/relu_3x3
I0403 14:46:48.168148  1955 net.cpp:148] Top shape: 24 208 14 14 (978432)
I0403 14:46:48.168164  1955 net.cpp:156] Memory required for data: 873063456
I0403 14:46:48.168179  1955 layer_factory.hpp:77] Creating layer inception_4a/5x5_reduce
I0403 14:46:48.168201  1955 net.cpp:91] Creating Layer inception_4a/5x5_reduce
I0403 14:46:48.168223  1955 net.cpp:425] inception_4a/5x5_reduce <- pool3/3x3_s2_pool3/3x3_s2_0_split_2
I0403 14:46:48.168244  1955 net.cpp:399] inception_4a/5x5_reduce -> inception_4a/5x5_reduce
I0403 14:46:48.169278  1955 net.cpp:141] Setting up inception_4a/5x5_reduce
I0403 14:46:48.169309  1955 net.cpp:148] Top shape: 24 16 14 14 (75264)
I0403 14:46:48.169327  1955 net.cpp:156] Memory required for data: 873364512
I0403 14:46:48.169344  1955 layer_factory.hpp:77] Creating layer inception_4a/relu_5x5_reduce
I0403 14:46:48.169374  1955 net.cpp:91] Creating Layer inception_4a/relu_5x5_reduce
I0403 14:46:48.169390  1955 net.cpp:425] inception_4a/relu_5x5_reduce <- inception_4a/5x5_reduce
I0403 14:46:48.169409  1955 net.cpp:386] inception_4a/relu_5x5_reduce -> inception_4a/5x5_reduce (in-place)
I0403 14:46:48.169589  1955 net.cpp:141] Setting up inception_4a/relu_5x5_reduce
I0403 14:46:48.169613  1955 net.cpp:148] Top shape: 24 16 14 14 (75264)
I0403 14:46:48.169628  1955 net.cpp:156] Memory required for data: 873665568
I0403 14:46:48.169642  1955 layer_factory.hpp:77] Creating layer inception_4a/5x5
I0403 14:46:48.169664  1955 net.cpp:91] Creating Layer inception_4a/5x5
I0403 14:46:48.169682  1955 net.cpp:425] inception_4a/5x5 <- inception_4a/5x5_reduce
I0403 14:46:48.169703  1955 net.cpp:399] inception_4a/5x5 -> inception_4a/5x5
I0403 14:46:48.170824  1955 net.cpp:141] Setting up inception_4a/5x5
I0403 14:46:48.170850  1955 net.cpp:148] Top shape: 24 48 14 14 (225792)
I0403 14:46:48.170878  1955 net.cpp:156] Memory required for data: 874568736
I0403 14:46:48.170898  1955 layer_factory.hpp:77] Creating layer inception_4a/relu_5x5
I0403 14:46:48.170917  1955 net.cpp:91] Creating Layer inception_4a/relu_5x5
I0403 14:46:48.170933  1955 net.cpp:425] inception_4a/relu_5x5 <- inception_4a/5x5
I0403 14:46:48.170953  1955 net.cpp:386] inception_4a/relu_5x5 -> inception_4a/5x5 (in-place)
I0403 14:46:48.171151  1955 net.cpp:141] Setting up inception_4a/relu_5x5
I0403 14:46:48.171187  1955 net.cpp:148] Top shape: 24 48 14 14 (225792)
I0403 14:46:48.171201  1955 net.cpp:156] Memory required for data: 875471904
I0403 14:46:48.171221  1955 layer_factory.hpp:77] Creating layer inception_4a/pool
I0403 14:46:48.171241  1955 net.cpp:91] Creating Layer inception_4a/pool
I0403 14:46:48.171257  1955 net.cpp:425] inception_4a/pool <- pool3/3x3_s2_pool3/3x3_s2_0_split_3
I0403 14:46:48.171274  1955 net.cpp:399] inception_4a/pool -> inception_4a/pool
I0403 14:46:48.171334  1955 net.cpp:141] Setting up inception_4a/pool
I0403 14:46:48.171356  1955 net.cpp:148] Top shape: 24 480 14 14 (2257920)
I0403 14:46:48.171370  1955 net.cpp:156] Memory required for data: 884503584
I0403 14:46:48.171383  1955 layer_factory.hpp:77] Creating layer inception_4a/pool_proj
I0403 14:46:48.171404  1955 net.cpp:91] Creating Layer inception_4a/pool_proj
I0403 14:46:48.171422  1955 net.cpp:425] inception_4a/pool_proj <- inception_4a/pool
I0403 14:46:48.171443  1955 net.cpp:399] inception_4a/pool_proj -> inception_4a/pool_proj
I0403 14:46:48.172582  1955 net.cpp:141] Setting up inception_4a/pool_proj
I0403 14:46:48.172623  1955 net.cpp:148] Top shape: 24 64 14 14 (301056)
I0403 14:46:48.172655  1955 net.cpp:156] Memory required for data: 885707808
I0403 14:46:48.172674  1955 layer_factory.hpp:77] Creating layer inception_4a/relu_pool_proj
I0403 14:46:48.172696  1955 net.cpp:91] Creating Layer inception_4a/relu_pool_proj
I0403 14:46:48.172713  1955 net.cpp:425] inception_4a/relu_pool_proj <- inception_4a/pool_proj
I0403 14:46:48.172730  1955 net.cpp:386] inception_4a/relu_pool_proj -> inception_4a/pool_proj (in-place)
I0403 14:46:48.173022  1955 net.cpp:141] Setting up inception_4a/relu_pool_proj
I0403 14:46:48.173048  1955 net.cpp:148] Top shape: 24 64 14 14 (301056)
I0403 14:46:48.173061  1955 net.cpp:156] Memory required for data: 886912032
I0403 14:46:48.173075  1955 layer_factory.hpp:77] Creating layer inception_4a/output
I0403 14:46:48.173092  1955 net.cpp:91] Creating Layer inception_4a/output
I0403 14:46:48.173108  1955 net.cpp:425] inception_4a/output <- inception_4a/1x1
I0403 14:46:48.173125  1955 net.cpp:425] inception_4a/output <- inception_4a/3x3
I0403 14:46:48.173141  1955 net.cpp:425] inception_4a/output <- inception_4a/5x5
I0403 14:46:48.173156  1955 net.cpp:425] inception_4a/output <- inception_4a/pool_proj
I0403 14:46:48.173174  1955 net.cpp:399] inception_4a/output -> inception_4a/output
I0403 14:46:48.173230  1955 net.cpp:141] Setting up inception_4a/output
I0403 14:46:48.173254  1955 net.cpp:148] Top shape: 24 512 14 14 (2408448)
I0403 14:46:48.173267  1955 net.cpp:156] Memory required for data: 896545824
I0403 14:46:48.173281  1955 layer_factory.hpp:77] Creating layer inception_4a/output_inception_4a/output_0_split
I0403 14:46:48.173298  1955 net.cpp:91] Creating Layer inception_4a/output_inception_4a/output_0_split
I0403 14:46:48.173313  1955 net.cpp:425] inception_4a/output_inception_4a/output_0_split <- inception_4a/output
I0403 14:46:48.173332  1955 net.cpp:399] inception_4a/output_inception_4a/output_0_split -> inception_4a/output_inception_4a/output_0_split_0
I0403 14:46:48.173354  1955 net.cpp:399] inception_4a/output_inception_4a/output_0_split -> inception_4a/output_inception_4a/output_0_split_1
I0403 14:46:48.173374  1955 net.cpp:399] inception_4a/output_inception_4a/output_0_split -> inception_4a/output_inception_4a/output_0_split_2
I0403 14:46:48.173394  1955 net.cpp:399] inception_4a/output_inception_4a/output_0_split -> inception_4a/output_inception_4a/output_0_split_3
I0403 14:46:48.173413  1955 net.cpp:399] inception_4a/output_inception_4a/output_0_split -> inception_4a/output_inception_4a/output_0_split_4
I0403 14:46:48.173502  1955 net.cpp:141] Setting up inception_4a/output_inception_4a/output_0_split
I0403 14:46:48.173527  1955 net.cpp:148] Top shape: 24 512 14 14 (2408448)
I0403 14:46:48.173542  1955 net.cpp:148] Top shape: 24 512 14 14 (2408448)
I0403 14:46:48.173558  1955 net.cpp:148] Top shape: 24 512 14 14 (2408448)
I0403 14:46:48.173573  1955 net.cpp:148] Top shape: 24 512 14 14 (2408448)
I0403 14:46:48.173588  1955 net.cpp:148] Top shape: 24 512 14 14 (2408448)
I0403 14:46:48.173601  1955 net.cpp:156] Memory required for data: 944714784
I0403 14:46:48.173615  1955 layer_factory.hpp:77] Creating layer loss1/ave_pool
I0403 14:46:48.173632  1955 net.cpp:91] Creating Layer loss1/ave_pool
I0403 14:46:48.173647  1955 net.cpp:425] loss1/ave_pool <- inception_4a/output_inception_4a/output_0_split_0
I0403 14:46:48.173667  1955 net.cpp:399] loss1/ave_pool -> loss1/ave_pool
I0403 14:46:48.173872  1955 net.cpp:141] Setting up loss1/ave_pool
I0403 14:46:48.173897  1955 net.cpp:148] Top shape: 24 512 4 4 (196608)
I0403 14:46:48.173912  1955 net.cpp:156] Memory required for data: 945501216
I0403 14:46:48.173926  1955 layer_factory.hpp:77] Creating layer loss1/conv
I0403 14:46:48.173949  1955 net.cpp:91] Creating Layer loss1/conv
I0403 14:46:48.173965  1955 net.cpp:425] loss1/conv <- loss1/ave_pool
I0403 14:46:48.173986  1955 net.cpp:399] loss1/conv -> loss1/conv
I0403 14:46:48.175402  1955 net.cpp:141] Setting up loss1/conv
I0403 14:46:48.175432  1955 net.cpp:148] Top shape: 24 128 4 4 (49152)
I0403 14:46:48.175462  1955 net.cpp:156] Memory required for data: 945697824
I0403 14:46:48.175480  1955 layer_factory.hpp:77] Creating layer loss1/relu_conv
I0403 14:46:48.175498  1955 net.cpp:91] Creating Layer loss1/relu_conv
I0403 14:46:48.175514  1955 net.cpp:425] loss1/relu_conv <- loss1/conv
I0403 14:46:48.175531  1955 net.cpp:386] loss1/relu_conv -> loss1/conv (in-place)
I0403 14:46:48.175812  1955 net.cpp:141] Setting up loss1/relu_conv
I0403 14:46:48.175839  1955 net.cpp:148] Top shape: 24 128 4 4 (49152)
I0403 14:46:48.175856  1955 net.cpp:156] Memory required for data: 945894432
I0403 14:46:48.175871  1955 layer_factory.hpp:77] Creating layer loss1/fc
I0403 14:46:48.175895  1955 net.cpp:91] Creating Layer loss1/fc
I0403 14:46:48.175915  1955 net.cpp:425] loss1/fc <- loss1/conv
I0403 14:46:48.175935  1955 net.cpp:399] loss1/fc -> loss1/fc
I0403 14:46:48.193536  1955 net.cpp:141] Setting up loss1/fc
I0403 14:46:48.193588  1955 net.cpp:148] Top shape: 24 1024 (24576)
I0403 14:46:48.193603  1955 net.cpp:156] Memory required for data: 945992736
I0403 14:46:48.193621  1955 layer_factory.hpp:77] Creating layer loss1/relu_fc
I0403 14:46:48.193644  1955 net.cpp:91] Creating Layer loss1/relu_fc
I0403 14:46:48.193660  1955 net.cpp:425] loss1/relu_fc <- loss1/fc
I0403 14:46:48.193680  1955 net.cpp:386] loss1/relu_fc -> loss1/fc (in-place)
I0403 14:46:48.193883  1955 net.cpp:141] Setting up loss1/relu_fc
I0403 14:46:48.193912  1955 net.cpp:148] Top shape: 24 1024 (24576)
I0403 14:46:48.193928  1955 net.cpp:156] Memory required for data: 946091040
I0403 14:46:48.193943  1955 layer_factory.hpp:77] Creating layer loss1/drop_fc
I0403 14:46:48.193969  1955 net.cpp:91] Creating Layer loss1/drop_fc
I0403 14:46:48.193987  1955 net.cpp:425] loss1/drop_fc <- loss1/fc
I0403 14:46:48.194005  1955 net.cpp:386] loss1/drop_fc -> loss1/fc (in-place)
I0403 14:46:48.194057  1955 net.cpp:141] Setting up loss1/drop_fc
I0403 14:46:48.194080  1955 net.cpp:148] Top shape: 24 1024 (24576)
I0403 14:46:48.194095  1955 net.cpp:156] Memory required for data: 946189344
I0403 14:46:48.194110  1955 layer_factory.hpp:77] Creating layer loss1/classifier_plantvillage
I0403 14:46:48.194133  1955 net.cpp:91] Creating Layer loss1/classifier_plantvillage
I0403 14:46:48.194149  1955 net.cpp:425] loss1/classifier_plantvillage <- loss1/fc
I0403 14:46:48.194169  1955 net.cpp:399] loss1/classifier_plantvillage -> loss1/classifier_plantvillage
I0403 14:46:48.195078  1955 net.cpp:141] Setting up loss1/classifier_plantvillage
I0403 14:46:48.195109  1955 net.cpp:148] Top shape: 24 38 (912)
I0403 14:46:48.195125  1955 net.cpp:156] Memory required for data: 946192992
I0403 14:46:48.195143  1955 layer_factory.hpp:77] Creating layer loss1/classifier_plantvillage_loss1/classifier_plantvillage_0_split
I0403 14:46:48.195163  1955 net.cpp:91] Creating Layer loss1/classifier_plantvillage_loss1/classifier_plantvillage_0_split
I0403 14:46:48.195179  1955 net.cpp:425] loss1/classifier_plantvillage_loss1/classifier_plantvillage_0_split <- loss1/classifier_plantvillage
I0403 14:46:48.195197  1955 net.cpp:399] loss1/classifier_plantvillage_loss1/classifier_plantvillage_0_split -> loss1/classifier_plantvillage_loss1/classifier_plantvillage_0_split_0
I0403 14:46:48.195224  1955 net.cpp:399] loss1/classifier_plantvillage_loss1/classifier_plantvillage_0_split -> loss1/classifier_plantvillage_loss1/classifier_plantvillage_0_split_1
I0403 14:46:48.195245  1955 net.cpp:399] loss1/classifier_plantvillage_loss1/classifier_plantvillage_0_split -> loss1/classifier_plantvillage_loss1/classifier_plantvillage_0_split_2
I0403 14:46:48.195312  1955 net.cpp:141] Setting up loss1/classifier_plantvillage_loss1/classifier_plantvillage_0_split
I0403 14:46:48.195334  1955 net.cpp:148] Top shape: 24 38 (912)
I0403 14:46:48.195350  1955 net.cpp:148] Top shape: 24 38 (912)
I0403 14:46:48.195365  1955 net.cpp:148] Top shape: 24 38 (912)
I0403 14:46:48.195379  1955 net.cpp:156] Memory required for data: 946203936
I0403 14:46:48.195392  1955 layer_factory.hpp:77] Creating layer inception_4b/1x1
I0403 14:46:48.195415  1955 net.cpp:91] Creating Layer inception_4b/1x1
I0403 14:46:48.195454  1955 net.cpp:425] inception_4b/1x1 <- inception_4a/output_inception_4a/output_0_split_1
I0403 14:46:48.195478  1955 net.cpp:399] inception_4b/1x1 -> inception_4b/1x1
I0403 14:46:48.197156  1955 net.cpp:141] Setting up inception_4b/1x1
I0403 14:46:48.197186  1955 net.cpp:148] Top shape: 24 160 14 14 (752640)
I0403 14:46:48.197202  1955 net.cpp:156] Memory required for data: 949214496
I0403 14:46:48.197228  1955 layer_factory.hpp:77] Creating layer inception_4b/relu_1x1
I0403 14:46:48.197247  1955 net.cpp:91] Creating Layer inception_4b/relu_1x1
I0403 14:46:48.197263  1955 net.cpp:425] inception_4b/relu_1x1 <- inception_4b/1x1
I0403 14:46:48.197280  1955 net.cpp:386] inception_4b/relu_1x1 -> inception_4b/1x1 (in-place)
I0403 14:46:48.197463  1955 net.cpp:141] Setting up inception_4b/relu_1x1
I0403 14:46:48.197487  1955 net.cpp:148] Top shape: 24 160 14 14 (752640)
I0403 14:46:48.197501  1955 net.cpp:156] Memory required for data: 952225056
I0403 14:46:48.197515  1955 layer_factory.hpp:77] Creating layer inception_4b/3x3_reduce
I0403 14:46:48.197540  1955 net.cpp:91] Creating Layer inception_4b/3x3_reduce
I0403 14:46:48.197557  1955 net.cpp:425] inception_4b/3x3_reduce <- inception_4a/output_inception_4a/output_0_split_2
I0403 14:46:48.197582  1955 net.cpp:399] inception_4b/3x3_reduce -> inception_4b/3x3_reduce
I0403 14:46:48.198989  1955 net.cpp:141] Setting up inception_4b/3x3_reduce
I0403 14:46:48.199028  1955 net.cpp:148] Top shape: 24 112 14 14 (526848)
I0403 14:46:48.199043  1955 net.cpp:156] Memory required for data: 954332448
I0403 14:46:48.199062  1955 layer_factory.hpp:77] Creating layer inception_4b/relu_3x3_reduce
I0403 14:46:48.199080  1955 net.cpp:91] Creating Layer inception_4b/relu_3x3_reduce
I0403 14:46:48.199096  1955 net.cpp:425] inception_4b/relu_3x3_reduce <- inception_4b/3x3_reduce
I0403 14:46:48.199117  1955 net.cpp:386] inception_4b/relu_3x3_reduce -> inception_4b/3x3_reduce (in-place)
I0403 14:46:48.199434  1955 net.cpp:141] Setting up inception_4b/relu_3x3_reduce
I0403 14:46:48.199461  1955 net.cpp:148] Top shape: 24 112 14 14 (526848)
I0403 14:46:48.199478  1955 net.cpp:156] Memory required for data: 956439840
I0403 14:46:48.199494  1955 layer_factory.hpp:77] Creating layer inception_4b/3x3
I0403 14:46:48.199518  1955 net.cpp:91] Creating Layer inception_4b/3x3
I0403 14:46:48.199537  1955 net.cpp:425] inception_4b/3x3 <- inception_4b/3x3_reduce
I0403 14:46:48.199560  1955 net.cpp:399] inception_4b/3x3 -> inception_4b/3x3
I0403 14:46:48.202661  1955 net.cpp:141] Setting up inception_4b/3x3
I0403 14:46:48.202690  1955 net.cpp:148] Top shape: 24 224 14 14 (1053696)
I0403 14:46:48.202707  1955 net.cpp:156] Memory required for data: 960654624
I0403 14:46:48.202724  1955 layer_factory.hpp:77] Creating layer inception_4b/relu_3x3
I0403 14:46:48.202746  1955 net.cpp:91] Creating Layer inception_4b/relu_3x3
I0403 14:46:48.202764  1955 net.cpp:425] inception_4b/relu_3x3 <- inception_4b/3x3
I0403 14:46:48.202781  1955 net.cpp:386] inception_4b/relu_3x3 -> inception_4b/3x3 (in-place)
I0403 14:46:48.202970  1955 net.cpp:141] Setting up inception_4b/relu_3x3
I0403 14:46:48.202998  1955 net.cpp:148] Top shape: 24 224 14 14 (1053696)
I0403 14:46:48.203014  1955 net.cpp:156] Memory required for data: 964869408
I0403 14:46:48.203028  1955 layer_factory.hpp:77] Creating layer inception_4b/5x5_reduce
I0403 14:46:48.203052  1955 net.cpp:91] Creating Layer inception_4b/5x5_reduce
I0403 14:46:48.203070  1955 net.cpp:425] inception_4b/5x5_reduce <- inception_4a/output_inception_4a/output_0_split_3
I0403 14:46:48.203091  1955 net.cpp:399] inception_4b/5x5_reduce -> inception_4b/5x5_reduce
I0403 14:46:48.204217  1955 net.cpp:141] Setting up inception_4b/5x5_reduce
I0403 14:46:48.204249  1955 net.cpp:148] Top shape: 24 24 14 14 (112896)
I0403 14:46:48.204267  1955 net.cpp:156] Memory required for data: 965320992
I0403 14:46:48.204285  1955 layer_factory.hpp:77] Creating layer inception_4b/relu_5x5_reduce
I0403 14:46:48.204304  1955 net.cpp:91] Creating Layer inception_4b/relu_5x5_reduce
I0403 14:46:48.204335  1955 net.cpp:425] inception_4b/relu_5x5_reduce <- inception_4b/5x5_reduce
I0403 14:46:48.204357  1955 net.cpp:386] inception_4b/relu_5x5_reduce -> inception_4b/5x5_reduce (in-place)
I0403 14:46:48.204545  1955 net.cpp:141] Setting up inception_4b/relu_5x5_reduce
I0403 14:46:48.204571  1955 net.cpp:148] Top shape: 24 24 14 14 (112896)
I0403 14:46:48.204586  1955 net.cpp:156] Memory required for data: 965772576
I0403 14:46:48.204601  1955 layer_factory.hpp:77] Creating layer inception_4b/5x5
I0403 14:46:48.204624  1955 net.cpp:91] Creating Layer inception_4b/5x5
I0403 14:46:48.204643  1955 net.cpp:425] inception_4b/5x5 <- inception_4b/5x5_reduce
I0403 14:46:48.204664  1955 net.cpp:399] inception_4b/5x5 -> inception_4b/5x5
I0403 14:46:48.205950  1955 net.cpp:141] Setting up inception_4b/5x5
I0403 14:46:48.205981  1955 net.cpp:148] Top shape: 24 64 14 14 (301056)
I0403 14:46:48.205996  1955 net.cpp:156] Memory required for data: 966976800
I0403 14:46:48.206014  1955 layer_factory.hpp:77] Creating layer inception_4b/relu_5x5
I0403 14:46:48.206032  1955 net.cpp:91] Creating Layer inception_4b/relu_5x5
I0403 14:46:48.206048  1955 net.cpp:425] inception_4b/relu_5x5 <- inception_4b/5x5
I0403 14:46:48.206065  1955 net.cpp:386] inception_4b/relu_5x5 -> inception_4b/5x5 (in-place)
I0403 14:46:48.206359  1955 net.cpp:141] Setting up inception_4b/relu_5x5
I0403 14:46:48.206387  1955 net.cpp:148] Top shape: 24 64 14 14 (301056)
I0403 14:46:48.206403  1955 net.cpp:156] Memory required for data: 968181024
I0403 14:46:48.206418  1955 layer_factory.hpp:77] Creating layer inception_4b/pool
I0403 14:46:48.206437  1955 net.cpp:91] Creating Layer inception_4b/pool
I0403 14:46:48.206454  1955 net.cpp:425] inception_4b/pool <- inception_4a/output_inception_4a/output_0_split_4
I0403 14:46:48.206475  1955 net.cpp:399] inception_4b/pool -> inception_4b/pool
I0403 14:46:48.206538  1955 net.cpp:141] Setting up inception_4b/pool
I0403 14:46:48.206562  1955 net.cpp:148] Top shape: 24 512 14 14 (2408448)
I0403 14:46:48.206576  1955 net.cpp:156] Memory required for data: 977814816
I0403 14:46:48.206591  1955 layer_factory.hpp:77] Creating layer inception_4b/pool_proj
I0403 14:46:48.206614  1955 net.cpp:91] Creating Layer inception_4b/pool_proj
I0403 14:46:48.206631  1955 net.cpp:425] inception_4b/pool_proj <- inception_4b/pool
I0403 14:46:48.206653  1955 net.cpp:399] inception_4b/pool_proj -> inception_4b/pool_proj
I0403 14:46:48.207893  1955 net.cpp:141] Setting up inception_4b/pool_proj
I0403 14:46:48.207921  1955 net.cpp:148] Top shape: 24 64 14 14 (301056)
I0403 14:46:48.207937  1955 net.cpp:156] Memory required for data: 979019040
I0403 14:46:48.207954  1955 layer_factory.hpp:77] Creating layer inception_4b/relu_pool_proj
I0403 14:46:48.207973  1955 net.cpp:91] Creating Layer inception_4b/relu_pool_proj
I0403 14:46:48.207988  1955 net.cpp:425] inception_4b/relu_pool_proj <- inception_4b/pool_proj
I0403 14:46:48.208009  1955 net.cpp:386] inception_4b/relu_pool_proj -> inception_4b/pool_proj (in-place)
I0403 14:46:48.208192  1955 net.cpp:141] Setting up inception_4b/relu_pool_proj
I0403 14:46:48.208223  1955 net.cpp:148] Top shape: 24 64 14 14 (301056)
I0403 14:46:48.208240  1955 net.cpp:156] Memory required for data: 980223264
I0403 14:46:48.208255  1955 layer_factory.hpp:77] Creating layer inception_4b/output
I0403 14:46:48.208272  1955 net.cpp:91] Creating Layer inception_4b/output
I0403 14:46:48.208288  1955 net.cpp:425] inception_4b/output <- inception_4b/1x1
I0403 14:46:48.208307  1955 net.cpp:425] inception_4b/output <- inception_4b/3x3
I0403 14:46:48.208326  1955 net.cpp:425] inception_4b/output <- inception_4b/5x5
I0403 14:46:48.208341  1955 net.cpp:425] inception_4b/output <- inception_4b/pool_proj
I0403 14:46:48.208359  1955 net.cpp:399] inception_4b/output -> inception_4b/output
I0403 14:46:48.208403  1955 net.cpp:141] Setting up inception_4b/output
I0403 14:46:48.208428  1955 net.cpp:148] Top shape: 24 512 14 14 (2408448)
I0403 14:46:48.208444  1955 net.cpp:156] Memory required for data: 989857056
I0403 14:46:48.208473  1955 layer_factory.hpp:77] Creating layer inception_4b/output_inception_4b/output_0_split
I0403 14:46:48.208492  1955 net.cpp:91] Creating Layer inception_4b/output_inception_4b/output_0_split
I0403 14:46:48.208506  1955 net.cpp:425] inception_4b/output_inception_4b/output_0_split <- inception_4b/output
I0403 14:46:48.208528  1955 net.cpp:399] inception_4b/output_inception_4b/output_0_split -> inception_4b/output_inception_4b/output_0_split_0
I0403 14:46:48.208549  1955 net.cpp:399] inception_4b/output_inception_4b/output_0_split -> inception_4b/output_inception_4b/output_0_split_1
I0403 14:46:48.208570  1955 net.cpp:399] inception_4b/output_inception_4b/output_0_split -> inception_4b/output_inception_4b/output_0_split_2
I0403 14:46:48.208590  1955 net.cpp:399] inception_4b/output_inception_4b/output_0_split -> inception_4b/output_inception_4b/output_0_split_3
I0403 14:46:48.208673  1955 net.cpp:141] Setting up inception_4b/output_inception_4b/output_0_split
I0403 14:46:48.208698  1955 net.cpp:148] Top shape: 24 512 14 14 (2408448)
I0403 14:46:48.208714  1955 net.cpp:148] Top shape: 24 512 14 14 (2408448)
I0403 14:46:48.208730  1955 net.cpp:148] Top shape: 24 512 14 14 (2408448)
I0403 14:46:48.208745  1955 net.cpp:148] Top shape: 24 512 14 14 (2408448)
I0403 14:46:48.208760  1955 net.cpp:156] Memory required for data: 1028392224
I0403 14:46:48.208775  1955 layer_factory.hpp:77] Creating layer inception_4c/1x1
I0403 14:46:48.208797  1955 net.cpp:91] Creating Layer inception_4c/1x1
I0403 14:46:48.208816  1955 net.cpp:425] inception_4c/1x1 <- inception_4b/output_inception_4b/output_0_split_0
I0403 14:46:48.208834  1955 net.cpp:399] inception_4c/1x1 -> inception_4c/1x1
I0403 14:46:48.210324  1955 net.cpp:141] Setting up inception_4c/1x1
I0403 14:46:48.210351  1955 net.cpp:148] Top shape: 24 128 14 14 (602112)
I0403 14:46:48.210368  1955 net.cpp:156] Memory required for data: 1030800672
I0403 14:46:48.210387  1955 layer_factory.hpp:77] Creating layer inception_4c/relu_1x1
I0403 14:46:48.210407  1955 net.cpp:91] Creating Layer inception_4c/relu_1x1
I0403 14:46:48.210424  1955 net.cpp:425] inception_4c/relu_1x1 <- inception_4c/1x1
I0403 14:46:48.210443  1955 net.cpp:386] inception_4c/relu_1x1 -> inception_4c/1x1 (in-place)
I0403 14:46:48.210633  1955 net.cpp:141] Setting up inception_4c/relu_1x1
I0403 14:46:48.210657  1955 net.cpp:148] Top shape: 24 128 14 14 (602112)
I0403 14:46:48.210672  1955 net.cpp:156] Memory required for data: 1033209120
I0403 14:46:48.210687  1955 layer_factory.hpp:77] Creating layer inception_4c/3x3_reduce
I0403 14:46:48.210711  1955 net.cpp:91] Creating Layer inception_4c/3x3_reduce
I0403 14:46:48.210731  1955 net.cpp:425] inception_4c/3x3_reduce <- inception_4b/output_inception_4b/output_0_split_1
I0403 14:46:48.210750  1955 net.cpp:399] inception_4c/3x3_reduce -> inception_4c/3x3_reduce
I0403 14:46:48.212745  1955 net.cpp:141] Setting up inception_4c/3x3_reduce
I0403 14:46:48.212777  1955 net.cpp:148] Top shape: 24 128 14 14 (602112)
I0403 14:46:48.212793  1955 net.cpp:156] Memory required for data: 1035617568
I0403 14:46:48.212813  1955 layer_factory.hpp:77] Creating layer inception_4c/relu_3x3_reduce
I0403 14:46:48.212832  1955 net.cpp:91] Creating Layer inception_4c/relu_3x3_reduce
I0403 14:46:48.212848  1955 net.cpp:425] inception_4c/relu_3x3_reduce <- inception_4c/3x3_reduce
I0403 14:46:48.212868  1955 net.cpp:386] inception_4c/relu_3x3_reduce -> inception_4c/3x3_reduce (in-place)
I0403 14:46:48.213163  1955 net.cpp:141] Setting up inception_4c/relu_3x3_reduce
I0403 14:46:48.213192  1955 net.cpp:148] Top shape: 24 128 14 14 (602112)
I0403 14:46:48.213214  1955 net.cpp:156] Memory required for data: 1038026016
I0403 14:46:48.213232  1955 layer_factory.hpp:77] Creating layer inception_4c/3x3
I0403 14:46:48.213258  1955 net.cpp:91] Creating Layer inception_4c/3x3
I0403 14:46:48.213276  1955 net.cpp:425] inception_4c/3x3 <- inception_4c/3x3_reduce
I0403 14:46:48.213296  1955 net.cpp:399] inception_4c/3x3 -> inception_4c/3x3
I0403 14:46:48.217011  1955 net.cpp:141] Setting up inception_4c/3x3
I0403 14:46:48.217056  1955 net.cpp:148] Top shape: 24 256 14 14 (1204224)
I0403 14:46:48.217074  1955 net.cpp:156] Memory required for data: 1042842912
I0403 14:46:48.217108  1955 layer_factory.hpp:77] Creating layer inception_4c/relu_3x3
I0403 14:46:48.217128  1955 net.cpp:91] Creating Layer inception_4c/relu_3x3
I0403 14:46:48.217145  1955 net.cpp:425] inception_4c/relu_3x3 <- inception_4c/3x3
I0403 14:46:48.217164  1955 net.cpp:386] inception_4c/relu_3x3 -> inception_4c/3x3 (in-place)
I0403 14:46:48.217361  1955 net.cpp:141] Setting up inception_4c/relu_3x3
I0403 14:46:48.217389  1955 net.cpp:148] Top shape: 24 256 14 14 (1204224)
I0403 14:46:48.217406  1955 net.cpp:156] Memory required for data: 1047659808
I0403 14:46:48.217422  1955 layer_factory.hpp:77] Creating layer inception_4c/5x5_reduce
I0403 14:46:48.217447  1955 net.cpp:91] Creating Layer inception_4c/5x5_reduce
I0403 14:46:48.217465  1955 net.cpp:425] inception_4c/5x5_reduce <- inception_4b/output_inception_4b/output_0_split_2
I0403 14:46:48.217485  1955 net.cpp:399] inception_4c/5x5_reduce -> inception_4c/5x5_reduce
I0403 14:46:48.218650  1955 net.cpp:141] Setting up inception_4c/5x5_reduce
I0403 14:46:48.218680  1955 net.cpp:148] Top shape: 24 24 14 14 (112896)
I0403 14:46:48.218698  1955 net.cpp:156] Memory required for data: 1048111392
I0403 14:46:48.218716  1955 layer_factory.hpp:77] Creating layer inception_4c/relu_5x5_reduce
I0403 14:46:48.218734  1955 net.cpp:91] Creating Layer inception_4c/relu_5x5_reduce
I0403 14:46:48.218751  1955 net.cpp:425] inception_4c/relu_5x5_reduce <- inception_4c/5x5_reduce
I0403 14:46:48.218772  1955 net.cpp:386] inception_4c/relu_5x5_reduce -> inception_4c/5x5_reduce (in-place)
I0403 14:46:48.218969  1955 net.cpp:141] Setting up inception_4c/relu_5x5_reduce
I0403 14:46:48.218993  1955 net.cpp:148] Top shape: 24 24 14 14 (112896)
I0403 14:46:48.219008  1955 net.cpp:156] Memory required for data: 1048562976
I0403 14:46:48.219023  1955 layer_factory.hpp:77] Creating layer inception_4c/5x5
I0403 14:46:48.219046  1955 net.cpp:91] Creating Layer inception_4c/5x5
I0403 14:46:48.219064  1955 net.cpp:425] inception_4c/5x5 <- inception_4c/5x5_reduce
I0403 14:46:48.219085  1955 net.cpp:399] inception_4c/5x5 -> inception_4c/5x5
I0403 14:46:48.220368  1955 net.cpp:141] Setting up inception_4c/5x5
I0403 14:46:48.220396  1955 net.cpp:148] Top shape: 24 64 14 14 (301056)
I0403 14:46:48.220412  1955 net.cpp:156] Memory required for data: 1049767200
I0403 14:46:48.220429  1955 layer_factory.hpp:77] Creating layer inception_4c/relu_5x5
I0403 14:46:48.220449  1955 net.cpp:91] Creating Layer inception_4c/relu_5x5
I0403 14:46:48.220468  1955 net.cpp:425] inception_4c/relu_5x5 <- inception_4c/5x5
I0403 14:46:48.220485  1955 net.cpp:386] inception_4c/relu_5x5 -> inception_4c/5x5 (in-place)
I0403 14:46:48.220770  1955 net.cpp:141] Setting up inception_4c/relu_5x5
I0403 14:46:48.220796  1955 net.cpp:148] Top shape: 24 64 14 14 (301056)
I0403 14:46:48.220810  1955 net.cpp:156] Memory required for data: 1050971424
I0403 14:46:48.220825  1955 layer_factory.hpp:77] Creating layer inception_4c/pool
I0403 14:46:48.220845  1955 net.cpp:91] Creating Layer inception_4c/pool
I0403 14:46:48.220862  1955 net.cpp:425] inception_4c/pool <- inception_4b/output_inception_4b/output_0_split_3
I0403 14:46:48.220880  1955 net.cpp:399] inception_4c/pool -> inception_4c/pool
I0403 14:46:48.220945  1955 net.cpp:141] Setting up inception_4c/pool
I0403 14:46:48.220969  1955 net.cpp:148] Top shape: 24 512 14 14 (2408448)
I0403 14:46:48.220984  1955 net.cpp:156] Memory required for data: 1060605216
I0403 14:46:48.220999  1955 layer_factory.hpp:77] Creating layer inception_4c/pool_proj
I0403 14:46:48.221022  1955 net.cpp:91] Creating Layer inception_4c/pool_proj
I0403 14:46:48.221040  1955 net.cpp:425] inception_4c/pool_proj <- inception_4c/pool
I0403 14:46:48.221061  1955 net.cpp:399] inception_4c/pool_proj -> inception_4c/pool_proj
I0403 14:46:48.222288  1955 net.cpp:141] Setting up inception_4c/pool_proj
I0403 14:46:48.222319  1955 net.cpp:148] Top shape: 24 64 14 14 (301056)
I0403 14:46:48.222348  1955 net.cpp:156] Memory required for data: 1061809440
I0403 14:46:48.222368  1955 layer_factory.hpp:77] Creating layer inception_4c/relu_pool_proj
I0403 14:46:48.222386  1955 net.cpp:91] Creating Layer inception_4c/relu_pool_proj
I0403 14:46:48.222403  1955 net.cpp:425] inception_4c/relu_pool_proj <- inception_4c/pool_proj
I0403 14:46:48.222422  1955 net.cpp:386] inception_4c/relu_pool_proj -> inception_4c/pool_proj (in-place)
I0403 14:46:48.222607  1955 net.cpp:141] Setting up inception_4c/relu_pool_proj
I0403 14:46:48.222632  1955 net.cpp:148] Top shape: 24 64 14 14 (301056)
I0403 14:46:48.222647  1955 net.cpp:156] Memory required for data: 1063013664
I0403 14:46:48.222661  1955 layer_factory.hpp:77] Creating layer inception_4c/output
I0403 14:46:48.222679  1955 net.cpp:91] Creating Layer inception_4c/output
I0403 14:46:48.222694  1955 net.cpp:425] inception_4c/output <- inception_4c/1x1
I0403 14:46:48.222710  1955 net.cpp:425] inception_4c/output <- inception_4c/3x3
I0403 14:46:48.222728  1955 net.cpp:425] inception_4c/output <- inception_4c/5x5
I0403 14:46:48.222743  1955 net.cpp:425] inception_4c/output <- inception_4c/pool_proj
I0403 14:46:48.222762  1955 net.cpp:399] inception_4c/output -> inception_4c/output
I0403 14:46:48.222810  1955 net.cpp:141] Setting up inception_4c/output
I0403 14:46:48.222834  1955 net.cpp:148] Top shape: 24 512 14 14 (2408448)
I0403 14:46:48.222849  1955 net.cpp:156] Memory required for data: 1072647456
I0403 14:46:48.222864  1955 layer_factory.hpp:77] Creating layer inception_4c/output_inception_4c/output_0_split
I0403 14:46:48.222882  1955 net.cpp:91] Creating Layer inception_4c/output_inception_4c/output_0_split
I0403 14:46:48.222897  1955 net.cpp:425] inception_4c/output_inception_4c/output_0_split <- inception_4c/output
I0403 14:46:48.222916  1955 net.cpp:399] inception_4c/output_inception_4c/output_0_split -> inception_4c/output_inception_4c/output_0_split_0
I0403 14:46:48.222937  1955 net.cpp:399] inception_4c/output_inception_4c/output_0_split -> inception_4c/output_inception_4c/output_0_split_1
I0403 14:46:48.222959  1955 net.cpp:399] inception_4c/output_inception_4c/output_0_split -> inception_4c/output_inception_4c/output_0_split_2
I0403 14:46:48.222977  1955 net.cpp:399] inception_4c/output_inception_4c/output_0_split -> inception_4c/output_inception_4c/output_0_split_3
I0403 14:46:48.223062  1955 net.cpp:141] Setting up inception_4c/output_inception_4c/output_0_split
I0403 14:46:48.223088  1955 net.cpp:148] Top shape: 24 512 14 14 (2408448)
I0403 14:46:48.223106  1955 net.cpp:148] Top shape: 24 512 14 14 (2408448)
I0403 14:46:48.223122  1955 net.cpp:148] Top shape: 24 512 14 14 (2408448)
I0403 14:46:48.223139  1955 net.cpp:148] Top shape: 24 512 14 14 (2408448)
I0403 14:46:48.223151  1955 net.cpp:156] Memory required for data: 1111182624
I0403 14:46:48.223166  1955 layer_factory.hpp:77] Creating layer inception_4d/1x1
I0403 14:46:48.223186  1955 net.cpp:91] Creating Layer inception_4d/1x1
I0403 14:46:48.223202  1955 net.cpp:425] inception_4d/1x1 <- inception_4c/output_inception_4c/output_0_split_0
I0403 14:46:48.223232  1955 net.cpp:399] inception_4d/1x1 -> inception_4d/1x1
I0403 14:46:48.224663  1955 net.cpp:141] Setting up inception_4d/1x1
I0403 14:46:48.224691  1955 net.cpp:148] Top shape: 24 112 14 14 (526848)
I0403 14:46:48.224707  1955 net.cpp:156] Memory required for data: 1113290016
I0403 14:46:48.224725  1955 layer_factory.hpp:77] Creating layer inception_4d/relu_1x1
I0403 14:46:48.224745  1955 net.cpp:91] Creating Layer inception_4d/relu_1x1
I0403 14:46:48.224762  1955 net.cpp:425] inception_4d/relu_1x1 <- inception_4d/1x1
I0403 14:46:48.224779  1955 net.cpp:386] inception_4d/relu_1x1 -> inception_4d/1x1 (in-place)
I0403 14:46:48.224961  1955 net.cpp:141] Setting up inception_4d/relu_1x1
I0403 14:46:48.224988  1955 net.cpp:148] Top shape: 24 112 14 14 (526848)
I0403 14:46:48.225003  1955 net.cpp:156] Memory required for data: 1115397408
I0403 14:46:48.225018  1955 layer_factory.hpp:77] Creating layer inception_4d/3x3_reduce
I0403 14:46:48.225056  1955 net.cpp:91] Creating Layer inception_4d/3x3_reduce
I0403 14:46:48.225075  1955 net.cpp:425] inception_4d/3x3_reduce <- inception_4c/output_inception_4c/output_0_split_1
I0403 14:46:48.225095  1955 net.cpp:399] inception_4d/3x3_reduce -> inception_4d/3x3_reduce
I0403 14:46:48.226603  1955 net.cpp:141] Setting up inception_4d/3x3_reduce
I0403 14:46:48.226629  1955 net.cpp:148] Top shape: 24 144 14 14 (677376)
I0403 14:46:48.226645  1955 net.cpp:156] Memory required for data: 1118106912
I0403 14:46:48.226665  1955 layer_factory.hpp:77] Creating layer inception_4d/relu_3x3_reduce
I0403 14:46:48.226686  1955 net.cpp:91] Creating Layer inception_4d/relu_3x3_reduce
I0403 14:46:48.226703  1955 net.cpp:425] inception_4d/relu_3x3_reduce <- inception_4d/3x3_reduce
I0403 14:46:48.226722  1955 net.cpp:386] inception_4d/relu_3x3_reduce -> inception_4d/3x3_reduce (in-place)
I0403 14:46:48.227008  1955 net.cpp:141] Setting up inception_4d/relu_3x3_reduce
I0403 14:46:48.227035  1955 net.cpp:148] Top shape: 24 144 14 14 (677376)
I0403 14:46:48.227049  1955 net.cpp:156] Memory required for data: 1120816416
I0403 14:46:48.227064  1955 layer_factory.hpp:77] Creating layer inception_4d/3x3
I0403 14:46:48.227087  1955 net.cpp:91] Creating Layer inception_4d/3x3
I0403 14:46:48.227105  1955 net.cpp:425] inception_4d/3x3 <- inception_4d/3x3_reduce
I0403 14:46:48.227126  1955 net.cpp:399] inception_4d/3x3 -> inception_4d/3x3
I0403 14:46:48.231385  1955 net.cpp:141] Setting up inception_4d/3x3
I0403 14:46:48.231413  1955 net.cpp:148] Top shape: 24 288 14 14 (1354752)
I0403 14:46:48.231428  1955 net.cpp:156] Memory required for data: 1126235424
I0403 14:46:48.231446  1955 layer_factory.hpp:77] Creating layer inception_4d/relu_3x3
I0403 14:46:48.231468  1955 net.cpp:91] Creating Layer inception_4d/relu_3x3
I0403 14:46:48.231487  1955 net.cpp:425] inception_4d/relu_3x3 <- inception_4d/3x3
I0403 14:46:48.231503  1955 net.cpp:386] inception_4d/relu_3x3 -> inception_4d/3x3 (in-place)
I0403 14:46:48.231688  1955 net.cpp:141] Setting up inception_4d/relu_3x3
I0403 14:46:48.231712  1955 net.cpp:148] Top shape: 24 288 14 14 (1354752)
I0403 14:46:48.231726  1955 net.cpp:156] Memory required for data: 1131654432
I0403 14:46:48.231741  1955 layer_factory.hpp:77] Creating layer inception_4d/5x5_reduce
I0403 14:46:48.231763  1955 net.cpp:91] Creating Layer inception_4d/5x5_reduce
I0403 14:46:48.231781  1955 net.cpp:425] inception_4d/5x5_reduce <- inception_4c/output_inception_4c/output_0_split_2
I0403 14:46:48.231802  1955 net.cpp:399] inception_4d/5x5_reduce -> inception_4d/5x5_reduce
I0403 14:46:48.232960  1955 net.cpp:141] Setting up inception_4d/5x5_reduce
I0403 14:46:48.232988  1955 net.cpp:148] Top shape: 24 32 14 14 (150528)
I0403 14:46:48.233006  1955 net.cpp:156] Memory required for data: 1132256544
I0403 14:46:48.233024  1955 layer_factory.hpp:77] Creating layer inception_4d/relu_5x5_reduce
I0403 14:46:48.233043  1955 net.cpp:91] Creating Layer inception_4d/relu_5x5_reduce
I0403 14:46:48.233059  1955 net.cpp:425] inception_4d/relu_5x5_reduce <- inception_4d/5x5_reduce
I0403 14:46:48.233077  1955 net.cpp:386] inception_4d/relu_5x5_reduce -> inception_4d/5x5_reduce (in-place)
I0403 14:46:48.233278  1955 net.cpp:141] Setting up inception_4d/relu_5x5_reduce
I0403 14:46:48.233305  1955 net.cpp:148] Top shape: 24 32 14 14 (150528)
I0403 14:46:48.233320  1955 net.cpp:156] Memory required for data: 1132858656
I0403 14:46:48.233335  1955 layer_factory.hpp:77] Creating layer inception_4d/5x5
I0403 14:46:48.233358  1955 net.cpp:91] Creating Layer inception_4d/5x5
I0403 14:46:48.233376  1955 net.cpp:425] inception_4d/5x5 <- inception_4d/5x5_reduce
I0403 14:46:48.233394  1955 net.cpp:399] inception_4d/5x5 -> inception_4d/5x5
I0403 14:46:48.234872  1955 net.cpp:141] Setting up inception_4d/5x5
I0403 14:46:48.234899  1955 net.cpp:148] Top shape: 24 64 14 14 (301056)
I0403 14:46:48.234915  1955 net.cpp:156] Memory required for data: 1134062880
I0403 14:46:48.234933  1955 layer_factory.hpp:77] Creating layer inception_4d/relu_5x5
I0403 14:46:48.234966  1955 net.cpp:91] Creating Layer inception_4d/relu_5x5
I0403 14:46:48.234982  1955 net.cpp:425] inception_4d/relu_5x5 <- inception_4d/5x5
I0403 14:46:48.235002  1955 net.cpp:386] inception_4d/relu_5x5 -> inception_4d/5x5 (in-place)
I0403 14:46:48.235307  1955 net.cpp:141] Setting up inception_4d/relu_5x5
I0403 14:46:48.235333  1955 net.cpp:148] Top shape: 24 64 14 14 (301056)
I0403 14:46:48.235347  1955 net.cpp:156] Memory required for data: 1135267104
I0403 14:46:48.235363  1955 layer_factory.hpp:77] Creating layer inception_4d/pool
I0403 14:46:48.235380  1955 net.cpp:91] Creating Layer inception_4d/pool
I0403 14:46:48.235396  1955 net.cpp:425] inception_4d/pool <- inception_4c/output_inception_4c/output_0_split_3
I0403 14:46:48.235416  1955 net.cpp:399] inception_4d/pool -> inception_4d/pool
I0403 14:46:48.235482  1955 net.cpp:141] Setting up inception_4d/pool
I0403 14:46:48.235507  1955 net.cpp:148] Top shape: 24 512 14 14 (2408448)
I0403 14:46:48.235522  1955 net.cpp:156] Memory required for data: 1144900896
I0403 14:46:48.235538  1955 layer_factory.hpp:77] Creating layer inception_4d/pool_proj
I0403 14:46:48.235559  1955 net.cpp:91] Creating Layer inception_4d/pool_proj
I0403 14:46:48.235579  1955 net.cpp:425] inception_4d/pool_proj <- inception_4d/pool
I0403 14:46:48.235599  1955 net.cpp:399] inception_4d/pool_proj -> inception_4d/pool_proj
I0403 14:46:48.237357  1955 net.cpp:141] Setting up inception_4d/pool_proj
I0403 14:46:48.237386  1955 net.cpp:148] Top shape: 24 64 14 14 (301056)
I0403 14:46:48.237401  1955 net.cpp:156] Memory required for data: 1146105120
I0403 14:46:48.237421  1955 layer_factory.hpp:77] Creating layer inception_4d/relu_pool_proj
I0403 14:46:48.237442  1955 net.cpp:91] Creating Layer inception_4d/relu_pool_proj
I0403 14:46:48.237458  1955 net.cpp:425] inception_4d/relu_pool_proj <- inception_4d/pool_proj
I0403 14:46:48.237476  1955 net.cpp:386] inception_4d/relu_pool_proj -> inception_4d/pool_proj (in-place)
I0403 14:46:48.237663  1955 net.cpp:141] Setting up inception_4d/relu_pool_proj
I0403 14:46:48.237689  1955 net.cpp:148] Top shape: 24 64 14 14 (301056)
I0403 14:46:48.237702  1955 net.cpp:156] Memory required for data: 1147309344
I0403 14:46:48.237717  1955 layer_factory.hpp:77] Creating layer inception_4d/output
I0403 14:46:48.237735  1955 net.cpp:91] Creating Layer inception_4d/output
I0403 14:46:48.237751  1955 net.cpp:425] inception_4d/output <- inception_4d/1x1
I0403 14:46:48.237767  1955 net.cpp:425] inception_4d/output <- inception_4d/3x3
I0403 14:46:48.237783  1955 net.cpp:425] inception_4d/output <- inception_4d/5x5
I0403 14:46:48.237799  1955 net.cpp:425] inception_4d/output <- inception_4d/pool_proj
I0403 14:46:48.237818  1955 net.cpp:399] inception_4d/output -> inception_4d/output
I0403 14:46:48.237866  1955 net.cpp:141] Setting up inception_4d/output
I0403 14:46:48.237891  1955 net.cpp:148] Top shape: 24 528 14 14 (2483712)
I0403 14:46:48.237907  1955 net.cpp:156] Memory required for data: 1157244192
I0403 14:46:48.237922  1955 layer_factory.hpp:77] Creating layer inception_4d/output_inception_4d/output_0_split
I0403 14:46:48.237939  1955 net.cpp:91] Creating Layer inception_4d/output_inception_4d/output_0_split
I0403 14:46:48.237956  1955 net.cpp:425] inception_4d/output_inception_4d/output_0_split <- inception_4d/output
I0403 14:46:48.237973  1955 net.cpp:399] inception_4d/output_inception_4d/output_0_split -> inception_4d/output_inception_4d/output_0_split_0
I0403 14:46:48.237993  1955 net.cpp:399] inception_4d/output_inception_4d/output_0_split -> inception_4d/output_inception_4d/output_0_split_1
I0403 14:46:48.238018  1955 net.cpp:399] inception_4d/output_inception_4d/output_0_split -> inception_4d/output_inception_4d/output_0_split_2
I0403 14:46:48.238039  1955 net.cpp:399] inception_4d/output_inception_4d/output_0_split -> inception_4d/output_inception_4d/output_0_split_3
I0403 14:46:48.238059  1955 net.cpp:399] inception_4d/output_inception_4d/output_0_split -> inception_4d/output_inception_4d/output_0_split_4
I0403 14:46:48.238162  1955 net.cpp:141] Setting up inception_4d/output_inception_4d/output_0_split
I0403 14:46:48.238198  1955 net.cpp:148] Top shape: 24 528 14 14 (2483712)
I0403 14:46:48.238219  1955 net.cpp:148] Top shape: 24 528 14 14 (2483712)
I0403 14:46:48.238236  1955 net.cpp:148] Top shape: 24 528 14 14 (2483712)
I0403 14:46:48.238252  1955 net.cpp:148] Top shape: 24 528 14 14 (2483712)
I0403 14:46:48.238267  1955 net.cpp:148] Top shape: 24 528 14 14 (2483712)
I0403 14:46:48.238281  1955 net.cpp:156] Memory required for data: 1206918432
I0403 14:46:48.238296  1955 layer_factory.hpp:77] Creating layer loss2/ave_pool
I0403 14:46:48.238317  1955 net.cpp:91] Creating Layer loss2/ave_pool
I0403 14:46:48.238333  1955 net.cpp:425] loss2/ave_pool <- inception_4d/output_inception_4d/output_0_split_0
I0403 14:46:48.238353  1955 net.cpp:399] loss2/ave_pool -> loss2/ave_pool
I0403 14:46:48.238663  1955 net.cpp:141] Setting up loss2/ave_pool
I0403 14:46:48.238689  1955 net.cpp:148] Top shape: 24 528 4 4 (202752)
I0403 14:46:48.238705  1955 net.cpp:156] Memory required for data: 1207729440
I0403 14:46:48.238719  1955 layer_factory.hpp:77] Creating layer loss2/conv
I0403 14:46:48.238744  1955 net.cpp:91] Creating Layer loss2/conv
I0403 14:46:48.238762  1955 net.cpp:425] loss2/conv <- loss2/ave_pool
I0403 14:46:48.238781  1955 net.cpp:399] loss2/conv -> loss2/conv
I0403 14:46:48.240756  1955 net.cpp:141] Setting up loss2/conv
I0403 14:46:48.240785  1955 net.cpp:148] Top shape: 24 128 4 4 (49152)
I0403 14:46:48.240802  1955 net.cpp:156] Memory required for data: 1207926048
I0403 14:46:48.240820  1955 layer_factory.hpp:77] Creating layer loss2/relu_conv
I0403 14:46:48.240841  1955 net.cpp:91] Creating Layer loss2/relu_conv
I0403 14:46:48.240859  1955 net.cpp:425] loss2/relu_conv <- loss2/conv
I0403 14:46:48.240878  1955 net.cpp:386] loss2/relu_conv -> loss2/conv (in-place)
I0403 14:46:48.241173  1955 net.cpp:141] Setting up loss2/relu_conv
I0403 14:46:48.241199  1955 net.cpp:148] Top shape: 24 128 4 4 (49152)
I0403 14:46:48.241220  1955 net.cpp:156] Memory required for data: 1208122656
I0403 14:46:48.241236  1955 layer_factory.hpp:77] Creating layer loss2/fc
I0403 14:46:48.241256  1955 net.cpp:91] Creating Layer loss2/fc
I0403 14:46:48.241273  1955 net.cpp:425] loss2/fc <- loss2/conv
I0403 14:46:48.241296  1955 net.cpp:399] loss2/fc -> loss2/fc
I0403 14:46:48.259464  1955 net.cpp:141] Setting up loss2/fc
I0403 14:46:48.259585  1955 net.cpp:148] Top shape: 24 1024 (24576)
I0403 14:46:48.259603  1955 net.cpp:156] Memory required for data: 1208220960
I0403 14:46:48.259624  1955 layer_factory.hpp:77] Creating layer loss2/relu_fc
I0403 14:46:48.259644  1955 net.cpp:91] Creating Layer loss2/relu_fc
I0403 14:46:48.259663  1955 net.cpp:425] loss2/relu_fc <- loss2/fc
I0403 14:46:48.259681  1955 net.cpp:386] loss2/relu_fc -> loss2/fc (in-place)
I0403 14:46:48.260066  1955 net.cpp:141] Setting up loss2/relu_fc
I0403 14:46:48.260093  1955 net.cpp:148] Top shape: 24 1024 (24576)
I0403 14:46:48.260109  1955 net.cpp:156] Memory required for data: 1208319264
I0403 14:46:48.260124  1955 layer_factory.hpp:77] Creating layer loss2/drop_fc
I0403 14:46:48.260143  1955 net.cpp:91] Creating Layer loss2/drop_fc
I0403 14:46:48.260159  1955 net.cpp:425] loss2/drop_fc <- loss2/fc
I0403 14:46:48.260176  1955 net.cpp:386] loss2/drop_fc -> loss2/fc (in-place)
I0403 14:46:48.260232  1955 net.cpp:141] Setting up loss2/drop_fc
I0403 14:46:48.260256  1955 net.cpp:148] Top shape: 24 1024 (24576)
I0403 14:46:48.260269  1955 net.cpp:156] Memory required for data: 1208417568
I0403 14:46:48.260285  1955 layer_factory.hpp:77] Creating layer loss2/classifier_plantvillage
I0403 14:46:48.260306  1955 net.cpp:91] Creating Layer loss2/classifier_plantvillage
I0403 14:46:48.260323  1955 net.cpp:425] loss2/classifier_plantvillage <- loss2/fc
I0403 14:46:48.260341  1955 net.cpp:399] loss2/classifier_plantvillage -> loss2/classifier_plantvillage
I0403 14:46:48.260751  1955 net.cpp:141] Setting up loss2/classifier_plantvillage
I0403 14:46:48.260776  1955 net.cpp:148] Top shape: 24 38 (912)
I0403 14:46:48.260812  1955 net.cpp:156] Memory required for data: 1208421216
I0403 14:46:48.260829  1955 layer_factory.hpp:77] Creating layer loss2/classifier_plantvillage_loss2/classifier_plantvillage_0_split
I0403 14:46:48.260848  1955 net.cpp:91] Creating Layer loss2/classifier_plantvillage_loss2/classifier_plantvillage_0_split
I0403 14:46:48.260864  1955 net.cpp:425] loss2/classifier_plantvillage_loss2/classifier_plantvillage_0_split <- loss2/classifier_plantvillage
I0403 14:46:48.260884  1955 net.cpp:399] loss2/classifier_plantvillage_loss2/classifier_plantvillage_0_split -> loss2/classifier_plantvillage_loss2/classifier_plantvillage_0_split_0
I0403 14:46:48.260905  1955 net.cpp:399] loss2/classifier_plantvillage_loss2/classifier_plantvillage_0_split -> loss2/classifier_plantvillage_loss2/classifier_plantvillage_0_split_1
I0403 14:46:48.260926  1955 net.cpp:399] loss2/classifier_plantvillage_loss2/classifier_plantvillage_0_split -> loss2/classifier_plantvillage_loss2/classifier_plantvillage_0_split_2
I0403 14:46:48.261005  1955 net.cpp:141] Setting up loss2/classifier_plantvillage_loss2/classifier_plantvillage_0_split
I0403 14:46:48.261029  1955 net.cpp:148] Top shape: 24 38 (912)
I0403 14:46:48.261046  1955 net.cpp:148] Top shape: 24 38 (912)
I0403 14:46:48.261061  1955 net.cpp:148] Top shape: 24 38 (912)
I0403 14:46:48.261075  1955 net.cpp:156] Memory required for data: 1208432160
I0403 14:46:48.261088  1955 layer_factory.hpp:77] Creating layer inception_4e/1x1
I0403 14:46:48.261112  1955 net.cpp:91] Creating Layer inception_4e/1x1
I0403 14:46:48.261132  1955 net.cpp:425] inception_4e/1x1 <- inception_4d/output_inception_4d/output_0_split_1
I0403 14:46:48.261152  1955 net.cpp:399] inception_4e/1x1 -> inception_4e/1x1
I0403 14:46:48.263047  1955 net.cpp:141] Setting up inception_4e/1x1
I0403 14:46:48.263075  1955 net.cpp:148] Top shape: 24 256 14 14 (1204224)
I0403 14:46:48.263090  1955 net.cpp:156] Memory required for data: 1213249056
I0403 14:46:48.263108  1955 layer_factory.hpp:77] Creating layer inception_4e/relu_1x1
I0403 14:46:48.263129  1955 net.cpp:91] Creating Layer inception_4e/relu_1x1
I0403 14:46:48.263146  1955 net.cpp:425] inception_4e/relu_1x1 <- inception_4e/1x1
I0403 14:46:48.263164  1955 net.cpp:386] inception_4e/relu_1x1 -> inception_4e/1x1 (in-place)
I0403 14:46:48.263478  1955 net.cpp:141] Setting up inception_4e/relu_1x1
I0403 14:46:48.263504  1955 net.cpp:148] Top shape: 24 256 14 14 (1204224)
I0403 14:46:48.263520  1955 net.cpp:156] Memory required for data: 1218065952
I0403 14:46:48.263535  1955 layer_factory.hpp:77] Creating layer inception_4e/3x3_reduce
I0403 14:46:48.263556  1955 net.cpp:91] Creating Layer inception_4e/3x3_reduce
I0403 14:46:48.263574  1955 net.cpp:425] inception_4e/3x3_reduce <- inception_4d/output_inception_4d/output_0_split_2
I0403 14:46:48.263597  1955 net.cpp:399] inception_4e/3x3_reduce -> inception_4e/3x3_reduce
I0403 14:46:48.266101  1955 net.cpp:141] Setting up inception_4e/3x3_reduce
I0403 14:46:48.266142  1955 net.cpp:148] Top shape: 24 160 14 14 (752640)
I0403 14:46:48.266171  1955 net.cpp:156] Memory required for data: 1221076512
I0403 14:46:48.266192  1955 layer_factory.hpp:77] Creating layer inception_4e/relu_3x3_reduce
I0403 14:46:48.266233  1955 net.cpp:91] Creating Layer inception_4e/relu_3x3_reduce
I0403 14:46:48.266254  1955 net.cpp:425] inception_4e/relu_3x3_reduce <- inception_4e/3x3_reduce
I0403 14:46:48.266289  1955 net.cpp:386] inception_4e/relu_3x3_reduce -> inception_4e/3x3_reduce (in-place)
I0403 14:46:48.266535  1955 net.cpp:141] Setting up inception_4e/relu_3x3_reduce
I0403 14:46:48.266562  1955 net.cpp:148] Top shape: 24 160 14 14 (752640)
I0403 14:46:48.266578  1955 net.cpp:156] Memory required for data: 1224087072
I0403 14:46:48.266602  1955 layer_factory.hpp:77] Creating layer inception_4e/3x3
I0403 14:46:48.266635  1955 net.cpp:91] Creating Layer inception_4e/3x3
I0403 14:46:48.266674  1955 net.cpp:425] inception_4e/3x3 <- inception_4e/3x3_reduce
I0403 14:46:48.266705  1955 net.cpp:399] inception_4e/3x3 -> inception_4e/3x3
I0403 14:46:48.271978  1955 net.cpp:141] Setting up inception_4e/3x3
I0403 14:46:48.272019  1955 net.cpp:148] Top shape: 24 320 14 14 (1505280)
I0403 14:46:48.272037  1955 net.cpp:156] Memory required for data: 1230108192
I0403 14:46:48.272054  1955 layer_factory.hpp:77] Creating layer inception_4e/relu_3x3
I0403 14:46:48.272075  1955 net.cpp:91] Creating Layer inception_4e/relu_3x3
I0403 14:46:48.272092  1955 net.cpp:425] inception_4e/relu_3x3 <- inception_4e/3x3
I0403 14:46:48.272109  1955 net.cpp:386] inception_4e/relu_3x3 -> inception_4e/3x3 (in-place)
I0403 14:46:48.272416  1955 net.cpp:141] Setting up inception_4e/relu_3x3
I0403 14:46:48.272442  1955 net.cpp:148] Top shape: 24 320 14 14 (1505280)
I0403 14:46:48.272457  1955 net.cpp:156] Memory required for data: 1236129312
I0403 14:46:48.272472  1955 layer_factory.hpp:77] Creating layer inception_4e/5x5_reduce
I0403 14:46:48.272495  1955 net.cpp:91] Creating Layer inception_4e/5x5_reduce
I0403 14:46:48.272512  1955 net.cpp:425] inception_4e/5x5_reduce <- inception_4d/output_inception_4d/output_0_split_3
I0403 14:46:48.272534  1955 net.cpp:399] inception_4e/5x5_reduce -> inception_4e/5x5_reduce
I0403 14:46:48.273617  1955 net.cpp:141] Setting up inception_4e/5x5_reduce
I0403 14:46:48.273644  1955 net.cpp:148] Top shape: 24 32 14 14 (150528)
I0403 14:46:48.273659  1955 net.cpp:156] Memory required for data: 1236731424
I0403 14:46:48.273679  1955 layer_factory.hpp:77] Creating layer inception_4e/relu_5x5_reduce
I0403 14:46:48.273696  1955 net.cpp:91] Creating Layer inception_4e/relu_5x5_reduce
I0403 14:46:48.273711  1955 net.cpp:425] inception_4e/relu_5x5_reduce <- inception_4e/5x5_reduce
I0403 14:46:48.273731  1955 net.cpp:386] inception_4e/relu_5x5_reduce -> inception_4e/5x5_reduce (in-place)
I0403 14:46:48.274029  1955 net.cpp:141] Setting up inception_4e/relu_5x5_reduce
I0403 14:46:48.274055  1955 net.cpp:148] Top shape: 24 32 14 14 (150528)
I0403 14:46:48.274070  1955 net.cpp:156] Memory required for data: 1237333536
I0403 14:46:48.274085  1955 layer_factory.hpp:77] Creating layer inception_4e/5x5
I0403 14:46:48.274127  1955 net.cpp:91] Creating Layer inception_4e/5x5
I0403 14:46:48.274147  1955 net.cpp:425] inception_4e/5x5 <- inception_4e/5x5_reduce
I0403 14:46:48.274166  1955 net.cpp:399] inception_4e/5x5 -> inception_4e/5x5
I0403 14:46:48.276023  1955 net.cpp:141] Setting up inception_4e/5x5
I0403 14:46:48.276053  1955 net.cpp:148] Top shape: 24 128 14 14 (602112)
I0403 14:46:48.276070  1955 net.cpp:156] Memory required for data: 1239741984
I0403 14:46:48.276089  1955 layer_factory.hpp:77] Creating layer inception_4e/relu_5x5
I0403 14:46:48.276108  1955 net.cpp:91] Creating Layer inception_4e/relu_5x5
I0403 14:46:48.276124  1955 net.cpp:425] inception_4e/relu_5x5 <- inception_4e/5x5
I0403 14:46:48.276142  1955 net.cpp:386] inception_4e/relu_5x5 -> inception_4e/5x5 (in-place)
I0403 14:46:48.276345  1955 net.cpp:141] Setting up inception_4e/relu_5x5
I0403 14:46:48.276370  1955 net.cpp:148] Top shape: 24 128 14 14 (602112)
I0403 14:46:48.276383  1955 net.cpp:156] Memory required for data: 1242150432
I0403 14:46:48.276398  1955 layer_factory.hpp:77] Creating layer inception_4e/pool
I0403 14:46:48.276417  1955 net.cpp:91] Creating Layer inception_4e/pool
I0403 14:46:48.276432  1955 net.cpp:425] inception_4e/pool <- inception_4d/output_inception_4d/output_0_split_4
I0403 14:46:48.276453  1955 net.cpp:399] inception_4e/pool -> inception_4e/pool
I0403 14:46:48.276527  1955 net.cpp:141] Setting up inception_4e/pool
I0403 14:46:48.276552  1955 net.cpp:148] Top shape: 24 528 14 14 (2483712)
I0403 14:46:48.276567  1955 net.cpp:156] Memory required for data: 1252085280
I0403 14:46:48.276582  1955 layer_factory.hpp:77] Creating layer inception_4e/pool_proj
I0403 14:46:48.276605  1955 net.cpp:91] Creating Layer inception_4e/pool_proj
I0403 14:46:48.276623  1955 net.cpp:425] inception_4e/pool_proj <- inception_4e/pool
I0403 14:46:48.276641  1955 net.cpp:399] inception_4e/pool_proj -> inception_4e/pool_proj
I0403 14:46:48.278151  1955 net.cpp:141] Setting up inception_4e/pool_proj
I0403 14:46:48.278190  1955 net.cpp:148] Top shape: 24 128 14 14 (602112)
I0403 14:46:48.278206  1955 net.cpp:156] Memory required for data: 1254493728
I0403 14:46:48.278230  1955 layer_factory.hpp:77] Creating layer inception_4e/relu_pool_proj
I0403 14:46:48.278251  1955 net.cpp:91] Creating Layer inception_4e/relu_pool_proj
I0403 14:46:48.278269  1955 net.cpp:425] inception_4e/relu_pool_proj <- inception_4e/pool_proj
I0403 14:46:48.278285  1955 net.cpp:386] inception_4e/relu_pool_proj -> inception_4e/pool_proj (in-place)
I0403 14:46:48.278583  1955 net.cpp:141] Setting up inception_4e/relu_pool_proj
I0403 14:46:48.278609  1955 net.cpp:148] Top shape: 24 128 14 14 (602112)
I0403 14:46:48.278623  1955 net.cpp:156] Memory required for data: 1256902176
I0403 14:46:48.278638  1955 layer_factory.hpp:77] Creating layer inception_4e/output
I0403 14:46:48.278658  1955 net.cpp:91] Creating Layer inception_4e/output
I0403 14:46:48.278676  1955 net.cpp:425] inception_4e/output <- inception_4e/1x1
I0403 14:46:48.278692  1955 net.cpp:425] inception_4e/output <- inception_4e/3x3
I0403 14:46:48.278708  1955 net.cpp:425] inception_4e/output <- inception_4e/5x5
I0403 14:46:48.278724  1955 net.cpp:425] inception_4e/output <- inception_4e/pool_proj
I0403 14:46:48.278741  1955 net.cpp:399] inception_4e/output -> inception_4e/output
I0403 14:46:48.278792  1955 net.cpp:141] Setting up inception_4e/output
I0403 14:46:48.278815  1955 net.cpp:148] Top shape: 24 832 14 14 (3913728)
I0403 14:46:48.278830  1955 net.cpp:156] Memory required for data: 1272557088
I0403 14:46:48.278844  1955 layer_factory.hpp:77] Creating layer pool4/3x3_s2
I0403 14:46:48.278861  1955 net.cpp:91] Creating Layer pool4/3x3_s2
I0403 14:46:48.278877  1955 net.cpp:425] pool4/3x3_s2 <- inception_4e/output
I0403 14:46:48.278900  1955 net.cpp:399] pool4/3x3_s2 -> pool4/3x3_s2
I0403 14:46:48.278970  1955 net.cpp:141] Setting up pool4/3x3_s2
I0403 14:46:48.278993  1955 net.cpp:148] Top shape: 24 832 7 7 (978432)
I0403 14:46:48.279007  1955 net.cpp:156] Memory required for data: 1276470816
I0403 14:46:48.279022  1955 layer_factory.hpp:77] Creating layer pool4/3x3_s2_pool4/3x3_s2_0_split
I0403 14:46:48.279039  1955 net.cpp:91] Creating Layer pool4/3x3_s2_pool4/3x3_s2_0_split
I0403 14:46:48.279055  1955 net.cpp:425] pool4/3x3_s2_pool4/3x3_s2_0_split <- pool4/3x3_s2
I0403 14:46:48.279075  1955 net.cpp:399] pool4/3x3_s2_pool4/3x3_s2_0_split -> pool4/3x3_s2_pool4/3x3_s2_0_split_0
I0403 14:46:48.279096  1955 net.cpp:399] pool4/3x3_s2_pool4/3x3_s2_0_split -> pool4/3x3_s2_pool4/3x3_s2_0_split_1
I0403 14:46:48.279117  1955 net.cpp:399] pool4/3x3_s2_pool4/3x3_s2_0_split -> pool4/3x3_s2_pool4/3x3_s2_0_split_2
I0403 14:46:48.279139  1955 net.cpp:399] pool4/3x3_s2_pool4/3x3_s2_0_split -> pool4/3x3_s2_pool4/3x3_s2_0_split_3
I0403 14:46:48.279233  1955 net.cpp:141] Setting up pool4/3x3_s2_pool4/3x3_s2_0_split
I0403 14:46:48.279259  1955 net.cpp:148] Top shape: 24 832 7 7 (978432)
I0403 14:46:48.279276  1955 net.cpp:148] Top shape: 24 832 7 7 (978432)
I0403 14:46:48.279291  1955 net.cpp:148] Top shape: 24 832 7 7 (978432)
I0403 14:46:48.279306  1955 net.cpp:148] Top shape: 24 832 7 7 (978432)
I0403 14:46:48.279320  1955 net.cpp:156] Memory required for data: 1292125728
I0403 14:46:48.279335  1955 layer_factory.hpp:77] Creating layer inception_5a/1x1
I0403 14:46:48.279357  1955 net.cpp:91] Creating Layer inception_5a/1x1
I0403 14:46:48.279376  1955 net.cpp:425] inception_5a/1x1 <- pool4/3x3_s2_pool4/3x3_s2_0_split_0
I0403 14:46:48.279394  1955 net.cpp:399] inception_5a/1x1 -> inception_5a/1x1
I0403 14:46:48.282292  1955 net.cpp:141] Setting up inception_5a/1x1
I0403 14:46:48.282322  1955 net.cpp:148] Top shape: 24 256 7 7 (301056)
I0403 14:46:48.282337  1955 net.cpp:156] Memory required for data: 1293329952
I0403 14:46:48.282356  1955 layer_factory.hpp:77] Creating layer inception_5a/relu_1x1
I0403 14:46:48.282373  1955 net.cpp:91] Creating Layer inception_5a/relu_1x1
I0403 14:46:48.282390  1955 net.cpp:425] inception_5a/relu_1x1 <- inception_5a/1x1
I0403 14:46:48.282409  1955 net.cpp:386] inception_5a/relu_1x1 -> inception_5a/1x1 (in-place)
I0403 14:46:48.282718  1955 net.cpp:141] Setting up inception_5a/relu_1x1
I0403 14:46:48.282747  1955 net.cpp:148] Top shape: 24 256 7 7 (301056)
I0403 14:46:48.282762  1955 net.cpp:156] Memory required for data: 1294534176
I0403 14:46:48.282778  1955 layer_factory.hpp:77] Creating layer inception_5a/3x3_reduce
I0403 14:46:48.282799  1955 net.cpp:91] Creating Layer inception_5a/3x3_reduce
I0403 14:46:48.282817  1955 net.cpp:425] inception_5a/3x3_reduce <- pool4/3x3_s2_pool4/3x3_s2_0_split_1
I0403 14:46:48.282840  1955 net.cpp:399] inception_5a/3x3_reduce -> inception_5a/3x3_reduce
I0403 14:46:48.285318  1955 net.cpp:141] Setting up inception_5a/3x3_reduce
I0403 14:46:48.285346  1955 net.cpp:148] Top shape: 24 160 7 7 (188160)
I0403 14:46:48.285362  1955 net.cpp:156] Memory required for data: 1295286816
I0403 14:46:48.285380  1955 layer_factory.hpp:77] Creating layer inception_5a/relu_3x3_reduce
I0403 14:46:48.285401  1955 net.cpp:91] Creating Layer inception_5a/relu_3x3_reduce
I0403 14:46:48.285419  1955 net.cpp:425] inception_5a/relu_3x3_reduce <- inception_5a/3x3_reduce
I0403 14:46:48.285436  1955 net.cpp:386] inception_5a/relu_3x3_reduce -> inception_5a/3x3_reduce (in-place)
I0403 14:46:48.285624  1955 net.cpp:141] Setting up inception_5a/relu_3x3_reduce
I0403 14:46:48.285650  1955 net.cpp:148] Top shape: 24 160 7 7 (188160)
I0403 14:46:48.285665  1955 net.cpp:156] Memory required for data: 1296039456
I0403 14:46:48.285681  1955 layer_factory.hpp:77] Creating layer inception_5a/3x3
I0403 14:46:48.285703  1955 net.cpp:91] Creating Layer inception_5a/3x3
I0403 14:46:48.285722  1955 net.cpp:425] inception_5a/3x3 <- inception_5a/3x3_reduce
I0403 14:46:48.285740  1955 net.cpp:399] inception_5a/3x3 -> inception_5a/3x3
I0403 14:46:48.290863  1955 net.cpp:141] Setting up inception_5a/3x3
I0403 14:46:48.290894  1955 net.cpp:148] Top shape: 24 320 7 7 (376320)
I0403 14:46:48.290925  1955 net.cpp:156] Memory required for data: 1297544736
I0403 14:46:48.290943  1955 layer_factory.hpp:77] Creating layer inception_5a/relu_3x3
I0403 14:46:48.290962  1955 net.cpp:91] Creating Layer inception_5a/relu_3x3
I0403 14:46:48.290979  1955 net.cpp:425] inception_5a/relu_3x3 <- inception_5a/3x3
I0403 14:46:48.290999  1955 net.cpp:386] inception_5a/relu_3x3 -> inception_5a/3x3 (in-place)
I0403 14:46:48.291321  1955 net.cpp:141] Setting up inception_5a/relu_3x3
I0403 14:46:48.291349  1955 net.cpp:148] Top shape: 24 320 7 7 (376320)
I0403 14:46:48.291365  1955 net.cpp:156] Memory required for data: 1299050016
I0403 14:46:48.291380  1955 layer_factory.hpp:77] Creating layer inception_5a/5x5_reduce
I0403 14:46:48.291404  1955 net.cpp:91] Creating Layer inception_5a/5x5_reduce
I0403 14:46:48.291422  1955 net.cpp:425] inception_5a/5x5_reduce <- pool4/3x3_s2_pool4/3x3_s2_0_split_2
I0403 14:46:48.291441  1955 net.cpp:399] inception_5a/5x5_reduce -> inception_5a/5x5_reduce
I0403 14:46:48.292615  1955 net.cpp:141] Setting up inception_5a/5x5_reduce
I0403 14:46:48.292645  1955 net.cpp:148] Top shape: 24 32 7 7 (37632)
I0403 14:46:48.292661  1955 net.cpp:156] Memory required for data: 1299200544
I0403 14:46:48.292680  1955 layer_factory.hpp:77] Creating layer inception_5a/relu_5x5_reduce
I0403 14:46:48.292697  1955 net.cpp:91] Creating Layer inception_5a/relu_5x5_reduce
I0403 14:46:48.292713  1955 net.cpp:425] inception_5a/relu_5x5_reduce <- inception_5a/5x5_reduce
I0403 14:46:48.292733  1955 net.cpp:386] inception_5a/relu_5x5_reduce -> inception_5a/5x5_reduce (in-place)
I0403 14:46:48.293037  1955 net.cpp:141] Setting up inception_5a/relu_5x5_reduce
I0403 14:46:48.293063  1955 net.cpp:148] Top shape: 24 32 7 7 (37632)
I0403 14:46:48.293078  1955 net.cpp:156] Memory required for data: 1299351072
I0403 14:46:48.293093  1955 layer_factory.hpp:77] Creating layer inception_5a/5x5
I0403 14:46:48.293117  1955 net.cpp:91] Creating Layer inception_5a/5x5
I0403 14:46:48.293133  1955 net.cpp:425] inception_5a/5x5 <- inception_5a/5x5_reduce
I0403 14:46:48.293155  1955 net.cpp:399] inception_5a/5x5 -> inception_5a/5x5
I0403 14:46:48.294886  1955 net.cpp:141] Setting up inception_5a/5x5
I0403 14:46:48.294929  1955 net.cpp:148] Top shape: 24 128 7 7 (150528)
I0403 14:46:48.294946  1955 net.cpp:156] Memory required for data: 1299953184
I0403 14:46:48.294965  1955 layer_factory.hpp:77] Creating layer inception_5a/relu_5x5
I0403 14:46:48.294982  1955 net.cpp:91] Creating Layer inception_5a/relu_5x5
I0403 14:46:48.294999  1955 net.cpp:425] inception_5a/relu_5x5 <- inception_5a/5x5
I0403 14:46:48.295019  1955 net.cpp:386] inception_5a/relu_5x5 -> inception_5a/5x5 (in-place)
I0403 14:46:48.295213  1955 net.cpp:141] Setting up inception_5a/relu_5x5
I0403 14:46:48.295238  1955 net.cpp:148] Top shape: 24 128 7 7 (150528)
I0403 14:46:48.295253  1955 net.cpp:156] Memory required for data: 1300555296
I0403 14:46:48.295269  1955 layer_factory.hpp:77] Creating layer inception_5a/pool
I0403 14:46:48.295285  1955 net.cpp:91] Creating Layer inception_5a/pool
I0403 14:46:48.295301  1955 net.cpp:425] inception_5a/pool <- pool4/3x3_s2_pool4/3x3_s2_0_split_3
I0403 14:46:48.295322  1955 net.cpp:399] inception_5a/pool -> inception_5a/pool
I0403 14:46:48.295393  1955 net.cpp:141] Setting up inception_5a/pool
I0403 14:46:48.295418  1955 net.cpp:148] Top shape: 24 832 7 7 (978432)
I0403 14:46:48.295431  1955 net.cpp:156] Memory required for data: 1304469024
I0403 14:46:48.295446  1955 layer_factory.hpp:77] Creating layer inception_5a/pool_proj
I0403 14:46:48.295472  1955 net.cpp:91] Creating Layer inception_5a/pool_proj
I0403 14:46:48.295490  1955 net.cpp:425] inception_5a/pool_proj <- inception_5a/pool
I0403 14:46:48.295508  1955 net.cpp:399] inception_5a/pool_proj -> inception_5a/pool_proj
I0403 14:46:48.299013  1955 net.cpp:141] Setting up inception_5a/pool_proj
I0403 14:46:48.299048  1955 net.cpp:148] Top shape: 24 128 7 7 (150528)
I0403 14:46:48.299065  1955 net.cpp:156] Memory required for data: 1305071136
I0403 14:46:48.299084  1955 layer_factory.hpp:77] Creating layer inception_5a/relu_pool_proj
I0403 14:46:48.299104  1955 net.cpp:91] Creating Layer inception_5a/relu_pool_proj
I0403 14:46:48.299121  1955 net.cpp:425] inception_5a/relu_pool_proj <- inception_5a/pool_proj
I0403 14:46:48.299139  1955 net.cpp:386] inception_5a/relu_pool_proj -> inception_5a/pool_proj (in-place)
I0403 14:46:48.299456  1955 net.cpp:141] Setting up inception_5a/relu_pool_proj
I0403 14:46:48.299486  1955 net.cpp:148] Top shape: 24 128 7 7 (150528)
I0403 14:46:48.299502  1955 net.cpp:156] Memory required for data: 1305673248
I0403 14:46:48.299518  1955 layer_factory.hpp:77] Creating layer inception_5a/output
I0403 14:46:48.299537  1955 net.cpp:91] Creating Layer inception_5a/output
I0403 14:46:48.299553  1955 net.cpp:425] inception_5a/output <- inception_5a/1x1
I0403 14:46:48.299571  1955 net.cpp:425] inception_5a/output <- inception_5a/3x3
I0403 14:46:48.299587  1955 net.cpp:425] inception_5a/output <- inception_5a/5x5
I0403 14:46:48.299604  1955 net.cpp:425] inception_5a/output <- inception_5a/pool_proj
I0403 14:46:48.299623  1955 net.cpp:399] inception_5a/output -> inception_5a/output
I0403 14:46:48.299675  1955 net.cpp:141] Setting up inception_5a/output
I0403 14:46:48.299700  1955 net.cpp:148] Top shape: 24 832 7 7 (978432)
I0403 14:46:48.299715  1955 net.cpp:156] Memory required for data: 1309586976
I0403 14:46:48.299731  1955 layer_factory.hpp:77] Creating layer inception_5a/output_inception_5a/output_0_split
I0403 14:46:48.299748  1955 net.cpp:91] Creating Layer inception_5a/output_inception_5a/output_0_split
I0403 14:46:48.299769  1955 net.cpp:425] inception_5a/output_inception_5a/output_0_split <- inception_5a/output
I0403 14:46:48.299788  1955 net.cpp:399] inception_5a/output_inception_5a/output_0_split -> inception_5a/output_inception_5a/output_0_split_0
I0403 14:46:48.299809  1955 net.cpp:399] inception_5a/output_inception_5a/output_0_split -> inception_5a/output_inception_5a/output_0_split_1
I0403 14:46:48.299831  1955 net.cpp:399] inception_5a/output_inception_5a/output_0_split -> inception_5a/output_inception_5a/output_0_split_2
I0403 14:46:48.299852  1955 net.cpp:399] inception_5a/output_inception_5a/output_0_split -> inception_5a/output_inception_5a/output_0_split_3
I0403 14:46:48.299969  1955 net.cpp:141] Setting up inception_5a/output_inception_5a/output_0_split
I0403 14:46:48.299993  1955 net.cpp:148] Top shape: 24 832 7 7 (978432)
I0403 14:46:48.300011  1955 net.cpp:148] Top shape: 24 832 7 7 (978432)
I0403 14:46:48.300027  1955 net.cpp:148] Top shape: 24 832 7 7 (978432)
I0403 14:46:48.300043  1955 net.cpp:148] Top shape: 24 832 7 7 (978432)
I0403 14:46:48.300057  1955 net.cpp:156] Memory required for data: 1325241888
I0403 14:46:48.300073  1955 layer_factory.hpp:77] Creating layer inception_5b/1x1
I0403 14:46:48.300096  1955 net.cpp:91] Creating Layer inception_5b/1x1
I0403 14:46:48.300115  1955 net.cpp:425] inception_5b/1x1 <- inception_5a/output_inception_5a/output_0_split_0
I0403 14:46:48.300139  1955 net.cpp:399] inception_5b/1x1 -> inception_5b/1x1
I0403 14:46:48.306032  1955 net.cpp:141] Setting up inception_5b/1x1
I0403 14:46:48.306063  1955 net.cpp:148] Top shape: 24 384 7 7 (451584)
I0403 14:46:48.306079  1955 net.cpp:156] Memory required for data: 1327048224
I0403 14:46:48.306098  1955 layer_factory.hpp:77] Creating layer inception_5b/relu_1x1
I0403 14:46:48.306120  1955 net.cpp:91] Creating Layer inception_5b/relu_1x1
I0403 14:46:48.306138  1955 net.cpp:425] inception_5b/relu_1x1 <- inception_5b/1x1
I0403 14:46:48.306157  1955 net.cpp:386] inception_5b/relu_1x1 -> inception_5b/1x1 (in-place)
I0403 14:46:48.306483  1955 net.cpp:141] Setting up inception_5b/relu_1x1
I0403 14:46:48.306510  1955 net.cpp:148] Top shape: 24 384 7 7 (451584)
I0403 14:46:48.306526  1955 net.cpp:156] Memory required for data: 1328854560
I0403 14:46:48.306541  1955 layer_factory.hpp:77] Creating layer inception_5b/3x3_reduce
I0403 14:46:48.306565  1955 net.cpp:91] Creating Layer inception_5b/3x3_reduce
I0403 14:46:48.306588  1955 net.cpp:425] inception_5b/3x3_reduce <- inception_5a/output_inception_5a/output_0_split_1
I0403 14:46:48.306608  1955 net.cpp:399] inception_5b/3x3_reduce -> inception_5b/3x3_reduce
I0403 14:46:48.309648  1955 net.cpp:141] Setting up inception_5b/3x3_reduce
I0403 14:46:48.309679  1955 net.cpp:148] Top shape: 24 192 7 7 (225792)
I0403 14:46:48.309698  1955 net.cpp:156] Memory required for data: 1329757728
I0403 14:46:48.309718  1955 layer_factory.hpp:77] Creating layer inception_5b/relu_3x3_reduce
I0403 14:46:48.309736  1955 net.cpp:91] Creating Layer inception_5b/relu_3x3_reduce
I0403 14:46:48.309753  1955 net.cpp:425] inception_5b/relu_3x3_reduce <- inception_5b/3x3_reduce
I0403 14:46:48.309772  1955 net.cpp:386] inception_5b/relu_3x3_reduce -> inception_5b/3x3_reduce (in-place)
I0403 14:46:48.309969  1955 net.cpp:141] Setting up inception_5b/relu_3x3_reduce
I0403 14:46:48.309998  1955 net.cpp:148] Top shape: 24 192 7 7 (225792)
I0403 14:46:48.310014  1955 net.cpp:156] Memory required for data: 1330660896
I0403 14:46:48.310029  1955 layer_factory.hpp:77] Creating layer inception_5b/3x3
I0403 14:46:48.310051  1955 net.cpp:91] Creating Layer inception_5b/3x3
I0403 14:46:48.310070  1955 net.cpp:425] inception_5b/3x3 <- inception_5b/3x3_reduce
I0403 14:46:48.310089  1955 net.cpp:399] inception_5b/3x3 -> inception_5b/3x3
I0403 14:46:48.317061  1955 net.cpp:141] Setting up inception_5b/3x3
I0403 14:46:48.317095  1955 net.cpp:148] Top shape: 24 384 7 7 (451584)
I0403 14:46:48.317111  1955 net.cpp:156] Memory required for data: 1332467232
I0403 14:46:48.317131  1955 layer_factory.hpp:77] Creating layer inception_5b/relu_3x3
I0403 14:46:48.317149  1955 net.cpp:91] Creating Layer inception_5b/relu_3x3
I0403 14:46:48.317167  1955 net.cpp:425] inception_5b/relu_3x3 <- inception_5b/3x3
I0403 14:46:48.317185  1955 net.cpp:386] inception_5b/relu_3x3 -> inception_5b/3x3 (in-place)
I0403 14:46:48.317514  1955 net.cpp:141] Setting up inception_5b/relu_3x3
I0403 14:46:48.317544  1955 net.cpp:148] Top shape: 24 384 7 7 (451584)
I0403 14:46:48.317562  1955 net.cpp:156] Memory required for data: 1334273568
I0403 14:46:48.317579  1955 layer_factory.hpp:77] Creating layer inception_5b/5x5_reduce
I0403 14:46:48.317631  1955 net.cpp:91] Creating Layer inception_5b/5x5_reduce
I0403 14:46:48.317651  1955 net.cpp:425] inception_5b/5x5_reduce <- inception_5a/output_inception_5a/output_0_split_2
I0403 14:46:48.317672  1955 net.cpp:399] inception_5b/5x5_reduce -> inception_5b/5x5_reduce
I0403 14:46:48.318965  1955 net.cpp:141] Setting up inception_5b/5x5_reduce
I0403 14:46:48.318992  1955 net.cpp:148] Top shape: 24 48 7 7 (56448)
I0403 14:46:48.319008  1955 net.cpp:156] Memory required for data: 1334499360
I0403 14:46:48.319026  1955 layer_factory.hpp:77] Creating layer inception_5b/relu_5x5_reduce
I0403 14:46:48.319047  1955 net.cpp:91] Creating Layer inception_5b/relu_5x5_reduce
I0403 14:46:48.319064  1955 net.cpp:425] inception_5b/relu_5x5_reduce <- inception_5b/5x5_reduce
I0403 14:46:48.319082  1955 net.cpp:386] inception_5b/relu_5x5_reduce -> inception_5b/5x5_reduce (in-place)
I0403 14:46:48.319464  1955 net.cpp:141] Setting up inception_5b/relu_5x5_reduce
I0403 14:46:48.319490  1955 net.cpp:148] Top shape: 24 48 7 7 (56448)
I0403 14:46:48.319505  1955 net.cpp:156] Memory required for data: 1334725152
I0403 14:46:48.319520  1955 layer_factory.hpp:77] Creating layer inception_5b/5x5
I0403 14:46:48.319541  1955 net.cpp:91] Creating Layer inception_5b/5x5
I0403 14:46:48.319558  1955 net.cpp:425] inception_5b/5x5 <- inception_5b/5x5_reduce
I0403 14:46:48.319577  1955 net.cpp:399] inception_5b/5x5 -> inception_5b/5x5
I0403 14:46:48.321669  1955 net.cpp:141] Setting up inception_5b/5x5
I0403 14:46:48.321699  1955 net.cpp:148] Top shape: 24 128 7 7 (150528)
I0403 14:46:48.321714  1955 net.cpp:156] Memory required for data: 1335327264
I0403 14:46:48.321732  1955 layer_factory.hpp:77] Creating layer inception_5b/relu_5x5
I0403 14:46:48.321749  1955 net.cpp:91] Creating Layer inception_5b/relu_5x5
I0403 14:46:48.321765  1955 net.cpp:425] inception_5b/relu_5x5 <- inception_5b/5x5
I0403 14:46:48.321785  1955 net.cpp:386] inception_5b/relu_5x5 -> inception_5b/5x5 (in-place)
I0403 14:46:48.321982  1955 net.cpp:141] Setting up inception_5b/relu_5x5
I0403 14:46:48.322006  1955 net.cpp:148] Top shape: 24 128 7 7 (150528)
I0403 14:46:48.322021  1955 net.cpp:156] Memory required for data: 1335929376
I0403 14:46:48.322036  1955 layer_factory.hpp:77] Creating layer inception_5b/pool
I0403 14:46:48.322057  1955 net.cpp:91] Creating Layer inception_5b/pool
I0403 14:46:48.322073  1955 net.cpp:425] inception_5b/pool <- inception_5a/output_inception_5a/output_0_split_3
I0403 14:46:48.322093  1955 net.cpp:399] inception_5b/pool -> inception_5b/pool
I0403 14:46:48.322167  1955 net.cpp:141] Setting up inception_5b/pool
I0403 14:46:48.322191  1955 net.cpp:148] Top shape: 24 832 7 7 (978432)
I0403 14:46:48.322206  1955 net.cpp:156] Memory required for data: 1339843104
I0403 14:46:48.322234  1955 layer_factory.hpp:77] Creating layer inception_5b/pool_proj
I0403 14:46:48.322258  1955 net.cpp:91] Creating Layer inception_5b/pool_proj
I0403 14:46:48.322276  1955 net.cpp:425] inception_5b/pool_proj <- inception_5b/pool
I0403 14:46:48.322299  1955 net.cpp:399] inception_5b/pool_proj -> inception_5b/pool_proj
I0403 14:46:48.324617  1955 net.cpp:141] Setting up inception_5b/pool_proj
I0403 14:46:48.324648  1955 net.cpp:148] Top shape: 24 128 7 7 (150528)
I0403 14:46:48.324666  1955 net.cpp:156] Memory required for data: 1340445216
I0403 14:46:48.324684  1955 layer_factory.hpp:77] Creating layer inception_5b/relu_pool_proj
I0403 14:46:48.324702  1955 net.cpp:91] Creating Layer inception_5b/relu_pool_proj
I0403 14:46:48.324719  1955 net.cpp:425] inception_5b/relu_pool_proj <- inception_5b/pool_proj
I0403 14:46:48.324741  1955 net.cpp:386] inception_5b/relu_pool_proj -> inception_5b/pool_proj (in-place)
I0403 14:46:48.325040  1955 net.cpp:141] Setting up inception_5b/relu_pool_proj
I0403 14:46:48.325068  1955 net.cpp:148] Top shape: 24 128 7 7 (150528)
I0403 14:46:48.325083  1955 net.cpp:156] Memory required for data: 1341047328
I0403 14:46:48.325099  1955 layer_factory.hpp:77] Creating layer inception_5b/output
I0403 14:46:48.325116  1955 net.cpp:91] Creating Layer inception_5b/output
I0403 14:46:48.325148  1955 net.cpp:425] inception_5b/output <- inception_5b/1x1
I0403 14:46:48.325166  1955 net.cpp:425] inception_5b/output <- inception_5b/3x3
I0403 14:46:48.325182  1955 net.cpp:425] inception_5b/output <- inception_5b/5x5
I0403 14:46:48.325198  1955 net.cpp:425] inception_5b/output <- inception_5b/pool_proj
I0403 14:46:48.325222  1955 net.cpp:399] inception_5b/output -> inception_5b/output
I0403 14:46:48.325278  1955 net.cpp:141] Setting up inception_5b/output
I0403 14:46:48.325300  1955 net.cpp:148] Top shape: 24 1024 7 7 (1204224)
I0403 14:46:48.325315  1955 net.cpp:156] Memory required for data: 1345864224
I0403 14:46:48.325330  1955 layer_factory.hpp:77] Creating layer pool5/7x7_s1
I0403 14:46:48.325350  1955 net.cpp:91] Creating Layer pool5/7x7_s1
I0403 14:46:48.325366  1955 net.cpp:425] pool5/7x7_s1 <- inception_5b/output
I0403 14:46:48.325386  1955 net.cpp:399] pool5/7x7_s1 -> pool5/7x7_s1
I0403 14:46:48.325603  1955 net.cpp:141] Setting up pool5/7x7_s1
I0403 14:46:48.325629  1955 net.cpp:148] Top shape: 24 1024 1 1 (24576)
I0403 14:46:48.325644  1955 net.cpp:156] Memory required for data: 1345962528
I0403 14:46:48.325659  1955 layer_factory.hpp:77] Creating layer pool5/drop_7x7_s1
I0403 14:46:48.325677  1955 net.cpp:91] Creating Layer pool5/drop_7x7_s1
I0403 14:46:48.325693  1955 net.cpp:425] pool5/drop_7x7_s1 <- pool5/7x7_s1
I0403 14:46:48.325713  1955 net.cpp:386] pool5/drop_7x7_s1 -> pool5/7x7_s1 (in-place)
I0403 14:46:48.325762  1955 net.cpp:141] Setting up pool5/drop_7x7_s1
I0403 14:46:48.325785  1955 net.cpp:148] Top shape: 24 1024 1 1 (24576)
I0403 14:46:48.325799  1955 net.cpp:156] Memory required for data: 1346060832
I0403 14:46:48.325814  1955 layer_factory.hpp:77] Creating layer loss3/classifier_plantvillage
I0403 14:46:48.325835  1955 net.cpp:91] Creating Layer loss3/classifier_plantvillage
I0403 14:46:48.325853  1955 net.cpp:425] loss3/classifier_plantvillage <- pool5/7x7_s1
I0403 14:46:48.325873  1955 net.cpp:399] loss3/classifier_plantvillage -> loss3/classifier_plantvillage
I0403 14:46:48.326306  1955 net.cpp:141] Setting up loss3/classifier_plantvillage
I0403 14:46:48.326331  1955 net.cpp:148] Top shape: 24 38 (912)
I0403 14:46:48.326345  1955 net.cpp:156] Memory required for data: 1346064480
I0403 14:46:48.326364  1955 layer_factory.hpp:77] Creating layer loss3/classifier_plantvillage_loss3/classifier_plantvillage_0_split
I0403 14:46:48.326385  1955 net.cpp:91] Creating Layer loss3/classifier_plantvillage_loss3/classifier_plantvillage_0_split
I0403 14:46:48.326402  1955 net.cpp:425] loss3/classifier_plantvillage_loss3/classifier_plantvillage_0_split <- loss3/classifier_plantvillage
I0403 14:46:48.326421  1955 net.cpp:399] loss3/classifier_plantvillage_loss3/classifier_plantvillage_0_split -> loss3/classifier_plantvillage_loss3/classifier_plantvillage_0_split_0
I0403 14:46:48.326441  1955 net.cpp:399] loss3/classifier_plantvillage_loss3/classifier_plantvillage_0_split -> loss3/classifier_plantvillage_loss3/classifier_plantvillage_0_split_1
I0403 14:46:48.326462  1955 net.cpp:399] loss3/classifier_plantvillage_loss3/classifier_plantvillage_0_split -> loss3/classifier_plantvillage_loss3/classifier_plantvillage_0_split_2
I0403 14:46:48.326481  1955 net.cpp:399] loss3/classifier_plantvillage_loss3/classifier_plantvillage_0_split -> loss3/classifier_plantvillage_loss3/classifier_plantvillage_0_split_3
I0403 14:46:48.326581  1955 net.cpp:141] Setting up loss3/classifier_plantvillage_loss3/classifier_plantvillage_0_split
I0403 14:46:48.326604  1955 net.cpp:148] Top shape: 24 38 (912)
I0403 14:46:48.326620  1955 net.cpp:148] Top shape: 24 38 (912)
I0403 14:46:48.326635  1955 net.cpp:148] Top shape: 24 38 (912)
I0403 14:46:48.326650  1955 net.cpp:148] Top shape: 24 38 (912)
I0403 14:46:48.326663  1955 net.cpp:156] Memory required for data: 1346079072
I0403 14:46:48.326678  1955 layer_factory.hpp:77] Creating layer loss1/loss
I0403 14:46:48.326700  1955 net.cpp:91] Creating Layer loss1/loss
I0403 14:46:48.326717  1955 net.cpp:425] loss1/loss <- loss1/classifier_plantvillage_loss1/classifier_plantvillage_0_split_0
I0403 14:46:48.326748  1955 net.cpp:425] loss1/loss <- label_data_1_split_0
…
