…
I0403 14:41:12.447876  1752 net.cpp:313] The NetState phase (1) differed from the phase (0) specified by a rule in layer data
I0403 14:41:12.449090  1752 net.cpp:49] Initializing net from parameters: 
state {
  phase: TEST
}
layer {
  name: "data"
  type: "Data"
  top: "data"
  top: "label"
  include {
    phase: TEST
  }
  transform_param {
    mirror: false
    crop_size: 224
    mean_file: "/home/mohanty/data/final_dataset/lmdb/grayscale-20-80/mean.binaryproto"
  }
  data_param {
    source: "/home/mohanty/data/final_dataset/lmdb/grayscale-20-80/test_db"
    batch_size: 24
    backend: LMDB
  }
}
layer {
  name: "conv1/7x7_s2"
  type: "Convolution"
  bottom: "data"
  top: "conv1/7x7_s2"
  param {
    lr_mult: 1
    decay_mult: 1
  }
  param {
    lr_mult: 2
    decay_mult: 0
  }
  convolution_param {
    num_output: 64
    pad: 3
    kernel_size: 7
    stride: 2
    weight_filler {
      type: "xavier"
      std: 0.1
    }
    bias_filler {
      type: "constant"
      value: 0.2
    }
  }
}
layer {
  name: "conv1/relu_7x7"
  type: "ReLU"
  bottom: "conv1/7x7_s2"
  top: "conv1/7x7_s2"
}
layer {
  name: "pool1/3x3_s2"
  type: "Pooling"
  bottom: "conv1/7x7_s2"
  top: "pool1/3x3_s2"
  pooling_param {
    pool: MAX
    kernel_size: 3
    stride: 2
  }
}
layer {
  name: "pool1/norm1"
  type: "LRN"
  bottom: "pool1/3x3_s2"
  top: "pool1/norm1"
  lrn_param {
    local_size: 5
    alpha: 0.0001
    beta: 0.75
  }
}
layer {
  name: "conv2/3x3_reduce"
  type: "Convolution"
  bottom: "pool1/norm1"
  top: "conv2/3x3_reduce"
  param {
    lr_mult: 1
    decay_mult: 1
  }
  param {
    lr_mult: 2
    decay_mult: 0
  }
  convolution_param {
    num_output: 64
    kernel_size: 1
    weight_filler {
      type: "xavier"
      std: 0.1
    }
    bias_filler {
      type: "constant"
      value: 0.2
    }
  }
}
layer {
  name: "conv2/relu_3x3_reduce"
  type: "ReLU"
  bottom: "conv2/3x3_reduce"
  top: "conv2/3x3_reduce"
}
layer {
  name: "conv2/3x3"
  type: "Convolution"
  bottom: "conv2/3x3_reduce"
  top: "conv2/3x3"
  param {
    lr_mult: 1
    decay_mult: 1
  }
  param {
    lr_mult: 2
    decay_mult: 0
  }
  convolution_param {
    num_output: 192
    pad: 1
    kernel_size: 3
    weight_filler {
      type: "xavier"
      std: 0.03
    }
    bias_filler {
      type: "constant"
      value: 0.2
    }
  }
}
layer {
  name: "conv2/relu_3x3"
  type: "ReLU"
  bottom: "conv2/3x3"
  top: "conv2/3x3"
}
layer {
  name: "conv2/norm2"
  type: "LRN"
  bottom: "conv2/3x3"
  top: "conv2/norm2"
  lrn_param {
    local_size: 5
    alpha: 0.0001
    beta: 0.75
  }
}
layer {
  name: "pool2/3x3_s2"
  type: "Pooling"
  bottom: "conv2/norm2"
  top: "pool2/3x3_s2"
  pooling_param {
    pool: MAX
    kernel_size: 3
    stride: 2
  }
}
layer {
  name: "inception_3a/1x1"
  type: "Convolution"
  bottom: "pool2/3x3_s2"
  top: "inception_3a/1x1"
  param {
    lr_mult: 1
    decay_mult: 1
  }
  param {
    lr_mult: 2
    decay_mult: 0
  }
  convolution_param {
    num_output: 64
    kernel_size: 1
    weight_filler {
      type: "xavier"
      std: 0.03
    }
    bias_filler {
      type: "constant"
      value: 0.2
    }
  }
}
layer {
  name: "inception_3a/relu_1x1"
  type: "ReLU"
  bottom: "inception_3a/1x1"
  top: "inception_3a/1x1"
}
layer {
  name: "inception_3a/3x3_reduce"
  type: "Convolution"
  bottom: "pool2/3x3_s2"
  top: "inception_3a/3x3_reduce"
  param {
    lr_mult: 1
    decay_mult: 1
  }
  param {
    lr_mult: 2
    decay_mult: 0
  }
  convolution_param {
    num_output: 96
    kernel_size: 1
    weight_filler {
      type: "xavier"
      std: 0.09
    }
    bias_filler {
      type: "constant"
      value: 0.2
    }
  }
}
layer {
  name: "inception_3a/relu_3x3_reduce"
  type: "ReLU"
  bottom: "inception_3a/3x3_reduce"
  top: "inception_3a/3x3_reduce"
}
layer {
  name: "inception_3a/3x3"
  type: "Convolution"
  bottom: "inception_3a/3x3_reduce"
  top: "inception_3a/3x3"
  param {
    lr_mult: 1
    decay_mult: 1
  }
  param {
    lr_mult: 2
    decay_mult: 0
  }
  convolution_param {
    num_output: 128
    pad: 1
    kernel_size: 3
    weight_filler {
      type: "xavier"
      std: 0.03
    }
    bias_filler {
      type: "constant"
      value: 0.2
    }
  }
}
layer {
  name: "inception_3a/relu_3x3"
  type: "ReLU"
  bottom: "inception_3a/3x3"
  top: "inception_3a/3x3"
}
layer {
  name: "inception_3a/5x5_reduce"
  type: "Convolution"
  bottom: "pool2/3x3_s2"
  top: "inception_3a/5x5_reduce"
  param {
    lr_mult: 1
    decay_mult: 1
  }
  param {
    lr_mult: 2
    decay_mult: 0
  }
  convolution_param {
    num_output: 16
    kernel_size: 1
    weight_filler {
      type: "xavier"
      std: 0.2
    }
    bias_filler {
      type: "constant"
      value: 0.2
    }
  }
}
layer {
  name: "inception_3a/relu_5x5_reduce"
  type: "ReLU"
  bottom: "inception_3a/5x5_reduce"
  top: "inception_3a/5x5_reduce"
}
layer {
  name: "inception_3a/5x5"
  type: "Convolution"
  bottom: "inception_3a/5x5_reduce"
  top: "inception_3a/5x5"
  param {
    lr_mult: 1
    decay_mult: 1
  }
  param {
    lr_mult: 2
    decay_mult: 0
  }
  convolution_param {
    num_output: 32
    pad: 2
    kernel_size: 5
    weight_filler {
      type: "xavier"
      std: 0.03
    }
    bias_filler {
      type: "constant"
      value: 0.2
    }
  }
}
layer {
  name: "inception_3a/relu_5x5"
  type: "ReLU"
  bottom: "inception_3a/5x5"
  top: "inception_3a/5x5"
}
layer {
  name: "inception_3a/pool"
  type: "Pooling"
  bottom: "pool2/3x3_s2"
  top: "inception_3a/pool"
  pooling_param {
    pool: MAX
    kernel_size: 3
    stride: 1
    pad: 1
  }
}
layer {
  name: "inception_3a/pool_proj"
  type: "Convolution"
  bottom: "inception_3a/pool"
  top: "inception_3a/pool_proj"
  param {
    lr_mult: 1
    decay_mult: 1
  }
  param {
    lr_mult: 2
    decay_mult: 0
  }
  convolution_param {
    num_output: 32
    kernel_size: 1
    weight_filler {
      type: "xavier"
      std: 0.1
    }
    bias_filler {
      type: "constant"
      value: 0.2
    }
  }
}
layer {
  name: "inception_3a/relu_pool_proj"
  type: "ReLU"
  bottom: "inception_3a/pool_proj"
  top: "inception_3a/pool_proj"
}
layer {
  name: "inception_3a/output"
  type: "Concat"
  bottom: "inception_3a/1x1"
  bottom: "inception_3a/3x3"
  bottom: "inception_3a/5x5"
  bottom: "inception_3a/pool_proj"
  top: "inception_3a/output"
}
layer {
  name: "inception_3b/1x1"
  type: "Convolution"
  bottom: "inception_3a/output"
  top: "inception_3b/1x1"
  param {
    lr_mult: 1
    decay_mult: 1
  }
  param {
    lr_mult: 2
    decay_mult: 0
  }
  convolution_param {
    num_output: 128
    kernel_size: 1
    weight_filler {
      type: "xavier"
      std: 0.03
    }
    bias_filler {
      type: "constant"
      value: 0.2
    }
  }
}
layer {
  name: "inception_3b/relu_1x1"
  type: "ReLU"
  bottom: "inception_3b/1x1"
  top: "inception_3b/1x1"
}
layer {
  name: "inception_3b/3x3_reduce"
  type: "Convolution"
  bottom: "inception_3a/output"
  top: "inception_3b/3x3_reduce"
  param {
    lr_mult: 1
    decay_mult: 1
  }
  param {
    lr_mult: 2
    decay_mult: 0
  }
  convolution_param {
    num_output: 128
    kernel_size: 1
    weight_filler {
      type: "xavier"
      std: 0.09
    }
    bias_filler {
      type: "constant"
      value: 0.2
    }
  }
}
layer {
  name: "inception_3b/relu_3x3_reduce"
  type: "ReLU"
  bottom: "inception_3b/3x3_reduce"
  top: "inception_3b/3x3_reduce"
}
layer {
  name: "inception_3b/3x3"
  type: "Convolution"
  bottom: "inception_3b/3x3_reduce"
  top: "inception_3b/3x3"
  param {
    lr_mult: 1
    decay_mult: 1
  }
  param {
    lr_mult: 2
    decay_mult: 0
  }
  convolution_param {
    num_output: 192
    pad: 1
    kernel_size: 3
    weight_filler {
      type: "xavier"
      std: 0.03
    }
    bias_filler {
      type: "constant"
      value: 0.2
    }
  }
}
layer {
  name: "inception_3b/relu_3x3"
  type: "ReLU"
  bottom: "inception_3b/3x3"
  top: "inception_3b/3x3"
}
layer {
  name: "inception_3b/5x5_reduce"
  type: "Convolution"
  bottom: "inception_3a/output"
  top: "inception_3b/5x5_reduce"
  param {
    lr_mult: 1
    decay_mult: 1
  }
  param {
    lr_mult: 2
    decay_mult: 0
  }
  convolution_param {
    num_output: 32
    kernel_size: 1
    weight_filler {
      type: "xavier"
      std: 0.2
    }
    bias_filler {
      type: "constant"
      value: 0.2
    }
  }
}
layer {
  name: "inception_3b/relu_5x5_reduce"
  type: "ReLU"
  bottom: "inception_3b/5x5_reduce"
  top: "inception_3b/5x5_reduce"
}
layer {
  name: "inception_3b/5x5"
  type: "Convolution"
  bottom: "inception_3b/5x5_reduce"
  top: "inception_3b/5x5"
  param {
    lr_mult: 1
    decay_mult: 1
  }
  param {
    lr_mult: 2
    decay_mult: 0
  }
  convolution_param {
    num_output: 96
    pad: 2
    kernel_size: 5
    weight_filler {
      type: "xavier"
      std: 0.03
    }
    bias_filler {
      type: "constant"
      value: 0.2
    }
  }
}
layer {
  name: "inception_3b/relu_5x5"
  type: "ReLU"
  bottom: "inception_3b/5x5"
  top: "inception_3b/5x5"
}
layer {
  name: "inception_3b/pool"
  type: "Pooling"
  bottom: "inception_3a/output"
  top: "inception_3b/pool"
  pooling_param {
    pool: MAX
    kernel_size: 3
    stride: 1
    pad: 1
  }
}
layer {
  name: "inception_3b/pool_proj"
  type: "Convolution"
  bottom: "inception_3b/pool"
  top: "inception_3b/pool_proj"
  param {
    lr_mult: 1
    decay_mult: 1
  }
  param {
    lr_mult: 2
    decay_mult: 0
  }
  convolution_param {
    num_output: 64
    kernel_size: 1
    weight_filler {
      type: "xavier"
      std: 0.1
    }
    bias_filler {
      type: "constant"
      value: 0.2
    }
  }
}
layer {
  name: "inception_3b/relu_pool_proj"
  type: "ReLU"
  bottom: "inception_3b/pool_proj"
  top: "inception_3b/pool_proj"
}
layer {
  name: "inception_3b/output"
  type: "Concat"
  bottom: "inception_3b/1x1"
  bottom: "inception_3b/3x3"
  bottom: "inception_3b/5x5"
  bottom: "inception_3b/pool_proj"
  top: "inception_3b/output"
}
layer {
  name: "pool3/3x3_s2"
  type: "Pooling"
  bottom: "inception_3b/output"
  top: "pool3/3x3_s2"
  pooling_param {
    pool: MAX
    kernel_size: 3
    stride: 2
  }
}
layer {
  name: "inception_4a/1x1"
  type: "Convolution"
  bottom: "pool3/3x3_s2"
  top: "inception_4a/1x1"
  param {
    lr_mult: 1
    decay_mult: 1
  }
  param {
    lr_mult: 2
    decay_mult: 0
  }
  convolution_param {
    num_output: 192
    kernel_size: 1
    weight_filler {
      type: "xavier"
      std: 0.03
    }
    bias_filler {
      type: "constant"
      value: 0.2
    }
  }
}
layer {
  name: "inception_4a/relu_1x1"
  type: "ReLU"
  bottom: "inception_4a/1x1"
  top: "inception_4a/1x1"
}
layer {
  name: "inception_4a/3x3_reduce"
  type: "Convolution"
  bottom: "pool3/3x3_s2"
  top: "inception_4a/3x3_reduce"
  param {
    lr_mult: 1
    decay_mult: 1
  }
  param {
    lr_mult: 2
    decay_mult: 0
  }
  convolution_param {
    num_output: 96
    kernel_size: 1
    weight_filler {
      type: "xavier"
      std: 0.09
    }
    bias_filler {
      type: "constant"
      value: 0.2
    }
  }
}
layer {
  name: "inception_4a/relu_3x3_reduce"
  type: "ReLU"
  bottom: "inception_4a/3x3_reduce"
  top: "inception_4a/3x3_reduce"
}
layer {
  name: "inception_4a/3x3"
  type: "Convolution"
  bottom: "inception_4a/3x3_reduce"
  top: "inception_4a/3x3"
  param {
    lr_mult: 1
    decay_mult: 1
  }
  param {
    lr_mult: 2
    decay_mult: 0
  }
  convolution_param {
    num_output: 208
    pad: 1
    kernel_size: 3
    weight_filler {
      type: "xavier"
      std: 0.03
    }
    bias_filler {
      type: "constant"
      value: 0.2
    }
  }
}
layer {
  name: "inception_4a/relu_3x3"
  type: "ReLU"
  bottom: "inception_4a/3x3"
  top: "inception_4a/3x3"
}
layer {
  name: "inception_4a/5x5_reduce"
  type: "Convolution"
  bottom: "pool3/3x3_s2"
  top: "inception_4a/5x5_reduce"
  param {
    lr_mult: 1
    decay_mult: 1
  }
  param {
    lr_mult: 2
    decay_mult: 0
  }
  convolution_param {
    num_output: 16
    kernel_size: 1
    weight_filler {
      type: "xavier"
      std: 0.2
    }
    bias_filler {
      type: "constant"
      value: 0.2
    }
  }
}
layer {
  name: "inception_4a/relu_5x5_reduce"
  type: "ReLU"
  bottom: "inception_4a/5x5_reduce"
  top: "inception_4a/5x5_reduce"
}
layer {
  name: "inception_4a/5x5"
  type: "Convolution"
  bottom: "inception_4a/5x5_reduce"
  top: "inception_4a/5x5"
  param {
    lr_mult: 1
    decay_mult: 1
  }
  param {
    lr_mult: 2
    decay_mult: 0
  }
  convolution_param {
    num_output: 48
    pad: 2
    kernel_size: 5
    weight_filler {
      type: "xavier"
      std: 0.03
    }
    bias_filler {
      type: "constant"
      value: 0.2
    }
  }
}
layer {
  name: "inception_4a/relu_5x5"
  type: "ReLU"
  bottom: "inception_4a/5x5"
  top: "inception_4a/5x5"
}
layer {
  name: "inception_4a/pool"
  type: "Pooling"
  bottom: "pool3/3x3_s2"
  top: "inception_4a/pool"
  pooling_param {
    pool: MAX
    kernel_size: 3
    stride: 1
    pad: 1
  }
}
layer {
  name: "inception_4a/pool_proj"
  type: "Convolution"
  bottom: "inception_4a/pool"
  top: "inception_4a/pool_proj"
  param {
    lr_mult: 1
    decay_mult: 1
  }
  param {
    lr_mult: 2
    decay_mult: 0
  }
  convolution_param {
    num_output: 64
    kernel_size: 1
    weight_filler {
      type: "xavier"
      std: 0.1
    }
    bias_filler {
      type: "constant"
      value: 0.2
    }
  }
}
layer {
  name: "inception_4a/relu_pool_proj"
  type: "ReLU"
  bottom: "inception_4a/pool_proj"
  top: "inception_4a/pool_proj"
}
layer {
  name: "inception_4a/output"
  type: "Concat"
  bottom: "inception_4a/1x1"
  bottom: "inception_4a/3x3"
  bottom: "inception_4a/5x5"
  bottom: "inception_4a/pool_proj"
  top: "inception_4a/output"
}
layer {
  name: "loss1/ave_pool"
  type: "Pooling"
  bottom: "inception_4a/output"
  top: "loss1/ave_pool"
  pooling_param {
    pool: AVE
    kernel_size: 5
    stride: 3
  }
}
layer {
  name: "loss1/conv"
  type: "Convolution"
  bottom: "loss1/ave_pool"
  top: "loss1/conv"
  param {
    lr_mult: 1
    decay_mult: 1
  }
  param {
    lr_mult: 2
    decay_mult: 0
  }
  convolution_param {
    num_output: 128
    kernel_size: 1
    weight_filler {
      type: "xavier"
      std: 0.08
    }
    bias_filler {
      type: "constant"
      value: 0.2
    }
  }
}
layer {
  name: "loss1/relu_conv"
  type: "ReLU"
  bottom: "loss1/conv"
  top: "loss1/conv"
}
layer {
  name: "loss1/fc"
  type: "InnerProduct"
  bottom: "loss1/conv"
  top: "loss1/fc"
  param {
    lr_mult: 1
    decay_mult: 1
  }
  param {
    lr_mult: 2
    decay_mult: 0
  }
  inner_product_param {
    num_output: 1024
    weight_filler {
      type: "xavier"
      std: 0.02
    }
    bias_filler {
      type: "constant"
      value: 0.2
    }
  }
}
layer {
  name: "loss1/relu_fc"
  type: "ReLU"
  bottom: "loss1/fc"
  top: "loss1/fc"
}
layer {
  name: "loss1/drop_fc"
  type: "Dropout"
  bottom: "loss1/fc"
  top: "loss1/fc"
  dropout_param {
    dropout_ratio: 0.7
  }
}
layer {
  name: "loss1/classifier_plantvillage"
  type: "InnerProduct"
  bottom: "loss1/fc"
  top: "loss1/classifier_plantvillage"
  param {
    lr_mult: 1
    decay_mult: 1
  }
  param {
    lr_mult: 2
    decay_mult: 0
  }
  inner_product_param {
    num_output: 38
    weight_filler {
      type: "xavier"
      std: 0.0009765625
    }
    bias_filler {
      type: "constant"
      value: 0
    }
  }
}
layer {
  name: "inception_4b/1x1"
  type: "Convolution"
  bottom: "inception_4a/output"
  top: "inception_4b/1x1"
  param {
    lr_mult: 1
    decay_mult: 1
  }
  param {
    lr_mult: 2
    decay_mult: 0
  }
  convolution_param {
    num_output: 160
    kernel_size: 1
    weight_filler {
      type: "xavier"
      std: 0.03
    }
    bias_filler {
      type: "constant"
      value: 0.2
    }
  }
}
layer {
  name: "inception_4b/relu_1x1"
  type: "ReLU"
  bottom: "inception_4b/1x1"
  top: "inception_4b/1x1"
}
layer {
  name: "inception_4b/3x3_reduce"
  type: "Convolution"
  bottom: "inception_4a/output"
  top: "inception_4b/3x3_reduce"
  param {
    lr_mult: 1
    decay_mult: 1
  }
  param {
    lr_mult: 2
    decay_mult: 0
  }
  convolution_param {
    num_output: 112
    kernel_size: 1
    weight_filler {
      type: "xavier"
      std: 0.09
    }
    bias_filler {
      type: "constant"
      value: 0.2
    }
  }
}
layer {
  name: "inception_4b/relu_3x3_reduce"
  type: "ReLU"
  bottom: "inception_4b/3x3_reduce"
  top: "inception_4b/3x3_reduce"
}
layer {
  name: "inception_4b/3x3"
  type: "Convolution"
  bottom: "inception_4b/3x3_reduce"
  top: "inception_4b/3x3"
  param {
    lr_mult: 1
    decay_mult: 1
  }
  param {
    lr_mult: 2
    decay_mult: 0
  }
  convolution_param {
    num_output: 224
    pad: 1
    kernel_size: 3
    weight_filler {
      type: "xavier"
      std: 0.03
    }
    bias_filler {
      type: "constant"
      value: 0.2
    }
  }
}
layer {
  name: "inception_4b/relu_3x3"
  type: "ReLU"
  bottom: "inception_4b/3x3"
  top: "inception_4b/3x3"
}
layer {
  name: "inception_4b/5x5_reduce"
  type: "Convolution"
  bottom: "inception_4a/output"
  top: "inception_4b/5x5_reduce"
  param {
    lr_mult: 1
    decay_mult: 1
  }
  param {
    lr_mult: 2
    decay_mult: 0
  }
  convolution_param {
    num_output: 24
    kernel_size: 1
    weight_filler {
      type: "xavier"
      std: 0.2
    }
    bias_filler {
      type: "constant"
      value: 0.2
    }
  }
}
layer {
  name: "inception_4b/relu_5x5_reduce"
  type: "ReLU"
  bottom: "inception_4b/5x5_reduce"
  top: "inception_4b/5x5_reduce"
}
layer {
  name: "inception_4b/5x5"
  type: "Convolution"
  bottom: "inception_4b/5x5_reduce"
  top: "inception_4b/5x5"
  param {
    lr_mult: 1
    decay_mult: 1
  }
  param {
    lr_mult: 2
    decay_mult: 0
  }
  convolution_param {
    num_output: 64
    pad: 2
    kernel_size: 5
    weight_filler {
      type: "xavier"
      std: 0.03
    }
    bias_filler {
      type: "constant"
      value: 0.2
    }
  }
}
layer {
  name: "inception_4b/relu_5x5"
  type: "ReLU"
  bottom: "inception_4b/5x5"
  top: "inception_4b/5x5"
}
layer {
  name: "inception_4b/pool"
  type: "Pooling"
  bottom: "inception_4a/output"
  top: "inception_4b/pool"
  pooling_param {
    pool: MAX
    kernel_size: 3
    stride: 1
    pad: 1
  }
}
layer {
  name: "inception_4b/pool_proj"
  type: "Convolution"
  bottom: "inception_4b/pool"
  top: "inception_4b/pool_proj"
  param {
    lr_mult: 1
    decay_mult: 1
  }
  param {
    lr_mult: 2
    decay_mult: 0
  }
  convolution_param {
    num_output: 64
    kernel_size: 1
    weight_filler {
      type: "xavier"
      std: 0.1
    }
    bias_filler {
      type: "constant"
      value: 0.2
    }
  }
}
layer {
  name: "inception_4b/relu_pool_proj"
  type: "ReLU"
  bottom: "inception_4b/pool_proj"
  top: "inception_4b/pool_proj"
}
layer {
  name: "inception_4b/output"
  type: "Concat"
  bottom: "inception_4b/1x1"
  bottom: "inception_4b/3x3"
  bottom: "inception_4b/5x5"
  bottom: "inception_4b/pool_proj"
  top: "inception_4b/output"
}
layer {
  name: "inception_4c/1x1"
  type: "Convolution"
  bottom: "inception_4b/output"
  top: "inception_4c/1x1"
  param {
    lr_mult: 1
    decay_mult: 1
  }
  param {
    lr_mult: 2
    decay_mult: 0
  }
  convolution_param {
    num_output: 128
    kernel_size: 1
    weight_filler {
      type: "xavier"
      std: 0.03
    }
    bias_filler {
      type: "constant"
      value: 0.2
    }
  }
}
layer {
  name: "inception_4c/relu_1x1"
  type: "ReLU"
  bottom: "inception_4c/1x1"
  top: "inception_4c/1x1"
}
layer {
  name: "inception_4c/3x3_reduce"
  type: "Convolution"
  bottom: "inception_4b/output"
  top: "inception_4c/3x3_reduce"
  param {
    lr_mult: 1
    decay_mult: 1
  }
  param {
    lr_mult: 2
    decay_mult: 0
  }
  convolution_param {
    num_output: 128
    kernel_size: 1
    weight_filler {
      type: "xavier"
      std: 0.09
    }
    bias_filler {
      type: "constant"
      value: 0.2
    }
  }
}
layer {
  name: "inception_4c/relu_3x3_reduce"
  type: "ReLU"
  bottom: "inception_4c/3x3_reduce"
  top: "inception_4c/3x3_reduce"
}
layer {
  name: "inception_4c/3x3"
  type: "Convolution"
  bottom: "inception_4c/3x3_reduce"
  top: "inception_4c/3x3"
  param {
    lr_mult: 1
    decay_mult: 1
  }
  param {
    lr_mult: 2
    decay_mult: 0
  }
  convolution_param {
    num_output: 256
    pad: 1
    kernel_size: 3
    weight_filler {
      type: "xavier"
      std: 0.03
    }
    bias_filler {
      type: "constant"
      value: 0.2
    }
  }
}
layer {
  name: "inception_4c/relu_3x3"
  type: "ReLU"
  bottom: "inception_4c/3x3"
  top: "inception_4c/3x3"
}
layer {
  name: "inception_4c/5x5_reduce"
  type: "Convolution"
  bottom: "inception_4b/output"
  top: "inception_4c/5x5_reduce"
  param {
    lr_mult: 1
    decay_mult: 1
  }
  param {
    lr_mult: 2
    decay_mult: 0
  }
  convolution_param {
    num_output: 24
    kernel_size: 1
    weight_filler {
      type: "xavier"
      std: 0.2
    }
    bias_filler {
      type: "constant"
      value: 0.2
    }
  }
}
layer {
  name: "inception_4c/relu_5x5_reduce"
  type: "ReLU"
  bottom: "inception_4c/5x5_reduce"
  top: "inception_4c/5x5_reduce"
}
layer {
  name: "inception_4c/5x5"
  type: "Convolution"
  bottom: "inception_4c/5x5_reduce"
  top: "inception_4c/5x5"
  param {
    lr_mult: 1
    decay_mult: 1
  }
  param {
    lr_mult: 2
    decay_mult: 0
  }
  convolution_param {
    num_output: 64
    pad: 2
    kernel_size: 5
    weight_filler {
      type: "xavier"
      std: 0.03
    }
    bias_filler {
      type: "constant"
      value: 0.2
    }
  }
}
layer {
  name: "inception_4c/relu_5x5"
  type: "ReLU"
  bottom: "inception_4c/5x5"
  top: "inception_4c/5x5"
}
layer {
  name: "inception_4c/pool"
  type: "Pooling"
  bottom: "inception_4b/output"
  top: "inception_4c/pool"
  pooling_param {
    pool: MAX
    kernel_size: 3
    stride: 1
    pad: 1
  }
}
layer {
  name: "inception_4c/pool_proj"
  type: "Convolution"
  bottom: "inception_4c/pool"
  top: "inception_4c/pool_proj"
  param {
    lr_mult: 1
    decay_mult: 1
  }
  param {
    lr_mult: 2
    decay_mult: 0
  }
  convolution_param {
    num_output: 64
    kernel_size: 1
    weight_filler {
      type: "xavier"
      std: 0.1
    }
    bias_filler {
      type: "constant"
      value: 0.2
    }
  }
}
layer {
  name: "inception_4c/relu_pool_proj"
  type: "ReLU"
  bottom: "inception_4c/pool_proj"
  top: "inception_4c/pool_proj"
}
layer {
  name: "inception_4c/output"
  type: "Concat"
  bottom: "inception_4c/1x1"
  bottom: "inception_4c/3x3"
  bottom: "inception_4c/5x5"
  bottom: "inception_4c/pool_proj"
  top: "inception_4c/output"
}
layer {
  name: "inception_4d/1x1"
  type: "Convolution"
  bottom: "inception_4c/output"
  top: "inception_4d/1x1"
  param {
    lr_mult: 1
    decay_mult: 1
  }
  param {
    lr_mult: 2
    decay_mult: 0
  }
  convolution_param {
    num_output: 112
    kernel_size: 1
    weight_filler {
      type: "xavier"
      std: 0.03
    }
    bias_filler {
      type: "constant"
      value: 0.2
    }
  }
}
layer {
  name: "inception_4d/relu_1x1"
  type: "ReLU"
  bottom: "inception_4d/1x1"
  top: "inception_4d/1x1"
}
layer {
  name: "inception_4d/3x3_reduce"
  type: "Convolution"
  bottom: "inception_4c/output"
  top: "inception_4d/3x3_reduce"
  param {
    lr_mult: 1
    decay_mult: 1
  }
  param {
    lr_mult: 2
    decay_mult: 0
  }
  convolution_param {
    num_output: 144
    kernel_size: 1
    weight_filler {
      type: "xavier"
      std: 0.09
    }
    bias_filler {
      type: "constant"
      value: 0.2
    }
  }
}
layer {
  name: "inception_4d/relu_3x3_reduce"
  type: "ReLU"
  bottom: "inception_4d/3x3_reduce"
  top: "inception_4d/3x3_reduce"
}
layer {
  name: "inception_4d/3x3"
  type: "Convolution"
  bottom: "inception_4d/3x3_reduce"
  top: "inception_4d/3x3"
  param {
    lr_mult: 1
    decay_mult: 1
  }
  param {
    lr_mult: 2
    decay_mult: 0
  }
  convolution_param {
    num_output: 288
    pad: 1
    kernel_size: 3
    weight_filler {
      type: "xavier"
      std: 0.03
    }
    bias_filler {
      type: "constant"
      value: 0.2
    }
  }
}
layer {
  name: "inception_4d/relu_3x3"
  type: "ReLU"
  bottom: "inception_4d/3x3"
  top: "inception_4d/3x3"
}
layer {
  name: "inception_4d/5x5_reduce"
  type: "Convolution"
  bottom: "inception_4c/output"
  top: "inception_4d/5x5_reduce"
  param {
    lr_mult: 1
    decay_mult: 1
  }
  param {
    lr_mult: 2
    decay_mult: 0
  }
  convolution_param {
    num_output: 32
    kernel_size: 1
    weight_filler {
      type: "xavier"
      std: 0.2
    }
    bias_filler {
      type: "constant"
      value: 0.2
    }
  }
}
layer {
  name: "inception_4d/relu_5x5_reduce"
  type: "ReLU"
  bottom: "inception_4d/5x5_reduce"
  top: "inception_4d/5x5_reduce"
}
layer {
  name: "inception_4d/5x5"
  type: "Convolution"
  bottom: "inception_4d/5x5_reduce"
  top: "inception_4d/5x5"
  param {
    lr_mult: 1
    decay_mult: 1
  }
  param {
    lr_mult: 2
    decay_mult: 0
  }
  convolution_param {
    num_output: 64
    pad: 2
    kernel_size: 5
    weight_filler {
      type: "xavier"
      std: 0.03
    }
    bias_filler {
      type: "constant"
      value: 0.2
    }
  }
}
layer {
  name: "inception_4d/relu_5x5"
  type: "ReLU"
  bottom: "inception_4d/5x5"
  top: "inception_4d/5x5"
}
layer {
  name: "inception_4d/pool"
  type: "Pooling"
  bottom: "inception_4c/output"
  top: "inception_4d/pool"
  pooling_param {
    pool: MAX
    kernel_size: 3
    stride: 1
    pad: 1
  }
}
layer {
  name: "inception_4d/pool_proj"
  type: "Convolution"
  bottom: "inception_4d/pool"
  top: "inception_4d/pool_proj"
  param {
    lr_mult: 1
    decay_mult: 1
  }
  param {
    lr_mult: 2
    decay_mult: 0
  }
  convolution_param {
    num_output: 64
    kernel_size: 1
    weight_filler {
      type: "xavier"
      std: 0.1
    }
    bias_filler {
      type: "constant"
      value: 0.2
    }
  }
}
layer {
  name: "inception_4d/relu_pool_proj"
  type: "ReLU"
  bottom: "inception_4d/pool_proj"
  top: "inception_4d/pool_proj"
}
layer {
  name: "inception_4d/output"
  type: "Concat"
  bottom: "inception_4d/1x1"
  bottom: "inception_4d/3x3"
  bottom: "inception_4d/5x5"
  bottom: "inception_4d/pool_proj"
  top: "inception_4d/output"
}
layer {
  name: "loss2/ave_pool"
  type: "Pooling"
  bottom: "inception_4d/output"
  top: "loss2/ave_pool"
  pooling_param {
    pool: AVE
    kernel_size: 5
    stride: 3
  }
}
layer {
  name: "loss2/conv"
  type: "Convolution"
  bottom: "loss2/ave_pool"
  top: "loss2/conv"
  param {
    lr_mult: 1
    decay_mult: 1
  }
  param {
    lr_mult: 2
    decay_mult: 0
  }
  convolution_param {
    num_output: 128
    kernel_size: 1
    weight_filler {
      type: "xavier"
      std: 0.08
    }
    bias_filler {
      type: "constant"
      value: 0.2
    }
  }
}
layer {
  name: "loss2/relu_conv"
  type: "ReLU"
  bottom: "loss2/conv"
  top: "loss2/conv"
}
layer {
  name: "loss2/fc"
  type: "InnerProduct"
  bottom: "loss2/conv"
  top: "loss2/fc"
  param {
    lr_mult: 1
    decay_mult: 1
  }
  param {
    lr_mult: 2
    decay_mult: 0
  }
  inner_product_param {
    num_output: 1024
    weight_filler {
      type: "xavier"
      std: 0.02
    }
    bias_filler {
      type: "constant"
      value: 0.2
    }
  }
}
layer {
  name: "loss2/relu_fc"
  type: "ReLU"
  bottom: "loss2/fc"
  top: "loss2/fc"
}
layer {
  name: "loss2/drop_fc"
  type: "Dropout"
  bottom: "loss2/fc"
  top: "loss2/fc"
  dropout_param {
    dropout_ratio: 0.7
  }
}
layer {
  name: "loss2/classifier_plantvillage"
  type: "InnerProduct"
  bottom: "loss2/fc"
  top: "loss2/classifier_plantvillage"
  param {
    lr_mult: 1
    decay_mult: 1
  }
  param {
    lr_mult: 2
    decay_mult: 0
  }
  inner_product_param {
    num_output: 38
    weight_filler {
      type: "xavier"
      std: 0.0009765625
    }
    bias_filler {
      type: "constant"
      value: 0
    }
  }
}
layer {
  name: "inception_4e/1x1"
  type: "Convolution"
  bottom: "inception_4d/output"
  top: "inception_4e/1x1"
  param {
    lr_mult: 1
    decay_mult: 1
  }
  param {
    lr_mult: 2
    decay_mult: 0
  }
  convolution_param {
    num_output: 256
    kernel_size: 1
    weight_filler {
      type: "xavier"
      std: 0.03
    }
    bias_filler {
      type: "constant"
      value: 0.2
    }
  }
}
layer {
  name: "inception_4e/relu_1x1"
  type: "ReLU"
  bottom: "inception_4e/1x1"
  top: "inception_4e/1x1"
}
layer {
  name: "inception_4e/3x3_reduce"
  type: "Convolution"
  bottom: "inception_4d/output"
  top: "inception_4e/3x3_reduce"
  param {
    lr_mult: 1
    decay_mult: 1
  }
  param {
    lr_mult: 2
    decay_mult: 0
  }
  convolution_param {
    num_output: 160
    kernel_size: 1
    weight_filler {
      type: "xavier"
      std: 0.09
    }
    bias_filler {
      type: "constant"
      value: 0.2
    }
  }
}
layer {
  name: "inception_4e/relu_3x3_reduce"
  type: "ReLU"
  bottom: "inception_4e/3x3_reduce"
  top: "inception_4e/3x3_reduce"
}
layer {
  name: "inception_4e/3x3"
  type: "Convolution"
  bottom: "inception_4e/3x3_reduce"
  top: "inception_4e/3x3"
  param {
    lr_mult: 1
    decay_mult: 1
  }
  param {
    lr_mult: 2
    decay_mult: 0
  }
  convolution_param {
    num_output: 320
    pad: 1
    kernel_size: 3
    weight_filler {
      type: "xavier"
      std: 0.03
    }
    bias_filler {
      type: "constant"
      value: 0.2
    }
  }
}
layer {
  name: "inception_4e/relu_3x3"
  type: "ReLU"
  bottom: "inception_4e/3x3"
  top: "inception_4e/3x3"
}
layer {
  name: "inception_4e/5x5_reduce"
  type: "Convolution"
  bottom: "inception_4d/output"
  top: "inception_4e/5x5_reduce"
  param {
    lr_mult: 1
    decay_mult: 1
  }
  param {
    lr_mult: 2
    decay_mult: 0
  }
  convolution_param {
    num_output: 32
    kernel_size: 1
    weight_filler {
      type: "xavier"
      std: 0.2
    }
    bias_filler {
      type: "constant"
      value: 0.2
    }
  }
}
layer {
  name: "inception_4e/relu_5x5_reduce"
  type: "ReLU"
  bottom: "inception_4e/5x5_reduce"
  top: "inception_4e/5x5_reduce"
}
layer {
  name: "inception_4e/5x5"
  type: "Convolution"
  bottom: "inception_4e/5x5_reduce"
  top: "inception_4e/
I0403 14:41:12.450459  1752 layer_factory.hpp:77] Creating layer data
I0403 14:41:12.451048  1752 net.cpp:91] Creating Layer data
I0403 14:41:12.451082  1752 net.cpp:399] data -> data
I0403 14:41:12.451134  1752 net.cpp:399] data -> label
I0403 14:41:12.451169  1752 data_transformer.cpp:25] Loading mean file from: /home/mohanty/data/final_dataset/lmdb/grayscale-20-80/mean.binaryproto
I0403 14:41:12.452416  1756 db_lmdb.cpp:38] Opened lmdb /home/mohanty/data/final_dataset/lmdb/grayscale-20-80/test_db
I0403 14:41:12.464287  1752 data_layer.cpp:41] output data size: 24,3,224,224
I0403 14:41:12.491183  1752 net.cpp:141] Setting up data
I0403 14:41:12.491286  1752 net.cpp:148] Top shape: 24 3 224 224 (3612672)
I0403 14:41:12.491308  1752 net.cpp:148] Top shape: 24 (24)
I0403 14:41:12.491323  1752 net.cpp:156] Memory required for data: 14450784
I0403 14:41:12.491350  1752 layer_factory.hpp:77] Creating layer label_data_1_split
I0403 14:41:12.491377  1752 net.cpp:91] Creating Layer label_data_1_split
I0403 14:41:12.491394  1752 net.cpp:425] label_data_1_split <- label
I0403 14:41:12.491425  1752 net.cpp:399] label_data_1_split -> label_data_1_split_0
I0403 14:41:12.491452  1752 net.cpp:399] label_data_1_split -> label_data_1_split_1
I0403 14:41:12.491473  1752 net.cpp:399] label_data_1_split -> label_data_1_split_2
I0403 14:41:12.491494  1752 net.cpp:399] label_data_1_split -> label_data_1_split_3
I0403 14:41:12.491513  1752 net.cpp:399] label_data_1_split -> label_data_1_split_4
I0403 14:41:12.491533  1752 net.cpp:399] label_data_1_split -> label_data_1_split_5
I0403 14:41:12.491552  1752 net.cpp:399] label_data_1_split -> label_data_1_split_6
I0403 14:41:12.491574  1752 net.cpp:399] label_data_1_split -> label_data_1_split_7
I0403 14:41:12.491593  1752 net.cpp:399] label_data_1_split -> label_data_1_split_8
I0403 14:41:12.491614  1752 net.cpp:399] label_data_1_split -> label_data_1_split_9
I0403 14:41:12.491735  1752 net.cpp:141] Setting up label_data_1_split
I0403 14:41:12.491758  1752 net.cpp:148] Top shape: 24 (24)
I0403 14:41:12.491775  1752 net.cpp:148] Top shape: 24 (24)
I0403 14:41:12.491791  1752 net.cpp:148] Top shape: 24 (24)
I0403 14:41:12.491806  1752 net.cpp:148] Top shape: 24 (24)
I0403 14:41:12.491822  1752 net.cpp:148] Top shape: 24 (24)
I0403 14:41:12.491837  1752 net.cpp:148] Top shape: 24 (24)
I0403 14:41:12.491852  1752 net.cpp:148] Top shape: 24 (24)
I0403 14:41:12.491868  1752 net.cpp:148] Top shape: 24 (24)
I0403 14:41:12.491883  1752 net.cpp:148] Top shape: 24 (24)
I0403 14:41:12.491899  1752 net.cpp:148] Top shape: 24 (24)
I0403 14:41:12.491941  1752 net.cpp:156] Memory required for data: 14451744
I0403 14:41:12.491956  1752 layer_factory.hpp:77] Creating layer conv1/7x7_s2
I0403 14:41:12.491988  1752 net.cpp:91] Creating Layer conv1/7x7_s2
I0403 14:41:12.492007  1752 net.cpp:425] conv1/7x7_s2 <- data
I0403 14:41:12.492027  1752 net.cpp:399] conv1/7x7_s2 -> conv1/7x7_s2
I0403 14:41:12.628226  1752 net.cpp:141] Setting up conv1/7x7_s2
I0403 14:41:12.628316  1752 net.cpp:148] Top shape: 24 64 112 112 (19267584)
I0403 14:41:12.628334  1752 net.cpp:156] Memory required for data: 91522080
I0403 14:41:12.628365  1752 layer_factory.hpp:77] Creating layer conv1/relu_7x7
I0403 14:41:12.628394  1752 net.cpp:91] Creating Layer conv1/relu_7x7
I0403 14:41:12.628413  1752 net.cpp:425] conv1/relu_7x7 <- conv1/7x7_s2
I0403 14:41:12.628432  1752 net.cpp:386] conv1/relu_7x7 -> conv1/7x7_s2 (in-place)
I0403 14:41:12.628708  1752 net.cpp:141] Setting up conv1/relu_7x7
I0403 14:41:12.628736  1752 net.cpp:148] Top shape: 24 64 112 112 (19267584)
I0403 14:41:12.628751  1752 net.cpp:156] Memory required for data: 168592416
I0403 14:41:12.628765  1752 layer_factory.hpp:77] Creating layer pool1/3x3_s2
I0403 14:41:12.628793  1752 net.cpp:91] Creating Layer pool1/3x3_s2
I0403 14:41:12.628809  1752 net.cpp:425] pool1/3x3_s2 <- conv1/7x7_s2
I0403 14:41:12.628829  1752 net.cpp:399] pool1/3x3_s2 -> pool1/3x3_s2
I0403 14:41:12.628906  1752 net.cpp:141] Setting up pool1/3x3_s2
I0403 14:41:12.628931  1752 net.cpp:148] Top shape: 24 64 56 56 (4816896)
I0403 14:41:12.628945  1752 net.cpp:156] Memory required for data: 187860000
I0403 14:41:12.628960  1752 layer_factory.hpp:77] Creating layer pool1/norm1
I0403 14:41:12.628988  1752 net.cpp:91] Creating Layer pool1/norm1
I0403 14:41:12.629006  1752 net.cpp:425] pool1/norm1 <- pool1/3x3_s2
I0403 14:41:12.629024  1752 net.cpp:399] pool1/norm1 -> pool1/norm1
I0403 14:41:12.629333  1752 net.cpp:141] Setting up pool1/norm1
I0403 14:41:12.629362  1752 net.cpp:148] Top shape: 24 64 56 56 (4816896)
I0403 14:41:12.629379  1752 net.cpp:156] Memory required for data: 207127584
I0403 14:41:12.629395  1752 layer_factory.hpp:77] Creating layer conv2/3x3_reduce
I0403 14:41:12.629420  1752 net.cpp:91] Creating Layer conv2/3x3_reduce
I0403 14:41:12.629436  1752 net.cpp:425] conv2/3x3_reduce <- pool1/norm1
I0403 14:41:12.629457  1752 net.cpp:399] conv2/3x3_reduce -> conv2/3x3_reduce
I0403 14:41:12.630897  1752 net.cpp:141] Setting up conv2/3x3_reduce
I0403 14:41:12.630926  1752 net.cpp:148] Top shape: 24 64 56 56 (4816896)
I0403 14:41:12.630942  1752 net.cpp:156] Memory required for data: 226395168
I0403 14:41:12.630964  1752 layer_factory.hpp:77] Creating layer conv2/relu_3x3_reduce
I0403 14:41:12.630983  1752 net.cpp:91] Creating Layer conv2/relu_3x3_reduce
I0403 14:41:12.631000  1752 net.cpp:425] conv2/relu_3x3_reduce <- conv2/3x3_reduce
I0403 14:41:12.631019  1752 net.cpp:386] conv2/relu_3x3_reduce -> conv2/3x3_reduce (in-place)
I0403 14:41:12.631305  1752 net.cpp:141] Setting up conv2/relu_3x3_reduce
I0403 14:41:12.631332  1752 net.cpp:148] Top shape: 24 64 56 56 (4816896)
I0403 14:41:12.631347  1752 net.cpp:156] Memory required for data: 245662752
I0403 14:41:12.631363  1752 layer_factory.hpp:77] Creating layer conv2/3x3
I0403 14:41:12.631387  1752 net.cpp:91] Creating Layer conv2/3x3
I0403 14:41:12.631405  1752 net.cpp:425] conv2/3x3 <- conv2/3x3_reduce
I0403 14:41:12.631428  1752 net.cpp:399] conv2/3x3 -> conv2/3x3
I0403 14:41:12.633859  1752 net.cpp:141] Setting up conv2/3x3
I0403 14:41:12.633891  1752 net.cpp:148] Top shape: 24 192 56 56 (14450688)
I0403 14:41:12.633908  1752 net.cpp:156] Memory required for data: 303465504
I0403 14:41:12.633929  1752 layer_factory.hpp:77] Creating layer conv2/relu_3x3
I0403 14:41:12.633949  1752 net.cpp:91] Creating Layer conv2/relu_3x3
I0403 14:41:12.633965  1752 net.cpp:425] conv2/relu_3x3 <- conv2/3x3
I0403 14:41:12.633985  1752 net.cpp:386] conv2/relu_3x3 -> conv2/3x3 (in-place)
I0403 14:41:12.634167  1752 net.cpp:141] Setting up conv2/relu_3x3
I0403 14:41:12.634197  1752 net.cpp:148] Top shape: 24 192 56 56 (14450688)
I0403 14:41:12.634248  1752 net.cpp:156] Memory required for data: 361268256
I0403 14:41:12.634265  1752 layer_factory.hpp:77] Creating layer conv2/norm2
I0403 14:41:12.634284  1752 net.cpp:91] Creating Layer conv2/norm2
I0403 14:41:12.634299  1752 net.cpp:425] conv2/norm2 <- conv2/3x3
I0403 14:41:12.634320  1752 net.cpp:399] conv2/norm2 -> conv2/norm2
I0403 14:41:12.634639  1752 net.cpp:141] Setting up conv2/norm2
I0403 14:41:12.634667  1752 net.cpp:148] Top shape: 24 192 56 56 (14450688)
I0403 14:41:12.634683  1752 net.cpp:156] Memory required for data: 419071008
I0403 14:41:12.634698  1752 layer_factory.hpp:77] Creating layer pool2/3x3_s2
I0403 14:41:12.634718  1752 net.cpp:91] Creating Layer pool2/3x3_s2
I0403 14:41:12.634734  1752 net.cpp:425] pool2/3x3_s2 <- conv2/norm2
I0403 14:41:12.634757  1752 net.cpp:399] pool2/3x3_s2 -> pool2/3x3_s2
I0403 14:41:12.634814  1752 net.cpp:141] Setting up pool2/3x3_s2
I0403 14:41:12.634837  1752 net.cpp:148] Top shape: 24 192 28 28 (3612672)
I0403 14:41:12.634851  1752 net.cpp:156] Memory required for data: 433521696
I0403 14:41:12.634866  1752 layer_factory.hpp:77] Creating layer pool2/3x3_s2_pool2/3x3_s2_0_split
I0403 14:41:12.634886  1752 net.cpp:91] Creating Layer pool2/3x3_s2_pool2/3x3_s2_0_split
I0403 14:41:12.634902  1752 net.cpp:425] pool2/3x3_s2_pool2/3x3_s2_0_split <- pool2/3x3_s2
I0403 14:41:12.634920  1752 net.cpp:399] pool2/3x3_s2_pool2/3x3_s2_0_split -> pool2/3x3_s2_pool2/3x3_s2_0_split_0
I0403 14:41:12.634943  1752 net.cpp:399] pool2/3x3_s2_pool2/3x3_s2_0_split -> pool2/3x3_s2_pool2/3x3_s2_0_split_1
I0403 14:41:12.634964  1752 net.cpp:399] pool2/3x3_s2_pool2/3x3_s2_0_split -> pool2/3x3_s2_pool2/3x3_s2_0_split_2
I0403 14:41:12.634984  1752 net.cpp:399] pool2/3x3_s2_pool2/3x3_s2_0_split -> pool2/3x3_s2_pool2/3x3_s2_0_split_3
I0403 14:41:12.635057  1752 net.cpp:141] Setting up pool2/3x3_s2_pool2/3x3_s2_0_split
I0403 14:41:12.635082  1752 net.cpp:148] Top shape: 24 192 28 28 (3612672)
I0403 14:41:12.635097  1752 net.cpp:148] Top shape: 24 192 28 28 (3612672)
I0403 14:41:12.635113  1752 net.cpp:148] Top shape: 24 192 28 28 (3612672)
I0403 14:41:12.635129  1752 net.cpp:148] Top shape: 24 192 28 28 (3612672)
I0403 14:41:12.635143  1752 net.cpp:156] Memory required for data: 491324448
I0403 14:41:12.635159  1752 layer_factory.hpp:77] Creating layer inception_3a/1x1
I0403 14:41:12.635181  1752 net.cpp:91] Creating Layer inception_3a/1x1
I0403 14:41:12.635198  1752 net.cpp:425] inception_3a/1x1 <- pool2/3x3_s2_pool2/3x3_s2_0_split_0
I0403 14:41:12.635224  1752 net.cpp:399] inception_3a/1x1 -> inception_3a/1x1
I0403 14:41:12.636798  1752 net.cpp:141] Setting up inception_3a/1x1
I0403 14:41:12.636828  1752 net.cpp:148] Top shape: 24 64 28 28 (1204224)
I0403 14:41:12.636845  1752 net.cpp:156] Memory required for data: 496141344
I0403 14:41:12.636864  1752 layer_factory.hpp:77] Creating layer inception_3a/relu_1x1
I0403 14:41:12.636883  1752 net.cpp:91] Creating Layer inception_3a/relu_1x1
I0403 14:41:12.636903  1752 net.cpp:425] inception_3a/relu_1x1 <- inception_3a/1x1
I0403 14:41:12.636920  1752 net.cpp:386] inception_3a/relu_1x1 -> inception_3a/1x1 (in-place)
I0403 14:41:12.637104  1752 net.cpp:141] Setting up inception_3a/relu_1x1
I0403 14:41:12.637128  1752 net.cpp:148] Top shape: 24 64 28 28 (1204224)
I0403 14:41:12.637143  1752 net.cpp:156] Memory required for data: 500958240
I0403 14:41:12.637158  1752 layer_factory.hpp:77] Creating layer inception_3a/3x3_reduce
I0403 14:41:12.637181  1752 net.cpp:91] Creating Layer inception_3a/3x3_reduce
I0403 14:41:12.637198  1752 net.cpp:425] inception_3a/3x3_reduce <- pool2/3x3_s2_pool2/3x3_s2_0_split_1
I0403 14:41:12.637226  1752 net.cpp:399] inception_3a/3x3_reduce -> inception_3a/3x3_reduce
I0403 14:41:12.638963  1752 net.cpp:141] Setting up inception_3a/3x3_reduce
I0403 14:41:12.638993  1752 net.cpp:148] Top shape: 24 96 28 28 (1806336)
I0403 14:41:12.639008  1752 net.cpp:156] Memory required for data: 508183584
I0403 14:41:12.639029  1752 layer_factory.hpp:77] Creating layer inception_3a/relu_3x3_reduce
I0403 14:41:12.639067  1752 net.cpp:91] Creating Layer inception_3a/relu_3x3_reduce
I0403 14:41:12.639086  1752 net.cpp:425] inception_3a/relu_3x3_reduce <- inception_3a/3x3_reduce
I0403 14:41:12.639103  1752 net.cpp:386] inception_3a/relu_3x3_reduce -> inception_3a/3x3_reduce (in-place)
I0403 14:41:12.639292  1752 net.cpp:141] Setting up inception_3a/relu_3x3_reduce
I0403 14:41:12.639317  1752 net.cpp:148] Top shape: 24 96 28 28 (1806336)
I0403 14:41:12.639333  1752 net.cpp:156] Memory required for data: 515408928
I0403 14:41:12.639348  1752 layer_factory.hpp:77] Creating layer inception_3a/3x3
I0403 14:41:12.639369  1752 net.cpp:91] Creating Layer inception_3a/3x3
I0403 14:41:12.639386  1752 net.cpp:425] inception_3a/3x3 <- inception_3a/3x3_reduce
I0403 14:41:12.639408  1752 net.cpp:399] inception_3a/3x3 -> inception_3a/3x3
I0403 14:41:12.641064  1752 net.cpp:141] Setting up inception_3a/3x3
I0403 14:41:12.641093  1752 net.cpp:148] Top shape: 24 128 28 28 (2408448)
I0403 14:41:12.641108  1752 net.cpp:156] Memory required for data: 525042720
I0403 14:41:12.641126  1752 layer_factory.hpp:77] Creating layer inception_3a/relu_3x3
I0403 14:41:12.641146  1752 net.cpp:91] Creating Layer inception_3a/relu_3x3
I0403 14:41:12.641162  1752 net.cpp:425] inception_3a/relu_3x3 <- inception_3a/3x3
I0403 14:41:12.641180  1752 net.cpp:386] inception_3a/relu_3x3 -> inception_3a/3x3 (in-place)
I0403 14:41:12.641461  1752 net.cpp:141] Setting up inception_3a/relu_3x3
I0403 14:41:12.641487  1752 net.cpp:148] Top shape: 24 128 28 28 (2408448)
I0403 14:41:12.641502  1752 net.cpp:156] Memory required for data: 534676512
I0403 14:41:12.641517  1752 layer_factory.hpp:77] Creating layer inception_3a/5x5_reduce
I0403 14:41:12.641540  1752 net.cpp:91] Creating Layer inception_3a/5x5_reduce
I0403 14:41:12.641556  1752 net.cpp:425] inception_3a/5x5_reduce <- pool2/3x3_s2_pool2/3x3_s2_0_split_2
I0403 14:41:12.641577  1752 net.cpp:399] inception_3a/5x5_reduce -> inception_3a/5x5_reduce
I0403 14:41:12.642563  1752 net.cpp:141] Setting up inception_3a/5x5_reduce
I0403 14:41:12.642591  1752 net.cpp:148] Top shape: 24 16 28 28 (301056)
I0403 14:41:12.642606  1752 net.cpp:156] Memory required for data: 535880736
I0403 14:41:12.642624  1752 layer_factory.hpp:77] Creating layer inception_3a/relu_5x5_reduce
I0403 14:41:12.642645  1752 net.cpp:91] Creating Layer inception_3a/relu_5x5_reduce
I0403 14:41:12.642662  1752 net.cpp:425] inception_3a/relu_5x5_reduce <- inception_3a/5x5_reduce
I0403 14:41:12.642678  1752 net.cpp:386] inception_3a/relu_5x5_reduce -> inception_3a/5x5_reduce (in-place)
I0403 14:41:12.642978  1752 net.cpp:141] Setting up inception_3a/relu_5x5_reduce
I0403 14:41:12.643007  1752 net.cpp:148] Top shape: 24 16 28 28 (301056)
I0403 14:41:12.643023  1752 net.cpp:156] Memory required for data: 537084960
I0403 14:41:12.643038  1752 layer_factory.hpp:77] Creating layer inception_3a/5x5
I0403 14:41:12.643060  1752 net.cpp:91] Creating Layer inception_3a/5x5
I0403 14:41:12.643077  1752 net.cpp:425] inception_3a/5x5 <- inception_3a/5x5_reduce
I0403 14:41:12.643096  1752 net.cpp:399] inception_3a/5x5 -> inception_3a/5x5
I0403 14:41:12.644129  1752 net.cpp:141] Setting up inception_3a/5x5
I0403 14:41:12.644156  1752 net.cpp:148] Top shape: 24 32 28 28 (602112)
I0403 14:41:12.644172  1752 net.cpp:156] Memory required for data: 539493408
I0403 14:41:12.644191  1752 layer_factory.hpp:77] Creating layer inception_3a/relu_5x5
I0403 14:41:12.644218  1752 net.cpp:91] Creating Layer inception_3a/relu_5x5
I0403 14:41:12.644237  1752 net.cpp:425] inception_3a/relu_5x5 <- inception_3a/5x5
I0403 14:41:12.644253  1752 net.cpp:386] inception_3a/relu_5x5 -> inception_3a/5x5 (in-place)
I0403 14:41:12.644429  1752 net.cpp:141] Setting up inception_3a/relu_5x5
I0403 14:41:12.644454  1752 net.cpp:148] Top shape: 24 32 28 28 (602112)
I0403 14:41:12.644467  1752 net.cpp:156] Memory required for data: 541901856
I0403 14:41:12.644482  1752 layer_factory.hpp:77] Creating layer inception_3a/pool
I0403 14:41:12.644502  1752 net.cpp:91] Creating Layer inception_3a/pool
I0403 14:41:12.644531  1752 net.cpp:425] inception_3a/pool <- pool2/3x3_s2_pool2/3x3_s2_0_split_3
I0403 14:41:12.644549  1752 net.cpp:399] inception_3a/pool -> inception_3a/pool
I0403 14:41:12.644609  1752 net.cpp:141] Setting up inception_3a/pool
I0403 14:41:12.644632  1752 net.cpp:148] Top shape: 24 192 28 28 (3612672)
I0403 14:41:12.644646  1752 net.cpp:156] Memory required for data: 556352544
I0403 14:41:12.644661  1752 layer_factory.hpp:77] Creating layer inception_3a/pool_proj
I0403 14:41:12.644682  1752 net.cpp:91] Creating Layer inception_3a/pool_proj
I0403 14:41:12.644700  1752 net.cpp:425] inception_3a/pool_proj <- inception_3a/pool
I0403 14:41:12.644721  1752 net.cpp:399] inception_3a/pool_proj -> inception_3a/pool_proj
I0403 14:41:12.645691  1752 net.cpp:141] Setting up inception_3a/pool_proj
I0403 14:41:12.645720  1752 net.cpp:148] Top shape: 24 32 28 28 (602112)
I0403 14:41:12.645737  1752 net.cpp:156] Memory required for data: 558760992
I0403 14:41:12.645758  1752 layer_factory.hpp:77] Creating layer inception_3a/relu_pool_proj
I0403 14:41:12.645781  1752 net.cpp:91] Creating Layer inception_3a/relu_pool_proj
I0403 14:41:12.645797  1752 net.cpp:425] inception_3a/relu_pool_proj <- inception_3a/pool_proj
I0403 14:41:12.645814  1752 net.cpp:386] inception_3a/relu_pool_proj -> inception_3a/pool_proj (in-place)
I0403 14:41:12.646087  1752 net.cpp:141] Setting up inception_3a/relu_pool_proj
I0403 14:41:12.646113  1752 net.cpp:148] Top shape: 24 32 28 28 (602112)
I0403 14:41:12.646128  1752 net.cpp:156] Memory required for data: 561169440
I0403 14:41:12.646143  1752 layer_factory.hpp:77] Creating layer inception_3a/output
I0403 14:41:12.646160  1752 net.cpp:91] Creating Layer inception_3a/output
I0403 14:41:12.646178  1752 net.cpp:425] inception_3a/output <- inception_3a/1x1
I0403 14:41:12.646194  1752 net.cpp:425] inception_3a/output <- inception_3a/3x3
I0403 14:41:12.646216  1752 net.cpp:425] inception_3a/output <- inception_3a/5x5
I0403 14:41:12.646234  1752 net.cpp:425] inception_3a/output <- inception_3a/pool_proj
I0403 14:41:12.646251  1752 net.cpp:399] inception_3a/output -> inception_3a/output
I0403 14:41:12.646297  1752 net.cpp:141] Setting up inception_3a/output
I0403 14:41:12.646323  1752 net.cpp:148] Top shape: 24 256 28 28 (4816896)
I0403 14:41:12.646338  1752 net.cpp:156] Memory required for data: 580437024
I0403 14:41:12.646353  1752 layer_factory.hpp:77] Creating layer inception_3a/output_inception_3a/output_0_split
I0403 14:41:12.646370  1752 net.cpp:91] Creating Layer inception_3a/output_inception_3a/output_0_split
I0403 14:41:12.646385  1752 net.cpp:425] inception_3a/output_inception_3a/output_0_split <- inception_3a/output
I0403 14:41:12.646405  1752 net.cpp:399] inception_3a/output_inception_3a/output_0_split -> inception_3a/output_inception_3a/output_0_split_0
I0403 14:41:12.646425  1752 net.cpp:399] inception_3a/output_inception_3a/output_0_split -> inception_3a/output_inception_3a/output_0_split_1
I0403 14:41:12.646447  1752 net.cpp:399] inception_3a/output_inception_3a/output_0_split -> inception_3a/output_inception_3a/output_0_split_2
I0403 14:41:12.646468  1752 net.cpp:399] inception_3a/output_inception_3a/output_0_split -> inception_3a/output_inception_3a/output_0_split_3
I0403 14:41:12.646548  1752 net.cpp:141] Setting up inception_3a/output_inception_3a/output_0_split
I0403 14:41:12.646570  1752 net.cpp:148] Top shape: 24 256 28 28 (4816896)
I0403 14:41:12.646586  1752 net.cpp:148] Top shape: 24 256 28 28 (4816896)
I0403 14:41:12.646602  1752 net.cpp:148] Top shape: 24 256 28 28 (4816896)
I0403 14:41:12.646618  1752 net.cpp:148] Top shape: 24 256 28 28 (4816896)
I0403 14:41:12.646631  1752 net.cpp:156] Memory required for data: 657507360
I0403 14:41:12.646646  1752 layer_factory.hpp:77] Creating layer inception_3b/1x1
I0403 14:41:12.646667  1752 net.cpp:91] Creating Layer inception_3b/1x1
I0403 14:41:12.646684  1752 net.cpp:425] inception_3b/1x1 <- inception_3a/output_inception_3a/output_0_split_0
I0403 14:41:12.646704  1752 net.cpp:399] inception_3b/1x1 -> inception_3b/1x1
I0403 14:41:12.647868  1752 net.cpp:141] Setting up inception_3b/1x1
I0403 14:41:12.647908  1752 net.cpp:148] Top shape: 24 128 28 28 (2408448)
I0403 14:41:12.647933  1752 net.cpp:156] Memory required for data: 667141152
I0403 14:41:12.647963  1752 layer_factory.hpp:77] Creating layer inception_3b/relu_1x1
I0403 14:41:12.647981  1752 net.cpp:91] Creating Layer inception_3b/relu_1x1
I0403 14:41:12.648002  1752 net.cpp:425] inception_3b/relu_1x1 <- inception_3b/1x1
I0403 14:41:12.648022  1752 net.cpp:386] inception_3b/relu_1x1 -> inception_3b/1x1 (in-place)
I0403 14:41:12.648216  1752 net.cpp:141] Setting up inception_3b/relu_1x1
I0403 14:41:12.648253  1752 net.cpp:148] Top shape: 24 128 28 28 (2408448)
I0403 14:41:12.648268  1752 net.cpp:156] Memory required for data: 676774944
I0403 14:41:12.648283  1752 layer_factory.hpp:77] Creating layer inception_3b/3x3_reduce
I0403 14:41:12.648305  1752 net.cpp:91] Creating Layer inception_3b/3x3_reduce
I0403 14:41:12.648322  1752 net.cpp:425] inception_3b/3x3_reduce <- inception_3a/output_inception_3a/output_0_split_1
I0403 14:41:12.648351  1752 net.cpp:399] inception_3b/3x3_reduce -> inception_3b/3x3_reduce
I0403 14:41:12.649505  1752 net.cpp:141] Setting up inception_3b/3x3_reduce
I0403 14:41:12.649535  1752 net.cpp:148] Top shape: 24 128 28 28 (2408448)
I0403 14:41:12.649551  1752 net.cpp:156] Memory required for data: 686408736
I0403 14:41:12.649569  1752 layer_factory.hpp:77] Creating layer inception_3b/relu_3x3_reduce
I0403 14:41:12.649587  1752 net.cpp:91] Creating Layer inception_3b/relu_3x3_reduce
I0403 14:41:12.649602  1752 net.cpp:425] inception_3b/relu_3x3_reduce <- inception_3b/3x3_reduce
I0403 14:41:12.649622  1752 net.cpp:386] inception_3b/relu_3x3_reduce -> inception_3b/3x3_reduce (in-place)
I0403 14:41:12.649797  1752 net.cpp:141] Setting up inception_3b/relu_3x3_reduce
I0403 14:41:12.649822  1752 net.cpp:148] Top shape: 24 128 28 28 (2408448)
I0403 14:41:12.649837  1752 net.cpp:156] Memory required for data: 696042528
I0403 14:41:12.649852  1752 layer_factory.hpp:77] Creating layer inception_3b/3x3
I0403 14:41:12.649878  1752 net.cpp:91] Creating Layer inception_3b/3x3
I0403 14:41:12.649894  1752 net.cpp:425] inception_3b/3x3 <- inception_3b/3x3_reduce
I0403 14:41:12.649914  1752 net.cpp:399] inception_3b/3x3 -> inception_3b/3x3
I0403 14:41:12.652940  1752 net.cpp:141] Setting up inception_3b/3x3
I0403 14:41:12.652969  1752 net.cpp:148] Top shape: 24 192 28 28 (3612672)
I0403 14:41:12.652986  1752 net.cpp:156] Memory required for data: 710493216
I0403 14:41:12.653003  1752 layer_factory.hpp:77] Creating layer inception_3b/relu_3x3
I0403 14:41:12.653024  1752 net.cpp:91] Creating Layer inception_3b/relu_3x3
I0403 14:41:12.653040  1752 net.cpp:425] inception_3b/relu_3x3 <- inception_3b/3x3
I0403 14:41:12.653058  1752 net.cpp:386] inception_3b/relu_3x3 -> inception_3b/3x3 (in-place)
I0403 14:41:12.653339  1752 net.cpp:141] Setting up inception_3b/relu_3x3
I0403 14:41:12.653365  1752 net.cpp:148] Top shape: 24 192 28 28 (3612672)
I0403 14:41:12.653380  1752 net.cpp:156] Memory required for data: 724943904
I0403 14:41:12.653395  1752 layer_factory.hpp:77] Creating layer inception_3b/5x5_reduce
I0403 14:41:12.653419  1752 net.cpp:91] Creating Layer inception_3b/5x5_reduce
I0403 14:41:12.653435  1752 net.cpp:425] inception_3b/5x5_reduce <- inception_3a/output_inception_3a/output_0_split_2
I0403 14:41:12.653457  1752 net.cpp:399] inception_3b/5x5_reduce -> inception_3b/5x5_reduce
I0403 14:41:12.654463  1752 net.cpp:141] Setting up inception_3b/5x5_reduce
I0403 14:41:12.654490  1752 net.cpp:148] Top shape: 24 32 28 28 (602112)
I0403 14:41:12.654505  1752 net.cpp:156] Memory required for data: 727352352
I0403 14:41:12.654523  1752 layer_factory.hpp:77] Creating layer inception_3b/relu_5x5_reduce
I0403 14:41:12.654543  1752 net.cpp:91] Creating Layer inception_3b/relu_5x5_reduce
I0403 14:41:12.654559  1752 net.cpp:425] inception_3b/relu_5x5_reduce <- inception_3b/5x5_reduce
I0403 14:41:12.654577  1752 net.cpp:386] inception_3b/relu_5x5_reduce -> inception_3b/5x5_reduce (in-place)
I0403 14:41:12.654768  1752 net.cpp:141] Setting up inception_3b/relu_5x5_reduce
I0403 14:41:12.654793  1752 net.cpp:148] Top shape: 24 32 28 28 (602112)
I0403 14:41:12.654808  1752 net.cpp:156] Memory required for data: 729760800
I0403 14:41:12.654824  1752 layer_factory.hpp:77] Creating layer inception_3b/5x5
I0403 14:41:12.654846  1752 net.cpp:91] Creating Layer inception_3b/5x5
I0403 14:41:12.654865  1752 net.cpp:425] inception_3b/5x5 <- inception_3b/5x5_reduce
I0403 14:41:12.654882  1752 net.cpp:399] inception_3b/5x5 -> inception_3b/5x5
I0403 14:41:12.656854  1752 net.cpp:141] Setting up inception_3b/5x5
I0403 14:41:12.656886  1752 net.cpp:148] Top shape: 24 96 28 28 (1806336)
I0403 14:41:12.656903  1752 net.cpp:156] Memory required for data: 736986144
I0403 14:41:12.656920  1752 layer_factory.hpp:77] Creating layer inception_3b/relu_5x5
I0403 14:41:12.656939  1752 net.cpp:91] Creating Layer inception_3b/relu_5x5
I0403 14:41:12.656954  1752 net.cpp:425] inception_3b/relu_5x5 <- inception_3b/5x5
I0403 14:41:12.656973  1752 net.cpp:386] inception_3b/relu_5x5 -> inception_3b/5x5 (in-place)
I0403 14:41:12.657166  1752 net.cpp:141] Setting up inception_3b/relu_5x5
I0403 14:41:12.657191  1752 net.cpp:148] Top shape: 24 96 28 28 (1806336)
I0403 14:41:12.657205  1752 net.cpp:156] Memory required for data: 744211488
I0403 14:41:12.657228  1752 layer_factory.hpp:77] Creating layer inception_3b/pool
I0403 14:41:12.657246  1752 net.cpp:91] Creating Layer inception_3b/pool
I0403 14:41:12.657263  1752 net.cpp:425] inception_3b/pool <- inception_3a/output_inception_3a/output_0_split_3
I0403 14:41:12.657279  1752 net.cpp:399] inception_3b/pool -> inception_3b/pool
I0403 14:41:12.657341  1752 net.cpp:141] Setting up inception_3b/pool
I0403 14:41:12.657366  1752 net.cpp:148] Top shape: 24 256 28 28 (4816896)
I0403 14:41:12.657379  1752 net.cpp:156] Memory required for data: 763479072
I0403 14:41:12.657393  1752 layer_factory.hpp:77] Creating layer inception_3b/pool_proj
I0403 14:41:12.657416  1752 net.cpp:91] Creating Layer inception_3b/pool_proj
I0403 14:41:12.657433  1752 net.cpp:425] inception_3b/pool_proj <- inception_3b/pool
I0403 14:41:12.657454  1752 net.cpp:399] inception_3b/pool_proj -> inception_3b/pool_proj
I0403 14:41:12.658520  1752 net.cpp:141] Setting up inception_3b/pool_proj
I0403 14:41:12.658547  1752 net.cpp:148] Top shape: 24 64 28 28 (1204224)
I0403 14:41:12.658563  1752 net.cpp:156] Memory required for data: 768295968
I0403 14:41:12.658582  1752 layer_factory.hpp:77] Creating layer inception_3b/relu_pool_proj
I0403 14:41:12.658602  1752 net.cpp:91] Creating Layer inception_3b/relu_pool_proj
I0403 14:41:12.658618  1752 net.cpp:425] inception_3b/relu_pool_proj <- inception_3b/pool_proj
I0403 14:41:12.658635  1752 net.cpp:386] inception_3b/relu_pool_proj -> inception_3b/pool_proj (in-place)
I0403 14:41:12.659031  1752 net.cpp:141] Setting up inception_3b/relu_pool_proj
I0403 14:41:12.659057  1752 net.cpp:148] Top shape: 24 64 28 28 (1204224)
I0403 14:41:12.659073  1752 net.cpp:156] Memory required for data: 773112864
I0403 14:41:12.659087  1752 layer_factory.hpp:77] Creating layer inception_3b/output
I0403 14:41:12.659107  1752 net.cpp:91] Creating Layer inception_3b/output
I0403 14:41:12.659124  1752 net.cpp:425] inception_3b/output <- inception_3b/1x1
I0403 14:41:12.659139  1752 net.cpp:425] inception_3b/output <- inception_3b/3x3
I0403 14:41:12.659155  1752 net.cpp:425] inception_3b/output <- inception_3b/5x5
I0403 14:41:12.659170  1752 net.cpp:425] inception_3b/output <- inception_3b/pool_proj
I0403 14:41:12.659188  1752 net.cpp:399] inception_3b/output -> inception_3b/output
I0403 14:41:12.659240  1752 net.cpp:141] Setting up inception_3b/output
I0403 14:41:12.659262  1752 net.cpp:148] Top shape: 24 480 28 28 (9031680)
I0403 14:41:12.659277  1752 net.cpp:156] Memory required for data: 809239584
I0403 14:41:12.659291  1752 layer_factory.hpp:77] Creating layer pool3/3x3_s2
I0403 14:41:12.659309  1752 net.cpp:91] Creating Layer pool3/3x3_s2
I0403 14:41:12.659324  1752 net.cpp:425] pool3/3x3_s2 <- inception_3b/output
I0403 14:41:12.659359  1752 net.cpp:399] pool3/3x3_s2 -> pool3/3x3_s2
I0403 14:41:12.659420  1752 net.cpp:141] Setting up pool3/3x3_s2
I0403 14:41:12.659445  1752 net.cpp:148] Top shape: 24 480 14 14 (2257920)
I0403 14:41:12.659458  1752 net.cpp:156] Memory required for data: 818271264
I0403 14:41:12.659473  1752 layer_factory.hpp:77] Creating layer pool3/3x3_s2_pool3/3x3_s2_0_split
I0403 14:41:12.659490  1752 net.cpp:91] Creating Layer pool3/3x3_s2_pool3/3x3_s2_0_split
I0403 14:41:12.659504  1752 net.cpp:425] pool3/3x3_s2_pool3/3x3_s2_0_split <- pool3/3x3_s2
I0403 14:41:12.659521  1752 net.cpp:399] pool3/3x3_s2_pool3/3x3_s2_0_split -> pool3/3x3_s2_pool3/3x3_s2_0_split_0
I0403 14:41:12.659543  1752 net.cpp:399] pool3/3x3_s2_pool3/3x3_s2_0_split -> pool3/3x3_s2_pool3/3x3_s2_0_split_1
I0403 14:41:12.659564  1752 net.cpp:399] pool3/3x3_s2_pool3/3x3_s2_0_split -> pool3/3x3_s2_pool3/3x3_s2_0_split_2
I0403 14:41:12.659582  1752 net.cpp:399] pool3/3x3_s2_pool3/3x3_s2_0_split -> pool3/3x3_s2_pool3/3x3_s2_0_split_3
I0403 14:41:12.659662  1752 net.cpp:141] Setting up pool3/3x3_s2_pool3/3x3_s2_0_split
I0403 14:41:12.659683  1752 net.cpp:148] Top shape: 24 480 14 14 (2257920)
I0403 14:41:12.659699  1752 net.cpp:148] Top shape: 24 480 14 14 (2257920)
I0403 14:41:12.659714  1752 net.cpp:148] Top shape: 24 480 14 14 (2257920)
I0403 14:41:12.659730  1752 net.cpp:148] Top shape: 24 480 14 14 (2257920)
I0403 14:41:12.659744  1752 net.cpp:156] Memory required for data: 854397984
I0403 14:41:12.659759  1752 layer_factory.hpp:77] Creating layer inception_4a/1x1
I0403 14:41:12.659781  1752 net.cpp:91] Creating Layer inception_4a/1x1
I0403 14:41:12.659800  1752 net.cpp:425] inception_4a/1x1 <- pool3/3x3_s2_pool3/3x3_s2_0_split_0
I0403 14:41:12.659817  1752 net.cpp:399] inception_4a/1x1 -> inception_4a/1x1
I0403 14:41:12.661402  1752 net.cpp:141] Setting up inception_4a/1x1
I0403 14:41:12.661432  1752 net.cpp:148] Top shape: 24 192 14 14 (903168)
I0403 14:41:12.661449  1752 net.cpp:156] Memory required for data: 858010656
I0403 14:41:12.661468  1752 layer_factory.hpp:77] Creating layer inception_4a/relu_1x1
I0403 14:41:12.661487  1752 net.cpp:91] Creating Layer inception_4a/relu_1x1
I0403 14:41:12.661504  1752 net.cpp:425] inception_4a/relu_1x1 <- inception_4a/1x1
I0403 14:41:12.661525  1752 net.cpp:386] inception_4a/relu_1x1 -> inception_4a/1x1 (in-place)
I0403 14:41:12.661705  1752 net.cpp:141] Setting up inception_4a/relu_1x1
I0403 14:41:12.661730  1752 net.cpp:148] Top shape: 24 192 14 14 (903168)
I0403 14:41:12.661746  1752 net.cpp:156] Memory required for data: 861623328
I0403 14:41:12.661759  1752 layer_factory.hpp:77] Creating layer inception_4a/3x3_reduce
I0403 14:41:12.661782  1752 net.cpp:91] Creating Layer inception_4a/3x3_reduce
I0403 14:41:12.661798  1752 net.cpp:425] inception_4a/3x3_reduce <- pool3/3x3_s2_pool3/3x3_s2_0_split_1
I0403 14:41:12.661819  1752 net.cpp:399] inception_4a/3x3_reduce -> inception_4a/3x3_reduce
I0403 14:41:12.663125  1752 net.cpp:141] Setting up inception_4a/3x3_reduce
I0403 14:41:12.663156  1752 net.cpp:148] Top shape: 24 96 14 14 (451584)
I0403 14:41:12.663172  1752 net.cpp:156] Memory required for data: 863429664
I0403 14:41:12.663194  1752 layer_factory.hpp:77] Creating layer inception_4a/relu_3x3_reduce
I0403 14:41:12.663221  1752 net.cpp:91] Creating Layer inception_4a/relu_3x3_reduce
I0403 14:41:12.663240  1752 net.cpp:425] inception_4a/relu_3x3_reduce <- inception_4a/3x3_reduce
I0403 14:41:12.663259  1752 net.cpp:386] inception_4a/relu_3x3_reduce -> inception_4a/3x3_reduce (in-place)
I0403 14:41:12.663437  1752 net.cpp:141] Setting up inception_4a/relu_3x3_reduce
I0403 14:41:12.663461  1752 net.cpp:148] Top shape: 24 96 14 14 (451584)
I0403 14:41:12.663477  1752 net.cpp:156] Memory required for data: 865236000
I0403 14:41:12.663491  1752 layer_factory.hpp:77] Creating layer inception_4a/3x3
I0403 14:41:12.663513  1752 net.cpp:91] Creating Layer inception_4a/3x3
I0403 14:41:12.663530  1752 net.cpp:425] inception_4a/3x3 <- inception_4a/3x3_reduce
I0403 14:41:12.663552  1752 net.cpp:399] inception_4a/3x3 -> inception_4a/3x3
I0403 14:41:12.666239  1752 net.cpp:141] Setting up inception_4a/3x3
I0403 14:41:12.666267  1752 net.cpp:148] Top shape: 24 208 14 14 (978432)
I0403 14:41:12.666283  1752 net.cpp:156] Memory required for data: 869149728
I0403 14:41:12.666302  1752 layer_factory.hpp:77] Creating layer inception_4a/relu_3x3
I0403 14:41:12.666321  1752 net.cpp:91] Creating Layer inception_4a/relu_3x3
I0403 14:41:12.666337  1752 net.cpp:425] inception_4a/relu_3x3 <- inception_4a/3x3
I0403 14:41:12.666357  1752 net.cpp:386] inception_4a/relu_3x3 -> inception_4a/3x3 (in-place)
I0403 14:41:12.666636  1752 net.cpp:141] Setting up inception_4a/relu_3x3
I0403 14:41:12.666663  1752 net.cpp:148] Top shape: 24 208 14 14 (978432)
I0403 14:41:12.666678  1752 net.cpp:156] Memory required for data: 873063456
I0403 14:41:12.666693  1752 layer_factory.hpp:77] Creating layer inception_4a/5x5_reduce
I0403 14:41:12.666717  1752 net.cpp:91] Creating Layer inception_4a/5x5_reduce
I0403 14:41:12.666734  1752 net.cpp:425] inception_4a/5x5_reduce <- pool3/3x3_s2_pool3/3x3_s2_0_split_2
I0403 14:41:12.666755  1752 net.cpp:399] inception_4a/5x5_reduce -> inception_4a/5x5_reduce
I0403 14:41:12.667793  1752 net.cpp:141] Setting up inception_4a/5x5_reduce
I0403 14:41:12.667820  1752 net.cpp:148] Top shape: 24 16 14 14 (75264)
I0403 14:41:12.667835  1752 net.cpp:156] Memory required for data: 873364512
I0403 14:41:12.667853  1752 layer_factory.hpp:77] Creating layer inception_4a/relu_5x5_reduce
I0403 14:41:12.667875  1752 net.cpp:91] Creating Layer inception_4a/relu_5x5_reduce
I0403 14:41:12.667891  1752 net.cpp:425] inception_4a/relu_5x5_reduce <- inception_4a/5x5_reduce
I0403 14:41:12.667909  1752 net.cpp:386] inception_4a/relu_5x5_reduce -> inception_4a/5x5_reduce (in-place)
I0403 14:41:12.668087  1752 net.cpp:141] Setting up inception_4a/relu_5x5_reduce
I0403 14:41:12.668112  1752 net.cpp:148] Top shape: 24 16 14 14 (75264)
I0403 14:41:12.668126  1752 net.cpp:156] Memory required for data: 873665568
I0403 14:41:12.668141  1752 layer_factory.hpp:77] Creating layer inception_4a/5x5
I0403 14:41:12.668164  1752 net.cpp:91] Creating Layer inception_4a/5x5
I0403 14:41:12.668184  1752 net.cpp:425] inception_4a/5x5 <- inception_4a/5x5_reduce
I0403 14:41:12.668201  1752 net.cpp:399] inception_4a/5x5 -> inception_4a/5x5
I0403 14:41:12.669309  1752 net.cpp:141] Setting up inception_4a/5x5
I0403 14:41:12.669338  1752 net.cpp:148] Top shape: 24 48 14 14 (225792)
I0403 14:41:12.669354  1752 net.cpp:156] Memory required for data: 874568736
I0403 14:41:12.669373  1752 layer_factory.hpp:77] Creating layer inception_4a/relu_5x5
I0403 14:41:12.669392  1752 net.cpp:91] Creating Layer inception_4a/relu_5x5
I0403 14:41:12.669410  1752 net.cpp:425] inception_4a/relu_5x5 <- inception_4a/5x5
I0403 14:41:12.669427  1752 net.cpp:386] inception_4a/relu_5x5 -> inception_4a/5x5 (in-place)
I0403 14:41:12.669610  1752 net.cpp:141] Setting up inception_4a/relu_5x5
I0403 14:41:12.669639  1752 net.cpp:148] Top shape: 24 48 14 14 (225792)
I0403 14:41:12.669657  1752 net.cpp:156] Memory required for data: 875471904
I0403 14:41:12.669672  1752 layer_factory.hpp:77] Creating layer inception_4a/pool
I0403 14:41:12.669690  1752 net.cpp:91] Creating Layer inception_4a/pool
I0403 14:41:12.669706  1752 net.cpp:425] inception_4a/pool <- pool3/3x3_s2_pool3/3x3_s2_0_split_3
I0403 14:41:12.669726  1752 net.cpp:399] inception_4a/pool -> inception_4a/pool
I0403 14:41:12.669788  1752 net.cpp:141] Setting up inception_4a/pool
I0403 14:41:12.669811  1752 net.cpp:148] Top shape: 24 480 14 14 (2257920)
I0403 14:41:12.669826  1752 net.cpp:156] Memory required for data: 884503584
I0403 14:41:12.669841  1752 layer_factory.hpp:77] Creating layer inception_4a/pool_proj
I0403 14:41:12.669862  1752 net.cpp:91] Creating Layer inception_4a/pool_proj
I0403 14:41:12.669881  1752 net.cpp:425] inception_4a/pool_proj <- inception_4a/pool
I0403 14:41:12.669901  1752 net.cpp:399] inception_4a/pool_proj -> inception_4a/pool_proj
I0403 14:41:12.671084  1752 net.cpp:141] Setting up inception_4a/pool_proj
I0403 14:41:12.671118  1752 net.cpp:148] Top shape: 24 64 14 14 (301056)
I0403 14:41:12.671147  1752 net.cpp:156] Memory required for data: 885707808
I0403 14:41:12.671166  1752 layer_factory.hpp:77] Creating layer inception_4a/relu_pool_proj
I0403 14:41:12.671185  1752 net.cpp:91] Creating Layer inception_4a/relu_pool_proj
I0403 14:41:12.671200  1752 net.cpp:425] inception_4a/relu_pool_proj <- inception_4a/pool_proj
I0403 14:41:12.671226  1752 net.cpp:386] inception_4a/relu_pool_proj -> inception_4a/pool_proj (in-place)
I0403 14:41:12.671509  1752 net.cpp:141] Setting up inception_4a/relu_pool_proj
I0403 14:41:12.671538  1752 net.cpp:148] Top shape: 24 64 14 14 (301056)
I0403 14:41:12.671555  1752 net.cpp:156] Memory required for data: 886912032
I0403 14:41:12.671569  1752 layer_factory.hpp:77] Creating layer inception_4a/output
I0403 14:41:12.671587  1752 net.cpp:91] Creating Layer inception_4a/output
I0403 14:41:12.671603  1752 net.cpp:425] inception_4a/output <- inception_4a/1x1
I0403 14:41:12.671619  1752 net.cpp:425] inception_4a/output <- inception_4a/3x3
I0403 14:41:12.671635  1752 net.cpp:425] inception_4a/output <- inception_4a/5x5
I0403 14:41:12.671650  1752 net.cpp:425] inception_4a/output <- inception_4a/pool_proj
I0403 14:41:12.671666  1752 net.cpp:399] inception_4a/output -> inception_4a/output
I0403 14:41:12.671712  1752 net.cpp:141] Setting up inception_4a/output
I0403 14:41:12.671736  1752 net.cpp:148] Top shape: 24 512 14 14 (2408448)
I0403 14:41:12.671749  1752 net.cpp:156] Memory required for data: 896545824
I0403 14:41:12.671764  1752 layer_factory.hpp:77] Creating layer inception_4a/output_inception_4a/output_0_split
I0403 14:41:12.671784  1752 net.cpp:91] Creating Layer inception_4a/output_inception_4a/output_0_split
I0403 14:41:12.671800  1752 net.cpp:425] inception_4a/output_inception_4a/output_0_split <- inception_4a/output
I0403 14:41:12.671818  1752 net.cpp:399] inception_4a/output_inception_4a/output_0_split -> inception_4a/output_inception_4a/output_0_split_0
I0403 14:41:12.671838  1752 net.cpp:399] inception_4a/output_inception_4a/output_0_split -> inception_4a/output_inception_4a/output_0_split_1
I0403 14:41:12.671857  1752 net.cpp:399] inception_4a/output_inception_4a/output_0_split -> inception_4a/output_inception_4a/output_0_split_2
I0403 14:41:12.671880  1752 net.cpp:399] inception_4a/output_inception_4a/output_0_split -> inception_4a/output_inception_4a/output_0_split_3
I0403 14:41:12.671901  1752 net.cpp:399] inception_4a/output_inception_4a/output_0_split -> inception_4a/output_inception_4a/output_0_split_4
I0403 14:41:12.671996  1752 net.cpp:141] Setting up inception_4a/output_inception_4a/output_0_split
I0403 14:41:12.672019  1752 net.cpp:148] Top shape: 24 512 14 14 (2408448)
I0403 14:41:12.672035  1752 net.cpp:148] Top shape: 24 512 14 14 (2408448)
I0403 14:41:12.672050  1752 net.cpp:148] Top shape: 24 512 14 14 (2408448)
I0403 14:41:12.672066  1752 net.cpp:148] Top shape: 24 512 14 14 (2408448)
I0403 14:41:12.672081  1752 net.cpp:148] Top shape: 24 512 14 14 (2408448)
I0403 14:41:12.672094  1752 net.cpp:156] Memory required for data: 944714784
I0403 14:41:12.672109  1752 layer_factory.hpp:77] Creating layer loss1/ave_pool
I0403 14:41:12.672132  1752 net.cpp:91] Creating Layer loss1/ave_pool
I0403 14:41:12.672147  1752 net.cpp:425] loss1/ave_pool <- inception_4a/output_inception_4a/output_0_split_0
I0403 14:41:12.672165  1752 net.cpp:399] loss1/ave_pool -> loss1/ave_pool
I0403 14:41:12.672387  1752 net.cpp:141] Setting up loss1/ave_pool
I0403 14:41:12.672416  1752 net.cpp:148] Top shape: 24 512 4 4 (196608)
I0403 14:41:12.672432  1752 net.cpp:156] Memory required for data: 945501216
I0403 14:41:12.672446  1752 layer_factory.hpp:77] Creating layer loss1/conv
I0403 14:41:12.672468  1752 net.cpp:91] Creating Layer loss1/conv
I0403 14:41:12.672485  1752 net.cpp:425] loss1/conv <- loss1/ave_pool
I0403 14:41:12.672504  1752 net.cpp:399] loss1/conv -> loss1/conv
I0403 14:41:12.673938  1752 net.cpp:141] Setting up loss1/conv
I0403 14:41:12.673966  1752 net.cpp:148] Top shape: 24 128 4 4 (49152)
I0403 14:41:12.673996  1752 net.cpp:156] Memory required for data: 945697824
I0403 14:41:12.674015  1752 layer_factory.hpp:77] Creating layer loss1/relu_conv
I0403 14:41:12.674034  1752 net.cpp:91] Creating Layer loss1/relu_conv
I0403 14:41:12.674054  1752 net.cpp:425] loss1/relu_conv <- loss1/conv
I0403 14:41:12.674072  1752 net.cpp:386] loss1/relu_conv -> loss1/conv (in-place)
I0403 14:41:12.674360  1752 net.cpp:141] Setting up loss1/relu_conv
I0403 14:41:12.674387  1752 net.cpp:148] Top shape: 24 128 4 4 (49152)
I0403 14:41:12.674402  1752 net.cpp:156] Memory required for data: 945894432
I0403 14:41:12.674417  1752 layer_factory.hpp:77] Creating layer loss1/fc
I0403 14:41:12.674442  1752 net.cpp:91] Creating Layer loss1/fc
I0403 14:41:12.674461  1752 net.cpp:425] loss1/fc <- loss1/conv
I0403 14:41:12.674480  1752 net.cpp:399] loss1/fc -> loss1/fc
I0403 14:41:12.692183  1752 net.cpp:141] Setting up loss1/fc
I0403 14:41:12.692250  1752 net.cpp:148] Top shape: 24 1024 (24576)
I0403 14:41:12.692267  1752 net.cpp:156] Memory required for data: 945992736
I0403 14:41:12.692287  1752 layer_factory.hpp:77] Creating layer loss1/relu_fc
I0403 14:41:12.692309  1752 net.cpp:91] Creating Layer loss1/relu_fc
I0403 14:41:12.692327  1752 net.cpp:425] loss1/relu_fc <- loss1/fc
I0403 14:41:12.692344  1752 net.cpp:386] loss1/relu_fc -> loss1/fc (in-place)
I0403 14:41:12.692556  1752 net.cpp:141] Setting up loss1/relu_fc
I0403 14:41:12.692581  1752 net.cpp:148] Top shape: 24 1024 (24576)
I0403 14:41:12.692596  1752 net.cpp:156] Memory required for data: 946091040
I0403 14:41:12.692611  1752 layer_factory.hpp:77] Creating layer loss1/drop_fc
I0403 14:41:12.692639  1752 net.cpp:91] Creating Layer loss1/drop_fc
I0403 14:41:12.692657  1752 net.cpp:425] loss1/drop_fc <- loss1/fc
I0403 14:41:12.692677  1752 net.cpp:386] loss1/drop_fc -> loss1/fc (in-place)
I0403 14:41:12.692730  1752 net.cpp:141] Setting up loss1/drop_fc
I0403 14:41:12.692754  1752 net.cpp:148] Top shape: 24 1024 (24576)
I0403 14:41:12.692769  1752 net.cpp:156] Memory required for data: 946189344
I0403 14:41:12.692783  1752 layer_factory.hpp:77] Creating layer loss1/classifier_plantvillage
I0403 14:41:12.692806  1752 net.cpp:91] Creating Layer loss1/classifier_plantvillage
I0403 14:41:12.692824  1752 net.cpp:425] loss1/classifier_plantvillage <- loss1/fc
I0403 14:41:12.692844  1752 net.cpp:399] loss1/classifier_plantvillage -> loss1/classifier_plantvillage
I0403 14:41:12.693773  1752 net.cpp:141] Setting up loss1/classifier_plantvillage
I0403 14:41:12.693802  1752 net.cpp:148] Top shape: 24 38 (912)
I0403 14:41:12.693819  1752 net.cpp:156] Memory required for data: 946192992
I0403 14:41:12.693837  1752 layer_factory.hpp:77] Creating layer loss1/classifier_plantvillage_loss1/classifier_plantvillage_0_split
I0403 14:41:12.693856  1752 net.cpp:91] Creating Layer loss1/classifier_plantvillage_loss1/classifier_plantvillage_0_split
I0403 14:41:12.693871  1752 net.cpp:425] loss1/classifier_plantvillage_loss1/classifier_plantvillage_0_split <- loss1/classifier_plantvillage
I0403 14:41:12.693891  1752 net.cpp:399] loss1/classifier_plantvillage_loss1/classifier_plantvillage_0_split -> loss1/classifier_plantvillage_loss1/classifier_plantvillage_0_split_0
I0403 14:41:12.693912  1752 net.cpp:399] loss1/classifier_plantvillage_loss1/classifier_plantvillage_0_split -> loss1/classifier_plantvillage_loss1/classifier_plantvillage_0_split_1
I0403 14:41:12.693933  1752 net.cpp:399] loss1/classifier_plantvillage_loss1/classifier_plantvillage_0_split -> loss1/classifier_plantvillage_loss1/classifier_plantvillage_0_split_2
I0403 14:41:12.694000  1752 net.cpp:141] Setting up loss1/classifier_plantvillage_loss1/classifier_plantvillage_0_split
I0403 14:41:12.694025  1752 net.cpp:148] Top shape: 24 38 (912)
I0403 14:41:12.694041  1752 net.cpp:148] Top shape: 24 38 (912)
I0403 14:41:12.694056  1752 net.cpp:148] Top shape: 24 38 (912)
I0403 14:41:12.694070  1752 net.cpp:156] Memory required for data: 946203936
I0403 14:41:12.694085  1752 layer_factory.hpp:77] Creating layer inception_4b/1x1
I0403 14:41:12.694108  1752 net.cpp:91] Creating Layer inception_4b/1x1
I0403 14:41:12.694149  1752 net.cpp:425] inception_4b/1x1 <- inception_4a/output_inception_4a/output_0_split_1
I0403 14:41:12.694169  1752 net.cpp:399] inception_4b/1x1 -> inception_4b/1x1
I0403 14:41:12.695888  1752 net.cpp:141] Setting up inception_4b/1x1
I0403 14:41:12.695915  1752 net.cpp:148] Top shape: 24 160 14 14 (752640)
I0403 14:41:12.695931  1752 net.cpp:156] Memory required for data: 949214496
I0403 14:41:12.695950  1752 layer_factory.hpp:77] Creating layer inception_4b/relu_1x1
I0403 14:41:12.695971  1752 net.cpp:91] Creating Layer inception_4b/relu_1x1
I0403 14:41:12.695987  1752 net.cpp:425] inception_4b/relu_1x1 <- inception_4b/1x1
I0403 14:41:12.696004  1752 net.cpp:386] inception_4b/relu_1x1 -> inception_4b/1x1 (in-place)
I0403 14:41:12.696185  1752 net.cpp:141] Setting up inception_4b/relu_1x1
I0403 14:41:12.696216  1752 net.cpp:148] Top shape: 24 160 14 14 (752640)
I0403 14:41:12.696233  1752 net.cpp:156] Memory required for data: 952225056
I0403 14:41:12.696247  1752 layer_factory.hpp:77] Creating layer inception_4b/3x3_reduce
I0403 14:41:12.696270  1752 net.cpp:91] Creating Layer inception_4b/3x3_reduce
I0403 14:41:12.696287  1752 net.cpp:425] inception_4b/3x3_reduce <- inception_4a/output_inception_4a/output_0_split_2
I0403 14:41:12.696308  1752 net.cpp:399] inception_4b/3x3_reduce -> inception_4b/3x3_reduce
I0403 14:41:12.697684  1752 net.cpp:141] Setting up inception_4b/3x3_reduce
I0403 14:41:12.697710  1752 net.cpp:148] Top shape: 24 112 14 14 (526848)
I0403 14:41:12.697726  1752 net.cpp:156] Memory required for data: 954332448
I0403 14:41:12.697743  1752 layer_factory.hpp:77] Creating layer inception_4b/relu_3x3_reduce
I0403 14:41:12.697763  1752 net.cpp:91] Creating Layer inception_4b/relu_3x3_reduce
I0403 14:41:12.697780  1752 net.cpp:425] inception_4b/relu_3x3_reduce <- inception_4b/3x3_reduce
I0403 14:41:12.697798  1752 net.cpp:386] inception_4b/relu_3x3_reduce -> inception_4b/3x3_reduce (in-place)
I0403 14:41:12.698081  1752 net.cpp:141] Setting up inception_4b/relu_3x3_reduce
I0403 14:41:12.698107  1752 net.cpp:148] Top shape: 24 112 14 14 (526848)
I0403 14:41:12.698122  1752 net.cpp:156] Memory required for data: 956439840
I0403 14:41:12.698137  1752 layer_factory.hpp:77] Creating layer inception_4b/3x3
I0403 14:41:12.698158  1752 net.cpp:91] Creating Layer inception_4b/3x3
I0403 14:41:12.698176  1752 net.cpp:425] inception_4b/3x3 <- inception_4b/3x3_reduce
I0403 14:41:12.698197  1752 net.cpp:399] inception_4b/3x3 -> inception_4b/3x3
I0403 14:41:12.701226  1752 net.cpp:141] Setting up inception_4b/3x3
I0403 14:41:12.701257  1752 net.cpp:148] Top shape: 24 224 14 14 (1053696)
I0403 14:41:12.701275  1752 net.cpp:156] Memory required for data: 960654624
I0403 14:41:12.701293  1752 layer_factory.hpp:77] Creating layer inception_4b/relu_3x3
I0403 14:41:12.701311  1752 net.cpp:91] Creating Layer inception_4b/relu_3x3
I0403 14:41:12.701328  1752 net.cpp:425] inception_4b/relu_3x3 <- inception_4b/3x3
I0403 14:41:12.701347  1752 net.cpp:386] inception_4b/relu_3x3 -> inception_4b/3x3 (in-place)
I0403 14:41:12.701529  1752 net.cpp:141] Setting up inception_4b/relu_3x3
I0403 14:41:12.701555  1752 net.cpp:148] Top shape: 24 224 14 14 (1053696)
I0403 14:41:12.701570  1752 net.cpp:156] Memory required for data: 964869408
I0403 14:41:12.701583  1752 layer_factory.hpp:77] Creating layer inception_4b/5x5_reduce
I0403 14:41:12.701606  1752 net.cpp:91] Creating Layer inception_4b/5x5_reduce
I0403 14:41:12.701622  1752 net.cpp:425] inception_4b/5x5_reduce <- inception_4a/output_inception_4a/output_0_split_3
I0403 14:41:12.701647  1752 net.cpp:399] inception_4b/5x5_reduce -> inception_4b/5x5_reduce
I0403 14:41:12.702764  1752 net.cpp:141] Setting up inception_4b/5x5_reduce
I0403 14:41:12.702792  1752 net.cpp:148] Top shape: 24 24 14 14 (112896)
I0403 14:41:12.702807  1752 net.cpp:156] Memory required for data: 965320992
I0403 14:41:12.702826  1752 layer_factory.hpp:77] Creating layer inception_4b/relu_5x5_reduce
I0403 14:41:12.702846  1752 net.cpp:91] Creating Layer inception_4b/relu_5x5_reduce
I0403 14:41:12.702875  1752 net.cpp:425] inception_4b/relu_5x5_reduce <- inception_4b/5x5_reduce
I0403 14:41:12.702894  1752 net.cpp:386] inception_4b/relu_5x5_reduce -> inception_4b/5x5_reduce (in-place)
I0403 14:41:12.703079  1752 net.cpp:141] Setting up inception_4b/relu_5x5_reduce
I0403 14:41:12.703106  1752 net.cpp:148] Top shape: 24 24 14 14 (112896)
I0403 14:41:12.703121  1752 net.cpp:156] Memory required for data: 965772576
I0403 14:41:12.703136  1752 layer_factory.hpp:77] Creating layer inception_4b/5x5
I0403 14:41:12.703155  1752 net.cpp:91] Creating Layer inception_4b/5x5
I0403 14:41:12.703171  1752 net.cpp:425] inception_4b/5x5 <- inception_4b/5x5_reduce
I0403 14:41:12.703192  1752 net.cpp:399] inception_4b/5x5 -> inception_4b/5x5
I0403 14:41:12.704449  1752 net.cpp:141] Setting up inception_4b/5x5
I0403 14:41:12.704478  1752 net.cpp:148] Top shape: 24 64 14 14 (301056)
I0403 14:41:12.704493  1752 net.cpp:156] Memory required for data: 966976800
I0403 14:41:12.704511  1752 layer_factory.hpp:77] Creating layer inception_4b/relu_5x5
I0403 14:41:12.704532  1752 net.cpp:91] Creating Layer inception_4b/relu_5x5
I0403 14:41:12.704550  1752 net.cpp:425] inception_4b/relu_5x5 <- inception_4b/5x5
I0403 14:41:12.704566  1752 net.cpp:386] inception_4b/relu_5x5 -> inception_4b/5x5 (in-place)
I0403 14:41:12.704854  1752 net.cpp:141] Setting up inception_4b/relu_5x5
I0403 14:41:12.704879  1752 net.cpp:148] Top shape: 24 64 14 14 (301056)
I0403 14:41:12.704893  1752 net.cpp:156] Memory required for data: 968181024
I0403 14:41:12.704908  1752 layer_factory.hpp:77] Creating layer inception_4b/pool
I0403 14:41:12.704926  1752 net.cpp:91] Creating Layer inception_4b/pool
I0403 14:41:12.704941  1752 net.cpp:425] inception_4b/pool <- inception_4a/output_inception_4a/output_0_split_4
I0403 14:41:12.704962  1752 net.cpp:399] inception_4b/pool -> inception_4b/pool
I0403 14:41:12.705029  1752 net.cpp:141] Setting up inception_4b/pool
I0403 14:41:12.705054  1752 net.cpp:148] Top shape: 24 512 14 14 (2408448)
I0403 14:41:12.705067  1752 net.cpp:156] Memory required for data: 977814816
I0403 14:41:12.705081  1752 layer_factory.hpp:77] Creating layer inception_4b/pool_proj
I0403 14:41:12.705102  1752 net.cpp:91] Creating Layer inception_4b/pool_proj
I0403 14:41:12.705119  1752 net.cpp:425] inception_4b/pool_proj <- inception_4b/pool
I0403 14:41:12.705138  1752 net.cpp:399] inception_4b/pool_proj -> inception_4b/pool_proj
I0403 14:41:12.706362  1752 net.cpp:141] Setting up inception_4b/pool_proj
I0403 14:41:12.706390  1752 net.cpp:148] Top shape: 24 64 14 14 (301056)
I0403 14:41:12.706406  1752 net.cpp:156] Memory required for data: 979019040
I0403 14:41:12.706425  1752 layer_factory.hpp:77] Creating layer inception_4b/relu_pool_proj
I0403 14:41:12.706446  1752 net.cpp:91] Creating Layer inception_4b/relu_pool_proj
I0403 14:41:12.706462  1752 net.cpp:425] inception_4b/relu_pool_proj <- inception_4b/pool_proj
I0403 14:41:12.706480  1752 net.cpp:386] inception_4b/relu_pool_proj -> inception_4b/pool_proj (in-place)
I0403 14:41:12.706662  1752 net.cpp:141] Setting up inception_4b/relu_pool_proj
I0403 14:41:12.706686  1752 net.cpp:148] Top shape: 24 64 14 14 (301056)
I0403 14:41:12.706701  1752 net.cpp:156] Memory required for data: 980223264
I0403 14:41:12.706715  1752 layer_factory.hpp:77] Creating layer inception_4b/output
I0403 14:41:12.706735  1752 net.cpp:91] Creating Layer inception_4b/output
I0403 14:41:12.706753  1752 net.cpp:425] inception_4b/output <- inception_4b/1x1
I0403 14:41:12.706768  1752 net.cpp:425] inception_4b/output <- inception_4b/3x3
I0403 14:41:12.706784  1752 net.cpp:425] inception_4b/output <- inception_4b/5x5
I0403 14:41:12.706800  1752 net.cpp:425] inception_4b/output <- inception_4b/pool_proj
I0403 14:41:12.706817  1752 net.cpp:399] inception_4b/output -> inception_4b/output
I0403 14:41:12.706866  1752 net.cpp:141] Setting up inception_4b/output
I0403 14:41:12.706888  1752 net.cpp:148] Top shape: 24 512 14 14 (2408448)
I0403 14:41:12.706902  1752 net.cpp:156] Memory required for data: 989857056
I0403 14:41:12.706931  1752 layer_factory.hpp:77] Creating layer inception_4b/output_inception_4b/output_0_split
I0403 14:41:12.706950  1752 net.cpp:91] Creating Layer inception_4b/output_inception_4b/output_0_split
I0403 14:41:12.706965  1752 net.cpp:425] inception_4b/output_inception_4b/output_0_split <- inception_4b/output
I0403 14:41:12.706984  1752 net.cpp:399] inception_4b/output_inception_4b/output_0_split -> inception_4b/output_inception_4b/output_0_split_0
I0403 14:41:12.707005  1752 net.cpp:399] inception_4b/output_inception_4b/output_0_split -> inception_4b/output_inception_4b/output_0_split_1
I0403 14:41:12.707026  1752 net.cpp:399] inception_4b/output_inception_4b/output_0_split -> inception_4b/output_inception_4b/output_0_split_2
I0403 14:41:12.707046  1752 net.cpp:399] inception_4b/output_inception_4b/output_0_split -> inception_4b/output_inception_4b/output_0_split_3
I0403 14:41:12.707132  1752 net.cpp:141] Setting up inception_4b/output_inception_4b/output_0_split
I0403 14:41:12.707159  1752 net.cpp:148] Top shape: 24 512 14 14 (2408448)
I0403 14:41:12.707175  1752 net.cpp:148] Top shape: 24 512 14 14 (2408448)
I0403 14:41:12.707191  1752 net.cpp:148] Top shape: 24 512 14 14 (2408448)
I0403 14:41:12.707206  1752 net.cpp:148] Top shape: 24 512 14 14 (2408448)
I0403 14:41:12.707227  1752 net.cpp:156] Memory required for data: 1028392224
I0403 14:41:12.707242  1752 layer_factory.hpp:77] Creating layer inception_4c/1x1
I0403 14:41:12.707267  1752 net.cpp:91] Creating Layer inception_4c/1x1
I0403 14:41:12.707283  1752 net.cpp:425] inception_4c/1x1 <- inception_4b/output_inception_4b/output_0_split_0
I0403 14:41:12.707305  1752 net.cpp:399] inception_4c/1x1 -> inception_4c/1x1
I0403 14:41:12.708794  1752 net.cpp:141] Setting up inception_4c/1x1
I0403 14:41:12.708822  1752 net.cpp:148] Top shape: 24 128 14 14 (602112)
I0403 14:41:12.708838  1752 net.cpp:156] Memory required for data: 1030800672
I0403 14:41:12.708856  1752 layer_factory.hpp:77] Creating layer inception_4c/relu_1x1
I0403 14:41:12.708878  1752 net.cpp:91] Creating Layer inception_4c/relu_1x1
I0403 14:41:12.708894  1752 net.cpp:425] inception_4c/relu_1x1 <- inception_4c/1x1
I0403 14:41:12.708912  1752 net.cpp:386] inception_4c/relu_1x1 -> inception_4c/1x1 (in-place)
I0403 14:41:12.709097  1752 net.cpp:141] Setting up inception_4c/relu_1x1
I0403 14:41:12.709121  1752 net.cpp:148] Top shape: 24 128 14 14 (602112)
I0403 14:41:12.709138  1752 net.cpp:156] Memory required for data: 1033209120
I0403 14:41:12.709156  1752 layer_factory.hpp:77] Creating layer inception_4c/3x3_reduce
I0403 14:41:12.709178  1752 net.cpp:91] Creating Layer inception_4c/3x3_reduce
I0403 14:41:12.709197  1752 net.cpp:425] inception_4c/3x3_reduce <- inception_4b/output_inception_4b/output_0_split_1
I0403 14:41:12.709238  1752 net.cpp:399] inception_4c/3x3_reduce -> inception_4c/3x3_reduce
I0403 14:41:12.711221  1752 net.cpp:141] Setting up inception_4c/3x3_reduce
I0403 14:41:12.711251  1752 net.cpp:148] Top shape: 24 128 14 14 (602112)
I0403 14:41:12.711269  1752 net.cpp:156] Memory required for data: 1035617568
I0403 14:41:12.711287  1752 layer_factory.hpp:77] Creating layer inception_4c/relu_3x3_reduce
I0403 14:41:12.711305  1752 net.cpp:91] Creating Layer inception_4c/relu_3x3_reduce
I0403 14:41:12.711323  1752 net.cpp:425] inception_4c/relu_3x3_reduce <- inception_4c/3x3_reduce
I0403 14:41:12.711343  1752 net.cpp:386] inception_4c/relu_3x3_reduce -> inception_4c/3x3_reduce (in-place)
I0403 14:41:12.711632  1752 net.cpp:141] Setting up inception_4c/relu_3x3_reduce
I0403 14:41:12.711658  1752 net.cpp:148] Top shape: 24 128 14 14 (602112)
I0403 14:41:12.711673  1752 net.cpp:156] Memory required for data: 1038026016
I0403 14:41:12.711688  1752 layer_factory.hpp:77] Creating layer inception_4c/3x3
I0403 14:41:12.711710  1752 net.cpp:91] Creating Layer inception_4c/3x3
I0403 14:41:12.711729  1752 net.cpp:425] inception_4c/3x3 <- inception_4c/3x3_reduce
I0403 14:41:12.711750  1752 net.cpp:399] inception_4c/3x3 -> inception_4c/3x3
I0403 14:41:12.715380  1752 net.cpp:141] Setting up inception_4c/3x3
I0403 14:41:12.715423  1752 net.cpp:148] Top shape: 24 256 14 14 (1204224)
I0403 14:41:12.715443  1752 net.cpp:156] Memory required for data: 1042842912
I0403 14:41:12.715476  1752 layer_factory.hpp:77] Creating layer inception_4c/relu_3x3
I0403 14:41:12.715498  1752 net.cpp:91] Creating Layer inception_4c/relu_3x3
I0403 14:41:12.715517  1752 net.cpp:425] inception_4c/relu_3x3 <- inception_4c/3x3
I0403 14:41:12.715535  1752 net.cpp:386] inception_4c/relu_3x3 -> inception_4c/3x3 (in-place)
I0403 14:41:12.715721  1752 net.cpp:141] Setting up inception_4c/relu_3x3
I0403 14:41:12.715747  1752 net.cpp:148] Top shape: 24 256 14 14 (1204224)
I0403 14:41:12.715764  1752 net.cpp:156] Memory required for data: 1047659808
I0403 14:41:12.715780  1752 layer_factory.hpp:77] Creating layer inception_4c/5x5_reduce
I0403 14:41:12.715802  1752 net.cpp:91] Creating Layer inception_4c/5x5_reduce
I0403 14:41:12.715822  1752 net.cpp:425] inception_4c/5x5_reduce <- inception_4b/output_inception_4b/output_0_split_2
I0403 14:41:12.715844  1752 net.cpp:399] inception_4c/5x5_reduce -> inception_4c/5x5_reduce
I0403 14:41:12.716953  1752 net.cpp:141] Setting up inception_4c/5x5_reduce
I0403 14:41:12.716980  1752 net.cpp:148] Top shape: 24 24 14 14 (112896)
I0403 14:41:12.716996  1752 net.cpp:156] Memory required for data: 1048111392
I0403 14:41:12.717015  1752 layer_factory.hpp:77] Creating layer inception_4c/relu_5x5_reduce
I0403 14:41:12.717036  1752 net.cpp:91] Creating Layer inception_4c/relu_5x5_reduce
I0403 14:41:12.717052  1752 net.cpp:425] inception_4c/relu_5x5_reduce <- inception_4c/5x5_reduce
I0403 14:41:12.717069  1752 net.cpp:386] inception_4c/relu_5x5_reduce -> inception_4c/5x5_reduce (in-place)
I0403 14:41:12.717263  1752 net.cpp:141] Setting up inception_4c/relu_5x5_reduce
I0403 14:41:12.717288  1752 net.cpp:148] Top shape: 24 24 14 14 (112896)
I0403 14:41:12.717306  1752 net.cpp:156] Memory required for data: 1048562976
I0403 14:41:12.717321  1752 layer_factory.hpp:77] Creating layer inception_4c/5x5
I0403 14:41:12.717341  1752 net.cpp:91] Creating Layer inception_4c/5x5
I0403 14:41:12.717358  1752 net.cpp:425] inception_4c/5x5 <- inception_4c/5x5_reduce
I0403 14:41:12.717380  1752 net.cpp:399] inception_4c/5x5 -> inception_4c/5x5
I0403 14:41:12.718650  1752 net.cpp:141] Setting up inception_4c/5x5
I0403 14:41:12.718679  1752 net.cpp:148] Top shape: 24 64 14 14 (301056)
I0403 14:41:12.718695  1752 net.cpp:156] Memory required for data: 1049767200
I0403 14:41:12.718715  1752 layer_factory.hpp:77] Creating layer inception_4c/relu_5x5
I0403 14:41:12.718736  1752 net.cpp:91] Creating Layer inception_4c/relu_5x5
I0403 14:41:12.718754  1752 net.cpp:425] inception_4c/relu_5x5 <- inception_4c/5x5
I0403 14:41:12.718770  1752 net.cpp:386] inception_4c/relu_5x5 -> inception_4c/5x5 (in-place)
I0403 14:41:12.719063  1752 net.cpp:141] Setting up inception_4c/relu_5x5
I0403 14:41:12.719089  1752 net.cpp:148] Top shape: 24 64 14 14 (301056)
I0403 14:41:12.719106  1752 net.cpp:156] Memory required for data: 1050971424
I0403 14:41:12.719122  1752 layer_factory.hpp:77] Creating layer inception_4c/pool
I0403 14:41:12.719142  1752 net.cpp:91] Creating Layer inception_4c/pool
I0403 14:41:12.719161  1752 net.cpp:425] inception_4c/pool <- inception_4b/output_inception_4b/output_0_split_3
I0403 14:41:12.719180  1752 net.cpp:399] inception_4c/pool -> inception_4c/pool
I0403 14:41:12.719254  1752 net.cpp:141] Setting up inception_4c/pool
I0403 14:41:12.719279  1752 net.cpp:148] Top shape: 24 512 14 14 (2408448)
I0403 14:41:12.719293  1752 net.cpp:156] Memory required for data: 1060605216
I0403 14:41:12.719307  1752 layer_factory.hpp:77] Creating layer inception_4c/pool_proj
I0403 14:41:12.719329  1752 net.cpp:91] Creating Layer inception_4c/pool_proj
I0403 14:41:12.719347  1752 net.cpp:425] inception_4c/pool_proj <- inception_4c/pool
I0403 14:41:12.719367  1752 net.cpp:399] inception_4c/pool_proj -> inception_4c/pool_proj
I0403 14:41:12.720612  1752 net.cpp:141] Setting up inception_4c/pool_proj
I0403 14:41:12.720641  1752 net.cpp:148] Top shape: 24 64 14 14 (301056)
I0403 14:41:12.720671  1752 net.cpp:156] Memory required for data: 1061809440
I0403 14:41:12.720690  1752 layer_factory.hpp:77] Creating layer inception_4c/relu_pool_proj
I0403 14:41:12.720711  1752 net.cpp:91] Creating Layer inception_4c/relu_pool_proj
I0403 14:41:12.720729  1752 net.cpp:425] inception_4c/relu_pool_proj <- inception_4c/pool_proj
I0403 14:41:12.720747  1752 net.cpp:386] inception_4c/relu_pool_proj -> inception_4c/pool_proj (in-place)
I0403 14:41:12.720933  1752 net.cpp:141] Setting up inception_4c/relu_pool_proj
I0403 14:41:12.720960  1752 net.cpp:148] Top shape: 24 64 14 14 (301056)
I0403 14:41:12.720976  1752 net.cpp:156] Memory required for data: 1063013664
I0403 14:41:12.720993  1752 layer_factory.hpp:77] Creating layer inception_4c/output
I0403 14:41:12.721012  1752 net.cpp:91] Creating Layer inception_4c/output
I0403 14:41:12.721029  1752 net.cpp:425] inception_4c/output <- inception_4c/1x1
I0403 14:41:12.721047  1752 net.cpp:425] inception_4c/output <- inception_4c/3x3
I0403 14:41:12.721063  1752 net.cpp:425] inception_4c/output <- inception_4c/5x5
I0403 14:41:12.721081  1752 net.cpp:425] inception_4c/output <- inception_4c/pool_proj
I0403 14:41:12.721098  1752 net.cpp:399] inception_4c/output -> inception_4c/output
I0403 14:41:12.721146  1752 net.cpp:141] Setting up inception_4c/output
I0403 14:41:12.721170  1752 net.cpp:148] Top shape: 24 512 14 14 (2408448)
I0403 14:41:12.721185  1752 net.cpp:156] Memory required for data: 1072647456
I0403 14:41:12.721200  1752 layer_factory.hpp:77] Creating layer inception_4c/output_inception_4c/output_0_split
I0403 14:41:12.721225  1752 net.cpp:91] Creating Layer inception_4c/output_inception_4c/output_0_split
I0403 14:41:12.721241  1752 net.cpp:425] inception_4c/output_inception_4c/output_0_split <- inception_4c/output
I0403 14:41:12.721261  1752 net.cpp:399] inception_4c/output_inception_4c/output_0_split -> inception_4c/output_inception_4c/output_0_split_0
I0403 14:41:12.721282  1752 net.cpp:399] inception_4c/output_inception_4c/output_0_split -> inception_4c/output_inception_4c/output_0_split_1
I0403 14:41:12.721302  1752 net.cpp:399] inception_4c/output_inception_4c/output_0_split -> inception_4c/output_inception_4c/output_0_split_2
I0403 14:41:12.721323  1752 net.cpp:399] inception_4c/output_inception_4c/output_0_split -> inception_4c/output_inception_4c/output_0_split_3
I0403 14:41:12.721412  1752 net.cpp:141] Setting up inception_4c/output_inception_4c/output_0_split
I0403 14:41:12.721437  1752 net.cpp:148] Top shape: 24 512 14 14 (2408448)
I0403 14:41:12.721456  1752 net.cpp:148] Top shape: 24 512 14 14 (2408448)
I0403 14:41:12.721470  1752 net.cpp:148] Top shape: 24 512 14 14 (2408448)
I0403 14:41:12.721485  1752 net.cpp:148] Top shape: 24 512 14 14 (2408448)
I0403 14:41:12.721498  1752 net.cpp:156] Memory required for data: 1111182624
I0403 14:41:12.721513  1752 layer_factory.hpp:77] Creating layer inception_4d/1x1
I0403 14:41:12.721535  1752 net.cpp:91] Creating Layer inception_4d/1x1
I0403 14:41:12.721552  1752 net.cpp:425] inception_4d/1x1 <- inception_4c/output_inception_4c/output_0_split_0
I0403 14:41:12.721570  1752 net.cpp:399] inception_4d/1x1 -> inception_4d/1x1
I0403 14:41:12.723042  1752 net.cpp:141] Setting up inception_4d/1x1
I0403 14:41:12.723074  1752 net.cpp:148] Top shape: 24 112 14 14 (526848)
I0403 14:41:12.723091  1752 net.cpp:156] Memory required for data: 1113290016
I0403 14:41:12.723111  1752 layer_factory.hpp:77] Creating layer inception_4d/relu_1x1
I0403 14:41:12.723131  1752 net.cpp:91] Creating Layer inception_4d/relu_1x1
I0403 14:41:12.723147  1752 net.cpp:425] inception_4d/relu_1x1 <- inception_4d/1x1
I0403 14:41:12.723166  1752 net.cpp:386] inception_4d/relu_1x1 -> inception_4d/1x1 (in-place)
I0403 14:41:12.723363  1752 net.cpp:141] Setting up inception_4d/relu_1x1
I0403 14:41:12.723388  1752 net.cpp:148] Top shape: 24 112 14 14 (526848)
I0403 14:41:12.723403  1752 net.cpp:156] Memory required for data: 1115397408
I0403 14:41:12.723418  1752 layer_factory.hpp:77] Creating layer inception_4d/3x3_reduce
I0403 14:41:12.723453  1752 net.cpp:91] Creating Layer inception_4d/3x3_reduce
I0403 14:41:12.723472  1752 net.cpp:425] inception_4d/3x3_reduce <- inception_4c/output_inception_4c/output_0_split_1
I0403 14:41:12.723495  1752 net.cpp:399] inception_4d/3x3_reduce -> inception_4d/3x3_reduce
I0403 14:41:12.725028  1752 net.cpp:141] Setting up inception_4d/3x3_reduce
I0403 14:41:12.725059  1752 net.cpp:148] Top shape: 24 144 14 14 (677376)
I0403 14:41:12.725076  1752 net.cpp:156] Memory required for data: 1118106912
I0403 14:41:12.725095  1752 layer_factory.hpp:77] Creating layer inception_4d/relu_3x3_reduce
I0403 14:41:12.725114  1752 net.cpp:91] Creating Layer inception_4d/relu_3x3_reduce
I0403 14:41:12.725131  1752 net.cpp:425] inception_4d/relu_3x3_reduce <- inception_4d/3x3_reduce
I0403 14:41:12.725148  1752 net.cpp:386] inception_4d/relu_3x3_reduce -> inception_4d/3x3_reduce (in-place)
I0403 14:41:12.725471  1752 net.cpp:141] Setting up inception_4d/relu_3x3_reduce
I0403 14:41:12.725499  1752 net.cpp:148] Top shape: 24 144 14 14 (677376)
I0403 14:41:12.725515  1752 net.cpp:156] Memory required for data: 1120816416
I0403 14:41:12.725531  1752 layer_factory.hpp:77] Creating layer inception_4d/3x3
I0403 14:41:12.725553  1752 net.cpp:91] Creating Layer inception_4d/3x3
I0403 14:41:12.725571  1752 net.cpp:425] inception_4d/3x3 <- inception_4d/3x3_reduce
I0403 14:41:12.725591  1752 net.cpp:399] inception_4d/3x3 -> inception_4d/3x3
I0403 14:41:12.730017  1752 net.cpp:141] Setting up inception_4d/3x3
I0403 14:41:12.730047  1752 net.cpp:148] Top shape: 24 288 14 14 (1354752)
I0403 14:41:12.730064  1752 net.cpp:156] Memory required for data: 1126235424
I0403 14:41:12.730082  1752 layer_factory.hpp:77] Creating layer inception_4d/relu_3x3
I0403 14:41:12.730101  1752 net.cpp:91] Creating Layer inception_4d/relu_3x3
I0403 14:41:12.730118  1752 net.cpp:425] inception_4d/relu_3x3 <- inception_4d/3x3
I0403 14:41:12.730136  1752 net.cpp:386] inception_4d/relu_3x3 -> inception_4d/3x3 (in-place)
I0403 14:41:12.730330  1752 net.cpp:141] Setting up inception_4d/relu_3x3
I0403 14:41:12.730355  1752 net.cpp:148] Top shape: 24 288 14 14 (1354752)
I0403 14:41:12.730371  1752 net.cpp:156] Memory required for data: 1131654432
I0403 14:41:12.730386  1752 layer_factory.hpp:77] Creating layer inception_4d/5x5_reduce
I0403 14:41:12.730408  1752 net.cpp:91] Creating Layer inception_4d/5x5_reduce
I0403 14:41:12.730425  1752 net.cpp:425] inception_4d/5x5_reduce <- inception_4c/output_inception_4c/output_0_split_2
I0403 14:41:12.730446  1752 net.cpp:399] inception_4d/5x5_reduce -> inception_4d/5x5_reduce
I0403 14:41:12.731621  1752 net.cpp:141] Setting up inception_4d/5x5_reduce
I0403 14:41:12.731652  1752 net.cpp:148] Top shape: 24 32 14 14 (150528)
I0403 14:41:12.731668  1752 net.cpp:156] Memory required for data: 1132256544
I0403 14:41:12.731688  1752 layer_factory.hpp:77] Creating layer inception_4d/relu_5x5_reduce
I0403 14:41:12.731705  1752 net.cpp:91] Creating Layer inception_4d/relu_5x5_reduce
I0403 14:41:12.731720  1752 net.cpp:425] inception_4d/relu_5x5_reduce <- inception_4d/5x5_reduce
I0403 14:41:12.731740  1752 net.cpp:386] inception_4d/relu_5x5_reduce -> inception_4d/5x5_reduce (in-place)
I0403 14:41:12.731930  1752 net.cpp:141] Setting up inception_4d/relu_5x5_reduce
I0403 14:41:12.731955  1752 net.cpp:148] Top shape: 24 32 14 14 (150528)
I0403 14:41:12.731968  1752 net.cpp:156] Memory required for data: 1132858656
I0403 14:41:12.731983  1752 layer_factory.hpp:77] Creating layer inception_4d/5x5
I0403 14:41:12.732005  1752 net.cpp:91] Creating Layer inception_4d/5x5
I0403 14:41:12.732023  1752 net.cpp:425] inception_4d/5x5 <- inception_4d/5x5_reduce
I0403 14:41:12.732044  1752 net.cpp:399] inception_4d/5x5 -> inception_4d/5x5
I0403 14:41:12.733567  1752 net.cpp:141] Setting up inception_4d/5x5
I0403 14:41:12.733595  1752 net.cpp:148] Top shape: 24 64 14 14 (301056)
I0403 14:41:12.733610  1752 net.cpp:156] Memory required for data: 1134062880
I0403 14:41:12.733630  1752 layer_factory.hpp:77] Creating layer inception_4d/relu_5x5
I0403 14:41:12.733666  1752 net.cpp:91] Creating Layer inception_4d/relu_5x5
I0403 14:41:12.733685  1752 net.cpp:425] inception_4d/relu_5x5 <- inception_4d/5x5
I0403 14:41:12.733702  1752 net.cpp:386] inception_4d/relu_5x5 -> inception_4d/5x5 (in-place)
I0403 14:41:12.734006  1752 net.cpp:141] Setting up inception_4d/relu_5x5
I0403 14:41:12.734033  1752 net.cpp:148] Top shape: 24 64 14 14 (301056)
I0403 14:41:12.734048  1752 net.cpp:156] Memory required for data: 1135267104
I0403 14:41:12.734063  1752 layer_factory.hpp:77] Creating layer inception_4d/pool
I0403 14:41:12.734083  1752 net.cpp:91] Creating Layer inception_4d/pool
I0403 14:41:12.734100  1752 net.cpp:425] inception_4d/pool <- inception_4c/output_inception_4c/output_0_split_3
I0403 14:41:12.734119  1752 net.cpp:399] inception_4d/pool -> inception_4d/pool
I0403 14:41:12.734189  1752 net.cpp:141] Setting up inception_4d/pool
I0403 14:41:12.734220  1752 net.cpp:148] Top shape: 24 512 14 14 (2408448)
I0403 14:41:12.734236  1752 net.cpp:156] Memory required for data: 1144900896
I0403 14:41:12.734251  1752 layer_factory.hpp:77] Creating layer inception_4d/pool_proj
I0403 14:41:12.734273  1752 net.cpp:91] Creating Layer inception_4d/pool_proj
I0403 14:41:12.734292  1752 net.cpp:425] inception_4d/pool_proj <- inception_4d/pool
I0403 14:41:12.734313  1752 net.cpp:399] inception_4d/pool_proj -> inception_4d/pool_proj
I0403 14:41:12.736098  1752 net.cpp:141] Setting up inception_4d/pool_proj
I0403 14:41:12.736129  1752 net.cpp:148] Top shape: 24 64 14 14 (301056)
I0403 14:41:12.736143  1752 net.cpp:156] Memory required for data: 1146105120
I0403 14:41:12.736162  1752 layer_factory.hpp:77] Creating layer inception_4d/relu_pool_proj
I0403 14:41:12.736181  1752 net.cpp:91] Creating Layer inception_4d/relu_pool_proj
I0403 14:41:12.736197  1752 net.cpp:425] inception_4d/relu_pool_proj <- inception_4d/pool_proj
I0403 14:41:12.736223  1752 net.cpp:386] inception_4d/relu_pool_proj -> inception_4d/pool_proj (in-place)
I0403 14:41:12.736415  1752 net.cpp:141] Setting up inception_4d/relu_pool_proj
I0403 14:41:12.736441  1752 net.cpp:148] Top shape: 24 64 14 14 (301056)
I0403 14:41:12.736455  1752 net.cpp:156] Memory required for data: 1147309344
I0403 14:41:12.736471  1752 layer_factory.hpp:77] Creating layer inception_4d/output
I0403 14:41:12.736490  1752 net.cpp:91] Creating Layer inception_4d/output
I0403 14:41:12.736507  1752 net.cpp:425] inception_4d/output <- inception_4d/1x1
I0403 14:41:12.736524  1752 net.cpp:425] inception_4d/output <- inception_4d/3x3
I0403 14:41:12.736541  1752 net.cpp:425] inception_4d/output <- inception_4d/5x5
I0403 14:41:12.736555  1752 net.cpp:425] inception_4d/output <- inception_4d/pool_proj
I0403 14:41:12.736584  1752 net.cpp:399] inception_4d/output -> inception_4d/output
I0403 14:41:12.736629  1752 net.cpp:141] Setting up inception_4d/output
I0403 14:41:12.736654  1752 net.cpp:148] Top shape: 24 528 14 14 (2483712)
I0403 14:41:12.736668  1752 net.cpp:156] Memory required for data: 1157244192
I0403 14:41:12.736682  1752 layer_factory.hpp:77] Creating layer inception_4d/output_inception_4d/output_0_split
I0403 14:41:12.736699  1752 net.cpp:91] Creating Layer inception_4d/output_inception_4d/output_0_split
I0403 14:41:12.736714  1752 net.cpp:425] inception_4d/output_inception_4d/output_0_split <- inception_4d/output
I0403 14:41:12.736733  1752 net.cpp:399] inception_4d/output_inception_4d/output_0_split -> inception_4d/output_inception_4d/output_0_split_0
I0403 14:41:12.736754  1752 net.cpp:399] inception_4d/output_inception_4d/output_0_split -> inception_4d/output_inception_4d/output_0_split_1
I0403 14:41:12.736774  1752 net.cpp:399] inception_4d/output_inception_4d/output_0_split -> inception_4d/output_inception_4d/output_0_split_2
I0403 14:41:12.736794  1752 net.cpp:399] inception_4d/output_inception_4d/output_0_split -> inception_4d/output_inception_4d/output_0_split_3
I0403 14:41:12.736814  1752 net.cpp:399] inception_4d/output_inception_4d/output_0_split -> inception_4d/output_inception_4d/output_0_split_4
I0403 14:41:12.736917  1752 net.cpp:141] Setting up inception_4d/output_inception_4d/output_0_split
I0403 14:41:12.736950  1752 net.cpp:148] Top shape: 24 528 14 14 (2483712)
I0403 14:41:12.736969  1752 net.cpp:148] Top shape: 24 528 14 14 (2483712)
I0403 14:41:12.736985  1752 net.cpp:148] Top shape: 24 528 14 14 (2483712)
I0403 14:41:12.737000  1752 net.cpp:148] Top shape: 24 528 14 14 (2483712)
I0403 14:41:12.737016  1752 net.cpp:148] Top shape: 24 528 14 14 (2483712)
I0403 14:41:12.737030  1752 net.cpp:156] Memory required for data: 1206918432
I0403 14:41:12.737043  1752 layer_factory.hpp:77] Creating layer loss2/ave_pool
I0403 14:41:12.737061  1752 net.cpp:91] Creating Layer loss2/ave_pool
I0403 14:41:12.737076  1752 net.cpp:425] loss2/ave_pool <- inception_4d/output_inception_4d/output_0_split_0
I0403 14:41:12.737097  1752 net.cpp:399] loss2/ave_pool -> loss2/ave_pool
I0403 14:41:12.737417  1752 net.cpp:141] Setting up loss2/ave_pool
I0403 14:41:12.737443  1752 net.cpp:148] Top shape: 24 528 4 4 (202752)
I0403 14:41:12.737458  1752 net.cpp:156] Memory required for data: 1207729440
I0403 14:41:12.737473  1752 layer_factory.hpp:77] Creating layer loss2/conv
I0403 14:41:12.737496  1752 net.cpp:91] Creating Layer loss2/conv
I0403 14:41:12.737514  1752 net.cpp:425] loss2/conv <- loss2/ave_pool
I0403 14:41:12.737535  1752 net.cpp:399] loss2/conv -> loss2/conv
I0403 14:41:12.739454  1752 net.cpp:141] Setting up loss2/conv
I0403 14:41:12.739483  1752 net.cpp:148] Top shape: 24 128 4 4 (49152)
I0403 14:41:12.739500  1752 net.cpp:156] Memory required for data: 1207926048
I0403 14:41:12.739521  1752 layer_factory.hpp:77] Creating layer loss2/relu_conv
I0403 14:41:12.739542  1752 net.cpp:91] Creating Layer loss2/relu_conv
I0403 14:41:12.739559  1752 net.cpp:425] loss2/relu_conv <- loss2/conv
I0403 14:41:12.739578  1752 net.cpp:386] loss2/relu_conv -> loss2/conv (in-place)
I0403 14:41:12.739876  1752 net.cpp:141] Setting up loss2/relu_conv
I0403 14:41:12.739902  1752 net.cpp:148] Top shape: 24 128 4 4 (49152)
I0403 14:41:12.739917  1752 net.cpp:156] Memory required for data: 1208122656
I0403 14:41:12.739931  1752 layer_factory.hpp:77] Creating layer loss2/fc
I0403 14:41:12.739953  1752 net.cpp:91] Creating Layer loss2/fc
I0403 14:41:12.739969  1752 net.cpp:425] loss2/fc <- loss2/conv
I0403 14:41:12.739987  1752 net.cpp:399] loss2/fc -> loss2/fc
I0403 14:41:12.757557  1752 net.cpp:141] Setting up loss2/fc
I0403 14:41:12.757616  1752 net.cpp:148] Top shape: 24 1024 (24576)
I0403 14:41:12.757632  1752 net.cpp:156] Memory required for data: 1208220960
I0403 14:41:12.757649  1752 layer_factory.hpp:77] Creating layer loss2/relu_fc
I0403 14:41:12.757668  1752 net.cpp:91] Creating Layer loss2/relu_fc
I0403 14:41:12.757686  1752 net.cpp:425] loss2/relu_fc <- loss2/fc
I0403 14:41:12.757707  1752 net.cpp:386] loss2/relu_fc -> loss2/fc (in-place)
I0403 14:41:12.758046  1752 net.cpp:141] Setting up loss2/relu_fc
I0403 14:41:12.758072  1752 net.cpp:148] Top shape: 24 1024 (24576)
I0403 14:41:12.758087  1752 net.cpp:156] Memory required for data: 1208319264
I0403 14:41:12.758102  1752 layer_factory.hpp:77] Creating layer loss2/drop_fc
I0403 14:41:12.758121  1752 net.cpp:91] Creating Layer loss2/drop_fc
I0403 14:41:12.758136  1752 net.cpp:425] loss2/drop_fc <- loss2/fc
I0403 14:41:12.758155  1752 net.cpp:386] loss2/drop_fc -> loss2/fc (in-place)
I0403 14:41:12.758222  1752 net.cpp:141] Setting up loss2/drop_fc
I0403 14:41:12.758249  1752 net.cpp:148] Top shape: 24 1024 (24576)
I0403 14:41:12.758268  1752 net.cpp:156] Memory required for data: 1208417568
I0403 14:41:12.758282  1752 layer_factory.hpp:77] Creating layer loss2/classifier_plantvillage
I0403 14:41:12.758301  1752 net.cpp:91] Creating Layer loss2/classifier_plantvillage
I0403 14:41:12.758316  1752 net.cpp:425] loss2/classifier_plantvillage <- loss2/fc
I0403 14:41:12.758338  1752 net.cpp:399] loss2/classifier_plantvillage -> loss2/classifier_plantvillage
I0403 14:41:12.758759  1752 net.cpp:141] Setting up loss2/classifier_plantvillage
I0403 14:41:12.758785  1752 net.cpp:148] Top shape: 24 38 (912)
I0403 14:41:12.758822  1752 net.cpp:156] Memory required for data: 1208421216
I0403 14:41:12.758841  1752 layer_factory.hpp:77] Creating layer loss2/classifier_plantvillage_loss2/classifier_plantvillage_0_split
I0403 14:41:12.758858  1752 net.cpp:91] Creating Layer loss2/classifier_plantvillage_loss2/classifier_plantvillage_0_split
I0403 14:41:12.758873  1752 net.cpp:425] loss2/classifier_plantvillage_loss2/classifier_plantvillage_0_split <- loss2/classifier_plantvillage
I0403 14:41:12.758890  1752 net.cpp:399] loss2/classifier_plantvillage_loss2/classifier_plantvillage_0_split -> loss2/classifier_plantvillage_loss2/classifier_plantvillage_0_split_0
I0403 14:41:12.758911  1752 net.cpp:399] loss2/classifier_plantvillage_loss2/classifier_plantvillage_0_split -> loss2/classifier_plantvillage_loss2/classifier_plantvillage_0_split_1
I0403 14:41:12.758931  1752 net.cpp:399] loss2/classifier_plantvillage_loss2/classifier_plantvillage_0_split -> loss2/classifier_plantvillage_loss2/classifier_plantvillage_0_split_2
I0403 14:41:12.759006  1752 net.cpp:141] Setting up loss2/classifier_plantvillage_loss2/classifier_plantvillage_0_split
I0403 14:41:12.759028  1752 net.cpp:148] Top shape: 24 38 (912)
I0403 14:41:12.759044  1752 net.cpp:148] Top shape: 24 38 (912)
I0403 14:41:12.759059  1752 net.cpp:148] Top shape: 24 38 (912)
I0403 14:41:12.759073  1752 net.cpp:156] Memory required for data: 1208432160
I0403 14:41:12.759088  1752 layer_factory.hpp:77] Creating layer inception_4e/1x1
I0403 14:41:12.759106  1752 net.cpp:91] Creating Layer inception_4e/1x1
I0403 14:41:12.759124  1752 net.cpp:425] inception_4e/1x1 <- inception_4d/output_inception_4d/output_0_split_1
I0403 14:41:12.759143  1752 net.cpp:399] inception_4e/1x1 -> inception_4e/1x1
I0403 14:41:12.761019  1752 net.cpp:141] Setting up inception_4e/1x1
I0403 14:41:12.761047  1752 net.cpp:148] Top shape: 24 256 14 14 (1204224)
I0403 14:41:12.761064  1752 net.cpp:156] Memory required for data: 1213249056
I0403 14:41:12.761082  1752 layer_factory.hpp:77] Creating layer inception_4e/relu_1x1
I0403 14:41:12.761102  1752 net.cpp:91] Creating Layer inception_4e/relu_1x1
I0403 14:41:12.761118  1752 net.cpp:425] inception_4e/relu_1x1 <- inception_4e/1x1
I0403 14:41:12.761134  1752 net.cpp:386] inception_4e/relu_1x1 -> inception_4e/1x1 (in-place)
I0403 14:41:12.761442  1752 net.cpp:141] Setting up inception_4e/relu_1x1
I0403 14:41:12.761471  1752 net.cpp:148] Top shape: 24 256 14 14 (1204224)
I0403 14:41:12.761487  1752 net.cpp:156] Memory required for data: 1218065952
I0403 14:41:12.761502  1752 layer_factory.hpp:77] Creating layer inception_4e/3x3_reduce
I0403 14:41:12.761523  1752 net.cpp:91] Creating Layer inception_4e/3x3_reduce
I0403 14:41:12.761543  1752 net.cpp:425] inception_4e/3x3_reduce <- inception_4d/output_inception_4d/output_0_split_2
I0403 14:41:12.761561  1752 net.cpp:399] inception_4e/3x3_reduce -> inception_4e/3x3_reduce
I0403 14:41:12.763736  1752 net.cpp:141] Setting up inception_4e/3x3_reduce
I0403 14:41:12.763766  1752 net.cpp:148] Top shape: 24 160 14 14 (752640)
I0403 14:41:12.763782  1752 net.cpp:156] Memory required for data: 1221076512
I0403 14:41:12.763802  1752 layer_factory.hpp:77] Creating layer inception_4e/relu_3x3_reduce
I0403 14:41:12.763823  1752 net.cpp:91] Creating Layer inception_4e/relu_3x3_reduce
I0403 14:41:12.763839  1752 net.cpp:425] inception_4e/relu_3x3_reduce <- inception_4e/3x3_reduce
I0403 14:41:12.763856  1752 net.cpp:386] inception_4e/relu_3x3_reduce -> inception_4e/3x3_reduce (in-place)
I0403 14:41:12.764047  1752 net.cpp:141] Setting up inception_4e/relu_3x3_reduce
I0403 14:41:12.764072  1752 net.cpp:148] Top shape: 24 160 14 14 (752640)
I0403 14:41:12.764086  1752 net.cpp:156] Memory required for data: 1224087072
I0403 14:41:12.764102  1752 layer_factory.hpp:77] Creating layer inception_4e/3x3
I0403 14:41:12.764125  1752 net.cpp:91] Creating Layer inception_4e/3x3
I0403 14:41:12.764142  1752 net.cpp:425] inception_4e/3x3 <- inception_4e/3x3_reduce
I0403 14:41:12.764161  1752 net.cpp:399] inception_4e/3x3 -> inception_4e/3x3
I0403 14:41:12.769166  1752 net.cpp:141] Setting up inception_4e/3x3
I0403 14:41:12.769215  1752 net.cpp:148] Top shape: 24 320 14 14 (1505280)
I0403 14:41:12.769234  1752 net.cpp:156] Memory required for data: 1230108192
I0403 14:41:12.769255  1752 layer_factory.hpp:77] Creating layer inception_4e/relu_3x3
I0403 14:41:12.769273  1752 net.cpp:91] Creating Layer inception_4e/relu_3x3
I0403 14:41:12.769290  1752 net.cpp:425] inception_4e/relu_3x3 <- inception_4e/3x3
I0403 14:41:12.769309  1752 net.cpp:386] inception_4e/relu_3x3 -> inception_4e/3x3 (in-place)
I0403 14:41:12.769613  1752 net.cpp:141] Setting up inception_4e/relu_3x3
I0403 14:41:12.769640  1752 net.cpp:148] Top shape: 24 320 14 14 (1505280)
I0403 14:41:12.769656  1752 net.cpp:156] Memory required for data: 1236129312
I0403 14:41:12.769671  1752 layer_factory.hpp:77] Creating layer inception_4e/5x5_reduce
I0403 14:41:12.769706  1752 net.cpp:91] Creating Layer inception_4e/5x5_reduce
I0403 14:41:12.769724  1752 net.cpp:425] inception_4e/5x5_reduce <- inception_4d/output_inception_4d/output_0_split_3
I0403 14:41:12.769747  1752 net.cpp:399] inception_4e/5x5_reduce -> inception_4e/5x5_reduce
I0403 14:41:12.770840  1752 net.cpp:141] Setting up inception_4e/5x5_reduce
I0403 14:41:12.770867  1752 net.cpp:148] Top shape: 24 32 14 14 (150528)
I0403 14:41:12.770882  1752 net.cpp:156] Memory required for data: 1236731424
I0403 14:41:12.770900  1752 layer_factory.hpp:77] Creating layer inception_4e/relu_5x5_reduce
I0403 14:41:12.770918  1752 net.cpp:91] Creating Layer inception_4e/relu_5x5_reduce
I0403 14:41:12.770936  1752 net.cpp:425] inception_4e/relu_5x5_reduce <- inception_4e/5x5_reduce
I0403 14:41:12.770952  1752 net.cpp:386] inception_4e/relu_5x5_reduce -> inception_4e/5x5_reduce (in-place)
I0403 14:41:12.771262  1752 net.cpp:141] Setting up inception_4e/relu_5x5_reduce
I0403 14:41:12.771287  1752 net.cpp:148] Top shape: 24 32 14 14 (150528)
I0403 14:41:12.771302  1752 net.cpp:156] Memory required for data: 1237333536
I0403 14:41:12.771317  1752 layer_factory.hpp:77] Creating layer inception_4e/5x5
I0403 14:41:12.771355  1752 net.cpp:91] Creating Layer inception_4e/5x5
I0403 14:41:12.771374  1752 net.cpp:425] inception_4e/5x5 <- inception_4e/5x5_reduce
I0403 14:41:12.771395  1752 net.cpp:399] inception_4e/5x5 -> inception_4e/5x5
I0403 14:41:12.773289  1752 net.cpp:141] Setting up inception_4e/5x5
I0403 14:41:12.773319  1752 net.cpp:148] Top shape: 24 128 14 14 (602112)
I0403 14:41:12.773335  1752 net.cpp:156] Memory required for data: 1239741984
I0403 14:41:12.773355  1752 layer_factory.hpp:77] Creating layer inception_4e/relu_5x5
I0403 14:41:12.773375  1752 net.cpp:91] Creating Layer inception_4e/relu_5x5
I0403 14:41:12.773391  1752 net.cpp:425] inception_4e/relu_5x5 <- inception_4e/5x5
I0403 14:41:12.773409  1752 net.cpp:386] inception_4e/relu_5x5 -> inception_4e/5x5 (in-place)
I0403 14:41:12.773617  1752 net.cpp:141] Setting up inception_4e/relu_5x5
I0403 14:41:12.773643  1752 net.cpp:148] Top shape: 24 128 14 14 (602112)
I0403 14:41:12.773656  1752 net.cpp:156] Memory required for data: 1242150432
I0403 14:41:12.773671  1752 layer_factory.hpp:77] Creating layer inception_4e/pool
I0403 14:41:12.773691  1752 net.cpp:91] Creating Layer inception_4e/pool
I0403 14:41:12.773707  1752 net.cpp:425] inception_4e/pool <- inception_4d/output_inception_4d/output_0_split_4
I0403 14:41:12.773725  1752 net.cpp:399] inception_4e/pool -> inception_4e/pool
I0403 14:41:12.773797  1752 net.cpp:141] Setting up inception_4e/pool
I0403 14:41:12.773819  1752 net.cpp:148] Top shape: 24 528 14 14 (2483712)
I0403 14:41:12.773833  1752 net.cpp:156] Memory required for data: 1252085280
I0403 14:41:12.773849  1752 layer_factory.hpp:77] Creating layer inception_4e/pool_proj
I0403 14:41:12.773869  1752 net.cpp:91] Creating Layer inception_4e/pool_proj
I0403 14:41:12.773886  1752 net.cpp:425] inception_4e/pool_proj <- inception_4e/pool
I0403 14:41:12.773906  1752 net.cpp:399] inception_4e/pool_proj -> inception_4e/pool_proj
I0403 14:41:12.775437  1752 net.cpp:141] Setting up inception_4e/pool_proj
I0403 14:41:12.775477  1752 net.cpp:148] Top shape: 24 128 14 14 (602112)
I0403 14:41:12.775495  1752 net.cpp:156] Memory required for data: 1254493728
I0403 14:41:12.775513  1752 layer_factory.hpp:77] Creating layer inception_4e/relu_pool_proj
I0403 14:41:12.775530  1752 net.cpp:91] Creating Layer inception_4e/relu_pool_proj
I0403 14:41:12.775547  1752 net.cpp:425] inception_4e/relu_pool_proj <- inception_4e/pool_proj
I0403 14:41:12.775565  1752 net.cpp:386] inception_4e/relu_pool_proj -> inception_4e/pool_proj (in-place)
I0403 14:41:12.775856  1752 net.cpp:141] Setting up inception_4e/relu_pool_proj
I0403 14:41:12.775882  1752 net.cpp:148] Top shape: 24 128 14 14 (602112)
I0403 14:41:12.775897  1752 net.cpp:156] Memory required for data: 1256902176
I0403 14:41:12.775912  1752 layer_factory.hpp:77] Creating layer inception_4e/output
I0403 14:41:12.775928  1752 net.cpp:91] Creating Layer inception_4e/output
I0403 14:41:12.775943  1752 net.cpp:425] inception_4e/output <- inception_4e/1x1
I0403 14:41:12.775959  1752 net.cpp:425] inception_4e/output <- inception_4e/3x3
I0403 14:41:12.775974  1752 net.cpp:425] inception_4e/output <- inception_4e/5x5
I0403 14:41:12.775990  1752 net.cpp:425] inception_4e/output <- inception_4e/pool_proj
I0403 14:41:12.776008  1752 net.cpp:399] inception_4e/output -> inception_4e/output
I0403 14:41:12.776058  1752 net.cpp:141] Setting up inception_4e/output
I0403 14:41:12.776084  1752 net.cpp:148] Top shape: 24 832 14 14 (3913728)
I0403 14:41:12.776099  1752 net.cpp:156] Memory required for data: 1272557088
I0403 14:41:12.776113  1752 layer_factory.hpp:77] Creating layer pool4/3x3_s2
I0403 14:41:12.776130  1752 net.cpp:91] Creating Layer pool4/3x3_s2
I0403 14:41:12.776145  1752 net.cpp:425] pool4/3x3_s2 <- inception_4e/output
I0403 14:41:12.776163  1752 net.cpp:399] pool4/3x3_s2 -> pool4/3x3_s2
I0403 14:41:12.776239  1752 net.cpp:141] Setting up pool4/3x3_s2
I0403 14:41:12.776263  1752 net.cpp:148] Top shape: 24 832 7 7 (978432)
I0403 14:41:12.776278  1752 net.cpp:156] Memory required for data: 1276470816
I0403 14:41:12.776293  1752 layer_factory.hpp:77] Creating layer pool4/3x3_s2_pool4/3x3_s2_0_split
I0403 14:41:12.776309  1752 net.cpp:91] Creating Layer pool4/3x3_s2_pool4/3x3_s2_0_split
I0403 14:41:12.776324  1752 net.cpp:425] pool4/3x3_s2_pool4/3x3_s2_0_split <- pool4/3x3_s2
I0403 14:41:12.776342  1752 net.cpp:399] pool4/3x3_s2_pool4/3x3_s2_0_split -> pool4/3x3_s2_pool4/3x3_s2_0_split_0
I0403 14:41:12.776362  1752 net.cpp:399] pool4/3x3_s2_pool4/3x3_s2_0_split -> pool4/3x3_s2_pool4/3x3_s2_0_split_1
I0403 14:41:12.776382  1752 net.cpp:399] pool4/3x3_s2_pool4/3x3_s2_0_split -> pool4/3x3_s2_pool4/3x3_s2_0_split_2
I0403 14:41:12.776406  1752 net.cpp:399] pool4/3x3_s2_pool4/3x3_s2_0_split -> pool4/3x3_s2_pool4/3x3_s2_0_split_3
I0403 14:41:12.776499  1752 net.cpp:141] Setting up pool4/3x3_s2_pool4/3x3_s2_0_split
I0403 14:41:12.776522  1752 net.cpp:148] Top shape: 24 832 7 7 (978432)
I0403 14:41:12.776538  1752 net.cpp:148] Top shape: 24 832 7 7 (978432)
I0403 14:41:12.776552  1752 net.cpp:148] Top shape: 24 832 7 7 (978432)
I0403 14:41:12.776567  1752 net.cpp:148] Top shape: 24 832 7 7 (978432)
I0403 14:41:12.776582  1752 net.cpp:156] Memory required for data: 1292125728
I0403 14:41:12.776595  1752 layer_factory.hpp:77] Creating layer inception_5a/1x1
I0403 14:41:12.776618  1752 net.cpp:91] Creating Layer inception_5a/1x1
I0403 14:41:12.776648  1752 net.cpp:425] inception_5a/1x1 <- pool4/3x3_s2_pool4/3x3_s2_0_split_0
I0403 14:41:12.776669  1752 net.cpp:399] inception_5a/1x1 -> inception_5a/1x1
I0403 14:41:12.779551  1752 net.cpp:141] Setting up inception_5a/1x1
I0403 14:41:12.779578  1752 net.cpp:148] Top shape: 24 256 7 7 (301056)
I0403 14:41:12.779594  1752 net.cpp:156] Memory required for data: 1293329952
I0403 14:41:12.779624  1752 layer_factory.hpp:77] Creating layer inception_5a/relu_1x1
I0403 14:41:12.779644  1752 net.cpp:91] Creating Layer inception_5a/relu_1x1
I0403 14:41:12.779661  1752 net.cpp:425] inception_5a/relu_1x1 <- inception_5a/1x1
I0403 14:41:12.779678  1752 net.cpp:386] inception_5a/relu_1x1 -> inception_5a/1x1 (in-place)
I0403 14:41:12.779994  1752 net.cpp:141] Setting up inception_5a/relu_1x1
I0403 14:41:12.780020  1752 net.cpp:148] Top shape: 24 256 7 7 (301056)
I0403 14:41:12.780035  1752 net.cpp:156] Memory required for data: 1294534176
I0403 14:41:12.780050  1752 layer_factory.hpp:77] Creating layer inception_5a/3x3_reduce
I0403 14:41:12.780071  1752 net.cpp:91] Creating Layer inception_5a/3x3_reduce
I0403 14:41:12.780100  1752 net.cpp:425] inception_5a/3x3_reduce <- pool4/3x3_s2_pool4/3x3_s2_0_split_1
I0403 14:41:12.780127  1752 net.cpp:399] inception_5a/3x3_reduce -> inception_5a/3x3_reduce
I0403 14:41:12.782639  1752 net.cpp:141] Setting up inception_5a/3x3_reduce
I0403 14:41:12.782670  1752 net.cpp:148] Top shape: 24 160 7 7 (188160)
I0403 14:41:12.782686  1752 net.cpp:156] Memory required for data: 1295286816
I0403 14:41:12.782706  1752 layer_factory.hpp:77] Creating layer inception_5a/relu_3x3_reduce
I0403 14:41:12.782723  1752 net.cpp:91] Creating Layer inception_5a/relu_3x3_reduce
I0403 14:41:12.782739  1752 net.cpp:425] inception_5a/relu_3x3_reduce <- inception_5a/3x3_reduce
I0403 14:41:12.782758  1752 net.cpp:386] inception_5a/relu_3x3_reduce -> inception_5a/3x3_reduce (in-place)
I0403 14:41:12.782950  1752 net.cpp:141] Setting up inception_5a/relu_3x3_reduce
I0403 14:41:12.782975  1752 net.cpp:148] Top shape: 24 160 7 7 (188160)
I0403 14:41:12.782990  1752 net.cpp:156] Memory required for data: 1296039456
I0403 14:41:12.783004  1752 layer_factory.hpp:77] Creating layer inception_5a/3x3
I0403 14:41:12.783027  1752 net.cpp:91] Creating Layer inception_5a/3x3
I0403 14:41:12.783044  1752 net.cpp:425] inception_5a/3x3 <- inception_5a/3x3_reduce
I0403 14:41:12.783066  1752 net.cpp:399] inception_5a/3x3 -> inception_5a/3x3
I0403 14:41:12.788133  1752 net.cpp:141] Setting up inception_5a/3x3
I0403 14:41:12.788164  1752 net.cpp:148] Top shape: 24 320 7 7 (376320)
I0403 14:41:12.788182  1752 net.cpp:156] Memory required for data: 1297544736
I0403 14:41:12.788200  1752 layer_factory.hpp:77] Creating layer inception_5a/relu_3x3
I0403 14:41:12.788225  1752 net.cpp:91] Creating Layer inception_5a/relu_3x3
I0403 14:41:12.788244  1752 net.cpp:425] inception_5a/relu_3x3 <- inception_5a/3x3
I0403 14:41:12.788264  1752 net.cpp:386] inception_5a/relu_3x3 -> inception_5a/3x3 (in-place)
I0403 14:41:12.788563  1752 net.cpp:141] Setting up inception_5a/relu_3x3
I0403 14:41:12.788589  1752 net.cpp:148] Top shape: 24 320 7 7 (376320)
I0403 14:41:12.788604  1752 net.cpp:156] Memory required for data: 1299050016
I0403 14:41:12.788619  1752 layer_factory.hpp:77] Creating layer inception_5a/5x5_reduce
I0403 14:41:12.788641  1752 net.cpp:91] Creating Layer inception_5a/5x5_reduce
I0403 14:41:12.788660  1752 net.cpp:425] inception_5a/5x5_reduce <- pool4/3x3_s2_pool4/3x3_s2_0_split_2
I0403 14:41:12.788681  1752 net.cpp:399] inception_5a/5x5_reduce -> inception_5a/5x5_reduce
I0403 14:41:12.789858  1752 net.cpp:141] Setting up inception_5a/5x5_reduce
I0403 14:41:12.789888  1752 net.cpp:148] Top shape: 24 32 7 7 (37632)
I0403 14:41:12.789904  1752 net.cpp:156] Memory required for data: 1299200544
I0403 14:41:12.789921  1752 layer_factory.hpp:77] Creating layer inception_5a/relu_5x5_reduce
I0403 14:41:12.789939  1752 net.cpp:91] Creating Layer inception_5a/relu_5x5_reduce
I0403 14:41:12.789955  1752 net.cpp:425] inception_5a/relu_5x5_reduce <- inception_5a/5x5_reduce
I0403 14:41:12.789973  1752 net.cpp:386] inception_5a/relu_5x5_reduce -> inception_5a/5x5_reduce (in-place)
I0403 14:41:12.790294  1752 net.cpp:141] Setting up inception_5a/relu_5x5_reduce
I0403 14:41:12.790321  1752 net.cpp:148] Top shape: 24 32 7 7 (37632)
I0403 14:41:12.790336  1752 net.cpp:156] Memory required for data: 1299351072
I0403 14:41:12.790351  1752 layer_factory.hpp:77] Creating layer inception_5a/5x5
I0403 14:41:12.790374  1752 net.cpp:91] Creating Layer inception_5a/5x5
I0403 14:41:12.790391  1752 net.cpp:425] inception_5a/5x5 <- inception_5a/5x5_reduce
I0403 14:41:12.790412  1752 net.cpp:399] inception_5a/5x5 -> inception_5a/5x5
I0403 14:41:12.792155  1752 net.cpp:141] Setting up inception_5a/5x5
I0403 14:41:12.792218  1752 net.cpp:148] Top shape: 24 128 7 7 (150528)
I0403 14:41:12.792238  1752 net.cpp:156] Memory required for data: 1299953184
I0403 14:41:12.792256  1752 layer_factory.hpp:77] Creating layer inception_5a/relu_5x5
I0403 14:41:12.792274  1752 net.cpp:91] Creating Layer inception_5a/relu_5x5
I0403 14:41:12.792290  1752 net.cpp:425] inception_5a/relu_5x5 <- inception_5a/5x5
I0403 14:41:12.792309  1752 net.cpp:386] inception_5a/relu_5x5 -> inception_5a/5x5 (in-place)
I0403 14:41:12.792500  1752 net.cpp:141] Setting up inception_5a/relu_5x5
I0403 14:41:12.792523  1752 net.cpp:148] Top shape: 24 128 7 7 (150528)
I0403 14:41:12.792537  1752 net.cpp:156] Memory required for data: 1300555296
I0403 14:41:12.792551  1752 layer_factory.hpp:77] Creating layer inception_5a/pool
I0403 14:41:12.792570  1752 net.cpp:91] Creating Layer inception_5a/pool
I0403 14:41:12.792587  1752 net.cpp:425] inception_5a/pool <- pool4/3x3_s2_pool4/3x3_s2_0_split_3
I0403 14:41:12.792604  1752 net.cpp:399] inception_5a/pool -> inception_5a/pool
I0403 14:41:12.792675  1752 net.cpp:141] Setting up inception_5a/pool
I0403 14:41:12.792698  1752 net.cpp:148] Top shape: 24 832 7 7 (978432)
I0403 14:41:12.792712  1752 net.cpp:156] Memory required for data: 1304469024
I0403 14:41:12.792726  1752 layer_factory.hpp:77] Creating layer inception_5a/pool_proj
I0403 14:41:12.792748  1752 net.cpp:91] Creating Layer inception_5a/pool_proj
I0403 14:41:12.792765  1752 net.cpp:425] inception_5a/pool_proj <- inception_5a/pool
I0403 14:41:12.792786  1752 net.cpp:399] inception_5a/pool_proj -> inception_5a/pool_proj
I0403 14:41:12.795107  1752 net.cpp:141] Setting up inception_5a/pool_proj
I0403 14:41:12.795138  1752 net.cpp:148] Top shape: 24 128 7 7 (150528)
I0403 14:41:12.795155  1752 net.cpp:156] Memory required for data: 1305071136
I0403 14:41:12.795173  1752 layer_factory.hpp:77] Creating layer inception_5a/relu_pool_proj
I0403 14:41:12.795192  1752 net.cpp:91] Creating Layer inception_5a/relu_pool_proj
I0403 14:41:12.795217  1752 net.cpp:425] inception_5a/relu_pool_proj <- inception_5a/pool_proj
I0403 14:41:12.795241  1752 net.cpp:386] inception_5a/relu_pool_proj -> inception_5a/pool_proj (in-place)
I0403 14:41:12.795558  1752 net.cpp:141] Setting up inception_5a/relu_pool_proj
I0403 14:41:12.795586  1752 net.cpp:148] Top shape: 24 128 7 7 (150528)
I0403 14:41:12.795603  1752 net.cpp:156] Memory required for data: 1305673248
I0403 14:41:12.795616  1752 layer_factory.hpp:77] Creating layer inception_5a/output
I0403 14:41:12.795634  1752 net.cpp:91] Creating Layer inception_5a/output
I0403 14:41:12.795650  1752 net.cpp:425] inception_5a/output <- inception_5a/1x1
I0403 14:41:12.795668  1752 net.cpp:425] inception_5a/output <- inception_5a/3x3
I0403 14:41:12.795686  1752 net.cpp:425] inception_5a/output <- inception_5a/5x5
I0403 14:41:12.795702  1752 net.cpp:425] inception_5a/output <- inception_5a/pool_proj
I0403 14:41:12.795722  1752 net.cpp:399] inception_5a/output -> inception_5a/output
I0403 14:41:12.795774  1752 net.cpp:141] Setting up inception_5a/output
I0403 14:41:12.795799  1752 net.cpp:148] Top shape: 24 832 7 7 (978432)
I0403 14:41:12.795814  1752 net.cpp:156] Memory required for data: 1309586976
I0403 14:41:12.795840  1752 layer_factory.hpp:77] Creating layer inception_5a/output_inception_5a/output_0_split
I0403 14:41:12.795858  1752 net.cpp:91] Creating Layer inception_5a/output_inception_5a/output_0_split
I0403 14:41:12.795876  1752 net.cpp:425] inception_5a/output_inception_5a/output_0_split <- inception_5a/output
I0403 14:41:12.795892  1752 net.cpp:399] inception_5a/output_inception_5a/output_0_split -> inception_5a/output_inception_5a/output_0_split_0
I0403 14:41:12.795915  1752 net.cpp:399] inception_5a/output_inception_5a/output_0_split -> inception_5a/output_inception_5a/output_0_split_1
I0403 14:41:12.795938  1752 net.cpp:399] inception_5a/output_inception_5a/output_0_split -> inception_5a/output_inception_5a/output_0_split_2
I0403 14:41:12.795959  1752 net.cpp:399] inception_5a/output_inception_5a/output_0_split -> inception_5a/output_inception_5a/output_0_split_3
I0403 14:41:12.796072  1752 net.cpp:141] Setting up inception_5a/output_inception_5a/output_0_split
I0403 14:41:12.796095  1752 net.cpp:148] Top shape: 24 832 7 7 (978432)
I0403 14:41:12.796111  1752 net.cpp:148] Top shape: 24 832 7 7 (978432)
I0403 14:41:12.796128  1752 net.cpp:148] Top shape: 24 832 7 7 (978432)
I0403 14:41:12.796142  1752 net.cpp:148] Top shape: 24 832 7 7 (978432)
I0403 14:41:12.796155  1752 net.cpp:156] Memory required for data: 1325241888
I0403 14:41:12.796180  1752 layer_factory.hpp:77] Creating layer inception_5b/1x1
I0403 14:41:12.796202  1752 net.cpp:91] Creating Layer inception_5b/1x1
I0403 14:41:12.796224  1752 net.cpp:425] inception_5b/1x1 <- inception_5a/output_inception_5a/output_0_split_0
I0403 14:41:12.796247  1752 net.cpp:399] inception_5b/1x1 -> inception_5b/1x1
I0403 14:41:12.800089  1752 net.cpp:141] Setting up inception_5b/1x1
I0403 14:41:12.800122  1752 net.cpp:148] Top shape: 24 384 7 7 (451584)
I0403 14:41:12.800138  1752 net.cpp:156] Memory required for data: 1327048224
I0403 14:41:12.800156  1752 layer_factory.hpp:77] Creating layer inception_5b/relu_1x1
I0403 14:41:12.800174  1752 net.cpp:91] Creating Layer inception_5b/relu_1x1
I0403 14:41:12.800190  1752 net.cpp:425] inception_5b/relu_1x1 <- inception_5b/1x1
I0403 14:41:12.800215  1752 net.cpp:386] inception_5b/relu_1x1 -> inception_5b/1x1 (in-place)
I0403 14:41:12.800532  1752 net.cpp:141] Setting up inception_5b/relu_1x1
I0403 14:41:12.800561  1752 net.cpp:148] Top shape: 24 384 7 7 (451584)
I0403 14:41:12.800576  1752 net.cpp:156] Memory required for data: 1328854560
I0403 14:41:12.800591  1752 layer_factory.hpp:77] Creating layer inception_5b/3x3_reduce
I0403 14:41:12.800613  1752 net.cpp:91] Creating Layer inception_5b/3x3_reduce
I0403 14:41:12.800631  1752 net.cpp:425] inception_5b/3x3_reduce <- inception_5a/output_inception_5a/output_0_split_1
I0403 14:41:12.800653  1752 net.cpp:399] inception_5b/3x3_reduce -> inception_5b/3x3_reduce
I0403 14:41:12.803370  1752 net.cpp:141] Setting up inception_5b/3x3_reduce
I0403 14:41:12.803402  1752 net.cpp:148] Top shape: 24 192 7 7 (225792)
I0403 14:41:12.803421  1752 net.cpp:156] Memory required for data: 1329757728
I0403 14:41:12.803441  1752 layer_factory.hpp:77] Creating layer inception_5b/relu_3x3_reduce
I0403 14:41:12.803459  1752 net.cpp:91] Creating Layer inception_5b/relu_3x3_reduce
I0403 14:41:12.803477  1752 net.cpp:425] inception_5b/relu_3x3_reduce <- inception_5b/3x3_reduce
I0403 14:41:12.803498  1752 net.cpp:386] inception_5b/relu_3x3_reduce -> inception_5b/3x3_reduce (in-place)
I0403 14:41:12.803694  1752 net.cpp:141] Setting up inception_5b/relu_3x3_reduce
I0403 14:41:12.803720  1752 net.cpp:148] Top shape: 24 192 7 7 (225792)
I0403 14:41:12.803735  1752 net.cpp:156] Memory required for data: 1330660896
I0403 14:41:12.803750  1752 layer_factory.hpp:77] Creating layer inception_5b/3x3
I0403 14:41:12.803773  1752 net.cpp:91] Creating Layer inception_5b/3x3
I0403 14:41:12.803792  1752 net.cpp:425] inception_5b/3x3 <- inception_5b/3x3_reduce
I0403 14:41:12.803817  1752 net.cpp:399] inception_5b/3x3 -> inception_5b/3x3
I0403 14:41:12.810591  1752 net.cpp:141] Setting up inception_5b/3x3
I0403 14:41:12.810623  1752 net.cpp:148] Top shape: 24 384 7 7 (451584)
I0403 14:41:12.810639  1752 net.cpp:156] Memory required for data: 1332467232
I0403 14:41:12.810658  1752 layer_factory.hpp:77] Creating layer inception_5b/relu_3x3
I0403 14:41:12.810677  1752 net.cpp:91] Creating Layer inception_5b/relu_3x3
I0403 14:41:12.810693  1752 net.cpp:425] inception_5b/relu_3x3 <- inception_5b/3x3
I0403 14:41:12.810713  1752 net.cpp:386] inception_5b/relu_3x3 -> inception_5b/3x3 (in-place)
I0403 14:41:12.811017  1752 net.cpp:141] Setting up inception_5b/relu_3x3
I0403 14:41:12.811044  1752 net.cpp:148] Top shape: 24 384 7 7 (451584)
I0403 14:41:12.811059  1752 net.cpp:156] Memory required for data: 1334273568
I0403 14:41:12.811074  1752 layer_factory.hpp:77] Creating layer inception_5b/5x5_reduce
I0403 14:41:12.811113  1752 net.cpp:91] Creating Layer inception_5b/5x5_reduce
I0403 14:41:12.811133  1752 net.cpp:425] inception_5b/5x5_reduce <- inception_5a/output_inception_5a/output_0_split_2
I0403 14:41:12.811156  1752 net.cpp:399] inception_5b/5x5_reduce -> inception_5b/5x5_reduce
I0403 14:41:12.812482  1752 net.cpp:141] Setting up inception_5b/5x5_reduce
I0403 14:41:12.812511  1752 net.cpp:148] Top shape: 24 48 7 7 (56448)
I0403 14:41:12.812527  1752 net.cpp:156] Memory required for data: 1334499360
I0403 14:41:12.812546  1752 layer_factory.hpp:77] Creating layer inception_5b/relu_5x5_reduce
I0403 14:41:12.812563  1752 net.cpp:91] Creating Layer inception_5b/relu_5x5_reduce
I0403 14:41:12.812580  1752 net.cpp:425] inception_5b/relu_5x5_reduce <- inception_5b/5x5_reduce
I0403 14:41:12.812600  1752 net.cpp:386] inception_5b/relu_5x5_reduce -> inception_5b/5x5_reduce (in-place)
I0403 14:41:12.812978  1752 net.cpp:141] Setting up inception_5b/relu_5x5_reduce
I0403 14:41:12.813005  1752 net.cpp:148] Top shape: 24 48 7 7 (56448)
I0403 14:41:12.813020  1752 net.cpp:156] Memory required for data: 1334725152
I0403 14:41:12.813035  1752 layer_factory.hpp:77] Creating layer inception_5b/5x5
I0403 14:41:12.813055  1752 net.cpp:91] Creating Layer inception_5b/5x5
I0403 14:41:12.813072  1752 net.cpp:425] inception_5b/5x5 <- inception_5b/5x5_reduce
I0403 14:41:12.813091  1752 net.cpp:399] inception_5b/5x5 -> inception_5b/5x5
I0403 14:41:12.815256  1752 net.cpp:141] Setting up inception_5b/5x5
I0403 14:41:12.815285  1752 net.cpp:148] Top shape: 24 128 7 7 (150528)
I0403 14:41:12.815301  1752 net.cpp:156] Memory required for data: 1335327264
I0403 14:41:12.815320  1752 layer_factory.hpp:77] Creating layer inception_5b/relu_5x5
I0403 14:41:12.815340  1752 net.cpp:91] Creating Layer inception_5b/relu_5x5
I0403 14:41:12.815356  1752 net.cpp:425] inception_5b/relu_5x5 <- inception_5b/5x5
I0403 14:41:12.815382  1752 net.cpp:386] inception_5b/relu_5x5 -> inception_5b/5x5 (in-place)
I0403 14:41:12.815580  1752 net.cpp:141] Setting up inception_5b/relu_5x5
I0403 14:41:12.815604  1752 net.cpp:148] Top shape: 24 128 7 7 (150528)
I0403 14:41:12.815619  1752 net.cpp:156] Memory required for data: 1335929376
I0403 14:41:12.815634  1752 layer_factory.hpp:77] Creating layer inception_5b/pool
I0403 14:41:12.815654  1752 net.cpp:91] Creating Layer inception_5b/pool
I0403 14:41:12.815671  1752 net.cpp:425] inception_5b/pool <- inception_5a/output_inception_5a/output_0_split_3
I0403 14:41:12.815697  1752 net.cpp:399] inception_5b/pool -> inception_5b/pool
I0403 14:41:12.815780  1752 net.cpp:141] Setting up inception_5b/pool
I0403 14:41:12.815804  1752 net.cpp:148] Top shape: 24 832 7 7 (978432)
I0403 14:41:12.815819  1752 net.cpp:156] Memory required for data: 1339843104
I0403 14:41:12.815832  1752 layer_factory.hpp:77] Creating layer inception_5b/pool_proj
I0403 14:41:12.815855  1752 net.cpp:91] Creating Layer inception_5b/pool_proj
I0403 14:41:12.815871  1752 net.cpp:425] inception_5b/pool_proj <- inception_5b/pool
I0403 14:41:12.815892  1752 net.cpp:399] inception_5b/pool_proj -> inception_5b/pool_proj
I0403 14:41:12.818294  1752 net.cpp:141] Setting up inception_5b/pool_proj
I0403 14:41:12.818325  1752 net.cpp:148] Top shape: 24 128 7 7 (150528)
I0403 14:41:12.818341  1752 net.cpp:156] Memory required for data: 1340445216
I0403 14:41:12.818361  1752 layer_factory.hpp:77] Creating layer inception_5b/relu_pool_proj
I0403 14:41:12.818379  1752 net.cpp:91] Creating Layer inception_5b/relu_pool_proj
I0403 14:41:12.818397  1752 net.cpp:425] inception_5b/relu_pool_proj <- inception_5b/pool_proj
I0403 14:41:12.818418  1752 net.cpp:386] inception_5b/relu_pool_proj -> inception_5b/pool_proj (in-place)
I0403 14:41:12.818722  1752 net.cpp:141] Setting up inception_5b/relu_pool_proj
I0403 14:41:12.818752  1752 net.cpp:148] Top shape: 24 128 7 7 (150528)
I0403 14:41:12.818768  1752 net.cpp:156] Memory required for data: 1341047328
I0403 14:41:12.818784  1752 layer_factory.hpp:77] Creating layer inception_5b/output
I0403 14:41:12.818804  1752 net.cpp:91] Creating Layer inception_5b/output
I0403 14:41:12.818835  1752 net.cpp:425] inception_5b/output <- inception_5b/1x1
I0403 14:41:12.818852  1752 net.cpp:425] inception_5b/output <- inception_5b/3x3
I0403 14:41:12.818871  1752 net.cpp:425] inception_5b/output <- inception_5b/5x5
I0403 14:41:12.818887  1752 net.cpp:425] inception_5b/output <- inception_5b/pool_proj
I0403 14:41:12.818907  1752 net.cpp:399] inception_5b/output -> inception_5b/output
I0403 14:41:12.818960  1752 net.cpp:141] Setting up inception_5b/output
I0403 14:41:12.818989  1752 net.cpp:148] Top shape: 24 1024 7 7 (1204224)
I0403 14:41:12.819006  1752 net.cpp:156] Memory required for data: 1345864224
I0403 14:41:12.819022  1752 layer_factory.hpp:77] Creating layer pool5/7x7_s1
I0403 14:41:12.819041  1752 net.cpp:91] Creating Layer pool5/7x7_s1
I0403 14:41:12.819056  1752 net.cpp:425] pool5/7x7_s1 <- inception_5b/output
I0403 14:41:12.819074  1752 net.cpp:399] pool5/7x7_s1 -> pool5/7x7_s1
I0403 14:41:12.819303  1752 net.cpp:141] Setting up pool5/7x7_s1
I0403 14:41:12.819329  1752 net.cpp:148] Top shape: 24 1024 1 1 (24576)
I0403 14:41:12.819344  1752 net.cpp:156] Memory required for data: 1345962528
I0403 14:41:12.819360  1752 layer_factory.hpp:77] Creating layer pool5/drop_7x7_s1
I0403 14:41:12.819377  1752 net.cpp:91] Creating Layer pool5/drop_7x7_s1
I0403 14:41:12.819393  1752 net.cpp:425] pool5/drop_7x7_s1 <- pool5/7x7_s1
I0403 14:41:12.819412  1752 net.cpp:386] pool5/drop_7x7_s1 -> pool5/7x7_s1 (in-place)
I0403 14:41:12.819463  1752 net.cpp:141] Setting up pool5/drop_7x7_s1
I0403 14:41:12.819489  1752 net.cpp:148] Top shape: 24 1024 1 1 (24576)
I0403 14:41:12.819505  1752 net.cpp:156] Memory required for data: 1346060832
I0403 14:41:12.819520  1752 layer_factory.hpp:77] Creating layer loss3/classifier_plantvillage
I0403 14:41:12.819540  1752 net.cpp:91] Creating Layer loss3/classifier_plantvillage
I0403 14:41:12.819555  1752 net.cpp:425] loss3/classifier_plantvillage <- pool5/7x7_s1
I0403 14:41:12.819576  1752 net.cpp:399] loss3/classifier_plantvillage -> loss3/classifier_plantvillage
I0403 14:41:12.820011  1752 net.cpp:141] Setting up loss3/classifier_plantvillage
I0403 14:41:12.820036  1752 net.cpp:148] Top shape: 24 38 (912)
I0403 14:41:12.820051  1752 net.cpp:156] Memory required for data: 1346064480
I0403 14:41:12.820068  1752 layer_factory.hpp:77] Creating layer loss3/classifier_plantvillage_loss3/classifier_plantvillage_0_split
I0403 14:41:12.820092  1752 net.cpp:91] Creating Layer loss3/classifier_plantvillage_loss3/classifier_plantvillage_0_split
I0403 14:41:12.820108  1752 net.cpp:425] loss3/classifier_plantvillage_loss3/classifier_plantvillage_0_split <- loss3/classifier_plantvillage
I0403 14:41:12.820127  1752 net.cpp:399] loss3/classifier_plantvillage_loss3/classifier_plantvillage_0_split -> loss3/classifier_plantvillage_loss3/classifier_plantvillage_0_split_0
I0403 14:41:12.820150  1752 net.cpp:399] loss3/classifier_plantvillage_loss3/classifier_plantvillage_0_split -> loss3/classifier_plantvillage_loss3/classifier_plantvillage_0_split_1
I0403 14:41:12.820170  1752 net.cpp:399] loss3/classifier_plantvillage_loss3/classifier_plantvillage_0_split -> loss3/classifier_plantvillage_loss3/classifier_plantvillage_0_split_2
I0403 14:41:12.820193  1752 net.cpp:399] loss3/classifier_plantvillage_loss3/classifier_plantvillage_0_split -> loss3/classifier_plantvillage_loss3/classifier_plantvillage_0_split_3
I0403 14:41:12.820302  1752 net.cpp:141] Setting up loss3/classifier_plantvillage_loss3/classifier_plantvillage_0_split
I0403 14:41:12.820327  1752 net.cpp:148] Top shape: 24 38 (912)
I0403 14:41:12.820343  1752 net.cpp:148] Top shape: 24 38 (912)
I0403 14:41:12.820358  1752 net.cpp:148] Top shape: 24 38 (912)
I0403 14:41:12.820374  1752 net.cpp:148] Top shape: 24 38 (912)
I0403 14:41:12.820389  1752 net.cpp:156] Memory required for data: 1346079072
I0403 14:41:12.820402  1752 layer_factory.hpp:77] Creating layer loss1/loss
I0403 14:41:12.820423  1752 net.cpp:91] Creating Layer loss1/loss
I0403 14:41:12.820441  1752 net.cpp:425] loss1/loss <- loss1/classifier_plantvillage_loss1/classifier_plantvillage_0_split_0
I0403 14:41:12.820472  1752 net.cpp:425] loss1/loss <- label_data_1_split_0
…
