…
I0403 14:16:10.252455  1063 net.cpp:313] The NetState phase (1) differed from the phase (0) specified by a rule in layer data
I0403 14:16:10.253633  1063 net.cpp:49] Initializing net from parameters: 
state {
  phase: TEST
}
layer {
  name: "data"
  type: "Data"
  top: "data"
  top: "label"
  include {
    phase: TEST
  }
  transform_param {
    mirror: false
    crop_size: 224
    mean_file: "/home/mohanty/data/final_dataset/lmdb/grayscale-20-80/mean.binaryproto"
  }
  data_param {
    source: "/home/mohanty/data/final_dataset/lmdb/grayscale-20-80/test_db"
    batch_size: 24
    backend: LMDB
  }
}
layer {
  name: "conv1/7x7_s2"
  type: "Convolution"
  bottom: "data"
  top: "conv1/7x7_s2"
  param {
    lr_mult: 1
    decay_mult: 1
  }
  param {
    lr_mult: 2
    decay_mult: 0
  }
  convolution_param {
    num_output: 64
    pad: 3
    kernel_size: 7
    stride: 2
    weight_filler {
      type: "xavier"
      std: 0.1
    }
    bias_filler {
      type: "constant"
      value: 0.2
    }
  }
}
layer {
  name: "conv1/relu_7x7"
  type: "ReLU"
  bottom: "conv1/7x7_s2"
  top: "conv1/7x7_s2"
}
layer {
  name: "pool1/3x3_s2"
  type: "Pooling"
  bottom: "conv1/7x7_s2"
  top: "pool1/3x3_s2"
  pooling_param {
    pool: MAX
    kernel_size: 3
    stride: 2
  }
}
layer {
  name: "pool1/norm1"
  type: "LRN"
  bottom: "pool1/3x3_s2"
  top: "pool1/norm1"
  lrn_param {
    local_size: 5
    alpha: 0.0001
    beta: 0.75
  }
}
layer {
  name: "conv2/3x3_reduce"
  type: "Convolution"
  bottom: "pool1/norm1"
  top: "conv2/3x3_reduce"
  param {
    lr_mult: 1
    decay_mult: 1
  }
  param {
    lr_mult: 2
    decay_mult: 0
  }
  convolution_param {
    num_output: 64
    kernel_size: 1
    weight_filler {
      type: "xavier"
      std: 0.1
    }
    bias_filler {
      type: "constant"
      value: 0.2
    }
  }
}
layer {
  name: "conv2/relu_3x3_reduce"
  type: "ReLU"
  bottom: "conv2/3x3_reduce"
  top: "conv2/3x3_reduce"
}
layer {
  name: "conv2/3x3"
  type: "Convolution"
  bottom: "conv2/3x3_reduce"
  top: "conv2/3x3"
  param {
    lr_mult: 1
    decay_mult: 1
  }
  param {
    lr_mult: 2
    decay_mult: 0
  }
  convolution_param {
    num_output: 192
    pad: 1
    kernel_size: 3
    weight_filler {
      type: "xavier"
      std: 0.03
    }
    bias_filler {
      type: "constant"
      value: 0.2
    }
  }
}
layer {
  name: "conv2/relu_3x3"
  type: "ReLU"
  bottom: "conv2/3x3"
  top: "conv2/3x3"
}
layer {
  name: "conv2/norm2"
  type: "LRN"
  bottom: "conv2/3x3"
  top: "conv2/norm2"
  lrn_param {
    local_size: 5
    alpha: 0.0001
    beta: 0.75
  }
}
layer {
  name: "pool2/3x3_s2"
  type: "Pooling"
  bottom: "conv2/norm2"
  top: "pool2/3x3_s2"
  pooling_param {
    pool: MAX
    kernel_size: 3
    stride: 2
  }
}
layer {
  name: "inception_3a/1x1"
  type: "Convolution"
  bottom: "pool2/3x3_s2"
  top: "inception_3a/1x1"
  param {
    lr_mult: 1
    decay_mult: 1
  }
  param {
    lr_mult: 2
    decay_mult: 0
  }
  convolution_param {
    num_output: 64
    kernel_size: 1
    weight_filler {
      type: "xavier"
      std: 0.03
    }
    bias_filler {
      type: "constant"
      value: 0.2
    }
  }
}
layer {
  name: "inception_3a/relu_1x1"
  type: "ReLU"
  bottom: "inception_3a/1x1"
  top: "inception_3a/1x1"
}
layer {
  name: "inception_3a/3x3_reduce"
  type: "Convolution"
  bottom: "pool2/3x3_s2"
  top: "inception_3a/3x3_reduce"
  param {
    lr_mult: 1
    decay_mult: 1
  }
  param {
    lr_mult: 2
    decay_mult: 0
  }
  convolution_param {
    num_output: 96
    kernel_size: 1
    weight_filler {
      type: "xavier"
      std: 0.09
    }
    bias_filler {
      type: "constant"
      value: 0.2
    }
  }
}
layer {
  name: "inception_3a/relu_3x3_reduce"
  type: "ReLU"
  bottom: "inception_3a/3x3_reduce"
  top: "inception_3a/3x3_reduce"
}
layer {
  name: "inception_3a/3x3"
  type: "Convolution"
  bottom: "inception_3a/3x3_reduce"
  top: "inception_3a/3x3"
  param {
    lr_mult: 1
    decay_mult: 1
  }
  param {
    lr_mult: 2
    decay_mult: 0
  }
  convolution_param {
    num_output: 128
    pad: 1
    kernel_size: 3
    weight_filler {
      type: "xavier"
      std: 0.03
    }
    bias_filler {
      type: "constant"
      value: 0.2
    }
  }
}
layer {
  name: "inception_3a/relu_3x3"
  type: "ReLU"
  bottom: "inception_3a/3x3"
  top: "inception_3a/3x3"
}
layer {
  name: "inception_3a/5x5_reduce"
  type: "Convolution"
  bottom: "pool2/3x3_s2"
  top: "inception_3a/5x5_reduce"
  param {
    lr_mult: 1
    decay_mult: 1
  }
  param {
    lr_mult: 2
    decay_mult: 0
  }
  convolution_param {
    num_output: 16
    kernel_size: 1
    weight_filler {
      type: "xavier"
      std: 0.2
    }
    bias_filler {
      type: "constant"
      value: 0.2
    }
  }
}
layer {
  name: "inception_3a/relu_5x5_reduce"
  type: "ReLU"
  bottom: "inception_3a/5x5_reduce"
  top: "inception_3a/5x5_reduce"
}
layer {
  name: "inception_3a/5x5"
  type: "Convolution"
  bottom: "inception_3a/5x5_reduce"
  top: "inception_3a/5x5"
  param {
    lr_mult: 1
    decay_mult: 1
  }
  param {
    lr_mult: 2
    decay_mult: 0
  }
  convolution_param {
    num_output: 32
    pad: 2
    kernel_size: 5
    weight_filler {
      type: "xavier"
      std: 0.03
    }
    bias_filler {
      type: "constant"
      value: 0.2
    }
  }
}
layer {
  name: "inception_3a/relu_5x5"
  type: "ReLU"
  bottom: "inception_3a/5x5"
  top: "inception_3a/5x5"
}
layer {
  name: "inception_3a/pool"
  type: "Pooling"
  bottom: "pool2/3x3_s2"
  top: "inception_3a/pool"
  pooling_param {
    pool: MAX
    kernel_size: 3
    stride: 1
    pad: 1
  }
}
layer {
  name: "inception_3a/pool_proj"
  type: "Convolution"
  bottom: "inception_3a/pool"
  top: "inception_3a/pool_proj"
  param {
    lr_mult: 1
    decay_mult: 1
  }
  param {
    lr_mult: 2
    decay_mult: 0
  }
  convolution_param {
    num_output: 32
    kernel_size: 1
    weight_filler {
      type: "xavier"
      std: 0.1
    }
    bias_filler {
      type: "constant"
      value: 0.2
    }
  }
}
layer {
  name: "inception_3a/relu_pool_proj"
  type: "ReLU"
  bottom: "inception_3a/pool_proj"
  top: "inception_3a/pool_proj"
}
layer {
  name: "inception_3a/output"
  type: "Concat"
  bottom: "inception_3a/1x1"
  bottom: "inception_3a/3x3"
  bottom: "inception_3a/5x5"
  bottom: "inception_3a/pool_proj"
  top: "inception_3a/output"
}
layer {
  name: "inception_3b/1x1"
  type: "Convolution"
  bottom: "inception_3a/output"
  top: "inception_3b/1x1"
  param {
    lr_mult: 1
    decay_mult: 1
  }
  param {
    lr_mult: 2
    decay_mult: 0
  }
  convolution_param {
    num_output: 128
    kernel_size: 1
    weight_filler {
      type: "xavier"
      std: 0.03
    }
    bias_filler {
      type: "constant"
      value: 0.2
    }
  }
}
layer {
  name: "inception_3b/relu_1x1"
  type: "ReLU"
  bottom: "inception_3b/1x1"
  top: "inception_3b/1x1"
}
layer {
  name: "inception_3b/3x3_reduce"
  type: "Convolution"
  bottom: "inception_3a/output"
  top: "inception_3b/3x3_reduce"
  param {
    lr_mult: 1
    decay_mult: 1
  }
  param {
    lr_mult: 2
    decay_mult: 0
  }
  convolution_param {
    num_output: 128
    kernel_size: 1
    weight_filler {
      type: "xavier"
      std: 0.09
    }
    bias_filler {
      type: "constant"
      value: 0.2
    }
  }
}
layer {
  name: "inception_3b/relu_3x3_reduce"
  type: "ReLU"
  bottom: "inception_3b/3x3_reduce"
  top: "inception_3b/3x3_reduce"
}
layer {
  name: "inception_3b/3x3"
  type: "Convolution"
  bottom: "inception_3b/3x3_reduce"
  top: "inception_3b/3x3"
  param {
    lr_mult: 1
    decay_mult: 1
  }
  param {
    lr_mult: 2
    decay_mult: 0
  }
  convolution_param {
    num_output: 192
    pad: 1
    kernel_size: 3
    weight_filler {
      type: "xavier"
      std: 0.03
    }
    bias_filler {
      type: "constant"
      value: 0.2
    }
  }
}
layer {
  name: "inception_3b/relu_3x3"
  type: "ReLU"
  bottom: "inception_3b/3x3"
  top: "inception_3b/3x3"
}
layer {
  name: "inception_3b/5x5_reduce"
  type: "Convolution"
  bottom: "inception_3a/output"
  top: "inception_3b/5x5_reduce"
  param {
    lr_mult: 1
    decay_mult: 1
  }
  param {
    lr_mult: 2
    decay_mult: 0
  }
  convolution_param {
    num_output: 32
    kernel_size: 1
    weight_filler {
      type: "xavier"
      std: 0.2
    }
    bias_filler {
      type: "constant"
      value: 0.2
    }
  }
}
layer {
  name: "inception_3b/relu_5x5_reduce"
  type: "ReLU"
  bottom: "inception_3b/5x5_reduce"
  top: "inception_3b/5x5_reduce"
}
layer {
  name: "inception_3b/5x5"
  type: "Convolution"
  bottom: "inception_3b/5x5_reduce"
  top: "inception_3b/5x5"
  param {
    lr_mult: 1
    decay_mult: 1
  }
  param {
    lr_mult: 2
    decay_mult: 0
  }
  convolution_param {
    num_output: 96
    pad: 2
    kernel_size: 5
    weight_filler {
      type: "xavier"
      std: 0.03
    }
    bias_filler {
      type: "constant"
      value: 0.2
    }
  }
}
layer {
  name: "inception_3b/relu_5x5"
  type: "ReLU"
  bottom: "inception_3b/5x5"
  top: "inception_3b/5x5"
}
layer {
  name: "inception_3b/pool"
  type: "Pooling"
  bottom: "inception_3a/output"
  top: "inception_3b/pool"
  pooling_param {
    pool: MAX
    kernel_size: 3
    stride: 1
    pad: 1
  }
}
layer {
  name: "inception_3b/pool_proj"
  type: "Convolution"
  bottom: "inception_3b/pool"
  top: "inception_3b/pool_proj"
  param {
    lr_mult: 1
    decay_mult: 1
  }
  param {
    lr_mult: 2
    decay_mult: 0
  }
  convolution_param {
    num_output: 64
    kernel_size: 1
    weight_filler {
      type: "xavier"
      std: 0.1
    }
    bias_filler {
      type: "constant"
      value: 0.2
    }
  }
}
layer {
  name: "inception_3b/relu_pool_proj"
  type: "ReLU"
  bottom: "inception_3b/pool_proj"
  top: "inception_3b/pool_proj"
}
layer {
  name: "inception_3b/output"
  type: "Concat"
  bottom: "inception_3b/1x1"
  bottom: "inception_3b/3x3"
  bottom: "inception_3b/5x5"
  bottom: "inception_3b/pool_proj"
  top: "inception_3b/output"
}
layer {
  name: "pool3/3x3_s2"
  type: "Pooling"
  bottom: "inception_3b/output"
  top: "pool3/3x3_s2"
  pooling_param {
    pool: MAX
    kernel_size: 3
    stride: 2
  }
}
layer {
  name: "inception_4a/1x1"
  type: "Convolution"
  bottom: "pool3/3x3_s2"
  top: "inception_4a/1x1"
  param {
    lr_mult: 1
    decay_mult: 1
  }
  param {
    lr_mult: 2
    decay_mult: 0
  }
  convolution_param {
    num_output: 192
    kernel_size: 1
    weight_filler {
      type: "xavier"
      std: 0.03
    }
    bias_filler {
      type: "constant"
      value: 0.2
    }
  }
}
layer {
  name: "inception_4a/relu_1x1"
  type: "ReLU"
  bottom: "inception_4a/1x1"
  top: "inception_4a/1x1"
}
layer {
  name: "inception_4a/3x3_reduce"
  type: "Convolution"
  bottom: "pool3/3x3_s2"
  top: "inception_4a/3x3_reduce"
  param {
    lr_mult: 1
    decay_mult: 1
  }
  param {
    lr_mult: 2
    decay_mult: 0
  }
  convolution_param {
    num_output: 96
    kernel_size: 1
    weight_filler {
      type: "xavier"
      std: 0.09
    }
    bias_filler {
      type: "constant"
      value: 0.2
    }
  }
}
layer {
  name: "inception_4a/relu_3x3_reduce"
  type: "ReLU"
  bottom: "inception_4a/3x3_reduce"
  top: "inception_4a/3x3_reduce"
}
layer {
  name: "inception_4a/3x3"
  type: "Convolution"
  bottom: "inception_4a/3x3_reduce"
  top: "inception_4a/3x3"
  param {
    lr_mult: 1
    decay_mult: 1
  }
  param {
    lr_mult: 2
    decay_mult: 0
  }
  convolution_param {
    num_output: 208
    pad: 1
    kernel_size: 3
    weight_filler {
      type: "xavier"
      std: 0.03
    }
    bias_filler {
      type: "constant"
      value: 0.2
    }
  }
}
layer {
  name: "inception_4a/relu_3x3"
  type: "ReLU"
  bottom: "inception_4a/3x3"
  top: "inception_4a/3x3"
}
layer {
  name: "inception_4a/5x5_reduce"
  type: "Convolution"
  bottom: "pool3/3x3_s2"
  top: "inception_4a/5x5_reduce"
  param {
    lr_mult: 1
    decay_mult: 1
  }
  param {
    lr_mult: 2
    decay_mult: 0
  }
  convolution_param {
    num_output: 16
    kernel_size: 1
    weight_filler {
      type: "xavier"
      std: 0.2
    }
    bias_filler {
      type: "constant"
      value: 0.2
    }
  }
}
layer {
  name: "inception_4a/relu_5x5_reduce"
  type: "ReLU"
  bottom: "inception_4a/5x5_reduce"
  top: "inception_4a/5x5_reduce"
}
layer {
  name: "inception_4a/5x5"
  type: "Convolution"
  bottom: "inception_4a/5x5_reduce"
  top: "inception_4a/5x5"
  param {
    lr_mult: 1
    decay_mult: 1
  }
  param {
    lr_mult: 2
    decay_mult: 0
  }
  convolution_param {
    num_output: 48
    pad: 2
    kernel_size: 5
    weight_filler {
      type: "xavier"
      std: 0.03
    }
    bias_filler {
      type: "constant"
      value: 0.2
    }
  }
}
layer {
  name: "inception_4a/relu_5x5"
  type: "ReLU"
  bottom: "inception_4a/5x5"
  top: "inception_4a/5x5"
}
layer {
  name: "inception_4a/pool"
  type: "Pooling"
  bottom: "pool3/3x3_s2"
  top: "inception_4a/pool"
  pooling_param {
    pool: MAX
    kernel_size: 3
    stride: 1
    pad: 1
  }
}
layer {
  name: "inception_4a/pool_proj"
  type: "Convolution"
  bottom: "inception_4a/pool"
  top: "inception_4a/pool_proj"
  param {
    lr_mult: 1
    decay_mult: 1
  }
  param {
    lr_mult: 2
    decay_mult: 0
  }
  convolution_param {
    num_output: 64
    kernel_size: 1
    weight_filler {
      type: "xavier"
      std: 0.1
    }
    bias_filler {
      type: "constant"
      value: 0.2
    }
  }
}
layer {
  name: "inception_4a/relu_pool_proj"
  type: "ReLU"
  bottom: "inception_4a/pool_proj"
  top: "inception_4a/pool_proj"
}
layer {
  name: "inception_4a/output"
  type: "Concat"
  bottom: "inception_4a/1x1"
  bottom: "inception_4a/3x3"
  bottom: "inception_4a/5x5"
  bottom: "inception_4a/pool_proj"
  top: "inception_4a/output"
}
layer {
  name: "loss1/ave_pool"
  type: "Pooling"
  bottom: "inception_4a/output"
  top: "loss1/ave_pool"
  pooling_param {
    pool: AVE
    kernel_size: 5
    stride: 3
  }
}
layer {
  name: "loss1/conv"
  type: "Convolution"
  bottom: "loss1/ave_pool"
  top: "loss1/conv"
  param {
    lr_mult: 1
    decay_mult: 1
  }
  param {
    lr_mult: 2
    decay_mult: 0
  }
  convolution_param {
    num_output: 128
    kernel_size: 1
    weight_filler {
      type: "xavier"
      std: 0.08
    }
    bias_filler {
      type: "constant"
      value: 0.2
    }
  }
}
layer {
  name: "loss1/relu_conv"
  type: "ReLU"
  bottom: "loss1/conv"
  top: "loss1/conv"
}
layer {
  name: "loss1/fc"
  type: "InnerProduct"
  bottom: "loss1/conv"
  top: "loss1/fc"
  param {
    lr_mult: 1
    decay_mult: 1
  }
  param {
    lr_mult: 2
    decay_mult: 0
  }
  inner_product_param {
    num_output: 1024
    weight_filler {
      type: "xavier"
      std: 0.02
    }
    bias_filler {
      type: "constant"
      value: 0.2
    }
  }
}
layer {
  name: "loss1/relu_fc"
  type: "ReLU"
  bottom: "loss1/fc"
  top: "loss1/fc"
}
layer {
  name: "loss1/drop_fc"
  type: "Dropout"
  bottom: "loss1/fc"
  top: "loss1/fc"
  dropout_param {
    dropout_ratio: 0.7
  }
}
layer {
  name: "loss1/classifier_plantvillage"
  type: "InnerProduct"
  bottom: "loss1/fc"
  top: "loss1/classifier_plantvillage"
  param {
    lr_mult: 1
    decay_mult: 1
  }
  param {
    lr_mult: 2
    decay_mult: 0
  }
  inner_product_param {
    num_output: 38
    weight_filler {
      type: "xavier"
      std: 0.0009765625
    }
    bias_filler {
      type: "constant"
      value: 0
    }
  }
}
layer {
  name: "inception_4b/1x1"
  type: "Convolution"
  bottom: "inception_4a/output"
  top: "inception_4b/1x1"
  param {
    lr_mult: 1
    decay_mult: 1
  }
  param {
    lr_mult: 2
    decay_mult: 0
  }
  convolution_param {
    num_output: 160
    kernel_size: 1
    weight_filler {
      type: "xavier"
      std: 0.03
    }
    bias_filler {
      type: "constant"
      value: 0.2
    }
  }
}
layer {
  name: "inception_4b/relu_1x1"
  type: "ReLU"
  bottom: "inception_4b/1x1"
  top: "inception_4b/1x1"
}
layer {
  name: "inception_4b/3x3_reduce"
  type: "Convolution"
  bottom: "inception_4a/output"
  top: "inception_4b/3x3_reduce"
  param {
    lr_mult: 1
    decay_mult: 1
  }
  param {
    lr_mult: 2
    decay_mult: 0
  }
  convolution_param {
    num_output: 112
    kernel_size: 1
    weight_filler {
      type: "xavier"
      std: 0.09
    }
    bias_filler {
      type: "constant"
      value: 0.2
    }
  }
}
layer {
  name: "inception_4b/relu_3x3_reduce"
  type: "ReLU"
  bottom: "inception_4b/3x3_reduce"
  top: "inception_4b/3x3_reduce"
}
layer {
  name: "inception_4b/3x3"
  type: "Convolution"
  bottom: "inception_4b/3x3_reduce"
  top: "inception_4b/3x3"
  param {
    lr_mult: 1
    decay_mult: 1
  }
  param {
    lr_mult: 2
    decay_mult: 0
  }
  convolution_param {
    num_output: 224
    pad: 1
    kernel_size: 3
    weight_filler {
      type: "xavier"
      std: 0.03
    }
    bias_filler {
      type: "constant"
      value: 0.2
    }
  }
}
layer {
  name: "inception_4b/relu_3x3"
  type: "ReLU"
  bottom: "inception_4b/3x3"
  top: "inception_4b/3x3"
}
layer {
  name: "inception_4b/5x5_reduce"
  type: "Convolution"
  bottom: "inception_4a/output"
  top: "inception_4b/5x5_reduce"
  param {
    lr_mult: 1
    decay_mult: 1
  }
  param {
    lr_mult: 2
    decay_mult: 0
  }
  convolution_param {
    num_output: 24
    kernel_size: 1
    weight_filler {
      type: "xavier"
      std: 0.2
    }
    bias_filler {
      type: "constant"
      value: 0.2
    }
  }
}
layer {
  name: "inception_4b/relu_5x5_reduce"
  type: "ReLU"
  bottom: "inception_4b/5x5_reduce"
  top: "inception_4b/5x5_reduce"
}
layer {
  name: "inception_4b/5x5"
  type: "Convolution"
  bottom: "inception_4b/5x5_reduce"
  top: "inception_4b/5x5"
  param {
    lr_mult: 1
    decay_mult: 1
  }
  param {
    lr_mult: 2
    decay_mult: 0
  }
  convolution_param {
    num_output: 64
    pad: 2
    kernel_size: 5
    weight_filler {
      type: "xavier"
      std: 0.03
    }
    bias_filler {
      type: "constant"
      value: 0.2
    }
  }
}
layer {
  name: "inception_4b/relu_5x5"
  type: "ReLU"
  bottom: "inception_4b/5x5"
  top: "inception_4b/5x5"
}
layer {
  name: "inception_4b/pool"
  type: "Pooling"
  bottom: "inception_4a/output"
  top: "inception_4b/pool"
  pooling_param {
    pool: MAX
    kernel_size: 3
    stride: 1
    pad: 1
  }
}
layer {
  name: "inception_4b/pool_proj"
  type: "Convolution"
  bottom: "inception_4b/pool"
  top: "inception_4b/pool_proj"
  param {
    lr_mult: 1
    decay_mult: 1
  }
  param {
    lr_mult: 2
    decay_mult: 0
  }
  convolution_param {
    num_output: 64
    kernel_size: 1
    weight_filler {
      type: "xavier"
      std: 0.1
    }
    bias_filler {
      type: "constant"
      value: 0.2
    }
  }
}
layer {
  name: "inception_4b/relu_pool_proj"
  type: "ReLU"
  bottom: "inception_4b/pool_proj"
  top: "inception_4b/pool_proj"
}
layer {
  name: "inception_4b/output"
  type: "Concat"
  bottom: "inception_4b/1x1"
  bottom: "inception_4b/3x3"
  bottom: "inception_4b/5x5"
  bottom: "inception_4b/pool_proj"
  top: "inception_4b/output"
}
layer {
  name: "inception_4c/1x1"
  type: "Convolution"
  bottom: "inception_4b/output"
  top: "inception_4c/1x1"
  param {
    lr_mult: 1
    decay_mult: 1
  }
  param {
    lr_mult: 2
    decay_mult: 0
  }
  convolution_param {
    num_output: 128
    kernel_size: 1
    weight_filler {
      type: "xavier"
      std: 0.03
    }
    bias_filler {
      type: "constant"
      value: 0.2
    }
  }
}
layer {
  name: "inception_4c/relu_1x1"
  type: "ReLU"
  bottom: "inception_4c/1x1"
  top: "inception_4c/1x1"
}
layer {
  name: "inception_4c/3x3_reduce"
  type: "Convolution"
  bottom: "inception_4b/output"
  top: "inception_4c/3x3_reduce"
  param {
    lr_mult: 1
    decay_mult: 1
  }
  param {
    lr_mult: 2
    decay_mult: 0
  }
  convolution_param {
    num_output: 128
    kernel_size: 1
    weight_filler {
      type: "xavier"
      std: 0.09
    }
    bias_filler {
      type: "constant"
      value: 0.2
    }
  }
}
layer {
  name: "inception_4c/relu_3x3_reduce"
  type: "ReLU"
  bottom: "inception_4c/3x3_reduce"
  top: "inception_4c/3x3_reduce"
}
layer {
  name: "inception_4c/3x3"
  type: "Convolution"
  bottom: "inception_4c/3x3_reduce"
  top: "inception_4c/3x3"
  param {
    lr_mult: 1
    decay_mult: 1
  }
  param {
    lr_mult: 2
    decay_mult: 0
  }
  convolution_param {
    num_output: 256
    pad: 1
    kernel_size: 3
    weight_filler {
      type: "xavier"
      std: 0.03
    }
    bias_filler {
      type: "constant"
      value: 0.2
    }
  }
}
layer {
  name: "inception_4c/relu_3x3"
  type: "ReLU"
  bottom: "inception_4c/3x3"
  top: "inception_4c/3x3"
}
layer {
  name: "inception_4c/5x5_reduce"
  type: "Convolution"
  bottom: "inception_4b/output"
  top: "inception_4c/5x5_reduce"
  param {
    lr_mult: 1
    decay_mult: 1
  }
  param {
    lr_mult: 2
    decay_mult: 0
  }
  convolution_param {
    num_output: 24
    kernel_size: 1
    weight_filler {
      type: "xavier"
      std: 0.2
    }
    bias_filler {
      type: "constant"
      value: 0.2
    }
  }
}
layer {
  name: "inception_4c/relu_5x5_reduce"
  type: "ReLU"
  bottom: "inception_4c/5x5_reduce"
  top: "inception_4c/5x5_reduce"
}
layer {
  name: "inception_4c/5x5"
  type: "Convolution"
  bottom: "inception_4c/5x5_reduce"
  top: "inception_4c/5x5"
  param {
    lr_mult: 1
    decay_mult: 1
  }
  param {
    lr_mult: 2
    decay_mult: 0
  }
  convolution_param {
    num_output: 64
    pad: 2
    kernel_size: 5
    weight_filler {
      type: "xavier"
      std: 0.03
    }
    bias_filler {
      type: "constant"
      value: 0.2
    }
  }
}
layer {
  name: "inception_4c/relu_5x5"
  type: "ReLU"
  bottom: "inception_4c/5x5"
  top: "inception_4c/5x5"
}
layer {
  name: "inception_4c/pool"
  type: "Pooling"
  bottom: "inception_4b/output"
  top: "inception_4c/pool"
  pooling_param {
    pool: MAX
    kernel_size: 3
    stride: 1
    pad: 1
  }
}
layer {
  name: "inception_4c/pool_proj"
  type: "Convolution"
  bottom: "inception_4c/pool"
  top: "inception_4c/pool_proj"
  param {
    lr_mult: 1
    decay_mult: 1
  }
  param {
    lr_mult: 2
    decay_mult: 0
  }
  convolution_param {
    num_output: 64
    kernel_size: 1
    weight_filler {
      type: "xavier"
      std: 0.1
    }
    bias_filler {
      type: "constant"
      value: 0.2
    }
  }
}
layer {
  name: "inception_4c/relu_pool_proj"
  type: "ReLU"
  bottom: "inception_4c/pool_proj"
  top: "inception_4c/pool_proj"
}
layer {
  name: "inception_4c/output"
  type: "Concat"
  bottom: "inception_4c/1x1"
  bottom: "inception_4c/3x3"
  bottom: "inception_4c/5x5"
  bottom: "inception_4c/pool_proj"
  top: "inception_4c/output"
}
layer {
  name: "inception_4d/1x1"
  type: "Convolution"
  bottom: "inception_4c/output"
  top: "inception_4d/1x1"
  param {
    lr_mult: 1
    decay_mult: 1
  }
  param {
    lr_mult: 2
    decay_mult: 0
  }
  convolution_param {
    num_output: 112
    kernel_size: 1
    weight_filler {
      type: "xavier"
      std: 0.03
    }
    bias_filler {
      type: "constant"
      value: 0.2
    }
  }
}
layer {
  name: "inception_4d/relu_1x1"
  type: "ReLU"
  bottom: "inception_4d/1x1"
  top: "inception_4d/1x1"
}
layer {
  name: "inception_4d/3x3_reduce"
  type: "Convolution"
  bottom: "inception_4c/output"
  top: "inception_4d/3x3_reduce"
  param {
    lr_mult: 1
    decay_mult: 1
  }
  param {
    lr_mult: 2
    decay_mult: 0
  }
  convolution_param {
    num_output: 144
    kernel_size: 1
    weight_filler {
      type: "xavier"
      std: 0.09
    }
    bias_filler {
      type: "constant"
      value: 0.2
    }
  }
}
layer {
  name: "inception_4d/relu_3x3_reduce"
  type: "ReLU"
  bottom: "inception_4d/3x3_reduce"
  top: "inception_4d/3x3_reduce"
}
layer {
  name: "inception_4d/3x3"
  type: "Convolution"
  bottom: "inception_4d/3x3_reduce"
  top: "inception_4d/3x3"
  param {
    lr_mult: 1
    decay_mult: 1
  }
  param {
    lr_mult: 2
    decay_mult: 0
  }
  convolution_param {
    num_output: 288
    pad: 1
    kernel_size: 3
    weight_filler {
      type: "xavier"
      std: 0.03
    }
    bias_filler {
      type: "constant"
      value: 0.2
    }
  }
}
layer {
  name: "inception_4d/relu_3x3"
  type: "ReLU"
  bottom: "inception_4d/3x3"
  top: "inception_4d/3x3"
}
layer {
  name: "inception_4d/5x5_reduce"
  type: "Convolution"
  bottom: "inception_4c/output"
  top: "inception_4d/5x5_reduce"
  param {
    lr_mult: 1
    decay_mult: 1
  }
  param {
    lr_mult: 2
    decay_mult: 0
  }
  convolution_param {
    num_output: 32
    kernel_size: 1
    weight_filler {
      type: "xavier"
      std: 0.2
    }
    bias_filler {
      type: "constant"
      value: 0.2
    }
  }
}
layer {
  name: "inception_4d/relu_5x5_reduce"
  type: "ReLU"
  bottom: "inception_4d/5x5_reduce"
  top: "inception_4d/5x5_reduce"
}
layer {
  name: "inception_4d/5x5"
  type: "Convolution"
  bottom: "inception_4d/5x5_reduce"
  top: "inception_4d/5x5"
  param {
    lr_mult: 1
    decay_mult: 1
  }
  param {
    lr_mult: 2
    decay_mult: 0
  }
  convolution_param {
    num_output: 64
    pad: 2
    kernel_size: 5
    weight_filler {
      type: "xavier"
      std: 0.03
    }
    bias_filler {
      type: "constant"
      value: 0.2
    }
  }
}
layer {
  name: "inception_4d/relu_5x5"
  type: "ReLU"
  bottom: "inception_4d/5x5"
  top: "inception_4d/5x5"
}
layer {
  name: "inception_4d/pool"
  type: "Pooling"
  bottom: "inception_4c/output"
  top: "inception_4d/pool"
  pooling_param {
    pool: MAX
    kernel_size: 3
    stride: 1
    pad: 1
  }
}
layer {
  name: "inception_4d/pool_proj"
  type: "Convolution"
  bottom: "inception_4d/pool"
  top: "inception_4d/pool_proj"
  param {
    lr_mult: 1
    decay_mult: 1
  }
  param {
    lr_mult: 2
    decay_mult: 0
  }
  convolution_param {
    num_output: 64
    kernel_size: 1
    weight_filler {
      type: "xavier"
      std: 0.1
    }
    bias_filler {
      type: "constant"
      value: 0.2
    }
  }
}
layer {
  name: "inception_4d/relu_pool_proj"
  type: "ReLU"
  bottom: "inception_4d/pool_proj"
  top: "inception_4d/pool_proj"
}
layer {
  name: "inception_4d/output"
  type: "Concat"
  bottom: "inception_4d/1x1"
  bottom: "inception_4d/3x3"
  bottom: "inception_4d/5x5"
  bottom: "inception_4d/pool_proj"
  top: "inception_4d/output"
}
layer {
  name: "loss2/ave_pool"
  type: "Pooling"
  bottom: "inception_4d/output"
  top: "loss2/ave_pool"
  pooling_param {
    pool: AVE
    kernel_size: 5
    stride: 3
  }
}
layer {
  name: "loss2/conv"
  type: "Convolution"
  bottom: "loss2/ave_pool"
  top: "loss2/conv"
  param {
    lr_mult: 1
    decay_mult: 1
  }
  param {
    lr_mult: 2
    decay_mult: 0
  }
  convolution_param {
    num_output: 128
    kernel_size: 1
    weight_filler {
      type: "xavier"
      std: 0.08
    }
    bias_filler {
      type: "constant"
      value: 0.2
    }
  }
}
layer {
  name: "loss2/relu_conv"
  type: "ReLU"
  bottom: "loss2/conv"
  top: "loss2/conv"
}
layer {
  name: "loss2/fc"
  type: "InnerProduct"
  bottom: "loss2/conv"
  top: "loss2/fc"
  param {
    lr_mult: 1
    decay_mult: 1
  }
  param {
    lr_mult: 2
    decay_mult: 0
  }
  inner_product_param {
    num_output: 1024
    weight_filler {
      type: "xavier"
      std: 0.02
    }
    bias_filler {
      type: "constant"
      value: 0.2
    }
  }
}
layer {
  name: "loss2/relu_fc"
  type: "ReLU"
  bottom: "loss2/fc"
  top: "loss2/fc"
}
layer {
  name: "loss2/drop_fc"
  type: "Dropout"
  bottom: "loss2/fc"
  top: "loss2/fc"
  dropout_param {
    dropout_ratio: 0.7
  }
}
layer {
  name: "loss2/classifier_plantvillage"
  type: "InnerProduct"
  bottom: "loss2/fc"
  top: "loss2/classifier_plantvillage"
  param {
    lr_mult: 1
    decay_mult: 1
  }
  param {
    lr_mult: 2
    decay_mult: 0
  }
  inner_product_param {
    num_output: 38
    weight_filler {
      type: "xavier"
      std: 0.0009765625
    }
    bias_filler {
      type: "constant"
      value: 0
    }
  }
}
layer {
  name: "inception_4e/1x1"
  type: "Convolution"
  bottom: "inception_4d/output"
  top: "inception_4e/1x1"
  param {
    lr_mult: 1
    decay_mult: 1
  }
  param {
    lr_mult: 2
    decay_mult: 0
  }
  convolution_param {
    num_output: 256
    kernel_size: 1
    weight_filler {
      type: "xavier"
      std: 0.03
    }
    bias_filler {
      type: "constant"
      value: 0.2
    }
  }
}
layer {
  name: "inception_4e/relu_1x1"
  type: "ReLU"
  bottom: "inception_4e/1x1"
  top: "inception_4e/1x1"
}
layer {
  name: "inception_4e/3x3_reduce"
  type: "Convolution"
  bottom: "inception_4d/output"
  top: "inception_4e/3x3_reduce"
  param {
    lr_mult: 1
    decay_mult: 1
  }
  param {
    lr_mult: 2
    decay_mult: 0
  }
  convolution_param {
    num_output: 160
    kernel_size: 1
    weight_filler {
      type: "xavier"
      std: 0.09
    }
    bias_filler {
      type: "constant"
      value: 0.2
    }
  }
}
layer {
  name: "inception_4e/relu_3x3_reduce"
  type: "ReLU"
  bottom: "inception_4e/3x3_reduce"
  top: "inception_4e/3x3_reduce"
}
layer {
  name: "inception_4e/3x3"
  type: "Convolution"
  bottom: "inception_4e/3x3_reduce"
  top: "inception_4e/3x3"
  param {
    lr_mult: 1
    decay_mult: 1
  }
  param {
    lr_mult: 2
    decay_mult: 0
  }
  convolution_param {
    num_output: 320
    pad: 1
    kernel_size: 3
    weight_filler {
      type: "xavier"
      std: 0.03
    }
    bias_filler {
      type: "constant"
      value: 0.2
    }
  }
}
layer {
  name: "inception_4e/relu_3x3"
  type: "ReLU"
  bottom: "inception_4e/3x3"
  top: "inception_4e/3x3"
}
layer {
  name: "inception_4e/5x5_reduce"
  type: "Convolution"
  bottom: "inception_4d/output"
  top: "inception_4e/5x5_reduce"
  param {
    lr_mult: 1
    decay_mult: 1
  }
  param {
    lr_mult: 2
    decay_mult: 0
  }
  convolution_param {
    num_output: 32
    kernel_size: 1
    weight_filler {
      type: "xavier"
      std: 0.2
    }
    bias_filler {
      type: "constant"
      value: 0.2
    }
  }
}
layer {
  name: "inception_4e/relu_5x5_reduce"
  type: "ReLU"
  bottom: "inception_4e/5x5_reduce"
  top: "inception_4e/5x5_reduce"
}
layer {
  name: "inception_4e/5x5"
  type: "Convolution"
  bottom: "inception_4e/5x5_reduce"
  top: "inception_4e/
I0403 14:16:10.254900  1063 layer_factory.hpp:77] Creating layer data
I0403 14:16:10.255513  1063 net.cpp:91] Creating Layer data
I0403 14:16:10.255545  1063 net.cpp:399] data -> data
I0403 14:16:10.255599  1063 net.cpp:399] data -> label
I0403 14:16:10.255633  1063 data_transformer.cpp:25] Loading mean file from: /home/mohanty/data/final_dataset/lmdb/grayscale-20-80/mean.binaryproto
I0403 14:16:10.258648  1068 db_lmdb.cpp:38] Opened lmdb /home/mohanty/data/final_dataset/lmdb/grayscale-20-80/test_db
I0403 14:16:10.268932  1063 data_layer.cpp:41] output data size: 24,3,224,224
I0403 14:16:10.296370  1063 net.cpp:141] Setting up data
I0403 14:16:10.296483  1063 net.cpp:148] Top shape: 24 3 224 224 (3612672)
I0403 14:16:10.296504  1063 net.cpp:148] Top shape: 24 (24)
I0403 14:16:10.296520  1063 net.cpp:156] Memory required for data: 14450784
I0403 14:16:10.296547  1063 layer_factory.hpp:77] Creating layer label_data_1_split
I0403 14:16:10.296574  1063 net.cpp:91] Creating Layer label_data_1_split
I0403 14:16:10.296593  1063 net.cpp:425] label_data_1_split <- label
I0403 14:16:10.296625  1063 net.cpp:399] label_data_1_split -> label_data_1_split_0
I0403 14:16:10.296653  1063 net.cpp:399] label_data_1_split -> label_data_1_split_1
I0403 14:16:10.296675  1063 net.cpp:399] label_data_1_split -> label_data_1_split_2
I0403 14:16:10.296696  1063 net.cpp:399] label_data_1_split -> label_data_1_split_3
I0403 14:16:10.296717  1063 net.cpp:399] label_data_1_split -> label_data_1_split_4
I0403 14:16:10.296749  1063 net.cpp:399] label_data_1_split -> label_data_1_split_5
I0403 14:16:10.296769  1063 net.cpp:399] label_data_1_split -> label_data_1_split_6
I0403 14:16:10.296789  1063 net.cpp:399] label_data_1_split -> label_data_1_split_7
I0403 14:16:10.296809  1063 net.cpp:399] label_data_1_split -> label_data_1_split_8
I0403 14:16:10.296829  1063 net.cpp:399] label_data_1_split -> label_data_1_split_9
I0403 14:16:10.296943  1063 net.cpp:141] Setting up label_data_1_split
I0403 14:16:10.296967  1063 net.cpp:148] Top shape: 24 (24)
I0403 14:16:10.296983  1063 net.cpp:148] Top shape: 24 (24)
I0403 14:16:10.296998  1063 net.cpp:148] Top shape: 24 (24)
I0403 14:16:10.297014  1063 net.cpp:148] Top shape: 24 (24)
I0403 14:16:10.297029  1063 net.cpp:148] Top shape: 24 (24)
I0403 14:16:10.297045  1063 net.cpp:148] Top shape: 24 (24)
I0403 14:16:10.297060  1063 net.cpp:148] Top shape: 24 (24)
I0403 14:16:10.297076  1063 net.cpp:148] Top shape: 24 (24)
I0403 14:16:10.297091  1063 net.cpp:148] Top shape: 24 (24)
I0403 14:16:10.297107  1063 net.cpp:148] Top shape: 24 (24)
I0403 14:16:10.297152  1063 net.cpp:156] Memory required for data: 14451744
I0403 14:16:10.297168  1063 layer_factory.hpp:77] Creating layer conv1/7x7_s2
I0403 14:16:10.297204  1063 net.cpp:91] Creating Layer conv1/7x7_s2
I0403 14:16:10.297224  1063 net.cpp:425] conv1/7x7_s2 <- data
I0403 14:16:10.297242  1063 net.cpp:399] conv1/7x7_s2 -> conv1/7x7_s2
I0403 14:16:10.440606  1063 net.cpp:141] Setting up conv1/7x7_s2
I0403 14:16:10.440683  1063 net.cpp:148] Top shape: 24 64 112 112 (19267584)
I0403 14:16:10.440701  1063 net.cpp:156] Memory required for data: 91522080
I0403 14:16:10.440734  1063 layer_factory.hpp:77] Creating layer conv1/relu_7x7
I0403 14:16:10.440762  1063 net.cpp:91] Creating Layer conv1/relu_7x7
I0403 14:16:10.440781  1063 net.cpp:425] conv1/relu_7x7 <- conv1/7x7_s2
I0403 14:16:10.440800  1063 net.cpp:386] conv1/relu_7x7 -> conv1/7x7_s2 (in-place)
I0403 14:16:10.441053  1063 net.cpp:141] Setting up conv1/relu_7x7
I0403 14:16:10.441081  1063 net.cpp:148] Top shape: 24 64 112 112 (19267584)
I0403 14:16:10.441097  1063 net.cpp:156] Memory required for data: 168592416
I0403 14:16:10.441112  1063 layer_factory.hpp:77] Creating layer pool1/3x3_s2
I0403 14:16:10.441136  1063 net.cpp:91] Creating Layer pool1/3x3_s2
I0403 14:16:10.441154  1063 net.cpp:425] pool1/3x3_s2 <- conv1/7x7_s2
I0403 14:16:10.441172  1063 net.cpp:399] pool1/3x3_s2 -> pool1/3x3_s2
I0403 14:16:10.441251  1063 net.cpp:141] Setting up pool1/3x3_s2
I0403 14:16:10.441274  1063 net.cpp:148] Top shape: 24 64 56 56 (4816896)
I0403 14:16:10.441288  1063 net.cpp:156] Memory required for data: 187860000
I0403 14:16:10.441303  1063 layer_factory.hpp:77] Creating layer pool1/norm1
I0403 14:16:10.441328  1063 net.cpp:91] Creating Layer pool1/norm1
I0403 14:16:10.441344  1063 net.cpp:425] pool1/norm1 <- pool1/3x3_s2
I0403 14:16:10.441362  1063 net.cpp:399] pool1/norm1 -> pool1/norm1
I0403 14:16:10.441666  1063 net.cpp:141] Setting up pool1/norm1
I0403 14:16:10.441694  1063 net.cpp:148] Top shape: 24 64 56 56 (4816896)
I0403 14:16:10.441710  1063 net.cpp:156] Memory required for data: 207127584
I0403 14:16:10.441726  1063 layer_factory.hpp:77] Creating layer conv2/3x3_reduce
I0403 14:16:10.441752  1063 net.cpp:91] Creating Layer conv2/3x3_reduce
I0403 14:16:10.441769  1063 net.cpp:425] conv2/3x3_reduce <- pool1/norm1
I0403 14:16:10.441788  1063 net.cpp:399] conv2/3x3_reduce -> conv2/3x3_reduce
I0403 14:16:10.443219  1063 net.cpp:141] Setting up conv2/3x3_reduce
I0403 14:16:10.443250  1063 net.cpp:148] Top shape: 24 64 56 56 (4816896)
I0403 14:16:10.443269  1063 net.cpp:156] Memory required for data: 226395168
I0403 14:16:10.443291  1063 layer_factory.hpp:77] Creating layer conv2/relu_3x3_reduce
I0403 14:16:10.443311  1063 net.cpp:91] Creating Layer conv2/relu_3x3_reduce
I0403 14:16:10.443330  1063 net.cpp:425] conv2/relu_3x3_reduce <- conv2/3x3_reduce
I0403 14:16:10.443348  1063 net.cpp:386] conv2/relu_3x3_reduce -> conv2/3x3_reduce (in-place)
I0403 14:16:10.443609  1063 net.cpp:141] Setting up conv2/relu_3x3_reduce
I0403 14:16:10.443637  1063 net.cpp:148] Top shape: 24 64 56 56 (4816896)
I0403 14:16:10.443653  1063 net.cpp:156] Memory required for data: 245662752
I0403 14:16:10.443670  1063 layer_factory.hpp:77] Creating layer conv2/3x3
I0403 14:16:10.443693  1063 net.cpp:91] Creating Layer conv2/3x3
I0403 14:16:10.443712  1063 net.cpp:425] conv2/3x3 <- conv2/3x3_reduce
I0403 14:16:10.443732  1063 net.cpp:399] conv2/3x3 -> conv2/3x3
I0403 14:16:10.445976  1063 net.cpp:141] Setting up conv2/3x3
I0403 14:16:10.446007  1063 net.cpp:148] Top shape: 24 192 56 56 (14450688)
I0403 14:16:10.446023  1063 net.cpp:156] Memory required for data: 303465504
I0403 14:16:10.446046  1063 layer_factory.hpp:77] Creating layer conv2/relu_3x3
I0403 14:16:10.446065  1063 net.cpp:91] Creating Layer conv2/relu_3x3
I0403 14:16:10.446082  1063 net.cpp:425] conv2/relu_3x3 <- conv2/3x3
I0403 14:16:10.446101  1063 net.cpp:386] conv2/relu_3x3 -> conv2/3x3 (in-place)
I0403 14:16:10.446267  1063 net.cpp:141] Setting up conv2/relu_3x3
I0403 14:16:10.446295  1063 net.cpp:148] Top shape: 24 192 56 56 (14450688)
I0403 14:16:10.446341  1063 net.cpp:156] Memory required for data: 361268256
I0403 14:16:10.446357  1063 layer_factory.hpp:77] Creating layer conv2/norm2
I0403 14:16:10.446374  1063 net.cpp:91] Creating Layer conv2/norm2
I0403 14:16:10.446390  1063 net.cpp:425] conv2/norm2 <- conv2/3x3
I0403 14:16:10.446408  1063 net.cpp:399] conv2/norm2 -> conv2/norm2
I0403 14:16:10.446693  1063 net.cpp:141] Setting up conv2/norm2
I0403 14:16:10.446720  1063 net.cpp:148] Top shape: 24 192 56 56 (14450688)
I0403 14:16:10.446735  1063 net.cpp:156] Memory required for data: 419071008
I0403 14:16:10.446750  1063 layer_factory.hpp:77] Creating layer pool2/3x3_s2
I0403 14:16:10.446768  1063 net.cpp:91] Creating Layer pool2/3x3_s2
I0403 14:16:10.446784  1063 net.cpp:425] pool2/3x3_s2 <- conv2/norm2
I0403 14:16:10.446802  1063 net.cpp:399] pool2/3x3_s2 -> pool2/3x3_s2
I0403 14:16:10.446851  1063 net.cpp:141] Setting up pool2/3x3_s2
I0403 14:16:10.446874  1063 net.cpp:148] Top shape: 24 192 28 28 (3612672)
I0403 14:16:10.446889  1063 net.cpp:156] Memory required for data: 433521696
I0403 14:16:10.446904  1063 layer_factory.hpp:77] Creating layer pool2/3x3_s2_pool2/3x3_s2_0_split
I0403 14:16:10.446921  1063 net.cpp:91] Creating Layer pool2/3x3_s2_pool2/3x3_s2_0_split
I0403 14:16:10.446936  1063 net.cpp:425] pool2/3x3_s2_pool2/3x3_s2_0_split <- pool2/3x3_s2
I0403 14:16:10.446954  1063 net.cpp:399] pool2/3x3_s2_pool2/3x3_s2_0_split -> pool2/3x3_s2_pool2/3x3_s2_0_split_0
I0403 14:16:10.446974  1063 net.cpp:399] pool2/3x3_s2_pool2/3x3_s2_0_split -> pool2/3x3_s2_pool2/3x3_s2_0_split_1
I0403 14:16:10.446993  1063 net.cpp:399] pool2/3x3_s2_pool2/3x3_s2_0_split -> pool2/3x3_s2_pool2/3x3_s2_0_split_2
I0403 14:16:10.447013  1063 net.cpp:399] pool2/3x3_s2_pool2/3x3_s2_0_split -> pool2/3x3_s2_pool2/3x3_s2_0_split_3
I0403 14:16:10.447077  1063 net.cpp:141] Setting up pool2/3x3_s2_pool2/3x3_s2_0_split
I0403 14:16:10.447099  1063 net.cpp:148] Top shape: 24 192 28 28 (3612672)
I0403 14:16:10.447116  1063 net.cpp:148] Top shape: 24 192 28 28 (3612672)
I0403 14:16:10.447132  1063 net.cpp:148] Top shape: 24 192 28 28 (3612672)
I0403 14:16:10.447147  1063 net.cpp:148] Top shape: 24 192 28 28 (3612672)
I0403 14:16:10.447161  1063 net.cpp:156] Memory required for data: 491324448
I0403 14:16:10.447175  1063 layer_factory.hpp:77] Creating layer inception_3a/1x1
I0403 14:16:10.447202  1063 net.cpp:91] Creating Layer inception_3a/1x1
I0403 14:16:10.447219  1063 net.cpp:425] inception_3a/1x1 <- pool2/3x3_s2_pool2/3x3_s2_0_split_0
I0403 14:16:10.447237  1063 net.cpp:399] inception_3a/1x1 -> inception_3a/1x1
I0403 14:16:10.448714  1063 net.cpp:141] Setting up inception_3a/1x1
I0403 14:16:10.448741  1063 net.cpp:148] Top shape: 24 64 28 28 (1204224)
I0403 14:16:10.448757  1063 net.cpp:156] Memory required for data: 496141344
I0403 14:16:10.448776  1063 layer_factory.hpp:77] Creating layer inception_3a/relu_1x1
I0403 14:16:10.448793  1063 net.cpp:91] Creating Layer inception_3a/relu_1x1
I0403 14:16:10.448808  1063 net.cpp:425] inception_3a/relu_1x1 <- inception_3a/1x1
I0403 14:16:10.448825  1063 net.cpp:386] inception_3a/relu_1x1 -> inception_3a/1x1 (in-place)
I0403 14:16:10.448977  1063 net.cpp:141] Setting up inception_3a/relu_1x1
I0403 14:16:10.449002  1063 net.cpp:148] Top shape: 24 64 28 28 (1204224)
I0403 14:16:10.449017  1063 net.cpp:156] Memory required for data: 500958240
I0403 14:16:10.449030  1063 layer_factory.hpp:77] Creating layer inception_3a/3x3_reduce
I0403 14:16:10.449054  1063 net.cpp:91] Creating Layer inception_3a/3x3_reduce
I0403 14:16:10.449071  1063 net.cpp:425] inception_3a/3x3_reduce <- pool2/3x3_s2_pool2/3x3_s2_0_split_1
I0403 14:16:10.449090  1063 net.cpp:399] inception_3a/3x3_reduce -> inception_3a/3x3_reduce
I0403 14:16:10.450798  1063 net.cpp:141] Setting up inception_3a/3x3_reduce
I0403 14:16:10.450829  1063 net.cpp:148] Top shape: 24 96 28 28 (1806336)
I0403 14:16:10.450845  1063 net.cpp:156] Memory required for data: 508183584
I0403 14:16:10.450867  1063 layer_factory.hpp:77] Creating layer inception_3a/relu_3x3_reduce
I0403 14:16:10.450906  1063 net.cpp:91] Creating Layer inception_3a/relu_3x3_reduce
I0403 14:16:10.450923  1063 net.cpp:425] inception_3a/relu_3x3_reduce <- inception_3a/3x3_reduce
I0403 14:16:10.450942  1063 net.cpp:386] inception_3a/relu_3x3_reduce -> inception_3a/3x3_reduce (in-place)
I0403 14:16:10.451122  1063 net.cpp:141] Setting up inception_3a/relu_3x3_reduce
I0403 14:16:10.451148  1063 net.cpp:148] Top shape: 24 96 28 28 (1806336)
I0403 14:16:10.451162  1063 net.cpp:156] Memory required for data: 515408928
I0403 14:16:10.451181  1063 layer_factory.hpp:77] Creating layer inception_3a/3x3
I0403 14:16:10.451206  1063 net.cpp:91] Creating Layer inception_3a/3x3
I0403 14:16:10.451225  1063 net.cpp:425] inception_3a/3x3 <- inception_3a/3x3_reduce
I0403 14:16:10.451246  1063 net.cpp:399] inception_3a/3x3 -> inception_3a/3x3
I0403 14:16:10.452875  1063 net.cpp:141] Setting up inception_3a/3x3
I0403 14:16:10.452903  1063 net.cpp:148] Top shape: 24 128 28 28 (2408448)
I0403 14:16:10.452919  1063 net.cpp:156] Memory required for data: 525042720
I0403 14:16:10.452939  1063 layer_factory.hpp:77] Creating layer inception_3a/relu_3x3
I0403 14:16:10.452960  1063 net.cpp:91] Creating Layer inception_3a/relu_3x3
I0403 14:16:10.452975  1063 net.cpp:425] inception_3a/relu_3x3 <- inception_3a/3x3
I0403 14:16:10.452993  1063 net.cpp:386] inception_3a/relu_3x3 -> inception_3a/3x3 (in-place)
I0403 14:16:10.453290  1063 net.cpp:141] Setting up inception_3a/relu_3x3
I0403 14:16:10.453318  1063 net.cpp:148] Top shape: 24 128 28 28 (2408448)
I0403 14:16:10.453335  1063 net.cpp:156] Memory required for data: 534676512
I0403 14:16:10.453349  1063 layer_factory.hpp:77] Creating layer inception_3a/5x5_reduce
I0403 14:16:10.453374  1063 net.cpp:91] Creating Layer inception_3a/5x5_reduce
I0403 14:16:10.453392  1063 net.cpp:425] inception_3a/5x5_reduce <- pool2/3x3_s2_pool2/3x3_s2_0_split_2
I0403 14:16:10.453414  1063 net.cpp:399] inception_3a/5x5_reduce -> inception_3a/5x5_reduce
I0403 14:16:10.454381  1063 net.cpp:141] Setting up inception_3a/5x5_reduce
I0403 14:16:10.454408  1063 net.cpp:148] Top shape: 24 16 28 28 (301056)
I0403 14:16:10.454424  1063 net.cpp:156] Memory required for data: 535880736
I0403 14:16:10.454443  1063 layer_factory.hpp:77] Creating layer inception_3a/relu_5x5_reduce
I0403 14:16:10.454466  1063 net.cpp:91] Creating Layer inception_3a/relu_5x5_reduce
I0403 14:16:10.454483  1063 net.cpp:425] inception_3a/relu_5x5_reduce <- inception_3a/5x5_reduce
I0403 14:16:10.454500  1063 net.cpp:386] inception_3a/relu_5x5_reduce -> inception_3a/5x5_reduce (in-place)
I0403 14:16:10.454794  1063 net.cpp:141] Setting up inception_3a/relu_5x5_reduce
I0403 14:16:10.454823  1063 net.cpp:148] Top shape: 24 16 28 28 (301056)
I0403 14:16:10.454840  1063 net.cpp:156] Memory required for data: 537084960
I0403 14:16:10.454855  1063 layer_factory.hpp:77] Creating layer inception_3a/5x5
I0403 14:16:10.454877  1063 net.cpp:91] Creating Layer inception_3a/5x5
I0403 14:16:10.454895  1063 net.cpp:425] inception_3a/5x5 <- inception_3a/5x5_reduce
I0403 14:16:10.454915  1063 net.cpp:399] inception_3a/5x5 -> inception_3a/5x5
I0403 14:16:10.455914  1063 net.cpp:141] Setting up inception_3a/5x5
I0403 14:16:10.455942  1063 net.cpp:148] Top shape: 24 32 28 28 (602112)
I0403 14:16:10.455960  1063 net.cpp:156] Memory required for data: 539493408
I0403 14:16:10.455977  1063 layer_factory.hpp:77] Creating layer inception_3a/relu_5x5
I0403 14:16:10.455997  1063 net.cpp:91] Creating Layer inception_3a/relu_5x5
I0403 14:16:10.456014  1063 net.cpp:425] inception_3a/relu_5x5 <- inception_3a/5x5
I0403 14:16:10.456032  1063 net.cpp:386] inception_3a/relu_5x5 -> inception_3a/5x5 (in-place)
I0403 14:16:10.456207  1063 net.cpp:141] Setting up inception_3a/relu_5x5
I0403 14:16:10.456231  1063 net.cpp:148] Top shape: 24 32 28 28 (602112)
I0403 14:16:10.456246  1063 net.cpp:156] Memory required for data: 541901856
I0403 14:16:10.456261  1063 layer_factory.hpp:77] Creating layer inception_3a/pool
I0403 14:16:10.456281  1063 net.cpp:91] Creating Layer inception_3a/pool
I0403 14:16:10.456310  1063 net.cpp:425] inception_3a/pool <- pool2/3x3_s2_pool2/3x3_s2_0_split_3
I0403 14:16:10.456329  1063 net.cpp:399] inception_3a/pool -> inception_3a/pool
I0403 14:16:10.456389  1063 net.cpp:141] Setting up inception_3a/pool
I0403 14:16:10.456413  1063 net.cpp:148] Top shape: 24 192 28 28 (3612672)
I0403 14:16:10.456426  1063 net.cpp:156] Memory required for data: 556352544
I0403 14:16:10.456441  1063 layer_factory.hpp:77] Creating layer inception_3a/pool_proj
I0403 14:16:10.456464  1063 net.cpp:91] Creating Layer inception_3a/pool_proj
I0403 14:16:10.456481  1063 net.cpp:425] inception_3a/pool_proj <- inception_3a/pool
I0403 14:16:10.456502  1063 net.cpp:399] inception_3a/pool_proj -> inception_3a/pool_proj
I0403 14:16:10.457463  1063 net.cpp:141] Setting up inception_3a/pool_proj
I0403 14:16:10.457492  1063 net.cpp:148] Top shape: 24 32 28 28 (602112)
I0403 14:16:10.457509  1063 net.cpp:156] Memory required for data: 558760992
I0403 14:16:10.457533  1063 layer_factory.hpp:77] Creating layer inception_3a/relu_pool_proj
I0403 14:16:10.457552  1063 net.cpp:91] Creating Layer inception_3a/relu_pool_proj
I0403 14:16:10.457568  1063 net.cpp:425] inception_3a/relu_pool_proj <- inception_3a/pool_proj
I0403 14:16:10.457587  1063 net.cpp:386] inception_3a/relu_pool_proj -> inception_3a/pool_proj (in-place)
I0403 14:16:10.457861  1063 net.cpp:141] Setting up inception_3a/relu_pool_proj
I0403 14:16:10.457886  1063 net.cpp:148] Top shape: 24 32 28 28 (602112)
I0403 14:16:10.457901  1063 net.cpp:156] Memory required for data: 561169440
I0403 14:16:10.457916  1063 layer_factory.hpp:77] Creating layer inception_3a/output
I0403 14:16:10.457937  1063 net.cpp:91] Creating Layer inception_3a/output
I0403 14:16:10.457954  1063 net.cpp:425] inception_3a/output <- inception_3a/1x1
I0403 14:16:10.457972  1063 net.cpp:425] inception_3a/output <- inception_3a/3x3
I0403 14:16:10.457988  1063 net.cpp:425] inception_3a/output <- inception_3a/5x5
I0403 14:16:10.458003  1063 net.cpp:425] inception_3a/output <- inception_3a/pool_proj
I0403 14:16:10.458020  1063 net.cpp:399] inception_3a/output -> inception_3a/output
I0403 14:16:10.458070  1063 net.cpp:141] Setting up inception_3a/output
I0403 14:16:10.458092  1063 net.cpp:148] Top shape: 24 256 28 28 (4816896)
I0403 14:16:10.458107  1063 net.cpp:156] Memory required for data: 580437024
I0403 14:16:10.458123  1063 layer_factory.hpp:77] Creating layer inception_3a/output_inception_3a/output_0_split
I0403 14:16:10.458140  1063 net.cpp:91] Creating Layer inception_3a/output_inception_3a/output_0_split
I0403 14:16:10.458156  1063 net.cpp:425] inception_3a/output_inception_3a/output_0_split <- inception_3a/output
I0403 14:16:10.458175  1063 net.cpp:399] inception_3a/output_inception_3a/output_0_split -> inception_3a/output_inception_3a/output_0_split_0
I0403 14:16:10.458214  1063 net.cpp:399] inception_3a/output_inception_3a/output_0_split -> inception_3a/output_inception_3a/output_0_split_1
I0403 14:16:10.458237  1063 net.cpp:399] inception_3a/output_inception_3a/output_0_split -> inception_3a/output_inception_3a/output_0_split_2
I0403 14:16:10.458259  1063 net.cpp:399] inception_3a/output_inception_3a/output_0_split -> inception_3a/output_inception_3a/output_0_split_3
I0403 14:16:10.458333  1063 net.cpp:141] Setting up inception_3a/output_inception_3a/output_0_split
I0403 14:16:10.458355  1063 net.cpp:148] Top shape: 24 256 28 28 (4816896)
I0403 14:16:10.458374  1063 net.cpp:148] Top shape: 24 256 28 28 (4816896)
I0403 14:16:10.458390  1063 net.cpp:148] Top shape: 24 256 28 28 (4816896)
I0403 14:16:10.458406  1063 net.cpp:148] Top shape: 24 256 28 28 (4816896)
I0403 14:16:10.458420  1063 net.cpp:156] Memory required for data: 657507360
I0403 14:16:10.458436  1063 layer_factory.hpp:77] Creating layer inception_3b/1x1
I0403 14:16:10.458458  1063 net.cpp:91] Creating Layer inception_3b/1x1
I0403 14:16:10.458477  1063 net.cpp:425] inception_3b/1x1 <- inception_3a/output_inception_3a/output_0_split_0
I0403 14:16:10.458498  1063 net.cpp:399] inception_3b/1x1 -> inception_3b/1x1
I0403 14:16:10.459619  1063 net.cpp:141] Setting up inception_3b/1x1
I0403 14:16:10.459659  1063 net.cpp:148] Top shape: 24 128 28 28 (2408448)
I0403 14:16:10.459677  1063 net.cpp:156] Memory required for data: 667141152
I0403 14:16:10.459697  1063 layer_factory.hpp:77] Creating layer inception_3b/relu_1x1
I0403 14:16:10.459715  1063 net.cpp:91] Creating Layer inception_3b/relu_1x1
I0403 14:16:10.459731  1063 net.cpp:425] inception_3b/relu_1x1 <- inception_3b/1x1
I0403 14:16:10.459750  1063 net.cpp:386] inception_3b/relu_1x1 -> inception_3b/1x1 (in-place)
I0403 14:16:10.459921  1063 net.cpp:141] Setting up inception_3b/relu_1x1
I0403 14:16:10.459946  1063 net.cpp:148] Top shape: 24 128 28 28 (2408448)
I0403 14:16:10.459961  1063 net.cpp:156] Memory required for data: 676774944
I0403 14:16:10.459976  1063 layer_factory.hpp:77] Creating layer inception_3b/3x3_reduce
I0403 14:16:10.459998  1063 net.cpp:91] Creating Layer inception_3b/3x3_reduce
I0403 14:16:10.460016  1063 net.cpp:425] inception_3b/3x3_reduce <- inception_3a/output_inception_3a/output_0_split_1
I0403 14:16:10.460038  1063 net.cpp:399] inception_3b/3x3_reduce -> inception_3b/3x3_reduce
I0403 14:16:10.461145  1063 net.cpp:141] Setting up inception_3b/3x3_reduce
I0403 14:16:10.461174  1063 net.cpp:148] Top shape: 24 128 28 28 (2408448)
I0403 14:16:10.461196  1063 net.cpp:156] Memory required for data: 686408736
I0403 14:16:10.461216  1063 layer_factory.hpp:77] Creating layer inception_3b/relu_3x3_reduce
I0403 14:16:10.461238  1063 net.cpp:91] Creating Layer inception_3b/relu_3x3_reduce
I0403 14:16:10.461254  1063 net.cpp:425] inception_3b/relu_3x3_reduce <- inception_3b/3x3_reduce
I0403 14:16:10.461272  1063 net.cpp:386] inception_3b/relu_3x3_reduce -> inception_3b/3x3_reduce (in-place)
I0403 14:16:10.461454  1063 net.cpp:141] Setting up inception_3b/relu_3x3_reduce
I0403 14:16:10.461479  1063 net.cpp:148] Top shape: 24 128 28 28 (2408448)
I0403 14:16:10.461494  1063 net.cpp:156] Memory required for data: 696042528
I0403 14:16:10.461509  1063 layer_factory.hpp:77] Creating layer inception_3b/3x3
I0403 14:16:10.461535  1063 net.cpp:91] Creating Layer inception_3b/3x3
I0403 14:16:10.461552  1063 net.cpp:425] inception_3b/3x3 <- inception_3b/3x3_reduce
I0403 14:16:10.461572  1063 net.cpp:399] inception_3b/3x3 -> inception_3b/3x3
I0403 14:16:10.464524  1063 net.cpp:141] Setting up inception_3b/3x3
I0403 14:16:10.464555  1063 net.cpp:148] Top shape: 24 192 28 28 (3612672)
I0403 14:16:10.464570  1063 net.cpp:156] Memory required for data: 710493216
I0403 14:16:10.464589  1063 layer_factory.hpp:77] Creating layer inception_3b/relu_3x3
I0403 14:16:10.464610  1063 net.cpp:91] Creating Layer inception_3b/relu_3x3
I0403 14:16:10.464627  1063 net.cpp:425] inception_3b/relu_3x3 <- inception_3b/3x3
I0403 14:16:10.464644  1063 net.cpp:386] inception_3b/relu_3x3 -> inception_3b/3x3 (in-place)
I0403 14:16:10.464920  1063 net.cpp:141] Setting up inception_3b/relu_3x3
I0403 14:16:10.464946  1063 net.cpp:148] Top shape: 24 192 28 28 (3612672)
I0403 14:16:10.464962  1063 net.cpp:156] Memory required for data: 724943904
I0403 14:16:10.464977  1063 layer_factory.hpp:77] Creating layer inception_3b/5x5_reduce
I0403 14:16:10.464999  1063 net.cpp:91] Creating Layer inception_3b/5x5_reduce
I0403 14:16:10.465018  1063 net.cpp:425] inception_3b/5x5_reduce <- inception_3a/output_inception_3a/output_0_split_2
I0403 14:16:10.465040  1063 net.cpp:399] inception_3b/5x5_reduce -> inception_3b/5x5_reduce
I0403 14:16:10.466030  1063 net.cpp:141] Setting up inception_3b/5x5_reduce
I0403 14:16:10.466060  1063 net.cpp:148] Top shape: 24 32 28 28 (602112)
I0403 14:16:10.466076  1063 net.cpp:156] Memory required for data: 727352352
I0403 14:16:10.466096  1063 layer_factory.hpp:77] Creating layer inception_3b/relu_5x5_reduce
I0403 14:16:10.466117  1063 net.cpp:91] Creating Layer inception_3b/relu_5x5_reduce
I0403 14:16:10.466136  1063 net.cpp:425] inception_3b/relu_5x5_reduce <- inception_3b/5x5_reduce
I0403 14:16:10.466153  1063 net.cpp:386] inception_3b/relu_5x5_reduce -> inception_3b/5x5_reduce (in-place)
I0403 14:16:10.466362  1063 net.cpp:141] Setting up inception_3b/relu_5x5_reduce
I0403 14:16:10.466388  1063 net.cpp:148] Top shape: 24 32 28 28 (602112)
I0403 14:16:10.466403  1063 net.cpp:156] Memory required for data: 729760800
I0403 14:16:10.466419  1063 layer_factory.hpp:77] Creating layer inception_3b/5x5
I0403 14:16:10.466444  1063 net.cpp:91] Creating Layer inception_3b/5x5
I0403 14:16:10.466475  1063 net.cpp:425] inception_3b/5x5 <- inception_3b/5x5_reduce
I0403 14:16:10.466493  1063 net.cpp:399] inception_3b/5x5 -> inception_3b/5x5
I0403 14:16:10.468461  1063 net.cpp:141] Setting up inception_3b/5x5
I0403 14:16:10.468492  1063 net.cpp:148] Top shape: 24 96 28 28 (1806336)
I0403 14:16:10.468508  1063 net.cpp:156] Memory required for data: 736986144
I0403 14:16:10.468526  1063 layer_factory.hpp:77] Creating layer inception_3b/relu_5x5
I0403 14:16:10.468545  1063 net.cpp:91] Creating Layer inception_3b/relu_5x5
I0403 14:16:10.468592  1063 net.cpp:425] inception_3b/relu_5x5 <- inception_3b/5x5
I0403 14:16:10.468611  1063 net.cpp:386] inception_3b/relu_5x5 -> inception_3b/5x5 (in-place)
I0403 14:16:10.468803  1063 net.cpp:141] Setting up inception_3b/relu_5x5
I0403 14:16:10.468829  1063 net.cpp:148] Top shape: 24 96 28 28 (1806336)
I0403 14:16:10.468858  1063 net.cpp:156] Memory required for data: 744211488
I0403 14:16:10.468873  1063 layer_factory.hpp:77] Creating layer inception_3b/pool
I0403 14:16:10.468889  1063 net.cpp:91] Creating Layer inception_3b/pool
I0403 14:16:10.468905  1063 net.cpp:425] inception_3b/pool <- inception_3a/output_inception_3a/output_0_split_3
I0403 14:16:10.468924  1063 net.cpp:399] inception_3b/pool -> inception_3b/pool
I0403 14:16:10.468982  1063 net.cpp:141] Setting up inception_3b/pool
I0403 14:16:10.469005  1063 net.cpp:148] Top shape: 24 256 28 28 (4816896)
I0403 14:16:10.469020  1063 net.cpp:156] Memory required for data: 763479072
I0403 14:16:10.469034  1063 layer_factory.hpp:77] Creating layer inception_3b/pool_proj
I0403 14:16:10.469056  1063 net.cpp:91] Creating Layer inception_3b/pool_proj
I0403 14:16:10.469074  1063 net.cpp:425] inception_3b/pool_proj <- inception_3b/pool
I0403 14:16:10.469094  1063 net.cpp:399] inception_3b/pool_proj -> inception_3b/pool_proj
I0403 14:16:10.470135  1063 net.cpp:141] Setting up inception_3b/pool_proj
I0403 14:16:10.470165  1063 net.cpp:148] Top shape: 24 64 28 28 (1204224)
I0403 14:16:10.470186  1063 net.cpp:156] Memory required for data: 768295968
I0403 14:16:10.470206  1063 layer_factory.hpp:77] Creating layer inception_3b/relu_pool_proj
I0403 14:16:10.470224  1063 net.cpp:91] Creating Layer inception_3b/relu_pool_proj
I0403 14:16:10.470240  1063 net.cpp:425] inception_3b/relu_pool_proj <- inception_3b/pool_proj
I0403 14:16:10.470260  1063 net.cpp:386] inception_3b/relu_pool_proj -> inception_3b/pool_proj (in-place)
I0403 14:16:10.470651  1063 net.cpp:141] Setting up inception_3b/relu_pool_proj
I0403 14:16:10.470680  1063 net.cpp:148] Top shape: 24 64 28 28 (1204224)
I0403 14:16:10.470697  1063 net.cpp:156] Memory required for data: 773112864
I0403 14:16:10.470712  1063 layer_factory.hpp:77] Creating layer inception_3b/output
I0403 14:16:10.470729  1063 net.cpp:91] Creating Layer inception_3b/output
I0403 14:16:10.470746  1063 net.cpp:425] inception_3b/output <- inception_3b/1x1
I0403 14:16:10.470762  1063 net.cpp:425] inception_3b/output <- inception_3b/3x3
I0403 14:16:10.470778  1063 net.cpp:425] inception_3b/output <- inception_3b/5x5
I0403 14:16:10.470794  1063 net.cpp:425] inception_3b/output <- inception_3b/pool_proj
I0403 14:16:10.470811  1063 net.cpp:399] inception_3b/output -> inception_3b/output
I0403 14:16:10.470856  1063 net.cpp:141] Setting up inception_3b/output
I0403 14:16:10.470880  1063 net.cpp:148] Top shape: 24 480 28 28 (9031680)
I0403 14:16:10.470895  1063 net.cpp:156] Memory required for data: 809239584
I0403 14:16:10.470909  1063 layer_factory.hpp:77] Creating layer pool3/3x3_s2
I0403 14:16:10.470929  1063 net.cpp:91] Creating Layer pool3/3x3_s2
I0403 14:16:10.470945  1063 net.cpp:425] pool3/3x3_s2 <- inception_3b/output
I0403 14:16:10.470978  1063 net.cpp:399] pool3/3x3_s2 -> pool3/3x3_s2
I0403 14:16:10.471037  1063 net.cpp:141] Setting up pool3/3x3_s2
I0403 14:16:10.471060  1063 net.cpp:148] Top shape: 24 480 14 14 (2257920)
I0403 14:16:10.471076  1063 net.cpp:156] Memory required for data: 818271264
I0403 14:16:10.471091  1063 layer_factory.hpp:77] Creating layer pool3/3x3_s2_pool3/3x3_s2_0_split
I0403 14:16:10.471107  1063 net.cpp:91] Creating Layer pool3/3x3_s2_pool3/3x3_s2_0_split
I0403 14:16:10.471123  1063 net.cpp:425] pool3/3x3_s2_pool3/3x3_s2_0_split <- pool3/3x3_s2
I0403 14:16:10.471153  1063 net.cpp:399] pool3/3x3_s2_pool3/3x3_s2_0_split -> pool3/3x3_s2_pool3/3x3_s2_0_split_0
I0403 14:16:10.471174  1063 net.cpp:399] pool3/3x3_s2_pool3/3x3_s2_0_split -> pool3/3x3_s2_pool3/3x3_s2_0_split_1
I0403 14:16:10.471199  1063 net.cpp:399] pool3/3x3_s2_pool3/3x3_s2_0_split -> pool3/3x3_s2_pool3/3x3_s2_0_split_2
I0403 14:16:10.471217  1063 net.cpp:399] pool3/3x3_s2_pool3/3x3_s2_0_split -> pool3/3x3_s2_pool3/3x3_s2_0_split_3
I0403 14:16:10.471295  1063 net.cpp:141] Setting up pool3/3x3_s2_pool3/3x3_s2_0_split
I0403 14:16:10.471319  1063 net.cpp:148] Top shape: 24 480 14 14 (2257920)
I0403 14:16:10.471336  1063 net.cpp:148] Top shape: 24 480 14 14 (2257920)
I0403 14:16:10.471351  1063 net.cpp:148] Top shape: 24 480 14 14 (2257920)
I0403 14:16:10.471366  1063 net.cpp:148] Top shape: 24 480 14 14 (2257920)
I0403 14:16:10.471379  1063 net.cpp:156] Memory required for data: 854397984
I0403 14:16:10.471395  1063 layer_factory.hpp:77] Creating layer inception_4a/1x1
I0403 14:16:10.471415  1063 net.cpp:91] Creating Layer inception_4a/1x1
I0403 14:16:10.471432  1063 net.cpp:425] inception_4a/1x1 <- pool3/3x3_s2_pool3/3x3_s2_0_split_0
I0403 14:16:10.471451  1063 net.cpp:399] inception_4a/1x1 -> inception_4a/1x1
I0403 14:16:10.472980  1063 net.cpp:141] Setting up inception_4a/1x1
I0403 14:16:10.473009  1063 net.cpp:148] Top shape: 24 192 14 14 (903168)
I0403 14:16:10.473026  1063 net.cpp:156] Memory required for data: 858010656
I0403 14:16:10.473044  1063 layer_factory.hpp:77] Creating layer inception_4a/relu_1x1
I0403 14:16:10.473063  1063 net.cpp:91] Creating Layer inception_4a/relu_1x1
I0403 14:16:10.473078  1063 net.cpp:425] inception_4a/relu_1x1 <- inception_4a/1x1
I0403 14:16:10.473098  1063 net.cpp:386] inception_4a/relu_1x1 -> inception_4a/1x1 (in-place)
I0403 14:16:10.473276  1063 net.cpp:141] Setting up inception_4a/relu_1x1
I0403 14:16:10.473301  1063 net.cpp:148] Top shape: 24 192 14 14 (903168)
I0403 14:16:10.473315  1063 net.cpp:156] Memory required for data: 861623328
I0403 14:16:10.473330  1063 layer_factory.hpp:77] Creating layer inception_4a/3x3_reduce
I0403 14:16:10.473352  1063 net.cpp:91] Creating Layer inception_4a/3x3_reduce
I0403 14:16:10.473369  1063 net.cpp:425] inception_4a/3x3_reduce <- pool3/3x3_s2_pool3/3x3_s2_0_split_1
I0403 14:16:10.473390  1063 net.cpp:399] inception_4a/3x3_reduce -> inception_4a/3x3_reduce
I0403 14:16:10.474647  1063 net.cpp:141] Setting up inception_4a/3x3_reduce
I0403 14:16:10.474678  1063 net.cpp:148] Top shape: 24 96 14 14 (451584)
I0403 14:16:10.474694  1063 net.cpp:156] Memory required for data: 863429664
I0403 14:16:10.474719  1063 layer_factory.hpp:77] Creating layer inception_4a/relu_3x3_reduce
I0403 14:16:10.474740  1063 net.cpp:91] Creating Layer inception_4a/relu_3x3_reduce
I0403 14:16:10.474757  1063 net.cpp:425] inception_4a/relu_3x3_reduce <- inception_4a/3x3_reduce
I0403 14:16:10.474776  1063 net.cpp:386] inception_4a/relu_3x3_reduce -> inception_4a/3x3_reduce (in-place)
I0403 14:16:10.474942  1063 net.cpp:141] Setting up inception_4a/relu_3x3_reduce
I0403 14:16:10.474967  1063 net.cpp:148] Top shape: 24 96 14 14 (451584)
I0403 14:16:10.474982  1063 net.cpp:156] Memory required for data: 865236000
I0403 14:16:10.474999  1063 layer_factory.hpp:77] Creating layer inception_4a/3x3
I0403 14:16:10.475021  1063 net.cpp:91] Creating Layer inception_4a/3x3
I0403 14:16:10.475039  1063 net.cpp:425] inception_4a/3x3 <- inception_4a/3x3_reduce
I0403 14:16:10.475059  1063 net.cpp:399] inception_4a/3x3 -> inception_4a/3x3
I0403 14:16:10.477722  1063 net.cpp:141] Setting up inception_4a/3x3
I0403 14:16:10.477752  1063 net.cpp:148] Top shape: 24 208 14 14 (978432)
I0403 14:16:10.477769  1063 net.cpp:156] Memory required for data: 869149728
I0403 14:16:10.477788  1063 layer_factory.hpp:77] Creating layer inception_4a/relu_3x3
I0403 14:16:10.477810  1063 net.cpp:91] Creating Layer inception_4a/relu_3x3
I0403 14:16:10.477828  1063 net.cpp:425] inception_4a/relu_3x3 <- inception_4a/3x3
I0403 14:16:10.477846  1063 net.cpp:386] inception_4a/relu_3x3 -> inception_4a/3x3 (in-place)
I0403 14:16:10.478116  1063 net.cpp:141] Setting up inception_4a/relu_3x3
I0403 14:16:10.478143  1063 net.cpp:148] Top shape: 24 208 14 14 (978432)
I0403 14:16:10.478159  1063 net.cpp:156] Memory required for data: 873063456
I0403 14:16:10.478175  1063 layer_factory.hpp:77] Creating layer inception_4a/5x5_reduce
I0403 14:16:10.478204  1063 net.cpp:91] Creating Layer inception_4a/5x5_reduce
I0403 14:16:10.478224  1063 net.cpp:425] inception_4a/5x5_reduce <- pool3/3x3_s2_pool3/3x3_s2_0_split_2
I0403 14:16:10.478245  1063 net.cpp:399] inception_4a/5x5_reduce -> inception_4a/5x5_reduce
I0403 14:16:10.479233  1063 net.cpp:141] Setting up inception_4a/5x5_reduce
I0403 14:16:10.479262  1063 net.cpp:148] Top shape: 24 16 14 14 (75264)
I0403 14:16:10.479279  1063 net.cpp:156] Memory required for data: 873364512
I0403 14:16:10.479297  1063 layer_factory.hpp:77] Creating layer inception_4a/relu_5x5_reduce
I0403 14:16:10.479317  1063 net.cpp:91] Creating Layer inception_4a/relu_5x5_reduce
I0403 14:16:10.479334  1063 net.cpp:425] inception_4a/relu_5x5_reduce <- inception_4a/5x5_reduce
I0403 14:16:10.479352  1063 net.cpp:386] inception_4a/relu_5x5_reduce -> inception_4a/5x5_reduce (in-place)
I0403 14:16:10.479527  1063 net.cpp:141] Setting up inception_4a/relu_5x5_reduce
I0403 14:16:10.479552  1063 net.cpp:148] Top shape: 24 16 14 14 (75264)
I0403 14:16:10.479568  1063 net.cpp:156] Memory required for data: 873665568
I0403 14:16:10.479583  1063 layer_factory.hpp:77] Creating layer inception_4a/5x5
I0403 14:16:10.479607  1063 net.cpp:91] Creating Layer inception_4a/5x5
I0403 14:16:10.479625  1063 net.cpp:425] inception_4a/5x5 <- inception_4a/5x5_reduce
I0403 14:16:10.479643  1063 net.cpp:399] inception_4a/5x5 -> inception_4a/5x5
I0403 14:16:10.480693  1063 net.cpp:141] Setting up inception_4a/5x5
I0403 14:16:10.480725  1063 net.cpp:148] Top shape: 24 48 14 14 (225792)
I0403 14:16:10.480741  1063 net.cpp:156] Memory required for data: 874568736
I0403 14:16:10.480761  1063 layer_factory.hpp:77] Creating layer inception_4a/relu_5x5
I0403 14:16:10.480778  1063 net.cpp:91] Creating Layer inception_4a/relu_5x5
I0403 14:16:10.480795  1063 net.cpp:425] inception_4a/relu_5x5 <- inception_4a/5x5
I0403 14:16:10.480813  1063 net.cpp:386] inception_4a/relu_5x5 -> inception_4a/5x5 (in-place)
I0403 14:16:10.480983  1063 net.cpp:141] Setting up inception_4a/relu_5x5
I0403 14:16:10.481012  1063 net.cpp:148] Top shape: 24 48 14 14 (225792)
I0403 14:16:10.481029  1063 net.cpp:156] Memory required for data: 875471904
I0403 14:16:10.481043  1063 layer_factory.hpp:77] Creating layer inception_4a/pool
I0403 14:16:10.481061  1063 net.cpp:91] Creating Layer inception_4a/pool
I0403 14:16:10.481077  1063 net.cpp:425] inception_4a/pool <- pool3/3x3_s2_pool3/3x3_s2_0_split_3
I0403 14:16:10.481097  1063 net.cpp:399] inception_4a/pool -> inception_4a/pool
I0403 14:16:10.481158  1063 net.cpp:141] Setting up inception_4a/pool
I0403 14:16:10.481189  1063 net.cpp:148] Top shape: 24 480 14 14 (2257920)
I0403 14:16:10.481207  1063 net.cpp:156] Memory required for data: 884503584
I0403 14:16:10.481223  1063 layer_factory.hpp:77] Creating layer inception_4a/pool_proj
I0403 14:16:10.481245  1063 net.cpp:91] Creating Layer inception_4a/pool_proj
I0403 14:16:10.481263  1063 net.cpp:425] inception_4a/pool_proj <- inception_4a/pool
I0403 14:16:10.481282  1063 net.cpp:399] inception_4a/pool_proj -> inception_4a/pool_proj
I0403 14:16:10.482437  1063 net.cpp:141] Setting up inception_4a/pool_proj
I0403 14:16:10.482470  1063 net.cpp:148] Top shape: 24 64 14 14 (301056)
I0403 14:16:10.482501  1063 net.cpp:156] Memory required for data: 885707808
I0403 14:16:10.482520  1063 layer_factory.hpp:77] Creating layer inception_4a/relu_pool_proj
I0403 14:16:10.482538  1063 net.cpp:91] Creating Layer inception_4a/relu_pool_proj
I0403 14:16:10.482554  1063 net.cpp:425] inception_4a/relu_pool_proj <- inception_4a/pool_proj
I0403 14:16:10.482575  1063 net.cpp:386] inception_4a/relu_pool_proj -> inception_4a/pool_proj (in-place)
I0403 14:16:10.482853  1063 net.cpp:141] Setting up inception_4a/relu_pool_proj
I0403 14:16:10.482885  1063 net.cpp:148] Top shape: 24 64 14 14 (301056)
I0403 14:16:10.482903  1063 net.cpp:156] Memory required for data: 886912032
I0403 14:16:10.482918  1063 layer_factory.hpp:77] Creating layer inception_4a/output
I0403 14:16:10.482936  1063 net.cpp:91] Creating Layer inception_4a/output
I0403 14:16:10.482952  1063 net.cpp:425] inception_4a/output <- inception_4a/1x1
I0403 14:16:10.482969  1063 net.cpp:425] inception_4a/output <- inception_4a/3x3
I0403 14:16:10.482985  1063 net.cpp:425] inception_4a/output <- inception_4a/5x5
I0403 14:16:10.483000  1063 net.cpp:425] inception_4a/output <- inception_4a/pool_proj
I0403 14:16:10.483016  1063 net.cpp:399] inception_4a/output -> inception_4a/output
I0403 14:16:10.483063  1063 net.cpp:141] Setting up inception_4a/output
I0403 14:16:10.483086  1063 net.cpp:148] Top shape: 24 512 14 14 (2408448)
I0403 14:16:10.483101  1063 net.cpp:156] Memory required for data: 896545824
I0403 14:16:10.483115  1063 layer_factory.hpp:77] Creating layer inception_4a/output_inception_4a/output_0_split
I0403 14:16:10.483135  1063 net.cpp:91] Creating Layer inception_4a/output_inception_4a/output_0_split
I0403 14:16:10.483152  1063 net.cpp:425] inception_4a/output_inception_4a/output_0_split <- inception_4a/output
I0403 14:16:10.483170  1063 net.cpp:399] inception_4a/output_inception_4a/output_0_split -> inception_4a/output_inception_4a/output_0_split_0
I0403 14:16:10.483203  1063 net.cpp:399] inception_4a/output_inception_4a/output_0_split -> inception_4a/output_inception_4a/output_0_split_1
I0403 14:16:10.483227  1063 net.cpp:399] inception_4a/output_inception_4a/output_0_split -> inception_4a/output_inception_4a/output_0_split_2
I0403 14:16:10.483249  1063 net.cpp:399] inception_4a/output_inception_4a/output_0_split -> inception_4a/output_inception_4a/output_0_split_3
I0403 14:16:10.483270  1063 net.cpp:399] inception_4a/output_inception_4a/output_0_split -> inception_4a/output_inception_4a/output_0_split_4
I0403 14:16:10.483363  1063 net.cpp:141] Setting up inception_4a/output_inception_4a/output_0_split
I0403 14:16:10.483386  1063 net.cpp:148] Top shape: 24 512 14 14 (2408448)
I0403 14:16:10.483403  1063 net.cpp:148] Top shape: 24 512 14 14 (2408448)
I0403 14:16:10.483419  1063 net.cpp:148] Top shape: 24 512 14 14 (2408448)
I0403 14:16:10.483434  1063 net.cpp:148] Top shape: 24 512 14 14 (2408448)
I0403 14:16:10.483450  1063 net.cpp:148] Top shape: 24 512 14 14 (2408448)
I0403 14:16:10.483464  1063 net.cpp:156] Memory required for data: 944714784
I0403 14:16:10.483479  1063 layer_factory.hpp:77] Creating layer loss1/ave_pool
I0403 14:16:10.483499  1063 net.cpp:91] Creating Layer loss1/ave_pool
I0403 14:16:10.483515  1063 net.cpp:425] loss1/ave_pool <- inception_4a/output_inception_4a/output_0_split_0
I0403 14:16:10.483535  1063 net.cpp:399] loss1/ave_pool -> loss1/ave_pool
I0403 14:16:10.483739  1063 net.cpp:141] Setting up loss1/ave_pool
I0403 14:16:10.483767  1063 net.cpp:148] Top shape: 24 512 4 4 (196608)
I0403 14:16:10.483783  1063 net.cpp:156] Memory required for data: 945501216
I0403 14:16:10.483798  1063 layer_factory.hpp:77] Creating layer loss1/conv
I0403 14:16:10.483821  1063 net.cpp:91] Creating Layer loss1/conv
I0403 14:16:10.483839  1063 net.cpp:425] loss1/conv <- loss1/ave_pool
I0403 14:16:10.483858  1063 net.cpp:399] loss1/conv -> loss1/conv
I0403 14:16:10.485265  1063 net.cpp:141] Setting up loss1/conv
I0403 14:16:10.485294  1063 net.cpp:148] Top shape: 24 128 4 4 (49152)
I0403 14:16:10.485324  1063 net.cpp:156] Memory required for data: 945697824
I0403 14:16:10.485344  1063 layer_factory.hpp:77] Creating layer loss1/relu_conv
I0403 14:16:10.485368  1063 net.cpp:91] Creating Layer loss1/relu_conv
I0403 14:16:10.485385  1063 net.cpp:425] loss1/relu_conv <- loss1/conv
I0403 14:16:10.485404  1063 net.cpp:386] loss1/relu_conv -> loss1/conv (in-place)
I0403 14:16:10.485682  1063 net.cpp:141] Setting up loss1/relu_conv
I0403 14:16:10.485707  1063 net.cpp:148] Top shape: 24 128 4 4 (49152)
I0403 14:16:10.485723  1063 net.cpp:156] Memory required for data: 945894432
I0403 14:16:10.485738  1063 layer_factory.hpp:77] Creating layer loss1/fc
I0403 14:16:10.485764  1063 net.cpp:91] Creating Layer loss1/fc
I0403 14:16:10.485781  1063 net.cpp:425] loss1/fc <- loss1/conv
I0403 14:16:10.485800  1063 net.cpp:399] loss1/fc -> loss1/fc
I0403 14:16:10.503582  1063 net.cpp:141] Setting up loss1/fc
I0403 14:16:10.503640  1063 net.cpp:148] Top shape: 24 1024 (24576)
I0403 14:16:10.503657  1063 net.cpp:156] Memory required for data: 945992736
I0403 14:16:10.503679  1063 layer_factory.hpp:77] Creating layer loss1/relu_fc
I0403 14:16:10.503697  1063 net.cpp:91] Creating Layer loss1/relu_fc
I0403 14:16:10.503716  1063 net.cpp:425] loss1/relu_fc <- loss1/fc
I0403 14:16:10.503737  1063 net.cpp:386] loss1/relu_fc -> loss1/fc (in-place)
I0403 14:16:10.503944  1063 net.cpp:141] Setting up loss1/relu_fc
I0403 14:16:10.503969  1063 net.cpp:148] Top shape: 24 1024 (24576)
I0403 14:16:10.503983  1063 net.cpp:156] Memory required for data: 946091040
I0403 14:16:10.503998  1063 layer_factory.hpp:77] Creating layer loss1/drop_fc
I0403 14:16:10.504027  1063 net.cpp:91] Creating Layer loss1/drop_fc
I0403 14:16:10.504045  1063 net.cpp:425] loss1/drop_fc <- loss1/fc
I0403 14:16:10.504065  1063 net.cpp:386] loss1/drop_fc -> loss1/fc (in-place)
I0403 14:16:10.504118  1063 net.cpp:141] Setting up loss1/drop_fc
I0403 14:16:10.504140  1063 net.cpp:148] Top shape: 24 1024 (24576)
I0403 14:16:10.504154  1063 net.cpp:156] Memory required for data: 946189344
I0403 14:16:10.504170  1063 layer_factory.hpp:77] Creating layer loss1/classifier_plantvillage
I0403 14:16:10.504211  1063 net.cpp:91] Creating Layer loss1/classifier_plantvillage
I0403 14:16:10.504230  1063 net.cpp:425] loss1/classifier_plantvillage <- loss1/fc
I0403 14:16:10.504251  1063 net.cpp:399] loss1/classifier_plantvillage -> loss1/classifier_plantvillage
I0403 14:16:10.505193  1063 net.cpp:141] Setting up loss1/classifier_plantvillage
I0403 14:16:10.505223  1063 net.cpp:148] Top shape: 24 38 (912)
I0403 14:16:10.505239  1063 net.cpp:156] Memory required for data: 946192992
I0403 14:16:10.505257  1063 layer_factory.hpp:77] Creating layer loss1/classifier_plantvillage_loss1/classifier_plantvillage_0_split
I0403 14:16:10.505276  1063 net.cpp:91] Creating Layer loss1/classifier_plantvillage_loss1/classifier_plantvillage_0_split
I0403 14:16:10.505292  1063 net.cpp:425] loss1/classifier_plantvillage_loss1/classifier_plantvillage_0_split <- loss1/classifier_plantvillage
I0403 14:16:10.505313  1063 net.cpp:399] loss1/classifier_plantvillage_loss1/classifier_plantvillage_0_split -> loss1/classifier_plantvillage_loss1/classifier_plantvillage_0_split_0
I0403 14:16:10.505336  1063 net.cpp:399] loss1/classifier_plantvillage_loss1/classifier_plantvillage_0_split -> loss1/classifier_plantvillage_loss1/classifier_plantvillage_0_split_1
I0403 14:16:10.505357  1063 net.cpp:399] loss1/classifier_plantvillage_loss1/classifier_plantvillage_0_split -> loss1/classifier_plantvillage_loss1/classifier_plantvillage_0_split_2
I0403 14:16:10.505424  1063 net.cpp:141] Setting up loss1/classifier_plantvillage_loss1/classifier_plantvillage_0_split
I0403 14:16:10.505450  1063 net.cpp:148] Top shape: 24 38 (912)
I0403 14:16:10.505467  1063 net.cpp:148] Top shape: 24 38 (912)
I0403 14:16:10.505483  1063 net.cpp:148] Top shape: 24 38 (912)
I0403 14:16:10.505497  1063 net.cpp:156] Memory required for data: 946203936
I0403 14:16:10.505512  1063 layer_factory.hpp:77] Creating layer inception_4b/1x1
I0403 14:16:10.505534  1063 net.cpp:91] Creating Layer inception_4b/1x1
I0403 14:16:10.505575  1063 net.cpp:425] inception_4b/1x1 <- inception_4a/output_inception_4a/output_0_split_1
I0403 14:16:10.505596  1063 net.cpp:399] inception_4b/1x1 -> inception_4b/1x1
I0403 14:16:10.507272  1063 net.cpp:141] Setting up inception_4b/1x1
I0403 14:16:10.507302  1063 net.cpp:148] Top shape: 24 160 14 14 (752640)
I0403 14:16:10.507319  1063 net.cpp:156] Memory required for data: 949214496
I0403 14:16:10.507340  1063 layer_factory.hpp:77] Creating layer inception_4b/relu_1x1
I0403 14:16:10.507360  1063 net.cpp:91] Creating Layer inception_4b/relu_1x1
I0403 14:16:10.507377  1063 net.cpp:425] inception_4b/relu_1x1 <- inception_4b/1x1
I0403 14:16:10.507396  1063 net.cpp:386] inception_4b/relu_1x1 -> inception_4b/1x1 (in-place)
I0403 14:16:10.507575  1063 net.cpp:141] Setting up inception_4b/relu_1x1
I0403 14:16:10.507601  1063 net.cpp:148] Top shape: 24 160 14 14 (752640)
I0403 14:16:10.507617  1063 net.cpp:156] Memory required for data: 952225056
I0403 14:16:10.507632  1063 layer_factory.hpp:77] Creating layer inception_4b/3x3_reduce
I0403 14:16:10.507655  1063 net.cpp:91] Creating Layer inception_4b/3x3_reduce
I0403 14:16:10.507673  1063 net.cpp:425] inception_4b/3x3_reduce <- inception_4a/output_inception_4a/output_0_split_2
I0403 14:16:10.507693  1063 net.cpp:399] inception_4b/3x3_reduce -> inception_4b/3x3_reduce
I0403 14:16:10.509047  1063 net.cpp:141] Setting up inception_4b/3x3_reduce
I0403 14:16:10.509075  1063 net.cpp:148] Top shape: 24 112 14 14 (526848)
I0403 14:16:10.509093  1063 net.cpp:156] Memory required for data: 954332448
I0403 14:16:10.509112  1063 layer_factory.hpp:77] Creating layer inception_4b/relu_3x3_reduce
I0403 14:16:10.509133  1063 net.cpp:91] Creating Layer inception_4b/relu_3x3_reduce
I0403 14:16:10.509150  1063 net.cpp:425] inception_4b/relu_3x3_reduce <- inception_4b/3x3_reduce
I0403 14:16:10.509169  1063 net.cpp:386] inception_4b/relu_3x3_reduce -> inception_4b/3x3_reduce (in-place)
I0403 14:16:10.509460  1063 net.cpp:141] Setting up inception_4b/relu_3x3_reduce
I0403 14:16:10.509488  1063 net.cpp:148] Top shape: 24 112 14 14 (526848)
I0403 14:16:10.509505  1063 net.cpp:156] Memory required for data: 956439840
I0403 14:16:10.509521  1063 layer_factory.hpp:77] Creating layer inception_4b/3x3
I0403 14:16:10.509546  1063 net.cpp:91] Creating Layer inception_4b/3x3
I0403 14:16:10.509564  1063 net.cpp:425] inception_4b/3x3 <- inception_4b/3x3_reduce
I0403 14:16:10.509584  1063 net.cpp:399] inception_4b/3x3 -> inception_4b/3x3
I0403 14:16:10.512574  1063 net.cpp:141] Setting up inception_4b/3x3
I0403 14:16:10.512608  1063 net.cpp:148] Top shape: 24 224 14 14 (1053696)
I0403 14:16:10.512624  1063 net.cpp:156] Memory required for data: 960654624
I0403 14:16:10.512645  1063 layer_factory.hpp:77] Creating layer inception_4b/relu_3x3
I0403 14:16:10.512663  1063 net.cpp:91] Creating Layer inception_4b/relu_3x3
I0403 14:16:10.512681  1063 net.cpp:425] inception_4b/relu_3x3 <- inception_4b/3x3
I0403 14:16:10.512701  1063 net.cpp:386] inception_4b/relu_3x3 -> inception_4b/3x3 (in-place)
I0403 14:16:10.512881  1063 net.cpp:141] Setting up inception_4b/relu_3x3
I0403 14:16:10.512905  1063 net.cpp:148] Top shape: 24 224 14 14 (1053696)
I0403 14:16:10.512920  1063 net.cpp:156] Memory required for data: 964869408
I0403 14:16:10.512935  1063 layer_factory.hpp:77] Creating layer inception_4b/5x5_reduce
I0403 14:16:10.512958  1063 net.cpp:91] Creating Layer inception_4b/5x5_reduce
I0403 14:16:10.512975  1063 net.cpp:425] inception_4b/5x5_reduce <- inception_4a/output_inception_4a/output_0_split_3
I0403 14:16:10.512997  1063 net.cpp:399] inception_4b/5x5_reduce -> inception_4b/5x5_reduce
I0403 14:16:10.514076  1063 net.cpp:141] Setting up inception_4b/5x5_reduce
I0403 14:16:10.514106  1063 net.cpp:148] Top shape: 24 24 14 14 (112896)
I0403 14:16:10.514122  1063 net.cpp:156] Memory required for data: 965320992
I0403 14:16:10.514142  1063 layer_factory.hpp:77] Creating layer inception_4b/relu_5x5_reduce
I0403 14:16:10.514163  1063 net.cpp:91] Creating Layer inception_4b/relu_5x5_reduce
I0403 14:16:10.514201  1063 net.cpp:425] inception_4b/relu_5x5_reduce <- inception_4b/5x5_reduce
I0403 14:16:10.514220  1063 net.cpp:386] inception_4b/relu_5x5_reduce -> inception_4b/5x5_reduce (in-place)
I0403 14:16:10.514405  1063 net.cpp:141] Setting up inception_4b/relu_5x5_reduce
I0403 14:16:10.514431  1063 net.cpp:148] Top shape: 24 24 14 14 (112896)
I0403 14:16:10.514447  1063 net.cpp:156] Memory required for data: 965772576
I0403 14:16:10.514463  1063 layer_factory.hpp:77] Creating layer inception_4b/5x5
I0403 14:16:10.514485  1063 net.cpp:91] Creating Layer inception_4b/5x5
I0403 14:16:10.514503  1063 net.cpp:425] inception_4b/5x5 <- inception_4b/5x5_reduce
I0403 14:16:10.514523  1063 net.cpp:399] inception_4b/5x5 -> inception_4b/5x5
I0403 14:16:10.515812  1063 net.cpp:141] Setting up inception_4b/5x5
I0403 14:16:10.515842  1063 net.cpp:148] Top shape: 24 64 14 14 (301056)
I0403 14:16:10.515859  1063 net.cpp:156] Memory required for data: 966976800
I0403 14:16:10.515879  1063 layer_factory.hpp:77] Creating layer inception_4b/relu_5x5
I0403 14:16:10.515900  1063 net.cpp:91] Creating Layer inception_4b/relu_5x5
I0403 14:16:10.515919  1063 net.cpp:425] inception_4b/relu_5x5 <- inception_4b/5x5
I0403 14:16:10.515938  1063 net.cpp:386] inception_4b/relu_5x5 -> inception_4b/5x5 (in-place)
I0403 14:16:10.516229  1063 net.cpp:141] Setting up inception_4b/relu_5x5
I0403 14:16:10.516258  1063 net.cpp:148] Top shape: 24 64 14 14 (301056)
I0403 14:16:10.516274  1063 net.cpp:156] Memory required for data: 968181024
I0403 14:16:10.516290  1063 layer_factory.hpp:77] Creating layer inception_4b/pool
I0403 14:16:10.516312  1063 net.cpp:91] Creating Layer inception_4b/pool
I0403 14:16:10.516330  1063 net.cpp:425] inception_4b/pool <- inception_4a/output_inception_4a/output_0_split_4
I0403 14:16:10.516348  1063 net.cpp:399] inception_4b/pool -> inception_4b/pool
I0403 14:16:10.516414  1063 net.cpp:141] Setting up inception_4b/pool
I0403 14:16:10.516438  1063 net.cpp:148] Top shape: 24 512 14 14 (2408448)
I0403 14:16:10.516453  1063 net.cpp:156] Memory required for data: 977814816
I0403 14:16:10.516469  1063 layer_factory.hpp:77] Creating layer inception_4b/pool_proj
I0403 14:16:10.516490  1063 net.cpp:91] Creating Layer inception_4b/pool_proj
I0403 14:16:10.516508  1063 net.cpp:425] inception_4b/pool_proj <- inception_4b/pool
I0403 14:16:10.516530  1063 net.cpp:399] inception_4b/pool_proj -> inception_4b/pool_proj
I0403 14:16:10.517722  1063 net.cpp:141] Setting up inception_4b/pool_proj
I0403 14:16:10.517752  1063 net.cpp:148] Top shape: 24 64 14 14 (301056)
I0403 14:16:10.517770  1063 net.cpp:156] Memory required for data: 979019040
I0403 14:16:10.517789  1063 layer_factory.hpp:77] Creating layer inception_4b/relu_pool_proj
I0403 14:16:10.517812  1063 net.cpp:91] Creating Layer inception_4b/relu_pool_proj
I0403 14:16:10.517828  1063 net.cpp:425] inception_4b/relu_pool_proj <- inception_4b/pool_proj
I0403 14:16:10.517848  1063 net.cpp:386] inception_4b/relu_pool_proj -> inception_4b/pool_proj (in-place)
I0403 14:16:10.518028  1063 net.cpp:141] Setting up inception_4b/relu_pool_proj
I0403 14:16:10.518057  1063 net.cpp:148] Top shape: 24 64 14 14 (301056)
I0403 14:16:10.518075  1063 net.cpp:156] Memory required for data: 980223264
I0403 14:16:10.518090  1063 layer_factory.hpp:77] Creating layer inception_4b/output
I0403 14:16:10.518108  1063 net.cpp:91] Creating Layer inception_4b/output
I0403 14:16:10.518124  1063 net.cpp:425] inception_4b/output <- inception_4b/1x1
I0403 14:16:10.518141  1063 net.cpp:425] inception_4b/output <- inception_4b/3x3
I0403 14:16:10.518157  1063 net.cpp:425] inception_4b/output <- inception_4b/5x5
I0403 14:16:10.518174  1063 net.cpp:425] inception_4b/output <- inception_4b/pool_proj
I0403 14:16:10.518199  1063 net.cpp:399] inception_4b/output -> inception_4b/output
I0403 14:16:10.518247  1063 net.cpp:141] Setting up inception_4b/output
I0403 14:16:10.518271  1063 net.cpp:148] Top shape: 24 512 14 14 (2408448)
I0403 14:16:10.518285  1063 net.cpp:156] Memory required for data: 989857056
I0403 14:16:10.518314  1063 layer_factory.hpp:77] Creating layer inception_4b/output_inception_4b/output_0_split
I0403 14:16:10.518333  1063 net.cpp:91] Creating Layer inception_4b/output_inception_4b/output_0_split
I0403 14:16:10.518350  1063 net.cpp:425] inception_4b/output_inception_4b/output_0_split <- inception_4b/output
I0403 14:16:10.518370  1063 net.cpp:399] inception_4b/output_inception_4b/output_0_split -> inception_4b/output_inception_4b/output_0_split_0
I0403 14:16:10.518390  1063 net.cpp:399] inception_4b/output_inception_4b/output_0_split -> inception_4b/output_inception_4b/output_0_split_1
I0403 14:16:10.518414  1063 net.cpp:399] inception_4b/output_inception_4b/output_0_split -> inception_4b/output_inception_4b/output_0_split_2
I0403 14:16:10.518445  1063 net.cpp:399] inception_4b/output_inception_4b/output_0_split -> inception_4b/output_inception_4b/output_0_split_3
I0403 14:16:10.518529  1063 net.cpp:141] Setting up inception_4b/output_inception_4b/output_0_split
I0403 14:16:10.518553  1063 net.cpp:148] Top shape: 24 512 14 14 (2408448)
I0403 14:16:10.518569  1063 net.cpp:148] Top shape: 24 512 14 14 (2408448)
I0403 14:16:10.518586  1063 net.cpp:148] Top shape: 24 512 14 14 (2408448)
I0403 14:16:10.518602  1063 net.cpp:148] Top shape: 24 512 14 14 (2408448)
I0403 14:16:10.518615  1063 net.cpp:156] Memory required for data: 1028392224
I0403 14:16:10.518630  1063 layer_factory.hpp:77] Creating layer inception_4c/1x1
I0403 14:16:10.518652  1063 net.cpp:91] Creating Layer inception_4c/1x1
I0403 14:16:10.518671  1063 net.cpp:425] inception_4c/1x1 <- inception_4b/output_inception_4b/output_0_split_0
I0403 14:16:10.518692  1063 net.cpp:399] inception_4c/1x1 -> inception_4c/1x1
I0403 14:16:10.520237  1063 net.cpp:141] Setting up inception_4c/1x1
I0403 14:16:10.520272  1063 net.cpp:148] Top shape: 24 128 14 14 (602112)
I0403 14:16:10.520290  1063 net.cpp:156] Memory required for data: 1030800672
I0403 14:16:10.520309  1063 layer_factory.hpp:77] Creating layer inception_4c/relu_1x1
I0403 14:16:10.520329  1063 net.cpp:91] Creating Layer inception_4c/relu_1x1
I0403 14:16:10.520347  1063 net.cpp:425] inception_4c/relu_1x1 <- inception_4c/1x1
I0403 14:16:10.520369  1063 net.cpp:386] inception_4c/relu_1x1 -> inception_4c/1x1 (in-place)
I0403 14:16:10.520547  1063 net.cpp:141] Setting up inception_4c/relu_1x1
I0403 14:16:10.520575  1063 net.cpp:148] Top shape: 24 128 14 14 (602112)
I0403 14:16:10.520591  1063 net.cpp:156] Memory required for data: 1033209120
I0403 14:16:10.520606  1063 layer_factory.hpp:77] Creating layer inception_4c/3x3_reduce
I0403 14:16:10.520629  1063 net.cpp:91] Creating Layer inception_4c/3x3_reduce
I0403 14:16:10.520648  1063 net.cpp:425] inception_4c/3x3_reduce <- inception_4b/output_inception_4b/output_0_split_1
I0403 14:16:10.520670  1063 net.cpp:399] inception_4c/3x3_reduce -> inception_4c/3x3_reduce
I0403 14:16:10.522634  1063 net.cpp:141] Setting up inception_4c/3x3_reduce
I0403 14:16:10.522663  1063 net.cpp:148] Top shape: 24 128 14 14 (602112)
I0403 14:16:10.522680  1063 net.cpp:156] Memory required for data: 1035617568
I0403 14:16:10.522697  1063 layer_factory.hpp:77] Creating layer inception_4c/relu_3x3_reduce
I0403 14:16:10.522716  1063 net.cpp:91] Creating Layer inception_4c/relu_3x3_reduce
I0403 14:16:10.522732  1063 net.cpp:425] inception_4c/relu_3x3_reduce <- inception_4c/3x3_reduce
I0403 14:16:10.522753  1063 net.cpp:386] inception_4c/relu_3x3_reduce -> inception_4c/3x3_reduce (in-place)
I0403 14:16:10.523216  1063 net.cpp:141] Setting up inception_4c/relu_3x3_reduce
I0403 14:16:10.523243  1063 net.cpp:148] Top shape: 24 128 14 14 (602112)
I0403 14:16:10.523258  1063 net.cpp:156] Memory required for data: 1038026016
I0403 14:16:10.523273  1063 layer_factory.hpp:77] Creating layer inception_4c/3x3
I0403 14:16:10.523298  1063 net.cpp:91] Creating Layer inception_4c/3x3
I0403 14:16:10.523315  1063 net.cpp:425] inception_4c/3x3 <- inception_4c/3x3_reduce
I0403 14:16:10.523336  1063 net.cpp:399] inception_4c/3x3 -> inception_4c/3x3
I0403 14:16:10.526955  1063 net.cpp:141] Setting up inception_4c/3x3
I0403 14:16:10.526998  1063 net.cpp:148] Top shape: 24 256 14 14 (1204224)
I0403 14:16:10.527016  1063 net.cpp:156] Memory required for data: 1042842912
I0403 14:16:10.527050  1063 layer_factory.hpp:77] Creating layer inception_4c/relu_3x3
I0403 14:16:10.527073  1063 net.cpp:91] Creating Layer inception_4c/relu_3x3
I0403 14:16:10.527092  1063 net.cpp:425] inception_4c/relu_3x3 <- inception_4c/3x3
I0403 14:16:10.527112  1063 net.cpp:386] inception_4c/relu_3x3 -> inception_4c/3x3 (in-place)
I0403 14:16:10.527300  1063 net.cpp:141] Setting up inception_4c/relu_3x3
I0403 14:16:10.527356  1063 net.cpp:148] Top shape: 24 256 14 14 (1204224)
I0403 14:16:10.527372  1063 net.cpp:156] Memory required for data: 1047659808
I0403 14:16:10.527387  1063 layer_factory.hpp:77] Creating layer inception_4c/5x5_reduce
I0403 14:16:10.527410  1063 net.cpp:91] Creating Layer inception_4c/5x5_reduce
I0403 14:16:10.527429  1063 net.cpp:425] inception_4c/5x5_reduce <- inception_4b/output_inception_4b/output_0_split_2
I0403 14:16:10.527452  1063 net.cpp:399] inception_4c/5x5_reduce -> inception_4c/5x5_reduce
I0403 14:16:10.528571  1063 net.cpp:141] Setting up inception_4c/5x5_reduce
I0403 14:16:10.528599  1063 net.cpp:148] Top shape: 24 24 14 14 (112896)
I0403 14:16:10.528616  1063 net.cpp:156] Memory required for data: 1048111392
I0403 14:16:10.528635  1063 layer_factory.hpp:77] Creating layer inception_4c/relu_5x5_reduce
I0403 14:16:10.528656  1063 net.cpp:91] Creating Layer inception_4c/relu_5x5_reduce
I0403 14:16:10.528673  1063 net.cpp:425] inception_4c/relu_5x5_reduce <- inception_4c/5x5_reduce
I0403 14:16:10.528692  1063 net.cpp:386] inception_4c/relu_5x5_reduce -> inception_4c/5x5_reduce (in-place)
I0403 14:16:10.528880  1063 net.cpp:141] Setting up inception_4c/relu_5x5_reduce
I0403 14:16:10.528906  1063 net.cpp:148] Top shape: 24 24 14 14 (112896)
I0403 14:16:10.528923  1063 net.cpp:156] Memory required for data: 1048562976
I0403 14:16:10.528937  1063 layer_factory.hpp:77] Creating layer inception_4c/5x5
I0403 14:16:10.528960  1063 net.cpp:91] Creating Layer inception_4c/5x5
I0403 14:16:10.528977  1063 net.cpp:425] inception_4c/5x5 <- inception_4c/5x5_reduce
I0403 14:16:10.528997  1063 net.cpp:399] inception_4c/5x5 -> inception_4c/5x5
I0403 14:16:10.530243  1063 net.cpp:141] Setting up inception_4c/5x5
I0403 14:16:10.530272  1063 net.cpp:148] Top shape: 24 64 14 14 (301056)
I0403 14:16:10.530288  1063 net.cpp:156] Memory required for data: 1049767200
I0403 14:16:10.530313  1063 layer_factory.hpp:77] Creating layer inception_4c/relu_5x5
I0403 14:16:10.530333  1063 net.cpp:91] Creating Layer inception_4c/relu_5x5
I0403 14:16:10.530349  1063 net.cpp:425] inception_4c/relu_5x5 <- inception_4c/5x5
I0403 14:16:10.530367  1063 net.cpp:386] inception_4c/relu_5x5 -> inception_4c/5x5 (in-place)
I0403 14:16:10.530655  1063 net.cpp:141] Setting up inception_4c/relu_5x5
I0403 14:16:10.530686  1063 net.cpp:148] Top shape: 24 64 14 14 (301056)
I0403 14:16:10.530704  1063 net.cpp:156] Memory required for data: 1050971424
I0403 14:16:10.530719  1063 layer_factory.hpp:77] Creating layer inception_4c/pool
I0403 14:16:10.530737  1063 net.cpp:91] Creating Layer inception_4c/pool
I0403 14:16:10.530755  1063 net.cpp:425] inception_4c/pool <- inception_4b/output_inception_4b/output_0_split_3
I0403 14:16:10.530774  1063 net.cpp:399] inception_4c/pool -> inception_4c/pool
I0403 14:16:10.530840  1063 net.cpp:141] Setting up inception_4c/pool
I0403 14:16:10.530864  1063 net.cpp:148] Top shape: 24 512 14 14 (2408448)
I0403 14:16:10.530879  1063 net.cpp:156] Memory required for data: 1060605216
I0403 14:16:10.530894  1063 layer_factory.hpp:77] Creating layer inception_4c/pool_proj
I0403 14:16:10.530915  1063 net.cpp:91] Creating Layer inception_4c/pool_proj
I0403 14:16:10.530932  1063 net.cpp:425] inception_4c/pool_proj <- inception_4c/pool
I0403 14:16:10.530953  1063 net.cpp:399] inception_4c/pool_proj -> inception_4c/pool_proj
I0403 14:16:10.532163  1063 net.cpp:141] Setting up inception_4c/pool_proj
I0403 14:16:10.532207  1063 net.cpp:148] Top shape: 24 64 14 14 (301056)
I0403 14:16:10.532238  1063 net.cpp:156] Memory required for data: 1061809440
I0403 14:16:10.532258  1063 layer_factory.hpp:77] Creating layer inception_4c/relu_pool_proj
I0403 14:16:10.532280  1063 net.cpp:91] Creating Layer inception_4c/relu_pool_proj
I0403 14:16:10.532299  1063 net.cpp:425] inception_4c/relu_pool_proj <- inception_4c/pool_proj
I0403 14:16:10.532318  1063 net.cpp:386] inception_4c/relu_pool_proj -> inception_4c/pool_proj (in-place)
I0403 14:16:10.532501  1063 net.cpp:141] Setting up inception_4c/relu_pool_proj
I0403 14:16:10.532527  1063 net.cpp:148] Top shape: 24 64 14 14 (301056)
I0403 14:16:10.532542  1063 net.cpp:156] Memory required for data: 1063013664
I0403 14:16:10.532557  1063 layer_factory.hpp:77] Creating layer inception_4c/output
I0403 14:16:10.532577  1063 net.cpp:91] Creating Layer inception_4c/output
I0403 14:16:10.532593  1063 net.cpp:425] inception_4c/output <- inception_4c/1x1
I0403 14:16:10.532610  1063 net.cpp:425] inception_4c/output <- inception_4c/3x3
I0403 14:16:10.532626  1063 net.cpp:425] inception_4c/output <- inception_4c/5x5
I0403 14:16:10.532644  1063 net.cpp:425] inception_4c/output <- inception_4c/pool_proj
I0403 14:16:10.532660  1063 net.cpp:399] inception_4c/output -> inception_4c/output
I0403 14:16:10.532709  1063 net.cpp:141] Setting up inception_4c/output
I0403 14:16:10.532732  1063 net.cpp:148] Top shape: 24 512 14 14 (2408448)
I0403 14:16:10.532747  1063 net.cpp:156] Memory required for data: 1072647456
I0403 14:16:10.532763  1063 layer_factory.hpp:77] Creating layer inception_4c/output_inception_4c/output_0_split
I0403 14:16:10.532779  1063 net.cpp:91] Creating Layer inception_4c/output_inception_4c/output_0_split
I0403 14:16:10.532794  1063 net.cpp:425] inception_4c/output_inception_4c/output_0_split <- inception_4c/output
I0403 14:16:10.532814  1063 net.cpp:399] inception_4c/output_inception_4c/output_0_split -> inception_4c/output_inception_4c/output_0_split_0
I0403 14:16:10.532835  1063 net.cpp:399] inception_4c/output_inception_4c/output_0_split -> inception_4c/output_inception_4c/output_0_split_1
I0403 14:16:10.532856  1063 net.cpp:399] inception_4c/output_inception_4c/output_0_split -> inception_4c/output_inception_4c/output_0_split_2
I0403 14:16:10.532876  1063 net.cpp:399] inception_4c/output_inception_4c/output_0_split -> inception_4c/output_inception_4c/output_0_split_3
I0403 14:16:10.532968  1063 net.cpp:141] Setting up inception_4c/output_inception_4c/output_0_split
I0403 14:16:10.532991  1063 net.cpp:148] Top shape: 24 512 14 14 (2408448)
I0403 14:16:10.533007  1063 net.cpp:148] Top shape: 24 512 14 14 (2408448)
I0403 14:16:10.533023  1063 net.cpp:148] Top shape: 24 512 14 14 (2408448)
I0403 14:16:10.533040  1063 net.cpp:148] Top shape: 24 512 14 14 (2408448)
I0403 14:16:10.533053  1063 net.cpp:156] Memory required for data: 1111182624
I0403 14:16:10.533067  1063 layer_factory.hpp:77] Creating layer inception_4d/1x1
I0403 14:16:10.533089  1063 net.cpp:91] Creating Layer inception_4d/1x1
I0403 14:16:10.533107  1063 net.cpp:425] inception_4d/1x1 <- inception_4c/output_inception_4c/output_0_split_0
I0403 14:16:10.533128  1063 net.cpp:399] inception_4d/1x1 -> inception_4d/1x1
I0403 14:16:10.534512  1063 net.cpp:141] Setting up inception_4d/1x1
I0403 14:16:10.534543  1063 net.cpp:148] Top shape: 24 112 14 14 (526848)
I0403 14:16:10.534560  1063 net.cpp:156] Memory required for data: 1113290016
I0403 14:16:10.534580  1063 layer_factory.hpp:77] Creating layer inception_4d/relu_1x1
I0403 14:16:10.534600  1063 net.cpp:91] Creating Layer inception_4d/relu_1x1
I0403 14:16:10.534617  1063 net.cpp:425] inception_4d/relu_1x1 <- inception_4d/1x1
I0403 14:16:10.534638  1063 net.cpp:386] inception_4d/relu_1x1 -> inception_4d/1x1 (in-place)
I0403 14:16:10.534821  1063 net.cpp:141] Setting up inception_4d/relu_1x1
I0403 14:16:10.534847  1063 net.cpp:148] Top shape: 24 112 14 14 (526848)
I0403 14:16:10.534862  1063 net.cpp:156] Memory required for data: 1115397408
I0403 14:16:10.534878  1063 layer_factory.hpp:77] Creating layer inception_4d/3x3_reduce
I0403 14:16:10.534915  1063 net.cpp:91] Creating Layer inception_4d/3x3_reduce
I0403 14:16:10.534935  1063 net.cpp:425] inception_4d/3x3_reduce <- inception_4c/output_inception_4c/output_0_split_1
I0403 14:16:10.534958  1063 net.cpp:399] inception_4d/3x3_reduce -> inception_4d/3x3_reduce
I0403 14:16:10.536471  1063 net.cpp:141] Setting up inception_4d/3x3_reduce
I0403 14:16:10.536504  1063 net.cpp:148] Top shape: 24 144 14 14 (677376)
I0403 14:16:10.536520  1063 net.cpp:156] Memory required for data: 1118106912
I0403 14:16:10.536540  1063 layer_factory.hpp:77] Creating layer inception_4d/relu_3x3_reduce
I0403 14:16:10.536559  1063 net.cpp:91] Creating Layer inception_4d/relu_3x3_reduce
I0403 14:16:10.536577  1063 net.cpp:425] inception_4d/relu_3x3_reduce <- inception_4d/3x3_reduce
I0403 14:16:10.536597  1063 net.cpp:386] inception_4d/relu_3x3_reduce -> inception_4d/3x3_reduce (in-place)
I0403 14:16:10.536885  1063 net.cpp:141] Setting up inception_4d/relu_3x3_reduce
I0403 14:16:10.536914  1063 net.cpp:148] Top shape: 24 144 14 14 (677376)
I0403 14:16:10.536931  1063 net.cpp:156] Memory required for data: 1120816416
I0403 14:16:10.536948  1063 layer_factory.hpp:77] Creating layer inception_4d/3x3
I0403 14:16:10.536970  1063 net.cpp:91] Creating Layer inception_4d/3x3
I0403 14:16:10.536988  1063 net.cpp:425] inception_4d/3x3 <- inception_4d/3x3_reduce
I0403 14:16:10.537009  1063 net.cpp:399] inception_4d/3x3 -> inception_4d/3x3
I0403 14:16:10.541307  1063 net.cpp:141] Setting up inception_4d/3x3
I0403 14:16:10.541338  1063 net.cpp:148] Top shape: 24 288 14 14 (1354752)
I0403 14:16:10.541357  1063 net.cpp:156] Memory required for data: 1126235424
I0403 14:16:10.541378  1063 layer_factory.hpp:77] Creating layer inception_4d/relu_3x3
I0403 14:16:10.541395  1063 net.cpp:91] Creating Layer inception_4d/relu_3x3
I0403 14:16:10.541412  1063 net.cpp:425] inception_4d/relu_3x3 <- inception_4d/3x3
I0403 14:16:10.541434  1063 net.cpp:386] inception_4d/relu_3x3 -> inception_4d/3x3 (in-place)
I0403 14:16:10.541620  1063 net.cpp:141] Setting up inception_4d/relu_3x3
I0403 14:16:10.541646  1063 net.cpp:148] Top shape: 24 288 14 14 (1354752)
I0403 14:16:10.541663  1063 net.cpp:156] Memory required for data: 1131654432
I0403 14:16:10.541679  1063 layer_factory.hpp:77] Creating layer inception_4d/5x5_reduce
I0403 14:16:10.541702  1063 net.cpp:91] Creating Layer inception_4d/5x5_reduce
I0403 14:16:10.541720  1063 net.cpp:425] inception_4d/5x5_reduce <- inception_4c/output_inception_4c/output_0_split_2
I0403 14:16:10.541741  1063 net.cpp:399] inception_4d/5x5_reduce -> inception_4d/5x5_reduce
I0403 14:16:10.542927  1063 net.cpp:141] Setting up inception_4d/5x5_reduce
I0403 14:16:10.542958  1063 net.cpp:148] Top shape: 24 32 14 14 (150528)
I0403 14:16:10.542974  1063 net.cpp:156] Memory required for data: 1132256544
I0403 14:16:10.542994  1063 layer_factory.hpp:77] Creating layer inception_4d/relu_5x5_reduce
I0403 14:16:10.543012  1063 net.cpp:91] Creating Layer inception_4d/relu_5x5_reduce
I0403 14:16:10.543032  1063 net.cpp:425] inception_4d/relu_5x5_reduce <- inception_4d/5x5_reduce
I0403 14:16:10.543051  1063 net.cpp:386] inception_4d/relu_5x5_reduce -> inception_4d/5x5_reduce (in-place)
I0403 14:16:10.543243  1063 net.cpp:141] Setting up inception_4d/relu_5x5_reduce
I0403 14:16:10.543268  1063 net.cpp:148] Top shape: 24 32 14 14 (150528)
I0403 14:16:10.543283  1063 net.cpp:156] Memory required for data: 1132858656
I0403 14:16:10.543298  1063 layer_factory.hpp:77] Creating layer inception_4d/5x5
I0403 14:16:10.543320  1063 net.cpp:91] Creating Layer inception_4d/5x5
I0403 14:16:10.543339  1063 net.cpp:425] inception_4d/5x5 <- inception_4d/5x5_reduce
I0403 14:16:10.543360  1063 net.cpp:399] inception_4d/5x5 -> inception_4d/5x5
I0403 14:16:10.544855  1063 net.cpp:141] Setting up inception_4d/5x5
I0403 14:16:10.544885  1063 net.cpp:148] Top shape: 24 64 14 14 (301056)
I0403 14:16:10.544903  1063 net.cpp:156] Memory required for data: 1134062880
I0403 14:16:10.544922  1063 layer_factory.hpp:77] Creating layer inception_4d/relu_5x5
I0403 14:16:10.544957  1063 net.cpp:91] Creating Layer inception_4d/relu_5x5
I0403 14:16:10.544976  1063 net.cpp:425] inception_4d/relu_5x5 <- inception_4d/5x5
I0403 14:16:10.544996  1063 net.cpp:386] inception_4d/relu_5x5 -> inception_4d/5x5 (in-place)
I0403 14:16:10.545308  1063 net.cpp:141] Setting up inception_4d/relu_5x5
I0403 14:16:10.545336  1063 net.cpp:148] Top shape: 24 64 14 14 (301056)
I0403 14:16:10.545352  1063 net.cpp:156] Memory required for data: 1135267104
I0403 14:16:10.545367  1063 layer_factory.hpp:77] Creating layer inception_4d/pool
I0403 14:16:10.545388  1063 net.cpp:91] Creating Layer inception_4d/pool
I0403 14:16:10.545408  1063 net.cpp:425] inception_4d/pool <- inception_4c/output_inception_4c/output_0_split_3
I0403 14:16:10.545428  1063 net.cpp:399] inception_4d/pool -> inception_4d/pool
I0403 14:16:10.545497  1063 net.cpp:141] Setting up inception_4d/pool
I0403 14:16:10.545523  1063 net.cpp:148] Top shape: 24 512 14 14 (2408448)
I0403 14:16:10.545539  1063 net.cpp:156] Memory required for data: 1144900896
I0403 14:16:10.545554  1063 layer_factory.hpp:77] Creating layer inception_4d/pool_proj
I0403 14:16:10.545578  1063 net.cpp:91] Creating Layer inception_4d/pool_proj
I0403 14:16:10.545598  1063 net.cpp:425] inception_4d/pool_proj <- inception_4d/pool
I0403 14:16:10.545620  1063 net.cpp:399] inception_4d/pool_proj -> inception_4d/pool_proj
I0403 14:16:10.547391  1063 net.cpp:141] Setting up inception_4d/pool_proj
I0403 14:16:10.547422  1063 net.cpp:148] Top shape: 24 64 14 14 (301056)
I0403 14:16:10.547440  1063 net.cpp:156] Memory required for data: 1146105120
I0403 14:16:10.547458  1063 layer_factory.hpp:77] Creating layer inception_4d/relu_pool_proj
I0403 14:16:10.547478  1063 net.cpp:91] Creating Layer inception_4d/relu_pool_proj
I0403 14:16:10.547495  1063 net.cpp:425] inception_4d/relu_pool_proj <- inception_4d/pool_proj
I0403 14:16:10.547518  1063 net.cpp:386] inception_4d/relu_pool_proj -> inception_4d/pool_proj (in-place)
I0403 14:16:10.547777  1063 net.cpp:141] Setting up inception_4d/relu_pool_proj
I0403 14:16:10.547806  1063 net.cpp:148] Top shape: 24 64 14 14 (301056)
I0403 14:16:10.547822  1063 net.cpp:156] Memory required for data: 1147309344
I0403 14:16:10.547837  1063 layer_factory.hpp:77] Creating layer inception_4d/output
I0403 14:16:10.547858  1063 net.cpp:91] Creating Layer inception_4d/output
I0403 14:16:10.547876  1063 net.cpp:425] inception_4d/output <- inception_4d/1x1
I0403 14:16:10.547895  1063 net.cpp:425] inception_4d/output <- inception_4d/3x3
I0403 14:16:10.547912  1063 net.cpp:425] inception_4d/output <- inception_4d/5x5
I0403 14:16:10.547930  1063 net.cpp:425] inception_4d/output <- inception_4d/pool_proj
I0403 14:16:10.547945  1063 net.cpp:399] inception_4d/output -> inception_4d/output
I0403 14:16:10.547996  1063 net.cpp:141] Setting up inception_4d/output
I0403 14:16:10.548018  1063 net.cpp:148] Top shape: 24 528 14 14 (2483712)
I0403 14:16:10.548033  1063 net.cpp:156] Memory required for data: 1157244192
I0403 14:16:10.548048  1063 layer_factory.hpp:77] Creating layer inception_4d/output_inception_4d/output_0_split
I0403 14:16:10.548066  1063 net.cpp:91] Creating Layer inception_4d/output_inception_4d/output_0_split
I0403 14:16:10.548082  1063 net.cpp:425] inception_4d/output_inception_4d/output_0_split <- inception_4d/output
I0403 14:16:10.548102  1063 net.cpp:399] inception_4d/output_inception_4d/output_0_split -> inception_4d/output_inception_4d/output_0_split_0
I0403 14:16:10.548125  1063 net.cpp:399] inception_4d/output_inception_4d/output_0_split -> inception_4d/output_inception_4d/output_0_split_1
I0403 14:16:10.548146  1063 net.cpp:399] inception_4d/output_inception_4d/output_0_split -> inception_4d/output_inception_4d/output_0_split_2
I0403 14:16:10.548167  1063 net.cpp:399] inception_4d/output_inception_4d/output_0_split -> inception_4d/output_inception_4d/output_0_split_3
I0403 14:16:10.548195  1063 net.cpp:399] inception_4d/output_inception_4d/output_0_split -> inception_4d/output_inception_4d/output_0_split_4
I0403 14:16:10.548300  1063 net.cpp:141] Setting up inception_4d/output_inception_4d/output_0_split
I0403 14:16:10.548334  1063 net.cpp:148] Top shape: 24 528 14 14 (2483712)
I0403 14:16:10.548357  1063 net.cpp:148] Top shape: 24 528 14 14 (2483712)
I0403 14:16:10.548374  1063 net.cpp:148] Top shape: 24 528 14 14 (2483712)
I0403 14:16:10.548391  1063 net.cpp:148] Top shape: 24 528 14 14 (2483712)
I0403 14:16:10.548406  1063 net.cpp:148] Top shape: 24 528 14 14 (2483712)
I0403 14:16:10.548420  1063 net.cpp:156] Memory required for data: 1206918432
I0403 14:16:10.548434  1063 layer_factory.hpp:77] Creating layer loss2/ave_pool
I0403 14:16:10.548452  1063 net.cpp:91] Creating Layer loss2/ave_pool
I0403 14:16:10.548468  1063 net.cpp:425] loss2/ave_pool <- inception_4d/output_inception_4d/output_0_split_0
I0403 14:16:10.548491  1063 net.cpp:399] loss2/ave_pool -> loss2/ave_pool
I0403 14:16:10.548805  1063 net.cpp:141] Setting up loss2/ave_pool
I0403 14:16:10.548832  1063 net.cpp:148] Top shape: 24 528 4 4 (202752)
I0403 14:16:10.548847  1063 net.cpp:156] Memory required for data: 1207729440
I0403 14:16:10.548862  1063 layer_factory.hpp:77] Creating layer loss2/conv
I0403 14:16:10.548887  1063 net.cpp:91] Creating Layer loss2/conv
I0403 14:16:10.548904  1063 net.cpp:425] loss2/conv <- loss2/ave_pool
I0403 14:16:10.548926  1063 net.cpp:399] loss2/conv -> loss2/conv
I0403 14:16:10.550835  1063 net.cpp:141] Setting up loss2/conv
I0403 14:16:10.550866  1063 net.cpp:148] Top shape: 24 128 4 4 (49152)
I0403 14:16:10.550884  1063 net.cpp:156] Memory required for data: 1207926048
I0403 14:16:10.550901  1063 layer_factory.hpp:77] Creating layer loss2/relu_conv
I0403 14:16:10.550923  1063 net.cpp:91] Creating Layer loss2/relu_conv
I0403 14:16:10.550940  1063 net.cpp:425] loss2/relu_conv <- loss2/conv
I0403 14:16:10.550957  1063 net.cpp:386] loss2/relu_conv -> loss2/conv (in-place)
I0403 14:16:10.551254  1063 net.cpp:141] Setting up loss2/relu_conv
I0403 14:16:10.551280  1063 net.cpp:148] Top shape: 24 128 4 4 (49152)
I0403 14:16:10.551295  1063 net.cpp:156] Memory required for data: 1208122656
I0403 14:16:10.551311  1063 layer_factory.hpp:77] Creating layer loss2/fc
I0403 14:16:10.551332  1063 net.cpp:91] Creating Layer loss2/fc
I0403 14:16:10.551350  1063 net.cpp:425] loss2/fc <- loss2/conv
I0403 14:16:10.551375  1063 net.cpp:399] loss2/fc -> loss2/fc
I0403 14:16:10.569200  1063 net.cpp:141] Setting up loss2/fc
I0403 14:16:10.569260  1063 net.cpp:148] Top shape: 24 1024 (24576)
I0403 14:16:10.569275  1063 net.cpp:156] Memory required for data: 1208220960
I0403 14:16:10.569296  1063 layer_factory.hpp:77] Creating layer loss2/relu_fc
I0403 14:16:10.569317  1063 net.cpp:91] Creating Layer loss2/relu_fc
I0403 14:16:10.569339  1063 net.cpp:425] loss2/relu_fc <- loss2/fc
I0403 14:16:10.569358  1063 net.cpp:386] loss2/relu_fc -> loss2/fc (in-place)
I0403 14:16:10.569715  1063 net.cpp:141] Setting up loss2/relu_fc
I0403 14:16:10.569762  1063 net.cpp:148] Top shape: 24 1024 (24576)
I0403 14:16:10.569777  1063 net.cpp:156] Memory required for data: 1208319264
I0403 14:16:10.569792  1063 layer_factory.hpp:77] Creating layer loss2/drop_fc
I0403 14:16:10.569824  1063 net.cpp:91] Creating Layer loss2/drop_fc
I0403 14:16:10.569841  1063 net.cpp:425] loss2/drop_fc <- loss2/fc
I0403 14:16:10.569862  1063 net.cpp:386] loss2/drop_fc -> loss2/fc (in-place)
I0403 14:16:10.569914  1063 net.cpp:141] Setting up loss2/drop_fc
I0403 14:16:10.569941  1063 net.cpp:148] Top shape: 24 1024 (24576)
I0403 14:16:10.569957  1063 net.cpp:156] Memory required for data: 1208417568
I0403 14:16:10.569973  1063 layer_factory.hpp:77] Creating layer loss2/classifier_plantvillage
I0403 14:16:10.569993  1063 net.cpp:91] Creating Layer loss2/classifier_plantvillage
I0403 14:16:10.570009  1063 net.cpp:425] loss2/classifier_plantvillage <- loss2/fc
I0403 14:16:10.570030  1063 net.cpp:399] loss2/classifier_plantvillage -> loss2/classifier_plantvillage
I0403 14:16:10.570479  1063 net.cpp:141] Setting up loss2/classifier_plantvillage
I0403 14:16:10.570508  1063 net.cpp:148] Top shape: 24 38 (912)
I0403 14:16:10.570549  1063 net.cpp:156] Memory required for data: 1208421216
I0403 14:16:10.570569  1063 layer_factory.hpp:77] Creating layer loss2/classifier_plantvillage_loss2/classifier_plantvillage_0_split
I0403 14:16:10.570586  1063 net.cpp:91] Creating Layer loss2/classifier_plantvillage_loss2/classifier_plantvillage_0_split
I0403 14:16:10.570603  1063 net.cpp:425] loss2/classifier_plantvillage_loss2/classifier_plantvillage_0_split <- loss2/classifier_plantvillage
I0403 14:16:10.570621  1063 net.cpp:399] loss2/classifier_plantvillage_loss2/classifier_plantvillage_0_split -> loss2/classifier_plantvillage_loss2/classifier_plantvillage_0_split_0
I0403 14:16:10.570641  1063 net.cpp:399] loss2/classifier_plantvillage_loss2/classifier_plantvillage_0_split -> loss2/classifier_plantvillage_loss2/classifier_plantvillage_0_split_1
I0403 14:16:10.570665  1063 net.cpp:399] loss2/classifier_plantvillage_loss2/classifier_plantvillage_0_split -> loss2/classifier_plantvillage_loss2/classifier_plantvillage_0_split_2
I0403 14:16:10.570752  1063 net.cpp:141] Setting up loss2/classifier_plantvillage_loss2/classifier_plantvillage_0_split
I0403 14:16:10.570775  1063 net.cpp:148] Top shape: 24 38 (912)
I0403 14:16:10.570791  1063 net.cpp:148] Top shape: 24 38 (912)
I0403 14:16:10.570806  1063 net.cpp:148] Top shape: 24 38 (912)
I0403 14:16:10.570821  1063 net.cpp:156] Memory required for data: 1208432160
I0403 14:16:10.570835  1063 layer_factory.hpp:77] Creating layer inception_4e/1x1
I0403 14:16:10.570859  1063 net.cpp:91] Creating Layer inception_4e/1x1
I0403 14:16:10.570878  1063 net.cpp:425] inception_4e/1x1 <- inception_4d/output_inception_4d/output_0_split_1
I0403 14:16:10.570899  1063 net.cpp:399] inception_4e/1x1 -> inception_4e/1x1
I0403 14:16:10.572765  1063 net.cpp:141] Setting up inception_4e/1x1
I0403 14:16:10.572794  1063 net.cpp:148] Top shape: 24 256 14 14 (1204224)
I0403 14:16:10.572810  1063 net.cpp:156] Memory required for data: 1213249056
I0403 14:16:10.572830  1063 layer_factory.hpp:77] Creating layer inception_4e/relu_1x1
I0403 14:16:10.572854  1063 net.cpp:91] Creating Layer inception_4e/relu_1x1
I0403 14:16:10.572871  1063 net.cpp:425] inception_4e/relu_1x1 <- inception_4e/1x1
I0403 14:16:10.572890  1063 net.cpp:386] inception_4e/relu_1x1 -> inception_4e/1x1 (in-place)
I0403 14:16:10.573194  1063 net.cpp:141] Setting up inception_4e/relu_1x1
I0403 14:16:10.573222  1063 net.cpp:148] Top shape: 24 256 14 14 (1204224)
I0403 14:16:10.573238  1063 net.cpp:156] Memory required for data: 1218065952
I0403 14:16:10.573254  1063 layer_factory.hpp:77] Creating layer inception_4e/3x3_reduce
I0403 14:16:10.573278  1063 net.cpp:91] Creating Layer inception_4e/3x3_reduce
I0403 14:16:10.573295  1063 net.cpp:425] inception_4e/3x3_reduce <- inception_4d/output_inception_4d/output_0_split_2
I0403 14:16:10.573314  1063 net.cpp:399] inception_4e/3x3_reduce -> inception_4e/3x3_reduce
I0403 14:16:10.575454  1063 net.cpp:141] Setting up inception_4e/3x3_reduce
I0403 14:16:10.575485  1063 net.cpp:148] Top shape: 24 160 14 14 (752640)
I0403 14:16:10.575501  1063 net.cpp:156] Memory required for data: 1221076512
I0403 14:16:10.575520  1063 layer_factory.hpp:77] Creating layer inception_4e/relu_3x3_reduce
I0403 14:16:10.575542  1063 net.cpp:91] Creating Layer inception_4e/relu_3x3_reduce
I0403 14:16:10.575561  1063 net.cpp:425] inception_4e/relu_3x3_reduce <- inception_4e/3x3_reduce
I0403 14:16:10.575580  1063 net.cpp:386] inception_4e/relu_3x3_reduce -> inception_4e/3x3_reduce (in-place)
I0403 14:16:10.575765  1063 net.cpp:141] Setting up inception_4e/relu_3x3_reduce
I0403 14:16:10.575793  1063 net.cpp:148] Top shape: 24 160 14 14 (752640)
I0403 14:16:10.575809  1063 net.cpp:156] Memory required for data: 1224087072
I0403 14:16:10.575825  1063 layer_factory.hpp:77] Creating layer inception_4e/3x3
I0403 14:16:10.575848  1063 net.cpp:91] Creating Layer inception_4e/3x3
I0403 14:16:10.575866  1063 net.cpp:425] inception_4e/3x3 <- inception_4e/3x3_reduce
I0403 14:16:10.575886  1063 net.cpp:399] inception_4e/3x3 -> inception_4e/3x3
I0403 14:16:10.580927  1063 net.cpp:141] Setting up inception_4e/3x3
I0403 14:16:10.580973  1063 net.cpp:148] Top shape: 24 320 14 14 (1505280)
I0403 14:16:10.580991  1063 net.cpp:156] Memory required for data: 1230108192
I0403 14:16:10.581012  1063 layer_factory.hpp:77] Creating layer inception_4e/relu_3x3
I0403 14:16:10.581030  1063 net.cpp:91] Creating Layer inception_4e/relu_3x3
I0403 14:16:10.581048  1063 net.cpp:425] inception_4e/relu_3x3 <- inception_4e/3x3
I0403 14:16:10.581068  1063 net.cpp:386] inception_4e/relu_3x3 -> inception_4e/3x3 (in-place)
I0403 14:16:10.581377  1063 net.cpp:141] Setting up inception_4e/relu_3x3
I0403 14:16:10.581403  1063 net.cpp:148] Top shape: 24 320 14 14 (1505280)
I0403 14:16:10.581418  1063 net.cpp:156] Memory required for data: 1236129312
I0403 14:16:10.581434  1063 layer_factory.hpp:77] Creating layer inception_4e/5x5_reduce
I0403 14:16:10.581457  1063 net.cpp:91] Creating Layer inception_4e/5x5_reduce
I0403 14:16:10.581476  1063 net.cpp:425] inception_4e/5x5_reduce <- inception_4d/output_inception_4d/output_0_split_3
I0403 14:16:10.581498  1063 net.cpp:399] inception_4e/5x5_reduce -> inception_4e/5x5_reduce
I0403 14:16:10.582587  1063 net.cpp:141] Setting up inception_4e/5x5_reduce
I0403 14:16:10.582617  1063 net.cpp:148] Top shape: 24 32 14 14 (150528)
I0403 14:16:10.582633  1063 net.cpp:156] Memory required for data: 1236731424
I0403 14:16:10.582653  1063 layer_factory.hpp:77] Creating layer inception_4e/relu_5x5_reduce
I0403 14:16:10.582674  1063 net.cpp:91] Creating Layer inception_4e/relu_5x5_reduce
I0403 14:16:10.582690  1063 net.cpp:425] inception_4e/relu_5x5_reduce <- inception_4e/5x5_reduce
I0403 14:16:10.582708  1063 net.cpp:386] inception_4e/relu_5x5_reduce -> inception_4e/5x5_reduce (in-place)
I0403 14:16:10.583017  1063 net.cpp:141] Setting up inception_4e/relu_5x5_reduce
I0403 14:16:10.583042  1063 net.cpp:148] Top shape: 24 32 14 14 (150528)
I0403 14:16:10.583057  1063 net.cpp:156] Memory required for data: 1237333536
I0403 14:16:10.583072  1063 layer_factory.hpp:77] Creating layer inception_4e/5x5
I0403 14:16:10.583111  1063 net.cpp:91] Creating Layer inception_4e/5x5
I0403 14:16:10.583132  1063 net.cpp:425] inception_4e/5x5 <- inception_4e/5x5_reduce
I0403 14:16:10.583150  1063 net.cpp:399] inception_4e/5x5 -> inception_4e/5x5
I0403 14:16:10.585029  1063 net.cpp:141] Setting up inception_4e/5x5
I0403 14:16:10.585057  1063 net.cpp:148] Top shape: 24 128 14 14 (602112)
I0403 14:16:10.585073  1063 net.cpp:156] Memory required for data: 1239741984
I0403 14:16:10.585093  1063 layer_factory.hpp:77] Creating layer inception_4e/relu_5x5
I0403 14:16:10.585113  1063 net.cpp:91] Creating Layer inception_4e/relu_5x5
I0403 14:16:10.585129  1063 net.cpp:425] inception_4e/relu_5x5 <- inception_4e/5x5
I0403 14:16:10.585147  1063 net.cpp:386] inception_4e/relu_5x5 -> inception_4e/5x5 (in-place)
I0403 14:16:10.585348  1063 net.cpp:141] Setting up inception_4e/relu_5x5
I0403 14:16:10.585373  1063 net.cpp:148] Top shape: 24 128 14 14 (602112)
I0403 14:16:10.585392  1063 net.cpp:156] Memory required for data: 1242150432
I0403 14:16:10.585407  1063 layer_factory.hpp:77] Creating layer inception_4e/pool
I0403 14:16:10.585427  1063 net.cpp:91] Creating Layer inception_4e/pool
I0403 14:16:10.585443  1063 net.cpp:425] inception_4e/pool <- inception_4d/output_inception_4d/output_0_split_4
I0403 14:16:10.585461  1063 net.cpp:399] inception_4e/pool -> inception_4e/pool
I0403 14:16:10.585533  1063 net.cpp:141] Setting up inception_4e/pool
I0403 14:16:10.585557  1063 net.cpp:148] Top shape: 24 528 14 14 (2483712)
I0403 14:16:10.585572  1063 net.cpp:156] Memory required for data: 1252085280
I0403 14:16:10.585587  1063 layer_factory.hpp:77] Creating layer inception_4e/pool_proj
I0403 14:16:10.585608  1063 net.cpp:91] Creating Layer inception_4e/pool_proj
I0403 14:16:10.585626  1063 net.cpp:425] inception_4e/pool_proj <- inception_4e/pool
I0403 14:16:10.585647  1063 net.cpp:399] inception_4e/pool_proj -> inception_4e/pool_proj
I0403 14:16:10.587164  1063 net.cpp:141] Setting up inception_4e/pool_proj
I0403 14:16:10.587211  1063 net.cpp:148] Top shape: 24 128 14 14 (602112)
I0403 14:16:10.587229  1063 net.cpp:156] Memory required for data: 1254493728
I0403 14:16:10.587249  1063 layer_factory.hpp:77] Creating layer inception_4e/relu_pool_proj
I0403 14:16:10.587267  1063 net.cpp:91] Creating Layer inception_4e/relu_pool_proj
I0403 14:16:10.587283  1063 net.cpp:425] inception_4e/relu_pool_proj <- inception_4e/pool_proj
I0403 14:16:10.587303  1063 net.cpp:386] inception_4e/relu_pool_proj -> inception_4e/pool_proj (in-place)
I0403 14:16:10.587597  1063 net.cpp:141] Setting up inception_4e/relu_pool_proj
I0403 14:16:10.587623  1063 net.cpp:148] Top shape: 24 128 14 14 (602112)
I0403 14:16:10.587638  1063 net.cpp:156] Memory required for data: 1256902176
I0403 14:16:10.587653  1063 layer_factory.hpp:77] Creating layer inception_4e/output
I0403 14:16:10.587671  1063 net.cpp:91] Creating Layer inception_4e/output
I0403 14:16:10.587687  1063 net.cpp:425] inception_4e/output <- inception_4e/1x1
I0403 14:16:10.587704  1063 net.cpp:425] inception_4e/output <- inception_4e/3x3
I0403 14:16:10.587721  1063 net.cpp:425] inception_4e/output <- inception_4e/5x5
I0403 14:16:10.587738  1063 net.cpp:425] inception_4e/output <- inception_4e/pool_proj
I0403 14:16:10.587756  1063 net.cpp:399] inception_4e/output -> inception_4e/output
I0403 14:16:10.587807  1063 net.cpp:141] Setting up inception_4e/output
I0403 14:16:10.587833  1063 net.cpp:148] Top shape: 24 832 14 14 (3913728)
I0403 14:16:10.587848  1063 net.cpp:156] Memory required for data: 1272557088
I0403 14:16:10.587863  1063 layer_factory.hpp:77] Creating layer pool4/3x3_s2
I0403 14:16:10.587880  1063 net.cpp:91] Creating Layer pool4/3x3_s2
I0403 14:16:10.587896  1063 net.cpp:425] pool4/3x3_s2 <- inception_4e/output
I0403 14:16:10.587918  1063 net.cpp:399] pool4/3x3_s2 -> pool4/3x3_s2
I0403 14:16:10.587985  1063 net.cpp:141] Setting up pool4/3x3_s2
I0403 14:16:10.588008  1063 net.cpp:148] Top shape: 24 832 7 7 (978432)
I0403 14:16:10.588022  1063 net.cpp:156] Memory required for data: 1276470816
I0403 14:16:10.588050  1063 layer_factory.hpp:77] Creating layer pool4/3x3_s2_pool4/3x3_s2_0_split
I0403 14:16:10.588070  1063 net.cpp:91] Creating Layer pool4/3x3_s2_pool4/3x3_s2_0_split
I0403 14:16:10.588088  1063 net.cpp:425] pool4/3x3_s2_pool4/3x3_s2_0_split <- pool4/3x3_s2
I0403 14:16:10.588107  1063 net.cpp:399] pool4/3x3_s2_pool4/3x3_s2_0_split -> pool4/3x3_s2_pool4/3x3_s2_0_split_0
I0403 14:16:10.588129  1063 net.cpp:399] pool4/3x3_s2_pool4/3x3_s2_0_split -> pool4/3x3_s2_pool4/3x3_s2_0_split_1
I0403 14:16:10.588150  1063 net.cpp:399] pool4/3x3_s2_pool4/3x3_s2_0_split -> pool4/3x3_s2_pool4/3x3_s2_0_split_2
I0403 14:16:10.588173  1063 net.cpp:399] pool4/3x3_s2_pool4/3x3_s2_0_split -> pool4/3x3_s2_pool4/3x3_s2_0_split_3
I0403 14:16:10.588275  1063 net.cpp:141] Setting up pool4/3x3_s2_pool4/3x3_s2_0_split
I0403 14:16:10.588299  1063 net.cpp:148] Top shape: 24 832 7 7 (978432)
I0403 14:16:10.588316  1063 net.cpp:148] Top shape: 24 832 7 7 (978432)
I0403 14:16:10.588332  1063 net.cpp:148] Top shape: 24 832 7 7 (978432)
I0403 14:16:10.588361  1063 net.cpp:148] Top shape: 24 832 7 7 (978432)
I0403 14:16:10.588374  1063 net.cpp:156] Memory required for data: 1292125728
I0403 14:16:10.588389  1063 layer_factory.hpp:77] Creating layer inception_5a/1x1
I0403 14:16:10.588412  1063 net.cpp:91] Creating Layer inception_5a/1x1
I0403 14:16:10.588429  1063 net.cpp:425] inception_5a/1x1 <- pool4/3x3_s2_pool4/3x3_s2_0_split_0
I0403 14:16:10.588450  1063 net.cpp:399] inception_5a/1x1 -> inception_5a/1x1
I0403 14:16:10.591336  1063 net.cpp:141] Setting up inception_5a/1x1
I0403 14:16:10.591367  1063 net.cpp:148] Top shape: 24 256 7 7 (301056)
I0403 14:16:10.591382  1063 net.cpp:156] Memory required for data: 1293329952
I0403 14:16:10.591400  1063 layer_factory.hpp:77] Creating layer inception_5a/relu_1x1
I0403 14:16:10.591421  1063 net.cpp:91] Creating Layer inception_5a/relu_1x1
I0403 14:16:10.591437  1063 net.cpp:425] inception_5a/relu_1x1 <- inception_5a/1x1
I0403 14:16:10.591455  1063 net.cpp:386] inception_5a/relu_1x1 -> inception_5a/1x1 (in-place)
I0403 14:16:10.591761  1063 net.cpp:141] Setting up inception_5a/relu_1x1
I0403 14:16:10.591786  1063 net.cpp:148] Top shape: 24 256 7 7 (301056)
I0403 14:16:10.591801  1063 net.cpp:156] Memory required for data: 1294534176
I0403 14:16:10.591816  1063 layer_factory.hpp:77] Creating layer inception_5a/3x3_reduce
I0403 14:16:10.591838  1063 net.cpp:91] Creating Layer inception_5a/3x3_reduce
I0403 14:16:10.591857  1063 net.cpp:425] inception_5a/3x3_reduce <- pool4/3x3_s2_pool4/3x3_s2_0_split_1
I0403 14:16:10.591889  1063 net.cpp:399] inception_5a/3x3_reduce -> inception_5a/3x3_reduce
I0403 14:16:10.594363  1063 net.cpp:141] Setting up inception_5a/3x3_reduce
I0403 14:16:10.594393  1063 net.cpp:148] Top shape: 24 160 7 7 (188160)
I0403 14:16:10.594408  1063 net.cpp:156] Memory required for data: 1295286816
I0403 14:16:10.594426  1063 layer_factory.hpp:77] Creating layer inception_5a/relu_3x3_reduce
I0403 14:16:10.594454  1063 net.cpp:91] Creating Layer inception_5a/relu_3x3_reduce
I0403 14:16:10.594468  1063 net.cpp:425] inception_5a/relu_3x3_reduce <- inception_5a/3x3_reduce
I0403 14:16:10.594487  1063 net.cpp:386] inception_5a/relu_3x3_reduce -> inception_5a/3x3_reduce (in-place)
I0403 14:16:10.594671  1063 net.cpp:141] Setting up inception_5a/relu_3x3_reduce
I0403 14:16:10.594696  1063 net.cpp:148] Top shape: 24 160 7 7 (188160)
I0403 14:16:10.594709  1063 net.cpp:156] Memory required for data: 1296039456
I0403 14:16:10.594733  1063 layer_factory.hpp:77] Creating layer inception_5a/3x3
I0403 14:16:10.594754  1063 net.cpp:91] Creating Layer inception_5a/3x3
I0403 14:16:10.594771  1063 net.cpp:425] inception_5a/3x3 <- inception_5a/3x3_reduce
I0403 14:16:10.594795  1063 net.cpp:399] inception_5a/3x3 -> inception_5a/3x3
I0403 14:16:10.599853  1063 net.cpp:141] Setting up inception_5a/3x3
I0403 14:16:10.599882  1063 net.cpp:148] Top shape: 24 320 7 7 (376320)
I0403 14:16:10.599898  1063 net.cpp:156] Memory required for data: 1297544736
I0403 14:16:10.599918  1063 layer_factory.hpp:77] Creating layer inception_5a/relu_3x3
I0403 14:16:10.599939  1063 net.cpp:91] Creating Layer inception_5a/relu_3x3
I0403 14:16:10.599956  1063 net.cpp:425] inception_5a/relu_3x3 <- inception_5a/3x3
I0403 14:16:10.599974  1063 net.cpp:386] inception_5a/relu_3x3 -> inception_5a/3x3 (in-place)
I0403 14:16:10.600280  1063 net.cpp:141] Setting up inception_5a/relu_3x3
I0403 14:16:10.600306  1063 net.cpp:148] Top shape: 24 320 7 7 (376320)
I0403 14:16:10.600319  1063 net.cpp:156] Memory required for data: 1299050016
I0403 14:16:10.600334  1063 layer_factory.hpp:77] Creating layer inception_5a/5x5_reduce
I0403 14:16:10.600356  1063 net.cpp:91] Creating Layer inception_5a/5x5_reduce
I0403 14:16:10.600374  1063 net.cpp:425] inception_5a/5x5_reduce <- pool4/3x3_s2_pool4/3x3_s2_0_split_2
I0403 14:16:10.600399  1063 net.cpp:399] inception_5a/5x5_reduce -> inception_5a/5x5_reduce
I0403 14:16:10.601577  1063 net.cpp:141] Setting up inception_5a/5x5_reduce
I0403 14:16:10.601606  1063 net.cpp:148] Top shape: 24 32 7 7 (37632)
I0403 14:16:10.601622  1063 net.cpp:156] Memory required for data: 1299200544
I0403 14:16:10.601640  1063 layer_factory.hpp:77] Creating layer inception_5a/relu_5x5_reduce
I0403 14:16:10.601658  1063 net.cpp:91] Creating Layer inception_5a/relu_5x5_reduce
I0403 14:16:10.601673  1063 net.cpp:425] inception_5a/relu_5x5_reduce <- inception_5a/5x5_reduce
I0403 14:16:10.601691  1063 net.cpp:386] inception_5a/relu_5x5_reduce -> inception_5a/5x5_reduce (in-place)
I0403 14:16:10.601982  1063 net.cpp:141] Setting up inception_5a/relu_5x5_reduce
I0403 14:16:10.602007  1063 net.cpp:148] Top shape: 24 32 7 7 (37632)
I0403 14:16:10.602022  1063 net.cpp:156] Memory required for data: 1299351072
I0403 14:16:10.602037  1063 layer_factory.hpp:77] Creating layer inception_5a/5x5
I0403 14:16:10.602058  1063 net.cpp:91] Creating Layer inception_5a/5x5
I0403 14:16:10.602077  1063 net.cpp:425] inception_5a/5x5 <- inception_5a/5x5_reduce
I0403 14:16:10.602097  1063 net.cpp:399] inception_5a/5x5 -> inception_5a/5x5
I0403 14:16:10.603824  1063 net.cpp:141] Setting up inception_5a/5x5
I0403 14:16:10.603866  1063 net.cpp:148] Top shape: 24 128 7 7 (150528)
I0403 14:16:10.603883  1063 net.cpp:156] Memory required for data: 1299953184
I0403 14:16:10.603901  1063 layer_factory.hpp:77] Creating layer inception_5a/relu_5x5
I0403 14:16:10.603921  1063 net.cpp:91] Creating Layer inception_5a/relu_5x5
I0403 14:16:10.603937  1063 net.cpp:425] inception_5a/relu_5x5 <- inception_5a/5x5
I0403 14:16:10.603955  1063 net.cpp:386] inception_5a/relu_5x5 -> inception_5a/5x5 (in-place)
I0403 14:16:10.604153  1063 net.cpp:141] Setting up inception_5a/relu_5x5
I0403 14:16:10.604187  1063 net.cpp:148] Top shape: 24 128 7 7 (150528)
I0403 14:16:10.604204  1063 net.cpp:156] Memory required for data: 1300555296
I0403 14:16:10.604219  1063 layer_factory.hpp:77] Creating layer inception_5a/pool
I0403 14:16:10.604238  1063 net.cpp:91] Creating Layer inception_5a/pool
I0403 14:16:10.604254  1063 net.cpp:425] inception_5a/pool <- pool4/3x3_s2_pool4/3x3_s2_0_split_3
I0403 14:16:10.604274  1063 net.cpp:399] inception_5a/pool -> inception_5a/pool
I0403 14:16:10.604357  1063 net.cpp:141] Setting up inception_5a/pool
I0403 14:16:10.604379  1063 net.cpp:148] Top shape: 24 832 7 7 (978432)
I0403 14:16:10.604394  1063 net.cpp:156] Memory required for data: 1304469024
I0403 14:16:10.604409  1063 layer_factory.hpp:77] Creating layer inception_5a/pool_proj
I0403 14:16:10.604434  1063 net.cpp:91] Creating Layer inception_5a/pool_proj
I0403 14:16:10.604452  1063 net.cpp:425] inception_5a/pool_proj <- inception_5a/pool
I0403 14:16:10.604472  1063 net.cpp:399] inception_5a/pool_proj -> inception_5a/pool_proj
I0403 14:16:10.606739  1063 net.cpp:141] Setting up inception_5a/pool_proj
I0403 14:16:10.606770  1063 net.cpp:148] Top shape: 24 128 7 7 (150528)
I0403 14:16:10.606786  1063 net.cpp:156] Memory required for data: 1305071136
I0403 14:16:10.606804  1063 layer_factory.hpp:77] Creating layer inception_5a/relu_pool_proj
I0403 14:16:10.606827  1063 net.cpp:91] Creating Layer inception_5a/relu_pool_proj
I0403 14:16:10.606845  1063 net.cpp:425] inception_5a/relu_pool_proj <- inception_5a/pool_proj
I0403 14:16:10.606864  1063 net.cpp:386] inception_5a/relu_pool_proj -> inception_5a/pool_proj (in-place)
I0403 14:16:10.607167  1063 net.cpp:141] Setting up inception_5a/relu_pool_proj
I0403 14:16:10.607199  1063 net.cpp:148] Top shape: 24 128 7 7 (150528)
I0403 14:16:10.607216  1063 net.cpp:156] Memory required for data: 1305673248
I0403 14:16:10.607233  1063 layer_factory.hpp:77] Creating layer inception_5a/output
I0403 14:16:10.607261  1063 net.cpp:91] Creating Layer inception_5a/output
I0403 14:16:10.607276  1063 net.cpp:425] inception_5a/output <- inception_5a/1x1
I0403 14:16:10.607293  1063 net.cpp:425] inception_5a/output <- inception_5a/3x3
I0403 14:16:10.607309  1063 net.cpp:425] inception_5a/output <- inception_5a/5x5
I0403 14:16:10.607324  1063 net.cpp:425] inception_5a/output <- inception_5a/pool_proj
I0403 14:16:10.607344  1063 net.cpp:399] inception_5a/output -> inception_5a/output
I0403 14:16:10.607394  1063 net.cpp:141] Setting up inception_5a/output
I0403 14:16:10.607419  1063 net.cpp:148] Top shape: 24 832 7 7 (978432)
I0403 14:16:10.607435  1063 net.cpp:156] Memory required for data: 1309586976
I0403 14:16:10.607450  1063 layer_factory.hpp:77] Creating layer inception_5a/output_inception_5a/output_0_split
I0403 14:16:10.607467  1063 net.cpp:91] Creating Layer inception_5a/output_inception_5a/output_0_split
I0403 14:16:10.607483  1063 net.cpp:425] inception_5a/output_inception_5a/output_0_split <- inception_5a/output
I0403 14:16:10.607503  1063 net.cpp:399] inception_5a/output_inception_5a/output_0_split -> inception_5a/output_inception_5a/output_0_split_0
I0403 14:16:10.607525  1063 net.cpp:399] inception_5a/output_inception_5a/output_0_split -> inception_5a/output_inception_5a/output_0_split_1
I0403 14:16:10.607545  1063 net.cpp:399] inception_5a/output_inception_5a/output_0_split -> inception_5a/output_inception_5a/output_0_split_2
I0403 14:16:10.607565  1063 net.cpp:399] inception_5a/output_inception_5a/output_0_split -> inception_5a/output_inception_5a/output_0_split_3
I0403 14:16:10.607672  1063 net.cpp:141] Setting up inception_5a/output_inception_5a/output_0_split
I0403 14:16:10.607697  1063 net.cpp:148] Top shape: 24 832 7 7 (978432)
I0403 14:16:10.607712  1063 net.cpp:148] Top shape: 24 832 7 7 (978432)
I0403 14:16:10.607728  1063 net.cpp:148] Top shape: 24 832 7 7 (978432)
I0403 14:16:10.607743  1063 net.cpp:148] Top shape: 24 832 7 7 (978432)
I0403 14:16:10.607756  1063 net.cpp:156] Memory required for data: 1325241888
I0403 14:16:10.607770  1063 layer_factory.hpp:77] Creating layer inception_5b/1x1
I0403 14:16:10.607792  1063 net.cpp:91] Creating Layer inception_5b/1x1
I0403 14:16:10.607810  1063 net.cpp:425] inception_5b/1x1 <- inception_5a/output_inception_5a/output_0_split_0
I0403 14:16:10.607831  1063 net.cpp:399] inception_5b/1x1 -> inception_5b/1x1
I0403 14:16:10.611610  1063 net.cpp:141] Setting up inception_5b/1x1
I0403 14:16:10.611644  1063 net.cpp:148] Top shape: 24 384 7 7 (451584)
I0403 14:16:10.611660  1063 net.cpp:156] Memory required for data: 1327048224
I0403 14:16:10.611677  1063 layer_factory.hpp:77] Creating layer inception_5b/relu_1x1
I0403 14:16:10.611696  1063 net.cpp:91] Creating Layer inception_5b/relu_1x1
I0403 14:16:10.611712  1063 net.cpp:425] inception_5b/relu_1x1 <- inception_5b/1x1
I0403 14:16:10.611733  1063 net.cpp:386] inception_5b/relu_1x1 -> inception_5b/1x1 (in-place)
I0403 14:16:10.612047  1063 net.cpp:141] Setting up inception_5b/relu_1x1
I0403 14:16:10.612073  1063 net.cpp:148] Top shape: 24 384 7 7 (451584)
I0403 14:16:10.612088  1063 net.cpp:156] Memory required for data: 1328854560
I0403 14:16:10.612102  1063 layer_factory.hpp:77] Creating layer inception_5b/3x3_reduce
I0403 14:16:10.612124  1063 net.cpp:91] Creating Layer inception_5b/3x3_reduce
I0403 14:16:10.612143  1063 net.cpp:425] inception_5b/3x3_reduce <- inception_5a/output_inception_5a/output_0_split_1
I0403 14:16:10.612165  1063 net.cpp:399] inception_5b/3x3_reduce -> inception_5b/3x3_reduce
I0403 14:16:10.614842  1063 net.cpp:141] Setting up inception_5b/3x3_reduce
I0403 14:16:10.614872  1063 net.cpp:148] Top shape: 24 192 7 7 (225792)
I0403 14:16:10.614889  1063 net.cpp:156] Memory required for data: 1329757728
I0403 14:16:10.614908  1063 layer_factory.hpp:77] Creating layer inception_5b/relu_3x3_reduce
I0403 14:16:10.614926  1063 net.cpp:91] Creating Layer inception_5b/relu_3x3_reduce
I0403 14:16:10.614945  1063 net.cpp:425] inception_5b/relu_3x3_reduce <- inception_5b/3x3_reduce
I0403 14:16:10.614964  1063 net.cpp:386] inception_5b/relu_3x3_reduce -> inception_5b/3x3_reduce (in-place)
I0403 14:16:10.615156  1063 net.cpp:141] Setting up inception_5b/relu_3x3_reduce
I0403 14:16:10.615187  1063 net.cpp:148] Top shape: 24 192 7 7 (225792)
I0403 14:16:10.615205  1063 net.cpp:156] Memory required for data: 1330660896
I0403 14:16:10.615219  1063 layer_factory.hpp:77] Creating layer inception_5b/3x3
I0403 14:16:10.615243  1063 net.cpp:91] Creating Layer inception_5b/3x3
I0403 14:16:10.615262  1063 net.cpp:425] inception_5b/3x3 <- inception_5b/3x3_reduce
I0403 14:16:10.615285  1063 net.cpp:399] inception_5b/3x3 -> inception_5b/3x3
I0403 14:16:10.622084  1063 net.cpp:141] Setting up inception_5b/3x3
I0403 14:16:10.622117  1063 net.cpp:148] Top shape: 24 384 7 7 (451584)
I0403 14:16:10.622133  1063 net.cpp:156] Memory required for data: 1332467232
I0403 14:16:10.622153  1063 layer_factory.hpp:77] Creating layer inception_5b/relu_3x3
I0403 14:16:10.622175  1063 net.cpp:91] Creating Layer inception_5b/relu_3x3
I0403 14:16:10.622207  1063 net.cpp:425] inception_5b/relu_3x3 <- inception_5b/3x3
I0403 14:16:10.622225  1063 net.cpp:386] inception_5b/relu_3x3 -> inception_5b/3x3 (in-place)
I0403 14:16:10.622521  1063 net.cpp:141] Setting up inception_5b/relu_3x3
I0403 14:16:10.622548  1063 net.cpp:148] Top shape: 24 384 7 7 (451584)
I0403 14:16:10.622563  1063 net.cpp:156] Memory required for data: 1334273568
I0403 14:16:10.622578  1063 layer_factory.hpp:77] Creating layer inception_5b/5x5_reduce
I0403 14:16:10.622619  1063 net.cpp:91] Creating Layer inception_5b/5x5_reduce
I0403 14:16:10.622638  1063 net.cpp:425] inception_5b/5x5_reduce <- inception_5a/output_inception_5a/output_0_split_2
I0403 14:16:10.622661  1063 net.cpp:399] inception_5b/5x5_reduce -> inception_5b/5x5_reduce
I0403 14:16:10.623946  1063 net.cpp:141] Setting up inception_5b/5x5_reduce
I0403 14:16:10.623973  1063 net.cpp:148] Top shape: 24 48 7 7 (56448)
I0403 14:16:10.623989  1063 net.cpp:156] Memory required for data: 1334499360
I0403 14:16:10.624007  1063 layer_factory.hpp:77] Creating layer inception_5b/relu_5x5_reduce
I0403 14:16:10.624025  1063 net.cpp:91] Creating Layer inception_5b/relu_5x5_reduce
I0403 14:16:10.624042  1063 net.cpp:425] inception_5b/relu_5x5_reduce <- inception_5b/5x5_reduce
I0403 14:16:10.624063  1063 net.cpp:386] inception_5b/relu_5x5_reduce -> inception_5b/5x5_reduce (in-place)
I0403 14:16:10.624438  1063 net.cpp:141] Setting up inception_5b/relu_5x5_reduce
I0403 14:16:10.624464  1063 net.cpp:148] Top shape: 24 48 7 7 (56448)
I0403 14:16:10.624480  1063 net.cpp:156] Memory required for data: 1334725152
I0403 14:16:10.624495  1063 layer_factory.hpp:77] Creating layer inception_5b/5x5
I0403 14:16:10.624516  1063 net.cpp:91] Creating Layer inception_5b/5x5
I0403 14:16:10.624532  1063 net.cpp:425] inception_5b/5x5 <- inception_5b/5x5_reduce
I0403 14:16:10.624550  1063 net.cpp:399] inception_5b/5x5 -> inception_5b/5x5
I0403 14:16:10.626617  1063 net.cpp:141] Setting up inception_5b/5x5
I0403 14:16:10.626647  1063 net.cpp:148] Top shape: 24 128 7 7 (150528)
I0403 14:16:10.626664  1063 net.cpp:156] Memory required for data: 1335327264
I0403 14:16:10.626696  1063 layer_factory.hpp:77] Creating layer inception_5b/relu_5x5
I0403 14:16:10.626719  1063 net.cpp:91] Creating Layer inception_5b/relu_5x5
I0403 14:16:10.626739  1063 net.cpp:425] inception_5b/relu_5x5 <- inception_5b/5x5
I0403 14:16:10.626756  1063 net.cpp:386] inception_5b/relu_5x5 -> inception_5b/5x5 (in-place)
I0403 14:16:10.626950  1063 net.cpp:141] Setting up inception_5b/relu_5x5
I0403 14:16:10.626976  1063 net.cpp:148] Top shape: 24 128 7 7 (150528)
I0403 14:16:10.626991  1063 net.cpp:156] Memory required for data: 1335929376
I0403 14:16:10.627005  1063 layer_factory.hpp:77] Creating layer inception_5b/pool
I0403 14:16:10.627027  1063 net.cpp:91] Creating Layer inception_5b/pool
I0403 14:16:10.627045  1063 net.cpp:425] inception_5b/pool <- inception_5a/output_inception_5a/output_0_split_3
I0403 14:16:10.627066  1063 net.cpp:399] inception_5b/pool -> inception_5b/pool
I0403 14:16:10.627140  1063 net.cpp:141] Setting up inception_5b/pool
I0403 14:16:10.627163  1063 net.cpp:148] Top shape: 24 832 7 7 (978432)
I0403 14:16:10.627184  1063 net.cpp:156] Memory required for data: 1339843104
I0403 14:16:10.627202  1063 layer_factory.hpp:77] Creating layer inception_5b/pool_proj
I0403 14:16:10.627229  1063 net.cpp:91] Creating Layer inception_5b/pool_proj
I0403 14:16:10.627249  1063 net.cpp:425] inception_5b/pool_proj <- inception_5b/pool
I0403 14:16:10.627270  1063 net.cpp:399] inception_5b/pool_proj -> inception_5b/pool_proj
I0403 14:16:10.629658  1063 net.cpp:141] Setting up inception_5b/pool_proj
I0403 14:16:10.629688  1063 net.cpp:148] Top shape: 24 128 7 7 (150528)
I0403 14:16:10.629705  1063 net.cpp:156] Memory required for data: 1340445216
I0403 14:16:10.629725  1063 layer_factory.hpp:77] Creating layer inception_5b/relu_pool_proj
I0403 14:16:10.629757  1063 net.cpp:91] Creating Layer inception_5b/relu_pool_proj
I0403 14:16:10.629776  1063 net.cpp:425] inception_5b/relu_pool_proj <- inception_5b/pool_proj
I0403 14:16:10.629796  1063 net.cpp:386] inception_5b/relu_pool_proj -> inception_5b/pool_proj (in-place)
I0403 14:16:10.630113  1063 net.cpp:141] Setting up inception_5b/relu_pool_proj
I0403 14:16:10.630139  1063 net.cpp:148] Top shape: 24 128 7 7 (150528)
I0403 14:16:10.630154  1063 net.cpp:156] Memory required for data: 1341047328
I0403 14:16:10.630169  1063 layer_factory.hpp:77] Creating layer inception_5b/output
I0403 14:16:10.630194  1063 net.cpp:91] Creating Layer inception_5b/output
I0403 14:16:10.630225  1063 net.cpp:425] inception_5b/output <- inception_5b/1x1
I0403 14:16:10.630244  1063 net.cpp:425] inception_5b/output <- inception_5b/3x3
I0403 14:16:10.630260  1063 net.cpp:425] inception_5b/output <- inception_5b/5x5
I0403 14:16:10.630276  1063 net.cpp:425] inception_5b/output <- inception_5b/pool_proj
I0403 14:16:10.630296  1063 net.cpp:399] inception_5b/output -> inception_5b/output
I0403 14:16:10.630348  1063 net.cpp:141] Setting up inception_5b/output
I0403 14:16:10.630375  1063 net.cpp:148] Top shape: 24 1024 7 7 (1204224)
I0403 14:16:10.630390  1063 net.cpp:156] Memory required for data: 1345864224
I0403 14:16:10.630405  1063 layer_factory.hpp:77] Creating layer pool5/7x7_s1
I0403 14:16:10.630424  1063 net.cpp:91] Creating Layer pool5/7x7_s1
I0403 14:16:10.630439  1063 net.cpp:425] pool5/7x7_s1 <- inception_5b/output
I0403 14:16:10.630461  1063 net.cpp:399] pool5/7x7_s1 -> pool5/7x7_s1
I0403 14:16:10.630676  1063 net.cpp:141] Setting up pool5/7x7_s1
I0403 14:16:10.630700  1063 net.cpp:148] Top shape: 24 1024 1 1 (24576)
I0403 14:16:10.630715  1063 net.cpp:156] Memory required for data: 1345962528
I0403 14:16:10.630730  1063 layer_factory.hpp:77] Creating layer pool5/drop_7x7_s1
I0403 14:16:10.630748  1063 net.cpp:91] Creating Layer pool5/drop_7x7_s1
I0403 14:16:10.630765  1063 net.cpp:425] pool5/drop_7x7_s1 <- pool5/7x7_s1
I0403 14:16:10.630784  1063 net.cpp:386] pool5/drop_7x7_s1 -> pool5/7x7_s1 (in-place)
I0403 14:16:10.630836  1063 net.cpp:141] Setting up pool5/drop_7x7_s1
I0403 14:16:10.630861  1063 net.cpp:148] Top shape: 24 1024 1 1 (24576)
I0403 14:16:10.630874  1063 net.cpp:156] Memory required for data: 1346060832
I0403 14:16:10.630889  1063 layer_factory.hpp:77] Creating layer loss3/classifier_plantvillage
I0403 14:16:10.630909  1063 net.cpp:91] Creating Layer loss3/classifier_plantvillage
I0403 14:16:10.630925  1063 net.cpp:425] loss3/classifier_plantvillage <- pool5/7x7_s1
I0403 14:16:10.630946  1063 net.cpp:399] loss3/classifier_plantvillage -> loss3/classifier_plantvillage
I0403 14:16:10.631388  1063 net.cpp:141] Setting up loss3/classifier_plantvillage
I0403 14:16:10.631414  1063 net.cpp:148] Top shape: 24 38 (912)
I0403 14:16:10.631429  1063 net.cpp:156] Memory required for data: 1346064480
I0403 14:16:10.631449  1063 layer_factory.hpp:77] Creating layer loss3/classifier_plantvillage_loss3/classifier_plantvillage_0_split
I0403 14:16:10.631472  1063 net.cpp:91] Creating Layer loss3/classifier_plantvillage_loss3/classifier_plantvillage_0_split
I0403 14:16:10.631491  1063 net.cpp:425] loss3/classifier_plantvillage_loss3/classifier_plantvillage_0_split <- loss3/classifier_plantvillage
I0403 14:16:10.631511  1063 net.cpp:399] loss3/classifier_plantvillage_loss3/classifier_plantvillage_0_split -> loss3/classifier_plantvillage_loss3/classifier_plantvillage_0_split_0
I0403 14:16:10.631533  1063 net.cpp:399] loss3/classifier_plantvillage_loss3/classifier_plantvillage_0_split -> loss3/classifier_plantvillage_loss3/classifier_plantvillage_0_split_1
I0403 14:16:10.631554  1063 net.cpp:399] loss3/classifier_plantvillage_loss3/classifier_plantvillage_0_split -> loss3/classifier_plantvillage_loss3/classifier_plantvillage_0_split_2
I0403 14:16:10.631587  1063 net.cpp:399] loss3/classifier_plantvillage_loss3/classifier_plantvillage_0_split -> loss3/classifier_plantvillage_loss3/classifier_plantvillage_0_split_3
I0403 14:16:10.631685  1063 net.cpp:141] Setting up loss3/classifier_plantvillage_loss3/classifier_plantvillage_0_split
I0403 14:16:10.631710  1063 net.cpp:148] Top shape: 24 38 (912)
I0403 14:16:10.631726  1063 net.cpp:148] Top shape: 24 38 (912)
I0403 14:16:10.631741  1063 net.cpp:148] Top shape: 24 38 (912)
I0403 14:16:10.631755  1063 net.cpp:148] Top shape: 24 38 (912)
I0403 14:16:10.631768  1063 net.cpp:156] Memory required for data: 1346079072
I0403 14:16:10.631783  1063 layer_factory.hpp:77] Creating layer loss1/loss
I0403 14:16:10.631804  1063 net.cpp:91] Creating Layer loss1/loss
I0403 14:16:10.631822  1063 net.cpp:425] loss1/loss <- loss1/classifier_plantvillage_loss1/classifier_plantvillage_0_split_0
I0403 14:16:10.631852  1063 net.cpp:425] loss1/loss <- label_data_1_split_0
…
