…
I0403 13:53:54.867601   482 net.cpp:313] The NetState phase (1) differed from the phase (0) specified by a rule in layer data
I0403 13:53:54.868757   482 net.cpp:49] Initializing net from parameters: 
state {
  phase: TEST
}
layer {
  name: "data"
  type: "Data"
  top: "data"
  top: "label"
  include {
    phase: TEST
  }
  transform_param {
    mirror: false
    crop_size: 224
    mean_file: "/home/mohanty/data/final_dataset/lmdb/grayscale-20-80/mean.binaryproto"
  }
  data_param {
    source: "/home/mohanty/data/final_dataset/lmdb/grayscale-20-80/test_db"
    batch_size: 24
    backend: LMDB
  }
}
layer {
  name: "conv1/7x7_s2"
  type: "Convolution"
  bottom: "data"
  top: "conv1/7x7_s2"
  param {
    lr_mult: 1
    decay_mult: 1
  }
  param {
    lr_mult: 2
    decay_mult: 0
  }
  convolution_param {
    num_output: 64
    pad: 3
    kernel_size: 7
    stride: 2
    weight_filler {
      type: "xavier"
      std: 0.1
    }
    bias_filler {
      type: "constant"
      value: 0.2
    }
  }
}
layer {
  name: "conv1/relu_7x7"
  type: "ReLU"
  bottom: "conv1/7x7_s2"
  top: "conv1/7x7_s2"
}
layer {
  name: "pool1/3x3_s2"
  type: "Pooling"
  bottom: "conv1/7x7_s2"
  top: "pool1/3x3_s2"
  pooling_param {
    pool: MAX
    kernel_size: 3
    stride: 2
  }
}
layer {
  name: "pool1/norm1"
  type: "LRN"
  bottom: "pool1/3x3_s2"
  top: "pool1/norm1"
  lrn_param {
    local_size: 5
    alpha: 0.0001
    beta: 0.75
  }
}
layer {
  name: "conv2/3x3_reduce"
  type: "Convolution"
  bottom: "pool1/norm1"
  top: "conv2/3x3_reduce"
  param {
    lr_mult: 1
    decay_mult: 1
  }
  param {
    lr_mult: 2
    decay_mult: 0
  }
  convolution_param {
    num_output: 64
    kernel_size: 1
    weight_filler {
      type: "xavier"
      std: 0.1
    }
    bias_filler {
      type: "constant"
      value: 0.2
    }
  }
}
layer {
  name: "conv2/relu_3x3_reduce"
  type: "ReLU"
  bottom: "conv2/3x3_reduce"
  top: "conv2/3x3_reduce"
}
layer {
  name: "conv2/3x3"
  type: "Convolution"
  bottom: "conv2/3x3_reduce"
  top: "conv2/3x3"
  param {
    lr_mult: 1
    decay_mult: 1
  }
  param {
    lr_mult: 2
    decay_mult: 0
  }
  convolution_param {
    num_output: 192
    pad: 1
    kernel_size: 3
    weight_filler {
      type: "xavier"
      std: 0.03
    }
    bias_filler {
      type: "constant"
      value: 0.2
    }
  }
}
layer {
  name: "conv2/relu_3x3"
  type: "ReLU"
  bottom: "conv2/3x3"
  top: "conv2/3x3"
}
layer {
  name: "conv2/norm2"
  type: "LRN"
  bottom: "conv2/3x3"
  top: "conv2/norm2"
  lrn_param {
    local_size: 5
    alpha: 0.0001
    beta: 0.75
  }
}
layer {
  name: "pool2/3x3_s2"
  type: "Pooling"
  bottom: "conv2/norm2"
  top: "pool2/3x3_s2"
  pooling_param {
    pool: MAX
    kernel_size: 3
    stride: 2
  }
}
layer {
  name: "inception_3a/1x1"
  type: "Convolution"
  bottom: "pool2/3x3_s2"
  top: "inception_3a/1x1"
  param {
    lr_mult: 1
    decay_mult: 1
  }
  param {
    lr_mult: 2
    decay_mult: 0
  }
  convolution_param {
    num_output: 64
    kernel_size: 1
    weight_filler {
      type: "xavier"
      std: 0.03
    }
    bias_filler {
      type: "constant"
      value: 0.2
    }
  }
}
layer {
  name: "inception_3a/relu_1x1"
  type: "ReLU"
  bottom: "inception_3a/1x1"
  top: "inception_3a/1x1"
}
layer {
  name: "inception_3a/3x3_reduce"
  type: "Convolution"
  bottom: "pool2/3x3_s2"
  top: "inception_3a/3x3_reduce"
  param {
    lr_mult: 1
    decay_mult: 1
  }
  param {
    lr_mult: 2
    decay_mult: 0
  }
  convolution_param {
    num_output: 96
    kernel_size: 1
    weight_filler {
      type: "xavier"
      std: 0.09
    }
    bias_filler {
      type: "constant"
      value: 0.2
    }
  }
}
layer {
  name: "inception_3a/relu_3x3_reduce"
  type: "ReLU"
  bottom: "inception_3a/3x3_reduce"
  top: "inception_3a/3x3_reduce"
}
layer {
  name: "inception_3a/3x3"
  type: "Convolution"
  bottom: "inception_3a/3x3_reduce"
  top: "inception_3a/3x3"
  param {
    lr_mult: 1
    decay_mult: 1
  }
  param {
    lr_mult: 2
    decay_mult: 0
  }
  convolution_param {
    num_output: 128
    pad: 1
    kernel_size: 3
    weight_filler {
      type: "xavier"
      std: 0.03
    }
    bias_filler {
      type: "constant"
      value: 0.2
    }
  }
}
layer {
  name: "inception_3a/relu_3x3"
  type: "ReLU"
  bottom: "inception_3a/3x3"
  top: "inception_3a/3x3"
}
layer {
  name: "inception_3a/5x5_reduce"
  type: "Convolution"
  bottom: "pool2/3x3_s2"
  top: "inception_3a/5x5_reduce"
  param {
    lr_mult: 1
    decay_mult: 1
  }
  param {
    lr_mult: 2
    decay_mult: 0
  }
  convolution_param {
    num_output: 16
    kernel_size: 1
    weight_filler {
      type: "xavier"
      std: 0.2
    }
    bias_filler {
      type: "constant"
      value: 0.2
    }
  }
}
layer {
  name: "inception_3a/relu_5x5_reduce"
  type: "ReLU"
  bottom: "inception_3a/5x5_reduce"
  top: "inception_3a/5x5_reduce"
}
layer {
  name: "inception_3a/5x5"
  type: "Convolution"
  bottom: "inception_3a/5x5_reduce"
  top: "inception_3a/5x5"
  param {
    lr_mult: 1
    decay_mult: 1
  }
  param {
    lr_mult: 2
    decay_mult: 0
  }
  convolution_param {
    num_output: 32
    pad: 2
    kernel_size: 5
    weight_filler {
      type: "xavier"
      std: 0.03
    }
    bias_filler {
      type: "constant"
      value: 0.2
    }
  }
}
layer {
  name: "inception_3a/relu_5x5"
  type: "ReLU"
  bottom: "inception_3a/5x5"
  top: "inception_3a/5x5"
}
layer {
  name: "inception_3a/pool"
  type: "Pooling"
  bottom: "pool2/3x3_s2"
  top: "inception_3a/pool"
  pooling_param {
    pool: MAX
    kernel_size: 3
    stride: 1
    pad: 1
  }
}
layer {
  name: "inception_3a/pool_proj"
  type: "Convolution"
  bottom: "inception_3a/pool"
  top: "inception_3a/pool_proj"
  param {
    lr_mult: 1
    decay_mult: 1
  }
  param {
    lr_mult: 2
    decay_mult: 0
  }
  convolution_param {
    num_output: 32
    kernel_size: 1
    weight_filler {
      type: "xavier"
      std: 0.1
    }
    bias_filler {
      type: "constant"
      value: 0.2
    }
  }
}
layer {
  name: "inception_3a/relu_pool_proj"
  type: "ReLU"
  bottom: "inception_3a/pool_proj"
  top: "inception_3a/pool_proj"
}
layer {
  name: "inception_3a/output"
  type: "Concat"
  bottom: "inception_3a/1x1"
  bottom: "inception_3a/3x3"
  bottom: "inception_3a/5x5"
  bottom: "inception_3a/pool_proj"
  top: "inception_3a/output"
}
layer {
  name: "inception_3b/1x1"
  type: "Convolution"
  bottom: "inception_3a/output"
  top: "inception_3b/1x1"
  param {
    lr_mult: 1
    decay_mult: 1
  }
  param {
    lr_mult: 2
    decay_mult: 0
  }
  convolution_param {
    num_output: 128
    kernel_size: 1
    weight_filler {
      type: "xavier"
      std: 0.03
    }
    bias_filler {
      type: "constant"
      value: 0.2
    }
  }
}
layer {
  name: "inception_3b/relu_1x1"
  type: "ReLU"
  bottom: "inception_3b/1x1"
  top: "inception_3b/1x1"
}
layer {
  name: "inception_3b/3x3_reduce"
  type: "Convolution"
  bottom: "inception_3a/output"
  top: "inception_3b/3x3_reduce"
  param {
    lr_mult: 1
    decay_mult: 1
  }
  param {
    lr_mult: 2
    decay_mult: 0
  }
  convolution_param {
    num_output: 128
    kernel_size: 1
    weight_filler {
      type: "xavier"
      std: 0.09
    }
    bias_filler {
      type: "constant"
      value: 0.2
    }
  }
}
layer {
  name: "inception_3b/relu_3x3_reduce"
  type: "ReLU"
  bottom: "inception_3b/3x3_reduce"
  top: "inception_3b/3x3_reduce"
}
layer {
  name: "inception_3b/3x3"
  type: "Convolution"
  bottom: "inception_3b/3x3_reduce"
  top: "inception_3b/3x3"
  param {
    lr_mult: 1
    decay_mult: 1
  }
  param {
    lr_mult: 2
    decay_mult: 0
  }
  convolution_param {
    num_output: 192
    pad: 1
    kernel_size: 3
    weight_filler {
      type: "xavier"
      std: 0.03
    }
    bias_filler {
      type: "constant"
      value: 0.2
    }
  }
}
layer {
  name: "inception_3b/relu_3x3"
  type: "ReLU"
  bottom: "inception_3b/3x3"
  top: "inception_3b/3x3"
}
layer {
  name: "inception_3b/5x5_reduce"
  type: "Convolution"
  bottom: "inception_3a/output"
  top: "inception_3b/5x5_reduce"
  param {
    lr_mult: 1
    decay_mult: 1
  }
  param {
    lr_mult: 2
    decay_mult: 0
  }
  convolution_param {
    num_output: 32
    kernel_size: 1
    weight_filler {
      type: "xavier"
      std: 0.2
    }
    bias_filler {
      type: "constant"
      value: 0.2
    }
  }
}
layer {
  name: "inception_3b/relu_5x5_reduce"
  type: "ReLU"
  bottom: "inception_3b/5x5_reduce"
  top: "inception_3b/5x5_reduce"
}
layer {
  name: "inception_3b/5x5"
  type: "Convolution"
  bottom: "inception_3b/5x5_reduce"
  top: "inception_3b/5x5"
  param {
    lr_mult: 1
    decay_mult: 1
  }
  param {
    lr_mult: 2
    decay_mult: 0
  }
  convolution_param {
    num_output: 96
    pad: 2
    kernel_size: 5
    weight_filler {
      type: "xavier"
      std: 0.03
    }
    bias_filler {
      type: "constant"
      value: 0.2
    }
  }
}
layer {
  name: "inception_3b/relu_5x5"
  type: "ReLU"
  bottom: "inception_3b/5x5"
  top: "inception_3b/5x5"
}
layer {
  name: "inception_3b/pool"
  type: "Pooling"
  bottom: "inception_3a/output"
  top: "inception_3b/pool"
  pooling_param {
    pool: MAX
    kernel_size: 3
    stride: 1
    pad: 1
  }
}
layer {
  name: "inception_3b/pool_proj"
  type: "Convolution"
  bottom: "inception_3b/pool"
  top: "inception_3b/pool_proj"
  param {
    lr_mult: 1
    decay_mult: 1
  }
  param {
    lr_mult: 2
    decay_mult: 0
  }
  convolution_param {
    num_output: 64
    kernel_size: 1
    weight_filler {
      type: "xavier"
      std: 0.1
    }
    bias_filler {
      type: "constant"
      value: 0.2
    }
  }
}
layer {
  name: "inception_3b/relu_pool_proj"
  type: "ReLU"
  bottom: "inception_3b/pool_proj"
  top: "inception_3b/pool_proj"
}
layer {
  name: "inception_3b/output"
  type: "Concat"
  bottom: "inception_3b/1x1"
  bottom: "inception_3b/3x3"
  bottom: "inception_3b/5x5"
  bottom: "inception_3b/pool_proj"
  top: "inception_3b/output"
}
layer {
  name: "pool3/3x3_s2"
  type: "Pooling"
  bottom: "inception_3b/output"
  top: "pool3/3x3_s2"
  pooling_param {
    pool: MAX
    kernel_size: 3
    stride: 2
  }
}
layer {
  name: "inception_4a/1x1"
  type: "Convolution"
  bottom: "pool3/3x3_s2"
  top: "inception_4a/1x1"
  param {
    lr_mult: 1
    decay_mult: 1
  }
  param {
    lr_mult: 2
    decay_mult: 0
  }
  convolution_param {
    num_output: 192
    kernel_size: 1
    weight_filler {
      type: "xavier"
      std: 0.03
    }
    bias_filler {
      type: "constant"
      value: 0.2
    }
  }
}
layer {
  name: "inception_4a/relu_1x1"
  type: "ReLU"
  bottom: "inception_4a/1x1"
  top: "inception_4a/1x1"
}
layer {
  name: "inception_4a/3x3_reduce"
  type: "Convolution"
  bottom: "pool3/3x3_s2"
  top: "inception_4a/3x3_reduce"
  param {
    lr_mult: 1
    decay_mult: 1
  }
  param {
    lr_mult: 2
    decay_mult: 0
  }
  convolution_param {
    num_output: 96
    kernel_size: 1
    weight_filler {
      type: "xavier"
      std: 0.09
    }
    bias_filler {
      type: "constant"
      value: 0.2
    }
  }
}
layer {
  name: "inception_4a/relu_3x3_reduce"
  type: "ReLU"
  bottom: "inception_4a/3x3_reduce"
  top: "inception_4a/3x3_reduce"
}
layer {
  name: "inception_4a/3x3"
  type: "Convolution"
  bottom: "inception_4a/3x3_reduce"
  top: "inception_4a/3x3"
  param {
    lr_mult: 1
    decay_mult: 1
  }
  param {
    lr_mult: 2
    decay_mult: 0
  }
  convolution_param {
    num_output: 208
    pad: 1
    kernel_size: 3
    weight_filler {
      type: "xavier"
      std: 0.03
    }
    bias_filler {
      type: "constant"
      value: 0.2
    }
  }
}
layer {
  name: "inception_4a/relu_3x3"
  type: "ReLU"
  bottom: "inception_4a/3x3"
  top: "inception_4a/3x3"
}
layer {
  name: "inception_4a/5x5_reduce"
  type: "Convolution"
  bottom: "pool3/3x3_s2"
  top: "inception_4a/5x5_reduce"
  param {
    lr_mult: 1
    decay_mult: 1
  }
  param {
    lr_mult: 2
    decay_mult: 0
  }
  convolution_param {
    num_output: 16
    kernel_size: 1
    weight_filler {
      type: "xavier"
      std: 0.2
    }
    bias_filler {
      type: "constant"
      value: 0.2
    }
  }
}
layer {
  name: "inception_4a/relu_5x5_reduce"
  type: "ReLU"
  bottom: "inception_4a/5x5_reduce"
  top: "inception_4a/5x5_reduce"
}
layer {
  name: "inception_4a/5x5"
  type: "Convolution"
  bottom: "inception_4a/5x5_reduce"
  top: "inception_4a/5x5"
  param {
    lr_mult: 1
    decay_mult: 1
  }
  param {
    lr_mult: 2
    decay_mult: 0
  }
  convolution_param {
    num_output: 48
    pad: 2
    kernel_size: 5
    weight_filler {
      type: "xavier"
      std: 0.03
    }
    bias_filler {
      type: "constant"
      value: 0.2
    }
  }
}
layer {
  name: "inception_4a/relu_5x5"
  type: "ReLU"
  bottom: "inception_4a/5x5"
  top: "inception_4a/5x5"
}
layer {
  name: "inception_4a/pool"
  type: "Pooling"
  bottom: "pool3/3x3_s2"
  top: "inception_4a/pool"
  pooling_param {
    pool: MAX
    kernel_size: 3
    stride: 1
    pad: 1
  }
}
layer {
  name: "inception_4a/pool_proj"
  type: "Convolution"
  bottom: "inception_4a/pool"
  top: "inception_4a/pool_proj"
  param {
    lr_mult: 1
    decay_mult: 1
  }
  param {
    lr_mult: 2
    decay_mult: 0
  }
  convolution_param {
    num_output: 64
    kernel_size: 1
    weight_filler {
      type: "xavier"
      std: 0.1
    }
    bias_filler {
      type: "constant"
      value: 0.2
    }
  }
}
layer {
  name: "inception_4a/relu_pool_proj"
  type: "ReLU"
  bottom: "inception_4a/pool_proj"
  top: "inception_4a/pool_proj"
}
layer {
  name: "inception_4a/output"
  type: "Concat"
  bottom: "inception_4a/1x1"
  bottom: "inception_4a/3x3"
  bottom: "inception_4a/5x5"
  bottom: "inception_4a/pool_proj"
  top: "inception_4a/output"
}
layer {
  name: "loss1/ave_pool"
  type: "Pooling"
  bottom: "inception_4a/output"
  top: "loss1/ave_pool"
  pooling_param {
    pool: AVE
    kernel_size: 5
    stride: 3
  }
}
layer {
  name: "loss1/conv"
  type: "Convolution"
  bottom: "loss1/ave_pool"
  top: "loss1/conv"
  param {
    lr_mult: 1
    decay_mult: 1
  }
  param {
    lr_mult: 2
    decay_mult: 0
  }
  convolution_param {
    num_output: 128
    kernel_size: 1
    weight_filler {
      type: "xavier"
      std: 0.08
    }
    bias_filler {
      type: "constant"
      value: 0.2
    }
  }
}
layer {
  name: "loss1/relu_conv"
  type: "ReLU"
  bottom: "loss1/conv"
  top: "loss1/conv"
}
layer {
  name: "loss1/fc"
  type: "InnerProduct"
  bottom: "loss1/conv"
  top: "loss1/fc"
  param {
    lr_mult: 1
    decay_mult: 1
  }
  param {
    lr_mult: 2
    decay_mult: 0
  }
  inner_product_param {
    num_output: 1024
    weight_filler {
      type: "xavier"
      std: 0.02
    }
    bias_filler {
      type: "constant"
      value: 0.2
    }
  }
}
layer {
  name: "loss1/relu_fc"
  type: "ReLU"
  bottom: "loss1/fc"
  top: "loss1/fc"
}
layer {
  name: "loss1/drop_fc"
  type: "Dropout"
  bottom: "loss1/fc"
  top: "loss1/fc"
  dropout_param {
    dropout_ratio: 0.7
  }
}
layer {
  name: "loss1/classifier_plantvillage"
  type: "InnerProduct"
  bottom: "loss1/fc"
  top: "loss1/classifier_plantvillage"
  param {
    lr_mult: 1
    decay_mult: 1
  }
  param {
    lr_mult: 2
    decay_mult: 0
  }
  inner_product_param {
    num_output: 38
    weight_filler {
      type: "xavier"
      std: 0.0009765625
    }
    bias_filler {
      type: "constant"
      value: 0
    }
  }
}
layer {
  name: "inception_4b/1x1"
  type: "Convolution"
  bottom: "inception_4a/output"
  top: "inception_4b/1x1"
  param {
    lr_mult: 1
    decay_mult: 1
  }
  param {
    lr_mult: 2
    decay_mult: 0
  }
  convolution_param {
    num_output: 160
    kernel_size: 1
    weight_filler {
      type: "xavier"
      std: 0.03
    }
    bias_filler {
      type: "constant"
      value: 0.2
    }
  }
}
layer {
  name: "inception_4b/relu_1x1"
  type: "ReLU"
  bottom: "inception_4b/1x1"
  top: "inception_4b/1x1"
}
layer {
  name: "inception_4b/3x3_reduce"
  type: "Convolution"
  bottom: "inception_4a/output"
  top: "inception_4b/3x3_reduce"
  param {
    lr_mult: 1
    decay_mult: 1
  }
  param {
    lr_mult: 2
    decay_mult: 0
  }
  convolution_param {
    num_output: 112
    kernel_size: 1
    weight_filler {
      type: "xavier"
      std: 0.09
    }
    bias_filler {
      type: "constant"
      value: 0.2
    }
  }
}
layer {
  name: "inception_4b/relu_3x3_reduce"
  type: "ReLU"
  bottom: "inception_4b/3x3_reduce"
  top: "inception_4b/3x3_reduce"
}
layer {
  name: "inception_4b/3x3"
  type: "Convolution"
  bottom: "inception_4b/3x3_reduce"
  top: "inception_4b/3x3"
  param {
    lr_mult: 1
    decay_mult: 1
  }
  param {
    lr_mult: 2
    decay_mult: 0
  }
  convolution_param {
    num_output: 224
    pad: 1
    kernel_size: 3
    weight_filler {
      type: "xavier"
      std: 0.03
    }
    bias_filler {
      type: "constant"
      value: 0.2
    }
  }
}
layer {
  name: "inception_4b/relu_3x3"
  type: "ReLU"
  bottom: "inception_4b/3x3"
  top: "inception_4b/3x3"
}
layer {
  name: "inception_4b/5x5_reduce"
  type: "Convolution"
  bottom: "inception_4a/output"
  top: "inception_4b/5x5_reduce"
  param {
    lr_mult: 1
    decay_mult: 1
  }
  param {
    lr_mult: 2
    decay_mult: 0
  }
  convolution_param {
    num_output: 24
    kernel_size: 1
    weight_filler {
      type: "xavier"
      std: 0.2
    }
    bias_filler {
      type: "constant"
      value: 0.2
    }
  }
}
layer {
  name: "inception_4b/relu_5x5_reduce"
  type: "ReLU"
  bottom: "inception_4b/5x5_reduce"
  top: "inception_4b/5x5_reduce"
}
layer {
  name: "inception_4b/5x5"
  type: "Convolution"
  bottom: "inception_4b/5x5_reduce"
  top: "inception_4b/5x5"
  param {
    lr_mult: 1
    decay_mult: 1
  }
  param {
    lr_mult: 2
    decay_mult: 0
  }
  convolution_param {
    num_output: 64
    pad: 2
    kernel_size: 5
    weight_filler {
      type: "xavier"
      std: 0.03
    }
    bias_filler {
      type: "constant"
      value: 0.2
    }
  }
}
layer {
  name: "inception_4b/relu_5x5"
  type: "ReLU"
  bottom: "inception_4b/5x5"
  top: "inception_4b/5x5"
}
layer {
  name: "inception_4b/pool"
  type: "Pooling"
  bottom: "inception_4a/output"
  top: "inception_4b/pool"
  pooling_param {
    pool: MAX
    kernel_size: 3
    stride: 1
    pad: 1
  }
}
layer {
  name: "inception_4b/pool_proj"
  type: "Convolution"
  bottom: "inception_4b/pool"
  top: "inception_4b/pool_proj"
  param {
    lr_mult: 1
    decay_mult: 1
  }
  param {
    lr_mult: 2
    decay_mult: 0
  }
  convolution_param {
    num_output: 64
    kernel_size: 1
    weight_filler {
      type: "xavier"
      std: 0.1
    }
    bias_filler {
      type: "constant"
      value: 0.2
    }
  }
}
layer {
  name: "inception_4b/relu_pool_proj"
  type: "ReLU"
  bottom: "inception_4b/pool_proj"
  top: "inception_4b/pool_proj"
}
layer {
  name: "inception_4b/output"
  type: "Concat"
  bottom: "inception_4b/1x1"
  bottom: "inception_4b/3x3"
  bottom: "inception_4b/5x5"
  bottom: "inception_4b/pool_proj"
  top: "inception_4b/output"
}
layer {
  name: "inception_4c/1x1"
  type: "Convolution"
  bottom: "inception_4b/output"
  top: "inception_4c/1x1"
  param {
    lr_mult: 1
    decay_mult: 1
  }
  param {
    lr_mult: 2
    decay_mult: 0
  }
  convolution_param {
    num_output: 128
    kernel_size: 1
    weight_filler {
      type: "xavier"
      std: 0.03
    }
    bias_filler {
      type: "constant"
      value: 0.2
    }
  }
}
layer {
  name: "inception_4c/relu_1x1"
  type: "ReLU"
  bottom: "inception_4c/1x1"
  top: "inception_4c/1x1"
}
layer {
  name: "inception_4c/3x3_reduce"
  type: "Convolution"
  bottom: "inception_4b/output"
  top: "inception_4c/3x3_reduce"
  param {
    lr_mult: 1
    decay_mult: 1
  }
  param {
    lr_mult: 2
    decay_mult: 0
  }
  convolution_param {
    num_output: 128
    kernel_size: 1
    weight_filler {
      type: "xavier"
      std: 0.09
    }
    bias_filler {
      type: "constant"
      value: 0.2
    }
  }
}
layer {
  name: "inception_4c/relu_3x3_reduce"
  type: "ReLU"
  bottom: "inception_4c/3x3_reduce"
  top: "inception_4c/3x3_reduce"
}
layer {
  name: "inception_4c/3x3"
  type: "Convolution"
  bottom: "inception_4c/3x3_reduce"
  top: "inception_4c/3x3"
  param {
    lr_mult: 1
    decay_mult: 1
  }
  param {
    lr_mult: 2
    decay_mult: 0
  }
  convolution_param {
    num_output: 256
    pad: 1
    kernel_size: 3
    weight_filler {
      type: "xavier"
      std: 0.03
    }
    bias_filler {
      type: "constant"
      value: 0.2
    }
  }
}
layer {
  name: "inception_4c/relu_3x3"
  type: "ReLU"
  bottom: "inception_4c/3x3"
  top: "inception_4c/3x3"
}
layer {
  name: "inception_4c/5x5_reduce"
  type: "Convolution"
  bottom: "inception_4b/output"
  top: "inception_4c/5x5_reduce"
  param {
    lr_mult: 1
    decay_mult: 1
  }
  param {
    lr_mult: 2
    decay_mult: 0
  }
  convolution_param {
    num_output: 24
    kernel_size: 1
    weight_filler {
      type: "xavier"
      std: 0.2
    }
    bias_filler {
      type: "constant"
      value: 0.2
    }
  }
}
layer {
  name: "inception_4c/relu_5x5_reduce"
  type: "ReLU"
  bottom: "inception_4c/5x5_reduce"
  top: "inception_4c/5x5_reduce"
}
layer {
  name: "inception_4c/5x5"
  type: "Convolution"
  bottom: "inception_4c/5x5_reduce"
  top: "inception_4c/5x5"
  param {
    lr_mult: 1
    decay_mult: 1
  }
  param {
    lr_mult: 2
    decay_mult: 0
  }
  convolution_param {
    num_output: 64
    pad: 2
    kernel_size: 5
    weight_filler {
      type: "xavier"
      std: 0.03
    }
    bias_filler {
      type: "constant"
      value: 0.2
    }
  }
}
layer {
  name: "inception_4c/relu_5x5"
  type: "ReLU"
  bottom: "inception_4c/5x5"
  top: "inception_4c/5x5"
}
layer {
  name: "inception_4c/pool"
  type: "Pooling"
  bottom: "inception_4b/output"
  top: "inception_4c/pool"
  pooling_param {
    pool: MAX
    kernel_size: 3
    stride: 1
    pad: 1
  }
}
layer {
  name: "inception_4c/pool_proj"
  type: "Convolution"
  bottom: "inception_4c/pool"
  top: "inception_4c/pool_proj"
  param {
    lr_mult: 1
    decay_mult: 1
  }
  param {
    lr_mult: 2
    decay_mult: 0
  }
  convolution_param {
    num_output: 64
    kernel_size: 1
    weight_filler {
      type: "xavier"
      std: 0.1
    }
    bias_filler {
      type: "constant"
      value: 0.2
    }
  }
}
layer {
  name: "inception_4c/relu_pool_proj"
  type: "ReLU"
  bottom: "inception_4c/pool_proj"
  top: "inception_4c/pool_proj"
}
layer {
  name: "inception_4c/output"
  type: "Concat"
  bottom: "inception_4c/1x1"
  bottom: "inception_4c/3x3"
  bottom: "inception_4c/5x5"
  bottom: "inception_4c/pool_proj"
  top: "inception_4c/output"
}
layer {
  name: "inception_4d/1x1"
  type: "Convolution"
  bottom: "inception_4c/output"
  top: "inception_4d/1x1"
  param {
    lr_mult: 1
    decay_mult: 1
  }
  param {
    lr_mult: 2
    decay_mult: 0
  }
  convolution_param {
    num_output: 112
    kernel_size: 1
    weight_filler {
      type: "xavier"
      std: 0.03
    }
    bias_filler {
      type: "constant"
      value: 0.2
    }
  }
}
layer {
  name: "inception_4d/relu_1x1"
  type: "ReLU"
  bottom: "inception_4d/1x1"
  top: "inception_4d/1x1"
}
layer {
  name: "inception_4d/3x3_reduce"
  type: "Convolution"
  bottom: "inception_4c/output"
  top: "inception_4d/3x3_reduce"
  param {
    lr_mult: 1
    decay_mult: 1
  }
  param {
    lr_mult: 2
    decay_mult: 0
  }
  convolution_param {
    num_output: 144
    kernel_size: 1
    weight_filler {
      type: "xavier"
      std: 0.09
    }
    bias_filler {
      type: "constant"
      value: 0.2
    }
  }
}
layer {
  name: "inception_4d/relu_3x3_reduce"
  type: "ReLU"
  bottom: "inception_4d/3x3_reduce"
  top: "inception_4d/3x3_reduce"
}
layer {
  name: "inception_4d/3x3"
  type: "Convolution"
  bottom: "inception_4d/3x3_reduce"
  top: "inception_4d/3x3"
  param {
    lr_mult: 1
    decay_mult: 1
  }
  param {
    lr_mult: 2
    decay_mult: 0
  }
  convolution_param {
    num_output: 288
    pad: 1
    kernel_size: 3
    weight_filler {
      type: "xavier"
      std: 0.03
    }
    bias_filler {
      type: "constant"
      value: 0.2
    }
  }
}
layer {
  name: "inception_4d/relu_3x3"
  type: "ReLU"
  bottom: "inception_4d/3x3"
  top: "inception_4d/3x3"
}
layer {
  name: "inception_4d/5x5_reduce"
  type: "Convolution"
  bottom: "inception_4c/output"
  top: "inception_4d/5x5_reduce"
  param {
    lr_mult: 1
    decay_mult: 1
  }
  param {
    lr_mult: 2
    decay_mult: 0
  }
  convolution_param {
    num_output: 32
    kernel_size: 1
    weight_filler {
      type: "xavier"
      std: 0.2
    }
    bias_filler {
      type: "constant"
      value: 0.2
    }
  }
}
layer {
  name: "inception_4d/relu_5x5_reduce"
  type: "ReLU"
  bottom: "inception_4d/5x5_reduce"
  top: "inception_4d/5x5_reduce"
}
layer {
  name: "inception_4d/5x5"
  type: "Convolution"
  bottom: "inception_4d/5x5_reduce"
  top: "inception_4d/5x5"
  param {
    lr_mult: 1
    decay_mult: 1
  }
  param {
    lr_mult: 2
    decay_mult: 0
  }
  convolution_param {
    num_output: 64
    pad: 2
    kernel_size: 5
    weight_filler {
      type: "xavier"
      std: 0.03
    }
    bias_filler {
      type: "constant"
      value: 0.2
    }
  }
}
layer {
  name: "inception_4d/relu_5x5"
  type: "ReLU"
  bottom: "inception_4d/5x5"
  top: "inception_4d/5x5"
}
layer {
  name: "inception_4d/pool"
  type: "Pooling"
  bottom: "inception_4c/output"
  top: "inception_4d/pool"
  pooling_param {
    pool: MAX
    kernel_size: 3
    stride: 1
    pad: 1
  }
}
layer {
  name: "inception_4d/pool_proj"
  type: "Convolution"
  bottom: "inception_4d/pool"
  top: "inception_4d/pool_proj"
  param {
    lr_mult: 1
    decay_mult: 1
  }
  param {
    lr_mult: 2
    decay_mult: 0
  }
  convolution_param {
    num_output: 64
    kernel_size: 1
    weight_filler {
      type: "xavier"
      std: 0.1
    }
    bias_filler {
      type: "constant"
      value: 0.2
    }
  }
}
layer {
  name: "inception_4d/relu_pool_proj"
  type: "ReLU"
  bottom: "inception_4d/pool_proj"
  top: "inception_4d/pool_proj"
}
layer {
  name: "inception_4d/output"
  type: "Concat"
  bottom: "inception_4d/1x1"
  bottom: "inception_4d/3x3"
  bottom: "inception_4d/5x5"
  bottom: "inception_4d/pool_proj"
  top: "inception_4d/output"
}
layer {
  name: "loss2/ave_pool"
  type: "Pooling"
  bottom: "inception_4d/output"
  top: "loss2/ave_pool"
  pooling_param {
    pool: AVE
    kernel_size: 5
    stride: 3
  }
}
layer {
  name: "loss2/conv"
  type: "Convolution"
  bottom: "loss2/ave_pool"
  top: "loss2/conv"
  param {
    lr_mult: 1
    decay_mult: 1
  }
  param {
    lr_mult: 2
    decay_mult: 0
  }
  convolution_param {
    num_output: 128
    kernel_size: 1
    weight_filler {
      type: "xavier"
      std: 0.08
    }
    bias_filler {
      type: "constant"
      value: 0.2
    }
  }
}
layer {
  name: "loss2/relu_conv"
  type: "ReLU"
  bottom: "loss2/conv"
  top: "loss2/conv"
}
layer {
  name: "loss2/fc"
  type: "InnerProduct"
  bottom: "loss2/conv"
  top: "loss2/fc"
  param {
    lr_mult: 1
    decay_mult: 1
  }
  param {
    lr_mult: 2
    decay_mult: 0
  }
  inner_product_param {
    num_output: 1024
    weight_filler {
      type: "xavier"
      std: 0.02
    }
    bias_filler {
      type: "constant"
      value: 0.2
    }
  }
}
layer {
  name: "loss2/relu_fc"
  type: "ReLU"
  bottom: "loss2/fc"
  top: "loss2/fc"
}
layer {
  name: "loss2/drop_fc"
  type: "Dropout"
  bottom: "loss2/fc"
  top: "loss2/fc"
  dropout_param {
    dropout_ratio: 0.7
  }
}
layer {
  name: "loss2/classifier_plantvillage"
  type: "InnerProduct"
  bottom: "loss2/fc"
  top: "loss2/classifier_plantvillage"
  param {
    lr_mult: 1
    decay_mult: 1
  }
  param {
    lr_mult: 2
    decay_mult: 0
  }
  inner_product_param {
    num_output: 38
    weight_filler {
      type: "xavier"
      std: 0.0009765625
    }
    bias_filler {
      type: "constant"
      value: 0
    }
  }
}
layer {
  name: "inception_4e/1x1"
  type: "Convolution"
  bottom: "inception_4d/output"
  top: "inception_4e/1x1"
  param {
    lr_mult: 1
    decay_mult: 1
  }
  param {
    lr_mult: 2
    decay_mult: 0
  }
  convolution_param {
    num_output: 256
    kernel_size: 1
    weight_filler {
      type: "xavier"
      std: 0.03
    }
    bias_filler {
      type: "constant"
      value: 0.2
    }
  }
}
layer {
  name: "inception_4e/relu_1x1"
  type: "ReLU"
  bottom: "inception_4e/1x1"
  top: "inception_4e/1x1"
}
layer {
  name: "inception_4e/3x3_reduce"
  type: "Convolution"
  bottom: "inception_4d/output"
  top: "inception_4e/3x3_reduce"
  param {
    lr_mult: 1
    decay_mult: 1
  }
  param {
    lr_mult: 2
    decay_mult: 0
  }
  convolution_param {
    num_output: 160
    kernel_size: 1
    weight_filler {
      type: "xavier"
      std: 0.09
    }
    bias_filler {
      type: "constant"
      value: 0.2
    }
  }
}
layer {
  name: "inception_4e/relu_3x3_reduce"
  type: "ReLU"
  bottom: "inception_4e/3x3_reduce"
  top: "inception_4e/3x3_reduce"
}
layer {
  name: "inception_4e/3x3"
  type: "Convolution"
  bottom: "inception_4e/3x3_reduce"
  top: "inception_4e/3x3"
  param {
    lr_mult: 1
    decay_mult: 1
  }
  param {
    lr_mult: 2
    decay_mult: 0
  }
  convolution_param {
    num_output: 320
    pad: 1
    kernel_size: 3
    weight_filler {
      type: "xavier"
      std: 0.03
    }
    bias_filler {
      type: "constant"
      value: 0.2
    }
  }
}
layer {
  name: "inception_4e/relu_3x3"
  type: "ReLU"
  bottom: "inception_4e/3x3"
  top: "inception_4e/3x3"
}
layer {
  name: "inception_4e/5x5_reduce"
  type: "Convolution"
  bottom: "inception_4d/output"
  top: "inception_4e/5x5_reduce"
  param {
    lr_mult: 1
    decay_mult: 1
  }
  param {
    lr_mult: 2
    decay_mult: 0
  }
  convolution_param {
    num_output: 32
    kernel_size: 1
    weight_filler {
      type: "xavier"
      std: 0.2
    }
    bias_filler {
      type: "constant"
      value: 0.2
    }
  }
}
layer {
  name: "inception_4e/relu_5x5_reduce"
  type: "ReLU"
  bottom: "inception_4e/5x5_reduce"
  top: "inception_4e/5x5_reduce"
}
layer {
  name: "inception_4e/5x5"
  type: "Convolution"
  bottom: "inception_4e/5x5_reduce"
  top: "inception_4e/
I0403 13:53:54.870059   482 layer_factory.hpp:77] Creating layer data
I0403 13:53:54.870657   482 net.cpp:91] Creating Layer data
I0403 13:53:54.870690   482 net.cpp:399] data -> data
I0403 13:53:54.870743   482 net.cpp:399] data -> label
I0403 13:53:54.870780   482 data_transformer.cpp:25] Loading mean file from: /home/mohanty/data/final_dataset/lmdb/grayscale-20-80/mean.binaryproto
I0403 13:53:54.877370   497 db_lmdb.cpp:38] Opened lmdb /home/mohanty/data/final_dataset/lmdb/grayscale-20-80/test_db
I0403 13:53:54.884438   482 data_layer.cpp:41] output data size: 24,3,224,224
I0403 13:53:54.912019   482 net.cpp:141] Setting up data
I0403 13:53:54.912080   482 net.cpp:148] Top shape: 24 3 224 224 (3612672)
I0403 13:53:54.912103   482 net.cpp:148] Top shape: 24 (24)
I0403 13:53:54.912120   482 net.cpp:156] Memory required for data: 14450784
I0403 13:53:54.912150   482 layer_factory.hpp:77] Creating layer label_data_1_split
I0403 13:53:54.912178   482 net.cpp:91] Creating Layer label_data_1_split
I0403 13:53:54.912199   482 net.cpp:425] label_data_1_split <- label
I0403 13:53:54.912236   482 net.cpp:399] label_data_1_split -> label_data_1_split_0
I0403 13:53:54.912266   482 net.cpp:399] label_data_1_split -> label_data_1_split_1
I0403 13:53:54.912289   482 net.cpp:399] label_data_1_split -> label_data_1_split_2
I0403 13:53:54.912312   482 net.cpp:399] label_data_1_split -> label_data_1_split_3
I0403 13:53:54.912334   482 net.cpp:399] label_data_1_split -> label_data_1_split_4
I0403 13:53:54.912355   482 net.cpp:399] label_data_1_split -> label_data_1_split_5
I0403 13:53:54.912376   482 net.cpp:399] label_data_1_split -> label_data_1_split_6
I0403 13:53:54.912400   482 net.cpp:399] label_data_1_split -> label_data_1_split_7
I0403 13:53:54.912420   482 net.cpp:399] label_data_1_split -> label_data_1_split_8
I0403 13:53:54.912444   482 net.cpp:399] label_data_1_split -> label_data_1_split_9
I0403 13:53:54.912571   482 net.cpp:141] Setting up label_data_1_split
I0403 13:53:54.912596   482 net.cpp:148] Top shape: 24 (24)
I0403 13:53:54.912616   482 net.cpp:148] Top shape: 24 (24)
I0403 13:53:54.912633   482 net.cpp:148] Top shape: 24 (24)
I0403 13:53:54.912652   482 net.cpp:148] Top shape: 24 (24)
I0403 13:53:54.912669   482 net.cpp:148] Top shape: 24 (24)
I0403 13:53:54.912686   482 net.cpp:148] Top shape: 24 (24)
I0403 13:53:54.912704   482 net.cpp:148] Top shape: 24 (24)
I0403 13:53:54.912722   482 net.cpp:148] Top shape: 24 (24)
I0403 13:53:54.912739   482 net.cpp:148] Top shape: 24 (24)
I0403 13:53:54.912757   482 net.cpp:148] Top shape: 24 (24)
I0403 13:53:54.912804   482 net.cpp:156] Memory required for data: 14451744
I0403 13:53:54.912822   482 layer_factory.hpp:77] Creating layer conv1/7x7_s2
I0403 13:53:54.912856   482 net.cpp:91] Creating Layer conv1/7x7_s2
I0403 13:53:54.912876   482 net.cpp:425] conv1/7x7_s2 <- data
I0403 13:53:54.912899   482 net.cpp:399] conv1/7x7_s2 -> conv1/7x7_s2
I0403 13:53:55.055795   482 net.cpp:141] Setting up conv1/7x7_s2
I0403 13:53:55.055888   482 net.cpp:148] Top shape: 24 64 112 112 (19267584)
I0403 13:53:55.055908   482 net.cpp:156] Memory required for data: 91522080
I0403 13:53:55.055941   482 layer_factory.hpp:77] Creating layer conv1/relu_7x7
I0403 13:53:55.055970   482 net.cpp:91] Creating Layer conv1/relu_7x7
I0403 13:53:55.055991   482 net.cpp:425] conv1/relu_7x7 <- conv1/7x7_s2
I0403 13:53:55.056012   482 net.cpp:386] conv1/relu_7x7 -> conv1/7x7_s2 (in-place)
I0403 13:53:55.056293   482 net.cpp:141] Setting up conv1/relu_7x7
I0403 13:53:55.056321   482 net.cpp:148] Top shape: 24 64 112 112 (19267584)
I0403 13:53:55.056339   482 net.cpp:156] Memory required for data: 168592416
I0403 13:53:55.056357   482 layer_factory.hpp:77] Creating layer pool1/3x3_s2
I0403 13:53:55.056385   482 net.cpp:91] Creating Layer pool1/3x3_s2
I0403 13:53:55.056404   482 net.cpp:425] pool1/3x3_s2 <- conv1/7x7_s2
I0403 13:53:55.056426   482 net.cpp:399] pool1/3x3_s2 -> pool1/3x3_s2
I0403 13:53:55.056504   482 net.cpp:141] Setting up pool1/3x3_s2
I0403 13:53:55.056556   482 net.cpp:148] Top shape: 24 64 56 56 (4816896)
I0403 13:53:55.056576   482 net.cpp:156] Memory required for data: 187860000
I0403 13:53:55.056593   482 layer_factory.hpp:77] Creating layer pool1/norm1
I0403 13:53:55.056622   482 net.cpp:91] Creating Layer pool1/norm1
I0403 13:53:55.056641   482 net.cpp:425] pool1/norm1 <- pool1/3x3_s2
I0403 13:53:55.056663   482 net.cpp:399] pool1/norm1 -> pool1/norm1
I0403 13:53:55.056970   482 net.cpp:141] Setting up pool1/norm1
I0403 13:53:55.056999   482 net.cpp:148] Top shape: 24 64 56 56 (4816896)
I0403 13:53:55.057016   482 net.cpp:156] Memory required for data: 207127584
I0403 13:53:55.057034   482 layer_factory.hpp:77] Creating layer conv2/3x3_reduce
I0403 13:53:55.057061   482 net.cpp:91] Creating Layer conv2/3x3_reduce
I0403 13:53:55.057080   482 net.cpp:425] conv2/3x3_reduce <- pool1/norm1
I0403 13:53:55.057099   482 net.cpp:399] conv2/3x3_reduce -> conv2/3x3_reduce
I0403 13:53:55.058538   482 net.cpp:141] Setting up conv2/3x3_reduce
I0403 13:53:55.058569   482 net.cpp:148] Top shape: 24 64 56 56 (4816896)
I0403 13:53:55.058588   482 net.cpp:156] Memory required for data: 226395168
I0403 13:53:55.058611   482 layer_factory.hpp:77] Creating layer conv2/relu_3x3_reduce
I0403 13:53:55.058632   482 net.cpp:91] Creating Layer conv2/relu_3x3_reduce
I0403 13:53:55.058651   482 net.cpp:425] conv2/relu_3x3_reduce <- conv2/3x3_reduce
I0403 13:53:55.058670   482 net.cpp:386] conv2/relu_3x3_reduce -> conv2/3x3_reduce (in-place)
I0403 13:53:55.058938   482 net.cpp:141] Setting up conv2/relu_3x3_reduce
I0403 13:53:55.058966   482 net.cpp:148] Top shape: 24 64 56 56 (4816896)
I0403 13:53:55.058984   482 net.cpp:156] Memory required for data: 245662752
I0403 13:53:55.059000   482 layer_factory.hpp:77] Creating layer conv2/3x3
I0403 13:53:55.059025   482 net.cpp:91] Creating Layer conv2/3x3
I0403 13:53:55.059043   482 net.cpp:425] conv2/3x3 <- conv2/3x3_reduce
I0403 13:53:55.059064   482 net.cpp:399] conv2/3x3 -> conv2/3x3
I0403 13:53:55.061460   482 net.cpp:141] Setting up conv2/3x3
I0403 13:53:55.061491   482 net.cpp:148] Top shape: 24 192 56 56 (14450688)
I0403 13:53:55.061509   482 net.cpp:156] Memory required for data: 303465504
I0403 13:53:55.061533   482 layer_factory.hpp:77] Creating layer conv2/relu_3x3
I0403 13:53:55.061554   482 net.cpp:91] Creating Layer conv2/relu_3x3
I0403 13:53:55.061573   482 net.cpp:425] conv2/relu_3x3 <- conv2/3x3
I0403 13:53:55.061592   482 net.cpp:386] conv2/relu_3x3 -> conv2/3x3 (in-place)
I0403 13:53:55.061820   482 net.cpp:141] Setting up conv2/relu_3x3
I0403 13:53:55.061848   482 net.cpp:148] Top shape: 24 192 56 56 (14450688)
I0403 13:53:55.061898   482 net.cpp:156] Memory required for data: 361268256
I0403 13:53:55.061915   482 layer_factory.hpp:77] Creating layer conv2/norm2
I0403 13:53:55.061938   482 net.cpp:91] Creating Layer conv2/norm2
I0403 13:53:55.061955   482 net.cpp:425] conv2/norm2 <- conv2/3x3
I0403 13:53:55.061975   482 net.cpp:399] conv2/norm2 -> conv2/norm2
I0403 13:53:55.062288   482 net.cpp:141] Setting up conv2/norm2
I0403 13:53:55.062316   482 net.cpp:148] Top shape: 24 192 56 56 (14450688)
I0403 13:53:55.062333   482 net.cpp:156] Memory required for data: 419071008
I0403 13:53:55.062350   482 layer_factory.hpp:77] Creating layer pool2/3x3_s2
I0403 13:53:55.062371   482 net.cpp:91] Creating Layer pool2/3x3_s2
I0403 13:53:55.062388   482 net.cpp:425] pool2/3x3_s2 <- conv2/norm2
I0403 13:53:55.062408   482 net.cpp:399] pool2/3x3_s2 -> pool2/3x3_s2
I0403 13:53:55.062463   482 net.cpp:141] Setting up pool2/3x3_s2
I0403 13:53:55.062489   482 net.cpp:148] Top shape: 24 192 28 28 (3612672)
I0403 13:53:55.062505   482 net.cpp:156] Memory required for data: 433521696
I0403 13:53:55.062522   482 layer_factory.hpp:77] Creating layer pool2/3x3_s2_pool2/3x3_s2_0_split
I0403 13:53:55.062542   482 net.cpp:91] Creating Layer pool2/3x3_s2_pool2/3x3_s2_0_split
I0403 13:53:55.062559   482 net.cpp:425] pool2/3x3_s2_pool2/3x3_s2_0_split <- pool2/3x3_s2
I0403 13:53:55.062578   482 net.cpp:399] pool2/3x3_s2_pool2/3x3_s2_0_split -> pool2/3x3_s2_pool2/3x3_s2_0_split_0
I0403 13:53:55.062600   482 net.cpp:399] pool2/3x3_s2_pool2/3x3_s2_0_split -> pool2/3x3_s2_pool2/3x3_s2_0_split_1
I0403 13:53:55.062623   482 net.cpp:399] pool2/3x3_s2_pool2/3x3_s2_0_split -> pool2/3x3_s2_pool2/3x3_s2_0_split_2
I0403 13:53:55.062644   482 net.cpp:399] pool2/3x3_s2_pool2/3x3_s2_0_split -> pool2/3x3_s2_pool2/3x3_s2_0_split_3
I0403 13:53:55.062714   482 net.cpp:141] Setting up pool2/3x3_s2_pool2/3x3_s2_0_split
I0403 13:53:55.062739   482 net.cpp:148] Top shape: 24 192 28 28 (3612672)
I0403 13:53:55.062757   482 net.cpp:148] Top shape: 24 192 28 28 (3612672)
I0403 13:53:55.062775   482 net.cpp:148] Top shape: 24 192 28 28 (3612672)
I0403 13:53:55.062793   482 net.cpp:148] Top shape: 24 192 28 28 (3612672)
I0403 13:53:55.062810   482 net.cpp:156] Memory required for data: 491324448
I0403 13:53:55.062826   482 layer_factory.hpp:77] Creating layer inception_3a/1x1
I0403 13:53:55.062849   482 net.cpp:91] Creating Layer inception_3a/1x1
I0403 13:53:55.062867   482 net.cpp:425] inception_3a/1x1 <- pool2/3x3_s2_pool2/3x3_s2_0_split_0
I0403 13:53:55.062887   482 net.cpp:399] inception_3a/1x1 -> inception_3a/1x1
I0403 13:53:55.064512   482 net.cpp:141] Setting up inception_3a/1x1
I0403 13:53:55.064543   482 net.cpp:148] Top shape: 24 64 28 28 (1204224)
I0403 13:53:55.064561   482 net.cpp:156] Memory required for data: 496141344
I0403 13:53:55.064582   482 layer_factory.hpp:77] Creating layer inception_3a/relu_1x1
I0403 13:53:55.064605   482 net.cpp:91] Creating Layer inception_3a/relu_1x1
I0403 13:53:55.064625   482 net.cpp:425] inception_3a/relu_1x1 <- inception_3a/1x1
I0403 13:53:55.064645   482 net.cpp:386] inception_3a/relu_1x1 -> inception_3a/1x1 (in-place)
I0403 13:53:55.064836   482 net.cpp:141] Setting up inception_3a/relu_1x1
I0403 13:53:55.064863   482 net.cpp:148] Top shape: 24 64 28 28 (1204224)
I0403 13:53:55.064879   482 net.cpp:156] Memory required for data: 500958240
I0403 13:53:55.064896   482 layer_factory.hpp:77] Creating layer inception_3a/3x3_reduce
I0403 13:53:55.064923   482 net.cpp:91] Creating Layer inception_3a/3x3_reduce
I0403 13:53:55.064941   482 net.cpp:425] inception_3a/3x3_reduce <- pool2/3x3_s2_pool2/3x3_s2_0_split_1
I0403 13:53:55.064962   482 net.cpp:399] inception_3a/3x3_reduce -> inception_3a/3x3_reduce
I0403 13:53:55.066756   482 net.cpp:141] Setting up inception_3a/3x3_reduce
I0403 13:53:55.066788   482 net.cpp:148] Top shape: 24 96 28 28 (1806336)
I0403 13:53:55.066807   482 net.cpp:156] Memory required for data: 508183584
I0403 13:53:55.066830   482 layer_factory.hpp:77] Creating layer inception_3a/relu_3x3_reduce
I0403 13:53:55.066870   482 net.cpp:91] Creating Layer inception_3a/relu_3x3_reduce
I0403 13:53:55.066890   482 net.cpp:425] inception_3a/relu_3x3_reduce <- inception_3a/3x3_reduce
I0403 13:53:55.066911   482 net.cpp:386] inception_3a/relu_3x3_reduce -> inception_3a/3x3_reduce (in-place)
I0403 13:53:55.067109   482 net.cpp:141] Setting up inception_3a/relu_3x3_reduce
I0403 13:53:55.067137   482 net.cpp:148] Top shape: 24 96 28 28 (1806336)
I0403 13:53:55.067153   482 net.cpp:156] Memory required for data: 515408928
I0403 13:53:55.067170   482 layer_factory.hpp:77] Creating layer inception_3a/3x3
I0403 13:53:55.067194   482 net.cpp:91] Creating Layer inception_3a/3x3
I0403 13:53:55.067219   482 net.cpp:425] inception_3a/3x3 <- inception_3a/3x3_reduce
I0403 13:53:55.067244   482 net.cpp:399] inception_3a/3x3 -> inception_3a/3x3
I0403 13:53:55.069016   482 net.cpp:141] Setting up inception_3a/3x3
I0403 13:53:55.069047   482 net.cpp:148] Top shape: 24 128 28 28 (2408448)
I0403 13:53:55.069066   482 net.cpp:156] Memory required for data: 525042720
I0403 13:53:55.069087   482 layer_factory.hpp:77] Creating layer inception_3a/relu_3x3
I0403 13:53:55.069108   482 net.cpp:91] Creating Layer inception_3a/relu_3x3
I0403 13:53:55.069128   482 net.cpp:425] inception_3a/relu_3x3 <- inception_3a/3x3
I0403 13:53:55.069147   482 net.cpp:386] inception_3a/relu_3x3 -> inception_3a/3x3 (in-place)
I0403 13:53:55.069454   482 net.cpp:141] Setting up inception_3a/relu_3x3
I0403 13:53:55.069483   482 net.cpp:148] Top shape: 24 128 28 28 (2408448)
I0403 13:53:55.069499   482 net.cpp:156] Memory required for data: 534676512
I0403 13:53:55.069516   482 layer_factory.hpp:77] Creating layer inception_3a/5x5_reduce
I0403 13:53:55.069542   482 net.cpp:91] Creating Layer inception_3a/5x5_reduce
I0403 13:53:55.069561   482 net.cpp:425] inception_3a/5x5_reduce <- pool2/3x3_s2_pool2/3x3_s2_0_split_2
I0403 13:53:55.069586   482 net.cpp:399] inception_3a/5x5_reduce -> inception_3a/5x5_reduce
I0403 13:53:55.070641   482 net.cpp:141] Setting up inception_3a/5x5_reduce
I0403 13:53:55.070675   482 net.cpp:148] Top shape: 24 16 28 28 (301056)
I0403 13:53:55.070694   482 net.cpp:156] Memory required for data: 535880736
I0403 13:53:55.070715   482 layer_factory.hpp:77] Creating layer inception_3a/relu_5x5_reduce
I0403 13:53:55.070735   482 net.cpp:91] Creating Layer inception_3a/relu_5x5_reduce
I0403 13:53:55.070754   482 net.cpp:425] inception_3a/relu_5x5_reduce <- inception_3a/5x5_reduce
I0403 13:53:55.070773   482 net.cpp:386] inception_3a/relu_5x5_reduce -> inception_3a/5x5_reduce (in-place)
I0403 13:53:55.071099   482 net.cpp:141] Setting up inception_3a/relu_5x5_reduce
I0403 13:53:55.071128   482 net.cpp:148] Top shape: 24 16 28 28 (301056)
I0403 13:53:55.071146   482 net.cpp:156] Memory required for data: 537084960
I0403 13:53:55.071163   482 layer_factory.hpp:77] Creating layer inception_3a/5x5
I0403 13:53:55.071188   482 net.cpp:91] Creating Layer inception_3a/5x5
I0403 13:53:55.071211   482 net.cpp:425] inception_3a/5x5 <- inception_3a/5x5_reduce
I0403 13:53:55.071235   482 net.cpp:399] inception_3a/5x5 -> inception_3a/5x5
I0403 13:53:55.072334   482 net.cpp:141] Setting up inception_3a/5x5
I0403 13:53:55.072363   482 net.cpp:148] Top shape: 24 32 28 28 (602112)
I0403 13:53:55.072381   482 net.cpp:156] Memory required for data: 539493408
I0403 13:53:55.072402   482 layer_factory.hpp:77] Creating layer inception_3a/relu_5x5
I0403 13:53:55.072425   482 net.cpp:91] Creating Layer inception_3a/relu_5x5
I0403 13:53:55.072444   482 net.cpp:425] inception_3a/relu_5x5 <- inception_3a/5x5
I0403 13:53:55.072463   482 net.cpp:386] inception_3a/relu_5x5 -> inception_3a/5x5 (in-place)
I0403 13:53:55.072652   482 net.cpp:141] Setting up inception_3a/relu_5x5
I0403 13:53:55.072679   482 net.cpp:148] Top shape: 24 32 28 28 (602112)
I0403 13:53:55.072696   482 net.cpp:156] Memory required for data: 541901856
I0403 13:53:55.072713   482 layer_factory.hpp:77] Creating layer inception_3a/pool
I0403 13:53:55.072736   482 net.cpp:91] Creating Layer inception_3a/pool
I0403 13:53:55.072769   482 net.cpp:425] inception_3a/pool <- pool2/3x3_s2_pool2/3x3_s2_0_split_3
I0403 13:53:55.072794   482 net.cpp:399] inception_3a/pool -> inception_3a/pool
I0403 13:53:55.072857   482 net.cpp:141] Setting up inception_3a/pool
I0403 13:53:55.072882   482 net.cpp:148] Top shape: 24 192 28 28 (3612672)
I0403 13:53:55.072899   482 net.cpp:156] Memory required for data: 556352544
I0403 13:53:55.072916   482 layer_factory.hpp:77] Creating layer inception_3a/pool_proj
I0403 13:53:55.072940   482 net.cpp:91] Creating Layer inception_3a/pool_proj
I0403 13:53:55.072959   482 net.cpp:425] inception_3a/pool_proj <- inception_3a/pool
I0403 13:53:55.072984   482 net.cpp:399] inception_3a/pool_proj -> inception_3a/pool_proj
I0403 13:53:55.074031   482 net.cpp:141] Setting up inception_3a/pool_proj
I0403 13:53:55.074062   482 net.cpp:148] Top shape: 24 32 28 28 (602112)
I0403 13:53:55.074079   482 net.cpp:156] Memory required for data: 558760992
I0403 13:53:55.074106   482 layer_factory.hpp:77] Creating layer inception_3a/relu_pool_proj
I0403 13:53:55.074128   482 net.cpp:91] Creating Layer inception_3a/relu_pool_proj
I0403 13:53:55.074146   482 net.cpp:425] inception_3a/relu_pool_proj <- inception_3a/pool_proj
I0403 13:53:55.074165   482 net.cpp:386] inception_3a/relu_pool_proj -> inception_3a/pool_proj (in-place)
I0403 13:53:55.074473   482 net.cpp:141] Setting up inception_3a/relu_pool_proj
I0403 13:53:55.074501   482 net.cpp:148] Top shape: 24 32 28 28 (602112)
I0403 13:53:55.074519   482 net.cpp:156] Memory required for data: 561169440
I0403 13:53:55.074537   482 layer_factory.hpp:77] Creating layer inception_3a/output
I0403 13:53:55.074559   482 net.cpp:91] Creating Layer inception_3a/output
I0403 13:53:55.074578   482 net.cpp:425] inception_3a/output <- inception_3a/1x1
I0403 13:53:55.074596   482 net.cpp:425] inception_3a/output <- inception_3a/3x3
I0403 13:53:55.074615   482 net.cpp:425] inception_3a/output <- inception_3a/5x5
I0403 13:53:55.074632   482 net.cpp:425] inception_3a/output <- inception_3a/pool_proj
I0403 13:53:55.074651   482 net.cpp:399] inception_3a/output -> inception_3a/output
I0403 13:53:55.074703   482 net.cpp:141] Setting up inception_3a/output
I0403 13:53:55.074728   482 net.cpp:148] Top shape: 24 256 28 28 (4816896)
I0403 13:53:55.074745   482 net.cpp:156] Memory required for data: 580437024
I0403 13:53:55.074761   482 layer_factory.hpp:77] Creating layer inception_3a/output_inception_3a/output_0_split
I0403 13:53:55.074780   482 net.cpp:91] Creating Layer inception_3a/output_inception_3a/output_0_split
I0403 13:53:55.074797   482 net.cpp:425] inception_3a/output_inception_3a/output_0_split <- inception_3a/output
I0403 13:53:55.074820   482 net.cpp:399] inception_3a/output_inception_3a/output_0_split -> inception_3a/output_inception_3a/output_0_split_0
I0403 13:53:55.074843   482 net.cpp:399] inception_3a/output_inception_3a/output_0_split -> inception_3a/output_inception_3a/output_0_split_1
I0403 13:53:55.074867   482 net.cpp:399] inception_3a/output_inception_3a/output_0_split -> inception_3a/output_inception_3a/output_0_split_2
I0403 13:53:55.074893   482 net.cpp:399] inception_3a/output_inception_3a/output_0_split -> inception_3a/output_inception_3a/output_0_split_3
I0403 13:53:55.074977   482 net.cpp:141] Setting up inception_3a/output_inception_3a/output_0_split
I0403 13:53:55.075001   482 net.cpp:148] Top shape: 24 256 28 28 (4816896)
I0403 13:53:55.075021   482 net.cpp:148] Top shape: 24 256 28 28 (4816896)
I0403 13:53:55.075038   482 net.cpp:148] Top shape: 24 256 28 28 (4816896)
I0403 13:53:55.075057   482 net.cpp:148] Top shape: 24 256 28 28 (4816896)
I0403 13:53:55.075072   482 net.cpp:156] Memory required for data: 657507360
I0403 13:53:55.075088   482 layer_factory.hpp:77] Creating layer inception_3b/1x1
I0403 13:53:55.075114   482 net.cpp:91] Creating Layer inception_3b/1x1
I0403 13:53:55.075132   482 net.cpp:425] inception_3b/1x1 <- inception_3a/output_inception_3a/output_0_split_0
I0403 13:53:55.075155   482 net.cpp:399] inception_3b/1x1 -> inception_3b/1x1
I0403 13:53:55.076388   482 net.cpp:141] Setting up inception_3b/1x1
I0403 13:53:55.076431   482 net.cpp:148] Top shape: 24 128 28 28 (2408448)
I0403 13:53:55.076449   482 net.cpp:156] Memory required for data: 667141152
I0403 13:53:55.076470   482 layer_factory.hpp:77] Creating layer inception_3b/relu_1x1
I0403 13:53:55.076494   482 net.cpp:91] Creating Layer inception_3b/relu_1x1
I0403 13:53:55.076514   482 net.cpp:425] inception_3b/relu_1x1 <- inception_3b/1x1
I0403 13:53:55.076536   482 net.cpp:386] inception_3b/relu_1x1 -> inception_3b/1x1 (in-place)
I0403 13:53:55.076735   482 net.cpp:141] Setting up inception_3b/relu_1x1
I0403 13:53:55.076762   482 net.cpp:148] Top shape: 24 128 28 28 (2408448)
I0403 13:53:55.076779   482 net.cpp:156] Memory required for data: 676774944
I0403 13:53:55.076795   482 layer_factory.hpp:77] Creating layer inception_3b/3x3_reduce
I0403 13:53:55.076820   482 net.cpp:91] Creating Layer inception_3b/3x3_reduce
I0403 13:53:55.076839   482 net.cpp:425] inception_3b/3x3_reduce <- inception_3a/output_inception_3a/output_0_split_1
I0403 13:53:55.076864   482 net.cpp:399] inception_3b/3x3_reduce -> inception_3b/3x3_reduce
I0403 13:53:55.078090   482 net.cpp:141] Setting up inception_3b/3x3_reduce
I0403 13:53:55.078121   482 net.cpp:148] Top shape: 24 128 28 28 (2408448)
I0403 13:53:55.078138   482 net.cpp:156] Memory required for data: 686408736
I0403 13:53:55.078160   482 layer_factory.hpp:77] Creating layer inception_3b/relu_3x3_reduce
I0403 13:53:55.078182   482 net.cpp:91] Creating Layer inception_3b/relu_3x3_reduce
I0403 13:53:55.078202   482 net.cpp:425] inception_3b/relu_3x3_reduce <- inception_3b/3x3_reduce
I0403 13:53:55.078227   482 net.cpp:386] inception_3b/relu_3x3_reduce -> inception_3b/3x3_reduce (in-place)
I0403 13:53:55.078416   482 net.cpp:141] Setting up inception_3b/relu_3x3_reduce
I0403 13:53:55.078444   482 net.cpp:148] Top shape: 24 128 28 28 (2408448)
I0403 13:53:55.078461   482 net.cpp:156] Memory required for data: 696042528
I0403 13:53:55.078479   482 layer_factory.hpp:77] Creating layer inception_3b/3x3
I0403 13:53:55.078507   482 net.cpp:91] Creating Layer inception_3b/3x3
I0403 13:53:55.078526   482 net.cpp:425] inception_3b/3x3 <- inception_3b/3x3_reduce
I0403 13:53:55.078548   482 net.cpp:399] inception_3b/3x3 -> inception_3b/3x3
I0403 13:53:55.081615   482 net.cpp:141] Setting up inception_3b/3x3
I0403 13:53:55.081647   482 net.cpp:148] Top shape: 24 192 28 28 (3612672)
I0403 13:53:55.081665   482 net.cpp:156] Memory required for data: 710493216
I0403 13:53:55.081684   482 layer_factory.hpp:77] Creating layer inception_3b/relu_3x3
I0403 13:53:55.081707   482 net.cpp:91] Creating Layer inception_3b/relu_3x3
I0403 13:53:55.081724   482 net.cpp:425] inception_3b/relu_3x3 <- inception_3b/3x3
I0403 13:53:55.081743   482 net.cpp:386] inception_3b/relu_3x3 -> inception_3b/3x3 (in-place)
I0403 13:53:55.082031   482 net.cpp:141] Setting up inception_3b/relu_3x3
I0403 13:53:55.082072   482 net.cpp:148] Top shape: 24 192 28 28 (3612672)
I0403 13:53:55.082089   482 net.cpp:156] Memory required for data: 724943904
I0403 13:53:55.082106   482 layer_factory.hpp:77] Creating layer inception_3b/5x5_reduce
I0403 13:53:55.082132   482 net.cpp:91] Creating Layer inception_3b/5x5_reduce
I0403 13:53:55.082150   482 net.cpp:425] inception_3b/5x5_reduce <- inception_3a/output_inception_3a/output_0_split_2
I0403 13:53:55.082176   482 net.cpp:399] inception_3b/5x5_reduce -> inception_3b/5x5_reduce
I0403 13:53:55.083236   482 net.cpp:141] Setting up inception_3b/5x5_reduce
I0403 13:53:55.083266   482 net.cpp:148] Top shape: 24 32 28 28 (602112)
I0403 13:53:55.083281   482 net.cpp:156] Memory required for data: 727352352
I0403 13:53:55.083300   482 layer_factory.hpp:77] Creating layer inception_3b/relu_5x5_reduce
I0403 13:53:55.083323   482 net.cpp:91] Creating Layer inception_3b/relu_5x5_reduce
I0403 13:53:55.083339   482 net.cpp:425] inception_3b/relu_5x5_reduce <- inception_3b/5x5_reduce
I0403 13:53:55.083359   482 net.cpp:386] inception_3b/relu_5x5_reduce -> inception_3b/5x5_reduce (in-place)
I0403 13:53:55.083555   482 net.cpp:141] Setting up inception_3b/relu_5x5_reduce
I0403 13:53:55.083583   482 net.cpp:148] Top shape: 24 32 28 28 (602112)
I0403 13:53:55.083600   482 net.cpp:156] Memory required for data: 729760800
I0403 13:53:55.083616   482 layer_factory.hpp:77] Creating layer inception_3b/5x5
I0403 13:53:55.083641   482 net.cpp:91] Creating Layer inception_3b/5x5
I0403 13:53:55.083659   482 net.cpp:425] inception_3b/5x5 <- inception_3b/5x5_reduce
I0403 13:53:55.083693   482 net.cpp:399] inception_3b/5x5 -> inception_3b/5x5
I0403 13:53:55.085736   482 net.cpp:141] Setting up inception_3b/5x5
I0403 13:53:55.085767   482 net.cpp:148] Top shape: 24 96 28 28 (1806336)
I0403 13:53:55.085784   482 net.cpp:156] Memory required for data: 736986144
I0403 13:53:55.085804   482 layer_factory.hpp:77] Creating layer inception_3b/relu_5x5
I0403 13:53:55.085826   482 net.cpp:91] Creating Layer inception_3b/relu_5x5
I0403 13:53:55.085844   482 net.cpp:425] inception_3b/relu_5x5 <- inception_3b/5x5
I0403 13:53:55.085865   482 net.cpp:386] inception_3b/relu_5x5 -> inception_3b/5x5 (in-place)
I0403 13:53:55.086062   482 net.cpp:141] Setting up inception_3b/relu_5x5
I0403 13:53:55.086091   482 net.cpp:148] Top shape: 24 96 28 28 (1806336)
I0403 13:53:55.086107   482 net.cpp:156] Memory required for data: 744211488
I0403 13:53:55.086122   482 layer_factory.hpp:77] Creating layer inception_3b/pool
I0403 13:53:55.086141   482 net.cpp:91] Creating Layer inception_3b/pool
I0403 13:53:55.086159   482 net.cpp:425] inception_3b/pool <- inception_3a/output_inception_3a/output_0_split_3
I0403 13:53:55.086179   482 net.cpp:399] inception_3b/pool -> inception_3b/pool
I0403 13:53:55.086246   482 net.cpp:141] Setting up inception_3b/pool
I0403 13:53:55.086271   482 net.cpp:148] Top shape: 24 256 28 28 (4816896)
I0403 13:53:55.086287   482 net.cpp:156] Memory required for data: 763479072
I0403 13:53:55.086303   482 layer_factory.hpp:77] Creating layer inception_3b/pool_proj
I0403 13:53:55.086328   482 net.cpp:91] Creating Layer inception_3b/pool_proj
I0403 13:53:55.086346   482 net.cpp:425] inception_3b/pool_proj <- inception_3b/pool
I0403 13:53:55.086369   482 net.cpp:399] inception_3b/pool_proj -> inception_3b/pool_proj
I0403 13:53:55.087476   482 net.cpp:141] Setting up inception_3b/pool_proj
I0403 13:53:55.087508   482 net.cpp:148] Top shape: 24 64 28 28 (1204224)
I0403 13:53:55.087527   482 net.cpp:156] Memory required for data: 768295968
I0403 13:53:55.087546   482 layer_factory.hpp:77] Creating layer inception_3b/relu_pool_proj
I0403 13:53:55.087568   482 net.cpp:91] Creating Layer inception_3b/relu_pool_proj
I0403 13:53:55.087585   482 net.cpp:425] inception_3b/relu_pool_proj <- inception_3b/pool_proj
I0403 13:53:55.087606   482 net.cpp:386] inception_3b/relu_pool_proj -> inception_3b/pool_proj (in-place)
I0403 13:53:55.088014   482 net.cpp:141] Setting up inception_3b/relu_pool_proj
I0403 13:53:55.088044   482 net.cpp:148] Top shape: 24 64 28 28 (1204224)
I0403 13:53:55.088062   482 net.cpp:156] Memory required for data: 773112864
I0403 13:53:55.088078   482 layer_factory.hpp:77] Creating layer inception_3b/output
I0403 13:53:55.088098   482 net.cpp:91] Creating Layer inception_3b/output
I0403 13:53:55.088114   482 net.cpp:425] inception_3b/output <- inception_3b/1x1
I0403 13:53:55.088132   482 net.cpp:425] inception_3b/output <- inception_3b/3x3
I0403 13:53:55.088150   482 net.cpp:425] inception_3b/output <- inception_3b/5x5
I0403 13:53:55.088166   482 net.cpp:425] inception_3b/output <- inception_3b/pool_proj
I0403 13:53:55.088184   482 net.cpp:399] inception_3b/output -> inception_3b/output
I0403 13:53:55.088238   482 net.cpp:141] Setting up inception_3b/output
I0403 13:53:55.088263   482 net.cpp:148] Top shape: 24 480 28 28 (9031680)
I0403 13:53:55.088279   482 net.cpp:156] Memory required for data: 809239584
I0403 13:53:55.088294   482 layer_factory.hpp:77] Creating layer pool3/3x3_s2
I0403 13:53:55.088316   482 net.cpp:91] Creating Layer pool3/3x3_s2
I0403 13:53:55.088335   482 net.cpp:425] pool3/3x3_s2 <- inception_3b/output
I0403 13:53:55.088369   482 net.cpp:399] pool3/3x3_s2 -> pool3/3x3_s2
I0403 13:53:55.088435   482 net.cpp:141] Setting up pool3/3x3_s2
I0403 13:53:55.088459   482 net.cpp:148] Top shape: 24 480 14 14 (2257920)
I0403 13:53:55.088476   482 net.cpp:156] Memory required for data: 818271264
I0403 13:53:55.088492   482 layer_factory.hpp:77] Creating layer pool3/3x3_s2_pool3/3x3_s2_0_split
I0403 13:53:55.088510   482 net.cpp:91] Creating Layer pool3/3x3_s2_pool3/3x3_s2_0_split
I0403 13:53:55.088527   482 net.cpp:425] pool3/3x3_s2_pool3/3x3_s2_0_split <- pool3/3x3_s2
I0403 13:53:55.088548   482 net.cpp:399] pool3/3x3_s2_pool3/3x3_s2_0_split -> pool3/3x3_s2_pool3/3x3_s2_0_split_0
I0403 13:53:55.088570   482 net.cpp:399] pool3/3x3_s2_pool3/3x3_s2_0_split -> pool3/3x3_s2_pool3/3x3_s2_0_split_1
I0403 13:53:55.088593   482 net.cpp:399] pool3/3x3_s2_pool3/3x3_s2_0_split -> pool3/3x3_s2_pool3/3x3_s2_0_split_2
I0403 13:53:55.088613   482 net.cpp:399] pool3/3x3_s2_pool3/3x3_s2_0_split -> pool3/3x3_s2_pool3/3x3_s2_0_split_3
I0403 13:53:55.088707   482 net.cpp:141] Setting up pool3/3x3_s2_pool3/3x3_s2_0_split
I0403 13:53:55.088733   482 net.cpp:148] Top shape: 24 480 14 14 (2257920)
I0403 13:53:55.088752   482 net.cpp:148] Top shape: 24 480 14 14 (2257920)
I0403 13:53:55.088768   482 net.cpp:148] Top shape: 24 480 14 14 (2257920)
I0403 13:53:55.088786   482 net.cpp:148] Top shape: 24 480 14 14 (2257920)
I0403 13:53:55.088800   482 net.cpp:156] Memory required for data: 854397984
I0403 13:53:55.088816   482 layer_factory.hpp:77] Creating layer inception_4a/1x1
I0403 13:53:55.088840   482 net.cpp:91] Creating Layer inception_4a/1x1
I0403 13:53:55.088857   482 net.cpp:425] inception_4a/1x1 <- pool3/3x3_s2_pool3/3x3_s2_0_split_0
I0403 13:53:55.088877   482 net.cpp:399] inception_4a/1x1 -> inception_4a/1x1
I0403 13:53:55.090495   482 net.cpp:141] Setting up inception_4a/1x1
I0403 13:53:55.090525   482 net.cpp:148] Top shape: 24 192 14 14 (903168)
I0403 13:53:55.090543   482 net.cpp:156] Memory required for data: 858010656
I0403 13:53:55.090562   482 layer_factory.hpp:77] Creating layer inception_4a/relu_1x1
I0403 13:53:55.090581   482 net.cpp:91] Creating Layer inception_4a/relu_1x1
I0403 13:53:55.090598   482 net.cpp:425] inception_4a/relu_1x1 <- inception_4a/1x1
I0403 13:53:55.090620   482 net.cpp:386] inception_4a/relu_1x1 -> inception_4a/1x1 (in-place)
I0403 13:53:55.090801   482 net.cpp:141] Setting up inception_4a/relu_1x1
I0403 13:53:55.090826   482 net.cpp:148] Top shape: 24 192 14 14 (903168)
I0403 13:53:55.090842   482 net.cpp:156] Memory required for data: 861623328
I0403 13:53:55.090857   482 layer_factory.hpp:77] Creating layer inception_4a/3x3_reduce
I0403 13:53:55.090880   482 net.cpp:91] Creating Layer inception_4a/3x3_reduce
I0403 13:53:55.090898   482 net.cpp:425] inception_4a/3x3_reduce <- pool3/3x3_s2_pool3/3x3_s2_0_split_1
I0403 13:53:55.090920   482 net.cpp:399] inception_4a/3x3_reduce -> inception_4a/3x3_reduce
I0403 13:53:55.092259   482 net.cpp:141] Setting up inception_4a/3x3_reduce
I0403 13:53:55.092291   482 net.cpp:148] Top shape: 24 96 14 14 (451584)
I0403 13:53:55.092308   482 net.cpp:156] Memory required for data: 863429664
I0403 13:53:55.092331   482 layer_factory.hpp:77] Creating layer inception_4a/relu_3x3_reduce
I0403 13:53:55.092372   482 net.cpp:91] Creating Layer inception_4a/relu_3x3_reduce
I0403 13:53:55.092391   482 net.cpp:425] inception_4a/relu_3x3_reduce <- inception_4a/3x3_reduce
I0403 13:53:55.092411   482 net.cpp:386] inception_4a/relu_3x3_reduce -> inception_4a/3x3_reduce (in-place)
I0403 13:53:55.092599   482 net.cpp:141] Setting up inception_4a/relu_3x3_reduce
I0403 13:53:55.092627   482 net.cpp:148] Top shape: 24 96 14 14 (451584)
I0403 13:53:55.092643   482 net.cpp:156] Memory required for data: 865236000
I0403 13:53:55.092670   482 layer_factory.hpp:77] Creating layer inception_4a/3x3
I0403 13:53:55.092703   482 net.cpp:91] Creating Layer inception_4a/3x3
I0403 13:53:55.092722   482 net.cpp:425] inception_4a/3x3 <- inception_4a/3x3_reduce
I0403 13:53:55.092746   482 net.cpp:399] inception_4a/3x3 -> inception_4a/3x3
I0403 13:53:55.095538   482 net.cpp:141] Setting up inception_4a/3x3
I0403 13:53:55.095568   482 net.cpp:148] Top shape: 24 208 14 14 (978432)
I0403 13:53:55.095587   482 net.cpp:156] Memory required for data: 869149728
I0403 13:53:55.095607   482 layer_factory.hpp:77] Creating layer inception_4a/relu_3x3
I0403 13:53:55.095628   482 net.cpp:91] Creating Layer inception_4a/relu_3x3
I0403 13:53:55.095646   482 net.cpp:425] inception_4a/relu_3x3 <- inception_4a/3x3
I0403 13:53:55.095665   482 net.cpp:386] inception_4a/relu_3x3 -> inception_4a/3x3 (in-place)
I0403 13:53:55.095950   482 net.cpp:141] Setting up inception_4a/relu_3x3
I0403 13:53:55.095978   482 net.cpp:148] Top shape: 24 208 14 14 (978432)
I0403 13:53:55.095994   482 net.cpp:156] Memory required for data: 873063456
I0403 13:53:55.096010   482 layer_factory.hpp:77] Creating layer inception_4a/5x5_reduce
I0403 13:53:55.096035   482 net.cpp:91] Creating Layer inception_4a/5x5_reduce
I0403 13:53:55.096053   482 net.cpp:425] inception_4a/5x5_reduce <- pool3/3x3_s2_pool3/3x3_s2_0_split_2
I0403 13:53:55.096076   482 net.cpp:399] inception_4a/5x5_reduce -> inception_4a/5x5_reduce
I0403 13:53:55.097147   482 net.cpp:141] Setting up inception_4a/5x5_reduce
I0403 13:53:55.097175   482 net.cpp:148] Top shape: 24 16 14 14 (75264)
I0403 13:53:55.097192   482 net.cpp:156] Memory required for data: 873364512
I0403 13:53:55.097215   482 layer_factory.hpp:77] Creating layer inception_4a/relu_5x5_reduce
I0403 13:53:55.097239   482 net.cpp:91] Creating Layer inception_4a/relu_5x5_reduce
I0403 13:53:55.097256   482 net.cpp:425] inception_4a/relu_5x5_reduce <- inception_4a/5x5_reduce
I0403 13:53:55.097275   482 net.cpp:386] inception_4a/relu_5x5_reduce -> inception_4a/5x5_reduce (in-place)
I0403 13:53:55.097458   482 net.cpp:141] Setting up inception_4a/relu_5x5_reduce
I0403 13:53:55.097484   482 net.cpp:148] Top shape: 24 16 14 14 (75264)
I0403 13:53:55.097501   482 net.cpp:156] Memory required for data: 873665568
I0403 13:53:55.097517   482 layer_factory.hpp:77] Creating layer inception_4a/5x5
I0403 13:53:55.097542   482 net.cpp:91] Creating Layer inception_4a/5x5
I0403 13:53:55.097560   482 net.cpp:425] inception_4a/5x5 <- inception_4a/5x5_reduce
I0403 13:53:55.097580   482 net.cpp:399] inception_4a/5x5 -> inception_4a/5x5
I0403 13:53:55.098736   482 net.cpp:141] Setting up inception_4a/5x5
I0403 13:53:55.098767   482 net.cpp:148] Top shape: 24 48 14 14 (225792)
I0403 13:53:55.098784   482 net.cpp:156] Memory required for data: 874568736
I0403 13:53:55.098803   482 layer_factory.hpp:77] Creating layer inception_4a/relu_5x5
I0403 13:53:55.098824   482 net.cpp:91] Creating Layer inception_4a/relu_5x5
I0403 13:53:55.098839   482 net.cpp:425] inception_4a/relu_5x5 <- inception_4a/5x5
I0403 13:53:55.098858   482 net.cpp:386] inception_4a/relu_5x5 -> inception_4a/5x5 (in-place)
I0403 13:53:55.099043   482 net.cpp:141] Setting up inception_4a/relu_5x5
I0403 13:53:55.099069   482 net.cpp:148] Top shape: 24 48 14 14 (225792)
I0403 13:53:55.099084   482 net.cpp:156] Memory required for data: 875471904
I0403 13:53:55.099100   482 layer_factory.hpp:77] Creating layer inception_4a/pool
I0403 13:53:55.099118   482 net.cpp:91] Creating Layer inception_4a/pool
I0403 13:53:55.099135   482 net.cpp:425] inception_4a/pool <- pool3/3x3_s2_pool3/3x3_s2_0_split_3
I0403 13:53:55.099159   482 net.cpp:399] inception_4a/pool -> inception_4a/pool
I0403 13:53:55.099227   482 net.cpp:141] Setting up inception_4a/pool
I0403 13:53:55.099256   482 net.cpp:148] Top shape: 24 480 14 14 (2257920)
I0403 13:53:55.099272   482 net.cpp:156] Memory required for data: 884503584
I0403 13:53:55.099299   482 layer_factory.hpp:77] Creating layer inception_4a/pool_proj
I0403 13:53:55.099324   482 net.cpp:91] Creating Layer inception_4a/pool_proj
I0403 13:53:55.099344   482 net.cpp:425] inception_4a/pool_proj <- inception_4a/pool
I0403 13:53:55.099364   482 net.cpp:399] inception_4a/pool_proj -> inception_4a/pool_proj
I0403 13:53:55.100579   482 net.cpp:141] Setting up inception_4a/pool_proj
I0403 13:53:55.100613   482 net.cpp:148] Top shape: 24 64 14 14 (301056)
I0403 13:53:55.100644   482 net.cpp:156] Memory required for data: 885707808
I0403 13:53:55.100666   482 layer_factory.hpp:77] Creating layer inception_4a/relu_pool_proj
I0403 13:53:55.100684   482 net.cpp:91] Creating Layer inception_4a/relu_pool_proj
I0403 13:53:55.100702   482 net.cpp:425] inception_4a/relu_pool_proj <- inception_4a/pool_proj
I0403 13:53:55.100723   482 net.cpp:386] inception_4a/relu_pool_proj -> inception_4a/pool_proj (in-place)
I0403 13:53:55.101035   482 net.cpp:141] Setting up inception_4a/relu_pool_proj
I0403 13:53:55.101064   482 net.cpp:148] Top shape: 24 64 14 14 (301056)
I0403 13:53:55.101080   482 net.cpp:156] Memory required for data: 886912032
I0403 13:53:55.101097   482 layer_factory.hpp:77] Creating layer inception_4a/output
I0403 13:53:55.101116   482 net.cpp:91] Creating Layer inception_4a/output
I0403 13:53:55.101133   482 net.cpp:425] inception_4a/output <- inception_4a/1x1
I0403 13:53:55.101151   482 net.cpp:425] inception_4a/output <- inception_4a/3x3
I0403 13:53:55.101168   482 net.cpp:425] inception_4a/output <- inception_4a/5x5
I0403 13:53:55.101197   482 net.cpp:425] inception_4a/output <- inception_4a/pool_proj
I0403 13:53:55.101219   482 net.cpp:399] inception_4a/output -> inception_4a/output
I0403 13:53:55.101269   482 net.cpp:141] Setting up inception_4a/output
I0403 13:53:55.101294   482 net.cpp:148] Top shape: 24 512 14 14 (2408448)
I0403 13:53:55.101310   482 net.cpp:156] Memory required for data: 896545824
I0403 13:53:55.101325   482 layer_factory.hpp:77] Creating layer inception_4a/output_inception_4a/output_0_split
I0403 13:53:55.101346   482 net.cpp:91] Creating Layer inception_4a/output_inception_4a/output_0_split
I0403 13:53:55.101363   482 net.cpp:425] inception_4a/output_inception_4a/output_0_split <- inception_4a/output
I0403 13:53:55.101383   482 net.cpp:399] inception_4a/output_inception_4a/output_0_split -> inception_4a/output_inception_4a/output_0_split_0
I0403 13:53:55.101404   482 net.cpp:399] inception_4a/output_inception_4a/output_0_split -> inception_4a/output_inception_4a/output_0_split_1
I0403 13:53:55.101428   482 net.cpp:399] inception_4a/output_inception_4a/output_0_split -> inception_4a/output_inception_4a/output_0_split_2
I0403 13:53:55.101451   482 net.cpp:399] inception_4a/output_inception_4a/output_0_split -> inception_4a/output_inception_4a/output_0_split_3
I0403 13:53:55.101485   482 net.cpp:399] inception_4a/output_inception_4a/output_0_split -> inception_4a/output_inception_4a/output_0_split_4
I0403 13:53:55.101583   482 net.cpp:141] Setting up inception_4a/output_inception_4a/output_0_split
I0403 13:53:55.101608   482 net.cpp:148] Top shape: 24 512 14 14 (2408448)
I0403 13:53:55.101626   482 net.cpp:148] Top shape: 24 512 14 14 (2408448)
I0403 13:53:55.101644   482 net.cpp:148] Top shape: 24 512 14 14 (2408448)
I0403 13:53:55.101661   482 net.cpp:148] Top shape: 24 512 14 14 (2408448)
I0403 13:53:55.101678   482 net.cpp:148] Top shape: 24 512 14 14 (2408448)
I0403 13:53:55.101694   482 net.cpp:156] Memory required for data: 944714784
I0403 13:53:55.101711   482 layer_factory.hpp:77] Creating layer loss1/ave_pool
I0403 13:53:55.101732   482 net.cpp:91] Creating Layer loss1/ave_pool
I0403 13:53:55.101761   482 net.cpp:425] loss1/ave_pool <- inception_4a/output_inception_4a/output_0_split_0
I0403 13:53:55.101781   482 net.cpp:399] loss1/ave_pool -> loss1/ave_pool
I0403 13:53:55.101995   482 net.cpp:141] Setting up loss1/ave_pool
I0403 13:53:55.102022   482 net.cpp:148] Top shape: 24 512 4 4 (196608)
I0403 13:53:55.102037   482 net.cpp:156] Memory required for data: 945501216
I0403 13:53:55.102053   482 layer_factory.hpp:77] Creating layer loss1/conv
I0403 13:53:55.102077   482 net.cpp:91] Creating Layer loss1/conv
I0403 13:53:55.102094   482 net.cpp:425] loss1/conv <- loss1/ave_pool
I0403 13:53:55.102118   482 net.cpp:399] loss1/conv -> loss1/conv
I0403 13:53:55.103606   482 net.cpp:141] Setting up loss1/conv
I0403 13:53:55.103636   482 net.cpp:148] Top shape: 24 128 4 4 (49152)
I0403 13:53:55.103665   482 net.cpp:156] Memory required for data: 945697824
I0403 13:53:55.103687   482 layer_factory.hpp:77] Creating layer loss1/relu_conv
I0403 13:53:55.103709   482 net.cpp:91] Creating Layer loss1/relu_conv
I0403 13:53:55.103727   482 net.cpp:425] loss1/relu_conv <- loss1/conv
I0403 13:53:55.103746   482 net.cpp:386] loss1/relu_conv -> loss1/conv (in-place)
I0403 13:53:55.104048   482 net.cpp:141] Setting up loss1/relu_conv
I0403 13:53:55.104076   482 net.cpp:148] Top shape: 24 128 4 4 (49152)
I0403 13:53:55.104092   482 net.cpp:156] Memory required for data: 945894432
I0403 13:53:55.104109   482 layer_factory.hpp:77] Creating layer loss1/fc
I0403 13:53:55.104136   482 net.cpp:91] Creating Layer loss1/fc
I0403 13:53:55.104156   482 net.cpp:425] loss1/fc <- loss1/conv
I0403 13:53:55.104176   482 net.cpp:399] loss1/fc -> loss1/fc
I0403 13:53:55.122330   482 net.cpp:141] Setting up loss1/fc
I0403 13:53:55.122385   482 net.cpp:148] Top shape: 24 1024 (24576)
I0403 13:53:55.122402   482 net.cpp:156] Memory required for data: 945992736
I0403 13:53:55.122426   482 layer_factory.hpp:77] Creating layer loss1/relu_fc
I0403 13:53:55.122447   482 net.cpp:91] Creating Layer loss1/relu_fc
I0403 13:53:55.122465   482 net.cpp:425] loss1/relu_fc <- loss1/fc
I0403 13:53:55.122488   482 net.cpp:386] loss1/relu_fc -> loss1/fc (in-place)
I0403 13:53:55.122707   482 net.cpp:141] Setting up loss1/relu_fc
I0403 13:53:55.122732   482 net.cpp:148] Top shape: 24 1024 (24576)
I0403 13:53:55.122748   482 net.cpp:156] Memory required for data: 946091040
I0403 13:53:55.122778   482 layer_factory.hpp:77] Creating layer loss1/drop_fc
I0403 13:53:55.122812   482 net.cpp:91] Creating Layer loss1/drop_fc
I0403 13:53:55.122831   482 net.cpp:425] loss1/drop_fc <- loss1/fc
I0403 13:53:55.122850   482 net.cpp:386] loss1/drop_fc -> loss1/fc (in-place)
I0403 13:53:55.122906   482 net.cpp:141] Setting up loss1/drop_fc
I0403 13:53:55.122931   482 net.cpp:148] Top shape: 24 1024 (24576)
I0403 13:53:55.122946   482 net.cpp:156] Memory required for data: 946189344
I0403 13:53:55.122963   482 layer_factory.hpp:77] Creating layer loss1/classifier_plantvillage
I0403 13:53:55.122987   482 net.cpp:91] Creating Layer loss1/classifier_plantvillage
I0403 13:53:55.123005   482 net.cpp:425] loss1/classifier_plantvillage <- loss1/fc
I0403 13:53:55.123029   482 net.cpp:399] loss1/classifier_plantvillage -> loss1/classifier_plantvillage
I0403 13:53:55.123991   482 net.cpp:141] Setting up loss1/classifier_plantvillage
I0403 13:53:55.124020   482 net.cpp:148] Top shape: 24 38 (912)
I0403 13:53:55.124037   482 net.cpp:156] Memory required for data: 946192992
I0403 13:53:55.124056   482 layer_factory.hpp:77] Creating layer loss1/classifier_plantvillage_loss1/classifier_plantvillage_0_split
I0403 13:53:55.124076   482 net.cpp:91] Creating Layer loss1/classifier_plantvillage_loss1/classifier_plantvillage_0_split
I0403 13:53:55.124094   482 net.cpp:425] loss1/classifier_plantvillage_loss1/classifier_plantvillage_0_split <- loss1/classifier_plantvillage
I0403 13:53:55.124115   482 net.cpp:399] loss1/classifier_plantvillage_loss1/classifier_plantvillage_0_split -> loss1/classifier_plantvillage_loss1/classifier_plantvillage_0_split_0
I0403 13:53:55.124150   482 net.cpp:399] loss1/classifier_plantvillage_loss1/classifier_plantvillage_0_split -> loss1/classifier_plantvillage_loss1/classifier_plantvillage_0_split_1
I0403 13:53:55.124181   482 net.cpp:399] loss1/classifier_plantvillage_loss1/classifier_plantvillage_0_split -> loss1/classifier_plantvillage_loss1/classifier_plantvillage_0_split_2
I0403 13:53:55.124256   482 net.cpp:141] Setting up loss1/classifier_plantvillage_loss1/classifier_plantvillage_0_split
I0403 13:53:55.124284   482 net.cpp:148] Top shape: 24 38 (912)
I0403 13:53:55.124302   482 net.cpp:148] Top shape: 24 38 (912)
I0403 13:53:55.124320   482 net.cpp:148] Top shape: 24 38 (912)
I0403 13:53:55.124335   482 net.cpp:156] Memory required for data: 946203936
I0403 13:53:55.124349   482 layer_factory.hpp:77] Creating layer inception_4b/1x1
I0403 13:53:55.124372   482 net.cpp:91] Creating Layer inception_4b/1x1
I0403 13:53:55.124413   482 net.cpp:425] inception_4b/1x1 <- inception_4a/output_inception_4a/output_0_split_1
I0403 13:53:55.124434   482 net.cpp:399] inception_4b/1x1 -> inception_4b/1x1
I0403 13:53:55.126230   482 net.cpp:141] Setting up inception_4b/1x1
I0403 13:53:55.126261   482 net.cpp:148] Top shape: 24 160 14 14 (752640)
I0403 13:53:55.126279   482 net.cpp:156] Memory required for data: 949214496
I0403 13:53:55.126301   482 layer_factory.hpp:77] Creating layer inception_4b/relu_1x1
I0403 13:53:55.126322   482 net.cpp:91] Creating Layer inception_4b/relu_1x1
I0403 13:53:55.126354   482 net.cpp:425] inception_4b/relu_1x1 <- inception_4b/1x1
I0403 13:53:55.126374   482 net.cpp:386] inception_4b/relu_1x1 -> inception_4b/1x1 (in-place)
I0403 13:53:55.126561   482 net.cpp:141] Setting up inception_4b/relu_1x1
I0403 13:53:55.126586   482 net.cpp:148] Top shape: 24 160 14 14 (752640)
I0403 13:53:55.126602   482 net.cpp:156] Memory required for data: 952225056
I0403 13:53:55.126618   482 layer_factory.hpp:77] Creating layer inception_4b/3x3_reduce
I0403 13:53:55.126643   482 net.cpp:91] Creating Layer inception_4b/3x3_reduce
I0403 13:53:55.126662   482 net.cpp:425] inception_4b/3x3_reduce <- inception_4a/output_inception_4a/output_0_split_2
I0403 13:53:55.126682   482 net.cpp:399] inception_4b/3x3_reduce -> inception_4b/3x3_reduce
I0403 13:53:55.128101   482 net.cpp:141] Setting up inception_4b/3x3_reduce
I0403 13:53:55.128130   482 net.cpp:148] Top shape: 24 112 14 14 (526848)
I0403 13:53:55.128146   482 net.cpp:156] Memory required for data: 954332448
I0403 13:53:55.128171   482 layer_factory.hpp:77] Creating layer inception_4b/relu_3x3_reduce
I0403 13:53:55.128196   482 net.cpp:91] Creating Layer inception_4b/relu_3x3_reduce
I0403 13:53:55.128217   482 net.cpp:425] inception_4b/relu_3x3_reduce <- inception_4b/3x3_reduce
I0403 13:53:55.128237   482 net.cpp:386] inception_4b/relu_3x3_reduce -> inception_4b/3x3_reduce (in-place)
I0403 13:53:55.128535   482 net.cpp:141] Setting up inception_4b/relu_3x3_reduce
I0403 13:53:55.128561   482 net.cpp:148] Top shape: 24 112 14 14 (526848)
I0403 13:53:55.128577   482 net.cpp:156] Memory required for data: 956439840
I0403 13:53:55.128593   482 layer_factory.hpp:77] Creating layer inception_4b/3x3
I0403 13:53:55.128618   482 net.cpp:91] Creating Layer inception_4b/3x3
I0403 13:53:55.128636   482 net.cpp:425] inception_4b/3x3 <- inception_4b/3x3_reduce
I0403 13:53:55.128656   482 net.cpp:399] inception_4b/3x3 -> inception_4b/3x3
I0403 13:53:55.131727   482 net.cpp:141] Setting up inception_4b/3x3
I0403 13:53:55.131775   482 net.cpp:148] Top shape: 24 224 14 14 (1053696)
I0403 13:53:55.131794   482 net.cpp:156] Memory required for data: 960654624
I0403 13:53:55.131814   482 layer_factory.hpp:77] Creating layer inception_4b/relu_3x3
I0403 13:53:55.131834   482 net.cpp:91] Creating Layer inception_4b/relu_3x3
I0403 13:53:55.131855   482 net.cpp:425] inception_4b/relu_3x3 <- inception_4b/3x3
I0403 13:53:55.131876   482 net.cpp:386] inception_4b/relu_3x3 -> inception_4b/3x3 (in-place)
I0403 13:53:55.132067   482 net.cpp:141] Setting up inception_4b/relu_3x3
I0403 13:53:55.132094   482 net.cpp:148] Top shape: 24 224 14 14 (1053696)
I0403 13:53:55.132110   482 net.cpp:156] Memory required for data: 964869408
I0403 13:53:55.132128   482 layer_factory.hpp:77] Creating layer inception_4b/5x5_reduce
I0403 13:53:55.132151   482 net.cpp:91] Creating Layer inception_4b/5x5_reduce
I0403 13:53:55.132170   482 net.cpp:425] inception_4b/5x5_reduce <- inception_4a/output_inception_4a/output_0_split_3
I0403 13:53:55.132194   482 net.cpp:399] inception_4b/5x5_reduce -> inception_4b/5x5_reduce
I0403 13:53:55.133332   482 net.cpp:141] Setting up inception_4b/5x5_reduce
I0403 13:53:55.133363   482 net.cpp:148] Top shape: 24 24 14 14 (112896)
I0403 13:53:55.133379   482 net.cpp:156] Memory required for data: 965320992
I0403 13:53:55.133400   482 layer_factory.hpp:77] Creating layer inception_4b/relu_5x5_reduce
I0403 13:53:55.133424   482 net.cpp:91] Creating Layer inception_4b/relu_5x5_reduce
I0403 13:53:55.133460   482 net.cpp:425] inception_4b/relu_5x5_reduce <- inception_4b/5x5_reduce
I0403 13:53:55.133481   482 net.cpp:386] inception_4b/relu_5x5_reduce -> inception_4b/5x5_reduce (in-place)
I0403 13:53:55.133672   482 net.cpp:141] Setting up inception_4b/relu_5x5_reduce
I0403 13:53:55.133702   482 net.cpp:148] Top shape: 24 24 14 14 (112896)
I0403 13:53:55.133719   482 net.cpp:156] Memory required for data: 965772576
I0403 13:53:55.133736   482 layer_factory.hpp:77] Creating layer inception_4b/5x5
I0403 13:53:55.133760   482 net.cpp:91] Creating Layer inception_4b/5x5
I0403 13:53:55.133780   482 net.cpp:425] inception_4b/5x5 <- inception_4b/5x5_reduce
I0403 13:53:55.133801   482 net.cpp:399] inception_4b/5x5 -> inception_4b/5x5
I0403 13:53:55.135081   482 net.cpp:141] Setting up inception_4b/5x5
I0403 13:53:55.135110   482 net.cpp:148] Top shape: 24 64 14 14 (301056)
I0403 13:53:55.135129   482 net.cpp:156] Memory required for data: 966976800
I0403 13:53:55.135150   482 layer_factory.hpp:77] Creating layer inception_4b/relu_5x5
I0403 13:53:55.135174   482 net.cpp:91] Creating Layer inception_4b/relu_5x5
I0403 13:53:55.135192   482 net.cpp:425] inception_4b/relu_5x5 <- inception_4b/5x5
I0403 13:53:55.135216   482 net.cpp:386] inception_4b/relu_5x5 -> inception_4b/5x5 (in-place)
I0403 13:53:55.135525   482 net.cpp:141] Setting up inception_4b/relu_5x5
I0403 13:53:55.135555   482 net.cpp:148] Top shape: 24 64 14 14 (301056)
I0403 13:53:55.135571   482 net.cpp:156] Memory required for data: 968181024
I0403 13:53:55.135588   482 layer_factory.hpp:77] Creating layer inception_4b/pool
I0403 13:53:55.135612   482 net.cpp:91] Creating Layer inception_4b/pool
I0403 13:53:55.135630   482 net.cpp:425] inception_4b/pool <- inception_4a/output_inception_4a/output_0_split_4
I0403 13:53:55.135651   482 net.cpp:399] inception_4b/pool -> inception_4b/pool
I0403 13:53:55.135725   482 net.cpp:141] Setting up inception_4b/pool
I0403 13:53:55.135751   482 net.cpp:148] Top shape: 24 512 14 14 (2408448)
I0403 13:53:55.135768   482 net.cpp:156] Memory required for data: 977814816
I0403 13:53:55.135784   482 layer_factory.hpp:77] Creating layer inception_4b/pool_proj
I0403 13:53:55.135808   482 net.cpp:91] Creating Layer inception_4b/pool_proj
I0403 13:53:55.135828   482 net.cpp:425] inception_4b/pool_proj <- inception_4b/pool
I0403 13:53:55.135850   482 net.cpp:399] inception_4b/pool_proj -> inception_4b/pool_proj
I0403 13:53:55.137122   482 net.cpp:141] Setting up inception_4b/pool_proj
I0403 13:53:55.137152   482 net.cpp:148] Top shape: 24 64 14 14 (301056)
I0403 13:53:55.137171   482 net.cpp:156] Memory required for data: 979019040
I0403 13:53:55.137190   482 layer_factory.hpp:77] Creating layer inception_4b/relu_pool_proj
I0403 13:53:55.137217   482 net.cpp:91] Creating Layer inception_4b/relu_pool_proj
I0403 13:53:55.137238   482 net.cpp:425] inception_4b/relu_pool_proj <- inception_4b/pool_proj
I0403 13:53:55.137256   482 net.cpp:386] inception_4b/relu_pool_proj -> inception_4b/pool_proj (in-place)
I0403 13:53:55.137452   482 net.cpp:141] Setting up inception_4b/relu_pool_proj
I0403 13:53:55.137481   482 net.cpp:148] Top shape: 24 64 14 14 (301056)
I0403 13:53:55.137498   482 net.cpp:156] Memory required for data: 980223264
I0403 13:53:55.137514   482 layer_factory.hpp:77] Creating layer inception_4b/output
I0403 13:53:55.137534   482 net.cpp:91] Creating Layer inception_4b/output
I0403 13:53:55.137552   482 net.cpp:425] inception_4b/output <- inception_4b/1x1
I0403 13:53:55.137569   482 net.cpp:425] inception_4b/output <- inception_4b/3x3
I0403 13:53:55.137588   482 net.cpp:425] inception_4b/output <- inception_4b/5x5
I0403 13:53:55.137604   482 net.cpp:425] inception_4b/output <- inception_4b/pool_proj
I0403 13:53:55.137624   482 net.cpp:399] inception_4b/output -> inception_4b/output
I0403 13:53:55.137676   482 net.cpp:141] Setting up inception_4b/output
I0403 13:53:55.137701   482 net.cpp:148] Top shape: 24 512 14 14 (2408448)
I0403 13:53:55.137717   482 net.cpp:156] Memory required for data: 989857056
I0403 13:53:55.137748   482 layer_factory.hpp:77] Creating layer inception_4b/output_inception_4b/output_0_split
I0403 13:53:55.137768   482 net.cpp:91] Creating Layer inception_4b/output_inception_4b/output_0_split
I0403 13:53:55.137786   482 net.cpp:425] inception_4b/output_inception_4b/output_0_split <- inception_4b/output
I0403 13:53:55.137806   482 net.cpp:399] inception_4b/output_inception_4b/output_0_split -> inception_4b/output_inception_4b/output_0_split_0
I0403 13:53:55.137827   482 net.cpp:399] inception_4b/output_inception_4b/output_0_split -> inception_4b/output_inception_4b/output_0_split_1
I0403 13:53:55.137850   482 net.cpp:399] inception_4b/output_inception_4b/output_0_split -> inception_4b/output_inception_4b/output_0_split_2
I0403 13:53:55.137876   482 net.cpp:399] inception_4b/output_inception_4b/output_0_split -> inception_4b/output_inception_4b/output_0_split_3
I0403 13:53:55.137967   482 net.cpp:141] Setting up inception_4b/output_inception_4b/output_0_split
I0403 13:53:55.137992   482 net.cpp:148] Top shape: 24 512 14 14 (2408448)
I0403 13:53:55.138010   482 net.cpp:148] Top shape: 24 512 14 14 (2408448)
I0403 13:53:55.138027   482 net.cpp:148] Top shape: 24 512 14 14 (2408448)
I0403 13:53:55.138046   482 net.cpp:148] Top shape: 24 512 14 14 (2408448)
I0403 13:53:55.138061   482 net.cpp:156] Memory required for data: 1028392224
I0403 13:53:55.138077   482 layer_factory.hpp:77] Creating layer inception_4c/1x1
I0403 13:53:55.138100   482 net.cpp:91] Creating Layer inception_4c/1x1
I0403 13:53:55.138119   482 net.cpp:425] inception_4c/1x1 <- inception_4b/output_inception_4b/output_0_split_0
I0403 13:53:55.138141   482 net.cpp:399] inception_4c/1x1 -> inception_4c/1x1
I0403 13:53:55.139690   482 net.cpp:141] Setting up inception_4c/1x1
I0403 13:53:55.139724   482 net.cpp:148] Top shape: 24 128 14 14 (602112)
I0403 13:53:55.139745   482 net.cpp:156] Memory required for data: 1030800672
I0403 13:53:55.139766   482 layer_factory.hpp:77] Creating layer inception_4c/relu_1x1
I0403 13:53:55.139787   482 net.cpp:91] Creating Layer inception_4c/relu_1x1
I0403 13:53:55.139806   482 net.cpp:425] inception_4c/relu_1x1 <- inception_4c/1x1
I0403 13:53:55.139828   482 net.cpp:386] inception_4c/relu_1x1 -> inception_4c/1x1 (in-place)
I0403 13:53:55.140020   482 net.cpp:141] Setting up inception_4c/relu_1x1
I0403 13:53:55.140048   482 net.cpp:148] Top shape: 24 128 14 14 (602112)
I0403 13:53:55.140064   482 net.cpp:156] Memory required for data: 1033209120
I0403 13:53:55.140080   482 layer_factory.hpp:77] Creating layer inception_4c/3x3_reduce
I0403 13:53:55.140103   482 net.cpp:91] Creating Layer inception_4c/3x3_reduce
I0403 13:53:55.140122   482 net.cpp:425] inception_4c/3x3_reduce <- inception_4b/output_inception_4b/output_0_split_1
I0403 13:53:55.140146   482 net.cpp:399] inception_4c/3x3_reduce -> inception_4c/3x3_reduce
I0403 13:53:55.142213   482 net.cpp:141] Setting up inception_4c/3x3_reduce
I0403 13:53:55.142246   482 net.cpp:148] Top shape: 24 128 14 14 (602112)
I0403 13:53:55.142263   482 net.cpp:156] Memory required for data: 1035617568
I0403 13:53:55.142284   482 layer_factory.hpp:77] Creating layer inception_4c/relu_3x3_reduce
I0403 13:53:55.142307   482 net.cpp:91] Creating Layer inception_4c/relu_3x3_reduce
I0403 13:53:55.142326   482 net.cpp:425] inception_4c/relu_3x3_reduce <- inception_4c/3x3_reduce
I0403 13:53:55.142348   482 net.cpp:386] inception_4c/relu_3x3_reduce -> inception_4c/3x3_reduce (in-place)
I0403 13:53:55.142652   482 net.cpp:141] Setting up inception_4c/relu_3x3_reduce
I0403 13:53:55.142679   482 net.cpp:148] Top shape: 24 128 14 14 (602112)
I0403 13:53:55.142695   482 net.cpp:156] Memory required for data: 1038026016
I0403 13:53:55.142712   482 layer_factory.hpp:77] Creating layer inception_4c/3x3
I0403 13:53:55.142737   482 net.cpp:91] Creating Layer inception_4c/3x3
I0403 13:53:55.142756   482 net.cpp:425] inception_4c/3x3 <- inception_4c/3x3_reduce
I0403 13:53:55.142781   482 net.cpp:399] inception_4c/3x3 -> inception_4c/3x3
I0403 13:53:55.146575   482 net.cpp:141] Setting up inception_4c/3x3
I0403 13:53:55.146620   482 net.cpp:148] Top shape: 24 256 14 14 (1204224)
I0403 13:53:55.146638   482 net.cpp:156] Memory required for data: 1042842912
I0403 13:53:55.146673   482 layer_factory.hpp:77] Creating layer inception_4c/relu_3x3
I0403 13:53:55.146698   482 net.cpp:91] Creating Layer inception_4c/relu_3x3
I0403 13:53:55.146718   482 net.cpp:425] inception_4c/relu_3x3 <- inception_4c/3x3
I0403 13:53:55.146736   482 net.cpp:386] inception_4c/relu_3x3 -> inception_4c/3x3 (in-place)
I0403 13:53:55.146934   482 net.cpp:141] Setting up inception_4c/relu_3x3
I0403 13:53:55.146960   482 net.cpp:148] Top shape: 24 256 14 14 (1204224)
I0403 13:53:55.146976   482 net.cpp:156] Memory required for data: 1047659808
I0403 13:53:55.146993   482 layer_factory.hpp:77] Creating layer inception_4c/5x5_reduce
I0403 13:53:55.147018   482 net.cpp:91] Creating Layer inception_4c/5x5_reduce
I0403 13:53:55.147037   482 net.cpp:425] inception_4c/5x5_reduce <- inception_4b/output_inception_4b/output_0_split_2
I0403 13:53:55.147061   482 net.cpp:399] inception_4c/5x5_reduce -> inception_4c/5x5_reduce
I0403 13:53:55.148222   482 net.cpp:141] Setting up inception_4c/5x5_reduce
I0403 13:53:55.148252   482 net.cpp:148] Top shape: 24 24 14 14 (112896)
I0403 13:53:55.148270   482 net.cpp:156] Memory required for data: 1048111392
I0403 13:53:55.148291   482 layer_factory.hpp:77] Creating layer inception_4c/relu_5x5_reduce
I0403 13:53:55.148313   482 net.cpp:91] Creating Layer inception_4c/relu_5x5_reduce
I0403 13:53:55.148330   482 net.cpp:425] inception_4c/relu_5x5_reduce <- inception_4c/5x5_reduce
I0403 13:53:55.148350   482 net.cpp:386] inception_4c/relu_5x5_reduce -> inception_4c/5x5_reduce (in-place)
I0403 13:53:55.148546   482 net.cpp:141] Setting up inception_4c/relu_5x5_reduce
I0403 13:53:55.148574   482 net.cpp:148] Top shape: 24 24 14 14 (112896)
I0403 13:53:55.148591   482 net.cpp:156] Memory required for data: 1048562976
I0403 13:53:55.148608   482 layer_factory.hpp:77] Creating layer inception_4c/5x5
I0403 13:53:55.148632   482 net.cpp:91] Creating Layer inception_4c/5x5
I0403 13:53:55.148650   482 net.cpp:425] inception_4c/5x5 <- inception_4c/5x5_reduce
I0403 13:53:55.148671   482 net.cpp:399] inception_4c/5x5 -> inception_4c/5x5
I0403 13:53:55.149983   482 net.cpp:141] Setting up inception_4c/5x5
I0403 13:53:55.150017   482 net.cpp:148] Top shape: 24 64 14 14 (301056)
I0403 13:53:55.150035   482 net.cpp:156] Memory required for data: 1049767200
I0403 13:53:55.150056   482 layer_factory.hpp:77] Creating layer inception_4c/relu_5x5
I0403 13:53:55.150076   482 net.cpp:91] Creating Layer inception_4c/relu_5x5
I0403 13:53:55.150095   482 net.cpp:425] inception_4c/relu_5x5 <- inception_4c/5x5
I0403 13:53:55.150117   482 net.cpp:386] inception_4c/relu_5x5 -> inception_4c/5x5 (in-place)
I0403 13:53:55.150424   482 net.cpp:141] Setting up inception_4c/relu_5x5
I0403 13:53:55.150456   482 net.cpp:148] Top shape: 24 64 14 14 (301056)
I0403 13:53:55.150475   482 net.cpp:156] Memory required for data: 1050971424
I0403 13:53:55.150493   482 layer_factory.hpp:77] Creating layer inception_4c/pool
I0403 13:53:55.150513   482 net.cpp:91] Creating Layer inception_4c/pool
I0403 13:53:55.150532   482 net.cpp:425] inception_4c/pool <- inception_4b/output_inception_4b/output_0_split_3
I0403 13:53:55.150554   482 net.cpp:399] inception_4c/pool -> inception_4c/pool
I0403 13:53:55.150624   482 net.cpp:141] Setting up inception_4c/pool
I0403 13:53:55.150651   482 net.cpp:148] Top shape: 24 512 14 14 (2408448)
I0403 13:53:55.150681   482 net.cpp:156] Memory required for data: 1060605216
I0403 13:53:55.150698   482 layer_factory.hpp:77] Creating layer inception_4c/pool_proj
I0403 13:53:55.150723   482 net.cpp:91] Creating Layer inception_4c/pool_proj
I0403 13:53:55.150743   482 net.cpp:425] inception_4c/pool_proj <- inception_4c/pool
I0403 13:53:55.150766   482 net.cpp:399] inception_4c/pool_proj -> inception_4c/pool_proj
I0403 13:53:55.152091   482 net.cpp:141] Setting up inception_4c/pool_proj
I0403 13:53:55.152122   482 net.cpp:148] Top shape: 24 64 14 14 (301056)
I0403 13:53:55.152153   482 net.cpp:156] Memory required for data: 1061809440
I0403 13:53:55.152174   482 layer_factory.hpp:77] Creating layer inception_4c/relu_pool_proj
I0403 13:53:55.152200   482 net.cpp:91] Creating Layer inception_4c/relu_pool_proj
I0403 13:53:55.152225   482 net.cpp:425] inception_4c/relu_pool_proj <- inception_4c/pool_proj
I0403 13:53:55.152245   482 net.cpp:386] inception_4c/relu_pool_proj -> inception_4c/pool_proj (in-place)
I0403 13:53:55.152441   482 net.cpp:141] Setting up inception_4c/relu_pool_proj
I0403 13:53:55.152468   482 net.cpp:148] Top shape: 24 64 14 14 (301056)
I0403 13:53:55.152485   482 net.cpp:156] Memory required for data: 1063013664
I0403 13:53:55.152501   482 layer_factory.hpp:77] Creating layer inception_4c/output
I0403 13:53:55.152520   482 net.cpp:91] Creating Layer inception_4c/output
I0403 13:53:55.152536   482 net.cpp:425] inception_4c/output <- inception_4c/1x1
I0403 13:53:55.152554   482 net.cpp:425] inception_4c/output <- inception_4c/3x3
I0403 13:53:55.152573   482 net.cpp:425] inception_4c/output <- inception_4c/5x5
I0403 13:53:55.152590   482 net.cpp:425] inception_4c/output <- inception_4c/pool_proj
I0403 13:53:55.152608   482 net.cpp:399] inception_4c/output -> inception_4c/output
I0403 13:53:55.152660   482 net.cpp:141] Setting up inception_4c/output
I0403 13:53:55.152685   482 net.cpp:148] Top shape: 24 512 14 14 (2408448)
I0403 13:53:55.152701   482 net.cpp:156] Memory required for data: 1072647456
I0403 13:53:55.152717   482 layer_factory.hpp:77] Creating layer inception_4c/output_inception_4c/output_0_split
I0403 13:53:55.152736   482 net.cpp:91] Creating Layer inception_4c/output_inception_4c/output_0_split
I0403 13:53:55.152753   482 net.cpp:425] inception_4c/output_inception_4c/output_0_split <- inception_4c/output
I0403 13:53:55.152775   482 net.cpp:399] inception_4c/output_inception_4c/output_0_split -> inception_4c/output_inception_4c/output_0_split_0
I0403 13:53:55.152797   482 net.cpp:399] inception_4c/output_inception_4c/output_0_split -> inception_4c/output_inception_4c/output_0_split_1
I0403 13:53:55.152820   482 net.cpp:399] inception_4c/output_inception_4c/output_0_split -> inception_4c/output_inception_4c/output_0_split_2
I0403 13:53:55.152845   482 net.cpp:399] inception_4c/output_inception_4c/output_0_split -> inception_4c/output_inception_4c/output_0_split_3
I0403 13:53:55.152938   482 net.cpp:141] Setting up inception_4c/output_inception_4c/output_0_split
I0403 13:53:55.152963   482 net.cpp:148] Top shape: 24 512 14 14 (2408448)
I0403 13:53:55.152981   482 net.cpp:148] Top shape: 24 512 14 14 (2408448)
I0403 13:53:55.152998   482 net.cpp:148] Top shape: 24 512 14 14 (2408448)
I0403 13:53:55.153015   482 net.cpp:148] Top shape: 24 512 14 14 (2408448)
I0403 13:53:55.153031   482 net.cpp:156] Memory required for data: 1111182624
I0403 13:53:55.153048   482 layer_factory.hpp:77] Creating layer inception_4d/1x1
I0403 13:53:55.153071   482 net.cpp:91] Creating Layer inception_4d/1x1
I0403 13:53:55.153090   482 net.cpp:425] inception_4d/1x1 <- inception_4c/output_inception_4c/output_0_split_0
I0403 13:53:55.153113   482 net.cpp:399] inception_4d/1x1 -> inception_4d/1x1
I0403 13:53:55.154583   482 net.cpp:141] Setting up inception_4d/1x1
I0403 13:53:55.154613   482 net.cpp:148] Top shape: 24 112 14 14 (526848)
I0403 13:53:55.154629   482 net.cpp:156] Memory required for data: 1113290016
I0403 13:53:55.154650   482 layer_factory.hpp:77] Creating layer inception_4d/relu_1x1
I0403 13:53:55.154670   482 net.cpp:91] Creating Layer inception_4d/relu_1x1
I0403 13:53:55.154721   482 net.cpp:425] inception_4d/relu_1x1 <- inception_4d/1x1
I0403 13:53:55.154741   482 net.cpp:386] inception_4d/relu_1x1 -> inception_4d/1x1 (in-place)
I0403 13:53:55.154943   482 net.cpp:141] Setting up inception_4d/relu_1x1
I0403 13:53:55.154983   482 net.cpp:148] Top shape: 24 112 14 14 (526848)
I0403 13:53:55.154999   482 net.cpp:156] Memory required for data: 1115397408
I0403 13:53:55.155016   482 layer_factory.hpp:77] Creating layer inception_4d/3x3_reduce
I0403 13:53:55.155055   482 net.cpp:91] Creating Layer inception_4d/3x3_reduce
I0403 13:53:55.155074   482 net.cpp:425] inception_4d/3x3_reduce <- inception_4c/output_inception_4c/output_0_split_1
I0403 13:53:55.155098   482 net.cpp:399] inception_4d/3x3_reduce -> inception_4d/3x3_reduce
I0403 13:53:55.156697   482 net.cpp:141] Setting up inception_4d/3x3_reduce
I0403 13:53:55.156729   482 net.cpp:148] Top shape: 24 144 14 14 (677376)
I0403 13:53:55.156749   482 net.cpp:156] Memory required for data: 1118106912
I0403 13:53:55.156770   482 layer_factory.hpp:77] Creating layer inception_4d/relu_3x3_reduce
I0403 13:53:55.156791   482 net.cpp:91] Creating Layer inception_4d/relu_3x3_reduce
I0403 13:53:55.156810   482 net.cpp:425] inception_4d/relu_3x3_reduce <- inception_4d/3x3_reduce
I0403 13:53:55.156831   482 net.cpp:386] inception_4d/relu_3x3_reduce -> inception_4d/3x3_reduce (in-place)
I0403 13:53:55.157135   482 net.cpp:141] Setting up inception_4d/relu_3x3_reduce
I0403 13:53:55.157165   482 net.cpp:148] Top shape: 24 144 14 14 (677376)
I0403 13:53:55.157183   482 net.cpp:156] Memory required for data: 1120816416
I0403 13:53:55.157201   482 layer_factory.hpp:77] Creating layer inception_4d/3x3
I0403 13:53:55.157229   482 net.cpp:91] Creating Layer inception_4d/3x3
I0403 13:53:55.157249   482 net.cpp:425] inception_4d/3x3 <- inception_4d/3x3_reduce
I0403 13:53:55.157270   482 net.cpp:399] inception_4d/3x3 -> inception_4d/3x3
I0403 13:53:55.161746   482 net.cpp:141] Setting up inception_4d/3x3
I0403 13:53:55.161777   482 net.cpp:148] Top shape: 24 288 14 14 (1354752)
I0403 13:53:55.161795   482 net.cpp:156] Memory required for data: 1126235424
I0403 13:53:55.161816   482 layer_factory.hpp:77] Creating layer inception_4d/relu_3x3
I0403 13:53:55.161836   482 net.cpp:91] Creating Layer inception_4d/relu_3x3
I0403 13:53:55.161854   482 net.cpp:425] inception_4d/relu_3x3 <- inception_4d/3x3
I0403 13:53:55.161875   482 net.cpp:386] inception_4d/relu_3x3 -> inception_4d/3x3 (in-place)
I0403 13:53:55.162071   482 net.cpp:141] Setting up inception_4d/relu_3x3
I0403 13:53:55.162098   482 net.cpp:148] Top shape: 24 288 14 14 (1354752)
I0403 13:53:55.162114   482 net.cpp:156] Memory required for data: 1131654432
I0403 13:53:55.162130   482 layer_factory.hpp:77] Creating layer inception_4d/5x5_reduce
I0403 13:53:55.162154   482 net.cpp:91] Creating Layer inception_4d/5x5_reduce
I0403 13:53:55.162173   482 net.cpp:425] inception_4d/5x5_reduce <- inception_4c/output_inception_4c/output_0_split_2
I0403 13:53:55.162196   482 net.cpp:399] inception_4d/5x5_reduce -> inception_4d/5x5_reduce
I0403 13:53:55.163426   482 net.cpp:141] Setting up inception_4d/5x5_reduce
I0403 13:53:55.163458   482 net.cpp:148] Top shape: 24 32 14 14 (150528)
I0403 13:53:55.163476   482 net.cpp:156] Memory required for data: 1132256544
I0403 13:53:55.163496   482 layer_factory.hpp:77] Creating layer inception_4d/relu_5x5_reduce
I0403 13:53:55.163519   482 net.cpp:91] Creating Layer inception_4d/relu_5x5_reduce
I0403 13:53:55.163539   482 net.cpp:425] inception_4d/relu_5x5_reduce <- inception_4d/5x5_reduce
I0403 13:53:55.163559   482 net.cpp:386] inception_4d/relu_5x5_reduce -> inception_4d/5x5_reduce (in-place)
I0403 13:53:55.163760   482 net.cpp:141] Setting up inception_4d/relu_5x5_reduce
I0403 13:53:55.163787   482 net.cpp:148] Top shape: 24 32 14 14 (150528)
I0403 13:53:55.163805   482 net.cpp:156] Memory required for data: 1132858656
I0403 13:53:55.163820   482 layer_factory.hpp:77] Creating layer inception_4d/5x5
I0403 13:53:55.163844   482 net.cpp:91] Creating Layer inception_4d/5x5
I0403 13:53:55.163864   482 net.cpp:425] inception_4d/5x5 <- inception_4d/5x5_reduce
I0403 13:53:55.163887   482 net.cpp:399] inception_4d/5x5 -> inception_4d/5x5
I0403 13:53:55.165447   482 net.cpp:141] Setting up inception_4d/5x5
I0403 13:53:55.165477   482 net.cpp:148] Top shape: 24 64 14 14 (301056)
I0403 13:53:55.165495   482 net.cpp:156] Memory required for data: 1134062880
I0403 13:53:55.165518   482 layer_factory.hpp:77] Creating layer inception_4d/relu_5x5
I0403 13:53:55.165557   482 net.cpp:91] Creating Layer inception_4d/relu_5x5
I0403 13:53:55.165580   482 net.cpp:425] inception_4d/relu_5x5 <- inception_4d/5x5
I0403 13:53:55.165599   482 net.cpp:386] inception_4d/relu_5x5 -> inception_4d/5x5 (in-place)
I0403 13:53:55.165912   482 net.cpp:141] Setting up inception_4d/relu_5x5
I0403 13:53:55.165941   482 net.cpp:148] Top shape: 24 64 14 14 (301056)
I0403 13:53:55.165959   482 net.cpp:156] Memory required for data: 1135267104
I0403 13:53:55.165976   482 layer_factory.hpp:77] Creating layer inception_4d/pool
I0403 13:53:55.165999   482 net.cpp:91] Creating Layer inception_4d/pool
I0403 13:53:55.166018   482 net.cpp:425] inception_4d/pool <- inception_4c/output_inception_4c/output_0_split_3
I0403 13:53:55.166038   482 net.cpp:399] inception_4d/pool -> inception_4d/pool
I0403 13:53:55.166110   482 net.cpp:141] Setting up inception_4d/pool
I0403 13:53:55.166136   482 net.cpp:148] Top shape: 24 512 14 14 (2408448)
I0403 13:53:55.166152   482 net.cpp:156] Memory required for data: 1144900896
I0403 13:53:55.166168   482 layer_factory.hpp:77] Creating layer inception_4d/pool_proj
I0403 13:53:55.166191   482 net.cpp:91] Creating Layer inception_4d/pool_proj
I0403 13:53:55.166214   482 net.cpp:425] inception_4d/pool_proj <- inception_4d/pool
I0403 13:53:55.166239   482 net.cpp:399] inception_4d/pool_proj -> inception_4d/pool_proj
I0403 13:53:55.168083   482 net.cpp:141] Setting up inception_4d/pool_proj
I0403 13:53:55.168114   482 net.cpp:148] Top shape: 24 64 14 14 (301056)
I0403 13:53:55.168133   482 net.cpp:156] Memory required for data: 1146105120
I0403 13:53:55.168154   482 layer_factory.hpp:77] Creating layer inception_4d/relu_pool_proj
I0403 13:53:55.168174   482 net.cpp:91] Creating Layer inception_4d/relu_pool_proj
I0403 13:53:55.168193   482 net.cpp:425] inception_4d/relu_pool_proj <- inception_4d/pool_proj
I0403 13:53:55.168222   482 net.cpp:386] inception_4d/relu_pool_proj -> inception_4d/pool_proj (in-place)
I0403 13:53:55.168422   482 net.cpp:141] Setting up inception_4d/relu_pool_proj
I0403 13:53:55.168450   482 net.cpp:148] Top shape: 24 64 14 14 (301056)
I0403 13:53:55.168467   482 net.cpp:156] Memory required for data: 1147309344
I0403 13:53:55.168483   482 layer_factory.hpp:77] Creating layer inception_4d/output
I0403 13:53:55.168504   482 net.cpp:91] Creating Layer inception_4d/output
I0403 13:53:55.168522   482 net.cpp:425] inception_4d/output <- inception_4d/1x1
I0403 13:53:55.168540   482 net.cpp:425] inception_4d/output <- inception_4d/3x3
I0403 13:53:55.168558   482 net.cpp:425] inception_4d/output <- inception_4d/5x5
I0403 13:53:55.168576   482 net.cpp:425] inception_4d/output <- inception_4d/pool_proj
I0403 13:53:55.168594   482 net.cpp:399] inception_4d/output -> inception_4d/output
I0403 13:53:55.168647   482 net.cpp:141] Setting up inception_4d/output
I0403 13:53:55.168673   482 net.cpp:148] Top shape: 24 528 14 14 (2483712)
I0403 13:53:55.168689   482 net.cpp:156] Memory required for data: 1157244192
I0403 13:53:55.168704   482 layer_factory.hpp:77] Creating layer inception_4d/output_inception_4d/output_0_split
I0403 13:53:55.168723   482 net.cpp:91] Creating Layer inception_4d/output_inception_4d/output_0_split
I0403 13:53:55.168740   482 net.cpp:425] inception_4d/output_inception_4d/output_0_split <- inception_4d/output
I0403 13:53:55.168762   482 net.cpp:399] inception_4d/output_inception_4d/output_0_split -> inception_4d/output_inception_4d/output_0_split_0
I0403 13:53:55.168786   482 net.cpp:399] inception_4d/output_inception_4d/output_0_split -> inception_4d/output_inception_4d/output_0_split_1
I0403 13:53:55.168808   482 net.cpp:399] inception_4d/output_inception_4d/output_0_split -> inception_4d/output_inception_4d/output_0_split_2
I0403 13:53:55.168830   482 net.cpp:399] inception_4d/output_inception_4d/output_0_split -> inception_4d/output_inception_4d/output_0_split_3
I0403 13:53:55.168853   482 net.cpp:399] inception_4d/output_inception_4d/output_0_split -> inception_4d/output_inception_4d/output_0_split_4
I0403 13:53:55.168965   482 net.cpp:141] Setting up inception_4d/output_inception_4d/output_0_split
I0403 13:53:55.169003   482 net.cpp:148] Top shape: 24 528 14 14 (2483712)
I0403 13:53:55.169023   482 net.cpp:148] Top shape: 24 528 14 14 (2483712)
I0403 13:53:55.169039   482 net.cpp:148] Top shape: 24 528 14 14 (2483712)
I0403 13:53:55.169056   482 net.cpp:148] Top shape: 24 528 14 14 (2483712)
I0403 13:53:55.169073   482 net.cpp:148] Top shape: 24 528 14 14 (2483712)
I0403 13:53:55.169090   482 net.cpp:156] Memory required for data: 1206918432
I0403 13:53:55.169106   482 layer_factory.hpp:77] Creating layer loss2/ave_pool
I0403 13:53:55.169124   482 net.cpp:91] Creating Layer loss2/ave_pool
I0403 13:53:55.169142   482 net.cpp:425] loss2/ave_pool <- inception_4d/output_inception_4d/output_0_split_0
I0403 13:53:55.169165   482 net.cpp:399] loss2/ave_pool -> loss2/ave_pool
I0403 13:53:55.169502   482 net.cpp:141] Setting up loss2/ave_pool
I0403 13:53:55.169529   482 net.cpp:148] Top shape: 24 528 4 4 (202752)
I0403 13:53:55.169545   482 net.cpp:156] Memory required for data: 1207729440
I0403 13:53:55.169562   482 layer_factory.hpp:77] Creating layer loss2/conv
I0403 13:53:55.169586   482 net.cpp:91] Creating Layer loss2/conv
I0403 13:53:55.169605   482 net.cpp:425] loss2/conv <- loss2/ave_pool
I0403 13:53:55.169628   482 net.cpp:399] loss2/conv -> loss2/conv
I0403 13:53:55.171612   482 net.cpp:141] Setting up loss2/conv
I0403 13:53:55.171646   482 net.cpp:148] Top shape: 24 128 4 4 (49152)
I0403 13:53:55.171665   482 net.cpp:156] Memory required for data: 1207926048
I0403 13:53:55.171686   482 layer_factory.hpp:77] Creating layer loss2/relu_conv
I0403 13:53:55.171707   482 net.cpp:91] Creating Layer loss2/relu_conv
I0403 13:53:55.171726   482 net.cpp:425] loss2/relu_conv <- loss2/conv
I0403 13:53:55.171746   482 net.cpp:386] loss2/relu_conv -> loss2/conv (in-place)
I0403 13:53:55.172045   482 net.cpp:141] Setting up loss2/relu_conv
I0403 13:53:55.172077   482 net.cpp:148] Top shape: 24 128 4 4 (49152)
I0403 13:53:55.172096   482 net.cpp:156] Memory required for data: 1208122656
I0403 13:53:55.172113   482 layer_factory.hpp:77] Creating layer loss2/fc
I0403 13:53:55.172135   482 net.cpp:91] Creating Layer loss2/fc
I0403 13:53:55.172152   482 net.cpp:425] loss2/fc <- loss2/conv
I0403 13:53:55.172175   482 net.cpp:399] loss2/fc -> loss2/fc
I0403 13:53:55.190903   482 net.cpp:141] Setting up loss2/fc
I0403 13:53:55.190968   482 net.cpp:148] Top shape: 24 1024 (24576)
I0403 13:53:55.190986   482 net.cpp:156] Memory required for data: 1208220960
I0403 13:53:55.191009   482 layer_factory.hpp:77] Creating layer loss2/relu_fc
I0403 13:53:55.191033   482 net.cpp:91] Creating Layer loss2/relu_fc
I0403 13:53:55.191053   482 net.cpp:425] loss2/relu_fc <- loss2/fc
I0403 13:53:55.191074   482 net.cpp:386] loss2/relu_fc -> loss2/fc (in-place)
I0403 13:53:55.191473   482 net.cpp:141] Setting up loss2/relu_fc
I0403 13:53:55.191500   482 net.cpp:148] Top shape: 24 1024 (24576)
I0403 13:53:55.191519   482 net.cpp:156] Memory required for data: 1208319264
I0403 13:53:55.191545   482 layer_factory.hpp:77] Creating layer loss2/drop_fc
I0403 13:53:55.191566   482 net.cpp:91] Creating Layer loss2/drop_fc
I0403 13:53:55.191584   482 net.cpp:425] loss2/drop_fc <- loss2/fc
I0403 13:53:55.191604   482 net.cpp:386] loss2/drop_fc -> loss2/fc (in-place)
I0403 13:53:55.191659   482 net.cpp:141] Setting up loss2/drop_fc
I0403 13:53:55.191686   482 net.cpp:148] Top shape: 24 1024 (24576)
I0403 13:53:55.191704   482 net.cpp:156] Memory required for data: 1208417568
I0403 13:53:55.191720   482 layer_factory.hpp:77] Creating layer loss2/classifier_plantvillage
I0403 13:53:55.191740   482 net.cpp:91] Creating Layer loss2/classifier_plantvillage
I0403 13:53:55.191757   482 net.cpp:425] loss2/classifier_plantvillage <- loss2/fc
I0403 13:53:55.191782   482 net.cpp:399] loss2/classifier_plantvillage -> loss2/classifier_plantvillage
I0403 13:53:55.192241   482 net.cpp:141] Setting up loss2/classifier_plantvillage
I0403 13:53:55.192268   482 net.cpp:148] Top shape: 24 38 (912)
I0403 13:53:55.192312   482 net.cpp:156] Memory required for data: 1208421216
I0403 13:53:55.192333   482 layer_factory.hpp:77] Creating layer loss2/classifier_plantvillage_loss2/classifier_plantvillage_0_split
I0403 13:53:55.192353   482 net.cpp:91] Creating Layer loss2/classifier_plantvillage_loss2/classifier_plantvillage_0_split
I0403 13:53:55.192371   482 net.cpp:425] loss2/classifier_plantvillage_loss2/classifier_plantvillage_0_split <- loss2/classifier_plantvillage
I0403 13:53:55.192392   482 net.cpp:399] loss2/classifier_plantvillage_loss2/classifier_plantvillage_0_split -> loss2/classifier_plantvillage_loss2/classifier_plantvillage_0_split_0
I0403 13:53:55.192417   482 net.cpp:399] loss2/classifier_plantvillage_loss2/classifier_plantvillage_0_split -> loss2/classifier_plantvillage_loss2/classifier_plantvillage_0_split_1
I0403 13:53:55.192443   482 net.cpp:399] loss2/classifier_plantvillage_loss2/classifier_plantvillage_0_split -> loss2/classifier_plantvillage_loss2/classifier_plantvillage_0_split_2
I0403 13:53:55.192530   482 net.cpp:141] Setting up loss2/classifier_plantvillage_loss2/classifier_plantvillage_0_split
I0403 13:53:55.192564   482 net.cpp:148] Top shape: 24 38 (912)
I0403 13:53:55.192581   482 net.cpp:148] Top shape: 24 38 (912)
I0403 13:53:55.192600   482 net.cpp:148] Top shape: 24 38 (912)
I0403 13:53:55.192615   482 net.cpp:156] Memory required for data: 1208432160
I0403 13:53:55.192631   482 layer_factory.hpp:77] Creating layer inception_4e/1x1
I0403 13:53:55.192658   482 net.cpp:91] Creating Layer inception_4e/1x1
I0403 13:53:55.192678   482 net.cpp:425] inception_4e/1x1 <- inception_4d/output_inception_4d/output_0_split_1
I0403 13:53:55.192701   482 net.cpp:399] inception_4e/1x1 -> inception_4e/1x1
I0403 13:53:55.194751   482 net.cpp:141] Setting up inception_4e/1x1
I0403 13:53:55.194783   482 net.cpp:148] Top shape: 24 256 14 14 (1204224)
I0403 13:53:55.194803   482 net.cpp:156] Memory required for data: 1213249056
I0403 13:53:55.194824   482 layer_factory.hpp:77] Creating layer inception_4e/relu_1x1
I0403 13:53:55.194846   482 net.cpp:91] Creating Layer inception_4e/relu_1x1
I0403 13:53:55.194864   482 net.cpp:425] inception_4e/relu_1x1 <- inception_4e/1x1
I0403 13:53:55.194885   482 net.cpp:386] inception_4e/relu_1x1 -> inception_4e/1x1 (in-place)
I0403 13:53:55.195212   482 net.cpp:141] Setting up inception_4e/relu_1x1
I0403 13:53:55.195245   482 net.cpp:148] Top shape: 24 256 14 14 (1204224)
I0403 13:53:55.195262   482 net.cpp:156] Memory required for data: 1218065952
I0403 13:53:55.195279   482 layer_factory.hpp:77] Creating layer inception_4e/3x3_reduce
I0403 13:53:55.195304   482 net.cpp:91] Creating Layer inception_4e/3x3_reduce
I0403 13:53:55.195323   482 net.cpp:425] inception_4e/3x3_reduce <- inception_4d/output_inception_4d/output_0_split_2
I0403 13:53:55.195345   482 net.cpp:399] inception_4e/3x3_reduce -> inception_4e/3x3_reduce
I0403 13:53:55.197713   482 net.cpp:141] Setting up inception_4e/3x3_reduce
I0403 13:53:55.197746   482 net.cpp:148] Top shape: 24 160 14 14 (752640)
I0403 13:53:55.197765   482 net.cpp:156] Memory required for data: 1221076512
I0403 13:53:55.197787   482 layer_factory.hpp:77] Creating layer inception_4e/relu_3x3_reduce
I0403 13:53:55.197809   482 net.cpp:91] Creating Layer inception_4e/relu_3x3_reduce
I0403 13:53:55.197827   482 net.cpp:425] inception_4e/relu_3x3_reduce <- inception_4e/3x3_reduce
I0403 13:53:55.197849   482 net.cpp:386] inception_4e/relu_3x3_reduce -> inception_4e/3x3_reduce (in-place)
I0403 13:53:55.198048   482 net.cpp:141] Setting up inception_4e/relu_3x3_reduce
I0403 13:53:55.198078   482 net.cpp:148] Top shape: 24 160 14 14 (752640)
I0403 13:53:55.198096   482 net.cpp:156] Memory required for data: 1224087072
I0403 13:53:55.198113   482 layer_factory.hpp:77] Creating layer inception_4e/3x3
I0403 13:53:55.198137   482 net.cpp:91] Creating Layer inception_4e/3x3
I0403 13:53:55.198168   482 net.cpp:425] inception_4e/3x3 <- inception_4e/3x3_reduce
I0403 13:53:55.198189   482 net.cpp:399] inception_4e/3x3 -> inception_4e/3x3
I0403 13:53:55.203615   482 net.cpp:141] Setting up inception_4e/3x3
I0403 13:53:55.203665   482 net.cpp:148] Top shape: 24 320 14 14 (1505280)
I0403 13:53:55.203685   482 net.cpp:156] Memory required for data: 1230108192
I0403 13:53:55.203706   482 layer_factory.hpp:77] Creating layer inception_4e/relu_3x3
I0403 13:53:55.203725   482 net.cpp:91] Creating Layer inception_4e/relu_3x3
I0403 13:53:55.203744   482 net.cpp:425] inception_4e/relu_3x3 <- inception_4e/3x3
I0403 13:53:55.203768   482 net.cpp:386] inception_4e/relu_3x3 -> inception_4e/3x3 (in-place)
I0403 13:53:55.204097   482 net.cpp:141] Setting up inception_4e/relu_3x3
I0403 13:53:55.204126   482 net.cpp:148] Top shape: 24 320 14 14 (1505280)
I0403 13:53:55.204144   482 net.cpp:156] Memory required for data: 1236129312
I0403 13:53:55.204174   482 layer_factory.hpp:77] Creating layer inception_4e/5x5_reduce
I0403 13:53:55.204201   482 net.cpp:91] Creating Layer inception_4e/5x5_reduce
I0403 13:53:55.204227   482 net.cpp:425] inception_4e/5x5_reduce <- inception_4d/output_inception_4d/output_0_split_3
I0403 13:53:55.204252   482 net.cpp:399] inception_4e/5x5_reduce -> inception_4e/5x5_reduce
I0403 13:53:55.205467   482 net.cpp:141] Setting up inception_4e/5x5_reduce
I0403 13:53:55.205497   482 net.cpp:148] Top shape: 24 32 14 14 (150528)
I0403 13:53:55.205528   482 net.cpp:156] Memory required for data: 1236731424
I0403 13:53:55.205554   482 layer_factory.hpp:77] Creating layer inception_4e/relu_5x5_reduce
I0403 13:53:55.205576   482 net.cpp:91] Creating Layer inception_4e/relu_5x5_reduce
I0403 13:53:55.205595   482 net.cpp:425] inception_4e/relu_5x5_reduce <- inception_4e/5x5_reduce
I0403 13:53:55.205615   482 net.cpp:386] inception_4e/relu_5x5_reduce -> inception_4e/5x5_reduce (in-place)
I0403 13:53:55.205958   482 net.cpp:141] Setting up inception_4e/relu_5x5_reduce
I0403 13:53:55.205986   482 net.cpp:148] Top shape: 24 32 14 14 (150528)
I0403 13:53:55.206002   482 net.cpp:156] Memory required for data: 1237333536
I0403 13:53:55.206018   482 layer_factory.hpp:77] Creating layer inception_4e/5x5
I0403 13:53:55.206060   482 net.cpp:91] Creating Layer inception_4e/5x5
I0403 13:53:55.206081   482 net.cpp:425] inception_4e/5x5 <- inception_4e/5x5_reduce
I0403 13:53:55.206102   482 net.cpp:399] inception_4e/5x5 -> inception_4e/5x5
I0403 13:53:55.208129   482 net.cpp:141] Setting up inception_4e/5x5
I0403 13:53:55.208173   482 net.cpp:148] Top shape: 24 128 14 14 (602112)
I0403 13:53:55.208191   482 net.cpp:156] Memory required for data: 1239741984
I0403 13:53:55.208217   482 layer_factory.hpp:77] Creating layer inception_4e/relu_5x5
I0403 13:53:55.208242   482 net.cpp:91] Creating Layer inception_4e/relu_5x5
I0403 13:53:55.208262   482 net.cpp:425] inception_4e/relu_5x5 <- inception_4e/5x5
I0403 13:53:55.208281   482 net.cpp:386] inception_4e/relu_5x5 -> inception_4e/5x5 (in-place)
I0403 13:53:55.208509   482 net.cpp:141] Setting up inception_4e/relu_5x5
I0403 13:53:55.208545   482 net.cpp:148] Top shape: 24 128 14 14 (602112)
I0403 13:53:55.208562   482 net.cpp:156] Memory required for data: 1242150432
I0403 13:53:55.208580   482 layer_factory.hpp:77] Creating layer inception_4e/pool
I0403 13:53:55.208600   482 net.cpp:91] Creating Layer inception_4e/pool
I0403 13:53:55.208617   482 net.cpp:425] inception_4e/pool <- inception_4d/output_inception_4d/output_0_split_4
I0403 13:53:55.208636   482 net.cpp:399] inception_4e/pool -> inception_4e/pool
I0403 13:53:55.208714   482 net.cpp:141] Setting up inception_4e/pool
I0403 13:53:55.208739   482 net.cpp:148] Top shape: 24 528 14 14 (2483712)
I0403 13:53:55.208755   482 net.cpp:156] Memory required for data: 1252085280
I0403 13:53:55.208770   482 layer_factory.hpp:77] Creating layer inception_4e/pool_proj
I0403 13:53:55.208794   482 net.cpp:91] Creating Layer inception_4e/pool_proj
I0403 13:53:55.208812   482 net.cpp:425] inception_4e/pool_proj <- inception_4e/pool
I0403 13:53:55.208844   482 net.cpp:399] inception_4e/pool_proj -> inception_4e/pool_proj
I0403 13:53:55.210503   482 net.cpp:141] Setting up inception_4e/pool_proj
I0403 13:53:55.210554   482 net.cpp:148] Top shape: 24 128 14 14 (602112)
I0403 13:53:55.210573   482 net.cpp:156] Memory required for data: 1254493728
I0403 13:53:55.210594   482 layer_factory.hpp:77] Creating layer inception_4e/relu_pool_proj
I0403 13:53:55.210614   482 net.cpp:91] Creating Layer inception_4e/relu_pool_proj
I0403 13:53:55.210633   482 net.cpp:425] inception_4e/relu_pool_proj <- inception_4e/pool_proj
I0403 13:53:55.210655   482 net.cpp:386] inception_4e/relu_pool_proj -> inception_4e/pool_proj (in-place)
I0403 13:53:55.210970   482 net.cpp:141] Setting up inception_4e/relu_pool_proj
I0403 13:53:55.210999   482 net.cpp:148] Top shape: 24 128 14 14 (602112)
I0403 13:53:55.211014   482 net.cpp:156] Memory required for data: 1256902176
I0403 13:53:55.211031   482 layer_factory.hpp:77] Creating layer inception_4e/output
I0403 13:53:55.211051   482 net.cpp:91] Creating Layer inception_4e/output
I0403 13:53:55.211068   482 net.cpp:425] inception_4e/output <- inception_4e/1x1
I0403 13:53:55.211086   482 net.cpp:425] inception_4e/output <- inception_4e/3x3
I0403 13:53:55.211104   482 net.cpp:425] inception_4e/output <- inception_4e/5x5
I0403 13:53:55.211122   482 net.cpp:425] inception_4e/output <- inception_4e/pool_proj
I0403 13:53:55.211143   482 net.cpp:399] inception_4e/output -> inception_4e/output
I0403 13:53:55.211215   482 net.cpp:141] Setting up inception_4e/output
I0403 13:53:55.211244   482 net.cpp:148] Top shape: 24 832 14 14 (3913728)
I0403 13:53:55.211261   482 net.cpp:156] Memory required for data: 1272557088
I0403 13:53:55.211277   482 layer_factory.hpp:77] Creating layer pool4/3x3_s2
I0403 13:53:55.211297   482 net.cpp:91] Creating Layer pool4/3x3_s2
I0403 13:53:55.211315   482 net.cpp:425] pool4/3x3_s2 <- inception_4e/output
I0403 13:53:55.211338   482 net.cpp:399] pool4/3x3_s2 -> pool4/3x3_s2
I0403 13:53:55.211415   482 net.cpp:141] Setting up pool4/3x3_s2
I0403 13:53:55.211441   482 net.cpp:148] Top shape: 24 832 7 7 (978432)
I0403 13:53:55.211469   482 net.cpp:156] Memory required for data: 1276470816
I0403 13:53:55.211485   482 layer_factory.hpp:77] Creating layer pool4/3x3_s2_pool4/3x3_s2_0_split
I0403 13:53:55.211506   482 net.cpp:91] Creating Layer pool4/3x3_s2_pool4/3x3_s2_0_split
I0403 13:53:55.211524   482 net.cpp:425] pool4/3x3_s2_pool4/3x3_s2_0_split <- pool4/3x3_s2
I0403 13:53:55.211544   482 net.cpp:399] pool4/3x3_s2_pool4/3x3_s2_0_split -> pool4/3x3_s2_pool4/3x3_s2_0_split_0
I0403 13:53:55.211565   482 net.cpp:399] pool4/3x3_s2_pool4/3x3_s2_0_split -> pool4/3x3_s2_pool4/3x3_s2_0_split_1
I0403 13:53:55.211591   482 net.cpp:399] pool4/3x3_s2_pool4/3x3_s2_0_split -> pool4/3x3_s2_pool4/3x3_s2_0_split_2
I0403 13:53:55.211614   482 net.cpp:399] pool4/3x3_s2_pool4/3x3_s2_0_split -> pool4/3x3_s2_pool4/3x3_s2_0_split_3
I0403 13:53:55.211711   482 net.cpp:141] Setting up pool4/3x3_s2_pool4/3x3_s2_0_split
I0403 13:53:55.211736   482 net.cpp:148] Top shape: 24 832 7 7 (978432)
I0403 13:53:55.211755   482 net.cpp:148] Top shape: 24 832 7 7 (978432)
I0403 13:53:55.211771   482 net.cpp:148] Top shape: 24 832 7 7 (978432)
I0403 13:53:55.211787   482 net.cpp:148] Top shape: 24 832 7 7 (978432)
I0403 13:53:55.211803   482 net.cpp:156] Memory required for data: 1292125728
I0403 13:53:55.211818   482 layer_factory.hpp:77] Creating layer inception_5a/1x1
I0403 13:53:55.211843   482 net.cpp:91] Creating Layer inception_5a/1x1
I0403 13:53:55.211861   482 net.cpp:425] inception_5a/1x1 <- pool4/3x3_s2_pool4/3x3_s2_0_split_0
I0403 13:53:55.211884   482 net.cpp:399] inception_5a/1x1 -> inception_5a/1x1
I0403 13:53:55.214867   482 net.cpp:141] Setting up inception_5a/1x1
I0403 13:53:55.214900   482 net.cpp:148] Top shape: 24 256 7 7 (301056)
I0403 13:53:55.214918   482 net.cpp:156] Memory required for data: 1293329952
I0403 13:53:55.214938   482 layer_factory.hpp:77] Creating layer inception_5a/relu_1x1
I0403 13:53:55.214962   482 net.cpp:91] Creating Layer inception_5a/relu_1x1
I0403 13:53:55.214982   482 net.cpp:425] inception_5a/relu_1x1 <- inception_5a/1x1
I0403 13:53:55.215001   482 net.cpp:386] inception_5a/relu_1x1 -> inception_5a/1x1 (in-place)
I0403 13:53:55.215338   482 net.cpp:141] Setting up inception_5a/relu_1x1
I0403 13:53:55.215366   482 net.cpp:148] Top shape: 24 256 7 7 (301056)
I0403 13:53:55.215384   482 net.cpp:156] Memory required for data: 1294534176
I0403 13:53:55.215399   482 layer_factory.hpp:77] Creating layer inception_5a/3x3_reduce
I0403 13:53:55.215425   482 net.cpp:91] Creating Layer inception_5a/3x3_reduce
I0403 13:53:55.215443   482 net.cpp:425] inception_5a/3x3_reduce <- pool4/3x3_s2_pool4/3x3_s2_0_split_1
I0403 13:53:55.215467   482 net.cpp:399] inception_5a/3x3_reduce -> inception_5a/3x3_reduce
I0403 13:53:55.218037   482 net.cpp:141] Setting up inception_5a/3x3_reduce
I0403 13:53:55.218070   482 net.cpp:148] Top shape: 24 160 7 7 (188160)
I0403 13:53:55.218088   482 net.cpp:156] Memory required for data: 1295286816
I0403 13:53:55.218109   482 layer_factory.hpp:77] Creating layer inception_5a/relu_3x3_reduce
I0403 13:53:55.218128   482 net.cpp:91] Creating Layer inception_5a/relu_3x3_reduce
I0403 13:53:55.218145   482 net.cpp:425] inception_5a/relu_3x3_reduce <- inception_5a/3x3_reduce
I0403 13:53:55.218166   482 net.cpp:386] inception_5a/relu_3x3_reduce -> inception_5a/3x3_reduce (in-place)
I0403 13:53:55.218374   482 net.cpp:141] Setting up inception_5a/relu_3x3_reduce
I0403 13:53:55.218400   482 net.cpp:148] Top shape: 24 160 7 7 (188160)
I0403 13:53:55.218418   482 net.cpp:156] Memory required for data: 1296039456
I0403 13:53:55.218436   482 layer_factory.hpp:77] Creating layer inception_5a/3x3
I0403 13:53:55.218461   482 net.cpp:91] Creating Layer inception_5a/3x3
I0403 13:53:55.218480   482 net.cpp:425] inception_5a/3x3 <- inception_5a/3x3_reduce
I0403 13:53:55.218504   482 net.cpp:399] inception_5a/3x3 -> inception_5a/3x3
I0403 13:53:55.223799   482 net.cpp:141] Setting up inception_5a/3x3
I0403 13:53:55.223831   482 net.cpp:148] Top shape: 24 320 7 7 (376320)
I0403 13:53:55.223850   482 net.cpp:156] Memory required for data: 1297544736
I0403 13:53:55.223870   482 layer_factory.hpp:77] Creating layer inception_5a/relu_3x3
I0403 13:53:55.223892   482 net.cpp:91] Creating Layer inception_5a/relu_3x3
I0403 13:53:55.223912   482 net.cpp:425] inception_5a/relu_3x3 <- inception_5a/3x3
I0403 13:53:55.223930   482 net.cpp:386] inception_5a/relu_3x3 -> inception_5a/3x3 (in-place)
I0403 13:53:55.224246   482 net.cpp:141] Setting up inception_5a/relu_3x3
I0403 13:53:55.224274   482 net.cpp:148] Top shape: 24 320 7 7 (376320)
I0403 13:53:55.224292   482 net.cpp:156] Memory required for data: 1299050016
I0403 13:53:55.224308   482 layer_factory.hpp:77] Creating layer inception_5a/5x5_reduce
I0403 13:53:55.224333   482 net.cpp:91] Creating Layer inception_5a/5x5_reduce
I0403 13:53:55.224351   482 net.cpp:425] inception_5a/5x5_reduce <- pool4/3x3_s2_pool4/3x3_s2_0_split_2
I0403 13:53:55.224376   482 net.cpp:399] inception_5a/5x5_reduce -> inception_5a/5x5_reduce
I0403 13:53:55.225617   482 net.cpp:141] Setting up inception_5a/5x5_reduce
I0403 13:53:55.225651   482 net.cpp:148] Top shape: 24 32 7 7 (37632)
I0403 13:53:55.225672   482 net.cpp:156] Memory required for data: 1299200544
I0403 13:53:55.225692   482 layer_factory.hpp:77] Creating layer inception_5a/relu_5x5_reduce
I0403 13:53:55.225713   482 net.cpp:91] Creating Layer inception_5a/relu_5x5_reduce
I0403 13:53:55.225733   482 net.cpp:425] inception_5a/relu_5x5_reduce <- inception_5a/5x5_reduce
I0403 13:53:55.225752   482 net.cpp:386] inception_5a/relu_5x5_reduce -> inception_5a/5x5_reduce (in-place)
I0403 13:53:55.226068   482 net.cpp:141] Setting up inception_5a/relu_5x5_reduce
I0403 13:53:55.226097   482 net.cpp:148] Top shape: 24 32 7 7 (37632)
I0403 13:53:55.226114   482 net.cpp:156] Memory required for data: 1299351072
I0403 13:53:55.226131   482 layer_factory.hpp:77] Creating layer inception_5a/5x5
I0403 13:53:55.226152   482 net.cpp:91] Creating Layer inception_5a/5x5
I0403 13:53:55.226171   482 net.cpp:425] inception_5a/5x5 <- inception_5a/5x5_reduce
I0403 13:53:55.226193   482 net.cpp:399] inception_5a/5x5 -> inception_5a/5x5
I0403 13:53:55.228005   482 net.cpp:141] Setting up inception_5a/5x5
I0403 13:53:55.228049   482 net.cpp:148] Top shape: 24 128 7 7 (150528)
I0403 13:53:55.228066   482 net.cpp:156] Memory required for data: 1299953184
I0403 13:53:55.228088   482 layer_factory.hpp:77] Creating layer inception_5a/relu_5x5
I0403 13:53:55.228111   482 net.cpp:91] Creating Layer inception_5a/relu_5x5
I0403 13:53:55.228128   482 net.cpp:425] inception_5a/relu_5x5 <- inception_5a/5x5
I0403 13:53:55.228148   482 net.cpp:386] inception_5a/relu_5x5 -> inception_5a/5x5 (in-place)
I0403 13:53:55.228356   482 net.cpp:141] Setting up inception_5a/relu_5x5
I0403 13:53:55.228387   482 net.cpp:148] Top shape: 24 128 7 7 (150528)
I0403 13:53:55.228405   482 net.cpp:156] Memory required for data: 1300555296
I0403 13:53:55.228422   482 layer_factory.hpp:77] Creating layer inception_5a/pool
I0403 13:53:55.228443   482 net.cpp:91] Creating Layer inception_5a/pool
I0403 13:53:55.228461   482 net.cpp:425] inception_5a/pool <- pool4/3x3_s2_pool4/3x3_s2_0_split_3
I0403 13:53:55.228482   482 net.cpp:399] inception_5a/pool -> inception_5a/pool
I0403 13:53:55.228560   482 net.cpp:141] Setting up inception_5a/pool
I0403 13:53:55.228587   482 net.cpp:148] Top shape: 24 832 7 7 (978432)
I0403 13:53:55.228605   482 net.cpp:156] Memory required for data: 1304469024
I0403 13:53:55.228621   482 layer_factory.hpp:77] Creating layer inception_5a/pool_proj
I0403 13:53:55.228646   482 net.cpp:91] Creating Layer inception_5a/pool_proj
I0403 13:53:55.228664   482 net.cpp:425] inception_5a/pool_proj <- inception_5a/pool
I0403 13:53:55.228688   482 net.cpp:399] inception_5a/pool_proj -> inception_5a/pool_proj
I0403 13:53:55.231106   482 net.cpp:141] Setting up inception_5a/pool_proj
I0403 13:53:55.231139   482 net.cpp:148] Top shape: 24 128 7 7 (150528)
I0403 13:53:55.231158   482 net.cpp:156] Memory required for data: 1305071136
I0403 13:53:55.231178   482 layer_factory.hpp:77] Creating layer inception_5a/relu_pool_proj
I0403 13:53:55.231200   482 net.cpp:91] Creating Layer inception_5a/relu_pool_proj
I0403 13:53:55.231226   482 net.cpp:425] inception_5a/relu_pool_proj <- inception_5a/pool_proj
I0403 13:53:55.231246   482 net.cpp:386] inception_5a/relu_pool_proj -> inception_5a/pool_proj (in-place)
I0403 13:53:55.231559   482 net.cpp:141] Setting up inception_5a/relu_pool_proj
I0403 13:53:55.231586   482 net.cpp:148] Top shape: 24 128 7 7 (150528)
I0403 13:53:55.231602   482 net.cpp:156] Memory required for data: 1305673248
I0403 13:53:55.231619   482 layer_factory.hpp:77] Creating layer inception_5a/output
I0403 13:53:55.231638   482 net.cpp:91] Creating Layer inception_5a/output
I0403 13:53:55.231655   482 net.cpp:425] inception_5a/output <- inception_5a/1x1
I0403 13:53:55.231674   482 net.cpp:425] inception_5a/output <- inception_5a/3x3
I0403 13:53:55.231691   482 net.cpp:425] inception_5a/output <- inception_5a/5x5
I0403 13:53:55.231709   482 net.cpp:425] inception_5a/output <- inception_5a/pool_proj
I0403 13:53:55.231730   482 net.cpp:399] inception_5a/output -> inception_5a/output
I0403 13:53:55.231783   482 net.cpp:141] Setting up inception_5a/output
I0403 13:53:55.231812   482 net.cpp:148] Top shape: 24 832 7 7 (978432)
I0403 13:53:55.231828   482 net.cpp:156] Memory required for data: 1309586976
I0403 13:53:55.231845   482 layer_factory.hpp:77] Creating layer inception_5a/output_inception_5a/output_0_split
I0403 13:53:55.231864   482 net.cpp:91] Creating Layer inception_5a/output_inception_5a/output_0_split
I0403 13:53:55.231880   482 net.cpp:425] inception_5a/output_inception_5a/output_0_split <- inception_5a/output
I0403 13:53:55.231902   482 net.cpp:399] inception_5a/output_inception_5a/output_0_split -> inception_5a/output_inception_5a/output_0_split_0
I0403 13:53:55.231926   482 net.cpp:399] inception_5a/output_inception_5a/output_0_split -> inception_5a/output_inception_5a/output_0_split_1
I0403 13:53:55.231948   482 net.cpp:399] inception_5a/output_inception_5a/output_0_split -> inception_5a/output_inception_5a/output_0_split_2
I0403 13:53:55.231971   482 net.cpp:399] inception_5a/output_inception_5a/output_0_split -> inception_5a/output_inception_5a/output_0_split_3
I0403 13:53:55.232089   482 net.cpp:141] Setting up inception_5a/output_inception_5a/output_0_split
I0403 13:53:55.232117   482 net.cpp:148] Top shape: 24 832 7 7 (978432)
I0403 13:53:55.232136   482 net.cpp:148] Top shape: 24 832 7 7 (978432)
I0403 13:53:55.232153   482 net.cpp:148] Top shape: 24 832 7 7 (978432)
I0403 13:53:55.232170   482 net.cpp:148] Top shape: 24 832 7 7 (978432)
I0403 13:53:55.232187   482 net.cpp:156] Memory required for data: 1325241888
I0403 13:53:55.232203   482 layer_factory.hpp:77] Creating layer inception_5b/1x1
I0403 13:53:55.232230   482 net.cpp:91] Creating Layer inception_5b/1x1
I0403 13:53:55.232249   482 net.cpp:425] inception_5b/1x1 <- inception_5a/output_inception_5a/output_0_split_0
I0403 13:53:55.232273   482 net.cpp:399] inception_5b/1x1 -> inception_5b/1x1
I0403 13:53:55.236224   482 net.cpp:141] Setting up inception_5b/1x1
I0403 13:53:55.236258   482 net.cpp:148] Top shape: 24 384 7 7 (451584)
I0403 13:53:55.236276   482 net.cpp:156] Memory required for data: 1327048224
I0403 13:53:55.236297   482 layer_factory.hpp:77] Creating layer inception_5b/relu_1x1
I0403 13:53:55.236317   482 net.cpp:91] Creating Layer inception_5b/relu_1x1
I0403 13:53:55.236335   482 net.cpp:425] inception_5b/relu_1x1 <- inception_5b/1x1
I0403 13:53:55.236358   482 net.cpp:386] inception_5b/relu_1x1 -> inception_5b/1x1 (in-place)
I0403 13:53:55.236686   482 net.cpp:141] Setting up inception_5b/relu_1x1
I0403 13:53:55.236713   482 net.cpp:148] Top shape: 24 384 7 7 (451584)
I0403 13:53:55.236731   482 net.cpp:156] Memory required for data: 1328854560
I0403 13:53:55.236747   482 layer_factory.hpp:77] Creating layer inception_5b/3x3_reduce
I0403 13:53:55.236779   482 net.cpp:91] Creating Layer inception_5b/3x3_reduce
I0403 13:53:55.236799   482 net.cpp:425] inception_5b/3x3_reduce <- inception_5a/output_inception_5a/output_0_split_1
I0403 13:53:55.236824   482 net.cpp:399] inception_5b/3x3_reduce -> inception_5b/3x3_reduce
I0403 13:53:55.239722   482 net.cpp:141] Setting up inception_5b/3x3_reduce
I0403 13:53:55.239754   482 net.cpp:148] Top shape: 24 192 7 7 (225792)
I0403 13:53:55.239771   482 net.cpp:156] Memory required for data: 1329757728
I0403 13:53:55.239792   482 layer_factory.hpp:77] Creating layer inception_5b/relu_3x3_reduce
I0403 13:53:55.239814   482 net.cpp:91] Creating Layer inception_5b/relu_3x3_reduce
I0403 13:53:55.239832   482 net.cpp:425] inception_5b/relu_3x3_reduce <- inception_5b/3x3_reduce
I0403 13:53:55.239852   482 net.cpp:386] inception_5b/relu_3x3_reduce -> inception_5b/3x3_reduce (in-place)
I0403 13:53:55.240054   482 net.cpp:141] Setting up inception_5b/relu_3x3_reduce
I0403 13:53:55.240082   482 net.cpp:148] Top shape: 24 192 7 7 (225792)
I0403 13:53:55.240097   482 net.cpp:156] Memory required for data: 1330660896
I0403 13:53:55.240114   482 layer_factory.hpp:77] Creating layer inception_5b/3x3
I0403 13:53:55.240137   482 net.cpp:91] Creating Layer inception_5b/3x3
I0403 13:53:55.240157   482 net.cpp:425] inception_5b/3x3 <- inception_5b/3x3_reduce
I0403 13:53:55.240181   482 net.cpp:399] inception_5b/3x3 -> inception_5b/3x3
I0403 13:53:55.247148   482 net.cpp:141] Setting up inception_5b/3x3
I0403 13:53:55.247179   482 net.cpp:148] Top shape: 24 384 7 7 (451584)
I0403 13:53:55.247196   482 net.cpp:156] Memory required for data: 1332467232
I0403 13:53:55.247222   482 layer_factory.hpp:77] Creating layer inception_5b/relu_3x3
I0403 13:53:55.247246   482 net.cpp:91] Creating Layer inception_5b/relu_3x3
I0403 13:53:55.247264   482 net.cpp:425] inception_5b/relu_3x3 <- inception_5b/3x3
I0403 13:53:55.247282   482 net.cpp:386] inception_5b/relu_3x3 -> inception_5b/3x3 (in-place)
I0403 13:53:55.247587   482 net.cpp:141] Setting up inception_5b/relu_3x3
I0403 13:53:55.247613   482 net.cpp:148] Top shape: 24 384 7 7 (451584)
I0403 13:53:55.247629   482 net.cpp:156] Memory required for data: 1334273568
I0403 13:53:55.247645   482 layer_factory.hpp:77] Creating layer inception_5b/5x5_reduce
I0403 13:53:55.247689   482 net.cpp:91] Creating Layer inception_5b/5x5_reduce
I0403 13:53:55.247709   482 net.cpp:425] inception_5b/5x5_reduce <- inception_5a/output_inception_5a/output_0_split_2
I0403 13:53:55.247733   482 net.cpp:399] inception_5b/5x5_reduce -> inception_5b/5x5_reduce
I0403 13:53:55.249078   482 net.cpp:141] Setting up inception_5b/5x5_reduce
I0403 13:53:55.249107   482 net.cpp:148] Top shape: 24 48 7 7 (56448)
I0403 13:53:55.249125   482 net.cpp:156] Memory required for data: 1334499360
I0403 13:53:55.249145   482 layer_factory.hpp:77] Creating layer inception_5b/relu_5x5_reduce
I0403 13:53:55.249163   482 net.cpp:91] Creating Layer inception_5b/relu_5x5_reduce
I0403 13:53:55.249181   482 net.cpp:425] inception_5b/relu_5x5_reduce <- inception_5b/5x5_reduce
I0403 13:53:55.249202   482 net.cpp:386] inception_5b/relu_5x5_reduce -> inception_5b/5x5_reduce (in-place)
I0403 13:53:55.249590   482 net.cpp:141] Setting up inception_5b/relu_5x5_reduce
I0403 13:53:55.249617   482 net.cpp:148] Top shape: 24 48 7 7 (56448)
I0403 13:53:55.249634   482 net.cpp:156] Memory required for data: 1334725152
I0403 13:53:55.249650   482 layer_factory.hpp:77] Creating layer inception_5b/5x5
I0403 13:53:55.249682   482 net.cpp:91] Creating Layer inception_5b/5x5
I0403 13:53:55.249701   482 net.cpp:425] inception_5b/5x5 <- inception_5b/5x5_reduce
I0403 13:53:55.249722   482 net.cpp:399] inception_5b/5x5 -> inception_5b/5x5
I0403 13:53:55.251906   482 net.cpp:141] Setting up inception_5b/5x5
I0403 13:53:55.251935   482 net.cpp:148] Top shape: 24 128 7 7 (150528)
I0403 13:53:55.251952   482 net.cpp:156] Memory required for data: 1335327264
I0403 13:53:55.251971   482 layer_factory.hpp:77] Creating layer inception_5b/relu_5x5
I0403 13:53:55.251992   482 net.cpp:91] Creating Layer inception_5b/relu_5x5
I0403 13:53:55.252010   482 net.cpp:425] inception_5b/relu_5x5 <- inception_5b/5x5
I0403 13:53:55.252029   482 net.cpp:386] inception_5b/relu_5x5 -> inception_5b/5x5 (in-place)
I0403 13:53:55.252236   482 net.cpp:141] Setting up inception_5b/relu_5x5
I0403 13:53:55.252264   482 net.cpp:148] Top shape: 24 128 7 7 (150528)
I0403 13:53:55.252281   482 net.cpp:156] Memory required for data: 1335929376
I0403 13:53:55.252297   482 layer_factory.hpp:77] Creating layer inception_5b/pool
I0403 13:53:55.252317   482 net.cpp:91] Creating Layer inception_5b/pool
I0403 13:53:55.252334   482 net.cpp:425] inception_5b/pool <- inception_5a/output_inception_5a/output_0_split_3
I0403 13:53:55.252356   482 net.cpp:399] inception_5b/pool -> inception_5b/pool
I0403 13:53:55.252431   482 net.cpp:141] Setting up inception_5b/pool
I0403 13:53:55.252457   482 net.cpp:148] Top shape: 24 832 7 7 (978432)
I0403 13:53:55.252472   482 net.cpp:156] Memory required for data: 1339843104
I0403 13:53:55.252488   482 layer_factory.hpp:77] Creating layer inception_5b/pool_proj
I0403 13:53:55.252511   482 net.cpp:91] Creating Layer inception_5b/pool_proj
I0403 13:53:55.252529   482 net.cpp:425] inception_5b/pool_proj <- inception_5b/pool
I0403 13:53:55.252552   482 net.cpp:399] inception_5b/pool_proj -> inception_5b/pool_proj
I0403 13:53:55.255007   482 net.cpp:141] Setting up inception_5b/pool_proj
I0403 13:53:55.255038   482 net.cpp:148] Top shape: 24 128 7 7 (150528)
I0403 13:53:55.255055   482 net.cpp:156] Memory required for data: 1340445216
I0403 13:53:55.255075   482 layer_factory.hpp:77] Creating layer inception_5b/relu_pool_proj
I0403 13:53:55.255096   482 net.cpp:91] Creating Layer inception_5b/relu_pool_proj
I0403 13:53:55.255115   482 net.cpp:425] inception_5b/relu_pool_proj <- inception_5b/pool_proj
I0403 13:53:55.255133   482 net.cpp:386] inception_5b/relu_pool_proj -> inception_5b/pool_proj (in-place)
I0403 13:53:55.255446   482 net.cpp:141] Setting up inception_5b/relu_pool_proj
I0403 13:53:55.255473   482 net.cpp:148] Top shape: 24 128 7 7 (150528)
I0403 13:53:55.255489   482 net.cpp:156] Memory required for data: 1341047328
I0403 13:53:55.255506   482 layer_factory.hpp:77] Creating layer inception_5b/output
I0403 13:53:55.255524   482 net.cpp:91] Creating Layer inception_5b/output
I0403 13:53:55.255555   482 net.cpp:425] inception_5b/output <- inception_5b/1x1
I0403 13:53:55.255574   482 net.cpp:425] inception_5b/output <- inception_5b/3x3
I0403 13:53:55.255592   482 net.cpp:425] inception_5b/output <- inception_5b/5x5
I0403 13:53:55.255609   482 net.cpp:425] inception_5b/output <- inception_5b/pool_proj
I0403 13:53:55.255630   482 net.cpp:399] inception_5b/output -> inception_5b/output
I0403 13:53:55.255687   482 net.cpp:141] Setting up inception_5b/output
I0403 13:53:55.255712   482 net.cpp:148] Top shape: 24 1024 7 7 (1204224)
I0403 13:53:55.255728   482 net.cpp:156] Memory required for data: 1345864224
I0403 13:53:55.255743   482 layer_factory.hpp:77] Creating layer pool5/7x7_s1
I0403 13:53:55.255762   482 net.cpp:91] Creating Layer pool5/7x7_s1
I0403 13:53:55.255779   482 net.cpp:425] pool5/7x7_s1 <- inception_5b/output
I0403 13:53:55.255800   482 net.cpp:399] pool5/7x7_s1 -> pool5/7x7_s1
I0403 13:53:55.256026   482 net.cpp:141] Setting up pool5/7x7_s1
I0403 13:53:55.256052   482 net.cpp:148] Top shape: 24 1024 1 1 (24576)
I0403 13:53:55.256080   482 net.cpp:156] Memory required for data: 1345962528
I0403 13:53:55.256098   482 layer_factory.hpp:77] Creating layer pool5/drop_7x7_s1
I0403 13:53:55.256119   482 net.cpp:91] Creating Layer pool5/drop_7x7_s1
I0403 13:53:55.256139   482 net.cpp:425] pool5/drop_7x7_s1 <- pool5/7x7_s1
I0403 13:53:55.256158   482 net.cpp:386] pool5/drop_7x7_s1 -> pool5/7x7_s1 (in-place)
I0403 13:53:55.256217   482 net.cpp:141] Setting up pool5/drop_7x7_s1
I0403 13:53:55.256242   482 net.cpp:148] Top shape: 24 1024 1 1 (24576)
I0403 13:53:55.256258   482 net.cpp:156] Memory required for data: 1346060832
I0403 13:53:55.256275   482 layer_factory.hpp:77] Creating layer loss3/classifier_plantvillage
I0403 13:53:55.256295   482 net.cpp:91] Creating Layer loss3/classifier_plantvillage
I0403 13:53:55.256314   482 net.cpp:425] loss3/classifier_plantvillage <- pool5/7x7_s1
I0403 13:53:55.256335   482 net.cpp:399] loss3/classifier_plantvillage -> loss3/classifier_plantvillage
I0403 13:53:55.256789   482 net.cpp:141] Setting up loss3/classifier_plantvillage
I0403 13:53:55.256814   482 net.cpp:148] Top shape: 24 38 (912)
I0403 13:53:55.256830   482 net.cpp:156] Memory required for data: 1346064480
I0403 13:53:55.256850   482 layer_factory.hpp:77] Creating layer loss3/classifier_plantvillage_loss3/classifier_plantvillage_0_split
I0403 13:53:55.256868   482 net.cpp:91] Creating Layer loss3/classifier_plantvillage_loss3/classifier_plantvillage_0_split
I0403 13:53:55.256886   482 net.cpp:425] loss3/classifier_plantvillage_loss3/classifier_plantvillage_0_split <- loss3/classifier_plantvillage
I0403 13:53:55.256906   482 net.cpp:399] loss3/classifier_plantvillage_loss3/classifier_plantvillage_0_split -> loss3/classifier_plantvillage_loss3/classifier_plantvillage_0_split_0
I0403 13:53:55.256928   482 net.cpp:399] loss3/classifier_plantvillage_loss3/classifier_plantvillage_0_split -> loss3/classifier_plantvillage_loss3/classifier_plantvillage_0_split_1
I0403 13:53:55.256949   482 net.cpp:399] loss3/classifier_plantvillage_loss3/classifier_plantvillage_0_split -> loss3/classifier_plantvillage_loss3/classifier_plantvillage_0_split_2
I0403 13:53:55.256971   482 net.cpp:399] loss3/classifier_plantvillage_loss3/classifier_plantvillage_0_split -> loss3/classifier_plantvillage_loss3/classifier_plantvillage_0_split_3
I0403 13:53:55.257076   482 net.cpp:141] Setting up loss3/classifier_plantvillage_loss3/classifier_plantvillage_0_split
I0403 13:53:55.257100   482 net.cpp:148] Top shape: 24 38 (912)
I0403 13:53:55.257118   482 net.cpp:148] Top shape: 24 38 (912)
I0403 13:53:55.257134   482 net.cpp:148] Top shape: 24 38 (912)
I0403 13:53:55.257151   482 net.cpp:148] Top shape: 24 38 (912)
I0403 13:53:55.257165   482 net.cpp:156] Memory required for data: 1346079072
I0403 13:53:55.257181   482 layer_factory.hpp:77] Creating layer loss1/loss
I0403 13:53:55.257203   482 net.cpp:91] Creating Layer loss1/loss
I0403 13:53:55.257226   482 net.cpp:425] loss1/loss <- loss1/classifier_plantvillage_loss1/classifier_plantvillage_0_split_0
I0403 13:53:55.257259   482 net.cpp:425] loss1/loss <- label_data_1_split_0
…
