…
I0403 14:05:01.262504   726 net.cpp:313] The NetState phase (1) differed from the phase (0) specified by a rule in layer data
I0403 14:05:01.263700   726 net.cpp:49] Initializing net from parameters: 
state {
  phase: TEST
}
layer {
  name: "data"
  type: "Data"
  top: "data"
  top: "label"
  include {
    phase: TEST
  }
  transform_param {
    mirror: false
    crop_size: 224
    mean_file: "/home/mohanty/data/final_dataset/lmdb/grayscale-20-80/mean.binaryproto"
  }
  data_param {
    source: "/home/mohanty/data/final_dataset/lmdb/grayscale-20-80/test_db"
    batch_size: 24
    backend: LMDB
  }
}
layer {
  name: "conv1/7x7_s2"
  type: "Convolution"
  bottom: "data"
  top: "conv1/7x7_s2"
  param {
    lr_mult: 1
    decay_mult: 1
  }
  param {
    lr_mult: 2
    decay_mult: 0
  }
  convolution_param {
    num_output: 64
    pad: 3
    kernel_size: 7
    stride: 2
    weight_filler {
      type: "xavier"
      std: 0.1
    }
    bias_filler {
      type: "constant"
      value: 0.2
    }
  }
}
layer {
  name: "conv1/relu_7x7"
  type: "ReLU"
  bottom: "conv1/7x7_s2"
  top: "conv1/7x7_s2"
}
layer {
  name: "pool1/3x3_s2"
  type: "Pooling"
  bottom: "conv1/7x7_s2"
  top: "pool1/3x3_s2"
  pooling_param {
    pool: MAX
    kernel_size: 3
    stride: 2
  }
}
layer {
  name: "pool1/norm1"
  type: "LRN"
  bottom: "pool1/3x3_s2"
  top: "pool1/norm1"
  lrn_param {
    local_size: 5
    alpha: 0.0001
    beta: 0.75
  }
}
layer {
  name: "conv2/3x3_reduce"
  type: "Convolution"
  bottom: "pool1/norm1"
  top: "conv2/3x3_reduce"
  param {
    lr_mult: 1
    decay_mult: 1
  }
  param {
    lr_mult: 2
    decay_mult: 0
  }
  convolution_param {
    num_output: 64
    kernel_size: 1
    weight_filler {
      type: "xavier"
      std: 0.1
    }
    bias_filler {
      type: "constant"
      value: 0.2
    }
  }
}
layer {
  name: "conv2/relu_3x3_reduce"
  type: "ReLU"
  bottom: "conv2/3x3_reduce"
  top: "conv2/3x3_reduce"
}
layer {
  name: "conv2/3x3"
  type: "Convolution"
  bottom: "conv2/3x3_reduce"
  top: "conv2/3x3"
  param {
    lr_mult: 1
    decay_mult: 1
  }
  param {
    lr_mult: 2
    decay_mult: 0
  }
  convolution_param {
    num_output: 192
    pad: 1
    kernel_size: 3
    weight_filler {
      type: "xavier"
      std: 0.03
    }
    bias_filler {
      type: "constant"
      value: 0.2
    }
  }
}
layer {
  name: "conv2/relu_3x3"
  type: "ReLU"
  bottom: "conv2/3x3"
  top: "conv2/3x3"
}
layer {
  name: "conv2/norm2"
  type: "LRN"
  bottom: "conv2/3x3"
  top: "conv2/norm2"
  lrn_param {
    local_size: 5
    alpha: 0.0001
    beta: 0.75
  }
}
layer {
  name: "pool2/3x3_s2"
  type: "Pooling"
  bottom: "conv2/norm2"
  top: "pool2/3x3_s2"
  pooling_param {
    pool: MAX
    kernel_size: 3
    stride: 2
  }
}
layer {
  name: "inception_3a/1x1"
  type: "Convolution"
  bottom: "pool2/3x3_s2"
  top: "inception_3a/1x1"
  param {
    lr_mult: 1
    decay_mult: 1
  }
  param {
    lr_mult: 2
    decay_mult: 0
  }
  convolution_param {
    num_output: 64
    kernel_size: 1
    weight_filler {
      type: "xavier"
      std: 0.03
    }
    bias_filler {
      type: "constant"
      value: 0.2
    }
  }
}
layer {
  name: "inception_3a/relu_1x1"
  type: "ReLU"
  bottom: "inception_3a/1x1"
  top: "inception_3a/1x1"
}
layer {
  name: "inception_3a/3x3_reduce"
  type: "Convolution"
  bottom: "pool2/3x3_s2"
  top: "inception_3a/3x3_reduce"
  param {
    lr_mult: 1
    decay_mult: 1
  }
  param {
    lr_mult: 2
    decay_mult: 0
  }
  convolution_param {
    num_output: 96
    kernel_size: 1
    weight_filler {
      type: "xavier"
      std: 0.09
    }
    bias_filler {
      type: "constant"
      value: 0.2
    }
  }
}
layer {
  name: "inception_3a/relu_3x3_reduce"
  type: "ReLU"
  bottom: "inception_3a/3x3_reduce"
  top: "inception_3a/3x3_reduce"
}
layer {
  name: "inception_3a/3x3"
  type: "Convolution"
  bottom: "inception_3a/3x3_reduce"
  top: "inception_3a/3x3"
  param {
    lr_mult: 1
    decay_mult: 1
  }
  param {
    lr_mult: 2
    decay_mult: 0
  }
  convolution_param {
    num_output: 128
    pad: 1
    kernel_size: 3
    weight_filler {
      type: "xavier"
      std: 0.03
    }
    bias_filler {
      type: "constant"
      value: 0.2
    }
  }
}
layer {
  name: "inception_3a/relu_3x3"
  type: "ReLU"
  bottom: "inception_3a/3x3"
  top: "inception_3a/3x3"
}
layer {
  name: "inception_3a/5x5_reduce"
  type: "Convolution"
  bottom: "pool2/3x3_s2"
  top: "inception_3a/5x5_reduce"
  param {
    lr_mult: 1
    decay_mult: 1
  }
  param {
    lr_mult: 2
    decay_mult: 0
  }
  convolution_param {
    num_output: 16
    kernel_size: 1
    weight_filler {
      type: "xavier"
      std: 0.2
    }
    bias_filler {
      type: "constant"
      value: 0.2
    }
  }
}
layer {
  name: "inception_3a/relu_5x5_reduce"
  type: "ReLU"
  bottom: "inception_3a/5x5_reduce"
  top: "inception_3a/5x5_reduce"
}
layer {
  name: "inception_3a/5x5"
  type: "Convolution"
  bottom: "inception_3a/5x5_reduce"
  top: "inception_3a/5x5"
  param {
    lr_mult: 1
    decay_mult: 1
  }
  param {
    lr_mult: 2
    decay_mult: 0
  }
  convolution_param {
    num_output: 32
    pad: 2
    kernel_size: 5
    weight_filler {
      type: "xavier"
      std: 0.03
    }
    bias_filler {
      type: "constant"
      value: 0.2
    }
  }
}
layer {
  name: "inception_3a/relu_5x5"
  type: "ReLU"
  bottom: "inception_3a/5x5"
  top: "inception_3a/5x5"
}
layer {
  name: "inception_3a/pool"
  type: "Pooling"
  bottom: "pool2/3x3_s2"
  top: "inception_3a/pool"
  pooling_param {
    pool: MAX
    kernel_size: 3
    stride: 1
    pad: 1
  }
}
layer {
  name: "inception_3a/pool_proj"
  type: "Convolution"
  bottom: "inception_3a/pool"
  top: "inception_3a/pool_proj"
  param {
    lr_mult: 1
    decay_mult: 1
  }
  param {
    lr_mult: 2
    decay_mult: 0
  }
  convolution_param {
    num_output: 32
    kernel_size: 1
    weight_filler {
      type: "xavier"
      std: 0.1
    }
    bias_filler {
      type: "constant"
      value: 0.2
    }
  }
}
layer {
  name: "inception_3a/relu_pool_proj"
  type: "ReLU"
  bottom: "inception_3a/pool_proj"
  top: "inception_3a/pool_proj"
}
layer {
  name: "inception_3a/output"
  type: "Concat"
  bottom: "inception_3a/1x1"
  bottom: "inception_3a/3x3"
  bottom: "inception_3a/5x5"
  bottom: "inception_3a/pool_proj"
  top: "inception_3a/output"
}
layer {
  name: "inception_3b/1x1"
  type: "Convolution"
  bottom: "inception_3a/output"
  top: "inception_3b/1x1"
  param {
    lr_mult: 1
    decay_mult: 1
  }
  param {
    lr_mult: 2
    decay_mult: 0
  }
  convolution_param {
    num_output: 128
    kernel_size: 1
    weight_filler {
      type: "xavier"
      std: 0.03
    }
    bias_filler {
      type: "constant"
      value: 0.2
    }
  }
}
layer {
  name: "inception_3b/relu_1x1"
  type: "ReLU"
  bottom: "inception_3b/1x1"
  top: "inception_3b/1x1"
}
layer {
  name: "inception_3b/3x3_reduce"
  type: "Convolution"
  bottom: "inception_3a/output"
  top: "inception_3b/3x3_reduce"
  param {
    lr_mult: 1
    decay_mult: 1
  }
  param {
    lr_mult: 2
    decay_mult: 0
  }
  convolution_param {
    num_output: 128
    kernel_size: 1
    weight_filler {
      type: "xavier"
      std: 0.09
    }
    bias_filler {
      type: "constant"
      value: 0.2
    }
  }
}
layer {
  name: "inception_3b/relu_3x3_reduce"
  type: "ReLU"
  bottom: "inception_3b/3x3_reduce"
  top: "inception_3b/3x3_reduce"
}
layer {
  name: "inception_3b/3x3"
  type: "Convolution"
  bottom: "inception_3b/3x3_reduce"
  top: "inception_3b/3x3"
  param {
    lr_mult: 1
    decay_mult: 1
  }
  param {
    lr_mult: 2
    decay_mult: 0
  }
  convolution_param {
    num_output: 192
    pad: 1
    kernel_size: 3
    weight_filler {
      type: "xavier"
      std: 0.03
    }
    bias_filler {
      type: "constant"
      value: 0.2
    }
  }
}
layer {
  name: "inception_3b/relu_3x3"
  type: "ReLU"
  bottom: "inception_3b/3x3"
  top: "inception_3b/3x3"
}
layer {
  name: "inception_3b/5x5_reduce"
  type: "Convolution"
  bottom: "inception_3a/output"
  top: "inception_3b/5x5_reduce"
  param {
    lr_mult: 1
    decay_mult: 1
  }
  param {
    lr_mult: 2
    decay_mult: 0
  }
  convolution_param {
    num_output: 32
    kernel_size: 1
    weight_filler {
      type: "xavier"
      std: 0.2
    }
    bias_filler {
      type: "constant"
      value: 0.2
    }
  }
}
layer {
  name: "inception_3b/relu_5x5_reduce"
  type: "ReLU"
  bottom: "inception_3b/5x5_reduce"
  top: "inception_3b/5x5_reduce"
}
layer {
  name: "inception_3b/5x5"
  type: "Convolution"
  bottom: "inception_3b/5x5_reduce"
  top: "inception_3b/5x5"
  param {
    lr_mult: 1
    decay_mult: 1
  }
  param {
    lr_mult: 2
    decay_mult: 0
  }
  convolution_param {
    num_output: 96
    pad: 2
    kernel_size: 5
    weight_filler {
      type: "xavier"
      std: 0.03
    }
    bias_filler {
      type: "constant"
      value: 0.2
    }
  }
}
layer {
  name: "inception_3b/relu_5x5"
  type: "ReLU"
  bottom: "inception_3b/5x5"
  top: "inception_3b/5x5"
}
layer {
  name: "inception_3b/pool"
  type: "Pooling"
  bottom: "inception_3a/output"
  top: "inception_3b/pool"
  pooling_param {
    pool: MAX
    kernel_size: 3
    stride: 1
    pad: 1
  }
}
layer {
  name: "inception_3b/pool_proj"
  type: "Convolution"
  bottom: "inception_3b/pool"
  top: "inception_3b/pool_proj"
  param {
    lr_mult: 1
    decay_mult: 1
  }
  param {
    lr_mult: 2
    decay_mult: 0
  }
  convolution_param {
    num_output: 64
    kernel_size: 1
    weight_filler {
      type: "xavier"
      std: 0.1
    }
    bias_filler {
      type: "constant"
      value: 0.2
    }
  }
}
layer {
  name: "inception_3b/relu_pool_proj"
  type: "ReLU"
  bottom: "inception_3b/pool_proj"
  top: "inception_3b/pool_proj"
}
layer {
  name: "inception_3b/output"
  type: "Concat"
  bottom: "inception_3b/1x1"
  bottom: "inception_3b/3x3"
  bottom: "inception_3b/5x5"
  bottom: "inception_3b/pool_proj"
  top: "inception_3b/output"
}
layer {
  name: "pool3/3x3_s2"
  type: "Pooling"
  bottom: "inception_3b/output"
  top: "pool3/3x3_s2"
  pooling_param {
    pool: MAX
    kernel_size: 3
    stride: 2
  }
}
layer {
  name: "inception_4a/1x1"
  type: "Convolution"
  bottom: "pool3/3x3_s2"
  top: "inception_4a/1x1"
  param {
    lr_mult: 1
    decay_mult: 1
  }
  param {
    lr_mult: 2
    decay_mult: 0
  }
  convolution_param {
    num_output: 192
    kernel_size: 1
    weight_filler {
      type: "xavier"
      std: 0.03
    }
    bias_filler {
      type: "constant"
      value: 0.2
    }
  }
}
layer {
  name: "inception_4a/relu_1x1"
  type: "ReLU"
  bottom: "inception_4a/1x1"
  top: "inception_4a/1x1"
}
layer {
  name: "inception_4a/3x3_reduce"
  type: "Convolution"
  bottom: "pool3/3x3_s2"
  top: "inception_4a/3x3_reduce"
  param {
    lr_mult: 1
    decay_mult: 1
  }
  param {
    lr_mult: 2
    decay_mult: 0
  }
  convolution_param {
    num_output: 96
    kernel_size: 1
    weight_filler {
      type: "xavier"
      std: 0.09
    }
    bias_filler {
      type: "constant"
      value: 0.2
    }
  }
}
layer {
  name: "inception_4a/relu_3x3_reduce"
  type: "ReLU"
  bottom: "inception_4a/3x3_reduce"
  top: "inception_4a/3x3_reduce"
}
layer {
  name: "inception_4a/3x3"
  type: "Convolution"
  bottom: "inception_4a/3x3_reduce"
  top: "inception_4a/3x3"
  param {
    lr_mult: 1
    decay_mult: 1
  }
  param {
    lr_mult: 2
    decay_mult: 0
  }
  convolution_param {
    num_output: 208
    pad: 1
    kernel_size: 3
    weight_filler {
      type: "xavier"
      std: 0.03
    }
    bias_filler {
      type: "constant"
      value: 0.2
    }
  }
}
layer {
  name: "inception_4a/relu_3x3"
  type: "ReLU"
  bottom: "inception_4a/3x3"
  top: "inception_4a/3x3"
}
layer {
  name: "inception_4a/5x5_reduce"
  type: "Convolution"
  bottom: "pool3/3x3_s2"
  top: "inception_4a/5x5_reduce"
  param {
    lr_mult: 1
    decay_mult: 1
  }
  param {
    lr_mult: 2
    decay_mult: 0
  }
  convolution_param {
    num_output: 16
    kernel_size: 1
    weight_filler {
      type: "xavier"
      std: 0.2
    }
    bias_filler {
      type: "constant"
      value: 0.2
    }
  }
}
layer {
  name: "inception_4a/relu_5x5_reduce"
  type: "ReLU"
  bottom: "inception_4a/5x5_reduce"
  top: "inception_4a/5x5_reduce"
}
layer {
  name: "inception_4a/5x5"
  type: "Convolution"
  bottom: "inception_4a/5x5_reduce"
  top: "inception_4a/5x5"
  param {
    lr_mult: 1
    decay_mult: 1
  }
  param {
    lr_mult: 2
    decay_mult: 0
  }
  convolution_param {
    num_output: 48
    pad: 2
    kernel_size: 5
    weight_filler {
      type: "xavier"
      std: 0.03
    }
    bias_filler {
      type: "constant"
      value: 0.2
    }
  }
}
layer {
  name: "inception_4a/relu_5x5"
  type: "ReLU"
  bottom: "inception_4a/5x5"
  top: "inception_4a/5x5"
}
layer {
  name: "inception_4a/pool"
  type: "Pooling"
  bottom: "pool3/3x3_s2"
  top: "inception_4a/pool"
  pooling_param {
    pool: MAX
    kernel_size: 3
    stride: 1
    pad: 1
  }
}
layer {
  name: "inception_4a/pool_proj"
  type: "Convolution"
  bottom: "inception_4a/pool"
  top: "inception_4a/pool_proj"
  param {
    lr_mult: 1
    decay_mult: 1
  }
  param {
    lr_mult: 2
    decay_mult: 0
  }
  convolution_param {
    num_output: 64
    kernel_size: 1
    weight_filler {
      type: "xavier"
      std: 0.1
    }
    bias_filler {
      type: "constant"
      value: 0.2
    }
  }
}
layer {
  name: "inception_4a/relu_pool_proj"
  type: "ReLU"
  bottom: "inception_4a/pool_proj"
  top: "inception_4a/pool_proj"
}
layer {
  name: "inception_4a/output"
  type: "Concat"
  bottom: "inception_4a/1x1"
  bottom: "inception_4a/3x3"
  bottom: "inception_4a/5x5"
  bottom: "inception_4a/pool_proj"
  top: "inception_4a/output"
}
layer {
  name: "loss1/ave_pool"
  type: "Pooling"
  bottom: "inception_4a/output"
  top: "loss1/ave_pool"
  pooling_param {
    pool: AVE
    kernel_size: 5
    stride: 3
  }
}
layer {
  name: "loss1/conv"
  type: "Convolution"
  bottom: "loss1/ave_pool"
  top: "loss1/conv"
  param {
    lr_mult: 1
    decay_mult: 1
  }
  param {
    lr_mult: 2
    decay_mult: 0
  }
  convolution_param {
    num_output: 128
    kernel_size: 1
    weight_filler {
      type: "xavier"
      std: 0.08
    }
    bias_filler {
      type: "constant"
      value: 0.2
    }
  }
}
layer {
  name: "loss1/relu_conv"
  type: "ReLU"
  bottom: "loss1/conv"
  top: "loss1/conv"
}
layer {
  name: "loss1/fc"
  type: "InnerProduct"
  bottom: "loss1/conv"
  top: "loss1/fc"
  param {
    lr_mult: 1
    decay_mult: 1
  }
  param {
    lr_mult: 2
    decay_mult: 0
  }
  inner_product_param {
    num_output: 1024
    weight_filler {
      type: "xavier"
      std: 0.02
    }
    bias_filler {
      type: "constant"
      value: 0.2
    }
  }
}
layer {
  name: "loss1/relu_fc"
  type: "ReLU"
  bottom: "loss1/fc"
  top: "loss1/fc"
}
layer {
  name: "loss1/drop_fc"
  type: "Dropout"
  bottom: "loss1/fc"
  top: "loss1/fc"
  dropout_param {
    dropout_ratio: 0.7
  }
}
layer {
  name: "loss1/classifier_plantvillage"
  type: "InnerProduct"
  bottom: "loss1/fc"
  top: "loss1/classifier_plantvillage"
  param {
    lr_mult: 1
    decay_mult: 1
  }
  param {
    lr_mult: 2
    decay_mult: 0
  }
  inner_product_param {
    num_output: 38
    weight_filler {
      type: "xavier"
      std: 0.0009765625
    }
    bias_filler {
      type: "constant"
      value: 0
    }
  }
}
layer {
  name: "inception_4b/1x1"
  type: "Convolution"
  bottom: "inception_4a/output"
  top: "inception_4b/1x1"
  param {
    lr_mult: 1
    decay_mult: 1
  }
  param {
    lr_mult: 2
    decay_mult: 0
  }
  convolution_param {
    num_output: 160
    kernel_size: 1
    weight_filler {
      type: "xavier"
      std: 0.03
    }
    bias_filler {
      type: "constant"
      value: 0.2
    }
  }
}
layer {
  name: "inception_4b/relu_1x1"
  type: "ReLU"
  bottom: "inception_4b/1x1"
  top: "inception_4b/1x1"
}
layer {
  name: "inception_4b/3x3_reduce"
  type: "Convolution"
  bottom: "inception_4a/output"
  top: "inception_4b/3x3_reduce"
  param {
    lr_mult: 1
    decay_mult: 1
  }
  param {
    lr_mult: 2
    decay_mult: 0
  }
  convolution_param {
    num_output: 112
    kernel_size: 1
    weight_filler {
      type: "xavier"
      std: 0.09
    }
    bias_filler {
      type: "constant"
      value: 0.2
    }
  }
}
layer {
  name: "inception_4b/relu_3x3_reduce"
  type: "ReLU"
  bottom: "inception_4b/3x3_reduce"
  top: "inception_4b/3x3_reduce"
}
layer {
  name: "inception_4b/3x3"
  type: "Convolution"
  bottom: "inception_4b/3x3_reduce"
  top: "inception_4b/3x3"
  param {
    lr_mult: 1
    decay_mult: 1
  }
  param {
    lr_mult: 2
    decay_mult: 0
  }
  convolution_param {
    num_output: 224
    pad: 1
    kernel_size: 3
    weight_filler {
      type: "xavier"
      std: 0.03
    }
    bias_filler {
      type: "constant"
      value: 0.2
    }
  }
}
layer {
  name: "inception_4b/relu_3x3"
  type: "ReLU"
  bottom: "inception_4b/3x3"
  top: "inception_4b/3x3"
}
layer {
  name: "inception_4b/5x5_reduce"
  type: "Convolution"
  bottom: "inception_4a/output"
  top: "inception_4b/5x5_reduce"
  param {
    lr_mult: 1
    decay_mult: 1
  }
  param {
    lr_mult: 2
    decay_mult: 0
  }
  convolution_param {
    num_output: 24
    kernel_size: 1
    weight_filler {
      type: "xavier"
      std: 0.2
    }
    bias_filler {
      type: "constant"
      value: 0.2
    }
  }
}
layer {
  name: "inception_4b/relu_5x5_reduce"
  type: "ReLU"
  bottom: "inception_4b/5x5_reduce"
  top: "inception_4b/5x5_reduce"
}
layer {
  name: "inception_4b/5x5"
  type: "Convolution"
  bottom: "inception_4b/5x5_reduce"
  top: "inception_4b/5x5"
  param {
    lr_mult: 1
    decay_mult: 1
  }
  param {
    lr_mult: 2
    decay_mult: 0
  }
  convolution_param {
    num_output: 64
    pad: 2
    kernel_size: 5
    weight_filler {
      type: "xavier"
      std: 0.03
    }
    bias_filler {
      type: "constant"
      value: 0.2
    }
  }
}
layer {
  name: "inception_4b/relu_5x5"
  type: "ReLU"
  bottom: "inception_4b/5x5"
  top: "inception_4b/5x5"
}
layer {
  name: "inception_4b/pool"
  type: "Pooling"
  bottom: "inception_4a/output"
  top: "inception_4b/pool"
  pooling_param {
    pool: MAX
    kernel_size: 3
    stride: 1
    pad: 1
  }
}
layer {
  name: "inception_4b/pool_proj"
  type: "Convolution"
  bottom: "inception_4b/pool"
  top: "inception_4b/pool_proj"
  param {
    lr_mult: 1
    decay_mult: 1
  }
  param {
    lr_mult: 2
    decay_mult: 0
  }
  convolution_param {
    num_output: 64
    kernel_size: 1
    weight_filler {
      type: "xavier"
      std: 0.1
    }
    bias_filler {
      type: "constant"
      value: 0.2
    }
  }
}
layer {
  name: "inception_4b/relu_pool_proj"
  type: "ReLU"
  bottom: "inception_4b/pool_proj"
  top: "inception_4b/pool_proj"
}
layer {
  name: "inception_4b/output"
  type: "Concat"
  bottom: "inception_4b/1x1"
  bottom: "inception_4b/3x3"
  bottom: "inception_4b/5x5"
  bottom: "inception_4b/pool_proj"
  top: "inception_4b/output"
}
layer {
  name: "inception_4c/1x1"
  type: "Convolution"
  bottom: "inception_4b/output"
  top: "inception_4c/1x1"
  param {
    lr_mult: 1
    decay_mult: 1
  }
  param {
    lr_mult: 2
    decay_mult: 0
  }
  convolution_param {
    num_output: 128
    kernel_size: 1
    weight_filler {
      type: "xavier"
      std: 0.03
    }
    bias_filler {
      type: "constant"
      value: 0.2
    }
  }
}
layer {
  name: "inception_4c/relu_1x1"
  type: "ReLU"
  bottom: "inception_4c/1x1"
  top: "inception_4c/1x1"
}
layer {
  name: "inception_4c/3x3_reduce"
  type: "Convolution"
  bottom: "inception_4b/output"
  top: "inception_4c/3x3_reduce"
  param {
    lr_mult: 1
    decay_mult: 1
  }
  param {
    lr_mult: 2
    decay_mult: 0
  }
  convolution_param {
    num_output: 128
    kernel_size: 1
    weight_filler {
      type: "xavier"
      std: 0.09
    }
    bias_filler {
      type: "constant"
      value: 0.2
    }
  }
}
layer {
  name: "inception_4c/relu_3x3_reduce"
  type: "ReLU"
  bottom: "inception_4c/3x3_reduce"
  top: "inception_4c/3x3_reduce"
}
layer {
  name: "inception_4c/3x3"
  type: "Convolution"
  bottom: "inception_4c/3x3_reduce"
  top: "inception_4c/3x3"
  param {
    lr_mult: 1
    decay_mult: 1
  }
  param {
    lr_mult: 2
    decay_mult: 0
  }
  convolution_param {
    num_output: 256
    pad: 1
    kernel_size: 3
    weight_filler {
      type: "xavier"
      std: 0.03
    }
    bias_filler {
      type: "constant"
      value: 0.2
    }
  }
}
layer {
  name: "inception_4c/relu_3x3"
  type: "ReLU"
  bottom: "inception_4c/3x3"
  top: "inception_4c/3x3"
}
layer {
  name: "inception_4c/5x5_reduce"
  type: "Convolution"
  bottom: "inception_4b/output"
  top: "inception_4c/5x5_reduce"
  param {
    lr_mult: 1
    decay_mult: 1
  }
  param {
    lr_mult: 2
    decay_mult: 0
  }
  convolution_param {
    num_output: 24
    kernel_size: 1
    weight_filler {
      type: "xavier"
      std: 0.2
    }
    bias_filler {
      type: "constant"
      value: 0.2
    }
  }
}
layer {
  name: "inception_4c/relu_5x5_reduce"
  type: "ReLU"
  bottom: "inception_4c/5x5_reduce"
  top: "inception_4c/5x5_reduce"
}
layer {
  name: "inception_4c/5x5"
  type: "Convolution"
  bottom: "inception_4c/5x5_reduce"
  top: "inception_4c/5x5"
  param {
    lr_mult: 1
    decay_mult: 1
  }
  param {
    lr_mult: 2
    decay_mult: 0
  }
  convolution_param {
    num_output: 64
    pad: 2
    kernel_size: 5
    weight_filler {
      type: "xavier"
      std: 0.03
    }
    bias_filler {
      type: "constant"
      value: 0.2
    }
  }
}
layer {
  name: "inception_4c/relu_5x5"
  type: "ReLU"
  bottom: "inception_4c/5x5"
  top: "inception_4c/5x5"
}
layer {
  name: "inception_4c/pool"
  type: "Pooling"
  bottom: "inception_4b/output"
  top: "inception_4c/pool"
  pooling_param {
    pool: MAX
    kernel_size: 3
    stride: 1
    pad: 1
  }
}
layer {
  name: "inception_4c/pool_proj"
  type: "Convolution"
  bottom: "inception_4c/pool"
  top: "inception_4c/pool_proj"
  param {
    lr_mult: 1
    decay_mult: 1
  }
  param {
    lr_mult: 2
    decay_mult: 0
  }
  convolution_param {
    num_output: 64
    kernel_size: 1
    weight_filler {
      type: "xavier"
      std: 0.1
    }
    bias_filler {
      type: "constant"
      value: 0.2
    }
  }
}
layer {
  name: "inception_4c/relu_pool_proj"
  type: "ReLU"
  bottom: "inception_4c/pool_proj"
  top: "inception_4c/pool_proj"
}
layer {
  name: "inception_4c/output"
  type: "Concat"
  bottom: "inception_4c/1x1"
  bottom: "inception_4c/3x3"
  bottom: "inception_4c/5x5"
  bottom: "inception_4c/pool_proj"
  top: "inception_4c/output"
}
layer {
  name: "inception_4d/1x1"
  type: "Convolution"
  bottom: "inception_4c/output"
  top: "inception_4d/1x1"
  param {
    lr_mult: 1
    decay_mult: 1
  }
  param {
    lr_mult: 2
    decay_mult: 0
  }
  convolution_param {
    num_output: 112
    kernel_size: 1
    weight_filler {
      type: "xavier"
      std: 0.03
    }
    bias_filler {
      type: "constant"
      value: 0.2
    }
  }
}
layer {
  name: "inception_4d/relu_1x1"
  type: "ReLU"
  bottom: "inception_4d/1x1"
  top: "inception_4d/1x1"
}
layer {
  name: "inception_4d/3x3_reduce"
  type: "Convolution"
  bottom: "inception_4c/output"
  top: "inception_4d/3x3_reduce"
  param {
    lr_mult: 1
    decay_mult: 1
  }
  param {
    lr_mult: 2
    decay_mult: 0
  }
  convolution_param {
    num_output: 144
    kernel_size: 1
    weight_filler {
      type: "xavier"
      std: 0.09
    }
    bias_filler {
      type: "constant"
      value: 0.2
    }
  }
}
layer {
  name: "inception_4d/relu_3x3_reduce"
  type: "ReLU"
  bottom: "inception_4d/3x3_reduce"
  top: "inception_4d/3x3_reduce"
}
layer {
  name: "inception_4d/3x3"
  type: "Convolution"
  bottom: "inception_4d/3x3_reduce"
  top: "inception_4d/3x3"
  param {
    lr_mult: 1
    decay_mult: 1
  }
  param {
    lr_mult: 2
    decay_mult: 0
  }
  convolution_param {
    num_output: 288
    pad: 1
    kernel_size: 3
    weight_filler {
      type: "xavier"
      std: 0.03
    }
    bias_filler {
      type: "constant"
      value: 0.2
    }
  }
}
layer {
  name: "inception_4d/relu_3x3"
  type: "ReLU"
  bottom: "inception_4d/3x3"
  top: "inception_4d/3x3"
}
layer {
  name: "inception_4d/5x5_reduce"
  type: "Convolution"
  bottom: "inception_4c/output"
  top: "inception_4d/5x5_reduce"
  param {
    lr_mult: 1
    decay_mult: 1
  }
  param {
    lr_mult: 2
    decay_mult: 0
  }
  convolution_param {
    num_output: 32
    kernel_size: 1
    weight_filler {
      type: "xavier"
      std: 0.2
    }
    bias_filler {
      type: "constant"
      value: 0.2
    }
  }
}
layer {
  name: "inception_4d/relu_5x5_reduce"
  type: "ReLU"
  bottom: "inception_4d/5x5_reduce"
  top: "inception_4d/5x5_reduce"
}
layer {
  name: "inception_4d/5x5"
  type: "Convolution"
  bottom: "inception_4d/5x5_reduce"
  top: "inception_4d/5x5"
  param {
    lr_mult: 1
    decay_mult: 1
  }
  param {
    lr_mult: 2
    decay_mult: 0
  }
  convolution_param {
    num_output: 64
    pad: 2
    kernel_size: 5
    weight_filler {
      type: "xavier"
      std: 0.03
    }
    bias_filler {
      type: "constant"
      value: 0.2
    }
  }
}
layer {
  name: "inception_4d/relu_5x5"
  type: "ReLU"
  bottom: "inception_4d/5x5"
  top: "inception_4d/5x5"
}
layer {
  name: "inception_4d/pool"
  type: "Pooling"
  bottom: "inception_4c/output"
  top: "inception_4d/pool"
  pooling_param {
    pool: MAX
    kernel_size: 3
    stride: 1
    pad: 1
  }
}
layer {
  name: "inception_4d/pool_proj"
  type: "Convolution"
  bottom: "inception_4d/pool"
  top: "inception_4d/pool_proj"
  param {
    lr_mult: 1
    decay_mult: 1
  }
  param {
    lr_mult: 2
    decay_mult: 0
  }
  convolution_param {
    num_output: 64
    kernel_size: 1
    weight_filler {
      type: "xavier"
      std: 0.1
    }
    bias_filler {
      type: "constant"
      value: 0.2
    }
  }
}
layer {
  name: "inception_4d/relu_pool_proj"
  type: "ReLU"
  bottom: "inception_4d/pool_proj"
  top: "inception_4d/pool_proj"
}
layer {
  name: "inception_4d/output"
  type: "Concat"
  bottom: "inception_4d/1x1"
  bottom: "inception_4d/3x3"
  bottom: "inception_4d/5x5"
  bottom: "inception_4d/pool_proj"
  top: "inception_4d/output"
}
layer {
  name: "loss2/ave_pool"
  type: "Pooling"
  bottom: "inception_4d/output"
  top: "loss2/ave_pool"
  pooling_param {
    pool: AVE
    kernel_size: 5
    stride: 3
  }
}
layer {
  name: "loss2/conv"
  type: "Convolution"
  bottom: "loss2/ave_pool"
  top: "loss2/conv"
  param {
    lr_mult: 1
    decay_mult: 1
  }
  param {
    lr_mult: 2
    decay_mult: 0
  }
  convolution_param {
    num_output: 128
    kernel_size: 1
    weight_filler {
      type: "xavier"
      std: 0.08
    }
    bias_filler {
      type: "constant"
      value: 0.2
    }
  }
}
layer {
  name: "loss2/relu_conv"
  type: "ReLU"
  bottom: "loss2/conv"
  top: "loss2/conv"
}
layer {
  name: "loss2/fc"
  type: "InnerProduct"
  bottom: "loss2/conv"
  top: "loss2/fc"
  param {
    lr_mult: 1
    decay_mult: 1
  }
  param {
    lr_mult: 2
    decay_mult: 0
  }
  inner_product_param {
    num_output: 1024
    weight_filler {
      type: "xavier"
      std: 0.02
    }
    bias_filler {
      type: "constant"
      value: 0.2
    }
  }
}
layer {
  name: "loss2/relu_fc"
  type: "ReLU"
  bottom: "loss2/fc"
  top: "loss2/fc"
}
layer {
  name: "loss2/drop_fc"
  type: "Dropout"
  bottom: "loss2/fc"
  top: "loss2/fc"
  dropout_param {
    dropout_ratio: 0.7
  }
}
layer {
  name: "loss2/classifier_plantvillage"
  type: "InnerProduct"
  bottom: "loss2/fc"
  top: "loss2/classifier_plantvillage"
  param {
    lr_mult: 1
    decay_mult: 1
  }
  param {
    lr_mult: 2
    decay_mult: 0
  }
  inner_product_param {
    num_output: 38
    weight_filler {
      type: "xavier"
      std: 0.0009765625
    }
    bias_filler {
      type: "constant"
      value: 0
    }
  }
}
layer {
  name: "inception_4e/1x1"
  type: "Convolution"
  bottom: "inception_4d/output"
  top: "inception_4e/1x1"
  param {
    lr_mult: 1
    decay_mult: 1
  }
  param {
    lr_mult: 2
    decay_mult: 0
  }
  convolution_param {
    num_output: 256
    kernel_size: 1
    weight_filler {
      type: "xavier"
      std: 0.03
    }
    bias_filler {
      type: "constant"
      value: 0.2
    }
  }
}
layer {
  name: "inception_4e/relu_1x1"
  type: "ReLU"
  bottom: "inception_4e/1x1"
  top: "inception_4e/1x1"
}
layer {
  name: "inception_4e/3x3_reduce"
  type: "Convolution"
  bottom: "inception_4d/output"
  top: "inception_4e/3x3_reduce"
  param {
    lr_mult: 1
    decay_mult: 1
  }
  param {
    lr_mult: 2
    decay_mult: 0
  }
  convolution_param {
    num_output: 160
    kernel_size: 1
    weight_filler {
      type: "xavier"
      std: 0.09
    }
    bias_filler {
      type: "constant"
      value: 0.2
    }
  }
}
layer {
  name: "inception_4e/relu_3x3_reduce"
  type: "ReLU"
  bottom: "inception_4e/3x3_reduce"
  top: "inception_4e/3x3_reduce"
}
layer {
  name: "inception_4e/3x3"
  type: "Convolution"
  bottom: "inception_4e/3x3_reduce"
  top: "inception_4e/3x3"
  param {
    lr_mult: 1
    decay_mult: 1
  }
  param {
    lr_mult: 2
    decay_mult: 0
  }
  convolution_param {
    num_output: 320
    pad: 1
    kernel_size: 3
    weight_filler {
      type: "xavier"
      std: 0.03
    }
    bias_filler {
      type: "constant"
      value: 0.2
    }
  }
}
layer {
  name: "inception_4e/relu_3x3"
  type: "ReLU"
  bottom: "inception_4e/3x3"
  top: "inception_4e/3x3"
}
layer {
  name: "inception_4e/5x5_reduce"
  type: "Convolution"
  bottom: "inception_4d/output"
  top: "inception_4e/5x5_reduce"
  param {
    lr_mult: 1
    decay_mult: 1
  }
  param {
    lr_mult: 2
    decay_mult: 0
  }
  convolution_param {
    num_output: 32
    kernel_size: 1
    weight_filler {
      type: "xavier"
      std: 0.2
    }
    bias_filler {
      type: "constant"
      value: 0.2
    }
  }
}
layer {
  name: "inception_4e/relu_5x5_reduce"
  type: "ReLU"
  bottom: "inception_4e/5x5_reduce"
  top: "inception_4e/5x5_reduce"
}
layer {
  name: "inception_4e/5x5"
  type: "Convolution"
  bottom: "inception_4e/5x5_reduce"
  top: "inception_4e/
I0403 14:05:01.264945   726 layer_factory.hpp:77] Creating layer data
I0403 14:05:01.265553   726 net.cpp:91] Creating Layer data
I0403 14:05:01.265586   726 net.cpp:399] data -> data
I0403 14:05:01.265637   726 net.cpp:399] data -> label
I0403 14:05:01.265673   726 data_transformer.cpp:25] Loading mean file from: /home/mohanty/data/final_dataset/lmdb/grayscale-20-80/mean.binaryproto
I0403 14:05:01.275526   729 db_lmdb.cpp:38] Opened lmdb /home/mohanty/data/final_dataset/lmdb/grayscale-20-80/test_db
I0403 14:05:01.283885   726 data_layer.cpp:41] output data size: 24,3,224,224
I0403 14:05:01.310708   726 net.cpp:141] Setting up data
I0403 14:05:01.310808   726 net.cpp:148] Top shape: 24 3 224 224 (3612672)
I0403 14:05:01.310832   726 net.cpp:148] Top shape: 24 (24)
I0403 14:05:01.310847   726 net.cpp:156] Memory required for data: 14450784
I0403 14:05:01.310873   726 layer_factory.hpp:77] Creating layer label_data_1_split
I0403 14:05:01.310900   726 net.cpp:91] Creating Layer label_data_1_split
I0403 14:05:01.310919   726 net.cpp:425] label_data_1_split <- label
I0403 14:05:01.310950   726 net.cpp:399] label_data_1_split -> label_data_1_split_0
I0403 14:05:01.310978   726 net.cpp:399] label_data_1_split -> label_data_1_split_1
I0403 14:05:01.311000   726 net.cpp:399] label_data_1_split -> label_data_1_split_2
I0403 14:05:01.311022   726 net.cpp:399] label_data_1_split -> label_data_1_split_3
I0403 14:05:01.311043   726 net.cpp:399] label_data_1_split -> label_data_1_split_4
I0403 14:05:01.311064   726 net.cpp:399] label_data_1_split -> label_data_1_split_5
I0403 14:05:01.311084   726 net.cpp:399] label_data_1_split -> label_data_1_split_6
I0403 14:05:01.311105   726 net.cpp:399] label_data_1_split -> label_data_1_split_7
I0403 14:05:01.311125   726 net.cpp:399] label_data_1_split -> label_data_1_split_8
I0403 14:05:01.311146   726 net.cpp:399] label_data_1_split -> label_data_1_split_9
I0403 14:05:01.311270   726 net.cpp:141] Setting up label_data_1_split
I0403 14:05:01.311295   726 net.cpp:148] Top shape: 24 (24)
I0403 14:05:01.311312   726 net.cpp:148] Top shape: 24 (24)
I0403 14:05:01.311328   726 net.cpp:148] Top shape: 24 (24)
I0403 14:05:01.311345   726 net.cpp:148] Top shape: 24 (24)
I0403 14:05:01.311362   726 net.cpp:148] Top shape: 24 (24)
I0403 14:05:01.311378   726 net.cpp:148] Top shape: 24 (24)
I0403 14:05:01.311393   726 net.cpp:148] Top shape: 24 (24)
I0403 14:05:01.311410   726 net.cpp:148] Top shape: 24 (24)
I0403 14:05:01.311426   726 net.cpp:148] Top shape: 24 (24)
I0403 14:05:01.311442   726 net.cpp:148] Top shape: 24 (24)
I0403 14:05:01.311488   726 net.cpp:156] Memory required for data: 14451744
I0403 14:05:01.311504   726 layer_factory.hpp:77] Creating layer conv1/7x7_s2
I0403 14:05:01.311537   726 net.cpp:91] Creating Layer conv1/7x7_s2
I0403 14:05:01.311555   726 net.cpp:425] conv1/7x7_s2 <- data
I0403 14:05:01.311574   726 net.cpp:399] conv1/7x7_s2 -> conv1/7x7_s2
I0403 14:05:01.451141   726 net.cpp:141] Setting up conv1/7x7_s2
I0403 14:05:01.451234   726 net.cpp:148] Top shape: 24 64 112 112 (19267584)
I0403 14:05:01.451253   726 net.cpp:156] Memory required for data: 91522080
I0403 14:05:01.451284   726 layer_factory.hpp:77] Creating layer conv1/relu_7x7
I0403 14:05:01.451313   726 net.cpp:91] Creating Layer conv1/relu_7x7
I0403 14:05:01.451331   726 net.cpp:425] conv1/relu_7x7 <- conv1/7x7_s2
I0403 14:05:01.451351   726 net.cpp:386] conv1/relu_7x7 -> conv1/7x7_s2 (in-place)
I0403 14:05:01.451611   726 net.cpp:141] Setting up conv1/relu_7x7
I0403 14:05:01.451638   726 net.cpp:148] Top shape: 24 64 112 112 (19267584)
I0403 14:05:01.451654   726 net.cpp:156] Memory required for data: 168592416
I0403 14:05:01.451670   726 layer_factory.hpp:77] Creating layer pool1/3x3_s2
I0403 14:05:01.451696   726 net.cpp:91] Creating Layer pool1/3x3_s2
I0403 14:05:01.451714   726 net.cpp:425] pool1/3x3_s2 <- conv1/7x7_s2
I0403 14:05:01.451733   726 net.cpp:399] pool1/3x3_s2 -> pool1/3x3_s2
I0403 14:05:01.451831   726 net.cpp:141] Setting up pool1/3x3_s2
I0403 14:05:01.451858   726 net.cpp:148] Top shape: 24 64 56 56 (4816896)
I0403 14:05:01.451872   726 net.cpp:156] Memory required for data: 187860000
I0403 14:05:01.451889   726 layer_factory.hpp:77] Creating layer pool1/norm1
I0403 14:05:01.451913   726 net.cpp:91] Creating Layer pool1/norm1
I0403 14:05:01.451931   726 net.cpp:425] pool1/norm1 <- pool1/3x3_s2
I0403 14:05:01.451949   726 net.cpp:399] pool1/norm1 -> pool1/norm1
I0403 14:05:01.452241   726 net.cpp:141] Setting up pool1/norm1
I0403 14:05:01.452270   726 net.cpp:148] Top shape: 24 64 56 56 (4816896)
I0403 14:05:01.452285   726 net.cpp:156] Memory required for data: 207127584
I0403 14:05:01.452301   726 layer_factory.hpp:77] Creating layer conv2/3x3_reduce
I0403 14:05:01.452325   726 net.cpp:91] Creating Layer conv2/3x3_reduce
I0403 14:05:01.452342   726 net.cpp:425] conv2/3x3_reduce <- pool1/norm1
I0403 14:05:01.452360   726 net.cpp:399] conv2/3x3_reduce -> conv2/3x3_reduce
I0403 14:05:01.453729   726 net.cpp:141] Setting up conv2/3x3_reduce
I0403 14:05:01.453759   726 net.cpp:148] Top shape: 24 64 56 56 (4816896)
I0403 14:05:01.453776   726 net.cpp:156] Memory required for data: 226395168
I0403 14:05:01.453799   726 layer_factory.hpp:77] Creating layer conv2/relu_3x3_reduce
I0403 14:05:01.453817   726 net.cpp:91] Creating Layer conv2/relu_3x3_reduce
I0403 14:05:01.453833   726 net.cpp:425] conv2/relu_3x3_reduce <- conv2/3x3_reduce
I0403 14:05:01.453851   726 net.cpp:386] conv2/relu_3x3_reduce -> conv2/3x3_reduce (in-place)
I0403 14:05:01.454123   726 net.cpp:141] Setting up conv2/relu_3x3_reduce
I0403 14:05:01.454154   726 net.cpp:148] Top shape: 24 64 56 56 (4816896)
I0403 14:05:01.454170   726 net.cpp:156] Memory required for data: 245662752
I0403 14:05:01.454186   726 layer_factory.hpp:77] Creating layer conv2/3x3
I0403 14:05:01.454215   726 net.cpp:91] Creating Layer conv2/3x3
I0403 14:05:01.454234   726 net.cpp:425] conv2/3x3 <- conv2/3x3_reduce
I0403 14:05:01.454253   726 net.cpp:399] conv2/3x3 -> conv2/3x3
I0403 14:05:01.456614   726 net.cpp:141] Setting up conv2/3x3
I0403 14:05:01.456646   726 net.cpp:148] Top shape: 24 192 56 56 (14450688)
I0403 14:05:01.456665   726 net.cpp:156] Memory required for data: 303465504
I0403 14:05:01.456687   726 layer_factory.hpp:77] Creating layer conv2/relu_3x3
I0403 14:05:01.456707   726 net.cpp:91] Creating Layer conv2/relu_3x3
I0403 14:05:01.456722   726 net.cpp:425] conv2/relu_3x3 <- conv2/3x3
I0403 14:05:01.456743   726 net.cpp:386] conv2/relu_3x3 -> conv2/3x3 (in-place)
I0403 14:05:01.456974   726 net.cpp:141] Setting up conv2/relu_3x3
I0403 14:05:01.457000   726 net.cpp:148] Top shape: 24 192 56 56 (14450688)
I0403 14:05:01.457047   726 net.cpp:156] Memory required for data: 361268256
I0403 14:05:01.457063   726 layer_factory.hpp:77] Creating layer conv2/norm2
I0403 14:05:01.457085   726 net.cpp:91] Creating Layer conv2/norm2
I0403 14:05:01.457103   726 net.cpp:425] conv2/norm2 <- conv2/3x3
I0403 14:05:01.457121   726 net.cpp:399] conv2/norm2 -> conv2/norm2
I0403 14:05:01.457442   726 net.cpp:141] Setting up conv2/norm2
I0403 14:05:01.457469   726 net.cpp:148] Top shape: 24 192 56 56 (14450688)
I0403 14:05:01.457485   726 net.cpp:156] Memory required for data: 419071008
I0403 14:05:01.457500   726 layer_factory.hpp:77] Creating layer pool2/3x3_s2
I0403 14:05:01.457521   726 net.cpp:91] Creating Layer pool2/3x3_s2
I0403 14:05:01.457540   726 net.cpp:425] pool2/3x3_s2 <- conv2/norm2
I0403 14:05:01.457557   726 net.cpp:399] pool2/3x3_s2 -> pool2/3x3_s2
I0403 14:05:01.457612   726 net.cpp:141] Setting up pool2/3x3_s2
I0403 14:05:01.457636   726 net.cpp:148] Top shape: 24 192 28 28 (3612672)
I0403 14:05:01.457651   726 net.cpp:156] Memory required for data: 433521696
I0403 14:05:01.457666   726 layer_factory.hpp:77] Creating layer pool2/3x3_s2_pool2/3x3_s2_0_split
I0403 14:05:01.457684   726 net.cpp:91] Creating Layer pool2/3x3_s2_pool2/3x3_s2_0_split
I0403 14:05:01.457703   726 net.cpp:425] pool2/3x3_s2_pool2/3x3_s2_0_split <- pool2/3x3_s2
I0403 14:05:01.457720   726 net.cpp:399] pool2/3x3_s2_pool2/3x3_s2_0_split -> pool2/3x3_s2_pool2/3x3_s2_0_split_0
I0403 14:05:01.457741   726 net.cpp:399] pool2/3x3_s2_pool2/3x3_s2_0_split -> pool2/3x3_s2_pool2/3x3_s2_0_split_1
I0403 14:05:01.457762   726 net.cpp:399] pool2/3x3_s2_pool2/3x3_s2_0_split -> pool2/3x3_s2_pool2/3x3_s2_0_split_2
I0403 14:05:01.457780   726 net.cpp:399] pool2/3x3_s2_pool2/3x3_s2_0_split -> pool2/3x3_s2_pool2/3x3_s2_0_split_3
I0403 14:05:01.457854   726 net.cpp:141] Setting up pool2/3x3_s2_pool2/3x3_s2_0_split
I0403 14:05:01.457877   726 net.cpp:148] Top shape: 24 192 28 28 (3612672)
I0403 14:05:01.457895   726 net.cpp:148] Top shape: 24 192 28 28 (3612672)
I0403 14:05:01.457911   726 net.cpp:148] Top shape: 24 192 28 28 (3612672)
I0403 14:05:01.457927   726 net.cpp:148] Top shape: 24 192 28 28 (3612672)
I0403 14:05:01.457942   726 net.cpp:156] Memory required for data: 491324448
I0403 14:05:01.457957   726 layer_factory.hpp:77] Creating layer inception_3a/1x1
I0403 14:05:01.457979   726 net.cpp:91] Creating Layer inception_3a/1x1
I0403 14:05:01.457998   726 net.cpp:425] inception_3a/1x1 <- pool2/3x3_s2_pool2/3x3_s2_0_split_0
I0403 14:05:01.458019   726 net.cpp:399] inception_3a/1x1 -> inception_3a/1x1
I0403 14:05:01.459580   726 net.cpp:141] Setting up inception_3a/1x1
I0403 14:05:01.459611   726 net.cpp:148] Top shape: 24 64 28 28 (1204224)
I0403 14:05:01.459628   726 net.cpp:156] Memory required for data: 496141344
I0403 14:05:01.459646   726 layer_factory.hpp:77] Creating layer inception_3a/relu_1x1
I0403 14:05:01.459666   726 net.cpp:91] Creating Layer inception_3a/relu_1x1
I0403 14:05:01.459681   726 net.cpp:425] inception_3a/relu_1x1 <- inception_3a/1x1
I0403 14:05:01.459698   726 net.cpp:386] inception_3a/relu_1x1 -> inception_3a/1x1 (in-place)
I0403 14:05:01.459872   726 net.cpp:141] Setting up inception_3a/relu_1x1
I0403 14:05:01.459897   726 net.cpp:148] Top shape: 24 64 28 28 (1204224)
I0403 14:05:01.459913   726 net.cpp:156] Memory required for data: 500958240
I0403 14:05:01.459926   726 layer_factory.hpp:77] Creating layer inception_3a/3x3_reduce
I0403 14:05:01.459951   726 net.cpp:91] Creating Layer inception_3a/3x3_reduce
I0403 14:05:01.459969   726 net.cpp:425] inception_3a/3x3_reduce <- pool2/3x3_s2_pool2/3x3_s2_0_split_1
I0403 14:05:01.459990   726 net.cpp:399] inception_3a/3x3_reduce -> inception_3a/3x3_reduce
I0403 14:05:01.461673   726 net.cpp:141] Setting up inception_3a/3x3_reduce
I0403 14:05:01.461702   726 net.cpp:148] Top shape: 24 96 28 28 (1806336)
I0403 14:05:01.461720   726 net.cpp:156] Memory required for data: 508183584
I0403 14:05:01.461742   726 layer_factory.hpp:77] Creating layer inception_3a/relu_3x3_reduce
I0403 14:05:01.461779   726 net.cpp:91] Creating Layer inception_3a/relu_3x3_reduce
I0403 14:05:01.461797   726 net.cpp:425] inception_3a/relu_3x3_reduce <- inception_3a/3x3_reduce
I0403 14:05:01.461815   726 net.cpp:386] inception_3a/relu_3x3_reduce -> inception_3a/3x3_reduce (in-place)
I0403 14:05:01.461992   726 net.cpp:141] Setting up inception_3a/relu_3x3_reduce
I0403 14:05:01.462018   726 net.cpp:148] Top shape: 24 96 28 28 (1806336)
I0403 14:05:01.462033   726 net.cpp:156] Memory required for data: 515408928
I0403 14:05:01.462049   726 layer_factory.hpp:77] Creating layer inception_3a/3x3
I0403 14:05:01.462071   726 net.cpp:91] Creating Layer inception_3a/3x3
I0403 14:05:01.462088   726 net.cpp:425] inception_3a/3x3 <- inception_3a/3x3_reduce
I0403 14:05:01.462107   726 net.cpp:399] inception_3a/3x3 -> inception_3a/3x3
I0403 14:05:01.463760   726 net.cpp:141] Setting up inception_3a/3x3
I0403 14:05:01.463788   726 net.cpp:148] Top shape: 24 128 28 28 (2408448)
I0403 14:05:01.463804   726 net.cpp:156] Memory required for data: 525042720
I0403 14:05:01.463822   726 layer_factory.hpp:77] Creating layer inception_3a/relu_3x3
I0403 14:05:01.463840   726 net.cpp:91] Creating Layer inception_3a/relu_3x3
I0403 14:05:01.463856   726 net.cpp:425] inception_3a/relu_3x3 <- inception_3a/3x3
I0403 14:05:01.463876   726 net.cpp:386] inception_3a/relu_3x3 -> inception_3a/3x3 (in-place)
I0403 14:05:01.464151   726 net.cpp:141] Setting up inception_3a/relu_3x3
I0403 14:05:01.464191   726 net.cpp:148] Top shape: 24 128 28 28 (2408448)
I0403 14:05:01.464206   726 net.cpp:156] Memory required for data: 534676512
I0403 14:05:01.464227   726 layer_factory.hpp:77] Creating layer inception_3a/5x5_reduce
I0403 14:05:01.464251   726 net.cpp:91] Creating Layer inception_3a/5x5_reduce
I0403 14:05:01.464269   726 net.cpp:425] inception_3a/5x5_reduce <- pool2/3x3_s2_pool2/3x3_s2_0_split_2
I0403 14:05:01.464292   726 net.cpp:399] inception_3a/5x5_reduce -> inception_3a/5x5_reduce
I0403 14:05:01.465257   726 net.cpp:141] Setting up inception_3a/5x5_reduce
I0403 14:05:01.465284   726 net.cpp:148] Top shape: 24 16 28 28 (301056)
I0403 14:05:01.465299   726 net.cpp:156] Memory required for data: 535880736
I0403 14:05:01.465320   726 layer_factory.hpp:77] Creating layer inception_3a/relu_5x5_reduce
I0403 14:05:01.465337   726 net.cpp:91] Creating Layer inception_3a/relu_5x5_reduce
I0403 14:05:01.465353   726 net.cpp:425] inception_3a/relu_5x5_reduce <- inception_3a/5x5_reduce
I0403 14:05:01.465373   726 net.cpp:386] inception_3a/relu_5x5_reduce -> inception_3a/5x5_reduce (in-place)
I0403 14:05:01.465685   726 net.cpp:141] Setting up inception_3a/relu_5x5_reduce
I0403 14:05:01.465713   726 net.cpp:148] Top shape: 24 16 28 28 (301056)
I0403 14:05:01.465729   726 net.cpp:156] Memory required for data: 537084960
I0403 14:05:01.465744   726 layer_factory.hpp:77] Creating layer inception_3a/5x5
I0403 14:05:01.465780   726 net.cpp:91] Creating Layer inception_3a/5x5
I0403 14:05:01.465797   726 net.cpp:425] inception_3a/5x5 <- inception_3a/5x5_reduce
I0403 14:05:01.465818   726 net.cpp:399] inception_3a/5x5 -> inception_3a/5x5
I0403 14:05:01.466851   726 net.cpp:141] Setting up inception_3a/5x5
I0403 14:05:01.466883   726 net.cpp:148] Top shape: 24 32 28 28 (602112)
I0403 14:05:01.466900   726 net.cpp:156] Memory required for data: 539493408
I0403 14:05:01.466920   726 layer_factory.hpp:77] Creating layer inception_3a/relu_5x5
I0403 14:05:01.466938   726 net.cpp:91] Creating Layer inception_3a/relu_5x5
I0403 14:05:01.466955   726 net.cpp:425] inception_3a/relu_5x5 <- inception_3a/5x5
I0403 14:05:01.466975   726 net.cpp:386] inception_3a/relu_5x5 -> inception_3a/5x5 (in-place)
I0403 14:05:01.467166   726 net.cpp:141] Setting up inception_3a/relu_5x5
I0403 14:05:01.467195   726 net.cpp:148] Top shape: 24 32 28 28 (602112)
I0403 14:05:01.467214   726 net.cpp:156] Memory required for data: 541901856
I0403 14:05:01.467231   726 layer_factory.hpp:77] Creating layer inception_3a/pool
I0403 14:05:01.467250   726 net.cpp:91] Creating Layer inception_3a/pool
I0403 14:05:01.467283   726 net.cpp:425] inception_3a/pool <- pool2/3x3_s2_pool2/3x3_s2_0_split_3
I0403 14:05:01.467305   726 net.cpp:399] inception_3a/pool -> inception_3a/pool
I0403 14:05:01.467368   726 net.cpp:141] Setting up inception_3a/pool
I0403 14:05:01.467392   726 net.cpp:148] Top shape: 24 192 28 28 (3612672)
I0403 14:05:01.467407   726 net.cpp:156] Memory required for data: 556352544
I0403 14:05:01.467423   726 layer_factory.hpp:77] Creating layer inception_3a/pool_proj
I0403 14:05:01.467447   726 net.cpp:91] Creating Layer inception_3a/pool_proj
I0403 14:05:01.467465   726 net.cpp:425] inception_3a/pool_proj <- inception_3a/pool
I0403 14:05:01.467489   726 net.cpp:399] inception_3a/pool_proj -> inception_3a/pool_proj
I0403 14:05:01.468477   726 net.cpp:141] Setting up inception_3a/pool_proj
I0403 14:05:01.468505   726 net.cpp:148] Top shape: 24 32 28 28 (602112)
I0403 14:05:01.468523   726 net.cpp:156] Memory required for data: 558760992
I0403 14:05:01.468549   726 layer_factory.hpp:77] Creating layer inception_3a/relu_pool_proj
I0403 14:05:01.468569   726 net.cpp:91] Creating Layer inception_3a/relu_pool_proj
I0403 14:05:01.468586   726 net.cpp:425] inception_3a/relu_pool_proj <- inception_3a/pool_proj
I0403 14:05:01.468606   726 net.cpp:386] inception_3a/relu_pool_proj -> inception_3a/pool_proj (in-place)
I0403 14:05:01.468884   726 net.cpp:141] Setting up inception_3a/relu_pool_proj
I0403 14:05:01.468911   726 net.cpp:148] Top shape: 24 32 28 28 (602112)
I0403 14:05:01.468926   726 net.cpp:156] Memory required for data: 561169440
I0403 14:05:01.468941   726 layer_factory.hpp:77] Creating layer inception_3a/output
I0403 14:05:01.468961   726 net.cpp:91] Creating Layer inception_3a/output
I0403 14:05:01.468976   726 net.cpp:425] inception_3a/output <- inception_3a/1x1
I0403 14:05:01.468993   726 net.cpp:425] inception_3a/output <- inception_3a/3x3
I0403 14:05:01.469010   726 net.cpp:425] inception_3a/output <- inception_3a/5x5
I0403 14:05:01.469027   726 net.cpp:425] inception_3a/output <- inception_3a/pool_proj
I0403 14:05:01.469046   726 net.cpp:399] inception_3a/output -> inception_3a/output
I0403 14:05:01.469094   726 net.cpp:141] Setting up inception_3a/output
I0403 14:05:01.469120   726 net.cpp:148] Top shape: 24 256 28 28 (4816896)
I0403 14:05:01.469136   726 net.cpp:156] Memory required for data: 580437024
I0403 14:05:01.469152   726 layer_factory.hpp:77] Creating layer inception_3a/output_inception_3a/output_0_split
I0403 14:05:01.469169   726 net.cpp:91] Creating Layer inception_3a/output_inception_3a/output_0_split
I0403 14:05:01.469187   726 net.cpp:425] inception_3a/output_inception_3a/output_0_split <- inception_3a/output
I0403 14:05:01.469203   726 net.cpp:399] inception_3a/output_inception_3a/output_0_split -> inception_3a/output_inception_3a/output_0_split_0
I0403 14:05:01.469228   726 net.cpp:399] inception_3a/output_inception_3a/output_0_split -> inception_3a/output_inception_3a/output_0_split_1
I0403 14:05:01.469255   726 net.cpp:399] inception_3a/output_inception_3a/output_0_split -> inception_3a/output_inception_3a/output_0_split_2
I0403 14:05:01.469277   726 net.cpp:399] inception_3a/output_inception_3a/output_0_split -> inception_3a/output_inception_3a/output_0_split_3
I0403 14:05:01.469354   726 net.cpp:141] Setting up inception_3a/output_inception_3a/output_0_split
I0403 14:05:01.469379   726 net.cpp:148] Top shape: 24 256 28 28 (4816896)
I0403 14:05:01.469398   726 net.cpp:148] Top shape: 24 256 28 28 (4816896)
I0403 14:05:01.469415   726 net.cpp:148] Top shape: 24 256 28 28 (4816896)
I0403 14:05:01.469430   726 net.cpp:148] Top shape: 24 256 28 28 (4816896)
I0403 14:05:01.469445   726 net.cpp:156] Memory required for data: 657507360
I0403 14:05:01.469460   726 layer_factory.hpp:77] Creating layer inception_3b/1x1
I0403 14:05:01.469496   726 net.cpp:91] Creating Layer inception_3b/1x1
I0403 14:05:01.469514   726 net.cpp:425] inception_3b/1x1 <- inception_3a/output_inception_3a/output_0_split_0
I0403 14:05:01.469534   726 net.cpp:399] inception_3b/1x1 -> inception_3b/1x1
I0403 14:05:01.470707   726 net.cpp:141] Setting up inception_3b/1x1
I0403 14:05:01.470749   726 net.cpp:148] Top shape: 24 128 28 28 (2408448)
I0403 14:05:01.470767   726 net.cpp:156] Memory required for data: 667141152
I0403 14:05:01.470788   726 layer_factory.hpp:77] Creating layer inception_3b/relu_1x1
I0403 14:05:01.470808   726 net.cpp:91] Creating Layer inception_3b/relu_1x1
I0403 14:05:01.470825   726 net.cpp:425] inception_3b/relu_1x1 <- inception_3b/1x1
I0403 14:05:01.470844   726 net.cpp:386] inception_3b/relu_1x1 -> inception_3b/1x1 (in-place)
I0403 14:05:01.471024   726 net.cpp:141] Setting up inception_3b/relu_1x1
I0403 14:05:01.471050   726 net.cpp:148] Top shape: 24 128 28 28 (2408448)
I0403 14:05:01.471065   726 net.cpp:156] Memory required for data: 676774944
I0403 14:05:01.471081   726 layer_factory.hpp:77] Creating layer inception_3b/3x3_reduce
I0403 14:05:01.471103   726 net.cpp:91] Creating Layer inception_3b/3x3_reduce
I0403 14:05:01.471120   726 net.cpp:425] inception_3b/3x3_reduce <- inception_3a/output_inception_3a/output_0_split_1
I0403 14:05:01.471143   726 net.cpp:399] inception_3b/3x3_reduce -> inception_3b/3x3_reduce
I0403 14:05:01.472303   726 net.cpp:141] Setting up inception_3b/3x3_reduce
I0403 14:05:01.472335   726 net.cpp:148] Top shape: 24 128 28 28 (2408448)
I0403 14:05:01.472353   726 net.cpp:156] Memory required for data: 686408736
I0403 14:05:01.472373   726 layer_factory.hpp:77] Creating layer inception_3b/relu_3x3_reduce
I0403 14:05:01.472390   726 net.cpp:91] Creating Layer inception_3b/relu_3x3_reduce
I0403 14:05:01.472409   726 net.cpp:425] inception_3b/relu_3x3_reduce <- inception_3b/3x3_reduce
I0403 14:05:01.472426   726 net.cpp:386] inception_3b/relu_3x3_reduce -> inception_3b/3x3_reduce (in-place)
I0403 14:05:01.472618   726 net.cpp:141] Setting up inception_3b/relu_3x3_reduce
I0403 14:05:01.472648   726 net.cpp:148] Top shape: 24 128 28 28 (2408448)
I0403 14:05:01.472664   726 net.cpp:156] Memory required for data: 696042528
I0403 14:05:01.472681   726 layer_factory.hpp:77] Creating layer inception_3b/3x3
I0403 14:05:01.472707   726 net.cpp:91] Creating Layer inception_3b/3x3
I0403 14:05:01.472725   726 net.cpp:425] inception_3b/3x3 <- inception_3b/3x3_reduce
I0403 14:05:01.472748   726 net.cpp:399] inception_3b/3x3 -> inception_3b/3x3
I0403 14:05:01.475810   726 net.cpp:141] Setting up inception_3b/3x3
I0403 14:05:01.475839   726 net.cpp:148] Top shape: 24 192 28 28 (3612672)
I0403 14:05:01.475855   726 net.cpp:156] Memory required for data: 710493216
I0403 14:05:01.475874   726 layer_factory.hpp:77] Creating layer inception_3b/relu_3x3
I0403 14:05:01.475893   726 net.cpp:91] Creating Layer inception_3b/relu_3x3
I0403 14:05:01.475909   726 net.cpp:425] inception_3b/relu_3x3 <- inception_3b/3x3
I0403 14:05:01.475929   726 net.cpp:386] inception_3b/relu_3x3 -> inception_3b/3x3 (in-place)
I0403 14:05:01.476217   726 net.cpp:141] Setting up inception_3b/relu_3x3
I0403 14:05:01.476245   726 net.cpp:148] Top shape: 24 192 28 28 (3612672)
I0403 14:05:01.476263   726 net.cpp:156] Memory required for data: 724943904
I0403 14:05:01.476277   726 layer_factory.hpp:77] Creating layer inception_3b/5x5_reduce
I0403 14:05:01.476301   726 net.cpp:91] Creating Layer inception_3b/5x5_reduce
I0403 14:05:01.476320   726 net.cpp:425] inception_3b/5x5_reduce <- inception_3a/output_inception_3a/output_0_split_2
I0403 14:05:01.476342   726 net.cpp:399] inception_3b/5x5_reduce -> inception_3b/5x5_reduce
I0403 14:05:01.477356   726 net.cpp:141] Setting up inception_3b/5x5_reduce
I0403 14:05:01.477387   726 net.cpp:148] Top shape: 24 32 28 28 (602112)
I0403 14:05:01.477411   726 net.cpp:156] Memory required for data: 727352352
I0403 14:05:01.477429   726 layer_factory.hpp:77] Creating layer inception_3b/relu_5x5_reduce
I0403 14:05:01.477448   726 net.cpp:91] Creating Layer inception_3b/relu_5x5_reduce
I0403 14:05:01.477478   726 net.cpp:425] inception_3b/relu_5x5_reduce <- inception_3b/5x5_reduce
I0403 14:05:01.477497   726 net.cpp:386] inception_3b/relu_5x5_reduce -> inception_3b/5x5_reduce (in-place)
I0403 14:05:01.477704   726 net.cpp:141] Setting up inception_3b/relu_5x5_reduce
I0403 14:05:01.477730   726 net.cpp:148] Top shape: 24 32 28 28 (602112)
I0403 14:05:01.477746   726 net.cpp:156] Memory required for data: 729760800
I0403 14:05:01.477774   726 layer_factory.hpp:77] Creating layer inception_3b/5x5
I0403 14:05:01.477799   726 net.cpp:91] Creating Layer inception_3b/5x5
I0403 14:05:01.477818   726 net.cpp:425] inception_3b/5x5 <- inception_3b/5x5_reduce
I0403 14:05:01.477839   726 net.cpp:399] inception_3b/5x5 -> inception_3b/5x5
I0403 14:05:01.479874   726 net.cpp:141] Setting up inception_3b/5x5
I0403 14:05:01.479907   726 net.cpp:148] Top shape: 24 96 28 28 (1806336)
I0403 14:05:01.479924   726 net.cpp:156] Memory required for data: 736986144
I0403 14:05:01.479944   726 layer_factory.hpp:77] Creating layer inception_3b/relu_5x5
I0403 14:05:01.479962   726 net.cpp:91] Creating Layer inception_3b/relu_5x5
I0403 14:05:01.479979   726 net.cpp:425] inception_3b/relu_5x5 <- inception_3b/5x5
I0403 14:05:01.479997   726 net.cpp:386] inception_3b/relu_5x5 -> inception_3b/5x5 (in-place)
I0403 14:05:01.480197   726 net.cpp:141] Setting up inception_3b/relu_5x5
I0403 14:05:01.480228   726 net.cpp:148] Top shape: 24 96 28 28 (1806336)
I0403 14:05:01.480245   726 net.cpp:156] Memory required for data: 744211488
I0403 14:05:01.480262   726 layer_factory.hpp:77] Creating layer inception_3b/pool
I0403 14:05:01.480280   726 net.cpp:91] Creating Layer inception_3b/pool
I0403 14:05:01.480298   726 net.cpp:425] inception_3b/pool <- inception_3a/output_inception_3a/output_0_split_3
I0403 14:05:01.480317   726 net.cpp:399] inception_3b/pool -> inception_3b/pool
I0403 14:05:01.480376   726 net.cpp:141] Setting up inception_3b/pool
I0403 14:05:01.480402   726 net.cpp:148] Top shape: 24 256 28 28 (4816896)
I0403 14:05:01.480417   726 net.cpp:156] Memory required for data: 763479072
I0403 14:05:01.480432   726 layer_factory.hpp:77] Creating layer inception_3b/pool_proj
I0403 14:05:01.480463   726 net.cpp:91] Creating Layer inception_3b/pool_proj
I0403 14:05:01.480479   726 net.cpp:425] inception_3b/pool_proj <- inception_3b/pool
I0403 14:05:01.480500   726 net.cpp:399] inception_3b/pool_proj -> inception_3b/pool_proj
I0403 14:05:01.481606   726 net.cpp:141] Setting up inception_3b/pool_proj
I0403 14:05:01.481637   726 net.cpp:148] Top shape: 24 64 28 28 (1204224)
I0403 14:05:01.481654   726 net.cpp:156] Memory required for data: 768295968
I0403 14:05:01.481674   726 layer_factory.hpp:77] Creating layer inception_3b/relu_pool_proj
I0403 14:05:01.481695   726 net.cpp:91] Creating Layer inception_3b/relu_pool_proj
I0403 14:05:01.481714   726 net.cpp:425] inception_3b/relu_pool_proj <- inception_3b/pool_proj
I0403 14:05:01.481732   726 net.cpp:386] inception_3b/relu_pool_proj -> inception_3b/pool_proj (in-place)
I0403 14:05:01.482151   726 net.cpp:141] Setting up inception_3b/relu_pool_proj
I0403 14:05:01.482178   726 net.cpp:148] Top shape: 24 64 28 28 (1204224)
I0403 14:05:01.482194   726 net.cpp:156] Memory required for data: 773112864
I0403 14:05:01.482213   726 layer_factory.hpp:77] Creating layer inception_3b/output
I0403 14:05:01.482234   726 net.cpp:91] Creating Layer inception_3b/output
I0403 14:05:01.482250   726 net.cpp:425] inception_3b/output <- inception_3b/1x1
I0403 14:05:01.482269   726 net.cpp:425] inception_3b/output <- inception_3b/3x3
I0403 14:05:01.482285   726 net.cpp:425] inception_3b/output <- inception_3b/5x5
I0403 14:05:01.482301   726 net.cpp:425] inception_3b/output <- inception_3b/pool_proj
I0403 14:05:01.482321   726 net.cpp:399] inception_3b/output -> inception_3b/output
I0403 14:05:01.482367   726 net.cpp:141] Setting up inception_3b/output
I0403 14:05:01.482393   726 net.cpp:148] Top shape: 24 480 28 28 (9031680)
I0403 14:05:01.482409   726 net.cpp:156] Memory required for data: 809239584
I0403 14:05:01.482424   726 layer_factory.hpp:77] Creating layer pool3/3x3_s2
I0403 14:05:01.482442   726 net.cpp:91] Creating Layer pool3/3x3_s2
I0403 14:05:01.482458   726 net.cpp:425] pool3/3x3_s2 <- inception_3b/output
I0403 14:05:01.482494   726 net.cpp:399] pool3/3x3_s2 -> pool3/3x3_s2
I0403 14:05:01.482555   726 net.cpp:141] Setting up pool3/3x3_s2
I0403 14:05:01.482579   726 net.cpp:148] Top shape: 24 480 14 14 (2257920)
I0403 14:05:01.482594   726 net.cpp:156] Memory required for data: 818271264
I0403 14:05:01.482610   726 layer_factory.hpp:77] Creating layer pool3/3x3_s2_pool3/3x3_s2_0_split
I0403 14:05:01.482631   726 net.cpp:91] Creating Layer pool3/3x3_s2_pool3/3x3_s2_0_split
I0403 14:05:01.482647   726 net.cpp:425] pool3/3x3_s2_pool3/3x3_s2_0_split <- pool3/3x3_s2
I0403 14:05:01.482664   726 net.cpp:399] pool3/3x3_s2_pool3/3x3_s2_0_split -> pool3/3x3_s2_pool3/3x3_s2_0_split_0
I0403 14:05:01.482684   726 net.cpp:399] pool3/3x3_s2_pool3/3x3_s2_0_split -> pool3/3x3_s2_pool3/3x3_s2_0_split_1
I0403 14:05:01.482707   726 net.cpp:399] pool3/3x3_s2_pool3/3x3_s2_0_split -> pool3/3x3_s2_pool3/3x3_s2_0_split_2
I0403 14:05:01.482728   726 net.cpp:399] pool3/3x3_s2_pool3/3x3_s2_0_split -> pool3/3x3_s2_pool3/3x3_s2_0_split_3
I0403 14:05:01.482807   726 net.cpp:141] Setting up pool3/3x3_s2_pool3/3x3_s2_0_split
I0403 14:05:01.482831   726 net.cpp:148] Top shape: 24 480 14 14 (2257920)
I0403 14:05:01.482846   726 net.cpp:148] Top shape: 24 480 14 14 (2257920)
I0403 14:05:01.482862   726 net.cpp:148] Top shape: 24 480 14 14 (2257920)
I0403 14:05:01.482878   726 net.cpp:148] Top shape: 24 480 14 14 (2257920)
I0403 14:05:01.482892   726 net.cpp:156] Memory required for data: 854397984
I0403 14:05:01.482908   726 layer_factory.hpp:77] Creating layer inception_4a/1x1
I0403 14:05:01.482930   726 net.cpp:91] Creating Layer inception_4a/1x1
I0403 14:05:01.482947   726 net.cpp:425] inception_4a/1x1 <- pool3/3x3_s2_pool3/3x3_s2_0_split_0
I0403 14:05:01.482969   726 net.cpp:399] inception_4a/1x1 -> inception_4a/1x1
I0403 14:05:01.484597   726 net.cpp:141] Setting up inception_4a/1x1
I0403 14:05:01.484625   726 net.cpp:148] Top shape: 24 192 14 14 (903168)
I0403 14:05:01.484642   726 net.cpp:156] Memory required for data: 858010656
I0403 14:05:01.484660   726 layer_factory.hpp:77] Creating layer inception_4a/relu_1x1
I0403 14:05:01.484681   726 net.cpp:91] Creating Layer inception_4a/relu_1x1
I0403 14:05:01.484699   726 net.cpp:425] inception_4a/relu_1x1 <- inception_4a/1x1
I0403 14:05:01.484716   726 net.cpp:386] inception_4a/relu_1x1 -> inception_4a/1x1 (in-place)
I0403 14:05:01.484908   726 net.cpp:141] Setting up inception_4a/relu_1x1
I0403 14:05:01.484938   726 net.cpp:148] Top shape: 24 192 14 14 (903168)
I0403 14:05:01.484956   726 net.cpp:156] Memory required for data: 861623328
I0403 14:05:01.484971   726 layer_factory.hpp:77] Creating layer inception_4a/3x3_reduce
I0403 14:05:01.484995   726 net.cpp:91] Creating Layer inception_4a/3x3_reduce
I0403 14:05:01.485013   726 net.cpp:425] inception_4a/3x3_reduce <- pool3/3x3_s2_pool3/3x3_s2_0_split_1
I0403 14:05:01.485033   726 net.cpp:399] inception_4a/3x3_reduce -> inception_4a/3x3_reduce
I0403 14:05:01.486390   726 net.cpp:141] Setting up inception_4a/3x3_reduce
I0403 14:05:01.486418   726 net.cpp:148] Top shape: 24 96 14 14 (451584)
I0403 14:05:01.486435   726 net.cpp:156] Memory required for data: 863429664
I0403 14:05:01.486460   726 layer_factory.hpp:77] Creating layer inception_4a/relu_3x3_reduce
I0403 14:05:01.486484   726 net.cpp:91] Creating Layer inception_4a/relu_3x3_reduce
I0403 14:05:01.486500   726 net.cpp:425] inception_4a/relu_3x3_reduce <- inception_4a/3x3_reduce
I0403 14:05:01.486517   726 net.cpp:386] inception_4a/relu_3x3_reduce -> inception_4a/3x3_reduce (in-place)
I0403 14:05:01.486690   726 net.cpp:141] Setting up inception_4a/relu_3x3_reduce
I0403 14:05:01.486714   726 net.cpp:148] Top shape: 24 96 14 14 (451584)
I0403 14:05:01.486729   726 net.cpp:156] Memory required for data: 865236000
I0403 14:05:01.486744   726 layer_factory.hpp:77] Creating layer inception_4a/3x3
I0403 14:05:01.486768   726 net.cpp:91] Creating Layer inception_4a/3x3
I0403 14:05:01.486785   726 net.cpp:425] inception_4a/3x3 <- inception_4a/3x3_reduce
I0403 14:05:01.486804   726 net.cpp:399] inception_4a/3x3 -> inception_4a/3x3
I0403 14:05:01.489460   726 net.cpp:141] Setting up inception_4a/3x3
I0403 14:05:01.489505   726 net.cpp:148] Top shape: 24 208 14 14 (978432)
I0403 14:05:01.489521   726 net.cpp:156] Memory required for data: 869149728
I0403 14:05:01.489540   726 layer_factory.hpp:77] Creating layer inception_4a/relu_3x3
I0403 14:05:01.489559   726 net.cpp:91] Creating Layer inception_4a/relu_3x3
I0403 14:05:01.489575   726 net.cpp:425] inception_4a/relu_3x3 <- inception_4a/3x3
I0403 14:05:01.489593   726 net.cpp:386] inception_4a/relu_3x3 -> inception_4a/3x3 (in-place)
I0403 14:05:01.489889   726 net.cpp:141] Setting up inception_4a/relu_3x3
I0403 14:05:01.489917   726 net.cpp:148] Top shape: 24 208 14 14 (978432)
I0403 14:05:01.489933   726 net.cpp:156] Memory required for data: 873063456
I0403 14:05:01.489949   726 layer_factory.hpp:77] Creating layer inception_4a/5x5_reduce
I0403 14:05:01.489971   726 net.cpp:91] Creating Layer inception_4a/5x5_reduce
I0403 14:05:01.489989   726 net.cpp:425] inception_4a/5x5_reduce <- pool3/3x3_s2_pool3/3x3_s2_0_split_2
I0403 14:05:01.490007   726 net.cpp:399] inception_4a/5x5_reduce -> inception_4a/5x5_reduce
I0403 14:05:01.491031   726 net.cpp:141] Setting up inception_4a/5x5_reduce
I0403 14:05:01.491061   726 net.cpp:148] Top shape: 24 16 14 14 (75264)
I0403 14:05:01.491077   726 net.cpp:156] Memory required for data: 873364512
I0403 14:05:01.491096   726 layer_factory.hpp:77] Creating layer inception_4a/relu_5x5_reduce
I0403 14:05:01.491114   726 net.cpp:91] Creating Layer inception_4a/relu_5x5_reduce
I0403 14:05:01.491129   726 net.cpp:425] inception_4a/relu_5x5_reduce <- inception_4a/5x5_reduce
I0403 14:05:01.491148   726 net.cpp:386] inception_4a/relu_5x5_reduce -> inception_4a/5x5_reduce (in-place)
I0403 14:05:01.491331   726 net.cpp:141] Setting up inception_4a/relu_5x5_reduce
I0403 14:05:01.491356   726 net.cpp:148] Top shape: 24 16 14 14 (75264)
I0403 14:05:01.491371   726 net.cpp:156] Memory required for data: 873665568
I0403 14:05:01.491387   726 layer_factory.hpp:77] Creating layer inception_4a/5x5
I0403 14:05:01.491408   726 net.cpp:91] Creating Layer inception_4a/5x5
I0403 14:05:01.491426   726 net.cpp:425] inception_4a/5x5 <- inception_4a/5x5_reduce
I0403 14:05:01.491447   726 net.cpp:399] inception_4a/5x5 -> inception_4a/5x5
I0403 14:05:01.492578   726 net.cpp:141] Setting up inception_4a/5x5
I0403 14:05:01.492606   726 net.cpp:148] Top shape: 24 48 14 14 (225792)
I0403 14:05:01.492621   726 net.cpp:156] Memory required for data: 874568736
I0403 14:05:01.492640   726 layer_factory.hpp:77] Creating layer inception_4a/relu_5x5
I0403 14:05:01.492657   726 net.cpp:91] Creating Layer inception_4a/relu_5x5
I0403 14:05:01.492673   726 net.cpp:425] inception_4a/relu_5x5 <- inception_4a/5x5
I0403 14:05:01.492692   726 net.cpp:386] inception_4a/relu_5x5 -> inception_4a/5x5 (in-place)
I0403 14:05:01.492871   726 net.cpp:141] Setting up inception_4a/relu_5x5
I0403 14:05:01.492897   726 net.cpp:148] Top shape: 24 48 14 14 (225792)
I0403 14:05:01.492910   726 net.cpp:156] Memory required for data: 875471904
I0403 14:05:01.492925   726 layer_factory.hpp:77] Creating layer inception_4a/pool
I0403 14:05:01.492944   726 net.cpp:91] Creating Layer inception_4a/pool
I0403 14:05:01.492960   726 net.cpp:425] inception_4a/pool <- pool3/3x3_s2_pool3/3x3_s2_0_split_3
I0403 14:05:01.492979   726 net.cpp:399] inception_4a/pool -> inception_4a/pool
I0403 14:05:01.493041   726 net.cpp:141] Setting up inception_4a/pool
I0403 14:05:01.493063   726 net.cpp:148] Top shape: 24 480 14 14 (2257920)
I0403 14:05:01.493078   726 net.cpp:156] Memory required for data: 884503584
I0403 14:05:01.493093   726 layer_factory.hpp:77] Creating layer inception_4a/pool_proj
I0403 14:05:01.493114   726 net.cpp:91] Creating Layer inception_4a/pool_proj
I0403 14:05:01.493132   726 net.cpp:425] inception_4a/pool_proj <- inception_4a/pool
I0403 14:05:01.493152   726 net.cpp:399] inception_4a/pool_proj -> inception_4a/pool_proj
I0403 14:05:01.494369   726 net.cpp:141] Setting up inception_4a/pool_proj
I0403 14:05:01.494396   726 net.cpp:148] Top shape: 24 64 14 14 (301056)
I0403 14:05:01.494426   726 net.cpp:156] Memory required for data: 885707808
I0403 14:05:01.494446   726 layer_factory.hpp:77] Creating layer inception_4a/relu_pool_proj
I0403 14:05:01.494467   726 net.cpp:91] Creating Layer inception_4a/relu_pool_proj
I0403 14:05:01.494483   726 net.cpp:425] inception_4a/relu_pool_proj <- inception_4a/pool_proj
I0403 14:05:01.494500   726 net.cpp:386] inception_4a/relu_pool_proj -> inception_4a/pool_proj (in-place)
I0403 14:05:01.494786   726 net.cpp:141] Setting up inception_4a/relu_pool_proj
I0403 14:05:01.494812   726 net.cpp:148] Top shape: 24 64 14 14 (301056)
I0403 14:05:01.494827   726 net.cpp:156] Memory required for data: 886912032
I0403 14:05:01.494843   726 layer_factory.hpp:77] Creating layer inception_4a/output
I0403 14:05:01.494860   726 net.cpp:91] Creating Layer inception_4a/output
I0403 14:05:01.494875   726 net.cpp:425] inception_4a/output <- inception_4a/1x1
I0403 14:05:01.494892   726 net.cpp:425] inception_4a/output <- inception_4a/3x3
I0403 14:05:01.494907   726 net.cpp:425] inception_4a/output <- inception_4a/5x5
I0403 14:05:01.494923   726 net.cpp:425] inception_4a/output <- inception_4a/pool_proj
I0403 14:05:01.494943   726 net.cpp:399] inception_4a/output -> inception_4a/output
I0403 14:05:01.494990   726 net.cpp:141] Setting up inception_4a/output
I0403 14:05:01.495013   726 net.cpp:148] Top shape: 24 512 14 14 (2408448)
I0403 14:05:01.495028   726 net.cpp:156] Memory required for data: 896545824
I0403 14:05:01.495043   726 layer_factory.hpp:77] Creating layer inception_4a/output_inception_4a/output_0_split
I0403 14:05:01.495061   726 net.cpp:91] Creating Layer inception_4a/output_inception_4a/output_0_split
I0403 14:05:01.495076   726 net.cpp:425] inception_4a/output_inception_4a/output_0_split <- inception_4a/output
I0403 14:05:01.495095   726 net.cpp:399] inception_4a/output_inception_4a/output_0_split -> inception_4a/output_inception_4a/output_0_split_0
I0403 14:05:01.495116   726 net.cpp:399] inception_4a/output_inception_4a/output_0_split -> inception_4a/output_inception_4a/output_0_split_1
I0403 14:05:01.495136   726 net.cpp:399] inception_4a/output_inception_4a/output_0_split -> inception_4a/output_inception_4a/output_0_split_2
I0403 14:05:01.495157   726 net.cpp:399] inception_4a/output_inception_4a/output_0_split -> inception_4a/output_inception_4a/output_0_split_3
I0403 14:05:01.495177   726 net.cpp:399] inception_4a/output_inception_4a/output_0_split -> inception_4a/output_inception_4a/output_0_split_4
I0403 14:05:01.495275   726 net.cpp:141] Setting up inception_4a/output_inception_4a/output_0_split
I0403 14:05:01.495301   726 net.cpp:148] Top shape: 24 512 14 14 (2408448)
I0403 14:05:01.495316   726 net.cpp:148] Top shape: 24 512 14 14 (2408448)
I0403 14:05:01.495332   726 net.cpp:148] Top shape: 24 512 14 14 (2408448)
I0403 14:05:01.495348   726 net.cpp:148] Top shape: 24 512 14 14 (2408448)
I0403 14:05:01.495363   726 net.cpp:148] Top shape: 24 512 14 14 (2408448)
I0403 14:05:01.495378   726 net.cpp:156] Memory required for data: 944714784
I0403 14:05:01.495393   726 layer_factory.hpp:77] Creating layer loss1/ave_pool
I0403 14:05:01.495410   726 net.cpp:91] Creating Layer loss1/ave_pool
I0403 14:05:01.495426   726 net.cpp:425] loss1/ave_pool <- inception_4a/output_inception_4a/output_0_split_0
I0403 14:05:01.495446   726 net.cpp:399] loss1/ave_pool -> loss1/ave_pool
I0403 14:05:01.495657   726 net.cpp:141] Setting up loss1/ave_pool
I0403 14:05:01.495683   726 net.cpp:148] Top shape: 24 512 4 4 (196608)
I0403 14:05:01.495698   726 net.cpp:156] Memory required for data: 945501216
I0403 14:05:01.495713   726 layer_factory.hpp:77] Creating layer loss1/conv
I0403 14:05:01.495735   726 net.cpp:91] Creating Layer loss1/conv
I0403 14:05:01.495753   726 net.cpp:425] loss1/conv <- loss1/ave_pool
I0403 14:05:01.495774   726 net.cpp:399] loss1/conv -> loss1/conv
I0403 14:05:01.497249   726 net.cpp:141] Setting up loss1/conv
I0403 14:05:01.497280   726 net.cpp:148] Top shape: 24 128 4 4 (49152)
I0403 14:05:01.497311   726 net.cpp:156] Memory required for data: 945697824
I0403 14:05:01.497333   726 layer_factory.hpp:77] Creating layer loss1/relu_conv
I0403 14:05:01.497350   726 net.cpp:91] Creating Layer loss1/relu_conv
I0403 14:05:01.497367   726 net.cpp:425] loss1/relu_conv <- loss1/conv
I0403 14:05:01.497386   726 net.cpp:386] loss1/relu_conv -> loss1/conv (in-place)
I0403 14:05:01.497684   726 net.cpp:141] Setting up loss1/relu_conv
I0403 14:05:01.497714   726 net.cpp:148] Top shape: 24 128 4 4 (49152)
I0403 14:05:01.497731   726 net.cpp:156] Memory required for data: 945894432
I0403 14:05:01.497747   726 layer_factory.hpp:77] Creating layer loss1/fc
I0403 14:05:01.497784   726 net.cpp:91] Creating Layer loss1/fc
I0403 14:05:01.497802   726 net.cpp:425] loss1/fc <- loss1/conv
I0403 14:05:01.497836   726 net.cpp:399] loss1/fc -> loss1/fc
I0403 14:05:01.516281   726 net.cpp:141] Setting up loss1/fc
I0403 14:05:01.516345   726 net.cpp:148] Top shape: 24 1024 (24576)
I0403 14:05:01.516361   726 net.cpp:156] Memory required for data: 945992736
I0403 14:05:01.516382   726 layer_factory.hpp:77] Creating layer loss1/relu_fc
I0403 14:05:01.516405   726 net.cpp:91] Creating Layer loss1/relu_fc
I0403 14:05:01.516424   726 net.cpp:425] loss1/relu_fc <- loss1/fc
I0403 14:05:01.516443   726 net.cpp:386] loss1/relu_fc -> loss1/fc (in-place)
I0403 14:05:01.516670   726 net.cpp:141] Setting up loss1/relu_fc
I0403 14:05:01.516698   726 net.cpp:148] Top shape: 24 1024 (24576)
I0403 14:05:01.516713   726 net.cpp:156] Memory required for data: 946091040
I0403 14:05:01.516729   726 layer_factory.hpp:77] Creating layer loss1/drop_fc
I0403 14:05:01.516758   726 net.cpp:91] Creating Layer loss1/drop_fc
I0403 14:05:01.516775   726 net.cpp:425] loss1/drop_fc <- loss1/fc
I0403 14:05:01.516793   726 net.cpp:386] loss1/drop_fc -> loss1/fc (in-place)
I0403 14:05:01.516847   726 net.cpp:141] Setting up loss1/drop_fc
I0403 14:05:01.516870   726 net.cpp:148] Top shape: 24 1024 (24576)
I0403 14:05:01.516885   726 net.cpp:156] Memory required for data: 946189344
I0403 14:05:01.516899   726 layer_factory.hpp:77] Creating layer loss1/classifier_plantvillage
I0403 14:05:01.516922   726 net.cpp:91] Creating Layer loss1/classifier_plantvillage
I0403 14:05:01.516939   726 net.cpp:425] loss1/classifier_plantvillage <- loss1/fc
I0403 14:05:01.516958   726 net.cpp:399] loss1/classifier_plantvillage -> loss1/classifier_plantvillage
I0403 14:05:01.517882   726 net.cpp:141] Setting up loss1/classifier_plantvillage
I0403 14:05:01.517912   726 net.cpp:148] Top shape: 24 38 (912)
I0403 14:05:01.517928   726 net.cpp:156] Memory required for data: 946192992
I0403 14:05:01.517946   726 layer_factory.hpp:77] Creating layer loss1/classifier_plantvillage_loss1/classifier_plantvillage_0_split
I0403 14:05:01.517964   726 net.cpp:91] Creating Layer loss1/classifier_plantvillage_loss1/classifier_plantvillage_0_split
I0403 14:05:01.517981   726 net.cpp:425] loss1/classifier_plantvillage_loss1/classifier_plantvillage_0_split <- loss1/classifier_plantvillage
I0403 14:05:01.517997   726 net.cpp:399] loss1/classifier_plantvillage_loss1/classifier_plantvillage_0_split -> loss1/classifier_plantvillage_loss1/classifier_plantvillage_0_split_0
I0403 14:05:01.518018   726 net.cpp:399] loss1/classifier_plantvillage_loss1/classifier_plantvillage_0_split -> loss1/classifier_plantvillage_loss1/classifier_plantvillage_0_split_1
I0403 14:05:01.518038   726 net.cpp:399] loss1/classifier_plantvillage_loss1/classifier_plantvillage_0_split -> loss1/classifier_plantvillage_loss1/classifier_plantvillage_0_split_2
I0403 14:05:01.518103   726 net.cpp:141] Setting up loss1/classifier_plantvillage_loss1/classifier_plantvillage_0_split
I0403 14:05:01.518126   726 net.cpp:148] Top shape: 24 38 (912)
I0403 14:05:01.518142   726 net.cpp:148] Top shape: 24 38 (912)
I0403 14:05:01.518158   726 net.cpp:148] Top shape: 24 38 (912)
I0403 14:05:01.518172   726 net.cpp:156] Memory required for data: 946203936
I0403 14:05:01.518187   726 layer_factory.hpp:77] Creating layer inception_4b/1x1
I0403 14:05:01.518211   726 net.cpp:91] Creating Layer inception_4b/1x1
I0403 14:05:01.518268   726 net.cpp:425] inception_4b/1x1 <- inception_4a/output_inception_4a/output_0_split_1
I0403 14:05:01.518291   726 net.cpp:399] inception_4b/1x1 -> inception_4b/1x1
I0403 14:05:01.519994   726 net.cpp:141] Setting up inception_4b/1x1
I0403 14:05:01.520025   726 net.cpp:148] Top shape: 24 160 14 14 (752640)
I0403 14:05:01.520041   726 net.cpp:156] Memory required for data: 949214496
I0403 14:05:01.520059   726 layer_factory.hpp:77] Creating layer inception_4b/relu_1x1
I0403 14:05:01.520077   726 net.cpp:91] Creating Layer inception_4b/relu_1x1
I0403 14:05:01.520093   726 net.cpp:425] inception_4b/relu_1x1 <- inception_4b/1x1
I0403 14:05:01.520112   726 net.cpp:386] inception_4b/relu_1x1 -> inception_4b/1x1 (in-place)
I0403 14:05:01.520298   726 net.cpp:141] Setting up inception_4b/relu_1x1
I0403 14:05:01.520323   726 net.cpp:148] Top shape: 24 160 14 14 (752640)
I0403 14:05:01.520339   726 net.cpp:156] Memory required for data: 952225056
I0403 14:05:01.520354   726 layer_factory.hpp:77] Creating layer inception_4b/3x3_reduce
I0403 14:05:01.520375   726 net.cpp:91] Creating Layer inception_4b/3x3_reduce
I0403 14:05:01.520393   726 net.cpp:425] inception_4b/3x3_reduce <- inception_4a/output_inception_4a/output_0_split_2
I0403 14:05:01.520414   726 net.cpp:399] inception_4b/3x3_reduce -> inception_4b/3x3_reduce
I0403 14:05:01.521773   726 net.cpp:141] Setting up inception_4b/3x3_reduce
I0403 14:05:01.521800   726 net.cpp:148] Top shape: 24 112 14 14 (526848)
I0403 14:05:01.521816   726 net.cpp:156] Memory required for data: 954332448
I0403 14:05:01.521833   726 layer_factory.hpp:77] Creating layer inception_4b/relu_3x3_reduce
I0403 14:05:01.521854   726 net.cpp:91] Creating Layer inception_4b/relu_3x3_reduce
I0403 14:05:01.521870   726 net.cpp:425] inception_4b/relu_3x3_reduce <- inception_4b/3x3_reduce
I0403 14:05:01.521890   726 net.cpp:386] inception_4b/relu_3x3_reduce -> inception_4b/3x3_reduce (in-place)
I0403 14:05:01.522169   726 net.cpp:141] Setting up inception_4b/relu_3x3_reduce
I0403 14:05:01.522195   726 net.cpp:148] Top shape: 24 112 14 14 (526848)
I0403 14:05:01.522214   726 net.cpp:156] Memory required for data: 956439840
I0403 14:05:01.522230   726 layer_factory.hpp:77] Creating layer inception_4b/3x3
I0403 14:05:01.522253   726 net.cpp:91] Creating Layer inception_4b/3x3
I0403 14:05:01.522270   726 net.cpp:425] inception_4b/3x3 <- inception_4b/3x3_reduce
I0403 14:05:01.522294   726 net.cpp:399] inception_4b/3x3 -> inception_4b/3x3
I0403 14:05:01.525311   726 net.cpp:141] Setting up inception_4b/3x3
I0403 14:05:01.525339   726 net.cpp:148] Top shape: 24 224 14 14 (1053696)
I0403 14:05:01.525355   726 net.cpp:156] Memory required for data: 960654624
I0403 14:05:01.525373   726 layer_factory.hpp:77] Creating layer inception_4b/relu_3x3
I0403 14:05:01.525393   726 net.cpp:91] Creating Layer inception_4b/relu_3x3
I0403 14:05:01.525411   726 net.cpp:425] inception_4b/relu_3x3 <- inception_4b/3x3
I0403 14:05:01.525429   726 net.cpp:386] inception_4b/relu_3x3 -> inception_4b/3x3 (in-place)
I0403 14:05:01.525612   726 net.cpp:141] Setting up inception_4b/relu_3x3
I0403 14:05:01.525640   726 net.cpp:148] Top shape: 24 224 14 14 (1053696)
I0403 14:05:01.525655   726 net.cpp:156] Memory required for data: 964869408
I0403 14:05:01.525670   726 layer_factory.hpp:77] Creating layer inception_4b/5x5_reduce
I0403 14:05:01.525692   726 net.cpp:91] Creating Layer inception_4b/5x5_reduce
I0403 14:05:01.525709   726 net.cpp:425] inception_4b/5x5_reduce <- inception_4a/output_inception_4a/output_0_split_3
I0403 14:05:01.525729   726 net.cpp:399] inception_4b/5x5_reduce -> inception_4b/5x5_reduce
I0403 14:05:01.526814   726 net.cpp:141] Setting up inception_4b/5x5_reduce
I0403 14:05:01.526844   726 net.cpp:148] Top shape: 24 24 14 14 (112896)
I0403 14:05:01.526861   726 net.cpp:156] Memory required for data: 965320992
I0403 14:05:01.526880   726 layer_factory.hpp:77] Creating layer inception_4b/relu_5x5_reduce
I0403 14:05:01.526898   726 net.cpp:91] Creating Layer inception_4b/relu_5x5_reduce
I0403 14:05:01.526928   726 net.cpp:425] inception_4b/relu_5x5_reduce <- inception_4b/5x5_reduce
I0403 14:05:01.526949   726 net.cpp:386] inception_4b/relu_5x5_reduce -> inception_4b/5x5_reduce (in-place)
I0403 14:05:01.527132   726 net.cpp:141] Setting up inception_4b/relu_5x5_reduce
I0403 14:05:01.527158   726 net.cpp:148] Top shape: 24 24 14 14 (112896)
I0403 14:05:01.527173   726 net.cpp:156] Memory required for data: 965772576
I0403 14:05:01.527187   726 layer_factory.hpp:77] Creating layer inception_4b/5x5
I0403 14:05:01.527215   726 net.cpp:91] Creating Layer inception_4b/5x5
I0403 14:05:01.527233   726 net.cpp:425] inception_4b/5x5 <- inception_4b/5x5_reduce
I0403 14:05:01.527254   726 net.cpp:399] inception_4b/5x5 -> inception_4b/5x5
I0403 14:05:01.528502   726 net.cpp:141] Setting up inception_4b/5x5
I0403 14:05:01.528544   726 net.cpp:148] Top shape: 24 64 14 14 (301056)
I0403 14:05:01.528560   726 net.cpp:156] Memory required for data: 966976800
I0403 14:05:01.528579   726 layer_factory.hpp:77] Creating layer inception_4b/relu_5x5
I0403 14:05:01.528597   726 net.cpp:91] Creating Layer inception_4b/relu_5x5
I0403 14:05:01.528614   726 net.cpp:425] inception_4b/relu_5x5 <- inception_4b/5x5
I0403 14:05:01.528631   726 net.cpp:386] inception_4b/relu_5x5 -> inception_4b/5x5 (in-place)
I0403 14:05:01.528915   726 net.cpp:141] Setting up inception_4b/relu_5x5
I0403 14:05:01.528944   726 net.cpp:148] Top shape: 24 64 14 14 (301056)
I0403 14:05:01.528960   726 net.cpp:156] Memory required for data: 968181024
I0403 14:05:01.528975   726 layer_factory.hpp:77] Creating layer inception_4b/pool
I0403 14:05:01.528995   726 net.cpp:91] Creating Layer inception_4b/pool
I0403 14:05:01.529011   726 net.cpp:425] inception_4b/pool <- inception_4a/output_inception_4a/output_0_split_4
I0403 14:05:01.529033   726 net.cpp:399] inception_4b/pool -> inception_4b/pool
I0403 14:05:01.529099   726 net.cpp:141] Setting up inception_4b/pool
I0403 14:05:01.529122   726 net.cpp:148] Top shape: 24 512 14 14 (2408448)
I0403 14:05:01.529137   726 net.cpp:156] Memory required for data: 977814816
I0403 14:05:01.529151   726 layer_factory.hpp:77] Creating layer inception_4b/pool_proj
I0403 14:05:01.529173   726 net.cpp:91] Creating Layer inception_4b/pool_proj
I0403 14:05:01.529191   726 net.cpp:425] inception_4b/pool_proj <- inception_4b/pool
I0403 14:05:01.529217   726 net.cpp:399] inception_4b/pool_proj -> inception_4b/pool_proj
I0403 14:05:01.530443   726 net.cpp:141] Setting up inception_4b/pool_proj
I0403 14:05:01.530472   726 net.cpp:148] Top shape: 24 64 14 14 (301056)
I0403 14:05:01.530488   726 net.cpp:156] Memory required for data: 979019040
I0403 14:05:01.530519   726 layer_factory.hpp:77] Creating layer inception_4b/relu_pool_proj
I0403 14:05:01.530537   726 net.cpp:91] Creating Layer inception_4b/relu_pool_proj
I0403 14:05:01.530555   726 net.cpp:425] inception_4b/relu_pool_proj <- inception_4b/pool_proj
I0403 14:05:01.530575   726 net.cpp:386] inception_4b/relu_pool_proj -> inception_4b/pool_proj (in-place)
I0403 14:05:01.530755   726 net.cpp:141] Setting up inception_4b/relu_pool_proj
I0403 14:05:01.530781   726 net.cpp:148] Top shape: 24 64 14 14 (301056)
I0403 14:05:01.530797   726 net.cpp:156] Memory required for data: 980223264
I0403 14:05:01.530812   726 layer_factory.hpp:77] Creating layer inception_4b/output
I0403 14:05:01.530829   726 net.cpp:91] Creating Layer inception_4b/output
I0403 14:05:01.530846   726 net.cpp:425] inception_4b/output <- inception_4b/1x1
I0403 14:05:01.530864   726 net.cpp:425] inception_4b/output <- inception_4b/3x3
I0403 14:05:01.530882   726 net.cpp:425] inception_4b/output <- inception_4b/5x5
I0403 14:05:01.530899   726 net.cpp:425] inception_4b/output <- inception_4b/pool_proj
I0403 14:05:01.530915   726 net.cpp:399] inception_4b/output -> inception_4b/output
I0403 14:05:01.530961   726 net.cpp:141] Setting up inception_4b/output
I0403 14:05:01.530987   726 net.cpp:148] Top shape: 24 512 14 14 (2408448)
I0403 14:05:01.531002   726 net.cpp:156] Memory required for data: 989857056
I0403 14:05:01.531029   726 layer_factory.hpp:77] Creating layer inception_4b/output_inception_4b/output_0_split
I0403 14:05:01.531049   726 net.cpp:91] Creating Layer inception_4b/output_inception_4b/output_0_split
I0403 14:05:01.531064   726 net.cpp:425] inception_4b/output_inception_4b/output_0_split <- inception_4b/output
I0403 14:05:01.531085   726 net.cpp:399] inception_4b/output_inception_4b/output_0_split -> inception_4b/output_inception_4b/output_0_split_0
I0403 14:05:01.531106   726 net.cpp:399] inception_4b/output_inception_4b/output_0_split -> inception_4b/output_inception_4b/output_0_split_1
I0403 14:05:01.531126   726 net.cpp:399] inception_4b/output_inception_4b/output_0_split -> inception_4b/output_inception_4b/output_0_split_2
I0403 14:05:01.531147   726 net.cpp:399] inception_4b/output_inception_4b/output_0_split -> inception_4b/output_inception_4b/output_0_split_3
I0403 14:05:01.531234   726 net.cpp:141] Setting up inception_4b/output_inception_4b/output_0_split
I0403 14:05:01.531260   726 net.cpp:148] Top shape: 24 512 14 14 (2408448)
I0403 14:05:01.531277   726 net.cpp:148] Top shape: 24 512 14 14 (2408448)
I0403 14:05:01.531293   726 net.cpp:148] Top shape: 24 512 14 14 (2408448)
I0403 14:05:01.531309   726 net.cpp:148] Top shape: 24 512 14 14 (2408448)
I0403 14:05:01.531323   726 net.cpp:156] Memory required for data: 1028392224
I0403 14:05:01.531337   726 layer_factory.hpp:77] Creating layer inception_4c/1x1
I0403 14:05:01.531359   726 net.cpp:91] Creating Layer inception_4c/1x1
I0403 14:05:01.531378   726 net.cpp:425] inception_4c/1x1 <- inception_4b/output_inception_4b/output_0_split_0
I0403 14:05:01.531396   726 net.cpp:399] inception_4c/1x1 -> inception_4c/1x1
I0403 14:05:01.532832   726 net.cpp:141] Setting up inception_4c/1x1
I0403 14:05:01.532860   726 net.cpp:148] Top shape: 24 128 14 14 (602112)
I0403 14:05:01.532876   726 net.cpp:156] Memory required for data: 1030800672
I0403 14:05:01.532894   726 layer_factory.hpp:77] Creating layer inception_4c/relu_1x1
I0403 14:05:01.532914   726 net.cpp:91] Creating Layer inception_4c/relu_1x1
I0403 14:05:01.532932   726 net.cpp:425] inception_4c/relu_1x1 <- inception_4c/1x1
I0403 14:05:01.532949   726 net.cpp:386] inception_4c/relu_1x1 -> inception_4c/1x1 (in-place)
I0403 14:05:01.533133   726 net.cpp:141] Setting up inception_4c/relu_1x1
I0403 14:05:01.533157   726 net.cpp:148] Top shape: 24 128 14 14 (602112)
I0403 14:05:01.533172   726 net.cpp:156] Memory required for data: 1033209120
I0403 14:05:01.533186   726 layer_factory.hpp:77] Creating layer inception_4c/3x3_reduce
I0403 14:05:01.533233   726 net.cpp:91] Creating Layer inception_4c/3x3_reduce
I0403 14:05:01.533255   726 net.cpp:425] inception_4c/3x3_reduce <- inception_4b/output_inception_4b/output_0_split_1
I0403 14:05:01.533275   726 net.cpp:399] inception_4c/3x3_reduce -> inception_4c/3x3_reduce
I0403 14:05:01.535241   726 net.cpp:141] Setting up inception_4c/3x3_reduce
I0403 14:05:01.535272   726 net.cpp:148] Top shape: 24 128 14 14 (602112)
I0403 14:05:01.535289   726 net.cpp:156] Memory required for data: 1035617568
I0403 14:05:01.535308   726 layer_factory.hpp:77] Creating layer inception_4c/relu_3x3_reduce
I0403 14:05:01.535326   726 net.cpp:91] Creating Layer inception_4c/relu_3x3_reduce
I0403 14:05:01.535342   726 net.cpp:425] inception_4c/relu_3x3_reduce <- inception_4c/3x3_reduce
I0403 14:05:01.535363   726 net.cpp:386] inception_4c/relu_3x3_reduce -> inception_4c/3x3_reduce (in-place)
I0403 14:05:01.535651   726 net.cpp:141] Setting up inception_4c/relu_3x3_reduce
I0403 14:05:01.535681   726 net.cpp:148] Top shape: 24 128 14 14 (602112)
I0403 14:05:01.535696   726 net.cpp:156] Memory required for data: 1038026016
I0403 14:05:01.535712   726 layer_factory.hpp:77] Creating layer inception_4c/3x3
I0403 14:05:01.535737   726 net.cpp:91] Creating Layer inception_4c/3x3
I0403 14:05:01.535753   726 net.cpp:425] inception_4c/3x3 <- inception_4c/3x3_reduce
I0403 14:05:01.535773   726 net.cpp:399] inception_4c/3x3 -> inception_4c/3x3
I0403 14:05:01.539525   726 net.cpp:141] Setting up inception_4c/3x3
I0403 14:05:01.539569   726 net.cpp:148] Top shape: 24 256 14 14 (1204224)
I0403 14:05:01.539585   726 net.cpp:156] Memory required for data: 1042842912
I0403 14:05:01.539619   726 layer_factory.hpp:77] Creating layer inception_4c/relu_3x3
I0403 14:05:01.539640   726 net.cpp:91] Creating Layer inception_4c/relu_3x3
I0403 14:05:01.539656   726 net.cpp:425] inception_4c/relu_3x3 <- inception_4c/3x3
I0403 14:05:01.539676   726 net.cpp:386] inception_4c/relu_3x3 -> inception_4c/3x3 (in-place)
I0403 14:05:01.539858   726 net.cpp:141] Setting up inception_4c/relu_3x3
I0403 14:05:01.539887   726 net.cpp:148] Top shape: 24 256 14 14 (1204224)
I0403 14:05:01.539903   726 net.cpp:156] Memory required for data: 1047659808
I0403 14:05:01.539918   726 layer_factory.hpp:77] Creating layer inception_4c/5x5_reduce
I0403 14:05:01.539942   726 net.cpp:91] Creating Layer inception_4c/5x5_reduce
I0403 14:05:01.539961   726 net.cpp:425] inception_4c/5x5_reduce <- inception_4b/output_inception_4b/output_0_split_2
I0403 14:05:01.539983   726 net.cpp:399] inception_4c/5x5_reduce -> inception_4c/5x5_reduce
I0403 14:05:01.541085   726 net.cpp:141] Setting up inception_4c/5x5_reduce
I0403 14:05:01.541113   726 net.cpp:148] Top shape: 24 24 14 14 (112896)
I0403 14:05:01.541129   726 net.cpp:156] Memory required for data: 1048111392
I0403 14:05:01.541146   726 layer_factory.hpp:77] Creating layer inception_4c/relu_5x5_reduce
I0403 14:05:01.541164   726 net.cpp:91] Creating Layer inception_4c/relu_5x5_reduce
I0403 14:05:01.541182   726 net.cpp:425] inception_4c/relu_5x5_reduce <- inception_4c/5x5_reduce
I0403 14:05:01.541200   726 net.cpp:386] inception_4c/relu_5x5_reduce -> inception_4c/5x5_reduce (in-place)
I0403 14:05:01.541385   726 net.cpp:141] Setting up inception_4c/relu_5x5_reduce
I0403 14:05:01.541410   726 net.cpp:148] Top shape: 24 24 14 14 (112896)
I0403 14:05:01.541424   726 net.cpp:156] Memory required for data: 1048562976
I0403 14:05:01.541440   726 layer_factory.hpp:77] Creating layer inception_4c/5x5
I0403 14:05:01.541461   726 net.cpp:91] Creating Layer inception_4c/5x5
I0403 14:05:01.541479   726 net.cpp:425] inception_4c/5x5 <- inception_4c/5x5_reduce
I0403 14:05:01.541499   726 net.cpp:399] inception_4c/5x5 -> inception_4c/5x5
I0403 14:05:01.542774   726 net.cpp:141] Setting up inception_4c/5x5
I0403 14:05:01.542801   726 net.cpp:148] Top shape: 24 64 14 14 (301056)
I0403 14:05:01.542816   726 net.cpp:156] Memory required for data: 1049767200
I0403 14:05:01.542834   726 layer_factory.hpp:77] Creating layer inception_4c/relu_5x5
I0403 14:05:01.542855   726 net.cpp:91] Creating Layer inception_4c/relu_5x5
I0403 14:05:01.542870   726 net.cpp:425] inception_4c/relu_5x5 <- inception_4c/5x5
I0403 14:05:01.542887   726 net.cpp:386] inception_4c/relu_5x5 -> inception_4c/5x5 (in-place)
I0403 14:05:01.543164   726 net.cpp:141] Setting up inception_4c/relu_5x5
I0403 14:05:01.543190   726 net.cpp:148] Top shape: 24 64 14 14 (301056)
I0403 14:05:01.543229   726 net.cpp:156] Memory required for data: 1050971424
I0403 14:05:01.543247   726 layer_factory.hpp:77] Creating layer inception_4c/pool
I0403 14:05:01.543267   726 net.cpp:91] Creating Layer inception_4c/pool
I0403 14:05:01.543284   726 net.cpp:425] inception_4c/pool <- inception_4b/output_inception_4b/output_0_split_3
I0403 14:05:01.543303   726 net.cpp:399] inception_4c/pool -> inception_4c/pool
I0403 14:05:01.543370   726 net.cpp:141] Setting up inception_4c/pool
I0403 14:05:01.543393   726 net.cpp:148] Top shape: 24 512 14 14 (2408448)
I0403 14:05:01.543407   726 net.cpp:156] Memory required for data: 1060605216
I0403 14:05:01.543422   726 layer_factory.hpp:77] Creating layer inception_4c/pool_proj
I0403 14:05:01.543447   726 net.cpp:91] Creating Layer inception_4c/pool_proj
I0403 14:05:01.543463   726 net.cpp:425] inception_4c/pool_proj <- inception_4c/pool
I0403 14:05:01.543483   726 net.cpp:399] inception_4c/pool_proj -> inception_4c/pool_proj
I0403 14:05:01.544692   726 net.cpp:141] Setting up inception_4c/pool_proj
I0403 14:05:01.544723   726 net.cpp:148] Top shape: 24 64 14 14 (301056)
I0403 14:05:01.544751   726 net.cpp:156] Memory required for data: 1061809440
I0403 14:05:01.544770   726 layer_factory.hpp:77] Creating layer inception_4c/relu_pool_proj
I0403 14:05:01.544790   726 net.cpp:91] Creating Layer inception_4c/relu_pool_proj
I0403 14:05:01.544806   726 net.cpp:425] inception_4c/relu_pool_proj <- inception_4c/pool_proj
I0403 14:05:01.544824   726 net.cpp:386] inception_4c/relu_pool_proj -> inception_4c/pool_proj (in-place)
I0403 14:05:01.545018   726 net.cpp:141] Setting up inception_4c/relu_pool_proj
I0403 14:05:01.545042   726 net.cpp:148] Top shape: 24 64 14 14 (301056)
I0403 14:05:01.545056   726 net.cpp:156] Memory required for data: 1063013664
I0403 14:05:01.545071   726 layer_factory.hpp:77] Creating layer inception_4c/output
I0403 14:05:01.545089   726 net.cpp:91] Creating Layer inception_4c/output
I0403 14:05:01.545104   726 net.cpp:425] inception_4c/output <- inception_4c/1x1
I0403 14:05:01.545120   726 net.cpp:425] inception_4c/output <- inception_4c/3x3
I0403 14:05:01.545138   726 net.cpp:425] inception_4c/output <- inception_4c/5x5
I0403 14:05:01.545155   726 net.cpp:425] inception_4c/output <- inception_4c/pool_proj
I0403 14:05:01.545171   726 net.cpp:399] inception_4c/output -> inception_4c/output
I0403 14:05:01.545218   726 net.cpp:141] Setting up inception_4c/output
I0403 14:05:01.545243   726 net.cpp:148] Top shape: 24 512 14 14 (2408448)
I0403 14:05:01.545259   726 net.cpp:156] Memory required for data: 1072647456
I0403 14:05:01.545274   726 layer_factory.hpp:77] Creating layer inception_4c/output_inception_4c/output_0_split
I0403 14:05:01.545290   726 net.cpp:91] Creating Layer inception_4c/output_inception_4c/output_0_split
I0403 14:05:01.545305   726 net.cpp:425] inception_4c/output_inception_4c/output_0_split <- inception_4c/output
I0403 14:05:01.545325   726 net.cpp:399] inception_4c/output_inception_4c/output_0_split -> inception_4c/output_inception_4c/output_0_split_0
I0403 14:05:01.545344   726 net.cpp:399] inception_4c/output_inception_4c/output_0_split -> inception_4c/output_inception_4c/output_0_split_1
I0403 14:05:01.545364   726 net.cpp:399] inception_4c/output_inception_4c/output_0_split -> inception_4c/output_inception_4c/output_0_split_2
I0403 14:05:01.545383   726 net.cpp:399] inception_4c/output_inception_4c/output_0_split -> inception_4c/output_inception_4c/output_0_split_3
I0403 14:05:01.545466   726 net.cpp:141] Setting up inception_4c/output_inception_4c/output_0_split
I0403 14:05:01.545491   726 net.cpp:148] Top shape: 24 512 14 14 (2408448)
I0403 14:05:01.545507   726 net.cpp:148] Top shape: 24 512 14 14 (2408448)
I0403 14:05:01.545523   726 net.cpp:148] Top shape: 24 512 14 14 (2408448)
I0403 14:05:01.545538   726 net.cpp:148] Top shape: 24 512 14 14 (2408448)
I0403 14:05:01.545552   726 net.cpp:156] Memory required for data: 1111182624
I0403 14:05:01.545565   726 layer_factory.hpp:77] Creating layer inception_4d/1x1
I0403 14:05:01.545584   726 net.cpp:91] Creating Layer inception_4d/1x1
I0403 14:05:01.545600   726 net.cpp:425] inception_4d/1x1 <- inception_4c/output_inception_4c/output_0_split_0
I0403 14:05:01.545621   726 net.cpp:399] inception_4d/1x1 -> inception_4d/1x1
I0403 14:05:01.546994   726 net.cpp:141] Setting up inception_4d/1x1
I0403 14:05:01.547021   726 net.cpp:148] Top shape: 24 112 14 14 (526848)
I0403 14:05:01.547036   726 net.cpp:156] Memory required for data: 1113290016
I0403 14:05:01.547055   726 layer_factory.hpp:77] Creating layer inception_4d/relu_1x1
I0403 14:05:01.547075   726 net.cpp:91] Creating Layer inception_4d/relu_1x1
I0403 14:05:01.547089   726 net.cpp:425] inception_4d/relu_1x1 <- inception_4d/1x1
I0403 14:05:01.547106   726 net.cpp:386] inception_4d/relu_1x1 -> inception_4d/1x1 (in-place)
I0403 14:05:01.547313   726 net.cpp:141] Setting up inception_4d/relu_1x1
I0403 14:05:01.547341   726 net.cpp:148] Top shape: 24 112 14 14 (526848)
I0403 14:05:01.547358   726 net.cpp:156] Memory required for data: 1115397408
I0403 14:05:01.547374   726 layer_factory.hpp:77] Creating layer inception_4d/3x3_reduce
I0403 14:05:01.547413   726 net.cpp:91] Creating Layer inception_4d/3x3_reduce
I0403 14:05:01.547432   726 net.cpp:425] inception_4d/3x3_reduce <- inception_4c/output_inception_4c/output_0_split_1
I0403 14:05:01.547452   726 net.cpp:399] inception_4d/3x3_reduce -> inception_4d/3x3_reduce
I0403 14:05:01.549010   726 net.cpp:141] Setting up inception_4d/3x3_reduce
I0403 14:05:01.549036   726 net.cpp:148] Top shape: 24 144 14 14 (677376)
I0403 14:05:01.549052   726 net.cpp:156] Memory required for data: 1118106912
I0403 14:05:01.549070   726 layer_factory.hpp:77] Creating layer inception_4d/relu_3x3_reduce
I0403 14:05:01.549090   726 net.cpp:91] Creating Layer inception_4d/relu_3x3_reduce
I0403 14:05:01.549108   726 net.cpp:425] inception_4d/relu_3x3_reduce <- inception_4d/3x3_reduce
I0403 14:05:01.549125   726 net.cpp:386] inception_4d/relu_3x3_reduce -> inception_4d/3x3_reduce (in-place)
I0403 14:05:01.549433   726 net.cpp:141] Setting up inception_4d/relu_3x3_reduce
I0403 14:05:01.549459   726 net.cpp:148] Top shape: 24 144 14 14 (677376)
I0403 14:05:01.549475   726 net.cpp:156] Memory required for data: 1120816416
I0403 14:05:01.549490   726 layer_factory.hpp:77] Creating layer inception_4d/3x3
I0403 14:05:01.549512   726 net.cpp:91] Creating Layer inception_4d/3x3
I0403 14:05:01.549530   726 net.cpp:425] inception_4d/3x3 <- inception_4d/3x3_reduce
I0403 14:05:01.549552   726 net.cpp:399] inception_4d/3x3 -> inception_4d/3x3
I0403 14:05:01.553937   726 net.cpp:141] Setting up inception_4d/3x3
I0403 14:05:01.553966   726 net.cpp:148] Top shape: 24 288 14 14 (1354752)
I0403 14:05:01.553982   726 net.cpp:156] Memory required for data: 1126235424
I0403 14:05:01.554000   726 layer_factory.hpp:77] Creating layer inception_4d/relu_3x3
I0403 14:05:01.554020   726 net.cpp:91] Creating Layer inception_4d/relu_3x3
I0403 14:05:01.554038   726 net.cpp:425] inception_4d/relu_3x3 <- inception_4d/3x3
I0403 14:05:01.554054   726 net.cpp:386] inception_4d/relu_3x3 -> inception_4d/3x3 (in-place)
I0403 14:05:01.554267   726 net.cpp:141] Setting up inception_4d/relu_3x3
I0403 14:05:01.554293   726 net.cpp:148] Top shape: 24 288 14 14 (1354752)
I0403 14:05:01.554308   726 net.cpp:156] Memory required for data: 1131654432
I0403 14:05:01.554323   726 layer_factory.hpp:77] Creating layer inception_4d/5x5_reduce
I0403 14:05:01.554347   726 net.cpp:91] Creating Layer inception_4d/5x5_reduce
I0403 14:05:01.554365   726 net.cpp:425] inception_4d/5x5_reduce <- inception_4c/output_inception_4c/output_0_split_2
I0403 14:05:01.554388   726 net.cpp:399] inception_4d/5x5_reduce -> inception_4d/5x5_reduce
I0403 14:05:01.555562   726 net.cpp:141] Setting up inception_4d/5x5_reduce
I0403 14:05:01.555591   726 net.cpp:148] Top shape: 24 32 14 14 (150528)
I0403 14:05:01.555608   726 net.cpp:156] Memory required for data: 1132256544
I0403 14:05:01.555639   726 layer_factory.hpp:77] Creating layer inception_4d/relu_5x5_reduce
I0403 14:05:01.555658   726 net.cpp:91] Creating Layer inception_4d/relu_5x5_reduce
I0403 14:05:01.555675   726 net.cpp:425] inception_4d/relu_5x5_reduce <- inception_4d/5x5_reduce
I0403 14:05:01.555693   726 net.cpp:386] inception_4d/relu_5x5_reduce -> inception_4d/5x5_reduce (in-place)
I0403 14:05:01.555891   726 net.cpp:141] Setting up inception_4d/relu_5x5_reduce
I0403 14:05:01.555919   726 net.cpp:148] Top shape: 24 32 14 14 (150528)
I0403 14:05:01.555935   726 net.cpp:156] Memory required for data: 1132858656
I0403 14:05:01.555963   726 layer_factory.hpp:77] Creating layer inception_4d/5x5
I0403 14:05:01.555984   726 net.cpp:91] Creating Layer inception_4d/5x5
I0403 14:05:01.556002   726 net.cpp:425] inception_4d/5x5 <- inception_4d/5x5_reduce
I0403 14:05:01.556021   726 net.cpp:399] inception_4d/5x5 -> inception_4d/5x5
I0403 14:05:01.557567   726 net.cpp:141] Setting up inception_4d/5x5
I0403 14:05:01.557595   726 net.cpp:148] Top shape: 24 64 14 14 (301056)
I0403 14:05:01.557610   726 net.cpp:156] Memory required for data: 1134062880
I0403 14:05:01.557629   726 layer_factory.hpp:77] Creating layer inception_4d/relu_5x5
I0403 14:05:01.557663   726 net.cpp:91] Creating Layer inception_4d/relu_5x5
I0403 14:05:01.557680   726 net.cpp:425] inception_4d/relu_5x5 <- inception_4d/5x5
I0403 14:05:01.557701   726 net.cpp:386] inception_4d/relu_5x5 -> inception_4d/5x5 (in-place)
I0403 14:05:01.558001   726 net.cpp:141] Setting up inception_4d/relu_5x5
I0403 14:05:01.558027   726 net.cpp:148] Top shape: 24 64 14 14 (301056)
I0403 14:05:01.558043   726 net.cpp:156] Memory required for data: 1135267104
I0403 14:05:01.558058   726 layer_factory.hpp:77] Creating layer inception_4d/pool
I0403 14:05:01.558076   726 net.cpp:91] Creating Layer inception_4d/pool
I0403 14:05:01.558094   726 net.cpp:425] inception_4d/pool <- inception_4c/output_inception_4c/output_0_split_3
I0403 14:05:01.558115   726 net.cpp:399] inception_4d/pool -> inception_4d/pool
I0403 14:05:01.558181   726 net.cpp:141] Setting up inception_4d/pool
I0403 14:05:01.558205   726 net.cpp:148] Top shape: 24 512 14 14 (2408448)
I0403 14:05:01.558226   726 net.cpp:156] Memory required for data: 1144900896
I0403 14:05:01.558241   726 layer_factory.hpp:77] Creating layer inception_4d/pool_proj
I0403 14:05:01.558264   726 net.cpp:91] Creating Layer inception_4d/pool_proj
I0403 14:05:01.558282   726 net.cpp:425] inception_4d/pool_proj <- inception_4d/pool
I0403 14:05:01.558301   726 net.cpp:399] inception_4d/pool_proj -> inception_4d/pool_proj
I0403 14:05:01.560094   726 net.cpp:141] Setting up inception_4d/pool_proj
I0403 14:05:01.560124   726 net.cpp:148] Top shape: 24 64 14 14 (301056)
I0403 14:05:01.560140   726 net.cpp:156] Memory required for data: 1146105120
I0403 14:05:01.560158   726 layer_factory.hpp:77] Creating layer inception_4d/relu_pool_proj
I0403 14:05:01.560178   726 net.cpp:91] Creating Layer inception_4d/relu_pool_proj
I0403 14:05:01.560195   726 net.cpp:425] inception_4d/relu_pool_proj <- inception_4d/pool_proj
I0403 14:05:01.560217   726 net.cpp:386] inception_4d/relu_pool_proj -> inception_4d/pool_proj (in-place)
I0403 14:05:01.560422   726 net.cpp:141] Setting up inception_4d/relu_pool_proj
I0403 14:05:01.560448   726 net.cpp:148] Top shape: 24 64 14 14 (301056)
I0403 14:05:01.560463   726 net.cpp:156] Memory required for data: 1147309344
I0403 14:05:01.560479   726 layer_factory.hpp:77] Creating layer inception_4d/output
I0403 14:05:01.560497   726 net.cpp:91] Creating Layer inception_4d/output
I0403 14:05:01.560513   726 net.cpp:425] inception_4d/output <- inception_4d/1x1
I0403 14:05:01.560530   726 net.cpp:425] inception_4d/output <- inception_4d/3x3
I0403 14:05:01.560547   726 net.cpp:425] inception_4d/output <- inception_4d/5x5
I0403 14:05:01.560564   726 net.cpp:425] inception_4d/output <- inception_4d/pool_proj
I0403 14:05:01.560596   726 net.cpp:399] inception_4d/output -> inception_4d/output
I0403 14:05:01.560644   726 net.cpp:141] Setting up inception_4d/output
I0403 14:05:01.560670   726 net.cpp:148] Top shape: 24 528 14 14 (2483712)
I0403 14:05:01.560685   726 net.cpp:156] Memory required for data: 1157244192
I0403 14:05:01.560701   726 layer_factory.hpp:77] Creating layer inception_4d/output_inception_4d/output_0_split
I0403 14:05:01.560719   726 net.cpp:91] Creating Layer inception_4d/output_inception_4d/output_0_split
I0403 14:05:01.560735   726 net.cpp:425] inception_4d/output_inception_4d/output_0_split <- inception_4d/output
I0403 14:05:01.560752   726 net.cpp:399] inception_4d/output_inception_4d/output_0_split -> inception_4d/output_inception_4d/output_0_split_0
I0403 14:05:01.560773   726 net.cpp:399] inception_4d/output_inception_4d/output_0_split -> inception_4d/output_inception_4d/output_0_split_1
I0403 14:05:01.560796   726 net.cpp:399] inception_4d/output_inception_4d/output_0_split -> inception_4d/output_inception_4d/output_0_split_2
I0403 14:05:01.560818   726 net.cpp:399] inception_4d/output_inception_4d/output_0_split -> inception_4d/output_inception_4d/output_0_split_3
I0403 14:05:01.560839   726 net.cpp:399] inception_4d/output_inception_4d/output_0_split -> inception_4d/output_inception_4d/output_0_split_4
I0403 14:05:01.560942   726 net.cpp:141] Setting up inception_4d/output_inception_4d/output_0_split
I0403 14:05:01.560978   726 net.cpp:148] Top shape: 24 528 14 14 (2483712)
I0403 14:05:01.560995   726 net.cpp:148] Top shape: 24 528 14 14 (2483712)
I0403 14:05:01.561012   726 net.cpp:148] Top shape: 24 528 14 14 (2483712)
I0403 14:05:01.561027   726 net.cpp:148] Top shape: 24 528 14 14 (2483712)
I0403 14:05:01.561043   726 net.cpp:148] Top shape: 24 528 14 14 (2483712)
I0403 14:05:01.561055   726 net.cpp:156] Memory required for data: 1206918432
I0403 14:05:01.561071   726 layer_factory.hpp:77] Creating layer loss2/ave_pool
I0403 14:05:01.561091   726 net.cpp:91] Creating Layer loss2/ave_pool
I0403 14:05:01.561108   726 net.cpp:425] loss2/ave_pool <- inception_4d/output_inception_4d/output_0_split_0
I0403 14:05:01.561127   726 net.cpp:399] loss2/ave_pool -> loss2/ave_pool
I0403 14:05:01.561442   726 net.cpp:141] Setting up loss2/ave_pool
I0403 14:05:01.561468   726 net.cpp:148] Top shape: 24 528 4 4 (202752)
I0403 14:05:01.561483   726 net.cpp:156] Memory required for data: 1207729440
I0403 14:05:01.561498   726 layer_factory.hpp:77] Creating layer loss2/conv
I0403 14:05:01.561522   726 net.cpp:91] Creating Layer loss2/conv
I0403 14:05:01.561540   726 net.cpp:425] loss2/conv <- loss2/ave_pool
I0403 14:05:01.561559   726 net.cpp:399] loss2/conv -> loss2/conv
I0403 14:05:01.563544   726 net.cpp:141] Setting up loss2/conv
I0403 14:05:01.563573   726 net.cpp:148] Top shape: 24 128 4 4 (49152)
I0403 14:05:01.563590   726 net.cpp:156] Memory required for data: 1207926048
I0403 14:05:01.563609   726 layer_factory.hpp:77] Creating layer loss2/relu_conv
I0403 14:05:01.563627   726 net.cpp:91] Creating Layer loss2/relu_conv
I0403 14:05:01.563655   726 net.cpp:425] loss2/relu_conv <- loss2/conv
I0403 14:05:01.563675   726 net.cpp:386] loss2/relu_conv -> loss2/conv (in-place)
I0403 14:05:01.563961   726 net.cpp:141] Setting up loss2/relu_conv
I0403 14:05:01.563988   726 net.cpp:148] Top shape: 24 128 4 4 (49152)
I0403 14:05:01.564003   726 net.cpp:156] Memory required for data: 1208122656
I0403 14:05:01.564018   726 layer_factory.hpp:77] Creating layer loss2/fc
I0403 14:05:01.564038   726 net.cpp:91] Creating Layer loss2/fc
I0403 14:05:01.564054   726 net.cpp:425] loss2/fc <- loss2/conv
I0403 14:05:01.564074   726 net.cpp:399] loss2/fc -> loss2/fc
I0403 14:05:01.581912   726 net.cpp:141] Setting up loss2/fc
I0403 14:05:01.581972   726 net.cpp:148] Top shape: 24 1024 (24576)
I0403 14:05:01.581989   726 net.cpp:156] Memory required for data: 1208220960
I0403 14:05:01.582008   726 layer_factory.hpp:77] Creating layer loss2/relu_fc
I0403 14:05:01.582028   726 net.cpp:91] Creating Layer loss2/relu_fc
I0403 14:05:01.582046   726 net.cpp:425] loss2/relu_fc <- loss2/fc
I0403 14:05:01.582064   726 net.cpp:386] loss2/relu_fc -> loss2/fc (in-place)
I0403 14:05:01.582414   726 net.cpp:141] Setting up loss2/relu_fc
I0403 14:05:01.582444   726 net.cpp:148] Top shape: 24 1024 (24576)
I0403 14:05:01.582459   726 net.cpp:156] Memory required for data: 1208319264
I0403 14:05:01.582474   726 layer_factory.hpp:77] Creating layer loss2/drop_fc
I0403 14:05:01.582492   726 net.cpp:91] Creating Layer loss2/drop_fc
I0403 14:05:01.582509   726 net.cpp:425] loss2/drop_fc <- loss2/fc
I0403 14:05:01.582525   726 net.cpp:386] loss2/drop_fc -> loss2/fc (in-place)
I0403 14:05:01.582577   726 net.cpp:141] Setting up loss2/drop_fc
I0403 14:05:01.582600   726 net.cpp:148] Top shape: 24 1024 (24576)
I0403 14:05:01.582614   726 net.cpp:156] Memory required for data: 1208417568
I0403 14:05:01.582629   726 layer_factory.hpp:77] Creating layer loss2/classifier_plantvillage
I0403 14:05:01.582650   726 net.cpp:91] Creating Layer loss2/classifier_plantvillage
I0403 14:05:01.582667   726 net.cpp:425] loss2/classifier_plantvillage <- loss2/fc
I0403 14:05:01.582686   726 net.cpp:399] loss2/classifier_plantvillage -> loss2/classifier_plantvillage
I0403 14:05:01.583099   726 net.cpp:141] Setting up loss2/classifier_plantvillage
I0403 14:05:01.583124   726 net.cpp:148] Top shape: 24 38 (912)
I0403 14:05:01.583164   726 net.cpp:156] Memory required for data: 1208421216
I0403 14:05:01.583184   726 layer_factory.hpp:77] Creating layer loss2/classifier_plantvillage_loss2/classifier_plantvillage_0_split
I0403 14:05:01.583201   726 net.cpp:91] Creating Layer loss2/classifier_plantvillage_loss2/classifier_plantvillage_0_split
I0403 14:05:01.583228   726 net.cpp:425] loss2/classifier_plantvillage_loss2/classifier_plantvillage_0_split <- loss2/classifier_plantvillage
I0403 14:05:01.583250   726 net.cpp:399] loss2/classifier_plantvillage_loss2/classifier_plantvillage_0_split -> loss2/classifier_plantvillage_loss2/classifier_plantvillage_0_split_0
I0403 14:05:01.583272   726 net.cpp:399] loss2/classifier_plantvillage_loss2/classifier_plantvillage_0_split -> loss2/classifier_plantvillage_loss2/classifier_plantvillage_0_split_1
I0403 14:05:01.583293   726 net.cpp:399] loss2/classifier_plantvillage_loss2/classifier_plantvillage_0_split -> loss2/classifier_plantvillage_loss2/classifier_plantvillage_0_split_2
I0403 14:05:01.583374   726 net.cpp:141] Setting up loss2/classifier_plantvillage_loss2/classifier_plantvillage_0_split
I0403 14:05:01.583397   726 net.cpp:148] Top shape: 24 38 (912)
I0403 14:05:01.583413   726 net.cpp:148] Top shape: 24 38 (912)
I0403 14:05:01.583428   726 net.cpp:148] Top shape: 24 38 (912)
I0403 14:05:01.583442   726 net.cpp:156] Memory required for data: 1208432160
I0403 14:05:01.583456   726 layer_factory.hpp:77] Creating layer inception_4e/1x1
I0403 14:05:01.583480   726 net.cpp:91] Creating Layer inception_4e/1x1
I0403 14:05:01.583498   726 net.cpp:425] inception_4e/1x1 <- inception_4d/output_inception_4d/output_0_split_1
I0403 14:05:01.583518   726 net.cpp:399] inception_4e/1x1 -> inception_4e/1x1
I0403 14:05:01.585429   726 net.cpp:141] Setting up inception_4e/1x1
I0403 14:05:01.585458   726 net.cpp:148] Top shape: 24 256 14 14 (1204224)
I0403 14:05:01.585474   726 net.cpp:156] Memory required for data: 1213249056
I0403 14:05:01.585503   726 layer_factory.hpp:77] Creating layer inception_4e/relu_1x1
I0403 14:05:01.585523   726 net.cpp:91] Creating Layer inception_4e/relu_1x1
I0403 14:05:01.585539   726 net.cpp:425] inception_4e/relu_1x1 <- inception_4e/1x1
I0403 14:05:01.585556   726 net.cpp:386] inception_4e/relu_1x1 -> inception_4e/1x1 (in-place)
I0403 14:05:01.585844   726 net.cpp:141] Setting up inception_4e/relu_1x1
I0403 14:05:01.585870   726 net.cpp:148] Top shape: 24 256 14 14 (1204224)
I0403 14:05:01.585886   726 net.cpp:156] Memory required for data: 1218065952
I0403 14:05:01.585901   726 layer_factory.hpp:77] Creating layer inception_4e/3x3_reduce
I0403 14:05:01.585922   726 net.cpp:91] Creating Layer inception_4e/3x3_reduce
I0403 14:05:01.585940   726 net.cpp:425] inception_4e/3x3_reduce <- inception_4d/output_inception_4d/output_0_split_2
I0403 14:05:01.585961   726 net.cpp:399] inception_4e/3x3_reduce -> inception_4e/3x3_reduce
I0403 14:05:01.588122   726 net.cpp:141] Setting up inception_4e/3x3_reduce
I0403 14:05:01.588151   726 net.cpp:148] Top shape: 24 160 14 14 (752640)
I0403 14:05:01.588166   726 net.cpp:156] Memory required for data: 1221076512
I0403 14:05:01.588186   726 layer_factory.hpp:77] Creating layer inception_4e/relu_3x3_reduce
I0403 14:05:01.588204   726 net.cpp:91] Creating Layer inception_4e/relu_3x3_reduce
I0403 14:05:01.588225   726 net.cpp:425] inception_4e/relu_3x3_reduce <- inception_4e/3x3_reduce
I0403 14:05:01.588258   726 net.cpp:386] inception_4e/relu_3x3_reduce -> inception_4e/3x3_reduce (in-place)
I0403 14:05:01.588440   726 net.cpp:141] Setting up inception_4e/relu_3x3_reduce
I0403 14:05:01.588464   726 net.cpp:148] Top shape: 24 160 14 14 (752640)
I0403 14:05:01.588479   726 net.cpp:156] Memory required for data: 1224087072
I0403 14:05:01.588493   726 layer_factory.hpp:77] Creating layer inception_4e/3x3
I0403 14:05:01.588515   726 net.cpp:91] Creating Layer inception_4e/3x3
I0403 14:05:01.588531   726 net.cpp:425] inception_4e/3x3 <- inception_4e/3x3_reduce
I0403 14:05:01.588552   726 net.cpp:399] inception_4e/3x3 -> inception_4e/3x3
I0403 14:05:01.593466   726 net.cpp:141] Setting up inception_4e/3x3
I0403 14:05:01.593507   726 net.cpp:148] Top shape: 24 320 14 14 (1505280)
I0403 14:05:01.593523   726 net.cpp:156] Memory required for data: 1230108192
I0403 14:05:01.593541   726 layer_factory.hpp:77] Creating layer inception_4e/relu_3x3
I0403 14:05:01.593561   726 net.cpp:91] Creating Layer inception_4e/relu_3x3
I0403 14:05:01.593578   726 net.cpp:425] inception_4e/relu_3x3 <- inception_4e/3x3
I0403 14:05:01.593595   726 net.cpp:386] inception_4e/relu_3x3 -> inception_4e/3x3 (in-place)
I0403 14:05:01.593888   726 net.cpp:141] Setting up inception_4e/relu_3x3
I0403 14:05:01.593914   726 net.cpp:148] Top shape: 24 320 14 14 (1505280)
I0403 14:05:01.593931   726 net.cpp:156] Memory required for data: 1236129312
I0403 14:05:01.593946   726 layer_factory.hpp:77] Creating layer inception_4e/5x5_reduce
I0403 14:05:01.593966   726 net.cpp:91] Creating Layer inception_4e/5x5_reduce
I0403 14:05:01.593983   726 net.cpp:425] inception_4e/5x5_reduce <- inception_4d/output_inception_4d/output_0_split_3
I0403 14:05:01.594005   726 net.cpp:399] inception_4e/5x5_reduce -> inception_4e/5x5_reduce
I0403 14:05:01.595059   726 net.cpp:141] Setting up inception_4e/5x5_reduce
I0403 14:05:01.595085   726 net.cpp:148] Top shape: 24 32 14 14 (150528)
I0403 14:05:01.595100   726 net.cpp:156] Memory required for data: 1236731424
I0403 14:05:01.595118   726 layer_factory.hpp:77] Creating layer inception_4e/relu_5x5_reduce
I0403 14:05:01.595135   726 net.cpp:91] Creating Layer inception_4e/relu_5x5_reduce
I0403 14:05:01.595151   726 net.cpp:425] inception_4e/relu_5x5_reduce <- inception_4e/5x5_reduce
I0403 14:05:01.595170   726 net.cpp:386] inception_4e/relu_5x5_reduce -> inception_4e/5x5_reduce (in-place)
I0403 14:05:01.595482   726 net.cpp:141] Setting up inception_4e/relu_5x5_reduce
I0403 14:05:01.595509   726 net.cpp:148] Top shape: 24 32 14 14 (150528)
I0403 14:05:01.595523   726 net.cpp:156] Memory required for data: 1237333536
I0403 14:05:01.595538   726 layer_factory.hpp:77] Creating layer inception_4e/5x5
I0403 14:05:01.595580   726 net.cpp:91] Creating Layer inception_4e/5x5
I0403 14:05:01.595599   726 net.cpp:425] inception_4e/5x5 <- inception_4e/5x5_reduce
I0403 14:05:01.595619   726 net.cpp:399] inception_4e/5x5 -> inception_4e/5x5
I0403 14:05:01.597491   726 net.cpp:141] Setting up inception_4e/5x5
I0403 14:05:01.597519   726 net.cpp:148] Top shape: 24 128 14 14 (602112)
I0403 14:05:01.597535   726 net.cpp:156] Memory required for data: 1239741984
I0403 14:05:01.597554   726 layer_factory.hpp:77] Creating layer inception_4e/relu_5x5
I0403 14:05:01.597573   726 net.cpp:91] Creating Layer inception_4e/relu_5x5
I0403 14:05:01.597589   726 net.cpp:425] inception_4e/relu_5x5 <- inception_4e/5x5
I0403 14:05:01.597609   726 net.cpp:386] inception_4e/relu_5x5 -> inception_4e/5x5 (in-place)
I0403 14:05:01.597805   726 net.cpp:141] Setting up inception_4e/relu_5x5
I0403 14:05:01.597829   726 net.cpp:148] Top shape: 24 128 14 14 (602112)
I0403 14:05:01.597844   726 net.cpp:156] Memory required for data: 1242150432
I0403 14:05:01.597858   726 layer_factory.hpp:77] Creating layer inception_4e/pool
I0403 14:05:01.597877   726 net.cpp:91] Creating Layer inception_4e/pool
I0403 14:05:01.597894   726 net.cpp:425] inception_4e/pool <- inception_4d/output_inception_4d/output_0_split_4
I0403 14:05:01.597914   726 net.cpp:399] inception_4e/pool -> inception_4e/pool
I0403 14:05:01.597985   726 net.cpp:141] Setting up inception_4e/pool
I0403 14:05:01.598009   726 net.cpp:148] Top shape: 24 528 14 14 (2483712)
I0403 14:05:01.598024   726 net.cpp:156] Memory required for data: 1252085280
I0403 14:05:01.598039   726 layer_factory.hpp:77] Creating layer inception_4e/pool_proj
I0403 14:05:01.598063   726 net.cpp:91] Creating Layer inception_4e/pool_proj
I0403 14:05:01.598081   726 net.cpp:425] inception_4e/pool_proj <- inception_4e/pool
I0403 14:05:01.598099   726 net.cpp:399] inception_4e/pool_proj -> inception_4e/pool_proj
I0403 14:05:01.599624   726 net.cpp:141] Setting up inception_4e/pool_proj
I0403 14:05:01.599663   726 net.cpp:148] Top shape: 24 128 14 14 (602112)
I0403 14:05:01.599680   726 net.cpp:156] Memory required for data: 1254493728
I0403 14:05:01.599699   726 layer_factory.hpp:77] Creating layer inception_4e/relu_pool_proj
I0403 14:05:01.599720   726 net.cpp:91] Creating Layer inception_4e/relu_pool_proj
I0403 14:05:01.599735   726 net.cpp:425] inception_4e/relu_pool_proj <- inception_4e/pool_proj
I0403 14:05:01.599753   726 net.cpp:386] inception_4e/relu_pool_proj -> inception_4e/pool_proj (in-place)
I0403 14:05:01.600052   726 net.cpp:141] Setting up inception_4e/relu_pool_proj
I0403 14:05:01.600078   726 net.cpp:148] Top shape: 24 128 14 14 (602112)
I0403 14:05:01.600095   726 net.cpp:156] Memory required for data: 1256902176
I0403 14:05:01.600108   726 layer_factory.hpp:77] Creating layer inception_4e/output
I0403 14:05:01.600128   726 net.cpp:91] Creating Layer inception_4e/output
I0403 14:05:01.600144   726 net.cpp:425] inception_4e/output <- inception_4e/1x1
I0403 14:05:01.600162   726 net.cpp:425] inception_4e/output <- inception_4e/3x3
I0403 14:05:01.600178   726 net.cpp:425] inception_4e/output <- inception_4e/5x5
I0403 14:05:01.600193   726 net.cpp:425] inception_4e/output <- inception_4e/pool_proj
I0403 14:05:01.600215   726 net.cpp:399] inception_4e/output -> inception_4e/output
I0403 14:05:01.600270   726 net.cpp:141] Setting up inception_4e/output
I0403 14:05:01.600294   726 net.cpp:148] Top shape: 24 832 14 14 (3913728)
I0403 14:05:01.600308   726 net.cpp:156] Memory required for data: 1272557088
I0403 14:05:01.600323   726 layer_factory.hpp:77] Creating layer pool4/3x3_s2
I0403 14:05:01.600343   726 net.cpp:91] Creating Layer pool4/3x3_s2
I0403 14:05:01.600359   726 net.cpp:425] pool4/3x3_s2 <- inception_4e/output
I0403 14:05:01.600378   726 net.cpp:399] pool4/3x3_s2 -> pool4/3x3_s2
I0403 14:05:01.600447   726 net.cpp:141] Setting up pool4/3x3_s2
I0403 14:05:01.600471   726 net.cpp:148] Top shape: 24 832 7 7 (978432)
I0403 14:05:01.600486   726 net.cpp:156] Memory required for data: 1276470816
I0403 14:05:01.600500   726 layer_factory.hpp:77] Creating layer pool4/3x3_s2_pool4/3x3_s2_0_split
I0403 14:05:01.600517   726 net.cpp:91] Creating Layer pool4/3x3_s2_pool4/3x3_s2_0_split
I0403 14:05:01.600533   726 net.cpp:425] pool4/3x3_s2_pool4/3x3_s2_0_split <- pool4/3x3_s2
I0403 14:05:01.600553   726 net.cpp:399] pool4/3x3_s2_pool4/3x3_s2_0_split -> pool4/3x3_s2_pool4/3x3_s2_0_split_0
I0403 14:05:01.600574   726 net.cpp:399] pool4/3x3_s2_pool4/3x3_s2_0_split -> pool4/3x3_s2_pool4/3x3_s2_0_split_1
I0403 14:05:01.600594   726 net.cpp:399] pool4/3x3_s2_pool4/3x3_s2_0_split -> pool4/3x3_s2_pool4/3x3_s2_0_split_2
I0403 14:05:01.600613   726 net.cpp:399] pool4/3x3_s2_pool4/3x3_s2_0_split -> pool4/3x3_s2_pool4/3x3_s2_0_split_3
I0403 14:05:01.600703   726 net.cpp:141] Setting up pool4/3x3_s2_pool4/3x3_s2_0_split
I0403 14:05:01.600728   726 net.cpp:148] Top shape: 24 832 7 7 (978432)
I0403 14:05:01.600744   726 net.cpp:148] Top shape: 24 832 7 7 (978432)
I0403 14:05:01.600760   726 net.cpp:148] Top shape: 24 832 7 7 (978432)
I0403 14:05:01.600775   726 net.cpp:148] Top shape: 24 832 7 7 (978432)
I0403 14:05:01.600790   726 net.cpp:156] Memory required for data: 1292125728
I0403 14:05:01.600805   726 layer_factory.hpp:77] Creating layer inception_5a/1x1
I0403 14:05:01.600827   726 net.cpp:91] Creating Layer inception_5a/1x1
I0403 14:05:01.600844   726 net.cpp:425] inception_5a/1x1 <- pool4/3x3_s2_pool4/3x3_s2_0_split_0
I0403 14:05:01.600863   726 net.cpp:399] inception_5a/1x1 -> inception_5a/1x1
I0403 14:05:01.603734   726 net.cpp:141] Setting up inception_5a/1x1
I0403 14:05:01.603763   726 net.cpp:148] Top shape: 24 256 7 7 (301056)
I0403 14:05:01.603781   726 net.cpp:156] Memory required for data: 1293329952
I0403 14:05:01.603799   726 layer_factory.hpp:77] Creating layer inception_5a/relu_1x1
I0403 14:05:01.603817   726 net.cpp:91] Creating Layer inception_5a/relu_1x1
I0403 14:05:01.603833   726 net.cpp:425] inception_5a/relu_1x1 <- inception_5a/1x1
I0403 14:05:01.603853   726 net.cpp:386] inception_5a/relu_1x1 -> inception_5a/1x1 (in-place)
I0403 14:05:01.604167   726 net.cpp:141] Setting up inception_5a/relu_1x1
I0403 14:05:01.604193   726 net.cpp:148] Top shape: 24 256 7 7 (301056)
I0403 14:05:01.604213   726 net.cpp:156] Memory required for data: 1294534176
I0403 14:05:01.604230   726 layer_factory.hpp:77] Creating layer inception_5a/3x3_reduce
I0403 14:05:01.604254   726 net.cpp:91] Creating Layer inception_5a/3x3_reduce
I0403 14:05:01.604272   726 net.cpp:425] inception_5a/3x3_reduce <- pool4/3x3_s2_pool4/3x3_s2_0_split_1
I0403 14:05:01.604293   726 net.cpp:399] inception_5a/3x3_reduce -> inception_5a/3x3_reduce
I0403 14:05:01.606822   726 net.cpp:141] Setting up inception_5a/3x3_reduce
I0403 14:05:01.606851   726 net.cpp:148] Top shape: 24 160 7 7 (188160)
I0403 14:05:01.606868   726 net.cpp:156] Memory required for data: 1295286816
I0403 14:05:01.606887   726 layer_factory.hpp:77] Creating layer inception_5a/relu_3x3_reduce
I0403 14:05:01.606909   726 net.cpp:91] Creating Layer inception_5a/relu_3x3_reduce
I0403 14:05:01.606925   726 net.cpp:425] inception_5a/relu_3x3_reduce <- inception_5a/3x3_reduce
I0403 14:05:01.606945   726 net.cpp:386] inception_5a/relu_3x3_reduce -> inception_5a/3x3_reduce (in-place)
I0403 14:05:01.607137   726 net.cpp:141] Setting up inception_5a/relu_3x3_reduce
I0403 14:05:01.607167   726 net.cpp:148] Top shape: 24 160 7 7 (188160)
I0403 14:05:01.607182   726 net.cpp:156] Memory required for data: 1296039456
I0403 14:05:01.607197   726 layer_factory.hpp:77] Creating layer inception_5a/3x3
I0403 14:05:01.607226   726 net.cpp:91] Creating Layer inception_5a/3x3
I0403 14:05:01.607246   726 net.cpp:425] inception_5a/3x3 <- inception_5a/3x3_reduce
I0403 14:05:01.607265   726 net.cpp:399] inception_5a/3x3 -> inception_5a/3x3
I0403 14:05:01.612495   726 net.cpp:141] Setting up inception_5a/3x3
I0403 14:05:01.612529   726 net.cpp:148] Top shape: 24 320 7 7 (376320)
I0403 14:05:01.612545   726 net.cpp:156] Memory required for data: 1297544736
I0403 14:05:01.612565   726 layer_factory.hpp:77] Creating layer inception_5a/relu_3x3
I0403 14:05:01.612583   726 net.cpp:91] Creating Layer inception_5a/relu_3x3
I0403 14:05:01.612601   726 net.cpp:425] inception_5a/relu_3x3 <- inception_5a/3x3
I0403 14:05:01.612622   726 net.cpp:386] inception_5a/relu_3x3 -> inception_5a/3x3 (in-place)
I0403 14:05:01.612926   726 net.cpp:141] Setting up inception_5a/relu_3x3
I0403 14:05:01.612954   726 net.cpp:148] Top shape: 24 320 7 7 (376320)
I0403 14:05:01.612972   726 net.cpp:156] Memory required for data: 1299050016
I0403 14:05:01.612987   726 layer_factory.hpp:77] Creating layer inception_5a/5x5_reduce
I0403 14:05:01.613011   726 net.cpp:91] Creating Layer inception_5a/5x5_reduce
I0403 14:05:01.613030   726 net.cpp:425] inception_5a/5x5_reduce <- pool4/3x3_s2_pool4/3x3_s2_0_split_2
I0403 14:05:01.613050   726 net.cpp:399] inception_5a/5x5_reduce -> inception_5a/5x5_reduce
I0403 14:05:01.614284   726 net.cpp:141] Setting up inception_5a/5x5_reduce
I0403 14:05:01.614315   726 net.cpp:148] Top shape: 24 32 7 7 (37632)
I0403 14:05:01.614332   726 net.cpp:156] Memory required for data: 1299200544
I0403 14:05:01.614351   726 layer_factory.hpp:77] Creating layer inception_5a/relu_5x5_reduce
I0403 14:05:01.614369   726 net.cpp:91] Creating Layer inception_5a/relu_5x5_reduce
I0403 14:05:01.614387   726 net.cpp:425] inception_5a/relu_5x5_reduce <- inception_5a/5x5_reduce
I0403 14:05:01.614408   726 net.cpp:386] inception_5a/relu_5x5_reduce -> inception_5a/5x5_reduce (in-place)
I0403 14:05:01.614720   726 net.cpp:141] Setting up inception_5a/relu_5x5_reduce
I0403 14:05:01.614748   726 net.cpp:148] Top shape: 24 32 7 7 (37632)
I0403 14:05:01.614763   726 net.cpp:156] Memory required for data: 1299351072
I0403 14:05:01.614778   726 layer_factory.hpp:77] Creating layer inception_5a/5x5
I0403 14:05:01.614801   726 net.cpp:91] Creating Layer inception_5a/5x5
I0403 14:05:01.614820   726 net.cpp:425] inception_5a/5x5 <- inception_5a/5x5_reduce
I0403 14:05:01.614842   726 net.cpp:399] inception_5a/5x5 -> inception_5a/5x5
I0403 14:05:01.616631   726 net.cpp:141] Setting up inception_5a/5x5
I0403 14:05:01.616677   726 net.cpp:148] Top shape: 24 128 7 7 (150528)
I0403 14:05:01.616693   726 net.cpp:156] Memory required for data: 1299953184
I0403 14:05:01.616714   726 layer_factory.hpp:77] Creating layer inception_5a/relu_5x5
I0403 14:05:01.616731   726 net.cpp:91] Creating Layer inception_5a/relu_5x5
I0403 14:05:01.616749   726 net.cpp:425] inception_5a/relu_5x5 <- inception_5a/5x5
I0403 14:05:01.616768   726 net.cpp:386] inception_5a/relu_5x5 -> inception_5a/5x5 (in-place)
I0403 14:05:01.616964   726 net.cpp:141] Setting up inception_5a/relu_5x5
I0403 14:05:01.616989   726 net.cpp:148] Top shape: 24 128 7 7 (150528)
I0403 14:05:01.617005   726 net.cpp:156] Memory required for data: 1300555296
I0403 14:05:01.617020   726 layer_factory.hpp:77] Creating layer inception_5a/pool
I0403 14:05:01.617038   726 net.cpp:91] Creating Layer inception_5a/pool
I0403 14:05:01.617055   726 net.cpp:425] inception_5a/pool <- pool4/3x3_s2_pool4/3x3_s2_0_split_3
I0403 14:05:01.617076   726 net.cpp:399] inception_5a/pool -> inception_5a/pool
I0403 14:05:01.617151   726 net.cpp:141] Setting up inception_5a/pool
I0403 14:05:01.617175   726 net.cpp:148] Top shape: 24 832 7 7 (978432)
I0403 14:05:01.617190   726 net.cpp:156] Memory required for data: 1304469024
I0403 14:05:01.617205   726 layer_factory.hpp:77] Creating layer inception_5a/pool_proj
I0403 14:05:01.617235   726 net.cpp:91] Creating Layer inception_5a/pool_proj
I0403 14:05:01.617255   726 net.cpp:425] inception_5a/pool_proj <- inception_5a/pool
I0403 14:05:01.617274   726 net.cpp:399] inception_5a/pool_proj -> inception_5a/pool_proj
I0403 14:05:01.619627   726 net.cpp:141] Setting up inception_5a/pool_proj
I0403 14:05:01.619662   726 net.cpp:148] Top shape: 24 128 7 7 (150528)
I0403 14:05:01.619678   726 net.cpp:156] Memory required for data: 1305071136
I0403 14:05:01.619698   726 layer_factory.hpp:77] Creating layer inception_5a/relu_pool_proj
I0403 14:05:01.619715   726 net.cpp:91] Creating Layer inception_5a/relu_pool_proj
I0403 14:05:01.619732   726 net.cpp:425] inception_5a/relu_pool_proj <- inception_5a/pool_proj
I0403 14:05:01.619750   726 net.cpp:386] inception_5a/relu_pool_proj -> inception_5a/pool_proj (in-place)
I0403 14:05:01.620056   726 net.cpp:141] Setting up inception_5a/relu_pool_proj
I0403 14:05:01.620085   726 net.cpp:148] Top shape: 24 128 7 7 (150528)
I0403 14:05:01.620102   726 net.cpp:156] Memory required for data: 1305673248
I0403 14:05:01.620117   726 layer_factory.hpp:77] Creating layer inception_5a/output
I0403 14:05:01.620134   726 net.cpp:91] Creating Layer inception_5a/output
I0403 14:05:01.620151   726 net.cpp:425] inception_5a/output <- inception_5a/1x1
I0403 14:05:01.620168   726 net.cpp:425] inception_5a/output <- inception_5a/3x3
I0403 14:05:01.620185   726 net.cpp:425] inception_5a/output <- inception_5a/5x5
I0403 14:05:01.620203   726 net.cpp:425] inception_5a/output <- inception_5a/pool_proj
I0403 14:05:01.620226   726 net.cpp:399] inception_5a/output -> inception_5a/output
I0403 14:05:01.620281   726 net.cpp:141] Setting up inception_5a/output
I0403 14:05:01.620306   726 net.cpp:148] Top shape: 24 832 7 7 (978432)
I0403 14:05:01.620321   726 net.cpp:156] Memory required for data: 1309586976
I0403 14:05:01.620337   726 layer_factory.hpp:77] Creating layer inception_5a/output_inception_5a/output_0_split
I0403 14:05:01.620357   726 net.cpp:91] Creating Layer inception_5a/output_inception_5a/output_0_split
I0403 14:05:01.620373   726 net.cpp:425] inception_5a/output_inception_5a/output_0_split <- inception_5a/output
I0403 14:05:01.620391   726 net.cpp:399] inception_5a/output_inception_5a/output_0_split -> inception_5a/output_inception_5a/output_0_split_0
I0403 14:05:01.620411   726 net.cpp:399] inception_5a/output_inception_5a/output_0_split -> inception_5a/output_inception_5a/output_0_split_1
I0403 14:05:01.620432   726 net.cpp:399] inception_5a/output_inception_5a/output_0_split -> inception_5a/output_inception_5a/output_0_split_2
I0403 14:05:01.620453   726 net.cpp:399] inception_5a/output_inception_5a/output_0_split -> inception_5a/output_inception_5a/output_0_split_3
I0403 14:05:01.620570   726 net.cpp:141] Setting up inception_5a/output_inception_5a/output_0_split
I0403 14:05:01.620594   726 net.cpp:148] Top shape: 24 832 7 7 (978432)
I0403 14:05:01.620611   726 net.cpp:148] Top shape: 24 832 7 7 (978432)
I0403 14:05:01.620627   726 net.cpp:148] Top shape: 24 832 7 7 (978432)
I0403 14:05:01.620643   726 net.cpp:148] Top shape: 24 832 7 7 (978432)
I0403 14:05:01.620657   726 net.cpp:156] Memory required for data: 1325241888
I0403 14:05:01.620672   726 layer_factory.hpp:77] Creating layer inception_5b/1x1
I0403 14:05:01.620695   726 net.cpp:91] Creating Layer inception_5b/1x1
I0403 14:05:01.620713   726 net.cpp:425] inception_5b/1x1 <- inception_5a/output_inception_5a/output_0_split_0
I0403 14:05:01.620735   726 net.cpp:399] inception_5b/1x1 -> inception_5b/1x1
I0403 14:05:01.624663   726 net.cpp:141] Setting up inception_5b/1x1
I0403 14:05:01.624693   726 net.cpp:148] Top shape: 24 384 7 7 (451584)
I0403 14:05:01.624708   726 net.cpp:156] Memory required for data: 1327048224
I0403 14:05:01.624727   726 layer_factory.hpp:77] Creating layer inception_5b/relu_1x1
I0403 14:05:01.624747   726 net.cpp:91] Creating Layer inception_5b/relu_1x1
I0403 14:05:01.624763   726 net.cpp:425] inception_5b/relu_1x1 <- inception_5b/1x1
I0403 14:05:01.624780   726 net.cpp:386] inception_5b/relu_1x1 -> inception_5b/1x1 (in-place)
I0403 14:05:01.625087   726 net.cpp:141] Setting up inception_5b/relu_1x1
I0403 14:05:01.625113   726 net.cpp:148] Top shape: 24 384 7 7 (451584)
I0403 14:05:01.625128   726 net.cpp:156] Memory required for data: 1328854560
I0403 14:05:01.625144   726 layer_factory.hpp:77] Creating layer inception_5b/3x3_reduce
I0403 14:05:01.625167   726 net.cpp:91] Creating Layer inception_5b/3x3_reduce
I0403 14:05:01.625188   726 net.cpp:425] inception_5b/3x3_reduce <- inception_5a/output_inception_5a/output_0_split_1
I0403 14:05:01.625207   726 net.cpp:399] inception_5b/3x3_reduce -> inception_5b/3x3_reduce
I0403 14:05:01.627903   726 net.cpp:141] Setting up inception_5b/3x3_reduce
I0403 14:05:01.627934   726 net.cpp:148] Top shape: 24 192 7 7 (225792)
I0403 14:05:01.627950   726 net.cpp:156] Memory required for data: 1329757728
I0403 14:05:01.627969   726 layer_factory.hpp:77] Creating layer inception_5b/relu_3x3_reduce
I0403 14:05:01.627987   726 net.cpp:91] Creating Layer inception_5b/relu_3x3_reduce
I0403 14:05:01.628003   726 net.cpp:425] inception_5b/relu_3x3_reduce <- inception_5b/3x3_reduce
I0403 14:05:01.628021   726 net.cpp:386] inception_5b/relu_3x3_reduce -> inception_5b/3x3_reduce (in-place)
I0403 14:05:01.628216   726 net.cpp:141] Setting up inception_5b/relu_3x3_reduce
I0403 14:05:01.628244   726 net.cpp:148] Top shape: 24 192 7 7 (225792)
I0403 14:05:01.628260   726 net.cpp:156] Memory required for data: 1330660896
I0403 14:05:01.628275   726 layer_factory.hpp:77] Creating layer inception_5b/3x3
I0403 14:05:01.628298   726 net.cpp:91] Creating Layer inception_5b/3x3
I0403 14:05:01.628315   726 net.cpp:425] inception_5b/3x3 <- inception_5b/3x3_reduce
I0403 14:05:01.628334   726 net.cpp:399] inception_5b/3x3 -> inception_5b/3x3
I0403 14:05:01.635126   726 net.cpp:141] Setting up inception_5b/3x3
I0403 14:05:01.635159   726 net.cpp:148] Top shape: 24 384 7 7 (451584)
I0403 14:05:01.635175   726 net.cpp:156] Memory required for data: 1332467232
I0403 14:05:01.635195   726 layer_factory.hpp:77] Creating layer inception_5b/relu_3x3
I0403 14:05:01.635217   726 net.cpp:91] Creating Layer inception_5b/relu_3x3
I0403 14:05:01.635236   726 net.cpp:425] inception_5b/relu_3x3 <- inception_5b/3x3
I0403 14:05:01.635253   726 net.cpp:386] inception_5b/relu_3x3 -> inception_5b/3x3 (in-place)
I0403 14:05:01.635555   726 net.cpp:141] Setting up inception_5b/relu_3x3
I0403 14:05:01.635583   726 net.cpp:148] Top shape: 24 384 7 7 (451584)
I0403 14:05:01.635601   726 net.cpp:156] Memory required for data: 1334273568
I0403 14:05:01.635614   726 layer_factory.hpp:77] Creating layer inception_5b/5x5_reduce
I0403 14:05:01.635656   726 net.cpp:91] Creating Layer inception_5b/5x5_reduce
I0403 14:05:01.635675   726 net.cpp:425] inception_5b/5x5_reduce <- inception_5a/output_inception_5a/output_0_split_2
I0403 14:05:01.635694   726 net.cpp:399] inception_5b/5x5_reduce -> inception_5b/5x5_reduce
I0403 14:05:01.636984   726 net.cpp:141] Setting up inception_5b/5x5_reduce
I0403 14:05:01.637012   726 net.cpp:148] Top shape: 24 48 7 7 (56448)
I0403 14:05:01.637027   726 net.cpp:156] Memory required for data: 1334499360
I0403 14:05:01.637047   726 layer_factory.hpp:77] Creating layer inception_5b/relu_5x5_reduce
I0403 14:05:01.637066   726 net.cpp:91] Creating Layer inception_5b/relu_5x5_reduce
I0403 14:05:01.637084   726 net.cpp:425] inception_5b/relu_5x5_reduce <- inception_5b/5x5_reduce
I0403 14:05:01.637101   726 net.cpp:386] inception_5b/relu_5x5_reduce -> inception_5b/5x5_reduce (in-place)
I0403 14:05:01.637483   726 net.cpp:141] Setting up inception_5b/relu_5x5_reduce
I0403 14:05:01.637511   726 net.cpp:148] Top shape: 24 48 7 7 (56448)
I0403 14:05:01.637526   726 net.cpp:156] Memory required for data: 1334725152
I0403 14:05:01.637540   726 layer_factory.hpp:77] Creating layer inception_5b/5x5
I0403 14:05:01.637562   726 net.cpp:91] Creating Layer inception_5b/5x5
I0403 14:05:01.637578   726 net.cpp:425] inception_5b/5x5 <- inception_5b/5x5_reduce
I0403 14:05:01.637598   726 net.cpp:399] inception_5b/5x5 -> inception_5b/5x5
I0403 14:05:01.639688   726 net.cpp:141] Setting up inception_5b/5x5
I0403 14:05:01.639715   726 net.cpp:148] Top shape: 24 128 7 7 (150528)
I0403 14:05:01.639731   726 net.cpp:156] Memory required for data: 1335327264
I0403 14:05:01.639750   726 layer_factory.hpp:77] Creating layer inception_5b/relu_5x5
I0403 14:05:01.639767   726 net.cpp:91] Creating Layer inception_5b/relu_5x5
I0403 14:05:01.639783   726 net.cpp:425] inception_5b/relu_5x5 <- inception_5b/5x5
I0403 14:05:01.639803   726 net.cpp:386] inception_5b/relu_5x5 -> inception_5b/5x5 (in-place)
I0403 14:05:01.640000   726 net.cpp:141] Setting up inception_5b/relu_5x5
I0403 14:05:01.640027   726 net.cpp:148] Top shape: 24 128 7 7 (150528)
I0403 14:05:01.640040   726 net.cpp:156] Memory required for data: 1335929376
I0403 14:05:01.640055   726 layer_factory.hpp:77] Creating layer inception_5b/pool
I0403 14:05:01.640075   726 net.cpp:91] Creating Layer inception_5b/pool
I0403 14:05:01.640092   726 net.cpp:425] inception_5b/pool <- inception_5a/output_inception_5a/output_0_split_3
I0403 14:05:01.640111   726 net.cpp:399] inception_5b/pool -> inception_5b/pool
I0403 14:05:01.640185   726 net.cpp:141] Setting up inception_5b/pool
I0403 14:05:01.640213   726 net.cpp:148] Top shape: 24 832 7 7 (978432)
I0403 14:05:01.640229   726 net.cpp:156] Memory required for data: 1339843104
I0403 14:05:01.640244   726 layer_factory.hpp:77] Creating layer inception_5b/pool_proj
I0403 14:05:01.640267   726 net.cpp:91] Creating Layer inception_5b/pool_proj
I0403 14:05:01.640285   726 net.cpp:425] inception_5b/pool_proj <- inception_5b/pool
I0403 14:05:01.640306   726 net.cpp:399] inception_5b/pool_proj -> inception_5b/pool_proj
I0403 14:05:01.643746   726 net.cpp:141] Setting up inception_5b/pool_proj
I0403 14:05:01.643779   726 net.cpp:148] Top shape: 24 128 7 7 (150528)
I0403 14:05:01.643796   726 net.cpp:156] Memory required for data: 1340445216
I0403 14:05:01.643815   726 layer_factory.hpp:77] Creating layer inception_5b/relu_pool_proj
I0403 14:05:01.643833   726 net.cpp:91] Creating Layer inception_5b/relu_pool_proj
I0403 14:05:01.643849   726 net.cpp:425] inception_5b/relu_pool_proj <- inception_5b/pool_proj
I0403 14:05:01.643869   726 net.cpp:386] inception_5b/relu_pool_proj -> inception_5b/pool_proj (in-place)
I0403 14:05:01.644171   726 net.cpp:141] Setting up inception_5b/relu_pool_proj
I0403 14:05:01.644201   726 net.cpp:148] Top shape: 24 128 7 7 (150528)
I0403 14:05:01.644222   726 net.cpp:156] Memory required for data: 1341047328
I0403 14:05:01.644238   726 layer_factory.hpp:77] Creating layer inception_5b/output
I0403 14:05:01.644256   726 net.cpp:91] Creating Layer inception_5b/output
I0403 14:05:01.644287   726 net.cpp:425] inception_5b/output <- inception_5b/1x1
I0403 14:05:01.644305   726 net.cpp:425] inception_5b/output <- inception_5b/3x3
I0403 14:05:01.644321   726 net.cpp:425] inception_5b/output <- inception_5b/5x5
I0403 14:05:01.644338   726 net.cpp:425] inception_5b/output <- inception_5b/pool_proj
I0403 14:05:01.644356   726 net.cpp:399] inception_5b/output -> inception_5b/output
I0403 14:05:01.644409   726 net.cpp:141] Setting up inception_5b/output
I0403 14:05:01.644433   726 net.cpp:148] Top shape: 24 1024 7 7 (1204224)
I0403 14:05:01.644448   726 net.cpp:156] Memory required for data: 1345864224
I0403 14:05:01.644464   726 layer_factory.hpp:77] Creating layer pool5/7x7_s1
I0403 14:05:01.644484   726 net.cpp:91] Creating Layer pool5/7x7_s1
I0403 14:05:01.644500   726 net.cpp:425] pool5/7x7_s1 <- inception_5b/output
I0403 14:05:01.644518   726 net.cpp:399] pool5/7x7_s1 -> pool5/7x7_s1
I0403 14:05:01.644738   726 net.cpp:141] Setting up pool5/7x7_s1
I0403 14:05:01.644767   726 net.cpp:148] Top shape: 24 1024 1 1 (24576)
I0403 14:05:01.644783   726 net.cpp:156] Memory required for data: 1345962528
I0403 14:05:01.644798   726 layer_factory.hpp:77] Creating layer pool5/drop_7x7_s1
I0403 14:05:01.644815   726 net.cpp:91] Creating Layer pool5/drop_7x7_s1
I0403 14:05:01.644830   726 net.cpp:425] pool5/drop_7x7_s1 <- pool5/7x7_s1
I0403 14:05:01.644850   726 net.cpp:386] pool5/drop_7x7_s1 -> pool5/7x7_s1 (in-place)
I0403 14:05:01.644901   726 net.cpp:141] Setting up pool5/drop_7x7_s1
I0403 14:05:01.644923   726 net.cpp:148] Top shape: 24 1024 1 1 (24576)
I0403 14:05:01.644938   726 net.cpp:156] Memory required for data: 1346060832
I0403 14:05:01.644953   726 layer_factory.hpp:77] Creating layer loss3/classifier_plantvillage
I0403 14:05:01.644975   726 net.cpp:91] Creating Layer loss3/classifier_plantvillage
I0403 14:05:01.644992   726 net.cpp:425] loss3/classifier_plantvillage <- pool5/7x7_s1
I0403 14:05:01.645014   726 net.cpp:399] loss3/classifier_plantvillage -> loss3/classifier_plantvillage
I0403 14:05:01.645452   726 net.cpp:141] Setting up loss3/classifier_plantvillage
I0403 14:05:01.645478   726 net.cpp:148] Top shape: 24 38 (912)
I0403 14:05:01.645493   726 net.cpp:156] Memory required for data: 1346064480
I0403 14:05:01.645511   726 layer_factory.hpp:77] Creating layer loss3/classifier_plantvillage_loss3/classifier_plantvillage_0_split
I0403 14:05:01.645534   726 net.cpp:91] Creating Layer loss3/classifier_plantvillage_loss3/classifier_plantvillage_0_split
I0403 14:05:01.645550   726 net.cpp:425] loss3/classifier_plantvillage_loss3/classifier_plantvillage_0_split <- loss3/classifier_plantvillage
I0403 14:05:01.645567   726 net.cpp:399] loss3/classifier_plantvillage_loss3/classifier_plantvillage_0_split -> loss3/classifier_plantvillage_loss3/classifier_plantvillage_0_split_0
I0403 14:05:01.645588   726 net.cpp:399] loss3/classifier_plantvillage_loss3/classifier_plantvillage_0_split -> loss3/classifier_plantvillage_loss3/classifier_plantvillage_0_split_1
I0403 14:05:01.645608   726 net.cpp:399] loss3/classifier_plantvillage_loss3/classifier_plantvillage_0_split -> loss3/classifier_plantvillage_loss3/classifier_plantvillage_0_split_2
I0403 14:05:01.645628   726 net.cpp:399] loss3/classifier_plantvillage_loss3/classifier_plantvillage_0_split -> loss3/classifier_plantvillage_loss3/classifier_plantvillage_0_split_3
I0403 14:05:01.645730   726 net.cpp:141] Setting up loss3/classifier_plantvillage_loss3/classifier_plantvillage_0_split
I0403 14:05:01.645753   726 net.cpp:148] Top shape: 24 38 (912)
I0403 14:05:01.645769   726 net.cpp:148] Top shape: 24 38 (912)
I0403 14:05:01.645786   726 net.cpp:148] Top shape: 24 38 (912)
I0403 14:05:01.645800   726 net.cpp:148] Top shape: 24 38 (912)
I0403 14:05:01.645814   726 net.cpp:156] Memory required for data: 1346079072
I0403 14:05:01.645828   726 layer_factory.hpp:77] Creating layer loss1/loss
I0403 14:05:01.645851   726 net.cpp:91] Creating Layer loss1/loss
I0403 14:05:01.645869   726 net.cpp:425] loss1/loss <- loss1/classifier_plantvillage_loss1/classifier_plantvillage_0_split_0
I0403 14:05:01.645898   726 net.cpp:425] loss1/loss <- label_data_1_split_0
…
