…
I0403 14:30:04.865653  1385 net.cpp:313] The NetState phase (1) differed from the phase (0) specified by a rule in layer data
I0403 14:30:04.866888  1385 net.cpp:49] Initializing net from parameters: 
state {
  phase: TEST
}
layer {
  name: "data"
  type: "Data"
  top: "data"
  top: "label"
  include {
    phase: TEST
  }
  transform_param {
    mirror: false
    crop_size: 224
    mean_file: "/home/mohanty/data/final_dataset/lmdb/grayscale-20-80/mean.binaryproto"
  }
  data_param {
    source: "/home/mohanty/data/final_dataset/lmdb/grayscale-20-80/test_db"
    batch_size: 24
    backend: LMDB
  }
}
layer {
  name: "conv1/7x7_s2"
  type: "Convolution"
  bottom: "data"
  top: "conv1/7x7_s2"
  param {
    lr_mult: 1
    decay_mult: 1
  }
  param {
    lr_mult: 2
    decay_mult: 0
  }
  convolution_param {
    num_output: 64
    pad: 3
    kernel_size: 7
    stride: 2
    weight_filler {
      type: "xavier"
      std: 0.1
    }
    bias_filler {
      type: "constant"
      value: 0.2
    }
  }
}
layer {
  name: "conv1/relu_7x7"
  type: "ReLU"
  bottom: "conv1/7x7_s2"
  top: "conv1/7x7_s2"
}
layer {
  name: "pool1/3x3_s2"
  type: "Pooling"
  bottom: "conv1/7x7_s2"
  top: "pool1/3x3_s2"
  pooling_param {
    pool: MAX
    kernel_size: 3
    stride: 2
  }
}
layer {
  name: "pool1/norm1"
  type: "LRN"
  bottom: "pool1/3x3_s2"
  top: "pool1/norm1"
  lrn_param {
    local_size: 5
    alpha: 0.0001
    beta: 0.75
  }
}
layer {
  name: "conv2/3x3_reduce"
  type: "Convolution"
  bottom: "pool1/norm1"
  top: "conv2/3x3_reduce"
  param {
    lr_mult: 1
    decay_mult: 1
  }
  param {
    lr_mult: 2
    decay_mult: 0
  }
  convolution_param {
    num_output: 64
    kernel_size: 1
    weight_filler {
      type: "xavier"
      std: 0.1
    }
    bias_filler {
      type: "constant"
      value: 0.2
    }
  }
}
layer {
  name: "conv2/relu_3x3_reduce"
  type: "ReLU"
  bottom: "conv2/3x3_reduce"
  top: "conv2/3x3_reduce"
}
layer {
  name: "conv2/3x3"
  type: "Convolution"
  bottom: "conv2/3x3_reduce"
  top: "conv2/3x3"
  param {
    lr_mult: 1
    decay_mult: 1
  }
  param {
    lr_mult: 2
    decay_mult: 0
  }
  convolution_param {
    num_output: 192
    pad: 1
    kernel_size: 3
    weight_filler {
      type: "xavier"
      std: 0.03
    }
    bias_filler {
      type: "constant"
      value: 0.2
    }
  }
}
layer {
  name: "conv2/relu_3x3"
  type: "ReLU"
  bottom: "conv2/3x3"
  top: "conv2/3x3"
}
layer {
  name: "conv2/norm2"
  type: "LRN"
  bottom: "conv2/3x3"
  top: "conv2/norm2"
  lrn_param {
    local_size: 5
    alpha: 0.0001
    beta: 0.75
  }
}
layer {
  name: "pool2/3x3_s2"
  type: "Pooling"
  bottom: "conv2/norm2"
  top: "pool2/3x3_s2"
  pooling_param {
    pool: MAX
    kernel_size: 3
    stride: 2
  }
}
layer {
  name: "inception_3a/1x1"
  type: "Convolution"
  bottom: "pool2/3x3_s2"
  top: "inception_3a/1x1"
  param {
    lr_mult: 1
    decay_mult: 1
  }
  param {
    lr_mult: 2
    decay_mult: 0
  }
  convolution_param {
    num_output: 64
    kernel_size: 1
    weight_filler {
      type: "xavier"
      std: 0.03
    }
    bias_filler {
      type: "constant"
      value: 0.2
    }
  }
}
layer {
  name: "inception_3a/relu_1x1"
  type: "ReLU"
  bottom: "inception_3a/1x1"
  top: "inception_3a/1x1"
}
layer {
  name: "inception_3a/3x3_reduce"
  type: "Convolution"
  bottom: "pool2/3x3_s2"
  top: "inception_3a/3x3_reduce"
  param {
    lr_mult: 1
    decay_mult: 1
  }
  param {
    lr_mult: 2
    decay_mult: 0
  }
  convolution_param {
    num_output: 96
    kernel_size: 1
    weight_filler {
      type: "xavier"
      std: 0.09
    }
    bias_filler {
      type: "constant"
      value: 0.2
    }
  }
}
layer {
  name: "inception_3a/relu_3x3_reduce"
  type: "ReLU"
  bottom: "inception_3a/3x3_reduce"
  top: "inception_3a/3x3_reduce"
}
layer {
  name: "inception_3a/3x3"
  type: "Convolution"
  bottom: "inception_3a/3x3_reduce"
  top: "inception_3a/3x3"
  param {
    lr_mult: 1
    decay_mult: 1
  }
  param {
    lr_mult: 2
    decay_mult: 0
  }
  convolution_param {
    num_output: 128
    pad: 1
    kernel_size: 3
    weight_filler {
      type: "xavier"
      std: 0.03
    }
    bias_filler {
      type: "constant"
      value: 0.2
    }
  }
}
layer {
  name: "inception_3a/relu_3x3"
  type: "ReLU"
  bottom: "inception_3a/3x3"
  top: "inception_3a/3x3"
}
layer {
  name: "inception_3a/5x5_reduce"
  type: "Convolution"
  bottom: "pool2/3x3_s2"
  top: "inception_3a/5x5_reduce"
  param {
    lr_mult: 1
    decay_mult: 1
  }
  param {
    lr_mult: 2
    decay_mult: 0
  }
  convolution_param {
    num_output: 16
    kernel_size: 1
    weight_filler {
      type: "xavier"
      std: 0.2
    }
    bias_filler {
      type: "constant"
      value: 0.2
    }
  }
}
layer {
  name: "inception_3a/relu_5x5_reduce"
  type: "ReLU"
  bottom: "inception_3a/5x5_reduce"
  top: "inception_3a/5x5_reduce"
}
layer {
  name: "inception_3a/5x5"
  type: "Convolution"
  bottom: "inception_3a/5x5_reduce"
  top: "inception_3a/5x5"
  param {
    lr_mult: 1
    decay_mult: 1
  }
  param {
    lr_mult: 2
    decay_mult: 0
  }
  convolution_param {
    num_output: 32
    pad: 2
    kernel_size: 5
    weight_filler {
      type: "xavier"
      std: 0.03
    }
    bias_filler {
      type: "constant"
      value: 0.2
    }
  }
}
layer {
  name: "inception_3a/relu_5x5"
  type: "ReLU"
  bottom: "inception_3a/5x5"
  top: "inception_3a/5x5"
}
layer {
  name: "inception_3a/pool"
  type: "Pooling"
  bottom: "pool2/3x3_s2"
  top: "inception_3a/pool"
  pooling_param {
    pool: MAX
    kernel_size: 3
    stride: 1
    pad: 1
  }
}
layer {
  name: "inception_3a/pool_proj"
  type: "Convolution"
  bottom: "inception_3a/pool"
  top: "inception_3a/pool_proj"
  param {
    lr_mult: 1
    decay_mult: 1
  }
  param {
    lr_mult: 2
    decay_mult: 0
  }
  convolution_param {
    num_output: 32
    kernel_size: 1
    weight_filler {
      type: "xavier"
      std: 0.1
    }
    bias_filler {
      type: "constant"
      value: 0.2
    }
  }
}
layer {
  name: "inception_3a/relu_pool_proj"
  type: "ReLU"
  bottom: "inception_3a/pool_proj"
  top: "inception_3a/pool_proj"
}
layer {
  name: "inception_3a/output"
  type: "Concat"
  bottom: "inception_3a/1x1"
  bottom: "inception_3a/3x3"
  bottom: "inception_3a/5x5"
  bottom: "inception_3a/pool_proj"
  top: "inception_3a/output"
}
layer {
  name: "inception_3b/1x1"
  type: "Convolution"
  bottom: "inception_3a/output"
  top: "inception_3b/1x1"
  param {
    lr_mult: 1
    decay_mult: 1
  }
  param {
    lr_mult: 2
    decay_mult: 0
  }
  convolution_param {
    num_output: 128
    kernel_size: 1
    weight_filler {
      type: "xavier"
      std: 0.03
    }
    bias_filler {
      type: "constant"
      value: 0.2
    }
  }
}
layer {
  name: "inception_3b/relu_1x1"
  type: "ReLU"
  bottom: "inception_3b/1x1"
  top: "inception_3b/1x1"
}
layer {
  name: "inception_3b/3x3_reduce"
  type: "Convolution"
  bottom: "inception_3a/output"
  top: "inception_3b/3x3_reduce"
  param {
    lr_mult: 1
    decay_mult: 1
  }
  param {
    lr_mult: 2
    decay_mult: 0
  }
  convolution_param {
    num_output: 128
    kernel_size: 1
    weight_filler {
      type: "xavier"
      std: 0.09
    }
    bias_filler {
      type: "constant"
      value: 0.2
    }
  }
}
layer {
  name: "inception_3b/relu_3x3_reduce"
  type: "ReLU"
  bottom: "inception_3b/3x3_reduce"
  top: "inception_3b/3x3_reduce"
}
layer {
  name: "inception_3b/3x3"
  type: "Convolution"
  bottom: "inception_3b/3x3_reduce"
  top: "inception_3b/3x3"
  param {
    lr_mult: 1
    decay_mult: 1
  }
  param {
    lr_mult: 2
    decay_mult: 0
  }
  convolution_param {
    num_output: 192
    pad: 1
    kernel_size: 3
    weight_filler {
      type: "xavier"
      std: 0.03
    }
    bias_filler {
      type: "constant"
      value: 0.2
    }
  }
}
layer {
  name: "inception_3b/relu_3x3"
  type: "ReLU"
  bottom: "inception_3b/3x3"
  top: "inception_3b/3x3"
}
layer {
  name: "inception_3b/5x5_reduce"
  type: "Convolution"
  bottom: "inception_3a/output"
  top: "inception_3b/5x5_reduce"
  param {
    lr_mult: 1
    decay_mult: 1
  }
  param {
    lr_mult: 2
    decay_mult: 0
  }
  convolution_param {
    num_output: 32
    kernel_size: 1
    weight_filler {
      type: "xavier"
      std: 0.2
    }
    bias_filler {
      type: "constant"
      value: 0.2
    }
  }
}
layer {
  name: "inception_3b/relu_5x5_reduce"
  type: "ReLU"
  bottom: "inception_3b/5x5_reduce"
  top: "inception_3b/5x5_reduce"
}
layer {
  name: "inception_3b/5x5"
  type: "Convolution"
  bottom: "inception_3b/5x5_reduce"
  top: "inception_3b/5x5"
  param {
    lr_mult: 1
    decay_mult: 1
  }
  param {
    lr_mult: 2
    decay_mult: 0
  }
  convolution_param {
    num_output: 96
    pad: 2
    kernel_size: 5
    weight_filler {
      type: "xavier"
      std: 0.03
    }
    bias_filler {
      type: "constant"
      value: 0.2
    }
  }
}
layer {
  name: "inception_3b/relu_5x5"
  type: "ReLU"
  bottom: "inception_3b/5x5"
  top: "inception_3b/5x5"
}
layer {
  name: "inception_3b/pool"
  type: "Pooling"
  bottom: "inception_3a/output"
  top: "inception_3b/pool"
  pooling_param {
    pool: MAX
    kernel_size: 3
    stride: 1
    pad: 1
  }
}
layer {
  name: "inception_3b/pool_proj"
  type: "Convolution"
  bottom: "inception_3b/pool"
  top: "inception_3b/pool_proj"
  param {
    lr_mult: 1
    decay_mult: 1
  }
  param {
    lr_mult: 2
    decay_mult: 0
  }
  convolution_param {
    num_output: 64
    kernel_size: 1
    weight_filler {
      type: "xavier"
      std: 0.1
    }
    bias_filler {
      type: "constant"
      value: 0.2
    }
  }
}
layer {
  name: "inception_3b/relu_pool_proj"
  type: "ReLU"
  bottom: "inception_3b/pool_proj"
  top: "inception_3b/pool_proj"
}
layer {
  name: "inception_3b/output"
  type: "Concat"
  bottom: "inception_3b/1x1"
  bottom: "inception_3b/3x3"
  bottom: "inception_3b/5x5"
  bottom: "inception_3b/pool_proj"
  top: "inception_3b/output"
}
layer {
  name: "pool3/3x3_s2"
  type: "Pooling"
  bottom: "inception_3b/output"
  top: "pool3/3x3_s2"
  pooling_param {
    pool: MAX
    kernel_size: 3
    stride: 2
  }
}
layer {
  name: "inception_4a/1x1"
  type: "Convolution"
  bottom: "pool3/3x3_s2"
  top: "inception_4a/1x1"
  param {
    lr_mult: 1
    decay_mult: 1
  }
  param {
    lr_mult: 2
    decay_mult: 0
  }
  convolution_param {
    num_output: 192
    kernel_size: 1
    weight_filler {
      type: "xavier"
      std: 0.03
    }
    bias_filler {
      type: "constant"
      value: 0.2
    }
  }
}
layer {
  name: "inception_4a/relu_1x1"
  type: "ReLU"
  bottom: "inception_4a/1x1"
  top: "inception_4a/1x1"
}
layer {
  name: "inception_4a/3x3_reduce"
  type: "Convolution"
  bottom: "pool3/3x3_s2"
  top: "inception_4a/3x3_reduce"
  param {
    lr_mult: 1
    decay_mult: 1
  }
  param {
    lr_mult: 2
    decay_mult: 0
  }
  convolution_param {
    num_output: 96
    kernel_size: 1
    weight_filler {
      type: "xavier"
      std: 0.09
    }
    bias_filler {
      type: "constant"
      value: 0.2
    }
  }
}
layer {
  name: "inception_4a/relu_3x3_reduce"
  type: "ReLU"
  bottom: "inception_4a/3x3_reduce"
  top: "inception_4a/3x3_reduce"
}
layer {
  name: "inception_4a/3x3"
  type: "Convolution"
  bottom: "inception_4a/3x3_reduce"
  top: "inception_4a/3x3"
  param {
    lr_mult: 1
    decay_mult: 1
  }
  param {
    lr_mult: 2
    decay_mult: 0
  }
  convolution_param {
    num_output: 208
    pad: 1
    kernel_size: 3
    weight_filler {
      type: "xavier"
      std: 0.03
    }
    bias_filler {
      type: "constant"
      value: 0.2
    }
  }
}
layer {
  name: "inception_4a/relu_3x3"
  type: "ReLU"
  bottom: "inception_4a/3x3"
  top: "inception_4a/3x3"
}
layer {
  name: "inception_4a/5x5_reduce"
  type: "Convolution"
  bottom: "pool3/3x3_s2"
  top: "inception_4a/5x5_reduce"
  param {
    lr_mult: 1
    decay_mult: 1
  }
  param {
    lr_mult: 2
    decay_mult: 0
  }
  convolution_param {
    num_output: 16
    kernel_size: 1
    weight_filler {
      type: "xavier"
      std: 0.2
    }
    bias_filler {
      type: "constant"
      value: 0.2
    }
  }
}
layer {
  name: "inception_4a/relu_5x5_reduce"
  type: "ReLU"
  bottom: "inception_4a/5x5_reduce"
  top: "inception_4a/5x5_reduce"
}
layer {
  name: "inception_4a/5x5"
  type: "Convolution"
  bottom: "inception_4a/5x5_reduce"
  top: "inception_4a/5x5"
  param {
    lr_mult: 1
    decay_mult: 1
  }
  param {
    lr_mult: 2
    decay_mult: 0
  }
  convolution_param {
    num_output: 48
    pad: 2
    kernel_size: 5
    weight_filler {
      type: "xavier"
      std: 0.03
    }
    bias_filler {
      type: "constant"
      value: 0.2
    }
  }
}
layer {
  name: "inception_4a/relu_5x5"
  type: "ReLU"
  bottom: "inception_4a/5x5"
  top: "inception_4a/5x5"
}
layer {
  name: "inception_4a/pool"
  type: "Pooling"
  bottom: "pool3/3x3_s2"
  top: "inception_4a/pool"
  pooling_param {
    pool: MAX
    kernel_size: 3
    stride: 1
    pad: 1
  }
}
layer {
  name: "inception_4a/pool_proj"
  type: "Convolution"
  bottom: "inception_4a/pool"
  top: "inception_4a/pool_proj"
  param {
    lr_mult: 1
    decay_mult: 1
  }
  param {
    lr_mult: 2
    decay_mult: 0
  }
  convolution_param {
    num_output: 64
    kernel_size: 1
    weight_filler {
      type: "xavier"
      std: 0.1
    }
    bias_filler {
      type: "constant"
      value: 0.2
    }
  }
}
layer {
  name: "inception_4a/relu_pool_proj"
  type: "ReLU"
  bottom: "inception_4a/pool_proj"
  top: "inception_4a/pool_proj"
}
layer {
  name: "inception_4a/output"
  type: "Concat"
  bottom: "inception_4a/1x1"
  bottom: "inception_4a/3x3"
  bottom: "inception_4a/5x5"
  bottom: "inception_4a/pool_proj"
  top: "inception_4a/output"
}
layer {
  name: "loss1/ave_pool"
  type: "Pooling"
  bottom: "inception_4a/output"
  top: "loss1/ave_pool"
  pooling_param {
    pool: AVE
    kernel_size: 5
    stride: 3
  }
}
layer {
  name: "loss1/conv"
  type: "Convolution"
  bottom: "loss1/ave_pool"
  top: "loss1/conv"
  param {
    lr_mult: 1
    decay_mult: 1
  }
  param {
    lr_mult: 2
    decay_mult: 0
  }
  convolution_param {
    num_output: 128
    kernel_size: 1
    weight_filler {
      type: "xavier"
      std: 0.08
    }
    bias_filler {
      type: "constant"
      value: 0.2
    }
  }
}
layer {
  name: "loss1/relu_conv"
  type: "ReLU"
  bottom: "loss1/conv"
  top: "loss1/conv"
}
layer {
  name: "loss1/fc"
  type: "InnerProduct"
  bottom: "loss1/conv"
  top: "loss1/fc"
  param {
    lr_mult: 1
    decay_mult: 1
  }
  param {
    lr_mult: 2
    decay_mult: 0
  }
  inner_product_param {
    num_output: 1024
    weight_filler {
      type: "xavier"
      std: 0.02
    }
    bias_filler {
      type: "constant"
      value: 0.2
    }
  }
}
layer {
  name: "loss1/relu_fc"
  type: "ReLU"
  bottom: "loss1/fc"
  top: "loss1/fc"
}
layer {
  name: "loss1/drop_fc"
  type: "Dropout"
  bottom: "loss1/fc"
  top: "loss1/fc"
  dropout_param {
    dropout_ratio: 0.7
  }
}
layer {
  name: "loss1/classifier_plantvillage"
  type: "InnerProduct"
  bottom: "loss1/fc"
  top: "loss1/classifier_plantvillage"
  param {
    lr_mult: 1
    decay_mult: 1
  }
  param {
    lr_mult: 2
    decay_mult: 0
  }
  inner_product_param {
    num_output: 38
    weight_filler {
      type: "xavier"
      std: 0.0009765625
    }
    bias_filler {
      type: "constant"
      value: 0
    }
  }
}
layer {
  name: "inception_4b/1x1"
  type: "Convolution"
  bottom: "inception_4a/output"
  top: "inception_4b/1x1"
  param {
    lr_mult: 1
    decay_mult: 1
  }
  param {
    lr_mult: 2
    decay_mult: 0
  }
  convolution_param {
    num_output: 160
    kernel_size: 1
    weight_filler {
      type: "xavier"
      std: 0.03
    }
    bias_filler {
      type: "constant"
      value: 0.2
    }
  }
}
layer {
  name: "inception_4b/relu_1x1"
  type: "ReLU"
  bottom: "inception_4b/1x1"
  top: "inception_4b/1x1"
}
layer {
  name: "inception_4b/3x3_reduce"
  type: "Convolution"
  bottom: "inception_4a/output"
  top: "inception_4b/3x3_reduce"
  param {
    lr_mult: 1
    decay_mult: 1
  }
  param {
    lr_mult: 2
    decay_mult: 0
  }
  convolution_param {
    num_output: 112
    kernel_size: 1
    weight_filler {
      type: "xavier"
      std: 0.09
    }
    bias_filler {
      type: "constant"
      value: 0.2
    }
  }
}
layer {
  name: "inception_4b/relu_3x3_reduce"
  type: "ReLU"
  bottom: "inception_4b/3x3_reduce"
  top: "inception_4b/3x3_reduce"
}
layer {
  name: "inception_4b/3x3"
  type: "Convolution"
  bottom: "inception_4b/3x3_reduce"
  top: "inception_4b/3x3"
  param {
    lr_mult: 1
    decay_mult: 1
  }
  param {
    lr_mult: 2
    decay_mult: 0
  }
  convolution_param {
    num_output: 224
    pad: 1
    kernel_size: 3
    weight_filler {
      type: "xavier"
      std: 0.03
    }
    bias_filler {
      type: "constant"
      value: 0.2
    }
  }
}
layer {
  name: "inception_4b/relu_3x3"
  type: "ReLU"
  bottom: "inception_4b/3x3"
  top: "inception_4b/3x3"
}
layer {
  name: "inception_4b/5x5_reduce"
  type: "Convolution"
  bottom: "inception_4a/output"
  top: "inception_4b/5x5_reduce"
  param {
    lr_mult: 1
    decay_mult: 1
  }
  param {
    lr_mult: 2
    decay_mult: 0
  }
  convolution_param {
    num_output: 24
    kernel_size: 1
    weight_filler {
      type: "xavier"
      std: 0.2
    }
    bias_filler {
      type: "constant"
      value: 0.2
    }
  }
}
layer {
  name: "inception_4b/relu_5x5_reduce"
  type: "ReLU"
  bottom: "inception_4b/5x5_reduce"
  top: "inception_4b/5x5_reduce"
}
layer {
  name: "inception_4b/5x5"
  type: "Convolution"
  bottom: "inception_4b/5x5_reduce"
  top: "inception_4b/5x5"
  param {
    lr_mult: 1
    decay_mult: 1
  }
  param {
    lr_mult: 2
    decay_mult: 0
  }
  convolution_param {
    num_output: 64
    pad: 2
    kernel_size: 5
    weight_filler {
      type: "xavier"
      std: 0.03
    }
    bias_filler {
      type: "constant"
      value: 0.2
    }
  }
}
layer {
  name: "inception_4b/relu_5x5"
  type: "ReLU"
  bottom: "inception_4b/5x5"
  top: "inception_4b/5x5"
}
layer {
  name: "inception_4b/pool"
  type: "Pooling"
  bottom: "inception_4a/output"
  top: "inception_4b/pool"
  pooling_param {
    pool: MAX
    kernel_size: 3
    stride: 1
    pad: 1
  }
}
layer {
  name: "inception_4b/pool_proj"
  type: "Convolution"
  bottom: "inception_4b/pool"
  top: "inception_4b/pool_proj"
  param {
    lr_mult: 1
    decay_mult: 1
  }
  param {
    lr_mult: 2
    decay_mult: 0
  }
  convolution_param {
    num_output: 64
    kernel_size: 1
    weight_filler {
      type: "xavier"
      std: 0.1
    }
    bias_filler {
      type: "constant"
      value: 0.2
    }
  }
}
layer {
  name: "inception_4b/relu_pool_proj"
  type: "ReLU"
  bottom: "inception_4b/pool_proj"
  top: "inception_4b/pool_proj"
}
layer {
  name: "inception_4b/output"
  type: "Concat"
  bottom: "inception_4b/1x1"
  bottom: "inception_4b/3x3"
  bottom: "inception_4b/5x5"
  bottom: "inception_4b/pool_proj"
  top: "inception_4b/output"
}
layer {
  name: "inception_4c/1x1"
  type: "Convolution"
  bottom: "inception_4b/output"
  top: "inception_4c/1x1"
  param {
    lr_mult: 1
    decay_mult: 1
  }
  param {
    lr_mult: 2
    decay_mult: 0
  }
  convolution_param {
    num_output: 128
    kernel_size: 1
    weight_filler {
      type: "xavier"
      std: 0.03
    }
    bias_filler {
      type: "constant"
      value: 0.2
    }
  }
}
layer {
  name: "inception_4c/relu_1x1"
  type: "ReLU"
  bottom: "inception_4c/1x1"
  top: "inception_4c/1x1"
}
layer {
  name: "inception_4c/3x3_reduce"
  type: "Convolution"
  bottom: "inception_4b/output"
  top: "inception_4c/3x3_reduce"
  param {
    lr_mult: 1
    decay_mult: 1
  }
  param {
    lr_mult: 2
    decay_mult: 0
  }
  convolution_param {
    num_output: 128
    kernel_size: 1
    weight_filler {
      type: "xavier"
      std: 0.09
    }
    bias_filler {
      type: "constant"
      value: 0.2
    }
  }
}
layer {
  name: "inception_4c/relu_3x3_reduce"
  type: "ReLU"
  bottom: "inception_4c/3x3_reduce"
  top: "inception_4c/3x3_reduce"
}
layer {
  name: "inception_4c/3x3"
  type: "Convolution"
  bottom: "inception_4c/3x3_reduce"
  top: "inception_4c/3x3"
  param {
    lr_mult: 1
    decay_mult: 1
  }
  param {
    lr_mult: 2
    decay_mult: 0
  }
  convolution_param {
    num_output: 256
    pad: 1
    kernel_size: 3
    weight_filler {
      type: "xavier"
      std: 0.03
    }
    bias_filler {
      type: "constant"
      value: 0.2
    }
  }
}
layer {
  name: "inception_4c/relu_3x3"
  type: "ReLU"
  bottom: "inception_4c/3x3"
  top: "inception_4c/3x3"
}
layer {
  name: "inception_4c/5x5_reduce"
  type: "Convolution"
  bottom: "inception_4b/output"
  top: "inception_4c/5x5_reduce"
  param {
    lr_mult: 1
    decay_mult: 1
  }
  param {
    lr_mult: 2
    decay_mult: 0
  }
  convolution_param {
    num_output: 24
    kernel_size: 1
    weight_filler {
      type: "xavier"
      std: 0.2
    }
    bias_filler {
      type: "constant"
      value: 0.2
    }
  }
}
layer {
  name: "inception_4c/relu_5x5_reduce"
  type: "ReLU"
  bottom: "inception_4c/5x5_reduce"
  top: "inception_4c/5x5_reduce"
}
layer {
  name: "inception_4c/5x5"
  type: "Convolution"
  bottom: "inception_4c/5x5_reduce"
  top: "inception_4c/5x5"
  param {
    lr_mult: 1
    decay_mult: 1
  }
  param {
    lr_mult: 2
    decay_mult: 0
  }
  convolution_param {
    num_output: 64
    pad: 2
    kernel_size: 5
    weight_filler {
      type: "xavier"
      std: 0.03
    }
    bias_filler {
      type: "constant"
      value: 0.2
    }
  }
}
layer {
  name: "inception_4c/relu_5x5"
  type: "ReLU"
  bottom: "inception_4c/5x5"
  top: "inception_4c/5x5"
}
layer {
  name: "inception_4c/pool"
  type: "Pooling"
  bottom: "inception_4b/output"
  top: "inception_4c/pool"
  pooling_param {
    pool: MAX
    kernel_size: 3
    stride: 1
    pad: 1
  }
}
layer {
  name: "inception_4c/pool_proj"
  type: "Convolution"
  bottom: "inception_4c/pool"
  top: "inception_4c/pool_proj"
  param {
    lr_mult: 1
    decay_mult: 1
  }
  param {
    lr_mult: 2
    decay_mult: 0
  }
  convolution_param {
    num_output: 64
    kernel_size: 1
    weight_filler {
      type: "xavier"
      std: 0.1
    }
    bias_filler {
      type: "constant"
      value: 0.2
    }
  }
}
layer {
  name: "inception_4c/relu_pool_proj"
  type: "ReLU"
  bottom: "inception_4c/pool_proj"
  top: "inception_4c/pool_proj"
}
layer {
  name: "inception_4c/output"
  type: "Concat"
  bottom: "inception_4c/1x1"
  bottom: "inception_4c/3x3"
  bottom: "inception_4c/5x5"
  bottom: "inception_4c/pool_proj"
  top: "inception_4c/output"
}
layer {
  name: "inception_4d/1x1"
  type: "Convolution"
  bottom: "inception_4c/output"
  top: "inception_4d/1x1"
  param {
    lr_mult: 1
    decay_mult: 1
  }
  param {
    lr_mult: 2
    decay_mult: 0
  }
  convolution_param {
    num_output: 112
    kernel_size: 1
    weight_filler {
      type: "xavier"
      std: 0.03
    }
    bias_filler {
      type: "constant"
      value: 0.2
    }
  }
}
layer {
  name: "inception_4d/relu_1x1"
  type: "ReLU"
  bottom: "inception_4d/1x1"
  top: "inception_4d/1x1"
}
layer {
  name: "inception_4d/3x3_reduce"
  type: "Convolution"
  bottom: "inception_4c/output"
  top: "inception_4d/3x3_reduce"
  param {
    lr_mult: 1
    decay_mult: 1
  }
  param {
    lr_mult: 2
    decay_mult: 0
  }
  convolution_param {
    num_output: 144
    kernel_size: 1
    weight_filler {
      type: "xavier"
      std: 0.09
    }
    bias_filler {
      type: "constant"
      value: 0.2
    }
  }
}
layer {
  name: "inception_4d/relu_3x3_reduce"
  type: "ReLU"
  bottom: "inception_4d/3x3_reduce"
  top: "inception_4d/3x3_reduce"
}
layer {
  name: "inception_4d/3x3"
  type: "Convolution"
  bottom: "inception_4d/3x3_reduce"
  top: "inception_4d/3x3"
  param {
    lr_mult: 1
    decay_mult: 1
  }
  param {
    lr_mult: 2
    decay_mult: 0
  }
  convolution_param {
    num_output: 288
    pad: 1
    kernel_size: 3
    weight_filler {
      type: "xavier"
      std: 0.03
    }
    bias_filler {
      type: "constant"
      value: 0.2
    }
  }
}
layer {
  name: "inception_4d/relu_3x3"
  type: "ReLU"
  bottom: "inception_4d/3x3"
  top: "inception_4d/3x3"
}
layer {
  name: "inception_4d/5x5_reduce"
  type: "Convolution"
  bottom: "inception_4c/output"
  top: "inception_4d/5x5_reduce"
  param {
    lr_mult: 1
    decay_mult: 1
  }
  param {
    lr_mult: 2
    decay_mult: 0
  }
  convolution_param {
    num_output: 32
    kernel_size: 1
    weight_filler {
      type: "xavier"
      std: 0.2
    }
    bias_filler {
      type: "constant"
      value: 0.2
    }
  }
}
layer {
  name: "inception_4d/relu_5x5_reduce"
  type: "ReLU"
  bottom: "inception_4d/5x5_reduce"
  top: "inception_4d/5x5_reduce"
}
layer {
  name: "inception_4d/5x5"
  type: "Convolution"
  bottom: "inception_4d/5x5_reduce"
  top: "inception_4d/5x5"
  param {
    lr_mult: 1
    decay_mult: 1
  }
  param {
    lr_mult: 2
    decay_mult: 0
  }
  convolution_param {
    num_output: 64
    pad: 2
    kernel_size: 5
    weight_filler {
      type: "xavier"
      std: 0.03
    }
    bias_filler {
      type: "constant"
      value: 0.2
    }
  }
}
layer {
  name: "inception_4d/relu_5x5"
  type: "ReLU"
  bottom: "inception_4d/5x5"
  top: "inception_4d/5x5"
}
layer {
  name: "inception_4d/pool"
  type: "Pooling"
  bottom: "inception_4c/output"
  top: "inception_4d/pool"
  pooling_param {
    pool: MAX
    kernel_size: 3
    stride: 1
    pad: 1
  }
}
layer {
  name: "inception_4d/pool_proj"
  type: "Convolution"
  bottom: "inception_4d/pool"
  top: "inception_4d/pool_proj"
  param {
    lr_mult: 1
    decay_mult: 1
  }
  param {
    lr_mult: 2
    decay_mult: 0
  }
  convolution_param {
    num_output: 64
    kernel_size: 1
    weight_filler {
      type: "xavier"
      std: 0.1
    }
    bias_filler {
      type: "constant"
      value: 0.2
    }
  }
}
layer {
  name: "inception_4d/relu_pool_proj"
  type: "ReLU"
  bottom: "inception_4d/pool_proj"
  top: "inception_4d/pool_proj"
}
layer {
  name: "inception_4d/output"
  type: "Concat"
  bottom: "inception_4d/1x1"
  bottom: "inception_4d/3x3"
  bottom: "inception_4d/5x5"
  bottom: "inception_4d/pool_proj"
  top: "inception_4d/output"
}
layer {
  name: "loss2/ave_pool"
  type: "Pooling"
  bottom: "inception_4d/output"
  top: "loss2/ave_pool"
  pooling_param {
    pool: AVE
    kernel_size: 5
    stride: 3
  }
}
layer {
  name: "loss2/conv"
  type: "Convolution"
  bottom: "loss2/ave_pool"
  top: "loss2/conv"
  param {
    lr_mult: 1
    decay_mult: 1
  }
  param {
    lr_mult: 2
    decay_mult: 0
  }
  convolution_param {
    num_output: 128
    kernel_size: 1
    weight_filler {
      type: "xavier"
      std: 0.08
    }
    bias_filler {
      type: "constant"
      value: 0.2
    }
  }
}
layer {
  name: "loss2/relu_conv"
  type: "ReLU"
  bottom: "loss2/conv"
  top: "loss2/conv"
}
layer {
  name: "loss2/fc"
  type: "InnerProduct"
  bottom: "loss2/conv"
  top: "loss2/fc"
  param {
    lr_mult: 1
    decay_mult: 1
  }
  param {
    lr_mult: 2
    decay_mult: 0
  }
  inner_product_param {
    num_output: 1024
    weight_filler {
      type: "xavier"
      std: 0.02
    }
    bias_filler {
      type: "constant"
      value: 0.2
    }
  }
}
layer {
  name: "loss2/relu_fc"
  type: "ReLU"
  bottom: "loss2/fc"
  top: "loss2/fc"
}
layer {
  name: "loss2/drop_fc"
  type: "Dropout"
  bottom: "loss2/fc"
  top: "loss2/fc"
  dropout_param {
    dropout_ratio: 0.7
  }
}
layer {
  name: "loss2/classifier_plantvillage"
  type: "InnerProduct"
  bottom: "loss2/fc"
  top: "loss2/classifier_plantvillage"
  param {
    lr_mult: 1
    decay_mult: 1
  }
  param {
    lr_mult: 2
    decay_mult: 0
  }
  inner_product_param {
    num_output: 38
    weight_filler {
      type: "xavier"
      std: 0.0009765625
    }
    bias_filler {
      type: "constant"
      value: 0
    }
  }
}
layer {
  name: "inception_4e/1x1"
  type: "Convolution"
  bottom: "inception_4d/output"
  top: "inception_4e/1x1"
  param {
    lr_mult: 1
    decay_mult: 1
  }
  param {
    lr_mult: 2
    decay_mult: 0
  }
  convolution_param {
    num_output: 256
    kernel_size: 1
    weight_filler {
      type: "xavier"
      std: 0.03
    }
    bias_filler {
      type: "constant"
      value: 0.2
    }
  }
}
layer {
  name: "inception_4e/relu_1x1"
  type: "ReLU"
  bottom: "inception_4e/1x1"
  top: "inception_4e/1x1"
}
layer {
  name: "inception_4e/3x3_reduce"
  type: "Convolution"
  bottom: "inception_4d/output"
  top: "inception_4e/3x3_reduce"
  param {
    lr_mult: 1
    decay_mult: 1
  }
  param {
    lr_mult: 2
    decay_mult: 0
  }
  convolution_param {
    num_output: 160
    kernel_size: 1
    weight_filler {
      type: "xavier"
      std: 0.09
    }
    bias_filler {
      type: "constant"
      value: 0.2
    }
  }
}
layer {
  name: "inception_4e/relu_3x3_reduce"
  type: "ReLU"
  bottom: "inception_4e/3x3_reduce"
  top: "inception_4e/3x3_reduce"
}
layer {
  name: "inception_4e/3x3"
  type: "Convolution"
  bottom: "inception_4e/3x3_reduce"
  top: "inception_4e/3x3"
  param {
    lr_mult: 1
    decay_mult: 1
  }
  param {
    lr_mult: 2
    decay_mult: 0
  }
  convolution_param {
    num_output: 320
    pad: 1
    kernel_size: 3
    weight_filler {
      type: "xavier"
      std: 0.03
    }
    bias_filler {
      type: "constant"
      value: 0.2
    }
  }
}
layer {
  name: "inception_4e/relu_3x3"
  type: "ReLU"
  bottom: "inception_4e/3x3"
  top: "inception_4e/3x3"
}
layer {
  name: "inception_4e/5x5_reduce"
  type: "Convolution"
  bottom: "inception_4d/output"
  top: "inception_4e/5x5_reduce"
  param {
    lr_mult: 1
    decay_mult: 1
  }
  param {
    lr_mult: 2
    decay_mult: 0
  }
  convolution_param {
    num_output: 32
    kernel_size: 1
    weight_filler {
      type: "xavier"
      std: 0.2
    }
    bias_filler {
      type: "constant"
      value: 0.2
    }
  }
}
layer {
  name: "inception_4e/relu_5x5_reduce"
  type: "ReLU"
  bottom: "inception_4e/5x5_reduce"
  top: "inception_4e/5x5_reduce"
}
layer {
  name: "inception_4e/5x5"
  type: "Convolution"
  bottom: "inception_4e/5x5_reduce"
  top: "inception_4e/
I0403 14:30:04.868175  1385 layer_factory.hpp:77] Creating layer data
I0403 14:30:04.868816  1385 net.cpp:91] Creating Layer data
I0403 14:30:04.868865  1385 net.cpp:399] data -> data
I0403 14:30:04.868917  1385 net.cpp:399] data -> label
I0403 14:30:04.868957  1385 data_transformer.cpp:25] Loading mean file from: /home/mohanty/data/final_dataset/lmdb/grayscale-20-80/mean.binaryproto
I0403 14:30:04.893947  1388 db_lmdb.cpp:38] Opened lmdb /home/mohanty/data/final_dataset/lmdb/grayscale-20-80/test_db
I0403 14:30:04.903301  1385 data_layer.cpp:41] output data size: 24,3,224,224
I0403 14:30:04.931215  1385 net.cpp:141] Setting up data
I0403 14:30:04.931316  1385 net.cpp:148] Top shape: 24 3 224 224 (3612672)
I0403 14:30:04.931340  1385 net.cpp:148] Top shape: 24 (24)
I0403 14:30:04.931355  1385 net.cpp:156] Memory required for data: 14450784
I0403 14:30:04.931383  1385 layer_factory.hpp:77] Creating layer label_data_1_split
I0403 14:30:04.931411  1385 net.cpp:91] Creating Layer label_data_1_split
I0403 14:30:04.931429  1385 net.cpp:425] label_data_1_split <- label
I0403 14:30:04.931468  1385 net.cpp:399] label_data_1_split -> label_data_1_split_0
I0403 14:30:04.931498  1385 net.cpp:399] label_data_1_split -> label_data_1_split_1
I0403 14:30:04.931519  1385 net.cpp:399] label_data_1_split -> label_data_1_split_2
I0403 14:30:04.931540  1385 net.cpp:399] label_data_1_split -> label_data_1_split_3
I0403 14:30:04.931561  1385 net.cpp:399] label_data_1_split -> label_data_1_split_4
I0403 14:30:04.931581  1385 net.cpp:399] label_data_1_split -> label_data_1_split_5
I0403 14:30:04.931602  1385 net.cpp:399] label_data_1_split -> label_data_1_split_6
I0403 14:30:04.931622  1385 net.cpp:399] label_data_1_split -> label_data_1_split_7
I0403 14:30:04.931643  1385 net.cpp:399] label_data_1_split -> label_data_1_split_8
I0403 14:30:04.931666  1385 net.cpp:399] label_data_1_split -> label_data_1_split_9
I0403 14:30:04.931784  1385 net.cpp:141] Setting up label_data_1_split
I0403 14:30:04.931808  1385 net.cpp:148] Top shape: 24 (24)
I0403 14:30:04.931826  1385 net.cpp:148] Top shape: 24 (24)
I0403 14:30:04.931843  1385 net.cpp:148] Top shape: 24 (24)
I0403 14:30:04.931859  1385 net.cpp:148] Top shape: 24 (24)
I0403 14:30:04.931875  1385 net.cpp:148] Top shape: 24 (24)
I0403 14:30:04.931891  1385 net.cpp:148] Top shape: 24 (24)
I0403 14:30:04.931908  1385 net.cpp:148] Top shape: 24 (24)
I0403 14:30:04.931926  1385 net.cpp:148] Top shape: 24 (24)
I0403 14:30:04.931941  1385 net.cpp:148] Top shape: 24 (24)
I0403 14:30:04.931958  1385 net.cpp:148] Top shape: 24 (24)
I0403 14:30:04.932003  1385 net.cpp:156] Memory required for data: 14451744
I0403 14:30:04.932020  1385 layer_factory.hpp:77] Creating layer conv1/7x7_s2
I0403 14:30:04.932054  1385 net.cpp:91] Creating Layer conv1/7x7_s2
I0403 14:30:04.932072  1385 net.cpp:425] conv1/7x7_s2 <- data
I0403 14:30:04.932093  1385 net.cpp:399] conv1/7x7_s2 -> conv1/7x7_s2
I0403 14:30:05.074235  1385 net.cpp:141] Setting up conv1/7x7_s2
I0403 14:30:05.074326  1385 net.cpp:148] Top shape: 24 64 112 112 (19267584)
I0403 14:30:05.074345  1385 net.cpp:156] Memory required for data: 91522080
I0403 14:30:05.074378  1385 layer_factory.hpp:77] Creating layer conv1/relu_7x7
I0403 14:30:05.074407  1385 net.cpp:91] Creating Layer conv1/relu_7x7
I0403 14:30:05.074426  1385 net.cpp:425] conv1/relu_7x7 <- conv1/7x7_s2
I0403 14:30:05.074447  1385 net.cpp:386] conv1/relu_7x7 -> conv1/7x7_s2 (in-place)
I0403 14:30:05.074759  1385 net.cpp:141] Setting up conv1/relu_7x7
I0403 14:30:05.074789  1385 net.cpp:148] Top shape: 24 64 112 112 (19267584)
I0403 14:30:05.074805  1385 net.cpp:156] Memory required for data: 168592416
I0403 14:30:05.074821  1385 layer_factory.hpp:77] Creating layer pool1/3x3_s2
I0403 14:30:05.074847  1385 net.cpp:91] Creating Layer pool1/3x3_s2
I0403 14:30:05.074865  1385 net.cpp:425] pool1/3x3_s2 <- conv1/7x7_s2
I0403 14:30:05.074885  1385 net.cpp:399] pool1/3x3_s2 -> pool1/3x3_s2
I0403 14:30:05.074962  1385 net.cpp:141] Setting up pool1/3x3_s2
I0403 14:30:05.074987  1385 net.cpp:148] Top shape: 24 64 56 56 (4816896)
I0403 14:30:05.075003  1385 net.cpp:156] Memory required for data: 187860000
I0403 14:30:05.075018  1385 layer_factory.hpp:77] Creating layer pool1/norm1
I0403 14:30:05.075044  1385 net.cpp:91] Creating Layer pool1/norm1
I0403 14:30:05.075062  1385 net.cpp:425] pool1/norm1 <- pool1/3x3_s2
I0403 14:30:05.075081  1385 net.cpp:399] pool1/norm1 -> pool1/norm1
I0403 14:30:05.075387  1385 net.cpp:141] Setting up pool1/norm1
I0403 14:30:05.075415  1385 net.cpp:148] Top shape: 24 64 56 56 (4816896)
I0403 14:30:05.075433  1385 net.cpp:156] Memory required for data: 207127584
I0403 14:30:05.075449  1385 layer_factory.hpp:77] Creating layer conv2/3x3_reduce
I0403 14:30:05.075474  1385 net.cpp:91] Creating Layer conv2/3x3_reduce
I0403 14:30:05.075491  1385 net.cpp:425] conv2/3x3_reduce <- pool1/norm1
I0403 14:30:05.075510  1385 net.cpp:399] conv2/3x3_reduce -> conv2/3x3_reduce
I0403 14:30:05.076930  1385 net.cpp:141] Setting up conv2/3x3_reduce
I0403 14:30:05.076961  1385 net.cpp:148] Top shape: 24 64 56 56 (4816896)
I0403 14:30:05.076977  1385 net.cpp:156] Memory required for data: 226395168
I0403 14:30:05.076999  1385 layer_factory.hpp:77] Creating layer conv2/relu_3x3_reduce
I0403 14:30:05.077019  1385 net.cpp:91] Creating Layer conv2/relu_3x3_reduce
I0403 14:30:05.077036  1385 net.cpp:425] conv2/relu_3x3_reduce <- conv2/3x3_reduce
I0403 14:30:05.077054  1385 net.cpp:386] conv2/relu_3x3_reduce -> conv2/3x3_reduce (in-place)
I0403 14:30:05.077322  1385 net.cpp:141] Setting up conv2/relu_3x3_reduce
I0403 14:30:05.077352  1385 net.cpp:148] Top shape: 24 64 56 56 (4816896)
I0403 14:30:05.077368  1385 net.cpp:156] Memory required for data: 245662752
I0403 14:30:05.077384  1385 layer_factory.hpp:77] Creating layer conv2/3x3
I0403 14:30:05.077407  1385 net.cpp:91] Creating Layer conv2/3x3
I0403 14:30:05.077425  1385 net.cpp:425] conv2/3x3 <- conv2/3x3_reduce
I0403 14:30:05.077445  1385 net.cpp:399] conv2/3x3 -> conv2/3x3
I0403 14:30:05.079845  1385 net.cpp:141] Setting up conv2/3x3
I0403 14:30:05.079877  1385 net.cpp:148] Top shape: 24 192 56 56 (14450688)
I0403 14:30:05.079895  1385 net.cpp:156] Memory required for data: 303465504
I0403 14:30:05.079918  1385 layer_factory.hpp:77] Creating layer conv2/relu_3x3
I0403 14:30:05.079937  1385 net.cpp:91] Creating Layer conv2/relu_3x3
I0403 14:30:05.079954  1385 net.cpp:425] conv2/relu_3x3 <- conv2/3x3
I0403 14:30:05.079972  1385 net.cpp:386] conv2/relu_3x3 -> conv2/3x3 (in-place)
I0403 14:30:05.080142  1385 net.cpp:141] Setting up conv2/relu_3x3
I0403 14:30:05.080169  1385 net.cpp:148] Top shape: 24 192 56 56 (14450688)
I0403 14:30:05.080221  1385 net.cpp:156] Memory required for data: 361268256
I0403 14:30:05.080240  1385 layer_factory.hpp:77] Creating layer conv2/norm2
I0403 14:30:05.080260  1385 net.cpp:91] Creating Layer conv2/norm2
I0403 14:30:05.080276  1385 net.cpp:425] conv2/norm2 <- conv2/3x3
I0403 14:30:05.080296  1385 net.cpp:399] conv2/norm2 -> conv2/norm2
I0403 14:30:05.080600  1385 net.cpp:141] Setting up conv2/norm2
I0403 14:30:05.080628  1385 net.cpp:148] Top shape: 24 192 56 56 (14450688)
I0403 14:30:05.080646  1385 net.cpp:156] Memory required for data: 419071008
I0403 14:30:05.080662  1385 layer_factory.hpp:77] Creating layer pool2/3x3_s2
I0403 14:30:05.080680  1385 net.cpp:91] Creating Layer pool2/3x3_s2
I0403 14:30:05.080698  1385 net.cpp:425] pool2/3x3_s2 <- conv2/norm2
I0403 14:30:05.080716  1385 net.cpp:399] pool2/3x3_s2 -> pool2/3x3_s2
I0403 14:30:05.080770  1385 net.cpp:141] Setting up pool2/3x3_s2
I0403 14:30:05.080795  1385 net.cpp:148] Top shape: 24 192 28 28 (3612672)
I0403 14:30:05.080811  1385 net.cpp:156] Memory required for data: 433521696
I0403 14:30:05.080826  1385 layer_factory.hpp:77] Creating layer pool2/3x3_s2_pool2/3x3_s2_0_split
I0403 14:30:05.080844  1385 net.cpp:91] Creating Layer pool2/3x3_s2_pool2/3x3_s2_0_split
I0403 14:30:05.080860  1385 net.cpp:425] pool2/3x3_s2_pool2/3x3_s2_0_split <- pool2/3x3_s2
I0403 14:30:05.080879  1385 net.cpp:399] pool2/3x3_s2_pool2/3x3_s2_0_split -> pool2/3x3_s2_pool2/3x3_s2_0_split_0
I0403 14:30:05.080899  1385 net.cpp:399] pool2/3x3_s2_pool2/3x3_s2_0_split -> pool2/3x3_s2_pool2/3x3_s2_0_split_1
I0403 14:30:05.080920  1385 net.cpp:399] pool2/3x3_s2_pool2/3x3_s2_0_split -> pool2/3x3_s2_pool2/3x3_s2_0_split_2
I0403 14:30:05.080940  1385 net.cpp:399] pool2/3x3_s2_pool2/3x3_s2_0_split -> pool2/3x3_s2_pool2/3x3_s2_0_split_3
I0403 14:30:05.081008  1385 net.cpp:141] Setting up pool2/3x3_s2_pool2/3x3_s2_0_split
I0403 14:30:05.081032  1385 net.cpp:148] Top shape: 24 192 28 28 (3612672)
I0403 14:30:05.081049  1385 net.cpp:148] Top shape: 24 192 28 28 (3612672)
I0403 14:30:05.081066  1385 net.cpp:148] Top shape: 24 192 28 28 (3612672)
I0403 14:30:05.081084  1385 net.cpp:148] Top shape: 24 192 28 28 (3612672)
I0403 14:30:05.081099  1385 net.cpp:156] Memory required for data: 491324448
I0403 14:30:05.081113  1385 layer_factory.hpp:77] Creating layer inception_3a/1x1
I0403 14:30:05.081135  1385 net.cpp:91] Creating Layer inception_3a/1x1
I0403 14:30:05.081153  1385 net.cpp:425] inception_3a/1x1 <- pool2/3x3_s2_pool2/3x3_s2_0_split_0
I0403 14:30:05.081172  1385 net.cpp:399] inception_3a/1x1 -> inception_3a/1x1
I0403 14:30:05.082836  1385 net.cpp:141] Setting up inception_3a/1x1
I0403 14:30:05.082871  1385 net.cpp:148] Top shape: 24 64 28 28 (1204224)
I0403 14:30:05.082890  1385 net.cpp:156] Memory required for data: 496141344
I0403 14:30:05.082909  1385 layer_factory.hpp:77] Creating layer inception_3a/relu_1x1
I0403 14:30:05.082929  1385 net.cpp:91] Creating Layer inception_3a/relu_1x1
I0403 14:30:05.082947  1385 net.cpp:425] inception_3a/relu_1x1 <- inception_3a/1x1
I0403 14:30:05.082967  1385 net.cpp:386] inception_3a/relu_1x1 -> inception_3a/1x1 (in-place)
I0403 14:30:05.083156  1385 net.cpp:141] Setting up inception_3a/relu_1x1
I0403 14:30:05.083184  1385 net.cpp:148] Top shape: 24 64 28 28 (1204224)
I0403 14:30:05.083199  1385 net.cpp:156] Memory required for data: 500958240
I0403 14:30:05.083228  1385 layer_factory.hpp:77] Creating layer inception_3a/3x3_reduce
I0403 14:30:05.083279  1385 net.cpp:91] Creating Layer inception_3a/3x3_reduce
I0403 14:30:05.083300  1385 net.cpp:425] inception_3a/3x3_reduce <- pool2/3x3_s2_pool2/3x3_s2_0_split_1
I0403 14:30:05.083323  1385 net.cpp:399] inception_3a/3x3_reduce -> inception_3a/3x3_reduce
I0403 14:30:05.085101  1385 net.cpp:141] Setting up inception_3a/3x3_reduce
I0403 14:30:05.085135  1385 net.cpp:148] Top shape: 24 96 28 28 (1806336)
I0403 14:30:05.085153  1385 net.cpp:156] Memory required for data: 508183584
I0403 14:30:05.085175  1385 layer_factory.hpp:77] Creating layer inception_3a/relu_3x3_reduce
I0403 14:30:05.085221  1385 net.cpp:91] Creating Layer inception_3a/relu_3x3_reduce
I0403 14:30:05.085240  1385 net.cpp:425] inception_3a/relu_3x3_reduce <- inception_3a/3x3_reduce
I0403 14:30:05.085259  1385 net.cpp:386] inception_3a/relu_3x3_reduce -> inception_3a/3x3_reduce (in-place)
I0403 14:30:05.085456  1385 net.cpp:141] Setting up inception_3a/relu_3x3_reduce
I0403 14:30:05.085484  1385 net.cpp:148] Top shape: 24 96 28 28 (1806336)
I0403 14:30:05.085500  1385 net.cpp:156] Memory required for data: 515408928
I0403 14:30:05.085515  1385 layer_factory.hpp:77] Creating layer inception_3a/3x3
I0403 14:30:05.085541  1385 net.cpp:91] Creating Layer inception_3a/3x3
I0403 14:30:05.085559  1385 net.cpp:425] inception_3a/3x3 <- inception_3a/3x3_reduce
I0403 14:30:05.085578  1385 net.cpp:399] inception_3a/3x3 -> inception_3a/3x3
I0403 14:30:05.087333  1385 net.cpp:141] Setting up inception_3a/3x3
I0403 14:30:05.087364  1385 net.cpp:148] Top shape: 24 128 28 28 (2408448)
I0403 14:30:05.087380  1385 net.cpp:156] Memory required for data: 525042720
I0403 14:30:05.087400  1385 layer_factory.hpp:77] Creating layer inception_3a/relu_3x3
I0403 14:30:05.087419  1385 net.cpp:91] Creating Layer inception_3a/relu_3x3
I0403 14:30:05.087437  1385 net.cpp:425] inception_3a/relu_3x3 <- inception_3a/3x3
I0403 14:30:05.087458  1385 net.cpp:386] inception_3a/relu_3x3 -> inception_3a/3x3 (in-place)
I0403 14:30:05.087754  1385 net.cpp:141] Setting up inception_3a/relu_3x3
I0403 14:30:05.087782  1385 net.cpp:148] Top shape: 24 128 28 28 (2408448)
I0403 14:30:05.087797  1385 net.cpp:156] Memory required for data: 534676512
I0403 14:30:05.087813  1385 layer_factory.hpp:77] Creating layer inception_3a/5x5_reduce
I0403 14:30:05.087837  1385 net.cpp:91] Creating Layer inception_3a/5x5_reduce
I0403 14:30:05.087857  1385 net.cpp:425] inception_3a/5x5_reduce <- pool2/3x3_s2_pool2/3x3_s2_0_split_2
I0403 14:30:05.087879  1385 net.cpp:399] inception_3a/5x5_reduce -> inception_3a/5x5_reduce
I0403 14:30:05.088904  1385 net.cpp:141] Setting up inception_3a/5x5_reduce
I0403 14:30:05.088934  1385 net.cpp:148] Top shape: 24 16 28 28 (301056)
I0403 14:30:05.088951  1385 net.cpp:156] Memory required for data: 535880736
I0403 14:30:05.088971  1385 layer_factory.hpp:77] Creating layer inception_3a/relu_5x5_reduce
I0403 14:30:05.088990  1385 net.cpp:91] Creating Layer inception_3a/relu_5x5_reduce
I0403 14:30:05.089007  1385 net.cpp:425] inception_3a/relu_5x5_reduce <- inception_3a/5x5_reduce
I0403 14:30:05.089028  1385 net.cpp:386] inception_3a/relu_5x5_reduce -> inception_3a/5x5_reduce (in-place)
I0403 14:30:05.089349  1385 net.cpp:141] Setting up inception_3a/relu_5x5_reduce
I0403 14:30:05.089378  1385 net.cpp:148] Top shape: 24 16 28 28 (301056)
I0403 14:30:05.089395  1385 net.cpp:156] Memory required for data: 537084960
I0403 14:30:05.089411  1385 layer_factory.hpp:77] Creating layer inception_3a/5x5
I0403 14:30:05.089434  1385 net.cpp:91] Creating Layer inception_3a/5x5
I0403 14:30:05.089452  1385 net.cpp:425] inception_3a/5x5 <- inception_3a/5x5_reduce
I0403 14:30:05.089474  1385 net.cpp:399] inception_3a/5x5 -> inception_3a/5x5
I0403 14:30:05.090558  1385 net.cpp:141] Setting up inception_3a/5x5
I0403 14:30:05.090587  1385 net.cpp:148] Top shape: 24 32 28 28 (602112)
I0403 14:30:05.090603  1385 net.cpp:156] Memory required for data: 539493408
I0403 14:30:05.090623  1385 layer_factory.hpp:77] Creating layer inception_3a/relu_5x5
I0403 14:30:05.090642  1385 net.cpp:91] Creating Layer inception_3a/relu_5x5
I0403 14:30:05.090659  1385 net.cpp:425] inception_3a/relu_5x5 <- inception_3a/5x5
I0403 14:30:05.090680  1385 net.cpp:386] inception_3a/relu_5x5 -> inception_3a/5x5 (in-place)
I0403 14:30:05.090867  1385 net.cpp:141] Setting up inception_3a/relu_5x5
I0403 14:30:05.090894  1385 net.cpp:148] Top shape: 24 32 28 28 (602112)
I0403 14:30:05.090909  1385 net.cpp:156] Memory required for data: 541901856
I0403 14:30:05.090925  1385 layer_factory.hpp:77] Creating layer inception_3a/pool
I0403 14:30:05.090946  1385 net.cpp:91] Creating Layer inception_3a/pool
I0403 14:30:05.090978  1385 net.cpp:425] inception_3a/pool <- pool2/3x3_s2_pool2/3x3_s2_0_split_3
I0403 14:30:05.090999  1385 net.cpp:399] inception_3a/pool -> inception_3a/pool
I0403 14:30:05.091063  1385 net.cpp:141] Setting up inception_3a/pool
I0403 14:30:05.091085  1385 net.cpp:148] Top shape: 24 192 28 28 (3612672)
I0403 14:30:05.091101  1385 net.cpp:156] Memory required for data: 556352544
I0403 14:30:05.091116  1385 layer_factory.hpp:77] Creating layer inception_3a/pool_proj
I0403 14:30:05.091140  1385 net.cpp:91] Creating Layer inception_3a/pool_proj
I0403 14:30:05.091158  1385 net.cpp:425] inception_3a/pool_proj <- inception_3a/pool
I0403 14:30:05.091181  1385 net.cpp:399] inception_3a/pool_proj -> inception_3a/pool_proj
I0403 14:30:05.092216  1385 net.cpp:141] Setting up inception_3a/pool_proj
I0403 14:30:05.092247  1385 net.cpp:148] Top shape: 24 32 28 28 (602112)
I0403 14:30:05.092267  1385 net.cpp:156] Memory required for data: 558760992
I0403 14:30:05.092289  1385 layer_factory.hpp:77] Creating layer inception_3a/relu_pool_proj
I0403 14:30:05.092309  1385 net.cpp:91] Creating Layer inception_3a/relu_pool_proj
I0403 14:30:05.092326  1385 net.cpp:425] inception_3a/relu_pool_proj <- inception_3a/pool_proj
I0403 14:30:05.092347  1385 net.cpp:386] inception_3a/relu_pool_proj -> inception_3a/pool_proj (in-place)
I0403 14:30:05.092650  1385 net.cpp:141] Setting up inception_3a/relu_pool_proj
I0403 14:30:05.092679  1385 net.cpp:148] Top shape: 24 32 28 28 (602112)
I0403 14:30:05.092694  1385 net.cpp:156] Memory required for data: 561169440
I0403 14:30:05.092710  1385 layer_factory.hpp:77] Creating layer inception_3a/output
I0403 14:30:05.092736  1385 net.cpp:91] Creating Layer inception_3a/output
I0403 14:30:05.092751  1385 net.cpp:425] inception_3a/output <- inception_3a/1x1
I0403 14:30:05.092769  1385 net.cpp:425] inception_3a/output <- inception_3a/3x3
I0403 14:30:05.092787  1385 net.cpp:425] inception_3a/output <- inception_3a/5x5
I0403 14:30:05.092803  1385 net.cpp:425] inception_3a/output <- inception_3a/pool_proj
I0403 14:30:05.092823  1385 net.cpp:399] inception_3a/output -> inception_3a/output
I0403 14:30:05.092874  1385 net.cpp:141] Setting up inception_3a/output
I0403 14:30:05.092901  1385 net.cpp:148] Top shape: 24 256 28 28 (4816896)
I0403 14:30:05.092917  1385 net.cpp:156] Memory required for data: 580437024
I0403 14:30:05.092933  1385 layer_factory.hpp:77] Creating layer inception_3a/output_inception_3a/output_0_split
I0403 14:30:05.092952  1385 net.cpp:91] Creating Layer inception_3a/output_inception_3a/output_0_split
I0403 14:30:05.092967  1385 net.cpp:425] inception_3a/output_inception_3a/output_0_split <- inception_3a/output
I0403 14:30:05.092985  1385 net.cpp:399] inception_3a/output_inception_3a/output_0_split -> inception_3a/output_inception_3a/output_0_split_0
I0403 14:30:05.093008  1385 net.cpp:399] inception_3a/output_inception_3a/output_0_split -> inception_3a/output_inception_3a/output_0_split_1
I0403 14:30:05.093034  1385 net.cpp:399] inception_3a/output_inception_3a/output_0_split -> inception_3a/output_inception_3a/output_0_split_2
I0403 14:30:05.093057  1385 net.cpp:399] inception_3a/output_inception_3a/output_0_split -> inception_3a/output_inception_3a/output_0_split_3
I0403 14:30:05.093137  1385 net.cpp:141] Setting up inception_3a/output_inception_3a/output_0_split
I0403 14:30:05.093163  1385 net.cpp:148] Top shape: 24 256 28 28 (4816896)
I0403 14:30:05.093183  1385 net.cpp:148] Top shape: 24 256 28 28 (4816896)
I0403 14:30:05.093199  1385 net.cpp:148] Top shape: 24 256 28 28 (4816896)
I0403 14:30:05.093230  1385 net.cpp:148] Top shape: 24 256 28 28 (4816896)
I0403 14:30:05.093246  1385 net.cpp:156] Memory required for data: 657507360
I0403 14:30:05.093261  1385 layer_factory.hpp:77] Creating layer inception_3b/1x1
I0403 14:30:05.093286  1385 net.cpp:91] Creating Layer inception_3b/1x1
I0403 14:30:05.093304  1385 net.cpp:425] inception_3b/1x1 <- inception_3a/output_inception_3a/output_0_split_0
I0403 14:30:05.093324  1385 net.cpp:399] inception_3b/1x1 -> inception_3b/1x1
I0403 14:30:05.094544  1385 net.cpp:141] Setting up inception_3b/1x1
I0403 14:30:05.094589  1385 net.cpp:148] Top shape: 24 128 28 28 (2408448)
I0403 14:30:05.094607  1385 net.cpp:156] Memory required for data: 667141152
I0403 14:30:05.094627  1385 layer_factory.hpp:77] Creating layer inception_3b/relu_1x1
I0403 14:30:05.094646  1385 net.cpp:91] Creating Layer inception_3b/relu_1x1
I0403 14:30:05.094662  1385 net.cpp:425] inception_3b/relu_1x1 <- inception_3b/1x1
I0403 14:30:05.094683  1385 net.cpp:386] inception_3b/relu_1x1 -> inception_3b/1x1 (in-place)
I0403 14:30:05.094877  1385 net.cpp:141] Setting up inception_3b/relu_1x1
I0403 14:30:05.094903  1385 net.cpp:148] Top shape: 24 128 28 28 (2408448)
I0403 14:30:05.094919  1385 net.cpp:156] Memory required for data: 676774944
I0403 14:30:05.094938  1385 layer_factory.hpp:77] Creating layer inception_3b/3x3_reduce
I0403 14:30:05.094962  1385 net.cpp:91] Creating Layer inception_3b/3x3_reduce
I0403 14:30:05.094981  1385 net.cpp:425] inception_3b/3x3_reduce <- inception_3a/output_inception_3a/output_0_split_1
I0403 14:30:05.095005  1385 net.cpp:399] inception_3b/3x3_reduce -> inception_3b/3x3_reduce
I0403 14:30:05.096225  1385 net.cpp:141] Setting up inception_3b/3x3_reduce
I0403 14:30:05.096259  1385 net.cpp:148] Top shape: 24 128 28 28 (2408448)
I0403 14:30:05.096276  1385 net.cpp:156] Memory required for data: 686408736
I0403 14:30:05.096297  1385 layer_factory.hpp:77] Creating layer inception_3b/relu_3x3_reduce
I0403 14:30:05.096315  1385 net.cpp:91] Creating Layer inception_3b/relu_3x3_reduce
I0403 14:30:05.096333  1385 net.cpp:425] inception_3b/relu_3x3_reduce <- inception_3b/3x3_reduce
I0403 14:30:05.096351  1385 net.cpp:386] inception_3b/relu_3x3_reduce -> inception_3b/3x3_reduce (in-place)
I0403 14:30:05.096542  1385 net.cpp:141] Setting up inception_3b/relu_3x3_reduce
I0403 14:30:05.096570  1385 net.cpp:148] Top shape: 24 128 28 28 (2408448)
I0403 14:30:05.096585  1385 net.cpp:156] Memory required for data: 696042528
I0403 14:30:05.096601  1385 layer_factory.hpp:77] Creating layer inception_3b/3x3
I0403 14:30:05.096626  1385 net.cpp:91] Creating Layer inception_3b/3x3
I0403 14:30:05.096647  1385 net.cpp:425] inception_3b/3x3 <- inception_3b/3x3_reduce
I0403 14:30:05.096669  1385 net.cpp:399] inception_3b/3x3 -> inception_3b/3x3
I0403 14:30:05.099736  1385 net.cpp:141] Setting up inception_3b/3x3
I0403 14:30:05.099767  1385 net.cpp:148] Top shape: 24 192 28 28 (3612672)
I0403 14:30:05.099783  1385 net.cpp:156] Memory required for data: 710493216
I0403 14:30:05.099803  1385 layer_factory.hpp:77] Creating layer inception_3b/relu_3x3
I0403 14:30:05.099822  1385 net.cpp:91] Creating Layer inception_3b/relu_3x3
I0403 14:30:05.099838  1385 net.cpp:425] inception_3b/relu_3x3 <- inception_3b/3x3
I0403 14:30:05.099859  1385 net.cpp:386] inception_3b/relu_3x3 -> inception_3b/3x3 (in-place)
I0403 14:30:05.100154  1385 net.cpp:141] Setting up inception_3b/relu_3x3
I0403 14:30:05.100183  1385 net.cpp:148] Top shape: 24 192 28 28 (3612672)
I0403 14:30:05.100199  1385 net.cpp:156] Memory required for data: 724943904
I0403 14:30:05.100220  1385 layer_factory.hpp:77] Creating layer inception_3b/5x5_reduce
I0403 14:30:05.100245  1385 net.cpp:91] Creating Layer inception_3b/5x5_reduce
I0403 14:30:05.100265  1385 net.cpp:425] inception_3b/5x5_reduce <- inception_3a/output_inception_3a/output_0_split_2
I0403 14:30:05.100288  1385 net.cpp:399] inception_3b/5x5_reduce -> inception_3b/5x5_reduce
I0403 14:30:05.101351  1385 net.cpp:141] Setting up inception_3b/5x5_reduce
I0403 14:30:05.101382  1385 net.cpp:148] Top shape: 24 32 28 28 (602112)
I0403 14:30:05.101397  1385 net.cpp:156] Memory required for data: 727352352
I0403 14:30:05.101418  1385 layer_factory.hpp:77] Creating layer inception_3b/relu_5x5_reduce
I0403 14:30:05.101436  1385 net.cpp:91] Creating Layer inception_3b/relu_5x5_reduce
I0403 14:30:05.101454  1385 net.cpp:425] inception_3b/relu_5x5_reduce <- inception_3b/5x5_reduce
I0403 14:30:05.101475  1385 net.cpp:386] inception_3b/relu_5x5_reduce -> inception_3b/5x5_reduce (in-place)
I0403 14:30:05.101680  1385 net.cpp:141] Setting up inception_3b/relu_5x5_reduce
I0403 14:30:05.101706  1385 net.cpp:148] Top shape: 24 32 28 28 (602112)
I0403 14:30:05.101722  1385 net.cpp:156] Memory required for data: 729760800
I0403 14:30:05.101737  1385 layer_factory.hpp:77] Creating layer inception_3b/5x5
I0403 14:30:05.101760  1385 net.cpp:91] Creating Layer inception_3b/5x5
I0403 14:30:05.101779  1385 net.cpp:425] inception_3b/5x5 <- inception_3b/5x5_reduce
I0403 14:30:05.101801  1385 net.cpp:399] inception_3b/5x5 -> inception_3b/5x5
I0403 14:30:05.103885  1385 net.cpp:141] Setting up inception_3b/5x5
I0403 14:30:05.103919  1385 net.cpp:148] Top shape: 24 96 28 28 (1806336)
I0403 14:30:05.103936  1385 net.cpp:156] Memory required for data: 736986144
I0403 14:30:05.103956  1385 layer_factory.hpp:77] Creating layer inception_3b/relu_5x5
I0403 14:30:05.103974  1385 net.cpp:91] Creating Layer inception_3b/relu_5x5
I0403 14:30:05.103991  1385 net.cpp:425] inception_3b/relu_5x5 <- inception_3b/5x5
I0403 14:30:05.104010  1385 net.cpp:386] inception_3b/relu_5x5 -> inception_3b/5x5 (in-place)
I0403 14:30:05.104220  1385 net.cpp:141] Setting up inception_3b/relu_5x5
I0403 14:30:05.104249  1385 net.cpp:148] Top shape: 24 96 28 28 (1806336)
I0403 14:30:05.104264  1385 net.cpp:156] Memory required for data: 744211488
I0403 14:30:05.104279  1385 layer_factory.hpp:77] Creating layer inception_3b/pool
I0403 14:30:05.104298  1385 net.cpp:91] Creating Layer inception_3b/pool
I0403 14:30:05.104315  1385 net.cpp:425] inception_3b/pool <- inception_3a/output_inception_3a/output_0_split_3
I0403 14:30:05.104334  1385 net.cpp:399] inception_3b/pool -> inception_3b/pool
I0403 14:30:05.104394  1385 net.cpp:141] Setting up inception_3b/pool
I0403 14:30:05.104421  1385 net.cpp:148] Top shape: 24 256 28 28 (4816896)
I0403 14:30:05.104439  1385 net.cpp:156] Memory required for data: 763479072
I0403 14:30:05.104454  1385 layer_factory.hpp:77] Creating layer inception_3b/pool_proj
I0403 14:30:05.104477  1385 net.cpp:91] Creating Layer inception_3b/pool_proj
I0403 14:30:05.104496  1385 net.cpp:425] inception_3b/pool_proj <- inception_3b/pool
I0403 14:30:05.104516  1385 net.cpp:399] inception_3b/pool_proj -> inception_3b/pool_proj
I0403 14:30:05.105659  1385 net.cpp:141] Setting up inception_3b/pool_proj
I0403 14:30:05.105690  1385 net.cpp:148] Top shape: 24 64 28 28 (1204224)
I0403 14:30:05.105705  1385 net.cpp:156] Memory required for data: 768295968
I0403 14:30:05.105725  1385 layer_factory.hpp:77] Creating layer inception_3b/relu_pool_proj
I0403 14:30:05.105746  1385 net.cpp:91] Creating Layer inception_3b/relu_pool_proj
I0403 14:30:05.105764  1385 net.cpp:425] inception_3b/relu_pool_proj <- inception_3b/pool_proj
I0403 14:30:05.105783  1385 net.cpp:386] inception_3b/relu_pool_proj -> inception_3b/pool_proj (in-place)
I0403 14:30:05.106204  1385 net.cpp:141] Setting up inception_3b/relu_pool_proj
I0403 14:30:05.106235  1385 net.cpp:148] Top shape: 24 64 28 28 (1204224)
I0403 14:30:05.106252  1385 net.cpp:156] Memory required for data: 773112864
I0403 14:30:05.106267  1385 layer_factory.hpp:77] Creating layer inception_3b/output
I0403 14:30:05.106287  1385 net.cpp:91] Creating Layer inception_3b/output
I0403 14:30:05.106302  1385 net.cpp:425] inception_3b/output <- inception_3b/1x1
I0403 14:30:05.106320  1385 net.cpp:425] inception_3b/output <- inception_3b/3x3
I0403 14:30:05.106338  1385 net.cpp:425] inception_3b/output <- inception_3b/5x5
I0403 14:30:05.106354  1385 net.cpp:425] inception_3b/output <- inception_3b/pool_proj
I0403 14:30:05.106374  1385 net.cpp:399] inception_3b/output -> inception_3b/output
I0403 14:30:05.106425  1385 net.cpp:141] Setting up inception_3b/output
I0403 14:30:05.106448  1385 net.cpp:148] Top shape: 24 480 28 28 (9031680)
I0403 14:30:05.106463  1385 net.cpp:156] Memory required for data: 809239584
I0403 14:30:05.106479  1385 layer_factory.hpp:77] Creating layer pool3/3x3_s2
I0403 14:30:05.106498  1385 net.cpp:91] Creating Layer pool3/3x3_s2
I0403 14:30:05.106514  1385 net.cpp:425] pool3/3x3_s2 <- inception_3b/output
I0403 14:30:05.106552  1385 net.cpp:399] pool3/3x3_s2 -> pool3/3x3_s2
I0403 14:30:05.106614  1385 net.cpp:141] Setting up pool3/3x3_s2
I0403 14:30:05.106639  1385 net.cpp:148] Top shape: 24 480 14 14 (2257920)
I0403 14:30:05.106654  1385 net.cpp:156] Memory required for data: 818271264
I0403 14:30:05.106669  1385 layer_factory.hpp:77] Creating layer pool3/3x3_s2_pool3/3x3_s2_0_split
I0403 14:30:05.106690  1385 net.cpp:91] Creating Layer pool3/3x3_s2_pool3/3x3_s2_0_split
I0403 14:30:05.106708  1385 net.cpp:425] pool3/3x3_s2_pool3/3x3_s2_0_split <- pool3/3x3_s2
I0403 14:30:05.106726  1385 net.cpp:399] pool3/3x3_s2_pool3/3x3_s2_0_split -> pool3/3x3_s2_pool3/3x3_s2_0_split_0
I0403 14:30:05.106746  1385 net.cpp:399] pool3/3x3_s2_pool3/3x3_s2_0_split -> pool3/3x3_s2_pool3/3x3_s2_0_split_1
I0403 14:30:05.106771  1385 net.cpp:399] pool3/3x3_s2_pool3/3x3_s2_0_split -> pool3/3x3_s2_pool3/3x3_s2_0_split_2
I0403 14:30:05.106792  1385 net.cpp:399] pool3/3x3_s2_pool3/3x3_s2_0_split -> pool3/3x3_s2_pool3/3x3_s2_0_split_3
I0403 14:30:05.106873  1385 net.cpp:141] Setting up pool3/3x3_s2_pool3/3x3_s2_0_split
I0403 14:30:05.106896  1385 net.cpp:148] Top shape: 24 480 14 14 (2257920)
I0403 14:30:05.106914  1385 net.cpp:148] Top shape: 24 480 14 14 (2257920)
I0403 14:30:05.106930  1385 net.cpp:148] Top shape: 24 480 14 14 (2257920)
I0403 14:30:05.106946  1385 net.cpp:148] Top shape: 24 480 14 14 (2257920)
I0403 14:30:05.106961  1385 net.cpp:156] Memory required for data: 854397984
I0403 14:30:05.106976  1385 layer_factory.hpp:77] Creating layer inception_4a/1x1
I0403 14:30:05.107002  1385 net.cpp:91] Creating Layer inception_4a/1x1
I0403 14:30:05.107020  1385 net.cpp:425] inception_4a/1x1 <- pool3/3x3_s2_pool3/3x3_s2_0_split_0
I0403 14:30:05.107043  1385 net.cpp:399] inception_4a/1x1 -> inception_4a/1x1
I0403 14:30:05.108719  1385 net.cpp:141] Setting up inception_4a/1x1
I0403 14:30:05.108752  1385 net.cpp:148] Top shape: 24 192 14 14 (903168)
I0403 14:30:05.108769  1385 net.cpp:156] Memory required for data: 858010656
I0403 14:30:05.108789  1385 layer_factory.hpp:77] Creating layer inception_4a/relu_1x1
I0403 14:30:05.108811  1385 net.cpp:91] Creating Layer inception_4a/relu_1x1
I0403 14:30:05.108829  1385 net.cpp:425] inception_4a/relu_1x1 <- inception_4a/1x1
I0403 14:30:05.108850  1385 net.cpp:386] inception_4a/relu_1x1 -> inception_4a/1x1 (in-place)
I0403 14:30:05.109040  1385 net.cpp:141] Setting up inception_4a/relu_1x1
I0403 14:30:05.109071  1385 net.cpp:148] Top shape: 24 192 14 14 (903168)
I0403 14:30:05.109087  1385 net.cpp:156] Memory required for data: 861623328
I0403 14:30:05.109104  1385 layer_factory.hpp:77] Creating layer inception_4a/3x3_reduce
I0403 14:30:05.109128  1385 net.cpp:91] Creating Layer inception_4a/3x3_reduce
I0403 14:30:05.109148  1385 net.cpp:425] inception_4a/3x3_reduce <- pool3/3x3_s2_pool3/3x3_s2_0_split_1
I0403 14:30:05.109169  1385 net.cpp:399] inception_4a/3x3_reduce -> inception_4a/3x3_reduce
I0403 14:30:05.110545  1385 net.cpp:141] Setting up inception_4a/3x3_reduce
I0403 14:30:05.110576  1385 net.cpp:148] Top shape: 24 96 14 14 (451584)
I0403 14:30:05.110594  1385 net.cpp:156] Memory required for data: 863429664
I0403 14:30:05.110621  1385 layer_factory.hpp:77] Creating layer inception_4a/relu_3x3_reduce
I0403 14:30:05.110646  1385 net.cpp:91] Creating Layer inception_4a/relu_3x3_reduce
I0403 14:30:05.110666  1385 net.cpp:425] inception_4a/relu_3x3_reduce <- inception_4a/3x3_reduce
I0403 14:30:05.110683  1385 net.cpp:386] inception_4a/relu_3x3_reduce -> inception_4a/3x3_reduce (in-place)
I0403 14:30:05.110872  1385 net.cpp:141] Setting up inception_4a/relu_3x3_reduce
I0403 14:30:05.110899  1385 net.cpp:148] Top shape: 24 96 14 14 (451584)
I0403 14:30:05.110915  1385 net.cpp:156] Memory required for data: 865236000
I0403 14:30:05.110931  1385 layer_factory.hpp:77] Creating layer inception_4a/3x3
I0403 14:30:05.110956  1385 net.cpp:91] Creating Layer inception_4a/3x3
I0403 14:30:05.110975  1385 net.cpp:425] inception_4a/3x3 <- inception_4a/3x3_reduce
I0403 14:30:05.110996  1385 net.cpp:399] inception_4a/3x3 -> inception_4a/3x3
I0403 14:30:05.113854  1385 net.cpp:141] Setting up inception_4a/3x3
I0403 14:30:05.113889  1385 net.cpp:148] Top shape: 24 208 14 14 (978432)
I0403 14:30:05.113908  1385 net.cpp:156] Memory required for data: 869149728
I0403 14:30:05.113929  1385 layer_factory.hpp:77] Creating layer inception_4a/relu_3x3
I0403 14:30:05.113948  1385 net.cpp:91] Creating Layer inception_4a/relu_3x3
I0403 14:30:05.113967  1385 net.cpp:425] inception_4a/relu_3x3 <- inception_4a/3x3
I0403 14:30:05.113986  1385 net.cpp:386] inception_4a/relu_3x3 -> inception_4a/3x3 (in-place)
I0403 14:30:05.114286  1385 net.cpp:141] Setting up inception_4a/relu_3x3
I0403 14:30:05.114318  1385 net.cpp:148] Top shape: 24 208 14 14 (978432)
I0403 14:30:05.114336  1385 net.cpp:156] Memory required for data: 873063456
I0403 14:30:05.114353  1385 layer_factory.hpp:77] Creating layer inception_4a/5x5_reduce
I0403 14:30:05.114377  1385 net.cpp:91] Creating Layer inception_4a/5x5_reduce
I0403 14:30:05.114398  1385 net.cpp:425] inception_4a/5x5_reduce <- pool3/3x3_s2_pool3/3x3_s2_0_split_2
I0403 14:30:05.114418  1385 net.cpp:399] inception_4a/5x5_reduce -> inception_4a/5x5_reduce
I0403 14:30:05.115520  1385 net.cpp:141] Setting up inception_4a/5x5_reduce
I0403 14:30:05.115550  1385 net.cpp:148] Top shape: 24 16 14 14 (75264)
I0403 14:30:05.115567  1385 net.cpp:156] Memory required for data: 873364512
I0403 14:30:05.115587  1385 layer_factory.hpp:77] Creating layer inception_4a/relu_5x5_reduce
I0403 14:30:05.115607  1385 net.cpp:91] Creating Layer inception_4a/relu_5x5_reduce
I0403 14:30:05.115623  1385 net.cpp:425] inception_4a/relu_5x5_reduce <- inception_4a/5x5_reduce
I0403 14:30:05.115645  1385 net.cpp:386] inception_4a/relu_5x5_reduce -> inception_4a/5x5_reduce (in-place)
I0403 14:30:05.115844  1385 net.cpp:141] Setting up inception_4a/relu_5x5_reduce
I0403 14:30:05.115872  1385 net.cpp:148] Top shape: 24 16 14 14 (75264)
I0403 14:30:05.115890  1385 net.cpp:156] Memory required for data: 873665568
I0403 14:30:05.115906  1385 layer_factory.hpp:77] Creating layer inception_4a/5x5
I0403 14:30:05.115931  1385 net.cpp:91] Creating Layer inception_4a/5x5
I0403 14:30:05.115950  1385 net.cpp:425] inception_4a/5x5 <- inception_4a/5x5_reduce
I0403 14:30:05.115973  1385 net.cpp:399] inception_4a/5x5 -> inception_4a/5x5
I0403 14:30:05.117146  1385 net.cpp:141] Setting up inception_4a/5x5
I0403 14:30:05.117177  1385 net.cpp:148] Top shape: 24 48 14 14 (225792)
I0403 14:30:05.117193  1385 net.cpp:156] Memory required for data: 874568736
I0403 14:30:05.117218  1385 layer_factory.hpp:77] Creating layer inception_4a/relu_5x5
I0403 14:30:05.117241  1385 net.cpp:91] Creating Layer inception_4a/relu_5x5
I0403 14:30:05.117261  1385 net.cpp:425] inception_4a/relu_5x5 <- inception_4a/5x5
I0403 14:30:05.117281  1385 net.cpp:386] inception_4a/relu_5x5 -> inception_4a/5x5 (in-place)
I0403 14:30:05.117476  1385 net.cpp:141] Setting up inception_4a/relu_5x5
I0403 14:30:05.117507  1385 net.cpp:148] Top shape: 24 48 14 14 (225792)
I0403 14:30:05.117524  1385 net.cpp:156] Memory required for data: 875471904
I0403 14:30:05.117542  1385 layer_factory.hpp:77] Creating layer inception_4a/pool
I0403 14:30:05.117561  1385 net.cpp:91] Creating Layer inception_4a/pool
I0403 14:30:05.117580  1385 net.cpp:425] inception_4a/pool <- pool3/3x3_s2_pool3/3x3_s2_0_split_3
I0403 14:30:05.117599  1385 net.cpp:399] inception_4a/pool -> inception_4a/pool
I0403 14:30:05.117666  1385 net.cpp:141] Setting up inception_4a/pool
I0403 14:30:05.117692  1385 net.cpp:148] Top shape: 24 480 14 14 (2257920)
I0403 14:30:05.117708  1385 net.cpp:156] Memory required for data: 884503584
I0403 14:30:05.117723  1385 layer_factory.hpp:77] Creating layer inception_4a/pool_proj
I0403 14:30:05.117746  1385 net.cpp:91] Creating Layer inception_4a/pool_proj
I0403 14:30:05.117765  1385 net.cpp:425] inception_4a/pool_proj <- inception_4a/pool
I0403 14:30:05.117787  1385 net.cpp:399] inception_4a/pool_proj -> inception_4a/pool_proj
I0403 14:30:05.119052  1385 net.cpp:141] Setting up inception_4a/pool_proj
I0403 14:30:05.119082  1385 net.cpp:148] Top shape: 24 64 14 14 (301056)
I0403 14:30:05.119114  1385 net.cpp:156] Memory required for data: 885707808
I0403 14:30:05.119135  1385 layer_factory.hpp:77] Creating layer inception_4a/relu_pool_proj
I0403 14:30:05.119158  1385 net.cpp:91] Creating Layer inception_4a/relu_pool_proj
I0403 14:30:05.119176  1385 net.cpp:425] inception_4a/relu_pool_proj <- inception_4a/pool_proj
I0403 14:30:05.119195  1385 net.cpp:386] inception_4a/relu_pool_proj -> inception_4a/pool_proj (in-place)
I0403 14:30:05.119499  1385 net.cpp:141] Setting up inception_4a/relu_pool_proj
I0403 14:30:05.119527  1385 net.cpp:148] Top shape: 24 64 14 14 (301056)
I0403 14:30:05.119544  1385 net.cpp:156] Memory required for data: 886912032
I0403 14:30:05.119560  1385 layer_factory.hpp:77] Creating layer inception_4a/output
I0403 14:30:05.119583  1385 net.cpp:91] Creating Layer inception_4a/output
I0403 14:30:05.119601  1385 net.cpp:425] inception_4a/output <- inception_4a/1x1
I0403 14:30:05.119619  1385 net.cpp:425] inception_4a/output <- inception_4a/3x3
I0403 14:30:05.119637  1385 net.cpp:425] inception_4a/output <- inception_4a/5x5
I0403 14:30:05.119654  1385 net.cpp:425] inception_4a/output <- inception_4a/pool_proj
I0403 14:30:05.119673  1385 net.cpp:399] inception_4a/output -> inception_4a/output
I0403 14:30:05.119722  1385 net.cpp:141] Setting up inception_4a/output
I0403 14:30:05.119746  1385 net.cpp:148] Top shape: 24 512 14 14 (2408448)
I0403 14:30:05.119762  1385 net.cpp:156] Memory required for data: 896545824
I0403 14:30:05.119777  1385 layer_factory.hpp:77] Creating layer inception_4a/output_inception_4a/output_0_split
I0403 14:30:05.119796  1385 net.cpp:91] Creating Layer inception_4a/output_inception_4a/output_0_split
I0403 14:30:05.119812  1385 net.cpp:425] inception_4a/output_inception_4a/output_0_split <- inception_4a/output
I0403 14:30:05.119833  1385 net.cpp:399] inception_4a/output_inception_4a/output_0_split -> inception_4a/output_inception_4a/output_0_split_0
I0403 14:30:05.119856  1385 net.cpp:399] inception_4a/output_inception_4a/output_0_split -> inception_4a/output_inception_4a/output_0_split_1
I0403 14:30:05.119879  1385 net.cpp:399] inception_4a/output_inception_4a/output_0_split -> inception_4a/output_inception_4a/output_0_split_2
I0403 14:30:05.119901  1385 net.cpp:399] inception_4a/output_inception_4a/output_0_split -> inception_4a/output_inception_4a/output_0_split_3
I0403 14:30:05.119922  1385 net.cpp:399] inception_4a/output_inception_4a/output_0_split -> inception_4a/output_inception_4a/output_0_split_4
I0403 14:30:05.120025  1385 net.cpp:141] Setting up inception_4a/output_inception_4a/output_0_split
I0403 14:30:05.120050  1385 net.cpp:148] Top shape: 24 512 14 14 (2408448)
I0403 14:30:05.120067  1385 net.cpp:148] Top shape: 24 512 14 14 (2408448)
I0403 14:30:05.120085  1385 net.cpp:148] Top shape: 24 512 14 14 (2408448)
I0403 14:30:05.120100  1385 net.cpp:148] Top shape: 24 512 14 14 (2408448)
I0403 14:30:05.120117  1385 net.cpp:148] Top shape: 24 512 14 14 (2408448)
I0403 14:30:05.120132  1385 net.cpp:156] Memory required for data: 944714784
I0403 14:30:05.120147  1385 layer_factory.hpp:77] Creating layer loss1/ave_pool
I0403 14:30:05.120167  1385 net.cpp:91] Creating Layer loss1/ave_pool
I0403 14:30:05.120183  1385 net.cpp:425] loss1/ave_pool <- inception_4a/output_inception_4a/output_0_split_0
I0403 14:30:05.120204  1385 net.cpp:399] loss1/ave_pool -> loss1/ave_pool
I0403 14:30:05.120437  1385 net.cpp:141] Setting up loss1/ave_pool
I0403 14:30:05.120465  1385 net.cpp:148] Top shape: 24 512 4 4 (196608)
I0403 14:30:05.120481  1385 net.cpp:156] Memory required for data: 945501216
I0403 14:30:05.120497  1385 layer_factory.hpp:77] Creating layer loss1/conv
I0403 14:30:05.120522  1385 net.cpp:91] Creating Layer loss1/conv
I0403 14:30:05.120540  1385 net.cpp:425] loss1/conv <- loss1/ave_pool
I0403 14:30:05.120563  1385 net.cpp:399] loss1/conv -> loss1/conv
I0403 14:30:05.122078  1385 net.cpp:141] Setting up loss1/conv
I0403 14:30:05.122112  1385 net.cpp:148] Top shape: 24 128 4 4 (49152)
I0403 14:30:05.122143  1385 net.cpp:156] Memory required for data: 945697824
I0403 14:30:05.122167  1385 layer_factory.hpp:77] Creating layer loss1/relu_conv
I0403 14:30:05.122187  1385 net.cpp:91] Creating Layer loss1/relu_conv
I0403 14:30:05.122203  1385 net.cpp:425] loss1/relu_conv <- loss1/conv
I0403 14:30:05.122231  1385 net.cpp:386] loss1/relu_conv -> loss1/conv (in-place)
I0403 14:30:05.122534  1385 net.cpp:141] Setting up loss1/relu_conv
I0403 14:30:05.122566  1385 net.cpp:148] Top shape: 24 128 4 4 (49152)
I0403 14:30:05.122584  1385 net.cpp:156] Memory required for data: 945894432
I0403 14:30:05.122602  1385 layer_factory.hpp:77] Creating layer loss1/fc
I0403 14:30:05.122627  1385 net.cpp:91] Creating Layer loss1/fc
I0403 14:30:05.122647  1385 net.cpp:425] loss1/fc <- loss1/conv
I0403 14:30:05.122668  1385 net.cpp:399] loss1/fc -> loss1/fc
I0403 14:30:05.141425  1385 net.cpp:141] Setting up loss1/fc
I0403 14:30:05.141489  1385 net.cpp:148] Top shape: 24 1024 (24576)
I0403 14:30:05.141506  1385 net.cpp:156] Memory required for data: 945992736
I0403 14:30:05.141527  1385 layer_factory.hpp:77] Creating layer loss1/relu_fc
I0403 14:30:05.141551  1385 net.cpp:91] Creating Layer loss1/relu_fc
I0403 14:30:05.141568  1385 net.cpp:425] loss1/relu_fc <- loss1/fc
I0403 14:30:05.141587  1385 net.cpp:386] loss1/relu_fc -> loss1/fc (in-place)
I0403 14:30:05.141815  1385 net.cpp:141] Setting up loss1/relu_fc
I0403 14:30:05.141844  1385 net.cpp:148] Top shape: 24 1024 (24576)
I0403 14:30:05.141861  1385 net.cpp:156] Memory required for data: 946091040
I0403 14:30:05.141876  1385 layer_factory.hpp:77] Creating layer loss1/drop_fc
I0403 14:30:05.141906  1385 net.cpp:91] Creating Layer loss1/drop_fc
I0403 14:30:05.141926  1385 net.cpp:425] loss1/drop_fc <- loss1/fc
I0403 14:30:05.141943  1385 net.cpp:386] loss1/drop_fc -> loss1/fc (in-place)
I0403 14:30:05.142001  1385 net.cpp:141] Setting up loss1/drop_fc
I0403 14:30:05.142025  1385 net.cpp:148] Top shape: 24 1024 (24576)
I0403 14:30:05.142040  1385 net.cpp:156] Memory required for data: 946189344
I0403 14:30:05.142056  1385 layer_factory.hpp:77] Creating layer loss1/classifier_plantvillage
I0403 14:30:05.142081  1385 net.cpp:91] Creating Layer loss1/classifier_plantvillage
I0403 14:30:05.142099  1385 net.cpp:425] loss1/classifier_plantvillage <- loss1/fc
I0403 14:30:05.142119  1385 net.cpp:399] loss1/classifier_plantvillage -> loss1/classifier_plantvillage
I0403 14:30:05.143093  1385 net.cpp:141] Setting up loss1/classifier_plantvillage
I0403 14:30:05.143126  1385 net.cpp:148] Top shape: 24 38 (912)
I0403 14:30:05.143144  1385 net.cpp:156] Memory required for data: 946192992
I0403 14:30:05.143165  1385 layer_factory.hpp:77] Creating layer loss1/classifier_plantvillage_loss1/classifier_plantvillage_0_split
I0403 14:30:05.143185  1385 net.cpp:91] Creating Layer loss1/classifier_plantvillage_loss1/classifier_plantvillage_0_split
I0403 14:30:05.143203  1385 net.cpp:425] loss1/classifier_plantvillage_loss1/classifier_plantvillage_0_split <- loss1/classifier_plantvillage
I0403 14:30:05.143235  1385 net.cpp:399] loss1/classifier_plantvillage_loss1/classifier_plantvillage_0_split -> loss1/classifier_plantvillage_loss1/classifier_plantvillage_0_split_0
I0403 14:30:05.143259  1385 net.cpp:399] loss1/classifier_plantvillage_loss1/classifier_plantvillage_0_split -> loss1/classifier_plantvillage_loss1/classifier_plantvillage_0_split_1
I0403 14:30:05.143280  1385 net.cpp:399] loss1/classifier_plantvillage_loss1/classifier_plantvillage_0_split -> loss1/classifier_plantvillage_loss1/classifier_plantvillage_0_split_2
I0403 14:30:05.143352  1385 net.cpp:141] Setting up loss1/classifier_plantvillage_loss1/classifier_plantvillage_0_split
I0403 14:30:05.143375  1385 net.cpp:148] Top shape: 24 38 (912)
I0403 14:30:05.143393  1385 net.cpp:148] Top shape: 24 38 (912)
I0403 14:30:05.143409  1385 net.cpp:148] Top shape: 24 38 (912)
I0403 14:30:05.143424  1385 net.cpp:156] Memory required for data: 946203936
I0403 14:30:05.143440  1385 layer_factory.hpp:77] Creating layer inception_4b/1x1
I0403 14:30:05.143463  1385 net.cpp:91] Creating Layer inception_4b/1x1
I0403 14:30:05.143506  1385 net.cpp:425] inception_4b/1x1 <- inception_4a/output_inception_4a/output_0_split_1
I0403 14:30:05.143532  1385 net.cpp:399] inception_4b/1x1 -> inception_4b/1x1
I0403 14:30:05.145330  1385 net.cpp:141] Setting up inception_4b/1x1
I0403 14:30:05.145364  1385 net.cpp:148] Top shape: 24 160 14 14 (752640)
I0403 14:30:05.145381  1385 net.cpp:156] Memory required for data: 949214496
I0403 14:30:05.145401  1385 layer_factory.hpp:77] Creating layer inception_4b/relu_1x1
I0403 14:30:05.145421  1385 net.cpp:91] Creating Layer inception_4b/relu_1x1
I0403 14:30:05.145439  1385 net.cpp:425] inception_4b/relu_1x1 <- inception_4b/1x1
I0403 14:30:05.145462  1385 net.cpp:386] inception_4b/relu_1x1 -> inception_4b/1x1 (in-place)
I0403 14:30:05.145659  1385 net.cpp:141] Setting up inception_4b/relu_1x1
I0403 14:30:05.145686  1385 net.cpp:148] Top shape: 24 160 14 14 (752640)
I0403 14:30:05.145701  1385 net.cpp:156] Memory required for data: 952225056
I0403 14:30:05.145716  1385 layer_factory.hpp:77] Creating layer inception_4b/3x3_reduce
I0403 14:30:05.145740  1385 net.cpp:91] Creating Layer inception_4b/3x3_reduce
I0403 14:30:05.145758  1385 net.cpp:425] inception_4b/3x3_reduce <- inception_4a/output_inception_4a/output_0_split_2
I0403 14:30:05.145783  1385 net.cpp:399] inception_4b/3x3_reduce -> inception_4b/3x3_reduce
I0403 14:30:05.147238  1385 net.cpp:141] Setting up inception_4b/3x3_reduce
I0403 14:30:05.147269  1385 net.cpp:148] Top shape: 24 112 14 14 (526848)
I0403 14:30:05.147284  1385 net.cpp:156] Memory required for data: 954332448
I0403 14:30:05.147305  1385 layer_factory.hpp:77] Creating layer inception_4b/relu_3x3_reduce
I0403 14:30:05.147325  1385 net.cpp:91] Creating Layer inception_4b/relu_3x3_reduce
I0403 14:30:05.147343  1385 net.cpp:425] inception_4b/relu_3x3_reduce <- inception_4b/3x3_reduce
I0403 14:30:05.147362  1385 net.cpp:386] inception_4b/relu_3x3_reduce -> inception_4b/3x3_reduce (in-place)
I0403 14:30:05.147665  1385 net.cpp:141] Setting up inception_4b/relu_3x3_reduce
I0403 14:30:05.147692  1385 net.cpp:148] Top shape: 24 112 14 14 (526848)
I0403 14:30:05.147708  1385 net.cpp:156] Memory required for data: 956439840
I0403 14:30:05.147724  1385 layer_factory.hpp:77] Creating layer inception_4b/3x3
I0403 14:30:05.147748  1385 net.cpp:91] Creating Layer inception_4b/3x3
I0403 14:30:05.147768  1385 net.cpp:425] inception_4b/3x3 <- inception_4b/3x3_reduce
I0403 14:30:05.147790  1385 net.cpp:399] inception_4b/3x3 -> inception_4b/3x3
I0403 14:30:05.150952  1385 net.cpp:141] Setting up inception_4b/3x3
I0403 14:30:05.150985  1385 net.cpp:148] Top shape: 24 224 14 14 (1053696)
I0403 14:30:05.151002  1385 net.cpp:156] Memory required for data: 960654624
I0403 14:30:05.151023  1385 layer_factory.hpp:77] Creating layer inception_4b/relu_3x3
I0403 14:30:05.151046  1385 net.cpp:91] Creating Layer inception_4b/relu_3x3
I0403 14:30:05.151067  1385 net.cpp:425] inception_4b/relu_3x3 <- inception_4b/3x3
I0403 14:30:05.151087  1385 net.cpp:386] inception_4b/relu_3x3 -> inception_4b/3x3 (in-place)
I0403 14:30:05.151291  1385 net.cpp:141] Setting up inception_4b/relu_3x3
I0403 14:30:05.151320  1385 net.cpp:148] Top shape: 24 224 14 14 (1053696)
I0403 14:30:05.151337  1385 net.cpp:156] Memory required for data: 964869408
I0403 14:30:05.151353  1385 layer_factory.hpp:77] Creating layer inception_4b/5x5_reduce
I0403 14:30:05.151376  1385 net.cpp:91] Creating Layer inception_4b/5x5_reduce
I0403 14:30:05.151396  1385 net.cpp:425] inception_4b/5x5_reduce <- inception_4a/output_inception_4a/output_0_split_3
I0403 14:30:05.151415  1385 net.cpp:399] inception_4b/5x5_reduce -> inception_4b/5x5_reduce
I0403 14:30:05.152591  1385 net.cpp:141] Setting up inception_4b/5x5_reduce
I0403 14:30:05.152621  1385 net.cpp:148] Top shape: 24 24 14 14 (112896)
I0403 14:30:05.152638  1385 net.cpp:156] Memory required for data: 965320992
I0403 14:30:05.152658  1385 layer_factory.hpp:77] Creating layer inception_4b/relu_5x5_reduce
I0403 14:30:05.152678  1385 net.cpp:91] Creating Layer inception_4b/relu_5x5_reduce
I0403 14:30:05.152709  1385 net.cpp:425] inception_4b/relu_5x5_reduce <- inception_4b/5x5_reduce
I0403 14:30:05.152731  1385 net.cpp:386] inception_4b/relu_5x5_reduce -> inception_4b/5x5_reduce (in-place)
I0403 14:30:05.152933  1385 net.cpp:141] Setting up inception_4b/relu_5x5_reduce
I0403 14:30:05.152961  1385 net.cpp:148] Top shape: 24 24 14 14 (112896)
I0403 14:30:05.152976  1385 net.cpp:156] Memory required for data: 965772576
I0403 14:30:05.152992  1385 layer_factory.hpp:77] Creating layer inception_4b/5x5
I0403 14:30:05.153015  1385 net.cpp:91] Creating Layer inception_4b/5x5
I0403 14:30:05.153034  1385 net.cpp:425] inception_4b/5x5 <- inception_4b/5x5_reduce
I0403 14:30:05.153056  1385 net.cpp:399] inception_4b/5x5 -> inception_4b/5x5
I0403 14:30:05.154398  1385 net.cpp:141] Setting up inception_4b/5x5
I0403 14:30:05.154433  1385 net.cpp:148] Top shape: 24 64 14 14 (301056)
I0403 14:30:05.154451  1385 net.cpp:156] Memory required for data: 966976800
I0403 14:30:05.154470  1385 layer_factory.hpp:77] Creating layer inception_4b/relu_5x5
I0403 14:30:05.154489  1385 net.cpp:91] Creating Layer inception_4b/relu_5x5
I0403 14:30:05.154515  1385 net.cpp:425] inception_4b/relu_5x5 <- inception_4b/5x5
I0403 14:30:05.154536  1385 net.cpp:386] inception_4b/relu_5x5 -> inception_4b/5x5 (in-place)
I0403 14:30:05.154840  1385 net.cpp:141] Setting up inception_4b/relu_5x5
I0403 14:30:05.154871  1385 net.cpp:148] Top shape: 24 64 14 14 (301056)
I0403 14:30:05.154887  1385 net.cpp:156] Memory required for data: 968181024
I0403 14:30:05.154902  1385 layer_factory.hpp:77] Creating layer inception_4b/pool
I0403 14:30:05.154922  1385 net.cpp:91] Creating Layer inception_4b/pool
I0403 14:30:05.154942  1385 net.cpp:425] inception_4b/pool <- inception_4a/output_inception_4a/output_0_split_4
I0403 14:30:05.154963  1385 net.cpp:399] inception_4b/pool -> inception_4b/pool
I0403 14:30:05.155035  1385 net.cpp:141] Setting up inception_4b/pool
I0403 14:30:05.155061  1385 net.cpp:148] Top shape: 24 512 14 14 (2408448)
I0403 14:30:05.155076  1385 net.cpp:156] Memory required for data: 977814816
I0403 14:30:05.155091  1385 layer_factory.hpp:77] Creating layer inception_4b/pool_proj
I0403 14:30:05.155117  1385 net.cpp:91] Creating Layer inception_4b/pool_proj
I0403 14:30:05.155135  1385 net.cpp:425] inception_4b/pool_proj <- inception_4b/pool
I0403 14:30:05.155155  1385 net.cpp:399] inception_4b/pool_proj -> inception_4b/pool_proj
I0403 14:30:05.156474  1385 net.cpp:141] Setting up inception_4b/pool_proj
I0403 14:30:05.156503  1385 net.cpp:148] Top shape: 24 64 14 14 (301056)
I0403 14:30:05.156520  1385 net.cpp:156] Memory required for data: 979019040
I0403 14:30:05.156538  1385 layer_factory.hpp:77] Creating layer inception_4b/relu_pool_proj
I0403 14:30:05.156556  1385 net.cpp:91] Creating Layer inception_4b/relu_pool_proj
I0403 14:30:05.156574  1385 net.cpp:425] inception_4b/relu_pool_proj <- inception_4b/pool_proj
I0403 14:30:05.156595  1385 net.cpp:386] inception_4b/relu_pool_proj -> inception_4b/pool_proj (in-place)
I0403 14:30:05.156788  1385 net.cpp:141] Setting up inception_4b/relu_pool_proj
I0403 14:30:05.156816  1385 net.cpp:148] Top shape: 24 64 14 14 (301056)
I0403 14:30:05.156831  1385 net.cpp:156] Memory required for data: 980223264
I0403 14:30:05.156846  1385 layer_factory.hpp:77] Creating layer inception_4b/output
I0403 14:30:05.156865  1385 net.cpp:91] Creating Layer inception_4b/output
I0403 14:30:05.156883  1385 net.cpp:425] inception_4b/output <- inception_4b/1x1
I0403 14:30:05.156901  1385 net.cpp:425] inception_4b/output <- inception_4b/3x3
I0403 14:30:05.156919  1385 net.cpp:425] inception_4b/output <- inception_4b/5x5
I0403 14:30:05.156934  1385 net.cpp:425] inception_4b/output <- inception_4b/pool_proj
I0403 14:30:05.156952  1385 net.cpp:399] inception_4b/output -> inception_4b/output
I0403 14:30:05.156999  1385 net.cpp:141] Setting up inception_4b/output
I0403 14:30:05.157029  1385 net.cpp:148] Top shape: 24 512 14 14 (2408448)
I0403 14:30:05.157045  1385 net.cpp:156] Memory required for data: 989857056
I0403 14:30:05.157076  1385 layer_factory.hpp:77] Creating layer inception_4b/output_inception_4b/output_0_split
I0403 14:30:05.157095  1385 net.cpp:91] Creating Layer inception_4b/output_inception_4b/output_0_split
I0403 14:30:05.157111  1385 net.cpp:425] inception_4b/output_inception_4b/output_0_split <- inception_4b/output
I0403 14:30:05.157132  1385 net.cpp:399] inception_4b/output_inception_4b/output_0_split -> inception_4b/output_inception_4b/output_0_split_0
I0403 14:30:05.157155  1385 net.cpp:399] inception_4b/output_inception_4b/output_0_split -> inception_4b/output_inception_4b/output_0_split_1
I0403 14:30:05.157176  1385 net.cpp:399] inception_4b/output_inception_4b/output_0_split -> inception_4b/output_inception_4b/output_0_split_2
I0403 14:30:05.157198  1385 net.cpp:399] inception_4b/output_inception_4b/output_0_split -> inception_4b/output_inception_4b/output_0_split_3
I0403 14:30:05.157290  1385 net.cpp:141] Setting up inception_4b/output_inception_4b/output_0_split
I0403 14:30:05.157318  1385 net.cpp:148] Top shape: 24 512 14 14 (2408448)
I0403 14:30:05.157335  1385 net.cpp:148] Top shape: 24 512 14 14 (2408448)
I0403 14:30:05.157352  1385 net.cpp:148] Top shape: 24 512 14 14 (2408448)
I0403 14:30:05.157368  1385 net.cpp:148] Top shape: 24 512 14 14 (2408448)
I0403 14:30:05.157383  1385 net.cpp:156] Memory required for data: 1028392224
I0403 14:30:05.157399  1385 layer_factory.hpp:77] Creating layer inception_4c/1x1
I0403 14:30:05.157423  1385 net.cpp:91] Creating Layer inception_4c/1x1
I0403 14:30:05.157441  1385 net.cpp:425] inception_4c/1x1 <- inception_4b/output_inception_4b/output_0_split_0
I0403 14:30:05.157461  1385 net.cpp:399] inception_4c/1x1 -> inception_4c/1x1
I0403 14:30:05.158998  1385 net.cpp:141] Setting up inception_4c/1x1
I0403 14:30:05.159029  1385 net.cpp:148] Top shape: 24 128 14 14 (602112)
I0403 14:30:05.159047  1385 net.cpp:156] Memory required for data: 1030800672
I0403 14:30:05.159068  1385 layer_factory.hpp:77] Creating layer inception_4c/relu_1x1
I0403 14:30:05.159091  1385 net.cpp:91] Creating Layer inception_4c/relu_1x1
I0403 14:30:05.159122  1385 net.cpp:425] inception_4c/relu_1x1 <- inception_4c/1x1
I0403 14:30:05.159142  1385 net.cpp:386] inception_4c/relu_1x1 -> inception_4c/1x1 (in-place)
I0403 14:30:05.159353  1385 net.cpp:141] Setting up inception_4c/relu_1x1
I0403 14:30:05.159384  1385 net.cpp:148] Top shape: 24 128 14 14 (602112)
I0403 14:30:05.159400  1385 net.cpp:156] Memory required for data: 1033209120
I0403 14:30:05.159417  1385 layer_factory.hpp:77] Creating layer inception_4c/3x3_reduce
I0403 14:30:05.159452  1385 net.cpp:91] Creating Layer inception_4c/3x3_reduce
I0403 14:30:05.159471  1385 net.cpp:425] inception_4c/3x3_reduce <- inception_4b/output_inception_4b/output_0_split_1
I0403 14:30:05.159490  1385 net.cpp:399] inception_4c/3x3_reduce -> inception_4c/3x3_reduce
I0403 14:30:05.163056  1385 net.cpp:141] Setting up inception_4c/3x3_reduce
I0403 14:30:05.163091  1385 net.cpp:148] Top shape: 24 128 14 14 (602112)
I0403 14:30:05.163110  1385 net.cpp:156] Memory required for data: 1035617568
I0403 14:30:05.163130  1385 layer_factory.hpp:77] Creating layer inception_4c/relu_3x3_reduce
I0403 14:30:05.163148  1385 net.cpp:91] Creating Layer inception_4c/relu_3x3_reduce
I0403 14:30:05.163166  1385 net.cpp:425] inception_4c/relu_3x3_reduce <- inception_4c/3x3_reduce
I0403 14:30:05.163187  1385 net.cpp:386] inception_4c/relu_3x3_reduce -> inception_4c/3x3_reduce (in-place)
I0403 14:30:05.163498  1385 net.cpp:141] Setting up inception_4c/relu_3x3_reduce
I0403 14:30:05.163529  1385 net.cpp:148] Top shape: 24 128 14 14 (602112)
I0403 14:30:05.163547  1385 net.cpp:156] Memory required for data: 1038026016
I0403 14:30:05.163563  1385 layer_factory.hpp:77] Creating layer inception_4c/3x3
I0403 14:30:05.163588  1385 net.cpp:91] Creating Layer inception_4c/3x3
I0403 14:30:05.163606  1385 net.cpp:425] inception_4c/3x3 <- inception_4c/3x3_reduce
I0403 14:30:05.163627  1385 net.cpp:399] inception_4c/3x3 -> inception_4c/3x3
I0403 14:30:05.167487  1385 net.cpp:141] Setting up inception_4c/3x3
I0403 14:30:05.167532  1385 net.cpp:148] Top shape: 24 256 14 14 (1204224)
I0403 14:30:05.167551  1385 net.cpp:156] Memory required for data: 1042842912
I0403 14:30:05.167585  1385 layer_factory.hpp:77] Creating layer inception_4c/relu_3x3
I0403 14:30:05.167608  1385 net.cpp:91] Creating Layer inception_4c/relu_3x3
I0403 14:30:05.167625  1385 net.cpp:425] inception_4c/relu_3x3 <- inception_4c/3x3
I0403 14:30:05.167645  1385 net.cpp:386] inception_4c/relu_3x3 -> inception_4c/3x3 (in-place)
I0403 14:30:05.167845  1385 net.cpp:141] Setting up inception_4c/relu_3x3
I0403 14:30:05.167871  1385 net.cpp:148] Top shape: 24 256 14 14 (1204224)
I0403 14:30:05.167886  1385 net.cpp:156] Memory required for data: 1047659808
I0403 14:30:05.167902  1385 layer_factory.hpp:77] Creating layer inception_4c/5x5_reduce
I0403 14:30:05.167927  1385 net.cpp:91] Creating Layer inception_4c/5x5_reduce
I0403 14:30:05.167945  1385 net.cpp:425] inception_4c/5x5_reduce <- inception_4b/output_inception_4b/output_0_split_2
I0403 14:30:05.167968  1385 net.cpp:399] inception_4c/5x5_reduce -> inception_4c/5x5_reduce
I0403 14:30:05.169139  1385 net.cpp:141] Setting up inception_4c/5x5_reduce
I0403 14:30:05.169172  1385 net.cpp:148] Top shape: 24 24 14 14 (112896)
I0403 14:30:05.169200  1385 net.cpp:156] Memory required for data: 1048111392
I0403 14:30:05.169225  1385 layer_factory.hpp:77] Creating layer inception_4c/relu_5x5_reduce
I0403 14:30:05.169245  1385 net.cpp:91] Creating Layer inception_4c/relu_5x5_reduce
I0403 14:30:05.169263  1385 net.cpp:425] inception_4c/relu_5x5_reduce <- inception_4c/5x5_reduce
I0403 14:30:05.169284  1385 net.cpp:386] inception_4c/relu_5x5_reduce -> inception_4c/5x5_reduce (in-place)
I0403 14:30:05.169497  1385 net.cpp:141] Setting up inception_4c/relu_5x5_reduce
I0403 14:30:05.169523  1385 net.cpp:148] Top shape: 24 24 14 14 (112896)
I0403 14:30:05.169538  1385 net.cpp:156] Memory required for data: 1048562976
I0403 14:30:05.169553  1385 layer_factory.hpp:77] Creating layer inception_4c/5x5
I0403 14:30:05.169576  1385 net.cpp:91] Creating Layer inception_4c/5x5
I0403 14:30:05.169595  1385 net.cpp:425] inception_4c/5x5 <- inception_4c/5x5_reduce
I0403 14:30:05.169616  1385 net.cpp:399] inception_4c/5x5 -> inception_4c/5x5
I0403 14:30:05.170966  1385 net.cpp:141] Setting up inception_4c/5x5
I0403 14:30:05.170994  1385 net.cpp:148] Top shape: 24 64 14 14 (301056)
I0403 14:30:05.171010  1385 net.cpp:156] Memory required for data: 1049767200
I0403 14:30:05.171030  1385 layer_factory.hpp:77] Creating layer inception_4c/relu_5x5
I0403 14:30:05.171051  1385 net.cpp:91] Creating Layer inception_4c/relu_5x5
I0403 14:30:05.171068  1385 net.cpp:425] inception_4c/relu_5x5 <- inception_4c/5x5
I0403 14:30:05.171087  1385 net.cpp:386] inception_4c/relu_5x5 -> inception_4c/5x5 (in-place)
I0403 14:30:05.171398  1385 net.cpp:141] Setting up inception_4c/relu_5x5
I0403 14:30:05.171427  1385 net.cpp:148] Top shape: 24 64 14 14 (301056)
I0403 14:30:05.171442  1385 net.cpp:156] Memory required for data: 1050971424
I0403 14:30:05.171458  1385 layer_factory.hpp:77] Creating layer inception_4c/pool
I0403 14:30:05.171489  1385 net.cpp:91] Creating Layer inception_4c/pool
I0403 14:30:05.171506  1385 net.cpp:425] inception_4c/pool <- inception_4b/output_inception_4b/output_0_split_3
I0403 14:30:05.171525  1385 net.cpp:399] inception_4c/pool -> inception_4c/pool
I0403 14:30:05.171596  1385 net.cpp:141] Setting up inception_4c/pool
I0403 14:30:05.171619  1385 net.cpp:148] Top shape: 24 512 14 14 (2408448)
I0403 14:30:05.171635  1385 net.cpp:156] Memory required for data: 1060605216
I0403 14:30:05.171649  1385 layer_factory.hpp:77] Creating layer inception_4c/pool_proj
I0403 14:30:05.171672  1385 net.cpp:91] Creating Layer inception_4c/pool_proj
I0403 14:30:05.171690  1385 net.cpp:425] inception_4c/pool_proj <- inception_4c/pool
I0403 14:30:05.171712  1385 net.cpp:399] inception_4c/pool_proj -> inception_4c/pool_proj
I0403 14:30:05.173018  1385 net.cpp:141] Setting up inception_4c/pool_proj
I0403 14:30:05.173048  1385 net.cpp:148] Top shape: 24 64 14 14 (301056)
I0403 14:30:05.173079  1385 net.cpp:156] Memory required for data: 1061809440
I0403 14:30:05.173099  1385 layer_factory.hpp:77] Creating layer inception_4c/relu_pool_proj
I0403 14:30:05.173117  1385 net.cpp:91] Creating Layer inception_4c/relu_pool_proj
I0403 14:30:05.173135  1385 net.cpp:425] inception_4c/relu_pool_proj <- inception_4c/pool_proj
I0403 14:30:05.173156  1385 net.cpp:386] inception_4c/relu_pool_proj -> inception_4c/pool_proj (in-place)
I0403 14:30:05.173357  1385 net.cpp:141] Setting up inception_4c/relu_pool_proj
I0403 14:30:05.173383  1385 net.cpp:148] Top shape: 24 64 14 14 (301056)
I0403 14:30:05.173398  1385 net.cpp:156] Memory required for data: 1063013664
I0403 14:30:05.173413  1385 layer_factory.hpp:77] Creating layer inception_4c/output
I0403 14:30:05.173431  1385 net.cpp:91] Creating Layer inception_4c/output
I0403 14:30:05.173452  1385 net.cpp:425] inception_4c/output <- inception_4c/1x1
I0403 14:30:05.173470  1385 net.cpp:425] inception_4c/output <- inception_4c/3x3
I0403 14:30:05.173486  1385 net.cpp:425] inception_4c/output <- inception_4c/5x5
I0403 14:30:05.173502  1385 net.cpp:425] inception_4c/output <- inception_4c/pool_proj
I0403 14:30:05.173521  1385 net.cpp:399] inception_4c/output -> inception_4c/output
I0403 14:30:05.173568  1385 net.cpp:141] Setting up inception_4c/output
I0403 14:30:05.173593  1385 net.cpp:148] Top shape: 24 512 14 14 (2408448)
I0403 14:30:05.173609  1385 net.cpp:156] Memory required for data: 1072647456
I0403 14:30:05.173624  1385 layer_factory.hpp:77] Creating layer inception_4c/output_inception_4c/output_0_split
I0403 14:30:05.173642  1385 net.cpp:91] Creating Layer inception_4c/output_inception_4c/output_0_split
I0403 14:30:05.173658  1385 net.cpp:425] inception_4c/output_inception_4c/output_0_split <- inception_4c/output
I0403 14:30:05.173679  1385 net.cpp:399] inception_4c/output_inception_4c/output_0_split -> inception_4c/output_inception_4c/output_0_split_0
I0403 14:30:05.173701  1385 net.cpp:399] inception_4c/output_inception_4c/output_0_split -> inception_4c/output_inception_4c/output_0_split_1
I0403 14:30:05.173722  1385 net.cpp:399] inception_4c/output_inception_4c/output_0_split -> inception_4c/output_inception_4c/output_0_split_2
I0403 14:30:05.173743  1385 net.cpp:399] inception_4c/output_inception_4c/output_0_split -> inception_4c/output_inception_4c/output_0_split_3
I0403 14:30:05.173830  1385 net.cpp:141] Setting up inception_4c/output_inception_4c/output_0_split
I0403 14:30:05.173857  1385 net.cpp:148] Top shape: 24 512 14 14 (2408448)
I0403 14:30:05.173876  1385 net.cpp:148] Top shape: 24 512 14 14 (2408448)
I0403 14:30:05.173892  1385 net.cpp:148] Top shape: 24 512 14 14 (2408448)
I0403 14:30:05.173907  1385 net.cpp:148] Top shape: 24 512 14 14 (2408448)
I0403 14:30:05.173920  1385 net.cpp:156] Memory required for data: 1111182624
I0403 14:30:05.173936  1385 layer_factory.hpp:77] Creating layer inception_4d/1x1
I0403 14:30:05.173959  1385 net.cpp:91] Creating Layer inception_4d/1x1
I0403 14:30:05.173977  1385 net.cpp:425] inception_4d/1x1 <- inception_4c/output_inception_4c/output_0_split_0
I0403 14:30:05.173997  1385 net.cpp:399] inception_4d/1x1 -> inception_4d/1x1
I0403 14:30:05.175451  1385 net.cpp:141] Setting up inception_4d/1x1
I0403 14:30:05.175483  1385 net.cpp:148] Top shape: 24 112 14 14 (526848)
I0403 14:30:05.175503  1385 net.cpp:156] Memory required for data: 1113290016
I0403 14:30:05.175521  1385 layer_factory.hpp:77] Creating layer inception_4d/relu_1x1
I0403 14:30:05.175540  1385 net.cpp:91] Creating Layer inception_4d/relu_1x1
I0403 14:30:05.175557  1385 net.cpp:425] inception_4d/relu_1x1 <- inception_4d/1x1
I0403 14:30:05.175587  1385 net.cpp:386] inception_4d/relu_1x1 -> inception_4d/1x1 (in-place)
I0403 14:30:05.175775  1385 net.cpp:141] Setting up inception_4d/relu_1x1
I0403 14:30:05.175801  1385 net.cpp:148] Top shape: 24 112 14 14 (526848)
I0403 14:30:05.175817  1385 net.cpp:156] Memory required for data: 1115397408
I0403 14:30:05.175832  1385 layer_factory.hpp:77] Creating layer inception_4d/3x3_reduce
I0403 14:30:05.175868  1385 net.cpp:91] Creating Layer inception_4d/3x3_reduce
I0403 14:30:05.175887  1385 net.cpp:425] inception_4d/3x3_reduce <- inception_4c/output_inception_4c/output_0_split_1
I0403 14:30:05.175905  1385 net.cpp:399] inception_4d/3x3_reduce -> inception_4d/3x3_reduce
I0403 14:30:05.177470  1385 net.cpp:141] Setting up inception_4d/3x3_reduce
I0403 14:30:05.177498  1385 net.cpp:148] Top shape: 24 144 14 14 (677376)
I0403 14:30:05.177513  1385 net.cpp:156] Memory required for data: 1118106912
I0403 14:30:05.177532  1385 layer_factory.hpp:77] Creating layer inception_4d/relu_3x3_reduce
I0403 14:30:05.177552  1385 net.cpp:91] Creating Layer inception_4d/relu_3x3_reduce
I0403 14:30:05.177569  1385 net.cpp:425] inception_4d/relu_3x3_reduce <- inception_4d/3x3_reduce
I0403 14:30:05.177587  1385 net.cpp:386] inception_4d/relu_3x3_reduce -> inception_4d/3x3_reduce (in-place)
I0403 14:30:05.177880  1385 net.cpp:141] Setting up inception_4d/relu_3x3_reduce
I0403 14:30:05.177906  1385 net.cpp:148] Top shape: 24 144 14 14 (677376)
I0403 14:30:05.177922  1385 net.cpp:156] Memory required for data: 1120816416
I0403 14:30:05.177937  1385 layer_factory.hpp:77] Creating layer inception_4d/3x3
I0403 14:30:05.177958  1385 net.cpp:91] Creating Layer inception_4d/3x3
I0403 14:30:05.177976  1385 net.cpp:425] inception_4d/3x3 <- inception_4d/3x3_reduce
I0403 14:30:05.177997  1385 net.cpp:399] inception_4d/3x3 -> inception_4d/3x3
I0403 14:30:05.182385  1385 net.cpp:141] Setting up inception_4d/3x3
I0403 14:30:05.182416  1385 net.cpp:148] Top shape: 24 288 14 14 (1354752)
I0403 14:30:05.182433  1385 net.cpp:156] Memory required for data: 1126235424
I0403 14:30:05.182454  1385 layer_factory.hpp:77] Creating layer inception_4d/relu_3x3
I0403 14:30:05.182474  1385 net.cpp:91] Creating Layer inception_4d/relu_3x3
I0403 14:30:05.182492  1385 net.cpp:425] inception_4d/relu_3x3 <- inception_4d/3x3
I0403 14:30:05.182512  1385 net.cpp:386] inception_4d/relu_3x3 -> inception_4d/3x3 (in-place)
I0403 14:30:05.182704  1385 net.cpp:141] Setting up inception_4d/relu_3x3
I0403 14:30:05.182731  1385 net.cpp:148] Top shape: 24 288 14 14 (1354752)
I0403 14:30:05.182747  1385 net.cpp:156] Memory required for data: 1131654432
I0403 14:30:05.182761  1385 layer_factory.hpp:77] Creating layer inception_4d/5x5_reduce
I0403 14:30:05.182785  1385 net.cpp:91] Creating Layer inception_4d/5x5_reduce
I0403 14:30:05.182802  1385 net.cpp:425] inception_4d/5x5_reduce <- inception_4c/output_inception_4c/output_0_split_2
I0403 14:30:05.182823  1385 net.cpp:399] inception_4d/5x5_reduce -> inception_4d/5x5_reduce
I0403 14:30:05.184028  1385 net.cpp:141] Setting up inception_4d/5x5_reduce
I0403 14:30:05.184058  1385 net.cpp:148] Top shape: 24 32 14 14 (150528)
I0403 14:30:05.184075  1385 net.cpp:156] Memory required for data: 1132256544
I0403 14:30:05.184093  1385 layer_factory.hpp:77] Creating layer inception_4d/relu_5x5_reduce
I0403 14:30:05.184113  1385 net.cpp:91] Creating Layer inception_4d/relu_5x5_reduce
I0403 14:30:05.184129  1385 net.cpp:425] inception_4d/relu_5x5_reduce <- inception_4d/5x5_reduce
I0403 14:30:05.184146  1385 net.cpp:386] inception_4d/relu_5x5_reduce -> inception_4d/5x5_reduce (in-place)
I0403 14:30:05.184348  1385 net.cpp:141] Setting up inception_4d/relu_5x5_reduce
I0403 14:30:05.184375  1385 net.cpp:148] Top shape: 24 32 14 14 (150528)
I0403 14:30:05.184389  1385 net.cpp:156] Memory required for data: 1132858656
I0403 14:30:05.184404  1385 layer_factory.hpp:77] Creating layer inception_4d/5x5
I0403 14:30:05.184427  1385 net.cpp:91] Creating Layer inception_4d/5x5
I0403 14:30:05.184444  1385 net.cpp:425] inception_4d/5x5 <- inception_4d/5x5_reduce
I0403 14:30:05.184465  1385 net.cpp:399] inception_4d/5x5 -> inception_4d/5x5
I0403 14:30:05.186012  1385 net.cpp:141] Setting up inception_4d/5x5
I0403 14:30:05.186043  1385 net.cpp:148] Top shape: 24 64 14 14 (301056)
I0403 14:30:05.186059  1385 net.cpp:156] Memory required for data: 1134062880
I0403 14:30:05.186079  1385 layer_factory.hpp:77] Creating layer inception_4d/relu_5x5
I0403 14:30:05.186115  1385 net.cpp:91] Creating Layer inception_4d/relu_5x5
I0403 14:30:05.186134  1385 net.cpp:425] inception_4d/relu_5x5 <- inception_4d/5x5
I0403 14:30:05.186152  1385 net.cpp:386] inception_4d/relu_5x5 -> inception_4d/5x5 (in-place)
I0403 14:30:05.186489  1385 net.cpp:141] Setting up inception_4d/relu_5x5
I0403 14:30:05.186517  1385 net.cpp:148] Top shape: 24 64 14 14 (301056)
I0403 14:30:05.186545  1385 net.cpp:156] Memory required for data: 1135267104
I0403 14:30:05.186561  1385 layer_factory.hpp:77] Creating layer inception_4d/pool
I0403 14:30:05.186579  1385 net.cpp:91] Creating Layer inception_4d/pool
I0403 14:30:05.186596  1385 net.cpp:425] inception_4d/pool <- inception_4c/output_inception_4c/output_0_split_3
I0403 14:30:05.186617  1385 net.cpp:399] inception_4d/pool -> inception_4d/pool
I0403 14:30:05.186683  1385 net.cpp:141] Setting up inception_4d/pool
I0403 14:30:05.186709  1385 net.cpp:148] Top shape: 24 512 14 14 (2408448)
I0403 14:30:05.186723  1385 net.cpp:156] Memory required for data: 1144900896
I0403 14:30:05.186738  1385 layer_factory.hpp:77] Creating layer inception_4d/pool_proj
I0403 14:30:05.186760  1385 net.cpp:91] Creating Layer inception_4d/pool_proj
I0403 14:30:05.186779  1385 net.cpp:425] inception_4d/pool_proj <- inception_4d/pool
I0403 14:30:05.186797  1385 net.cpp:399] inception_4d/pool_proj -> inception_4d/pool_proj
I0403 14:30:05.188624  1385 net.cpp:141] Setting up inception_4d/pool_proj
I0403 14:30:05.188655  1385 net.cpp:148] Top shape: 24 64 14 14 (301056)
I0403 14:30:05.188670  1385 net.cpp:156] Memory required for data: 1146105120
I0403 14:30:05.188693  1385 layer_factory.hpp:77] Creating layer inception_4d/relu_pool_proj
I0403 14:30:05.188710  1385 net.cpp:91] Creating Layer inception_4d/relu_pool_proj
I0403 14:30:05.188727  1385 net.cpp:425] inception_4d/relu_pool_proj <- inception_4d/pool_proj
I0403 14:30:05.188745  1385 net.cpp:386] inception_4d/relu_pool_proj -> inception_4d/pool_proj (in-place)
I0403 14:30:05.188936  1385 net.cpp:141] Setting up inception_4d/relu_pool_proj
I0403 14:30:05.188962  1385 net.cpp:148] Top shape: 24 64 14 14 (301056)
I0403 14:30:05.188977  1385 net.cpp:156] Memory required for data: 1147309344
I0403 14:30:05.188992  1385 layer_factory.hpp:77] Creating layer inception_4d/output
I0403 14:30:05.189009  1385 net.cpp:91] Creating Layer inception_4d/output
I0403 14:30:05.189025  1385 net.cpp:425] inception_4d/output <- inception_4d/1x1
I0403 14:30:05.189043  1385 net.cpp:425] inception_4d/output <- inception_4d/3x3
I0403 14:30:05.189059  1385 net.cpp:425] inception_4d/output <- inception_4d/5x5
I0403 14:30:05.189075  1385 net.cpp:425] inception_4d/output <- inception_4d/pool_proj
I0403 14:30:05.189095  1385 net.cpp:399] inception_4d/output -> inception_4d/output
I0403 14:30:05.189143  1385 net.cpp:141] Setting up inception_4d/output
I0403 14:30:05.189169  1385 net.cpp:148] Top shape: 24 528 14 14 (2483712)
I0403 14:30:05.189185  1385 net.cpp:156] Memory required for data: 1157244192
I0403 14:30:05.189199  1385 layer_factory.hpp:77] Creating layer inception_4d/output_inception_4d/output_0_split
I0403 14:30:05.189225  1385 net.cpp:91] Creating Layer inception_4d/output_inception_4d/output_0_split
I0403 14:30:05.189244  1385 net.cpp:425] inception_4d/output_inception_4d/output_0_split <- inception_4d/output
I0403 14:30:05.189261  1385 net.cpp:399] inception_4d/output_inception_4d/output_0_split -> inception_4d/output_inception_4d/output_0_split_0
I0403 14:30:05.189285  1385 net.cpp:399] inception_4d/output_inception_4d/output_0_split -> inception_4d/output_inception_4d/output_0_split_1
I0403 14:30:05.189306  1385 net.cpp:399] inception_4d/output_inception_4d/output_0_split -> inception_4d/output_inception_4d/output_0_split_2
I0403 14:30:05.189327  1385 net.cpp:399] inception_4d/output_inception_4d/output_0_split -> inception_4d/output_inception_4d/output_0_split_3
I0403 14:30:05.189348  1385 net.cpp:399] inception_4d/output_inception_4d/output_0_split -> inception_4d/output_inception_4d/output_0_split_4
I0403 14:30:05.189453  1385 net.cpp:141] Setting up inception_4d/output_inception_4d/output_0_split
I0403 14:30:05.189488  1385 net.cpp:148] Top shape: 24 528 14 14 (2483712)
I0403 14:30:05.189507  1385 net.cpp:148] Top shape: 24 528 14 14 (2483712)
I0403 14:30:05.189538  1385 net.cpp:148] Top shape: 24 528 14 14 (2483712)
I0403 14:30:05.189554  1385 net.cpp:148] Top shape: 24 528 14 14 (2483712)
I0403 14:30:05.189570  1385 net.cpp:148] Top shape: 24 528 14 14 (2483712)
I0403 14:30:05.189585  1385 net.cpp:156] Memory required for data: 1206918432
I0403 14:30:05.189600  1385 layer_factory.hpp:77] Creating layer loss2/ave_pool
I0403 14:30:05.189618  1385 net.cpp:91] Creating Layer loss2/ave_pool
I0403 14:30:05.189635  1385 net.cpp:425] loss2/ave_pool <- inception_4d/output_inception_4d/output_0_split_0
I0403 14:30:05.189654  1385 net.cpp:399] loss2/ave_pool -> loss2/ave_pool
I0403 14:30:05.189987  1385 net.cpp:141] Setting up loss2/ave_pool
I0403 14:30:05.190017  1385 net.cpp:148] Top shape: 24 528 4 4 (202752)
I0403 14:30:05.190033  1385 net.cpp:156] Memory required for data: 1207729440
I0403 14:30:05.190049  1385 layer_factory.hpp:77] Creating layer loss2/conv
I0403 14:30:05.190071  1385 net.cpp:91] Creating Layer loss2/conv
I0403 14:30:05.190089  1385 net.cpp:425] loss2/conv <- loss2/ave_pool
I0403 14:30:05.190109  1385 net.cpp:399] loss2/conv -> loss2/conv
I0403 14:30:05.192101  1385 net.cpp:141] Setting up loss2/conv
I0403 14:30:05.192129  1385 net.cpp:148] Top shape: 24 128 4 4 (49152)
I0403 14:30:05.192145  1385 net.cpp:156] Memory required for data: 1207926048
I0403 14:30:05.192163  1385 layer_factory.hpp:77] Creating layer loss2/relu_conv
I0403 14:30:05.192183  1385 net.cpp:91] Creating Layer loss2/relu_conv
I0403 14:30:05.192198  1385 net.cpp:425] loss2/relu_conv <- loss2/conv
I0403 14:30:05.192230  1385 net.cpp:386] loss2/relu_conv -> loss2/conv (in-place)
I0403 14:30:05.192524  1385 net.cpp:141] Setting up loss2/relu_conv
I0403 14:30:05.192551  1385 net.cpp:148] Top shape: 24 128 4 4 (49152)
I0403 14:30:05.192567  1385 net.cpp:156] Memory required for data: 1208122656
I0403 14:30:05.192582  1385 layer_factory.hpp:77] Creating layer loss2/fc
I0403 14:30:05.192601  1385 net.cpp:91] Creating Layer loss2/fc
I0403 14:30:05.192617  1385 net.cpp:425] loss2/fc <- loss2/conv
I0403 14:30:05.192638  1385 net.cpp:399] loss2/fc -> loss2/fc
I0403 14:30:05.210940  1385 net.cpp:141] Setting up loss2/fc
I0403 14:30:05.211009  1385 net.cpp:148] Top shape: 24 1024 (24576)
I0403 14:30:05.211025  1385 net.cpp:156] Memory required for data: 1208220960
I0403 14:30:05.211047  1385 layer_factory.hpp:77] Creating layer loss2/relu_fc
I0403 14:30:05.211069  1385 net.cpp:91] Creating Layer loss2/relu_fc
I0403 14:30:05.211088  1385 net.cpp:425] loss2/relu_fc <- loss2/fc
I0403 14:30:05.211108  1385 net.cpp:386] loss2/relu_fc -> loss2/fc (in-place)
I0403 14:30:05.211483  1385 net.cpp:141] Setting up loss2/relu_fc
I0403 14:30:05.211515  1385 net.cpp:148] Top shape: 24 1024 (24576)
I0403 14:30:05.211532  1385 net.cpp:156] Memory required for data: 1208319264
I0403 14:30:05.211549  1385 layer_factory.hpp:77] Creating layer loss2/drop_fc
I0403 14:30:05.211570  1385 net.cpp:91] Creating Layer loss2/drop_fc
I0403 14:30:05.211586  1385 net.cpp:425] loss2/drop_fc <- loss2/fc
I0403 14:30:05.211606  1385 net.cpp:386] loss2/drop_fc -> loss2/fc (in-place)
I0403 14:30:05.211663  1385 net.cpp:141] Setting up loss2/drop_fc
I0403 14:30:05.211688  1385 net.cpp:148] Top shape: 24 1024 (24576)
I0403 14:30:05.211704  1385 net.cpp:156] Memory required for data: 1208417568
I0403 14:30:05.211720  1385 layer_factory.hpp:77] Creating layer loss2/classifier_plantvillage
I0403 14:30:05.211743  1385 net.cpp:91] Creating Layer loss2/classifier_plantvillage
I0403 14:30:05.211761  1385 net.cpp:425] loss2/classifier_plantvillage <- loss2/fc
I0403 14:30:05.211782  1385 net.cpp:399] loss2/classifier_plantvillage -> loss2/classifier_plantvillage
I0403 14:30:05.212223  1385 net.cpp:141] Setting up loss2/classifier_plantvillage
I0403 14:30:05.212250  1385 net.cpp:148] Top shape: 24 38 (912)
I0403 14:30:05.212292  1385 net.cpp:156] Memory required for data: 1208421216
I0403 14:30:05.212314  1385 layer_factory.hpp:77] Creating layer loss2/classifier_plantvillage_loss2/classifier_plantvillage_0_split
I0403 14:30:05.212335  1385 net.cpp:91] Creating Layer loss2/classifier_plantvillage_loss2/classifier_plantvillage_0_split
I0403 14:30:05.212352  1385 net.cpp:425] loss2/classifier_plantvillage_loss2/classifier_plantvillage_0_split <- loss2/classifier_plantvillage
I0403 14:30:05.212373  1385 net.cpp:399] loss2/classifier_plantvillage_loss2/classifier_plantvillage_0_split -> loss2/classifier_plantvillage_loss2/classifier_plantvillage_0_split_0
I0403 14:30:05.212395  1385 net.cpp:399] loss2/classifier_plantvillage_loss2/classifier_plantvillage_0_split -> loss2/classifier_plantvillage_loss2/classifier_plantvillage_0_split_1
I0403 14:30:05.212419  1385 net.cpp:399] loss2/classifier_plantvillage_loss2/classifier_plantvillage_0_split -> loss2/classifier_plantvillage_loss2/classifier_plantvillage_0_split_2
I0403 14:30:05.212502  1385 net.cpp:141] Setting up loss2/classifier_plantvillage_loss2/classifier_plantvillage_0_split
I0403 14:30:05.212528  1385 net.cpp:148] Top shape: 24 38 (912)
I0403 14:30:05.212546  1385 net.cpp:148] Top shape: 24 38 (912)
I0403 14:30:05.212564  1385 net.cpp:148] Top shape: 24 38 (912)
I0403 14:30:05.212579  1385 net.cpp:156] Memory required for data: 1208432160
I0403 14:30:05.212594  1385 layer_factory.hpp:77] Creating layer inception_4e/1x1
I0403 14:30:05.212618  1385 net.cpp:91] Creating Layer inception_4e/1x1
I0403 14:30:05.212638  1385 net.cpp:425] inception_4e/1x1 <- inception_4d/output_inception_4d/output_0_split_1
I0403 14:30:05.212661  1385 net.cpp:399] inception_4e/1x1 -> inception_4e/1x1
I0403 14:30:05.214602  1385 net.cpp:141] Setting up inception_4e/1x1
I0403 14:30:05.214632  1385 net.cpp:148] Top shape: 24 256 14 14 (1204224)
I0403 14:30:05.214648  1385 net.cpp:156] Memory required for data: 1213249056
I0403 14:30:05.214668  1385 layer_factory.hpp:77] Creating layer inception_4e/relu_1x1
I0403 14:30:05.214690  1385 net.cpp:91] Creating Layer inception_4e/relu_1x1
I0403 14:30:05.214710  1385 net.cpp:425] inception_4e/relu_1x1 <- inception_4e/1x1
I0403 14:30:05.214730  1385 net.cpp:386] inception_4e/relu_1x1 -> inception_4e/1x1 (in-place)
I0403 14:30:05.215042  1385 net.cpp:141] Setting up inception_4e/relu_1x1
I0403 14:30:05.215071  1385 net.cpp:148] Top shape: 24 256 14 14 (1204224)
I0403 14:30:05.215088  1385 net.cpp:156] Memory required for data: 1218065952
I0403 14:30:05.215104  1385 layer_factory.hpp:77] Creating layer inception_4e/3x3_reduce
I0403 14:30:05.215129  1385 net.cpp:91] Creating Layer inception_4e/3x3_reduce
I0403 14:30:05.215149  1385 net.cpp:425] inception_4e/3x3_reduce <- inception_4d/output_inception_4d/output_0_split_2
I0403 14:30:05.215172  1385 net.cpp:399] inception_4e/3x3_reduce -> inception_4e/3x3_reduce
I0403 14:30:05.217491  1385 net.cpp:141] Setting up inception_4e/3x3_reduce
I0403 14:30:05.217521  1385 net.cpp:148] Top shape: 24 160 14 14 (752640)
I0403 14:30:05.217538  1385 net.cpp:156] Memory required for data: 1221076512
I0403 14:30:05.217558  1385 layer_factory.hpp:77] Creating layer inception_4e/relu_3x3_reduce
I0403 14:30:05.217577  1385 net.cpp:91] Creating Layer inception_4e/relu_3x3_reduce
I0403 14:30:05.217594  1385 net.cpp:425] inception_4e/relu_3x3_reduce <- inception_4e/3x3_reduce
I0403 14:30:05.217615  1385 net.cpp:386] inception_4e/relu_3x3_reduce -> inception_4e/3x3_reduce (in-place)
I0403 14:30:05.217818  1385 net.cpp:141] Setting up inception_4e/relu_3x3_reduce
I0403 14:30:05.217844  1385 net.cpp:148] Top shape: 24 160 14 14 (752640)
I0403 14:30:05.217860  1385 net.cpp:156] Memory required for data: 1224087072
I0403 14:30:05.217876  1385 layer_factory.hpp:77] Creating layer inception_4e/3x3
I0403 14:30:05.217900  1385 net.cpp:91] Creating Layer inception_4e/3x3
I0403 14:30:05.217919  1385 net.cpp:425] inception_4e/3x3 <- inception_4e/3x3_reduce
I0403 14:30:05.217941  1385 net.cpp:399] inception_4e/3x3 -> inception_4e/3x3
I0403 14:30:05.223294  1385 net.cpp:141] Setting up inception_4e/3x3
I0403 14:30:05.223340  1385 net.cpp:148] Top shape: 24 320 14 14 (1505280)
I0403 14:30:05.223357  1385 net.cpp:156] Memory required for data: 1230108192
I0403 14:30:05.223377  1385 layer_factory.hpp:77] Creating layer inception_4e/relu_3x3
I0403 14:30:05.223399  1385 net.cpp:91] Creating Layer inception_4e/relu_3x3
I0403 14:30:05.223418  1385 net.cpp:425] inception_4e/relu_3x3 <- inception_4e/3x3
I0403 14:30:05.223438  1385 net.cpp:386] inception_4e/relu_3x3 -> inception_4e/3x3 (in-place)
I0403 14:30:05.223762  1385 net.cpp:141] Setting up inception_4e/relu_3x3
I0403 14:30:05.223793  1385 net.cpp:148] Top shape: 24 320 14 14 (1505280)
I0403 14:30:05.223809  1385 net.cpp:156] Memory required for data: 1236129312
I0403 14:30:05.223825  1385 layer_factory.hpp:77] Creating layer inception_4e/5x5_reduce
I0403 14:30:05.223847  1385 net.cpp:91] Creating Layer inception_4e/5x5_reduce
I0403 14:30:05.223865  1385 net.cpp:425] inception_4e/5x5_reduce <- inception_4d/output_inception_4d/output_0_split_3
I0403 14:30:05.223889  1385 net.cpp:399] inception_4e/5x5_reduce -> inception_4e/5x5_reduce
I0403 14:30:05.225050  1385 net.cpp:141] Setting up inception_4e/5x5_reduce
I0403 14:30:05.225081  1385 net.cpp:148] Top shape: 24 32 14 14 (150528)
I0403 14:30:05.225098  1385 net.cpp:156] Memory required for data: 1236731424
I0403 14:30:05.225118  1385 layer_factory.hpp:77] Creating layer inception_4e/relu_5x5_reduce
I0403 14:30:05.225141  1385 net.cpp:91] Creating Layer inception_4e/relu_5x5_reduce
I0403 14:30:05.225159  1385 net.cpp:425] inception_4e/relu_5x5_reduce <- inception_4e/5x5_reduce
I0403 14:30:05.225178  1385 net.cpp:386] inception_4e/relu_5x5_reduce -> inception_4e/5x5_reduce (in-place)
I0403 14:30:05.225507  1385 net.cpp:141] Setting up inception_4e/relu_5x5_reduce
I0403 14:30:05.225533  1385 net.cpp:148] Top shape: 24 32 14 14 (150528)
I0403 14:30:05.225549  1385 net.cpp:156] Memory required for data: 1237333536
I0403 14:30:05.225564  1385 layer_factory.hpp:77] Creating layer inception_4e/5x5
I0403 14:30:05.225605  1385 net.cpp:91] Creating Layer inception_4e/5x5
I0403 14:30:05.225625  1385 net.cpp:425] inception_4e/5x5 <- inception_4e/5x5_reduce
I0403 14:30:05.225646  1385 net.cpp:399] inception_4e/5x5 -> inception_4e/5x5
I0403 14:30:05.227548  1385 net.cpp:141] Setting up inception_4e/5x5
I0403 14:30:05.227579  1385 net.cpp:148] Top shape: 24 128 14 14 (602112)
I0403 14:30:05.227597  1385 net.cpp:156] Memory required for data: 1239741984
I0403 14:30:05.227617  1385 layer_factory.hpp:77] Creating layer inception_4e/relu_5x5
I0403 14:30:05.227635  1385 net.cpp:91] Creating Layer inception_4e/relu_5x5
I0403 14:30:05.227651  1385 net.cpp:425] inception_4e/relu_5x5 <- inception_4e/5x5
I0403 14:30:05.227671  1385 net.cpp:386] inception_4e/relu_5x5 -> inception_4e/5x5 (in-place)
I0403 14:30:05.227871  1385 net.cpp:141] Setting up inception_4e/relu_5x5
I0403 14:30:05.227896  1385 net.cpp:148] Top shape: 24 128 14 14 (602112)
I0403 14:30:05.227911  1385 net.cpp:156] Memory required for data: 1242150432
I0403 14:30:05.227926  1385 layer_factory.hpp:77] Creating layer inception_4e/pool
I0403 14:30:05.227946  1385 net.cpp:91] Creating Layer inception_4e/pool
I0403 14:30:05.227962  1385 net.cpp:425] inception_4e/pool <- inception_4d/output_inception_4d/output_0_split_4
I0403 14:30:05.227982  1385 net.cpp:399] inception_4e/pool -> inception_4e/pool
I0403 14:30:05.228055  1385 net.cpp:141] Setting up inception_4e/pool
I0403 14:30:05.228078  1385 net.cpp:148] Top shape: 24 528 14 14 (2483712)
I0403 14:30:05.228092  1385 net.cpp:156] Memory required for data: 1252085280
I0403 14:30:05.228107  1385 layer_factory.hpp:77] Creating layer inception_4e/pool_proj
I0403 14:30:05.228132  1385 net.cpp:91] Creating Layer inception_4e/pool_proj
I0403 14:30:05.228150  1385 net.cpp:425] inception_4e/pool_proj <- inception_4e/pool
I0403 14:30:05.228168  1385 net.cpp:399] inception_4e/pool_proj -> inception_4e/pool_proj
I0403 14:30:05.229718  1385 net.cpp:141] Setting up inception_4e/pool_proj
I0403 14:30:05.229764  1385 net.cpp:148] Top shape: 24 128 14 14 (602112)
I0403 14:30:05.229784  1385 net.cpp:156] Memory required for data: 1254493728
I0403 14:30:05.229802  1385 layer_factory.hpp:77] Creating layer inception_4e/relu_pool_proj
I0403 14:30:05.229821  1385 net.cpp:91] Creating Layer inception_4e/relu_pool_proj
I0403 14:30:05.229840  1385 net.cpp:425] inception_4e/relu_pool_proj <- inception_4e/pool_proj
I0403 14:30:05.229858  1385 net.cpp:386] inception_4e/relu_pool_proj -> inception_4e/pool_proj (in-place)
I0403 14:30:05.230156  1385 net.cpp:141] Setting up inception_4e/relu_pool_proj
I0403 14:30:05.230185  1385 net.cpp:148] Top shape: 24 128 14 14 (602112)
I0403 14:30:05.230201  1385 net.cpp:156] Memory required for data: 1256902176
I0403 14:30:05.230223  1385 layer_factory.hpp:77] Creating layer inception_4e/output
I0403 14:30:05.230242  1385 net.cpp:91] Creating Layer inception_4e/output
I0403 14:30:05.230258  1385 net.cpp:425] inception_4e/output <- inception_4e/1x1
I0403 14:30:05.230274  1385 net.cpp:425] inception_4e/output <- inception_4e/3x3
I0403 14:30:05.230290  1385 net.cpp:425] inception_4e/output <- inception_4e/5x5
I0403 14:30:05.230306  1385 net.cpp:425] inception_4e/output <- inception_4e/pool_proj
I0403 14:30:05.230324  1385 net.cpp:399] inception_4e/output -> inception_4e/output
I0403 14:30:05.230376  1385 net.cpp:141] Setting up inception_4e/output
I0403 14:30:05.230401  1385 net.cpp:148] Top shape: 24 832 14 14 (3913728)
I0403 14:30:05.230414  1385 net.cpp:156] Memory required for data: 1272557088
I0403 14:30:05.230429  1385 layer_factory.hpp:77] Creating layer pool4/3x3_s2
I0403 14:30:05.230448  1385 net.cpp:91] Creating Layer pool4/3x3_s2
I0403 14:30:05.230466  1385 net.cpp:425] pool4/3x3_s2 <- inception_4e/output
I0403 14:30:05.230485  1385 net.cpp:399] pool4/3x3_s2 -> pool4/3x3_s2
I0403 14:30:05.230556  1385 net.cpp:141] Setting up pool4/3x3_s2
I0403 14:30:05.230581  1385 net.cpp:148] Top shape: 24 832 7 7 (978432)
I0403 14:30:05.230594  1385 net.cpp:156] Memory required for data: 1276470816
I0403 14:30:05.230608  1385 layer_factory.hpp:77] Creating layer pool4/3x3_s2_pool4/3x3_s2_0_split
I0403 14:30:05.230625  1385 net.cpp:91] Creating Layer pool4/3x3_s2_pool4/3x3_s2_0_split
I0403 14:30:05.230641  1385 net.cpp:425] pool4/3x3_s2_pool4/3x3_s2_0_split <- pool4/3x3_s2
I0403 14:30:05.230661  1385 net.cpp:399] pool4/3x3_s2_pool4/3x3_s2_0_split -> pool4/3x3_s2_pool4/3x3_s2_0_split_0
I0403 14:30:05.230682  1385 net.cpp:399] pool4/3x3_s2_pool4/3x3_s2_0_split -> pool4/3x3_s2_pool4/3x3_s2_0_split_1
I0403 14:30:05.230703  1385 net.cpp:399] pool4/3x3_s2_pool4/3x3_s2_0_split -> pool4/3x3_s2_pool4/3x3_s2_0_split_2
I0403 14:30:05.230722  1385 net.cpp:399] pool4/3x3_s2_pool4/3x3_s2_0_split -> pool4/3x3_s2_pool4/3x3_s2_0_split_3
I0403 14:30:05.230813  1385 net.cpp:141] Setting up pool4/3x3_s2_pool4/3x3_s2_0_split
I0403 14:30:05.230839  1385 net.cpp:148] Top shape: 24 832 7 7 (978432)
I0403 14:30:05.230857  1385 net.cpp:148] Top shape: 24 832 7 7 (978432)
I0403 14:30:05.230873  1385 net.cpp:148] Top shape: 24 832 7 7 (978432)
I0403 14:30:05.230890  1385 net.cpp:148] Top shape: 24 832 7 7 (978432)
I0403 14:30:05.230902  1385 net.cpp:156] Memory required for data: 1292125728
I0403 14:30:05.230917  1385 layer_factory.hpp:77] Creating layer inception_5a/1x1
I0403 14:30:05.230939  1385 net.cpp:91] Creating Layer inception_5a/1x1
I0403 14:30:05.230957  1385 net.cpp:425] inception_5a/1x1 <- pool4/3x3_s2_pool4/3x3_s2_0_split_0
I0403 14:30:05.230976  1385 net.cpp:399] inception_5a/1x1 -> inception_5a/1x1
I0403 14:30:05.233907  1385 net.cpp:141] Setting up inception_5a/1x1
I0403 14:30:05.233937  1385 net.cpp:148] Top shape: 24 256 7 7 (301056)
I0403 14:30:05.233953  1385 net.cpp:156] Memory required for data: 1293329952
I0403 14:30:05.233973  1385 layer_factory.hpp:77] Creating layer inception_5a/relu_1x1
I0403 14:30:05.233990  1385 net.cpp:91] Creating Layer inception_5a/relu_1x1
I0403 14:30:05.234006  1385 net.cpp:425] inception_5a/relu_1x1 <- inception_5a/1x1
I0403 14:30:05.234026  1385 net.cpp:386] inception_5a/relu_1x1 -> inception_5a/1x1 (in-place)
I0403 14:30:05.234359  1385 net.cpp:141] Setting up inception_5a/relu_1x1
I0403 14:30:05.234386  1385 net.cpp:148] Top shape: 24 256 7 7 (301056)
I0403 14:30:05.234402  1385 net.cpp:156] Memory required for data: 1294534176
I0403 14:30:05.234417  1385 layer_factory.hpp:77] Creating layer inception_5a/3x3_reduce
I0403 14:30:05.234441  1385 net.cpp:91] Creating Layer inception_5a/3x3_reduce
I0403 14:30:05.234459  1385 net.cpp:425] inception_5a/3x3_reduce <- pool4/3x3_s2_pool4/3x3_s2_0_split_1
I0403 14:30:05.234482  1385 net.cpp:399] inception_5a/3x3_reduce -> inception_5a/3x3_reduce
I0403 14:30:05.236964  1385 net.cpp:141] Setting up inception_5a/3x3_reduce
I0403 14:30:05.236995  1385 net.cpp:148] Top shape: 24 160 7 7 (188160)
I0403 14:30:05.237013  1385 net.cpp:156] Memory required for data: 1295286816
I0403 14:30:05.237033  1385 layer_factory.hpp:77] Creating layer inception_5a/relu_3x3_reduce
I0403 14:30:05.237053  1385 net.cpp:91] Creating Layer inception_5a/relu_3x3_reduce
I0403 14:30:05.237071  1385 net.cpp:425] inception_5a/relu_3x3_reduce <- inception_5a/3x3_reduce
I0403 14:30:05.237088  1385 net.cpp:386] inception_5a/relu_3x3_reduce -> inception_5a/3x3_reduce (in-place)
I0403 14:30:05.237290  1385 net.cpp:141] Setting up inception_5a/relu_3x3_reduce
I0403 14:30:05.237316  1385 net.cpp:148] Top shape: 24 160 7 7 (188160)
I0403 14:30:05.237331  1385 net.cpp:156] Memory required for data: 1296039456
I0403 14:30:05.237346  1385 layer_factory.hpp:77] Creating layer inception_5a/3x3
I0403 14:30:05.237370  1385 net.cpp:91] Creating Layer inception_5a/3x3
I0403 14:30:05.237387  1385 net.cpp:425] inception_5a/3x3 <- inception_5a/3x3_reduce
I0403 14:30:05.237411  1385 net.cpp:399] inception_5a/3x3 -> inception_5a/3x3
I0403 14:30:05.242471  1385 net.cpp:141] Setting up inception_5a/3x3
I0403 14:30:05.242506  1385 net.cpp:148] Top shape: 24 320 7 7 (376320)
I0403 14:30:05.242523  1385 net.cpp:156] Memory required for data: 1297544736
I0403 14:30:05.242543  1385 layer_factory.hpp:77] Creating layer inception_5a/relu_3x3
I0403 14:30:05.242563  1385 net.cpp:91] Creating Layer inception_5a/relu_3x3
I0403 14:30:05.242580  1385 net.cpp:425] inception_5a/relu_3x3 <- inception_5a/3x3
I0403 14:30:05.242601  1385 net.cpp:386] inception_5a/relu_3x3 -> inception_5a/3x3 (in-place)
I0403 14:30:05.244699  1385 net.cpp:141] Setting up inception_5a/relu_3x3
I0403 14:30:05.244736  1385 net.cpp:148] Top shape: 24 320 7 7 (376320)
I0403 14:30:05.244755  1385 net.cpp:156] Memory required for data: 1299050016
I0403 14:30:05.244771  1385 layer_factory.hpp:77] Creating layer inception_5a/5x5_reduce
I0403 14:30:05.244794  1385 net.cpp:91] Creating Layer inception_5a/5x5_reduce
I0403 14:30:05.244813  1385 net.cpp:425] inception_5a/5x5_reduce <- pool4/3x3_s2_pool4/3x3_s2_0_split_2
I0403 14:30:05.244833  1385 net.cpp:399] inception_5a/5x5_reduce -> inception_5a/5x5_reduce
I0403 14:30:05.246049  1385 net.cpp:141] Setting up inception_5a/5x5_reduce
I0403 14:30:05.246080  1385 net.cpp:148] Top shape: 24 32 7 7 (37632)
I0403 14:30:05.246096  1385 net.cpp:156] Memory required for data: 1299200544
I0403 14:30:05.246124  1385 layer_factory.hpp:77] Creating layer inception_5a/relu_5x5_reduce
I0403 14:30:05.246155  1385 net.cpp:91] Creating Layer inception_5a/relu_5x5_reduce
I0403 14:30:05.246171  1385 net.cpp:425] inception_5a/relu_5x5_reduce <- inception_5a/5x5_reduce
I0403 14:30:05.246192  1385 net.cpp:386] inception_5a/relu_5x5_reduce -> inception_5a/5x5_reduce (in-place)
I0403 14:30:05.246534  1385 net.cpp:141] Setting up inception_5a/relu_5x5_reduce
I0403 14:30:05.246562  1385 net.cpp:148] Top shape: 24 32 7 7 (37632)
I0403 14:30:05.246577  1385 net.cpp:156] Memory required for data: 1299351072
I0403 14:30:05.246592  1385 layer_factory.hpp:77] Creating layer inception_5a/5x5
I0403 14:30:05.246615  1385 net.cpp:91] Creating Layer inception_5a/5x5
I0403 14:30:05.246634  1385 net.cpp:425] inception_5a/5x5 <- inception_5a/5x5_reduce
I0403 14:30:05.246655  1385 net.cpp:399] inception_5a/5x5 -> inception_5a/5x5
I0403 14:30:05.248417  1385 net.cpp:141] Setting up inception_5a/5x5
I0403 14:30:05.248464  1385 net.cpp:148] Top shape: 24 128 7 7 (150528)
I0403 14:30:05.248484  1385 net.cpp:156] Memory required for data: 1299953184
I0403 14:30:05.248504  1385 layer_factory.hpp:77] Creating layer inception_5a/relu_5x5
I0403 14:30:05.248524  1385 net.cpp:91] Creating Layer inception_5a/relu_5x5
I0403 14:30:05.248543  1385 net.cpp:425] inception_5a/relu_5x5 <- inception_5a/5x5
I0403 14:30:05.248564  1385 net.cpp:386] inception_5a/relu_5x5 -> inception_5a/5x5 (in-place)
I0403 14:30:05.248759  1385 net.cpp:141] Setting up inception_5a/relu_5x5
I0403 14:30:05.248786  1385 net.cpp:148] Top shape: 24 128 7 7 (150528)
I0403 14:30:05.248802  1385 net.cpp:156] Memory required for data: 1300555296
I0403 14:30:05.248817  1385 layer_factory.hpp:77] Creating layer inception_5a/pool
I0403 14:30:05.248836  1385 net.cpp:91] Creating Layer inception_5a/pool
I0403 14:30:05.248852  1385 net.cpp:425] inception_5a/pool <- pool4/3x3_s2_pool4/3x3_s2_0_split_3
I0403 14:30:05.248872  1385 net.cpp:399] inception_5a/pool -> inception_5a/pool
I0403 14:30:05.248945  1385 net.cpp:141] Setting up inception_5a/pool
I0403 14:30:05.248970  1385 net.cpp:148] Top shape: 24 832 7 7 (978432)
I0403 14:30:05.248983  1385 net.cpp:156] Memory required for data: 1304469024
I0403 14:30:05.248997  1385 layer_factory.hpp:77] Creating layer inception_5a/pool_proj
I0403 14:30:05.249023  1385 net.cpp:91] Creating Layer inception_5a/pool_proj
I0403 14:30:05.249042  1385 net.cpp:425] inception_5a/pool_proj <- inception_5a/pool
I0403 14:30:05.249060  1385 net.cpp:399] inception_5a/pool_proj -> inception_5a/pool_proj
I0403 14:30:05.251374  1385 net.cpp:141] Setting up inception_5a/pool_proj
I0403 14:30:05.251408  1385 net.cpp:148] Top shape: 24 128 7 7 (150528)
I0403 14:30:05.251427  1385 net.cpp:156] Memory required for data: 1305071136
I0403 14:30:05.251447  1385 layer_factory.hpp:77] Creating layer inception_5a/relu_pool_proj
I0403 14:30:05.251467  1385 net.cpp:91] Creating Layer inception_5a/relu_pool_proj
I0403 14:30:05.251487  1385 net.cpp:425] inception_5a/relu_pool_proj <- inception_5a/pool_proj
I0403 14:30:05.251503  1385 net.cpp:386] inception_5a/relu_pool_proj -> inception_5a/pool_proj (in-place)
I0403 14:30:05.251806  1385 net.cpp:141] Setting up inception_5a/relu_pool_proj
I0403 14:30:05.251837  1385 net.cpp:148] Top shape: 24 128 7 7 (150528)
I0403 14:30:05.251854  1385 net.cpp:156] Memory required for data: 1305673248
I0403 14:30:05.251870  1385 layer_factory.hpp:77] Creating layer inception_5a/output
I0403 14:30:05.251888  1385 net.cpp:91] Creating Layer inception_5a/output
I0403 14:30:05.251905  1385 net.cpp:425] inception_5a/output <- inception_5a/1x1
I0403 14:30:05.251924  1385 net.cpp:425] inception_5a/output <- inception_5a/3x3
I0403 14:30:05.251940  1385 net.cpp:425] inception_5a/output <- inception_5a/5x5
I0403 14:30:05.251956  1385 net.cpp:425] inception_5a/output <- inception_5a/pool_proj
I0403 14:30:05.251973  1385 net.cpp:399] inception_5a/output -> inception_5a/output
I0403 14:30:05.252027  1385 net.cpp:141] Setting up inception_5a/output
I0403 14:30:05.252051  1385 net.cpp:148] Top shape: 24 832 7 7 (978432)
I0403 14:30:05.252066  1385 net.cpp:156] Memory required for data: 1309586976
I0403 14:30:05.252081  1385 layer_factory.hpp:77] Creating layer inception_5a/output_inception_5a/output_0_split
I0403 14:30:05.252101  1385 net.cpp:91] Creating Layer inception_5a/output_inception_5a/output_0_split
I0403 14:30:05.252118  1385 net.cpp:425] inception_5a/output_inception_5a/output_0_split <- inception_5a/output
I0403 14:30:05.252137  1385 net.cpp:399] inception_5a/output_inception_5a/output_0_split -> inception_5a/output_inception_5a/output_0_split_0
I0403 14:30:05.252159  1385 net.cpp:399] inception_5a/output_inception_5a/output_0_split -> inception_5a/output_inception_5a/output_0_split_1
I0403 14:30:05.252182  1385 net.cpp:399] inception_5a/output_inception_5a/output_0_split -> inception_5a/output_inception_5a/output_0_split_2
I0403 14:30:05.252203  1385 net.cpp:399] inception_5a/output_inception_5a/output_0_split -> inception_5a/output_inception_5a/output_0_split_3
I0403 14:30:05.252323  1385 net.cpp:141] Setting up inception_5a/output_inception_5a/output_0_split
I0403 14:30:05.252347  1385 net.cpp:148] Top shape: 24 832 7 7 (978432)
I0403 14:30:05.252363  1385 net.cpp:148] Top shape: 24 832 7 7 (978432)
I0403 14:30:05.252379  1385 net.cpp:148] Top shape: 24 832 7 7 (978432)
I0403 14:30:05.252395  1385 net.cpp:148] Top shape: 24 832 7 7 (978432)
I0403 14:30:05.252409  1385 net.cpp:156] Memory required for data: 1325241888
I0403 14:30:05.252424  1385 layer_factory.hpp:77] Creating layer inception_5b/1x1
I0403 14:30:05.252445  1385 net.cpp:91] Creating Layer inception_5b/1x1
I0403 14:30:05.252465  1385 net.cpp:425] inception_5b/1x1 <- inception_5a/output_inception_5a/output_0_split_0
I0403 14:30:05.252486  1385 net.cpp:399] inception_5b/1x1 -> inception_5b/1x1
I0403 14:30:05.256294  1385 net.cpp:141] Setting up inception_5b/1x1
I0403 14:30:05.256327  1385 net.cpp:148] Top shape: 24 384 7 7 (451584)
I0403 14:30:05.256345  1385 net.cpp:156] Memory required for data: 1327048224
I0403 14:30:05.256364  1385 layer_factory.hpp:77] Creating layer inception_5b/relu_1x1
I0403 14:30:05.256386  1385 net.cpp:91] Creating Layer inception_5b/relu_1x1
I0403 14:30:05.256404  1385 net.cpp:425] inception_5b/relu_1x1 <- inception_5b/1x1
I0403 14:30:05.256422  1385 net.cpp:386] inception_5b/relu_1x1 -> inception_5b/1x1 (in-place)
I0403 14:30:05.256733  1385 net.cpp:141] Setting up inception_5b/relu_1x1
I0403 14:30:05.256760  1385 net.cpp:148] Top shape: 24 384 7 7 (451584)
I0403 14:30:05.256778  1385 net.cpp:156] Memory required for data: 1328854560
I0403 14:30:05.256793  1385 layer_factory.hpp:77] Creating layer inception_5b/3x3_reduce
I0403 14:30:05.256819  1385 net.cpp:91] Creating Layer inception_5b/3x3_reduce
I0403 14:30:05.256836  1385 net.cpp:425] inception_5b/3x3_reduce <- inception_5a/output_inception_5a/output_0_split_1
I0403 14:30:05.256856  1385 net.cpp:399] inception_5b/3x3_reduce -> inception_5b/3x3_reduce
I0403 14:30:05.259541  1385 net.cpp:141] Setting up inception_5b/3x3_reduce
I0403 14:30:05.259577  1385 net.cpp:148] Top shape: 24 192 7 7 (225792)
I0403 14:30:05.259593  1385 net.cpp:156] Memory required for data: 1329757728
I0403 14:30:05.259614  1385 layer_factory.hpp:77] Creating layer inception_5b/relu_3x3_reduce
I0403 14:30:05.259632  1385 net.cpp:91] Creating Layer inception_5b/relu_3x3_reduce
I0403 14:30:05.259649  1385 net.cpp:425] inception_5b/relu_3x3_reduce <- inception_5b/3x3_reduce
I0403 14:30:05.259667  1385 net.cpp:386] inception_5b/relu_3x3_reduce -> inception_5b/3x3_reduce (in-place)
I0403 14:30:05.259867  1385 net.cpp:141] Setting up inception_5b/relu_3x3_reduce
I0403 14:30:05.259894  1385 net.cpp:148] Top shape: 24 192 7 7 (225792)
I0403 14:30:05.259910  1385 net.cpp:156] Memory required for data: 1330660896
I0403 14:30:05.259925  1385 layer_factory.hpp:77] Creating layer inception_5b/3x3
I0403 14:30:05.259948  1385 net.cpp:91] Creating Layer inception_5b/3x3
I0403 14:30:05.259966  1385 net.cpp:425] inception_5b/3x3 <- inception_5b/3x3_reduce
I0403 14:30:05.259989  1385 net.cpp:399] inception_5b/3x3 -> inception_5b/3x3
I0403 14:30:05.266755  1385 net.cpp:141] Setting up inception_5b/3x3
I0403 14:30:05.266790  1385 net.cpp:148] Top shape: 24 384 7 7 (451584)
I0403 14:30:05.266808  1385 net.cpp:156] Memory required for data: 1332467232
I0403 14:30:05.266827  1385 layer_factory.hpp:77] Creating layer inception_5b/relu_3x3
I0403 14:30:05.266846  1385 net.cpp:91] Creating Layer inception_5b/relu_3x3
I0403 14:30:05.266865  1385 net.cpp:425] inception_5b/relu_3x3 <- inception_5b/3x3
I0403 14:30:05.266883  1385 net.cpp:386] inception_5b/relu_3x3 -> inception_5b/3x3 (in-place)
I0403 14:30:05.267187  1385 net.cpp:141] Setting up inception_5b/relu_3x3
I0403 14:30:05.267222  1385 net.cpp:148] Top shape: 24 384 7 7 (451584)
I0403 14:30:05.267241  1385 net.cpp:156] Memory required for data: 1334273568
I0403 14:30:05.267258  1385 layer_factory.hpp:77] Creating layer inception_5b/5x5_reduce
I0403 14:30:05.267298  1385 net.cpp:91] Creating Layer inception_5b/5x5_reduce
I0403 14:30:05.267318  1385 net.cpp:425] inception_5b/5x5_reduce <- inception_5a/output_inception_5a/output_0_split_2
I0403 14:30:05.267338  1385 net.cpp:399] inception_5b/5x5_reduce -> inception_5b/5x5_reduce
I0403 14:30:05.268645  1385 net.cpp:141] Setting up inception_5b/5x5_reduce
I0403 14:30:05.268676  1385 net.cpp:148] Top shape: 24 48 7 7 (56448)
I0403 14:30:05.268693  1385 net.cpp:156] Memory required for data: 1334499360
I0403 14:30:05.268714  1385 layer_factory.hpp:77] Creating layer inception_5b/relu_5x5_reduce
I0403 14:30:05.268733  1385 net.cpp:91] Creating Layer inception_5b/relu_5x5_reduce
I0403 14:30:05.268750  1385 net.cpp:425] inception_5b/relu_5x5_reduce <- inception_5b/5x5_reduce
I0403 14:30:05.268771  1385 net.cpp:386] inception_5b/relu_5x5_reduce -> inception_5b/5x5_reduce (in-place)
I0403 14:30:05.269153  1385 net.cpp:141] Setting up inception_5b/relu_5x5_reduce
I0403 14:30:05.269181  1385 net.cpp:148] Top shape: 24 48 7 7 (56448)
I0403 14:30:05.269197  1385 net.cpp:156] Memory required for data: 1334725152
I0403 14:30:05.269217  1385 layer_factory.hpp:77] Creating layer inception_5b/5x5
I0403 14:30:05.269239  1385 net.cpp:91] Creating Layer inception_5b/5x5
I0403 14:30:05.269259  1385 net.cpp:425] inception_5b/5x5 <- inception_5b/5x5_reduce
I0403 14:30:05.269279  1385 net.cpp:399] inception_5b/5x5 -> inception_5b/5x5
I0403 14:30:05.271389  1385 net.cpp:141] Setting up inception_5b/5x5
I0403 14:30:05.271420  1385 net.cpp:148] Top shape: 24 128 7 7 (150528)
I0403 14:30:05.271435  1385 net.cpp:156] Memory required for data: 1335327264
I0403 14:30:05.271455  1385 layer_factory.hpp:77] Creating layer inception_5b/relu_5x5
I0403 14:30:05.271473  1385 net.cpp:91] Creating Layer inception_5b/relu_5x5
I0403 14:30:05.271492  1385 net.cpp:425] inception_5b/relu_5x5 <- inception_5b/5x5
I0403 14:30:05.271512  1385 net.cpp:386] inception_5b/relu_5x5 -> inception_5b/5x5 (in-place)
I0403 14:30:05.271714  1385 net.cpp:141] Setting up inception_5b/relu_5x5
I0403 14:30:05.271741  1385 net.cpp:148] Top shape: 24 128 7 7 (150528)
I0403 14:30:05.271757  1385 net.cpp:156] Memory required for data: 1335929376
I0403 14:30:05.271772  1385 layer_factory.hpp:77] Creating layer inception_5b/pool
I0403 14:30:05.271793  1385 net.cpp:91] Creating Layer inception_5b/pool
I0403 14:30:05.271812  1385 net.cpp:425] inception_5b/pool <- inception_5a/output_inception_5a/output_0_split_3
I0403 14:30:05.271831  1385 net.cpp:399] inception_5b/pool -> inception_5b/pool
I0403 14:30:05.271908  1385 net.cpp:141] Setting up inception_5b/pool
I0403 14:30:05.271932  1385 net.cpp:148] Top shape: 24 832 7 7 (978432)
I0403 14:30:05.271947  1385 net.cpp:156] Memory required for data: 1339843104
I0403 14:30:05.271961  1385 layer_factory.hpp:77] Creating layer inception_5b/pool_proj
I0403 14:30:05.271983  1385 net.cpp:91] Creating Layer inception_5b/pool_proj
I0403 14:30:05.272001  1385 net.cpp:425] inception_5b/pool_proj <- inception_5b/pool
I0403 14:30:05.272025  1385 net.cpp:399] inception_5b/pool_proj -> inception_5b/pool_proj
I0403 14:30:05.274377  1385 net.cpp:141] Setting up inception_5b/pool_proj
I0403 14:30:05.274411  1385 net.cpp:148] Top shape: 24 128 7 7 (150528)
I0403 14:30:05.274428  1385 net.cpp:156] Memory required for data: 1340445216
I0403 14:30:05.274449  1385 layer_factory.hpp:77] Creating layer inception_5b/relu_pool_proj
I0403 14:30:05.274468  1385 net.cpp:91] Creating Layer inception_5b/relu_pool_proj
I0403 14:30:05.274487  1385 net.cpp:425] inception_5b/relu_pool_proj <- inception_5b/pool_proj
I0403 14:30:05.274507  1385 net.cpp:386] inception_5b/relu_pool_proj -> inception_5b/pool_proj (in-place)
I0403 14:30:05.274811  1385 net.cpp:141] Setting up inception_5b/relu_pool_proj
I0403 14:30:05.274840  1385 net.cpp:148] Top shape: 24 128 7 7 (150528)
I0403 14:30:05.274857  1385 net.cpp:156] Memory required for data: 1341047328
I0403 14:30:05.274871  1385 layer_factory.hpp:77] Creating layer inception_5b/output
I0403 14:30:05.274889  1385 net.cpp:91] Creating Layer inception_5b/output
I0403 14:30:05.274920  1385 net.cpp:425] inception_5b/output <- inception_5b/1x1
I0403 14:30:05.274938  1385 net.cpp:425] inception_5b/output <- inception_5b/3x3
I0403 14:30:05.274955  1385 net.cpp:425] inception_5b/output <- inception_5b/5x5
I0403 14:30:05.274972  1385 net.cpp:425] inception_5b/output <- inception_5b/pool_proj
I0403 14:30:05.274991  1385 net.cpp:399] inception_5b/output -> inception_5b/output
I0403 14:30:05.275044  1385 net.cpp:141] Setting up inception_5b/output
I0403 14:30:05.275068  1385 net.cpp:148] Top shape: 24 1024 7 7 (1204224)
I0403 14:30:05.275084  1385 net.cpp:156] Memory required for data: 1345864224
I0403 14:30:05.275099  1385 layer_factory.hpp:77] Creating layer pool5/7x7_s1
I0403 14:30:05.275120  1385 net.cpp:91] Creating Layer pool5/7x7_s1
I0403 14:30:05.275136  1385 net.cpp:425] pool5/7x7_s1 <- inception_5b/output
I0403 14:30:05.275156  1385 net.cpp:399] pool5/7x7_s1 -> pool5/7x7_s1
I0403 14:30:05.275382  1385 net.cpp:141] Setting up pool5/7x7_s1
I0403 14:30:05.275413  1385 net.cpp:148] Top shape: 24 1024 1 1 (24576)
I0403 14:30:05.275429  1385 net.cpp:156] Memory required for data: 1345962528
I0403 14:30:05.275444  1385 layer_factory.hpp:77] Creating layer pool5/drop_7x7_s1
I0403 14:30:05.275462  1385 net.cpp:91] Creating Layer pool5/drop_7x7_s1
I0403 14:30:05.275478  1385 net.cpp:425] pool5/drop_7x7_s1 <- pool5/7x7_s1
I0403 14:30:05.275498  1385 net.cpp:386] pool5/drop_7x7_s1 -> pool5/7x7_s1 (in-place)
I0403 14:30:05.275550  1385 net.cpp:141] Setting up pool5/drop_7x7_s1
I0403 14:30:05.275573  1385 net.cpp:148] Top shape: 24 1024 1 1 (24576)
I0403 14:30:05.275588  1385 net.cpp:156] Memory required for data: 1346060832
I0403 14:30:05.275602  1385 layer_factory.hpp:77] Creating layer loss3/classifier_plantvillage
I0403 14:30:05.275624  1385 net.cpp:91] Creating Layer loss3/classifier_plantvillage
I0403 14:30:05.275642  1385 net.cpp:425] loss3/classifier_plantvillage <- pool5/7x7_s1
I0403 14:30:05.275665  1385 net.cpp:399] loss3/classifier_plantvillage -> loss3/classifier_plantvillage
I0403 14:30:05.276098  1385 net.cpp:141] Setting up loss3/classifier_plantvillage
I0403 14:30:05.276124  1385 net.cpp:148] Top shape: 24 38 (912)
I0403 14:30:05.276139  1385 net.cpp:156] Memory required for data: 1346064480
I0403 14:30:05.276157  1385 layer_factory.hpp:77] Creating layer loss3/classifier_plantvillage_loss3/classifier_plantvillage_0_split
I0403 14:30:05.276180  1385 net.cpp:91] Creating Layer loss3/classifier_plantvillage_loss3/classifier_plantvillage_0_split
I0403 14:30:05.276197  1385 net.cpp:425] loss3/classifier_plantvillage_loss3/classifier_plantvillage_0_split <- loss3/classifier_plantvillage
I0403 14:30:05.276222  1385 net.cpp:399] loss3/classifier_plantvillage_loss3/classifier_plantvillage_0_split -> loss3/classifier_plantvillage_loss3/classifier_plantvillage_0_split_0
I0403 14:30:05.276244  1385 net.cpp:399] loss3/classifier_plantvillage_loss3/classifier_plantvillage_0_split -> loss3/classifier_plantvillage_loss3/classifier_plantvillage_0_split_1
I0403 14:30:05.276265  1385 net.cpp:399] loss3/classifier_plantvillage_loss3/classifier_plantvillage_0_split -> loss3/classifier_plantvillage_loss3/classifier_plantvillage_0_split_2
I0403 14:30:05.276285  1385 net.cpp:399] loss3/classifier_plantvillage_loss3/classifier_plantvillage_0_split -> loss3/classifier_plantvillage_loss3/classifier_plantvillage_0_split_3
I0403 14:30:05.276388  1385 net.cpp:141] Setting up loss3/classifier_plantvillage_loss3/classifier_plantvillage_0_split
I0403 14:30:05.276412  1385 net.cpp:148] Top shape: 24 38 (912)
I0403 14:30:05.276428  1385 net.cpp:148] Top shape: 24 38 (912)
I0403 14:30:05.276444  1385 net.cpp:148] Top shape: 24 38 (912)
I0403 14:30:05.276460  1385 net.cpp:148] Top shape: 24 38 (912)
I0403 14:30:05.276473  1385 net.cpp:156] Memory required for data: 1346079072
I0403 14:30:05.276489  1385 layer_factory.hpp:77] Creating layer loss1/loss
I0403 14:30:05.276510  1385 net.cpp:91] Creating Layer loss1/loss
I0403 14:30:05.276528  1385 net.cpp:425] loss1/loss <- loss1/classifier_plantvillage_loss1/classifier_plantvillage_0_split_0
I0403 14:30:05.276559  1385 net.cpp:425] loss1/loss <- label_data_1_split_0
…
